#loc1 = loc("p0.1")
#loc2 = loc("p1.6")
#loc3 = loc("p2.15")
#loc4 = loc("p3.20")
#loc5 = loc("p4.65")
#loc6 = loc("p5.79")
#loc7 = loc("p6.232")
#loc8 = loc("p7.240")
#loc9 = loc("p8.245")
#loc10 = loc("p9.255")
#loc11 = loc("p10.260")
#loc12 = loc("p11.265")
#loc13 = loc("p12.275")
#loc14 = loc("p13.280")
#loc15 = loc("p14.285")
#loc16 = loc("p15.358")
#loc17 = loc("p16.363")
#loc18 = loc("p17.372")
#loc19 = loc("p18.511")
#loc20 = loc("p19.578")
#loc21 = loc("p20.730")
#loc22 = loc("p21.738")
#loc23 = loc("p22.743")
#loc24 = loc("p23.754")
#loc25 = loc("p24.759")
#loc26 = loc("p25.764")
#loc27 = loc("p26.774")
#loc28 = loc("p27.779")
#loc29 = loc("p28.784")
#loc30 = loc("p29.842")
#loc31 = loc("p30.847")
#loc32 = loc("p31.856")
#loc33 = loc("p32.995")
#loc34 = loc("p33.1013")
#loc35 = loc("p34.1018")
#loc36 = loc("p35.1189")
#loc37 = loc("p36.1208")
#loc38 = loc("p37.1212")
#loc39 = loc("p38.1220")
module @SyncTensorsGraph.1295 attributes {mhlo.cross_program_prefetches = [], mhlo.input_output_alias = [], mhlo.is_dynamic = false, mhlo.use_auto_spmd_partitioning = false, ttcore.meshes = #ttcore.meshes<[<"mesh" = 4x16>]>} {
  ttcore.device_module {
    builtin.module @SyncTensorsGraph.1295 attributes {mhlo.cross_program_prefetches = [], mhlo.input_output_alias = [], mhlo.is_dynamic = false, mhlo.use_auto_spmd_partitioning = false, ttcore.meshes = #ttcore.meshes<[<"mesh" = 4x16>]>} {
      func.func @main(%arg0: tensor<576x7168xbf16> {ttcore.argument_type = #ttcore.argument_type<parameter>, ttcore.local_shape = #ttcore<local_shape local_shape = tensor<576x448xbf16>>, ttcore.shard_status = #ttcore.shard_status<presharded>, ttir.name = "model.layers.0.self_attn.kv_a_proj_with_mqa.weight"} loc("p0.1"), %arg1: tensor<7168xbf16> {ttcore.argument_type = #ttcore.argument_type<parameter>, ttcore.local_shape = #ttcore<local_shape local_shape = tensor<448xbf16>>, ttcore.shard_status = #ttcore.shard_status<presharded>, ttir.name = "model.layers.0.input_layernorm.weight"} loc("p1.6"), %arg2: tensor<16x1xi64> {ttcore.argument_type = #ttcore.argument_type<input>, ttcore.local_shape = #ttcore<local_shape local_shape = tensor<4x1xi64>>, ttcore.shard_status = #ttcore.shard_status<presharded>, ttir.name = "args_0"} loc("p2.15"), %arg3: tensor<163840x7168xbf16> {ttcore.argument_type = #ttcore.argument_type<parameter>, ttcore.local_shape = #ttcore<local_shape local_shape = tensor<163840x448xbf16>>, ttcore.shard_status = #ttcore.shard_status<presharded>, ttir.name = "model.embed_tokens.weight"} loc("p3.20"), %arg4: tensor<1xi64> {ttcore.argument_type = #ttcore.argument_type<input>, ttcore.local_shape = #ttcore<local_shape local_shape = tensor<1xi64>>, ttcore.shard_status = #ttcore.shard_status<presharded>, ttir.name = "args_1"} loc("p4.65"), %arg5: tensor<16x1x128x512xbf16> {ttcore.argument_type = #ttcore.argument_type<input>, ttcore.local_shape = #ttcore<local_shape local_shape = tensor<4x1x128x512xbf16>>, ttcore.shard_status = #ttcore.shard_status<presharded>, ttir.name = "L__past_key_values___layers_0_compressed_kv"} loc("p5.79"), %arg6: tensor<16x1x128x64xbf16> {ttcore.argument_type = #ttcore.argument_type<input>, ttcore.local_shape = #ttcore<local_shape local_shape = tensor<4x1x128x64xbf16>>, ttcore.shard_status = #ttcore.shard_status<presharded>, ttir.name = "L__past_key_values___layers_0_k_pe"} loc("p6.232"), %arg7: tensor<576x7168xbf16> {ttcore.argument_type = #ttcore.argument_type<parameter>, ttcore.local_shape = #ttcore<local_shape local_shape = tensor<576x448xbf16>>, ttcore.shard_status = #ttcore.shard_status<presharded>, ttir.name = "model.layers.1.self_attn.kv_a_proj_with_mqa.weight"} loc("p7.240"), %arg8: tensor<7168xbf16> {ttcore.argument_type = #ttcore.argument_type<parameter>, ttcore.local_shape = #ttcore<local_shape local_shape = tensor<448xbf16>>, ttcore.shard_status = #ttcore.shard_status<presharded>, ttir.name = "model.layers.1.input_layernorm.weight"} loc("p8.245"), %arg9: tensor<7168x18432xbf16> {ttcore.argument_type = #ttcore.argument_type<parameter>, ttcore.local_shape = #ttcore<local_shape local_shape = tensor<448x4608xbf16>>, ttcore.shard_status = #ttcore.shard_status<presharded>, ttir.name = "model.layers.0.mlp.down_proj.weight"} loc("p9.255"), %arg10: tensor<18432x7168xbf16> {ttcore.argument_type = #ttcore.argument_type<parameter>, ttcore.local_shape = #ttcore<local_shape local_shape = tensor<4608x448xbf16>>, ttcore.shard_status = #ttcore.shard_status<presharded>, ttir.name = "model.layers.0.mlp.up_proj.weight"} loc("p10.260"), %arg11: tensor<7168xbf16> {ttcore.argument_type = #ttcore.argument_type<parameter>, ttcore.local_shape = #ttcore<local_shape local_shape = tensor<448xbf16>>, ttcore.shard_status = #ttcore.shard_status<presharded>, ttir.name = "model.layers.0.post_attention_layernorm.weight"} loc("p11.265"), %arg12: tensor<7168x8192xbf16> {ttcore.argument_type = #ttcore.argument_type<parameter>, ttcore.local_shape = #ttcore<local_shape local_shape = tensor<7168x512xbf16>>, ttcore.shard_status = #ttcore.shard_status<presharded>, ttir.name = "model.layers.0.self_attn.o_proj.weight"} loc("p12.275"), %arg13: tensor<16384x512xbf16> {ttcore.argument_type = #ttcore.argument_type<parameter>, ttcore.local_shape = #ttcore<local_shape local_shape = tensor<1024x512xbf16>>, ttcore.shard_status = #ttcore.shard_status<presharded>, ttir.name = "model.layers.0.self_attn.kv_b_proj.weight"} loc("p13.280"), %arg14: tensor<512xbf16> {ttcore.argument_type = #ttcore.argument_type<parameter>, ttcore.local_shape = #ttcore<local_shape local_shape = tensor<512xbf16>>, ttcore.shard_status = #ttcore.shard_status<presharded>, ttir.name = "model.layers.0.self_attn.kv_a_layernorm.weight"} loc("p14.285"), %arg15: tensor<12288x1536xbf16> {ttcore.argument_type = #ttcore.argument_type<parameter>, ttcore.local_shape = #ttcore<local_shape local_shape = tensor<768x1536xbf16>>, ttcore.shard_status = #ttcore.shard_status<presharded>, ttir.name = "model.layers.0.self_attn.q_b_proj.weight"} loc("p15.358"), %arg16: tensor<1536xbf16> {ttcore.argument_type = #ttcore.argument_type<parameter>, ttcore.local_shape = #ttcore<local_shape local_shape = tensor<1536xbf16>>, ttcore.shard_status = #ttcore.shard_status<presharded>, ttir.name = "model.layers.0.self_attn.q_a_layernorm.weight"} loc("p16.363"), %arg17: tensor<1536x7168xbf16> {ttcore.argument_type = #ttcore.argument_type<parameter>, ttcore.local_shape = #ttcore<local_shape local_shape = tensor<1536x448xbf16>>, ttcore.shard_status = #ttcore.shard_status<presharded>, ttir.name = "model.layers.0.self_attn.q_a_proj.weight"} loc("p17.372"), %arg18: tensor<18432x7168xbf16> {ttcore.argument_type = #ttcore.argument_type<parameter>, ttcore.local_shape = #ttcore<local_shape local_shape = tensor<4608x448xbf16>>, ttcore.shard_status = #ttcore.shard_status<presharded>, ttir.name = "model.layers.0.mlp.gate_proj.weight"} loc("p18.511"), %arg19: tensor<16x1x128x512xbf16> {ttcore.argument_type = #ttcore.argument_type<input>, ttcore.local_shape = #ttcore<local_shape local_shape = tensor<4x1x128x512xbf16>>, ttcore.shard_status = #ttcore.shard_status<presharded>, ttir.name = "L__past_key_values___layers_1_compressed_kv"} loc("p19.578"), %arg20: tensor<16x1x128x64xbf16> {ttcore.argument_type = #ttcore.argument_type<input>, ttcore.local_shape = #ttcore<local_shape local_shape = tensor<4x1x128x64xbf16>>, ttcore.shard_status = #ttcore.shard_status<presharded>, ttir.name = "L__past_key_values___layers_1_k_pe"} loc("p20.730"), %arg21: tensor<163840x7168xbf16> {ttcore.argument_type = #ttcore.argument_type<parameter>, ttcore.local_shape = #ttcore<local_shape local_shape = tensor<40960x448xbf16>>, ttcore.shard_status = #ttcore.shard_status<presharded>, ttir.name = "lm_head.weight"} loc("p21.738"), %arg22: tensor<7168xbf16> {ttcore.argument_type = #ttcore.argument_type<parameter>, ttcore.local_shape = #ttcore<local_shape local_shape = tensor<448xbf16>>, ttcore.shard_status = #ttcore.shard_status<presharded>, ttir.name = "model.norm.weight"} loc("p22.743"), %arg23: tensor<7168x2048xbf16> {ttcore.argument_type = #ttcore.argument_type<parameter>, ttcore.local_shape = #ttcore<local_shape local_shape = tensor<448x2048xbf16>>, ttcore.shard_status = #ttcore.shard_status<presharded>, ttir.name = "model.layers.1.mlp.shared_experts.down_proj.weight"} loc("p23.754"), %arg24: tensor<2048x7168xbf16> {ttcore.argument_type = #ttcore.argument_type<parameter>, ttcore.local_shape = #ttcore<local_shape local_shape = tensor<2048x448xbf16>>, ttcore.shard_status = #ttcore.shard_status<presharded>, ttir.name = "model.layers.1.mlp.shared_experts.up_proj.weight"} loc("p24.759"), %arg25: tensor<7168xbf16> {ttcore.argument_type = #ttcore.argument_type<parameter>, ttcore.local_shape = #ttcore<local_shape local_shape = tensor<448xbf16>>, ttcore.shard_status = #ttcore.shard_status<presharded>, ttir.name = "model.layers.1.post_attention_layernorm.weight"} loc("p25.764"), %arg26: tensor<7168x8192xbf16> {ttcore.argument_type = #ttcore.argument_type<parameter>, ttcore.local_shape = #ttcore<local_shape local_shape = tensor<7168x512xbf16>>, ttcore.shard_status = #ttcore.shard_status<presharded>, ttir.name = "model.layers.1.self_attn.o_proj.weight"} loc("p26.774"), %arg27: tensor<16384x512xbf16> {ttcore.argument_type = #ttcore.argument_type<parameter>, ttcore.local_shape = #ttcore<local_shape local_shape = tensor<1024x512xbf16>>, ttcore.shard_status = #ttcore.shard_status<presharded>, ttir.name = "model.layers.1.self_attn.kv_b_proj.weight"} loc("p27.779"), %arg28: tensor<512xbf16> {ttcore.argument_type = #ttcore.argument_type<parameter>, ttcore.local_shape = #ttcore<local_shape local_shape = tensor<512xbf16>>, ttcore.shard_status = #ttcore.shard_status<presharded>, ttir.name = "model.layers.1.self_attn.kv_a_layernorm.weight"} loc("p28.784"), %arg29: tensor<12288x1536xbf16> {ttcore.argument_type = #ttcore.argument_type<parameter>, ttcore.local_shape = #ttcore<local_shape local_shape = tensor<768x1536xbf16>>, ttcore.shard_status = #ttcore.shard_status<presharded>, ttir.name = "model.layers.1.self_attn.q_b_proj.weight"} loc("p29.842"), %arg30: tensor<1536xbf16> {ttcore.argument_type = #ttcore.argument_type<parameter>, ttcore.local_shape = #ttcore<local_shape local_shape = tensor<1536xbf16>>, ttcore.shard_status = #ttcore.shard_status<presharded>, ttir.name = "model.layers.1.self_attn.q_a_layernorm.weight"} loc("p30.847"), %arg31: tensor<1536x7168xbf16> {ttcore.argument_type = #ttcore.argument_type<parameter>, ttcore.local_shape = #ttcore<local_shape local_shape = tensor<1536x448xbf16>>, ttcore.shard_status = #ttcore.shard_status<presharded>, ttir.name = "model.layers.1.self_attn.q_a_proj.weight"} loc("p31.856"), %arg32: tensor<2048x7168xbf16> {ttcore.argument_type = #ttcore.argument_type<parameter>, ttcore.local_shape = #ttcore<local_shape local_shape = tensor<2048x448xbf16>>, ttcore.shard_status = #ttcore.shard_status<presharded>, ttir.name = "model.layers.1.mlp.shared_experts.gate_proj.weight"} loc("p32.995"), %arg33: tensor<384xbf16> {ttcore.argument_type = #ttcore.argument_type<parameter>, ttcore.local_shape = #ttcore<local_shape local_shape = tensor<384xbf16>>, ttcore.shard_status = #ttcore.shard_status<presharded>, ttir.name = "model.layers.1.mlp.mlp.router.gate.e_score_correction_bias"} loc("p33.1013"), %arg34: tensor<384x7168xbf16> {ttcore.argument_type = #ttcore.argument_type<parameter>, ttcore.local_shape = #ttcore<local_shape local_shape = tensor<384x448xbf16>>, ttcore.shard_status = #ttcore.shard_status<presharded>, ttir.name = "model.layers.1.mlp.mlp.router.gate.weight"} loc("p34.1018"), %arg35: tensor<1x1x384x64xi64> {ttcore.argument_type = #ttcore.argument_type<constant>, ttcore.local_shape = #ttcore<local_shape local_shape = tensor<1x1x384x64xi64>>, ttcore.shard_status = #ttcore.shard_status<presharded>, ttir.name = "model.layers.1.mlp.mlp.expert_mapping"} loc("p35.1189"), %arg36: tensor<384x2048x7168xbf16> {ttcore.argument_type = #ttcore.argument_type<parameter>, ttcore.local_shape = #ttcore<local_shape local_shape = tensor<6x2048x7168xbf16>>, ttcore.shard_status = #ttcore.shard_status<presharded>, ttir.name = "model.layers.1.mlp.mlp.experts.down_proj"} loc("p36.1208"), %arg37: tensor<384x7168x2048xbf16> {ttcore.argument_type = #ttcore.argument_type<parameter>, ttcore.local_shape = #ttcore<local_shape local_shape = tensor<6x7168x2048xbf16>>, ttcore.shard_status = #ttcore.shard_status<presharded>, ttir.name = "model.layers.1.mlp.mlp.experts.up_proj"} loc("p37.1212"), %arg38: tensor<384x7168x2048xbf16> {ttcore.argument_type = #ttcore.argument_type<parameter>, ttcore.local_shape = #ttcore<local_shape local_shape = tensor<6x7168x2048xbf16>>, ttcore.shard_status = #ttcore.shard_status<presharded>, ttir.name = "model.layers.1.mlp.mlp.experts.gate_proj"} loc("p38.1220")) -> (tensor<16x1x128x512xbf16> {ttcore.local_shape = #ttcore<local_shape local_shape = tensor<4x1x128x512xbf16>>, ttcore.shard_status = #ttcore.shard_status<presharded>}, tensor<16x1x128x64xbf16> {ttcore.local_shape = #ttcore<local_shape local_shape = tensor<4x1x128x64xbf16>>, ttcore.shard_status = #ttcore.shard_status<presharded>}, tensor<16x1x128x512xbf16> {ttcore.local_shape = #ttcore<local_shape local_shape = tensor<4x1x128x512xbf16>>, ttcore.shard_status = #ttcore.shard_status<presharded>}, tensor<16x1x128x64xbf16> {ttcore.local_shape = #ttcore<local_shape local_shape = tensor<4x1x128x64xbf16>>, ttcore.shard_status = #ttcore.shard_status<presharded>}, tensor<32xf64> {ttcore.local_shape = #ttcore<local_shape local_shape = tensor<32xf64>>, ttcore.shard_status = #ttcore.shard_status<presharded>}, tensor<32xf64> {ttcore.local_shape = #ttcore<local_shape local_shape = tensor<32xf64>>, ttcore.shard_status = #ttcore.shard_status<presharded>}, tensor<128x64xbf16> {ttcore.local_shape = #ttcore<local_shape local_shape = tensor<128x64xbf16>>, ttcore.shard_status = #ttcore.shard_status<presharded>}, tensor<128x64xbf16> {ttcore.local_shape = #ttcore<local_shape local_shape = tensor<128x64xbf16>>, ttcore.shard_status = #ttcore.shard_status<presharded>}, tensor<128x64xbf16> {ttcore.local_shape = #ttcore<local_shape local_shape = tensor<128x64xbf16>>, ttcore.shard_status = #ttcore.shard_status<presharded>}, tensor<128x64xbf16> {ttcore.local_shape = #ttcore<local_shape local_shape = tensor<128x64xbf16>>, ttcore.shard_status = #ttcore.shard_status<presharded>}, tensor<16x1x163840xf32> {ttcore.local_shape = #ttcore<local_shape local_shape = tensor<16x1x40960xf32>>, ttcore.shard_status = #ttcore.shard_status<presharded>}) {
        %0 = "ttir.mesh_shard"(%arg0) <{shard_dims = array<i64: -1, 1>, shard_direction = #ttcore.shard_direction<full_to_shard>, shard_shape = array<i64: 1, 16>, shard_type = #ttcore.shard_type<identity>}> : (tensor<576x7168xbf16>) -> tensor<576x448xbf16> loc(#loc)
        %1 = "ttir.mesh_shard"(%arg1) <{shard_dims = array<i64: -1, 0>, shard_direction = #ttcore.shard_direction<full_to_shard>, shard_shape = array<i64: 16>, shard_type = #ttcore.shard_type<identity>}> : (tensor<7168xbf16>) -> tensor<448xbf16> loc(#loc)
        %2 = "ttir.mesh_shard"(%arg2) <{shard_dims = array<i64: 0, -1>, shard_direction = #ttcore.shard_direction<full_to_shard>, shard_shape = array<i64: 4, 1>, shard_type = #ttcore.shard_type<identity>}> : (tensor<16x1xi64>) -> tensor<4x1xi64> loc(#loc)
        %3 = "ttir.mesh_shard"(%arg3) <{shard_dims = array<i64: -1, 1>, shard_direction = #ttcore.shard_direction<full_to_shard>, shard_shape = array<i64: 1, 16>, shard_type = #ttcore.shard_type<identity>}> : (tensor<163840x7168xbf16>) -> tensor<163840x448xbf16> loc(#loc)
        %4 = "ttir.mesh_shard"(%arg4) <{shard_dims = array<i64: -1>, shard_direction = #ttcore.shard_direction<full_to_shard>, shard_shape = array<i64: 1>, shard_type = #ttcore.shard_type<identity>}> : (tensor<1xi64>) -> tensor<1xi64> loc(#loc)
        %5 = "ttir.mesh_shard"(%arg5) <{shard_dims = array<i64: 0, -1>, shard_direction = #ttcore.shard_direction<full_to_shard>, shard_shape = array<i64: 4, 1, 1, 1>, shard_type = #ttcore.shard_type<identity>}> : (tensor<16x1x128x512xbf16>) -> tensor<4x1x128x512xbf16> loc(#loc)
        %6 = "ttir.mesh_shard"(%arg6) <{shard_dims = array<i64: 0, -1>, shard_direction = #ttcore.shard_direction<full_to_shard>, shard_shape = array<i64: 4, 1, 1, 1>, shard_type = #ttcore.shard_type<identity>}> : (tensor<16x1x128x64xbf16>) -> tensor<4x1x128x64xbf16> loc(#loc)
        %7 = "ttir.mesh_shard"(%arg7) <{shard_dims = array<i64: -1, 1>, shard_direction = #ttcore.shard_direction<full_to_shard>, shard_shape = array<i64: 1, 16>, shard_type = #ttcore.shard_type<identity>}> : (tensor<576x7168xbf16>) -> tensor<576x448xbf16> loc(#loc)
        %8 = "ttir.mesh_shard"(%arg8) <{shard_dims = array<i64: -1, 0>, shard_direction = #ttcore.shard_direction<full_to_shard>, shard_shape = array<i64: 16>, shard_type = #ttcore.shard_type<identity>}> : (tensor<7168xbf16>) -> tensor<448xbf16> loc(#loc)
        %9 = "ttir.mesh_shard"(%arg9) <{shard_dims = array<i64: 1, 0>, shard_direction = #ttcore.shard_direction<full_to_shard>, shard_shape = array<i64: 16, 4>, shard_type = #ttcore.shard_type<identity>}> : (tensor<7168x18432xbf16>) -> tensor<448x4608xbf16> loc(#loc)
        %10 = "ttir.mesh_shard"(%arg10) <{shard_dims = array<i64: 0, 1>, shard_direction = #ttcore.shard_direction<full_to_shard>, shard_shape = array<i64: 4, 16>, shard_type = #ttcore.shard_type<identity>}> : (tensor<18432x7168xbf16>) -> tensor<4608x448xbf16> loc(#loc)
        %11 = "ttir.mesh_shard"(%arg11) <{shard_dims = array<i64: -1, 0>, shard_direction = #ttcore.shard_direction<full_to_shard>, shard_shape = array<i64: 16>, shard_type = #ttcore.shard_type<identity>}> : (tensor<7168xbf16>) -> tensor<448xbf16> loc(#loc)
        %12 = "ttir.mesh_shard"(%arg12) <{shard_dims = array<i64: -1, 1>, shard_direction = #ttcore.shard_direction<full_to_shard>, shard_shape = array<i64: 1, 16>, shard_type = #ttcore.shard_type<identity>}> : (tensor<7168x8192xbf16>) -> tensor<7168x512xbf16> loc(#loc)
        %13 = "ttir.mesh_shard"(%arg13) <{shard_dims = array<i64: -1, 0>, shard_direction = #ttcore.shard_direction<full_to_shard>, shard_shape = array<i64: 16, 1>, shard_type = #ttcore.shard_type<identity>}> : (tensor<16384x512xbf16>) -> tensor<1024x512xbf16> loc(#loc)
        %14 = "ttir.mesh_shard"(%arg14) <{shard_dims = array<i64: -1>, shard_direction = #ttcore.shard_direction<full_to_shard>, shard_shape = array<i64: 1>, shard_type = #ttcore.shard_type<identity>}> : (tensor<512xbf16>) -> tensor<512xbf16> loc(#loc)
        %15 = "ttir.mesh_shard"(%arg15) <{shard_dims = array<i64: -1, 0>, shard_direction = #ttcore.shard_direction<full_to_shard>, shard_shape = array<i64: 16, 1>, shard_type = #ttcore.shard_type<identity>}> : (tensor<12288x1536xbf16>) -> tensor<768x1536xbf16> loc(#loc)
        %16 = "ttir.mesh_shard"(%arg16) <{shard_dims = array<i64: -1>, shard_direction = #ttcore.shard_direction<full_to_shard>, shard_shape = array<i64: 1>, shard_type = #ttcore.shard_type<identity>}> : (tensor<1536xbf16>) -> tensor<1536xbf16> loc(#loc)
        %17 = "ttir.mesh_shard"(%arg17) <{shard_dims = array<i64: -1, 1>, shard_direction = #ttcore.shard_direction<full_to_shard>, shard_shape = array<i64: 1, 16>, shard_type = #ttcore.shard_type<identity>}> : (tensor<1536x7168xbf16>) -> tensor<1536x448xbf16> loc(#loc)
        %18 = "ttir.mesh_shard"(%arg18) <{shard_dims = array<i64: 0, 1>, shard_direction = #ttcore.shard_direction<full_to_shard>, shard_shape = array<i64: 4, 16>, shard_type = #ttcore.shard_type<identity>}> : (tensor<18432x7168xbf16>) -> tensor<4608x448xbf16> loc(#loc)
        %19 = "ttir.mesh_shard"(%arg19) <{shard_dims = array<i64: 0, -1>, shard_direction = #ttcore.shard_direction<full_to_shard>, shard_shape = array<i64: 4, 1, 1, 1>, shard_type = #ttcore.shard_type<identity>}> : (tensor<16x1x128x512xbf16>) -> tensor<4x1x128x512xbf16> loc(#loc)
        %20 = "ttir.mesh_shard"(%arg20) <{shard_dims = array<i64: 0, -1>, shard_direction = #ttcore.shard_direction<full_to_shard>, shard_shape = array<i64: 4, 1, 1, 1>, shard_type = #ttcore.shard_type<identity>}> : (tensor<16x1x128x64xbf16>) -> tensor<4x1x128x64xbf16> loc(#loc)
        %21 = "ttir.mesh_shard"(%arg21) <{shard_dims = array<i64: 0, 1>, shard_direction = #ttcore.shard_direction<full_to_shard>, shard_shape = array<i64: 4, 16>, shard_type = #ttcore.shard_type<identity>}> : (tensor<163840x7168xbf16>) -> tensor<40960x448xbf16> loc(#loc)
        %22 = "ttir.mesh_shard"(%arg22) <{shard_dims = array<i64: -1, 0>, shard_direction = #ttcore.shard_direction<full_to_shard>, shard_shape = array<i64: 16>, shard_type = #ttcore.shard_type<identity>}> : (tensor<7168xbf16>) -> tensor<448xbf16> loc(#loc)
        %23 = "ttir.mesh_shard"(%arg23) <{shard_dims = array<i64: -1, 0>, shard_direction = #ttcore.shard_direction<full_to_shard>, shard_shape = array<i64: 16, 1>, shard_type = #ttcore.shard_type<identity>}> : (tensor<7168x2048xbf16>) -> tensor<448x2048xbf16> loc(#loc)
        %24 = "ttir.mesh_shard"(%arg24) <{shard_dims = array<i64: -1, 1>, shard_direction = #ttcore.shard_direction<full_to_shard>, shard_shape = array<i64: 1, 16>, shard_type = #ttcore.shard_type<identity>}> : (tensor<2048x7168xbf16>) -> tensor<2048x448xbf16> loc(#loc)
        %25 = "ttir.mesh_shard"(%arg25) <{shard_dims = array<i64: -1, 0>, shard_direction = #ttcore.shard_direction<full_to_shard>, shard_shape = array<i64: 16>, shard_type = #ttcore.shard_type<identity>}> : (tensor<7168xbf16>) -> tensor<448xbf16> loc(#loc)
        %26 = "ttir.mesh_shard"(%arg26) <{shard_dims = array<i64: -1, 1>, shard_direction = #ttcore.shard_direction<full_to_shard>, shard_shape = array<i64: 1, 16>, shard_type = #ttcore.shard_type<identity>}> : (tensor<7168x8192xbf16>) -> tensor<7168x512xbf16> loc(#loc)
        %27 = "ttir.mesh_shard"(%arg27) <{shard_dims = array<i64: -1, 0>, shard_direction = #ttcore.shard_direction<full_to_shard>, shard_shape = array<i64: 16, 1>, shard_type = #ttcore.shard_type<identity>}> : (tensor<16384x512xbf16>) -> tensor<1024x512xbf16> loc(#loc)
        %28 = "ttir.mesh_shard"(%arg28) <{shard_dims = array<i64: -1>, shard_direction = #ttcore.shard_direction<full_to_shard>, shard_shape = array<i64: 1>, shard_type = #ttcore.shard_type<identity>}> : (tensor<512xbf16>) -> tensor<512xbf16> loc(#loc)
        %29 = "ttir.mesh_shard"(%arg29) <{shard_dims = array<i64: -1, 0>, shard_direction = #ttcore.shard_direction<full_to_shard>, shard_shape = array<i64: 16, 1>, shard_type = #ttcore.shard_type<identity>}> : (tensor<12288x1536xbf16>) -> tensor<768x1536xbf16> loc(#loc)
        %30 = "ttir.mesh_shard"(%arg30) <{shard_dims = array<i64: -1>, shard_direction = #ttcore.shard_direction<full_to_shard>, shard_shape = array<i64: 1>, shard_type = #ttcore.shard_type<identity>}> : (tensor<1536xbf16>) -> tensor<1536xbf16> loc(#loc)
        %31 = "ttir.mesh_shard"(%arg31) <{shard_dims = array<i64: -1, 1>, shard_direction = #ttcore.shard_direction<full_to_shard>, shard_shape = array<i64: 1, 16>, shard_type = #ttcore.shard_type<identity>}> : (tensor<1536x7168xbf16>) -> tensor<1536x448xbf16> loc(#loc)
        %32 = "ttir.mesh_shard"(%arg32) <{shard_dims = array<i64: -1, 1>, shard_direction = #ttcore.shard_direction<full_to_shard>, shard_shape = array<i64: 1, 16>, shard_type = #ttcore.shard_type<identity>}> : (tensor<2048x7168xbf16>) -> tensor<2048x448xbf16> loc(#loc)
        %33 = "ttir.mesh_shard"(%arg33) <{shard_dims = array<i64: -1>, shard_direction = #ttcore.shard_direction<full_to_shard>, shard_shape = array<i64: 1>, shard_type = #ttcore.shard_type<identity>}> : (tensor<384xbf16>) -> tensor<384xbf16> loc(#loc)
        %34 = "ttir.mesh_shard"(%arg34) <{shard_dims = array<i64: -1, 1>, shard_direction = #ttcore.shard_direction<full_to_shard>, shard_shape = array<i64: 1, 16>, shard_type = #ttcore.shard_type<identity>}> : (tensor<384x7168xbf16>) -> tensor<384x448xbf16> loc(#loc)
        %35 = "ttir.mesh_shard"(%arg35) <{shard_dims = array<i64: -1>, shard_direction = #ttcore.shard_direction<full_to_shard>, shard_shape = array<i64: 1>, shard_type = #ttcore.shard_type<identity>}> : (tensor<1x1x384x64xi64>) -> tensor<1x1x384x64xi64> loc(#loc)
        %36 = "ttir.mesh_shard"(%arg36) <{shard_dims = array<i64: 0, 0>, shard_direction = #ttcore.shard_direction<full_to_shard>, shard_shape = array<i64: 64, 1, 1>, shard_type = #ttcore.shard_type<identity>}> : (tensor<384x2048x7168xbf16>) -> tensor<6x2048x7168xbf16> loc(#loc)
        %37 = "ttir.mesh_shard"(%arg37) <{shard_dims = array<i64: 0, 0>, shard_direction = #ttcore.shard_direction<full_to_shard>, shard_shape = array<i64: 64, 1, 1>, shard_type = #ttcore.shard_type<identity>}> : (tensor<384x7168x2048xbf16>) -> tensor<6x7168x2048xbf16> loc(#loc)
        %38 = "ttir.mesh_shard"(%arg38) <{shard_dims = array<i64: 0, 0>, shard_direction = #ttcore.shard_direction<full_to_shard>, shard_shape = array<i64: 64, 1, 1>, shard_type = #ttcore.shard_type<identity>}> : (tensor<384x7168x2048xbf16>) -> tensor<6x7168x2048xbf16> loc(#loc)
        %39 = "ttir.constant"() <{value = dense<0.000000e+00> : tensor<f32>}> : () -> tensor<f32> loc(#loc)
        %40 = "ttir.constant"() <{value = dense<"…"> : tensor<384xi64>}> : () -> tensor<384xi64> loc(#loc)
        %41 = "ttir.constant"() <{value = dense<"…"> : tensor<128xf64>}> : () -> tensor<128xf64> loc(#loc)
        %42 = "ttir.constant"() <{value = dense<1.000000e+00> : tensor<f32>}> : () -> tensor<f32> loc(#loc)
        %43 = "ttir.constant"() <{value = dense<5.000000e+04> : tensor<f32>}> : () -> tensor<f32> loc(#loc)
        %44 = "ttir.constant"() <{value = dense<[… > : tensor<32xf32>}> : () -> tensor<32xf32> loc(#loc)
        %45 = "ttir.constant"() <{value = dense<6.400000e+01> : tensor<f32>}> : () -> tensor<f32> loc(#loc)
        %46 = "ttir.constant"() <{value = dense<[… > : tensor<32xf64>}> : () -> tensor<32xf64> loc(#loc)
        %47 = "ttir.constant"() <{value = dense<[… > : tensor<32xf64>}> : () -> tensor<32xf64> loc(#loc)
        %48 = "ttir.constant"() <{value = dense<0> : tensor<1x1xi64>}> : () -> tensor<1x1xi64> loc(#loc)
        %49 = "ttir.constant"() <{value = dense<128> : tensor<1x1xi64>}> : () -> tensor<1x1xi64> loc(#loc)
        %50 = "ttir.constant"() <{value = dense<0> : tensor<1xi64>}> : () -> tensor<1xi64> loc(#loc)
        %51 = "ttir.constant"() <{value = dense<128> : tensor<1xi64>}> : () -> tensor<1xi64> loc(#loc)
        %52 = "ttir.constant"() <{value = dense<1.445310e-01> : tensor<bf16>}> : () -> tensor<bf16> loc(#loc)
        %53 = "ttir.constant"() <{value = dense<"…"> : tensor<1x128xi64>}> : () -> tensor<1x128xi64> loc(#loc)
        %54 = "ttir.constant"() <{value = dense<-3.389530e+38> : tensor<bf16>}> : () -> tensor<bf16> loc(#loc)
        %55 = "ttir.constant"() <{value = dense<0.000000e+00> : tensor<4x1xf32>}> : () -> tensor<4x1xf32> loc(#loc)
        %56 = "ttir.constant"() <{value = dense<1.000000e+00> : tensor<4x1xf32>}> : () -> tensor<4x1xf32> loc(#loc)
        %57 = "ttir.constant"() <{value = dense<9.99999968E-21> : tensor<4x1xf32>}> : () -> tensor<4x1xf32> loc(#loc)
        %58 = "ttir.constant"() <{value = dense<2.827000e+00> : tensor<f32>}> : () -> tensor<f32> loc(#loc)
        %59 = "ttir.reshape"(%58) <{shape = [1 : i32, 1 : i32]}> : (tensor<f32>) -> tensor<1x1xf32> loc(#loc)
        %60 = "ttir.broadcast"(%59) <{broadcast_dimensions = array<i64: 4, 8>}> : (tensor<1x1xf32>) -> tensor<4x8xf32> loc(#loc)
        %61 = "ttir.reshape"(%54) <{shape = [1 : i32, 1 : i32]}> : (tensor<bf16>) -> tensor<1x1xbf16> loc(#loc)
        %62 = "ttir.broadcast"(%61) <{broadcast_dimensions = array<i64: 1, 128>}> : (tensor<1x1xbf16>) -> tensor<1x128xbf16> loc(#loc)
        %63 = "ttir.reshape"(%52) <{shape = [1 : i32, 1 : i32, 1 : i32, 1 : i32]}> : (tensor<bf16>) -> tensor<1x1x1x1xbf16> loc(#loc)
        %64 = "ttir.broadcast"(%63) <{broadcast_dimensions = array<i64: 4, 4, 1, 128>}> : (tensor<1x1x1x1xbf16>) -> tensor<4x4x1x128xbf16> loc(#loc)
        %65 = "ttir.reshape"(%45) <{shape = [1 : i32]}> : (tensor<f32>) -> tensor<1xf32> loc(#loc)
        %66 = "ttir.broadcast"(%65) <{broadcast_dimensions = array<i64: 32>}> : (tensor<1xf32>) -> tensor<32xf32> loc(#loc)
        %67 = "ttir.reshape"(%43) <{shape = [1 : i32]}> : (tensor<f32>) -> tensor<1xf32> loc(#loc)
        %68 = "ttir.broadcast"(%67) <{broadcast_dimensions = array<i64: 32>}> : (tensor<1xf32>) -> tensor<32xf32> loc(#loc)
        %69 = "ttir.reshape"(%42) <{shape = [1 : i32]}> : (tensor<f32>) -> tensor<1xf32> loc(#loc)
        %70 = "ttir.broadcast"(%69) <{broadcast_dimensions = array<i64: 32>}> : (tensor<1xf32>) -> tensor<32xf32> loc(#loc)
        %71 = "ttir.reshape"(%39) <{shape = [1 : i32, 1 : i32]}> : (tensor<f32>) -> tensor<1x1xf32> loc(#loc)
        %72 = "ttir.broadcast"(%71) <{broadcast_dimensions = array<i64: 4, 384>}> : (tensor<1x1xf32>) -> tensor<4x384xf32> loc(#loc)
        %73 = "ttir.reshape"(%2) <{shape = [4 : i32]}> : (tensor<4x1xi64>) -> tensor<4xi64> loc(#loc364)
        %74 = "ttir.typecast"(%73) <{conservative_folding = false}> : (tensor<4xi64>) -> tensor<4xui32> loc(#loc42)
        %75 = "ttir.permute"(%3) <{permutation = array<i64: 0, 1>}> : (tensor<163840x448xbf16>) -> tensor<163840x448xbf16> loc(#loc365)
        %76 = "ttir.reshape"(%75) <{shape = [163840 : i32, 448 : i32]}> : (tensor<163840x448xbf16>) -> tensor<163840x448xbf16> loc(#loc366)
        %77 = "ttir.reshape"(%74) <{shape = [1 : i32, 4 : i32]}> : (tensor<4xui32>) -> tensor<1x4xui32> loc(#loc367)
        %78 = "ttir.embedding"(%77, %76) : (tensor<1x4xui32>, tensor<163840x448xbf16>) -> tensor<1x4x448xbf16> loc(#loc43)
        %79 = "ttir.reshape"(%78) <{shape = [4 : i32, 448 : i32]}> : (tensor<1x4x448xbf16>) -> tensor<4x448xbf16> loc(#loc368)
        %80 = "ttir.permute"(%79) <{permutation = array<i64: 0, 1>}> : (tensor<4x448xbf16>) -> tensor<4x448xbf16> loc(#loc369)
        %81 = "ttir.reshape"(%80) <{shape = [4 : i32, 1 : i32, 448 : i32]}> : (tensor<4x448xbf16>) -> tensor<4x1x448xbf16> loc(#loc44)
        %82 = "ttir.all_gather"(%81) <{all_gather_dim = 2 : si32, cluster_axis = 1 : ui32}> : (tensor<4x1x448xbf16>) -> tensor<4x1x7168xbf16> loc(#loc44)
        %83 = "ttir.all_gather"(%1) <{all_gather_dim = 0 : si32, cluster_axis = 1 : ui32}> : (tensor<448xbf16>) -> tensor<7168xbf16> loc(#loc45)
        %84 = "ttir.rms_norm"(%82, %83) <{epsilon = 9.99999974E-6 : f32, normalized_shape = array<i64: 7168>, operandSegmentSizes = array<i32: 1, 1, 0>}> : (tensor<4x1x7168xbf16>, tensor<7168xbf16>) -> tensor<4x1x7168xbf16> loc(#loc46)
        %85 = "ttir.reshape"(%84) <{shape = [4 : i32, 1 : i32, 16 : i32, 448 : i32]}> : (tensor<4x1x7168xbf16>) -> tensor<4x1x16x448xbf16> loc(#loc46)
        %86 = "ttir.all_to_all"(%85) <{concat_dim = 2 : si32, replica_groups = dense<[[0, 1, 2, 3, 4, 5, 6, 7, 8, 9, 10, 11, 12, 13, 14, 15], [16, 17, 18, 19, 20, 21, 22, 23, 24, 25, 26, 27, 28, 29, 30, 31], [32, 33, 34, 35, 36, 37, 38, 39, 40, 41, 42, 43, 44, 45, 46, 47], [48, 49, 50, 51, 52, 53, 54, 55, 56, 57, 58, 59, 60, 61, 62, 63]]> : tensor<4x16xi64>, split_count = 16 : si32, split_dim = 2 : si32}> : (tensor<4x1x16x448xbf16>) -> tensor<4x1x16x448xbf16> loc(#loc46)
        %87 = "ttir.slice_static"(%86) <{begins = [0 : i32, 0 : i32, 0 : i32, 0 : i32], ends = [4 : i32, 1 : i32, 1 : i32, 448 : i32], step = [1 : i32, 1 : i32, 1 : i32, 1 : i32]}> : (tensor<4x1x16x448xbf16>) -> tensor<4x1x1x448xbf16> loc(#loc46)
        %88 = "ttir.reshape"(%87) <{shape = [4 : i32, 448 : i32]}> : (tensor<4x1x1x448xbf16>) -> tensor<4x448xbf16> loc(#loc370)
        %89 = "ttir.permute"(%17) <{permutation = array<i64: 1, 0>}> : (tensor<1536x448xbf16>) -> tensor<448x1536xbf16> loc(#loc48)
        %90 = "ttir.dot_general"(%88, %89) <{batch_dims_lhs = array<i64>, batch_dims_rhs = array<i64>, contract_dims_lhs = array<i64: 1>, contract_dims_rhs = array<i64: 0>}> : (tensor<4x448xbf16>, tensor<448x1536xbf16>) -> tensor<4x1536xbf16> loc(#loc49)
        %91 = "ttir.all_reduce"(%90) <{cluster_axis = 1 : ui32, reduce_type = #ttcore.reduce_type<sum>}> : (tensor<4x1536xbf16>) -> tensor<4x1536xbf16> loc(#loc49)
        %92 = "ttir.reshape"(%91) <{shape = [4 : i32, 1 : i32, 1536 : i32]}> : (tensor<4x1536xbf16>) -> tensor<4x1x1536xbf16> loc(#loc50)
        %93 = "ttir.rms_norm"(%92, %16) <{epsilon = 9.99999997E-7 : f32, normalized_shape = array<i64: 1536>, operandSegmentSizes = array<i32: 1, 1, 0>}> : (tensor<4x1x1536xbf16>, tensor<1536xbf16>) -> tensor<4x1x1536xbf16> loc(#loc51)
        %94 = "ttir.reshape"(%93) <{shape = [4 : i32, 1536 : i32]}> : (tensor<4x1x1536xbf16>) -> tensor<4x1536xbf16> loc(#loc52)
        %95 = "ttir.permute"(%15) <{permutation = array<i64: 1, 0>}> : (tensor<768x1536xbf16>) -> tensor<1536x768xbf16> loc(#loc53)
        %96 = "ttir.dot_general"(%94, %95) <{batch_dims_lhs = array<i64>, batch_dims_rhs = array<i64>, contract_dims_lhs = array<i64: 1>, contract_dims_rhs = array<i64: 0>}> : (tensor<4x1536xbf16>, tensor<1536x768xbf16>) -> tensor<4x768xbf16> loc(#loc54)
        %97 = "ttir.reshape"(%96) <{shape = [4 : i32, 4 : i32, 1 : i32, 192 : i32]}> : (tensor<4x768xbf16>) -> tensor<4x4x1x192xbf16> loc(#loc55)
        %98 = "ttir.slice_static"(%97) <{begins = [0 : i32, 0 : i32, 0 : i32, 0 : i32], ends = [4 : i32, 4 : i32, 1 : i32, 128 : i32], step = [1 : i32, 1 : i32, 1 : i32, 1 : i32]}> : (tensor<4x4x1x192xbf16>) -> tensor<4x4x1x128xbf16> loc(#loc56)
        %99 = "ttir.slice_static"(%97) <{begins = [0 : i32, 0 : i32, 0 : i32, 128 : i32], ends = [4 : i32, 4 : i32, 1 : i32, 192 : i32], step = [1 : i32, 1 : i32, 1 : i32, 1 : i32]}> : (tensor<4x4x1x192xbf16>) -> tensor<4x4x1x64xbf16> loc(#loc57)
        %100 = "ttir.reshape"(%99) <{shape = [4 : i32, 4 : i32, 1 : i32, 32 : i32, 2 : i32]}> : (tensor<4x4x1x64xbf16>) -> tensor<4x4x1x32x2xbf16> loc(#loc58)
        %101 = "ttir.permute"(%100) <{permutation = array<i64: 0, 1, 2, 4, 3>}> : (tensor<4x4x1x32x2xbf16>) -> tensor<4x4x1x2x32xbf16> loc(#loc59)
        %102 = "ttir.reshape"(%101) <{shape = [4 : i32, 4 : i32, 1 : i32, 64 : i32]}> : (tensor<4x4x1x2x32xbf16>) -> tensor<4x4x1x64xbf16> loc(#loc60)
        %103 = "ttir.reshape"(%41) <{shape = [128 : i32, 1 : i32]}> : (tensor<128xf64>) -> tensor<128x1xf64> loc(#loc61)
        %104 = "ttir.broadcast"(%103) <{broadcast_dimensions = array<i64: 1, 32>}> : (tensor<128x1xf64>) -> tensor<128x32xf64> loc(#loc61)
        %105 = "ttir.pow"(%68, %44) : (tensor<32xf32>, tensor<32xf32>) -> tensor<32xf32> loc(#loc62)
        %106 = "ttir.multiply"(%105, %66) : (tensor<32xf32>, tensor<32xf32>) -> tensor<32xf32> loc(#loc63)
        %107 = "ttir.div"(%70, %106) : (tensor<32xf32>, tensor<32xf32>) -> tensor<32xf32> loc(#loc64)
        %108 = "ttir.typecast"(%107) <{conservative_folding = false}> : (tensor<32xf32>) -> tensor<32xf64> loc(#loc65)
        %109 = "ttir.multiply"(%108, %47) : (tensor<32xf64>, tensor<32xf64>) -> tensor<32xf64> loc(#loc66)
        %110 = "ttir.div"(%70, %105) : (tensor<32xf32>, tensor<32xf32>) -> tensor<32xf32> loc(#loc67)
        %111 = "ttir.typecast"(%110) <{conservative_folding = false}> : (tensor<32xf32>) -> tensor<32xf64> loc(#loc68)
        %112 = "ttir.multiply"(%111, %46) : (tensor<32xf64>, tensor<32xf64>) -> tensor<32xf64> loc(#loc69)
        %113 = "ttir.add"(%109, %112) : (tensor<32xf64>, tensor<32xf64>) -> tensor<32xf64> loc(#loc70)
        %114 = "ttir.reshape"(%113) <{shape = [1 : i32, 32 : i32]}> : (tensor<32xf64>) -> tensor<1x32xf64> loc(#loc71)
        %115 = "ttir.broadcast"(%114) <{broadcast_dimensions = array<i64: 128, 1>}> : (tensor<1x32xf64>) -> tensor<128x32xf64> loc(#loc71)
        %116 = "ttir.multiply"(%104, %115) : (tensor<128x32xf64>, tensor<128x32xf64>) -> tensor<128x32xf64> loc(#loc72)
        %117 = "ttir.typecast"(%116) <{conservative_folding = false}> : (tensor<128x32xf64>) -> tensor<128x32xf32> loc(#loc73)
        %118 = "ttir.concat"(%117, %117) <{dim = 1 : si32}> : (tensor<128x32xf32>, tensor<128x32xf32>) -> tensor<128x64xf32> loc(#loc74)
        %119 = "ttir.cos"(%118) : (tensor<128x64xf32>) -> tensor<128x64xf32> loc(#loc75)
        %120 = "ttir.typecast"(%119) <{conservative_folding = false}> : (tensor<128x64xf32>) -> tensor<128x64xbf16> loc(#loc76)
        %121 = "ttir.reshape"(%4) <{shape = [1 : i32, 1 : i32]}> : (tensor<1xi64>) -> tensor<1x1xi64> loc(#loc371)
        %122 = "ttir.lt"(%121, %48) : (tensor<1x1xi64>, tensor<1x1xi64>) -> tensor<1x1xi1> loc(#loc79)
        %123 = "ttir.add"(%121, %49) : (tensor<1x1xi64>, tensor<1x1xi64>) -> tensor<1x1xi64> loc(#loc80)
        %124 = "ttir.where"(%122, %123, %121) : (tensor<1x1xi1>, tensor<1x1xi64>, tensor<1x1xi64>) -> tensor<1x1xi64> loc(#loc81)
        %125 = "ttir.reshape"(%124) <{shape = [1 : i32, 1 : i32, 1 : i32]}> : (tensor<1x1xi64>) -> tensor<1x1x1xi64> loc(#loc82)
        %126 = "ttir.permute"(%120) <{permutation = array<i64: 0, 1>}> : (tensor<128x64xbf16>) -> tensor<128x64xbf16> loc(#loc372)
        %127 = "ttir.reshape"(%126) <{shape = [128 : i32, 64 : i32]}> : (tensor<128x64xbf16>) -> tensor<128x64xbf16> loc(#loc373)
        %128 = "ttir.reshape"(%125) <{shape = [1 : i32, 1 : i32]}> : (tensor<1x1x1xi64>) -> tensor<1x1xi64> loc(#loc374)
        %129 = "ttir.embedding"(%128, %127) : (tensor<1x1xi64>, tensor<128x64xbf16>) -> tensor<1x1x64xbf16> loc(#loc83)
        %130 = "ttir.reshape"(%129) <{shape = [1 : i32, 1 : i32, 64 : i32]}> : (tensor<1x1x64xbf16>) -> tensor<1x1x64xbf16> loc(#loc375)
        %131 = "ttir.permute"(%130) <{permutation = array<i64: 0, 1, 2>}> : (tensor<1x1x64xbf16>) -> tensor<1x1x64xbf16> loc(#loc376)
        %132 = "ttir.reshape"(%131) <{shape = [1 : i32, 64 : i32]}> : (tensor<1x1x64xbf16>) -> tensor<1x64xbf16> loc(#loc84)
        %133 = "ttir.reshape"(%132) <{shape = [1 : i32, 1 : i32, 1 : i32, 64 : i32]}> : (tensor<1x64xbf16>) -> tensor<1x1x1x64xbf16> loc(#loc85)
        %134 = "ttir.broadcast"(%133) <{broadcast_dimensions = array<i64: 4, 4, 1, 1>}> : (tensor<1x1x1x64xbf16>) -> tensor<4x4x1x64xbf16> loc(#loc85)
        %135 = "ttir.multiply"(%102, %134) : (tensor<4x4x1x64xbf16>, tensor<4x4x1x64xbf16>) -> tensor<4x4x1x64xbf16> loc(#loc86)
        %136 = "ttir.slice_static"(%102) <{begins = [0 : i32, 0 : i32, 0 : i32, 32 : i32], ends = [4 : i32, 4 : i32, 1 : i32, 64 : i32], step = [1 : i32, 1 : i32, 1 : i32, 1 : i32]}> : (tensor<4x4x1x64xbf16>) -> tensor<4x4x1x32xbf16> loc(#loc87)
        %137 = "ttir.neg"(%136) : (tensor<4x4x1x32xbf16>) -> tensor<4x4x1x32xbf16> loc(#loc88)
        %138 = "ttir.slice_static"(%102) <{begins = [0 : i32, 0 : i32, 0 : i32, 0 : i32], ends = [4 : i32, 4 : i32, 1 : i32, 32 : i32], step = [1 : i32, 1 : i32, 1 : i32, 1 : i32]}> : (tensor<4x4x1x64xbf16>) -> tensor<4x4x1x32xbf16> loc(#loc89)
        %139 = "ttir.concat"(%137, %138) <{dim = 3 : si32}> : (tensor<4x4x1x32xbf16>, tensor<4x4x1x32xbf16>) -> tensor<4x4x1x64xbf16> loc(#loc90)
        %140 = "ttir.sin"(%118) : (tensor<128x64xf32>) -> tensor<128x64xf32> loc(#loc91)
        %141 = "ttir.typecast"(%140) <{conservative_folding = false}> : (tensor<128x64xf32>) -> tensor<128x64xbf16> loc(#loc92)
        %142 = "ttir.permute"(%141) <{permutation = array<i64: 0, 1>}> : (tensor<128x64xbf16>) -> tensor<128x64xbf16> loc(#loc377)
        %143 = "ttir.reshape"(%142) <{shape = [128 : i32, 64 : i32]}> : (tensor<128x64xbf16>) -> tensor<128x64xbf16> loc(#loc378)
        %144 = "ttir.embedding"(%128, %143) : (tensor<1x1xi64>, tensor<128x64xbf16>) -> tensor<1x1x64xbf16> loc(#loc93)
        %145 = "ttir.reshape"(%144) <{shape = [1 : i32, 1 : i32, 64 : i32]}> : (tensor<1x1x64xbf16>) -> tensor<1x1x64xbf16> loc(#loc379)
        %146 = "ttir.permute"(%145) <{permutation = array<i64: 0, 1, 2>}> : (tensor<1x1x64xbf16>) -> tensor<1x1x64xbf16> loc(#loc380)
        %147 = "ttir.reshape"(%146) <{shape = [1 : i32, 64 : i32]}> : (tensor<1x1x64xbf16>) -> tensor<1x64xbf16> loc(#loc94)
        %148 = "ttir.reshape"(%147) <{shape = [1 : i32, 1 : i32, 1 : i32, 64 : i32]}> : (tensor<1x64xbf16>) -> tensor<1x1x1x64xbf16> loc(#loc95)
        %149 = "ttir.broadcast"(%148) <{broadcast_dimensions = array<i64: 4, 4, 1, 1>}> : (tensor<1x1x1x64xbf16>) -> tensor<4x4x1x64xbf16> loc(#loc95)
        %150 = "ttir.multiply"(%139, %149) : (tensor<4x4x1x64xbf16>, tensor<4x4x1x64xbf16>) -> tensor<4x4x1x64xbf16> loc(#loc96)
        %151 = "ttir.add"(%135, %150) : (tensor<4x4x1x64xbf16>, tensor<4x4x1x64xbf16>) -> tensor<4x4x1x64xbf16> loc(#loc97)
        %152 = "ttir.concat"(%98, %151) <{dim = 3 : si32}> : (tensor<4x4x1x128xbf16>, tensor<4x4x1x64xbf16>) -> tensor<4x4x1x192xbf16> loc(#loc98)
        %153 = "ttir.lt"(%4, %50) : (tensor<1xi64>, tensor<1xi64>) -> tensor<1xi1> loc(#loc99)
        %154 = "ttir.add"(%4, %51) : (tensor<1xi64>, tensor<1xi64>) -> tensor<1xi64> loc(#loc100)
        %155 = "ttir.where"(%153, %154, %4) : (tensor<1xi1>, tensor<1xi64>, tensor<1xi64>) -> tensor<1xi64> loc(#loc101)
        %156 = "ttir.permute"(%0) <{permutation = array<i64: 1, 0>}> : (tensor<576x448xbf16>) -> tensor<448x576xbf16> loc(#loc102)
        %157 = "ttir.dot_general"(%88, %156) <{batch_dims_lhs = array<i64>, batch_dims_rhs = array<i64>, contract_dims_lhs = array<i64: 1>, contract_dims_rhs = array<i64: 0>}> : (tensor<4x448xbf16>, tensor<448x576xbf16>) -> tensor<4x576xbf16> loc(#loc103)
        %158 = "ttir.all_reduce"(%157) <{cluster_axis = 1 : ui32, reduce_type = #ttcore.reduce_type<sum>}> : (tensor<4x576xbf16>) -> tensor<4x576xbf16> loc(#loc103)
        %159 = "ttir.reshape"(%158) <{shape = [4 : i32, 1 : i32, 576 : i32]}> : (tensor<4x576xbf16>) -> tensor<4x1x576xbf16> loc(#loc104)
        %160 = "ttir.slice_static"(%159) <{begins = [0 : i32, 0 : i32, 0 : i32], ends = [4 : i32, 1 : i32, 512 : i32], step = [1 : i32, 1 : i32, 1 : i32]}> : (tensor<4x1x576xbf16>) -> tensor<4x1x512xbf16> loc(#loc105)
        %161 = "ttir.reshape"(%160) <{shape = [4 : i32, 1 : i32, 1 : i32, 512 : i32]}> : (tensor<4x1x512xbf16>) -> tensor<4x1x1x512xbf16> loc(#loc106)
        %162 = "ttir.permute"(%161) <{permutation = array<i64: 2, 1, 0, 3>}> : (tensor<4x1x1x512xbf16>) -> tensor<1x1x4x512xbf16> loc(#loc107)
        %163 = "ttir.update_cache"(%5, %162, %4) <{batch_offset = 0 : i32}> : (tensor<4x1x128x512xbf16>, tensor<1x1x4x512xbf16>, tensor<1xi64>) -> tensor<4x1x128x512xbf16> loc(#loc107)
        %164 = "ttir.reshape"(%163) <{shape = [4 : i32, 128 : i32, 512 : i32]}> : (tensor<4x1x128x512xbf16>) -> tensor<4x128x512xbf16> loc(#loc108)
        %165 = "ttir.rms_norm"(%164, %14) <{epsilon = 9.99999997E-7 : f32, normalized_shape = array<i64: 512>, operandSegmentSizes = array<i32: 1, 1, 0>}> : (tensor<4x128x512xbf16>, tensor<512xbf16>) -> tensor<4x128x512xbf16> loc(#loc109)
        %166 = "ttir.reshape"(%165) <{shape = [512 : i32, 512 : i32]}> : (tensor<4x128x512xbf16>) -> tensor<512x512xbf16> loc(#loc110)
        %167 = "ttir.permute"(%13) <{permutation = array<i64: 1, 0>}> : (tensor<1024x512xbf16>) -> tensor<512x1024xbf16> loc(#loc111)
        %168 = "ttir.dot_general"(%166, %167) <{batch_dims_lhs = array<i64>, batch_dims_rhs = array<i64>, contract_dims_lhs = array<i64: 1>, contract_dims_rhs = array<i64: 0>}> : (tensor<512x512xbf16>, tensor<512x1024xbf16>) -> tensor<512x1024xbf16> loc(#loc112)
        %169 = "ttir.reshape"(%168) <{shape = [4 : i32, 128 : i32, 4 : i32, 256 : i32]}> : (tensor<512x1024xbf16>) -> tensor<4x128x4x256xbf16> loc(#loc113)
        %170 = "ttir.permute"(%169) <{permutation = array<i64: 0, 2, 1, 3>}> : (tensor<4x128x4x256xbf16>) -> tensor<4x4x128x256xbf16> loc(#loc114)
        %171 = "ttir.slice_static"(%170) <{begins = [0 : i32, 0 : i32, 0 : i32, 0 : i32], ends = [4 : i32, 4 : i32, 128 : i32, 128 : i32], step = [1 : i32, 1 : i32, 1 : i32, 1 : i32]}> : (tensor<4x4x128x256xbf16>) -> tensor<4x4x128x128xbf16> loc(#loc115)
        %172 = "ttir.slice_static"(%159) <{begins = [0 : i32, 0 : i32, 512 : i32], ends = [4 : i32, 1 : i32, 576 : i32], step = [1 : i32, 1 : i32, 1 : i32]}> : (tensor<4x1x576xbf16>) -> tensor<4x1x64xbf16> loc(#loc116)
        %173 = "ttir.reshape"(%172) <{shape = [4 : i32, 1 : i32, 1 : i32, 32 : i32, 2 : i32]}> : (tensor<4x1x64xbf16>) -> tensor<4x1x1x32x2xbf16> loc(#loc117)
        %174 = "ttir.permute"(%173) <{permutation = array<i64: 0, 1, 2, 4, 3>}> : (tensor<4x1x1x32x2xbf16>) -> tensor<4x1x1x2x32xbf16> loc(#loc118)
        %175 = "ttir.reshape"(%174) <{shape = [4 : i32, 1 : i32, 1 : i32, 64 : i32]}> : (tensor<4x1x1x2x32xbf16>) -> tensor<4x1x1x64xbf16> loc(#loc119)
        %176 = "ttir.reshape"(%131) <{shape = [1 : i32, 1 : i32, 1 : i32, 64 : i32]}> : (tensor<1x1x64xbf16>) -> tensor<1x1x1x64xbf16> loc(#loc120)
        %177 = "ttir.broadcast"(%176) <{broadcast_dimensions = array<i64: 4, 1, 1, 1>}> : (tensor<1x1x1x64xbf16>) -> tensor<4x1x1x64xbf16> loc(#loc120)
        %178 = "ttir.multiply"(%175, %177) : (tensor<4x1x1x64xbf16>, tensor<4x1x1x64xbf16>) -> tensor<4x1x1x64xbf16> loc(#loc121)
        %179 = "ttir.slice_static"(%175) <{begins = [0 : i32, 0 : i32, 0 : i32, 32 : i32], ends = [4 : i32, 1 : i32, 1 : i32, 64 : i32], step = [1 : i32, 1 : i32, 1 : i32, 1 : i32]}> : (tensor<4x1x1x64xbf16>) -> tensor<4x1x1x32xbf16> loc(#loc122)
        %180 = "ttir.neg"(%179) : (tensor<4x1x1x32xbf16>) -> tensor<4x1x1x32xbf16> loc(#loc123)
        %181 = "ttir.slice_static"(%175) <{begins = [0 : i32, 0 : i32, 0 : i32, 0 : i32], ends = [4 : i32, 1 : i32, 1 : i32, 32 : i32], step = [1 : i32, 1 : i32, 1 : i32, 1 : i32]}> : (tensor<4x1x1x64xbf16>) -> tensor<4x1x1x32xbf16> loc(#loc124)
        %182 = "ttir.concat"(%180, %181) <{dim = 3 : si32}> : (tensor<4x1x1x32xbf16>, tensor<4x1x1x32xbf16>) -> tensor<4x1x1x64xbf16> loc(#loc125)
        %183 = "ttir.reshape"(%146) <{shape = [1 : i32, 1 : i32, 1 : i32, 64 : i32]}> : (tensor<1x1x64xbf16>) -> tensor<1x1x1x64xbf16> loc(#loc126)
        %184 = "ttir.broadcast"(%183) <{broadcast_dimensions = array<i64: 4, 1, 1, 1>}> : (tensor<1x1x1x64xbf16>) -> tensor<4x1x1x64xbf16> loc(#loc126)
        %185 = "ttir.multiply"(%182, %184) : (tensor<4x1x1x64xbf16>, tensor<4x1x1x64xbf16>) -> tensor<4x1x1x64xbf16> loc(#loc127)
        %186 = "ttir.add"(%178, %185) : (tensor<4x1x1x64xbf16>, tensor<4x1x1x64xbf16>) -> tensor<4x1x1x64xbf16> loc(#loc128)
        %187 = "ttir.permute"(%186) <{permutation = array<i64: 2, 1, 0, 3>}> : (tensor<4x1x1x64xbf16>) -> tensor<1x1x4x64xbf16> loc(#loc129)
        %188 = "ttir.update_cache"(%6, %187, %4) <{batch_offset = 0 : i32}> : (tensor<4x1x128x64xbf16>, tensor<1x1x4x64xbf16>, tensor<1xi64>) -> tensor<4x1x128x64xbf16> loc(#loc129)
        %189 = "ttir.reshape"(%188) <{shape = [4 : i32, 128 : i32, 64 : i32]}> : (tensor<4x1x128x64xbf16>) -> tensor<4x128x64xbf16> loc(#loc130)
        %190 = "ttir.reshape"(%189) <{shape = [4 : i32, 1 : i32, 128 : i32, 64 : i32]}> : (tensor<4x128x64xbf16>) -> tensor<4x1x128x64xbf16> loc(#loc131)
        %191 = "ttir.broadcast"(%190) <{broadcast_dimensions = array<i64: 1, 4, 1, 1>}> : (tensor<4x1x128x64xbf16>) -> tensor<4x4x128x64xbf16> loc(#loc131)
        %192 = "ttir.concat"(%171, %191) <{dim = 3 : si32}> : (tensor<4x4x128x128xbf16>, tensor<4x4x128x64xbf16>) -> tensor<4x4x128x192xbf16> loc(#loc132)
        %193 = "ttir.permute"(%192) <{permutation = array<i64: 0, 1, 3, 2>}> : (tensor<4x4x128x192xbf16>) -> tensor<4x4x192x128xbf16> loc(#loc133)
        %194 = "ttir.dot_general"(%152, %193) <{batch_dims_lhs = array<i64: 0, 1>, batch_dims_rhs = array<i64: 0, 1>, contract_dims_lhs = array<i64: 3>, contract_dims_rhs = array<i64: 2>}> : (tensor<4x4x1x192xbf16>, tensor<4x4x192x128xbf16>) -> tensor<4x4x1x128xbf16> loc(#loc134)
        %195 = "ttir.multiply"(%194, %64) : (tensor<4x4x1x128xbf16>, tensor<4x4x1x128xbf16>) -> tensor<4x4x1x128xbf16> loc(#loc135)
        %196 = "ttir.broadcast"(%121) <{broadcast_dimensions = array<i64: 1, 128>}> : (tensor<1x1xi64>) -> tensor<1x128xi64> loc(#loc136)
        %197 = "ttir.gt"(%53, %196) : (tensor<1x128xi64>, tensor<1x128xi64>) -> tensor<1x128xi1> loc(#loc137)
        %198 = "ttir.typecast"(%197) <{conservative_folding = false}> : (tensor<1x128xi1>) -> tensor<1x128xbf16> loc(#loc138)
        %199 = "ttir.multiply"(%198, %62) : (tensor<1x128xbf16>, tensor<1x128xbf16>) -> tensor<1x128xbf16> loc(#loc139)
        %200 = "ttir.reshape"(%199) <{shape = [1 : i32, 1 : i32, 128 : i32]}> : (tensor<1x128xbf16>) -> tensor<1x1x128xbf16> loc(#loc140)
        %201 = "ttir.reshape"(%200) <{shape = [1 : i32, 1 : i32, 1 : i32, 128 : i32]}> : (tensor<1x1x128xbf16>) -> tensor<1x1x1x128xbf16> loc(#loc141)
        %202 = "ttir.broadcast"(%201) <{broadcast_dimensions = array<i64: 4, 1, 1, 1>}> : (tensor<1x1x1x128xbf16>) -> tensor<4x1x1x128xbf16> loc(#loc141)
        %203 = "ttir.reshape"(%202) <{shape = [4 : i32, 1 : i32, 128 : i32]}> : (tensor<4x1x1x128xbf16>) -> tensor<4x1x128xbf16> loc(#loc142)
        %204 = "ttir.reshape"(%203) <{shape = [4 : i32, 1 : i32, 1 : i32, 128 : i32]}> : (tensor<4x1x128xbf16>) -> tensor<4x1x1x128xbf16> loc(#loc143)
        %205 = "ttir.broadcast"(%204) <{broadcast_dimensions = array<i64: 1, 4, 1, 1>}> : (tensor<4x1x1x128xbf16>) -> tensor<4x4x1x128xbf16> loc(#loc143)
        %206 = "ttir.add"(%195, %205) : (tensor<4x4x1x128xbf16>, tensor<4x4x1x128xbf16>) -> tensor<4x4x1x128xbf16> loc(#loc144)
        %207 = "ttir.typecast"(%206) <{conservative_folding = false}> : (tensor<4x4x1x128xbf16>) -> tensor<4x4x1x128xf32> loc(#loc145)
        %208 = "ttir.max"(%207) <{dim_arg = [3 : i32], keep_dim = false}> : (tensor<4x4x1x128xf32>) -> tensor<4x4x1xf32> loc(#loc146)
        %209 = "ttir.reshape"(%208) <{shape = [4 : i32, 4 : i32, 1 : i32, 1 : i32]}> : (tensor<4x4x1xf32>) -> tensor<4x4x1x1xf32> loc(#loc147)
        %210 = "ttir.broadcast"(%209) <{broadcast_dimensions = array<i64: 1, 1, 1, 128>}> : (tensor<4x4x1x1xf32>) -> tensor<4x4x1x128xf32> loc(#loc147)
        %211 = "ttir.subtract"(%207, %210) : (tensor<4x4x1x128xf32>, tensor<4x4x1x128xf32>) -> tensor<4x4x1x128xf32> loc(#loc148)
        %212 = "ttir.exp"(%211) : (tensor<4x4x1x128xf32>) -> tensor<4x4x1x128xf32> loc(#loc149)
        %213 = "ttir.sum"(%212) <{dim_arg = [3 : i32], keep_dim = false}> : (tensor<4x4x1x128xf32>) -> tensor<4x4x1xf32> loc(#loc150)
        %214 = "ttir.reshape"(%213) <{shape = [4 : i32, 4 : i32, 1 : i32, 1 : i32]}> : (tensor<4x4x1xf32>) -> tensor<4x4x1x1xf32> loc(#loc151)
        %215 = "ttir.broadcast"(%214) <{broadcast_dimensions = array<i64: 1, 1, 1, 128>}> : (tensor<4x4x1x1xf32>) -> tensor<4x4x1x128xf32> loc(#loc151)
        %216 = "ttir.div"(%212, %215) : (tensor<4x4x1x128xf32>, tensor<4x4x1x128xf32>) -> tensor<4x4x1x128xf32> loc(#loc152)
        %217 = "ttir.typecast"(%216) <{conservative_folding = false}> : (tensor<4x4x1x128xf32>) -> tensor<4x4x1x128xbf16> loc(#loc153)
        %218 = "ttir.slice_static"(%170) <{begins = [0 : i32, 0 : i32, 0 : i32, 128 : i32], ends = [4 : i32, 4 : i32, 128 : i32, 256 : i32], step = [1 : i32, 1 : i32, 1 : i32, 1 : i32]}> : (tensor<4x4x128x256xbf16>) -> tensor<4x4x128x128xbf16> loc(#loc154)
        %219 = "ttir.dot_general"(%217, %218) <{batch_dims_lhs = array<i64: 0, 1>, batch_dims_rhs = array<i64: 0, 1>, contract_dims_lhs = array<i64: 3>, contract_dims_rhs = array<i64: 2>}> : (tensor<4x4x1x128xbf16>, tensor<4x4x128x128xbf16>) -> tensor<4x4x1x128xbf16> loc(#loc155)
        %220 = "ttir.reshape"(%219) <{shape = [4 : i32, 512 : i32]}> : (tensor<4x4x1x128xbf16>) -> tensor<4x512xbf16> loc(#loc156)
        %221 = "ttir.permute"(%12) <{permutation = array<i64: 1, 0>}> : (tensor<7168x512xbf16>) -> tensor<512x7168xbf16> loc(#loc157)
        %222 = "ttir.dot_general"(%220, %221) <{batch_dims_lhs = array<i64>, batch_dims_rhs = array<i64>, contract_dims_lhs = array<i64: 1>, contract_dims_rhs = array<i64: 0>}> : (tensor<4x512xbf16>, tensor<512x7168xbf16>) -> tensor<4x7168xbf16> loc(#loc158)
        %223 = "ttir.reduce_scatter"(%222) <{cluster_axis = 1 : ui32, reduce_type = #ttcore.reduce_type<sum>, scatter_dim = 1 : si32}> : (tensor<4x7168xbf16>) -> tensor<4x448xbf16> loc(#loc158)
        %224 = "ttir.reshape"(%223) <{shape = [4 : i32, 1 : i32, 448 : i32]}> : (tensor<4x448xbf16>) -> tensor<4x1x448xbf16> loc(#loc159)
        %225 = "ttir.add"(%81, %224) : (tensor<4x1x448xbf16>, tensor<4x1x448xbf16>) -> tensor<4x1x448xbf16> loc(#loc160)
        %226 = "ttir.all_gather"(%225) <{all_gather_dim = 2 : si32, cluster_axis = 1 : ui32}> : (tensor<4x1x448xbf16>) -> tensor<4x1x7168xbf16> loc(#loc160)
        %227 = "ttir.all_gather"(%11) <{all_gather_dim = 0 : si32, cluster_axis = 1 : ui32}> : (tensor<448xbf16>) -> tensor<7168xbf16> loc(#loc161)
        %228 = "ttir.rms_norm"(%226, %227) <{epsilon = 9.99999974E-6 : f32, normalized_shape = array<i64: 7168>, operandSegmentSizes = array<i32: 1, 1, 0>}> : (tensor<4x1x7168xbf16>, tensor<7168xbf16>) -> tensor<4x1x7168xbf16> loc(#loc162)
        %229 = "ttir.reshape"(%228) <{shape = [4 : i32, 1 : i32, 16 : i32, 448 : i32]}> : (tensor<4x1x7168xbf16>) -> tensor<4x1x16x448xbf16> loc(#loc162)
        %230 = "ttir.all_to_all"(%229) <{concat_dim = 2 : si32, replica_groups = dense<[[0, 1, 2, 3, 4, 5, 6, 7, 8, 9, 10, 11, 12, 13, 14, 15], [16, 17, 18, 19, 20, 21, 22, 23, 24, 25, 26, 27, 28, 29, 30, 31], [32, 33, 34, 35, 36, 37, 38, 39, 40, 41, 42, 43, 44, 45, 46, 47], [48, 49, 50, 51, 52, 53, 54, 55, 56, 57, 58, 59, 60, 61, 62, 63]]> : tensor<4x16xi64>, split_count = 16 : si32, split_dim = 2 : si32}> : (tensor<4x1x16x448xbf16>) -> tensor<4x1x16x448xbf16> loc(#loc162)
        %231 = "ttir.slice_static"(%230) <{begins = [0 : i32, 0 : i32, 0 : i32, 0 : i32], ends = [4 : i32, 1 : i32, 1 : i32, 448 : i32], step = [1 : i32, 1 : i32, 1 : i32, 1 : i32]}> : (tensor<4x1x16x448xbf16>) -> tensor<4x1x1x448xbf16> loc(#loc162)
        %232 = "ttir.reshape"(%231) <{shape = [4 : i32, 448 : i32]}> : (tensor<4x1x1x448xbf16>) -> tensor<4x448xbf16> loc(#loc381)
        %233 = "ttir.permute"(%18) <{permutation = array<i64: 1, 0>}> : (tensor<4608x448xbf16>) -> tensor<448x4608xbf16> loc(#loc164)
        %234 = "ttir.all_gather"(%232) <{all_gather_dim = 0 : si32, cluster_axis = 0 : ui32}> : (tensor<4x448xbf16>) -> tensor<16x448xbf16> loc(#loc163)
        %235 = "ttir.dot_general"(%234, %233) <{batch_dims_lhs = array<i64>, batch_dims_rhs = array<i64>, contract_dims_lhs = array<i64: 1>, contract_dims_rhs = array<i64: 0>}> : (tensor<16x448xbf16>, tensor<448x4608xbf16>) -> tensor<16x4608xbf16> loc(#loc165)
        %236 = "ttir.all_reduce"(%235) <{cluster_axis = 1 : ui32, reduce_type = #ttcore.reduce_type<sum>}> : (tensor<16x4608xbf16>) -> tensor<16x4608xbf16> loc(#loc165)
        %237 = "ttir.reshape"(%236) <{shape = [16 : i32, 1 : i32, 4608 : i32]}> : (tensor<16x4608xbf16>) -> tensor<16x1x4608xbf16> loc(#loc166)
        %238 = "ttir.typecast"(%237) <{conservative_folding = false}> : (tensor<16x1x4608xbf16>) -> tensor<16x1x4608xf32> loc(#loc167)
        %239 = "ttir.sigmoid"(%238) : (tensor<16x1x4608xf32>) -> tensor<16x1x4608xf32> loc(#loc168)
        %240 = "ttir.multiply"(%238, %239) : (tensor<16x1x4608xf32>, tensor<16x1x4608xf32>) -> tensor<16x1x4608xf32> loc(#loc169)
        %241 = "ttir.typecast"(%240) <{conservative_folding = false}> : (tensor<16x1x4608xf32>) -> tensor<16x1x4608xbf16> loc(#loc170)
        %242 = "ttir.permute"(%10) <{permutation = array<i64: 1, 0>}> : (tensor<4608x448xbf16>) -> tensor<448x4608xbf16> loc(#loc171)
        %243 = "ttir.dot_general"(%234, %242) <{batch_dims_lhs = array<i64>, batch_dims_rhs = array<i64>, contract_dims_lhs = array<i64: 1>, contract_dims_rhs = array<i64: 0>}> : (tensor<16x448xbf16>, tensor<448x4608xbf16>) -> tensor<16x4608xbf16> loc(#loc172)
        %244 = "ttir.all_reduce"(%243) <{cluster_axis = 1 : ui32, reduce_type = #ttcore.reduce_type<sum>}> : (tensor<16x4608xbf16>) -> tensor<16x4608xbf16> loc(#loc172)
        %245 = "ttir.reshape"(%244) <{shape = [16 : i32, 1 : i32, 4608 : i32]}> : (tensor<16x4608xbf16>) -> tensor<16x1x4608xbf16> loc(#loc173)
        %246 = "ttir.multiply"(%241, %245) : (tensor<16x1x4608xbf16>, tensor<16x1x4608xbf16>) -> tensor<16x1x4608xbf16> loc(#loc174)
        %247 = "ttir.reshape"(%246) <{shape = [16 : i32, 4608 : i32]}> : (tensor<16x1x4608xbf16>) -> tensor<16x4608xbf16> loc(#loc175)
        %248 = "ttir.permute"(%9) <{permutation = array<i64: 1, 0>}> : (tensor<448x4608xbf16>) -> tensor<4608x448xbf16> loc(#loc176)
        %249 = "ttir.dot_general"(%247, %248) <{batch_dims_lhs = array<i64>, batch_dims_rhs = array<i64>, contract_dims_lhs = array<i64: 1>, contract_dims_rhs = array<i64: 0>}> : (tensor<16x4608xbf16>, tensor<4608x448xbf16>) -> tensor<16x448xbf16> loc(#loc177)
        %250 = "ttir.reduce_scatter"(%249) <{cluster_axis = 0 : ui32, reduce_type = #ttcore.reduce_type<sum>, scatter_dim = 0 : si32}> : (tensor<16x448xbf16>) -> tensor<4x448xbf16> loc(#loc177)
        %251 = "ttir.reshape"(%250) <{shape = [4 : i32, 1 : i32, 448 : i32]}> : (tensor<4x448xbf16>) -> tensor<4x1x448xbf16> loc(#loc178)
        %252 = "ttir.add"(%225, %251) : (tensor<4x1x448xbf16>, tensor<4x1x448xbf16>) -> tensor<4x1x448xbf16> loc(#loc179)
        %253 = "ttir.all_gather"(%252) <{all_gather_dim = 2 : si32, cluster_axis = 1 : ui32}> : (tensor<4x1x448xbf16>) -> tensor<4x1x7168xbf16> loc(#loc179)
        %254 = "ttir.all_gather"(%8) <{all_gather_dim = 0 : si32, cluster_axis = 1 : ui32}> : (tensor<448xbf16>) -> tensor<7168xbf16> loc(#loc180)
        %255 = "ttir.rms_norm"(%253, %254) <{epsilon = 9.99999974E-6 : f32, normalized_shape = array<i64: 7168>, operandSegmentSizes = array<i32: 1, 1, 0>}> : (tensor<4x1x7168xbf16>, tensor<7168xbf16>) -> tensor<4x1x7168xbf16> loc(#loc181)
        %256 = "ttir.reshape"(%255) <{shape = [4 : i32, 1 : i32, 16 : i32, 448 : i32]}> : (tensor<4x1x7168xbf16>) -> tensor<4x1x16x448xbf16> loc(#loc181)
        %257 = "ttir.all_to_all"(%256) <{concat_dim = 2 : si32, replica_groups = dense<[[0, 1, 2, 3, 4, 5, 6, 7, 8, 9, 10, 11, 12, 13, 14, 15], [16, 17, 18, 19, 20, 21, 22, 23, 24, 25, 26, 27, 28, 29, 30, 31], [32, 33, 34, 35, 36, 37, 38, 39, 40, 41, 42, 43, 44, 45, 46, 47], [48, 49, 50, 51, 52, 53, 54, 55, 56, 57, 58, 59, 60, 61, 62, 63]]> : tensor<4x16xi64>, split_count = 16 : si32, split_dim = 2 : si32}> : (tensor<4x1x16x448xbf16>) -> tensor<4x1x16x448xbf16> loc(#loc181)
        %258 = "ttir.slice_static"(%257) <{begins = [0 : i32, 0 : i32, 0 : i32, 0 : i32], ends = [4 : i32, 1 : i32, 1 : i32, 448 : i32], step = [1 : i32, 1 : i32, 1 : i32, 1 : i32]}> : (tensor<4x1x16x448xbf16>) -> tensor<4x1x1x448xbf16> loc(#loc181)
        %259 = "ttir.reshape"(%258) <{shape = [4 : i32, 448 : i32]}> : (tensor<4x1x1x448xbf16>) -> tensor<4x448xbf16> loc(#loc382)
        %260 = "ttir.permute"(%31) <{permutation = array<i64: 1, 0>}> : (tensor<1536x448xbf16>) -> tensor<448x1536xbf16> loc(#loc183)
        %261 = "ttir.dot_general"(%259, %260) <{batch_dims_lhs = array<i64>, batch_dims_rhs = array<i64>, contract_dims_lhs = array<i64: 1>, contract_dims_rhs = array<i64: 0>}> : (tensor<4x448xbf16>, tensor<448x1536xbf16>) -> tensor<4x1536xbf16> loc(#loc184)
        %262 = "ttir.all_reduce"(%261) <{cluster_axis = 1 : ui32, reduce_type = #ttcore.reduce_type<sum>}> : (tensor<4x1536xbf16>) -> tensor<4x1536xbf16> loc(#loc184)
        %263 = "ttir.reshape"(%262) <{shape = [4 : i32, 1 : i32, 1536 : i32]}> : (tensor<4x1536xbf16>) -> tensor<4x1x1536xbf16> loc(#loc185)
        %264 = "ttir.rms_norm"(%263, %30) <{epsilon = 9.99999997E-7 : f32, normalized_shape = array<i64: 1536>, operandSegmentSizes = array<i32: 1, 1, 0>}> : (tensor<4x1x1536xbf16>, tensor<1536xbf16>) -> tensor<4x1x1536xbf16> loc(#loc186)
        %265 = "ttir.reshape"(%264) <{shape = [4 : i32, 1536 : i32]}> : (tensor<4x1x1536xbf16>) -> tensor<4x1536xbf16> loc(#loc187)
        %266 = "ttir.permute"(%29) <{permutation = array<i64: 1, 0>}> : (tensor<768x1536xbf16>) -> tensor<1536x768xbf16> loc(#loc188)
        %267 = "ttir.dot_general"(%265, %266) <{batch_dims_lhs = array<i64>, batch_dims_rhs = array<i64>, contract_dims_lhs = array<i64: 1>, contract_dims_rhs = array<i64: 0>}> : (tensor<4x1536xbf16>, tensor<1536x768xbf16>) -> tensor<4x768xbf16> loc(#loc189)
        %268 = "ttir.reshape"(%267) <{shape = [4 : i32, 4 : i32, 1 : i32, 192 : i32]}> : (tensor<4x768xbf16>) -> tensor<4x4x1x192xbf16> loc(#loc190)
        %269 = "ttir.slice_static"(%268) <{begins = [0 : i32, 0 : i32, 0 : i32, 0 : i32], ends = [4 : i32, 4 : i32, 1 : i32, 128 : i32], step = [1 : i32, 1 : i32, 1 : i32, 1 : i32]}> : (tensor<4x4x1x192xbf16>) -> tensor<4x4x1x128xbf16> loc(#loc191)
        %270 = "ttir.slice_static"(%268) <{begins = [0 : i32, 0 : i32, 0 : i32, 128 : i32], ends = [4 : i32, 4 : i32, 1 : i32, 192 : i32], step = [1 : i32, 1 : i32, 1 : i32, 1 : i32]}> : (tensor<4x4x1x192xbf16>) -> tensor<4x4x1x64xbf16> loc(#loc192)
        %271 = "ttir.reshape"(%270) <{shape = [4 : i32, 4 : i32, 1 : i32, 32 : i32, 2 : i32]}> : (tensor<4x4x1x64xbf16>) -> tensor<4x4x1x32x2xbf16> loc(#loc193)
        %272 = "ttir.permute"(%271) <{permutation = array<i64: 0, 1, 2, 4, 3>}> : (tensor<4x4x1x32x2xbf16>) -> tensor<4x4x1x2x32xbf16> loc(#loc194)
        %273 = "ttir.reshape"(%272) <{shape = [4 : i32, 4 : i32, 1 : i32, 64 : i32]}> : (tensor<4x4x1x2x32xbf16>) -> tensor<4x4x1x64xbf16> loc(#loc195)
        %274 = "ttir.multiply"(%273, %134) : (tensor<4x4x1x64xbf16>, tensor<4x4x1x64xbf16>) -> tensor<4x4x1x64xbf16> loc(#loc196)
        %275 = "ttir.slice_static"(%273) <{begins = [0 : i32, 0 : i32, 0 : i32, 32 : i32], ends = [4 : i32, 4 : i32, 1 : i32, 64 : i32], step = [1 : i32, 1 : i32, 1 : i32, 1 : i32]}> : (tensor<4x4x1x64xbf16>) -> tensor<4x4x1x32xbf16> loc(#loc197)
        %276 = "ttir.neg"(%275) : (tensor<4x4x1x32xbf16>) -> tensor<4x4x1x32xbf16> loc(#loc198)
        %277 = "ttir.slice_static"(%273) <{begins = [0 : i32, 0 : i32, 0 : i32, 0 : i32], ends = [4 : i32, 4 : i32, 1 : i32, 32 : i32], step = [1 : i32, 1 : i32, 1 : i32, 1 : i32]}> : (tensor<4x4x1x64xbf16>) -> tensor<4x4x1x32xbf16> loc(#loc199)
        %278 = "ttir.concat"(%276, %277) <{dim = 3 : si32}> : (tensor<4x4x1x32xbf16>, tensor<4x4x1x32xbf16>) -> tensor<4x4x1x64xbf16> loc(#loc200)
        %279 = "ttir.multiply"(%278, %149) : (tensor<4x4x1x64xbf16>, tensor<4x4x1x64xbf16>) -> tensor<4x4x1x64xbf16> loc(#loc201)
        %280 = "ttir.add"(%274, %279) : (tensor<4x4x1x64xbf16>, tensor<4x4x1x64xbf16>) -> tensor<4x4x1x64xbf16> loc(#loc202)
        %281 = "ttir.concat"(%269, %280) <{dim = 3 : si32}> : (tensor<4x4x1x128xbf16>, tensor<4x4x1x64xbf16>) -> tensor<4x4x1x192xbf16> loc(#loc203)
        %282 = "ttir.permute"(%7) <{permutation = array<i64: 1, 0>}> : (tensor<576x448xbf16>) -> tensor<448x576xbf16> loc(#loc204)
        %283 = "ttir.dot_general"(%259, %282) <{batch_dims_lhs = array<i64>, batch_dims_rhs = array<i64>, contract_dims_lhs = array<i64: 1>, contract_dims_rhs = array<i64: 0>}> : (tensor<4x448xbf16>, tensor<448x576xbf16>) -> tensor<4x576xbf16> loc(#loc205)
        %284 = "ttir.all_reduce"(%283) <{cluster_axis = 1 : ui32, reduce_type = #ttcore.reduce_type<sum>}> : (tensor<4x576xbf16>) -> tensor<4x576xbf16> loc(#loc205)
        %285 = "ttir.reshape"(%284) <{shape = [4 : i32, 1 : i32, 576 : i32]}> : (tensor<4x576xbf16>) -> tensor<4x1x576xbf16> loc(#loc206)
        %286 = "ttir.slice_static"(%285) <{begins = [0 : i32, 0 : i32, 0 : i32], ends = [4 : i32, 1 : i32, 512 : i32], step = [1 : i32, 1 : i32, 1 : i32]}> : (tensor<4x1x576xbf16>) -> tensor<4x1x512xbf16> loc(#loc207)
        %287 = "ttir.reshape"(%286) <{shape = [4 : i32, 1 : i32, 1 : i32, 512 : i32]}> : (tensor<4x1x512xbf16>) -> tensor<4x1x1x512xbf16> loc(#loc208)
        %288 = "ttir.permute"(%287) <{permutation = array<i64: 2, 1, 0, 3>}> : (tensor<4x1x1x512xbf16>) -> tensor<1x1x4x512xbf16> loc(#loc209)
        %289 = "ttir.update_cache"(%19, %288, %4) <{batch_offset = 0 : i32}> : (tensor<4x1x128x512xbf16>, tensor<1x1x4x512xbf16>, tensor<1xi64>) -> tensor<4x1x128x512xbf16> loc(#loc209)
        %290 = "ttir.reshape"(%289) <{shape = [4 : i32, 128 : i32, 512 : i32]}> : (tensor<4x1x128x512xbf16>) -> tensor<4x128x512xbf16> loc(#loc210)
        %291 = "ttir.rms_norm"(%290, %28) <{epsilon = 9.99999997E-7 : f32, normalized_shape = array<i64: 512>, operandSegmentSizes = array<i32: 1, 1, 0>}> : (tensor<4x128x512xbf16>, tensor<512xbf16>) -> tensor<4x128x512xbf16> loc(#loc211)
        %292 = "ttir.reshape"(%291) <{shape = [512 : i32, 512 : i32]}> : (tensor<4x128x512xbf16>) -> tensor<512x512xbf16> loc(#loc212)
        %293 = "ttir.permute"(%27) <{permutation = array<i64: 1, 0>}> : (tensor<1024x512xbf16>) -> tensor<512x1024xbf16> loc(#loc213)
        %294 = "ttir.dot_general"(%292, %293) <{batch_dims_lhs = array<i64>, batch_dims_rhs = array<i64>, contract_dims_lhs = array<i64: 1>, contract_dims_rhs = array<i64: 0>}> : (tensor<512x512xbf16>, tensor<512x1024xbf16>) -> tensor<512x1024xbf16> loc(#loc214)
        %295 = "ttir.reshape"(%294) <{shape = [4 : i32, 128 : i32, 4 : i32, 256 : i32]}> : (tensor<512x1024xbf16>) -> tensor<4x128x4x256xbf16> loc(#loc215)
        %296 = "ttir.permute"(%295) <{permutation = array<i64: 0, 2, 1, 3>}> : (tensor<4x128x4x256xbf16>) -> tensor<4x4x128x256xbf16> loc(#loc216)
        %297 = "ttir.slice_static"(%296) <{begins = [0 : i32, 0 : i32, 0 : i32, 0 : i32], ends = [4 : i32, 4 : i32, 128 : i32, 128 : i32], step = [1 : i32, 1 : i32, 1 : i32, 1 : i32]}> : (tensor<4x4x128x256xbf16>) -> tensor<4x4x128x128xbf16> loc(#loc217)
        %298 = "ttir.slice_static"(%285) <{begins = [0 : i32, 0 : i32, 512 : i32], ends = [4 : i32, 1 : i32, 576 : i32], step = [1 : i32, 1 : i32, 1 : i32]}> : (tensor<4x1x576xbf16>) -> tensor<4x1x64xbf16> loc(#loc218)
        %299 = "ttir.reshape"(%298) <{shape = [4 : i32, 1 : i32, 1 : i32, 32 : i32, 2 : i32]}> : (tensor<4x1x64xbf16>) -> tensor<4x1x1x32x2xbf16> loc(#loc219)
        %300 = "ttir.permute"(%299) <{permutation = array<i64: 0, 1, 2, 4, 3>}> : (tensor<4x1x1x32x2xbf16>) -> tensor<4x1x1x2x32xbf16> loc(#loc220)
        %301 = "ttir.reshape"(%300) <{shape = [4 : i32, 1 : i32, 1 : i32, 64 : i32]}> : (tensor<4x1x1x2x32xbf16>) -> tensor<4x1x1x64xbf16> loc(#loc221)
        %302 = "ttir.multiply"(%301, %177) : (tensor<4x1x1x64xbf16>, tensor<4x1x1x64xbf16>) -> tensor<4x1x1x64xbf16> loc(#loc222)
        %303 = "ttir.slice_static"(%301) <{begins = [0 : i32, 0 : i32, 0 : i32, 32 : i32], ends = [4 : i32, 1 : i32, 1 : i32, 64 : i32], step = [1 : i32, 1 : i32, 1 : i32, 1 : i32]}> : (tensor<4x1x1x64xbf16>) -> tensor<4x1x1x32xbf16> loc(#loc223)
        %304 = "ttir.neg"(%303) : (tensor<4x1x1x32xbf16>) -> tensor<4x1x1x32xbf16> loc(#loc224)
        %305 = "ttir.slice_static"(%301) <{begins = [0 : i32, 0 : i32, 0 : i32, 0 : i32], ends = [4 : i32, 1 : i32, 1 : i32, 32 : i32], step = [1 : i32, 1 : i32, 1 : i32, 1 : i32]}> : (tensor<4x1x1x64xbf16>) -> tensor<4x1x1x32xbf16> loc(#loc225)
        %306 = "ttir.concat"(%304, %305) <{dim = 3 : si32}> : (tensor<4x1x1x32xbf16>, tensor<4x1x1x32xbf16>) -> tensor<4x1x1x64xbf16> loc(#loc226)
        %307 = "ttir.multiply"(%306, %184) : (tensor<4x1x1x64xbf16>, tensor<4x1x1x64xbf16>) -> tensor<4x1x1x64xbf16> loc(#loc227)
        %308 = "ttir.add"(%302, %307) : (tensor<4x1x1x64xbf16>, tensor<4x1x1x64xbf16>) -> tensor<4x1x1x64xbf16> loc(#loc228)
        %309 = "ttir.permute"(%308) <{permutation = array<i64: 2, 1, 0, 3>}> : (tensor<4x1x1x64xbf16>) -> tensor<1x1x4x64xbf16> loc(#loc229)
        %310 = "ttir.update_cache"(%20, %309, %4) <{batch_offset = 0 : i32}> : (tensor<4x1x128x64xbf16>, tensor<1x1x4x64xbf16>, tensor<1xi64>) -> tensor<4x1x128x64xbf16> loc(#loc229)
        %311 = "ttir.reshape"(%310) <{shape = [4 : i32, 128 : i32, 64 : i32]}> : (tensor<4x1x128x64xbf16>) -> tensor<4x128x64xbf16> loc(#loc230)
        %312 = "ttir.reshape"(%311) <{shape = [4 : i32, 1 : i32, 128 : i32, 64 : i32]}> : (tensor<4x128x64xbf16>) -> tensor<4x1x128x64xbf16> loc(#loc231)
        %313 = "ttir.broadcast"(%312) <{broadcast_dimensions = array<i64: 1, 4, 1, 1>}> : (tensor<4x1x128x64xbf16>) -> tensor<4x4x128x64xbf16> loc(#loc231)
        %314 = "ttir.concat"(%297, %313) <{dim = 3 : si32}> : (tensor<4x4x128x128xbf16>, tensor<4x4x128x64xbf16>) -> tensor<4x4x128x192xbf16> loc(#loc232)
        %315 = "ttir.permute"(%314) <{permutation = array<i64: 0, 1, 3, 2>}> : (tensor<4x4x128x192xbf16>) -> tensor<4x4x192x128xbf16> loc(#loc233)
        %316 = "ttir.dot_general"(%281, %315) <{batch_dims_lhs = array<i64: 0, 1>, batch_dims_rhs = array<i64: 0, 1>, contract_dims_lhs = array<i64: 3>, contract_dims_rhs = array<i64: 2>}> : (tensor<4x4x1x192xbf16>, tensor<4x4x192x128xbf16>) -> tensor<4x4x1x128xbf16> loc(#loc234)
        %317 = "ttir.multiply"(%316, %64) : (tensor<4x4x1x128xbf16>, tensor<4x4x1x128xbf16>) -> tensor<4x4x1x128xbf16> loc(#loc235)
        %318 = "ttir.add"(%317, %205) : (tensor<4x4x1x128xbf16>, tensor<4x4x1x128xbf16>) -> tensor<4x4x1x128xbf16> loc(#loc236)
        %319 = "ttir.typecast"(%318) <{conservative_folding = false}> : (tensor<4x4x1x128xbf16>) -> tensor<4x4x1x128xf32> loc(#loc237)
        %320 = "ttir.max"(%319) <{dim_arg = [3 : i32], keep_dim = false}> : (tensor<4x4x1x128xf32>) -> tensor<4x4x1xf32> loc(#loc238)
        %321 = "ttir.reshape"(%320) <{shape = [4 : i32, 4 : i32, 1 : i32, 1 : i32]}> : (tensor<4x4x1xf32>) -> tensor<4x4x1x1xf32> loc(#loc239)
        %322 = "ttir.broadcast"(%321) <{broadcast_dimensions = array<i64: 1, 1, 1, 128>}> : (tensor<4x4x1x1xf32>) -> tensor<4x4x1x128xf32> loc(#loc239)
        %323 = "ttir.subtract"(%319, %322) : (tensor<4x4x1x128xf32>, tensor<4x4x1x128xf32>) -> tensor<4x4x1x128xf32> loc(#loc240)
        %324 = "ttir.exp"(%323) : (tensor<4x4x1x128xf32>) -> tensor<4x4x1x128xf32> loc(#loc241)
        %325 = "ttir.sum"(%324) <{dim_arg = [3 : i32], keep_dim = false}> : (tensor<4x4x1x128xf32>) -> tensor<4x4x1xf32> loc(#loc242)
        %326 = "ttir.reshape"(%325) <{shape = [4 : i32, 4 : i32, 1 : i32, 1 : i32]}> : (tensor<4x4x1xf32>) -> tensor<4x4x1x1xf32> loc(#loc243)
        %327 = "ttir.broadcast"(%326) <{broadcast_dimensions = array<i64: 1, 1, 1, 128>}> : (tensor<4x4x1x1xf32>) -> tensor<4x4x1x128xf32> loc(#loc243)
        %328 = "ttir.div"(%324, %327) : (tensor<4x4x1x128xf32>, tensor<4x4x1x128xf32>) -> tensor<4x4x1x128xf32> loc(#loc244)
        %329 = "ttir.typecast"(%328) <{conservative_folding = false}> : (tensor<4x4x1x128xf32>) -> tensor<4x4x1x128xbf16> loc(#loc245)
        %330 = "ttir.slice_static"(%296) <{begins = [0 : i32, 0 : i32, 0 : i32, 128 : i32], ends = [4 : i32, 4 : i32, 128 : i32, 256 : i32], step = [1 : i32, 1 : i32, 1 : i32, 1 : i32]}> : (tensor<4x4x128x256xbf16>) -> tensor<4x4x128x128xbf16> loc(#loc246)
        %331 = "ttir.dot_general"(%329, %330) <{batch_dims_lhs = array<i64: 0, 1>, batch_dims_rhs = array<i64: 0, 1>, contract_dims_lhs = array<i64: 3>, contract_dims_rhs = array<i64: 2>}> : (tensor<4x4x1x128xbf16>, tensor<4x4x128x128xbf16>) -> tensor<4x4x1x128xbf16> loc(#loc247)
        %332 = "ttir.reshape"(%331) <{shape = [4 : i32, 512 : i32]}> : (tensor<4x4x1x128xbf16>) -> tensor<4x512xbf16> loc(#loc248)
        %333 = "ttir.permute"(%26) <{permutation = array<i64: 1, 0>}> : (tensor<7168x512xbf16>) -> tensor<512x7168xbf16> loc(#loc249)
        %334 = "ttir.dot_general"(%332, %333) <{batch_dims_lhs = array<i64>, batch_dims_rhs = array<i64>, contract_dims_lhs = array<i64: 1>, contract_dims_rhs = array<i64: 0>}> : (tensor<4x512xbf16>, tensor<512x7168xbf16>) -> tensor<4x7168xbf16> loc(#loc250)
        %335 = "ttir.reduce_scatter"(%334) <{cluster_axis = 1 : ui32, reduce_type = #ttcore.reduce_type<sum>, scatter_dim = 1 : si32}> : (tensor<4x7168xbf16>) -> tensor<4x448xbf16> loc(#loc250)
        %336 = "ttir.reshape"(%335) <{shape = [4 : i32, 1 : i32, 448 : i32]}> : (tensor<4x448xbf16>) -> tensor<4x1x448xbf16> loc(#loc251)
        %337 = "ttir.add"(%252, %336) : (tensor<4x1x448xbf16>, tensor<4x1x448xbf16>) -> tensor<4x1x448xbf16> loc(#loc252)
        %338 = "ttir.all_gather"(%337) <{all_gather_dim = 2 : si32, cluster_axis = 1 : ui32}> : (tensor<4x1x448xbf16>) -> tensor<4x1x7168xbf16> loc(#loc252)
        %339 = "ttir.all_gather"(%25) <{all_gather_dim = 0 : si32, cluster_axis = 1 : ui32}> : (tensor<448xbf16>) -> tensor<7168xbf16> loc(#loc253)
        %340 = "ttir.rms_norm"(%338, %339) <{epsilon = 9.99999974E-6 : f32, normalized_shape = array<i64: 7168>, operandSegmentSizes = array<i32: 1, 1, 0>}> : (tensor<4x1x7168xbf16>, tensor<7168xbf16>) -> tensor<4x1x7168xbf16> loc(#loc254)
        %341 = "ttir.reshape"(%340) <{shape = [4 : i32, 1 : i32, 16 : i32, 448 : i32]}> : (tensor<4x1x7168xbf16>) -> tensor<4x1x16x448xbf16> loc(#loc254)
        %342 = "ttir.all_to_all"(%341) <{concat_dim = 2 : si32, replica_groups = dense<[[0, 1, 2, 3, 4, 5, 6, 7, 8, 9, 10, 11, 12, 13, 14, 15], [16, 17, 18, 19, 20, 21, 22, 23, 24, 25, 26, 27, 28, 29, 30, 31], [32, 33, 34, 35, 36, 37, 38, 39, 40, 41, 42, 43, 44, 45, 46, 47], [48, 49, 50, 51, 52, 53, 54, 55, 56, 57, 58, 59, 60, 61, 62, 63]]> : tensor<4x16xi64>, split_count = 16 : si32, split_dim = 2 : si32}> : (tensor<4x1x16x448xbf16>) -> tensor<4x1x16x448xbf16> loc(#loc254)
        %343 = "ttir.slice_static"(%342) <{begins = [0 : i32, 0 : i32, 0 : i32, 0 : i32], ends = [4 : i32, 1 : i32, 1 : i32, 448 : i32], step = [1 : i32, 1 : i32, 1 : i32, 1 : i32]}> : (tensor<4x1x16x448xbf16>) -> tensor<4x1x1x448xbf16> loc(#loc254)
        %344 = "ttir.reshape"(%343) <{shape = [4 : i32, 1 : i32, 448 : i32]}> : (tensor<4x1x1x448xbf16>) -> tensor<4x1x448xbf16> loc(#loc254)
        %345 = "ttir.reshape"(%343) <{shape = [4 : i32, 448 : i32]}> : (tensor<4x1x1x448xbf16>) -> tensor<4x448xbf16> loc(#loc383)
        %346 = "ttir.typecast"(%345) <{conservative_folding = false}> : (tensor<4x448xbf16>) -> tensor<4x448xf32> loc(#loc256)
        %347 = "ttir.typecast"(%34) <{conservative_folding = false}> : (tensor<384x448xbf16>) -> tensor<384x448xf32> loc(#loc257)
        %348 = "ttir.permute"(%347) <{permutation = array<i64: 1, 0>}> : (tensor<384x448xf32>) -> tensor<448x384xf32> loc(#loc258)
        %349 = "ttir.dot_general"(%346, %348) <{batch_dims_lhs = array<i64>, batch_dims_rhs = array<i64>, contract_dims_lhs = array<i64: 1>, contract_dims_rhs = array<i64: 0>}> : (tensor<4x448xf32>, tensor<448x384xf32>) -> tensor<4x384xf32> loc(#loc259)
        %350 = "ttir.all_reduce"(%349) <{cluster_axis = 1 : ui32, reduce_type = #ttcore.reduce_type<sum>}> : (tensor<4x384xf32>) -> tensor<4x384xf32> loc(#loc259)
        %351 = "ttir.sigmoid"(%350) : (tensor<4x384xf32>) -> tensor<4x384xf32> loc(#loc260)
        %352 = "ttir.reshape"(%33) <{shape = [1 : i32, 384 : i32]}> : (tensor<384xbf16>) -> tensor<1x384xbf16> loc(#loc384)
        %353 = "ttir.typecast"(%352) <{conservative_folding = false}> : (tensor<1x384xbf16>) -> tensor<1x384xf32> loc(#loc263)
        %354 = "ttir.reshape"(%353) <{shape = [384 : i32]}> : (tensor<1x384xf32>) -> tensor<384xf32> loc(#loc264)
        %355 = "ttir.reshape"(%354) <{shape = [1 : i32, 384 : i32]}> : (tensor<384xf32>) -> tensor<1x384xf32> loc(#loc265)
        %356 = "ttir.broadcast"(%355) <{broadcast_dimensions = array<i64: 4, 1>}> : (tensor<1x384xf32>) -> tensor<4x384xf32> loc(#loc265)
        %357 = "ttir.add"(%351, %356) : (tensor<4x384xf32>, tensor<4x384xf32>) -> tensor<4x384xf32> loc(#loc266)
        %358 = "ttir.reshape"(%357) <{shape = [4 : i32, 1 : i32, 384 : i32]}> : (tensor<4x384xf32>) -> tensor<4x1x384xf32> loc(#loc267)
        %values, %indices = "ttir.topk"(%358) <{dim = -1 : i32, k = 2 : i32, largest = true, sorted = true}> : (tensor<4x1x384xf32>) -> (tensor<4x1x2xf32>, tensor<4x1x2xi32>) loc(#loc)
        %359 = "ttir.sum"(%values) <{dim_arg = [2 : i32], keep_dim = false}> : (tensor<4x1x2xf32>) -> tensor<4x1xf32> loc(#loc268)
        %values_0, %indices_1 = "ttir.topk"(%359) <{dim = -1 : i32, k = 1 : i32, largest = true, sorted = false}> : (tensor<4x1xf32>) -> (tensor<4x1xf32>, tensor<4x1xi64>) loc(#loc)
        %360 = "ttir.arange"() <{arange_dimension = 0 : i64, end = 4 : si64, start = 0 : si64, step = 1 : si64}> : () -> tensor<4xi64> loc(#loc269)
        %361 = "ttir.reshape"(%360) <{shape = [4 : i32, 1 : i32, 1 : i32]}> : (tensor<4xi64>) -> tensor<4x1x1xi64> loc(#loc269)
        %362 = "ttir.reshape"(%indices_1) <{shape = [4 : i32, 1 : i32, 1 : i32]}> : (tensor<4x1xi64>) -> tensor<4x1x1xi64> loc(#loc270)
        %363 = "ttir.concat"(%361, %362) <{dim = 2 : si32}> : (tensor<4x1x1xi64>, tensor<4x1x1xi64>) -> tensor<4x1x2xi64> loc(#loc271)
        %364 = "ttir.all_gather"(%55) <{all_gather_dim = 0 : si32, cluster_axis = 0 : ui32}> : (tensor<4x1xf32>) -> tensor<16x1xf32> loc(#loc)
        %365 = "ttir.all_gather"(%363) <{all_gather_dim = 0 : si32, cluster_axis = 0 : ui32}> : (tensor<4x1x2xi64>) -> tensor<16x1x2xi64> loc(#loc271)
        %366 = "ttir.all_gather"(%56) <{all_gather_dim = 0 : si32, cluster_axis = 0 : ui32}> : (tensor<4x1xf32>) -> tensor<16x1xf32> loc(#loc)
        %367 = "ttir.reshape"(%365) <{shape = [16 : i32, 2 : i32]}> : (tensor<16x1x2xi64>) -> tensor<16x2xi64> loc(#loc385)
        %368 = "ttir.reshape"(%367) <{shape = [16 : i32, 1 : i32, 2 : i32]}> : (tensor<16x2xi64>) -> tensor<16x1x2xi64> loc(#loc386)
        %369 = "ttir.repeat"(%368) <{repeat_dimensions = array<i64: 1, 1, 1>}> : (tensor<16x1x2xi64>) -> tensor<16x1x2xi64> loc(#loc387)
        %370 = "ttir.reshape"(%369) <{shape = [16 : i32, 2 : i32]}> : (tensor<16x1x2xi64>) -> tensor<16x2xi64> loc(#loc388)
        %371 = "ttir.slice_static"(%370) <{begins = [0 : i32, 0 : i32], ends = [16 : i32, 1 : i32], step = [1 : i32, 1 : i32]}> : (tensor<16x2xi64>) -> tensor<16x1xi64> loc(#loc389)
        %372 = "ttir.slice_static"(%370) <{begins = [0 : i32, 1 : i32], ends = [16 : i32, 2 : i32], step = [1 : i32, 1 : i32]}> : (tensor<16x2xi64>) -> tensor<16x1xi64> loc(#loc390)
        %373 = "ttir.add"(%371, %372) : (tensor<16x1xi64>, tensor<16x1xi64>) -> tensor<16x1xi64> loc(#loc391)
        %374 = "ttir.reshape"(%373) <{shape = [16 : i32]}> : (tensor<16x1xi64>) -> tensor<16xi64> loc(#loc392)
        %375 = "ttir.reshape"(%364) <{shape = [16 : i32]}> : (tensor<16x1xf32>) -> tensor<16xf32> loc(#loc393)
        %376 = "ttir.reshape"(%366) <{shape = [16 : i32]}> : (tensor<16x1xf32>) -> tensor<16xf32> loc(#loc394)
        %377 = "ttir.scatter"(%375, %374, %376) <{dim = 0 : i32, scatter_reduce_type = #ttcore.reduce_type<invalid>}> : (tensor<16xf32>, tensor<16xi64>, tensor<16xf32>) -> tensor<16xf32> loc(#loc272)
        %378 = "ttir.reshape"(%377) <{shape = [16 : i32, 1 : i32]}> : (tensor<16xf32>) -> tensor<16x1xf32> loc(#loc395)
        %379 = "ttir.mesh_partition"(%378) <{cluster_axis = 0 : ui32, dim = 0 : si32}> : (tensor<16x1xf32>) -> tensor<4x1xf32> loc(#loc)
        %380 = "ttir.reshape"(%379) <{shape = [4 : i32, 1 : i32, 1 : i32]}> : (tensor<4x1xf32>) -> tensor<4x1x1xf32> loc(#loc273)
        %381 = "ttir.broadcast"(%380) <{broadcast_dimensions = array<i64: 1, 1, 384>}> : (tensor<4x1x1xf32>) -> tensor<4x1x384xf32> loc(#loc273)
        %382 = "ttir.reshape"(%381) <{shape = [4 : i32, 384 : i32]}> : (tensor<4x1x384xf32>) -> tensor<4x384xf32> loc(#loc274)
        %383 = "ttir.ne"(%382, %72) : (tensor<4x384xf32>, tensor<4x384xf32>) -> tensor<4x384xi1> loc(#loc275)
        %384 = "ttir.where"(%383, %357, %72) : (tensor<4x384xi1>, tensor<4x384xf32>, tensor<4x384xf32>) -> tensor<4x384xf32> loc(#loc396)
        %values_2, %indices_3 = "ttir.topk"(%384) <{dim = -1 : i32, k = 8 : i32, largest = true, sorted = false}> : (tensor<4x384xf32>) -> (tensor<4x8xf32>, tensor<4x8xi64>) loc(#loc)
        %385 = "ttir.arange"() <{arange_dimension = 0 : i64, end = 4 : si64, start = 0 : si64, step = 1 : si64}> : () -> tensor<4xui32> loc(#loc278)
        %386 = "ttir.reshape"(%385) <{shape = [4 : i32, 1 : i32, 1 : i32]}> : (tensor<4xui32>) -> tensor<4x1x1xui32> loc(#loc278)
        %387 = "ttir.broadcast"(%386) <{broadcast_dimensions = array<i64: 1, 8, 1>}> : (tensor<4x1x1xui32>) -> tensor<4x8x1xui32> loc(#loc278)
        %388 = "ttir.typecast"(%indices_3) <{conservative_folding = false}> : (tensor<4x8xi64>) -> tensor<4x8xui32> loc(#loc279)
        %389 = "ttir.reshape"(%388) <{shape = [4 : i32, 8 : i32, 1 : i32]}> : (tensor<4x8xui32>) -> tensor<4x8x1xui32> loc(#loc280)
        %390 = "ttir.concat"(%387, %389) <{dim = 2 : si32}> : (tensor<4x8x1xui32>, tensor<4x8x1xui32>) -> tensor<4x8x2xui32> loc(#loc281)
        %391 = "ttir.all_gather"(%351) <{all_gather_dim = 0 : si32, cluster_axis = 0 : ui32}> : (tensor<4x384xf32>) -> tensor<16x384xf32> loc(#loc260)
        %392 = "ttir.permute"(%391) <{permutation = array<i64: 0, 1>}> : (tensor<16x384xf32>) -> tensor<16x384xf32> loc(#loc397)
        %393 = "ttir.reshape"(%392) <{shape = [6144 : i32, 1 : i32]}> : (tensor<16x384xf32>) -> tensor<6144x1xf32> loc(#loc398)
        %394 = "ttir.permute"(%390) <{permutation = array<i64: 0, 1, 2>}> : (tensor<4x8x2xui32>) -> tensor<4x8x2xui32> loc(#loc399)
        %395 = "ttir.typecast"(%394) <{conservative_folding = false}> : (tensor<4x8x2xui32>) -> tensor<4x8x2xf32> loc(#loc400)
        %396 = "ttir.constant"() <{value = dense<[[3.840000e+02], [1.000000e+00]]> : tensor<2x1xf32>}> : () -> tensor<2x1xf32> loc(#loc401)
        %397 = "ttir.matmul"(%395, %396) <{transpose_a = false, transpose_b = false}> : (tensor<4x8x2xf32>, tensor<2x1xf32>) -> tensor<4x8x1xf32> loc(#loc260)
        %398 = "ttir.reshape"(%397) <{shape = [1 : i32, 32 : i32]}> : (tensor<4x8x1xf32>) -> tensor<1x32xf32> loc(#loc402)
        %399 = "ttir.embedding"(%398, %393) : (tensor<1x32xf32>, tensor<6144x1xf32>) -> tensor<1x32x1xf32> loc(#loc282)
        %400 = "ttir.reshape"(%399) <{shape = [4 : i32, 8 : i32]}> : (tensor<1x32x1xf32>) -> tensor<4x8xf32> loc(#loc403)
        %401 = "ttir.permute"(%400) <{permutation = array<i64: 0, 1>}> : (tensor<4x8xf32>) -> tensor<4x8xf32> loc(#loc404)
        %402 = "ttir.sum"(%401) <{dim_arg = [1 : i32], keep_dim = false}> : (tensor<4x8xf32>) -> tensor<4xf32> loc(#loc283)
        %403 = "ttir.reshape"(%402) <{shape = [4 : i32, 1 : i32]}> : (tensor<4xf32>) -> tensor<4x1xf32> loc(#loc284)
        %404 = "ttir.add"(%403, %57) : (tensor<4x1xf32>, tensor<4x1xf32>) -> tensor<4x1xf32> loc(#loc285)
        %405 = "ttir.reshape"(%404) <{shape = [4 : i32]}> : (tensor<4x1xf32>) -> tensor<4xf32> loc(#loc286)
        %406 = "ttir.reshape"(%405) <{shape = [4 : i32, 1 : i32]}> : (tensor<4xf32>) -> tensor<4x1xf32> loc(#loc287)
        %407 = "ttir.broadcast"(%406) <{broadcast_dimensions = array<i64: 1, 8>}> : (tensor<4x1xf32>) -> tensor<4x8xf32> loc(#loc287)
        %408 = "ttir.div"(%401, %407) : (tensor<4x8xf32>, tensor<4x8xf32>) -> tensor<4x8xf32> loc(#loc288)
        %409 = "ttir.multiply"(%408, %60) : (tensor<4x8xf32>, tensor<4x8xf32>) -> tensor<4x8xf32> loc(#loc289)
        %410 = "ttir.reshape"(%indices_3) <{shape = [4 : i32, 8 : i32, 1 : i32]}> : (tensor<4x8xi64>) -> tensor<4x8x1xi64> loc(#loc290)
        %411 = "ttir.broadcast"(%410) <{broadcast_dimensions = array<i64: 1, 1, 384>}> : (tensor<4x8x1xi64>) -> tensor<4x8x384xi64> loc(#loc290)
        %412 = "ttir.reshape"(%40) <{shape = [1 : i32, 1 : i32, 384 : i32]}> : (tensor<384xi64>) -> tensor<1x1x384xi64> loc(#loc291)
        %413 = "ttir.broadcast"(%412) <{broadcast_dimensions = array<i64: 4, 8, 1>}> : (tensor<1x1x384xi64>) -> tensor<4x8x384xi64> loc(#loc291)
        %414 = "ttir.eq"(%411, %413) : (tensor<4x8x384xi64>, tensor<4x8x384xi64>) -> tensor<4x8x384xi1> loc(#loc292)
        %415 = "ttir.typecast"(%414) <{conservative_folding = false}> : (tensor<4x8x384xi1>) -> tensor<4x8x384xf32> loc(#loc293)
        %416 = "ttir.dot_general"(%409, %415) <{batch_dims_lhs = array<i64: 0>, batch_dims_rhs = array<i64: 0>, contract_dims_lhs = array<i64: 1>, contract_dims_rhs = array<i64: 1>}> : (tensor<4x8xf32>, tensor<4x8x384xf32>) -> tensor<4x384xf32> loc(#loc294)
        %417 = "ttir.all_gather"(%416) <{all_gather_dim = 0 : si32, cluster_axis = 0 : ui32}> : (tensor<4x384xf32>) -> tensor<16x384xf32> loc(#loc294)
        %418 = "ttir.pad"(%417) <{padding = array<i32: 0, 16, 0, 0>, value = 0.000000e+00 : f32}> : (tensor<16x384xf32>) -> tensor<32x384xf32> loc(#loc295)
        %419 = "ttir.reshape"(%418) <{shape = [1 : i32, 32 : i32, 384 : i32]}> : (tensor<32x384xf32>) -> tensor<1x32x384xf32> loc(#loc296)
        %420 = "ttir.concat"(%419, %419, %419, %419) <{dim = 1 : si32}> : (tensor<1x32x384xf32>, tensor<1x32x384xf32>, tensor<1x32x384xf32>, tensor<1x32x384xf32>) -> tensor<1x128x384xf32> loc(#loc297)
        %421 = "ttir.reshape"(%420) <{shape = [1 : i32, 1 : i32, 128 : i32, 384 : i32]}> : (tensor<1x128x384xf32>) -> tensor<1x1x128x384xf32> loc(#loc298)
        %422 = "ttir.all_gather"(%344) <{all_gather_dim = 0 : si32, cluster_axis = 0 : ui32}> : (tensor<4x1x448xbf16>) -> tensor<16x1x448xbf16> loc(#loc254)
        %423 = "ttir.pad"(%422) <{padding = array<i32: 0, 16, 0, 0, 0, 0>, value = 0.000000e+00 : f32}> : (tensor<16x1x448xbf16>) -> tensor<32x1x448xbf16> loc(#loc299)
        %424 = "ttir.reshape"(%423) <{shape = [32 : i32, 1 : i32, 1 : i32, 448 : i32]}> : (tensor<32x1x448xbf16>) -> tensor<32x1x1x448xbf16> loc(#loc300)
        %425 = "ttir.all_gather"(%indices_3) <{all_gather_dim = 0 : si32, cluster_axis = 0 : ui32}> : (tensor<4x8xi64>) -> tensor<16x8xi64> loc(#loc301)
        %426 = "ttir.pad"(%425) <{padding = array<i32: 0, 16, 0, 0>, value = 0.000000e+00 : f32}> : (tensor<16x8xi64>) -> tensor<32x8xi64> loc(#loc302)
        %427 = "ttir.reshape"(%426) <{shape = [32 : i32, 1 : i32, 1 : i32, 8 : i32]}> : (tensor<32x8xi64>) -> tensor<32x1x1x8xi64> loc(#loc303)
        %428 = "ttir.all_gather"(%424) <{all_gather_dim = 3 : si32, cluster_axis = 1 : ui32}> : (tensor<32x1x1x448xbf16>) -> tensor<32x1x1x7168xbf16> loc(#loc300)
        %dispatched, %metadata = "ttir.all_to_all_dispatch"(%428, %427, %35) <{cluster_axis = 0 : i64, num_devices = 4 : i64}> : (tensor<32x1x1x7168xbf16>, tensor<32x1x1x8xi64>, tensor<1x1x384x64xi64>) -> (tensor<1x128x1x7168xbf16>, tensor<1x128x1x8xi64>) loc(#loc304)
        %429 = "ttir.reshape"(%metadata) <{shape = [1 : i32, 1 : i32, 128 : i32, 8 : i32]}> : (tensor<1x128x1x8xi64>) -> tensor<1x1x128x8xi64> loc(#loc305)
        %mapping, %reduced = "ttir.moe_expert_token_remap"(%421, %35, %429) <{reduction_size = 32 : i64}> : (tensor<1x1x128x384xf32>, tensor<1x1x384x64xi64>, tensor<1x1x128x8xi64>) -> (tensor<1x1x128x6xf32>, tensor<1x1x4x6xf32>) loc(#loc306)
        %430 = "ttir.reshape"(%dispatched) <{shape = [4 : i32, 1 : i32, 32 : i32, 7168 : i32]}> : (tensor<1x128x1x7168xbf16>) -> tensor<4x1x32x7168xbf16> loc(#loc307)
        %431 = "ttir.reshape"(%38) <{shape = [1 : i32, 6 : i32, 7168 : i32, 2048 : i32]}> : (tensor<6x7168x2048xbf16>) -> tensor<1x6x7168x2048xbf16> loc(#loc308)
        %432 = "ttir.reshape"(%reduced) <{shape = [4 : i32, 1 : i32, 1 : i32, 6 : i32]}> : (tensor<1x1x4x6xf32>) -> tensor<4x1x1x6xf32> loc(#loc309)
        %433 = "ttir.sparse_matmul"(%430, %431, %432) <{is_input_a_sparse = false, is_input_b_sparse = true, nnz = 0 : i64}> : (tensor<4x1x32x7168xbf16>, tensor<1x6x7168x2048xbf16>, tensor<4x1x1x6xf32>) -> tensor<4x1x1x6x32x2048xbf16> loc(#loc310)
        %434 = "ttir.reshape"(%433) <{shape = [4 : i32, 1 : i32, 6 : i32, 32 : i32, 2048 : i32]}> : (tensor<4x1x1x6x32x2048xbf16>) -> tensor<4x1x6x32x2048xbf16> loc(#loc311)
        %435 = "ttir.typecast"(%434) <{conservative_folding = false}> : (tensor<4x1x6x32x2048xbf16>) -> tensor<4x1x6x32x2048xf32> loc(#loc312)
        %436 = "ttir.sigmoid"(%435) : (tensor<4x1x6x32x2048xf32>) -> tensor<4x1x6x32x2048xf32> loc(#loc313)
        %437 = "ttir.multiply"(%435, %436) : (tensor<4x1x6x32x2048xf32>, tensor<4x1x6x32x2048xf32>) -> tensor<4x1x6x32x2048xf32> loc(#loc314)
        %438 = "ttir.typecast"(%437) <{conservative_folding = false}> : (tensor<4x1x6x32x2048xf32>) -> tensor<4x1x6x32x2048xbf16> loc(#loc315)
        %439 = "ttir.reshape"(%37) <{shape = [1 : i32, 6 : i32, 7168 : i32, 2048 : i32]}> : (tensor<6x7168x2048xbf16>) -> tensor<1x6x7168x2048xbf16> loc(#loc316)
        %440 = "ttir.sparse_matmul"(%430, %439, %432) <{is_input_a_sparse = false, is_input_b_sparse = true, nnz = 0 : i64}> : (tensor<4x1x32x7168xbf16>, tensor<1x6x7168x2048xbf16>, tensor<4x1x1x6xf32>) -> tensor<4x1x1x6x32x2048xbf16> loc(#loc317)
        %441 = "ttir.reshape"(%440) <{shape = [4 : i32, 1 : i32, 6 : i32, 32 : i32, 2048 : i32]}> : (tensor<4x1x1x6x32x2048xbf16>) -> tensor<4x1x6x32x2048xbf16> loc(#loc318)
        %442 = "ttir.multiply"(%438, %441) : (tensor<4x1x6x32x2048xbf16>, tensor<4x1x6x32x2048xbf16>) -> tensor<4x1x6x32x2048xbf16> loc(#loc319)
        %443 = "ttir.reshape"(%442) <{shape = [4 : i32, 6 : i32, 32 : i32, 2048 : i32]}> : (tensor<4x1x6x32x2048xbf16>) -> tensor<4x6x32x2048xbf16> loc(#loc320)
        %444 = "ttir.reshape"(%36) <{shape = [1 : i32, 6 : i32, 2048 : i32, 7168 : i32]}> : (tensor<6x2048x7168xbf16>) -> tensor<1x6x2048x7168xbf16> loc(#loc321)
        %445 = "ttir.sparse_matmul"(%443, %444, %reduced) <{is_input_a_sparse = true, is_input_b_sparse = false, nnz = 0 : i64}> : (tensor<4x6x32x2048xbf16>, tensor<1x6x2048x7168xbf16>, tensor<1x1x4x6xf32>) -> tensor<4x6x32x7168xbf16> loc(#loc322)
        %446 = "ttir.permute"(%445) <{permutation = array<i64: 1, 0, 2, 3>}> : (tensor<4x6x32x7168xbf16>) -> tensor<6x4x32x7168xbf16> loc(#loc323)
        %447 = "ttir.reshape"(%446) <{shape = [6 : i32, 1 : i32, 128 : i32, 7168 : i32]}> : (tensor<6x4x32x7168xbf16>) -> tensor<6x1x128x7168xbf16> loc(#loc324)
        %448 = "ttir.all_to_all_combine"(%447, %429, %35) <{cluster_axis = 0 : i64, num_devices = 4 : i64, num_experts_per_tok = 8 : i64, output_shard_dim = 2 : i64}> : (tensor<6x1x128x7168xbf16>, tensor<1x1x128x8xi64>, tensor<1x1x384x64xi64>) -> tensor<8x1x32x7168xbf16> loc(#loc325)
        %449 = "ttir.all_reduce"(%448) <{cluster_axis = 1 : ui32, reduce_type = #ttcore.reduce_type<sum>}> : (tensor<8x1x32x7168xbf16>) -> tensor<8x1x32x7168xbf16> loc(#loc325)
        %450 = "ttir.mesh_partition"(%449) <{cluster_axis = 1 : ui32, dim = 3 : si32}> : (tensor<8x1x32x7168xbf16>) -> tensor<8x1x32x448xbf16> loc(#loc)
        %451 = "ttir.typecast"(%450) <{conservative_folding = false}> : (tensor<8x1x32x448xbf16>) -> tensor<8x1x32x448xf32> loc(#loc326)
        %452 = "ttir.reshape"(%426) <{shape = [32 : i32, 8 : i32, 1 : i32]}> : (tensor<32x8xi64>) -> tensor<32x8x1xi64> loc(#loc327)
        %453 = "ttir.broadcast"(%452) <{broadcast_dimensions = array<i64: 1, 1, 384>}> : (tensor<32x8x1xi64>) -> tensor<32x8x384xi64> loc(#loc327)
        %454 = "ttir.broadcast"(%412) <{broadcast_dimensions = array<i64: 32, 8, 1>}> : (tensor<1x1x384xi64>) -> tensor<32x8x384xi64> loc(#loc328)
        %455 = "ttir.eq"(%453, %454) : (tensor<32x8x384xi64>, tensor<32x8x384xi64>) -> tensor<32x8x384xi1> loc(#loc329)
        %456 = "ttir.typecast"(%455) <{conservative_folding = false}> : (tensor<32x8x384xi1>) -> tensor<32x8x384xf32> loc(#loc330)
        %457 = "ttir.dot_general"(%456, %418) <{batch_dims_lhs = array<i64: 0>, batch_dims_rhs = array<i64: 0>, contract_dims_lhs = array<i64: 2>, contract_dims_rhs = array<i64: 1>}> : (tensor<32x8x384xf32>, tensor<32x384xf32>) -> tensor<32x8xf32> loc(#loc331)
        %458 = "ttir.permute"(%457) <{permutation = array<i64: 1, 0>}> : (tensor<32x8xf32>) -> tensor<8x32xf32> loc(#loc332)
        %459 = "ttir.reshape"(%458) <{shape = [8 : i32, 1 : i32, 32 : i32]}> : (tensor<8x32xf32>) -> tensor<8x1x32xf32> loc(#loc333)
        %460 = "ttir.reshape"(%459) <{shape = [8 : i32, 1 : i32, 32 : i32, 1 : i32]}> : (tensor<8x1x32xf32>) -> tensor<8x1x32x1xf32> loc(#loc334)
        %461 = "ttir.broadcast"(%460) <{broadcast_dimensions = array<i64: 1, 1, 1, 448>}> : (tensor<8x1x32x1xf32>) -> tensor<8x1x32x448xf32> loc(#loc334)
        %462 = "ttir.multiply"(%451, %461) : (tensor<8x1x32x448xf32>, tensor<8x1x32x448xf32>) -> tensor<8x1x32x448xf32> loc(#loc335)
        %463 = "ttir.sum"(%462) <{dim_arg = [0 : i32], keep_dim = false}> : (tensor<8x1x32x448xf32>) -> tensor<1x32x448xf32> loc(#loc336)
        %464 = "ttir.reshape"(%463) <{shape = [32 : i32, 1 : i32, 448 : i32]}> : (tensor<1x32x448xf32>) -> tensor<32x1x448xf32> loc(#loc337)
        %465 = "ttir.slice_static"(%464) <{begins = [0 : i32, 0 : i32, 0 : i32], ends = [16 : i32, 1 : i32, 448 : i32], step = [1 : i32, 1 : i32, 1 : i32]}> : (tensor<32x1x448xf32>) -> tensor<16x1x448xf32> loc(#loc338)
        %466 = "ttir.reshape"(%465) <{shape = [4 : i32, 4 : i32, 1 : i32, 448 : i32]}> : (tensor<16x1x448xf32>) -> tensor<4x4x1x448xf32> loc(#loc338)
        %467 = "ttir.all_to_all"(%466) <{concat_dim = 0 : si32, replica_groups = dense<[[0, 16, 32, 48], [1, 17, 33, 49], [2, 18, 34, 50], [3, 19, 35, 51], [4, 20, 36, 52], [5, 21, 37, 53], [6, 22, 38, 54], [7, 23, 39, 55], [8, 24, 40, 56], [9, 25, 41, 57], [10, 26, 42, 58], [11, 27, 43, 59], [12, 28, 44, 60], [13, 29, 45, 61], [14, 30, 46, 62], [15, 31, 47, 63]]> : tensor<16x4xi64>, split_count = 4 : si32, split_dim = 0 : si32}> : (tensor<4x4x1x448xf32>) -> tensor<4x4x1x448xf32> loc(#loc338)
        %468 = "ttir.slice_static"(%467) <{begins = [0 : i32, 0 : i32, 0 : i32, 0 : i32], ends = [1 : i32, 4 : i32, 1 : i32, 448 : i32], step = [1 : i32, 1 : i32, 1 : i32, 1 : i32]}> : (tensor<4x4x1x448xf32>) -> tensor<1x4x1x448xf32> loc(#loc338)
        %469 = "ttir.reshape"(%468) <{shape = [4 : i32, 1 : i32, 448 : i32]}> : (tensor<1x4x1x448xf32>) -> tensor<4x1x448xf32> loc(#loc338)
        %470 = "ttir.typecast"(%469) <{conservative_folding = false}> : (tensor<4x1x448xf32>) -> tensor<4x1x448xbf16> loc(#loc339)
        %471 = "ttir.permute"(%32) <{permutation = array<i64: 1, 0>}> : (tensor<2048x448xbf16>) -> tensor<448x2048xbf16> loc(#loc340)
        %472 = "ttir.dot_general"(%345, %471) <{batch_dims_lhs = array<i64>, batch_dims_rhs = array<i64>, contract_dims_lhs = array<i64: 1>, contract_dims_rhs = array<i64: 0>}> : (tensor<4x448xbf16>, tensor<448x2048xbf16>) -> tensor<4x2048xbf16> loc(#loc341)
        %473 = "ttir.all_reduce"(%472) <{cluster_axis = 1 : ui32, reduce_type = #ttcore.reduce_type<sum>}> : (tensor<4x2048xbf16>) -> tensor<4x2048xbf16> loc(#loc341)
        %474 = "ttir.reshape"(%473) <{shape = [4 : i32, 1 : i32, 2048 : i32]}> : (tensor<4x2048xbf16>) -> tensor<4x1x2048xbf16> loc(#loc342)
        %475 = "ttir.typecast"(%474) <{conservative_folding = false}> : (tensor<4x1x2048xbf16>) -> tensor<4x1x2048xf32> loc(#loc343)
        %476 = "ttir.sigmoid"(%475) : (tensor<4x1x2048xf32>) -> tensor<4x1x2048xf32> loc(#loc344)
        %477 = "ttir.multiply"(%475, %476) : (tensor<4x1x2048xf32>, tensor<4x1x2048xf32>) -> tensor<4x1x2048xf32> loc(#loc345)
        %478 = "ttir.typecast"(%477) <{conservative_folding = false}> : (tensor<4x1x2048xf32>) -> tensor<4x1x2048xbf16> loc(#loc346)
        %479 = "ttir.permute"(%24) <{permutation = array<i64: 1, 0>}> : (tensor<2048x448xbf16>) -> tensor<448x2048xbf16> loc(#loc347)
        %480 = "ttir.dot_general"(%345, %479) <{batch_dims_lhs = array<i64>, batch_dims_rhs = array<i64>, contract_dims_lhs = array<i64: 1>, contract_dims_rhs = array<i64: 0>}> : (tensor<4x448xbf16>, tensor<448x2048xbf16>) -> tensor<4x2048xbf16> loc(#loc348)
        %481 = "ttir.all_reduce"(%480) <{cluster_axis = 1 : ui32, reduce_type = #ttcore.reduce_type<sum>}> : (tensor<4x2048xbf16>) -> tensor<4x2048xbf16> loc(#loc348)
        %482 = "ttir.reshape"(%481) <{shape = [4 : i32, 1 : i32, 2048 : i32]}> : (tensor<4x2048xbf16>) -> tensor<4x1x2048xbf16> loc(#loc349)
        %483 = "ttir.multiply"(%478, %482) : (tensor<4x1x2048xbf16>, tensor<4x1x2048xbf16>) -> tensor<4x1x2048xbf16> loc(#loc350)
        %484 = "ttir.reshape"(%483) <{shape = [4 : i32, 2048 : i32]}> : (tensor<4x1x2048xbf16>) -> tensor<4x2048xbf16> loc(#loc351)
        %485 = "ttir.permute"(%23) <{permutation = array<i64: 1, 0>}> : (tensor<448x2048xbf16>) -> tensor<2048x448xbf16> loc(#loc352)
        %486 = "ttir.dot_general"(%484, %485) <{batch_dims_lhs = array<i64>, batch_dims_rhs = array<i64>, contract_dims_lhs = array<i64: 1>, contract_dims_rhs = array<i64: 0>}> : (tensor<4x2048xbf16>, tensor<2048x448xbf16>) -> tensor<4x448xbf16> loc(#loc353)
        %487 = "ttir.reshape"(%486) <{shape = [4 : i32, 1 : i32, 448 : i32]}> : (tensor<4x448xbf16>) -> tensor<4x1x448xbf16> loc(#loc354)
        %488 = "ttir.add"(%470, %487) : (tensor<4x1x448xbf16>, tensor<4x1x448xbf16>) -> tensor<4x1x448xbf16> loc(#loc355)
        %489 = "ttir.add"(%337, %488) : (tensor<4x1x448xbf16>, tensor<4x1x448xbf16>) -> tensor<4x1x448xbf16> loc(#loc356)
        %490 = "ttir.all_gather"(%489) <{all_gather_dim = 2 : si32, cluster_axis = 1 : ui32}> : (tensor<4x1x448xbf16>) -> tensor<4x1x7168xbf16> loc(#loc356)
        %491 = "ttir.all_gather"(%22) <{all_gather_dim = 0 : si32, cluster_axis = 1 : ui32}> : (tensor<448xbf16>) -> tensor<7168xbf16> loc(#loc357)
        %492 = "ttir.rms_norm"(%490, %491) <{epsilon = 9.99999974E-6 : f32, normalized_shape = array<i64: 7168>, operandSegmentSizes = array<i32: 1, 1, 0>}> : (tensor<4x1x7168xbf16>, tensor<7168xbf16>) -> tensor<4x1x7168xbf16> loc(#loc358)
        %493 = "ttir.reshape"(%492) <{shape = [4 : i32, 1 : i32, 16 : i32, 448 : i32]}> : (tensor<4x1x7168xbf16>) -> tensor<4x1x16x448xbf16> loc(#loc358)
        %494 = "ttir.all_to_all"(%493) <{concat_dim = 2 : si32, replica_groups = dense<[[0, 1, 2, 3, 4, 5, 6, 7, 8, 9, 10, 11, 12, 13, 14, 15], [16, 17, 18, 19, 20, 21, 22, 23, 24, 25, 26, 27, 28, 29, 30, 31], [32, 33, 34, 35, 36, 37, 38, 39, 40, 41, 42, 43, 44, 45, 46, 47], [48, 49, 50, 51, 52, 53, 54, 55, 56, 57, 58, 59, 60, 61, 62, 63]]> : tensor<4x16xi64>, split_count = 16 : si32, split_dim = 2 : si32}> : (tensor<4x1x16x448xbf16>) -> tensor<4x1x16x448xbf16> loc(#loc358)
        %495 = "ttir.slice_static"(%494) <{begins = [0 : i32, 0 : i32, 0 : i32, 0 : i32], ends = [4 : i32, 1 : i32, 1 : i32, 448 : i32], step = [1 : i32, 1 : i32, 1 : i32, 1 : i32]}> : (tensor<4x1x16x448xbf16>) -> tensor<4x1x1x448xbf16> loc(#loc358)
        %496 = "ttir.reshape"(%495) <{shape = [4 : i32, 448 : i32]}> : (tensor<4x1x1x448xbf16>) -> tensor<4x448xbf16> loc(#loc405)
        %497 = "ttir.permute"(%21) <{permutation = array<i64: 1, 0>}> : (tensor<40960x448xbf16>) -> tensor<448x40960xbf16> loc(#loc360)
        %498 = "ttir.all_gather"(%496) <{all_gather_dim = 0 : si32, cluster_axis = 0 : ui32}> : (tensor<4x448xbf16>) -> tensor<16x448xbf16> loc(#loc359)
        %499 = "ttir.dot_general"(%498, %497) <{batch_dims_lhs = array<i64>, batch_dims_rhs = array<i64>, contract_dims_lhs = array<i64: 1>, contract_dims_rhs = array<i64: 0>}> : (tensor<16x448xbf16>, tensor<448x40960xbf16>) -> tensor<16x40960xbf16> loc(#loc361)
        %500 = "ttir.all_reduce"(%499) <{cluster_axis = 1 : ui32, reduce_type = #ttcore.reduce_type<sum>}> : (tensor<16x40960xbf16>) -> tensor<16x40960xbf16> loc(#loc361)
        %501 = "ttir.reshape"(%500) <{shape = [16 : i32, 1 : i32, 40960 : i32]}> : (tensor<16x40960xbf16>) -> tensor<16x1x40960xbf16> loc(#loc362)
        %502 = "ttir.typecast"(%501) <{conservative_folding = false}> : (tensor<16x1x40960xbf16>) -> tensor<16x1x40960xf32> loc(#loc363)
        %503 = "ttir.mesh_shard"(%163) <{shard_dims = array<i64: 0, -1>, shard_direction = #ttcore.shard_direction<shard_to_full>, shard_shape = array<i64: 4, 1, 1, 1>, shard_type = #ttcore.shard_type<identity>}> : (tensor<4x1x128x512xbf16>) -> tensor<16x1x128x512xbf16> loc(#loc)
        %504 = "ttir.mesh_shard"(%188) <{shard_dims = array<i64: 0, -1>, shard_direction = #ttcore.shard_direction<shard_to_full>, shard_shape = array<i64: 4, 1, 1, 1>, shard_type = #ttcore.shard_type<identity>}> : (tensor<4x1x128x64xbf16>) -> tensor<16x1x128x64xbf16> loc(#loc)
        %505 = "ttir.mesh_shard"(%289) <{shard_dims = array<i64: 0, -1>, shard_direction = #ttcore.shard_direction<shard_to_full>, shard_shape = array<i64: 4, 1, 1, 1>, shard_type = #ttcore.shard_type<identity>}> : (tensor<4x1x128x512xbf16>) -> tensor<16x1x128x512xbf16> loc(#loc)
        %506 = "ttir.mesh_shard"(%310) <{shard_dims = array<i64: 0, -1>, shard_direction = #ttcore.shard_direction<shard_to_full>, shard_shape = array<i64: 4, 1, 1, 1>, shard_type = #ttcore.shard_type<identity>}> : (tensor<4x1x128x64xbf16>) -> tensor<16x1x128x64xbf16> loc(#loc)
        %507 = "ttir.mesh_shard"(%113) <{shard_dims = array<i64: -1>, shard_direction = #ttcore.shard_direction<shard_to_full>, shard_shape = array<i64: 1>, shard_type = #ttcore.shard_type<identity>}> : (tensor<32xf64>) -> tensor<32xf64> loc(#loc)
        %508 = "ttir.mesh_shard"(%120) <{shard_dims = array<i64: -1>, shard_direction = #ttcore.shard_direction<shard_to_full>, shard_shape = array<i64: 1>, shard_type = #ttcore.shard_type<identity>}> : (tensor<128x64xbf16>) -> tensor<128x64xbf16> loc(#loc)
        %509 = "ttir.mesh_shard"(%141) <{shard_dims = array<i64: -1>, shard_direction = #ttcore.shard_direction<shard_to_full>, shard_shape = array<i64: 1>, shard_type = #ttcore.shard_type<identity>}> : (tensor<128x64xbf16>) -> tensor<128x64xbf16> loc(#loc)
        %510 = "ttir.mesh_shard"(%502) <{shard_dims = array<i64: 2, -1>, shard_direction = #ttcore.shard_direction<shard_to_full>, shard_shape = array<i64: 1, 1, 4>, shard_type = #ttcore.shard_type<identity>}> : (tensor<16x1x40960xf32>) -> tensor<16x1x163840xf32> loc(#loc)
        return %503, %504, %505, %506, %507, %507, %508, %509, %508, %509, %510 : tensor<16x1x128x512xbf16>, tensor<16x1x128x64xbf16>, tensor<16x1x128x512xbf16>, tensor<16x1x128x64xbf16>, tensor<32xf64>, tensor<32xf64>, tensor<128x64xbf16>, tensor<128x64xbf16>, tensor<128x64xbf16>, tensor<128x64xbf16>, tensor<16x1x163840xf32> loc(#loc)
      } loc(#loc)
    } loc(#loc)
  } loc(#loc)
} loc(#loc)
#loc = loc(unknown)
#loc40 = loc("reshape.19")
#loc41 = loc("reshape.16")
#loc42 = loc("convert.24")
#loc43 = loc("gather.25")
#loc44 = loc("reshape.26")
#loc45 = loc("reshape.9")
#loc46 = loc("custom-call.59")
#loc47 = loc("reshape.377")
#loc48 = loc("transpose.376")
#loc49 = loc("dot.378")
#loc50 = loc("reshape.379")
#loc51 = loc("custom-call.412")
#loc52 = loc("reshape.413")
#loc53 = loc("transpose.362")
#loc54 = loc("dot.414")
#loc55 = loc("transpose.417")
#loc56 = loc("slice.435")
#loc57 = loc("slice.418")
#loc58 = loc("reshape.419")
#loc59 = loc("transpose.420")
#loc60 = loc("reshape.421")
#loc61 = loc("broadcast.173")
#loc62 = loc("power.154")
#loc63 = loc("multiply.156")
#loc64 = loc("divide.159")
#loc65 = loc("convert.162")
#loc66 = loc("multiply.163")
#loc67 = loc("divide.133")
#loc68 = loc("convert.136")
#loc69 = loc("multiply.137")
#loc70 = loc("add.167")
#loc71 = loc("broadcast.171")
#loc72 = loc("multiply.174")
#loc73 = loc("convert.175")
#loc74 = loc("concatenate.177")
#loc75 = loc("cosine.209")
#loc76 = loc("convert.212")
#loc77 = loc("reshape.88")
#loc78 = loc("reshape.66")
#loc79 = loc("compare.204")
#loc80 = loc("add.201")
#loc81 = loc("select.205")
#loc82 = loc("reshape.206")
#loc83 = loc("gather.214")
#loc84 = loc("reshape.429")
#loc85 = loc("broadcast.430")
#loc86 = loc("multiply.431")
#loc87 = loc("slice.423")
#loc88 = loc("negate.424")
#loc89 = loc("slice.422")
#loc90 = loc("concatenate.425")
#loc91 = loc("sine.178")
#loc92 = loc("convert.181")
#loc93 = loc("gather.183")
#loc94 = loc("reshape.426")
#loc95 = loc("broadcast.427")
#loc96 = loc("multiply.428")
#loc97 = loc("add.434")
#loc98 = loc("concatenate.436")
#loc99 = loc("compare.75")
#loc100 = loc("add.72")
#loc101 = loc("select.76")
#loc102 = loc("transpose.5")
#loc103 = loc("dot.61")
#loc104 = loc("reshape.62")
#loc105 = loc("slice.63")
#loc106 = loc("reshape.64")
#loc107 = loc("scatter.85")
#loc108 = loc("reshape.294")
#loc109 = loc("custom-call.327")
#loc110 = loc("reshape.328")
#loc111 = loc("transpose.284")
#loc112 = loc("dot.329")
#loc113 = loc("reshape.331")
#loc114 = loc("transpose.332")
#loc115 = loc("slice.354")
#loc116 = loc("slice.185")
#loc117 = loc("reshape.188")
#loc118 = loc("transpose.189")
#loc119 = loc("reshape.190")
#loc120 = loc("broadcast.217")
#loc121 = loc("multiply.218")
#loc122 = loc("slice.192")
#loc123 = loc("negate.193")
#loc124 = loc("slice.191")
#loc125 = loc("concatenate.194")
#loc126 = loc("broadcast.196")
#loc127 = loc("multiply.197")
#loc128 = loc("add.221")
#loc129 = loc("scatter.238")
#loc130 = loc("reshape.352")
#loc131 = loc("broadcast.353")
#loc132 = loc("concatenate.355")
#loc133 = loc("transpose.356")
#loc134 = loc("dot.437")
#loc135 = loc("multiply.440")
#loc136 = loc("broadcast.340")
#loc137 = loc("compare.341")
#loc138 = loc("convert.342")
#loc139 = loc("multiply.344")
#loc140 = loc("reshape.345")
#loc141 = loc("broadcast.349")
#loc142 = loc("reshape.443")
#loc143 = loc("broadcast.444")
#loc144 = loc("add.445")
#loc145 = loc("convert.446")
#loc146 = loc("reduce.452")
#loc147 = loc("broadcast.453")
#loc148 = loc("subtract.454")
#loc149 = loc("exponential.455")
#loc150 = loc("reduce.461")
#loc151 = loc("broadcast.462")
#loc152 = loc("divide.463")
#loc153 = loc("convert.464")
#loc154 = loc("slice.333")
#loc155 = loc("dot.465")
#loc156 = loc("reshape.469")
#loc157 = loc("transpose.279")
#loc158 = loc("dot.470")
#loc159 = loc("reshape.471")
#loc160 = loc("add.474")
#loc161 = loc("reshape.268")
#loc162 = loc("custom-call.507")
#loc163 = loc("reshape.516")
#loc164 = loc("transpose.515")
#loc165 = loc("dot.517")
#loc166 = loc("reshape.518")
#loc167 = loc("convert.519")
#loc168 = loc("logistic.520")
#loc169 = loc("multiply.521")
#loc170 = loc("convert.522")
#loc171 = loc("transpose.264")
#loc172 = loc("dot.509")
#loc173 = loc("reshape.510")
#loc174 = loc("multiply.523")
#loc175 = loc("reshape.524")
#loc176 = loc("transpose.259")
#loc177 = loc("dot.525")
#loc178 = loc("reshape.526")
#loc179 = loc("add.529")
#loc180 = loc("reshape.248")
#loc181 = loc("custom-call.562")
#loc182 = loc("reshape.861")
#loc183 = loc("transpose.860")
#loc184 = loc("dot.862")
#loc185 = loc("reshape.863")
#loc186 = loc("custom-call.896")
#loc187 = loc("reshape.897")
#loc188 = loc("transpose.846")
#loc189 = loc("dot.898")
#loc190 = loc("transpose.901")
#loc191 = loc("slice.919")
#loc192 = loc("slice.902")
#loc193 = loc("reshape.903")
#loc194 = loc("transpose.904")
#loc195 = loc("reshape.905")
#loc196 = loc("multiply.915")
#loc197 = loc("slice.907")
#loc198 = loc("negate.908")
#loc199 = loc("slice.906")
#loc200 = loc("concatenate.909")
#loc201 = loc("multiply.912")
#loc202 = loc("add.918")
#loc203 = loc("concatenate.920")
#loc204 = loc("transpose.244")
#loc205 = loc("dot.564")
#loc206 = loc("reshape.565")
#loc207 = loc("slice.566")
#loc208 = loc("reshape.567")
#loc209 = loc("scatter.584")
#loc210 = loc("reshape.793")
#loc211 = loc("custom-call.826")
#loc212 = loc("reshape.827")
#loc213 = loc("transpose.783")
#loc214 = loc("dot.828")
#loc215 = loc("reshape.830")
#loc216 = loc("transpose.831")
#loc217 = loc("slice.838")
#loc218 = loc("slice.683")
#loc219 = loc("reshape.686")
#loc220 = loc("transpose.687")
#loc221 = loc("reshape.688")
#loc222 = loc("multiply.716")
#loc223 = loc("slice.690")
#loc224 = loc("negate.691")
#loc225 = loc("slice.689")
#loc226 = loc("concatenate.692")
#loc227 = loc("multiply.695")
#loc228 = loc("add.719")
#loc229 = loc("scatter.736")
#loc230 = loc("reshape.836")
#loc231 = loc("broadcast.837")
#loc232 = loc("concatenate.839")
#loc233 = loc("transpose.840")
#loc234 = loc("dot.921")
#loc235 = loc("multiply.924")
#loc236 = loc("add.929")
#loc237 = loc("convert.930")
#loc238 = loc("reduce.936")
#loc239 = loc("broadcast.937")
#loc240 = loc("subtract.938")
#loc241 = loc("exponential.939")
#loc242 = loc("reduce.945")
#loc243 = loc("broadcast.946")
#loc244 = loc("divide.947")
#loc245 = loc("convert.948")
#loc246 = loc("slice.832")
#loc247 = loc("dot.949")
#loc248 = loc("reshape.953")
#loc249 = loc("transpose.778")
#loc250 = loc("dot.954")
#loc251 = loc("reshape.955")
#loc252 = loc("add.958")
#loc253 = loc("reshape.767")
#loc254 = loc("custom-call.991")
#loc255 = loc("reshape.1024")
#loc256 = loc("convert.1025")
#loc257 = loc("convert.1022")
#loc258 = loc("transpose.1023")
#loc259 = loc("dot.1026")
#loc260 = loc("logistic.1027")
#loc261 = loc("reshape.1017")
#loc262 = loc("reshape.1014")
#loc263 = loc("convert.1028")
#loc264 = loc("reshape.1031")
#loc265 = loc("broadcast.1032")
#loc266 = loc("add.1033")
#loc267 = loc("reshape.1046")
#loc268 = loc("reduce.1074")
#loc269 = loc("iota.1101")
#loc270 = loc("reshape.1102")
#loc271 = loc("concatenate.1103")
#loc272 = loc("scatter.1107")
#loc273 = loc("broadcast.1111")
#loc274 = loc("reshape.1112")
#loc275 = loc("convert.1113")
#loc276 = loc("select.1116")
#loc277 = loc("not.1114")
#loc278 = loc("iota.1150")
#loc279 = loc("convert.1149")
#loc280 = loc("reshape.1151")
#loc281 = loc("concatenate.1152")
#loc282 = loc("gather.1153")
#loc283 = loc("reduce.1161")
#loc284 = loc("reshape.1162")
#loc285 = loc("add.1165")
#loc286 = loc("reshape.1166")
#loc287 = loc("broadcast.1167")
#loc288 = loc("divide.1168")
#loc289 = loc("multiply.1170")
#loc290 = loc("broadcast.1141")
#loc291 = loc("broadcast.1139")
#loc292 = loc("compare.1142")
#loc293 = loc("convert.1143")
#loc294 = loc("dot.1171")
#loc295 = loc("pad.1174")
#loc296 = loc("reshape.1200")
#loc297 = loc("concatenate.1202")
#loc298 = loc("reshape.1204")
#loc299 = loc("pad.1194")
#loc300 = loc("reshape.1195")
#loc301 = loc("convert.1136")
#loc302 = loc("pad.1177")
#loc303 = loc("reshape.1192")
#loc304 = loc("custom-call.1196")
#loc305 = loc("reshape.1199")
#loc306 = loc("custom-call.1205")
#loc307 = loc("reshape.1224")
#loc308 = loc("reshape.1222")
#loc309 = loc("reshape.1219")
#loc310 = loc("custom-call.1225")
#loc311 = loc("reshape.1226")
#loc312 = loc("convert.1227")
#loc313 = loc("logistic.1228")
#loc314 = loc("multiply.1229")
#loc315 = loc("convert.1230")
#loc316 = loc("reshape.1214")
#loc317 = loc("custom-call.1217")
#loc318 = loc("reshape.1218")
#loc319 = loc("multiply.1231")
#loc320 = loc("reshape.1232")
#loc321 = loc("reshape.1210")
#loc322 = loc("custom-call.1233")
#loc323 = loc("transpose.1234")
#loc324 = loc("reshape.1235")
#loc325 = loc("custom-call.1236")
#loc326 = loc("convert.1237")
#loc327 = loc("broadcast.1181")
#loc328 = loc("broadcast.1179")
#loc329 = loc("compare.1182")
#loc330 = loc("convert.1183")
#loc331 = loc("dot.1184")
#loc332 = loc("transpose.1186")
#loc333 = loc("reshape.1187")
#loc334 = loc("broadcast.1239")
#loc335 = loc("multiply.1240")
#loc336 = loc("reduce.1247")
#loc337 = loc("reshape.1248")
#loc338 = loc("slice.1249")
#loc339 = loc("convert.1250")
#loc340 = loc("transpose.999")
#loc341 = loc("dot.1001")
#loc342 = loc("reshape.1002")
#loc343 = loc("convert.1003")
#loc344 = loc("logistic.1004")
#loc345 = loc("multiply.1005")
#loc346 = loc("convert.1006")
#loc347 = loc("transpose.763")
#loc348 = loc("dot.993")
#loc349 = loc("reshape.994")
#loc350 = loc("multiply.1007")
#loc351 = loc("reshape.1008")
#loc352 = loc("transpose.758")
#loc353 = loc("dot.1009")
#loc354 = loc("reshape.1010")
#loc355 = loc("add.1253")
#loc356 = loc("add.1256")
#loc357 = loc("reshape.746")
#loc358 = loc("custom-call.1289")
#loc359 = loc("reshape.1290")
#loc360 = loc("transpose.742")
#loc361 = loc("dot.1291")
#loc362 = loc("reshape.1292")
#loc363 = loc("convert.1293")
#loc364 = loc(fused[#loc40, #loc41])
#loc365 = loc("gather.25_permuteInput"(#loc43))
#loc366 = loc("gather.25_reshapeInput"(#loc43))
#loc367 = loc("gather.25_reshapeStartIndices"(#loc43))
#loc368 = loc("gather.25_reshapeOutput"(#loc43))
#loc369 = loc("gather.25_permuteOutput"(#loc43))
#loc370 = loc(fused[#loc47, #loc46])
#loc371 = loc(fused[#loc77, #loc78])
#loc372 = loc("gather.214_permuteInput"(#loc83))
#loc373 = loc("gather.214_reshapeInput"(#loc83))
#loc374 = loc("gather.214_reshapeStartIndices"(#loc83))
#loc375 = loc("gather.214_reshapeOutput"(#loc83))
#loc376 = loc("gather.214_permuteOutput"(#loc83))
#loc377 = loc("gather.183_permuteInput"(#loc93))
#loc378 = loc("gather.183_reshapeInput"(#loc93))
#loc379 = loc("gather.183_reshapeOutput"(#loc93))
#loc380 = loc("gather.183_permuteOutput"(#loc93))
#loc381 = loc(fused[#loc163, #loc162])
#loc382 = loc(fused[#loc182, #loc181])
#loc383 = loc(fused[#loc255, #loc254])
#loc384 = loc(fused[#loc261, #loc262])
#loc385 = loc("scatter.1107_reshape_indices"(#loc272))
#loc386 = loc("scatter.1107_reshape_for_repeat"(#loc272))
#loc387 = loc("scatter.1107_repeat_indices"(#loc272))
#loc388 = loc("scatter.1107_flatten_repeated_indices"(#loc272))
#loc389 = loc("scatter.1107_slice_orig_idx_0"(#loc272))
#loc390 = loc("scatter.1107_slice_orig_idx_1"(#loc272))
#loc391 = loc("scatter.1107_add_dim_1"(#loc272))
#loc392 = loc("scatter.1107_flatten_expanded_indices"(#loc272))
#loc393 = loc("scatter.1107_input_flatten"(#loc272))
#loc394 = loc("scatter.1107_update_flatten"(#loc272))
#loc395 = loc("scatter.1107_result_reshape"(#loc272))
#loc396 = loc(fused[#loc276, #loc277])
#loc397 = loc("gather.1153_permuteInput"(#loc282))
#loc398 = loc("gather.1153_reshapeInput"(#loc282))
#loc399 = loc("logistic.1027_permuteStartIndices"(#loc260))
#loc400 = loc("logistic.1027_typecast"(#loc260))
#loc401 = loc("logistic.1027_constant"(#loc260))
#loc402 = loc("gather.1153_reshapeStartIndices"(#loc282))
#loc403 = loc("gather.1153_reshapeOutput"(#loc282))
#loc404 = loc("gather.1153_permuteOutput"(#loc282))
#loc405 = loc(fused[#loc359, #loc358])
