#dram = #ttnn.buffer_type<dram>
#l1 = #ttnn.buffer_type<l1>
#loc = loc(unknown)
#loc53 = loc("p0.1")
#loc54 = loc("p1.6")
#loc55 = loc("p2.15")
#loc56 = loc("p3.20")
#loc57 = loc("p4.65")
#loc58 = loc("p5.79")
#loc59 = loc("p6.232")
#loc60 = loc("p7.240")
#loc61 = loc("p8.245")
#loc62 = loc("p9.255")
#loc63 = loc("p10.260")
#loc64 = loc("p11.265")
#loc65 = loc("p12.275")
#loc66 = loc("p13.280")
#loc67 = loc("p14.285")
#loc68 = loc("p15.358")
#loc69 = loc("p16.363")
#loc70 = loc("p17.372")
#loc71 = loc("p18.511")
#loc72 = loc("p19.578")
#loc73 = loc("p20.730")
#loc74 = loc("p21.738")
#loc75 = loc("p22.743")
#loc76 = loc("p23.754")
#loc77 = loc("p24.759")
#loc78 = loc("p25.764")
#loc79 = loc("p26.774")
#loc80 = loc("p27.779")
#loc81 = loc("p28.784")
#loc82 = loc("p29.842")
#loc83 = loc("p30.847")
#loc84 = loc("p31.856")
#loc85 = loc("p32.995")
#loc86 = loc("p33.1013")
#loc87 = loc("p34.1018")
#loc88 = loc("p35.1189")
#loc89 = loc("p36.1208")
#loc90 = loc("p37.1212")
#loc91 = loc("p38.1220")
#system_desc = #ttcore.system_desc<[{role = host, target_triple = "x86_64-pc-linux"}], [{arch = <blackhole>, grid = 10x12, coord_translation_offsets = 2x1, l1_size = 1572864, num_dram_channels = 8, dram_channel_size = 4278190080, noc_l1_address_align_bytes = 16, pcie_address_align_bytes = 64, noc_dram_address_align_bytes = 64, l1_unreserved_base = 111104, erisc_l1_unreserved_base = 87872, dram_unreserved_base = 4800064, dram_unreserved_end = 4276245760, supported_data_types = [<f32>, <f16>, <bf16>, <bfp_f8>, <bfp_bf8>, <bfp_f4>, <bfp_bf4>, <bfp_f2>, <bfp_bf2>, <u32>, <u16>, <u8>, <si32>], supported_tile_sizes = [ 4x16,  16x16,  32x16,  4x32,  16x32,  32x32], dst_physical_size_tiles = 16, num_cbs = 64, num_compute_threads = 1, num_datamovement_threads = 2, dram_grid = 1x8, dram_bank_to_logical_worker_noc0 = [(9, 0), (0, 0), (7, 0), (3, 0), (9, 6), (1, 6), (6, 6), (4, 6)], dram_bank_to_logical_worker_noc1 = [(9, 0), (0, 0), (7, 0), (3, 0), (9, 6), (1, 6), (6, 6), (4, 6)]}, {arch = <blackhole>, grid = 10x12, coord_translation_offsets = 2x1, l1_size = 1572864, num_dram_channels = 8, dram_channel_size = 4278190080, noc_l1_address_align_bytes = 16, pcie_address_align_bytes = 64, noc_dram_address_align_bytes = 64, l1_unreserved_base = 111104, erisc_l1_unreserved_base = 87872, dram_unreserved_base = 4800064, dram_unreserved_end = 4276245760, supported_data_types = [<f32>, <f16>, <bf16>, <bfp_f8>, <bfp_bf8>, <bfp_f4>, <bfp_bf4>, <bfp_f2>, <bfp_bf2>, <u32>, <u16>, <u8>, <si32>], supported_tile_sizes = [ 4x16,  16x16,  32x16,  4x32,  16x32,  32x32], dst_physical_size_tiles = 16, num_cbs = 64, num_compute_threads = 1, num_datamovement_threads = 2, dram_grid = 1x8, dram_bank_to_logical_worker_noc0 = [(9, 0), (0, 0), (7, 0), (3, 0), (9, 6), (1, 6), (6, 6), (4, 6)], dram_bank_to_logical_worker_noc1 = [(9, 0), (0, 0), (7, 0), (3, 0), (9, 6), (1, 6), (6, 6), (4, 6)]}, {arch = <blackhole>, grid = 10x12, coord_translation_offsets = 2x1, l1_size = 1572864, num_dram_channels = 8, dram_channel_size = 4278190080, noc_l1_address_align_bytes = 16, pcie_address_align_bytes = 64, noc_dram_address_align_bytes = 64, l1_unreserved_base = 111104, erisc_l1_unreserved_base = 87872, dram_unreserved_base = 4800064, dram_unreserved_end = 4276245760, supported_data_types = [<f32>, <f16>, <bf16>, <bfp_f8>, <bfp_bf8>, <bfp_f4>, <bfp_bf4>, <bfp_f2>, <bfp_bf2>, <u32>, <u16>, <u8>, <si32>], supported_tile_sizes = [ 4x16,  16x16,  32x16,  4x32,  16x32,  32x32], dst_physical_size_tiles = 16, num_cbs = 64, num_compute_threads = 1, num_datamovement_threads = 2, dram_grid = 1x8, dram_bank_to_logical_worker_noc0 = [(9, 0), (0, 0), (7, 0), (3, 0), (9, 7), (1, 7), (6, 7), (4, 7)], dram_bank_to_logical_worker_noc1 = [(9, 0), (0, 0), (7, 0), (3, 0), (9, 7), (1, 7), (6, 7), (4, 7)]}, {arch = <blackhole>, grid = 10x12, coord_translation_offsets = 2x1, l1_size = 1572864, num_dram_channels = 8, dram_channel_size = 4278190080, noc_l1_address_align_bytes = 16, pcie_address_align_bytes = 64, noc_dram_address_align_bytes = 64, l1_unreserved_base = 111104, erisc_l1_unreserved_base = 87872, dram_unreserved_base = 4800064, dram_unreserved_end = 4276273536, supported_data_types = [<f32>, <f16>, <bf16>, <bfp_f8>, <bfp_bf8>, <bfp_f4>, <bfp_bf4>, <bfp_f2>, <bfp_bf2>, <u32>, <u16>, <u8>, <si32>], supported_tile_sizes = [ 4x16,  16x16,  32x16,  4x32,  16x32,  32x32], dst_physical_size_tiles = 16, num_cbs = 64, num_compute_threads = 1, num_datamovement_threads = 2, dram_grid = 1x8, dram_bank_to_logical_worker_noc0 = [(9, 0), (0, 0), (7, 0), (3, 0), (9, 7), (1, 7), (6, 7), (4, 7)], dram_bank_to_logical_worker_noc1 = [(9, 0), (0, 0), (7, 0), (3, 0), (9, 7), (1, 7), (6, 7), (4, 7)]}, {arch = <blackhole>, grid = 10x12, coord_translation_offsets = 2x1, l1_size = 1572864, num_dram_channels = 8, dram_channel_size = 4278190080, noc_l1_address_align_bytes = 16, pcie_address_align_bytes = 64, noc_dram_address_align_bytes = 64, l1_unreserved_base = 111104, erisc_l1_unreserved_base = 87872, dram_unreserved_base = 4800064, dram_unreserved_end = 4276245760, supported_data_types = [<f32>, <f16>, <bf16>, <bfp_f8>, <bfp_bf8>, <bfp_f4>, <bfp_bf4>, <bfp_f2>, <bfp_bf2>, <u32>, <u16>, <u8>, <si32>], supported_tile_sizes = [ 4x16,  16x16,  32x16,  4x32,  16x32,  32x32], dst_physical_size_tiles = 16, num_cbs = 64, num_compute_threads = 1, num_datamovement_threads = 2, dram_grid = 1x8, dram_bank_to_logical_worker_noc0 = [(9, 0), (0, 0), (7, 0), (3, 0), (9, 7), (1, 7), (6, 7), (4, 7)], dram_bank_to_logical_worker_noc1 = [(9, 0), (0, 0), (7, 0), (3, 0), (9, 7), (1, 7), (6, 7), (4, 7)]}, {arch = <blackhole>, grid = 10x12, coord_translation_offsets = 2x1, l1_size = 1572864, num_dram_channels = 8, dram_channel_size = 4278190080, noc_l1_address_align_bytes = 16, pcie_address_align_bytes = 64, noc_dram_address_align_bytes = 64, l1_unreserved_base = 111104, erisc_l1_unreserved_base = 87872, dram_unreserved_base = 4800064, dram_unreserved_end = 4276245760, supported_data_types = [<f32>, <f16>, <bf16>, <bfp_f8>, <bfp_bf8>, <bfp_f4>, <bfp_bf4>, <bfp_f2>, <bfp_bf2>, <u32>, <u16>, <u8>, <si32>], supported_tile_sizes = [ 4x16,  16x16,  32x16,  4x32,  16x32,  32x32], dst_physical_size_tiles = 16, num_cbs = 64, num_compute_threads = 1, num_datamovement_threads = 2, dram_grid = 1x8, dram_bank_to_logical_worker_noc0 = [(9, 0), (0, 0), (7, 0), (3, 0), (9, 7), (1, 7), (6, 7), (4, 7)], dram_bank_to_logical_worker_noc1 = [(9, 0), (0, 0), (7, 0), (3, 0), (9, 7), (1, 7), (6, 7), (4, 7)]}, {arch = <blackhole>, grid = 10x12, coord_translation_offsets = 2x1, l1_size = 1572864, num_dram_channels = 8, dram_channel_size = 4278190080, noc_l1_address_align_bytes = 16, pcie_address_align_bytes = 64, noc_dram_address_align_bytes = 64, l1_unreserved_base = 111104, erisc_l1_unreserved_base = 87872, dram_unreserved_base = 4800064, dram_unreserved_end = 4276245760, supported_data_types = [<f32>, <f16>, <bf16>, <bfp_f8>, <bfp_bf8>, <bfp_f4>, <bfp_bf4>, <bfp_f2>, <bfp_bf2>, <u32>, <u16>, <u8>, <si32>], supported_tile_sizes = [ 4x16,  16x16,  32x16,  4x32,  16x32,  32x32], dst_physical_size_tiles = 16, num_cbs = 64, num_compute_threads = 1, num_datamovement_threads = 2, dram_grid = 1x8, dram_bank_to_logical_worker_noc0 = [(9, 0), (0, 0), (7, 0), (3, 0), (9, 6), (1, 6), (6, 6), (4, 6)], dram_bank_to_logical_worker_noc1 = [(9, 0), (0, 0), (7, 0), (3, 0), (9, 6), (1, 6), (6, 6), (4, 6)]}, {arch = <blackhole>, grid = 10x12, coord_translation_offsets = 2x1, l1_size = 1572864, num_dram_channels = 8, dram_channel_size = 4278190080, noc_l1_address_align_bytes = 16, pcie_address_align_bytes = 64, noc_dram_address_align_bytes = 64, l1_unreserved_base = 111104, erisc_l1_unreserved_base = 87872, dram_unreserved_base = 4800064, dram_unreserved_end = 4276245760, supported_data_types = [<f32>, <f16>, <bf16>, <bfp_f8>, <bfp_bf8>, <bfp_f4>, <bfp_bf4>, <bfp_f2>, <bfp_bf2>, <u32>, <u16>, <u8>, <si32>], supported_tile_sizes = [ 4x16,  16x16,  32x16,  4x32,  16x32,  32x32], dst_physical_size_tiles = 16, num_cbs = 64, num_compute_threads = 1, num_datamovement_threads = 2, dram_grid = 1x8, dram_bank_to_logical_worker_noc0 = [(9, 0), (0, 0), (7, 0), (3, 0), (9, 6), (1, 6), (6, 6), (4, 6)], dram_bank_to_logical_worker_noc1 = [(9, 0), (0, 0), (7, 0), (3, 0), (9, 6), (1, 6), (6, 6), (4, 6)]}, {arch = <blackhole>, grid = 10x12, coord_translation_offsets = 2x1, l1_size = 1572864, num_dram_channels = 8, dram_channel_size = 4278190080, noc_l1_address_align_bytes = 16, pcie_address_align_bytes = 64, noc_dram_address_align_bytes = 64, l1_unreserved_base = 111104, erisc_l1_unreserved_base = 87872, dram_unreserved_base = 4800064, dram_unreserved_end = 4276245760, supported_data_types = [<f32>, <f16>, <bf16>, <bfp_f8>, <bfp_bf8>, <bfp_f4>, <bfp_bf4>, <bfp_f2>, <bfp_bf2>, <u32>, <u16>, <u8>, <si32>], supported_tile_sizes = [ 4x16,  16x16,  32x16,  4x32,  16x32,  32x32], dst_physical_size_tiles = 16, num_cbs = 64, num_compute_threads = 1, num_datamovement_threads = 2, dram_grid = 1x8, dram_bank_to_logical_worker_noc0 = [(9, 0), (0, 0), (7, 0), (3, 0), (9, 7), (1, 7), (6, 7), (4, 7)], dram_bank_to_logical_worker_noc1 = [(9, 0), (0, 0), (7, 0), (3, 0), (9, 7), (1, 7), (6, 7), (4, 7)]}, {arch = <blackhole>, grid = 10x12, coord_translation_offsets = 2x1, l1_size = 1572864, num_dram_channels = 8, dram_channel_size = 4278190080, noc_l1_address_align_bytes = 16, pcie_address_align_bytes = 64, noc_dram_address_align_bytes = 64, l1_unreserved_base = 111104, erisc_l1_unreserved_base = 87872, dram_unreserved_base = 4800064, dram_unreserved_end = 4276245760, supported_data_types = [<f32>, <f16>, <bf16>, <bfp_f8>, <bfp_bf8>, <bfp_f4>, <bfp_bf4>, <bfp_f2>, <bfp_bf2>, <u32>, <u16>, <u8>, <si32>], supported_tile_sizes = [ 4x16,  16x16,  32x16,  4x32,  16x32,  32x32], dst_physical_size_tiles = 16, num_cbs = 64, num_compute_threads = 1, num_datamovement_threads = 2, dram_grid = 1x8, dram_bank_to_logical_worker_noc0 = [(9, 0), (0, 0), (7, 0), (3, 0), (9, 6), (1, 6), (6, 6), (4, 6)], dram_bank_to_logical_worker_noc1 = [(9, 0), (0, 0), (7, 0), (3, 0), (9, 6), (1, 6), (6, 6), (4, 6)]}, {arch = <blackhole>, grid = 10x12, coord_translation_offsets = 2x1, l1_size = 1572864, num_dram_channels = 8, dram_channel_size = 4278190080, noc_l1_address_align_bytes = 16, pcie_address_align_bytes = 64, noc_dram_address_align_bytes = 64, l1_unreserved_base = 111104, erisc_l1_unreserved_base = 87872, dram_unreserved_base = 4800064, dram_unreserved_end = 4276245760, supported_data_types = [<f32>, <f16>, <bf16>, <bfp_f8>, <bfp_bf8>, <bfp_f4>, <bfp_bf4>, <bfp_f2>, <bfp_bf2>, <u32>, <u16>, <u8>, <si32>], supported_tile_sizes = [ 4x16,  16x16,  32x16,  4x32,  16x32,  32x32], dst_physical_size_tiles = 16, num_cbs = 64, num_compute_threads = 1, num_datamovement_threads = 2, dram_grid = 1x8, dram_bank_to_logical_worker_noc0 = [(9, 0), (0, 0), (7, 0), (3, 0), (9, 7), (1, 7), (6, 7), (4, 7)], dram_bank_to_logical_worker_noc1 = [(9, 0), (0, 0), (7, 0), (3, 0), (9, 7), (1, 7), (6, 7), (4, 7)]}, {arch = <blackhole>, grid = 10x12, coord_translation_offsets = 2x1, l1_size = 1572864, num_dram_channels = 8, dram_channel_size = 4278190080, noc_l1_address_align_bytes = 16, pcie_address_align_bytes = 64, noc_dram_address_align_bytes = 64, l1_unreserved_base = 111104, erisc_l1_unreserved_base = 87872, dram_unreserved_base = 4800064, dram_unreserved_end = 4276273536, supported_data_types = [<f32>, <f16>, <bf16>, <bfp_f8>, <bfp_bf8>, <bfp_f4>, <bfp_bf4>, <bfp_f2>, <bfp_bf2>, <u32>, <u16>, <u8>, <si32>], supported_tile_sizes = [ 4x16,  16x16,  32x16,  4x32,  16x32,  32x32], dst_physical_size_tiles = 16, num_cbs = 64, num_compute_threads = 1, num_datamovement_threads = 2, dram_grid = 1x8, dram_bank_to_logical_worker_noc0 = [(9, 0), (0, 0), (7, 0), (3, 0), (9, 7), (1, 7), (6, 7), (4, 7)], dram_bank_to_logical_worker_noc1 = [(9, 0), (0, 0), (7, 0), (3, 0), (9, 7), (1, 7), (6, 7), (4, 7)]}, {arch = <blackhole>, grid = 10x12, coord_translation_offsets = 2x1, l1_size = 1572864, num_dram_channels = 8, dram_channel_size = 4278190080, noc_l1_address_align_bytes = 16, pcie_address_align_bytes = 64, noc_dram_address_align_bytes = 64, l1_unreserved_base = 111104, erisc_l1_unreserved_base = 87872, dram_unreserved_base = 4800064, dram_unreserved_end = 4276245760, supported_data_types = [<f32>, <f16>, <bf16>, <bfp_f8>, <bfp_bf8>, <bfp_f4>, <bfp_bf4>, <bfp_f2>, <bfp_bf2>, <u32>, <u16>, <u8>, <si32>], supported_tile_sizes = [ 4x16,  16x16,  32x16,  4x32,  16x32,  32x32], dst_physical_size_tiles = 16, num_cbs = 64, num_compute_threads = 1, num_datamovement_threads = 2, dram_grid = 1x8, dram_bank_to_logical_worker_noc0 = [(9, 0), (0, 0), (7, 0), (3, 0), (9, 6), (1, 6), (6, 6), (4, 6)], dram_bank_to_logical_worker_noc1 = [(9, 0), (0, 0), (7, 0), (3, 0), (9, 6), (1, 6), (6, 6), (4, 6)]}, {arch = <blackhole>, grid = 10x12, coord_translation_offsets = 2x1, l1_size = 1572864, num_dram_channels = 8, dram_channel_size = 4278190080, noc_l1_address_align_bytes = 16, pcie_address_align_bytes = 64, noc_dram_address_align_bytes = 64, l1_unreserved_base = 111104, erisc_l1_unreserved_base = 87872, dram_unreserved_base = 4800064, dram_unreserved_end = 4276245760, supported_data_types = [<f32>, <f16>, <bf16>, <bfp_f8>, <bfp_bf8>, <bfp_f4>, <bfp_bf4>, <bfp_f2>, <bfp_bf2>, <u32>, <u16>, <u8>, <si32>], supported_tile_sizes = [ 4x16,  16x16,  32x16,  4x32,  16x32,  32x32], dst_physical_size_tiles = 16, num_cbs = 64, num_compute_threads = 1, num_datamovement_threads = 2, dram_grid = 1x8, dram_bank_to_logical_worker_noc0 = [(9, 0), (0, 0), (7, 0), (3, 0), (9, 7), (1, 7), (6, 7), (4, 7)], dram_bank_to_logical_worker_noc1 = [(9, 0), (0, 0), (7, 0), (3, 0), (9, 7), (1, 7), (6, 7), (4, 7)]}, {arch = <blackhole>, grid = 10x12, coord_translation_offsets = 2x1, l1_size = 1572864, num_dram_channels = 8, dram_channel_size = 4278190080, noc_l1_address_align_bytes = 16, pcie_address_align_bytes = 64, noc_dram_address_align_bytes = 64, l1_unreserved_base = 111104, erisc_l1_unreserved_base = 87872, dram_unreserved_base = 4800064, dram_unreserved_end = 4276245760, supported_data_types = [<f32>, <f16>, <bf16>, <bfp_f8>, <bfp_bf8>, <bfp_f4>, <bfp_bf4>, <bfp_f2>, <bfp_bf2>, <u32>, <u16>, <u8>, <si32>], supported_tile_sizes = [ 4x16,  16x16,  32x16,  4x32,  16x32,  32x32], dst_physical_size_tiles = 16, num_cbs = 64, num_compute_threads = 1, num_datamovement_threads = 2, dram_grid = 1x8, dram_bank_to_logical_worker_noc0 = [(9, 0), (0, 0), (7, 0), (3, 0), (9, 6), (1, 6), (6, 6), (4, 6)], dram_bank_to_logical_worker_noc1 = [(9, 0), (0, 0), (7, 0), (3, 0), (9, 6), (1, 6), (6, 6), (4, 6)]}, {arch = <blackhole>, grid = 10x12, coord_translation_offsets = 2x1, l1_size = 1572864, num_dram_channels = 8, dram_channel_size = 4278190080, noc_l1_address_align_bytes = 16, pcie_address_align_bytes = 64, noc_dram_address_align_bytes = 64, l1_unreserved_base = 111104, erisc_l1_unreserved_base = 87872, dram_unreserved_base = 4800064, dram_unreserved_end = 4276245760, supported_data_types = [<f32>, <f16>, <bf16>, <bfp_f8>, <bfp_bf8>, <bfp_f4>, <bfp_bf4>, <bfp_f2>, <bfp_bf2>, <u32>, <u16>, <u8>, <si32>], supported_tile_sizes = [ 4x16,  16x16,  32x16,  4x32,  16x32,  32x32], dst_physical_size_tiles = 16, num_cbs = 64, num_compute_threads = 1, num_datamovement_threads = 2, dram_grid = 1x8, dram_bank_to_logical_worker_noc0 = [(9, 0), (0, 0), (7, 0), (3, 0), (9, 6), (1, 6), (6, 6), (4, 6)], dram_bank_to_logical_worker_noc1 = [(9, 0), (0, 0), (7, 0), (3, 0), (9, 6), (1, 6), (6, 6), (4, 6)]}, {arch = <blackhole>, grid = 10x12, coord_translation_offsets = 2x1, l1_size = 1572864, num_dram_channels = 8, dram_channel_size = 4278190080, noc_l1_address_align_bytes = 16, pcie_address_align_bytes = 64, noc_dram_address_align_bytes = 64, l1_unreserved_base = 111104, erisc_l1_unreserved_base = 87872, dram_unreserved_base = 4800064, dram_unreserved_end = 4276245760, supported_data_types = [<f32>, <f16>, <bf16>, <bfp_f8>, <bfp_bf8>, <bfp_f4>, <bfp_bf4>, <bfp_f2>, <bfp_bf2>, <u32>, <u16>, <u8>, <si32>], supported_tile_sizes = [ 4x16,  16x16,  32x16,  4x32,  16x32,  32x32], dst_physical_size_tiles = 16, num_cbs = 64, num_compute_threads = 1, num_datamovement_threads = 2, dram_grid = 1x8, dram_bank_to_logical_worker_noc0 = [(9, 0), (0, 0), (7, 0), (3, 0), (9, 6), (1, 6), (6, 6), (4, 6)], dram_bank_to_logical_worker_noc1 = [(9, 0), (0, 0), (7, 0), (3, 0), (9, 6), (1, 6), (6, 6), (4, 6)]}, {arch = <blackhole>, grid = 10x12, coord_translation_offsets = 2x1, l1_size = 1572864, num_dram_channels = 8, dram_channel_size = 4278190080, noc_l1_address_align_bytes = 16, pcie_address_align_bytes = 64, noc_dram_address_align_bytes = 64, l1_unreserved_base = 111104, erisc_l1_unreserved_base = 87872, dram_unreserved_base = 4800064, dram_unreserved_end = 4276245760, supported_data_types = [<f32>, <f16>, <bf16>, <bfp_f8>, <bfp_bf8>, <bfp_f4>, <bfp_bf4>, <bfp_f2>, <bfp_bf2>, <u32>, <u16>, <u8>, <si32>], supported_tile_sizes = [ 4x16,  16x16,  32x16,  4x32,  16x32,  32x32], dst_physical_size_tiles = 16, num_cbs = 64, num_compute_threads = 1, num_datamovement_threads = 2, dram_grid = 1x8, dram_bank_to_logical_worker_noc0 = [(9, 0), (0, 0), (7, 0), (3, 0), (9, 6), (1, 6), (6, 6), (4, 6)], dram_bank_to_logical_worker_noc1 = [(9, 0), (0, 0), (7, 0), (3, 0), (9, 6), (1, 6), (6, 6), (4, 6)]}, {arch = <blackhole>, grid = 10x12, coord_translation_offsets = 2x1, l1_size = 1572864, num_dram_channels = 8, dram_channel_size = 4278190080, noc_l1_address_align_bytes = 16, pcie_address_align_bytes = 64, noc_dram_address_align_bytes = 64, l1_unreserved_base = 111104, erisc_l1_unreserved_base = 87872, dram_unreserved_base = 4800064, dram_unreserved_end = 4276245760, supported_data_types = [<f32>, <f16>, <bf16>, <bfp_f8>, <bfp_bf8>, <bfp_f4>, <bfp_bf4>, <bfp_f2>, <bfp_bf2>, <u32>, <u16>, <u8>, <si32>], supported_tile_sizes = [ 4x16,  16x16,  32x16,  4x32,  16x32,  32x32], dst_physical_size_tiles = 16, num_cbs = 64, num_compute_threads = 1, num_datamovement_threads = 2, dram_grid = 1x8, dram_bank_to_logical_worker_noc0 = [(9, 0), (0, 0), (7, 0), (3, 0), (9, 6), (1, 6), (6, 6), (4, 6)], dram_bank_to_logical_worker_noc1 = [(9, 0), (0, 0), (7, 0), (3, 0), (9, 6), (1, 6), (6, 6), (4, 6)]}, {arch = <blackhole>, grid = 10x12, coord_translation_offsets = 2x1, l1_size = 1572864, num_dram_channels = 8, dram_channel_size = 4278190080, noc_l1_address_align_bytes = 16, pcie_address_align_bytes = 64, noc_dram_address_align_bytes = 64, l1_unreserved_base = 111104, erisc_l1_unreserved_base = 87872, dram_unreserved_base = 4800064, dram_unreserved_end = 4276273536, supported_data_types = [<f32>, <f16>, <bf16>, <bfp_f8>, <bfp_bf8>, <bfp_f4>, <bfp_bf4>, <bfp_f2>, <bfp_bf2>, <u32>, <u16>, <u8>, <si32>], supported_tile_sizes = [ 4x16,  16x16,  32x16,  4x32,  16x32,  32x32], dst_physical_size_tiles = 16, num_cbs = 64, num_compute_threads = 1, num_datamovement_threads = 2, dram_grid = 1x8, dram_bank_to_logical_worker_noc0 = [(9, 0), (0, 0), (7, 0), (3, 0), (9, 6), (1, 6), (6, 6), (4, 6)], dram_bank_to_logical_worker_noc1 = [(9, 0), (0, 0), (7, 0), (3, 0), (9, 6), (1, 6), (6, 6), (4, 6)]}, {arch = <blackhole>, grid = 10x12, coord_translation_offsets = 2x1, l1_size = 1572864, num_dram_channels = 8, dram_channel_size = 4278190080, noc_l1_address_align_bytes = 16, pcie_address_align_bytes = 64, noc_dram_address_align_bytes = 64, l1_unreserved_base = 111104, erisc_l1_unreserved_base = 87872, dram_unreserved_base = 4800064, dram_unreserved_end = 4276245760, supported_data_types = [<f32>, <f16>, <bf16>, <bfp_f8>, <bfp_bf8>, <bfp_f4>, <bfp_bf4>, <bfp_f2>, <bfp_bf2>, <u32>, <u16>, <u8>, <si32>], supported_tile_sizes = [ 4x16,  16x16,  32x16,  4x32,  16x32,  32x32], dst_physical_size_tiles = 16, num_cbs = 64, num_compute_threads = 1, num_datamovement_threads = 2, dram_grid = 1x8, dram_bank_to_logical_worker_noc0 = [(9, 0), (0, 0), (7, 0), (3, 0), (9, 7), (1, 7), (6, 7), (4, 7)], dram_bank_to_logical_worker_noc1 = [(9, 0), (0, 0), (7, 0), (3, 0), (9, 7), (1, 7), (6, 7), (4, 7)]}, {arch = <blackhole>, grid = 10x12, coord_translation_offsets = 2x1, l1_size = 1572864, num_dram_channels = 8, dram_channel_size = 4278190080, noc_l1_address_align_bytes = 16, pcie_address_align_bytes = 64, noc_dram_address_align_bytes = 64, l1_unreserved_base = 111104, erisc_l1_unreserved_base = 87872, dram_unreserved_base = 4800064, dram_unreserved_end = 4276245760, supported_data_types = [<f32>, <f16>, <bf16>, <bfp_f8>, <bfp_bf8>, <bfp_f4>, <bfp_bf4>, <bfp_f2>, <bfp_bf2>, <u32>, <u16>, <u8>, <si32>], supported_tile_sizes = [ 4x16,  16x16,  32x16,  4x32,  16x32,  32x32], dst_physical_size_tiles = 16, num_cbs = 64, num_compute_threads = 1, num_datamovement_threads = 2, dram_grid = 1x8, dram_bank_to_logical_worker_noc0 = [(9, 0), (0, 0), (7, 0), (3, 0), (9, 6), (1, 6), (6, 6), (4, 6)], dram_bank_to_logical_worker_noc1 = [(9, 0), (0, 0), (7, 0), (3, 0), (9, 6), (1, 6), (6, 6), (4, 6)]}, {arch = <blackhole>, grid = 10x12, coord_translation_offsets = 2x1, l1_size = 1572864, num_dram_channels = 8, dram_channel_size = 4278190080, noc_l1_address_align_bytes = 16, pcie_address_align_bytes = 64, noc_dram_address_align_bytes = 64, l1_unreserved_base = 111104, erisc_l1_unreserved_base = 87872, dram_unreserved_base = 4800064, dram_unreserved_end = 4276245760, supported_data_types = [<f32>, <f16>, <bf16>, <bfp_f8>, <bfp_bf8>, <bfp_f4>, <bfp_bf4>, <bfp_f2>, <bfp_bf2>, <u32>, <u16>, <u8>, <si32>], supported_tile_sizes = [ 4x16,  16x16,  32x16,  4x32,  16x32,  32x32], dst_physical_size_tiles = 16, num_cbs = 64, num_compute_threads = 1, num_datamovement_threads = 2, dram_grid = 1x8, dram_bank_to_logical_worker_noc0 = [(9, 0), (0, 0), (7, 0), (3, 0), (9, 6), (1, 6), (6, 6), (4, 6)], dram_bank_to_logical_worker_noc1 = [(9, 0), (0, 0), (7, 0), (3, 0), (9, 6), (1, 6), (6, 6), (4, 6)]}, {arch = <blackhole>, grid = 10x12, coord_translation_offsets = 2x1, l1_size = 1572864, num_dram_channels = 8, dram_channel_size = 4278190080, noc_l1_address_align_bytes = 16, pcie_address_align_bytes = 64, noc_dram_address_align_bytes = 64, l1_unreserved_base = 111104, erisc_l1_unreserved_base = 87872, dram_unreserved_base = 4800064, dram_unreserved_end = 4276245760, supported_data_types = [<f32>, <f16>, <bf16>, <bfp_f8>, <bfp_bf8>, <bfp_f4>, <bfp_bf4>, <bfp_f2>, <bfp_bf2>, <u32>, <u16>, <u8>, <si32>], supported_tile_sizes = [ 4x16,  16x16,  32x16,  4x32,  16x32,  32x32], dst_physical_size_tiles = 16, num_cbs = 64, num_compute_threads = 1, num_datamovement_threads = 2, dram_grid = 1x8, dram_bank_to_logical_worker_noc0 = [(9, 0), (0, 0), (7, 0), (3, 0), (9, 6), (1, 6), (6, 6), (4, 6)], dram_bank_to_logical_worker_noc1 = [(9, 0), (0, 0), (7, 0), (3, 0), (9, 6), (1, 6), (6, 6), (4, 6)]}, {arch = <blackhole>, grid = 10x12, coord_translation_offsets = 2x1, l1_size = 1572864, num_dram_channels = 8, dram_channel_size = 4278190080, noc_l1_address_align_bytes = 16, pcie_address_align_bytes = 64, noc_dram_address_align_bytes = 64, l1_unreserved_base = 111104, erisc_l1_unreserved_base = 87872, dram_unreserved_base = 4800064, dram_unreserved_end = 4276245760, supported_data_types = [<f32>, <f16>, <bf16>, <bfp_f8>, <bfp_bf8>, <bfp_f4>, <bfp_bf4>, <bfp_f2>, <bfp_bf2>, <u32>, <u16>, <u8>, <si32>], supported_tile_sizes = [ 4x16,  16x16,  32x16,  4x32,  16x32,  32x32], dst_physical_size_tiles = 16, num_cbs = 64, num_compute_threads = 1, num_datamovement_threads = 2, dram_grid = 1x8, dram_bank_to_logical_worker_noc0 = [(9, 0), (0, 0), (7, 0), (3, 0), (9, 7), (1, 7), (6, 7), (4, 7)], dram_bank_to_logical_worker_noc1 = [(9, 0), (0, 0), (7, 0), (3, 0), (9, 7), (1, 7), (6, 7), (4, 7)]}, {arch = <blackhole>, grid = 10x12, coord_translation_offsets = 2x1, l1_size = 1572864, num_dram_channels = 8, dram_channel_size = 4278190080, noc_l1_address_align_bytes = 16, pcie_address_align_bytes = 64, noc_dram_address_align_bytes = 64, l1_unreserved_base = 111104, erisc_l1_unreserved_base = 87872, dram_unreserved_base = 4800064, dram_unreserved_end = 4276245760, supported_data_types = [<f32>, <f16>, <bf16>, <bfp_f8>, <bfp_bf8>, <bfp_f4>, <bfp_bf4>, <bfp_f2>, <bfp_bf2>, <u32>, <u16>, <u8>, <si32>], supported_tile_sizes = [ 4x16,  16x16,  32x16,  4x32,  16x32,  32x32], dst_physical_size_tiles = 16, num_cbs = 64, num_compute_threads = 1, num_datamovement_threads = 2, dram_grid = 1x8, dram_bank_to_logical_worker_noc0 = [(9, 0), (0, 0), (7, 0), (3, 0), (9, 7), (1, 7), (6, 7), (4, 7)], dram_bank_to_logical_worker_noc1 = [(9, 0), (0, 0), (7, 0), (3, 0), (9, 7), (1, 7), (6, 7), (4, 7)]}, {arch = <blackhole>, grid = 10x12, coord_translation_offsets = 2x1, l1_size = 1572864, num_dram_channels = 8, dram_channel_size = 4278190080, noc_l1_address_align_bytes = 16, pcie_address_align_bytes = 64, noc_dram_address_align_bytes = 64, l1_unreserved_base = 111104, erisc_l1_unreserved_base = 87872, dram_unreserved_base = 4800064, dram_unreserved_end = 4276245760, supported_data_types = [<f32>, <f16>, <bf16>, <bfp_f8>, <bfp_bf8>, <bfp_f4>, <bfp_bf4>, <bfp_f2>, <bfp_bf2>, <u32>, <u16>, <u8>, <si32>], supported_tile_sizes = [ 4x16,  16x16,  32x16,  4x32,  16x32,  32x32], dst_physical_size_tiles = 16, num_cbs = 64, num_compute_threads = 1, num_datamovement_threads = 2, dram_grid = 1x8, dram_bank_to_logical_worker_noc0 = [(9, 0), (0, 0), (7, 0), (3, 0), (9, 7), (1, 7), (6, 7), (4, 7)], dram_bank_to_logical_worker_noc1 = [(9, 0), (0, 0), (7, 0), (3, 0), (9, 7), (1, 7), (6, 7), (4, 7)]}, {arch = <blackhole>, grid = 10x12, coord_translation_offsets = 2x1, l1_size = 1572864, num_dram_channels = 8, dram_channel_size = 4278190080, noc_l1_address_align_bytes = 16, pcie_address_align_bytes = 64, noc_dram_address_align_bytes = 64, l1_unreserved_base = 111104, erisc_l1_unreserved_base = 87872, dram_unreserved_base = 4800064, dram_unreserved_end = 4276273536, supported_data_types = [<f32>, <f16>, <bf16>, <bfp_f8>, <bfp_bf8>, <bfp_f4>, <bfp_bf4>, <bfp_f2>, <bfp_bf2>, <u32>, <u16>, <u8>, <si32>], supported_tile_sizes = [ 4x16,  16x16,  32x16,  4x32,  16x32,  32x32], dst_physical_size_tiles = 16, num_cbs = 64, num_compute_threads = 1, num_datamovement_threads = 2, dram_grid = 1x8, dram_bank_to_logical_worker_noc0 = [(9, 0), (0, 0), (7, 0), (3, 0), (9, 6), (1, 6), (6, 6), (4, 6)], dram_bank_to_logical_worker_noc1 = [(9, 0), (0, 0), (7, 0), (3, 0), (9, 6), (1, 6), (6, 6), (4, 6)]}, {arch = <blackhole>, grid = 10x12, coord_translation_offsets = 2x1, l1_size = 1572864, num_dram_channels = 8, dram_channel_size = 4278190080, noc_l1_address_align_bytes = 16, pcie_address_align_bytes = 64, noc_dram_address_align_bytes = 64, l1_unreserved_base = 111104, erisc_l1_unreserved_base = 87872, dram_unreserved_base = 4800064, dram_unreserved_end = 4276245760, supported_data_types = [<f32>, <f16>, <bf16>, <bfp_f8>, <bfp_bf8>, <bfp_f4>, <bfp_bf4>, <bfp_f2>, <bfp_bf2>, <u32>, <u16>, <u8>, <si32>], supported_tile_sizes = [ 4x16,  16x16,  32x16,  4x32,  16x32,  32x32], dst_physical_size_tiles = 16, num_cbs = 64, num_compute_threads = 1, num_datamovement_threads = 2, dram_grid = 1x8, dram_bank_to_logical_worker_noc0 = [(9, 0), (0, 0), (7, 0), (3, 0), (9, 6), (1, 6), (6, 6), (4, 6)], dram_bank_to_logical_worker_noc1 = [(9, 0), (0, 0), (7, 0), (3, 0), (9, 6), (1, 6), (6, 6), (4, 6)]}, {arch = <blackhole>, grid = 10x12, coord_translation_offsets = 2x1, l1_size = 1572864, num_dram_channels = 8, dram_channel_size = 4278190080, noc_l1_address_align_bytes = 16, pcie_address_align_bytes = 64, noc_dram_address_align_bytes = 64, l1_unreserved_base = 111104, erisc_l1_unreserved_base = 87872, dram_unreserved_base = 4800064, dram_unreserved_end = 4276245760, supported_data_types = [<f32>, <f16>, <bf16>, <bfp_f8>, <bfp_bf8>, <bfp_f4>, <bfp_bf4>, <bfp_f2>, <bfp_bf2>, <u32>, <u16>, <u8>, <si32>], supported_tile_sizes = [ 4x16,  16x16,  32x16,  4x32,  16x32,  32x32], dst_physical_size_tiles = 16, num_cbs = 64, num_compute_threads = 1, num_datamovement_threads = 2, dram_grid = 1x8, dram_bank_to_logical_worker_noc0 = [(9, 0), (0, 0), (7, 0), (3, 0), (9, 6), (1, 6), (6, 6), (4, 6)], dram_bank_to_logical_worker_noc1 = [(9, 0), (0, 0), (7, 0), (3, 0), (9, 6), (1, 6), (6, 6), (4, 6)]}, {arch = <blackhole>, grid = 10x12, coord_translation_offsets = 2x1, l1_size = 1572864, num_dram_channels = 8, dram_channel_size = 4278190080, noc_l1_address_align_bytes = 16, pcie_address_align_bytes = 64, noc_dram_address_align_bytes = 64, l1_unreserved_base = 111104, erisc_l1_unreserved_base = 87872, dram_unreserved_base = 4800064, dram_unreserved_end = 4276245760, supported_data_types = [<f32>, <f16>, <bf16>, <bfp_f8>, <bfp_bf8>, <bfp_f4>, <bfp_bf4>, <bfp_f2>, <bfp_bf2>, <u32>, <u16>, <u8>, <si32>], supported_tile_sizes = [ 4x16,  16x16,  32x16,  4x32,  16x32,  32x32], dst_physical_size_tiles = 16, num_cbs = 64, num_compute_threads = 1, num_datamovement_threads = 2, dram_grid = 1x8, dram_bank_to_logical_worker_noc0 = [(9, 0), (0, 0), (7, 0), (3, 0), (9, 7), (1, 7), (6, 7), (4, 7)], dram_bank_to_logical_worker_noc1 = [(9, 0), (0, 0), (7, 0), (3, 0), (9, 7), (1, 7), (6, 7), (4, 7)]}, {arch = <blackhole>, grid = 10x12, coord_translation_offsets = 2x1, l1_size = 1572864, num_dram_channels = 8, dram_channel_size = 4278190080, noc_l1_address_align_bytes = 16, pcie_address_align_bytes = 64, noc_dram_address_align_bytes = 64, l1_unreserved_base = 111104, erisc_l1_unreserved_base = 87872, dram_unreserved_base = 4800064, dram_unreserved_end = 4276245760, supported_data_types = [<f32>, <f16>, <bf16>, <bfp_f8>, <bfp_bf8>, <bfp_f4>, <bfp_bf4>, <bfp_f2>, <bfp_bf2>, <u32>, <u16>, <u8>, <si32>], supported_tile_sizes = [ 4x16,  16x16,  32x16,  4x32,  16x32,  32x32], dst_physical_size_tiles = 16, num_cbs = 64, num_compute_threads = 1, num_datamovement_threads = 2, dram_grid = 1x8, dram_bank_to_logical_worker_noc0 = [(9, 0), (0, 0), (7, 0), (3, 0), (9, 7), (1, 7), (6, 7), (4, 7)], dram_bank_to_logical_worker_noc1 = [(9, 0), (0, 0), (7, 0), (3, 0), (9, 7), (1, 7), (6, 7), (4, 7)]}, {arch = <blackhole>, grid = 10x12, coord_translation_offsets = 2x1, l1_size = 1572864, num_dram_channels = 8, dram_channel_size = 4278190080, noc_l1_address_align_bytes = 16, pcie_address_align_bytes = 64, noc_dram_address_align_bytes = 64, l1_unreserved_base = 111104, erisc_l1_unreserved_base = 87872, dram_unreserved_base = 4800064, dram_unreserved_end = 4276245760, supported_data_types = [<f32>, <f16>, <bf16>, <bfp_f8>, <bfp_bf8>, <bfp_f4>, <bfp_bf4>, <bfp_f2>, <bfp_bf2>, <u32>, <u16>, <u8>, <si32>], supported_tile_sizes = [ 4x16,  16x16,  32x16,  4x32,  16x32,  32x32], dst_physical_size_tiles = 16, num_cbs = 64, num_compute_threads = 1, num_datamovement_threads = 2, dram_grid = 1x8, dram_bank_to_logical_worker_noc0 = [(9, 0), (0, 0), (7, 0), (3, 0), (9, 7), (1, 7), (6, 7), (4, 7)], dram_bank_to_logical_worker_noc1 = [(9, 0), (0, 0), (7, 0), (3, 0), (9, 7), (1, 7), (6, 7), (4, 7)]}, {arch = <blackhole>, grid = 10x12, coord_translation_offsets = 2x1, l1_size = 1572864, num_dram_channels = 8, dram_channel_size = 4278190080, noc_l1_address_align_bytes = 16, pcie_address_align_bytes = 64, noc_dram_address_align_bytes = 64, l1_unreserved_base = 111104, erisc_l1_unreserved_base = 87872, dram_unreserved_base = 4800064, dram_unreserved_end = 4276245760, supported_data_types = [<f32>, <f16>, <bf16>, <bfp_f8>, <bfp_bf8>, <bfp_f4>, <bfp_bf4>, <bfp_f2>, <bfp_bf2>, <u32>, <u16>, <u8>, <si32>], supported_tile_sizes = [ 4x16,  16x16,  32x16,  4x32,  16x32,  32x32], dst_physical_size_tiles = 16, num_cbs = 64, num_compute_threads = 1, num_datamovement_threads = 2, dram_grid = 1x8, dram_bank_to_logical_worker_noc0 = [(9, 0), (0, 0), (7, 0), (3, 0), (9, 7), (1, 7), (6, 7), (4, 7)], dram_bank_to_logical_worker_noc1 = [(9, 0), (0, 0), (7, 0), (3, 0), (9, 7), (1, 7), (6, 7), (4, 7)]}, {arch = <blackhole>, grid = 10x12, coord_translation_offsets = 2x1, l1_size = 1572864, num_dram_channels = 8, dram_channel_size = 4278190080, noc_l1_address_align_bytes = 16, pcie_address_align_bytes = 64, noc_dram_address_align_bytes = 64, l1_unreserved_base = 111104, erisc_l1_unreserved_base = 87872, dram_unreserved_base = 4800064, dram_unreserved_end = 4276245760, supported_data_types = [<f32>, <f16>, <bf16>, <bfp_f8>, <bfp_bf8>, <bfp_f4>, <bfp_bf4>, <bfp_f2>, <bfp_bf2>, <u32>, <u16>, <u8>, <si32>], supported_tile_sizes = [ 4x16,  16x16,  32x16,  4x32,  16x32,  32x32], dst_physical_size_tiles = 16, num_cbs = 64, num_compute_threads = 1, num_datamovement_threads = 2, dram_grid = 1x8, dram_bank_to_logical_worker_noc0 = [(9, 0), (0, 0), (7, 0), (3, 0), (9, 7), (1, 7), (6, 7), (4, 7)], dram_bank_to_logical_worker_noc1 = [(9, 0), (0, 0), (7, 0), (3, 0), (9, 7), (1, 7), (6, 7), (4, 7)]}, {arch = <blackhole>, grid = 10x12, coord_translation_offsets = 2x1, l1_size = 1572864, num_dram_channels = 8, dram_channel_size = 4278190080, noc_l1_address_align_bytes = 16, pcie_address_align_bytes = 64, noc_dram_address_align_bytes = 64, l1_unreserved_base = 111104, erisc_l1_unreserved_base = 87872, dram_unreserved_base = 4800064, dram_unreserved_end = 4276273536, supported_data_types = [<f32>, <f16>, <bf16>, <bfp_f8>, <bfp_bf8>, <bfp_f4>, <bfp_bf4>, <bfp_f2>, <bfp_bf2>, <u32>, <u16>, <u8>, <si32>], supported_tile_sizes = [ 4x16,  16x16,  32x16,  4x32,  16x32,  32x32], dst_physical_size_tiles = 16, num_cbs = 64, num_compute_threads = 1, num_datamovement_threads = 2, dram_grid = 1x8, dram_bank_to_logical_worker_noc0 = [(9, 0), (0, 0), (7, 0), (3, 0), (9, 7), (1, 7), (6, 7), (4, 7)], dram_bank_to_logical_worker_noc1 = [(9, 0), (0, 0), (7, 0), (3, 0), (9, 7), (1, 7), (6, 7), (4, 7)]}, {arch = <blackhole>, grid = 10x12, coord_translation_offsets = 2x1, l1_size = 1572864, num_dram_channels = 8, dram_channel_size = 4278190080, noc_l1_address_align_bytes = 16, pcie_address_align_bytes = 64, noc_dram_address_align_bytes = 64, l1_unreserved_base = 111104, erisc_l1_unreserved_base = 87872, dram_unreserved_base = 4800064, dram_unreserved_end = 4276245760, supported_data_types = [<f32>, <f16>, <bf16>, <bfp_f8>, <bfp_bf8>, <bfp_f4>, <bfp_bf4>, <bfp_f2>, <bfp_bf2>, <u32>, <u16>, <u8>, <si32>], supported_tile_sizes = [ 4x16,  16x16,  32x16,  4x32,  16x32,  32x32], dst_physical_size_tiles = 16, num_cbs = 64, num_compute_threads = 1, num_datamovement_threads = 2, dram_grid = 1x8, dram_bank_to_logical_worker_noc0 = [(9, 0), (0, 0), (7, 0), (3, 0), (9, 7), (1, 7), (6, 7), (4, 7)], dram_bank_to_logical_worker_noc1 = [(9, 0), (0, 0), (7, 0), (3, 0), (9, 7), (1, 7), (6, 7), (4, 7)]}, {arch = <blackhole>, grid = 10x12, coord_translation_offsets = 2x1, l1_size = 1572864, num_dram_channels = 8, dram_channel_size = 4278190080, noc_l1_address_align_bytes = 16, pcie_address_align_bytes = 64, noc_dram_address_align_bytes = 64, l1_unreserved_base = 111104, erisc_l1_unreserved_base = 87872, dram_unreserved_base = 4800064, dram_unreserved_end = 4276245760, supported_data_types = [<f32>, <f16>, <bf16>, <bfp_f8>, <bfp_bf8>, <bfp_f4>, <bfp_bf4>, <bfp_f2>, <bfp_bf2>, <u32>, <u16>, <u8>, <si32>], supported_tile_sizes = [ 4x16,  16x16,  32x16,  4x32,  16x32,  32x32], dst_physical_size_tiles = 16, num_cbs = 64, num_compute_threads = 1, num_datamovement_threads = 2, dram_grid = 1x8, dram_bank_to_logical_worker_noc0 = [(9, 0), (0, 0), (7, 0), (3, 0), (9, 7), (1, 7), (6, 7), (4, 7)], dram_bank_to_logical_worker_noc1 = [(9, 0), (0, 0), (7, 0), (3, 0), (9, 7), (1, 7), (6, 7), (4, 7)]}, {arch = <blackhole>, grid = 10x12, coord_translation_offsets = 2x1, l1_size = 1572864, num_dram_channels = 8, dram_channel_size = 4278190080, noc_l1_address_align_bytes = 16, pcie_address_align_bytes = 64, noc_dram_address_align_bytes = 64, l1_unreserved_base = 111104, erisc_l1_unreserved_base = 87872, dram_unreserved_base = 4800064, dram_unreserved_end = 4276245760, supported_data_types = [<f32>, <f16>, <bf16>, <bfp_f8>, <bfp_bf8>, <bfp_f4>, <bfp_bf4>, <bfp_f2>, <bfp_bf2>, <u32>, <u16>, <u8>, <si32>], supported_tile_sizes = [ 4x16,  16x16,  32x16,  4x32,  16x32,  32x32], dst_physical_size_tiles = 16, num_cbs = 64, num_compute_threads = 1, num_datamovement_threads = 2, dram_grid = 1x8, dram_bank_to_logical_worker_noc0 = [(9, 0), (0, 0), (7, 0), (3, 0), (9, 6), (1, 6), (6, 6), (4, 6)], dram_bank_to_logical_worker_noc1 = [(9, 0), (0, 0), (7, 0), (3, 0), (9, 6), (1, 6), (6, 6), (4, 6)]}, {arch = <blackhole>, grid = 10x12, coord_translation_offsets = 2x1, l1_size = 1572864, num_dram_channels = 8, dram_channel_size = 4278190080, noc_l1_address_align_bytes = 16, pcie_address_align_bytes = 64, noc_dram_address_align_bytes = 64, l1_unreserved_base = 111104, erisc_l1_unreserved_base = 87872, dram_unreserved_base = 4800064, dram_unreserved_end = 4276245760, supported_data_types = [<f32>, <f16>, <bf16>, <bfp_f8>, <bfp_bf8>, <bfp_f4>, <bfp_bf4>, <bfp_f2>, <bfp_bf2>, <u32>, <u16>, <u8>, <si32>], supported_tile_sizes = [ 4x16,  16x16,  32x16,  4x32,  16x32,  32x32], dst_physical_size_tiles = 16, num_cbs = 64, num_compute_threads = 1, num_datamovement_threads = 2, dram_grid = 1x8, dram_bank_to_logical_worker_noc0 = [(9, 0), (0, 0), (7, 0), (3, 0), (9, 7), (1, 7), (6, 7), (4, 7)], dram_bank_to_logical_worker_noc1 = [(9, 0), (0, 0), (7, 0), (3, 0), (9, 7), (1, 7), (6, 7), (4, 7)]}, {arch = <blackhole>, grid = 10x12, coord_translation_offsets = 2x1, l1_size = 1572864, num_dram_channels = 8, dram_channel_size = 4278190080, noc_l1_address_align_bytes = 16, pcie_address_align_bytes = 64, noc_dram_address_align_bytes = 64, l1_unreserved_base = 111104, erisc_l1_unreserved_base = 87872, dram_unreserved_base = 4800064, dram_unreserved_end = 4276245760, supported_data_types = [<f32>, <f16>, <bf16>, <bfp_f8>, <bfp_bf8>, <bfp_f4>, <bfp_bf4>, <bfp_f2>, <bfp_bf2>, <u32>, <u16>, <u8>, <si32>], supported_tile_sizes = [ 4x16,  16x16,  32x16,  4x32,  16x32,  32x32], dst_physical_size_tiles = 16, num_cbs = 64, num_compute_threads = 1, num_datamovement_threads = 2, dram_grid = 1x8, dram_bank_to_logical_worker_noc0 = [(9, 0), (0, 0), (7, 0), (3, 0), (9, 7), (1, 7), (6, 7), (4, 7)], dram_bank_to_logical_worker_noc1 = [(9, 0), (0, 0), (7, 0), (3, 0), (9, 7), (1, 7), (6, 7), (4, 7)]}, {arch = <blackhole>, grid = 10x12, coord_translation_offsets = 2x1, l1_size = 1572864, num_dram_channels = 8, dram_channel_size = 4278190080, noc_l1_address_align_bytes = 16, pcie_address_align_bytes = 64, noc_dram_address_align_bytes = 64, l1_unreserved_base = 111104, erisc_l1_unreserved_base = 87872, dram_unreserved_base = 4800064, dram_unreserved_end = 4276245760, supported_data_types = [<f32>, <f16>, <bf16>, <bfp_f8>, <bfp_bf8>, <bfp_f4>, <bfp_bf4>, <bfp_f2>, <bfp_bf2>, <u32>, <u16>, <u8>, <si32>], supported_tile_sizes = [ 4x16,  16x16,  32x16,  4x32,  16x32,  32x32], dst_physical_size_tiles = 16, num_cbs = 64, num_compute_threads = 1, num_datamovement_threads = 2, dram_grid = 1x8, dram_bank_to_logical_worker_noc0 = [(9, 0), (0, 0), (7, 0), (3, 0), (9, 6), (1, 6), (6, 6), (4, 6)], dram_bank_to_logical_worker_noc1 = [(9, 0), (0, 0), (7, 0), (3, 0), (9, 6), (1, 6), (6, 6), (4, 6)]}, {arch = <blackhole>, grid = 10x12, coord_translation_offsets = 2x1, l1_size = 1572864, num_dram_channels = 8, dram_channel_size = 4278190080, noc_l1_address_align_bytes = 16, pcie_address_align_bytes = 64, noc_dram_address_align_bytes = 64, l1_unreserved_base = 111104, erisc_l1_unreserved_base = 87872, dram_unreserved_base = 4800064, dram_unreserved_end = 4276245760, supported_data_types = [<f32>, <f16>, <bf16>, <bfp_f8>, <bfp_bf8>, <bfp_f4>, <bfp_bf4>, <bfp_f2>, <bfp_bf2>, <u32>, <u16>, <u8>, <si32>], supported_tile_sizes = [ 4x16,  16x16,  32x16,  4x32,  16x32,  32x32], dst_physical_size_tiles = 16, num_cbs = 64, num_compute_threads = 1, num_datamovement_threads = 2, dram_grid = 1x8, dram_bank_to_logical_worker_noc0 = [(9, 0), (0, 0), (7, 0), (3, 0), (9, 7), (1, 7), (6, 7), (4, 7)], dram_bank_to_logical_worker_noc1 = [(9, 0), (0, 0), (7, 0), (3, 0), (9, 7), (1, 7), (6, 7), (4, 7)]}, {arch = <blackhole>, grid = 10x12, coord_translation_offsets = 2x1, l1_size = 1572864, num_dram_channels = 8, dram_channel_size = 4278190080, noc_l1_address_align_bytes = 16, pcie_address_align_bytes = 64, noc_dram_address_align_bytes = 64, l1_unreserved_base = 111104, erisc_l1_unreserved_base = 87872, dram_unreserved_base = 4800064, dram_unreserved_end = 4276273536, supported_data_types = [<f32>, <f16>, <bf16>, <bfp_f8>, <bfp_bf8>, <bfp_f4>, <bfp_bf4>, <bfp_f2>, <bfp_bf2>, <u32>, <u16>, <u8>, <si32>], supported_tile_sizes = [ 4x16,  16x16,  32x16,  4x32,  16x32,  32x32], dst_physical_size_tiles = 16, num_cbs = 64, num_compute_threads = 1, num_datamovement_threads = 2, dram_grid = 1x8, dram_bank_to_logical_worker_noc0 = [(9, 0), (0, 0), (7, 0), (3, 0), (9, 7), (1, 7), (6, 7), (4, 7)], dram_bank_to_logical_worker_noc1 = [(9, 0), (0, 0), (7, 0), (3, 0), (9, 7), (1, 7), (6, 7), (4, 7)]}, {arch = <blackhole>, grid = 10x12, coord_translation_offsets = 2x1, l1_size = 1572864, num_dram_channels = 8, dram_channel_size = 4278190080, noc_l1_address_align_bytes = 16, pcie_address_align_bytes = 64, noc_dram_address_align_bytes = 64, l1_unreserved_base = 111104, erisc_l1_unreserved_base = 87872, dram_unreserved_base = 4800064, dram_unreserved_end = 4276245760, supported_data_types = [<f32>, <f16>, <bf16>, <bfp_f8>, <bfp_bf8>, <bfp_f4>, <bfp_bf4>, <bfp_f2>, <bfp_bf2>, <u32>, <u16>, <u8>, <si32>], supported_tile_sizes = [ 4x16,  16x16,  32x16,  4x32,  16x32,  32x32], dst_physical_size_tiles = 16, num_cbs = 64, num_compute_threads = 1, num_datamovement_threads = 2, dram_grid = 1x8, dram_bank_to_logical_worker_noc0 = [(9, 0), (0, 0), (7, 0), (3, 0), (9, 7), (1, 7), (6, 7), (4, 7)], dram_bank_to_logical_worker_noc1 = [(9, 0), (0, 0), (7, 0), (3, 0), (9, 7), (1, 7), (6, 7), (4, 7)]}, {arch = <blackhole>, grid = 10x12, coord_translation_offsets = 2x1, l1_size = 1572864, num_dram_channels = 8, dram_channel_size = 4278190080, noc_l1_address_align_bytes = 16, pcie_address_align_bytes = 64, noc_dram_address_align_bytes = 64, l1_unreserved_base = 111104, erisc_l1_unreserved_base = 87872, dram_unreserved_base = 4800064, dram_unreserved_end = 4276245760, supported_data_types = [<f32>, <f16>, <bf16>, <bfp_f8>, <bfp_bf8>, <bfp_f4>, <bfp_bf4>, <bfp_f2>, <bfp_bf2>, <u32>, <u16>, <u8>, <si32>], supported_tile_sizes = [ 4x16,  16x16,  32x16,  4x32,  16x32,  32x32], dst_physical_size_tiles = 16, num_cbs = 64, num_compute_threads = 1, num_datamovement_threads = 2, dram_grid = 1x8, dram_bank_to_logical_worker_noc0 = [(9, 0), (0, 0), (7, 0), (3, 0), (9, 7), (1, 7), (6, 7), (4, 7)], dram_bank_to_logical_worker_noc1 = [(9, 0), (0, 0), (7, 0), (3, 0), (9, 7), (1, 7), (6, 7), (4, 7)]}, {arch = <blackhole>, grid = 10x12, coord_translation_offsets = 2x1, l1_size = 1572864, num_dram_channels = 8, dram_channel_size = 4278190080, noc_l1_address_align_bytes = 16, pcie_address_align_bytes = 64, noc_dram_address_align_bytes = 64, l1_unreserved_base = 111104, erisc_l1_unreserved_base = 87872, dram_unreserved_base = 4800064, dram_unreserved_end = 4276245760, supported_data_types = [<f32>, <f16>, <bf16>, <bfp_f8>, <bfp_bf8>, <bfp_f4>, <bfp_bf4>, <bfp_f2>, <bfp_bf2>, <u32>, <u16>, <u8>, <si32>], supported_tile_sizes = [ 4x16,  16x16,  32x16,  4x32,  16x32,  32x32], dst_physical_size_tiles = 16, num_cbs = 64, num_compute_threads = 1, num_datamovement_threads = 2, dram_grid = 1x8, dram_bank_to_logical_worker_noc0 = [(9, 0), (0, 0), (7, 0), (3, 0), (9, 7), (1, 7), (6, 7), (4, 7)], dram_bank_to_logical_worker_noc1 = [(9, 0), (0, 0), (7, 0), (3, 0), (9, 7), (1, 7), (6, 7), (4, 7)]}, {arch = <blackhole>, grid = 10x12, coord_translation_offsets = 2x1, l1_size = 1572864, num_dram_channels = 8, dram_channel_size = 4278190080, noc_l1_address_align_bytes = 16, pcie_address_align_bytes = 64, noc_dram_address_align_bytes = 64, l1_unreserved_base = 111104, erisc_l1_unreserved_base = 87872, dram_unreserved_base = 4800064, dram_unreserved_end = 4276245760, supported_data_types = [<f32>, <f16>, <bf16>, <bfp_f8>, <bfp_bf8>, <bfp_f4>, <bfp_bf4>, <bfp_f2>, <bfp_bf2>, <u32>, <u16>, <u8>, <si32>], supported_tile_sizes = [ 4x16,  16x16,  32x16,  4x32,  16x32,  32x32], dst_physical_size_tiles = 16, num_cbs = 64, num_compute_threads = 1, num_datamovement_threads = 2, dram_grid = 1x8, dram_bank_to_logical_worker_noc0 = [(9, 0), (0, 0), (7, 0), (3, 0), (9, 7), (1, 7), (6, 7), (4, 7)], dram_bank_to_logical_worker_noc1 = [(9, 0), (0, 0), (7, 0), (3, 0), (9, 7), (1, 7), (6, 7), (4, 7)]}, {arch = <blackhole>, grid = 10x12, coord_translation_offsets = 2x1, l1_size = 1572864, num_dram_channels = 8, dram_channel_size = 4278190080, noc_l1_address_align_bytes = 16, pcie_address_align_bytes = 64, noc_dram_address_align_bytes = 64, l1_unreserved_base = 111104, erisc_l1_unreserved_base = 87872, dram_unreserved_base = 4800064, dram_unreserved_end = 4276245760, supported_data_types = [<f32>, <f16>, <bf16>, <bfp_f8>, <bfp_bf8>, <bfp_f4>, <bfp_bf4>, <bfp_f2>, <bfp_bf2>, <u32>, <u16>, <u8>, <si32>], supported_tile_sizes = [ 4x16,  16x16,  32x16,  4x32,  16x32,  32x32], dst_physical_size_tiles = 16, num_cbs = 64, num_compute_threads = 1, num_datamovement_threads = 2, dram_grid = 1x8, dram_bank_to_logical_worker_noc0 = [(9, 0), (0, 0), (7, 0), (3, 0), (9, 6), (1, 6), (6, 6), (4, 6)], dram_bank_to_logical_worker_noc1 = [(9, 0), (0, 0), (7, 0), (3, 0), (9, 6), (1, 6), (6, 6), (4, 6)]}, {arch = <blackhole>, grid = 10x12, coord_translation_offsets = 2x1, l1_size = 1572864, num_dram_channels = 8, dram_channel_size = 4278190080, noc_l1_address_align_bytes = 16, pcie_address_align_bytes = 64, noc_dram_address_align_bytes = 64, l1_unreserved_base = 111104, erisc_l1_unreserved_base = 87872, dram_unreserved_base = 4800064, dram_unreserved_end = 4276245760, supported_data_types = [<f32>, <f16>, <bf16>, <bfp_f8>, <bfp_bf8>, <bfp_f4>, <bfp_bf4>, <bfp_f2>, <bfp_bf2>, <u32>, <u16>, <u8>, <si32>], supported_tile_sizes = [ 4x16,  16x16,  32x16,  4x32,  16x32,  32x32], dst_physical_size_tiles = 16, num_cbs = 64, num_compute_threads = 1, num_datamovement_threads = 2, dram_grid = 1x8, dram_bank_to_logical_worker_noc0 = [(9, 0), (0, 0), (7, 0), (3, 0), (9, 6), (1, 6), (6, 6), (4, 6)], dram_bank_to_logical_worker_noc1 = [(9, 0), (0, 0), (7, 0), (3, 0), (9, 6), (1, 6), (6, 6), (4, 6)]}, {arch = <blackhole>, grid = 10x12, coord_translation_offsets = 2x1, l1_size = 1572864, num_dram_channels = 8, dram_channel_size = 4278190080, noc_l1_address_align_bytes = 16, pcie_address_align_bytes = 64, noc_dram_address_align_bytes = 64, l1_unreserved_base = 111104, erisc_l1_unreserved_base = 87872, dram_unreserved_base = 4800064, dram_unreserved_end = 4276245760, supported_data_types = [<f32>, <f16>, <bf16>, <bfp_f8>, <bfp_bf8>, <bfp_f4>, <bfp_bf4>, <bfp_f2>, <bfp_bf2>, <u32>, <u16>, <u8>, <si32>], supported_tile_sizes = [ 4x16,  16x16,  32x16,  4x32,  16x32,  32x32], dst_physical_size_tiles = 16, num_cbs = 64, num_compute_threads = 1, num_datamovement_threads = 2, dram_grid = 1x8, dram_bank_to_logical_worker_noc0 = [(9, 0), (0, 0), (7, 0), (3, 0), (9, 7), (1, 7), (6, 7), (4, 7)], dram_bank_to_logical_worker_noc1 = [(9, 0), (0, 0), (7, 0), (3, 0), (9, 7), (1, 7), (6, 7), (4, 7)]}, {arch = <blackhole>, grid = 10x12, coord_translation_offsets = 2x1, l1_size = 1572864, num_dram_channels = 8, dram_channel_size = 4278190080, noc_l1_address_align_bytes = 16, pcie_address_align_bytes = 64, noc_dram_address_align_bytes = 64, l1_unreserved_base = 111104, erisc_l1_unreserved_base = 87872, dram_unreserved_base = 4800064, dram_unreserved_end = 4276273536, supported_data_types = [<f32>, <f16>, <bf16>, <bfp_f8>, <bfp_bf8>, <bfp_f4>, <bfp_bf4>, <bfp_f2>, <bfp_bf2>, <u32>, <u16>, <u8>, <si32>], supported_tile_sizes = [ 4x16,  16x16,  32x16,  4x32,  16x32,  32x32], dst_physical_size_tiles = 16, num_cbs = 64, num_compute_threads = 1, num_datamovement_threads = 2, dram_grid = 1x8, dram_bank_to_logical_worker_noc0 = [(9, 0), (0, 0), (7, 0), (3, 0), (9, 7), (1, 7), (6, 7), (4, 7)], dram_bank_to_logical_worker_noc1 = [(9, 0), (0, 0), (7, 0), (3, 0), (9, 7), (1, 7), (6, 7), (4, 7)]}, {arch = <blackhole>, grid = 10x12, coord_translation_offsets = 2x1, l1_size = 1572864, num_dram_channels = 8, dram_channel_size = 4278190080, noc_l1_address_align_bytes = 16, pcie_address_align_bytes = 64, noc_dram_address_align_bytes = 64, l1_unreserved_base = 111104, erisc_l1_unreserved_base = 87872, dram_unreserved_base = 4800064, dram_unreserved_end = 4276245760, supported_data_types = [<f32>, <f16>, <bf16>, <bfp_f8>, <bfp_bf8>, <bfp_f4>, <bfp_bf4>, <bfp_f2>, <bfp_bf2>, <u32>, <u16>, <u8>, <si32>], supported_tile_sizes = [ 4x16,  16x16,  32x16,  4x32,  16x32,  32x32], dst_physical_size_tiles = 16, num_cbs = 64, num_compute_threads = 1, num_datamovement_threads = 2, dram_grid = 1x8, dram_bank_to_logical_worker_noc0 = [(9, 0), (0, 0), (7, 0), (3, 0), (9, 7), (1, 7), (6, 7), (4, 7)], dram_bank_to_logical_worker_noc1 = [(9, 0), (0, 0), (7, 0), (3, 0), (9, 7), (1, 7), (6, 7), (4, 7)]}, {arch = <blackhole>, grid = 10x12, coord_translation_offsets = 2x1, l1_size = 1572864, num_dram_channels = 8, dram_channel_size = 4278190080, noc_l1_address_align_bytes = 16, pcie_address_align_bytes = 64, noc_dram_address_align_bytes = 64, l1_unreserved_base = 111104, erisc_l1_unreserved_base = 87872, dram_unreserved_base = 4800064, dram_unreserved_end = 4276245760, supported_data_types = [<f32>, <f16>, <bf16>, <bfp_f8>, <bfp_bf8>, <bfp_f4>, <bfp_bf4>, <bfp_f2>, <bfp_bf2>, <u32>, <u16>, <u8>, <si32>], supported_tile_sizes = [ 4x16,  16x16,  32x16,  4x32,  16x32,  32x32], dst_physical_size_tiles = 16, num_cbs = 64, num_compute_threads = 1, num_datamovement_threads = 2, dram_grid = 1x8, dram_bank_to_logical_worker_noc0 = [(9, 0), (0, 0), (7, 0), (3, 0), (9, 6), (1, 6), (6, 6), (4, 6)], dram_bank_to_logical_worker_noc1 = [(9, 0), (0, 0), (7, 0), (3, 0), (9, 6), (1, 6), (6, 6), (4, 6)]}, {arch = <blackhole>, grid = 10x12, coord_translation_offsets = 2x1, l1_size = 1572864, num_dram_channels = 8, dram_channel_size = 4278190080, noc_l1_address_align_bytes = 16, pcie_address_align_bytes = 64, noc_dram_address_align_bytes = 64, l1_unreserved_base = 111104, erisc_l1_unreserved_base = 87872, dram_unreserved_base = 4800064, dram_unreserved_end = 4276245760, supported_data_types = [<f32>, <f16>, <bf16>, <bfp_f8>, <bfp_bf8>, <bfp_f4>, <bfp_bf4>, <bfp_f2>, <bfp_bf2>, <u32>, <u16>, <u8>, <si32>], supported_tile_sizes = [ 4x16,  16x16,  32x16,  4x32,  16x32,  32x32], dst_physical_size_tiles = 16, num_cbs = 64, num_compute_threads = 1, num_datamovement_threads = 2, dram_grid = 1x8, dram_bank_to_logical_worker_noc0 = [(9, 0), (0, 0), (7, 0), (3, 0), (9, 6), (1, 6), (6, 6), (4, 6)], dram_bank_to_logical_worker_noc1 = [(9, 0), (0, 0), (7, 0), (3, 0), (9, 6), (1, 6), (6, 6), (4, 6)]}, {arch = <blackhole>, grid = 10x12, coord_translation_offsets = 2x1, l1_size = 1572864, num_dram_channels = 8, dram_channel_size = 4278190080, noc_l1_address_align_bytes = 16, pcie_address_align_bytes = 64, noc_dram_address_align_bytes = 64, l1_unreserved_base = 111104, erisc_l1_unreserved_base = 87872, dram_unreserved_base = 4800064, dram_unreserved_end = 4276245760, supported_data_types = [<f32>, <f16>, <bf16>, <bfp_f8>, <bfp_bf8>, <bfp_f4>, <bfp_bf4>, <bfp_f2>, <bfp_bf2>, <u32>, <u16>, <u8>, <si32>], supported_tile_sizes = [ 4x16,  16x16,  32x16,  4x32,  16x32,  32x32], dst_physical_size_tiles = 16, num_cbs = 64, num_compute_threads = 1, num_datamovement_threads = 2, dram_grid = 1x8, dram_bank_to_logical_worker_noc0 = [(9, 0), (0, 0), (7, 0), (3, 0), (9, 7), (1, 7), (6, 7), (4, 7)], dram_bank_to_logical_worker_noc1 = [(9, 0), (0, 0), (7, 0), (3, 0), (9, 7), (1, 7), (6, 7), (4, 7)]}, {arch = <blackhole>, grid = 10x12, coord_translation_offsets = 2x1, l1_size = 1572864, num_dram_channels = 8, dram_channel_size = 4278190080, noc_l1_address_align_bytes = 16, pcie_address_align_bytes = 64, noc_dram_address_align_bytes = 64, l1_unreserved_base = 111104, erisc_l1_unreserved_base = 87872, dram_unreserved_base = 4800064, dram_unreserved_end = 4276245760, supported_data_types = [<f32>, <f16>, <bf16>, <bfp_f8>, <bfp_bf8>, <bfp_f4>, <bfp_bf4>, <bfp_f2>, <bfp_bf2>, <u32>, <u16>, <u8>, <si32>], supported_tile_sizes = [ 4x16,  16x16,  32x16,  4x32,  16x32,  32x32], dst_physical_size_tiles = 16, num_cbs = 64, num_compute_threads = 1, num_datamovement_threads = 2, dram_grid = 1x8, dram_bank_to_logical_worker_noc0 = [(9, 0), (0, 0), (7, 0), (3, 0), (9, 7), (1, 7), (6, 7), (4, 7)], dram_bank_to_logical_worker_noc1 = [(9, 0), (0, 0), (7, 0), (3, 0), (9, 7), (1, 7), (6, 7), (4, 7)]}, {arch = <blackhole>, grid = 10x12, coord_translation_offsets = 2x1, l1_size = 1572864, num_dram_channels = 8, dram_channel_size = 4278190080, noc_l1_address_align_bytes = 16, pcie_address_align_bytes = 64, noc_dram_address_align_bytes = 64, l1_unreserved_base = 111104, erisc_l1_unreserved_base = 87872, dram_unreserved_base = 4800064, dram_unreserved_end = 4276245760, supported_data_types = [<f32>, <f16>, <bf16>, <bfp_f8>, <bfp_bf8>, <bfp_f4>, <bfp_bf4>, <bfp_f2>, <bfp_bf2>, <u32>, <u16>, <u8>, <si32>], supported_tile_sizes = [ 4x16,  16x16,  32x16,  4x32,  16x32,  32x32], dst_physical_size_tiles = 16, num_cbs = 64, num_compute_threads = 1, num_datamovement_threads = 2, dram_grid = 1x8, dram_bank_to_logical_worker_noc0 = [(9, 0), (0, 0), (7, 0), (3, 0), (9, 6), (1, 6), (6, 6), (4, 6)], dram_bank_to_logical_worker_noc1 = [(9, 0), (0, 0), (7, 0), (3, 0), (9, 6), (1, 6), (6, 6), (4, 6)]}, {arch = <blackhole>, grid = 10x12, coord_translation_offsets = 2x1, l1_size = 1572864, num_dram_channels = 8, dram_channel_size = 4278190080, noc_l1_address_align_bytes = 16, pcie_address_align_bytes = 64, noc_dram_address_align_bytes = 64, l1_unreserved_base = 111104, erisc_l1_unreserved_base = 87872, dram_unreserved_base = 4800064, dram_unreserved_end = 4276245760, supported_data_types = [<f32>, <f16>, <bf16>, <bfp_f8>, <bfp_bf8>, <bfp_f4>, <bfp_bf4>, <bfp_f2>, <bfp_bf2>, <u32>, <u16>, <u8>, <si32>], supported_tile_sizes = [ 4x16,  16x16,  32x16,  4x32,  16x32,  32x32], dst_physical_size_tiles = 16, num_cbs = 64, num_compute_threads = 1, num_datamovement_threads = 2, dram_grid = 1x8, dram_bank_to_logical_worker_noc0 = [(9, 0), (0, 0), (7, 0), (3, 0), (9, 6), (1, 6), (6, 6), (4, 6)], dram_bank_to_logical_worker_noc1 = [(9, 0), (0, 0), (7, 0), (3, 0), (9, 6), (1, 6), (6, 6), (4, 6)]}, {arch = <blackhole>, grid = 10x12, coord_translation_offsets = 2x1, l1_size = 1572864, num_dram_channels = 8, dram_channel_size = 4278190080, noc_l1_address_align_bytes = 16, pcie_address_align_bytes = 64, noc_dram_address_align_bytes = 64, l1_unreserved_base = 111104, erisc_l1_unreserved_base = 87872, dram_unreserved_base = 4800064, dram_unreserved_end = 4276273536, supported_data_types = [<f32>, <f16>, <bf16>, <bfp_f8>, <bfp_bf8>, <bfp_f4>, <bfp_bf4>, <bfp_f2>, <bfp_bf2>, <u32>, <u16>, <u8>, <si32>], supported_tile_sizes = [ 4x16,  16x16,  32x16,  4x32,  16x32,  32x32], dst_physical_size_tiles = 16, num_cbs = 64, num_compute_threads = 1, num_datamovement_threads = 2, dram_grid = 1x8, dram_bank_to_logical_worker_noc0 = [(9, 0), (0, 0), (7, 0), (3, 0), (9, 6), (1, 6), (6, 6), (4, 6)], dram_bank_to_logical_worker_noc1 = [(9, 0), (0, 0), (7, 0), (3, 0), (9, 6), (1, 6), (6, 6), (4, 6)]}, {arch = <blackhole>, grid = 10x12, coord_translation_offsets = 2x1, l1_size = 1572864, num_dram_channels = 8, dram_channel_size = 4278190080, noc_l1_address_align_bytes = 16, pcie_address_align_bytes = 64, noc_dram_address_align_bytes = 64, l1_unreserved_base = 111104, erisc_l1_unreserved_base = 87872, dram_unreserved_base = 4800064, dram_unreserved_end = 4276245760, supported_data_types = [<f32>, <f16>, <bf16>, <bfp_f8>, <bfp_bf8>, <bfp_f4>, <bfp_bf4>, <bfp_f2>, <bfp_bf2>, <u32>, <u16>, <u8>, <si32>], supported_tile_sizes = [ 4x16,  16x16,  32x16,  4x32,  16x32,  32x32], dst_physical_size_tiles = 16, num_cbs = 64, num_compute_threads = 1, num_datamovement_threads = 2, dram_grid = 1x8, dram_bank_to_logical_worker_noc0 = [(9, 0), (0, 0), (7, 0), (3, 0), (9, 7), (1, 7), (6, 7), (4, 7)], dram_bank_to_logical_worker_noc1 = [(9, 0), (0, 0), (7, 0), (3, 0), (9, 7), (1, 7), (6, 7), (4, 7)]}, {arch = <blackhole>, grid = 10x12, coord_translation_offsets = 2x1, l1_size = 1572864, num_dram_channels = 8, dram_channel_size = 4278190080, noc_l1_address_align_bytes = 16, pcie_address_align_bytes = 64, noc_dram_address_align_bytes = 64, l1_unreserved_base = 111104, erisc_l1_unreserved_base = 87872, dram_unreserved_base = 4800064, dram_unreserved_end = 4276245760, supported_data_types = [<f32>, <f16>, <bf16>, <bfp_f8>, <bfp_bf8>, <bfp_f4>, <bfp_bf4>, <bfp_f2>, <bfp_bf2>, <u32>, <u16>, <u8>, <si32>], supported_tile_sizes = [ 4x16,  16x16,  32x16,  4x32,  16x32,  32x32], dst_physical_size_tiles = 16, num_cbs = 64, num_compute_threads = 1, num_datamovement_threads = 2, dram_grid = 1x8, dram_bank_to_logical_worker_noc0 = [(9, 0), (0, 0), (7, 0), (3, 0), (9, 6), (1, 6), (6, 6), (4, 6)], dram_bank_to_logical_worker_noc1 = [(9, 0), (0, 0), (7, 0), (3, 0), (9, 6), (1, 6), (6, 6), (4, 6)]}, {arch = <blackhole>, grid = 10x12, coord_translation_offsets = 2x1, l1_size = 1572864, num_dram_channels = 8, dram_channel_size = 4278190080, noc_l1_address_align_bytes = 16, pcie_address_align_bytes = 64, noc_dram_address_align_bytes = 64, l1_unreserved_base = 111104, erisc_l1_unreserved_base = 87872, dram_unreserved_base = 4800064, dram_unreserved_end = 4276245760, supported_data_types = [<f32>, <f16>, <bf16>, <bfp_f8>, <bfp_bf8>, <bfp_f4>, <bfp_bf4>, <bfp_f2>, <bfp_bf2>, <u32>, <u16>, <u8>, <si32>], supported_tile_sizes = [ 4x16,  16x16,  32x16,  4x32,  16x32,  32x32], dst_physical_size_tiles = 16, num_cbs = 64, num_compute_threads = 1, num_datamovement_threads = 2, dram_grid = 1x8, dram_bank_to_logical_worker_noc0 = [(9, 0), (0, 0), (7, 0), (3, 0), (9, 6), (1, 6), (6, 6), (4, 6)], dram_bank_to_logical_worker_noc1 = [(9, 0), (0, 0), (7, 0), (3, 0), (9, 6), (1, 6), (6, 6), (4, 6)]}, {arch = <blackhole>, grid = 10x12, coord_translation_offsets = 2x1, l1_size = 1572864, num_dram_channels = 8, dram_channel_size = 4278190080, noc_l1_address_align_bytes = 16, pcie_address_align_bytes = 64, noc_dram_address_align_bytes = 64, l1_unreserved_base = 111104, erisc_l1_unreserved_base = 87872, dram_unreserved_base = 4800064, dram_unreserved_end = 4276245760, supported_data_types = [<f32>, <f16>, <bf16>, <bfp_f8>, <bfp_bf8>, <bfp_f4>, <bfp_bf4>, <bfp_f2>, <bfp_bf2>, <u32>, <u16>, <u8>, <si32>], supported_tile_sizes = [ 4x16,  16x16,  32x16,  4x32,  16x32,  32x32], dst_physical_size_tiles = 16, num_cbs = 64, num_compute_threads = 1, num_datamovement_threads = 2, dram_grid = 1x8, dram_bank_to_logical_worker_noc0 = [(9, 0), (0, 0), (7, 0), (3, 0), (9, 7), (1, 7), (6, 7), (4, 7)], dram_bank_to_logical_worker_noc1 = [(9, 0), (0, 0), (7, 0), (3, 0), (9, 7), (1, 7), (6, 7), (4, 7)]}], [0, 1, 2, 3, 4, 5, 6, 7, 8, 9, 10, 11, 12, 13, 14, 15, 16, 17, 18, 19, 20, 21, 22, 23, 24, 25, 26, 27, 28, 29, 30, 31, 32, 33, 34, 35, 36, 37, 38, 39, 40, 41, 42, 43, 44, 45, 46, 47, 48, 49, 50, 51, 52, 53, 54, 55, 56, 57, 58, 59, 60, 61, 62, 63], [1 : i32, 1 : i32, 1 : i32, 1 : i32, 1 : i32, 1 : i32, 1 : i32, 1 : i32, 1 : i32, 1 : i32, 1 : i32, 1 : i32, 1 : i32, 1 : i32, 1 : i32, 1 : i32, 1 : i32, 1 : i32, 1 : i32, 1 : i32, 1 : i32, 1 : i32, 1 : i32, 1 : i32, 1 : i32, 1 : i32, 1 : i32, 1 : i32, 1 : i32, 1 : i32, 1 : i32, 1 : i32, 1 : i32, 1 : i32, 1 : i32, 1 : i32, 1 : i32, 1 : i32, 1 : i32, 1 : i32, 1 : i32, 1 : i32, 1 : i32, 1 : i32, 1 : i32, 1 : i32, 1 : i32, 1 : i32, 1 : i32, 1 : i32, 1 : i32, 1 : i32, 1 : i32, 1 : i32, 1 : i32, 1 : i32, 1 : i32, 1 : i32, 1 : i32, 1 : i32, 1 : i32, 1 : i32, 1 : i32, 1 : i32], [ 0x0x0x0], [<[0, 0, 0], [8, 0, 0]>, <[0, 1, 0], [8, 1, 0]>, <[0, 2, 0], [24, 2, 0]>, <[0, 3, 0], [24, 3, 0]>, <[0, 4, 0], [1, 2, 0]>, <[0, 5, 0], [1, 3, 0]>, <[0, 6, 0], [4, 0, 0]>, <[0, 7, 0], [4, 1, 0]>, <[1, 0, 0], [9, 0, 0]>, <[1, 1, 0], [9, 1, 0]>, <[1, 4, 0], [2, 2, 0]>, <[1, 5, 0], [2, 3, 0]>, <[1, 6, 0], [5, 0, 0]>, <[1, 7, 0], [5, 1, 0]>, <[2, 0, 0], [26, 0, 0]>, <[2, 1, 0], [26, 1, 0]>, <[2, 4, 0], [3, 2, 0]>, <[2, 5, 0], [3, 3, 0]>, <[2, 6, 0], [6, 0, 0]>, <[2, 7, 0], [6, 1, 0]>, <[2, 8, 0], [10, 8, 0]>, <[2, 9, 0], [10, 9, 0]>, <[3, 4, 0], [27, 4, 0]>, <[3, 5, 0], [27, 5, 0]>, <[3, 6, 0], [7, 0, 0]>, <[3, 7, 0], [7, 1, 0]>, <[3, 8, 0], [11, 8, 0]>, <[3, 9, 0], [11, 9, 0]>, <[4, 2, 0], [28, 2, 0]>, <[4, 3, 0], [28, 3, 0]>, <[4, 4, 0], [5, 2, 0]>, <[4, 5, 0], [5, 3, 0]>, <[4, 6, 0], [12, 6, 0]>, <[4, 7, 0], [12, 7, 0]>, <[5, 4, 0], [6, 2, 0]>, <[5, 5, 0], [6, 3, 0]>, <[5, 6, 0], [13, 6, 0]>, <[5, 7, 0], [13, 7, 0]>, <[6, 4, 0], [7, 2, 0]>, <[6, 5, 0], [7, 3, 0]>, <[6, 6, 0], [14, 6, 0]>, <[6, 7, 0], [14, 7, 0]>, <[6, 8, 0], [30, 8, 0]>, <[6, 9, 0], [30, 9, 0]>, <[7, 4, 0], [31, 4, 0]>, <[7, 5, 0], [31, 5, 0]>, <[7, 6, 0], [15, 6, 0]>, <[7, 7, 0], [15, 7, 0]>, <[7, 8, 0], [31, 8, 0]>, <[7, 9, 0], [31, 9, 0]>, <[8, 2, 0], [16, 2, 0]>, <[8, 3, 0], [16, 3, 0]>, <[8, 4, 0], [9, 2, 0]>, <[8, 5, 0], [9, 3, 0]>, <[8, 6, 0], [12, 0, 0]>, <[8, 7, 0], [12, 1, 0]>, <[9, 4, 0], [10, 2, 0]>, <[9, 5, 0], [10, 3, 0]>, <[9, 6, 0], [13, 0, 0]>, <[9, 7, 0], [13, 1, 0]>, <[10, 0, 0], [18, 0, 0]>, <[10, 1, 0], [18, 1, 0]>, <[10, 4, 0], [11, 2, 0]>, <[10, 5, 0], [11, 3, 0]>, <[10, 6, 0], [14, 0, 0]>, <[10, 7, 0], [14, 1, 0]>, <[11, 4, 0], [19, 4, 0]>, <[11, 5, 0], [19, 5, 0]>, <[11, 6, 0], [15, 0, 0]>, <[11, 7, 0], [15, 1, 0]>, <[12, 2, 0], [20, 2, 0]>, <[12, 3, 0], [20, 3, 0]>, <[12, 4, 0], [13, 2, 0]>, <[12, 5, 0], [13, 3, 0]>, <[13, 4, 0], [14, 2, 0]>, <[13, 5, 0], [14, 3, 0]>, <[14, 4, 0], [15, 2, 0]>, <[14, 5, 0], [15, 3, 0]>, <[14, 8, 0], [22, 8, 0]>, <[14, 9, 0], [22, 9, 0]>, <[15, 4, 0], [23, 4, 0]>, <[15, 5, 0], [23, 5, 0]>, <[15, 8, 0], [23, 8, 0]>, <[15, 9, 0], [23, 9, 0]>, <[16, 0, 0], [24, 0, 0]>, <[16, 1, 0], [24, 1, 0]>, <[16, 4, 0], [17, 2, 0]>, <[16, 5, 0], [17, 3, 0]>, <[16, 6, 0], [20, 0, 0]>, <[16, 7, 0], [20, 1, 0]>, <[17, 0, 0], [25, 0, 0]>, <[17, 1, 0], [25, 1, 0]>, <[17, 4, 0], [18, 2, 0]>, <[17, 5, 0], [18, 3, 0]>, <[17, 6, 0], [21, 0, 0]>, <[17, 7, 0], [21, 1, 0]>, <[18, 4, 0], [19, 2, 0]>, <[18, 5, 0], [19, 3, 0]>, <[18, 6, 0], [22, 0, 0]>, <[18, 7, 0], [22, 1, 0]>, <[18, 8, 0], [26, 8, 0]>, <[18, 9, 0], [26, 9, 0]>, <[19, 6, 0], [23, 0, 0]>, <[19, 7, 0], [23, 1, 0]>, <[19, 8, 0], [27, 8, 0]>, <[19, 9, 0], [27, 9, 0]>, <[20, 4, 0], [21, 2, 0]>, <[20, 5, 0], [21, 3, 0]>, <[20, 6, 0], [28, 6, 0]>, <[20, 7, 0], [28, 7, 0]>, <[21, 4, 0], [22, 2, 0]>, <[21, 5, 0], [22, 3, 0]>, <[21, 6, 0], [29, 6, 0]>, <[21, 7, 0], [29, 7, 0]>, <[22, 4, 0], [23, 2, 0]>, <[22, 5, 0], [23, 3, 0]>, <[22, 6, 0], [30, 6, 0]>, <[22, 7, 0], [30, 7, 0]>, <[23, 6, 0], [31, 6, 0]>, <[23, 7, 0], [31, 7, 0]>, <[24, 4, 0], [25, 2, 0]>, <[24, 5, 0], [25, 3, 0]>, <[24, 6, 0], [28, 0, 0]>, <[24, 7, 0], [28, 1, 0]>, <[25, 4, 0], [26, 2, 0]>, <[25, 5, 0], [26, 3, 0]>, <[25, 6, 0], [29, 0, 0]>, <[25, 7, 0], [29, 1, 0]>, <[26, 4, 0], [27, 2, 0]>, <[26, 5, 0], [27, 3, 0]>, <[26, 6, 0], [30, 0, 0]>, <[26, 7, 0], [30, 1, 0]>, <[27, 6, 0], [31, 0, 0]>, <[27, 7, 0], [31, 1, 0]>, <[28, 4, 0], [29, 2, 0]>, <[28, 5, 0], [29, 3, 0]>, <[29, 4, 0], [30, 2, 0]>, <[29, 5, 0], [30, 3, 0]>, <[30, 4, 0], [31, 2, 0]>, <[30, 5, 0], [31, 3, 0]>]>
#system_memory = #ttnn.buffer_type<system_memory>
#ttnn_layout = #ttnn.ttnn_layout<(d0, d1) -> (d0, d1), <1x1>, memref<5120x224x!ttcore.tile<32x32, bf16>, #dram>, <interleaved>>
#ttnn_layout1 = #ttnn.ttnn_layout<(d0, d1) -> (d0, d1), <1x1>, memref<163840x448xbf16, #dram>, <interleaved>>
#ttnn_layout2 = #ttnn.ttnn_layout<(d0, d1) -> (d0, d1), <1x1>, memref<5120x14x!ttcore.tile<32x32, bf16>, #dram>, <interleaved>>
#ttnn_layout3 = #ttnn.ttnn_layout<(d0) -> (0, d0), <1x1>, memref<1x224x!ttcore.tile<32x32, bf16>, #dram>, <interleaved>>
#ttnn_layout4 = #ttnn.ttnn_layout<(d0) -> (0, d0), <1x1>, memref<1x14x!ttcore.tile<32x32, bf16>, #dram>, <interleaved>>
#ttnn_layout5 = #ttnn.ttnn_layout<(d0, d1) -> (d0, d1), <1x1>, memref<1x14x!ttcore.tile<32x32, bf16>, #dram>, <interleaved>>
#ttnn_layout6 = #ttnn.ttnn_layout<(d0, d1) -> (d0, d1), <1x1>, memref<1x224x!ttcore.tile<32x32, bf16>, #dram>, <interleaved>>
#ttnn_layout7 = #ttnn.ttnn_layout<(d0, d1) -> (d0, d1), <1x1>, memref<48x224x!ttcore.tile<32x32, bf16>, #dram>, <interleaved>>
#ttnn_layout8 = #ttnn.ttnn_layout<(d0, d1) -> (d0, d1), <1x1>, memref<48x14x!ttcore.tile<32x32, bfp_bf8>, #dram>, <interleaved>>
#ttnn_layout9 = #ttnn.ttnn_layout<(d0, d1) -> (d0, d1), <1x1>, memref<48x14x!ttcore.tile<32x32, bf16>, #dram>, <interleaved>>
#ttnn_layout10 = #ttnn.ttnn_layout<(d0) -> (0, d0), <1x1>, memref<1x16xf32, #dram>, <interleaved>>
#ttnn_layout11 = #ttnn.ttnn_layout<(d0, d1) -> (d0, d1), <1x1>, memref<1x1x!ttcore.tile<32x32, f32>, #dram>, <interleaved>>
#ttnn_layout12 = #ttnn.ttnn_layout<(d0) -> (0, d0), <1x1>, memref<1x1x!ttcore.tile<32x32, f32>, #dram>, <interleaved>>
#ttnn_layout13 = #ttnn.ttnn_layout<(d0, d1) -> (d0, d1), <1x1>, memref<384x48x!ttcore.tile<32x32, bf16>, #dram>, <interleaved>>
#ttnn_layout14 = #ttnn.ttnn_layout<(d0, d1) -> (d0, d1), <1x1>, memref<24x48x!ttcore.tile<32x32, bfp_bf8>, #dram>, <interleaved>>
#ttnn_layout15 = #ttnn.ttnn_layout<(d0, d1) -> (d0, d1), <1x1>, memref<24x48x!ttcore.tile<32x32, bf16>, #dram>, <interleaved>>
#ttnn_layout16 = #ttnn.ttnn_layout<(d0, d1) -> (d0, d1), <1x1>, memref<4x2x!ttcore.tile<32x32, bf16>, #dram>, <interleaved>>
#ttnn_layout17 = #ttnn.ttnn_layout<(d0, d1) -> (d0, d1), <1x1>, memref<128x64xbf16, #dram>, <interleaved>>
#ttnn_layout18 = #ttnn.ttnn_layout<(d0, d1) -> (d0, d1), <1x1>, memref<4x1x!ttcore.tile<32x32, f32>, #dram>, <interleaved>>
#ttnn_layout19 = #ttnn.ttnn_layout<(d0, d1) -> (d0, d1), <1x1>, memref<4x2x!ttcore.tile<32x32, f32>, #dram>, <interleaved>>
#ttnn_layout20 = #ttnn.ttnn_layout<(d0, d1) -> (d0, d1), <1x1>, memref<1x1x!ttcore.tile<32x32, si32>, #dram>, <interleaved>>
#ttnn_layout21 = #ttnn.ttnn_layout<(d0, d1) -> (d0, d1), <1x1>, memref<512x16x!ttcore.tile<32x32, bf16>, #dram>, <interleaved>>
#ttnn_layout22 = #ttnn.ttnn_layout<(d0, d1) -> (d0, d1), <1x1>, memref<32x16x!ttcore.tile<32x32, bfp_bf8>, #dram>, <interleaved>>
#ttnn_layout23 = #ttnn.ttnn_layout<(d0, d1) -> (d0, d1), <1x1>, memref<32x16x!ttcore.tile<32x32, bf16>, #dram>, <interleaved>>
#ttnn_layout24 = #ttnn.ttnn_layout<(d0, d1, d2) -> (d0 * 2048 + d1, d2), <1x1>, memref<24576x224x!ttcore.tile<32x32, bf16>, #dram>, <interleaved>>
#ttnn_layout25 = #ttnn.ttnn_layout<(d0, d1, d2, d3) -> (d0 * 12288 + d1 * 2048 + d2, d3), <1x1>, memref<384x224x!ttcore.tile<32x32, bfp_bf8>, #dram>, <interleaved>>
#ttnn_layout26 = #ttnn.ttnn_layout<(d0, d1, d2) -> (d0 * 2048 + d1, d2), <1x1>, memref<384x224x!ttcore.tile<32x32, bf16>, #dram>, <interleaved>>
#ttnn_layout27 = #ttnn.ttnn_layout<(d0, d1, d2, d3) -> (d0 * 12288 + d1 * 2048 + d2, d3), <1x1>, memref<384x224x!ttcore.tile<32x32, bf16>, #dram>, <interleaved>>
#ttnn_layout28 = #ttnn.ttnn_layout<(d0, d1, d2, d3) -> (d0 * 32 + d1 * 32 + d2, d3), <1x1>, memref<1x1x!ttcore.tile<32x32, bf16>, #dram>, <interleaved>>
#ttnn_layout29 = #ttnn.ttnn_layout<(d0, d1) -> (d0, d1), <1x1>, memref<64x224x!ttcore.tile<32x32, bf16>, #dram>, <interleaved>>
#ttnn_layout30 = #ttnn.ttnn_layout<(d0, d1) -> (d0, d1), <1x1>, memref<64x14x!ttcore.tile<32x32, bfp_bf8>, #dram>, <interleaved>>
#ttnn_layout31 = #ttnn.ttnn_layout<(d0, d1) -> (d0, d1), <1x1>, memref<64x14x!ttcore.tile<32x32, bf16>, #dram>, <interleaved>>
#ttnn_layout32 = #ttnn.ttnn_layout<(d0, d1) -> (d0, d1), <1x1>, memref<224x256x!ttcore.tile<32x32, bf16>, #dram>, <interleaved>>
#ttnn_layout33 = #ttnn.ttnn_layout<(d0, d1) -> (d0, d1), <1x1>, memref<224x16x!ttcore.tile<32x32, bfp_bf8>, #dram>, <interleaved>>
#ttnn_layout34 = #ttnn.ttnn_layout<(d0, d1) -> (d0, d1), <1x1>, memref<224x16x!ttcore.tile<32x32, bf16>, #dram>, <interleaved>>
#ttnn_layout35 = #ttnn.ttnn_layout<(d0, d1) -> (d0, d1), <1x1>, memref<224x64x!ttcore.tile<32x32, bf16>, #dram>, <interleaved>>
#ttnn_layout36 = #ttnn.ttnn_layout<(d0, d1) -> (d0, d1), <1x1>, memref<14x64x!ttcore.tile<32x32, bfp_bf8>, #dram>, <interleaved>>
#ttnn_layout37 = #ttnn.ttnn_layout<(d0, d1) -> (d0, d1), <1x1>, memref<14x64x!ttcore.tile<32x32, bf16>, #dram>, <interleaved>>
#ttnn_layout38 = #ttnn.ttnn_layout<(d0, d1) -> (d0, d1), <1x1>, memref<576x224x!ttcore.tile<32x32, bf16>, #dram>, <interleaved>>
#ttnn_layout39 = #ttnn.ttnn_layout<(d0, d1) -> (d0, d1), <1x1>, memref<144x14x!ttcore.tile<32x32, bfp_bf8>, #dram>, <interleaved>>
#ttnn_layout40 = #ttnn.ttnn_layout<(d0, d1) -> (d0, d1), <1x1>, memref<144x14x!ttcore.tile<32x32, bf16>, #dram>, <interleaved>>
#ttnn_layout41 = #ttnn.ttnn_layout<(d0) -> (0, d0), <1x1>, memref<1x12x!ttcore.tile<32x32, bf16>, #dram>, <interleaved>>
#ttnn_layout42 = #ttnn.ttnn_layout<(d0, d1) -> (d0, d1), <1x1>, memref<1x12x!ttcore.tile<32x32, f32>, #dram>, <interleaved>>
#ttnn_layout43 = #ttnn.ttnn_layout<(d0, d1) -> (d0, d1), <1x1>, memref<1x12x!ttcore.tile<32x32, bf16>, #dram>, <interleaved>>
#ttnn_layout44 = #ttnn.ttnn_layout<(d0, d1, d2) -> (d0 * 32 + d1, d2), <1x1>, memref<4x1x!ttcore.tile<32x32, si32>, #dram>, <interleaved>>
#ttnn_layout45 = #ttnn.ttnn_layout<(d0) -> (0, d0), <1x1>, memref<1x1x!ttcore.tile<32x32, si32>, #dram>, <interleaved>>
#ttnn_layout46 = #ttnn.ttnn_layout<(d0, d1, d2, d3) -> (d0 * 384 + d1 * 384 + d2, d3), <1x1>, memref<12x2x!ttcore.tile<32x32, si32>, #dram>, <interleaved>>
#ttnn_layout47 = #ttnn.ttnn_layout<(d0, d1, d2, d3) -> (d0 * 384 + d1 * 384 + d2, d3), <1x1>, memref<384x64xui16, #dram>, <interleaved>>
#ttnn_layout48 = #ttnn.ttnn_layout<(d0, d1, d2, d3) -> (d0 * 384 + d1 * 384 + d2, d3), <1x1>, memref<12x2x!ttcore.tile<32x32, u16>, #dram>, <interleaved>>
#ttnn_layout49 = #ttnn.ttnn_layout<(d0, d1, d2, d3) -> (d0 * 384 + d1 * 384 + d2, d3), <1x1>, memref<12x2x!ttcore.tile<32x32, u16>, #system_memory>>
#ttnn_layout50 = #ttnn.ttnn_layout<(d0, d1, d2, d3) -> (d0 * 384 + d1 * 384 + d2, d3), <1x1>, memref<384x64xui16, #system_memory>>
#ttnn_layout51 = #ttnn.ttnn_layout<(d0, d1, d2) -> (d0 * 32 + d1, d2), <1x1>, memref<1x12x!ttcore.tile<32x32, si32>, #dram>, <interleaved>>
#ttnn_layout52 = #ttnn.ttnn_layout<(d0, d1) -> (d0, d1), <1x1>, memref<12x224x!ttcore.tile<32x32, bf16>, #dram>, <interleaved>>
#ttnn_layout53 = #ttnn.ttnn_layout<(d0, d1) -> (d0, d1), <1x1>, memref<12x14x!ttcore.tile<32x32, bfp_bf8>, #dram>, <interleaved>>
#ttnn_layout54 = #ttnn.ttnn_layout<(d0, d1) -> (d0, d1), <1x1>, memref<12x14x!ttcore.tile<32x32, bf16>, #dram>, <interleaved>>
#ttnn_layout55 = #ttnn.ttnn_layout<(d0, d1) -> (d0, d1), <1x1>, memref<12x14x!ttcore.tile<32x32, f32>, #dram>, <interleaved>>
#ttnn_layout56 = #ttnn.ttnn_layout<(d0, d1) -> (d0, d1), <1x1>, memref<224x576x!ttcore.tile<32x32, bf16>, #dram>, <interleaved>>
#ttnn_layout57 = #ttnn.ttnn_layout<(d0, d1) -> (d0, d1), <1x1>, memref<14x144x!ttcore.tile<32x32, bfp_bf8>, #dram>, <interleaved>>
#ttnn_layout58 = #ttnn.ttnn_layout<(d0, d1) -> (d0, d1), <1x1>, memref<14x144x!ttcore.tile<32x32, bf16>, #dram>, <interleaved>>
#ttnn_layout59 = #ttnn.ttnn_layout<(d0, d1, d2) -> (d0 * 7168 + d1, d2), <1x1>, memref<86016x64x!ttcore.tile<32x32, bf16>, #dram>, <interleaved>>
#ttnn_layout60 = #ttnn.ttnn_layout<(d0, d1, d2, d3) -> (d0 * 43008 + d1 * 7168 + d2, d3), <1x1>, memref<1344x64x!ttcore.tile<32x32, bfp_bf8>, #dram>, <interleaved>>
#ttnn_layout61 = #ttnn.ttnn_layout<(d0, d1, d2) -> (d0 * 7168 + d1, d2), <1x1>, memref<1344x64x!ttcore.tile<32x32, bf16>, #dram>, <interleaved>>
#ttnn_layout62 = #ttnn.ttnn_layout<(d0, d1, d2, d3) -> (d0 * 43008 + d1 * 7168 + d2, d3), <1x1>, memref<1344x64x!ttcore.tile<32x32, bf16>, #dram>, <interleaved>>
#ttnn_layout63 = #ttnn.ttnn_layout<(d0, d1) -> (d0, d1), <1x1>, memref<18x224x!ttcore.tile<32x32, bf16>, #dram>, <interleaved>>
#ttnn_layout64 = #ttnn.ttnn_layout<(d0, d1) -> (d0, d1), <1x1>, memref<18x14x!ttcore.tile<32x32, bfp_bf8>, #dram>, <interleaved>>
#ttnn_layout65 = #ttnn.ttnn_layout<(d0, d1) -> (d0, d1), <1x1>, memref<18x14x!ttcore.tile<32x32, bf16>, #dram>, <interleaved>>
#ttnn_layout66 = #ttnn.ttnn_layout<(d0, d1) -> (d0, d1), <1x1>, memref<1280x14x!ttcore.tile<32x32, bfp_bf8>, #dram>, <interleaved>>
#ttnn_layout67 = #ttnn.ttnn_layout<(d0, d1) -> (d0, d1), <1x1>, memref<1280x14x!ttcore.tile<32x32, bf16>, #dram>, <interleaved>>
#ttnn_layout68 = #ttnn.ttnn_layout<(d0, d1, d2) -> (d0 * 32 + d1, d2), <1x1>, memref<1x1x!ttcore.tile<32x32, f32>, #dram>, <interleaved>>
#ttnn_layout69 = #ttnn.ttnn_layout<(d0, d1, d2, d3) -> (d0 * 32 + d1 * 32 + d2, d3), <1x1>, memref<1x4x!ttcore.tile<32x32, si32>, #dram>, <interleaved>>
#ttnn_layout70 = #ttnn.ttnn_layout<(d0, d1, d2) -> (d0 * 32 + d1, d2), <1x1>, memref<4x1x!ttcore.tile<32x32, u32>, #dram>, <interleaved>>
#ttnn_layout71 = #ttnn.ttnn_layout<(d0) -> (0, d0), <1x1>, memref<1x1x!ttcore.tile<32x32, u32>, #dram>, <interleaved>>
#ttnn_layout72 = #ttnn.ttnn_layout<(d0) -> (0, d0), <1x1>, memref<1x1xsi32, #dram>, <interleaved>>
#ttnn_layout73 = #ttnn.ttnn_layout<(d0, d1, d2, d3) -> (d0 * 128 + d1 * 128 + d2, d3), <1x1>, memref<64x16x!ttcore.tile<32x32, bf16>, #dram>, <interleaved>>
#ttnn_layout74 = #ttnn.ttnn_layout<(d0, d1, d2, d3) -> (d0 * 128 + d1 * 128 + d2, d3), <1x1>, memref<64x2x!ttcore.tile<32x32, bf16>, #dram>, <interleaved>>
#ttnn_layout75 = #ttnn.ttnn_layout<(d0) -> (0, d0), <1x1>, memref<1x16x!ttcore.tile<32x32, bf16>, #dram>, <interleaved>>
#ttnn_layout76 = #ttnn.ttnn_layout<(d0) -> (0, d0), <1x1>, memref<1x48x!ttcore.tile<32x32, bf16>, #dram>, <interleaved>>
#ttnn_layout77 = #ttnn.ttnn_layout<(d0, d1, d2) -> (d0 * 32 + d1, d2), <1x1>, memref<16x5120x!ttcore.tile<32x32, f32>, #dram>, <interleaved>>
#ttnn_layout78 = #ttnn.ttnn_layout<(d0, d1, d2, d3) -> (d0 * 128 + d1 * 128 + d2, d3), <1x1>, memref<16x16x!ttcore.tile<32x32, bf16>, #dram>, <interleaved>>
#ttnn_layout79 = #ttnn.ttnn_layout<(d0, d1, d2, d3) -> (d0 * 128 + d1 * 128 + d2, d3), <1x1>, memref<16x2x!ttcore.tile<32x32, bf16>, #dram>, <interleaved>>
#ttnn_layout80 = #ttnn.ttnn_layout<(d0, d1) -> (d0, d1), <1x1>, memref<1x1x!ttcore.tile<32x32, u32>, #dram>, <interleaved>>
#ttnn_layout81 = #ttnn.ttnn_layout<(d0) -> (0, d0), <1x1>, memref<1x4xui32, #dram>, <interleaved>>
#ttnn_layout82 = #ttnn.ttnn_layout<(d0, d1, d2) -> (d0 * 32 + d1, d2), <1x1>, memref<4x14x!ttcore.tile<32x32, bf16>, #dram>, <interleaved>>
#ttnn_layout83 = #ttnn.ttnn_layout<(d0, d1, d2) -> (d0 * 32 + d1, d2), <1x1>, memref<4x224x!ttcore.tile<32x32, bf16>, #dram>, <interleaved>>
#ttnn_layout84 = #ttnn.ttnn_layout<(d0, d1, d2, d3) -> (d0 * 32 + d1 * 32 + d2, d3), <1x1>, memref<4x14x!ttcore.tile<32x32, bf16>, #dram>, <interleaved>>
#ttnn_layout85 = #ttnn.ttnn_layout<(d0, d1) -> (d0, d1), <1x1>, memref<1x48x!ttcore.tile<32x32, bf16>, #dram>, <interleaved>>
#ttnn_layout86 = #ttnn.ttnn_layout<(d0, d1, d2, d3) -> (d0 * 32 + d1 * 32 + d2, d3), <1x1>, memref<1x48x!ttcore.tile<32x32, bf16>, #dram>, <interleaved>>
#ttnn_layout87 = #ttnn.ttnn_layout<(d0, d1, d2, d3) -> (d0 * 32 + d1 * 32 + d2, d3), <1x1>, memref<1x3x!ttcore.tile<32x32, bf16>, #dram>, <interleaved>>
#ttnn_layout88 = #ttnn.ttnn_layout<(d0, d1) -> (d0, d1), <1x1>, memref<1x3x!ttcore.tile<32x32, bf16>, #dram>, <interleaved>>
#ttnn_layout89 = #ttnn.ttnn_layout<(d0, d1) -> (d0, d1), <1x1>, memref<1x24x!ttcore.tile<32x32, bf16>, #dram>, <interleaved>>
#ttnn_layout90 = #ttnn.ttnn_layout<(d0, d1, d2, d3) -> (d0 * 128 + d1 * 32 + d2, d3), <1x1>, memref<16x6x!ttcore.tile<32x32, bf16>, #dram>, <interleaved>>
#ttnn_layout91 = #ttnn.ttnn_layout<(d0, d1, d2, d3) -> (d0 * 128 + d1 * 32 + d2, d3), <1x1>, memref<16x4x!ttcore.tile<32x32, bf16>, #dram>, <interleaved>>
#ttnn_layout92 = #ttnn.ttnn_layout<(d0, d1, d2, d3) -> (d0 * 128 + d1 * 32 + d2, d3), <1x1>, memref<16x2x!ttcore.tile<32x32, bf16>, #dram>, <interleaved>>
#ttnn_layout93 = #ttnn.ttnn_layout<(d0, d1, d2, d3, d4) -> (d0 * 128 + d1 * 32 + d2 * 32 + d3, d4), <1x1>, memref<16x1x!ttcore.tile<32x32, bf16>, #dram>, <interleaved>>
#ttnn_layout94 = #ttnn.ttnn_layout<(d0, d1) -> (d0, d1), <1x1>, memref<1x1x!ttcore.tile<32x32, bf16>, #dram>, <interleaved>>
#ttnn_layout95 = #ttnn.ttnn_layout<(d0, d1) -> (d0, d1), <1x1>, memref<1x1xui32, #dram>, <interleaved>>
#ttnn_layout96 = #ttnn.ttnn_layout<(d0, d1, d2) -> (d0 * 32 + d1, d2), <1x1>, memref<1x2x!ttcore.tile<32x32, bf16>, #dram>, <interleaved>>
#ttnn_layout97 = #ttnn.ttnn_layout<(d0, d1, d2, d3) -> (d0 * 32 + d1 * 32 + d2, d3), <1x1>, memref<1x2x!ttcore.tile<32x32, bf16>, #dram>, <interleaved>>
#ttnn_layout98 = #ttnn.ttnn_layout<(d0, d1, d2, d3) -> (d0 * 128 + d1 * 32 + d2, d3), <1x1>, memref<16x1x!ttcore.tile<32x32, bf16>, #dram>, <interleaved>>
#ttnn_layout99 = #ttnn.ttnn_layout<(d0, d1) -> (d0, d1), <1x1>, memref<1x18x!ttcore.tile<32x32, bf16>, #dram>, <interleaved>>
#ttnn_layout100 = #ttnn.ttnn_layout<(d0, d1, d2) -> (d0 * 32 + d1, d2), <1x1>, memref<1x18x!ttcore.tile<32x32, bf16>, #dram>, <interleaved>>
#ttnn_layout101 = #ttnn.ttnn_layout<(d0, d1, d2) -> (d0 * 32 + d1, d2), <1x1>, memref<16x18x!ttcore.tile<32x32, bf16>, #dram>, <interleaved>>
#ttnn_layout102 = #ttnn.ttnn_layout<(d0, d1) -> (d0, d1), <1x1>, memref<1x16x!ttcore.tile<32x32, bf16>, #dram>, <interleaved>>
#ttnn_layout103 = #ttnn.ttnn_layout<(d0, d1, d2, d3) -> (d0 * 128 + d1 * 32 + d2, d3), <1x1>, memref<4x16x!ttcore.tile<32x32, bf16>, #dram>, <interleaved>>
#ttnn_layout104 = #ttnn.ttnn_layout<(d0, d1, d2, d3) -> (d0 * 128 + d1 * 32 + d2, d3), <4x1>, memref<1x16x!ttcore.tile<32x32, bf16>, #l1>, <height_sharded>, core_ranges = <[#ttnn.core_range<(0,0), (3,0)>]>>
#ttnn_layout105 = #ttnn.ttnn_layout<(d0) -> (0, d0), <1x1>, memref<1x4xsi32, #dram>, <interleaved>>
#ttnn_layout106 = #ttnn.ttnn_layout<(d0, d1) -> (d0, d1), <1x1>, memref<16x16x!ttcore.tile<32x32, bf16>, #dram>, <interleaved>>
#ttnn_layout107 = #ttnn.ttnn_layout<(d0, d1) -> (d0, d1), <1x1>, memref<16x32x!ttcore.tile<32x32, bf16>, #dram>, <interleaved>>
#ttnn_layout108 = #ttnn.ttnn_layout<(d0, d1, d2, d3) -> (d0 * 4096 + d1 * 32 + d2, d3), <1x1>, memref<512x8x!ttcore.tile<32x32, bf16>, #dram>, <interleaved>>
#ttnn_layout109 = #ttnn.ttnn_layout<(d0, d1, d2, d3) -> (d0 * 512 + d1 * 128 + d2, d3), <1x1>, memref<64x8x!ttcore.tile<32x32, bf16>, #dram>, <interleaved>>
#ttnn_layout110 = #ttnn.ttnn_layout<(d0, d1, d2, d3) -> (d0 * 512 + d1 * 128 + d2, d3), <1x1>, memref<64x4x!ttcore.tile<32x32, bf16>, #dram>, <interleaved>>
#ttnn_layout111 = #ttnn.ttnn_layout<(d0, d1) -> (d0, d1), <1x1>, memref<1x2x!ttcore.tile<32x32, bf16>, #dram>, <interleaved>>
#ttnn_layout112 = #ttnn.ttnn_layout<(d0, d1, d2, d3, d4) -> (d0 * 32 + d1 * 32 + d2 * 32 + d3, d4), <1x1>, memref<4x1x!ttcore.tile<32x32, bf16>, #dram>, <interleaved>>
#ttnn_layout113 = #ttnn.ttnn_layout<(d0, d1, d2, d3) -> (d0 * 32 + d1 * 32 + d2, d3), <1x1>, memref<4x2x!ttcore.tile<32x32, bf16>, #dram>, <interleaved>>
#ttnn_layout114 = #ttnn.ttnn_layout<(d0, d1, d2, d3) -> (d0 * 128 + d1 * 32 + d2, d3), <1x1>, memref<4x2x!ttcore.tile<32x32, bf16>, #dram>, <interleaved>>
#ttnn_layout115 = #ttnn.ttnn_layout<(d0, d1, d2, d3) -> (d0 * 32 + d1 * 32 + d2, d3), <1x1>, memref<4x1x!ttcore.tile<32x32, bf16>, #dram>, <interleaved>>
#ttnn_layout116 = #ttnn.ttnn_layout<(d0, d1, d2, d3) -> (d0 * 128 + d1 * 32 + d2, d3), <4x1>, memref<1x2x!ttcore.tile<32x32, bf16>, #l1>, <height_sharded>, core_ranges = <[#ttnn.core_range<(0,0), (3,0)>]>>
#ttnn_layout117 = #ttnn.ttnn_layout<(d0, d1, d2, d3) -> (d0 * 512 + d1 * 128 + d2, d3), <1x1>, memref<64x2x!ttcore.tile<32x32, bf16>, #dram>, <interleaved>>
#ttnn_layout118 = #ttnn.ttnn_layout<(d0, d1, d2, d3) -> (d0 * 512 + d1 * 128 + d2, d3), <1x1>, memref<64x6x!ttcore.tile<32x32, bf16>, #dram>, <interleaved>>
#ttnn_layout119 = #ttnn.ttnn_layout<(d0, d1, d2, d3) -> (d0 * 32 + d1 * 32 + d2, d3), <1x1>, memref<1x1x!ttcore.tile<32x32, si32>, #dram>, <interleaved>>
#ttnn_layout120 = #ttnn.ttnn_layout<(d0, d1, d2, d3) -> (d0 * 32 + d1 * 32 + d2, d3), <1x1>, memref<1x4x!ttcore.tile<32x32, bf16>, #dram>, <interleaved>>
#ttnn_layout121 = #ttnn.ttnn_layout<(d0, d1, d2, d3) -> (d0 * 128 + d1 * 32 + d2, d3), <1x1>, memref<16x4x!ttcore.tile<32x32, f32>, #dram>, <interleaved>>
#ttnn_layout122 = #ttnn.ttnn_layout<(d0, d1, d2, d3) -> (d0 * 32 + d1 * 32 + d2, d3), <1x1>, memref<1x224x!ttcore.tile<32x32, bf16>, #dram>, <interleaved>>
#ttnn_layout123 = #ttnn.ttnn_layout<(d0, d1, d2, d3) -> (d0 * 32 + d1 * 32 + d2, d3), <1x1>, memref<1x14x!ttcore.tile<32x32, bf16>, #dram>, <interleaved>>
#ttnn_layout124 = #ttnn.ttnn_layout<(d0, d1) -> (d0, d1), <1x1>, memref<1x144x!ttcore.tile<32x32, bf16>, #dram>, <interleaved>>
#ttnn_layout125 = #ttnn.ttnn_layout<(d0, d1, d2, d3) -> (d0 * 32 + d1 * 32 + d2, d3), <1x1>, memref<1x144x!ttcore.tile<32x32, bf16>, #dram>, <interleaved>>
#ttnn_layout126 = #ttnn.ttnn_layout<(d0, d1, d2, d3) -> (d0 * 32 + d1 * 32 + d2, d3), <1x1>, memref<1x9x!ttcore.tile<32x32, bf16>, #dram>, <interleaved>>
#ttnn_layout127 = #ttnn.ttnn_layout<(d0, d1) -> (d0, d1), <1x1>, memref<1x9x!ttcore.tile<32x32, bf16>, #dram>, <interleaved>>
#ttnn_layout128 = #ttnn.ttnn_layout<(d0, d1) -> (d0, d1), <1x1>, memref<1x14x!ttcore.tile<32x32, f32>, #dram>, <interleaved>>
#ttnn_layout129 = #ttnn.ttnn_layout<(d0, d1, d2) -> (d0 * 32 + d1, d2), <1x1>, memref<1x12x!ttcore.tile<32x32, f32>, #dram>, <interleaved>>
#ttnn_layout130 = #ttnn.ttnn_layout<(d0, d1, d2) -> (d0 * 32 + d1, d2), <1x1>, memref<16x12x!ttcore.tile<32x32, f32>, #dram>, <interleaved>>
#ttnn_layout131 = #ttnn.ttnn_layout<(d0, d1, d2) -> (d0 * 32 + d1, d2), <1x1>, memref<4x12x!ttcore.tile<32x32, f32>, #dram>, <interleaved>>
#ttnn_layout132 = #ttnn.ttnn_layout<(d0, d1, d2) -> (d0 * 32 + d1, d2), <1x1>, memref<4x12x!ttcore.tile<32x32, bf16>, #dram>, <interleaved>>
#ttnn_layout133 = #ttnn.ttnn_layout<(d0, d1, d2) -> (d0 * 32 + d1, d2), <1x1>, memref<4x1x!ttcore.tile<32x32, bf16>, #dram>, <interleaved>>
#ttnn_layout134 = #ttnn.ttnn_layout<(d0, d1, d2) -> (d0 * 32 + d1, d2), <1x1>, memref<4x1x!ttcore.tile<32x32, u16>, #dram>, <interleaved>>
#ttnn_layout135 = #ttnn.ttnn_layout<(d0, d1, d2) -> (d0 * 32 + d1, d2), <1x1>, memref<4x1x!ttcore.tile<32x32, f32>, #dram>, <interleaved>>
#ttnn_layout136 = #ttnn.ttnn_layout<(d0, d1) -> (d0, d1), <1x1>, memref<1x1x!ttcore.tile<32x32, u16>, #dram>, <interleaved>>
#ttnn_layout137 = #ttnn.ttnn_layout<(d0, d1, d2) -> (d0 * 32 + d1, d2), <1x1>, memref<16x1x!ttcore.tile<32x32, si32>, #dram>, <interleaved>>
#ttnn_layout138 = #ttnn.ttnn_layout<(d0) -> (0, d0), <1x1>, memref<1x16xsi32, #dram>, <interleaved>>
#ttnn_layout139 = #ttnn.ttnn_layout<(d0, d1) -> (d0, d1), <1x1>, memref<16x1xf32, #dram>, <interleaved>>
#ttnn_layout140 = #ttnn.ttnn_layout<(d0, d1) -> (d0, d1), <1x1>, memref<4x1xf32, #dram>, <interleaved>>
#ttnn_layout141 = #ttnn.ttnn_layout<(d0, d1) -> (d0, d1), <1x1>, memref<192x1x!ttcore.tile<32x32, f32>, #dram>, <interleaved>>
#ttnn_layout142 = #ttnn.ttnn_layout<(d0) -> (0, d0), <1x1>, memref<1x32xui32, #dram>, <interleaved>>
#ttnn_layout143 = #ttnn.ttnn_layout<(d0, d1) -> (d0, d1), <1x1>, memref<192x1x!ttcore.tile<32x32, bf16>, #dram>, <interleaved>>
#ttnn_layout144 = #ttnn.ttnn_layout<(d0, d1) -> (d0, d1), <1x1>, memref<6144x1xbf16, #dram>, <interleaved>>
#ttnn_layout145 = #ttnn.ttnn_layout<(d0, d1, d2, d3) -> (d0 * 32 + d1 * 32 + d2, d3), <1x1>, memref<1x12x!ttcore.tile<32x32, f32>, #dram>, <interleaved>>
#ttnn_layout146 = #ttnn.ttnn_layout<(d0, d1, d2, d3) -> (d0 * 128 + d1 * 128 + d2, d3), <1x1>, memref<4x12x!ttcore.tile<32x32, f32>, #dram>, <interleaved>>
#ttnn_layout147 = #ttnn.ttnn_layout<(d0, d1, d2) -> (d0 * 32 + d1, d2), <1x1>, memref<16x14x!ttcore.tile<32x32, bf16>, #dram>, <interleaved>>
#ttnn_layout148 = #ttnn.ttnn_layout<(d0, d1, d2) -> (d0 * 32 + d1, d2), <1x1>, memref<32x14x!ttcore.tile<32x32, bf16>, #dram>, <interleaved>>
#ttnn_layout149 = #ttnn.ttnn_layout<(d0, d1, d2, d3) -> (d0 * 32 + d1 * 32 + d2, d3), <1x1>, memref<32x14x!ttcore.tile<32x32, bf16>, #dram>, <interleaved>>
#ttnn_layout150 = #ttnn.ttnn_layout<(d0, d1, d2, d3) -> (d0 * 32 + d1 * 32 + d2, d3), <1x1>, memref<32x1x!ttcore.tile<32x32, si32>, #dram>, <interleaved>>
#ttnn_layout151 = #ttnn.ttnn_layout<(d0, d1, d2, d3) -> (d0 * 32 + d1 * 32 + d2, d3), <1x1>, memref<32x224x!ttcore.tile<32x32, bf16>, #dram>, <interleaved>>
#ttnn_layout152 = #ttnn.ttnn_layout<(d0, d1, d2, d3) -> (d0 + d1 + d2, d3), <1x1>, memref<32x7168xbf16, #dram>, <interleaved>>
#ttnn_layout153 = #ttnn.ttnn_layout<(d0, d1, d2, d3) -> (d0 * 32 + d1 * 32 + d2, d3), <1x1>, memref<32x1x!ttcore.tile<32x32, u16>, #dram>, <interleaved>>
#ttnn_layout154 = #ttnn.ttnn_layout<(d0, d1, d2, d3) -> (d0 * 32 + d1 * 32 + d2, d3), <1x1>, memref<32x1x!ttcore.tile<32x32, u16>, #system_memory>>
#ttnn_layout155 = #ttnn.ttnn_layout<(d0, d1, d2, d3) -> (d0 + d1 + d2, d3), <1x1>, memref<32x8xui16, #system_memory>>
#ttnn_layout156 = #ttnn.ttnn_layout<(d0, d1, d2, d3) -> (d0 + d1 + d2, d3), <1x1>, memref<32x8xui16, #dram>, <interleaved>>
#ttnn_layout157 = #ttnn.ttnn_layout<(d0, d1, d2, d3) -> (d0 * 128 + d1 + d2, d3), <1x1>, memref<128x7168xbf16, #dram>, <interleaved>>
#ttnn_layout158 = #ttnn.ttnn_layout<(d0, d1, d2, d3) -> (d0 * 128 + d1 + d2, d3), <1x1>, memref<128x8xui16, #dram>, <interleaved>>
#ttnn_layout159 = #ttnn.ttnn_layout<(d0, d1, d2, d3) -> (d0 * 4096 + d1 * 32 + d2, d3), <1x1>, memref<128x1x!ttcore.tile<32x32, u16>, #dram>, <interleaved>>
#ttnn_layout160 = #ttnn.ttnn_layout<(d0, d1, d2, d3) -> (d0 * 4096 + d1 * 32 + d2, d3), <1x1>, memref<128x1x!ttcore.tile<32x32, si32>, #dram>, <interleaved>>
#ttnn_layout161 = #ttnn.ttnn_layout<(d0, d1, d2, d3) -> (d0 * 4096 + d1 * 32 + d2, d3), <1x1>, memref<128x224x!ttcore.tile<32x32, bf16>, #dram>, <interleaved>>
#ttnn_layout162 = #ttnn.ttnn_layout<(d0, d1, d2, d3) -> (d0 * 128 + d1 * 128 + d2, d3), <1x1>, memref<4x1x!ttcore.tile<32x32, si32>, #dram>, <interleaved>>
#ttnn_layout163 = #ttnn.ttnn_layout<(d0, d1, d2, d3) -> (d0 * 128 + d1 * 128 + d2, d3), <1x1>, memref<4x12x!ttcore.tile<32x32, bf16>, #dram>, <interleaved>>
#ttnn_layout164 = #ttnn.ttnn_layout<(d0, d1, d2, d3) -> (d0 * 128 + d1 * 128 + d2, d3), <1x1>, memref<128x384xbf16, #dram>, <interleaved>>
#ttnn_layout165 = #ttnn.ttnn_layout<(d0, d1, d2, d3) -> (d0 * 128 + d1 * 128 + d2, d3), <1x1>, memref<4x1x!ttcore.tile<32x32, u16>, #dram>, <interleaved>>
#ttnn_layout166 = #ttnn.ttnn_layout<(d0, d1, d2, d3) -> (d0 * 128 + d1 * 128 + d2, d3), <1x1>, memref<4x1x!ttcore.tile<32x32, u16>, #system_memory>>
#ttnn_layout167 = #ttnn.ttnn_layout<(d0, d1, d2, d3) -> (d0 * 128 + d1 * 128 + d2, d3), <1x1>, memref<128x8xui16, #system_memory>>
#ttnn_layout168 = #ttnn.ttnn_layout<(d0, d1, d2, d3) -> (d0 * 128 + d1 * 128 + d2, d3), <1x1>, memref<128x8xui16, #dram>, <interleaved>>
#ttnn_layout169 = #ttnn.ttnn_layout<(d0, d1, d2, d3) -> (d0 * 128 + d1 * 128 + d2, d3), <1x1>, memref<128x6xbf16, #dram>, <interleaved>>
#ttnn_layout170 = #ttnn.ttnn_layout<(d0, d1, d2, d3) -> (d0 * 4 + d1 * 4 + d2, d3), <1x1>, memref<4x6xui16, #dram>, <interleaved>>
#ttnn_layout171 = #ttnn.ttnn_layout<(d0, d1, d2, d3) -> (d0 * 32 + d1 * 32 + d2, d3), <1x1>, memref<1x1x!ttcore.tile<32x32, u16>, #dram>, <interleaved>>
#ttnn_layout172 = #ttnn.ttnn_layout<(d0, d1, d2, d3) -> (d0 * 32 + d1 * 32 + d2, d3), <1x1>, memref<1x1x!ttcore.tile<32x32, f32>, #dram>, <interleaved>>
#ttnn_layout173 = #ttnn.ttnn_layout<(d0, d1, d2, d3) -> (d0 * 32 + d1 * 32 + d2, d3), <1x1>, memref<4x224x!ttcore.tile<32x32, bf16>, #dram>, <interleaved>>
#ttnn_layout174 = #ttnn.ttnn_layout<(d0, d1, d2, d3) -> (d0 * 32 + d1 * 32 + d2, d3), <1x1>, memref<4x1x!ttcore.tile<32x32, f32>, #dram>, <interleaved>>
#ttnn_layout175 = #ttnn.ttnn_layout<(d0, d1, d2, d3) -> (d0 + d1 + d2, d3), <1x1>, memref<4x6xbf16, #dram>, <interleaved>>
#ttnn_layout176 = #ttnn.ttnn_layout<(d0, d1, d2, d3, d4, d5) -> (d0 * 192 + d1 * 192 + d2 * 192 + d3 * 32 + d4, d5), <1x1>, memref<24x64x!ttcore.tile<32x32, bf16>, #dram>, <interleaved>>
#ttnn_layout177 = #ttnn.ttnn_layout<(d0, d1, d2, d3) -> (d0 * 192 + d1 * 32 + d2, d3), <1x1>, memref<24x64x!ttcore.tile<32x32, bf16>, #dram>, <interleaved>>
#ttnn_layout178 = #ttnn.ttnn_layout<(d0, d1, d2, d3) -> (d0 * 4 + d1 * 4 + d2, d3), <1x1>, memref<4x6xui16, #system_memory>>
#ttnn_layout179 = #ttnn.ttnn_layout<(d0, d1, d2, d3) -> (d0 * 4 + d1 * 4 + d2, d3), <1x1>, memref<4x6xbf16, #system_memory>>
#ttnn_layout180 = #ttnn.ttnn_layout<(d0, d1, d2, d3) -> (d0 * 4 + d1 * 4 + d2, d3), <1x1>, memref<4x6xbf16, #dram>, <interleaved>>
#ttnn_layout181 = #ttnn.ttnn_layout<(d0, d1, d2, d3) -> (d0 * 192 + d1 * 32 + d2, d3), <1x1>, memref<24x224x!ttcore.tile<32x32, bf16>, #dram>, <interleaved>>
#ttnn_layout182 = #ttnn.ttnn_layout<(d0, d1, d2, d3) -> (d0 * 128 + d1 * 32 + d2, d3), <1x1>, memref<24x224x!ttcore.tile<32x32, bf16>, #dram>, <interleaved>>
#ttnn_layout183 = #ttnn.ttnn_layout<(d0, d1, d2, d3) -> (d0 * 128 + d1 * 128 + d2, d3), <1x1>, memref<24x224x!ttcore.tile<32x32, bf16>, #dram>, <interleaved>>
#ttnn_layout184 = #ttnn.ttnn_layout<(d0, d1, d2, d3) -> (d0 * 128 + d1 * 128 + d2, d3), <1x1>, memref<768x7168xbf16, #dram>, <interleaved>>
#ttnn_layout185 = #ttnn.ttnn_layout<(d0, d1, d2, d3) -> (d0 * 32 + d1 * 32 + d2, d3), <1x1>, memref<256x7168xbf16, #dram>, <interleaved>>
#ttnn_layout186 = #ttnn.ttnn_layout<(d0, d1, d2, d3) -> (d0 * 32 + d1 * 32 + d2, d3), <1x1>, memref<8x224x!ttcore.tile<32x32, bf16>, #dram>, <interleaved>>
#ttnn_layout187 = #ttnn.ttnn_layout<(d0, d1, d2, d3) -> (d0 * 32 + d1 * 32 + d2, d3), <1x1>, memref<8x14x!ttcore.tile<32x32, bf16>, #dram>, <interleaved>>
#ttnn_layout188 = #ttnn.ttnn_layout<(d0, d1, d2, d3) -> (d0 * 32 + d1 * 32 + d2, d3), <1x1>, memref<256x448xbf16, #dram>, <interleaved>>
#ttnn_layout189 = #ttnn.ttnn_layout<(d0, d1, d2, d3) -> (d0 * 32 + d1 * 32 + d2, d3), <1x1>, memref<8x14x!ttcore.tile<32x32, f32>, #dram>, <interleaved>>
#ttnn_layout190 = #ttnn.ttnn_layout<(d0, d1, d2) -> (d0 * 32 + d1, d2), <1x1>, memref<32x1x!ttcore.tile<32x32, si32>, #dram>, <interleaved>>
#ttnn_layout191 = #ttnn.ttnn_layout<(d0, d1, d2) -> (d0 * 32 + d1, d2), <1x1>, memref<32x12x!ttcore.tile<32x32, bf16>, #dram>, <interleaved>>
#ttnn_layout192 = #ttnn.ttnn_layout<(d0, d1, d2) -> (d0 * 32 + d1, d2), <1x1>, memref<32x12x!ttcore.tile<32x32, f32>, #dram>, <interleaved>>
#ttnn_layout193 = #ttnn.ttnn_layout<(d0, d1, d2) -> (d0 * 384 + d1, d2), <1x1>, memref<384x1x!ttcore.tile<32x32, f32>, #dram>, <interleaved>>
#ttnn_layout194 = #ttnn.ttnn_layout<(d0, d1, d2) -> (d0 * 32 + d1, d2), <1x1>, memref<32x1x!ttcore.tile<32x32, f32>, #dram>, <interleaved>>
#ttnn_layout195 = #ttnn.ttnn_layout<(d0, d1, d2, d3) -> (d0 * 32 + d1 * 32 + d2, d3), <1x1>, memref<8x1x!ttcore.tile<32x32, f32>, #dram>, <interleaved>>
#ttnn_layout196 = #ttnn.ttnn_layout<(d0, d1, d2) -> (d0 * 32 + d1, d2), <1x1>, memref<1x14x!ttcore.tile<32x32, f32>, #dram>, <interleaved>>
#ttnn_layout197 = #ttnn.ttnn_layout<(d0, d1, d2) -> (d0 * 32 + d1, d2), <1x1>, memref<32x14x!ttcore.tile<32x32, f32>, #dram>, <interleaved>>
#ttnn_layout198 = #ttnn.ttnn_layout<(d0, d1, d2) -> (d0 * 32 + d1, d2), <1x1>, memref<16x14x!ttcore.tile<32x32, f32>, #dram>, <interleaved>>
#ttnn_layout199 = #ttnn.ttnn_layout<(d0, d1, d2, d3) -> (d0 * 128 + d1 * 32 + d2, d3), <1x1>, memref<16x14x!ttcore.tile<32x32, f32>, #dram>, <interleaved>>
#ttnn_layout200 = #ttnn.ttnn_layout<(d0, d1, d2, d3) -> (d0 * 128 + d1 * 32 + d2, d3), <1x1>, memref<4x14x!ttcore.tile<32x32, f32>, #dram>, <interleaved>>
#ttnn_layout201 = #ttnn.ttnn_layout<(d0, d1, d2, d3) -> (d0 * 128 + d1 * 32 + d2, d3), <1x1>, memref<4x14x!ttcore.tile<32x32, bf16>, #dram>, <interleaved>>
#ttnn_layout202 = #ttnn.ttnn_layout<(d0, d1) -> (d0, d1), <1x1>, memref<1x64x!ttcore.tile<32x32, bf16>, #dram>, <interleaved>>
#ttnn_layout203 = #ttnn.ttnn_layout<(d0, d1, d2, d3) -> (d0 * 32 + d1 * 32 + d2, d3), <1x1>, memref<1x64x!ttcore.tile<32x32, bf16>, #dram>, <interleaved>>
#ttnn_layout204 = #ttnn.ttnn_layout<(d0, d1) -> (d0, d1), <1x1>, memref<1x4x!ttcore.tile<32x32, bf16>, #dram>, <interleaved>>
#ttnn_layout205 = #ttnn.ttnn_layout<(d0, d1) -> (d0, d1), <1x1>, memref<1x1280x!ttcore.tile<32x32, bf16>, #dram>, <interleaved>>
#ttnn_layout206 = #ttnn.ttnn_layout<(d0, d1, d2, d3) -> (d0 * 32 + d1 * 32 + d2, d3), <1x1>, memref<1x1280x!ttcore.tile<32x32, bf16>, #dram>, <interleaved>>
#ttnn_layout207 = #ttnn.ttnn_layout<(d0, d1, d2, d3) -> (d0 * 32 + d1 * 32 + d2, d3), <1x1>, memref<1x80x!ttcore.tile<32x32, bf16>, #dram>, <interleaved>>
#ttnn_layout208 = #ttnn.ttnn_layout<(d0, d1) -> (d0, d1), <1x1>, memref<1x80x!ttcore.tile<32x32, bf16>, #dram>, <interleaved>>
#ttnn_layout209 = #ttnn.ttnn_layout<(d0, d1) -> (d0, d1), <1x1>, memref<1x1280x!ttcore.tile<32x32, f32>, #dram>, <interleaved>>
#ttnn_layout210 = #ttnn.ttnn_layout<(d0, d1, d2) -> (d0 * 32 + d1, d2), <1x1>, memref<16x1280x!ttcore.tile<32x32, f32>, #dram>, <interleaved>>
module @SyncTensorsGraph.1295 attributes {mhlo.cross_program_prefetches = [], mhlo.input_output_alias = [], mhlo.is_dynamic = false, mhlo.use_auto_spmd_partitioning = false, ttcore.meshes = #ttcore.meshes<[<"mesh" = 4x16>]>} {
  ttcore.device_module {
    builtin.module @SyncTensorsGraph.1295 attributes {mhlo.cross_program_prefetches = [], mhlo.input_output_alias = [], mhlo.is_dynamic = false, mhlo.use_auto_spmd_partitioning = false, ttcore.meshes = #ttcore.meshes<[<"mesh" = 4x16>]>, ttcore.system_desc = #system_desc} {
      ttcore.device @default_device = <workerGrid = #ttcore.grid<10x12, virt_to_physical_map = (d0, d1) -> (0, d0, d1), physical_to_virt_map = (d0, d1, d2) -> (d1, d2)>, dramGrid = #ttcore.grid<1x8>, l1Map = (d0, d1, d2)[s0] -> (0, d0, d1, d2 + s0), dramMap = (d0, d1, d2)[s0, s1, s2, s3, s4, s5, s6] -> (0, 0, (((d0 * s1) * (s2 * (s3 * s6)) + d1 * (s2 * (s3 * s6)) + d2) floordiv s4) mod 8, ((((d0 * s1) * (s2 * (s3 * s6)) + d1 * (s2 * (s3 * s6)) + d2) floordiv s4) floordiv 8) * s4 + ((d0 * s1) * (s2 * (s3 * s6)) + d1 * (s2 * (s3 * s6)) + d2) mod s4 + s5), meshShape = 4x16, chipIds = [0, 1, 2, 3, 4, 5, 6, 7, 8, 9, 10, 11, 12, 13, 14, 15, 16, 17, 18, 19, 20, 21, 22, 23, 24, 25, 26, 27, 28, 29, 30, 31, 32, 33, 34, 35, 36, 37, 38, 39, 40, 41, 42, 43, 44, 45, 46, 47, 48, 49, 50, 51, 52, 53, 54, 55, 56, 57, 58, 59, 60, 61, 62, 63]> loc(#loc)
      func.func private @main_const_eval_0(%arg0: tensor<163840x7168xbf16, #ttnn_layout> loc(unknown)) -> tensor<163840x448xbf16, #ttnn_layout1> attributes {tt.function_type = "const_eval"} {
        %0 = "ttnn.get_device"() <{mesh_offset = #ttnn<mesh_offset 0x0>, mesh_shape = #ttnn<mesh_shape 4x16>}> : () -> !ttnn.device loc(#loc)
        %1 = "ttnn.mesh_shard"(%arg0, %0) <{shard_dims = array<i64: -1, 1>, shard_direction = #ttcore.shard_direction<full_to_shard>, shard_shape = array<i64: 1, 16>, shard_type = #ttcore.shard_type<identity>}> : (tensor<163840x7168xbf16, #ttnn_layout>, !ttnn.device) -> tensor<163840x448xbf16, #ttnn_layout2> loc(#loc)
        %2 = "ttnn.to_layout"(%1) <{layout = #ttnn.layout<row_major>}> : (tensor<163840x448xbf16, #ttnn_layout2>) -> tensor<163840x448xbf16, #ttnn_layout1> loc(#loc259)
        return %2 : tensor<163840x448xbf16, #ttnn_layout1> loc(#loc)
      } loc(#loc)
      func.func private @main_const_eval_1(%arg0: tensor<7168xbf16, #ttnn_layout3> loc(unknown)) -> tensor<7168xbf16, #ttnn_layout3> attributes {tt.function_type = "const_eval"} {
        %0 = "ttnn.get_device"() <{mesh_offset = #ttnn<mesh_offset 0x0>, mesh_shape = #ttnn<mesh_shape 4x16>}> : () -> !ttnn.device loc(#loc)
        %1 = "ttnn.mesh_shard"(%arg0, %0) <{shard_dims = array<i64: -1, 0>, shard_direction = #ttcore.shard_direction<full_to_shard>, shard_shape = array<i64: 16>, shard_type = #ttcore.shard_type<identity>}> : (tensor<7168xbf16, #ttnn_layout3>, !ttnn.device) -> tensor<448xbf16, #ttnn_layout4> loc(#loc)
        %2 = "ttnn.reshape"(%1) <{shape = [1 : i32, 448 : i32]}> : (tensor<448xbf16, #ttnn_layout4>) -> tensor<1x448xbf16, #ttnn_layout5> loc(#loc260)
        %3 = "ttnn.all_gather"(%2) <{all_gather_dim = 1 : si32, cluster_axis = 1 : ui32}> : (tensor<1x448xbf16, #ttnn_layout5>) -> tensor<1x7168xbf16, #ttnn_layout6> loc(#loc261)
        "ttnn.deallocate"(%2) <{force = false}> : (tensor<1x448xbf16, #ttnn_layout5>) -> () loc(#loc261)
        %4 = "ttnn.reshape"(%3) <{shape = [7168 : i32]}> : (tensor<1x7168xbf16, #ttnn_layout6>) -> tensor<7168xbf16, #ttnn_layout3> loc(#loc2)
        "ttnn.deallocate"(%3) <{force = false}> : (tensor<1x7168xbf16, #ttnn_layout6>) -> () loc(#loc2)
        return %4 : tensor<7168xbf16, #ttnn_layout3> loc(#loc)
      } loc(#loc)
      func.func private @main_const_eval_2(%arg0: tensor<1536x7168xbf16, #ttnn_layout7> loc(unknown)) -> tensor<1536x448x!ttcore.tile<32x32, bfp_bf8>, #ttnn_layout8> attributes {tt.function_type = "const_eval"} {
        %0 = "ttnn.get_device"() <{mesh_offset = #ttnn<mesh_offset 0x0>, mesh_shape = #ttnn<mesh_shape 4x16>}> : () -> !ttnn.device loc(#loc)
        %1 = "ttnn.mesh_shard"(%arg0, %0) <{shard_dims = array<i64: -1, 1>, shard_direction = #ttcore.shard_direction<full_to_shard>, shard_shape = array<i64: 1, 16>, shard_type = #ttcore.shard_type<identity>}> : (tensor<1536x7168xbf16, #ttnn_layout7>, !ttnn.device) -> tensor<1536x448xbf16, #ttnn_layout9> loc(#loc)
        %2 = "ttnn.typecast"(%1) <{dtype = #ttcore.supportedDataTypes<bfp_bf8>}> : (tensor<1536x448xbf16, #ttnn_layout9>) -> tensor<1536x448x!ttcore.tile<32x32, bfp_bf8>, #ttnn_layout8> loc(#loc3)
        return %2 : tensor<1536x448x!ttcore.tile<32x32, bfp_bf8>, #ttnn_layout8> loc(#loc)
      } loc(#loc)
      func.func private @main_const_eval_3() -> tensor<16xf32, #ttnn_layout10> attributes {tt.function_type = "const_eval"} {
        %0 = "ttnn.get_device"() <{mesh_offset = #ttnn<mesh_offset 0x0>, mesh_shape = #ttnn<mesh_shape 4x16>}> : () -> !ttnn.device loc(#loc)
        %1 = "ttnn.full"(%0) <{dtype = #ttcore.supportedDataTypes<f32>, fill_value = 0.000000e+00 : f32, layout = #ttnn.layout<tile>, shape = #ttnn.shape<4x1>}> : (!ttnn.device) -> tensor<4x1xf32, #ttnn_layout11> loc(#loc)
        %2 = "ttnn.all_gather"(%1) <{all_gather_dim = 0 : si32, cluster_axis = 0 : ui32}> : (tensor<4x1xf32, #ttnn_layout11>) -> tensor<16x1xf32, #ttnn_layout11> loc(#loc)
        "ttnn.deallocate"(%1) <{force = false}> : (tensor<4x1xf32, #ttnn_layout11>) -> () loc(#loc)
        %3 = "ttnn.reshape"(%2) <{shape = [16 : i32]}> : (tensor<16x1xf32, #ttnn_layout11>) -> tensor<16xf32, #ttnn_layout12> loc(#loc262)
        "ttnn.deallocate"(%2) <{force = false}> : (tensor<16x1xf32, #ttnn_layout11>) -> () loc(#loc262)
        %4 = "ttnn.to_layout"(%3) <{layout = #ttnn.layout<row_major>}> : (tensor<16xf32, #ttnn_layout12>) -> tensor<16xf32, #ttnn_layout10> loc(#loc263)
        "ttnn.deallocate"(%3) <{force = false}> : (tensor<16xf32, #ttnn_layout12>) -> () loc(#loc263)
        return %4 : tensor<16xf32, #ttnn_layout10> loc(#loc)
      } loc(#loc)
      func.func private @main_const_eval_4(%arg0: tensor<12288x1536xbf16, #ttnn_layout13> loc(unknown)) -> tensor<768x1536x!ttcore.tile<32x32, bfp_bf8>, #ttnn_layout14> attributes {tt.function_type = "const_eval"} {
        %0 = "ttnn.get_device"() <{mesh_offset = #ttnn<mesh_offset 0x0>, mesh_shape = #ttnn<mesh_shape 4x16>}> : () -> !ttnn.device loc(#loc)
        %1 = "ttnn.mesh_shard"(%arg0, %0) <{shard_dims = array<i64: -1, 0>, shard_direction = #ttcore.shard_direction<full_to_shard>, shard_shape = array<i64: 16, 1>, shard_type = #ttcore.shard_type<identity>}> : (tensor<12288x1536xbf16, #ttnn_layout13>, !ttnn.device) -> tensor<768x1536xbf16, #ttnn_layout15> loc(#loc)
        %2 = "ttnn.typecast"(%1) <{dtype = #ttcore.supportedDataTypes<bfp_bf8>}> : (tensor<768x1536xbf16, #ttnn_layout15>) -> tensor<768x1536x!ttcore.tile<32x32, bfp_bf8>, #ttnn_layout14> loc(#loc5)
        return %2 : tensor<768x1536x!ttcore.tile<32x32, bfp_bf8>, #ttnn_layout14> loc(#loc)
      } loc(#loc)
      func.func private @main_const_eval_5() -> (tensor<128x64xbf16, #ttnn_layout16>, tensor<128x64xbf16, #ttnn_layout17>, tensor<128x64xbf16, #ttnn_layout16>, tensor<128x64xbf16, #ttnn_layout17>) attributes {tt.function_type = "const_eval"} {
        %0 = "ttnn.get_device"() <{mesh_offset = #ttnn<mesh_offset 0x0>, mesh_shape = #ttnn<mesh_shape 4x16>}> : () -> !ttnn.device loc(#loc)
        %1 = "ttnn.constant"(%0) <{dtype = #ttcore.supportedDataTypes<f32>, layout = #ttnn.layout<tile>, memory_config = #ttnn.memory_config<#dram, <interleaved>>, value = dense<"…"> : tensor<128x32xf32>}> : (!ttnn.device) -> tensor<128x32xf32, #ttnn_layout18> loc(#loc6)
        %2 = "ttnn.concat"(%1, %1) <{dim = 1 : si32}> : (tensor<128x32xf32, #ttnn_layout18>, tensor<128x32xf32, #ttnn_layout18>) -> tensor<128x64xf32, #ttnn_layout19> loc(#loc7)
        "ttnn.deallocate"(%1) <{force = false}> : (tensor<128x32xf32, #ttnn_layout18>) -> () loc(#loc7)
        %3 = "ttnn.cos"(%2) : (tensor<128x64xf32, #ttnn_layout19>) -> tensor<128x64xf32, #ttnn_layout19> loc(#loc8)
        %4 = "ttnn.typecast"(%3) <{dtype = #ttcore.supportedDataTypes<bf16>}> : (tensor<128x64xf32, #ttnn_layout19>) -> tensor<128x64xbf16, #ttnn_layout16> loc(#loc9)
        "ttnn.deallocate"(%3) <{force = false}> : (tensor<128x64xf32, #ttnn_layout19>) -> () loc(#loc9)
        %5 = "ttnn.to_layout"(%4) <{layout = #ttnn.layout<row_major>}> : (tensor<128x64xbf16, #ttnn_layout16>) -> tensor<128x64xbf16, #ttnn_layout17> loc(#loc264)
        %6 = "ttnn.sin"(%2) : (tensor<128x64xf32, #ttnn_layout19>) -> tensor<128x64xf32, #ttnn_layout19> loc(#loc11)
        "ttnn.deallocate"(%2) <{force = false}> : (tensor<128x64xf32, #ttnn_layout19>) -> () loc(#loc11)
        %7 = "ttnn.typecast"(%6) <{dtype = #ttcore.supportedDataTypes<bf16>}> : (tensor<128x64xf32, #ttnn_layout19>) -> tensor<128x64xbf16, #ttnn_layout16> loc(#loc12)
        "ttnn.deallocate"(%6) <{force = false}> : (tensor<128x64xf32, #ttnn_layout19>) -> () loc(#loc12)
        %8 = "ttnn.to_layout"(%7) <{layout = #ttnn.layout<row_major>}> : (tensor<128x64xbf16, #ttnn_layout16>) -> tensor<128x64xbf16, #ttnn_layout17> loc(#loc265)
        return %4, %5, %7, %8 : tensor<128x64xbf16, #ttnn_layout16>, tensor<128x64xbf16, #ttnn_layout17>, tensor<128x64xbf16, #ttnn_layout16>, tensor<128x64xbf16, #ttnn_layout17> loc(#loc)
      } loc(#loc)
      func.func private @main_const_eval_6() -> tensor<1x1xsi32, #ttnn_layout20> attributes {tt.function_type = "const_eval"} {
        %0 = "ttnn.get_device"() <{mesh_offset = #ttnn<mesh_offset 0x0>, mesh_shape = #ttnn<mesh_shape 4x16>}> : () -> !ttnn.device loc(#loc)
        %1 = "ttnn.full"(%0) <{dtype = #ttcore.supportedDataTypes<si32>, fill_value = 0 : i32, layout = #ttnn.layout<tile>, shape = #ttnn.shape<1x1>}> : (!ttnn.device) -> tensor<1x1xsi32, #ttnn_layout20> loc(#loc)
        return %1 : tensor<1x1xsi32, #ttnn_layout20> loc(#loc)
      } loc(#loc)
      func.func private @main_const_eval_7() -> tensor<1x1xf32, #ttnn_layout11> attributes {tt.function_type = "const_eval"} {
        %0 = "ttnn.get_device"() <{mesh_offset = #ttnn<mesh_offset 0x0>, mesh_shape = #ttnn<mesh_shape 4x16>}> : () -> !ttnn.device loc(#loc)
        %1 = "ttnn.zeros"(%0) <{dtype = #ttcore.supportedDataTypes<f32>, layout = #ttnn.layout<tile>, memory_config = #ttnn.memory_config<#dram, <interleaved>>, shape = #ttnn.shape<1x1>}> : (!ttnn.device) -> tensor<1x1xf32, #ttnn_layout11> loc(#loc)
        return %1 : tensor<1x1xf32, #ttnn_layout11> loc(#loc)
      } loc(#loc)
      func.func private @main_const_eval_8(%arg0: tensor<16384x512xbf16, #ttnn_layout21> loc(unknown)) -> tensor<1024x512x!ttcore.tile<32x32, bfp_bf8>, #ttnn_layout22> attributes {tt.function_type = "const_eval"} {
        %0 = "ttnn.get_device"() <{mesh_offset = #ttnn<mesh_offset 0x0>, mesh_shape = #ttnn<mesh_shape 4x16>}> : () -> !ttnn.device loc(#loc)
        %1 = "ttnn.mesh_shard"(%arg0, %0) <{shard_dims = array<i64: -1, 0>, shard_direction = #ttcore.shard_direction<full_to_shard>, shard_shape = array<i64: 16, 1>, shard_type = #ttcore.shard_type<identity>}> : (tensor<16384x512xbf16, #ttnn_layout21>, !ttnn.device) -> tensor<1024x512xbf16, #ttnn_layout23> loc(#loc)
        %2 = "ttnn.typecast"(%1) <{dtype = #ttcore.supportedDataTypes<bfp_bf8>}> : (tensor<1024x512xbf16, #ttnn_layout23>) -> tensor<1024x512x!ttcore.tile<32x32, bfp_bf8>, #ttnn_layout22> loc(#loc14)
        return %2 : tensor<1024x512x!ttcore.tile<32x32, bfp_bf8>, #ttnn_layout22> loc(#loc)
      } loc(#loc)
      func.func private @main_const_eval_9() -> tensor<32xf32, #ttnn_layout12> attributes {tt.function_type = "const_eval"} {
        %0 = "ttnn.get_device"() <{mesh_offset = #ttnn<mesh_offset 0x0>, mesh_shape = #ttnn<mesh_shape 4x16>}> : () -> !ttnn.device loc(#loc)
        %1 = "ttnn.constant"(%0) <{dtype = #ttcore.supportedDataTypes<f32>, layout = #ttnn.layout<tile>, memory_config = #ttnn.memory_config<#dram, <interleaved>>, value = dense<[… > : tensor<32xf32>}> : (!ttnn.device) -> tensor<32xf32, #ttnn_layout12> loc(#loc15)
        return %1 : tensor<32xf32, #ttnn_layout12> loc(#loc)
      } loc(#loc)
      func.func private @main_const_eval_10() -> tensor<2x1xf32, #ttnn_layout11> attributes {tt.function_type = "const_eval"} {
        %0 = "ttnn.get_device"() <{mesh_offset = #ttnn<mesh_offset 0x0>, mesh_shape = #ttnn<mesh_shape 4x16>}> : () -> !ttnn.device loc(#loc)
        %1 = "ttnn.constant"(%0) <{dtype = #ttcore.supportedDataTypes<f32>, layout = #ttnn.layout<tile>, memory_config = #ttnn.memory_config<#dram, <interleaved>>, value = dense<[[3.840000e+02], [1.000000e+00]]> : tensor<2x1xf32>}> : (!ttnn.device) -> tensor<2x1xf32, #ttnn_layout11> loc(#loc266)
        return %1 : tensor<2x1xf32, #ttnn_layout11> loc(#loc)
      } loc(#loc)
      func.func private @main_const_eval_11(%arg0: tensor<384x2048x7168xbf16, #ttnn_layout24> loc(unknown)) -> tensor<1x6x2048x7168x!ttcore.tile<32x32, bfp_bf8>, #ttnn_layout25> attributes {tt.function_type = "const_eval"} {
        %0 = "ttnn.get_device"() <{mesh_offset = #ttnn<mesh_offset 0x0>, mesh_shape = #ttnn<mesh_shape 4x16>}> : () -> !ttnn.device loc(#loc)
        %1 = "ttnn.mesh_shard"(%arg0, %0) <{shard_dims = array<i64: 0, 0>, shard_direction = #ttcore.shard_direction<full_to_shard>, shard_shape = array<i64: 64, 1, 1>, shard_type = #ttcore.shard_type<identity>}> : (tensor<384x2048x7168xbf16, #ttnn_layout24>, !ttnn.device) -> tensor<6x2048x7168xbf16, #ttnn_layout26> loc(#loc)
        %2 = "ttnn.reshape"(%1) <{shape = [1 : i32, 6 : i32, 2048 : i32, 7168 : i32]}> : (tensor<6x2048x7168xbf16, #ttnn_layout26>) -> tensor<1x6x2048x7168xbf16, #ttnn_layout27> loc(#loc17)
        %3 = "ttnn.typecast"(%2) <{dtype = #ttcore.supportedDataTypes<bfp_bf8>}> : (tensor<1x6x2048x7168xbf16, #ttnn_layout27>) -> tensor<1x6x2048x7168x!ttcore.tile<32x32, bfp_bf8>, #ttnn_layout25> loc(#loc18)
        "ttnn.deallocate"(%2) <{force = false}> : (tensor<1x6x2048x7168xbf16, #ttnn_layout27>) -> () loc(#loc18)
        return %3 : tensor<1x6x2048x7168x!ttcore.tile<32x32, bfp_bf8>, #ttnn_layout25> loc(#loc)
      } loc(#loc)
      func.func private @main_const_eval_12() -> tensor<1x1x1x1xbf16, #ttnn_layout28> attributes {tt.function_type = "const_eval"} {
        %0 = "ttnn.get_device"() <{mesh_offset = #ttnn<mesh_offset 0x0>, mesh_shape = #ttnn<mesh_shape 4x16>}> : () -> !ttnn.device loc(#loc)
        %1 = "ttnn.full"(%0) <{dtype = #ttcore.supportedDataTypes<bf16>, fill_value = -3.38953139E+38 : f32, layout = #ttnn.layout<tile>, shape = #ttnn.shape<1x1x1x1>}> : (!ttnn.device) -> tensor<1x1x1x1xbf16, #ttnn_layout28> loc(#loc267)
        return %1 : tensor<1x1x1x1xbf16, #ttnn_layout28> loc(#loc)
      } loc(#loc)
      func.func private @main_const_eval_13(%arg0: tensor<2048x7168xbf16, #ttnn_layout29> loc(unknown)) -> tensor<2048x448x!ttcore.tile<32x32, bfp_bf8>, #ttnn_layout30> attributes {tt.function_type = "const_eval"} {
        %0 = "ttnn.get_device"() <{mesh_offset = #ttnn<mesh_offset 0x0>, mesh_shape = #ttnn<mesh_shape 4x16>}> : () -> !ttnn.device loc(#loc)
        %1 = "ttnn.mesh_shard"(%arg0, %0) <{shard_dims = array<i64: -1, 1>, shard_direction = #ttcore.shard_direction<full_to_shard>, shard_shape = array<i64: 1, 16>, shard_type = #ttcore.shard_type<identity>}> : (tensor<2048x7168xbf16, #ttnn_layout29>, !ttnn.device) -> tensor<2048x448xbf16, #ttnn_layout31> loc(#loc)
        %2 = "ttnn.typecast"(%1) <{dtype = #ttcore.supportedDataTypes<bfp_bf8>}> : (tensor<2048x448xbf16, #ttnn_layout31>) -> tensor<2048x448x!ttcore.tile<32x32, bfp_bf8>, #ttnn_layout30> loc(#loc20)
        return %2 : tensor<2048x448x!ttcore.tile<32x32, bfp_bf8>, #ttnn_layout30> loc(#loc)
      } loc(#loc)
      func.func private @main_const_eval_14(%arg0: tensor<2048x7168xbf16, #ttnn_layout29> loc(unknown)) -> tensor<2048x448x!ttcore.tile<32x32, bfp_bf8>, #ttnn_layout30> attributes {tt.function_type = "const_eval"} {
        %0 = "ttnn.get_device"() <{mesh_offset = #ttnn<mesh_offset 0x0>, mesh_shape = #ttnn<mesh_shape 4x16>}> : () -> !ttnn.device loc(#loc)
        %1 = "ttnn.mesh_shard"(%arg0, %0) <{shard_dims = array<i64: -1, 1>, shard_direction = #ttcore.shard_direction<full_to_shard>, shard_shape = array<i64: 1, 16>, shard_type = #ttcore.shard_type<identity>}> : (tensor<2048x7168xbf16, #ttnn_layout29>, !ttnn.device) -> tensor<2048x448xbf16, #ttnn_layout31> loc(#loc)
        %2 = "ttnn.typecast"(%1) <{dtype = #ttcore.supportedDataTypes<bfp_bf8>}> : (tensor<2048x448xbf16, #ttnn_layout31>) -> tensor<2048x448x!ttcore.tile<32x32, bfp_bf8>, #ttnn_layout30> loc(#loc21)
        return %2 : tensor<2048x448x!ttcore.tile<32x32, bfp_bf8>, #ttnn_layout30> loc(#loc)
      } loc(#loc)
      func.func private @main_const_eval_15(%arg0: tensor<7168x8192xbf16, #ttnn_layout32> loc(unknown)) -> tensor<7168x512x!ttcore.tile<32x32, bfp_bf8>, #ttnn_layout33> attributes {tt.function_type = "const_eval"} {
        %0 = "ttnn.get_device"() <{mesh_offset = #ttnn<mesh_offset 0x0>, mesh_shape = #ttnn<mesh_shape 4x16>}> : () -> !ttnn.device loc(#loc)
        %1 = "ttnn.mesh_shard"(%arg0, %0) <{shard_dims = array<i64: -1, 1>, shard_direction = #ttcore.shard_direction<full_to_shard>, shard_shape = array<i64: 1, 16>, shard_type = #ttcore.shard_type<identity>}> : (tensor<7168x8192xbf16, #ttnn_layout32>, !ttnn.device) -> tensor<7168x512xbf16, #ttnn_layout34> loc(#loc)
        %2 = "ttnn.typecast"(%1) <{dtype = #ttcore.supportedDataTypes<bfp_bf8>}> : (tensor<7168x512xbf16, #ttnn_layout34>) -> tensor<7168x512x!ttcore.tile<32x32, bfp_bf8>, #ttnn_layout33> loc(#loc22)
        return %2 : tensor<7168x512x!ttcore.tile<32x32, bfp_bf8>, #ttnn_layout33> loc(#loc)
      } loc(#loc)
      func.func private @main_const_eval_16(%arg0: tensor<7168xbf16, #ttnn_layout3> loc(unknown)) -> tensor<7168xbf16, #ttnn_layout3> attributes {tt.function_type = "const_eval"} {
        %0 = "ttnn.get_device"() <{mesh_offset = #ttnn<mesh_offset 0x0>, mesh_shape = #ttnn<mesh_shape 4x16>}> : () -> !ttnn.device loc(#loc)
        %1 = "ttnn.mesh_shard"(%arg0, %0) <{shard_dims = array<i64: -1, 0>, shard_direction = #ttcore.shard_direction<full_to_shard>, shard_shape = array<i64: 16>, shard_type = #ttcore.shard_type<identity>}> : (tensor<7168xbf16, #ttnn_layout3>, !ttnn.device) -> tensor<448xbf16, #ttnn_layout4> loc(#loc)
        %2 = "ttnn.reshape"(%1) <{shape = [1 : i32, 448 : i32]}> : (tensor<448xbf16, #ttnn_layout4>) -> tensor<1x448xbf16, #ttnn_layout5> loc(#loc268)
        %3 = "ttnn.all_gather"(%2) <{all_gather_dim = 1 : si32, cluster_axis = 1 : ui32}> : (tensor<1x448xbf16, #ttnn_layout5>) -> tensor<1x7168xbf16, #ttnn_layout6> loc(#loc269)
        "ttnn.deallocate"(%2) <{force = false}> : (tensor<1x448xbf16, #ttnn_layout5>) -> () loc(#loc269)
        %4 = "ttnn.reshape"(%3) <{shape = [7168 : i32]}> : (tensor<1x7168xbf16, #ttnn_layout6>) -> tensor<7168xbf16, #ttnn_layout3> loc(#loc23)
        "ttnn.deallocate"(%3) <{force = false}> : (tensor<1x7168xbf16, #ttnn_layout6>) -> () loc(#loc23)
        return %4 : tensor<7168xbf16, #ttnn_layout3> loc(#loc)
      } loc(#loc)
      func.func private @main_const_eval_17(%arg0: tensor<7168x2048xbf16, #ttnn_layout35> loc(unknown)) -> tensor<448x2048x!ttcore.tile<32x32, bfp_bf8>, #ttnn_layout36> attributes {tt.function_type = "const_eval"} {
        %0 = "ttnn.get_device"() <{mesh_offset = #ttnn<mesh_offset 0x0>, mesh_shape = #ttnn<mesh_shape 4x16>}> : () -> !ttnn.device loc(#loc)
        %1 = "ttnn.mesh_shard"(%arg0, %0) <{shard_dims = array<i64: -1, 0>, shard_direction = #ttcore.shard_direction<full_to_shard>, shard_shape = array<i64: 16, 1>, shard_type = #ttcore.shard_type<identity>}> : (tensor<7168x2048xbf16, #ttnn_layout35>, !ttnn.device) -> tensor<448x2048xbf16, #ttnn_layout37> loc(#loc)
        %2 = "ttnn.typecast"(%1) <{dtype = #ttcore.supportedDataTypes<bfp_bf8>}> : (tensor<448x2048xbf16, #ttnn_layout37>) -> tensor<448x2048x!ttcore.tile<32x32, bfp_bf8>, #ttnn_layout36> loc(#loc24)
        return %2 : tensor<448x2048x!ttcore.tile<32x32, bfp_bf8>, #ttnn_layout36> loc(#loc)
      } loc(#loc)
      func.func private @main_const_eval_18(%arg0: tensor<16384x512xbf16, #ttnn_layout21> loc(unknown)) -> tensor<1024x512x!ttcore.tile<32x32, bfp_bf8>, #ttnn_layout22> attributes {tt.function_type = "const_eval"} {
        %0 = "ttnn.get_device"() <{mesh_offset = #ttnn<mesh_offset 0x0>, mesh_shape = #ttnn<mesh_shape 4x16>}> : () -> !ttnn.device loc(#loc)
        %1 = "ttnn.mesh_shard"(%arg0, %0) <{shard_dims = array<i64: -1, 0>, shard_direction = #ttcore.shard_direction<full_to_shard>, shard_shape = array<i64: 16, 1>, shard_type = #ttcore.shard_type<identity>}> : (tensor<16384x512xbf16, #ttnn_layout21>, !ttnn.device) -> tensor<1024x512xbf16, #ttnn_layout23> loc(#loc)
        %2 = "ttnn.typecast"(%1) <{dtype = #ttcore.supportedDataTypes<bfp_bf8>}> : (tensor<1024x512xbf16, #ttnn_layout23>) -> tensor<1024x512x!ttcore.tile<32x32, bfp_bf8>, #ttnn_layout22> loc(#loc25)
        return %2 : tensor<1024x512x!ttcore.tile<32x32, bfp_bf8>, #ttnn_layout22> loc(#loc)
      } loc(#loc)
      func.func private @main_const_eval_19(%arg0: tensor<1536x7168xbf16, #ttnn_layout7> loc(unknown)) -> tensor<1536x448x!ttcore.tile<32x32, bfp_bf8>, #ttnn_layout8> attributes {tt.function_type = "const_eval"} {
        %0 = "ttnn.get_device"() <{mesh_offset = #ttnn<mesh_offset 0x0>, mesh_shape = #ttnn<mesh_shape 4x16>}> : () -> !ttnn.device loc(#loc)
        %1 = "ttnn.mesh_shard"(%arg0, %0) <{shard_dims = array<i64: -1, 1>, shard_direction = #ttcore.shard_direction<full_to_shard>, shard_shape = array<i64: 1, 16>, shard_type = #ttcore.shard_type<identity>}> : (tensor<1536x7168xbf16, #ttnn_layout7>, !ttnn.device) -> tensor<1536x448xbf16, #ttnn_layout9> loc(#loc)
        %2 = "ttnn.typecast"(%1) <{dtype = #ttcore.supportedDataTypes<bfp_bf8>}> : (tensor<1536x448xbf16, #ttnn_layout9>) -> tensor<1536x448x!ttcore.tile<32x32, bfp_bf8>, #ttnn_layout8> loc(#loc26)
        return %2 : tensor<1536x448x!ttcore.tile<32x32, bfp_bf8>, #ttnn_layout8> loc(#loc)
      } loc(#loc)
      func.func private @main_const_eval_20() -> tensor<1x1xsi32, #ttnn_layout20> attributes {tt.function_type = "const_eval"} {
        %0 = "ttnn.get_device"() <{mesh_offset = #ttnn<mesh_offset 0x0>, mesh_shape = #ttnn<mesh_shape 4x16>}> : () -> !ttnn.device loc(#loc)
        %1 = "ttnn.full"(%0) <{dtype = #ttcore.supportedDataTypes<si32>, fill_value = 128 : i32, layout = #ttnn.layout<tile>, shape = #ttnn.shape<1x1>}> : (!ttnn.device) -> tensor<1x1xsi32, #ttnn_layout20> loc(#loc)
        return %1 : tensor<1x1xsi32, #ttnn_layout20> loc(#loc)
      } loc(#loc)
      func.func private @main_const_eval_21(%arg0: tensor<18432x7168xbf16, #ttnn_layout38> loc(unknown)) -> tensor<4608x448x!ttcore.tile<32x32, bfp_bf8>, #ttnn_layout39> attributes {tt.function_type = "const_eval"} {
        %0 = "ttnn.get_device"() <{mesh_offset = #ttnn<mesh_offset 0x0>, mesh_shape = #ttnn<mesh_shape 4x16>}> : () -> !ttnn.device loc(#loc)
        %1 = "ttnn.mesh_shard"(%arg0, %0) <{shard_dims = array<i64: 0, 1>, shard_direction = #ttcore.shard_direction<full_to_shard>, shard_shape = array<i64: 4, 16>, shard_type = #ttcore.shard_type<identity>}> : (tensor<18432x7168xbf16, #ttnn_layout38>, !ttnn.device) -> tensor<4608x448xbf16, #ttnn_layout40> loc(#loc)
        %2 = "ttnn.typecast"(%1) <{dtype = #ttcore.supportedDataTypes<bfp_bf8>}> : (tensor<4608x448xbf16, #ttnn_layout40>) -> tensor<4608x448x!ttcore.tile<32x32, bfp_bf8>, #ttnn_layout39> loc(#loc27)
        return %2 : tensor<4608x448x!ttcore.tile<32x32, bfp_bf8>, #ttnn_layout39> loc(#loc)
      } loc(#loc)
      func.func private @main_const_eval_22(%arg0: tensor<384xbf16, #ttnn_layout41> loc(unknown)) -> tensor<1x384xf32, #ttnn_layout42> attributes {tt.function_type = "const_eval"} {
        %0 = "ttnn.reshape"(%arg0) <{shape = [1 : i32, 384 : i32]}> : (tensor<384xbf16, #ttnn_layout41>) -> tensor<1x384xbf16, #ttnn_layout43> loc(#loc270)
        %1 = "ttnn.typecast"(%0) <{dtype = #ttcore.supportedDataTypes<f32>}> : (tensor<1x384xbf16, #ttnn_layout43>) -> tensor<1x384xf32, #ttnn_layout42> loc(#loc30)
        "ttnn.deallocate"(%0) <{force = false}> : (tensor<1x384xbf16, #ttnn_layout43>) -> () loc(#loc30)
        return %1 : tensor<1x384xf32, #ttnn_layout42> loc(#loc)
      } loc(#loc)
      func.func private @main_const_eval_23() -> tensor<16xf32, #ttnn_layout10> attributes {tt.function_type = "const_eval"} {
        %0 = "ttnn.get_device"() <{mesh_offset = #ttnn<mesh_offset 0x0>, mesh_shape = #ttnn<mesh_shape 4x16>}> : () -> !ttnn.device loc(#loc)
        %1 = "ttnn.full"(%0) <{dtype = #ttcore.supportedDataTypes<f32>, fill_value = 1.000000e+00 : f32, layout = #ttnn.layout<tile>, shape = #ttnn.shape<4x1>}> : (!ttnn.device) -> tensor<4x1xf32, #ttnn_layout11> loc(#loc)
        %2 = "ttnn.all_gather"(%1) <{all_gather_dim = 0 : si32, cluster_axis = 0 : ui32}> : (tensor<4x1xf32, #ttnn_layout11>) -> tensor<16x1xf32, #ttnn_layout11> loc(#loc)
        "ttnn.deallocate"(%1) <{force = false}> : (tensor<4x1xf32, #ttnn_layout11>) -> () loc(#loc)
        %3 = "ttnn.reshape"(%2) <{shape = [16 : i32]}> : (tensor<16x1xf32, #ttnn_layout11>) -> tensor<16xf32, #ttnn_layout12> loc(#loc271)
        "ttnn.deallocate"(%2) <{force = false}> : (tensor<16x1xf32, #ttnn_layout11>) -> () loc(#loc271)
        %4 = "ttnn.to_layout"(%3) <{layout = #ttnn.layout<row_major>}> : (tensor<16xf32, #ttnn_layout12>) -> tensor<16xf32, #ttnn_layout10> loc(#loc263)
        "ttnn.deallocate"(%3) <{force = false}> : (tensor<16xf32, #ttnn_layout12>) -> () loc(#loc263)
        return %4 : tensor<16xf32, #ttnn_layout10> loc(#loc)
      } loc(#loc)
      func.func private @main_const_eval_24(%arg0: tensor<7168xbf16, #ttnn_layout3> loc(unknown)) -> tensor<7168xbf16, #ttnn_layout3> attributes {tt.function_type = "const_eval"} {
        %0 = "ttnn.get_device"() <{mesh_offset = #ttnn<mesh_offset 0x0>, mesh_shape = #ttnn<mesh_shape 4x16>}> : () -> !ttnn.device loc(#loc)
        %1 = "ttnn.mesh_shard"(%arg0, %0) <{shard_dims = array<i64: -1, 0>, shard_direction = #ttcore.shard_direction<full_to_shard>, shard_shape = array<i64: 16>, shard_type = #ttcore.shard_type<identity>}> : (tensor<7168xbf16, #ttnn_layout3>, !ttnn.device) -> tensor<448xbf16, #ttnn_layout4> loc(#loc)
        %2 = "ttnn.reshape"(%1) <{shape = [1 : i32, 448 : i32]}> : (tensor<448xbf16, #ttnn_layout4>) -> tensor<1x448xbf16, #ttnn_layout5> loc(#loc272)
        %3 = "ttnn.all_gather"(%2) <{all_gather_dim = 1 : si32, cluster_axis = 1 : ui32}> : (tensor<1x448xbf16, #ttnn_layout5>) -> tensor<1x7168xbf16, #ttnn_layout6> loc(#loc273)
        "ttnn.deallocate"(%2) <{force = false}> : (tensor<1x448xbf16, #ttnn_layout5>) -> () loc(#loc273)
        %4 = "ttnn.reshape"(%3) <{shape = [7168 : i32]}> : (tensor<1x7168xbf16, #ttnn_layout6>) -> tensor<7168xbf16, #ttnn_layout3> loc(#loc31)
        "ttnn.deallocate"(%3) <{force = false}> : (tensor<1x7168xbf16, #ttnn_layout6>) -> () loc(#loc31)
        return %4 : tensor<7168xbf16, #ttnn_layout3> loc(#loc)
      } loc(#loc)
      func.func private @main_const_eval_25() -> tensor<4x1x1xsi32, #ttnn_layout44> attributes {tt.function_type = "const_eval"} {
        %0 = "ttnn.get_device"() <{mesh_offset = #ttnn<mesh_offset 0x0>, mesh_shape = #ttnn<mesh_shape 4x16>}> : () -> !ttnn.device loc(#loc)
        %1 = "ttnn.arange"(%0) <{dtype = #ttcore.supportedDataTypes<si32>, end = 4 : i64, layout = #ttnn.layout<tile>, memory_config = #ttnn.memory_config<#dram, <interleaved>>, start = 0 : i64, step = 1 : i64}> : (!ttnn.device) -> tensor<4xsi32, #ttnn_layout45> loc(#loc32)
        %2 = "ttnn.reshape"(%1) <{shape = [4 : i32, 1 : i32, 1 : i32]}> : (tensor<4xsi32, #ttnn_layout45>) -> tensor<4x1x1xsi32, #ttnn_layout44> loc(#loc32)
        "ttnn.deallocate"(%1) <{force = false}> : (tensor<4xsi32, #ttnn_layout45>) -> () loc(#loc32)
        return %2 : tensor<4x1x1xsi32, #ttnn_layout44> loc(#loc)
      } loc(#loc)
      func.func private @main_const_eval_26(%arg0: tensor<12288x1536xbf16, #ttnn_layout13> loc(unknown)) -> tensor<768x1536x!ttcore.tile<32x32, bfp_bf8>, #ttnn_layout14> attributes {tt.function_type = "const_eval"} {
        %0 = "ttnn.get_device"() <{mesh_offset = #ttnn<mesh_offset 0x0>, mesh_shape = #ttnn<mesh_shape 4x16>}> : () -> !ttnn.device loc(#loc)
        %1 = "ttnn.mesh_shard"(%arg0, %0) <{shard_dims = array<i64: -1, 0>, shard_direction = #ttcore.shard_direction<full_to_shard>, shard_shape = array<i64: 16, 1>, shard_type = #ttcore.shard_type<identity>}> : (tensor<12288x1536xbf16, #ttnn_layout13>, !ttnn.device) -> tensor<768x1536xbf16, #ttnn_layout15> loc(#loc)
        %2 = "ttnn.typecast"(%1) <{dtype = #ttcore.supportedDataTypes<bfp_bf8>}> : (tensor<768x1536xbf16, #ttnn_layout15>) -> tensor<768x1536x!ttcore.tile<32x32, bfp_bf8>, #ttnn_layout14> loc(#loc33)
        return %2 : tensor<768x1536x!ttcore.tile<32x32, bfp_bf8>, #ttnn_layout14> loc(#loc)
      } loc(#loc)
      func.func private @main_const_eval_27(%arg0: tensor<7168x8192xbf16, #ttnn_layout32> loc(unknown)) -> tensor<7168x512x!ttcore.tile<32x32, bfp_bf8>, #ttnn_layout33> attributes {tt.function_type = "const_eval"} {
        %0 = "ttnn.get_device"() <{mesh_offset = #ttnn<mesh_offset 0x0>, mesh_shape = #ttnn<mesh_shape 4x16>}> : () -> !ttnn.device loc(#loc)
        %1 = "ttnn.mesh_shard"(%arg0, %0) <{shard_dims = array<i64: -1, 1>, shard_direction = #ttcore.shard_direction<full_to_shard>, shard_shape = array<i64: 1, 16>, shard_type = #ttcore.shard_type<identity>}> : (tensor<7168x8192xbf16, #ttnn_layout32>, !ttnn.device) -> tensor<7168x512xbf16, #ttnn_layout34> loc(#loc)
        %2 = "ttnn.typecast"(%1) <{dtype = #ttcore.supportedDataTypes<bfp_bf8>}> : (tensor<7168x512xbf16, #ttnn_layout34>) -> tensor<7168x512x!ttcore.tile<32x32, bfp_bf8>, #ttnn_layout33> loc(#loc34)
        return %2 : tensor<7168x512x!ttcore.tile<32x32, bfp_bf8>, #ttnn_layout33> loc(#loc)
      } loc(#loc)
      func.func private @main_const_eval_28() -> tensor<1x1xf32, #ttnn_layout11> attributes {tt.function_type = "const_eval"} {
        %0 = "ttnn.get_device"() <{mesh_offset = #ttnn<mesh_offset 0x0>, mesh_shape = #ttnn<mesh_shape 4x16>}> : () -> !ttnn.device loc(#loc)
        %1 = "ttnn.full"(%0) <{dtype = #ttcore.supportedDataTypes<f32>, fill_value = 9.99999968E-21 : f32, layout = #ttnn.layout<tile>, shape = #ttnn.shape<1x1>}> : (!ttnn.device) -> tensor<1x1xf32, #ttnn_layout11> loc(#loc274)
        return %1 : tensor<1x1xf32, #ttnn_layout11> loc(#loc)
      } loc(#loc)
      func.func private @main_const_eval_29(%arg0: tensor<1x1x384x64xsi32, #ttnn_layout46> loc(unknown)) -> tensor<1x1x384x64xui16, #ttnn_layout47> attributes {tt.function_type = "const_eval"} {
        %0 = "ttnn.get_device"() <{mesh_offset = #ttnn<mesh_offset 0x0>, mesh_shape = #ttnn<mesh_shape 4x16>}> : () -> !ttnn.device loc(#loc)
        %1 = "ttnn.typecast"(%arg0) <{dtype = #ttcore.supportedDataTypes<u16>}> : (tensor<1x1x384x64xsi32, #ttnn_layout46>) -> tensor<1x1x384x64xui16, #ttnn_layout48> loc(#loc275)
        %2 = "ttnn.from_device"(%1) : (tensor<1x1x384x64xui16, #ttnn_layout48>) -> tensor<1x1x384x64xui16, #ttnn_layout49> loc(#loc275)
        "ttnn.deallocate"(%1) <{force = false}> : (tensor<1x1x384x64xui16, #ttnn_layout48>) -> () loc(#loc275)
        %3 = "ttnn.to_layout"(%2) <{layout = #ttnn.layout<row_major>}> : (tensor<1x1x384x64xui16, #ttnn_layout49>) -> tensor<1x1x384x64xui16, #ttnn_layout50> loc(#loc275)
        "ttnn.deallocate"(%2) <{force = false}> : (tensor<1x1x384x64xui16, #ttnn_layout49>) -> () loc(#loc275)
        %4 = "ttnn.to_device"(%3, %0) <{memory_config = #ttnn.memory_config<#dram, <interleaved>>}> : (tensor<1x1x384x64xui16, #ttnn_layout50>, !ttnn.device) -> tensor<1x1x384x64xui16, #ttnn_layout47> loc(#loc275)
        "ttnn.deallocate"(%3) <{force = false}> : (tensor<1x1x384x64xui16, #ttnn_layout50>) -> () loc(#loc275)
        return %4 : tensor<1x1x384x64xui16, #ttnn_layout47> loc(#loc)
      } loc(#loc)
      func.func private @main_const_eval_30() -> tensor<1x1x384xsi32, #ttnn_layout51> attributes {tt.function_type = "const_eval"} {
        %0 = "ttnn.get_device"() <{mesh_offset = #ttnn<mesh_offset 0x0>, mesh_shape = #ttnn<mesh_shape 4x16>}> : () -> !ttnn.device loc(#loc)
        %1 = "ttnn.constant"(%0) <{dtype = #ttcore.supportedDataTypes<si32>, layout = #ttnn.layout<tile>, memory_config = #ttnn.memory_config<#dram, <interleaved>>, value = dense<"…"> : tensor<1x1x384xsi32>}> : (!ttnn.device) -> tensor<1x1x384xsi32, #ttnn_layout51> loc(#loc37)
        return %1 : tensor<1x1x384xsi32, #ttnn_layout51> loc(#loc)
      } loc(#loc)
      func.func private @main_const_eval_31() -> tensor<1x1x1x1xbf16, #ttnn_layout28> attributes {tt.function_type = "const_eval"} {
        %0 = "ttnn.get_device"() <{mesh_offset = #ttnn<mesh_offset 0x0>, mesh_shape = #ttnn<mesh_shape 4x16>}> : () -> !ttnn.device loc(#loc)
        %1 = "ttnn.full"(%0) <{dtype = #ttcore.supportedDataTypes<bf16>, fill_value = 0.14453125 : f32, layout = #ttnn.layout<tile>, shape = #ttnn.shape<1x1x1x1>}> : (!ttnn.device) -> tensor<1x1x1x1xbf16, #ttnn_layout28> loc(#loc)
        return %1 : tensor<1x1x1x1xbf16, #ttnn_layout28> loc(#loc)
      } loc(#loc)
      func.func private @main_const_eval_32(%arg0: tensor<384x7168xbf16, #ttnn_layout52> loc(unknown)) -> tensor<384x448x!ttcore.tile<32x32, bfp_bf8>, #ttnn_layout53> attributes {tt.function_type = "const_eval"} {
        %0 = "ttnn.get_device"() <{mesh_offset = #ttnn<mesh_offset 0x0>, mesh_shape = #ttnn<mesh_shape 4x16>}> : () -> !ttnn.device loc(#loc)
        %1 = "ttnn.mesh_shard"(%arg0, %0) <{shard_dims = array<i64: -1, 1>, shard_direction = #ttcore.shard_direction<full_to_shard>, shard_shape = array<i64: 1, 16>, shard_type = #ttcore.shard_type<identity>}> : (tensor<384x7168xbf16, #ttnn_layout52>, !ttnn.device) -> tensor<384x448xbf16, #ttnn_layout54> loc(#loc)
        %2 = "ttnn.typecast"(%1) <{dtype = #ttcore.supportedDataTypes<f32>}> : (tensor<384x448xbf16, #ttnn_layout54>) -> tensor<384x448xf32, #ttnn_layout55> loc(#loc38)
        %3 = "ttnn.typecast"(%2) <{dtype = #ttcore.supportedDataTypes<bfp_bf8>}> : (tensor<384x448xf32, #ttnn_layout55>) -> tensor<384x448x!ttcore.tile<32x32, bfp_bf8>, #ttnn_layout53> loc(#loc39)
        "ttnn.deallocate"(%2) <{force = false}> : (tensor<384x448xf32, #ttnn_layout55>) -> () loc(#loc39)
        return %3 : tensor<384x448x!ttcore.tile<32x32, bfp_bf8>, #ttnn_layout53> loc(#loc)
      } loc(#loc)
      func.func private @main_const_eval_33(%arg0: tensor<7168xbf16, #ttnn_layout3> loc(unknown)) -> tensor<7168xbf16, #ttnn_layout3> attributes {tt.function_type = "const_eval"} {
        %0 = "ttnn.get_device"() <{mesh_offset = #ttnn<mesh_offset 0x0>, mesh_shape = #ttnn<mesh_shape 4x16>}> : () -> !ttnn.device loc(#loc)
        %1 = "ttnn.mesh_shard"(%arg0, %0) <{shard_dims = array<i64: -1, 0>, shard_direction = #ttcore.shard_direction<full_to_shard>, shard_shape = array<i64: 16>, shard_type = #ttcore.shard_type<identity>}> : (tensor<7168xbf16, #ttnn_layout3>, !ttnn.device) -> tensor<448xbf16, #ttnn_layout4> loc(#loc)
        %2 = "ttnn.reshape"(%1) <{shape = [1 : i32, 448 : i32]}> : (tensor<448xbf16, #ttnn_layout4>) -> tensor<1x448xbf16, #ttnn_layout5> loc(#loc276)
        %3 = "ttnn.all_gather"(%2) <{all_gather_dim = 1 : si32, cluster_axis = 1 : ui32}> : (tensor<1x448xbf16, #ttnn_layout5>) -> tensor<1x7168xbf16, #ttnn_layout6> loc(#loc277)
        "ttnn.deallocate"(%2) <{force = false}> : (tensor<1x448xbf16, #ttnn_layout5>) -> () loc(#loc277)
        %4 = "ttnn.reshape"(%3) <{shape = [7168 : i32]}> : (tensor<1x7168xbf16, #ttnn_layout6>) -> tensor<7168xbf16, #ttnn_layout3> loc(#loc40)
        "ttnn.deallocate"(%3) <{force = false}> : (tensor<1x7168xbf16, #ttnn_layout6>) -> () loc(#loc40)
        return %4 : tensor<7168xbf16, #ttnn_layout3> loc(#loc)
      } loc(#loc)
      func.func private @main_const_eval_34(%arg0: tensor<18432x7168xbf16, #ttnn_layout38> loc(unknown)) -> tensor<4608x448x!ttcore.tile<32x32, bfp_bf8>, #ttnn_layout39> attributes {tt.function_type = "const_eval"} {
        %0 = "ttnn.get_device"() <{mesh_offset = #ttnn<mesh_offset 0x0>, mesh_shape = #ttnn<mesh_shape 4x16>}> : () -> !ttnn.device loc(#loc)
        %1 = "ttnn.mesh_shard"(%arg0, %0) <{shard_dims = array<i64: 0, 1>, shard_direction = #ttcore.shard_direction<full_to_shard>, shard_shape = array<i64: 4, 16>, shard_type = #ttcore.shard_type<identity>}> : (tensor<18432x7168xbf16, #ttnn_layout38>, !ttnn.device) -> tensor<4608x448xbf16, #ttnn_layout40> loc(#loc)
        %2 = "ttnn.typecast"(%1) <{dtype = #ttcore.supportedDataTypes<bfp_bf8>}> : (tensor<4608x448xbf16, #ttnn_layout40>) -> tensor<4608x448x!ttcore.tile<32x32, bfp_bf8>, #ttnn_layout39> loc(#loc41)
        return %2 : tensor<4608x448x!ttcore.tile<32x32, bfp_bf8>, #ttnn_layout39> loc(#loc)
      } loc(#loc)
      func.func private @main_const_eval_35(%arg0: tensor<7168x18432xbf16, #ttnn_layout56> loc(unknown)) -> tensor<448x4608x!ttcore.tile<32x32, bfp_bf8>, #ttnn_layout57> attributes {tt.function_type = "const_eval"} {
        %0 = "ttnn.get_device"() <{mesh_offset = #ttnn<mesh_offset 0x0>, mesh_shape = #ttnn<mesh_shape 4x16>}> : () -> !ttnn.device loc(#loc)
        %1 = "ttnn.mesh_shard"(%arg0, %0) <{shard_dims = array<i64: 1, 0>, shard_direction = #ttcore.shard_direction<full_to_shard>, shard_shape = array<i64: 16, 4>, shard_type = #ttcore.shard_type<identity>}> : (tensor<7168x18432xbf16, #ttnn_layout56>, !ttnn.device) -> tensor<448x4608xbf16, #ttnn_layout58> loc(#loc)
        %2 = "ttnn.typecast"(%1) <{dtype = #ttcore.supportedDataTypes<bfp_bf8>}> : (tensor<448x4608xbf16, #ttnn_layout58>) -> tensor<448x4608x!ttcore.tile<32x32, bfp_bf8>, #ttnn_layout57> loc(#loc42)
        return %2 : tensor<448x4608x!ttcore.tile<32x32, bfp_bf8>, #ttnn_layout57> loc(#loc)
      } loc(#loc)
      func.func private @main_const_eval_36(%arg0: tensor<7168xbf16, #ttnn_layout3> loc(unknown)) -> tensor<7168xbf16, #ttnn_layout3> attributes {tt.function_type = "const_eval"} {
        %0 = "ttnn.get_device"() <{mesh_offset = #ttnn<mesh_offset 0x0>, mesh_shape = #ttnn<mesh_shape 4x16>}> : () -> !ttnn.device loc(#loc)
        %1 = "ttnn.mesh_shard"(%arg0, %0) <{shard_dims = array<i64: -1, 0>, shard_direction = #ttcore.shard_direction<full_to_shard>, shard_shape = array<i64: 16>, shard_type = #ttcore.shard_type<identity>}> : (tensor<7168xbf16, #ttnn_layout3>, !ttnn.device) -> tensor<448xbf16, #ttnn_layout4> loc(#loc)
        %2 = "ttnn.reshape"(%1) <{shape = [1 : i32, 448 : i32]}> : (tensor<448xbf16, #ttnn_layout4>) -> tensor<1x448xbf16, #ttnn_layout5> loc(#loc278)
        %3 = "ttnn.all_gather"(%2) <{all_gather_dim = 1 : si32, cluster_axis = 1 : ui32}> : (tensor<1x448xbf16, #ttnn_layout5>) -> tensor<1x7168xbf16, #ttnn_layout6> loc(#loc279)
        "ttnn.deallocate"(%2) <{force = false}> : (tensor<1x448xbf16, #ttnn_layout5>) -> () loc(#loc279)
        %4 = "ttnn.reshape"(%3) <{shape = [7168 : i32]}> : (tensor<1x7168xbf16, #ttnn_layout6>) -> tensor<7168xbf16, #ttnn_layout3> loc(#loc43)
        "ttnn.deallocate"(%3) <{force = false}> : (tensor<1x7168xbf16, #ttnn_layout6>) -> () loc(#loc43)
        return %4 : tensor<7168xbf16, #ttnn_layout3> loc(#loc)
      } loc(#loc)
      func.func private @main_const_eval_37(%arg0: tensor<384x7168x2048xbf16, #ttnn_layout59> loc(unknown)) -> tensor<1x6x7168x2048x!ttcore.tile<32x32, bfp_bf8>, #ttnn_layout60> attributes {tt.function_type = "const_eval"} {
        %0 = "ttnn.get_device"() <{mesh_offset = #ttnn<mesh_offset 0x0>, mesh_shape = #ttnn<mesh_shape 4x16>}> : () -> !ttnn.device loc(#loc)
        %1 = "ttnn.mesh_shard"(%arg0, %0) <{shard_dims = array<i64: 0, 0>, shard_direction = #ttcore.shard_direction<full_to_shard>, shard_shape = array<i64: 64, 1, 1>, shard_type = #ttcore.shard_type<identity>}> : (tensor<384x7168x2048xbf16, #ttnn_layout59>, !ttnn.device) -> tensor<6x7168x2048xbf16, #ttnn_layout61> loc(#loc)
        %2 = "ttnn.reshape"(%1) <{shape = [1 : i32, 6 : i32, 7168 : i32, 2048 : i32]}> : (tensor<6x7168x2048xbf16, #ttnn_layout61>) -> tensor<1x6x7168x2048xbf16, #ttnn_layout62> loc(#loc44)
        %3 = "ttnn.typecast"(%2) <{dtype = #ttcore.supportedDataTypes<bfp_bf8>}> : (tensor<1x6x7168x2048xbf16, #ttnn_layout62>) -> tensor<1x6x7168x2048x!ttcore.tile<32x32, bfp_bf8>, #ttnn_layout60> loc(#loc45)
        "ttnn.deallocate"(%2) <{force = false}> : (tensor<1x6x7168x2048xbf16, #ttnn_layout62>) -> () loc(#loc45)
        return %3 : tensor<1x6x7168x2048x!ttcore.tile<32x32, bfp_bf8>, #ttnn_layout60> loc(#loc)
      } loc(#loc)
      func.func private @main_const_eval_38(%arg0: tensor<384x7168x2048xbf16, #ttnn_layout59> loc(unknown)) -> tensor<1x6x7168x2048x!ttcore.tile<32x32, bfp_bf8>, #ttnn_layout60> attributes {tt.function_type = "const_eval"} {
        %0 = "ttnn.get_device"() <{mesh_offset = #ttnn<mesh_offset 0x0>, mesh_shape = #ttnn<mesh_shape 4x16>}> : () -> !ttnn.device loc(#loc)
        %1 = "ttnn.mesh_shard"(%arg0, %0) <{shard_dims = array<i64: 0, 0>, shard_direction = #ttcore.shard_direction<full_to_shard>, shard_shape = array<i64: 64, 1, 1>, shard_type = #ttcore.shard_type<identity>}> : (tensor<384x7168x2048xbf16, #ttnn_layout59>, !ttnn.device) -> tensor<6x7168x2048xbf16, #ttnn_layout61> loc(#loc)
        %2 = "ttnn.reshape"(%1) <{shape = [1 : i32, 6 : i32, 7168 : i32, 2048 : i32]}> : (tensor<6x7168x2048xbf16, #ttnn_layout61>) -> tensor<1x6x7168x2048xbf16, #ttnn_layout62> loc(#loc46)
        %3 = "ttnn.typecast"(%2) <{dtype = #ttcore.supportedDataTypes<bfp_bf8>}> : (tensor<1x6x7168x2048xbf16, #ttnn_layout62>) -> tensor<1x6x7168x2048x!ttcore.tile<32x32, bfp_bf8>, #ttnn_layout60> loc(#loc47)
        "ttnn.deallocate"(%2) <{force = false}> : (tensor<1x6x7168x2048xbf16, #ttnn_layout62>) -> () loc(#loc47)
        return %3 : tensor<1x6x7168x2048x!ttcore.tile<32x32, bfp_bf8>, #ttnn_layout60> loc(#loc)
      } loc(#loc)
      func.func private @main_const_eval_39(%arg0: tensor<576x7168xbf16, #ttnn_layout63> loc(unknown)) -> tensor<576x448x!ttcore.tile<32x32, bfp_bf8>, #ttnn_layout64> attributes {tt.function_type = "const_eval"} {
        %0 = "ttnn.get_device"() <{mesh_offset = #ttnn<mesh_offset 0x0>, mesh_shape = #ttnn<mesh_shape 4x16>}> : () -> !ttnn.device loc(#loc)
        %1 = "ttnn.mesh_shard"(%arg0, %0) <{shard_dims = array<i64: -1, 1>, shard_direction = #ttcore.shard_direction<full_to_shard>, shard_shape = array<i64: 1, 16>, shard_type = #ttcore.shard_type<identity>}> : (tensor<576x7168xbf16, #ttnn_layout63>, !ttnn.device) -> tensor<576x448xbf16, #ttnn_layout65> loc(#loc)
        %2 = "ttnn.typecast"(%1) <{dtype = #ttcore.supportedDataTypes<bfp_bf8>}> : (tensor<576x448xbf16, #ttnn_layout65>) -> tensor<576x448x!ttcore.tile<32x32, bfp_bf8>, #ttnn_layout64> loc(#loc48)
        return %2 : tensor<576x448x!ttcore.tile<32x32, bfp_bf8>, #ttnn_layout64> loc(#loc)
      } loc(#loc)
      func.func private @main_const_eval_40(%arg0: tensor<576x7168xbf16, #ttnn_layout63> loc(unknown)) -> tensor<576x448x!ttcore.tile<32x32, bfp_bf8>, #ttnn_layout64> attributes {tt.function_type = "const_eval"} {
        %0 = "ttnn.get_device"() <{mesh_offset = #ttnn<mesh_offset 0x0>, mesh_shape = #ttnn<mesh_shape 4x16>}> : () -> !ttnn.device loc(#loc)
        %1 = "ttnn.mesh_shard"(%arg0, %0) <{shard_dims = array<i64: -1, 1>, shard_direction = #ttcore.shard_direction<full_to_shard>, shard_shape = array<i64: 1, 16>, shard_type = #ttcore.shard_type<identity>}> : (tensor<576x7168xbf16, #ttnn_layout63>, !ttnn.device) -> tensor<576x448xbf16, #ttnn_layout65> loc(#loc)
        %2 = "ttnn.typecast"(%1) <{dtype = #ttcore.supportedDataTypes<bfp_bf8>}> : (tensor<576x448xbf16, #ttnn_layout65>) -> tensor<576x448x!ttcore.tile<32x32, bfp_bf8>, #ttnn_layout64> loc(#loc49)
        return %2 : tensor<576x448x!ttcore.tile<32x32, bfp_bf8>, #ttnn_layout64> loc(#loc)
      } loc(#loc)
      func.func private @main_const_eval_41(%arg0: tensor<163840x7168xbf16, #ttnn_layout> loc(unknown)) -> tensor<40960x448x!ttcore.tile<32x32, bfp_bf8>, #ttnn_layout66> attributes {tt.function_type = "const_eval"} {
        %0 = "ttnn.get_device"() <{mesh_offset = #ttnn<mesh_offset 0x0>, mesh_shape = #ttnn<mesh_shape 4x16>}> : () -> !ttnn.device loc(#loc)
        %1 = "ttnn.mesh_shard"(%arg0, %0) <{shard_dims = array<i64: 0, 1>, shard_direction = #ttcore.shard_direction<full_to_shard>, shard_shape = array<i64: 4, 16>, shard_type = #ttcore.shard_type<identity>}> : (tensor<163840x7168xbf16, #ttnn_layout>, !ttnn.device) -> tensor<40960x448xbf16, #ttnn_layout67> loc(#loc)
        %2 = "ttnn.typecast"(%1) <{dtype = #ttcore.supportedDataTypes<bfp_bf8>}> : (tensor<40960x448xbf16, #ttnn_layout67>) -> tensor<40960x448x!ttcore.tile<32x32, bfp_bf8>, #ttnn_layout66> loc(#loc50)
        return %2 : tensor<40960x448x!ttcore.tile<32x32, bfp_bf8>, #ttnn_layout66> loc(#loc)
      } loc(#loc)
      func.func private @main_const_eval_42() -> tensor<1x1x1xf32, #ttnn_layout68> attributes {tt.function_type = "const_eval"} {
        %0 = "ttnn.get_device"() <{mesh_offset = #ttnn<mesh_offset 0x0>, mesh_shape = #ttnn<mesh_shape 4x16>}> : () -> !ttnn.device loc(#loc)
        %1 = "ttnn.full"(%0) <{dtype = #ttcore.supportedDataTypes<f32>, fill_value = 2.827000e+00 : f32, layout = #ttnn.layout<tile>, shape = #ttnn.shape<1x1x1>}> : (!ttnn.device) -> tensor<1x1x1xf32, #ttnn_layout68> loc(#loc339)
        return %1 : tensor<1x1x1xf32, #ttnn_layout68> loc(#loc)
      } loc(#loc)
      func.func private @main_const_eval_43() -> tensor<1x1x1x128xsi32, #ttnn_layout69> attributes {tt.function_type = "const_eval"} {
        %0 = "ttnn.get_device"() <{mesh_offset = #ttnn<mesh_offset 0x0>, mesh_shape = #ttnn<mesh_shape 4x16>}> : () -> !ttnn.device loc(#loc)
        %1 = "ttnn.constant"(%0) <{dtype = #ttcore.supportedDataTypes<si32>, layout = #ttnn.layout<tile>, memory_config = #ttnn.memory_config<#dram, <interleaved>>, value = dense<"…"> : tensor<1x1x1x128xsi32>}> : (!ttnn.device) -> tensor<1x1x1x128xsi32, #ttnn_layout69> loc(#loc340)
        return %1 : tensor<1x1x1x128xsi32, #ttnn_layout69> loc(#loc)
      } loc(#loc)
      func.func private @main_const_eval_44() -> tensor<4x8x1xui32, #ttnn_layout70> attributes {tt.function_type = "const_eval"} {
        %0 = "ttnn.get_device"() <{mesh_offset = #ttnn<mesh_offset 0x0>, mesh_shape = #ttnn<mesh_shape 4x16>}> : () -> !ttnn.device loc(#loc)
        %1 = "ttnn.arange"(%0) <{dtype = #ttcore.supportedDataTypes<u32>, end = 4 : i64, layout = #ttnn.layout<tile>, memory_config = #ttnn.memory_config<#dram, <interleaved>>, start = 0 : i64, step = 1 : i64}> : (!ttnn.device) -> tensor<4xui32, #ttnn_layout71> loc(#loc52)
        %2 = "ttnn.reshape"(%1) <{shape = [4 : i32, 1 : i32, 1 : i32]}> : (tensor<4xui32, #ttnn_layout71>) -> tensor<4x1x1xui32, #ttnn_layout70> loc(#loc52)
        "ttnn.deallocate"(%1) <{force = false}> : (tensor<4xui32, #ttnn_layout71>) -> () loc(#loc52)
        %3 = "ttnn.repeat"(%2) <{repeat_dims = #ttnn.shape<1x8x1>}> : (tensor<4x1x1xui32, #ttnn_layout70>) -> tensor<4x8x1xui32, #ttnn_layout70> loc(#loc52)
        "ttnn.deallocate"(%2) <{force = false}> : (tensor<4x1x1xui32, #ttnn_layout70>) -> () loc(#loc52)
        return %3 : tensor<4x8x1xui32, #ttnn_layout70> loc(#loc)
      } loc(#loc)
      func.func @main(%arg0: tensor<576x7168xbf16, #ttnn_layout63> {ttcore.argument_type = #ttcore.argument_type<parameter>, ttcore.local_shape = #ttcore<local_shape local_shape = tensor<576x448xbf16>>, ttcore.shard_status = #ttcore.shard_status<presharded>, ttir.name = "model.layers.0.self_attn.kv_a_proj_with_mqa.weight"} loc("p0.1"), %arg1: tensor<7168xbf16, #ttnn_layout3> {ttcore.argument_type = #ttcore.argument_type<parameter>, ttcore.local_shape = #ttcore<local_shape local_shape = tensor<448xbf16>>, ttcore.shard_status = #ttcore.shard_status<presharded>, ttir.name = "model.layers.0.input_layernorm.weight"} loc("p1.6"), %arg2: tensor<16x1xsi32, #ttnn_layout20> {ttcore.argument_type = #ttcore.argument_type<input>, ttcore.local_shape = #ttcore<local_shape local_shape = tensor<4x1xi64>>, ttcore.shard_status = #ttcore.shard_status<presharded>, ttir.name = "args_0"} loc("p2.15"), %arg3: tensor<163840x7168xbf16, #ttnn_layout> {ttcore.argument_type = #ttcore.argument_type<parameter>, ttcore.local_shape = #ttcore<local_shape local_shape = tensor<163840x448xbf16>>, ttcore.shard_status = #ttcore.shard_status<presharded>, ttir.name = "model.embed_tokens.weight"} loc("p3.20"), %arg4: tensor<1xsi32, #ttnn_layout72> {ttcore.argument_type = #ttcore.argument_type<input>, ttcore.local_shape = #ttcore<local_shape local_shape = tensor<1xi64>>, ttcore.shard_status = #ttcore.shard_status<presharded>, ttir.name = "args_1"} loc("p4.65"), %arg5: tensor<16x1x128x512xbf16, #ttnn_layout73> {ttcore.argument_type = #ttcore.argument_type<input>, ttcore.kv_cache, ttcore.local_shape = #ttcore<local_shape local_shape = tensor<4x1x128x512xbf16>>, ttcore.shard_status = #ttcore.shard_status<presharded>, ttir.name = "L__past_key_values___layers_0_compressed_kv"} loc("p5.79"), %arg6: tensor<16x1x128x64xbf16, #ttnn_layout74> {ttcore.argument_type = #ttcore.argument_type<input>, ttcore.kv_cache, ttcore.local_shape = #ttcore<local_shape local_shape = tensor<4x1x128x64xbf16>>, ttcore.shard_status = #ttcore.shard_status<presharded>, ttir.name = "L__past_key_values___layers_0_k_pe"} loc("p6.232"), %arg7: tensor<576x7168xbf16, #ttnn_layout63> {ttcore.argument_type = #ttcore.argument_type<parameter>, ttcore.local_shape = #ttcore<local_shape local_shape = tensor<576x448xbf16>>, ttcore.shard_status = #ttcore.shard_status<presharded>, ttir.name = "model.layers.1.self_attn.kv_a_proj_with_mqa.weight"} loc("p7.240"), %arg8: tensor<7168xbf16, #ttnn_layout3> {ttcore.argument_type = #ttcore.argument_type<parameter>, ttcore.local_shape = #ttcore<local_shape local_shape = tensor<448xbf16>>, ttcore.shard_status = #ttcore.shard_status<presharded>, ttir.name = "model.layers.1.input_layernorm.weight"} loc("p8.245"), %arg9: tensor<7168x18432xbf16, #ttnn_layout56> {ttcore.argument_type = #ttcore.argument_type<parameter>, ttcore.local_shape = #ttcore<local_shape local_shape = tensor<448x4608xbf16>>, ttcore.shard_status = #ttcore.shard_status<presharded>, ttir.name = "model.layers.0.mlp.down_proj.weight"} loc("p9.255"), %arg10: tensor<18432x7168xbf16, #ttnn_layout38> {ttcore.argument_type = #ttcore.argument_type<parameter>, ttcore.local_shape = #ttcore<local_shape local_shape = tensor<4608x448xbf16>>, ttcore.shard_status = #ttcore.shard_status<presharded>, ttir.name = "model.layers.0.mlp.up_proj.weight"} loc("p10.260"), %arg11: tensor<7168xbf16, #ttnn_layout3> {ttcore.argument_type = #ttcore.argument_type<parameter>, ttcore.local_shape = #ttcore<local_shape local_shape = tensor<448xbf16>>, ttcore.shard_status = #ttcore.shard_status<presharded>, ttir.name = "model.layers.0.post_attention_layernorm.weight"} loc("p11.265"), %arg12: tensor<7168x8192xbf16, #ttnn_layout32> {ttcore.argument_type = #ttcore.argument_type<parameter>, ttcore.local_shape = #ttcore<local_shape local_shape = tensor<7168x512xbf16>>, ttcore.shard_status = #ttcore.shard_status<presharded>, ttir.name = "model.layers.0.self_attn.o_proj.weight"} loc("p12.275"), %arg13: tensor<16384x512xbf16, #ttnn_layout21> {ttcore.argument_type = #ttcore.argument_type<parameter>, ttcore.local_shape = #ttcore<local_shape local_shape = tensor<1024x512xbf16>>, ttcore.shard_status = #ttcore.shard_status<presharded>, ttir.name = "model.layers.0.self_attn.kv_b_proj.weight"} loc("p13.280"), %arg14: tensor<512xbf16, #ttnn_layout75> {ttcore.argument_type = #ttcore.argument_type<parameter>, ttcore.local_shape = #ttcore<local_shape local_shape = tensor<512xbf16>>, ttcore.shard_status = #ttcore.shard_status<presharded>, ttir.name = "model.layers.0.self_attn.kv_a_layernorm.weight"} loc("p14.285"), %arg15: tensor<12288x1536xbf16, #ttnn_layout13> {ttcore.argument_type = #ttcore.argument_type<parameter>, ttcore.local_shape = #ttcore<local_shape local_shape = tensor<768x1536xbf16>>, ttcore.shard_status = #ttcore.shard_status<presharded>, ttir.name = "model.layers.0.self_attn.q_b_proj.weight"} loc("p15.358"), %arg16: tensor<1536xbf16, #ttnn_layout76> {ttcore.argument_type = #ttcore.argument_type<parameter>, ttcore.local_shape = #ttcore<local_shape local_shape = tensor<1536xbf16>>, ttcore.shard_status = #ttcore.shard_status<presharded>, ttir.name = "model.layers.0.self_attn.q_a_layernorm.weight"} loc("p16.363"), %arg17: tensor<1536x7168xbf16, #ttnn_layout7> {ttcore.argument_type = #ttcore.argument_type<parameter>, ttcore.local_shape = #ttcore<local_shape local_shape = tensor<1536x448xbf16>>, ttcore.shard_status = #ttcore.shard_status<presharded>, ttir.name = "model.layers.0.self_attn.q_a_proj.weight"} loc("p17.372"), %arg18: tensor<18432x7168xbf16, #ttnn_layout38> {ttcore.argument_type = #ttcore.argument_type<parameter>, ttcore.local_shape = #ttcore<local_shape local_shape = tensor<4608x448xbf16>>, ttcore.shard_status = #ttcore.shard_status<presharded>, ttir.name = "model.layers.0.mlp.gate_proj.weight"} loc("p18.511"), %arg19: tensor<16x1x128x512xbf16, #ttnn_layout73> {ttcore.argument_type = #ttcore.argument_type<input>, ttcore.kv_cache, ttcore.local_shape = #ttcore<local_shape local_shape = tensor<4x1x128x512xbf16>>, ttcore.shard_status = #ttcore.shard_status<presharded>, ttir.name = "L__past_key_values___layers_1_compressed_kv"} loc("p19.578"), %arg20: tensor<16x1x128x64xbf16, #ttnn_layout74> {ttcore.argument_type = #ttcore.argument_type<input>, ttcore.kv_cache, ttcore.local_shape = #ttcore<local_shape local_shape = tensor<4x1x128x64xbf16>>, ttcore.shard_status = #ttcore.shard_status<presharded>, ttir.name = "L__past_key_values___layers_1_k_pe"} loc("p20.730"), %arg21: tensor<163840x7168xbf16, #ttnn_layout> {ttcore.argument_type = #ttcore.argument_type<parameter>, ttcore.local_shape = #ttcore<local_shape local_shape = tensor<40960x448xbf16>>, ttcore.shard_status = #ttcore.shard_status<presharded>, ttir.name = "lm_head.weight"} loc("p21.738"), %arg22: tensor<7168xbf16, #ttnn_layout3> {ttcore.argument_type = #ttcore.argument_type<parameter>, ttcore.local_shape = #ttcore<local_shape local_shape = tensor<448xbf16>>, ttcore.shard_status = #ttcore.shard_status<presharded>, ttir.name = "model.norm.weight"} loc("p22.743"), %arg23: tensor<7168x2048xbf16, #ttnn_layout35> {ttcore.argument_type = #ttcore.argument_type<parameter>, ttcore.local_shape = #ttcore<local_shape local_shape = tensor<448x2048xbf16>>, ttcore.shard_status = #ttcore.shard_status<presharded>, ttir.name = "model.layers.1.mlp.shared_experts.down_proj.weight"} loc("p23.754"), %arg24: tensor<2048x7168xbf16, #ttnn_layout29> {ttcore.argument_type = #ttcore.argument_type<parameter>, ttcore.local_shape = #ttcore<local_shape local_shape = tensor<2048x448xbf16>>, ttcore.shard_status = #ttcore.shard_status<presharded>, ttir.name = "model.layers.1.mlp.shared_experts.up_proj.weight"} loc("p24.759"), %arg25: tensor<7168xbf16, #ttnn_layout3> {ttcore.argument_type = #ttcore.argument_type<parameter>, ttcore.local_shape = #ttcore<local_shape local_shape = tensor<448xbf16>>, ttcore.shard_status = #ttcore.shard_status<presharded>, ttir.name = "model.layers.1.post_attention_layernorm.weight"} loc("p25.764"), %arg26: tensor<7168x8192xbf16, #ttnn_layout32> {ttcore.argument_type = #ttcore.argument_type<parameter>, ttcore.local_shape = #ttcore<local_shape local_shape = tensor<7168x512xbf16>>, ttcore.shard_status = #ttcore.shard_status<presharded>, ttir.name = "model.layers.1.self_attn.o_proj.weight"} loc("p26.774"), %arg27: tensor<16384x512xbf16, #ttnn_layout21> {ttcore.argument_type = #ttcore.argument_type<parameter>, ttcore.local_shape = #ttcore<local_shape local_shape = tensor<1024x512xbf16>>, ttcore.shard_status = #ttcore.shard_status<presharded>, ttir.name = "model.layers.1.self_attn.kv_b_proj.weight"} loc("p27.779"), %arg28: tensor<512xbf16, #ttnn_layout75> {ttcore.argument_type = #ttcore.argument_type<parameter>, ttcore.local_shape = #ttcore<local_shape local_shape = tensor<512xbf16>>, ttcore.shard_status = #ttcore.shard_status<presharded>, ttir.name = "model.layers.1.self_attn.kv_a_layernorm.weight"} loc("p28.784"), %arg29: tensor<12288x1536xbf16, #ttnn_layout13> {ttcore.argument_type = #ttcore.argument_type<parameter>, ttcore.local_shape = #ttcore<local_shape local_shape = tensor<768x1536xbf16>>, ttcore.shard_status = #ttcore.shard_status<presharded>, ttir.name = "model.layers.1.self_attn.q_b_proj.weight"} loc("p29.842"), %arg30: tensor<1536xbf16, #ttnn_layout76> {ttcore.argument_type = #ttcore.argument_type<parameter>, ttcore.local_shape = #ttcore<local_shape local_shape = tensor<1536xbf16>>, ttcore.shard_status = #ttcore.shard_status<presharded>, ttir.name = "model.layers.1.self_attn.q_a_layernorm.weight"} loc("p30.847"), %arg31: tensor<1536x7168xbf16, #ttnn_layout7> {ttcore.argument_type = #ttcore.argument_type<parameter>, ttcore.local_shape = #ttcore<local_shape local_shape = tensor<1536x448xbf16>>, ttcore.shard_status = #ttcore.shard_status<presharded>, ttir.name = "model.layers.1.self_attn.q_a_proj.weight"} loc("p31.856"), %arg32: tensor<2048x7168xbf16, #ttnn_layout29> {ttcore.argument_type = #ttcore.argument_type<parameter>, ttcore.local_shape = #ttcore<local_shape local_shape = tensor<2048x448xbf16>>, ttcore.shard_status = #ttcore.shard_status<presharded>, ttir.name = "model.layers.1.mlp.shared_experts.gate_proj.weight"} loc("p32.995"), %arg33: tensor<384xbf16, #ttnn_layout41> {ttcore.argument_type = #ttcore.argument_type<parameter>, ttcore.local_shape = #ttcore<local_shape local_shape = tensor<384xbf16>>, ttcore.shard_status = #ttcore.shard_status<presharded>, ttir.name = "model.layers.1.mlp.mlp.router.gate.e_score_correction_bias"} loc("p33.1013"), %arg34: tensor<384x7168xbf16, #ttnn_layout52> {ttcore.argument_type = #ttcore.argument_type<parameter>, ttcore.local_shape = #ttcore<lo…
        %5483 = "ttnn.point_to_point"(%4582, %5482) <{receiver_coord = array<i64: 3, 15>, sender_coord = array<i64: 3, 10>}> : (tensor<4x1x1x448xbf16, #ttnn_layout84>, tensor<4x1x1x448xbf16, #ttnn_layout84>) -> tensor<4x1x1x448xbf16, #ttnn_layout84> loc(#loc256)
        "ttnn.deallocate"(%5482) <{force = false}> : (tensor<4x1x1x448xbf16, #ttnn_layout84>) -> () loc(#loc256)
        %5484 = "ttnn.point_to_point"(%4567, %5258) <{receiver_coord = array<i64: 3, 0>, sender_coord = array<i64: 3, 11>}> : (tensor<4x1x1x448xbf16, #ttnn_layout84>, tensor<4x1x1x448xbf16, #ttnn_layout84>) -> tensor<4x1x1x448xbf16, #ttnn_layout84> loc(#loc256)
        "ttnn.deallocate"(%5258) <{force = false}> : (tensor<4x1x1x448xbf16, #ttnn_layout84>) -> () loc(#loc256)
        %5485 = "ttnn.point_to_point"(%4568, %5484) <{receiver_coord = array<i64: 3, 1>, sender_coord = array<i64: 3, 11>}> : (tensor<4x1x1x448xbf16, #ttnn_layout84>, tensor<4x1x1x448xbf16, #ttnn_layout84>) -> tensor<4x1x1x448xbf16, #ttnn_layout84> loc(#loc256)
        "ttnn.deallocate"(%5484) <{force = false}> : (tensor<4x1x1x448xbf16, #ttnn_layout84>) -> () loc(#loc256)
        %5486 = "ttnn.point_to_point"(%4569, %5485) <{receiver_coord = array<i64: 3, 2>, sender_coord = array<i64: 3, 11>}> : (tensor<4x1x1x448xbf16, #ttnn_layout84>, tensor<4x1x1x448xbf16, #ttnn_layout84>) -> tensor<4x1x1x448xbf16, #ttnn_layout84> loc(#loc256)
        "ttnn.deallocate"(%5485) <{force = false}> : (tensor<4x1x1x448xbf16, #ttnn_layout84>) -> () loc(#loc256)
        %5487 = "ttnn.point_to_point"(%4570, %5486) <{receiver_coord = array<i64: 3, 3>, sender_coord = array<i64: 3, 11>}> : (tensor<4x1x1x448xbf16, #ttnn_layout84>, tensor<4x1x1x448xbf16, #ttnn_layout84>) -> tensor<4x1x1x448xbf16, #ttnn_layout84> loc(#loc256)
        "ttnn.deallocate"(%5486) <{force = false}> : (tensor<4x1x1x448xbf16, #ttnn_layout84>) -> () loc(#loc256)
        %5488 = "ttnn.point_to_point"(%4571, %5487) <{receiver_coord = array<i64: 3, 4>, sender_coord = array<i64: 3, 11>}> : (tensor<4x1x1x448xbf16, #ttnn_layout84>, tensor<4x1x1x448xbf16, #ttnn_layout84>) -> tensor<4x1x1x448xbf16, #ttnn_layout84> loc(#loc256)
        "ttnn.deallocate"(%5487) <{force = false}> : (tensor<4x1x1x448xbf16, #ttnn_layout84>) -> () loc(#loc256)
        %5489 = "ttnn.point_to_point"(%4572, %5488) <{receiver_coord = array<i64: 3, 5>, sender_coord = array<i64: 3, 11>}> : (tensor<4x1x1x448xbf16, #ttnn_layout84>, tensor<4x1x1x448xbf16, #ttnn_layout84>) -> tensor<4x1x1x448xbf16, #ttnn_layout84> loc(#loc256)
        "ttnn.deallocate"(%5488) <{force = false}> : (tensor<4x1x1x448xbf16, #ttnn_layout84>) -> () loc(#loc256)
        %5490 = "ttnn.point_to_point"(%4573, %5489) <{receiver_coord = array<i64: 3, 6>, sender_coord = array<i64: 3, 11>}> : (tensor<4x1x1x448xbf16, #ttnn_layout84>, tensor<4x1x1x448xbf16, #ttnn_layout84>) -> tensor<4x1x1x448xbf16, #ttnn_layout84> loc(#loc256)
        "ttnn.deallocate"(%5489) <{force = false}> : (tensor<4x1x1x448xbf16, #ttnn_layout84>) -> () loc(#loc256)
        %5491 = "ttnn.point_to_point"(%4574, %5490) <{receiver_coord = array<i64: 3, 7>, sender_coord = array<i64: 3, 11>}> : (tensor<4x1x1x448xbf16, #ttnn_layout84>, tensor<4x1x1x448xbf16, #ttnn_layout84>) -> tensor<4x1x1x448xbf16, #ttnn_layout84> loc(#loc256)
        "ttnn.deallocate"(%5490) <{force = false}> : (tensor<4x1x1x448xbf16, #ttnn_layout84>) -> () loc(#loc256)
        %5492 = "ttnn.point_to_point"(%4575, %5491) <{receiver_coord = array<i64: 3, 8>, sender_coord = array<i64: 3, 11>}> : (tensor<4x1x1x448xbf16, #ttnn_layout84>, tensor<4x1x1x448xbf16, #ttnn_layout84>) -> tensor<4x1x1x448xbf16, #ttnn_layout84> loc(#loc256)
        "ttnn.deallocate"(%5491) <{force = false}> : (tensor<4x1x1x448xbf16, #ttnn_layout84>) -> () loc(#loc256)
        %5493 = "ttnn.point_to_point"(%4576, %5492) <{receiver_coord = array<i64: 3, 9>, sender_coord = array<i64: 3, 11>}> : (tensor<4x1x1x448xbf16, #ttnn_layout84>, tensor<4x1x1x448xbf16, #ttnn_layout84>) -> tensor<4x1x1x448xbf16, #ttnn_layout84> loc(#loc256)
        "ttnn.deallocate"(%5492) <{force = false}> : (tensor<4x1x1x448xbf16, #ttnn_layout84>) -> () loc(#loc256)
        %5494 = "ttnn.point_to_point"(%4577, %5493) <{receiver_coord = array<i64: 3, 10>, sender_coord = array<i64: 3, 11>}> : (tensor<4x1x1x448xbf16, #ttnn_layout84>, tensor<4x1x1x448xbf16, #ttnn_layout84>) -> tensor<4x1x1x448xbf16, #ttnn_layout84> loc(#loc256)
        "ttnn.deallocate"(%5493) <{force = false}> : (tensor<4x1x1x448xbf16, #ttnn_layout84>) -> () loc(#loc256)
        %5495 = "ttnn.point_to_point"(%4579, %5494) <{receiver_coord = array<i64: 3, 12>, sender_coord = array<i64: 3, 11>}> : (tensor<4x1x1x448xbf16, #ttnn_layout84>, tensor<4x1x1x448xbf16, #ttnn_layout84>) -> tensor<4x1x1x448xbf16, #ttnn_layout84> loc(#loc256)
        "ttnn.deallocate"(%5494) <{force = false}> : (tensor<4x1x1x448xbf16, #ttnn_layout84>) -> () loc(#loc256)
        %5496 = "ttnn.point_to_point"(%4580, %5495) <{receiver_coord = array<i64: 3, 13>, sender_coord = array<i64: 3, 11>}> : (tensor<4x1x1x448xbf16, #ttnn_layout84>, tensor<4x1x1x448xbf16, #ttnn_layout84>) -> tensor<4x1x1x448xbf16, #ttnn_layout84> loc(#loc256)
        "ttnn.deallocate"(%5495) <{force = false}> : (tensor<4x1x1x448xbf16, #ttnn_layout84>) -> () loc(#loc256)
        %5497 = "ttnn.point_to_point"(%4581, %5496) <{receiver_coord = array<i64: 3, 14>, sender_coord = array<i64: 3, 11>}> : (tensor<4x1x1x448xbf16, #ttnn_layout84>, tensor<4x1x1x448xbf16, #ttnn_layout84>) -> tensor<4x1x1x448xbf16, #ttnn_layout84> loc(#loc256)
        "ttnn.deallocate"(%5496) <{force = false}> : (tensor<4x1x1x448xbf16, #ttnn_layout84>) -> () loc(#loc256)
        %5498 = "ttnn.point_to_point"(%4582, %5497) <{receiver_coord = array<i64: 3, 15>, sender_coord = array<i64: 3, 11>}> : (tensor<4x1x1x448xbf16, #ttnn_layout84>, tensor<4x1x1x448xbf16, #ttnn_layout84>) -> tensor<4x1x1x448xbf16, #ttnn_layout84> loc(#loc256)
        "ttnn.deallocate"(%5497) <{force = false}> : (tensor<4x1x1x448xbf16, #ttnn_layout84>) -> () loc(#loc256)
        %5499 = "ttnn.point_to_point"(%4567, %5273) <{receiver_coord = array<i64: 3, 0>, sender_coord = array<i64: 3, 12>}> : (tensor<4x1x1x448xbf16, #ttnn_layout84>, tensor<4x1x1x448xbf16, #ttnn_layout84>) -> tensor<4x1x1x448xbf16, #ttnn_layout84> loc(#loc256)
        "ttnn.deallocate"(%5273) <{force = false}> : (tensor<4x1x1x448xbf16, #ttnn_layout84>) -> () loc(#loc256)
        %5500 = "ttnn.point_to_point"(%4568, %5499) <{receiver_coord = array<i64: 3, 1>, sender_coord = array<i64: 3, 12>}> : (tensor<4x1x1x448xbf16, #ttnn_layout84>, tensor<4x1x1x448xbf16, #ttnn_layout84>) -> tensor<4x1x1x448xbf16, #ttnn_layout84> loc(#loc256)
        "ttnn.deallocate"(%5499) <{force = false}> : (tensor<4x1x1x448xbf16, #ttnn_layout84>) -> () loc(#loc256)
        %5501 = "ttnn.point_to_point"(%4569, %5500) <{receiver_coord = array<i64: 3, 2>, sender_coord = array<i64: 3, 12>}> : (tensor<4x1x1x448xbf16, #ttnn_layout84>, tensor<4x1x1x448xbf16, #ttnn_layout84>) -> tensor<4x1x1x448xbf16, #ttnn_layout84> loc(#loc256)
        "ttnn.deallocate"(%5500) <{force = false}> : (tensor<4x1x1x448xbf16, #ttnn_layout84>) -> () loc(#loc256)
        %5502 = "ttnn.point_to_point"(%4570, %5501) <{receiver_coord = array<i64: 3, 3>, sender_coord = array<i64: 3, 12>}> : (tensor<4x1x1x448xbf16, #ttnn_layout84>, tensor<4x1x1x448xbf16, #ttnn_layout84>) -> tensor<4x1x1x448xbf16, #ttnn_layout84> loc(#loc256)
        "ttnn.deallocate"(%5501) <{force = false}> : (tensor<4x1x1x448xbf16, #ttnn_layout84>) -> () loc(#loc256)
        %5503 = "ttnn.point_to_point"(%4571, %5502) <{receiver_coord = array<i64: 3, 4>, sender_coord = array<i64: 3, 12>}> : (tensor<4x1x1x448xbf16, #ttnn_layout84>, tensor<4x1x1x448xbf16, #ttnn_layout84>) -> tensor<4x1x1x448xbf16, #ttnn_layout84> loc(#loc256)
        "ttnn.deallocate"(%5502) <{force = false}> : (tensor<4x1x1x448xbf16, #ttnn_layout84>) -> () loc(#loc256)
        %5504 = "ttnn.point_to_point"(%4572, %5503) <{receiver_coord = array<i64: 3, 5>, sender_coord = array<i64: 3, 12>}> : (tensor<4x1x1x448xbf16, #ttnn_layout84>, tensor<4x1x1x448xbf16, #ttnn_layout84>) -> tensor<4x1x1x448xbf16, #ttnn_layout84> loc(#loc256)
        "ttnn.deallocate"(%5503) <{force = false}> : (tensor<4x1x1x448xbf16, #ttnn_layout84>) -> () loc(#loc256)
        %5505 = "ttnn.point_to_point"(%4573, %5504) <{receiver_coord = array<i64: 3, 6>, sender_coord = array<i64: 3, 12>}> : (tensor<4x1x1x448xbf16, #ttnn_layout84>, tensor<4x1x1x448xbf16, #ttnn_layout84>) -> tensor<4x1x1x448xbf16, #ttnn_layout84> loc(#loc256)
        "ttnn.deallocate"(%5504) <{force = false}> : (tensor<4x1x1x448xbf16, #ttnn_layout84>) -> () loc(#loc256)
        %5506 = "ttnn.point_to_point"(%4574, %5505) <{receiver_coord = array<i64: 3, 7>, sender_coord = array<i64: 3, 12>}> : (tensor<4x1x1x448xbf16, #ttnn_layout84>, tensor<4x1x1x448xbf16, #ttnn_layout84>) -> tensor<4x1x1x448xbf16, #ttnn_layout84> loc(#loc256)
        "ttnn.deallocate"(%5505) <{force = false}> : (tensor<4x1x1x448xbf16, #ttnn_layout84>) -> () loc(#loc256)
        %5507 = "ttnn.point_to_point"(%4575, %5506) <{receiver_coord = array<i64: 3, 8>, sender_coord = array<i64: 3, 12>}> : (tensor<4x1x1x448xbf16, #ttnn_layout84>, tensor<4x1x1x448xbf16, #ttnn_layout84>) -> tensor<4x1x1x448xbf16, #ttnn_layout84> loc(#loc256)
        "ttnn.deallocate"(%5506) <{force = false}> : (tensor<4x1x1x448xbf16, #ttnn_layout84>) -> () loc(#loc256)
        %5508 = "ttnn.point_to_point"(%4576, %5507) <{receiver_coord = array<i64: 3, 9>, sender_coord = array<i64: 3, 12>}> : (tensor<4x1x1x448xbf16, #ttnn_layout84>, tensor<4x1x1x448xbf16, #ttnn_layout84>) -> tensor<4x1x1x448xbf16, #ttnn_layout84> loc(#loc256)
        "ttnn.deallocate"(%5507) <{force = false}> : (tensor<4x1x1x448xbf16, #ttnn_layout84>) -> () loc(#loc256)
        %5509 = "ttnn.point_to_point"(%4577, %5508) <{receiver_coord = array<i64: 3, 10>, sender_coord = array<i64: 3, 12>}> : (tensor<4x1x1x448xbf16, #ttnn_layout84>, tensor<4x1x1x448xbf16, #ttnn_layout84>) -> tensor<4x1x1x448xbf16, #ttnn_layout84> loc(#loc256)
        "ttnn.deallocate"(%5508) <{force = false}> : (tensor<4x1x1x448xbf16, #ttnn_layout84>) -> () loc(#loc256)
        %5510 = "ttnn.point_to_point"(%4578, %5509) <{receiver_coord = array<i64: 3, 11>, sender_coord = array<i64: 3, 12>}> : (tensor<4x1x1x448xbf16, #ttnn_layout84>, tensor<4x1x1x448xbf16, #ttnn_layout84>) -> tensor<4x1x1x448xbf16, #ttnn_layout84> loc(#loc256)
        "ttnn.deallocate"(%5509) <{force = false}> : (tensor<4x1x1x448xbf16, #ttnn_layout84>) -> () loc(#loc256)
        %5511 = "ttnn.point_to_point"(%4580, %5510) <{receiver_coord = array<i64: 3, 13>, sender_coord = array<i64: 3, 12>}> : (tensor<4x1x1x448xbf16, #ttnn_layout84>, tensor<4x1x1x448xbf16, #ttnn_layout84>) -> tensor<4x1x1x448xbf16, #ttnn_layout84> loc(#loc256)
        "ttnn.deallocate"(%5510) <{force = false}> : (tensor<4x1x1x448xbf16, #ttnn_layout84>) -> () loc(#loc256)
        %5512 = "ttnn.point_to_point"(%4581, %5511) <{receiver_coord = array<i64: 3, 14>, sender_coord = array<i64: 3, 12>}> : (tensor<4x1x1x448xbf16, #ttnn_layout84>, tensor<4x1x1x448xbf16, #ttnn_layout84>) -> tensor<4x1x1x448xbf16, #ttnn_layout84> loc(#loc256)
        "ttnn.deallocate"(%5511) <{force = false}> : (tensor<4x1x1x448xbf16, #ttnn_layout84>) -> () loc(#loc256)
        %5513 = "ttnn.point_to_point"(%4582, %5512) <{receiver_coord = array<i64: 3, 15>, sender_coord = array<i64: 3, 12>}> : (tensor<4x1x1x448xbf16, #ttnn_layout84>, tensor<4x1x1x448xbf16, #ttnn_layout84>) -> tensor<4x1x1x448xbf16, #ttnn_layout84> loc(#loc256)
        "ttnn.deallocate"(%5512) <{force = false}> : (tensor<4x1x1x448xbf16, #ttnn_layout84>) -> () loc(#loc256)
        %5514 = "ttnn.point_to_point"(%4567, %5288) <{receiver_coord = array<i64: 3, 0>, sender_coord = array<i64: 3, 13>}> : (tensor<4x1x1x448xbf16, #ttnn_layout84>, tensor<4x1x1x448xbf16, #ttnn_layout84>) -> tensor<4x1x1x448xbf16, #ttnn_layout84> loc(#loc256)
        "ttnn.deallocate"(%5288) <{force = false}> : (tensor<4x1x1x448xbf16, #ttnn_layout84>) -> () loc(#loc256)
        %5515 = "ttnn.point_to_point"(%4568, %5514) <{receiver_coord = array<i64: 3, 1>, sender_coord = array<i64: 3, 13>}> : (tensor<4x1x1x448xbf16, #ttnn_layout84>, tensor<4x1x1x448xbf16, #ttnn_layout84>) -> tensor<4x1x1x448xbf16, #ttnn_layout84> loc(#loc256)
        "ttnn.deallocate"(%5514) <{force = false}> : (tensor<4x1x1x448xbf16, #ttnn_layout84>) -> () loc(#loc256)
        %5516 = "ttnn.point_to_point"(%4569, %5515) <{receiver_coord = array<i64: 3, 2>, sender_coord = array<i64: 3, 13>}> : (tensor<4x1x1x448xbf16, #ttnn_layout84>, tensor<4x1x1x448xbf16, #ttnn_layout84>) -> tensor<4x1x1x448xbf16, #ttnn_layout84> loc(#loc256)
        "ttnn.deallocate"(%5515) <{force = false}> : (tensor<4x1x1x448xbf16, #ttnn_layout84>) -> () loc(#loc256)
        %5517 = "ttnn.point_to_point"(%4570, %5516) <{receiver_coord = array<i64: 3, 3>, sender_coord = array<i64: 3, 13>}> : (tensor<4x1x1x448xbf16, #ttnn_layout84>, tensor<4x1x1x448xbf16, #ttnn_layout84>) -> tensor<4x1x1x448xbf16, #ttnn_layout84> loc(#loc256)
        "ttnn.deallocate"(%5516) <{force = false}> : (tensor<4x1x1x448xbf16, #ttnn_layout84>) -> () loc(#loc256)
        %5518 = "ttnn.point_to_point"(%4571, %5517) <{receiver_coord = array<i64: 3, 4>, sender_coord = array<i64: 3, 13>}> : (tensor<4x1x1x448xbf16, #ttnn_layout84>, tensor<4x1x1x448xbf16, #ttnn_layout84>) -> tensor<4x1x1x448xbf16, #ttnn_layout84> loc(#loc256)
        "ttnn.deallocate"(%5517) <{force = false}> : (tensor<4x1x1x448xbf16, #ttnn_layout84>) -> () loc(#loc256)
        %5519 = "ttnn.point_to_point"(%4572, %5518) <{receiver_coord = array<i64: 3, 5>, sender_coord = array<i64: 3, 13>}> : (tensor<4x1x1x448xbf16, #ttnn_layout84>, tensor<4x1x1x448xbf16, #ttnn_layout84>) -> tensor<4x1x1x448xbf16, #ttnn_layout84> loc(#loc256)
        "ttnn.deallocate"(%5518) <{force = false}> : (tensor<4x1x1x448xbf16, #ttnn_layout84>) -> () loc(#loc256)
        %5520 = "ttnn.point_to_point"(%4573, %5519) <{receiver_coord = array<i64: 3, 6>, sender_coord = array<i64: 3, 13>}> : (tensor<4x1x1x448xbf16, #ttnn_layout84>, tensor<4x1x1x448xbf16, #ttnn_layout84>) -> tensor<4x1x1x448xbf16, #ttnn_layout84> loc(#loc256)
        "ttnn.deallocate"(%5519) <{force = false}> : (tensor<4x1x1x448xbf16, #ttnn_layout84>) -> () loc(#loc256)
        %5521 = "ttnn.point_to_point"(%4574, %5520) <{receiver_coord = array<i64: 3, 7>, sender_coord = array<i64: 3, 13>}> : (tensor<4x1x1x448xbf16, #ttnn_layout84>, tensor<4x1x1x448xbf16, #ttnn_layout84>) -> tensor<4x1x1x448xbf16, #ttnn_layout84> loc(#loc256)
        "ttnn.deallocate"(%5520) <{force = false}> : (tensor<4x1x1x448xbf16, #ttnn_layout84>) -> () loc(#loc256)
        %5522 = "ttnn.point_to_point"(%4575, %5521) <{receiver_coord = array<i64: 3, 8>, sender_coord = array<i64: 3, 13>}> : (tensor<4x1x1x448xbf16, #ttnn_layout84>, tensor<4x1x1x448xbf16, #ttnn_layout84>) -> tensor<4x1x1x448xbf16, #ttnn_layout84> loc(#loc256)
        "ttnn.deallocate"(%5521) <{force = false}> : (tensor<4x1x1x448xbf16, #ttnn_layout84>) -> () loc(#loc256)
        %5523 = "ttnn.point_to_point"(%4576, %5522) <{receiver_coord = array<i64: 3, 9>, sender_coord = array<i64: 3, 13>}> : (tensor<4x1x1x448xbf16, #ttnn_layout84>, tensor<4x1x1x448xbf16, #ttnn_layout84>) -> tensor<4x1x1x448xbf16, #ttnn_layout84> loc(#loc256)
        "ttnn.deallocate"(%5522) <{force = false}> : (tensor<4x1x1x448xbf16, #ttnn_layout84>) -> () loc(#loc256)
        %5524 = "ttnn.point_to_point"(%4577, %5523) <{receiver_coord = array<i64: 3, 10>, sender_coord = array<i64: 3, 13>}> : (tensor<4x1x1x448xbf16, #ttnn_layout84>, tensor<4x1x1x448xbf16, #ttnn_layout84>) -> tensor<4x1x1x448xbf16, #ttnn_layout84> loc(#loc256)
        "ttnn.deallocate"(%5523) <{force = false}> : (tensor<4x1x1x448xbf16, #ttnn_layout84>) -> () loc(#loc256)
        %5525 = "ttnn.point_to_point"(%4578, %5524) <{receiver_coord = array<i64: 3, 11>, sender_coord = array<i64: 3, 13>}> : (tensor<4x1x1x448xbf16, #ttnn_layout84>, tensor<4x1x1x448xbf16, #ttnn_layout84>) -> tensor<4x1x1x448xbf16, #ttnn_layout84> loc(#loc256)
        "ttnn.deallocate"(%5524) <{force = false}> : (tensor<4x1x1x448xbf16, #ttnn_layout84>) -> () loc(#loc256)
        %5526 = "ttnn.point_to_point"(%4579, %5525) <{receiver_coord = array<i64: 3, 12>, sender_coord = array<i64: 3, 13>}> : (tensor<4x1x1x448xbf16, #ttnn_layout84>, tensor<4x1x1x448xbf16, #ttnn_layout84>) -> tensor<4x1x1x448xbf16, #ttnn_layout84> loc(#loc256)
        "ttnn.deallocate"(%5525) <{force = false}> : (tensor<4x1x1x448xbf16, #ttnn_layout84>) -> () loc(#loc256)
        %5527 = "ttnn.point_to_point"(%4581, %5526) <{receiver_coord = array<i64: 3, 14>, sender_coord = array<i64: 3, 13>}> : (tensor<4x1x1x448xbf16, #ttnn_layout84>, tensor<4x1x1x448xbf16, #ttnn_layout84>) -> tensor<4x1x1x448xbf16, #ttnn_layout84> loc(#loc256)
        "ttnn.deallocate"(%5526) <{force = false}> : (tensor<4x1x1x448xbf16, #ttnn_layout84>) -> () loc(#loc256)
        %5528 = "ttnn.point_to_point"(%4582, %5527) <{receiver_coord = array<i64: 3, 15>, sender_coord = array<i64: 3, 13>}> : (tensor<4x1x1x448xbf16, #ttnn_layout84>, tensor<4x1x1x448xbf16, #ttnn_layout84>) -> tensor<4x1x1x448xbf16, #ttnn_layout84> loc(#loc256)
        "ttnn.deallocate"(%5527) <{force = false}> : (tensor<4x1x1x448xbf16, #ttnn_layout84>) -> () loc(#loc256)
        %5529 = "ttnn.point_to_point"(%4567, %5303) <{receiver_coord = array<i64: 3, 0>, sender_coord = array<i64: 3, 14>}> : (tensor<4x1x1x448xbf16, #ttnn_layout84>, tensor<4x1x1x448xbf16, #ttnn_layout84>) -> tensor<4x1x1x448xbf16, #ttnn_layout84> loc(#loc256)
        "ttnn.deallocate"(%5303) <{force = false}> : (tensor<4x1x1x448xbf16, #ttnn_layout84>) -> () loc(#loc256)
        %5530 = "ttnn.point_to_point"(%4568, %5529) <{receiver_coord = array<i64: 3, 1>, sender_coord = array<i64: 3, 14>}> : (tensor<4x1x1x448xbf16, #ttnn_layout84>, tensor<4x1x1x448xbf16, #ttnn_layout84>) -> tensor<4x1x1x448xbf16, #ttnn_layout84> loc(#loc256)
        "ttnn.deallocate"(%5529) <{force = false}> : (tensor<4x1x1x448xbf16, #ttnn_layout84>) -> () loc(#loc256)
        %5531 = "ttnn.point_to_point"(%4569, %5530) <{receiver_coord = array<i64: 3, 2>, sender_coord = array<i64: 3, 14>}> : (tensor<4x1x1x448xbf16, #ttnn_layout84>, tensor<4x1x1x448xbf16, #ttnn_layout84>) -> tensor<4x1x1x448xbf16, #ttnn_layout84> loc(#loc256)
        "ttnn.deallocate"(%5530) <{force = false}> : (tensor<4x1x1x448xbf16, #ttnn_layout84>) -> () loc(#loc256)
        %5532 = "ttnn.point_to_point"(%4570, %5531) <{receiver_coord = array<i64: 3, 3>, sender_coord = array<i64: 3, 14>}> : (tensor<4x1x1x448xbf16, #ttnn_layout84>, tensor<4x1x1x448xbf16, #ttnn_layout84>) -> tensor<4x1x1x448xbf16, #ttnn_layout84> loc(#loc256)
        "ttnn.deallocate"(%5531) <{force = false}> : (tensor<4x1x1x448xbf16, #ttnn_layout84>) -> () loc(#loc256)
        %5533 = "ttnn.point_to_point"(%4571, %5532) <{receiver_coord = array<i64: 3, 4>, sender_coord = array<i64: 3, 14>}> : (tensor<4x1x1x448xbf16, #ttnn_layout84>, tensor<4x1x1x448xbf16, #ttnn_layout84>) -> tensor<4x1x1x448xbf16, #ttnn_layout84> loc(#loc256)
        "ttnn.deallocate"(%5532) <{force = false}> : (tensor<4x1x1x448xbf16, #ttnn_layout84>) -> () loc(#loc256)
        %5534 = "ttnn.point_to_point"(%4572, %5533) <{receiver_coord = array<i64: 3, 5>, sender_coord = array<i64: 3, 14>}> : (tensor<4x1x1x448xbf16, #ttnn_layout84>, tensor<4x1x1x448xbf16, #ttnn_layout84>) -> tensor<4x1x1x448xbf16, #ttnn_layout84> loc(#loc256)
        "ttnn.deallocate"(%5533) <{force = false}> : (tensor<4x1x1x448xbf16, #ttnn_layout84>) -> () loc(#loc256)
        %5535 = "ttnn.point_to_point"(%4573, %5534) <{receiver_coord = array<i64: 3, 6>, sender_coord = array<i64: 3, 14>}> : (tensor<4x1x1x448xbf16, #ttnn_layout84>, tensor<4x1x1x448xbf16, #ttnn_layout84>) -> tensor<4x1x1x448xbf16, #ttnn_layout84> loc(#loc256)
        "ttnn.deallocate"(%5534) <{force = false}> : (tensor<4x1x1x448xbf16, #ttnn_layout84>) -> () loc(#loc256)
        %5536 = "ttnn.point_to_point"(%4574, %5535) <{receiver_coord = array<i64: 3, 7>, sender_coord = array<i64: 3, 14>}> : (tensor<4x1x1x448xbf16, #ttnn_layout84>, tensor<4x1x1x448xbf16, #ttnn_layout84>) -> tensor<4x1x1x448xbf16, #ttnn_layout84> loc(#loc256)
        "ttnn.deallocate"(%5535) <{force = false}> : (tensor<4x1x1x448xbf16, #ttnn_layout84>) -> () loc(#loc256)
        %5537 = "ttnn.point_to_point"(%4575, %5536) <{receiver_coord = array<i64: 3, 8>, sender_coord = array<i64: 3, 14>}> : (tensor<4x1x1x448xbf16, #ttnn_layout84>, tensor<4x1x1x448xbf16, #ttnn_layout84>) -> tensor<4x1x1x448xbf16, #ttnn_layout84> loc(#loc256)
        "ttnn.deallocate"(%5536) <{force = false}> : (tensor<4x1x1x448xbf16, #ttnn_layout84>) -> () loc(#loc256)
        %5538 = "ttnn.point_to_point"(%4576, %5537) <{receiver_coord = array<i64: 3, 9>, sender_coord = array<i64: 3, 14>}> : (tensor<4x1x1x448xbf16, #ttnn_layout84>, tensor<4x1x1x448xbf16, #ttnn_layout84>) -> tensor<4x1x1x448xbf16, #ttnn_layout84> loc(#loc256)
        "ttnn.deallocate"(%5537) <{force = false}> : (tensor<4x1x1x448xbf16, #ttnn_layout84>) -> () loc(#loc256)
        %5539 = "ttnn.point_to_point"(%4577, %5538) <{receiver_coord = array<i64: 3, 10>, sender_coord = array<i64: 3, 14>}> : (tensor<4x1x1x448xbf16, #ttnn_layout84>, tensor<4x1x1x448xbf16, #ttnn_layout84>) -> tensor<4x1x1x448xbf16, #ttnn_layout84> loc(#loc256)
        "ttnn.deallocate"(%5538) <{force = false}> : (tensor<4x1x1x448xbf16, #ttnn_layout84>) -> () loc(#loc256)
        %5540 = "ttnn.point_to_point"(%4578, %5539) <{receiver_coord = array<i64: 3, 11>, sender_coord = array<i64: 3, 14>}> : (tensor<4x1x1x448xbf16, #ttnn_layout84>, tensor<4x1x1x448xbf16, #ttnn_layout84>) -> tensor<4x1x1x448xbf16, #ttnn_layout84> loc(#loc256)
        "ttnn.deallocate"(%5539) <{force = false}> : (tensor<4x1x1x448xbf16, #ttnn_layout84>) -> () loc(#loc256)
        %5541 = "ttnn.point_to_point"(%4579, %5540) <{receiver_coord = array<i64: 3, 12>, sender_coord = array<i64: 3, 14>}> : (tensor<4x1x1x448xbf16, #ttnn_layout84>, tensor<4x1x1x448xbf16, #ttnn_layout84>) -> tensor<4x1x1x448xbf16, #ttnn_layout84> loc(#loc256)
        "ttnn.deallocate"(%5540) <{force = false}> : (tensor<4x1x1x448xbf16, #ttnn_layout84>) -> () loc(#loc256)
        %5542 = "ttnn.point_to_point"(%4580, %5541) <{receiver_coord = array<i64: 3, 13>, sender_coord = array<i64: 3, 14>}> : (tensor<4x1x1x448xbf16, #ttnn_layout84>, tensor<4x1x1x448xbf16, #ttnn_layout84>) -> tensor<4x1x1x448xbf16, #ttnn_layout84> loc(#loc256)
        "ttnn.deallocate"(%5541) <{force = false}> : (tensor<4x1x1x448xbf16, #ttnn_layout84>) -> () loc(#loc256)
        %5543 = "ttnn.point_to_point"(%4582, %5542) <{receiver_coord = array<i64: 3, 15>, sender_coord = array<i64: 3, 14>}> : (tensor<4x1x1x448xbf16, #ttnn_layout84>, tensor<4x1x1x448xbf16, #ttnn_layout84>) -> tensor<4x1x1x448xbf16, #ttnn_layout84> loc(#loc256)
        "ttnn.deallocate"(%5542) <{force = false}> : (tensor<4x1x1x448xbf16, #ttnn_layout84>) -> () loc(#loc256)
        "ttnn.deallocate"(%4582) <{force = false}> : (tensor<4x1x1x448xbf16, #ttnn_layout84>) -> () loc(#loc256)
        %5544 = "ttnn.point_to_point"(%4567, %5318) <{receiver_coord = array<i64: 3, 0>, sender_coord = array<i64: 3, 15>}> : (tensor<4x1x1x448xbf16, #ttnn_layout84>, tensor<4x1x1x448xbf16, #ttnn_layout84>) -> tensor<4x1x1x448xbf16, #ttnn_layout84> loc(#loc256)
        "ttnn.deallocate"(%5318) <{force = false}> : (tensor<4x1x1x448xbf16, #ttnn_layout84>) -> () loc(#loc256)
        "ttnn.deallocate"(%4567) <{force = false}> : (tensor<4x1x1x448xbf16, #ttnn_layout84>) -> () loc(#loc256)
        %5545 = "ttnn.point_to_point"(%4568, %5544) <{receiver_coord = array<i64: 3, 1>, sender_coord = array<i64: 3, 15>}> : (tensor<4x1x1x448xbf16, #ttnn_layout84>, tensor<4x1x1x448xbf16, #ttnn_layout84>) -> tensor<4x1x1x448xbf16, #ttnn_layout84> loc(#loc256)
        "ttnn.deallocate"(%5544) <{force = false}> : (tensor<4x1x1x448xbf16, #ttnn_layout84>) -> () loc(#loc256)
        "ttnn.deallocate"(%4568) <{force = false}> : (tensor<4x1x1x448xbf16, #ttnn_layout84>) -> () loc(#loc256)
        %5546 = "ttnn.point_to_point"(%4569, %5545) <{receiver_coord = array<i64: 3, 2>, sender_coord = array<i64: 3, 15>}> : (tensor<4x1x1x448xbf16, #ttnn_layout84>, tensor<4x1x1x448xbf16, #ttnn_layout84>) -> tensor<4x1x1x448xbf16, #ttnn_layout84> loc(#loc256)
        "ttnn.deallocate"(%5545) <{force = false}> : (tensor<4x1x1x448xbf16, #ttnn_layout84>) -> () loc(#loc256)
        "ttnn.deallocate"(%4569) <{force = false}> : (tensor<4x1x1x448xbf16, #ttnn_layout84>) -> () loc(#loc256)
        %5547 = "ttnn.point_to_point"(%4570, %5546) <{receiver_coord = array<i64: 3, 3>, sender_coord = array<i64: 3, 15>}> : (tensor<4x1x1x448xbf16, #ttnn_layout84>, tensor<4x1x1x448xbf16, #ttnn_layout84>) -> tensor<4x1x1x448xbf16, #ttnn_layout84> loc(#loc256)
        "ttnn.deallocate"(%5546) <{force = false}> : (tensor<4x1x1x448xbf16, #ttnn_layout84>) -> () loc(#loc256)
        "ttnn.deallocate"(%4570) <{force = false}> : (tensor<4x1x1x448xbf16, #ttnn_layout84>) -> () loc(#loc256)
        %5548 = "ttnn.point_to_point"(%4571, %5547) <{receiver_coord = array<i64: 3, 4>, sender_coord = array<i64: 3, 15>}> : (tensor<4x1x1x448xbf16, #ttnn_layout84>, tensor<4x1x1x448xbf16, #ttnn_layout84>) -> tensor<4x1x1x448xbf16, #ttnn_layout84> loc(#loc256)
        "ttnn.deallocate"(%5547) <{force = false}> : (tensor<4x1x1x448xbf16, #ttnn_layout84>) -> () loc(#loc256)
        "ttnn.deallocate"(%4571) <{force = false}> : (tensor<4x1x1x448xbf16, #ttnn_layout84>) -> () loc(#loc256)
        %5549 = "ttnn.point_to_point"(%4572, %5548) <{receiver_coord = array<i64: 3, 5>, sender_coord = array<i64: 3, 15>}> : (tensor<4x1x1x448xbf16, #ttnn_layout84>, tensor<4x1x1x448xbf16, #ttnn_layout84>) -> tensor<4x1x1x448xbf16, #ttnn_layout84> loc(#loc256)
        "ttnn.deallocate"(%5548) <{force = false}> : (tensor<4x1x1x448xbf16, #ttnn_layout84>) -> () loc(#loc256)
        "ttnn.deallocate"(%4572) <{force = false}> : (tensor<4x1x1x448xbf16, #ttnn_layout84>) -> () loc(#loc256)
        %5550 = "ttnn.point_to_point"(%4573, %5549) <{receiver_coord = array<i64: 3, 6>, sender_coord = array<i64: 3, 15>}> : (tensor<4x1x1x448xbf16, #ttnn_layout84>, tensor<4x1x1x448xbf16, #ttnn_layout84>) -> tensor<4x1x1x448xbf16, #ttnn_layout84> loc(#loc256)
        "ttnn.deallocate"(%5549) <{force = false}> : (tensor<4x1x1x448xbf16, #ttnn_layout84>) -> () loc(#loc256)
        "ttnn.deallocate"(%4573) <{force = false}> : (tensor<4x1x1x448xbf16, #ttnn_layout84>) -> () loc(#loc256)
        %5551 = "ttnn.point_to_point"(%4574, %5550) <{receiver_coord = array<i64: 3, 7>, sender_coord = array<i64: 3, 15>}> : (tensor<4x1x1x448xbf16, #ttnn_layout84>, tensor<4x1x1x448xbf16, #ttnn_layout84>) -> tensor<4x1x1x448xbf16, #ttnn_layout84> loc(#loc256)
        "ttnn.deallocate"(%5550) <{force = false}> : (tensor<4x1x1x448xbf16, #ttnn_layout84>) -> () loc(#loc256)
        "ttnn.deallocate"(%4574) <{force = false}> : (tensor<4x1x1x448xbf16, #ttnn_layout84>) -> () loc(#loc256)
        %5552 = "ttnn.point_to_point"(%4575, %5551) <{receiver_coord = array<i64: 3, 8>, sender_coord = array<i64: 3, 15>}> : (tensor<4x1x1x448xbf16, #ttnn_layout84>, tensor<4x1x1x448xbf16, #ttnn_layout84>) -> tensor<4x1x1x448xbf16, #ttnn_layout84> loc(#loc256)
        "ttnn.deallocate"(%5551) <{force = false}> : (tensor<4x1x1x448xbf16, #ttnn_layout84>) -> () loc(#loc256)
        "ttnn.deallocate"(%4575) <{force = false}> : (tensor<4x1x1x448xbf16, #ttnn_layout84>) -> () loc(#loc256)
        %5553 = "ttnn.point_to_point"(%4576, %5552) <{receiver_coord = array<i64: 3, 9>, sender_coord = array<i64: 3, 15>}> : (tensor<4x1x1x448xbf16, #ttnn_layout84>, tensor<4x1x1x448xbf16, #ttnn_layout84>) -> tensor<4x1x1x448xbf16, #ttnn_layout84> loc(#loc256)
        "ttnn.deallocate"(%5552) <{force = false}> : (tensor<4x1x1x448xbf16, #ttnn_layout84>) -> () loc(#loc256)
        "ttnn.deallocate"(%4576) <{force = false}> : (tensor<4x1x1x448xbf16, #ttnn_layout84>) -> () loc(#loc256)
        %5554 = "ttnn.point_to_point"(%4577, %5553) <{receiver_coord = array<i64: 3, 10>, sender_coord = array<i64: 3, 15>}> : (tensor<4x1x1x448xbf16, #ttnn_layout84>, tensor<4x1x1x448xbf16, #ttnn_layout84>) -> tensor<4x1x1x448xbf16, #ttnn_layout84> loc(#loc256)
        "ttnn.deallocate"(%5553) <{force = false}> : (tensor<4x1x1x448xbf16, #ttnn_layout84>) -> () loc(#loc256)
        "ttnn.deallocate"(%4577) <{force = false}> : (tensor<4x1x1x448xbf16, #ttnn_layout84>) -> () loc(#loc256)
        %5555 = "ttnn.point_to_point"(%4578, %5554) <{receiver_coord = array<i64: 3, 11>, sender_coord = array<i64: 3, 15>}> : (tensor<4x1x1x448xbf16, #ttnn_layout84>, tensor<4x1x1x448xbf16, #ttnn_layout84>) -> tensor<4x1x1x448xbf16, #ttnn_layout84> loc(#loc256)
        "ttnn.deallocate"(%5554) <{force = false}> : (tensor<4x1x1x448xbf16, #ttnn_layout84>) -> () loc(#loc256)
        "ttnn.deallocate"(%4578) <{force = false}> : (tensor<4x1x1x448xbf16, #ttnn_layout84>) -> () loc(#loc256)
        %5556 = "ttnn.point_to_point"(%4579, %5555) <{receiver_coord = array<i64: 3, 12>, sender_coord = array<i64: 3, 15>}> : (tensor<4x1x1x448xbf16, #ttnn_layout84>, tensor<4x1x1x448xbf16, #ttnn_layout84>) -> tensor<4x1x1x448xbf16, #ttnn_layout84> loc(#loc256)
        "ttnn.deallocate"(%5555) <{force = false}> : (tensor<4x1x1x448xbf16, #ttnn_layout84>) -> () loc(#loc256)
        "ttnn.deallocate"(%4579) <{force = false}> : (tensor<4x1x1x448xbf16, #ttnn_layout84>) -> () loc(#loc256)
        %5557 = "ttnn.point_to_point"(%4580, %5556) <{receiver_coord = array<i64: 3, 13>, sender_coord = array<i64: 3, 15>}> : (tensor<4x1x1x448xbf16, #ttnn_layout84>, tensor<4x1x1x448xbf16, #ttnn_layout84>) -> tensor<4x1x1x448xbf16, #ttnn_layout84> loc(#loc256)
        "ttnn.deallocate"(%5556) <{force = false}> : (tensor<4x1x1x448xbf16, #ttnn_layout84>) -> () loc(#loc256)
        "ttnn.deallocate"(%4580) <{force = false}> : (tensor<4x1x1x448xbf16, #ttnn_layout84>) -> () loc(#loc256)
        %5558 = "ttnn.point_to_point"(%4581, %5557) <{receiver_coord = array<i64: 3, 14>, sender_coord = array<i64: 3, 15>}> : (tensor<4x1x1x448xbf16, #ttnn_layout84>, tensor<4x1x1x448xbf16, #ttnn_layout84>) -> tensor<4x1x1x448xbf16, #ttnn_layout84> loc(#loc256)
        "ttnn.deallocate"(%5557) <{force = false}> : (tensor<4x1x1x448xbf16, #ttnn_layout84>) -> () loc(#loc256)
        "ttnn.deallocate"(%4581) <{force = false}> : (tensor<4x1x1x448xbf16, #ttnn_layout84>) -> () loc(#loc256)
        %5559 = "ttnn.concat"(%5333, %5348, %5363, %5378, %5393, %5408, %5423, %5438, %5453, %5468, %5483, %5498, %5513, %5528, %5543, %5558) <{dim = 2 : si32}> : (tensor<4x1x1x448xbf16, #ttnn_layout84>, tensor<4x1x1x448xbf16, #ttnn_layout84>, tensor<4x1x1x448xbf16, #ttnn_layout84>, tensor<4x1x1x448xbf16, #ttnn_layout84>, tensor<4x1x1x448xbf16, #ttnn_layout84>, tensor<4x1x1x448xbf16, #ttnn_layout84>, tensor<4x1x1x448xbf16, #ttnn_layout84>, tensor<4x1x1x448xbf16, #ttnn_layout84>, tensor<4x1x1x448xbf16, #ttnn_layout84>, tensor<4x1x1x448xbf16, #ttnn_layout84>, tensor<4x1x1x448xbf16, #ttnn_layout84>, tensor<4x1x1x448xbf16, #ttnn_layout84>, tensor<4x1x1x448xbf16, #ttnn_layout84>, tensor<4x1x1x448xbf16, #ttnn_layout84>, tensor<4x1x1x448xbf16, #ttnn_layout84>, tensor<4x1x1x448xbf16, #ttnn_layout84>) -> tensor<4x1x16x448xbf16, #ttnn_layout84> loc(#loc256)
        "ttnn.deallocate"(%5558) <{force = false}> : (tensor<4x1x1x448xbf16, #ttnn_layout84>) -> () loc(#loc256)
        "ttnn.deallocate"(%5543) <{force = false}> : (tensor<4x1x1x448xbf16, #ttnn_layout84>) -> () loc(#loc256)
        "ttnn.deallocate"(%5528) <{force = false}> : (tensor<4x1x1x448xbf16, #ttnn_layout84>) -> () loc(#loc256)
        "ttnn.deallocate"(%5513) <{force = false}> : (tensor<4x1x1x448xbf16, #ttnn_layout84>) -> () loc(#loc256)
        "ttnn.deallocate"(%5498) <{force = false}> : (tensor<4x1x1x448xbf16, #ttnn_layout84>) -> () loc(#loc256)
        "ttnn.deallocate"(%5483) <{force = false}> : (tensor<4x1x1x448xbf16, #ttnn_layout84>) -> () loc(#loc256)
        "ttnn.deallocate"(%5468) <{force = false}> : (tensor<4x1x1x448xbf16, #ttnn_layout84>) -> () loc(#loc256)
        "ttnn.deallocate"(%5453) <{force = false}> : (tensor<4x1x1x448xbf16, #ttnn_layout84>) -> () loc(#loc256)
        "ttnn.deallocate"(%5438) <{force = false}> : (tensor<4x1x1x448xbf16, #ttnn_layout84>) -> () loc(#loc256)
        "ttnn.deallocate"(%5423) <{force = false}> : (tensor<4x1x1x448xbf16, #ttnn_layout84>) -> () loc(#loc256)
        "ttnn.deallocate"(%5408) <{force = false}> : (tensor<4x1x1x448xbf16, #ttnn_layout84>) -> () loc(#loc256)
        "ttnn.deallocate"(%5393) <{force = false}> : (tensor<4x1x1x448xbf16, #ttnn_layout84>) -> () loc(#loc256)
        "ttnn.deallocate"(%5378) <{force = false}> : (tensor<4x1x1x448xbf16, #ttnn_layout84>) -> () loc(#loc256)
        "ttnn.deallocate"(%5363) <{force = false}> : (tensor<4x1x1x448xbf16, #ttnn_layout84>) -> () loc(#loc256)
        "ttnn.deallocate"(%5348) <{force = false}> : (tensor<4x1x1x448xbf16, #ttnn_layout84>) -> () loc(#loc256)
        "ttnn.deallocate"(%5333) <{force = false}> : (tensor<4x1x1x448xbf16, #ttnn_layout84>) -> () loc(#loc256)
        %5560 = "ttnn.slice_static"(%5559) <{begins = [0 : i32, 0 : i32, 0 : i32, 0 : i32], ends = [4 : i32, 1 : i32, 1 : i32, 448 : i32], step = [1 : i32, 1 : i32, 1 : i32, 1 : i32]}> : (tensor<4x1x16x448xbf16, #ttnn_layout84>) -> tensor<4x1x1x448xbf16, #ttnn_layout84> loc(#loc256)
        "ttnn.deallocate"(%5559) <{force = false}> : (tensor<4x1x16x448xbf16, #ttnn_layout84>) -> () loc(#loc256)
        %5561 = "ttnn.reshape"(%5560) <{shape = [4 : i32, 448 : i32]}> : (tensor<4x1x1x448xbf16, #ttnn_layout84>) -> tensor<4x448xbf16, #ttnn_layout5> loc(#loc336)
        "ttnn.deallocate"(%5560) <{force = false}> : (tensor<4x1x1x448xbf16, #ttnn_layout84>) -> () loc(#loc336)
        %5562 = "ttnn.all_gather"(%5561) <{all_gather_dim = 0 : si32, cluster_axis = 0 : ui32}> : (tensor<4x448xbf16, #ttnn_layout5>) -> tensor<16x448xbf16, #ttnn_layout5> loc(#loc257)
        "ttnn.deallocate"(%5561) <{force = false}> : (tensor<4x448xbf16, #ttnn_layout5>) -> () loc(#loc257)
        %5563 = "ttnn.matmul"(%5562, %41) <{compute_config = #ttnn.device_compute_kernel_config<math_fidelity = hifi4, fp32_dest_acc_en = true>, transpose_a = false, transpose_b = true}> : (tensor<16x448xbf16, #ttnn_layout5>, tensor<40960x448x!ttcore.tile<32x32, bfp_bf8>, #ttnn_layout66>) -> tensor<16x40960xbf16, #ttnn_layout205> loc(#loc50)
        "ttnn.deallocate"(%5562) <{force = false}> : (tensor<16x448xbf16, #ttnn_layout5>) -> () loc(#loc50)
        "ttnn.deallocate"(%41) <{force = false}> : (tensor<40960x448x!ttcore.tile<32x32, bfp_bf8>, #ttnn_layout66>) -> () loc(#loc50)
        %5564 = "ttnn.reshape"(%5563) <{shape = [1 : i32, 1 : i32, 16 : i32, 40960 : i32]}> : (tensor<16x40960xbf16, #ttnn_layout205>) -> tensor<1x1x16x40960xbf16, #ttnn_layout206> loc(#loc358)
        "ttnn.deallocate"(%5563) <{force = false}> : (tensor<16x40960xbf16, #ttnn_layout205>) -> () loc(#loc358)
        %5565 = "ttnn.reduce_scatter"(%5564) <{cluster_axis = 1 : ui32, compute_config = #ttnn.device_compute_kernel_config<math_fidelity = hifi4, math_approx_mode = false, fp32_dest_acc_en = true, packer_l1_acc = false>, reduce_type = #ttcore.reduce_type<sum>, scatter_dim = 3 : si32}> : (tensor<1x1x16x40960xbf16, #ttnn_layout206>) -> tensor<1x1x16x2560xbf16, #ttnn_layout207> loc(#loc359)
        "ttnn.deallocate"(%5564) <{force = false}> : (tensor<1x1x16x40960xbf16, #ttnn_layout206>) -> () loc(#loc359)
        %5566 = "ttnn.reshape"(%5565) <{shape = [16 : i32, 2560 : i32]}> : (tensor<1x1x16x2560xbf16, #ttnn_layout207>) -> tensor<16x2560xbf16, #ttnn_layout208> loc(#loc337)
        "ttnn.deallocate"(%5565) <{force = false}> : (tensor<1x1x16x2560xbf16, #ttnn_layout207>) -> () loc(#loc337)
        %5567 = "ttnn.all_gather"(%5566) <{all_gather_dim = 1 : si32, cluster_axis = 1 : ui32}> : (tensor<16x2560xbf16, #ttnn_layout208>) -> tensor<16x40960xbf16, #ttnn_layout205> loc(#loc338)
        "ttnn.deallocate"(%5566) <{force = false}> : (tensor<16x2560xbf16, #ttnn_layout208>) -> () loc(#loc338)
        %5568 = "ttnn.typecast"(%5567) <{dtype = #ttcore.supportedDataTypes<f32>}> : (tensor<16x40960xbf16, #ttnn_layout205>) -> tensor<16x40960xf32, #ttnn_layout209> loc(#loc258)
        "ttnn.deallocate"(%5567) <{force = false}> : (tensor<16x40960xbf16, #ttnn_layout205>) -> () loc(#loc258)
        %5569 = "ttnn.reshape"(%5568) <{shape = [16 : i32, 1 : i32, 40960 : i32]}> : (tensor<16x40960xf32, #ttnn_layout209>) -> tensor<16x1x40960xf32, #ttnn_layout210> loc(#loc258)
        "ttnn.deallocate"(%5568) <{force = false}> : (tensor<16x40960xf32, #ttnn_layout209>) -> () loc(#loc258)
        %5570 = "ttnn.mesh_shard"(%47, %45) <{shard_dims = array<i64: 0, -1>, shard_direction = #ttcore.shard_direction<shard_to_full>, shard_shape = array<i64: 4, 1, 1, 1>, shard_type = #ttcore.shard_type<identity>}> : (tensor<4x1x128x512xbf16, #ttnn_layout78>, !ttnn.device) -> tensor<16x1x128x512xbf16, #ttnn_layout73> loc(#loc)
        %5571 = "ttnn.mesh_shard"(%48, %45) <{shard_dims = array<i64: 0, -1>, shard_direction = #ttcore.shard_direction<shard_to_full>, shard_shape = array<i64: 4, 1, 1, 1>, shard_type = #ttcore.shard_type<identity>}> : (tensor<4x1x128x64xbf16, #ttnn_layout79>, !ttnn.device) -> tensor<16x1x128x64xbf16, #ttnn_layout74> loc(#loc)
        %5572 = "ttnn.mesh_shard"(%49, %45) <{shard_dims = array<i64: 0, -1>, shard_direction = #ttcore.shard_direction<shard_to_full>, shard_shape = array<i64: 4, 1, 1, 1>, shard_type = #ttcore.shard_type<identity>}> : (tensor<4x1x128x512xbf16, #ttnn_layout78>, !ttnn.device) -> tensor<16x1x128x512xbf16, #ttnn_layout73> loc(#loc)
        %5573 = "ttnn.mesh_shard"(%50, %45) <{shard_dims = array<i64: 0, -1>, shard_direction = #ttcore.shard_direction<shard_to_full>, shard_shape = array<i64: 4, 1, 1, 1>, shard_type = #ttcore.shard_type<identity>}> : (tensor<4x1x128x64xbf16, #ttnn_layout79>, !ttnn.device) -> tensor<16x1x128x64xbf16, #ttnn_layout74> loc(#loc)
        %5574 = "ttnn.mesh_shard"(%5569, %45) <{shard_dims = array<i64: 2, -1>, shard_direction = #ttcore.shard_direction<shard_to_full>, shard_shape = array<i64: 1, 1, 4>, shard_type = #ttcore.shard_type<identity>}> : (tensor<16x1x40960xf32, #ttnn_layout210>, !ttnn.device) -> tensor<16x1x163840xf32, #ttnn_layout77> loc(#loc)
        return %5570, %5571, %5572, %5573, %9, %9, %5#0, %5#2, %5#0, %5#2, %5574 : tensor<16x1x128x512xbf16, #ttnn_layout73>, tensor<16x1x128x64xbf16, #ttnn_layout74>, tensor<16x1x128x512xbf16, #ttnn_layout73>, tensor<16x1x128x64xbf16, #ttnn_layout74>, tensor<32xf32, #ttnn_layout12>, tensor<32xf32, #ttnn_layout12>, tensor<128x64xbf16, #ttnn_layout16>, tensor<128x64xbf16, #ttnn_layout16>, tensor<128x64xbf16, #ttnn_layout16>, tensor<128x64xbf16, #ttnn_layout16>, tensor<16x1x163840xf32, #ttnn_layout77> loc(#loc)
      } loc(#loc)
    } loc(#loc)
  } loc(#loc)
} loc(#loc)
#loc1 = loc("gather.25")
#loc2 = loc("reshape.767")
#loc3 = loc("dot.378")
#loc4 = loc("scatter.1107")
#loc5 = loc("dot.898")
#loc6 = loc("multiply.174")
#loc7 = loc("concatenate.177")
#loc8 = loc("cosine.209")
#loc9 = loc("convert.212")
#loc10 = loc("gather.214")
#loc11 = loc("sine.178")
#loc12 = loc("convert.181")
#loc13 = loc("gather.183")
#loc14 = loc("dot.828")
#loc15 = loc("add.167")
#loc16 = loc("logistic.1027")
#loc17 = loc("reshape.1210")
#loc18 = loc("custom-call.1233")
#loc19 = loc("broadcast.349")
#loc20 = loc("dot.1001")
#loc21 = loc("dot.993")
#loc22 = loc("dot.470")
#loc23 = loc("reshape.746")
#loc24 = loc("dot.1009")
#loc25 = loc("dot.329")
#loc26 = loc("dot.862")
#loc27 = loc("dot.509")
#loc28 = loc("reshape.1017")
#loc29 = loc("reshape.1014")
#loc30 = loc("convert.1028")
#loc31 = loc("reshape.9")
#loc32 = loc("iota.1101")
#loc33 = loc("dot.414")
#loc34 = loc("dot.954")
#loc35 = loc("add.1165")
#loc36 = loc("custom-call.1196")
#loc37 = loc("broadcast.1139")
#loc38 = loc("convert.1022")
#loc39 = loc("dot.1026")
#loc40 = loc("reshape.268")
#loc41 = loc("dot.517")
#loc42 = loc("dot.525")
#loc43 = loc("reshape.248")
#loc44 = loc("reshape.1222")
#loc45 = loc("custom-call.1225")
#loc46 = loc("reshape.1214")
#loc47 = loc("custom-call.1217")
#loc48 = loc("dot.61")
#loc49 = loc("dot.564")
#loc50 = loc("dot.1291")
#loc51 = loc("dot.1171")
#loc52 = loc("iota.1150")
#loc92 = loc("convert.24")
#loc93 = loc("reshape.26")
#loc94 = loc("custom-call.59")
#loc95 = loc("reshape.377")
#loc96 = loc("custom-call.412")
#loc97 = loc("transpose.417")
#loc98 = loc("slice.435")
#loc99 = loc("slice.418")
#loc100 = loc("reshape.419")
#loc101 = loc("transpose.420")
#loc102 = loc("reshape.421")
#loc103 = loc("reshape.88")
#loc104 = loc("reshape.66")
#loc105 = loc("compare.204")
#loc106 = loc("add.201")
#loc107 = loc("select.205")
#loc108 = loc("broadcast.430")
#loc109 = loc("multiply.431")
#loc110 = loc("slice.423")
#loc111 = loc("negate.424")
#loc112 = loc("slice.422")
#loc113 = loc("concatenate.425")
#loc114 = loc("broadcast.427")
#loc115 = loc("multiply.428")
#loc116 = loc("add.434")
#loc117 = loc("concatenate.436")
#loc118 = loc("slice.63")
#loc119 = loc("scatter.85")
#loc120 = loc("custom-call.327")
#loc121 = loc("reshape.331")
#loc122 = loc("transpose.332")
#loc123 = loc("slice.354")
#loc124 = loc("slice.185")
#loc125 = loc("reshape.188")
#loc126 = loc("transpose.189")
#loc127 = loc("reshape.190")
#loc128 = loc("scatter.238")
#loc129 = loc("multiply.218")
#loc130 = loc("slice.192")
#loc131 = loc("negate.193")
#loc132 = loc("slice.191")
#loc133 = loc("concatenate.194")
#loc134 = loc("multiply.197")
#loc135 = loc("add.221")
#loc136 = loc("broadcast.353")
#loc137 = loc("concatenate.355")
#loc138 = loc("dot.437")
#loc139 = loc("multiply.440")
#loc140 = loc("compare.341")
#loc141 = loc("multiply.344")
#loc142 = loc("add.445")
#loc143 = loc("convert.446")
#loc144 = loc("divide.463")
#loc145 = loc("convert.464")
#loc146 = loc("slice.333")
#loc147 = loc("dot.465")
#loc148 = loc("reshape.469")
#loc149 = loc("add.474")
#loc150 = loc("custom-call.507")
#loc151 = loc("reshape.516")
#loc152 = loc("multiply.521")
#loc153 = loc("multiply.523")
#loc154 = loc("add.529")
#loc155 = loc("custom-call.562")
#loc156 = loc("reshape.861")
#loc157 = loc("custom-call.896")
#loc158 = loc("transpose.901")
#loc159 = loc("slice.919")
#loc160 = loc("slice.902")
#loc161 = loc("reshape.903")
#loc162 = loc("transpose.904")
#loc163 = loc("reshape.905")
#loc164 = loc("multiply.915")
#loc165 = loc("slice.907")
#loc166 = loc("negate.908")
#loc167 = loc("slice.906")
#loc168 = loc("concatenate.909")
#loc169 = loc("multiply.912")
#loc170 = loc("add.918")
#loc171 = loc("concatenate.920")
#loc172 = loc("slice.566")
#loc173 = loc("scatter.584")
#loc174 = loc("custom-call.826")
#loc175 = loc("reshape.830")
#loc176 = loc("transpose.831")
#loc177 = loc("slice.838")
#loc178 = loc("slice.683")
#loc179 = loc("reshape.686")
#loc180 = loc("transpose.687")
#loc181 = loc("reshape.688")
#loc182 = loc("scatter.736")
#loc183 = loc("multiply.716")
#loc184 = loc("slice.690")
#loc185 = loc("negate.691")
#loc186 = loc("slice.689")
#loc187 = loc("concatenate.692")
#loc188 = loc("multiply.695")
#loc189 = loc("add.719")
#loc190 = loc("broadcast.837")
#loc191 = loc("concatenate.839")
#loc192 = loc("dot.921")
#loc193 = loc("multiply.924")
#loc194 = loc("add.929")
#loc195 = loc("convert.930")
#loc196 = loc("divide.947")
#loc197 = loc("convert.948")
#loc198 = loc("slice.832")
#loc199 = loc("dot.949")
#loc200 = loc("reshape.953")
#loc201 = loc("add.958")
#loc202 = loc("custom-call.991")
#loc203 = loc("reshape.1024")
#loc204 = loc("convert.1025")
#loc205 = loc("add.1033")
#loc206 = loc("reshape.1046")
#loc207 = loc("reduce.1074")
#loc208 = loc("reshape.1102")
#loc209 = loc("concatenate.1103")
#loc210 = loc("reshape.1112")
#loc211 = loc("convert.1113")
#loc212 = loc("select.1116")
#loc213 = loc("not.1114")
#loc214 = loc("convert.1149")
#loc215 = loc("concatenate.1152")
#loc216 = loc("gather.1153")
#loc217 = loc("reduce.1161")
#loc218 = loc("divide.1168")
#loc219 = loc("multiply.1170")
#loc220 = loc("broadcast.1141")
#loc221 = loc("compare.1142")
#loc222 = loc("convert.1143")
#loc223 = loc("pad.1174")
#loc224 = loc("concatenate.1202")
#loc225 = loc("pad.1194")
#loc226 = loc("reshape.1195")
#loc227 = loc("convert.1136")
#loc228 = loc("pad.1177")
#loc229 = loc("reshape.1192")
#loc230 = loc("reshape.1199")
#loc231 = loc("custom-call.1205")
#loc232 = loc("reshape.1224")
#loc233 = loc("reshape.1219")
#loc234 = loc("reshape.1232")
#loc235 = loc("multiply.1229")
#loc236 = loc("multiply.1231")
#loc237 = loc("transpose.1234")
#loc238 = loc("reshape.1235")
#loc239 = loc("custom-call.1236")
#loc240 = loc("convert.1237")
#loc241 = loc("broadcast.1181")
#loc242 = loc("compare.1182")
#loc243 = loc("convert.1183")
#loc244 = loc("dot.1184")
#loc245 = loc("transpose.1186")
#loc246 = loc("broadcast.1239")
#loc247 = loc("multiply.1240")
#loc248 = loc("reduce.1247")
#loc249 = loc("reshape.1248")
#loc250 = loc("slice.1249")
#loc251 = loc("convert.1250")
#loc252 = loc("multiply.1005")
#loc253 = loc("multiply.1007")
#loc254 = loc("add.1253")
#loc255 = loc("add.1256")
#loc256 = loc("custom-call.1289")
#loc257 = loc("reshape.1290")
#loc258 = loc("convert.1293")
#loc259 = loc("gather.25_workaround"(#loc1))
#loc260 = loc("reshape.767_reshape_to_2d"(#loc2))
#loc261 = loc("reshape.767_all_gather_2d"(#loc2))
#loc262 = loc("scatter.1107_input_flatten"(#loc4))
#loc263 = loc("scatter.1107_workaround"(#loc4))
#loc264 = loc("gather.214_workaround"(#loc10))
#loc265 = loc("gather.183_workaround"(#loc13))
#loc266 = loc("logistic.1027_constant"(#loc16))
#loc267 = loc("broadcast.349_tm1"(#loc19))
#loc268 = loc("reshape.746_reshape_to_2d"(#loc23))
#loc269 = loc("reshape.746_all_gather_2d"(#loc23))
#loc270 = loc(fused[#loc28, #loc29])
#loc271 = loc("scatter.1107_update_flatten"(#loc4))
#loc272 = loc("reshape.9_reshape_to_2d"(#loc31))
#loc273 = loc("reshape.9_all_gather_2d"(#loc31))
#loc274 = loc("add.1165_tm0"(#loc35))
#loc275 = loc("custom-call.1196_workaround"(#loc36))
#loc276 = loc("reshape.268_reshape_to_2d"(#loc40))
#loc277 = loc("reshape.268_all_gather_2d"(#loc40))
#loc278 = loc("reshape.248_reshape_to_2d"(#loc43))
#loc279 = loc("reshape.248_all_gather_2d"(#loc43))
#loc280 = loc("dot.1171_reshapeLhs"(#loc51))
#loc281 = loc("broadcast.349_tm0"(#loc19))
#loc282 = loc(fused[#loc95, #loc94])
#loc283 = loc("dot.378_reduce_scatter"(#loc3))
#loc284 = loc("dot.378_all_gather"(#loc3))
#loc285 = loc(fused[#loc103, #loc104])
#loc286 = loc("select.205_workaround"(#loc107))
#loc287 = loc("dot.61_reshape"(#loc48))
#loc288 = loc("dot.61_allGather"(#loc48))
#loc289 = loc("scatter.85_workaround"(#loc119))
#loc290 = loc("scatter.238_tm0"(#loc128))
#loc291 = loc("dot.470_reshape_to_4d"(#loc22))
#loc292 = loc("dot.470_reduce_scatter_4d"(#loc22))
#loc293 = loc(fused[#loc151, #loc150])
#loc294 = loc("dot.517_reduce_scatter"(#loc41))
#loc295 = loc("dot.517_all_gather"(#loc41))
#loc296 = loc("dot.509_reduce_scatter"(#loc27))
#loc297 = loc("dot.509_all_gather"(#loc27))
#loc298 = loc("dot.525_reshape_to_4d"(#loc42))
#loc299 = loc("dot.525_reduce_scatter_4d"(#loc42))
#loc300 = loc(fused[#loc156, #loc155])
#loc301 = loc("dot.862_reduce_scatter"(#loc26))
#loc302 = loc("dot.862_all_gather"(#loc26))
#loc303 = loc("dot.564_reshape"(#loc49))
#loc304 = loc("dot.564_allGather"(#loc49))
#loc305 = loc("scatter.736_tm0"(#loc182))
#loc306 = loc("dot.954_reshape_to_4d"(#loc34))
#loc307 = loc("dot.954_reduce_scatter_4d"(#loc34))
#loc308 = loc(fused[#loc203, #loc202])
#loc309 = loc("dot.1026_reshape"(#loc39))
#loc310 = loc("dot.1026_allGather"(#loc39))
#loc311 = loc("scatter.1107_flatten_repeated_indices"(#loc4))
#loc312 = loc("scatter.1107_slice_orig_idx_0"(#loc4))
#loc313 = loc("scatter.1107_slice_orig_idx_1"(#loc4))
#loc314 = loc("scatter.1107_add_dim_1"(#loc4))
#loc315 = loc("scatter.1107_result_reshape"(#loc4))
#loc316 = loc(fused[#loc212, #loc213])
#loc317 = loc("gather.1153_reshapeInput"(#loc216))
#loc318 = loc("logistic.1027_typecast"(#loc16))
#loc319 = loc("gather.1153_workaround"(#loc216))
#loc320 = loc("gather.1153_reshapeOutput"(#loc216))
#loc321 = loc("dot.1171_reshapeOutput"(#loc51))
#loc322 = loc("custom-call.1205_workaround"(#loc231))
#loc323 = loc("custom-call.1225_workaround"(#loc45))
#loc324 = loc("reshape.1232_tm0"(#loc234))
#loc325 = loc("reshape.1232_tm1"(#loc234))
#loc326 = loc("custom-call.1233_workaround"(#loc18))
#loc327 = loc("custom-call.1236_workaround"(#loc239))
#loc328 = loc("custom-call.1236_reduce_scatter"(#loc239))
#loc329 = loc("custom-call.1236_all_gather"(#loc239))
#loc330 = loc("dot.1184_reshapeRhs"(#loc244))
#loc331 = loc("dot.1184_reshapeOutput"(#loc244))
#loc332 = loc("dot.1001_reduce_scatter"(#loc20))
#loc333 = loc("dot.1001_all_gather"(#loc20))
#loc334 = loc("dot.993_reduce_scatter"(#loc21))
#loc335 = loc("dot.993_all_gather"(#loc21))
#loc336 = loc(fused[#loc257, #loc256])
#loc337 = loc("dot.1291_reduce_scatter"(#loc50))
#loc338 = loc("dot.1291_all_gather"(#loc50))
#loc339 = loc("dot.1171_reshapeLhs_tm1"(#loc280))
#loc340 = loc("broadcast.349_tm0_tm0"(#loc281))
#loc341 = loc("dot.378_reduce_scatter_reshape_to_4d"(#loc283))
#loc342 = loc("dot.378_reduce_scatter_reduce_scatter_4d"(#loc283))
#loc343 = loc("scatter.238_tm0_tm0"(#loc290))
#loc344 = loc("broadcast.349_tm0_tm1"(#loc281))
#loc345 = loc("dot.517_reduce_scatter_reshape_to_4d"(#loc294))
#loc346 = loc("dot.517_reduce_scatter_reduce_scatter_4d"(#loc294))
#loc347 = loc("dot.509_reduce_scatter_reshape_to_4d"(#loc296))
#loc348 = loc("dot.509_reduce_scatter_reduce_scatter_4d"(#loc296))
#loc349 = loc("dot.862_reduce_scatter_reshape_to_4d"(#loc301))
#loc350 = loc("dot.862_reduce_scatter_reduce_scatter_4d"(#loc301))
#loc351 = loc("scatter.736_tm0_tm0"(#loc305))
#loc352 = loc("dot.1171_reshapeLhs_tm0"(#loc280))
#loc353 = loc("reshape.1232_tm0_tm0"(#loc324))
#loc354 = loc("dot.1001_reduce_scatter_reshape_to_4d"(#loc332))
#loc355 = loc("dot.1001_reduce_scatter_reduce_scatter_4d"(#loc332))
#loc356 = loc("dot.993_reduce_scatter_reshape_to_4d"(#loc334))
#loc357 = loc("dot.993_reduce_scatter_reduce_scatter_4d"(#loc334))
#loc358 = loc("dot.1291_reduce_scatter_reshape_to_4d"(#loc337))
#loc359 = loc("dot.1291_reduce_scatter_reduce_scatter_4d"(#loc337))
#loc360 = loc("dot.1171_reshapeLhs_tm0_tm0"(#loc352))
