WARNING:root:Defaulting to PJRT_DEVICE=CPU
============================= test session starts ==============================
platform linux -- Python 3.10.12, pytest-8.4.1, pluggy-1.6.0 -- /localdev/jameszianxu/test2/tt-torch/env/venv/bin/python3.10
cachedir: .pytest_cache
rootdir: /localdev/jameszianxu/test2/tt-torch
configfile: pytest.ini
plugins: cov-6.2.1, forked-1.6.0, xdist-3.8.0, split-0.10.0
collecting ... collected 1 item

tests/models/llama/test_llama3_generative.py::test_llama3_generate Loading checkpoint shards:   0%|          | 0/2 [00:00<?, ?it/s]Loading checkpoint shards: 100%|██████████| 2/2 [00:00<00:00, 48.50it/s]
2025-09-03 16:39:15.559617: W torch_xla/csrc/runtime/profiler.cpp:88] Profiler API not found for PJRT plugin
Initial prompt: '<|begin_of_text|>I like taking walks in the'
Setting up XLA environment...
XLA environment configured.
Created device mesh: (1, 2) with 2 devices
<|begin_of_text|>I like taking walks in theNote: Using experimental XLA backend.
[XLA Debug] Processing 18 input specs:
[XLA Debug] Input 0: kind=InputKind.PARAMETER, arg=TensorArgument(name='p__fx_const_folded_attrs_0'), target=_FX_CONST_FOLDED_ATTRS.0

[XLA Debug] Input 1: kind=InputKind.PARAMETER, arg=TensorArgument(name='p__fx_const_folded_attrs_1'), target=_FX_CONST_FOLDED_ATTRS.1

[XLA Debug] Input 2: kind=InputKind.BUFFER, arg=TensorArgument(name='b_kwargs____past_key_values___key_cache_0'), target=kwargs____past_key_values___key_cache_0

[XLA Debug] Input 3: kind=InputKind.BUFFER, arg=TensorArgument(name='b_kwargs____past_key_values___value_cache_0'), target=kwargs____past_key_values___value_cache_0

[XLA Debug] Input 4: kind=InputKind.USER_INPUT, arg=TensorArgument(name='args_0'), target=None
[XLA Debug] Input 5: kind=InputKind.USER_INPUT, arg=TensorArgument(name='args_1'), target=None
[XLA Debug] Input 6: kind=InputKind.USER_INPUT, arg=TensorArgument(name='args_2'), target=None
[XLA Debug] Input 7: kind=InputKind.USER_INPUT, arg=TensorArgument(name='args_3'), target=None
[XLA Debug] Input 8: kind=InputKind.USER_INPUT, arg=TensorArgument(name='args_4'), target=None
[XLA Debug] Input 9: kind=InputKind.USER_INPUT, arg=TensorArgument(name='args_5'), target=None
[XLA Debug] Input 10: kind=InputKind.USER_INPUT, arg=TensorArgument(name='args_6'), target=None
[XLA Debug] Input 11: kind=InputKind.USER_INPUT, arg=TensorArgument(name='args_7'), target=None
[XLA Debug] Input 12: kind=InputKind.USER_INPUT, arg=TensorArgument(name='args_8'), target=None
[XLA Debug] Input 13: kind=InputKind.USER_INPUT, arg=TensorArgument(name='args_9'), target=None
[XLA Debug] Input 14: kind=InputKind.USER_INPUT, arg=TensorArgument(name='args_10'), target=None
[XLA Debug] Input 15: kind=InputKind.USER_INPUT, arg=TensorArgument(name='args_11'), target=None
[XLA Debug] Input 16: kind=InputKind.USER_INPUT, arg=TensorArgument(name='args_12'), target=None
[XLA Debug] Input 17: kind=InputKind.USER_INPUT, arg=TensorArgument(name='args_13'), target=None
[XLA Debug] Initialization complete - total inputs: 18, user input indices: [4, 5, 6, 7, 8, 9, 10, 11, 12, 13, 14, 15, 16, 17]
[32m                 Always[0m | [1m[38;5;208m WARNING[0m | User provided a tensor of data type: Int64 which is not supported by runtime/ttnn. Casting to: Int32, this may impact throughput and the integrity of the data.
[32m                 Always[0m | [1m[38;5;208m WARNING[0m | User provided a tensor of data type: Int64 which is not supported by runtime/ttnn. Casting to: Int32, this may impact throughput and the integrity of the data.
[32m                 Always[0m | [1m[38;5;208m WARNING[0m | User provided a tensor of data type: Int64 which is not supported by runtime/ttnn. Casting to: Int32, this may impact throughput and the integrity of the data.
[32m                 Always[0m | [1m[38;5;208m WARNING[0m | User provided a tensor of data type: Int64 which is not supported by runtime/ttnn. Casting to: Int32, this may impact throughput and the integrity of the data.
[32m                 Always[0m | [1m[38;5;208m WARNING[0m | User provided a tensor of data type: Int64 which is not supported by runtime/ttnn. Casting to: Int32, this may impact throughput and the integrity of the data.
[32m                 Always[0m | [1m[38;5;208m WARNING[0m | User provided a tensor of data type: Int64 which is not supported by runtime/ttnn. Casting to: Int32, this may impact throughput and the integrity of the data.
[32m                 Always[0m | [1m[38;5;208m WARNING[0m | User provided a tensor of data type: Int64 which is not supported by runtime/ttnn. Casting to: Int32, this may impact throughput and the integrity of the data.
[32m                 Always[0m | [1m[38;5;208m WARNING[0m | User provided a tensor of data type: Int64 which is not supported by runtime/ttnn. Casting to: Int32, this may impact throughput and the integrity of the data.
module @SyncTensorsGraph.374 attributes {mhlo.cross_program_prefetches = [], mhlo.frontend_attributes = {xla.sdy.meshes = "{mesh = #sdy.mesh<[\22_axis_0\22=2]>}"}, mhlo.input_output_alias = [], mhlo.is_dynamic = false, mhlo.use_auto_spmd_partitioning = false} {
  vhlo.func_v1 @main(%arg0: !vhlo.tensor_v1<7x!vhlo.i64_v1>, %arg1: !vhlo.tensor_v1<64x!vhlo.f32_v1>, %arg2: !vhlo.tensor_v1<1024x3072x!vhlo.bf16_v1>, %arg3: !vhlo.tensor_v1<!vhlo.f32_v1>, %arg4: !vhlo.tensor_v1<1x7x!vhlo.i64_v1>, %arg5: !vhlo.tensor_v1<128256x3072x!vhlo.bf16_v1>, %arg6: !vhlo.tensor_v1<3072x!vhlo.bf16_v1>, %arg7: !vhlo.tensor_v1<!vhlo.i64_v1>, %arg8: !vhlo.tensor_v1<1x8x128x128x!vhlo.bf16_v1>, %arg9: !vhlo.tensor_v1<1024x3072x!vhlo.bf16_v1>, %arg10: !vhlo.tensor_v1<1x8x128x128x!vhlo.bf16_v1>, %arg11: !vhlo.tensor_v1<3072x8192x!vhlo.bf16_v1>, %arg12: !vhlo.tensor_v1<8192x3072x!vhlo.bf16_v1>, %arg13: !vhlo.tensor_v1<3072x3072x!vhlo.bf16_v1>, %arg14: !vhlo.tensor_v1<128x!vhlo.i64_v1>, %arg15: !vhlo.tensor_v1<7x128x!vhlo.bf16_v1>, %arg16: !vhlo.tensor_v1<!vhlo.f32_v1>, %arg17: !vhlo.tensor_v1<3072x3072x!vhlo.bf16_v1>, %arg18: !vhlo.tensor_v1<3072x!vhlo.bf16_v1>, %arg19: !vhlo.tensor_v1<8192x3072x!vhlo.bf16_v1>, %arg20: !vhlo.tensor_v1<3072x!vhlo.bf16_v1>) -> (!vhlo.tensor_v1<1x8x128x128x!vhlo.bf16_v1>, !vhlo.tensor_v1<1x8x128x128x!vhlo.bf16_v1>, !vhlo.tensor_v1<7x128256x!vhlo.bf16_v1>, !vhlo.tensor_v1<1x7x128256x!vhlo.bf16_v1>) {
    %0 = "vhlo.constant_v1"() <{value = #vhlo.tensor_v1<dense<0> : tensor<7xi64>>}> : () -> !vhlo.tensor_v1<7x!vhlo.i64_v1>
    %1 = "vhlo.constant_v1"() <{value = #vhlo.tensor_v1<dense<0.000000e+00> : tensor<f32>>}> : () -> !vhlo.tensor_v1<!vhlo.f32_v1>
    %2 = "vhlo.constant_v1"() <{value = #vhlo.tensor_v1<dense<0xFF800000> : tensor<f32>>}> : () -> !vhlo.tensor_v1<!vhlo.f32_v1>
    %3 = "vhlo.constant_v1"() <{value = #vhlo.tensor_v1<dense<3.25520843E-4> : tensor<1x7xf32>>}> : () -> !vhlo.tensor_v1<1x7x!vhlo.f32_v1>
    %4 = "vhlo.constant_v1"() <{value = #vhlo.tensor_v1<dense<2.000000e+00> : tensor<f32>>}> : () -> !vhlo.tensor_v1<!vhlo.f32_v1>
    %5 = "vhlo.broadcast_in_dim_v1"(%4) <{broadcast_dimensions = #vhlo.tensor_v1<dense<> : tensor<0xi64>>}> : (!vhlo.tensor_v1<!vhlo.f32_v1>) -> !vhlo.tensor_v1<1x7x3072x!vhlo.f32_v1>
    %6 = "vhlo.compare_v1"(%arg0, %0) <{compare_type = #vhlo<comparison_type_v1 NOTYPE>, comparison_direction = #vhlo<comparison_direction_v1 LT>}> : (!vhlo.tensor_v1<7x!vhlo.i64_v1>, !vhlo.tensor_v1<7x!vhlo.i64_v1>) -> !vhlo.tensor_v1<7x!vhlo.bool_v1>
    %7 = "vhlo.broadcast_in_dim_v1"(%arg7) <{broadcast_dimensions = #vhlo.tensor_v1<dense<> : tensor<0xi64>>}> : (!vhlo.tensor_v1<!vhlo.i64_v1>) -> !vhlo.tensor_v1<7x!vhlo.i64_v1>
    %8 = "vhlo.add_v1"(%arg0, %7) : (!vhlo.tensor_v1<7x!vhlo.i64_v1>, !vhlo.tensor_v1<7x!vhlo.i64_v1>) -> !vhlo.tensor_v1<7x!vhlo.i64_v1>
    %9 = "vhlo.select_v1"(%6, %8, %arg0) : (!vhlo.tensor_v1<7x!vhlo.bool_v1>, !vhlo.tensor_v1<7x!vhlo.i64_v1>, !vhlo.tensor_v1<7x!vhlo.i64_v1>) -> !vhlo.tensor_v1<7x!vhlo.i64_v1>
    %10 = "vhlo.reshape_v1"(%9) : (!vhlo.tensor_v1<7x!vhlo.i64_v1>) -> !vhlo.tensor_v1<7x1x!vhlo.i64_v1>
    %11 = "vhlo.convert_v1"(%arg6) : (!vhlo.tensor_v1<3072x!vhlo.bf16_v1>) -> !vhlo.tensor_v1<3072x!vhlo.f32_v1>
    %12 = "vhlo.broadcast_in_dim_v1"(%11) <{broadcast_dimensions = #vhlo.tensor_v1<dense<2> : tensor<1xi64>>}> : (!vhlo.tensor_v1<3072x!vhlo.f32_v1>) -> !vhlo.tensor_v1<1x7x3072x!vhlo.f32_v1>
    %13 = "vhlo.reshape_v1"(%arg4) : (!vhlo.tensor_v1<1x7x!vhlo.i64_v1>) -> !vhlo.tensor_v1<7x!vhlo.i64_v1>
    %14 = "vhlo.convert_v1"(%13) : (!vhlo.tensor_v1<7x!vhlo.i64_v1>) -> !vhlo.tensor_v1<7x!vhlo.ui32_v1>
    %15 = "vhlo.gather_v2"(%arg5, %14) <{collapsed_slice_dims = #vhlo.tensor_v1<dense<0> : tensor<1xi64>>, index_vector_dim = #vhlo.integer_v1<1 : i64>, indices_are_sorted = #vhlo.bool_v1<false>, offset_dims = #vhlo.tensor_v1<dense<1> : tensor<1xi64>>, operand_batching_dims = #vhlo.tensor_v1<dense<> : tensor<0xi64>>, slice_sizes = #vhlo.tensor_v1<dense<[1, 3072]> : tensor<2xi64>>, start_index_map = #vhlo.tensor_v1<dense<0> : tensor<1xi64>>, start_indices_batching_dims = #vhlo.tensor_v1<dense<> : tensor<0xi64>>}> : (!vhlo.tensor_v1<128256x3072x!vhlo.bf16_v1>, !vhlo.tensor_v1<7x!vhlo.ui32_v1>) -> !vhlo.tensor_v1<7x3072x!vhlo.bf16_v1>
    %16 = "vhlo.reshape_v1"(%15) : (!vhlo.tensor_v1<7x3072x!vhlo.bf16_v1>) -> !vhlo.tensor_v1<1x7x3072x!vhlo.bf16_v1>
    %17 = "vhlo.convert_v1"(%16) : (!vhlo.tensor_v1<1x7x3072x!vhlo.bf16_v1>) -> !vhlo.tensor_v1<1x7x3072x!vhlo.f32_v1>
    %18 = "vhlo.power_v1"(%17, %5) : (!vhlo.tensor_v1<1x7x3072x!vhlo.f32_v1>, !vhlo.tensor_v1<1x7x3072x!vhlo.f32_v1>) -> !vhlo.tensor_v1<1x7x3072x!vhlo.f32_v1>
    %19 = "vhlo.reduce_v1"(%18, %1) <{dimensions = #vhlo.tensor_v1<dense<2> : tensor<1xi64>>}> ({
    ^bb0(%arg21: !vhlo.tensor_v1<!vhlo.f32_v1>, %arg22: !vhlo.tensor_v1<!vhlo.f32_v1>):
      %189 = "vhlo.add_v1"(%arg21, %arg22) : (!vhlo.tensor_v1<!vhlo.f32_v1>, !vhlo.tensor_v1<!vhlo.f32_v1>) -> !vhlo.tensor_v1<!vhlo.f32_v1>
      "vhlo.return_v1"(%189) : (!vhlo.tensor_v1<!vhlo.f32_v1>) -> ()
    }) : (!vhlo.tensor_v1<1x7x3072x!vhlo.f32_v1>, !vhlo.tensor_v1<!vhlo.f32_v1>) -> !vhlo.tensor_v1<1x7x!vhlo.f32_v1>
    %20 = "vhlo.multiply_v1"(%19, %3) : (!vhlo.tensor_v1<1x7x!vhlo.f32_v1>, !vhlo.tensor_v1<1x7x!vhlo.f32_v1>) -> !vhlo.tensor_v1<1x7x!vhlo.f32_v1>
    %21 = "vhlo.reshape_v1"(%20) : (!vhlo.tensor_v1<1x7x!vhlo.f32_v1>) -> !vhlo.tensor_v1<1x7x1x!vhlo.f32_v1>
    %22 = "vhlo.broadcast_in_dim_v1"(%arg3) <{broadcast_dimensions = #vhlo.tensor_v1<dense<> : tensor<0xi64>>}> : (!vhlo.tensor_v1<!vhlo.f32_v1>) -> !vhlo.tensor_v1<1x7x1x!vhlo.f32_v1>
    %23 = "vhlo.add_v1"(%21, %22) : (!vhlo.tensor_v1<1x7x1x!vhlo.f32_v1>, !vhlo.tensor_v1<1x7x1x!vhlo.f32_v1>) -> !vhlo.tensor_v1<1x7x1x!vhlo.f32_v1>
    %24 = "vhlo.rsqrt_v2"(%23) <{result_accuracy = #vhlo.result_accuracy_v1<atol = 0.000000e+00, rtol = 0.000000e+00, ulps = 0, mode = #vhlo<result_accuracy_mode_v1 DEFAULT>>}> : (!vhlo.tensor_v1<1x7x1x!vhlo.f32_v1>) -> !vhlo.tensor_v1<1x7x1x!vhlo.f32_v1>
    %25 = "vhlo.reshape_v1"(%24) : (!vhlo.tensor_v1<1x7x1x!vhlo.f32_v1>) -> !vhlo.tensor_v1<1x7x!vhlo.f32_v1>
    %26 = "vhlo.broadcast_in_dim_v1"(%25) <{broadcast_dimensions = #vhlo.tensor_v1<dense<[0, 1]> : tensor<2xi64>>}> : (!vhlo.tensor_v1<1x7x!vhlo.f32_v1>) -> !vhlo.tensor_v1<1x7x3072x!vhlo.f32_v1>
    %27 = "vhlo.multiply_v1"(%17, %26) : (!vhlo.tensor_v1<1x7x3072x!vhlo.f32_v1>, !vhlo.tensor_v1<1x7x3072x!vhlo.f32_v1>) -> !vhlo.tensor_v1<1x7x3072x!vhlo.f32_v1>
    %28 = "vhlo.convert_v1"(%27) : (!vhlo.tensor_v1<1x7x3072x!vhlo.f32_v1>) -> !vhlo.tensor_v1<1x7x3072x!vhlo.bf16_v1>
    %29 = "vhlo.convert_v1"(%28) : (!vhlo.tensor_v1<1x7x3072x!vhlo.bf16_v1>) -> !vhlo.tensor_v1<1x7x3072x!vhlo.f32_v1>
    %30 = "vhlo.multiply_v1"(%12, %29) : (!vhlo.tensor_v1<1x7x3072x!vhlo.f32_v1>, !vhlo.tensor_v1<1x7x3072x!vhlo.f32_v1>) -> !vhlo.tensor_v1<1x7x3072x!vhlo.f32_v1>
    %31 = "vhlo.convert_v1"(%30) : (!vhlo.tensor_v1<1x7x3072x!vhlo.f32_v1>) -> !vhlo.tensor_v1<1x7x3072x!vhlo.bf16_v1>
    %32 = "vhlo.reshape_v1"(%31) : (!vhlo.tensor_v1<1x7x3072x!vhlo.bf16_v1>) -> !vhlo.tensor_v1<7x3072x!vhlo.bf16_v1>
    %33 = "vhlo.transpose_v1"(%arg2) <{permutation = #vhlo.tensor_v1<dense<[1, 0]> : tensor<2xi64>>}> {result_layout = #vhlo.tensor_v1<dense<[0, 1]> : tensor<2xindex>>, xla_shape = #vhlo.string_v1<"bf16[3072,1024]{0,1}">} : (!vhlo.tensor_v1<1024x3072x!vhlo.bf16_v1>) -> !vhlo.tensor_v1<3072x1024x!vhlo.bf16_v1>
    %34 = "vhlo.dot_general_v2"(%32, %33) <{accumulation_type = #vhlo.type_v1<!vhlo.none_v1>, allow_imprecise_accumulation = #vhlo.type_v1<!vhlo.none_v1>, lhs_batching_dimensions = #vhlo.tensor_v1<dense<> : tensor<0xi64>>, lhs_component_count = #vhlo.type_v1<!vhlo.none_v1>, lhs_contracting_dimensions = #vhlo.tensor_v1<dense<1> : tensor<1xi64>>, lhs_precision_type = #vhlo.type_v1<!vhlo.none_v1>, num_primitive_operations = #vhlo.type_v1<!vhlo.none_v1>, precision_config = #vhlo.array_v1<[#vhlo<precision_v1 DEFAULT>, #vhlo<precision_v1 DEFAULT>]>, rhs_batching_dimensions = #vhlo.tensor_v1<dense<> : tensor<0xi64>>, rhs_component_count = #vhlo.type_v1<!vhlo.none_v1>, rhs_contracting_dimensions = #vhlo.tensor_v1<dense<0> : tensor<1xi64>>, rhs_precision_type = #vhlo.type_v1<!vhlo.none_v1>}> : (!vhlo.tensor_v1<7x3072x!vhlo.bf16_v1>, !vhlo.tensor_v1<3072x1024x!vhlo.bf16_v1>) -> !vhlo.tensor_v1<7x1024x!vhlo.bf16_v1>
    %35 = "vhlo.reshape_v1"(%34) : (!vhlo.tensor_v1<7x1024x!vhlo.bf16_v1>) -> !vhlo.tensor_v1<1x7x8x128x!vhlo.bf16_v1>
    %36 = "vhlo.transpose_v1"(%35) <{permutation = #vhlo.tensor_v1<dense<[0, 2, 1, 3]> : tensor<4xi64>>}> {result_layout = #vhlo.tensor_v1<dense<[3, 1, 2, 0]> : tensor<4xindex>>, xla_shape = #vhlo.string_v1<"bf16[1,8,7,128]{3,1,2,0}">} : (!vhlo.tensor_v1<1x7x8x128x!vhlo.bf16_v1>) -> !vhlo.tensor_v1<1x8x7x128x!vhlo.bf16_v1>
    %37 = "vhlo.convert_v1"(%36) {result_layout = #vhlo.tensor_v1<dense<[3, 1, 2, 0]> : tensor<4xindex>>, xla_shape = #vhlo.string_v1<"f32[1,8,7,128]{3,1,2,0}">} : (!vhlo.tensor_v1<1x8x7x128x!vhlo.bf16_v1>) -> !vhlo.tensor_v1<1x8x7x128x!vhlo.f32_v1>
    %38 = "vhlo.reshape_v1"(%arg1) : (!vhlo.tensor_v1<64x!vhlo.f32_v1>) -> !vhlo.tensor_v1<1x64x1x!vhlo.f32_v1>
    %39 = "vhlo.reshape_v1"(%arg0) : (!vhlo.tensor_v1<7x!vhlo.i64_v1>) -> !vhlo.tensor_v1<1x1x7x!vhlo.i64_v1>
    %40 = "vhlo.convert_v1"(%39) : (!vhlo.tensor_v1<1x1x7x!vhlo.i64_v1>) -> !vhlo.tensor_v1<1x1x7x!vhlo.f32_v1>
    %41 = "vhlo.dot_general_v2"(%38, %40) <{accumulation_type = #vhlo.type_v1<!vhlo.none_v1>, allow_imprecise_accumulation = #vhlo.type_v1<!vhlo.none_v1>, lhs_batching_dimensions = #vhlo.tensor_v1<dense<0> : tensor<1xi64>>, lhs_component_count = #vhlo.type_v1<!vhlo.none_v1>, lhs_contracting_dimensions = #vhlo.tensor_v1<dense<2> : tensor<1xi64>>, lhs_precision_type = #vhlo.type_v1<!vhlo.none_v1>, num_primitive_operations = #vhlo.type_v1<!vhlo.none_v1>, precision_config = #vhlo.array_v1<[#vhlo<precision_v1 DEFAULT>, #vhlo<precision_v1 DEFAULT>]>, rhs_batching_dimensions = #vhlo.tensor_v1<dense<0> : tensor<1xi64>>, rhs_component_count = #vhlo.type_v1<!vhlo.none_v1>, rhs_contracting_dimensions = #vhlo.tensor_v1<dense<1> : tensor<1xi64>>, rhs_precision_type = #vhlo.type_v1<!vhlo.none_v1>}> : (!vhlo.tensor_v1<1x64x1x!vhlo.f32_v1>, !vhlo.tensor_v1<1x1x7x!vhlo.f32_v1>) -> !vhlo.tensor_v1<1x64x7x!vhlo.f32_v1>
    %42 = "vhlo.transpose_v1"(%41) <{permutation = #vhlo.tensor_v1<dense<[0, 2, 1]> : tensor<3xi64>>}> {result_layout = #vhlo.tensor_v1<dense<[1, 2, 0]> : tensor<3xindex>>, xla_shape = #vhlo.string_v1<"f32[1,7,64]{1,2,0}">} : (!vhlo.tensor_v1<1x64x7x!vhlo.f32_v1>) -> !vhlo.tensor_v1<1x7x64x!vhlo.f32_v1>
    %43 = "vhlo.concatenate_v1"(%42, %42) <{dimension = #vhlo.integer_v1<2 : i64>}> : (!vhlo.tensor_v1<1x7x64x!vhlo.f32_v1>, !vhlo.tensor_v1<1x7x64x!vhlo.f32_v1>) -> !vhlo.tensor_v1<1x7x128x!vhlo.f32_v1>
    %44 = "vhlo.cosine_v2"(%43) <{result_accuracy = #vhlo.result_accuracy_v1<atol = 0.000000e+00, rtol = 0.000000e+00, ulps = 0, mode = #vhlo<result_accuracy_mode_v1 DEFAULT>>}> : (!vhlo.tensor_v1<1x7x128x!vhlo.f32_v1>) -> !vhlo.tensor_v1<1x7x128x!vhlo.f32_v1>
    %45 = "vhlo.convert_v1"(%44) : (!vhlo.tensor_v1<1x7x128x!vhlo.f32_v1>) -> !vhlo.tensor_v1<1x7x128x!vhlo.bf16_v1>
    %46 = "vhlo.reshape_v1"(%45) : (!vhlo.tensor_v1<1x7x128x!vhlo.bf16_v1>) -> !vhlo.tensor_v1<1x1x7x128x!vhlo.bf16_v1>
    %47 = "vhlo.convert_v1"(%46) : (!vhlo.tensor_v1<1x1x7x128x!vhlo.bf16_v1>) -> !vhlo.tensor_v1<1x1x7x128x!vhlo.f32_v1>
    %48 = "vhlo.reshape_v1"(%47) : (!vhlo.tensor_v1<1x1x7x128x!vhlo.f32_v1>) -> !vhlo.tensor_v1<1x7x128x!vhlo.f32_v1>
    %49 = "vhlo.broadcast_in_dim_v1"(%48) <{broadcast_dimensions = #vhlo.tensor_v1<dense<[0, 2, 3]> : tensor<3xi64>>}> : (!vhlo.tensor_v1<1x7x128x!vhlo.f32_v1>) -> !vhlo.tensor_v1<1x8x7x128x!vhlo.f32_v1>
    %50 = "vhlo.multiply_v1"(%37, %49) : (!vhlo.tensor_v1<1x8x7x128x!vhlo.f32_v1>, !vhlo.tensor_v1<1x8x7x128x!vhlo.f32_v1>) -> !vhlo.tensor_v1<1x8x7x128x!vhlo.f32_v1>
    %51 = "vhlo.convert_v1"(%50) : (!vhlo.tensor_v1<1x8x7x128x!vhlo.f32_v1>) -> !vhlo.tensor_v1<1x8x7x128x!vhlo.bf16_v1>
    %52 = "vhlo.slice_v1"(%36) <{limit_indices = #vhlo.tensor_v1<dense<[1, 8, 7, 128]> : tensor<4xi64>>, start_indices = #vhlo.tensor_v1<dense<[0, 0, 0, 64]> : tensor<4xi64>>, strides = #vhlo.tensor_v1<dense<1> : tensor<4xi64>>}> : (!vhlo.tensor_v1<1x8x7x128x!vhlo.bf16_v1>) -> !vhlo.tensor_v1<1x8x7x64x!vhlo.bf16_v1>
    %53 = "vhlo.negate_v1"(%52) : (!vhlo.tensor_v1<1x8x7x64x!vhlo.bf16_v1>) -> !vhlo.tensor_v1<1x8x7x64x!vhlo.bf16_v1>
    %54 = "vhlo.slice_v1"(%36) <{limit_indices = #vhlo.tensor_v1<dense<[1, 8, 7, 64]> : tensor<4xi64>>, start_indices = #vhlo.tensor_v1<dense<0> : tensor<4xi64>>, strides = #vhlo.tensor_v1<dense<1> : tensor<4xi64>>}> : (!vhlo.tensor_v1<1x8x7x128x!vhlo.bf16_v1>) -> !vhlo.tensor_v1<1x8x7x64x!vhlo.bf16_v1>
    %55 = "vhlo.concatenate_v1"(%53, %54) <{dimension = #vhlo.integer_v1<3 : i64>}> : (!vhlo.tensor_v1<1x8x7x64x!vhlo.bf16_v1>, !vhlo.tensor_v1<1x8x7x64x!vhlo.bf16_v1>) -> !vhlo.tensor_v1<1x8x7x128x!vhlo.bf16_v1>
    %56 = "vhlo.convert_v1"(%55) : (!vhlo.tensor_v1<1x8x7x128x!vhlo.bf16_v1>) -> !vhlo.tensor_v1<1x8x7x128x!vhlo.f32_v1>
    %57 = "vhlo.sine_v2"(%43) <{result_accuracy = #vhlo.result_accuracy_v1<atol = 0.000000e+00, rtol = 0.000000e+00, ulps = 0, mode = #vhlo<result_accuracy_mode_v1 DEFAULT>>}> : (!vhlo.tensor_v1<1x7x128x!vhlo.f32_v1>) -> !vhlo.tensor_v1<1x7x128x!vhlo.f32_v1>
    %58 = "vhlo.convert_v1"(%57) : (!vhlo.tensor_v1<1x7x128x!vhlo.f32_v1>) -> !vhlo.tensor_v1<1x7x128x!vhlo.bf16_v1>
    %59 = "vhlo.reshape_v1"(%58) : (!vhlo.tensor_v1<1x7x128x!vhlo.bf16_v1>) -> !vhlo.tensor_v1<1x1x7x128x!vhlo.bf16_v1>
    %60 = "vhlo.convert_v1"(%59) : (!vhlo.tensor_v1<1x1x7x128x!vhlo.bf16_v1>) -> !vhlo.tensor_v1<1x1x7x128x!vhlo.f32_v1>
    %61 = "vhlo.reshape_v1"(%60) : (!vhlo.tensor_v1<1x1x7x128x!vhlo.f32_v1>) -> !vhlo.tensor_v1<1x7x128x!vhlo.f32_v1>
    %62 = "vhlo.broadcast_in_dim_v1"(%61) <{broadcast_dimensions = #vhlo.tensor_v1<dense<[0, 2, 3]> : tensor<3xi64>>}> : (!vhlo.tensor_v1<1x7x128x!vhlo.f32_v1>) -> !vhlo.tensor_v1<1x8x7x128x!vhlo.f32_v1>
    %63 = "vhlo.multiply_v1"(%56, %62) : (!vhlo.tensor_v1<1x8x7x128x!vhlo.f32_v1>, !vhlo.tensor_v1<1x8x7x128x!vhlo.f32_v1>) -> !vhlo.tensor_v1<1x8x7x128x!vhlo.f32_v1>
    %64 = "vhlo.convert_v1"(%63) : (!vhlo.tensor_v1<1x8x7x128x!vhlo.f32_v1>) -> !vhlo.tensor_v1<1x8x7x128x!vhlo.bf16_v1>
    %65 = "vhlo.add_v1"(%51, %64) : (!vhlo.tensor_v1<1x8x7x128x!vhlo.bf16_v1>, !vhlo.tensor_v1<1x8x7x128x!vhlo.bf16_v1>) -> !vhlo.tensor_v1<1x8x7x128x!vhlo.bf16_v1>
    %66 = "vhlo.scatter_v2"(%arg8, %10, %65) <{index_vector_dim = #vhlo.integer_v1<1 : i64>, indices_are_sorted = #vhlo.bool_v1<false>, input_batching_dims = #vhlo.tensor_v1<dense<> : tensor<0xi64>>, inserted_window_dims = #vhlo.tensor_v1<dense<2> : tensor<1xi64>>, scatter_dims_to_operand_dims = #vhlo.tensor_v1<dense<2> : tensor<1xi64>>, scatter_indices_batching_dims = #vhlo.tensor_v1<dense<> : tensor<0xi64>>, unique_indices = #vhlo.bool_v1<false>, update_window_dims = #vhlo.tensor_v1<dense<[0, 1, 3]> : tensor<3xi64>>}> ({
    ^bb0(%arg21: !vhlo.tensor_v1<!vhlo.bf16_v1>, %arg22: !vhlo.tensor_v1<!vhlo.bf16_v1>):
      "vhlo.return_v1"(%arg22) : (!vhlo.tensor_v1<!vhlo.bf16_v1>) -> ()
    }) : (!vhlo.tensor_v1<1x8x128x128x!vhlo.bf16_v1>, !vhlo.tensor_v1<7x1x!vhlo.i64_v1>, !vhlo.tensor_v1<1x8x7x128x!vhlo.bf16_v1>) -> !vhlo.tensor_v1<1x8x128x128x!vhlo.bf16_v1>
    %67 = "vhlo.custom_call_v1"(%66) <{api_version = #vhlo<api_version_v1 API_VERSION_ORIGINAL>, backend_config = #vhlo.string_v1<"">, call_target_name = #vhlo.string_v1<"Sharding">, called_computations = #vhlo.array_v1<[]>, has_side_effect = #vhlo.bool_v1<false>, operand_layouts = #vhlo.array_v1<[]>, output_operand_aliases = #vhlo.array_v1<[]>, result_layouts = #vhlo.array_v1<[]>}> {mhlo.frontend_attributes = #vhlo.dict_v1<{#vhlo.string_v1<"xla.sdy.sharding"> = #vhlo.string_v1<"#sdy.sharding_per_value<[<@mesh, [{}, {\22_axis_0\22}, {}, {}]>]>">}>, mhlo.sharding = #vhlo.string_v1<"{devices=[1,2,1,1]<=[2]}">} : (!vhlo.tensor_v1<1x8x128x128x!vhlo.bf16_v1>) -> !vhlo.tensor_v1<1x8x128x128x!vhlo.bf16_v1>
    %68 = "vhlo.transpose_v1"(%arg9) <{permutation = #vhlo.tensor_v1<dense<[1, 0]> : tensor<2xi64>>}> {result_layout = #vhlo.tensor_v1<dense<[0, 1]> : tensor<2xindex>>, xla_shape = #vhlo.string_v1<"bf16[3072,1024]{0,1}">} : (!vhlo.tensor_v1<1024x3072x!vhlo.bf16_v1>) -> !vhlo.tensor_v1<3072x1024x!vhlo.bf16_v1>
    %69 = "vhlo.dot_general_v2"(%32, %68) <{accumulation_type = #vhlo.type_v1<!vhlo.none_v1>, allow_imprecise_accumulation = #vhlo.type_v1<!vhlo.none_v1>, lhs_batching_dimensions = #vhlo.tensor_v1<dense<> : tensor<0xi64>>, lhs_component_count = #vhlo.type_v1<!vhlo.none_v1>, lhs_contracting_dimensions = #vhlo.tensor_v1<dense<1> : tensor<1xi64>>, lhs_precision_type = #vhlo.type_v1<!vhlo.none_v1>, num_primitive_operations = #vhlo.type_v1<!vhlo.none_v1>, precision_config = #vhlo.array_v1<[#vhlo<precision_v1 DEFAULT>, #vhlo<precision_v1 DEFAULT>]>, rhs_batching_dimensions = #vhlo.tensor_v1<dense<> : tensor<0xi64>>, rhs_component_count = #vhlo.type_v1<!vhlo.none_v1>, rhs_contracting_dimensions = #vhlo.tensor_v1<dense<0> : tensor<1xi64>>, rhs_precision_type = #vhlo.type_v1<!vhlo.none_v1>}> : (!vhlo.tensor_v1<7x3072x!vhlo.bf16_v1>, !vhlo.tensor_v1<3072x1024x!vhlo.bf16_v1>) -> !vhlo.tensor_v1<7x1024x!vhlo.bf16_v1>
    %70 = "vhlo.reshape_v1"(%69) : (!vhlo.tensor_v1<7x1024x!vhlo.bf16_v1>) -> !vhlo.tensor_v1<1x7x8x128x!vhlo.bf16_v1>
    %71 = "vhlo.transpose_v1"(%70) <{permutation = #vhlo.tensor_v1<dense<[0, 2, 1, 3]> : tensor<4xi64>>}> {result_layout = #vhlo.tensor_v1<dense<[3, 1, 2, 0]> : tensor<4xindex>>, xla_shape = #vhlo.string_v1<"bf16[1,8,7,128]{3,1,2,0}">} : (!vhlo.tensor_v1<1x7x8x128x!vhlo.bf16_v1>) -> !vhlo.tensor_v1<1x8x7x128x!vhlo.bf16_v1>
    %72 = "vhlo.scatter_v2"(%arg10, %10, %71) <{index_vector_dim = #vhlo.integer_v1<1 : i64>, indices_are_sorted = #vhlo.bool_v1<false>, input_batching_dims = #vhlo.tensor_v1<dense<> : tensor<0xi64>>, inserted_window_dims = #vhlo.tensor_v1<dense<2> : tensor<1xi64>>, scatter_dims_to_operand_dims = #vhlo.tensor_v1<dense<2> : tensor<1xi64>>, scatter_indices_batching_dims = #vhlo.tensor_v1<dense<> : tensor<0xi64>>, unique_indices = #vhlo.bool_v1<false>, update_window_dims = #vhlo.tensor_v1<dense<[0, 1, 3]> : tensor<3xi64>>}> ({
    ^bb0(%arg21: !vhlo.tensor_v1<!vhlo.bf16_v1>, %arg22: !vhlo.tensor_v1<!vhlo.bf16_v1>):
      "vhlo.return_v1"(%arg22) : (!vhlo.tensor_v1<!vhlo.bf16_v1>) -> ()
    }) : (!vhlo.tensor_v1<1x8x128x128x!vhlo.bf16_v1>, !vhlo.tensor_v1<7x1x!vhlo.i64_v1>, !vhlo.tensor_v1<1x8x7x128x!vhlo.bf16_v1>) -> !vhlo.tensor_v1<1x8x128x128x!vhlo.bf16_v1>
    %73 = "vhlo.custom_call_v1"(%72) <{api_version = #vhlo<api_version_v1 API_VERSION_ORIGINAL>, backend_config = #vhlo.string_v1<"">, call_target_name = #vhlo.string_v1<"Sharding">, called_computations = #vhlo.array_v1<[]>, has_side_effect = #vhlo.bool_v1<false>, operand_layouts = #vhlo.array_v1<[]>, output_operand_aliases = #vhlo.array_v1<[]>, result_layouts = #vhlo.array_v1<[]>}> {mhlo.frontend_attributes = #vhlo.dict_v1<{#vhlo.string_v1<"xla.sdy.sharding"> = #vhlo.string_v1<"#sdy.sharding_per_value<[<@mesh, [{}, {\22_axis_0\22}, {}, {}]>]>">}>, mhlo.sharding = #vhlo.string_v1<"{devices=[1,2,1,1]<=[2]}">} : (!vhlo.tensor_v1<1x8x128x128x!vhlo.bf16_v1>) -> !vhlo.tensor_v1<1x8x128x128x!vhlo.bf16_v1>
    %74 = "vhlo.convert_v1"(%arg20) : (!vhlo.tensor_v1<3072x!vhlo.bf16_v1>) -> !vhlo.tensor_v1<3072x!vhlo.f32_v1>
    %75 = "vhlo.broadcast_in_dim_v1"(%74) <{broadcast_dimensions = #vhlo.tensor_v1<dense<2> : tensor<1xi64>>}> : (!vhlo.tensor_v1<3072x!vhlo.f32_v1>) -> !vhlo.tensor_v1<1x7x3072x!vhlo.f32_v1>
    %76 = "vhlo.transpose_v1"(%arg17) <{permutation = #vhlo.tensor_v1<dense<[1, 0]> : tensor<2xi64>>}> {result_layout = #vhlo.tensor_v1<dense<[0, 1]> : tensor<2xindex>>, xla_shape = #vhlo.string_v1<"bf16[3072,3072]{0,1}">} : (!vhlo.tensor_v1<3072x3072x!vhlo.bf16_v1>) -> !vhlo.tensor_v1<3072x3072x!vhlo.bf16_v1>
    %77 = "vhlo.dot_general_v2"(%32, %76) <{accumulation_type = #vhlo.type_v1<!vhlo.none_v1>, allow_imprecise_accumulation = #vhlo.type_v1<!vhlo.none_v1>, lhs_batching_dimensions = #vhlo.tensor_v1<dense<> : tensor<0xi64>>, lhs_component_count = #vhlo.type_v1<!vhlo.none_v1>, lhs_contracting_dimensions = #vhlo.tensor_v1<dense<1> : tensor<1xi64>>, lhs_precision_type = #vhlo.type_v1<!vhlo.none_v1>, num_primitive_operations = #vhlo.type_v1<!vhlo.none_v1>, precision_config = #vhlo.array_v1<[#vhlo<precision_v1 DEFAULT>, #vhlo<precision_v1 DEFAULT>]>, rhs_batching_dimensions = #vhlo.tensor_v1<dense<> : tensor<0xi64>>, rhs_component_count = #vhlo.type_v1<!vhlo.none_v1>, rhs_contracting_dimensions = #vhlo.tensor_v1<dense<0> : tensor<1xi64>>, rhs_precision_type = #vhlo.type_v1<!vhlo.none_v1>}> : (!vhlo.tensor_v1<7x3072x!vhlo.bf16_v1>, !vhlo.tensor_v1<3072x3072x!vhlo.bf16_v1>) -> !vhlo.tensor_v1<7x3072x!vhlo.bf16_v1>
    %78 = "vhlo.reshape_v1"(%77) : (!vhlo.tensor_v1<7x3072x!vhlo.bf16_v1>) -> !vhlo.tensor_v1<1x7x24x128x!vhlo.bf16_v1>
    %79 = "vhlo.transpose_v1"(%78) <{permutation = #vhlo.tensor_v1<dense<[0, 2, 1, 3]> : tensor<4xi64>>}> {result_layout = #vhlo.tensor_v1<dense<[3, 1, 2, 0]> : tensor<4xindex>>, xla_shape = #vhlo.string_v1<"bf16[1,24,7,128]{3,1,2,0}">} : (!vhlo.tensor_v1<1x7x24x128x!vhlo.bf16_v1>) -> !vhlo.tensor_v1<1x24x7x128x!vhlo.bf16_v1>
    %80 = "vhlo.convert_v1"(%79) {result_layout = #vhlo.tensor_v1<dense<[3, 1, 2, 0]> : tensor<4xindex>>, xla_shape = #vhlo.string_v1<"f32[1,24,7,128]{3,1,2,0}">} : (!vhlo.tensor_v1<1x24x7x128x!vhlo.bf16_v1>) -> !vhlo.tensor_v1<1x24x7x128x!vhlo.f32_v1>
    %81 = "vhlo.broadcast_in_dim_v1"(%48) <{broadcast_dimensions = #vhlo.tensor_v1<dense<[0, 2, 3]> : tensor<3xi64>>}> : (!vhlo.tensor_v1<1x7x128x!vhlo.f32_v1>) -> !vhlo.tensor_v1<1x24x7x128x!vhlo.f32_v1>
    %82 = "vhlo.multiply_v1"(%80, %81) : (!vhlo.tensor_v1<1x24x7x128x!vhlo.f32_v1>, !vhlo.tensor_v1<1x24x7x128x!vhlo.f32_v1>) -> !vhlo.tensor_v1<1x24x7x128x!vhlo.f32_v1>
    %83 = "vhlo.convert_v1"(%82) : (!vhlo.tensor_v1<1x24x7x128x!vhlo.f32_v1>) -> !vhlo.tensor_v1<1x24x7x128x!vhlo.bf16_v1>
    %84 = "vhlo.slice_v1"(%79) <{limit_indices = #vhlo.tensor_v1<dense<[1, 24, 7, 128]> : tensor<4xi64>>, start_indices = #vhlo.tensor_v1<dense<[0, 0, 0, 64]> : tensor<4xi64>>, strides = #vhlo.tensor_v1<dense<1> : tensor<4xi64>>}> : (!vhlo.tensor_v1<1x24x7x128x!vhlo.bf16_v1>) -> !vhlo.tensor_v1<1x24x7x64x!vhlo.bf16_v1>
    %85 = "vhlo.negate_v1"(%84) : (!vhlo.tensor_v1<1x24x7x64x!vhlo.bf16_v1>) -> !vhlo.tensor_v1<1x24x7x64x!vhlo.bf16_v1>
    %86 = "vhlo.slice_v1"(%79) <{limit_indices = #vhlo.tensor_v1<dense<[1, 24, 7, 64]> : tensor<4xi64>>, start_indices = #vhlo.tensor_v1<dense<0> : tensor<4xi64>>, strides = #vhlo.tensor_v1<dense<1> : tensor<4xi64>>}> : (!vhlo.tensor_v1<1x24x7x128x!vhlo.bf16_v1>) -> !vhlo.tensor_v1<1x24x7x64x!vhlo.bf16_v1>
    %87 = "vhlo.concatenate_v1"(%85, %86) <{dimension = #vhlo.integer_v1<3 : i64>}> : (!vhlo.tensor_v1<1x24x7x64x!vhlo.bf16_v1>, !vhlo.tensor_v1<1x24x7x64x!vhlo.bf16_v1>) -> !vhlo.tensor_v1<1x24x7x128x!vhlo.bf16_v1>
    %88 = "vhlo.convert_v1"(%87) : (!vhlo.tensor_v1<1x24x7x128x!vhlo.bf16_v1>) -> !vhlo.tensor_v1<1x24x7x128x!vhlo.f32_v1>
    %89 = "vhlo.broadcast_in_dim_v1"(%61) <{broadcast_dimensions = #vhlo.tensor_v1<dense<[0, 2, 3]> : tensor<3xi64>>}> : (!vhlo.tensor_v1<1x7x128x!vhlo.f32_v1>) -> !vhlo.tensor_v1<1x24x7x128x!vhlo.f32_v1>
    %90 = "vhlo.multiply_v1"(%88, %89) : (!vhlo.tensor_v1<1x24x7x128x!vhlo.f32_v1>, !vhlo.tensor_v1<1x24x7x128x!vhlo.f32_v1>) -> !vhlo.tensor_v1<1x24x7x128x!vhlo.f32_v1>
    %91 = "vhlo.convert_v1"(%90) : (!vhlo.tensor_v1<1x24x7x128x!vhlo.f32_v1>) -> !vhlo.tensor_v1<1x24x7x128x!vhlo.bf16_v1>
    %92 = "vhlo.add_v1"(%83, %91) : (!vhlo.tensor_v1<1x24x7x128x!vhlo.bf16_v1>, !vhlo.tensor_v1<1x24x7x128x!vhlo.bf16_v1>) -> !vhlo.tensor_v1<1x24x7x128x!vhlo.bf16_v1>
    %93 = "vhlo.reshape_v1"(%92) : (!vhlo.tensor_v1<1x24x7x128x!vhlo.bf16_v1>) -> !vhlo.tensor_v1<24x7x128x!vhlo.bf16_v1>
    %94 = "vhlo.broadcast_in_dim_v1"(%66) <{broadcast_dimensions = #vhlo.tensor_v1<dense<[0, 1, 3, 4]> : tensor<4xi64>>}> : (!vhlo.tensor_v1<1x8x128x128x!vhlo.bf16_v1>) -> !vhlo.tensor_v1<1x8x3x128x128x!vhlo.bf16_v1>
    %95 = "vhlo.reshape_v1"(%94) : (!vhlo.tensor_v1<1x8x3x128x128x!vhlo.bf16_v1>) -> !vhlo.tensor_v1<1x24x128x128x!vhlo.bf16_v1>
    %96 = "vhlo.transpose_v1"(%95) <{permutation = #vhlo.tensor_v1<dense<[0, 1, 3, 2]> : tensor<4xi64>>}> {result_layout = #vhlo.tensor_v1<dense<[2, 3, 1, 0]> : tensor<4xindex>>, xla_shape = #vhlo.string_v1<"bf16[1,24,128,128]{2,3,1,0}">} : (!vhlo.tensor_v1<1x24x128x128x!vhlo.bf16_v1>) -> !vhlo.tensor_v1<1x24x128x128x!vhlo.bf16_v1>
    %97 = "vhlo.reshape_v1"(%96) : (!vhlo.tensor_v1<1x24x128x128x!vhlo.bf16_v1>) -> !vhlo.tensor_v1<24x128x128x!vhlo.bf16_v1>
    %98 = "vhlo.dot_general_v2"(%93, %97) <{accumulation_type = #vhlo.type_v1<!vhlo.none_v1>, allow_imprecise_accumulation = #vhlo.type_v1<!vhlo.none_v1>, lhs_batching_dimensions = #vhlo.tensor_v1<dense<0> : tensor<1xi64>>, lhs_component_count = #vhlo.type_v1<!vhlo.none_v1>, lhs_contracting_dimensions = #vhlo.tensor_v1<dense<2> : tensor<1xi64>>, lhs_precision_type = #vhlo.type_v1<!vhlo.none_v1>, num_primitive_operations = #vhlo.type_v1<!vhlo.none_v1>, precision_config = #vhlo.array_v1<[#vhlo<precision_v1 DEFAULT>, #vhlo<precision_v1 DEFAULT>]>, rhs_batching_dimensions = #vhlo.tensor_v1<dense<0> : tensor<1xi64>>, rhs_component_count = #vhlo.type_v1<!vhlo.none_v1>, rhs_contracting_dimensions = #vhlo.tensor_v1<dense<1> : tensor<1xi64>>, rhs_precision_type = #vhlo.type_v1<!vhlo.none_v1>}> : (!vhlo.tensor_v1<24x7x128x!vhlo.bf16_v1>, !vhlo.tensor_v1<24x128x128x!vhlo.bf16_v1>) -> !vhlo.tensor_v1<24x7x128x!vhlo.bf16_v1>
    %99 = "vhlo.reshape_v1"(%98) : (!vhlo.tensor_v1<24x7x128x!vhlo.bf16_v1>) -> !vhlo.tensor_v1<1x24x7x128x!vhlo.bf16_v1>
    %100 = "vhlo.convert_v1"(%99) : (!vhlo.tensor_v1<1x24x7x128x!vhlo.bf16_v1>) -> !vhlo.tensor_v1<1x24x7x128x!vhlo.f32_v1>
    %101 = "vhlo.broadcast_in_dim_v1"(%arg16) <{broadcast_dimensions = #vhlo.tensor_v1<dense<> : tensor<0xi64>>}> : (!vhlo.tensor_v1<!vhlo.f32_v1>) -> !vhlo.tensor_v1<1x24x7x128x!vhlo.f32_v1>
    %102 = "vhlo.multiply_v1"(%100, %101) : (!vhlo.tensor_v1<1x24x7x128x!vhlo.f32_v1>, !vhlo.tensor_v1<1x24x7x128x!vhlo.f32_v1>) -> !vhlo.tensor_v1<1x24x7x128x!vhlo.f32_v1>
    %103 = "vhlo.convert_v1"(%102) : (!vhlo.tensor_v1<1x24x7x128x!vhlo.f32_v1>) -> !vhlo.tensor_v1<1x24x7x128x!vhlo.bf16_v1>
    %104 = "vhlo.convert_v1"(%arg15) : (!vhlo.tensor_v1<7x128x!vhlo.bf16_v1>) -> !vhlo.tensor_v1<7x128x!vhlo.f32_v1>
    %105 = "vhlo.broadcast_in_dim_v1"(%arg14) <{broadcast_dimensions = #vhlo.tensor_v1<dense<1> : tensor<1xi64>>}> : (!vhlo.tensor_v1<128x!vhlo.i64_v1>) -> !vhlo.tensor_v1<7x128x!vhlo.i64_v1>
    %106 = "vhlo.broadcast_in_dim_v1"(%arg0) <{broadcast_dimensions = #vhlo.tensor_v1<dense<0> : tensor<1xi64>>}> : (!vhlo.tensor_v1<7x!vhlo.i64_v1>) -> !vhlo.tensor_v1<7x128x!vhlo.i64_v1>
    %107 = "vhlo.compare_v1"(%105, %106) <{compare_type = #vhlo<comparison_type_v1 NOTYPE>, comparison_direction = #vhlo<comparison_direction_v1 GT>}> : (!vhlo.tensor_v1<7x128x!vhlo.i64_v1>, !vhlo.tensor_v1<7x128x!vhlo.i64_v1>) -> !vhlo.tensor_v1<7x128x!vhlo.bool_v1>
    %108 = "vhlo.convert_v1"(%107) : (!vhlo.tensor_v1<7x128x!vhlo.bool_v1>) -> !vhlo.tensor_v1<7x128x!vhlo.f32_v1>
    %109 = "vhlo.multiply_v1"(%104, %108) : (!vhlo.tensor_v1<7x128x!vhlo.f32_v1>, !vhlo.tensor_v1<7x128x!vhlo.f32_v1>) -> !vhlo.tensor_v1<7x128x!vhlo.f32_v1>
    %110 = "vhlo.convert_v1"(%109) : (!vhlo.tensor_v1<7x128x!vhlo.f32_v1>) -> !vhlo.tensor_v1<7x128x!vhlo.bf16_v1>
    %111 = "vhlo.reshape_v1"(%110) : (!vhlo.tensor_v1<7x128x!vhlo.bf16_v1>) -> !vhlo.tensor_v1<1x7x128x!vhlo.bf16_v1>
    %112 = "vhlo.broadcast_in_dim_v1"(%111) <{broadcast_dimensions = #vhlo.tensor_v1<dense<[0, 2, 3]> : tensor<3xi64>>}> : (!vhlo.tensor_v1<1x7x128x!vhlo.bf16_v1>) -> !vhlo.tensor_v1<1x24x7x128x!vhlo.bf16_v1>
    %113 = "vhlo.add_v1"(%103, %112) : (!vhlo.tensor_v1<1x24x7x128x!vhlo.bf16_v1>, !vhlo.tensor_v1<1x24x7x128x!vhlo.bf16_v1>) -> !vhlo.tensor_v1<1x24x7x128x!vhlo.bf16_v1>
    %114 = "vhlo.convert_v1"(%113) : (!vhlo.tensor_v1<1x24x7x128x!vhlo.bf16_v1>) -> !vhlo.tensor_v1<1x24x7x128x!vhlo.f32_v1>
    %115 = "vhlo.reduce_v1"(%114, %2) <{dimensions = #vhlo.tensor_v1<dense<3> : tensor<1xi64>>}> ({
    ^bb0(%arg21: !vhlo.tensor_v1<!vhlo.f32_v1>, %arg22: !vhlo.tensor_v1<!vhlo.f32_v1>):
      %189 = "vhlo.maximum_v1"(%arg21, %arg22) : (!vhlo.tensor_v1<!vhlo.f32_v1>, !vhlo.tensor_v1<!vhlo.f32_v1>) -> !vhlo.tensor_v1<!vhlo.f32_v1>
      "vhlo.return_v1"(%189) : (!vhlo.tensor_v1<!vhlo.f32_v1>) -> ()
    }) : (!vhlo.tensor_v1<1x24x7x128x!vhlo.f32_v1>, !vhlo.tensor_v1<!vhlo.f32_v1>) -> !vhlo.tensor_v1<1x24x7x!vhlo.f32_v1>
    %116 = "vhlo.broadcast_in_dim_v1"(%115) <{broadcast_dimensions = #vhlo.tensor_v1<dense<[0, 1, 2]> : tensor<3xi64>>}> : (!vhlo.tensor_v1<1x24x7x!vhlo.f32_v1>) -> !vhlo.tensor_v1<1x24x7x128x!vhlo.f32_v1>
    %117 = "vhlo.subtract_v1"(%114, %116) : (!vhlo.tensor_v1<1x24x7x128x!vhlo.f32_v1>, !vhlo.tensor_v1<1x24x7x128x!vhlo.f32_v1>) -> !vhlo.tensor_v1<1x24x7x128x!vhlo.f32_v1>
    %118 = "vhlo.exponential_v2"(%117) <{result_accuracy = #vhlo.result_accuracy_v1<atol = 0.000000e+00, rtol = 0.000000e+00, ulps = 0, mode = #vhlo<result_accuracy_mode_v1 DEFAULT>>}> : (!vhlo.tensor_v1<1x24x7x128x!vhlo.f32_v1>) -> !vhlo.tensor_v1<1x24x7x128x!vhlo.f32_v1>
    %119 = "vhlo.reduce_v1"(%118, %1) <{dimensions = #vhlo.tensor_v1<dense<3> : tensor<1xi64>>}> ({
    ^bb0(%arg21: !vhlo.tensor_v1<!vhlo.f32_v1>, %arg22: !vhlo.tensor_v1<!vhlo.f32_v1>):
      %189 = "vhlo.add_v1"(%arg21, %arg22) : (!vhlo.tensor_v1<!vhlo.f32_v1>, !vhlo.tensor_v1<!vhlo.f32_v1>) -> !vhlo.tensor_v1<!vhlo.f32_v1>
      "vhlo.return_v1"(%189) : (!vhlo.tensor_v1<!vhlo.f32_v1>) -> ()
    }) : (!vhlo.tensor_v1<1x24x7x128x!vhlo.f32_v1>, !vhlo.tensor_v1<!vhlo.f32_v1>) -> !vhlo.tensor_v1<1x24x7x!vhlo.f32_v1>
    %120 = "vhlo.broadcast_in_dim_v1"(%119) <{broadcast_dimensions = #vhlo.tensor_v1<dense<[0, 1, 2]> : tensor<3xi64>>}> : (!vhlo.tensor_v1<1x24x7x!vhlo.f32_v1>) -> !vhlo.tensor_v1<1x24x7x128x!vhlo.f32_v1>
    %121 = "vhlo.divide_v1"(%118, %120) : (!vhlo.tensor_v1<1x24x7x128x!vhlo.f32_v1>, !vhlo.tensor_v1<1x24x7x128x!vhlo.f32_v1>) -> !vhlo.tensor_v1<1x24x7x128x!vhlo.f32_v1>
    %122 = "vhlo.convert_v1"(%121) : (!vhlo.tensor_v1<1x24x7x128x!vhlo.f32_v1>) -> !vhlo.tensor_v1<1x24x7x128x!vhlo.bf16_v1>
    %123 = "vhlo.reshape_v1"(%122) : (!vhlo.tensor_v1<1x24x7x128x!vhlo.bf16_v1>) -> !vhlo.tensor_v1<24x7x128x!vhlo.bf16_v1>
    %124 = "vhlo.broadcast_in_dim_v1"(%72) <{broadcast_dimensions = #vhlo.tensor_v1<dense<[0, 1, 3, 4]> : tensor<4xi64>>}> : (!vhlo.tensor_v1<1x8x128x128x!vhlo.bf16_v1>) -> !vhlo.tensor_v1<1x8x3x128x128x!vhlo.bf16_v1>
    %125 = "vhlo.reshape_v1"(%124) : (!vhlo.tensor_v1<1x8x3x128x128x!vhlo.bf16_v1>) -> !vhlo.tensor_v1<24x128x128x!vhlo.bf16_v1>
    %126 = "vhlo.dot_general_v2"(%123, %125) <{accumulation_type = #vhlo.type_v1<!vhlo.none_v1>, allow_imprecise_accumulation = #vhlo.type_v1<!vhlo.none_v1>, lhs_batching_dimensions = #vhlo.tensor_v1<dense<0> : tensor<1xi64>>, lhs_component_count = #vhlo.type_v1<!vhlo.none_v1>, lhs_contracting_dimensions = #vhlo.tensor_v1<dense<2> : tensor<1xi64>>, lhs_precision_type = #vhlo.type_v1<!vhlo.none_v1>, num_primitive_operations = #vhlo.type_v1<!vhlo.none_v1>, precision_config = #vhlo.array_v1<[#vhlo<precision_v1 DEFAULT>, #vhlo<precision_v1 DEFAULT>]>, rhs_batching_dimensions = #vhlo.tensor_v1<dense<0> : tensor<1xi64>>, rhs_component_count = #vhlo.type_v1<!vhlo.none_v1>, rhs_contracting_dimensions = #vhlo.tensor_v1<dense<1> : tensor<1xi64>>, rhs_precision_type = #vhlo.type_v1<!vhlo.none_v1>}> : (!vhlo.tensor_v1<24x7x128x!vhlo.bf16_v1>, !vhlo.tensor_v1<24x128x128x!vhlo.bf16_v1>) -> !vhlo.tensor_v1<24x7x128x!vhlo.bf16_v1>
    %127 = "vhlo.reshape_v1"(%126) : (!vhlo.tensor_v1<24x7x128x!vhlo.bf16_v1>) -> !vhlo.tensor_v1<1x24x7x128x!vhlo.bf16_v1>
    %128 = "vhlo.transpose_v1"(%127) <{permutation = #vhlo.tensor_v1<dense<[0, 2, 1, 3]> : tensor<4xi64>>}> {result_layout = #vhlo.tensor_v1<dense<[3, 1, 2, 0]> : tensor<4xindex>>, xla_shape = #vhlo.string_v1<"bf16[1,7,24,128]{3,1,2,0}">} : (!vhlo.tensor_v1<1x24x7x128x!vhlo.bf16_v1>) -> !vhlo.tensor_v1<1x7x24x128x!vhlo.bf16_v1>
    %129 = "vhlo.reshape_v1"(%128) : (!vhlo.tensor_v1<1x7x24x128x!vhlo.bf16_v1>) -> !vhlo.tensor_v1<7x3072x!vhlo.bf16_v1>
    %130 = "vhlo.transpose_v1"(%arg13) <{permutation = #vhlo.tensor_v1<dense<[1, 0]> : tensor<2xi64>>}> {result_layout = #vhlo.tensor_v1<dense<[0, 1]> : tensor<2xindex>>, xla_shape = #vhlo.string_v1<"bf16[3072,3072]{0,1}">} : (!vhlo.tensor_v1<3072x3072x!vhlo.bf16_v1>) -> !vhlo.tensor_v1<3072x3072x!vhlo.bf16_v1>
    %131 = "vhlo.dot_general_v2"(%129, %130) <{accumulation_type = #vhlo.type_v1<!vhlo.none_v1>, allow_imprecise_accumulation = #vhlo.type_v1<!vhlo.none_v1>, lhs_batching_dimensions = #vhlo.tensor_v1<dense<> : tensor<0xi64>>, lhs_component_count = #vhlo.type_v1<!vhlo.none_v1>, lhs_contracting_dimensions = #vhlo.tensor_v1<dense<1> : tensor<1xi64>>, lhs_precision_type = #vhlo.type_v1<!vhlo.none_v1>, num_primitive_operations = #vhlo.type_v1<!vhlo.none_v1>, precision_config = #vhlo.array_v1<[#vhlo<precision_v1 DEFAULT>, #vhlo<precision_v1 DEFAULT>]>, rhs_batching_dimensions = #vhlo.tensor_v1<dense<> : tensor<0xi64>>, rhs_component_count = #vhlo.type_v1<!vhlo.none_v1>, rhs_contracting_dimensions = #vhlo.tensor_v1<dense<0> : tensor<1xi64>>, rhs_precision_type = #vhlo.type_v1<!vhlo.none_v1>}> : (!vhlo.tensor_v1<7x3072x!vhlo.bf16_v1>, !vhlo.tensor_v1<3072x3072x!vhlo.bf16_v1>) -> !vhlo.tensor_v1<7x3072x!vhlo.bf16_v1>
    %132 = "vhlo.reshape_v1"(%131) : (!vhlo.tensor_v1<7x3072x!vhlo.bf16_v1>) -> !vhlo.tensor_v1<1x7x3072x!vhlo.bf16_v1>
    %133 = "vhlo.add_v1"(%16, %132) : (!vhlo.tensor_v1<1x7x3072x!vhlo.bf16_v1>, !vhlo.tensor_v1<1x7x3072x!vhlo.bf16_v1>) -> !vhlo.tensor_v1<1x7x3072x!vhlo.bf16_v1>
    %134 = "vhlo.convert_v1"(%arg18) : (!vhlo.tensor_v1<3072x!vhlo.bf16_v1>) -> !vhlo.tensor_v1<3072x!vhlo.f32_v1>
    %135 = "vhlo.broadcast_in_dim_v1"(%134) <{broadcast_dimensions = #vhlo.tensor_v1<dense<2> : tensor<1xi64>>}> : (!vhlo.tensor_v1<3072x!vhlo.f32_v1>) -> !vhlo.tensor_v1<1x7x3072x!vhlo.f32_v1>
    %136 = "vhlo.convert_v1"(%133) : (!vhlo.tensor_v1<1x7x3072x!vhlo.bf16_v1>) -> !vhlo.tensor_v1<1x7x3072x!vhlo.f32_v1>
    %137 = "vhlo.power_v1"(%136, %5) : (!vhlo.tensor_v1<1x7x3072x!vhlo.f32_v1>, !vhlo.tensor_v1<1x7x3072x!vhlo.f32_v1>) -> !vhlo.tensor_v1<1x7x3072x!vhlo.f32_v1>
    %138 = "vhlo.reduce_v1"(%137, %1) <{dimensions = #vhlo.tensor_v1<dense<2> : tensor<1xi64>>}> ({
    ^bb0(%arg21: !vhlo.tensor_v1<!vhlo.f32_v1>, %arg22: !vhlo.tensor_v1<!vhlo.f32_v1>):
      %189 = "vhlo.add_v1"(%arg21, %arg22) : (!vhlo.tensor_v1<!vhlo.f32_v1>, !vhlo.tensor_v1<!vhlo.f32_v1>) -> !vhlo.tensor_v1<!vhlo.f32_v1>
      "vhlo.return_v1"(%189) : (!vhlo.tensor_v1<!vhlo.f32_v1>) -> ()
    }) : (!vhlo.tensor_v1<1x7x3072x!vhlo.f32_v1>, !vhlo.tensor_v1<!vhlo.f32_v1>) -> !vhlo.tensor_v1<1x7x!vhlo.f32_v1>
    %139 = "vhlo.multiply_v1"(%138, %3) : (!vhlo.tensor_v1<1x7x!vhlo.f32_v1>, !vhlo.tensor_v1<1x7x!vhlo.f32_v1>) -> !vhlo.tensor_v1<1x7x!vhlo.f32_v1>
    %140 = "vhlo.reshape_v1"(%139) : (!vhlo.tensor_v1<1x7x!vhlo.f32_v1>) -> !vhlo.tensor_v1<1x7x1x!vhlo.f32_v1>
    %141 = "vhlo.add_v1"(%140, %22) : (!vhlo.tensor_v1<1x7x1x!vhlo.f32_v1>, !vhlo.tensor_v1<1x7x1x!vhlo.f32_v1>) -> !vhlo.tensor_v1<1x7x1x!vhlo.f32_v1>
    %142 = "vhlo.rsqrt_v2"(%141) <{result_accuracy = #vhlo.result_accuracy_v1<atol = 0.000000e+00, rtol = 0.000000e+00, ulps = 0, mode = #vhlo<result_accuracy_mode_v1 DEFAULT>>}> : (!vhlo.tensor_v1<1x7x1x!vhlo.f32_v1>) -> !vhlo.tensor_v1<1x7x1x!vhlo.f32_v1>
    %143 = "vhlo.reshape_v1"(%142) : (!vhlo.tensor_v1<1x7x1x!vhlo.f32_v1>) -> !vhlo.tensor_v1<1x7x!vhlo.f32_v1>
    %144 = "vhlo.broadcast_in_dim_v1"(%143) <{broadcast_dimensions = #vhlo.tensor_v1<dense<[0, 1]> : tensor<2xi64>>}> : (!vhlo.tensor_v1<1x7x!vhlo.f32_v1>) -> !vhlo.tensor_v1<1x7x3072x!vhlo.f32_v1>
    %145 = "vhlo.multiply_v1"(%136, %144) : (!vhlo.tensor_v1<1x7x3072x!vhlo.f32_v1>, !vhlo.tensor_v1<1x7x3072x!vhlo.f32_v1>) -> !vhlo.tensor_v1<1x7x3072x!vhlo.f32_v1>
    %146 = "vhlo.convert_v1"(%145) : (!vhlo.tensor_v1<1x7x3072x!vhlo.f32_v1>) -> !vhlo.tensor_v1<1x7x3072x!vhlo.bf16_v1>
    %147 = "vhlo.convert_v1"(%146) : (!vhlo.tensor_v1<1x7x3072x!vhlo.bf16_v1>) -> !vhlo.tensor_v1<1x7x3072x!vhlo.f32_v1>
    %148 = "vhlo.multiply_v1"(%135, %147) : (!vhlo.tensor_v1<1x7x3072x!vhlo.f32_v1>, !vhlo.tensor_v1<1x7x3072x!vhlo.f32_v1>) -> !vhlo.tensor_v1<1x7x3072x!vhlo.f32_v1>
    %149 = "vhlo.convert_v1"(%148) : (!vhlo.tensor_v1<1x7x3072x!vhlo.f32_v1>) -> !vhlo.tensor_v1<1x7x3072x!vhlo.bf16_v1>
    %150 = "vhlo.reshape_v1"(%149) : (!vhlo.tensor_v1<1x7x3072x!vhlo.bf16_v1>) -> !vhlo.tensor_v1<7x3072x!vhlo.bf16_v1>
    %151 = "vhlo.transpose_v1"(%arg19) <{permutation = #vhlo.tensor_v1<dense<[1, 0]> : tensor<2xi64>>}> {result_layout = #vhlo.tensor_v1<dense<[0, 1]> : tensor<2xindex>>, xla_shape = #vhlo.string_v1<"bf16[3072,8192]{0,1}">} : (!vhlo.tensor_v1<8192x3072x!vhlo.bf16_v1>) -> !vhlo.tensor_v1<3072x8192x!vhlo.bf16_v1>
    %152 = "vhlo.dot_general_v2"(%150, %151) <{accumulation_type = #vhlo.type_v1<!vhlo.none_v1>, allow_imprecise_accumulation = #vhlo.type_v1<!vhlo.none_v1>, lhs_batching_dimensions = #vhlo.tensor_v1<dense<> : tensor<0xi64>>, lhs_component_count = #vhlo.type_v1<!vhlo.none_v1>, lhs_contracting_dimensions = #vhlo.tensor_v1<dense<1> : tensor<1xi64>>, lhs_precision_type = #vhlo.type_v1<!vhlo.none_v1>, num_primitive_operations = #vhlo.type_v1<!vhlo.none_v1>, precision_config = #vhlo.array_v1<[#vhlo<precision_v1 DEFAULT>, #vhlo<precision_v1 DEFAULT>]>, rhs_batching_dimensions = #vhlo.tensor_v1<dense<> : tensor<0xi64>>, rhs_component_count = #vhlo.type_v1<!vhlo.none_v1>, rhs_contracting_dimensions = #vhlo.tensor_v1<dense<0> : tensor<1xi64>>, rhs_precision_type = #vhlo.type_v1<!vhlo.none_v1>}> : (!vhlo.tensor_v1<7x3072x!vhlo.bf16_v1>, !vhlo.tensor_v1<3072x8192x!vhlo.bf16_v1>) -> !vhlo.tensor_v1<7x8192x!vhlo.bf16_v1>
    %153 = "vhlo.reshape_v1"(%152) : (!vhlo.tensor_v1<7x8192x!vhlo.bf16_v1>) -> !vhlo.tensor_v1<1x7x8192x!vhlo.bf16_v1>
    %154 = "vhlo.convert_v1"(%153) : (!vhlo.tensor_v1<1x7x8192x!vhlo.bf16_v1>) -> !vhlo.tensor_v1<1x7x8192x!vhlo.f32_v1>
    %155 = "vhlo.logistic_v2"(%153) <{result_accuracy = #vhlo.result_accuracy_v1<atol = 0.000000e+00, rtol = 0.000000e+00, ulps = 0, mode = #vhlo<result_accuracy_mode_v1 DEFAULT>>}> : (!vhlo.tensor_v1<1x7x8192x!vhlo.bf16_v1>) -> !vhlo.tensor_v1<1x7x8192x!vhlo.bf16_v1>
    %156 = "vhlo.convert_v1"(%155) : (!vhlo.tensor_v1<1x7x8192x!vhlo.bf16_v1>) -> !vhlo.tensor_v1<1x7x8192x!vhlo.f32_v1>
    %157 = "vhlo.multiply_v1"(%154, %156) : (!vhlo.tensor_v1<1x7x8192x!vhlo.f32_v1>, !vhlo.tensor_v1<1x7x8192x!vhlo.f32_v1>) -> !vhlo.tensor_v1<1x7x8192x!vhlo.f32_v1>
    %158 = "vhlo.convert_v1"(%157) : (!vhlo.tensor_v1<1x7x8192x!vhlo.f32_v1>) -> !vhlo.tensor_v1<1x7x8192x!vhlo.bf16_v1>
    %159 = "vhlo.convert_v1"(%158) : (!vhlo.tensor_v1<1x7x8192x!vhlo.bf16_v1>) -> !vhlo.tensor_v1<1x7x8192x!vhlo.f32_v1>
    %160 = "vhlo.transpose_v1"(%arg12) <{permutation = #vhlo.tensor_v1<dense<[1, 0]> : tensor<2xi64>>}> {result_layout = #vhlo.tensor_v1<dense<[0, 1]> : tensor<2xindex>>, xla_shape = #vhlo.string_v1<"bf16[3072,8192]{0,1}">} : (!vhlo.tensor_v1<8192x3072x!vhlo.bf16_v1>) -> !vhlo.tensor_v1<3072x8192x!vhlo.bf16_v1>
    %161 = "vhlo.dot_general_v2"(%150, %160) <{accumulation_type = #vhlo.type_v1<!vhlo.none_v1>, allow_imprecise_accumulation = #vhlo.type_v1<!vhlo.none_v1>, lhs_batching_dimensions = #vhlo.tensor_v1<dense<> : tensor<0xi64>>, lhs_component_count = #vhlo.type_v1<!vhlo.none_v1>, lhs_contracting_dimensions = #vhlo.tensor_v1<dense<1> : tensor<1xi64>>, lhs_precision_type = #vhlo.type_v1<!vhlo.none_v1>, num_primitive_operations = #vhlo.type_v1<!vhlo.none_v1>, precision_config = #vhlo.array_v1<[#vhlo<precision_v1 DEFAULT>, #vhlo<precision_v1 DEFAULT>]>, rhs_batching_dimensions = #vhlo.tensor_v1<dense<> : tensor<0xi64>>, rhs_component_count = #vhlo.type_v1<!vhlo.none_v1>, rhs_contracting_dimensions = #vhlo.tensor_v1<dense<0> : tensor<1xi64>>, rhs_precision_type = #vhlo.type_v1<!vhlo.none_v1>}> : (!vhlo.tensor_v1<7x3072x!vhlo.bf16_v1>, !vhlo.tensor_v1<3072x8192x!vhlo.bf16_v1>) -> !vhlo.tensor_v1<7x8192x!vhlo.bf16_v1>
    %162 = "vhlo.reshape_v1"(%161) : (!vhlo.tensor_v1<7x8192x!vhlo.bf16_v1>) -> !vhlo.tensor_v1<1x7x8192x!vhlo.bf16_v1>
    %163 = "vhlo.convert_v1"(%162) : (!vhlo.tensor_v1<1x7x8192x!vhlo.bf16_v1>) -> !vhlo.tensor_v1<1x7x8192x!vhlo.f32_v1>
    %164 = "vhlo.multiply_v1"(%159, %163) : (!vhlo.tensor_v1<1x7x8192x!vhlo.f32_v1>, !vhlo.tensor_v1<1x7x8192x!vhlo.f32_v1>) -> !vhlo.tensor_v1<1x7x8192x!vhlo.f32_v1>
    %165 = "vhlo.convert_v1"(%164) : (!vhlo.tensor_v1<1x7x8192x!vhlo.f32_v1>) -> !vhlo.tensor_v1<1x7x8192x!vhlo.bf16_v1>
    %166 = "vhlo.reshape_v1"(%165) : (!vhlo.tensor_v1<1x7x8192x!vhlo.bf16_v1>) -> !vhlo.tensor_v1<7x8192x!vhlo.bf16_v1>
    %167 = "vhlo.transpose_v1"(%arg11) <{permutation = #vhlo.tensor_v1<dense<[1, 0]> : tensor<2xi64>>}> {result_layout = #vhlo.tensor_v1<dense<[0, 1]> : tensor<2xindex>>, xla_shape = #vhlo.string_v1<"bf16[8192,3072]{0,1}">} : (!vhlo.tensor_v1<3072x8192x!vhlo.bf16_v1>) -> !vhlo.tensor_v1<8192x3072x!vhlo.bf16_v1>
    %168 = "vhlo.dot_general_v2"(%166, %167) <{accumulation_type = #vhlo.type_v1<!vhlo.none_v1>, allow_imprecise_accumulation = #vhlo.type_v1<!vhlo.none_v1>, lhs_batching_dimensions = #vhlo.tensor_v1<dense<> : tensor<0xi64>>, lhs_component_count = #vhlo.type_v1<!vhlo.none_v1>, lhs_contracting_dimensions = #vhlo.tensor_v1<dense<1> : tensor<1xi64>>, lhs_precision_type = #vhlo.type_v1<!vhlo.none_v1>, num_primitive_operations = #vhlo.type_v1<!vhlo.none_v1>, precision_config = #vhlo.array_v1<[#vhlo<precision_v1 DEFAULT>, #vhlo<precision_v1 DEFAULT>]>, rhs_batching_dimensions = #vhlo.tensor_v1<dense<> : tensor<0xi64>>, rhs_component_count = #vhlo.type_v1<!vhlo.none_v1>, rhs_contracting_dimensions = #vhlo.tensor_v1<dense<0> : tensor<1xi64>>, rhs_precision_type = #vhlo.type_v1<!vhlo.none_v1>}> : (!vhlo.tensor_v1<7x8192x!vhlo.bf16_v1>, !vhlo.tensor_v1<8192x3072x!vhlo.bf16_v1>) -> !vhlo.tensor_v1<7x3072x!vhlo.bf16_v1>
    %169 = "vhlo.reshape_v1"(%168) : (!vhlo.tensor_v1<7x3072x!vhlo.bf16_v1>) -> !vhlo.tensor_v1<1x7x3072x!vhlo.bf16_v1>
    %170 = "vhlo.add_v1"(%133, %169) : (!vhlo.tensor_v1<1x7x3072x!vhlo.bf16_v1>, !vhlo.tensor_v1<1x7x3072x!vhlo.bf16_v1>) -> !vhlo.tensor_v1<1x7x3072x!vhlo.bf16_v1>
    %171 = "vhlo.convert_v1"(%170) : (!vhlo.tensor_v1<1x7x3072x!vhlo.bf16_v1>) -> !vhlo.tensor_v1<1x7x3072x!vhlo.f32_v1>
    %172 = "vhlo.power_v1"(%171, %5) : (!vhlo.tensor_v1<1x7x3072x!vhlo.f32_v1>, !vhlo.tensor_v1<1x7x3072x!vhlo.f32_v1>) -> !vhlo.tensor_v1<1x7x3072x!vhlo.f32_v1>
    %173 = "vhlo.reduce_v1"(%172, %1) <{dimensions = #vhlo.tensor_v1<dense<2> : tensor<1xi64>>}> ({
    ^bb0(%arg21: !vhlo.tensor_v1<!vhlo.f32_v1>, %arg22: !vhlo.tensor_v1<!vhlo.f32_v1>):
      %189 = "vhlo.add_v1"(%arg21, %arg22) : (!vhlo.tensor_v1<!vhlo.f32_v1>, !vhlo.tensor_v1<!vhlo.f32_v1>) -> !vhlo.tensor_v1<!vhlo.f32_v1>
      "vhlo.return_v1"(%189) : (!vhlo.tensor_v1<!vhlo.f32_v1>) -> ()
    }) : (!vhlo.tensor_v1<1x7x3072x!vhlo.f32_v1>, !vhlo.tensor_v1<!vhlo.f32_v1>) -> !vhlo.tensor_v1<1x7x!vhlo.f32_v1>
    %174 = "vhlo.multiply_v1"(%173, %3) : (!vhlo.tensor_v1<1x7x!vhlo.f32_v1>, !vhlo.tensor_v1<1x7x!vhlo.f32_v1>) -> !vhlo.tensor_v1<1x7x!vhlo.f32_v1>
    %175 = "vhlo.reshape_v1"(%174) : (!vhlo.tensor_v1<1x7x!vhlo.f32_v1>) -> !vhlo.tensor_v1<1x7x1x!vhlo.f32_v1>
    %176 = "vhlo.add_v1"(%175, %22) : (!vhlo.tensor_v1<1x7x1x!vhlo.f32_v1>, !vhlo.tensor_v1<1x7x1x!vhlo.f32_v1>) -> !vhlo.tensor_v1<1x7x1x!vhlo.f32_v1>
    %177 = "vhlo.rsqrt_v2"(%176) <{result_accuracy = #vhlo.result_accuracy_v1<atol = 0.000000e+00, rtol = 0.000000e+00, ulps = 0, mode = #vhlo<result_accuracy_mode_v1 DEFAULT>>}> : (!vhlo.tensor_v1<1x7x1x!vhlo.f32_v1>) -> !vhlo.tensor_v1<1x7x1x!vhlo.f32_v1>
    %178 = "vhlo.reshape_v1"(%177) : (!vhlo.tensor_v1<1x7x1x!vhlo.f32_v1>) -> !vhlo.tensor_v1<1x7x!vhlo.f32_v1>
    %179 = "vhlo.broadcast_in_dim_v1"(%178) <{broadcast_dimensions = #vhlo.tensor_v1<dense<[0, 1]> : tensor<2xi64>>}> : (!vhlo.tensor_v1<1x7x!vhlo.f32_v1>) -> !vhlo.tensor_v1<1x7x3072x!vhlo.f32_v1>
    %180 = "vhlo.multiply_v1"(%171, %179) : (!vhlo.tensor_v1<1x7x3072x!vhlo.f32_v1>, !vhlo.tensor_v1<1x7x3072x!vhlo.f32_v1>) -> !vhlo.tensor_v1<1x7x3072x!vhlo.f32_v1>
    %181 = "vhlo.convert_v1"(%180) : (!vhlo.tensor_v1<1x7x3072x!vhlo.f32_v1>) -> !vhlo.tensor_v1<1x7x3072x!vhlo.bf16_v1>
    %182 = "vhlo.convert_v1"(%181) : (!vhlo.tensor_v1<1x7x3072x!vhlo.bf16_v1>) -> !vhlo.tensor_v1<1x7x3072x!vhlo.f32_v1>
    %183 = "vhlo.multiply_v1"(%75, %182) : (!vhlo.tensor_v1<1x7x3072x!vhlo.f32_v1>, !vhlo.tensor_v1<1x7x3072x!vhlo.f32_v1>) -> !vhlo.tensor_v1<1x7x3072x!vhlo.f32_v1>
    %184 = "vhlo.convert_v1"(%183) : (!vhlo.tensor_v1<1x7x3072x!vhlo.f32_v1>) -> !vhlo.tensor_v1<1x7x3072x!vhlo.bf16_v1>
    %185 = "vhlo.reshape_v1"(%184) : (!vhlo.tensor_v1<1x7x3072x!vhlo.bf16_v1>) -> !vhlo.tensor_v1<7x3072x!vhlo.bf16_v1>
    %186 = "vhlo.transpose_v1"(%arg5) <{permutation = #vhlo.tensor_v1<dense<[1, 0]> : tensor<2xi64>>}> {result_layout = #vhlo.tensor_v1<dense<[0, 1]> : tensor<2xindex>>, xla_shape = #vhlo.string_v1<"bf16[3072,128256]{0,1}">} : (!vhlo.tensor_v1<128256x3072x!vhlo.bf16_v1>) -> !vhlo.tensor_v1<3072x128256x!vhlo.bf16_v1>
    %187 = "vhlo.dot_general_v2"(%185, %186) <{accumulation_type = #vhlo.type_v1<!vhlo.none_v1>, allow_imprecise_accumulation = #vhlo.type_v1<!vhlo.none_v1>, lhs_batching_dimensions = #vhlo.tensor_v1<dense<> : tensor<0xi64>>, lhs_component_count = #vhlo.type_v1<!vhlo.none_v1>, lhs_contracting_dimensions = #vhlo.tensor_v1<dense<1> : tensor<1xi64>>, lhs_precision_type = #vhlo.type_v1<!vhlo.none_v1>, num_primitive_operations = #vhlo.type_v1<!vhlo.none_v1>, precision_config = #vhlo.array_v1<[#vhlo<precision_v1 DEFAULT>, #vhlo<precision_v1 DEFAULT>]>, rhs_batching_dimensions = #vhlo.tensor_v1<dense<> : tensor<0xi64>>, rhs_component_count = #vhlo.type_v1<!vhlo.none_v1>, rhs_contracting_dimensions = #vhlo.tensor_v1<dense<0> : tensor<1xi64>>, rhs_precision_type = #vhlo.type_v1<!vhlo.none_v1>}> : (!vhlo.tensor_v1<7x3072x!vhlo.bf16_v1>, !vhlo.tensor_v1<3072x128256x!vhlo.bf16_v1>) -> !vhlo.tensor_v1<7x128256x!vhlo.bf16_v1>
    %188 = "vhlo.reshape_v1"(%187) : (!vhlo.tensor_v1<7x128256x!vhlo.bf16_v1>) -> !vhlo.tensor_v1<1x7x128256x!vhlo.bf16_v1>
    "vhlo.return_v1"(%67, %73, %187, %188) : (!vhlo.tensor_v1<1x8x128x128x!vhlo.bf16_v1>, !vhlo.tensor_v1<1x8x128x128x!vhlo.bf16_v1>, !vhlo.tensor_v1<7x128256x!vhlo.bf16_v1>, !vhlo.tensor_v1<1x7x128256x!vhlo.bf16_v1>) -> ()
  } {arg_attrs = #vhlo.array_v1<[#vhlo.dict_v1<{#vhlo.string_v1<"mhlo.frontend_attributes"> = #vhlo.dict_v1<{#vhlo.string_v1<"xla.sdy.sharding"> = #vhlo.string_v1<"#sdy.sharding<@mesh, [{}]>">}>, #vhlo.string_v1<"mhlo.sharding"> = #vhlo.string_v1<"{replicated}">}>, #vhlo.dict_v1<{#vhlo.string_v1<"mhlo.frontend_attributes"> = #vhlo.dict_v1<{#vhlo.string_v1<"xla.sdy.sharding"> = #vhlo.string_v1<"#sdy.sharding<@mesh, [{}]>">}>, #vhlo.string_v1<"mhlo.sharding"> = #vhlo.string_v1<"{replicated}">}>, #vhlo.dict_v1<{#vhlo.string_v1<"mhlo.frontend_attributes"> = #vhlo.dict_v1<{#vhlo.string_v1<"xla.sdy.sharding"> = #vhlo.string_v1<"#sdy.sharding<@mesh, [{\22_axis_0\22}, {}]>">}>, #vhlo.string_v1<"mhlo.sharding"> = #vhlo.string_v1<"{devices=[2,1]<=[2]}">}>, #vhlo.dict_v1<{#vhlo.string_v1<"mhlo.frontend_attributes"> = #vhlo.dict_v1<{#vhlo.string_v1<"xla.sdy.sharding"> = #vhlo.string_v1<"#sdy.sharding<@mesh, []>">}>, #vhlo.string_v1<"mhlo.sharding"> = #vhlo.string_v1<"{replicated}">}>, #vhlo.dict_v1<{#vhlo.string_v1<"mhlo.frontend_attributes"> = #vhlo.dict_v1<{#vhlo.string_v1<"xla.sdy.sharding"> = #vhlo.string_v1<"#sdy.sharding<@mesh, [{}, {}]>">}>, #vhlo.string_v1<"mhlo.sharding"> = #vhlo.string_v1<"{replicated}">}>, #vhlo.dict_v1<{#vhlo.string_v1<"mhlo.frontend_attributes"> = #vhlo.dict_v1<{#vhlo.string_v1<"xla.sdy.sharding"> = #vhlo.string_v1<"#sdy.sharding<@mesh, [{}, {}]>">}>, #vhlo.string_v1<"mhlo.sharding"> = #vhlo.string_v1<"{replicated}">}>, #vhlo.dict_v1<{#vhlo.string_v1<"mhlo.frontend_attributes"> = #vhlo.dict_v1<{#vhlo.string_v1<"xla.sdy.sharding"> = #vhlo.string_v1<"#sdy.sharding<@mesh, [{}]>">}>, #vhlo.string_v1<"mhlo.sharding"> = #vhlo.string_v1<"{replicated}">}>, #vhlo.dict_v1<{#vhlo.string_v1<"mhlo.frontend_attributes"> = #vhlo.dict_v1<{#vhlo.string_v1<"xla.sdy.sharding"> = #vhlo.string_v1<"#sdy.sharding<@mesh, []>">}>, #vhlo.string_v1<"mhlo.sharding"> = #vhlo.string_v1<"{replicated}">}>, #vhlo.dict_v1<{#vhlo.string_v1<"mhlo.frontend_attributes"> = #vhlo.dict_v1<{#vhlo.string_v1<"xla.sdy.sharding"> = #vhlo.string_v1<"#sdy.sharding<@mesh, [{}, {\22_axis_0\22}, {}, {}]>">}>, #vhlo.string_v1<"mhlo.sharding"> = #vhlo.string_v1<"{devices=[1,2,1,1]<=[2]}">}>, #vhlo.dict_v1<{#vhlo.string_v1<"mhlo.frontend_attributes"> = #vhlo.dict_v1<{#vhlo.string_v1<"xla.sdy.sharding"> = #vhlo.string_v1<"#sdy.sharding<@mesh, [{\22_axis_0\22}, {}]>">}>, #vhlo.string_v1<"mhlo.sharding"> = #vhlo.string_v1<"{devices=[2,1]<=[2]}">}>, #vhlo.dict_v1<{#vhlo.string_v1<"mhlo.frontend_attributes"> = #vhlo.dict_v1<{#vhlo.string_v1<"xla.sdy.sharding"> = #vhlo.string_v1<"#sdy.sharding<@mesh, [{}, {\22_axis_0\22}, {}, {}]>">}>, #vhlo.string_v1<"mhlo.sharding"> = #vhlo.string_v1<"{devices=[1,2,1,1]<=[2]}">}>, #vhlo.dict_v1<{#vhlo.string_v1<"mhlo.frontend_attributes"> = #vhlo.dict_v1<{#vhlo.string_v1<"xla.sdy.sharding"> = #vhlo.string_v1<"#sdy.sharding<@mesh, [{}, {\22_axis_0\22}]>">}>, #vhlo.string_v1<"mhlo.sharding"> = #vhlo.string_v1<"{devices=[1,2]<=[2]}">}>, #vhlo.dict_v1<{#vhlo.string_v1<"mhlo.frontend_attributes"> = #vhlo.dict_v1<{#vhlo.string_v1<"xla.sdy.sharding"> = #vhlo.string_v1<"#sdy.sharding<@mesh, [{\22_axis_0\22}, {}]>">}>, #vhlo.string_v1<"mhlo.sharding"> = #vhlo.string_v1<"{devices=[2,1]<=[2]}">}>, #vhlo.dict_v1<{#vhlo.string_v1<"mhlo.frontend_attributes"> = #vhlo.dict_v1<{#vhlo.string_v1<"xla.sdy.sharding"> = #vhlo.string_v1<"#sdy.sharding<@mesh, [{}, {\22_axis_0\22}]>">}>, #vhlo.string_v1<"mhlo.sharding"> = #vhlo.string_v1<"{devices=[1,2]<=[2]}">}>, #vhlo.dict_v1<{#vhlo.string_v1<"mhlo.frontend_attributes"> = #vhlo.dict_v1<{#vhlo.string_v1<"xla.sdy.sharding"> = #vhlo.string_v1<"#sdy.sharding<@mesh, [{}]>">}>, #vhlo.string_v1<"mhlo.sharding"> = #vhlo.string_v1<"{replicated}">}>, #vhlo.dict_v1<{#vhlo.string_v1<"mhlo.frontend_attributes"> = #vhlo.dict_v1<{#vhlo.string_v1<"xla.sdy.sharding"> = #vhlo.string_v1<"#sdy.sharding<@mesh, [{}, {}]>">}>, #vhlo.string_v1<"mhlo.sharding"> = #vhlo.string_v1<"{replicated}">}>, #vhlo.dict_v1<{#vhlo.string_v1<"mhlo.frontend_attributes"> = #vhlo.dict_v1<{#vhlo.string_v1<"xla.sdy.sharding"> = #vhlo.string_v1<"#sdy.sharding<@mesh, []>">}>, #vhlo.string_v1<"mhlo.sharding"> = #vhlo.string_v1<"{replicated}">}>, #vhlo.dict_v1<{#vhlo.string_v1<"mhlo.frontend_attributes"> = #vhlo.dict_v1<{#vhlo.string_v1<"xla.sdy.sharding"> = #vhlo.string_v1<"#sdy.sharding<@mesh, [{\22_axis_0\22}, {}]>">}>, #vhlo.string_v1<"mhlo.sharding"> = #vhlo.string_v1<"{devices=[2,1]<=[2]}">}>, #vhlo.dict_v1<{#vhlo.string_v1<"mhlo.frontend_attributes"> = #vhlo.dict_v1<{#vhlo.string_v1<"xla.sdy.sharding"> = #vhlo.string_v1<"#sdy.sharding<@mesh, [{}]>">}>, #vhlo.string_v1<"mhlo.sharding"> = #vhlo.string_v1<"{replicated}">}>, #vhlo.dict_v1<{#vhlo.string_v1<"mhlo.frontend_attributes"> = #vhlo.dict_v1<{#vhlo.string_v1<"xla.sdy.sharding"> = #vhlo.string_v1<"#sdy.sharding<@mesh, [{\22_axis_0\22}, {}]>">}>, #vhlo.string_v1<"mhlo.sharding"> = #vhlo.string_v1<"{devices=[2,1]<=[2]}">}>, #vhlo.dict_v1<{#vhlo.string_v1<"mhlo.frontend_attributes"> = #vhlo.dict_v1<{#vhlo.string_v1<"xla.sdy.sharding"> = #vhlo.string_v1<"#sdy.sharding<@mesh, [{}]>">}>, #vhlo.string_v1<"mhlo.sharding"> = #vhlo.string_v1<"{replicated}">}>]>, res_attrs = #vhlo.array_v1<[]>, sym_visibility = #vhlo.string_v1<"">}
}
module @SyncTensorsGraph.374 attributes {mhlo.cross_program_prefetches = [], mhlo.input_output_alias = [], mhlo.is_dynamic = false, mhlo.use_auto_spmd_partitioning = false} {
  sdy.mesh @mesh = <["_axis_0"=2]>
  func.func @main(%arg0: tensor<7xi64> {sdy.sharding = #sdy.sharding<@mesh, [{}]>}, %arg1: tensor<64xf32> {sdy.sharding = #sdy.sharding<@mesh, [{}]>}, %arg2: tensor<1024x3072xbf16> {sdy.sharding = #sdy.sharding<@mesh, [{"_axis_0"}, {}]>}, %arg3: tensor<f32> {sdy.sharding = #sdy.sharding<@mesh, []>}, %arg4: tensor<1x7xi64> {sdy.sharding = #sdy.sharding<@mesh, [{}, {}]>}, %arg5: tensor<128256x3072xbf16> {sdy.sharding = #sdy.sharding<@mesh, [{}, {}]>}, %arg6: tensor<3072xbf16> {sdy.sharding = #sdy.sharding<@mesh, [{}]>}, %arg7: tensor<i64> {sdy.sharding = #sdy.sharding<@mesh, []>}, %arg8: tensor<1x8x128x128xbf16> {sdy.sharding = #sdy.sharding<@mesh, [{}, {"_axis_0"}, {}, {}]>}, %arg9: tensor<1024x3072xbf16> {sdy.sharding = #sdy.sharding<@mesh, [{"_axis_0"}, {}]>}, %arg10: tensor<1x8x128x128xbf16> {sdy.sharding = #sdy.sharding<@mesh, [{}, {"_axis_0"}, {}, {}]>}, %arg11: tensor<3072x8192xbf16> {sdy.sharding = #sdy.sharding<@mesh, [{}, {"_axis_0"}]>}, %arg12: tensor<8192x3072xbf16> {sdy.sharding = #sdy.sharding<@mesh, [{"_axis_0"}, {}]>}, %arg13: tensor<3072x3072xbf16> {sdy.sharding = #sdy.sharding<@mesh, [{}, {"_axis_0"}]>}, %arg14: tensor<128xi64> {sdy.sharding = #sdy.sharding<@mesh, [{}]>}, %arg15: tensor<7x128xbf16> {sdy.sharding = #sdy.sharding<@mesh, [{}, {}]>}, %arg16: tensor<f32> {sdy.sharding = #sdy.sharding<@mesh, []>}, %arg17: tensor<3072x3072xbf16> {sdy.sharding = #sdy.sharding<@mesh, [{"_axis_0"}, {}]>}, %arg18: tensor<3072xbf16> {sdy.sharding = #sdy.sharding<@mesh, [{}]>}, %arg19: tensor<8192x3072xbf16> {sdy.sharding = #sdy.sharding<@mesh, [{"_axis_0"}, {}]>}, %arg20: tensor<3072xbf16> {sdy.sharding = #sdy.sharding<@mesh, [{}]>}) -> (tensor<1x8x128x128xbf16>, tensor<1x8x128x128xbf16>, tensor<7x128256xbf16>, tensor<1x7x128256xbf16>) {
    %c = stablehlo.constant dense<0> : tensor<7xi64>
    %cst = stablehlo.constant dense<0.000000e+00> : tensor<f32>
    %cst_0 = stablehlo.constant dense<0xFF800000> : tensor<f32>
    %cst_1 = stablehlo.constant dense<3.25520843E-4> : tensor<1x7xf32>
    %cst_2 = stablehlo.constant dense<2.000000e+00> : tensor<f32>
    %0 = stablehlo.broadcast_in_dim %cst_2, dims = [] : (tensor<f32>) -> tensor<1x7x3072xf32>
    %1 = stablehlo.compare  LT, %arg0, %c : (tensor<7xi64>, tensor<7xi64>) -> tensor<7xi1>
    %2 = stablehlo.broadcast_in_dim %arg7, dims = [] : (tensor<i64>) -> tensor<7xi64>
    %3 = stablehlo.add %arg0, %2 : tensor<7xi64>
    %4 = stablehlo.select %1, %3, %arg0 : tensor<7xi1>, tensor<7xi64>
    %5 = stablehlo.reshape %4 : (tensor<7xi64>) -> tensor<7x1xi64>
    %6 = stablehlo.convert %arg6 : (tensor<3072xbf16>) -> tensor<3072xf32>
    %7 = stablehlo.broadcast_in_dim %6, dims = [2] : (tensor<3072xf32>) -> tensor<1x7x3072xf32>
    %8 = stablehlo.convert %arg4 : (tensor<1x7xi64>) -> tensor<1x7xui32>
    %9 = stablehlo.reshape %8 : (tensor<1x7xui32>) -> tensor<7xui32>
    %10 = "stablehlo.gather"(%arg5, %9) <{dimension_numbers = #stablehlo.gather<offset_dims = [1], collapsed_slice_dims = [0], start_index_map = [0], index_vector_dim = 1>, slice_sizes = array<i64: 1, 3072>}> : (tensor<128256x3072xbf16>, tensor<7xui32>) -> tensor<7x3072xbf16>
    %11 = stablehlo.reshape %10 : (tensor<7x3072xbf16>) -> tensor<1x7x3072xbf16>
    %12 = stablehlo.convert %11 : (tensor<1x7x3072xbf16>) -> tensor<1x7x3072xf32>
    %13 = stablehlo.power %12, %0 : tensor<1x7x3072xf32>
    %14 = stablehlo.reduce(%13 init: %cst) applies stablehlo.add across dimensions = [2] : (tensor<1x7x3072xf32>, tensor<f32>) -> tensor<1x7xf32>
    %15 = stablehlo.multiply %14, %cst_1 : tensor<1x7xf32>
    %16 = stablehlo.reshape %15 : (tensor<1x7xf32>) -> tensor<1x7x1xf32>
    %17 = stablehlo.broadcast_in_dim %arg3, dims = [] : (tensor<f32>) -> tensor<1x7x1xf32>
    %18 = stablehlo.add %16, %17 : tensor<1x7x1xf32>
    %19 = stablehlo.rsqrt %18 : tensor<1x7x1xf32>
    %20 = stablehlo.reshape %19 : (tensor<1x7x1xf32>) -> tensor<1x7xf32>
    %21 = stablehlo.broadcast_in_dim %20, dims = [0, 1] : (tensor<1x7xf32>) -> tensor<1x7x3072xf32>
    %22 = stablehlo.multiply %12, %21 : tensor<1x7x3072xf32>
    %23 = stablehlo.convert %22 : (tensor<1x7x3072xf32>) -> tensor<1x7x3072xbf16>
    %24 = stablehlo.convert %23 : (tensor<1x7x3072xbf16>) -> tensor<1x7x3072xf32>
    %25 = stablehlo.multiply %7, %24 : tensor<1x7x3072xf32>
    %26 = stablehlo.convert %25 : (tensor<1x7x3072xf32>) -> tensor<1x7x3072xbf16>
    %27 = stablehlo.reshape %26 : (tensor<1x7x3072xbf16>) -> tensor<7x3072xbf16>
    %28 = stablehlo.transpose %arg2, dims = [1, 0] {result_layout = dense<[0, 1]> : tensor<2xindex>, xla_shape = "bf16[3072,1024]{0,1}"} : (tensor<1024x3072xbf16>) -> tensor<3072x1024xbf16>
    %29 = stablehlo.dot_general %27, %28, contracting_dims = [1] x [0] : (tensor<7x3072xbf16>, tensor<3072x1024xbf16>) -> tensor<7x1024xbf16>
    %30 = stablehlo.reshape %29 : (tensor<7x1024xbf16>) -> tensor<1x7x8x128xbf16>
    %31 = stablehlo.transpose %30, dims = [0, 2, 1, 3] {result_layout = dense<[3, 1, 2, 0]> : tensor<4xindex>, xla_shape = "bf16[1,8,7,128]{3,1,2,0}"} : (tensor<1x7x8x128xbf16>) -> tensor<1x8x7x128xbf16>
    %32 = stablehlo.convert %31 {result_layout = dense<[3, 1, 2, 0]> : tensor<4xindex>, xla_shape = "f32[1,8,7,128]{3,1,2,0}"} : (tensor<1x8x7x128xbf16>) -> tensor<1x8x7x128xf32>
    %33 = stablehlo.reshape %arg1 : (tensor<64xf32>) -> tensor<1x64x1xf32>
    %34 = stablehlo.convert %arg0 : (tensor<7xi64>) -> tensor<7xf32>
    %35 = stablehlo.reshape %34 : (tensor<7xf32>) -> tensor<1x1x7xf32>
    %36 = stablehlo.dot_general %33, %35, batching_dims = [0] x [0], contracting_dims = [2] x [1] : (tensor<1x64x1xf32>, tensor<1x1x7xf32>) -> tensor<1x64x7xf32>
    %37 = stablehlo.transpose %36, dims = [0, 2, 1] {result_layout = dense<[1, 2, 0]> : tensor<3xindex>, xla_shape = "f32[1,7,64]{1,2,0}"} : (tensor<1x64x7xf32>) -> tensor<1x7x64xf32>
    %38 = stablehlo.concatenate %37, %37, dim = 2 : (tensor<1x7x64xf32>, tensor<1x7x64xf32>) -> tensor<1x7x128xf32>
    %39 = stablehlo.cosine %38 : tensor<1x7x128xf32>
    %40 = stablehlo.convert %39 : (tensor<1x7x128xf32>) -> tensor<1x7x128xbf16>
    %41 = stablehlo.convert %40 : (tensor<1x7x128xbf16>) -> tensor<1x7x128xf32>
    %42 = stablehlo.broadcast_in_dim %41, dims = [0, 2, 3] : (tensor<1x7x128xf32>) -> tensor<1x8x7x128xf32>
    %43 = stablehlo.multiply %32, %42 : tensor<1x8x7x128xf32>
    %44 = stablehlo.convert %43 : (tensor<1x8x7x128xf32>) -> tensor<1x8x7x128xbf16>
    %45 = stablehlo.slice %31 [0:1, 0:8, 0:7, 64:128] : (tensor<1x8x7x128xbf16>) -> tensor<1x8x7x64xbf16>
    %46 = stablehlo.negate %45 : tensor<1x8x7x64xbf16>
    %47 = stablehlo.slice %31 [0:1, 0:8, 0:7, 0:64] : (tensor<1x8x7x128xbf16>) -> tensor<1x8x7x64xbf16>
    %48 = stablehlo.concatenate %46, %47, dim = 3 : (tensor<1x8x7x64xbf16>, tensor<1x8x7x64xbf16>) -> tensor<1x8x7x128xbf16>
    %49 = stablehlo.convert %48 : (tensor<1x8x7x128xbf16>) -> tensor<1x8x7x128xf32>
    %50 = stablehlo.sine %38 : tensor<1x7x128xf32>
    %51 = stablehlo.convert %50 : (tensor<1x7x128xf32>) -> tensor<1x7x128xbf16>
    %52 = stablehlo.convert %51 : (tensor<1x7x128xbf16>) -> tensor<1x7x128xf32>
    %53 = stablehlo.broadcast_in_dim %52, dims = [0, 2, 3] : (tensor<1x7x128xf32>) -> tensor<1x8x7x128xf32>
    %54 = stablehlo.multiply %49, %53 : tensor<1x8x7x128xf32>
    %55 = stablehlo.convert %54 : (tensor<1x8x7x128xf32>) -> tensor<1x8x7x128xbf16>
    %56 = stablehlo.add %44, %55 : tensor<1x8x7x128xbf16>
    %57 = "stablehlo.scatter"(%arg8, %5, %56) <{scatter_dimension_numbers = #stablehlo.scatter<update_window_dims = [0, 1, 3], inserted_window_dims = [2], scatter_dims_to_operand_dims = [2], index_vector_dim = 1>}> ({
    ^bb0(%arg21: tensor<bf16>, %arg22: tensor<bf16>):
      stablehlo.return %arg22 : tensor<bf16>
    }) : (tensor<1x8x128x128xbf16>, tensor<7x1xi64>, tensor<1x8x7x128xbf16>) -> tensor<1x8x128x128xbf16>
    %58 = sdy.sharding_constraint %57 <@mesh, [{}, {"_axis_0"}, {}, {}]> : tensor<1x8x128x128xbf16>
    %59 = stablehlo.transpose %arg9, dims = [1, 0] {result_layout = dense<[0, 1]> : tensor<2xindex>, xla_shape = "bf16[3072,1024]{0,1}"} : (tensor<1024x3072xbf16>) -> tensor<3072x1024xbf16>
    %60 = stablehlo.dot_general %27, %59, contracting_dims = [1] x [0] : (tensor<7x3072xbf16>, tensor<3072x1024xbf16>) -> tensor<7x1024xbf16>
    %61 = stablehlo.reshape %60 : (tensor<7x1024xbf16>) -> tensor<1x7x8x128xbf16>
    %62 = stablehlo.transpose %61, dims = [0, 2, 1, 3] {result_layout = dense<[3, 1, 2, 0]> : tensor<4xindex>, xla_shape = "bf16[1,8,7,128]{3,1,2,0}"} : (tensor<1x7x8x128xbf16>) -> tensor<1x8x7x128xbf16>
    %63 = "stablehlo.scatter"(%arg10, %5, %62) <{scatter_dimension_numbers = #stablehlo.scatter<update_window_dims = [0, 1, 3], inserted_window_dims = [2], scatter_dims_to_operand_dims = [2], index_vector_dim = 1>}> ({
    ^bb0(%arg21: tensor<bf16>, %arg22: tensor<bf16>):
      stablehlo.return %arg22 : tensor<bf16>
    }) : (tensor<1x8x128x128xbf16>, tensor<7x1xi64>, tensor<1x8x7x128xbf16>) -> tensor<1x8x128x128xbf16>
    %64 = sdy.sharding_constraint %63 <@mesh, [{}, {"_axis_0"}, {}, {}]> : tensor<1x8x128x128xbf16>
    %65 = stablehlo.convert %arg20 : (tensor<3072xbf16>) -> tensor<3072xf32>
    %66 = stablehlo.broadcast_in_dim %65, dims = [2] : (tensor<3072xf32>) -> tensor<1x7x3072xf32>
    %67 = stablehlo.transpose %arg17, dims = [1, 0] {result_layout = dense<[0, 1]> : tensor<2xindex>, xla_shape = "bf16[3072,3072]{0,1}"} : (tensor<3072x3072xbf16>) -> tensor<3072x3072xbf16>
    %68 = stablehlo.dot_general %27, %67, contracting_dims = [1] x [0] : (tensor<7x3072xbf16>, tensor<3072x3072xbf16>) -> tensor<7x3072xbf16>
    %69 = stablehlo.reshape %68 : (tensor<7x3072xbf16>) -> tensor<1x7x24x128xbf16>
    %70 = stablehlo.transpose %69, dims = [0, 2, 1, 3] {result_layout = dense<[3, 1, 2, 0]> : tensor<4xindex>, xla_shape = "bf16[1,24,7,128]{3,1,2,0}"} : (tensor<1x7x24x128xbf16>) -> tensor<1x24x7x128xbf16>
    %71 = stablehlo.convert %70 {result_layout = dense<[3, 1, 2, 0]> : tensor<4xindex>, xla_shape = "f32[1,24,7,128]{3,1,2,0}"} : (tensor<1x24x7x128xbf16>) -> tensor<1x24x7x128xf32>
    %72 = stablehlo.broadcast_in_dim %41, dims = [0, 2, 3] : (tensor<1x7x128xf32>) -> tensor<1x24x7x128xf32>
    %73 = stablehlo.multiply %71, %72 : tensor<1x24x7x128xf32>
    %74 = stablehlo.convert %73 : (tensor<1x24x7x128xf32>) -> tensor<1x24x7x128xbf16>
    %75 = stablehlo.slice %70 [0:1, 0:24, 0:7, 64:128] : (tensor<1x24x7x128xbf16>) -> tensor<1x24x7x64xbf16>
    %76 = stablehlo.negate %75 : tensor<1x24x7x64xbf16>
    %77 = stablehlo.slice %70 [0:1, 0:24, 0:7, 0:64] : (tensor<1x24x7x128xbf16>) -> tensor<1x24x7x64xbf16>
    %78 = stablehlo.concatenate %76, %77, dim = 3 : (tensor<1x24x7x64xbf16>, tensor<1x24x7x64xbf16>) -> tensor<1x24x7x128xbf16>
    %79 = stablehlo.convert %78 : (tensor<1x24x7x128xbf16>) -> tensor<1x24x7x128xf32>
    %80 = stablehlo.broadcast_in_dim %52, dims = [0, 2, 3] : (tensor<1x7x128xf32>) -> tensor<1x24x7x128xf32>
    %81 = stablehlo.multiply %79, %80 : tensor<1x24x7x128xf32>
    %82 = stablehlo.convert %81 : (tensor<1x24x7x128xf32>) -> tensor<1x24x7x128xbf16>
    %83 = stablehlo.add %74, %82 : tensor<1x24x7x128xbf16>
    %84 = stablehlo.reshape %83 : (tensor<1x24x7x128xbf16>) -> tensor<24x7x128xbf16>
    %85 = stablehlo.broadcast_in_dim %57, dims = [0, 1, 3, 4] : (tensor<1x8x128x128xbf16>) -> tensor<1x8x3x128x128xbf16>
    %86 = stablehlo.reshape %85 : (tensor<1x8x3x128x128xbf16>) -> tensor<1x24x128x128xbf16>
    %87 = stablehlo.transpose %86, dims = [0, 1, 3, 2] {result_layout = dense<[2, 3, 1, 0]> : tensor<4xindex>, xla_shape = "bf16[1,24,128,128]{2,3,1,0}"} : (tensor<1x24x128x128xbf16>) -> tensor<1x24x128x128xbf16>
    %88 = stablehlo.reshape %87 : (tensor<1x24x128x128xbf16>) -> tensor<24x128x128xbf16>
    %89 = stablehlo.dot_general %84, %88, batching_dims = [0] x [0], contracting_dims = [2] x [1] : (tensor<24x7x128xbf16>, tensor<24x128x128xbf16>) -> tensor<24x7x128xbf16>
    %90 = stablehlo.convert %89 : (tensor<24x7x128xbf16>) -> tensor<24x7x128xf32>
    %91 = stablehlo.reshape %90 : (tensor<24x7x128xf32>) -> tensor<1x24x7x128xf32>
    %92 = stablehlo.broadcast_in_dim %arg16, dims = [] : (tensor<f32>) -> tensor<1x24x7x128xf32>
    %93 = stablehlo.multiply %91, %92 : tensor<1x24x7x128xf32>
    %94 = stablehlo.convert %93 : (tensor<1x24x7x128xf32>) -> tensor<1x24x7x128xbf16>
    %95 = stablehlo.convert %arg15 : (tensor<7x128xbf16>) -> tensor<7x128xf32>
    %96 = stablehlo.broadcast_in_dim %arg14, dims = [1] : (tensor<128xi64>) -> tensor<7x128xi64>
    %97 = stablehlo.broadcast_in_dim %arg0, dims = [0] : (tensor<7xi64>) -> tensor<7x128xi64>
    %98 = stablehlo.compare  GT, %96, %97 : (tensor<7x128xi64>, tensor<7x128xi64>) -> tensor<7x128xi1>
    %99 = stablehlo.convert %98 : (tensor<7x128xi1>) -> tensor<7x128xf32>
    %100 = stablehlo.multiply %95, %99 : tensor<7x128xf32>
    %101 = stablehlo.convert %100 : (tensor<7x128xf32>) -> tensor<7x128xbf16>
    %102 = stablehlo.reshape %101 : (tensor<7x128xbf16>) -> tensor<1x7x128xbf16>
    %103 = stablehlo.broadcast_in_dim %102, dims = [0, 2, 3] : (tensor<1x7x128xbf16>) -> tensor<1x24x7x128xbf16>
    %104 = stablehlo.add %94, %103 : tensor<1x24x7x128xbf16>
    %105 = stablehlo.convert %104 : (tensor<1x24x7x128xbf16>) -> tensor<1x24x7x128xf32>
    %106 = stablehlo.reduce(%105 init: %cst_0) applies stablehlo.maximum across dimensions = [3] : (tensor<1x24x7x128xf32>, tensor<f32>) -> tensor<1x24x7xf32>
    %107 = stablehlo.broadcast_in_dim %106, dims = [0, 1, 2] : (tensor<1x24x7xf32>) -> tensor<1x24x7x128xf32>
    %108 = stablehlo.subtract %105, %107 : tensor<1x24x7x128xf32>
    %109 = stablehlo.exponential %108 : tensor<1x24x7x128xf32>
    %110 = stablehlo.reduce(%109 init: %cst) applies stablehlo.add across dimensions = [3] : (tensor<1x24x7x128xf32>, tensor<f32>) -> tensor<1x24x7xf32>
    %111 = stablehlo.broadcast_in_dim %110, dims = [0, 1, 2] : (tensor<1x24x7xf32>) -> tensor<1x24x7x128xf32>
    %112 = stablehlo.divide %109, %111 : tensor<1x24x7x128xf32>
    %113 = stablehlo.convert %112 : (tensor<1x24x7x128xf32>) -> tensor<1x24x7x128xbf16>
    %114 = stablehlo.reshape %113 : (tensor<1x24x7x128xbf16>) -> tensor<24x7x128xbf16>
    %115 = stablehlo.broadcast_in_dim %63, dims = [0, 1, 3, 4] : (tensor<1x8x128x128xbf16>) -> tensor<1x8x3x128x128xbf16>
    %116 = stablehlo.reshape %115 : (tensor<1x8x3x128x128xbf16>) -> tensor<24x128x128xbf16>
    %117 = stablehlo.dot_general %114, %116, batching_dims = [0] x [0], contracting_dims = [2] x [1] : (tensor<24x7x128xbf16>, tensor<24x128x128xbf16>) -> tensor<24x7x128xbf16>
    %118 = stablehlo.reshape %117 : (tensor<24x7x128xbf16>) -> tensor<1x24x7x128xbf16>
    %119 = stablehlo.transpose %118, dims = [0, 2, 1, 3] {result_layout = dense<[3, 1, 2, 0]> : tensor<4xindex>, xla_shape = "bf16[1,7,24,128]{3,1,2,0}"} : (tensor<1x24x7x128xbf16>) -> tensor<1x7x24x128xbf16>
    %120 = stablehlo.reshape %119 : (tensor<1x7x24x128xbf16>) -> tensor<7x3072xbf16>
    %121 = stablehlo.transpose %arg13, dims = [1, 0] {result_layout = dense<[0, 1]> : tensor<2xindex>, xla_shape = "bf16[3072,3072]{0,1}"} : (tensor<3072x3072xbf16>) -> tensor<3072x3072xbf16>
    %122 = stablehlo.dot_general %120, %121, contracting_dims = [1] x [0] : (tensor<7x3072xbf16>, tensor<3072x3072xbf16>) -> tensor<7x3072xbf16>
    %123 = stablehlo.reshape %122 : (tensor<7x3072xbf16>) -> tensor<1x7x3072xbf16>
    %124 = stablehlo.add %11, %123 : tensor<1x7x3072xbf16>
    %125 = stablehlo.convert %arg18 : (tensor<3072xbf16>) -> tensor<3072xf32>
    %126 = stablehlo.broadcast_in_dim %125, dims = [2] : (tensor<3072xf32>) -> tensor<1x7x3072xf32>
    %127 = stablehlo.convert %124 : (tensor<1x7x3072xbf16>) -> tensor<1x7x3072xf32>
    %128 = stablehlo.power %127, %0 : tensor<1x7x3072xf32>
    %129 = stablehlo.reduce(%128 init: %cst) applies stablehlo.add across dimensions = [2] : (tensor<1x7x3072xf32>, tensor<f32>) -> tensor<1x7xf32>
    %130 = stablehlo.multiply %129, %cst_1 : tensor<1x7xf32>
    %131 = stablehlo.reshape %130 : (tensor<1x7xf32>) -> tensor<1x7x1xf32>
    %132 = stablehlo.add %131, %17 : tensor<1x7x1xf32>
    %133 = stablehlo.rsqrt %132 : tensor<1x7x1xf32>
    %134 = stablehlo.reshape %133 : (tensor<1x7x1xf32>) -> tensor<1x7xf32>
    %135 = stablehlo.broadcast_in_dim %134, dims = [0, 1] : (tensor<1x7xf32>) -> tensor<1x7x3072xf32>
    %136 = stablehlo.multiply %127, %135 : tensor<1x7x3072xf32>
    %137 = stablehlo.convert %136 : (tensor<1x7x3072xf32>) -> tensor<1x7x3072xbf16>
    %138 = stablehlo.convert %137 : (tensor<1x7x3072xbf16>) -> tensor<1x7x3072xf32>
    %139 = stablehlo.multiply %126, %138 : tensor<1x7x3072xf32>
    %140 = stablehlo.convert %139 : (tensor<1x7x3072xf32>) -> tensor<1x7x3072xbf16>
    %141 = stablehlo.reshape %140 : (tensor<1x7x3072xbf16>) -> tensor<7x3072xbf16>
    %142 = stablehlo.transpose %arg19, dims = [1, 0] {result_layout = dense<[0, 1]> : tensor<2xindex>, xla_shape = "bf16[3072,8192]{0,1}"} : (tensor<8192x3072xbf16>) -> tensor<3072x8192xbf16>
    %143 = stablehlo.dot_general %141, %142, contracting_dims = [1] x [0] : (tensor<7x3072xbf16>, tensor<3072x8192xbf16>) -> tensor<7x8192xbf16>
    %144 = stablehlo.reshape %143 : (tensor<7x8192xbf16>) -> tensor<1x7x8192xbf16>
    %145 = stablehlo.convert %144 : (tensor<1x7x8192xbf16>) -> tensor<1x7x8192xf32>
    %146 = stablehlo.logistic %144 : tensor<1x7x8192xbf16>
    %147 = stablehlo.convert %146 : (tensor<1x7x8192xbf16>) -> tensor<1x7x8192xf32>
    %148 = stablehlo.multiply %145, %147 : tensor<1x7x8192xf32>
    %149 = stablehlo.convert %148 : (tensor<1x7x8192xf32>) -> tensor<1x7x8192xbf16>
    %150 = stablehlo.convert %149 : (tensor<1x7x8192xbf16>) -> tensor<1x7x8192xf32>
    %151 = stablehlo.transpose %arg12, dims = [1, 0] {result_layout = dense<[0, 1]> : tensor<2xindex>, xla_shape = "bf16[3072,8192]{0,1}"} : (tensor<8192x3072xbf16>) -> tensor<3072x8192xbf16>
    %152 = stablehlo.dot_general %141, %151, contracting_dims = [1] x [0] : (tensor<7x3072xbf16>, tensor<3072x8192xbf16>) -> tensor<7x8192xbf16>
    %153 = stablehlo.convert %152 : (tensor<7x8192xbf16>) -> tensor<7x8192xf32>
    %154 = stablehlo.reshape %153 : (tensor<7x8192xf32>) -> tensor<1x7x8192xf32>
    %155 = stablehlo.multiply %150, %154 : tensor<1x7x8192xf32>
    %156 = stablehlo.convert %155 : (tensor<1x7x8192xf32>) -> tensor<1x7x8192xbf16>
    %157 = stablehlo.reshape %156 : (tensor<1x7x8192xbf16>) -> tensor<7x8192xbf16>
    %158 = stablehlo.transpose %arg11, dims = [1, 0] {result_layout = dense<[0, 1]> : tensor<2xindex>, xla_shape = "bf16[8192,3072]{0,1}"} : (tensor<3072x8192xbf16>) -> tensor<8192x3072xbf16>
    %159 = stablehlo.dot_general %157, %158, contracting_dims = [1] x [0] : (tensor<7x8192xbf16>, tensor<8192x3072xbf16>) -> tensor<7x3072xbf16>
    %160 = stablehlo.reshape %159 : (tensor<7x3072xbf16>) -> tensor<1x7x3072xbf16>
    %161 = stablehlo.add %124, %160 : tensor<1x7x3072xbf16>
    %162 = stablehlo.convert %161 : (tensor<1x7x3072xbf16>) -> tensor<1x7x3072xf32>
    %163 = stablehlo.power %162, %0 : tensor<1x7x3072xf32>
    %164 = stablehlo.reduce(%163 init: %cst) applies stablehlo.add across dimensions = [2] : (tensor<1x7x3072xf32>, tensor<f32>) -> tensor<1x7xf32>
    %165 = stablehlo.multiply %164, %cst_1 : tensor<1x7xf32>
    %166 = stablehlo.reshape %165 : (tensor<1x7xf32>) -> tensor<1x7x1xf32>
    %167 = stablehlo.add %166, %17 : tensor<1x7x1xf32>
    %168 = stablehlo.rsqrt %167 : tensor<1x7x1xf32>
    %169 = stablehlo.reshape %168 : (tensor<1x7x1xf32>) -> tensor<1x7xf32>
    %170 = stablehlo.broadcast_in_dim %169, dims = [0, 1] : (tensor<1x7xf32>) -> tensor<1x7x3072xf32>
    %171 = stablehlo.multiply %162, %170 : tensor<1x7x3072xf32>
    %172 = stablehlo.convert %171 : (tensor<1x7x3072xf32>) -> tensor<1x7x3072xbf16>
    %173 = stablehlo.convert %172 : (tensor<1x7x3072xbf16>) -> tensor<1x7x3072xf32>
    %174 = stablehlo.multiply %66, %173 : tensor<1x7x3072xf32>
    %175 = stablehlo.convert %174 : (tensor<1x7x3072xf32>) -> tensor<1x7x3072xbf16>
    %176 = stablehlo.reshape %175 : (tensor<1x7x3072xbf16>) -> tensor<7x3072xbf16>
    %177 = stablehlo.transpose %arg5, dims = [1, 0] {result_layout = dense<[0, 1]> : tensor<2xindex>, xla_shape = "bf16[3072,128256]{0,1}"} : (tensor<128256x3072xbf16>) -> tensor<3072x128256xbf16>
    %178 = stablehlo.dot_general %176, %177, contracting_dims = [1] x [0] : (tensor<7x3072xbf16>, tensor<3072x128256xbf16>) -> tensor<7x128256xbf16>
    %179 = stablehlo.reshape %178 : (tensor<7x128256xbf16>) -> tensor<1x7x128256xbf16>
    return %58, %64, %178, %179 : tensor<1x8x128x128xbf16>, tensor<1x8x128x128xbf16>, tensor<7x128256xbf16>, tensor<1x7x128256xbf16>
  }
}
module @SyncTensorsGraph.374 attributes {mhlo.cross_program_prefetches = [], mhlo.input_output_alias = [], mhlo.is_dynamic = false, mhlo.use_auto_spmd_partitioning = false} {
  sdy.mesh @mesh = <["_axis_0"=2]>
  func.func @main(%arg0: tensor<7xi64> {sdy.sharding = #sdy.sharding<@mesh, [{}]>}, %arg1: tensor<64xf32> {sdy.sharding = #sdy.sharding<@mesh, [{}]>}, %arg2: tensor<1024x3072xbf16> {sdy.sharding = #sdy.sharding<@mesh, [{"_axis_0"}, {}]>}, %arg3: tensor<f32> {sdy.sharding = #sdy.sharding<@mesh, []>}, %arg4: tensor<1x7xi64> {sdy.sharding = #sdy.sharding<@mesh, [{}, {}]>}, %arg5: tensor<128256x3072xbf16> {sdy.sharding = #sdy.sharding<@mesh, [{}, {}]>}, %arg6: tensor<3072xbf16> {sdy.sharding = #sdy.sharding<@mesh, [{}]>}, %arg7: tensor<i64> {sdy.sharding = #sdy.sharding<@mesh, []>}, %arg8: tensor<1x8x128x128xbf16> {sdy.sharding = #sdy.sharding<@mesh, [{}, {"_axis_0"}, {}, {}]>}, %arg9: tensor<1024x3072xbf16> {sdy.sharding = #sdy.sharding<@mesh, [{"_axis_0"}, {}]>}, %arg10: tensor<1x8x128x128xbf16> {sdy.sharding = #sdy.sharding<@mesh, [{}, {"_axis_0"}, {}, {}]>}, %arg11: tensor<3072x8192xbf16> {sdy.sharding = #sdy.sharding<@mesh, [{}, {"_axis_0"}]>}, %arg12: tensor<8192x3072xbf16> {sdy.sharding = #sdy.sharding<@mesh, [{"_axis_0"}, {}]>}, %arg13: tensor<3072x3072xbf16> {sdy.sharding = #sdy.sharding<@mesh, [{}, {"_axis_0"}]>}, %arg14: tensor<128xi64> {sdy.sharding = #sdy.sharding<@mesh, [{}]>}, %arg15: tensor<7x128xbf16> {sdy.sharding = #sdy.sharding<@mesh, [{}, {}]>}, %arg16: tensor<f32> {sdy.sharding = #sdy.sharding<@mesh, []>}, %arg17: tensor<3072x3072xbf16> {sdy.sharding = #sdy.sharding<@mesh, [{"_axis_0"}, {}]>}, %arg18: tensor<3072xbf16> {sdy.sharding = #sdy.sharding<@mesh, [{}]>}, %arg19: tensor<8192x3072xbf16> {sdy.sharding = #sdy.sharding<@mesh, [{"_axis_0"}, {}]>}, %arg20: tensor<3072xbf16> {sdy.sharding = #sdy.sharding<@mesh, [{}]>}) -> (tensor<1x8x128x128xbf16>, tensor<1x8x128x128xbf16>, tensor<7x128256xbf16>, tensor<1x7x128256xbf16>) {
    %c = stablehlo.constant dense<0> : tensor<7xi64>
    %cst = stablehlo.constant dense<0.000000e+00> : tensor<f32>
    %cst_0 = stablehlo.constant dense<0xFF800000> : tensor<f32>
    %cst_1 = stablehlo.constant dense<3.25520843E-4> : tensor<1x7xf32>
    %cst_2 = stablehlo.constant dense<2.000000e+00> : tensor<f32>
    %0 = stablehlo.broadcast_in_dim %cst_2, dims = [] : (tensor<f32>) -> tensor<1x7x3072xf32>
    %1 = stablehlo.compare  LT, %arg0, %c : (tensor<7xi64>, tensor<7xi64>) -> tensor<7xi1>
    %2 = stablehlo.broadcast_in_dim %arg7, dims = [] : (tensor<i64>) -> tensor<7xi64>
    %3 = stablehlo.add %arg0, %2 : tensor<7xi64>
    %4 = stablehlo.select %1, %3, %arg0 : tensor<7xi1>, tensor<7xi64>
    %5 = stablehlo.reshape %4 : (tensor<7xi64>) -> tensor<7x1xi64>
    %6 = stablehlo.convert %arg6 : (tensor<3072xbf16>) -> tensor<3072xf32>
    %7 = stablehlo.broadcast_in_dim %6, dims = [2] : (tensor<3072xf32>) -> tensor<1x7x3072xf32>
    %8 = stablehlo.convert %arg4 : (tensor<1x7xi64>) -> tensor<1x7xui32>
    %9 = stablehlo.reshape %8 : (tensor<1x7xui32>) -> tensor<7xui32>
    %10 = "stablehlo.gather"(%arg5, %9) <{dimension_numbers = #stablehlo.gather<offset_dims = [1], collapsed_slice_dims = [0], start_index_map = [0], index_vector_dim = 1>, slice_sizes = array<i64: 1, 3072>}> : (tensor<128256x3072xbf16>, tensor<7xui32>) -> tensor<7x3072xbf16>
    %11 = stablehlo.reshape %10 : (tensor<7x3072xbf16>) -> tensor<1x7x3072xbf16>
    %12 = stablehlo.convert %11 : (tensor<1x7x3072xbf16>) -> tensor<1x7x3072xf32>
    %13 = stablehlo.power %12, %0 : tensor<1x7x3072xf32>
    %14 = stablehlo.reduce(%13 init: %cst) applies stablehlo.add across dimensions = [2] : (tensor<1x7x3072xf32>, tensor<f32>) -> tensor<1x7xf32>
    %15 = stablehlo.multiply %14, %cst_1 : tensor<1x7xf32>
    %16 = stablehlo.reshape %15 : (tensor<1x7xf32>) -> tensor<1x7x1xf32>
    %17 = stablehlo.broadcast_in_dim %arg3, dims = [] : (tensor<f32>) -> tensor<1x7x1xf32>
    %18 = stablehlo.add %16, %17 : tensor<1x7x1xf32>
    %19 = stablehlo.rsqrt %18 : tensor<1x7x1xf32>
    %20 = stablehlo.reshape %19 : (tensor<1x7x1xf32>) -> tensor<1x7xf32>
    %21 = stablehlo.broadcast_in_dim %20, dims = [0, 1] : (tensor<1x7xf32>) -> tensor<1x7x3072xf32>
    %22 = stablehlo.multiply %12, %21 : tensor<1x7x3072xf32>
    %23 = stablehlo.convert %22 : (tensor<1x7x3072xf32>) -> tensor<1x7x3072xbf16>
    %24 = stablehlo.convert %23 : (tensor<1x7x3072xbf16>) -> tensor<1x7x3072xf32>
    %25 = stablehlo.multiply %7, %24 : tensor<1x7x3072xf32>
    %26 = stablehlo.convert %25 : (tensor<1x7x3072xf32>) -> tensor<1x7x3072xbf16>
    %27 = stablehlo.reshape %26 : (tensor<1x7x3072xbf16>) -> tensor<7x3072xbf16>
    %28 = stablehlo.transpose %arg2, dims = [1, 0] {result_layout = dense<[0, 1]> : tensor<2xindex>, xla_shape = "bf16[3072,1024]{0,1}"} : (tensor<1024x3072xbf16>) -> tensor<3072x1024xbf16>
    %29 = stablehlo.dot_general %27, %28, contracting_dims = [1] x [0] : (tensor<7x3072xbf16>, tensor<3072x1024xbf16>) -> tensor<7x1024xbf16>
    %30 = stablehlo.reshape %29 : (tensor<7x1024xbf16>) -> tensor<1x7x8x128xbf16>
    %31 = stablehlo.transpose %30, dims = [0, 2, 1, 3] {result_layout = dense<[3, 1, 2, 0]> : tensor<4xindex>, xla_shape = "bf16[1,8,7,128]{3,1,2,0}"} : (tensor<1x7x8x128xbf16>) -> tensor<1x8x7x128xbf16>
    %32 = stablehlo.convert %31 {result_layout = dense<[3, 1, 2, 0]> : tensor<4xindex>, xla_shape = "f32[1,8,7,128]{3,1,2,0}"} : (tensor<1x8x7x128xbf16>) -> tensor<1x8x7x128xf32>
    %33 = stablehlo.reshape %arg1 : (tensor<64xf32>) -> tensor<1x64x1xf32>
    %34 = stablehlo.convert %arg0 : (tensor<7xi64>) -> tensor<7xf32>
    %35 = stablehlo.reshape %34 : (tensor<7xf32>) -> tensor<1x1x7xf32>
    %36 = stablehlo.dot_general %33, %35, batching_dims = [0] x [0], contracting_dims = [2] x [1] : (tensor<1x64x1xf32>, tensor<1x1x7xf32>) -> tensor<1x64x7xf32>
    %37 = stablehlo.transpose %36, dims = [0, 2, 1] {result_layout = dense<[1, 2, 0]> : tensor<3xindex>, xla_shape = "f32[1,7,64]{1,2,0}"} : (tensor<1x64x7xf32>) -> tensor<1x7x64xf32>
    %38 = stablehlo.concatenate %37, %37, dim = 2 : (tensor<1x7x64xf32>, tensor<1x7x64xf32>) -> tensor<1x7x128xf32>
    %39 = stablehlo.cosine %38 : tensor<1x7x128xf32>
    %40 = stablehlo.convert %39 : (tensor<1x7x128xf32>) -> tensor<1x7x128xbf16>
    %41 = stablehlo.convert %40 : (tensor<1x7x128xbf16>) -> tensor<1x7x128xf32>
    %42 = stablehlo.broadcast_in_dim %41, dims = [0, 2, 3] : (tensor<1x7x128xf32>) -> tensor<1x8x7x128xf32>
    %43 = stablehlo.multiply %32, %42 : tensor<1x8x7x128xf32>
    %44 = stablehlo.convert %43 : (tensor<1x8x7x128xf32>) -> tensor<1x8x7x128xbf16>
    %45 = stablehlo.slice %31 [0:1, 0:8, 0:7, 64:128] : (tensor<1x8x7x128xbf16>) -> tensor<1x8x7x64xbf16>
    %46 = stablehlo.negate %45 : tensor<1x8x7x64xbf16>
    %47 = stablehlo.slice %31 [0:1, 0:8, 0:7, 0:64] : (tensor<1x8x7x128xbf16>) -> tensor<1x8x7x64xbf16>
    %48 = stablehlo.concatenate %46, %47, dim = 3 : (tensor<1x8x7x64xbf16>, tensor<1x8x7x64xbf16>) -> tensor<1x8x7x128xbf16>
    %49 = stablehlo.convert %48 : (tensor<1x8x7x128xbf16>) -> tensor<1x8x7x128xf32>
    %50 = stablehlo.sine %38 : tensor<1x7x128xf32>
    %51 = stablehlo.convert %50 : (tensor<1x7x128xf32>) -> tensor<1x7x128xbf16>
    %52 = stablehlo.convert %51 : (tensor<1x7x128xbf16>) -> tensor<1x7x128xf32>
    %53 = stablehlo.broadcast_in_dim %52, dims = [0, 2, 3] : (tensor<1x7x128xf32>) -> tensor<1x8x7x128xf32>
    %54 = stablehlo.multiply %49, %53 : tensor<1x8x7x128xf32>
    %55 = stablehlo.convert %54 : (tensor<1x8x7x128xf32>) -> tensor<1x8x7x128xbf16>
    %56 = stablehlo.add %44, %55 : tensor<1x8x7x128xbf16>
    %57 = "stablehlo.scatter"(%arg8, %5, %56) <{scatter_dimension_numbers = #stablehlo.scatter<update_window_dims = [0, 1, 3], inserted_window_dims = [2], scatter_dims_to_operand_dims = [2], index_vector_dim = 1>}> ({
    ^bb0(%arg21: tensor<bf16>, %arg22: tensor<bf16>):
      stablehlo.return %arg22 : tensor<bf16>
    }) : (tensor<1x8x128x128xbf16>, tensor<7x1xi64>, tensor<1x8x7x128xbf16>) -> tensor<1x8x128x128xbf16>
    %58 = sdy.sharding_constraint %57 <@mesh, [{}, {"_axis_0"}, {}, {}]> : tensor<1x8x128x128xbf16>
    %59 = stablehlo.transpose %arg9, dims = [1, 0] {result_layout = dense<[0, 1]> : tensor<2xindex>, xla_shape = "bf16[3072,1024]{0,1}"} : (tensor<1024x3072xbf16>) -> tensor<3072x1024xbf16>
    %60 = stablehlo.dot_general %27, %59, contracting_dims = [1] x [0] : (tensor<7x3072xbf16>, tensor<3072x1024xbf16>) -> tensor<7x1024xbf16>
    %61 = stablehlo.reshape %60 : (tensor<7x1024xbf16>) -> tensor<1x7x8x128xbf16>
    %62 = stablehlo.transpose %61, dims = [0, 2, 1, 3] {result_layout = dense<[3, 1, 2, 0]> : tensor<4xindex>, xla_shape = "bf16[1,8,7,128]{3,1,2,0}"} : (tensor<1x7x8x128xbf16>) -> tensor<1x8x7x128xbf16>
    %63 = "stablehlo.scatter"(%arg10, %5, %62) <{scatter_dimension_numbers = #stablehlo.scatter<update_window_dims = [0, 1, 3], inserted_window_dims = [2], scatter_dims_to_operand_dims = [2], index_vector_dim = 1>}> ({
    ^bb0(%arg21: tensor<bf16>, %arg22: tensor<bf16>):
      stablehlo.return %arg22 : tensor<bf16>
    }) : (tensor<1x8x128x128xbf16>, tensor<7x1xi64>, tensor<1x8x7x128xbf16>) -> tensor<1x8x128x128xbf16>
    %64 = sdy.sharding_constraint %63 <@mesh, [{}, {"_axis_0"}, {}, {}]> : tensor<1x8x128x128xbf16>
    %65 = stablehlo.convert %arg20 : (tensor<3072xbf16>) -> tensor<3072xf32>
    %66 = stablehlo.broadcast_in_dim %65, dims = [2] : (tensor<3072xf32>) -> tensor<1x7x3072xf32>
    %67 = stablehlo.transpose %arg17, dims = [1, 0] {result_layout = dense<[0, 1]> : tensor<2xindex>, xla_shape = "bf16[3072,3072]{0,1}"} : (tensor<3072x3072xbf16>) -> tensor<3072x3072xbf16>
    %68 = stablehlo.dot_general %27, %67, contracting_dims = [1] x [0] : (tensor<7x3072xbf16>, tensor<3072x3072xbf16>) -> tensor<7x3072xbf16>
    %69 = stablehlo.reshape %68 : (tensor<7x3072xbf16>) -> tensor<1x7x24x128xbf16>
    %70 = stablehlo.transpose %69, dims = [0, 2, 1, 3] {result_layout = dense<[3, 1, 2, 0]> : tensor<4xindex>, xla_shape = "bf16[1,24,7,128]{3,1,2,0}"} : (tensor<1x7x24x128xbf16>) -> tensor<1x24x7x128xbf16>
    %71 = stablehlo.convert %70 {result_layout = dense<[3, 1, 2, 0]> : tensor<4xindex>, xla_shape = "f32[1,24,7,128]{3,1,2,0}"} : (tensor<1x24x7x128xbf16>) -> tensor<1x24x7x128xf32>
    %72 = stablehlo.broadcast_in_dim %41, dims = [0, 2, 3] : (tensor<1x7x128xf32>) -> tensor<1x24x7x128xf32>
    %73 = stablehlo.multiply %71, %72 : tensor<1x24x7x128xf32>
    %74 = stablehlo.convert %73 : (tensor<1x24x7x128xf32>) -> tensor<1x24x7x128xbf16>
    %75 = stablehlo.slice %70 [0:1, 0:24, 0:7, 64:128] : (tensor<1x24x7x128xbf16>) -> tensor<1x24x7x64xbf16>
    %76 = stablehlo.negate %75 : tensor<1x24x7x64xbf16>
    %77 = stablehlo.slice %70 [0:1, 0:24, 0:7, 0:64] : (tensor<1x24x7x128xbf16>) -> tensor<1x24x7x64xbf16>
    %78 = stablehlo.concatenate %76, %77, dim = 3 : (tensor<1x24x7x64xbf16>, tensor<1x24x7x64xbf16>) -> tensor<1x24x7x128xbf16>
    %79 = stablehlo.convert %78 : (tensor<1x24x7x128xbf16>) -> tensor<1x24x7x128xf32>
    %80 = stablehlo.broadcast_in_dim %52, dims = [0, 2, 3] : (tensor<1x7x128xf32>) -> tensor<1x24x7x128xf32>
    %81 = stablehlo.multiply %79, %80 : tensor<1x24x7x128xf32>
    %82 = stablehlo.convert %81 : (tensor<1x24x7x128xf32>) -> tensor<1x24x7x128xbf16>
    %83 = stablehlo.add %74, %82 : tensor<1x24x7x128xbf16>
    %84 = stablehlo.reshape %83 : (tensor<1x24x7x128xbf16>) -> tensor<24x7x128xbf16>
    %85 = stablehlo.broadcast_in_dim %57, dims = [0, 1, 3, 4] : (tensor<1x8x128x128xbf16>) -> tensor<1x8x3x128x128xbf16>
    %86 = stablehlo.reshape %85 : (tensor<1x8x3x128x128xbf16>) -> tensor<1x24x128x128xbf16>
    %87 = stablehlo.transpose %86, dims = [0, 1, 3, 2] {result_layout = dense<[2, 3, 1, 0]> : tensor<4xindex>, xla_shape = "bf16[1,24,128,128]{2,3,1,0}"} : (tensor<1x24x128x128xbf16>) -> tensor<1x24x128x128xbf16>
    %88 = stablehlo.reshape %87 : (tensor<1x24x128x128xbf16>) -> tensor<24x128x128xbf16>
    %89 = stablehlo.dot_general %84, %88, batching_dims = [0] x [0], contracting_dims = [2] x [1] : (tensor<24x7x128xbf16>, tensor<24x128x128xbf16>) -> tensor<24x7x128xbf16>
    %90 = stablehlo.convert %89 : (tensor<24x7x128xbf16>) -> tensor<24x7x128xf32>
    %91 = stablehlo.reshape %90 : (tensor<24x7x128xf32>) -> tensor<1x24x7x128xf32>
    %92 = stablehlo.broadcast_in_dim %arg16, dims = [] : (tensor<f32>) -> tensor<1x24x7x128xf32>
    %93 = stablehlo.multiply %91, %92 : tensor<1x24x7x128xf32>
    %94 = stablehlo.convert %93 : (tensor<1x24x7x128xf32>) -> tensor<1x24x7x128xbf16>
    %95 = stablehlo.convert %arg15 : (tensor<7x128xbf16>) -> tensor<7x128xf32>
    %96 = stablehlo.broadcast_in_dim %arg14, dims = [1] : (tensor<128xi64>) -> tensor<7x128xi64>
    %97 = stablehlo.broadcast_in_dim %arg0, dims = [0] : (tensor<7xi64>) -> tensor<7x128xi64>
    %98 = stablehlo.compare  GT, %96, %97 : (tensor<7x128xi64>, tensor<7x128xi64>) -> tensor<7x128xi1>
    %99 = stablehlo.convert %98 : (tensor<7x128xi1>) -> tensor<7x128xf32>
    %100 = stablehlo.multiply %95, %99 : tensor<7x128xf32>
    %101 = stablehlo.convert %100 : (tensor<7x128xf32>) -> tensor<7x128xbf16>
    %102 = stablehlo.reshape %101 : (tensor<7x128xbf16>) -> tensor<1x7x128xbf16>
    %103 = stablehlo.broadcast_in_dim %102, dims = [0, 2, 3] : (tensor<1x7x128xbf16>) -> tensor<1x24x7x128xbf16>
    %104 = stablehlo.add %94, %103 : tensor<1x24x7x128xbf16>
    %105 = stablehlo.convert %104 : (tensor<1x24x7x128xbf16>) -> tensor<1x24x7x128xf32>
    %106 = stablehlo.reduce(%105 init: %cst_0) applies stablehlo.maximum across dimensions = [3] : (tensor<1x24x7x128xf32>, tensor<f32>) -> tensor<1x24x7xf32>
    %107 = stablehlo.broadcast_in_dim %106, dims = [0, 1, 2] : (tensor<1x24x7xf32>) -> tensor<1x24x7x128xf32>
    %108 = stablehlo.subtract %105, %107 : tensor<1x24x7x128xf32>
    %109 = stablehlo.exponential %108 : tensor<1x24x7x128xf32>
    %110 = stablehlo.reduce(%109 init: %cst) applies stablehlo.add across dimensions = [3] : (tensor<1x24x7x128xf32>, tensor<f32>) -> tensor<1x24x7xf32>
    %111 = stablehlo.broadcast_in_dim %110, dims = [0, 1, 2] : (tensor<1x24x7xf32>) -> tensor<1x24x7x128xf32>
    %112 = stablehlo.divide %109, %111 : tensor<1x24x7x128xf32>
    %113 = stablehlo.convert %112 : (tensor<1x24x7x128xf32>) -> tensor<1x24x7x128xbf16>
    %114 = stablehlo.reshape %113 : (tensor<1x24x7x128xbf16>) -> tensor<24x7x128xbf16>
    %115 = stablehlo.broadcast_in_dim %63, dims = [0, 1, 3, 4] : (tensor<1x8x128x128xbf16>) -> tensor<1x8x3x128x128xbf16>
    %116 = stablehlo.reshape %115 : (tensor<1x8x3x128x128xbf16>) -> tensor<24x128x128xbf16>
    %117 = stablehlo.dot_general %114, %116, batching_dims = [0] x [0], contracting_dims = [2] x [1] : (tensor<24x7x128xbf16>, tensor<24x128x128xbf16>) -> tensor<24x7x128xbf16>
    %118 = stablehlo.reshape %117 : (tensor<24x7x128xbf16>) -> tensor<1x24x7x128xbf16>
    %119 = stablehlo.transpose %118, dims = [0, 2, 1, 3] {result_layout = dense<[3, 1, 2, 0]> : tensor<4xindex>, xla_shape = "bf16[1,7,24,128]{3,1,2,0}"} : (tensor<1x24x7x128xbf16>) -> tensor<1x7x24x128xbf16>
    %120 = stablehlo.reshape %119 : (tensor<1x7x24x128xbf16>) -> tensor<7x3072xbf16>
    %121 = stablehlo.transpose %arg13, dims = [1, 0] {result_layout = dense<[0, 1]> : tensor<2xindex>, xla_shape = "bf16[3072,3072]{0,1}"} : (tensor<3072x3072xbf16>) -> tensor<3072x3072xbf16>
    %122 = stablehlo.dot_general %120, %121, contracting_dims = [1] x [0] : (tensor<7x3072xbf16>, tensor<3072x3072xbf16>) -> tensor<7x3072xbf16>
    %123 = stablehlo.reshape %122 : (tensor<7x3072xbf16>) -> tensor<1x7x3072xbf16>
    %124 = stablehlo.add %11, %123 : tensor<1x7x3072xbf16>
    %125 = stablehlo.convert %arg18 : (tensor<3072xbf16>) -> tensor<3072xf32>
    %126 = stablehlo.broadcast_in_dim %125, dims = [2] : (tensor<3072xf32>) -> tensor<1x7x3072xf32>
    %127 = stablehlo.convert %124 : (tensor<1x7x3072xbf16>) -> tensor<1x7x3072xf32>
    %128 = stablehlo.power %127, %0 : tensor<1x7x3072xf32>
    %129 = stablehlo.reduce(%128 init: %cst) applies stablehlo.add across dimensions = [2] : (tensor<1x7x3072xf32>, tensor<f32>) -> tensor<1x7xf32>
    %130 = stablehlo.multiply %129, %cst_1 : tensor<1x7xf32>
    %131 = stablehlo.reshape %130 : (tensor<1x7xf32>) -> tensor<1x7x1xf32>
    %132 = stablehlo.add %131, %17 : tensor<1x7x1xf32>
    %133 = stablehlo.rsqrt %132 : tensor<1x7x1xf32>
    %134 = stablehlo.reshape %133 : (tensor<1x7x1xf32>) -> tensor<1x7xf32>
    %135 = stablehlo.broadcast_in_dim %134, dims = [0, 1] : (tensor<1x7xf32>) -> tensor<1x7x3072xf32>
    %136 = stablehlo.multiply %127, %135 : tensor<1x7x3072xf32>
    %137 = stablehlo.convert %136 : (tensor<1x7x3072xf32>) -> tensor<1x7x3072xbf16>
    %138 = stablehlo.convert %137 : (tensor<1x7x3072xbf16>) -> tensor<1x7x3072xf32>
    %139 = stablehlo.multiply %126, %138 : tensor<1x7x3072xf32>
    %140 = stablehlo.convert %139 : (tensor<1x7x3072xf32>) -> tensor<1x7x3072xbf16>
    %141 = stablehlo.reshape %140 : (tensor<1x7x3072xbf16>) -> tensor<7x3072xbf16>
    %142 = stablehlo.transpose %arg19, dims = [1, 0] {result_layout = dense<[0, 1]> : tensor<2xindex>, xla_shape = "bf16[3072,8192]{0,1}"} : (tensor<8192x3072xbf16>) -> tensor<3072x8192xbf16>
    %143 = stablehlo.dot_general %141, %142, contracting_dims = [1] x [0] : (tensor<7x3072xbf16>, tensor<3072x8192xbf16>) -> tensor<7x8192xbf16>
    %144 = stablehlo.reshape %143 : (tensor<7x8192xbf16>) -> tensor<1x7x8192xbf16>
    %145 = stablehlo.convert %144 : (tensor<1x7x8192xbf16>) -> tensor<1x7x8192xf32>
    %146 = stablehlo.logistic %144 : tensor<1x7x8192xbf16>
    %147 = stablehlo.convert %146 : (tensor<1x7x8192xbf16>) -> tensor<1x7x8192xf32>
    %148 = stablehlo.multiply %145, %147 : tensor<1x7x8192xf32>
    %149 = stablehlo.convert %148 : (tensor<1x7x8192xf32>) -> tensor<1x7x8192xbf16>
    %150 = stablehlo.convert %149 : (tensor<1x7x8192xbf16>) -> tensor<1x7x8192xf32>
    %151 = stablehlo.transpose %arg12, dims = [1, 0] {result_layout = dense<[0, 1]> : tensor<2xindex>, xla_shape = "bf16[3072,8192]{0,1}"} : (tensor<8192x3072xbf16>) -> tensor<3072x8192xbf16>
    %152 = stablehlo.dot_general %141, %151, contracting_dims = [1] x [0] : (tensor<7x3072xbf16>, tensor<3072x8192xbf16>) -> tensor<7x8192xbf16>
    %153 = stablehlo.convert %152 : (tensor<7x8192xbf16>) -> tensor<7x8192xf32>
    %154 = stablehlo.reshape %153 : (tensor<7x8192xf32>) -> tensor<1x7x8192xf32>
    %155 = stablehlo.multiply %150, %154 : tensor<1x7x8192xf32>
    %156 = stablehlo.convert %155 : (tensor<1x7x8192xf32>) -> tensor<1x7x8192xbf16>
    %157 = stablehlo.reshape %156 : (tensor<1x7x8192xbf16>) -> tensor<7x8192xbf16>
    %158 = stablehlo.transpose %arg11, dims = [1, 0] {result_layout = dense<[0, 1]> : tensor<2xindex>, xla_shape = "bf16[8192,3072]{0,1}"} : (tensor<3072x8192xbf16>) -> tensor<8192x3072xbf16>
    %159 = stablehlo.dot_general %157, %158, contracting_dims = [1] x [0] : (tensor<7x8192xbf16>, tensor<8192x3072xbf16>) -> tensor<7x3072xbf16>
    %160 = stablehlo.reshape %159 : (tensor<7x3072xbf16>) -> tensor<1x7x3072xbf16>
    %161 = stablehlo.add %124, %160 : tensor<1x7x3072xbf16>
    %162 = stablehlo.convert %161 : (tensor<1x7x3072xbf16>) -> tensor<1x7x3072xf32>
    %163 = stablehlo.power %162, %0 : tensor<1x7x3072xf32>
    %164 = stablehlo.reduce(%163 init: %cst) applies stablehlo.add across dimensions = [2] : (tensor<1x7x3072xf32>, tensor<f32>) -> tensor<1x7xf32>
    %165 = stablehlo.multiply %164, %cst_1 : tensor<1x7xf32>
    %166 = stablehlo.reshape %165 : (tensor<1x7xf32>) -> tensor<1x7x1xf32>
    %167 = stablehlo.add %166, %17 : tensor<1x7x1xf32>
    %168 = stablehlo.rsqrt %167 : tensor<1x7x1xf32>
    %169 = stablehlo.reshape %168 : (tensor<1x7x1xf32>) -> tensor<1x7xf32>
    %170 = stablehlo.broadcast_in_dim %169, dims = [0, 1] : (tensor<1x7xf32>) -> tensor<1x7x3072xf32>
    %171 = stablehlo.multiply %162, %170 : tensor<1x7x3072xf32>
    %172 = stablehlo.convert %171 : (tensor<1x7x3072xf32>) -> tensor<1x7x3072xbf16>
    %173 = stablehlo.convert %172 : (tensor<1x7x3072xbf16>) -> tensor<1x7x3072xf32>
    %174 = stablehlo.multiply %66, %173 : tensor<1x7x3072xf32>
    %175 = stablehlo.convert %174 : (tensor<1x7x3072xf32>) -> tensor<1x7x3072xbf16>
    %176 = stablehlo.reshape %175 : (tensor<1x7x3072xbf16>) -> tensor<7x3072xbf16>
    %177 = stablehlo.transpose %arg5, dims = [1, 0] {result_layout = dense<[0, 1]> : tensor<2xindex>, xla_shape = "bf16[3072,128256]{0,1}"} : (tensor<128256x3072xbf16>) -> tensor<3072x128256xbf16>
    %178 = stablehlo.dot_general %176, %177, contracting_dims = [1] x [0] : (tensor<7x3072xbf16>, tensor<3072x128256xbf16>) -> tensor<7x128256xbf16>
    %179 = stablehlo.reshape %178 : (tensor<7x128256xbf16>) -> tensor<1x7x128256xbf16>
    return %58, %64, %178, %179 : tensor<1x8x128x128xbf16>, tensor<1x8x128x128xbf16>, tensor<7x128256xbf16>, tensor<1x7x128256xbf16>
  }
}
module @SyncTensorsGraph.374 attributes {mhlo.cross_program_prefetches = [], mhlo.input_output_alias = [], mhlo.is_dynamic = false, mhlo.use_auto_spmd_partitioning = false} {
  sdy.mesh @mesh = <["_axis_0_updated"=1, "_axis_0"=2]>
  func.func @main(%arg0: tensor<7xi64> {ttcore.shard_status = #ttcore.shard_status<presharded>}, %arg1: tensor<64xf32> {ttcore.shard_status = #ttcore.shard_status<presharded>}, %arg2: tensor<1024x3072xbf16> {ttcore.shard_status = #ttcore.shard_status<presharded>}, %arg3: tensor<f32> {ttcore.shard_status = #ttcore.shard_status<presharded>}, %arg4: tensor<1x7xi64> {ttcore.shard_status = #ttcore.shard_status<presharded>}, %arg5: tensor<128256x3072xbf16> {ttcore.shard_status = #ttcore.shard_status<presharded>}, %arg6: tensor<3072xbf16> {ttcore.shard_status = #ttcore.shard_status<presharded>}, %arg7: tensor<i64> {ttcore.shard_status = #ttcore.shard_status<presharded>}, %arg8: tensor<1x8x128x128xbf16> {ttcore.shard_status = #ttcore.shard_status<presharded>}, %arg9: tensor<1024x3072xbf16> {ttcore.shard_status = #ttcore.shard_status<presharded>}, %arg10: tensor<1x8x128x128xbf16> {ttcore.shard_status = #ttcore.shard_status<presharded>}, %arg11: tensor<3072x8192xbf16> {ttcore.shard_status = #ttcore.shard_status<presharded>}, %arg12: tensor<8192x3072xbf16> {ttcore.shard_status = #ttcore.shard_status<presharded>}, %arg13: tensor<3072x3072xbf16> {ttcore.shard_status = #ttcore.shard_status<presharded>}, %arg14: tensor<128xi64> {ttcore.shard_status = #ttcore.shard_status<presharded>}, %arg15: tensor<7x128xbf16> {ttcore.shard_status = #ttcore.shard_status<presharded>}, %arg16: tensor<f32> {ttcore.shard_status = #ttcore.shard_status<presharded>}, %arg17: tensor<3072x3072xbf16> {ttcore.shard_status = #ttcore.shard_status<presharded>}, %arg18: tensor<3072xbf16> {ttcore.shard_status = #ttcore.shard_status<presharded>}, %arg19: tensor<8192x3072xbf16> {ttcore.shard_status = #ttcore.shard_status<presharded>}, %arg20: tensor<3072xbf16> {ttcore.shard_status = #ttcore.shard_status<presharded>}) -> (tensor<1x8x128x128xbf16> {ttcore.shard_status = #ttcore.shard_status<unsharded>}, tensor<1x8x128x128xbf16> {ttcore.shard_status = #ttcore.shard_status<unsharded>}, tensor<7x128256xbf16> {ttcore.shard_status = #ttcore.shard_status<unsharded>}, tensor<1x7x128256xbf16> {ttcore.shard_status = #ttcore.shard_status<unsharded>}) {
    %0:4 = sdy.manual_computation(%arg0, %arg1, %arg2, %arg3, %arg4, %arg5, %arg6, %arg7, %arg8, %arg9, %arg10, %arg11, %arg12, %arg13, %arg14, %arg15, %arg16, %arg17, %arg18, %arg19, %arg20) in_shardings=[<@mesh, [{}]>, <@mesh, [{}]>, <@mesh, [{"_axis_0"}, {}]>, <@mesh, []>, <@mesh, [{}, {}]>, <@mesh, [{}, {}]>, <@mesh, [{}]>, <@mesh, []>, <@mesh, [{}, {"_axis_0"}, {}, {}]>, <@mesh, [{"_axis_0"}, {}]>, <@mesh, [{}, {"_axis_0"}, {}, {}]>, <@mesh, [{}, {"_axis_0"}]>, <@mesh, [{"_axis_0"}, {}]>, <@mesh, [{}, {"_axis_0"}]>, <@mesh, [{}]>, <@mesh, [{}, {}]>, <@mesh, []>, <@mesh, [{"_axis_0"}, {}]>, <@mesh, [{}]>, <@mesh, [{"_axis_0"}, {}]>, <@mesh, [{}]>] out_shardings=[<@mesh, [{}, {"_axis_0"}, {}, {}]>, <@mesh, [{}, {"_axis_0"}, {}, {}]>, <@mesh, [{}, {}]>, <@mesh, [{}, {}, {}]>] manual_axes={"_axis_0_updated", "_axis_0"} (%arg21: tensor<7xi64>, %arg22: tensor<64xf32>, %arg23: tensor<512x3072xbf16>, %arg24: tensor<f32>, %arg25: tensor<1x7xi64>, %arg26: tensor<128256x3072xbf16>, %arg27: tensor<3072xbf16>, %arg28: tensor<i64>, %arg29: tensor<1x4x128x128xbf16>, %arg30: tensor<512x3072xbf16>, %arg31: tensor<1x4x128x128xbf16>, %arg32: tensor<3072x4096xbf16>, %arg33: tensor<4096x3072xbf16>, %arg34: tensor<3072x1536xbf16>, %arg35: tensor<128xi64>, %arg36: tensor<7x128xbf16>, %arg37: tensor<f32>, %arg38: tensor<1536x3072xbf16>, %arg39: tensor<3072xbf16>, %arg40: tensor<4096x3072xbf16>, %arg41: tensor<3072xbf16>) {
      %c = stablehlo.constant dense<0> : tensor<7xi64>
      %cst = stablehlo.constant dense<0.000000e+00> : tensor<f32>
      %cst_0 = stablehlo.constant dense<0xFF800000> : tensor<f32>
      %cst_1 = stablehlo.constant dense<3.25520843E-4> : tensor<1x7xf32>
      %cst_2 = stablehlo.constant dense<2.000000e+00> : tensor<f32>
      %1 = stablehlo.broadcast_in_dim %cst_2, dims = [] : (tensor<f32>) -> tensor<1x7x3072xf32>
      %2 = stablehlo.compare  LT, %arg21, %c : (tensor<7xi64>, tensor<7xi64>) -> tensor<7xi1>
      %3 = stablehlo.broadcast_in_dim %arg28, dims = [] : (tensor<i64>) -> tensor<7xi64>
      %4 = stablehlo.add %arg21, %3 : tensor<7xi64>
      %5 = stablehlo.select %2, %4, %arg21 : tensor<7xi1>, tensor<7xi64>
      %6 = stablehlo.reshape %5 : (tensor<7xi64>) -> tensor<7x1xi64>
      %7 = stablehlo.convert %arg27 : (tensor<3072xbf16>) -> tensor<3072xf32>
      %8 = stablehlo.broadcast_in_dim %7, dims = [2] : (tensor<3072xf32>) -> tensor<1x7x3072xf32>
      %9 = stablehlo.convert %arg25 : (tensor<1x7xi64>) -> tensor<1x7xui32>
      %10 = stablehlo.reshape %9 : (tensor<1x7xui32>) -> tensor<7xui32>
      %11 = "stablehlo.gather"(%arg26, %10) <{dimension_numbers = #stablehlo.gather<offset_dims = [1], collapsed_slice_dims = [0], start_index_map = [0], index_vector_dim = 1>, slice_sizes = array<i64: 1, 3072>}> : (tensor<128256x3072xbf16>, tensor<7xui32>) -> tensor<7x3072xbf16>
      %12 = stablehlo.reshape %11 : (tensor<7x3072xbf16>) -> tensor<1x7x3072xbf16>
      %13 = stablehlo.convert %12 : (tensor<1x7x3072xbf16>) -> tensor<1x7x3072xf32>
      %14 = stablehlo.power %13, %1 : tensor<1x7x3072xf32>
      %15 = stablehlo.reduce(%14 init: %cst) applies stablehlo.add across dimensions = [2] : (tensor<1x7x3072xf32>, tensor<f32>) -> tensor<1x7xf32>
      %16 = stablehlo.multiply %15, %cst_1 : tensor<1x7xf32>
      %17 = stablehlo.reshape %16 : (tensor<1x7xf32>) -> tensor<1x7x1xf32>
      %18 = stablehlo.broadcast_in_dim %arg24, dims = [] : (tensor<f32>) -> tensor<1x7x1xf32>
      %19 = stablehlo.add %17, %18 : tensor<1x7x1xf32>
      %20 = stablehlo.rsqrt %19 : tensor<1x7x1xf32>
      %21 = stablehlo.reshape %20 : (tensor<1x7x1xf32>) -> tensor<1x7xf32>
      %22 = stablehlo.broadcast_in_dim %21, dims = [0, 1] : (tensor<1x7xf32>) -> tensor<1x7x3072xf32>
      %23 = stablehlo.multiply %13, %22 : tensor<1x7x3072xf32>
      %24 = stablehlo.convert %23 : (tensor<1x7x3072xf32>) -> tensor<1x7x3072xbf16>
      %25 = stablehlo.convert %24 : (tensor<1x7x3072xbf16>) -> tensor<1x7x3072xf32>
      %26 = stablehlo.multiply %8, %25 : tensor<1x7x3072xf32>
      %27 = stablehlo.convert %26 : (tensor<1x7x3072xf32>) -> tensor<1x7x3072xbf16>
      %28 = stablehlo.reshape %27 : (tensor<1x7x3072xbf16>) -> tensor<7x3072xbf16>
      %29 = stablehlo.transpose %arg23, dims = [1, 0] {result_layout = dense<[0, 1]> : tensor<2xindex>, xla_shape = "bf16[3072,1024]{0,1}"} : (tensor<512x3072xbf16>) -> tensor<3072x512xbf16>
      %30 = stablehlo.dot_general %28, %29, contracting_dims = [1] x [0] : (tensor<7x3072xbf16>, tensor<3072x512xbf16>) -> tensor<7x512xbf16>
      %31 = stablehlo.reshape %30 : (tensor<7x512xbf16>) -> tensor<1x7x4x128xbf16>
      %32 = stablehlo.transpose %31, dims = [0, 2, 1, 3] {result_layout = dense<[3, 1, 2, 0]> : tensor<4xindex>, xla_shape = "bf16[1,8,7,128]{3,1,2,0}"} : (tensor<1x7x4x128xbf16>) -> tensor<1x4x7x128xbf16>
      %33 = stablehlo.convert %32 {result_layout = dense<[3, 1, 2, 0]> : tensor<4xindex>, xla_shape = "f32[1,8,7,128]{3,1,2,0}"} : (tensor<1x4x7x128xbf16>) -> tensor<1x4x7x128xf32>
      %34 = stablehlo.reshape %arg22 : (tensor<64xf32>) -> tensor<1x64x1xf32>
      %35 = stablehlo.convert %arg21 : (tensor<7xi64>) -> tensor<7xf32>
      %36 = stablehlo.reshape %35 : (tensor<7xf32>) -> tensor<1x1x7xf32>
      %37 = stablehlo.dot_general %34, %36, batching_dims = [0] x [0], contracting_dims = [2] x [1] : (tensor<1x64x1xf32>, tensor<1x1x7xf32>) -> tensor<1x64x7xf32>
      %38 = stablehlo.transpose %37, dims = [0, 2, 1] {result_layout = dense<[1, 2, 0]> : tensor<3xindex>, xla_shape = "f32[1,7,64]{1,2,0}"} : (tensor<1x64x7xf32>) -> tensor<1x7x64xf32>
      %39 = stablehlo.concatenate %38, %38, dim = 2 : (tensor<1x7x64xf32>, tensor<1x7x64xf32>) -> tensor<1x7x128xf32>
      %40 = stablehlo.cosine %39 : tensor<1x7x128xf32>
      %41 = stablehlo.convert %40 : (tensor<1x7x128xf32>) -> tensor<1x7x128xbf16>
      %42 = stablehlo.convert %41 : (tensor<1x7x128xbf16>) -> tensor<1x7x128xf32>
      %43 = stablehlo.broadcast_in_dim %42, dims = [0, 2, 3] : (tensor<1x7x128xf32>) -> tensor<1x4x7x128xf32>
      %44 = stablehlo.multiply %33, %43 : tensor<1x4x7x128xf32>
      %45 = stablehlo.convert %44 : (tensor<1x4x7x128xf32>) -> tensor<1x4x7x128xbf16>
      %46 = stablehlo.slice %32 [0:1, 0:4, 0:7, 64:128] : (tensor<1x4x7x128xbf16>) -> tensor<1x4x7x64xbf16>
      %47 = stablehlo.negate %46 : tensor<1x4x7x64xbf16>
      %48 = stablehlo.slice %32 [0:1, 0:4, 0:7, 0:64] : (tensor<1x4x7x128xbf16>) -> tensor<1x4x7x64xbf16>
      %49 = stablehlo.concatenate %47, %48, dim = 3 : (tensor<1x4x7x64xbf16>, tensor<1x4x7x64xbf16>) -> tensor<1x4x7x128xbf16>
      %50 = stablehlo.convert %49 : (tensor<1x4x7x128xbf16>) -> tensor<1x4x7x128xf32>
      %51 = stablehlo.sine %39 : tensor<1x7x128xf32>
      %52 = stablehlo.convert %51 : (tensor<1x7x128xf32>) -> tensor<1x7x128xbf16>
      %53 = stablehlo.convert %52 : (tensor<1x7x128xbf16>) -> tensor<1x7x128xf32>
      %54 = stablehlo.broadcast_in_dim %53, dims = [0, 2, 3] : (tensor<1x7x128xf32>) -> tensor<1x4x7x128xf32>
      %55 = stablehlo.multiply %50, %54 : tensor<1x4x7x128xf32>
      %56 = stablehlo.convert %55 : (tensor<1x4x7x128xf32>) -> tensor<1x4x7x128xbf16>
      %57 = stablehlo.add %45, %56 : tensor<1x4x7x128xbf16>
      %58 = "stablehlo.scatter"(%arg29, %6, %57) <{scatter_dimension_numbers = #stablehlo.scatter<update_window_dims = [0, 1, 3], inserted_window_dims = [2], scatter_dims_to_operand_dims = [2], index_vector_dim = 1>}> ({
      ^bb0(%arg42: tensor<bf16>, %arg43: tensor<bf16>):
        stablehlo.return %arg43 : tensor<bf16>
      }) : (tensor<1x4x128x128xbf16>, tensor<7x1xi64>, tensor<1x4x7x128xbf16>) -> tensor<1x4x128x128xbf16>
      %59 = stablehlo.transpose %arg30, dims = [1, 0] {result_layout = dense<[0, 1]> : tensor<2xindex>, xla_shape = "bf16[3072,1024]{0,1}"} : (tensor<512x3072xbf16>) -> tensor<3072x512xbf16>
      %60 = stablehlo.dot_general %28, %59, contracting_dims = [1] x [0] : (tensor<7x3072xbf16>, tensor<3072x512xbf16>) -> tensor<7x512xbf16>
      %61 = stablehlo.reshape %60 : (tensor<7x512xbf16>) -> tensor<1x7x4x128xbf16>
      %62 = stablehlo.transpose %61, dims = [0, 2, 1, 3] {result_layout = dense<[3, 1, 2, 0]> : tensor<4xindex>, xla_shape = "bf16[1,8,7,128]{3,1,2,0}"} : (tensor<1x7x4x128xbf16>) -> tensor<1x4x7x128xbf16>
      %63 = "stablehlo.scatter"(%arg31, %6, %62) <{scatter_dimension_numbers = #stablehlo.scatter<update_window_dims = [0, 1, 3], inserted_window_dims = [2], scatter_dims_to_operand_dims = [2], index_vector_dim = 1>}> ({
      ^bb0(%arg42: tensor<bf16>, %arg43: tensor<bf16>):
        stablehlo.return %arg43 : tensor<bf16>
      }) : (tensor<1x4x128x128xbf16>, tensor<7x1xi64>, tensor<1x4x7x128xbf16>) -> tensor<1x4x128x128xbf16>
      %64 = stablehlo.convert %arg41 : (tensor<3072xbf16>) -> tensor<3072xf32>
      %65 = stablehlo.broadcast_in_dim %64, dims = [2] : (tensor<3072xf32>) -> tensor<1x7x3072xf32>
      %66 = stablehlo.transpose %arg38, dims = [1, 0] {result_layout = dense<[0, 1]> : tensor<2xindex>, xla_shape = "bf16[3072,3072]{0,1}"} : (tensor<1536x3072xbf16>) -> tensor<3072x1536xbf16>
      %67 = stablehlo.dot_general %28, %66, contracting_dims = [1] x [0] : (tensor<7x3072xbf16>, tensor<3072x1536xbf16>) -> tensor<7x1536xbf16>
      %68 = stablehlo.reshape %67 : (tensor<7x1536xbf16>) -> tensor<1x7x12x128xbf16>
      %69 = stablehlo.transpose %68, dims = [0, 2, 1, 3] {result_layout = dense<[3, 1, 2, 0]> : tensor<4xindex>, xla_shape = "bf16[1,24,7,128]{3,1,2,0}"} : (tensor<1x7x12x128xbf16>) -> tensor<1x12x7x128xbf16>
      %70 = stablehlo.convert %69 {result_layout = dense<[3, 1, 2, 0]> : tensor<4xindex>, xla_shape = "f32[1,24,7,128]{3,1,2,0}"} : (tensor<1x12x7x128xbf16>) -> tensor<1x12x7x128xf32>
      %71 = stablehlo.broadcast_in_dim %42, dims = [0, 2, 3] : (tensor<1x7x128xf32>) -> tensor<1x12x7x128xf32>
      %72 = stablehlo.multiply %70, %71 : tensor<1x12x7x128xf32>
      %73 = stablehlo.convert %72 : (tensor<1x12x7x128xf32>) -> tensor<1x12x7x128xbf16>
      %74 = stablehlo.slice %69 [0:1, 0:12, 0:7, 64:128] : (tensor<1x12x7x128xbf16>) -> tensor<1x12x7x64xbf16>
      %75 = stablehlo.negate %74 : tensor<1x12x7x64xbf16>
      %76 = stablehlo.slice %69 [0:1, 0:12, 0:7, 0:64] : (tensor<1x12x7x128xbf16>) -> tensor<1x12x7x64xbf16>
      %77 = stablehlo.concatenate %75, %76, dim = 3 : (tensor<1x12x7x64xbf16>, tensor<1x12x7x64xbf16>) -> tensor<1x12x7x128xbf16>
      %78 = stablehlo.convert %77 : (tensor<1x12x7x128xbf16>) -> tensor<1x12x7x128xf32>
      %79 = stablehlo.broadcast_in_dim %53, dims = [0, 2, 3] : (tensor<1x7x128xf32>) -> tensor<1x12x7x128xf32>
      %80 = stablehlo.multiply %78, %79 : tensor<1x12x7x128xf32>
      %81 = stablehlo.convert %80 : (tensor<1x12x7x128xf32>) -> tensor<1x12x7x128xbf16>
      %82 = stablehlo.add %73, %81 : tensor<1x12x7x128xbf16>
      %83 = stablehlo.reshape %82 : (tensor<1x12x7x128xbf16>) -> tensor<12x7x128xbf16>
      %84 = stablehlo.broadcast_in_dim %58, dims = [0, 1, 3, 4] : (tensor<1x4x128x128xbf16>) -> tensor<1x4x3x128x128xbf16>
      %85 = stablehlo.reshape %84 : (tensor<1x4x3x128x128xbf16>) -> tensor<1x12x128x128xbf16>
      %86 = stablehlo.transpose %85, dims = [0, 1, 3, 2] {result_layout = dense<[2, 3, 1, 0]> : tensor<4xindex>, xla_shape = "bf16[1,24,128,128]{2,3,1,0}"} : (tensor<1x12x128x128xbf16>) -> tensor<1x12x128x128xbf16>
      %87 = stablehlo.reshape %86 : (tensor<1x12x128x128xbf16>) -> tensor<12x128x128xbf16>
      %88 = stablehlo.dot_general %83, %87, batching_dims = [0] x [0], contracting_dims = [2] x [1] : (tensor<12x7x128xbf16>, tensor<12x128x128xbf16>) -> tensor<12x7x128xbf16>
      %89 = stablehlo.convert %88 : (tensor<12x7x128xbf16>) -> tensor<12x7x128xf32>
      %90 = stablehlo.reshape %89 : (tensor<12x7x128xf32>) -> tensor<1x12x7x128xf32>
      %91 = stablehlo.broadcast_in_dim %arg37, dims = [] : (tensor<f32>) -> tensor<1x12x7x128xf32>
      %92 = stablehlo.multiply %90, %91 : tensor<1x12x7x128xf32>
      %93 = stablehlo.convert %92 : (tensor<1x12x7x128xf32>) -> tensor<1x12x7x128xbf16>
      %94 = stablehlo.convert %arg36 : (tensor<7x128xbf16>) -> tensor<7x128xf32>
      %95 = stablehlo.broadcast_in_dim %arg35, dims = [1] : (tensor<128xi64>) -> tensor<7x128xi64>
      %96 = stablehlo.broadcast_in_dim %arg21, dims = [0] : (tensor<7xi64>) -> tensor<7x128xi64>
      %97 = stablehlo.compare  GT, %95, %96 : (tensor<7x128xi64>, tensor<7x128xi64>) -> tensor<7x128xi1>
      %98 = stablehlo.convert %97 : (tensor<7x128xi1>) -> tensor<7x128xf32>
      %99 = stablehlo.multiply %94, %98 : tensor<7x128xf32>
      %100 = stablehlo.convert %99 : (tensor<7x128xf32>) -> tensor<7x128xbf16>
      %101 = stablehlo.reshape %100 : (tensor<7x128xbf16>) -> tensor<1x7x128xbf16>
      %102 = stablehlo.broadcast_in_dim %101, dims = [0, 2, 3] : (tensor<1x7x128xbf16>) -> tensor<1x12x7x128xbf16>
      %103 = stablehlo.add %93, %102 : tensor<1x12x7x128xbf16>
      %104 = stablehlo.convert %103 : (tensor<1x12x7x128xbf16>) -> tensor<1x12x7x128xf32>
      %105 = stablehlo.reduce(%104 init: %cst_0) applies stablehlo.maximum across dimensions = [3] : (tensor<1x12x7x128xf32>, tensor<f32>) -> tensor<1x12x7xf32>
      %106 = stablehlo.broadcast_in_dim %105, dims = [0, 1, 2] : (tensor<1x12x7xf32>) -> tensor<1x12x7x128xf32>
      %107 = stablehlo.subtract %104, %106 : tensor<1x12x7x128xf32>
      %108 = stablehlo.exponential %107 : tensor<1x12x7x128xf32>
      %109 = stablehlo.reduce(%108 init: %cst) applies stablehlo.add across dimensions = [3] : (tensor<1x12x7x128xf32>, tensor<f32>) -> tensor<1x12x7xf32>
      %110 = stablehlo.broadcast_in_dim %109, dims = [0, 1, 2] : (tensor<1x12x7xf32>) -> tensor<1x12x7x128xf32>
      %111 = stablehlo.divide %108, %110 : tensor<1x12x7x128xf32>
      %112 = stablehlo.convert %111 : (tensor<1x12x7x128xf32>) -> tensor<1x12x7x128xbf16>
      %113 = stablehlo.reshape %112 : (tensor<1x12x7x128xbf16>) -> tensor<12x7x128xbf16>
      %114 = stablehlo.broadcast_in_dim %63, dims = [0, 1, 3, 4] : (tensor<1x4x128x128xbf16>) -> tensor<1x4x3x128x128xbf16>
      %115 = stablehlo.reshape %114 : (tensor<1x4x3x128x128xbf16>) -> tensor<12x128x128xbf16>
      %116 = stablehlo.dot_general %113, %115, batching_dims = [0] x [0], contracting_dims = [2] x [1] : (tensor<12x7x128xbf16>, tensor<12x128x128xbf16>) -> tensor<12x7x128xbf16>
      %117 = stablehlo.reshape %116 : (tensor<12x7x128xbf16>) -> tensor<1x12x7x128xbf16>
      %118 = stablehlo.transpose %117, dims = [0, 2, 1, 3] {result_layout = dense<[3, 1, 2, 0]> : tensor<4xindex>, xla_shape = "bf16[1,7,24,128]{3,1,2,0}"} : (tensor<1x12x7x128xbf16>) -> tensor<1x7x12x128xbf16>
      %119 = stablehlo.reshape %118 : (tensor<1x7x12x128xbf16>) -> tensor<7x1536xbf16>
      %120 = stablehlo.transpose %arg34, dims = [1, 0] {result_layout = dense<[0, 1]> : tensor<2xindex>, xla_shape = "bf16[3072,3072]{0,1}"} : (tensor<3072x1536xbf16>) -> tensor<1536x3072xbf16>
      %121 = stablehlo.dot_general %119, %120, contracting_dims = [1] x [0] : (tensor<7x1536xbf16>, tensor<1536x3072xbf16>) -> tensor<7x3072xbf16>
      %122 = "stablehlo.all_reduce"(%121) <{channel_handle = #stablehlo.channel_handle<handle = 1, type = 1>, replica_groups = dense<[[0, 1]]> : tensor<1x2xi64>}> ({
      ^bb0(%arg42: tensor<bf16>, %arg43: tensor<bf16>):
        %181 = stablehlo.add %arg42, %arg43 : tensor<bf16>
        stablehlo.return %181 : tensor<bf16>
      }) : (tensor<7x3072xbf16>) -> tensor<7x3072xbf16>
      %123 = stablehlo.reshape %122 : (tensor<7x3072xbf16>) -> tensor<1x7x3072xbf16>
      %124 = stablehlo.add %12, %123 : tensor<1x7x3072xbf16>
      %125 = stablehlo.convert %arg39 : (tensor<3072xbf16>) -> tensor<3072xf32>
      %126 = stablehlo.broadcast_in_dim %125, dims = [2] : (tensor<3072xf32>) -> tensor<1x7x3072xf32>
      %127 = stablehlo.convert %124 : (tensor<1x7x3072xbf16>) -> tensor<1x7x3072xf32>
      %128 = stablehlo.power %127, %1 : tensor<1x7x3072xf32>
      %129 = stablehlo.reduce(%128 init: %cst) applies stablehlo.add across dimensions = [2] : (tensor<1x7x3072xf32>, tensor<f32>) -> tensor<1x7xf32>
      %130 = stablehlo.multiply %129, %cst_1 : tensor<1x7xf32>
      %131 = stablehlo.reshape %130 : (tensor<1x7xf32>) -> tensor<1x7x1xf32>
      %132 = stablehlo.add %131, %18 : tensor<1x7x1xf32>
      %133 = stablehlo.rsqrt %132 : tensor<1x7x1xf32>
      %134 = stablehlo.reshape %133 : (tensor<1x7x1xf32>) -> tensor<1x7xf32>
      %135 = stablehlo.broadcast_in_dim %134, dims = [0, 1] : (tensor<1x7xf32>) -> tensor<1x7x3072xf32>
      %136 = stablehlo.multiply %127, %135 : tensor<1x7x3072xf32>
      %137 = stablehlo.convert %136 : (tensor<1x7x3072xf32>) -> tensor<1x7x3072xbf16>
      %138 = stablehlo.convert %137 : (tensor<1x7x3072xbf16>) -> tensor<1x7x3072xf32>
      %139 = stablehlo.multiply %126, %138 : tensor<1x7x3072xf32>
      %140 = stablehlo.convert %139 : (tensor<1x7x3072xf32>) -> tensor<1x7x3072xbf16>
      %141 = stablehlo.reshape %140 : (tensor<1x7x3072xbf16>) -> tensor<7x3072xbf16>
      %142 = stablehlo.transpose %arg40, dims = [1, 0] {result_layout = dense<[0, 1]> : tensor<2xindex>, xla_shape = "bf16[3072,8192]{0,1}"} : (tensor<4096x3072xbf16>) -> tensor<3072x4096xbf16>
      %143 = stablehlo.dot_general %141, %142, contracting_dims = [1] x [0] : (tensor<7x3072xbf16>, tensor<3072x4096xbf16>) -> tensor<7x4096xbf16>
      %144 = stablehlo.reshape %143 : (tensor<7x4096xbf16>) -> tensor<1x7x4096xbf16>
      %145 = stablehlo.convert %144 : (tensor<1x7x4096xbf16>) -> tensor<1x7x4096xf32>
      %146 = stablehlo.logistic %144 : tensor<1x7x4096xbf16>
      %147 = stablehlo.convert %146 : (tensor<1x7x4096xbf16>) -> tensor<1x7x4096xf32>
      %148 = stablehlo.multiply %145, %147 : tensor<1x7x4096xf32>
      %149 = stablehlo.convert %148 : (tensor<1x7x4096xf32>) -> tensor<1x7x4096xbf16>
      %150 = stablehlo.convert %149 : (tensor<1x7x4096xbf16>) -> tensor<1x7x4096xf32>
      %151 = stablehlo.transpose %arg33, dims = [1, 0] {result_layout = dense<[0, 1]> : tensor<2xindex>, xla_shape = "bf16[3072,8192]{0,1}"} : (tensor<4096x3072xbf16>) -> tensor<3072x4096xbf16>
      %152 = stablehlo.dot_general %141, %151, contracting_dims = [1] x [0] : (tensor<7x3072xbf16>, tensor<3072x4096xbf16>) -> tensor<7x4096xbf16>
      %153 = stablehlo.convert %152 : (tensor<7x4096xbf16>) -> tensor<7x4096xf32>
      %154 = stablehlo.reshape %153 : (tensor<7x4096xf32>) -> tensor<1x7x4096xf32>
      %155 = stablehlo.multiply %150, %154 : tensor<1x7x4096xf32>
      %156 = stablehlo.convert %155 : (tensor<1x7x4096xf32>) -> tensor<1x7x4096xbf16>
      %157 = stablehlo.reshape %156 : (tensor<1x7x4096xbf16>) -> tensor<7x4096xbf16>
      %158 = stablehlo.transpose %arg32, dims = [1, 0] {result_layout = dense<[0, 1]> : tensor<2xindex>, xla_shape = "bf16[8192,3072]{0,1}"} : (tensor<3072x4096xbf16>) -> tensor<4096x3072xbf16>
      %159 = stablehlo.dot_general %157, %158, contracting_dims = [1] x [0] : (tensor<7x4096xbf16>, tensor<4096x3072xbf16>) -> tensor<7x3072xbf16>
      %160 = "stablehlo.all_reduce"(%159) <{channel_handle = #stablehlo.channel_handle<handle = 1, type = 1>, replica_groups = dense<[[0, 1]]> : tensor<1x2xi64>}> ({
      ^bb0(%arg42: tensor<bf16>, %arg43: tensor<bf16>):
        %181 = stablehlo.add %arg42, %arg43 : tensor<bf16>
        stablehlo.return %181 : tensor<bf16>
      }) : (tensor<7x3072xbf16>) -> tensor<7x3072xbf16>
      %161 = stablehlo.reshape %160 : (tensor<7x3072xbf16>) -> tensor<1x7x3072xbf16>
      %162 = stablehlo.add %124, %161 : tensor<1x7x3072xbf16>
      %163 = stablehlo.convert %162 : (tensor<1x7x3072xbf16>) -> tensor<1x7x3072xf32>
      %164 = stablehlo.power %163, %1 : tensor<1x7x3072xf32>
      %165 = stablehlo.reduce(%164 init: %cst) applies stablehlo.add across dimensions = [2] : (tensor<1x7x3072xf32>, tensor<f32>) -> tensor<1x7xf32>
      %166 = stablehlo.multiply %165, %cst_1 : tensor<1x7xf32>
      %167 = stablehlo.reshape %166 : (tensor<1x7xf32>) -> tensor<1x7x1xf32>
      %168 = stablehlo.add %167, %18 : tensor<1x7x1xf32>
      %169 = stablehlo.rsqrt %168 : tensor<1x7x1xf32>
      %170 = stablehlo.reshape %169 : (tensor<1x7x1xf32>) -> tensor<1x7xf32>
      %171 = stablehlo.broadcast_in_dim %170, dims = [0, 1] : (tensor<1x7xf32>) -> tensor<1x7x3072xf32>
      %172 = stablehlo.multiply %163, %171 : tensor<1x7x3072xf32>
      %173 = stablehlo.convert %172 : (tensor<1x7x3072xf32>) -> tensor<1x7x3072xbf16>
      %174 = stablehlo.convert %173 : (tensor<1x7x3072xbf16>) -> tensor<1x7x3072xf32>
      %175 = stablehlo.multiply %65, %174 : tensor<1x7x3072xf32>
      %176 = stablehlo.convert %175 : (tensor<1x7x3072xf32>) -> tensor<1x7x3072xbf16>
      %177 = stablehlo.reshape %176 : (tensor<1x7x3072xbf16>) -> tensor<7x3072xbf16>
      %178 = stablehlo.transpose %arg26, dims = [1, 0] {result_layout = dense<[0, 1]> : tensor<2xindex>, xla_shape = "bf16[3072,128256]{0,1}"} : (tensor<128256x3072xbf16>) -> tensor<3072x128256xbf16>
      %179 = stablehlo.dot_general %177, %178, contracting_dims = [1] x [0] : (tensor<7x3072xbf16>, tensor<3072x128256xbf16>) -> tensor<7x128256xbf16>
      %180 = stablehlo.reshape %179 : (tensor<7x128256xbf16>) -> tensor<1x7x128256xbf16>
      sdy.return %58, %63, %179, %180 : tensor<1x4x128x128xbf16>, tensor<1x4x128x128xbf16>, tensor<7x128256xbf16>, tensor<1x7x128256xbf16>
    } : (tensor<7xi64>, tensor<64xf32>, tensor<1024x3072xbf16>, tensor<f32>, tensor<1x7xi64>, tensor<128256x3072xbf16>, tensor<3072xbf16>, tensor<i64>, tensor<1x8x128x128xbf16>, tensor<1024x3072xbf16>, tensor<1x8x128x128xbf16>, tensor<3072x8192xbf16>, tensor<8192x3072xbf16>, tensor<3072x3072xbf16>, tensor<128xi64>, tensor<7x128xbf16>, tensor<f32>, tensor<3072x3072xbf16>, tensor<3072xbf16>, tensor<8192x3072xbf16>, tensor<3072xbf16>) -> (tensor<1x8x128x128xbf16>, tensor<1x8x128x128xbf16>, tensor<7x128256xbf16>, tensor<1x7x128256xbf16>)
    return %0#0, %0#1, %0#2, %0#3 : tensor<1x8x128x128xbf16>, tensor<1x8x128x128xbf16>, tensor<7x128256xbf16>, tensor<1x7x128256xbf16>
  }
}
module @SyncTensorsGraph.374 attributes {mhlo.cross_program_prefetches = [], mhlo.input_output_alias = [], mhlo.is_dynamic = false, mhlo.use_auto_spmd_partitioning = false, ttcore.meshes = #ttcore.meshes<[<"mesh" = 1x2>]>} {
  func.func @main(%arg0: tensor<7xi64> {ttcore.shard_status = #ttcore.shard_status<presharded>}, %arg1: tensor<64xf32> {ttcore.shard_status = #ttcore.shard_status<presharded>}, %arg2: tensor<1024x3072xbf16> {ttcore.shard_status = #ttcore.shard_status<presharded>}, %arg3: tensor<f32> {ttcore.shard_status = #ttcore.shard_status<presharded>}, %arg4: tensor<1x7xi64> {ttcore.shard_status = #ttcore.shard_status<presharded>}, %arg5: tensor<128256x3072xbf16> {ttcore.shard_status = #ttcore.shard_status<presharded>}, %arg6: tensor<3072xbf16> {ttcore.shard_status = #ttcore.shard_status<presharded>}, %arg7: tensor<i64> {ttcore.shard_status = #ttcore.shard_status<presharded>}, %arg8: tensor<1x8x128x128xbf16> {ttcore.shard_status = #ttcore.shard_status<presharded>}, %arg9: tensor<1024x3072xbf16> {ttcore.shard_status = #ttcore.shard_status<presharded>}, %arg10: tensor<1x8x128x128xbf16> {ttcore.shard_status = #ttcore.shard_status<presharded>}, %arg11: tensor<3072x8192xbf16> {ttcore.shard_status = #ttcore.shard_status<presharded>}, %arg12: tensor<8192x3072xbf16> {ttcore.shard_status = #ttcore.shard_status<presharded>}, %arg13: tensor<3072x3072xbf16> {ttcore.shard_status = #ttcore.shard_status<presharded>}, %arg14: tensor<128xi64> {ttcore.shard_status = #ttcore.shard_status<presharded>}, %arg15: tensor<7x128xbf16> {ttcore.shard_status = #ttcore.shard_status<presharded>}, %arg16: tensor<f32> {ttcore.shard_status = #ttcore.shard_status<presharded>}, %arg17: tensor<3072x3072xbf16> {ttcore.shard_status = #ttcore.shard_status<presharded>}, %arg18: tensor<3072xbf16> {ttcore.shard_status = #ttcore.shard_status<presharded>}, %arg19: tensor<8192x3072xbf16> {ttcore.shard_status = #ttcore.shard_status<presharded>}, %arg20: tensor<3072xbf16> {ttcore.shard_status = #ttcore.shard_status<presharded>}) -> (tensor<1x8x128x128xbf16> {ttcore.shard_status = #ttcore.shard_status<unsharded>}, tensor<1x8x128x128xbf16> {ttcore.shard_status = #ttcore.shard_status<unsharded>}, tensor<7x128256xbf16> {ttcore.shard_status = #ttcore.shard_status<unsharded>}, tensor<1x7x128256xbf16> {ttcore.shard_status = #ttcore.shard_status<unsharded>}) {
    %0 = ttir.empty() : tensor<7xi64>
    %1 = "ttir.mesh_shard"(%arg0, %0) <{shard_dims = array<i64: -1>, shard_direction = #ttcore.shard_direction<full_to_shard>, shard_shape = array<i64: 1>, shard_type = #ttcore.shard_type<identity>}> : (tensor<7xi64>, tensor<7xi64>) -> tensor<7xi64>
    %2 = ttir.empty() : tensor<64xf32>
    %3 = "ttir.mesh_shard"(%arg1, %2) <{shard_dims = array<i64: -1>, shard_direction = #ttcore.shard_direction<full_to_shard>, shard_shape = array<i64: 1>, shard_type = #ttcore.shard_type<identity>}> : (tensor<64xf32>, tensor<64xf32>) -> tensor<64xf32>
    %4 = ttir.empty() : tensor<512x3072xbf16>
    %5 = "ttir.mesh_shard"(%arg2, %4) <{shard_dims = array<i64: -1, 0>, shard_direction = #ttcore.shard_direction<full_to_shard>, shard_shape = array<i64: 2, 1>, shard_type = #ttcore.shard_type<identity>}> : (tensor<1024x3072xbf16>, tensor<512x3072xbf16>) -> tensor<512x3072xbf16>
    %6 = ttir.empty() : tensor<f32>
    %7 = "ttir.mesh_shard"(%arg3, %6) <{shard_dims = array<i64: -1>, shard_direction = #ttcore.shard_direction<full_to_shard>, shard_shape = array<i64: 1>, shard_type = #ttcore.shard_type<identity>}> : (tensor<f32>, tensor<f32>) -> tensor<f32>
    %8 = ttir.empty() : tensor<1x7xi64>
    %9 = "ttir.mesh_shard"(%arg4, %8) <{shard_dims = array<i64: -1>, shard_direction = #ttcore.shard_direction<full_to_shard>, shard_shape = array<i64: 1>, shard_type = #ttcore.shard_type<identity>}> : (tensor<1x7xi64>, tensor<1x7xi64>) -> tensor<1x7xi64>
    %10 = ttir.empty() : tensor<128256x3072xbf16>
    %11 = "ttir.mesh_shard"(%arg5, %10) <{shard_dims = array<i64: -1>, shard_direction = #ttcore.shard_direction<full_to_shard>, shard_shape = array<i64: 1>, shard_type = #ttcore.shard_type<identity>}> : (tensor<128256x3072xbf16>, tensor<128256x3072xbf16>) -> tensor<128256x3072xbf16>
    %12 = ttir.empty() : tensor<3072xbf16>
    %13 = "ttir.mesh_shard"(%arg6, %12) <{shard_dims = array<i64: -1>, shard_direction = #ttcore.shard_direction<full_to_shard>, shard_shape = array<i64: 1>, shard_type = #ttcore.shard_type<identity>}> : (tensor<3072xbf16>, tensor<3072xbf16>) -> tensor<3072xbf16>
    %14 = ttir.empty() : tensor<i64>
    %15 = "ttir.mesh_shard"(%arg7, %14) <{shard_dims = array<i64: -1>, shard_direction = #ttcore.shard_direction<full_to_shard>, shard_shape = array<i64: 1>, shard_type = #ttcore.shard_type<identity>}> : (tensor<i64>, tensor<i64>) -> tensor<i64>
    %16 = ttir.empty() : tensor<1x4x128x128xbf16>
    %17 = "ttir.mesh_shard"(%arg8, %16) <{shard_dims = array<i64: -1, 1>, shard_direction = #ttcore.shard_direction<full_to_shard>, shard_shape = array<i64: 1, 2, 1, 1>, shard_type = #ttcore.shard_type<identity>}> : (tensor<1x8x128x128xbf16>, tensor<1x4x128x128xbf16>) -> tensor<1x4x128x128xbf16>
    %18 = ttir.empty() : tensor<512x3072xbf16>
    %19 = "ttir.mesh_shard"(%arg9, %18) <{shard_dims = array<i64: -1, 0>, shard_direction = #ttcore.shard_direction<full_to_shard>, shard_shape = array<i64: 2, 1>, shard_type = #ttcore.shard_type<identity>}> : (tensor<1024x3072xbf16>, tensor<512x3072xbf16>) -> tensor<512x3072xbf16>
    %20 = ttir.empty() : tensor<1x4x128x128xbf16>
    %21 = "ttir.mesh_shard"(%arg10, %20) <{shard_dims = array<i64: -1, 1>, shard_direction = #ttcore.shard_direction<full_to_shard>, shard_shape = array<i64: 1, 2, 1, 1>, shard_type = #ttcore.shard_type<identity>}> : (tensor<1x8x128x128xbf16>, tensor<1x4x128x128xbf16>) -> tensor<1x4x128x128xbf16>
    %22 = ttir.empty() : tensor<3072x4096xbf16>
    %23 = "ttir.mesh_shard"(%arg11, %22) <{shard_dims = array<i64: -1, 1>, shard_direction = #ttcore.shard_direction<full_to_shard>, shard_shape = array<i64: 1, 2>, shard_type = #ttcore.shard_type<identity>}> : (tensor<3072x8192xbf16>, tensor<3072x4096xbf16>) -> tensor<3072x4096xbf16>
    %24 = ttir.empty() : tensor<4096x3072xbf16>
    %25 = "ttir.mesh_shard"(%arg12, %24) <{shard_dims = array<i64: -1, 0>, shard_direction = #ttcore.shard_direction<full_to_shard>, shard_shape = array<i64: 2, 1>, shard_type = #ttcore.shard_type<identity>}> : (tensor<8192x3072xbf16>, tensor<4096x3072xbf16>) -> tensor<4096x3072xbf16>
    %26 = ttir.empty() : tensor<3072x1536xbf16>
    %27 = "ttir.mesh_shard"(%arg13, %26) <{shard_dims = array<i64: -1, 1>, shard_direction = #ttcore.shard_direction<full_to_shard>, shard_shape = array<i64: 1, 2>, shard_type = #ttcore.shard_type<identity>}> : (tensor<3072x3072xbf16>, tensor<3072x1536xbf16>) -> tensor<3072x1536xbf16>
    %28 = ttir.empty() : tensor<128xi64>
    %29 = "ttir.mesh_shard"(%arg14, %28) <{shard_dims = array<i64: -1>, shard_direction = #ttcore.shard_direction<full_to_shard>, shard_shape = array<i64: 1>, shard_type = #ttcore.shard_type<identity>}> : (tensor<128xi64>, tensor<128xi64>) -> tensor<128xi64>
    %30 = ttir.empty() : tensor<7x128xbf16>
    %31 = "ttir.mesh_shard"(%arg15, %30) <{shard_dims = array<i64: -1>, shard_direction = #ttcore.shard_direction<full_to_shard>, shard_shape = array<i64: 1>, shard_type = #ttcore.shard_type<identity>}> : (tensor<7x128xbf16>, tensor<7x128xbf16>) -> tensor<7x128xbf16>
    %32 = ttir.empty() : tensor<f32>
    %33 = "ttir.mesh_shard"(%arg16, %32) <{shard_dims = array<i64: -1>, shard_direction = #ttcore.shard_direction<full_to_shard>, shard_shape = array<i64: 1>, shard_type = #ttcore.shard_type<identity>}> : (tensor<f32>, tensor<f32>) -> tensor<f32>
    %34 = ttir.empty() : tensor<1536x3072xbf16>
    %35 = "ttir.mesh_shard"(%arg17, %34) <{shard_dims = array<i64: -1, 0>, shard_direction = #ttcore.shard_direction<full_to_shard>, shard_shape = array<i64: 2, 1>, shard_type = #ttcore.shard_type<identity>}> : (tensor<3072x3072xbf16>, tensor<1536x3072xbf16>) -> tensor<1536x3072xbf16>
    %36 = ttir.empty() : tensor<3072xbf16>
    %37 = "ttir.mesh_shard"(%arg18, %36) <{shard_dims = array<i64: -1>, shard_direction = #ttcore.shard_direction<full_to_shard>, shard_shape = array<i64: 1>, shard_type = #ttcore.shard_type<identity>}> : (tensor<3072xbf16>, tensor<3072xbf16>) -> tensor<3072xbf16>
    %38 = ttir.empty() : tensor<4096x3072xbf16>
    %39 = "ttir.mesh_shard"(%arg19, %38) <{shard_dims = array<i64: -1, 0>, shard_direction = #ttcore.shard_direction<full_to_shard>, shard_shape = array<i64: 2, 1>, shard_type = #ttcore.shard_type<identity>}> : (tensor<8192x3072xbf16>, tensor<4096x3072xbf16>) -> tensor<4096x3072xbf16>
    %40 = ttir.empty() : tensor<3072xbf16>
    %41 = "ttir.mesh_shard"(%arg20, %40) <{shard_dims = array<i64: -1>, shard_direction = #ttcore.shard_direction<full_to_shard>, shard_shape = array<i64: 1>, shard_type = #ttcore.shard_type<identity>}> : (tensor<3072xbf16>, tensor<3072xbf16>) -> tensor<3072xbf16>
    %42 = "ttir.constant"() <{value = dense<0> : tensor<7xi64>}> : () -> tensor<7xi64>
    %43 = "ttir.constant"() <{value = dense<0.000000e+00> : tensor<f32>}> : () -> tensor<f32>
    %44 = "ttir.constant"() <{value = dense<0xFF800000> : tensor<f32>}> : () -> tensor<f32>
    %45 = "ttir.constant"() <{value = dense<3.25520843E-4> : tensor<1x7xf32>}> : () -> tensor<1x7xf32>
    %46 = "ttir.constant"() <{value = dense<2.000000e+00> : tensor<f32>}> : () -> tensor<f32>
    %47 = ttir.empty() : tensor<1x1x1xf32>
    %48 = "ttir.reshape"(%46, %47) <{shape = [1 : i32, 1 : i32, 1 : i32]}> : (tensor<f32>, tensor<1x1x1xf32>) -> tensor<1x1x1xf32>
    %49 = ttir.empty() : tensor<1x7x3072xf32>
    %50 = "ttir.broadcast"(%48, %49) <{broadcast_dimensions = array<i64: 1, 7, 3072>}> : (tensor<1x1x1xf32>, tensor<1x7x3072xf32>) -> tensor<1x7x3072xf32>
    %51 = ttir.empty() : tensor<7xi1>
    %52 = "ttir.lt"(%1, %42, %51) : (tensor<7xi64>, tensor<7xi64>, tensor<7xi1>) -> tensor<7xi1>
    %53 = ttir.empty() : tensor<1xi64>
    %54 = "ttir.reshape"(%15, %53) <{shape = [1 : i32]}> : (tensor<i64>, tensor<1xi64>) -> tensor<1xi64>
    %55 = ttir.empty() : tensor<7xi64>
    %56 = "ttir.broadcast"(%54, %55) <{broadcast_dimensions = array<i64: 7>}> : (tensor<1xi64>, tensor<7xi64>) -> tensor<7xi64>
    %57 = ttir.empty() : tensor<7xi64>
    %58 = "ttir.add"(%1, %56, %57) : (tensor<7xi64>, tensor<7xi64>, tensor<7xi64>) -> tensor<7xi64>
    %59 = ttir.empty() : tensor<7xi64>
    %60 = "ttir.where"(%52, %58, %1, %59) : (tensor<7xi1>, tensor<7xi64>, tensor<7xi64>, tensor<7xi64>) -> tensor<7xi64>
    %61 = ttir.empty() : tensor<7x1xi64>
    %62 = "ttir.reshape"(%60, %61) <{shape = [7 : i32, 1 : i32]}> : (tensor<7xi64>, tensor<7x1xi64>) -> tensor<7x1xi64>
    %63 = ttir.empty() : tensor<3072xf32>
    %64 = "ttir.typecast"(%13, %63) <{conservative_folding = false}> : (tensor<3072xbf16>, tensor<3072xf32>) -> tensor<3072xf32>
    %65 = ttir.empty() : tensor<1x1x3072xf32>
    %66 = "ttir.reshape"(%64, %65) <{shape = [1 : i32, 1 : i32, 3072 : i32]}> : (tensor<3072xf32>, tensor<1x1x3072xf32>) -> tensor<1x1x3072xf32>
    %67 = ttir.empty() : tensor<1x7x3072xf32>
    %68 = "ttir.broadcast"(%66, %67) <{broadcast_dimensions = array<i64: 1, 7, 1>}> : (tensor<1x1x3072xf32>, tensor<1x7x3072xf32>) -> tensor<1x7x3072xf32>
    %69 = ttir.empty() : tensor<1x7xui32>
    %70 = "ttir.typecast"(%9, %69) <{conservative_folding = false}> : (tensor<1x7xi64>, tensor<1x7xui32>) -> tensor<1x7xui32>
    %71 = ttir.empty() : tensor<7xui32>
    %72 = "ttir.reshape"(%70, %71) <{shape = [7 : i32]}> : (tensor<1x7xui32>, tensor<7xui32>) -> tensor<7xui32>
    %73 = ttir.empty() : tensor<7x3072xbf16>
    %74 = "ttir.gather"(%11, %72, %73) <{collapsed_slice_dims = array<i64: 0>, index_vector_dim = 1 : si64, indices_are_sorted = false, offset_dims = array<i64: 1>, operand_batching_dims = array<i64>, slice_sizes = array<i64: 1, 3072>, start_index_map = array<i64: 0>, start_indices_batching_dims = array<i64>}> : (tensor<128256x3072xbf16>, tensor<7xui32>, tensor<7x3072xbf16>) -> tensor<7x3072xbf16>
    %75 = ttir.empty() : tensor<1x7x3072xbf16>
    %76 = "ttir.reshape"(%74, %75) <{shape = [1 : i32, 7 : i32, 3072 : i32]}> : (tensor<7x3072xbf16>, tensor<1x7x3072xbf16>) -> tensor<1x7x3072xbf16>
    %77 = ttir.empty() : tensor<1x7x3072xf32>
    %78 = "ttir.typecast"(%76, %77) <{conservative_folding = false}> : (tensor<1x7x3072xbf16>, tensor<1x7x3072xf32>) -> tensor<1x7x3072xf32>
    %79 = ttir.empty() : tensor<1x7x3072xf32>
    %80 = "ttir.pow"(%78, %50, %79) : (tensor<1x7x3072xf32>, tensor<1x7x3072xf32>, tensor<1x7x3072xf32>) -> tensor<1x7x3072xf32>
    %81 = ttir.empty() : tensor<1x7xf32>
    %82 = "ttir.sum"(%80, %81) <{dim_arg = [2 : i32], keep_dim = false}> : (tensor<1x7x3072xf32>, tensor<1x7xf32>) -> tensor<1x7xf32>
    %83 = ttir.empty() : tensor<1x7xf32>
    %84 = "ttir.multiply"(%82, %45, %83) : (tensor<1x7xf32>, tensor<1x7xf32>, tensor<1x7xf32>) -> tensor<1x7xf32>
    %85 = ttir.empty() : tensor<1x7x1xf32>
    %86 = "ttir.reshape"(%84, %85) <{shape = [1 : i32, 7 : i32, 1 : i32]}> : (tensor<1x7xf32>, tensor<1x7x1xf32>) -> tensor<1x7x1xf32>
    %87 = ttir.empty() : tensor<1x1x1xf32>
    %88 = "ttir.reshape"(%7, %87) <{shape = [1 : i32, 1 : i32, 1 : i32]}> : (tensor<f32>, tensor<1x1x1xf32>) -> tensor<1x1x1xf32>
    %89 = ttir.empty() : tensor<1x7x1xf32>
    %90 = "ttir.broadcast"(%88, %89) <{broadcast_dimensions = array<i64: 1, 7, 1>}> : (tensor<1x1x1xf32>, tensor<1x7x1xf32>) -> tensor<1x7x1xf32>
    %91 = ttir.empty() : tensor<1x7x1xf32>
    %92 = "ttir.add"(%86, %90, %91) : (tensor<1x7x1xf32>, tensor<1x7x1xf32>, tensor<1x7x1xf32>) -> tensor<1x7x1xf32>
    %93 = ttir.empty() : tensor<1x7x1xf32>
    %94 = "ttir.rsqrt"(%92, %93) : (tensor<1x7x1xf32>, tensor<1x7x1xf32>) -> tensor<1x7x1xf32>
    %95 = ttir.empty() : tensor<1x7xf32>
    %96 = "ttir.reshape"(%94, %95) <{shape = [1 : i32, 7 : i32]}> : (tensor<1x7x1xf32>, tensor<1x7xf32>) -> tensor<1x7xf32>
    %97 = ttir.empty() : tensor<1x7x1xf32>
    %98 = "ttir.reshape"(%96, %97) <{shape = [1 : i32, 7 : i32, 1 : i32]}> : (tensor<1x7xf32>, tensor<1x7x1xf32>) -> tensor<1x7x1xf32>
    %99 = ttir.empty() : tensor<1x7x3072xf32>
    %100 = "ttir.broadcast"(%98, %99) <{broadcast_dimensions = array<i64: 1, 1, 3072>}> : (tensor<1x7x1xf32>, tensor<1x7x3072xf32>) -> tensor<1x7x3072xf32>
    %101 = ttir.empty() : tensor<1x7x3072xf32>
    %102 = "ttir.multiply"(%78, %100, %101) : (tensor<1x7x3072xf32>, tensor<1x7x3072xf32>, tensor<1x7x3072xf32>) -> tensor<1x7x3072xf32>
    %103 = ttir.empty() : tensor<1x7x3072xbf16>
    %104 = "ttir.typecast"(%102, %103) <{conservative_folding = false}> : (tensor<1x7x3072xf32>, tensor<1x7x3072xbf16>) -> tensor<1x7x3072xbf16>
    %105 = ttir.empty() : tensor<1x7x3072xf32>
    %106 = "ttir.typecast"(%104, %105) <{conservative_folding = false}> : (tensor<1x7x3072xbf16>, tensor<1x7x3072xf32>) -> tensor<1x7x3072xf32>
    %107 = ttir.empty() : tensor<1x7x3072xf32>
    %108 = "ttir.multiply"(%68, %106, %107) : (tensor<1x7x3072xf32>, tensor<1x7x3072xf32>, tensor<1x7x3072xf32>) -> tensor<1x7x3072xf32>
    %109 = ttir.empty() : tensor<1x7x3072xbf16>
    %110 = "ttir.typecast"(%108, %109) <{conservative_folding = false}> : (tensor<1x7x3072xf32>, tensor<1x7x3072xbf16>) -> tensor<1x7x3072xbf16>
    %111 = ttir.empty() : tensor<7x3072xbf16>
    %112 = "ttir.reshape"(%110, %111) <{shape = [7 : i32, 3072 : i32]}> : (tensor<1x7x3072xbf16>, tensor<7x3072xbf16>) -> tensor<7x3072xbf16>
    %113 = ttir.empty() : tensor<3072x512xbf16>
    %114 = "ttir.permute"(%5, %113) <{permutation = array<i64: 1, 0>}> : (tensor<512x3072xbf16>, tensor<3072x512xbf16>) -> tensor<3072x512xbf16>
    %115 = "ttir.dot_general"(%112, %114) <{batch_dims_lhs = array<i64>, batch_dims_rhs = array<i64>, contract_dims_lhs = array<i64: 1>, contract_dims_rhs = array<i64: 0>}> : (tensor<7x3072xbf16>, tensor<3072x512xbf16>) -> tensor<7x512xbf16>
    %116 = ttir.empty() : tensor<1x7x4x128xbf16>
    %117 = "ttir.reshape"(%115, %116) <{shape = [1 : i32, 7 : i32, 4 : i32, 128 : i32]}> : (tensor<7x512xbf16>, tensor<1x7x4x128xbf16>) -> tensor<1x7x4x128xbf16>
    %118 = ttir.empty() : tensor<1x4x7x128xbf16>
    %119 = "ttir.permute"(%117, %118) <{permutation = array<i64: 0, 2, 1, 3>}> : (tensor<1x7x4x128xbf16>, tensor<1x4x7x128xbf16>) -> tensor<1x4x7x128xbf16>
    %120 = ttir.empty() : tensor<1x4x7x128xf32>
    %121 = "ttir.typecast"(%119, %120) <{conservative_folding = false}> : (tensor<1x4x7x128xbf16>, tensor<1x4x7x128xf32>) -> tensor<1x4x7x128xf32>
    %122 = ttir.empty() : tensor<1x64x1xf32>
    %123 = "ttir.reshape"(%3, %122) <{shape = [1 : i32, 64 : i32, 1 : i32]}> : (tensor<64xf32>, tensor<1x64x1xf32>) -> tensor<1x64x1xf32>
    %124 = ttir.empty() : tensor<7xf32>
    %125 = "ttir.typecast"(%1, %124) <{conservative_folding = false}> : (tensor<7xi64>, tensor<7xf32>) -> tensor<7xf32>
    %126 = ttir.empty() : tensor<1x1x7xf32>
    %127 = "ttir.reshape"(%125, %126) <{shape = [1 : i32, 1 : i32, 7 : i32]}> : (tensor<7xf32>, tensor<1x1x7xf32>) -> tensor<1x1x7xf32>
    %128 = "ttir.dot_general"(%123, %127) <{batch_dims_lhs = array<i64: 0>, batch_dims_rhs = array<i64: 0>, contract_dims_lhs = array<i64: 2>, contract_dims_rhs = array<i64: 1>}> : (tensor<1x64x1xf32>, tensor<1x1x7xf32>) -> tensor<1x64x7xf32>
    %129 = ttir.empty() : tensor<1x7x64xf32>
    %130 = "ttir.permute"(%128, %129) <{permutation = array<i64: 0, 2, 1>}> : (tensor<1x64x7xf32>, tensor<1x7x64xf32>) -> tensor<1x7x64xf32>
    %131 = ttir.empty() : tensor<1x7x128xf32>
    %132 = "ttir.concat"(%130, %130, %131) <{dim = 2 : si32}> : (tensor<1x7x64xf32>, tensor<1x7x64xf32>, tensor<1x7x128xf32>) -> tensor<1x7x128xf32>
    %133 = ttir.empty() : tensor<1x7x128xf32>
    %134 = "ttir.cos"(%132, %133) : (tensor<1x7x128xf32>, tensor<1x7x128xf32>) -> tensor<1x7x128xf32>
    %135 = ttir.empty() : tensor<1x7x128xbf16>
    %136 = "ttir.typecast"(%134, %135) <{conservative_folding = false}> : (tensor<1x7x128xf32>, tensor<1x7x128xbf16>) -> tensor<1x7x128xbf16>
    %137 = ttir.empty() : tensor<1x7x128xf32>
    %138 = "ttir.typecast"(%136, %137) <{conservative_folding = false}> : (tensor<1x7x128xbf16>, tensor<1x7x128xf32>) -> tensor<1x7x128xf32>
    %139 = ttir.empty() : tensor<1x1x7x128xf32>
    %140 = "ttir.reshape"(%138, %139) <{shape = [1 : i32, 1 : i32, 7 : i32, 128 : i32]}> : (tensor<1x7x128xf32>, tensor<1x1x7x128xf32>) -> tensor<1x1x7x128xf32>
    %141 = ttir.empty() : tensor<1x4x7x128xf32>
    %142 = "ttir.broadcast"(%140, %141) <{broadcast_dimensions = array<i64: 1, 4, 1, 1>}> : (tensor<1x1x7x128xf32>, tensor<1x4x7x128xf32>) -> tensor<1x4x7x128xf32>
    %143 = ttir.empty() : tensor<1x4x7x128xf32>
    %144 = "ttir.multiply"(%121, %142, %143) : (tensor<1x4x7x128xf32>, tensor<1x4x7x128xf32>, tensor<1x4x7x128xf32>) -> tensor<1x4x7x128xf32>
    %145 = ttir.empty() : tensor<1x4x7x128xbf16>
    %146 = "ttir.typecast"(%144, %145) <{conservative_folding = false}> : (tensor<1x4x7x128xf32>, tensor<1x4x7x128xbf16>) -> tensor<1x4x7x128xbf16>
    %147 = ttir.empty() : tensor<1x4x7x64xbf16>
    %148 = "ttir.slice_static"(%119, %147) <{begins = [0 : i32, 0 : i32, 0 : i32, 64 : i32], ends = [1 : i32, 4 : i32, 7 : i32, 128 : i32], step = [1 : i32, 1 : i32, 1 : i32, 1 : i32]}> : (tensor<1x4x7x128xbf16>, tensor<1x4x7x64xbf16>) -> tensor<1x4x7x64xbf16>
    %149 = ttir.empty() : tensor<1x4x7x64xbf16>
    %150 = "ttir.neg"(%148, %149) : (tensor<1x4x7x64xbf16>, tensor<1x4x7x64xbf16>) -> tensor<1x4x7x64xbf16>
    %151 = ttir.empty() : tensor<1x4x7x64xbf16>
    %152 = "ttir.slice_static"(%119, %151) <{begins = [0 : i32, 0 : i32, 0 : i32, 0 : i32], ends = [1 : i32, 4 : i32, 7 : i32, 64 : i32], step = [1 : i32, 1 : i32, 1 : i32, 1 : i32]}> : (tensor<1x4x7x128xbf16>, tensor<1x4x7x64xbf16>) -> tensor<1x4x7x64xbf16>
    %153 = ttir.empty() : tensor<1x4x7x128xbf16>
    %154 = "ttir.concat"(%150, %152, %153) <{dim = 3 : si32}> : (tensor<1x4x7x64xbf16>, tensor<1x4x7x64xbf16>, tensor<1x4x7x128xbf16>) -> tensor<1x4x7x128xbf16>
    %155 = ttir.empty() : tensor<1x4x7x128xf32>
    %156 = "ttir.typecast"(%154, %155) <{conservative_folding = false}> : (tensor<1x4x7x128xbf16>, tensor<1x4x7x128xf32>) -> tensor<1x4x7x128xf32>
    %157 = ttir.empty() : tensor<1x7x128xf32>
    %158 = "ttir.sin"(%132, %157) : (tensor<1x7x128xf32>, tensor<1x7x128xf32>) -> tensor<1x7x128xf32>
    %159 = ttir.empty() : tensor<1x7x128xbf16>
    %160 = "ttir.typecast"(%158, %159) <{conservative_folding = false}> : (tensor<1x7x128xf32>, tensor<1x7x128xbf16>) -> tensor<1x7x128xbf16>
    %161 = ttir.empty() : tensor<1x7x128xf32>
    %162 = "ttir.typecast"(%160, %161) <{conservative_folding = false}> : (tensor<1x7x128xbf16>, tensor<1x7x128xf32>) -> tensor<1x7x128xf32>
    %163 = ttir.empty() : tensor<1x1x7x128xf32>
    %164 = "ttir.reshape"(%162, %163) <{shape = [1 : i32, 1 : i32, 7 : i32, 128 : i32]}> : (tensor<1x7x128xf32>, tensor<1x1x7x128xf32>) -> tensor<1x1x7x128xf32>
    %165 = ttir.empty() : tensor<1x4x7x128xf32>
    %166 = "ttir.broadcast"(%164, %165) <{broadcast_dimensions = array<i64: 1, 4, 1, 1>}> : (tensor<1x1x7x128xf32>, tensor<1x4x7x128xf32>) -> tensor<1x4x7x128xf32>
    %167 = ttir.empty() : tensor<1x4x7x128xf32>
    %168 = "ttir.multiply"(%156, %166, %167) : (tensor<1x4x7x128xf32>, tensor<1x4x7x128xf32>, tensor<1x4x7x128xf32>) -> tensor<1x4x7x128xf32>
    %169 = ttir.empty() : tensor<1x4x7x128xbf16>
    %170 = "ttir.typecast"(%168, %169) <{conservative_folding = false}> : (tensor<1x4x7x128xf32>, tensor<1x4x7x128xbf16>) -> tensor<1x4x7x128xbf16>
    %171 = ttir.empty() : tensor<1x4x7x128xbf16>
    %172 = "ttir.add"(%146, %170, %171) : (tensor<1x4x7x128xbf16>, tensor<1x4x7x128xbf16>, tensor<1x4x7x128xbf16>) -> tensor<1x4x7x128xbf16>
    %173 = ttir.empty() : tensor<1x4x128x128xbf16>
    %174 = "ttir.scatter"(%17, %62, %172, %173) <{index_vector_dim = 1 : i32, indices_are_sorted = false, input_batching_dims = array<i32>, inserted_window_dims = array<i32: 2>, scatter_dims_to_operand_dims = array<i32: 2>, scatter_indices_batching_dims = array<i32>, unique_indices = false, update_window_dims = array<i32: 0, 1, 3>}> : (tensor<1x4x128x128xbf16>, tensor<7x1xi64>, tensor<1x4x7x128xbf16>, tensor<1x4x128x128xbf16>) -> tensor<1x4x128x128xbf16>
    %175 = ttir.empty() : tensor<3072x512xbf16>
    %176 = "ttir.permute"(%19, %175) <{permutation = array<i64: 1, 0>}> : (tensor<512x3072xbf16>, tensor<3072x512xbf16>) -> tensor<3072x512xbf16>
    %177 = "ttir.dot_general"(%112, %176) <{batch_dims_lhs = array<i64>, batch_dims_rhs = array<i64>, contract_dims_lhs = array<i64: 1>, contract_dims_rhs = array<i64: 0>}> : (tensor<7x3072xbf16>, tensor<3072x512xbf16>) -> tensor<7x512xbf16>
    %178 = ttir.empty() : tensor<1x7x4x128xbf16>
    %179 = "ttir.reshape"(%177, %178) <{shape = [1 : i32, 7 : i32, 4 : i32, 128 : i32]}> : (tensor<7x512xbf16>, tensor<1x7x4x128xbf16>) -> tensor<1x7x4x128xbf16>
    %180 = ttir.empty() : tensor<1x4x7x128xbf16>
    %181 = "ttir.permute"(%179, %180) <{permutation = array<i64: 0, 2, 1, 3>}> : (tensor<1x7x4x128xbf16>, tensor<1x4x7x128xbf16>) -> tensor<1x4x7x128xbf16>
    %182 = ttir.empty() : tensor<1x4x128x128xbf16>
    %183 = "ttir.scatter"(%21, %62, %181, %182) <{index_vector_dim = 1 : i32, indices_are_sorted = false, input_batching_dims = array<i32>, inserted_window_dims = array<i32: 2>, scatter_dims_to_operand_dims = array<i32: 2>, scatter_indices_batching_dims = array<i32>, unique_indices = false, update_window_dims = array<i32: 0, 1, 3>}> : (tensor<1x4x128x128xbf16>, tensor<7x1xi64>, tensor<1x4x7x128xbf16>, tensor<1x4x128x128xbf16>) -> tensor<1x4x128x128xbf16>
    %184 = ttir.empty() : tensor<3072xf32>
    %185 = "ttir.typecast"(%41, %184) <{conservative_folding = false}> : (tensor<3072xbf16>, tensor<3072xf32>) -> tensor<3072xf32>
    %186 = ttir.empty() : tensor<1x1x3072xf32>
    %187 = "ttir.reshape"(%185, %186) <{shape = [1 : i32, 1 : i32, 3072 : i32]}> : (tensor<3072xf32>, tensor<1x1x3072xf32>) -> tensor<1x1x3072xf32>
    %188 = ttir.empty() : tensor<1x7x3072xf32>
    %189 = "ttir.broadcast"(%187, %188) <{broadcast_dimensions = array<i64: 1, 7, 1>}> : (tensor<1x1x3072xf32>, tensor<1x7x3072xf32>) -> tensor<1x7x3072xf32>
    %190 = ttir.empty() : tensor<3072x1536xbf16>
    %191 = "ttir.permute"(%35, %190) <{permutation = array<i64: 1, 0>}> : (tensor<1536x3072xbf16>, tensor<3072x1536xbf16>) -> tensor<3072x1536xbf16>
    %192 = "ttir.dot_general"(%112, %191) <{batch_dims_lhs = array<i64>, batch_dims_rhs = array<i64>, contract_dims_lhs = array<i64: 1>, contract_dims_rhs = array<i64: 0>}> : (tensor<7x3072xbf16>, tensor<3072x1536xbf16>) -> tensor<7x1536xbf16>
    %193 = ttir.empty() : tensor<1x7x12x128xbf16>
    %194 = "ttir.reshape"(%192, %193) <{shape = [1 : i32, 7 : i32, 12 : i32, 128 : i32]}> : (tensor<7x1536xbf16>, tensor<1x7x12x128xbf16>) -> tensor<1x7x12x128xbf16>
    %195 = ttir.empty() : tensor<1x12x7x128xbf16>
    %196 = "ttir.permute"(%194, %195) <{permutation = array<i64: 0, 2, 1, 3>}> : (tensor<1x7x12x128xbf16>, tensor<1x12x7x128xbf16>) -> tensor<1x12x7x128xbf16>
    %197 = ttir.empty() : tensor<1x12x7x128xf32>
    %198 = "ttir.typecast"(%196, %197) <{conservative_folding = false}> : (tensor<1x12x7x128xbf16>, tensor<1x12x7x128xf32>) -> tensor<1x12x7x128xf32>
    %199 = ttir.empty() : tensor<1x1x7x128xf32>
    %200 = "ttir.reshape"(%138, %199) <{shape = [1 : i32, 1 : i32, 7 : i32, 128 : i32]}> : (tensor<1x7x128xf32>, tensor<1x1x7x128xf32>) -> tensor<1x1x7x128xf32>
    %201 = ttir.empty() : tensor<1x12x7x128xf32>
    %202 = "ttir.broadcast"(%200, %201) <{broadcast_dimensions = array<i64: 1, 12, 1, 1>}> : (tensor<1x1x7x128xf32>, tensor<1x12x7x128xf32>) -> tensor<1x12x7x128xf32>
    %203 = ttir.empty() : tensor<1x12x7x128xf32>
    %204 = "ttir.multiply"(%198, %202, %203) : (tensor<1x12x7x128xf32>, tensor<1x12x7x128xf32>, tensor<1x12x7x128xf32>) -> tensor<1x12x7x128xf32>
    %205 = ttir.empty() : tensor<1x12x7x128xbf16>
    %206 = "ttir.typecast"(%204, %205) <{conservative_folding = false}> : (tensor<1x12x7x128xf32>, tensor<1x12x7x128xbf16>) -> tensor<1x12x7x128xbf16>
    %207 = ttir.empty() : tensor<1x12x7x64xbf16>
    %208 = "ttir.slice_static"(%196, %207) <{begins = [0 : i32, 0 : i32, 0 : i32, 64 : i32], ends = [1 : i32, 12 : i32, 7 : i32, 128 : i32], step = [1 : i32, 1 : i32, 1 : i32, 1 : i32]}> : (tensor<1x12x7x128xbf16>, tensor<1x12x7x64xbf16>) -> tensor<1x12x7x64xbf16>
    %209 = ttir.empty() : tensor<1x12x7x64xbf16>
    %210 = "ttir.neg"(%208, %209) : (tensor<1x12x7x64xbf16>, tensor<1x12x7x64xbf16>) -> tensor<1x12x7x64xbf16>
    %211 = ttir.empty() : tensor<1x12x7x64xbf16>
    %212 = "ttir.slice_static"(%196, %211) <{begins = [0 : i32, 0 : i32, 0 : i32, 0 : i32], ends = [1 : i32, 12 : i32, 7 : i32, 64 : i32], step = [1 : i32, 1 : i32, 1 : i32, 1 : i32]}> : (tensor<1x12x7x128xbf16>, tensor<1x12x7x64xbf16>) -> tensor<1x12x7x64xbf16>
    %213 = ttir.empty() : tensor<1x12x7x128xbf16>
    %214 = "ttir.concat"(%210, %212, %213) <{dim = 3 : si32}> : (tensor<1x12x7x64xbf16>, tensor<1x12x7x64xbf16>, tensor<1x12x7x128xbf16>) -> tensor<1x12x7x128xbf16>
    %215 = ttir.empty() : tensor<1x12x7x128xf32>
    %216 = "ttir.typecast"(%214, %215) <{conservative_folding = false}> : (tensor<1x12x7x128xbf16>, tensor<1x12x7x128xf32>) -> tensor<1x12x7x128xf32>
    %217 = ttir.empty() : tensor<1x1x7x128xf32>
    %218 = "ttir.reshape"(%162, %217) <{shape = [1 : i32, 1 : i32, 7 : i32, 128 : i32]}> : (tensor<1x7x128xf32>, tensor<1x1x7x128xf32>) -> tensor<1x1x7x128xf32>
    %219 = ttir.empty() : tensor<1x12x7x128xf32>
…
        %121 = "ttnn.reshape"(%120) <{shape = [1 : i32, 1536 : i32]}> : (tensor<12x1x128xbf16, #ttnn.ttnn_layout<(d0, d1, d2) -> (d0 * 32 + d1, d2), <1x1>, memref<12x4x!ttcore.tile<32x32, bf16>, #ttnn.buffer_type<dram>>, <interleaved>>>) -> tensor<1x1536xbf16, #ttnn.ttnn_layout<(d0, d1) -> (d0, d1), <1x1>, memref<1x48x!ttcore.tile<32x32, bf16>, #ttnn.buffer_type<dram>>, <interleaved>>>
        "ttnn.deallocate"(%120) <{force = false}> : (tensor<12x1x128xbf16, #ttnn.ttnn_layout<(d0, d1, d2) -> (d0 * 32 + d1, d2), <1x1>, memref<12x4x!ttcore.tile<32x32, bf16>, #ttnn.buffer_type<dram>>, <interleaved>>>) -> ()
        %122 = "ttnn.matmul"(%121, %15) <{transpose_a = false, transpose_b = true}> : (tensor<1x1536xbf16, #ttnn.ttnn_layout<(d0, d1) -> (d0, d1), <1x1>, memref<1x48x!ttcore.tile<32x32, bf16>, #ttnn.buffer_type<dram>>, <interleaved>>>, tensor<3072x1536xbf16, #ttnn.ttnn_layout<(d0, d1) -> (d0, d1), <1x1>, memref<96x48x!ttcore.tile<32x32, bf16>, #ttnn.buffer_type<dram>>, <interleaved>>>) -> tensor<1x3072xbf16, #ttnn.ttnn_layout<(d0, d1) -> (d0, d1), <1x1>, memref<1x96x!ttcore.tile<32x32, bf16>, #ttnn.buffer_type<dram>>, <interleaved>>>
        "ttnn.deallocate"(%121) <{force = false}> : (tensor<1x1536xbf16, #ttnn.ttnn_layout<(d0, d1) -> (d0, d1), <1x1>, memref<1x48x!ttcore.tile<32x32, bf16>, #ttnn.buffer_type<dram>>, <interleaved>>>) -> ()
        "ttnn.deallocate"(%15) <{force = false}> : (tensor<3072x1536xbf16, #ttnn.ttnn_layout<(d0, d1) -> (d0, d1), <1x1>, memref<96x48x!ttcore.tile<32x32, bf16>, #ttnn.buffer_type<dram>>, <interleaved>>>) -> ()
        %123 = "ttnn.reshape"(%122) <{shape = [1 : i32, 1 : i32, 1 : i32, 3072 : i32]}> : (tensor<1x3072xbf16, #ttnn.ttnn_layout<(d0, d1) -> (d0, d1), <1x1>, memref<1x96x!ttcore.tile<32x32, bf16>, #ttnn.buffer_type<dram>>, <interleaved>>>) -> tensor<1x1x1x3072xbf16, #ttnn.ttnn_layout<(d0, d1, d2, d3) -> (d0 * 32 + d1 * 32 + d2, d3), <1x1>, memref<1x96x!ttcore.tile<32x32, bf16>, #ttnn.buffer_type<dram>>, <interleaved>>>
        "ttnn.deallocate"(%122) <{force = false}> : (tensor<1x3072xbf16, #ttnn.ttnn_layout<(d0, d1) -> (d0, d1), <1x1>, memref<1x96x!ttcore.tile<32x32, bf16>, #ttnn.buffer_type<dram>>, <interleaved>>>) -> ()
        %124 = "ttnn.reduce_scatter"(%123, %1) <{cluster_axis = 1 : ui32, num_links = 1 : ui32, reduce_type = #ttcore.reduce_type<sum>, scatter_dim = 3 : si32}> : (tensor<1x1x1x3072xbf16, #ttnn.ttnn_layout<(d0, d1, d2, d3) -> (d0 * 32 + d1 * 32 + d2, d3), <1x1>, memref<1x96x!ttcore.tile<32x32, bf16>, #ttnn.buffer_type<dram>>, <interleaved>>>, !ttnn.device) -> tensor<1x1x1x1536xbf16, #ttnn.ttnn_layout<(d0, d1, d2, d3) -> (d0 * 32 + d1 * 32 + d2, d3), <1x1>, memref<1x48x!ttcore.tile<32x32, bf16>, #ttnn.buffer_type<dram>>, <interleaved>>>
        "ttnn.deallocate"(%123) <{force = false}> : (tensor<1x1x1x3072xbf16, #ttnn.ttnn_layout<(d0, d1, d2, d3) -> (d0 * 32 + d1 * 32 + d2, d3), <1x1>, memref<1x96x!ttcore.tile<32x32, bf16>, #ttnn.buffer_type<dram>>, <interleaved>>>) -> ()
        %125 = "ttnn.all_gather"(%124, %1) <{all_gather_dim = 3 : si32, cluster_axis = 1 : ui32, num_links = 1 : ui32}> : (tensor<1x1x1x1536xbf16, #ttnn.ttnn_layout<(d0, d1, d2, d3) -> (d0 * 32 + d1 * 32 + d2, d3), <1x1>, memref<1x48x!ttcore.tile<32x32, bf16>, #ttnn.buffer_type<dram>>, <interleaved>>>, !ttnn.device) -> tensor<1x1x1x3072xbf16, #ttnn.ttnn_layout<(d0, d1, d2, d3) -> (d0 * 32 + d1 * 32 + d2, d3), <1x1>, memref<1x96x!ttcore.tile<32x32, bf16>, #ttnn.buffer_type<dram>>, <interleaved>>>
        "ttnn.deallocate"(%124) <{force = false}> : (tensor<1x1x1x1536xbf16, #ttnn.ttnn_layout<(d0, d1, d2, d3) -> (d0 * 32 + d1 * 32 + d2, d3), <1x1>, memref<1x48x!ttcore.tile<32x32, bf16>, #ttnn.buffer_type<dram>>, <interleaved>>>) -> ()
        %126 = "ttnn.reshape"(%125) <{shape = [1 : i32, 3072 : i32]}> : (tensor<1x1x1x3072xbf16, #ttnn.ttnn_layout<(d0, d1, d2, d3) -> (d0 * 32 + d1 * 32 + d2, d3), <1x1>, memref<1x96x!ttcore.tile<32x32, bf16>, #ttnn.buffer_type<dram>>, <interleaved>>>) -> tensor<1x3072xbf16, #ttnn.ttnn_layout<(d0, d1) -> (d0, d1), <1x1>, memref<1x96x!ttcore.tile<32x32, bf16>, #ttnn.buffer_type<dram>>, <interleaved>>>
        "ttnn.deallocate"(%125) <{force = false}> : (tensor<1x1x1x3072xbf16, #ttnn.ttnn_layout<(d0, d1, d2, d3) -> (d0 * 32 + d1 * 32 + d2, d3), <1x1>, memref<1x96x!ttcore.tile<32x32, bf16>, #ttnn.buffer_type<dram>>, <interleaved>>>) -> ()
        %127 = "ttnn.add"(%30, %126) <{output_dtype = #ttcore.supportedDataTypes<bf16>}> : (tensor<1x3072xbf16, #ttnn.ttnn_layout<(d0, d1) -> (d0, d1), <1x1>, memref<1x96x!ttcore.tile<32x32, bf16>, #ttnn.buffer_type<dram>>, <interleaved>>>, tensor<1x3072xbf16, #ttnn.ttnn_layout<(d0, d1) -> (d0, d1), <1x1>, memref<1x96x!ttcore.tile<32x32, bf16>, #ttnn.buffer_type<dram>>, <interleaved>>>) -> tensor<1x3072xbf16, #ttnn.ttnn_layout<(d0, d1) -> (d0, d1), <1x1>, memref<1x96x!ttcore.tile<32x32, bf16>, #ttnn.buffer_type<dram>>, <interleaved>>>
        "ttnn.deallocate"(%126) <{force = false}> : (tensor<1x3072xbf16, #ttnn.ttnn_layout<(d0, d1) -> (d0, d1), <1x1>, memref<1x96x!ttcore.tile<32x32, bf16>, #ttnn.buffer_type<dram>>, <interleaved>>>) -> ()
        "ttnn.deallocate"(%30) <{force = false}> : (tensor<1x3072xbf16, #ttnn.ttnn_layout<(d0, d1) -> (d0, d1), <1x1>, memref<1x96x!ttcore.tile<32x32, bf16>, #ttnn.buffer_type<dram>>, <interleaved>>>) -> ()
        %128 = "ttnn.typecast"(%20) <{dtype = #ttcore.supportedDataTypes<f32>}> : (tensor<3072xbf16, #ttnn.ttnn_layout<(d0) -> (0, d0), <1x1>, memref<1x96x!ttcore.tile<32x32, bf16>, #ttnn.buffer_type<dram>>, <interleaved>>>) -> tensor<3072xf32, #ttnn.ttnn_layout<(d0) -> (0, d0), <1x1>, memref<1x96x!ttcore.tile<32x32, f32>, #ttnn.buffer_type<dram>>, <interleaved>>>
        "ttnn.deallocate"(%20) <{force = false}> : (tensor<3072xbf16, #ttnn.ttnn_layout<(d0) -> (0, d0), <1x1>, memref<1x96x!ttcore.tile<32x32, bf16>, #ttnn.buffer_type<dram>>, <interleaved>>>) -> ()
        %129 = "ttnn.reshape"(%128) <{shape = [1 : i32, 3072 : i32]}> : (tensor<3072xf32, #ttnn.ttnn_layout<(d0) -> (0, d0), <1x1>, memref<1x96x!ttcore.tile<32x32, f32>, #ttnn.buffer_type<dram>>, <interleaved>>>) -> tensor<1x3072xf32, #ttnn.ttnn_layout<(d0, d1) -> (d0, d1), <1x1>, memref<1x96x!ttcore.tile<32x32, f32>, #ttnn.buffer_type<dram>>, <interleaved>>>
        "ttnn.deallocate"(%128) <{force = false}> : (tensor<3072xf32, #ttnn.ttnn_layout<(d0) -> (0, d0), <1x1>, memref<1x96x!ttcore.tile<32x32, f32>, #ttnn.buffer_type<dram>>, <interleaved>>>) -> ()
        %130 = "ttnn.typecast"(%127) <{dtype = #ttcore.supportedDataTypes<f32>}> : (tensor<1x3072xbf16, #ttnn.ttnn_layout<(d0, d1) -> (d0, d1), <1x1>, memref<1x96x!ttcore.tile<32x32, bf16>, #ttnn.buffer_type<dram>>, <interleaved>>>) -> tensor<1x3072xf32, #ttnn.ttnn_layout<(d0, d1) -> (d0, d1), <1x1>, memref<1x96x!ttcore.tile<32x32, f32>, #ttnn.buffer_type<dram>>, <interleaved>>>
        %131 = "ttnn.reshape"(%130) <{shape = [1 : i32, 1 : i32, 3072 : i32]}> : (tensor<1x3072xf32, #ttnn.ttnn_layout<(d0, d1) -> (d0, d1), <1x1>, memref<1x96x!ttcore.tile<32x32, f32>, #ttnn.buffer_type<dram>>, <interleaved>>>) -> tensor<1x1x3072xf32, #ttnn.ttnn_layout<(d0, d1, d2) -> (d0 * 32 + d1, d2), <1x1>, memref<1x96x!ttcore.tile<32x32, f32>, #ttnn.buffer_type<dram>>, <interleaved>>>
        %132 = "ttnn.pow"(%131, %0) : (tensor<1x1x3072xf32, #ttnn.ttnn_layout<(d0, d1, d2) -> (d0 * 32 + d1, d2), <1x1>, memref<1x96x!ttcore.tile<32x32, f32>, #ttnn.buffer_type<dram>>, <interleaved>>>, tensor<1x1x1xf32, #ttnn.ttnn_layout<(d0, d1, d2) -> (d0 * 32 + d1, d2), <1x1>, memref<1x1x!ttcore.tile<32x32, f32>, #ttnn.buffer_type<dram>>, <interleaved>>>) -> tensor<1x1x3072xf32, #ttnn.ttnn_layout<(d0, d1, d2) -> (d0 * 32 + d1, d2), <1x1>, memref<1x96x!ttcore.tile<32x32, f32>, #ttnn.buffer_type<dram>>, <interleaved>>>
        "ttnn.deallocate"(%131) <{force = false}> : (tensor<1x1x3072xf32, #ttnn.ttnn_layout<(d0, d1, d2) -> (d0 * 32 + d1, d2), <1x1>, memref<1x96x!ttcore.tile<32x32, f32>, #ttnn.buffer_type<dram>>, <interleaved>>>) -> ()
        %133 = "ttnn.sum"(%132) <{dim_arg = [2 : i32], keep_dim = false}> : (tensor<1x1x3072xf32, #ttnn.ttnn_layout<(d0, d1, d2) -> (d0 * 32 + d1, d2), <1x1>, memref<1x96x!ttcore.tile<32x32, f32>, #ttnn.buffer_type<dram>>, <interleaved>>>) -> tensor<1x1xf32, #ttnn.ttnn_layout<(d0, d1) -> (d0, d1), <1x1>, memref<1x1x!ttcore.tile<32x32, f32>, #ttnn.buffer_type<dram>>, <interleaved>>>
        "ttnn.deallocate"(%132) <{force = false}> : (tensor<1x1x3072xf32, #ttnn.ttnn_layout<(d0, d1, d2) -> (d0 * 32 + d1, d2), <1x1>, memref<1x96x!ttcore.tile<32x32, f32>, #ttnn.buffer_type<dram>>, <interleaved>>>) -> ()
        %134 = "ttnn.multiply"(%133, %2) <{output_dtype = #ttcore.supportedDataTypes<f32>}> : (tensor<1x1xf32, #ttnn.ttnn_layout<(d0, d1) -> (d0, d1), <1x1>, memref<1x1x!ttcore.tile<32x32, f32>, #ttnn.buffer_type<dram>>, <interleaved>>>, tensor<1x1xf32, #ttnn.ttnn_layout<(d0, d1) -> (d0, d1), <1x1>, memref<1x1x!ttcore.tile<32x32, f32>, #ttnn.buffer_type<dram>>, <interleaved>>>) -> tensor<1x1xf32, #ttnn.ttnn_layout<(d0, d1) -> (d0, d1), <1x1>, memref<1x1x!ttcore.tile<32x32, f32>, #ttnn.buffer_type<dram>>, <interleaved>>>
        "ttnn.deallocate"(%133) <{force = false}> : (tensor<1x1xf32, #ttnn.ttnn_layout<(d0, d1) -> (d0, d1), <1x1>, memref<1x1x!ttcore.tile<32x32, f32>, #ttnn.buffer_type<dram>>, <interleaved>>>) -> ()
        %135 = "ttnn.reshape"(%6) <{shape = [1 : i32, 1 : i32]}> : (tensor<f32, #ttnn.ttnn_layout<() -> (0, 0), <1x1>, memref<1x1x!ttcore.tile<32x32, f32>, #ttnn.buffer_type<dram>>, <interleaved>>>) -> tensor<1x1xf32, #ttnn.ttnn_layout<(d0, d1) -> (d0, d1), <1x1>, memref<1x1x!ttcore.tile<32x32, f32>, #ttnn.buffer_type<dram>>, <interleaved>>>
        %136 = "ttnn.add"(%134, %135) <{output_dtype = #ttcore.supportedDataTypes<f32>}> : (tensor<1x1xf32, #ttnn.ttnn_layout<(d0, d1) -> (d0, d1), <1x1>, memref<1x1x!ttcore.tile<32x32, f32>, #ttnn.buffer_type<dram>>, <interleaved>>>, tensor<1x1xf32, #ttnn.ttnn_layout<(d0, d1) -> (d0, d1), <1x1>, memref<1x1x!ttcore.tile<32x32, f32>, #ttnn.buffer_type<dram>>, <interleaved>>>) -> tensor<1x1xf32, #ttnn.ttnn_layout<(d0, d1) -> (d0, d1), <1x1>, memref<1x1x!ttcore.tile<32x32, f32>, #ttnn.buffer_type<dram>>, <interleaved>>>
        "ttnn.deallocate"(%135) <{force = false}> : (tensor<1x1xf32, #ttnn.ttnn_layout<(d0, d1) -> (d0, d1), <1x1>, memref<1x1x!ttcore.tile<32x32, f32>, #ttnn.buffer_type<dram>>, <interleaved>>>) -> ()
        "ttnn.deallocate"(%134) <{force = false}> : (tensor<1x1xf32, #ttnn.ttnn_layout<(d0, d1) -> (d0, d1), <1x1>, memref<1x1x!ttcore.tile<32x32, f32>, #ttnn.buffer_type<dram>>, <interleaved>>>) -> ()
        %137 = "ttnn.rsqrt"(%136) : (tensor<1x1xf32, #ttnn.ttnn_layout<(d0, d1) -> (d0, d1), <1x1>, memref<1x1x!ttcore.tile<32x32, f32>, #ttnn.buffer_type<dram>>, <interleaved>>>) -> tensor<1x1xf32, #ttnn.ttnn_layout<(d0, d1) -> (d0, d1), <1x1>, memref<1x1x!ttcore.tile<32x32, f32>, #ttnn.buffer_type<dram>>, <interleaved>>>
        "ttnn.deallocate"(%136) <{force = false}> : (tensor<1x1xf32, #ttnn.ttnn_layout<(d0, d1) -> (d0, d1), <1x1>, memref<1x1x!ttcore.tile<32x32, f32>, #ttnn.buffer_type<dram>>, <interleaved>>>) -> ()
        %138 = "ttnn.multiply"(%130, %137) <{output_dtype = #ttcore.supportedDataTypes<f32>}> : (tensor<1x3072xf32, #ttnn.ttnn_layout<(d0, d1) -> (d0, d1), <1x1>, memref<1x96x!ttcore.tile<32x32, f32>, #ttnn.buffer_type<dram>>, <interleaved>>>, tensor<1x1xf32, #ttnn.ttnn_layout<(d0, d1) -> (d0, d1), <1x1>, memref<1x1x!ttcore.tile<32x32, f32>, #ttnn.buffer_type<dram>>, <interleaved>>>) -> tensor<1x3072xf32, #ttnn.ttnn_layout<(d0, d1) -> (d0, d1), <1x1>, memref<1x96x!ttcore.tile<32x32, f32>, #ttnn.buffer_type<dram>>, <interleaved>>>
        "ttnn.deallocate"(%137) <{force = false}> : (tensor<1x1xf32, #ttnn.ttnn_layout<(d0, d1) -> (d0, d1), <1x1>, memref<1x1x!ttcore.tile<32x32, f32>, #ttnn.buffer_type<dram>>, <interleaved>>>) -> ()
        "ttnn.deallocate"(%130) <{force = false}> : (tensor<1x3072xf32, #ttnn.ttnn_layout<(d0, d1) -> (d0, d1), <1x1>, memref<1x96x!ttcore.tile<32x32, f32>, #ttnn.buffer_type<dram>>, <interleaved>>>) -> ()
        %139 = "ttnn.multiply"(%129, %138) <{output_dtype = #ttcore.supportedDataTypes<f32>}> : (tensor<1x3072xf32, #ttnn.ttnn_layout<(d0, d1) -> (d0, d1), <1x1>, memref<1x96x!ttcore.tile<32x32, f32>, #ttnn.buffer_type<dram>>, <interleaved>>>, tensor<1x3072xf32, #ttnn.ttnn_layout<(d0, d1) -> (d0, d1), <1x1>, memref<1x96x!ttcore.tile<32x32, f32>, #ttnn.buffer_type<dram>>, <interleaved>>>) -> tensor<1x3072xf32, #ttnn.ttnn_layout<(d0, d1) -> (d0, d1), <1x1>, memref<1x96x!ttcore.tile<32x32, f32>, #ttnn.buffer_type<dram>>, <interleaved>>>
        "ttnn.deallocate"(%138) <{force = false}> : (tensor<1x3072xf32, #ttnn.ttnn_layout<(d0, d1) -> (d0, d1), <1x1>, memref<1x96x!ttcore.tile<32x32, f32>, #ttnn.buffer_type<dram>>, <interleaved>>>) -> ()
        "ttnn.deallocate"(%129) <{force = false}> : (tensor<1x3072xf32, #ttnn.ttnn_layout<(d0, d1) -> (d0, d1), <1x1>, memref<1x96x!ttcore.tile<32x32, f32>, #ttnn.buffer_type<dram>>, <interleaved>>>) -> ()
        %140 = "ttnn.typecast"(%139) <{dtype = #ttcore.supportedDataTypes<bf16>}> : (tensor<1x3072xf32, #ttnn.ttnn_layout<(d0, d1) -> (d0, d1), <1x1>, memref<1x96x!ttcore.tile<32x32, f32>, #ttnn.buffer_type<dram>>, <interleaved>>>) -> tensor<1x3072xbf16, #ttnn.ttnn_layout<(d0, d1) -> (d0, d1), <1x1>, memref<1x96x!ttcore.tile<32x32, bf16>, #ttnn.buffer_type<dram>>, <interleaved>>>
        "ttnn.deallocate"(%139) <{force = false}> : (tensor<1x3072xf32, #ttnn.ttnn_layout<(d0, d1) -> (d0, d1), <1x1>, memref<1x96x!ttcore.tile<32x32, f32>, #ttnn.buffer_type<dram>>, <interleaved>>>) -> ()
        %141 = "ttnn.matmul"(%140, %21) <{transpose_a = false, transpose_b = true}> : (tensor<1x3072xbf16, #ttnn.ttnn_layout<(d0, d1) -> (d0, d1), <1x1>, memref<1x96x!ttcore.tile<32x32, bf16>, #ttnn.buffer_type<dram>>, <interleaved>>>, tensor<4096x3072xbf16, #ttnn.ttnn_layout<(d0, d1) -> (d0, d1), <1x1>, memref<128x96x!ttcore.tile<32x32, bf16>, #ttnn.buffer_type<dram>>, <interleaved>>>) -> tensor<1x4096xbf16, #ttnn.ttnn_layout<(d0, d1) -> (d0, d1), <1x1>, memref<1x128x!ttcore.tile<32x32, bf16>, #ttnn.buffer_type<dram>>, <interleaved>>>
        "ttnn.deallocate"(%21) <{force = false}> : (tensor<4096x3072xbf16, #ttnn.ttnn_layout<(d0, d1) -> (d0, d1), <1x1>, memref<128x96x!ttcore.tile<32x32, bf16>, #ttnn.buffer_type<dram>>, <interleaved>>>) -> ()
        %142 = "ttnn.typecast"(%141) <{dtype = #ttcore.supportedDataTypes<f32>}> : (tensor<1x4096xbf16, #ttnn.ttnn_layout<(d0, d1) -> (d0, d1), <1x1>, memref<1x128x!ttcore.tile<32x32, bf16>, #ttnn.buffer_type<dram>>, <interleaved>>>) -> tensor<1x4096xf32, #ttnn.ttnn_layout<(d0, d1) -> (d0, d1), <1x1>, memref<1x128x!ttcore.tile<32x32, f32>, #ttnn.buffer_type<dram>>, <interleaved>>>
        %143 = "ttnn.sigmoid"(%141) : (tensor<1x4096xbf16, #ttnn.ttnn_layout<(d0, d1) -> (d0, d1), <1x1>, memref<1x128x!ttcore.tile<32x32, bf16>, #ttnn.buffer_type<dram>>, <interleaved>>>) -> tensor<1x4096xbf16, #ttnn.ttnn_layout<(d0, d1) -> (d0, d1), <1x1>, memref<1x128x!ttcore.tile<32x32, bf16>, #ttnn.buffer_type<dram>>, <interleaved>>>
        "ttnn.deallocate"(%141) <{force = false}> : (tensor<1x4096xbf16, #ttnn.ttnn_layout<(d0, d1) -> (d0, d1), <1x1>, memref<1x128x!ttcore.tile<32x32, bf16>, #ttnn.buffer_type<dram>>, <interleaved>>>) -> ()
        %144 = "ttnn.typecast"(%143) <{dtype = #ttcore.supportedDataTypes<f32>}> : (tensor<1x4096xbf16, #ttnn.ttnn_layout<(d0, d1) -> (d0, d1), <1x1>, memref<1x128x!ttcore.tile<32x32, bf16>, #ttnn.buffer_type<dram>>, <interleaved>>>) -> tensor<1x4096xf32, #ttnn.ttnn_layout<(d0, d1) -> (d0, d1), <1x1>, memref<1x128x!ttcore.tile<32x32, f32>, #ttnn.buffer_type<dram>>, <interleaved>>>
        "ttnn.deallocate"(%143) <{force = false}> : (tensor<1x4096xbf16, #ttnn.ttnn_layout<(d0, d1) -> (d0, d1), <1x1>, memref<1x128x!ttcore.tile<32x32, bf16>, #ttnn.buffer_type<dram>>, <interleaved>>>) -> ()
        %145 = "ttnn.multiply"(%142, %144) <{output_dtype = #ttcore.supportedDataTypes<f32>}> : (tensor<1x4096xf32, #ttnn.ttnn_layout<(d0, d1) -> (d0, d1), <1x1>, memref<1x128x!ttcore.tile<32x32, f32>, #ttnn.buffer_type<dram>>, <interleaved>>>, tensor<1x4096xf32, #ttnn.ttnn_layout<(d0, d1) -> (d0, d1), <1x1>, memref<1x128x!ttcore.tile<32x32, f32>, #ttnn.buffer_type<dram>>, <interleaved>>>) -> tensor<1x4096xf32, #ttnn.ttnn_layout<(d0, d1) -> (d0, d1), <1x1>, memref<1x128x!ttcore.tile<32x32, f32>, #ttnn.buffer_type<dram>>, <interleaved>>>
        "ttnn.deallocate"(%144) <{force = false}> : (tensor<1x4096xf32, #ttnn.ttnn_layout<(d0, d1) -> (d0, d1), <1x1>, memref<1x128x!ttcore.tile<32x32, f32>, #ttnn.buffer_type<dram>>, <interleaved>>>) -> ()
        "ttnn.deallocate"(%142) <{force = false}> : (tensor<1x4096xf32, #ttnn.ttnn_layout<(d0, d1) -> (d0, d1), <1x1>, memref<1x128x!ttcore.tile<32x32, f32>, #ttnn.buffer_type<dram>>, <interleaved>>>) -> ()
        %146 = "ttnn.matmul"(%140, %14) <{transpose_a = false, transpose_b = true}> : (tensor<1x3072xbf16, #ttnn.ttnn_layout<(d0, d1) -> (d0, d1), <1x1>, memref<1x96x!ttcore.tile<32x32, bf16>, #ttnn.buffer_type<dram>>, <interleaved>>>, tensor<4096x3072xbf16, #ttnn.ttnn_layout<(d0, d1) -> (d0, d1), <1x1>, memref<128x96x!ttcore.tile<32x32, bf16>, #ttnn.buffer_type<dram>>, <interleaved>>>) -> tensor<1x4096xbf16, #ttnn.ttnn_layout<(d0, d1) -> (d0, d1), <1x1>, memref<1x128x!ttcore.tile<32x32, bf16>, #ttnn.buffer_type<dram>>, <interleaved>>>
        "ttnn.deallocate"(%140) <{force = false}> : (tensor<1x3072xbf16, #ttnn.ttnn_layout<(d0, d1) -> (d0, d1), <1x1>, memref<1x96x!ttcore.tile<32x32, bf16>, #ttnn.buffer_type<dram>>, <interleaved>>>) -> ()
        "ttnn.deallocate"(%14) <{force = false}> : (tensor<4096x3072xbf16, #ttnn.ttnn_layout<(d0, d1) -> (d0, d1), <1x1>, memref<128x96x!ttcore.tile<32x32, bf16>, #ttnn.buffer_type<dram>>, <interleaved>>>) -> ()
        %147 = "ttnn.typecast"(%146) <{dtype = #ttcore.supportedDataTypes<f32>}> : (tensor<1x4096xbf16, #ttnn.ttnn_layout<(d0, d1) -> (d0, d1), <1x1>, memref<1x128x!ttcore.tile<32x32, bf16>, #ttnn.buffer_type<dram>>, <interleaved>>>) -> tensor<1x4096xf32, #ttnn.ttnn_layout<(d0, d1) -> (d0, d1), <1x1>, memref<1x128x!ttcore.tile<32x32, f32>, #ttnn.buffer_type<dram>>, <interleaved>>>
        "ttnn.deallocate"(%146) <{force = false}> : (tensor<1x4096xbf16, #ttnn.ttnn_layout<(d0, d1) -> (d0, d1), <1x1>, memref<1x128x!ttcore.tile<32x32, bf16>, #ttnn.buffer_type<dram>>, <interleaved>>>) -> ()
        %148 = "ttnn.multiply"(%145, %147) <{output_dtype = #ttcore.supportedDataTypes<f32>}> : (tensor<1x4096xf32, #ttnn.ttnn_layout<(d0, d1) -> (d0, d1), <1x1>, memref<1x128x!ttcore.tile<32x32, f32>, #ttnn.buffer_type<dram>>, <interleaved>>>, tensor<1x4096xf32, #ttnn.ttnn_layout<(d0, d1) -> (d0, d1), <1x1>, memref<1x128x!ttcore.tile<32x32, f32>, #ttnn.buffer_type<dram>>, <interleaved>>>) -> tensor<1x4096xf32, #ttnn.ttnn_layout<(d0, d1) -> (d0, d1), <1x1>, memref<1x128x!ttcore.tile<32x32, f32>, #ttnn.buffer_type<dram>>, <interleaved>>>
        "ttnn.deallocate"(%147) <{force = false}> : (tensor<1x4096xf32, #ttnn.ttnn_layout<(d0, d1) -> (d0, d1), <1x1>, memref<1x128x!ttcore.tile<32x32, f32>, #ttnn.buffer_type<dram>>, <interleaved>>>) -> ()
        "ttnn.deallocate"(%145) <{force = false}> : (tensor<1x4096xf32, #ttnn.ttnn_layout<(d0, d1) -> (d0, d1), <1x1>, memref<1x128x!ttcore.tile<32x32, f32>, #ttnn.buffer_type<dram>>, <interleaved>>>) -> ()
        %149 = "ttnn.typecast"(%148) <{dtype = #ttcore.supportedDataTypes<bf16>}> : (tensor<1x4096xf32, #ttnn.ttnn_layout<(d0, d1) -> (d0, d1), <1x1>, memref<1x128x!ttcore.tile<32x32, f32>, #ttnn.buffer_type<dram>>, <interleaved>>>) -> tensor<1x4096xbf16, #ttnn.ttnn_layout<(d0, d1) -> (d0, d1), <1x1>, memref<1x128x!ttcore.tile<32x32, bf16>, #ttnn.buffer_type<dram>>, <interleaved>>>
        "ttnn.deallocate"(%148) <{force = false}> : (tensor<1x4096xf32, #ttnn.ttnn_layout<(d0, d1) -> (d0, d1), <1x1>, memref<1x128x!ttcore.tile<32x32, f32>, #ttnn.buffer_type<dram>>, <interleaved>>>) -> ()
        %150 = "ttnn.matmul"(%149, %13) <{transpose_a = false, transpose_b = true}> : (tensor<1x4096xbf16, #ttnn.ttnn_layout<(d0, d1) -> (d0, d1), <1x1>, memref<1x128x!ttcore.tile<32x32, bf16>, #ttnn.buffer_type<dram>>, <interleaved>>>, tensor<3072x4096xbf16, #ttnn.ttnn_layout<(d0, d1) -> (d0, d1), <1x1>, memref<96x128x!ttcore.tile<32x32, bf16>, #ttnn.buffer_type<dram>>, <interleaved>>>) -> tensor<1x3072xbf16, #ttnn.ttnn_layout<(d0, d1) -> (d0, d1), <1x1>, memref<1x96x!ttcore.tile<32x32, bf16>, #ttnn.buffer_type<dram>>, <interleaved>>>
        "ttnn.deallocate"(%149) <{force = false}> : (tensor<1x4096xbf16, #ttnn.ttnn_layout<(d0, d1) -> (d0, d1), <1x1>, memref<1x128x!ttcore.tile<32x32, bf16>, #ttnn.buffer_type<dram>>, <interleaved>>>) -> ()
        "ttnn.deallocate"(%13) <{force = false}> : (tensor<3072x4096xbf16, #ttnn.ttnn_layout<(d0, d1) -> (d0, d1), <1x1>, memref<96x128x!ttcore.tile<32x32, bf16>, #ttnn.buffer_type<dram>>, <interleaved>>>) -> ()
        %151 = "ttnn.reshape"(%150) <{shape = [1 : i32, 1 : i32, 1 : i32, 3072 : i32]}> : (tensor<1x3072xbf16, #ttnn.ttnn_layout<(d0, d1) -> (d0, d1), <1x1>, memref<1x96x!ttcore.tile<32x32, bf16>, #ttnn.buffer_type<dram>>, <interleaved>>>) -> tensor<1x1x1x3072xbf16, #ttnn.ttnn_layout<(d0, d1, d2, d3) -> (d0 * 32 + d1 * 32 + d2, d3), <1x1>, memref<1x96x!ttcore.tile<32x32, bf16>, #ttnn.buffer_type<dram>>, <interleaved>>>
        "ttnn.deallocate"(%150) <{force = false}> : (tensor<1x3072xbf16, #ttnn.ttnn_layout<(d0, d1) -> (d0, d1), <1x1>, memref<1x96x!ttcore.tile<32x32, bf16>, #ttnn.buffer_type<dram>>, <interleaved>>>) -> ()
        %152 = "ttnn.reduce_scatter"(%151, %1) <{cluster_axis = 1 : ui32, num_links = 1 : ui32, reduce_type = #ttcore.reduce_type<sum>, scatter_dim = 3 : si32}> : (tensor<1x1x1x3072xbf16, #ttnn.ttnn_layout<(d0, d1, d2, d3) -> (d0 * 32 + d1 * 32 + d2, d3), <1x1>, memref<1x96x!ttcore.tile<32x32, bf16>, #ttnn.buffer_type<dram>>, <interleaved>>>, !ttnn.device) -> tensor<1x1x1x1536xbf16, #ttnn.ttnn_layout<(d0, d1, d2, d3) -> (d0 * 32 + d1 * 32 + d2, d3), <1x1>, memref<1x48x!ttcore.tile<32x32, bf16>, #ttnn.buffer_type<dram>>, <interleaved>>>
        "ttnn.deallocate"(%151) <{force = false}> : (tensor<1x1x1x3072xbf16, #ttnn.ttnn_layout<(d0, d1, d2, d3) -> (d0 * 32 + d1 * 32 + d2, d3), <1x1>, memref<1x96x!ttcore.tile<32x32, bf16>, #ttnn.buffer_type<dram>>, <interleaved>>>) -> ()
        %153 = "ttnn.all_gather"(%152, %1) <{all_gather_dim = 3 : si32, cluster_axis = 1 : ui32, num_links = 1 : ui32}> : (tensor<1x1x1x1536xbf16, #ttnn.ttnn_layout<(d0, d1, d2, d3) -> (d0 * 32 + d1 * 32 + d2, d3), <1x1>, memref<1x48x!ttcore.tile<32x32, bf16>, #ttnn.buffer_type<dram>>, <interleaved>>>, !ttnn.device) -> tensor<1x1x1x3072xbf16, #ttnn.ttnn_layout<(d0, d1, d2, d3) -> (d0 * 32 + d1 * 32 + d2, d3), <1x1>, memref<1x96x!ttcore.tile<32x32, bf16>, #ttnn.buffer_type<dram>>, <interleaved>>>
        "ttnn.deallocate"(%152) <{force = false}> : (tensor<1x1x1x1536xbf16, #ttnn.ttnn_layout<(d0, d1, d2, d3) -> (d0 * 32 + d1 * 32 + d2, d3), <1x1>, memref<1x48x!ttcore.tile<32x32, bf16>, #ttnn.buffer_type<dram>>, <interleaved>>>) -> ()
        %154 = "ttnn.reshape"(%153) <{shape = [1 : i32, 3072 : i32]}> : (tensor<1x1x1x3072xbf16, #ttnn.ttnn_layout<(d0, d1, d2, d3) -> (d0 * 32 + d1 * 32 + d2, d3), <1x1>, memref<1x96x!ttcore.tile<32x32, bf16>, #ttnn.buffer_type<dram>>, <interleaved>>>) -> tensor<1x3072xbf16, #ttnn.ttnn_layout<(d0, d1) -> (d0, d1), <1x1>, memref<1x96x!ttcore.tile<32x32, bf16>, #ttnn.buffer_type<dram>>, <interleaved>>>
        "ttnn.deallocate"(%153) <{force = false}> : (tensor<1x1x1x3072xbf16, #ttnn.ttnn_layout<(d0, d1, d2, d3) -> (d0 * 32 + d1 * 32 + d2, d3), <1x1>, memref<1x96x!ttcore.tile<32x32, bf16>, #ttnn.buffer_type<dram>>, <interleaved>>>) -> ()
        %155 = "ttnn.add"(%127, %154) <{output_dtype = #ttcore.supportedDataTypes<bf16>}> : (tensor<1x3072xbf16, #ttnn.ttnn_layout<(d0, d1) -> (d0, d1), <1x1>, memref<1x96x!ttcore.tile<32x32, bf16>, #ttnn.buffer_type<dram>>, <interleaved>>>, tensor<1x3072xbf16, #ttnn.ttnn_layout<(d0, d1) -> (d0, d1), <1x1>, memref<1x96x!ttcore.tile<32x32, bf16>, #ttnn.buffer_type<dram>>, <interleaved>>>) -> tensor<1x3072xbf16, #ttnn.ttnn_layout<(d0, d1) -> (d0, d1), <1x1>, memref<1x96x!ttcore.tile<32x32, bf16>, #ttnn.buffer_type<dram>>, <interleaved>>>
        "ttnn.deallocate"(%154) <{force = false}> : (tensor<1x3072xbf16, #ttnn.ttnn_layout<(d0, d1) -> (d0, d1), <1x1>, memref<1x96x!ttcore.tile<32x32, bf16>, #ttnn.buffer_type<dram>>, <interleaved>>>) -> ()
        "ttnn.deallocate"(%127) <{force = false}> : (tensor<1x3072xbf16, #ttnn.ttnn_layout<(d0, d1) -> (d0, d1), <1x1>, memref<1x96x!ttcore.tile<32x32, bf16>, #ttnn.buffer_type<dram>>, <interleaved>>>) -> ()
        %156 = "ttnn.typecast"(%155) <{dtype = #ttcore.supportedDataTypes<f32>}> : (tensor<1x3072xbf16, #ttnn.ttnn_layout<(d0, d1) -> (d0, d1), <1x1>, memref<1x96x!ttcore.tile<32x32, bf16>, #ttnn.buffer_type<dram>>, <interleaved>>>) -> tensor<1x3072xf32, #ttnn.ttnn_layout<(d0, d1) -> (d0, d1), <1x1>, memref<1x96x!ttcore.tile<32x32, f32>, #ttnn.buffer_type<dram>>, <interleaved>>>
        "ttnn.deallocate"(%155) <{force = false}> : (tensor<1x3072xbf16, #ttnn.ttnn_layout<(d0, d1) -> (d0, d1), <1x1>, memref<1x96x!ttcore.tile<32x32, bf16>, #ttnn.buffer_type<dram>>, <interleaved>>>) -> ()
        %157 = "ttnn.reshape"(%156) <{shape = [1 : i32, 1 : i32, 3072 : i32]}> : (tensor<1x3072xf32, #ttnn.ttnn_layout<(d0, d1) -> (d0, d1), <1x1>, memref<1x96x!ttcore.tile<32x32, f32>, #ttnn.buffer_type<dram>>, <interleaved>>>) -> tensor<1x1x3072xf32, #ttnn.ttnn_layout<(d0, d1, d2) -> (d0 * 32 + d1, d2), <1x1>, memref<1x96x!ttcore.tile<32x32, f32>, #ttnn.buffer_type<dram>>, <interleaved>>>
        %158 = "ttnn.pow"(%157, %0) : (tensor<1x1x3072xf32, #ttnn.ttnn_layout<(d0, d1, d2) -> (d0 * 32 + d1, d2), <1x1>, memref<1x96x!ttcore.tile<32x32, f32>, #ttnn.buffer_type<dram>>, <interleaved>>>, tensor<1x1x1xf32, #ttnn.ttnn_layout<(d0, d1, d2) -> (d0 * 32 + d1, d2), <1x1>, memref<1x1x!ttcore.tile<32x32, f32>, #ttnn.buffer_type<dram>>, <interleaved>>>) -> tensor<1x1x3072xf32, #ttnn.ttnn_layout<(d0, d1, d2) -> (d0 * 32 + d1, d2), <1x1>, memref<1x96x!ttcore.tile<32x32, f32>, #ttnn.buffer_type<dram>>, <interleaved>>>
        "ttnn.deallocate"(%157) <{force = false}> : (tensor<1x1x3072xf32, #ttnn.ttnn_layout<(d0, d1, d2) -> (d0 * 32 + d1, d2), <1x1>, memref<1x96x!ttcore.tile<32x32, f32>, #ttnn.buffer_type<dram>>, <interleaved>>>) -> ()
        "ttnn.deallocate"(%0) <{force = false}> : (tensor<1x1x1xf32, #ttnn.ttnn_layout<(d0, d1, d2) -> (d0 * 32 + d1, d2), <1x1>, memref<1x1x!ttcore.tile<32x32, f32>, #ttnn.buffer_type<dram>>, <interleaved>>>) -> ()
        %159 = "ttnn.sum"(%158) <{dim_arg = [2 : i32], keep_dim = false}> : (tensor<1x1x3072xf32, #ttnn.ttnn_layout<(d0, d1, d2) -> (d0 * 32 + d1, d2), <1x1>, memref<1x96x!ttcore.tile<32x32, f32>, #ttnn.buffer_type<dram>>, <interleaved>>>) -> tensor<1x1xf32, #ttnn.ttnn_layout<(d0, d1) -> (d0, d1), <1x1>, memref<1x1x!ttcore.tile<32x32, f32>, #ttnn.buffer_type<dram>>, <interleaved>>>
        "ttnn.deallocate"(%158) <{force = false}> : (tensor<1x1x3072xf32, #ttnn.ttnn_layout<(d0, d1, d2) -> (d0 * 32 + d1, d2), <1x1>, memref<1x96x!ttcore.tile<32x32, f32>, #ttnn.buffer_type<dram>>, <interleaved>>>) -> ()
        %160 = "ttnn.multiply"(%159, %2) <{output_dtype = #ttcore.supportedDataTypes<f32>}> : (tensor<1x1xf32, #ttnn.ttnn_layout<(d0, d1) -> (d0, d1), <1x1>, memref<1x1x!ttcore.tile<32x32, f32>, #ttnn.buffer_type<dram>>, <interleaved>>>, tensor<1x1xf32, #ttnn.ttnn_layout<(d0, d1) -> (d0, d1), <1x1>, memref<1x1x!ttcore.tile<32x32, f32>, #ttnn.buffer_type<dram>>, <interleaved>>>) -> tensor<1x1xf32, #ttnn.ttnn_layout<(d0, d1) -> (d0, d1), <1x1>, memref<1x1x!ttcore.tile<32x32, f32>, #ttnn.buffer_type<dram>>, <interleaved>>>
        "ttnn.deallocate"(%159) <{force = false}> : (tensor<1x1xf32, #ttnn.ttnn_layout<(d0, d1) -> (d0, d1), <1x1>, memref<1x1x!ttcore.tile<32x32, f32>, #ttnn.buffer_type<dram>>, <interleaved>>>) -> ()
        "ttnn.deallocate"(%2) <{force = false}> : (tensor<1x1xf32, #ttnn.ttnn_layout<(d0, d1) -> (d0, d1), <1x1>, memref<1x1x!ttcore.tile<32x32, f32>, #ttnn.buffer_type<dram>>, <interleaved>>>) -> ()
        %161 = "ttnn.reshape"(%6) <{shape = [1 : i32, 1 : i32]}> : (tensor<f32, #ttnn.ttnn_layout<() -> (0, 0), <1x1>, memref<1x1x!ttcore.tile<32x32, f32>, #ttnn.buffer_type<dram>>, <interleaved>>>) -> tensor<1x1xf32, #ttnn.ttnn_layout<(d0, d1) -> (d0, d1), <1x1>, memref<1x1x!ttcore.tile<32x32, f32>, #ttnn.buffer_type<dram>>, <interleaved>>>
        "ttnn.deallocate"(%6) <{force = false}> : (tensor<f32, #ttnn.ttnn_layout<() -> (0, 0), <1x1>, memref<1x1x!ttcore.tile<32x32, f32>, #ttnn.buffer_type<dram>>, <interleaved>>>) -> ()
        %162 = "ttnn.add"(%160, %161) <{output_dtype = #ttcore.supportedDataTypes<f32>}> : (tensor<1x1xf32, #ttnn.ttnn_layout<(d0, d1) -> (d0, d1), <1x1>, memref<1x1x!ttcore.tile<32x32, f32>, #ttnn.buffer_type<dram>>, <interleaved>>>, tensor<1x1xf32, #ttnn.ttnn_layout<(d0, d1) -> (d0, d1), <1x1>, memref<1x1x!ttcore.tile<32x32, f32>, #ttnn.buffer_type<dram>>, <interleaved>>>) -> tensor<1x1xf32, #ttnn.ttnn_layout<(d0, d1) -> (d0, d1), <1x1>, memref<1x1x!ttcore.tile<32x32, f32>, #ttnn.buffer_type<dram>>, <interleaved>>>
        "ttnn.deallocate"(%161) <{force = false}> : (tensor<1x1xf32, #ttnn.ttnn_layout<(d0, d1) -> (d0, d1), <1x1>, memref<1x1x!ttcore.tile<32x32, f32>, #ttnn.buffer_type<dram>>, <interleaved>>>) -> ()
        "ttnn.deallocate"(%160) <{force = false}> : (tensor<1x1xf32, #ttnn.ttnn_layout<(d0, d1) -> (d0, d1), <1x1>, memref<1x1x!ttcore.tile<32x32, f32>, #ttnn.buffer_type<dram>>, <interleaved>>>) -> ()
        %163 = "ttnn.rsqrt"(%162) : (tensor<1x1xf32, #ttnn.ttnn_layout<(d0, d1) -> (d0, d1), <1x1>, memref<1x1x!ttcore.tile<32x32, f32>, #ttnn.buffer_type<dram>>, <interleaved>>>) -> tensor<1x1xf32, #ttnn.ttnn_layout<(d0, d1) -> (d0, d1), <1x1>, memref<1x1x!ttcore.tile<32x32, f32>, #ttnn.buffer_type<dram>>, <interleaved>>>
        "ttnn.deallocate"(%162) <{force = false}> : (tensor<1x1xf32, #ttnn.ttnn_layout<(d0, d1) -> (d0, d1), <1x1>, memref<1x1x!ttcore.tile<32x32, f32>, #ttnn.buffer_type<dram>>, <interleaved>>>) -> ()
        %164 = "ttnn.multiply"(%156, %163) <{output_dtype = #ttcore.supportedDataTypes<f32>}> : (tensor<1x3072xf32, #ttnn.ttnn_layout<(d0, d1) -> (d0, d1), <1x1>, memref<1x96x!ttcore.tile<32x32, f32>, #ttnn.buffer_type<dram>>, <interleaved>>>, tensor<1x1xf32, #ttnn.ttnn_layout<(d0, d1) -> (d0, d1), <1x1>, memref<1x1x!ttcore.tile<32x32, f32>, #ttnn.buffer_type<dram>>, <interleaved>>>) -> tensor<1x3072xf32, #ttnn.ttnn_layout<(d0, d1) -> (d0, d1), <1x1>, memref<1x96x!ttcore.tile<32x32, f32>, #ttnn.buffer_type<dram>>, <interleaved>>>
        "ttnn.deallocate"(%163) <{force = false}> : (tensor<1x1xf32, #ttnn.ttnn_layout<(d0, d1) -> (d0, d1), <1x1>, memref<1x1x!ttcore.tile<32x32, f32>, #ttnn.buffer_type<dram>>, <interleaved>>>) -> ()
        "ttnn.deallocate"(%156) <{force = false}> : (tensor<1x3072xf32, #ttnn.ttnn_layout<(d0, d1) -> (d0, d1), <1x1>, memref<1x96x!ttcore.tile<32x32, f32>, #ttnn.buffer_type<dram>>, <interleaved>>>) -> ()
        %165 = "ttnn.multiply"(%70, %164) <{output_dtype = #ttcore.supportedDataTypes<f32>}> : (tensor<1x3072xf32, #ttnn.ttnn_layout<(d0, d1) -> (d0, d1), <1x1>, memref<1x96x!ttcore.tile<32x32, f32>, #ttnn.buffer_type<dram>>, <interleaved>>>, tensor<1x3072xf32, #ttnn.ttnn_layout<(d0, d1) -> (d0, d1), <1x1>, memref<1x96x!ttcore.tile<32x32, f32>, #ttnn.buffer_type<dram>>, <interleaved>>>) -> tensor<1x3072xf32, #ttnn.ttnn_layout<(d0, d1) -> (d0, d1), <1x1>, memref<1x96x!ttcore.tile<32x32, f32>, #ttnn.buffer_type<dram>>, <interleaved>>>
        "ttnn.deallocate"(%164) <{force = false}> : (tensor<1x3072xf32, #ttnn.ttnn_layout<(d0, d1) -> (d0, d1), <1x1>, memref<1x96x!ttcore.tile<32x32, f32>, #ttnn.buffer_type<dram>>, <interleaved>>>) -> ()
        "ttnn.deallocate"(%70) <{force = false}> : (tensor<1x3072xf32, #ttnn.ttnn_layout<(d0, d1) -> (d0, d1), <1x1>, memref<1x96x!ttcore.tile<32x32, f32>, #ttnn.buffer_type<dram>>, <interleaved>>>) -> ()
        %166 = "ttnn.typecast"(%165) <{dtype = #ttcore.supportedDataTypes<bf16>}> : (tensor<1x3072xf32, #ttnn.ttnn_layout<(d0, d1) -> (d0, d1), <1x1>, memref<1x96x!ttcore.tile<32x32, f32>, #ttnn.buffer_type<dram>>, <interleaved>>>) -> tensor<1x3072xbf16, #ttnn.ttnn_layout<(d0, d1) -> (d0, d1), <1x1>, memref<1x96x!ttcore.tile<32x32, bf16>, #ttnn.buffer_type<dram>>, <interleaved>>>
        "ttnn.deallocate"(%165) <{force = false}> : (tensor<1x3072xf32, #ttnn.ttnn_layout<(d0, d1) -> (d0, d1), <1x1>, memref<1x96x!ttcore.tile<32x32, f32>, #ttnn.buffer_type<dram>>, <interleaved>>>) -> ()
        %167 = "ttnn.matmul"(%166, %8) <{transpose_a = false, transpose_b = true}> : (tensor<1x3072xbf16, #ttnn.ttnn_layout<(d0, d1) -> (d0, d1), <1x1>, memref<1x96x!ttcore.tile<32x32, bf16>, #ttnn.buffer_type<dram>>, <interleaved>>>, tensor<128256x3072xbf16, #ttnn.ttnn_layout<(d0, d1) -> (d0, d1), <1x1>, memref<4008x96x!ttcore.tile<32x32, bf16>, #ttnn.buffer_type<dram>>, <interleaved>>>) -> tensor<1x128256xbf16, #ttnn.ttnn_layout<(d0, d1) -> (d0, d1), <1x1>, memref<1x4008x!ttcore.tile<32x32, bf16>, #ttnn.buffer_type<dram>>, <interleaved>>>
        "ttnn.deallocate"(%166) <{force = false}> : (tensor<1x3072xbf16, #ttnn.ttnn_layout<(d0, d1) -> (d0, d1), <1x1>, memref<1x96x!ttcore.tile<32x32, bf16>, #ttnn.buffer_type<dram>>, <interleaved>>>) -> ()
        "ttnn.deallocate"(%8) <{force = false}> : (tensor<128256x3072xbf16, #ttnn.ttnn_layout<(d0, d1) -> (d0, d1), <1x1>, memref<4008x96x!ttcore.tile<32x32, bf16>, #ttnn.buffer_type<dram>>, <interleaved>>>) -> ()
        %168 = "ttnn.reshape"(%167) <{shape = [1 : i32, 1 : i32, 128256 : i32]}> : (tensor<1x128256xbf16, #ttnn.ttnn_layout<(d0, d1) -> (d0, d1), <1x1>, memref<1x4008x!ttcore.tile<32x32, bf16>, #ttnn.buffer_type<dram>>, <interleaved>>>) -> tensor<1x1x128256xbf16, #ttnn.ttnn_layout<(d0, d1, d2) -> (d0 * 32 + d1, d2), <1x1>, memref<1x4008x!ttcore.tile<32x32, bf16>, #ttnn.buffer_type<dram>>, <interleaved>>>
        %169 = "ttnn.to_layout"(%10) <{layout = #ttnn.layout<row_major>}> : (tensor<1x4x128x128xbf16, #ttnn.ttnn_layout<(d0, d1, d2, d3) -> (d0 * 512 + d1 * 128 + d2, d3), <1x1>, memref<16x4x!ttcore.tile<32x32, bf16>, #ttnn.buffer_type<dram>>, <interleaved>>>) -> tensor<1x4x128x128xbf16, #ttnn.ttnn_layout<(d0, d1, d2, d3) -> (d0 * 512 + d1 * 128 + d2, d3), <1x1>, memref<512x128xbf16, #ttnn.buffer_type<dram>>, <interleaved>>>
        "ttnn.deallocate"(%10) <{force = false}> : (tensor<1x4x128x128xbf16, #ttnn.ttnn_layout<(d0, d1, d2, d3) -> (d0 * 512 + d1 * 128 + d2, d3), <1x1>, memref<16x4x!ttcore.tile<32x32, bf16>, #ttnn.buffer_type<dram>>, <interleaved>>>) -> ()
        %170 = "ttnn.from_device"(%169) : (tensor<1x4x128x128xbf16, #ttnn.ttnn_layout<(d0, d1, d2, d3) -> (d0 * 512 + d1 * 128 + d2, d3), <1x1>, memref<512x128xbf16, #ttnn.buffer_type<dram>>, <interleaved>>>) -> tensor<1x4x128x128xbf16, #ttnn.ttnn_layout<(d0, d1, d2, d3) -> (d0 * 512 + d1 * 128 + d2, d3), <1x1>, memref<512x128xbf16, #ttnn.buffer_type<system_memory>>>>
        "ttnn.deallocate"(%169) <{force = false}> : (tensor<1x4x128x128xbf16, #ttnn.ttnn_layout<(d0, d1, d2, d3) -> (d0 * 512 + d1 * 128 + d2, d3), <1x1>, memref<512x128xbf16, #ttnn.buffer_type<dram>>, <interleaved>>>) -> ()
        %171 = "ttnn.mesh_shard"(%170, %1) <{shard_dims = array<i64: -1, 1>, shard_direction = #ttcore.shard_direction<shard_to_full>, shard_shape = array<i64: 1, 2, 1, 1>, shard_type = #ttcore.shard_type<devices>}> : (tensor<1x4x128x128xbf16, #ttnn.ttnn_layout<(d0, d1, d2, d3) -> (d0 * 512 + d1 * 128 + d2, d3), <1x1>, memref<512x128xbf16, #ttnn.buffer_type<system_memory>>>>, !ttnn.device) -> tensor<1x8x128x128xbf16, #ttnn.ttnn_layout<(d0, d1, d2, d3) -> (d0 * 1024 + d1 * 128 + d2, d3), <1x1>, memref<1024x128xbf16, #ttnn.buffer_type<system_memory>>>>
        "ttnn.deallocate"(%170) <{force = false}> : (tensor<1x4x128x128xbf16, #ttnn.ttnn_layout<(d0, d1, d2, d3) -> (d0 * 512 + d1 * 128 + d2, d3), <1x1>, memref<512x128xbf16, #ttnn.buffer_type<system_memory>>>>) -> ()
        %172 = "ttnn.to_layout"(%12) <{layout = #ttnn.layout<row_major>}> : (tensor<1x4x128x128xbf16, #ttnn.ttnn_layout<(d0, d1, d2, d3) -> (d0 * 512 + d1 * 128 + d2, d3), <1x1>, memref<16x4x!ttcore.tile<32x32, bf16>, #ttnn.buffer_type<dram>>, <interleaved>>>) -> tensor<1x4x128x128xbf16, #ttnn.ttnn_layout<(d0, d1, d2, d3) -> (d0 * 512 + d1 * 128 + d2, d3), <1x1>, memref<512x128xbf16, #ttnn.buffer_type<dram>>, <interleaved>>>
        "ttnn.deallocate"(%12) <{force = false}> : (tensor<1x4x128x128xbf16, #ttnn.ttnn_layout<(d0, d1, d2, d3) -> (d0 * 512 + d1 * 128 + d2, d3), <1x1>, memref<16x4x!ttcore.tile<32x32, bf16>, #ttnn.buffer_type<dram>>, <interleaved>>>) -> ()
        %173 = "ttnn.from_device"(%172) : (tensor<1x4x128x128xbf16, #ttnn.ttnn_layout<(d0, d1, d2, d3) -> (d0 * 512 + d1 * 128 + d2, d3), <1x1>, memref<512x128xbf16, #ttnn.buffer_type<dram>>, <interleaved>>>) -> tensor<1x4x128x128xbf16, #ttnn.ttnn_layout<(d0, d1, d2, d3) -> (d0 * 512 + d1 * 128 + d2, d3), <1x1>, memref<512x128xbf16, #ttnn.buffer_type<system_memory>>>>
        "ttnn.deallocate"(%172) <{force = false}> : (tensor<1x4x128x128xbf16, #ttnn.ttnn_layout<(d0, d1, d2, d3) -> (d0 * 512 + d1 * 128 + d2, d3), <1x1>, memref<512x128xbf16, #ttnn.buffer_type<dram>>, <interleaved>>>) -> ()
        %174 = "ttnn.mesh_shard"(%173, %1) <{shard_dims = array<i64: -1, 1>, shard_direction = #ttcore.shard_direction<shard_to_full>, shard_shape = array<i64: 1, 2, 1, 1>, shard_type = #ttcore.shard_type<devices>}> : (tensor<1x4x128x128xbf16, #ttnn.ttnn_layout<(d0, d1, d2, d3) -> (d0 * 512 + d1 * 128 + d2, d3), <1x1>, memref<512x128xbf16, #ttnn.buffer_type<system_memory>>>>, !ttnn.device) -> tensor<1x8x128x128xbf16, #ttnn.ttnn_layout<(d0, d1, d2, d3) -> (d0 * 1024 + d1 * 128 + d2, d3), <1x1>, memref<1024x128xbf16, #ttnn.buffer_type<system_memory>>>>
        "ttnn.deallocate"(%173) <{force = false}> : (tensor<1x4x128x128xbf16, #ttnn.ttnn_layout<(d0, d1, d2, d3) -> (d0 * 512 + d1 * 128 + d2, d3), <1x1>, memref<512x128xbf16, #ttnn.buffer_type<system_memory>>>>) -> ()
        %175 = "ttnn.to_layout"(%167) <{layout = #ttnn.layout<row_major>}> : (tensor<1x128256xbf16, #ttnn.ttnn_layout<(d0, d1) -> (d0, d1), <1x1>, memref<1x4008x!ttcore.tile<32x32, bf16>, #ttnn.buffer_type<dram>>, <interleaved>>>) -> tensor<1x128256xbf16, #ttnn.ttnn_layout<(d0, d1) -> (d0, d1), <1x1>, memref<1x128256xbf16, #ttnn.buffer_type<dram>>, <interleaved>>>
        "ttnn.deallocate"(%167) <{force = false}> : (tensor<1x128256xbf16, #ttnn.ttnn_layout<(d0, d1) -> (d0, d1), <1x1>, memref<1x4008x!ttcore.tile<32x32, bf16>, #ttnn.buffer_type<dram>>, <interleaved>>>) -> ()
        %176 = "ttnn.from_device"(%175) : (tensor<1x128256xbf16, #ttnn.ttnn_layout<(d0, d1) -> (d0, d1), <1x1>, memref<1x128256xbf16, #ttnn.buffer_type<dram>>, <interleaved>>>) -> tensor<1x128256xbf16, #ttnn.ttnn_layout<(d0, d1) -> (d0, d1), <1x1>, memref<1x128256xbf16, #ttnn.buffer_type<system_memory>>>>
        "ttnn.deallocate"(%175) <{force = false}> : (tensor<1x128256xbf16, #ttnn.ttnn_layout<(d0, d1) -> (d0, d1), <1x1>, memref<1x128256xbf16, #ttnn.buffer_type<dram>>, <interleaved>>>) -> ()
        %177 = "ttnn.mesh_shard"(%176, %1) <{shard_dims = array<i64: -1>, shard_direction = #ttcore.shard_direction<shard_to_full>, shard_shape = array<i64: 1>, shard_type = #ttcore.shard_type<replicate>}> : (tensor<1x128256xbf16, #ttnn.ttnn_layout<(d0, d1) -> (d0, d1), <1x1>, memref<1x128256xbf16, #ttnn.buffer_type<system_memory>>>>, !ttnn.device) -> tensor<1x128256xbf16, #ttnn.ttnn_layout<(d0, d1) -> (d0, d1), <1x1>, memref<1x128256xbf16, #ttnn.buffer_type<system_memory>>>>
        "ttnn.deallocate"(%176) <{force = false}> : (tensor<1x128256xbf16, #ttnn.ttnn_layout<(d0, d1) -> (d0, d1), <1x1>, memref<1x128256xbf16, #ttnn.buffer_type<system_memory>>>>) -> ()
        %178 = "ttnn.to_layout"(%168) <{layout = #ttnn.layout<row_major>}> : (tensor<1x1x128256xbf16, #ttnn.ttnn_layout<(d0, d1, d2) -> (d0 * 32 + d1, d2), <1x1>, memref<1x4008x!ttcore.tile<32x32, bf16>, #ttnn.buffer_type<dram>>, <interleaved>>>) -> tensor<1x1x128256xbf16, #ttnn.ttnn_layout<(d0, d1, d2) -> (d0 + d1, d2), <1x1>, memref<1x128256xbf16, #ttnn.buffer_type<dram>>, <interleaved>>>
        "ttnn.deallocate"(%168) <{force = false}> : (tensor<1x1x128256xbf16, #ttnn.ttnn_layout<(d0, d1, d2) -> (d0 * 32 + d1, d2), <1x1>, memref<1x4008x!ttcore.tile<32x32, bf16>, #ttnn.buffer_type<dram>>, <interleaved>>>) -> ()
        %179 = "ttnn.from_device"(%178) : (tensor<1x1x128256xbf16, #ttnn.ttnn_layout<(d0, d1, d2) -> (d0 + d1, d2), <1x1>, memref<1x128256xbf16, #ttnn.buffer_type<dram>>, <interleaved>>>) -> tensor<1x1x128256xbf16, #ttnn.ttnn_layout<(d0, d1, d2) -> (d0 + d1, d2), <1x1>, memref<1x128256xbf16, #ttnn.buffer_type<system_memory>>>>
        "ttnn.deallocate"(%178) <{force = false}> : (tensor<1x1x128256xbf16, #ttnn.ttnn_layout<(d0, d1, d2) -> (d0 + d1, d2), <1x1>, memref<1x128256xbf16, #ttnn.buffer_type<dram>>, <interleaved>>>) -> ()
        %180 = "ttnn.mesh_shard"(%179, %1) <{shard_dims = array<i64: -1>, shard_direction = #ttcore.shard_direction<shard_to_full>, shard_shape = array<i64: 1>, shard_type = #ttcore.shard_type<replicate>}> : (tensor<1x1x128256xbf16, #ttnn.ttnn_layout<(d0, d1, d2) -> (d0 + d1, d2), <1x1>, memref<1x128256xbf16, #ttnn.buffer_type<system_memory>>>>, !ttnn.device) -> tensor<1x1x128256xbf16, #ttnn.ttnn_layout<(d0, d1, d2) -> (d0 + d1, d2), <1x1>, memref<1x128256xbf16, #ttnn.buffer_type<system_memory>>>>
        "ttnn.deallocate"(%179) <{force = false}> : (tensor<1x1x128256xbf16, #ttnn.ttnn_layout<(d0, d1, d2) -> (d0 + d1, d2), <1x1>, memref<1x128256xbf16, #ttnn.buffer_type<system_memory>>>>) -> ()
        return %171, %174, %177, %180 : tensor<1x8x128x128xbf16, #ttnn.ttnn_layout<(d0, d1, d2, d3) -> (d0 * 1024 + d1 * 128 + d2, d3), <1x1>, memref<1024x128xbf16, #ttnn.buffer_type<system_memory>>>>, tensor<1x8x128x128xbf16, #ttnn.ttnn_layout<(d0, d1, d2, d3) -> (d0 * 1024 + d1 * 128 + d2, d3), <1x1>, memref<1024x128xbf16, #ttnn.buffer_type<system_memory>>>>, tensor<1x128256xbf16, #ttnn.ttnn_layout<(d0, d1) -> (d0, d1), <1x1>, memref<1x128256xbf16, #ttnn.buffer_type<system_memory>>>>, tensor<1x1x128256xbf16, #ttnn.ttnn_layout<(d0, d1, d2) -> (d0 + d1, d2), <1x1>, memref<1x128256xbf16, #ttnn.buffer_type<system_memory>>>>
      }
    }
  }
}
Generated tokens: [' the', ' the']
input 0: device = xla:0, shape torch.Size([128]) and shard spec {replicated}
input 1: device = xla:0, shape torch.Size([1, 128]) and shard spec {replicated}
input 2: device = xla:0, shape torch.Size([1, 8, 128, 128]) and shard spec {replicated}
[STATIC CACHE DUMP ]mean along seqlen for static cache @ input idx 2 and shape torch.Size([1, 8, 128, 128]): tensor([ … dtype=torch.bfloat16)
input 3: device = xla:0, shape torch.Size([1, 8, 128, 128]) and shard spec {replicated}
[STATIC CACHE DUMP ]mean along seqlen for static cache @ input idx 3 and shape torch.Size([1, 8, 128, 128]): tensor([ … dtype=torch.bfloat16)
input 4: device = xla:0, shape torch.Size([1, 1]) and shard spec {replicated}
input 5: device = xla:0, shape torch.Size([128256, 3072]) and shard spec {replicated}
input 6: device = xla:0, shape torch.Size([1]) and shard spec {replicated}
input 7: device = xla:0, shape torch.Size([64]) and shard spec {replicated}
input 8: device = xla:0, shape torch.Size([3072]) and shard spec {replicated}
input 9: device = xla:0, shape torch.Size([3072, 3072]) and shard spec {devices=[2,1]<=[2]}
input 10: device = xla:0, shape torch.Size([1024, 3072]) and shard spec {devices=[2,1]<=[2]}
input 11: device = xla:0, shape torch.Size([1024, 3072]) and shard spec {devices=[2,1]<=[2]}
input 12: device = xla:0, shape torch.Size([3072, 3072]) and shard spec {devices=[1,2]<=[2]}
input 13: device = xla:0, shape torch.Size([3072]) and shard spec {replicated}
input 14: device = xla:0, shape torch.Size([8192, 3072]) and shard spec {devices=[2,1]<=[2]}
input 15: device = xla:0, shape torch.Size([8192, 3072]) and shard spec {devices=[2,1]<=[2]}
input 16: device = xla:0, shape torch.Size([3072, 8192]) and shard spec {devices=[1,2]<=[2]}
input 17: device = xla:0, shape torch.Size([3072]) and shard spec {replicated}
CPU logit shape:  torch.Size([1, 7, 128256]) XLA logit shape:  torch.Size([1, 1, 128256])
 the[32m                 Always[0m | [1m[38;5;208m WARNING[0m | User provided a tensor of data type: Int64 which is not supported by runtime/ttnn. Casting to: Int32, this may impact throughput and the integrity of the data.
[32m                 Always[0m | [1m[38;5;208m WARNING[0m | User provided a tensor of data type: Int64 which is not supported by runtime/ttnn. Casting to: Int32, this may impact throughput and the integrity of the data.
[32m                 Always[0m | [1m[38;5;208m WARNING[0m | User provided a tensor of data type: Int64 which is not supported by runtime/ttnn. Casting to: Int32, this may impact throughput and the integrity of the data.
[32m                 Always[0m | [1m[38;5;208m WARNING[0m | User provided a tensor of data type: Int64 which is not supported by runtime/ttnn. Casting to: Int32, this may impact throughput and the integrity of the data.
Generated tokens: [' the', ' the', ' the']
input 0: device = xla:0, shape torch.Size([128]) and shard spec {replicated}
input 1: device = xla:0, shape torch.Size([1, 128]) and shard spec {replicated}
input 2: device = xla:0, shape torch.Size([1, 8, 128, 128]) and shard spec {replicated}
[STATIC CACHE DUMP ]mean along seqlen for static cache @ input idx 2 and shape torch.Size([1, 8, 128, 128]): tensor([ … dtype=torch.bfloat16)
input 3: device = xla:0, shape torch.Size([1, 8, 128, 128]) and shard spec {replicated}
[STATIC CACHE DUMP ]mean along seqlen for static cache @ input idx 3 and shape torch.Size([1, 8, 128, 128]): tensor([ … dtype=torch.bfloat16)
input 4: device = xla:0, shape torch.Size([1, 1]) and shard spec {replicated}
input 5: device = xla:0, shape torch.Size([128256, 3072]) and shard spec {replicated}
input 6: device = xla:0, shape torch.Size([1]) and shard spec {replicated}
input 7: device = xla:0, shape torch.Size([64]) and shard spec {replicated}
input 8: device = xla:0, shape torch.Size([3072]) and shard spec {replicated}
input 9: device = xla:0, shape torch.Size([3072, 3072]) and shard spec {devices=[2,1]<=[2]}
input 10: device = xla:0, shape torch.Size([1024, 3072]) and shard spec {devices=[2,1]<=[2]}
input 11: device = xla:0, shape torch.Size([1024, 3072]) and shard spec {devices=[2,1]<=[2]}
input 12: device = xla:0, shape torch.Size([3072, 3072]) and shard spec {devices=[1,2]<=[2]}
input 13: device = xla:0, shape torch.Size([3072]) and shard spec {replicated}
input 14: device = xla:0, shape torch.Size([8192, 3072]) and shard spec {devices=[2,1]<=[2]}
input 15: device = xla:0, shape torch.Size([8192, 3072]) and shard spec {devices=[2,1]<=[2]}
input 16: device = xla:0, shape torch.Size([3072, 8192]) and shard spec {devices=[1,2]<=[2]}
input 17: device = xla:0, shape torch.Size([3072]) and shard spec {replicated}
CPU logit shape:  torch.Size([1, 7, 128256]) XLA logit shape:  torch.Size([1, 1, 128256])
 the[32m                 Always[0m | [1m[38;5;208m WARNING[0m | User provided a tensor of data type: Int64 which is not supported by runtime/ttnn. Casting to: Int32, this may impact throughput and the integrity of the data.
[32m                 Always[0m | [1m[38;5;208m WARNING[0m | User provided a tensor of data type: Int64 which is not supported by runtime/ttnn. Casting to: Int32, this may impact throughput and the integrity of the data.
[32m                 Always[0m | [1m[38;5;208m WARNING[0m | User provided a tensor of data type: Int64 which is not supported by runtime/ttnn. Casting to: Int32, this may impact throughput and the integrity of the data.
[32m                 Always[0m | [1m[38;5;208m WARNING[0m | User provided a tensor of data type: Int64 which is not supported by runtime/ttnn. Casting to: Int32, this may impact throughput and the integrity of the data.
Generated tokens: [' the', ' the', ' the', ' the']
input 0: device = xla:0, shape torch.Size([128]) and shard spec {replicated}
input 1: device = xla:0, shape torch.Size([1, 128]) and shard spec {replicated}
input 2: device = xla:0, shape torch.Size([1, 8, 128, 128]) and shard spec {replicated}
[STATIC CACHE DUMP ]mean along seqlen for static cache @ input idx 2 and shape torch.Size([1, 8, 128, 128]): tensor([ … dtype=torch.bfloat16)
input 3: device = xla:0, shape torch.Size([1, 8, 128, 128]) and shard spec {replicated}
[STATIC CACHE DUMP ]mean along seqlen for static cache @ input idx 3 and shape torch.Size([1, 8, 128, 128]): tensor([ … dtype=torch.bfloat16)
input 4: device = xla:0, shape torch.Size([1, 1]) and shard spec {replicated}
input 5: device = xla:0, shape torch.Size([128256, 3072]) and shard spec {replicated}
input 6: device = xla:0, shape torch.Size([1]) and shard spec {replicated}
input 7: device = xla:0, shape torch.Size([64]) and shard spec {replicated}
input 8: device = xla:0, shape torch.Size([3072]) and shard spec {replicated}
input 9: device = xla:0, shape torch.Size([3072, 3072]) and shard spec {devices=[2,1]<=[2]}
input 10: device = xla:0, shape torch.Size([1024, 3072]) and shard spec {devices=[2,1]<=[2]}
input 11: device = xla:0, shape torch.Size([1024, 3072]) and shard spec {devices=[2,1]<=[2]}
input 12: device = xla:0, shape torch.Size([3072, 3072]) and shard spec {devices=[1,2]<=[2]}
input 13: device = xla:0, shape torch.Size([3072]) and shard spec {replicated}
input 14: device = xla:0, shape torch.Size([8192, 3072]) and shard spec {devices=[2,1]<=[2]}
input 15: device = xla:0, shape torch.Size([8192, 3072]) and shard spec {devices=[2,1]<=[2]}
input 16: device = xla:0, shape torch.Size([3072, 8192]) and shard spec {devices=[1,2]<=[2]}
input 17: device = xla:0, shape torch.Size([3072]) and shard spec {replicated}
CPU logit shape:  torch.Size([1, 7, 128256]) XLA logit shape:  torch.Size([1, 1, 128256])
 theGenerated tokens: [' the', ' the', ' the', ' the', ' the']
PCCs: [0.999358854626345, 0.5882825894473835, 0.48091930970027535, 0.46284896118395635, 0.44767506700476534]
PASSED

============================== 1 passed in 59.19s ==============================
