WARNING:root:Defaulting to PJRT_DEVICE=CPU
============================= test session starts ==============================
platform linux -- Python 3.10.12, pytest-8.4.1, pluggy-1.6.0 -- /localdev/jameszianxu/test2/tt-torch/env/venv/bin/python3.10
cachedir: .pytest_cache
rootdir: /localdev/jameszianxu/test2/tt-torch
configfile: pytest.ini
plugins: cov-6.2.1, forked-1.6.0, xdist-3.8.0, split-0.10.0
collecting ... collected 1 item

tests/models/llama/test_llama3_generative.py::test_llama3_generate Loading checkpoint shards:   0%|          | 0/2 [00:00<?, ?it/s]Loading checkpoint shards: 100%|██████████| 2/2 [00:00<00:00, 47.86it/s]
2025-09-03 15:39:58.054254: W torch_xla/csrc/runtime/profiler.cpp:88] Profiler API not found for PJRT plugin
Initial prompt: '<|begin_of_text|>I like taking walks in the'
Setting up XLA environment...
XLA environment configured.
Created device mesh: (1, 2) with 2 devices
<|begin_of_text|>I like taking walks in theNote: Using experimental XLA backend.
[XLA Debug] Processing 51 input specs:
[XLA Debug] Input 0: kind=InputKind.PARAMETER, arg=TensorArgument(name='p__fx_const_folded_attrs_0'), target=_FX_CONST_FOLDED_ATTRS.0

[XLA Debug] Input 1: kind=InputKind.PARAMETER, arg=TensorArgument(name='p__fx_const_folded_attrs_1'), target=_FX_CONST_FOLDED_ATTRS.1

[XLA Debug] Input 2: kind=InputKind.BUFFER, arg=TensorArgument(name='b_kwargs____past_key_values___key_cache_0'), target=kwargs____past_key_values___key_cache_0

[XLA Debug] Input 3: kind=InputKind.BUFFER, arg=TensorArgument(name='b_kwargs____past_key_values___value_cache_0'), target=kwargs____past_key_values___value_cache_0

[XLA Debug] Input 4: kind=InputKind.BUFFER, arg=TensorArgument(name='b_kwargs____past_key_values___key_cache_1'), target=kwargs____past_key_values___key_cache_1

[XLA Debug] Input 5: kind=InputKind.BUFFER, arg=TensorArgument(name='b_kwargs____past_key_values___value_cache_1'), target=kwargs____past_key_values___value_cache_1

[XLA Debug] Input 6: kind=InputKind.BUFFER, arg=TensorArgument(name='b_kwargs____past_key_values___key_cache_2'), target=kwargs____past_key_values___key_cache_2

[XLA Debug] Input 7: kind=InputKind.BUFFER, arg=TensorArgument(name='b_kwargs____past_key_values___value_cache_2'), target=kwargs____past_key_values___value_cache_2

[XLA Debug] Input 8: kind=InputKind.BUFFER, arg=TensorArgument(name='b_kwargs____past_key_values___key_cache_3'), target=kwargs____past_key_values___key_cache_3

[XLA Debug] Input 9: kind=InputKind.BUFFER, arg=TensorArgument(name='b_kwargs____past_key_values___value_cache_3'), target=kwargs____past_key_values___value_cache_3

[XLA Debug] Input 10: kind=InputKind.USER_INPUT, arg=TensorArgument(name='args_0'), target=None
[XLA Debug] Input 11: kind=InputKind.USER_INPUT, arg=TensorArgument(name='args_1'), target=None
[XLA Debug] Input 12: kind=InputKind.USER_INPUT, arg=TensorArgument(name='args_2'), target=None
[XLA Debug] Input 13: kind=InputKind.USER_INPUT, arg=TensorArgument(name='args_3'), target=None
[XLA Debug] Input 14: kind=InputKind.USER_INPUT, arg=TensorArgument(name='args_4'), target=None
[XLA Debug] Input 15: kind=InputKind.USER_INPUT, arg=TensorArgument(name='args_5'), target=None
[XLA Debug] Input 16: kind=InputKind.USER_INPUT, arg=TensorArgument(name='args_6'), target=None
[XLA Debug] Input 17: kind=InputKind.USER_INPUT, arg=TensorArgument(name='args_7'), target=None
[XLA Debug] Input 18: kind=InputKind.USER_INPUT, arg=TensorArgument(name='args_8'), target=None
[XLA Debug] Input 19: kind=InputKind.USER_INPUT, arg=TensorArgument(name='args_9'), target=None
[XLA Debug] Input 20: kind=InputKind.USER_INPUT, arg=TensorArgument(name='args_10'), target=None
[XLA Debug] Input 21: kind=InputKind.USER_INPUT, arg=TensorArgument(name='args_11'), target=None
[XLA Debug] Input 22: kind=InputKind.USER_INPUT, arg=TensorArgument(name='args_12'), target=None
[XLA Debug] Input 23: kind=InputKind.USER_INPUT, arg=TensorArgument(name='args_13'), target=None
[XLA Debug] Input 24: kind=InputKind.USER_INPUT, arg=TensorArgument(name='args_14'), target=None
[XLA Debug] Input 25: kind=InputKind.USER_INPUT, arg=TensorArgument(name='args_15'), target=None
[XLA Debug] Input 26: kind=InputKind.USER_INPUT, arg=TensorArgument(name='args_16'), target=None
[XLA Debug] Input 27: kind=InputKind.USER_INPUT, arg=TensorArgument(name='args_17'), target=None
[XLA Debug] Input 28: kind=InputKind.USER_INPUT, arg=TensorArgument(name='args_18'), target=None
[XLA Debug] Input 29: kind=InputKind.USER_INPUT, arg=TensorArgument(name='args_19'), target=None
[XLA Debug] Input 30: kind=InputKind.USER_INPUT, arg=TensorArgument(name='args_20'), target=None
[XLA Debug] Input 31: kind=InputKind.USER_INPUT, arg=TensorArgument(name='args_21'), target=None
[XLA Debug] Input 32: kind=InputKind.USER_INPUT, arg=TensorArgument(name='args_22'), target=None
[XLA Debug] Input 33: kind=InputKind.USER_INPUT, arg=TensorArgument(name='args_23'), target=None
[XLA Debug] Input 34: kind=InputKind.USER_INPUT, arg=TensorArgument(name='args_24'), target=None
[XLA Debug] Input 35: kind=InputKind.USER_INPUT, arg=TensorArgument(name='args_25'), target=None
[XLA Debug] Input 36: kind=InputKind.USER_INPUT, arg=TensorArgument(name='args_26'), target=None
[XLA Debug] Input 37: kind=InputKind.USER_INPUT, arg=TensorArgument(name='args_27'), target=None
[XLA Debug] Input 38: kind=InputKind.USER_INPUT, arg=TensorArgument(name='args_28'), target=None
[XLA Debug] Input 39: kind=InputKind.USER_INPUT, arg=TensorArgument(name='args_29'), target=None
[XLA Debug] Input 40: kind=InputKind.USER_INPUT, arg=TensorArgument(name='args_30'), target=None
[XLA Debug] Input 41: kind=InputKind.USER_INPUT, arg=TensorArgument(name='args_31'), target=None
[XLA Debug] Input 42: kind=InputKind.USER_INPUT, arg=TensorArgument(name='args_32'), target=None
[XLA Debug] Input 43: kind=InputKind.USER_INPUT, arg=TensorArgument(name='args_33'), target=None
[XLA Debug] Input 44: kind=InputKind.USER_INPUT, arg=TensorArgument(name='args_34'), target=None
[XLA Debug] Input 45: kind=InputKind.USER_INPUT, arg=TensorArgument(name='args_35'), target=None
[XLA Debug] Input 46: kind=InputKind.USER_INPUT, arg=TensorArgument(name='args_36'), target=None
[XLA Debug] Input 47: kind=InputKind.USER_INPUT, arg=TensorArgument(name='args_37'), target=None
[XLA Debug] Input 48: kind=InputKind.USER_INPUT, arg=TensorArgument(name='args_38'), target=None
[XLA Debug] Input 49: kind=InputKind.USER_INPUT, arg=TensorArgument(name='args_39'), target=None
[XLA Debug] Input 50: kind=InputKind.USER_INPUT, arg=TensorArgument(name='args_40'), target=None
[XLA Debug] Initialization complete - total inputs: 51, user input indices: [10, 11, 12, 13, 14, 15, 16, 17, 18, 19, 20, 21, 22, 23, 24, 25, 26, 27, 28, 29, 30, 31, 32, 33, 34, 35, 36, 37, 38, 39, 40, 41, 42, 43, 44, 45, 46, 47, 48, 49, 50]
[32m                 Always[0m | [1m[38;5;208m WARNING[0m | User provided a tensor of data type: Int64 which is not supported by runtime/ttnn. Casting to: Int32, this may impact throughput and the integrity of the data.
[32m                 Always[0m | [1m[38;5;208m WARNING[0m | User provided a tensor of data type: Int64 which is not supported by runtime/ttnn. Casting to: Int32, this may impact throughput and the integrity of the data.
[32m                 Always[0m | [1m[38;5;208m WARNING[0m | User provided a tensor of data type: Int64 which is not supported by runtime/ttnn. Casting to: Int32, this may impact throughput and the integrity of the data.
[32m                 Always[0m | [1m[38;5;208m WARNING[0m | User provided a tensor of data type: Int64 which is not supported by runtime/ttnn. Casting to: Int32, this may impact throughput and the integrity of the data.
[32m                 Always[0m | [1m[38;5;208m WARNING[0m | User provided a tensor of data type: Int64 which is not supported by runtime/ttnn. Casting to: Int32, this may impact throughput and the integrity of the data.
[32m                 Always[0m | [1m[38;5;208m WARNING[0m | User provided a tensor of data type: Int64 which is not supported by runtime/ttnn. Casting to: Int32, this may impact throughput and the integrity of the data.
[32m                 Always[0m | [1m[38;5;208m WARNING[0m | User provided a tensor of data type: Int64 which is not supported by runtime/ttnn. Casting to: Int32, this may impact throughput and the integrity of the data.
[32m                 Always[0m | [1m[38;5;208m WARNING[0m | User provided a tensor of data type: Int64 which is not supported by runtime/ttnn. Casting to: Int32, this may impact throughput and the integrity of the data.
module @SyncTensorsGraph.1220 attributes {mhlo.cross_program_prefetches = [], mhlo.frontend_attributes = {xla.sdy.meshes = "{mesh = #sdy.mesh<[\22_axis_0\22=2]>}"}, mhlo.input_output_alias = [], mhlo.is_dynamic = false, mhlo.use_auto_spmd_partitioning = false} {
  vhlo.func_v1 @main(%arg0: !vhlo.tensor_v1<7x!vhlo.i64_v1>, %arg1: !vhlo.tensor_v1<64x!vhlo.f32_v1>, %arg2: !vhlo.tensor_v1<1024x3072x!vhlo.bf16_v1>, %arg3: !vhlo.tensor_v1<!vhlo.f32_v1>, %arg4: !vhlo.tensor_v1<1x7x!vhlo.i64_v1>, %arg5: !vhlo.tensor_v1<128256x3072x!vhlo.bf16_v1>, %arg6: !vhlo.tensor_v1<3072x!vhlo.bf16_v1>, %arg7: !vhlo.tensor_v1<!vhlo.i64_v1>, %arg8: !vhlo.tensor_v1<1x8x128x128x!vhlo.bf16_v1>, %arg9: !vhlo.tensor_v1<1024x3072x!vhlo.bf16_v1>, %arg10: !vhlo.tensor_v1<1x8x128x128x!vhlo.bf16_v1>, %arg11: !vhlo.tensor_v1<1024x3072x!vhlo.bf16_v1>, %arg12: !vhlo.tensor_v1<3072x8192x!vhlo.bf16_v1>, %arg13: !vhlo.tensor_v1<8192x3072x!vhlo.bf16_v1>, %arg14: !vhlo.tensor_v1<3072x3072x!vhlo.bf16_v1>, %arg15: !vhlo.tensor_v1<128x!vhlo.i64_v1>, %arg16: !vhlo.tensor_v1<7x128x!vhlo.bf16_v1>, %arg17: !vhlo.tensor_v1<!vhlo.f32_v1>, %arg18: !vhlo.tensor_v1<3072x3072x!vhlo.bf16_v1>, %arg19: !vhlo.tensor_v1<3072x!vhlo.bf16_v1>, %arg20: !vhlo.tensor_v1<8192x3072x!vhlo.bf16_v1>, %arg21: !vhlo.tensor_v1<3072x!vhlo.bf16_v1>, %arg22: !vhlo.tensor_v1<1x8x128x128x!vhlo.bf16_v1>, %arg23: !vhlo.tensor_v1<1024x3072x!vhlo.bf16_v1>, %arg24: !vhlo.tensor_v1<1x8x128x128x!vhlo.bf16_v1>, %arg25: !vhlo.tensor_v1<1024x3072x!vhlo.bf16_v1>, %arg26: !vhlo.tensor_v1<3072x8192x!vhlo.bf16_v1>, %arg27: !vhlo.tensor_v1<8192x3072x!vhlo.bf16_v1>, %arg28: !vhlo.tensor_v1<3072x3072x!vhlo.bf16_v1>, %arg29: !vhlo.tensor_v1<3072x3072x!vhlo.bf16_v1>, %arg30: !vhlo.tensor_v1<3072x!vhlo.bf16_v1>, %arg31: !vhlo.tensor_v1<8192x3072x!vhlo.bf16_v1>, %arg32: !vhlo.tensor_v1<3072x!vhlo.bf16_v1>, %arg33: !vhlo.tensor_v1<1x8x128x128x!vhlo.bf16_v1>, %arg34: !vhlo.tensor_v1<1024x3072x!vhlo.bf16_v1>, %arg35: !vhlo.tensor_v1<1x8x128x128x!vhlo.bf16_v1>, %arg36: !vhlo.tensor_v1<1024x3072x!vhlo.bf16_v1>, %arg37: !vhlo.tensor_v1<3072x8192x!vhlo.bf16_v1>, %arg38: !vhlo.tensor_v1<8192x3072x!vhlo.bf16_v1>, %arg39: !vhlo.tensor_v1<3072x3072x!vhlo.bf16_v1>, %arg40: !vhlo.tensor_v1<3072x3072x!vhlo.bf16_v1>, %arg41: !vhlo.tensor_v1<3072x!vhlo.bf16_v1>, %arg42: !vhlo.tensor_v1<8192x3072x!vhlo.bf16_v1>, %arg43: !vhlo.tensor_v1<3072x!vhlo.bf16_v1>, %arg44: !vhlo.tensor_v1<1x8x128x128x!vhlo.bf16_v1>, %arg45: !vhlo.tensor_v1<1024x3072x!vhlo.bf16_v1>, %arg46: !vhlo.tensor_v1<1x8x128x128x!vhlo.bf16_v1>, %arg47: !vhlo.tensor_v1<3072x8192x!vhlo.bf16_v1>, %arg48: !vhlo.tensor_v1<8192x3072x!vhlo.bf16_v1>, %arg49: !vhlo.tensor_v1<3072x3072x!vhlo.bf16_v1>, %arg50: !vhlo.tensor_v1<3072x3072x!vhlo.bf16_v1>, %arg51: !vhlo.tensor_v1<3072x!vhlo.bf16_v1>, %arg52: !vhlo.tensor_v1<8192x3072x!vhlo.bf16_v1>, %arg53: !vhlo.tensor_v1<3072x!vhlo.bf16_v1>) -> (!vhlo.tensor_v1<1x8x128x128x!vhlo.bf16_v1>, !vhlo.tensor_v1<1x8x128x128x!vhlo.bf16_v1>, !vhlo.tensor_v1<1x8x128x128x!vhlo.bf16_v1>, !vhlo.tensor_v1<1x8x128x128x!vhlo.bf16_v1>, !vhlo.tensor_v1<1x8x128x128x!vhlo.bf16_v1>, !vhlo.tensor_v1<1x8x128x128x!vhlo.bf16_v1>, !vhlo.tensor_v1<1x8x128x128x!vhlo.bf16_v1>, !vhlo.tensor_v1<1x8x128x128x!vhlo.bf16_v1>, !vhlo.tensor_v1<7x128256x!vhlo.bf16_v1>, !vhlo.tensor_v1<1x7x128256x!vhlo.bf16_v1>) {
    %0 = "vhlo.constant_v1"() <{value = #vhlo.tensor_v1<dense<0> : tensor<7xi64>>}> : () -> !vhlo.tensor_v1<7x!vhlo.i64_v1>
    %1 = "vhlo.constant_v1"() <{value = #vhlo.tensor_v1<dense<0.000000e+00> : tensor<f32>>}> : () -> !vhlo.tensor_v1<!vhlo.f32_v1>
    %2 = "vhlo.constant_v1"() <{value = #vhlo.tensor_v1<dense<0xFF800000> : tensor<f32>>}> : () -> !vhlo.tensor_v1<!vhlo.f32_v1>
    %3 = "vhlo.constant_v1"() <{value = #vhlo.tensor_v1<dense<3.25520843E-4> : tensor<1x7xf32>>}> : () -> !vhlo.tensor_v1<1x7x!vhlo.f32_v1>
    %4 = "vhlo.constant_v1"() <{value = #vhlo.tensor_v1<dense<2.000000e+00> : tensor<f32>>}> : () -> !vhlo.tensor_v1<!vhlo.f32_v1>
    %5 = "vhlo.broadcast_in_dim_v1"(%4) <{broadcast_dimensions = #vhlo.tensor_v1<dense<> : tensor<0xi64>>}> : (!vhlo.tensor_v1<!vhlo.f32_v1>) -> !vhlo.tensor_v1<1x7x3072x!vhlo.f32_v1>
    %6 = "vhlo.compare_v1"(%arg0, %0) <{compare_type = #vhlo<comparison_type_v1 NOTYPE>, comparison_direction = #vhlo<comparison_direction_v1 LT>}> : (!vhlo.tensor_v1<7x!vhlo.i64_v1>, !vhlo.tensor_v1<7x!vhlo.i64_v1>) -> !vhlo.tensor_v1<7x!vhlo.bool_v1>
    %7 = "vhlo.broadcast_in_dim_v1"(%arg7) <{broadcast_dimensions = #vhlo.tensor_v1<dense<> : tensor<0xi64>>}> : (!vhlo.tensor_v1<!vhlo.i64_v1>) -> !vhlo.tensor_v1<7x!vhlo.i64_v1>
    %8 = "vhlo.add_v1"(%arg0, %7) : (!vhlo.tensor_v1<7x!vhlo.i64_v1>, !vhlo.tensor_v1<7x!vhlo.i64_v1>) -> !vhlo.tensor_v1<7x!vhlo.i64_v1>
    %9 = "vhlo.select_v1"(%6, %8, %arg0) : (!vhlo.tensor_v1<7x!vhlo.bool_v1>, !vhlo.tensor_v1<7x!vhlo.i64_v1>, !vhlo.tensor_v1<7x!vhlo.i64_v1>) -> !vhlo.tensor_v1<7x!vhlo.i64_v1>
    %10 = "vhlo.reshape_v1"(%9) : (!vhlo.tensor_v1<7x!vhlo.i64_v1>) -> !vhlo.tensor_v1<7x1x!vhlo.i64_v1>
    %11 = "vhlo.convert_v1"(%arg6) : (!vhlo.tensor_v1<3072x!vhlo.bf16_v1>) -> !vhlo.tensor_v1<3072x!vhlo.f32_v1>
    %12 = "vhlo.broadcast_in_dim_v1"(%11) <{broadcast_dimensions = #vhlo.tensor_v1<dense<2> : tensor<1xi64>>}> : (!vhlo.tensor_v1<3072x!vhlo.f32_v1>) -> !vhlo.tensor_v1<1x7x3072x!vhlo.f32_v1>
    %13 = "vhlo.reshape_v1"(%arg4) : (!vhlo.tensor_v1<1x7x!vhlo.i64_v1>) -> !vhlo.tensor_v1<7x!vhlo.i64_v1>
    %14 = "vhlo.convert_v1"(%13) : (!vhlo.tensor_v1<7x!vhlo.i64_v1>) -> !vhlo.tensor_v1<7x!vhlo.ui32_v1>
    %15 = "vhlo.gather_v2"(%arg5, %14) <{collapsed_slice_dims = #vhlo.tensor_v1<dense<0> : tensor<1xi64>>, index_vector_dim = #vhlo.integer_v1<1 : i64>, indices_are_sorted = #vhlo.bool_v1<false>, offset_dims = #vhlo.tensor_v1<dense<1> : tensor<1xi64>>, operand_batching_dims = #vhlo.tensor_v1<dense<> : tensor<0xi64>>, slice_sizes = #vhlo.tensor_v1<dense<[1, 3072]> : tensor<2xi64>>, start_index_map = #vhlo.tensor_v1<dense<0> : tensor<1xi64>>, start_indices_batching_dims = #vhlo.tensor_v1<dense<> : tensor<0xi64>>}> : (!vhlo.tensor_v1<128256x3072x!vhlo.bf16_v1>, !vhlo.tensor_v1<7x!vhlo.ui32_v1>) -> !vhlo.tensor_v1<7x3072x!vhlo.bf16_v1>
    %16 = "vhlo.reshape_v1"(%15) : (!vhlo.tensor_v1<7x3072x!vhlo.bf16_v1>) -> !vhlo.tensor_v1<1x7x3072x!vhlo.bf16_v1>
    %17 = "vhlo.convert_v1"(%16) : (!vhlo.tensor_v1<1x7x3072x!vhlo.bf16_v1>) -> !vhlo.tensor_v1<1x7x3072x!vhlo.f32_v1>
    %18 = "vhlo.power_v1"(%17, %5) : (!vhlo.tensor_v1<1x7x3072x!vhlo.f32_v1>, !vhlo.tensor_v1<1x7x3072x!vhlo.f32_v1>) -> !vhlo.tensor_v1<1x7x3072x!vhlo.f32_v1>
    %19 = "vhlo.reduce_v1"(%18, %1) <{dimensions = #vhlo.tensor_v1<dense<2> : tensor<1xi64>>}> ({
    ^bb0(%arg54: !vhlo.tensor_v1<!vhlo.f32_v1>, %arg55: !vhlo.tensor_v1<!vhlo.f32_v1>):
      %558 = "vhlo.add_v1"(%arg54, %arg55) : (!vhlo.tensor_v1<!vhlo.f32_v1>, !vhlo.tensor_v1<!vhlo.f32_v1>) -> !vhlo.tensor_v1<!vhlo.f32_v1>
      "vhlo.return_v1"(%558) : (!vhlo.tensor_v1<!vhlo.f32_v1>) -> ()
    }) : (!vhlo.tensor_v1<1x7x3072x!vhlo.f32_v1>, !vhlo.tensor_v1<!vhlo.f32_v1>) -> !vhlo.tensor_v1<1x7x!vhlo.f32_v1>
    %20 = "vhlo.multiply_v1"(%19, %3) : (!vhlo.tensor_v1<1x7x!vhlo.f32_v1>, !vhlo.tensor_v1<1x7x!vhlo.f32_v1>) -> !vhlo.tensor_v1<1x7x!vhlo.f32_v1>
    %21 = "vhlo.reshape_v1"(%20) : (!vhlo.tensor_v1<1x7x!vhlo.f32_v1>) -> !vhlo.tensor_v1<1x7x1x!vhlo.f32_v1>
    %22 = "vhlo.broadcast_in_dim_v1"(%arg3) <{broadcast_dimensions = #vhlo.tensor_v1<dense<> : tensor<0xi64>>}> : (!vhlo.tensor_v1<!vhlo.f32_v1>) -> !vhlo.tensor_v1<1x7x1x!vhlo.f32_v1>
    %23 = "vhlo.add_v1"(%21, %22) : (!vhlo.tensor_v1<1x7x1x!vhlo.f32_v1>, !vhlo.tensor_v1<1x7x1x!vhlo.f32_v1>) -> !vhlo.tensor_v1<1x7x1x!vhlo.f32_v1>
    %24 = "vhlo.rsqrt_v2"(%23) <{result_accuracy = #vhlo.result_accuracy_v1<atol = 0.000000e+00, rtol = 0.000000e+00, ulps = 0, mode = #vhlo<result_accuracy_mode_v1 DEFAULT>>}> : (!vhlo.tensor_v1<1x7x1x!vhlo.f32_v1>) -> !vhlo.tensor_v1<1x7x1x!vhlo.f32_v1>
    %25 = "vhlo.reshape_v1"(%24) : (!vhlo.tensor_v1<1x7x1x!vhlo.f32_v1>) -> !vhlo.tensor_v1<1x7x!vhlo.f32_v1>
    %26 = "vhlo.broadcast_in_dim_v1"(%25) <{broadcast_dimensions = #vhlo.tensor_v1<dense<[0, 1]> : tensor<2xi64>>}> : (!vhlo.tensor_v1<1x7x!vhlo.f32_v1>) -> !vhlo.tensor_v1<1x7x3072x!vhlo.f32_v1>
    %27 = "vhlo.multiply_v1"(%17, %26) : (!vhlo.tensor_v1<1x7x3072x!vhlo.f32_v1>, !vhlo.tensor_v1<1x7x3072x!vhlo.f32_v1>) -> !vhlo.tensor_v1<1x7x3072x!vhlo.f32_v1>
    %28 = "vhlo.convert_v1"(%27) : (!vhlo.tensor_v1<1x7x3072x!vhlo.f32_v1>) -> !vhlo.tensor_v1<1x7x3072x!vhlo.bf16_v1>
    %29 = "vhlo.convert_v1"(%28) : (!vhlo.tensor_v1<1x7x3072x!vhlo.bf16_v1>) -> !vhlo.tensor_v1<1x7x3072x!vhlo.f32_v1>
    %30 = "vhlo.multiply_v1"(%12, %29) : (!vhlo.tensor_v1<1x7x3072x!vhlo.f32_v1>, !vhlo.tensor_v1<1x7x3072x!vhlo.f32_v1>) -> !vhlo.tensor_v1<1x7x3072x!vhlo.f32_v1>
    %31 = "vhlo.convert_v1"(%30) : (!vhlo.tensor_v1<1x7x3072x!vhlo.f32_v1>) -> !vhlo.tensor_v1<1x7x3072x!vhlo.bf16_v1>
    %32 = "vhlo.reshape_v1"(%31) : (!vhlo.tensor_v1<1x7x3072x!vhlo.bf16_v1>) -> !vhlo.tensor_v1<7x3072x!vhlo.bf16_v1>
    %33 = "vhlo.transpose_v1"(%arg2) <{permutation = #vhlo.tensor_v1<dense<[1, 0]> : tensor<2xi64>>}> {result_layout = #vhlo.tensor_v1<dense<[0, 1]> : tensor<2xindex>>, xla_shape = #vhlo.string_v1<"bf16[3072,1024]{0,1}">} : (!vhlo.tensor_v1<1024x3072x!vhlo.bf16_v1>) -> !vhlo.tensor_v1<3072x1024x!vhlo.bf16_v1>
    %34 = "vhlo.dot_general_v2"(%32, %33) <{accumulation_type = #vhlo.type_v1<!vhlo.none_v1>, allow_imprecise_accumulation = #vhlo.type_v1<!vhlo.none_v1>, lhs_batching_dimensions = #vhlo.tensor_v1<dense<> : tensor<0xi64>>, lhs_component_count = #vhlo.type_v1<!vhlo.none_v1>, lhs_contracting_dimensions = #vhlo.tensor_v1<dense<1> : tensor<1xi64>>, lhs_precision_type = #vhlo.type_v1<!vhlo.none_v1>, num_primitive_operations = #vhlo.type_v1<!vhlo.none_v1>, precision_config = #vhlo.array_v1<[#vhlo<precision_v1 DEFAULT>, #vhlo<precision_v1 DEFAULT>]>, rhs_batching_dimensions = #vhlo.tensor_v1<dense<> : tensor<0xi64>>, rhs_component_count = #vhlo.type_v1<!vhlo.none_v1>, rhs_contracting_dimensions = #vhlo.tensor_v1<dense<0> : tensor<1xi64>>, rhs_precision_type = #vhlo.type_v1<!vhlo.none_v1>}> : (!vhlo.tensor_v1<7x3072x!vhlo.bf16_v1>, !vhlo.tensor_v1<3072x1024x!vhlo.bf16_v1>) -> !vhlo.tensor_v1<7x1024x!vhlo.bf16_v1>
    %35 = "vhlo.reshape_v1"(%34) : (!vhlo.tensor_v1<7x1024x!vhlo.bf16_v1>) -> !vhlo.tensor_v1<1x7x8x128x!vhlo.bf16_v1>
    %36 = "vhlo.transpose_v1"(%35) <{permutation = #vhlo.tensor_v1<dense<[0, 2, 1, 3]> : tensor<4xi64>>}> {result_layout = #vhlo.tensor_v1<dense<[3, 1, 2, 0]> : tensor<4xindex>>, xla_shape = #vhlo.string_v1<"bf16[1,8,7,128]{3,1,2,0}">} : (!vhlo.tensor_v1<1x7x8x128x!vhlo.bf16_v1>) -> !vhlo.tensor_v1<1x8x7x128x!vhlo.bf16_v1>
    %37 = "vhlo.convert_v1"(%36) {result_layout = #vhlo.tensor_v1<dense<[3, 1, 2, 0]> : tensor<4xindex>>, xla_shape = #vhlo.string_v1<"f32[1,8,7,128]{3,1,2,0}">} : (!vhlo.tensor_v1<1x8x7x128x!vhlo.bf16_v1>) -> !vhlo.tensor_v1<1x8x7x128x!vhlo.f32_v1>
    %38 = "vhlo.reshape_v1"(%arg1) : (!vhlo.tensor_v1<64x!vhlo.f32_v1>) -> !vhlo.tensor_v1<1x64x1x!vhlo.f32_v1>
    %39 = "vhlo.reshape_v1"(%arg0) : (!vhlo.tensor_v1<7x!vhlo.i64_v1>) -> !vhlo.tensor_v1<1x1x7x!vhlo.i64_v1>
    %40 = "vhlo.convert_v1"(%39) : (!vhlo.tensor_v1<1x1x7x!vhlo.i64_v1>) -> !vhlo.tensor_v1<1x1x7x!vhlo.f32_v1>
    %41 = "vhlo.dot_general_v2"(%38, %40) <{accumulation_type = #vhlo.type_v1<!vhlo.none_v1>, allow_imprecise_accumulation = #vhlo.type_v1<!vhlo.none_v1>, lhs_batching_dimensions = #vhlo.tensor_v1<dense<0> : tensor<1xi64>>, lhs_component_count = #vhlo.type_v1<!vhlo.none_v1>, lhs_contracting_dimensions = #vhlo.tensor_v1<dense<2> : tensor<1xi64>>, lhs_precision_type = #vhlo.type_v1<!vhlo.none_v1>, num_primitive_operations = #vhlo.type_v1<!vhlo.none_v1>, precision_config = #vhlo.array_v1<[#vhlo<precision_v1 DEFAULT>, #vhlo<precision_v1 DEFAULT>]>, rhs_batching_dimensions = #vhlo.tensor_v1<dense<0> : tensor<1xi64>>, rhs_component_count = #vhlo.type_v1<!vhlo.none_v1>, rhs_contracting_dimensions = #vhlo.tensor_v1<dense<1> : tensor<1xi64>>, rhs_precision_type = #vhlo.type_v1<!vhlo.none_v1>}> : (!vhlo.tensor_v1<1x64x1x!vhlo.f32_v1>, !vhlo.tensor_v1<1x1x7x!vhlo.f32_v1>) -> !vhlo.tensor_v1<1x64x7x!vhlo.f32_v1>
    %42 = "vhlo.transpose_v1"(%41) <{permutation = #vhlo.tensor_v1<dense<[0, 2, 1]> : tensor<3xi64>>}> {result_layout = #vhlo.tensor_v1<dense<[1, 2, 0]> : tensor<3xindex>>, xla_shape = #vhlo.string_v1<"f32[1,7,64]{1,2,0}">} : (!vhlo.tensor_v1<1x64x7x!vhlo.f32_v1>) -> !vhlo.tensor_v1<1x7x64x!vhlo.f32_v1>
    %43 = "vhlo.concatenate_v1"(%42, %42) <{dimension = #vhlo.integer_v1<2 : i64>}> : (!vhlo.tensor_v1<1x7x64x!vhlo.f32_v1>, !vhlo.tensor_v1<1x7x64x!vhlo.f32_v1>) -> !vhlo.tensor_v1<1x7x128x!vhlo.f32_v1>
    %44 = "vhlo.cosine_v2"(%43) <{result_accuracy = #vhlo.result_accuracy_v1<atol = 0.000000e+00, rtol = 0.000000e+00, ulps = 0, mode = #vhlo<result_accuracy_mode_v1 DEFAULT>>}> : (!vhlo.tensor_v1<1x7x128x!vhlo.f32_v1>) -> !vhlo.tensor_v1<1x7x128x!vhlo.f32_v1>
    %45 = "vhlo.convert_v1"(%44) : (!vhlo.tensor_v1<1x7x128x!vhlo.f32_v1>) -> !vhlo.tensor_v1<1x7x128x!vhlo.bf16_v1>
    %46 = "vhlo.reshape_v1"(%45) : (!vhlo.tensor_v1<1x7x128x!vhlo.bf16_v1>) -> !vhlo.tensor_v1<1x1x7x128x!vhlo.bf16_v1>
    %47 = "vhlo.convert_v1"(%46) : (!vhlo.tensor_v1<1x1x7x128x!vhlo.bf16_v1>) -> !vhlo.tensor_v1<1x1x7x128x!vhlo.f32_v1>
    %48 = "vhlo.reshape_v1"(%47) : (!vhlo.tensor_v1<1x1x7x128x!vhlo.f32_v1>) -> !vhlo.tensor_v1<1x7x128x!vhlo.f32_v1>
    %49 = "vhlo.broadcast_in_dim_v1"(%48) <{broadcast_dimensions = #vhlo.tensor_v1<dense<[0, 2, 3]> : tensor<3xi64>>}> : (!vhlo.tensor_v1<1x7x128x!vhlo.f32_v1>) -> !vhlo.tensor_v1<1x8x7x128x!vhlo.f32_v1>
    %50 = "vhlo.multiply_v1"(%37, %49) : (!vhlo.tensor_v1<1x8x7x128x!vhlo.f32_v1>, !vhlo.tensor_v1<1x8x7x128x!vhlo.f32_v1>) -> !vhlo.tensor_v1<1x8x7x128x!vhlo.f32_v1>
    %51 = "vhlo.convert_v1"(%50) : (!vhlo.tensor_v1<1x8x7x128x!vhlo.f32_v1>) -> !vhlo.tensor_v1<1x8x7x128x!vhlo.bf16_v1>
    %52 = "vhlo.slice_v1"(%36) <{limit_indices = #vhlo.tensor_v1<dense<[1, 8, 7, 128]> : tensor<4xi64>>, start_indices = #vhlo.tensor_v1<dense<[0, 0, 0, 64]> : tensor<4xi64>>, strides = #vhlo.tensor_v1<dense<1> : tensor<4xi64>>}> : (!vhlo.tensor_v1<1x8x7x128x!vhlo.bf16_v1>) -> !vhlo.tensor_v1<1x8x7x64x!vhlo.bf16_v1>
    %53 = "vhlo.negate_v1"(%52) : (!vhlo.tensor_v1<1x8x7x64x!vhlo.bf16_v1>) -> !vhlo.tensor_v1<1x8x7x64x!vhlo.bf16_v1>
    %54 = "vhlo.slice_v1"(%36) <{limit_indices = #vhlo.tensor_v1<dense<[1, 8, 7, 64]> : tensor<4xi64>>, start_indices = #vhlo.tensor_v1<dense<0> : tensor<4xi64>>, strides = #vhlo.tensor_v1<dense<1> : tensor<4xi64>>}> : (!vhlo.tensor_v1<1x8x7x128x!vhlo.bf16_v1>) -> !vhlo.tensor_v1<1x8x7x64x!vhlo.bf16_v1>
    %55 = "vhlo.concatenate_v1"(%53, %54) <{dimension = #vhlo.integer_v1<3 : i64>}> : (!vhlo.tensor_v1<1x8x7x64x!vhlo.bf16_v1>, !vhlo.tensor_v1<1x8x7x64x!vhlo.bf16_v1>) -> !vhlo.tensor_v1<1x8x7x128x!vhlo.bf16_v1>
    %56 = "vhlo.convert_v1"(%55) : (!vhlo.tensor_v1<1x8x7x128x!vhlo.bf16_v1>) -> !vhlo.tensor_v1<1x8x7x128x!vhlo.f32_v1>
    %57 = "vhlo.sine_v2"(%43) <{result_accuracy = #vhlo.result_accuracy_v1<atol = 0.000000e+00, rtol = 0.000000e+00, ulps = 0, mode = #vhlo<result_accuracy_mode_v1 DEFAULT>>}> : (!vhlo.tensor_v1<1x7x128x!vhlo.f32_v1>) -> !vhlo.tensor_v1<1x7x128x!vhlo.f32_v1>
    %58 = "vhlo.convert_v1"(%57) : (!vhlo.tensor_v1<1x7x128x!vhlo.f32_v1>) -> !vhlo.tensor_v1<1x7x128x!vhlo.bf16_v1>
    %59 = "vhlo.reshape_v1"(%58) : (!vhlo.tensor_v1<1x7x128x!vhlo.bf16_v1>) -> !vhlo.tensor_v1<1x1x7x128x!vhlo.bf16_v1>
    %60 = "vhlo.convert_v1"(%59) : (!vhlo.tensor_v1<1x1x7x128x!vhlo.bf16_v1>) -> !vhlo.tensor_v1<1x1x7x128x!vhlo.f32_v1>
    %61 = "vhlo.reshape_v1"(%60) : (!vhlo.tensor_v1<1x1x7x128x!vhlo.f32_v1>) -> !vhlo.tensor_v1<1x7x128x!vhlo.f32_v1>
    %62 = "vhlo.broadcast_in_dim_v1"(%61) <{broadcast_dimensions = #vhlo.tensor_v1<dense<[0, 2, 3]> : tensor<3xi64>>}> : (!vhlo.tensor_v1<1x7x128x!vhlo.f32_v1>) -> !vhlo.tensor_v1<1x8x7x128x!vhlo.f32_v1>
    %63 = "vhlo.multiply_v1"(%56, %62) : (!vhlo.tensor_v1<1x8x7x128x!vhlo.f32_v1>, !vhlo.tensor_v1<1x8x7x128x!vhlo.f32_v1>) -> !vhlo.tensor_v1<1x8x7x128x!vhlo.f32_v1>
    %64 = "vhlo.convert_v1"(%63) : (!vhlo.tensor_v1<1x8x7x128x!vhlo.f32_v1>) -> !vhlo.tensor_v1<1x8x7x128x!vhlo.bf16_v1>
    %65 = "vhlo.add_v1"(%51, %64) : (!vhlo.tensor_v1<1x8x7x128x!vhlo.bf16_v1>, !vhlo.tensor_v1<1x8x7x128x!vhlo.bf16_v1>) -> !vhlo.tensor_v1<1x8x7x128x!vhlo.bf16_v1>
    %66 = "vhlo.scatter_v2"(%arg8, %10, %65) <{index_vector_dim = #vhlo.integer_v1<1 : i64>, indices_are_sorted = #vhlo.bool_v1<false>, input_batching_dims = #vhlo.tensor_v1<dense<> : tensor<0xi64>>, inserted_window_dims = #vhlo.tensor_v1<dense<2> : tensor<1xi64>>, scatter_dims_to_operand_dims = #vhlo.tensor_v1<dense<2> : tensor<1xi64>>, scatter_indices_batching_dims = #vhlo.tensor_v1<dense<> : tensor<0xi64>>, unique_indices = #vhlo.bool_v1<false>, update_window_dims = #vhlo.tensor_v1<dense<[0, 1, 3]> : tensor<3xi64>>}> ({
    ^bb0(%arg54: !vhlo.tensor_v1<!vhlo.bf16_v1>, %arg55: !vhlo.tensor_v1<!vhlo.bf16_v1>):
      "vhlo.return_v1"(%arg55) : (!vhlo.tensor_v1<!vhlo.bf16_v1>) -> ()
    }) : (!vhlo.tensor_v1<1x8x128x128x!vhlo.bf16_v1>, !vhlo.tensor_v1<7x1x!vhlo.i64_v1>, !vhlo.tensor_v1<1x8x7x128x!vhlo.bf16_v1>) -> !vhlo.tensor_v1<1x8x128x128x!vhlo.bf16_v1>
    %67 = "vhlo.custom_call_v1"(%66) <{api_version = #vhlo<api_version_v1 API_VERSION_ORIGINAL>, backend_config = #vhlo.string_v1<"">, call_target_name = #vhlo.string_v1<"Sharding">, called_computations = #vhlo.array_v1<[]>, has_side_effect = #vhlo.bool_v1<false>, operand_layouts = #vhlo.array_v1<[]>, output_operand_aliases = #vhlo.array_v1<[]>, result_layouts = #vhlo.array_v1<[]>}> {mhlo.frontend_attributes = #vhlo.dict_v1<{#vhlo.string_v1<"xla.sdy.sharding"> = #vhlo.string_v1<"#sdy.sharding_per_value<[<@mesh, [{}, {\22_axis_0\22}, {}, {}]>]>">}>, mhlo.sharding = #vhlo.string_v1<"{devices=[1,2,1,1]<=[2]}">} : (!vhlo.tensor_v1<1x8x128x128x!vhlo.bf16_v1>) -> !vhlo.tensor_v1<1x8x128x128x!vhlo.bf16_v1>
    %68 = "vhlo.transpose_v1"(%arg9) <{permutation = #vhlo.tensor_v1<dense<[1, 0]> : tensor<2xi64>>}> {result_layout = #vhlo.tensor_v1<dense<[0, 1]> : tensor<2xindex>>, xla_shape = #vhlo.string_v1<"bf16[3072,1024]{0,1}">} : (!vhlo.tensor_v1<1024x3072x!vhlo.bf16_v1>) -> !vhlo.tensor_v1<3072x1024x!vhlo.bf16_v1>
    %69 = "vhlo.dot_general_v2"(%32, %68) <{accumulation_type = #vhlo.type_v1<!vhlo.none_v1>, allow_imprecise_accumulation = #vhlo.type_v1<!vhlo.none_v1>, lhs_batching_dimensions = #vhlo.tensor_v1<dense<> : tensor<0xi64>>, lhs_component_count = #vhlo.type_v1<!vhlo.none_v1>, lhs_contracting_dimensions = #vhlo.tensor_v1<dense<1> : tensor<1xi64>>, lhs_precision_type = #vhlo.type_v1<!vhlo.none_v1>, num_primitive_operations = #vhlo.type_v1<!vhlo.none_v1>, precision_config = #vhlo.array_v1<[#vhlo<precision_v1 DEFAULT>, #vhlo<precision_v1 DEFAULT>]>, rhs_batching_dimensions = #vhlo.tensor_v1<dense<> : tensor<0xi64>>, rhs_component_count = #vhlo.type_v1<!vhlo.none_v1>, rhs_contracting_dimensions = #vhlo.tensor_v1<dense<0> : tensor<1xi64>>, rhs_precision_type = #vhlo.type_v1<!vhlo.none_v1>}> : (!vhlo.tensor_v1<7x3072x!vhlo.bf16_v1>, !vhlo.tensor_v1<3072x1024x!vhlo.bf16_v1>) -> !vhlo.tensor_v1<7x1024x!vhlo.bf16_v1>
    %70 = "vhlo.reshape_v1"(%69) : (!vhlo.tensor_v1<7x1024x!vhlo.bf16_v1>) -> !vhlo.tensor_v1<1x7x8x128x!vhlo.bf16_v1>
    %71 = "vhlo.transpose_v1"(%70) <{permutation = #vhlo.tensor_v1<dense<[0, 2, 1, 3]> : tensor<4xi64>>}> {result_layout = #vhlo.tensor_v1<dense<[3, 1, 2, 0]> : tensor<4xindex>>, xla_shape = #vhlo.string_v1<"bf16[1,8,7,128]{3,1,2,0}">} : (!vhlo.tensor_v1<1x7x8x128x!vhlo.bf16_v1>) -> !vhlo.tensor_v1<1x8x7x128x!vhlo.bf16_v1>
    %72 = "vhlo.scatter_v2"(%arg10, %10, %71) <{index_vector_dim = #vhlo.integer_v1<1 : i64>, indices_are_sorted = #vhlo.bool_v1<false>, input_batching_dims = #vhlo.tensor_v1<dense<> : tensor<0xi64>>, inserted_window_dims = #vhlo.tensor_v1<dense<2> : tensor<1xi64>>, scatter_dims_to_operand_dims = #vhlo.tensor_v1<dense<2> : tensor<1xi64>>, scatter_indices_batching_dims = #vhlo.tensor_v1<dense<> : tensor<0xi64>>, unique_indices = #vhlo.bool_v1<false>, update_window_dims = #vhlo.tensor_v1<dense<[0, 1, 3]> : tensor<3xi64>>}> ({
    ^bb0(%arg54: !vhlo.tensor_v1<!vhlo.bf16_v1>, %arg55: !vhlo.tensor_v1<!vhlo.bf16_v1>):
      "vhlo.return_v1"(%arg55) : (!vhlo.tensor_v1<!vhlo.bf16_v1>) -> ()
    }) : (!vhlo.tensor_v1<1x8x128x128x!vhlo.bf16_v1>, !vhlo.tensor_v1<7x1x!vhlo.i64_v1>, !vhlo.tensor_v1<1x8x7x128x!vhlo.bf16_v1>) -> !vhlo.tensor_v1<1x8x128x128x!vhlo.bf16_v1>
    %73 = "vhlo.custom_call_v1"(%72) <{api_version = #vhlo<api_version_v1 API_VERSION_ORIGINAL>, backend_config = #vhlo.string_v1<"">, call_target_name = #vhlo.string_v1<"Sharding">, called_computations = #vhlo.array_v1<[]>, has_side_effect = #vhlo.bool_v1<false>, operand_layouts = #vhlo.array_v1<[]>, output_operand_aliases = #vhlo.array_v1<[]>, result_layouts = #vhlo.array_v1<[]>}> {mhlo.frontend_attributes = #vhlo.dict_v1<{#vhlo.string_v1<"xla.sdy.sharding"> = #vhlo.string_v1<"#sdy.sharding_per_value<[<@mesh, [{}, {\22_axis_0\22}, {}, {}]>]>">}>, mhlo.sharding = #vhlo.string_v1<"{devices=[1,2,1,1]<=[2]}">} : (!vhlo.tensor_v1<1x8x128x128x!vhlo.bf16_v1>) -> !vhlo.tensor_v1<1x8x128x128x!vhlo.bf16_v1>
    %74 = "vhlo.convert_v1"(%arg21) : (!vhlo.tensor_v1<3072x!vhlo.bf16_v1>) -> !vhlo.tensor_v1<3072x!vhlo.f32_v1>
    %75 = "vhlo.broadcast_in_dim_v1"(%74) <{broadcast_dimensions = #vhlo.tensor_v1<dense<2> : tensor<1xi64>>}> : (!vhlo.tensor_v1<3072x!vhlo.f32_v1>) -> !vhlo.tensor_v1<1x7x3072x!vhlo.f32_v1>
    %76 = "vhlo.transpose_v1"(%arg18) <{permutation = #vhlo.tensor_v1<dense<[1, 0]> : tensor<2xi64>>}> {result_layout = #vhlo.tensor_v1<dense<[0, 1]> : tensor<2xindex>>, xla_shape = #vhlo.string_v1<"bf16[3072,3072]{0,1}">} : (!vhlo.tensor_v1<3072x3072x!vhlo.bf16_v1>) -> !vhlo.tensor_v1<3072x3072x!vhlo.bf16_v1>
    %77 = "vhlo.dot_general_v2"(%32, %76) <{accumulation_type = #vhlo.type_v1<!vhlo.none_v1>, allow_imprecise_accumulation = #vhlo.type_v1<!vhlo.none_v1>, lhs_batching_dimensions = #vhlo.tensor_v1<dense<> : tensor<0xi64>>, lhs_component_count = #vhlo.type_v1<!vhlo.none_v1>, lhs_contracting_dimensions = #vhlo.tensor_v1<dense<1> : tensor<1xi64>>, lhs_precision_type = #vhlo.type_v1<!vhlo.none_v1>, num_primitive_operations = #vhlo.type_v1<!vhlo.none_v1>, precision_config = #vhlo.array_v1<[#vhlo<precision_v1 DEFAULT>, #vhlo<precision_v1 DEFAULT>]>, rhs_batching_dimensions = #vhlo.tensor_v1<dense<> : tensor<0xi64>>, rhs_component_count = #vhlo.type_v1<!vhlo.none_v1>, rhs_contracting_dimensions = #vhlo.tensor_v1<dense<0> : tensor<1xi64>>, rhs_precision_type = #vhlo.type_v1<!vhlo.none_v1>}> : (!vhlo.tensor_v1<7x3072x!vhlo.bf16_v1>, !vhlo.tensor_v1<3072x3072x!vhlo.bf16_v1>) -> !vhlo.tensor_v1<7x3072x!vhlo.bf16_v1>
    %78 = "vhlo.reshape_v1"(%77) : (!vhlo.tensor_v1<7x3072x!vhlo.bf16_v1>) -> !vhlo.tensor_v1<1x7x24x128x!vhlo.bf16_v1>
    %79 = "vhlo.transpose_v1"(%78) <{permutation = #vhlo.tensor_v1<dense<[0, 2, 1, 3]> : tensor<4xi64>>}> {result_layout = #vhlo.tensor_v1<dense<[3, 1, 2, 0]> : tensor<4xindex>>, xla_shape = #vhlo.string_v1<"bf16[1,24,7,128]{3,1,2,0}">} : (!vhlo.tensor_v1<1x7x24x128x!vhlo.bf16_v1>) -> !vhlo.tensor_v1<1x24x7x128x!vhlo.bf16_v1>
    %80 = "vhlo.convert_v1"(%79) {result_layout = #vhlo.tensor_v1<dense<[3, 1, 2, 0]> : tensor<4xindex>>, xla_shape = #vhlo.string_v1<"f32[1,24,7,128]{3,1,2,0}">} : (!vhlo.tensor_v1<1x24x7x128x!vhlo.bf16_v1>) -> !vhlo.tensor_v1<1x24x7x128x!vhlo.f32_v1>
    %81 = "vhlo.broadcast_in_dim_v1"(%48) <{broadcast_dimensions = #vhlo.tensor_v1<dense<[0, 2, 3]> : tensor<3xi64>>}> : (!vhlo.tensor_v1<1x7x128x!vhlo.f32_v1>) -> !vhlo.tensor_v1<1x24x7x128x!vhlo.f32_v1>
    %82 = "vhlo.multiply_v1"(%80, %81) : (!vhlo.tensor_v1<1x24x7x128x!vhlo.f32_v1>, !vhlo.tensor_v1<1x24x7x128x!vhlo.f32_v1>) -> !vhlo.tensor_v1<1x24x7x128x!vhlo.f32_v1>
    %83 = "vhlo.convert_v1"(%82) : (!vhlo.tensor_v1<1x24x7x128x!vhlo.f32_v1>) -> !vhlo.tensor_v1<1x24x7x128x!vhlo.bf16_v1>
    %84 = "vhlo.slice_v1"(%79) <{limit_indices = #vhlo.tensor_v1<dense<[1, 24, 7, 128]> : tensor<4xi64>>, start_indices = #vhlo.tensor_v1<dense<[0, 0, 0, 64]> : tensor<4xi64>>, strides = #vhlo.tensor_v1<dense<1> : tensor<4xi64>>}> : (!vhlo.tensor_v1<1x24x7x128x!vhlo.bf16_v1>) -> !vhlo.tensor_v1<1x24x7x64x!vhlo.bf16_v1>
    %85 = "vhlo.negate_v1"(%84) : (!vhlo.tensor_v1<1x24x7x64x!vhlo.bf16_v1>) -> !vhlo.tensor_v1<1x24x7x64x!vhlo.bf16_v1>
    %86 = "vhlo.slice_v1"(%79) <{limit_indices = #vhlo.tensor_v1<dense<[1, 24, 7, 64]> : tensor<4xi64>>, start_indices = #vhlo.tensor_v1<dense<0> : tensor<4xi64>>, strides = #vhlo.tensor_v1<dense<1> : tensor<4xi64>>}> : (!vhlo.tensor_v1<1x24x7x128x!vhlo.bf16_v1>) -> !vhlo.tensor_v1<1x24x7x64x!vhlo.bf16_v1>
    %87 = "vhlo.concatenate_v1"(%85, %86) <{dimension = #vhlo.integer_v1<3 : i64>}> : (!vhlo.tensor_v1<1x24x7x64x!vhlo.bf16_v1>, !vhlo.tensor_v1<1x24x7x64x!vhlo.bf16_v1>) -> !vhlo.tensor_v1<1x24x7x128x!vhlo.bf16_v1>
    %88 = "vhlo.convert_v1"(%87) : (!vhlo.tensor_v1<1x24x7x128x!vhlo.bf16_v1>) -> !vhlo.tensor_v1<1x24x7x128x!vhlo.f32_v1>
    %89 = "vhlo.broadcast_in_dim_v1"(%61) <{broadcast_dimensions = #vhlo.tensor_v1<dense<[0, 2, 3]> : tensor<3xi64>>}> : (!vhlo.tensor_v1<1x7x128x!vhlo.f32_v1>) -> !vhlo.tensor_v1<1x24x7x128x!vhlo.f32_v1>
    %90 = "vhlo.multiply_v1"(%88, %89) : (!vhlo.tensor_v1<1x24x7x128x!vhlo.f32_v1>, !vhlo.tensor_v1<1x24x7x128x!vhlo.f32_v1>) -> !vhlo.tensor_v1<1x24x7x128x!vhlo.f32_v1>
    %91 = "vhlo.convert_v1"(%90) : (!vhlo.tensor_v1<1x24x7x128x!vhlo.f32_v1>) -> !vhlo.tensor_v1<1x24x7x128x!vhlo.bf16_v1>
    %92 = "vhlo.add_v1"(%83, %91) : (!vhlo.tensor_v1<1x24x7x128x!vhlo.bf16_v1>, !vhlo.tensor_v1<1x24x7x128x!vhlo.bf16_v1>) -> !vhlo.tensor_v1<1x24x7x128x!vhlo.bf16_v1>
    %93 = "vhlo.reshape_v1"(%92) : (!vhlo.tensor_v1<1x24x7x128x!vhlo.bf16_v1>) -> !vhlo.tensor_v1<24x7x128x!vhlo.bf16_v1>
    %94 = "vhlo.broadcast_in_dim_v1"(%66) <{broadcast_dimensions = #vhlo.tensor_v1<dense<[0, 1, 3, 4]> : tensor<4xi64>>}> : (!vhlo.tensor_v1<1x8x128x128x!vhlo.bf16_v1>) -> !vhlo.tensor_v1<1x8x3x128x128x!vhlo.bf16_v1>
    %95 = "vhlo.reshape_v1"(%94) : (!vhlo.tensor_v1<1x8x3x128x128x!vhlo.bf16_v1>) -> !vhlo.tensor_v1<1x24x128x128x!vhlo.bf16_v1>
    %96 = "vhlo.transpose_v1"(%95) <{permutation = #vhlo.tensor_v1<dense<[0, 1, 3, 2]> : tensor<4xi64>>}> {result_layout = #vhlo.tensor_v1<dense<[2, 3, 1, 0]> : tensor<4xindex>>, xla_shape = #vhlo.string_v1<"bf16[1,24,128,128]{2,3,1,0}">} : (!vhlo.tensor_v1<1x24x128x128x!vhlo.bf16_v1>) -> !vhlo.tensor_v1<1x24x128x128x!vhlo.bf16_v1>
    %97 = "vhlo.reshape_v1"(%96) : (!vhlo.tensor_v1<1x24x128x128x!vhlo.bf16_v1>) -> !vhlo.tensor_v1<24x128x128x!vhlo.bf16_v1>
    %98 = "vhlo.dot_general_v2"(%93, %97) <{accumulation_type = #vhlo.type_v1<!vhlo.none_v1>, allow_imprecise_accumulation = #vhlo.type_v1<!vhlo.none_v1>, lhs_batching_dimensions = #vhlo.tensor_v1<dense<0> : tensor<1xi64>>, lhs_component_count = #vhlo.type_v1<!vhlo.none_v1>, lhs_contracting_dimensions = #vhlo.tensor_v1<dense<2> : tensor<1xi64>>, lhs_precision_type = #vhlo.type_v1<!vhlo.none_v1>, num_primitive_operations = #vhlo.type_v1<!vhlo.none_v1>, precision_config = #vhlo.array_v1<[#vhlo<precision_v1 DEFAULT>, #vhlo<precision_v1 DEFAULT>]>, rhs_batching_dimensions = #vhlo.tensor_v1<dense<0> : tensor<1xi64>>, rhs_component_count = #vhlo.type_v1<!vhlo.none_v1>, rhs_contracting_dimensions = #vhlo.tensor_v1<dense<1> : tensor<1xi64>>, rhs_precision_type = #vhlo.type_v1<!vhlo.none_v1>}> : (!vhlo.tensor_v1<24x7x128x!vhlo.bf16_v1>, !vhlo.tensor_v1<24x128x128x!vhlo.bf16_v1>) -> !vhlo.tensor_v1<24x7x128x!vhlo.bf16_v1>
    %99 = "vhlo.reshape_v1"(%98) : (!vhlo.tensor_v1<24x7x128x!vhlo.bf16_v1>) -> !vhlo.tensor_v1<1x24x7x128x!vhlo.bf16_v1>
    %100 = "vhlo.convert_v1"(%99) : (!vhlo.tensor_v1<1x24x7x128x!vhlo.bf16_v1>) -> !vhlo.tensor_v1<1x24x7x128x!vhlo.f32_v1>
    %101 = "vhlo.broadcast_in_dim_v1"(%arg17) <{broadcast_dimensions = #vhlo.tensor_v1<dense<> : tensor<0xi64>>}> : (!vhlo.tensor_v1<!vhlo.f32_v1>) -> !vhlo.tensor_v1<1x24x7x128x!vhlo.f32_v1>
    %102 = "vhlo.multiply_v1"(%100, %101) : (!vhlo.tensor_v1<1x24x7x128x!vhlo.f32_v1>, !vhlo.tensor_v1<1x24x7x128x!vhlo.f32_v1>) -> !vhlo.tensor_v1<1x24x7x128x!vhlo.f32_v1>
    %103 = "vhlo.convert_v1"(%102) : (!vhlo.tensor_v1<1x24x7x128x!vhlo.f32_v1>) -> !vhlo.tensor_v1<1x24x7x128x!vhlo.bf16_v1>
    %104 = "vhlo.convert_v1"(%arg16) : (!vhlo.tensor_v1<7x128x!vhlo.bf16_v1>) -> !vhlo.tensor_v1<7x128x!vhlo.f32_v1>
    %105 = "vhlo.broadcast_in_dim_v1"(%arg15) <{broadcast_dimensions = #vhlo.tensor_v1<dense<1> : tensor<1xi64>>}> : (!vhlo.tensor_v1<128x!vhlo.i64_v1>) -> !vhlo.tensor_v1<7x128x!vhlo.i64_v1>
    %106 = "vhlo.broadcast_in_dim_v1"(%arg0) <{broadcast_dimensions = #vhlo.tensor_v1<dense<0> : tensor<1xi64>>}> : (!vhlo.tensor_v1<7x!vhlo.i64_v1>) -> !vhlo.tensor_v1<7x128x!vhlo.i64_v1>
    %107 = "vhlo.compare_v1"(%105, %106) <{compare_type = #vhlo<comparison_type_v1 NOTYPE>, comparison_direction = #vhlo<comparison_direction_v1 GT>}> : (!vhlo.tensor_v1<7x128x!vhlo.i64_v1>, !vhlo.tensor_v1<7x128x!vhlo.i64_v1>) -> !vhlo.tensor_v1<7x128x!vhlo.bool_v1>
    %108 = "vhlo.convert_v1"(%107) : (!vhlo.tensor_v1<7x128x!vhlo.bool_v1>) -> !vhlo.tensor_v1<7x128x!vhlo.f32_v1>
    %109 = "vhlo.multiply_v1"(%104, %108) : (!vhlo.tensor_v1<7x128x!vhlo.f32_v1>, !vhlo.tensor_v1<7x128x!vhlo.f32_v1>) -> !vhlo.tensor_v1<7x128x!vhlo.f32_v1>
    %110 = "vhlo.convert_v1"(%109) : (!vhlo.tensor_v1<7x128x!vhlo.f32_v1>) -> !vhlo.tensor_v1<7x128x!vhlo.bf16_v1>
    %111 = "vhlo.reshape_v1"(%110) : (!vhlo.tensor_v1<7x128x!vhlo.bf16_v1>) -> !vhlo.tensor_v1<1x7x128x!vhlo.bf16_v1>
    %112 = "vhlo.broadcast_in_dim_v1"(%111) <{broadcast_dimensions = #vhlo.tensor_v1<dense<[0, 2, 3]> : tensor<3xi64>>}> : (!vhlo.tensor_v1<1x7x128x!vhlo.bf16_v1>) -> !vhlo.tensor_v1<1x24x7x128x!vhlo.bf16_v1>
    %113 = "vhlo.add_v1"(%103, %112) : (!vhlo.tensor_v1<1x24x7x128x!vhlo.bf16_v1>, !vhlo.tensor_v1<1x24x7x128x!vhlo.bf16_v1>) -> !vhlo.tensor_v1<1x24x7x128x!vhlo.bf16_v1>
    %114 = "vhlo.convert_v1"(%113) : (!vhlo.tensor_v1<1x24x7x128x!vhlo.bf16_v1>) -> !vhlo.tensor_v1<1x24x7x128x!vhlo.f32_v1>
    %115 = "vhlo.reduce_v1"(%114, %2) <{dimensions = #vhlo.tensor_v1<dense<3> : tensor<1xi64>>}> ({
    ^bb0(%arg54: !vhlo.tensor_v1<!vhlo.f32_v1>, %arg55: !vhlo.tensor_v1<!vhlo.f32_v1>):
      %558 = "vhlo.maximum_v1"(%arg54, %arg55) : (!vhlo.tensor_v1<!vhlo.f32_v1>, !vhlo.tensor_v1<!vhlo.f32_v1>) -> !vhlo.tensor_v1<!vhlo.f32_v1>
      "vhlo.return_v1"(%558) : (!vhlo.tensor_v1<!vhlo.f32_v1>) -> ()
    }) : (!vhlo.tensor_v1<1x24x7x128x!vhlo.f32_v1>, !vhlo.tensor_v1<!vhlo.f32_v1>) -> !vhlo.tensor_v1<1x24x7x!vhlo.f32_v1>
    %116 = "vhlo.broadcast_in_dim_v1"(%115) <{broadcast_dimensions = #vhlo.tensor_v1<dense<[0, 1, 2]> : tensor<3xi64>>}> : (!vhlo.tensor_v1<1x24x7x!vhlo.f32_v1>) -> !vhlo.tensor_v1<1x24x7x128x!vhlo.f32_v1>
    %117 = "vhlo.subtract_v1"(%114, %116) : (!vhlo.tensor_v1<1x24x7x128x!vhlo.f32_v1>, !vhlo.tensor_v1<1x24x7x128x!vhlo.f32_v1>) -> !vhlo.tensor_v1<1x24x7x128x!vhlo.f32_v1>
    %118 = "vhlo.exponential_v2"(%117) <{result_accuracy = #vhlo.result_accuracy_v1<atol = 0.000000e+00, rtol = 0.000000e+00, ulps = 0, mode = #vhlo<result_accuracy_mode_v1 DEFAULT>>}> : (!vhlo.tensor_v1<1x24x7x128x!vhlo.f32_v1>) -> !vhlo.tensor_v1<1x24x7x128x!vhlo.f32_v1>
    %119 = "vhlo.reduce_v1"(%118, %1) <{dimensions = #vhlo.tensor_v1<dense<3> : tensor<1xi64>>}> ({
    ^bb0(%arg54: !vhlo.tensor_v1<!vhlo.f32_v1>, %arg55: !vhlo.tensor_v1<!vhlo.f32_v1>):
      %558 = "vhlo.add_v1"(%arg54, %arg55) : (!vhlo.tensor_v1<!vhlo.f32_v1>, !vhlo.tensor_v1<!vhlo.f32_v1>) -> !vhlo.tensor_v1<!vhlo.f32_v1>
      "vhlo.return_v1"(%558) : (!vhlo.tensor_v1<!vhlo.f32_v1>) -> ()
    }) : (!vhlo.tensor_v1<1x24x7x128x!vhlo.f32_v1>, !vhlo.tensor_v1<!vhlo.f32_v1>) -> !vhlo.tensor_v1<1x24x7x!vhlo.f32_v1>
    %120 = "vhlo.broadcast_in_dim_v1"(%119) <{broadcast_dimensions = #vhlo.tensor_v1<dense<[0, 1, 2]> : tensor<3xi64>>}> : (!vhlo.tensor_v1<1x24x7x!vhlo.f32_v1>) -> !vhlo.tensor_v1<1x24x7x128x!vhlo.f32_v1>
    %121 = "vhlo.divide_v1"(%118, %120) : (!vhlo.tensor_v1<1x24x7x128x!vhlo.f32_v1>, !vhlo.tensor_v1<1x24x7x128x!vhlo.f32_v1>) -> !vhlo.tensor_v1<1x24x7x128x!vhlo.f32_v1>
    %122 = "vhlo.convert_v1"(%121) : (!vhlo.tensor_v1<1x24x7x128x!vhlo.f32_v1>) -> !vhlo.tensor_v1<1x24x7x128x!vhlo.bf16_v1>
    %123 = "vhlo.reshape_v1"(%122) : (!vhlo.tensor_v1<1x24x7x128x!vhlo.bf16_v1>) -> !vhlo.tensor_v1<24x7x128x!vhlo.bf16_v1>
    %124 = "vhlo.broadcast_in_dim_v1"(%72) <{broadcast_dimensions = #vhlo.tensor_v1<dense<[0, 1, 3, 4]> : tensor<4xi64>>}> : (!vhlo.tensor_v1<1x8x128x128x!vhlo.bf16_v1>) -> !vhlo.tensor_v1<1x8x3x128x128x!vhlo.bf16_v1>
    %125 = "vhlo.reshape_v1"(%124) : (!vhlo.tensor_v1<1x8x3x128x128x!vhlo.bf16_v1>) -> !vhlo.tensor_v1<24x128x128x!vhlo.bf16_v1>
    %126 = "vhlo.dot_general_v2"(%123, %125) <{accumulation_type = #vhlo.type_v1<!vhlo.none_v1>, allow_imprecise_accumulation = #vhlo.type_v1<!vhlo.none_v1>, lhs_batching_dimensions = #vhlo.tensor_v1<dense<0> : tensor<1xi64>>, lhs_component_count = #vhlo.type_v1<!vhlo.none_v1>, lhs_contracting_dimensions = #vhlo.tensor_v1<dense<2> : tensor<1xi64>>, lhs_precision_type = #vhlo.type_v1<!vhlo.none_v1>, num_primitive_operations = #vhlo.type_v1<!vhlo.none_v1>, precision_config = #vhlo.array_v1<[#vhlo<precision_v1 DEFAULT>, #vhlo<precision_v1 DEFAULT>]>, rhs_batching_dimensions = #vhlo.tensor_v1<dense<0> : tensor<1xi64>>, rhs_component_count = #vhlo.type_v1<!vhlo.none_v1>, rhs_contracting_dimensions = #vhlo.tensor_v1<dense<1> : tensor<1xi64>>, rhs_precision_type = #vhlo.type_v1<!vhlo.none_v1>}> : (!vhlo.tensor_v1<24x7x128x!vhlo.bf16_v1>, !vhlo.tensor_v1<24x128x128x!vhlo.bf16_v1>) -> !vhlo.tensor_v1<24x7x128x!vhlo.bf16_v1>
    %127 = "vhlo.reshape_v1"(%126) : (!vhlo.tensor_v1<24x7x128x!vhlo.bf16_v1>) -> !vhlo.tensor_v1<1x24x7x128x!vhlo.bf16_v1>
    %128 = "vhlo.transpose_v1"(%127) <{permutation = #vhlo.tensor_v1<dense<[0, 2, 1, 3]> : tensor<4xi64>>}> {result_layout = #vhlo.tensor_v1<dense<[3, 1, 2, 0]> : tensor<4xindex>>, xla_shape = #vhlo.string_v1<"bf16[1,7,24,128]{3,1,2,0}">} : (!vhlo.tensor_v1<1x24x7x128x!vhlo.bf16_v1>) -> !vhlo.tensor_v1<1x7x24x128x!vhlo.bf16_v1>
    %129 = "vhlo.reshape_v1"(%128) : (!vhlo.tensor_v1<1x7x24x128x!vhlo.bf16_v1>) -> !vhlo.tensor_v1<7x3072x!vhlo.bf16_v1>
    %130 = "vhlo.transpose_v1"(%arg14) <{permutation = #vhlo.tensor_v1<dense<[1, 0]> : tensor<2xi64>>}> {result_layout = #vhlo.tensor_v1<dense<[0, 1]> : tensor<2xindex>>, xla_shape = #vhlo.string_v1<"bf16[3072,3072]{0,1}">} : (!vhlo.tensor_v1<3072x3072x!vhlo.bf16_v1>) -> !vhlo.tensor_v1<3072x3072x!vhlo.bf16_v1>
    %131 = "vhlo.dot_general_v2"(%129, %130) <{accumulation_type = #vhlo.type_v1<!vhlo.none_v1>, allow_imprecise_accumulation = #vhlo.type_v1<!vhlo.none_v1>, lhs_batching_dimensions = #vhlo.tensor_v1<dense<> : tensor<0xi64>>, lhs_component_count = #vhlo.type_v1<!vhlo.none_v1>, lhs_contracting_dimensions = #vhlo.tensor_v1<dense<1> : tensor<1xi64>>, lhs_precision_type = #vhlo.type_v1<!vhlo.none_v1>, num_primitive_operations = #vhlo.type_v1<!vhlo.none_v1>, precision_config = #vhlo.array_v1<[#vhlo<precision_v1 DEFAULT>, #vhlo<precision_v1 DEFAULT>]>, rhs_batching_dimensions = #vhlo.tensor_v1<dense<> : tensor<0xi64>>, rhs_component_count = #vhlo.type_v1<!vhlo.none_v1>, rhs_contracting_dimensions = #vhlo.tensor_v1<dense<0> : tensor<1xi64>>, rhs_precision_type = #vhlo.type_v1<!vhlo.none_v1>}> : (!vhlo.tensor_v1<7x3072x!vhlo.bf16_v1>, !vhlo.tensor_v1<3072x3072x!vhlo.bf16_v1>) -> !vhlo.tensor_v1<7x3072x!vhlo.bf16_v1>
    %132 = "vhlo.reshape_v1"(%131) : (!vhlo.tensor_v1<7x3072x!vhlo.bf16_v1>) -> !vhlo.tensor_v1<1x7x3072x!vhlo.bf16_v1>
    %133 = "vhlo.add_v1"(%16, %132) : (!vhlo.tensor_v1<1x7x3072x!vhlo.bf16_v1>, !vhlo.tensor_v1<1x7x3072x!vhlo.bf16_v1>) -> !vhlo.tensor_v1<1x7x3072x!vhlo.bf16_v1>
    %134 = "vhlo.convert_v1"(%arg19) : (!vhlo.tensor_v1<3072x!vhlo.bf16_v1>) -> !vhlo.tensor_v1<3072x!vhlo.f32_v1>
    %135 = "vhlo.broadcast_in_dim_v1"(%134) <{broadcast_dimensions = #vhlo.tensor_v1<dense<2> : tensor<1xi64>>}> : (!vhlo.tensor_v1<3072x!vhlo.f32_v1>) -> !vhlo.tensor_v1<1x7x3072x!vhlo.f32_v1>
    %136 = "vhlo.convert_v1"(%133) : (!vhlo.tensor_v1<1x7x3072x!vhlo.bf16_v1>) -> !vhlo.tensor_v1<1x7x3072x!vhlo.f32_v1>
    %137 = "vhlo.power_v1"(%136, %5) : (!vhlo.tensor_v1<1x7x3072x!vhlo.f32_v1>, !vhlo.tensor_v1<1x7x3072x!vhlo.f32_v1>) -> !vhlo.tensor_v1<1x7x3072x!vhlo.f32_v1>
    %138 = "vhlo.reduce_v1"(%137, %1) <{dimensions = #vhlo.tensor_v1<dense<2> : tensor<1xi64>>}> ({
    ^bb0(%arg54: !vhlo.tensor_v1<!vhlo.f32_v1>, %arg55: !vhlo.tensor_v1<!vhlo.f32_v1>):
      %558 = "vhlo.add_v1"(%arg54, %arg55) : (!vhlo.tensor_v1<!vhlo.f32_v1>, !vhlo.tensor_v1<!vhlo.f32_v1>) -> !vhlo.tensor_v1<!vhlo.f32_v1>
      "vhlo.return_v1"(%558) : (!vhlo.tensor_v1<!vhlo.f32_v1>) -> ()
    }) : (!vhlo.tensor_v1<1x7x3072x!vhlo.f32_v1>, !vhlo.tensor_v1<!vhlo.f32_v1>) -> !vhlo.tensor_v1<1x7x!vhlo.f32_v1>
    %139 = "vhlo.multiply_v1"(%138, %3) : (!vhlo.tensor_v1<1x7x!vhlo.f32_v1>, !vhlo.tensor_v1<1x7x!vhlo.f32_v1>) -> !vhlo.tensor_v1<1x7x!vhlo.f32_v1>
    %140 = "vhlo.reshape_v1"(%139) : (!vhlo.tensor_v1<1x7x!vhlo.f32_v1>) -> !vhlo.tensor_v1<1x7x1x!vhlo.f32_v1>
    %141 = "vhlo.add_v1"(%140, %22) : (!vhlo.tensor_v1<1x7x1x!vhlo.f32_v1>, !vhlo.tensor_v1<1x7x1x!vhlo.f32_v1>) -> !vhlo.tensor_v1<1x7x1x!vhlo.f32_v1>
    %142 = "vhlo.rsqrt_v2"(%141) <{result_accuracy = #vhlo.result_accuracy_v1<atol = 0.000000e+00, rtol = 0.000000e+00, ulps = 0, mode = #vhlo<result_accuracy_mode_v1 DEFAULT>>}> : (!vhlo.tensor_v1<1x7x1x!vhlo.f32_v1>) -> !vhlo.tensor_v1<1x7x1x!vhlo.f32_v1>
    %143 = "vhlo.reshape_v1"(%142) : (!vhlo.tensor_v1<1x7x1x!vhlo.f32_v1>) -> !vhlo.tensor_v1<1x7x!vhlo.f32_v1>
    %144 = "vhlo.broadcast_in_dim_v1"(%143) <{broadcast_dimensions = #vhlo.tensor_v1<dense<[0, 1]> : tensor<2xi64>>}> : (!vhlo.tensor_v1<1x7x!vhlo.f32_v1>) -> !vhlo.tensor_v1<1x7x3072x!vhlo.f32_v1>
    %145 = "vhlo.multiply_v1"(%136, %144) : (!vhlo.tensor_v1<1x7x3072x!vhlo.f32_v1>, !vhlo.tensor_v1<1x7x3072x!vhlo.f32_v1>) -> !vhlo.tensor_v1<1x7x3072x!vhlo.f32_v1>
    %146 = "vhlo.convert_v1"(%145) : (!vhlo.tensor_v1<1x7x3072x!vhlo.f32_v1>) -> !vhlo.tensor_v1<1x7x3072x!vhlo.bf16_v1>
    %147 = "vhlo.convert_v1"(%146) : (!vhlo.tensor_v1<1x7x3072x!vhlo.bf16_v1>) -> !vhlo.tensor_v1<1x7x3072x!vhlo.f32_v1>
    %148 = "vhlo.multiply_v1"(%135, %147) : (!vhlo.tensor_v1<1x7x3072x!vhlo.f32_v1>, !vhlo.tensor_v1<1x7x3072x!vhlo.f32_v1>) -> !vhlo.tensor_v1<1x7x3072x!vhlo.f32_v1>
    %149 = "vhlo.convert_v1"(%148) : (!vhlo.tensor_v1<1x7x3072x!vhlo.f32_v1>) -> !vhlo.tensor_v1<1x7x3072x!vhlo.bf16_v1>
    %150 = "vhlo.reshape_v1"(%149) : (!vhlo.tensor_v1<1x7x3072x!vhlo.bf16_v1>) -> !vhlo.tensor_v1<7x3072x!vhlo.bf16_v1>
    %151 = "vhlo.transpose_v1"(%arg20) <{permutation = #vhlo.tensor_v1<dense<[1, 0]> : tensor<2xi64>>}> {result_layout = #vhlo.tensor_v1<dense<[0, 1]> : tensor<2xindex>>, xla_shape = #vhlo.string_v1<"bf16[3072,8192]{0,1}">} : (!vhlo.tensor_v1<8192x3072x!vhlo.bf16_v1>) -> !vhlo.tensor_v1<3072x8192x!vhlo.bf16_v1>
    %152 = "vhlo.dot_general_v2"(%150, %151) <{accumulation_type = #vhlo.type_v1<!vhlo.none_v1>, allow_imprecise_accumulation = #vhlo.type_v1<!vhlo.none_v1>, lhs_batching_dimensions = #vhlo.tensor_v1<dense<> : tensor<0xi64>>, lhs_component_count = #vhlo.type_v1<!vhlo.none_v1>, lhs_contracting_dimensions = #vhlo.tensor_v1<dense<1> : tensor<1xi64>>, lhs_precision_type = #vhlo.type_v1<!vhlo.none_v1>, num_primitive_operations = #vhlo.type_v1<!vhlo.none_v1>, precision_config = #vhlo.array_v1<[#vhlo<precision_v1 DEFAULT>, #vhlo<precision_v1 DEFAULT>]>, rhs_batching_dimensions = #vhlo.tensor_v1<dense<> : tensor<0xi64>>, rhs_component_count = #vhlo.type_v1<!vhlo.none_v1>, rhs_contracting_dimensions = #vhlo.tensor_v1<dense<0> : tensor<1xi64>>, rhs_precision_type = #vhlo.type_v1<!vhlo.none_v1>}> : (!vhlo.tensor_v1<7x3072x!vhlo.bf16_v1>, !vhlo.tensor_v1<3072x8192x!vhlo.bf16_v1>) -> !vhlo.tensor_v1<7x8192x!vhlo.bf16_v1>
    %153 = "vhlo.reshape_v1"(%152) : (!vhlo.tensor_v1<7x8192x!vhlo.bf16_v1>) -> !vhlo.tensor_v1<1x7x8192x!vhlo.bf16_v1>
    %154 = "vhlo.convert_v1"(%153) : (!vhlo.tensor_v1<1x7x8192x!vhlo.bf16_v1>) -> !vhlo.tensor_v1<1x7x8192x!vhlo.f32_v1>
    %155 = "vhlo.logistic_v2"(%153) <{result_accuracy = #vhlo.result_accuracy_v1<atol = 0.000000e+00, rtol = 0.000000e+00, ulps = 0, mode = #vhlo<result_accuracy_mode_v1 DEFAULT>>}> : (!vhlo.tensor_v1<1x7x8192x!vhlo.bf16_v1>) -> !vhlo.tensor_v1<1x7x8192x!vhlo.bf16_v1>
    %156 = "vhlo.convert_v1"(%155) : (!vhlo.tensor_v1<1x7x8192x!vhlo.bf16_v1>) -> !vhlo.tensor_v1<1x7x8192x!vhlo.f32_v1>
    %157 = "vhlo.multiply_v1"(%154, %156) : (!vhlo.tensor_v1<1x7x8192x!vhlo.f32_v1>, !vhlo.tensor_v1<1x7x8192x!vhlo.f32_v1>) -> !vhlo.tensor_v1<1x7x8192x!vhlo.f32_v1>
    %158 = "vhlo.convert_v1"(%157) : (!vhlo.tensor_v1<1x7x8192x!vhlo.f32_v1>) -> !vhlo.tensor_v1<1x7x8192x!vhlo.bf16_v1>
    %159 = "vhlo.convert_v1"(%158) : (!vhlo.tensor_v1<1x7x8192x!vhlo.bf16_v1>) -> !vhlo.tensor_v1<1x7x8192x!vhlo.f32_v1>
    %160 = "vhlo.transpose_v1"(%arg13) <{permutation = #vhlo.tensor_v1<dense<[1, 0]> : tensor<2xi64>>}> {result_layout = #vhlo.tensor_v1<dense<[0, 1]> : tensor<2xindex>>, xla_shape = #vhlo.string_v1<"bf16[3072,8192]{0,1}">} : (!vhlo.tensor_v1<8192x3072x!vhlo.bf16_v1>) -> !vhlo.tensor_v1<3072x8192x!vhlo.bf16_v1>
    %161 = "vhlo.dot_general_v2"(%150, %160) <{accumulation_type = #vhlo.type_v1<!vhlo.none_v1>, allow_imprecise_accumulation = #vhlo.type_v1<!vhlo.none_v1>, lhs_batching_dimensions = #vhlo.tensor_v1<dense<> : tensor<0xi64>>, lhs_component_count = #vhlo.type_v1<!vhlo.none_v1>, lhs_contracting_dimensions = #vhlo.tensor_v1<dense<1> : tensor<1xi64>>, lhs_precision_type = #vhlo.type_v1<!vhlo.none_v1>, num_primitive_operations = #vhlo.type_v1<!vhlo.none_v1>, precision_config = #vhlo.array_v1<[#vhlo<precision_v1 DEFAULT>, #vhlo<precision_v1 DEFAULT>]>, rhs_batching_dimensions = #vhlo.tensor_v1<dense<> : tensor<0xi64>>, rhs_component_count = #vhlo.type_v1<!vhlo.none_v1>, rhs_contracting_dimensions = #vhlo.tensor_v1<dense<0> : tensor<1xi64>>, rhs_precision_type = #vhlo.type_v1<!vhlo.none_v1>}> : (!vhlo.tensor_v1<7x3072x!vhlo.bf16_v1>, !vhlo.tensor_v1<3072x8192x!vhlo.bf16_v1>) -> !vhlo.tensor_v1<7x8192x!vhlo.bf16_v1>
    %162 = "vhlo.reshape_v1"(%161) : (!vhlo.tensor_v1<7x8192x!vhlo.bf16_v1>) -> !vhlo.tensor_v1<1x7x8192x!vhlo.bf16_v1>
    %163 = "vhlo.convert_v1"(%162) : (!vhlo.tensor_v1<1x7x8192x!vhlo.bf16_v1>) -> !vhlo.tensor_v1<1x7x8192x!vhlo.f32_v1>
    %164 = "vhlo.multiply_v1"(%159, %163) : (!vhlo.tensor_v1<1x7x8192x!vhlo.f32_v1>, !vhlo.tensor_v1<1x7x8192x!vhlo.f32_v1>) -> !vhlo.tensor_v1<1x7x8192x!vhlo.f32_v1>
    %165 = "vhlo.convert_v1"(%164) : (!vhlo.tensor_v1<1x7x8192x!vhlo.f32_v1>) -> !vhlo.tensor_v1<1x7x8192x!vhlo.bf16_v1>
    %166 = "vhlo.reshape_v1"(%165) : (!vhlo.tensor_v1<1x7x8192x!vhlo.bf16_v1>) -> !vhlo.tensor_v1<7x8192x!vhlo.bf16_v1>
    %167 = "vhlo.transpose_v1"(%arg12) <{permutation = #vhlo.tensor_v1<dense<[1, 0]> : tensor<2xi64>>}> {result_layout = #vhlo.tensor_v1<dense<[0, 1]> : tensor<2xindex>>, xla_shape = #vhlo.string_v1<"bf16[8192,3072]{0,1}">} : (!vhlo.tensor_v1<3072x8192x!vhlo.bf16_v1>) -> !vhlo.tensor_v1<8192x3072x!vhlo.bf16_v1>
    %168 = "vhlo.dot_general_v2"(%166, %167) <{accumulation_type = #vhlo.type_v1<!vhlo.none_v1>, allow_imprecise_accumulation = #vhlo.type_v1<!vhlo.none_v1>, lhs_batching_dimensions = #vhlo.tensor_v1<dense<> : tensor<0xi64>>, lhs_component_count = #vhlo.type_v1<!vhlo.none_v1>, lhs_contracting_dimensions = #vhlo.tensor_v1<dense<1> : tensor<1xi64>>, lhs_precision_type = #vhlo.type_v1<!vhlo.none_v1>, num_primitive_operations = #vhlo.type_v1<!vhlo.none_v1>, precision_config = #vhlo.array_v1<[#vhlo<precision_v1 DEFAULT>, #vhlo<precision_v1 DEFAULT>]>, rhs_batching_dimensions = #vhlo.tensor_v1<dense<> : tensor<0xi64>>, rhs_component_count = #vhlo.type_v1<!vhlo.none_v1>, rhs_contracting_dimensions = #vhlo.tensor_v1<dense<0> : tensor<1xi64>>, rhs_precision_type = #vhlo.type_v1<!vhlo.none_v1>}> : (!vhlo.tensor_v1<7x8192x!vhlo.bf16_v1>, !vhlo.tensor_v1<8192x3072x!vhlo.bf16_v1>) -> !vhlo.tensor_v1<7x3072x!vhlo.bf16_v1>
    %169 = "vhlo.reshape_v1"(%168) : (!vhlo.tensor_v1<7x3072x!vhlo.bf16_v1>) -> !vhlo.tensor_v1<1x7x3072x!vhlo.bf16_v1>
    %170 = "vhlo.add_v1"(%133, %169) : (!vhlo.tensor_v1<1x7x3072x!vhlo.bf16_v1>, !vhlo.tensor_v1<1x7x3072x!vhlo.bf16_v1>) -> !vhlo.tensor_v1<1x7x3072x!vhlo.bf16_v1>
    %171 = "vhlo.convert_v1"(%170) : (!vhlo.tensor_v1<1x7x3072x!vhlo.bf16_v1>) -> !vhlo.tensor_v1<1x7x3072x!vhlo.f32_v1>
    %172 = "vhlo.power_v1"(%171, %5) : (!vhlo.tensor_v1<1x7x3072x!vhlo.f32_v1>, !vhlo.tensor_v1<1x7x3072x!vhlo.f32_v1>) -> !vhlo.tensor_v1<1x7x3072x!vhlo.f32_v1>
    %173 = "vhlo.reduce_v1"(%172, %1) <{dimensions = #vhlo.tensor_v1<dense<2> : tensor<1xi64>>}> ({
    ^bb0(%arg54: !vhlo.tensor_v1<!vhlo.f32_v1>, %arg55: !vhlo.tensor_v1<!vhlo.f32_v1>):
      %558 = "vhlo.add_v1"(%arg54, %arg55) : (!vhlo.tensor_v1<!vhlo.f32_v1>, !vhlo.tensor_v1<!vhlo.f32_v1>) -> !vhlo.tensor_v1<!vhlo.f32_v1>
      "vhlo.return_v1"(%558) : (!vhlo.tensor_v1<!vhlo.f32_v1>) -> ()
    }) : (!vhlo.tensor_v1<1x7x3072x!vhlo.f32_v1>, !vhlo.tensor_v1<!vhlo.f32_v1>) -> !vhlo.tensor_v1<1x7x!vhlo.f32_v1>
    %174 = "vhlo.multiply_v1"(%173, %3) : (!vhlo.tensor_v1<1x7x!vhlo.f32_v1>, !vhlo.tensor_v1<1x7x!vhlo.f32_v1>) -> !vhlo.tensor_v1<1x7x!vhlo.f32_v1>
    %175 = "vhlo.reshape_v1"(%174) : (!vhlo.tensor_v1<1x7x!vhlo.f32_v1>) -> !vhlo.tensor_v1<1x7x1x!vhlo.f32_v1>
    %176 = "vhlo.add_v1"(%175, %22) : (!vhlo.tensor_v1<1x7x1x!vhlo.f32_v1>, !vhlo.tensor_v1<1x7x1x!vhlo.f32_v1>) -> !vhlo.tensor_v1<1x7x1x!vhlo.f32_v1>
    %177 = "vhlo.rsqrt_v2"(%176) <{result_accuracy = #vhlo.result_accuracy_v1<atol = 0.000000e+00, rtol = 0.000000e+00, ulps = 0, mode = #vhlo<result_accuracy_mode_v1 DEFAULT>>}> : (!vhlo.tensor_v1<1x7x1x!vhlo.f32_v1>) -> !vhlo.tensor_v1<1x7x1x!vhlo.f32_v1>
    %178 = "vhlo.reshape_v1"(%177) : (!vhlo.tensor_v1<1x7x1x!vhlo.f32_v1>) -> !vhlo.tensor_v1<1x7x!vhlo.f32_v1>
    %179 = "vhlo.broadcast_in_dim_v1"(%178) <{broadcast_dimensions = #vhlo.tensor_v1<dense<[0, 1]> : tensor<2xi64>>}> : (!vhlo.tensor_v1<1x7x!vhlo.f32_v1>) -> !vhlo.tensor_v1<1x7x3072x!vhlo.f32_v1>
    %180 = "vhlo.multiply_v1"(%171, %179) : (!vhlo.tensor_v1<1x7x3072x!vhlo.f32_v1>, !vhlo.tensor_v1<1x7x3072x!vhlo.f32_v1>) -> !vhlo.tensor_v1<1x7x3072x!vhlo.f32_v1>
    %181 = "vhlo.convert_v1"(%180) : (!vhlo.tensor_v1<1x7x3072x!vhlo.f32_v1>) -> !vhlo.tensor_v1<1x7x3072x!vhlo.bf16_v1>
    %182 = "vhlo.convert_v1"(%181) : (!vhlo.tensor_v1<1x7x3072x!vhlo.bf16_v1>) -> !vhlo.tensor_v1<1x7x3072x!vhlo.f32_v1>
    %183 = "vhlo.multiply_v1"(%75, %182) : (!vhlo.tensor_v1<1x7x3072x!vhlo.f32_v1>, !vhlo.tensor_v1<1x7x3072x!vhlo.f32_v1>) -> !vhlo.tensor_v1<1x7x3072x!vhlo.f32_v1>
    %184 = "vhlo.convert_v1"(%183) : (!vhlo.tensor_v1<1x7x3072x!vhlo.f32_v1>) -> !vhlo.tensor_v1<1x7x3072x!vhlo.bf16_v1>
    %185 = "vhlo.reshape_v1"(%184) : (!vhlo.tensor_v1<1x7x3072x!vhlo.bf16_v1>) -> !vhlo.tensor_v1<7x3072x!vhlo.bf16_v1>
    %186 = "vhlo.transpose_v1"(%arg11) <{permutation = #vhlo.tensor_v1<dense<[1, 0]> : tensor<2xi64>>}> {result_layout = #vhlo.tensor_v1<dense<[0, 1]> : tensor<2xindex>>, xla_shape = #vhlo.string_v1<"bf16[3072,1024]{0,1}">} : (!vhlo.tensor_v1<1024x3072x!vhlo.bf16_v1>) -> !vhlo.tensor_v1<3072x1024x!vhlo.bf16_v1>
    %187 = "vhlo.dot_general_v2"(%185, %186) <{accumulation_type = #vhlo.type_v1<!vhlo.none_v1>, allow_imprecise_accumulation = #vhlo.type_v1<!vhlo.none_v1>, lhs_batching_dimensions = #vhlo.tensor_v1<dense<> : tensor<0xi64>>, lhs_component_count = #vhlo.type_v1<!vhlo.none_v1>, lhs_contracting_dimensions = #vhlo.tensor_v1<dense<1> : tensor<1xi64>>, lhs_precision_type = #vhlo.type_v1<!vhlo.none_v1>, num_primitive_operations = #vhlo.type_v1<!vhlo.none_v1>, precision_config = #vhlo.array_v1<[#vhlo<precision_v1 DEFAULT>, #vhlo<precision_v1 DEFAULT>]>, rhs_batching_dimensions = #vhlo.tensor_v1<dense<> : tensor<0xi64>>, rhs_component_count = #vhlo.type_v1<!vhlo.none_v1>, rhs_contracting_dimensions = #vhlo.tensor_v1<dense<0> : tensor<1xi64>>, rhs_precision_type = #vhlo.type_v1<!vhlo.none_v1>}> : (!vhlo.tensor_v1<7x3072x!vhlo.bf16_v1>, !vhlo.tensor_v1<3072x1024x!vhlo.bf16_v1>) -> !vhlo.tensor_v1<7x1024x!vhlo.bf16_v1>
    %188 = "vhlo.reshape_v1"(%187) : (!vhlo.tensor_v1<7x1024x!vhlo.bf16_v1>) -> !vhlo.tensor_v1<1x7x8x128x!vhlo.bf16_v1>
    %189 = "vhlo.transpose_v1"(%188) <{permutation = #vhlo.tensor_v1<dense<[0, 2, 1, 3]> : tensor<4xi64>>}> {result_layout = #vhlo.tensor_v1<dense<[3, 1, 2, 0]> : tensor<4xindex>>, xla_shape = #vhlo.string_v1<"bf16[1,8,7,128]{3,1,2,0}">} : (!vhlo.tensor_v1<1x7x8x128x!vhlo.bf16_v1>) -> !vhlo.tensor_v1<1x8x7x128x!vhlo.bf16_v1>
    %190 = "vhlo.convert_v1"(%189) {result_layout = #vhlo.tensor_v1<dense<[3, 1, 2, 0]> : tensor<4xindex>>, xla_shape = #vhlo.string_v1<"f32[1,8,7,128]{3,1,2,0}">} : (!vhlo.tensor_v1<1x8x7x128x!vhlo.bf16_v1>) -> !vhlo.tensor_v1<1x8x7x128x!vhlo.f32_v1>
    %191 = "vhlo.multiply_v1"(%190, %49) : (!vhlo.tensor_v1<1x8x7x128x!vhlo.f32_v1>, !vhlo.tensor_v1<1x8x7x128x!vhlo.f32_v1>) -> !vhlo.tensor_v1<1x8x7x128x!vhlo.f32_v1>
    %192 = "vhlo.convert_v1"(%191) : (!vhlo.tensor_v1<1x8x7x128x!vhlo.f32_v1>) -> !vhlo.tensor_v1<1x8x7x128x!vhlo.bf16_v1>
    %193 = "vhlo.slice_v1"(%189) <{limit_indices = #vhlo.tensor_v1<dense<[1, 8, 7, 128]> : tensor<4xi64>>, start_indices = #vhlo.tensor_v1<dense<[0, 0, 0, 64]> : tensor<4xi64>>, strides = #vhlo.tensor_v1<dense<1> : tensor<4xi64>>}> : (!vhlo.tensor_v1<1x8x7x128x!vhlo.bf16_v1>) -> !vhlo.tensor_v1<1x8x7x64x!vhlo.bf16_v1>
    %194 = "vhlo.negate_v1"(%193) : (!vhlo.tensor_v1<1x8x7x64x!vhlo.bf16_v1>) -> !vhlo.tensor_v1<1x8x7x64x!vhlo.bf16_v1>
    %195 = "vhlo.slice_v1"(%189) <{limit_indices = #vhlo.tensor_v1<dense<[1, 8, 7, 64]> : tensor<4xi64>>, start_indices = #vhlo.tensor_v1<dense<0> : tensor<4xi64>>, strides = #vhlo.tensor_v1<dense<1> : tensor<4xi64>>}> : (!vhlo.tensor_v1<1x8x7x128x!vhlo.bf16_v1>) -> !vhlo.tensor_v1<1x8x7x64x!vhlo.bf16_v1>
    %196 = "vhlo.concatenate_v1"(%194, %195) <{dimension = #vhlo.integer_v1<3 : i64>}> : (!vhlo.tensor_v1<1x8x7x64x!vhlo.bf16_v1>, !vhlo.tensor_v1<1x8x7x64x!vhlo.bf16_v1>) -> !vhlo.tensor_v1<1x8x7x128x!vhlo.bf16_v1>
    %197 = "vhlo.convert_v1"(%196) : (!vhlo.tensor_v1<1x8x7x128x!vhlo.bf16_v1>) -> !vhlo.tensor_v1<1x8x7x128x!vhlo.f32_v1>
    %198 = "vhlo.multiply_v1"(%197, %62) : (!vhlo.tensor_v1<1x8x7x128x!vhlo.f32_v1>, !vhlo.tensor_v1<1x8x7x128x!vhlo.f32_v1>) -> !vhlo.tensor_v1<1x8x7x128x!vhlo.f32_v1>
    %199 = "vhlo.convert_v1"(%198) : (!vhlo.tensor_v1<1x8x7x128x!vhlo.f32_v1>) -> !vhlo.tensor_v1<1x8x7x128x!vhlo.bf16_v1>
    %200 = "vhlo.add_v1"(%192, %199) : (!vhlo.tensor_v1<1x8x7x128x!vhlo.bf16_v1>, !vhlo.tensor_v1<1x8x7x128x!vhlo.bf16_v1>) -> !vhlo.tensor_v1<1x8x7x128x!vhlo.bf16_v1>
    %201 = "vhlo.scatter_v2"(%arg22, %10, %200) <{index_vector_dim = #vhlo.integer_v1<1 : i64>, indices_are_sorted = #vhlo.bool_v1<false>, input_batching_dims = #vhlo.tensor_v1<dense<> : tensor<0xi64>>, inserted_window_dims = #vhlo.tensor_v1<dense<2> : tensor<1xi64>>, scatter_dims_to_operand_dims = #vhlo.tensor_v1<dense<2> : tensor<1xi64>>, scatter_indices_batching_dims = #vhlo.tensor_v1<dense<> : tensor<0xi64>>, unique_indices = #vhlo.bool_v1<false>, update_window_dims = #vhlo.tensor_v1<dense<[0, 1, 3]> : tensor<3xi64>>}> ({
    ^bb0(%arg54: !vhlo.tensor_v1<!vhlo.bf16_v1>, %arg55: !vhlo.tensor_v1<!vhlo.bf16_v1>):
      "vhlo.return_v1"(%arg55) : (!vhlo.tensor_v1<!vhlo.bf16_v1>) -> ()
    }) : (!vhlo.tensor_v1<1x8x128x128x!vhlo.bf16_v1>, !vhlo.tensor_v1<7x1x!vhlo.i64_v1>, !vhlo.tensor_v1<1x8x7x128x!vhlo.bf16_v1>) -> !vhlo.tensor_v1<1x8x128x128x!vhlo.bf16_v1>
    %202 = "vhlo.custom_call_v1"(%201) <{api_version = #vhlo<api_version_v1 API_VERSION_ORIGINAL>, backend_config = #vhlo.string_v1<"">, call_target_name = #vhlo.string_v1<"Sharding">, called_computations = #vhlo.array_v1<[]>, has_side_effect = #vhlo.bool_v1<false>, operand_layouts = #vhlo.array_v1<[]>, output_operand_aliases = #vhlo.array_v1<[]>, result_layouts = #vhlo.array_v1<[]>}> {mhlo.frontend_attributes = #vhlo.dict_v1<{#vhlo.string_v1<"xla.sdy.sharding"> = #vhlo.string_v1<"#sdy.sharding_per_value<[<@mesh, [{}, {\22_axis_0\22}, {}, {}]>]>">}>, mhlo.sharding = #vhlo.string_v1<"{devices=[1,2,1,1]<=[2]}">} : (!vhlo.tensor_v1<1x8x128x128x!vhlo.bf16_v1>) -> !vhlo.tensor_v1<1x8x128x128x!vhlo.bf16_v1>
    %203 = "vhlo.transpose_v1"(%arg23) <{permutation = #vhlo.tensor_v1<dense<[1, 0]> : tensor<2xi64>>}> {result_layout = #vhlo.tensor_v1<dense<[0, 1]> : tensor<2xindex>>, xla_shape = #vhlo.string_v1<"bf16[3072,1024]{0,1}">} : (!vhlo.tensor_v1<1024x3072x!vhlo.bf16_v1>) -> !vhlo.tensor_v1<3072x1024x!vhlo.bf16_v1>
    %204 = "vhlo.dot_general_v2"(%185, %203) <{accumulation_type = #vhlo.type_v1<!vhlo.none_v1>, allow_imprecise_accumulation = #vhlo.type_v1<!vhlo.none_v1>, lhs_batching_dimensions = #vhlo.tensor_v1<dense<> : tensor<0xi64>>, lhs_component_count = #vhlo.type_v1<!vhlo.none_v1>, lhs_contracting_dimensions = #vhlo.tensor_v1<dense<1> : tensor<1xi64>>, lhs_precision_type = #vhlo.type_v1<!vhlo.none_v1>, num_primitive_operations = #vhlo.type_v1<!vhlo.none_v1>, precision_config = #vhlo.array_v1<[#vhlo<precision_v1 DEFAULT>, #vhlo<precision_v1 DEFAULT>]>, rhs_batching_dimensions = #vhlo.tensor_v1<dense<> : tensor<0xi64>>, rhs_component_count = #vhlo.type_v1<!vhlo.none_v1>, rhs_contracting_dimensions = #vhlo.tensor_v1<dense<0> : tensor<1xi64>>, rhs_precision_type = #vhlo.type_v1<!vhlo.none_v1>}> : (!vhlo.tensor_v1<7x3072x!vhlo.bf16_v1>, !vhlo.tensor_v1<3072x1024x!vhlo.bf16_v1>) -> !vhlo.tensor_v1<7x1024x!vhlo.bf16_v1>
    %205 = "vhlo.reshape_v1"(%204) : (!vhlo.tensor_v1<7x1024x!vhlo.bf16_v1>) -> !vhlo.tensor_v1<1x7x8x128x!vhlo.bf16_v1>
    %206 = "vhlo.transpose_v1"(%205) <{permutation = #vhlo.tensor_v1<dense<[0, 2, 1, 3]> : tensor<4xi64>>}> {result_layout = #vhlo.tensor_v1<dense<[3, 1, 2, 0]> : tensor<4xindex>>, xla_shape = #vhlo.string_v1<"bf16[1,8,7,128]{3,1,2,0}">} : (!vhlo.tensor_v1<1x7x8x128x!vhlo.bf16_v1>) -> !vhlo.tensor_v1<1x8x7x128x!vhlo.bf16_v1>
    %207 = "vhlo.scatter_v2"(%arg24, %10, %206) <{index_vector_dim = #vhlo.integer_v1<1 : i64>, indices_are_sorted = #vhlo.bool_v1<false>, input_batching_dims = #vhlo.tensor_v1<dense<> : tensor<0xi64>>, inserted_window_dims = #vhlo.tensor_v1<dense<2> : tensor<1xi64>>, scatter_dims_to_operand_dims = #vhlo.tensor_v1<dense<2> : tensor<1xi64>>, scatter_indices_batching_dims = #vhlo.tensor_v1<dense<> : tensor<0xi64>>, unique_indices = #vhlo.bool_v1<false>, update_window_dims = #vhlo.tensor_v1<dense<[0, 1, 3]> : tensor<3xi64>>}> ({
    ^bb0(%arg54: !vhlo.tensor_v1<!vhlo.bf16_v1>, %arg55: !vhlo.tensor_v1<!vhlo.bf16_v1>):
      "vhlo.return_v1"(%arg55) : (!vhlo.tensor_v1<!vhlo.bf16_v1>) -> ()
    }) : (!vhlo.tensor_v1<1x8x128x128x!vhlo.bf16_v1>, !vhlo.tensor_v1<7x1x!vhlo.i64_v1>, !vhlo.tensor_v1<1x8x7x128x!vhlo.bf16_v1>) -> !vhlo.tensor_v1<1x8x128x128x!vhlo.bf16_v1>
    %208 = "vhlo.custom_call_v1"(%207) <{api_version = #vhlo<api_version_v1 API_VERSION_ORIGINAL>, backend_config = #vhlo.string_v1<"">, call_target_name = #vhlo.string_v1<"Sharding">, called_computations = #vhlo.array_v1<[]>, has_side_effect = #vhlo.bool_v1<false>, operand_layouts = #vhlo.array_v1<[]>, output_operand_aliases = #vhlo.array_v1<[]>, result_layouts = #vhlo.array_v1<[]>}> {mhlo.frontend_attributes = #vhlo.dict_v1<{#vhlo.string_v1<"xla.sdy.sharding"> = #vhlo.string_v1<"#sdy.sharding_per_value<[<@mesh, [{}, {\22_axis_0\22}, {}, {}]>]>">}>, mhlo.sharding = #vhlo.string_v1<"{devices=[1,2,1,1]<=[2]}">} : (!vhlo.tensor_v1<1x8x128x128x!vhlo.bf16_v1>) -> !vhlo.tensor_v1<1x8x128x128x!vhlo.bf16_v1>
    %209 = "vhlo.convert_v1"(%arg32) : (!vhlo.tensor_v1<3072x!vhlo.bf16_v1>) -> !vhlo.tensor_v1<3072x!vhlo.f32_v1>
    %210 = "vhlo.broadcast_in_dim_v1"(%209) <{broadcast_dimensions = #vhlo.tensor_v1<dense<2> : tensor<1xi64>>}> : (!vhlo.tensor_v1<3072x!vhlo.f32_v1>) -> !vhlo.tensor_v1<1x7x3072x!vhlo.f32_v1>
    %211 = "vhlo.transpose_v1"(%arg29) <{permutation = #vhlo.tensor_v1<dense<[1, 0]> : tensor<2xi64>>}> {result_layout = #vhlo.tensor_v1<dense<[0, 1]> : tensor<2xindex>>, xla_shape = #vhlo.string_v1<"bf16[3072,3072]{0,1}">} : (!vhlo.tensor_v1<3072x3072x!vhlo.bf16_v1>) -> !vhlo.tensor_v1<3072x3072x!vhlo.bf16_v1>
    %212 = "vhlo.dot_general_v2"(%185, %211) <{accumulation_type = #vhlo.type_v1<!vhlo.none_v1>, allow_imprecise_accumulation = #vhlo.type_v1<!vhlo.none_v1>, lhs_batching_dimensions = #vhlo.tensor_v1<dense<> : tensor<0xi64>>, lhs_component_count = #vhlo.type_v1<!vhlo.none_v1>, lhs_contracting_dimensions = #vhlo.tensor_v1<dense<1> : tensor<1xi64>>, lhs_precision_type = #vhlo.type_v1<!vhlo.none_v1>, num_primitive_operations = #vhlo.type_v1<!vhlo.none_v1>, precision_config = #vhlo.array_v1<[#vhlo<precision_v1 DEFAULT>, #vhlo<precision_v1 DEFAULT>]>, rhs_batching_dimensions = #vhlo.tensor_v1<dense<> : tensor<0xi64>>, rhs_component_count = #vhlo.type_v1<!vhlo.none_v1>, rhs_contracting_dimensions = #vhlo.tensor_v1<dense<0> : tensor<1xi64>>, rhs_precision_type = #vhlo.type_v1<!vhlo.none_v1>}> : (!vhlo.tensor_v1<7x3072x!vhlo.bf16_v1>, !vhlo.tensor_v1<3072x3072x!vhlo.bf16_v1>) -> !vhlo.tensor_v1<7x3072x!vhlo.bf16_v1>
    %213 = "vhlo.reshape_v1"(%212) : (!vhlo.tensor_v1<7x3072x!vhlo.bf16_v1>) -> !vhlo.tensor_v1<1x7x24x128x!vhlo.bf16_v1>
    %214 = "vhlo.transpose_v1"(%213) <{permutation = #vhlo.tensor_v1<dense<[0, 2, 1, 3]> : tensor<4xi64>>}> {result_layout = #vhlo.tensor_v1<dense<[3, 1, 2, 0]> : tensor<4xindex>>, xla_shape = #vhlo.string_v1<"bf16[1,24,7,128]{3,1,2,0}">} : (!vhlo.tensor_v1<1x7x24x128x!vhlo.bf16_v1>) -> !vhlo.tensor_v1<1x24x7x128x!vhlo.bf16_v1>
    %215 = "vhlo.convert_v1"(%214) {result_layout = #vhlo.tensor_v1<dense<[3, 1, 2, 0]> : tensor<4xindex>>, xla_shape = #vhlo.string_v1<"f32[1,24,7,128]{3,1,2,0}">} : (!vhlo.tensor_v1<1x24x7x128x!vhlo.bf16_v1>) -> !vhlo.tensor_v1<1x24x7x128x!vhlo.f32_v1>
    %216 = "vhlo.multiply_v1"(%215, %81) : (!vhlo.tensor_v1<1x24x7x128x!vhlo.f32_v1>, !vhlo.tensor_v1<1x24x7x128x!vhlo.f32_v1>) -> !vhlo.tensor_v1<1x24x7x128x!vhlo.f32_v1>
    %217 = "vhlo.convert_v1"(%216) : (!vhlo.tensor_v1<1x24x7x128x!vhlo.f32_v1>) -> !vhlo.tensor_v1<1x24x7x128x!vhlo.bf16_v1>
    %218 = "vhlo.slice_v1"(%214) <{limit_indices = #vhlo.tensor_v1<dense<[1, 24, 7, 128]> : tensor<4xi64>>, start_indices = #vhlo.tensor_v1<dense<[0, 0, 0, 64]> : tensor<4xi64>>, strides = #vhlo.tensor_v1<dense<1> : tensor<4xi64>>}> : (!vhlo.tensor_v1<1x24x7x128x!vhlo.bf16_v1>) -> !vhlo.tensor_v1<1x24x7x64x!vhlo.bf16_v1>
    %219 = "vhlo.negate_v1"(%218) : (!vhlo.tensor_v1<1x24x7x64x!vhlo.bf16_v1>) -> !vhlo.tensor_v1<1x24x7x64x!vhlo.bf16_v1>
    %220 = "vhlo.slice_v1"(%214) <{limit_indices = #vhlo.tensor_v1<dense<[1, 24, 7, 64]> : tensor<4xi64>>, start_indices = #vhlo.tensor_v1<dense<0> : tensor<4xi64>>, strides = #vhlo.tensor_v1<dense<1> : tensor<4xi64>>}> : (!vhlo.tensor_v1<1x24x7x128x!vhlo.bf16_v1>) -> !vhlo.tensor_v1<1x24x7x64x!vhlo.bf16_v1>
    %221 = "vhlo.concatenate_v1"(%219, %220) <{dimension = #vhlo.integer_v1<3 : i64>}> : (!vhlo.tensor_v1<1x24x7x64x!vhlo.bf16_v1>, !vhlo.tensor_v1<1x24x7x64x!vhlo.bf16_v1>) -> !vhlo.tensor_v1<1x24x7x128x!vhlo.bf16_v1>
    %222 = "vhlo.convert_v1"(%221) : (!vhlo.tensor_v1<1x24x7x128x!vhlo.bf16_v1>) -> !vhlo.tensor_v1<1x24x7x128x!vhlo.f32_v1>
    %223 = "vhlo.multiply_v1"(%222, %89) : (!vhlo.tensor_v1<1x24x7x128x!vhlo.f32_v1>, !vhlo.tensor_v1<1x24x7x128x!vhlo.f32_v1>) -> !vhlo.tensor_v1<1x24x7x128x!vhlo.f32_v1>
    %224 = "vhlo.convert_v1"(%223) : (!vhlo.tensor_v1<1x24x7x128x!vhlo.f32_v1>) -> !vhlo.tensor_v1<1x24x7x128x!vhlo.bf16_v1>
    %225 = "vhlo.add_v1"(%217, %224) : (!vhlo.tensor_v1<1x24x7x128x!vhlo.bf16_v1>, !vhlo.tensor_v1<1x24x7x128x!vhlo.bf16_v1>) -> !vhlo.tensor_v1<1x24x7x128x!vhlo.bf16_v1>
    %226 = "vhlo.reshape_v1"(%225) : (!vhlo.tensor_v1<1x24x7x128x!vhlo.bf16_v1>) -> !vhlo.tensor_v1<24x7x128x!vhlo.bf16_v1>
    %227 = "vhlo.broadcast_in_dim_v1"(%201) <{broadcast_dimensions = #vhlo.tensor_v1<dense<[0, 1, 3, 4]> : tensor<4xi64>>}> : (!vhlo.tensor_v1<1x8x128x128x!vhlo.bf16_v1>) -> !vhlo.tensor_v1<1x8x3x128x128x!vhlo.bf16_v1>
    %228 = "vhlo.reshape_v1"(%227) : (!vhlo.tensor_v1<1x8x3x128x128x!vhlo.bf16_v1>) -> !vhlo.tensor_v1<1x24x128x128x!vhlo.bf16_v1>
    %229 = "vhlo.transpose_v1"(%228) <{permutation = #vhlo.tensor_v1<dense<[0, 1, 3, 2]> : tensor<4xi64>>}> {result_layout = #vhlo.tensor_v1<dense<[2, 3, 1, 0]> : tensor<4xindex>>, xla_shape = #vhlo.string_v1<"bf16[1,24,128,128]{2,3,1,0}">} : (!vhlo.tensor_v1<1x24x128x128x!vhlo.bf16_v1>) -> !vhlo.tensor_v1<1x24x128x128x!vhlo.bf16_v1>
    %230 = "vhlo.reshape_v1"(%229) : (!vhlo.tensor_v1<1x24x128x128x!vhlo.bf16_v1>) -> !vhlo.tensor_v1<24x128x128x!vhlo.bf16_v1>
    %231 = "vhlo.dot_general_v2"(%226, %230) <{accumulation_type = #vhlo.type_v1<!vhlo.none_v1>, allow_imprecise_accumulation = #vhlo.type_v1<!vhlo.none_v1>, lhs_batching_dimensions = #vhlo.tensor_v1<dense<0> : tensor<1xi64>>, lhs_component_count = #vhlo.type_v1<!vhlo.none_v1>, lhs_contracting_dimensions = #vhlo.tensor_v1<dense<2> : tensor<1xi64>>, lhs_precision_type = #vhlo.type_v1<!vhlo.none_v1>, num_primitive_operations = #vhlo.type_v1<!vhlo.none_v1>, precision_config = #vhlo.array_v1<[#vhlo<precision_v1 DEFAULT>, #vhlo<precision_v1 DEFAULT>]>, rhs_batching_dimensions = #vhlo.tensor_v1<dense<0> : tensor<1xi64>>, rhs_component_count = #vhlo.type_v1<!vhlo.none_v1>, rhs_contracting_dimensions = #vhlo.tensor_v1<dense<1> : tensor<1xi64>>, rhs_precision_type = #vhlo.type_v1<!vhlo.none_v1>}> : (!vhlo.tensor_v1<24x7x128x!vhlo.bf16_v1>, !vhlo.tensor_v1<24x128x128x!vhlo.bf16_v1>) -> !vhlo.tensor_v1<24x7x128x!vhlo.bf16_v1>
    %232 = "vhlo.reshape_v1"(%231) : (!vhlo.tensor_v1<24x7x128x!vhlo.bf16_v1>) -> !vhlo.tensor_v1<1x24x7x128x!vhlo.bf16_v1>
    %233 = "vhlo.convert_v1"(%232) : (!vhlo.tensor_v1<1x24x7x128x!vhlo.bf16_v1>) -> !vhlo.tensor_v1<1x24x7x128x!vhlo.f32_v1>
    %234 = "vhlo.multiply_v1"(%233, %101) : (!vhlo.tensor_v1<1x24x7x128x!vhlo.f32_v1>, !vhlo.tensor_v1<1x24x7x128x!vhlo.f32_v1>) -> !vhlo.tensor_v1<1x24x7x128x!vhlo.f32_v1>
    %235 = "vhlo.convert_v1"(%234) : (!vhlo.tensor_v1<1x24x7x128x!vhlo.f32_v1>) -> !vhlo.tensor_v1<1x24x7x128x!vhlo.bf16_v1>
    %236 = "vhlo.add_v1"(%235, %112) : (!vhlo.tensor_v1<1x24x7x128x!vhlo.bf16_v1>, !vhlo.tensor_v1<1x24x7x128x!vhlo.bf16_v1>) -> !vhlo.tensor_v1<1x24x7x128x!vhlo.bf16_v1>
    %237 = "vhlo.convert_v1"(%236) : (!vhlo.tensor_v1<1x24x7x128x!vhlo.bf16_v1>) -> !vhlo.tensor_v1<1x24x7x128x!vhlo.f32_v1>
    %238 = "vhlo.reduce_v1"(%237, %2) <{dimensions = #vhlo.tensor_v1<dense<3> : tensor<1xi64>>}> ({
    ^bb0(%arg54: !vhlo.tensor_v1<!vhlo.f32_v1>, %arg55: !vhlo.tensor_v1<!vhlo.f32_v1>):
      %558 = "vhlo.maximum_v1"(%arg54, %arg55) : (!vhlo.tensor_v1<!vhlo.f32_v1>, !vhlo.tensor_v1<!vhlo.f32_v1>) -> !vhlo.tensor_v1<!vhlo.f32_v1>
      "vhlo.return_v1"(%558) : (!vhlo.tensor_v1<!vhlo.f32_v1>) -> ()
    }) : (!vhlo.tensor_v1<1x24x7x128x!vhlo.f32_v1>, !vhlo.tensor_v1<!vhlo.f32_v1>) -> !vhlo.tensor_v1<1x24x7x!vhlo.f32_v1>
    %239 = "vhlo.broadcast_in_dim_v1"(%238) <{broadcast_dimensions = #vhlo.tensor_v1<dense<[0, 1, 2]> : tensor<3xi64>>}> : (!vhlo.tensor_v1<1x24x7x!vhlo.f32_v1>) -> !vhlo.tensor_v1<1x24x7x128x!vhlo.f32_v1>
    %240 = "vhlo.subtract_v1"(%237, %239) : (!vhlo.tensor_v1<1x24x7x128x!vhlo.f32_v1>, !vhlo.tensor_v1<1x24x7x128x!vhlo.f32_v1>) -> !vhlo.tensor_v1<1x24x7x128x!vhlo.f32_v1>
    %241 = "vhlo.exponential_v2"(%240) <{result_accuracy = #vhlo.result_accuracy_v1<atol = 0.000000e+00, rtol = 0.000000e+00, ulps = 0, mode = #vhlo<result_accuracy_mode_v1 DEFAULT>>}> : (!vhlo.tensor_v1<1x24x7x128x!vhlo.f32_v1>) -> !vhlo.tensor_v1<1x24x7x128x!vhlo.f32_v1>
    %242 = "vhlo.reduce_v1"(%241, %1) <{dimensions = #vhlo.tensor_v1<dense<3> : tensor<1xi64>>}> ({
    ^bb0(%arg54: !vhlo.tensor_v1<!vhlo.f32_v1>, %arg55: !vhlo.tensor_v1<!vhlo.f32_v1>):
      %558 = "vhlo.add_v1"(%arg54, %arg55) : (!vhlo.tensor_v1<!vhlo.f32_v1>, !vhlo.tensor_v1<!vhlo.f32_v1>) -> !vhlo.tensor_v1<!vhlo.f32_v1>
      "vhlo.return_v1"(%558) : (!vhlo.tensor_v1<!vhlo.f32_v1>) -> ()
    }) : (!vhlo.tensor_v1<1x24x7x128x!vhlo.f32_v1>, !vhlo.tensor_v1<!vhlo.f32_v1>) -> !vhlo.tensor_v1<1x24x7x!vhlo.f32_v1>
    %243 = "vhlo.broadcast_in_dim_v1"(%242) <{broadcast_dimensions = #vhlo.tensor_v1<dense<[0, 1, 2]> : tensor<3xi64>>}> : (!vhlo.tensor_v1<1x24x7x!vhlo.f32_v1>) -> !vhlo.tensor_v1<1x24x7x128x!vhlo.f32_v1>
    %244 = "vhlo.divide_v1"(%241, %243) : (!vhlo.tensor_v1<1x24x7x128x!vhlo.f32_v1>, !vhlo.tensor_v1<1x24x7x128x!vhlo.f32_v1>) -> !vhlo.tensor_v1<1x24x7x128x!vhlo.f32_v1>
    %245 = "vhlo.convert_v1"(%244) : (!vhlo.tensor_v1<1x24x7x128x!vhlo.f32_v1>) -> !vhlo.tensor_v1<1x24x7x128x!vhlo.bf16_v1>
    %246 = "vhlo.reshape_v1"(%245) : (!vhlo.tensor_v1<1x24x7x128x!vhlo.bf16_v1>) -> !vhlo.tensor_v1<24x7x128x!vhlo.bf16_v1>
    %247 = "vhlo.broadcast_in_dim_v1"(%207) <{broadcast_dimensions = #vhlo.tensor_v1<dense<[0, 1, 3, 4]> : tensor<4xi64>>}> : (!vhlo.tensor_v1<1x8x128x128x!vhlo.bf16_v1>) -> !vhlo.tensor_v1<1x8x3x128x128x!vhlo.bf16_v1>
    %248 = "vhlo.reshape_v1"(%247) : (!vhlo.tensor_v1<1x8x3x128x128x!vhlo.bf16_v1>) -> !vhlo.tensor_v1<24x128x128x!vhlo.bf16_v1>
    %249 = "vhlo.dot_general_v2"(%246, %248) <{accumulation_type = #vhlo.type_v1<!vhlo.none_v1>, allow_imprecise_accumulation = #vhlo.type_v1<!vhlo.none_v1>, lhs_batching_dimensions = #vhlo.tensor_v1<dense<0> : tensor<1xi64>>, lhs_component_count = #vhlo.type_v1<!vhlo.none_v1>, lhs_contracting_dimensions = #vhlo.tensor_v1<dense<2> : tensor<1xi64>>, lhs_precision_type = #vhlo.type_v1<!vhlo.none_v1>, num_primitive_operations = #vhlo.type_v1<!vhlo.none_v1>, precision_config = #vhlo.array_v1<[#vhlo<precision_v1 DEFAULT>, #vhlo<precision_v1 DEFAULT>]>, rhs_batching_dimensions = #vhlo.tensor_v1<dense<0> : tensor<1xi64>>, rhs_component_count = #vhlo.type_v1<!vhlo.none_v1>, rhs_contracting_dimensions = #vhlo.tensor_v1<dense<1> : tensor<1xi64>>, rhs_precision_type = #vhlo.type_v1<!vhlo.none_v1>}> : (!vhlo.tensor_v1<24x7x128x!vhlo.bf16_v1>, !vhlo.tensor_v1<24x128x128x!vhlo.bf16_v1>) -> !vhlo.tensor_v1<24x7x128x!vhlo.bf16_v1>
    %250 = "vhlo.reshape_v1"(%249) : (!vhlo.tensor_v1<24x7x128x!vhlo.bf16_v1>) -> !vhlo.tensor_v1<1x24x7x128x!vhlo.bf16_v1>
    %251 = "vhlo.transpose_v1"(%250) <{permutation = #vhlo.tensor_v1<dense<[0, 2, 1, 3]> : tensor<4xi64>>}> {result_layout = #vhlo.tensor_v1<dense<[3, 1, 2, 0]> : tensor<4xindex>>, xla_shape = #vhlo.string_v1<"bf16[1,7,24,128]{3,1,2,0}">} : (!vhlo.tensor_v1<1x24x7x128x!vhlo.bf16_v1>) -> !vhlo.tensor_v1<1x7x24x128x!vhlo.bf16_v1>
    %252 = "vhlo.reshape_v1"(%251) : (!vhlo.tensor_v1<1x7x24x128x!vhlo.bf16_v1>) -> !vhlo.tensor_v1<7x3072x!vhlo.bf16_v1>
    %253 = "vhlo.transpose_v1"(%arg28) <{permutation = #vhlo.tensor_v1<dense<[1, 0]> : tensor<2xi64>>}> {result_layout = #vhlo.tensor_v1<dense<[0, 1]> : tensor<2xindex>>, xla_shape = #vhlo.string_v1<"bf16[3072,3072]{0,1}">} : (!vhlo.tensor_v1<3072x3072x!vhlo.bf16_v1>) -> !vhlo.tensor_v1<3072x3072x!vhlo.bf16_v1>
    %254 = "vhlo.dot_general_v2"(%252, %253) <{accumulation_type = #vhlo.type_v1<!vhlo.none_v1>, allow_imprecise_accumulation = #vhlo.type_v1<!vhlo.none_v1>, lhs_batching_dimensions = #vhlo.tensor_v1<dense<> : tensor<0xi64>>, lhs_component_count = #vhlo.type_v1<!vhlo.none_v1>, lhs_contracting_dimensions = #vhlo.tensor_v1<dense<1> : tensor<1xi64>>, lhs_precision_type = #vhlo.type_v1<!vhlo.none_v1>, num_primitive_operations = #vhlo.type_v1<!vhlo.none_v1>, precision_config = #vhlo.array_v1<[#vhlo<precision_v1 DEFAULT>, #vhlo<precision_v1 DEFAULT>]>, rhs_batching_dimensions = #vhlo.tensor_v1<dense<> : tensor<0xi64>>, rhs_component_count = #vhlo.type_v1<!vhlo.none_v1>, rhs_contracting_dimensions = #vhlo.tensor_v1<dense<0> : tensor<1xi64>>, rhs_precision_type = #vhlo.type_v1<!vhlo.none_v1>}> : (!vhlo.tensor_v1<7x3072x!vhlo.bf16_v1>, !vhlo.tensor_v1<3072x3072x!vhlo.bf16_v1>) -> !vhlo.tensor_v1<7x3072x!vhlo.bf16_v1>
    %255 = "vhlo.reshape_v1"(%254) : (!vhlo.tensor_v1<7x3072x!vhlo.bf16_v1>) -> !vhlo.tensor_v1<1x7x3072x!vhlo.bf16_v1>
    %256 = "vhlo.add_v1"(%170, %255) : (!vhlo.tensor_v1<1x7x3072x!vhlo.bf16_v1>, !vhlo.tensor_v1<1x7x3072x!vhlo.bf16_v1>) -> !vhlo.tensor_v1<1x7x3072x!vhlo.bf16_v1>
    %257 = "vhlo.convert_v1"(%arg30) : (!vhlo.tensor_v1<3072x!vhlo.bf16_v1>) -> !vhlo.tensor_v1<3072x!vhlo.f32_v1>
    %258 = "vhlo.broadcast_in_dim_v1"(%257) <{broadcast_dimensions = #vhlo.tensor_v1<dense<2> : tensor<1xi64>>}> : (!vhlo.tensor_v1<3072x!vhlo.f32_v1>) -> !vhlo.tensor_v1<1x7x3072x!vhlo.f32_v1>
    %259 = "vhlo.convert_v1"(%256) : (!vhlo.tensor_v1<1x7x3072x!vhlo.bf16_v1>) -> !vhlo.tensor_v1<1x7x3072x!vhlo.f32_v1>
    %260 = "vhlo.power_v1"(%259, %5) : (!vhlo.tensor_v1<1x7x3072x!vhlo.f32_v1>, !vhlo.tensor_v1<1x7x3072x!vhlo.f32_v1>) -> !vhlo.tensor_v1<1x7x3072x!vhlo.f32_v1>
    %261 = "vhlo.reduce_v1"(%260, %1) <{dimensions = #vhlo.tensor_v1<dense<2> : tensor<1xi64>>}> ({
    ^bb0(%arg54: !vhlo.tensor_v1<!vhlo.f32_v1>, %arg55: !vhlo.tensor_v1<!vhlo.f32_v1>):
      %558 = "vhlo.add_v1"(%arg54, %arg55) : (!vhlo.tensor_v1<!vhlo.f32_v1>, !vhlo.tensor_v1<!vhlo.f32_v1>) -> !vhlo.tensor_v1<!vhlo.f32_v1>
      "vhlo.return_v1"(%558) : (!vhlo.tensor_v1<!vhlo.f32_v1>) -> ()
    }) : (!vhlo.tensor_v1<1x7x3072x!vhlo.f32_v1>, !vhlo.tensor_v1<!vhlo.f32_v1>) -> !vhlo.tensor_v1<1x7x!vhlo.f32_v1>
    %262 = "vhlo.multiply_v1"(%261, %3) : (!vhlo.tensor_v1<1x7x!vhlo.f32_v1>, !vhlo.tensor_v1<1x7x!vhlo.f32_v1>) -> !vhlo.tensor_v1<1x7x!vhlo.f32_v1>
    %263 = "vhlo.reshape_v1"(%262) : (!vhlo.tensor_v1<1x7x!vhlo.f32_v1>) -> !vhlo.tensor_v1<1x7x1x!vhlo.f32_v1>
    %264 = "vhlo.add_v1"(%263, %22) : (!vhlo.tensor_v1<1x7x1x!vhlo.f32_v1>, !vhlo.tensor_v1<1x7x1x!vhlo.f32_v1>) -> !vhlo.tensor_v1<1x7x1x!vhlo.f32_v1>
    %265 = "vhlo.rsqrt_v2"(%264) <{result_accuracy = #vhlo.result_accuracy_v1<atol = 0.000000e+00, rtol = 0.000000e+00, ulps = 0, mode = #vhlo<result_accuracy_mode_v1 DEFAULT>>}> : (!vhlo.tensor_v1<1x7x1x!vhlo.f32_v1>) -> !vhlo.tensor_v1<1x7x1x!vhlo.f32_v1>
    %266 = "vhlo.reshape_v1"(%265) : (!vhlo.tensor_v1<1x7x1x!vhlo.f32_v1>) -> !vhlo.tensor_v1<1x7x!vhlo.f32_v1>
    %267 = "vhlo.broadcast_in_dim_v1"(%266) <{broadcast_dimensions = #vhlo.tensor_v1<dense<[0, 1]> : tensor<2xi64>>}> : (!vhlo.tensor_v1<1x7x!vhlo.f32_v1>) -> !vhlo.tensor_v1<1x7x3072x!vhlo.f32_v1>
    %268 = "vhlo.multiply_v1"(%259, %267) : (!vhlo.tensor_v1<1x7x3072x!vhlo.f32_v1>, !vhlo.tensor_v1<1x7x3072x!vhlo.f32_v1>) -> !vhlo.tensor_v1<1x7x3072x!vhlo.f32_v1>
    %269 = "vhlo.convert_v1"(%268) : (!vhlo.tensor_v1<1x7x3072x!vhlo.f32_v1>) -> !vhlo.tensor_v1<1x7x3072x!vhlo.bf16_v1>
    %270 = "vhlo.convert_v1"(%269) : (!vhlo.tensor_v1<1x7x3072x!vhlo.bf16_v1>) -> !vhlo.tensor_v1<1x7x3072x!vhlo.f32_v1>
    %271 = "vhlo.multiply_v1"(%258, %270) : (!vhlo.tensor_v1<1x7x3072x!vhlo.f32_v1>, !vhlo.tensor_v1<1x7x3072x!vhlo.f32_v1>) -> !vhlo.tensor_v1<1x7x3072x!vhlo.f32_v1>
    %272 = "vhlo.convert_v1"(%271) : (!vhlo.tensor_v1<1x7x3072x!vhlo.f32_v1>) -> !vhlo.tensor_v1<1x7x3072x!vhlo.bf16_v1>
    %273 = "vhlo.reshape_v1"(%272) : (!vhlo.tensor_v1<1x7x3072x!vhlo.bf16_v1>) -> !vhlo.tensor_v1<7x3072x!vhlo.bf16_v1>
    %274 = "vhlo.transpose_v1"(%arg31) <{permutation = #vhlo.tensor_v1<dense<[1, 0]> : tensor<2xi64>>}> {result_layout = #vhlo.tensor_v1<dense<[0, 1]> : tensor<2xindex>>, xla_shape = #vhlo.string_v1<"bf16[3072,8192]{0,1}">} : (!vhlo.tensor_v1<8192x3072x!vhlo.bf16_v1>) -> !vhlo.tensor_v1<3072x8192x!vhlo.bf16_v1>
    %275 = "vhlo.dot_general_v2"(%273, %274) <{accumulation_type = #vhlo.type_v1<!vhlo.none_v1>, allow_imprecise_accumulation = #vhlo.type_v1<!vhlo.none_v1>, lhs_batching_dimensions = #vhlo.tensor_v1<dense<> : tensor<0xi64>>, lhs_component_count = #vhlo.type_v1<!vhlo.none_v1>, lhs_contracting_dimensions = #vhlo.tensor_v1<dense<1> : tensor<1xi64>>, lhs_precision_type = #vhlo.type_v1<!vhlo.none_v1>, num_primitive_operations = #vhlo.type_v1<!vhlo.none_v1>, precision_config = #vhlo.array_v1<[#vhlo<precision_v1 DEFAULT>, #vhlo<precision_v1 DEFAULT>]>, rhs_batching_dimensions = #vhlo.tensor_v1<dense<> : tensor<0xi64>>, rhs_component_count = #vhlo.type_v1<!vhlo.none_v1>, rhs_contracting_dimensions = #vhlo.tensor_v1<dense<0> : tensor<1xi64>>, rhs_precision_type = #vhlo.type_v1<!vhlo.none_v1>}> : (!vhlo.tensor_v1<7x3072x!vhlo.bf16_v1>, !vhlo.tensor_v1<3072x8192x!vhlo.bf16_v1>) -> !vhlo.tensor_v1<7x8192x!vhlo.bf16_v1>
    %276 = "vhlo.reshape_v1"(%275) : (!vhlo.tensor_v1<7x8192x!vhlo.bf16_v1>) -> !vhlo.tensor_v1<1x7x8192x!vhlo.bf16_v1>
    %277 = "vhlo.convert_v1"(%276) : (!vhlo.tensor_v1<1x7x8192x!vhlo.bf16_v1>) -> !vhlo.tensor_v1<1x7x8192x!vhlo.f32_v1>
    %278 = "vhlo.logistic_v2"(%276) <{result_accuracy = #vhlo.result_accuracy_v1<atol = 0.000000e+00, rtol = 0.000000e+00, ulps = 0, mode = #vhlo<result_accuracy_mode_v1 DEFAULT>>}> : (!vhlo.tensor_v1<1x7x8192x!vhlo.bf16_v1>) -> !vhlo.tensor_v1<1x7x8192x!vhlo.bf16_v1>
    %279 = "vhlo.convert_v1"(%278) : (!vhlo.tensor_v1<1x7x8192x!vhlo.bf16_v1>) -> !vhlo.tensor_v1<1x7x8192x!vhlo.f32_v1>
    %280 = "vhlo.multiply_v1"(%277, %279) : (!vhlo.tensor_v1<1x7x8192x!vhlo.f32_v1>, !vhlo.tensor_v1<1x7x8192x!vhlo.f32_v1>) -> !vhlo.tensor_v1<1x7x8192x!vhlo.f32_v1>
    %281 = "vhlo.convert_v1"(%280) : (!vhlo.tensor_v1<1x7x8192x!vhlo.f32_v1>) -> !vhlo.tensor_v1<1x7x8192x!vhlo.bf16_v1>
    %282 = "vhlo.convert_v1"(%281) : (!vhlo.tensor_v1<1x7x8192x!vhlo.bf16_v1>) -> !vhlo.tensor_v1<1x7x8192x!vhlo.f32_v1>
    %283 = "vhlo.transpose_v1"(%arg27) <{permutation = #vhlo.tensor_v1<dense<[1, 0]> : tensor<2xi64>>}> {result_layout = #vhlo.tensor_v1<dense<[0, 1]> : tensor<2xindex>>, xla_shape = #vhlo.string_v1<"bf16[3072,8192]{0,1}">} : (!vhlo.tensor_v1<8192x3072x!vhlo.bf16_v1>) -> !vhlo.tensor_v1<3072x8192x!vhlo.bf16_v1>
    %284 = "vhlo.dot_general_v2"(%273, %283) <{accumulation_type = #vhlo.type_v1<!vhlo.none_v1>, allow_imprecise_accumulation = #vhlo.type_v1<!vhlo.none_v1>, lhs_batching_dimensions = #vhlo.tensor_v1<dense<> : tensor<0xi64>>, lhs_component_count = #vhlo.type_v1<!vhlo.none_v1>, lhs_contracting_dimensions = #vhlo.tensor_v1<dense<1> : tensor<1xi64>>, lhs_precision_type = #vhlo.type_v1<!vhlo.none_v1>, num_primitive_operations = #vhlo.type_v1<!vhlo.none_v1>, precision_config = #vhlo.array_v1<[#vhlo<precision_v1 DEFAULT>, #vhlo<precision_v1 DEFAULT>]>, rhs_batching_dimensions = #vhlo.tensor_v1<dense<> : tensor<0xi64>>, rhs_component_count = #vhlo.type_v1<!vhlo.none_v1>, rhs_contracting_dimensions = #vhlo.tensor_v1<dense<0> : tensor<1xi64>>, rhs_precision_type = #vhlo.type_v1<!vhlo.none_v1>}> : (!vhlo.tensor_v1<7x3072x!vhlo.bf16_v1>, !vhlo.tensor_v1<3072x8192x!vhlo.bf16_v1>) -> !vhlo.tensor_v1<7x8192x!vhlo.bf16_v1>
    %285 = "vhlo.reshape_v1"(%284) : (!vhlo.tensor_v1<7x8192x!vhlo.bf16_v1>) -> !vhlo.tensor_v1<1x7x8192x!vhlo.bf16_v1>
    %286 = "vhlo.convert_v1"(%285) : (!vhlo.tensor_v1<1x7x8192x!vhlo.bf16_v1>) -> !vhlo.tensor_v1<1x7x8192x!vhlo.f32_v1>
    %287 = "vhlo.multiply_v1"(%282, %286) : (!vhlo.tensor_v1<1x7x8192x!vhlo.f32_v1>, !vhlo.tensor_v1<1x7x8192x!vhlo.f32_v1>) -> !vhlo.tensor_v1<1x7x8192x!vhlo.f32_v1>
    %288 = "vhlo.convert_v1"(%287) : (!vhlo.tensor_v1<1x7x8192x!vhlo.f32_v1>) -> !vhlo.tensor_v1<1x7x8192x!vhlo.bf16_v1>
    %289 = "vhlo.reshape_v1"(%288) : (!vhlo.tensor_v1<1x7x8192x!vhlo.bf16_v1>) -> !vhlo.tensor_v1<7x8192x!vhlo.bf16_v1>
    %290 = "vhlo.transpose_v1"(%arg26) <{permutation = #vhlo.tensor_v1<dense<[1, 0]> : tensor<2xi64>>}> {result_layout = #vhlo.tensor_v1<dense<[0, 1]> : tensor<2xindex>>, xla_shape = #vhlo.string_v1<"bf16[8192,3072]{0,1}">} : (!vhlo.tensor_v1<3072x8192x!vhlo.bf16_v1>) -> !vhlo.tensor_v1<8192x3072x!vhlo.bf16_v1>
    %291 = "vhlo.dot_general_v2"(%289, %290) <{accumulation_type = #vhlo.type_v1<!vhlo.none_v1>, allow_imprecise_accumulation = #vhlo.type_v1<!vhlo.none_v1>, lhs_batching_dimensions = #vhlo.tensor_v1<dense<> : tensor<0xi64>>, lhs_component_count = #vhlo.type_v1<!vhlo.none_v1>, lhs_contracting_dimensions = #vhlo.tensor_v1<dense<1> : tensor<1xi64>>, lhs_precision_type = #vhlo.type_v1<!vhlo.none_v1>, num_primitive_operations = #vhlo.type_v1<!vhlo.none_v1>, precision_config = #vhlo.array_v1<[#vhlo<precision_v1 DEFAULT>, #vhlo<precision_v1 DEFAULT>]>, rhs_batching_dimensions = #vhlo.tensor_v1<dense<> : tensor<0xi64>>, rhs_component_count = #vhlo.type_v1<!vhlo.none_v1>, rhs_contracting_dimensions = #vhlo.tensor_v1<dense<0> : tensor<1xi64>>, rhs_precision_type = #vhlo.type_v1<!vhlo.none_v1>}> : (!vhlo.tensor_v1<7x8192x!vhlo.bf16_v1>, !vhlo.tensor_v1<8192x3072x!vhlo.bf16_v1>) -> !vhlo.tensor_v1<7x3072x!vhlo.bf16_v1>
    %292 = "vhlo.reshape_v1"(%291) : (!vhlo.tensor_v1<7x3072x!vhlo.bf16_v1>) -> !vhlo.tensor_v1<1x7x3072x!vhlo.bf16_v1>
    %293 = "vhlo.add_v1"(%256, %292) : (!vhlo.tensor_v1<1x7x3072x!vhlo.bf16_v1>, !vhlo.tensor_v1<1x7x3072x!vhlo.bf16_v1>) -> !vhlo.tensor_v1<1x7x3072x!vhlo.bf16_v1>
    %294 = "vhlo.convert_v1"(%293) : (!vhlo.tensor_v1<1x7x3072x!vhlo.bf16_v1>) -> !vhlo.tensor_v1<1x7x3072x!vhlo.f32_v1>
    %295 = "vhlo.power_v1"(%294, %5) : (!vhlo.tensor_v1<1x7x3072x!vhlo.f32_v1>, !vhlo.tensor_v1<1x7x3072x!vhlo.f32_v1>) -> !vhlo.tensor_v1<1x7x3072x!vhlo.f32_v1>
    %296 = "vhlo.reduce_v1"(%295, %1) <{dimensions = #vhlo.tensor_v1<dense<2> : tensor<1xi64>>}> ({
    ^bb0(%arg54: !vhlo.tensor_v1<!vhlo.f32_v1>, %arg55: !vhlo.tensor_v1<!vhlo.f32_v1>):
      %558 = "vhlo.add_v1"(%arg54, %arg55) : (!vhlo.tensor_v1<!vhlo.f32_v1>, !vhlo.tensor_v1<!vhlo.f32_v1>) -> !vhlo.tensor_v1<!vhlo.f32_v1>
      "vhlo.return_v1"(%558) : (!vhlo.tensor_v1<!vhlo.f32_v1>) -> ()
    }) : (!vhlo.tensor_v1<1x7x3072x!vhlo.f32_v1>, !vhlo.tensor_v1<!vhlo.f32_v1>) -> !vhlo.tensor_v1<1x7x!vhlo.f32_v1>
    %297 = "vhlo.multiply_v1"(%296, %3) : (!vhlo.tensor_v1<1x7x!vhlo.f32_v1>, !vhlo.tensor_v1<1x7x!vhlo.f32_v1>) -> !vhlo.tensor_v1<1x7x!vhlo.f32_v1>
    %298 = "vhlo.reshape_v1"(%297) : (!vhlo.tensor_v1<1x7x!vhlo.f32_v1>) -> !vhlo.tensor_v1<1x7x1x!vhlo.f32_v1>
    %299 = "vhlo.add_v1"(%298, %22) : (!vhlo.tensor_v1<1x7x1x!vhlo.f32_v1>, !vhlo.tensor_v1<1x7x1x!vhlo.f32_v1>) -> !vhlo.tensor_v1<1x7x1x!vhlo.f32_v1>
    %300 = "vhlo.rsqrt_v2"(%299) <{result_accuracy = #vhlo.result_accuracy_v1<atol = 0.000000e+00, rtol = 0.000000e+00, ulps = 0, mode = #vhlo<result_accuracy_mode_v1 DEFAULT>>}> : (!vhlo.tensor_v1<1x7x1x!vhlo.f32_v1>) -> !vhlo.tensor_v1<1x7x1x!vhlo.f32_v1>
    %301 = "vhlo.reshape_v1"(%300) : (!vhlo.tensor_v1<1x7x1x!vhlo.f32_v1>) -> !vhlo.tensor_v1<1x7x!vhlo.f32_v1>
    %302 = "vhlo.broadcast_in_dim_v1"(%301) <{broadcast_dimensions = #vhlo.tensor_v1<dense<[0, 1]> : tensor<2xi64>>}> : (!vhlo.tensor_v1<1x7x!vhlo.f32_v1>) -> !vhlo.tensor_v1<1x7x3072x!vhlo.f32_v1>
    %303 = "vhlo.multiply_v1"(%294, %302) : (!vhlo.tensor_v1<1x7x3072x!vhlo.f32_v1>, !vhlo.tensor_v1<1x7x3072x!vhlo.f32_v1>) -> !vhlo.tensor_v1<1x7x3072x!vhlo.f32_v1>
    %304 = "vhlo.convert_v1"(%303) : (!vhlo.tensor_v1<1x7x3072x!vhlo.f32_v1>) -> !vhlo.tensor_v1<1x7x3072x!vhlo.bf16_v1>
    %305 = "vhlo.convert_v1"(%304) : (!vhlo.tensor_v1<1x7x3072x!vhlo.bf16_v1>) -> !vhlo.tensor_v1<1x7x3072x!vhlo.f32_v1>
    %306 = "vhlo.multiply_v1"(%210, %305) : (!vhlo.tensor_v1<1x7x3072x!vhlo.f32_v1>, !vhlo.tensor_v1<1x7x3072x!vhlo.f32_v1>) -> !vhlo.tensor_v1<1x7x3072x!vhlo.f32_v1>
    %307 = "vhlo.convert_v1"(%306) : (!vhlo.tensor_v1<1x7x3072x!vhlo.f32_v1>) -> !vhlo.tensor_v1<1x7x3072x!vhlo.bf16_v1>
    %308 = "vhlo.reshape_v1"(%307) : (!vhlo.tensor_v1<1x7x3072x!vhlo.bf16_v1>) -> !vhlo.tensor_v1<7x3072x!vhlo.bf16_v1>
    %309 = "vhlo.transpose_v1"(%arg25) <{permutation = #vhlo.tensor_v1<dense<[1, 0]> : tensor<2xi64>>}> {result_layout = #vhlo.tensor_v1<dense<[0, 1]> : tensor<2xindex>>, xla_shape = #vhlo.string_v1<"bf16[3072,1024]{0,1}">} : (!vhlo.tensor_v1<1024x3072x!vhlo.bf16_v1>) -> !vhlo.tensor_v1<3072x1024x!vhlo.bf16_v1>
    %310 = "vhlo.dot_general_v2"(%308, %309) <{accumulation_type = #vhlo.type_v1<!vhlo.none_v1>, allow_imprecise_accumulation = #vhlo.type_v1<!vhlo.none_v1>, lhs_batching_dimensions = #vhlo.tensor_v1<dense<> : tensor<0xi64>>, lhs_component_count = #vhlo.type_v1<!vhlo.none_v1>, lhs_contracting_dimensions = #vhlo.tensor_v1<dense<1> : tensor<1xi64>>, lhs_precision_type = #vhlo.type_v1<!vhlo.none_v1>, num_primitive_operations = #vhlo.type_v1<!vhlo.none_v1>, precision_config = #vhlo.array_v1<[#vhlo<precision_v1 DEFAULT>, #vhlo<precision_v1 DEFAULT>]>, rhs_batching_dimensions = #vhlo.tensor_v1<dense<> : tensor<0xi64>>, rhs_component_count = #vhlo.type_v1<!vhlo.none_v1>, rhs_contracting_dimensions = #vhlo.tensor_v1<dense<0> : tensor<1xi64>>, rhs_precision_type = #vhlo.type_v1<!vhlo.none_v1>}> : (!vhlo.tensor_v1<7x3072x!vhlo.bf16_v1>, !vhlo.tensor_v1<3072x1024x!vhlo.bf16_v1>) -> !vhlo.tensor_v1<7x1024x!vhlo.bf16_v1>
    %311 = "vhlo.reshape_v1"(%310) : (!vhlo.tensor_v1<7x1024x!vhlo.bf16_v1>) -> !vhlo.tensor_v1<1x7x8x128x!vhlo.bf16_v1>
    %312 = "vhlo.transpose_v1"(%311) <{permutation = #vhlo.tensor_v1<dense<[0, 2, 1, 3]> : tensor<4xi64>>}> {result_layout = #vhlo.tensor_v1<dense<[3, 1, 2, 0]> : tensor<4xindex>>, xla_shape = #vhlo.string_v1<"bf16[1,8,7,128]{3,1,2,0}">} : (!vhlo.tensor_v1<1x7x8x128x!vhlo.bf16_v1>) -> !vhlo.tensor_v1<1x8x7x128x!vhlo.bf16_v1>
    %313 = "vhlo.convert_v1"(%312) {result_layout = #vhlo.tensor_v1<dense<[3, 1, 2, 0]> : tensor<4xindex>>, xla_shape = #vhlo.string_v1<"f32[1,8,7,128]{3,1,2,0}">} : (!vhlo.tensor_v1<1x8x7x128x!vhlo.bf16_v1>) -> !vhlo.tensor_v1<1x8x7x128x!vhlo.f32_v1>
    %314 = "vhlo.multiply_v1"(%313, %49) : (!vhlo.tensor_v1<1x8x7x128x!vhlo.f32_v1>, !vhlo.tensor_v1<1x8x7x128x!vhlo.f32_v1>) -> !vhlo.tensor_v1<1x8x7x128x!vhlo.f32_v1>
    %315 = "vhlo.convert_v1"(%314) : (!vhlo.tensor_v1<1x8x7x128x!vhlo.f32_v1>) -> !vhlo.tensor_v1<1x8x7x128x!vhlo.bf16_v1>
    %316 = "vhlo.slice_v1"(%312) <{limit_indices = #vhlo.tensor_v1<dense<[1, 8, 7, 128]> : tensor<4xi64>>, start_indices = #vhlo.tensor_v1<dense<[0, 0, 0, 64]> : tensor<4xi64>>, strides = #vhlo.tensor_v1<dense<1> : tensor<4xi64>>}> : (!vhlo.tensor_v1<1x8x7x128x!vhlo.bf16_v1>) -> !vhlo.tensor_v1<1x8x7x64x!vhlo.bf16_v1>
    %317 = "vhlo.negate_v1"(%316) : (!vhlo.tensor_v1<1x8x7x64x!vhlo.bf16_v1>) -> !vhlo.tensor_v1<1x8x7x64x!vhlo.bf16_v1>
    %318 = "vhlo.slice_v1"(%312) <{limit_indices = #vhlo.tensor_v1<dense<[1, 8, 7, 64]> : tensor<4xi64>>, start_indices = #vhlo.tensor_v1<dense<0> : tensor<4xi64>>, strides = #vhlo.tensor_v1<dense<1> : tensor<4xi64>>}> : (!vhlo.tensor_v1<1x8x7x128x!vhlo.bf16_v1>) -> !vhlo.tensor_v1<1x8x7x64x!vhlo.bf16_v1>
    %319 = "vhlo.concatenate_v1"(%317, %318) <{dimension = #vhlo.integer_v1<3 : i64>}> : (!vhlo.tensor_v1<1x8x7x64x!vhlo.bf16_v1>, !vhlo.tensor_v1<1x8x7x64x!vhlo.bf16_v1>) -> !vhlo.tensor_v1<1x8x7x128x!vhlo.bf16_v1>
    %320 = "vhlo.convert_v1"(%319) : (!vhlo.tensor_v1<1x8x7x128x!vhlo.bf16_v1>) -> !vhlo.tensor_v1<1x8x7x128x!vhlo.f32_v1>
    %321 = "vhlo.multiply_v1"(%320, %62) : (!vhlo.tensor_v1<1x8x7x128x!vhlo.f32_v1>, !vhlo.tensor_v1<1x8x7x128x!vhlo.f32_v1>) -> !vhlo.tensor_v1<1x8x7x128x!vhlo.f32_v1>
    %322 = "vhlo.convert_v1"(%321) : (!vhlo.tensor_v1<1x8x7x128x!vhlo.f32_v1>) -> !vhlo.tensor_v1<1x8x7x128x!vhlo.bf16_v1>
    %323 = "vhlo.add_v1"(%315, %322) : (!vhlo.tensor_v1<1x8x7x128x!vhlo.bf16_v1>, !vhlo.tensor_v1<1x8x7x128x!vhlo.bf16_v1>) -> !vhlo.tensor_v1<1x8x7x128x!vhlo.bf16_v1>
    %324 = "vhlo.scatter_v2"(%arg33, %10, %323) <{index_vector_dim = #vhlo.integer_v1<1 : i64>, indices_are_sorted = #vhlo.bool_v1<false>, input_batching_dims = #vhlo.tensor_v1<dense<> : tensor<0xi64>>, inserted_window_dims = #vhlo.tensor_v1<dense<2> : tensor<1xi64>>, scatter_dims_to_operand_dims = #vhlo.tensor_v1<dense<2> : tensor<1xi64>>, scatter_indices_batching_dims = #vhlo.tensor_v1<dense<> : tensor<0xi64>>, unique_indices = #vhlo.bool_v1<false>, update_window_dims = #vhlo.tensor_v1<dense<[0, 1, 3]> : tensor<3xi64>>}> ({
    ^bb0(%arg54: !vhlo.tensor_v1<!vhlo.bf16_v1>, %arg55: !vhlo.tensor_v1<!vhlo.bf16_v1>):
      "vhlo.return_v1"(%arg55) : (!vhlo.tensor_v1<!vhlo.bf16_v1>) -> ()
    }) : (!vhlo.tensor_v1<1x8x128x128x!vhlo.bf16_v1>, !vhlo.tensor_v1<7x1x!vhlo.i64_v1>, !vhlo.tensor_v1<1x8x7x128x!vhlo.bf16_v1>) -> !vhlo.tensor_v1<1x8x128x128x!vhlo.bf16_v1>
    %325 = "vhlo.custom_call_v1"(%324) <{api_version = #vhlo<api_version_v1 API_VERSION_ORIGINAL>, backend_config = #vhlo.string_v1<"">, call_target_name = #vhlo.string_v1<"Sharding">, called_computations = #vhlo.array_v1<[]>, has_side_effect = #vhlo.bool_v1<false>, operand_layouts = #vhlo.array_v1<[]>, output_operand_aliases = #vhlo.array_v1<[]>, result_layouts = #vhlo.array_v1<[]>}> {mhlo.frontend_attributes = #vhlo.dict_v1<{#vhlo.string_v1<"xla.sdy.sharding"> = #vhlo.string_v1<"#sdy.sharding_per_value<[<@mesh, [{}, {\22_axis_0\22}, {}, {}]>]>">}>, mhlo.sharding = #vhlo.string_v1<"{devices=[1,2,1,1]<=[2]}">} : (!vhlo.tensor_v1<1x8x128x128x!vhlo.bf16_v1>) -> !vhlo.tensor_v1<1x8x128x128x!vhlo.bf16_v1>
    %326 = "vhlo.transpose_v1"(%arg34) <{permutation = #vhlo.tensor_v1<dense<[1, 0]> : tensor<2xi64>>}> {result_layout = #vhlo.tensor_v1<dense<[0, 1]> : tensor<2xindex>>, xla_shape = #vhlo.string_v1<"bf16[3072,1024]{0,1}">} : (!vhlo.tensor_v1<1024x3072x!vhlo.bf16_v1>) -> !vhlo.tensor_v1<3072x1024x!vhlo.bf16_v1>
    %327 = "vhlo.dot_general_v2"(%308, %326) <{accumulation_type = #vhlo.type_v1<!vhlo.none_v1>, allow_imprecise_accumulation = #vhlo.type_v1<!vhlo.none_v1>, lhs_batching_dimensions = #vhlo.tensor_v1<dense<> : tensor<0xi64>>, lhs_component_count = #vhlo.type_v1<!vhlo.none_v1>, lhs_contracting_dimensions = #vhlo.tensor_v1<dense<1> : tensor<1xi64>>, lhs_precision_type = #vhlo.type_v1<!vhlo.none_v1>, num_primitive_operations = #vhlo.type_v1<!vhlo.none_v1>, precision_config = #vhlo.array_v1<[#vhlo<precision_v1 DEFAULT>, #vhlo<precision_v1 DEFAULT>]>, rhs_batching_dimensions = #vhlo.tensor_v1<dense<> : tensor<0xi64>>, rhs_component_count = #vhlo.type_v1<!vhlo.none_v1>, rhs_contracting_dimensions = #vhlo.tensor_v1<dense<0> : tensor<1xi64>>, rhs_precision_type = #vhlo.type_v1<!vhlo.none_v1>}> : (!vhlo.tensor_v1<7x3072x!vhlo.bf16_v1>, !vhlo.tensor_v1<3072x1024x!vhlo.bf16_v1>) -> !vhlo.tensor_v1<7x1024x!vhlo.bf16_v1>
    %328 = "vhlo.reshape_v1"(%327) : (!vhlo.tensor_v1<7x1024x!vhlo.bf16_v1>) -> !vhlo.tensor_v1<1x7x8x128x!vhlo.bf16_v1>
    %329 = "vhlo.transpose_v1"(%328) <{permutation = #vhlo.tensor_v1<dense<[0, 2, 1, 3]> : tensor<4xi64>>}> {result_layout = #vhlo.tensor_v1<dense<[3, 1, 2, 0]> : tensor<4xindex>>, xla_shape = #vhlo.string_v1<"bf16[1,8,7,128]{3,1,2,0}">} : (!vhlo.tensor_v1<1x7x8x128x!vhlo.bf16_v1>) -> !vhlo.tensor_v1<1x8x7x128x!vhlo.bf16_v1>
    %330 = "vhlo.scatter_v2"(%arg35, %10, %329) <{index_vector_dim = #vhlo.integer_v1<1 : i64>, indices_are_sorted = #vhlo.bool_v1<false>, input_batching_dims = #vhlo.tensor_v1<dense<> : tensor<0xi64>>, inserted_window_dims = #vhlo.tensor_v1<dense<2> : tensor<1xi64>>, scatter_dims_to_operand_dims = #vhlo.tensor_v1<dense<2> : tensor<1xi64>>, scatter_indices_batching_dims = #vhlo.tensor_v1<dense<> : tensor<0xi64>>, unique_indices = #vhlo.bool_v1<false>, update_window_dims = #vhlo.tensor_v1<dense<[0, 1, 3]> : tensor<3xi64>>}> ({
    ^bb0(%arg54: !vhlo.tensor_v1<!vhlo.bf16_v1>, %arg55: !vhlo.tensor_v1<!vhlo.bf16_v1>):
      "vhlo.return_v1"(%arg55) : (!vhlo.tensor_v1<!vhlo.bf16_v1>) -> ()
    }) : (!vhlo.tensor_v1<1x8x128x128x!vhlo.bf16_v1>, !vhlo.tensor_v1<7x1x!vhlo.i64_v1>, !vhlo.tensor_v1<1x8x7x128x!vhlo.bf16_v1>) -> !vhlo.tensor_v1<1x8x128x128x!vhlo.bf16_v1>
    %331 = "vhlo.custom_call_v1"(%330) <{api_version = #vhlo<api_version_v1 API_VERSION_ORIGINAL>, backend_config = #vhlo.string_v1<"">, call_target_name = #vhlo.string_v1<"Sharding">, called_computations = #vhlo.array_v1<[]>, has_side_effect = #vhlo.bool_v1<false>, operand_layouts = #vhlo.array_v1<[]>, output_operand_aliases = #vhlo.array_v1<[]>, result_layouts = #vhlo.array_v1<[]>}> {mhlo.frontend_attributes = #vhlo.dict_v1<{#vhlo.string_v1<"xla.sdy.sharding"> = #vhlo.string_v1<"#sdy.sharding_per_value<[<@mesh, [{}, {\22_axis_0\22}, {}, {}]>]>">}>, mhlo.sharding = #vhlo.string_v1<"{devices=[1,2,1,1]<=[2]}">} : (!vhlo.tensor_v1<1x8x128x128x!vhlo.bf16_v1>) -> !vhlo.tensor_v1<1x8x128x128x!vhlo.bf16_v1>
    %332 = "vhlo.convert_v1"(%arg43) : (!vhlo.tensor_v1<3072x!vhlo.bf16_v1>) -> !vhlo.tensor_v1<3072x!vhlo.f32_v1>
    %333 = "vhlo.broadcast_in_dim_v1"(%332) <{broadcast_dimensions = #vhlo.tensor_v1<dense<2> : tensor<1xi64>>}> : (!vhlo.tensor_v1<3072x!vhlo.f32_v1>) -> !vhlo.tensor_v1<1x7x3072x!vhlo.f32_v1>
    %334 = "vhlo.transpose_v1"(%arg40) <{permutation = #vhlo.tensor_v1<dense<[1, 0]> : tensor<2xi64>>}> {result_layout = #vhlo.tensor_v1<dense<[0, 1]> : tensor<2xindex>>, xla_shape = #vhlo.string_v1<"bf16[3072,3072]{0,1}">} : (!vhlo.tensor_v1<3072x3072x!vhlo.bf16_v1>) -> !vhlo.tensor_v1<3072x3072x!vhlo.bf16_v1>
    %335 = "vhlo.dot_general_v2"(%308, %334) <{accumulation_type = #vhlo.type_v1<!vhlo.none_v1>, allow_imprecise_accumulation = #vhlo.type_v1<!vhlo.none_v1>, lhs_batching_dimensions = #vhlo.tensor_v1<dense<> : tensor<0xi64>>, lhs_component_count = #vhlo.type_v1<!vhlo.none_v1>, lhs_contracting_dimensions = #vhlo.tensor_v1<dense<1> : tensor<1xi64>>, lhs_precision_type = #vhlo.type_v1<!vhlo.none_v1>, num_primitive_operations = #vhlo.type_v1<!vhlo.none_v1>, precision_config = #vhlo.array_v1<[#vhlo<precision_v1 DEFAULT>, #vhlo<precision_v1 DEFAULT>]>, rhs_batching_dimensions = #vhlo.tensor_v1<dense<> : tensor<0xi64>>, rhs_component_count = #vhlo.type_v1<!vhlo.none_v1>, rhs_contracting_dimensions = #vhlo.tensor_v1<dense<0> : tensor<1xi64>>, rhs_precision_type = #vhlo.type_v1<!vhlo.none_v1>}> : (!vhlo.tensor_v1<7x3072x!vhlo.bf16_v1>, !vhlo.tensor_v1<3072x3072x!vhlo.bf16_v1>) -> !vhlo.tensor_v1<7x3072x!vhlo.bf16_v1>
    %336 = "vhlo.reshape_v1"(%335) : (!vhlo.tensor_v1<7x3072x!vhlo.bf16_v1>) -> !vhlo.tensor_v1<1x7x24x128x!vhlo.bf16_v1>
    %337 = "vhlo.transpose_v1"(%336) <{permutation = #vhlo.tensor_v1<dense<[0, 2, 1, 3]> : tensor<4xi64>>}> {result_layout = #vhlo.tensor_v1<dense<[3, 1, 2, 0]> : tensor<4xindex>>, xla_shape = #vhlo.string_v1<"bf16[1,24,7,128]{3,1,2,0}">} : (!vhlo.tensor_v1<1x7x24x128x!vhlo.bf16_v1>) -> !vhlo.tensor_v1<1x24x7x128x!vhlo.bf16_v1>
    %338 = "vhlo.convert_v1"(%337) {result_layout = #vhlo.tensor_v1<dense<[3, 1, 2, 0]> : tensor<4xindex>>, xla_shape = #vhlo.string_v1<"f32[1,24,7,128]{3,1,2,0}">} : (!vhlo.tensor_v1<1x24x7x128x!vhlo.bf16_v1>) -> !vhlo.tensor_v1<1x24x7x128x!vhlo.f32_v1>
    %339 = "vhlo.multiply_v1"(%338, %81) : (!vhlo.tensor_v1<1x24x7x128x!vhlo.f32_v1>, !vhlo.tensor_v1<1x24x7x128x!vhlo.f32_v1>) -> !vhlo.tensor_v1<1x24x7x128x!vhlo.f32_v1>
    %340 = "vhlo.convert_v1"(%339) : (!vhlo.tensor_v1<1x24x7x128x!vhlo.f32_v1>) -> !vhlo.tensor_v1<1x24x7x128x!vhlo.bf16_v1>
    %341 = "vhlo.slice_v1"(%337) <{limit_indices = #vhlo.tensor_v1<dense<[1, 24, 7, 128]> : tensor<4xi64>>, start_indices = #vhlo.tensor_v1<dense<[0, 0, 0, 64]> : tensor<4xi64>>, strides = #vhlo.tensor_v1<dense<1> : tensor<4xi64>>}> : (!vhlo.tensor_v1<1x24x7x128x!vhlo.bf16_v1>) -> !vhlo.tensor_v1<1x24x7x64x!vhlo.bf16_v1>
    %342 = "vhlo.negate_v1"(%341) : (!vhlo.tensor_v1<1x24x7x64x!vhlo.bf16_v1>) -> !vhlo.tensor_v1<1x24x7x64x!vhlo.bf16_v1>
    %343 = "vhlo.slice_v1"(%337) <{limit_indices = #vhlo.tensor_v1<dense<[1, 24, 7, 64]> : tensor<4xi64>>, start_indices = #vhlo.tensor_v1<dense<0> : tensor<4xi64>>, strides = #vhlo.tensor_v1<dense<1> : tensor<4xi64>>}> : (!vhlo.tensor_v1<1x24x7x128x!vhlo.bf16_v1>) -> !vhlo.tensor_v1<1x24x7x64x!vhlo.bf16_v1>
    %344 = "vhlo.concatenate_v1"(%342, %343) <{dimension = #vhlo.integer_v1<3 : i64>}> : (!vhlo.tensor_v1<1x24x7x64x!vhlo.bf16_v1>, !vhlo.tensor_v1<1x24x7x64x!vhlo.bf16_v1>) -> !vhlo.tensor_v1<1x24x7x128x!vhlo.bf16_v1>
    %345 = "vhlo.convert_v1"(%344) : (!vhlo.tensor_v1<1x24x7x128x!vhlo.bf16_v1>) -> !vhlo.tensor_v1<1x24x7x128x!vhlo.f32_v1>
    %346 = "vhlo.multiply_v1"(%345, %89) : (!vhlo.tensor_v1<1x24x7x128x!vhlo.f32_v1>, !vhlo.tensor_v1<1x24x7x128x!vhlo.f32_v1>) -> !vhlo.tensor_v1<1x24x7x128x!vhlo.f32_v1>
    %347 = "vhlo.convert_v1"(%346) : (!vhlo.tensor_v1<1x24x7x128x!vhlo.f32_v1>) -> !vhlo.tensor_v1<1x24x7x128x!vhlo.bf16_v1>
    %348 = "vhlo.add_v1"(%340, %347) : (!vhlo.tensor_v1<1x24x7x128x!vhlo.bf16_v1>, !vhlo.tensor_v1<1x24x7x128x!vhlo.bf16_v1>) -> !vhlo.tensor_v1<1x24x7x128x!vhlo.bf16_v1>
    %349 = "vhlo.reshape_v1"(%348) : (!vhlo.tensor_v1<1x24x7x128x!vhlo.bf16_v1>) -> !vhlo.tensor_v1<24x7x128x!vhlo.bf16_v1>
    %350 = "vhlo.broadcast_in_dim_v1"(%324) <{broadcast_dimensions = #vhlo.tensor_v1<dense<[0, 1, 3, 4]> : tensor<4xi64>>}> : (!vhlo.tensor_v1<1x8x128x128x!vhlo.bf16_v1>) -> !vhlo.tensor_v1<1x8x3x128x128x!vhlo.bf16_v1>
    %351 = "vhlo.reshape_v1"(%350) : (!vhlo.tensor_v1<1x8x3x128x128x!vhlo.bf16_v1>) -> !vhlo.tensor_v1<1x24x128x128x!vhlo.bf16_v1>
    %352 = "vhlo.transpose_v1"(%351) <{permutation = #vhlo.tensor_v1<dense<[0, 1, 3, 2]> : tensor<4xi64>>}> {result_layout = #vhlo.tensor_v1<dense<[2, 3, 1, 0]> : tensor<4xindex>>, xla_shape = #vhlo.string_v1<"bf16[1,24,128,128]{2,3,1,0}">} : (!vhlo.tensor_v1<1x24x128x128x!vhlo.bf16_v1>) -> !vhlo.tensor_v1<1x24x128x128x!vhlo.bf16_v1>
    %353 = "vhlo.reshape_v1"(%352) : (!vhlo.tensor_v1<1x24x128x128x!vhlo.bf16_v1>) -> !vhlo.tensor_v1<24x128x128x!vhlo.bf16_v1>
    %354 = "vhlo.dot_general_v2"(%349, %353) <{accumulation_type = #vhlo.type_v1<!vhlo.none_v1>, allow_imprecise_accumulation = #vhlo.type_v1<!vhlo.none_v1>, lhs_batching_dimensions = #vhlo.tensor_v1<dense<0> : tensor<1xi64>>, lhs_component_count = #vhlo.type_v1<!vhlo.none_v1>, lhs_contracting_dimensions = #vhlo.tensor_v1<dense<2> : tensor<1xi64>>, lhs_precision_type = #vhlo.type_v1<!vhlo.none_v1>, num_primitive_operations = #vhlo.type_v1<!vhlo.none_v1>, precision_config = #vhlo.array_v1<[#vhlo<precision_v1 DEFAULT>, #vhlo<precision_v1 DEFAULT>]>, rhs_batching_dimensions = #vhlo.tensor_v1<dense<0> : tensor<1xi64>>, rhs_component_count = #vhlo.type_v1<!vhlo.none_v1>, rhs_contracting_dimensions = #vhlo.tensor_v1<dense<1> : tensor<1xi64>>, rhs_precision_type = #vhlo.type_v1<!vhlo.none_v1>}> : (!vhlo.tensor_v1<24x7x128x!vhlo.bf16_v1>, !vhlo.tensor_v1<24x128x128x!vhlo.bf16_v1>) -> !vhlo.tensor_v1<24x7x128x!vhlo.bf16_v1>
    %355 = "vhlo.reshape_v1"(%354) : (!vhlo.tensor_v1<24x7x128x!vhlo.bf16_v1>) -> !vhlo.tensor_v1<1x24x7x128x!vhlo.bf16_v1>
    %356 = "vhlo.convert_v1"(%355) : (!vhlo.tensor_v1<1x24x7x128x!vhlo.bf16_v1>) -> !vhlo.tensor_v1<1x24x7x128x!vhlo.f32_v1>
    %357 = "vhlo.multiply_v1"(%356, %101) : (!vhlo.tensor_v1<1x24x7x128x!vhlo.f32_v1>, !vhlo.tensor_v1<1x24x7x128x!vhlo.f32_v1>) -> !vhlo.tensor_v1<1x24x7x128x!vhlo.f32_v1>
    %358 = "vhlo.convert_v1"(%357) : (!vhlo.tensor_v1<1x24x7x128x!vhlo.f32_v1>) -> !vhlo.tensor_v1<1x24x7x128x!vhlo.bf16_v1>
    %359 = "vhlo.add_v1"(%358, %112) : (!vhlo.tensor_v1<1x24x7x128x!vhlo.bf16_v1>, !vhlo.tensor_v1<1x24x7x128x!vhlo.bf16_v1>) -> !vhlo.tensor_v1<1x24x7x128x!vhlo.bf16_v1>
    %360 = "vhlo.convert_v1"(%359) : (!vhlo.tensor_v1<1x24x7x128x!vhlo.bf16_v1>) -> !vhlo.tensor_v1<1x24x7x128x!vhlo.f32_v1>
    %361 = "vhlo.reduce_v1"(%360, %2) <{dimensions = #vhlo.tensor_v1<dense<3> : tensor<1xi64>>}> ({
    ^bb0(%arg54: !vhlo.tensor_v1<!vhlo.f32_v1>, %arg55: !vhlo.tensor_v1<!vhlo.f32_v1>):
      %558 = "vhlo.maximum_v1"(%arg54, %arg55) : (!vhlo.tensor_v1<!vhlo.f32_v1>, !vhlo.tensor_v1<!vhlo.f32_v1>) -> !vhlo.tensor_v1<!vhlo.f32_v1>
      "vhlo.return_v1"(%558) : (!vhlo.tensor_v1<!vhlo.f32_v1>) -> ()
    }) : (!vhlo.tensor_v1<1x24x7x128x!vhlo.f32_v1>, !vhlo.tensor_v1<!vhlo.f32_v1>) -> !vhlo.tensor_v1<1x24x7x!vhlo.f32_v1>
    %362 = "vhlo.broadcast_in_dim_v1"(%361) <{broadcast_dimensions = #vhlo.tensor_v1<dense<[0, 1, 2]> : tensor<3xi64>>}> : (!vhlo.tensor_v1<1x24x7x!vhlo.f32_v1>) -> !vhlo.tensor_v1<1x24x7x128x!vhlo.f32_v1>
    %363 = "vhlo.subtract_v1"(%360, %362) : (!vhlo.tensor_v1<1x24x7x128x!vhlo.f32_v1>, !vhlo.tensor_v1<1x24x7x128x!vhlo.f32_v1>) -> !vhlo.tensor_v1<1x24x7x128x!vhlo.f32_v1>
    %364 = "vhlo.exponential_v2"(%363) <{result_accuracy = #vhlo.result_accuracy_v1<atol = 0.000000e+00, rtol = 0.000000e+00, ulps = 0, mode = #vhlo<result_accuracy_mode_v1 DEFAULT>>}> : (!vhlo.tensor_v1<1x24x7x128x!vhlo.f32_v1>) -> !vhlo.tensor_v1<1x24x7x128x!vhlo.f32_v1>
    %365 = "vhlo.reduce_v1"(%364, %1) <{dimensions = #vhlo.tensor_v1<dense<3> : tensor<1xi64>>}> ({
    ^bb0(%arg54: !vhlo.tensor_v1<!vhlo.f32_v1>, %arg55: !vhlo.tensor_v1<!vhlo.f32_v1>):
      %558 = "vhlo.add_v1"(%arg54, %arg55) : (!vhlo.tensor_v1<!vhlo.f32_v1>, !vhlo.tensor_v1<!vhlo.f32_v1>) -> !vhlo.tensor_v1<!vhlo.f32_v1>
      "vhlo.return_v1"(%558) : (!vhlo.tensor_v1<!vhlo.f32_v1>) -> ()
    }) : (!vhlo.tensor_v1<1x24x7x128x!vhlo.f32_v1>, !vhlo.tensor_v1<!vhlo.f32_v1>) -> !vhlo.tensor_v1<1x24x7x!vhlo.f32_v1>
    %366 = "vhlo.broadcast_in_dim_v1"(%365) <{broadcast_dimensions = #vhlo.tensor_v1<dense<[0, 1, 2]> : tensor<3xi64>>}> : (!vhlo.tensor_v1<1x24x7x!vhlo.f32_v1>) -> !vhlo.tensor_v1<1x24x7x128x!vhlo.f32_v1>
    %367 = "vhlo.divide_v1"(%364, %366) : (!vhlo.tensor_v1<1x24x7x128x!vhlo.f32_v1>, !vhlo.tensor_v1<1x24x7x128x!vhlo.f32_v1>) -> !vhlo.tensor_v1<1x24x7x128x!vhlo.f32_v1>
    %368 = "vhlo.convert_v1"(%367) : (!vhlo.tensor_v1<1x24x7x128x!vhlo.f32_v1>) -> !vhlo.tensor_v1<1x24x7x128x!vhlo.bf16_v1>
    %369 = "vhlo.reshape_v1"(%368) : (!vhlo.tensor_v1<1x24x7x128x!vhlo.bf16_v1>) -> !vhlo.tensor_v1<24x7x128x!vhlo.bf16_v1>
    %370 = "vhlo.broadcast_in_dim_v1"(%330) <{broadcast_dimensions = #vhlo.tensor_v1<dense<[0, 1, 3, 4]> : tensor<4xi64>>}> : (!vhlo.tensor_v1<1x8x128x128x!vhlo.bf16_v1>) -> !vhlo.tensor_v1<1x8x3x128x128x!vhlo.bf16_v1>
    %371 = "vhlo.reshape_v1"(%370) : (!vhlo.tensor_v1<1x8x3x128x128x!vhlo.bf16_v1>) -> !vhlo.tensor_v1<24x128x128x!vhlo.bf16_v1>
    %372 = "vhlo.dot_general_v2"(%369, %371) <{accumulation_type = #vhlo.type_v1<!vhlo.none_v1>, allow_imprecise_accumulation = #vhlo.type_v1<!vhlo.none_v1>, lhs_batching_dimensions = #vhlo.tensor_v1<dense<0> : tensor<1xi64>>, lhs_component_count = #vhlo.type_v1<!vhlo.none_v1>, lhs_contracting_dimensions = #vhlo.tensor_v1<dense<2> : tensor<1xi64>>, lhs_precision_type = #vhlo.type_v1<!vhlo.none_v1>, num_primitive_operations = #vhlo.type_v1<!vhlo.none_v1>, precision_config = #vhlo.array_v1<[#vhlo<precision_v1 DEFAULT>, #vhlo<precision_v1 DEFAULT>]>, rhs_batching_dimensions = #vhlo.tensor_v1<dense<0> : tensor<1xi64>>, rhs_component_count = #vhlo.type_v1<!vhlo.none_v1>, rhs_contracting_dimensions = #vhlo.tensor_v1<dense<1> : tensor<1xi64>>, rhs_precision_type = #vhlo.type_v1<!vhlo.none_v1>}> : (!vhlo.tensor_v1<24x7x128x!vhlo.bf16_v1>, !vhlo.tensor_v1<24x128x128x!vhlo.bf16_v1>) -> !vhlo.tensor_v1<24x7x128x!vhlo.bf16_v1>
    %373 = "vhlo.reshape_v1"(%372) : (!vhlo.tensor_v1<24x7x128x!vhlo.bf16_v1>) -> !vhlo.tensor_v1<1x24x7x128x!vhlo.bf16_v1>
    %374 = "vhlo.transpose_v1"(%373) <{permutation = #vhlo.tensor_v1<dense<[0, 2, 1, 3]> : tensor<4xi64>>}> {result_layout = #vhlo.tensor_v1<dense<[3, 1, 2, 0]> : tensor<4xindex>>, xla_shape = #vhlo.string_v1<"bf16[1,7,24,128]{3,1,2,0}">} : (!vhlo.tensor_v1<1x24x7x128x!vhlo.bf16_v1>) -> !vhlo.tensor_v1<1x7x24x128x!vhlo.bf16_v1>
    %375 = "vhlo.reshape_v1"(%374) : (!vhlo.tensor_v1<1x7x24x128x!vhlo.bf16_v1>) -> !vhlo.tensor_v1<7x3072x!vhlo.bf16_v1>
    %376 = "vhlo.transpose_v1"(%arg39) <{permutation = #vhlo.tensor_v1<dense<[1, 0]> : tensor<2xi64>>}> {result_layout = #vhlo.tensor_v1<dense<[0, 1]> : tensor<2xindex>>, xla_shape = #vhlo.string_v1<"bf16[3072,3072]{0,1}">} : (!vhlo.tensor_v1<3072x3072x!vhlo.bf16_v1>) -> !vhlo.tensor_v1<3072x3072x!vhlo.bf16_v1>
    %377 = "vhlo.dot_general_v2"(%375, %376) <{accumulation_type = #vhlo.type_v1<!vhlo.none_v1>, allow_imprecise_accumulation = #vhlo.type_v1<!vhlo.none_v1>, lhs_batching_dimensions = #vhlo.tensor_v1<dense<> : tensor<0xi64>>, lhs_component_count = #vhlo.type_v1<!vhlo.none_v1>, lhs_contracting_dimensions = #vhlo.tensor_v1<dense<1> : tensor<1xi64>>, lhs_precision_type = #vhlo.type_v1<!vhlo.none_v1>, num_primitive_operations = #vhlo.type_v1<!vhlo.none_v1>, precision_config = #vhlo.array_v1<[#vhlo<precision_v1 DEFAULT>, #vhlo<precision_v1 DEFAULT>]>, rhs_batching_dimensions = #vhlo.tensor_v1<dense<> : tensor<0xi64>>, rhs_component_count = #vhlo.type_v1<!vhlo.none_v1>, rhs_contracting_dimensions = #vhlo.tensor_v1<dense<0> : tensor<1xi64>>, rhs_precision_type = #vhlo.type_v1<!vhlo.none_v1>}> : (!vhlo.tensor_v1<7x3072x!vhlo.bf16_v1>, !vhlo.tensor_v1<3072x3072x!vhlo.bf16_v1>) -> !vhlo.tensor_v1<7x3072x!vhlo.bf16_v1>
    %378 = "vhlo.reshape_v1"(%377) : (!vhlo.tensor_v1<7x3072x!vhlo.bf16_v1>) -> !vhlo.tensor_v1<1x7x3072x!vhlo.bf16_v1>
    %379 = "vhlo.add_v1"(%293, %378) : (!vhlo.tensor_v1<1x7x3072x!vhlo.bf16_v1>, !vhlo.tensor_v1<1x7x3072x!vhlo.bf16_v1>) -> !vhlo.tensor_v1<1x7x3072x!vhlo.bf16_v1>
    %380 = "vhlo.convert_v1"(%arg41) : (!vhlo.tensor_v1<3072x!vhlo.bf16_v1>) -> !vhlo.tensor_v1<3072x!vhlo.f32_v1>
    %381 = "vhlo.broadcast_in_dim_v1"(%380) <{broadcast_dimensions = #vhlo.tensor_v1<dense<2> : tensor<1xi64>>}> : (!vhlo.tensor_v1<3072x!vhlo.f32_v1>) -> !vhlo.tensor_v1<1x7x3072x!vhlo.f32_v1>
    %382 = "vhlo.convert_v1"(%379) : (!vhlo.tensor_v1<1x7x3072x!vhlo.bf16_v1>) -> !vhlo.tensor_v1<1x7x3072x!vhlo.f32_v1>
    %383 = "vhlo.power_v1"(%382, %5) : (!vhlo.tensor_v1<1x7x3072x!vhlo.f32_v1>, !vhlo.tensor_v1<1x7x3072x!vhlo.f32_v1>) -> !vhlo.tensor_v1<1x7x3072x!vhlo.f32_v1>
    %384 = "vhlo.reduce_v1"(%383, %1) <{dimensions = #vhlo.tensor_v1<dense<2> : tensor<1xi64>>}> ({
    ^bb0(%arg54: !vhlo.tensor_v1<!vhlo.f32_v1>, %arg55: !vhlo.tensor_v1<!vhlo.f32_v1>):
      %558 = "vhlo.add_v1"(%arg54, %arg55) : (!vhlo.tensor_v1<!vhlo.f32_v1>, !vhlo.tensor_v1<!vhlo.f32_v1>) -> !vhlo.tensor_v1<!vhlo.f32_v1>
      "vhlo.return_v1"(%558) : (!vhlo.tensor_v1<!vhlo.f32_v1>) -> ()
    }) : (!vhlo.tensor_v1<1x7x3072x!vhlo.f32_v1>, !vhlo.tensor_v1<!vhlo.f32_v1>) -> !vhlo.tensor_v1<1x7x!vhlo.f32_v1>
    %385 = "vhlo.multiply_v1"(%384, %3) : (!vhlo.tensor_v1<1x7x!vhlo.f32_v1>, !vhlo.tensor_v1<1x7x!vhlo.f32_v1>) -> !vhlo.tensor_v1<1x7x!vhlo.f32_v1>
    %386 = "vhlo.reshape_v1"(%385) : (!vhlo.tensor_v1<1x7x!vhlo.f32_v1>) -> !vhlo.tensor_v1<1x7x1x!vhlo.f32_v1>
    %387 = "vhlo.add_v1"(%386, %22) : (!vhlo.tensor_v1<1x7x1x!vhlo.f32_v1>, !vhlo.tensor_v1<1x7x1x!vhlo.f32_v1>) -> !vhlo.tensor_v1<1x7x1x!vhlo.f32_v1>
    %388 = "vhlo.rsqrt_v2"(%387) <{result_accuracy = #vhlo.result_accuracy_v1<atol = 0.000000e+00, rtol = 0.000000e+00, ulps = 0, mode = #vhlo<result_accuracy_mode_v1 DEFAULT>>}> : (!vhlo.tensor_v1<1x7x1x!vhlo.f32_v1>) -> !vhlo.tensor_v1<1x7x1x!vhlo.f32_v1>
    %389 = "vhlo.reshape_v1"(%388) : (!vhlo.tensor_v1<1x7x1x!vhlo.f32_v1>) -> !vhlo.tensor_v1<1x7x!vhlo.f32_v1>
    %390 = "vhlo.broadcast_in_dim_v1"(%389) <{broadcast_dimensions = #vhlo.tensor_v1<dense<[0, 1]> : tensor<2xi64>>}> : (!vhlo.tensor_v1<1x7x!vhlo.f32_v1>) -> !vhlo.tensor_v1<1x7x3072x!vhlo.f32_v1>
    %391 = "vhlo.multiply_v1"(%382, %390) : (!vhlo.tensor_v1<1x7x3072x!vhlo.f32_v1>, !vhlo.tensor_v1<1x7x3072x!vhlo.f32_v1>) -> !vhlo.tensor_v1<1x7x3072x!vhlo.f32_v1>
    %392 = "vhlo.convert_v1"(%391) : (!vhlo.tensor_v1<1x7x3072x!vhlo.f32_v1>) -> !vhlo.tensor_v1<1x7x3072x!vhlo.bf16_v1>
    %393 = "vhlo.convert_v1"(%392) : (!vhlo.tensor_v1<1x7x3072x!vhlo.bf16_v1>) -> !vhlo.tensor_v1<1x7x3072x!vhlo.f32_v1>
    %394 = "vhlo.multiply_v1"(%381, %393) : (!vhlo.tensor_v1<1x7x3072x!vhlo.f32_v1>, !vhlo.tensor_v1<1x7x3072x!vhlo.f32_v1>) -> !vhlo.tensor_v1<1x7x3072x!vhlo.f32_v1>
    %395 = "vhlo.convert_v1"(%394) : (!vhlo.tensor_v1<1x7x3072x!vhlo.f32_v1>) -> !vhlo.tensor_v1<1x7x3072x!vhlo.bf16_v1>
    %396 = "vhlo.reshape_v1"(%395) : (!vhlo.tensor_v1<1x7x3072x!vhlo.bf16_v1>) -> !vhlo.tensor_v1<7x3072x!vhlo.bf16_v1>
    %397 = "vhlo.transpose_v1"(%arg42) <{permutation = #vhlo.tensor_v1<dense<[1, 0]> : tensor<2xi64>>}> {result_layout = #vhlo.tensor_v1<dense<[0, 1]> : tensor<2xindex>>, xla_shape = #vhlo.string_v1<"bf16[3072,8192]{0,1}">} : (!vhlo.tensor_v1<8192x3072x!vhlo.bf16_v1>) -> !vhlo.tensor_v1<3072x8192x!vhlo.bf16_v1>
    %398 = "vhlo.dot_general_v2"(%396, %397) <{accumulation_type = #vhlo.type_v1<!vhlo.none_v1>, allow_imprecise_accumulation = #vhlo.type_v1<!vhlo.none_v1>, lhs_batching_dimensions = #vhlo.tensor_v1<dense<> : tensor<0xi64>>, lhs_component_count = #vhlo.type_v1<!vhlo.none_v1>, lhs_contracting_dimensions = #vhlo.tensor_v1<dense<1> : tensor<1xi64>>, lhs_precision_type = #vhlo.type_v1<!vhlo.none_v1>, num_primitive_operations = #vhlo.type_v1<!vhlo.none_v1>, precision_config = #vhlo.array_v1<[#vhlo<precision_v1 DEFAULT>, #vhlo<precision_v1 DEFAULT>]>, rhs_batching_dimensions = #vhlo.tensor_v1<dense<> : tensor<0xi64>>, rhs_component_count = #vhlo.type_v1<!vhlo.none_v1>, rhs_contracting_dimensions = #vhlo.tensor_v1<dense<0> : tensor<1xi64>>, rhs_precision_type = #vhlo.type_v1<!vhlo.none_v1>}> : (!vhlo.tensor_v1<7x3072x!vhlo.bf16_v1>, !vhlo.tensor_v1<3072x8192x!vhlo.bf16_v1>) -> !vhlo.tensor_v1<7x8192x!vhlo.bf16_v1>
    %399 = "vhlo.reshape_v1"(%398) : (!vhlo.tensor_v1<7x8192x!vhlo.bf16_v1>) -> !vhlo.tensor_v1<1x7x8192x!vhlo.bf16_v1>
    %400 = "vhlo.convert_v1"(%399) : (!vhlo.tensor_v1<1x7x8192x!vhlo.bf16_v1>) -> !vhlo.tensor_v1<1x7x8192x!vhlo.f32_v1>
    %401 = "vhlo.logistic_v2"(%399) <{result_accuracy = #vhlo.result_accuracy_v1<atol = 0.000000e+00, rtol = 0.000000e+00, ulps = 0, mode = #vhlo<result_accuracy_mode_v1 DEFAULT>>}> : (!vhlo.tensor_v1<1x7x8192x!vhlo.bf16_v1>) -> !vhlo.tensor_v1<1x7x8192x!vhlo.bf16_v1>
    %402 = "vhlo.convert_v1"(%401) : (!vhlo.tensor_v1<1x7x8192x!vhlo.bf16_v1>) -> !vhlo.tensor_v1<1x7x8192x!vhlo.f32_v1>
    %403 = "vhlo.multiply_v1"(%400, %402) : (!vhlo.tensor_v1<1x7x8192x!vhlo.f32_v1>, !vhlo.tensor_v1<1x7x8192x!vhlo.f32_v1>) -> !vhlo.tensor_v1<1x7x8192x!vhlo.f32_v1>
    %404 = "vhlo.convert_v1"(%403) : (!vhlo.tensor_v1<1x7x8192x!vhlo.f32_v1>) -> !vhlo.tensor_v1<1x7x8192x!vhlo.bf16_v1>
    %405 = "vhlo.convert_v1"(%404) : (!vhlo.tensor_v1<1x7x8192x!vhlo.bf16_v1>) -> !vhlo.tensor_v1<1x7x8192x!vhlo.f32_v1>
    %406 = "vhlo.transpose_v1"(%arg38) <{permutation = #vhlo.tensor_v1<dense<[1, 0]> : tensor<2xi64>>}> {result_layout = #vhlo.tensor_v1<dense<[0, 1]> : tensor<2xindex>>, xla_shape = #vhlo.string_v1<"bf16[3072,8192]{0,1}">} : (!vhlo.tensor_v1<8192x3072x!vhlo.bf16_v1>) -> !vhlo.tensor_v1<3072x8192x!vhlo.bf16_v1>
    %407 = "vhlo.dot_general_v2"(%396, %406) <{accumulation_type = #vhlo.type_v1<!vhlo.none_v1>, allow_imprecise_accumulation = #vhlo.type_v1<!vhlo.none_v1>, lhs_batching_dimensions = #vhlo.tensor_v1<dense<> : tensor<0xi64>>, lhs_component_count = #vhlo.type_v1<!vhlo.none_v1>, lhs_contracting_dimensions = #vhlo.tensor_v1<dense<1> : tensor<1xi64>>, lhs_precision_type = #vhlo.type_v1<!vhlo.none_v1>, num_primitive_operations = #vhlo.type_v1<!vhlo.none_v1>, precision_config = #vhlo.array_v1<[#vhlo<precision_v1 DEFAULT>, #vhlo<precision_v1 DEFAULT>]>, rhs_batching_dimensions = #vhlo.tensor_v1<dense<> : tensor<0xi64>>, rhs_component_count = #vhlo.type_v1<!vhlo.none_v1>, rhs_contracting_dimensions = #vhlo.tensor_v1<dense<0> : tensor<1xi64>>, rhs_precision_type = #vhlo.type_v1<!vhlo.none_v1>}> : (!vhlo.tensor_v1<7x3072x!vhlo.bf16_v1>, !vhlo.tensor_v1<3072x8192x!vhlo.bf16_v1>) -> !vhlo.tensor_v1<7x8192x!vhlo.bf16_v1>
    %408 = "vhlo.reshape_v1"(%407) : (!vhlo.tensor_v1<7x8192x!vhlo.bf16_v1>) -> !vhlo.tensor_v1<1x7x8192x!vhlo.bf16_v1>
    %409 = "vhlo.convert_v1"(%408) : (!vhlo.tensor_v1<1x7x8192x!vhlo.bf16_v1>) -> !vhlo.tensor_v1<1x7x8192x!vhlo.f32_v1>
    %410 = "vhlo.multiply_v1"(%405, %409) : (!vhlo.tensor_v1<1x7x8192x!vhlo.f32_v1>, !vhlo.tensor_v1<1x7x8192x!vhlo.f32_v1>) -> !vhlo.tensor_v1<1x7x8192x!vhlo.f32_v1>
    %411 = "vhlo.convert_v1"(%410) : (!vhlo.tensor_v1<1x7x8192x!vhlo.f32_v1>) -> !vhlo.tensor_v1<1x7x8192x!vhlo.bf16_v1>
    %412 = "vhlo.reshape_v1"(%411) : (!vhlo.tensor_v1<1x7x8192x!vhlo.bf16_v1>) -> !vhlo.tensor_v1<7x8192x!vhlo.bf16_v1>
    %413 = "vhlo.transpose_v1"(%arg37) <{permutation = #vhlo.tensor_v1<dense<[1, 0]> : tensor<2xi64>>}> {result_layout = #vhlo.tensor_v1<dense<[0, 1]> : tensor<2xindex>>, xla_shape = #vhlo.string_v1<"bf16[8192,3072]{0,1}">} : (!vhlo.tensor_v1<3072x8192x!vhlo.bf16_v1>) -> !vhlo.tensor_v1<8192x3072x!vhlo.bf16_v1>
    %414 = "vhlo.dot_general_v2"(%412, %413) <{accumulation_type = #vhlo.type_v1<!vhlo.none_v1>, allow_imprecise_accumulation = #vhlo.type_v1<!vhlo.none_v1>, lhs_batching_dimensions = #vhlo.tensor_v1<dense<> : tensor<0xi64>>, lhs_component_count = #vhlo.type_v1<!vhlo.none_v1>, lhs_contracting_dimensions = #vhlo.tensor_v1<dense<1> : tensor<1xi64>>, lhs_precision_type = #vhlo.type_v1<!vhlo.none_v1>, num_primitive_operations = #vhlo.type_v1<!vhlo.none_v1>, precision_config = #vhlo.array_v1<[#vhlo<precision_v1 DEFAULT>, #vhlo<precision_v1 DEFAULT>]>, rhs_batching_dimensions = #vhlo.tensor_v1<dense<> : tensor<0xi64>>, rhs_component_count = #vhlo.type_v1<!vhlo.none_v1>, rhs_contracting_dimensions = #vhlo.tensor_v1<dense<0> : tensor<1xi64>>, rhs_precision_type = #vhlo.type_v1<!vhlo.none_v1>}> : (!vhlo.tensor_v1<7x8192x!vhlo.bf16_v1>, !vhlo.tensor_v1<8192x3072x!vhlo.bf16_v1>) -> !vhlo.tensor_v1<7x3072x!vhlo.bf16_v1>
    %415 = "vhlo.reshape_v1"(%414) : (!vhlo.tensor_v1<7x3072x!vhlo.bf16_v1>) -> !vhlo.tensor_v1<1x7x3072x!vhlo.bf16_v1>
    %416 = "vhlo.add_v1"(%379, %415) : (!vhlo.tensor_v1<1x7x3072x!vhlo.bf16_v1>, !vhlo.tensor_v1<1x7x3072x!vhlo.bf16_v1>) -> !vhlo.tensor_v1<1x7x3072x!vhlo.bf16_v1>
    %417 = "vhlo.convert_v1"(%416) : (!vhlo.tensor_v1<1x7x3072x!vhlo.bf16_v1>) -> !vhlo.tensor_v1<1x7x3072x!vhlo.f32_v1>
    %418 = "vhlo.power_v1"(%417, %5) : (!vhlo.tensor_v1<1x7x3072x!vhlo.f32_v1>, !vhlo.tensor_v1<1x7x3072x!vhlo.f32_v1>) -> !vhlo.tensor_v1<1x7x3072x!vhlo.f32_v1>
    %419 = "vhlo.reduce_v1"(%418, %1) <{dimensions = #vhlo.tensor_v1<dense<2> : tensor<1xi64>>}> ({
    ^bb0(%arg54: !vhlo.tensor_v1<!vhlo.f32_v1>, %arg55: !vhlo.tensor_v1<!vhlo.f32_v1>):
      %558 = "vhlo.add_v1"(%arg54, %arg55) : (!vhlo.tensor_v1<!vhlo.f32_v1>, !vhlo.tensor_v1<!vhlo.f32_v1>) -> !vhlo.tensor_v1<!vhlo.f32_v1>
      "vhlo.return_v1"(%558) : (!vhlo.tensor_v1<!vhlo.f32_v1>) -> ()
    }) : (!vhlo.tensor_v1<1x7x3072x!vhlo.f32_v1>, !vhlo.tensor_v1<!vhlo.f32_v1>) -> !vhlo.tensor_v1<1x7x!vhlo.f32_v1>
    %420 = "vhlo.multiply_v1"(%419, %3) : (!vhlo.tensor_v1<1x7x!vhlo.f32_v1>, !vhlo.tensor_v1<1x7x!vhlo.f32_v1>) -> !vhlo.tensor_v1<1x7x!vhlo.f32_v1>
    %421 = "vhlo.reshape_v1"(%420) : (!vhlo.tensor_v1<1x7x!vhlo.f32_v1>) -> !vhlo.tensor_v1<1x7x1x!vhlo.f32_v1>
    %422 = "vhlo.add_v1"(%421, %22) : (!vhlo.tensor_v1<1x7x1x!vhlo.f32_v1>, !vhlo.tensor_v1<1x7x1x!vhlo.f32_v1>) -> !vhlo.tensor_v1<1x7x1x!vhlo.f32_v1>
    %423 = "vhlo.rsqrt_v2"(%422) <{result_accuracy = #vhlo.result_accuracy_v1<atol = 0.000000e+00, rtol = 0.000000e+00, ulps = 0, mode = #vhlo<result_accuracy_mode_v1 DEFAULT>>}> : (!vhlo.tensor_v1<1x7x1x!vhlo.f32_v1>) -> !vhlo.tensor_v1<1x7x1x!vhlo.f32_v1>
    %424 = "vhlo.reshape_v1"(%423) : (!vhlo.tensor_v1<1x7x1x!vhlo.f32_v1>) -> !vhlo.tensor_v1<1x7x!vhlo.f32_v1>
    %425 = "vhlo.broadcast_in_dim_v1"(%424) <{broadcast_dimensions = #vhlo.tensor_v1<dense<[0, 1]> : tensor<2xi64>>}> : (!vhlo.tensor_v1<1x7x!vhlo.f32_v1>) -> !vhlo.tensor_v1<1x7x3072x!vhlo.f32_v1>
    %426 = "vhlo.multiply_v1"(%417, %425) : (!vhlo.tensor_v1<1x7x3072x!vhlo.f32_v1>, !vhlo.tensor_v1<1x7x3072x!vhlo.f32_v1>) -> !vhlo.tensor_v1<1x7x3072x!vhlo.f32_v1>
    %427 = "vhlo.convert_v1"(%426) : (!vhlo.tensor_v1<1x7x3072x!vhlo.f32_v1>) -> !vhlo.tensor_v1<1x7x3072x!vhlo.bf16_v1>
    %428 = "vhlo.convert_v1"(%427) : (!vhlo.tensor_v1<1x7x3072x!vhlo.bf16_v1>) -> !vhlo.tensor_v1<1x7x3072x!vhlo.f32_v1>
    %429 = "vhlo.multiply_v1"(%333, %428) : (!vhlo.tensor_v1<1x7x3072x!vhlo.f32_v1>, !vhlo.tensor_v1<1x7x3072x!vhlo.f32_v1>) -> !vhlo.tensor_v1<1x7x3072x!vhlo.f32_v1>
    %430 = "vhlo.convert_v1"(%429) : (!vhlo.tensor_v1<1x7x3072x!vhlo.f32_v1>) -> !vhlo.tensor_v1<1x7x3072x!vhlo.bf16_v1>
    %431 = "vhlo.reshape_v1"(%430) : (!vhlo.tensor_v1<1x7x3072x!vhlo.bf16_v1>) -> !vhlo.tensor_v1<7x3072x!vhlo.bf16_v1>
    %432 = "vhlo.transpose_v1"(%arg36) <{permutation = #vhlo.tensor_v1<dense<[1, 0]> : tensor<2xi64>>}> {result_layout = #vhlo.tensor_v1<dense<[0, 1]> : tensor<2xindex>>, xla_shape = #vhlo.string_v1<"bf16[3072,1024]{0,1}">} : (!vhlo.tensor_v1<1024x3072x!vhlo.bf16_v1>) -> !vhlo.tensor_v1<3072x1024x!vhlo.bf16_v1>
    %433 = "vhlo.dot_general_v2"(%431, %432) <{accumulation_type = #vhlo.type_v1<!vhlo.none_v1>, allow_imprecise_accumulation = #vhlo.type_v1<!vhlo.none_v1>, lhs_batching_dimensions = #vhlo.tensor_v1<dense<> : tensor<0xi64>>, lhs_component_count = #vhlo.type_v1<!vhlo.none_v1>, lhs_contracting_dimensions = #vhlo.tensor_v1<dense<1> : tensor<1xi64>>, lhs_precision_type = #vhlo.type_v1<!vhlo.none_v1>, num_primitive_operations = #vhlo.type_v1<!vhlo.none_v1>, precision_config = #vhlo.array_v1<[#vhlo<precision_v1 DEFAULT>, #vhlo<precision_v1 DEFAULT>]>, rhs_batching_dimensions = #vhlo.tensor_v1<dense<> : tensor<0xi64>>, rhs_component_count = #vhlo.type_v1<!vhlo.none_v1>, rhs_contracting_dimensions = #vhlo.tensor_v1<dense<0> : tensor<1xi64>>, rhs_precision_type = #vhlo.type_v1<!vhlo.none_v1>}> : (!vhlo.tensor_v1<7x3072x!vhlo.bf16_v1>, !vhlo.tensor_v1<3072x1024x!vhlo.bf16_v1>) -> !vhlo.tensor_v1<7x1024x!vhlo.bf16_v1>
    %434 = "vhlo.reshape_v1"(%433) : (!vhlo.tensor_v1<7x1024x!vhlo.bf16_v1>) -> !vhlo.tensor_v1<1x7x8x128x!vhlo.bf16_v1>
    %435 = "vhlo.transpose_v1"(%434) <{permutation = #vhlo.tensor_v1<dense<[0, 2, 1, 3]> : tensor<4xi64>>}> {result_layout = #vhlo.tensor_v1<dense<[3, 1, 2, 0]> : tensor<4xindex>>, xla_shape = #vhlo.string_v1<"bf16[1,8,7,128]{3,1,2,0}">} : (!vhlo.tensor_v1<1x7x8x128x!vhlo.bf16_v1>) -> !vhlo.tensor_v1<1x8x7x128x!vhlo.bf16_v1>
    %436 = "vhlo.convert_v1"(%435) {result_layout = #vhlo.tensor_v1<dense<[3, 1, 2, 0]> : tensor<4xindex>>, xla_shape = #vhlo.string_v1<"f32[1,8,7,128]{3,1,2,0}">} : (!vhlo.tensor_v1<1x8x7x128x!vhlo.bf16_v1>) -> !vhlo.tensor_v1<1x8x7x128x!vhlo.f32_v1>
    %437 = "vhlo.multiply_v1"(%436, %49) : (!vhlo.tensor_v1<1x8x7x128x!vhlo.f32_v1>, !vhlo.tensor_v1<1x8x7x128x!vhlo.f32_v1>) -> !vhlo.tensor_v1<1x8x7x128x!vhlo.f32_v1>
    %438 = "vhlo.convert_v1"(%437) : (!vhlo.tensor_v1<1x8x7x128x!vhlo.f32_v1>) -> !vhlo.tensor_v1<1x8x7x128x!vhlo.bf16_v1>
    %439 = "vhlo.slice_v1"(%435) <{limit_indices = #vhlo.tensor_v1<dense<[1, 8, 7, 128]> : tensor<4xi64>>, start_indices = #vhlo.tensor_v1<dense<[0, 0, 0, 64]> : tensor<4xi64>>, strides = #vhlo.tensor_v1<dense<1> : tensor<4xi64>>}> : (!vhlo.tensor_v1<1x8x7x128x!vhlo.bf16_v1>) -> !vhlo.tensor_v1<1x8x7x64x!vhlo.bf16_v1>
    %440 = "vhlo.negate_v1"(%439) : (!vhlo.tensor_v1<1x8x7x64x!vhlo.bf16_v1>) -> !vhlo.tensor_v1<1x8x7x64x!vhlo.bf16_v1>
    %441 = "vhlo.slice_v1"(%435) <{limit_indices = #vhlo.tensor_v1<dense<[1, 8, 7, 64]> : tensor<4xi64>>, start_indices = #vhlo.tensor_v1<dense<0> : tensor<4xi64>>, strides = #vhlo.tensor_v1<dense<1> : tensor<4xi64>>}> : (!vhlo.tensor_v1<1x8x7x128x!vhlo.bf16_v1>) -> !vhlo.tensor_v1<1x8x7x64x!vhlo.bf16_v1>
    %442 = "vhlo.concatenate_v1"(%440, %441) <{dimension = #vhlo.integer_v1<3 : i64>}> : (!vhlo.tensor_v1<1x8x7x64x!vhlo.bf16_v1>, !vhlo.tensor_v1<1x8x7x64x!vhlo.bf16_v1>) -> !vhlo.tensor_v1<1x8x7x128x!vhlo.bf16_v1>
    %443 = "vhlo.convert_v1"(%442) : (!vhlo.tensor_v1<1x8x7x128x!vhlo.bf16_v1>) -> !vhlo.tensor_v1<1x8x7x128x!vhlo.f32_v1>
    %444 = "vhlo.multiply_v1"(%443, %62) : (!vhlo.tensor_v1<1x8x7x128x!vhlo.f32_v1>, !vhlo.tensor_v1<1x8x7x128x!vhlo.f32_v1>) -> !vhlo.tensor_v1<1x8x7x128x!vhlo.f32_v1>
    %445 = "vhlo.convert_v1"(%444) : (!vhlo.tensor_v1<1x8x7x128x!vhlo.f32_v1>) -> !vhlo.tensor_v1<1x8x7x128x!vhlo.bf16_v1>
    %446 = "vhlo.add_v1"(%438, %445) : (!vhlo.tensor_v1<1x8x7x128x!vhlo.bf16_v1>, !vhlo.tensor_v1<1x8x7x128x!vhlo.bf16_v1>) -> !vhlo.tensor_v1<1x8x7x128x!vhlo.bf16_v1>
    %447 = "vhlo.scatter_v2"(%arg44, %10, %446) <{index_vector_dim = #vhlo.integer_v1<1 : i64>, indices_are_sorted = #vhlo.bool_v1<false>, input_batching_dims = #vhlo.tensor_v1<dense<> : tensor<0xi64>>, inserted_window_dims = #vhlo.tensor_v1<dense<2> : tensor<1xi64>>, scatter_dims_to_operand_dims = #vhlo.tensor_v1<dense<2> : tensor<1xi64>>, scatter_indices_batching_dims = #vhlo.tensor_v1<dense<> : tensor<0xi64>>, unique_indices = #vhlo.bool_v1<false>, update_window_dims = #vhlo.tensor_v1<dense<[0, 1, 3]> : tensor<3xi64>>}> ({
    ^bb0(%arg54: !vhlo.tensor_v1<!vhlo.bf16_v1>, %arg55: !vhlo.tensor_v1<!vhlo.bf16_v1>):
      "vhlo.return_v1"(%arg55) : (!vhlo.tensor_v1<!vhlo.bf16_v1>) -> ()
    }) : (!vhlo.tensor_v1<1x8x128x128x!vhlo.bf16_v1>, !vhlo.tensor_v1<7x1x!vhlo.i64_v1>, !vhlo.tensor_v1<1x8x7x128x!vhlo.bf16_v1>) -> !vhlo.tensor_v1<1x8x128x128x!vhlo.bf16_v1>
    %448 = "vhlo.custom_call_v1"(%447) <{api_version = #vhlo<api_version_v1 API_VERSION_ORIGINAL>, backend_config = #vhlo.string_v1<"">, call_target_name = #vhlo.string_v1<"Sharding">, called_computations = #vhlo.array_v1<[]>, has_side_effect = #vhlo.bool_v1<false>, operand_layouts = #vhlo.array_v1<[]>, output_operand_aliases = #vhlo.array_v1<[]>, result_layouts = #vhlo.array_v1<[]>}> {mhlo.frontend_attributes = #vhlo.dict_v1<{#vhlo.string_v1<"xla.sdy.sharding"> = #vhlo.string_v1<"#sdy.sharding_per_value<[<@mesh, [{}, {\22_axis_0\22}, {}, {}]>]>">}>, mhlo.sharding = #vhlo.string_v1<"{devices=[1,2,1,1]<=[2]}">} : (!vhlo.tensor_v1<1x8x128x128x!vhlo.bf16_v1>) -> !vhlo.tensor_v1<1x8x128x128x!vhlo.bf16_v1>
    %449 = "vhlo.transpose_v1"(%arg45) <{permutation = #vhlo.tensor_v1<dense<[1, 0]> : tensor<2xi64>>}> {result_layout = #vhlo.tensor_v1<dense<[0, 1]> : tensor<2xindex>>, xla_shape = #vhlo.string_v1<"bf16[3072,1024]{0,1}">} : (!vhlo.tensor_v1<1024x3072x!vhlo.bf16_v1>) -> !vhlo.tensor_v1<3072x1024x!vhlo.bf16_v1>
    %450 = "vhlo.dot_general_v2"(%431, %449) <{accumulation_type = #vhlo.type_v1<!vhlo.none_v1>, allow_imprecise_accumulation = #vhlo.type_v1<!vhlo.none_v1>, lhs_batching_dimensions = #vhlo.tensor_v1<dense<> : tensor<0xi64>>, lhs_component_count = #vhlo.type_v1<!vhlo.none_v1>, lhs_contracting_dimensions = #vhlo.tensor_v1<dense<1> : tensor<1xi64>>, lhs_precision_type = #vhlo.type_v1<!vhlo.none_v1>, num_primitive_operations = #vhlo.type_v1<!vhlo.none_v1>, precision_config = #vhlo.array_v1<[#vhlo<precision_v1 DEFAULT>, #vhlo<precision_v1 DEFAULT>]>, rhs_batching_dimensions = #vhlo.tensor_v1<dense<> : tensor<0xi64>>, rhs_component_count = #vhlo.type_v1<!vhlo.none_v1>, rhs_contracting_dimensions = #vhlo.tensor_v1<dense<0> : tensor<1xi64>>, rhs_precision_type = #vhlo.type_v1<!vhlo.none_v1>}> : (!vhlo.tensor_v1<7x3072x!vhlo.bf16_v1>, !vhlo.tensor_v1<3072x1024x!vhlo.bf16_v1>) -> !vhlo.tensor_v1<7x1024x!vhlo.bf16_v1>
    %451 = "vhlo.reshape_v1"(%450) : (!vhlo.tensor_v1<7x1024x!vhlo.bf16_v1>) -> !vhlo.tensor_v1<1x7x8x128x!vhlo.bf16_v1>
    %452 = "vhlo.transpose_v1"(%451) <{permutation = #vhlo.tensor_v1<dense<[0, 2, 1, 3]> : tensor<4xi64>>}> {result_layout = #vhlo.tensor_v1<dense<[3, 1, 2, 0]> : tensor<4xindex>>, xla_shape = #vhlo.string_v1<"bf16[1,8,7,128]{3,1,2,0}">} : (!vhlo.tensor_v1<1x7x8x128x!vhlo.bf16_v1>) -> !vhlo.tensor_v1<1x8x7x128x!vhlo.bf16_v1>
    %453 = "vhlo.scatter_v2"(%arg46, %10, %452) <{index_vector_dim = #vhlo.integer_v1<1 : i64>, indices_are_sorted = #vhlo.bool_v1<false>, input_batching_dims = #vhlo.tensor_v1<dense<> : tensor<0xi64>>, inserted_window_dims = #vhlo.tensor_v1<dense<2> : tensor<1xi64>>, scatter_dims_to_operand_dims = #vhlo.tensor_v1<dense<2> : tensor<1xi64>>, scatter_indices_batching_dims = #vhlo.tensor_v1<dense<> : tensor<0xi64>>, unique_indices = #vhlo.bool_v1<false>, update_window_dims = #vhlo.tensor_v1<dense<[0, 1, 3]> : tensor<3xi64>>}> ({
    ^bb0(%arg54: !vhlo.tensor_v1<!vhlo.bf16_v1>, %arg55: !vhlo.tensor_v1<!vhlo.bf16_v1>):
      "vhlo.return_v1"(%arg55) : (!vhlo.tensor_v1<!vhlo.bf16_v1>) -> ()
    }) : (!vhlo.tensor_v1<1x8x128x128x!vhlo.bf16_v1>, !vhlo.tensor_v1<7x1x!vhlo.i64_v1>, !vhlo.tensor_v1<1x8x7x128x!vhlo.bf16_v1>) -> !vhlo.tensor_v1<1x8x128x128x!vhlo.bf16_v1>
    %454 = "vhlo.custom_call_v1"(%453) <{api_version = #vhlo<api_version_v1 API_VERSION_ORIGINAL>, backend_config = #vhlo.string_v1<"">, call_target_name = #vhlo.string_v1<"Sharding">, called_computations = #vhlo.array_v1<[]>, has_side_effect = #vhlo.bool_v1<false>, operand_layouts = #vhlo.array_v1<[]>, output_operand_aliases = #vhlo.array_v1<[]>, result_layouts = #vhlo.array_v1<[]>}> {mhlo.frontend_attributes = #vhlo.dict_v1<{#vhlo.string_v1<"xla.sdy.sharding"> = #vhlo.string_v1<"#sdy.sharding_per_value<[<@mesh, [{}, {\22_axis_0\22}, {}, {}]>]>">}>, mhlo.sharding = #vhlo.string_v1<"{devices=[1,2,1,1]<=[2]}">} : (!vhlo.tensor_v1<1x8x128x128x!vhlo.bf16_v1>) -> !vhlo.tensor_v1<1x8x128x128x!vhlo.bf16_v1>
    %455 = "vhlo.convert_v1"(%arg53) : (!vhlo.tensor_v1<3072x!vhlo.bf16_v1>) -> !vhlo.tensor_v1<3072x!vhlo.f32_v1>
    %456 = "vhlo.broadcast_in_dim_v1"(%455) <{broadcast_dimensions = #vhlo.tensor_v1<dense<2> : tensor<1xi64>>}> : (!vhlo.tensor_v1<3072x!vhlo.f32_v1>) -> !vhlo.tensor_v1<1x7x3072x!vhlo.f32_v1>
    %457 = "vhlo.transpose_v1"(%arg50) <{permutation = #vhlo.tensor_v1<dense<[1, 0]> : tensor<2xi64>>}> {result_layout = #vhlo.tensor_v1<dense<[0, 1]> : tensor<2xindex>>, xla_shape = #vhlo.string_v1<"bf16[3072,3072]{0,1}">} : (!vhlo.tensor_v1<3072x3072x!vhlo.bf16_v1>) -> !vhlo.tensor_v1<3072x3072x!vhlo.bf16_v1>
    %458 = "vhlo.dot_general_v2"(%431, %457) <{accumulation_type = #vhlo.type_v1<!vhlo.none_v1>, allow_imprecise_accumulation = #vhlo.type_v1<!vhlo.none_v1>, lhs_batching_dimensions = #vhlo.tensor_v1<dense<> : tensor<0xi64>>, lhs_component_count = #vhlo.type_v1<!vhlo.none_v1>, lhs_contracting_dimensions = #vhlo.tensor_v1<dense<1> : tensor<1xi64>>, lhs_precision_type = #vhlo.type_v1<!vhlo.none_v1>, num_primitive_operations = #vhlo.type_v1<!vhlo.none_v1>, precision_config = #vhlo.array_v1<[#vhlo<precision_v1 DEFAULT>, #vhlo<precision_v1 DEFAULT>]>, rhs_batching_dimensions = #vhlo.tensor_v1<dense<> : tensor<0xi64>>, rhs_component_count = #vhlo.type_v1<!vhlo.none_v1>, rhs_contracting_dimensions = #vhlo.tensor_v1<dense<0> : tensor<1xi64>>, rhs_precision_type = #vhlo.type_v1<!vhlo.none_v1>}> : (!vhlo.tensor_v1<7x3072x!vhlo.bf16_v1>, !vhlo.tensor_v1<3072x3072x!vhlo.bf16_v1>) -> !vhlo.tensor_v1<7x3072x!vhlo.bf16_v1>
    %459 = "vhlo.reshape_v1"(%458) : (!vhlo.tensor_v1<7x3072x!vhlo.bf16_v1>) -> !vhlo.tensor_v1<1x7x24x128x!vhlo.bf16_v1>
    %460 = "vhlo.transpose_v1"(%459) <{permutation = #vhlo.tensor_v1<dense<[0, 2, 1, 3]> : tensor<4xi64>>}> {result_layout = #vhlo.tensor_v1<dense<[3, 1, 2, 0]> : tensor<4xindex>>, xla_shape = #vhlo.string_v1<"bf16[1,24,7,128]{3,1,2,0}">} : (!vhlo.tensor_v1<1x7x24x128x!vhlo.bf16_v1>) -> !vhlo.tensor_v1<1x24x7x128x!vhlo.bf16_v1>
    %461 = "vhlo.convert_v1"(%460) {result_layout = #vhlo.tensor_v1<dense<[3, 1, 2, 0]> : tensor<4xindex>>, xla_shape = #vhlo.string_v1<"f32[1,24,7,128]{3,1,2,0}">} : (!vhlo.tensor_v1<1x24x7x128x!vhlo.bf16_v1>) -> !vhlo.tensor_v1<1x24x7x128x!vhlo.f32_v1>
    %462 = "vhlo.multiply_v1"(%461, %81) : (!vhlo.tensor_v1<1x24x7x128x!vhlo.f32_v1>, !vhlo.tensor_v1<1x24x7x128x!vhlo.f32_v1>) -> !vhlo.tensor_v1<1x24x7x128x!vhlo.f32_v1>
    %463 = "vhlo.convert_v1"(%462) : (!vhlo.tensor_v1<1x24x7x128x!vhlo.f32_v1>) -> !vhlo.tensor_v1<1x24x7x128x!vhlo.bf16_v1>
    %464 = "vhlo.slice_v1"(%460) <{limit_indices = #vhlo.tensor_v1<dense<[1, 24, 7, 128]> : tensor<4xi64>>, start_indices = #vhlo.tensor_v1<dense<[0, 0, 0, 64]> : tensor<4xi64>>, strides = #vhlo.tensor_v1<dense<1> : tensor<4xi64>>}> : (!vhlo.tensor_v1<1x24x7x128x!vhlo.bf16_v1>) -> !vhlo.tensor_v1<1x24x7x64x!vhlo.bf16_v1>
    %465 = "vhlo.negate_v1"(%464) : (!vhlo.tensor_v1<1x24x7x64x!vhlo.bf16_v1>) -> !vhlo.tensor_v1<1x24x7x64x!vhlo.bf16_v1>
    %466 = "vhlo.slice_v1"(%460) <{limit_indices = #vhlo.tensor_v1<dense<[1, 24, 7, 64]> : tensor<4xi64>>, start_indices = #vhlo.tensor_v1<dense<0> : tensor<4xi64>>, strides = #vhlo.tensor_v1<dense<1> : tensor<4xi64>>}> : (!vhlo.tensor_v1<1x24x7x128x!vhlo.bf16_v1>) -> !vhlo.tensor_v1<1x24x7x64x!vhlo.bf16_v1>
    %467 = "vhlo.concatenate_v1"(%465, %466) <{dimension = #vhlo.integer_v1<3 : i64>}> : (!vhlo.tensor_v1<1x24x7x64x!vhlo.bf16_v1>, !vhlo.tensor_v1<1x24x7x64x!vhlo.bf16_v1>) -> !vhlo.tensor_v1<1x24x7x128x!vhlo.bf16_v1>
    %468 = "vhlo.convert_v1"(%467) : (!vhlo.tensor_v1<1x24x7x128x!vhlo.bf16_v1>) -> !vhlo.tensor_v1<1x24x7x128x!vhlo.f32_v1>
    %469 = "vhlo.multiply_v1"(%468, %89) : (!vhlo.tensor_v1<1x24x7x128x!vhlo.f32_v1>, !vhlo.tensor_v1<1x24x7x128x!vhlo.f32_v1>) -> !vhlo.tensor_v1<1x24x7x128x!vhlo.f32_v1>
    %470 = "vhlo.convert_v1"(%469) : (!vhlo.tensor_v1<1x24x7x128x!vhlo.f32_v1>) -> !vhlo.tensor_v1<1x24x7x128x!vhlo.bf16_v1>
    %471 = "vhlo.add_v1"(%463, %470) : (!vhlo.tensor_v1<1x24x7x128x!vhlo.bf16_v1>, !vhlo.tensor_v1<1x24x7x128x!vhlo.bf16_v1>) -> !vhlo.tensor_v1<1x24x7x128x!vhlo.bf16_v1>
    %472 = "vhlo.reshape_v1"(%471) : (!vhlo.tensor_v1<1x24x7x128x!vhlo.bf16_v1>) -> !vhlo.tensor_v1<24x7x128x!vhlo.bf16_v1>
    %473 = "vhlo.broadcast_in_dim_v1"(%447) <{broadcast_dimensions = #vhlo.tensor_v1<dense<[0, 1, 3, 4]> : tensor<4xi64>>}> : (!vhlo.tensor_v1<1x8x128x128x!vhlo.bf16_v1>) -> !vhlo.tensor_v1<1x8x3x128x128x!vhlo.bf16_v1>
    %474 = "vhlo.reshape_v1"(%473) : (!vhlo.tensor_v1<1x8x3x128x128x!vhlo.bf16_v1>) -> !vhlo.tensor_v1<1x24x128x128x!vhlo.bf16_v1>
    %475 = "vhlo.transpose_v1"(%474) <{permutation = #vhlo.tensor_v1<dense<[0, 1, 3, 2]> : tensor<4xi64>>}> {result_layout = #vhlo.tensor_v1<dense<[2, 3, 1, 0]> : tensor<4xindex>>, xla_shape = #vhlo.string_v1<"bf16[1,24,128,128]{2,3,1,0}">} : (!vhlo.tensor_v1<1x24x128x128x!vhlo.bf16_v1>) -> !vhlo.tensor_v1<1x24x128x128x!vhlo.bf16_v1>
    %476 = "vhlo.reshape_v1"(%475) : (!vhlo.tensor_v1<1x24x128x128x!vhlo.bf16_v1>) -> !vhlo.tensor_v1<24x128x128x!vhlo.bf16_v1>
    %477 = "vhlo.dot_general_v2"(%472, %476) <{accumulation_type = #vhlo.type_v1<!vhlo.none_v1>, allow_imprecise_accumulation = #vhlo.type_v1<!vhlo.none_v1>, lhs_batching_dimensions = #vhlo.tensor_v1<dense<0> : tensor<1xi64>>, lhs_component_count = #vhlo.type_v1<!vhlo.none_v1>, lhs_contracting_dimensions = #vhlo.tensor_v1<dense<2> : tensor<1xi64>>, lhs_precision_type = #vhlo.type_v1<!vhlo.none_v1>, num_primitive_operations = #vhlo.type_v1<!vhlo.none_v1>, precision_config = #vhlo.array_v1<[#vhlo<precision_v1 DEFAULT>, #vhlo<precision_v1 DEFAULT>]>, rhs_batching_dimensions = #vhlo.tensor_v1<dense<0> : tensor<1xi64>>, rhs_component_count = #vhlo.type_v1<!vhlo.none_v1>, rhs_contracting_dimensions = #vhlo.tensor_v1<dense<1> : tensor<1xi64>>, rhs_precision_type = #vhlo.type_v1<!vhlo.none_v1>}> : (!vhlo.tensor_v1<24x7x128x!vhlo.bf16_v1>, !vhlo.tensor_v1<24x128x128x!vhlo.bf16_v1>) -> !vhlo.tensor_v1<24x7x128x!vhlo.bf16_v1>
    %478 = "vhlo.reshape_v1"(%477) : (!vhlo.tensor_v1<24x7x128x!vhlo.bf16_v1>) -> !vhlo.tensor_v1<1x24x7x128x!vhlo.bf16_v1>
    %479 = "vhlo.convert_v1"(%478) : (!vhlo.tensor_v1<1x24x7x128x!vhlo.bf16_v1>) -> !vhlo.tensor_v1<1x24x7x128x!vhlo.f32_v1>
    %480 = "vhlo.multiply_v1"(%479, %101) : (!vhlo.tensor_v1<1x24x7x128x!vhlo.f32_v1>, !vhlo.tensor_v1<1x24x7x128x!vhlo.f32_v1>) -> !vhlo.tensor_v1<1x24x7x128x!vhlo.f32_v1>
    %481 = "vhlo.convert_v1"(%480) : (!vhlo.tensor_v1<1x24x7x128x!vhlo.f32_v1>) -> !vhlo.tensor_v1<1x24x7x128x!vhlo.bf16_v1>
    %482 = "vhlo.add_v1"(%481, %112) : (!vhlo.tensor_v1<1x24x7x128x!vhlo.bf16_v1>, !vhlo.tensor_v1<1x24x7x128x!vhlo.bf16_v1>) -> !vhlo.tensor_v1<1x24x7x128x!vhlo.bf16_v1>
    %483 = "vhlo.convert_v1"(%482) : (!vhlo.tensor_v1<1x24x7x128x!vhlo.bf16_v1>) -> !vhlo.tensor_v1<1x24x7x128x!vhlo.f32_v1>
    %484 = "vhlo.reduce_v1"(%483, %2) <{dimensions = #vhlo.tensor_v1<dense<3> : tensor<1xi64>>}> ({
    ^bb0(%arg54: !vhlo.tensor_v1<!vhlo.f32_v1>, %arg55: !vhlo.tensor_v1<!vhlo.f32_v1>):
      %558 = "vhlo.maximum_v1"(%arg54, %arg55) : (!vhlo.tensor_v1<!vhlo.f32_v1>, !vhlo.tensor_v1<!vhlo.f32_v1>) -> !vhlo.tensor_v1<!vhlo.f32_v1>
      "vhlo.return_v1"(%558) : (!vhlo.tensor_v1<!vhlo.f32_v1>) -> ()
    }) : (!vhlo.tensor_v1<1x24x7x128x!vhlo.f32_v1>, !vhlo.tensor_v1<!vhlo.f32_v1>) -> !vhlo.tensor_v1<1x24x7x!vhlo.f32_v1>
    %485 = "vhlo.broadcast_in_dim_v1"(%484) <{broadcast_dimensions = #vhlo.tensor_v1<dense<[0, 1, 2]> : tensor<3xi64>>}> : (!vhlo.tensor_v1<1x24x7x!vhlo.f32_v1>) -> !vhlo.tensor_v1<1x24x7x128x!vhlo.f32_v1>
    %486 = "vhlo.subtract_v1"(%483, %485) : (!vhlo.tensor_v1<1x24x7x128x!vhlo.f32_v1>, !vhlo.tensor_v1<1x24x7x128x!vhlo.f32_v1>) -> !vhlo.tensor_v1<1x24x7x128x!vhlo.f32_v1>
    %487 = "vhlo.exponential_v2"(%486) <{result_accuracy = #vhlo.result_accuracy_v1<atol = 0.000000e+00, rtol = 0.000000e+00, ulps = 0, mode = #vhlo<result_accuracy_mode_v1 DEFAULT>>}> : (!vhlo.tensor_v1<1x24x7x128x!vhlo.f32_v1>) -> !vhlo.tensor_v1<1x24x7x128x!vhlo.f32_v1>
    %488 = "vhlo.reduce_v1"(%487, %1) <{dimensions = #vhlo.tensor_v1<dense<3> : tensor<1xi64>>}> ({
    ^bb0(%arg54: !vhlo.tensor_v1<!vhlo.f32_v1>, %arg55: !vhlo.tensor_v1<!vhlo.f32_v1>):
      %558 = "vhlo.add_v1"(%arg54, %arg55) : (!vhlo.tensor_v1<!vhlo.f32_v1>, !vhlo.tensor_v1<!vhlo.f32_v1>) -> !vhlo.tensor_v1<!vhlo.f32_v1>
      "vhlo.return_v1"(%558) : (!vhlo.tensor_v1<!vhlo.f32_v1>) -> ()
    }) : (!vhlo.tensor_v1<1x24x7x128x!vhlo.f32_v1>, !vhlo.tensor_v1<!vhlo.f32_v1>) -> !vhlo.tensor_v1<1x24x7x!vhlo.f32_v1>
    %489 = "vhlo.broadcast_in_dim_v1"(%488) <{broadcast_dimensions = #vhlo.tensor_v1<dense<[0, 1, 2]> : tensor<3xi64>>}> : (!vhlo.tensor_v1<1x24x7x!vhlo.f32_v1>) -> !vhlo.tensor_v1<1x24x7x128x!vhlo.f32_v1>
    %490 = "vhlo.divide_v1"(%487, %489) : (!vhlo.tensor_v1<1x24x7x128x!vhlo.f32_v1>, !vhlo.tensor_v1<1x24x7x128x!vhlo.f32_v1>) -> !vhlo.tensor_v1<1x24x7x128x!vhlo.f32_v1>
    %491 = "vhlo.convert_v1"(%490) : (!vhlo.tensor_v1<1x24x7x128x!vhlo.f32_v1>) -> !vhlo.tensor_v1<1x24x7x128x!vhlo.bf16_v1>
    %492 = "vhlo.reshape_v1"(%491) : (!vhlo.tensor_v1<1x24x7x128x!vhlo.bf16_v1>) -> !vhlo.tensor_v1<24x7x128x!vhlo.bf16_v1>
    %493 = "vhlo.broadcast_in_dim_v1"(%453) <{broadcast_dimensions = #vhlo.tensor_v1<dense<[0, 1, 3, 4]> : tensor<4xi64>>}> : (!vhlo.tensor_v1<1x8x128x128x!vhlo.bf16_v1>) -> !vhlo.tensor_v1<1x8x3x128x128x!vhlo.bf16_v1>
    %494 = "vhlo.reshape_v1"(%493) : (!vhlo.tensor_v1<1x8x3x128x128x!vhlo.bf16_v1>) -> !vhlo.tensor_v1<24x128x128x!vhlo.bf16_v1>
    %495 = "vhlo.dot_general_v2"(%492, %494) <{accumulation_type = #vhlo.type_v1<!vhlo.none_v1>, allow_imprecise_accumulation = #vhlo.type_v1<!vhlo.none_v1>, lhs_batching_dimensions = #vhlo.tensor_v1<dense<0> : tensor<1xi64>>, lhs_component_count = #vhlo.type_v1<!vhlo.none_v1>, lhs_contracting_dimensions = #vhlo.tensor_v1<dense<2> : tensor<1xi64>>, lhs_precision_type = #vhlo.type_v1<!vhlo.none_v1>, num_primitive_operations = #vhlo.type_v1<!vhlo.none_v1>, precision_config = #vhlo.array_v1<[#vhlo<precision_v1 DEFAULT>, #vhlo<precision_v1 DEFAULT>]>, rhs_batching_dimensions = #vhlo.tensor_v1<dense<0> : tensor<1xi64>>, rhs_component_count = #vhlo.type_v1<!vhlo.none_v1>, rhs_contracting_dimensions = #vhlo.tensor_v1<dense<1> : tensor<1xi64>>, rhs_precision_type = #vhlo.type_v1<!vhlo.none_v1>}> : (!vhlo.tensor_v1<24x7x128x!vhlo.bf16_v1>, !vhlo.tensor_v1<24x128x128x!vhlo.bf16_v1>) -> !vhlo.tensor_v1<24x7x128x!vhlo.bf16_v1>
    %496 = "vhlo.reshape_v1"(%495) : (!vhlo.tensor_v1<24x7x128x!vhlo.bf16_v1>) -> !vhlo.tensor_v1<1x24x7x128x!vhlo.bf16_v1>
    %497 = "vhlo.transpose_v1"(%496) <{permutation = #vhlo.tensor_v1<dense<[0, 2, 1, 3]> : tensor<4xi64>>}> {result_layout = #vhlo.tensor_v1<dense<[3, 1, 2, 0]> : tensor<4xindex>>, xla_shape = #vhlo.string_v1<"bf16[1,7,24,128]{3,1,2,0}">} : (!vhlo.tensor_v1<1x24x7x128x!vhlo.bf16_v1>) -> !vhlo.tensor_v1<1x7x24x128x!vhlo.bf16_v1>
    %498 = "vhlo.reshape_v1"(%497) : (!vhlo.tensor_v1<1x7x24x128x!vhlo.bf16_v1>) -> !vhlo.tensor_v1<7x3072x!vhlo.bf16_v1>
    %499 = "vhlo.transpose_v1"(%arg49) <{permutation = #vhlo.tensor_v1<dense<[1, 0]> : tensor<2xi64>>}> {result_layout = #vhlo.tensor_v1<dense<[0, 1]> : tensor<2xindex>>, xla_shape = #vhlo.string_v1<"bf16[3072,3072]{0,1}">} : (!vhlo.tensor_v1<3072x3072x!vhlo.bf16_v1>) -> !vhlo.tensor_v1<3072x3072x!vhlo.bf16_v1>
    %500 = "vhlo.dot_general_v2"(%498, %499) <{accumulation_type = #vhlo.type_v1<!vhlo.none_v1>, allow_imprecise_accumulation = #vhlo.type_v1<!vhlo.none_v1>, lhs_batching_dimensions = #vhlo.tensor_v1<dense<> : tensor<0xi64>>, lhs_component_count = #vhlo.type_v1<!vhlo.none_v1>, lhs_contracting_dimensions = #vhlo.tensor_v1<dense<1> : tensor<1xi64>>, lhs_precision_type = #vhlo.type_v1<!vhlo.none_v1>, num_primitive_operations = #vhlo.type_v1<!vhlo.none_v1>, precision_config = #vhlo.array_v1<[#vhlo<precision_v1 DEFAULT>, #vhlo<precision_v1 DEFAULT>]>, rhs_batching_dimensions = #vhlo.tensor_v1<dense<> : tensor<0xi64>>, rhs_component_count = #vhlo.type_v1<!vhlo.none_v1>, rhs_contracting_dimensions = #vhlo.tensor_v1<dense<0> : tensor<1xi64>>, rhs_precision_type = #vhlo.type_v1<!vhlo.none_v1>}> : (!vhlo.tensor_v1<7x3072x!vhlo.bf16_v1>, !vhlo.tensor_v1<3072x3072x!vhlo.bf16_v1>) -> !vhlo.tensor_v1<7x3072x!vhlo.bf16_v1>
    %501 = "vhlo.reshape_v1"(%500) : (!vhlo.tensor_v1<7x3072x!vhlo.bf16_v1>) -> !vhlo.tensor_v1<1x7x3072x!vhlo.bf16_v1>
    %502 = "vhlo.add_v1"(%416, %501) : (!vhlo.tensor_v1<1x7x3072x!vhlo.bf16_v1>, !vhlo.tensor_v1<1x7x3072x!vhlo.bf16_v1>) -> !vhlo.tensor_v1<1x7x3072x!vhlo.bf16_v1>
    %503 = "vhlo.convert_v1"(%arg51) : (!vhlo.tensor_v1<3072x!vhlo.bf16_v1>) -> !vhlo.tensor_v1<3072x!vhlo.f32_v1>
    %504 = "vhlo.broadcast_in_dim_v1"(%503) <{broadcast_dimensions = #vhlo.tensor_v1<dense<2> : tensor<1xi64>>}> : (!vhlo.tensor_v1<3072x!vhlo.f32_v1>) -> !vhlo.tensor_v1<1x7x3072x!vhlo.f32_v1>
    %505 = "vhlo.convert_v1"(%502) : (!vhlo.tensor_v1<1x7x3072x!vhlo.bf16_v1>) -> !vhlo.tensor_v1<1x7x3072x!vhlo.f32_v1>
    %506 = "vhlo.power_v1"(%505, %5) : (!vhlo.tensor_v1<1x7x3072x!vhlo.f32_v1>, !vhlo.tensor_v1<1x7x3072x!vhlo.f32_v1>) -> !vhlo.tensor_v1<1x7x3072x!vhlo.f32_v1>
    %507 = "vhlo.reduce_v1"(%506, %1) <{dimensions = #vhlo.tensor_v1<dense<2> : tensor<1xi64>>}> ({
    ^bb0(%arg54: !vhlo.tensor_v1<!vhlo.f32_v1>, %arg55: !vhlo.tensor_v1<!vhlo.f32_v1>):
      %558 = "vhlo.add_v1"(%arg54, %arg55) : (!vhlo.tensor_v1<!vhlo.f32_v1>, !vhlo.tensor_v1<!vhlo.f32_v1>) -> !vhlo.tensor_v1<!vhlo.f32_v1>
      "vhlo.return_v1"(%558) : (!vhlo.tensor_v1<!vhlo.f32_v1>) -> ()
    }) : (!vhlo.tensor_v1<1x7x3072x!vhlo.f32_v1>, !vhlo.tensor_v1<!vhlo.f32_v1>) -> !vhlo.tensor_v1<1x7x!vhlo.f32_v1>
    %508 = "vhlo.multiply_v1"(%507, %3) : (!vhlo.tensor_v1<1x7x!vhlo.f32_v1>, !vhlo.tensor_v1<1x7x!vhlo.f32_v1>) -> !vhlo.tensor_v1<1x7x!vhlo.f32_v1>
    %509 = "vhlo.reshape_v1"(%508) : (!vhlo.tensor_v1<1x7x!vhlo.f32_v1>) -> !vhlo.tensor_v1<1x7x1x!vhlo.f32_v1>
    %510 = "vhlo.add_v1"(%509, %22) : (!vhlo.tensor_v1<1x7x1x!vhlo.f32_v1>, !vhlo.tensor_v1<1x7x1x!vhlo.f32_v1>) -> !vhlo.tensor_v1<1x7x1x!vhlo.f32_v1>
    %511 = "vhlo.rsqrt_v2"(%510) <{result_accuracy = #vhlo.result_accuracy_v1<atol = 0.000000e+00, rtol = 0.000000e+00, ulps = 0, mode = #vhlo<result_accuracy_mode_v1 DEFAULT>>}> : (!vhlo.tensor_v1<1x7x1x!vhlo.f32_v1>) -> !vhlo.tensor_v1<1x7x1x!vhlo.f32_v1>
    %512 = "vhlo.reshape_v1"(%511) : (!vhlo.tensor_v1<1x7x1x!vhlo.f32_v1>) -> !vhlo.tensor_v1<1x7x!vhlo.f32_v1>
    %513 = "vhlo.broadcast_in_dim_v1"(%512) <{broadcast_dimensions = #vhlo.tensor_v1<dense<[0, 1]> : tensor<2xi64>>}> : (!vhlo.tensor_v1<1x7x!vhlo.f32_v1>) -> !vhlo.tensor_v1<1x7x3072x!vhlo.f32_v1>
    %514 = "vhlo.multiply_v1"(%505, %513) : (!vhlo.tensor_v1<1x7x3072x!vhlo.f32_v1>, !vhlo.tensor_v1<1x7x3072x!vhlo.f32_v1>) -> !vhlo.tensor_v1<1x7x3072x!vhlo.f32_v1>
    %515 = "vhlo.convert_v1"(%514) : (!vhlo.tensor_v1<1x7x3072x!vhlo.f32_v1>) -> !vhlo.tensor_v1<1x7x3072x!vhlo.bf16_v1>
    %516 = "vhlo.convert_v1"(%515) : (!vhlo.tensor_v1<1x7x3072x!vhlo.bf16_v1>) -> !vhlo.tensor_v1<1x7x3072x!vhlo.f32_v1>
    %517 = "vhlo.multiply_v1"(%504, %516) : (!vhlo.tensor_v1<1x7x3072x!vhlo.f32_v1>, !vhlo.tensor_v1<1x7x3072x!vhlo.f32_v1>) -> !vhlo.tensor_v1<1x7x3072x!vhlo.f32_v1>
    %518 = "vhlo.convert_v1"(%517) : (!vhlo.tensor_v1<1x7x3072x!vhlo.f32_v1>) -> !vhlo.tensor_v1<1x7x3072x!vhlo.bf16_v1>
    %519 = "vhlo.reshape_v1"(%518) : (!vhlo.tensor_v1<1x7x3072x!vhlo.bf16_v1>) -> !vhlo.tensor_v1<7x3072x!vhlo.bf16_v1>
    %520 = "vhlo.transpose_v1"(%arg52) <{permutation = #vhlo.tensor_v1<dense<[1, 0]> : tensor<2xi64>>}> {result_layout = #vhlo.tensor_v1<dense<[0, 1]> : tensor<2xindex>>, xla_shape = #vhlo.string_v1<"bf16[3072,8192]{0,1}">} : (!vhlo.tensor_v1<8192x3072x!vhlo.bf16_v1>) -> !vhlo.tensor_v1<3072x8192x!vhlo.bf16_v1>
    %521 = "vhlo.dot_general_v2"(%519, %520) <{accumulation_type = #vhlo.type_v1<!vhlo.none_v1>, allow_imprecise_accumulation = #vhlo.type_v1<!vhlo.none_v1>, lhs_batching_dimensions = #vhlo.tensor_v1<dense<> : tensor<0xi64>>, lhs_component_count = #vhlo.type_v1<!vhlo.none_v1>, lhs_contracting_dimensions = #vhlo.tensor_v1<dense<1> : tensor<1xi64>>, lhs_precision_type = #vhlo.type_v1<!vhlo.none_v1>, num_primitive_operations = #vhlo.type_v1<!vhlo.none_v1>, precision_config = #vhlo.array_v1<[#vhlo<precision_v1 DEFAULT>, #vhlo<precision_v1 DEFAULT>]>, rhs_batching_dimensions = #vhlo.tensor_v1<dense<> : tensor<0xi64>>, rhs_component_count = #vhlo.type_v1<!vhlo.none_v1>, rhs_contracting_dimensions = #vhlo.tensor_v1<dense<0> : tensor<1xi64>>, rhs_precision_type = #vhlo.type_v1<!vhlo.none_v1>}> : (!vhlo.tensor_v1<7x3072x!vhlo.bf16_v1>, !vhlo.tensor_v1<3072x8192x!vhlo.bf16_v1>) -> !vhlo.tensor_v1<7x8192x!vhlo.bf16_v1>
    %522 = "vhlo.reshape_v1"(%521) : (!vhlo.tensor_v1<7x8192x!vhlo.bf16_v1>) -> !vhlo.tensor_v1<1x7x8192x!vhlo.bf16_v1>
    %523 = "vhlo.convert_v1"(%522) : (!vhlo.tensor_v1<1x7x8192x!vhlo.bf16_v1>) -> !vhlo.tensor_v1<1x7x8192x!vhlo.f32_v1>
    %524 = "vhlo.logistic_v2"(%522) <{result_accuracy = #vhlo.result_accuracy_v1<atol = 0.000000e+00, rtol = 0.000000e+00, ulps = 0, mode = #vhlo<result_accuracy_mode_v1 DEFAULT>>}> : (!vhlo.tensor_v1<1x7x8192x!vhlo.bf16_v1>) -> !vhlo.tensor_v1<1x7x8192x!vhlo.bf16_v1>
    %525 = "vhlo.convert_v1"(%524) : (!vhlo.tensor_v1<1x7x8192x!vhlo.bf16_v1>) -> !vhlo.tensor_v1<1x7x8192x!vhlo.f32_v1>
    %526 = "vhlo.multiply_v1"(%523, %525) : (!vhlo.tensor_v1<1x7x8192x!vhlo.f32_v1>, !vhlo.tensor_v1<1x7x8192x!vhlo.f32_v1>) -> !vhlo.tensor_v1<1x7x8192x!vhlo.f32_v1>
    %527 = "vhlo.convert_v1"(%526) : (!vhlo.tensor_v1<1x7x8192x!vhlo.f32_v1>) -> !vhlo.tensor_v1<1x7x8192x!vhlo.bf16_v1>
    %528 = "vhlo.convert_v1"(%527) : (!vhlo.tensor_v1<1x7x8192x!vhlo.bf16_v1>) -> !vhlo.tensor_v1<1x7x8192x!vhlo.f32_v1>
    %529 = "vhlo.transpose_v1"(%arg48) <{permutation = #vhlo.tensor_v1<dense<[1, 0]> : tensor<2xi64>>}> {result_layout = #vhlo.tensor_v1<dense<[0, 1]> : tensor<2xindex>>, xla_shape = #vhlo.string_v1<"bf16[3072,8192]{0,1}">} : (!vhlo.tensor_v1<8192x3072x!vhlo.bf16_v1>) -> !vhlo.tensor_v1<3072x8192x!vhlo.bf16_v1>
    %530 = "vhlo.dot_general_v2"(%519, %529) <{accumulation_type = #vhlo.type_v1<!vhlo.none_v1>, allow_imprecise_accumulation = #vhlo.type_v1<!vhlo.none_v1>, lhs_batching_dimensions = #vhlo.tensor_v1<dense<> : tensor<0xi64>>, lhs_component_count = #vhlo.type_v1<!vhlo.none_v1>, lhs_contracting_dimensions = #vhlo.tensor_v1<dense<1> : tensor<1xi64>>, lhs_precision_type = #vhlo.type_v1<!vhlo.none_v1>, num_primitive_operations = #vhlo.type_v1<!vhlo.none_v1>, precision_config = #vhlo.array_v1<[#vhlo<precision_v1 DEFAULT>, #vhlo<precision_v1 DEFAULT>]>, rhs_batching_dimensions = #vhlo.tensor_v1<dense<> : tensor<0xi64>>, rhs_component_count = #vhlo.type_v1<!vhlo.none_v1>, rhs_contracting_dimensions = #vhlo.tensor_v1<dense<0> : tensor<1xi64>>, rhs_precision_type = #vhlo.type_v1<!vhlo.none_v1>}> : (!vhlo.tensor_v1<7x3072x!vhlo.bf16_v1>, !vhlo.tensor_v1<3072x8192x!vhlo.bf16_v1>) -> !vhlo.tensor_v1<7x8192x!vhlo.bf16_v1>
    %531 = "vhlo.reshape_v1"(%530) : (!vhlo.tensor_v1<7x8192x!vhlo.bf16_v1>) -> !vhlo.tensor_v1<1x7x8192x!vhlo.bf16_v1>
    %532 = "vhlo.convert_v1"(%531) : (!vhlo.tensor_v1<1x7x8192x!vhlo.bf16_v1>) -> !vhlo.tensor_v1<1x7x8192x!vhlo.f32_v1>
    %533 = "vhlo.multiply_v1"(%528, %532) : (!vhlo.tensor_v1<1x7x8192x!vhlo.f32_v1>, !vhlo.tensor_v1<1x7x8192x!vhlo.f32_v1>) -> !vhlo.tensor_v1<1x7x8192x!vhlo.f32_v1>
    %534 = "vhlo.convert_v1"(%533) : (!vhlo.tensor_v1<1x7x8192x!vhlo.f32_v1>) -> !vhlo.tensor_v1<1x7x8192x!vhlo.bf16_v1>
    %535 = "vhlo.reshape_v1"(%534) : (!vhlo.tensor_v1<1x7x8192x!vhlo.bf16_v1>) -> !vhlo.tensor_v1<7x8192x!vhlo.bf16_v1>
    %536 = "vhlo.transpose_v1"(%arg47) <{permutation = #vhlo.tensor_v1<dense<[1, 0]> : tensor<2xi64>>}> {result_layout = #vhlo.tensor_v1<dense<[0, 1]> : tensor<2xindex>>, xla_shape = #vhlo.string_v1<"bf16[8192,3072]{0,1}">} : (!vhlo.tensor_v1<3072x8192x!vhlo.bf16_v1>) -> !vhlo.tensor_v1<8192x3072x!vhlo.bf16_v1>
    %537 = "vhlo.dot_general_v2"(%535, %536) <{accumulation_type = #vhlo.type_v1<!vhlo.none_v1>, allow_imprecise_accumulation = #vhlo.type_v1<!vhlo.none_v1>, lhs_batching_dimensions = #vhlo.tensor_v1<dense<> : tensor<0xi64>>, lhs_component_count = #vhlo.type_v1<!vhlo.none_v1>, lhs_contracting_dimensions = #vhlo.tensor_v1<dense<1> : tensor<1xi64>>, lhs_precision_type = #vhlo.type_v1<!vhlo.none_v1>, num_primitive_operations = #vhlo.type_v1<!vhlo.none_v1>, precision_config = #vhlo.array_v1<[#vhlo<precision_v1 DEFAULT>, #vhlo<precision_v1 DEFAULT>]>, rhs_batching_dimensions = #vhlo.tensor_v1<dense<> : tensor<0xi64>>, rhs_component_count = #vhlo.type_v1<!vhlo.none_v1>, rhs_contracting_dimensions = #vhlo.tensor_v1<dense<0> : tensor<1xi64>>, rhs_precision_type = #vhlo.type_v1<!vhlo.none_v1>}> : (!vhlo.tensor_v1<7x8192x!vhlo.bf16_v1>, !vhlo.tensor_v1<8192x3072x!vhlo.bf16_v1>) -> !vhlo.tensor_v1<7x3072x!vhlo.bf16_v1>
    %538 = "vhlo.reshape_v1"(%537) : (!vhlo.tensor_v1<7x3072x!vhlo.bf16_v1>) -> !vhlo.tensor_v1<1x7x3072x!vhlo.bf16_v1>
    %539 = "vhlo.add_v1"(%502, %538) : (!vhlo.tensor_v1<1x7x3072x!vhlo.bf16_v1>, !vhlo.tensor_v1<1x7x3072x!vhlo.bf16_v1>) -> !vhlo.tensor_v1<1x7x3072x!vhlo.bf16_v1>
…
        %502 = "ttnn.typecast"(%501) <{dtype = #ttcore.supportedDataTypes<f32>}> : (tensor<1x3072xbf16, #ttnn.ttnn_layout<(d0, d1) -> (d0, d1), <1x1>, memref<1x96x!ttcore.tile<32x32, bf16>, #ttnn.buffer_type<dram>>, <interleaved>>>) -> tensor<1x3072xf32, #ttnn.ttnn_layout<(d0, d1) -> (d0, d1), <1x1>, memref<1x96x!ttcore.tile<32x32, f32>, #ttnn.buffer_type<dram>>, <interleaved>>>
        "ttnn.deallocate"(%501) <{force = false}> : (tensor<1x3072xbf16, #ttnn.ttnn_layout<(d0, d1) -> (d0, d1), <1x1>, memref<1x96x!ttcore.tile<32x32, bf16>, #ttnn.buffer_type<dram>>, <interleaved>>>) -> ()
        %503 = "ttnn.reshape"(%502) <{shape = [1 : i32, 1 : i32, 3072 : i32]}> : (tensor<1x3072xf32, #ttnn.ttnn_layout<(d0, d1) -> (d0, d1), <1x1>, memref<1x96x!ttcore.tile<32x32, f32>, #ttnn.buffer_type<dram>>, <interleaved>>>) -> tensor<1x1x3072xf32, #ttnn.ttnn_layout<(d0, d1, d2) -> (d0 * 32 + d1, d2), <1x1>, memref<1x96x!ttcore.tile<32x32, f32>, #ttnn.buffer_type<dram>>, <interleaved>>>
        %504 = "ttnn.pow"(%503, %0) : (tensor<1x1x3072xf32, #ttnn.ttnn_layout<(d0, d1, d2) -> (d0 * 32 + d1, d2), <1x1>, memref<1x96x!ttcore.tile<32x32, f32>, #ttnn.buffer_type<dram>>, <interleaved>>>, tensor<1x1x1xf32, #ttnn.ttnn_layout<(d0, d1, d2) -> (d0 * 32 + d1, d2), <1x1>, memref<1x1x!ttcore.tile<32x32, f32>, #ttnn.buffer_type<dram>>, <interleaved>>>) -> tensor<1x1x3072xf32, #ttnn.ttnn_layout<(d0, d1, d2) -> (d0 * 32 + d1, d2), <1x1>, memref<1x96x!ttcore.tile<32x32, f32>, #ttnn.buffer_type<dram>>, <interleaved>>>
        "ttnn.deallocate"(%503) <{force = false}> : (tensor<1x1x3072xf32, #ttnn.ttnn_layout<(d0, d1, d2) -> (d0 * 32 + d1, d2), <1x1>, memref<1x96x!ttcore.tile<32x32, f32>, #ttnn.buffer_type<dram>>, <interleaved>>>) -> ()
        "ttnn.deallocate"(%0) <{force = false}> : (tensor<1x1x1xf32, #ttnn.ttnn_layout<(d0, d1, d2) -> (d0 * 32 + d1, d2), <1x1>, memref<1x1x!ttcore.tile<32x32, f32>, #ttnn.buffer_type<dram>>, <interleaved>>>) -> ()
        %505 = "ttnn.sum"(%504) <{dim_arg = [2 : i32], keep_dim = false}> : (tensor<1x1x3072xf32, #ttnn.ttnn_layout<(d0, d1, d2) -> (d0 * 32 + d1, d2), <1x1>, memref<1x96x!ttcore.tile<32x32, f32>, #ttnn.buffer_type<dram>>, <interleaved>>>) -> tensor<1x1xf32, #ttnn.ttnn_layout<(d0, d1) -> (d0, d1), <1x1>, memref<1x1x!ttcore.tile<32x32, f32>, #ttnn.buffer_type<dram>>, <interleaved>>>
        "ttnn.deallocate"(%504) <{force = false}> : (tensor<1x1x3072xf32, #ttnn.ttnn_layout<(d0, d1, d2) -> (d0 * 32 + d1, d2), <1x1>, memref<1x96x!ttcore.tile<32x32, f32>, #ttnn.buffer_type<dram>>, <interleaved>>>) -> ()
        %506 = "ttnn.multiply"(%505, %2) <{output_dtype = #ttcore.supportedDataTypes<f32>}> : (tensor<1x1xf32, #ttnn.ttnn_layout<(d0, d1) -> (d0, d1), <1x1>, memref<1x1x!ttcore.tile<32x32, f32>, #ttnn.buffer_type<dram>>, <interleaved>>>, tensor<1x1xf32, #ttnn.ttnn_layout<(d0, d1) -> (d0, d1), <1x1>, memref<1x1x!ttcore.tile<32x32, f32>, #ttnn.buffer_type<dram>>, <interleaved>>>) -> tensor<1x1xf32, #ttnn.ttnn_layout<(d0, d1) -> (d0, d1), <1x1>, memref<1x1x!ttcore.tile<32x32, f32>, #ttnn.buffer_type<dram>>, <interleaved>>>
        "ttnn.deallocate"(%505) <{force = false}> : (tensor<1x1xf32, #ttnn.ttnn_layout<(d0, d1) -> (d0, d1), <1x1>, memref<1x1x!ttcore.tile<32x32, f32>, #ttnn.buffer_type<dram>>, <interleaved>>>) -> ()
        "ttnn.deallocate"(%2) <{force = false}> : (tensor<1x1xf32, #ttnn.ttnn_layout<(d0, d1) -> (d0, d1), <1x1>, memref<1x1x!ttcore.tile<32x32, f32>, #ttnn.buffer_type<dram>>, <interleaved>>>) -> ()
        %507 = "ttnn.reshape"(%6) <{shape = [1 : i32, 1 : i32]}> : (tensor<f32, #ttnn.ttnn_layout<() -> (0, 0), <1x1>, memref<1x1x!ttcore.tile<32x32, f32>, #ttnn.buffer_type<dram>>, <interleaved>>>) -> tensor<1x1xf32, #ttnn.ttnn_layout<(d0, d1) -> (d0, d1), <1x1>, memref<1x1x!ttcore.tile<32x32, f32>, #ttnn.buffer_type<dram>>, <interleaved>>>
        "ttnn.deallocate"(%6) <{force = false}> : (tensor<f32, #ttnn.ttnn_layout<() -> (0, 0), <1x1>, memref<1x1x!ttcore.tile<32x32, f32>, #ttnn.buffer_type<dram>>, <interleaved>>>) -> ()
        %508 = "ttnn.add"(%506, %507) <{output_dtype = #ttcore.supportedDataTypes<f32>}> : (tensor<1x1xf32, #ttnn.ttnn_layout<(d0, d1) -> (d0, d1), <1x1>, memref<1x1x!ttcore.tile<32x32, f32>, #ttnn.buffer_type<dram>>, <interleaved>>>, tensor<1x1xf32, #ttnn.ttnn_layout<(d0, d1) -> (d0, d1), <1x1>, memref<1x1x!ttcore.tile<32x32, f32>, #ttnn.buffer_type<dram>>, <interleaved>>>) -> tensor<1x1xf32, #ttnn.ttnn_layout<(d0, d1) -> (d0, d1), <1x1>, memref<1x1x!ttcore.tile<32x32, f32>, #ttnn.buffer_type<dram>>, <interleaved>>>
        "ttnn.deallocate"(%507) <{force = false}> : (tensor<1x1xf32, #ttnn.ttnn_layout<(d0, d1) -> (d0, d1), <1x1>, memref<1x1x!ttcore.tile<32x32, f32>, #ttnn.buffer_type<dram>>, <interleaved>>>) -> ()
        "ttnn.deallocate"(%506) <{force = false}> : (tensor<1x1xf32, #ttnn.ttnn_layout<(d0, d1) -> (d0, d1), <1x1>, memref<1x1x!ttcore.tile<32x32, f32>, #ttnn.buffer_type<dram>>, <interleaved>>>) -> ()
        %509 = "ttnn.rsqrt"(%508) : (tensor<1x1xf32, #ttnn.ttnn_layout<(d0, d1) -> (d0, d1), <1x1>, memref<1x1x!ttcore.tile<32x32, f32>, #ttnn.buffer_type<dram>>, <interleaved>>>) -> tensor<1x1xf32, #ttnn.ttnn_layout<(d0, d1) -> (d0, d1), <1x1>, memref<1x1x!ttcore.tile<32x32, f32>, #ttnn.buffer_type<dram>>, <interleaved>>>
        "ttnn.deallocate"(%508) <{force = false}> : (tensor<1x1xf32, #ttnn.ttnn_layout<(d0, d1) -> (d0, d1), <1x1>, memref<1x1x!ttcore.tile<32x32, f32>, #ttnn.buffer_type<dram>>, <interleaved>>>) -> ()
        %510 = "ttnn.multiply"(%502, %509) <{output_dtype = #ttcore.supportedDataTypes<f32>}> : (tensor<1x3072xf32, #ttnn.ttnn_layout<(d0, d1) -> (d0, d1), <1x1>, memref<1x96x!ttcore.tile<32x32, f32>, #ttnn.buffer_type<dram>>, <interleaved>>>, tensor<1x1xf32, #ttnn.ttnn_layout<(d0, d1) -> (d0, d1), <1x1>, memref<1x1x!ttcore.tile<32x32, f32>, #ttnn.buffer_type<dram>>, <interleaved>>>) -> tensor<1x3072xf32, #ttnn.ttnn_layout<(d0, d1) -> (d0, d1), <1x1>, memref<1x96x!ttcore.tile<32x32, f32>, #ttnn.buffer_type<dram>>, <interleaved>>>
        "ttnn.deallocate"(%509) <{force = false}> : (tensor<1x1xf32, #ttnn.ttnn_layout<(d0, d1) -> (d0, d1), <1x1>, memref<1x1x!ttcore.tile<32x32, f32>, #ttnn.buffer_type<dram>>, <interleaved>>>) -> ()
        "ttnn.deallocate"(%502) <{force = false}> : (tensor<1x3072xf32, #ttnn.ttnn_layout<(d0, d1) -> (d0, d1), <1x1>, memref<1x96x!ttcore.tile<32x32, f32>, #ttnn.buffer_type<dram>>, <interleaved>>>) -> ()
        %511 = "ttnn.multiply"(%428, %510) <{output_dtype = #ttcore.supportedDataTypes<f32>}> : (tensor<1x3072xf32, #ttnn.ttnn_layout<(d0, d1) -> (d0, d1), <1x1>, memref<1x96x!ttcore.tile<32x32, f32>, #ttnn.buffer_type<dram>>, <interleaved>>>, tensor<1x3072xf32, #ttnn.ttnn_layout<(d0, d1) -> (d0, d1), <1x1>, memref<1x96x!ttcore.tile<32x32, f32>, #ttnn.buffer_type<dram>>, <interleaved>>>) -> tensor<1x3072xf32, #ttnn.ttnn_layout<(d0, d1) -> (d0, d1), <1x1>, memref<1x96x!ttcore.tile<32x32, f32>, #ttnn.buffer_type<dram>>, <interleaved>>>
        "ttnn.deallocate"(%510) <{force = false}> : (tensor<1x3072xf32, #ttnn.ttnn_layout<(d0, d1) -> (d0, d1), <1x1>, memref<1x96x!ttcore.tile<32x32, f32>, #ttnn.buffer_type<dram>>, <interleaved>>>) -> ()
        "ttnn.deallocate"(%428) <{force = false}> : (tensor<1x3072xf32, #ttnn.ttnn_layout<(d0, d1) -> (d0, d1), <1x1>, memref<1x96x!ttcore.tile<32x32, f32>, #ttnn.buffer_type<dram>>, <interleaved>>>) -> ()
        %512 = "ttnn.typecast"(%511) <{dtype = #ttcore.supportedDataTypes<bf16>}> : (tensor<1x3072xf32, #ttnn.ttnn_layout<(d0, d1) -> (d0, d1), <1x1>, memref<1x96x!ttcore.tile<32x32, f32>, #ttnn.buffer_type<dram>>, <interleaved>>>) -> tensor<1x3072xbf16, #ttnn.ttnn_layout<(d0, d1) -> (d0, d1), <1x1>, memref<1x96x!ttcore.tile<32x32, bf16>, #ttnn.buffer_type<dram>>, <interleaved>>>
        "ttnn.deallocate"(%511) <{force = false}> : (tensor<1x3072xf32, #ttnn.ttnn_layout<(d0, d1) -> (d0, d1), <1x1>, memref<1x96x!ttcore.tile<32x32, f32>, #ttnn.buffer_type<dram>>, <interleaved>>>) -> ()
        %513 = "ttnn.matmul"(%512, %8) <{transpose_a = false, transpose_b = true}> : (tensor<1x3072xbf16, #ttnn.ttnn_layout<(d0, d1) -> (d0, d1), <1x1>, memref<1x96x!ttcore.tile<32x32, bf16>, #ttnn.buffer_type<dram>>, <interleaved>>>, tensor<64128x3072xbf16, #ttnn.ttnn_layout<(d0, d1) -> (d0, d1), <1x1>, memref<2004x96x!ttcore.tile<32x32, bf16>, #ttnn.buffer_type<dram>>, <interleaved>>>) -> tensor<1x64128xbf16, #ttnn.ttnn_layout<(d0, d1) -> (d0, d1), <1x1>, memref<1x2004x!ttcore.tile<32x32, bf16>, #ttnn.buffer_type<dram>>, <interleaved>>>
        "ttnn.deallocate"(%512) <{force = false}> : (tensor<1x3072xbf16, #ttnn.ttnn_layout<(d0, d1) -> (d0, d1), <1x1>, memref<1x96x!ttcore.tile<32x32, bf16>, #ttnn.buffer_type<dram>>, <interleaved>>>) -> ()
        "ttnn.deallocate"(%8) <{force = false}> : (tensor<64128x3072xbf16, #ttnn.ttnn_layout<(d0, d1) -> (d0, d1), <1x1>, memref<2004x96x!ttcore.tile<32x32, bf16>, #ttnn.buffer_type<dram>>, <interleaved>>>) -> ()
        %514 = "ttnn.reshape"(%513) <{shape = [1 : i32, 1 : i32, 64128 : i32]}> : (tensor<1x64128xbf16, #ttnn.ttnn_layout<(d0, d1) -> (d0, d1), <1x1>, memref<1x2004x!ttcore.tile<32x32, bf16>, #ttnn.buffer_type<dram>>, <interleaved>>>) -> tensor<1x1x64128xbf16, #ttnn.ttnn_layout<(d0, d1, d2) -> (d0 * 32 + d1, d2), <1x1>, memref<1x2004x!ttcore.tile<32x32, bf16>, #ttnn.buffer_type<dram>>, <interleaved>>>
        %515 = "ttnn.to_layout"(%10) <{layout = #ttnn.layout<row_major>}> : (tensor<1x4x128x128xbf16, #ttnn.ttnn_layout<(d0, d1, d2, d3) -> (d0 * 512 + d1 * 128 + d2, d3), <1x1>, memref<16x4x!ttcore.tile<32x32, bf16>, #ttnn.buffer_type<dram>>, <interleaved>>>) -> tensor<1x4x128x128xbf16, #ttnn.ttnn_layout<(d0, d1, d2, d3) -> (d0 * 512 + d1 * 128 + d2, d3), <1x1>, memref<512x128xbf16, #ttnn.buffer_type<dram>>, <interleaved>>>
        "ttnn.deallocate"(%10) <{force = false}> : (tensor<1x4x128x128xbf16, #ttnn.ttnn_layout<(d0, d1, d2, d3) -> (d0 * 512 + d1 * 128 + d2, d3), <1x1>, memref<16x4x!ttcore.tile<32x32, bf16>, #ttnn.buffer_type<dram>>, <interleaved>>>) -> ()
        %516 = "ttnn.from_device"(%515) : (tensor<1x4x128x128xbf16, #ttnn.ttnn_layout<(d0, d1, d2, d3) -> (d0 * 512 + d1 * 128 + d2, d3), <1x1>, memref<512x128xbf16, #ttnn.buffer_type<dram>>, <interleaved>>>) -> tensor<1x4x128x128xbf16, #ttnn.ttnn_layout<(d0, d1, d2, d3) -> (d0 * 512 + d1 * 128 + d2, d3), <1x1>, memref<512x128xbf16, #ttnn.buffer_type<system_memory>>>>
        "ttnn.deallocate"(%515) <{force = false}> : (tensor<1x4x128x128xbf16, #ttnn.ttnn_layout<(d0, d1, d2, d3) -> (d0 * 512 + d1 * 128 + d2, d3), <1x1>, memref<512x128xbf16, #ttnn.buffer_type<dram>>, <interleaved>>>) -> ()
        %517 = "ttnn.mesh_shard"(%516, %1) <{shard_dims = array<i64: -1, 1>, shard_direction = #ttcore.shard_direction<shard_to_full>, shard_shape = array<i64: 1, 2, 1, 1>, shard_type = #ttcore.shard_type<devices>}> : (tensor<1x4x128x128xbf16, #ttnn.ttnn_layout<(d0, d1, d2, d3) -> (d0 * 512 + d1 * 128 + d2, d3), <1x1>, memref<512x128xbf16, #ttnn.buffer_type<system_memory>>>>, !ttnn.device) -> tensor<1x8x128x128xbf16, #ttnn.ttnn_layout<(d0, d1, d2, d3) -> (d0 * 1024 + d1 * 128 + d2, d3), <1x1>, memref<1024x128xbf16, #ttnn.buffer_type<system_memory>>>>
        "ttnn.deallocate"(%516) <{force = false}> : (tensor<1x4x128x128xbf16, #ttnn.ttnn_layout<(d0, d1, d2, d3) -> (d0 * 512 + d1 * 128 + d2, d3), <1x1>, memref<512x128xbf16, #ttnn.buffer_type<system_memory>>>>) -> ()
        %518 = "ttnn.to_layout"(%12) <{layout = #ttnn.layout<row_major>}> : (tensor<1x4x128x128xbf16, #ttnn.ttnn_layout<(d0, d1, d2, d3) -> (d0 * 512 + d1 * 128 + d2, d3), <1x1>, memref<16x4x!ttcore.tile<32x32, bf16>, #ttnn.buffer_type<dram>>, <interleaved>>>) -> tensor<1x4x128x128xbf16, #ttnn.ttnn_layout<(d0, d1, d2, d3) -> (d0 * 512 + d1 * 128 + d2, d3), <1x1>, memref<512x128xbf16, #ttnn.buffer_type<dram>>, <interleaved>>>
        "ttnn.deallocate"(%12) <{force = false}> : (tensor<1x4x128x128xbf16, #ttnn.ttnn_layout<(d0, d1, d2, d3) -> (d0 * 512 + d1 * 128 + d2, d3), <1x1>, memref<16x4x!ttcore.tile<32x32, bf16>, #ttnn.buffer_type<dram>>, <interleaved>>>) -> ()
        %519 = "ttnn.from_device"(%518) : (tensor<1x4x128x128xbf16, #ttnn.ttnn_layout<(d0, d1, d2, d3) -> (d0 * 512 + d1 * 128 + d2, d3), <1x1>, memref<512x128xbf16, #ttnn.buffer_type<dram>>, <interleaved>>>) -> tensor<1x4x128x128xbf16, #ttnn.ttnn_layout<(d0, d1, d2, d3) -> (d0 * 512 + d1 * 128 + d2, d3), <1x1>, memref<512x128xbf16, #ttnn.buffer_type<system_memory>>>>
        "ttnn.deallocate"(%518) <{force = false}> : (tensor<1x4x128x128xbf16, #ttnn.ttnn_layout<(d0, d1, d2, d3) -> (d0 * 512 + d1 * 128 + d2, d3), <1x1>, memref<512x128xbf16, #ttnn.buffer_type<dram>>, <interleaved>>>) -> ()
        %520 = "ttnn.mesh_shard"(%519, %1) <{shard_dims = array<i64: -1, 1>, shard_direction = #ttcore.shard_direction<shard_to_full>, shard_shape = array<i64: 1, 2, 1, 1>, shard_type = #ttcore.shard_type<devices>}> : (tensor<1x4x128x128xbf16, #ttnn.ttnn_layout<(d0, d1, d2, d3) -> (d0 * 512 + d1 * 128 + d2, d3), <1x1>, memref<512x128xbf16, #ttnn.buffer_type<system_memory>>>>, !ttnn.device) -> tensor<1x8x128x128xbf16, #ttnn.ttnn_layout<(d0, d1, d2, d3) -> (d0 * 1024 + d1 * 128 + d2, d3), <1x1>, memref<1024x128xbf16, #ttnn.buffer_type<system_memory>>>>
        "ttnn.deallocate"(%519) <{force = false}> : (tensor<1x4x128x128xbf16, #ttnn.ttnn_layout<(d0, d1, d2, d3) -> (d0 * 512 + d1 * 128 + d2, d3), <1x1>, memref<512x128xbf16, #ttnn.buffer_type<system_memory>>>>) -> ()
        %521 = "ttnn.to_layout"(%24) <{layout = #ttnn.layout<row_major>}> : (tensor<1x4x128x128xbf16, #ttnn.ttnn_layout<(d0, d1, d2, d3) -> (d0 * 512 + d1 * 128 + d2, d3), <1x1>, memref<16x4x!ttcore.tile<32x32, bf16>, #ttnn.buffer_type<dram>>, <interleaved>>>) -> tensor<1x4x128x128xbf16, #ttnn.ttnn_layout<(d0, d1, d2, d3) -> (d0 * 512 + d1 * 128 + d2, d3), <1x1>, memref<512x128xbf16, #ttnn.buffer_type<dram>>, <interleaved>>>
        "ttnn.deallocate"(%24) <{force = false}> : (tensor<1x4x128x128xbf16, #ttnn.ttnn_layout<(d0, d1, d2, d3) -> (d0 * 512 + d1 * 128 + d2, d3), <1x1>, memref<16x4x!ttcore.tile<32x32, bf16>, #ttnn.buffer_type<dram>>, <interleaved>>>) -> ()
        %522 = "ttnn.from_device"(%521) : (tensor<1x4x128x128xbf16, #ttnn.ttnn_layout<(d0, d1, d2, d3) -> (d0 * 512 + d1 * 128 + d2, d3), <1x1>, memref<512x128xbf16, #ttnn.buffer_type<dram>>, <interleaved>>>) -> tensor<1x4x128x128xbf16, #ttnn.ttnn_layout<(d0, d1, d2, d3) -> (d0 * 512 + d1 * 128 + d2, d3), <1x1>, memref<512x128xbf16, #ttnn.buffer_type<system_memory>>>>
        "ttnn.deallocate"(%521) <{force = false}> : (tensor<1x4x128x128xbf16, #ttnn.ttnn_layout<(d0, d1, d2, d3) -> (d0 * 512 + d1 * 128 + d2, d3), <1x1>, memref<512x128xbf16, #ttnn.buffer_type<dram>>, <interleaved>>>) -> ()
        %523 = "ttnn.mesh_shard"(%522, %1) <{shard_dims = array<i64: -1, 1>, shard_direction = #ttcore.shard_direction<shard_to_full>, shard_shape = array<i64: 1, 2, 1, 1>, shard_type = #ttcore.shard_type<devices>}> : (tensor<1x4x128x128xbf16, #ttnn.ttnn_layout<(d0, d1, d2, d3) -> (d0 * 512 + d1 * 128 + d2, d3), <1x1>, memref<512x128xbf16, #ttnn.buffer_type<system_memory>>>>, !ttnn.device) -> tensor<1x8x128x128xbf16, #ttnn.ttnn_layout<(d0, d1, d2, d3) -> (d0 * 1024 + d1 * 128 + d2, d3), <1x1>, memref<1024x128xbf16, #ttnn.buffer_type<system_memory>>>>
        "ttnn.deallocate"(%522) <{force = false}> : (tensor<1x4x128x128xbf16, #ttnn.ttnn_layout<(d0, d1, d2, d3) -> (d0 * 512 + d1 * 128 + d2, d3), <1x1>, memref<512x128xbf16, #ttnn.buffer_type<system_memory>>>>) -> ()
        %524 = "ttnn.to_layout"(%26) <{layout = #ttnn.layout<row_major>}> : (tensor<1x4x128x128xbf16, #ttnn.ttnn_layout<(d0, d1, d2, d3) -> (d0 * 512 + d1 * 128 + d2, d3), <1x1>, memref<16x4x!ttcore.tile<32x32, bf16>, #ttnn.buffer_type<dram>>, <interleaved>>>) -> tensor<1x4x128x128xbf16, #ttnn.ttnn_layout<(d0, d1, d2, d3) -> (d0 * 512 + d1 * 128 + d2, d3), <1x1>, memref<512x128xbf16, #ttnn.buffer_type<dram>>, <interleaved>>>
        "ttnn.deallocate"(%26) <{force = false}> : (tensor<1x4x128x128xbf16, #ttnn.ttnn_layout<(d0, d1, d2, d3) -> (d0 * 512 + d1 * 128 + d2, d3), <1x1>, memref<16x4x!ttcore.tile<32x32, bf16>, #ttnn.buffer_type<dram>>, <interleaved>>>) -> ()
        %525 = "ttnn.from_device"(%524) : (tensor<1x4x128x128xbf16, #ttnn.ttnn_layout<(d0, d1, d2, d3) -> (d0 * 512 + d1 * 128 + d2, d3), <1x1>, memref<512x128xbf16, #ttnn.buffer_type<dram>>, <interleaved>>>) -> tensor<1x4x128x128xbf16, #ttnn.ttnn_layout<(d0, d1, d2, d3) -> (d0 * 512 + d1 * 128 + d2, d3), <1x1>, memref<512x128xbf16, #ttnn.buffer_type<system_memory>>>>
        "ttnn.deallocate"(%524) <{force = false}> : (tensor<1x4x128x128xbf16, #ttnn.ttnn_layout<(d0, d1, d2, d3) -> (d0 * 512 + d1 * 128 + d2, d3), <1x1>, memref<512x128xbf16, #ttnn.buffer_type<dram>>, <interleaved>>>) -> ()
        %526 = "ttnn.mesh_shard"(%525, %1) <{shard_dims = array<i64: -1, 1>, shard_direction = #ttcore.shard_direction<shard_to_full>, shard_shape = array<i64: 1, 2, 1, 1>, shard_type = #ttcore.shard_type<devices>}> : (tensor<1x4x128x128xbf16, #ttnn.ttnn_layout<(d0, d1, d2, d3) -> (d0 * 512 + d1 * 128 + d2, d3), <1x1>, memref<512x128xbf16, #ttnn.buffer_type<system_memory>>>>, !ttnn.device) -> tensor<1x8x128x128xbf16, #ttnn.ttnn_layout<(d0, d1, d2, d3) -> (d0 * 1024 + d1 * 128 + d2, d3), <1x1>, memref<1024x128xbf16, #ttnn.buffer_type<system_memory>>>>
        "ttnn.deallocate"(%525) <{force = false}> : (tensor<1x4x128x128xbf16, #ttnn.ttnn_layout<(d0, d1, d2, d3) -> (d0 * 512 + d1 * 128 + d2, d3), <1x1>, memref<512x128xbf16, #ttnn.buffer_type<system_memory>>>>) -> ()
        %527 = "ttnn.to_layout"(%35) <{layout = #ttnn.layout<row_major>}> : (tensor<1x4x128x128xbf16, #ttnn.ttnn_layout<(d0, d1, d2, d3) -> (d0 * 512 + d1 * 128 + d2, d3), <1x1>, memref<16x4x!ttcore.tile<32x32, bf16>, #ttnn.buffer_type<dram>>, <interleaved>>>) -> tensor<1x4x128x128xbf16, #ttnn.ttnn_layout<(d0, d1, d2, d3) -> (d0 * 512 + d1 * 128 + d2, d3), <1x1>, memref<512x128xbf16, #ttnn.buffer_type<dram>>, <interleaved>>>
        "ttnn.deallocate"(%35) <{force = false}> : (tensor<1x4x128x128xbf16, #ttnn.ttnn_layout<(d0, d1, d2, d3) -> (d0 * 512 + d1 * 128 + d2, d3), <1x1>, memref<16x4x!ttcore.tile<32x32, bf16>, #ttnn.buffer_type<dram>>, <interleaved>>>) -> ()
        %528 = "ttnn.from_device"(%527) : (tensor<1x4x128x128xbf16, #ttnn.ttnn_layout<(d0, d1, d2, d3) -> (d0 * 512 + d1 * 128 + d2, d3), <1x1>, memref<512x128xbf16, #ttnn.buffer_type<dram>>, <interleaved>>>) -> tensor<1x4x128x128xbf16, #ttnn.ttnn_layout<(d0, d1, d2, d3) -> (d0 * 512 + d1 * 128 + d2, d3), <1x1>, memref<512x128xbf16, #ttnn.buffer_type<system_memory>>>>
        "ttnn.deallocate"(%527) <{force = false}> : (tensor<1x4x128x128xbf16, #ttnn.ttnn_layout<(d0, d1, d2, d3) -> (d0 * 512 + d1 * 128 + d2, d3), <1x1>, memref<512x128xbf16, #ttnn.buffer_type<dram>>, <interleaved>>>) -> ()
        %529 = "ttnn.mesh_shard"(%528, %1) <{shard_dims = array<i64: -1, 1>, shard_direction = #ttcore.shard_direction<shard_to_full>, shard_shape = array<i64: 1, 2, 1, 1>, shard_type = #ttcore.shard_type<devices>}> : (tensor<1x4x128x128xbf16, #ttnn.ttnn_layout<(d0, d1, d2, d3) -> (d0 * 512 + d1 * 128 + d2, d3), <1x1>, memref<512x128xbf16, #ttnn.buffer_type<system_memory>>>>, !ttnn.device) -> tensor<1x8x128x128xbf16, #ttnn.ttnn_layout<(d0, d1, d2, d3) -> (d0 * 1024 + d1 * 128 + d2, d3), <1x1>, memref<1024x128xbf16, #ttnn.buffer_type<system_memory>>>>
        "ttnn.deallocate"(%528) <{force = false}> : (tensor<1x4x128x128xbf16, #ttnn.ttnn_layout<(d0, d1, d2, d3) -> (d0 * 512 + d1 * 128 + d2, d3), <1x1>, memref<512x128xbf16, #ttnn.buffer_type<system_memory>>>>) -> ()
        %530 = "ttnn.to_layout"(%37) <{layout = #ttnn.layout<row_major>}> : (tensor<1x4x128x128xbf16, #ttnn.ttnn_layout<(d0, d1, d2, d3) -> (d0 * 512 + d1 * 128 + d2, d3), <1x1>, memref<16x4x!ttcore.tile<32x32, bf16>, #ttnn.buffer_type<dram>>, <interleaved>>>) -> tensor<1x4x128x128xbf16, #ttnn.ttnn_layout<(d0, d1, d2, d3) -> (d0 * 512 + d1 * 128 + d2, d3), <1x1>, memref<512x128xbf16, #ttnn.buffer_type<dram>>, <interleaved>>>
        "ttnn.deallocate"(%37) <{force = false}> : (tensor<1x4x128x128xbf16, #ttnn.ttnn_layout<(d0, d1, d2, d3) -> (d0 * 512 + d1 * 128 + d2, d3), <1x1>, memref<16x4x!ttcore.tile<32x32, bf16>, #ttnn.buffer_type<dram>>, <interleaved>>>) -> ()
        %531 = "ttnn.from_device"(%530) : (tensor<1x4x128x128xbf16, #ttnn.ttnn_layout<(d0, d1, d2, d3) -> (d0 * 512 + d1 * 128 + d2, d3), <1x1>, memref<512x128xbf16, #ttnn.buffer_type<dram>>, <interleaved>>>) -> tensor<1x4x128x128xbf16, #ttnn.ttnn_layout<(d0, d1, d2, d3) -> (d0 * 512 + d1 * 128 + d2, d3), <1x1>, memref<512x128xbf16, #ttnn.buffer_type<system_memory>>>>
        "ttnn.deallocate"(%530) <{force = false}> : (tensor<1x4x128x128xbf16, #ttnn.ttnn_layout<(d0, d1, d2, d3) -> (d0 * 512 + d1 * 128 + d2, d3), <1x1>, memref<512x128xbf16, #ttnn.buffer_type<dram>>, <interleaved>>>) -> ()
        %532 = "ttnn.mesh_shard"(%531, %1) <{shard_dims = array<i64: -1, 1>, shard_direction = #ttcore.shard_direction<shard_to_full>, shard_shape = array<i64: 1, 2, 1, 1>, shard_type = #ttcore.shard_type<devices>}> : (tensor<1x4x128x128xbf16, #ttnn.ttnn_layout<(d0, d1, d2, d3) -> (d0 * 512 + d1 * 128 + d2, d3), <1x1>, memref<512x128xbf16, #ttnn.buffer_type<system_memory>>>>, !ttnn.device) -> tensor<1x8x128x128xbf16, #ttnn.ttnn_layout<(d0, d1, d2, d3) -> (d0 * 1024 + d1 * 128 + d2, d3), <1x1>, memref<1024x128xbf16, #ttnn.buffer_type<system_memory>>>>
        "ttnn.deallocate"(%531) <{force = false}> : (tensor<1x4x128x128xbf16, #ttnn.ttnn_layout<(d0, d1, d2, d3) -> (d0 * 512 + d1 * 128 + d2, d3), <1x1>, memref<512x128xbf16, #ttnn.buffer_type<system_memory>>>>) -> ()
        %533 = "ttnn.to_layout"(%46) <{layout = #ttnn.layout<row_major>}> : (tensor<1x4x128x128xbf16, #ttnn.ttnn_layout<(d0, d1, d2, d3) -> (d0 * 512 + d1 * 128 + d2, d3), <1x1>, memref<16x4x!ttcore.tile<32x32, bf16>, #ttnn.buffer_type<dram>>, <interleaved>>>) -> tensor<1x4x128x128xbf16, #ttnn.ttnn_layout<(d0, d1, d2, d3) -> (d0 * 512 + d1 * 128 + d2, d3), <1x1>, memref<512x128xbf16, #ttnn.buffer_type<dram>>, <interleaved>>>
        "ttnn.deallocate"(%46) <{force = false}> : (tensor<1x4x128x128xbf16, #ttnn.ttnn_layout<(d0, d1, d2, d3) -> (d0 * 512 + d1 * 128 + d2, d3), <1x1>, memref<16x4x!ttcore.tile<32x32, bf16>, #ttnn.buffer_type<dram>>, <interleaved>>>) -> ()
        %534 = "ttnn.from_device"(%533) : (tensor<1x4x128x128xbf16, #ttnn.ttnn_layout<(d0, d1, d2, d3) -> (d0 * 512 + d1 * 128 + d2, d3), <1x1>, memref<512x128xbf16, #ttnn.buffer_type<dram>>, <interleaved>>>) -> tensor<1x4x128x128xbf16, #ttnn.ttnn_layout<(d0, d1, d2, d3) -> (d0 * 512 + d1 * 128 + d2, d3), <1x1>, memref<512x128xbf16, #ttnn.buffer_type<system_memory>>>>
        "ttnn.deallocate"(%533) <{force = false}> : (tensor<1x4x128x128xbf16, #ttnn.ttnn_layout<(d0, d1, d2, d3) -> (d0 * 512 + d1 * 128 + d2, d3), <1x1>, memref<512x128xbf16, #ttnn.buffer_type<dram>>, <interleaved>>>) -> ()
        %535 = "ttnn.mesh_shard"(%534, %1) <{shard_dims = array<i64: -1, 1>, shard_direction = #ttcore.shard_direction<shard_to_full>, shard_shape = array<i64: 1, 2, 1, 1>, shard_type = #ttcore.shard_type<devices>}> : (tensor<1x4x128x128xbf16, #ttnn.ttnn_layout<(d0, d1, d2, d3) -> (d0 * 512 + d1 * 128 + d2, d3), <1x1>, memref<512x128xbf16, #ttnn.buffer_type<system_memory>>>>, !ttnn.device) -> tensor<1x8x128x128xbf16, #ttnn.ttnn_layout<(d0, d1, d2, d3) -> (d0 * 1024 + d1 * 128 + d2, d3), <1x1>, memref<1024x128xbf16, #ttnn.buffer_type<system_memory>>>>
        "ttnn.deallocate"(%534) <{force = false}> : (tensor<1x4x128x128xbf16, #ttnn.ttnn_layout<(d0, d1, d2, d3) -> (d0 * 512 + d1 * 128 + d2, d3), <1x1>, memref<512x128xbf16, #ttnn.buffer_type<system_memory>>>>) -> ()
        %536 = "ttnn.to_layout"(%48) <{layout = #ttnn.layout<row_major>}> : (tensor<1x4x128x128xbf16, #ttnn.ttnn_layout<(d0, d1, d2, d3) -> (d0 * 512 + d1 * 128 + d2, d3), <1x1>, memref<16x4x!ttcore.tile<32x32, bf16>, #ttnn.buffer_type<dram>>, <interleaved>>>) -> tensor<1x4x128x128xbf16, #ttnn.ttnn_layout<(d0, d1, d2, d3) -> (d0 * 512 + d1 * 128 + d2, d3), <1x1>, memref<512x128xbf16, #ttnn.buffer_type<dram>>, <interleaved>>>
        "ttnn.deallocate"(%48) <{force = false}> : (tensor<1x4x128x128xbf16, #ttnn.ttnn_layout<(d0, d1, d2, d3) -> (d0 * 512 + d1 * 128 + d2, d3), <1x1>, memref<16x4x!ttcore.tile<32x32, bf16>, #ttnn.buffer_type<dram>>, <interleaved>>>) -> ()
        %537 = "ttnn.from_device"(%536) : (tensor<1x4x128x128xbf16, #ttnn.ttnn_layout<(d0, d1, d2, d3) -> (d0 * 512 + d1 * 128 + d2, d3), <1x1>, memref<512x128xbf16, #ttnn.buffer_type<dram>>, <interleaved>>>) -> tensor<1x4x128x128xbf16, #ttnn.ttnn_layout<(d0, d1, d2, d3) -> (d0 * 512 + d1 * 128 + d2, d3), <1x1>, memref<512x128xbf16, #ttnn.buffer_type<system_memory>>>>
        "ttnn.deallocate"(%536) <{force = false}> : (tensor<1x4x128x128xbf16, #ttnn.ttnn_layout<(d0, d1, d2, d3) -> (d0 * 512 + d1 * 128 + d2, d3), <1x1>, memref<512x128xbf16, #ttnn.buffer_type<dram>>, <interleaved>>>) -> ()
        %538 = "ttnn.mesh_shard"(%537, %1) <{shard_dims = array<i64: -1, 1>, shard_direction = #ttcore.shard_direction<shard_to_full>, shard_shape = array<i64: 1, 2, 1, 1>, shard_type = #ttcore.shard_type<devices>}> : (tensor<1x4x128x128xbf16, #ttnn.ttnn_layout<(d0, d1, d2, d3) -> (d0 * 512 + d1 * 128 + d2, d3), <1x1>, memref<512x128xbf16, #ttnn.buffer_type<system_memory>>>>, !ttnn.device) -> tensor<1x8x128x128xbf16, #ttnn.ttnn_layout<(d0, d1, d2, d3) -> (d0 * 1024 + d1 * 128 + d2, d3), <1x1>, memref<1024x128xbf16, #ttnn.buffer_type<system_memory>>>>
        "ttnn.deallocate"(%537) <{force = false}> : (tensor<1x4x128x128xbf16, #ttnn.ttnn_layout<(d0, d1, d2, d3) -> (d0 * 512 + d1 * 128 + d2, d3), <1x1>, memref<512x128xbf16, #ttnn.buffer_type<system_memory>>>>) -> ()
        %539 = "ttnn.to_layout"(%513) <{layout = #ttnn.layout<row_major>}> : (tensor<1x64128xbf16, #ttnn.ttnn_layout<(d0, d1) -> (d0, d1), <1x1>, memref<1x2004x!ttcore.tile<32x32, bf16>, #ttnn.buffer_type<dram>>, <interleaved>>>) -> tensor<1x64128xbf16, #ttnn.ttnn_layout<(d0, d1) -> (d0, d1), <1x1>, memref<1x64128xbf16, #ttnn.buffer_type<dram>>, <interleaved>>>
        "ttnn.deallocate"(%513) <{force = false}> : (tensor<1x64128xbf16, #ttnn.ttnn_layout<(d0, d1) -> (d0, d1), <1x1>, memref<1x2004x!ttcore.tile<32x32, bf16>, #ttnn.buffer_type<dram>>, <interleaved>>>) -> ()
        %540 = "ttnn.from_device"(%539) : (tensor<1x64128xbf16, #ttnn.ttnn_layout<(d0, d1) -> (d0, d1), <1x1>, memref<1x64128xbf16, #ttnn.buffer_type<dram>>, <interleaved>>>) -> tensor<1x64128xbf16, #ttnn.ttnn_layout<(d0, d1) -> (d0, d1), <1x1>, memref<1x64128xbf16, #ttnn.buffer_type<system_memory>>>>
        "ttnn.deallocate"(%539) <{force = false}> : (tensor<1x64128xbf16, #ttnn.ttnn_layout<(d0, d1) -> (d0, d1), <1x1>, memref<1x64128xbf16, #ttnn.buffer_type<dram>>, <interleaved>>>) -> ()
        %541 = "ttnn.mesh_shard"(%540, %1) <{shard_dims = array<i64: -1, 1>, shard_direction = #ttcore.shard_direction<shard_to_full>, shard_shape = array<i64: 1, 2>, shard_type = #ttcore.shard_type<devices>}> : (tensor<1x64128xbf16, #ttnn.ttnn_layout<(d0, d1) -> (d0, d1), <1x1>, memref<1x64128xbf16, #ttnn.buffer_type<system_memory>>>>, !ttnn.device) -> tensor<1x128256xbf16, #ttnn.ttnn_layout<(d0, d1) -> (d0, d1), <1x1>, memref<1x128256xbf16, #ttnn.buffer_type<system_memory>>>>
        "ttnn.deallocate"(%540) <{force = false}> : (tensor<1x64128xbf16, #ttnn.ttnn_layout<(d0, d1) -> (d0, d1), <1x1>, memref<1x64128xbf16, #ttnn.buffer_type<system_memory>>>>) -> ()
        %542 = "ttnn.to_layout"(%514) <{layout = #ttnn.layout<row_major>}> : (tensor<1x1x64128xbf16, #ttnn.ttnn_layout<(d0, d1, d2) -> (d0 * 32 + d1, d2), <1x1>, memref<1x2004x!ttcore.tile<32x32, bf16>, #ttnn.buffer_type<dram>>, <interleaved>>>) -> tensor<1x1x64128xbf16, #ttnn.ttnn_layout<(d0, d1, d2) -> (d0 + d1, d2), <1x1>, memref<1x64128xbf16, #ttnn.buffer_type<dram>>, <interleaved>>>
        "ttnn.deallocate"(%514) <{force = false}> : (tensor<1x1x64128xbf16, #ttnn.ttnn_layout<(d0, d1, d2) -> (d0 * 32 + d1, d2), <1x1>, memref<1x2004x!ttcore.tile<32x32, bf16>, #ttnn.buffer_type<dram>>, <interleaved>>>) -> ()
        %543 = "ttnn.from_device"(%542) : (tensor<1x1x64128xbf16, #ttnn.ttnn_layout<(d0, d1, d2) -> (d0 + d1, d2), <1x1>, memref<1x64128xbf16, #ttnn.buffer_type<dram>>, <interleaved>>>) -> tensor<1x1x64128xbf16, #ttnn.ttnn_layout<(d0, d1, d2) -> (d0 + d1, d2), <1x1>, memref<1x64128xbf16, #ttnn.buffer_type<system_memory>>>>
        "ttnn.deallocate"(%542) <{force = false}> : (tensor<1x1x64128xbf16, #ttnn.ttnn_layout<(d0, d1, d2) -> (d0 + d1, d2), <1x1>, memref<1x64128xbf16, #ttnn.buffer_type<dram>>, <interleaved>>>) -> ()
        %544 = "ttnn.mesh_shard"(%543, %1) <{shard_dims = array<i64: -1, 2>, shard_direction = #ttcore.shard_direction<shard_to_full>, shard_shape = array<i64: 1, 1, 2>, shard_type = #ttcore.shard_type<devices>}> : (tensor<1x1x64128xbf16, #ttnn.ttnn_layout<(d0, d1, d2) -> (d0 + d1, d2), <1x1>, memref<1x64128xbf16, #ttnn.buffer_type<system_memory>>>>, !ttnn.device) -> tensor<1x1x128256xbf16, #ttnn.ttnn_layout<(d0, d1, d2) -> (d0 + d1, d2), <1x1>, memref<1x128256xbf16, #ttnn.buffer_type<system_memory>>>>
        "ttnn.deallocate"(%543) <{force = false}> : (tensor<1x1x64128xbf16, #ttnn.ttnn_layout<(d0, d1, d2) -> (d0 + d1, d2), <1x1>, memref<1x64128xbf16, #ttnn.buffer_type<system_memory>>>>) -> ()
        return %517, %520, %523, %526, %529, %532, %535, %538, %541, %544 : tensor<1x8x128x128xbf16, #ttnn.ttnn_layout<(d0, d1, d2, d3) -> (d0 * 1024 + d1 * 128 + d2, d3), <1x1>, memref<1024x128xbf16, #ttnn.buffer_type<system_memory>>>>, tensor<1x8x128x128xbf16, #ttnn.ttnn_layout<(d0, d1, d2, d3) -> (d0 * 1024 + d1 * 128 + d2, d3), <1x1>, memref<1024x128xbf16, #ttnn.buffer_type<system_memory>>>>, tensor<1x8x128x128xbf16, #ttnn.ttnn_layout<(d0, d1, d2, d3) -> (d0 * 1024 + d1 * 128 + d2, d3), <1x1>, memref<1024x128xbf16, #ttnn.buffer_type<system_memory>>>>, tensor<1x8x128x128xbf16, #ttnn.ttnn_layout<(d0, d1, d2, d3) -> (d0 * 1024 + d1 * 128 + d2, d3), <1x1>, memref<1024x128xbf16, #ttnn.buffer_type<system_memory>>>>, tensor<1x8x128x128xbf16, #ttnn.ttnn_layout<(d0, d1, d2, d3) -> (d0 * 1024 + d1 * 128 + d2, d3), <1x1>, memref<1024x128xbf16, #ttnn.buffer_type<system_memory>>>>, tensor<1x8x128x128xbf16, #ttnn.ttnn_layout<(d0, d1, d2, d3) -> (d0 * 1024 + d1 * 128 + d2, d3), <1x1>, memref<1024x128xbf16, #ttnn.buffer_type<system_memory>>>>, tensor<1x8x128x128xbf16, #ttnn.ttnn_layout<(d0, d1, d2, d3) -> (d0 * 1024 + d1 * 128 + d2, d3), <1x1>, memref<1024x128xbf16, #ttnn.buffer_type<system_memory>>>>, tensor<1x8x128x128xbf16, #ttnn.ttnn_layout<(d0, d1, d2, d3) -> (d0 * 1024 + d1 * 128 + d2, d3), <1x1>, memref<1024x128xbf16, #ttnn.buffer_type<system_memory>>>>, tensor<1x128256xbf16, #ttnn.ttnn_layout<(d0, d1) -> (d0, d1), <1x1>, memref<1x128256xbf16, #ttnn.buffer_type<system_memory>>>>, tensor<1x1x128256xbf16, #ttnn.ttnn_layout<(d0, d1, d2) -> (d0 + d1, d2), <1x1>, memref<1x128256xbf16, #ttnn.buffer_type<system_memory>>>>
      }
    }
  }
}
Generated tokens: ['\\(', '\\(']
input 0: device = xla:0, shape torch.Size([128]) and shard spec {replicated}
input 1: device = xla:0, shape torch.Size([1, 128]) and shard spec {replicated}
input 2: device = xla:0, shape torch.Size([1, 8, 128, 128]) and shard spec {replicated}
[STATIC CACHE DUMP ]mean along seqlen for static cache @ input idx 2 and shape torch.Size([1, 8, 128, 128]): tensor([… dtype=torch.bfloat16)
input 3: device = xla:0, shape torch.Size([1, 8, 128, 128]) and shard spec {replicated}
[STATIC CACHE DUMP ]mean along seqlen for static cache @ input idx 3 and shape torch.Size([1, 8, 128, 128]): tensor([ … dtype=torch.bfloat16)
input 4: device = xla:0, shape torch.Size([1, 8, 128, 128]) and shard spec {replicated}
[STATIC CACHE DUMP ]mean along seqlen for static cache @ input idx 4 and shape torch.Size([1, 8, 128, 128]): tensor([… dtype=torch.bfloat16)
input 5: device = xla:0, shape torch.Size([1, 8, 128, 128]) and shard spec {replicated}
[STATIC CACHE DUMP ]mean along seqlen for static cache @ input idx 5 and shape torch.Size([1, 8, 128, 128]): tensor([ … dtype=torch.bfloat16)
input 6: device = xla:0, shape torch.Size([1, 8, 128, 128]) and shard spec {replicated}
[STATIC CACHE DUMP ]mean along seqlen for static cache @ input idx 6 and shape torch.Size([1, 8, 128, 128]): tensor([ … dtype=torch.bfloat16)
input 7: device = xla:0, shape torch.Size([1, 8, 128, 128]) and shard spec {replicated}
[STATIC CACHE DUMP ]mean along seqlen for static cache @ input idx 7 and shape torch.Size([1, 8, 128, 128]): tensor([ … dtype=torch.bfloat16)
input 8: device = xla:0, shape torch.Size([1, 8, 128, 128]) and shard spec {replicated}
[STATIC CACHE DUMP ]mean along seqlen for static cache @ input idx 8 and shape torch.Size([1, 8, 128, 128]): tensor([… dtype=torch.bfloat16)
input 9: device = xla:0, shape torch.Size([1, 8, 128, 128]) and shard spec {replicated}
[STATIC CACHE DUMP ]mean along seqlen for static cache @ input idx 9 and shape torch.Size([1, 8, 128, 128]): tensor([… dtype=torch.bfloat16)
input 10: device = xla:0, shape torch.Size([1, 1]) and shard spec {replicated}
input 11: device = xla:0, shape torch.Size([128256, 3072]) and shard spec {devices=[2,1]<=[2]}
input 12: device = xla:0, shape torch.Size([1]) and shard spec {replicated}
input 13: device = xla:0, shape torch.Size([64]) and shard spec {replicated}
input 14: device = xla:0, shape torch.Size([3072]) and shard spec {replicated}
input 15: device = xla:0, shape torch.Size([3072, 3072]) and shard spec {devices=[2,1]<=[2]}
input 16: device = xla:0, shape torch.Size([1024, 3072]) and shard spec {devices=[2,1]<=[2]}
input 17: device = xla:0, shape torch.Size([1024, 3072]) and shard spec {devices=[2,1]<=[2]}
input 18: device = xla:0, shape torch.Size([3072, 3072]) and shard spec {devices=[1,2]<=[2]}
input 19: device = xla:0, shape torch.Size([3072]) and shard spec {replicated}
input 20: device = xla:0, shape torch.Size([8192, 3072]) and shard spec {devices=[2,1]<=[2]}
input 21: device = xla:0, shape torch.Size([8192, 3072]) and shard spec {devices=[2,1]<=[2]}
input 22: device = xla:0, shape torch.Size([3072, 8192]) and shard spec {devices=[1,2]<=[2]}
input 23: device = xla:0, shape torch.Size([3072]) and shard spec {replicated}
input 24: device = xla:0, shape torch.Size([3072, 3072]) and shard spec {devices=[2,1]<=[2]}
input 25: device = xla:0, shape torch.Size([1024, 3072]) and shard spec {devices=[2,1]<=[2]}
input 26: device = xla:0, shape torch.Size([1024, 3072]) and shard spec {devices=[2,1]<=[2]}
input 27: device = xla:0, shape torch.Size([3072, 3072]) and shard spec {devices=[1,2]<=[2]}
input 28: device = xla:0, shape torch.Size([3072]) and shard spec {replicated}
input 29: device = xla:0, shape torch.Size([8192, 3072]) and shard spec {devices=[2,1]<=[2]}
input 30: device = xla:0, shape torch.Size([8192, 3072]) and shard spec {devices=[2,1]<=[2]}
input 31: device = xla:0, shape torch.Size([3072, 8192]) and shard spec {devices=[1,2]<=[2]}
input 32: device = xla:0, shape torch.Size([3072]) and shard spec {replicated}
input 33: device = xla:0, shape torch.Size([3072, 3072]) and shard spec {devices=[2,1]<=[2]}
input 34: device = xla:0, shape torch.Size([1024, 3072]) and shard spec {devices=[2,1]<=[2]}
input 35: device = xla:0, shape torch.Size([1024, 3072]) and shard spec {devices=[2,1]<=[2]}
input 36: device = xla:0, shape torch.Size([3072, 3072]) and shard spec {devices=[1,2]<=[2]}
input 37: device = xla:0, shape torch.Size([3072]) and shard spec {replicated}
input 38: device = xla:0, shape torch.Size([8192, 3072]) and shard spec {devices=[2,1]<=[2]}
input 39: device = xla:0, shape torch.Size([8192, 3072]) and shard spec {devices=[2,1]<=[2]}
input 40: device = xla:0, shape torch.Size([3072, 8192]) and shard spec {devices=[1,2]<=[2]}
input 41: device = xla:0, shape torch.Size([3072]) and shard spec {replicated}
input 42: device = xla:0, shape torch.Size([3072, 3072]) and shard spec {devices=[2,1]<=[2]}
input 43: device = xla:0, shape torch.Size([1024, 3072]) and shard spec {devices=[2,1]<=[2]}
input 44: device = xla:0, shape torch.Size([1024, 3072]) and shard spec {devices=[2,1]<=[2]}
input 45: device = xla:0, shape torch.Size([3072, 3072]) and shard spec {devices=[1,2]<=[2]}
input 46: device = xla:0, shape torch.Size([3072]) and shard spec {replicated}
input 47: device = xla:0, shape torch.Size([8192, 3072]) and shard spec {devices=[2,1]<=[2]}
input 48: device = xla:0, shape torch.Size([8192, 3072]) and shard spec {devices=[2,1]<=[2]}
input 49: device = xla:0, shape torch.Size([3072, 8192]) and shard spec {devices=[1,2]<=[2]}
input 50: device = xla:0, shape torch.Size([3072]) and shard spec {replicated}
CPU logit shape:  torch.Size([1, 7, 128256]) XLA logit shape:  torch.Size([1, 1, 128256])
\([32m                 Always[0m | [1m[38;5;208m WARNING[0m | User provided a tensor of data type: Int64 which is not supported by runtime/ttnn. Casting to: Int32, this may impact throughput and the integrity of the data.
[32m                 Always[0m | [1m[38;5;208m WARNING[0m | User provided a tensor of data type: Int64 which is not supported by runtime/ttnn. Casting to: Int32, this may impact throughput and the integrity of the data.
[32m                 Always[0m | [1m[38;5;208m WARNING[0m | User provided a tensor of data type: Int64 which is not supported by runtime/ttnn. Casting to: Int32, this may impact throughput and the integrity of the data.
[32m                 Always[0m | [1m[38;5;208m WARNING[0m | User provided a tensor of data type: Int64 which is not supported by runtime/ttnn. Casting to: Int32, this may impact throughput and the integrity of the data.
Generated tokens: ['\\(', '\\(', '\\(']
input 0: device = xla:0, shape torch.Size([128]) and shard spec {replicated}
input 1: device = xla:0, shape torch.Size([1, 128]) and shard spec {replicated}
input 2: device = xla:0, shape torch.Size([1, 8, 128, 128]) and shard spec {replicated}
[STATIC CACHE DUMP ]mean along seqlen for static cache @ input idx 2 and shape torch.Size([1, 8, 128, 128]): tensor([… dtype=torch.bfloat16)
input 3: device = xla:0, shape torch.Size([1, 8, 128, 128]) and shard spec {replicated}
[STATIC CACHE DUMP ]mean along seqlen for static cache @ input idx 3 and shape torch.Size([1, 8, 128, 128]): tensor([ … dtype=torch.bfloat16)
input 4: device = xla:0, shape torch.Size([1, 8, 128, 128]) and shard spec {replicated}
[STATIC CACHE DUMP ]mean along seqlen for static cache @ input idx 4 and shape torch.Size([1, 8, 128, 128]): tensor([… dtype=torch.bfloat16)
input 5: device = xla:0, shape torch.Size([1, 8, 128, 128]) and shard spec {replicated}
[STATIC CACHE DUMP ]mean along seqlen for static cache @ input idx 5 and shape torch.Size([1, 8, 128, 128]): tensor([ … dtype=torch.bfloat16)
input 6: device = xla:0, shape torch.Size([1, 8, 128, 128]) and shard spec {replicated}
[STATIC CACHE DUMP ]mean along seqlen for static cache @ input idx 6 and shape torch.Size([1, 8, 128, 128]): tensor([ … dtype=torch.bfloat16)
input 7: device = xla:0, shape torch.Size([1, 8, 128, 128]) and shard spec {replicated}
[STATIC CACHE DUMP ]mean along seqlen for static cache @ input idx 7 and shape torch.Size([1, 8, 128, 128]): tensor([ … dtype=torch.bfloat16)
input 8: device = xla:0, shape torch.Size([1, 8, 128, 128]) and shard spec {replicated}
[STATIC CACHE DUMP ]mean along seqlen for static cache @ input idx 8 and shape torch.Size([1, 8, 128, 128]): tensor([… dtype=torch.bfloat16)
input 9: device = xla:0, shape torch.Size([1, 8, 128, 128]) and shard spec {replicated}
[STATIC CACHE DUMP ]mean along seqlen for static cache @ input idx 9 and shape torch.Size([1, 8, 128, 128]): tensor([… dtype=torch.bfloat16)
input 10: device = xla:0, shape torch.Size([1, 1]) and shard spec {replicated}
input 11: device = xla:0, shape torch.Size([128256, 3072]) and shard spec {devices=[2,1]<=[2]}
input 12: device = xla:0, shape torch.Size([1]) and shard spec {replicated}
input 13: device = xla:0, shape torch.Size([64]) and shard spec {replicated}
input 14: device = xla:0, shape torch.Size([3072]) and shard spec {replicated}
input 15: device = xla:0, shape torch.Size([3072, 3072]) and shard spec {devices=[2,1]<=[2]}
input 16: device = xla:0, shape torch.Size([1024, 3072]) and shard spec {devices=[2,1]<=[2]}
input 17: device = xla:0, shape torch.Size([1024, 3072]) and shard spec {devices=[2,1]<=[2]}
input 18: device = xla:0, shape torch.Size([3072, 3072]) and shard spec {devices=[1,2]<=[2]}
input 19: device = xla:0, shape torch.Size([3072]) and shard spec {replicated}
input 20: device = xla:0, shape torch.Size([8192, 3072]) and shard spec {devices=[2,1]<=[2]}
input 21: device = xla:0, shape torch.Size([8192, 3072]) and shard spec {devices=[2,1]<=[2]}
input 22: device = xla:0, shape torch.Size([3072, 8192]) and shard spec {devices=[1,2]<=[2]}
input 23: device = xla:0, shape torch.Size([3072]) and shard spec {replicated}
input 24: device = xla:0, shape torch.Size([3072, 3072]) and shard spec {devices=[2,1]<=[2]}
input 25: device = xla:0, shape torch.Size([1024, 3072]) and shard spec {devices=[2,1]<=[2]}
input 26: device = xla:0, shape torch.Size([1024, 3072]) and shard spec {devices=[2,1]<=[2]}
input 27: device = xla:0, shape torch.Size([3072, 3072]) and shard spec {devices=[1,2]<=[2]}
input 28: device = xla:0, shape torch.Size([3072]) and shard spec {replicated}
input 29: device = xla:0, shape torch.Size([8192, 3072]) and shard spec {devices=[2,1]<=[2]}
input 30: device = xla:0, shape torch.Size([8192, 3072]) and shard spec {devices=[2,1]<=[2]}
input 31: device = xla:0, shape torch.Size([3072, 8192]) and shard spec {devices=[1,2]<=[2]}
input 32: device = xla:0, shape torch.Size([3072]) and shard spec {replicated}
input 33: device = xla:0, shape torch.Size([3072, 3072]) and shard spec {devices=[2,1]<=[2]}
input 34: device = xla:0, shape torch.Size([1024, 3072]) and shard spec {devices=[2,1]<=[2]}
input 35: device = xla:0, shape torch.Size([1024, 3072]) and shard spec {devices=[2,1]<=[2]}
input 36: device = xla:0, shape torch.Size([3072, 3072]) and shard spec {devices=[1,2]<=[2]}
input 37: device = xla:0, shape torch.Size([3072]) and shard spec {replicated}
input 38: device = xla:0, shape torch.Size([8192, 3072]) and shard spec {devices=[2,1]<=[2]}
input 39: device = xla:0, shape torch.Size([8192, 3072]) and shard spec {devices=[2,1]<=[2]}
input 40: device = xla:0, shape torch.Size([3072, 8192]) and shard spec {devices=[1,2]<=[2]}
input 41: device = xla:0, shape torch.Size([3072]) and shard spec {replicated}
input 42: device = xla:0, shape torch.Size([3072, 3072]) and shard spec {devices=[2,1]<=[2]}
input 43: device = xla:0, shape torch.Size([1024, 3072]) and shard spec {devices=[2,1]<=[2]}
input 44: device = xla:0, shape torch.Size([1024, 3072]) and shard spec {devices=[2,1]<=[2]}
input 45: device = xla:0, shape torch.Size([3072, 3072]) and shard spec {devices=[1,2]<=[2]}
input 46: device = xla:0, shape torch.Size([3072]) and shard spec {replicated}
input 47: device = xla:0, shape torch.Size([8192, 3072]) and shard spec {devices=[2,1]<=[2]}
input 48: device = xla:0, shape torch.Size([8192, 3072]) and shard spec {devices=[2,1]<=[2]}
input 49: device = xla:0, shape torch.Size([3072, 8192]) and shard spec {devices=[1,2]<=[2]}
input 50: device = xla:0, shape torch.Size([3072]) and shard spec {replicated}
CPU logit shape:  torch.Size([1, 7, 128256]) XLA logit shape:  torch.Size([1, 1, 128256])
\([32m                 Always[0m | [1m[38;5;208m WARNING[0m | User provided a tensor of data type: Int64 which is not supported by runtime/ttnn. Casting to: Int32, this may impact throughput and the integrity of the data.
[32m                 Always[0m | [1m[38;5;208m WARNING[0m | User provided a tensor of data type: Int64 which is not supported by runtime/ttnn. Casting to: Int32, this may impact throughput and the integrity of the data.
[32m                 Always[0m | [1m[38;5;208m WARNING[0m | User provided a tensor of data type: Int64 which is not supported by runtime/ttnn. Casting to: Int32, this may impact throughput and the integrity of the data.
[32m                 Always[0m | [1m[38;5;208m WARNING[0m | User provided a tensor of data type: Int64 which is not supported by runtime/ttnn. Casting to: Int32, this may impact throughput and the integrity of the data.
Generated tokens: ['\\(', '\\(', '\\(', '\\(']
input 0: device = xla:0, shape torch.Size([128]) and shard spec {replicated}
input 1: device = xla:0, shape torch.Size([1, 128]) and shard spec {replicated}
input 2: device = xla:0, shape torch.Size([1, 8, 128, 128]) and shard spec {replicated}
[STATIC CACHE DUMP ]mean along seqlen for static cache @ input idx 2 and shape torch.Size([1, 8, 128, 128]): tensor([… dtype=torch.bfloat16)
input 3: device = xla:0, shape torch.Size([1, 8, 128, 128]) and shard spec {replicated}
[STATIC CACHE DUMP ]mean along seqlen for static cache @ input idx 3 and shape torch.Size([1, 8, 128, 128]): tensor([ … dtype=torch.bfloat16)
input 4: device = xla:0, shape torch.Size([1, 8, 128, 128]) and shard spec {replicated}
[STATIC CACHE DUMP ]mean along seqlen for static cache @ input idx 4 and shape torch.Size([1, 8, 128, 128]): tensor([… dtype=torch.bfloat16)
input 5: device = xla:0, shape torch.Size([1, 8, 128, 128]) and shard spec {replicated}
[STATIC CACHE DUMP ]mean along seqlen for static cache @ input idx 5 and shape torch.Size([1, 8, 128, 128]): tensor([ … dtype=torch.bfloat16)
input 6: device = xla:0, shape torch.Size([1, 8, 128, 128]) and shard spec {replicated}
[STATIC CACHE DUMP ]mean along seqlen for static cache @ input idx 6 and shape torch.Size([1, 8, 128, 128]): tensor([ … dtype=torch.bfloat16)
input 7: device = xla:0, shape torch.Size([1, 8, 128, 128]) and shard spec {replicated}
[STATIC CACHE DUMP ]mean along seqlen for static cache @ input idx 7 and shape torch.Size([1, 8, 128, 128]): tensor([ … dtype=torch.bfloat16)
input 8: device = xla:0, shape torch.Size([1, 8, 128, 128]) and shard spec {replicated}
[STATIC CACHE DUMP ]mean along seqlen for static cache @ input idx 8 and shape torch.Size([1, 8, 128, 128]): tensor([… dtype=torch.bfloat16)
input 9: device = xla:0, shape torch.Size([1, 8, 128, 128]) and shard spec {replicated}
[STATIC CACHE DUMP ]mean along seqlen for static cache @ input idx 9 and shape torch.Size([1, 8, 128, 128]): tensor([… dtype=torch.bfloat16)
input 10: device = xla:0, shape torch.Size([1, 1]) and shard spec {replicated}
input 11: device = xla:0, shape torch.Size([128256, 3072]) and shard spec {devices=[2,1]<=[2]}
input 12: device = xla:0, shape torch.Size([1]) and shard spec {replicated}
input 13: device = xla:0, shape torch.Size([64]) and shard spec {replicated}
input 14: device = xla:0, shape torch.Size([3072]) and shard spec {replicated}
input 15: device = xla:0, shape torch.Size([3072, 3072]) and shard spec {devices=[2,1]<=[2]}
input 16: device = xla:0, shape torch.Size([1024, 3072]) and shard spec {devices=[2,1]<=[2]}
input 17: device = xla:0, shape torch.Size([1024, 3072]) and shard spec {devices=[2,1]<=[2]}
input 18: device = xla:0, shape torch.Size([3072, 3072]) and shard spec {devices=[1,2]<=[2]}
input 19: device = xla:0, shape torch.Size([3072]) and shard spec {replicated}
input 20: device = xla:0, shape torch.Size([8192, 3072]) and shard spec {devices=[2,1]<=[2]}
input 21: device = xla:0, shape torch.Size([8192, 3072]) and shard spec {devices=[2,1]<=[2]}
input 22: device = xla:0, shape torch.Size([3072, 8192]) and shard spec {devices=[1,2]<=[2]}
input 23: device = xla:0, shape torch.Size([3072]) and shard spec {replicated}
input 24: device = xla:0, shape torch.Size([3072, 3072]) and shard spec {devices=[2,1]<=[2]}
input 25: device = xla:0, shape torch.Size([1024, 3072]) and shard spec {devices=[2,1]<=[2]}
input 26: device = xla:0, shape torch.Size([1024, 3072]) and shard spec {devices=[2,1]<=[2]}
input 27: device = xla:0, shape torch.Size([3072, 3072]) and shard spec {devices=[1,2]<=[2]}
input 28: device = xla:0, shape torch.Size([3072]) and shard spec {replicated}
input 29: device = xla:0, shape torch.Size([8192, 3072]) and shard spec {devices=[2,1]<=[2]}
input 30: device = xla:0, shape torch.Size([8192, 3072]) and shard spec {devices=[2,1]<=[2]}
input 31: device = xla:0, shape torch.Size([3072, 8192]) and shard spec {devices=[1,2]<=[2]}
input 32: device = xla:0, shape torch.Size([3072]) and shard spec {replicated}
input 33: device = xla:0, shape torch.Size([3072, 3072]) and shard spec {devices=[2,1]<=[2]}
input 34: device = xla:0, shape torch.Size([1024, 3072]) and shard spec {devices=[2,1]<=[2]}
input 35: device = xla:0, shape torch.Size([1024, 3072]) and shard spec {devices=[2,1]<=[2]}
input 36: device = xla:0, shape torch.Size([3072, 3072]) and shard spec {devices=[1,2]<=[2]}
input 37: device = xla:0, shape torch.Size([3072]) and shard spec {replicated}
input 38: device = xla:0, shape torch.Size([8192, 3072]) and shard spec {devices=[2,1]<=[2]}
input 39: device = xla:0, shape torch.Size([8192, 3072]) and shard spec {devices=[2,1]<=[2]}
input 40: device = xla:0, shape torch.Size([3072, 8192]) and shard spec {devices=[1,2]<=[2]}
input 41: device = xla:0, shape torch.Size([3072]) and shard spec {replicated}
input 42: device = xla:0, shape torch.Size([3072, 3072]) and shard spec {devices=[2,1]<=[2]}
input 43: device = xla:0, shape torch.Size([1024, 3072]) and shard spec {devices=[2,1]<=[2]}
input 44: device = xla:0, shape torch.Size([1024, 3072]) and shard spec {devices=[2,1]<=[2]}
input 45: device = xla:0, shape torch.Size([3072, 3072]) and shard spec {devices=[1,2]<=[2]}
input 46: device = xla:0, shape torch.Size([3072]) and shard spec {replicated}
input 47: device = xla:0, shape torch.Size([8192, 3072]) and shard spec {devices=[2,1]<=[2]}
input 48: device = xla:0, shape torch.Size([8192, 3072]) and shard spec {devices=[2,1]<=[2]}
input 49: device = xla:0, shape torch.Size([3072, 8192]) and shard spec {devices=[1,2]<=[2]}
input 50: device = xla:0, shape torch.Size([3072]) and shard spec {replicated}
CPU logit shape:  torch.Size([1, 7, 128256]) XLA logit shape:  torch.Size([1, 1, 128256])
 townGenerated tokens: ['\\(', '\\(', '\\(', '\\(', ' town']
PCCs: [0.1417515007624067, 0.09535665545136938, 0.10929091857852549, 0.1140910109360115, 0.10563158203748173]
PASSED

========================= 1 passed in 65.63s (0:01:05) =========================
