2026-04-25 16:07:32.833 | INFO     | pjrt_plugin_tt:setup_tt_pjrt_plugin_dir:42 - Using PJRT plugin directory: /localdev/jameszianxu/clean/tt-xla/python_package/pjrt_plugin_tt
2026-04-25 16:07:32.834 | INFO     | pjrt_plugin_tt:setup_tt_metal_home:103 - Using TT-Metal from the source tree: /localdev/jameszianxu/clean/tt-xla/third_party/tt-mlir/src/tt-mlir/third_party/tt-metal/src/tt-metal
2026-04-25 16:07:32.834 | WARNING  | torch_plugin_tt:__init__:38 - TT plugin is setting XLA_STABLEHLO_COMPILE to 1. This is required for TT PJRT plugin to work correctly.
============================= test session starts ==============================
platform linux -- Python 3.12.13, pytest-9.0.3, pluggy-1.6.0 -- /localdev/jameszianxu/clean/tt-xla/venv/bin/python
cachedir: .pytest_cache
metadata: {'Python': '3.12.13', 'Platform': 'Linux-6.8.0-87-generic-x86_64-with-glibc2.39', 'Packages': {'pytest': '9.0.3', 'pluggy': '1.6.0'}, 'Plugins': {'forked': '1.6.0', 'metadata': '3.1.1', 'anyio': '4.13.0', 'jaxtyping': '0.3.9', 'split': '0.11.0', 'json-report': '1.5.0'}}
rootdir: /localdev/jameszianxu/clean/tt-xla
configfile: pytest.ini
plugins: forked-1.6.0, metadata-3.1.1, anyio-4.13.0, jaxtyping-0.3.9, split-0.11.0, json-report-1.5.0
collecting ... collected 1 item

tests/torch/models/deepseek_v4/test_deepseek_v4_single_device.py::test_compressor_prefill_then_decode 2026-04-25 16:07:34.722164: W torch_xla/csrc/runtime/profiler.cpp:88] Profiler API not found for PJRT plugin
2026-04-25 16:07:38.166476: W torch_xla/csrc/runtime/pjrt_computation_client.cpp:703] Failed to deserialize executable: UNIMPLEMENTED: Deserializing serialized executable not supported.
2026-04-25 16:07:38.198 (   3.803s) [        1B754740]      module_builder.cc:1220     1| MLIR Module vhlo:
#loc1 = loc("p0.1")
#loc2 = loc("p1.106")
#loc3 = loc("p2.110")
#loc4 = loc("p3.115")
#loc5 = loc("p4.140")
#loc6 = loc("p5.233")
#loc7 = loc("p6.332")
#loc8 = loc("p7.370")
#loc9 = loc("p8.487")
#loc10 = loc("p9.613")
#loc74 = loc("reduce.185")
#loc79 = loc("reduce.194")
#loc84 = loc("reduce.302")
#loc89 = loc("reduce.313")
module @SyncTensorsGraph.745 attributes {mhlo.cross_program_prefetches = [], mhlo.input_output_alias = [], mhlo.is_dynamic = false, mhlo.use_auto_spmd_partitioning = false} {
  vhlo.func_v1 @main(%arg0: !vhlo.tensor_v1<2x8x32x!vhlo.bf16_v1> loc("p0.1"), %arg1: !vhlo.tensor_v1<4x64x!vhlo.f32_v1> loc("p1.106"), %arg2: !vhlo.tensor_v1<64x128x!vhlo.f32_v1> loc("p2.110"), %arg3: !vhlo.tensor_v1<1x4x128x!vhlo.bf16_v1> loc("p3.115"), %arg4: !vhlo.tensor_v1<!vhlo.bool_v1> loc("p4.140"), %arg5: !vhlo.tensor_v1<64x128x!vhlo.f32_v1> loc("p5.233"), %arg6: !vhlo.tensor_v1<32x!vhlo.f32_v1> loc("p6.332"), %arg7: !vhlo.tensor_v1<32x8x2x!vhlo.f32_v1> loc("p7.370"), %arg8: !vhlo.tensor_v1<2x8x64x!vhlo.f32_v1> loc("p8.487"), %arg9: !vhlo.tensor_v1<2x8x64x!vhlo.f32_v1> loc("p9.613")) -> (!vhlo.tensor_v1<2x8x32x!vhlo.bf16_v1>, !vhlo.tensor_v1<2x8x64x!vhlo.f32_v1>, !vhlo.tensor_v1<2x8x64x!vhlo.f32_v1>) {
    %0 = "vhlo.constant_v1"() <{value = #vhlo.tensor_v1<dense<0.000000e+00> : tensor<1x8x64xf32>>}> : () -> !vhlo.tensor_v1<1x8x64x!vhlo.f32_v1> loc(#loc)
    %1 = "vhlo.constant_v1"() <{value = #vhlo.tensor_v1<dense<[true, true, true, true, false, false, false, false]> : tensor<8xi1>>}> : () -> !vhlo.tensor_v1<8x!vhlo.bool_v1> loc(#loc)
    %2 = "vhlo.constant_v1"() <{value = #vhlo.tensor_v1<dense<0.000000e+00> : tensor<2x8x64xf32>>}> : () -> !vhlo.tensor_v1<2x8x64x!vhlo.f32_v1> loc(#loc)
    %3 = "vhlo.constant_v1"() <{value = #vhlo.tensor_v1<dense<1> : tensor<2xi64>>}> : () -> !vhlo.tensor_v1<2x!vhlo.i64_v1> loc(#loc)
    %4 = "vhlo.constant_v1"() <{value = #vhlo.tensor_v1<dense<[0.000000e+00, 1.000000e+00]> : tensor<2xf32>>}> : () -> !vhlo.tensor_v1<2x!vhlo.f32_v1> loc(#loc)
    %5 = "vhlo.constant_v1"() <{value = #vhlo.tensor_v1<dense<0> : tensor<2xi64>>}> : () -> !vhlo.tensor_v1<2x!vhlo.i64_v1> loc(#loc)
    %6 = "vhlo.constant_v1"() <{value = #vhlo.tensor_v1<dense<1> : tensor<8xi64>>}> : () -> !vhlo.tensor_v1<8x!vhlo.i64_v1> loc(#loc)
    %7 = "vhlo.constant_v1"() <{value = #vhlo.tensor_v1<dense<[0.000000e+00, 1.000000e+00, 2.000000e+00, 3.000000e+00, 4.000000e+00, 5.000000e+00, 6.000000e+00, 7.000000e+00]> : tensor<8xf32>>}> : () -> !vhlo.tensor_v1<8x!vhlo.f32_v1> loc(#loc)
    %8 = "vhlo.constant_v1"() <{value = #vhlo.tensor_v1<dense<16> : tensor<32xi64>>}> : () -> !vhlo.tensor_v1<32x!vhlo.i64_v1> loc(#loc)
    %9 = "vhlo.constant_v1"() <{value = #vhlo.tensor_v1<dense<15> : tensor<32xi64>>}> : () -> !vhlo.tensor_v1<32x!vhlo.i64_v1> loc(#loc)
    %10 = "vhlo.constant_v1"() <{value = #vhlo.tensor_v1<dense<[… > : tensor<32xf32>>}> : () -> !vhlo.tensor_v1<32x!vhlo.f32_v1> loc(#loc)
    %11 = "vhlo.constant_v1"() <{value = #vhlo.tensor_v1<dense<0> : tensor<32xi64>>}> : () -> !vhlo.tensor_v1<32x!vhlo.i64_v1> loc(#loc)
    %12 = "vhlo.constant_v1"() <{value = #vhlo.tensor_v1<dense<9.99999997E-7> : tensor<1x1x1xf32>>}> : () -> !vhlo.tensor_v1<1x1x1x!vhlo.f32_v1> loc(#loc)
    %13 = "vhlo.constant_v1"() <{value = #vhlo.tensor_v1<dense<3.125000e-02> : tensor<1x1xf32>>}> : () -> !vhlo.tensor_v1<1x1x!vhlo.f32_v1> loc(#loc)
    %14 = "vhlo.constant_v1"() <{value = #vhlo.tensor_v1<dense<2.000000e+00> : tensor<1x1x32xf32>>}> : () -> !vhlo.tensor_v1<1x1x32x!vhlo.f32_v1> loc(#loc)
    %15 = "vhlo.constant_v1"() <{value = #vhlo.tensor_v1<dense<0xFF800000> : tensor<1x1x8x32xf32>>}> : () -> !vhlo.tensor_v1<1x1x8x32x!vhlo.f32_v1> loc(#loc)
    %16 = "vhlo.constant_v1"() <{value = #vhlo.tensor_v1<dense<4> : tensor<8xi64>>}> : () -> !vhlo.tensor_v1<8x!vhlo.i64_v1> loc(#loc)
    %17 = "vhlo.constant_v1"() <{value = #vhlo.tensor_v1<dense<3> : tensor<8xi64>>}> : () -> !vhlo.tensor_v1<8x!vhlo.i64_v1> loc(#loc)
    %18 = "vhlo.constant_v1"() <{value = #vhlo.tensor_v1<dense<[-4.000000e+00, -3.000000e+00, -2.000000e+00, -1.000000e+00, 0.000000e+00, 1.000000e+00, 2.000000e+00, 3.000000e+00]> : tensor<8xf32>>}> : () -> !vhlo.tensor_v1<8x!vhlo.f32_v1> loc(#loc)
    %19 = "vhlo.constant_v1"() <{value = #vhlo.tensor_v1<dense<0> : tensor<8xi64>>}> : () -> !vhlo.tensor_v1<8x!vhlo.i64_v1> loc(#loc)
    %20 = "vhlo.constant_v1"() <{value = #vhlo.tensor_v1<dense<0.000000e+00> : tensor<1x1x8x32xf32>>}> : () -> !vhlo.tensor_v1<1x1x8x32x!vhlo.f32_v1> loc(#loc)
    %21 = "vhlo.constant_v1"() <{value = #vhlo.tensor_v1<dense<[false, false, false, false, true, true, true, true]> : tensor<8xi1>>}> : () -> !vhlo.tensor_v1<8x!vhlo.bool_v1> loc(#loc)
    %22 = "vhlo.constant_v1"() <{value = #vhlo.tensor_v1<dense<0.000000e+00> : tensor<1x1x32xbf16>>}> : () -> !vhlo.tensor_v1<1x1x32x!vhlo.bf16_v1> loc(#loc)
    %23 = "vhlo.constant_v1"() <{value = #vhlo.tensor_v1<dense<[false, false, false, false, false, false, false, false, false, false, false, false, false, false, false, false, true, true, true, true, true, true, true, true, true, true, true, true, true, true, true, true]> : tensor<32xi1>>}> : () -> !vhlo.tensor_v1<32x!vhlo.bool_v1> loc(#loc)
    %24 = "vhlo.constant_v1"() <{value = #vhlo.tensor_v1<dense<0.000000e+00> : tensor<1x8x32xbf16>>}> : () -> !vhlo.tensor_v1<1x8x32x!vhlo.bf16_v1> loc(#loc)
    %25 = "vhlo.constant_v1"() <{value = #vhlo.tensor_v1<dense<[true, false, false, false, false, false, false, false]> : tensor<8xi1>>}> : () -> !vhlo.tensor_v1<8x!vhlo.bool_v1> loc(#loc)
    %26 = "vhlo.constant_v1"() <{value = #vhlo.tensor_v1<dense<0.000000e+00> : tensor<2x8x32xbf16>>}> : () -> !vhlo.tensor_v1<2x8x32x!vhlo.bf16_v1> loc(#loc)
    %27 = "vhlo.constant_v1"() <{value = #vhlo.tensor_v1<dense<[true, false]> : tensor<2xi1>>}> : () -> !vhlo.tensor_v1<2x!vhlo.bool_v1> loc(#loc)
    %28 = "vhlo.constant_v1"() <{value = #vhlo.tensor_v1<dense<0xFF800000> : tensor<f32>>}> : () -> !vhlo.tensor_v1<!vhlo.f32_v1> loc(#loc)
    %29 = "vhlo.constant_v1"() <{value = #vhlo.tensor_v1<dense<0.000000e+00> : tensor<f32>>}> : () -> !vhlo.tensor_v1<!vhlo.f32_v1> loc(#loc)
    %30 = "vhlo.broadcast_in_dim_v1"(%arg4) <{broadcast_dimensions = #vhlo.tensor_v1<dense<> : tensor<0xi64>>}> : (!vhlo.tensor_v1<!vhlo.bool_v1>) -> !vhlo.tensor_v1<2x!vhlo.bool_v1> loc(#loc11)
    %31 = "vhlo.and_v1"(%30, %27) : (!vhlo.tensor_v1<2x!vhlo.bool_v1>, !vhlo.tensor_v1<2x!vhlo.bool_v1>) -> !vhlo.tensor_v1<2x!vhlo.bool_v1> loc(#loc12)
    %32 = "vhlo.reshape_v1"(%31) : (!vhlo.tensor_v1<2x!vhlo.bool_v1>) -> !vhlo.tensor_v1<2x1x1x!vhlo.bool_v1> loc(#loc13)
    %33 = "vhlo.broadcast_in_dim_v1"(%31) <{broadcast_dimensions = #vhlo.tensor_v1<dense<0> : tensor<1xi64>>}> : (!vhlo.tensor_v1<2x!vhlo.bool_v1>) -> !vhlo.tensor_v1<2x8x32x!vhlo.bool_v1> loc(#loc14)
    %34 = "vhlo.not_v1"(%32) : (!vhlo.tensor_v1<2x1x1x!vhlo.bool_v1>) -> !vhlo.tensor_v1<2x1x1x!vhlo.bool_v1> loc(#loc15)
    %35 = "vhlo.reshape_v1"(%34) : (!vhlo.tensor_v1<2x1x1x!vhlo.bool_v1>) -> !vhlo.tensor_v1<2x!vhlo.bool_v1> loc(#loc16)
    %36 = "vhlo.broadcast_in_dim_v1"(%35) <{broadcast_dimensions = #vhlo.tensor_v1<dense<0> : tensor<1xi64>>}> : (!vhlo.tensor_v1<2x!vhlo.bool_v1>) -> !vhlo.tensor_v1<2x8x32x!vhlo.bool_v1> loc(#loc17)
    %37 = "vhlo.broadcast_in_dim_v1"(%arg4) <{broadcast_dimensions = #vhlo.tensor_v1<dense<> : tensor<0xi64>>}> : (!vhlo.tensor_v1<!vhlo.bool_v1>) -> !vhlo.tensor_v1<8x!vhlo.bool_v1> loc(#loc18)
    %38 = "vhlo.and_v1"(%37, %25) : (!vhlo.tensor_v1<8x!vhlo.bool_v1>, !vhlo.tensor_v1<8x!vhlo.bool_v1>) -> !vhlo.tensor_v1<8x!vhlo.bool_v1> loc(#loc19)
    %39 = "vhlo.reshape_v1"(%38) : (!vhlo.tensor_v1<8x!vhlo.bool_v1>) -> !vhlo.tensor_v1<1x8x1x!vhlo.bool_v1> loc(#loc20)
    %40 = "vhlo.reshape_v1"(%38) : (!vhlo.tensor_v1<8x!vhlo.bool_v1>) -> !vhlo.tensor_v1<1x8x!vhlo.bool_v1> loc(#loc21)
    %41 = "vhlo.broadcast_in_dim_v1"(%40) <{broadcast_dimensions = #vhlo.tensor_v1<dense<[0, 1]> : tensor<2xi64>>}> : (!vhlo.tensor_v1<1x8x!vhlo.bool_v1>) -> !vhlo.tensor_v1<1x8x32x!vhlo.bool_v1> loc(#loc22)
    %42 = "vhlo.not_v1"(%39) : (!vhlo.tensor_v1<1x8x1x!vhlo.bool_v1>) -> !vhlo.tensor_v1<1x8x1x!vhlo.bool_v1> loc(#loc23)
    %43 = "vhlo.reshape_v1"(%42) : (!vhlo.tensor_v1<1x8x1x!vhlo.bool_v1>) -> !vhlo.tensor_v1<1x8x!vhlo.bool_v1> loc(#loc24)
    %44 = "vhlo.broadcast_in_dim_v1"(%43) <{broadcast_dimensions = #vhlo.tensor_v1<dense<[0, 1]> : tensor<2xi64>>}> : (!vhlo.tensor_v1<1x8x!vhlo.bool_v1>) -> !vhlo.tensor_v1<1x8x32x!vhlo.bool_v1> loc(#loc25)
    %45 = "vhlo.broadcast_in_dim_v1"(%arg4) <{broadcast_dimensions = #vhlo.tensor_v1<dense<> : tensor<0xi64>>}> : (!vhlo.tensor_v1<!vhlo.bool_v1>) -> !vhlo.tensor_v1<32x!vhlo.bool_v1> loc(#loc26)
    %46 = "vhlo.and_v1"(%45, %23) : (!vhlo.tensor_v1<32x!vhlo.bool_v1>, !vhlo.tensor_v1<32x!vhlo.bool_v1>) -> !vhlo.tensor_v1<32x!vhlo.bool_v1> loc(#loc27)
    %47 = "vhlo.reshape_v1"(%46) : (!vhlo.tensor_v1<32x!vhlo.bool_v1>) -> !vhlo.tensor_v1<1x1x32x!vhlo.bool_v1> loc(#loc28)
    %48 = "vhlo.reshape_v1"(%arg6) : (!vhlo.tensor_v1<32x!vhlo.f32_v1>) -> !vhlo.tensor_v1<1x1x32x!vhlo.f32_v1> loc(#loc29)
    %49 = "vhlo.custom_call_v1"(%48) <{api_version = #vhlo<api_version_v1 API_VERSION_UNSPECIFIED>, backend_config = #vhlo.string_v1<"">, call_target_name = #vhlo.string_v1<"tt.mark_argument">, called_computations = #vhlo.array_v1<[]>, has_side_effect = #vhlo.bool_v1<false>, operand_layouts = #vhlo.array_v1<[]>, output_operand_aliases = #vhlo.array_v1<[]>, result_layouts = #vhlo.array_v1<[]>}> {mhlo.frontend_attributes = #vhlo.dict_v1<{#vhlo.string_v1<"ttcore.argument_type"> = #vhlo.string_v1<"parameter">, #vhlo.string_v1<"ttir.name"> = #vhlo.string_v1<"compressor.norm.weight">}>} : (!vhlo.tensor_v1<1x1x32x!vhlo.f32_v1>) -> !vhlo.tensor_v1<1x1x32x!vhlo.f32_v1> loc(#loc30)
    %50 = "vhlo.and_v1"(%37, %21) : (!vhlo.tensor_v1<8x!vhlo.bool_v1>, !vhlo.tensor_v1<8x!vhlo.bool_v1>) -> !vhlo.tensor_v1<8x!vhlo.bool_v1> loc(#loc31)
    %51 = "vhlo.reshape_v1"(%50) : (!vhlo.tensor_v1<8x!vhlo.bool_v1>) -> !vhlo.tensor_v1<1x1x8x1x!vhlo.bool_v1> loc(#loc32)
    %52 = "vhlo.reshape_v1"(%50) : (!vhlo.tensor_v1<8x!vhlo.bool_v1>) -> !vhlo.tensor_v1<1x1x8x!vhlo.bool_v1> loc(#loc33)
    %53 = "vhlo.broadcast_in_dim_v1"(%52) <{broadcast_dimensions = #vhlo.tensor_v1<dense<[0, 1, 2]> : tensor<3xi64>>}> : (!vhlo.tensor_v1<1x1x8x!vhlo.bool_v1>) -> !vhlo.tensor_v1<1x1x8x32x!vhlo.bool_v1> loc(#loc34)
    %54 = "vhlo.not_v1"(%51) : (!vhlo.tensor_v1<1x1x8x1x!vhlo.bool_v1>) -> !vhlo.tensor_v1<1x1x8x1x!vhlo.bool_v1> loc(#loc35)
    %55 = "vhlo.reshape_v1"(%54) : (!vhlo.tensor_v1<1x1x8x1x!vhlo.bool_v1>) -> !vhlo.tensor_v1<1x1x8x!vhlo.bool_v1> loc(#loc36)
    %56 = "vhlo.broadcast_in_dim_v1"(%55) <{broadcast_dimensions = #vhlo.tensor_v1<dense<[0, 1, 2]> : tensor<3xi64>>}> : (!vhlo.tensor_v1<1x1x8x!vhlo.bool_v1>) -> !vhlo.tensor_v1<1x1x8x32x!vhlo.bool_v1> loc(#loc37)
    %57 = "vhlo.custom_call_v1"(%arg3) <{api_version = #vhlo<api_version_v1 API_VERSION_UNSPECIFIED>, backend_config = #vhlo.string_v1<"">, call_target_name = #vhlo.string_v1<"tt.mark_argument">, called_computations = #vhlo.array_v1<[]>, has_side_effect = #vhlo.bool_v1<false>, operand_layouts = #vhlo.array_v1<[]>, output_operand_aliases = #vhlo.array_v1<[]>, result_layouts = #vhlo.array_v1<[]>}> {mhlo.frontend_attributes = #vhlo.dict_v1<{#vhlo.string_v1<"ttcore.argument_type"> = #vhlo.string_v1<"input">, #vhlo.string_v1<"ttir.name"> = #vhlo.string_v1<"args_0">}>} : (!vhlo.tensor_v1<1x4x128x!vhlo.bf16_v1>) -> !vhlo.tensor_v1<1x4x128x!vhlo.bf16_v1> loc(#loc38)
    %58 = "vhlo.convert_v1"(%57) : (!vhlo.tensor_v1<1x4x128x!vhlo.bf16_v1>) -> !vhlo.tensor_v1<1x4x128x!vhlo.f32_v1> loc(#loc39)
    %59 = "vhlo.reshape_v1"(%58) : (!vhlo.tensor_v1<1x4x128x!vhlo.f32_v1>) -> !vhlo.tensor_v1<4x128x!vhlo.f32_v1> loc(#loc40)
    %60 = "vhlo.reshape_v1"(%arg5) : (!vhlo.tensor_v1<64x128x!vhlo.f32_v1>) -> !vhlo.tensor_v1<1x64x128x!vhlo.f32_v1> loc(#loc41)
    %61 = "vhlo.custom_call_v1"(%60) <{api_version = #vhlo<api_version_v1 API_VERSION_UNSPECIFIED>, backend_config = #vhlo.string_v1<"">, call_target_name = #vhlo.string_v1<"tt.mark_argument">, called_computations = #vhlo.array_v1<[]>, has_side_effect = #vhlo.bool_v1<false>, operand_layouts = #vhlo.array_v1<[]>, output_operand_aliases = #vhlo.array_v1<[]>, result_layouts = #vhlo.array_v1<[]>}> {mhlo.frontend_attributes = #vhlo.dict_v1<{#vhlo.string_v1<"ttcore.argument_type"> = #vhlo.string_v1<"parameter">, #vhlo.string_v1<"ttir.name"> = #vhlo.string_v1<"compressor.wkv.weight">}>} : (!vhlo.tensor_v1<1x64x128x!vhlo.f32_v1>) -> !vhlo.tensor_v1<1x64x128x!vhlo.f32_v1> loc(#loc42)
    %62 = "vhlo.reshape_v1"(%61) : (!vhlo.tensor_v1<1x64x128x!vhlo.f32_v1>) -> !vhlo.tensor_v1<64x128x!vhlo.f32_v1> loc(#loc43)
    %63 = "vhlo.transpose_v1"(%62) <{permutation = #vhlo.tensor_v1<dense<[1, 0]> : tensor<2xi64>>}> {result_layout = #vhlo.tensor_v1<dense<[0, 1]> : tensor<2xindex>>, xla_shape = #vhlo.string_v1<"f32[128,64]{0,1}">} : (!vhlo.tensor_v1<64x128x!vhlo.f32_v1>) -> !vhlo.tensor_v1<128x64x!vhlo.f32_v1> loc(#loc44)
    %64 = "vhlo.dot_general_v2"(%59, %63) <{accumulation_type = #vhlo.type_v1<!vhlo.none_v1>, allow_imprecise_accumulation = #vhlo.type_v1<!vhlo.none_v1>, lhs_batching_dimensions = #vhlo.tensor_v1<dense<> : tensor<0xi64>>, lhs_component_count = #vhlo.type_v1<!vhlo.none_v1>, lhs_contracting_dimensions = #vhlo.tensor_v1<dense<1> : tensor<1xi64>>, lhs_precision_type = #vhlo.type_v1<!vhlo.none_v1>, num_primitive_operations = #vhlo.type_v1<!vhlo.none_v1>, precision_config = #vhlo.array_v1<[#vhlo<precision_v1 DEFAULT>, #vhlo<precision_v1 DEFAULT>]>, rhs_batching_dimensions = #vhlo.tensor_v1<dense<> : tensor<0xi64>>, rhs_component_count = #vhlo.type_v1<!vhlo.none_v1>, rhs_contracting_dimensions = #vhlo.tensor_v1<dense<0> : tensor<1xi64>>, rhs_precision_type = #vhlo.type_v1<!vhlo.none_v1>}> : (!vhlo.tensor_v1<4x128x!vhlo.f32_v1>, !vhlo.tensor_v1<128x64x!vhlo.f32_v1>) -> !vhlo.tensor_v1<4x64x!vhlo.f32_v1> loc(#loc45)
    %65 = "vhlo.reshape_v1"(%64) : (!vhlo.tensor_v1<4x64x!vhlo.f32_v1>) -> !vhlo.tensor_v1<1x4x64x!vhlo.f32_v1> loc(#loc46)
    %66 = "vhlo.reshape_v1"(%64) : (!vhlo.tensor_v1<4x64x!vhlo.f32_v1>) -> !vhlo.tensor_v1<1x1x4x64x!vhlo.f32_v1> loc(#loc47)
    %67 = "vhlo.slice_v1"(%66) <{limit_indices = #vhlo.tensor_v1<dense<[1, 1, 4, 64]> : tensor<4xi64>>, start_indices = #vhlo.tensor_v1<dense<[0, 0, 0, 32]> : tensor<4xi64>>, strides = #vhlo.tensor_v1<dense<1> : tensor<4xi64>>}> : (!vhlo.tensor_v1<1x1x4x64x!vhlo.f32_v1>) -> !vhlo.tensor_v1<1x1x4x32x!vhlo.f32_v1> loc(#loc48)
    %68 = "vhlo.floor_v1"(%18) : (!vhlo.tensor_v1<8x!vhlo.f32_v1>) -> !vhlo.tensor_v1<8x!vhlo.f32_v1> loc(#loc49)
    %69 = "vhlo.convert_v1"(%68) : (!vhlo.tensor_v1<8x!vhlo.f32_v1>) -> !vhlo.tensor_v1<8x!vhlo.i64_v1> loc(#loc50)
    %70 = "vhlo.clamp_v1"(%19, %69, %17) : (!vhlo.tensor_v1<8x!vhlo.i64_v1>, !vhlo.tensor_v1<8x!vhlo.i64_v1>, !vhlo.tensor_v1<8x!vhlo.i64_v1>) -> !vhlo.tensor_v1<8x!vhlo.i64_v1> loc(#loc51)
    %71 = "vhlo.compare_v1"(%70, %19) <{compare_type = #vhlo<comparison_type_v1 NOTYPE>, comparison_direction = #vhlo<comparison_direction_v1 LT>}> : (!vhlo.tensor_v1<8x!vhlo.i64_v1>, !vhlo.tensor_v1<8x!vhlo.i64_v1>) -> !vhlo.tensor_v1<8x!vhlo.bool_v1> loc(#loc52)
    %72 = "vhlo.add_v1"(%70, %16) : (!vhlo.tensor_v1<8x!vhlo.i64_v1>, !vhlo.tensor_v1<8x!vhlo.i64_v1>) -> !vhlo.tensor_v1<8x!vhlo.i64_v1> loc(#loc53)
    %73 = "vhlo.select_v1"(%71, %72, %70) : (!vhlo.tensor_v1<8x!vhlo.bool_v1>, !vhlo.tensor_v1<8x!vhlo.i64_v1>, !vhlo.tensor_v1<8x!vhlo.i64_v1>) -> !vhlo.tensor_v1<8x!vhlo.i64_v1> loc(#loc54)
    %74 = "vhlo.reshape_v1"(%73) : (!vhlo.tensor_v1<8x!vhlo.i64_v1>) -> !vhlo.tensor_v1<8x1x!vhlo.i64_v1> loc(#loc55)
    %75 = "vhlo.gather_v2"(%67, %74) <{collapsed_slice_dims = #vhlo.tensor_v1<dense<2> : tensor<1xi64>>, index_vector_dim = #vhlo.integer_v1<1 : i64>, indices_are_sorted = #vhlo.bool_v1<false>, offset_dims = #vhlo.tensor_v1<dense<[0, 1, 3]> : tensor<3xi64>>, operand_batching_dims = #vhlo.tensor_v1<dense<> : tensor<0xi64>>, slice_sizes = #vhlo.tensor_v1<dense<[1, 1, 1, 32]> : tensor<4xi64>>, start_index_map = #vhlo.tensor_v1<dense<2> : tensor<1xi64>>, start_indices_batching_dims = #vhlo.tensor_v1<dense<> : tensor<0xi64>>}> : (!vhlo.tensor_v1<1x1x4x32x!vhlo.f32_v1>, !vhlo.tensor_v1<8x1x!vhlo.i64_v1>) -> !vhlo.tensor_v1<1x1x8x32x!vhlo.f32_v1> loc(#loc56)
    %76 = "vhlo.select_v1"(%56, %20, %75) : (!vhlo.tensor_v1<1x1x8x32x!vhlo.bool_v1>, !vhlo.tensor_v1<1x1x8x32x!vhlo.f32_v1>, !vhlo.tensor_v1<1x1x8x32x!vhlo.f32_v1>) -> !vhlo.tensor_v1<1x1x8x32x!vhlo.f32_v1> loc(#loc57)
    %77 = "vhlo.select_v1"(%53, %76, %20) : (!vhlo.tensor_v1<1x1x8x32x!vhlo.bool_v1>, !vhlo.tensor_v1<1x1x8x32x!vhlo.f32_v1>, !vhlo.tensor_v1<1x1x8x32x!vhlo.f32_v1>) -> !vhlo.tensor_v1<1x1x8x32x!vhlo.f32_v1> loc(#loc58)
    %78 = "vhlo.reshape_v1"(%arg2) : (!vhlo.tensor_v1<64x128x!vhlo.f32_v1>) -> !vhlo.tensor_v1<1x64x128x!vhlo.f32_v1> loc(#loc59)
    %79 = "vhlo.custom_call_v1"(%78) <{api_version = #vhlo<api_version_v1 API_VERSION_UNSPECIFIED>, backend_config = #vhlo.string_v1<"">, call_target_name = #vhlo.string_v1<"tt.mark_argument">, called_computations = #vhlo.array_v1<[]>, has_side_effect = #vhlo.bool_v1<false>, operand_layouts = #vhlo.array_v1<[]>, output_operand_aliases = #vhlo.array_v1<[]>, result_layouts = #vhlo.array_v1<[]>}> {mhlo.frontend_attributes = #vhlo.dict_v1<{#vhlo.string_v1<"ttcore.argument_type"> = #vhlo.string_v1<"parameter">, #vhlo.string_v1<"ttir.name"> = #vhlo.string_v1<"compressor.wgate.weight">}>} : (!vhlo.tensor_v1<1x64x128x!vhlo.f32_v1>) -> !vhlo.tensor_v1<1x64x128x!vhlo.f32_v1> loc(#loc60)
    %80 = "vhlo.reshape_v1"(%79) : (!vhlo.tensor_v1<1x64x128x!vhlo.f32_v1>) -> !vhlo.tensor_v1<64x128x!vhlo.f32_v1> loc(#loc61)
    %81 = "vhlo.transpose_v1"(%80) <{permutation = #vhlo.tensor_v1<dense<[1, 0]> : tensor<2xi64>>}> {result_layout = #vhlo.tensor_v1<dense<[0, 1]> : tensor<2xindex>>, xla_shape = #vhlo.string_v1<"f32[128,64]{0,1}">} : (!vhlo.tensor_v1<64x128x!vhlo.f32_v1>) -> !vhlo.tensor_v1<128x64x!vhlo.f32_v1> loc(#loc62)
    %82 = "vhlo.dot_general_v2"(%59, %81) <{accumulation_type = #vhlo.type_v1<!vhlo.none_v1>, allow_imprecise_accumulation = #vhlo.type_v1<!vhlo.none_v1>, lhs_batching_dimensions = #vhlo.tensor_v1<dense<> : tensor<0xi64>>, lhs_component_count = #vhlo.type_v1<!vhlo.none_v1>, lhs_contracting_dimensions = #vhlo.tensor_v1<dense<1> : tensor<1xi64>>, lhs_precision_type = #vhlo.type_v1<!vhlo.none_v1>, num_primitive_operations = #vhlo.type_v1<!vhlo.none_v1>, precision_config = #vhlo.array_v1<[#vhlo<precision_v1 DEFAULT>, #vhlo<precision_v1 DEFAULT>]>, rhs_batching_dimensions = #vhlo.tensor_v1<dense<> : tensor<0xi64>>, rhs_component_count = #vhlo.type_v1<!vhlo.none_v1>, rhs_contracting_dimensions = #vhlo.tensor_v1<dense<0> : tensor<1xi64>>, rhs_precision_type = #vhlo.type_v1<!vhlo.none_v1>}> : (!vhlo.tensor_v1<4x128x!vhlo.f32_v1>, !vhlo.tensor_v1<128x64x!vhlo.f32_v1>) -> !vhlo.tensor_v1<4x64x!vhlo.f32_v1> loc(#loc63)
    %83 = "vhlo.reshape_v1"(%82) : (!vhlo.tensor_v1<4x64x!vhlo.f32_v1>) -> !vhlo.tensor_v1<1x4x64x!vhlo.f32_v1> loc(#loc64)
    %84 = "vhlo.reshape_v1"(%82) : (!vhlo.tensor_v1<4x64x!vhlo.f32_v1>) -> !vhlo.tensor_v1<1x1x4x64x!vhlo.f32_v1> loc(#loc65)
    %85 = "vhlo.reshape_v1"(%arg1) : (!vhlo.tensor_v1<4x64x!vhlo.f32_v1>) -> !vhlo.tensor_v1<1x4x64x!vhlo.f32_v1> loc(#loc66)
    %86 = "vhlo.custom_call_v1"(%85) <{api_version = #vhlo<api_version_v1 API_VERSION_UNSPECIFIED>, backend_config = #vhlo.string_v1<"">, call_target_name = #vhlo.string_v1<"tt.mark_argument">, called_computations = #vhlo.array_v1<[]>, has_side_effect = #vhlo.bool_v1<false>, operand_layouts = #vhlo.array_v1<[]>, output_operand_aliases = #vhlo.array_v1<[]>, result_layouts = #vhlo.array_v1<[]>}> {mhlo.frontend_attributes = #vhlo.dict_v1<{#vhlo.string_v1<"ttcore.argument_type"> = #vhlo.string_v1<"parameter">, #vhlo.string_v1<"ttir.name"> = #vhlo.string_v1<"compressor.ape">}>} : (!vhlo.tensor_v1<1x4x64x!vhlo.f32_v1>) -> !vhlo.tensor_v1<1x4x64x!vhlo.f32_v1> loc(#loc67)
    %87 = "vhlo.reshape_v1"(%86) : (!vhlo.tensor_v1<1x4x64x!vhlo.f32_v1>) -> !vhlo.tensor_v1<1x1x4x64x!vhlo.f32_v1> loc(#loc68)
    %88 = "vhlo.add_v1"(%84, %87) : (!vhlo.tensor_v1<1x1x4x64x!vhlo.f32_v1>, !vhlo.tensor_v1<1x1x4x64x!vhlo.f32_v1>) -> !vhlo.tensor_v1<1x1x4x64x!vhlo.f32_v1> loc(#loc69)
    %89 = "vhlo.slice_v1"(%88) <{limit_indices = #vhlo.tensor_v1<dense<[1, 1, 4, 64]> : tensor<4xi64>>, start_indices = #vhlo.tensor_v1<dense<[0, 0, 0, 32]> : tensor<4xi64>>, strides = #vhlo.tensor_v1<dense<1> : tensor<4xi64>>}> : (!vhlo.tensor_v1<1x1x4x64x!vhlo.f32_v1>) -> !vhlo.tensor_v1<1x1x4x32x!vhlo.f32_v1> loc(#loc70)
    %90 = "vhlo.gather_v2"(%89, %74) <{collapsed_slice_dims = #vhlo.tensor_v1<dense<2> : tensor<1xi64>>, index_vector_dim = #vhlo.integer_v1<1 : i64>, indices_are_sorted = #vhlo.bool_v1<false>, offset_dims = #vhlo.tensor_v1<dense<[0, 1, 3]> : tensor<3xi64>>, operand_batching_dims = #vhlo.tensor_v1<dense<> : tensor<0xi64>>, slice_sizes = #vhlo.tensor_v1<dense<[1, 1, 1, 32]> : tensor<4xi64>>, start_index_map = #vhlo.tensor_v1<dense<2> : tensor<1xi64>>, start_indices_batching_dims = #vhlo.tensor_v1<dense<> : tensor<0xi64>>}> : (!vhlo.tensor_v1<1x1x4x32x!vhlo.f32_v1>, !vhlo.tensor_v1<8x1x!vhlo.i64_v1>) -> !vhlo.tensor_v1<1x1x8x32x!vhlo.f32_v1> loc(#loc71)
    %91 = "vhlo.select_v1"(%56, %20, %90) : (!vhlo.tensor_v1<1x1x8x32x!vhlo.bool_v1>, !vhlo.tensor_v1<1x1x8x32x!vhlo.f32_v1>, !vhlo.tensor_v1<1x1x8x32x!vhlo.f32_v1>) -> !vhlo.tensor_v1<1x1x8x32x!vhlo.f32_v1> loc(#loc72)
    %92 = "vhlo.select_v1"(%53, %91, %15) : (!vhlo.tensor_v1<1x1x8x32x!vhlo.bool_v1>, !vhlo.tensor_v1<1x1x8x32x!vhlo.f32_v1>, !vhlo.tensor_v1<1x1x8x32x!vhlo.f32_v1>) -> !vhlo.tensor_v1<1x1x8x32x!vhlo.f32_v1> loc(#loc73)
    %93 = "vhlo.reduce_v1"(%92, %28) <{dimensions = #vhlo.tensor_v1<dense<2> : tensor<1xi64>>}> ({
    ^bb0(%arg10: !vhlo.tensor_v1<!vhlo.f32_v1> loc("reduce.185"), %arg11: !vhlo.tensor_v1<!vhlo.f32_v1> loc("reduce.185")):
      %203 = "vhlo.maximum_v1"(%arg10, %arg11) : (!vhlo.tensor_v1<!vhlo.f32_v1>, !vhlo.tensor_v1<!vhlo.f32_v1>) -> !vhlo.tensor_v1<!vhlo.f32_v1> loc(#loc75)
      "vhlo.return_v1"(%203) : (!vhlo.tensor_v1<!vhlo.f32_v1>) -> () loc(#loc)
    }) : (!vhlo.tensor_v1<1x1x8x32x!vhlo.f32_v1>, !vhlo.tensor_v1<!vhlo.f32_v1>) -> !vhlo.tensor_v1<1x1x32x!vhlo.f32_v1> loc(#loc74)
    %94 = "vhlo.broadcast_in_dim_v1"(%93) <{broadcast_dimensions = #vhlo.tensor_v1<dense<[0, 1, 3]> : tensor<3xi64>>}> : (!vhlo.tensor_v1<1x1x32x!vhlo.f32_v1>) -> !vhlo.tensor_v1<1x1x8x32x!vhlo.f32_v1> loc(#loc76)
    %95 = "vhlo.subtract_v1"(%92, %94) : (!vhlo.tensor_v1<1x1x8x32x!vhlo.f32_v1>, !vhlo.tensor_v1<1x1x8x32x!vhlo.f32_v1>) -> !vhlo.tensor_v1<1x1x8x32x!vhlo.f32_v1> loc(#loc77)
    %96 = "vhlo.exponential_v2"(%95) <{result_accuracy = #vhlo.result_accuracy_v1<atol = 0.000000e+00, rtol = 0.000000e+00, ulps = 0, mode = #vhlo<result_accuracy_mode_v1 DEFAULT>>}> : (!vhlo.tensor_v1<1x1x8x32x!vhlo.f32_v1>) -> !vhlo.tensor_v1<1x1x8x32x!vhlo.f32_v1> loc(#loc78)
    %97 = "vhlo.reduce_v1"(%96, %29) <{dimensions = #vhlo.tensor_v1<dense<2> : tensor<1xi64>>}> ({
    ^bb0(%arg10: !vhlo.tensor_v1<!vhlo.f32_v1> loc("reduce.194"), %arg11: !vhlo.tensor_v1<!vhlo.f32_v1> loc("reduce.194")):
      %203 = "vhlo.add_v1"(%arg10, %arg11) : (!vhlo.tensor_v1<!vhlo.f32_v1>, !vhlo.tensor_v1<!vhlo.f32_v1>) -> !vhlo.tensor_v1<!vhlo.f32_v1> loc(#loc80)
      "vhlo.return_v1"(%203) : (!vhlo.tensor_v1<!vhlo.f32_v1>) -> () loc(#loc)
    }) : (!vhlo.tensor_v1<1x1x8x32x!vhlo.f32_v1>, !vhlo.tensor_v1<!vhlo.f32_v1>) -> !vhlo.tensor_v1<1x1x32x!vhlo.f32_v1> loc(#loc79)
    %98 = "vhlo.broadcast_in_dim_v1"(%97) <{broadcast_dimensions = #vhlo.tensor_v1<dense<[0, 1, 3]> : tensor<3xi64>>}> : (!vhlo.tensor_v1<1x1x32x!vhlo.f32_v1>) -> !vhlo.tensor_v1<1x1x8x32x!vhlo.f32_v1> loc(#loc81)
    %99 = "vhlo.divide_v1"(%96, %98) : (!vhlo.tensor_v1<1x1x8x32x!vhlo.f32_v1>, !vhlo.tensor_v1<1x1x8x32x!vhlo.f32_v1>) -> !vhlo.tensor_v1<1x1x8x32x!vhlo.f32_v1> loc(#loc82)
    %100 = "vhlo.multiply_v1"(%77, %99) : (!vhlo.tensor_v1<1x1x8x32x!vhlo.f32_v1>, !vhlo.tensor_v1<1x1x8x32x!vhlo.f32_v1>) -> !vhlo.tensor_v1<1x1x8x32x!vhlo.f32_v1> loc(#loc83)
    %101 = "vhlo.reduce_v1"(%100, %29) <{dimensions = #vhlo.tensor_v1<dense<2> : tensor<1xi64>>}> ({
    ^bb0(%arg10: !vhlo.tensor_v1<!vhlo.f32_v1> loc("reduce.302"), %arg11: !vhlo.tensor_v1<!vhlo.f32_v1> loc("reduce.302")):
      %203 = "vhlo.add_v1"(%arg10, %arg11) : (!vhlo.tensor_v1<!vhlo.f32_v1>, !vhlo.tensor_v1<!vhlo.f32_v1>) -> !vhlo.tensor_v1<!vhlo.f32_v1> loc(#loc85)
      "vhlo.return_v1"(%203) : (!vhlo.tensor_v1<!vhlo.f32_v1>) -> () loc(#loc)
    }) : (!vhlo.tensor_v1<1x1x8x32x!vhlo.f32_v1>, !vhlo.tensor_v1<!vhlo.f32_v1>) -> !vhlo.tensor_v1<1x1x32x!vhlo.f32_v1> loc(#loc84)
    %102 = "vhlo.convert_v1"(%101) : (!vhlo.tensor_v1<1x1x32x!vhlo.f32_v1>) -> !vhlo.tensor_v1<1x1x32x!vhlo.bf16_v1> loc(#loc86)
    %103 = "vhlo.convert_v1"(%102) : (!vhlo.tensor_v1<1x1x32x!vhlo.bf16_v1>) -> !vhlo.tensor_v1<1x1x32x!vhlo.f32_v1> loc(#loc87)
    %104 = "vhlo.power_v1"(%103, %14) : (!vhlo.tensor_v1<1x1x32x!vhlo.f32_v1>, !vhlo.tensor_v1<1x1x32x!vhlo.f32_v1>) -> !vhlo.tensor_v1<1x1x32x!vhlo.f32_v1> loc(#loc88)
    %105 = "vhlo.reduce_v1"(%104, %29) <{dimensions = #vhlo.tensor_v1<dense<2> : tensor<1xi64>>}> ({
    ^bb0(%arg10: !vhlo.tensor_v1<!vhlo.f32_v1> loc("reduce.313"), %arg11: !vhlo.tensor_v1<!vhlo.f32_v1> loc("reduce.313")):
      %203 = "vhlo.add_v1"(%arg10, %arg11) : (!vhlo.tensor_v1<!vhlo.f32_v1>, !vhlo.tensor_v1<!vhlo.f32_v1>) -> !vhlo.tensor_v1<!vhlo.f32_v1> loc(#loc90)
      "vhlo.return_v1"(%203) : (!vhlo.tensor_v1<!vhlo.f32_v1>) -> () loc(#loc)
    }) : (!vhlo.tensor_v1<1x1x32x!vhlo.f32_v1>, !vhlo.tensor_v1<!vhlo.f32_v1>) -> !vhlo.tensor_v1<1x1x!vhlo.f32_v1> loc(#loc89)
    %106 = "vhlo.multiply_v1"(%105, %13) : (!vhlo.tensor_v1<1x1x!vhlo.f32_v1>, !vhlo.tensor_v1<1x1x!vhlo.f32_v1>) -> !vhlo.tensor_v1<1x1x!vhlo.f32_v1> loc(#loc91)
    %107 = "vhlo.reshape_v1"(%106) : (!vhlo.tensor_v1<1x1x!vhlo.f32_v1>) -> !vhlo.tensor_v1<1x1x1x!vhlo.f32_v1> loc(#loc92)
    %108 = "vhlo.add_v1"(%107, %12) : (!vhlo.tensor_v1<1x1x1x!vhlo.f32_v1>, !vhlo.tensor_v1<1x1x1x!vhlo.f32_v1>) -> !vhlo.tensor_v1<1x1x1x!vhlo.f32_v1> loc(#loc93)
    %109 = "vhlo.rsqrt_v2"(%108) <{result_accuracy = #vhlo.result_accuracy_v1<atol = 0.000000e+00, rtol = 0.000000e+00, ulps = 0, mode = #vhlo<result_accuracy_mode_v1 DEFAULT>>}> : (!vhlo.tensor_v1<1x1x1x!vhlo.f32_v1>) -> !vhlo.tensor_v1<1x1x1x!vhlo.f32_v1> loc(#loc94)
    %110 = "vhlo.reshape_v1"(%109) : (!vhlo.tensor_v1<1x1x1x!vhlo.f32_v1>) -> !vhlo.tensor_v1<1x1x!vhlo.f32_v1> loc(#loc95)
    %111 = "vhlo.broadcast_in_dim_v1"(%110) <{broadcast_dimensions = #vhlo.tensor_v1<dense<[0, 1]> : tensor<2xi64>>}> : (!vhlo.tensor_v1<1x1x!vhlo.f32_v1>) -> !vhlo.tensor_v1<1x1x32x!vhlo.f32_v1> loc(#loc96)
    %112 = "vhlo.multiply_v1"(%103, %111) : (!vhlo.tensor_v1<1x1x32x!vhlo.f32_v1>, !vhlo.tensor_v1<1x1x32x!vhlo.f32_v1>) -> !vhlo.tensor_v1<1x1x32x!vhlo.f32_v1> loc(#loc97)
    %113 = "vhlo.multiply_v1"(%49, %112) : (!vhlo.tensor_v1<1x1x32x!vhlo.f32_v1>, !vhlo.tensor_v1<1x1x32x!vhlo.f32_v1>) -> !vhlo.tensor_v1<1x1x32x!vhlo.f32_v1> loc(#loc98)
    %114 = "vhlo.convert_v1"(%113) : (!vhlo.tensor_v1<1x1x32x!vhlo.f32_v1>) -> !vhlo.tensor_v1<1x1x32x!vhlo.bf16_v1> loc(#loc99)
    %115 = "vhlo.slice_v1"(%114) <{limit_indices = #vhlo.tensor_v1<dense<[1, 1, 32]> : tensor<3xi64>>, start_indices = #vhlo.tensor_v1<dense<[0, 0, 16]> : tensor<3xi64>>, strides = #vhlo.tensor_v1<dense<1> : tensor<3xi64>>}> : (!vhlo.tensor_v1<1x1x32x!vhlo.bf16_v1>) -> !vhlo.tensor_v1<1x1x16x!vhlo.bf16_v1> loc(#loc100)
    %116 = "vhlo.convert_v1"(%115) : (!vhlo.tensor_v1<1x1x16x!vhlo.bf16_v1>) -> !vhlo.tensor_v1<1x1x16x!vhlo.f32_v1> loc(#loc101)
    %117 = "vhlo.reshape_v1"(%116) : (!vhlo.tensor_v1<1x1x16x!vhlo.f32_v1>) -> !vhlo.tensor_v1<1x1x8x2x!vhlo.f32_v1> loc(#loc102)
    %118 = "vhlo.slice_v1"(%117) <{limit_indices = #vhlo.tensor_v1<dense<[1, 1, 8, 1]> : tensor<4xi64>>, start_indices = #vhlo.tensor_v1<dense<0> : tensor<4xi64>>, strides = #vhlo.tensor_v1<dense<1> : tensor<4xi64>>}> : (!vhlo.tensor_v1<1x1x8x2x!vhlo.f32_v1>) -> !vhlo.tensor_v1<1x1x8x1x!vhlo.f32_v1> loc(#loc103)
    %119 = "vhlo.reshape_v1"(%118) : (!vhlo.tensor_v1<1x1x8x1x!vhlo.f32_v1>) -> !vhlo.tensor_v1<1x1x8x!vhlo.f32_v1> loc(#loc104)
    %120 = "vhlo.custom_call_v1"(%arg7) <{api_version = #vhlo<api_version_v1 API_VERSION_UNSPECIFIED>, backend_config = #vhlo.string_v1<"">, call_target_name = #vhlo.string_v1<"tt.mark_argument">, called_computations = #vhlo.array_v1<[]>, has_side_effect = #vhlo.bool_v1<false>, operand_layouts = #vhlo.array_v1<[]>, output_operand_aliases = #vhlo.array_v1<[]>, result_layouts = #vhlo.array_v1<[]>}> {mhlo.frontend_attributes = #vhlo.dict_v1<{#vhlo.string_v1<"ttcore.argument_type"> = #vhlo.string_v1<"constant">, #vhlo.string_v1<"ttir.name"> = #vhlo.string_v1<"compressor.freqs_cis">}>} : (!vhlo.tensor_v1<32x8x2x!vhlo.f32_v1>) -> !vhlo.tensor_v1<32x8x2x!vhlo.f32_v1> loc(#loc105)
    %121 = "vhlo.slice_v1"(%120) <{limit_indices = #vhlo.tensor_v1<dense<[4, 8, 2]> : tensor<3xi64>>, start_indices = #vhlo.tensor_v1<dense<0> : tensor<3xi64>>, strides = #vhlo.tensor_v1<dense<[4, 1, 1]> : tensor<3xi64>>}> : (!vhlo.tensor_v1<32x8x2x!vhlo.f32_v1>) -> !vhlo.tensor_v1<1x8x2x!vhlo.f32_v1> loc(#loc106)
    %122 = "vhlo.reshape_v1"(%121) : (!vhlo.tensor_v1<1x8x2x!vhlo.f32_v1>) -> !vhlo.tensor_v1<1x1x8x2x!vhlo.f32_v1> loc(#loc107)
    %123 = "vhlo.slice_v1"(%122) <{limit_indices = #vhlo.tensor_v1<dense<[1, 1, 8, 1]> : tensor<4xi64>>, start_indices = #vhlo.tensor_v1<dense<0> : tensor<4xi64>>, strides = #vhlo.tensor_v1<dense<1> : tensor<4xi64>>}> : (!vhlo.tensor_v1<1x1x8x2x!vhlo.f32_v1>) -> !vhlo.tensor_v1<1x1x8x1x!vhlo.f32_v1> loc(#loc108)
    %124 = "vhlo.reshape_v1"(%123) : (!vhlo.tensor_v1<1x1x8x1x!vhlo.f32_v1>) -> !vhlo.tensor_v1<1x1x8x!vhlo.f32_v1> loc(#loc109)
    %125 = "vhlo.multiply_v1"(%119, %124) : (!vhlo.tensor_v1<1x1x8x!vhlo.f32_v1>, !vhlo.tensor_v1<1x1x8x!vhlo.f32_v1>) -> !vhlo.tensor_v1<1x1x8x!vhlo.f32_v1> loc(#loc110)
    %126 = "vhlo.slice_v1"(%117) <{limit_indices = #vhlo.tensor_v1<dense<[1, 1, 8, 2]> : tensor<4xi64>>, start_indices = #vhlo.tensor_v1<dense<[0, 0, 0, 1]> : tensor<4xi64>>, strides = #vhlo.tensor_v1<dense<1> : tensor<4xi64>>}> : (!vhlo.tensor_v1<1x1x8x2x!vhlo.f32_v1>) -> !vhlo.tensor_v1<1x1x8x1x!vhlo.f32_v1> loc(#loc111)
    %127 = "vhlo.reshape_v1"(%126) : (!vhlo.tensor_v1<1x1x8x1x!vhlo.f32_v1>) -> !vhlo.tensor_v1<1x1x8x!vhlo.f32_v1> loc(#loc112)
    %128 = "vhlo.slice_v1"(%122) <{limit_indices = #vhlo.tensor_v1<dense<[1, 1, 8, 2]> : tensor<4xi64>>, start_indices = #vhlo.tensor_v1<dense<[0, 0, 0, 1]> : tensor<4xi64>>, strides = #vhlo.tensor_v1<dense<1> : tensor<4xi64>>}> : (!vhlo.tensor_v1<1x1x8x2x!vhlo.f32_v1>) -> !vhlo.tensor_v1<1x1x8x1x!vhlo.f32_v1> loc(#loc113)
    %129 = "vhlo.reshape_v1"(%128) : (!vhlo.tensor_v1<1x1x8x1x!vhlo.f32_v1>) -> !vhlo.tensor_v1<1x1x8x!vhlo.f32_v1> loc(#loc114)
    %130 = "vhlo.multiply_v1"(%127, %129) : (!vhlo.tensor_v1<1x1x8x!vhlo.f32_v1>, !vhlo.tensor_v1<1x1x8x!vhlo.f32_v1>) -> !vhlo.tensor_v1<1x1x8x!vhlo.f32_v1> loc(#loc115)
    %131 = "vhlo.subtract_v1"(%125, %130) : (!vhlo.tensor_v1<1x1x8x!vhlo.f32_v1>, !vhlo.tensor_v1<1x1x8x!vhlo.f32_v1>) -> !vhlo.tensor_v1<1x1x8x!vhlo.f32_v1> loc(#loc116)
    %132 = "vhlo.reshape_v1"(%131) : (!vhlo.tensor_v1<1x1x8x!vhlo.f32_v1>) -> !vhlo.tensor_v1<1x1x8x1x!vhlo.f32_v1> loc(#loc117)
    %133 = "vhlo.multiply_v1"(%119, %129) : (!vhlo.tensor_v1<1x1x8x!vhlo.f32_v1>, !vhlo.tensor_v1<1x1x8x!vhlo.f32_v1>) -> !vhlo.tensor_v1<1x1x8x!vhlo.f32_v1> loc(#loc118)
    %134 = "vhlo.multiply_v1"(%127, %124) : (!vhlo.tensor_v1<1x1x8x!vhlo.f32_v1>, !vhlo.tensor_v1<1x1x8x!vhlo.f32_v1>) -> !vhlo.tensor_v1<1x1x8x!vhlo.f32_v1> loc(#loc119)
    %135 = "vhlo.add_v1"(%133, %134) : (!vhlo.tensor_v1<1x1x8x!vhlo.f32_v1>, !vhlo.tensor_v1<1x1x8x!vhlo.f32_v1>) -> !vhlo.tensor_v1<1x1x8x!vhlo.f32_v1> loc(#loc120)
    %136 = "vhlo.reshape_v1"(%135) : (!vhlo.tensor_v1<1x1x8x!vhlo.f32_v1>) -> !vhlo.tensor_v1<1x1x8x1x!vhlo.f32_v1> loc(#loc121)
    %137 = "vhlo.concatenate_v1"(%132, %136) <{dimension = #vhlo.integer_v1<3 : i64>}> : (!vhlo.tensor_v1<1x1x8x1x!vhlo.f32_v1>, !vhlo.tensor_v1<1x1x8x1x!vhlo.f32_v1>) -> !vhlo.tensor_v1<1x1x8x2x!vhlo.f32_v1> loc(#loc122)
    %138 = "vhlo.reshape_v1"(%137) : (!vhlo.tensor_v1<1x1x8x2x!vhlo.f32_v1>) -> !vhlo.tensor_v1<1x1x16x!vhlo.f32_v1> loc(#loc123)
    %139 = "vhlo.convert_v1"(%138) : (!vhlo.tensor_v1<1x1x16x!vhlo.f32_v1>) -> !vhlo.tensor_v1<1x1x16x!vhlo.bf16_v1> loc(#loc124)
    %140 = "vhlo.floor_v1"(%10) : (!vhlo.tensor_v1<32x!vhlo.f32_v1>) -> !vhlo.tensor_v1<32x!vhlo.f32_v1> loc(#loc125)
    %141 = "vhlo.convert_v1"(%140) : (!vhlo.tensor_v1<32x!vhlo.f32_v1>) -> !vhlo.tensor_v1<32x!vhlo.i64_v1> loc(#loc126)
    %142 = "vhlo.clamp_v1"(%11, %141, %9) : (!vhlo.tensor_v1<32x!vhlo.i64_v1>, !vhlo.tensor_v1<32x!vhlo.i64_v1>, !vhlo.tensor_v1<32x!vhlo.i64_v1>) -> !vhlo.tensor_v1<32x!vhlo.i64_v1> loc(#loc127)
    %143 = "vhlo.compare_v1"(%142, %11) <{compare_type = #vhlo<comparison_type_v1 NOTYPE>, comparison_direction = #vhlo<comparison_direction_v1 LT>}> : (!vhlo.tensor_v1<32x!vhlo.i64_v1>, !vhlo.tensor_v1<32x!vhlo.i64_v1>) -> !vhlo.tensor_v1<32x!vhlo.bool_v1> loc(#loc128)
    %144 = "vhlo.add_v1"(%142, %8) : (!vhlo.tensor_v1<32x!vhlo.i64_v1>, !vhlo.tensor_v1<32x!vhlo.i64_v1>) -> !vhlo.tensor_v1<32x!vhlo.i64_v1> loc(#loc129)
    %145 = "vhlo.select_v1"(%143, %144, %142) : (!vhlo.tensor_v1<32x!vhlo.bool_v1>, !vhlo.tensor_v1<32x!vhlo.i64_v1>, !vhlo.tensor_v1<32x!vhlo.i64_v1>) -> !vhlo.tensor_v1<32x!vhlo.i64_v1> loc(#loc130)
    %146 = "vhlo.reshape_v1"(%145) : (!vhlo.tensor_v1<32x!vhlo.i64_v1>) -> !vhlo.tensor_v1<32x1x!vhlo.i64_v1> loc(#loc131)
    %147 = "vhlo.gather_v2"(%139, %146) <{collapsed_slice_dims = #vhlo.tensor_v1<dense<2> : tensor<1xi64>>, index_vector_dim = #vhlo.integer_v1<1 : i64>, indices_are_sorted = #vhlo.bool_v1<false>, offset_dims = #vhlo.tensor_v1<dense<[0, 1]> : tensor<2xi64>>, operand_batching_dims = #vhlo.tensor_v1<dense<> : tensor<0xi64>>, slice_sizes = #vhlo.tensor_v1<dense<1> : tensor<3xi64>>, start_index_map = #vhlo.tensor_v1<dense<2> : tensor<1xi64>>, start_indices_batching_dims = #vhlo.tensor_v1<dense<> : tensor<0xi64>>}> : (!vhlo.tensor_v1<1x1x16x!vhlo.bf16_v1>, !vhlo.tensor_v1<32x1x!vhlo.i64_v1>) -> !vhlo.tensor_v1<1x1x32x!vhlo.bf16_v1> loc(#loc132)
    %148 = "vhlo.select_v1"(%47, %147, %22) : (!vhlo.tensor_v1<1x1x32x!vhlo.bool_v1>, !vhlo.tensor_v1<1x1x32x!vhlo.bf16_v1>, !vhlo.tensor_v1<1x1x32x!vhlo.bf16_v1>) -> !vhlo.tensor_v1<1x1x32x!vhlo.bf16_v1> loc(#loc189)
    %149 = "vhlo.select_v1"(%47, %148, %114) : (!vhlo.tensor_v1<1x1x32x!vhlo.bool_v1>, !vhlo.tensor_v1<1x1x32x!vhlo.bf16_v1>, !vhlo.tensor_v1<1x1x32x!vhlo.bf16_v1>) -> !vhlo.tensor_v1<1x1x32x!vhlo.bf16_v1> loc(#loc135)
    %150 = "vhlo.floor_v1"(%7) : (!vhlo.tensor_v1<8x!vhlo.f32_v1>) -> !vhlo.tensor_v1<8x!vhlo.f32_v1> loc(#loc136)
    %151 = "vhlo.convert_v1"(%150) : (!vhlo.tensor_v1<8x!vhlo.f32_v1>) -> !vhlo.tensor_v1<8x!vhlo.i64_v1> loc(#loc137)
    %152 = "vhlo.clamp_v1"(%19, %151, %19) : (!vhlo.tensor_v1<8x!vhlo.i64_v1>, !vhlo.tensor_v1<8x!vhlo.i64_v1>, !vhlo.tensor_v1<8x!vhlo.i64_v1>) -> !vhlo.tensor_v1<8x!vhlo.i64_v1> loc(#loc138)
    %153 = "vhlo.compare_v1"(%152, %19) <{compare_type = #vhlo<comparison_type_v1 NOTYPE>, comparison_direction = #vhlo<comparison_direction_v1 LT>}> : (!vhlo.tensor_v1<8x!vhlo.i64_v1>, !vhlo.tensor_v1<8x!vhlo.i64_v1>) -> !vhlo.tensor_v1<8x!vhlo.bool_v1> loc(#loc139)
    %154 = "vhlo.add_v1"(%152, %6) : (!vhlo.tensor_v1<8x!vhlo.i64_v1>, !vhlo.tensor_v1<8x!vhlo.i64_v1>) -> !vhlo.tensor_v1<8x!vhlo.i64_v1> loc(#loc140)
    %155 = "vhlo.select_v1"(%153, %154, %152) : (!vhlo.tensor_v1<8x!vhlo.bool_v1>, !vhlo.tensor_v1<8x!vhlo.i64_v1>, !vhlo.tensor_v1<8x!vhlo.i64_v1>) -> !vhlo.tensor_v1<8x!vhlo.i64_v1> loc(#loc141)
    %156 = "vhlo.reshape_v1"(%155) : (!vhlo.tensor_v1<8x!vhlo.i64_v1>) -> !vhlo.tensor_v1<8x1x!vhlo.i64_v1> loc(#loc142)
    %157 = "vhlo.gather_v2"(%149, %156) <{collapsed_slice_dims = #vhlo.tensor_v1<dense<1> : tensor<1xi64>>, index_vector_dim = #vhlo.integer_v1<1 : i64>, indices_are_sorted = #vhlo.bool_v1<false>, offset_dims = #vhlo.tensor_v1<dense<[0, 2]> : tensor<2xi64>>, operand_batching_dims = #vhlo.tensor_v1<dense<> : tensor<0xi64>>, slice_sizes = #vhlo.tensor_v1<dense<[1, 1, 32]> : tensor<3xi64>>, start_index_map = #vhlo.tensor_v1<dense<1> : tensor<1xi64>>, start_indices_batching_dims = #vhlo.tensor_v1<dense<> : tensor<0xi64>>}> : (!vhlo.tensor_v1<1x1x32x!vhlo.bf16_v1>, !vhlo.tensor_v1<8x1x!vhlo.i64_v1>) -> !vhlo.tensor_v1<1x8x32x!vhlo.bf16_v1> loc(#loc143)
    %158 = "vhlo.select_v1"(%44, %24, %157) : (!vhlo.tensor_v1<1x8x32x!vhlo.bool_v1>, !vhlo.tensor_v1<1x8x32x!vhlo.bf16_v1>, !vhlo.tensor_v1<1x8x32x!vhlo.bf16_v1>) -> !vhlo.tensor_v1<1x8x32x!vhlo.bf16_v1> loc(#loc144)
    %159 = "vhlo.custom_call_v1"(%arg0) <{api_version = #vhlo<api_version_v1 API_VERSION_UNSPECIFIED>, backend_config = #vhlo.string_v1<"">, call_target_name = #vhlo.string_v1<"tt.mark_argument">, called_computations = #vhlo.array_v1<[]>, has_side_effect = #vhlo.bool_v1<false>, operand_layouts = #vhlo.array_v1<[]>, output_operand_aliases = #vhlo.array_v1<[]>, result_layouts = #vhlo.array_v1<[]>}> {mhlo.frontend_attributes = #vhlo.dict_v1<{#vhlo.string_v1<"ttcore.argument_type"> = #vhlo.string_v1<"input">, #vhlo.string_v1<"ttir.name"> = #vhlo.string_v1<"compressor.kv_cache">}>} : (!vhlo.tensor_v1<2x8x32x!vhlo.bf16_v1>) -> !vhlo.tensor_v1<2x8x32x!vhlo.bf16_v1> loc(#loc145)
    %160 = "vhlo.slice_v1"(%159) <{limit_indices = #vhlo.tensor_v1<dense<[1, 8, 32]> : tensor<3xi64>>, start_indices = #vhlo.tensor_v1<dense<0> : tensor<3xi64>>, strides = #vhlo.tensor_v1<dense<1> : tensor<3xi64>>}> : (!vhlo.tensor_v1<2x8x32x!vhlo.bf16_v1>) -> !vhlo.tensor_v1<1x8x32x!vhlo.bf16_v1> loc(#loc146)
    %161 = "vhlo.select_v1"(%41, %158, %160) : (!vhlo.tensor_v1<1x8x32x!vhlo.bool_v1>, !vhlo.tensor_v1<1x8x32x!vhlo.bf16_v1>, !vhlo.tensor_v1<1x8x32x!vhlo.bf16_v1>) -> !vhlo.tensor_v1<1x8x32x!vhlo.bf16_v1> loc(#loc147)
    %162 = "vhlo.floor_v1"(%4) : (!vhlo.tensor_v1<2x!vhlo.f32_v1>) -> !vhlo.tensor_v1<2x!vhlo.f32_v1> loc(#loc148)
    %163 = "vhlo.convert_v1"(%162) : (!vhlo.tensor_v1<2x!vhlo.f32_v1>) -> !vhlo.tensor_v1<2x!vhlo.i64_v1> loc(#loc149)
    %164 = "vhlo.clamp_v1"(%5, %163, %5) : (!vhlo.tensor_v1<2x!vhlo.i64_v1>, !vhlo.tensor_v1<2x!vhlo.i64_v1>, !vhlo.tensor_v1<2x!vhlo.i64_v1>) -> !vhlo.tensor_v1<2x!vhlo.i64_v1> loc(#loc150)
    %165 = "vhlo.compare_v1"(%164, %5) <{compare_type = #vhlo<comparison_type_v1 NOTYPE>, comparison_direction = #vhlo<comparison_direction_v1 LT>}> : (!vhlo.tensor_v1<2x!vhlo.i64_v1>, !vhlo.tensor_v1<2x!vhlo.i64_v1>) -> !vhlo.tensor_v1<2x!vhlo.bool_v1> loc(#loc151)
    %166 = "vhlo.add_v1"(%164, %3) : (!vhlo.tensor_v1<2x!vhlo.i64_v1>, !vhlo.tensor_v1<2x!vhlo.i64_v1>) -> !vhlo.tensor_v1<2x!vhlo.i64_v1> loc(#loc152)
    %167 = "vhlo.select_v1"(%165, %166, %164) : (!vhlo.tensor_v1<2x!vhlo.bool_v1>, !vhlo.tensor_v1<2x!vhlo.i64_v1>, !vhlo.tensor_v1<2x!vhlo.i64_v1>) -> !vhlo.tensor_v1<2x!vhlo.i64_v1> loc(#loc153)
    %168 = "vhlo.reshape_v1"(%167) : (!vhlo.tensor_v1<2x!vhlo.i64_v1>) -> !vhlo.tensor_v1<2x1x!vhlo.i64_v1> loc(#loc154)
    %169 = "vhlo.gather_v2"(%161, %168) <{collapsed_slice_dims = #vhlo.tensor_v1<dense<0> : tensor<1xi64>>, index_vector_dim = #vhlo.integer_v1<1 : i64>, indices_are_sorted = #vhlo.bool_v1<false>, offset_dims = #vhlo.tensor_v1<dense<[1, 2]> : tensor<2xi64>>, operand_batching_dims = #vhlo.tensor_v1<dense<> : tensor<0xi64>>, slice_sizes = #vhlo.tensor_v1<dense<[1, 8, 32]> : tensor<3xi64>>, start_index_map = #vhlo.tensor_v1<dense<0> : tensor<1xi64>>, start_indices_batching_dims = #vhlo.tensor_v1<dense<> : tensor<0xi64>>}> : (!vhlo.tensor_v1<1x8x32x!vhlo.bf16_v1>, !vhlo.tensor_v1<2x1x!vhlo.i64_v1>) -> !vhlo.tensor_v1<2x8x32x!vhlo.bf16_v1> loc(#loc155)
    %170 = "vhlo.select_v1"(%36, %26, %169) : (!vhlo.tensor_v1<2x8x32x!vhlo.bool_v1>, !vhlo.tensor_v1<2x8x32x!vhlo.bf16_v1>, !vhlo.tensor_v1<2x8x32x!vhlo.bf16_v1>) -> !vhlo.tensor_v1<2x8x32x!vhlo.bf16_v1> loc(#loc156)
    %171 = "vhlo.select_v1"(%33, %170, %159) : (!vhlo.tensor_v1<2x8x32x!vhlo.bool_v1>, !vhlo.tensor_v1<2x8x32x!vhlo.bf16_v1>, !vhlo.tensor_v1<2x8x32x!vhlo.bf16_v1>) -> !vhlo.tensor_v1<2x8x32x!vhlo.bf16_v1> loc(#loc157)
    %172 = "vhlo.broadcast_in_dim_v1"(%31) <{broadcast_dimensions = #vhlo.tensor_v1<dense<0> : tensor<1xi64>>}> : (!vhlo.tensor_v1<2x!vhlo.bool_v1>) -> !vhlo.tensor_v1<2x8x64x!vhlo.bool_v1> loc(#loc158)
    %173 = "vhlo.broadcast_in_dim_v1"(%35) <{broadcast_dimensions = #vhlo.tensor_v1<dense<0> : tensor<1xi64>>}> : (!vhlo.tensor_v1<2x!vhlo.bool_v1>) -> !vhlo.tensor_v1<2x8x64x!vhlo.bool_v1> loc(#loc159)
    %174 = "vhlo.and_v1"(%37, %1) : (!vhlo.tensor_v1<8x!vhlo.bool_v1>, !vhlo.tensor_v1<8x!vhlo.bool_v1>) -> !vhlo.tensor_v1<8x!vhlo.bool_v1> loc(#loc160)
    %175 = "vhlo.reshape_v1"(%174) : (!vhlo.tensor_v1<8x!vhlo.bool_v1>) -> !vhlo.tensor_v1<1x8x1x!vhlo.bool_v1> loc(#loc161)
    %176 = "vhlo.reshape_v1"(%174) : (!vhlo.tensor_v1<8x!vhlo.bool_v1>) -> !vhlo.tensor_v1<1x8x!vhlo.bool_v1> loc(#loc162)
    %177 = "vhlo.broadcast_in_dim_v1"(%176) <{broadcast_dimensions = #vhlo.tensor_v1<dense<[0, 1]> : tensor<2xi64>>}> : (!vhlo.tensor_v1<1x8x!vhlo.bool_v1>) -> !vhlo.tensor_v1<1x8x64x!vhlo.bool_v1> loc(#loc163)
    %178 = "vhlo.not_v1"(%175) : (!vhlo.tensor_v1<1x8x1x!vhlo.bool_v1>) -> !vhlo.tensor_v1<1x8x1x!vhlo.bool_v1> loc(#loc164)
    %179 = "vhlo.reshape_v1"(%178) : (!vhlo.tensor_v1<1x8x1x!vhlo.bool_v1>) -> !vhlo.tensor_v1<1x8x!vhlo.bool_v1> loc(#loc165)
    %180 = "vhlo.broadcast_in_dim_v1"(%179) <{broadcast_dimensions = #vhlo.tensor_v1<dense<[0, 1]> : tensor<2xi64>>}> : (!vhlo.tensor_v1<1x8x!vhlo.bool_v1>) -> !vhlo.tensor_v1<1x8x64x!vhlo.bool_v1> loc(#loc166)
    %181 = "vhlo.clamp_v1"(%19, %151, %17) : (!vhlo.tensor_v1<8x!vhlo.i64_v1>, !vhlo.tensor_v1<8x!vhlo.i64_v1>, !vhlo.tensor_v1<8x!vhlo.i64_v1>) -> !vhlo.tensor_v1<8x!vhlo.i64_v1> loc(#loc167)
    %182 = "vhlo.compare_v1"(%181, %19) <{compare_type = #vhlo<comparison_type_v1 NOTYPE>, comparison_direction = #vhlo<comparison_direction_v1 LT>}> : (!vhlo.tensor_v1<8x!vhlo.i64_v1>, !vhlo.tensor_v1<8x!vhlo.i64_v1>) -> !vhlo.tensor_v1<8x!vhlo.bool_v1> loc(#loc168)
    %183 = "vhlo.add_v1"(%181, %16) : (!vhlo.tensor_v1<8x!vhlo.i64_v1>, !vhlo.tensor_v1<8x!vhlo.i64_v1>) -> !vhlo.tensor_v1<8x!vhlo.i64_v1> loc(#loc169)
    %184 = "vhlo.select_v1"(%182, %183, %181) : (!vhlo.tensor_v1<8x!vhlo.bool_v1>, !vhlo.tensor_v1<8x!vhlo.i64_v1>, !vhlo.tensor_v1<8x!vhlo.i64_v1>) -> !vhlo.tensor_v1<8x!vhlo.i64_v1> loc(#loc170)
    %185 = "vhlo.reshape_v1"(%184) : (!vhlo.tensor_v1<8x!vhlo.i64_v1>) -> !vhlo.tensor_v1<8x1x!vhlo.i64_v1> loc(#loc171)
    %186 = "vhlo.gather_v2"(%65, %185) <{collapsed_slice_dims = #vhlo.tensor_v1<dense<1> : tensor<1xi64>>, index_vector_dim = #vhlo.integer_v1<1 : i64>, indices_are_sorted = #vhlo.bool_v1<false>, offset_dims = #vhlo.tensor_v1<dense<[0, 2]> : tensor<2xi64>>, operand_batching_dims = #vhlo.tensor_v1<dense<> : tensor<0xi64>>, slice_sizes = #vhlo.tensor_v1<dense<[1, 1, 64]> : tensor<3xi64>>, start_index_map = #vhlo.tensor_v1<dense<1> : tensor<1xi64>>, start_indices_batching_dims = #vhlo.tensor_v1<dense<> : tensor<0xi64>>}> : (!vhlo.tensor_v1<1x4x64x!vhlo.f32_v1>, !vhlo.tensor_v1<8x1x!vhlo.i64_v1>) -> !vhlo.tensor_v1<1x8x64x!vhlo.f32_v1> loc(#loc172)
    %187 = "vhlo.select_v1"(%180, %0, %186) : (!vhlo.tensor_v1<1x8x64x!vhlo.bool_v1>, !vhlo.tensor_v1<1x8x64x!vhlo.f32_v1>, !vhlo.tensor_v1<1x8x64x!vhlo.f32_v1>) -> !vhlo.tensor_v1<1x8x64x!vhlo.f32_v1> loc(#loc173)
    %188 = "vhlo.custom_call_v1"(%arg8) <{api_version = #vhlo<api_version_v1 API_VERSION_UNSPECIFIED>, backend_config = #vhlo.string_v1<"">, call_target_name = #vhlo.string_v1<"tt.mark_argument">, called_computations = #vhlo.array_v1<[]>, has_side_effect = #vhlo.bool_v1<false>, operand_layouts = #vhlo.array_v1<[]>, output_operand_aliases = #vhlo.array_v1<[]>, result_layouts = #vhlo.array_v1<[]>}> {mhlo.frontend_attributes = #vhlo.dict_v1<{#vhlo.string_v1<"ttcore.argument_type"> = #vhlo.string_v1<"input">, #vhlo.string_v1<"ttir.name"> = #vhlo.string_v1<"compressor.kv_state">}>} : (!vhlo.tensor_v1<2x8x64x!vhlo.f32_v1>) -> !vhlo.tensor_v1<2x8x64x!vhlo.f32_v1> loc(#loc174)
    %189 = "vhlo.slice_v1"(%188) <{limit_indices = #vhlo.tensor_v1<dense<[1, 8, 64]> : tensor<3xi64>>, start_indices = #vhlo.tensor_v1<dense<0> : tensor<3xi64>>, strides = #vhlo.tensor_v1<dense<1> : tensor<3xi64>>}> : (!vhlo.tensor_v1<2x8x64x!vhlo.f32_v1>) -> !vhlo.tensor_v1<1x8x64x!vhlo.f32_v1> loc(#loc175)
    %190 = "vhlo.select_v1"(%177, %187, %189) : (!vhlo.tensor_v1<1x8x64x!vhlo.bool_v1>, !vhlo.tensor_v1<1x8x64x!vhlo.f32_v1>, !vhlo.tensor_v1<1x8x64x!vhlo.f32_v1>) -> !vhlo.tensor_v1<1x8x64x!vhlo.f32_v1> loc(#loc176)
    %191 = "vhlo.gather_v2"(%190, %168) <{collapsed_slice_dims = #vhlo.tensor_v1<dense<0> : tensor<1xi64>>, index_vector_dim = #vhlo.integer_v1<1 : i64>, indices_are_sorted = #vhlo.bool_v1<false>, offset_dims = #vhlo.tensor_v1<dense<[1, 2]> : tensor<2xi64>>, operand_batching_dims = #vhlo.tensor_v1<dense<> : tensor<0xi64>>, slice_sizes = #vhlo.tensor_v1<dense<[1, 8, 64]> : tensor<3xi64>>, start_index_map = #vhlo.tensor_v1<dense<0> : tensor<1xi64>>, start_indices_batching_dims = #vhlo.tensor_v1<dense<> : tensor<0xi64>>}> : (!vhlo.tensor_v1<1x8x64x!vhlo.f32_v1>, !vhlo.tensor_v1<2x1x!vhlo.i64_v1>) -> !vhlo.tensor_v1<2x8x64x!vhlo.f32_v1> loc(#loc177)
    %192 = "vhlo.select_v1"(%173, %2, %191) : (!vhlo.tensor_v1<2x8x64x!vhlo.bool_v1>, !vhlo.tensor_v1<2x8x64x!vhlo.f32_v1>, !vhlo.tensor_v1<2x8x64x!vhlo.f32_v1>) -> !vhlo.tensor_v1<2x8x64x!vhlo.f32_v1> loc(#loc178)
    %193 = "vhlo.select_v1"(%172, %192, %188) : (!vhlo.tensor_v1<2x8x64x!vhlo.bool_v1>, !vhlo.tensor_v1<2x8x64x!vhlo.f32_v1>, !vhlo.tensor_v1<2x8x64x!vhlo.f32_v1>) -> !vhlo.tensor_v1<2x8x64x!vhlo.f32_v1> loc(#loc179)
    %194 = "vhlo.add_v1"(%83, %86) : (!vhlo.tensor_v1<1x4x64x!vhlo.f32_v1>, !vhlo.tensor_v1<1x4x64x!vhlo.f32_v1>) -> !vhlo.tensor_v1<1x4x64x!vhlo.f32_v1> loc(#loc180)
    %195 = "vhlo.gather_v2"(%194, %185) <{collapsed_slice_dims = #vhlo.tensor_v1<dense<1> : tensor<1xi64>>, index_vector_dim = #vhlo.integer_v1<1 : i64>, indices_are_sorted = #vhlo.bool_v1<false>, offset_dims = #vhlo.tensor_v1<dense<[0, 2]> : tensor<2xi64>>, operand_batching_dims = #vhlo.tensor_v1<dense<> : tensor<0xi64>>, slice_sizes = #vhlo.tensor_v1<dense<[1, 1, 64]> : tensor<3xi64>>, start_index_map = #vhlo.tensor_v1<dense<1> : tensor<1xi64>>, start_indices_batching_dims = #vhlo.tensor_v1<dense<> : tensor<0xi64>>}> : (!vhlo.tensor_v1<1x4x64x!vhlo.f32_v1>, !vhlo.tensor_v1<8x1x!vhlo.i64_v1>) -> !vhlo.tensor_v1<1x8x64x!vhlo.f32_v1> loc(#loc181)
    %196 = "vhlo.select_v1"(%180, %0, %195) : (!vhlo.tensor_v1<1x8x64x!vhlo.bool_v1>, !vhlo.tensor_v1<1x8x64x!vhlo.f32_v1>, !vhlo.tensor_v1<1x8x64x!vhlo.f32_v1>) -> !vhlo.tensor_v1<1x8x64x!vhlo.f32_v1> loc(#loc182)
    %197 = "vhlo.custom_call_v1"(%arg9) <{api_version = #vhlo<api_version_v1 API_VERSION_UNSPECIFIED>, backend_config = #vhlo.string_v1<"">, call_target_name = #vhlo.string_v1<"tt.mark_argument">, called_computations = #vhlo.array_v1<[]>, has_side_effect = #vhlo.bool_v1<false>, operand_layouts = #vhlo.array_v1<[]>, output_operand_aliases = #vhlo.array_v1<[]>, result_layouts = #vhlo.array_v1<[]>}> {mhlo.frontend_attributes = #vhlo.dict_v1<{#vhlo.string_v1<"ttcore.argument_type"> = #vhlo.string_v1<"input">, #vhlo.string_v1<"ttir.name"> = #vhlo.string_v1<"compressor.score_state">}>} : (!vhlo.tensor_v1<2x8x64x!vhlo.f32_v1>) -> !vhlo.tensor_v1<2x8x64x!vhlo.f32_v1> loc(#loc183)
    %198 = "vhlo.slice_v1"(%197) <{limit_indices = #vhlo.tensor_v1<dense<[1, 8, 64]> : tensor<3xi64>>, start_indices = #vhlo.tensor_v1<dense<0> : tensor<3xi64>>, strides = #vhlo.tensor_v1<dense<1> : tensor<3xi64>>}> : (!vhlo.tensor_v1<2x8x64x!vhlo.f32_v1>) -> !vhlo.tensor_v1<1x8x64x!vhlo.f32_v1> loc(#loc184)
    %199 = "vhlo.select_v1"(%177, %196, %198) : (!vhlo.tensor_v1<1x8x64x!vhlo.bool_v1>, !vhlo.tensor_v1<1x8x64x!vhlo.f32_v1>, !vhlo.tensor_v1<1x8x64x!vhlo.f32_v1>) -> !vhlo.tensor_v1<1x8x64x!vhlo.f32_v1> loc(#loc185)
    %200 = "vhlo.gather_v2"(%199, %168) <{collapsed_slice_dims = #vhlo.tensor_v1<dense<0> : tensor<1xi64>>, index_vector_dim = #vhlo.integer_v1<1 : i64>, indices_are_sorted = #vhlo.bool_v1<false>, offset_dims = #vhlo.tensor_v1<dense<[1, 2]> : tensor<2xi64>>, operand_batching_dims = #vhlo.tensor_v1<dense<> : tensor<0xi64>>, slice_sizes = #vhlo.tensor_v1<dense<[1, 8, 64]> : tensor<3xi64>>, start_index_map = #vhlo.tensor_v1<dense<0> : tensor<1xi64>>, start_indices_batching_dims = #vhlo.tensor_v1<dense<> : tensor<0xi64>>}> : (!vhlo.tensor_v1<1x8x64x!vhlo.f32_v1>, !vhlo.tensor_v1<2x1x!vhlo.i64_v1>) -> !vhlo.tensor_v1<2x8x64x!vhlo.f32_v1> loc(#loc186)
    %201 = "vhlo.select_v1"(%173, %2, %200) : (!vhlo.tensor_v1<2x8x64x!vhlo.bool_v1>, !vhlo.tensor_v1<2x8x64x!vhlo.f32_v1>, !vhlo.tensor_v1<2x8x64x!vhlo.f32_v1>) -> !vhlo.tensor_v1<2x8x64x!vhlo.f32_v1> loc(#loc187)
    %202 = "vhlo.select_v1"(%172, %201, %197) : (!vhlo.tensor_v1<2x8x64x!vhlo.bool_v1>, !vhlo.tensor_v1<2x8x64x!vhlo.f32_v1>, !vhlo.tensor_v1<2x8x64x!vhlo.f32_v1>) -> !vhlo.tensor_v1<2x8x64x!vhlo.f32_v1> loc(#loc188)
    "vhlo.return_v1"(%171, %193, %202) : (!vhlo.tensor_v1<2x8x32x!vhlo.bf16_v1>, !vhlo.tensor_v1<2x8x64x!vhlo.f32_v1>, !vhlo.tensor_v1<2x8x64x!vhlo.f32_v1>) -> () loc(#loc)
  } {arg_attrs = #vhlo.array_v1<[]>, res_attrs = #vhlo.array_v1<[]>, sym_visibility = #vhlo.string_v1<"">} loc(#loc)
} loc(#loc)
#loc = loc(unknown)
#loc11 = loc("broadcast.472")
#loc12 = loc("and.475")
#loc13 = loc("reshape.476")
#loc14 = loc("broadcast.485")
#loc15 = loc("not.477")
#loc16 = loc("reshape.479")
#loc17 = loc("broadcast.480")
#loc18 = loc("broadcast.442")
#loc19 = loc("and.445")
#loc20 = loc("reshape.446")
#loc21 = loc("reshape.454")
#loc22 = loc("broadcast.455")
#loc23 = loc("not.447")
#loc24 = loc("reshape.449")
#loc25 = loc("broadcast.450")
#loc26 = loc("broadcast.417")
#loc27 = loc("and.420")
#loc28 = loc("reshape.421")
#loc29 = loc("reshape.333")
#loc30 = loc("custom-call.334")
#loc31 = loc("and.262")
#loc32 = loc("reshape.263")
#loc33 = loc("reshape.271")
#loc34 = loc("broadcast.272")
#loc35 = loc("not.264")
#loc36 = loc("reshape.266")
#loc37 = loc("broadcast.267")
#loc38 = loc("custom-call.116")
#loc39 = loc("convert.117")
#loc40 = loc("reshape.238")
#loc41 = loc("reshape.234")
#loc42 = loc("custom-call.235")
#loc43 = loc("reshape.236")
#loc44 = loc("transpose.237")
#loc45 = loc("dot.239")
#loc46 = loc("reshape.240")
#loc47 = loc("reshape.241")
#loc48 = loc("slice.242")
#loc49 = loc("floor.216")
#loc50 = loc("convert.217")
#loc51 = loc("clamp.220")
#loc52 = loc("compare.229")
#loc53 = loc("add.226")
#loc54 = loc("select.230")
#loc55 = loc("reshape.231")
#loc56 = loc("gather.245")
#loc57 = loc("select.268")
#loc58 = loc("select.273")
#loc59 = loc("reshape.111")
#loc60 = loc("custom-call.112")
#loc61 = loc("reshape.113")
#loc62 = loc("transpose.114")
#loc63 = loc("dot.119")
#loc64 = loc("reshape.120")
#loc65 = loc("reshape.121")
#loc66 = loc("reshape.107")
#loc67 = loc("custom-call.108")
#loc68 = loc("broadcast.124")
#loc69 = loc("add.125")
#loc70 = loc("slice.126")
#loc71 = loc("gather.129")
#loc72 = loc("select.153")
#loc73 = loc("select.158")
#loc75 = loc("maximum.184")
#loc76 = loc("broadcast.186")
#loc77 = loc("subtract.187")
#loc78 = loc("exponential.188")
#loc80 = loc("add.193")
#loc81 = loc("broadcast.195")
#loc82 = loc("divide.196")
#loc83 = loc("multiply.295")
#loc85 = loc("add.301")
#loc86 = loc("convert.303")
#loc87 = loc("convert.304")
#loc88 = loc("power.306")
#loc90 = loc("add.312")
#loc91 = loc("multiply.322")
#loc92 = loc("reshape.323")
#loc93 = loc("add.327")
#loc94 = loc("rsqrt.328")
#loc95 = loc("reshape.329")
#loc96 = loc("broadcast.330")
#loc97 = loc("multiply.331")
#loc98 = loc("multiply.337")
#loc99 = loc("convert.338")
#loc100 = loc("slice.376")
#loc101 = loc("convert.377")
#loc102 = loc("reshape.378")
#loc103 = loc("slice.384")
#loc104 = loc("reshape.385")
#loc105 = loc("custom-call.371")
#loc106 = loc("slice.372")
#loc107 = loc("reshape.373")
#loc108 = loc("slice.374")
#loc109 = loc("reshape.375")
#loc110 = loc("multiply.393")
#loc111 = loc("slice.379")
#loc112 = loc("reshape.380")
#loc113 = loc("slice.382")
#loc114 = loc("reshape.383")
#loc115 = loc("multiply.392")
#loc116 = loc("subtract.396")
#loc117 = loc("reshape.397")
#loc118 = loc("multiply.386")
#loc119 = loc("multiply.381")
#loc120 = loc("add.389")
#loc121 = loc("reshape.390")
#loc122 = loc("concatenate.398")
#loc123 = loc("reshape.399")
#loc124 = loc("convert.400")
#loc125 = loc("floor.352")
#loc126 = loc("convert.353")
#loc127 = loc("clamp.356")
#loc128 = loc("compare.365")
#loc129 = loc("add.362")
#loc130 = loc("select.366")
#loc131 = loc("reshape.367")
#loc132 = loc("gather.403")
#loc133 = loc("select.424")
#loc134 = loc("not.422")
#loc135 = loc("select.425")
#loc136 = loc("floor.49")
#loc137 = loc("convert.50")
#loc138 = loc("clamp.53")
#loc139 = loc("compare.62")
#loc140 = loc("add.59")
#loc141 = loc("select.63")
#loc142 = loc("reshape.64")
#loc143 = loc("gather.428")
#loc144 = loc("select.451")
#loc145 = loc("custom-call.2")
#loc146 = loc("slice.34")
#loc147 = loc("select.456")
#loc148 = loc("floor.17")
#loc149 = loc("convert.18")
#loc150 = loc("clamp.21")
#loc151 = loc("compare.30")
#loc152 = loc("add.27")
#loc153 = loc("select.31")
#loc154 = loc("reshape.32")
#loc155 = loc("gather.458")
#loc156 = loc("select.481")
#loc157 = loc("select.486")
#loc158 = loc("broadcast.611")
#loc159 = loc("broadcast.606")
#loc160 = loc("and.571")
#loc161 = loc("reshape.572")
#loc162 = loc("reshape.580")
#loc163 = loc("broadcast.581")
#loc164 = loc("not.573")
#loc165 = loc("reshape.575")
#loc166 = loc("broadcast.576")
#loc167 = loc("clamp.539")
#loc168 = loc("compare.548")
#loc169 = loc("add.545")
#loc170 = loc("select.549")
#loc171 = loc("reshape.550")
#loc172 = loc("gather.554")
#loc173 = loc("select.577")
#loc174 = loc("custom-call.488")
#loc175 = loc("slice.520")
#loc176 = loc("select.582")
#loc177 = loc("gather.584")
#loc178 = loc("select.607")
#loc179 = loc("select.612")
#loc180 = loc("add.682")
#loc181 = loc("gather.685")
#loc182 = loc("select.708")
#loc183 = loc("custom-call.614")
#loc184 = loc("slice.646")
#loc185 = loc("select.713")
#loc186 = loc("gather.715")
#loc187 = loc("select.738")
#loc188 = loc("select.743")
#loc189 = loc(fused[#loc133, #loc134])
------------------ END OF MLIR MODULE ------------------
2026-04-25 16:07:38.225 (   3.830s) [        1B754740]      module_builder.cc:1220     1| MLIR Module shlo:
#loc1 = loc("p0.1")
#loc2 = loc("p1.106")
#loc3 = loc("p2.110")
#loc4 = loc("p3.115")
#loc5 = loc("p4.140")
#loc6 = loc("p5.233")
#loc7 = loc("p6.332")
#loc8 = loc("p7.370")
#loc9 = loc("p8.487")
#loc10 = loc("p9.613")
module @SyncTensorsGraph.745 attributes {mhlo.cross_program_prefetches = [], mhlo.input_output_alias = [], mhlo.is_dynamic = false, mhlo.use_auto_spmd_partitioning = false} {
  func.func @main(%arg0: tensor<2x8x32xbf16> loc("p0.1"), %arg1: tensor<4x64xf32> loc("p1.106"), %arg2: tensor<64x128xf32> loc("p2.110"), %arg3: tensor<1x4x128xbf16> loc("p3.115"), %arg4: tensor<i1> loc("p4.140"), %arg5: tensor<64x128xf32> loc("p5.233"), %arg6: tensor<32xf32> loc("p6.332"), %arg7: tensor<32x8x2xf32> loc("p7.370"), %arg8: tensor<2x8x64xf32> loc("p8.487"), %arg9: tensor<2x8x64xf32> loc("p9.613")) -> (tensor<2x8x32xbf16>, tensor<2x8x64xf32>, tensor<2x8x64xf32>) {
    %cst = stablehlo.constant dense<0.000000e+00> : tensor<1x8x64xf32> loc(#loc)
    %c = stablehlo.constant dense<[true, true, true, true, false, false, false, false]> : tensor<8xi1> loc(#loc)
    %cst_0 = stablehlo.constant dense<0.000000e+00> : tensor<2x8x64xf32> loc(#loc)
    %c_1 = stablehlo.constant dense<1> : tensor<2xi64> loc(#loc)
    %cst_2 = stablehlo.constant dense<[0.000000e+00, 1.000000e+00]> : tensor<2xf32> loc(#loc)
    %c_3 = stablehlo.constant dense<0> : tensor<2xi64> loc(#loc)
    %c_4 = stablehlo.constant dense<1> : tensor<8xi64> loc(#loc)
    %cst_5 = stablehlo.constant dense<[0.000000e+00, 1.000000e+00, 2.000000e+00, 3.000000e+00, 4.000000e+00, 5.000000e+00, 6.000000e+00, 7.000000e+00]> : tensor<8xf32> loc(#loc)
    %c_6 = stablehlo.constant dense<16> : tensor<32xi64> loc(#loc)
    %c_7 = stablehlo.constant dense<15> : tensor<32xi64> loc(#loc)
    %cst_8 = stablehlo.constant dense<[… > : tensor<32xf32> loc(#loc)
    %c_9 = stablehlo.constant dense<0> : tensor<32xi64> loc(#loc)
    %cst_10 = stablehlo.constant dense<9.99999997E-7> : tensor<1x1x1xf32> loc(#loc)
    %cst_11 = stablehlo.constant dense<3.125000e-02> : tensor<1x1xf32> loc(#loc)
    %cst_12 = stablehlo.constant dense<2.000000e+00> : tensor<1x1x32xf32> loc(#loc)
    %cst_13 = stablehlo.constant dense<0xFF800000> : tensor<1x1x8x32xf32> loc(#loc)
    %c_14 = stablehlo.constant dense<4> : tensor<8xi64> loc(#loc)
    %c_15 = stablehlo.constant dense<3> : tensor<8xi64> loc(#loc)
    %cst_16 = stablehlo.constant dense<[-4.000000e+00, -3.000000e+00, -2.000000e+00, -1.000000e+00, 0.000000e+00, 1.000000e+00, 2.000000e+00, 3.000000e+00]> : tensor<8xf32> loc(#loc)
    %c_17 = stablehlo.constant dense<0> : tensor<8xi64> loc(#loc)
    %cst_18 = stablehlo.constant dense<0.000000e+00> : tensor<1x1x8x32xf32> loc(#loc)
    %c_19 = stablehlo.constant dense<[false, false, false, false, true, true, true, true]> : tensor<8xi1> loc(#loc)
    %cst_20 = stablehlo.constant dense<0.000000e+00> : tensor<1x1x32xbf16> loc(#loc)
    %c_21 = stablehlo.constant dense<[false, false, false, false, false, false, false, false, false, false, false, false, false, false, false, false, true, true, true, true, true, true, true, true, true, true, true, true, true, true, true, true]> : tensor<32xi1> loc(#loc)
    %cst_22 = stablehlo.constant dense<0.000000e+00> : tensor<1x8x32xbf16> loc(#loc)
    %c_23 = stablehlo.constant dense<[true, false, false, false, false, false, false, false]> : tensor<8xi1> loc(#loc)
    %cst_24 = stablehlo.constant dense<0.000000e+00> : tensor<2x8x32xbf16> loc(#loc)
    %c_25 = stablehlo.constant dense<[true, false]> : tensor<2xi1> loc(#loc)
    %cst_26 = stablehlo.constant dense<0xFF800000> : tensor<f32> loc(#loc)
    %cst_27 = stablehlo.constant dense<0.000000e+00> : tensor<f32> loc(#loc)
    %0 = stablehlo.broadcast_in_dim %arg4, dims = [] : (tensor<i1>) -> tensor<2xi1> loc(#loc11)
    %1 = stablehlo.and %0, %c_25 : tensor<2xi1> loc(#loc12)
    %2 = stablehlo.reshape %1 : (tensor<2xi1>) -> tensor<2x1x1xi1> loc(#loc13)
    %3 = stablehlo.broadcast_in_dim %1, dims = [0] : (tensor<2xi1>) -> tensor<2x8x32xi1> loc(#loc14)
    %4 = stablehlo.not %2 : tensor<2x1x1xi1> loc(#loc15)
    %5 = stablehlo.reshape %4 : (tensor<2x1x1xi1>) -> tensor<2xi1> loc(#loc16)
    %6 = stablehlo.broadcast_in_dim %5, dims = [0] : (tensor<2xi1>) -> tensor<2x8x32xi1> loc(#loc17)
    %7 = stablehlo.broadcast_in_dim %arg4, dims = [] : (tensor<i1>) -> tensor<8xi1> loc(#loc18)
    %8 = stablehlo.and %7, %c_23 : tensor<8xi1> loc(#loc19)
    %9 = stablehlo.reshape %8 : (tensor<8xi1>) -> tensor<1x8x1xi1> loc(#loc20)
    %10 = stablehlo.reshape %8 : (tensor<8xi1>) -> tensor<1x8xi1> loc(#loc21)
    %11 = stablehlo.broadcast_in_dim %10, dims = [0, 1] : (tensor<1x8xi1>) -> tensor<1x8x32xi1> loc(#loc22)
    %12 = stablehlo.not %9 : tensor<1x8x1xi1> loc(#loc23)
    %13 = stablehlo.reshape %12 : (tensor<1x8x1xi1>) -> tensor<1x8xi1> loc(#loc24)
    %14 = stablehlo.broadcast_in_dim %13, dims = [0, 1] : (tensor<1x8xi1>) -> tensor<1x8x32xi1> loc(#loc25)
    %15 = stablehlo.broadcast_in_dim %arg4, dims = [] : (tensor<i1>) -> tensor<32xi1> loc(#loc26)
    %16 = stablehlo.and %15, %c_21 : tensor<32xi1> loc(#loc27)
    %17 = stablehlo.reshape %16 : (tensor<32xi1>) -> tensor<1x1x32xi1> loc(#loc28)
    %18 = stablehlo.reshape %arg6 : (tensor<32xf32>) -> tensor<1x1x32xf32> loc(#loc29)
    %19 = stablehlo.custom_call @tt.mark_argument(%18) {api_version = 0 : i32, mhlo.frontend_attributes = {ttcore.argument_type = "parameter", ttir.name = "compressor.norm.weight"}} : (tensor<1x1x32xf32>) -> tensor<1x1x32xf32> loc(#loc30)
    %20 = stablehlo.and %7, %c_19 : tensor<8xi1> loc(#loc31)
    %21 = stablehlo.reshape %20 : (tensor<8xi1>) -> tensor<1x1x8x1xi1> loc(#loc32)
    %22 = stablehlo.reshape %20 : (tensor<8xi1>) -> tensor<1x1x8xi1> loc(#loc33)
    %23 = stablehlo.broadcast_in_dim %22, dims = [0, 1, 2] : (tensor<1x1x8xi1>) -> tensor<1x1x8x32xi1> loc(#loc34)
    %24 = stablehlo.not %21 : tensor<1x1x8x1xi1> loc(#loc35)
    %25 = stablehlo.reshape %24 : (tensor<1x1x8x1xi1>) -> tensor<1x1x8xi1> loc(#loc36)
    %26 = stablehlo.broadcast_in_dim %25, dims = [0, 1, 2] : (tensor<1x1x8xi1>) -> tensor<1x1x8x32xi1> loc(#loc37)
    %27 = stablehlo.custom_call @tt.mark_argument(%arg3) {api_version = 0 : i32, mhlo.frontend_attributes = {ttcore.argument_type = "input", ttir.name = "args_0"}} : (tensor<1x4x128xbf16>) -> tensor<1x4x128xbf16> loc(#loc38)
    %28 = stablehlo.convert %27 : (tensor<1x4x128xbf16>) -> tensor<1x4x128xf32> loc(#loc39)
    %29 = stablehlo.reshape %28 : (tensor<1x4x128xf32>) -> tensor<4x128xf32> loc(#loc40)
    %30 = stablehlo.reshape %arg5 : (tensor<64x128xf32>) -> tensor<1x64x128xf32> loc(#loc41)
    %31 = stablehlo.custom_call @tt.mark_argument(%30) {api_version = 0 : i32, mhlo.frontend_attributes = {ttcore.argument_type = "parameter", ttir.name = "compressor.wkv.weight"}} : (tensor<1x64x128xf32>) -> tensor<1x64x128xf32> loc(#loc42)
    %32 = stablehlo.reshape %31 : (tensor<1x64x128xf32>) -> tensor<64x128xf32> loc(#loc43)
    %33 = stablehlo.transpose %32, dims = [1, 0] {result_layout = dense<[0, 1]> : tensor<2xindex>, xla_shape = "f32[128,64]{0,1}"} : (tensor<64x128xf32>) -> tensor<128x64xf32> loc(#loc44)
    %34 = stablehlo.dot_general %29, %33, contracting_dims = [1] x [0] : (tensor<4x128xf32>, tensor<128x64xf32>) -> tensor<4x64xf32> loc(#loc45)
    %35 = stablehlo.reshape %34 : (tensor<4x64xf32>) -> tensor<1x4x64xf32> loc(#loc46)
    %36 = stablehlo.reshape %34 : (tensor<4x64xf32>) -> tensor<1x1x4x64xf32> loc(#loc47)
    %37 = stablehlo.slice %36 [0:1, 0:1, 0:4, 32:64] : (tensor<1x1x4x64xf32>) -> tensor<1x1x4x32xf32> loc(#loc48)
    %38 = stablehlo.floor %cst_16 : tensor<8xf32> loc(#loc49)
    %39 = stablehlo.convert %38 : (tensor<8xf32>) -> tensor<8xi64> loc(#loc50)
    %40 = stablehlo.clamp %c_17, %39, %c_15 : tensor<8xi64> loc(#loc51)
    %41 = stablehlo.compare  LT, %40, %c_17 : (tensor<8xi64>, tensor<8xi64>) -> tensor<8xi1> loc(#loc52)
    %42 = stablehlo.add %40, %c_14 : tensor<8xi64> loc(#loc53)
    %43 = stablehlo.select %41, %42, %40 : tensor<8xi1>, tensor<8xi64> loc(#loc54)
    %44 = stablehlo.reshape %43 : (tensor<8xi64>) -> tensor<8x1xi64> loc(#loc55)
    %45 = "stablehlo.gather"(%37, %44) <{dimension_numbers = #stablehlo.gather<offset_dims = [0, 1, 3], collapsed_slice_dims = [2], start_index_map = [2], index_vector_dim = 1>, slice_sizes = array<i64: 1, 1, 1, 32>}> : (tensor<1x1x4x32xf32>, tensor<8x1xi64>) -> tensor<1x1x8x32xf32> loc(#loc56)
    %46 = stablehlo.select %26, %cst_18, %45 : tensor<1x1x8x32xi1>, tensor<1x1x8x32xf32> loc(#loc57)
    %47 = stablehlo.select %23, %46, %cst_18 : tensor<1x1x8x32xi1>, tensor<1x1x8x32xf32> loc(#loc58)
    %48 = stablehlo.reshape %arg2 : (tensor<64x128xf32>) -> tensor<1x64x128xf32> loc(#loc59)
    %49 = stablehlo.custom_call @tt.mark_argument(%48) {api_version = 0 : i32, mhlo.frontend_attributes = {ttcore.argument_type = "parameter", ttir.name = "compressor.wgate.weight"}} : (tensor<1x64x128xf32>) -> tensor<1x64x128xf32> loc(#loc60)
    %50 = stablehlo.reshape %49 : (tensor<1x64x128xf32>) -> tensor<64x128xf32> loc(#loc61)
    %51 = stablehlo.transpose %50, dims = [1, 0] {result_layout = dense<[0, 1]> : tensor<2xindex>, xla_shape = "f32[128,64]{0,1}"} : (tensor<64x128xf32>) -> tensor<128x64xf32> loc(#loc62)
    %52 = stablehlo.dot_general %29, %51, contracting_dims = [1] x [0] : (tensor<4x128xf32>, tensor<128x64xf32>) -> tensor<4x64xf32> loc(#loc63)
    %53 = stablehlo.reshape %52 : (tensor<4x64xf32>) -> tensor<1x4x64xf32> loc(#loc64)
    %54 = stablehlo.reshape %52 : (tensor<4x64xf32>) -> tensor<1x1x4x64xf32> loc(#loc65)
    %55 = stablehlo.reshape %arg1 : (tensor<4x64xf32>) -> tensor<1x4x64xf32> loc(#loc66)
    %56 = stablehlo.custom_call @tt.mark_argument(%55) {api_version = 0 : i32, mhlo.frontend_attributes = {ttcore.argument_type = "parameter", ttir.name = "compressor.ape"}} : (tensor<1x4x64xf32>) -> tensor<1x4x64xf32> loc(#loc67)
    %57 = stablehlo.reshape %56 : (tensor<1x4x64xf32>) -> tensor<1x1x4x64xf32> loc(#loc68)
    %58 = stablehlo.add %54, %57 : tensor<1x1x4x64xf32> loc(#loc69)
    %59 = stablehlo.slice %58 [0:1, 0:1, 0:4, 32:64] : (tensor<1x1x4x64xf32>) -> tensor<1x1x4x32xf32> loc(#loc70)
    %60 = "stablehlo.gather"(%59, %44) <{dimension_numbers = #stablehlo.gather<offset_dims = [0, 1, 3], collapsed_slice_dims = [2], start_index_map = [2], index_vector_dim = 1>, slice_sizes = array<i64: 1, 1, 1, 32>}> : (tensor<1x1x4x32xf32>, tensor<8x1xi64>) -> tensor<1x1x8x32xf32> loc(#loc71)
    %61 = stablehlo.select %26, %cst_18, %60 : tensor<1x1x8x32xi1>, tensor<1x1x8x32xf32> loc(#loc72)
    %62 = stablehlo.select %23, %61, %cst_13 : tensor<1x1x8x32xi1>, tensor<1x1x8x32xf32> loc(#loc73)
    %63 = stablehlo.reduce(%62 init: %cst_26) applies stablehlo.maximum across dimensions = [2] : (tensor<1x1x8x32xf32>, tensor<f32>) -> tensor<1x1x32xf32> loc(#loc74)
    %64 = stablehlo.broadcast_in_dim %63, dims = [0, 1, 3] : (tensor<1x1x32xf32>) -> tensor<1x1x8x32xf32> loc(#loc75)
    %65 = stablehlo.subtract %62, %64 : tensor<1x1x8x32xf32> loc(#loc76)
    %66 = stablehlo.exponential %65 : tensor<1x1x8x32xf32> loc(#loc77)
    %67 = stablehlo.reduce(%66 init: %cst_27) applies stablehlo.add across dimensions = [2] : (tensor<1x1x8x32xf32>, tensor<f32>) -> tensor<1x1x32xf32> loc(#loc78)
    %68 = stablehlo.broadcast_in_dim %67, dims = [0, 1, 3] : (tensor<1x1x32xf32>) -> tensor<1x1x8x32xf32> loc(#loc79)
    %69 = stablehlo.divide %66, %68 : tensor<1x1x8x32xf32> loc(#loc80)
    %70 = stablehlo.multiply %47, %69 : tensor<1x1x8x32xf32> loc(#loc81)
    %71 = stablehlo.reduce(%70 init: %cst_27) applies stablehlo.add across dimensions = [2] : (tensor<1x1x8x32xf32>, tensor<f32>) -> tensor<1x1x32xf32> loc(#loc82)
    %72 = stablehlo.convert %71 : (tensor<1x1x32xf32>) -> tensor<1x1x32xbf16> loc(#loc83)
    %73 = stablehlo.convert %72 : (tensor<1x1x32xbf16>) -> tensor<1x1x32xf32> loc(#loc84)
    %74 = stablehlo.power %73, %cst_12 : tensor<1x1x32xf32> loc(#loc85)
    %75 = stablehlo.reduce(%74 init: %cst_27) applies stablehlo.add across dimensions = [2] : (tensor<1x1x32xf32>, tensor<f32>) -> tensor<1x1xf32> loc(#loc86)
    %76 = stablehlo.multiply %75, %cst_11 : tensor<1x1xf32> loc(#loc87)
    %77 = stablehlo.reshape %76 : (tensor<1x1xf32>) -> tensor<1x1x1xf32> loc(#loc88)
    %78 = stablehlo.add %77, %cst_10 : tensor<1x1x1xf32> loc(#loc89)
    %79 = stablehlo.rsqrt %78 : tensor<1x1x1xf32> loc(#loc90)
    %80 = stablehlo.reshape %79 : (tensor<1x1x1xf32>) -> tensor<1x1xf32> loc(#loc91)
    %81 = stablehlo.broadcast_in_dim %80, dims = [0, 1] : (tensor<1x1xf32>) -> tensor<1x1x32xf32> loc(#loc92)
    %82 = stablehlo.multiply %73, %81 : tensor<1x1x32xf32> loc(#loc93)
    %83 = stablehlo.multiply %19, %82 : tensor<1x1x32xf32> loc(#loc94)
    %84 = stablehlo.convert %83 : (tensor<1x1x32xf32>) -> tensor<1x1x32xbf16> loc(#loc95)
    %85 = stablehlo.slice %84 [0:1, 0:1, 16:32] : (tensor<1x1x32xbf16>) -> tensor<1x1x16xbf16> loc(#loc96)
    %86 = stablehlo.convert %85 : (tensor<1x1x16xbf16>) -> tensor<1x1x16xf32> loc(#loc97)
    %87 = stablehlo.reshape %86 : (tensor<1x1x16xf32>) -> tensor<1x1x8x2xf32> loc(#loc98)
    %88 = stablehlo.slice %87 [0:1, 0:1, 0:8, 0:1] : (tensor<1x1x8x2xf32>) -> tensor<1x1x8x1xf32> loc(#loc99)
    %89 = stablehlo.reshape %88 : (tensor<1x1x8x1xf32>) -> tensor<1x1x8xf32> loc(#loc100)
    %90 = stablehlo.custom_call @tt.mark_argument(%arg7) {api_version = 0 : i32, mhlo.frontend_attributes = {ttcore.argument_type = "constant", ttir.name = "compressor.freqs_cis"}} : (tensor<32x8x2xf32>) -> tensor<32x8x2xf32> loc(#loc101)
    %91 = stablehlo.slice %90 [0:4:4, 0:8, 0:2] : (tensor<32x8x2xf32>) -> tensor<1x8x2xf32> loc(#loc102)
    %92 = stablehlo.reshape %91 : (tensor<1x8x2xf32>) -> tensor<1x1x8x2xf32> loc(#loc103)
    %93 = stablehlo.slice %92 [0:1, 0:1, 0:8, 0:1] : (tensor<1x1x8x2xf32>) -> tensor<1x1x8x1xf32> loc(#loc104)
    %94 = stablehlo.reshape %93 : (tensor<1x1x8x1xf32>) -> tensor<1x1x8xf32> loc(#loc105)
    %95 = stablehlo.multiply %89, %94 : tensor<1x1x8xf32> loc(#loc106)
    %96 = stablehlo.slice %87 [0:1, 0:1, 0:8, 1:2] : (tensor<1x1x8x2xf32>) -> tensor<1x1x8x1xf32> loc(#loc107)
    %97 = stablehlo.reshape %96 : (tensor<1x1x8x1xf32>) -> tensor<1x1x8xf32> loc(#loc108)
    %98 = stablehlo.slice %92 [0:1, 0:1, 0:8, 1:2] : (tensor<1x1x8x2xf32>) -> tensor<1x1x8x1xf32> loc(#loc109)
    %99 = stablehlo.reshape %98 : (tensor<1x1x8x1xf32>) -> tensor<1x1x8xf32> loc(#loc110)
    %100 = stablehlo.multiply %97, %99 : tensor<1x1x8xf32> loc(#loc111)
    %101 = stablehlo.subtract %95, %100 : tensor<1x1x8xf32> loc(#loc112)
    %102 = stablehlo.reshape %101 : (tensor<1x1x8xf32>) -> tensor<1x1x8x1xf32> loc(#loc113)
    %103 = stablehlo.multiply %89, %99 : tensor<1x1x8xf32> loc(#loc114)
    %104 = stablehlo.multiply %97, %94 : tensor<1x1x8xf32> loc(#loc115)
    %105 = stablehlo.add %103, %104 : tensor<1x1x8xf32> loc(#loc116)
    %106 = stablehlo.reshape %105 : (tensor<1x1x8xf32>) -> tensor<1x1x8x1xf32> loc(#loc117)
    %107 = stablehlo.concatenate %102, %106, dim = 3 : (tensor<1x1x8x1xf32>, tensor<1x1x8x1xf32>) -> tensor<1x1x8x2xf32> loc(#loc118)
    %108 = stablehlo.reshape %107 : (tensor<1x1x8x2xf32>) -> tensor<1x1x16xf32> loc(#loc119)
    %109 = stablehlo.convert %108 : (tensor<1x1x16xf32>) -> tensor<1x1x16xbf16> loc(#loc120)
    %110 = stablehlo.floor %cst_8 : tensor<32xf32> loc(#loc121)
    %111 = stablehlo.convert %110 : (tensor<32xf32>) -> tensor<32xi64> loc(#loc122)
    %112 = stablehlo.clamp %c_9, %111, %c_7 : tensor<32xi64> loc(#loc123)
    %113 = stablehlo.compare  LT, %112, %c_9 : (tensor<32xi64>, tensor<32xi64>) -> tensor<32xi1> loc(#loc124)
    %114 = stablehlo.add %112, %c_6 : tensor<32xi64> loc(#loc125)
    %115 = stablehlo.select %113, %114, %112 : tensor<32xi1>, tensor<32xi64> loc(#loc126)
    %116 = stablehlo.reshape %115 : (tensor<32xi64>) -> tensor<32x1xi64> loc(#loc127)
    %117 = "stablehlo.gather"(%109, %116) <{dimension_numbers = #stablehlo.gather<offset_dims = [0, 1], collapsed_slice_dims = [2], start_index_map = [2], index_vector_dim = 1>, slice_sizes = array<i64: 1, 1, 1>}> : (tensor<1x1x16xbf16>, tensor<32x1xi64>) -> tensor<1x1x32xbf16> loc(#loc128)
    %118 = stablehlo.select %17, %117, %cst_20 : tensor<1x1x32xi1>, tensor<1x1x32xbf16> loc(#loc185)
    %119 = stablehlo.select %17, %118, %84 : tensor<1x1x32xi1>, tensor<1x1x32xbf16> loc(#loc131)
    %120 = stablehlo.floor %cst_5 : tensor<8xf32> loc(#loc132)
    %121 = stablehlo.convert %120 : (tensor<8xf32>) -> tensor<8xi64> loc(#loc133)
    %122 = stablehlo.clamp %c_17, %121, %c_17 : tensor<8xi64> loc(#loc134)
    %123 = stablehlo.compare  LT, %122, %c_17 : (tensor<8xi64>, tensor<8xi64>) -> tensor<8xi1> loc(#loc135)
    %124 = stablehlo.add %122, %c_4 : tensor<8xi64> loc(#loc136)
    %125 = stablehlo.select %123, %124, %122 : tensor<8xi1>, tensor<8xi64> loc(#loc137)
    %126 = stablehlo.reshape %125 : (tensor<8xi64>) -> tensor<8x1xi64> loc(#loc138)
    %127 = "stablehlo.gather"(%119, %126) <{dimension_numbers = #stablehlo.gather<offset_dims = [0, 2], collapsed_slice_dims = [1], start_index_map = [1], index_vector_dim = 1>, slice_sizes = array<i64: 1, 1, 32>}> : (tensor<1x1x32xbf16>, tensor<8x1xi64>) -> tensor<1x8x32xbf16> loc(#loc139)
    %128 = stablehlo.select %14, %cst_22, %127 : tensor<1x8x32xi1>, tensor<1x8x32xbf16> loc(#loc140)
    %129 = stablehlo.custom_call @tt.mark_argument(%arg0) {api_version = 0 : i32, mhlo.frontend_attributes = {ttcore.argument_type = "input", ttir.name = "compressor.kv_cache"}} : (tensor<2x8x32xbf16>) -> tensor<2x8x32xbf16> loc(#loc141)
    %130 = stablehlo.slice %129 [0:1, 0:8, 0:32] : (tensor<2x8x32xbf16>) -> tensor<1x8x32xbf16> loc(#loc142)
    %131 = stablehlo.select %11, %128, %130 : tensor<1x8x32xi1>, tensor<1x8x32xbf16> loc(#loc143)
    %132 = stablehlo.floor %cst_2 : tensor<2xf32> loc(#loc144)
    %133 = stablehlo.convert %132 : (tensor<2xf32>) -> tensor<2xi64> loc(#loc145)
    %134 = stablehlo.clamp %c_3, %133, %c_3 : tensor<2xi64> loc(#loc146)
    %135 = stablehlo.compare  LT, %134, %c_3 : (tensor<2xi64>, tensor<2xi64>) -> tensor<2xi1> loc(#loc147)
    %136 = stablehlo.add %134, %c_1 : tensor<2xi64> loc(#loc148)
    %137 = stablehlo.select %135, %136, %134 : tensor<2xi1>, tensor<2xi64> loc(#loc149)
    %138 = stablehlo.reshape %137 : (tensor<2xi64>) -> tensor<2x1xi64> loc(#loc150)
    %139 = "stablehlo.gather"(%131, %138) <{dimension_numbers = #stablehlo.gather<offset_dims = [1, 2], collapsed_slice_dims = [0], start_index_map = [0], index_vector_dim = 1>, slice_sizes = array<i64: 1, 8, 32>}> : (tensor<1x8x32xbf16>, tensor<2x1xi64>) -> tensor<2x8x32xbf16> loc(#loc151)
    %140 = stablehlo.select %6, %cst_24, %139 : tensor<2x8x32xi1>, tensor<2x8x32xbf16> loc(#loc152)
    %141 = stablehlo.select %3, %140, %129 : tensor<2x8x32xi1>, tensor<2x8x32xbf16> loc(#loc153)
    %142 = stablehlo.broadcast_in_dim %1, dims = [0] : (tensor<2xi1>) -> tensor<2x8x64xi1> loc(#loc154)
    %143 = stablehlo.broadcast_in_dim %5, dims = [0] : (tensor<2xi1>) -> tensor<2x8x64xi1> loc(#loc155)
    %144 = stablehlo.and %7, %c : tensor<8xi1> loc(#loc156)
    %145 = stablehlo.reshape %144 : (tensor<8xi1>) -> tensor<1x8x1xi1> loc(#loc157)
    %146 = stablehlo.reshape %144 : (tensor<8xi1>) -> tensor<1x8xi1> loc(#loc158)
    %147 = stablehlo.broadcast_in_dim %146, dims = [0, 1] : (tensor<1x8xi1>) -> tensor<1x8x64xi1> loc(#loc159)
    %148 = stablehlo.not %145 : tensor<1x8x1xi1> loc(#loc160)
    %149 = stablehlo.reshape %148 : (tensor<1x8x1xi1>) -> tensor<1x8xi1> loc(#loc161)
    %150 = stablehlo.broadcast_in_dim %149, dims = [0, 1] : (tensor<1x8xi1>) -> tensor<1x8x64xi1> loc(#loc162)
    %151 = stablehlo.clamp %c_17, %121, %c_15 : tensor<8xi64> loc(#loc163)
    %152 = stablehlo.compare  LT, %151, %c_17 : (tensor<8xi64>, tensor<8xi64>) -> tensor<8xi1> loc(#loc164)
    %153 = stablehlo.add %151, %c_14 : tensor<8xi64> loc(#loc165)
    %154 = stablehlo.select %152, %153, %151 : tensor<8xi1>, tensor<8xi64> loc(#loc166)
    %155 = stablehlo.reshape %154 : (tensor<8xi64>) -> tensor<8x1xi64> loc(#loc167)
    %156 = "stablehlo.gather"(%35, %155) <{dimension_numbers = #stablehlo.gather<offset_dims = [0, 2], collapsed_slice_dims = [1], start_index_map = [1], index_vector_dim = 1>, slice_sizes = array<i64: 1, 1, 64>}> : (tensor<1x4x64xf32>, tensor<8x1xi64>) -> tensor<1x8x64xf32> loc(#loc168)
    %157 = stablehlo.select %150, %cst, %156 : tensor<1x8x64xi1>, tensor<1x8x64xf32> loc(#loc169)
    %158 = stablehlo.custom_call @tt.mark_argument(%arg8) {api_version = 0 : i32, mhlo.frontend_attributes = {ttcore.argument_type = "input", ttir.name = "compressor.kv_state"}} : (tensor<2x8x64xf32>) -> tensor<2x8x64xf32> loc(#loc170)
    %159 = stablehlo.slice %158 [0:1, 0:8, 0:64] : (tensor<2x8x64xf32>) -> tensor<1x8x64xf32> loc(#loc171)
    %160 = stablehlo.select %147, %157, %159 : tensor<1x8x64xi1>, tensor<1x8x64xf32> loc(#loc172)
    %161 = "stablehlo.gather"(%160, %138) <{dimension_numbers = #stablehlo.gather<offset_dims = [1, 2], collapsed_slice_dims = [0], start_index_map = [0], index_vector_dim = 1>, slice_sizes = array<i64: 1, 8, 64>}> : (tensor<1x8x64xf32>, tensor<2x1xi64>) -> tensor<2x8x64xf32> loc(#loc173)
    %162 = stablehlo.select %143, %cst_0, %161 : tensor<2x8x64xi1>, tensor<2x8x64xf32> loc(#loc174)
    %163 = stablehlo.select %142, %162, %158 : tensor<2x8x64xi1>, tensor<2x8x64xf32> loc(#loc175)
    %164 = stablehlo.add %53, %56 : tensor<1x4x64xf32> loc(#loc176)
    %165 = "stablehlo.gather"(%164, %155) <{dimension_numbers = #stablehlo.gather<offset_dims = [0, 2], collapsed_slice_dims = [1], start_index_map = [1], index_vector_dim = 1>, slice_sizes = array<i64: 1, 1, 64>}> : (tensor<1x4x64xf32>, tensor<8x1xi64>) -> tensor<1x8x64xf32> loc(#loc177)
    %166 = stablehlo.select %150, %cst, %165 : tensor<1x8x64xi1>, tensor<1x8x64xf32> loc(#loc178)
    %167 = stablehlo.custom_call @tt.mark_argument(%arg9) {api_version = 0 : i32, mhlo.frontend_attributes = {ttcore.argument_type = "input", ttir.name = "compressor.score_state"}} : (tensor<2x8x64xf32>) -> tensor<2x8x64xf32> loc(#loc179)
    %168 = stablehlo.slice %167 [0:1, 0:8, 0:64] : (tensor<2x8x64xf32>) -> tensor<1x8x64xf32> loc(#loc180)
    %169 = stablehlo.select %147, %166, %168 : tensor<1x8x64xi1>, tensor<1x8x64xf32> loc(#loc181)
    %170 = "stablehlo.gather"(%169, %138) <{dimension_numbers = #stablehlo.gather<offset_dims = [1, 2], collapsed_slice_dims = [0], start_index_map = [0], index_vector_dim = 1>, slice_sizes = array<i64: 1, 8, 64>}> : (tensor<1x8x64xf32>, tensor<2x1xi64>) -> tensor<2x8x64xf32> loc(#loc182)
    %171 = stablehlo.select %143, %cst_0, %170 : tensor<2x8x64xi1>, tensor<2x8x64xf32> loc(#loc183)
    %172 = stablehlo.select %142, %171, %167 : tensor<2x8x64xi1>, tensor<2x8x64xf32> loc(#loc184)
    return %141, %163, %172 : tensor<2x8x32xbf16>, tensor<2x8x64xf32>, tensor<2x8x64xf32> loc(#loc)
  } loc(#loc)
} loc(#loc)
#loc = loc(unknown)
#loc11 = loc("broadcast.472")
#loc12 = loc("and.475")
#loc13 = loc("reshape.476")
#loc14 = loc("broadcast.485")
#loc15 = loc("not.477")
#loc16 = loc("reshape.479")
#loc17 = loc("broadcast.480")
#loc18 = loc("broadcast.442")
#loc19 = loc("and.445")
#loc20 = loc("reshape.446")
#loc21 = loc("reshape.454")
#loc22 = loc("broadcast.455")
#loc23 = loc("not.447")
#loc24 = loc("reshape.449")
#loc25 = loc("broadcast.450")
#loc26 = loc("broadcast.417")
#loc27 = loc("and.420")
#loc28 = loc("reshape.421")
#loc29 = loc("reshape.333")
#loc30 = loc("custom-call.334")
#loc31 = loc("and.262")
#loc32 = loc("reshape.263")
#loc33 = loc("reshape.271")
#loc34 = loc("broadcast.272")
#loc35 = loc("not.264")
#loc36 = loc("reshape.266")
#loc37 = loc("broadcast.267")
#loc38 = loc("custom-call.116")
#loc39 = loc("convert.117")
#loc40 = loc("reshape.238")
#loc41 = loc("reshape.234")
#loc42 = loc("custom-call.235")
#loc43 = loc("reshape.236")
#loc44 = loc("transpose.237")
#loc45 = loc("dot.239")
#loc46 = loc("reshape.240")
#loc47 = loc("reshape.241")
#loc48 = loc("slice.242")
#loc49 = loc("floor.216")
#loc50 = loc("convert.217")
#loc51 = loc("clamp.220")
#loc52 = loc("compare.229")
#loc53 = loc("add.226")
#loc54 = loc("select.230")
#loc55 = loc("reshape.231")
#loc56 = loc("gather.245")
#loc57 = loc("select.268")
#loc58 = loc("select.273")
#loc59 = loc("reshape.111")
#loc60 = loc("custom-call.112")
#loc61 = loc("reshape.113")
#loc62 = loc("transpose.114")
#loc63 = loc("dot.119")
#loc64 = loc("reshape.120")
#loc65 = loc("reshape.121")
#loc66 = loc("reshape.107")
#loc67 = loc("custom-call.108")
#loc68 = loc("broadcast.124")
#loc69 = loc("add.125")
#loc70 = loc("slice.126")
#loc71 = loc("gather.129")
#loc72 = loc("select.153")
#loc73 = loc("select.158")
#loc74 = loc("reduce.185")
#loc75 = loc("broadcast.186")
#loc76 = loc("subtract.187")
#loc77 = loc("exponential.188")
#loc78 = loc("reduce.194")
#loc79 = loc("broadcast.195")
#loc80 = loc("divide.196")
#loc81 = loc("multiply.295")
#loc82 = loc("reduce.302")
#loc83 = loc("convert.303")
#loc84 = loc("convert.304")
#loc85 = loc("power.306")
#loc86 = loc("reduce.313")
#loc87 = loc("multiply.322")
#loc88 = loc("reshape.323")
#loc89 = loc("add.327")
#loc90 = loc("rsqrt.328")
#loc91 = loc("reshape.329")
#loc92 = loc("broadcast.330")
#loc93 = loc("multiply.331")
#loc94 = loc("multiply.337")
#loc95 = loc("convert.338")
#loc96 = loc("slice.376")
#loc97 = loc("convert.377")
#loc98 = loc("reshape.378")
#loc99 = loc("slice.384")
#loc100 = loc("reshape.385")
#loc101 = loc("custom-call.371")
#loc102 = loc("slice.372")
#loc103 = loc("reshape.373")
#loc104 = loc("slice.374")
#loc105 = loc("reshape.375")
#loc106 = loc("multiply.393")
#loc107 = loc("slice.379")
#loc108 = loc("reshape.380")
#loc109 = loc("slice.382")
#loc110 = loc("reshape.383")
#loc111 = loc("multiply.392")
#loc112 = loc("subtract.396")
#loc113 = loc("reshape.397")
#loc114 = loc("multiply.386")
#loc115 = loc("multiply.381")
#loc116 = loc("add.389")
#loc117 = loc("reshape.390")
#loc118 = loc("concatenate.398")
#loc119 = loc("reshape.399")
#loc120 = loc("convert.400")
#loc121 = loc("floor.352")
#loc122 = loc("convert.353")
#loc123 = loc("clamp.356")
#loc124 = loc("compare.365")
#loc125 = loc("add.362")
#loc126 = loc("select.366")
#loc127 = loc("reshape.367")
#loc128 = loc("gather.403")
#loc129 = loc("select.424")
#loc130 = loc("not.422")
#loc131 = loc("select.425")
#loc132 = loc("floor.49")
#loc133 = loc("convert.50")
#loc134 = loc("clamp.53")
#loc135 = loc("compare.62")
#loc136 = loc("add.59")
#loc137 = loc("select.63")
#loc138 = loc("reshape.64")
#loc139 = loc("gather.428")
#loc140 = loc("select.451")
#loc141 = loc("custom-call.2")
#loc142 = loc("slice.34")
#loc143 = loc("select.456")
#loc144 = loc("floor.17")
#loc145 = loc("convert.18")
#loc146 = loc("clamp.21")
#loc147 = loc("compare.30")
#loc148 = loc("add.27")
#loc149 = loc("select.31")
#loc150 = loc("reshape.32")
#loc151 = loc("gather.458")
#loc152 = loc("select.481")
#loc153 = loc("select.486")
#loc154 = loc("broadcast.611")
#loc155 = loc("broadcast.606")
#loc156 = loc("and.571")
#loc157 = loc("reshape.572")
#loc158 = loc("reshape.580")
#loc159 = loc("broadcast.581")
#loc160 = loc("not.573")
#loc161 = loc("reshape.575")
#loc162 = loc("broadcast.576")
#loc163 = loc("clamp.539")
#loc164 = loc("compare.548")
#loc165 = loc("add.545")
#loc166 = loc("select.549")
#loc167 = loc("reshape.550")
#loc168 = loc("gather.554")
#loc169 = loc("select.577")
#loc170 = loc("custom-call.488")
#loc171 = loc("slice.520")
#loc172 = loc("select.582")
#loc173 = loc("gather.584")
#loc174 = loc("select.607")
#loc175 = loc("select.612")
#loc176 = loc("add.682")
#loc177 = loc("gather.685")
#loc178 = loc("select.708")
#loc179 = loc("custom-call.614")
#loc180 = loc("slice.646")
#loc181 = loc("select.713")
#loc182 = loc("gather.715")
#loc183 = loc("select.738")
#loc184 = loc("select.743")
#loc185 = loc(fused[#loc129, #loc130])
------------------ END OF MLIR MODULE ------------------
2026-04-25 16:07:38.241 (   3.845s) [        1B754740]      module_builder.cc:1220     1| MLIR Module shlo_frontend:
#loc1 = loc("p0.1")
#loc2 = loc("p1.106")
#loc3 = loc("p2.110")
#loc4 = loc("p3.115")
#loc5 = loc("p4.140")
#loc6 = loc("p5.233")
#loc7 = loc("p6.332")
#loc8 = loc("p7.370")
#loc9 = loc("p8.487")
#loc10 = loc("p9.613")
module @SyncTensorsGraph.745 attributes {mhlo.cross_program_prefetches = [], mhlo.input_output_alias = [], mhlo.is_dynamic = false, mhlo.use_auto_spmd_partitioning = false} {
  func.func @main(%arg0: tensor<2x8x32xbf16> {ttcore.argument_type = #ttcore.argument_type<input>, ttir.name = "compressor.kv_cache"} loc("p0.1"), %arg1: tensor<4x64xf32> {ttcore.argument_type = #ttcore.argument_type<parameter>, ttir.name = "compressor.ape"} loc("p1.106"), %arg2: tensor<64x128xf32> {ttcore.argument_type = #ttcore.argument_type<parameter>, ttir.name = "compressor.wgate.weight"} loc("p2.110"), %arg3: tensor<1x4x128xbf16> {ttcore.argument_type = #ttcore.argument_type<input>, ttir.name = "args_0"} loc("p3.115"), %arg4: tensor<i1> {ttcore.argument_type = #ttcore.argument_type<input>} loc("p4.140"), %arg5: tensor<64x128xf32> {ttcore.argument_type = #ttcore.argument_type<parameter>, ttir.name = "compressor.wkv.weight"} loc("p5.233"), %arg6: tensor<32xf32> {ttcore.argument_type = #ttcore.argument_type<parameter>, ttir.name = "compressor.norm.weight"} loc("p6.332"), %arg7: tensor<32x8x2xf32> {ttcore.argument_type = #ttcore.argument_type<constant>, ttir.name = "compressor.freqs_cis"} loc("p7.370"), %arg8: tensor<2x8x64xf32> {ttcore.argument_type = #ttcore.argument_type<input>, ttir.name = "compressor.kv_state"} loc("p8.487"), %arg9: tensor<2x8x64xf32> {ttcore.argument_type = #ttcore.argument_type<input>, ttir.name = "compressor.score_state"} loc("p9.613")) -> (tensor<2x8x32xbf16>, tensor<2x8x64xf32>, tensor<2x8x64xf32>) {
    %cst = stablehlo.constant dense<0.000000e+00> : tensor<1x8x64xf32> loc(#loc)
    %c = stablehlo.constant dense<[true, true, true, true, false, false, false, false]> : tensor<8xi1> loc(#loc)
    %cst_0 = stablehlo.constant dense<0.000000e+00> : tensor<2x8x64xf32> loc(#loc)
    %c_1 = stablehlo.constant dense<1> : tensor<2xi64> loc(#loc)
    %cst_2 = stablehlo.constant dense<[0.000000e+00, 1.000000e+00]> : tensor<2xf32> loc(#loc)
    %c_3 = stablehlo.constant dense<0> : tensor<2xi64> loc(#loc)
    %c_4 = stablehlo.constant dense<1> : tensor<8xi64> loc(#loc)
    %cst_5 = stablehlo.constant dense<[0.000000e+00, 1.000000e+00, 2.000000e+00, 3.000000e+00, 4.000000e+00, 5.000000e+00, 6.000000e+00, 7.000000e+00]> : tensor<8xf32> loc(#loc)
    %c_6 = stablehlo.constant dense<16> : tensor<32xi64> loc(#loc)
    %c_7 = stablehlo.constant dense<15> : tensor<32xi64> loc(#loc)
    %cst_8 = stablehlo.constant dense<[… > : tensor<32xf32> loc(#loc)
    %c_9 = stablehlo.constant dense<0> : tensor<32xi64> loc(#loc)
    %cst_10 = stablehlo.constant dense<9.99999997E-7> : tensor<1x1x1xf32> loc(#loc)
    %cst_11 = stablehlo.constant dense<3.125000e-02> : tensor<1x1xf32> loc(#loc)
    %cst_12 = stablehlo.constant dense<2.000000e+00> : tensor<1x1x32xf32> loc(#loc)
    %cst_13 = stablehlo.constant dense<0xFF800000> : tensor<1x1x8x32xf32> loc(#loc)
    %c_14 = stablehlo.constant dense<4> : tensor<8xi64> loc(#loc)
    %c_15 = stablehlo.constant dense<3> : tensor<8xi64> loc(#loc)
    %cst_16 = stablehlo.constant dense<[-4.000000e+00, -3.000000e+00, -2.000000e+00, -1.000000e+00, 0.000000e+00, 1.000000e+00, 2.000000e+00, 3.000000e+00]> : tensor<8xf32> loc(#loc)
    %c_17 = stablehlo.constant dense<0> : tensor<8xi64> loc(#loc)
    %cst_18 = stablehlo.constant dense<0.000000e+00> : tensor<1x1x8x32xf32> loc(#loc)
    %c_19 = stablehlo.constant dense<[false, false, false, false, true, true, true, true]> : tensor<8xi1> loc(#loc)
    %cst_20 = stablehlo.constant dense<0.000000e+00> : tensor<1x1x32xbf16> loc(#loc)
    %c_21 = stablehlo.constant dense<[false, false, false, false, false, false, false, false, false, false, false, false, false, false, false, false, true, true, true, true, true, true, true, true, true, true, true, true, true, true, true, true]> : tensor<32xi1> loc(#loc)
    %cst_22 = stablehlo.constant dense<0.000000e+00> : tensor<1x8x32xbf16> loc(#loc)
    %c_23 = stablehlo.constant dense<[true, false, false, false, false, false, false, false]> : tensor<8xi1> loc(#loc)
    %cst_24 = stablehlo.constant dense<0.000000e+00> : tensor<2x8x32xbf16> loc(#loc)
    %c_25 = stablehlo.constant dense<[true, false]> : tensor<2xi1> loc(#loc)
    %cst_26 = stablehlo.constant dense<0xFF800000> : tensor<f32> loc(#loc)
    %cst_27 = stablehlo.constant dense<0.000000e+00> : tensor<f32> loc(#loc)
    %0 = stablehlo.broadcast_in_dim %arg4, dims = [] : (tensor<i1>) -> tensor<2xi1> loc(#loc11)
    %1 = stablehlo.and %0, %c_25 : tensor<2xi1> loc(#loc12)
    %2 = stablehlo.reshape %1 : (tensor<2xi1>) -> tensor<2x1x1xi1> loc(#loc13)
    %3 = stablehlo.broadcast_in_dim %1, dims = [0] : (tensor<2xi1>) -> tensor<2x8x32xi1> loc(#loc14)
    %4 = stablehlo.not %2 : tensor<2x1x1xi1> loc(#loc15)
    %5 = stablehlo.reshape %4 : (tensor<2x1x1xi1>) -> tensor<2xi1> loc(#loc16)
    %6 = stablehlo.broadcast_in_dim %5, dims = [0] : (tensor<2xi1>) -> tensor<2x8x32xi1> loc(#loc17)
    %7 = stablehlo.broadcast_in_dim %arg4, dims = [] : (tensor<i1>) -> tensor<8xi1> loc(#loc18)
    %8 = stablehlo.and %7, %c_23 : tensor<8xi1> loc(#loc19)
    %9 = stablehlo.reshape %8 : (tensor<8xi1>) -> tensor<1x8x1xi1> loc(#loc20)
    %10 = stablehlo.reshape %8 : (tensor<8xi1>) -> tensor<1x8xi1> loc(#loc21)
    %11 = stablehlo.broadcast_in_dim %10, dims = [0, 1] : (tensor<1x8xi1>) -> tensor<1x8x32xi1> loc(#loc22)
    %12 = stablehlo.not %9 : tensor<1x8x1xi1> loc(#loc23)
    %13 = stablehlo.reshape %12 : (tensor<1x8x1xi1>) -> tensor<1x8xi1> loc(#loc24)
    %14 = stablehlo.broadcast_in_dim %13, dims = [0, 1] : (tensor<1x8xi1>) -> tensor<1x8x32xi1> loc(#loc25)
    %15 = stablehlo.broadcast_in_dim %arg4, dims = [] : (tensor<i1>) -> tensor<32xi1> loc(#loc26)
    %16 = stablehlo.and %15, %c_21 : tensor<32xi1> loc(#loc27)
    %17 = stablehlo.reshape %16 : (tensor<32xi1>) -> tensor<1x1x32xi1> loc(#loc28)
    %18 = stablehlo.reshape %arg6 : (tensor<32xf32>) -> tensor<1x1x32xf32> loc(#loc29)
    %19 = stablehlo.and %7, %c_19 : tensor<8xi1> loc(#loc30)
    %20 = stablehlo.reshape %19 : (tensor<8xi1>) -> tensor<1x1x8x1xi1> loc(#loc31)
    %21 = stablehlo.reshape %19 : (tensor<8xi1>) -> tensor<1x1x8xi1> loc(#loc32)
    %22 = stablehlo.broadcast_in_dim %21, dims = [0, 1, 2] : (tensor<1x1x8xi1>) -> tensor<1x1x8x32xi1> loc(#loc33)
    %23 = stablehlo.not %20 : tensor<1x1x8x1xi1> loc(#loc34)
    %24 = stablehlo.reshape %23 : (tensor<1x1x8x1xi1>) -> tensor<1x1x8xi1> loc(#loc35)
    %25 = stablehlo.broadcast_in_dim %24, dims = [0, 1, 2] : (tensor<1x1x8xi1>) -> tensor<1x1x8x32xi1> loc(#loc36)
    %26 = stablehlo.convert %arg3 : (tensor<1x4x128xbf16>) -> tensor<1x4x128xf32> loc(#loc37)
    %27 = stablehlo.reshape %26 : (tensor<1x4x128xf32>) -> tensor<4x128xf32> loc(#loc38)
    %28 = stablehlo.reshape %arg5 : (tensor<64x128xf32>) -> tensor<1x64x128xf32> loc(#loc39)
    %29 = stablehlo.reshape %28 : (tensor<1x64x128xf32>) -> tensor<64x128xf32> loc(#loc40)
    %30 = stablehlo.transpose %29, dims = [1, 0] {result_layout = dense<[0, 1]> : tensor<2xindex>, xla_shape = "f32[128,64]{0,1}"} : (tensor<64x128xf32>) -> tensor<128x64xf32> loc(#loc41)
    %31 = stablehlo.dot_general %27, %30, contracting_dims = [1] x [0] : (tensor<4x128xf32>, tensor<128x64xf32>) -> tensor<4x64xf32> loc(#loc42)
    %32 = stablehlo.reshape %31 : (tensor<4x64xf32>) -> tensor<1x4x64xf32> loc(#loc43)
    %33 = stablehlo.reshape %31 : (tensor<4x64xf32>) -> tensor<1x1x4x64xf32> loc(#loc44)
    %34 = stablehlo.slice %33 [0:1, 0:1, 0:4, 32:64] : (tensor<1x1x4x64xf32>) -> tensor<1x1x4x32xf32> loc(#loc45)
    %35 = stablehlo.floor %cst_16 : tensor<8xf32> loc(#loc46)
    %36 = stablehlo.convert %35 : (tensor<8xf32>) -> tensor<8xi64> loc(#loc47)
    %37 = stablehlo.clamp %c_17, %36, %c_15 : tensor<8xi64> loc(#loc48)
    %38 = stablehlo.compare  LT, %37, %c_17 : (tensor<8xi64>, tensor<8xi64>) -> tensor<8xi1> loc(#loc49)
    %39 = stablehlo.add %37, %c_14 : tensor<8xi64> loc(#loc50)
    %40 = stablehlo.select %38, %39, %37 : tensor<8xi1>, tensor<8xi64> loc(#loc51)
    %41 = stablehlo.reshape %40 : (tensor<8xi64>) -> tensor<8x1xi64> loc(#loc52)
    %42 = "stablehlo.gather"(%34, %41) <{dimension_numbers = #stablehlo.gather<offset_dims = [0, 1, 3], collapsed_slice_dims = [2], start_index_map = [2], index_vector_dim = 1>, slice_sizes = array<i64: 1, 1, 1, 32>}> : (tensor<1x1x4x32xf32>, tensor<8x1xi64>) -> tensor<1x1x8x32xf32> loc(#loc53)
    %43 = stablehlo.select %25, %cst_18, %42 : tensor<1x1x8x32xi1>, tensor<1x1x8x32xf32> loc(#loc54)
    %44 = stablehlo.select %22, %43, %cst_18 : tensor<1x1x8x32xi1>, tensor<1x1x8x32xf32> loc(#loc55)
    %45 = stablehlo.reshape %arg2 : (tensor<64x128xf32>) -> tensor<1x64x128xf32> loc(#loc56)
    %46 = stablehlo.reshape %45 : (tensor<1x64x128xf32>) -> tensor<64x128xf32> loc(#loc57)
    %47 = stablehlo.transpose %46, dims = [1, 0] {result_layout = dense<[0, 1]> : tensor<2xindex>, xla_shape = "f32[128,64]{0,1}"} : (tensor<64x128xf32>) -> tensor<128x64xf32> loc(#loc58)
    %48 = stablehlo.dot_general %27, %47, contracting_dims = [1] x [0] : (tensor<4x128xf32>, tensor<128x64xf32>) -> tensor<4x64xf32> loc(#loc59)
    %49 = stablehlo.reshape %48 : (tensor<4x64xf32>) -> tensor<1x4x64xf32> loc(#loc60)
    %50 = stablehlo.reshape %48 : (tensor<4x64xf32>) -> tensor<1x1x4x64xf32> loc(#loc61)
    %51 = stablehlo.reshape %arg1 : (tensor<4x64xf32>) -> tensor<1x4x64xf32> loc(#loc62)
    %52 = stablehlo.reshape %51 : (tensor<1x4x64xf32>) -> tensor<1x1x4x64xf32> loc(#loc63)
    %53 = stablehlo.add %50, %52 : tensor<1x1x4x64xf32> loc(#loc64)
    %54 = stablehlo.slice %53 [0:1, 0:1, 0:4, 32:64] : (tensor<1x1x4x64xf32>) -> tensor<1x1x4x32xf32> loc(#loc65)
    %55 = "stablehlo.gather"(%54, %41) <{dimension_numbers = #stablehlo.gather<offset_dims = [0, 1, 3], collapsed_slice_dims = [2], start_index_map = [2], index_vector_dim = 1>, slice_sizes = array<i64: 1, 1, 1, 32>}> : (tensor<1x1x4x32xf32>, tensor<8x1xi64>) -> tensor<1x1x8x32xf32> loc(#loc66)
    %56 = stablehlo.select %25, %cst_18, %55 : tensor<1x1x8x32xi1>, tensor<1x1x8x32xf32> loc(#loc67)
    %57 = stablehlo.select %22, %56, %cst_13 : tensor<1x1x8x32xi1>, tensor<1x1x8x32xf32> loc(#loc68)
    %58 = stablehlo.reduce(%57 init: %cst_26) applies stablehlo.maximum across dimensions = [2] : (tensor<1x1x8x32xf32>, tensor<f32>) -> tensor<1x1x32xf32> loc(#loc69)
    %59 = stablehlo.broadcast_in_dim %58, dims = [0, 1, 3] : (tensor<1x1x32xf32>) -> tensor<1x1x8x32xf32> loc(#loc70)
    %60 = stablehlo.subtract %57, %59 : tensor<1x1x8x32xf32> loc(#loc71)
    %61 = stablehlo.exponential %60 : tensor<1x1x8x32xf32> loc(#loc72)
    %62 = stablehlo.reduce(%61 init: %cst_27) applies stablehlo.add across dimensions = [2] : (tensor<1x1x8x32xf32>, tensor<f32>) -> tensor<1x1x32xf32> loc(#loc73)
    %63 = stablehlo.broadcast_in_dim %62, dims = [0, 1, 3] : (tensor<1x1x32xf32>) -> tensor<1x1x8x32xf32> loc(#loc74)
    %64 = stablehlo.divide %61, %63 : tensor<1x1x8x32xf32> loc(#loc75)
    %65 = stablehlo.multiply %44, %64 : tensor<1x1x8x32xf32> loc(#loc76)
    %66 = stablehlo.reduce(%65 init: %cst_27) applies stablehlo.add across dimensions = [2] : (tensor<1x1x8x32xf32>, tensor<f32>) -> tensor<1x1x32xf32> loc(#loc77)
    %67 = stablehlo.convert %66 : (tensor<1x1x32xf32>) -> tensor<1x1x32xbf16> loc(#loc78)
    %68 = stablehlo.convert %67 : (tensor<1x1x32xbf16>) -> tensor<1x1x32xf32> loc(#loc79)
    %69 = stablehlo.power %68, %cst_12 : tensor<1x1x32xf32> loc(#loc80)
    %70 = stablehlo.reduce(%69 init: %cst_27) applies stablehlo.add across dimensions = [2] : (tensor<1x1x32xf32>, tensor<f32>) -> tensor<1x1xf32> loc(#loc81)
    %71 = stablehlo.multiply %70, %cst_11 : tensor<1x1xf32> loc(#loc82)
    %72 = stablehlo.reshape %71 : (tensor<1x1xf32>) -> tensor<1x1x1xf32> loc(#loc83)
    %73 = stablehlo.add %72, %cst_10 : tensor<1x1x1xf32> loc(#loc84)
    %74 = stablehlo.rsqrt %73 : tensor<1x1x1xf32> loc(#loc85)
    %75 = stablehlo.reshape %74 : (tensor<1x1x1xf32>) -> tensor<1x1xf32> loc(#loc86)
    %76 = stablehlo.broadcast_in_dim %75, dims = [0, 1] : (tensor<1x1xf32>) -> tensor<1x1x32xf32> loc(#loc87)
    %77 = stablehlo.multiply %68, %76 : tensor<1x1x32xf32> loc(#loc88)
    %78 = stablehlo.multiply %18, %77 : tensor<1x1x32xf32> loc(#loc89)
    %79 = stablehlo.convert %78 : (tensor<1x1x32xf32>) -> tensor<1x1x32xbf16> loc(#loc90)
    %80 = stablehlo.slice %79 [0:1, 0:1, 16:32] : (tensor<1x1x32xbf16>) -> tensor<1x1x16xbf16> loc(#loc91)
    %81 = stablehlo.convert %80 : (tensor<1x1x16xbf16>) -> tensor<1x1x16xf32> loc(#loc92)
    %82 = stablehlo.reshape %81 : (tensor<1x1x16xf32>) -> tensor<1x1x8x2xf32> loc(#loc93)
    %83 = stablehlo.slice %82 [0:1, 0:1, 0:8, 0:1] : (tensor<1x1x8x2xf32>) -> tensor<1x1x8x1xf32> loc(#loc94)
    %84 = stablehlo.reshape %83 : (tensor<1x1x8x1xf32>) -> tensor<1x1x8xf32> loc(#loc95)
    %85 = stablehlo.slice %arg7 [0:4:4, 0:8, 0:2] : (tensor<32x8x2xf32>) -> tensor<1x8x2xf32> loc(#loc96)
    %86 = stablehlo.reshape %85 : (tensor<1x8x2xf32>) -> tensor<1x1x8x2xf32> loc(#loc97)
    %87 = stablehlo.slice %86 [0:1, 0:1, 0:8, 0:1] : (tensor<1x1x8x2xf32>) -> tensor<1x1x8x1xf32> loc(#loc98)
    %88 = stablehlo.reshape %87 : (tensor<1x1x8x1xf32>) -> tensor<1x1x8xf32> loc(#loc99)
    %89 = stablehlo.multiply %84, %88 : tensor<1x1x8xf32> loc(#loc100)
    %90 = stablehlo.slice %82 [0:1, 0:1, 0:8, 1:2] : (tensor<1x1x8x2xf32>) -> tensor<1x1x8x1xf32> loc(#loc101)
    %91 = stablehlo.reshape %90 : (tensor<1x1x8x1xf32>) -> tensor<1x1x8xf32> loc(#loc102)
    %92 = stablehlo.slice %86 [0:1, 0:1, 0:8, 1:2] : (tensor<1x1x8x2xf32>) -> tensor<1x1x8x1xf32> loc(#loc103)
    %93 = stablehlo.reshape %92 : (tensor<1x1x8x1xf32>) -> tensor<1x1x8xf32> loc(#loc104)
    %94 = stablehlo.multiply %91, %93 : tensor<1x1x8xf32> loc(#loc105)
    %95 = stablehlo.subtract %89, %94 : tensor<1x1x8xf32> loc(#loc106)
    %96 = stablehlo.reshape %95 : (tensor<1x1x8xf32>) -> tensor<1x1x8x1xf32> loc(#loc107)
    %97 = stablehlo.multiply %84, %93 : tensor<1x1x8xf32> loc(#loc108)
    %98 = stablehlo.multiply %91, %88 : tensor<1x1x8xf32> loc(#loc109)
    %99 = stablehlo.add %97, %98 : tensor<1x1x8xf32> loc(#loc110)
    %100 = stablehlo.reshape %99 : (tensor<1x1x8xf32>) -> tensor<1x1x8x1xf32> loc(#loc111)
    %101 = stablehlo.concatenate %96, %100, dim = 3 : (tensor<1x1x8x1xf32>, tensor<1x1x8x1xf32>) -> tensor<1x1x8x2xf32> loc(#loc112)
    %102 = stablehlo.reshape %101 : (tensor<1x1x8x2xf32>) -> tensor<1x1x16xf32> loc(#loc113)
    %103 = stablehlo.convert %102 : (tensor<1x1x16xf32>) -> tensor<1x1x16xbf16> loc(#loc114)
    %104 = stablehlo.floor %cst_8 : tensor<32xf32> loc(#loc115)
    %105 = stablehlo.convert %104 : (tensor<32xf32>) -> tensor<32xi64> loc(#loc116)
    %106 = stablehlo.clamp %c_9, %105, %c_7 : tensor<32xi64> loc(#loc117)
    %107 = stablehlo.compare  LT, %106, %c_9 : (tensor<32xi64>, tensor<32xi64>) -> tensor<32xi1> loc(#loc118)
    %108 = stablehlo.add %106, %c_6 : tensor<32xi64> loc(#loc119)
    %109 = stablehlo.select %107, %108, %106 : tensor<32xi1>, tensor<32xi64> loc(#loc120)
    %110 = stablehlo.reshape %109 : (tensor<32xi64>) -> tensor<32x1xi64> loc(#loc121)
    %111 = "stablehlo.gather"(%103, %110) <{dimension_numbers = #stablehlo.gather<offset_dims = [0, 1], collapsed_slice_dims = [2], start_index_map = [2], index_vector_dim = 1>, slice_sizes = array<i64: 1, 1, 1>}> : (tensor<1x1x16xbf16>, tensor<32x1xi64>) -> tensor<1x1x32xbf16> loc(#loc122)
    %112 = stablehlo.select %17, %111, %cst_20 : tensor<1x1x32xi1>, tensor<1x1x32xbf16> loc(#loc176)
    %113 = stablehlo.select %17, %112, %79 : tensor<1x1x32xi1>, tensor<1x1x32xbf16> loc(#loc125)
    %114 = stablehlo.floor %cst_5 : tensor<8xf32> loc(#loc126)
    %115 = stablehlo.convert %114 : (tensor<8xf32>) -> tensor<8xi64> loc(#loc127)
    %116 = stablehlo.clamp %c_17, %115, %c_17 : tensor<8xi64> loc(#loc128)
    %117 = stablehlo.compare  LT, %116, %c_17 : (tensor<8xi64>, tensor<8xi64>) -> tensor<8xi1> loc(#loc129)
    %118 = stablehlo.add %116, %c_4 : tensor<8xi64> loc(#loc130)
    %119 = stablehlo.select %117, %118, %116 : tensor<8xi1>, tensor<8xi64> loc(#loc131)
    %120 = stablehlo.reshape %119 : (tensor<8xi64>) -> tensor<8x1xi64> loc(#loc132)
    %121 = "stablehlo.gather"(%113, %120) <{dimension_numbers = #stablehlo.gather<offset_dims = [0, 2], collapsed_slice_dims = [1], start_index_map = [1], index_vector_dim = 1>, slice_sizes = array<i64: 1, 1, 32>}> : (tensor<1x1x32xbf16>, tensor<8x1xi64>) -> tensor<1x8x32xbf16> loc(#loc133)
    %122 = stablehlo.select %14, %cst_22, %121 : tensor<1x8x32xi1>, tensor<1x8x32xbf16> loc(#loc134)
    %123 = stablehlo.slice %arg0 [0:1, 0:8, 0:32] : (tensor<2x8x32xbf16>) -> tensor<1x8x32xbf16> loc(#loc135)
    %124 = stablehlo.select %11, %122, %123 : tensor<1x8x32xi1>, tensor<1x8x32xbf16> loc(#loc136)
    %125 = stablehlo.floor %cst_2 : tensor<2xf32> loc(#loc137)
    %126 = stablehlo.convert %125 : (tensor<2xf32>) -> tensor<2xi64> loc(#loc138)
    %127 = stablehlo.clamp %c_3, %126, %c_3 : tensor<2xi64> loc(#loc139)
    %128 = stablehlo.compare  LT, %127, %c_3 : (tensor<2xi64>, tensor<2xi64>) -> tensor<2xi1> loc(#loc140)
    %129 = stablehlo.add %127, %c_1 : tensor<2xi64> loc(#loc141)
    %130 = stablehlo.select %128, %129, %127 : tensor<2xi1>, tensor<2xi64> loc(#loc142)
    %131 = stablehlo.reshape %130 : (tensor<2xi64>) -> tensor<2x1xi64> loc(#loc143)
    %132 = "stablehlo.gather"(%124, %131) <{dimension_numbers = #stablehlo.gather<offset_dims = [1, 2], collapsed_slice_dims = [0], start_index_map = [0], index_vector_dim = 1>, slice_sizes = array<i64: 1, 8, 32>}> : (tensor<1x8x32xbf16>, tensor<2x1xi64>) -> tensor<2x8x32xbf16> loc(#loc144)
    %133 = stablehlo.select %6, %cst_24, %132 : tensor<2x8x32xi1>, tensor<2x8x32xbf16> loc(#loc145)
    %134 = stablehlo.select %3, %133, %arg0 : tensor<2x8x32xi1>, tensor<2x8x32xbf16> loc(#loc146)
    %135 = stablehlo.broadcast_in_dim %1, dims = [0] : (tensor<2xi1>) -> tensor<2x8x64xi1> loc(#loc147)
    %136 = stablehlo.broadcast_in_dim %5, dims = [0] : (tensor<2xi1>) -> tensor<2x8x64xi1> loc(#loc148)
    %137 = stablehlo.and %7, %c : tensor<8xi1> loc(#loc149)
    %138 = stablehlo.reshape %137 : (tensor<8xi1>) -> tensor<1x8x1xi1> loc(#loc150)
    %139 = stablehlo.reshape %137 : (tensor<8xi1>) -> tensor<1x8xi1> loc(#loc151)
    %140 = stablehlo.broadcast_in_dim %139, dims = [0, 1] : (tensor<1x8xi1>) -> tensor<1x8x64xi1> loc(#loc152)
    %141 = stablehlo.not %138 : tensor<1x8x1xi1> loc(#loc153)
    %142 = stablehlo.reshape %141 : (tensor<1x8x1xi1>) -> tensor<1x8xi1> loc(#loc154)
    %143 = stablehlo.broadcast_in_dim %142, dims = [0, 1] : (tensor<1x8xi1>) -> tensor<1x8x64xi1> loc(#loc155)
    %144 = stablehlo.clamp %c_17, %115, %c_15 : tensor<8xi64> loc(#loc156)
    %145 = stablehlo.compare  LT, %144, %c_17 : (tensor<8xi64>, tensor<8xi64>) -> tensor<8xi1> loc(#loc157)
    %146 = stablehlo.add %144, %c_14 : tensor<8xi64> loc(#loc158)
    %147 = stablehlo.select %145, %146, %144 : tensor<8xi1>, tensor<8xi64> loc(#loc159)
    %148 = stablehlo.reshape %147 : (tensor<8xi64>) -> tensor<8x1xi64> loc(#loc160)
    %149 = "stablehlo.gather"(%32, %148) <{dimension_numbers = #stablehlo.gather<offset_dims = [0, 2], collapsed_slice_dims = [1], start_index_map = [1], index_vector_dim = 1>, slice_sizes = array<i64: 1, 1, 64>}> : (tensor<1x4x64xf32>, tensor<8x1xi64>) -> tensor<1x8x64xf32> loc(#loc161)
    %150 = stablehlo.select %143, %cst, %149 : tensor<1x8x64xi1>, tensor<1x8x64xf32> loc(#loc162)
    %151 = stablehlo.slice %arg8 [0:1, 0:8, 0:64] : (tensor<2x8x64xf32>) -> tensor<1x8x64xf32> loc(#loc163)
    %152 = stablehlo.select %140, %150, %151 : tensor<1x8x64xi1>, tensor<1x8x64xf32> loc(#loc164)
    %153 = "stablehlo.gather"(%152, %131) <{dimension_numbers = #stablehlo.gather<offset_dims = [1, 2], collapsed_slice_dims = [0], start_index_map = [0], index_vector_dim = 1>, slice_sizes = array<i64: 1, 8, 64>}> : (tensor<1x8x64xf32>, tensor<2x1xi64>) -> tensor<2x8x64xf32> loc(#loc165)
    %154 = stablehlo.select %136, %cst_0, %153 : tensor<2x8x64xi1>, tensor<2x8x64xf32> loc(#loc166)
    %155 = stablehlo.select %135, %154, %arg8 : tensor<2x8x64xi1>, tensor<2x8x64xf32> loc(#loc167)
    %156 = stablehlo.add %49, %51 : tensor<1x4x64xf32> loc(#loc168)
    %157 = "stablehlo.gather"(%156, %148) <{dimension_numbers = #stablehlo.gather<offset_dims = [0, 2], collapsed_slice_dims = [1], start_index_map = [1], index_vector_dim = 1>, slice_sizes = array<i64: 1, 1, 64>}> : (tensor<1x4x64xf32>, tensor<8x1xi64>) -> tensor<1x8x64xf32> loc(#loc169)
    %158 = stablehlo.select %143, %cst, %157 : tensor<1x8x64xi1>, tensor<1x8x64xf32> loc(#loc170)
    %159 = stablehlo.slice %arg9 [0:1, 0:8, 0:64] : (tensor<2x8x64xf32>) -> tensor<1x8x64xf32> loc(#loc171)
    %160 = stablehlo.select %140, %158, %159 : tensor<1x8x64xi1>, tensor<1x8x64xf32> loc(#loc172)
    %161 = "stablehlo.gather"(%160, %131) <{dimension_numbers = #stablehlo.gather<offset_dims = [1, 2], collapsed_slice_dims = [0], start_index_map = [0], index_vector_dim = 1>, slice_sizes = array<i64: 1, 8, 64>}> : (tensor<1x8x64xf32>, tensor<2x1xi64>) -> tensor<2x8x64xf32> loc(#loc173)
    %162 = stablehlo.select %136, %cst_0, %161 : tensor<2x8x64xi1>, tensor<2x8x64xf32> loc(#loc174)
    %163 = stablehlo.select %135, %162, %arg9 : tensor<2x8x64xi1>, tensor<2x8x64xf32> loc(#loc175)
    return %134, %155, %163 : tensor<2x8x32xbf16>, tensor<2x8x64xf32>, tensor<2x8x64xf32> loc(#loc)
  } loc(#loc)
} loc(#loc)
#loc = loc(unknown)
#loc11 = loc("broadcast.472")
#loc12 = loc("and.475")
#loc13 = loc("reshape.476")
#loc14 = loc("broadcast.485")
#loc15 = loc("not.477")
#loc16 = loc("reshape.479")
#loc17 = loc("broadcast.480")
#loc18 = loc("broadcast.442")
#loc19 = loc("and.445")
#loc20 = loc("reshape.446")
#loc21 = loc("reshape.454")
#loc22 = loc("broadcast.455")
#loc23 = loc("not.447")
#loc24 = loc("reshape.449")
#loc25 = loc("broadcast.450")
#loc26 = loc("broadcast.417")
#loc27 = loc("and.420")
#loc28 = loc("reshape.421")
#loc29 = loc("reshape.333")
#loc30 = loc("and.262")
#loc31 = loc("reshape.263")
#loc32 = loc("reshape.271")
#loc33 = loc("broadcast.272")
#loc34 = loc("not.264")
#loc35 = loc("reshape.266")
#loc36 = loc("broadcast.267")
#loc37 = loc("convert.117")
#loc38 = loc("reshape.238")
#loc39 = loc("reshape.234")
#loc40 = loc("reshape.236")
#loc41 = loc("transpose.237")
#loc42 = loc("dot.239")
#loc43 = loc("reshape.240")
#loc44 = loc("reshape.241")
#loc45 = loc("slice.242")
#loc46 = loc("floor.216")
#loc47 = loc("convert.217")
#loc48 = loc("clamp.220")
#loc49 = loc("compare.229")
#loc50 = loc("add.226")
#loc51 = loc("select.230")
#loc52 = loc("reshape.231")
#loc53 = loc("gather.245")
#loc54 = loc("select.268")
#loc55 = loc("select.273")
#loc56 = loc("reshape.111")
#loc57 = loc("reshape.113")
#loc58 = loc("transpose.114")
#loc59 = loc("dot.119")
#loc60 = loc("reshape.120")
#loc61 = loc("reshape.121")
#loc62 = loc("reshape.107")
#loc63 = loc("broadcast.124")
#loc64 = loc("add.125")
#loc65 = loc("slice.126")
#loc66 = loc("gather.129")
#loc67 = loc("select.153")
#loc68 = loc("select.158")
#loc69 = loc("reduce.185")
#loc70 = loc("broadcast.186")
#loc71 = loc("subtract.187")
#loc72 = loc("exponential.188")
#loc73 = loc("reduce.194")
#loc74 = loc("broadcast.195")
#loc75 = loc("divide.196")
#loc76 = loc("multiply.295")
#loc77 = loc("reduce.302")
#loc78 = loc("convert.303")
#loc79 = loc("convert.304")
#loc80 = loc("power.306")
#loc81 = loc("reduce.313")
#loc82 = loc("multiply.322")
#loc83 = loc("reshape.323")
#loc84 = loc("add.327")
#loc85 = loc("rsqrt.328")
#loc86 = loc("reshape.329")
#loc87 = loc("broadcast.330")
#loc88 = loc("multiply.331")
#loc89 = loc("multiply.337")
#loc90 = loc("convert.338")
#loc91 = loc("slice.376")
#loc92 = loc("convert.377")
#loc93 = loc("reshape.378")
#loc94 = loc("slice.384")
#loc95 = loc("reshape.385")
#loc96 = loc("slice.372")
#loc97 = loc("reshape.373")
#loc98 = loc("slice.374")
#loc99 = loc("reshape.375")
#loc100 = loc("multiply.393")
#loc101 = loc("slice.379")
#loc102 = loc("reshape.380")
#loc103 = loc("slice.382")
#loc104 = loc("reshape.383")
#loc105 = loc("multiply.392")
#loc106 = loc("subtract.396")
#loc107 = loc("reshape.397")
#loc108 = loc("multiply.386")
#loc109 = loc("multiply.381")
#loc110 = loc("add.389")
#loc111 = loc("reshape.390")
#loc112 = loc("concatenate.398")
#loc113 = loc("reshape.399")
#loc114 = loc("convert.400")
#loc115 = loc("floor.352")
#loc116 = loc("convert.353")
#loc117 = loc("clamp.356")
#loc118 = loc("compare.365")
#loc119 = loc("add.362")
#loc120 = loc("select.366")
#loc121 = loc("reshape.367")
#loc122 = loc("gather.403")
#loc123 = loc("select.424")
#loc124 = loc("not.422")
#loc125 = loc("select.425")
#loc126 = loc("floor.49")
#loc127 = loc("convert.50")
#loc128 = loc("clamp.53")
#loc129 = loc("compare.62")
#loc130 = loc("add.59")
#loc131 = loc("select.63")
#loc132 = loc("reshape.64")
#loc133 = loc("gather.428")
#loc134 = loc("select.451")
#loc135 = loc("slice.34")
#loc136 = loc("select.456")
#loc137 = loc("floor.17")
#loc138 = loc("convert.18")
#loc139 = loc("clamp.21")
#loc140 = loc("compare.30")
#loc141 = loc("add.27")
#loc142 = loc("select.31")
#loc143 = loc("reshape.32")
#loc144 = loc("gather.458")
#loc145 = loc("select.481")
#loc146 = loc("select.486")
#loc147 = loc("broadcast.611")
#loc148 = loc("broadcast.606")
#loc149 = loc("and.571")
#loc150 = loc("reshape.572")
#loc151 = loc("reshape.580")
#loc152 = loc("broadcast.581")
#loc153 = loc("not.573")
#loc154 = loc("reshape.575")
#loc155 = loc("broadcast.576")
#loc156 = loc("clamp.539")
#loc157 = loc("compare.548")
#loc158 = loc("add.545")
#loc159 = loc("select.549")
#loc160 = loc("reshape.550")
#loc161 = loc("gather.554")
#loc162 = loc("select.577")
#loc163 = loc("slice.520")
#loc164 = loc("select.582")
#loc165 = loc("gather.584")
#loc166 = loc("select.607")
#loc167 = loc("select.612")
#loc168 = loc("add.682")
#loc169 = loc("gather.685")
#loc170 = loc("select.708")
#loc171 = loc("slice.646")
#loc172 = loc("select.713")
#loc173 = loc("gather.715")
#loc174 = loc("select.738")
#loc175 = loc("select.743")
#loc176 = loc(fused[#loc123, #loc124])
------------------ END OF MLIR MODULE ------------------
2026-04-25 16:07:38.289 (   3.893s) [        1B754740]      module_builder.cc:1220     1| MLIR Module shlo_compiler:
#loc1 = loc("p0.1")
#loc2 = loc("p1.106")
#loc3 = loc("p2.110")
#loc4 = loc("p3.115")
#loc5 = loc("p4.140")
#loc6 = loc("p5.233")
#loc7 = loc("p6.332")
#loc8 = loc("p7.370")
#loc9 = loc("p8.487")
#loc10 = loc("p9.613")
module @SyncTensorsGraph.745 attributes {mhlo.cross_program_prefetches = [], mhlo.input_output_alias = [], mhlo.is_dynamic = false, mhlo.use_auto_spmd_partitioning = false} {
  sdy.mesh @mesh = <["x"=1, "y"=1]> loc(#loc)
  func.func @main(%arg0: tensor<2x8x32xbf16> {ttcore.argument_type = #ttcore.argument_type<input>, ttcore.local_shape = #ttcore<local_shape local_shape = tensor<2x8x32xbf16>>, ttcore.shard_status = #ttcore.shard_status<unsharded>, ttir.name = "compressor.kv_cache"} loc("p0.1"), %arg1: tensor<4x64xf32> {ttcore.argument_type = #ttcore.argument_type<parameter>, ttcore.local_shape = #ttcore<local_shape local_shape = tensor<4x64xf32>>, ttcore.shard_status = #ttcore.shard_status<unsharded>, ttir.name = "compressor.ape"} loc("p1.106"), %arg2: tensor<64x128xf32> {ttcore.argument_type = #ttcore.argument_type<parameter>, ttcore.local_shape = #ttcore<local_shape local_shape = tensor<64x128xf32>>, ttcore.shard_status = #ttcore.shard_status<unsharded>, ttir.name = "compressor.wgate.weight"} loc("p2.110"), %arg3: tensor<1x4x128xbf16> {ttcore.argument_type = #ttcore.argument_type<input>, ttcore.local_shape = #ttcore<local_shape local_shape = tensor<1x4x128xbf16>>, ttcore.shard_status = #ttcore.shard_status<unsharded>, ttir.name = "args_0"} loc("p3.115"), %arg4: tensor<i1> {ttcore.argument_type = #ttcore.argument_type<input>, ttcore.local_shape = #ttcore<local_shape local_shape = tensor<i1>>, ttcore.shard_status = #ttcore.shard_status<unsharded>} loc("p4.140"), %arg5: tensor<64x128xf32> {ttcore.argument_type = #ttcore.argument_type<parameter>, ttcore.local_shape = #ttcore<local_shape local_shape = tensor<64x128xf32>>, ttcore.shard_status = #ttcore.shard_status<unsharded>, ttir.name = "compressor.wkv.weight"} loc("p5.233"), %arg6: tensor<32xf32> {ttcore.argument_type = #ttcore.argument_type<parameter>, ttcore.local_shape = #ttcore<local_shape local_shape = tensor<32xf32>>, ttcore.shard_status = #ttcore.shard_status<unsharded>, ttir.name = "compressor.norm.weight"} loc("p6.332"), %arg7: tensor<32x8x2xf32> {ttcore.argument_type = #ttcore.argument_type<constant>, ttcore.local_shape = #ttcore<local_shape local_shape = tensor<32x8x2xf32>>, ttcore.shard_status = #ttcore.shard_status<unsharded>, ttir.name = "compressor.freqs_cis"} loc("p7.370"), %arg8: tensor<2x8x64xf32> {ttcore.argument_type = #ttcore.argument_type<input>, ttcore.local_shape = #ttcore<local_shape local_shape = tensor<2x8x64xf32>>, ttcore.shard_status = #ttcore.shard_status<unsharded>, ttir.name = "compressor.kv_state"} loc("p8.487"), %arg9: tensor<2x8x64xf32> {ttcore.argument_type = #ttcore.argument_type<input>, ttcore.local_shape = #ttcore<local_shape local_shape = tensor<2x8x64xf32>>, ttcore.shard_status = #ttcore.shard_status<unsharded>, ttir.name = "compressor.score_state"} loc("p9.613")) -> (tensor<2x8x32xbf16> {ttcore.local_shape = #ttcore<local_shape local_shape = tensor<2x8x32xbf16>>, ttcore.shard_status = #ttcore.shard_status<presharded>}, tensor<2x8x64xf32> {ttcore.local_shape = #ttcore<local_shape local_shape = tensor<2x8x64xf32>>, ttcore.shard_status = #ttcore.shard_status<presharded>}, tensor<2x8x64xf32> {ttcore.local_shape = #ttcore<local_shape local_shape = tensor<2x8x64xf32>>, ttcore.shard_status = #ttcore.shard_status<presharded>}) {
    %cst = stablehlo.constant dense<0.000000e+00> : tensor<1x8x64xf32> loc(#loc)
    %c = stablehlo.constant dense<[true, true, true, true, false, false, false, false]> : tensor<8xi1> loc(#loc)
    %cst_0 = stablehlo.constant dense<0.000000e+00> : tensor<2x8x64xf32> loc(#loc)
    %c_1 = stablehlo.constant dense<1> : tensor<2xi64> loc(#loc)
    %cst_2 = stablehlo.constant dense<[0.000000e+00, 1.000000e+00]> : tensor<2xf32> loc(#loc)
    %c_3 = stablehlo.constant dense<0> : tensor<2xi64> loc(#loc)
    %c_4 = stablehlo.constant dense<1> : tensor<8xi64> loc(#loc)
    %cst_5 = stablehlo.constant dense<[0.000000e+00, 1.000000e+00, 2.000000e+00, 3.000000e+00, 4.000000e+00, 5.000000e+00, 6.000000e+00, 7.000000e+00]> : tensor<8xf32> loc(#loc)
    %c_6 = stablehlo.constant dense<16> : tensor<32xi64> loc(#loc)
    %c_7 = stablehlo.constant dense<15> : tensor<32xi64> loc(#loc)
    %cst_8 = stablehlo.constant dense<[… > : tensor<32xf32> loc(#loc)
    %c_9 = stablehlo.constant dense<0> : tensor<32xi64> loc(#loc)
    %cst_10 = stablehlo.constant dense<9.99999997E-7> : tensor<1x1x1xf32> loc(#loc)
    %cst_11 = stablehlo.constant dense<3.125000e-02> : tensor<1x1xf32> loc(#loc)
    %cst_12 = stablehlo.constant dense<2.000000e+00> : tensor<1x1x32xf32> loc(#loc)
    %cst_13 = stablehlo.constant dense<0xFF800000> : tensor<1x1x8x32xf32> loc(#loc)
    %c_14 = stablehlo.constant dense<4> : tensor<8xi64> loc(#loc)
    %c_15 = stablehlo.constant dense<3> : tensor<8xi64> loc(#loc)
    %cst_16 = stablehlo.constant dense<[-4.000000e+00, -3.000000e+00, -2.000000e+00, -1.000000e+00, 0.000000e+00, 1.000000e+00, 2.000000e+00, 3.000000e+00]> : tensor<8xf32> loc(#loc)
    %c_17 = stablehlo.constant dense<0> : tensor<8xi64> loc(#loc)
    %cst_18 = stablehlo.constant dense<0.000000e+00> : tensor<1x1x8x32xf32> loc(#loc)
    %c_19 = stablehlo.constant dense<[false, false, false, false, true, true, true, true]> : tensor<8xi1> loc(#loc)
    %cst_20 = stablehlo.constant dense<0.000000e+00> : tensor<1x1x32xbf16> loc(#loc)
    %c_21 = stablehlo.constant dense<[false, false, false, false, false, false, false, false, false, false, false, false, false, false, false, false, true, true, true, true, true, true, true, true, true, true, true, true, true, true, true, true]> : tensor<32xi1> loc(#loc)
    %cst_22 = stablehlo.constant dense<0.000000e+00> : tensor<1x8x32xbf16> loc(#loc)
    %c_23 = stablehlo.constant dense<[true, false, false, false, false, false, false, false]> : tensor<8xi1> loc(#loc)
    %cst_24 = stablehlo.constant dense<0.000000e+00> : tensor<2x8x32xbf16> loc(#loc)
    %c_25 = stablehlo.constant dense<[true, false]> : tensor<2xi1> loc(#loc)
    %cst_26 = stablehlo.constant dense<0xFF800000> : tensor<f32> loc(#loc)
    %cst_27 = stablehlo.constant dense<0.000000e+00> : tensor<f32> loc(#loc)
    %0 = stablehlo.broadcast_in_dim %arg4, dims = [] : (tensor<i1>) -> tensor<2xi1> loc(#loc11)
    %1 = stablehlo.and %0, %c_25 : tensor<2xi1> loc(#loc12)
    %2 = stablehlo.reshape %1 : (tensor<2xi1>) -> tensor<2x1x1xi1> loc(#loc13)
    %3 = stablehlo.broadcast_in_dim %1, dims = [0] : (tensor<2xi1>) -> tensor<2x8x32xi1> loc(#loc14)
    %4 = stablehlo.not %2 : tensor<2x1x1xi1> loc(#loc15)
    %5 = stablehlo.reshape %4 : (tensor<2x1x1xi1>) -> tensor<2xi1> loc(#loc16)
    %6 = stablehlo.broadcast_in_dim %5, dims = [0] : (tensor<2xi1>) -> tensor<2x8x32xi1> loc(#loc17)
    %7 = stablehlo.broadcast_in_dim %arg4, dims = [] : (tensor<i1>) -> tensor<8xi1> loc(#loc18)
    %8 = stablehlo.and %7, %c_23 : tensor<8xi1> loc(#loc19)
    %9 = stablehlo.reshape %8 : (tensor<8xi1>) -> tensor<1x8x1xi1> loc(#loc20)
    %10 = stablehlo.reshape %8 : (tensor<8xi1>) -> tensor<1x8xi1> loc(#loc21)
    %11 = stablehlo.broadcast_in_dim %10, dims = [0, 1] : (tensor<1x8xi1>) -> tensor<1x8x32xi1> loc(#loc22)
    %12 = stablehlo.not %9 : tensor<1x8x1xi1> loc(#loc23)
    %13 = stablehlo.reshape %12 : (tensor<1x8x1xi1>) -> tensor<1x8xi1> loc(#loc24)
    %14 = stablehlo.broadcast_in_dim %13, dims = [0, 1] : (tensor<1x8xi1>) -> tensor<1x8x32xi1> loc(#loc25)
    %15 = stablehlo.broadcast_in_dim %arg4, dims = [] : (tensor<i1>) -> tensor<32xi1> loc(#loc26)
    %16 = stablehlo.and %15, %c_21 : tensor<32xi1> loc(#loc27)
    %17 = stablehlo.reshape %16 : (tensor<32xi1>) -> tensor<1x1x32xi1> loc(#loc28)
    %18 = stablehlo.reshape %arg6 : (tensor<32xf32>) -> tensor<1x1x32xf32> loc(#loc29)
    %19 = stablehlo.and %7, %c_19 : tensor<8xi1> loc(#loc30)
    %20 = stablehlo.reshape %19 : (tensor<8xi1>) -> tensor<1x1x8x1xi1> loc(#loc31)
    %21 = stablehlo.reshape %19 : (tensor<8xi1>) -> tensor<1x1x8xi1> loc(#loc32)
    %22 = stablehlo.broadcast_in_dim %21, dims = [0, 1, 2] : (tensor<1x1x8xi1>) -> tensor<1x1x8x32xi1> loc(#loc33)
    %23 = stablehlo.not %20 : tensor<1x1x8x1xi1> loc(#loc34)
    %24 = stablehlo.reshape %23 : (tensor<1x1x8x1xi1>) -> tensor<1x1x8xi1> loc(#loc35)
    %25 = stablehlo.broadcast_in_dim %24, dims = [0, 1, 2] : (tensor<1x1x8xi1>) -> tensor<1x1x8x32xi1> loc(#loc36)
    %26 = stablehlo.convert %arg3 : (tensor<1x4x128xbf16>) -> tensor<1x4x128xf32> loc(#loc37)
    %27 = stablehlo.reshape %26 : (tensor<1x4x128xf32>) -> tensor<4x128xf32> loc(#loc38)
    %28 = stablehlo.reshape %arg5 : (tensor<64x128xf32>) -> tensor<1x64x128xf32> loc(#loc39)
    %29 = stablehlo.reshape %28 : (tensor<1x64x128xf32>) -> tensor<64x128xf32> loc(#loc40)
    %30 = stablehlo.transpose %29, dims = [1, 0] {result_layout = dense<[0, 1]> : tensor<2xindex>, xla_shape = "f32[128,64]{0,1}"} : (tensor<64x128xf32>) -> tensor<128x64xf32> loc(#loc41)
    %31 = stablehlo.dot_general %27, %30, contracting_dims = [1] x [0] : (tensor<4x128xf32>, tensor<128x64xf32>) -> tensor<4x64xf32> loc(#loc42)
    %32 = stablehlo.reshape %31 : (tensor<4x64xf32>) -> tensor<1x4x64xf32> loc(#loc43)
    %33 = stablehlo.reshape %31 : (tensor<4x64xf32>) -> tensor<1x1x4x64xf32> loc(#loc44)
    %34 = stablehlo.slice %33 [0:1, 0:1, 0:4, 32:64] : (tensor<1x1x4x64xf32>) -> tensor<1x1x4x32xf32> loc(#loc45)
    %35 = stablehlo.floor %cst_16 : tensor<8xf32> loc(#loc46)
    %36 = stablehlo.convert %35 : (tensor<8xf32>) -> tensor<8xi64> loc(#loc47)
    %37 = stablehlo.clamp %c_17, %36, %c_15 : tensor<8xi64> loc(#loc48)
    %38 = stablehlo.compare  LT, %37, %c_17 : (tensor<8xi64>, tensor<8xi64>) -> tensor<8xi1> loc(#loc49)
    %39 = stablehlo.add %37, %c_14 : tensor<8xi64> loc(#loc50)
    %40 = stablehlo.select %38, %39, %37 : tensor<8xi1>, tensor<8xi64> loc(#loc51)
    %41 = stablehlo.reshape %40 : (tensor<8xi64>) -> tensor<8x1xi64> loc(#loc52)
    %42 = "stablehlo.gather"(%34, %41) <{dimension_numbers = #stablehlo.gather<offset_dims = [0, 1, 3], collapsed_slice_dims = [2], start_index_map = [2], index_vector_dim = 1>, slice_sizes = array<i64: 1, 1, 1, 32>}> : (tensor<1x1x4x32xf32>, tensor<8x1xi64>) -> tensor<1x1x8x32xf32> loc(#loc53)
    %43 = stablehlo.select %25, %cst_18, %42 : tensor<1x1x8x32xi1>, tensor<1x1x8x32xf32> loc(#loc54)
    %44 = stablehlo.select %22, %43, %cst_18 : tensor<1x1x8x32xi1>, tensor<1x1x8x32xf32> loc(#loc55)
    %45 = stablehlo.reshape %arg2 : (tensor<64x128xf32>) -> tensor<1x64x128xf32> loc(#loc56)
    %46 = stablehlo.reshape %45 : (tensor<1x64x128xf32>) -> tensor<64x128xf32> loc(#loc57)
    %47 = stablehlo.transpose %46, dims = [1, 0] {result_layout = dense<[0, 1]> : tensor<2xindex>, xla_shape = "f32[128,64]{0,1}"} : (tensor<64x128xf32>) -> tensor<128x64xf32> loc(#loc58)
    %48 = stablehlo.dot_general %27, %47, contracting_dims = [1] x [0] : (tensor<4x128xf32>, tensor<128x64xf32>) -> tensor<4x64xf32> loc(#loc59)
    %49 = stablehlo.reshape %48 : (tensor<4x64xf32>) -> tensor<1x4x64xf32> loc(#loc60)
    %50 = stablehlo.reshape %48 : (tensor<4x64xf32>) -> tensor<1x1x4x64xf32> loc(#loc61)
    %51 = stablehlo.reshape %arg1 : (tensor<4x64xf32>) -> tensor<1x4x64xf32> loc(#loc62)
    %52 = stablehlo.reshape %51 : (tensor<1x4x64xf32>) -> tensor<1x1x4x64xf32> loc(#loc63)
    %53 = stablehlo.add %50, %52 : tensor<1x1x4x64xf32> loc(#loc64)
    %54 = stablehlo.slice %53 [0:1, 0:1, 0:4, 32:64] : (tensor<1x1x4x64xf32>) -> tensor<1x1x4x32xf32> loc(#loc65)
    %55 = "stablehlo.gather"(%54, %41) <{dimension_numbers = #stablehlo.gather<offset_dims = [0, 1, 3], collapsed_slice_dims = [2], start_index_map = [2], index_vector_dim = 1>, slice_sizes = array<i64: 1, 1, 1, 32>}> : (tensor<1x1x4x32xf32>, tensor<8x1xi64>) -> tensor<1x1x8x32xf32> loc(#loc66)
    %56 = stablehlo.select %25, %cst_18, %55 : tensor<1x1x8x32xi1>, tensor<1x1x8x32xf32> loc(#loc67)
    %57 = stablehlo.select %22, %56, %cst_13 : tensor<1x1x8x32xi1>, tensor<1x1x8x32xf32> loc(#loc68)
    %58 = stablehlo.reduce(%57 init: %cst_26) applies stablehlo.maximum across dimensions = [2] : (tensor<1x1x8x32xf32>, tensor<f32>) -> tensor<1x1x32xf32> loc(#loc69)
    %59 = stablehlo.broadcast_in_dim %58, dims = [0, 1, 3] : (tensor<1x1x32xf32>) -> tensor<1x1x8x32xf32> loc(#loc70)
    %60 = stablehlo.subtract %57, %59 : tensor<1x1x8x32xf32> loc(#loc71)
    %61 = stablehlo.exponential %60 : tensor<1x1x8x32xf32> loc(#loc72)
    %62 = stablehlo.reduce(%61 init: %cst_27) applies stablehlo.add across dimensions = [2] : (tensor<1x1x8x32xf32>, tensor<f32>) -> tensor<1x1x32xf32> loc(#loc73)
    %63 = stablehlo.broadcast_in_dim %62, dims = [0, 1, 3] : (tensor<1x1x32xf32>) -> tensor<1x1x8x32xf32> loc(#loc74)
    %64 = stablehlo.divide %61, %63 : tensor<1x1x8x32xf32> loc(#loc75)
    %65 = stablehlo.multiply %44, %64 : tensor<1x1x8x32xf32> loc(#loc76)
    %66 = stablehlo.reduce(%65 init: %cst_27) applies stablehlo.add across dimensions = [2] : (tensor<1x1x8x32xf32>, tensor<f32>) -> tensor<1x1x32xf32> loc(#loc77)
    %67 = stablehlo.convert %66 : (tensor<1x1x32xf32>) -> tensor<1x1x32xbf16> loc(#loc78)
    %68 = stablehlo.convert %67 : (tensor<1x1x32xbf16>) -> tensor<1x1x32xf32> loc(#loc79)
    %69 = stablehlo.power %68, %cst_12 : tensor<1x1x32xf32> loc(#loc80)
    %70 = stablehlo.reduce(%69 init: %cst_27) applies stablehlo.add across dimensions = [2] : (tensor<1x1x32xf32>, tensor<f32>) -> tensor<1x1xf32> loc(#loc81)
    %71 = stablehlo.multiply %70, %cst_11 : tensor<1x1xf32> loc(#loc82)
    %72 = stablehlo.reshape %71 : (tensor<1x1xf32>) -> tensor<1x1x1xf32> loc(#loc83)
    %73 = stablehlo.add %72, %cst_10 : tensor<1x1x1xf32> loc(#loc84)
    %74 = stablehlo.rsqrt %73 : tensor<1x1x1xf32> loc(#loc85)
    %75 = stablehlo.reshape %74 : (tensor<1x1x1xf32>) -> tensor<1x1xf32> loc(#loc86)
    %76 = stablehlo.broadcast_in_dim %75, dims = [0, 1] : (tensor<1x1xf32>) -> tensor<1x1x32xf32> loc(#loc87)
    %77 = stablehlo.multiply %68, %76 : tensor<1x1x32xf32> loc(#loc88)
    %78 = stablehlo.multiply %18, %77 : tensor<1x1x32xf32> loc(#loc89)
    %79 = stablehlo.convert %78 : (tensor<1x1x32xf32>) -> tensor<1x1x32xbf16> loc(#loc90)
    %80 = stablehlo.slice %79 [0:1, 0:1, 16:32] : (tensor<1x1x32xbf16>) -> tensor<1x1x16xbf16> loc(#loc91)
    %81 = stablehlo.convert %80 : (tensor<1x1x16xbf16>) -> tensor<1x1x16xf32> loc(#loc92)
    %82 = stablehlo.reshape %81 : (tensor<1x1x16xf32>) -> tensor<1x1x8x2xf32> loc(#loc93)
    %83 = stablehlo.slice %82 [0:1, 0:1, 0:8, 0:1] : (tensor<1x1x8x2xf32>) -> tensor<1x1x8x1xf32> loc(#loc94)
    %84 = stablehlo.reshape %83 : (tensor<1x1x8x1xf32>) -> tensor<1x1x8xf32> loc(#loc95)
    %85 = stablehlo.slice %arg7 [0:4:4, 0:8, 0:2] : (tensor<32x8x2xf32>) -> tensor<1x8x2xf32> loc(#loc96)
    %86 = stablehlo.reshape %85 : (tensor<1x8x2xf32>) -> tensor<1x1x8x2xf32> loc(#loc97)
    %87 = stablehlo.slice %86 [0:1, 0:1, 0:8, 0:1] : (tensor<1x1x8x2xf32>) -> tensor<1x1x8x1xf32> loc(#loc98)
    %88 = stablehlo.reshape %87 : (tensor<1x1x8x1xf32>) -> tensor<1x1x8xf32> loc(#loc99)
    %89 = stablehlo.multiply %84, %88 : tensor<1x1x8xf32> loc(#loc100)
    %90 = stablehlo.slice %82 [0:1, 0:1, 0:8, 1:2] : (tensor<1x1x8x2xf32>) -> tensor<1x1x8x1xf32> loc(#loc101)
    %91 = stablehlo.reshape %90 : (tensor<1x1x8x1xf32>) -> tensor<1x1x8xf32> loc(#loc102)
    %92 = stablehlo.slice %86 [0:1, 0:1, 0:8, 1:2] : (tensor<1x1x8x2xf32>) -> tensor<1x1x8x1xf32> loc(#loc103)
    %93 = stablehlo.reshape %92 : (tensor<1x1x8x1xf32>) -> tensor<1x1x8xf32> loc(#loc104)
    %94 = stablehlo.multiply %91, %93 : tensor<1x1x8xf32> loc(#loc105)
    %95 = stablehlo.subtract %89, %94 : tensor<1x1x8xf32> loc(#loc106)
    %96 = stablehlo.reshape %95 : (tensor<1x1x8xf32>) -> tensor<1x1x8x1xf32> loc(#loc107)
    %97 = stablehlo.multiply %84, %93 : tensor<1x1x8xf32> loc(#loc108)
    %98 = stablehlo.multiply %91, %88 : tensor<1x1x8xf32> loc(#loc109)
    %99 = stablehlo.add %97, %98 : tensor<1x1x8xf32> loc(#loc110)
    %100 = stablehlo.reshape %99 : (tensor<1x1x8xf32>) -> tensor<1x1x8x1xf32> loc(#loc111)
    %101 = stablehlo.concatenate %96, %100, dim = 3 : (tensor<1x1x8x1xf32>, tensor<1x1x8x1xf32>) -> tensor<1x1x8x2xf32> loc(#loc112)
    %102 = stablehlo.reshape %101 : (tensor<1x1x8x2xf32>) -> tensor<1x1x16xf32> loc(#loc113)
    %103 = stablehlo.convert %102 : (tensor<1x1x16xf32>) -> tensor<1x1x16xbf16> loc(#loc114)
    %104 = stablehlo.floor %cst_8 : tensor<32xf32> loc(#loc115)
    %105 = stablehlo.convert %104 : (tensor<32xf32>) -> tensor<32xi64> loc(#loc116)
    %106 = stablehlo.clamp %c_9, %105, %c_7 : tensor<32xi64> loc(#loc117)
    %107 = stablehlo.compare  LT, %106, %c_9 : (tensor<32xi64>, tensor<32xi64>) -> tensor<32xi1> loc(#loc118)
    %108 = stablehlo.add %106, %c_6 : tensor<32xi64> loc(#loc119)
    %109 = stablehlo.select %107, %108, %106 : tensor<32xi1>, tensor<32xi64> loc(#loc120)
    %110 = stablehlo.reshape %109 : (tensor<32xi64>) -> tensor<32x1xi64> loc(#loc121)
    %111 = "stablehlo.gather"(%103, %110) <{dimension_numbers = #stablehlo.gather<offset_dims = [0, 1], collapsed_slice_dims = [2], start_index_map = [2], index_vector_dim = 1>, slice_sizes = array<i64: 1, 1, 1>}> : (tensor<1x1x16xbf16>, tensor<32x1xi64>) -> tensor<1x1x32xbf16> loc(#loc122)
    %112 = stablehlo.select %17, %111, %cst_20 : tensor<1x1x32xi1>, tensor<1x1x32xbf16> loc(#loc176)
    %113 = stablehlo.select %17, %112, %79 : tensor<1x1x32xi1>, tensor<1x1x32xbf16> loc(#loc125)
    %114 = stablehlo.floor %cst_5 : tensor<8xf32> loc(#loc126)
    %115 = stablehlo.convert %114 : (tensor<8xf32>) -> tensor<8xi64> loc(#loc127)
    %116 = stablehlo.clamp %c_17, %115, %c_17 : tensor<8xi64> loc(#loc128)
    %117 = stablehlo.compare  LT, %116, %c_17 : (tensor<8xi64>, tensor<8xi64>) -> tensor<8xi1> loc(#loc129)
    %118 = stablehlo.add %116, %c_4 : tensor<8xi64> loc(#loc130)
    %119 = stablehlo.select %117, %118, %116 : tensor<8xi1>, tensor<8xi64> loc(#loc131)
    %120 = stablehlo.reshape %119 : (tensor<8xi64>) -> tensor<8x1xi64> loc(#loc132)
    %121 = "stablehlo.gather"(%113, %120) <{dimension_numbers = #stablehlo.gather<offset_dims = [0, 2], collapsed_slice_dims = [1], start_index_map = [1], index_vector_dim = 1>, slice_sizes = array<i64: 1, 1, 32>}> : (tensor<1x1x32xbf16>, tensor<8x1xi64>) -> tensor<1x8x32xbf16> loc(#loc133)
    %122 = stablehlo.select %14, %cst_22, %121 : tensor<1x8x32xi1>, tensor<1x8x32xbf16> loc(#loc134)
    %123 = stablehlo.slice %arg0 [0:1, 0:8, 0:32] : (tensor<2x8x32xbf16>) -> tensor<1x8x32xbf16> loc(#loc135)
    %124 = stablehlo.select %11, %122, %123 : tensor<1x8x32xi1>, tensor<1x8x32xbf16> loc(#loc136)
    %125 = stablehlo.floor %cst_2 : tensor<2xf32> loc(#loc137)
    %126 = stablehlo.convert %125 : (tensor<2xf32>) -> tensor<2xi64> loc(#loc138)
    %127 = stablehlo.clamp %c_3, %126, %c_3 : tensor<2xi64> loc(#loc139)
    %128 = stablehlo.compare  LT, %127, %c_3 : (tensor<2xi64>, tensor<2xi64>) -> tensor<2xi1> loc(#loc140)
    %129 = stablehlo.add %127, %c_1 : tensor<2xi64> loc(#loc141)
    %130 = stablehlo.select %128, %129, %127 : tensor<2xi1>, tensor<2xi64> loc(#loc142)
    %131 = stablehlo.reshape %130 : (tensor<2xi64>) -> tensor<2x1xi64> loc(#loc143)
    %132 = "stablehlo.gather"(%124, %131) <{dimension_numbers = #stablehlo.gather<offset_dims = [1, 2], collapsed_slice_dims = [0], start_index_map = [0], index_vector_dim = 1>, slice_sizes = array<i64: 1, 8, 32>}> : (tensor<1x8x32xbf16>, tensor<2x1xi64>) -> tensor<2x8x32xbf16> loc(#loc144)
    %133 = stablehlo.select %6, %cst_24, %132 : tensor<2x8x32xi1>, tensor<2x8x32xbf16> loc(#loc145)
    %134 = stablehlo.select %3, %133, %arg0 : tensor<2x8x32xi1>, tensor<2x8x32xbf16> loc(#loc146)
    %135 = stablehlo.broadcast_in_dim %1, dims = [0] : (tensor<2xi1>) -> tensor<2x8x64xi1> loc(#loc147)
    %136 = stablehlo.broadcast_in_dim %5, dims = [0] : (tensor<2xi1>) -> tensor<2x8x64xi1> loc(#loc148)
    %137 = stablehlo.and %7, %c : tensor<8xi1> loc(#loc149)
    %138 = stablehlo.reshape %137 : (tensor<8xi1>) -> tensor<1x8x1xi1> loc(#loc150)
    %139 = stablehlo.reshape %137 : (tensor<8xi1>) -> tensor<1x8xi1> loc(#loc151)
    %140 = stablehlo.broadcast_in_dim %139, dims = [0, 1] : (tensor<1x8xi1>) -> tensor<1x8x64xi1> loc(#loc152)
    %141 = stablehlo.not %138 : tensor<1x8x1xi1> loc(#loc153)
    %142 = stablehlo.reshape %141 : (tensor<1x8x1xi1>) -> tensor<1x8xi1> loc(#loc154)
    %143 = stablehlo.broadcast_in_dim %142, dims = [0, 1] : (tensor<1x8xi1>) -> tensor<1x8x64xi1> loc(#loc155)
    %144 = stablehlo.clamp %c_17, %115, %c_15 : tensor<8xi64> loc(#loc156)
    %145 = stablehlo.compare  LT, %144, %c_17 : (tensor<8xi64>, tensor<8xi64>) -> tensor<8xi1> loc(#loc157)
    %146 = stablehlo.add %144, %c_14 : tensor<8xi64> loc(#loc158)
    %147 = stablehlo.select %145, %146, %144 : tensor<8xi1>, tensor<8xi64> loc(#loc159)
    %148 = stablehlo.reshape %147 : (tensor<8xi64>) -> tensor<8x1xi64> loc(#loc160)
    %149 = "stablehlo.gather"(%32, %148) <{dimension_numbers = #stablehlo.gather<offset_dims = [0, 2], collapsed_slice_dims = [1], start_index_map = [1], index_vector_dim = 1>, slice_sizes = array<i64: 1, 1, 64>}> : (tensor<1x4x64xf32>, tensor<8x1xi64>) -> tensor<1x8x64xf32> loc(#loc161)
    %150 = stablehlo.select %143, %cst, %149 : tensor<1x8x64xi1>, tensor<1x8x64xf32> loc(#loc162)
    %151 = stablehlo.slice %arg8 [0:1, 0:8, 0:64] : (tensor<2x8x64xf32>) -> tensor<1x8x64xf32> loc(#loc163)
    %152 = stablehlo.select %140, %150, %151 : tensor<1x8x64xi1>, tensor<1x8x64xf32> loc(#loc164)
    %153 = "stablehlo.gather"(%152, %131) <{dimension_numbers = #stablehlo.gather<offset_dims = [1, 2], collapsed_slice_dims = [0], start_index_map = [0], index_vector_dim = 1>, slice_sizes = array<i64: 1, 8, 64>}> : (tensor<1x8x64xf32>, tensor<2x1xi64>) -> tensor<2x8x64xf32> loc(#loc165)
    %154 = stablehlo.select %136, %cst_0, %153 : tensor<2x8x64xi1>, tensor<2x8x64xf32> loc(#loc166)
    %155 = stablehlo.select %135, %154, %arg8 : tensor<2x8x64xi1>, tensor<2x8x64xf32> loc(#loc167)
    %156 = stablehlo.add %49, %51 : tensor<1x4x64xf32> loc(#loc168)
    %157 = "stablehlo.gather"(%156, %148) <{dimension_numbers = #stablehlo.gather<offset_dims = [0, 2], collapsed_slice_dims = [1], start_index_map = [1], index_vector_dim = 1>, slice_sizes = array<i64: 1, 1, 64>}> : (tensor<1x4x64xf32>, tensor<8x1xi64>) -> tensor<1x8x64xf32> loc(#loc169)
    %158 = stablehlo.select %143, %cst, %157 : tensor<1x8x64xi1>, tensor<1x8x64xf32> loc(#loc170)
    %159 = stablehlo.slice %arg9 [0:1, 0:8, 0:64] : (tensor<2x8x64xf32>) -> tensor<1x8x64xf32> loc(#loc171)
    %160 = stablehlo.select %140, %158, %159 : tensor<1x8x64xi1>, tensor<1x8x64xf32> loc(#loc172)
    %161 = "stablehlo.gather"(%160, %131) <{dimension_numbers = #stablehlo.gather<offset_dims = [1, 2], collapsed_slice_dims = [0], start_index_map = [0], index_vector_dim = 1>, slice_sizes = array<i64: 1, 8, 64>}> : (tensor<1x8x64xf32>, tensor<2x1xi64>) -> tensor<2x8x64xf32> loc(#loc173)
    %162 = stablehlo.select %136, %cst_0, %161 : tensor<2x8x64xi1>, tensor<2x8x64xf32> loc(#loc174)
    %163 = stablehlo.select %135, %162, %arg9 : tensor<2x8x64xi1>, tensor<2x8x64xf32> loc(#loc175)
    return %134, %155, %163 : tensor<2x8x32xbf16>, tensor<2x8x64xf32>, tensor<2x8x64xf32> loc(#loc)
  } loc(#loc)
} loc(#loc)
#loc = loc(unknown)
#loc11 = loc("broadcast.472")
#loc12 = loc("and.475")
#loc13 = loc("reshape.476")
#loc14 = loc("broadcast.485")
#loc15 = loc("not.477")
#loc16 = loc("reshape.479")
#loc17 = loc("broadcast.480")
#loc18 = loc("broadcast.442")
#loc19 = loc("and.445")
#loc20 = loc("reshape.446")
#loc21 = loc("reshape.454")
#loc22 = loc("broadcast.455")
#loc23 = loc("not.447")
#loc24 = loc("reshape.449")
#loc25 = loc("broadcast.450")
#loc26 = loc("broadcast.417")
#loc27 = loc("and.420")
#loc28 = loc("reshape.421")
#loc29 = loc("reshape.333")
#loc30 = loc("and.262")
#loc31 = loc("reshape.263")
#loc32 = loc("reshape.271")
#loc33 = loc("broadcast.272")
#loc34 = loc("not.264")
#loc35 = loc("reshape.266")
#loc36 = loc("broadcast.267")
#loc37 = loc("convert.117")
#loc38 = loc("reshape.238")
#loc39 = loc("reshape.234")
#loc40 = loc("reshape.236")
#loc41 = loc("transpose.237")
#loc42 = loc("dot.239")
#loc43 = loc("reshape.240")
#loc44 = loc("reshape.241")
#loc45 = loc("slice.242")
#loc46 = loc("floor.216")
#loc47 = loc("convert.217")
#loc48 = loc("clamp.220")
#loc49 = loc("compare.229")
#loc50 = loc("add.226")
#loc51 = loc("select.230")
#loc52 = loc("reshape.231")
#loc53 = loc("gather.245")
#loc54 = loc("select.268")
#loc55 = loc("select.273")
#loc56 = loc("reshape.111")
#loc57 = loc("reshape.113")
#loc58 = loc("transpose.114")
#loc59 = loc("dot.119")
#loc60 = loc("reshape.120")
#loc61 = loc("reshape.121")
#loc62 = loc("reshape.107")
#loc63 = loc("broadcast.124")
#loc64 = loc("add.125")
#loc65 = loc("slice.126")
#loc66 = loc("gather.129")
#loc67 = loc("select.153")
#loc68 = loc("select.158")
#loc69 = loc("reduce.185")
#loc70 = loc("broadcast.186")
#loc71 = loc("subtract.187")
#loc72 = loc("exponential.188")
#loc73 = loc("reduce.194")
#loc74 = loc("broadcast.195")
#loc75 = loc("divide.196")
#loc76 = loc("multiply.295")
#loc77 = loc("reduce.302")
#loc78 = loc("convert.303")
#loc79 = loc("convert.304")
#loc80 = loc("power.306")
#loc81 = loc("reduce.313")
#loc82 = loc("multiply.322")
#loc83 = loc("reshape.323")
#loc84 = loc("add.327")
#loc85 = loc("rsqrt.328")
#loc86 = loc("reshape.329")
#loc87 = loc("broadcast.330")
#loc88 = loc("multiply.331")
#loc89 = loc("multiply.337")
#loc90 = loc("convert.338")
#loc91 = loc("slice.376")
#loc92 = loc("convert.377")
#loc93 = loc("reshape.378")
#loc94 = loc("slice.384")
#loc95 = loc("reshape.385")
#loc96 = loc("slice.372")
#loc97 = loc("reshape.373")
#loc98 = loc("slice.374")
#loc99 = loc("reshape.375")
#loc100 = loc("multiply.393")
#loc101 = loc("slice.379")
#loc102 = loc("reshape.380")
#loc103 = loc("slice.382")
#loc104 = loc("reshape.383")
#loc105 = loc("multiply.392")
#loc106 = loc("subtract.396")
#loc107 = loc("reshape.397")
#loc108 = loc("multiply.386")
#loc109 = loc("multiply.381")
#loc110 = loc("add.389")
#loc111 = loc("reshape.390")
#loc112 = loc("concatenate.398")
#loc113 = loc("reshape.399")
#loc114 = loc("convert.400")
#loc115 = loc("floor.352")
#loc116 = loc("convert.353")
#loc117 = loc("clamp.356")
#loc118 = loc("compare.365")
#loc119 = loc("add.362")
#loc120 = loc("select.366")
#loc121 = loc("reshape.367")
#loc122 = loc("gather.403")
#loc123 = loc("select.424")
#loc124 = loc("not.422")
#loc125 = loc("select.425")
#loc126 = loc("floor.49")
#loc127 = loc("convert.50")
#loc128 = loc("clamp.53")
#loc129 = loc("compare.62")
#loc130 = loc("add.59")
#loc131 = loc("select.63")
#loc132 = loc("reshape.64")
#loc133 = loc("gather.428")
#loc134 = loc("select.451")
#loc135 = loc("slice.34")
#loc136 = loc("select.456")
#loc137 = loc("floor.17")
#loc138 = loc("convert.18")
#loc139 = loc("clamp.21")
#loc140 = loc("compare.30")
#loc141 = loc("add.27")
#loc142 = loc("select.31")
#loc143 = loc("reshape.32")
#loc144 = loc("gather.458")
#loc145 = loc("select.481")
#loc146 = loc("select.486")
#loc147 = loc("broadcast.611")
#loc148 = loc("broadcast.606")
#loc149 = loc("and.571")
#loc150 = loc("reshape.572")
#loc151 = loc("reshape.580")
#loc152 = loc("broadcast.581")
#loc153 = loc("not.573")
#loc154 = loc("reshape.575")
#loc155 = loc("broadcast.576")
#loc156 = loc("clamp.539")
#loc157 = loc("compare.548")
#loc158 = loc("add.545")
#loc159 = loc("select.549")
#loc160 = loc("reshape.550")
#loc161 = loc("gather.554")
#loc162 = loc("select.577")
#loc163 = loc("slice.520")
#loc164 = loc("select.582")
#loc165 = loc("gather.584")
#loc166 = loc("select.607")
#loc167 = loc("select.612")
#loc168 = loc("add.682")
#loc169 = loc("gather.685")
#loc170 = loc("select.708")
#loc171 = loc("slice.646")
#loc172 = loc("select.713")
#loc173 = loc("gather.715")
#loc174 = loc("select.738")
#loc175 = loc("select.743")
#loc176 = loc(fused[#loc123, #loc124])
------------------ END OF MLIR MODULE ------------------
2026-04-25 16:07:38.304 (   3.908s) [        1B754740]      module_builder.cc:1220     1| MLIR Module shlo_set_mesh_attr:
#loc1 = loc("p0.1")
#loc2 = loc("p1.106")
#loc3 = loc("p2.110")
#loc4 = loc("p3.115")
#loc5 = loc("p4.140")
#loc6 = loc("p5.233")
#loc7 = loc("p6.332")
#loc8 = loc("p7.370")
#loc9 = loc("p8.487")
#loc10 = loc("p9.613")
module @SyncTensorsGraph.745 attributes {mhlo.cross_program_prefetches = [], mhlo.input_output_alias = [], mhlo.is_dynamic = false, mhlo.use_auto_spmd_partitioning = false} {
  sdy.mesh @mesh = <["x"=1, "y"=1]> loc(#loc)
  func.func @main(%arg0: tensor<2x8x32xbf16> {ttcore.argument_type = #ttcore.argument_type<input>, ttcore.local_shape = #ttcore<local_shape local_shape = tensor<2x8x32xbf16>>, ttcore.shard_status = #ttcore.shard_status<unsharded>, ttir.name = "compressor.kv_cache"} loc("p0.1"), %arg1: tensor<4x64xf32> {ttcore.argument_type = #ttcore.argument_type<parameter>, ttcore.local_shape = #ttcore<local_shape local_shape = tensor<4x64xf32>>, ttcore.shard_status = #ttcore.shard_status<unsharded>, ttir.name = "compressor.ape"} loc("p1.106"), %arg2: tensor<64x128xf32> {ttcore.argument_type = #ttcore.argument_type<parameter>, ttcore.local_shape = #ttcore<local_shape local_shape = tensor<64x128xf32>>, ttcore.shard_status = #ttcore.shard_status<unsharded>, ttir.name = "compressor.wgate.weight"} loc("p2.110"), %arg3: tensor<1x4x128xbf16> {ttcore.argument_type = #ttcore.argument_type<input>, ttcore.local_shape = #ttcore<local_shape local_shape = tensor<1x4x128xbf16>>, ttcore.shard_status = #ttcore.shard_status<unsharded>, ttir.name = "args_0"} loc("p3.115"), %arg4: tensor<i1> {ttcore.argument_type = #ttcore.argument_type<input>, ttcore.local_shape = #ttcore<local_shape local_shape = tensor<i1>>, ttcore.shard_status = #ttcore.shard_status<unsharded>} loc("p4.140"), %arg5: tensor<64x128xf32> {ttcore.argument_type = #ttcore.argument_type<parameter>, ttcore.local_shape = #ttcore<local_shape local_shape = tensor<64x128xf32>>, ttcore.shard_status = #ttcore.shard_status<unsharded>, ttir.name = "compressor.wkv.weight"} loc("p5.233"), %arg6: tensor<32xf32> {ttcore.argument_type = #ttcore.argument_type<parameter>, ttcore.local_shape = #ttcore<local_shape local_shape = tensor<32xf32>>, ttcore.shard_status = #ttcore.shard_status<unsharded>, ttir.name = "compressor.norm.weight"} loc("p6.332"), %arg7: tensor<32x8x2xf32> {ttcore.argument_type = #ttcore.argument_type<constant>, ttcore.local_shape = #ttcore<local_shape local_shape = tensor<32x8x2xf32>>, ttcore.shard_status = #ttcore.shard_status<unsharded>, ttir.name = "compressor.freqs_cis"} loc("p7.370"), %arg8: tensor<2x8x64xf32> {ttcore.argument_type = #ttcore.argument_type<input>, ttcore.local_shape = #ttcore<local_shape local_shape = tensor<2x8x64xf32>>, ttcore.shard_status = #ttcore.shard_status<unsharded>, ttir.name = "compressor.kv_state"} loc("p8.487"), %arg9: tensor<2x8x64xf32> {ttcore.argument_type = #ttcore.argument_type<input>, ttcore.local_shape = #ttcore<local_shape local_shape = tensor<2x8x64xf32>>, ttcore.shard_status = #ttcore.shard_status<unsharded>, ttir.name = "compressor.score_state"} loc("p9.613")) -> (tensor<2x8x32xbf16> {ttcore.local_shape = #ttcore<local_shape local_shape = tensor<2x8x32xbf16>>, ttcore.shard_status = #ttcore.shard_status<presharded>}, tensor<2x8x64xf32> {ttcore.local_shape = #ttcore<local_shape local_shape = tensor<2x8x64xf32>>, ttcore.shard_status = #ttcore.shard_status<presharded>}, tensor<2x8x64xf32> {ttcore.local_shape = #ttcore<local_shape local_shape = tensor<2x8x64xf32>>, ttcore.shard_status = #ttcore.shard_status<presharded>}) {
    %cst = stablehlo.constant dense<0.000000e+00> : tensor<1x8x64xf32> loc(#loc)
    %c = stablehlo.constant dense<[true, true, true, true, false, false, false, false]> : tensor<8xi1> loc(#loc)
    %cst_0 = stablehlo.constant dense<0.000000e+00> : tensor<2x8x64xf32> loc(#loc)
    %c_1 = stablehlo.constant dense<1> : tensor<2xi64> loc(#loc)
    %cst_2 = stablehlo.constant dense<[0.000000e+00, 1.000000e+00]> : tensor<2xf32> loc(#loc)
    %c_3 = stablehlo.constant dense<0> : tensor<2xi64> loc(#loc)
    %c_4 = stablehlo.constant dense<1> : tensor<8xi64> loc(#loc)
    %cst_5 = stablehlo.constant dense<[0.000000e+00, 1.000000e+00, 2.000000e+00, 3.000000e+00, 4.000000e+00, 5.000000e+00, 6.000000e+00, 7.000000e+00]> : tensor<8xf32> loc(#loc)
    %c_6 = stablehlo.constant dense<16> : tensor<32xi64> loc(#loc)
    %c_7 = stablehlo.constant dense<15> : tensor<32xi64> loc(#loc)
    %cst_8 = stablehlo.constant dense<[… > : tensor<32xf32> loc(#loc)
    %c_9 = stablehlo.constant dense<0> : tensor<32xi64> loc(#loc)
    %cst_10 = stablehlo.constant dense<9.99999997E-7> : tensor<1x1x1xf32> loc(#loc)
    %cst_11 = stablehlo.constant dense<3.125000e-02> : tensor<1x1xf32> loc(#loc)
    %cst_12 = stablehlo.constant dense<2.000000e+00> : tensor<1x1x32xf32> loc(#loc)
    %cst_13 = stablehlo.constant dense<0xFF800000> : tensor<1x1x8x32xf32> loc(#loc)
    %c_14 = stablehlo.constant dense<4> : tensor<8xi64> loc(#loc)
    %c_15 = stablehlo.constant dense<3> : tensor<8xi64> loc(#loc)
    %cst_16 = stablehlo.constant dense<[-4.000000e+00, -3.000000e+00, -2.000000e+00, -1.000000e+00, 0.000000e+00, 1.000000e+00, 2.000000e+00, 3.000000e+00]> : tensor<8xf32> loc(#loc)
    %c_17 = stablehlo.constant dense<0> : tensor<8xi64> loc(#loc)
    %cst_18 = stablehlo.constant dense<0.000000e+00> : tensor<1x1x8x32xf32> loc(#loc)
    %c_19 = stablehlo.constant dense<[false, false, false, false, true, true, true, true]> : tensor<8xi1> loc(#loc)
    %cst_20 = stablehlo.constant dense<0.000000e+00> : tensor<1x1x32xbf16> loc(#loc)
    %c_21 = stablehlo.constant dense<[false, false, false, false, false, false, false, false, false, false, false, false, false, false, false, false, true, true, true, true, true, true, true, true, true, true, true, true, true, true, true, true]> : tensor<32xi1> loc(#loc)
    %cst_22 = stablehlo.constant dense<0.000000e+00> : tensor<1x8x32xbf16> loc(#loc)
    %c_23 = stablehlo.constant dense<[true, false, false, false, false, false, false, false]> : tensor<8xi1> loc(#loc)
    %cst_24 = stablehlo.constant dense<0.000000e+00> : tensor<2x8x32xbf16> loc(#loc)
    %c_25 = stablehlo.constant dense<[true, false]> : tensor<2xi1> loc(#loc)
    %cst_26 = stablehlo.constant dense<0xFF800000> : tensor<f32> loc(#loc)
    %cst_27 = stablehlo.constant dense<0.000000e+00> : tensor<f32> loc(#loc)
    %0 = stablehlo.broadcast_in_dim %arg4, dims = [] : (tensor<i1>) -> tensor<2xi1> loc(#loc11)
    %1 = stablehlo.and %0, %c_25 : tensor<2xi1> loc(#loc12)
    %2 = stablehlo.reshape %1 : (tensor<2xi1>) -> tensor<2x1x1xi1> loc(#loc13)
    %3 = stablehlo.broadcast_in_dim %1, dims = [0] : (tensor<2xi1>) -> tensor<2x8x32xi1> loc(#loc14)
    %4 = stablehlo.not %2 : tensor<2x1x1xi1> loc(#loc15)
    %5 = stablehlo.reshape %4 : (tensor<2x1x1xi1>) -> tensor<2xi1> loc(#loc16)
    %6 = stablehlo.broadcast_in_dim %5, dims = [0] : (tensor<2xi1>) -> tensor<2x8x32xi1> loc(#loc17)
    %7 = stablehlo.broadcast_in_dim %arg4, dims = [] : (tensor<i1>) -> tensor<8xi1> loc(#loc18)
    %8 = stablehlo.and %7, %c_23 : tensor<8xi1> loc(#loc19)
    %9 = stablehlo.reshape %8 : (tensor<8xi1>) -> tensor<1x8x1xi1> loc(#loc20)
    %10 = stablehlo.reshape %8 : (tensor<8xi1>) -> tensor<1x8xi1> loc(#loc21)
    %11 = stablehlo.broadcast_in_dim %10, dims = [0, 1] : (tensor<1x8xi1>) -> tensor<1x8x32xi1> loc(#loc22)
    %12 = stablehlo.not %9 : tensor<1x8x1xi1> loc(#loc23)
    %13 = stablehlo.reshape %12 : (tensor<1x8x1xi1>) -> tensor<1x8xi1> loc(#loc24)
    %14 = stablehlo.broadcast_in_dim %13, dims = [0, 1] : (tensor<1x8xi1>) -> tensor<1x8x32xi1> loc(#loc25)
    %15 = stablehlo.broadcast_in_dim %arg4, dims = [] : (tensor<i1>) -> tensor<32xi1> loc(#loc26)
    %16 = stablehlo.and %15, %c_21 : tensor<32xi1> loc(#loc27)
    %17 = stablehlo.reshape %16 : (tensor<32xi1>) -> tensor<1x1x32xi1> loc(#loc28)
    %18 = stablehlo.reshape %arg6 : (tensor<32xf32>) -> tensor<1x1x32xf32> loc(#loc29)
    %19 = stablehlo.and %7, %c_19 : tensor<8xi1> loc(#loc30)
    %20 = stablehlo.reshape %19 : (tensor<8xi1>) -> tensor<1x1x8x1xi1> loc(#loc31)
    %21 = stablehlo.reshape %19 : (tensor<8xi1>) -> tensor<1x1x8xi1> loc(#loc32)
    %22 = stablehlo.broadcast_in_dim %21, dims = [0, 1, 2] : (tensor<1x1x8xi1>) -> tensor<1x1x8x32xi1> loc(#loc33)
    %23 = stablehlo.not %20 : tensor<1x1x8x1xi1> loc(#loc34)
    %24 = stablehlo.reshape %23 : (tensor<1x1x8x1xi1>) -> tensor<1x1x8xi1> loc(#loc35)
    %25 = stablehlo.broadcast_in_dim %24, dims = [0, 1, 2] : (tensor<1x1x8xi1>) -> tensor<1x1x8x32xi1> loc(#loc36)
    %26 = stablehlo.convert %arg3 : (tensor<1x4x128xbf16>) -> tensor<1x4x128xf32> loc(#loc37)
    %27 = stablehlo.reshape %26 : (tensor<1x4x128xf32>) -> tensor<4x128xf32> loc(#loc38)
    %28 = stablehlo.reshape %arg5 : (tensor<64x128xf32>) -> tensor<1x64x128xf32> loc(#loc39)
    %29 = stablehlo.reshape %28 : (tensor<1x64x128xf32>) -> tensor<64x128xf32> loc(#loc40)
    %30 = stablehlo.transpose %29, dims = [1, 0] {result_layout = dense<[0, 1]> : tensor<2xindex>, xla_shape = "f32[128,64]{0,1}"} : (tensor<64x128xf32>) -> tensor<128x64xf32> loc(#loc41)
    %31 = stablehlo.dot_general %27, %30, contracting_dims = [1] x [0] : (tensor<4x128xf32>, tensor<128x64xf32>) -> tensor<4x64xf32> loc(#loc42)
    %32 = stablehlo.reshape %31 : (tensor<4x64xf32>) -> tensor<1x4x64xf32> loc(#loc43)
    %33 = stablehlo.reshape %31 : (tensor<4x64xf32>) -> tensor<1x1x4x64xf32> loc(#loc44)
    %34 = stablehlo.slice %33 [0:1, 0:1, 0:4, 32:64] : (tensor<1x1x4x64xf32>) -> tensor<1x1x4x32xf32> loc(#loc45)
    %35 = stablehlo.floor %cst_16 : tensor<8xf32> loc(#loc46)
    %36 = stablehlo.convert %35 : (tensor<8xf32>) -> tensor<8xi64> loc(#loc47)
    %37 = stablehlo.clamp %c_17, %36, %c_15 : tensor<8xi64> loc(#loc48)
    %38 = stablehlo.compare  LT, %37, %c_17 : (tensor<8xi64>, tensor<8xi64>) -> tensor<8xi1> loc(#loc49)
    %39 = stablehlo.add %37, %c_14 : tensor<8xi64> loc(#loc50)
    %40 = stablehlo.select %38, %39, %37 : tensor<8xi1>, tensor<8xi64> loc(#loc51)
    %41 = stablehlo.reshape %40 : (tensor<8xi64>) -> tensor<8x1xi64> loc(#loc52)
    %42 = "stablehlo.gather"(%34, %41) <{dimension_numbers = #stablehlo.gather<offset_dims = [0, 1, 3], collapsed_slice_dims = [2], start_index_map = [2], index_vector_dim = 1>, slice_sizes = array<i64: 1, 1, 1, 32>}> : (tensor<1x1x4x32xf32>, tensor<8x1xi64>) -> tensor<1x1x8x32xf32> loc(#loc53)
    %43 = stablehlo.select %25, %cst_18, %42 : tensor<1x1x8x32xi1>, tensor<1x1x8x32xf32> loc(#loc54)
    %44 = stablehlo.select %22, %43, %cst_18 : tensor<1x1x8x32xi1>, tensor<1x1x8x32xf32> loc(#loc55)
    %45 = stablehlo.reshape %arg2 : (tensor<64x128xf32>) -> tensor<1x64x128xf32> loc(#loc56)
    %46 = stablehlo.reshape %45 : (tensor<1x64x128xf32>) -> tensor<64x128xf32> loc(#loc57)
    %47 = stablehlo.transpose %46, dims = [1, 0] {result_layout = dense<[0, 1]> : tensor<2xindex>, xla_shape = "f32[128,64]{0,1}"} : (tensor<64x128xf32>) -> tensor<128x64xf32> loc(#loc58)
    %48 = stablehlo.dot_general %27, %47, contracting_dims = [1] x [0] : (tensor<4x128xf32>, tensor<128x64xf32>) -> tensor<4x64xf32> loc(#loc59)
    %49 = stablehlo.reshape %48 : (tensor<4x64xf32>) -> tensor<1x4x64xf32> loc(#loc60)
    %50 = stablehlo.reshape %48 : (tensor<4x64xf32>) -> tensor<1x1x4x64xf32> loc(#loc61)
    %51 = stablehlo.reshape %arg1 : (tensor<4x64xf32>) -> tensor<1x4x64xf32> loc(#loc62)
…
        %2 = "ttnn.typecast"(%1) <{dtype = #ttcore.supportedDataTypes<u32>}> : (tensor<2x1xsi32, #ttnn_layout2>) -> tensor<2x1xui32, #ttnn_layout3> loc(#loc38)
        "ttnn.deallocate"(%1) <{force = false}> : (tensor<2x1xsi32, #ttnn_layout2>) -> () loc(#loc38)
        %3 = "ttnn.to_device"(%2, %0) <{memory_config = #ttnn.memory_config<#dram, <interleaved>>}> : (tensor<2x1xui32, #ttnn_layout3>, !ttnn.device) -> tensor<2x1xui32, #ttnn_layout1> loc(#loc38)
        "ttnn.deallocate"(%2) <{force = false}> : (tensor<2x1xui32, #ttnn_layout3>) -> () loc(#loc38)
        return %3 : tensor<2x1xui32, #ttnn_layout1> loc(#loc)
      } loc(#loc)
      func.func private @main_const_eval_2(%arg0: tensor<4x64xf32, #ttnn_layout4> loc(unknown)) -> tensor<1x64xf32, #ttnn_layout5> attributes {tt.function_type = "const_eval"} {
        %0 = "ttnn.get_device"() <{mesh_offset = #ttnn<mesh_offset 0x0>, mesh_shape = #ttnn<mesh_shape 1x1>}> : () -> !ttnn.device loc(#loc)
        %1 = call @cpu_hoisted_const_eval_7f0135d9(%arg0) {ttir.cpu_hoist_call} : (tensor<4x64xf32, #ttnn_layout4>) -> tensor<1x64xf32, #ttnn_layout6> loc(#loc)
        %2 = "ttnn.to_layout"(%1) <{layout = #ttnn.layout<tile>}> : (tensor<1x64xf32, #ttnn_layout6>) -> tensor<1x64xf32, #ttnn_layout7> loc(#loc)
        "ttnn.deallocate"(%1) <{force = false}> : (tensor<1x64xf32, #ttnn_layout6>) -> () loc(#loc)
        %3 = "ttnn.to_device"(%2, %0) <{memory_config = #ttnn.memory_config<#dram, <interleaved>>}> : (tensor<1x64xf32, #ttnn_layout7>, !ttnn.device) -> tensor<1x64xf32, #ttnn_layout5> loc(#loc)
        "ttnn.deallocate"(%2) <{force = false}> : (tensor<1x64xf32, #ttnn_layout7>) -> () loc(#loc)
        return %3 : tensor<1x64xf32, #ttnn_layout5> loc(#loc)
      } loc(#loc)
      func.func private @main_const_eval_3() -> tensor<1x8x1xf32, #ttnn_layout8> attributes {tt.function_type = "const_eval"} {
        %0 = "ttnn.get_device"() <{mesh_offset = #ttnn<mesh_offset 0x0>, mesh_shape = #ttnn<mesh_shape 1x1>}> : () -> !ttnn.device loc(#loc48)
        %1 = "ttnn.constant"(%0) <{dtype = #ttcore.supportedDataTypes<f32>, layout = #ttnn.layout<tile>, memory_config = #ttnn.memory_config<#dram, <interleaved>>, value = dense<[[[0.000000e+00], [0.000000e+00], [0.000000e+00], [0.000000e+00], [1.000000e+00], [0.000000e+00], [0.000000e+00], [0.000000e+00]]]> : tensor<1x8x1xbf16>}> : (!ttnn.device) -> tensor<1x8x1xf32, #ttnn_layout8> loc(#loc3)
        return %1 : tensor<1x8x1xf32, #ttnn_layout8> loc(#loc)
      } loc(#loc)
      func.func private @main_const_eval_4() -> tensor<1x1x1xf32, #ttnn_layout8> attributes {tt.function_type = "const_eval"} {
        %0 = "ttnn.get_device"() <{mesh_offset = #ttnn<mesh_offset 0x0>, mesh_shape = #ttnn<mesh_shape 1x1>}> : () -> !ttnn.device loc(#loc48)
        %1 = "ttnn.full"(%0) <{dtype = #ttcore.supportedDataTypes<f32>, fill_value = 0.000000e+00 : f32, layout = #ttnn.layout<tile>, shape = #ttnn.shape<1x1x1>}> : (!ttnn.device) -> tensor<1x1x1xf32, #ttnn_layout8> loc(#loc)
        return %1 : tensor<1x1x1xf32, #ttnn_layout8> loc(#loc)
      } loc(#loc)
      func.func @main(%arg0: tensor<2x8x64xf32, #ttnn_layout9> {ttcore.argument_type = #ttcore.argument_type<input>, ttcore.local_shape = #ttcore<local_shape local_shape = tensor<2x8x64xf32>>, ttcore.shard_status = #ttcore.shard_status<unsharded>, ttir.name = "compressor.kv_state"} loc("p0.1"), %arg1: tensor<64x128xf32, #ttnn_layout10> {ttcore.argument_type = #ttcore.argument_type<parameter>, ttcore.local_shape = #ttcore<local_shape local_shape = tensor<64x128xf32>>, ttcore.shard_status = #ttcore.shard_status<unsharded>, ttir.name = "compressor.wkv.weight"} loc("p1.36"), %arg2: tensor<1x1x128xbf16, #ttnn_layout11> {ttcore.argument_type = #ttcore.argument_type<input>, ttcore.local_shape = #ttcore<local_shape local_shape = tensor<1x1x128xbf16>>, ttcore.shard_status = #ttcore.shard_status<unsharded>, ttir.name = "args_0"} loc("p2.41"), %arg3: tensor<bf16, #ttnn_layout12> {ttcore.argument_type = #ttcore.argument_type<input>, ttcore.local_shape = #ttcore<local_shape local_shape = tensor<i1>>, ttcore.shard_status = #ttcore.shard_status<unsharded>} loc("p3.75"), %arg4: tensor<2x8x64xf32, #ttnn_layout9> {ttcore.argument_type = #ttcore.argument_type<input>, ttcore.local_shape = #ttcore<local_shape local_shape = tensor<2x8x64xf32>>, ttcore.shard_status = #ttcore.shard_status<unsharded>, ttir.name = "compressor.score_state"} loc("p4.94"), %arg5: tensor<4x64xf32, #ttnn_layout4> {ttcore.argument_type = #ttcore.argument_type<parameter>, ttcore.local_shape = #ttcore<local_shape local_shape = tensor<4x64xf32>>, ttcore.shard_status = #ttcore.shard_status<unsharded>, ttir.name = "compressor.ape"} loc("p5.130"), %arg6: tensor<64x128xf32, #ttnn_layout10> {ttcore.argument_type = #ttcore.argument_type<parameter>, ttcore.local_shape = #ttcore<local_shape local_shape = tensor<64x128xf32>>, ttcore.shard_status = #ttcore.shard_status<unsharded>, ttir.name = "compressor.wgate.weight"} loc("p6.136")) -> (tensor<2x8x64xf32, #ttnn_layout13> {ttcore.local_shape = #ttcore<local_shape local_shape = tensor<2x8x64xf32>>, ttcore.shard_status = #ttcore.shard_status<presharded>}, tensor<2x8x64xf32, #ttnn_layout13> {ttcore.local_shape = #ttcore<local_shape local_shape = tensor<2x8x64xf32>>, ttcore.shard_status = #ttcore.shard_status<presharded>}, tensor<1x64xf32, #ttnn_layout5> {ttcore.local_shape = #ttcore<local_shape local_shape = tensor<1x64xf32>>, ttcore.shard_status = #ttcore.shard_status<presharded>}, tensor<1x1x64xf32, #ttnn_layout14> {ttcore.local_shape = #ttcore<local_shape local_shape = tensor<1x1x64xf32>>, ttcore.shard_status = #ttcore.shard_status<presharded>}) attributes {tt.function_type = "forward_device"} {
        %0 = ttcore.load_cached(@main_const_eval_0, []) : () -> tensor<2x1x1xbf16, #ttnn_layout> loc(#loc)
        %1 = ttcore.load_cached(@main_const_eval_1, []) : () -> tensor<2x1xui32, #ttnn_layout1> loc(#loc)
        %2 = ttcore.load_cached(@main_const_eval_2, [%arg5]) : (tensor<4x64xf32, #ttnn_layout4>) -> tensor<1x64xf32, #ttnn_layout5> loc(#loc)
        "ttnn.deallocate"(%arg5) <{force = false}> : (tensor<4x64xf32, #ttnn_layout4>) -> () loc(#loc)
        %3 = ttcore.load_cached(@main_const_eval_3, []) : () -> tensor<1x8x1xf32, #ttnn_layout8> loc(#loc)
        %4 = ttcore.load_cached(@main_const_eval_4, []) : () -> tensor<1x1x1xf32, #ttnn_layout8> loc(#loc)
        %5 = "ttnn.to_layout"(%arg3) <{layout = #ttnn.layout<tile>}> : (tensor<bf16, #ttnn_layout12>) -> tensor<bf16, #ttnn_layout15> loc(#loc39)
        "ttnn.deallocate"(%arg3) <{force = false}> : (tensor<bf16, #ttnn_layout12>) -> () loc(#loc39)
        %6 = "ttnn.reshape"(%5) <{shape = [1 : i32, 1 : i32, 1 : i32]}> : (tensor<bf16, #ttnn_layout15>) -> tensor<1x1x1xbf16, #ttnn_layout16> loc(#loc40)
        "ttnn.deallocate"(%5) <{force = false}> : (tensor<bf16, #ttnn_layout15>) -> () loc(#loc40)
        %7 = "ttnn.logical_and"(%6, %0) <{dtype = #ttcore.supportedDataTypes<bf16>}> : (tensor<1x1x1xbf16, #ttnn_layout16>, tensor<2x1x1xbf16, #ttnn_layout>) -> tensor<2x1x1xbf16, #ttnn_layout> loc(#loc11)
        "ttnn.deallocate"(%6) <{force = false}> : (tensor<1x1x1xbf16, #ttnn_layout16>) -> () loc(#loc11)
        "ttnn.deallocate"(%0) <{force = false}> : (tensor<2x1x1xbf16, #ttnn_layout>) -> () loc(#loc11)
        %8 = "ttnn.logical_not"(%7) : (tensor<2x1x1xbf16, #ttnn_layout>) -> tensor<2x1x1xbf16, #ttnn_layout> loc(#loc12)
        %9 = "ttnn.to_layout"(%arg2) <{layout = #ttnn.layout<tile>}> : (tensor<1x1x128xbf16, #ttnn_layout11>) -> tensor<1x1x128xbf16, #ttnn_layout17> loc(#loc13)
        "ttnn.deallocate"(%arg2) <{force = false}> : (tensor<1x1x128xbf16, #ttnn_layout11>) -> () loc(#loc13)
        %10 = "ttnn.typecast"(%9) <{dtype = #ttcore.supportedDataTypes<f32>}> : (tensor<1x1x128xbf16, #ttnn_layout17>) -> tensor<1x1x128xf32, #ttnn_layout18> loc(#loc14)
        "ttnn.deallocate"(%9) <{force = false}> : (tensor<1x1x128xbf16, #ttnn_layout17>) -> () loc(#loc14)
        %11 = "ttnn.reshape"(%10) <{shape = [1 : i32, 128 : i32]}> : (tensor<1x1x128xf32, #ttnn_layout18>) -> tensor<1x128xf32, #ttnn_layout19> loc(#loc14)
        "ttnn.deallocate"(%10) <{force = false}> : (tensor<1x1x128xf32, #ttnn_layout18>) -> () loc(#loc14)
        %12 = "ttnn.matmul"(%11, %arg1) <{compute_config = #ttnn.device_compute_kernel_config<math_fidelity = hifi4, fp32_dest_acc_en = true>, transpose_a = false, transpose_b = true}> : (tensor<1x128xf32, #ttnn_layout19>, tensor<64x128xf32, #ttnn_layout10>) -> tensor<1x64xf32, #ttnn_layout5> loc(#loc15)
        "ttnn.deallocate"(%arg1) <{force = false}> : (tensor<64x128xf32, #ttnn_layout10>) -> () loc(#loc15)
        %13 = "ttnn.reshape"(%12) <{shape = [1 : i32, 1 : i32, 64 : i32]}> : (tensor<1x64xf32, #ttnn_layout5>) -> tensor<1x1x64xf32, #ttnn_layout14> loc(#loc16)
        %14 = "ttnn.to_layout"(%arg0) <{layout = #ttnn.layout<tile>}> : (tensor<2x8x64xf32, #ttnn_layout9>) -> tensor<2x8x64xf32, #ttnn_layout13> loc(#loc17)
        "ttnn.deallocate"(%arg0) <{force = false}> : (tensor<2x8x64xf32, #ttnn_layout9>) -> () loc(#loc17)
        %15 = "ttnn.slice_static"(%14) <{begins = [0 : i32, 0 : i32, 0 : i32], ends = [1 : i32, 8 : i32, 64 : i32], step = [1 : i32, 1 : i32, 1 : i32]}> : (tensor<2x8x64xf32, #ttnn_layout13>) -> tensor<1x8x64xf32, #ttnn_layout14> loc(#loc18)
        %16 = "ttnn.where"(%3, %13, %15) : (tensor<1x8x1xf32, #ttnn_layout8>, tensor<1x1x64xf32, #ttnn_layout14>, tensor<1x8x64xf32, #ttnn_layout14>) -> tensor<1x8x64xf32, #ttnn_layout14> loc(#loc19)
        "ttnn.deallocate"(%15) <{force = false}> : (tensor<1x8x64xf32, #ttnn_layout14>) -> () loc(#loc19)
        %17 = "ttnn.reshape"(%16) <{shape = [1 : i32, 512 : i32]}> : (tensor<1x8x64xf32, #ttnn_layout14>) -> tensor<1x512xf32, #ttnn_layout20> loc(#loc41)
        "ttnn.deallocate"(%16) <{force = false}> : (tensor<1x8x64xf32, #ttnn_layout14>) -> () loc(#loc41)
        %18 = "ttnn.typecast"(%17) <{dtype = #ttcore.supportedDataTypes<bf16>}> : (tensor<1x512xf32, #ttnn_layout20>) -> tensor<1x512xbf16, #ttnn_layout21> loc(#loc38)
        "ttnn.deallocate"(%17) <{force = false}> : (tensor<1x512xf32, #ttnn_layout20>) -> () loc(#loc38)
        %19 = "ttnn.to_layout"(%18) <{layout = #ttnn.layout<row_major>}> : (tensor<1x512xbf16, #ttnn_layout21>) -> tensor<1x512xbf16, #ttnn_layout22> loc(#loc38)
        "ttnn.deallocate"(%18) <{force = false}> : (tensor<1x512xbf16, #ttnn_layout21>) -> () loc(#loc38)
        %20 = "ttnn.embedding"(%1, %19) : (tensor<2x1xui32, #ttnn_layout1>, tensor<1x512xbf16, #ttnn_layout22>) -> tensor<2x1x512xbf16, #ttnn_layout23> loc(#loc2)
        "ttnn.deallocate"(%19) <{force = false}> : (tensor<1x512xbf16, #ttnn_layout22>) -> () loc(#loc2)
        %21 = "ttnn.typecast"(%20) <{dtype = #ttcore.supportedDataTypes<f32>}> : (tensor<2x1x512xbf16, #ttnn_layout23>) -> tensor<2x1x512xf32, #ttnn_layout24> loc(#loc38)
        "ttnn.deallocate"(%20) <{force = false}> : (tensor<2x1x512xbf16, #ttnn_layout23>) -> () loc(#loc38)
        %22 = "ttnn.reshape"(%21) <{shape = [2 : i32, 8 : i32, 64 : i32]}> : (tensor<2x1x512xf32, #ttnn_layout24>) -> tensor<2x8x64xf32, #ttnn_layout13> loc(#loc42)
        "ttnn.deallocate"(%21) <{force = false}> : (tensor<2x1x512xf32, #ttnn_layout24>) -> () loc(#loc42)
        %23 = "ttnn.typecast"(%8) <{dtype = #ttcore.supportedDataTypes<f32>}> : (tensor<2x1x1xbf16, #ttnn_layout>) -> tensor<2x1x1xf32, #ttnn_layout25> loc(#loc43)
        "ttnn.deallocate"(%8) <{force = false}> : (tensor<2x1x1xbf16, #ttnn_layout>) -> () loc(#loc43)
        %24 = "ttnn.where"(%23, %4, %22) : (tensor<2x1x1xf32, #ttnn_layout25>, tensor<1x1x1xf32, #ttnn_layout8>, tensor<2x8x64xf32, #ttnn_layout13>) -> tensor<2x8x64xf32, #ttnn_layout13> loc(#loc20)
        "ttnn.deallocate"(%22) <{force = false}> : (tensor<2x8x64xf32, #ttnn_layout13>) -> () loc(#loc20)
        %25 = "ttnn.typecast"(%7) <{dtype = #ttcore.supportedDataTypes<f32>}> : (tensor<2x1x1xbf16, #ttnn_layout>) -> tensor<2x1x1xf32, #ttnn_layout25> loc(#loc44)
        "ttnn.deallocate"(%7) <{force = false}> : (tensor<2x1x1xbf16, #ttnn_layout>) -> () loc(#loc44)
        %26 = "ttnn.where"(%25, %24, %14) : (tensor<2x1x1xf32, #ttnn_layout25>, tensor<2x8x64xf32, #ttnn_layout13>, tensor<2x8x64xf32, #ttnn_layout13>) -> tensor<2x8x64xf32, #ttnn_layout13> loc(#loc21)
        "ttnn.deallocate"(%24) <{force = false}> : (tensor<2x8x64xf32, #ttnn_layout13>) -> () loc(#loc21)
        "ttnn.deallocate"(%14) <{force = false}> : (tensor<2x8x64xf32, #ttnn_layout13>) -> () loc(#loc21)
        %27 = "ttnn.linear"(%11, %arg6, %2) <{compute_config = #ttnn.device_compute_kernel_config<math_fidelity = hifi4, fp32_dest_acc_en = true>, transpose_a = false, transpose_b = true}> : (tensor<1x128xf32, #ttnn_layout19>, tensor<64x128xf32, #ttnn_layout10>, tensor<1x64xf32, #ttnn_layout5>) -> tensor<1x64xf32, #ttnn_layout5> loc(#loc22)
        "ttnn.deallocate"(%11) <{force = false}> : (tensor<1x128xf32, #ttnn_layout19>) -> () loc(#loc22)
        "ttnn.deallocate"(%2) <{force = false}> : (tensor<1x64xf32, #ttnn_layout5>) -> () loc(#loc22)
        "ttnn.deallocate"(%arg6) <{force = false}> : (tensor<64x128xf32, #ttnn_layout10>) -> () loc(#loc22)
        %28 = "ttnn.reshape"(%27) <{shape = [1 : i32, 1 : i32, 64 : i32]}> : (tensor<1x64xf32, #ttnn_layout5>) -> tensor<1x1x64xf32, #ttnn_layout14> loc(#loc22)
        "ttnn.deallocate"(%27) <{force = false}> : (tensor<1x64xf32, #ttnn_layout5>) -> () loc(#loc22)
        %29 = "ttnn.to_layout"(%arg4) <{layout = #ttnn.layout<tile>}> : (tensor<2x8x64xf32, #ttnn_layout9>) -> tensor<2x8x64xf32, #ttnn_layout13> loc(#loc23)
        "ttnn.deallocate"(%arg4) <{force = false}> : (tensor<2x8x64xf32, #ttnn_layout9>) -> () loc(#loc23)
        %30 = "ttnn.slice_static"(%29) <{begins = [0 : i32, 0 : i32, 0 : i32], ends = [1 : i32, 8 : i32, 64 : i32], step = [1 : i32, 1 : i32, 1 : i32]}> : (tensor<2x8x64xf32, #ttnn_layout13>) -> tensor<1x8x64xf32, #ttnn_layout14> loc(#loc24)
        %31 = "ttnn.where"(%3, %28, %30) : (tensor<1x8x1xf32, #ttnn_layout8>, tensor<1x1x64xf32, #ttnn_layout14>, tensor<1x8x64xf32, #ttnn_layout14>) -> tensor<1x8x64xf32, #ttnn_layout14> loc(#loc25)
        "ttnn.deallocate"(%30) <{force = false}> : (tensor<1x8x64xf32, #ttnn_layout14>) -> () loc(#loc25)
        "ttnn.deallocate"(%28) <{force = false}> : (tensor<1x1x64xf32, #ttnn_layout14>) -> () loc(#loc25)
        "ttnn.deallocate"(%3) <{force = false}> : (tensor<1x8x1xf32, #ttnn_layout8>) -> () loc(#loc25)
        %32 = "ttnn.reshape"(%31) <{shape = [1 : i32, 512 : i32]}> : (tensor<1x8x64xf32, #ttnn_layout14>) -> tensor<1x512xf32, #ttnn_layout20> loc(#loc45)
        "ttnn.deallocate"(%31) <{force = false}> : (tensor<1x8x64xf32, #ttnn_layout14>) -> () loc(#loc45)
        %33 = "ttnn.typecast"(%32) <{dtype = #ttcore.supportedDataTypes<bf16>}> : (tensor<1x512xf32, #ttnn_layout20>) -> tensor<1x512xbf16, #ttnn_layout21> loc(#loc46)
        "ttnn.deallocate"(%32) <{force = false}> : (tensor<1x512xf32, #ttnn_layout20>) -> () loc(#loc46)
        %34 = "ttnn.to_layout"(%33) <{layout = #ttnn.layout<row_major>}> : (tensor<1x512xbf16, #ttnn_layout21>) -> tensor<1x512xbf16, #ttnn_layout22> loc(#loc46)
        "ttnn.deallocate"(%33) <{force = false}> : (tensor<1x512xbf16, #ttnn_layout21>) -> () loc(#loc46)
        %35 = "ttnn.embedding"(%1, %34) : (tensor<2x1xui32, #ttnn_layout1>, tensor<1x512xbf16, #ttnn_layout22>) -> tensor<2x1x512xbf16, #ttnn_layout23> loc(#loc26)
        "ttnn.deallocate"(%34) <{force = false}> : (tensor<1x512xbf16, #ttnn_layout22>) -> () loc(#loc26)
        "ttnn.deallocate"(%1) <{force = false}> : (tensor<2x1xui32, #ttnn_layout1>) -> () loc(#loc26)
        %36 = "ttnn.typecast"(%35) <{dtype = #ttcore.supportedDataTypes<f32>}> : (tensor<2x1x512xbf16, #ttnn_layout23>) -> tensor<2x1x512xf32, #ttnn_layout24> loc(#loc46)
        "ttnn.deallocate"(%35) <{force = false}> : (tensor<2x1x512xbf16, #ttnn_layout23>) -> () loc(#loc46)
        %37 = "ttnn.reshape"(%36) <{shape = [2 : i32, 8 : i32, 64 : i32]}> : (tensor<2x1x512xf32, #ttnn_layout24>) -> tensor<2x8x64xf32, #ttnn_layout13> loc(#loc47)
        "ttnn.deallocate"(%36) <{force = false}> : (tensor<2x1x512xf32, #ttnn_layout24>) -> () loc(#loc47)
        %38 = "ttnn.where"(%23, %4, %37) : (tensor<2x1x1xf32, #ttnn_layout25>, tensor<1x1x1xf32, #ttnn_layout8>, tensor<2x8x64xf32, #ttnn_layout13>) -> tensor<2x8x64xf32, #ttnn_layout13> loc(#loc27)
        "ttnn.deallocate"(%37) <{force = false}> : (tensor<2x8x64xf32, #ttnn_layout13>) -> () loc(#loc27)
        "ttnn.deallocate"(%23) <{force = false}> : (tensor<2x1x1xf32, #ttnn_layout25>) -> () loc(#loc27)
        "ttnn.deallocate"(%4) <{force = false}> : (tensor<1x1x1xf32, #ttnn_layout8>) -> () loc(#loc27)
        %39 = "ttnn.where"(%25, %38, %29) : (tensor<2x1x1xf32, #ttnn_layout25>, tensor<2x8x64xf32, #ttnn_layout13>, tensor<2x8x64xf32, #ttnn_layout13>) -> tensor<2x8x64xf32, #ttnn_layout13> loc(#loc28)
        "ttnn.deallocate"(%38) <{force = false}> : (tensor<2x8x64xf32, #ttnn_layout13>) -> () loc(#loc28)
        "ttnn.deallocate"(%29) <{force = false}> : (tensor<2x8x64xf32, #ttnn_layout13>) -> () loc(#loc28)
        "ttnn.deallocate"(%25) <{force = false}> : (tensor<2x1x1xf32, #ttnn_layout25>) -> () loc(#loc28)
        return %26, %39, %12, %13 : tensor<2x8x64xf32, #ttnn_layout13>, tensor<2x8x64xf32, #ttnn_layout13>, tensor<1x64xf32, #ttnn_layout5>, tensor<1x1x64xf32, #ttnn_layout14> loc(#loc)
      } loc(#loc)
      func.func private @cpu_hoisted_const_eval_497231de() -> tensor<2x1xsi32, #ttnn_layout2> attributes {func_hash = "497231de2c156ec6e3805e6a83944c7e6a47a0c193ae399f801aa1bac94b999a", tt.function_type = "forward_cpu_declaration"} loc(#loc)
      func.func private @cpu_hoisted_const_eval_7f0135d9(tensor<4x64xf32, #ttnn_layout4>) -> tensor<1x64xf32, #ttnn_layout6> attributes {func_hash = "7f0135d9b0e41b68db6b075998c8fd4e128758bcb5b9232c856bab099a8691b1", tt.function_type = "forward_cpu_declaration"} loc(#loc)
    } loc(#loc)
  } loc(#loc)
  ttcore.cpu_module {
    builtin.module {
      llvm.func @free(!llvm.ptr) loc(#loc)
      llvm.func @malloc(i64) -> !llvm.ptr loc(#loc)
      llvm.mlir.global private constant @__constant_1xi32_0(dense<0> : tensor<1xi32>) {addr_space = 0 : i32, alignment = 64 : i64} : !llvm.array<1 x i32> loc(#loc)
      llvm.mlir.global private constant @__constant_2xf32(dense<[0.000000e+00, 1.000000e+00]> : tensor<2xf32>) {addr_space = 0 : i32, alignment = 64 : i64} : !llvm.array<2 x f32> loc(#loc)
      llvm.mlir.global private constant @__constant_1xi32(dense<1> : tensor<1xi32>) {addr_space = 0 : i32, alignment = 64 : i64} : !llvm.array<1 x i32> loc(#loc)
      llvm.mlir.global private constant @__constant_1xf32(dense<0.000000e+00> : tensor<1xf32>) {addr_space = 0 : i32, alignment = 64 : i64} : !llvm.array<1 x f32> loc(#loc29)
      llvm.func @cpu_hoisted_const_eval_497231de() -> !llvm.struct<(ptr, ptr, i64, array<2 x i64>, array<2 x i64>)> attributes {arg_ranks = [], func_hash = "497231de2c156ec6e3805e6a83944c7e6a47a0c193ae399f801aa1bac94b999a", result_ranks = [2], tt.function_type = "forward_cpu"} {
        %0 = llvm.mlir.zero : !llvm.ptr loc(#loc)
        %1 = llvm.mlir.constant(-2.14748365E+9 : f32) : f32 loc(#loc)
        %2 = llvm.mlir.constant(2.14748365E+9 : f32) : f32 loc(#loc)
        %3 = llvm.mlir.constant(2147483647 : i32) : i32 loc(#loc)
        %4 = llvm.mlir.constant(0 : i32) : i32 loc(#loc)
        %5 = llvm.mlir.addressof @__constant_1xf32 : !llvm.ptr loc(#loc)
        %6 = llvm.mlir.addressof @__constant_1xi32 : !llvm.ptr loc(#loc)
        %7 = llvm.mlir.addressof @__constant_2xf32 : !llvm.ptr loc(#loc)
        %8 = llvm.mlir.addressof @__constant_1xi32_0 : !llvm.ptr loc(#loc)
        %9 = llvm.mlir.poison : !llvm.struct<(ptr, ptr, i64, array<2 x i64>, array<2 x i64>)> loc(#loc)
        %10 = llvm.mlir.constant(64 : index) : i64 loc(#loc)
        %11 = llvm.mlir.constant(1 : index) : i64 loc(#loc)
        %12 = llvm.mlir.constant(2 : index) : i64 loc(#loc)
        %13 = llvm.mlir.constant(0 : index) : i64 loc(#loc)
        %14 = llvm.getelementptr %5[0, 0] : (!llvm.ptr) -> !llvm.ptr, !llvm.array<1 x f32> loc(#loc29)
        %15 = llvm.getelementptr %6[0, 0] : (!llvm.ptr) -> !llvm.ptr, !llvm.array<1 x i32> loc(#loc)
        %16 = llvm.getelementptr %7[0, 0] : (!llvm.ptr) -> !llvm.ptr, !llvm.array<2 x f32> loc(#loc)
        %17 = llvm.getelementptr %8[0, 0] : (!llvm.ptr) -> !llvm.ptr, !llvm.array<1 x i32> loc(#loc)
        %18 = llvm.getelementptr %0[2] : (!llvm.ptr) -> !llvm.ptr, f32 loc(#loc30)
        %19 = llvm.ptrtoint %18 : !llvm.ptr to i64 loc(#loc30)
        %20 = llvm.add %19, %10 : i64 loc(#loc30)
        %21 = llvm.call @malloc(%20) : (i64) -> !llvm.ptr loc(#loc30)
        %22 = llvm.ptrtoint %21 : !llvm.ptr to i64 loc(#loc30)
        %23 = llvm.sub %10, %11 : i64 loc(#loc30)
        %24 = llvm.add %22, %23 : i64 loc(#loc30)
        %25 = llvm.urem %24, %10 : i64 loc(#loc30)
        %26 = llvm.sub %24, %25 : i64 loc(#loc30)
        %27 = llvm.inttoptr %26 : i64 to !llvm.ptr loc(#loc30)
        llvm.br ^bb1(%13 : i64) loc(#loc30)
      ^bb1(%28: i64 loc("floor.17")):  // 2 preds: ^bb0, ^bb2
        %29 = llvm.icmp "slt" %28, %12 : i64 loc(#loc30)
        llvm.cond_br %29, ^bb2, ^bb3 loc(#loc30)
      ^bb2:  // pred: ^bb1
        %30 = llvm.getelementptr inbounds|nuw %16[%28] : (!llvm.ptr, i64) -> !llvm.ptr, f32 loc(#loc30)
        %31 = llvm.load %30 : !llvm.ptr -> f32 loc(#loc30)
        %32 = llvm.intr.floor(%31) : (f32) -> f32 loc(#loc30)
        %33 = llvm.getelementptr inbounds|nuw %27[%28] : (!llvm.ptr, i64) -> !llvm.ptr, f32 loc(#loc30)
        llvm.store %32, %33 : f32, !llvm.ptr loc(#loc30)
        %34 = llvm.add %28, %11 : i64 loc(#loc30)
        llvm.br ^bb1(%34 : i64) loc(#loc30)
      ^bb3:  // pred: ^bb1
        %35 = llvm.getelementptr %0[2] : (!llvm.ptr) -> !llvm.ptr, i32 loc(#loc31)
        %36 = llvm.ptrtoint %35 : !llvm.ptr to i64 loc(#loc31)
        %37 = llvm.add %36, %10 : i64 loc(#loc31)
        %38 = llvm.call @malloc(%37) : (i64) -> !llvm.ptr loc(#loc31)
        %39 = llvm.ptrtoint %38 : !llvm.ptr to i64 loc(#loc31)
        %40 = llvm.add %39, %23 : i64 loc(#loc31)
        %41 = llvm.urem %40, %10 : i64 loc(#loc31)
        %42 = llvm.sub %40, %41 : i64 loc(#loc31)
        %43 = llvm.inttoptr %42 : i64 to !llvm.ptr loc(#loc31)
        llvm.br ^bb4(%13 : i64) loc(#loc31)
      ^bb4(%44: i64 loc("convert.18")):  // 2 preds: ^bb3, ^bb5
        %45 = llvm.icmp "slt" %44, %12 : i64 loc(#loc31)
        llvm.cond_br %45, ^bb5, ^bb6 loc(#loc31)
      ^bb5:  // pred: ^bb4
        %46 = llvm.getelementptr inbounds|nuw %27[%44] : (!llvm.ptr, i64) -> !llvm.ptr, f32 loc(#loc31)
        %47 = llvm.load %46 : !llvm.ptr -> f32 loc(#loc31)
        %48 = llvm.intr.roundeven(%47) : (f32) -> f32 loc(#loc31)
        %49 = llvm.intr.maximum(%48, %1) : (f32, f32) -> f32 loc(#loc31)
        %50 = llvm.fptosi %49 : f32 to i32 loc(#loc31)
        %51 = llvm.fcmp "uge" %48, %2 : f32 loc(#loc31)
        %52 = llvm.select %51, %3, %50 : i1, i32 loc(#loc31)
        %53 = llvm.getelementptr inbounds|nuw %43[%44] : (!llvm.ptr, i64) -> !llvm.ptr, i32 loc(#loc31)
        llvm.store %52, %53 : i32, !llvm.ptr loc(#loc31)
        %54 = llvm.add %44, %11 : i64 loc(#loc31)
        llvm.br ^bb4(%54 : i64) loc(#loc31)
      ^bb6:  // pred: ^bb4
        %55 = llvm.call @malloc(%37) : (i64) -> !llvm.ptr loc(#loc32)
        %56 = llvm.ptrtoint %55 : !llvm.ptr to i64 loc(#loc32)
        %57 = llvm.add %56, %23 : i64 loc(#loc32)
        %58 = llvm.urem %57, %10 : i64 loc(#loc32)
        %59 = llvm.sub %57, %58 : i64 loc(#loc32)
        %60 = llvm.inttoptr %59 : i64 to !llvm.ptr loc(#loc32)
        llvm.br ^bb7(%13 : i64) loc(#loc32)
      ^bb7(%61: i64 loc("clamp.21")):  // 2 preds: ^bb6, ^bb8
        %62 = llvm.icmp "slt" %61, %12 : i64 loc(#loc32)
        llvm.cond_br %62, ^bb8, ^bb9 loc(#loc32)
      ^bb8:  // pred: ^bb7
        %63 = llvm.getelementptr inbounds|nuw %43[%61] : (!llvm.ptr, i64) -> !llvm.ptr, i32 loc(#loc32)
        %64 = llvm.load %63 : !llvm.ptr -> i32 loc(#loc32)
        %65 = llvm.intr.smax(%64, %4) : (i32, i32) -> i32 loc(#loc32)
        %66 = llvm.intr.smin(%65, %4) : (i32, i32) -> i32 loc(#loc32)
        %67 = llvm.getelementptr inbounds|nuw %60[%61] : (!llvm.ptr, i64) -> !llvm.ptr, i32 loc(#loc32)
        llvm.store %66, %67 : i32, !llvm.ptr loc(#loc32)
        %68 = llvm.add %61, %11 : i64 loc(#loc32)
        llvm.br ^bb7(%68 : i64) loc(#loc32)
      ^bb9:  // pred: ^bb7
        %69 = llvm.getelementptr %0[2] : (!llvm.ptr) -> !llvm.ptr, i1 loc(#loc33)
        %70 = llvm.ptrtoint %69 : !llvm.ptr to i64 loc(#loc33)
        %71 = llvm.add %70, %10 : i64 loc(#loc33)
        %72 = llvm.call @malloc(%71) : (i64) -> !llvm.ptr loc(#loc33)
        %73 = llvm.ptrtoint %72 : !llvm.ptr to i64 loc(#loc33)
        %74 = llvm.add %73, %23 : i64 loc(#loc33)
        %75 = llvm.urem %74, %10 : i64 loc(#loc33)
        %76 = llvm.sub %74, %75 : i64 loc(#loc33)
        %77 = llvm.inttoptr %76 : i64 to !llvm.ptr loc(#loc33)
        llvm.br ^bb10(%13 : i64) loc(#loc33)
      ^bb10(%78: i64 loc("compare.30")):  // 2 preds: ^bb9, ^bb11
        %79 = llvm.icmp "slt" %78, %12 : i64 loc(#loc33)
        llvm.cond_br %79, ^bb11, ^bb12 loc(#loc33)
      ^bb11:  // pred: ^bb10
        %80 = llvm.load %17 : !llvm.ptr -> i32 loc(#loc33)
        %81 = llvm.getelementptr inbounds|nuw %60[%78] : (!llvm.ptr, i64) -> !llvm.ptr, i32 loc(#loc33)
        %82 = llvm.load %81 : !llvm.ptr -> i32 loc(#loc33)
        %83 = llvm.icmp "sgt" %80, %82 : i32 loc(#loc33)
        %84 = llvm.getelementptr inbounds|nuw %77[%78] : (!llvm.ptr, i64) -> !llvm.ptr, i1 loc(#loc33)
        llvm.store %83, %84 : i1, !llvm.ptr loc(#loc33)
        %85 = llvm.add %78, %11 : i64 loc(#loc33)
        llvm.br ^bb10(%85 : i64) loc(#loc33)
      ^bb12:  // pred: ^bb10
        %86 = llvm.call @malloc(%20) : (i64) -> !llvm.ptr loc(#loc33)
        %87 = llvm.ptrtoint %86 : !llvm.ptr to i64 loc(#loc33)
        %88 = llvm.add %87, %23 : i64 loc(#loc33)
        %89 = llvm.urem %88, %10 : i64 loc(#loc33)
        %90 = llvm.sub %88, %89 : i64 loc(#loc33)
        %91 = llvm.inttoptr %90 : i64 to !llvm.ptr loc(#loc33)
        llvm.br ^bb13(%13 : i64) loc(#loc33)
      ^bb13(%92: i64 loc("compare.30")):  // 2 preds: ^bb12, ^bb14
        %93 = llvm.icmp "slt" %92, %12 : i64 loc(#loc33)
        llvm.cond_br %93, ^bb14, ^bb15 loc(#loc33)
      ^bb14:  // pred: ^bb13
        %94 = llvm.getelementptr inbounds|nuw %77[%92] : (!llvm.ptr, i64) -> !llvm.ptr, i1 loc(#loc33)
        %95 = llvm.load %94 : !llvm.ptr -> i1 loc(#loc33)
        %96 = llvm.uitofp %95 : i1 to f32 loc(#loc33)
        %97 = llvm.getelementptr inbounds|nuw %91[%92] : (!llvm.ptr, i64) -> !llvm.ptr, f32 loc(#loc33)
        llvm.store %96, %97 : f32, !llvm.ptr loc(#loc33)
        %98 = llvm.add %92, %11 : i64 loc(#loc33)
        llvm.br ^bb13(%98 : i64) loc(#loc33)
      ^bb15:  // pred: ^bb13
        %99 = llvm.call @malloc(%37) : (i64) -> !llvm.ptr loc(#loc34)
        %100 = llvm.ptrtoint %99 : !llvm.ptr to i64 loc(#loc34)
        %101 = llvm.add %100, %23 : i64 loc(#loc34)
        %102 = llvm.urem %101, %10 : i64 loc(#loc34)
        %103 = llvm.sub %101, %102 : i64 loc(#loc34)
        %104 = llvm.inttoptr %103 : i64 to !llvm.ptr loc(#loc34)
        llvm.br ^bb16(%13 : i64) loc(#loc34)
      ^bb16(%105: i64 loc("add.27")):  // 2 preds: ^bb15, ^bb17
        %106 = llvm.icmp "slt" %105, %12 : i64 loc(#loc34)
        llvm.cond_br %106, ^bb17, ^bb18 loc(#loc34)
      ^bb17:  // pred: ^bb16
        %107 = llvm.getelementptr inbounds|nuw %60[%105] : (!llvm.ptr, i64) -> !llvm.ptr, i32 loc(#loc34)
        %108 = llvm.load %107 : !llvm.ptr -> i32 loc(#loc34)
        %109 = llvm.load %15 : !llvm.ptr -> i32 loc(#loc34)
        %110 = llvm.add %108, %109 : i32 loc(#loc34)
        %111 = llvm.getelementptr inbounds|nuw %104[%105] : (!llvm.ptr, i64) -> !llvm.ptr, i32 loc(#loc34)
        llvm.store %110, %111 : i32, !llvm.ptr loc(#loc34)
        %112 = llvm.add %105, %11 : i64 loc(#loc34)
        llvm.br ^bb16(%112 : i64) loc(#loc34)
      ^bb18:  // pred: ^bb16
        %113 = llvm.call @malloc(%71) : (i64) -> !llvm.ptr loc(#loc29)
        %114 = llvm.ptrtoint %113 : !llvm.ptr to i64 loc(#loc29)
        %115 = llvm.add %114, %23 : i64 loc(#loc29)
        %116 = llvm.urem %115, %10 : i64 loc(#loc29)
        %117 = llvm.sub %115, %116 : i64 loc(#loc29)
        %118 = llvm.inttoptr %117 : i64 to !llvm.ptr loc(#loc29)
        llvm.br ^bb19(%13 : i64) loc(#loc29)
      ^bb19(%119: i64 loc("select.31")):  // 2 preds: ^bb18, ^bb20
        %120 = llvm.icmp "slt" %119, %12 : i64 loc(#loc29)
        llvm.cond_br %120, ^bb20, ^bb21 loc(#loc29)
      ^bb20:  // pred: ^bb19
        %121 = llvm.getelementptr inbounds|nuw %91[%119] : (!llvm.ptr, i64) -> !llvm.ptr, f32 loc(#loc29)
        %122 = llvm.load %121 : !llvm.ptr -> f32 loc(#loc29)
        %123 = llvm.load %14 : !llvm.ptr -> f32 loc(#loc29)
        %124 = llvm.fcmp "ogt" %122, %123 : f32 loc(#loc29)
        %125 = llvm.getelementptr inbounds|nuw %118[%119] : (!llvm.ptr, i64) -> !llvm.ptr, i1 loc(#loc29)
        llvm.store %124, %125 : i1, !llvm.ptr loc(#loc29)
        %126 = llvm.add %119, %11 : i64 loc(#loc29)
        llvm.br ^bb19(%126 : i64) loc(#loc29)
      ^bb21:  // pred: ^bb19
        %127 = llvm.call @malloc(%37) : (i64) -> !llvm.ptr loc(#loc29)
        %128 = llvm.ptrtoint %127 : !llvm.ptr to i64 loc(#loc29)
        %129 = llvm.add %128, %23 : i64 loc(#loc29)
        %130 = llvm.urem %129, %10 : i64 loc(#loc29)
        %131 = llvm.sub %129, %130 : i64 loc(#loc29)
        %132 = llvm.inttoptr %131 : i64 to !llvm.ptr loc(#loc29)
        llvm.br ^bb22(%13 : i64) loc(#loc29)
      ^bb22(%133: i64 loc("select.31")):  // 2 preds: ^bb21, ^bb23
        %134 = llvm.icmp "slt" %133, %12 : i64 loc(#loc29)
        llvm.cond_br %134, ^bb23, ^bb24 loc(#loc29)
      ^bb23:  // pred: ^bb22
        %135 = llvm.getelementptr inbounds|nuw %118[%133] : (!llvm.ptr, i64) -> !llvm.ptr, i1 loc(#loc29)
        %136 = llvm.load %135 : !llvm.ptr -> i1 loc(#loc29)
        %137 = llvm.getelementptr inbounds|nuw %104[%133] : (!llvm.ptr, i64) -> !llvm.ptr, i32 loc(#loc29)
        %138 = llvm.load %137 : !llvm.ptr -> i32 loc(#loc29)
        %139 = llvm.getelementptr inbounds|nuw %60[%133] : (!llvm.ptr, i64) -> !llvm.ptr, i32 loc(#loc29)
        %140 = llvm.load %139 : !llvm.ptr -> i32 loc(#loc29)
        %141 = llvm.select %136, %138, %140 : i1, i32 loc(#loc29)
        %142 = llvm.getelementptr inbounds|nuw %132[%133] : (!llvm.ptr, i64) -> !llvm.ptr, i32 loc(#loc29)
        llvm.store %141, %142 : i32, !llvm.ptr loc(#loc29)
        %143 = llvm.add %133, %11 : i64 loc(#loc29)
        llvm.br ^bb22(%143 : i64) loc(#loc29)
      ^bb24:  // pred: ^bb22
        %144 = llvm.insertvalue %127, %9[0] : !llvm.struct<(ptr, ptr, i64, array<2 x i64>, array<2 x i64>)>  loc(#loc35)
        %145 = llvm.insertvalue %132, %144[1] : !llvm.struct<(ptr, ptr, i64, array<2 x i64>, array<2 x i64>)>  loc(#loc35)
        %146 = llvm.insertvalue %13, %145[2] : !llvm.struct<(ptr, ptr, i64, array<2 x i64>, array<2 x i64>)>  loc(#loc35)
        %147 = llvm.insertvalue %12, %146[3, 0] : !llvm.struct<(ptr, ptr, i64, array<2 x i64>, array<2 x i64>)>  loc(#loc35)
        %148 = llvm.insertvalue %11, %147[4, 0] : !llvm.struct<(ptr, ptr, i64, array<2 x i64>, array<2 x i64>)>  loc(#loc35)
        %149 = llvm.insertvalue %11, %148[3, 1] : !llvm.struct<(ptr, ptr, i64, array<2 x i64>, array<2 x i64>)>  loc(#loc35)
        %150 = llvm.insertvalue %11, %149[4, 1] : !llvm.struct<(ptr, ptr, i64, array<2 x i64>, array<2 x i64>)>  loc(#loc35)
        llvm.call @free(%21) : (!llvm.ptr) -> () loc(#loc)
        llvm.call @free(%38) : (!llvm.ptr) -> () loc(#loc)
        llvm.call @free(%55) : (!llvm.ptr) -> () loc(#loc)
        llvm.call @free(%72) : (!llvm.ptr) -> () loc(#loc)
        llvm.call @free(%86) : (!llvm.ptr) -> () loc(#loc)
        llvm.call @free(%99) : (!llvm.ptr) -> () loc(#loc)
        llvm.call @free(%113) : (!llvm.ptr) -> () loc(#loc)
        llvm.return %150 : !llvm.struct<(ptr, ptr, i64, array<2 x i64>, array<2 x i64>)> loc(#loc)
      } loc(#loc)
      llvm.func @cpu_hoisted_const_eval_7f0135d9(%arg0: !llvm.ptr loc(unknown), %arg1: !llvm.ptr loc(unknown), %arg2: i64 loc(unknown), %arg3: i64 loc(unknown), %arg4: i64 loc(unknown), %arg5: i64 loc(unknown), %arg6: i64 loc(unknown)) -> !llvm.struct<(ptr, ptr, i64, array<2 x i64>, array<2 x i64>)> attributes {arg_ranks = [2], func_hash = "7f0135d9b0e41b68db6b075998c8fd4e128758bcb5b9232c856bab099a8691b1", result_ranks = [2], tt.function_type = "forward_cpu"} {
        %0 = llvm.mlir.poison : !llvm.struct<(ptr, ptr, i64, array<2 x i64>, array<2 x i64>)> loc(#loc)
        %1 = llvm.mlir.zero : !llvm.ptr loc(#loc)
        %2 = llvm.mlir.constant(64 : index) : i64 loc(#loc)
        %3 = llvm.mlir.constant(1 : index) : i64 loc(#loc)
        %4 = llvm.mlir.constant(0 : index) : i64 loc(#loc)
        %5 = llvm.getelementptr %1[64] : (!llvm.ptr) -> !llvm.ptr, f32 loc(#loc36)
        %6 = llvm.ptrtoint %5 : !llvm.ptr to i64 loc(#loc36)
        %7 = llvm.call @malloc(%6) : (i64) -> !llvm.ptr loc(#loc36)
        %8 = llvm.insertvalue %7, %0[0] : !llvm.struct<(ptr, ptr, i64, array<2 x i64>, array<2 x i64>)>  loc(#loc36)
        %9 = llvm.insertvalue %7, %8[1] : !llvm.struct<(ptr, ptr, i64, array<2 x i64>, array<2 x i64>)>  loc(#loc36)
        %10 = llvm.insertvalue %4, %9[2] : !llvm.struct<(ptr, ptr, i64, array<2 x i64>, array<2 x i64>)>  loc(#loc36)
        %11 = llvm.insertvalue %3, %10[3, 0] : !llvm.struct<(ptr, ptr, i64, array<2 x i64>, array<2 x i64>)>  loc(#loc36)
        %12 = llvm.insertvalue %2, %11[3, 1] : !llvm.struct<(ptr, ptr, i64, array<2 x i64>, array<2 x i64>)>  loc(#loc36)
        %13 = llvm.insertvalue %2, %12[4, 0] : !llvm.struct<(ptr, ptr, i64, array<2 x i64>, array<2 x i64>)>  loc(#loc36)
        %14 = llvm.insertvalue %3, %13[4, 1] : !llvm.struct<(ptr, ptr, i64, array<2 x i64>, array<2 x i64>)>  loc(#loc36)
        %15 = llvm.mul %3, %3 : i64 loc(#loc36)
        %16 = llvm.mul %15, %2 : i64 loc(#loc36)
        %17 = llvm.getelementptr %1[1] : (!llvm.ptr) -> !llvm.ptr, f32 loc(#loc36)
        %18 = llvm.ptrtoint %17 : !llvm.ptr to i64 loc(#loc36)
        %19 = llvm.mul %16, %18 : i64 loc(#loc36)
        "llvm.intr.memcpy"(%7, %arg1, %19) <{isVolatile = false}> : (!llvm.ptr, !llvm.ptr, i64) -> () loc(#loc36)
        llvm.return %14 : !llvm.struct<(ptr, ptr, i64, array<2 x i64>, array<2 x i64>)> loc(#loc)
      } loc(#loc)
      llvm.func @cpu_hoisted_const_eval_497231de_helper(%arg0: !llvm.ptr loc(unknown)) -> !llvm.ptr {
        %0 = llvm.call @cpu_hoisted_const_eval_497231de() : () -> !llvm.struct<(ptr, ptr, i64, array<2 x i64>, array<2 x i64>)> loc(#loc)
        %1 = llvm.mlir.constant(32 : i64) : i64 loc(#loc)
        %2 = llvm.call @malloc(%1) : (i64) -> !llvm.ptr loc(#loc)
        %3 = llvm.mlir.constant(32 : i64) : i64 loc(#loc)
        %4 = llvm.call @malloc(%3) : (i64) -> !llvm.ptr loc(#loc)
        %5 = llvm.extractvalue %0[0] : !llvm.struct<(ptr, ptr, i64, array<2 x i64>, array<2 x i64>)>  loc(#loc)
        %6 = llvm.extractvalue %0[1] : !llvm.struct<(ptr, ptr, i64, array<2 x i64>, array<2 x i64>)>  loc(#loc)
        %7 = llvm.extractvalue %0[2] : !llvm.struct<(ptr, ptr, i64, array<2 x i64>, array<2 x i64>)>  loc(#loc)
        %8 = llvm.mlir.constant(0 : i64) : i64 loc(#loc)
        %9 = llvm.getelementptr %4[%8] : (!llvm.ptr, i64) -> !llvm.ptr, i8 loc(#loc)
        %10 = llvm.extractvalue %0[3, 0] : !llvm.struct<(ptr, ptr, i64, array<2 x i64>, array<2 x i64>)>  loc(#loc)
        %11 = llvm.mlir.constant(0 : i64) : i64 loc(#loc)
        %12 = llvm.getelementptr %9[%11] : (!llvm.ptr, i64) -> !llvm.ptr, i64 loc(#loc)
        llvm.store %10, %12 : i64, !llvm.ptr loc(#loc)
        %13 = llvm.extractvalue %0[3, 1] : !llvm.struct<(ptr, ptr, i64, array<2 x i64>, array<2 x i64>)>  loc(#loc)
        %14 = llvm.mlir.constant(1 : i64) : i64 loc(#loc)
        %15 = llvm.getelementptr %9[%14] : (!llvm.ptr, i64) -> !llvm.ptr, i64 loc(#loc)
        llvm.store %13, %15 : i64, !llvm.ptr loc(#loc)
        %16 = llvm.extractvalue %0[4, 0] : !llvm.struct<(ptr, ptr, i64, array<2 x i64>, array<2 x i64>)>  loc(#loc)
        %17 = llvm.mlir.constant(2 : i64) : i64 loc(#loc)
        %18 = llvm.getelementptr %9[%17] : (!llvm.ptr, i64) -> !llvm.ptr, i64 loc(#loc)
        llvm.store %16, %18 : i64, !llvm.ptr loc(#loc)
        %19 = llvm.extractvalue %0[4, 1] : !llvm.struct<(ptr, ptr, i64, array<2 x i64>, array<2 x i64>)>  loc(#loc)
        %20 = llvm.mlir.constant(3 : i64) : i64 loc(#loc)
        %21 = llvm.getelementptr %9[%20] : (!llvm.ptr, i64) -> !llvm.ptr, i64 loc(#loc)
        llvm.store %19, %21 : i64, !llvm.ptr loc(#loc)
        %22 = llvm.mlir.undef : !llvm.struct<(ptr, ptr, i64, ptr)> loc(#loc)
        %23 = llvm.insertvalue %5, %22[0] : !llvm.struct<(ptr, ptr, i64, ptr)>  loc(#loc)
        %24 = llvm.insertvalue %6, %23[1] : !llvm.struct<(ptr, ptr, i64, ptr)>  loc(#loc)
        %25 = llvm.insertvalue %7, %24[2] : !llvm.struct<(ptr, ptr, i64, ptr)>  loc(#loc)
        %26 = llvm.insertvalue %9, %25[3] : !llvm.struct<(ptr, ptr, i64, ptr)>  loc(#loc)
        %27 = llvm.mlir.constant(0 : i64) : i64 loc(#loc)
        %28 = llvm.getelementptr %2[%27] : (!llvm.ptr, i64) -> !llvm.ptr, !llvm.struct<(ptr, ptr, i64, ptr)> loc(#loc)
        llvm.store %26, %28 : !llvm.struct<(ptr, ptr, i64, ptr)>, !llvm.ptr loc(#loc)
        llvm.return %2 : !llvm.ptr loc(#loc)
      } loc(#loc)
      llvm.func @cpu_hoisted_const_eval_7f0135d9_helper(%arg0: !llvm.ptr loc(unknown)) -> !llvm.ptr {
        %0 = llvm.mlir.constant(0 : i64) : i64 loc(#loc)
        %1 = llvm.mlir.constant(4 : i64) : i64 loc(#loc)
        %2 = llvm.mul %0, %1 : i64 loc(#loc)
        %3 = llvm.getelementptr inbounds %arg0[%2] : (!llvm.ptr, i64) -> !llvm.ptr, !llvm.ptr loc(#loc)
        %4 = llvm.load %3 : !llvm.ptr -> !llvm.struct<(ptr, ptr, i64, ptr)> loc(#loc)
        %5 = llvm.extractvalue %4[0] : !llvm.struct<(ptr, ptr, i64, ptr)>  loc(#loc)
        %6 = llvm.extractvalue %4[1] : !llvm.struct<(ptr, ptr, i64, ptr)>  loc(#loc)
        %7 = llvm.extractvalue %4[2] : !llvm.struct<(ptr, ptr, i64, ptr)>  loc(#loc)
        %8 = llvm.extractvalue %4[3] : !llvm.struct<(ptr, ptr, i64, ptr)>  loc(#loc)
        %9 = llvm.mlir.constant(0 : i64) : i64 loc(#loc)
        %10 = llvm.getelementptr %8[%9] : (!llvm.ptr, i64) -> !llvm.ptr, !llvm.ptr loc(#loc)
        %11 = llvm.load %10 : !llvm.ptr -> i64 loc(#loc)
        %12 = llvm.mlir.constant(1 : i64) : i64 loc(#loc)
        %13 = llvm.getelementptr %8[%12] : (!llvm.ptr, i64) -> !llvm.ptr, !llvm.ptr loc(#loc)
        %14 = llvm.load %13 : !llvm.ptr -> i64 loc(#loc)
        %15 = llvm.mlir.constant(2 : i64) : i64 loc(#loc)
        %16 = llvm.getelementptr %8[%15] : (!llvm.ptr, i64) -> !llvm.ptr, !llvm.ptr loc(#loc)
        %17 = llvm.load %16 : !llvm.ptr -> i64 loc(#loc)
        %18 = llvm.mlir.constant(3 : i64) : i64 loc(#loc)
        %19 = llvm.getelementptr %8[%18] : (!llvm.ptr, i64) -> !llvm.ptr, !llvm.ptr loc(#loc)
        %20 = llvm.load %19 : !llvm.ptr -> i64 loc(#loc)
        %21 = llvm.call @cpu_hoisted_const_eval_7f0135d9(%5, %6, %7, %11, %14, %17, %20) : (!llvm.ptr, !llvm.ptr, i64, i64, i64, i64, i64) -> !llvm.struct<(ptr, ptr, i64, array<2 x i64>, array<2 x i64>)> loc(#loc)
        %22 = llvm.mlir.constant(32 : i64) : i64 loc(#loc)
        %23 = llvm.call @malloc(%22) : (i64) -> !llvm.ptr loc(#loc)
        %24 = llvm.mlir.constant(32 : i64) : i64 loc(#loc)
        %25 = llvm.call @malloc(%24) : (i64) -> !llvm.ptr loc(#loc)
        %26 = llvm.extractvalue %21[0] : !llvm.struct<(ptr, ptr, i64, array<2 x i64>, array<2 x i64>)>  loc(#loc)
        %27 = llvm.extractvalue %21[1] : !llvm.struct<(ptr, ptr, i64, array<2 x i64>, array<2 x i64>)>  loc(#loc)
        %28 = llvm.extractvalue %21[2] : !llvm.struct<(ptr, ptr, i64, array<2 x i64>, array<2 x i64>)>  loc(#loc)
        %29 = llvm.mlir.constant(0 : i64) : i64 loc(#loc)
        %30 = llvm.getelementptr %25[%29] : (!llvm.ptr, i64) -> !llvm.ptr, i8 loc(#loc)
        %31 = llvm.extractvalue %21[3, 0] : !llvm.struct<(ptr, ptr, i64, array<2 x i64>, array<2 x i64>)>  loc(#loc)
        %32 = llvm.mlir.constant(0 : i64) : i64 loc(#loc)
        %33 = llvm.getelementptr %30[%32] : (!llvm.ptr, i64) -> !llvm.ptr, i64 loc(#loc)
        llvm.store %31, %33 : i64, !llvm.ptr loc(#loc)
        %34 = llvm.extractvalue %21[3, 1] : !llvm.struct<(ptr, ptr, i64, array<2 x i64>, array<2 x i64>)>  loc(#loc)
        %35 = llvm.mlir.constant(1 : i64) : i64 loc(#loc)
        %36 = llvm.getelementptr %30[%35] : (!llvm.ptr, i64) -> !llvm.ptr, i64 loc(#loc)
        llvm.store %34, %36 : i64, !llvm.ptr loc(#loc)
        %37 = llvm.extractvalue %21[4, 0] : !llvm.struct<(ptr, ptr, i64, array<2 x i64>, array<2 x i64>)>  loc(#loc)
        %38 = llvm.mlir.constant(2 : i64) : i64 loc(#loc)
        %39 = llvm.getelementptr %30[%38] : (!llvm.ptr, i64) -> !llvm.ptr, i64 loc(#loc)
        llvm.store %37, %39 : i64, !llvm.ptr loc(#loc)
        %40 = llvm.extractvalue %21[4, 1] : !llvm.struct<(ptr, ptr, i64, array<2 x i64>, array<2 x i64>)>  loc(#loc)
        %41 = llvm.mlir.constant(3 : i64) : i64 loc(#loc)
        %42 = llvm.getelementptr %30[%41] : (!llvm.ptr, i64) -> !llvm.ptr, i64 loc(#loc)
        llvm.store %40, %42 : i64, !llvm.ptr loc(#loc)
        %43 = llvm.mlir.undef : !llvm.struct<(ptr, ptr, i64, ptr)> loc(#loc)
        %44 = llvm.insertvalue %26, %43[0] : !llvm.struct<(ptr, ptr, i64, ptr)>  loc(#loc)
        %45 = llvm.insertvalue %27, %44[1] : !llvm.struct<(ptr, ptr, i64, ptr)>  loc(#loc)
        %46 = llvm.insertvalue %28, %45[2] : !llvm.struct<(ptr, ptr, i64, ptr)>  loc(#loc)
        %47 = llvm.insertvalue %30, %46[3] : !llvm.struct<(ptr, ptr, i64, ptr)>  loc(#loc)
        %48 = llvm.mlir.constant(0 : i64) : i64 loc(#loc)
        %49 = llvm.getelementptr %23[%48] : (!llvm.ptr, i64) -> !llvm.ptr, !llvm.struct<(ptr, ptr, i64, ptr)> loc(#loc)
        llvm.store %47, %49 : !llvm.struct<(ptr, ptr, i64, ptr)>, !llvm.ptr loc(#loc)
        llvm.return %23 : !llvm.ptr loc(#loc)
      } loc(#loc)
    } loc(#loc)
  } loc(#loc)
} loc(#loc)
#loc1 = loc("reshape.83")
#loc2 = loc("gather.64")
#loc3 = loc("broadcast.61")
#loc11 = loc("and.82")
#loc12 = loc("not.84")
#loc13 = loc("convert.43_in_0_layout")
#loc14 = loc("convert.43")
#loc15 = loc("dot.45")
#loc16 = loc("reshape.46")
#loc17 = loc("slice.34_in_0_layout")
#loc18 = loc("slice.34")
#loc19 = loc("select.62")
#loc20 = loc("select.88")
#loc21 = loc("select.93")
#loc22 = loc("add.147")
#loc23 = loc("slice.127_in_0_layout")
#loc24 = loc("slice.127")
#loc25 = loc("select.163")
#loc26 = loc("gather.165")
#loc27 = loc("select.188")
#loc28 = loc("select.193")
#loc35 = loc("reshape.32")
#loc36 = loc("slice.134")
#loc37 = loc("reshape.83_tm1"(#loc1))
#loc38 = loc("gather.64_workaround"(#loc2))
#loc39 = loc("reshape.83_tm0_in_0_layout"(#loc1))
#loc40 = loc("reshape.83_tm0"(#loc1))
#loc41 = loc("gather.64_reshapeInput"(#loc2))
#loc42 = loc("gather.64_reshapeOutput"(#loc2))
#loc43 = loc("select.88_workaround"(#loc20))
#loc44 = loc("select.93_workaround"(#loc21))
#loc45 = loc("gather.165_reshapeInput"(#loc26))
#loc46 = loc("gather.165_workaround"(#loc26))
#loc47 = loc("gather.165_reshapeOutput"(#loc26))
#loc48 = loc("reshape.83_tm1_workaround"(#loc37))
------------------ END OF MLIR MODULE ------------------
2026-04-25 16:07:41.011 (   6.615s) [        497FA6C0]flatbuffer_loaded_execu:205   INFO| FlatbufferLoadedExecutableInstance::Execute tt_executable
2026-04-25 16:07:41.011 (   6.615s) [        497FA6C0]loaded_executable_insta:185   INFO| Input buffer instance arg_index: 0, device_index: 0, shape: [2, 8, 64] uid: 12
2026-04-25 16:07:41.011 (   6.616s) [        497FA6C0]loaded_executable_insta:185   INFO| Input buffer instance arg_index: 1, device_index: 0, shape: [64, 128] uid: 2
2026-04-25 16:07:41.011 (   6.616s) [        497FA6C0]loaded_executable_insta:185   INFO| Input buffer instance arg_index: 2, device_index: 0, shape: [1, 1, 128] uid: 1
2026-04-25 16:07:41.012 (   6.616s) [        497FA6C0]loaded_executable_insta:185   INFO| Input buffer instance arg_index: 3, device_index: 0, shape: [] uid: 10
2026-04-25 16:07:41.012 (   6.616s) [        497FA6C0]loaded_executable_insta:185   INFO| Input buffer instance arg_index: 4, device_index: 0, shape: [2, 8, 64] uid: 13
2026-04-25 16:07:41.012 (   6.616s) [        497FA6C0]loaded_executable_insta:185   INFO| Input buffer instance arg_index: 5, device_index: 0, shape: [4, 64] uid: 5
2026-04-25 16:07:41.013 (   6.617s) [        497FA6C0]loaded_executable_insta:185   INFO| Input buffer instance arg_index: 6, device_index: 0, shape: [64, 128] uid: 3
2026-04-25 16:07:41.028 (   6.632s) [        497FA6C0]flatbuffer_loaded_execu:99    INFO| [START] Filling output at output_index 0
2026-04-25 16:07:41.028 (   6.633s) [        497FA6C0]flatbuffer_loaded_execu:109   INFO| tt::runtime::Tensor outputTensor info: 207, shape: [2, 8, 64]
2026-04-25 16:07:41.028 (   6.633s) [        497FA6C0]flatbuffer_loaded_execu:133   INFO| Buffer instance for  0 device_index 0 with shape [2, 8, 64] and UID 14
2026-04-25 16:07:41.028 (   6.633s) [        497FA6C0]flatbuffer_loaded_execu:144   INFO| [END] Filling output at output_index 0
2026-04-25 16:07:41.028 (   6.633s) [        497FA6C0]flatbuffer_loaded_execu:99    INFO| [START] Filling output at output_index 1
2026-04-25 16:07:41.028 (   6.633s) [        497FA6C0]flatbuffer_loaded_execu:109   INFO| tt::runtime::Tensor outputTensor info: 220, shape: [2, 8, 64]
2026-04-25 16:07:41.028 (   6.633s) [        497FA6C0]flatbuffer_loaded_execu:133   INFO| Buffer instance for  1 device_index 0 with shape [2, 8, 64] and UID 15
2026-04-25 16:07:41.028 (   6.633s) [        497FA6C0]flatbuffer_loaded_execu:144   INFO| [END] Filling output at output_index 1
2026-04-25 16:07:41.028 (   6.633s) [        497FA6C0]flatbuffer_loaded_execu:99    INFO| [START] Filling output at output_index 2
2026-04-25 16:07:41.028 (   6.633s) [        497FA6C0]flatbuffer_loaded_execu:109   INFO| tt::runtime::Tensor outputTensor info: 193, shape: [1, 64]
2026-04-25 16:07:41.028 (   6.633s) [        497FA6C0]flatbuffer_loaded_execu:133   INFO| Buffer instance for  2 device_index 0 with shape [1, 64] and UID 16
2026-04-25 16:07:41.028 (   6.633s) [        497FA6C0]flatbuffer_loaded_execu:144   INFO| [END] Filling output at output_index 2
2026-04-25 16:07:41.028 (   6.633s) [        497FA6C0]flatbuffer_loaded_execu:99    INFO| [START] Filling output at output_index 3
2026-04-25 16:07:41.028 (   6.633s) [        497FA6C0]flatbuffer_loaded_execu:109   INFO| tt::runtime::Tensor outputTensor info: 194, shape: [1, 1, 64]
2026-04-25 16:07:41.028 (   6.633s) [        497FA6C0]flatbuffer_loaded_execu:133   INFO| Buffer instance for  3 device_index 0 with shape [1, 1, 64] and UID 17
2026-04-25 16:07:41.028 (   6.633s) [        497FA6C0]flatbuffer_loaded_execu:144   INFO| [END] Filling output at output_index 3
tensor([[[-0.1109, -0.0549, -0.0799,  ...,  0.2260, -0.1967,  0.3663],
         [ 0.3103,  0.3225, -0.0381,  ...,  0.2427,  0.2322,  0.2357],
         [ 0.2308, -0.3068, -0.4039,  ..., -0.4571, -0.2671,  0.0745],
         ...,
         [ 0.0000,  0.0000,  0.0000,  ...,  0.0000,  0.0000,  0.0000],
         [ 0.0000,  0.0000,  0.0000,  ...,  0.0000,  0.0000,  0.0000],
         [ 0.0000,  0.0000,  0.0000,  ...,  0.0000,  0.0000,  0.0000]],

        [[ 0.0000,  0.0000,  0.0000,  ...,  0.0000,  0.0000,  0.0000],
         [ 0.0000,  0.0000,  0.0000,  ...,  0.0000,  0.0000,  0.0000],
         [ 0.0000,  0.0000,  0.0000,  ...,  0.0000,  0.0000,  0.0000],
         ...,
         [ 0.0000,  0.0000,  0.0000,  ...,  0.0000,  0.0000,  0.0000],
         [ 0.0000,  0.0000,  0.0000,  ...,  0.0000,  0.0000,  0.0000],
         [ 0.0000,  0.0000,  0.0000,  ...,  0.0000,  0.0000,  0.0000]]])
tensor([[[-0.1113, -0.0547, -0.0796,  ...,  0.2256, -0.1963,  0.3652],
         [ 0.3105,  0.3223, -0.0383,  ...,  0.2422,  0.2314,  0.2354],
         [ 0.2305, -0.3066, -0.4043,  ..., -0.4570, -0.2676,  0.0742],
         ...,
         [ 0.0000,  0.0000,  0.0000,  ...,  0.0000,  0.0000,  0.0000],
         [ 0.0000,  0.0000,  0.0000,  ...,  0.0000,  0.0000,  0.0000],
         [ 0.0000,  0.0000,  0.0000,  ...,  0.0000,  0.0000,  0.0000]],

        [[ 0.0000,  0.0000,  0.0000,  ...,  0.0000,  0.0000,  0.0000],
         [ 0.0000,  0.0000,  0.0000,  ...,  0.0000,  0.0000,  0.0000],
         [ 0.0000,  0.0000,  0.0000,  ...,  0.0000,  0.0000,  0.0000],
         ...,
         [ 0.0000,  0.0000,  0.0000,  ...,  0.0000,  0.0000,  0.0000],
         [ 0.0000,  0.0000,  0.0000,  ...,  0.0000,  0.0000,  0.0000],
         [ 0.0000,  0.0000,  0.0000,  ...,  0.0000,  0.0000,  0.0000]]],
       device='xla:0')
TT
tensor([[[… device='xla:0')
CPU
tensor([[[… )
PASSED

=============================== warnings summary ===============================
<frozen importlib._bootstrap>:488
  <frozen importlib._bootstrap>:488: DeprecationWarning: builtin type SwigPyPacked has no __module__ attribute

<frozen importlib._bootstrap>:488
  <frozen importlib._bootstrap>:488: DeprecationWarning: builtin type SwigPyObject has no __module__ attribute

tests/torch/models/deepseek_v4/test_deepseek_v4_single_device.py::test_compressor_prefill_then_decode
  /localdev/jameszianxu/clean/tt-xla/tests/conftest.py:524: FutureWarning: `torch.distributed.reduce_op` is deprecated, please use `torch.distributed.ReduceOp` instead
    if isinstance(obj, torch.fx.GraphModule):

tests/torch/models/deepseek_v4/test_deepseek_v4_single_device.py::test_compressor_prefill_then_decode
  /localdev/jameszianxu/clean/tt-xla/tests/conftest.py:528: FutureWarning: `torch.distributed.reduce_op` is deprecated, please use `torch.distributed.ReduceOp` instead
    if isinstance(obj, GraphInputMatcher):

-- Docs: https://docs.pytest.org/en/stable/how-to/capture-warnings.html
======================== 1 passed, 4 warnings in 7.39s =========================
sys:1: DeprecationWarning: builtin type swigvarlink has no __module__ attribute
