WARNING:root:Defaulting to PJRT_DEVICE=CPU
2025-09-10 19:53:53.124 (   0.000s) [        F1708000]      dylib_platform.cc:47       1| DylibPlatform::SubclassInitialize
2025-09-10 19:53:53.126 (   0.002s) [        F1708000]     client_instance.cc:38       1| ClientInstance::ClientInstance
2025-09-10 19:53:53.126 (   0.002s) [        F1708000]              client.cc:18       1| TTClientInstance::TTClientInstance
2025-09-10 19:53:53.126 (   0.002s) [        F1708000]     client_instance.cc:59       1| ClientInstance::Initialize
2025-09-10 19:53:53.173 | info     |          Device | Opening user mode device driver (tt_cluster.cpp:190)
2025-09-10 19:53:53.287 | info     |   SiliconDriver | Harvesting mask for chip 0 is 0x300 (NOC0: 0x300, simulated harvesting mask: 0x0). (cluster.cpp:344)
2025-09-10 19:53:53.356 | info     |   SiliconDriver | Harvesting mask for chip 1 is 0x210 (NOC0: 0x210, simulated harvesting mask: 0x0). (cluster.cpp:344)
2025-09-10 19:54:03.735 | info     |   SiliconDriver | Opening local chip ids/pci ids: {0}/[3] and remote chip ids {1} (cluster.cpp:204)
2025-09-10 19:54:04.600 | info     |   SiliconDriver | All devices in cluster running firmware version: 18.2.0 (cluster.cpp:185)
2025-09-10 19:54:04.600 | info     |   SiliconDriver | IOMMU: disabled (cluster.cpp:159)
2025-09-10 19:54:04.600 | info     |   SiliconDriver | KMD version: 1.34.0 (cluster.cpp:162)
2025-09-10 19:54:04.600 | info     |   SiliconDriver | Software version 6.0.0, Ethernet FW version 6.14.0 (Device 0) (cluster.cpp:1003)
2025-09-10 19:54:06.906 | info     |   SiliconDriver | Software version 6.0.0, Ethernet FW version 6.14.0 (Device 1) (cluster.cpp:1003)
2025-09-10 19:54:06.912 | info     |   SiliconDriver | Pinning pages for Hugepage: virtual address 0x7fdfc0000000 and size 0x40000000 pinned to physical address 0x3c0000000 (pci_device.cpp:612)
2025-09-10 19:54:06.916 | info     |   SiliconDriver | Pinning pages for Hugepage: virtual address 0x7fdf80000000 and size 0x40000000 pinned to physical address 0x380000000 (pci_device.cpp:612)
2025-09-10 19:54:18.168 | info     |           Metal | While initializing device 0, active ethernet dispatch core (x=18,y=17) detected as still running, issuing exit signal. (metal_context.cpp:628)
2025-09-10 19:54:18.168 | info     |           Metal | While initializing device 0, active ethernet dispatch core (x=25,y=17) detected as still running, issuing exit signal. (metal_context.cpp:628)
2025-09-10 19:54:18.204 | info     |           Metal | While initializing device 1, active ethernet dispatch core (x=18,y=16) detected as still running, issuing exit signal. (metal_context.cpp:628)
2025-09-10 19:54:18.271 | info     |           Metal | While initializing device 1, active ethernet dispatch core (x=25,y=16) detected as still running, issuing exit signal. (metal_context.cpp:628)
2025-09-10 19:54:18.328 | info     |           Metal | Dispatch on FabricConfig::FABRIC_1D with 1 Command Queues
 (device_pool.cpp:328)
2025-09-10 19:54:18.334 | info     |           Metal | Initializing Fabric (device_pool.cpp:397)
2025-09-10 19:54:19.735 | info     |           Metal | Fabric initialized on Device 0 (device.cpp:420)
2025-09-10 19:54:19.735 | info     |           Metal | Fabric initialized on Device 1 (device.cpp:420)
2025-09-10 19:54:19.735 | info     |           Metal | Fabric Initialized with config FabricConfig::FABRIC_1D (device_pool.cpp:402)
2025-09-10 19:54:21.227 | info     |           Metal | Command Queue initialized on Device 1 (device_pool.cpp:482)
2025-09-10 19:54:21.233 (  28.109s) [        F1708000]              stubs.inc:112   WARN| STUB: PJRT_Client_TopologyDescription
2025-09-10 19:54:21.234 (  28.109s) [        F1708000]      error_instance.cc:49       1| ErrorInstance::PJRT_Error_Message
2025-09-10 19:54:21.234 (  28.109s) [        F1708000]      error_instance.cc:58       1| ErrorInstance::PJRT_Error_GetCode
2025-09-10 19:54:21.234 (  28.109s) [        F1708000]      error_instance.cc:43       1| ErrorInstance::PJRT_Error_Destroy
2025-09-10 19:54:21.234 (  28.109s) [        F1708000]     client_instance.cc:340      1| ClientInstance::PJRT_Client_PlatformVersion
2025-09-10 19:54:21.234 (  28.109s) [        F1708000]     client_instance.cc:320      1| ClientInstance::PJRT_Client_PlatformName
2025-09-10 19:54:21.234 (  28.109s) [        F1708000]     client_instance.cc:352      1| ClientInstance::PJRT_Client_Devices
2025-09-10 19:54:21.234 (  28.109s) [        F1708000]     device_instance.cc:44       1| DeviceInstance::PJRT_Device_GetDescription
2025-09-10 19:54:21.234 (  28.109s) [        F1708000]  device_description.cc:63       1| DeviceDescription::PJRT_DeviceDescription_Attributes
2025-09-10 19:54:21.234 (  28.109s) [        F1708000]     device_instance.cc:44       1| DeviceInstance::PJRT_Device_GetDescription
2025-09-10 19:54:21.234 (  28.109s) [        F1708000]  device_description.cc:63       1| DeviceDescription::PJRT_DeviceDescription_Attributes
2025-09-10 19:54:21.234 (  28.109s) [        F1708000]     client_instance.cc:365      1| ClientInstance::PJRT_Client_AddressableDevices
2025-09-10 19:54:21.234 (  28.109s) [        F1708000]     client_instance.cc:415      1| ClientInstance::PJRT_Client_AddressableMemories
2025-09-10 19:54:21.234 (  28.110s) [        F1708000]     device_instance.cc:71       1| DeviceInstance::PJRT_Device_AddressableMemories
2025-09-10 19:54:21.234 (  28.110s) [        F1708000]     device_instance.cc:71       1| DeviceInstance::PJRT_Device_AddressableMemories
2025-09-10 19:54:21.234 (  28.110s) [        F1708000]     memory_instance.cc:124      1| MemoryInstance::PJRT_Memory_AddressableByDevices
2025-09-10 19:54:21.234 (  28.110s) [        F1708000]     memory_instance.cc:124      1| MemoryInstance::PJRT_Memory_AddressableByDevices
2025-09-10 19:54:21.234 (  28.110s) [        F1708000]     memory_instance.cc:124      1| MemoryInstance::PJRT_Memory_AddressableByDevices
2025-09-10 19:54:21.234 (  28.110s) [        F1708000]        api_bindings.cc:76       1| PJRT_Plugin_Attributes
2025-09-10 19:54:21.234284: W torch_xla/csrc/runtime/profiler.cpp:88] Profiler API not found for PJRT plugin
2025-09-10 19:54:21.234 (  28.110s) [        F1708000]  device_description.cc:44       1| DeviceDescription::PJRT_DeviceDescription_Id
2025-09-10 19:54:21.234 (  28.110s) [        F1708000]  device_description.cc:44       1| DeviceDescription::PJRT_DeviceDescription_Id
2025-09-10 19:54:21.234 (  28.110s) [        F1708000]  device_description.cc:44       1| DeviceDescription::PJRT_DeviceDescription_Id
2025-09-10 19:54:21.234 (  28.110s) [        F1708000]  device_description.cc:44       1| DeviceDescription::PJRT_DeviceDescription_Id
2025-09-10 19:54:21.234 (  28.110s) [        F1708000]  device_description.cc:44       1| DeviceDescription::PJRT_DeviceDescription_Id
2025-09-10 19:54:21.234 (  28.110s) [        F1708000]  device_description.cc:44       1| DeviceDescription::PJRT_DeviceDescription_Id
2025-09-10 19:54:21.234 (  28.110s) [        F1708000]  device_description.cc:99       1| DeviceDescription::PJRT_DeviceDescription_ToString
2025-09-10 19:54:21.234 (  28.110s) [        F1708000]  device_description.cc:99       1| DeviceDescription::PJRT_DeviceDescription_ToString
2025-09-10 19:54:21.234 (  28.110s) [        F1708000]  device_description.cc:44       1| DeviceDescription::PJRT_DeviceDescription_Id
2025-09-10 19:54:21.234 (  28.110s) [        F1708000]  device_description.cc:44       1| DeviceDescription::PJRT_DeviceDescription_Id
2025-09-10 19:54:21.234 (  28.110s) [        F1708000]  device_description.cc:44       1| DeviceDescription::PJRT_DeviceDescription_Id
2025-09-10 19:54:21.234 (  28.110s) [        F1708000]  device_description.cc:44       1| DeviceDescription::PJRT_DeviceDescription_Id
/localdev/jameszianxu/tt-xla/examples/pytorch/llama.py:68: DeprecationWarning: Use torch_xla.device instead
  device = xm.xla_device()
Using TT-Metal from the source tree: /localdev/jameszianxu/tt-xla/third_party/tt-mlir/src/tt-mlir/third_party/tt-metal/src/tt-metal
WARNING: TT plugin is setting XLA_STABLEHLO_COMPILE to 1. This is required for TT PJRT plugin to work correctly.
Setting up XLA environment...
XLA environment configured.
Created device mesh: (1, 2) with 2 devices
Loading checkpoint shards:   0%|          | 0/2 [00:00<?, ?it/s]Loading checkpoint shards: 100%|██████████| 2/2 [00:00<00:00, 53.20it/s]
2025-09-10 19:54:22.700 (  29.576s) [        F1708000]  device_description.cc:44       1| DeviceDescription::PJRT_DeviceDescription_Id
2025-09-10 19:54:22.700 (  29.576s) [        F1708000]  device_description.cc:44       1| DeviceDescription::PJRT_DeviceDescription_Id
2025-09-10 19:54:22.700 (  29.576s) [        F1708000]     device_instance.cc:82       1| DeviceInstance::PJRT_Device_DefaultMemory
2025-09-10 19:54:22.700 (  29.576s) [        F1708000]     client_instance.cc:466      1| ClientInstance::PJRT_Client_BufferFromHostBuffer
2025-09-10 19:54:22.700 (  29.576s) [        F1708000]     memory_instance.cc:57       1| MemoryInstance::getDevice
[32m                 Always[0m | [1m[38;5;208m WARNING[0m | User provided a tensor of data type: Int64 which is not supported by runtime/ttnn. Casting to: Int32, this may impact throughput and the integrity of the data.
2025-09-10 19:54:22.701 (  29.577s) [        F1708000]      event_instance.cc:222      1| EventInstance::PJRT_Event_OnReady
2025-09-10 19:54:22.701 (  29.577s) [        F1708000]      event_instance.cc:171      1| EventInstance::PJRT_Event_Destroy
2025-09-10 19:54:22.701 (  29.577s) [        F1708000]     device_instance.cc:82       1| DeviceInstance::PJRT_Device_DefaultMemory
2025-09-10 19:54:22.701 (  29.577s) [        F1708000]     client_instance.cc:466      1| ClientInstance::PJRT_Client_BufferFromHostBuffer
2025-09-10 19:54:22.701 (  29.577s) [        F1708000]     memory_instance.cc:57       1| MemoryInstance::getDevice
[32m                 Always[0m | [1m[38;5;208m WARNING[0m | User provided a tensor of data type: Int64 which is not supported by runtime/ttnn. Casting to: Int32, this may impact throughput and the integrity of the data.
2025-09-10 19:54:22.701 (  29.577s) [        F1708000]      event_instance.cc:222      1| EventInstance::PJRT_Event_OnReady
2025-09-10 19:54:22.701 (  29.577s) [        F1708000]      event_instance.cc:171      1| EventInstance::PJRT_Event_Destroy
2025-09-10 19:54:22.702 (  29.578s) [        F1708000]  device_description.cc:44       1| DeviceDescription::PJRT_DeviceDescription_Id
2025-09-10 19:54:22.702 (  29.578s) [        F1708000]  device_description.cc:44       1| DeviceDescription::PJRT_DeviceDescription_Id
2025-09-10 19:54:22.702 (  29.578s) [        F1708000]     device_instance.cc:82       1| DeviceInstance::PJRT_Device_DefaultMemory
2025-09-10 19:54:22.702 (  29.578s) [        F1708000]     client_instance.cc:466      1| ClientInstance::PJRT_Client_BufferFromHostBuffer
2025-09-10 19:54:22.702 (  29.578s) [        F1708000]     memory_instance.cc:57       1| MemoryInstance::getDevice
[32m                 Always[0m | [1m[38;5;208m WARNING[0m | User provided a tensor of data type: Int64 which is not supported by runtime/ttnn. Casting to: Int32, this may impact throughput and the integrity of the data.
2025-09-10 19:54:22.702 (  29.578s) [        F1708000]      event_instance.cc:222      1| EventInstance::PJRT_Event_OnReady
2025-09-10 19:54:22.702 (  29.578s) [        F1708000]      event_instance.cc:171      1| EventInstance::PJRT_Event_Destroy
2025-09-10 19:54:22.702 (  29.578s) [        F1708000]     device_instance.cc:82       1| DeviceInstance::PJRT_Device_DefaultMemory
2025-09-10 19:54:22.702 (  29.578s) [        F1708000]     client_instance.cc:466      1| ClientInstance::PJRT_Client_BufferFromHostBuffer
2025-09-10 19:54:22.702 (  29.578s) [        F1708000]     memory_instance.cc:57       1| MemoryInstance::getDevice
[32m                 Always[0m | [1m[38;5;208m WARNING[0m | User provided a tensor of data type: Int64 which is not supported by runtime/ttnn. Casting to: Int32, this may impact throughput and the integrity of the data.
2025-09-10 19:54:22.702 (  29.578s) [        F1708000]      event_instance.cc:222      1| EventInstance::PJRT_Event_OnReady
2025-09-10 19:54:22.702 (  29.578s) [        F1708000]      event_instance.cc:171      1| EventInstance::PJRT_Event_Destroy
2025-09-10 19:54:22.702 (  29.578s) [        F1708000]  device_description.cc:44       1| DeviceDescription::PJRT_DeviceDescription_Id
2025-09-10 19:54:22.702 (  29.578s) [        F1708000]  device_description.cc:44       1| DeviceDescription::PJRT_DeviceDescription_Id
2025-09-10 19:54:22.702 (  29.578s) [        F1708000]     device_instance.cc:82       1| DeviceInstance::PJRT_Device_DefaultMemory
2025-09-10 19:54:22.702 (  29.578s) [        F1708000]     client_instance.cc:466      1| ClientInstance::PJRT_Client_BufferFromHostBuffer
2025-09-10 19:54:22.702 (  29.578s) [        F1708000]     memory_instance.cc:57       1| MemoryInstance::getDevice
2025-09-10 19:54:22.702 (  29.578s) [        F1708000]      event_instance.cc:222      1| EventInstance::PJRT_Event_OnReady
2025-09-10 19:54:22.703 (  29.578s) [        F1708000]      event_instance.cc:171      1| EventInstance::PJRT_Event_Destroy
2025-09-10 19:54:22.703 (  29.578s) [        F1708000]     device_instance.cc:82       1| DeviceInstance::PJRT_Device_DefaultMemory
2025-09-10 19:54:22.703 (  29.578s) [        F1708000]     client_instance.cc:466      1| ClientInstance::PJRT_Client_BufferFromHostBuffer
2025-09-10 19:54:22.703 (  29.578s) [        F1708000]     memory_instance.cc:57       1| MemoryInstance::getDevice
2025-09-10 19:54:22.703 (  29.578s) [        F1708000]      event_instance.cc:222      1| EventInstance::PJRT_Event_OnReady
2025-09-10 19:54:22.703 (  29.578s) [        F1708000]      event_instance.cc:171      1| EventInstance::PJRT_Event_Destroy
2025-09-10 19:54:22.703 (  29.579s) [        F1708000]  device_description.cc:44       1| DeviceDescription::PJRT_DeviceDescription_Id
2025-09-10 19:54:22.703 (  29.579s) [        F1708000]  device_description.cc:44       1| DeviceDescription::PJRT_DeviceDescription_Id
2025-09-10 19:54:22.703 (  29.579s) [        F1708000]     device_instance.cc:82       1| DeviceInstance::PJRT_Device_DefaultMemory
2025-09-10 19:54:22.703 (  29.579s) [        F1708000]     client_instance.cc:466      1| ClientInstance::PJRT_Client_BufferFromHostBuffer
2025-09-10 19:54:22.703 (  29.579s) [        F1708000]     memory_instance.cc:57       1| MemoryInstance::getDevice
2025-09-10 19:54:22.703 (  29.579s) [        F1708000]      event_instance.cc:222      1| EventInstance::PJRT_Event_OnReady
2025-09-10 19:54:22.703 (  29.579s) [        F1708000]      event_instance.cc:171      1| EventInstance::PJRT_Event_Destroy
2025-09-10 19:54:22.703 (  29.579s) [        F1708000]     device_instance.cc:82       1| DeviceInstance::PJRT_Device_DefaultMemory
2025-09-10 19:54:22.703 (  29.579s) [        F1708000]     client_instance.cc:466      1| ClientInstance::PJRT_Client_BufferFromHostBuffer
2025-09-10 19:54:22.703 (  29.579s) [        F1708000]     memory_instance.cc:57       1| MemoryInstance::getDevice
2025-09-10 19:54:22.703 (  29.579s) [        F1708000]      event_instance.cc:222      1| EventInstance::PJRT_Event_OnReady
2025-09-10 19:54:22.703 (  29.579s) [        F1708000]      event_instance.cc:171      1| EventInstance::PJRT_Event_Destroy
2025-09-10 19:54:23.351 (  30.227s) [        F1708000]  device_description.cc:44       1| DeviceDescription::PJRT_DeviceDescription_Id
2025-09-10 19:54:23.351 (  30.227s) [        F1708000]  device_description.cc:44       1| DeviceDescription::PJRT_DeviceDescription_Id
2025-09-10 19:54:23.359 (  30.235s) [        F1708000]     device_instance.cc:82       1| DeviceInstance::PJRT_Device_DefaultMemory
2025-09-10 19:54:23.359 (  30.235s) [        F1708000]     client_instance.cc:466      1| ClientInstance::PJRT_Client_BufferFromHostBuffer
2025-09-10 19:54:23.359 (  30.235s) [        F1708000]     memory_instance.cc:57       1| MemoryInstance::getDevice
2025-09-10 19:54:23.359 (  30.235s) [        F1708000]      event_instance.cc:222      1| EventInstance::PJRT_Event_OnReady
2025-09-10 19:54:23.359 (  30.235s) [        F1708000]      event_instance.cc:171      1| EventInstance::PJRT_Event_Destroy
2025-09-10 19:54:23.359 (  30.235s) [        F1708000]     device_instance.cc:82       1| DeviceInstance::PJRT_Device_DefaultMemory
2025-09-10 19:54:23.359 (  30.235s) [        F1708000]     client_instance.cc:466      1| ClientInstance::PJRT_Client_BufferFromHostBuffer
2025-09-10 19:54:23.359 (  30.235s) [        F1708000]     memory_instance.cc:57       1| MemoryInstance::getDevice
2025-09-10 19:54:23.360 (  30.235s) [        F1708000]      event_instance.cc:222      1| EventInstance::PJRT_Event_OnReady
2025-09-10 19:54:23.360 (  30.235s) [        F1708000]      event_instance.cc:171      1| EventInstance::PJRT_Event_Destroy
2025-09-10 19:54:23.364 (  30.240s) [        F1708000]  device_description.cc:44       1| DeviceDescription::PJRT_DeviceDescription_Id
2025-09-10 19:54:23.364 (  30.240s) [        F1708000]  device_description.cc:44       1| DeviceDescription::PJRT_DeviceDescription_Id
2025-09-10 19:54:23.372 (  30.248s) [        F1708000]     device_instance.cc:82       1| DeviceInstance::PJRT_Device_DefaultMemory
2025-09-10 19:54:23.372 (  30.248s) [        F1708000]     client_instance.cc:466      1| ClientInstance::PJRT_Client_BufferFromHostBuffer
2025-09-10 19:54:23.372 (  30.248s) [        F1708000]     memory_instance.cc:57       1| MemoryInstance::getDevice
2025-09-10 19:54:23.373 (  30.249s) [        F1708000]      event_instance.cc:222      1| EventInstance::PJRT_Event_OnReady
2025-09-10 19:54:23.373 (  30.249s) [        F1708000]      event_instance.cc:171      1| EventInstance::PJRT_Event_Destroy
2025-09-10 19:54:23.373 (  30.249s) [        F1708000]     device_instance.cc:82       1| DeviceInstance::PJRT_Device_DefaultMemory
2025-09-10 19:54:23.373 (  30.249s) [        F1708000]     client_instance.cc:466      1| ClientInstance::PJRT_Client_BufferFromHostBuffer
2025-09-10 19:54:23.373 (  30.249s) [        F1708000]     memory_instance.cc:57       1| MemoryInstance::getDevice
2025-09-10 19:54:23.373 (  30.249s) [        F1708000]      event_instance.cc:222      1| EventInstance::PJRT_Event_OnReady
2025-09-10 19:54:23.373 (  30.249s) [        F1708000]      event_instance.cc:171      1| EventInstance::PJRT_Event_Destroy
2025-09-10 19:54:23.377 (  30.253s) [        F1708000]  device_description.cc:44       1| DeviceDescription::PJRT_DeviceDescription_Id
2025-09-10 19:54:23.377 (  30.253s) [        F1708000]  device_description.cc:44       1| DeviceDescription::PJRT_DeviceDescription_Id
2025-09-10 19:54:23.389 (  30.265s) [        F1708000]     device_instance.cc:82       1| DeviceInstance::PJRT_Device_DefaultMemory
2025-09-10 19:54:23.389 (  30.265s) [        F1708000]     client_instance.cc:466      1| ClientInstance::PJRT_Client_BufferFromHostBuffer
2025-09-10 19:54:23.389 (  30.265s) [        F1708000]     memory_instance.cc:57       1| MemoryInstance::getDevice
2025-09-10 19:54:23.389 (  30.265s) [        F1708000]      event_instance.cc:222      1| EventInstance::PJRT_Event_OnReady
2025-09-10 19:54:23.389 (  30.265s) [        F1708000]      event_instance.cc:171      1| EventInstance::PJRT_Event_Destroy
2025-09-10 19:54:23.389 (  30.265s) [        F1708000]     device_instance.cc:82       1| DeviceInstance::PJRT_Device_DefaultMemory
2025-09-10 19:54:23.389 (  30.265s) [        F1708000]     client_instance.cc:466      1| ClientInstance::PJRT_Client_BufferFromHostBuffer
2025-09-10 19:54:23.389 (  30.265s) [        F1708000]     memory_instance.cc:57       1| MemoryInstance::getDevice
2025-09-10 19:54:23.389 (  30.265s) [        F1708000]      event_instance.cc:222      1| EventInstance::PJRT_Event_OnReady
2025-09-10 19:54:23.389 (  30.265s) [        F1708000]      event_instance.cc:171      1| EventInstance::PJRT_Event_Destroy
2025-09-10 19:54:23.394 (  30.270s) [        F1708000]  device_description.cc:44       1| DeviceDescription::PJRT_DeviceDescription_Id
2025-09-10 19:54:23.394 (  30.270s) [        F1708000]  device_description.cc:44       1| DeviceDescription::PJRT_DeviceDescription_Id
2025-09-10 19:54:23.395 (  30.271s) [        F1708000]     device_instance.cc:82       1| DeviceInstance::PJRT_Device_DefaultMemory
2025-09-10 19:54:23.395 (  30.271s) [        F1708000]     client_instance.cc:466      1| ClientInstance::PJRT_Client_BufferFromHostBuffer
2025-09-10 19:54:23.395 (  30.271s) [        F1708000]     memory_instance.cc:57       1| MemoryInstance::getDevice
2025-09-10 19:54:23.395 (  30.271s) [        F1708000]      event_instance.cc:222      1| EventInstance::PJRT_Event_OnReady
2025-09-10 19:54:23.395 (  30.271s) [        F1708000]      event_instance.cc:171      1| EventInstance::PJRT_Event_Destroy
2025-09-10 19:54:23.395 (  30.271s) [        F1708000]     device_instance.cc:82       1| DeviceInstance::PJRT_Device_DefaultMemory
2025-09-10 19:54:23.396 (  30.271s) [        F1708000]     client_instance.cc:466      1| ClientInstance::PJRT_Client_BufferFromHostBuffer
2025-09-10 19:54:23.396 (  30.271s) [        F1708000]     memory_instance.cc:57       1| MemoryInstance::getDevice
2025-09-10 19:54:23.396 (  30.271s) [        F1708000]      event_instance.cc:222      1| EventInstance::PJRT_Event_OnReady
2025-09-10 19:54:23.396 (  30.272s) [        F1708000]      event_instance.cc:171      1| EventInstance::PJRT_Event_Destroy
2025-09-10 19:54:23.396 (  30.272s) [        F1708000]  device_description.cc:44       1| DeviceDescription::PJRT_DeviceDescription_Id
2025-09-10 19:54:23.396 (  30.272s) [        F1708000]  device_description.cc:44       1| DeviceDescription::PJRT_DeviceDescription_Id
2025-09-10 19:54:23.397 (  30.273s) [        F1708000]     device_instance.cc:82       1| DeviceInstance::PJRT_Device_DefaultMemory
2025-09-10 19:54:23.397 (  30.273s) [        F1708000]     client_instance.cc:466      1| ClientInstance::PJRT_Client_BufferFromHostBuffer
2025-09-10 19:54:23.397 (  30.273s) [        F1708000]     memory_instance.cc:57       1| MemoryInstance::getDevice
2025-09-10 19:54:23.397 (  30.273s) [        F1708000]      event_instance.cc:222      1| EventInstance::PJRT_Event_OnReady
2025-09-10 19:54:23.397 (  30.273s) [        F1708000]      event_instance.cc:171      1| EventInstance::PJRT_Event_Destroy
2025-09-10 19:54:23.397 (  30.273s) [        F1708000]     device_instance.cc:82       1| DeviceInstance::PJRT_Device_DefaultMemory
2025-09-10 19:54:23.397 (  30.273s) [        F1708000]     client_instance.cc:466      1| ClientInstance::PJRT_Client_BufferFromHostBuffer
2025-09-10 19:54:23.397 (  30.273s) [        F1708000]     memory_instance.cc:57       1| MemoryInstance::getDevice
2025-09-10 19:54:23.397 (  30.273s) [        F1708000]      event_instance.cc:222      1| EventInstance::PJRT_Event_OnReady
2025-09-10 19:54:23.397 (  30.273s) [        F1708000]      event_instance.cc:171      1| EventInstance::PJRT_Event_Destroy
2025-09-10 19:54:23.398 (  30.273s) [        F1708000]  device_description.cc:44       1| DeviceDescription::PJRT_DeviceDescription_Id
2025-09-10 19:54:23.398 (  30.273s) [        F1708000]  device_description.cc:44       1| DeviceDescription::PJRT_DeviceDescription_Id
2025-09-10 19:54:23.399 (  30.275s) [        F1708000]     device_instance.cc:82       1| DeviceInstance::PJRT_Device_DefaultMemory
2025-09-10 19:54:23.399 (  30.275s) [        F1708000]     client_instance.cc:466      1| ClientInstance::PJRT_Client_BufferFromHostBuffer
2025-09-10 19:54:23.399 (  30.275s) [        F1708000]     memory_instance.cc:57       1| MemoryInstance::getDevice
2025-09-10 19:54:23.399 (  30.275s) [        F1708000]      event_instance.cc:222      1| EventInstance::PJRT_Event_OnReady
2025-09-10 19:54:23.399 (  30.275s) [        F1708000]      event_instance.cc:171      1| EventInstance::PJRT_Event_Destroy
2025-09-10 19:54:23.399 (  30.275s) [        F1708000]     device_instance.cc:82       1| DeviceInstance::PJRT_Device_DefaultMemory
2025-09-10 19:54:23.399 (  30.275s) [        F1708000]     client_instance.cc:466      1| ClientInstance::PJRT_Client_BufferFromHostBuffer
2025-09-10 19:54:23.399 (  30.275s) [        F1708000]     memory_instance.cc:57       1| MemoryInstance::getDevice
2025-09-10 19:54:23.399 (  30.275s) [        F1708000]      event_instance.cc:222      1| EventInstance::PJRT_Event_OnReady
2025-09-10 19:54:23.399 (  30.275s) [        F1708000]      event_instance.cc:171      1| EventInstance::PJRT_Event_Destroy
2025-09-10 19:54:23.399 (  30.275s) [        F1708000]  device_description.cc:44       1| DeviceDescription::PJRT_DeviceDescription_Id
2025-09-10 19:54:23.399 (  30.275s) [        F1708000]  device_description.cc:44       1| DeviceDescription::PJRT_DeviceDescription_Id
2025-09-10 19:54:23.401 (  30.276s) [        F1708000]     device_instance.cc:82       1| DeviceInstance::PJRT_Device_DefaultMemory
2025-09-10 19:54:23.401 (  30.276s) [        F1708000]     client_instance.cc:466      1| ClientInstance::PJRT_Client_BufferFromHostBuffer
2025-09-10 19:54:23.401 (  30.276s) [        F1708000]     memory_instance.cc:57       1| MemoryInstance::getDevice
2025-09-10 19:54:23.401 (  30.277s) [        F1708000]      event_instance.cc:222      1| EventInstance::PJRT_Event_OnReady
2025-09-10 19:54:23.401 (  30.277s) [        F1708000]      event_instance.cc:171      1| EventInstance::PJRT_Event_Destroy
2025-09-10 19:54:23.401 (  30.277s) [        F1708000]     device_instance.cc:82       1| DeviceInstance::PJRT_Device_DefaultMemory
2025-09-10 19:54:23.401 (  30.277s) [        F1708000]     client_instance.cc:466      1| ClientInstance::PJRT_Client_BufferFromHostBuffer
2025-09-10 19:54:23.401 (  30.277s) [        F1708000]     memory_instance.cc:57       1| MemoryInstance::getDevice
2025-09-10 19:54:23.401 (  30.277s) [        F1708000]      event_instance.cc:222      1| EventInstance::PJRT_Event_OnReady
2025-09-10 19:54:23.401 (  30.277s) [        F1708000]      event_instance.cc:171      1| EventInstance::PJRT_Event_Destroy
2025-09-10 19:54:23.401 (  30.277s) [        F1708000]  device_description.cc:44       1| DeviceDescription::PJRT_DeviceDescription_Id
2025-09-10 19:54:23.401 (  30.277s) [        F1708000]  device_description.cc:44       1| DeviceDescription::PJRT_DeviceDescription_Id
2025-09-10 19:54:23.409 (  30.284s) [        F1708000]     device_instance.cc:82       1| DeviceInstance::PJRT_Device_DefaultMemory
2025-09-10 19:54:23.409 (  30.284s) [        F1708000]     client_instance.cc:466      1| ClientInstance::PJRT_Client_BufferFromHostBuffer
2025-09-10 19:54:23.409 (  30.284s) [        F1708000]     memory_instance.cc:57       1| MemoryInstance::getDevice
2025-09-10 19:54:23.409 (  30.285s) [        F1708000]      event_instance.cc:222      1| EventInstance::PJRT_Event_OnReady
2025-09-10 19:54:23.409 (  30.285s) [        F1708000]      event_instance.cc:171      1| EventInstance::PJRT_Event_Destroy
2025-09-10 19:54:23.409 (  30.285s) [        F1708000]     device_instance.cc:82       1| DeviceInstance::PJRT_Device_DefaultMemory
2025-09-10 19:54:23.409 (  30.285s) [        F1708000]     client_instance.cc:466      1| ClientInstance::PJRT_Client_BufferFromHostBuffer
2025-09-10 19:54:23.409 (  30.285s) [        F1708000]     memory_instance.cc:57       1| MemoryInstance::getDevice
2025-09-10 19:54:23.409 (  30.285s) [        F1708000]      event_instance.cc:222      1| EventInstance::PJRT_Event_OnReady
2025-09-10 19:54:23.409 (  30.285s) [        F1708000]      event_instance.cc:171      1| EventInstance::PJRT_Event_Destroy
2025-09-10 19:54:23.414 (  30.289s) [        F1708000]  device_description.cc:44       1| DeviceDescription::PJRT_DeviceDescription_Id
2025-09-10 19:54:23.414 (  30.289s) [        F1708000]  device_description.cc:44       1| DeviceDescription::PJRT_DeviceDescription_Id
2025-09-10 19:54:23.421 (  30.297s) [        F1708000]     device_instance.cc:82       1| DeviceInstance::PJRT_Device_DefaultMemory
2025-09-10 19:54:23.421 (  30.297s) [        F1708000]     client_instance.cc:466      1| ClientInstance::PJRT_Client_BufferFromHostBuffer
2025-09-10 19:54:23.421 (  30.297s) [        F1708000]     memory_instance.cc:57       1| MemoryInstance::getDevice
2025-09-10 19:54:23.422 (  30.297s) [        F1708000]      event_instance.cc:222      1| EventInstance::PJRT_Event_OnReady
2025-09-10 19:54:23.422 (  30.297s) [        F1708000]      event_instance.cc:171      1| EventInstance::PJRT_Event_Destroy
2025-09-10 19:54:23.422 (  30.297s) [        F1708000]     device_instance.cc:82       1| DeviceInstance::PJRT_Device_DefaultMemory
2025-09-10 19:54:23.422 (  30.297s) [        F1708000]     client_instance.cc:466      1| ClientInstance::PJRT_Client_BufferFromHostBuffer
2025-09-10 19:54:23.422 (  30.297s) [        F1708000]     memory_instance.cc:57       1| MemoryInstance::getDevice
2025-09-10 19:54:23.422 (  30.298s) [        F1708000]      event_instance.cc:222      1| EventInstance::PJRT_Event_OnReady
2025-09-10 19:54:23.422 (  30.298s) [        F1708000]      event_instance.cc:171      1| EventInstance::PJRT_Event_Destroy
2025-09-10 19:54:23.426 (  30.302s) [        F1708000]  device_description.cc:44       1| DeviceDescription::PJRT_DeviceDescription_Id
2025-09-10 19:54:23.426 (  30.302s) [        F1708000]  device_description.cc:44       1| DeviceDescription::PJRT_DeviceDescription_Id
2025-09-10 19:54:23.434 (  30.310s) [        F1708000]     device_instance.cc:82       1| DeviceInstance::PJRT_Device_DefaultMemory
2025-09-10 19:54:23.434 (  30.310s) [        F1708000]     client_instance.cc:466      1| ClientInstance::PJRT_Client_BufferFromHostBuffer
2025-09-10 19:54:23.434 (  30.310s) [        F1708000]     memory_instance.cc:57       1| MemoryInstance::getDevice
2025-09-10 19:54:23.434 (  30.310s) [        F1708000]      event_instance.cc:222      1| EventInstance::PJRT_Event_OnReady
2025-09-10 19:54:23.434 (  30.310s) [        F1708000]      event_instance.cc:171      1| EventInstance::PJRT_Event_Destroy
2025-09-10 19:54:23.434 (  30.310s) [        F1708000]     device_instance.cc:82       1| DeviceInstance::PJRT_Device_DefaultMemory
2025-09-10 19:54:23.434 (  30.310s) [        F1708000]     client_instance.cc:466      1| ClientInstance::PJRT_Client_BufferFromHostBuffer
2025-09-10 19:54:23.434 (  30.310s) [        F1708000]     memory_instance.cc:57       1| MemoryInstance::getDevice
2025-09-10 19:54:23.434 (  30.310s) [        F1708000]      event_instance.cc:222      1| EventInstance::PJRT_Event_OnReady
2025-09-10 19:54:23.434 (  30.310s) [        F1708000]      event_instance.cc:171      1| EventInstance::PJRT_Event_Destroy
2025-09-10 19:54:23.439 (  30.315s) [        F1708000]  device_description.cc:44       1| DeviceDescription::PJRT_DeviceDescription_Id
2025-09-10 19:54:23.439 (  30.315s) [        F1708000]  device_description.cc:44       1| DeviceDescription::PJRT_DeviceDescription_Id
2025-09-10 19:54:23.440 (  30.316s) [        F1708000]     device_instance.cc:82       1| DeviceInstance::PJRT_Device_DefaultMemory
2025-09-10 19:54:23.440 (  30.316s) [        F1708000]     client_instance.cc:466      1| ClientInstance::PJRT_Client_BufferFromHostBuffer
2025-09-10 19:54:23.440 (  30.316s) [        F1708000]     memory_instance.cc:57       1| MemoryInstance::getDevice
2025-09-10 19:54:23.441 (  30.316s) [        F1708000]      event_instance.cc:222      1| EventInstance::PJRT_Event_OnReady
2025-09-10 19:54:23.441 (  30.317s) [        F1708000]      event_instance.cc:171      1| EventInstance::PJRT_Event_Destroy
2025-09-10 19:54:23.441 (  30.317s) [        F1708000]     device_instance.cc:82       1| DeviceInstance::PJRT_Device_DefaultMemory
2025-09-10 19:54:23.441 (  30.317s) [        F1708000]     client_instance.cc:466      1| ClientInstance::PJRT_Client_BufferFromHostBuffer
2025-09-10 19:54:23.441 (  30.317s) [        F1708000]     memory_instance.cc:57       1| MemoryInstance::getDevice
2025-09-10 19:54:23.441 (  30.317s) [        F1708000]      event_instance.cc:222      1| EventInstance::PJRT_Event_OnReady
2025-09-10 19:54:23.441 (  30.317s) [        F1708000]      event_instance.cc:171      1| EventInstance::PJRT_Event_Destroy
2025-09-10 19:54:23.441 (  30.317s) [        F1708000]  device_description.cc:44       1| DeviceDescription::PJRT_DeviceDescription_Id
2025-09-10 19:54:23.441 (  30.317s) [        F1708000]  device_description.cc:44       1| DeviceDescription::PJRT_DeviceDescription_Id
2025-09-10 19:54:23.442 (  30.317s) [        F1708000]     device_instance.cc:82       1| DeviceInstance::PJRT_Device_DefaultMemory
2025-09-10 19:54:23.442 (  30.317s) [        F1708000]     client_instance.cc:466      1| ClientInstance::PJRT_Client_BufferFromHostBuffer
2025-09-10 19:54:23.442 (  30.317s) [        F1708000]     memory_instance.cc:57       1| MemoryInstance::getDevice
2025-09-10 19:54:23.442 (  30.318s) [        F1708000]      event_instance.cc:222      1| EventInstance::PJRT_Event_OnReady
2025-09-10 19:54:23.442 (  30.318s) [        F1708000]      event_instance.cc:171      1| EventInstance::PJRT_Event_Destroy
2025-09-10 19:54:23.442 (  30.318s) [        F1708000]     device_instance.cc:82       1| DeviceInstance::PJRT_Device_DefaultMemory
2025-09-10 19:54:23.442 (  30.318s) [        F1708000]     client_instance.cc:466      1| ClientInstance::PJRT_Client_BufferFromHostBuffer
2025-09-10 19:54:23.442 (  30.318s) [        F1708000]     memory_instance.cc:57       1| MemoryInstance::getDevice
2025-09-10 19:54:23.442 (  30.318s) [        F1708000]      event_instance.cc:222      1| EventInstance::PJRT_Event_OnReady
2025-09-10 19:54:23.442 (  30.318s) [        F1708000]      event_instance.cc:171      1| EventInstance::PJRT_Event_Destroy
2025-09-10 19:54:23.442 (  30.318s) [        F1708000]  device_description.cc:44       1| DeviceDescription::PJRT_DeviceDescription_Id
2025-09-10 19:54:23.442 (  30.318s) [        F1708000]  device_description.cc:44       1| DeviceDescription::PJRT_DeviceDescription_Id
2025-09-10 19:54:23.442 (  30.318s) [        F1708000]     device_instance.cc:82       1| DeviceInstance::PJRT_Device_DefaultMemory
2025-09-10 19:54:23.442 (  30.318s) [        F1708000]     client_instance.cc:466      1| ClientInstance::PJRT_Client_BufferFromHostBuffer
2025-09-10 19:54:23.442 (  30.318s) [        F1708000]     memory_instance.cc:57       1| MemoryInstance::getDevice
2025-09-10 19:54:23.442 (  30.318s) [        F1708000]      event_instance.cc:222      1| EventInstance::PJRT_Event_OnReady
2025-09-10 19:54:23.442 (  30.318s) [        F1708000]      event_instance.cc:171      1| EventInstance::PJRT_Event_Destroy
2025-09-10 19:54:23.442 (  30.318s) [        F1708000]     device_instance.cc:82       1| DeviceInstance::PJRT_Device_DefaultMemory
2025-09-10 19:54:23.442 (  30.318s) [        F1708000]     client_instance.cc:466      1| ClientInstance::PJRT_Client_BufferFromHostBuffer
2025-09-10 19:54:23.442 (  30.318s) [        F1708000]     memory_instance.cc:57       1| MemoryInstance::getDevice
2025-09-10 19:54:23.443 (  30.318s) [        F1708000]      event_instance.cc:222      1| EventInstance::PJRT_Event_OnReady
2025-09-10 19:54:23.443 (  30.318s) [        F1708000]      event_instance.cc:171      1| EventInstance::PJRT_Event_Destroy
2025-09-10 19:54:23.443 (  30.319s) [        F1708000]  device_description.cc:44       1| DeviceDescription::PJRT_DeviceDescription_Id
2025-09-10 19:54:23.443 (  30.319s) [        F1708000]  device_description.cc:44       1| DeviceDescription::PJRT_DeviceDescription_Id
2025-09-10 19:54:23.444 (  30.320s) [        F1708000]     device_instance.cc:82       1| DeviceInstance::PJRT_Device_DefaultMemory
2025-09-10 19:54:23.444 (  30.320s) [        F1708000]     client_instance.cc:466      1| ClientInstance::PJRT_Client_BufferFromHostBuffer
2025-09-10 19:54:23.444 (  30.320s) [        F1708000]     memory_instance.cc:57       1| MemoryInstance::getDevice
2025-09-10 19:54:23.444 (  30.320s) [        F1708000]      event_instance.cc:222      1| EventInstance::PJRT_Event_OnReady
2025-09-10 19:54:23.444 (  30.320s) [        F1708000]      event_instance.cc:171      1| EventInstance::PJRT_Event_Destroy
2025-09-10 19:54:23.444 (  30.320s) [        F1708000]     device_instance.cc:82       1| DeviceInstance::PJRT_Device_DefaultMemory
2025-09-10 19:54:23.444 (  30.320s) [        F1708000]     client_instance.cc:466      1| ClientInstance::PJRT_Client_BufferFromHostBuffer
2025-09-10 19:54:23.444 (  30.320s) [        F1708000]     memory_instance.cc:57       1| MemoryInstance::getDevice
2025-09-10 19:54:23.444 (  30.320s) [        F1708000]      event_instance.cc:222      1| EventInstance::PJRT_Event_OnReady
2025-09-10 19:54:23.445 (  30.320s) [        F1708000]      event_instance.cc:171      1| EventInstance::PJRT_Event_Destroy
2025-09-10 19:54:23.445 (  30.320s) [        F1708000]  device_description.cc:44       1| DeviceDescription::PJRT_DeviceDescription_Id
2025-09-10 19:54:23.445 (  30.320s) [        F1708000]  device_description.cc:44       1| DeviceDescription::PJRT_DeviceDescription_Id
2025-09-10 19:54:23.451 (  30.327s) [        F1708000]     device_instance.cc:82       1| DeviceInstance::PJRT_Device_DefaultMemory
2025-09-10 19:54:23.451 (  30.327s) [        F1708000]     client_instance.cc:466      1| ClientInstance::PJRT_Client_BufferFromHostBuffer
2025-09-10 19:54:23.451 (  30.327s) [        F1708000]     memory_instance.cc:57       1| MemoryInstance::getDevice
2025-09-10 19:54:23.451 (  30.327s) [        F1708000]      event_instance.cc:222      1| EventInstance::PJRT_Event_OnReady
2025-09-10 19:54:23.451 (  30.327s) [        F1708000]      event_instance.cc:171      1| EventInstance::PJRT_Event_Destroy
2025-09-10 19:54:23.451 (  30.327s) [        F1708000]     device_instance.cc:82       1| DeviceInstance::PJRT_Device_DefaultMemory
2025-09-10 19:54:23.451 (  30.327s) [        F1708000]     client_instance.cc:466      1| ClientInstance::PJRT_Client_BufferFromHostBuffer
2025-09-10 19:54:23.451 (  30.327s) [        F1708000]     memory_instance.cc:57       1| MemoryInstance::getDevice
2025-09-10 19:54:23.451 (  30.327s) [        F1708000]      event_instance.cc:222      1| EventInstance::PJRT_Event_OnReady
2025-09-10 19:54:23.451 (  30.327s) [        F1708000]      event_instance.cc:171      1| EventInstance::PJRT_Event_Destroy
2025-09-10 19:54:23.456 (  30.332s) [        F1708000]  device_description.cc:44       1| DeviceDescription::PJRT_DeviceDescription_Id
2025-09-10 19:54:23.456 (  30.332s) [        F1708000]  device_description.cc:44       1| DeviceDescription::PJRT_DeviceDescription_Id
2025-09-10 19:54:23.463 (  30.339s) [        F1708000]     device_instance.cc:82       1| DeviceInstance::PJRT_Device_DefaultMemory
2025-09-10 19:54:23.463 (  30.339s) [        F1708000]     client_instance.cc:466      1| ClientInstance::PJRT_Client_BufferFromHostBuffer
2025-09-10 19:54:23.463 (  30.339s) [        F1708000]     memory_instance.cc:57       1| MemoryInstance::getDevice
2025-09-10 19:54:23.463 (  30.339s) [        F1708000]      event_instance.cc:222      1| EventInstance::PJRT_Event_OnReady
2025-09-10 19:54:23.463 (  30.339s) [        F1708000]      event_instance.cc:171      1| EventInstance::PJRT_Event_Destroy
2025-09-10 19:54:23.463 (  30.339s) [        F1708000]     device_instance.cc:82       1| DeviceInstance::PJRT_Device_DefaultMemory
2025-09-10 19:54:23.463 (  30.339s) [        F1708000]     client_instance.cc:466      1| ClientInstance::PJRT_Client_BufferFromHostBuffer
2025-09-10 19:54:23.463 (  30.339s) [        F1708000]     memory_instance.cc:57       1| MemoryInstance::getDevice
2025-09-10 19:54:23.463 (  30.339s) [        F1708000]      event_instance.cc:222      1| EventInstance::PJRT_Event_OnReady
2025-09-10 19:54:23.463 (  30.339s) [        F1708000]      event_instance.cc:171      1| EventInstance::PJRT_Event_Destroy
2025-09-10 19:54:23.468 (  30.343s) [        F1708000]  device_description.cc:44       1| DeviceDescription::PJRT_DeviceDescription_Id
2025-09-10 19:54:23.468 (  30.343s) [        F1708000]  device_description.cc:44       1| DeviceDescription::PJRT_DeviceDescription_Id
2025-09-10 19:54:23.475 (  30.351s) [        F1708000]     device_instance.cc:82       1| DeviceInstance::PJRT_Device_DefaultMemory
2025-09-10 19:54:23.475 (  30.351s) [        F1708000]     client_instance.cc:466      1| ClientInstance::PJRT_Client_BufferFromHostBuffer
2025-09-10 19:54:23.475 (  30.351s) [        F1708000]     memory_instance.cc:57       1| MemoryInstance::getDevice
2025-09-10 19:54:23.475 (  30.351s) [        F1708000]      event_instance.cc:222      1| EventInstance::PJRT_Event_OnReady
2025-09-10 19:54:23.475 (  30.351s) [        F1708000]      event_instance.cc:171      1| EventInstance::PJRT_Event_Destroy
2025-09-10 19:54:23.475 (  30.351s) [        F1708000]     device_instance.cc:82       1| DeviceInstance::PJRT_Device_DefaultMemory
2025-09-10 19:54:23.475 (  30.351s) [        F1708000]     client_instance.cc:466      1| ClientInstance::PJRT_Client_BufferFromHostBuffer
2025-09-10 19:54:23.475 (  30.351s) [        F1708000]     memory_instance.cc:57       1| MemoryInstance::getDevice
2025-09-10 19:54:23.475 (  30.351s) [        F1708000]      event_instance.cc:222      1| EventInstance::PJRT_Event_OnReady
2025-09-10 19:54:23.475 (  30.351s) [        F1708000]      event_instance.cc:171      1| EventInstance::PJRT_Event_Destroy
2025-09-10 19:54:23.480 (  30.355s) [        F1708000]  device_description.cc:44       1| DeviceDescription::PJRT_DeviceDescription_Id
2025-09-10 19:54:23.480 (  30.355s) [        F1708000]  device_description.cc:44       1| DeviceDescription::PJRT_DeviceDescription_Id
2025-09-10 19:54:23.481 (  30.356s) [        F1708000]     device_instance.cc:82       1| DeviceInstance::PJRT_Device_DefaultMemory
2025-09-10 19:54:23.481 (  30.356s) [        F1708000]     client_instance.cc:466      1| ClientInstance::PJRT_Client_BufferFromHostBuffer
2025-09-10 19:54:23.481 (  30.356s) [        F1708000]     memory_instance.cc:57       1| MemoryInstance::getDevice
2025-09-10 19:54:23.481 (  30.357s) [        F1708000]      event_instance.cc:222      1| EventInstance::PJRT_Event_OnReady
2025-09-10 19:54:23.481 (  30.357s) [        F1708000]      event_instance.cc:171      1| EventInstance::PJRT_Event_Destroy
2025-09-10 19:54:23.481 (  30.357s) [        F1708000]     device_instance.cc:82       1| DeviceInstance::PJRT_Device_DefaultMemory
2025-09-10 19:54:23.481 (  30.357s) [        F1708000]     client_instance.cc:466      1| ClientInstance::PJRT_Client_BufferFromHostBuffer
2025-09-10 19:54:23.481 (  30.357s) [        F1708000]     memory_instance.cc:57       1| MemoryInstance::getDevice
2025-09-10 19:54:23.481 (  30.357s) [        F1708000]      event_instance.cc:222      1| EventInstance::PJRT_Event_OnReady
2025-09-10 19:54:23.481 (  30.357s) [        F1708000]      event_instance.cc:171      1| EventInstance::PJRT_Event_Destroy
2025-09-10 19:54:23.481 (  30.357s) [        F1708000]  device_description.cc:44       1| DeviceDescription::PJRT_DeviceDescription_Id
2025-09-10 19:54:23.481 (  30.357s) [        F1708000]  device_description.cc:44       1| DeviceDescription::PJRT_DeviceDescription_Id
2025-09-10 19:54:23.482 (  30.357s) [        F1708000]     device_instance.cc:82       1| DeviceInstance::PJRT_Device_DefaultMemory
2025-09-10 19:54:23.482 (  30.357s) [        F1708000]     client_instance.cc:466      1| ClientInstance::PJRT_Client_BufferFromHostBuffer
2025-09-10 19:54:23.482 (  30.357s) [        F1708000]     memory_instance.cc:57       1| MemoryInstance::getDevice
2025-09-10 19:54:23.482 (  30.358s) [        F1708000]      event_instance.cc:222      1| EventInstance::PJRT_Event_OnReady
2025-09-10 19:54:23.482 (  30.358s) [        F1708000]      event_instance.cc:171      1| EventInstance::PJRT_Event_Destroy
2025-09-10 19:54:23.482 (  30.358s) [        F1708000]     device_instance.cc:82       1| DeviceInstance::PJRT_Device_DefaultMemory
2025-09-10 19:54:23.482 (  30.358s) [        F1708000]     client_instance.cc:466      1| ClientInstance::PJRT_Client_BufferFromHostBuffer
2025-09-10 19:54:23.482 (  30.358s) [        F1708000]     memory_instance.cc:57       1| MemoryInstance::getDevice
2025-09-10 19:54:23.482 (  30.358s) [        F1708000]      event_instance.cc:222      1| EventInstance::PJRT_Event_OnReady
2025-09-10 19:54:23.482 (  30.358s) [        F1708000]      event_instance.cc:171      1| EventInstance::PJRT_Event_Destroy
2025-09-10 19:54:23.482 (  30.358s) [        F1708000]  device_description.cc:44       1| DeviceDescription::PJRT_DeviceDescription_Id
2025-09-10 19:54:23.482 (  30.358s) [        F1708000]  device_description.cc:44       1| DeviceDescription::PJRT_DeviceDescription_Id
2025-09-10 19:54:23.483 (  30.359s) [        F1708000]     device_instance.cc:82       1| DeviceInstance::PJRT_Device_DefaultMemory
2025-09-10 19:54:23.483 (  30.359s) [        F1708000]     client_instance.cc:466      1| ClientInstance::PJRT_Client_BufferFromHostBuffer
2025-09-10 19:54:23.483 (  30.359s) [        F1708000]     memory_instance.cc:57       1| MemoryInstance::getDevice
2025-09-10 19:54:23.483 (  30.359s) [        F1708000]      event_instance.cc:222      1| EventInstance::PJRT_Event_OnReady
2025-09-10 19:54:23.483 (  30.359s) [        F1708000]      event_instance.cc:171      1| EventInstance::PJRT_Event_Destroy
2025-09-10 19:54:23.483 (  30.359s) [        F1708000]     device_instance.cc:82       1| DeviceInstance::PJRT_Device_DefaultMemory
2025-09-10 19:54:23.483 (  30.359s) [        F1708000]     client_instance.cc:466      1| ClientInstance::PJRT_Client_BufferFromHostBuffer
2025-09-10 19:54:23.483 (  30.359s) [        F1708000]     memory_instance.cc:57       1| MemoryInstance::getDevice
2025-09-10 19:54:23.483 (  30.359s) [        F1708000]      event_instance.cc:222      1| EventInstance::PJRT_Event_OnReady
2025-09-10 19:54:23.483 (  30.359s) [        F1708000]      event_instance.cc:171      1| EventInstance::PJRT_Event_Destroy
2025-09-10 19:54:23.483 (  30.359s) [        F1708000]  device_description.cc:44       1| DeviceDescription::PJRT_DeviceDescription_Id
2025-09-10 19:54:23.483 (  30.359s) [        F1708000]  device_description.cc:44       1| DeviceDescription::PJRT_DeviceDescription_Id
2025-09-10 19:54:23.485 (  30.360s) [        F1708000]     device_instance.cc:82       1| DeviceInstance::PJRT_Device_DefaultMemory
2025-09-10 19:54:23.485 (  30.360s) [        F1708000]     client_instance.cc:466      1| ClientInstance::PJRT_Client_BufferFromHostBuffer
2025-09-10 19:54:23.485 (  30.360s) [        F1708000]     memory_instance.cc:57       1| MemoryInstance::getDevice
2025-09-10 19:54:23.485 (  30.361s) [        F1708000]      event_instance.cc:222      1| EventInstance::PJRT_Event_OnReady
2025-09-10 19:54:23.485 (  30.361s) [        F1708000]      event_instance.cc:171      1| EventInstance::PJRT_Event_Destroy
2025-09-10 19:54:23.485 (  30.361s) [        F1708000]     device_instance.cc:82       1| DeviceInstance::PJRT_Device_DefaultMemory
2025-09-10 19:54:23.485 (  30.361s) [        F1708000]     client_instance.cc:466      1| ClientInstance::PJRT_Client_BufferFromHostBuffer
2025-09-10 19:54:23.485 (  30.361s) [        F1708000]     memory_instance.cc:57       1| MemoryInstance::getDevice
2025-09-10 19:54:23.485 (  30.361s) [        F1708000]      event_instance.cc:222      1| EventInstance::PJRT_Event_OnReady
2025-09-10 19:54:23.485 (  30.361s) [        F1708000]      event_instance.cc:171      1| EventInstance::PJRT_Event_Destroy
2025-09-10 19:54:23.485 (  30.361s) [        F1708000]  device_description.cc:44       1| DeviceDescription::PJRT_DeviceDescription_Id
2025-09-10 19:54:23.485 (  30.361s) [        F1708000]  device_description.cc:44       1| DeviceDescription::PJRT_DeviceDescription_Id
2025-09-10 19:54:23.491 (  30.367s) [        F1708000]     device_instance.cc:82       1| DeviceInstance::PJRT_Device_DefaultMemory
2025-09-10 19:54:23.491 (  30.367s) [        F1708000]     client_instance.cc:466      1| ClientInstance::PJRT_Client_BufferFromHostBuffer
2025-09-10 19:54:23.491 (  30.367s) [        F1708000]     memory_instance.cc:57       1| MemoryInstance::getDevice
2025-09-10 19:54:23.491 (  30.367s) [        F1708000]      event_instance.cc:222      1| EventInstance::PJRT_Event_OnReady
2025-09-10 19:54:23.491 (  30.367s) [        F1708000]      event_instance.cc:171      1| EventInstance::PJRT_Event_Destroy
2025-09-10 19:54:23.491 (  30.367s) [        F1708000]     device_instance.cc:82       1| DeviceInstance::PJRT_Device_DefaultMemory
2025-09-10 19:54:23.491 (  30.367s) [        F1708000]     client_instance.cc:466      1| ClientInstance::PJRT_Client_BufferFromHostBuffer
2025-09-10 19:54:23.491 (  30.367s) [        F1708000]     memory_instance.cc:57       1| MemoryInstance::getDevice
2025-09-10 19:54:23.491 (  30.367s) [        F1708000]      event_instance.cc:222      1| EventInstance::PJRT_Event_OnReady
2025-09-10 19:54:23.491 (  30.367s) [        F1708000]      event_instance.cc:171      1| EventInstance::PJRT_Event_Destroy
2025-09-10 19:54:23.496 (  30.372s) [        F1708000]  device_description.cc:44       1| DeviceDescription::PJRT_DeviceDescription_Id
2025-09-10 19:54:23.496 (  30.372s) [        F1708000]  device_description.cc:44       1| DeviceDescription::PJRT_DeviceDescription_Id
2025-09-10 19:54:23.503 (  30.379s) [        F1708000]     device_instance.cc:82       1| DeviceInstance::PJRT_Device_DefaultMemory
2025-09-10 19:54:23.503 (  30.379s) [        F1708000]     client_instance.cc:466      1| ClientInstance::PJRT_Client_BufferFromHostBuffer
2025-09-10 19:54:23.503 (  30.379s) [        F1708000]     memory_instance.cc:57       1| MemoryInstance::getDevice
2025-09-10 19:54:23.503 (  30.379s) [        F1708000]      event_instance.cc:222      1| EventInstance::PJRT_Event_OnReady
2025-09-10 19:54:23.503 (  30.379s) [        F1708000]      event_instance.cc:171      1| EventInstance::PJRT_Event_Destroy
2025-09-10 19:54:23.503 (  30.379s) [        F1708000]     device_instance.cc:82       1| DeviceInstance::PJRT_Device_DefaultMemory
2025-09-10 19:54:23.503 (  30.379s) [        F1708000]     client_instance.cc:466      1| ClientInstance::PJRT_Client_BufferFromHostBuffer
2025-09-10 19:54:23.503 (  30.379s) [        F1708000]     memory_instance.cc:57       1| MemoryInstance::getDevice
2025-09-10 19:54:23.503 (  30.379s) [        F1708000]      event_instance.cc:222      1| EventInstance::PJRT_Event_OnReady
2025-09-10 19:54:23.503 (  30.379s) [        F1708000]      event_instance.cc:171      1| EventInstance::PJRT_Event_Destroy
2025-09-10 19:54:23.508 (  30.384s) [        F1708000]  device_description.cc:44       1| DeviceDescription::PJRT_DeviceDescription_Id
2025-09-10 19:54:23.508 (  30.384s) [        F1708000]  device_description.cc:44       1| DeviceDescription::PJRT_DeviceDescription_Id
2025-09-10 19:54:23.515 (  30.391s) [        F1708000]     device_instance.cc:82       1| DeviceInstance::PJRT_Device_DefaultMemory
2025-09-10 19:54:23.515 (  30.391s) [        F1708000]     client_instance.cc:466      1| ClientInstance::PJRT_Client_BufferFromHostBuffer
2025-09-10 19:54:23.515 (  30.391s) [        F1708000]     memory_instance.cc:57       1| MemoryInstance::getDevice
2025-09-10 19:54:23.515 (  30.391s) [        F1708000]      event_instance.cc:222      1| EventInstance::PJRT_Event_OnReady
2025-09-10 19:54:23.515 (  30.391s) [        F1708000]      event_instance.cc:171      1| EventInstance::PJRT_Event_Destroy
2025-09-10 19:54:23.515 (  30.391s) [        F1708000]     device_instance.cc:82       1| DeviceInstance::PJRT_Device_DefaultMemory
2025-09-10 19:54:23.515 (  30.391s) [        F1708000]     client_instance.cc:466      1| ClientInstance::PJRT_Client_BufferFromHostBuffer
2025-09-10 19:54:23.515 (  30.391s) [        F1708000]     memory_instance.cc:57       1| MemoryInstance::getDevice
2025-09-10 19:54:23.515 (  30.391s) [        F1708000]      event_instance.cc:222      1| EventInstance::PJRT_Event_OnReady
2025-09-10 19:54:23.515 (  30.391s) [        F1708000]      event_instance.cc:171      1| EventInstance::PJRT_Event_Destroy
2025-09-10 19:54:23.520 (  30.395s) [        F1708000]  device_description.cc:44       1| DeviceDescription::PJRT_DeviceDescription_Id
2025-09-10 19:54:23.520 (  30.395s) [        F1708000]  device_description.cc:44       1| DeviceDescription::PJRT_DeviceDescription_Id
2025-09-10 19:54:23.521 (  30.397s) [        F1708000]     device_instance.cc:82       1| DeviceInstance::PJRT_Device_DefaultMemory
2025-09-10 19:54:23.521 (  30.397s) [        F1708000]     client_instance.cc:466      1| ClientInstance::PJRT_Client_BufferFromHostBuffer
2025-09-10 19:54:23.521 (  30.397s) [        F1708000]     memory_instance.cc:57       1| MemoryInstance::getDevice
2025-09-10 19:54:23.521 (  30.397s) [        F1708000]      event_instance.cc:222      1| EventInstance::PJRT_Event_OnReady
2025-09-10 19:54:23.521 (  30.397s) [        F1708000]      event_instance.cc:171      1| EventInstance::PJRT_Event_Destroy
2025-09-10 19:54:23.521 (  30.397s) [        F1708000]     device_instance.cc:82       1| DeviceInstance::PJRT_Device_DefaultMemory
2025-09-10 19:54:23.521 (  30.397s) [        F1708000]     client_instance.cc:466      1| ClientInstance::PJRT_Client_BufferFromHostBuffer
2025-09-10 19:54:23.521 (  30.397s) [        F1708000]     memory_instance.cc:57       1| MemoryInstance::getDevice
2025-09-10 19:54:23.521 (  30.397s) [        F1708000]      event_instance.cc:222      1| EventInstance::PJRT_Event_OnReady
2025-09-10 19:54:23.521 (  30.397s) [        F1708000]      event_instance.cc:171      1| EventInstance::PJRT_Event_Destroy
2025-09-10 19:54:23.521 (  30.397s) [        F1708000]  device_description.cc:44       1| DeviceDescription::PJRT_DeviceDescription_Id
2025-09-10 19:54:23.521 (  30.397s) [        F1708000]  device_description.cc:44       1| DeviceDescription::PJRT_DeviceDescription_Id
2025-09-10 19:54:23.522 (  30.398s) [        F1708000]     device_instance.cc:82       1| DeviceInstance::PJRT_Device_DefaultMemory
2025-09-10 19:54:23.522 (  30.398s) [        F1708000]     client_instance.cc:466      1| ClientInstance::PJRT_Client_BufferFromHostBuffer
2025-09-10 19:54:23.522 (  30.398s) [        F1708000]     memory_instance.cc:57       1| MemoryInstance::getDevice
2025-09-10 19:54:23.522 (  30.398s) [        F1708000]      event_instance.cc:222      1| EventInstance::PJRT_Event_OnReady
2025-09-10 19:54:23.522 (  30.398s) [        F1708000]      event_instance.cc:171      1| EventInstance::PJRT_Event_Destroy
2025-09-10 19:54:23.522 (  30.398s) [        F1708000]     device_instance.cc:82       1| DeviceInstance::PJRT_Device_DefaultMemory
2025-09-10 19:54:23.522 (  30.398s) [        F1708000]     client_instance.cc:466      1| ClientInstance::PJRT_Client_BufferFromHostBuffer
2025-09-10 19:54:23.522 (  30.398s) [        F1708000]     memory_instance.cc:57       1| MemoryInstance::getDevice
2025-09-10 19:54:23.522 (  30.398s) [        F1708000]      event_instance.cc:222      1| EventInstance::PJRT_Event_OnReady
2025-09-10 19:54:23.522 (  30.398s) [        F1708000]      event_instance.cc:171      1| EventInstance::PJRT_Event_Destroy
2025-09-10 19:54:23.522 (  30.398s) [        F1708000]  device_description.cc:44       1| DeviceDescription::PJRT_DeviceDescription_Id
2025-09-10 19:54:23.522 (  30.398s) [        F1708000]  device_description.cc:44       1| DeviceDescription::PJRT_DeviceDescription_Id
2025-09-10 19:54:23.523 (  30.399s) [        F1708000]     device_instance.cc:82       1| DeviceInstance::PJRT_Device_DefaultMemory
2025-09-10 19:54:23.523 (  30.399s) [        F1708000]     client_instance.cc:466      1| ClientInstance::PJRT_Client_BufferFromHostBuffer
2025-09-10 19:54:23.523 (  30.399s) [        F1708000]     memory_instance.cc:57       1| MemoryInstance::getDevice
2025-09-10 19:54:23.523 (  30.399s) [        F1708000]      event_instance.cc:222      1| EventInstance::PJRT_Event_OnReady
2025-09-10 19:54:23.523 (  30.399s) [        F1708000]      event_instance.cc:171      1| EventInstance::PJRT_Event_Destroy
2025-09-10 19:54:23.523 (  30.399s) [        F1708000]     device_instance.cc:82       1| DeviceInstance::PJRT_Device_DefaultMemory
2025-09-10 19:54:23.523 (  30.399s) [        F1708000]     client_instance.cc:466      1| ClientInstance::PJRT_Client_BufferFromHostBuffer
2025-09-10 19:54:23.523 (  30.399s) [        F1708000]     memory_instance.cc:57       1| MemoryInstance::getDevice
2025-09-10 19:54:23.523 (  30.399s) [        F1708000]      event_instance.cc:222      1| EventInstance::PJRT_Event_OnReady
2025-09-10 19:54:23.523 (  30.399s) [        F1708000]      event_instance.cc:171      1| EventInstance::PJRT_Event_Destroy
2025-09-10 19:54:23.523 (  30.399s) [        F1708000]  device_description.cc:44       1| DeviceDescription::PJRT_DeviceDescription_Id
2025-09-10 19:54:23.523 (  30.399s) [        F1708000]  device_description.cc:44       1| DeviceDescription::PJRT_DeviceDescription_Id
2025-09-10 19:54:23.525 (  30.401s) [        F1708000]     device_instance.cc:82       1| DeviceInstance::PJRT_Device_DefaultMemory
2025-09-10 19:54:23.525 (  30.401s) [        F1708000]     client_instance.cc:466      1| ClientInstance::PJRT_Client_BufferFromHostBuffer
2025-09-10 19:54:23.525 (  30.401s) [        F1708000]     memory_instance.cc:57       1| MemoryInstance::getDevice
2025-09-10 19:54:23.525 (  30.401s) [        F1708000]      event_instance.cc:222      1| EventInstance::PJRT_Event_OnReady
2025-09-10 19:54:23.525 (  30.401s) [        F1708000]      event_instance.cc:171      1| EventInstance::PJRT_Event_Destroy
2025-09-10 19:54:23.525 (  30.401s) [        F1708000]     device_instance.cc:82       1| DeviceInstance::PJRT_Device_DefaultMemory
2025-09-10 19:54:23.525 (  30.401s) [        F1708000]     client_instance.cc:466      1| ClientInstance::PJRT_Client_BufferFromHostBuffer
2025-09-10 19:54:23.525 (  30.401s) [        F1708000]     memory_instance.cc:57       1| MemoryInstance::getDevice
2025-09-10 19:54:23.525 (  30.401s) [        F1708000]      event_instance.cc:222      1| EventInstance::PJRT_Event_OnReady
2025-09-10 19:54:23.525 (  30.401s) [        F1708000]      event_instance.cc:171      1| EventInstance::PJRT_Event_Destroy
2025-09-10 19:54:23.525 (  30.401s) [        F1708000]  device_description.cc:44       1| DeviceDescription::PJRT_DeviceDescription_Id
2025-09-10 19:54:23.525 (  30.401s) [        F1708000]  device_description.cc:44       1| DeviceDescription::PJRT_DeviceDescription_Id
2025-09-10 19:54:23.531 (  30.407s) [        F1708000]     device_instance.cc:82       1| DeviceInstance::PJRT_Device_DefaultMemory
2025-09-10 19:54:23.531 (  30.407s) [        F1708000]     client_instance.cc:466      1| ClientInstance::PJRT_Client_BufferFromHostBuffer
2025-09-10 19:54:23.531 (  30.407s) [        F1708000]     memory_instance.cc:57       1| MemoryInstance::getDevice
2025-09-10 19:54:23.532 (  30.407s) [        F1708000]      event_instance.cc:222      1| EventInstance::PJRT_Event_OnReady
2025-09-10 19:54:23.532 (  30.407s) [        F1708000]      event_instance.cc:171      1| EventInstance::PJRT_Event_Destroy
2025-09-10 19:54:23.532 (  30.407s) [        F1708000]     device_instance.cc:82       1| DeviceInstance::PJRT_Device_DefaultMemory
2025-09-10 19:54:23.532 (  30.407s) [        F1708000]     client_instance.cc:466      1| ClientInstance::PJRT_Client_BufferFromHostBuffer
2025-09-10 19:54:23.532 (  30.407s) [        F1708000]     memory_instance.cc:57       1| MemoryInstance::getDevice
2025-09-10 19:54:23.532 (  30.408s) [        F1708000]      event_instance.cc:222      1| EventInstance::PJRT_Event_OnReady
2025-09-10 19:54:23.532 (  30.408s) [        F1708000]      event_instance.cc:171      1| EventInstance::PJRT_Event_Destroy
2025-09-10 19:54:23.536 (  30.412s) [        F1708000]  device_description.cc:44       1| DeviceDescription::PJRT_DeviceDescription_Id
2025-09-10 19:54:23.536 (  30.412s) [        F1708000]  device_description.cc:44       1| DeviceDescription::PJRT_DeviceDescription_Id
2025-09-10 19:54:23.543 (  30.419s) [        F1708000]     device_instance.cc:82       1| DeviceInstance::PJRT_Device_DefaultMemory
2025-09-10 19:54:23.543 (  30.419s) [        F1708000]     client_instance.cc:466      1| ClientInstance::PJRT_Client_BufferFromHostBuffer
2025-09-10 19:54:23.543 (  30.419s) [        F1708000]     memory_instance.cc:57       1| MemoryInstance::getDevice
2025-09-10 19:54:23.543 (  30.419s) [        F1708000]      event_instance.cc:222      1| EventInstance::PJRT_Event_OnReady
2025-09-10 19:54:23.543 (  30.419s) [        F1708000]      event_instance.cc:171      1| EventInstance::PJRT_Event_Destroy
2025-09-10 19:54:23.544 (  30.419s) [        F1708000]     device_instance.cc:82       1| DeviceInstance::PJRT_Device_DefaultMemory
2025-09-10 19:54:23.544 (  30.419s) [        F1708000]     client_instance.cc:466      1| ClientInstance::PJRT_Client_BufferFromHostBuffer
2025-09-10 19:54:23.544 (  30.419s) [        F1708000]     memory_instance.cc:57       1| MemoryInstance::getDevice
2025-09-10 19:54:23.544 (  30.419s) [        F1708000]      event_instance.cc:222      1| EventInstance::PJRT_Event_OnReady
2025-09-10 19:54:23.544 (  30.419s) [        F1708000]      event_instance.cc:171      1| EventInstance::PJRT_Event_Destroy
2025-09-10 19:54:23.548 (  30.424s) [        F1708000]  device_description.cc:44       1| DeviceDescription::PJRT_DeviceDescription_Id
2025-09-10 19:54:23.548 (  30.424s) [        F1708000]  device_description.cc:44       1| DeviceDescription::PJRT_DeviceDescription_Id
2025-09-10 19:54:23.557 (  30.433s) [        F1708000]     device_instance.cc:82       1| DeviceInstance::PJRT_Device_DefaultMemory
2025-09-10 19:54:23.557 (  30.433s) [        F1708000]     client_instance.cc:466      1| ClientInstance::PJRT_Client_BufferFromHostBuffer
2025-09-10 19:54:23.557 (  30.433s) [        F1708000]     memory_instance.cc:57       1| MemoryInstance::getDevice
2025-09-10 19:54:23.557 (  30.433s) [        F1708000]      event_instance.cc:222      1| EventInstance::PJRT_Event_OnReady
2025-09-10 19:54:23.557 (  30.433s) [        F1708000]      event_instance.cc:171      1| EventInstance::PJRT_Event_Destroy
2025-09-10 19:54:23.557 (  30.433s) [        F1708000]     device_instance.cc:82       1| DeviceInstance::PJRT_Device_DefaultMemory
2025-09-10 19:54:23.557 (  30.433s) [        F1708000]     client_instance.cc:466      1| ClientInstance::PJRT_Client_BufferFromHostBuffer
2025-09-10 19:54:23.557 (  30.433s) [        F1708000]     memory_instance.cc:57       1| MemoryInstance::getDevice
2025-09-10 19:54:23.557 (  30.433s) [        F1708000]      event_instance.cc:222      1| EventInstance::PJRT_Event_OnReady
2025-09-10 19:54:23.557 (  30.433s) [        F1708000]      event_instance.cc:171      1| EventInstance::PJRT_Event_Destroy
2025-09-10 19:54:23.561 (  30.437s) [        F1708000]  device_description.cc:44       1| DeviceDescription::PJRT_DeviceDescription_Id
2025-09-10 19:54:23.561 (  30.437s) [        F1708000]  device_description.cc:44       1| DeviceDescription::PJRT_DeviceDescription_Id
2025-09-10 19:54:23.563 (  30.439s) [        F1708000]     device_instance.cc:82       1| DeviceInstance::PJRT_Device_DefaultMemory
2025-09-10 19:54:23.563 (  30.439s) [        F1708000]     client_instance.cc:466      1| ClientInstance::PJRT_Client_BufferFromHostBuffer
2025-09-10 19:54:23.563 (  30.439s) [        F1708000]     memory_instance.cc:57       1| MemoryInstance::getDevice
2025-09-10 19:54:23.563 (  30.439s) [        F1708000]      event_instance.cc:222      1| EventInstance::PJRT_Event_OnReady
2025-09-10 19:54:23.563 (  30.439s) [        F1708000]      event_instance.cc:171      1| EventInstance::PJRT_Event_Destroy
2025-09-10 19:54:23.563 (  30.439s) [        F1708000]     device_instance.cc:82       1| DeviceInstance::PJRT_Device_DefaultMemory
2025-09-10 19:54:23.563 (  30.439s) [        F1708000]     client_instance.cc:466      1| ClientInstance::PJRT_Client_BufferFromHostBuffer
2025-09-10 19:54:23.563 (  30.439s) [        F1708000]     memory_instance.cc:57       1| MemoryInstance::getDevice
2025-09-10 19:54:23.563 (  30.439s) [        F1708000]      event_instance.cc:222      1| EventInstance::PJRT_Event_OnReady
2025-09-10 19:54:23.563 (  30.439s) [        F1708000]      event_instance.cc:171      1| EventInstance::PJRT_Event_Destroy
2025-09-10 19:54:23.563 (  30.439s) [        F1708000]  device_description.cc:44       1| DeviceDescription::PJRT_DeviceDescription_Id
2025-09-10 19:54:23.563 (  30.439s) [        F1708000]  device_description.cc:44       1| DeviceDescription::PJRT_DeviceDescription_Id
2025-09-10 19:54:23.564 (  30.440s) [        F1708000]     device_instance.cc:82       1| DeviceInstance::PJRT_Device_DefaultMemory
2025-09-10 19:54:23.564 (  30.440s) [        F1708000]     client_instance.cc:466      1| ClientInstance::PJRT_Client_BufferFromHostBuffer
2025-09-10 19:54:23.564 (  30.440s) [        F1708000]     memory_instance.cc:57       1| MemoryInstance::getDevice
2025-09-10 19:54:23.564 (  30.440s) [        F1708000]      event_instance.cc:222      1| EventInstance::PJRT_Event_OnReady
2025-09-10 19:54:23.564 (  30.440s) [        F1708000]      event_instance.cc:171      1| EventInstance::PJRT_Event_Destroy
2025-09-10 19:54:23.564 (  30.440s) [        F1708000]     device_instance.cc:82       1| DeviceInstance::PJRT_Device_DefaultMemory
2025-09-10 19:54:23.564 (  30.440s) [        F1708000]     client_instance.cc:466      1| ClientInstance::PJRT_Client_BufferFromHostBuffer
2025-09-10 19:54:23.564 (  30.440s) [        F1708000]     memory_instance.cc:57       1| MemoryInstance::getDevice
2025-09-10 19:54:23.564 (  30.440s) [        F1708000]      event_instance.cc:222      1| EventInstance::PJRT_Event_OnReady
2025-09-10 19:54:23.564 (  30.440s) [        F1708000]      event_instance.cc:171      1| EventInstance::PJRT_Event_Destroy
2025-09-10 19:54:23.564 (  30.440s) [        F1708000]  device_description.cc:44       1| DeviceDescription::PJRT_DeviceDescription_Id
2025-09-10 19:54:23.564 (  30.440s) [        F1708000]  device_description.cc:44       1| DeviceDescription::PJRT_DeviceDescription_Id
2025-09-10 19:54:23.565 (  30.441s) [        F1708000]     device_instance.cc:82       1| DeviceInstance::PJRT_Device_DefaultMemory
2025-09-10 19:54:23.565 (  30.441s) [        F1708000]     client_instance.cc:466      1| ClientInstance::PJRT_Client_BufferFromHostBuffer
2025-09-10 19:54:23.565 (  30.441s) [        F1708000]     memory_instance.cc:57       1| MemoryInstance::getDevice
2025-09-10 19:54:23.565 (  30.441s) [        F1708000]      event_instance.cc:222      1| EventInstance::PJRT_Event_OnReady
2025-09-10 19:54:23.565 (  30.441s) [        F1708000]      event_instance.cc:171      1| EventInstance::PJRT_Event_Destroy
2025-09-10 19:54:23.565 (  30.441s) [        F1708000]     device_instance.cc:82       1| DeviceInstance::PJRT_Device_DefaultMemory
2025-09-10 19:54:23.565 (  30.441s) [        F1708000]     client_instance.cc:466      1| ClientInstance::PJRT_Client_BufferFromHostBuffer
2025-09-10 19:54:23.565 (  30.441s) [        F1708000]     memory_instance.cc:57       1| MemoryInstance::getDevice
2025-09-10 19:54:23.565 (  30.441s) [        F1708000]      event_instance.cc:222      1| EventInstance::PJRT_Event_OnReady
2025-09-10 19:54:23.565 (  30.441s) [        F1708000]      event_instance.cc:171      1| EventInstance::PJRT_Event_Destroy
2025-09-10 19:54:23.566 (  30.441s) [        F1708000]  device_description.cc:44       1| DeviceDescription::PJRT_DeviceDescription_Id
2025-09-10 19:54:23.566 (  30.441s) [        F1708000]  device_description.cc:44       1| DeviceDescription::PJRT_DeviceDescription_Id
2025-09-10 19:54:23.567 (  30.443s) [        F1708000]     device_instance.cc:82       1| DeviceInstance::PJRT_Device_DefaultMemory
2025-09-10 19:54:23.567 (  30.443s) [        F1708000]     client_instance.cc:466      1| ClientInstance::PJRT_Client_BufferFromHostBuffer
2025-09-10 19:54:23.567 (  30.443s) [        F1708000]     memory_instance.cc:57       1| MemoryInstance::getDevice
2025-09-10 19:54:23.567 (  30.443s) [        F1708000]      event_instance.cc:222      1| EventInstance::PJRT_Event_OnReady
2025-09-10 19:54:23.567 (  30.443s) [        F1708000]      event_instance.cc:171      1| EventInstance::PJRT_Event_Destroy
2025-09-10 19:54:23.567 (  30.443s) [        F1708000]     device_instance.cc:82       1| DeviceInstance::PJRT_Device_DefaultMemory
2025-09-10 19:54:23.567 (  30.443s) [        F1708000]     client_instance.cc:466      1| ClientInstance::PJRT_Client_BufferFromHostBuffer
2025-09-10 19:54:23.567 (  30.443s) [        F1708000]     memory_instance.cc:57       1| MemoryInstance::getDevice
2025-09-10 19:54:23.567 (  30.443s) [        F1708000]      event_instance.cc:222      1| EventInstance::PJRT_Event_OnReady
2025-09-10 19:54:23.567 (  30.443s) [        F1708000]      event_instance.cc:171      1| EventInstance::PJRT_Event_Destroy
2025-09-10 19:54:23.567 (  30.443s) [        F1708000]  device_description.cc:44       1| DeviceDescription::PJRT_DeviceDescription_Id
2025-09-10 19:54:23.567 (  30.443s) [        F1708000]  device_description.cc:44       1| DeviceDescription::PJRT_DeviceDescription_Id
2025-09-10 19:54:23.574 (  30.450s) [        F1708000]     device_instance.cc:82       1| DeviceInstance::PJRT_Device_DefaultMemory
2025-09-10 19:54:23.574 (  30.450s) [        F1708000]     client_instance.cc:466      1| ClientInstance::PJRT_Client_BufferFromHostBuffer
2025-09-10 19:54:23.574 (  30.450s) [        F1708000]     memory_instance.cc:57       1| MemoryInstance::getDevice
2025-09-10 19:54:23.574 (  30.450s) [        F1708000]      event_instance.cc:222      1| EventInstance::PJRT_Event_OnReady
2025-09-10 19:54:23.574 (  30.450s) [        F1708000]      event_instance.cc:171      1| EventInstance::PJRT_Event_Destroy
2025-09-10 19:54:23.574 (  30.450s) [        F1708000]     device_instance.cc:82       1| DeviceInstance::PJRT_Device_DefaultMemory
2025-09-10 19:54:23.574 (  30.450s) [        F1708000]     client_instance.cc:466      1| ClientInstance::PJRT_Client_BufferFromHostBuffer
2025-09-10 19:54:23.574 (  30.450s) [        F1708000]     memory_instance.cc:57       1| MemoryInstance::getDevice
2025-09-10 19:54:23.574 (  30.450s) [        F1708000]      event_instance.cc:222      1| EventInstance::PJRT_Event_OnReady
2025-09-10 19:54:23.574 (  30.450s) [        F1708000]      event_instance.cc:171      1| EventInstance::PJRT_Event_Destroy
2025-09-10 19:54:23.578 (  30.454s) [        F1708000]  device_description.cc:44       1| DeviceDescription::PJRT_DeviceDescription_Id
2025-09-10 19:54:23.578 (  30.454s) [        F1708000]  device_description.cc:44       1| DeviceDescription::PJRT_DeviceDescription_Id
2025-09-10 19:54:23.585 (  30.461s) [        F1708000]     device_instance.cc:82       1| DeviceInstance::PJRT_Device_DefaultMemory
2025-09-10 19:54:23.585 (  30.461s) [        F1708000]     client_instance.cc:466      1| ClientInstance::PJRT_Client_BufferFromHostBuffer
2025-09-10 19:54:23.585 (  30.461s) [        F1708000]     memory_instance.cc:57       1| MemoryInstance::getDevice
2025-09-10 19:54:23.585 (  30.461s) [        F1708000]      event_instance.cc:222      1| EventInstance::PJRT_Event_OnReady
2025-09-10 19:54:23.585 (  30.461s) [        F1708000]      event_instance.cc:171      1| EventInstance::PJRT_Event_Destroy
2025-09-10 19:54:23.585 (  30.461s) [        F1708000]     device_instance.cc:82       1| DeviceInstance::PJRT_Device_DefaultMemory
2025-09-10 19:54:23.585 (  30.461s) [        F1708000]     client_instance.cc:466      1| ClientInstance::PJRT_Client_BufferFromHostBuffer
2025-09-10 19:54:23.585 (  30.461s) [        F1708000]     memory_instance.cc:57       1| MemoryInstance::getDevice
2025-09-10 19:54:23.585 (  30.461s) [        F1708000]      event_instance.cc:222      1| EventInstance::PJRT_Event_OnReady
2025-09-10 19:54:23.585 (  30.461s) [        F1708000]      event_instance.cc:171      1| EventInstance::PJRT_Event_Destroy
2025-09-10 19:54:23.589 (  30.465s) [        F1708000]  device_description.cc:44       1| DeviceDescription::PJRT_DeviceDescription_Id
2025-09-10 19:54:23.589 (  30.465s) [        F1708000]  device_description.cc:44       1| DeviceDescription::PJRT_DeviceDescription_Id
2025-09-10 19:54:23.596 (  30.472s) [        F1708000]     device_instance.cc:82       1| DeviceInstance::PJRT_Device_DefaultMemory
2025-09-10 19:54:23.596 (  30.472s) [        F1708000]     client_instance.cc:466      1| ClientInstance::PJRT_Client_BufferFromHostBuffer
2025-09-10 19:54:23.596 (  30.472s) [        F1708000]     memory_instance.cc:57       1| MemoryInstance::getDevice
2025-09-10 19:54:23.596 (  30.472s) [        F1708000]      event_instance.cc:222      1| EventInstance::PJRT_Event_OnReady
2025-09-10 19:54:23.596 (  30.472s) [        F1708000]      event_instance.cc:171      1| EventInstance::PJRT_Event_Destroy
2025-09-10 19:54:23.596 (  30.472s) [        F1708000]     device_instance.cc:82       1| DeviceInstance::PJRT_Device_DefaultMemory
2025-09-10 19:54:23.596 (  30.472s) [        F1708000]     client_instance.cc:466      1| ClientInstance::PJRT_Client_BufferFromHostBuffer
2025-09-10 19:54:23.596 (  30.472s) [        F1708000]     memory_instance.cc:57       1| MemoryInstance::getDevice
2025-09-10 19:54:23.597 (  30.472s) [        F1708000]      event_instance.cc:222      1| EventInstance::PJRT_Event_OnReady
2025-09-10 19:54:23.597 (  30.472s) [        F1708000]      event_instance.cc:171      1| EventInstance::PJRT_Event_Destroy
2025-09-10 19:54:23.601 (  30.476s) [        F1708000]  device_description.cc:44       1| DeviceDescription::PJRT_DeviceDescription_Id
2025-09-10 19:54:23.601 (  30.476s) [        F1708000]  device_description.cc:44       1| DeviceDescription::PJRT_DeviceDescription_Id
2025-09-10 19:54:23.602 (  30.478s) [        F1708000]     device_instance.cc:82       1| DeviceInstance::PJRT_Device_DefaultMemory
2025-09-10 19:54:23.602 (  30.478s) [        F1708000]     client_instance.cc:466      1| ClientInstance::PJRT_Client_BufferFromHostBuffer
2025-09-10 19:54:23.602 (  30.478s) [        F1708000]     memory_instance.cc:57       1| MemoryInstance::getDevice
2025-09-10 19:54:23.602 (  30.478s) [        F1708000]      event_instance.cc:222      1| EventInstance::PJRT_Event_OnReady
2025-09-10 19:54:23.602 (  30.478s) [        F1708000]      event_instance.cc:171      1| EventInstance::PJRT_Event_Destroy
2025-09-10 19:54:23.602 (  30.478s) [        F1708000]     device_instance.cc:82       1| DeviceInstance::PJRT_Device_DefaultMemory
2025-09-10 19:54:23.602 (  30.478s) [        F1708000]     client_instance.cc:466      1| ClientInstance::PJRT_Client_BufferFromHostBuffer
2025-09-10 19:54:23.602 (  30.478s) [        F1708000]     memory_instance.cc:57       1| MemoryInstance::getDevice
2025-09-10 19:54:23.602 (  30.478s) [        F1708000]      event_instance.cc:222      1| EventInstance::PJRT_Event_OnReady
2025-09-10 19:54:23.602 (  30.478s) [        F1708000]      event_instance.cc:171      1| EventInstance::PJRT_Event_Destroy
2025-09-10 19:54:23.602 (  30.478s) [        F1708000]  device_description.cc:44       1| DeviceDescription::PJRT_DeviceDescription_Id
2025-09-10 19:54:23.602 (  30.478s) [        F1708000]  device_description.cc:44       1| DeviceDescription::PJRT_DeviceDescription_Id
2025-09-10 19:54:23.603 (  30.479s) [        F1708000]     device_instance.cc:82       1| DeviceInstance::PJRT_Device_DefaultMemory
2025-09-10 19:54:23.603 (  30.479s) [        F1708000]     client_instance.cc:466      1| ClientInstance::PJRT_Client_BufferFromHostBuffer
2025-09-10 19:54:23.603 (  30.479s) [        F1708000]     memory_instance.cc:57       1| MemoryInstance::getDevice
2025-09-10 19:54:23.603 (  30.479s) [        F1708000]      event_instance.cc:222      1| EventInstance::PJRT_Event_OnReady
2025-09-10 19:54:23.603 (  30.479s) [        F1708000]      event_instance.cc:171      1| EventInstance::PJRT_Event_Destroy
2025-09-10 19:54:23.603 (  30.479s) [        F1708000]     device_instance.cc:82       1| DeviceInstance::PJRT_Device_DefaultMemory
2025-09-10 19:54:23.603 (  30.479s) [        F1708000]     client_instance.cc:466      1| ClientInstance::PJRT_Client_BufferFromHostBuffer
2025-09-10 19:54:23.603 (  30.479s) [        F1708000]     memory_instance.cc:57       1| MemoryInstance::getDevice
2025-09-10 19:54:23.603 (  30.479s) [        F1708000]      event_instance.cc:222      1| EventInstance::PJRT_Event_OnReady
2025-09-10 19:54:23.603 (  30.479s) [        F1708000]      event_instance.cc:171      1| EventInstance::PJRT_Event_Destroy
2025-09-10 19:54:23.603 (  30.479s) [        F1708000]  device_description.cc:44       1| DeviceDescription::PJRT_DeviceDescription_Id
2025-09-10 19:54:23.603 (  30.479s) [        F1708000]  device_description.cc:44       1| DeviceDescription::PJRT_DeviceDescription_Id
2025-09-10 19:54:23.604 (  30.480s) [        F1708000]     device_instance.cc:82       1| DeviceInstance::PJRT_Device_DefaultMemory
2025-09-10 19:54:23.604 (  30.480s) [        F1708000]     client_instance.cc:466      1| ClientInstance::PJRT_Client_BufferFromHostBuffer
2025-09-10 19:54:23.604 (  30.480s) [        F1708000]     memory_instance.cc:57       1| MemoryInstance::getDevice
2025-09-10 19:54:23.604 (  30.480s) [        F1708000]      event_instance.cc:222      1| EventInstance::PJRT_Event_OnReady
2025-09-10 19:54:23.604 (  30.480s) [        F1708000]      event_instance.cc:171      1| EventInstance::PJRT_Event_Destroy
2025-09-10 19:54:23.604 (  30.480s) [        F1708000]     device_instance.cc:82       1| DeviceInstance::PJRT_Device_DefaultMemory
2025-09-10 19:54:23.604 (  30.480s) [        F1708000]     client_instance.cc:466      1| ClientInstance::PJRT_Client_BufferFromHostBuffer
2025-09-10 19:54:23.604 (  30.480s) [        F1708000]     memory_instance.cc:57       1| MemoryInstance::getDevice
2025-09-10 19:54:23.604 (  30.480s) [        F1708000]      event_instance.cc:222      1| EventInstance::PJRT_Event_OnReady
2025-09-10 19:54:23.604 (  30.480s) [        F1708000]      event_instance.cc:171      1| EventInstance::PJRT_Event_Destroy
2025-09-10 19:54:23.604 (  30.480s) [        F1708000]  device_description.cc:44       1| DeviceDescription::PJRT_DeviceDescription_Id
2025-09-10 19:54:23.604 (  30.480s) [        F1708000]  device_description.cc:44       1| DeviceDescription::PJRT_DeviceDescription_Id
2025-09-10 19:54:23.605 (  30.481s) [        F1708000]     device_instance.cc:82       1| DeviceInstance::PJRT_Device_DefaultMemory
2025-09-10 19:54:23.605 (  30.481s) [        F1708000]     client_instance.cc:466      1| ClientInstance::PJRT_Client_BufferFromHostBuffer
2025-09-10 19:54:23.605 (  30.481s) [        F1708000]     memory_instance.cc:57       1| MemoryInstance::getDevice
2025-09-10 19:54:23.606 (  30.481s) [        F1708000]      event_instance.cc:222      1| EventInstance::PJRT_Event_OnReady
2025-09-10 19:54:23.606 (  30.481s) [        F1708000]      event_instance.cc:171      1| EventInstance::PJRT_Event_Destroy
2025-09-10 19:54:23.606 (  30.481s) [        F1708000]     device_instance.cc:82       1| DeviceInstance::PJRT_Device_DefaultMemory
2025-09-10 19:54:23.606 (  30.482s) [        F1708000]     client_instance.cc:466      1| ClientInstance::PJRT_Client_BufferFromHostBuffer
2025-09-10 19:54:23.606 (  30.482s) [        F1708000]     memory_instance.cc:57       1| MemoryInstance::getDevice
2025-09-10 19:54:23.606 (  30.482s) [        F1708000]      event_instance.cc:222      1| EventInstance::PJRT_Event_OnReady
2025-09-10 19:54:23.606 (  30.482s) [        F1708000]      event_instance.cc:171      1| EventInstance::PJRT_Event_Destroy
2025-09-10 19:54:23.606 (  30.482s) [        F1708000]  device_description.cc:44       1| DeviceDescription::PJRT_DeviceDescription_Id
2025-09-10 19:54:23.606 (  30.482s) [        F1708000]  device_description.cc:44       1| DeviceDescription::PJRT_DeviceDescription_Id
2025-09-10 19:54:23.612 (  30.488s) [        F1708000]     device_instance.cc:82       1| DeviceInstance::PJRT_Device_DefaultMemory
2025-09-10 19:54:23.612 (  30.488s) [        F1708000]     client_instance.cc:466      1| ClientInstance::PJRT_Client_BufferFromHostBuffer
2025-09-10 19:54:23.612 (  30.488s) [        F1708000]     memory_instance.cc:57       1| MemoryInstance::getDevice
2025-09-10 19:54:23.612 (  30.488s) [        F1708000]      event_instance.cc:222      1| EventInstance::PJRT_Event_OnReady
2025-09-10 19:54:23.612 (  30.488s) [        F1708000]      event_instance.cc:171      1| EventInstance::PJRT_Event_Destroy
2025-09-10 19:54:23.612 (  30.488s) [        F1708000]     device_instance.cc:82       1| DeviceInstance::PJRT_Device_DefaultMemory
2025-09-10 19:54:23.612 (  30.488s) [        F1708000]     client_instance.cc:466      1| ClientInstance::PJRT_Client_BufferFromHostBuffer
2025-09-10 19:54:23.612 (  30.488s) [        F1708000]     memory_instance.cc:57       1| MemoryInstance::getDevice
2025-09-10 19:54:23.612 (  30.488s) [        F1708000]      event_instance.cc:222      1| EventInstance::PJRT_Event_OnReady
2025-09-10 19:54:23.612 (  30.488s) [        F1708000]      event_instance.cc:171      1| EventInstance::PJRT_Event_Destroy
2025-09-10 19:54:23.616 (  30.492s) [        F1708000]  device_description.cc:44       1| DeviceDescription::PJRT_DeviceDescription_Id
2025-09-10 19:54:23.616 (  30.492s) [        F1708000]  device_description.cc:44       1| DeviceDescription::PJRT_DeviceDescription_Id
2025-09-10 19:54:23.623 (  30.499s) [        F1708000]     device_instance.cc:82       1| DeviceInstance::PJRT_Device_DefaultMemory
2025-09-10 19:54:23.623 (  30.499s) [        F1708000]     client_instance.cc:466      1| ClientInstance::PJRT_Client_BufferFromHostBuffer
2025-09-10 19:54:23.623 (  30.499s) [        F1708000]     memory_instance.cc:57       1| MemoryInstance::getDevice
2025-09-10 19:54:23.623 (  30.499s) [        F1708000]      event_instance.cc:222      1| EventInstance::PJRT_Event_OnReady
2025-09-10 19:54:23.623 (  30.499s) [        F1708000]      event_instance.cc:171      1| EventInstance::PJRT_Event_Destroy
2025-09-10 19:54:23.623 (  30.499s) [        F1708000]     device_instance.cc:82       1| DeviceInstance::PJRT_Device_DefaultMemory
2025-09-10 19:54:23.623 (  30.499s) [        F1708000]     client_instance.cc:466      1| ClientInstance::PJRT_Client_BufferFromHostBuffer
2025-09-10 19:54:23.623 (  30.499s) [        F1708000]     memory_instance.cc:57       1| MemoryInstance::getDevice
2025-09-10 19:54:23.623 (  30.499s) [        F1708000]      event_instance.cc:222      1| EventInstance::PJRT_Event_OnReady
2025-09-10 19:54:23.624 (  30.499s) [        F1708000]      event_instance.cc:171      1| EventInstance::PJRT_Event_Destroy
2025-09-10 19:54:23.627 (  30.503s) [        F1708000]  device_description.cc:44       1| DeviceDescription::PJRT_DeviceDescription_Id
2025-09-10 19:54:23.627 (  30.503s) [        F1708000]  device_description.cc:44       1| DeviceDescription::PJRT_DeviceDescription_Id
2025-09-10 19:54:23.635 (  30.510s) [        F1708000]     device_instance.cc:82       1| DeviceInstance::PJRT_Device_DefaultMemory
2025-09-10 19:54:23.635 (  30.510s) [        F1708000]     client_instance.cc:466      1| ClientInstance::PJRT_Client_BufferFromHostBuffer
2025-09-10 19:54:23.635 (  30.511s) [        F1708000]     memory_instance.cc:57       1| MemoryInstance::getDevice
2025-09-10 19:54:23.635 (  30.511s) [        F1708000]      event_instance.cc:222      1| EventInstance::PJRT_Event_OnReady
2025-09-10 19:54:23.635 (  30.511s) [        F1708000]      event_instance.cc:171      1| EventInstance::PJRT_Event_Destroy
2025-09-10 19:54:23.635 (  30.511s) [        F1708000]     device_instance.cc:82       1| DeviceInstance::PJRT_Device_DefaultMemory
2025-09-10 19:54:23.635 (  30.511s) [        F1708000]     client_instance.cc:466      1| ClientInstance::PJRT_Client_BufferFromHostBuffer
2025-09-10 19:54:23.635 (  30.511s) [        F1708000]     memory_instance.cc:57       1| MemoryInstance::getDevice
2025-09-10 19:54:23.635 (  30.511s) [        F1708000]      event_instance.cc:222      1| EventInstance::PJRT_Event_OnReady
2025-09-10 19:54:23.635 (  30.511s) [        F1708000]      event_instance.cc:171      1| EventInstance::PJRT_Event_Destroy
2025-09-10 19:54:23.639 (  30.515s) [        F1708000]  device_description.cc:44       1| DeviceDescription::PJRT_DeviceDescription_Id
2025-09-10 19:54:23.639 (  30.515s) [        F1708000]  device_description.cc:44       1| DeviceDescription::PJRT_DeviceDescription_Id
2025-09-10 19:54:23.640 (  30.516s) [        F1708000]     device_instance.cc:82       1| DeviceInstance::PJRT_Device_DefaultMemory
2025-09-10 19:54:23.640 (  30.516s) [        F1708000]     client_instance.cc:466      1| ClientInstance::PJRT_Client_BufferFromHostBuffer
2025-09-10 19:54:23.640 (  30.516s) [        F1708000]     memory_instance.cc:57       1| MemoryInstance::getDevice
2025-09-10 19:54:23.640 (  30.516s) [        F1708000]      event_instance.cc:222      1| EventInstance::PJRT_Event_OnReady
2025-09-10 19:54:23.640 (  30.516s) [        F1708000]      event_instance.cc:171      1| EventInstance::PJRT_Event_Destroy
2025-09-10 19:54:23.640 (  30.516s) [        F1708000]     device_instance.cc:82       1| DeviceInstance::PJRT_Device_DefaultMemory
2025-09-10 19:54:23.640 (  30.516s) [        F1708000]     client_instance.cc:466      1| ClientInstance::PJRT_Client_BufferFromHostBuffer
2025-09-10 19:54:23.640 (  30.516s) [        F1708000]     memory_instance.cc:57       1| MemoryInstance::getDevice
2025-09-10 19:54:23.640 (  30.516s) [        F1708000]      event_instance.cc:222      1| EventInstance::PJRT_Event_OnReady
2025-09-10 19:54:23.640 (  30.516s) [        F1708000]      event_instance.cc:171      1| EventInstance::PJRT_Event_Destroy
2025-09-10 19:54:23.641 (  30.516s) [        F1708000]  device_description.cc:44       1| DeviceDescription::PJRT_DeviceDescription_Id
2025-09-10 19:54:23.641 (  30.516s) [        F1708000]  device_description.cc:44       1| DeviceDescription::PJRT_DeviceDescription_Id
2025-09-10 19:54:23.641 (  30.517s) [        F1708000]     device_instance.cc:82       1| DeviceInstance::PJRT_Device_DefaultMemory
2025-09-10 19:54:23.641 (  30.517s) [        F1708000]     client_instance.cc:466      1| ClientInstance::PJRT_Client_BufferFromHostBuffer
2025-09-10 19:54:23.641 (  30.517s) [        F1708000]     memory_instance.cc:57       1| MemoryInstance::getDevice
2025-09-10 19:54:23.641 (  30.517s) [        F1708000]      event_instance.cc:222      1| EventInstance::PJRT_Event_OnReady
2025-09-10 19:54:23.641 (  30.517s) [        F1708000]      event_instance.cc:171      1| EventInstance::PJRT_Event_Destroy
2025-09-10 19:54:23.641 (  30.517s) [        F1708000]     device_instance.cc:82       1| DeviceInstance::PJRT_Device_DefaultMemory
2025-09-10 19:54:23.641 (  30.517s) [        F1708000]     client_instance.cc:466      1| ClientInstance::PJRT_Client_BufferFromHostBuffer
2025-09-10 19:54:23.641 (  30.517s) [        F1708000]     memory_instance.cc:57       1| MemoryInstance::getDevice
2025-09-10 19:54:23.641 (  30.517s) [        F1708000]      event_instance.cc:222      1| EventInstance::PJRT_Event_OnReady
2025-09-10 19:54:23.641 (  30.517s) [        F1708000]      event_instance.cc:171      1| EventInstance::PJRT_Event_Destroy
2025-09-10 19:54:23.641 (  30.517s) [        F1708000]  device_description.cc:44       1| DeviceDescription::PJRT_DeviceDescription_Id
2025-09-10 19:54:23.641 (  30.517s) [        F1708000]  device_description.cc:44       1| DeviceDescription::PJRT_DeviceDescription_Id
2025-09-10 19:54:23.642 (  30.518s) [        F1708000]     device_instance.cc:82       1| DeviceInstance::PJRT_Device_DefaultMemory
2025-09-10 19:54:23.642 (  30.518s) [        F1708000]     client_instance.cc:466      1| ClientInstance::PJRT_Client_BufferFromHostBuffer
2025-09-10 19:54:23.642 (  30.518s) [        F1708000]     memory_instance.cc:57       1| MemoryInstance::getDevice
2025-09-10 19:54:23.642 (  30.518s) [        F1708000]      event_instance.cc:222      1| EventInstance::PJRT_Event_OnReady
2025-09-10 19:54:23.642 (  30.518s) [        F1708000]      event_instance.cc:171      1| EventInstance::PJRT_Event_Destroy
2025-09-10 19:54:23.642 (  30.518s) [        F1708000]     device_instance.cc:82       1| DeviceInstance::PJRT_Device_DefaultMemory
2025-09-10 19:54:23.642 (  30.518s) [        F1708000]     client_instance.cc:466      1| ClientInstance::PJRT_Client_BufferFromHostBuffer
2025-09-10 19:54:23.642 (  30.518s) [        F1708000]     memory_instance.cc:57       1| MemoryInstance::getDevice
2025-09-10 19:54:23.642 (  30.518s) [        F1708000]      event_instance.cc:222      1| EventInstance::PJRT_Event_OnReady
2025-09-10 19:54:23.642 (  30.518s) [        F1708000]      event_instance.cc:171      1| EventInstance::PJRT_Event_Destroy
2025-09-10 19:54:23.642 (  30.518s) [        F1708000]  device_description.cc:44       1| DeviceDescription::PJRT_DeviceDescription_Id
2025-09-10 19:54:23.642 (  30.518s) [        F1708000]  device_description.cc:44       1| DeviceDescription::PJRT_DeviceDescription_Id
2025-09-10 19:54:23.644 (  30.520s) [        F1708000]     device_instance.cc:82       1| DeviceInstance::PJRT_Device_DefaultMemory
2025-09-10 19:54:23.644 (  30.520s) [        F1708000]     client_instance.cc:466      1| ClientInstance::PJRT_Client_BufferFromHostBuffer
2025-09-10 19:54:23.644 (  30.520s) [        F1708000]     memory_instance.cc:57       1| MemoryInstance::getDevice
2025-09-10 19:54:23.644 (  30.520s) [        F1708000]      event_instance.cc:222      1| EventInstance::PJRT_Event_OnReady
2025-09-10 19:54:23.644 (  30.520s) [        F1708000]      event_instance.cc:171      1| EventInstance::PJRT_Event_Destroy
2025-09-10 19:54:23.644 (  30.520s) [        F1708000]     device_instance.cc:82       1| DeviceInstance::PJRT_Device_DefaultMemory
2025-09-10 19:54:23.644 (  30.520s) [        F1708000]     client_instance.cc:466      1| ClientInstance::PJRT_Client_BufferFromHostBuffer
2025-09-10 19:54:23.644 (  30.520s) [        F1708000]     memory_instance.cc:57       1| MemoryInstance::getDevice
2025-09-10 19:54:23.644 (  30.520s) [        F1708000]      event_instance.cc:222      1| EventInstance::PJRT_Event_OnReady
2025-09-10 19:54:23.644 (  30.520s) [        F1708000]      event_instance.cc:171      1| EventInstance::PJRT_Event_Destroy
2025-09-10 19:54:23.644 (  30.520s) [        F1708000]  device_description.cc:44       1| DeviceDescription::PJRT_DeviceDescription_Id
2025-09-10 19:54:23.644 (  30.520s) [        F1708000]  device_description.cc:44       1| DeviceDescription::PJRT_DeviceDescription_Id
2025-09-10 19:54:23.649 (  30.525s) [        F1708000]     device_instance.cc:82       1| DeviceInstance::PJRT_Device_DefaultMemory
2025-09-10 19:54:23.649 (  30.525s) [        F1708000]     client_instance.cc:466      1| ClientInstance::PJRT_Client_BufferFromHostBuffer
2025-09-10 19:54:23.649 (  30.525s) [        F1708000]     memory_instance.cc:57       1| MemoryInstance::getDevice
2025-09-10 19:54:23.649 (  30.525s) [        F1708000]      event_instance.cc:222      1| EventInstance::PJRT_Event_OnReady
2025-09-10 19:54:23.649 (  30.525s) [        F1708000]      event_instance.cc:171      1| EventInstance::PJRT_Event_Destroy
2025-09-10 19:54:23.649 (  30.525s) [        F1708000]     device_instance.cc:82       1| DeviceInstance::PJRT_Device_DefaultMemory
2025-09-10 19:54:23.649 (  30.525s) [        F1708000]     client_instance.cc:466      1| ClientInstance::PJRT_Client_BufferFromHostBuffer
2025-09-10 19:54:23.649 (  30.525s) [        F1708000]     memory_instance.cc:57       1| MemoryInstance::getDevice
2025-09-10 19:54:23.649 (  30.525s) [        F1708000]      event_instance.cc:222      1| EventInstance::PJRT_Event_OnReady
2025-09-10 19:54:23.649 (  30.525s) [        F1708000]      event_instance.cc:171      1| EventInstance::PJRT_Event_Destroy
2025-09-10 19:54:23.654 (  30.529s) [        F1708000]  device_description.cc:44       1| DeviceDescription::PJRT_DeviceDescription_Id
2025-09-10 19:54:23.654 (  30.529s) [        F1708000]  device_description.cc:44       1| DeviceDescription::PJRT_DeviceDescription_Id
2025-09-10 19:54:23.661 (  30.536s) [        F1708000]     device_instance.cc:82       1| DeviceInstance::PJRT_Device_DefaultMemory
2025-09-10 19:54:23.661 (  30.536s) [        F1708000]     client_instance.cc:466      1| ClientInstance::PJRT_Client_BufferFromHostBuffer
2025-09-10 19:54:23.661 (  30.536s) [        F1708000]     memory_instance.cc:57       1| MemoryInstance::getDevice
2025-09-10 19:54:23.661 (  30.537s) [        F1708000]      event_instance.cc:222      1| EventInstance::PJRT_Event_OnReady
2025-09-10 19:54:23.661 (  30.537s) [        F1708000]      event_instance.cc:171      1| EventInstance::PJRT_Event_Destroy
2025-09-10 19:54:23.661 (  30.537s) [        F1708000]     device_instance.cc:82       1| DeviceInstance::PJRT_Device_DefaultMemory
2025-09-10 19:54:23.661 (  30.537s) [        F1708000]     client_instance.cc:466      1| ClientInstance::PJRT_Client_BufferFromHostBuffer
2025-09-10 19:54:23.661 (  30.537s) [        F1708000]     memory_instance.cc:57       1| MemoryInstance::getDevice
2025-09-10 19:54:23.661 (  30.537s) [        F1708000]      event_instance.cc:222      1| EventInstance::PJRT_Event_OnReady
2025-09-10 19:54:23.661 (  30.537s) [        F1708000]      event_instance.cc:171      1| EventInstance::PJRT_Event_Destroy
2025-09-10 19:54:23.665 (  30.540s) [        F1708000]  device_description.cc:44       1| DeviceDescription::PJRT_DeviceDescription_Id
2025-09-10 19:54:23.665 (  30.540s) [        F1708000]  device_description.cc:44       1| DeviceDescription::PJRT_DeviceDescription_Id
2025-09-10 19:54:23.673 (  30.549s) [        F1708000]     device_instance.cc:82       1| DeviceInstance::PJRT_Device_DefaultMemory
2025-09-10 19:54:23.673 (  30.549s) [        F1708000]     client_instance.cc:466      1| ClientInstance::PJRT_Client_BufferFromHostBuffer
2025-09-10 19:54:23.673 (  30.549s) [        F1708000]     memory_instance.cc:57       1| MemoryInstance::getDevice
2025-09-10 19:54:23.673 (  30.549s) [        F1708000]      event_instance.cc:222      1| EventInstance::PJRT_Event_OnReady
2025-09-10 19:54:23.673 (  30.549s) [        F1708000]      event_instance.cc:171      1| EventInstance::PJRT_Event_Destroy
2025-09-10 19:54:23.673 (  30.549s) [        F1708000]     device_instance.cc:82       1| DeviceInstance::PJRT_Device_DefaultMemory
2025-09-10 19:54:23.673 (  30.549s) [        F1708000]     client_instance.cc:466      1| ClientInstance::PJRT_Client_BufferFromHostBuffer
2025-09-10 19:54:23.673 (  30.549s) [        F1708000]     memory_instance.cc:57       1| MemoryInstance::getDevice
2025-09-10 19:54:23.673 (  30.549s) [        F1708000]      event_instance.cc:222      1| EventInstance::PJRT_Event_OnReady
2025-09-10 19:54:23.673 (  30.549s) [        F1708000]      event_instance.cc:171      1| EventInstance::PJRT_Event_Destroy
2025-09-10 19:54:23.677 (  30.553s) [        F1708000]  device_description.cc:44       1| DeviceDescription::PJRT_DeviceDescription_Id
2025-09-10 19:54:23.677 (  30.553s) [        F1708000]  device_description.cc:44       1| DeviceDescription::PJRT_DeviceDescription_Id
2025-09-10 19:54:23.678 (  30.554s) [        F1708000]     device_instance.cc:82       1| DeviceInstance::PJRT_Device_DefaultMemory
2025-09-10 19:54:23.678 (  30.554s) [        F1708000]     client_instance.cc:466      1| ClientInstance::PJRT_Client_BufferFromHostBuffer
2025-09-10 19:54:23.678 (  30.554s) [        F1708000]     memory_instance.cc:57       1| MemoryInstance::getDevice
2025-09-10 19:54:23.679 (  30.554s) [        F1708000]      event_instance.cc:222      1| EventInstance::PJRT_Event_OnReady
2025-09-10 19:54:23.679 (  30.554s) [        F1708000]      event_instance.cc:171      1| EventInstance::PJRT_Event_Destroy
2025-09-10 19:54:23.679 (  30.554s) [        F1708000]     device_instance.cc:82       1| DeviceInstance::PJRT_Device_DefaultMemory
2025-09-10 19:54:23.679 (  30.554s) [        F1708000]     client_instance.cc:466      1| ClientInstance::PJRT_Client_BufferFromHostBuffer
2025-09-10 19:54:23.679 (  30.554s) [        F1708000]     memory_instance.cc:57       1| MemoryInstance::getDevice
2025-09-10 19:54:23.679 (  30.554s) [        F1708000]      event_instance.cc:222      1| EventInstance::PJRT_Event_OnReady
2025-09-10 19:54:23.679 (  30.554s) [        F1708000]      event_instance.cc:171      1| EventInstance::PJRT_Event_Destroy
2025-09-10 19:54:23.679 (  30.555s) [        F1708000]  device_description.cc:44       1| DeviceDescription::PJRT_DeviceDescription_Id
2025-09-10 19:54:23.679 (  30.555s) [        F1708000]  device_description.cc:44       1| DeviceDescription::PJRT_DeviceDescription_Id
2025-09-10 19:54:23.679 (  30.555s) [        F1708000]     device_instance.cc:82       1| DeviceInstance::PJRT_Device_DefaultMemory
2025-09-10 19:54:23.679 (  30.555s) [        F1708000]     client_instance.cc:466      1| ClientInstance::PJRT_Client_BufferFromHostBuffer
2025-09-10 19:54:23.679 (  30.555s) [        F1708000]     memory_instance.cc:57       1| MemoryInstance::getDevice
2025-09-10 19:54:23.679 (  30.555s) [        F1708000]      event_instance.cc:222      1| EventInstance::PJRT_Event_OnReady
2025-09-10 19:54:23.679 (  30.555s) [        F1708000]      event_instance.cc:171      1| EventInstance::PJRT_Event_Destroy
2025-09-10 19:54:23.679 (  30.555s) [        F1708000]     device_instance.cc:82       1| DeviceInstance::PJRT_Device_DefaultMemory
2025-09-10 19:54:23.679 (  30.555s) [        F1708000]     client_instance.cc:466      1| ClientInstance::PJRT_Client_BufferFromHostBuffer
2025-09-10 19:54:23.679 (  30.555s) [        F1708000]     memory_instance.cc:57       1| MemoryInstance::getDevice
2025-09-10 19:54:23.680 (  30.555s) [        F1708000]      event_instance.cc:222      1| EventInstance::PJRT_Event_OnReady
2025-09-10 19:54:23.680 (  30.555s) [        F1708000]      event_instance.cc:171      1| EventInstance::PJRT_Event_Destroy
2025-09-10 19:54:23.680 (  30.555s) [        F1708000]  device_description.cc:44       1| DeviceDescription::PJRT_DeviceDescription_Id
2025-09-10 19:54:23.680 (  30.555s) [        F1708000]  device_description.cc:44       1| DeviceDescription::PJRT_DeviceDescription_Id
2025-09-10 19:54:23.680 (  30.556s) [        F1708000]     device_instance.cc:82       1| DeviceInstance::PJRT_Device_DefaultMemory
2025-09-10 19:54:23.680 (  30.556s) [        F1708000]     client_instance.cc:466      1| ClientInstance::PJRT_Client_BufferFromHostBuffer
2025-09-10 19:54:23.680 (  30.556s) [        F1708000]     memory_instance.cc:57       1| MemoryInstance::getDevice
2025-09-10 19:54:23.680 (  30.556s) [        F1708000]      event_instance.cc:222      1| EventInstance::PJRT_Event_OnReady
2025-09-10 19:54:23.680 (  30.556s) [        F1708000]      event_instance.cc:171      1| EventInstance::PJRT_Event_Destroy
2025-09-10 19:54:23.680 (  30.556s) [        F1708000]     device_instance.cc:82       1| DeviceInstance::PJRT_Device_DefaultMemory
2025-09-10 19:54:23.680 (  30.556s) [        F1708000]     client_instance.cc:466      1| ClientInstance::PJRT_Client_BufferFromHostBuffer
2025-09-10 19:54:23.680 (  30.556s) [        F1708000]     memory_instance.cc:57       1| MemoryInstance::getDevice
2025-09-10 19:54:23.680 (  30.556s) [        F1708000]      event_instance.cc:222      1| EventInstance::PJRT_Event_OnReady
2025-09-10 19:54:23.680 (  30.556s) [        F1708000]      event_instance.cc:171      1| EventInstance::PJRT_Event_Destroy
2025-09-10 19:54:23.680 (  30.556s) [        F1708000]  device_description.cc:44       1| DeviceDescription::PJRT_DeviceDescription_Id
2025-09-10 19:54:23.680 (  30.556s) [        F1708000]  device_description.cc:44       1| DeviceDescription::PJRT_DeviceDescription_Id
2025-09-10 19:54:23.682 (  30.558s) [        F1708000]     device_instance.cc:82       1| DeviceInstance::PJRT_Device_DefaultMemory
2025-09-10 19:54:23.682 (  30.558s) [        F1708000]     client_instance.cc:466      1| ClientInstance::PJRT_Client_BufferFromHostBuffer
2025-09-10 19:54:23.682 (  30.558s) [        F1708000]     memory_instance.cc:57       1| MemoryInstance::getDevice
2025-09-10 19:54:23.683 (  30.558s) [        F1708000]      event_instance.cc:222      1| EventInstance::PJRT_Event_OnReady
2025-09-10 19:54:23.683 (  30.558s) [        F1708000]      event_instance.cc:171      1| EventInstance::PJRT_Event_Destroy
2025-09-10 19:54:23.683 (  30.558s) [        F1708000]     device_instance.cc:82       1| DeviceInstance::PJRT_Device_DefaultMemory
2025-09-10 19:54:23.683 (  30.558s) [        F1708000]     client_instance.cc:466      1| ClientInstance::PJRT_Client_BufferFromHostBuffer
2025-09-10 19:54:23.683 (  30.559s) [        F1708000]     memory_instance.cc:57       1| MemoryInstance::getDevice
2025-09-10 19:54:23.683 (  30.559s) [        F1708000]      event_instance.cc:222      1| EventInstance::PJRT_Event_OnReady
2025-09-10 19:54:23.683 (  30.559s) [        F1708000]      event_instance.cc:171      1| EventInstance::PJRT_Event_Destroy
2025-09-10 19:54:23.683 (  30.559s) [        F1708000]  device_description.cc:44       1| DeviceDescription::PJRT_DeviceDescription_Id
2025-09-10 19:54:23.683 (  30.559s) [        F1708000]  device_description.cc:44       1| DeviceDescription::PJRT_DeviceDescription_Id
2025-09-10 19:54:23.688 (  30.564s) [        F1708000]     device_instance.cc:82       1| DeviceInstance::PJRT_Device_DefaultMemory
2025-09-10 19:54:23.688 (  30.564s) [        F1708000]     client_instance.cc:466      1| ClientInstance::PJRT_Client_BufferFromHostBuffer
2025-09-10 19:54:23.688 (  30.564s) [        F1708000]     memory_instance.cc:57       1| MemoryInstance::getDevice
2025-09-10 19:54:23.688 (  30.564s) [        F1708000]      event_instance.cc:222      1| EventInstance::PJRT_Event_OnReady
2025-09-10 19:54:23.688 (  30.564s) [        F1708000]      event_instance.cc:171      1| EventInstance::PJRT_Event_Destroy
2025-09-10 19:54:23.688 (  30.564s) [        F1708000]     device_instance.cc:82       1| DeviceInstance::PJRT_Device_DefaultMemory
2025-09-10 19:54:23.688 (  30.564s) [        F1708000]     client_instance.cc:466      1| ClientInstance::PJRT_Client_BufferFromHostBuffer
2025-09-10 19:54:23.688 (  30.564s) [        F1708000]     memory_instance.cc:57       1| MemoryInstance::getDevice
2025-09-10 19:54:23.688 (  30.564s) [        F1708000]      event_instance.cc:222      1| EventInstance::PJRT_Event_OnReady
2025-09-10 19:54:23.688 (  30.564s) [        F1708000]      event_instance.cc:171      1| EventInstance::PJRT_Event_Destroy
2025-09-10 19:54:23.692 (  30.568s) [        F1708000]  device_description.cc:44       1| DeviceDescription::PJRT_DeviceDescription_Id
2025-09-10 19:54:23.692 (  30.568s) [        F1708000]  device_description.cc:44       1| DeviceDescription::PJRT_DeviceDescription_Id
2025-09-10 19:54:23.700 (  30.575s) [        F1708000]     device_instance.cc:82       1| DeviceInstance::PJRT_Device_DefaultMemory
2025-09-10 19:54:23.700 (  30.575s) [        F1708000]     client_instance.cc:466      1| ClientInstance::PJRT_Client_BufferFromHostBuffer
2025-09-10 19:54:23.700 (  30.575s) [        F1708000]     memory_instance.cc:57       1| MemoryInstance::getDevice
2025-09-10 19:54:23.700 (  30.576s) [        F1708000]      event_instance.cc:222      1| EventInstance::PJRT_Event_OnReady
2025-09-10 19:54:23.700 (  30.576s) [        F1708000]      event_instance.cc:171      1| EventInstance::PJRT_Event_Destroy
2025-09-10 19:54:23.700 (  30.576s) [        F1708000]     device_instance.cc:82       1| DeviceInstance::PJRT_Device_DefaultMemory
2025-09-10 19:54:23.700 (  30.576s) [        F1708000]     client_instance.cc:466      1| ClientInstance::PJRT_Client_BufferFromHostBuffer
2025-09-10 19:54:23.700 (  30.576s) [        F1708000]     memory_instance.cc:57       1| MemoryInstance::getDevice
2025-09-10 19:54:23.700 (  30.576s) [        F1708000]      event_instance.cc:222      1| EventInstance::PJRT_Event_OnReady
2025-09-10 19:54:23.700 (  30.576s) [        F1708000]      event_instance.cc:171      1| EventInstance::PJRT_Event_Destroy
2025-09-10 19:54:23.704 (  30.579s) [        F1708000]  device_description.cc:44       1| DeviceDescription::PJRT_DeviceDescription_Id
2025-09-10 19:54:23.704 (  30.579s) [        F1708000]  device_description.cc:44       1| DeviceDescription::PJRT_DeviceDescription_Id
2025-09-10 19:54:23.711 (  30.587s) [        F1708000]     device_instance.cc:82       1| DeviceInstance::PJRT_Device_DefaultMemory
2025-09-10 19:54:23.711 (  30.587s) [        F1708000]     client_instance.cc:466      1| ClientInstance::PJRT_Client_BufferFromHostBuffer
2025-09-10 19:54:23.711 (  30.587s) [        F1708000]     memory_instance.cc:57       1| MemoryInstance::getDevice
2025-09-10 19:54:23.711 (  30.587s) [        F1708000]      event_instance.cc:222      1| EventInstance::PJRT_Event_OnReady
2025-09-10 19:54:23.711 (  30.587s) [        F1708000]      event_instance.cc:171      1| EventInstance::PJRT_Event_Destroy
2025-09-10 19:54:23.711 (  30.587s) [        F1708000]     device_instance.cc:82       1| DeviceInstance::PJRT_Device_DefaultMemory
2025-09-10 19:54:23.711 (  30.587s) [        F1708000]     client_instance.cc:466      1| ClientInstance::PJRT_Client_BufferFromHostBuffer
2025-09-10 19:54:23.711 (  30.587s) [        F1708000]     memory_instance.cc:57       1| MemoryInstance::getDevice
2025-09-10 19:54:23.711 (  30.587s) [        F1708000]      event_instance.cc:222      1| EventInstance::PJRT_Event_OnReady
2025-09-10 19:54:23.711 (  30.587s) [        F1708000]      event_instance.cc:171      1| EventInstance::PJRT_Event_Destroy
2025-09-10 19:54:23.715 (  30.591s) [        F1708000]  device_description.cc:44       1| DeviceDescription::PJRT_DeviceDescription_Id
2025-09-10 19:54:23.715 (  30.591s) [        F1708000]  device_description.cc:44       1| DeviceDescription::PJRT_DeviceDescription_Id
2025-09-10 19:54:23.716 (  30.592s) [        F1708000]     device_instance.cc:82       1| DeviceInstance::PJRT_Device_DefaultMemory
2025-09-10 19:54:23.716 (  30.592s) [        F1708000]     client_instance.cc:466      1| ClientInstance::PJRT_Client_BufferFromHostBuffer
2025-09-10 19:54:23.716 (  30.592s) [        F1708000]     memory_instance.cc:57       1| MemoryInstance::getDevice
2025-09-10 19:54:23.716 (  30.592s) [        F1708000]      event_instance.cc:222      1| EventInstance::PJRT_Event_OnReady
2025-09-10 19:54:23.716 (  30.592s) [        F1708000]      event_instance.cc:171      1| EventInstance::PJRT_Event_Destroy
2025-09-10 19:54:23.716 (  30.592s) [        F1708000]     device_instance.cc:82       1| DeviceInstance::PJRT_Device_DefaultMemory
2025-09-10 19:54:23.716 (  30.592s) [        F1708000]     client_instance.cc:466      1| ClientInstance::PJRT_Client_BufferFromHostBuffer
2025-09-10 19:54:23.716 (  30.592s) [        F1708000]     memory_instance.cc:57       1| MemoryInstance::getDevice
2025-09-10 19:54:23.716 (  30.592s) [        F1708000]      event_instance.cc:222      1| EventInstance::PJRT_Event_OnReady
2025-09-10 19:54:23.716 (  30.592s) [        F1708000]      event_instance.cc:171      1| EventInstance::PJRT_Event_Destroy
2025-09-10 19:54:23.717 (  30.592s) [        F1708000]  device_description.cc:44       1| DeviceDescription::PJRT_DeviceDescription_Id
2025-09-10 19:54:23.717 (  30.592s) [        F1708000]  device_description.cc:44       1| DeviceDescription::PJRT_DeviceDescription_Id
2025-09-10 19:54:23.717 (  30.593s) [        F1708000]     device_instance.cc:82       1| DeviceInstance::PJRT_Device_DefaultMemory
2025-09-10 19:54:23.717 (  30.593s) [        F1708000]     client_instance.cc:466      1| ClientInstance::PJRT_Client_BufferFromHostBuffer
2025-09-10 19:54:23.717 (  30.593s) [        F1708000]     memory_instance.cc:57       1| MemoryInstance::getDevice
2025-09-10 19:54:23.717 (  30.593s) [        F1708000]      event_instance.cc:222      1| EventInstance::PJRT_Event_OnReady
2025-09-10 19:54:23.717 (  30.593s) [        F1708000]      event_instance.cc:171      1| EventInstance::PJRT_Event_Destroy
2025-09-10 19:54:23.717 (  30.593s) [        F1708000]     device_instance.cc:82       1| DeviceInstance::PJRT_Device_DefaultMemory
2025-09-10 19:54:23.717 (  30.593s) [        F1708000]     client_instance.cc:466      1| ClientInstance::PJRT_Client_BufferFromHostBuffer
2025-09-10 19:54:23.717 (  30.593s) [        F1708000]     memory_instance.cc:57       1| MemoryInstance::getDevice
2025-09-10 19:54:23.717 (  30.593s) [        F1708000]      event_instance.cc:222      1| EventInstance::PJRT_Event_OnReady
2025-09-10 19:54:23.717 (  30.593s) [        F1708000]      event_instance.cc:171      1| EventInstance::PJRT_Event_Destroy
2025-09-10 19:54:23.717 (  30.593s) [        F1708000]  device_description.cc:44       1| DeviceDescription::PJRT_DeviceDescription_Id
2025-09-10 19:54:23.717 (  30.593s) [        F1708000]  device_description.cc:44       1| DeviceDescription::PJRT_DeviceDescription_Id
2025-09-10 19:54:23.718 (  30.594s) [        F1708000]     device_instance.cc:82       1| DeviceInstance::PJRT_Device_DefaultMemory
2025-09-10 19:54:23.718 (  30.594s) [        F1708000]     client_instance.cc:466      1| ClientInstance::PJRT_Client_BufferFromHostBuffer
2025-09-10 19:54:23.718 (  30.594s) [        F1708000]     memory_instance.cc:57       1| MemoryInstance::getDevice
2025-09-10 19:54:23.718 (  30.594s) [        F1708000]      event_instance.cc:222      1| EventInstance::PJRT_Event_OnReady
2025-09-10 19:54:23.718 (  30.594s) [        F1708000]      event_instance.cc:171      1| EventInstance::PJRT_Event_Destroy
2025-09-10 19:54:23.718 (  30.594s) [        F1708000]     device_instance.cc:82       1| DeviceInstance::PJRT_Device_DefaultMemory
2025-09-10 19:54:23.718 (  30.594s) [        F1708000]     client_instance.cc:466      1| ClientInstance::PJRT_Client_BufferFromHostBuffer
2025-09-10 19:54:23.718 (  30.594s) [        F1708000]     memory_instance.cc:57       1| MemoryInstance::getDevice
2025-09-10 19:54:23.718 (  30.594s) [        F1708000]      event_instance.cc:222      1| EventInstance::PJRT_Event_OnReady
2025-09-10 19:54:23.718 (  30.594s) [        F1708000]      event_instance.cc:171      1| EventInstance::PJRT_Event_Destroy
2025-09-10 19:54:23.718 (  30.594s) [        F1708000]  device_description.cc:44       1| DeviceDescription::PJRT_DeviceDescription_Id
2025-09-10 19:54:23.718 (  30.594s) [        F1708000]  device_description.cc:44       1| DeviceDescription::PJRT_DeviceDescription_Id
2025-09-10 19:54:23.720 (  30.596s) [        F1708000]     device_instance.cc:82       1| DeviceInstance::PJRT_Device_DefaultMemory
2025-09-10 19:54:23.720 (  30.596s) [        F1708000]     client_instance.cc:466      1| ClientInstance::PJRT_Client_BufferFromHostBuffer
2025-09-10 19:54:23.720 (  30.596s) [        F1708000]     memory_instance.cc:57       1| MemoryInstance::getDevice
2025-09-10 19:54:23.720 (  30.596s) [        F1708000]      event_instance.cc:222      1| EventInstance::PJRT_Event_OnReady
2025-09-10 19:54:23.720 (  30.596s) [        F1708000]      event_instance.cc:171      1| EventInstance::PJRT_Event_Destroy
2025-09-10 19:54:23.720 (  30.596s) [        F1708000]     device_instance.cc:82       1| DeviceInstance::PJRT_Device_DefaultMemory
2025-09-10 19:54:23.720 (  30.596s) [        F1708000]     client_instance.cc:466      1| ClientInstance::PJRT_Client_BufferFromHostBuffer
2025-09-10 19:54:23.720 (  30.596s) [        F1708000]     memory_instance.cc:57       1| MemoryInstance::getDevice
2025-09-10 19:54:23.720 (  30.596s) [        F1708000]      event_instance.cc:222      1| EventInstance::PJRT_Event_OnReady
2025-09-10 19:54:23.720 (  30.596s) [        F1708000]      event_instance.cc:171      1| EventInstance::PJRT_Event_Destroy
2025-09-10 19:54:23.720 (  30.596s) [        F1708000]  device_description.cc:44       1| DeviceDescription::PJRT_DeviceDescription_Id
2025-09-10 19:54:23.720 (  30.596s) [        F1708000]  device_description.cc:44       1| DeviceDescription::PJRT_DeviceDescription_Id
2025-09-10 19:54:23.725 (  30.601s) [        F1708000]     device_instance.cc:82       1| DeviceInstance::PJRT_Device_DefaultMemory
2025-09-10 19:54:23.725 (  30.601s) [        F1708000]     client_instance.cc:466      1| ClientInstance::PJRT_Client_BufferFromHostBuffer
2025-09-10 19:54:23.725 (  30.601s) [        F1708000]     memory_instance.cc:57       1| MemoryInstance::getDevice
2025-09-10 19:54:23.725 (  30.601s) [        F1708000]      event_instance.cc:222      1| EventInstance::PJRT_Event_OnReady
2025-09-10 19:54:23.725 (  30.601s) [        F1708000]      event_instance.cc:171      1| EventInstance::PJRT_Event_Destroy
2025-09-10 19:54:23.725 (  30.601s) [        F1708000]     device_instance.cc:82       1| DeviceInstance::PJRT_Device_DefaultMemory
2025-09-10 19:54:23.725 (  30.601s) [        F1708000]     client_instance.cc:466      1| ClientInstance::PJRT_Client_BufferFromHostBuffer
2025-09-10 19:54:23.725 (  30.601s) [        F1708000]     memory_instance.cc:57       1| MemoryInstance::getDevice
2025-09-10 19:54:23.725 (  30.601s) [        F1708000]      event_instance.cc:222      1| EventInstance::PJRT_Event_OnReady
2025-09-10 19:54:23.725 (  30.601s) [        F1708000]      event_instance.cc:171      1| EventInstance::PJRT_Event_Destroy
2025-09-10 19:54:23.730 (  30.605s) [        F1708000]  device_description.cc:44       1| DeviceDescription::PJRT_DeviceDescription_Id
2025-09-10 19:54:23.730 (  30.605s) [        F1708000]  device_description.cc:44       1| DeviceDescription::PJRT_DeviceDescription_Id
2025-09-10 19:54:23.737 (  30.612s) [        F1708000]     device_instance.cc:82       1| DeviceInstance::PJRT_Device_DefaultMemory
2025-09-10 19:54:23.737 (  30.612s) [        F1708000]     client_instance.cc:466      1| ClientInstance::PJRT_Client_BufferFromHostBuffer
2025-09-10 19:54:23.737 (  30.612s) [        F1708000]     memory_instance.cc:57       1| MemoryInstance::getDevice
2025-09-10 19:54:23.737 (  30.613s) [        F1708000]      event_instance.cc:222      1| EventInstance::PJRT_Event_OnReady
2025-09-10 19:54:23.737 (  30.613s) [        F1708000]      event_instance.cc:171      1| EventInstance::PJRT_Event_Destroy
2025-09-10 19:54:23.737 (  30.613s) [        F1708000]     device_instance.cc:82       1| DeviceInstance::PJRT_Device_DefaultMemory
2025-09-10 19:54:23.737 (  30.613s) [        F1708000]     client_instance.cc:466      1| ClientInstance::PJRT_Client_BufferFromHostBuffer
2025-09-10 19:54:23.737 (  30.613s) [        F1708000]     memory_instance.cc:57       1| MemoryInstance::getDevice
2025-09-10 19:54:23.737 (  30.613s) [        F1708000]      event_instance.cc:222      1| EventInstance::PJRT_Event_OnReady
2025-09-10 19:54:23.737 (  30.613s) [        F1708000]      event_instance.cc:171      1| EventInstance::PJRT_Event_Destroy
2025-09-10 19:54:23.741 (  30.617s) [        F1708000]  device_description.cc:44       1| DeviceDescription::PJRT_DeviceDescription_Id
2025-09-10 19:54:23.741 (  30.617s) [        F1708000]  device_description.cc:44       1| DeviceDescription::PJRT_DeviceDescription_Id
2025-09-10 19:54:23.748 (  30.624s) [        F1708000]     device_instance.cc:82       1| DeviceInstance::PJRT_Device_DefaultMemory
2025-09-10 19:54:23.748 (  30.624s) [        F1708000]     client_instance.cc:466      1| ClientInstance::PJRT_Client_BufferFromHostBuffer
2025-09-10 19:54:23.748 (  30.624s) [        F1708000]     memory_instance.cc:57       1| MemoryInstance::getDevice
2025-09-10 19:54:23.748 (  30.624s) [        F1708000]      event_instance.cc:222      1| EventInstance::PJRT_Event_OnReady
2025-09-10 19:54:23.748 (  30.624s) [        F1708000]      event_instance.cc:171      1| EventInstance::PJRT_Event_Destroy
2025-09-10 19:54:23.748 (  30.624s) [        F1708000]     device_instance.cc:82       1| DeviceInstance::PJRT_Device_DefaultMemory
2025-09-10 19:54:23.748 (  30.624s) [        F1708000]     client_instance.cc:466      1| ClientInstance::PJRT_Client_BufferFromHostBuffer
2025-09-10 19:54:23.748 (  30.624s) [        F1708000]     memory_instance.cc:57       1| MemoryInstance::getDevice
2025-09-10 19:54:23.748 (  30.624s) [        F1708000]      event_instance.cc:222      1| EventInstance::PJRT_Event_OnReady
2025-09-10 19:54:23.748 (  30.624s) [        F1708000]      event_instance.cc:171      1| EventInstance::PJRT_Event_Destroy
2025-09-10 19:54:23.752 (  30.628s) [        F1708000]  device_description.cc:44       1| DeviceDescription::PJRT_DeviceDescription_Id
2025-09-10 19:54:23.752 (  30.628s) [        F1708000]  device_description.cc:44       1| DeviceDescription::PJRT_DeviceDescription_Id
2025-09-10 19:54:23.753 (  30.629s) [        F1708000]     device_instance.cc:82       1| DeviceInstance::PJRT_Device_DefaultMemory
2025-09-10 19:54:23.753 (  30.629s) [        F1708000]     client_instance.cc:466      1| ClientInstance::PJRT_Client_BufferFromHostBuffer
2025-09-10 19:54:23.753 (  30.629s) [        F1708000]     memory_instance.cc:57       1| MemoryInstance::getDevice
2025-09-10 19:54:23.753 (  30.629s) [        F1708000]      event_instance.cc:222      1| EventInstance::PJRT_Event_OnReady
2025-09-10 19:54:23.753 (  30.629s) [        F1708000]      event_instance.cc:171      1| EventInstance::PJRT_Event_Destroy
2025-09-10 19:54:23.753 (  30.629s) [        F1708000]     device_instance.cc:82       1| DeviceInstance::PJRT_Device_DefaultMemory
2025-09-10 19:54:23.753 (  30.629s) [        F1708000]     client_instance.cc:466      1| ClientInstance::PJRT_Client_BufferFromHostBuffer
2025-09-10 19:54:23.753 (  30.629s) [        F1708000]     memory_instance.cc:57       1| MemoryInstance::getDevice
2025-09-10 19:54:23.754 (  30.629s) [        F1708000]      event_instance.cc:222      1| EventInstance::PJRT_Event_OnReady
2025-09-10 19:54:23.754 (  30.629s) [        F1708000]      event_instance.cc:171      1| EventInstance::PJRT_Event_Destroy
2025-09-10 19:54:23.754 (  30.629s) [        F1708000]  device_description.cc:44       1| DeviceDescription::PJRT_DeviceDescription_Id
2025-09-10 19:54:23.754 (  30.630s) [        F1708000]  device_description.cc:44       1| DeviceDescription::PJRT_DeviceDescription_Id
2025-09-10 19:54:23.754 (  30.630s) [        F1708000]     device_instance.cc:82       1| DeviceInstance::PJRT_Device_DefaultMemory
2025-09-10 19:54:23.754 (  30.630s) [        F1708000]     client_instance.cc:466      1| ClientInstance::PJRT_Client_BufferFromHostBuffer
2025-09-10 19:54:23.754 (  30.630s) [        F1708000]     memory_instance.cc:57       1| MemoryInstance::getDevice
2025-09-10 19:54:23.754 (  30.630s) [        F1708000]      event_instance.cc:222      1| EventInstance::PJRT_Event_OnReady
2025-09-10 19:54:23.754 (  30.630s) [        F1708000]      event_instance.cc:171      1| EventInstance::PJRT_Event_Destroy
2025-09-10 19:54:23.754 (  30.630s) [        F1708000]     device_instance.cc:82       1| DeviceInstance::PJRT_Device_DefaultMemory
2025-09-10 19:54:23.754 (  30.630s) [        F1708000]     client_instance.cc:466      1| ClientInstance::PJRT_Client_BufferFromHostBuffer
2025-09-10 19:54:23.754 (  30.630s) [        F1708000]     memory_instance.cc:57       1| MemoryInstance::getDevice
2025-09-10 19:54:23.754 (  30.630s) [        F1708000]      event_instance.cc:222      1| EventInstance::PJRT_Event_OnReady
2025-09-10 19:54:23.754 (  30.630s) [        F1708000]      event_instance.cc:171      1| EventInstance::PJRT_Event_Destroy
2025-09-10 19:54:23.754 (  30.630s) [        F1708000]  device_description.cc:44       1| DeviceDescription::PJRT_DeviceDescription_Id
2025-09-10 19:54:23.754 (  30.630s) [        F1708000]  device_description.cc:44       1| DeviceDescription::PJRT_DeviceDescription_Id
2025-09-10 19:54:23.755 (  30.631s) [        F1708000]     device_instance.cc:82       1| DeviceInstance::PJRT_Device_DefaultMemory
2025-09-10 19:54:23.755 (  30.631s) [        F1708000]     client_instance.cc:466      1| ClientInstance::PJRT_Client_BufferFromHostBuffer
2025-09-10 19:54:23.755 (  30.631s) [        F1708000]     memory_instance.cc:57       1| MemoryInstance::getDevice
2025-09-10 19:54:23.755 (  30.631s) [        F1708000]      event_instance.cc:222      1| EventInstance::PJRT_Event_OnReady
2025-09-10 19:54:23.755 (  30.631s) [        F1708000]      event_instance.cc:171      1| EventInstance::PJRT_Event_Destroy
2025-09-10 19:54:23.755 (  30.631s) [        F1708000]     device_instance.cc:82       1| DeviceInstance::PJRT_Device_DefaultMemory
2025-09-10 19:54:23.755 (  30.631s) [        F1708000]     client_instance.cc:466      1| ClientInstance::PJRT_Client_BufferFromHostBuffer
2025-09-10 19:54:23.755 (  30.631s) [        F1708000]     memory_instance.cc:57       1| MemoryInstance::getDevice
2025-09-10 19:54:23.755 (  30.631s) [        F1708000]      event_instance.cc:222      1| EventInstance::PJRT_Event_OnReady
2025-09-10 19:54:23.755 (  30.631s) [        F1708000]      event_instance.cc:171      1| EventInstance::PJRT_Event_Destroy
2025-09-10 19:54:23.755 (  30.631s) [        F1708000]  device_description.cc:44       1| DeviceDescription::PJRT_DeviceDescription_Id
2025-09-10 19:54:23.755 (  30.631s) [        F1708000]  device_description.cc:44       1| DeviceDescription::PJRT_DeviceDescription_Id
2025-09-10 19:54:23.757 (  30.633s) [        F1708000]     device_instance.cc:82       1| DeviceInstance::PJRT_Device_DefaultMemory
2025-09-10 19:54:23.757 (  30.633s) [        F1708000]     client_instance.cc:466      1| ClientInstance::PJRT_Client_BufferFromHostBuffer
2025-09-10 19:54:23.757 (  30.633s) [        F1708000]     memory_instance.cc:57       1| MemoryInstance::getDevice
2025-09-10 19:54:23.757 (  30.633s) [        F1708000]      event_instance.cc:222      1| EventInstance::PJRT_Event_OnReady
2025-09-10 19:54:23.757 (  30.633s) [        F1708000]      event_instance.cc:171      1| EventInstance::PJRT_Event_Destroy
2025-09-10 19:54:23.757 (  30.633s) [        F1708000]     device_instance.cc:82       1| DeviceInstance::PJRT_Device_DefaultMemory
2025-09-10 19:54:23.757 (  30.633s) [        F1708000]     client_instance.cc:466      1| ClientInstance::PJRT_Client_BufferFromHostBuffer
2025-09-10 19:54:23.757 (  30.633s) [        F1708000]     memory_instance.cc:57       1| MemoryInstance::getDevice
2025-09-10 19:54:23.757 (  30.633s) [        F1708000]      event_instance.cc:222      1| EventInstance::PJRT_Event_OnReady
2025-09-10 19:54:23.757 (  30.633s) [        F1708000]      event_instance.cc:171      1| EventInstance::PJRT_Event_Destroy
2025-09-10 19:54:23.757 (  30.633s) [        F1708000]  device_description.cc:44       1| DeviceDescription::PJRT_DeviceDescription_Id
2025-09-10 19:54:23.757 (  30.633s) [        F1708000]  device_description.cc:44       1| DeviceDescription::PJRT_DeviceDescription_Id
2025-09-10 19:54:23.762 (  30.638s) [        F1708000]     device_instance.cc:82       1| DeviceInstance::PJRT_Device_DefaultMemory
2025-09-10 19:54:23.762 (  30.638s) [        F1708000]     client_instance.cc:466      1| ClientInstance::PJRT_Client_BufferFromHostBuffer
2025-09-10 19:54:23.762 (  30.638s) [        F1708000]     memory_instance.cc:57       1| MemoryInstance::getDevice
2025-09-10 19:54:23.762 (  30.638s) [        F1708000]      event_instance.cc:222      1| EventInstance::PJRT_Event_OnReady
2025-09-10 19:54:23.762 (  30.638s) [        F1708000]      event_instance.cc:171      1| EventInstance::PJRT_Event_Destroy
2025-09-10 19:54:23.762 (  30.638s) [        F1708000]     device_instance.cc:82       1| DeviceInstance::PJRT_Device_DefaultMemory
2025-09-10 19:54:23.762 (  30.638s) [        F1708000]     client_instance.cc:466      1| ClientInstance::PJRT_Client_BufferFromHostBuffer
2025-09-10 19:54:23.762 (  30.638s) [        F1708000]     memory_instance.cc:57       1| MemoryInstance::getDevice
2025-09-10 19:54:23.762 (  30.638s) [        F1708000]      event_instance.cc:222      1| EventInstance::PJRT_Event_OnReady
2025-09-10 19:54:23.762 (  30.638s) [        F1708000]      event_instance.cc:171      1| EventInstance::PJRT_Event_Destroy
2025-09-10 19:54:23.767 (  30.642s) [        F1708000]  device_description.cc:44       1| DeviceDescription::PJRT_DeviceDescription_Id
2025-09-10 19:54:23.767 (  30.642s) [        F1708000]  device_description.cc:44       1| DeviceDescription::PJRT_DeviceDescription_Id
2025-09-10 19:54:23.774 (  30.649s) [        F1708000]     device_instance.cc:82       1| DeviceInstance::PJRT_Device_DefaultMemory
2025-09-10 19:54:23.774 (  30.649s) [        F1708000]     client_instance.cc:466      1| ClientInstance::PJRT_Client_BufferFromHostBuffer
2025-09-10 19:54:23.774 (  30.649s) [        F1708000]     memory_instance.cc:57       1| MemoryInstance::getDevice
2025-09-10 19:54:23.774 (  30.650s) [        F1708000]      event_instance.cc:222      1| EventInstance::PJRT_Event_OnReady
2025-09-10 19:54:23.774 (  30.650s) [        F1708000]      event_instance.cc:171      1| EventInstance::PJRT_Event_Destroy
2025-09-10 19:54:23.774 (  30.650s) [        F1708000]     device_instance.cc:82       1| DeviceInstance::PJRT_Device_DefaultMemory
2025-09-10 19:54:23.774 (  30.650s) [        F1708000]     client_instance.cc:466      1| ClientInstance::PJRT_Client_BufferFromHostBuffer
2025-09-10 19:54:23.774 (  30.650s) [        F1708000]     memory_instance.cc:57       1| MemoryInstance::getDevice
2025-09-10 19:54:23.774 (  30.650s) [        F1708000]      event_instance.cc:222      1| EventInstance::PJRT_Event_OnReady
2025-09-10 19:54:23.774 (  30.650s) [        F1708000]      event_instance.cc:171      1| EventInstance::PJRT_Event_Destroy
2025-09-10 19:54:23.778 (  30.654s) [        F1708000]  device_description.cc:44       1| DeviceDescription::PJRT_DeviceDescription_Id
2025-09-10 19:54:23.778 (  30.654s) [        F1708000]  device_description.cc:44       1| DeviceDescription::PJRT_DeviceDescription_Id
2025-09-10 19:54:23.786 (  30.662s) [        F1708000]     device_instance.cc:82       1| DeviceInstance::PJRT_Device_DefaultMemory
2025-09-10 19:54:23.786 (  30.662s) [        F1708000]     client_instance.cc:466      1| ClientInstance::PJRT_Client_BufferFromHostBuffer
2025-09-10 19:54:23.786 (  30.662s) [        F1708000]     memory_instance.cc:57       1| MemoryInstance::getDevice
2025-09-10 19:54:23.786 (  30.662s) [        F1708000]      event_instance.cc:222      1| EventInstance::PJRT_Event_OnReady
2025-09-10 19:54:23.786 (  30.662s) [        F1708000]      event_instance.cc:171      1| EventInstance::PJRT_Event_Destroy
2025-09-10 19:54:23.786 (  30.662s) [        F1708000]     device_instance.cc:82       1| DeviceInstance::PJRT_Device_DefaultMemory
2025-09-10 19:54:23.786 (  30.662s) [        F1708000]     client_instance.cc:466      1| ClientInstance::PJRT_Client_BufferFromHostBuffer
2025-09-10 19:54:23.786 (  30.662s) [        F1708000]     memory_instance.cc:57       1| MemoryInstance::getDevice
2025-09-10 19:54:23.786 (  30.662s) [        F1708000]      event_instance.cc:222      1| EventInstance::PJRT_Event_OnReady
2025-09-10 19:54:23.786 (  30.662s) [        F1708000]      event_instance.cc:171      1| EventInstance::PJRT_Event_Destroy
2025-09-10 19:54:23.790 (  30.666s) [        F1708000]  device_description.cc:44       1| DeviceDescription::PJRT_DeviceDescription_Id
2025-09-10 19:54:23.790 (  30.666s) [        F1708000]  device_description.cc:44       1| DeviceDescription::PJRT_DeviceDescription_Id
2025-09-10 19:54:23.792 (  30.668s) [        F1708000]     device_instance.cc:82       1| DeviceInstance::PJRT_Device_DefaultMemory
2025-09-10 19:54:23.792 (  30.668s) [        F1708000]     client_instance.cc:466      1| ClientInstance::PJRT_Client_BufferFromHostBuffer
2025-09-10 19:54:23.792 (  30.668s) [        F1708000]     memory_instance.cc:57       1| MemoryInstance::getDevice
2025-09-10 19:54:23.792 (  30.668s) [        F1708000]      event_instance.cc:222      1| EventInstance::PJRT_Event_OnReady
2025-09-10 19:54:23.792 (  30.668s) [        F1708000]      event_instance.cc:171      1| EventInstance::PJRT_Event_Destroy
2025-09-10 19:54:23.792 (  30.668s) [        F1708000]     device_instance.cc:82       1| DeviceInstance::PJRT_Device_DefaultMemory
2025-09-10 19:54:23.792 (  30.668s) [        F1708000]     client_instance.cc:466      1| ClientInstance::PJRT_Client_BufferFromHostBuffer
2025-09-10 19:54:23.792 (  30.668s) [        F1708000]     memory_instance.cc:57       1| MemoryInstance::getDevice
2025-09-10 19:54:23.792 (  30.668s) [        F1708000]      event_instance.cc:222      1| EventInstance::PJRT_Event_OnReady
2025-09-10 19:54:23.792 (  30.668s) [        F1708000]      event_instance.cc:171      1| EventInstance::PJRT_Event_Destroy
2025-09-10 19:54:23.792 (  30.668s) [        F1708000]  device_description.cc:44       1| DeviceDescription::PJRT_DeviceDescription_Id
2025-09-10 19:54:23.792 (  30.668s) [        F1708000]  device_description.cc:44       1| DeviceDescription::PJRT_DeviceDescription_Id
2025-09-10 19:54:23.793 (  30.668s) [        F1708000]     device_instance.cc:82       1| DeviceInstance::PJRT_Device_DefaultMemory
2025-09-10 19:54:23.793 (  30.668s) [        F1708000]     client_instance.cc:466      1| ClientInstance::PJRT_Client_BufferFromHostBuffer
2025-09-10 19:54:23.793 (  30.668s) [        F1708000]     memory_instance.cc:57       1| MemoryInstance::getDevice
2025-09-10 19:54:23.793 (  30.669s) [        F1708000]      event_instance.cc:222      1| EventInstance::PJRT_Event_OnReady
2025-09-10 19:54:23.793 (  30.669s) [        F1708000]      event_instance.cc:171      1| EventInstance::PJRT_Event_Destroy
2025-09-10 19:54:23.793 (  30.669s) [        F1708000]     device_instance.cc:82       1| DeviceInstance::PJRT_Device_DefaultMemory
2025-09-10 19:54:23.793 (  30.669s) [        F1708000]     client_instance.cc:466      1| ClientInstance::PJRT_Client_BufferFromHostBuffer
2025-09-10 19:54:23.793 (  30.669s) [        F1708000]     memory_instance.cc:57       1| MemoryInstance::getDevice
2025-09-10 19:54:23.793 (  30.669s) [        F1708000]      event_instance.cc:222      1| EventInstance::PJRT_Event_OnReady
2025-09-10 19:54:23.793 (  30.669s) [        F1708000]      event_instance.cc:171      1| EventInstance::PJRT_Event_Destroy
2025-09-10 19:54:23.793 (  30.669s) [        F1708000]  device_description.cc:44       1| DeviceDescription::PJRT_DeviceDescription_Id
2025-09-10 19:54:23.793 (  30.669s) [        F1708000]  device_description.cc:44       1| DeviceDescription::PJRT_DeviceDescription_Id
2025-09-10 19:54:23.793 (  30.669s) [        F1708000]     device_instance.cc:82       1| DeviceInstance::PJRT_Device_DefaultMemory
2025-09-10 19:54:23.794 (  30.669s) [        F1708000]     client_instance.cc:466      1| ClientInstance::PJRT_Client_BufferFromHostBuffer
2025-09-10 19:54:23.794 (  30.669s) [        F1708000]     memory_instance.cc:57       1| MemoryInstance::getDevice
2025-09-10 19:54:23.794 (  30.669s) [        F1708000]      event_instance.cc:222      1| EventInstance::PJRT_Event_OnReady
2025-09-10 19:54:23.794 (  30.669s) [        F1708000]      event_instance.cc:171      1| EventInstance::PJRT_Event_Destroy
2025-09-10 19:54:23.794 (  30.670s) [        F1708000]     device_instance.cc:82       1| DeviceInstance::PJRT_Device_DefaultMemory
2025-09-10 19:54:23.794 (  30.670s) [        F1708000]     client_instance.cc:466      1| ClientInstance::PJRT_Client_BufferFromHostBuffer
2025-09-10 19:54:23.794 (  30.670s) [        F1708000]     memory_instance.cc:57       1| MemoryInstance::getDevice
2025-09-10 19:54:23.794 (  30.670s) [        F1708000]      event_instance.cc:222      1| EventInstance::PJRT_Event_OnReady
2025-09-10 19:54:23.794 (  30.670s) [        F1708000]      event_instance.cc:171      1| EventInstance::PJRT_Event_Destroy
2025-09-10 19:54:23.794 (  30.670s) [        F1708000]  device_description.cc:44       1| DeviceDescription::PJRT_DeviceDescription_Id
2025-09-10 19:54:23.794 (  30.670s) [        F1708000]  device_description.cc:44       1| DeviceDescription::PJRT_DeviceDescription_Id
2025-09-10 19:54:23.796 (  30.672s) [        F1708000]     device_instance.cc:82       1| DeviceInstance::PJRT_Device_DefaultMemory
2025-09-10 19:54:23.796 (  30.672s) [        F1708000]     client_instance.cc:466      1| ClientInstance::PJRT_Client_BufferFromHostBuffer
2025-09-10 19:54:23.796 (  30.672s) [        F1708000]     memory_instance.cc:57       1| MemoryInstance::getDevice
2025-09-10 19:54:23.796 (  30.672s) [        F1708000]      event_instance.cc:222      1| EventInstance::PJRT_Event_OnReady
2025-09-10 19:54:23.796 (  30.672s) [        F1708000]      event_instance.cc:171      1| EventInstance::PJRT_Event_Destroy
2025-09-10 19:54:23.796 (  30.672s) [        F1708000]     device_instance.cc:82       1| DeviceInstance::PJRT_Device_DefaultMemory
2025-09-10 19:54:23.796 (  30.672s) [        F1708000]     client_instance.cc:466      1| ClientInstance::PJRT_Client_BufferFromHostBuffer
2025-09-10 19:54:23.796 (  30.672s) [        F1708000]     memory_instance.cc:57       1| MemoryInstance::getDevice
2025-09-10 19:54:23.796 (  30.672s) [        F1708000]      event_instance.cc:222      1| EventInstance::PJRT_Event_OnReady
2025-09-10 19:54:23.796 (  30.672s) [        F1708000]      event_instance.cc:171      1| EventInstance::PJRT_Event_Destroy
2025-09-10 19:54:23.796 (  30.672s) [        F1708000]  device_description.cc:44       1| DeviceDescription::PJRT_DeviceDescription_Id
2025-09-10 19:54:23.796 (  30.672s) [        F1708000]  device_description.cc:44       1| DeviceDescription::PJRT_DeviceDescription_Id
2025-09-10 19:54:23.801 (  30.677s) [        F1708000]     device_instance.cc:82       1| DeviceInstance::PJRT_Device_DefaultMemory
2025-09-10 19:54:23.801 (  30.677s) [        F1708000]     client_instance.cc:466      1| ClientInstance::PJRT_Client_BufferFromHostBuffer
2025-09-10 19:54:23.801 (  30.677s) [        F1708000]     memory_instance.cc:57       1| MemoryInstance::getDevice
2025-09-10 19:54:23.801 (  30.677s) [        F1708000]      event_instance.cc:222      1| EventInstance::PJRT_Event_OnReady
2025-09-10 19:54:23.801 (  30.677s) [        F1708000]      event_instance.cc:171      1| EventInstance::PJRT_Event_Destroy
2025-09-10 19:54:23.801 (  30.677s) [        F1708000]     device_instance.cc:82       1| DeviceInstance::PJRT_Device_DefaultMemory
2025-09-10 19:54:23.801 (  30.677s) [        F1708000]     client_instance.cc:466      1| ClientInstance::PJRT_Client_BufferFromHostBuffer
2025-09-10 19:54:23.801 (  30.677s) [        F1708000]     memory_instance.cc:57       1| MemoryInstance::getDevice
2025-09-10 19:54:23.801 (  30.677s) [        F1708000]      event_instance.cc:222      1| EventInstance::PJRT_Event_OnReady
2025-09-10 19:54:23.801 (  30.677s) [        F1708000]      event_instance.cc:171      1| EventInstance::PJRT_Event_Destroy
2025-09-10 19:54:23.805 (  30.681s) [        F1708000]  device_description.cc:44       1| DeviceDescription::PJRT_DeviceDescription_Id
2025-09-10 19:54:23.806 (  30.681s) [        F1708000]  device_description.cc:44       1| DeviceDescription::PJRT_DeviceDescription_Id
2025-09-10 19:54:23.813 (  30.688s) [        F1708000]     device_instance.cc:82       1| DeviceInstance::PJRT_Device_DefaultMemory
2025-09-10 19:54:23.813 (  30.688s) [        F1708000]     client_instance.cc:466      1| ClientInstance::PJRT_Client_BufferFromHostBuffer
2025-09-10 19:54:23.813 (  30.688s) [        F1708000]     memory_instance.cc:57       1| MemoryInstance::getDevice
2025-09-10 19:54:23.813 (  30.689s) [        F1708000]      event_instance.cc:222      1| EventInstance::PJRT_Event_OnReady
2025-09-10 19:54:23.813 (  30.689s) [        F1708000]      event_instance.cc:171      1| EventInstance::PJRT_Event_Destroy
2025-09-10 19:54:23.813 (  30.689s) [        F1708000]     device_instance.cc:82       1| DeviceInstance::PJRT_Device_DefaultMemory
2025-09-10 19:54:23.813 (  30.689s) [        F1708000]     client_instance.cc:466      1| ClientInstance::PJRT_Client_BufferFromHostBuffer
2025-09-10 19:54:23.813 (  30.689s) [        F1708000]     memory_instance.cc:57       1| MemoryInstance::getDevice
2025-09-10 19:54:23.813 (  30.689s) [        F1708000]      event_instance.cc:222      1| EventInstance::PJRT_Event_OnReady
2025-09-10 19:54:23.813 (  30.689s) [        F1708000]      event_instance.cc:171      1| EventInstance::PJRT_Event_Destroy
2025-09-10 19:54:23.817 (  30.692s) [        F1708000]  device_description.cc:44       1| DeviceDescription::PJRT_DeviceDescription_Id
2025-09-10 19:54:23.817 (  30.692s) [        F1708000]  device_description.cc:44       1| DeviceDescription::PJRT_DeviceDescription_Id
2025-09-10 19:54:23.824 (  30.700s) [        F1708000]     device_instance.cc:82       1| DeviceInstance::PJRT_Device_DefaultMemory
2025-09-10 19:54:23.824 (  30.700s) [        F1708000]     client_instance.cc:466      1| ClientInstance::PJRT_Client_BufferFromHostBuffer
2025-09-10 19:54:23.824 (  30.700s) [        F1708000]     memory_instance.cc:57       1| MemoryInstance::getDevice
2025-09-10 19:54:23.824 (  30.700s) [        F1708000]      event_instance.cc:222      1| EventInstance::PJRT_Event_OnReady
2025-09-10 19:54:23.824 (  30.700s) [        F1708000]      event_instance.cc:171      1| EventInstance::PJRT_Event_Destroy
2025-09-10 19:54:23.824 (  30.700s) [        F1708000]     device_instance.cc:82       1| DeviceInstance::PJRT_Device_DefaultMemory
2025-09-10 19:54:23.824 (  30.700s) [        F1708000]     client_instance.cc:466      1| ClientInstance::PJRT_Client_BufferFromHostBuffer
2025-09-10 19:54:23.824 (  30.700s) [        F1708000]     memory_instance.cc:57       1| MemoryInstance::getDevice
2025-09-10 19:54:23.824 (  30.700s) [        F1708000]      event_instance.cc:222      1| EventInstance::PJRT_Event_OnReady
2025-09-10 19:54:23.824 (  30.700s) [        F1708000]      event_instance.cc:171      1| EventInstance::PJRT_Event_Destroy
2025-09-10 19:54:23.828 (  30.704s) [        F1708000]  device_description.cc:44       1| DeviceDescription::PJRT_DeviceDescription_Id
2025-09-10 19:54:23.828 (  30.704s) [        F1708000]  device_description.cc:44       1| DeviceDescription::PJRT_DeviceDescription_Id
2025-09-10 19:54:23.829 (  30.705s) [        F1708000]     device_instance.cc:82       1| DeviceInstance::PJRT_Device_DefaultMemory
2025-09-10 19:54:23.829 (  30.705s) [        F1708000]     client_instance.cc:466      1| ClientInstance::PJRT_Client_BufferFromHostBuffer
2025-09-10 19:54:23.829 (  30.705s) [        F1708000]     memory_instance.cc:57       1| MemoryInstance::getDevice
2025-09-10 19:54:23.829 (  30.705s) [        F1708000]      event_instance.cc:222      1| EventInstance::PJRT_Event_OnReady
2025-09-10 19:54:23.829 (  30.705s) [        F1708000]      event_instance.cc:171      1| EventInstance::PJRT_Event_Destroy
2025-09-10 19:54:23.829 (  30.705s) [        F1708000]     device_instance.cc:82       1| DeviceInstance::PJRT_Device_DefaultMemory
2025-09-10 19:54:23.829 (  30.705s) [        F1708000]     client_instance.cc:466      1| ClientInstance::PJRT_Client_BufferFromHostBuffer
2025-09-10 19:54:23.829 (  30.705s) [        F1708000]     memory_instance.cc:57       1| MemoryInstance::getDevice
2025-09-10 19:54:23.829 (  30.705s) [        F1708000]      event_instance.cc:222      1| EventInstance::PJRT_Event_OnReady
2025-09-10 19:54:23.829 (  30.705s) [        F1708000]      event_instance.cc:171      1| EventInstance::PJRT_Event_Destroy
2025-09-10 19:54:23.829 (  30.705s) [        F1708000]  device_description.cc:44       1| DeviceDescription::PJRT_DeviceDescription_Id
2025-09-10 19:54:23.829 (  30.705s) [        F1708000]  device_description.cc:44       1| DeviceDescription::PJRT_DeviceDescription_Id
2025-09-10 19:54:23.830 (  30.706s) [        F1708000]     device_instance.cc:82       1| DeviceInstance::PJRT_Device_DefaultMemory
2025-09-10 19:54:23.830 (  30.706s) [        F1708000]     client_instance.cc:466      1| ClientInstance::PJRT_Client_BufferFromHostBuffer
2025-09-10 19:54:23.830 (  30.706s) [        F1708000]     memory_instance.cc:57       1| MemoryInstance::getDevice
2025-09-10 19:54:23.830 (  30.706s) [        F1708000]      event_instance.cc:222      1| EventInstance::PJRT_Event_OnReady
2025-09-10 19:54:23.830 (  30.706s) [        F1708000]      event_instance.cc:171      1| EventInstance::PJRT_Event_Destroy
2025-09-10 19:54:23.830 (  30.706s) [        F1708000]     device_instance.cc:82       1| DeviceInstance::PJRT_Device_DefaultMemory
2025-09-10 19:54:23.830 (  30.706s) [        F1708000]     client_instance.cc:466      1| ClientInstance::PJRT_Client_BufferFromHostBuffer
2025-09-10 19:54:23.830 (  30.706s) [        F1708000]     memory_instance.cc:57       1| MemoryInstance::getDevice
2025-09-10 19:54:23.830 (  30.706s) [        F1708000]      event_instance.cc:222      1| EventInstance::PJRT_Event_OnReady
2025-09-10 19:54:23.830 (  30.706s) [        F1708000]      event_instance.cc:171      1| EventInstance::PJRT_Event_Destroy
2025-09-10 19:54:23.830 (  30.706s) [        F1708000]  device_description.cc:44       1| DeviceDescription::PJRT_DeviceDescription_Id
2025-09-10 19:54:23.830 (  30.706s) [        F1708000]  device_description.cc:44       1| DeviceDescription::PJRT_DeviceDescription_Id
2025-09-10 19:54:23.831 (  30.707s) [        F1708000]     device_instance.cc:82       1| DeviceInstance::PJRT_Device_DefaultMemory
2025-09-10 19:54:23.831 (  30.707s) [        F1708000]     client_instance.cc:466      1| ClientInstance::PJRT_Client_BufferFromHostBuffer
2025-09-10 19:54:23.831 (  30.707s) [        F1708000]     memory_instance.cc:57       1| MemoryInstance::getDevice
2025-09-10 19:54:23.831 (  30.707s) [        F1708000]      event_instance.cc:222      1| EventInstance::PJRT_Event_OnReady
2025-09-10 19:54:23.831 (  30.707s) [        F1708000]      event_instance.cc:171      1| EventInstance::PJRT_Event_Destroy
2025-09-10 19:54:23.831 (  30.707s) [        F1708000]     device_instance.cc:82       1| DeviceInstance::PJRT_Device_DefaultMemory
2025-09-10 19:54:23.831 (  30.707s) [        F1708000]     client_instance.cc:466      1| ClientInstance::PJRT_Client_BufferFromHostBuffer
2025-09-10 19:54:23.831 (  30.707s) [        F1708000]     memory_instance.cc:57       1| MemoryInstance::getDevice
2025-09-10 19:54:23.831 (  30.707s) [        F1708000]      event_instance.cc:222      1| EventInstance::PJRT_Event_OnReady
2025-09-10 19:54:23.831 (  30.707s) [        F1708000]      event_instance.cc:171      1| EventInstance::PJRT_Event_Destroy
2025-09-10 19:54:23.831 (  30.707s) [        F1708000]  device_description.cc:44       1| DeviceDescription::PJRT_DeviceDescription_Id
2025-09-10 19:54:23.831 (  30.707s) [        F1708000]  device_description.cc:44       1| DeviceDescription::PJRT_DeviceDescription_Id
2025-09-10 19:54:23.833 (  30.708s) [        F1708000]     device_instance.cc:82       1| DeviceInstance::PJRT_Device_DefaultMemory
2025-09-10 19:54:23.833 (  30.708s) [        F1708000]     client_instance.cc:466      1| ClientInstance::PJRT_Client_BufferFromHostBuffer
2025-09-10 19:54:23.833 (  30.708s) [        F1708000]     memory_instance.cc:57       1| MemoryInstance::getDevice
2025-09-10 19:54:23.833 (  30.708s) [        F1708000]      event_instance.cc:222      1| EventInstance::PJRT_Event_OnReady
2025-09-10 19:54:23.833 (  30.709s) [        F1708000]      event_instance.cc:171      1| EventInstance::PJRT_Event_Destroy
2025-09-10 19:54:23.833 (  30.709s) [        F1708000]     device_instance.cc:82       1| DeviceInstance::PJRT_Device_DefaultMemory
2025-09-10 19:54:23.833 (  30.709s) [        F1708000]     client_instance.cc:466      1| ClientInstance::PJRT_Client_BufferFromHostBuffer
2025-09-10 19:54:23.833 (  30.709s) [        F1708000]     memory_instance.cc:57       1| MemoryInstance::getDevice
2025-09-10 19:54:23.833 (  30.709s) [        F1708000]      event_instance.cc:222      1| EventInstance::PJRT_Event_OnReady
2025-09-10 19:54:23.833 (  30.709s) [        F1708000]      event_instance.cc:171      1| EventInstance::PJRT_Event_Destroy
2025-09-10 19:54:23.833 (  30.709s) [        F1708000]  device_description.cc:44       1| DeviceDescription::PJRT_DeviceDescription_Id
2025-09-10 19:54:23.833 (  30.709s) [        F1708000]  device_description.cc:44       1| DeviceDescription::PJRT_DeviceDescription_Id
2025-09-10 19:54:23.838 (  30.714s) [        F1708000]     device_instance.cc:82       1| DeviceInstance::PJRT_Device_DefaultMemory
2025-09-10 19:54:23.838 (  30.714s) [        F1708000]     client_instance.cc:466      1| ClientInstance::PJRT_Client_BufferFromHostBuffer
2025-09-10 19:54:23.838 (  30.714s) [        F1708000]     memory_instance.cc:57       1| MemoryInstance::getDevice
2025-09-10 19:54:23.838 (  30.714s) [        F1708000]      event_instance.cc:222      1| EventInstance::PJRT_Event_OnReady
2025-09-10 19:54:23.838 (  30.714s) [        F1708000]      event_instance.cc:171      1| EventInstance::PJRT_Event_Destroy
2025-09-10 19:54:23.838 (  30.714s) [        F1708000]     device_instance.cc:82       1| DeviceInstance::PJRT_Device_DefaultMemory
2025-09-10 19:54:23.838 (  30.714s) [        F1708000]     client_instance.cc:466      1| ClientInstance::PJRT_Client_BufferFromHostBuffer
2025-09-10 19:54:23.838 (  30.714s) [        F1708000]     memory_instance.cc:57       1| MemoryInstance::getDevice
2025-09-10 19:54:23.838 (  30.714s) [        F1708000]      event_instance.cc:222      1| EventInstance::PJRT_Event_OnReady
2025-09-10 19:54:23.838 (  30.714s) [        F1708000]      event_instance.cc:171      1| EventInstance::PJRT_Event_Destroy
2025-09-10 19:54:23.842 (  30.718s) [        F1708000]  device_description.cc:44       1| DeviceDescription::PJRT_DeviceDescription_Id
2025-09-10 19:54:23.842 (  30.718s) [        F1708000]  device_description.cc:44       1| DeviceDescription::PJRT_DeviceDescription_Id
2025-09-10 19:54:23.849 (  30.725s) [        F1708000]     device_instance.cc:82       1| DeviceInstance::PJRT_Device_DefaultMemory
2025-09-10 19:54:23.849 (  30.725s) [        F1708000]     client_instance.cc:466      1| ClientInstance::PJRT_Client_BufferFromHostBuffer
2025-09-10 19:54:23.849 (  30.725s) [        F1708000]     memory_instance.cc:57       1| MemoryInstance::getDevice
2025-09-10 19:54:23.849 (  30.725s) [        F1708000]      event_instance.cc:222      1| EventInstance::PJRT_Event_OnReady
2025-09-10 19:54:23.849 (  30.725s) [        F1708000]      event_instance.cc:171      1| EventInstance::PJRT_Event_Destroy
2025-09-10 19:54:23.849 (  30.725s) [        F1708000]     device_instance.cc:82       1| DeviceInstance::PJRT_Device_DefaultMemory
2025-09-10 19:54:23.849 (  30.725s) [        F1708000]     client_instance.cc:466      1| ClientInstance::PJRT_Client_BufferFromHostBuffer
2025-09-10 19:54:23.849 (  30.725s) [        F1708000]     memory_instance.cc:57       1| MemoryInstance::getDevice
2025-09-10 19:54:23.850 (  30.725s) [        F1708000]      event_instance.cc:222      1| EventInstance::PJRT_Event_OnReady
2025-09-10 19:54:23.850 (  30.725s) [        F1708000]      event_instance.cc:171      1| EventInstance::PJRT_Event_Destroy
2025-09-10 19:54:23.853 (  30.729s) [        F1708000]  device_description.cc:44       1| DeviceDescription::PJRT_DeviceDescription_Id
2025-09-10 19:54:23.853 (  30.729s) [        F1708000]  device_description.cc:44       1| DeviceDescription::PJRT_DeviceDescription_Id
2025-09-10 19:54:23.861 (  30.737s) [        F1708000]     device_instance.cc:82       1| DeviceInstance::PJRT_Device_DefaultMemory
2025-09-10 19:54:23.861 (  30.737s) [        F1708000]     client_instance.cc:466      1| ClientInstance::PJRT_Client_BufferFromHostBuffer
2025-09-10 19:54:23.861 (  30.737s) [        F1708000]     memory_instance.cc:57       1| MemoryInstance::getDevice
2025-09-10 19:54:23.861 (  30.737s) [        F1708000]      event_instance.cc:222      1| EventInstance::PJRT_Event_OnReady
2025-09-10 19:54:23.861 (  30.737s) [        F1708000]      event_instance.cc:171      1| EventInstance::PJRT_Event_Destroy
2025-09-10 19:54:23.861 (  30.737s) [        F1708000]     device_instance.cc:82       1| DeviceInstance::PJRT_Device_DefaultMemory
2025-09-10 19:54:23.861 (  30.737s) [        F1708000]     client_instance.cc:466      1| ClientInstance::PJRT_Client_BufferFromHostBuffer
2025-09-10 19:54:23.861 (  30.737s) [        F1708000]     memory_instance.cc:57       1| MemoryInstance::getDevice
2025-09-10 19:54:23.861 (  30.737s) [        F1708000]      event_instance.cc:222      1| EventInstance::PJRT_Event_OnReady
2025-09-10 19:54:23.861 (  30.737s) [        F1708000]      event_instance.cc:171      1| EventInstance::PJRT_Event_Destroy
2025-09-10 19:54:23.865 (  30.741s) [        F1708000]  device_description.cc:44       1| DeviceDescription::PJRT_DeviceDescription_Id
2025-09-10 19:54:23.865 (  30.741s) [        F1708000]  device_description.cc:44       1| DeviceDescription::PJRT_DeviceDescription_Id
2025-09-10 19:54:23.866 (  30.742s) [        F1708000]     device_instance.cc:82       1| DeviceInstance::PJRT_Device_DefaultMemory
…
2025-09-10 19:55:27.182 (  94.058s) [        F1708000]     buffer_instance.cc:398      1| BufferInstance::PJRT_Buffer_Destroy
2025-09-10 19:55:27.183 (  94.059s) [        F1708000]     buffer_instance.cc:398      1| BufferInstance::PJRT_Buffer_Destroy
2025-09-10 19:55:27.183 (  94.059s) [        F1708000]     buffer_instance.cc:398      1| BufferInstance::PJRT_Buffer_Destroy
2025-09-10 19:55:27.183 (  94.059s) [        F1708000]     buffer_instance.cc:398      1| BufferInstance::PJRT_Buffer_Destroy
2025-09-10 19:55:27.183 (  94.059s) [        F1708000]     buffer_instance.cc:398      1| BufferInstance::PJRT_Buffer_Destroy
2025-09-10 19:55:27.183 (  94.059s) [        F1708000]     buffer_instance.cc:398      1| BufferInstance::PJRT_Buffer_Destroy
2025-09-10 19:55:27.183 (  94.059s) [        F1708000]     buffer_instance.cc:398      1| BufferInstance::PJRT_Buffer_Destroy
2025-09-10 19:55:27.183 (  94.059s) [        F1708000]     buffer_instance.cc:398      1| BufferInstance::PJRT_Buffer_Destroy
2025-09-10 19:55:27.183 (  94.059s) [        F1708000]     buffer_instance.cc:398      1| BufferInstance::PJRT_Buffer_Destroy
2025-09-10 19:55:27.184 (  94.059s) [        F1708000]     buffer_instance.cc:398      1| BufferInstance::PJRT_Buffer_Destroy
2025-09-10 19:55:27.184 (  94.060s) [        F1708000]     buffer_instance.cc:398      1| BufferInstance::PJRT_Buffer_Destroy
2025-09-10 19:55:27.184 (  94.060s) [        F1708000]     buffer_instance.cc:398      1| BufferInstance::PJRT_Buffer_Destroy
2025-09-10 19:55:27.184 (  94.060s) [        F1708000]     buffer_instance.cc:398      1| BufferInstance::PJRT_Buffer_Destroy
2025-09-10 19:55:27.184 (  94.060s) [        F1708000]     buffer_instance.cc:398      1| BufferInstance::PJRT_Buffer_Destroy
2025-09-10 19:55:27.184 (  94.060s) [        F1708000]     buffer_instance.cc:398      1| BufferInstance::PJRT_Buffer_Destroy
2025-09-10 19:55:27.184 (  94.060s) [        F1708000]     buffer_instance.cc:398      1| BufferInstance::PJRT_Buffer_Destroy
2025-09-10 19:55:27.184 (  94.060s) [        F1708000]     buffer_instance.cc:398      1| BufferInstance::PJRT_Buffer_Destroy
2025-09-10 19:55:27.184 (  94.060s) [        F1708000]     buffer_instance.cc:398      1| BufferInstance::PJRT_Buffer_Destroy
2025-09-10 19:55:27.184 (  94.060s) [        F1708000]     buffer_instance.cc:398      1| BufferInstance::PJRT_Buffer_Destroy
2025-09-10 19:55:27.185 (  94.060s) [        F1708000]     buffer_instance.cc:398      1| BufferInstance::PJRT_Buffer_Destroy
2025-09-10 19:55:27.185 (  94.061s) [        F1708000]     buffer_instance.cc:398      1| BufferInstance::PJRT_Buffer_Destroy
2025-09-10 19:55:27.185 (  94.061s) [        F1708000]     buffer_instance.cc:398      1| BufferInstance::PJRT_Buffer_Destroy
2025-09-10 19:55:27.185 (  94.061s) [        F1708000]     buffer_instance.cc:398      1| BufferInstance::PJRT_Buffer_Destroy
2025-09-10 19:55:27.185 (  94.061s) [        F1708000]     buffer_instance.cc:398      1| BufferInstance::PJRT_Buffer_Destroy
2025-09-10 19:55:27.185 (  94.061s) [        F1708000]     buffer_instance.cc:398      1| BufferInstance::PJRT_Buffer_Destroy
2025-09-10 19:55:27.185 (  94.061s) [        F1708000]     buffer_instance.cc:398      1| BufferInstance::PJRT_Buffer_Destroy
2025-09-10 19:55:27.185 (  94.061s) [        F1708000]     buffer_instance.cc:398      1| BufferInstance::PJRT_Buffer_Destroy
2025-09-10 19:55:27.185 (  94.061s) [        F1708000]     buffer_instance.cc:398      1| BufferInstance::PJRT_Buffer_Destroy
2025-09-10 19:55:27.186 (  94.061s) [        F1708000]     buffer_instance.cc:398      1| BufferInstance::PJRT_Buffer_Destroy
2025-09-10 19:55:27.186 (  94.061s) [        F1708000]     buffer_instance.cc:398      1| BufferInstance::PJRT_Buffer_Destroy
2025-09-10 19:55:27.186 (  94.062s) [        F1708000]     buffer_instance.cc:398      1| BufferInstance::PJRT_Buffer_Destroy
2025-09-10 19:55:27.186 (  94.062s) [        F1708000]     buffer_instance.cc:398      1| BufferInstance::PJRT_Buffer_Destroy
2025-09-10 19:55:27.186 (  94.062s) [        F1708000]     buffer_instance.cc:398      1| BufferInstance::PJRT_Buffer_Destroy
2025-09-10 19:55:27.186 (  94.062s) [        F1708000]     buffer_instance.cc:398      1| BufferInstance::PJRT_Buffer_Destroy
2025-09-10 19:55:27.186 (  94.062s) [        F1708000]     buffer_instance.cc:398      1| BufferInstance::PJRT_Buffer_Destroy
2025-09-10 19:55:27.186 (  94.062s) [        F1708000]     buffer_instance.cc:398      1| BufferInstance::PJRT_Buffer_Destroy
2025-09-10 19:55:27.186 (  94.062s) [        F1708000]     buffer_instance.cc:398      1| BufferInstance::PJRT_Buffer_Destroy
2025-09-10 19:55:27.186 (  94.062s) [        F1708000]     buffer_instance.cc:398      1| BufferInstance::PJRT_Buffer_Destroy
2025-09-10 19:55:27.186 (  94.062s) [        F1708000]     buffer_instance.cc:398      1| BufferInstance::PJRT_Buffer_Destroy
2025-09-10 19:55:27.186 (  94.062s) [        F1708000]     buffer_instance.cc:398      1| BufferInstance::PJRT_Buffer_Destroy
2025-09-10 19:55:27.187 (  94.062s) [        F1708000]     buffer_instance.cc:398      1| BufferInstance::PJRT_Buffer_Destroy
2025-09-10 19:55:27.187 (  94.063s) [        F1708000]     buffer_instance.cc:398      1| BufferInstance::PJRT_Buffer_Destroy
2025-09-10 19:55:27.187 (  94.063s) [        F1708000]     buffer_instance.cc:398      1| BufferInstance::PJRT_Buffer_Destroy
2025-09-10 19:55:27.187 (  94.063s) [        F1708000]     buffer_instance.cc:398      1| BufferInstance::PJRT_Buffer_Destroy
2025-09-10 19:55:27.187 (  94.063s) [        F1708000]     buffer_instance.cc:398      1| BufferInstance::PJRT_Buffer_Destroy
2025-09-10 19:55:27.187 (  94.063s) [        F1708000]     buffer_instance.cc:398      1| BufferInstance::PJRT_Buffer_Destroy
2025-09-10 19:55:27.187 (  94.063s) [        F1708000]     buffer_instance.cc:398      1| BufferInstance::PJRT_Buffer_Destroy
2025-09-10 19:55:27.187 (  94.063s) [        F1708000]     buffer_instance.cc:398      1| BufferInstance::PJRT_Buffer_Destroy
2025-09-10 19:55:27.187 (  94.063s) [        F1708000]     buffer_instance.cc:398      1| BufferInstance::PJRT_Buffer_Destroy
2025-09-10 19:55:27.187 (  94.063s) [        F1708000]     buffer_instance.cc:398      1| BufferInstance::PJRT_Buffer_Destroy
2025-09-10 19:55:27.187 (  94.063s) [        F1708000]     buffer_instance.cc:398      1| BufferInstance::PJRT_Buffer_Destroy
2025-09-10 19:55:27.187 (  94.063s) [        F1708000]     buffer_instance.cc:398      1| BufferInstance::PJRT_Buffer_Destroy
2025-09-10 19:55:27.188 (  94.063s) [        F1708000]     buffer_instance.cc:398      1| BufferInstance::PJRT_Buffer_Destroy
2025-09-10 19:55:27.188 (  94.063s) [        F1708000]     buffer_instance.cc:398      1| BufferInstance::PJRT_Buffer_Destroy
2025-09-10 19:55:27.188 (  94.064s) [        F1708000]     buffer_instance.cc:398      1| BufferInstance::PJRT_Buffer_Destroy
2025-09-10 19:55:27.188 (  94.064s) [        F1708000]     buffer_instance.cc:398      1| BufferInstance::PJRT_Buffer_Destroy
2025-09-10 19:55:27.188 (  94.064s) [        F1708000]     buffer_instance.cc:398      1| BufferInstance::PJRT_Buffer_Destroy
2025-09-10 19:55:27.188 (  94.064s) [        F1708000]     buffer_instance.cc:398      1| BufferInstance::PJRT_Buffer_Destroy
2025-09-10 19:55:27.188 (  94.064s) [        F1708000]     buffer_instance.cc:398      1| BufferInstance::PJRT_Buffer_Destroy
2025-09-10 19:55:27.188 (  94.064s) [        F1708000]     buffer_instance.cc:398      1| BufferInstance::PJRT_Buffer_Destroy
2025-09-10 19:55:27.188 (  94.064s) [        F1708000]     buffer_instance.cc:398      1| BufferInstance::PJRT_Buffer_Destroy
2025-09-10 19:55:27.188 (  94.064s) [        F1708000]     buffer_instance.cc:398      1| BufferInstance::PJRT_Buffer_Destroy
2025-09-10 19:55:27.189 (  94.064s) [        F1708000]     buffer_instance.cc:398      1| BufferInstance::PJRT_Buffer_Destroy
2025-09-10 19:55:27.189 (  94.064s) [        F1708000]     buffer_instance.cc:398      1| BufferInstance::PJRT_Buffer_Destroy
2025-09-10 19:55:27.189 (  94.065s) [        F1708000]     buffer_instance.cc:398      1| BufferInstance::PJRT_Buffer_Destroy
2025-09-10 19:55:27.189 (  94.065s) [        F1708000]     buffer_instance.cc:398      1| BufferInstance::PJRT_Buffer_Destroy
2025-09-10 19:55:27.189 (  94.065s) [        F1708000]     buffer_instance.cc:398      1| BufferInstance::PJRT_Buffer_Destroy
2025-09-10 19:55:27.189 (  94.065s) [        F1708000]     buffer_instance.cc:398      1| BufferInstance::PJRT_Buffer_Destroy
2025-09-10 19:55:27.189 (  94.065s) [        F1708000]     buffer_instance.cc:398      1| BufferInstance::PJRT_Buffer_Destroy
2025-09-10 19:55:27.189 (  94.065s) [        F1708000]     buffer_instance.cc:398      1| BufferInstance::PJRT_Buffer_Destroy
2025-09-10 19:55:27.189 (  94.065s) [        F1708000]     buffer_instance.cc:398      1| BufferInstance::PJRT_Buffer_Destroy
2025-09-10 19:55:27.189 (  94.065s) [        F1708000]     buffer_instance.cc:398      1| BufferInstance::PJRT_Buffer_Destroy
2025-09-10 19:55:27.189 (  94.065s) [        F1708000]     buffer_instance.cc:398      1| BufferInstance::PJRT_Buffer_Destroy
2025-09-10 19:55:27.190 (  94.065s) [        F1708000]     buffer_instance.cc:398      1| BufferInstance::PJRT_Buffer_Destroy
2025-09-10 19:55:27.190 (  94.065s) [        F1708000]     buffer_instance.cc:398      1| BufferInstance::PJRT_Buffer_Destroy
2025-09-10 19:55:27.190 (  94.066s) [        F1708000]     buffer_instance.cc:398      1| BufferInstance::PJRT_Buffer_Destroy
2025-09-10 19:55:27.190 (  94.066s) [        F1708000]     buffer_instance.cc:398      1| BufferInstance::PJRT_Buffer_Destroy
2025-09-10 19:55:27.190 (  94.066s) [        F1708000]     buffer_instance.cc:398      1| BufferInstance::PJRT_Buffer_Destroy
2025-09-10 19:55:27.190 (  94.066s) [        F1708000]     buffer_instance.cc:398      1| BufferInstance::PJRT_Buffer_Destroy
2025-09-10 19:55:27.190 (  94.066s) [        F1708000]     buffer_instance.cc:398      1| BufferInstance::PJRT_Buffer_Destroy
2025-09-10 19:55:27.190 (  94.066s) [        F1708000]     buffer_instance.cc:398      1| BufferInstance::PJRT_Buffer_Destroy
2025-09-10 19:55:27.190 (  94.066s) [        F1708000]     buffer_instance.cc:398      1| BufferInstance::PJRT_Buffer_Destroy
2025-09-10 19:55:27.190 (  94.066s) [        F1708000]     buffer_instance.cc:398      1| BufferInstance::PJRT_Buffer_Destroy
2025-09-10 19:55:27.190 (  94.066s) [        F1708000]     buffer_instance.cc:398      1| BufferInstance::PJRT_Buffer_Destroy
2025-09-10 19:55:27.190 (  94.066s) [        F1708000]     buffer_instance.cc:398      1| BufferInstance::PJRT_Buffer_Destroy
2025-09-10 19:55:27.190 (  94.066s) [        F1708000]     buffer_instance.cc:398      1| BufferInstance::PJRT_Buffer_Destroy
2025-09-10 19:55:27.191 (  94.067s) [        F1708000]     buffer_instance.cc:398      1| BufferInstance::PJRT_Buffer_Destroy
2025-09-10 19:55:27.191 (  94.067s) [        F1708000]     buffer_instance.cc:398      1| BufferInstance::PJRT_Buffer_Destroy
2025-09-10 19:55:27.191 (  94.067s) [        F1708000]     buffer_instance.cc:398      1| BufferInstance::PJRT_Buffer_Destroy
2025-09-10 19:55:27.191 (  94.067s) [        F1708000]     buffer_instance.cc:398      1| BufferInstance::PJRT_Buffer_Destroy
2025-09-10 19:55:27.191 (  94.067s) [        F1708000]     buffer_instance.cc:398      1| BufferInstance::PJRT_Buffer_Destroy
2025-09-10 19:55:27.191 (  94.067s) [        F1708000]     buffer_instance.cc:398      1| BufferInstance::PJRT_Buffer_Destroy
2025-09-10 19:55:27.191 (  94.067s) [        F1708000]     buffer_instance.cc:398      1| BufferInstance::PJRT_Buffer_Destroy
2025-09-10 19:55:27.191 (  94.067s) [        F1708000]     buffer_instance.cc:398      1| BufferInstance::PJRT_Buffer_Destroy
2025-09-10 19:55:27.191 (  94.067s) [        F1708000]     buffer_instance.cc:398      1| BufferInstance::PJRT_Buffer_Destroy
2025-09-10 19:55:27.191 (  94.067s) [        F1708000]     buffer_instance.cc:398      1| BufferInstance::PJRT_Buffer_Destroy
2025-09-10 19:55:27.192 (  94.067s) [        F1708000]     buffer_instance.cc:398      1| BufferInstance::PJRT_Buffer_Destroy
2025-09-10 19:55:27.192 (  94.068s) [        F1708000]     buffer_instance.cc:398      1| BufferInstance::PJRT_Buffer_Destroy
2025-09-10 19:55:27.192 (  94.068s) [        F1708000]     buffer_instance.cc:398      1| BufferInstance::PJRT_Buffer_Destroy
2025-09-10 19:55:27.192 (  94.068s) [        F1708000]     buffer_instance.cc:398      1| BufferInstance::PJRT_Buffer_Destroy
2025-09-10 19:55:27.192 (  94.068s) [        F1708000]     buffer_instance.cc:398      1| BufferInstance::PJRT_Buffer_Destroy
2025-09-10 19:55:27.192 (  94.068s) [        F1708000]     buffer_instance.cc:398      1| BufferInstance::PJRT_Buffer_Destroy
2025-09-10 19:55:27.192 (  94.068s) [        F1708000]     buffer_instance.cc:398      1| BufferInstance::PJRT_Buffer_Destroy
2025-09-10 19:55:27.192 (  94.068s) [        F1708000]     buffer_instance.cc:398      1| BufferInstance::PJRT_Buffer_Destroy
2025-09-10 19:55:27.192 (  94.068s) [        F1708000]     buffer_instance.cc:398      1| BufferInstance::PJRT_Buffer_Destroy
2025-09-10 19:55:27.192 (  94.068s) [        F1708000]     buffer_instance.cc:398      1| BufferInstance::PJRT_Buffer_Destroy
2025-09-10 19:55:27.192 (  94.068s) [        F1708000]     buffer_instance.cc:398      1| BufferInstance::PJRT_Buffer_Destroy
2025-09-10 19:55:27.192 (  94.068s) [        F1708000]     buffer_instance.cc:398      1| BufferInstance::PJRT_Buffer_Destroy
2025-09-10 19:55:27.193 (  94.068s) [        F1708000]     buffer_instance.cc:398      1| BufferInstance::PJRT_Buffer_Destroy
2025-09-10 19:55:27.193 (  94.068s) [        F1708000]     buffer_instance.cc:398      1| BufferInstance::PJRT_Buffer_Destroy
2025-09-10 19:55:27.193 (  94.069s) [        F1708000]     buffer_instance.cc:398      1| BufferInstance::PJRT_Buffer_Destroy
2025-09-10 19:55:27.193 (  94.069s) [        F1708000]     buffer_instance.cc:398      1| BufferInstance::PJRT_Buffer_Destroy
2025-09-10 19:55:27.193 (  94.069s) [        F1708000]     buffer_instance.cc:398      1| BufferInstance::PJRT_Buffer_Destroy
2025-09-10 19:55:27.193 (  94.069s) [        F1708000]     buffer_instance.cc:398      1| BufferInstance::PJRT_Buffer_Destroy
2025-09-10 19:55:27.193 (  94.069s) [        F1708000]     buffer_instance.cc:398      1| BufferInstance::PJRT_Buffer_Destroy
2025-09-10 19:55:27.193 (  94.069s) [        F1708000]     buffer_instance.cc:398      1| BufferInstance::PJRT_Buffer_Destroy
2025-09-10 19:55:27.193 (  94.069s) [        F1708000]     buffer_instance.cc:398      1| BufferInstance::PJRT_Buffer_Destroy
2025-09-10 19:55:27.193 (  94.069s) [        F1708000]     buffer_instance.cc:398      1| BufferInstance::PJRT_Buffer_Destroy
2025-09-10 19:55:27.193 (  94.069s) [        F1708000]     buffer_instance.cc:398      1| BufferInstance::PJRT_Buffer_Destroy
2025-09-10 19:55:27.193 (  94.069s) [        F1708000]     buffer_instance.cc:398      1| BufferInstance::PJRT_Buffer_Destroy
2025-09-10 19:55:27.194 (  94.069s) [        F1708000]     buffer_instance.cc:398      1| BufferInstance::PJRT_Buffer_Destroy
2025-09-10 19:55:27.194 (  94.069s) [        F1708000]     buffer_instance.cc:398      1| BufferInstance::PJRT_Buffer_Destroy
2025-09-10 19:55:27.194 (  94.070s) [        F1708000]     buffer_instance.cc:398      1| BufferInstance::PJRT_Buffer_Destroy
2025-09-10 19:55:27.194 (  94.070s) [        F1708000]     buffer_instance.cc:398      1| BufferInstance::PJRT_Buffer_Destroy
2025-09-10 19:55:27.194 (  94.070s) [        F1708000]     buffer_instance.cc:398      1| BufferInstance::PJRT_Buffer_Destroy
2025-09-10 19:55:27.194 (  94.070s) [        F1708000]     buffer_instance.cc:398      1| BufferInstance::PJRT_Buffer_Destroy
2025-09-10 19:55:27.194 (  94.070s) [        F1708000]     buffer_instance.cc:398      1| BufferInstance::PJRT_Buffer_Destroy
2025-09-10 19:55:27.194 (  94.070s) [        F1708000]     buffer_instance.cc:398      1| BufferInstance::PJRT_Buffer_Destroy
2025-09-10 19:55:27.194 (  94.070s) [        F1708000]     buffer_instance.cc:398      1| BufferInstance::PJRT_Buffer_Destroy
2025-09-10 19:55:27.194 (  94.070s) [        F1708000]     buffer_instance.cc:398      1| BufferInstance::PJRT_Buffer_Destroy
2025-09-10 19:55:27.194 (  94.070s) [        F1708000]     buffer_instance.cc:398      1| BufferInstance::PJRT_Buffer_Destroy
2025-09-10 19:55:27.195 (  94.070s) [        F1708000]     buffer_instance.cc:398      1| BufferInstance::PJRT_Buffer_Destroy
2025-09-10 19:55:27.195 (  94.071s) [        F1708000]     buffer_instance.cc:398      1| BufferInstance::PJRT_Buffer_Destroy
2025-09-10 19:55:27.195 (  94.071s) [        F1708000]     buffer_instance.cc:398      1| BufferInstance::PJRT_Buffer_Destroy
2025-09-10 19:55:27.195 (  94.071s) [        F1708000]     buffer_instance.cc:398      1| BufferInstance::PJRT_Buffer_Destroy
2025-09-10 19:55:27.195 (  94.071s) [        F1708000]     buffer_instance.cc:398      1| BufferInstance::PJRT_Buffer_Destroy
2025-09-10 19:55:27.195 (  94.071s) [        F1708000]     buffer_instance.cc:398      1| BufferInstance::PJRT_Buffer_Destroy
2025-09-10 19:55:27.195 (  94.071s) [        F1708000]     buffer_instance.cc:398      1| BufferInstance::PJRT_Buffer_Destroy
2025-09-10 19:55:27.195 (  94.071s) [        F1708000]     buffer_instance.cc:398      1| BufferInstance::PJRT_Buffer_Destroy
2025-09-10 19:55:27.195 (  94.071s) [        F1708000]     buffer_instance.cc:398      1| BufferInstance::PJRT_Buffer_Destroy
2025-09-10 19:55:27.195 (  94.071s) [        F1708000]     buffer_instance.cc:398      1| BufferInstance::PJRT_Buffer_Destroy
2025-09-10 19:55:27.195 (  94.071s) [        F1708000]     buffer_instance.cc:398      1| BufferInstance::PJRT_Buffer_Destroy
2025-09-10 19:55:27.195 (  94.071s) [        F1708000]     buffer_instance.cc:398      1| BufferInstance::PJRT_Buffer_Destroy
2025-09-10 19:55:27.196 (  94.071s) [        F1708000]     buffer_instance.cc:398      1| BufferInstance::PJRT_Buffer_Destroy
2025-09-10 19:55:27.196 (  94.071s) [        F1708000]     buffer_instance.cc:398      1| BufferInstance::PJRT_Buffer_Destroy
2025-09-10 19:55:27.196 (  94.072s) [        F1708000]     buffer_instance.cc:398      1| BufferInstance::PJRT_Buffer_Destroy
2025-09-10 19:55:27.196 (  94.072s) [        F1708000]     buffer_instance.cc:398      1| BufferInstance::PJRT_Buffer_Destroy
2025-09-10 19:55:27.196 (  94.072s) [        F1708000]     buffer_instance.cc:398      1| BufferInstance::PJRT_Buffer_Destroy
2025-09-10 19:55:27.196 (  94.072s) [        F1708000]     buffer_instance.cc:398      1| BufferInstance::PJRT_Buffer_Destroy
2025-09-10 19:55:27.196 (  94.072s) [        F1708000]     buffer_instance.cc:398      1| BufferInstance::PJRT_Buffer_Destroy
2025-09-10 19:55:27.196 (  94.072s) [        F1708000]     buffer_instance.cc:398      1| BufferInstance::PJRT_Buffer_Destroy
2025-09-10 19:55:27.196 (  94.072s) [        F1708000]     buffer_instance.cc:398      1| BufferInstance::PJRT_Buffer_Destroy
2025-09-10 19:55:27.196 (  94.072s) [        F1708000]     buffer_instance.cc:398      1| BufferInstance::PJRT_Buffer_Destroy
2025-09-10 19:55:27.196 (  94.072s) [        F1708000]     buffer_instance.cc:398      1| BufferInstance::PJRT_Buffer_Destroy
2025-09-10 19:55:27.196 (  94.072s) [        F1708000]     buffer_instance.cc:398      1| BufferInstance::PJRT_Buffer_Destroy
2025-09-10 19:55:27.197 (  94.072s) [        F1708000]     buffer_instance.cc:398      1| BufferInstance::PJRT_Buffer_Destroy
2025-09-10 19:55:27.197 (  94.073s) [        F1708000]     buffer_instance.cc:398      1| BufferInstance::PJRT_Buffer_Destroy
2025-09-10 19:55:27.197 (  94.073s) [        F1708000]     buffer_instance.cc:398      1| BufferInstance::PJRT_Buffer_Destroy
2025-09-10 19:55:27.197 (  94.073s) [        F1708000]     buffer_instance.cc:398      1| BufferInstance::PJRT_Buffer_Destroy
2025-09-10 19:55:27.197 (  94.073s) [        F1708000]     buffer_instance.cc:398      1| BufferInstance::PJRT_Buffer_Destroy
2025-09-10 19:55:27.197 (  94.073s) [        F1708000]     buffer_instance.cc:398      1| BufferInstance::PJRT_Buffer_Destroy
2025-09-10 19:55:27.197 (  94.073s) [        F1708000]     buffer_instance.cc:398      1| BufferInstance::PJRT_Buffer_Destroy
2025-09-10 19:55:27.197 (  94.073s) [        F1708000]     buffer_instance.cc:398      1| BufferInstance::PJRT_Buffer_Destroy
2025-09-10 19:55:27.197 (  94.073s) [        F1708000]     buffer_instance.cc:398      1| BufferInstance::PJRT_Buffer_Destroy
2025-09-10 19:55:27.197 (  94.073s) [        F1708000]     buffer_instance.cc:398      1| BufferInstance::PJRT_Buffer_Destroy
2025-09-10 19:55:27.197 (  94.073s) [        F1708000]     buffer_instance.cc:398      1| BufferInstance::PJRT_Buffer_Destroy
2025-09-10 19:55:27.197 (  94.073s) [        F1708000]     buffer_instance.cc:398      1| BufferInstance::PJRT_Buffer_Destroy
2025-09-10 19:55:27.198 (  94.073s) [        F1708000]     buffer_instance.cc:398      1| BufferInstance::PJRT_Buffer_Destroy
2025-09-10 19:55:27.198 (  94.074s) [        F1708000]     buffer_instance.cc:398      1| BufferInstance::PJRT_Buffer_Destroy
2025-09-10 19:55:27.198 (  94.074s) [        F1708000]     buffer_instance.cc:398      1| BufferInstance::PJRT_Buffer_Destroy
2025-09-10 19:55:27.198 (  94.074s) [        F1708000]     buffer_instance.cc:398      1| BufferInstance::PJRT_Buffer_Destroy
2025-09-10 19:55:27.198 (  94.074s) [        F1708000]     buffer_instance.cc:398      1| BufferInstance::PJRT_Buffer_Destroy
2025-09-10 19:55:27.198 (  94.074s) [        F1708000]     buffer_instance.cc:398      1| BufferInstance::PJRT_Buffer_Destroy
2025-09-10 19:55:27.198 (  94.074s) [        F1708000]     buffer_instance.cc:398      1| BufferInstance::PJRT_Buffer_Destroy
2025-09-10 19:55:27.198 (  94.074s) [        F1708000]     buffer_instance.cc:398      1| BufferInstance::PJRT_Buffer_Destroy
2025-09-10 19:55:27.198 (  94.074s) [        F1708000]     buffer_instance.cc:398      1| BufferInstance::PJRT_Buffer_Destroy
2025-09-10 19:55:27.198 (  94.074s) [        F1708000]     buffer_instance.cc:398      1| BufferInstance::PJRT_Buffer_Destroy
2025-09-10 19:55:27.198 (  94.074s) [        F1708000]     buffer_instance.cc:398      1| BufferInstance::PJRT_Buffer_Destroy
2025-09-10 19:55:27.199 (  94.074s) [        F1708000]     buffer_instance.cc:398      1| BufferInstance::PJRT_Buffer_Destroy
2025-09-10 19:55:27.199 (  94.075s) [        F1708000]     buffer_instance.cc:398      1| BufferInstance::PJRT_Buffer_Destroy
2025-09-10 19:55:27.199 (  94.075s) [        F1708000]     buffer_instance.cc:398      1| BufferInstance::PJRT_Buffer_Destroy
2025-09-10 19:55:27.199 (  94.075s) [        F1708000]     buffer_instance.cc:398      1| BufferInstance::PJRT_Buffer_Destroy
2025-09-10 19:55:27.199 (  94.075s) [        F1708000]     buffer_instance.cc:398      1| BufferInstance::PJRT_Buffer_Destroy
2025-09-10 19:55:27.199 (  94.075s) [        F1708000]     buffer_instance.cc:398      1| BufferInstance::PJRT_Buffer_Destroy
2025-09-10 19:55:27.199 (  94.075s) [        F1708000]     buffer_instance.cc:398      1| BufferInstance::PJRT_Buffer_Destroy
2025-09-10 19:55:27.199 (  94.075s) [        F1708000]     buffer_instance.cc:398      1| BufferInstance::PJRT_Buffer_Destroy
2025-09-10 19:55:27.199 (  94.075s) [        F1708000]     buffer_instance.cc:398      1| BufferInstance::PJRT_Buffer_Destroy
2025-09-10 19:55:27.199 (  94.075s) [        F1708000]     buffer_instance.cc:398      1| BufferInstance::PJRT_Buffer_Destroy
2025-09-10 19:55:27.199 (  94.075s) [        F1708000]     buffer_instance.cc:398      1| BufferInstance::PJRT_Buffer_Destroy
2025-09-10 19:55:27.200 (  94.075s) [        F1708000]     buffer_instance.cc:398      1| BufferInstance::PJRT_Buffer_Destroy
2025-09-10 19:55:27.200 (  94.076s) [        F1708000]     buffer_instance.cc:398      1| BufferInstance::PJRT_Buffer_Destroy
2025-09-10 19:55:27.200 (  94.076s) [        F1708000]     buffer_instance.cc:398      1| BufferInstance::PJRT_Buffer_Destroy
2025-09-10 19:55:27.200 (  94.076s) [        F1708000]     buffer_instance.cc:398      1| BufferInstance::PJRT_Buffer_Destroy
2025-09-10 19:55:27.200 (  94.076s) [        F1708000]     buffer_instance.cc:398      1| BufferInstance::PJRT_Buffer_Destroy
2025-09-10 19:55:27.200 (  94.076s) [        F1708000]     buffer_instance.cc:398      1| BufferInstance::PJRT_Buffer_Destroy
2025-09-10 19:55:27.200 (  94.076s) [        F1708000]     buffer_instance.cc:398      1| BufferInstance::PJRT_Buffer_Destroy
2025-09-10 19:55:27.200 (  94.076s) [        F1708000]     buffer_instance.cc:398      1| BufferInstance::PJRT_Buffer_Destroy
2025-09-10 19:55:27.200 (  94.076s) [        F1708000]     buffer_instance.cc:398      1| BufferInstance::PJRT_Buffer_Destroy
2025-09-10 19:55:27.200 (  94.076s) [        F1708000]     buffer_instance.cc:398      1| BufferInstance::PJRT_Buffer_Destroy
2025-09-10 19:55:27.200 (  94.076s) [        F1708000]     buffer_instance.cc:398      1| BufferInstance::PJRT_Buffer_Destroy
2025-09-10 19:55:27.200 (  94.076s) [        F1708000]     buffer_instance.cc:398      1| BufferInstance::PJRT_Buffer_Destroy
2025-09-10 19:55:27.200 (  94.076s) [        F1708000]     buffer_instance.cc:398      1| BufferInstance::PJRT_Buffer_Destroy
2025-09-10 19:55:27.201 (  94.076s) [        F1708000]     buffer_instance.cc:398      1| BufferInstance::PJRT_Buffer_Destroy
2025-09-10 19:55:27.201 (  94.076s) [        F1708000]     buffer_instance.cc:398      1| BufferInstance::PJRT_Buffer_Destroy
2025-09-10 19:55:27.201 (  94.077s) [        F1708000]     buffer_instance.cc:398      1| BufferInstance::PJRT_Buffer_Destroy
2025-09-10 19:55:27.201 (  94.077s) [        F1708000]     buffer_instance.cc:398      1| BufferInstance::PJRT_Buffer_Destroy
2025-09-10 19:55:27.201 (  94.077s) [        F1708000]     buffer_instance.cc:398      1| BufferInstance::PJRT_Buffer_Destroy
2025-09-10 19:55:27.201 (  94.077s) [        F1708000]     buffer_instance.cc:398      1| BufferInstance::PJRT_Buffer_Destroy
2025-09-10 19:55:27.201 (  94.077s) [        F1708000]     buffer_instance.cc:398      1| BufferInstance::PJRT_Buffer_Destroy
2025-09-10 19:55:27.201 (  94.077s) [        F1708000]     buffer_instance.cc:398      1| BufferInstance::PJRT_Buffer_Destroy
2025-09-10 19:55:27.201 (  94.077s) [        F1708000]     buffer_instance.cc:398      1| BufferInstance::PJRT_Buffer_Destroy
2025-09-10 19:55:27.201 (  94.077s) [        F1708000]     buffer_instance.cc:398      1| BufferInstance::PJRT_Buffer_Destroy
2025-09-10 19:55:27.201 (  94.077s) [        F1708000]     buffer_instance.cc:398      1| BufferInstance::PJRT_Buffer_Destroy
2025-09-10 19:55:27.201 (  94.077s) [        F1708000]     buffer_instance.cc:398      1| BufferInstance::PJRT_Buffer_Destroy
2025-09-10 19:55:27.202 (  94.077s) [        F1708000]     buffer_instance.cc:398      1| BufferInstance::PJRT_Buffer_Destroy
2025-09-10 19:55:27.202 (  94.078s) [        F1708000]     buffer_instance.cc:398      1| BufferInstance::PJRT_Buffer_Destroy
2025-09-10 19:55:27.202 (  94.078s) [        F1708000]     buffer_instance.cc:398      1| BufferInstance::PJRT_Buffer_Destroy
2025-09-10 19:55:27.202 (  94.078s) [        F1708000]     buffer_instance.cc:398      1| BufferInstance::PJRT_Buffer_Destroy
2025-09-10 19:55:27.202 (  94.078s) [        F1708000]     buffer_instance.cc:398      1| BufferInstance::PJRT_Buffer_Destroy
2025-09-10 19:55:27.202 (  94.078s) [        F1708000]     buffer_instance.cc:398      1| BufferInstance::PJRT_Buffer_Destroy
2025-09-10 19:55:27.202 (  94.078s) [        F1708000]     buffer_instance.cc:398      1| BufferInstance::PJRT_Buffer_Destroy
2025-09-10 19:55:27.202 (  94.078s) [        F1708000]     buffer_instance.cc:398      1| BufferInstance::PJRT_Buffer_Destroy
2025-09-10 19:55:27.202 (  94.078s) [        F1708000]     buffer_instance.cc:398      1| BufferInstance::PJRT_Buffer_Destroy
2025-09-10 19:55:27.202 (  94.078s) [        F1708000]     buffer_instance.cc:398      1| BufferInstance::PJRT_Buffer_Destroy
2025-09-10 19:55:27.202 (  94.078s) [        F1708000]     buffer_instance.cc:398      1| BufferInstance::PJRT_Buffer_Destroy
2025-09-10 19:55:27.202 (  94.078s) [        F1708000]     buffer_instance.cc:398      1| BufferInstance::PJRT_Buffer_Destroy
2025-09-10 19:55:27.203 (  94.078s) [        F1708000]     buffer_instance.cc:398      1| BufferInstance::PJRT_Buffer_Destroy
2025-09-10 19:55:27.203 (  94.079s) [        F1708000]     buffer_instance.cc:398      1| BufferInstance::PJRT_Buffer_Destroy
2025-09-10 19:55:27.203 (  94.079s) [        F1708000]     buffer_instance.cc:398      1| BufferInstance::PJRT_Buffer_Destroy
2025-09-10 19:55:27.203 (  94.079s) [        F1708000]     buffer_instance.cc:398      1| BufferInstance::PJRT_Buffer_Destroy
2025-09-10 19:55:27.203 (  94.079s) [        F1708000]     buffer_instance.cc:398      1| BufferInstance::PJRT_Buffer_Destroy
2025-09-10 19:55:27.203 (  94.079s) [        F1708000]     buffer_instance.cc:398      1| BufferInstance::PJRT_Buffer_Destroy
2025-09-10 19:55:27.203 (  94.079s) [        F1708000]     buffer_instance.cc:398      1| BufferInstance::PJRT_Buffer_Destroy
2025-09-10 19:55:27.203 (  94.079s) [        F1708000]     buffer_instance.cc:398      1| BufferInstance::PJRT_Buffer_Destroy
2025-09-10 19:55:27.203 (  94.079s) [        F1708000]     buffer_instance.cc:398      1| BufferInstance::PJRT_Buffer_Destroy
2025-09-10 19:55:27.203 (  94.079s) [        F1708000]     buffer_instance.cc:398      1| BufferInstance::PJRT_Buffer_Destroy
2025-09-10 19:55:27.203 (  94.079s) [        F1708000]     buffer_instance.cc:398      1| BufferInstance::PJRT_Buffer_Destroy
2025-09-10 19:55:27.203 (  94.079s) [        F1708000]     buffer_instance.cc:398      1| BufferInstance::PJRT_Buffer_Destroy
2025-09-10 19:55:27.203 (  94.079s) [        F1708000]     buffer_instance.cc:398      1| BufferInstance::PJRT_Buffer_Destroy
2025-09-10 19:55:27.204 (  94.079s) [        F1708000]     buffer_instance.cc:398      1| BufferInstance::PJRT_Buffer_Destroy
2025-09-10 19:55:27.204 (  94.080s) [        F1708000]     buffer_instance.cc:398      1| BufferInstance::PJRT_Buffer_Destroy
2025-09-10 19:55:27.204 (  94.080s) [        F1708000]     buffer_instance.cc:398      1| BufferInstance::PJRT_Buffer_Destroy
2025-09-10 19:55:27.204 (  94.080s) [        F1708000]     buffer_instance.cc:398      1| BufferInstance::PJRT_Buffer_Destroy
2025-09-10 19:55:27.204 (  94.080s) [        F1708000]     buffer_instance.cc:398      1| BufferInstance::PJRT_Buffer_Destroy
2025-09-10 19:55:27.204 (  94.080s) [        F1708000]     buffer_instance.cc:398      1| BufferInstance::PJRT_Buffer_Destroy
2025-09-10 19:55:27.204 (  94.080s) [        F1708000]     buffer_instance.cc:398      1| BufferInstance::PJRT_Buffer_Destroy
2025-09-10 19:55:27.204 (  94.080s) [        F1708000]     buffer_instance.cc:398      1| BufferInstance::PJRT_Buffer_Destroy
2025-09-10 19:55:27.204 (  94.080s) [        F1708000]     buffer_instance.cc:398      1| BufferInstance::PJRT_Buffer_Destroy
2025-09-10 19:55:27.204 (  94.080s) [        F1708000]     buffer_instance.cc:398      1| BufferInstance::PJRT_Buffer_Destroy
2025-09-10 19:55:27.204 (  94.080s) [        F1708000]     buffer_instance.cc:398      1| BufferInstance::PJRT_Buffer_Destroy
2025-09-10 19:55:27.204 (  94.080s) [        F1708000]     buffer_instance.cc:398      1| BufferInstance::PJRT_Buffer_Destroy
2025-09-10 19:55:27.205 (  94.080s) [        F1708000]     buffer_instance.cc:398      1| BufferInstance::PJRT_Buffer_Destroy
2025-09-10 19:55:27.205 (  94.080s) [        F1708000]     buffer_instance.cc:398      1| BufferInstance::PJRT_Buffer_Destroy
2025-09-10 19:55:27.205 (  94.081s) [        F1708000]     buffer_instance.cc:398      1| BufferInstance::PJRT_Buffer_Destroy
2025-09-10 19:55:27.205 (  94.081s) [        F1708000]     buffer_instance.cc:398      1| BufferInstance::PJRT_Buffer_Destroy
2025-09-10 19:55:27.205 (  94.081s) [        F1708000]     buffer_instance.cc:398      1| BufferInstance::PJRT_Buffer_Destroy
2025-09-10 19:55:27.205 (  94.081s) [        F1708000]     buffer_instance.cc:398      1| BufferInstance::PJRT_Buffer_Destroy
2025-09-10 19:55:27.205 (  94.081s) [        F1708000]     buffer_instance.cc:398      1| BufferInstance::PJRT_Buffer_Destroy
2025-09-10 19:55:27.205 (  94.081s) [        F1708000]     buffer_instance.cc:398      1| BufferInstance::PJRT_Buffer_Destroy
2025-09-10 19:55:27.205 (  94.081s) [        F1708000]     buffer_instance.cc:398      1| BufferInstance::PJRT_Buffer_Destroy
2025-09-10 19:55:27.205 (  94.081s) [        F1708000]     buffer_instance.cc:398      1| BufferInstance::PJRT_Buffer_Destroy
2025-09-10 19:55:27.205 (  94.081s) [        F1708000]     buffer_instance.cc:398      1| BufferInstance::PJRT_Buffer_Destroy
2025-09-10 19:55:27.205 (  94.081s) [        F1708000]     buffer_instance.cc:398      1| BufferInstance::PJRT_Buffer_Destroy
2025-09-10 19:55:27.206 (  94.081s) [        F1708000]     buffer_instance.cc:398      1| BufferInstance::PJRT_Buffer_Destroy
2025-09-10 19:55:27.206 (  94.082s) [        F1708000]     buffer_instance.cc:398      1| BufferInstance::PJRT_Buffer_Destroy
2025-09-10 19:55:27.206 (  94.082s) [        F1708000]     buffer_instance.cc:398      1| BufferInstance::PJRT_Buffer_Destroy
2025-09-10 19:55:27.206 (  94.082s) [        F1708000]     buffer_instance.cc:398      1| BufferInstance::PJRT_Buffer_Destroy
2025-09-10 19:55:27.206 (  94.082s) [        F1708000]     buffer_instance.cc:398      1| BufferInstance::PJRT_Buffer_Destroy
2025-09-10 19:55:27.206 (  94.082s) [        F1708000]     buffer_instance.cc:398      1| BufferInstance::PJRT_Buffer_Destroy
2025-09-10 19:55:27.206 (  94.082s) [        F1708000]     buffer_instance.cc:398      1| BufferInstance::PJRT_Buffer_Destroy
2025-09-10 19:55:27.206 (  94.082s) [        F1708000]     buffer_instance.cc:398      1| BufferInstance::PJRT_Buffer_Destroy
2025-09-10 19:55:27.206 (  94.082s) [        F1708000]     buffer_instance.cc:398      1| BufferInstance::PJRT_Buffer_Destroy
2025-09-10 19:55:27.206 (  94.082s) [        F1708000]     buffer_instance.cc:398      1| BufferInstance::PJRT_Buffer_Destroy
2025-09-10 19:55:27.206 (  94.082s) [        F1708000]     buffer_instance.cc:398      1| BufferInstance::PJRT_Buffer_Destroy
2025-09-10 19:55:27.206 (  94.082s) [        F1708000]     buffer_instance.cc:398      1| BufferInstance::PJRT_Buffer_Destroy
2025-09-10 19:55:27.206 (  94.082s) [        F1708000]     buffer_instance.cc:398      1| BufferInstance::PJRT_Buffer_Destroy
2025-09-10 19:55:27.207 (  94.082s) [        F1708000]     buffer_instance.cc:398      1| BufferInstance::PJRT_Buffer_Destroy
2025-09-10 19:55:27.207 (  94.083s) [        F1708000]     buffer_instance.cc:398      1| BufferInstance::PJRT_Buffer_Destroy
2025-09-10 19:55:27.207 (  94.083s) [        F1708000]     buffer_instance.cc:398      1| BufferInstance::PJRT_Buffer_Destroy
2025-09-10 19:55:27.207 (  94.083s) [        F1708000]     buffer_instance.cc:398      1| BufferInstance::PJRT_Buffer_Destroy
2025-09-10 19:55:27.207 (  94.083s) [        F1708000]     buffer_instance.cc:398      1| BufferInstance::PJRT_Buffer_Destroy
2025-09-10 19:55:27.207 (  94.083s) [        F1708000]     buffer_instance.cc:398      1| BufferInstance::PJRT_Buffer_Destroy
2025-09-10 19:55:27.207 (  94.083s) [        F1708000]     buffer_instance.cc:398      1| BufferInstance::PJRT_Buffer_Destroy
2025-09-10 19:55:27.207 (  94.083s) [        F1708000]     buffer_instance.cc:398      1| BufferInstance::PJRT_Buffer_Destroy
2025-09-10 19:55:27.207 (  94.083s) [        F1708000]     buffer_instance.cc:398      1| BufferInstance::PJRT_Buffer_Destroy
2025-09-10 19:55:27.207 (  94.083s) [        F1708000]     buffer_instance.cc:398      1| BufferInstance::PJRT_Buffer_Destroy
2025-09-10 19:55:27.207 (  94.083s) [        F1708000]     buffer_instance.cc:398      1| BufferInstance::PJRT_Buffer_Destroy
2025-09-10 19:55:27.208 (  94.083s) [        F1708000]     buffer_instance.cc:398      1| BufferInstance::PJRT_Buffer_Destroy
2025-09-10 19:55:27.208 (  94.083s) [        F1708000]     buffer_instance.cc:398      1| BufferInstance::PJRT_Buffer_Destroy
2025-09-10 19:55:27.208 (  94.084s) [        F1708000]     buffer_instance.cc:398      1| BufferInstance::PJRT_Buffer_Destroy
2025-09-10 19:55:27.208 (  94.084s) [        F1708000]     buffer_instance.cc:398      1| BufferInstance::PJRT_Buffer_Destroy
2025-09-10 19:55:27.208 (  94.084s) [        F1708000]     buffer_instance.cc:398      1| BufferInstance::PJRT_Buffer_Destroy
2025-09-10 19:55:27.208 (  94.084s) [        F1708000]     buffer_instance.cc:398      1| BufferInstance::PJRT_Buffer_Destroy
2025-09-10 19:55:27.208 (  94.084s) [        F1708000]     buffer_instance.cc:398      1| BufferInstance::PJRT_Buffer_Destroy
2025-09-10 19:55:27.208 (  94.084s) [        F1708000]     buffer_instance.cc:398      1| BufferInstance::PJRT_Buffer_Destroy
2025-09-10 19:55:27.208 (  94.084s) [        F1708000]     buffer_instance.cc:398      1| BufferInstance::PJRT_Buffer_Destroy
2025-09-10 19:55:27.208 (  94.084s) [        F1708000]     buffer_instance.cc:398      1| BufferInstance::PJRT_Buffer_Destroy
2025-09-10 19:55:27.208 (  94.084s) [        F1708000]     buffer_instance.cc:398      1| BufferInstance::PJRT_Buffer_Destroy
2025-09-10 19:55:27.208 (  94.084s) [        F1708000]     buffer_instance.cc:398      1| BufferInstance::PJRT_Buffer_Destroy
2025-09-10 19:55:27.208 (  94.084s) [        F1708000]     buffer_instance.cc:398      1| BufferInstance::PJRT_Buffer_Destroy
2025-09-10 19:55:27.209 (  94.084s) [        F1708000]     buffer_instance.cc:398      1| BufferInstance::PJRT_Buffer_Destroy
2025-09-10 19:55:27.209 (  94.085s) [        F1708000]     buffer_instance.cc:398      1| BufferInstance::PJRT_Buffer_Destroy
2025-09-10 19:55:27.209 (  94.085s) [        F1708000]     buffer_instance.cc:398      1| BufferInstance::PJRT_Buffer_Destroy
2025-09-10 19:55:27.209 (  94.085s) [        F1708000]     buffer_instance.cc:398      1| BufferInstance::PJRT_Buffer_Destroy
2025-09-10 19:55:27.209 (  94.085s) [        F1708000]     buffer_instance.cc:398      1| BufferInstance::PJRT_Buffer_Destroy
2025-09-10 19:55:27.209 (  94.085s) [        F1708000]     buffer_instance.cc:398      1| BufferInstance::PJRT_Buffer_Destroy
2025-09-10 19:55:27.209 (  94.085s) [        F1708000]     buffer_instance.cc:398      1| BufferInstance::PJRT_Buffer_Destroy
2025-09-10 19:55:27.209 (  94.085s) [        F1708000]     buffer_instance.cc:398      1| BufferInstance::PJRT_Buffer_Destroy
2025-09-10 19:55:27.209 (  94.085s) [        F1708000]     buffer_instance.cc:398      1| BufferInstance::PJRT_Buffer_Destroy
2025-09-10 19:55:27.209 (  94.085s) [        F1708000]     buffer_instance.cc:398      1| BufferInstance::PJRT_Buffer_Destroy
2025-09-10 19:55:27.209 (  94.085s) [        F1708000]     buffer_instance.cc:398      1| BufferInstance::PJRT_Buffer_Destroy
2025-09-10 19:55:27.209 (  94.085s) [        F1708000]     buffer_instance.cc:398      1| BufferInstance::PJRT_Buffer_Destroy
2025-09-10 19:55:27.210 (  94.085s) [        F1708000]     buffer_instance.cc:398      1| BufferInstance::PJRT_Buffer_Destroy
2025-09-10 19:55:27.210 (  94.086s) [        F1708000]     buffer_instance.cc:398      1| BufferInstance::PJRT_Buffer_Destroy
2025-09-10 19:55:27.210 (  94.086s) [        F1708000]     buffer_instance.cc:398      1| BufferInstance::PJRT_Buffer_Destroy
2025-09-10 19:55:27.210 (  94.086s) [        F1708000]     buffer_instance.cc:398      1| BufferInstance::PJRT_Buffer_Destroy
2025-09-10 19:55:27.210 (  94.086s) [        F1708000]     buffer_instance.cc:398      1| BufferInstance::PJRT_Buffer_Destroy
2025-09-10 19:55:27.210 (  94.086s) [        F1708000]     buffer_instance.cc:398      1| BufferInstance::PJRT_Buffer_Destroy
2025-09-10 19:55:27.210 (  94.086s) [        F1708000]     buffer_instance.cc:398      1| BufferInstance::PJRT_Buffer_Destroy
2025-09-10 19:55:27.210 (  94.086s) [        F1708000]     buffer_instance.cc:398      1| BufferInstance::PJRT_Buffer_Destroy
2025-09-10 19:55:27.210 (  94.086s) [        F1708000]     buffer_instance.cc:398      1| BufferInstance::PJRT_Buffer_Destroy
2025-09-10 19:55:27.210 (  94.086s) [        F1708000]     buffer_instance.cc:398      1| BufferInstance::PJRT_Buffer_Destroy
2025-09-10 19:55:27.210 (  94.086s) [        F1708000]     buffer_instance.cc:398      1| BufferInstance::PJRT_Buffer_Destroy
2025-09-10 19:55:27.211 (  94.086s) [        F1708000]     buffer_instance.cc:398      1| BufferInstance::PJRT_Buffer_Destroy
2025-09-10 19:55:27.211 (  94.086s) [        F1708000]     buffer_instance.cc:398      1| BufferInstance::PJRT_Buffer_Destroy
2025-09-10 19:55:27.211 (  94.087s) [        F1708000]     buffer_instance.cc:398      1| BufferInstance::PJRT_Buffer_Destroy
2025-09-10 19:55:27.211 (  94.087s) [        F1708000]     buffer_instance.cc:398      1| BufferInstance::PJRT_Buffer_Destroy
2025-09-10 19:55:27.211 (  94.087s) [        F1708000]     buffer_instance.cc:398      1| BufferInstance::PJRT_Buffer_Destroy
2025-09-10 19:55:27.211 (  94.087s) [        F1708000]     buffer_instance.cc:398      1| BufferInstance::PJRT_Buffer_Destroy
2025-09-10 19:55:27.211 (  94.087s) [        F1708000]     buffer_instance.cc:398      1| BufferInstance::PJRT_Buffer_Destroy
2025-09-10 19:55:27.211 (  94.087s) [        F1708000]     buffer_instance.cc:398      1| BufferInstance::PJRT_Buffer_Destroy
2025-09-10 19:55:27.211 (  94.087s) [        F1708000]     buffer_instance.cc:398      1| BufferInstance::PJRT_Buffer_Destroy
2025-09-10 19:55:27.211 (  94.087s) [        F1708000]     buffer_instance.cc:398      1| BufferInstance::PJRT_Buffer_Destroy
2025-09-10 19:55:27.211 (  94.087s) [        F1708000]     buffer_instance.cc:398      1| BufferInstance::PJRT_Buffer_Destroy
2025-09-10 19:55:27.212 (  94.087s) [        F1708000]     buffer_instance.cc:398      1| BufferInstance::PJRT_Buffer_Destroy
2025-09-10 19:55:27.212 (  94.087s) [        F1708000]     buffer_instance.cc:398      1| BufferInstance::PJRT_Buffer_Destroy
2025-09-10 19:55:27.212 (  94.088s) [        F1708000]     buffer_instance.cc:398      1| BufferInstance::PJRT_Buffer_Destroy
2025-09-10 19:55:27.212 (  94.088s) [        F1708000]     buffer_instance.cc:398      1| BufferInstance::PJRT_Buffer_Destroy
2025-09-10 19:55:27.212 (  94.088s) [        F1708000]     buffer_instance.cc:398      1| BufferInstance::PJRT_Buffer_Destroy
2025-09-10 19:55:27.212 (  94.088s) [        F1708000]     buffer_instance.cc:398      1| BufferInstance::PJRT_Buffer_Destroy
2025-09-10 19:55:27.212 (  94.088s) [        F1708000]     buffer_instance.cc:398      1| BufferInstance::PJRT_Buffer_Destroy
2025-09-10 19:55:27.212 (  94.088s) [        F1708000]     buffer_instance.cc:398      1| BufferInstance::PJRT_Buffer_Destroy
2025-09-10 19:55:27.212 (  94.088s) [        F1708000]     buffer_instance.cc:398      1| BufferInstance::PJRT_Buffer_Destroy
2025-09-10 19:55:27.212 (  94.088s) [        F1708000]     buffer_instance.cc:398      1| BufferInstance::PJRT_Buffer_Destroy
2025-09-10 19:55:27.212 (  94.088s) [        F1708000]     buffer_instance.cc:398      1| BufferInstance::PJRT_Buffer_Destroy
2025-09-10 19:55:27.212 (  94.088s) [        F1708000]     buffer_instance.cc:398      1| BufferInstance::PJRT_Buffer_Destroy
2025-09-10 19:55:27.212 (  94.088s) [        F1708000]     buffer_instance.cc:398      1| BufferInstance::PJRT_Buffer_Destroy
2025-09-10 19:55:27.212 (  94.088s) [        F1708000]     buffer_instance.cc:398      1| BufferInstance::PJRT_Buffer_Destroy
2025-09-10 19:55:27.213 (  94.088s) [        F1708000]     buffer_instance.cc:398      1| BufferInstance::PJRT_Buffer_Destroy
2025-09-10 19:55:27.213 (  94.089s) [        F1708000]     buffer_instance.cc:398      1| BufferInstance::PJRT_Buffer_Destroy
2025-09-10 19:55:27.213 (  94.089s) [        F1708000]     buffer_instance.cc:398      1| BufferInstance::PJRT_Buffer_Destroy
2025-09-10 19:55:27.213 (  94.089s) [        F1708000]     buffer_instance.cc:398      1| BufferInstance::PJRT_Buffer_Destroy
2025-09-10 19:55:27.213 (  94.089s) [        F1708000]     buffer_instance.cc:398      1| BufferInstance::PJRT_Buffer_Destroy
2025-09-10 19:55:27.213 (  94.089s) [        F1708000]     buffer_instance.cc:398      1| BufferInstance::PJRT_Buffer_Destroy
2025-09-10 19:55:27.213 (  94.089s) [        F1708000]     buffer_instance.cc:398      1| BufferInstance::PJRT_Buffer_Destroy
2025-09-10 19:55:27.213 (  94.089s) [        F1708000]     buffer_instance.cc:398      1| BufferInstance::PJRT_Buffer_Destroy
2025-09-10 19:55:27.213 (  94.089s) [        F1708000]     buffer_instance.cc:398      1| BufferInstance::PJRT_Buffer_Destroy
2025-09-10 19:55:27.213 (  94.089s) [        F1708000]     buffer_instance.cc:398      1| BufferInstance::PJRT_Buffer_Destroy
2025-09-10 19:55:27.213 (  94.089s) [        F1708000]     buffer_instance.cc:398      1| BufferInstance::PJRT_Buffer_Destroy
2025-09-10 19:55:27.213 (  94.089s) [        F1708000]     buffer_instance.cc:398      1| BufferInstance::PJRT_Buffer_Destroy
2025-09-10 19:55:27.213 (  94.089s) [        F1708000]     buffer_instance.cc:398      1| BufferInstance::PJRT_Buffer_Destroy
2025-09-10 19:55:27.214 (  94.089s) [        F1708000]     buffer_instance.cc:398      1| BufferInstance::PJRT_Buffer_Destroy
2025-09-10 19:55:27.214 (  94.090s) [        F1708000]     buffer_instance.cc:398      1| BufferInstance::PJRT_Buffer_Destroy
2025-09-10 19:55:27.214 (  94.090s) [        F1708000]     buffer_instance.cc:398      1| BufferInstance::PJRT_Buffer_Destroy
2025-09-10 19:55:27.214 (  94.090s) [        F1708000]     buffer_instance.cc:398      1| BufferInstance::PJRT_Buffer_Destroy
2025-09-10 19:55:27.214 (  94.090s) [        F1708000]     buffer_instance.cc:398      1| BufferInstance::PJRT_Buffer_Destroy
2025-09-10 19:55:27.214 (  94.090s) [        F1708000]     buffer_instance.cc:398      1| BufferInstance::PJRT_Buffer_Destroy
2025-09-10 19:55:27.214 (  94.090s) [        F1708000]     buffer_instance.cc:398      1| BufferInstance::PJRT_Buffer_Destroy
2025-09-10 19:55:27.214 (  94.090s) [        F1708000]     buffer_instance.cc:398      1| BufferInstance::PJRT_Buffer_Destroy
2025-09-10 19:55:27.214 (  94.090s) [        F1708000]     buffer_instance.cc:398      1| BufferInstance::PJRT_Buffer_Destroy
2025-09-10 19:55:27.214 (  94.090s) [        F1708000]     buffer_instance.cc:398      1| BufferInstance::PJRT_Buffer_Destroy
2025-09-10 19:55:27.214 (  94.090s) [        F1708000]     buffer_instance.cc:398      1| BufferInstance::PJRT_Buffer_Destroy
2025-09-10 19:55:27.214 (  94.090s) [        F1708000]     buffer_instance.cc:398      1| BufferInstance::PJRT_Buffer_Destroy
2025-09-10 19:55:27.215 (  94.090s) [        F1708000]     buffer_instance.cc:398      1| BufferInstance::PJRT_Buffer_Destroy
2025-09-10 19:55:27.215 (  94.091s) [        F1708000]     buffer_instance.cc:398      1| BufferInstance::PJRT_Buffer_Destroy
2025-09-10 19:55:27.215 (  94.091s) [        F1708000]     buffer_instance.cc:398      1| BufferInstance::PJRT_Buffer_Destroy
2025-09-10 19:55:27.215 (  94.091s) [        F1708000]     buffer_instance.cc:398      1| BufferInstance::PJRT_Buffer_Destroy
2025-09-10 19:55:27.215 (  94.091s) [        F1708000]     buffer_instance.cc:398      1| BufferInstance::PJRT_Buffer_Destroy
2025-09-10 19:55:27.215 (  94.091s) [        F1708000]     buffer_instance.cc:398      1| BufferInstance::PJRT_Buffer_Destroy
2025-09-10 19:55:27.215 (  94.091s) [        F1708000]     buffer_instance.cc:398      1| BufferInstance::PJRT_Buffer_Destroy
2025-09-10 19:55:27.215 (  94.091s) [        F1708000]     buffer_instance.cc:398      1| BufferInstance::PJRT_Buffer_Destroy
2025-09-10 19:55:27.215 (  94.091s) [        F1708000]     buffer_instance.cc:398      1| BufferInstance::PJRT_Buffer_Destroy
2025-09-10 19:55:27.215 (  94.091s) [        F1708000]     buffer_instance.cc:398      1| BufferInstance::PJRT_Buffer_Destroy
2025-09-10 19:55:27.215 (  94.091s) [        F1708000]     buffer_instance.cc:398      1| BufferInstance::PJRT_Buffer_Destroy
2025-09-10 19:55:27.215 (  94.091s) [        F1708000]     buffer_instance.cc:398      1| BufferInstance::PJRT_Buffer_Destroy
2025-09-10 19:55:27.215 (  94.091s) [        F1708000]     buffer_instance.cc:398      1| BufferInstance::PJRT_Buffer_Destroy
2025-09-10 19:55:27.216 (  94.091s) [        F1708000]     buffer_instance.cc:398      1| BufferInstance::PJRT_Buffer_Destroy
2025-09-10 19:55:27.216 (  94.091s) [        F1708000]     buffer_instance.cc:398      1| BufferInstance::PJRT_Buffer_Destroy
2025-09-10 19:55:27.216 (  94.092s) [        F1708000]     buffer_instance.cc:398      1| BufferInstance::PJRT_Buffer_Destroy
2025-09-10 19:55:27.216 (  94.092s) [        F1708000]     buffer_instance.cc:398      1| BufferInstance::PJRT_Buffer_Destroy
2025-09-10 19:55:27.216 (  94.092s) [        F1708000]     buffer_instance.cc:398      1| BufferInstance::PJRT_Buffer_Destroy
2025-09-10 19:55:27.635 (  94.511s) [        F1708000]     buffer_instance.cc:398      1| BufferInstance::PJRT_Buffer_Destroy
2025-09-10 19:55:27.636 (  94.512s) [        F1708000]     buffer_instance.cc:398      1| BufferInstance::PJRT_Buffer_Destroy
2025-09-10 19:55:27.636 (  94.512s) [        F1708000]     buffer_instance.cc:398      1| BufferInstance::PJRT_Buffer_Destroy
2025-09-10 19:55:27.636 (  94.512s) [        F1708000]     buffer_instance.cc:398      1| BufferInstance::PJRT_Buffer_Destroy
2025-09-10 19:55:27.681 (  94.557s) [        F1708000]     buffer_instance.cc:398      1| BufferInstance::PJRT_Buffer_Destroy
Merging ToLayoutOp into ttnn.constant
Merging ToLayoutOp into ttnn.constant
Merging ToLayoutOp into ttnn.constant
2025-09-10 19:55:28.557 | info     |          Device | Closing user mode device drivers (tt_cluster.cpp:393)
