WARNING:root:Defaulting to PJRT_DEVICE=CPU
============================= test session starts ==============================
platform linux -- Python 3.10.12, pytest-8.4.1, pluggy-1.6.0 -- /localdev/jameszianxu/gen_mc/tt-torch/env/venv/bin/python3.10
cachedir: .pytest_cache
rootdir: /localdev/jameszianxu/gen_mc/tt-torch
configfile: pyproject.toml
plugins: cov-6.2.1, forked-1.6.0, xdist-3.8.0, split-0.10.0
collecting ... collected 1 item

tests/models/llama/test_llama3_generative.py::test_llama3_generate Loading checkpoint shards:   0%|          | 0/2 [00:00<?, ?it/s]Loading checkpoint shards: 100%|██████████| 2/2 [00:00<00:00, 52.84it/s]
[James] Manually forwarding attention mask
Initial prompt: '<|begin_of_text|>I like taking walks in the'
<|begin_of_text|>I like taking walks in the2025-08-11 19:05:01.322 (   0.000s) [        E38731C0]      dylib_platform.cc:47       1| DylibPlatform::SubclassInitialize
2025-08-11 19:05:01.324 (   0.001s) [        E38731C0]     client_instance.cc:39       1| ClientInstance::ClientInstance
2025-08-11 19:05:01.324 (   0.001s) [        E38731C0]              client.cc:18       1| TTClientInstance::TTClientInstance
2025-08-11 19:05:01.324 (   0.001s) [        E38731C0]     client_instance.cc:60       1| ClientInstance::Initialize
[32m                 Always[0m | [1m[38;5;240m   DEBUG[0m | Device grid size = { 8, 8 }
2025-08-11 19:05:04.620 (   3.297s) [        E38731C0]              stubs.inc:112   WARN| STUB: PJRT_Client_TopologyDescription
2025-08-11 19:05:04.620 (   3.297s) [        E38731C0]      error_instance.cc:49       1| ErrorInstance::PJRT_Error_Message
2025-08-11 19:05:04.620 (   3.297s) [        E38731C0]      error_instance.cc:58       1| ErrorInstance::PJRT_Error_GetCode
2025-08-11 19:05:04.620 (   3.297s) [        E38731C0]      error_instance.cc:43       1| ErrorInstance::PJRT_Error_Destroy
2025-08-11 19:05:04.620 (   3.297s) [        E38731C0]     client_instance.cc:383      1| ClientInstance::PJRT_Client_PlatformVersion
2025-08-11 19:05:04.620 (   3.297s) [        E38731C0]     client_instance.cc:363      1| ClientInstance::PJRT_Client_PlatformName
2025-08-11 19:05:04.620 (   3.297s) [        E38731C0]     client_instance.cc:395      1| ClientInstance::PJRT_Client_Devices
2025-08-11 19:05:04.620 (   3.297s) [        E38731C0]     device_instance.cc:44       1| DeviceInstance::PJRT_Device_GetDescription
2025-08-11 19:05:04.620 (   3.297s) [        E38731C0]  device_description.cc:63       1| DeviceDescription::PJRT_DeviceDescription_Attributes
2025-08-11 19:05:04.620 (   3.297s) [        E38731C0]     device_instance.cc:44       1| DeviceInstance::PJRT_Device_GetDescription
2025-08-11 19:05:04.620 (   3.297s) [        E38731C0]  device_description.cc:63       1| DeviceDescription::PJRT_DeviceDescription_Attributes
2025-08-11 19:05:04.620 (   3.297s) [        E38731C0]     client_instance.cc:408      1| ClientInstance::PJRT_Client_AddressableDevices
2025-08-11 19:05:04.620 (   3.297s) [        E38731C0]     client_instance.cc:458      1| ClientInstance::PJRT_Client_AddressableMemories
2025-08-11 19:05:04.620 (   3.297s) [        E38731C0]     device_instance.cc:71       1| DeviceInstance::PJRT_Device_AddressableMemories
2025-08-11 19:05:04.620 (   3.297s) [        E38731C0]     device_instance.cc:71       1| DeviceInstance::PJRT_Device_AddressableMemories
2025-08-11 19:05:04.620 (   3.297s) [        E38731C0]     memory_instance.cc:124      1| MemoryInstance::PJRT_Memory_AddressableByDevices
2025-08-11 19:05:04.620 (   3.297s) [        E38731C0]     memory_instance.cc:124      1| MemoryInstance::PJRT_Memory_AddressableByDevices
2025-08-11 19:05:04.620 (   3.297s) [        E38731C0]     memory_instance.cc:124      1| MemoryInstance::PJRT_Memory_AddressableByDevices
2025-08-11 19:05:04.620 (   3.297s) [        E38731C0]        api_bindings.cc:76       1| PJRT_Plugin_Attributes
2025-08-11 19:05:04.620323: W torch_xla/csrc/runtime/profiler.cpp:88] Profiler API not found for PJRT plugin
2025-08-11 19:05:04.620 (   3.297s) [        E38731C0]  device_description.cc:44       1| DeviceDescription::PJRT_DeviceDescription_Id
2025-08-11 19:05:04.620 (   3.297s) [        E38731C0]  device_description.cc:44       1| DeviceDescription::PJRT_DeviceDescription_Id
2025-08-11 19:05:04.620 (   3.297s) [        E38731C0]  device_description.cc:44       1| DeviceDescription::PJRT_DeviceDescription_Id
2025-08-11 19:05:04.620 (   3.297s) [        E38731C0]  device_description.cc:44       1| DeviceDescription::PJRT_DeviceDescription_Id
2025-08-11 19:05:04.620 (   3.297s) [        E38731C0]  device_description.cc:44       1| DeviceDescription::PJRT_DeviceDescription_Id
2025-08-11 19:05:04.620 (   3.297s) [        E38731C0]  device_description.cc:44       1| DeviceDescription::PJRT_DeviceDescription_Id
2025-08-11 19:05:04.620 (   3.297s) [        E38731C0]  device_description.cc:99       1| DeviceDescription::PJRT_DeviceDescription_ToString
2025-08-11 19:05:04.620 (   3.297s) [        E38731C0]  device_description.cc:99       1| DeviceDescription::PJRT_DeviceDescription_ToString
2025-08-11 19:05:04.620 (   3.297s) [        E38731C0]  device_description.cc:44       1| DeviceDescription::PJRT_DeviceDescription_Id
2025-08-11 19:05:04.620 (   3.297s) [        E38731C0]  device_description.cc:44       1| DeviceDescription::PJRT_DeviceDescription_Id
2025-08-11 19:05:04.620 (   3.297s) [        E38731C0]  device_description.cc:44       1| DeviceDescription::PJRT_DeviceDescription_Id
2025-08-11 19:05:04.620 (   3.297s) [        E38731C0]  device_description.cc:44       1| DeviceDescription::PJRT_DeviceDescription_Id
2025-08-11 19:05:04.620 (   3.297s) [        E38731C0]  device_description.cc:44       1| DeviceDescription::PJRT_DeviceDescription_Id
2025-08-11 19:05:04.621 (   3.298s) [        E38731C0]     device_instance.cc:82       1| DeviceInstance::PJRT_Device_DefaultMemory
2025-08-11 19:05:04.621 (   3.298s) [        E38731C0]     client_instance.cc:509      1| ClientInstance::PJRT_Client_BufferFromHostBuffer
2025-08-11 19:05:04.621 (   3.298s) [        E38731C0]     memory_instance.cc:57       1| MemoryInstance::getDevice
2025-08-11 19:05:04.621 (   3.298s) [        E38731C0]     buffer_instance.cc:228      1| [BUFFER] Creating BORROWED host tensor with shape [3072] (semantics: ZeroCopy/other)
2025-08-11 19:05:04.621 (   3.298s) [        E38731C0]      event_instance.cc:222      1| EventInstance::PJRT_Event_OnReady
2025-08-11 19:05:04.621 (   3.299s) [        E38731C0]      event_instance.cc:171      1| EventInstance::PJRT_Event_Destroy
2025-08-11 19:05:04.621 (   3.299s) [        E38731C0]     device_instance.cc:82       1| DeviceInstance::PJRT_Device_DefaultMemory
2025-08-11 19:05:04.621 (   3.299s) [        E38731C0]     client_instance.cc:509      1| ClientInstance::PJRT_Client_BufferFromHostBuffer
2025-08-11 19:05:04.621 (   3.299s) [        E38731C0]     memory_instance.cc:57       1| MemoryInstance::getDevice
2025-08-11 19:05:04.622 (   3.299s) [        E38731C0]     buffer_instance.cc:228      1| [BUFFER] Creating BORROWED host tensor with shape [3072] (semantics: ZeroCopy/other)
2025-08-11 19:05:04.622 (   3.299s) [        E38731C0]      event_instance.cc:222      1| EventInstance::PJRT_Event_OnReady
2025-08-11 19:05:04.622 (   3.299s) [        E38731C0]      event_instance.cc:171      1| EventInstance::PJRT_Event_Destroy
2025-08-11 19:05:04.622 (   3.299s) [        E38731C0]     device_instance.cc:82       1| DeviceInstance::PJRT_Device_DefaultMemory
2025-08-11 19:05:04.622 (   3.299s) [        E38731C0]     client_instance.cc:509      1| ClientInstance::PJRT_Client_BufferFromHostBuffer
2025-08-11 19:05:04.622 (   3.299s) [        E38731C0]     memory_instance.cc:57       1| MemoryInstance::getDevice
2025-08-11 19:05:04.622 (   3.299s) [        E38731C0]     buffer_instance.cc:228      1| [BUFFER] Creating BORROWED host tensor with shape [3072] (semantics: ZeroCopy/other)
2025-08-11 19:05:04.622 (   3.299s) [        E38731C0]      event_instance.cc:222      1| EventInstance::PJRT_Event_OnReady
2025-08-11 19:05:04.622 (   3.299s) [        E38731C0]      event_instance.cc:171      1| EventInstance::PJRT_Event_Destroy
2025-08-11 19:05:04.622 (   3.299s) [        E38731C0]     device_instance.cc:82       1| DeviceInstance::PJRT_Device_DefaultMemory
2025-08-11 19:05:04.622 (   3.299s) [        E38731C0]     client_instance.cc:509      1| ClientInstance::PJRT_Client_BufferFromHostBuffer
2025-08-11 19:05:04.622 (   3.299s) [        E38731C0]     memory_instance.cc:57       1| MemoryInstance::getDevice
2025-08-11 19:05:04.622 (   3.299s) [        E38731C0]     buffer_instance.cc:228      1| [BUFFER] Creating BORROWED host tensor with shape [3072] (semantics: ZeroCopy/other)
2025-08-11 19:05:04.622 (   3.299s) [        E38731C0]      event_instance.cc:222      1| EventInstance::PJRT_Event_OnReady
2025-08-11 19:05:04.622 (   3.299s) [        E38731C0]      event_instance.cc:171      1| EventInstance::PJRT_Event_Destroy
2025-08-11 19:05:04.622 (   3.299s) [        E38731C0]     device_instance.cc:82       1| DeviceInstance::PJRT_Device_DefaultMemory
2025-08-11 19:05:04.622 (   3.299s) [        E38731C0]     client_instance.cc:509      1| ClientInstance::PJRT_Client_BufferFromHostBuffer
2025-08-11 19:05:04.622 (   3.299s) [        E38731C0]     memory_instance.cc:57       1| MemoryInstance::getDevice
2025-08-11 19:05:04.622 (   3.299s) [        E38731C0]     buffer_instance.cc:228      1| [BUFFER] Creating BORROWED host tensor with shape [3072] (semantics: ZeroCopy/other)
2025-08-11 19:05:04.622 (   3.299s) [        E38731C0]      event_instance.cc:222      1| EventInstance::PJRT_Event_OnReady
2025-08-11 19:05:04.622 (   3.299s) [        E38731C0]      event_instance.cc:171      1| EventInstance::PJRT_Event_Destroy
2025-08-11 19:05:04.660 (   3.337s) [        E38731C0]     device_instance.cc:82       1| DeviceInstance::PJRT_Device_DefaultMemory
2025-08-11 19:05:04.660 (   3.337s) [        E38731C0]     client_instance.cc:509      1| ClientInstance::PJRT_Client_BufferFromHostBuffer
2025-08-11 19:05:04.660 (   3.337s) [        E38731C0]     memory_instance.cc:57       1| MemoryInstance::getDevice
2025-08-11 19:05:04.660 (   3.337s) [        E38731C0]     buffer_instance.cc:228      1| [BUFFER] Creating BORROWED host tensor with shape [128256, 3072] (semantics: ZeroCopy/other)
2025-08-11 19:05:04.660 (   3.337s) [        E38731C0]      event_instance.cc:222      1| EventInstance::PJRT_Event_OnReady
2025-08-11 19:05:04.660 (   3.337s) [        E38731C0]      event_instance.cc:171      1| EventInstance::PJRT_Event_Destroy
2025-08-11 19:05:04.660 (   3.338s) [        E38731C0]     device_instance.cc:82       1| DeviceInstance::PJRT_Device_DefaultMemory
2025-08-11 19:05:04.660 (   3.338s) [        E38731C0]     client_instance.cc:509      1| ClientInstance::PJRT_Client_BufferFromHostBuffer
2025-08-11 19:05:04.660 (   3.338s) [        E38731C0]     memory_instance.cc:57       1| MemoryInstance::getDevice
2025-08-11 19:05:04.661 (   3.338s) [        E38731C0]     buffer_instance.cc:228      1| [BUFFER] Creating BORROWED host tensor with shape [1, 64, 1] (semantics: ZeroCopy/other)
2025-08-11 19:05:04.661 (   3.338s) [        E38731C0]      event_instance.cc:222      1| EventInstance::PJRT_Event_OnReady
2025-08-11 19:05:04.661 (   3.338s) [        E38731C0]      event_instance.cc:171      1| EventInstance::PJRT_Event_Destroy
2025-08-11 19:05:04.676 (   3.353s) [        E38731C0]     device_instance.cc:82       1| DeviceInstance::PJRT_Device_DefaultMemory
2025-08-11 19:05:04.676 (   3.353s) [        E38731C0]     client_instance.cc:509      1| ClientInstance::PJRT_Client_BufferFromHostBuffer
2025-08-11 19:05:04.676 (   3.353s) [        E38731C0]     memory_instance.cc:57       1| MemoryInstance::getDevice
2025-08-11 19:05:04.676 (   3.353s) [        E38731C0]     buffer_instance.cc:228      1| [BUFFER] Creating BORROWED host tensor with shape [3072, 3072] (semantics: ZeroCopy/other)
2025-08-11 19:05:04.676 (   3.353s) [        E38731C0]      event_instance.cc:222      1| EventInstance::PJRT_Event_OnReady
2025-08-11 19:05:04.676 (   3.353s) [        E38731C0]      event_instance.cc:171      1| EventInstance::PJRT_Event_Destroy
2025-08-11 19:05:04.680 (   3.357s) [        E38731C0]     device_instance.cc:82       1| DeviceInstance::PJRT_Device_DefaultMemory
2025-08-11 19:05:04.680 (   3.357s) [        E38731C0]     client_instance.cc:509      1| ClientInstance::PJRT_Client_BufferFromHostBuffer
2025-08-11 19:05:04.680 (   3.357s) [        E38731C0]     memory_instance.cc:57       1| MemoryInstance::getDevice
2025-08-11 19:05:04.680 (   3.357s) [        E38731C0]     buffer_instance.cc:228      1| [BUFFER] Creating BORROWED host tensor with shape [3072, 1024] (semantics: ZeroCopy/other)
2025-08-11 19:05:04.680 (   3.357s) [        E38731C0]      event_instance.cc:222      1| EventInstance::PJRT_Event_OnReady
2025-08-11 19:05:04.680 (   3.357s) [        E38731C0]      event_instance.cc:171      1| EventInstance::PJRT_Event_Destroy
2025-08-11 19:05:04.685 (   3.362s) [        E38731C0]     device_instance.cc:82       1| DeviceInstance::PJRT_Device_DefaultMemory
2025-08-11 19:05:04.685 (   3.362s) [        E38731C0]     client_instance.cc:509      1| ClientInstance::PJRT_Client_BufferFromHostBuffer
2025-08-11 19:05:04.685 (   3.362s) [        E38731C0]     memory_instance.cc:57       1| MemoryInstance::getDevice
2025-08-11 19:05:04.685 (   3.362s) [        E38731C0]     buffer_instance.cc:228      1| [BUFFER] Creating BORROWED host tensor with shape [3072, 1024] (semantics: ZeroCopy/other)
2025-08-11 19:05:04.685 (   3.362s) [        E38731C0]      event_instance.cc:222      1| EventInstance::PJRT_Event_OnReady
2025-08-11 19:05:04.685 (   3.362s) [        E38731C0]      event_instance.cc:171      1| EventInstance::PJRT_Event_Destroy
2025-08-11 19:05:04.700 (   3.377s) [        E38731C0]     device_instance.cc:82       1| DeviceInstance::PJRT_Device_DefaultMemory
2025-08-11 19:05:04.700 (   3.377s) [        E38731C0]     client_instance.cc:509      1| ClientInstance::PJRT_Client_BufferFromHostBuffer
2025-08-11 19:05:04.700 (   3.377s) [        E38731C0]     memory_instance.cc:57       1| MemoryInstance::getDevice
2025-08-11 19:05:04.700 (   3.377s) [        E38731C0]     buffer_instance.cc:228      1| [BUFFER] Creating BORROWED host tensor with shape [3072, 3072] (semantics: ZeroCopy/other)
2025-08-11 19:05:04.700 (   3.377s) [        E38731C0]      event_instance.cc:222      1| EventInstance::PJRT_Event_OnReady
2025-08-11 19:05:04.700 (   3.377s) [        E38731C0]      event_instance.cc:171      1| EventInstance::PJRT_Event_Destroy
2025-08-11 19:05:04.744 (   3.421s) [        E38731C0]     device_instance.cc:82       1| DeviceInstance::PJRT_Device_DefaultMemory
2025-08-11 19:05:04.744 (   3.421s) [        E38731C0]     client_instance.cc:509      1| ClientInstance::PJRT_Client_BufferFromHostBuffer
2025-08-11 19:05:04.744 (   3.421s) [        E38731C0]     memory_instance.cc:57       1| MemoryInstance::getDevice
2025-08-11 19:05:04.744 (   3.421s) [        E38731C0]     buffer_instance.cc:228      1| [BUFFER] Creating BORROWED host tensor with shape [3072, 8192] (semantics: ZeroCopy/other)
2025-08-11 19:05:04.744 (   3.421s) [        E38731C0]      event_instance.cc:222      1| EventInstance::PJRT_Event_OnReady
2025-08-11 19:05:04.744 (   3.421s) [        E38731C0]      event_instance.cc:171      1| EventInstance::PJRT_Event_Destroy
2025-08-11 19:05:04.787 (   3.464s) [        E38731C0]     device_instance.cc:82       1| DeviceInstance::PJRT_Device_DefaultMemory
2025-08-11 19:05:04.787 (   3.464s) [        E38731C0]     client_instance.cc:509      1| ClientInstance::PJRT_Client_BufferFromHostBuffer
2025-08-11 19:05:04.787 (   3.464s) [        E38731C0]     memory_instance.cc:57       1| MemoryInstance::getDevice
2025-08-11 19:05:04.787 (   3.465s) [        E38731C0]     buffer_instance.cc:228      1| [BUFFER] Creating BORROWED host tensor with shape [3072, 8192] (semantics: ZeroCopy/other)
2025-08-11 19:05:04.787 (   3.465s) [        E38731C0]      event_instance.cc:222      1| EventInstance::PJRT_Event_OnReady
2025-08-11 19:05:04.787 (   3.465s) [        E38731C0]      event_instance.cc:171      1| EventInstance::PJRT_Event_Destroy
2025-08-11 19:05:04.828 (   3.505s) [        E38731C0]     device_instance.cc:82       1| DeviceInstance::PJRT_Device_DefaultMemory
2025-08-11 19:05:04.828 (   3.505s) [        E38731C0]     client_instance.cc:509      1| ClientInstance::PJRT_Client_BufferFromHostBuffer
2025-08-11 19:05:04.828 (   3.505s) [        E38731C0]     memory_instance.cc:57       1| MemoryInstance::getDevice
2025-08-11 19:05:04.828 (   3.506s) [        E38731C0]     buffer_instance.cc:228      1| [BUFFER] Creating BORROWED host tensor with shape [8192, 3072] (semantics: ZeroCopy/other)
2025-08-11 19:05:04.829 (   3.506s) [        E38731C0]      event_instance.cc:222      1| EventInstance::PJRT_Event_OnReady
2025-08-11 19:05:04.829 (   3.506s) [        E38731C0]      event_instance.cc:171      1| EventInstance::PJRT_Event_Destroy
2025-08-11 19:05:04.843 (   3.520s) [        E38731C0]     device_instance.cc:82       1| DeviceInstance::PJRT_Device_DefaultMemory
2025-08-11 19:05:04.843 (   3.520s) [        E38731C0]     client_instance.cc:509      1| ClientInstance::PJRT_Client_BufferFromHostBuffer
2025-08-11 19:05:04.843 (   3.520s) [        E38731C0]     memory_instance.cc:57       1| MemoryInstance::getDevice
2025-08-11 19:05:04.843 (   3.521s) [        E38731C0]     buffer_instance.cc:228      1| [BUFFER] Creating BORROWED host tensor with shape [3072, 3072] (semantics: ZeroCopy/other)
2025-08-11 19:05:04.843 (   3.521s) [        E38731C0]      event_instance.cc:222      1| EventInstance::PJRT_Event_OnReady
2025-08-11 19:05:04.843 (   3.521s) [        E38731C0]      event_instance.cc:171      1| EventInstance::PJRT_Event_Destroy
2025-08-11 19:05:04.848 (   3.526s) [        E38731C0]     device_instance.cc:82       1| DeviceInstance::PJRT_Device_DefaultMemory
2025-08-11 19:05:04.848 (   3.526s) [        E38731C0]     client_instance.cc:509      1| ClientInstance::PJRT_Client_BufferFromHostBuffer
2025-08-11 19:05:04.848 (   3.526s) [        E38731C0]     memory_instance.cc:57       1| MemoryInstance::getDevice
2025-08-11 19:05:04.849 (   3.526s) [        E38731C0]     buffer_instance.cc:228      1| [BUFFER] Creating BORROWED host tensor with shape [3072, 1024] (semantics: ZeroCopy/other)
2025-08-11 19:05:04.849 (   3.526s) [        E38731C0]      event_instance.cc:222      1| EventInstance::PJRT_Event_OnReady
2025-08-11 19:05:04.849 (   3.526s) [        E38731C0]      event_instance.cc:171      1| EventInstance::PJRT_Event_Destroy
2025-08-11 19:05:04.853 (   3.531s) [        E38731C0]     device_instance.cc:82       1| DeviceInstance::PJRT_Device_DefaultMemory
2025-08-11 19:05:04.853 (   3.531s) [        E38731C0]     client_instance.cc:509      1| ClientInstance::PJRT_Client_BufferFromHostBuffer
2025-08-11 19:05:04.854 (   3.531s) [        E38731C0]     memory_instance.cc:57       1| MemoryInstance::getDevice
2025-08-11 19:05:04.854 (   3.531s) [        E38731C0]     buffer_instance.cc:228      1| [BUFFER] Creating BORROWED host tensor with shape [3072, 1024] (semantics: ZeroCopy/other)
2025-08-11 19:05:04.854 (   3.531s) [        E38731C0]      event_instance.cc:222      1| EventInstance::PJRT_Event_OnReady
2025-08-11 19:05:04.854 (   3.531s) [        E38731C0]      event_instance.cc:171      1| EventInstance::PJRT_Event_Destroy
2025-08-11 19:05:04.868 (   3.545s) [        E38731C0]     device_instance.cc:82       1| DeviceInstance::PJRT_Device_DefaultMemory
2025-08-11 19:05:04.868 (   3.545s) [        E38731C0]     client_instance.cc:509      1| ClientInstance::PJRT_Client_BufferFromHostBuffer
2025-08-11 19:05:04.868 (   3.545s) [        E38731C0]     memory_instance.cc:57       1| MemoryInstance::getDevice
2025-08-11 19:05:04.868 (   3.546s) [        E38731C0]     buffer_instance.cc:228      1| [BUFFER] Creating BORROWED host tensor with shape [3072, 3072] (semantics: ZeroCopy/other)
2025-08-11 19:05:04.868 (   3.546s) [        E38731C0]      event_instance.cc:222      1| EventInstance::PJRT_Event_OnReady
2025-08-11 19:05:04.868 (   3.546s) [        E38731C0]      event_instance.cc:171      1| EventInstance::PJRT_Event_Destroy
2025-08-11 19:05:04.912 (   3.589s) [        E38731C0]     device_instance.cc:82       1| DeviceInstance::PJRT_Device_DefaultMemory
2025-08-11 19:05:04.912 (   3.589s) [        E38731C0]     client_instance.cc:509      1| ClientInstance::PJRT_Client_BufferFromHostBuffer
2025-08-11 19:05:04.912 (   3.589s) [        E38731C0]     memory_instance.cc:57       1| MemoryInstance::getDevice
2025-08-11 19:05:04.912 (   3.589s) [        E38731C0]     buffer_instance.cc:228      1| [BUFFER] Creating BORROWED host tensor with shape [3072, 8192] (semantics: ZeroCopy/other)
2025-08-11 19:05:04.912 (   3.589s) [        E38731C0]      event_instance.cc:222      1| EventInstance::PJRT_Event_OnReady
2025-08-11 19:05:04.912 (   3.589s) [        E38731C0]      event_instance.cc:171      1| EventInstance::PJRT_Event_Destroy
2025-08-11 19:05:04.955 (   3.633s) [        E38731C0]     device_instance.cc:82       1| DeviceInstance::PJRT_Device_DefaultMemory
2025-08-11 19:05:04.956 (   3.633s) [        E38731C0]     client_instance.cc:509      1| ClientInstance::PJRT_Client_BufferFromHostBuffer
2025-08-11 19:05:04.956 (   3.633s) [        E38731C0]     memory_instance.cc:57       1| MemoryInstance::getDevice
2025-08-11 19:05:04.956 (   3.633s) [        E38731C0]     buffer_instance.cc:228      1| [BUFFER] Creating BORROWED host tensor with shape [3072, 8192] (semantics: ZeroCopy/other)
2025-08-11 19:05:04.956 (   3.633s) [        E38731C0]      event_instance.cc:222      1| EventInstance::PJRT_Event_OnReady
2025-08-11 19:05:04.956 (   3.633s) [        E38731C0]      event_instance.cc:171      1| EventInstance::PJRT_Event_Destroy
2025-08-11 19:05:04.996 (   3.674s) [        E38731C0]     device_instance.cc:82       1| DeviceInstance::PJRT_Device_DefaultMemory
2025-08-11 19:05:04.996 (   3.674s) [        E38731C0]     client_instance.cc:509      1| ClientInstance::PJRT_Client_BufferFromHostBuffer
2025-08-11 19:05:04.996 (   3.674s) [        E38731C0]     memory_instance.cc:57       1| MemoryInstance::getDevice
2025-08-11 19:05:04.997 (   3.674s) [        E38731C0]     buffer_instance.cc:228      1| [BUFFER] Creating BORROWED host tensor with shape [8192, 3072] (semantics: ZeroCopy/other)
2025-08-11 19:05:04.997 (   3.674s) [        E38731C0]      event_instance.cc:222      1| EventInstance::PJRT_Event_OnReady
2025-08-11 19:05:04.997 (   3.674s) [        E38731C0]      event_instance.cc:171      1| EventInstance::PJRT_Event_Destroy
2025-08-11 19:05:05.715 (   4.392s) [        E38731C0]     device_instance.cc:82       1| DeviceInstance::PJRT_Device_DefaultMemory
2025-08-11 19:05:05.715 (   4.392s) [        E38731C0]     client_instance.cc:509      1| ClientInstance::PJRT_Client_BufferFromHostBuffer
2025-08-11 19:05:05.715 (   4.392s) [        E38731C0]     memory_instance.cc:57       1| MemoryInstance::getDevice
2025-08-11 19:05:05.715 (   4.392s) [        E38731C0]     buffer_instance.cc:228      1| [BUFFER] Creating BORROWED host tensor with shape [3072, 128256] (semantics: ZeroCopy/other)
2025-08-11 19:05:05.715 (   4.392s) [        E38731C0]      event_instance.cc:222      1| EventInstance::PJRT_Event_OnReady
2025-08-11 19:05:05.715 (   4.392s) [        E38731C0]      event_instance.cc:171      1| EventInstance::PJRT_Event_Destroy
2025-08-11 19:05:05.717 (   4.394s) [        E38731C0]     device_instance.cc:82       1| DeviceInstance::PJRT_Device_DefaultMemory
2025-08-11 19:05:05.717 (   4.394s) [        E38731C0]     client_instance.cc:509      1| ClientInstance::PJRT_Client_BufferFromHostBuffer
2025-08-11 19:05:05.717 (   4.394s) [        E38731C0]     memory_instance.cc:57       1| MemoryInstance::getDevice
2025-08-11 19:05:05.717 (   4.394s) [        E38731C0]     buffer_instance.cc:228      1| [BUFFER] Creating BORROWED host tensor with shape [3072, 3072] (semantics: ZeroCopy/other)
2025-08-11 19:05:05.717 (   4.394s) [        E38731C0]      event_instance.cc:222      1| EventInstance::PJRT_Event_OnReady
2025-08-11 19:05:05.717 (   4.394s) [        E38731C0]      event_instance.cc:171      1| EventInstance::PJRT_Event_Destroy
2025-08-11 19:05:05.717 (   4.395s) [        E38731C0]     device_instance.cc:82       1| DeviceInstance::PJRT_Device_DefaultMemory
2025-08-11 19:05:05.717 (   4.395s) [        E38731C0]     client_instance.cc:509      1| ClientInstance::PJRT_Client_BufferFromHostBuffer
2025-08-11 19:05:05.717 (   4.395s) [        E38731C0]     memory_instance.cc:57       1| MemoryInstance::getDevice
2025-08-11 19:05:05.718 (   4.395s) [        E38731C0]     buffer_instance.cc:228      1| [BUFFER] Creating BORROWED host tensor with shape [1024, 3072] (semantics: ZeroCopy/other)
2025-08-11 19:05:05.718 (   4.395s) [        E38731C0]      event_instance.cc:222      1| EventInstance::PJRT_Event_OnReady
2025-08-11 19:05:05.718 (   4.395s) [        E38731C0]      event_instance.cc:171      1| EventInstance::PJRT_Event_Destroy
2025-08-11 19:05:05.718 (   4.395s) [        E38731C0]     device_instance.cc:82       1| DeviceInstance::PJRT_Device_DefaultMemory
2025-08-11 19:05:05.718 (   4.395s) [        E38731C0]     client_instance.cc:509      1| ClientInstance::PJRT_Client_BufferFromHostBuffer
2025-08-11 19:05:05.718 (   4.395s) [        E38731C0]     memory_instance.cc:57       1| MemoryInstance::getDevice
2025-08-11 19:05:05.718 (   4.395s) [        E38731C0]     buffer_instance.cc:228      1| [BUFFER] Creating BORROWED host tensor with shape [1024, 3072] (semantics: ZeroCopy/other)
2025-08-11 19:05:05.718 (   4.395s) [        E38731C0]      event_instance.cc:222      1| EventInstance::PJRT_Event_OnReady
2025-08-11 19:05:05.718 (   4.395s) [        E38731C0]      event_instance.cc:171      1| EventInstance::PJRT_Event_Destroy
2025-08-11 19:05:05.719 (   4.397s) [        E38731C0]     device_instance.cc:82       1| DeviceInstance::PJRT_Device_DefaultMemory
2025-08-11 19:05:05.719 (   4.397s) [        E38731C0]     client_instance.cc:509      1| ClientInstance::PJRT_Client_BufferFromHostBuffer
2025-08-11 19:05:05.719 (   4.397s) [        E38731C0]     memory_instance.cc:57       1| MemoryInstance::getDevice
2025-08-11 19:05:05.720 (   4.397s) [        E38731C0]     buffer_instance.cc:228      1| [BUFFER] Creating BORROWED host tensor with shape [3072, 3072] (semantics: ZeroCopy/other)
2025-08-11 19:05:05.720 (   4.397s) [        E38731C0]      event_instance.cc:222      1| EventInstance::PJRT_Event_OnReady
2025-08-11 19:05:05.720 (   4.397s) [        E38731C0]      event_instance.cc:171      1| EventInstance::PJRT_Event_Destroy
2025-08-11 19:05:05.722 (   4.400s) [        E38731C0]     device_instance.cc:82       1| DeviceInstance::PJRT_Device_DefaultMemory
2025-08-11 19:05:05.722 (   4.400s) [        E38731C0]     client_instance.cc:509      1| ClientInstance::PJRT_Client_BufferFromHostBuffer
2025-08-11 19:05:05.722 (   4.400s) [        E38731C0]     memory_instance.cc:57       1| MemoryInstance::getDevice
2025-08-11 19:05:05.723 (   4.400s) [        E38731C0]     buffer_instance.cc:228      1| [BUFFER] Creating BORROWED host tensor with shape [8192, 3072] (semantics: ZeroCopy/other)
2025-08-11 19:05:05.723 (   4.400s) [        E38731C0]      event_instance.cc:222      1| EventInstance::PJRT_Event_OnReady
2025-08-11 19:05:05.723 (   4.400s) [        E38731C0]      event_instance.cc:171      1| EventInstance::PJRT_Event_Destroy
2025-08-11 19:05:05.725 (   4.403s) [        E38731C0]     device_instance.cc:82       1| DeviceInstance::PJRT_Device_DefaultMemory
2025-08-11 19:05:05.725 (   4.403s) [        E38731C0]     client_instance.cc:509      1| ClientInstance::PJRT_Client_BufferFromHostBuffer
2025-08-11 19:05:05.725 (   4.403s) [        E38731C0]     memory_instance.cc:57       1| MemoryInstance::getDevice
2025-08-11 19:05:05.726 (   4.403s) [        E38731C0]     buffer_instance.cc:228      1| [BUFFER] Creating BORROWED host tensor with shape [8192, 3072] (semantics: ZeroCopy/other)
2025-08-11 19:05:05.726 (   4.403s) [        E38731C0]      event_instance.cc:222      1| EventInstance::PJRT_Event_OnReady
2025-08-11 19:05:05.726 (   4.403s) [        E38731C0]      event_instance.cc:171      1| EventInstance::PJRT_Event_Destroy
2025-08-11 19:05:05.728 (   4.405s) [        E38731C0]     device_instance.cc:82       1| DeviceInstance::PJRT_Device_DefaultMemory
2025-08-11 19:05:05.728 (   4.405s) [        E38731C0]     client_instance.cc:509      1| ClientInstance::PJRT_Client_BufferFromHostBuffer
2025-08-11 19:05:05.728 (   4.405s) [        E38731C0]     memory_instance.cc:57       1| MemoryInstance::getDevice
2025-08-11 19:05:05.728 (   4.406s) [        E38731C0]     buffer_instance.cc:228      1| [BUFFER] Creating BORROWED host tensor with shape [3072, 8192] (semantics: ZeroCopy/other)
2025-08-11 19:05:05.728 (   4.406s) [        E38731C0]      event_instance.cc:222      1| EventInstance::PJRT_Event_OnReady
2025-08-11 19:05:05.728 (   4.406s) [        E38731C0]      event_instance.cc:171      1| EventInstance::PJRT_Event_Destroy
2025-08-11 19:05:05.730 (   4.407s) [        E38731C0]     device_instance.cc:82       1| DeviceInstance::PJRT_Device_DefaultMemory
2025-08-11 19:05:05.730 (   4.407s) [        E38731C0]     client_instance.cc:509      1| ClientInstance::PJRT_Client_BufferFromHostBuffer
2025-08-11 19:05:05.730 (   4.407s) [        E38731C0]     memory_instance.cc:57       1| MemoryInstance::getDevice
2025-08-11 19:05:05.730 (   4.407s) [        E38731C0]     buffer_instance.cc:228      1| [BUFFER] Creating BORROWED host tensor with shape [3072, 3072] (semantics: ZeroCopy/other)
2025-08-11 19:05:05.730 (   4.407s) [        E38731C0]      event_instance.cc:222      1| EventInstance::PJRT_Event_OnReady
2025-08-11 19:05:05.730 (   4.407s) [        E38731C0]      event_instance.cc:171      1| EventInstance::PJRT_Event_Destroy
2025-08-11 19:05:05.730 (   4.407s) [        E38731C0]     device_instance.cc:82       1| DeviceInstance::PJRT_Device_DefaultMemory
2025-08-11 19:05:05.730 (   4.407s) [        E38731C0]     client_instance.cc:509      1| ClientInstance::PJRT_Client_BufferFromHostBuffer
2025-08-11 19:05:05.730 (   4.407s) [        E38731C0]     memory_instance.cc:57       1| MemoryInstance::getDevice
2025-08-11 19:05:05.730 (   4.407s) [        E38731C0]     buffer_instance.cc:228      1| [BUFFER] Creating BORROWED host tensor with shape [1024, 3072] (semantics: ZeroCopy/other)
2025-08-11 19:05:05.730 (   4.407s) [        E38731C0]      event_instance.cc:222      1| EventInstance::PJRT_Event_OnReady
2025-08-11 19:05:05.730 (   4.408s) [        E38731C0]      event_instance.cc:171      1| EventInstance::PJRT_Event_Destroy
2025-08-11 19:05:05.731 (   4.408s) [        E38731C0]     device_instance.cc:82       1| DeviceInstance::PJRT_Device_DefaultMemory
2025-08-11 19:05:05.731 (   4.408s) [        E38731C0]     client_instance.cc:509      1| ClientInstance::PJRT_Client_BufferFromHostBuffer
2025-08-11 19:05:05.731 (   4.408s) [        E38731C0]     memory_instance.cc:57       1| MemoryInstance::getDevice
2025-08-11 19:05:05.731 (   4.408s) [        E38731C0]     buffer_instance.cc:228      1| [BUFFER] Creating BORROWED host tensor with shape [1024, 3072] (semantics: ZeroCopy/other)
2025-08-11 19:05:05.731 (   4.408s) [        E38731C0]      event_instance.cc:222      1| EventInstance::PJRT_Event_OnReady
2025-08-11 19:05:05.731 (   4.408s) [        E38731C0]      event_instance.cc:171      1| EventInstance::PJRT_Event_Destroy
2025-08-11 19:05:05.733 (   4.410s) [        E38731C0]     device_instance.cc:82       1| DeviceInstance::PJRT_Device_DefaultMemory
2025-08-11 19:05:05.733 (   4.410s) [        E38731C0]     client_instance.cc:509      1| ClientInstance::PJRT_Client_BufferFromHostBuffer
2025-08-11 19:05:05.733 (   4.410s) [        E38731C0]     memory_instance.cc:57       1| MemoryInstance::getDevice
2025-08-11 19:05:05.733 (   4.410s) [        E38731C0]     buffer_instance.cc:228      1| [BUFFER] Creating BORROWED host tensor with shape [3072, 3072] (semantics: ZeroCopy/other)
2025-08-11 19:05:05.733 (   4.410s) [        E38731C0]      event_instance.cc:222      1| EventInstance::PJRT_Event_OnReady
2025-08-11 19:05:05.733 (   4.410s) [        E38731C0]      event_instance.cc:171      1| EventInstance::PJRT_Event_Destroy
2025-08-11 19:05:05.735 (   4.413s) [        E38731C0]     device_instance.cc:82       1| DeviceInstance::PJRT_Device_DefaultMemory
2025-08-11 19:05:05.735 (   4.413s) [        E38731C0]     client_instance.cc:509      1| ClientInstance::PJRT_Client_BufferFromHostBuffer
2025-08-11 19:05:05.736 (   4.413s) [        E38731C0]     memory_instance.cc:57       1| MemoryInstance::getDevice
2025-08-11 19:05:05.736 (   4.413s) [        E38731C0]     buffer_instance.cc:228      1| [BUFFER] Creating BORROWED host tensor with shape [8192, 3072] (semantics: ZeroCopy/other)
2025-08-11 19:05:05.736 (   4.413s) [        E38731C0]      event_instance.cc:222      1| EventInstance::PJRT_Event_OnReady
2025-08-11 19:05:05.736 (   4.413s) [        E38731C0]      event_instance.cc:171      1| EventInstance::PJRT_Event_Destroy
2025-08-11 19:05:05.738 (   4.415s) [        E38731C0]     device_instance.cc:82       1| DeviceInstance::PJRT_Device_DefaultMemory
2025-08-11 19:05:05.738 (   4.415s) [        E38731C0]     client_instance.cc:509      1| ClientInstance::PJRT_Client_BufferFromHostBuffer
2025-08-11 19:05:05.738 (   4.415s) [        E38731C0]     memory_instance.cc:57       1| MemoryInstance::getDevice
2025-08-11 19:05:05.738 (   4.416s) [        E38731C0]     buffer_instance.cc:228      1| [BUFFER] Creating BORROWED host tensor with shape [8192, 3072] (semantics: ZeroCopy/other)
2025-08-11 19:05:05.738 (   4.416s) [        E38731C0]      event_instance.cc:222      1| EventInstance::PJRT_Event_OnReady
2025-08-11 19:05:05.738 (   4.416s) [        E38731C0]      event_instance.cc:171      1| EventInstance::PJRT_Event_Destroy
2025-08-11 19:05:05.741 (   4.418s) [        E38731C0]     device_instance.cc:82       1| DeviceInstance::PJRT_Device_DefaultMemory
2025-08-11 19:05:05.741 (   4.418s) [        E38731C0]     client_instance.cc:509      1| ClientInstance::PJRT_Client_BufferFromHostBuffer
2025-08-11 19:05:05.741 (   4.418s) [        E38731C0]     memory_instance.cc:57       1| MemoryInstance::getDevice
2025-08-11 19:05:05.741 (   4.418s) [        E38731C0]     buffer_instance.cc:228      1| [BUFFER] Creating BORROWED host tensor with shape [3072, 8192] (semantics: ZeroCopy/other)
2025-08-11 19:05:05.741 (   4.418s) [        E38731C0]      event_instance.cc:222      1| EventInstance::PJRT_Event_OnReady
2025-08-11 19:05:05.741 (   4.418s) [        E38731C0]      event_instance.cc:171      1| EventInstance::PJRT_Event_Destroy
2025-08-11 19:05:05.778 (   4.455s) [        E38731C0]     device_instance.cc:82       1| DeviceInstance::PJRT_Device_DefaultMemory
2025-08-11 19:05:05.778 (   4.455s) [        E38731C0]     client_instance.cc:509      1| ClientInstance::PJRT_Client_BufferFromHostBuffer
2025-08-11 19:05:05.778 (   4.455s) [        E38731C0]     memory_instance.cc:57       1| MemoryInstance::getDevice
2025-08-11 19:05:05.779 (   4.456s) [        E38731C0]     buffer_instance.cc:228      1| [BUFFER] Creating BORROWED host tensor with shape [128256, 3072] (semantics: ZeroCopy/other)
2025-08-11 19:05:05.779 (   4.456s) [        E38731C0]      event_instance.cc:222      1| EventInstance::PJRT_Event_OnReady
2025-08-11 19:05:05.779 (   4.456s) [        E38731C0]      event_instance.cc:171      1| EventInstance::PJRT_Event_Destroy
2025-08-11 19:05:05.779 (   4.456s) [        E38731C0]     device_instance.cc:82       1| DeviceInstance::PJRT_Device_DefaultMemory
2025-08-11 19:05:05.779 (   4.456s) [        E38731C0]     client_instance.cc:509      1| ClientInstance::PJRT_Client_BufferFromHostBuffer
2025-08-11 19:05:05.779 (   4.456s) [        E38731C0]     memory_instance.cc:57       1| MemoryInstance::getDevice
2025-08-11 19:05:05.779 (   4.456s) [        E38731C0]     buffer_instance.cc:228      1| [BUFFER] Creating BORROWED host tensor with shape [1, 8, 128, 128] (semantics: ZeroCopy/other)
2025-08-11 19:05:05.779 (   4.456s) [        E38731C0]      event_instance.cc:222      1| EventInstance::PJRT_Event_OnReady
2025-08-11 19:05:05.779 (   4.456s) [        E38731C0]      event_instance.cc:171      1| EventInstance::PJRT_Event_Destroy
2025-08-11 19:05:05.779 (   4.456s) [        E38731C0]     device_instance.cc:82       1| DeviceInstance::PJRT_Device_DefaultMemory
2025-08-11 19:05:05.779 (   4.456s) [        E38731C0]     client_instance.cc:509      1| ClientInstance::PJRT_Client_BufferFromHostBuffer
2025-08-11 19:05:05.779 (   4.456s) [        E38731C0]     memory_instance.cc:57       1| MemoryInstance::getDevice
2025-08-11 19:05:05.779 (   4.457s) [        E38731C0]     buffer_instance.cc:228      1| [BUFFER] Creating BORROWED host tensor with shape [1, 8, 128, 128] (semantics: ZeroCopy/other)
2025-08-11 19:05:05.779 (   4.457s) [        E38731C0]      event_instance.cc:222      1| EventInstance::PJRT_Event_OnReady
2025-08-11 19:05:05.779 (   4.457s) [        E38731C0]      event_instance.cc:171      1| EventInstance::PJRT_Event_Destroy
2025-08-11 19:05:05.780 (   4.457s) [        E38731C0]     device_instance.cc:82       1| DeviceInstance::PJRT_Device_DefaultMemory
2025-08-11 19:05:05.780 (   4.457s) [        E38731C0]     client_instance.cc:509      1| ClientInstance::PJRT_Client_BufferFromHostBuffer
2025-08-11 19:05:05.780 (   4.457s) [        E38731C0]     memory_instance.cc:57       1| MemoryInstance::getDevice
2025-08-11 19:05:05.780 (   4.457s) [        E38731C0]     buffer_instance.cc:228      1| [BUFFER] Creating BORROWED host tensor with shape [1, 8, 128, 128] (semantics: ZeroCopy/other)
2025-08-11 19:05:05.780 (   4.457s) [        E38731C0]      event_instance.cc:222      1| EventInstance::PJRT_Event_OnReady
2025-08-11 19:05:05.780 (   4.457s) [        E38731C0]      event_instance.cc:171      1| EventInstance::PJRT_Event_Destroy
2025-08-11 19:05:05.780 (   4.457s) [        E38731C0]     device_instance.cc:82       1| DeviceInstance::PJRT_Device_DefaultMemory
2025-08-11 19:05:05.780 (   4.457s) [        E38731C0]     client_instance.cc:509      1| ClientInstance::PJRT_Client_BufferFromHostBuffer
2025-08-11 19:05:05.780 (   4.457s) [        E38731C0]     memory_instance.cc:57       1| MemoryInstance::getDevice
2025-08-11 19:05:05.780 (   4.457s) [        E38731C0]     buffer_instance.cc:228      1| [BUFFER] Creating BORROWED host tensor with shape [1, 8, 128, 128] (semantics: ZeroCopy/other)
2025-08-11 19:05:05.780 (   4.457s) [        E38731C0]      event_instance.cc:222      1| EventInstance::PJRT_Event_OnReady
2025-08-11 19:05:05.780 (   4.457s) [        E38731C0]      event_instance.cc:171      1| EventInstance::PJRT_Event_Destroy
2025-08-11 19:05:05.780 (   4.457s) [        E38731C0]     device_instance.cc:82       1| DeviceInstance::PJRT_Device_DefaultMemory
2025-08-11 19:05:05.780 (   4.457s) [        E38731C0]     client_instance.cc:509      1| ClientInstance::PJRT_Client_BufferFromHostBuffer
2025-08-11 19:05:05.780 (   4.457s) [        E38731C0]     memory_instance.cc:57       1| MemoryInstance::getDevice
2025-08-11 19:05:05.780 (   4.458s) [        E38731C0]     buffer_instance.cc:228      1| [BUFFER] Creating BORROWED host tensor with shape [64] (semantics: ZeroCopy/other)
2025-08-11 19:05:05.780 (   4.458s) [        E38731C0]      event_instance.cc:222      1| EventInstance::PJRT_Event_OnReady
2025-08-11 19:05:05.780 (   4.458s) [        E38731C0]      event_instance.cc:171      1| EventInstance::PJRT_Event_Destroy
2025-08-11 19:05:05.838 (   4.516s) [        E38731C0]     device_instance.cc:82       1| DeviceInstance::PJRT_Device_DefaultMemory
2025-08-11 19:05:05.838 (   4.516s) [        E38731C0]     client_instance.cc:509      1| ClientInstance::PJRT_Client_BufferFromHostBuffer
2025-08-11 19:05:05.838 (   4.516s) [        E38731C0]     memory_instance.cc:57       1| MemoryInstance::getDevice
2025-08-11 19:05:05.839 (   4.516s) [        E38731C0]     buffer_instance.cc:213      1| [BUFFER] Creating OWNED host tensor with shape [1, 7] (semantics: other, supported_dtype: false)
[32m                 Always[0m | [1m[38;5;208m WARNING[0m | User provided a tensor of data type: Int64 which is not supported by runtime/ttnn. Casting to: Int32, this may impact throughput and the integrity of the data.
2025-08-11 19:05:05.839 (   4.516s) [        E38731C0]      event_instance.cc:222      1| EventInstance::PJRT_Event_OnReady
2025-08-11 19:05:05.839 (   4.516s) [        E38731C0]      event_instance.cc:171      1| EventInstance::PJRT_Event_Destroy
2025-08-11 19:05:05.839 (   4.516s) [        E38731C0]     device_instance.cc:82       1| DeviceInstance::PJRT_Device_DefaultMemory
2025-08-11 19:05:05.839 (   4.516s) [        E38731C0]     client_instance.cc:509      1| ClientInstance::PJRT_Client_BufferFromHostBuffer
2025-08-11 19:05:05.839 (   4.516s) [        E38731C0]     memory_instance.cc:57       1| MemoryInstance::getDevice
2025-08-11 19:05:05.839 (   4.516s) [        E38731C0]     buffer_instance.cc:213      1| [BUFFER] Creating OWNED host tensor with shape [7] (semantics: other, supported_dtype: false)
[32m                 Always[0m | [1m[38;5;208m WARNING[0m | User provided a tensor of data type: Int64 which is not supported by runtime/ttnn. Casting to: Int32, this may impact throughput and the integrity of the data.
2025-08-11 19:05:05.839 (   4.516s) [        E38731C0]      event_instance.cc:222      1| EventInstance::PJRT_Event_OnReady
2025-08-11 19:05:05.839 (   4.516s) [        E38731C0]      event_instance.cc:171      1| EventInstance::PJRT_Event_Destroy
2025-08-11 19:05:05.839 (   4.516s) [        E38731C0]     device_instance.cc:82       1| DeviceInstance::PJRT_Device_DefaultMemory
2025-08-11 19:05:05.839 (   4.516s) [        E38731C0]     client_instance.cc:509      1| ClientInstance::PJRT_Client_BufferFromHostBuffer
2025-08-11 19:05:05.839 (   4.516s) [        E38731C0]     memory_instance.cc:57       1| MemoryInstance::getDevice
2025-08-11 19:05:05.839 (   4.516s) [        E38731C0]     buffer_instance.cc:228      1| [BUFFER] Creating BORROWED host tensor with shape [1, 1, 7, 128] (semantics: ZeroCopy/other)
2025-08-11 19:05:05.839 (   4.516s) [        E38731C0]      event_instance.cc:222      1| EventInstance::PJRT_Event_OnReady
2025-08-11 19:05:05.839 (   4.516s) [        E38731C0]      event_instance.cc:171      1| EventInstance::PJRT_Event_Destroy
2025-08-11 19:05:05.841 (   4.518s) [        E38731C0]     device_instance.cc:82       1| DeviceInstance::PJRT_Device_DefaultMemory
2025-08-11 19:05:05.841 (   4.518s) [        E38731C0]     client_instance.cc:509      1| ClientInstance::PJRT_Client_BufferFromHostBuffer
2025-08-11 19:05:05.841 (   4.518s) [        E38731C0]     memory_instance.cc:57       1| MemoryInstance::getDevice
2025-08-11 19:05:05.841 (   4.518s) [        E38731C0]     buffer_instance.cc:228      1| [BUFFER] Creating BORROWED host tensor with shape [1] (semantics: ZeroCopy/other)
2025-08-11 19:05:05.841 (   4.518s) [        E38731C0]      event_instance.cc:222      1| EventInstance::PJRT_Event_OnReady
2025-08-11 19:05:05.841 (   4.518s) [        E38731C0]      event_instance.cc:171      1| EventInstance::PJRT_Event_Destroy
2025-08-11 19:05:05.842 (   4.519s) [        E38731C0]     device_instance.cc:82       1| DeviceInstance::PJRT_Device_DefaultMemory
2025-08-11 19:05:05.842 (   4.519s) [        E38731C0]     client_instance.cc:509      1| ClientInstance::PJRT_Client_BufferFromHostBuffer
2025-08-11 19:05:05.842 (   4.519s) [        E38731C0]     memory_instance.cc:57       1| MemoryInstance::getDevice
2025-08-11 19:05:05.842 (   4.519s) [        E38731C0]     buffer_instance.cc:213      1| [BUFFER] Creating OWNED host tensor with shape [1] (semantics: other, supported_dtype: false)
[32m                 Always[0m | [1m[38;5;208m WARNING[0m | User provided a tensor of data type: Int64 which is not supported by runtime/ttnn. Casting to: Int32, this may impact throughput and the integrity of the data.
2025-08-11 19:05:05.842 (   4.519s) [        E38731C0]      event_instance.cc:222      1| EventInstance::PJRT_Event_OnReady
2025-08-11 19:05:05.842 (   4.519s) [        E38731C0]      event_instance.cc:171      1| EventInstance::PJRT_Event_Destroy
2025-08-11 19:05:05.843 (   4.520s) [        E38731C0]     device_instance.cc:82       1| DeviceInstance::PJRT_Device_DefaultMemory
2025-08-11 19:05:05.843 (   4.520s) [        E38731C0]     client_instance.cc:509      1| ClientInstance::PJRT_Client_BufferFromHostBuffer
2025-08-11 19:05:05.843 (   4.520s) [        E38731C0]     memory_instance.cc:57       1| MemoryInstance::getDevice
2025-08-11 19:05:05.843 (   4.520s) [        E38731C0]     buffer_instance.cc:228      1| [BUFFER] Creating BORROWED host tensor with shape [1] (semantics: ZeroCopy/other)
2025-08-11 19:05:05.843 (   4.520s) [        E38731C0]      event_instance.cc:222      1| EventInstance::PJRT_Event_OnReady
2025-08-11 19:05:05.843 (   4.520s) [        E38731C0]      event_instance.cc:171      1| EventInstance::PJRT_Event_Destroy
2025-08-11 19:05:05.848 (   4.525s) [        E38731C0]     buffer_instance.cc:526      1| BufferInstance::PJRT_Buffer_IsDeleted
2025-08-11 19:05:05.848 (   4.525s) [        E38731C0]     buffer_instance.cc:526      1| BufferInstance::PJRT_Buffer_IsDeleted
2025-08-11 19:05:05.848 (   4.525s) [        E38731C0]     buffer_instance.cc:526      1| BufferInstance::PJRT_Buffer_IsDeleted
2025-08-11 19:05:05.848 (   4.525s) [        E38731C0]     buffer_instance.cc:526      1| BufferInstance::PJRT_Buffer_IsDeleted
2025-08-11 19:05:05.848 (   4.525s) [        E38731C0]     buffer_instance.cc:526      1| BufferInstance::PJRT_Buffer_IsDeleted
2025-08-11 19:05:05.848 (   4.525s) [        E38731C0]     buffer_instance.cc:526      1| BufferInstance::PJRT_Buffer_IsDeleted
2025-08-11 19:05:05.848 (   4.525s) [        E38731C0]     buffer_instance.cc:526      1| BufferInstance::PJRT_Buffer_IsDeleted
2025-08-11 19:05:05.848 (   4.525s) [        E38731C0]     buffer_instance.cc:526      1| BufferInstance::PJRT_Buffer_IsDeleted
2025-08-11 19:05:05.848 (   4.525s) [        E38731C0]     buffer_instance.cc:526      1| BufferInstance::PJRT_Buffer_IsDeleted
2025-08-11 19:05:05.848 (   4.526s) [        E38731C0]     buffer_instance.cc:526      1| BufferInstance::PJRT_Buffer_IsDeleted
2025-08-11 19:05:05.848 (   4.526s) [        E38731C0]     buffer_instance.cc:526      1| BufferInstance::PJRT_Buffer_IsDeleted
2025-08-11 19:05:05.848 (   4.526s) [        E38731C0]     buffer_instance.cc:526      1| BufferInstance::PJRT_Buffer_IsDeleted
2025-08-11 19:05:05.848 (   4.526s) [        E38731C0]     buffer_instance.cc:526      1| BufferInstance::PJRT_Buffer_IsDeleted
2025-08-11 19:05:05.848 (   4.526s) [        E38731C0]     buffer_instance.cc:526      1| BufferInstance::PJRT_Buffer_IsDeleted
2025-08-11 19:05:05.848 (   4.526s) [        E38731C0]     buffer_instance.cc:526      1| BufferInstance::PJRT_Buffer_IsDeleted
2025-08-11 19:05:05.848 (   4.526s) [        E38731C0]     buffer_instance.cc:526      1| BufferInstance::PJRT_Buffer_IsDeleted
2025-08-11 19:05:05.848 (   4.526s) [        E38731C0]     buffer_instance.cc:526      1| BufferInstance::PJRT_Buffer_IsDeleted
2025-08-11 19:05:05.848 (   4.526s) [        E38731C0]     buffer_instance.cc:526      1| BufferInstance::PJRT_Buffer_IsDeleted
2025-08-11 19:05:05.848 (   4.526s) [        E38731C0]     buffer_instance.cc:526      1| BufferInstance::PJRT_Buffer_IsDeleted
2025-08-11 19:05:05.848 (   4.526s) [        E38731C0]     buffer_instance.cc:526      1| BufferInstance::PJRT_Buffer_IsDeleted
2025-08-11 19:05:05.848 (   4.526s) [        E38731C0]     buffer_instance.cc:526      1| BufferInstance::PJRT_Buffer_IsDeleted
2025-08-11 19:05:05.848 (   4.526s) [        E38731C0]     buffer_instance.cc:526      1| BufferInstance::PJRT_Buffer_IsDeleted
2025-08-11 19:05:05.848 (   4.526s) [        E38731C0]     buffer_instance.cc:526      1| BufferInstance::PJRT_Buffer_IsDeleted
2025-08-11 19:05:05.848 (   4.526s) [        E38731C0]     buffer_instance.cc:526      1| BufferInstance::PJRT_Buffer_IsDeleted
2025-08-11 19:05:05.848 (   4.526s) [        E38731C0]     buffer_instance.cc:526      1| BufferInstance::PJRT_Buffer_IsDeleted
2025-08-11 19:05:05.848 (   4.526s) [        E38731C0]     buffer_instance.cc:526      1| BufferInstance::PJRT_Buffer_IsDeleted
2025-08-11 19:05:05.848 (   4.526s) [        E38731C0]     buffer_instance.cc:526      1| BufferInstance::PJRT_Buffer_IsDeleted
2025-08-11 19:05:05.848 (   4.526s) [        E38731C0]     buffer_instance.cc:526      1| BufferInstance::PJRT_Buffer_IsDeleted
2025-08-11 19:05:05.848 (   4.526s) [        E38731C0]     buffer_instance.cc:526      1| BufferInstance::PJRT_Buffer_IsDeleted
2025-08-11 19:05:05.848 (   4.526s) [        E38731C0]     buffer_instance.cc:526      1| BufferInstance::PJRT_Buffer_IsDeleted
2025-08-11 19:05:05.848 (   4.526s) [        E38731C0]     buffer_instance.cc:526      1| BufferInstance::PJRT_Buffer_IsDeleted
2025-08-11 19:05:05.848 (   4.526s) [        E38731C0]     buffer_instance.cc:526      1| BufferInstance::PJRT_Buffer_IsDeleted
2025-08-11 19:05:05.848 (   4.526s) [        E38731C0]     buffer_instance.cc:526      1| BufferInstance::PJRT_Buffer_IsDeleted
2025-08-11 19:05:05.848 (   4.526s) [        E38731C0]     buffer_instance.cc:526      1| BufferInstance::PJRT_Buffer_IsDeleted
2025-08-11 19:05:05.848 (   4.526s) [        E38731C0]     buffer_instance.cc:526      1| BufferInstance::PJRT_Buffer_IsDeleted
2025-08-11 19:05:05.848 (   4.526s) [        E38731C0]     buffer_instance.cc:526      1| BufferInstance::PJRT_Buffer_IsDeleted
2025-08-11 19:05:05.849 (   4.526s) [        E38731C0]     buffer_instance.cc:526      1| BufferInstance::PJRT_Buffer_IsDeleted
2025-08-11 19:05:05.849 (   4.526s) [        E38731C0]     buffer_instance.cc:526      1| BufferInstance::PJRT_Buffer_IsDeleted
2025-08-11 19:05:05.849 (   4.526s) [        E38731C0]     buffer_instance.cc:526      1| BufferInstance::PJRT_Buffer_IsDeleted
2025-08-11 19:05:05.849 (   4.526s) [        E38731C0]     buffer_instance.cc:526      1| BufferInstance::PJRT_Buffer_IsDeleted
Note: Using experimental XLA backend.
Tensor id via xlac: 1 with shape torch.Size([3072])
Tensor id via xlac: 2 with shape torch.Size([3072])
Tensor id via xlac: 3 with shape torch.Size([3072])
Tensor id via xlac: 4 with shape torch.Size([3072])
Tensor id via xlac: 5 with shape torch.Size([3072])
Tensor id via xlac: 6 with shape torch.Size([128256, 3072])
Tensor id via xlac: 7 with shape torch.Size([1, 64, 1])
Tensor id via xlac: 8 with shape torch.Size([3072, 3072])
Tensor id via xlac: 9 with shape torch.Size([3072, 1024])
Tensor id via xlac: 10 with shape torch.Size([3072, 1024])
Tensor id via xlac: 11 with shape torch.Size([3072, 3072])
Tensor id via xlac: 12 with shape torch.Size([3072, 8192])
Tensor id via xlac: 13 with shape torch.Size([3072, 8192])
Tensor id via xlac: 14 with shape torch.Size([8192, 3072])
Tensor id via xlac: 15 with shape torch.Size([3072, 3072])
Tensor id via xlac: 16 with shape torch.Size([3072, 1024])
Tensor id via xlac: 17 with shape torch.Size([3072, 1024])
Tensor id via xlac: 18 with shape torch.Size([3072, 3072])
Tensor id via xlac: 19 with shape torch.Size([3072, 8192])
Tensor id via xlac: 20 with shape torch.Size([3072, 8192])
Tensor id via xlac: 21 with shape torch.Size([8192, 3072])
Tensor id via xlac: 22 with shape torch.Size([3072, 128256])
Tensor id via xlac: 23 with shape torch.Size([3072, 3072])
Tensor id via xlac: 24 with shape torch.Size([1024, 3072])
Tensor id via xlac: 25 with shape torch.Size([1024, 3072])
Tensor id via xlac: 26 with shape torch.Size([3072, 3072])
Tensor id via xlac: 27 with shape torch.Size([8192, 3072])
Tensor id via xlac: 28 with shape torch.Size([8192, 3072])
Tensor id via xlac: 29 with shape torch.Size([3072, 8192])
Tensor id via xlac: 30 with shape torch.Size([3072, 3072])
Tensor id via xlac: 31 with shape torch.Size([1024, 3072])
Tensor id via xlac: 32 with shape torch.Size([1024, 3072])
Tensor id via xlac: 33 with shape torch.Size([3072, 3072])
Tensor id via xlac: 34 with shape torch.Size([8192, 3072])
Tensor id via xlac: 35 with shape torch.Size([8192, 3072])
Tensor id via xlac: 36 with shape torch.Size([3072, 8192])
Tensor id via xlac: 37 with shape torch.Size([128256, 3072])
Tensor id via xlac: 38 with shape torch.Size([1, 8, 128, 128])
Tensor id via xlac: 39 with shape torch.Size([1, 8, 128, 128])
Tensor id via xlac: 40 with shape torch.Size([1, 8, 128, 128])
Tensor id via xlac: 41 with shape torch.Size([1, 8, 128, 128])
Tensor id via xlac: 42 with shape torch.Size([64])
Tensor id via xlac: 43 with shape torch.Size([1, 7])
Tensor id via xlac: 44 with shape torch.Size([7])
Tensor id via xlac: 45 with shape torch.Size([1, 1, 7, 128])
Hlo input positions pre normalization [22, 375, 21, 20, 18, 17, 14, 13, 11, 10, 43, 37, 1, 44, -1, 39, 45, 312, 7, 9, 38, 8, 2, 12, 3, 41, 16, 40, 15, 4, 19, 5]
Hlo input positions post normalization [23, 376, 22, 21, 19, 18, 15, 14, 12, 11, 44, 38, 2, 45, 0, 40, 46, 313, 8, 10, 39, 9, 3, 13, 4, 42, 17, 41, 16, 5, 20, 6]
match key in_spec.target L__self___model_layers__modules__0___input_layernorm_weight with ID 139744987314784 and kind InputKind.PARAMETER
match key in_spec.target L__self___model_layers__modules__0___post_attention_layernorm_weight with ID 139744987315664 and kind InputKind.PARAMETER
match key in_spec.target L__self___model_layers__modules__1___input_layernorm_weight with ID 139744987305824 and kind InputKind.PARAMETER
match key in_spec.target L__self___model_layers__modules__1___post_attention_layernorm_weight with ID 139744987306944 and kind InputKind.PARAMETER
match key in_spec.target L__self___model_norm_weight with ID 139745780343456 and kind InputKind.PARAMETER
match key in_spec.target L__self___lm_head.weight with ID 139744987302944 and kind InputKind.PARAMETER
match key in_spec.target _FX_CONST_FOLDED_ATTRS.0 with ID 139746083886624 and kind InputKind.PARAMETER
match key in_spec.target _FX_CONST_FOLDED_ATTRS.1 with ID 139741932238576 and kind InputKind.PARAMETER
match key in_spec.target _FX_CONST_FOLDED_ATTRS.2 with ID 139741932237616 and kind InputKind.PARAMETER
match key in_spec.target _FX_CONST_FOLDED_ATTRS.3 with ID 139741932238176 and kind InputKind.PARAMETER
match key in_spec.target _FX_CONST_FOLDED_ATTRS.4 with ID 139741932232736 and kind InputKind.PARAMETER
match key in_spec.target _FX_CONST_FOLDED_ATTRS.5 with ID 139741932226736 and kind InputKind.PARAMETER
match key in_spec.target _FX_CONST_FOLDED_ATTRS.6 with ID 139741932229936 and kind InputKind.PARAMETER
match key in_spec.target _FX_CONST_FOLDED_ATTRS.7 with ID 139741932239296 and kind InputKind.PARAMETER
match key in_spec.target _FX_CONST_FOLDED_ATTRS.8 with ID 139741932240336 and kind InputKind.PARAMETER
match key in_spec.target _FX_CONST_FOLDED_ATTRS.9 with ID 139741932231776 and kind InputKind.PARAMETER
match key in_spec.target _FX_CONST_FOLDED_ATTRS.10 with ID 139741932238256 and kind InputKind.PARAMETER
match key in_spec.target _FX_CONST_FOLDED_ATTRS.11 with ID 139741932240496 and kind InputKind.PARAMETER
match key in_spec.target _FX_CONST_FOLDED_ATTRS.12 with ID 139741932224576 and kind InputKind.PARAMETER
match key in_spec.target _FX_CONST_FOLDED_ATTRS.13 with ID 139741932225136 and kind InputKind.PARAMETER
match key in_spec.target _FX_CONST_FOLDED_ATTRS.14 with ID 139741932225456 and kind InputKind.PARAMETER
match key in_spec.target _FX_CONST_FOLDED_ATTRS.15 with ID 139741932226016 and kind InputKind.PARAMETER
match key in_spec.target const_subgraph_module.L__self___model_layers__modules__0___self_attn_q_proj.weight with ID 139744987315824 and kind InputKind.PARAMETER
match key in_spec.target const_subgraph_module.L__self___model_layers__modules__0___self_attn_k_proj.weight with ID 139744987305584 and kind InputKind.PARAMETER
match key in_spec.target const_subgraph_module.L__self___model_layers__modules__0___self_attn_v_proj.weight with ID 139744987305264 and kind InputKind.PARAMETER
match key in_spec.target const_subgraph_module.L__self___model_layers__modules__0___self_attn_o_proj.weight with ID 139744987315904 and kind InputKind.PARAMETER
match key in_spec.target const_subgraph_module.L__self___model_layers__modules__0___mlp_gate_proj.weight with ID 139744987306704 and kind InputKind.PARAMETER
match key in_spec.target const_subgraph_module.L__self___model_layers__modules__0___mlp_up_proj.weight with ID 139744987314064 and kind InputKind.PARAMETER
match key in_spec.target const_subgraph_module.L__self___model_layers__modules__0___mlp_down_proj.weight with ID 139744987307264 and kind InputKind.PARAMETER
match key in_spec.target const_subgraph_module.L__self___model_layers__modules__1___self_attn_q_proj.weight with ID 139744987307184 and kind InputKind.PARAMETER
match key in_spec.target const_subgraph_module.L__self___model_layers__modules__1___self_attn_k_proj.weight with ID 139744987311104 and kind InputKind.PARAMETER
match key in_spec.target const_subgraph_module.L__self___model_layers__modules__1___self_attn_v_proj.weight with ID 139744987439776 and kind InputKind.PARAMETER
match key in_spec.target const_subgraph_module.L__self___model_layers__modules__1___self_attn_o_proj.weight with ID 139744987309264 and kind InputKind.PARAMETER
match key in_spec.target const_subgraph_module.L__self___model_layers__modules__1___mlp_gate_proj.weight with ID 139744987308544 and kind InputKind.PARAMETER
match key in_spec.target const_subgraph_module.L__self___model_layers__modules__1___mlp_up_proj.weight with ID 139744987312784 and kind InputKind.PARAMETER
match key in_spec.target const_subgraph_module.L__self___model_layers__modules__1___mlp_down_proj.weight with ID 139744987306864 and kind InputKind.PARAMETER
match key in_spec.target const_subgraph_module.L__self___lm_head.weight with ID 139744987302944 and kind InputKind.PARAMETER
match key in_spec.target kwargs____past_key_values___key_cache_0 with ID 139745781437664 and kind InputKind.BUFFER
match key in_spec.target kwargs____past_key_values___value_cache_0 with ID 139745783918048 and kind InputKind.BUFFER
match key in_spec.target kwargs____past_key_values___key_cache_1 with ID 139745783917408 and kind InputKind.BUFFER
match key in_spec.target kwargs____past_key_values___value_cache_1 with ID 139745783915648 and kind InputKind.BUFFER
match key in_spec.target const_subgraph_module.L__self___model_rotary_emb_inv_freq with ID 139744987395584 and kind InputKind.BUFFER
[JAMES] setting arg ref map to  refs=139744987305584,constant_unknown,139744987315824,139741932226016,139741932225136,139741932224576,139741932231776,139741932240336,139741932229936,139741932226736,user_input,139745783918048,139744987305824,constant_unknown,139744987314784,139745783915648,constant_unknown,constant_unknown,139741932237616,139741932232736,139745783917408,139741932238176,139744987306944,139741932239296,139745780343456,user_input,139741932240496,139744987395584,139741932238256,139744987302944,139741932225456,139746083886624
2025-08-11 19:05:05.849 (   4.526s) [        E38731C0]     buffer_instance.cc:526      1| BufferInstance::PJRT_Buffer_IsDeleted
2025-08-11 19:05:05.849 (   4.526s) [        E38731C0]     buffer_instance.cc:526      1| BufferInstance::PJRT_Buffer_IsDeleted
2025-08-11 19:05:05.849 (   4.526s) [        E38731C0]     buffer_instance.cc:526      1| BufferInstance::PJRT_Buffer_IsDeleted
2025-08-11 19:05:05.849 (   4.526s) [        E38731C0]     buffer_instance.cc:526      1| BufferInstance::PJRT_Buffer_IsDeleted
2025-08-11 19:05:05.849 (   4.526s) [        E38731C0]     buffer_instance.cc:526      1| BufferInstance::PJRT_Buffer_IsDeleted
2025-08-11 19:05:05.849 (   4.526s) [        E38731C0]     buffer_instance.cc:526      1| BufferInstance::PJRT_Buffer_IsDeleted
2025-08-11 19:05:05.849 (   4.526s) [        E38731C0]     buffer_instance.cc:526      1| BufferInstance::PJRT_Buffer_IsDeleted
2025-08-11 19:05:05.849 (   4.526s) [        E38731C0]     buffer_instance.cc:526      1| BufferInstance::PJRT_Buffer_IsDeleted
2025-08-11 19:05:05.849 (   4.526s) [        E38731C0]     buffer_instance.cc:526      1| BufferInstance::PJRT_Buffer_IsDeleted
2025-08-11 19:05:05.849 (   4.526s) [        E38731C0]     buffer_instance.cc:526      1| BufferInstance::PJRT_Buffer_IsDeleted
2025-08-11 19:05:05.849 (   4.526s) [        E38731C0]     buffer_instance.cc:526      1| BufferInstance::PJRT_Buffer_IsDeleted
2025-08-11 19:05:05.849 (   4.526s) [        E38731C0]     buffer_instance.cc:526      1| BufferInstance::PJRT_Buffer_IsDeleted
2025-08-11 19:05:05.849 (   4.526s) [        E38731C0]     buffer_instance.cc:526      1| BufferInstance::PJRT_Buffer_IsDeleted
2025-08-11 19:05:05.849 (   4.526s) [        E38731C0]     buffer_instance.cc:526      1| BufferInstance::PJRT_Buffer_IsDeleted
2025-08-11 19:05:05.849 (   4.526s) [        E38731C0]     buffer_instance.cc:526      1| BufferInstance::PJRT_Buffer_IsDeleted
2025-08-11 19:05:05.849 (   4.526s) [        E38731C0]     buffer_instance.cc:526      1| BufferInstance::PJRT_Buffer_IsDeleted
2025-08-11 19:05:05.849 (   4.526s) [        E38731C0]     buffer_instance.cc:526      1| BufferInstance::PJRT_Buffer_IsDeleted
2025-08-11 19:05:05.849 (   4.526s) [        E38731C0]     buffer_instance.cc:526      1| BufferInstance::PJRT_Buffer_IsDeleted
2025-08-11 19:05:05.849 (   4.526s) [        E38731C0]     buffer_instance.cc:526      1| BufferInstance::PJRT_Buffer_IsDeleted
2025-08-11 19:05:05.849 (   4.526s) [        E38731C0]     buffer_instance.cc:526      1| BufferInstance::PJRT_Buffer_IsDeleted
2025-08-11 19:05:05.849 (   4.526s) [        E38731C0]     buffer_instance.cc:526      1| BufferInstance::PJRT_Buffer_IsDeleted
2025-08-11 19:05:05.849 (   4.526s) [        E38731C0]     buffer_instance.cc:526      1| BufferInstance::PJRT_Buffer_IsDeleted
2025-08-11 19:05:05.849 (   4.526s) [        E38731C0]     buffer_instance.cc:526      1| BufferInstance::PJRT_Buffer_IsDeleted
2025-08-11 19:05:05.849 (   4.526s) [        E38731C0]     buffer_instance.cc:526      1| BufferInstance::PJRT_Buffer_IsDeleted
2025-08-11 19:05:05.849 (   4.526s) [        E38731C0]     buffer_instance.cc:526      1| BufferInstance::PJRT_Buffer_IsDeleted
2025-08-11 19:05:05.849 (   4.526s) [        E38731C0]     buffer_instance.cc:526      1| BufferInstance::PJRT_Buffer_IsDeleted
2025-08-11 19:05:05.849 (   4.526s) [        E38731C0]     buffer_instance.cc:526      1| BufferInstance::PJRT_Buffer_IsDeleted
2025-08-11 19:05:05.849 (   4.526s) [        E38731C0]     buffer_instance.cc:526      1| BufferInstance::PJRT_Buffer_IsDeleted
2025-08-11 19:05:05.849 (   4.526s) [        E38731C0]     buffer_instance.cc:526      1| BufferInstance::PJRT_Buffer_IsDeleted
2025-08-11 19:05:05.849 (   4.526s) [        E38731C0]     buffer_instance.cc:526      1| BufferInstance::PJRT_Buffer_IsDeleted
2025-08-11 19:05:05.849 (   4.526s) [        E38731C0]     buffer_instance.cc:526      1| BufferInstance::PJRT_Buffer_IsDeleted
2025-08-11 19:05:05.849 (   4.526s) [        E38731C0]     buffer_instance.cc:526      1| BufferInstance::PJRT_Buffer_IsDeleted
2025-08-11 19:05:05.849 (   4.526s) [        E38731C0]     buffer_instance.cc:526      1| BufferInstance::PJRT_Buffer_IsDeleted
2025-08-11 19:05:05.849 (   4.526s) [        E38731C0]     buffer_instance.cc:526      1| BufferInstance::PJRT_Buffer_IsDeleted
2025-08-11 19:05:05.849 (   4.526s) [        E38731C0]     buffer_instance.cc:526      1| BufferInstance::PJRT_Buffer_IsDeleted
2025-08-11 19:05:05.849 (   4.526s) [        E38731C0]     buffer_instance.cc:526      1| BufferInstance::PJRT_Buffer_IsDeleted
2025-08-11 19:05:05.849 (   4.526s) [        E38731C0]     buffer_instance.cc:526      1| BufferInstance::PJRT_Buffer_IsDeleted
2025-08-11 19:05:05.849 (   4.526s) [        E38731C0]     buffer_instance.cc:526      1| BufferInstance::PJRT_Buffer_IsDeleted
2025-08-11 19:05:05.849 (   4.526s) [        E38731C0]     buffer_instance.cc:526      1| BufferInstance::PJRT_Buffer_IsDeleted
2025-08-11 19:05:05.849 (   4.526s) [        E38731C0]     buffer_instance.cc:526      1| BufferInstance::PJRT_Buffer_IsDeleted
2025-08-11 19:05:05.849 (   4.526s) [        E38731C0]     buffer_instance.cc:526      1| BufferInstance::PJRT_Buffer_IsDeleted
2025-08-11 19:05:05.849 (   4.526s) [        E38731C0]     buffer_instance.cc:526      1| BufferInstance::PJRT_Buffer_IsDeleted
2025-08-11 19:05:05.849 (   4.526s) [        E38731C0]     buffer_instance.cc:526      1| BufferInstance::PJRT_Buffer_IsDeleted
2025-08-11 19:05:05.849 (   4.526s) [        E38731C0]     buffer_instance.cc:526      1| BufferInstance::PJRT_Buffer_IsDeleted
2025-08-11 19:05:05.849 (   4.526s) [        E38731C0]     buffer_instance.cc:526      1| BufferInstance::PJRT_Buffer_IsDeleted
2025-08-11 19:05:05.849 (   4.526s) [        E38731C0]     buffer_instance.cc:526      1| BufferInstance::PJRT_Buffer_IsDeleted
2025-08-11 19:05:05.849 (   4.526s) [        E38731C0]     buffer_instance.cc:526      1| BufferInstance::PJRT_Buffer_IsDeleted
2025-08-11 19:05:05.849 (   4.526s) [        E38731C0]     buffer_instance.cc:526      1| BufferInstance::PJRT_Buffer_IsDeleted
2025-08-11 19:05:05.849 (   4.526s) [        E38731C0]     buffer_instance.cc:526      1| BufferInstance::PJRT_Buffer_IsDeleted
2025-08-11 19:05:05.849 (   4.526s) [        E38731C0]     buffer_instance.cc:526      1| BufferInstance::PJRT_Buffer_IsDeleted
2025-08-11 19:05:05.849 (   4.526s) [        E38731C0]     buffer_instance.cc:526      1| BufferInstance::PJRT_Buffer_IsDeleted
2025-08-11 19:05:05.849 (   4.526s) [        E38731C0]     buffer_instance.cc:526      1| BufferInstance::PJRT_Buffer_IsDeleted
2025-08-11 19:05:05.849 (   4.526s) [        E38731C0]     buffer_instance.cc:526      1| BufferInstance::PJRT_Buffer_IsDeleted
2025-08-11 19:05:05.849 (   4.526s) [        E38731C0]     buffer_instance.cc:526      1| BufferInstance::PJRT_Buffer_IsDeleted
2025-08-11 19:05:05.849 (   4.526s) [        E38731C0]     buffer_instance.cc:526      1| BufferInstance::PJRT_Buffer_IsDeleted
2025-08-11 19:05:05.849 (   4.526s) [        E38731C0]     buffer_instance.cc:526      1| BufferInstance::PJRT_Buffer_IsDeleted
2025-08-11 19:05:05.849 (   4.526s) [        E38731C0]     buffer_instance.cc:526      1| BufferInstance::PJRT_Buffer_IsDeleted
2025-08-11 19:05:05.849 (   4.526s) [        E38731C0]     buffer_instance.cc:526      1| BufferInstance::PJRT_Buffer_IsDeleted
2025-08-11 19:05:05.849 (   4.526s) [        E38731C0]     buffer_instance.cc:526      1| BufferInstance::PJRT_Buffer_IsDeleted
2025-08-11 19:05:05.849 (   4.526s) [        E38731C0]     buffer_instance.cc:526      1| BufferInstance::PJRT_Buffer_IsDeleted
2025-08-11 19:05:05.849 (   4.526s) [        E38731C0]     buffer_instance.cc:526      1| BufferInstance::PJRT_Buffer_IsDeleted
2025-08-11 19:05:05.849 (   4.526s) [        E38731C0]     buffer_instance.cc:526      1| BufferInstance::PJRT_Buffer_IsDeleted
2025-08-11 19:05:05.849 (   4.526s) [        E38731C0]     buffer_instance.cc:526      1| BufferInstance::PJRT_Buffer_IsDeleted
2025-08-11 19:05:05.849 (   4.526s) [        E38731C0]     buffer_instance.cc:526      1| BufferInstance::PJRT_Buffer_IsDeleted
2025-08-11 19:05:05.849 (   4.526s) [        E38731C0]     buffer_instance.cc:526      1| BufferInstance::PJRT_Buffer_IsDeleted
2025-08-11 19:05:05.849 (   4.526s) [        E38731C0]     buffer_instance.cc:526      1| BufferInstance::PJRT_Buffer_IsDeleted
2025-08-11 19:05:05.849 (   4.526s) [        E38731C0]     buffer_instance.cc:526      1| BufferInstance::PJRT_Buffer_IsDeleted
2025-08-11 19:05:05.849 (   4.526s) [        E38731C0]     buffer_instance.cc:526      1| BufferInstance::PJRT_Buffer_IsDeleted
2025-08-11 19:05:05.849 (   4.526s) [        E38731C0]     buffer_instance.cc:526      1| BufferInstance::PJRT_Buffer_IsDeleted
2025-08-11 19:05:05.849 (   4.526s) [        E38731C0]     buffer_instance.cc:526      1| BufferInstance::PJRT_Buffer_IsDeleted
2025-08-11 19:05:05.849 (   4.526s) [        E38731C0]     buffer_instance.cc:526      1| BufferInstance::PJRT_Buffer_IsDeleted
2025-08-11 19:05:05.849 (   4.526s) [        E38731C0]     buffer_instance.cc:526      1| BufferInstance::PJRT_Buffer_IsDeleted
2025-08-11 19:05:05.849 (   4.526s) [        E38731C0]     buffer_instance.cc:526      1| BufferInstance::PJRT_Buffer_IsDeleted
2025-08-11 19:05:05.849 (   4.526s) [        E38731C0]     buffer_instance.cc:526      1| BufferInstance::PJRT_Buffer_IsDeleted
2025-08-11 19:05:05.849 (   4.526s) [        E38731C0]     buffer_instance.cc:526      1| BufferInstance::PJRT_Buffer_IsDeleted
2025-08-11 19:05:05.849 (   4.526s) [        E38731C0]     buffer_instance.cc:526      1| BufferInstance::PJRT_Buffer_IsDeleted
2025-08-11 19:05:05.849 (   4.526s) [        E38731C0]     buffer_instance.cc:526      1| BufferInstance::PJRT_Buffer_IsDeleted
2025-08-11 19:05:05.849 (   4.526s) [        E38731C0]     buffer_instance.cc:526      1| BufferInstance::PJRT_Buffer_IsDeleted
2025-08-11 19:05:05.849 (   4.526s) [        E38731C0]     buffer_instance.cc:526      1| BufferInstance::PJRT_Buffer_IsDeleted
2025-08-11 19:05:05.849 (   4.526s) [        E38731C0]     buffer_instance.cc:526      1| BufferInstance::PJRT_Buffer_IsDeleted
2025-08-11 19:05:05.849 (   4.526s) [        E38731C0]     buffer_instance.cc:526      1| BufferInstance::PJRT_Buffer_IsDeleted
2025-08-11 19:05:05.849 (   4.526s) [        E38731C0]     buffer_instance.cc:526      1| BufferInstance::PJRT_Buffer_IsDeleted
2025-08-11 19:05:05.849 (   4.526s) [        E38731C0]     buffer_instance.cc:526      1| BufferInstance::PJRT_Buffer_IsDeleted
2025-08-11 19:05:05.849 (   4.526s) [        E38731C0]     buffer_instance.cc:526      1| BufferInstance::PJRT_Buffer_IsDeleted
2025-08-11 19:05:05.849 (   4.526s) [        E38731C0]     buffer_instance.cc:526      1| BufferInstance::PJRT_Buffer_IsDeleted
2025-08-11 19:05:05.849 (   4.526s) [        E38731C0]     buffer_instance.cc:526      1| BufferInstance::PJRT_Buffer_IsDeleted
2025-08-11 19:05:05.849 (   4.526s) [        E38731C0]     buffer_instance.cc:526      1| BufferInstance::PJRT_Buffer_IsDeleted
2025-08-11 19:05:05.849 (   4.527s) [        E38731C0]     buffer_instance.cc:526      1| BufferInstance::PJRT_Buffer_IsDeleted
2025-08-11 19:05:05.849 (   4.527s) [        E38731C0]     buffer_instance.cc:526      1| BufferInstance::PJRT_Buffer_IsDeleted
2025-08-11 19:05:05.849 (   4.527s) [        E38731C0]     buffer_instance.cc:526      1| BufferInstance::PJRT_Buffer_IsDeleted
2025-08-11 19:05:05.849 (   4.527s) [        E38731C0]     buffer_instance.cc:526      1| BufferInstance::PJRT_Buffer_IsDeleted
2025-08-11 19:05:05.849 (   4.527s) [        E38731C0]     buffer_instance.cc:526      1| BufferInstance::PJRT_Buffer_IsDeleted
2025-08-11 19:05:05.849 (   4.527s) [        E38731C0]     buffer_instance.cc:526      1| BufferInstance::PJRT_Buffer_IsDeleted
2025-08-11 19:05:05.849 (   4.527s) [        E38731C0]     buffer_instance.cc:526      1| BufferInstance::PJRT_Buffer_IsDeleted
2025-08-11 19:05:05.849 (   4.527s) [        E38731C0]     buffer_instance.cc:526      1| BufferInstance::PJRT_Buffer_IsDeleted
2025-08-11 19:05:05.849 (   4.527s) [        E38731C0]     buffer_instance.cc:526      1| BufferInstance::PJRT_Buffer_IsDeleted
2025-08-11 19:05:05.850 (   4.527s) [        E38731C0]     buffer_instance.cc:526      1| BufferInstance::PJRT_Buffer_IsDeleted
2025-08-11 19:05:05.850 (   4.527s) [        E38731C0]     buffer_instance.cc:526      1| BufferInstance::PJRT_Buffer_IsDeleted
2025-08-11 19:05:05.850 (   4.527s) [        E38731C0]     buffer_instance.cc:526      1| BufferInstance::PJRT_Buffer_IsDeleted
2025-08-11 19:05:05.850 (   4.527s) [        E38731C0]     buffer_instance.cc:526      1| BufferInstance::PJRT_Buffer_IsDeleted
2025-08-11 19:05:05.850 (   4.527s) [        E38731C0]     buffer_instance.cc:526      1| BufferInstance::PJRT_Buffer_IsDeleted
2025-08-11 19:05:05.850 (   4.527s) [        E38731C0]     buffer_instance.cc:526      1| BufferInstance::PJRT_Buffer_IsDeleted
2025-08-11 19:05:05.850 (   4.527s) [        E38731C0]     buffer_instance.cc:526      1| BufferInstance::PJRT_Buffer_IsDeleted
2025-08-11 19:05:05.850 (   4.527s) [        E38731C0]     buffer_instance.cc:526      1| BufferInstance::PJRT_Buffer_IsDeleted
2025-08-11 19:05:05.850 (   4.527s) [        E38731C0]     buffer_instance.cc:526      1| BufferInstance::PJRT_Buffer_IsDeleted
2025-08-11 19:05:05.850 (   4.527s) [        E38731C0]     buffer_instance.cc:526      1| BufferInstance::PJRT_Buffer_IsDeleted
2025-08-11 19:05:05.850 (   4.527s) [        E38731C0]     buffer_instance.cc:526      1| BufferInstance::PJRT_Buffer_IsDeleted
2025-08-11 19:05:05.850 (   4.528s) [        E38731C0]     buffer_instance.cc:526      1| BufferInstance::PJRT_Buffer_IsDeleted
2025-08-11 19:05:05.850 (   4.528s) [        E38731C0]     buffer_instance.cc:526      1| BufferInstance::PJRT_Buffer_IsDeleted
2025-08-11 19:05:05.851 (   4.528s) [        E38731C0]     buffer_instance.cc:526      1| BufferInstance::PJRT_Buffer_IsDeleted
2025-08-11 19:05:05.851 (   4.528s) [        E38731C0]     buffer_instance.cc:526      1| BufferInstance::PJRT_Buffer_IsDeleted
2025-08-11 19:05:05.851 (   4.528s) [        E38731C0]     buffer_instance.cc:526      1| BufferInstance::PJRT_Buffer_IsDeleted
2025-08-11 19:05:05.851 (   4.528s) [        E38731C0]     buffer_instance.cc:526      1| BufferInstance::PJRT_Buffer_IsDeleted
2025-08-11 19:05:05.851 (   4.528s) [        E38731C0]     buffer_instance.cc:526      1| BufferInstance::PJRT_Buffer_IsDeleted
2025-08-11 19:05:05.851 (   4.528s) [        E38731C0]     buffer_instance.cc:526      1| BufferInstance::PJRT_Buffer_IsDeleted
2025-08-11 19:05:05.851 (   4.528s) [        E38731C0]     buffer_instance.cc:526      1| BufferInstance::PJRT_Buffer_IsDeleted
2025-08-11 19:05:05.851 (   4.528s) [        E38731C0]     buffer_instance.cc:526      1| BufferInstance::PJRT_Buffer_IsDeleted
2025-08-11 19:05:05.851 (   4.528s) [        E38731C0]     buffer_instance.cc:526      1| BufferInstance::PJRT_Buffer_IsDeleted
2025-08-11 19:05:05.851 (   4.528s) [        E38731C0]     buffer_instance.cc:526      1| BufferInstance::PJRT_Buffer_IsDeleted
2025-08-11 19:05:05.851 (   4.529s) [        E38731C0]     buffer_instance.cc:526      1| BufferInstance::PJRT_Buffer_IsDeleted
2025-08-11 19:05:05.885 (   4.562s) [        E38731C0]     client_instance.cc:471      1| ClientInstance::PJRT_Client_Compile
2025-08-11 19:05:05.885 (   4.562s) [        E38731C0]      module_builder.cc:101      1| ModuleBuilder::buildModule
2025-08-11 19:05:05.887 (   4.564s) [        E38731C0]      module_builder.cc:155      1| VHLO Module:
module @SyncTensorsGraph.613 attributes {mhlo.cross_program_prefetches = [], mhlo.input_output_alias = [], mhlo.is_dynamic = false, mhlo.use_auto_spmd_partitioning = false} {
  vhlo.func_v1 @main(%arg0: !vhlo.tensor_v1<3072x128256x!vhlo.bf16_v1>, %arg1: !vhlo.tensor_v1<!vhlo.f32_v1>, %arg2: !vhlo.tensor_v1<8192x3072x!vhlo.bf16_v1>, %arg3: !vhlo.tensor_v1<3072x8192x!vhlo.bf16_v1>, %arg4: !vhlo.tensor_v1<3072x3072x!vhlo.bf16_v1>, %arg5: !vhlo.tensor_v1<3072x1024x!vhlo.bf16_v1>, %arg6: !vhlo.tensor_v1<8192x3072x!vhlo.bf16_v1>, %arg7: !vhlo.tensor_v1<3072x8192x!vhlo.bf16_v1>, %arg8: !vhlo.tensor_v1<3072x3072x!vhlo.bf16_v1>, %arg9: !vhlo.tensor_v1<3072x1024x!vhlo.bf16_v1>, %arg10: !vhlo.tensor_v1<1x7x!vhlo.i64_v1>, %arg11: !vhlo.tensor_v1<128256x3072x!vhlo.bf16_v1>, %arg12: !vhlo.tensor_v1<3072x!vhlo.bf16_v1>, %arg13: !vhlo.tensor_v1<7x!vhlo.i64_v1>, %arg14: !vhlo.tensor_v1<!vhlo.i64_v1>, %arg15: !vhlo.tensor_v1<1x8x128x128x!vhlo.bf16_v1>, %arg16: !vhlo.tensor_v1<1x1x7x128x!vhlo.bf16_v1>, %arg17: !vhlo.tensor_v1<!vhlo.f32_v1>, %arg18: !vhlo.tensor_v1<1x64x1x!vhlo.f32_v1>, %arg19: !vhlo.tensor_v1<3072x1024x!vhlo.bf16_v1>, %arg20: !vhlo.tensor_v1<1x8x128x128x!vhlo.bf16_v1>, %arg21: !vhlo.tensor_v1<3072x3072x!vhlo.bf16_v1>, %arg22: !vhlo.tensor_v1<3072x!vhlo.bf16_v1>, %arg23: !vhlo.tensor_v1<3072x8192x!vhlo.bf16_v1>, %arg24: !vhlo.tensor_v1<3072x!vhlo.bf16_v1>, %arg25: !vhlo.tensor_v1<1x8x128x128x!vhlo.bf16_v1>, %arg26: !vhlo.tensor_v1<3072x1024x!vhlo.bf16_v1>, %arg27: !vhlo.tensor_v1<1x8x128x128x!vhlo.bf16_v1>, %arg28: !vhlo.tensor_v1<3072x3072x!vhlo.bf16_v1>, %arg29: !vhlo.tensor_v1<3072x!vhlo.bf16_v1>, %arg30: !vhlo.tensor_v1<3072x8192x!vhlo.bf16_v1>, %arg31: !vhlo.tensor_v1<3072x!vhlo.bf16_v1>) -> (!vhlo.tensor_v1<7x128256x!vhlo.bf16_v1>, !vhlo.tensor_v1<1x7x128256x!vhlo.bf16_v1>) {
    %0 = "vhlo.constant_v1"() <{value = #vhlo.tensor_v1<dense<0> : tensor<7xi64>>}> : () -> !vhlo.tensor_v1<7x!vhlo.i64_v1>
    %1 = "vhlo.constant_v1"() <{value = #vhlo.tensor_v1<dense<3.25520843E-4> : tensor<1x7xf32>>}> : () -> !vhlo.tensor_v1<1x7x!vhlo.f32_v1>
    %2 = "vhlo.constant_v1"() <{value = #vhlo.tensor_v1<dense<2.000000e+00> : tensor<1x7x3072xf32>>}> : () -> !vhlo.tensor_v1<1x7x3072x!vhlo.f32_v1>
    %3 = "vhlo.constant_v1"() <{value = #vhlo.tensor_v1<dense<0xFF800000> : tensor<f32>>}> : () -> !vhlo.tensor_v1<!vhlo.f32_v1>
    %4 = "vhlo.constant_v1"() <{value = #vhlo.tensor_v1<dense<0.000000e+00> : tensor<f32>>}> : () -> !vhlo.tensor_v1<!vhlo.f32_v1>
    %5 = "vhlo.convert_v1"(%arg31) : (!vhlo.tensor_v1<3072x!vhlo.bf16_v1>) -> !vhlo.tensor_v1<3072x!vhlo.f32_v1>
    %6 = "vhlo.broadcast_in_dim_v1"(%5) <{broadcast_dimensions = #vhlo.tensor_v1<dense<2> : tensor<1xi64>>}> : (!vhlo.tensor_v1<3072x!vhlo.f32_v1>) -> !vhlo.tensor_v1<1x7x3072x!vhlo.f32_v1>
    %7 = "vhlo.reshape_v1"(%arg10) : (!vhlo.tensor_v1<1x7x!vhlo.i64_v1>) -> !vhlo.tensor_v1<7x!vhlo.i64_v1>
    %8 = "vhlo.convert_v1"(%7) : (!vhlo.tensor_v1<7x!vhlo.i64_v1>) -> !vhlo.tensor_v1<7x!vhlo.ui32_v1>
    %9 = "vhlo.gather_v2"(%arg11, %8) <{collapsed_slice_dims = #vhlo.tensor_v1<dense<0> : tensor<1xi64>>, index_vector_dim = #vhlo.integer_v1<1 : i64>, indices_are_sorted = #vhlo.bool_v1<false>, offset_dims = #vhlo.tensor_v1<dense<1> : tensor<1xi64>>, operand_batching_dims = #vhlo.tensor_v1<dense<> : tensor<0xi64>>, slice_sizes = #vhlo.tensor_v1<dense<[1, 3072]> : tensor<2xi64>>, start_index_map = #vhlo.tensor_v1<dense<0> : tensor<1xi64>>, start_indices_batching_dims = #vhlo.tensor_v1<dense<> : tensor<0xi64>>}> : (!vhlo.tensor_v1<128256x3072x!vhlo.bf16_v1>, !vhlo.tensor_v1<7x!vhlo.ui32_v1>) -> !vhlo.tensor_v1<7x3072x!vhlo.bf16_v1>
    %10 = "vhlo.reshape_v1"(%9) : (!vhlo.tensor_v1<7x3072x!vhlo.bf16_v1>) -> !vhlo.tensor_v1<1x7x3072x!vhlo.bf16_v1>
    %11 = "vhlo.convert_v1"(%arg12) : (!vhlo.tensor_v1<3072x!vhlo.bf16_v1>) -> !vhlo.tensor_v1<3072x!vhlo.f32_v1>
    %12 = "vhlo.broadcast_in_dim_v1"(%11) <{broadcast_dimensions = #vhlo.tensor_v1<dense<2> : tensor<1xi64>>}> : (!vhlo.tensor_v1<3072x!vhlo.f32_v1>) -> !vhlo.tensor_v1<1x7x3072x!vhlo.f32_v1>
    %13 = "vhlo.convert_v1"(%10) : (!vhlo.tensor_v1<1x7x3072x!vhlo.bf16_v1>) -> !vhlo.tensor_v1<1x7x3072x!vhlo.f32_v1>
    %14 = "vhlo.power_v1"(%13, %2) : (!vhlo.tensor_v1<1x7x3072x!vhlo.f32_v1>, !vhlo.tensor_v1<1x7x3072x!vhlo.f32_v1>) -> !vhlo.tensor_v1<1x7x3072x!vhlo.f32_v1>
    %15 = "vhlo.reduce_v1"(%14, %4) <{dimensions = #vhlo.tensor_v1<dense<2> : tensor<1xi64>>}> ({
    ^bb0(%arg32: !vhlo.tensor_v1<!vhlo.f32_v1>, %arg33: !vhlo.tensor_v1<!vhlo.f32_v1>):
      %284 = "vhlo.add_v1"(%arg32, %arg33) : (!vhlo.tensor_v1<!vhlo.f32_v1>, !vhlo.tensor_v1<!vhlo.f32_v1>) -> !vhlo.tensor_v1<!vhlo.f32_v1>
      "vhlo.return_v1"(%284) : (!vhlo.tensor_v1<!vhlo.f32_v1>) -> ()
    }) : (!vhlo.tensor_v1<1x7x3072x!vhlo.f32_v1>, !vhlo.tensor_v1<!vhlo.f32_v1>) -> !vhlo.tensor_v1<1x7x!vhlo.f32_v1>
    %16 = "vhlo.multiply_v1"(%15, %1) : (!vhlo.tensor_v1<1x7x!vhlo.f32_v1>, !vhlo.tensor_v1<1x7x!vhlo.f32_v1>) -> !vhlo.tensor_v1<1x7x!vhlo.f32_v1>
    %17 = "vhlo.reshape_v1"(%16) : (!vhlo.tensor_v1<1x7x!vhlo.f32_v1>) -> !vhlo.tensor_v1<1x7x1x!vhlo.f32_v1>
    %18 = "vhlo.broadcast_in_dim_v1"(%arg1) <{broadcast_dimensions = #vhlo.tensor_v1<dense<> : tensor<0xi64>>}> : (!vhlo.tensor_v1<!vhlo.f32_v1>) -> !vhlo.tensor_v1<1x7x1x!vhlo.f32_v1>
    %19 = "vhlo.add_v1"(%17, %18) : (!vhlo.tensor_v1<1x7x1x!vhlo.f32_v1>, !vhlo.tensor_v1<1x7x1x!vhlo.f32_v1>) -> !vhlo.tensor_v1<1x7x1x!vhlo.f32_v1>
    %20 = "vhlo.rsqrt_v2"(%19) <{result_accuracy = #vhlo.result_accuracy_v1<atol = 0.000000e+00, rtol = 0.000000e+00, ulps = 0, mode = #vhlo<result_accuracy_mode_v1 DEFAULT>>}> : (!vhlo.tensor_v1<1x7x1x!vhlo.f32_v1>) -> !vhlo.tensor_v1<1x7x1x!vhlo.f32_v1>
    %21 = "vhlo.reshape_v1"(%20) : (!vhlo.tensor_v1<1x7x1x!vhlo.f32_v1>) -> !vhlo.tensor_v1<1x7x!vhlo.f32_v1>
    %22 = "vhlo.broadcast_in_dim_v1"(%21) <{broadcast_dimensions = #vhlo.tensor_v1<dense<[0, 1]> : tensor<2xi64>>}> : (!vhlo.tensor_v1<1x7x!vhlo.f32_v1>) -> !vhlo.tensor_v1<1x7x3072x!vhlo.f32_v1>
    %23 = "vhlo.multiply_v1"(%13, %22) : (!vhlo.tensor_v1<1x7x3072x!vhlo.f32_v1>, !vhlo.tensor_v1<1x7x3072x!vhlo.f32_v1>) -> !vhlo.tensor_v1<1x7x3072x!vhlo.f32_v1>
    %24 = "vhlo.convert_v1"(%23) : (!vhlo.tensor_v1<1x7x3072x!vhlo.f32_v1>) -> !vhlo.tensor_v1<1x7x3072x!vhlo.bf16_v1>
    %25 = "vhlo.convert_v1"(%24) : (!vhlo.tensor_v1<1x7x3072x!vhlo.bf16_v1>) -> !vhlo.tensor_v1<1x7x3072x!vhlo.f32_v1>
    %26 = "vhlo.multiply_v1"(%12, %25) : (!vhlo.tensor_v1<1x7x3072x!vhlo.f32_v1>, !vhlo.tensor_v1<1x7x3072x!vhlo.f32_v1>) -> !vhlo.tensor_v1<1x7x3072x!vhlo.f32_v1>
    %27 = "vhlo.convert_v1"(%26) : (!vhlo.tensor_v1<1x7x3072x!vhlo.f32_v1>) -> !vhlo.tensor_v1<1x7x3072x!vhlo.bf16_v1>
    %28 = "vhlo.reshape_v1"(%27) : (!vhlo.tensor_v1<1x7x3072x!vhlo.bf16_v1>) -> !vhlo.tensor_v1<7x3072x!vhlo.bf16_v1>
    %29 = "vhlo.dot_general_v2"(%28, %arg21) <{accumulation_type = #vhlo.type_v1<!vhlo.none_v1>, allow_imprecise_accumulation = #vhlo.type_v1<!vhlo.none_v1>, lhs_batching_dimensions = #vhlo.tensor_v1<dense<> : tensor<0xi64>>, lhs_component_count = #vhlo.type_v1<!vhlo.none_v1>, lhs_contracting_dimensions = #vhlo.tensor_v1<dense<1> : tensor<1xi64>>, lhs_precision_type = #vhlo.type_v1<!vhlo.none_v1>, num_primitive_operations = #vhlo.type_v1<!vhlo.none_v1>, precision_config = #vhlo.array_v1<[#vhlo<precision_v1 DEFAULT>, #vhlo<precision_v1 DEFAULT>]>, rhs_batching_dimensions = #vhlo.tensor_v1<dense<> : tensor<0xi64>>, rhs_component_count = #vhlo.type_v1<!vhlo.none_v1>, rhs_contracting_dimensions = #vhlo.tensor_v1<dense<0> : tensor<1xi64>>, rhs_precision_type = #vhlo.type_v1<!vhlo.none_v1>}> : (!vhlo.tensor_v1<7x3072x!vhlo.bf16_v1>, !vhlo.tensor_v1<3072x3072x!vhlo.bf16_v1>) -> !vhlo.tensor_v1<7x3072x!vhlo.bf16_v1>
    %30 = "vhlo.reshape_v1"(%29) : (!vhlo.tensor_v1<7x3072x!vhlo.bf16_v1>) -> !vhlo.tensor_v1<1x7x24x128x!vhlo.bf16_v1>
    %31 = "vhlo.transpose_v1"(%30) <{permutation = #vhlo.tensor_v1<dense<[0, 2, 1, 3]> : tensor<4xi64>>}> {result_layout = #vhlo.tensor_v1<dense<[3, 1, 2, 0]> : tensor<4xindex>>, xla_shape = #vhlo.string_v1<"bf16[1,24,7,128]{3,1,2,0}">} : (!vhlo.tensor_v1<1x7x24x128x!vhlo.bf16_v1>) -> !vhlo.tensor_v1<1x24x7x128x!vhlo.bf16_v1>
    %32 = "vhlo.convert_v1"(%31) {result_layout = #vhlo.tensor_v1<dense<[3, 1, 2, 0]> : tensor<4xindex>>, xla_shape = #vhlo.string_v1<"f32[1,24,7,128]{3,1,2,0}">} : (!vhlo.tensor_v1<1x24x7x128x!vhlo.bf16_v1>) -> !vhlo.tensor_v1<1x24x7x128x!vhlo.f32_v1>
    %33 = "vhlo.reshape_v1"(%arg13) : (!vhlo.tensor_v1<7x!vhlo.i64_v1>) -> !vhlo.tensor_v1<1x1x7x!vhlo.i64_v1>
    %34 = "vhlo.convert_v1"(%33) : (!vhlo.tensor_v1<1x1x7x!vhlo.i64_v1>) -> !vhlo.tensor_v1<1x1x7x!vhlo.f32_v1>
    %35 = "vhlo.dot_general_v2"(%arg18, %34) <{accumulation_type = #vhlo.type_v1<!vhlo.none_v1>, allow_imprecise_accumulation = #vhlo.type_v1<!vhlo.none_v1>, lhs_batching_dimensions = #vhlo.tensor_v1<dense<0> : tensor<1xi64>>, lhs_component_count = #vhlo.type_v1<!vhlo.none_v1>, lhs_contracting_dimensions = #vhlo.tensor_v1<dense<2> : tensor<1xi64>>, lhs_precision_type = #vhlo.type_v1<!vhlo.none_v1>, num_primitive_operations = #vhlo.type_v1<!vhlo.none_v1>, precision_config = #vhlo.array_v1<[#vhlo<precision_v1 DEFAULT>, #vhlo<precision_v1 DEFAULT>]>, rhs_batching_dimensions = #vhlo.tensor_v1<dense<0> : tensor<1xi64>>, rhs_component_count = #vhlo.type_v1<!vhlo.none_v1>, rhs_contracting_dimensions = #vhlo.tensor_v1<dense<1> : tensor<1xi64>>, rhs_precision_type = #vhlo.type_v1<!vhlo.none_v1>}> : (!vhlo.tensor_v1<1x64x1x!vhlo.f32_v1>, !vhlo.tensor_v1<1x1x7x!vhlo.f32_v1>) -> !vhlo.tensor_v1<1x64x7x!vhlo.f32_v1>
    %36 = "vhlo.transpose_v1"(%35) <{permutation = #vhlo.tensor_v1<dense<[0, 2, 1]> : tensor<3xi64>>}> {result_layout = #vhlo.tensor_v1<dense<[1, 2, 0]> : tensor<3xindex>>, xla_shape = #vhlo.string_v1<"f32[1,7,64]{1,2,0}">} : (!vhlo.tensor_v1<1x64x7x!vhlo.f32_v1>) -> !vhlo.tensor_v1<1x7x64x!vhlo.f32_v1>
    %37 = "vhlo.concatenate_v1"(%36, %36) <{dimension = #vhlo.integer_v1<2 : i64>}> : (!vhlo.tensor_v1<1x7x64x!vhlo.f32_v1>, !vhlo.tensor_v1<1x7x64x!vhlo.f32_v1>) -> !vhlo.tensor_v1<1x7x128x!vhlo.f32_v1>
    %38 = "vhlo.cosine_v2"(%37) <{result_accuracy = #vhlo.result_accuracy_v1<atol = 0.000000e+00, rtol = 0.000000e+00, ulps = 0, mode = #vhlo<result_accuracy_mode_v1 DEFAULT>>}> : (!vhlo.tensor_v1<1x7x128x!vhlo.f32_v1>) -> !vhlo.tensor_v1<1x7x128x!vhlo.f32_v1>
    %39 = "vhlo.convert_v1"(%38) : (!vhlo.tensor_v1<1x7x128x!vhlo.f32_v1>) -> !vhlo.tensor_v1<1x7x128x!vhlo.bf16_v1>
    %40 = "vhlo.reshape_v1"(%39) : (!vhlo.tensor_v1<1x7x128x!vhlo.bf16_v1>) -> !vhlo.tensor_v1<1x1x7x128x!vhlo.bf16_v1>
    %41 = "vhlo.convert_v1"(%40) : (!vhlo.tensor_v1<1x1x7x128x!vhlo.bf16_v1>) -> !vhlo.tensor_v1<1x1x7x128x!vhlo.f32_v1>
    %42 = "vhlo.reshape_v1"(%41) : (!vhlo.tensor_v1<1x1x7x128x!vhlo.f32_v1>) -> !vhlo.tensor_v1<1x7x128x!vhlo.f32_v1>
    %43 = "vhlo.broadcast_in_dim_v1"(%42) <{broadcast_dimensions = #vhlo.tensor_v1<dense<[0, 2, 3]> : tensor<3xi64>>}> : (!vhlo.tensor_v1<1x7x128x!vhlo.f32_v1>) -> !vhlo.tensor_v1<1x24x7x128x!vhlo.f32_v1>
    %44 = "vhlo.multiply_v1"(%32, %43) : (!vhlo.tensor_v1<1x24x7x128x!vhlo.f32_v1>, !vhlo.tensor_v1<1x24x7x128x!vhlo.f32_v1>) -> !vhlo.tensor_v1<1x24x7x128x!vhlo.f32_v1>
    %45 = "vhlo.convert_v1"(%44) : (!vhlo.tensor_v1<1x24x7x128x!vhlo.f32_v1>) -> !vhlo.tensor_v1<1x24x7x128x!vhlo.bf16_v1>
    %46 = "vhlo.slice_v1"(%31) <{limit_indices = #vhlo.tensor_v1<dense<[1, 24, 7, 128]> : tensor<4xi64>>, start_indices = #vhlo.tensor_v1<dense<[0, 0, 0, 64]> : tensor<4xi64>>, strides = #vhlo.tensor_v1<dense<1> : tensor<4xi64>>}> : (!vhlo.tensor_v1<1x24x7x128x!vhlo.bf16_v1>) -> !vhlo.tensor_v1<1x24x7x64x!vhlo.bf16_v1>
    %47 = "vhlo.negate_v1"(%46) : (!vhlo.tensor_v1<1x24x7x64x!vhlo.bf16_v1>) -> !vhlo.tensor_v1<1x24x7x64x!vhlo.bf16_v1>
    %48 = "vhlo.slice_v1"(%31) <{limit_indices = #vhlo.tensor_v1<dense<[1, 24, 7, 64]> : tensor<4xi64>>, start_indices = #vhlo.tensor_v1<dense<0> : tensor<4xi64>>, strides = #vhlo.tensor_v1<dense<1> : tensor<4xi64>>}> : (!vhlo.tensor_v1<1x24x7x128x!vhlo.bf16_v1>) -> !vhlo.tensor_v1<1x24x7x64x!vhlo.bf16_v1>
    %49 = "vhlo.concatenate_v1"(%47, %48) <{dimension = #vhlo.integer_v1<3 : i64>}> : (!vhlo.tensor_v1<1x24x7x64x!vhlo.bf16_v1>, !vhlo.tensor_v1<1x24x7x64x!vhlo.bf16_v1>) -> !vhlo.tensor_v1<1x24x7x128x!vhlo.bf16_v1>
    %50 = "vhlo.convert_v1"(%49) : (!vhlo.tensor_v1<1x24x7x128x!vhlo.bf16_v1>) -> !vhlo.tensor_v1<1x24x7x128x!vhlo.f32_v1>
    %51 = "vhlo.sine_v2"(%37) <{result_accuracy = #vhlo.result_accuracy_v1<atol = 0.000000e+00, rtol = 0.000000e+00, ulps = 0, mode = #vhlo<result_accuracy_mode_v1 DEFAULT>>}> : (!vhlo.tensor_v1<1x7x128x!vhlo.f32_v1>) -> !vhlo.tensor_v1<1x7x128x!vhlo.f32_v1>
    %52 = "vhlo.convert_v1"(%51) : (!vhlo.tensor_v1<1x7x128x!vhlo.f32_v1>) -> !vhlo.tensor_v1<1x7x128x!vhlo.bf16_v1>
    %53 = "vhlo.reshape_v1"(%52) : (!vhlo.tensor_v1<1x7x128x!vhlo.bf16_v1>) -> !vhlo.tensor_v1<1x1x7x128x!vhlo.bf16_v1>
    %54 = "vhlo.convert_v1"(%53) : (!vhlo.tensor_v1<1x1x7x128x!vhlo.bf16_v1>) -> !vhlo.tensor_v1<1x1x7x128x!vhlo.f32_v1>
    %55 = "vhlo.reshape_v1"(%54) : (!vhlo.tensor_v1<1x1x7x128x!vhlo.f32_v1>) -> !vhlo.tensor_v1<1x7x128x!vhlo.f32_v1>
    %56 = "vhlo.broadcast_in_dim_v1"(%55) <{broadcast_dimensions = #vhlo.tensor_v1<dense<[0, 2, 3]> : tensor<3xi64>>}> : (!vhlo.tensor_v1<1x7x128x!vhlo.f32_v1>) -> !vhlo.tensor_v1<1x24x7x128x!vhlo.f32_v1>
    %57 = "vhlo.multiply_v1"(%50, %56) : (!vhlo.tensor_v1<1x24x7x128x!vhlo.f32_v1>, !vhlo.tensor_v1<1x24x7x128x!vhlo.f32_v1>) -> !vhlo.tensor_v1<1x24x7x128x!vhlo.f32_v1>
    %58 = "vhlo.convert_v1"(%57) : (!vhlo.tensor_v1<1x24x7x128x!vhlo.f32_v1>) -> !vhlo.tensor_v1<1x24x7x128x!vhlo.bf16_v1>
    %59 = "vhlo.add_v1"(%45, %58) : (!vhlo.tensor_v1<1x24x7x128x!vhlo.bf16_v1>, !vhlo.tensor_v1<1x24x7x128x!vhlo.bf16_v1>) -> !vhlo.tensor_v1<1x24x7x128x!vhlo.bf16_v1>
    %60 = "vhlo.reshape_v1"(%59) : (!vhlo.tensor_v1<1x24x7x128x!vhlo.bf16_v1>) -> !vhlo.tensor_v1<24x7x128x!vhlo.bf16_v1>
    %61 = "vhlo.compare_v1"(%arg13, %0) <{compare_type = #vhlo<comparison_type_v1 NOTYPE>, comparison_direction = #vhlo<comparison_direction_v1 LT>}> : (!vhlo.tensor_v1<7x!vhlo.i64_v1>, !vhlo.tensor_v1<7x!vhlo.i64_v1>) -> !vhlo.tensor_v1<7x!vhlo.bool_v1>
    %62 = "vhlo.broadcast_in_dim_v1"(%arg14) <{broadcast_dimensions = #vhlo.tensor_v1<dense<> : tensor<0xi64>>}> : (!vhlo.tensor_v1<!vhlo.i64_v1>) -> !vhlo.tensor_v1<7x!vhlo.i64_v1>
    %63 = "vhlo.add_v1"(%arg13, %62) : (!vhlo.tensor_v1<7x!vhlo.i64_v1>, !vhlo.tensor_v1<7x!vhlo.i64_v1>) -> !vhlo.tensor_v1<7x!vhlo.i64_v1>
    %64 = "vhlo.select_v1"(%61, %63, %arg13) : (!vhlo.tensor_v1<7x!vhlo.bool_v1>, !vhlo.tensor_v1<7x!vhlo.i64_v1>, !vhlo.tensor_v1<7x!vhlo.i64_v1>) -> !vhlo.tensor_v1<7x!vhlo.i64_v1>
    %65 = "vhlo.reshape_v1"(%64) : (!vhlo.tensor_v1<7x!vhlo.i64_v1>) -> !vhlo.tensor_v1<7x1x!vhlo.i64_v1>
    %66 = "vhlo.dot_general_v2"(%28, %arg19) <{accumulation_type = #vhlo.type_v1<!vhlo.none_v1>, allow_imprecise_accumulation = #vhlo.type_v1<!vhlo.none_v1>, lhs_batching_dimensions = #vhlo.tensor_v1<dense<> : tensor<0xi64>>, lhs_component_count = #vhlo.type_v1<!vhlo.none_v1>, lhs_contracting_dimensions = #vhlo.tensor_v1<dense<1> : tensor<1xi64>>, lhs_precision_type = #vhlo.type_v1<!vhlo.none_v1>, num_primitive_operations = #vhlo.type_v1<!vhlo.none_v1>, precision_config = #vhlo.array_v1<[#vhlo<precision_v1 DEFAULT>, #vhlo<precision_v1 DEFAULT>]>, rhs_batching_dimensions = #vhlo.tensor_v1<dense<> : tensor<0xi64>>, rhs_component_count = #vhlo.type_v1<!vhlo.none_v1>, rhs_contracting_dimensions = #vhlo.tensor_v1<dense<0> : tensor<1xi64>>, rhs_precision_type = #vhlo.type_v1<!vhlo.none_v1>}> : (!vhlo.tensor_v1<7x3072x!vhlo.bf16_v1>, !vhlo.tensor_v1<3072x1024x!vhlo.bf16_v1>) -> !vhlo.tensor_v1<7x1024x!vhlo.bf16_v1>
    %67 = "vhlo.reshape_v1"(%66) : (!vhlo.tensor_v1<7x1024x!vhlo.bf16_v1>) -> !vhlo.tensor_v1<1x7x8x128x!vhlo.bf16_v1>
    %68 = "vhlo.transpose_v1"(%67) <{permutation = #vhlo.tensor_v1<dense<[0, 2, 1, 3]> : tensor<4xi64>>}> {result_layout = #vhlo.tensor_v1<dense<[3, 1, 2, 0]> : tensor<4xindex>>, xla_shape = #vhlo.string_v1<"bf16[1,8,7,128]{3,1,2,0}">} : (!vhlo.tensor_v1<1x7x8x128x!vhlo.bf16_v1>) -> !vhlo.tensor_v1<1x8x7x128x!vhlo.bf16_v1>
    %69 = "vhlo.convert_v1"(%68) {result_layout = #vhlo.tensor_v1<dense<[3, 1, 2, 0]> : tensor<4xindex>>, xla_shape = #vhlo.string_v1<"f32[1,8,7,128]{3,1,2,0}">} : (!vhlo.tensor_v1<1x8x7x128x!vhlo.bf16_v1>) -> !vhlo.tensor_v1<1x8x7x128x!vhlo.f32_v1>
    %70 = "vhlo.broadcast_in_dim_v1"(%42) <{broadcast_dimensions = #vhlo.tensor_v1<dense<[0, 2, 3]> : tensor<3xi64>>}> : (!vhlo.tensor_v1<1x7x128x!vhlo.f32_v1>) -> !vhlo.tensor_v1<1x8x7x128x!vhlo.f32_v1>
    %71 = "vhlo.multiply_v1"(%69, %70) : (!vhlo.tensor_v1<1x8x7x128x!vhlo.f32_v1>, !vhlo.tensor_v1<1x8x7x128x!vhlo.f32_v1>) -> !vhlo.tensor_v1<1x8x7x128x!vhlo.f32_v1>
    %72 = "vhlo.convert_v1"(%71) : (!vhlo.tensor_v1<1x8x7x128x!vhlo.f32_v1>) -> !vhlo.tensor_v1<1x8x7x128x!vhlo.bf16_v1>
    %73 = "vhlo.slice_v1"(%68) <{limit_indices = #vhlo.tensor_v1<dense<[1, 8, 7, 128]> : tensor<4xi64>>, start_indices = #vhlo.tensor_v1<dense<[0, 0, 0, 64]> : tensor<4xi64>>, strides = #vhlo.tensor_v1<dense<1> : tensor<4xi64>>}> : (!vhlo.tensor_v1<1x8x7x128x!vhlo.bf16_v1>) -> !vhlo.tensor_v1<1x8x7x64x!vhlo.bf16_v1>
    %74 = "vhlo.negate_v1"(%73) : (!vhlo.tensor_v1<1x8x7x64x!vhlo.bf16_v1>) -> !vhlo.tensor_v1<1x8x7x64x!vhlo.bf16_v1>
    %75 = "vhlo.slice_v1"(%68) <{limit_indices = #vhlo.tensor_v1<dense<[1, 8, 7, 64]> : tensor<4xi64>>, start_indices = #vhlo.tensor_v1<dense<0> : tensor<4xi64>>, strides = #vhlo.tensor_v1<dense<1> : tensor<4xi64>>}> : (!vhlo.tensor_v1<1x8x7x128x!vhlo.bf16_v1>) -> !vhlo.tensor_v1<1x8x7x64x!vhlo.bf16_v1>
    %76 = "vhlo.concatenate_v1"(%74, %75) <{dimension = #vhlo.integer_v1<3 : i64>}> : (!vhlo.tensor_v1<1x8x7x64x!vhlo.bf16_v1>, !vhlo.tensor_v1<1x8x7x64x!vhlo.bf16_v1>) -> !vhlo.tensor_v1<1x8x7x128x!vhlo.bf16_v1>
    %77 = "vhlo.convert_v1"(%76) : (!vhlo.tensor_v1<1x8x7x128x!vhlo.bf16_v1>) -> !vhlo.tensor_v1<1x8x7x128x!vhlo.f32_v1>
    %78 = "vhlo.broadcast_in_dim_v1"(%55) <{broadcast_dimensions = #vhlo.tensor_v1<dense<[0, 2, 3]> : tensor<3xi64>>}> : (!vhlo.tensor_v1<1x7x128x!vhlo.f32_v1>) -> !vhlo.tensor_v1<1x8x7x128x!vhlo.f32_v1>
    %79 = "vhlo.multiply_v1"(%77, %78) : (!vhlo.tensor_v1<1x8x7x128x!vhlo.f32_v1>, !vhlo.tensor_v1<1x8x7x128x!vhlo.f32_v1>) -> !vhlo.tensor_v1<1x8x7x128x!vhlo.f32_v1>
    %80 = "vhlo.convert_v1"(%79) : (!vhlo.tensor_v1<1x8x7x128x!vhlo.f32_v1>) -> !vhlo.tensor_v1<1x8x7x128x!vhlo.bf16_v1>
    %81 = "vhlo.add_v1"(%72, %80) : (!vhlo.tensor_v1<1x8x7x128x!vhlo.bf16_v1>, !vhlo.tensor_v1<1x8x7x128x!vhlo.bf16_v1>) -> !vhlo.tensor_v1<1x8x7x128x!vhlo.bf16_v1>
    %82 = "vhlo.scatter_v2"(%arg20, %65, %81) <{index_vector_dim = #vhlo.integer_v1<1 : i64>, indices_are_sorted = #vhlo.bool_v1<false>, input_batching_dims = #vhlo.tensor_v1<dense<> : tensor<0xi64>>, inserted_window_dims = #vhlo.tensor_v1<dense<2> : tensor<1xi64>>, scatter_dims_to_operand_dims = #vhlo.tensor_v1<dense<2> : tensor<1xi64>>, scatter_indices_batching_dims = #vhlo.tensor_v1<dense<> : tensor<0xi64>>, unique_indices = #vhlo.bool_v1<false>, update_window_dims = #vhlo.tensor_v1<dense<[0, 1, 3]> : tensor<3xi64>>}> ({
    ^bb0(%arg32: !vhlo.tensor_v1<!vhlo.bf16_v1>, %arg33: !vhlo.tensor_v1<!vhlo.bf16_v1>):
      "vhlo.return_v1"(%arg33) : (!vhlo.tensor_v1<!vhlo.bf16_v1>) -> ()
    }) : (!vhlo.tensor_v1<1x8x128x128x!vhlo.bf16_v1>, !vhlo.tensor_v1<7x1x!vhlo.i64_v1>, !vhlo.tensor_v1<1x8x7x128x!vhlo.bf16_v1>) -> !vhlo.tensor_v1<1x8x128x128x!vhlo.bf16_v1>
    %83 = "vhlo.broadcast_in_dim_v1"(%82) <{broadcast_dimensions = #vhlo.tensor_v1<dense<[0, 1, 3, 4]> : tensor<4xi64>>}> : (!vhlo.tensor_v1<1x8x128x128x!vhlo.bf16_v1>) -> !vhlo.tensor_v1<1x8x3x128x128x!vhlo.bf16_v1>
    %84 = "vhlo.reshape_v1"(%83) : (!vhlo.tensor_v1<1x8x3x128x128x!vhlo.bf16_v1>) -> !vhlo.tensor_v1<1x24x128x128x!vhlo.bf16_v1>
    %85 = "vhlo.transpose_v1"(%84) <{permutation = #vhlo.tensor_v1<dense<[0, 1, 3, 2]> : tensor<4xi64>>}> {result_layout = #vhlo.tensor_v1<dense<[2, 3, 1, 0]> : tensor<4xindex>>, xla_shape = #vhlo.string_v1<"bf16[1,24,128,128]{2,3,1,0}">} : (!vhlo.tensor_v1<1x24x128x128x!vhlo.bf16_v1>) -> !vhlo.tensor_v1<1x24x128x128x!vhlo.bf16_v1>
    %86 = "vhlo.reshape_v1"(%85) : (!vhlo.tensor_v1<1x24x128x128x!vhlo.bf16_v1>) -> !vhlo.tensor_v1<24x128x128x!vhlo.bf16_v1>
    %87 = "vhlo.dot_general_v2"(%60, %86) <{accumulation_type = #vhlo.type_v1<!vhlo.none_v1>, allow_imprecise_accumulation = #vhlo.type_v1<!vhlo.none_v1>, lhs_batching_dimensions = #vhlo.tensor_v1<dense<0> : tensor<1xi64>>, lhs_component_count = #vhlo.type_v1<!vhlo.none_v1>, lhs_contracting_dimensions = #vhlo.tensor_v1<dense<2> : tensor<1xi64>>, lhs_precision_type = #vhlo.type_v1<!vhlo.none_v1>, num_primitive_operations = #vhlo.type_v1<!vhlo.none_v1>, precision_config = #vhlo.array_v1<[#vhlo<precision_v1 DEFAULT>, #vhlo<precision_v1 DEFAULT>]>, rhs_batching_dimensions = #vhlo.tensor_v1<dense<0> : tensor<1xi64>>, rhs_component_count = #vhlo.type_v1<!vhlo.none_v1>, rhs_contracting_dimensions = #vhlo.tensor_v1<dense<1> : tensor<1xi64>>, rhs_precision_type = #vhlo.type_v1<!vhlo.none_v1>}> : (!vhlo.tensor_v1<24x7x128x!vhlo.bf16_v1>, !vhlo.tensor_v1<24x128x128x!vhlo.bf16_v1>) -> !vhlo.tensor_v1<24x7x128x!vhlo.bf16_v1>
    %88 = "vhlo.reshape_v1"(%87) : (!vhlo.tensor_v1<24x7x128x!vhlo.bf16_v1>) -> !vhlo.tensor_v1<1x24x7x128x!vhlo.bf16_v1>
    %89 = "vhlo.convert_v1"(%88) : (!vhlo.tensor_v1<1x24x7x128x!vhlo.bf16_v1>) -> !vhlo.tensor_v1<1x24x7x128x!vhlo.f32_v1>
    %90 = "vhlo.broadcast_in_dim_v1"(%arg17) <{broadcast_dimensions = #vhlo.tensor_v1<dense<> : tensor<0xi64>>}> : (!vhlo.tensor_v1<!vhlo.f32_v1>) -> !vhlo.tensor_v1<1x24x7x128x!vhlo.f32_v1>
    %91 = "vhlo.multiply_v1"(%89, %90) : (!vhlo.tensor_v1<1x24x7x128x!vhlo.f32_v1>, !vhlo.tensor_v1<1x24x7x128x!vhlo.f32_v1>) -> !vhlo.tensor_v1<1x24x7x128x!vhlo.f32_v1>
    %92 = "vhlo.convert_v1"(%91) : (!vhlo.tensor_v1<1x24x7x128x!vhlo.f32_v1>) -> !vhlo.tensor_v1<1x24x7x128x!vhlo.bf16_v1>
    %93 = "vhlo.reshape_v1"(%arg16) : (!vhlo.tensor_v1<1x1x7x128x!vhlo.bf16_v1>) -> !vhlo.tensor_v1<1x7x128x!vhlo.bf16_v1>
    %94 = "vhlo.broadcast_in_dim_v1"(%93) <{broadcast_dimensions = #vhlo.tensor_v1<dense<[0, 2, 3]> : tensor<3xi64>>}> : (!vhlo.tensor_v1<1x7x128x!vhlo.bf16_v1>) -> !vhlo.tensor_v1<1x24x7x128x!vhlo.bf16_v1>
    %95 = "vhlo.add_v1"(%92, %94) : (!vhlo.tensor_v1<1x24x7x128x!vhlo.bf16_v1>, !vhlo.tensor_v1<1x24x7x128x!vhlo.bf16_v1>) -> !vhlo.tensor_v1<1x24x7x128x!vhlo.bf16_v1>
    %96 = "vhlo.convert_v1"(%95) : (!vhlo.tensor_v1<1x24x7x128x!vhlo.bf16_v1>) -> !vhlo.tensor_v1<1x24x7x128x!vhlo.f32_v1>
    %97 = "vhlo.reduce_v1"(%96, %3) <{dimensions = #vhlo.tensor_v1<dense<3> : tensor<1xi64>>}> ({
    ^bb0(%arg32: !vhlo.tensor_v1<!vhlo.f32_v1>, %arg33: !vhlo.tensor_v1<!vhlo.f32_v1>):
      %284 = "vhlo.maximum_v1"(%arg32, %arg33) : (!vhlo.tensor_v1<!vhlo.f32_v1>, !vhlo.tensor_v1<!vhlo.f32_v1>) -> !vhlo.tensor_v1<!vhlo.f32_v1>
      "vhlo.return_v1"(%284) : (!vhlo.tensor_v1<!vhlo.f32_v1>) -> ()
    }) : (!vhlo.tensor_v1<1x24x7x128x!vhlo.f32_v1>, !vhlo.tensor_v1<!vhlo.f32_v1>) -> !vhlo.tensor_v1<1x24x7x!vhlo.f32_v1>
    %98 = "vhlo.broadcast_in_dim_v1"(%97) <{broadcast_dimensions = #vhlo.tensor_v1<dense<[0, 1, 2]> : tensor<3xi64>>}> : (!vhlo.tensor_v1<1x24x7x!vhlo.f32_v1>) -> !vhlo.tensor_v1<1x24x7x128x!vhlo.f32_v1>
    %99 = "vhlo.subtract_v1"(%96, %98) : (!vhlo.tensor_v1<1x24x7x128x!vhlo.f32_v1>, !vhlo.tensor_v1<1x24x7x128x!vhlo.f32_v1>) -> !vhlo.tensor_v1<1x24x7x128x!vhlo.f32_v1>
    %100 = "vhlo.exponential_v2"(%99) <{result_accuracy = #vhlo.result_accuracy_v1<atol = 0.000000e+00, rtol = 0.000000e+00, ulps = 0, mode = #vhlo<result_accuracy_mode_v1 DEFAULT>>}> : (!vhlo.tensor_v1<1x24x7x128x!vhlo.f32_v1>) -> !vhlo.tensor_v1<1x24x7x128x!vhlo.f32_v1>
    %101 = "vhlo.reduce_v1"(%100, %4) <{dimensions = #vhlo.tensor_v1<dense<3> : tensor<1xi64>>}> ({
    ^bb0(%arg32: !vhlo.tensor_v1<!vhlo.f32_v1>, %arg33: !vhlo.tensor_v1<!vhlo.f32_v1>):
      %284 = "vhlo.add_v1"(%arg32, %arg33) : (!vhlo.tensor_v1<!vhlo.f32_v1>, !vhlo.tensor_v1<!vhlo.f32_v1>) -> !vhlo.tensor_v1<!vhlo.f32_v1>
      "vhlo.return_v1"(%284) : (!vhlo.tensor_v1<!vhlo.f32_v1>) -> ()
    }) : (!vhlo.tensor_v1<1x24x7x128x!vhlo.f32_v1>, !vhlo.tensor_v1<!vhlo.f32_v1>) -> !vhlo.tensor_v1<1x24x7x!vhlo.f32_v1>
    %102 = "vhlo.broadcast_in_dim_v1"(%101) <{broadcast_dimensions = #vhlo.tensor_v1<dense<[0, 1, 2]> : tensor<3xi64>>}> : (!vhlo.tensor_v1<1x24x7x!vhlo.f32_v1>) -> !vhlo.tensor_v1<1x24x7x128x!vhlo.f32_v1>
    %103 = "vhlo.divide_v1"(%100, %102) : (!vhlo.tensor_v1<1x24x7x128x!vhlo.f32_v1>, !vhlo.tensor_v1<1x24x7x128x!vhlo.f32_v1>) -> !vhlo.tensor_v1<1x24x7x128x!vhlo.f32_v1>
    %104 = "vhlo.convert_v1"(%103) : (!vhlo.tensor_v1<1x24x7x128x!vhlo.f32_v1>) -> !vhlo.tensor_v1<1x24x7x128x!vhlo.bf16_v1>
    %105 = "vhlo.reshape_v1"(%104) : (!vhlo.tensor_v1<1x24x7x128x!vhlo.bf16_v1>) -> !vhlo.tensor_v1<24x7x128x!vhlo.bf16_v1>
    %106 = "vhlo.dot_general_v2"(%28, %arg9) <{accumulation_type = #vhlo.type_v1<!vhlo.none_v1>, allow_imprecise_accumulation = #vhlo.type_v1<!vhlo.none_v1>, lhs_batching_dimensions = #vhlo.tensor_v1<dense<> : tensor<0xi64>>, lhs_component_count = #vhlo.type_v1<!vhlo.none_v1>, lhs_contracting_dimensions = #vhlo.tensor_v1<dense<1> : tensor<1xi64>>, lhs_precision_type = #vhlo.type_v1<!vhlo.none_v1>, num_primitive_operations = #vhlo.type_v1<!vhlo.none_v1>, precision_config = #vhlo.array_v1<[#vhlo<precision_v1 DEFAULT>, #vhlo<precision_v1 DEFAULT>]>, rhs_batching_dimensions = #vhlo.tensor_v1<dense<> : tensor<0xi64>>, rhs_component_count = #vhlo.type_v1<!vhlo.none_v1>, rhs_contracting_dimensions = #vhlo.tensor_v1<dense<0> : tensor<1xi64>>, rhs_precision_type = #vhlo.type_v1<!vhlo.none_v1>}> : (!vhlo.tensor_v1<7x3072x!vhlo.bf16_v1>, !vhlo.tensor_v1<3072x1024x!vhlo.bf16_v1>) -> !vhlo.tensor_v1<7x1024x!vhlo.bf16_v1>
    %107 = "vhlo.reshape_v1"(%106) : (!vhlo.tensor_v1<7x1024x!vhlo.bf16_v1>) -> !vhlo.tensor_v1<1x7x8x128x!vhlo.bf16_v1>
    %108 = "vhlo.transpose_v1"(%107) <{permutation = #vhlo.tensor_v1<dense<[0, 2, 1, 3]> : tensor<4xi64>>}> {result_layout = #vhlo.tensor_v1<dense<[3, 1, 2, 0]> : tensor<4xindex>>, xla_shape = #vhlo.string_v1<"bf16[1,8,7,128]{3,1,2,0}">} : (!vhlo.tensor_v1<1x7x8x128x!vhlo.bf16_v1>) -> !vhlo.tensor_v1<1x8x7x128x!vhlo.bf16_v1>
    %109 = "vhlo.scatter_v2"(%arg15, %65, %108) <{index_vector_dim = #vhlo.integer_v1<1 : i64>, indices_are_sorted = #vhlo.bool_v1<false>, input_batching_dims = #vhlo.tensor_v1<dense<> : tensor<0xi64>>, inserted_window_dims = #vhlo.tensor_v1<dense<2> : tensor<1xi64>>, scatter_dims_to_operand_dims = #vhlo.tensor_v1<dense<2> : tensor<1xi64>>, scatter_indices_batching_dims = #vhlo.tensor_v1<dense<> : tensor<0xi64>>, unique_indices = #vhlo.bool_v1<false>, update_window_dims = #vhlo.tensor_v1<dense<[0, 1, 3]> : tensor<3xi64>>}> ({
    ^bb0(%arg32: !vhlo.tensor_v1<!vhlo.bf16_v1>, %arg33: !vhlo.tensor_v1<!vhlo.bf16_v1>):
      "vhlo.return_v1"(%arg33) : (!vhlo.tensor_v1<!vhlo.bf16_v1>) -> ()
    }) : (!vhlo.tensor_v1<1x8x128x128x!vhlo.bf16_v1>, !vhlo.tensor_v1<7x1x!vhlo.i64_v1>, !vhlo.tensor_v1<1x8x7x128x!vhlo.bf16_v1>) -> !vhlo.tensor_v1<1x8x128x128x!vhlo.bf16_v1>
    %110 = "vhlo.broadcast_in_dim_v1"(%109) <{broadcast_dimensions = #vhlo.tensor_v1<dense<[0, 1, 3, 4]> : tensor<4xi64>>}> : (!vhlo.tensor_v1<1x8x128x128x!vhlo.bf16_v1>) -> !vhlo.tensor_v1<1x8x3x128x128x!vhlo.bf16_v1>
    %111 = "vhlo.reshape_v1"(%110) : (!vhlo.tensor_v1<1x8x3x128x128x!vhlo.bf16_v1>) -> !vhlo.tensor_v1<24x128x128x!vhlo.bf16_v1>
    %112 = "vhlo.dot_general_v2"(%105, %111) <{accumulation_type = #vhlo.type_v1<!vhlo.none_v1>, allow_imprecise_accumulation = #vhlo.type_v1<!vhlo.none_v1>, lhs_batching_dimensions = #vhlo.tensor_v1<dense<0> : tensor<1xi64>>, lhs_component_count = #vhlo.type_v1<!vhlo.none_v1>, lhs_contracting_dimensions = #vhlo.tensor_v1<dense<2> : tensor<1xi64>>, lhs_precision_type = #vhlo.type_v1<!vhlo.none_v1>, num_primitive_operations = #vhlo.type_v1<!vhlo.none_v1>, precision_config = #vhlo.array_v1<[#vhlo<precision_v1 DEFAULT>, #vhlo<precision_v1 DEFAULT>]>, rhs_batching_dimensions = #vhlo.tensor_v1<dense<0> : tensor<1xi64>>, rhs_component_count = #vhlo.type_v1<!vhlo.none_v1>, rhs_contracting_dimensions = #vhlo.tensor_v1<dense<1> : tensor<1xi64>>, rhs_precision_type = #vhlo.type_v1<!vhlo.none_v1>}> : (!vhlo.tensor_v1<24x7x128x!vhlo.bf16_v1>, !vhlo.tensor_v1<24x128x128x!vhlo.bf16_v1>) -> !vhlo.tensor_v1<24x7x128x!vhlo.bf16_v1>
    %113 = "vhlo.reshape_v1"(%112) : (!vhlo.tensor_v1<24x7x128x!vhlo.bf16_v1>) -> !vhlo.tensor_v1<1x24x7x128x!vhlo.bf16_v1>
    %114 = "vhlo.transpose_v1"(%113) <{permutation = #vhlo.tensor_v1<dense<[0, 2, 1, 3]> : tensor<4xi64>>}> {result_layout = #vhlo.tensor_v1<dense<[3, 1, 2, 0]> : tensor<4xindex>>, xla_shape = #vhlo.string_v1<"bf16[1,7,24,128]{3,1,2,0}">} : (!vhlo.tensor_v1<1x24x7x128x!vhlo.bf16_v1>) -> !vhlo.tensor_v1<1x7x24x128x!vhlo.bf16_v1>
    %115 = "vhlo.reshape_v1"(%114) : (!vhlo.tensor_v1<1x7x24x128x!vhlo.bf16_v1>) -> !vhlo.tensor_v1<7x3072x!vhlo.bf16_v1>
    %116 = "vhlo.dot_general_v2"(%115, %arg8) <{accumulation_type = #vhlo.type_v1<!vhlo.none_v1>, allow_imprecise_accumulation = #vhlo.type_v1<!vhlo.none_v1>, lhs_batching_dimensions = #vhlo.tensor_v1<dense<> : tensor<0xi64>>, lhs_component_count = #vhlo.type_v1<!vhlo.none_v1>, lhs_contracting_dimensions = #vhlo.tensor_v1<dense<1> : tensor<1xi64>>, lhs_precision_type = #vhlo.type_v1<!vhlo.none_v1>, num_primitive_operations = #vhlo.type_v1<!vhlo.none_v1>, precision_config = #vhlo.array_v1<[#vhlo<precision_v1 DEFAULT>, #vhlo<precision_v1 DEFAULT>]>, rhs_batching_dimensions = #vhlo.tensor_v1<dense<> : tensor<0xi64>>, rhs_component_count = #vhlo.type_v1<!vhlo.none_v1>, rhs_contracting_dimensions = #vhlo.tensor_v1<dense<0> : tensor<1xi64>>, rhs_precision_type = #vhlo.type_v1<!vhlo.none_v1>}> : (!vhlo.tensor_v1<7x3072x!vhlo.bf16_v1>, !vhlo.tensor_v1<3072x3072x!vhlo.bf16_v1>) -> !vhlo.tensor_v1<7x3072x!vhlo.bf16_v1>
    %117 = "vhlo.reshape_v1"(%116) : (!vhlo.tensor_v1<7x3072x!vhlo.bf16_v1>) -> !vhlo.tensor_v1<1x7x3072x!vhlo.bf16_v1>
    %118 = "vhlo.add_v1"(%10, %117) : (!vhlo.tensor_v1<1x7x3072x!vhlo.bf16_v1>, !vhlo.tensor_v1<1x7x3072x!vhlo.bf16_v1>) -> !vhlo.tensor_v1<1x7x3072x!vhlo.bf16_v1>
    %119 = "vhlo.convert_v1"(%arg22) : (!vhlo.tensor_v1<3072x!vhlo.bf16_v1>) -> !vhlo.tensor_v1<3072x!vhlo.f32_v1>
    %120 = "vhlo.broadcast_in_dim_v1"(%119) <{broadcast_dimensions = #vhlo.tensor_v1<dense<2> : tensor<1xi64>>}> : (!vhlo.tensor_v1<3072x!vhlo.f32_v1>) -> !vhlo.tensor_v1<1x7x3072x!vhlo.f32_v1>
    %121 = "vhlo.convert_v1"(%118) : (!vhlo.tensor_v1<1x7x3072x!vhlo.bf16_v1>) -> !vhlo.tensor_v1<1x7x3072x!vhlo.f32_v1>
    %122 = "vhlo.power_v1"(%121, %2) : (!vhlo.tensor_v1<1x7x3072x!vhlo.f32_v1>, !vhlo.tensor_v1<1x7x3072x!vhlo.f32_v1>) -> !vhlo.tensor_v1<1x7x3072x!vhlo.f32_v1>
    %123 = "vhlo.reduce_v1"(%122, %4) <{dimensions = #vhlo.tensor_v1<dense<2> : tensor<1xi64>>}> ({
    ^bb0(%arg32: !vhlo.tensor_v1<!vhlo.f32_v1>, %arg33: !vhlo.tensor_v1<!vhlo.f32_v1>):
      %284 = "vhlo.add_v1"(%arg32, %arg33) : (!vhlo.tensor_v1<!vhlo.f32_v1>, !vhlo.tensor_v1<!vhlo.f32_v1>) -> !vhlo.tensor_v1<!vhlo.f32_v1>
      "vhlo.return_v1"(%284) : (!vhlo.tensor_v1<!vhlo.f32_v1>) -> ()
    }) : (!vhlo.tensor_v1<1x7x3072x!vhlo.f32_v1>, !vhlo.tensor_v1<!vhlo.f32_v1>) -> !vhlo.tensor_v1<1x7x!vhlo.f32_v1>
    %124 = "vhlo.multiply_v1"(%123, %1) : (!vhlo.tensor_v1<1x7x!vhlo.f32_v1>, !vhlo.tensor_v1<1x7x!vhlo.f32_v1>) -> !vhlo.tensor_v1<1x7x!vhlo.f32_v1>
    %125 = "vhlo.reshape_v1"(%124) : (!vhlo.tensor_v1<1x7x!vhlo.f32_v1>) -> !vhlo.tensor_v1<1x7x1x!vhlo.f32_v1>
    %126 = "vhlo.add_v1"(%125, %18) : (!vhlo.tensor_v1<1x7x1x!vhlo.f32_v1>, !vhlo.tensor_v1<1x7x1x!vhlo.f32_v1>) -> !vhlo.tensor_v1<1x7x1x!vhlo.f32_v1>
    %127 = "vhlo.rsqrt_v2"(%126) <{result_accuracy = #vhlo.result_accuracy_v1<atol = 0.000000e+00, rtol = 0.000000e+00, ulps = 0, mode = #vhlo<result_accuracy_mode_v1 DEFAULT>>}> : (!vhlo.tensor_v1<1x7x1x!vhlo.f32_v1>) -> !vhlo.tensor_v1<1x7x1x!vhlo.f32_v1>
    %128 = "vhlo.reshape_v1"(%127) : (!vhlo.tensor_v1<1x7x1x!vhlo.f32_v1>) -> !vhlo.tensor_v1<1x7x!vhlo.f32_v1>
    %129 = "vhlo.broadcast_in_dim_v1"(%128) <{broadcast_dimensions = #vhlo.tensor_v1<dense<[0, 1]> : tensor<2xi64>>}> : (!vhlo.tensor_v1<1x7x!vhlo.f32_v1>) -> !vhlo.tensor_v1<1x7x3072x!vhlo.f32_v1>
    %130 = "vhlo.multiply_v1"(%121, %129) : (!vhlo.tensor_v1<1x7x3072x!vhlo.f32_v1>, !vhlo.tensor_v1<1x7x3072x!vhlo.f32_v1>) -> !vhlo.tensor_v1<1x7x3072x!vhlo.f32_v1>
    %131 = "vhlo.convert_v1"(%130) : (!vhlo.tensor_v1<1x7x3072x!vhlo.f32_v1>) -> !vhlo.tensor_v1<1x7x3072x!vhlo.bf16_v1>
    %132 = "vhlo.convert_v1"(%131) : (!vhlo.tensor_v1<1x7x3072x!vhlo.bf16_v1>) -> !vhlo.tensor_v1<1x7x3072x!vhlo.f32_v1>
    %133 = "vhlo.multiply_v1"(%120, %132) : (!vhlo.tensor_v1<1x7x3072x!vhlo.f32_v1>, !vhlo.tensor_v1<1x7x3072x!vhlo.f32_v1>) -> !vhlo.tensor_v1<1x7x3072x!vhlo.f32_v1>
    %134 = "vhlo.convert_v1"(%133) : (!vhlo.tensor_v1<1x7x3072x!vhlo.f32_v1>) -> !vhlo.tensor_v1<1x7x3072x!vhlo.bf16_v1>
    %135 = "vhlo.reshape_v1"(%134) : (!vhlo.tensor_v1<1x7x3072x!vhlo.bf16_v1>) -> !vhlo.tensor_v1<7x3072x!vhlo.bf16_v1>
    %136 = "vhlo.dot_general_v2"(%135, %arg23) <{accumulation_type = #vhlo.type_v1<!vhlo.none_v1>, allow_imprecise_accumulation = #vhlo.type_v1<!vhlo.none_v1>, lhs_batching_dimensions = #vhlo.tensor_v1<dense<> : tensor<0xi64>>, lhs_component_count = #vhlo.type_v1<!vhlo.none_v1>, lhs_contracting_dimensions = #vhlo.tensor_v1<dense<1> : tensor<1xi64>>, lhs_precision_type = #vhlo.type_v1<!vhlo.none_v1>, num_primitive_operations = #vhlo.type_v1<!vhlo.none_v1>, precision_config = #vhlo.array_v1<[#vhlo<precision_v1 DEFAULT>, #vhlo<precision_v1 DEFAULT>]>, rhs_batching_dimensions = #vhlo.tensor_v1<dense<> : tensor<0xi64>>, rhs_component_count = #vhlo.type_v1<!vhlo.none_v1>, rhs_contracting_dimensions = #vhlo.tensor_v1<dense<0> : tensor<1xi64>>, rhs_precision_type = #vhlo.type_v1<!vhlo.none_v1>}> : (!vhlo.tensor_v1<7x3072x!vhlo.bf16_v1>, !vhlo.tensor_v1<3072x8192x!vhlo.bf16_v1>) -> !vhlo.tensor_v1<7x8192x!vhlo.bf16_v1>
    %137 = "vhlo.reshape_v1"(%136) : (!vhlo.tensor_v1<7x8192x!vhlo.bf16_v1>) -> !vhlo.tensor_v1<1x7x8192x!vhlo.bf16_v1>
    %138 = "vhlo.convert_v1"(%137) : (!vhlo.tensor_v1<1x7x8192x!vhlo.bf16_v1>) -> !vhlo.tensor_v1<1x7x8192x!vhlo.f32_v1>
    %139 = "vhlo.logistic_v2"(%137) <{result_accuracy = #vhlo.result_accuracy_v1<atol = 0.000000e+00, rtol = 0.000000e+00, ulps = 0, mode = #vhlo<result_accuracy_mode_v1 DEFAULT>>}> : (!vhlo.tensor_v1<1x7x8192x!vhlo.bf16_v1>) -> !vhlo.tensor_v1<1x7x8192x!vhlo.bf16_v1>
    %140 = "vhlo.convert_v1"(%139) : (!vhlo.tensor_v1<1x7x8192x!vhlo.bf16_v1>) -> !vhlo.tensor_v1<1x7x8192x!vhlo.f32_v1>
    %141 = "vhlo.multiply_v1"(%138, %140) : (!vhlo.tensor_v1<1x7x8192x!vhlo.f32_v1>, !vhlo.tensor_v1<1x7x8192x!vhlo.f32_v1>) -> !vhlo.tensor_v1<1x7x8192x!vhlo.f32_v1>
    %142 = "vhlo.convert_v1"(%141) : (!vhlo.tensor_v1<1x7x8192x!vhlo.f32_v1>) -> !vhlo.tensor_v1<1x7x8192x!vhlo.bf16_v1>
    %143 = "vhlo.convert_v1"(%142) : (!vhlo.tensor_v1<1x7x8192x!vhlo.bf16_v1>) -> !vhlo.tensor_v1<1x7x8192x!vhlo.f32_v1>
    %144 = "vhlo.dot_general_v2"(%135, %arg7) <{accumulation_type = #vhlo.type_v1<!vhlo.none_v1>, allow_imprecise_accumulation = #vhlo.type_v1<!vhlo.none_v1>, lhs_batching_dimensions = #vhlo.tensor_v1<dense<> : tensor<0xi64>>, lhs_component_count = #vhlo.type_v1<!vhlo.none_v1>, lhs_contracting_dimensions = #vhlo.tensor_v1<dense<1> : tensor<1xi64>>, lhs_precision_type = #vhlo.type_v1<!vhlo.none_v1>, num_primitive_operations = #vhlo.type_v1<!vhlo.none_v1>, precision_config = #vhlo.array_v1<[#vhlo<precision_v1 DEFAULT>, #vhlo<precision_v1 DEFAULT>]>, rhs_batching_dimensions = #vhlo.tensor_v1<dense<> : tensor<0xi64>>, rhs_component_count = #vhlo.type_v1<!vhlo.none_v1>, rhs_contracting_dimensions = #vhlo.tensor_v1<dense<0> : tensor<1xi64>>, rhs_precision_type = #vhlo.type_v1<!vhlo.none_v1>}> : (!vhlo.tensor_v1<7x3072x!vhlo.bf16_v1>, !vhlo.tensor_v1<3072x8192x!vhlo.bf16_v1>) -> !vhlo.tensor_v1<7x8192x!vhlo.bf16_v1>
    %145 = "vhlo.reshape_v1"(%144) : (!vhlo.tensor_v1<7x8192x!vhlo.bf16_v1>) -> !vhlo.tensor_v1<1x7x8192x!vhlo.bf16_v1>
    %146 = "vhlo.convert_v1"(%145) : (!vhlo.tensor_v1<1x7x8192x!vhlo.bf16_v1>) -> !vhlo.tensor_v1<1x7x8192x!vhlo.f32_v1>
    %147 = "vhlo.multiply_v1"(%143, %146) : (!vhlo.tensor_v1<1x7x8192x!vhlo.f32_v1>, !vhlo.tensor_v1<1x7x8192x!vhlo.f32_v1>) -> !vhlo.tensor_v1<1x7x8192x!vhlo.f32_v1>
    %148 = "vhlo.convert_v1"(%147) : (!vhlo.tensor_v1<1x7x8192x!vhlo.f32_v1>) -> !vhlo.tensor_v1<1x7x8192x!vhlo.bf16_v1>
    %149 = "vhlo.reshape_v1"(%148) : (!vhlo.tensor_v1<1x7x8192x!vhlo.bf16_v1>) -> !vhlo.tensor_v1<7x8192x!vhlo.bf16_v1>
    %150 = "vhlo.dot_general_v2"(%149, %arg6) <{accumulation_type = #vhlo.type_v1<!vhlo.none_v1>, allow_imprecise_accumulation = #vhlo.type_v1<!vhlo.none_v1>, lhs_batching_dimensions = #vhlo.tensor_v1<dense<> : tensor<0xi64>>, lhs_component_count = #vhlo.type_v1<!vhlo.none_v1>, lhs_contracting_dimensions = #vhlo.tensor_v1<dense<1> : tensor<1xi64>>, lhs_precision_type = #vhlo.type_v1<!vhlo.none_v1>, num_primitive_operations = #vhlo.type_v1<!vhlo.none_v1>, precision_config = #vhlo.array_v1<[#vhlo<precision_v1 DEFAULT>, #vhlo<precision_v1 DEFAULT>]>, rhs_batching_dimensions = #vhlo.tensor_v1<dense<> : tensor<0xi64>>, rhs_component_count = #vhlo.type_v1<!vhlo.none_v1>, rhs_contracting_dimensions = #vhlo.tensor_v1<dense<0> : tensor<1xi64>>, rhs_precision_type = #vhlo.type_v1<!vhlo.none_v1>}> : (!vhlo.tensor_v1<7x8192x!vhlo.bf16_v1>, !vhlo.tensor_v1<8192x3072x!vhlo.bf16_v1>) -> !vhlo.tensor_v1<7x3072x!vhlo.bf16_v1>
    %151 = "vhlo.reshape_v1"(%150) : (!vhlo.tensor_v1<7x3072x!vhlo.bf16_v1>) -> !vhlo.tensor_v1<1x7x3072x!vhlo.bf16_v1>
    %152 = "vhlo.add_v1"(%118, %151) : (!vhlo.tensor_v1<1x7x3072x!vhlo.bf16_v1>, !vhlo.tensor_v1<1x7x3072x!vhlo.bf16_v1>) -> !vhlo.tensor_v1<1x7x3072x!vhlo.bf16_v1>
    %153 = "vhlo.convert_v1"(%arg24) : (!vhlo.tensor_v1<3072x!vhlo.bf16_v1>) -> !vhlo.tensor_v1<3072x!vhlo.f32_v1>
    %154 = "vhlo.broadcast_in_dim_v1"(%153) <{broadcast_dimensions = #vhlo.tensor_v1<dense<2> : tensor<1xi64>>}> : (!vhlo.tensor_v1<3072x!vhlo.f32_v1>) -> !vhlo.tensor_v1<1x7x3072x!vhlo.f32_v1>
    %155 = "vhlo.convert_v1"(%152) : (!vhlo.tensor_v1<1x7x3072x!vhlo.bf16_v1>) -> !vhlo.tensor_v1<1x7x3072x!vhlo.f32_v1>
    %156 = "vhlo.power_v1"(%155, %2) : (!vhlo.tensor_v1<1x7x3072x!vhlo.f32_v1>, !vhlo.tensor_v1<1x7x3072x!vhlo.f32_v1>) -> !vhlo.tensor_v1<1x7x3072x!vhlo.f32_v1>
    %157 = "vhlo.reduce_v1"(%156, %4) <{dimensions = #vhlo.tensor_v1<dense<2> : tensor<1xi64>>}> ({
    ^bb0(%arg32: !vhlo.tensor_v1<!vhlo.f32_v1>, %arg33: !vhlo.tensor_v1<!vhlo.f32_v1>):
      %284 = "vhlo.add_v1"(%arg32, %arg33) : (!vhlo.tensor_v1<!vhlo.f32_v1>, !vhlo.tensor_v1<!vhlo.f32_v1>) -> !vhlo.tensor_v1<!vhlo.f32_v1>
      "vhlo.return_v1"(%284) : (!vhlo.tensor_v1<!vhlo.f32_v1>) -> ()
    }) : (!vhlo.tensor_v1<1x7x3072x!vhlo.f32_v1>, !vhlo.tensor_v1<!vhlo.f32_v1>) -> !vhlo.tensor_v1<1x7x!vhlo.f32_v1>
    %158 = "vhlo.multiply_v1"(%157, %1) : (!vhlo.tensor_v1<1x7x!vhlo.f32_v1>, !vhlo.tensor_v1<1x7x!vhlo.f32_v1>) -> !vhlo.tensor_v1<1x7x!vhlo.f32_v1>
    %159 = "vhlo.reshape_v1"(%158) : (!vhlo.tensor_v1<1x7x!vhlo.f32_v1>) -> !vhlo.tensor_v1<1x7x1x!vhlo.f32_v1>
    %160 = "vhlo.add_v1"(%159, %18) : (!vhlo.tensor_v1<1x7x1x!vhlo.f32_v1>, !vhlo.tensor_v1<1x7x1x!vhlo.f32_v1>) -> !vhlo.tensor_v1<1x7x1x!vhlo.f32_v1>
    %161 = "vhlo.rsqrt_v2"(%160) <{result_accuracy = #vhlo.result_accuracy_v1<atol = 0.000000e+00, rtol = 0.000000e+00, ulps = 0, mode = #vhlo<result_accuracy_mode_v1 DEFAULT>>}> : (!vhlo.tensor_v1<1x7x1x!vhlo.f32_v1>) -> !vhlo.tensor_v1<1x7x1x!vhlo.f32_v1>
    %162 = "vhlo.reshape_v1"(%161) : (!vhlo.tensor_v1<1x7x1x!vhlo.f32_v1>) -> !vhlo.tensor_v1<1x7x!vhlo.f32_v1>
    %163 = "vhlo.broadcast_in_dim_v1"(%162) <{broadcast_dimensions = #vhlo.tensor_v1<dense<[0, 1]> : tensor<2xi64>>}> : (!vhlo.tensor_v1<1x7x!vhlo.f32_v1>) -> !vhlo.tensor_v1<1x7x3072x!vhlo.f32_v1>
    %164 = "vhlo.multiply_v1"(%155, %163) : (!vhlo.tensor_v1<1x7x3072x!vhlo.f32_v1>, !vhlo.tensor_v1<1x7x3072x!vhlo.f32_v1>) -> !vhlo.tensor_v1<1x7x3072x!vhlo.f32_v1>
    %165 = "vhlo.convert_v1"(%164) : (!vhlo.tensor_v1<1x7x3072x!vhlo.f32_v1>) -> !vhlo.tensor_v1<1x7x3072x!vhlo.bf16_v1>
    %166 = "vhlo.convert_v1"(%165) : (!vhlo.tensor_v1<1x7x3072x!vhlo.bf16_v1>) -> !vhlo.tensor_v1<1x7x3072x!vhlo.f32_v1>
    %167 = "vhlo.multiply_v1"(%154, %166) : (!vhlo.tensor_v1<1x7x3072x!vhlo.f32_v1>, !vhlo.tensor_v1<1x7x3072x!vhlo.f32_v1>) -> !vhlo.tensor_v1<1x7x3072x!vhlo.f32_v1>
    %168 = "vhlo.convert_v1"(%167) : (!vhlo.tensor_v1<1x7x3072x!vhlo.f32_v1>) -> !vhlo.tensor_v1<1x7x3072x!vhlo.bf16_v1>
    %169 = "vhlo.reshape_v1"(%168) : (!vhlo.tensor_v1<1x7x3072x!vhlo.bf16_v1>) -> !vhlo.tensor_v1<7x3072x!vhlo.bf16_v1>
    %170 = "vhlo.dot_general_v2"(%169, %arg28) <{accumulation_type = #vhlo.type_v1<!vhlo.none_v1>, allow_imprecise_accumulation = #vhlo.type_v1<!vhlo.none_v1>, lhs_batching_dimensions = #vhlo.tensor_v1<dense<> : tensor<0xi64>>, lhs_component_count = #vhlo.type_v1<!vhlo.none_v1>, lhs_contracting_dimensions = #vhlo.tensor_v1<dense<1> : tensor<1xi64>>, lhs_precision_type = #vhlo.type_v1<!vhlo.none_v1>, num_primitive_operations = #vhlo.type_v1<!vhlo.none_v1>, precision_config = #vhlo.array_v1<[#vhlo<precision_v1 DEFAULT>, #vhlo<precision_v1 DEFAULT>]>, rhs_batching_dimensions = #vhlo.tensor_v1<dense<> : tensor<0xi64>>, rhs_component_count = #vhlo.type_v1<!vhlo.none_v1>, rhs_contracting_dimensions = #vhlo.tensor_v1<dense<0> : tensor<1xi64>>, rhs_precision_type = #vhlo.type_v1<!vhlo.none_v1>}> : (!vhlo.tensor_v1<7x3072x!vhlo.bf16_v1>, !vhlo.tensor_v1<3072x3072x!vhlo.bf16_v1>) -> !vhlo.tensor_v1<7x3072x!vhlo.bf16_v1>
    %171 = "vhlo.reshape_v1"(%170) : (!vhlo.tensor_v1<7x3072x!vhlo.bf16_v1>) -> !vhlo.tensor_v1<1x7x24x128x!vhlo.bf16_v1>
    %172 = "vhlo.transpose_v1"(%171) <{permutation = #vhlo.tensor_v1<dense<[0, 2, 1, 3]> : tensor<4xi64>>}> {result_layout = #vhlo.tensor_v1<dense<[3, 1, 2, 0]> : tensor<4xindex>>, xla_shape = #vhlo.string_v1<"bf16[1,24,7,128]{3,1,2,0}">} : (!vhlo.tensor_v1<1x7x24x128x!vhlo.bf16_v1>) -> !vhlo.tensor_v1<1x24x7x128x!vhlo.bf16_v1>
    %173 = "vhlo.convert_v1"(%172) {result_layout = #vhlo.tensor_v1<dense<[3, 1, 2, 0]> : tensor<4xindex>>, xla_shape = #vhlo.string_v1<"f32[1,24,7,128]{3,1,2,0}">} : (!vhlo.tensor_v1<1x24x7x128x!vhlo.bf16_v1>) -> !vhlo.tensor_v1<1x24x7x128x!vhlo.f32_v1>
    %174 = "vhlo.multiply_v1"(%173, %43) : (!vhlo.tensor_v1<1x24x7x128x!vhlo.f32_v1>, !vhlo.tensor_v1<1x24x7x128x!vhlo.f32_v1>) -> !vhlo.tensor_v1<1x24x7x128x!vhlo.f32_v1>
    %175 = "vhlo.convert_v1"(%174) : (!vhlo.tensor_v1<1x24x7x128x!vhlo.f32_v1>) -> !vhlo.tensor_v1<1x24x7x128x!vhlo.bf16_v1>
    %176 = "vhlo.slice_v1"(%172) <{limit_indices = #vhlo.tensor_v1<dense<[1, 24, 7, 128]> : tensor<4xi64>>, start_indices = #vhlo.tensor_v1<dense<[0, 0, 0, 64]> : tensor<4xi64>>, strides = #vhlo.tensor_v1<dense<1> : tensor<4xi64>>}> : (!vhlo.tensor_v1<1x24x7x128x!vhlo.bf16_v1>) -> !vhlo.tensor_v1<1x24x7x64x!vhlo.bf16_v1>
    %177 = "vhlo.negate_v1"(%176) : (!vhlo.tensor_v1<1x24x7x64x!vhlo.bf16_v1>) -> !vhlo.tensor_v1<1x24x7x64x!vhlo.bf16_v1>
    %178 = "vhlo.slice_v1"(%172) <{limit_indices = #vhlo.tensor_v1<dense<[1, 24, 7, 64]> : tensor<4xi64>>, start_indices = #vhlo.tensor_v1<dense<0> : tensor<4xi64>>, strides = #vhlo.tensor_v1<dense<1> : tensor<4xi64>>}> : (!vhlo.tensor_v1<1x24x7x128x!vhlo.bf16_v1>) -> !vhlo.tensor_v1<1x24x7x64x!vhlo.bf16_v1>
    %179 = "vhlo.concatenate_v1"(%177, %178) <{dimension = #vhlo.integer_v1<3 : i64>}> : (!vhlo.tensor_v1<1x24x7x64x!vhlo.bf16_v1>, !vhlo.tensor_v1<1x24x7x64x!vhlo.bf16_v1>) -> !vhlo.tensor_v1<1x24x7x128x!vhlo.bf16_v1>
    %180 = "vhlo.convert_v1"(%179) : (!vhlo.tensor_v1<1x24x7x128x!vhlo.bf16_v1>) -> !vhlo.tensor_v1<1x24x7x128x!vhlo.f32_v1>
    %181 = "vhlo.multiply_v1"(%180, %56) : (!vhlo.tensor_v1<1x24x7x128x!vhlo.f32_v1>, !vhlo.tensor_v1<1x24x7x128x!vhlo.f32_v1>) -> !vhlo.tensor_v1<1x24x7x128x!vhlo.f32_v1>
    %182 = "vhlo.convert_v1"(%181) : (!vhlo.tensor_v1<1x24x7x128x!vhlo.f32_v1>) -> !vhlo.tensor_v1<1x24x7x128x!vhlo.bf16_v1>
    %183 = "vhlo.add_v1"(%175, %182) : (!vhlo.tensor_v1<1x24x7x128x!vhlo.bf16_v1>, !vhlo.tensor_v1<1x24x7x128x!vhlo.bf16_v1>) -> !vhlo.tensor_v1<1x24x7x128x!vhlo.bf16_v1>
    %184 = "vhlo.reshape_v1"(%183) : (!vhlo.tensor_v1<1x24x7x128x!vhlo.bf16_v1>) -> !vhlo.tensor_v1<24x7x128x!vhlo.bf16_v1>
    %185 = "vhlo.dot_general_v2"(%169, %arg26) <{accumulation_type = #vhlo.type_v1<!vhlo.none_v1>, allow_imprecise_accumulation = #vhlo.type_v1<!vhlo.none_v1>, lhs_batching_dimensions = #vhlo.tensor_v1<dense<> : tensor<0xi64>>, lhs_component_count = #vhlo.type_v1<!vhlo.none_v1>, lhs_contracting_dimensions = #vhlo.tensor_v1<dense<1> : tensor<1xi64>>, lhs_precision_type = #vhlo.type_v1<!vhlo.none_v1>, num_primitive_operations = #vhlo.type_v1<!vhlo.none_v1>, precision_config = #vhlo.array_v1<[#vhlo<precision_v1 DEFAULT>, #vhlo<precision_v1 DEFAULT>]>, rhs_batching_dimensions = #vhlo.tensor_v1<dense<> : tensor<0xi64>>, rhs_component_count = #vhlo.type_v1<!vhlo.none_v1>, rhs_contracting_dimensions = #vhlo.tensor_v1<dense<0> : tensor<1xi64>>, rhs_precision_type = #vhlo.type_v1<!vhlo.none_v1>}> : (!vhlo.tensor_v1<7x3072x!vhlo.bf16_v1>, !vhlo.tensor_v1<3072x1024x!vhlo.bf16_v1>) -> !vhlo.tensor_v1<7x1024x!vhlo.bf16_v1>
    %186 = "vhlo.reshape_v1"(%185) : (!vhlo.tensor_v1<7x1024x!vhlo.bf16_v1>) -> !vhlo.tensor_v1<1x7x8x128x!vhlo.bf16_v1>
    %187 = "vhlo.transpose_v1"(%186) <{permutation = #vhlo.tensor_v1<dense<[0, 2, 1, 3]> : tensor<4xi64>>}> {result_layout = #vhlo.tensor_v1<dense<[3, 1, 2, 0]> : tensor<4xindex>>, xla_shape = #vhlo.string_v1<"bf16[1,8,7,128]{3,1,2,0}">} : (!vhlo.tensor_v1<1x7x8x128x!vhlo.bf16_v1>) -> !vhlo.tensor_v1<1x8x7x128x!vhlo.bf16_v1>
    %188 = "vhlo.convert_v1"(%187) {result_layout = #vhlo.tensor_v1<dense<[3, 1, 2, 0]> : tensor<4xindex>>, xla_shape = #vhlo.string_v1<"f32[1,8,7,128]{3,1,2,0}">} : (!vhlo.tensor_v1<1x8x7x128x!vhlo.bf16_v1>) -> !vhlo.tensor_v1<1x8x7x128x!vhlo.f32_v1>
    %189 = "vhlo.multiply_v1"(%188, %70) : (!vhlo.tensor_v1<1x8x7x128x!vhlo.f32_v1>, !vhlo.tensor_v1<1x8x7x128x!vhlo.f32_v1>) -> !vhlo.tensor_v1<1x8x7x128x!vhlo.f32_v1>
    %190 = "vhlo.convert_v1"(%189) : (!vhlo.tensor_v1<1x8x7x128x!vhlo.f32_v1>) -> !vhlo.tensor_v1<1x8x7x128x!vhlo.bf16_v1>
    %191 = "vhlo.slice_v1"(%187) <{limit_indices = #vhlo.tensor_v1<dense<[1, 8, 7, 128]> : tensor<4xi64>>, start_indices = #vhlo.tensor_v1<dense<[0, 0, 0, 64]> : tensor<4xi64>>, strides = #vhlo.tensor_v1<dense<1> : tensor<4xi64>>}> : (!vhlo.tensor_v1<1x8x7x128x!vhlo.bf16_v1>) -> !vhlo.tensor_v1<1x8x7x64x!vhlo.bf16_v1>
    %192 = "vhlo.negate_v1"(%191) : (!vhlo.tensor_v1<1x8x7x64x!vhlo.bf16_v1>) -> !vhlo.tensor_v1<1x8x7x64x!vhlo.bf16_v1>
    %193 = "vhlo.slice_v1"(%187) <{limit_indices = #vhlo.tensor_v1<dense<[1, 8, 7, 64]> : tensor<4xi64>>, start_indices = #vhlo.tensor_v1<dense<0> : tensor<4xi64>>, strides = #vhlo.tensor_v1<dense<1> : tensor<4xi64>>}> : (!vhlo.tensor_v1<1x8x7x128x!vhlo.bf16_v1>) -> !vhlo.tensor_v1<1x8x7x64x!vhlo.bf16_v1>
    %194 = "vhlo.concatenate_v1"(%192, %193) <{dimension = #vhlo.integer_v1<3 : i64>}> : (!vhlo.tensor_v1<1x8x7x64x!vhlo.bf16_v1>, !vhlo.tensor_v1<1x8x7x64x!vhlo.bf16_v1>) -> !vhlo.tensor_v1<1x8x7x128x!vhlo.bf16_v1>
    %195 = "vhlo.convert_v1"(%194) : (!vhlo.tensor_v1<1x8x7x128x!vhlo.bf16_v1>) -> !vhlo.tensor_v1<1x8x7x128x!vhlo.f32_v1>
    %196 = "vhlo.multiply_v1"(%195, %78) : (!vhlo.tensor_v1<1x8x7x128x!vhlo.f32_v1>, !vhlo.tensor_v1<1x8x7x128x!vhlo.f32_v1>) -> !vhlo.tensor_v1<1x8x7x128x!vhlo.f32_v1>
    %197 = "vhlo.convert_v1"(%196) : (!vhlo.tensor_v1<1x8x7x128x!vhlo.f32_v1>) -> !vhlo.tensor_v1<1x8x7x128x!vhlo.bf16_v1>
    %198 = "vhlo.add_v1"(%190, %197) : (!vhlo.tensor_v1<1x8x7x128x!vhlo.bf16_v1>, !vhlo.tensor_v1<1x8x7x128x!vhlo.bf16_v1>) -> !vhlo.tensor_v1<1x8x7x128x!vhlo.bf16_v1>
    %199 = "vhlo.scatter_v2"(%arg27, %65, %198) <{index_vector_dim = #vhlo.integer_v1<1 : i64>, indices_are_sorted = #vhlo.bool_v1<false>, input_batching_dims = #vhlo.tensor_v1<dense<> : tensor<0xi64>>, inserted_window_dims = #vhlo.tensor_v1<dense<2> : tensor<1xi64>>, scatter_dims_to_operand_dims = #vhlo.tensor_v1<dense<2> : tensor<1xi64>>, scatter_indices_batching_dims = #vhlo.tensor_v1<dense<> : tensor<0xi64>>, unique_indices = #vhlo.bool_v1<false>, update_window_dims = #vhlo.tensor_v1<dense<[0, 1, 3]> : tensor<3xi64>>}> ({
    ^bb0(%arg32: !vhlo.tensor_v1<!vhlo.bf16_v1>, %arg33: !vhlo.tensor_v1<!vhlo.bf16_v1>):
      "vhlo.return_v1"(%arg33) : (!vhlo.tensor_v1<!vhlo.bf16_v1>) -> ()
    }) : (!vhlo.tensor_v1<1x8x128x128x!vhlo.bf16_v1>, !vhlo.tensor_v1<7x1x!vhlo.i64_v1>, !vhlo.tensor_v1<1x8x7x128x!vhlo.bf16_v1>) -> !vhlo.tensor_v1<1x8x128x128x!vhlo.bf16_v1>
    %200 = "vhlo.broadcast_in_dim_v1"(%199) <{broadcast_dimensions = #vhlo.tensor_v1<dense<[0, 1, 3, 4]> : tensor<4xi64>>}> : (!vhlo.tensor_v1<1x8x128x128x!vhlo.bf16_v1>) -> !vhlo.tensor_v1<1x8x3x128x128x!vhlo.bf16_v1>
    %201 = "vhlo.reshape_v1"(%200) : (!vhlo.tensor_v1<1x8x3x128x128x!vhlo.bf16_v1>) -> !vhlo.tensor_v1<1x24x128x128x!vhlo.bf16_v1>
    %202 = "vhlo.transpose_v1"(%201) <{permutation = #vhlo.tensor_v1<dense<[0, 1, 3, 2]> : tensor<4xi64>>}> {result_layout = #vhlo.tensor_v1<dense<[2, 3, 1, 0]> : tensor<4xindex>>, xla_shape = #vhlo.string_v1<"bf16[1,24,128,128]{2,3,1,0}">} : (!vhlo.tensor_v1<1x24x128x128x!vhlo.bf16_v1>) -> !vhlo.tensor_v1<1x24x128x128x!vhlo.bf16_v1>
    %203 = "vhlo.reshape_v1"(%202) : (!vhlo.tensor_v1<1x24x128x128x!vhlo.bf16_v1>) -> !vhlo.tensor_v1<24x128x128x!vhlo.bf16_v1>
    %204 = "vhlo.dot_general_v2"(%184, %203) <{accumulation_type = #vhlo.type_v1<!vhlo.none_v1>, allow_imprecise_accumulation = #vhlo.type_v1<!vhlo.none_v1>, lhs_batching_dimensions = #vhlo.tensor_v1<dense<0> : tensor<1xi64>>, lhs_component_count = #vhlo.type_v1<!vhlo.none_v1>, lhs_contracting_dimensions = #vhlo.tensor_v1<dense<2> : tensor<1xi64>>, lhs_precision_type = #vhlo.type_v1<!vhlo.none_v1>, num_primitive_operations = #vhlo.type_v1<!vhlo.none_v1>, precision_config = #vhlo.array_v1<[#vhlo<precision_v1 DEFAULT>, #vhlo<precision_v1 DEFAULT>]>, rhs_batching_dimensions = #vhlo.tensor_v1<dense<0> : tensor<1xi64>>, rhs_component_count = #vhlo.type_v1<!vhlo.none_v1>, rhs_contracting_dimensions = #vhlo.tensor_v1<dense<1> : tensor<1xi64>>, rhs_precision_type = #vhlo.type_v1<!vhlo.none_v1>}> : (!vhlo.tensor_v1<24x7x128x!vhlo.bf16_v1>, !vhlo.tensor_v1<24x128x128x!vhlo.bf16_v1>) -> !vhlo.tensor_v1<24x7x128x!vhlo.bf16_v1>
    %205 = "vhlo.reshape_v1"(%204) : (!vhlo.tensor_v1<24x7x128x!vhlo.bf16_v1>) -> !vhlo.tensor_v1<1x24x7x128x!vhlo.bf16_v1>
    %206 = "vhlo.convert_v1"(%205) : (!vhlo.tensor_v1<1x24x7x128x!vhlo.bf16_v1>) -> !vhlo.tensor_v1<1x24x7x128x!vhlo.f32_v1>
    %207 = "vhlo.multiply_v1"(%206, %90) : (!vhlo.tensor_v1<1x24x7x128x!vhlo.f32_v1>, !vhlo.tensor_v1<1x24x7x128x!vhlo.f32_v1>) -> !vhlo.tensor_v1<1x24x7x128x!vhlo.f32_v1>
    %208 = "vhlo.convert_v1"(%207) : (!vhlo.tensor_v1<1x24x7x128x!vhlo.f32_v1>) -> !vhlo.tensor_v1<1x24x7x128x!vhlo.bf16_v1>
    %209 = "vhlo.add_v1"(%208, %94) : (!vhlo.tensor_v1<1x24x7x128x!vhlo.bf16_v1>, !vhlo.tensor_v1<1x24x7x128x!vhlo.bf16_v1>) -> !vhlo.tensor_v1<1x24x7x128x!vhlo.bf16_v1>
    %210 = "vhlo.convert_v1"(%209) : (!vhlo.tensor_v1<1x24x7x128x!vhlo.bf16_v1>) -> !vhlo.tensor_v1<1x24x7x128x!vhlo.f32_v1>
    %211 = "vhlo.reduce_v1"(%210, %3) <{dimensions = #vhlo.tensor_v1<dense<3> : tensor<1xi64>>}> ({
    ^bb0(%arg32: !vhlo.tensor_v1<!vhlo.f32_v1>, %arg33: !vhlo.tensor_v1<!vhlo.f32_v1>):
      %284 = "vhlo.maximum_v1"(%arg32, %arg33) : (!vhlo.tensor_v1<!vhlo.f32_v1>, !vhlo.tensor_v1<!vhlo.f32_v1>) -> !vhlo.tensor_v1<!vhlo.f32_v1>
      "vhlo.return_v1"(%284) : (!vhlo.tensor_v1<!vhlo.f32_v1>) -> ()
    }) : (!vhlo.tensor_v1<1x24x7x128x!vhlo.f32_v1>, !vhlo.tensor_v1<!vhlo.f32_v1>) -> !vhlo.tensor_v1<1x24x7x!vhlo.f32_v1>
    %212 = "vhlo.broadcast_in_dim_v1"(%211) <{broadcast_dimensions = #vhlo.tensor_v1<dense<[0, 1, 2]> : tensor<3xi64>>}> : (!vhlo.tensor_v1<1x24x7x!vhlo.f32_v1>) -> !vhlo.tensor_v1<1x24x7x128x!vhlo.f32_v1>
    %213 = "vhlo.subtract_v1"(%210, %212) : (!vhlo.tensor_v1<1x24x7x128x!vhlo.f32_v1>, !vhlo.tensor_v1<1x24x7x128x!vhlo.f32_v1>) -> !vhlo.tensor_v1<1x24x7x128x!vhlo.f32_v1>
    %214 = "vhlo.exponential_v2"(%213) <{result_accuracy = #vhlo.result_accuracy_v1<atol = 0.000000e+00, rtol = 0.000000e+00, ulps = 0, mode = #vhlo<result_accuracy_mode_v1 DEFAULT>>}> : (!vhlo.tensor_v1<1x24x7x128x!vhlo.f32_v1>) -> !vhlo.tensor_v1<1x24x7x128x!vhlo.f32_v1>
    %215 = "vhlo.reduce_v1"(%214, %4) <{dimensions = #vhlo.tensor_v1<dense<3> : tensor<1xi64>>}> ({
    ^bb0(%arg32: !vhlo.tensor_v1<!vhlo.f32_v1>, %arg33: !vhlo.tensor_v1<!vhlo.f32_v1>):
      %284 = "vhlo.add_v1"(%arg32, %arg33) : (!vhlo.tensor_v1<!vhlo.f32_v1>, !vhlo.tensor_v1<!vhlo.f32_v1>) -> !vhlo.tensor_v1<!vhlo.f32_v1>
      "vhlo.return_v1"(%284) : (!vhlo.tensor_v1<!vhlo.f32_v1>) -> ()
    }) : (!vhlo.tensor_v1<1x24x7x128x!vhlo.f32_v1>, !vhlo.tensor_v1<!vhlo.f32_v1>) -> !vhlo.tensor_v1<1x24x7x!vhlo.f32_v1>
    %216 = "vhlo.broadcast_in_dim_v1"(%215) <{broadcast_dimensions = #vhlo.tensor_v1<dense<[0, 1, 2]> : tensor<3xi64>>}> : (!vhlo.tensor_v1<1x24x7x!vhlo.f32_v1>) -> !vhlo.tensor_v1<1x24x7x128x!vhlo.f32_v1>
    %217 = "vhlo.divide_v1"(%214, %216) : (!vhlo.tensor_v1<1x24x7x128x!vhlo.f32_v1>, !vhlo.tensor_v1<1x24x7x128x!vhlo.f32_v1>) -> !vhlo.tensor_v1<1x24x7x128x!vhlo.f32_v1>
    %218 = "vhlo.convert_v1"(%217) : (!vhlo.tensor_v1<1x24x7x128x!vhlo.f32_v1>) -> !vhlo.tensor_v1<1x24x7x128x!vhlo.bf16_v1>
    %219 = "vhlo.reshape_v1"(%218) : (!vhlo.tensor_v1<1x24x7x128x!vhlo.bf16_v1>) -> !vhlo.tensor_v1<24x7x128x!vhlo.bf16_v1>
    %220 = "vhlo.dot_general_v2"(%169, %arg5) <{accumulation_type = #vhlo.type_v1<!vhlo.none_v1>, allow_imprecise_accumulation = #vhlo.type_v1<!vhlo.none_v1>, lhs_batching_dimensions = #vhlo.tensor_v1<dense<> : tensor<0xi64>>, lhs_component_count = #vhlo.type_v1<!vhlo.none_v1>, lhs_contracting_dimensions = #vhlo.tensor_v1<dense<1> : tensor<1xi64>>, lhs_precision_type = #vhlo.type_v1<!vhlo.none_v1>, num_primitive_operations = #vhlo.type_v1<!vhlo.none_v1>, precision_config = #vhlo.array_v1<[#vhlo<precision_v1 DEFAULT>, #vhlo<precision_v1 DEFAULT>]>, rhs_batching_dimensions = #vhlo.tensor_v1<dense<> : tensor<0xi64>>, rhs_component_count = #vhlo.type_v1<!vhlo.none_v1>, rhs_contracting_dimensions = #vhlo.tensor_v1<dense<0> : tensor<1xi64>>, rhs_precision_type = #vhlo.type_v1<!vhlo.none_v1>}> : (!vhlo.tensor_v1<7x3072x!vhlo.bf16_v1>, !vhlo.tensor_v1<3072x1024x!vhlo.bf16_v1>) -> !vhlo.tensor_v1<7x1024x!vhlo.bf16_v1>
    %221 = "vhlo.reshape_v1"(%220) : (!vhlo.tensor_v1<7x1024x!vhlo.bf16_v1>) -> !vhlo.tensor_v1<1x7x8x128x!vhlo.bf16_v1>
    %222 = "vhlo.transpose_v1"(%221) <{permutation = #vhlo.tensor_v1<dense<[0, 2, 1, 3]> : tensor<4xi64>>}> {result_layout = #vhlo.tensor_v1<dense<[3, 1, 2, 0]> : tensor<4xindex>>, xla_shape = #vhlo.string_v1<"bf16[1,8,7,128]{3,1,2,0}">} : (!vhlo.tensor_v1<1x7x8x128x!vhlo.bf16_v1>) -> !vhlo.tensor_v1<1x8x7x128x!vhlo.bf16_v1>
    %223 = "vhlo.scatter_v2"(%arg25, %65, %222) <{index_vector_dim = #vhlo.integer_v1<1 : i64>, indices_are_sorted = #vhlo.bool_v1<false>, input_batching_dims = #vhlo.tensor_v1<dense<> : tensor<0xi64>>, inserted_window_dims = #vhlo.tensor_v1<dense<2> : tensor<1xi64>>, scatter_dims_to_operand_dims = #vhlo.tensor_v1<dense<2> : tensor<1xi64>>, scatter_indices_batching_dims = #vhlo.tensor_v1<dense<> : tensor<0xi64>>, unique_indices = #vhlo.bool_v1<false>, update_window_dims = #vhlo.tensor_v1<dense<[0, 1, 3]> : tensor<3xi64>>}> ({
    ^bb0(%arg32: !vhlo.tensor_v1<!vhlo.bf16_v1>, %arg33: !vhlo.tensor_v1<!vhlo.bf16_v1>):
      "vhlo.return_v1"(%arg33) : (!vhlo.tensor_v1<!vhlo.bf16_v1>) -> ()
    }) : (!vhlo.tensor_v1<1x8x128x128x!vhlo.bf16_v1>, !vhlo.tensor_v1<7x1x!vhlo.i64_v1>, !vhlo.tensor_v1<1x8x7x128x!vhlo.bf16_v1>) -> !vhlo.tensor_v1<1x8x128x128x!vhlo.bf16_v1>
    %224 = "vhlo.broadcast_in_dim_v1"(%223) <{broadcast_dimensions = #vhlo.tensor_v1<dense<[0, 1, 3, 4]> : tensor<4xi64>>}> : (!vhlo.tensor_v1<1x8x128x128x!vhlo.bf16_v1>) -> !vhlo.tensor_v1<1x8x3x128x128x!vhlo.bf16_v1>
    %225 = "vhlo.reshape_v1"(%224) : (!vhlo.tensor_v1<1x8x3x128x128x!vhlo.bf16_v1>) -> !vhlo.tensor_v1<24x128x128x!vhlo.bf16_v1>
    %226 = "vhlo.dot_general_v2"(%219, %225) <{accumulation_type = #vhlo.type_v1<!vhlo.none_v1>, allow_imprecise_accumulation = #vhlo.type_v1<!vhlo.none_v1>, lhs_batching_dimensions = #vhlo.tensor_v1<dense<0> : tensor<1xi64>>, lhs_component_count = #vhlo.type_v1<!vhlo.none_v1>, lhs_contracting_dimensions = #vhlo.tensor_v1<dense<2> : tensor<1xi64>>, lhs_precision_type = #vhlo.type_v1<!vhlo.none_v1>, num_primitive_operations = #vhlo.type_v1<!vhlo.none_v1>, precision_config = #vhlo.array_v1<[#vhlo<precision_v1 DEFAULT>, #vhlo<precision_v1 DEFAULT>]>, rhs_batching_dimensions = #vhlo.tensor_v1<dense<0> : tensor<1xi64>>, rhs_component_count = #vhlo.type_v1<!vhlo.none_v1>, rhs_contracting_dimensions = #vhlo.tensor_v1<dense<1> : tensor<1xi64>>, rhs_precision_type = #vhlo.type_v1<!vhlo.none_v1>}> : (!vhlo.tensor_v1<24x7x128x!vhlo.bf16_v1>, !vhlo.tensor_v1<24x128x128x!vhlo.bf16_v1>) -> !vhlo.tensor_v1<24x7x128x!vhlo.bf16_v1>
    %227 = "vhlo.reshape_v1"(%226) : (!vhlo.tensor_v1<24x7x128x!vhlo.bf16_v1>) -> !vhlo.tensor_v1<1x24x7x128x!vhlo.bf16_v1>
    %228 = "vhlo.transpose_v1"(%227) <{permutation = #vhlo.tensor_v1<dense<[0, 2, 1, 3]> : tensor<4xi64>>}> {result_layout = #vhlo.tensor_v1<dense<[3, 1, 2, 0]> : tensor<4xindex>>, xla_shape = #vhlo.string_v1<"bf16[1,7,24,128]{3,1,2,0}">} : (!vhlo.tensor_v1<1x24x7x128x!vhlo.bf16_v1>) -> !vhlo.tensor_v1<1x7x24x128x!vhlo.bf16_v1>
    %229 = "vhlo.reshape_v1"(%228) : (!vhlo.tensor_v1<1x7x24x128x!vhlo.bf16_v1>) -> !vhlo.tensor_v1<7x3072x!vhlo.bf16_v1>
    %230 = "vhlo.dot_general_v2"(%229, %arg4) <{accumulation_type = #vhlo.type_v1<!vhlo.none_v1>, allow_imprecise_accumulation = #vhlo.type_v1<!vhlo.none_v1>, lhs_batching_dimensions = #vhlo.tensor_v1<dense<> : tensor<0xi64>>, lhs_component_count = #vhlo.type_v1<!vhlo.none_v1>, lhs_contracting_dimensions = #vhlo.tensor_v1<dense<1> : tensor<1xi64>>, lhs_precision_type = #vhlo.type_v1<!vhlo.none_v1>, num_primitive_operations = #vhlo.type_v1<!vhlo.none_v1>, precision_config = #vhlo.array_v1<[#vhlo<precision_v1 DEFAULT>, #vhlo<precision_v1 DEFAULT>]>, rhs_batching_dimensions = #vhlo.tensor_v1<dense<> : tensor<0xi64>>, rhs_component_count = #vhlo.type_v1<!vhlo.none_v1>, rhs_contracting_dimensions = #vhlo.tensor_v1<dense<0> : tensor<1xi64>>, rhs_precision_type = #vhlo.type_v1<!vhlo.none_v1>}> : (!vhlo.tensor_v1<7x3072x!vhlo.bf16_v1>, !vhlo.tensor_v1<3072x3072x!vhlo.bf16_v1>) -> !vhlo.tensor_v1<7x3072x!vhlo.bf16_v1>
    %231 = "vhlo.reshape_v1"(%230) : (!vhlo.tensor_v1<7x3072x!vhlo.bf16_v1>) -> !vhlo.tensor_v1<1x7x3072x!vhlo.bf16_v1>
    %232 = "vhlo.add_v1"(%152, %231) : (!vhlo.tensor_v1<1x7x3072x!vhlo.bf16_v1>, !vhlo.tensor_v1<1x7x3072x!vhlo.bf16_v1>) -> !vhlo.tensor_v1<1x7x3072x!vhlo.bf16_v1>
    %233 = "vhlo.convert_v1"(%arg29) : (!vhlo.tensor_v1<3072x!vhlo.bf16_v1>) -> !vhlo.tensor_v1<3072x!vhlo.f32_v1>
    %234 = "vhlo.broadcast_in_dim_v1"(%233) <{broadcast_dimensions = #vhlo.tensor_v1<dense<2> : tensor<1xi64>>}> : (!vhlo.tensor_v1<3072x!vhlo.f32_v1>) -> !vhlo.tensor_v1<1x7x3072x!vhlo.f32_v1>
    %235 = "vhlo.convert_v1"(%232) : (!vhlo.tensor_v1<1x7x3072x!vhlo.bf16_v1>) -> !vhlo.tensor_v1<1x7x3072x!vhlo.f32_v1>
    %236 = "vhlo.power_v1"(%235, %2) : (!vhlo.tensor_v1<1x7x3072x!vhlo.f32_v1>, !vhlo.tensor_v1<1x7x3072x!vhlo.f32_v1>) -> !vhlo.tensor_v1<1x7x3072x!vhlo.f32_v1>
    %237 = "vhlo.reduce_v1"(%236, %4) <{dimensions = #vhlo.tensor_v1<dense<2> : tensor<1xi64>>}> ({
    ^bb0(%arg32: !vhlo.tensor_v1<!vhlo.f32_v1>, %arg33: !vhlo.tensor_v1<!vhlo.f32_v1>):
      %284 = "vhlo.add_v1"(%arg32, %arg33) : (!vhlo.tensor_v1<!vhlo.f32_v1>, !vhlo.tensor_v1<!vhlo.f32_v1>) -> !vhlo.tensor_v1<!vhlo.f32_v1>
      "vhlo.return_v1"(%284) : (!vhlo.tensor_v1<!vhlo.f32_v1>) -> ()
    }) : (!vhlo.tensor_v1<1x7x3072x!vhlo.f32_v1>, !vhlo.tensor_v1<!vhlo.f32_v1>) -> !vhlo.tensor_v1<1x7x!vhlo.f32_v1>
    %238 = "vhlo.multiply_v1"(%237, %1) : (!vhlo.tensor_v1<1x7x!vhlo.f32_v1>, !vhlo.tensor_v1<1x7x!vhlo.f32_v1>) -> !vhlo.tensor_v1<1x7x!vhlo.f32_v1>
    %239 = "vhlo.reshape_v1"(%238) : (!vhlo.tensor_v1<1x7x!vhlo.f32_v1>) -> !vhlo.tensor_v1<1x7x1x!vhlo.f32_v1>
    %240 = "vhlo.add_v1"(%239, %18) : (!vhlo.tensor_v1<1x7x1x!vhlo.f32_v1>, !vhlo.tensor_v1<1x7x1x!vhlo.f32_v1>) -> !vhlo.tensor_v1<1x7x1x!vhlo.f32_v1>
    %241 = "vhlo.rsqrt_v2"(%240) <{result_accuracy = #vhlo.result_accuracy_v1<atol = 0.000000e+00, rtol = 0.000000e+00, ulps = 0, mode = #vhlo<result_accuracy_mode_v1 DEFAULT>>}> : (!vhlo.tensor_v1<1x7x1x!vhlo.f32_v1>) -> !vhlo.tensor_v1<1x7x1x!vhlo.f32_v1>
    %242 = "vhlo.reshape_v1"(%241) : (!vhlo.tensor_v1<1x7x1x!vhlo.f32_v1>) -> !vhlo.tensor_v1<1x7x!vhlo.f32_v1>
    %243 = "vhlo.broadcast_in_dim_v1"(%242) <{broadcast_dimensions = #vhlo.tensor_v1<dense<[0, 1]> : tensor<2xi64>>}> : (!vhlo.tensor_v1<1x7x!vhlo.f32_v1>) -> !vhlo.tensor_v1<1x7x3072x!vhlo.f32_v1>
    %244 = "vhlo.multiply_v1"(%235, %243) : (!vhlo.tensor_v1<1x7x3072x!vhlo.f32_v1>, !vhlo.tensor_v1<1x7x3072x!vhlo.f32_v1>) -> !vhlo.tensor_v1<1x7x3072x!vhlo.f32_v1>
    %245 = "vhlo.convert_v1"(%244) : (!vhlo.tensor_v1<1x7x3072x!vhlo.f32_v1>) -> !vhlo.tensor_v1<1x7x3072x!vhlo.bf16_v1>
    %246 = "vhlo.convert_v1"(%245) : (!vhlo.tensor_v1<1x7x3072x!vhlo.bf16_v1>) -> !vhlo.tensor_v1<1x7x3072x!vhlo.f32_v1>
    %247 = "vhlo.multiply_v1"(%234, %246) : (!vhlo.tensor_v1<1x7x3072x!vhlo.f32_v1>, !vhlo.tensor_v1<1x7x3072x!vhlo.f32_v1>) -> !vhlo.tensor_v1<1x7x3072x!vhlo.f32_v1>
    %248 = "vhlo.convert_v1"(%247) : (!vhlo.tensor_v1<1x7x3072x!vhlo.f32_v1>) -> !vhlo.tensor_v1<1x7x3072x!vhlo.bf16_v1>
    %249 = "vhlo.reshape_v1"(%248) : (!vhlo.tensor_v1<1x7x3072x!vhlo.bf16_v1>) -> !vhlo.tensor_v1<7x3072x!vhlo.bf16_v1>
    %250 = "vhlo.dot_general_v2"(%249, %arg30) <{accumulation_type = #vhlo.type_v1<!vhlo.none_v1>, allow_imprecise_accumulation = #vhlo.type_v1<!vhlo.none_v1>, lhs_batching_dimensions = #vhlo.tensor_v1<dense<> : tensor<0xi64>>, lhs_component_count = #vhlo.type_v1<!vhlo.none_v1>, lhs_contracting_dimensions = #vhlo.tensor_v1<dense<1> : tensor<1xi64>>, lhs_precision_type = #vhlo.type_v1<!vhlo.none_v1>, num_primitive_operations = #vhlo.type_v1<!vhlo.none_v1>, precision_config = #vhlo.array_v1<[#vhlo<precision_v1 DEFAULT>, #vhlo<precision_v1 DEFAULT>]>, rhs_batching_dimensions = #vhlo.tensor_v1<dense<> : tensor<0xi64>>, rhs_component_count = #vhlo.type_v1<!vhlo.none_v1>, rhs_contracting_dimensions = #vhlo.tensor_v1<dense<0> : tensor<1xi64>>, rhs_precision_type = #vhlo.type_v1<!vhlo.none_v1>}> : (!vhlo.tensor_v1<7x3072x!vhlo.bf16_v1>, !vhlo.tensor_v1<3072x8192x!vhlo.bf16_v1>) -> !vhlo.tensor_v1<7x8192x!vhlo.bf16_v1>
    %251 = "vhlo.reshape_v1"(%250) : (!vhlo.tensor_v1<7x8192x!vhlo.bf16_v1>) -> !vhlo.tensor_v1<1x7x8192x!vhlo.bf16_v1>
    %252 = "vhlo.convert_v1"(%251) : (!vhlo.tensor_v1<1x7x8192x!vhlo.bf16_v1>) -> !vhlo.tensor_v1<1x7x8192x!vhlo.f32_v1>
    %253 = "vhlo.logistic_v2"(%251) <{result_accuracy = #vhlo.result_accuracy_v1<atol = 0.000000e+00, rtol = 0.000000e+00, ulps = 0, mode = #vhlo<result_accuracy_mode_v1 DEFAULT>>}> : (!vhlo.tensor_v1<1x7x8192x!vhlo.bf16_v1>) -> !vhlo.tensor_v1<1x7x8192x!vhlo.bf16_v1>
    %254 = "vhlo.convert_v1"(%253) : (!vhlo.tensor_v1<1x7x8192x!vhlo.bf16_v1>) -> !vhlo.tensor_v1<1x7x8192x!vhlo.f32_v1>
    %255 = "vhlo.multiply_v1"(%252, %254) : (!vhlo.tensor_v1<1x7x8192x!vhlo.f32_v1>, !vhlo.tensor_v1<1x7x8192x!vhlo.f32_v1>) -> !vhlo.tensor_v1<1x7x8192x!vhlo.f32_v1>
    %256 = "vhlo.convert_v1"(%255) : (!vhlo.tensor_v1<1x7x8192x!vhlo.f32_v1>) -> !vhlo.tensor_v1<1x7x8192x!vhlo.bf16_v1>
    %257 = "vhlo.convert_v1"(%256) : (!vhlo.tensor_v1<1x7x8192x!vhlo.bf16_v1>) -> !vhlo.tensor_v1<1x7x8192x!vhlo.f32_v1>
    %258 = "vhlo.dot_general_v2"(%249, %arg3) <{accumulation_type = #vhlo.type_v1<!vhlo.none_v1>, allow_imprecise_accumulation = #vhlo.type_v1<!vhlo.none_v1>, lhs_batching_dimensions = #vhlo.tensor_v1<dense<> : tensor<0xi64>>, lhs_component_count = #vhlo.type_v1<!vhlo.none_v1>, lhs_contracting_dimensions = #vhlo.tensor_v1<dense<1> : tensor<1xi64>>, lhs_precision_type = #vhlo.type_v1<!vhlo.none_v1>, num_primitive_operations = #vhlo.type_v1<!vhlo.none_v1>, precision_config = #vhlo.array_v1<[#vhlo<precision_v1 DEFAULT>, #vhlo<precision_v1 DEFAULT>]>, rhs_batching_dimensions = #vhlo.tensor_v1<dense<> : tensor<0xi64>>, rhs_component_count = #vhlo.type_v1<!vhlo.none_v1>, rhs_contracting_dimensions = #vhlo.tensor_v1<dense<0> : tensor<1xi64>>, rhs_precision_type = #vhlo.type_v1<!vhlo.none_v1>}> : (!vhlo.tensor_v1<7x3072x!vhlo.bf16_v1>, !vhlo.tensor_v1<3072x8192x!vhlo.bf16_v1>) -> !vhlo.tensor_v1<7x8192x!vhlo.bf16_v1>
    %259 = "vhlo.reshape_v1"(%258) : (!vhlo.tensor_v1<7x8192x!vhlo.bf16_v1>) -> !vhlo.tensor_v1<1x7x8192x!vhlo.bf16_v1>
    %260 = "vhlo.convert_v1"(%259) : (!vhlo.tensor_v1<1x7x8192x!vhlo.bf16_v1>) -> !vhlo.tensor_v1<1x7x8192x!vhlo.f32_v1>
    %261 = "vhlo.multiply_v1"(%257, %260) : (!vhlo.tensor_v1<1x7x8192x!vhlo.f32_v1>, !vhlo.tensor_v1<1x7x8192x!vhlo.f32_v1>) -> !vhlo.tensor_v1<1x7x8192x!vhlo.f32_v1>
    %262 = "vhlo.convert_v1"(%261) : (!vhlo.tensor_v1<1x7x8192x!vhlo.f32_v1>) -> !vhlo.tensor_v1<1x7x8192x!vhlo.bf16_v1>
    %263 = "vhlo.reshape_v1"(%262) : (!vhlo.tensor_v1<1x7x8192x!vhlo.bf16_v1>) -> !vhlo.tensor_v1<7x8192x!vhlo.bf16_v1>
    %264 = "vhlo.dot_general_v2"(%263, %arg2) <{accumulation_type = #vhlo.type_v1<!vhlo.none_v1>, allow_imprecise_accumulation = #vhlo.type_v1<!vhlo.none_v1>, lhs_batching_dimensions = #vhlo.tensor_v1<dense<> : tensor<0xi64>>, lhs_component_count = #vhlo.type_v1<!vhlo.none_v1>, lhs_contracting_dimensions = #vhlo.tensor_v1<dense<1> : tensor<1xi64>>, lhs_precision_type = #vhlo.type_v1<!vhlo.none_v1>, num_primitive_operations = #vhlo.type_v1<!vhlo.none_v1>, precision_config = #vhlo.array_v1<[#vhlo<precision_v1 DEFAULT>, #vhlo<precision_v1 DEFAULT>]>, rhs_batching_dimensions = #vhlo.tensor_v1<dense<> : tensor<0xi64>>, rhs_component_count = #vhlo.type_v1<!vhlo.none_v1>, rhs_contracting_dimensions = #vhlo.tensor_v1<dense<0> : tensor<1xi64>>, rhs_precision_type = #vhlo.type_v1<!vhlo.none_v1>}> : (!vhlo.tensor_v1<7x8192x!vhlo.bf16_v1>, !vhlo.tensor_v1<8192x3072x!vhlo.bf16_v1>) -> !vhlo.tensor_v1<7x3072x!vhlo.bf16_v1>
    %265 = "vhlo.reshape_v1"(%264) : (!vhlo.tensor_v1<7x3072x!vhlo.bf16_v1>) -> !vhlo.tensor_v1<1x7x3072x!vhlo.bf16_v1>
    %266 = "vhlo.add_v1"(%232, %265) : (!vhlo.tensor_v1<1x7x3072x!vhlo.bf16_v1>, !vhlo.tensor_v1<1x7x3072x!vhlo.bf16_v1>) -> !vhlo.tensor_v1<1x7x3072x!vhlo.bf16_v1>
    %267 = "vhlo.convert_v1"(%266) : (!vhlo.tensor_v1<1x7x3072x!vhlo.bf16_v1>) -> !vhlo.tensor_v1<1x7x3072x!vhlo.f32_v1>
    %268 = "vhlo.power_v1"(%267, %2) : (!vhlo.tensor_v1<1x7x3072x!vhlo.f32_v1>, !vhlo.tensor_v1<1x7x3072x!vhlo.f32_v1>) -> !vhlo.tensor_v1<1x7x3072x!vhlo.f32_v1>
    %269 = "vhlo.reduce_v1"(%268, %4) <{dimensions = #vhlo.tensor_v1<dense<2> : tensor<1xi64>>}> ({
    ^bb0(%arg32: !vhlo.tensor_v1<!vhlo.f32_v1>, %arg33: !vhlo.tensor_v1<!vhlo.f32_v1>):
      %284 = "vhlo.add_v1"(%arg32, %arg33) : (!vhlo.tensor_v1<!vhlo.f32_v1>, !vhlo.tensor_v1<!vhlo.f32_v1>) -> !vhlo.tensor_v1<!vhlo.f32_v1>
      "vhlo.return_v1"(%284) : (!vhlo.tensor_v1<!vhlo.f32_v1>) -> ()
    }) : (!vhlo.tensor_v1<1x7x3072x!vhlo.f32_v1>, !vhlo.tensor_v1<!vhlo.f32_v1>) -> !vhlo.tensor_v1<1x7x!vhlo.f32_v1>
    %270 = "vhlo.multiply_v1"(%269, %1) : (!vhlo.tensor_v1<1x7x!vhlo.f32_v1>, !vhlo.tensor_v1<1x7x!vhlo.f32_v1>) -> !vhlo.tensor_v1<1x7x!vhlo.f32_v1>
    %271 = "vhlo.reshape_v1"(%270) : (!vhlo.tensor_v1<1x7x!vhlo.f32_v1>) -> !vhlo.tensor_v1<1x7x1x!vhlo.f32_v1>
    %272 = "vhlo.add_v1"(%271, %18) : (!vhlo.tensor_v1<1x7x1x!vhlo.f32_v1>, !vhlo.tensor_v1<1x7x1x!vhlo.f32_v1>) -> !vhlo.tensor_v1<1x7x1x!vhlo.f32_v1>
    %273 = "vhlo.rsqrt_v2"(%272) <{result_accuracy = #vhlo.result_accuracy_v1<atol = 0.000000e+00, rtol = 0.000000e+00, ulps = 0, mode = #vhlo<result_accuracy_mode_v1 DEFAULT>>}> : (!vhlo.tensor_v1<1x7x1x!vhlo.f32_v1>) -> !vhlo.tensor_v1<1x7x1x!vhlo.f32_v1>
    %274 = "vhlo.reshape_v1"(%273) : (!vhlo.tensor_v1<1x7x1x!vhlo.f32_v1>) -> !vhlo.tensor_v1<1x7x!vhlo.f32_v1>
    %275 = "vhlo.broadcast_in_dim_v1"(%274) <{broadcast_dimensions = #vhlo.tensor_v1<dense<[0, 1]> : tensor<2xi64>>}> : (!vhlo.tensor_v1<1x7x!vhlo.f32_v1>) -> !vhlo.tensor_v1<1x7x3072x!vhlo.f32_v1>
    %276 = "vhlo.multiply_v1"(%267, %275) : (!vhlo.tensor_v1<1x7x3072x!vhlo.f32_v1>, !vhlo.tensor_v1<1x7x3072x!vhlo.f32_v1>) -> !vhlo.tensor_v1<1x7x3072x!vhlo.f32_v1>
    %277 = "vhlo.convert_v1"(%276) : (!vhlo.tensor_v1<1x7x3072x!vhlo.f32_v1>) -> !vhlo.tensor_v1<1x7x3072x!vhlo.bf16_v1>
    %278 = "vhlo.convert_v1"(%277) : (!vhlo.tensor_v1<1x7x3072x!vhlo.bf16_v1>) -> !vhlo.tensor_v1<1x7x3072x!vhlo.f32_v1>
    %279 = "vhlo.multiply_v1"(%6, %278) : (!vhlo.tensor_v1<1x7x3072x!vhlo.f32_v1>, !vhlo.tensor_v1<1x7x3072x!vhlo.f32_v1>) -> !vhlo.tensor_v1<1x7x3072x!vhlo.f32_v1>
    %280 = "vhlo.convert_v1"(%279) : (!vhlo.tensor_v1<1x7x3072x!vhlo.f32_v1>) -> !vhlo.tensor_v1<1x7x3072x!vhlo.bf16_v1>
    %281 = "vhlo.reshape_v1"(%280) : (!vhlo.tensor_v1<1x7x3072x!vhlo.bf16_v1>) -> !vhlo.tensor_v1<7x3072x!vhlo.bf16_v1>
    %282 = "vhlo.dot_general_v2"(%281, %arg0) <{accumulation_type = #vhlo.type_v1<!vhlo.none_v1>, allow_imprecise_accumulation = #vhlo.type_v1<!vhlo.none_v1>, lhs_batching_dimensions = #vhlo.tensor_v1<dense<> : tensor<0xi64>>, lhs_component_count = #vhlo.type_v1<!vhlo.none_v1>, lhs_contracting_dimensions = #vhlo.tensor_v1<dense<1> : tensor<1xi64>>, lhs_precision_type = #vhlo.type_v1<!vhlo.none_v1>, num_primitive_operations = #vhlo.type_v1<!vhlo.none_v1>, precision_config = #vhlo.array_v1<[#vhlo<precision_v1 DEFAULT>, #vhlo<precision_v1 DEFAULT>]>, rhs_batching_dimensions = #vhlo.tensor_v1<dense<> : tensor<0xi64>>, rhs_component_count = #vhlo.type_v1<!vhlo.none_v1>, rhs_contracting_dimensions = #vhlo.tensor_v1<dense<0> : tensor<1xi64>>, rhs_precision_type = #vhlo.type_v1<!vhlo.none_v1>}> : (!vhlo.tensor_v1<7x3072x!vhlo.bf16_v1>, !vhlo.tensor_v1<3072x128256x!vhlo.bf16_v1>) -> !vhlo.tensor_v1<7x128256x!vhlo.bf16_v1>
    %283 = "vhlo.reshape_v1"(%282) : (!vhlo.tensor_v1<7x128256x!vhlo.bf16_v1>) -> !vhlo.tensor_v1<1x7x128256x!vhlo.bf16_v1>
    "vhlo.return_v1"(%282, %283) : (!vhlo.tensor_v1<7x128256x!vhlo.bf16_v1>, !vhlo.tensor_v1<1x7x128256x!vhlo.bf16_v1>) -> ()
  } {arg_attrs = #vhlo.array_v1<[]>, res_attrs = #vhlo.array_v1<[]>, sym_visibility = #vhlo.string_v1<"">}
}
2025-08-11 19:05:05.900 (   4.577s) [        E38731C0]      module_builder.cc:188      1| SHLO Module:
module @SyncTensorsGraph.613 attributes {mhlo.cross_program_prefetches = [], mhlo.input_output_alias = [], mhlo.is_dynamic = false, mhlo.use_auto_spmd_partitioning = false} {
  func.func @main(%arg0: tensor<3072x128256xbf16>, %arg1: tensor<f32>, %arg2: tensor<8192x3072xbf16>, %arg3: tensor<3072x8192xbf16>, %arg4: tensor<3072x3072xbf16>, %arg5: tensor<3072x1024xbf16>, %arg6: tensor<8192x3072xbf16>, %arg7: tensor<3072x8192xbf16>, %arg8: tensor<3072x3072xbf16>, %arg9: tensor<3072x1024xbf16>, %arg10: tensor<1x7xi64>, %arg11: tensor<128256x3072xbf16>, %arg12: tensor<3072xbf16>, %arg13: tensor<7xi64>, %arg14: tensor<i64>, %arg15: tensor<1x8x128x128xbf16>, %arg16: tensor<1x1x7x128xbf16>, %arg17: tensor<f32>, %arg18: tensor<1x64x1xf32>, %arg19: tensor<3072x1024xbf16>, %arg20: tensor<1x8x128x128xbf16>, %arg21: tensor<3072x3072xbf16>, %arg22: tensor<3072xbf16>, %arg23: tensor<3072x8192xbf16>, %arg24: tensor<3072xbf16>, %arg25: tensor<1x8x128x128xbf16>, %arg26: tensor<3072x1024xbf16>, %arg27: tensor<1x8x128x128xbf16>, %arg28: tensor<3072x3072xbf16>, %arg29: tensor<3072xbf16>, %arg30: tensor<3072x8192xbf16>, %arg31: tensor<3072xbf16>) -> (tensor<7x128256xbf16>, tensor<1x7x128256xbf16>) {
    %c = stablehlo.constant dense<0> : tensor<7xi64>
    %cst = stablehlo.constant dense<3.25520843E-4> : tensor<1x7xf32>
    %cst_0 = stablehlo.constant dense<2.000000e+00> : tensor<1x7x3072xf32>
    %cst_1 = stablehlo.constant dense<0xFF800000> : tensor<f32>
    %cst_2 = stablehlo.constant dense<0.000000e+00> : tensor<f32>
    %0 = stablehlo.convert %arg31 : (tensor<3072xbf16>) -> tensor<3072xf32>
    %1 = stablehlo.broadcast_in_dim %0, dims = [2] : (tensor<3072xf32>) -> tensor<1x7x3072xf32>
    %2 = stablehlo.reshape %arg10 : (tensor<1x7xi64>) -> tensor<7xi64>
    %3 = stablehlo.convert %2 : (tensor<7xi64>) -> tensor<7xui32>
    %4 = "stablehlo.gather"(%arg11, %3) <{dimension_numbers = #stablehlo.gather<offset_dims = [1], collapsed_slice_dims = [0], start_index_map = [0], index_vector_dim = 1>, slice_sizes = array<i64: 1, 3072>}> : (tensor<128256x3072xbf16>, tensor<7xui32>) -> tensor<7x3072xbf16>
    %5 = stablehlo.reshape %4 : (tensor<7x3072xbf16>) -> tensor<1x7x3072xbf16>
    %6 = stablehlo.convert %arg12 : (tensor<3072xbf16>) -> tensor<3072xf32>
    %7 = stablehlo.broadcast_in_dim %6, dims = [2] : (tensor<3072xf32>) -> tensor<1x7x3072xf32>
    %8 = stablehlo.convert %5 : (tensor<1x7x3072xbf16>) -> tensor<1x7x3072xf32>
    %9 = stablehlo.power %8, %cst_0 : tensor<1x7x3072xf32>
    %10 = stablehlo.reduce(%9 init: %cst_2) applies stablehlo.add across dimensions = [2] : (tensor<1x7x3072xf32>, tensor<f32>) -> tensor<1x7xf32>
    %11 = stablehlo.multiply %10, %cst : tensor<1x7xf32>
    %12 = stablehlo.reshape %11 : (tensor<1x7xf32>) -> tensor<1x7x1xf32>
    %13 = stablehlo.broadcast_in_dim %arg1, dims = [] : (tensor<f32>) -> tensor<1x7x1xf32>
    %14 = stablehlo.add %12, %13 : tensor<1x7x1xf32>
    %15 = stablehlo.rsqrt %14 : tensor<1x7x1xf32>
    %16 = stablehlo.reshape %15 : (tensor<1x7x1xf32>) -> tensor<1x7xf32>
    %17 = stablehlo.broadcast_in_dim %16, dims = [0, 1] : (tensor<1x7xf32>) -> tensor<1x7x3072xf32>
    %18 = stablehlo.multiply %8, %17 : tensor<1x7x3072xf32>
    %19 = stablehlo.convert %18 : (tensor<1x7x3072xf32>) -> tensor<1x7x3072xbf16>
    %20 = stablehlo.convert %19 : (tensor<1x7x3072xbf16>) -> tensor<1x7x3072xf32>
    %21 = stablehlo.multiply %7, %20 : tensor<1x7x3072xf32>
    %22 = stablehlo.convert %21 : (tensor<1x7x3072xf32>) -> tensor<1x7x3072xbf16>
    %23 = stablehlo.reshape %22 : (tensor<1x7x3072xbf16>) -> tensor<7x3072xbf16>
    %24 = stablehlo.dot_general %23, %arg21, contracting_dims = [1] x [0] : (tensor<7x3072xbf16>, tensor<3072x3072xbf16>) -> tensor<7x3072xbf16>
    %25 = stablehlo.reshape %24 : (tensor<7x3072xbf16>) -> tensor<1x7x24x128xbf16>
    %26 = stablehlo.transpose %25, dims = [0, 2, 1, 3] {result_layout = dense<[3, 1, 2, 0]> : tensor<4xindex>, xla_shape = "bf16[1,24,7,128]{3,1,2,0}"} : (tensor<1x7x24x128xbf16>) -> tensor<1x24x7x128xbf16>
…
2025-08-11 19:05:51.720 (  50.398s) [        E38731C0]     buffer_instance.cc:508      1| [BUFFER_TO_HOST] Destination buffer: dst_size=256 bytes, dst_ptr=0x565226896240
2025-08-11 19:05:51.720 (  50.398s) [        E38731C0]      event_instance.cc:222      1| EventInstance::PJRT_Event_OnReady
2025-08-11 19:05:51.720 (  50.398s) [        259D3640]      event_instance.cc:171      1| EventInstance::PJRT_Event_Destroy
2025-08-11 19:05:51.721 (  50.398s) [        E38731C0]     buffer_instance.cc:427      1| BufferInstance::PJRT_Buffer_Destroy
[32m                 Always[0m | [1m[38;5;240m   DEBUG[0m | Tensor is retained thus not deallocating. To deallocate, set retain to false first
2025-08-11 19:05:51.721 (  50.398s) [        E38731C0]     buffer_instance.cc:526      1| BufferInstance::PJRT_Buffer_IsDeleted
2025-08-11 19:05:51.721 (  50.398s) [        E38731C0]     buffer_instance.cc:526      1| BufferInstance::PJRT_Buffer_IsDeleted
2025-08-11 19:05:51.721 (  50.398s) [        E3FFF640]     device_instance.cc:53       1| DeviceInstance::PJRT_Device_IsAddressable
2025-08-11 19:05:51.721 (  50.398s) [        E3FFF640]     buffer_instance.cc:578      1| BufferInstance::PJRT_Buffer_Device
2025-08-11 19:05:51.721 (  50.398s) [        E3FFF640] executable_instance.cc:138      1| ExecutableInstance::PJRT_Executable_NumOutputs
2025-08-11 19:05:51.721 (  50.398s) [        E3FFF640]loaded_executable_insta:571      1| LoadedExecutableInstance::PJRT_LoadedExecutable_Execute
2025-08-11 19:05:51.721 (  50.398s) [        E3FFF640]loaded_executable_insta:95       1| LoadedExecutableInstance::Execute
2025-08-11 19:05:51.721 (  50.398s) [        E3FFF640]loaded_executable_insta:125      1| [DEVICE] Runtime device already opened, reusing existing device
2025-08-11 19:05:51.721 (  50.398s) [        E3FFF640]loaded_executable_insta:337      1| [LAYOUT] Converting layout for tensor handle 0x56522af1fda0 (arg 0)
[32m            RuntimeTTNN[0m | [1m[38;5;240m   DEBUG[0m | Starting execution of program: main
[32m            RuntimeTTNN[0m | [1m[38;5;240m   DEBUG[0m | Executing operation: %0 = "ttnn.get_device"() <{mesh_offset = #ttnn<mesh_offset 0x0>, mesh_shape = #ttnn<mesh_shape 1x1>}> : () -> !ttnn.device loc(unknown)
[32m            RuntimeTTNN[0m | [1m[38;5;240m   DEBUG[0m | Executing operation: %1 = "ttnn.full"(%0) <{dtype = #ttcore.supportedDataTypes<bf16>, fill_value = 7.812500e-03 : f32, layout = #ttnn.layout<tile>, shape = #ttnn.shape<128>}> : (!ttnn.device) -> tensor<128xbf16, #ttnn.ttnn_layout<(d0) -> (0, d0), <1x1>, memref<1x4x!ttcore.tile<32x32, bf16>, #ttnn.buffer_type<dram>>, <interleaved>>> loc(unknown)
[32m            RuntimeTTNN[0m | [1m[38;5;240m   DEBUG[0m | Executing operation: %2 = "ttnn.reshape"(%arg0) <{shape = [8 : i32, 128 : i32, 128 : i32]}> : (tensor<1x8x128x128xbf16, #ttnn.ttnn_layout<(d0, d1, d2, d3) -> (d0 * 1024 + d1 * 128 + d2, d3), <1x1>, memref<32x4x!ttcore.tile<32x32, bf16>, #ttnn.buffer_type<dram>>, <interleaved>>>) -> tensor<8x128x128xbf16, #ttnn.ttnn_layout<(d0, d1, d2) -> (d0 * 128 + d1, d2), <1x1>, memref<32x4x!ttcore.tile<32x32, bf16>, #ttnn.buffer_type<dram>>, <interleaved>>> loc("reshape.3")
[32m            RuntimeTTNN[0m | [1m[38;5;240m   DEBUG[0m | Executing operation: "ttnn.deallocate"(%arg0) <{force = false}> : (tensor<1x8x128x128xbf16, #ttnn.ttnn_layout<(d0, d1, d2, d3) -> (d0 * 1024 + d1 * 128 + d2, d3), <1x1>, memref<32x4x!ttcore.tile<32x32, bf16>, #ttnn.buffer_type<dram>>, <interleaved>>>) -> () loc("reshape.3")
[32m            RuntimeTTNN[0m | [1m[38;5;240m   DEBUG[0m | Executing operation: %3 = "ttnn.slice"(%2) <{begins = [0 : i32, 0 : i32, 0 : i32], ends = [1 : i32, 128 : i32, 128 : i32], step = [1 : i32, 1 : i32, 1 : i32]}> : (tensor<8x128x128xbf16, #ttnn.ttnn_layout<(d0, d1, d2) -> (d0 * 128 + d1, d2), <1x1>, memref<32x4x!ttcore.tile<32x32, bf16>, #ttnn.buffer_type<dram>>, <interleaved>>>) -> tensor<1x128x128xbf16, #ttnn.ttnn_layout<(d0, d1, d2) -> (d0 * 128 + d1, d2), <1x1>, memref<4x4x!ttcore.tile<32x32, bf16>, #ttnn.buffer_type<dram>>, <interleaved>>> loc("slice.4")
[32m            RuntimeTTNN[0m | [1m[38;5;240m   DEBUG[0m | Executing operation: "ttnn.deallocate"(%2) <{force = false}> : (tensor<8x128x128xbf16, #ttnn.ttnn_layout<(d0, d1, d2) -> (d0 * 128 + d1, d2), <1x1>, memref<32x4x!ttcore.tile<32x32, bf16>, #ttnn.buffer_type<dram>>, <interleaved>>>) -> () loc("slice.4")
[32m            RuntimeTTNN[0m | [1m[38;5;240m   DEBUG[0m | Executing operation: %4 = "ttnn.reshape"(%3) <{shape = [128 : i32, 128 : i32]}> : (tensor<1x128x128xbf16, #ttnn.ttnn_layout<(d0, d1, d2) -> (d0 * 128 + d1, d2), <1x1>, memref<4x4x!ttcore.tile<32x32, bf16>, #ttnn.buffer_type<dram>>, <interleaved>>>) -> tensor<128x128xbf16, #ttnn.ttnn_layout<(d0, d1) -> (d0, d1), <1x1>, memref<4x4x!ttcore.tile<32x32, bf16>, #ttnn.buffer_type<dram>>, <interleaved>>> loc("reshape.5")
[32m            RuntimeTTNN[0m | [1m[38;5;240m   DEBUG[0m | Executing operation: "ttnn.deallocate"(%3) <{force = false}> : (tensor<1x128x128xbf16, #ttnn.ttnn_layout<(d0, d1, d2) -> (d0 * 128 + d1, d2), <1x1>, memref<4x4x!ttcore.tile<32x32, bf16>, #ttnn.buffer_type<dram>>, <interleaved>>>) -> () loc("reshape.5")
[32m            RuntimeTTNN[0m | [1m[38;5;240m   DEBUG[0m | Executing operation: %5 = "ttnn.sum"(%4) <{dim_arg = [1 : i32], keep_dim = false}> : (tensor<128x128xbf16, #ttnn.ttnn_layout<(d0, d1) -> (d0, d1), <1x1>, memref<4x4x!ttcore.tile<32x32, bf16>, #ttnn.buffer_type<dram>>, <interleaved>>>) -> tensor<128xbf16, #ttnn.ttnn_layout<(d0) -> (0, d0), <1x1>, memref<1x4x!ttcore.tile<32x32, bf16>, #ttnn.buffer_type<dram>>, <interleaved>>> loc("reduce.14")
[32m            RuntimeTTNN[0m | [1m[38;5;240m   DEBUG[0m | Executing operation: "ttnn.deallocate"(%4) <{force = false}> : (tensor<128x128xbf16, #ttnn.ttnn_layout<(d0, d1) -> (d0, d1), <1x1>, memref<4x4x!ttcore.tile<32x32, bf16>, #ttnn.buffer_type<dram>>, <interleaved>>>) -> () loc("reduce.14")
[32m            RuntimeTTNN[0m | [1m[38;5;240m   DEBUG[0m | Executing operation: %6 = "ttnn.multiply"(%5, %1) <{output_dtype = #ttcore.supportedDataTypes<bf16>}> : (tensor<128xbf16, #ttnn.ttnn_layout<(d0) -> (0, d0), <1x1>, memref<1x4x!ttcore.tile<32x32, bf16>, #ttnn.buffer_type<dram>>, <interleaved>>>, tensor<128xbf16, #ttnn.ttnn_layout<(d0) -> (0, d0), <1x1>, memref<1x4x!ttcore.tile<32x32, bf16>, #ttnn.buffer_type<dram>>, <interleaved>>>) -> tensor<128xbf16, #ttnn.ttnn_layout<(d0) -> (0, d0), <1x1>, memref<1x4x!ttcore.tile<32x32, bf16>, #ttnn.buffer_type<dram>>, <interleaved>>> loc("multiply.23")
[32m            RuntimeTTNN[0m | [1m[38;5;240m   DEBUG[0m | Executing operation: "ttnn.deallocate"(%5) <{force = false}> : (tensor<128xbf16, #ttnn.ttnn_layout<(d0) -> (0, d0), <1x1>, memref<1x4x!ttcore.tile<32x32, bf16>, #ttnn.buffer_type<dram>>, <interleaved>>>) -> () loc("multiply.23")
[32m            RuntimeTTNN[0m | [1m[38;5;240m   DEBUG[0m | Executing operation: "ttnn.deallocate"(%1) <{force = false}> : (tensor<128xbf16, #ttnn.ttnn_layout<(d0) -> (0, d0), <1x1>, memref<1x4x!ttcore.tile<32x32, bf16>, #ttnn.buffer_type<dram>>, <interleaved>>>) -> () loc("multiply.23")
[32m            RuntimeTTNN[0m | [1m[38;5;240m   DEBUG[0m | Finished execution of program: main
2025-08-11 19:05:51.724 (  50.401s) [        E3FFF640]      event_instance.cc:222      1| EventInstance::PJRT_Event_OnReady
2025-08-11 19:05:51.724 (  50.401s) [        E3FFF640]      event_instance.cc:171      1| EventInstance::PJRT_Event_Destroy
2025-08-11 19:05:51.724 (  50.401s) [        E3FFF640]     buffer_instance.cc:443      1| BufferInstance::PJRT_Buffer_Dimensions
2025-08-11 19:05:51.724 (  50.401s) [        E3FFF640]     buffer_instance.cc:466      1| BufferInstance::PJRT_Buffer_DynamicDimensionIndices
2025-08-11 19:05:51.724 (  50.401s) [        E3FFF640]     buffer_instance.cc:443      1| BufferInstance::PJRT_Buffer_Dimensions
2025-08-11 19:05:51.724 (  50.401s) [        E3FFF640]     buffer_instance.cc:435      1| BufferInstance::PJRT_Buffer_ElementType
2025-08-11 19:05:51.724 (  50.401s) [        E38731C0]     buffer_instance.cc:454      1| BufferInstance::PJRT_Buffer_UnpaddedDimensions
2025-08-11 19:05:51.724 (  50.401s) [        E38731C0]     buffer_instance.cc:435      1| BufferInstance::PJRT_Buffer_ElementType
2025-08-11 19:05:51.724 (  50.401s) [        E38731C0]     buffer_instance.cc:443      1| BufferInstance::PJRT_Buffer_Dimensions
2025-08-11 19:05:51.724 (  50.401s) [        E38731C0]     buffer_instance.cc:476      1| BufferInstance::PJRT_Buffer_ToHostBuffer
2025-08-11 19:05:51.724 (  50.401s) [        E38731C0]     buffer_instance.cc:497      1| [BUFFER_TO_HOST] Source buffer shape: [128], data_type: 13, required_size: 256 bytes
2025-08-11 19:05:51.724 (  50.401s) [        E38731C0]     buffer_instance.cc:508      1| [BUFFER_TO_HOST] Destination buffer: dst_size=256 bytes, dst_ptr=0x565226896240
2025-08-11 19:05:51.724 (  50.401s) [        E38731C0]      event_instance.cc:222      1| EventInstance::PJRT_Event_OnReady
2025-08-11 19:05:51.724 (  50.401s) [        261D4640]      event_instance.cc:171      1| EventInstance::PJRT_Event_Destroy
2025-08-11 19:05:51.725 (  50.402s) [        E38731C0]     buffer_instance.cc:427      1| BufferInstance::PJRT_Buffer_Destroy
[32m                 Always[0m | [1m[38;5;240m   DEBUG[0m | Tensor is retained thus not deallocating. To deallocate, set retain to false first
2025-08-11 19:05:51.725 (  50.402s) [        E38731C0]     buffer_instance.cc:526      1| BufferInstance::PJRT_Buffer_IsDeleted
2025-08-11 19:05:51.725 (  50.402s) [        E38731C0]     buffer_instance.cc:454      1| BufferInstance::PJRT_Buffer_UnpaddedDimensions
2025-08-11 19:05:51.725 (  50.402s) [        E38731C0]     buffer_instance.cc:435      1| BufferInstance::PJRT_Buffer_ElementType
2025-08-11 19:05:51.725 (  50.402s) [        E38731C0]     buffer_instance.cc:443      1| BufferInstance::PJRT_Buffer_Dimensions
2025-08-11 19:05:51.725 (  50.402s) [        E38731C0]     buffer_instance.cc:476      1| BufferInstance::PJRT_Buffer_ToHostBuffer
2025-08-11 19:05:51.725 (  50.402s) [        E38731C0]     buffer_instance.cc:497      1| [BUFFER_TO_HOST] Source buffer shape: [1, 1, 128256], data_type: 13, required_size: 256512 bytes
2025-08-11 19:05:51.725 (  50.402s) [        E38731C0]     buffer_instance.cc:508      1| [BUFFER_TO_HOST] Destination buffer: dst_size=256512 bytes, dst_ptr=0x565221e59a40
2025-08-11 19:05:51.725 (  50.402s) [        E38731C0]      event_instance.cc:222      1| EventInstance::PJRT_Event_OnReady
2025-08-11 19:05:51.725 (  50.402s) [        259D3640]      event_instance.cc:171      1| EventInstance::PJRT_Event_Destroy
2025-08-11 19:05:51.731 (  50.408s) [        E38731C0]     buffer_instance.cc:427      1| BufferInstance::PJRT_Buffer_Destroy
[32m                 Always[0m | [1m[38;5;240m   DEBUG[0m | Tensor is retained thus not deallocating. To deallocate, set retain to false first
2025-08-11 19:05:51.731 (  50.409s) [        E38731C0]     buffer_instance.cc:427      1| BufferInstance::PJRT_Buffer_Destroy
[32m                 Always[0m | [1m[38;5;240m   DEBUG[0m | Tensor is retained thus not deallocating. To deallocate, set retain to false first
input 0: device = xla:0, shape torch.Size([3072])
input 1: device = xla:0, shape torch.Size([3072])
input 2: device = xla:0, shape torch.Size([3072])
input 3: device = xla:0, shape torch.Size([3072])
input 4: device = xla:0, shape torch.Size([3072])
input 5: device = xla:0, shape torch.Size([128256, 3072])
input 6: device = xla:0, shape torch.Size([1, 64, 1])
input 7: device = xla:0, shape torch.Size([3072, 3072])
input 8: device = xla:0, shape torch.Size([3072, 1024])
input 9: device = xla:0, shape torch.Size([3072, 1024])
input 10: device = xla:0, shape torch.Size([3072, 3072])
input 11: device = xla:0, shape torch.Size([3072, 8192])
input 12: device = xla:0, shape torch.Size([3072, 8192])
input 13: device = xla:0, shape torch.Size([8192, 3072])
input 14: device = xla:0, shape torch.Size([3072, 3072])
input 15: device = xla:0, shape torch.Size([3072, 1024])
input 16: device = xla:0, shape torch.Size([3072, 1024])
input 17: device = xla:0, shape torch.Size([3072, 3072])
input 18: device = xla:0, shape torch.Size([3072, 8192])
input 19: device = xla:0, shape torch.Size([3072, 8192])
input 20: device = xla:0, shape torch.Size([8192, 3072])
input 21: device = xla:0, shape torch.Size([3072, 128256])
input 22: device = xla:0, shape torch.Size([3072, 3072])
input 23: device = xla:0, shape torch.Size([1024, 3072])
input 24: device = xla:0, shape torch.Size([1024, 3072])
input 25: device = xla:0, shape torch.Size([3072, 3072])
input 26: device = xla:0, shape torch.Size([8192, 3072])
input 27: device = xla:0, shape torch.Size([8192, 3072])
input 28: device = xla:0, shape torch.Size([3072, 8192])
input 29: device = xla:0, shape torch.Size([3072, 3072])
input 30: device = xla:0, shape torch.Size([1024, 3072])
input 31: device = xla:0, shape torch.Size([1024, 3072])
input 32: device = xla:0, shape torch.Size([3072, 3072])
input 33: device = xla:0, shape torch.Size([8192, 3072])
input 34: device = xla:0, shape torch.Size([8192, 3072])
input 35: device = xla:0, shape torch.Size([3072, 8192])
input 36: device = xla:0, shape torch.Size([128256, 3072])
input 37: device = xla:0, shape torch.Size([1, 8, 128, 128])
	mean along seqlen for static cache @ input idx 37 and shape torch.Size([1, 8, 128, 128]): tensor([0., 0., 0., 0., 0., 0., 0., 0., 0., 0., 0., 0., 0., 0., 0., 0., 0., 0., 0., 0., 0., 0., 0., 0.,
        0., 0., 0., 0., 0., 0., 0., 0., 0., 0., 0., 0., 0., 0., 0., 0., 0., 0., 0., 0., 0., 0., 0., 0.,
        0., 0., 0., 0., 0., 0., 0., 0., 0., 0., 0., 0., 0., 0., 0., 0., 0., 0., 0., 0., 0., 0., 0., 0.,
        0., 0., 0., 0., 0., 0., 0., 0., 0., 0., 0., 0., 0., 0., 0., 0., 0., 0., 0., 0., 0., 0., 0., 0.,
        0., 0., 0., 0., 0., 0., 0., 0., 0., 0., 0., 0., 0., 0., 0., 0., 0., 0., 0., 0., 0., 0., 0., 0.,
        0., 0., 0., 0., 0., 0., 0., 0.], device='xla:0', dtype=torch.bfloat16)
input 38: device = xla:0, shape torch.Size([1, 8, 128, 128])
	mean along seqlen for static cache @ input idx 38 and shape torch.Size([1, 8, 128, 128]): tensor([0., 0., 0., 0., 0., 0., 0., 0., 0., 0., 0., 0., 0., 0., 0., 0., 0., 0., 0., 0., 0., 0., 0., 0.,
        0., 0., 0., 0., 0., 0., 0., 0., 0., 0., 0., 0., 0., 0., 0., 0., 0., 0., 0., 0., 0., 0., 0., 0.,
        0., 0., 0., 0., 0., 0., 0., 0., 0., 0., 0., 0., 0., 0., 0., 0., 0., 0., 0., 0., 0., 0., 0., 0.,
        0., 0., 0., 0., 0., 0., 0., 0., 0., 0., 0., 0., 0., 0., 0., 0., 0., 0., 0., 0., 0., 0., 0., 0.,
        0., 0., 0., 0., 0., 0., 0., 0., 0., 0., 0., 0., 0., 0., 0., 0., 0., 0., 0., 0., 0., 0., 0., 0.,
        0., 0., 0., 0., 0., 0., 0., 0.], device='xla:0', dtype=torch.bfloat16)
input 39: device = xla:0, shape torch.Size([1, 8, 128, 128])
	mean along seqlen for static cache @ input idx 39 and shape torch.Size([1, 8, 128, 128]): tensor([0., 0., 0., 0., 0., 0., 0., 0., 0., 0., 0., 0., 0., 0., 0., 0., 0., 0., 0., 0., 0., 0., 0., 0.,
        0., 0., 0., 0., 0., 0., 0., 0., 0., 0., 0., 0., 0., 0., 0., 0., 0., 0., 0., 0., 0., 0., 0., 0.,
        0., 0., 0., 0., 0., 0., 0., 0., 0., 0., 0., 0., 0., 0., 0., 0., 0., 0., 0., 0., 0., 0., 0., 0.,
        0., 0., 0., 0., 0., 0., 0., 0., 0., 0., 0., 0., 0., 0., 0., 0., 0., 0., 0., 0., 0., 0., 0., 0.,
        0., 0., 0., 0., 0., 0., 0., 0., 0., 0., 0., 0., 0., 0., 0., 0., 0., 0., 0., 0., 0., 0., 0., 0.,
        0., 0., 0., 0., 0., 0., 0., 0.], device='xla:0', dtype=torch.bfloat16)
input 40: device = xla:0, shape torch.Size([1, 8, 128, 128])
	mean along seqlen for static cache @ input idx 40 and shape torch.Size([1, 8, 128, 128]): tensor([0., 0., 0., 0., 0., 0., 0., 0., 0., 0., 0., 0., 0., 0., 0., 0., 0., 0., 0., 0., 0., 0., 0., 0.,
        0., 0., 0., 0., 0., 0., 0., 0., 0., 0., 0., 0., 0., 0., 0., 0., 0., 0., 0., 0., 0., 0., 0., 0.,
        0., 0., 0., 0., 0., 0., 0., 0., 0., 0., 0., 0., 0., 0., 0., 0., 0., 0., 0., 0., 0., 0., 0., 0.,
        0., 0., 0., 0., 0., 0., 0., 0., 0., 0., 0., 0., 0., 0., 0., 0., 0., 0., 0., 0., 0., 0., 0., 0.,
        0., 0., 0., 0., 0., 0., 0., 0., 0., 0., 0., 0., 0., 0., 0., 0., 0., 0., 0., 0., 0., 0., 0., 0.,
        0., 0., 0., 0., 0., 0., 0., 0.], device='xla:0', dtype=torch.bfloat16)
input 41: device = xla:0, shape torch.Size([64])
input 42: device = xla:0, shape torch.Size([1, 1])
input 43: device = xla:0, shape torch.Size([1])
input 44: device = xla:0, shape torch.Size([1, 1, 1, 128])
alink2025-08-11 19:05:51.733 (  50.410s) [        E38731C0]     buffer_instance.cc:427      1| BufferInstance::PJRT_Buffer_Destroy
[32m                 Always[0m | [1m[38;5;240m   DEBUG[0m | Tensor is retained thus not deallocating. To deallocate, set retain to false first
2025-08-11 19:05:51.733 (  50.411s) [        E38731C0]     buffer_instance.cc:427      1| BufferInstance::PJRT_Buffer_Destroy
[32m                 Always[0m | [1m[38;5;240m   DEBUG[0m | Tensor is retained thus not deallocating. To deallocate, set retain to false first
2025-08-11 19:05:51.733 (  50.411s) [        E38731C0]     buffer_instance.cc:427      1| BufferInstance::PJRT_Buffer_Destroy
[32m                 Always[0m | [1m[38;5;240m   DEBUG[0m | Tensor is retained thus not deallocating. To deallocate, set retain to false first
2025-08-11 19:05:51.733 (  50.411s) [        E38731C0]     buffer_instance.cc:427      1| BufferInstance::PJRT_Buffer_Destroy
[32m                 Always[0m | [1m[38;5;240m   DEBUG[0m | Tensor is retained thus not deallocating. To deallocate, set retain to false first
2025-08-11 19:05:51.734 (  50.411s) [        E38731C0]     buffer_instance.cc:427      1| BufferInstance::PJRT_Buffer_Destroy
[32m                 Always[0m | [1m[38;5;240m   DEBUG[0m | Tensor is retained thus not deallocating. To deallocate, set retain to false first
2025-08-11 19:05:51.734 (  50.411s) [        E38731C0]     buffer_instance.cc:427      1| BufferInstance::PJRT_Buffer_Destroy
[32m                 Always[0m | [1m[38;5;240m   DEBUG[0m | Tensor is retained thus not deallocating. To deallocate, set retain to false first
2025-08-11 19:05:51.734 (  50.411s) [        E38731C0]     buffer_instance.cc:427      1| BufferInstance::PJRT_Buffer_Destroy
[32m                 Always[0m | [1m[38;5;240m   DEBUG[0m | Tensor is retained thus not deallocating. To deallocate, set retain to false first
2025-08-11 19:05:51.734 (  50.411s) [        E38731C0]     buffer_instance.cc:427      1| BufferInstance::PJRT_Buffer_Destroy
[32m                 Always[0m | [1m[38;5;240m   DEBUG[0m | Tensor is retained thus not deallocating. To deallocate, set retain to false first
2025-08-11 19:05:51.734 (  50.411s) [        E38731C0]     buffer_instance.cc:427      1| BufferInstance::PJRT_Buffer_Destroy
[32m                 Always[0m | [1m[38;5;240m   DEBUG[0m | Tensor is retained thus not deallocating. To deallocate, set retain to false first
2025-08-11 19:05:51.784 (  50.461s) [        E38731C0]     buffer_instance.cc:427      1| BufferInstance::PJRT_Buffer_Destroy
[32m                 Always[0m | [1m[38;5;240m   DEBUG[0m | Tensor is retained thus not deallocating. To deallocate, set retain to false first
2025-08-11 19:05:51.787 (  50.464s) [        E38731C0]     buffer_instance.cc:427      1| BufferInstance::PJRT_Buffer_Destroy
[32m                 Always[0m | [1m[38;5;240m   DEBUG[0m | Tensor is retained thus not deallocating. To deallocate, set retain to false first
2025-08-11 19:05:51.790 (  50.467s) [        E38731C0]     buffer_instance.cc:427      1| BufferInstance::PJRT_Buffer_Destroy
[32m                 Always[0m | [1m[38;5;240m   DEBUG[0m | Tensor is retained thus not deallocating. To deallocate, set retain to false first
2025-08-11 19:05:51.793 (  50.470s) [        E38731C0]     buffer_instance.cc:427      1| BufferInstance::PJRT_Buffer_Destroy
[32m                 Always[0m | [1m[38;5;240m   DEBUG[0m | Tensor is retained thus not deallocating. To deallocate, set retain to false first
2025-08-11 19:05:51.793 (  50.470s) [        E38731C0]     buffer_instance.cc:427      1| BufferInstance::PJRT_Buffer_Destroy
[32m                 Always[0m | [1m[38;5;240m   DEBUG[0m | Tensor is retained thus not deallocating. To deallocate, set retain to false first
2025-08-11 19:05:51.793 (  50.470s) [        E38731C0]     buffer_instance.cc:427      1| BufferInstance::PJRT_Buffer_Destroy
[32m                 Always[0m | [1m[38;5;240m   DEBUG[0m | Tensor is retained thus not deallocating. To deallocate, set retain to false first
2025-08-11 19:05:51.793 (  50.470s) [        E38731C0]     buffer_instance.cc:427      1| BufferInstance::PJRT_Buffer_Destroy
[32m                 Always[0m | [1m[38;5;240m   DEBUG[0m | Tensor is retained thus not deallocating. To deallocate, set retain to false first
2025-08-11 19:05:51.793 (  50.470s) [        E38731C0]     buffer_instance.cc:427      1| BufferInstance::PJRT_Buffer_Destroy
[32m                 Always[0m | [1m[38;5;240m   DEBUG[0m | Tensor is retained thus not deallocating. To deallocate, set retain to false first
2025-08-11 19:05:51.798 (  50.475s) [        E38731C0]     buffer_instance.cc:427      1| BufferInstance::PJRT_Buffer_Destroy
[32m                 Always[0m | [1m[38;5;240m   DEBUG[0m | Tensor is retained thus not deallocating. To deallocate, set retain to false first
2025-08-11 19:05:51.802 (  50.479s) [        E38731C0]     buffer_instance.cc:427      1| BufferInstance::PJRT_Buffer_Destroy
[32m                 Always[0m | [1m[38;5;240m   DEBUG[0m | Tensor is retained thus not deallocating. To deallocate, set retain to false first
2025-08-11 19:05:51.805 (  50.482s) [        E38731C0]     buffer_instance.cc:427      1| BufferInstance::PJRT_Buffer_Destroy
[32m                 Always[0m | [1m[38;5;240m   DEBUG[0m | Tensor is retained thus not deallocating. To deallocate, set retain to false first
2025-08-11 19:05:51.810 (  50.487s) [        E38731C0]     buffer_instance.cc:427      1| BufferInstance::PJRT_Buffer_Destroy
[32m                 Always[0m | [1m[38;5;240m   DEBUG[0m | Tensor is retained thus not deallocating. To deallocate, set retain to false first
2025-08-11 19:05:51.810 (  50.487s) [        E38731C0]     buffer_instance.cc:427      1| BufferInstance::PJRT_Buffer_Destroy
[32m                 Always[0m | [1m[38;5;240m   DEBUG[0m | Tensor is retained thus not deallocating. To deallocate, set retain to false first
2025-08-11 19:05:51.810 (  50.487s) [        E38731C0]     buffer_instance.cc:427      1| BufferInstance::PJRT_Buffer_Destroy
[32m                 Always[0m | [1m[38;5;240m   DEBUG[0m | Tensor is retained thus not deallocating. To deallocate, set retain to false first
2025-08-11 19:05:51.810 (  50.488s) [        E38731C0]     buffer_instance.cc:427      1| BufferInstance::PJRT_Buffer_Destroy
[32m                 Always[0m | [1m[38;5;240m   DEBUG[0m | Tensor is retained thus not deallocating. To deallocate, set retain to false first
2025-08-11 19:05:51.853 (  50.530s) [        E38731C0]     buffer_instance.cc:427      1| BufferInstance::PJRT_Buffer_Destroy
[32m                 Always[0m | [1m[38;5;240m   DEBUG[0m | Tensor is retained thus not deallocating. To deallocate, set retain to false first
2025-08-11 19:05:51.856 (  50.533s) [        E38731C0]     buffer_instance.cc:427      1| BufferInstance::PJRT_Buffer_Destroy
[32m                 Always[0m | [1m[38;5;240m   DEBUG[0m | Tensor is retained thus not deallocating. To deallocate, set retain to false first
2025-08-11 19:05:51.858 (  50.536s) [        E38731C0]     buffer_instance.cc:427      1| BufferInstance::PJRT_Buffer_Destroy
[32m                 Always[0m | [1m[38;5;240m   DEBUG[0m | Tensor is retained thus not deallocating. To deallocate, set retain to false first
2025-08-11 19:05:51.861 (  50.538s) [        E38731C0]     buffer_instance.cc:427      1| BufferInstance::PJRT_Buffer_Destroy
[32m                 Always[0m | [1m[38;5;240m   DEBUG[0m | Tensor is retained thus not deallocating. To deallocate, set retain to false first
2025-08-11 19:05:51.864 (  50.541s) [        E38731C0]     buffer_instance.cc:427      1| BufferInstance::PJRT_Buffer_Destroy
[32m                 Always[0m | [1m[38;5;240m   DEBUG[0m | Tensor is retained thus not deallocating. To deallocate, set retain to false first
2025-08-11 19:05:51.864 (  50.542s) [        E38731C0]     buffer_instance.cc:427      1| BufferInstance::PJRT_Buffer_Destroy
[32m                 Always[0m | [1m[38;5;240m   DEBUG[0m | Tensor is retained thus not deallocating. To deallocate, set retain to false first
2025-08-11 19:05:51.865 (  50.542s) [        E38731C0]     buffer_instance.cc:427      1| BufferInstance::PJRT_Buffer_Destroy
[32m                 Always[0m | [1m[38;5;240m   DEBUG[0m | Tensor is retained thus not deallocating. To deallocate, set retain to false first
2025-08-11 19:05:51.865 (  50.542s) [        E38731C0]     buffer_instance.cc:427      1| BufferInstance::PJRT_Buffer_Destroy
[32m                 Always[0m | [1m[38;5;240m   DEBUG[0m | Tensor is retained thus not deallocating. To deallocate, set retain to false first
2025-08-11 19:05:51.868 (  50.545s) [        E38731C0]     buffer_instance.cc:427      1| BufferInstance::PJRT_Buffer_Destroy
[32m                 Always[0m | [1m[38;5;240m   DEBUG[0m | Tensor is retained thus not deallocating. To deallocate, set retain to false first
2025-08-11 19:05:51.871 (  50.548s) [        E38731C0]     buffer_instance.cc:427      1| BufferInstance::PJRT_Buffer_Destroy
[32m                 Always[0m | [1m[38;5;240m   DEBUG[0m | Tensor is retained thus not deallocating. To deallocate, set retain to false first
2025-08-11 19:05:51.874 (  50.551s) [        E38731C0]     buffer_instance.cc:427      1| BufferInstance::PJRT_Buffer_Destroy
[32m                 Always[0m | [1m[38;5;240m   DEBUG[0m | Tensor is retained thus not deallocating. To deallocate, set retain to false first
2025-08-11 19:05:51.877 (  50.554s) [        E38731C0]     buffer_instance.cc:427      1| BufferInstance::PJRT_Buffer_Destroy
[32m                 Always[0m | [1m[38;5;240m   DEBUG[0m | Tensor is retained thus not deallocating. To deallocate, set retain to false first
2025-08-11 19:05:51.877 (  50.554s) [        E38731C0]     buffer_instance.cc:427      1| BufferInstance::PJRT_Buffer_Destroy
[32m                 Always[0m | [1m[38;5;240m   DEBUG[0m | Tensor is retained thus not deallocating. To deallocate, set retain to false first
2025-08-11 19:05:51.877 (  50.554s) [        E38731C0]     buffer_instance.cc:427      1| BufferInstance::PJRT_Buffer_Destroy
[32m                 Always[0m | [1m[38;5;240m   DEBUG[0m | Tensor is retained thus not deallocating. To deallocate, set retain to false first
2025-08-11 19:05:51.877 (  50.554s) [        E38731C0]     buffer_instance.cc:427      1| BufferInstance::PJRT_Buffer_Destroy
[32m                 Always[0m | [1m[38;5;240m   DEBUG[0m | Tensor is retained thus not deallocating. To deallocate, set retain to false first
2025-08-11 19:05:51.877 (  50.554s) [        E38731C0]     buffer_instance.cc:427      1| BufferInstance::PJRT_Buffer_Destroy
[32m                 Always[0m | [1m[38;5;240m   DEBUG[0m | Tensor is retained thus not deallocating. To deallocate, set retain to false first
2025-08-11 19:05:51.922 (  50.599s) [        E38731C0]     buffer_instance.cc:427      1| BufferInstance::PJRT_Buffer_Destroy
[32m                 Always[0m | [1m[38;5;240m   DEBUG[0m | Tensor is retained thus not deallocating. To deallocate, set retain to false first
2025-08-11 19:05:51.922 (  50.599s) [        E38731C0]     buffer_instance.cc:427      1| BufferInstance::PJRT_Buffer_Destroy
[32m                 Always[0m | [1m[38;5;240m   DEBUG[0m | Tensor is retained thus not deallocating. To deallocate, set retain to false first
2025-08-11 19:05:51.922 (  50.599s) [        E38731C0]     buffer_instance.cc:427      1| BufferInstance::PJRT_Buffer_Destroy
[32m                 Always[0m | [1m[38;5;240m   DEBUG[0m | Tensor is retained thus not deallocating. To deallocate, set retain to false first
2025-08-11 19:05:51.922 (  50.599s) [        E38731C0]     buffer_instance.cc:427      1| BufferInstance::PJRT_Buffer_Destroy
[32m                 Always[0m | [1m[38;5;240m   DEBUG[0m | Tensor is retained thus not deallocating. To deallocate, set retain to false first
2025-08-11 19:05:51.922 (  50.600s) [        E38731C0]     buffer_instance.cc:427      1| BufferInstance::PJRT_Buffer_Destroy
[32m                 Always[0m | [1m[38;5;240m   DEBUG[0m | Tensor is retained thus not deallocating. To deallocate, set retain to false first
2025-08-11 19:05:52.022 (  50.699s) [        E38731C0]     buffer_instance.cc:427      1| BufferInstance::PJRT_Buffer_Destroy
[32m                 Always[0m | [1m[38;5;240m   DEBUG[0m | Tensor is retained thus not deallocating. To deallocate, set retain to false first
2025-08-11 19:05:52.022 (  50.700s) [        E38731C0]     buffer_instance.cc:427      1| BufferInstance::PJRT_Buffer_Destroy
[32m                 Always[0m | [1m[38;5;240m   DEBUG[0m | Tensor is retained thus not deallocating. To deallocate, set retain to false first
2025-08-11 19:05:52.022 (  50.700s) [        E38731C0]     buffer_instance.cc:427      1| BufferInstance::PJRT_Buffer_Destroy
[32m                 Always[0m | [1m[38;5;240m   DEBUG[0m | Tensor is retained thus not deallocating. To deallocate, set retain to false first
2025-08-11 19:05:52.022 (  50.700s) [        E38731C0]     buffer_instance.cc:427      1| BufferInstance::PJRT_Buffer_Destroy
[32m                 Always[0m | [1m[38;5;240m   DEBUG[0m | Tensor is retained thus not deallocating. To deallocate, set retain to false first
2025-08-11 19:05:52.023 (  50.700s) [        E38731C0]     buffer_instance.cc:427      1| BufferInstance::PJRT_Buffer_Destroy
[32m                 Always[0m | [1m[38;5;240m   DEBUG[0m | Tensor is retained thus not deallocating. To deallocate, set retain to false first
2025-08-11 19:05:52.023 (  50.700s) [        E38731C0]     buffer_instance.cc:427      1| BufferInstance::PJRT_Buffer_Destroy
[32m                 Always[0m | [1m[38;5;240m   DEBUG[0m | Tensor is retained thus not deallocating. To deallocate, set retain to false first
2025-08-11 19:05:52.023 (  50.700s) [        E38731C0]     buffer_instance.cc:427      1| BufferInstance::PJRT_Buffer_Destroy
[32m                 Always[0m | [1m[38;5;240m   DEBUG[0m | Tensor is retained thus not deallocating. To deallocate, set retain to false first
2025-08-11 19:05:52.023 (  50.700s) [        E38731C0]     buffer_instance.cc:427      1| BufferInstance::PJRT_Buffer_Destroy
[32m                 Always[0m | [1m[38;5;240m   DEBUG[0m | Tensor is retained thus not deallocating. To deallocate, set retain to false first
2025-08-11 19:05:52.023 (  50.700s) [        E38731C0]     buffer_instance.cc:427      1| BufferInstance::PJRT_Buffer_Destroy
[32m                 Always[0m | [1m[38;5;240m   DEBUG[0m | Tensor is retained thus not deallocating. To deallocate, set retain to false first
2025-08-11 19:05:52.068 (  50.745s) [        E38731C0]     buffer_instance.cc:427      1| BufferInstance::PJRT_Buffer_Destroy
[32m                 Always[0m | [1m[38;5;240m   DEBUG[0m | Tensor is retained thus not deallocating. To deallocate, set retain to false first
2025-08-11 19:05:52.071 (  50.748s) [        E38731C0]     buffer_instance.cc:427      1| BufferInstance::PJRT_Buffer_Destroy
[32m                 Always[0m | [1m[38;5;240m   DEBUG[0m | Tensor is retained thus not deallocating. To deallocate, set retain to false first
2025-08-11 19:05:52.074 (  50.751s) [        E38731C0]     buffer_instance.cc:427      1| BufferInstance::PJRT_Buffer_Destroy
[32m                 Always[0m | [1m[38;5;240m   DEBUG[0m | Tensor is retained thus not deallocating. To deallocate, set retain to false first
2025-08-11 19:05:52.077 (  50.754s) [        E38731C0]     buffer_instance.cc:427      1| BufferInstance::PJRT_Buffer_Destroy
[32m                 Always[0m | [1m[38;5;240m   DEBUG[0m | Tensor is retained thus not deallocating. To deallocate, set retain to false first
2025-08-11 19:05:52.077 (  50.755s) [        E38731C0]     buffer_instance.cc:427      1| BufferInstance::PJRT_Buffer_Destroy
[32m                 Always[0m | [1m[38;5;240m   DEBUG[0m | Tensor is retained thus not deallocating. To deallocate, set retain to false first
2025-08-11 19:05:52.078 (  50.755s) [        E38731C0]     buffer_instance.cc:427      1| BufferInstance::PJRT_Buffer_Destroy
[32m                 Always[0m | [1m[38;5;240m   DEBUG[0m | Tensor is retained thus not deallocating. To deallocate, set retain to false first
2025-08-11 19:05:52.078 (  50.755s) [        E38731C0]     buffer_instance.cc:427      1| BufferInstance::PJRT_Buffer_Destroy
[32m                 Always[0m | [1m[38;5;240m   DEBUG[0m | Tensor is retained thus not deallocating. To deallocate, set retain to false first
2025-08-11 19:05:52.078 (  50.755s) [        E38731C0]     buffer_instance.cc:427      1| BufferInstance::PJRT_Buffer_Destroy
[32m                 Always[0m | [1m[38;5;240m   DEBUG[0m | Tensor is retained thus not deallocating. To deallocate, set retain to false first
2025-08-11 19:05:52.081 (  50.758s) [        E38731C0]     buffer_instance.cc:427      1| BufferInstance::PJRT_Buffer_Destroy
[32m                 Always[0m | [1m[38;5;240m   DEBUG[0m | Tensor is retained thus not deallocating. To deallocate, set retain to false first
2025-08-11 19:05:52.084 (  50.761s) [        E38731C0]     buffer_instance.cc:427      1| BufferInstance::PJRT_Buffer_Destroy
[32m                 Always[0m | [1m[38;5;240m   DEBUG[0m | Tensor is retained thus not deallocating. To deallocate, set retain to false first
2025-08-11 19:05:52.087 (  50.764s) [        E38731C0]     buffer_instance.cc:427      1| BufferInstance::PJRT_Buffer_Destroy
[32m                 Always[0m | [1m[38;5;240m   DEBUG[0m | Tensor is retained thus not deallocating. To deallocate, set retain to false first
2025-08-11 19:05:52.087 (  50.764s) [        E38731C0]     buffer_instance.cc:427      1| BufferInstance::PJRT_Buffer_Destroy
[32m                 Always[0m | [1m[38;5;240m   DEBUG[0m | Tensor is retained thus not deallocating. To deallocate, set retain to false first
2025-08-11 19:05:52.087 (  50.764s) [        E38731C0]     buffer_instance.cc:427      1| BufferInstance::PJRT_Buffer_Destroy
[32m                 Always[0m | [1m[38;5;240m   DEBUG[0m | Tensor is retained thus not deallocating. To deallocate, set retain to false first
2025-08-11 19:05:52.087 (  50.764s) [        E38731C0]     buffer_instance.cc:427      1| BufferInstance::PJRT_Buffer_Destroy
[32m                 Always[0m | [1m[38;5;240m   DEBUG[0m | Tensor is retained thus not deallocating. To deallocate, set retain to false first
2025-08-11 19:05:52.087 (  50.765s) [        E38731C0]     buffer_instance.cc:427      1| BufferInstance::PJRT_Buffer_Destroy
[32m                 Always[0m | [1m[38;5;240m   DEBUG[0m | Tensor is retained thus not deallocating. To deallocate, set retain to false first
2025-08-11 19:05:52.134 (  50.811s) [        E38731C0]     buffer_instance.cc:427      1| BufferInstance::PJRT_Buffer_Destroy
[32m                 Always[0m | [1m[38;5;240m   DEBUG[0m | Tensor is retained thus not deallocating. To deallocate, set retain to false first
2025-08-11 19:05:52.137 (  50.814s) [        E38731C0]     buffer_instance.cc:427      1| BufferInstance::PJRT_Buffer_Destroy
[32m                 Always[0m | [1m[38;5;240m   DEBUG[0m | Tensor is retained thus not deallocating. To deallocate, set retain to false first
2025-08-11 19:05:52.140 (  50.817s) [        E38731C0]     buffer_instance.cc:427      1| BufferInstance::PJRT_Buffer_Destroy
[32m                 Always[0m | [1m[38;5;240m   DEBUG[0m | Tensor is retained thus not deallocating. To deallocate, set retain to false first
2025-08-11 19:05:52.143 (  50.820s) [        E38731C0]     buffer_instance.cc:427      1| BufferInstance::PJRT_Buffer_Destroy
[32m                 Always[0m | [1m[38;5;240m   DEBUG[0m | Tensor is retained thus not deallocating. To deallocate, set retain to false first
2025-08-11 19:05:52.143 (  50.820s) [        E38731C0]     buffer_instance.cc:427      1| BufferInstance::PJRT_Buffer_Destroy
[32m                 Always[0m | [1m[38;5;240m   DEBUG[0m | Tensor is retained thus not deallocating. To deallocate, set retain to false first
2025-08-11 19:05:52.143 (  50.820s) [        E38731C0]     buffer_instance.cc:427      1| BufferInstance::PJRT_Buffer_Destroy
[32m                 Always[0m | [1m[38;5;240m   DEBUG[0m | Tensor is retained thus not deallocating. To deallocate, set retain to false first
2025-08-11 19:05:52.143 (  50.820s) [        E38731C0]     buffer_instance.cc:427      1| BufferInstance::PJRT_Buffer_Destroy
[32m                 Always[0m | [1m[38;5;240m   DEBUG[0m | Tensor is retained thus not deallocating. To deallocate, set retain to false first
2025-08-11 19:05:52.143 (  50.820s) [        E38731C0]     buffer_instance.cc:427      1| BufferInstance::PJRT_Buffer_Destroy
[32m                 Always[0m | [1m[38;5;240m   DEBUG[0m | Tensor is retained thus not deallocating. To deallocate, set retain to false first
2025-08-11 19:05:52.147 (  50.824s) [        E38731C0]     buffer_instance.cc:427      1| BufferInstance::PJRT_Buffer_Destroy
[32m                 Always[0m | [1m[38;5;240m   DEBUG[0m | Tensor is retained thus not deallocating. To deallocate, set retain to false first
2025-08-11 19:05:52.150 (  50.827s) [        E38731C0]     buffer_instance.cc:427      1| BufferInstance::PJRT_Buffer_Destroy
[32m                 Always[0m | [1m[38;5;240m   DEBUG[0m | Tensor is retained thus not deallocating. To deallocate, set retain to false first
2025-08-11 19:05:52.153 (  50.830s) [        E38731C0]     buffer_instance.cc:427      1| BufferInstance::PJRT_Buffer_Destroy
[32m                 Always[0m | [1m[38;5;240m   DEBUG[0m | Tensor is retained thus not deallocating. To deallocate, set retain to false first
2025-08-11 19:05:52.153 (  50.830s) [        E38731C0]     buffer_instance.cc:427      1| BufferInstance::PJRT_Buffer_Destroy
[32m                 Always[0m | [1m[38;5;240m   DEBUG[0m | Tensor is retained thus not deallocating. To deallocate, set retain to false first
2025-08-11 19:05:52.153 (  50.830s) [        E38731C0]     buffer_instance.cc:427      1| BufferInstance::PJRT_Buffer_Destroy
[32m                 Always[0m | [1m[38;5;240m   DEBUG[0m | Tensor is retained thus not deallocating. To deallocate, set retain to false first
2025-08-11 19:05:52.153 (  50.830s) [        E38731C0]     buffer_instance.cc:427      1| BufferInstance::PJRT_Buffer_Destroy
[32m                 Always[0m | [1m[38;5;240m   DEBUG[0m | Tensor is retained thus not deallocating. To deallocate, set retain to false first
2025-08-11 19:05:52.153 (  50.830s) [        E38731C0]     buffer_instance.cc:427      1| BufferInstance::PJRT_Buffer_Destroy
[32m                 Always[0m | [1m[38;5;240m   DEBUG[0m | Tensor is retained thus not deallocating. To deallocate, set retain to false first
2025-08-11 19:05:52.153 (  50.830s) [        E38731C0]     buffer_instance.cc:427      1| BufferInstance::PJRT_Buffer_Destroy
[32m                 Always[0m | [1m[38;5;240m   DEBUG[0m | Tensor is retained thus not deallocating. To deallocate, set retain to false first
2025-08-11 19:05:52.197 (  50.874s) [        E38731C0]     buffer_instance.cc:427      1| BufferInstance::PJRT_Buffer_Destroy
[32m                 Always[0m | [1m[38;5;240m   DEBUG[0m | Tensor is retained thus not deallocating. To deallocate, set retain to false first
2025-08-11 19:05:52.197 (  50.874s) [        E38731C0]     buffer_instance.cc:427      1| BufferInstance::PJRT_Buffer_Destroy
[32m                 Always[0m | [1m[38;5;240m   DEBUG[0m | Tensor is retained thus not deallocating. To deallocate, set retain to false first
2025-08-11 19:05:52.197 (  50.874s) [        E38731C0]     buffer_instance.cc:427      1| BufferInstance::PJRT_Buffer_Destroy
[32m                 Always[0m | [1m[38;5;240m   DEBUG[0m | Tensor is retained thus not deallocating. To deallocate, set retain to false first
2025-08-11 19:05:52.197 (  50.874s) [        E38731C0]     buffer_instance.cc:427      1| BufferInstance::PJRT_Buffer_Destroy
[32m                 Always[0m | [1m[38;5;240m   DEBUG[0m | Tensor is retained thus not deallocating. To deallocate, set retain to false first
2025-08-11 19:05:52.197 (  50.874s) [        E38731C0]     buffer_instance.cc:427      1| BufferInstance::PJRT_Buffer_Destroy
[32m                 Always[0m | [1m[38;5;240m   DEBUG[0m | Tensor is retained thus not deallocating. To deallocate, set retain to false first

================================================================================
GENERATION SUMMARY
================================================================================
Initial prompt: '<|begin_of_text|>I like taking walks in the'
Generated text: '<|begin_of_text|>I like taking walks in thealinkalinkalinkalinkalinkalinkalinkalink'

Model loading time: 0.822s
Total generation time: 52.360s
Tokens generated: 8
Average tokens/second: 0.15

PREFILL (first token):
  Time: 42.144s

DECODE (subsequent tokens):
  Count: 7
  Average time: 1.459s
  Min time: 0.390s
  Max time: 7.800s
  Average tokens/second: 0.69

DETAILED TIMING (all iterations):
Iter | Phase   | Total   | Token
--------------------------------------------------
   0 | prefill | 42.144s | 'alink'
   1 | decode  |  7.800s | 'alink'
   2 | decode  |  0.390s | 'alink'
   3 | decode  |  0.403s | 'alink'
   4 | decode  |  0.402s | 'alink'
   5 | decode  |  0.411s | 'alink'
   6 | decode  |  0.406s | 'alink'
   7 | decode  |  0.404s | 'alink'
PASSED

=============================== warnings summary ===============================
tests/models/llama/test_llama3_generative.py::test_llama3_generate
tests/models/llama/test_llama3_generative.py::test_llama3_generate
  /localdev/jameszianxu/gen_mc/tt-torch/env/venv/lib/python3.10/site-packages/torch/fx/experimental/const_fold.py:264: UserWarning: Attempted to insert a get_attr Node with no underlying reference in the owning GraphModule! Call GraphModule.add_submodule to add the necessary submodule, GraphModule.add_parameter to add the necessary Parameter, or nn.Module.register_buffer to add the necessary buffer
    new_node = root_const_gm.graph.get_attr(in_node.target)

tests/models/llama/test_llama3_generative.py::test_llama3_generate
tests/models/llama/test_llama3_generative.py::test_llama3_generate
  /localdev/jameszianxu/gen_mc/tt-torch/env/venv/lib/python3.10/site-packages/torch/fx/graph.py:1316: UserWarning: Failed to fetch module L__self___model_layers__modules__0___self_attn_q_proj!
    warnings.warn(f"Failed to fetch module {module_path}!")

tests/models/llama/test_llama3_generative.py::test_llama3_generate
tests/models/llama/test_llama3_generative.py::test_llama3_generate
  /localdev/jameszianxu/gen_mc/tt-torch/env/venv/lib/python3.10/site-packages/torch/fx/graph.py:1316: UserWarning: Failed to fetch module L__self___model_layers__modules__0___self_attn_k_proj!
    warnings.warn(f"Failed to fetch module {module_path}!")

tests/models/llama/test_llama3_generative.py::test_llama3_generate
tests/models/llama/test_llama3_generative.py::test_llama3_generate
  /localdev/jameszianxu/gen_mc/tt-torch/env/venv/lib/python3.10/site-packages/torch/fx/graph.py:1316: UserWarning: Failed to fetch module L__self___model_layers__modules__0___self_attn_v_proj!
    warnings.warn(f"Failed to fetch module {module_path}!")

tests/models/llama/test_llama3_generative.py::test_llama3_generate
tests/models/llama/test_llama3_generative.py::test_llama3_generate
  /localdev/jameszianxu/gen_mc/tt-torch/env/venv/lib/python3.10/site-packages/torch/fx/graph.py:1316: UserWarning: Failed to fetch module L__self___model_layers__modules__0___self_attn_o_proj!
    warnings.warn(f"Failed to fetch module {module_path}!")

tests/models/llama/test_llama3_generative.py::test_llama3_generate
tests/models/llama/test_llama3_generative.py::test_llama3_generate
  /localdev/jameszianxu/gen_mc/tt-torch/env/venv/lib/python3.10/site-packages/torch/fx/graph.py:1316: UserWarning: Failed to fetch module L__self___model_layers__modules__0___mlp_gate_proj!
    warnings.warn(f"Failed to fetch module {module_path}!")

tests/models/llama/test_llama3_generative.py::test_llama3_generate
tests/models/llama/test_llama3_generative.py::test_llama3_generate
  /localdev/jameszianxu/gen_mc/tt-torch/env/venv/lib/python3.10/site-packages/torch/fx/graph.py:1316: UserWarning: Failed to fetch module L__self___model_layers__modules__0___mlp_up_proj!
    warnings.warn(f"Failed to fetch module {module_path}!")

tests/models/llama/test_llama3_generative.py::test_llama3_generate
tests/models/llama/test_llama3_generative.py::test_llama3_generate
  /localdev/jameszianxu/gen_mc/tt-torch/env/venv/lib/python3.10/site-packages/torch/fx/graph.py:1316: UserWarning: Failed to fetch module L__self___model_layers__modules__0___mlp_down_proj!
    warnings.warn(f"Failed to fetch module {module_path}!")

tests/models/llama/test_llama3_generative.py::test_llama3_generate
tests/models/llama/test_llama3_generative.py::test_llama3_generate
  /localdev/jameszianxu/gen_mc/tt-torch/env/venv/lib/python3.10/site-packages/torch/fx/graph.py:1316: UserWarning: Failed to fetch module L__self___model_layers__modules__1___self_attn_q_proj!
    warnings.warn(f"Failed to fetch module {module_path}!")

tests/models/llama/test_llama3_generative.py::test_llama3_generate
tests/models/llama/test_llama3_generative.py::test_llama3_generate
  /localdev/jameszianxu/gen_mc/tt-torch/env/venv/lib/python3.10/site-packages/torch/fx/graph.py:1316: UserWarning: Failed to fetch module L__self___model_layers__modules__1___self_attn_k_proj!
    warnings.warn(f"Failed to fetch module {module_path}!")

tests/models/llama/test_llama3_generative.py::test_llama3_generate
tests/models/llama/test_llama3_generative.py::test_llama3_generate
  /localdev/jameszianxu/gen_mc/tt-torch/env/venv/lib/python3.10/site-packages/torch/fx/graph.py:1316: UserWarning: Failed to fetch module L__self___model_layers__modules__1___self_attn_v_proj!
    warnings.warn(f"Failed to fetch module {module_path}!")

tests/models/llama/test_llama3_generative.py::test_llama3_generate
tests/models/llama/test_llama3_generative.py::test_llama3_generate
  /localdev/jameszianxu/gen_mc/tt-torch/env/venv/lib/python3.10/site-packages/torch/fx/graph.py:1316: UserWarning: Failed to fetch module L__self___model_layers__modules__1___self_attn_o_proj!
    warnings.warn(f"Failed to fetch module {module_path}!")

tests/models/llama/test_llama3_generative.py::test_llama3_generate
tests/models/llama/test_llama3_generative.py::test_llama3_generate
  /localdev/jameszianxu/gen_mc/tt-torch/env/venv/lib/python3.10/site-packages/torch/fx/graph.py:1316: UserWarning: Failed to fetch module L__self___model_layers__modules__1___mlp_gate_proj!
    warnings.warn(f"Failed to fetch module {module_path}!")

tests/models/llama/test_llama3_generative.py::test_llama3_generate
tests/models/llama/test_llama3_generative.py::test_llama3_generate
  /localdev/jameszianxu/gen_mc/tt-torch/env/venv/lib/python3.10/site-packages/torch/fx/graph.py:1316: UserWarning: Failed to fetch module L__self___model_layers__modules__1___mlp_up_proj!
    warnings.warn(f"Failed to fetch module {module_path}!")

tests/models/llama/test_llama3_generative.py::test_llama3_generate
tests/models/llama/test_llama3_generative.py::test_llama3_generate
  /localdev/jameszianxu/gen_mc/tt-torch/env/venv/lib/python3.10/site-packages/torch/fx/graph.py:1316: UserWarning: Failed to fetch module L__self___model_layers__modules__1___mlp_down_proj!
    warnings.warn(f"Failed to fetch module {module_path}!")

tests/models/llama/test_llama3_generative.py::test_llama3_generate
tests/models/llama/test_llama3_generative.py::test_llama3_generate
  /localdev/jameszianxu/gen_mc/tt-torch/env/venv/lib/python3.10/site-packages/torch/fx/graph.py:1316: UserWarning: Failed to fetch module L__self___lm_head!
    warnings.warn(f"Failed to fetch module {module_path}!")

tests/models/llama/test_llama3_generative.py::test_llama3_generate
tests/models/llama/test_llama3_generative.py::test_llama3_generate
tests/models/llama/test_llama3_generative.py::test_llama3_generate
tests/models/llama/test_llama3_generative.py::test_llama3_generate
tests/models/llama/test_llama3_generative.py::test_llama3_generate
tests/models/llama/test_llama3_generative.py::test_llama3_generate
tests/models/llama/test_llama3_generative.py::test_llama3_generate
tests/models/llama/test_llama3_generative.py::test_llama3_generate
  /localdev/jameszianxu/gen_mc/tt-torch/tt_torch/dynamo/experimental/xla_backend.py:761: DeprecationWarning: Use torch_xla.sync instead
    xm.mark_step() # explicit compile step

-- Docs: https://docs.pytest.org/en/stable/how-to/capture-warnings.html
======================= 1 passed, 40 warnings in 56.45s ========================
2025-08-11 19:05:55.241 (  53.918s) [        E38731C0]  device_description.cc:44       1| DeviceDescription::PJRT_DeviceDescription_Id
2025-08-11 19:05:55.241 (  53.918s) [        E38731C0]  device_description.cc:44       1| DeviceDescription::PJRT_DeviceDescription_Id
2025-08-11 19:05:55.241 (  53.918s) [        E38731C0]  device_description.cc:44       1| DeviceDescription::PJRT_DeviceDescription_Id
2025-08-11 19:05:55.241 (  53.918s) [        E38731C0]  device_description.cc:44       1| DeviceDescription::PJRT_DeviceDescription_Id
