WARNING:root:Defaulting to PJRT_DEVICE=CPU
2025-09-11 14:26:02.337 (   0.000s) [        166DC000]      dylib_platform.cc:47       1| DylibPlatform::SubclassInitialize
2025-09-11 14:26:02.339 (   0.002s) [        166DC000]     client_instance.cc:38       1| ClientInstance::ClientInstance
2025-09-11 14:26:02.339 (   0.002s) [        166DC000]              client.cc:18       1| TTClientInstance::TTClientInstance
2025-09-11 14:26:02.339 (   0.002s) [        166DC000]     client_instance.cc:59       1| ClientInstance::Initialize
2025-09-11 14:26:06.396 (   4.059s) [        166DC000]              stubs.inc:112   WARN| STUB: PJRT_Client_TopologyDescription
2025-09-11 14:26:06.396 (   4.059s) [        166DC000]      error_instance.cc:49       1| ErrorInstance::PJRT_Error_Message
2025-09-11 14:26:06.396 (   4.059s) [        166DC000]      error_instance.cc:58       1| ErrorInstance::PJRT_Error_GetCode
2025-09-11 14:26:06.396 (   4.059s) [        166DC000]      error_instance.cc:43       1| ErrorInstance::PJRT_Error_Destroy
2025-09-11 14:26:06.396 (   4.059s) [        166DC000]     client_instance.cc:340      1| ClientInstance::PJRT_Client_PlatformVersion
2025-09-11 14:26:06.396 (   4.059s) [        166DC000]     client_instance.cc:320      1| ClientInstance::PJRT_Client_PlatformName
2025-09-11 14:26:06.396 (   4.059s) [        166DC000]     client_instance.cc:352      1| ClientInstance::PJRT_Client_Devices
2025-09-11 14:26:06.396 (   4.059s) [        166DC000]     device_instance.cc:44       1| DeviceInstance::PJRT_Device_GetDescription
2025-09-11 14:26:06.397 (   4.059s) [        166DC000]  device_description.cc:63       1| DeviceDescription::PJRT_DeviceDescription_Attributes
2025-09-11 14:26:06.397 (   4.059s) [        166DC000]     device_instance.cc:44       1| DeviceInstance::PJRT_Device_GetDescription
2025-09-11 14:26:06.397 (   4.059s) [        166DC000]  device_description.cc:63       1| DeviceDescription::PJRT_DeviceDescription_Attributes
2025-09-11 14:26:06.397 (   4.059s) [        166DC000]     client_instance.cc:365      1| ClientInstance::PJRT_Client_AddressableDevices
2025-09-11 14:26:06.397 (   4.059s) [        166DC000]     client_instance.cc:415      1| ClientInstance::PJRT_Client_AddressableMemories
2025-09-11 14:26:06.397 (   4.059s) [        166DC000]     device_instance.cc:71       1| DeviceInstance::PJRT_Device_AddressableMemories
2025-09-11 14:26:06.397 (   4.059s) [        166DC000]     device_instance.cc:71       1| DeviceInstance::PJRT_Device_AddressableMemories
2025-09-11 14:26:06.397 (   4.059s) [        166DC000]     memory_instance.cc:124      1| MemoryInstance::PJRT_Memory_AddressableByDevices
2025-09-11 14:26:06.397 (   4.059s) [        166DC000]     memory_instance.cc:124      1| MemoryInstance::PJRT_Memory_AddressableByDevices
2025-09-11 14:26:06.397 (   4.059s) [        166DC000]     memory_instance.cc:124      1| MemoryInstance::PJRT_Memory_AddressableByDevices
2025-09-11 14:26:06.397 (   4.059s) [        166DC000]        api_bindings.cc:76       1| PJRT_Plugin_Attributes
2025-09-11 14:26:06.397211: W torch_xla/csrc/runtime/profiler.cpp:88] Profiler API not found for PJRT plugin
2025-09-11 14:26:06.397 (   4.060s) [        166DC000]  device_description.cc:44       1| DeviceDescription::PJRT_DeviceDescription_Id
2025-09-11 14:26:06.397 (   4.060s) [        166DC000]  device_description.cc:44       1| DeviceDescription::PJRT_DeviceDescription_Id
2025-09-11 14:26:06.397 (   4.060s) [        166DC000]  device_description.cc:44       1| DeviceDescription::PJRT_DeviceDescription_Id
2025-09-11 14:26:06.397 (   4.060s) [        166DC000]  device_description.cc:44       1| DeviceDescription::PJRT_DeviceDescription_Id
2025-09-11 14:26:06.397 (   4.060s) [        166DC000]  device_description.cc:44       1| DeviceDescription::PJRT_DeviceDescription_Id
2025-09-11 14:26:06.397 (   4.060s) [        166DC000]  device_description.cc:44       1| DeviceDescription::PJRT_DeviceDescription_Id
2025-09-11 14:26:06.397 (   4.060s) [        166DC000]  device_description.cc:99       1| DeviceDescription::PJRT_DeviceDescription_ToString
2025-09-11 14:26:06.397 (   4.060s) [        166DC000]  device_description.cc:99       1| DeviceDescription::PJRT_DeviceDescription_ToString
2025-09-11 14:26:06.397 (   4.060s) [        166DC000]  device_description.cc:44       1| DeviceDescription::PJRT_DeviceDescription_Id
2025-09-11 14:26:06.397 (   4.060s) [        166DC000]  device_description.cc:44       1| DeviceDescription::PJRT_DeviceDescription_Id
2025-09-11 14:26:06.397 (   4.060s) [        166DC000]  device_description.cc:44       1| DeviceDescription::PJRT_DeviceDescription_Id
2025-09-11 14:26:06.397 (   4.060s) [        166DC000]  device_description.cc:44       1| DeviceDescription::PJRT_DeviceDescription_Id
/localdev/jameszianxu/tt-xla/examples/pytorch/llama.py:68: DeprecationWarning: Use torch_xla.device instead
  device = xm.xla_device()
Using TT-Metal from the source tree: /localdev/jameszianxu/tt-xla/third_party/tt-mlir/src/tt-mlir/third_party/tt-metal/src/tt-metal
WARNING: TT plugin is setting XLA_STABLEHLO_COMPILE to 1. This is required for TT PJRT plugin to work correctly.
Setting up XLA environment...
XLA environment configured.
Created device mesh: (1, 2) with 2 devices
Loading checkpoint shards:   0%|          | 0/2 [00:00<?, ?it/s]Loading checkpoint shards: 100%|██████████| 2/2 [00:00<00:00, 53.40it/s]
2025-09-11 14:26:07.928 (   5.591s) [        166DC000]  device_description.cc:44       1| DeviceDescription::PJRT_DeviceDescription_Id
2025-09-11 14:26:07.928 (   5.591s) [        166DC000]  device_description.cc:44       1| DeviceDescription::PJRT_DeviceDescription_Id
2025-09-11 14:26:07.928 (   5.591s) [        166DC000]     device_instance.cc:82       1| DeviceInstance::PJRT_Device_DefaultMemory
2025-09-11 14:26:07.928 (   5.591s) [        166DC000]     client_instance.cc:466      1| ClientInstance::PJRT_Client_BufferFromHostBuffer
2025-09-11 14:26:07.928 (   5.591s) [        166DC000]     memory_instance.cc:57       1| MemoryInstance::getDevice
[32m                 Always[0m | [1m[38;5;208m WARNING[0m | User provided a tensor of data type: Int64 which is not supported by runtime/ttnn. Casting to: Int32, this may impact throughput and the integrity of the data.
2025-09-11 14:26:07.929 (   5.592s) [        166DC000]      event_instance.cc:222      1| EventInstance::PJRT_Event_OnReady
2025-09-11 14:26:07.929 (   5.592s) [        166DC000]      event_instance.cc:171      1| EventInstance::PJRT_Event_Destroy
2025-09-11 14:26:07.929 (   5.592s) [        166DC000]     device_instance.cc:82       1| DeviceInstance::PJRT_Device_DefaultMemory
2025-09-11 14:26:07.929 (   5.592s) [        166DC000]     client_instance.cc:466      1| ClientInstance::PJRT_Client_BufferFromHostBuffer
2025-09-11 14:26:07.929 (   5.592s) [        166DC000]     memory_instance.cc:57       1| MemoryInstance::getDevice
[32m                 Always[0m | [1m[38;5;208m WARNING[0m | User provided a tensor of data type: Int64 which is not supported by runtime/ttnn. Casting to: Int32, this may impact throughput and the integrity of the data.
2025-09-11 14:26:07.929 (   5.592s) [        166DC000]      event_instance.cc:222      1| EventInstance::PJRT_Event_OnReady
2025-09-11 14:26:07.929 (   5.592s) [        166DC000]      event_instance.cc:171      1| EventInstance::PJRT_Event_Destroy
2025-09-11 14:26:07.929 (   5.592s) [        166DC000]  device_description.cc:44       1| DeviceDescription::PJRT_DeviceDescription_Id
2025-09-11 14:26:07.929 (   5.592s) [        166DC000]  device_description.cc:44       1| DeviceDescription::PJRT_DeviceDescription_Id
2025-09-11 14:26:07.929 (   5.592s) [        166DC000]     device_instance.cc:82       1| DeviceInstance::PJRT_Device_DefaultMemory
2025-09-11 14:26:07.929 (   5.592s) [        166DC000]     client_instance.cc:466      1| ClientInstance::PJRT_Client_BufferFromHostBuffer
2025-09-11 14:26:07.930 (   5.592s) [        166DC000]     memory_instance.cc:57       1| MemoryInstance::getDevice
[32m                 Always[0m | [1m[38;5;208m WARNING[0m | User provided a tensor of data type: Int64 which is not supported by runtime/ttnn. Casting to: Int32, this may impact throughput and the integrity of the data.
2025-09-11 14:26:07.930 (   5.593s) [        166DC000]      event_instance.cc:222      1| EventInstance::PJRT_Event_OnReady
2025-09-11 14:26:07.930 (   5.593s) [        166DC000]      event_instance.cc:171      1| EventInstance::PJRT_Event_Destroy
2025-09-11 14:26:07.930 (   5.593s) [        166DC000]     device_instance.cc:82       1| DeviceInstance::PJRT_Device_DefaultMemory
2025-09-11 14:26:07.930 (   5.593s) [        166DC000]     client_instance.cc:466      1| ClientInstance::PJRT_Client_BufferFromHostBuffer
2025-09-11 14:26:07.930 (   5.593s) [        166DC000]     memory_instance.cc:57       1| MemoryInstance::getDevice
[32m                 Always[0m | [1m[38;5;208m WARNING[0m | User provided a tensor of data type: Int64 which is not supported by runtime/ttnn. Casting to: Int32, this may impact throughput and the integrity of the data.
2025-09-11 14:26:07.930 (   5.593s) [        166DC000]      event_instance.cc:222      1| EventInstance::PJRT_Event_OnReady
2025-09-11 14:26:07.930 (   5.593s) [        166DC000]      event_instance.cc:171      1| EventInstance::PJRT_Event_Destroy
2025-09-11 14:26:07.930 (   5.593s) [        166DC000]  device_description.cc:44       1| DeviceDescription::PJRT_DeviceDescription_Id
2025-09-11 14:26:07.930 (   5.593s) [        166DC000]  device_description.cc:44       1| DeviceDescription::PJRT_DeviceDescription_Id
2025-09-11 14:26:07.930 (   5.593s) [        166DC000]     device_instance.cc:82       1| DeviceInstance::PJRT_Device_DefaultMemory
2025-09-11 14:26:07.930 (   5.593s) [        166DC000]     client_instance.cc:466      1| ClientInstance::PJRT_Client_BufferFromHostBuffer
2025-09-11 14:26:07.930 (   5.593s) [        166DC000]     memory_instance.cc:57       1| MemoryInstance::getDevice
2025-09-11 14:26:07.930 (   5.593s) [        166DC000]      event_instance.cc:222      1| EventInstance::PJRT_Event_OnReady
2025-09-11 14:26:07.930 (   5.593s) [        166DC000]      event_instance.cc:171      1| EventInstance::PJRT_Event_Destroy
2025-09-11 14:26:07.930 (   5.593s) [        166DC000]     device_instance.cc:82       1| DeviceInstance::PJRT_Device_DefaultMemory
2025-09-11 14:26:07.930 (   5.593s) [        166DC000]     client_instance.cc:466      1| ClientInstance::PJRT_Client_BufferFromHostBuffer
2025-09-11 14:26:07.930 (   5.593s) [        166DC000]     memory_instance.cc:57       1| MemoryInstance::getDevice
2025-09-11 14:26:07.930 (   5.593s) [        166DC000]      event_instance.cc:222      1| EventInstance::PJRT_Event_OnReady
2025-09-11 14:26:07.930 (   5.593s) [        166DC000]      event_instance.cc:171      1| EventInstance::PJRT_Event_Destroy
2025-09-11 14:26:07.931 (   5.593s) [        166DC000]  device_description.cc:44       1| DeviceDescription::PJRT_DeviceDescription_Id
2025-09-11 14:26:07.931 (   5.593s) [        166DC000]  device_description.cc:44       1| DeviceDescription::PJRT_DeviceDescription_Id
2025-09-11 14:26:07.931 (   5.594s) [        166DC000]     device_instance.cc:82       1| DeviceInstance::PJRT_Device_DefaultMemory
2025-09-11 14:26:07.931 (   5.594s) [        166DC000]     client_instance.cc:466      1| ClientInstance::PJRT_Client_BufferFromHostBuffer
2025-09-11 14:26:07.931 (   5.594s) [        166DC000]     memory_instance.cc:57       1| MemoryInstance::getDevice
2025-09-11 14:26:07.931 (   5.594s) [        166DC000]      event_instance.cc:222      1| EventInstance::PJRT_Event_OnReady
2025-09-11 14:26:07.931 (   5.594s) [        166DC000]      event_instance.cc:171      1| EventInstance::PJRT_Event_Destroy
2025-09-11 14:26:07.931 (   5.594s) [        166DC000]     device_instance.cc:82       1| DeviceInstance::PJRT_Device_DefaultMemory
2025-09-11 14:26:07.931 (   5.594s) [        166DC000]     client_instance.cc:466      1| ClientInstance::PJRT_Client_BufferFromHostBuffer
2025-09-11 14:26:07.931 (   5.594s) [        166DC000]     memory_instance.cc:57       1| MemoryInstance::getDevice
2025-09-11 14:26:07.931 (   5.594s) [        166DC000]      event_instance.cc:222      1| EventInstance::PJRT_Event_OnReady
2025-09-11 14:26:07.931 (   5.594s) [        166DC000]      event_instance.cc:171      1| EventInstance::PJRT_Event_Destroy
2025-09-11 14:26:08.465 (   6.128s) [        166DC000]  device_description.cc:44       1| DeviceDescription::PJRT_DeviceDescription_Id
2025-09-11 14:26:08.465 (   6.128s) [        166DC000]  device_description.cc:44       1| DeviceDescription::PJRT_DeviceDescription_Id
2025-09-11 14:26:08.471 (   6.134s) [        166DC000]     device_instance.cc:82       1| DeviceInstance::PJRT_Device_DefaultMemory
2025-09-11 14:26:08.471 (   6.134s) [        166DC000]     client_instance.cc:466      1| ClientInstance::PJRT_Client_BufferFromHostBuffer
2025-09-11 14:26:08.471 (   6.134s) [        166DC000]     memory_instance.cc:57       1| MemoryInstance::getDevice
2025-09-11 14:26:08.471 (   6.134s) [        166DC000]      event_instance.cc:222      1| EventInstance::PJRT_Event_OnReady
2025-09-11 14:26:08.471 (   6.134s) [        166DC000]      event_instance.cc:171      1| EventInstance::PJRT_Event_Destroy
2025-09-11 14:26:08.472 (   6.134s) [        166DC000]     device_instance.cc:82       1| DeviceInstance::PJRT_Device_DefaultMemory
2025-09-11 14:26:08.472 (   6.134s) [        166DC000]     client_instance.cc:466      1| ClientInstance::PJRT_Client_BufferFromHostBuffer
2025-09-11 14:26:08.472 (   6.134s) [        166DC000]     memory_instance.cc:57       1| MemoryInstance::getDevice
2025-09-11 14:26:08.472 (   6.135s) [        166DC000]      event_instance.cc:222      1| EventInstance::PJRT_Event_OnReady
2025-09-11 14:26:08.472 (   6.135s) [        166DC000]      event_instance.cc:171      1| EventInstance::PJRT_Event_Destroy
2025-09-11 14:26:08.477 (   6.140s) [        166DC000]  device_description.cc:44       1| DeviceDescription::PJRT_DeviceDescription_Id
2025-09-11 14:26:08.477 (   6.140s) [        166DC000]  device_description.cc:44       1| DeviceDescription::PJRT_DeviceDescription_Id
2025-09-11 14:26:08.483 (   6.146s) [        166DC000]     device_instance.cc:82       1| DeviceInstance::PJRT_Device_DefaultMemory
2025-09-11 14:26:08.483 (   6.146s) [        166DC000]     client_instance.cc:466      1| ClientInstance::PJRT_Client_BufferFromHostBuffer
2025-09-11 14:26:08.483 (   6.146s) [        166DC000]     memory_instance.cc:57       1| MemoryInstance::getDevice
2025-09-11 14:26:08.483 (   6.146s) [        166DC000]      event_instance.cc:222      1| EventInstance::PJRT_Event_OnReady
2025-09-11 14:26:08.484 (   6.146s) [        166DC000]      event_instance.cc:171      1| EventInstance::PJRT_Event_Destroy
2025-09-11 14:26:08.484 (   6.146s) [        166DC000]     device_instance.cc:82       1| DeviceInstance::PJRT_Device_DefaultMemory
2025-09-11 14:26:08.484 (   6.146s) [        166DC000]     client_instance.cc:466      1| ClientInstance::PJRT_Client_BufferFromHostBuffer
2025-09-11 14:26:08.484 (   6.147s) [        166DC000]     memory_instance.cc:57       1| MemoryInstance::getDevice
2025-09-11 14:26:08.484 (   6.147s) [        166DC000]      event_instance.cc:222      1| EventInstance::PJRT_Event_OnReady
2025-09-11 14:26:08.484 (   6.147s) [        166DC000]      event_instance.cc:171      1| EventInstance::PJRT_Event_Destroy
2025-09-11 14:26:08.489 (   6.152s) [        166DC000]  device_description.cc:44       1| DeviceDescription::PJRT_DeviceDescription_Id
2025-09-11 14:26:08.489 (   6.152s) [        166DC000]  device_description.cc:44       1| DeviceDescription::PJRT_DeviceDescription_Id
2025-09-11 14:26:08.497 (   6.160s) [        166DC000]     device_instance.cc:82       1| DeviceInstance::PJRT_Device_DefaultMemory
2025-09-11 14:26:08.497 (   6.160s) [        166DC000]     client_instance.cc:466      1| ClientInstance::PJRT_Client_BufferFromHostBuffer
2025-09-11 14:26:08.497 (   6.160s) [        166DC000]     memory_instance.cc:57       1| MemoryInstance::getDevice
2025-09-11 14:26:08.497 (   6.160s) [        166DC000]      event_instance.cc:222      1| EventInstance::PJRT_Event_OnReady
2025-09-11 14:26:08.497 (   6.160s) [        166DC000]      event_instance.cc:171      1| EventInstance::PJRT_Event_Destroy
2025-09-11 14:26:08.497 (   6.160s) [        166DC000]     device_instance.cc:82       1| DeviceInstance::PJRT_Device_DefaultMemory
2025-09-11 14:26:08.497 (   6.160s) [        166DC000]     client_instance.cc:466      1| ClientInstance::PJRT_Client_BufferFromHostBuffer
2025-09-11 14:26:08.497 (   6.160s) [        166DC000]     memory_instance.cc:57       1| MemoryInstance::getDevice
2025-09-11 14:26:08.497 (   6.160s) [        166DC000]      event_instance.cc:222      1| EventInstance::PJRT_Event_OnReady
2025-09-11 14:26:08.497 (   6.160s) [        166DC000]      event_instance.cc:171      1| EventInstance::PJRT_Event_Destroy
2025-09-11 14:26:08.502 (   6.165s) [        166DC000]  device_description.cc:44       1| DeviceDescription::PJRT_DeviceDescription_Id
2025-09-11 14:26:08.502 (   6.165s) [        166DC000]  device_description.cc:44       1| DeviceDescription::PJRT_DeviceDescription_Id
2025-09-11 14:26:08.505 (   6.168s) [        166DC000]     device_instance.cc:82       1| DeviceInstance::PJRT_Device_DefaultMemory
2025-09-11 14:26:08.505 (   6.168s) [        166DC000]     client_instance.cc:466      1| ClientInstance::PJRT_Client_BufferFromHostBuffer
2025-09-11 14:26:08.505 (   6.168s) [        166DC000]     memory_instance.cc:57       1| MemoryInstance::getDevice
2025-09-11 14:26:08.506 (   6.168s) [        166DC000]      event_instance.cc:222      1| EventInstance::PJRT_Event_OnReady
2025-09-11 14:26:08.506 (   6.168s) [        166DC000]      event_instance.cc:171      1| EventInstance::PJRT_Event_Destroy
2025-09-11 14:26:08.506 (   6.168s) [        166DC000]     device_instance.cc:82       1| DeviceInstance::PJRT_Device_DefaultMemory
2025-09-11 14:26:08.506 (   6.169s) [        166DC000]     client_instance.cc:466      1| ClientInstance::PJRT_Client_BufferFromHostBuffer
2025-09-11 14:26:08.506 (   6.169s) [        166DC000]     memory_instance.cc:57       1| MemoryInstance::getDevice
2025-09-11 14:26:08.506 (   6.169s) [        166DC000]      event_instance.cc:222      1| EventInstance::PJRT_Event_OnReady
2025-09-11 14:26:08.506 (   6.169s) [        166DC000]      event_instance.cc:171      1| EventInstance::PJRT_Event_Destroy
2025-09-11 14:26:08.506 (   6.169s) [        166DC000]  device_description.cc:44       1| DeviceDescription::PJRT_DeviceDescription_Id
2025-09-11 14:26:08.506 (   6.169s) [        166DC000]  device_description.cc:44       1| DeviceDescription::PJRT_DeviceDescription_Id
2025-09-11 14:26:08.507 (   6.170s) [        166DC000]     device_instance.cc:82       1| DeviceInstance::PJRT_Device_DefaultMemory
2025-09-11 14:26:08.507 (   6.170s) [        166DC000]     client_instance.cc:466      1| ClientInstance::PJRT_Client_BufferFromHostBuffer
2025-09-11 14:26:08.507 (   6.170s) [        166DC000]     memory_instance.cc:57       1| MemoryInstance::getDevice
2025-09-11 14:26:08.507 (   6.170s) [        166DC000]      event_instance.cc:222      1| EventInstance::PJRT_Event_OnReady
2025-09-11 14:26:08.507 (   6.170s) [        166DC000]      event_instance.cc:171      1| EventInstance::PJRT_Event_Destroy
2025-09-11 14:26:08.507 (   6.170s) [        166DC000]     device_instance.cc:82       1| DeviceInstance::PJRT_Device_DefaultMemory
2025-09-11 14:26:08.507 (   6.170s) [        166DC000]     client_instance.cc:466      1| ClientInstance::PJRT_Client_BufferFromHostBuffer
2025-09-11 14:26:08.507 (   6.170s) [        166DC000]     memory_instance.cc:57       1| MemoryInstance::getDevice
2025-09-11 14:26:08.507 (   6.170s) [        166DC000]      event_instance.cc:222      1| EventInstance::PJRT_Event_OnReady
2025-09-11 14:26:08.507 (   6.170s) [        166DC000]      event_instance.cc:171      1| EventInstance::PJRT_Event_Destroy
2025-09-11 14:26:08.507 (   6.170s) [        166DC000]  device_description.cc:44       1| DeviceDescription::PJRT_DeviceDescription_Id
2025-09-11 14:26:08.507 (   6.170s) [        166DC000]  device_description.cc:44       1| DeviceDescription::PJRT_DeviceDescription_Id
2025-09-11 14:26:08.508 (   6.171s) [        166DC000]     device_instance.cc:82       1| DeviceInstance::PJRT_Device_DefaultMemory
2025-09-11 14:26:08.508 (   6.171s) [        166DC000]     client_instance.cc:466      1| ClientInstance::PJRT_Client_BufferFromHostBuffer
2025-09-11 14:26:08.508 (   6.171s) [        166DC000]     memory_instance.cc:57       1| MemoryInstance::getDevice
2025-09-11 14:26:08.508 (   6.171s) [        166DC000]      event_instance.cc:222      1| EventInstance::PJRT_Event_OnReady
2025-09-11 14:26:08.508 (   6.171s) [        166DC000]      event_instance.cc:171      1| EventInstance::PJRT_Event_Destroy
2025-09-11 14:26:08.508 (   6.171s) [        166DC000]     device_instance.cc:82       1| DeviceInstance::PJRT_Device_DefaultMemory
2025-09-11 14:26:08.508 (   6.171s) [        166DC000]     client_instance.cc:466      1| ClientInstance::PJRT_Client_BufferFromHostBuffer
2025-09-11 14:26:08.508 (   6.171s) [        166DC000]     memory_instance.cc:57       1| MemoryInstance::getDevice
2025-09-11 14:26:08.508 (   6.171s) [        166DC000]      event_instance.cc:222      1| EventInstance::PJRT_Event_OnReady
2025-09-11 14:26:08.508 (   6.171s) [        166DC000]      event_instance.cc:171      1| EventInstance::PJRT_Event_Destroy
2025-09-11 14:26:08.509 (   6.172s) [        166DC000]  device_description.cc:44       1| DeviceDescription::PJRT_DeviceDescription_Id
2025-09-11 14:26:08.509 (   6.172s) [        166DC000]  device_description.cc:44       1| DeviceDescription::PJRT_DeviceDescription_Id
2025-09-11 14:26:08.511 (   6.174s) [        166DC000]     device_instance.cc:82       1| DeviceInstance::PJRT_Device_DefaultMemory
2025-09-11 14:26:08.511 (   6.174s) [        166DC000]     client_instance.cc:466      1| ClientInstance::PJRT_Client_BufferFromHostBuffer
2025-09-11 14:26:08.511 (   6.174s) [        166DC000]     memory_instance.cc:57       1| MemoryInstance::getDevice
2025-09-11 14:26:08.511 (   6.174s) [        166DC000]      event_instance.cc:222      1| EventInstance::PJRT_Event_OnReady
2025-09-11 14:26:08.511 (   6.174s) [        166DC000]      event_instance.cc:171      1| EventInstance::PJRT_Event_Destroy
2025-09-11 14:26:08.511 (   6.174s) [        166DC000]     device_instance.cc:82       1| DeviceInstance::PJRT_Device_DefaultMemory
2025-09-11 14:26:08.511 (   6.174s) [        166DC000]     client_instance.cc:466      1| ClientInstance::PJRT_Client_BufferFromHostBuffer
2025-09-11 14:26:08.511 (   6.174s) [        166DC000]     memory_instance.cc:57       1| MemoryInstance::getDevice
2025-09-11 14:26:08.511 (   6.174s) [        166DC000]      event_instance.cc:222      1| EventInstance::PJRT_Event_OnReady
2025-09-11 14:26:08.511 (   6.174s) [        166DC000]      event_instance.cc:171      1| EventInstance::PJRT_Event_Destroy
2025-09-11 14:26:08.511 (   6.174s) [        166DC000]  device_description.cc:44       1| DeviceDescription::PJRT_DeviceDescription_Id
2025-09-11 14:26:08.511 (   6.174s) [        166DC000]  device_description.cc:44       1| DeviceDescription::PJRT_DeviceDescription_Id
2025-09-11 14:26:08.516 (   6.179s) [        166DC000]     device_instance.cc:82       1| DeviceInstance::PJRT_Device_DefaultMemory
2025-09-11 14:26:08.516 (   6.179s) [        166DC000]     client_instance.cc:466      1| ClientInstance::PJRT_Client_BufferFromHostBuffer
2025-09-11 14:26:08.516 (   6.179s) [        166DC000]     memory_instance.cc:57       1| MemoryInstance::getDevice
2025-09-11 14:26:08.516 (   6.179s) [        166DC000]      event_instance.cc:222      1| EventInstance::PJRT_Event_OnReady
2025-09-11 14:26:08.516 (   6.179s) [        166DC000]      event_instance.cc:171      1| EventInstance::PJRT_Event_Destroy
2025-09-11 14:26:08.516 (   6.179s) [        166DC000]     device_instance.cc:82       1| DeviceInstance::PJRT_Device_DefaultMemory
2025-09-11 14:26:08.516 (   6.179s) [        166DC000]     client_instance.cc:466      1| ClientInstance::PJRT_Client_BufferFromHostBuffer
2025-09-11 14:26:08.516 (   6.179s) [        166DC000]     memory_instance.cc:57       1| MemoryInstance::getDevice
2025-09-11 14:26:08.516 (   6.179s) [        166DC000]      event_instance.cc:222      1| EventInstance::PJRT_Event_OnReady
2025-09-11 14:26:08.516 (   6.179s) [        166DC000]      event_instance.cc:171      1| EventInstance::PJRT_Event_Destroy
2025-09-11 14:26:08.522 (   6.185s) [        166DC000]  device_description.cc:44       1| DeviceDescription::PJRT_DeviceDescription_Id
2025-09-11 14:26:08.522 (   6.185s) [        166DC000]  device_description.cc:44       1| DeviceDescription::PJRT_DeviceDescription_Id
2025-09-11 14:26:08.528 (   6.191s) [        166DC000]     device_instance.cc:82       1| DeviceInstance::PJRT_Device_DefaultMemory
2025-09-11 14:26:08.528 (   6.191s) [        166DC000]     client_instance.cc:466      1| ClientInstance::PJRT_Client_BufferFromHostBuffer
2025-09-11 14:26:08.528 (   6.191s) [        166DC000]     memory_instance.cc:57       1| MemoryInstance::getDevice
2025-09-11 14:26:08.528 (   6.191s) [        166DC000]      event_instance.cc:222      1| EventInstance::PJRT_Event_OnReady
2025-09-11 14:26:08.528 (   6.191s) [        166DC000]      event_instance.cc:171      1| EventInstance::PJRT_Event_Destroy
2025-09-11 14:26:08.528 (   6.191s) [        166DC000]     device_instance.cc:82       1| DeviceInstance::PJRT_Device_DefaultMemory
2025-09-11 14:26:08.528 (   6.191s) [        166DC000]     client_instance.cc:466      1| ClientInstance::PJRT_Client_BufferFromHostBuffer
2025-09-11 14:26:08.528 (   6.191s) [        166DC000]     memory_instance.cc:57       1| MemoryInstance::getDevice
2025-09-11 14:26:08.529 (   6.192s) [        166DC000]      event_instance.cc:222      1| EventInstance::PJRT_Event_OnReady
2025-09-11 14:26:08.529 (   6.192s) [        166DC000]      event_instance.cc:171      1| EventInstance::PJRT_Event_Destroy
2025-09-11 14:26:08.533 (   6.196s) [        166DC000]  device_description.cc:44       1| DeviceDescription::PJRT_DeviceDescription_Id
2025-09-11 14:26:08.534 (   6.196s) [        166DC000]  device_description.cc:44       1| DeviceDescription::PJRT_DeviceDescription_Id
2025-09-11 14:26:08.540 (   6.203s) [        166DC000]     device_instance.cc:82       1| DeviceInstance::PJRT_Device_DefaultMemory
2025-09-11 14:26:08.540 (   6.203s) [        166DC000]     client_instance.cc:466      1| ClientInstance::PJRT_Client_BufferFromHostBuffer
2025-09-11 14:26:08.540 (   6.203s) [        166DC000]     memory_instance.cc:57       1| MemoryInstance::getDevice
2025-09-11 14:26:08.541 (   6.204s) [        166DC000]      event_instance.cc:222      1| EventInstance::PJRT_Event_OnReady
2025-09-11 14:26:08.541 (   6.204s) [        166DC000]      event_instance.cc:171      1| EventInstance::PJRT_Event_Destroy
2025-09-11 14:26:08.541 (   6.204s) [        166DC000]     device_instance.cc:82       1| DeviceInstance::PJRT_Device_DefaultMemory
2025-09-11 14:26:08.541 (   6.204s) [        166DC000]     client_instance.cc:466      1| ClientInstance::PJRT_Client_BufferFromHostBuffer
2025-09-11 14:26:08.541 (   6.204s) [        166DC000]     memory_instance.cc:57       1| MemoryInstance::getDevice
2025-09-11 14:26:08.541 (   6.204s) [        166DC000]      event_instance.cc:222      1| EventInstance::PJRT_Event_OnReady
2025-09-11 14:26:08.541 (   6.204s) [        166DC000]      event_instance.cc:171      1| EventInstance::PJRT_Event_Destroy
2025-09-11 14:26:08.546 (   6.209s) [        166DC000]  device_description.cc:44       1| DeviceDescription::PJRT_DeviceDescription_Id
2025-09-11 14:26:08.546 (   6.209s) [        166DC000]  device_description.cc:44       1| DeviceDescription::PJRT_DeviceDescription_Id
2025-09-11 14:26:08.548 (   6.211s) [        166DC000]     device_instance.cc:82       1| DeviceInstance::PJRT_Device_DefaultMemory
2025-09-11 14:26:08.549 (   6.211s) [        166DC000]     client_instance.cc:466      1| ClientInstance::PJRT_Client_BufferFromHostBuffer
2025-09-11 14:26:08.549 (   6.211s) [        166DC000]     memory_instance.cc:57       1| MemoryInstance::getDevice
2025-09-11 14:26:08.549 (   6.212s) [        166DC000]      event_instance.cc:222      1| EventInstance::PJRT_Event_OnReady
2025-09-11 14:26:08.549 (   6.212s) [        166DC000]      event_instance.cc:171      1| EventInstance::PJRT_Event_Destroy
2025-09-11 14:26:08.549 (   6.212s) [        166DC000]     device_instance.cc:82       1| DeviceInstance::PJRT_Device_DefaultMemory
2025-09-11 14:26:08.549 (   6.212s) [        166DC000]     client_instance.cc:466      1| ClientInstance::PJRT_Client_BufferFromHostBuffer
2025-09-11 14:26:08.549 (   6.212s) [        166DC000]     memory_instance.cc:57       1| MemoryInstance::getDevice
2025-09-11 14:26:08.549 (   6.212s) [        166DC000]      event_instance.cc:222      1| EventInstance::PJRT_Event_OnReady
2025-09-11 14:26:08.549 (   6.212s) [        166DC000]      event_instance.cc:171      1| EventInstance::PJRT_Event_Destroy
2025-09-11 14:26:08.549 (   6.212s) [        166DC000]  device_description.cc:44       1| DeviceDescription::PJRT_DeviceDescription_Id
2025-09-11 14:26:08.549 (   6.212s) [        166DC000]  device_description.cc:44       1| DeviceDescription::PJRT_DeviceDescription_Id
2025-09-11 14:26:08.550 (   6.213s) [        166DC000]     device_instance.cc:82       1| DeviceInstance::PJRT_Device_DefaultMemory
2025-09-11 14:26:08.550 (   6.213s) [        166DC000]     client_instance.cc:466      1| ClientInstance::PJRT_Client_BufferFromHostBuffer
2025-09-11 14:26:08.550 (   6.213s) [        166DC000]     memory_instance.cc:57       1| MemoryInstance::getDevice
2025-09-11 14:26:08.550 (   6.213s) [        166DC000]      event_instance.cc:222      1| EventInstance::PJRT_Event_OnReady
2025-09-11 14:26:08.550 (   6.213s) [        166DC000]      event_instance.cc:171      1| EventInstance::PJRT_Event_Destroy
2025-09-11 14:26:08.550 (   6.213s) [        166DC000]     device_instance.cc:82       1| DeviceInstance::PJRT_Device_DefaultMemory
2025-09-11 14:26:08.550 (   6.213s) [        166DC000]     client_instance.cc:466      1| ClientInstance::PJRT_Client_BufferFromHostBuffer
2025-09-11 14:26:08.550 (   6.213s) [        166DC000]     memory_instance.cc:57       1| MemoryInstance::getDevice
2025-09-11 14:26:08.550 (   6.213s) [        166DC000]      event_instance.cc:222      1| EventInstance::PJRT_Event_OnReady
2025-09-11 14:26:08.550 (   6.213s) [        166DC000]      event_instance.cc:171      1| EventInstance::PJRT_Event_Destroy
2025-09-11 14:26:08.550 (   6.213s) [        166DC000]  device_description.cc:44       1| DeviceDescription::PJRT_DeviceDescription_Id
2025-09-11 14:26:08.550 (   6.213s) [        166DC000]  device_description.cc:44       1| DeviceDescription::PJRT_DeviceDescription_Id
2025-09-11 14:26:08.551 (   6.214s) [        166DC000]     device_instance.cc:82       1| DeviceInstance::PJRT_Device_DefaultMemory
2025-09-11 14:26:08.551 (   6.214s) [        166DC000]     client_instance.cc:466      1| ClientInstance::PJRT_Client_BufferFromHostBuffer
2025-09-11 14:26:08.551 (   6.214s) [        166DC000]     memory_instance.cc:57       1| MemoryInstance::getDevice
2025-09-11 14:26:08.551 (   6.214s) [        166DC000]      event_instance.cc:222      1| EventInstance::PJRT_Event_OnReady
2025-09-11 14:26:08.551 (   6.214s) [        166DC000]      event_instance.cc:171      1| EventInstance::PJRT_Event_Destroy
2025-09-11 14:26:08.551 (   6.214s) [        166DC000]     device_instance.cc:82       1| DeviceInstance::PJRT_Device_DefaultMemory
2025-09-11 14:26:08.551 (   6.214s) [        166DC000]     client_instance.cc:466      1| ClientInstance::PJRT_Client_BufferFromHostBuffer
2025-09-11 14:26:08.551 (   6.214s) [        166DC000]     memory_instance.cc:57       1| MemoryInstance::getDevice
2025-09-11 14:26:08.551 (   6.214s) [        166DC000]      event_instance.cc:222      1| EventInstance::PJRT_Event_OnReady
2025-09-11 14:26:08.551 (   6.214s) [        166DC000]      event_instance.cc:171      1| EventInstance::PJRT_Event_Destroy
2025-09-11 14:26:08.551 (   6.214s) [        166DC000]  device_description.cc:44       1| DeviceDescription::PJRT_DeviceDescription_Id
2025-09-11 14:26:08.551 (   6.214s) [        166DC000]  device_description.cc:44       1| DeviceDescription::PJRT_DeviceDescription_Id
2025-09-11 14:26:08.555 (   6.218s) [        166DC000]     device_instance.cc:82       1| DeviceInstance::PJRT_Device_DefaultMemory
2025-09-11 14:26:08.555 (   6.218s) [        166DC000]     client_instance.cc:466      1| ClientInstance::PJRT_Client_BufferFromHostBuffer
2025-09-11 14:26:08.555 (   6.218s) [        166DC000]     memory_instance.cc:57       1| MemoryInstance::getDevice
2025-09-11 14:26:08.555 (   6.218s) [        166DC000]      event_instance.cc:222      1| EventInstance::PJRT_Event_OnReady
2025-09-11 14:26:08.555 (   6.218s) [        166DC000]      event_instance.cc:171      1| EventInstance::PJRT_Event_Destroy
2025-09-11 14:26:08.555 (   6.218s) [        166DC000]     device_instance.cc:82       1| DeviceInstance::PJRT_Device_DefaultMemory
2025-09-11 14:26:08.555 (   6.218s) [        166DC000]     client_instance.cc:466      1| ClientInstance::PJRT_Client_BufferFromHostBuffer
2025-09-11 14:26:08.555 (   6.218s) [        166DC000]     memory_instance.cc:57       1| MemoryInstance::getDevice
2025-09-11 14:26:08.555 (   6.218s) [        166DC000]      event_instance.cc:222      1| EventInstance::PJRT_Event_OnReady
2025-09-11 14:26:08.555 (   6.218s) [        166DC000]      event_instance.cc:171      1| EventInstance::PJRT_Event_Destroy
2025-09-11 14:26:08.555 (   6.218s) [        166DC000]  device_description.cc:44       1| DeviceDescription::PJRT_DeviceDescription_Id
2025-09-11 14:26:08.555 (   6.218s) [        166DC000]  device_description.cc:44       1| DeviceDescription::PJRT_DeviceDescription_Id
2025-09-11 14:26:08.561 (   6.224s) [        166DC000]     device_instance.cc:82       1| DeviceInstance::PJRT_Device_DefaultMemory
2025-09-11 14:26:08.561 (   6.224s) [        166DC000]     client_instance.cc:466      1| ClientInstance::PJRT_Client_BufferFromHostBuffer
2025-09-11 14:26:08.561 (   6.224s) [        166DC000]     memory_instance.cc:57       1| MemoryInstance::getDevice
2025-09-11 14:26:08.561 (   6.224s) [        166DC000]      event_instance.cc:222      1| EventInstance::PJRT_Event_OnReady
2025-09-11 14:26:08.561 (   6.224s) [        166DC000]      event_instance.cc:171      1| EventInstance::PJRT_Event_Destroy
2025-09-11 14:26:08.561 (   6.224s) [        166DC000]     device_instance.cc:82       1| DeviceInstance::PJRT_Device_DefaultMemory
2025-09-11 14:26:08.561 (   6.224s) [        166DC000]     client_instance.cc:466      1| ClientInstance::PJRT_Client_BufferFromHostBuffer
2025-09-11 14:26:08.561 (   6.224s) [        166DC000]     memory_instance.cc:57       1| MemoryInstance::getDevice
2025-09-11 14:26:08.562 (   6.224s) [        166DC000]      event_instance.cc:222      1| EventInstance::PJRT_Event_OnReady
2025-09-11 14:26:08.562 (   6.224s) [        166DC000]      event_instance.cc:171      1| EventInstance::PJRT_Event_Destroy
2025-09-11 14:26:08.567 (   6.230s) [        166DC000]  device_description.cc:44       1| DeviceDescription::PJRT_DeviceDescription_Id
2025-09-11 14:26:08.567 (   6.230s) [        166DC000]  device_description.cc:44       1| DeviceDescription::PJRT_DeviceDescription_Id
2025-09-11 14:26:08.573 (   6.236s) [        166DC000]     device_instance.cc:82       1| DeviceInstance::PJRT_Device_DefaultMemory
2025-09-11 14:26:08.573 (   6.236s) [        166DC000]     client_instance.cc:466      1| ClientInstance::PJRT_Client_BufferFromHostBuffer
2025-09-11 14:26:08.573 (   6.236s) [        166DC000]     memory_instance.cc:57       1| MemoryInstance::getDevice
2025-09-11 14:26:08.573 (   6.236s) [        166DC000]      event_instance.cc:222      1| EventInstance::PJRT_Event_OnReady
2025-09-11 14:26:08.573 (   6.236s) [        166DC000]      event_instance.cc:171      1| EventInstance::PJRT_Event_Destroy
2025-09-11 14:26:08.573 (   6.236s) [        166DC000]     device_instance.cc:82       1| DeviceInstance::PJRT_Device_DefaultMemory
2025-09-11 14:26:08.573 (   6.236s) [        166DC000]     client_instance.cc:466      1| ClientInstance::PJRT_Client_BufferFromHostBuffer
2025-09-11 14:26:08.573 (   6.236s) [        166DC000]     memory_instance.cc:57       1| MemoryInstance::getDevice
2025-09-11 14:26:08.574 (   6.236s) [        166DC000]      event_instance.cc:222      1| EventInstance::PJRT_Event_OnReady
2025-09-11 14:26:08.574 (   6.237s) [        166DC000]      event_instance.cc:171      1| EventInstance::PJRT_Event_Destroy
2025-09-11 14:26:08.579 (   6.242s) [        166DC000]  device_description.cc:44       1| DeviceDescription::PJRT_DeviceDescription_Id
2025-09-11 14:26:08.579 (   6.242s) [        166DC000]  device_description.cc:44       1| DeviceDescription::PJRT_DeviceDescription_Id
2025-09-11 14:26:08.586 (   6.249s) [        166DC000]     device_instance.cc:82       1| DeviceInstance::PJRT_Device_DefaultMemory
2025-09-11 14:26:08.587 (   6.250s) [        166DC000]     client_instance.cc:466      1| ClientInstance::PJRT_Client_BufferFromHostBuffer
2025-09-11 14:26:08.587 (   6.250s) [        166DC000]     memory_instance.cc:57       1| MemoryInstance::getDevice
2025-09-11 14:26:08.587 (   6.250s) [        166DC000]      event_instance.cc:222      1| EventInstance::PJRT_Event_OnReady
2025-09-11 14:26:08.587 (   6.250s) [        166DC000]      event_instance.cc:171      1| EventInstance::PJRT_Event_Destroy
2025-09-11 14:26:08.587 (   6.250s) [        166DC000]     device_instance.cc:82       1| DeviceInstance::PJRT_Device_DefaultMemory
2025-09-11 14:26:08.587 (   6.250s) [        166DC000]     client_instance.cc:466      1| ClientInstance::PJRT_Client_BufferFromHostBuffer
2025-09-11 14:26:08.587 (   6.250s) [        166DC000]     memory_instance.cc:57       1| MemoryInstance::getDevice
2025-09-11 14:26:08.587 (   6.250s) [        166DC000]      event_instance.cc:222      1| EventInstance::PJRT_Event_OnReady
2025-09-11 14:26:08.587 (   6.250s) [        166DC000]      event_instance.cc:171      1| EventInstance::PJRT_Event_Destroy
2025-09-11 14:26:08.592 (   6.255s) [        166DC000]  device_description.cc:44       1| DeviceDescription::PJRT_DeviceDescription_Id
2025-09-11 14:26:08.592 (   6.255s) [        166DC000]  device_description.cc:44       1| DeviceDescription::PJRT_DeviceDescription_Id
2025-09-11 14:26:08.595 (   6.258s) [        166DC000]     device_instance.cc:82       1| DeviceInstance::PJRT_Device_DefaultMemory
2025-09-11 14:26:08.595 (   6.258s) [        166DC000]     client_instance.cc:466      1| ClientInstance::PJRT_Client_BufferFromHostBuffer
2025-09-11 14:26:08.595 (   6.258s) [        166DC000]     memory_instance.cc:57       1| MemoryInstance::getDevice
2025-09-11 14:26:08.595 (   6.258s) [        166DC000]      event_instance.cc:222      1| EventInstance::PJRT_Event_OnReady
2025-09-11 14:26:08.595 (   6.258s) [        166DC000]      event_instance.cc:171      1| EventInstance::PJRT_Event_Destroy
2025-09-11 14:26:08.595 (   6.258s) [        166DC000]     device_instance.cc:82       1| DeviceInstance::PJRT_Device_DefaultMemory
2025-09-11 14:26:08.595 (   6.258s) [        166DC000]     client_instance.cc:466      1| ClientInstance::PJRT_Client_BufferFromHostBuffer
2025-09-11 14:26:08.595 (   6.258s) [        166DC000]     memory_instance.cc:57       1| MemoryInstance::getDevice
2025-09-11 14:26:08.595 (   6.258s) [        166DC000]      event_instance.cc:222      1| EventInstance::PJRT_Event_OnReady
2025-09-11 14:26:08.595 (   6.258s) [        166DC000]      event_instance.cc:171      1| EventInstance::PJRT_Event_Destroy
2025-09-11 14:26:08.595 (   6.258s) [        166DC000]  device_description.cc:44       1| DeviceDescription::PJRT_DeviceDescription_Id
2025-09-11 14:26:08.595 (   6.258s) [        166DC000]  device_description.cc:44       1| DeviceDescription::PJRT_DeviceDescription_Id
2025-09-11 14:26:08.596 (   6.259s) [        166DC000]     device_instance.cc:82       1| DeviceInstance::PJRT_Device_DefaultMemory
2025-09-11 14:26:08.596 (   6.259s) [        166DC000]     client_instance.cc:466      1| ClientInstance::PJRT_Client_BufferFromHostBuffer
2025-09-11 14:26:08.596 (   6.259s) [        166DC000]     memory_instance.cc:57       1| MemoryInstance::getDevice
2025-09-11 14:26:08.597 (   6.259s) [        166DC000]      event_instance.cc:222      1| EventInstance::PJRT_Event_OnReady
2025-09-11 14:26:08.597 (   6.260s) [        166DC000]      event_instance.cc:171      1| EventInstance::PJRT_Event_Destroy
2025-09-11 14:26:08.597 (   6.260s) [        166DC000]     device_instance.cc:82       1| DeviceInstance::PJRT_Device_DefaultMemory
2025-09-11 14:26:08.597 (   6.260s) [        166DC000]     client_instance.cc:466      1| ClientInstance::PJRT_Client_BufferFromHostBuffer
2025-09-11 14:26:08.597 (   6.260s) [        166DC000]     memory_instance.cc:57       1| MemoryInstance::getDevice
2025-09-11 14:26:08.597 (   6.260s) [        166DC000]      event_instance.cc:222      1| EventInstance::PJRT_Event_OnReady
2025-09-11 14:26:08.597 (   6.260s) [        166DC000]      event_instance.cc:171      1| EventInstance::PJRT_Event_Destroy
2025-09-11 14:26:08.597 (   6.260s) [        166DC000]  device_description.cc:44       1| DeviceDescription::PJRT_DeviceDescription_Id
2025-09-11 14:26:08.597 (   6.260s) [        166DC000]  device_description.cc:44       1| DeviceDescription::PJRT_DeviceDescription_Id
2025-09-11 14:26:08.598 (   6.261s) [        166DC000]     device_instance.cc:82       1| DeviceInstance::PJRT_Device_DefaultMemory
2025-09-11 14:26:08.598 (   6.261s) [        166DC000]     client_instance.cc:466      1| ClientInstance::PJRT_Client_BufferFromHostBuffer
2025-09-11 14:26:08.598 (   6.261s) [        166DC000]     memory_instance.cc:57       1| MemoryInstance::getDevice
2025-09-11 14:26:08.598 (   6.261s) [        166DC000]      event_instance.cc:222      1| EventInstance::PJRT_Event_OnReady
2025-09-11 14:26:08.598 (   6.261s) [        166DC000]      event_instance.cc:171      1| EventInstance::PJRT_Event_Destroy
2025-09-11 14:26:08.598 (   6.261s) [        166DC000]     device_instance.cc:82       1| DeviceInstance::PJRT_Device_DefaultMemory
2025-09-11 14:26:08.598 (   6.261s) [        166DC000]     client_instance.cc:466      1| ClientInstance::PJRT_Client_BufferFromHostBuffer
2025-09-11 14:26:08.598 (   6.261s) [        166DC000]     memory_instance.cc:57       1| MemoryInstance::getDevice
2025-09-11 14:26:08.598 (   6.261s) [        166DC000]      event_instance.cc:222      1| EventInstance::PJRT_Event_OnReady
2025-09-11 14:26:08.598 (   6.261s) [        166DC000]      event_instance.cc:171      1| EventInstance::PJRT_Event_Destroy
2025-09-11 14:26:08.598 (   6.261s) [        166DC000]  device_description.cc:44       1| DeviceDescription::PJRT_DeviceDescription_Id
2025-09-11 14:26:08.598 (   6.261s) [        166DC000]  device_description.cc:44       1| DeviceDescription::PJRT_DeviceDescription_Id
2025-09-11 14:26:08.602 (   6.265s) [        166DC000]     device_instance.cc:82       1| DeviceInstance::PJRT_Device_DefaultMemory
2025-09-11 14:26:08.602 (   6.265s) [        166DC000]     client_instance.cc:466      1| ClientInstance::PJRT_Client_BufferFromHostBuffer
2025-09-11 14:26:08.602 (   6.265s) [        166DC000]     memory_instance.cc:57       1| MemoryInstance::getDevice
2025-09-11 14:26:08.603 (   6.265s) [        166DC000]      event_instance.cc:222      1| EventInstance::PJRT_Event_OnReady
2025-09-11 14:26:08.603 (   6.265s) [        166DC000]      event_instance.cc:171      1| EventInstance::PJRT_Event_Destroy
2025-09-11 14:26:08.603 (   6.266s) [        166DC000]     device_instance.cc:82       1| DeviceInstance::PJRT_Device_DefaultMemory
2025-09-11 14:26:08.603 (   6.266s) [        166DC000]     client_instance.cc:466      1| ClientInstance::PJRT_Client_BufferFromHostBuffer
2025-09-11 14:26:08.603 (   6.266s) [        166DC000]     memory_instance.cc:57       1| MemoryInstance::getDevice
2025-09-11 14:26:08.603 (   6.266s) [        166DC000]      event_instance.cc:222      1| EventInstance::PJRT_Event_OnReady
2025-09-11 14:26:08.603 (   6.266s) [        166DC000]      event_instance.cc:171      1| EventInstance::PJRT_Event_Destroy
2025-09-11 14:26:08.603 (   6.266s) [        166DC000]  device_description.cc:44       1| DeviceDescription::PJRT_DeviceDescription_Id
2025-09-11 14:26:08.603 (   6.266s) [        166DC000]  device_description.cc:44       1| DeviceDescription::PJRT_DeviceDescription_Id
2025-09-11 14:26:08.609 (   6.272s) [        166DC000]     device_instance.cc:82       1| DeviceInstance::PJRT_Device_DefaultMemory
2025-09-11 14:26:08.609 (   6.272s) [        166DC000]     client_instance.cc:466      1| ClientInstance::PJRT_Client_BufferFromHostBuffer
2025-09-11 14:26:08.609 (   6.272s) [        166DC000]     memory_instance.cc:57       1| MemoryInstance::getDevice
2025-09-11 14:26:08.609 (   6.272s) [        166DC000]      event_instance.cc:222      1| EventInstance::PJRT_Event_OnReady
2025-09-11 14:26:08.609 (   6.272s) [        166DC000]      event_instance.cc:171      1| EventInstance::PJRT_Event_Destroy
2025-09-11 14:26:08.609 (   6.272s) [        166DC000]     device_instance.cc:82       1| DeviceInstance::PJRT_Device_DefaultMemory
2025-09-11 14:26:08.609 (   6.272s) [        166DC000]     client_instance.cc:466      1| ClientInstance::PJRT_Client_BufferFromHostBuffer
2025-09-11 14:26:08.609 (   6.272s) [        166DC000]     memory_instance.cc:57       1| MemoryInstance::getDevice
2025-09-11 14:26:08.609 (   6.272s) [        166DC000]      event_instance.cc:222      1| EventInstance::PJRT_Event_OnReady
2025-09-11 14:26:08.609 (   6.272s) [        166DC000]      event_instance.cc:171      1| EventInstance::PJRT_Event_Destroy
2025-09-11 14:26:08.615 (   6.278s) [        166DC000]  device_description.cc:44       1| DeviceDescription::PJRT_DeviceDescription_Id
2025-09-11 14:26:08.615 (   6.278s) [        166DC000]  device_description.cc:44       1| DeviceDescription::PJRT_DeviceDescription_Id
2025-09-11 14:26:08.620 (   6.283s) [        166DC000]     device_instance.cc:82       1| DeviceInstance::PJRT_Device_DefaultMemory
2025-09-11 14:26:08.620 (   6.283s) [        166DC000]     client_instance.cc:466      1| ClientInstance::PJRT_Client_BufferFromHostBuffer
2025-09-11 14:26:08.620 (   6.283s) [        166DC000]     memory_instance.cc:57       1| MemoryInstance::getDevice
2025-09-11 14:26:08.620 (   6.283s) [        166DC000]      event_instance.cc:222      1| EventInstance::PJRT_Event_OnReady
2025-09-11 14:26:08.620 (   6.283s) [        166DC000]      event_instance.cc:171      1| EventInstance::PJRT_Event_Destroy
2025-09-11 14:26:08.620 (   6.283s) [        166DC000]     device_instance.cc:82       1| DeviceInstance::PJRT_Device_DefaultMemory
2025-09-11 14:26:08.620 (   6.283s) [        166DC000]     client_instance.cc:466      1| ClientInstance::PJRT_Client_BufferFromHostBuffer
2025-09-11 14:26:08.620 (   6.283s) [        166DC000]     memory_instance.cc:57       1| MemoryInstance::getDevice
2025-09-11 14:26:08.620 (   6.283s) [        166DC000]      event_instance.cc:222      1| EventInstance::PJRT_Event_OnReady
2025-09-11 14:26:08.620 (   6.283s) [        166DC000]      event_instance.cc:171      1| EventInstance::PJRT_Event_Destroy
2025-09-11 14:26:08.625 (   6.288s) [        166DC000]  device_description.cc:44       1| DeviceDescription::PJRT_DeviceDescription_Id
2025-09-11 14:26:08.625 (   6.288s) [        166DC000]  device_description.cc:44       1| DeviceDescription::PJRT_DeviceDescription_Id
2025-09-11 14:26:08.633 (   6.296s) [        166DC000]     device_instance.cc:82       1| DeviceInstance::PJRT_Device_DefaultMemory
2025-09-11 14:26:08.633 (   6.296s) [        166DC000]     client_instance.cc:466      1| ClientInstance::PJRT_Client_BufferFromHostBuffer
2025-09-11 14:26:08.633 (   6.296s) [        166DC000]     memory_instance.cc:57       1| MemoryInstance::getDevice
2025-09-11 14:26:08.633 (   6.296s) [        166DC000]      event_instance.cc:222      1| EventInstance::PJRT_Event_OnReady
2025-09-11 14:26:08.634 (   6.296s) [        166DC000]      event_instance.cc:171      1| EventInstance::PJRT_Event_Destroy
2025-09-11 14:26:08.634 (   6.296s) [        166DC000]     device_instance.cc:82       1| DeviceInstance::PJRT_Device_DefaultMemory
2025-09-11 14:26:08.634 (   6.296s) [        166DC000]     client_instance.cc:466      1| ClientInstance::PJRT_Client_BufferFromHostBuffer
2025-09-11 14:26:08.634 (   6.296s) [        166DC000]     memory_instance.cc:57       1| MemoryInstance::getDevice
2025-09-11 14:26:08.634 (   6.297s) [        166DC000]      event_instance.cc:222      1| EventInstance::PJRT_Event_OnReady
2025-09-11 14:26:08.634 (   6.297s) [        166DC000]      event_instance.cc:171      1| EventInstance::PJRT_Event_Destroy
2025-09-11 14:26:08.639 (   6.302s) [        166DC000]  device_description.cc:44       1| DeviceDescription::PJRT_DeviceDescription_Id
2025-09-11 14:26:08.639 (   6.302s) [        166DC000]  device_description.cc:44       1| DeviceDescription::PJRT_DeviceDescription_Id
2025-09-11 14:26:08.641 (   6.304s) [        166DC000]     device_instance.cc:82       1| DeviceInstance::PJRT_Device_DefaultMemory
2025-09-11 14:26:08.641 (   6.304s) [        166DC000]     client_instance.cc:466      1| ClientInstance::PJRT_Client_BufferFromHostBuffer
2025-09-11 14:26:08.641 (   6.304s) [        166DC000]     memory_instance.cc:57       1| MemoryInstance::getDevice
2025-09-11 14:26:08.641 (   6.304s) [        166DC000]      event_instance.cc:222      1| EventInstance::PJRT_Event_OnReady
2025-09-11 14:26:08.641 (   6.304s) [        166DC000]      event_instance.cc:171      1| EventInstance::PJRT_Event_Destroy
2025-09-11 14:26:08.641 (   6.304s) [        166DC000]     device_instance.cc:82       1| DeviceInstance::PJRT_Device_DefaultMemory
2025-09-11 14:26:08.641 (   6.304s) [        166DC000]     client_instance.cc:466      1| ClientInstance::PJRT_Client_BufferFromHostBuffer
2025-09-11 14:26:08.641 (   6.304s) [        166DC000]     memory_instance.cc:57       1| MemoryInstance::getDevice
2025-09-11 14:26:08.642 (   6.304s) [        166DC000]      event_instance.cc:222      1| EventInstance::PJRT_Event_OnReady
2025-09-11 14:26:08.642 (   6.304s) [        166DC000]      event_instance.cc:171      1| EventInstance::PJRT_Event_Destroy
2025-09-11 14:26:08.642 (   6.305s) [        166DC000]  device_description.cc:44       1| DeviceDescription::PJRT_DeviceDescription_Id
2025-09-11 14:26:08.642 (   6.305s) [        166DC000]  device_description.cc:44       1| DeviceDescription::PJRT_DeviceDescription_Id
2025-09-11 14:26:08.642 (   6.305s) [        166DC000]     device_instance.cc:82       1| DeviceInstance::PJRT_Device_DefaultMemory
2025-09-11 14:26:08.642 (   6.305s) [        166DC000]     client_instance.cc:466      1| ClientInstance::PJRT_Client_BufferFromHostBuffer
2025-09-11 14:26:08.642 (   6.305s) [        166DC000]     memory_instance.cc:57       1| MemoryInstance::getDevice
2025-09-11 14:26:08.642 (   6.305s) [        166DC000]      event_instance.cc:222      1| EventInstance::PJRT_Event_OnReady
2025-09-11 14:26:08.642 (   6.305s) [        166DC000]      event_instance.cc:171      1| EventInstance::PJRT_Event_Destroy
2025-09-11 14:26:08.642 (   6.305s) [        166DC000]     device_instance.cc:82       1| DeviceInstance::PJRT_Device_DefaultMemory
2025-09-11 14:26:08.642 (   6.305s) [        166DC000]     client_instance.cc:466      1| ClientInstance::PJRT_Client_BufferFromHostBuffer
2025-09-11 14:26:08.642 (   6.305s) [        166DC000]     memory_instance.cc:57       1| MemoryInstance::getDevice
2025-09-11 14:26:08.643 (   6.305s) [        166DC000]      event_instance.cc:222      1| EventInstance::PJRT_Event_OnReady
2025-09-11 14:26:08.643 (   6.305s) [        166DC000]      event_instance.cc:171      1| EventInstance::PJRT_Event_Destroy
2025-09-11 14:26:08.643 (   6.306s) [        166DC000]  device_description.cc:44       1| DeviceDescription::PJRT_DeviceDescription_Id
2025-09-11 14:26:08.643 (   6.306s) [        166DC000]  device_description.cc:44       1| DeviceDescription::PJRT_DeviceDescription_Id
2025-09-11 14:26:08.643 (   6.306s) [        166DC000]     device_instance.cc:82       1| DeviceInstance::PJRT_Device_DefaultMemory
2025-09-11 14:26:08.643 (   6.306s) [        166DC000]     client_instance.cc:466      1| ClientInstance::PJRT_Client_BufferFromHostBuffer
2025-09-11 14:26:08.643 (   6.306s) [        166DC000]     memory_instance.cc:57       1| MemoryInstance::getDevice
2025-09-11 14:26:08.643 (   6.306s) [        166DC000]      event_instance.cc:222      1| EventInstance::PJRT_Event_OnReady
2025-09-11 14:26:08.643 (   6.306s) [        166DC000]      event_instance.cc:171      1| EventInstance::PJRT_Event_Destroy
2025-09-11 14:26:08.643 (   6.306s) [        166DC000]     device_instance.cc:82       1| DeviceInstance::PJRT_Device_DefaultMemory
2025-09-11 14:26:08.643 (   6.306s) [        166DC000]     client_instance.cc:466      1| ClientInstance::PJRT_Client_BufferFromHostBuffer
2025-09-11 14:26:08.643 (   6.306s) [        166DC000]     memory_instance.cc:57       1| MemoryInstance::getDevice
2025-09-11 14:26:08.643 (   6.306s) [        166DC000]      event_instance.cc:222      1| EventInstance::PJRT_Event_OnReady
2025-09-11 14:26:08.643 (   6.306s) [        166DC000]      event_instance.cc:171      1| EventInstance::PJRT_Event_Destroy
2025-09-11 14:26:08.643 (   6.306s) [        166DC000]  device_description.cc:44       1| DeviceDescription::PJRT_DeviceDescription_Id
2025-09-11 14:26:08.643 (   6.306s) [        166DC000]  device_description.cc:44       1| DeviceDescription::PJRT_DeviceDescription_Id
2025-09-11 14:26:08.646 (   6.309s) [        166DC000]     device_instance.cc:82       1| DeviceInstance::PJRT_Device_DefaultMemory
2025-09-11 14:26:08.646 (   6.309s) [        166DC000]     client_instance.cc:466      1| ClientInstance::PJRT_Client_BufferFromHostBuffer
2025-09-11 14:26:08.646 (   6.309s) [        166DC000]     memory_instance.cc:57       1| MemoryInstance::getDevice
2025-09-11 14:26:08.646 (   6.309s) [        166DC000]      event_instance.cc:222      1| EventInstance::PJRT_Event_OnReady
2025-09-11 14:26:08.646 (   6.309s) [        166DC000]      event_instance.cc:171      1| EventInstance::PJRT_Event_Destroy
2025-09-11 14:26:08.646 (   6.309s) [        166DC000]     device_instance.cc:82       1| DeviceInstance::PJRT_Device_DefaultMemory
2025-09-11 14:26:08.646 (   6.309s) [        166DC000]     client_instance.cc:466      1| ClientInstance::PJRT_Client_BufferFromHostBuffer
2025-09-11 14:26:08.646 (   6.309s) [        166DC000]     memory_instance.cc:57       1| MemoryInstance::getDevice
2025-09-11 14:26:08.646 (   6.309s) [        166DC000]      event_instance.cc:222      1| EventInstance::PJRT_Event_OnReady
2025-09-11 14:26:08.646 (   6.309s) [        166DC000]      event_instance.cc:171      1| EventInstance::PJRT_Event_Destroy
2025-09-11 14:26:08.647 (   6.310s) [        166DC000]  device_description.cc:44       1| DeviceDescription::PJRT_DeviceDescription_Id
2025-09-11 14:26:08.647 (   6.310s) [        166DC000]  device_description.cc:44       1| DeviceDescription::PJRT_DeviceDescription_Id
2025-09-11 14:26:08.651 (   6.314s) [        166DC000]     device_instance.cc:82       1| DeviceInstance::PJRT_Device_DefaultMemory
2025-09-11 14:26:08.651 (   6.314s) [        166DC000]     client_instance.cc:466      1| ClientInstance::PJRT_Client_BufferFromHostBuffer
2025-09-11 14:26:08.651 (   6.314s) [        166DC000]     memory_instance.cc:57       1| MemoryInstance::getDevice
2025-09-11 14:26:08.651 (   6.314s) [        166DC000]      event_instance.cc:222      1| EventInstance::PJRT_Event_OnReady
2025-09-11 14:26:08.651 (   6.314s) [        166DC000]      event_instance.cc:171      1| EventInstance::PJRT_Event_Destroy
2025-09-11 14:26:08.651 (   6.314s) [        166DC000]     device_instance.cc:82       1| DeviceInstance::PJRT_Device_DefaultMemory
2025-09-11 14:26:08.651 (   6.314s) [        166DC000]     client_instance.cc:466      1| ClientInstance::PJRT_Client_BufferFromHostBuffer
2025-09-11 14:26:08.651 (   6.314s) [        166DC000]     memory_instance.cc:57       1| MemoryInstance::getDevice
2025-09-11 14:26:08.652 (   6.314s) [        166DC000]      event_instance.cc:222      1| EventInstance::PJRT_Event_OnReady
2025-09-11 14:26:08.652 (   6.314s) [        166DC000]      event_instance.cc:171      1| EventInstance::PJRT_Event_Destroy
2025-09-11 14:26:08.657 (   6.320s) [        166DC000]  device_description.cc:44       1| DeviceDescription::PJRT_DeviceDescription_Id
2025-09-11 14:26:08.657 (   6.320s) [        166DC000]  device_description.cc:44       1| DeviceDescription::PJRT_DeviceDescription_Id
2025-09-11 14:26:08.663 (   6.326s) [        166DC000]     device_instance.cc:82       1| DeviceInstance::PJRT_Device_DefaultMemory
2025-09-11 14:26:08.663 (   6.326s) [        166DC000]     client_instance.cc:466      1| ClientInstance::PJRT_Client_BufferFromHostBuffer
2025-09-11 14:26:08.663 (   6.326s) [        166DC000]     memory_instance.cc:57       1| MemoryInstance::getDevice
2025-09-11 14:26:08.663 (   6.326s) [        166DC000]      event_instance.cc:222      1| EventInstance::PJRT_Event_OnReady
2025-09-11 14:26:08.663 (   6.326s) [        166DC000]      event_instance.cc:171      1| EventInstance::PJRT_Event_Destroy
2025-09-11 14:26:08.663 (   6.326s) [        166DC000]     device_instance.cc:82       1| DeviceInstance::PJRT_Device_DefaultMemory
2025-09-11 14:26:08.663 (   6.326s) [        166DC000]     client_instance.cc:466      1| ClientInstance::PJRT_Client_BufferFromHostBuffer
2025-09-11 14:26:08.663 (   6.326s) [        166DC000]     memory_instance.cc:57       1| MemoryInstance::getDevice
2025-09-11 14:26:08.663 (   6.326s) [        166DC000]      event_instance.cc:222      1| EventInstance::PJRT_Event_OnReady
2025-09-11 14:26:08.663 (   6.326s) [        166DC000]      event_instance.cc:171      1| EventInstance::PJRT_Event_Destroy
2025-09-11 14:26:08.668 (   6.331s) [        166DC000]  device_description.cc:44       1| DeviceDescription::PJRT_DeviceDescription_Id
2025-09-11 14:26:08.669 (   6.331s) [        166DC000]  device_description.cc:44       1| DeviceDescription::PJRT_DeviceDescription_Id
2025-09-11 14:26:08.676 (   6.339s) [        166DC000]     device_instance.cc:82       1| DeviceInstance::PJRT_Device_DefaultMemory
2025-09-11 14:26:08.676 (   6.339s) [        166DC000]     client_instance.cc:466      1| ClientInstance::PJRT_Client_BufferFromHostBuffer
2025-09-11 14:26:08.676 (   6.339s) [        166DC000]     memory_instance.cc:57       1| MemoryInstance::getDevice
2025-09-11 14:26:08.677 (   6.340s) [        166DC000]      event_instance.cc:222      1| EventInstance::PJRT_Event_OnReady
2025-09-11 14:26:08.677 (   6.340s) [        166DC000]      event_instance.cc:171      1| EventInstance::PJRT_Event_Destroy
2025-09-11 14:26:08.677 (   6.340s) [        166DC000]     device_instance.cc:82       1| DeviceInstance::PJRT_Device_DefaultMemory
2025-09-11 14:26:08.677 (   6.340s) [        166DC000]     client_instance.cc:466      1| ClientInstance::PJRT_Client_BufferFromHostBuffer
2025-09-11 14:26:08.677 (   6.340s) [        166DC000]     memory_instance.cc:57       1| MemoryInstance::getDevice
2025-09-11 14:26:08.677 (   6.340s) [        166DC000]      event_instance.cc:222      1| EventInstance::PJRT_Event_OnReady
2025-09-11 14:26:08.677 (   6.340s) [        166DC000]      event_instance.cc:171      1| EventInstance::PJRT_Event_Destroy
2025-09-11 14:26:08.682 (   6.345s) [        166DC000]  device_description.cc:44       1| DeviceDescription::PJRT_DeviceDescription_Id
2025-09-11 14:26:08.682 (   6.345s) [        166DC000]  device_description.cc:44       1| DeviceDescription::PJRT_DeviceDescription_Id
2025-09-11 14:26:08.684 (   6.347s) [        166DC000]     device_instance.cc:82       1| DeviceInstance::PJRT_Device_DefaultMemory
2025-09-11 14:26:08.684 (   6.347s) [        166DC000]     client_instance.cc:466      1| ClientInstance::PJRT_Client_BufferFromHostBuffer
2025-09-11 14:26:08.684 (   6.347s) [        166DC000]     memory_instance.cc:57       1| MemoryInstance::getDevice
2025-09-11 14:26:08.684 (   6.347s) [        166DC000]      event_instance.cc:222      1| EventInstance::PJRT_Event_OnReady
2025-09-11 14:26:08.684 (   6.347s) [        166DC000]      event_instance.cc:171      1| EventInstance::PJRT_Event_Destroy
2025-09-11 14:26:08.684 (   6.347s) [        166DC000]     device_instance.cc:82       1| DeviceInstance::PJRT_Device_DefaultMemory
2025-09-11 14:26:08.684 (   6.347s) [        166DC000]     client_instance.cc:466      1| ClientInstance::PJRT_Client_BufferFromHostBuffer
2025-09-11 14:26:08.684 (   6.347s) [        166DC000]     memory_instance.cc:57       1| MemoryInstance::getDevice
2025-09-11 14:26:08.684 (   6.347s) [        166DC000]      event_instance.cc:222      1| EventInstance::PJRT_Event_OnReady
2025-09-11 14:26:08.684 (   6.347s) [        166DC000]      event_instance.cc:171      1| EventInstance::PJRT_Event_Destroy
2025-09-11 14:26:08.684 (   6.347s) [        166DC000]  device_description.cc:44       1| DeviceDescription::PJRT_DeviceDescription_Id
2025-09-11 14:26:08.684 (   6.347s) [        166DC000]  device_description.cc:44       1| DeviceDescription::PJRT_DeviceDescription_Id
2025-09-11 14:26:08.685 (   6.348s) [        166DC000]     device_instance.cc:82       1| DeviceInstance::PJRT_Device_DefaultMemory
2025-09-11 14:26:08.685 (   6.348s) [        166DC000]     client_instance.cc:466      1| ClientInstance::PJRT_Client_BufferFromHostBuffer
2025-09-11 14:26:08.685 (   6.348s) [        166DC000]     memory_instance.cc:57       1| MemoryInstance::getDevice
2025-09-11 14:26:08.685 (   6.348s) [        166DC000]      event_instance.cc:222      1| EventInstance::PJRT_Event_OnReady
2025-09-11 14:26:08.685 (   6.348s) [        166DC000]      event_instance.cc:171      1| EventInstance::PJRT_Event_Destroy
2025-09-11 14:26:08.685 (   6.348s) [        166DC000]     device_instance.cc:82       1| DeviceInstance::PJRT_Device_DefaultMemory
2025-09-11 14:26:08.685 (   6.348s) [        166DC000]     client_instance.cc:466      1| ClientInstance::PJRT_Client_BufferFromHostBuffer
2025-09-11 14:26:08.685 (   6.348s) [        166DC000]     memory_instance.cc:57       1| MemoryInstance::getDevice
2025-09-11 14:26:08.685 (   6.348s) [        166DC000]      event_instance.cc:222      1| EventInstance::PJRT_Event_OnReady
2025-09-11 14:26:08.685 (   6.348s) [        166DC000]      event_instance.cc:171      1| EventInstance::PJRT_Event_Destroy
2025-09-11 14:26:08.685 (   6.348s) [        166DC000]  device_description.cc:44       1| DeviceDescription::PJRT_DeviceDescription_Id
2025-09-11 14:26:08.685 (   6.348s) [        166DC000]  device_description.cc:44       1| DeviceDescription::PJRT_DeviceDescription_Id
2025-09-11 14:26:08.686 (   6.349s) [        166DC000]     device_instance.cc:82       1| DeviceInstance::PJRT_Device_DefaultMemory
2025-09-11 14:26:08.686 (   6.349s) [        166DC000]     client_instance.cc:466      1| ClientInstance::PJRT_Client_BufferFromHostBuffer
2025-09-11 14:26:08.686 (   6.349s) [        166DC000]     memory_instance.cc:57       1| MemoryInstance::getDevice
2025-09-11 14:26:08.686 (   6.349s) [        166DC000]      event_instance.cc:222      1| EventInstance::PJRT_Event_OnReady
2025-09-11 14:26:08.686 (   6.349s) [        166DC000]      event_instance.cc:171      1| EventInstance::PJRT_Event_Destroy
2025-09-11 14:26:08.686 (   6.349s) [        166DC000]     device_instance.cc:82       1| DeviceInstance::PJRT_Device_DefaultMemory
2025-09-11 14:26:08.686 (   6.349s) [        166DC000]     client_instance.cc:466      1| ClientInstance::PJRT_Client_BufferFromHostBuffer
2025-09-11 14:26:08.686 (   6.349s) [        166DC000]     memory_instance.cc:57       1| MemoryInstance::getDevice
2025-09-11 14:26:08.686 (   6.349s) [        166DC000]      event_instance.cc:222      1| EventInstance::PJRT_Event_OnReady
2025-09-11 14:26:08.686 (   6.349s) [        166DC000]      event_instance.cc:171      1| EventInstance::PJRT_Event_Destroy
2025-09-11 14:26:08.686 (   6.349s) [        166DC000]  device_description.cc:44       1| DeviceDescription::PJRT_DeviceDescription_Id
2025-09-11 14:26:08.686 (   6.349s) [        166DC000]  device_description.cc:44       1| DeviceDescription::PJRT_DeviceDescription_Id
2025-09-11 14:26:08.690 (   6.353s) [        166DC000]     device_instance.cc:82       1| DeviceInstance::PJRT_Device_DefaultMemory
2025-09-11 14:26:08.690 (   6.353s) [        166DC000]     client_instance.cc:466      1| ClientInstance::PJRT_Client_BufferFromHostBuffer
2025-09-11 14:26:08.690 (   6.353s) [        166DC000]     memory_instance.cc:57       1| MemoryInstance::getDevice
2025-09-11 14:26:08.691 (   6.354s) [        166DC000]      event_instance.cc:222      1| EventInstance::PJRT_Event_OnReady
2025-09-11 14:26:08.691 (   6.354s) [        166DC000]      event_instance.cc:171      1| EventInstance::PJRT_Event_Destroy
2025-09-11 14:26:08.691 (   6.354s) [        166DC000]     device_instance.cc:82       1| DeviceInstance::PJRT_Device_DefaultMemory
2025-09-11 14:26:08.691 (   6.354s) [        166DC000]     client_instance.cc:466      1| ClientInstance::PJRT_Client_BufferFromHostBuffer
2025-09-11 14:26:08.691 (   6.354s) [        166DC000]     memory_instance.cc:57       1| MemoryInstance::getDevice
2025-09-11 14:26:08.691 (   6.354s) [        166DC000]      event_instance.cc:222      1| EventInstance::PJRT_Event_OnReady
2025-09-11 14:26:08.691 (   6.354s) [        166DC000]      event_instance.cc:171      1| EventInstance::PJRT_Event_Destroy
2025-09-11 14:26:08.691 (   6.354s) [        166DC000]  device_description.cc:44       1| DeviceDescription::PJRT_DeviceDescription_Id
2025-09-11 14:26:08.691 (   6.354s) [        166DC000]  device_description.cc:44       1| DeviceDescription::PJRT_DeviceDescription_Id
2025-09-11 14:26:08.696 (   6.359s) [        166DC000]     device_instance.cc:82       1| DeviceInstance::PJRT_Device_DefaultMemory
2025-09-11 14:26:08.696 (   6.359s) [        166DC000]     client_instance.cc:466      1| ClientInstance::PJRT_Client_BufferFromHostBuffer
2025-09-11 14:26:08.696 (   6.359s) [        166DC000]     memory_instance.cc:57       1| MemoryInstance::getDevice
2025-09-11 14:26:08.697 (   6.359s) [        166DC000]      event_instance.cc:222      1| EventInstance::PJRT_Event_OnReady
2025-09-11 14:26:08.697 (   6.360s) [        166DC000]      event_instance.cc:171      1| EventInstance::PJRT_Event_Destroy
2025-09-11 14:26:08.697 (   6.360s) [        166DC000]     device_instance.cc:82       1| DeviceInstance::PJRT_Device_DefaultMemory
2025-09-11 14:26:08.697 (   6.360s) [        166DC000]     client_instance.cc:466      1| ClientInstance::PJRT_Client_BufferFromHostBuffer
2025-09-11 14:26:08.697 (   6.360s) [        166DC000]     memory_instance.cc:57       1| MemoryInstance::getDevice
2025-09-11 14:26:08.697 (   6.360s) [        166DC000]      event_instance.cc:222      1| EventInstance::PJRT_Event_OnReady
2025-09-11 14:26:08.697 (   6.360s) [        166DC000]      event_instance.cc:171      1| EventInstance::PJRT_Event_Destroy
2025-09-11 14:26:08.702 (   6.365s) [        166DC000]  device_description.cc:44       1| DeviceDescription::PJRT_DeviceDescription_Id
2025-09-11 14:26:08.702 (   6.365s) [        166DC000]  device_description.cc:44       1| DeviceDescription::PJRT_DeviceDescription_Id
2025-09-11 14:26:08.708 (   6.371s) [        166DC000]     device_instance.cc:82       1| DeviceInstance::PJRT_Device_DefaultMemory
2025-09-11 14:26:08.708 (   6.371s) [        166DC000]     client_instance.cc:466      1| ClientInstance::PJRT_Client_BufferFromHostBuffer
2025-09-11 14:26:08.708 (   6.371s) [        166DC000]     memory_instance.cc:57       1| MemoryInstance::getDevice
2025-09-11 14:26:08.709 (   6.372s) [        166DC000]      event_instance.cc:222      1| EventInstance::PJRT_Event_OnReady
2025-09-11 14:26:08.709 (   6.372s) [        166DC000]      event_instance.cc:171      1| EventInstance::PJRT_Event_Destroy
2025-09-11 14:26:08.709 (   6.372s) [        166DC000]     device_instance.cc:82       1| DeviceInstance::PJRT_Device_DefaultMemory
2025-09-11 14:26:08.709 (   6.372s) [        166DC000]     client_instance.cc:466      1| ClientInstance::PJRT_Client_BufferFromHostBuffer
2025-09-11 14:26:08.709 (   6.372s) [        166DC000]     memory_instance.cc:57       1| MemoryInstance::getDevice
2025-09-11 14:26:08.709 (   6.372s) [        166DC000]      event_instance.cc:222      1| EventInstance::PJRT_Event_OnReady
2025-09-11 14:26:08.709 (   6.372s) [        166DC000]      event_instance.cc:171      1| EventInstance::PJRT_Event_Destroy
2025-09-11 14:26:08.714 (   6.377s) [        166DC000]  device_description.cc:44       1| DeviceDescription::PJRT_DeviceDescription_Id
2025-09-11 14:26:08.714 (   6.377s) [        166DC000]  device_description.cc:44       1| DeviceDescription::PJRT_DeviceDescription_Id
2025-09-11 14:26:08.721 (   6.384s) [        166DC000]     device_instance.cc:82       1| DeviceInstance::PJRT_Device_DefaultMemory
2025-09-11 14:26:08.721 (   6.384s) [        166DC000]     client_instance.cc:466      1| ClientInstance::PJRT_Client_BufferFromHostBuffer
2025-09-11 14:26:08.721 (   6.384s) [        166DC000]     memory_instance.cc:57       1| MemoryInstance::getDevice
2025-09-11 14:26:08.721 (   6.384s) [        166DC000]      event_instance.cc:222      1| EventInstance::PJRT_Event_OnReady
2025-09-11 14:26:08.721 (   6.384s) [        166DC000]      event_instance.cc:171      1| EventInstance::PJRT_Event_Destroy
2025-09-11 14:26:08.721 (   6.384s) [        166DC000]     device_instance.cc:82       1| DeviceInstance::PJRT_Device_DefaultMemory
2025-09-11 14:26:08.721 (   6.384s) [        166DC000]     client_instance.cc:466      1| ClientInstance::PJRT_Client_BufferFromHostBuffer
2025-09-11 14:26:08.721 (   6.384s) [        166DC000]     memory_instance.cc:57       1| MemoryInstance::getDevice
2025-09-11 14:26:08.721 (   6.384s) [        166DC000]      event_instance.cc:222      1| EventInstance::PJRT_Event_OnReady
2025-09-11 14:26:08.721 (   6.384s) [        166DC000]      event_instance.cc:171      1| EventInstance::PJRT_Event_Destroy
2025-09-11 14:26:08.726 (   6.389s) [        166DC000]  device_description.cc:44       1| DeviceDescription::PJRT_DeviceDescription_Id
2025-09-11 14:26:08.726 (   6.389s) [        166DC000]  device_description.cc:44       1| DeviceDescription::PJRT_DeviceDescription_Id
2025-09-11 14:26:08.729 (   6.392s) [        166DC000]     device_instance.cc:82       1| DeviceInstance::PJRT_Device_DefaultMemory
2025-09-11 14:26:08.729 (   6.392s) [        166DC000]     client_instance.cc:466      1| ClientInstance::PJRT_Client_BufferFromHostBuffer
2025-09-11 14:26:08.729 (   6.392s) [        166DC000]     memory_instance.cc:57       1| MemoryInstance::getDevice
2025-09-11 14:26:08.729 (   6.392s) [        166DC000]      event_instance.cc:222      1| EventInstance::PJRT_Event_OnReady
2025-09-11 14:26:08.729 (   6.392s) [        166DC000]      event_instance.cc:171      1| EventInstance::PJRT_Event_Destroy
2025-09-11 14:26:08.729 (   6.392s) [        166DC000]     device_instance.cc:82       1| DeviceInstance::PJRT_Device_DefaultMemory
2025-09-11 14:26:08.729 (   6.392s) [        166DC000]     client_instance.cc:466      1| ClientInstance::PJRT_Client_BufferFromHostBuffer
2025-09-11 14:26:08.729 (   6.392s) [        166DC000]     memory_instance.cc:57       1| MemoryInstance::getDevice
2025-09-11 14:26:08.729 (   6.392s) [        166DC000]      event_instance.cc:222      1| EventInstance::PJRT_Event_OnReady
2025-09-11 14:26:08.729 (   6.392s) [        166DC000]      event_instance.cc:171      1| EventInstance::PJRT_Event_Destroy
2025-09-11 14:26:08.729 (   6.392s) [        166DC000]  device_description.cc:44       1| DeviceDescription::PJRT_DeviceDescription_Id
2025-09-11 14:26:08.729 (   6.392s) [        166DC000]  device_description.cc:44       1| DeviceDescription::PJRT_DeviceDescription_Id
2025-09-11 14:26:08.730 (   6.393s) [        166DC000]     device_instance.cc:82       1| DeviceInstance::PJRT_Device_DefaultMemory
2025-09-11 14:26:08.730 (   6.393s) [        166DC000]     client_instance.cc:466      1| ClientInstance::PJRT_Client_BufferFromHostBuffer
2025-09-11 14:26:08.730 (   6.393s) [        166DC000]     memory_instance.cc:57       1| MemoryInstance::getDevice
2025-09-11 14:26:08.730 (   6.393s) [        166DC000]      event_instance.cc:222      1| EventInstance::PJRT_Event_OnReady
2025-09-11 14:26:08.730 (   6.393s) [        166DC000]      event_instance.cc:171      1| EventInstance::PJRT_Event_Destroy
2025-09-11 14:26:08.730 (   6.393s) [        166DC000]     device_instance.cc:82       1| DeviceInstance::PJRT_Device_DefaultMemory
2025-09-11 14:26:08.730 (   6.393s) [        166DC000]     client_instance.cc:466      1| ClientInstance::PJRT_Client_BufferFromHostBuffer
2025-09-11 14:26:08.730 (   6.393s) [        166DC000]     memory_instance.cc:57       1| MemoryInstance::getDevice
2025-09-11 14:26:08.730 (   6.393s) [        166DC000]      event_instance.cc:222      1| EventInstance::PJRT_Event_OnReady
2025-09-11 14:26:08.730 (   6.393s) [        166DC000]      event_instance.cc:171      1| EventInstance::PJRT_Event_Destroy
2025-09-11 14:26:08.731 (   6.393s) [        166DC000]  device_description.cc:44       1| DeviceDescription::PJRT_DeviceDescription_Id
2025-09-11 14:26:08.731 (   6.393s) [        166DC000]  device_description.cc:44       1| DeviceDescription::PJRT_DeviceDescription_Id
2025-09-11 14:26:08.731 (   6.394s) [        166DC000]     device_instance.cc:82       1| DeviceInstance::PJRT_Device_DefaultMemory
2025-09-11 14:26:08.731 (   6.394s) [        166DC000]     client_instance.cc:466      1| ClientInstance::PJRT_Client_BufferFromHostBuffer
2025-09-11 14:26:08.731 (   6.394s) [        166DC000]     memory_instance.cc:57       1| MemoryInstance::getDevice
2025-09-11 14:26:08.731 (   6.394s) [        166DC000]      event_instance.cc:222      1| EventInstance::PJRT_Event_OnReady
2025-09-11 14:26:08.731 (   6.394s) [        166DC000]      event_instance.cc:171      1| EventInstance::PJRT_Event_Destroy
2025-09-11 14:26:08.731 (   6.394s) [        166DC000]     device_instance.cc:82       1| DeviceInstance::PJRT_Device_DefaultMemory
2025-09-11 14:26:08.731 (   6.394s) [        166DC000]     client_instance.cc:466      1| ClientInstance::PJRT_Client_BufferFromHostBuffer
2025-09-11 14:26:08.731 (   6.394s) [        166DC000]     memory_instance.cc:57       1| MemoryInstance::getDevice
2025-09-11 14:26:08.731 (   6.394s) [        166DC000]      event_instance.cc:222      1| EventInstance::PJRT_Event_OnReady
2025-09-11 14:26:08.731 (   6.394s) [        166DC000]      event_instance.cc:171      1| EventInstance::PJRT_Event_Destroy
2025-09-11 14:26:08.731 (   6.394s) [        166DC000]  device_description.cc:44       1| DeviceDescription::PJRT_DeviceDescription_Id
2025-09-11 14:26:08.731 (   6.394s) [        166DC000]  device_description.cc:44       1| DeviceDescription::PJRT_DeviceDescription_Id
2025-09-11 14:26:08.735 (   6.398s) [        166DC000]     device_instance.cc:82       1| DeviceInstance::PJRT_Device_DefaultMemory
2025-09-11 14:26:08.735 (   6.398s) [        166DC000]     client_instance.cc:466      1| ClientInstance::PJRT_Client_BufferFromHostBuffer
2025-09-11 14:26:08.735 (   6.398s) [        166DC000]     memory_instance.cc:57       1| MemoryInstance::getDevice
2025-09-11 14:26:08.735 (   6.398s) [        166DC000]      event_instance.cc:222      1| EventInstance::PJRT_Event_OnReady
2025-09-11 14:26:08.735 (   6.398s) [        166DC000]      event_instance.cc:171      1| EventInstance::PJRT_Event_Destroy
2025-09-11 14:26:08.735 (   6.398s) [        166DC000]     device_instance.cc:82       1| DeviceInstance::PJRT_Device_DefaultMemory
2025-09-11 14:26:08.735 (   6.398s) [        166DC000]     client_instance.cc:466      1| ClientInstance::PJRT_Client_BufferFromHostBuffer
2025-09-11 14:26:08.735 (   6.398s) [        166DC000]     memory_instance.cc:57       1| MemoryInstance::getDevice
2025-09-11 14:26:08.735 (   6.398s) [        166DC000]      event_instance.cc:222      1| EventInstance::PJRT_Event_OnReady
2025-09-11 14:26:08.735 (   6.398s) [        166DC000]      event_instance.cc:171      1| EventInstance::PJRT_Event_Destroy
2025-09-11 14:26:08.735 (   6.398s) [        166DC000]  device_description.cc:44       1| DeviceDescription::PJRT_DeviceDescription_Id
2025-09-11 14:26:08.735 (   6.398s) [        166DC000]  device_description.cc:44       1| DeviceDescription::PJRT_DeviceDescription_Id
2025-09-11 14:26:08.741 (   6.404s) [        166DC000]     device_instance.cc:82       1| DeviceInstance::PJRT_Device_DefaultMemory
2025-09-11 14:26:08.741 (   6.404s) [        166DC000]     client_instance.cc:466      1| ClientInstance::PJRT_Client_BufferFromHostBuffer
2025-09-11 14:26:08.741 (   6.404s) [        166DC000]     memory_instance.cc:57       1| MemoryInstance::getDevice
2025-09-11 14:26:08.741 (   6.404s) [        166DC000]      event_instance.cc:222      1| EventInstance::PJRT_Event_OnReady
2025-09-11 14:26:08.741 (   6.404s) [        166DC000]      event_instance.cc:171      1| EventInstance::PJRT_Event_Destroy
2025-09-11 14:26:08.741 (   6.404s) [        166DC000]     device_instance.cc:82       1| DeviceInstance::PJRT_Device_DefaultMemory
2025-09-11 14:26:08.741 (   6.404s) [        166DC000]     client_instance.cc:466      1| ClientInstance::PJRT_Client_BufferFromHostBuffer
2025-09-11 14:26:08.741 (   6.404s) [        166DC000]     memory_instance.cc:57       1| MemoryInstance::getDevice
2025-09-11 14:26:08.741 (   6.404s) [        166DC000]      event_instance.cc:222      1| EventInstance::PJRT_Event_OnReady
2025-09-11 14:26:08.741 (   6.404s) [        166DC000]      event_instance.cc:171      1| EventInstance::PJRT_Event_Destroy
2025-09-11 14:26:08.747 (   6.410s) [        166DC000]  device_description.cc:44       1| DeviceDescription::PJRT_DeviceDescription_Id
2025-09-11 14:26:08.747 (   6.410s) [        166DC000]  device_description.cc:44       1| DeviceDescription::PJRT_DeviceDescription_Id
2025-09-11 14:26:08.753 (   6.416s) [        166DC000]     device_instance.cc:82       1| DeviceInstance::PJRT_Device_DefaultMemory
2025-09-11 14:26:08.753 (   6.416s) [        166DC000]     client_instance.cc:466      1| ClientInstance::PJRT_Client_BufferFromHostBuffer
2025-09-11 14:26:08.753 (   6.416s) [        166DC000]     memory_instance.cc:57       1| MemoryInstance::getDevice
2025-09-11 14:26:08.753 (   6.416s) [        166DC000]      event_instance.cc:222      1| EventInstance::PJRT_Event_OnReady
2025-09-11 14:26:08.753 (   6.416s) [        166DC000]      event_instance.cc:171      1| EventInstance::PJRT_Event_Destroy
2025-09-11 14:26:08.753 (   6.416s) [        166DC000]     device_instance.cc:82       1| DeviceInstance::PJRT_Device_DefaultMemory
2025-09-11 14:26:08.753 (   6.416s) [        166DC000]     client_instance.cc:466      1| ClientInstance::PJRT_Client_BufferFromHostBuffer
2025-09-11 14:26:08.753 (   6.416s) [        166DC000]     memory_instance.cc:57       1| MemoryInstance::getDevice
2025-09-11 14:26:08.753 (   6.416s) [        166DC000]      event_instance.cc:222      1| EventInstance::PJRT_Event_OnReady
2025-09-11 14:26:08.753 (   6.416s) [        166DC000]      event_instance.cc:171      1| EventInstance::PJRT_Event_Destroy
2025-09-11 14:26:08.758 (   6.421s) [        166DC000]  device_description.cc:44       1| DeviceDescription::PJRT_DeviceDescription_Id
2025-09-11 14:26:08.758 (   6.421s) [        166DC000]  device_description.cc:44       1| DeviceDescription::PJRT_DeviceDescription_Id
2025-09-11 14:26:08.766 (   6.428s) [        166DC000]     device_instance.cc:82       1| DeviceInstance::PJRT_Device_DefaultMemory
2025-09-11 14:26:08.766 (   6.428s) [        166DC000]     client_instance.cc:466      1| ClientInstance::PJRT_Client_BufferFromHostBuffer
2025-09-11 14:26:08.766 (   6.428s) [        166DC000]     memory_instance.cc:57       1| MemoryInstance::getDevice
2025-09-11 14:26:08.766 (   6.429s) [        166DC000]      event_instance.cc:222      1| EventInstance::PJRT_Event_OnReady
2025-09-11 14:26:08.766 (   6.429s) [        166DC000]      event_instance.cc:171      1| EventInstance::PJRT_Event_Destroy
2025-09-11 14:26:08.766 (   6.429s) [        166DC000]     device_instance.cc:82       1| DeviceInstance::PJRT_Device_DefaultMemory
2025-09-11 14:26:08.766 (   6.429s) [        166DC000]     client_instance.cc:466      1| ClientInstance::PJRT_Client_BufferFromHostBuffer
2025-09-11 14:26:08.766 (   6.429s) [        166DC000]     memory_instance.cc:57       1| MemoryInstance::getDevice
2025-09-11 14:26:08.766 (   6.429s) [        166DC000]      event_instance.cc:222      1| EventInstance::PJRT_Event_OnReady
2025-09-11 14:26:08.766 (   6.429s) [        166DC000]      event_instance.cc:171      1| EventInstance::PJRT_Event_Destroy
2025-09-11 14:26:08.771 (   6.434s) [        166DC000]  device_description.cc:44       1| DeviceDescription::PJRT_DeviceDescription_Id
2025-09-11 14:26:08.771 (   6.434s) [        166DC000]  device_description.cc:44       1| DeviceDescription::PJRT_DeviceDescription_Id
2025-09-11 14:26:08.774 (   6.437s) [        166DC000]     device_instance.cc:82       1| DeviceInstance::PJRT_Device_DefaultMemory
2025-09-11 14:26:08.774 (   6.437s) [        166DC000]     client_instance.cc:466      1| ClientInstance::PJRT_Client_BufferFromHostBuffer
2025-09-11 14:26:08.774 (   6.437s) [        166DC000]     memory_instance.cc:57       1| MemoryInstance::getDevice
2025-09-11 14:26:08.774 (   6.437s) [        166DC000]      event_instance.cc:222      1| EventInstance::PJRT_Event_OnReady
2025-09-11 14:26:08.774 (   6.437s) [        166DC000]      event_instance.cc:171      1| EventInstance::PJRT_Event_Destroy
2025-09-11 14:26:08.774 (   6.437s) [        166DC000]     device_instance.cc:82       1| DeviceInstance::PJRT_Device_DefaultMemory
2025-09-11 14:26:08.774 (   6.437s) [        166DC000]     client_instance.cc:466      1| ClientInstance::PJRT_Client_BufferFromHostBuffer
2025-09-11 14:26:08.774 (   6.437s) [        166DC000]     memory_instance.cc:57       1| MemoryInstance::getDevice
2025-09-11 14:26:08.774 (   6.437s) [        166DC000]      event_instance.cc:222      1| EventInstance::PJRT_Event_OnReady
2025-09-11 14:26:08.774 (   6.437s) [        166DC000]      event_instance.cc:171      1| EventInstance::PJRT_Event_Destroy
2025-09-11 14:26:08.774 (   6.437s) [        166DC000]  device_description.cc:44       1| DeviceDescription::PJRT_DeviceDescription_Id
2025-09-11 14:26:08.774 (   6.437s) [        166DC000]  device_description.cc:44       1| DeviceDescription::PJRT_DeviceDescription_Id
2025-09-11 14:26:08.775 (   6.438s) [        166DC000]     device_instance.cc:82       1| DeviceInstance::PJRT_Device_DefaultMemory
2025-09-11 14:26:08.775 (   6.438s) [        166DC000]     client_instance.cc:466      1| ClientInstance::PJRT_Client_BufferFromHostBuffer
2025-09-11 14:26:08.775 (   6.438s) [        166DC000]     memory_instance.cc:57       1| MemoryInstance::getDevice
2025-09-11 14:26:08.775 (   6.438s) [        166DC000]      event_instance.cc:222      1| EventInstance::PJRT_Event_OnReady
2025-09-11 14:26:08.775 (   6.438s) [        166DC000]      event_instance.cc:171      1| EventInstance::PJRT_Event_Destroy
2025-09-11 14:26:08.775 (   6.438s) [        166DC000]     device_instance.cc:82       1| DeviceInstance::PJRT_Device_DefaultMemory
2025-09-11 14:26:08.775 (   6.438s) [        166DC000]     client_instance.cc:466      1| ClientInstance::PJRT_Client_BufferFromHostBuffer
2025-09-11 14:26:08.775 (   6.438s) [        166DC000]     memory_instance.cc:57       1| MemoryInstance::getDevice
2025-09-11 14:26:08.775 (   6.438s) [        166DC000]      event_instance.cc:222      1| EventInstance::PJRT_Event_OnReady
2025-09-11 14:26:08.775 (   6.438s) [        166DC000]      event_instance.cc:171      1| EventInstance::PJRT_Event_Destroy
2025-09-11 14:26:08.775 (   6.438s) [        166DC000]  device_description.cc:44       1| DeviceDescription::PJRT_DeviceDescription_Id
2025-09-11 14:26:08.775 (   6.438s) [        166DC000]  device_description.cc:44       1| DeviceDescription::PJRT_DeviceDescription_Id
2025-09-11 14:26:08.776 (   6.438s) [        166DC000]     device_instance.cc:82       1| DeviceInstance::PJRT_Device_DefaultMemory
2025-09-11 14:26:08.776 (   6.438s) [        166DC000]     client_instance.cc:466      1| ClientInstance::PJRT_Client_BufferFromHostBuffer
2025-09-11 14:26:08.776 (   6.439s) [        166DC000]     memory_instance.cc:57       1| MemoryInstance::getDevice
2025-09-11 14:26:08.776 (   6.439s) [        166DC000]      event_instance.cc:222      1| EventInstance::PJRT_Event_OnReady
2025-09-11 14:26:08.776 (   6.439s) [        166DC000]      event_instance.cc:171      1| EventInstance::PJRT_Event_Destroy
2025-09-11 14:26:08.776 (   6.439s) [        166DC000]     device_instance.cc:82       1| DeviceInstance::PJRT_Device_DefaultMemory
2025-09-11 14:26:08.776 (   6.439s) [        166DC000]     client_instance.cc:466      1| ClientInstance::PJRT_Client_BufferFromHostBuffer
2025-09-11 14:26:08.776 (   6.439s) [        166DC000]     memory_instance.cc:57       1| MemoryInstance::getDevice
2025-09-11 14:26:08.776 (   6.439s) [        166DC000]      event_instance.cc:222      1| EventInstance::PJRT_Event_OnReady
2025-09-11 14:26:08.776 (   6.439s) [        166DC000]      event_instance.cc:171      1| EventInstance::PJRT_Event_Destroy
2025-09-11 14:26:08.776 (   6.439s) [        166DC000]  device_description.cc:44       1| DeviceDescription::PJRT_DeviceDescription_Id
2025-09-11 14:26:08.776 (   6.439s) [        166DC000]  device_description.cc:44       1| DeviceDescription::PJRT_DeviceDescription_Id
2025-09-11 14:26:08.780 (   6.443s) [        166DC000]     device_instance.cc:82       1| DeviceInstance::PJRT_Device_DefaultMemory
2025-09-11 14:26:08.780 (   6.443s) [        166DC000]     client_instance.cc:466      1| ClientInstance::PJRT_Client_BufferFromHostBuffer
2025-09-11 14:26:08.780 (   6.443s) [        166DC000]     memory_instance.cc:57       1| MemoryInstance::getDevice
2025-09-11 14:26:08.780 (   6.443s) [        166DC000]      event_instance.cc:222      1| EventInstance::PJRT_Event_OnReady
2025-09-11 14:26:08.780 (   6.443s) [        166DC000]      event_instance.cc:171      1| EventInstance::PJRT_Event_Destroy
2025-09-11 14:26:08.780 (   6.443s) [        166DC000]     device_instance.cc:82       1| DeviceInstance::PJRT_Device_DefaultMemory
2025-09-11 14:26:08.780 (   6.443s) [        166DC000]     client_instance.cc:466      1| ClientInstance::PJRT_Client_BufferFromHostBuffer
2025-09-11 14:26:08.780 (   6.443s) [        166DC000]     memory_instance.cc:57       1| MemoryInstance::getDevice
2025-09-11 14:26:08.780 (   6.443s) [        166DC000]      event_instance.cc:222      1| EventInstance::PJRT_Event_OnReady
2025-09-11 14:26:08.780 (   6.443s) [        166DC000]      event_instance.cc:171      1| EventInstance::PJRT_Event_Destroy
2025-09-11 14:26:08.780 (   6.443s) [        166DC000]  device_description.cc:44       1| DeviceDescription::PJRT_DeviceDescription_Id
2025-09-11 14:26:08.780 (   6.443s) [        166DC000]  device_description.cc:44       1| DeviceDescription::PJRT_DeviceDescription_Id
2025-09-11 14:26:08.786 (   6.449s) [        166DC000]     device_instance.cc:82       1| DeviceInstance::PJRT_Device_DefaultMemory
2025-09-11 14:26:08.786 (   6.449s) [        166DC000]     client_instance.cc:466      1| ClientInstance::PJRT_Client_BufferFromHostBuffer
2025-09-11 14:26:08.786 (   6.449s) [        166DC000]     memory_instance.cc:57       1| MemoryInstance::getDevice
2025-09-11 14:26:08.786 (   6.449s) [        166DC000]      event_instance.cc:222      1| EventInstance::PJRT_Event_OnReady
2025-09-11 14:26:08.786 (   6.449s) [        166DC000]      event_instance.cc:171      1| EventInstance::PJRT_Event_Destroy
2025-09-11 14:26:08.786 (   6.449s) [        166DC000]     device_instance.cc:82       1| DeviceInstance::PJRT_Device_DefaultMemory
2025-09-11 14:26:08.786 (   6.449s) [        166DC000]     client_instance.cc:466      1| ClientInstance::PJRT_Client_BufferFromHostBuffer
2025-09-11 14:26:08.786 (   6.449s) [        166DC000]     memory_instance.cc:57       1| MemoryInstance::getDevice
2025-09-11 14:26:08.786 (   6.449s) [        166DC000]      event_instance.cc:222      1| EventInstance::PJRT_Event_OnReady
2025-09-11 14:26:08.786 (   6.449s) [        166DC000]      event_instance.cc:171      1| EventInstance::PJRT_Event_Destroy
2025-09-11 14:26:08.791 (   6.454s) [        166DC000]  device_description.cc:44       1| DeviceDescription::PJRT_DeviceDescription_Id
2025-09-11 14:26:08.791 (   6.454s) [        166DC000]  device_description.cc:44       1| DeviceDescription::PJRT_DeviceDescription_Id
2025-09-11 14:26:08.797 (   6.460s) [        166DC000]     device_instance.cc:82       1| DeviceInstance::PJRT_Device_DefaultMemory
2025-09-11 14:26:08.797 (   6.460s) [        166DC000]     client_instance.cc:466      1| ClientInstance::PJRT_Client_BufferFromHostBuffer
2025-09-11 14:26:08.797 (   6.460s) [        166DC000]     memory_instance.cc:57       1| MemoryInstance::getDevice
2025-09-11 14:26:08.797 (   6.460s) [        166DC000]      event_instance.cc:222      1| EventInstance::PJRT_Event_OnReady
2025-09-11 14:26:08.797 (   6.460s) [        166DC000]      event_instance.cc:171      1| EventInstance::PJRT_Event_Destroy
2025-09-11 14:26:08.797 (   6.460s) [        166DC000]     device_instance.cc:82       1| DeviceInstance::PJRT_Device_DefaultMemory
2025-09-11 14:26:08.797 (   6.460s) [        166DC000]     client_instance.cc:466      1| ClientInstance::PJRT_Client_BufferFromHostBuffer
2025-09-11 14:26:08.797 (   6.460s) [        166DC000]     memory_instance.cc:57       1| MemoryInstance::getDevice
2025-09-11 14:26:08.797 (   6.460s) [        166DC000]      event_instance.cc:222      1| EventInstance::PJRT_Event_OnReady
2025-09-11 14:26:08.797 (   6.460s) [        166DC000]      event_instance.cc:171      1| EventInstance::PJRT_Event_Destroy
2025-09-11 14:26:08.802 (   6.465s) [        166DC000]  device_description.cc:44       1| DeviceDescription::PJRT_DeviceDescription_Id
2025-09-11 14:26:08.802 (   6.465s) [        166DC000]  device_description.cc:44       1| DeviceDescription::PJRT_DeviceDescription_Id
2025-09-11 14:26:08.811 (   6.474s) [        166DC000]     device_instance.cc:82       1| DeviceInstance::PJRT_Device_DefaultMemory
2025-09-11 14:26:08.811 (   6.474s) [        166DC000]     client_instance.cc:466      1| ClientInstance::PJRT_Client_BufferFromHostBuffer
2025-09-11 14:26:08.811 (   6.474s) [        166DC000]     memory_instance.cc:57       1| MemoryInstance::getDevice
2025-09-11 14:26:08.811 (   6.474s) [        166DC000]      event_instance.cc:222      1| EventInstance::PJRT_Event_OnReady
2025-09-11 14:26:08.811 (   6.474s) [        166DC000]      event_instance.cc:171      1| EventInstance::PJRT_Event_Destroy
2025-09-11 14:26:08.811 (   6.474s) [        166DC000]     device_instance.cc:82       1| DeviceInstance::PJRT_Device_DefaultMemory
2025-09-11 14:26:08.811 (   6.474s) [        166DC000]     client_instance.cc:466      1| ClientInstance::PJRT_Client_BufferFromHostBuffer
2025-09-11 14:26:08.811 (   6.474s) [        166DC000]     memory_instance.cc:57       1| MemoryInstance::getDevice
2025-09-11 14:26:08.811 (   6.474s) [        166DC000]      event_instance.cc:222      1| EventInstance::PJRT_Event_OnReady
2025-09-11 14:26:08.811 (   6.474s) [        166DC000]      event_instance.cc:171      1| EventInstance::PJRT_Event_Destroy
2025-09-11 14:26:08.816 (   6.479s) [        166DC000]  device_description.cc:44       1| DeviceDescription::PJRT_DeviceDescription_Id
2025-09-11 14:26:08.816 (   6.479s) [        166DC000]  device_description.cc:44       1| DeviceDescription::PJRT_DeviceDescription_Id
2025-09-11 14:26:08.819 (   6.482s) [        166DC000]     device_instance.cc:82       1| DeviceInstance::PJRT_Device_DefaultMemory
2025-09-11 14:26:08.819 (   6.482s) [        166DC000]     client_instance.cc:466      1| ClientInstance::PJRT_Client_BufferFromHostBuffer
2025-09-11 14:26:08.819 (   6.482s) [        166DC000]     memory_instance.cc:57       1| MemoryInstance::getDevice
2025-09-11 14:26:08.819 (   6.482s) [        166DC000]      event_instance.cc:222      1| EventInstance::PJRT_Event_OnReady
2025-09-11 14:26:08.819 (   6.482s) [        166DC000]      event_instance.cc:171      1| EventInstance::PJRT_Event_Destroy
2025-09-11 14:26:08.819 (   6.482s) [        166DC000]     device_instance.cc:82       1| DeviceInstance::PJRT_Device_DefaultMemory
2025-09-11 14:26:08.819 (   6.482s) [        166DC000]     client_instance.cc:466      1| ClientInstance::PJRT_Client_BufferFromHostBuffer
2025-09-11 14:26:08.819 (   6.482s) [        166DC000]     memory_instance.cc:57       1| MemoryInstance::getDevice
2025-09-11 14:26:08.819 (   6.482s) [        166DC000]      event_instance.cc:222      1| EventInstance::PJRT_Event_OnReady
2025-09-11 14:26:08.819 (   6.482s) [        166DC000]      event_instance.cc:171      1| EventInstance::PJRT_Event_Destroy
2025-09-11 14:26:08.819 (   6.482s) [        166DC000]  device_description.cc:44       1| DeviceDescription::PJRT_DeviceDescription_Id
2025-09-11 14:26:08.819 (   6.482s) [        166DC000]  device_description.cc:44       1| DeviceDescription::PJRT_DeviceDescription_Id
2025-09-11 14:26:08.820 (   6.483s) [        166DC000]     device_instance.cc:82       1| DeviceInstance::PJRT_Device_DefaultMemory
2025-09-11 14:26:08.820 (   6.483s) [        166DC000]     client_instance.cc:466      1| ClientInstance::PJRT_Client_BufferFromHostBuffer
2025-09-11 14:26:08.820 (   6.483s) [        166DC000]     memory_instance.cc:57       1| MemoryInstance::getDevice
2025-09-11 14:26:08.820 (   6.483s) [        166DC000]      event_instance.cc:222      1| EventInstance::PJRT_Event_OnReady
2025-09-11 14:26:08.820 (   6.483s) [        166DC000]      event_instance.cc:171      1| EventInstance::PJRT_Event_Destroy
2025-09-11 14:26:08.820 (   6.483s) [        166DC000]     device_instance.cc:82       1| DeviceInstance::PJRT_Device_DefaultMemory
2025-09-11 14:26:08.820 (   6.483s) [        166DC000]     client_instance.cc:466      1| ClientInstance::PJRT_Client_BufferFromHostBuffer
2025-09-11 14:26:08.820 (   6.483s) [        166DC000]     memory_instance.cc:57       1| MemoryInstance::getDevice
2025-09-11 14:26:08.820 (   6.483s) [        166DC000]      event_instance.cc:222      1| EventInstance::PJRT_Event_OnReady
2025-09-11 14:26:08.820 (   6.483s) [        166DC000]      event_instance.cc:171      1| EventInstance::PJRT_Event_Destroy
2025-09-11 14:26:08.820 (   6.483s) [        166DC000]  device_description.cc:44       1| DeviceDescription::PJRT_DeviceDescription_Id
2025-09-11 14:26:08.820 (   6.483s) [        166DC000]  device_description.cc:44       1| DeviceDescription::PJRT_DeviceDescription_Id
2025-09-11 14:26:08.821 (   6.484s) [        166DC000]     device_instance.cc:82       1| DeviceInstance::PJRT_Device_DefaultMemory
2025-09-11 14:26:08.821 (   6.484s) [        166DC000]     client_instance.cc:466      1| ClientInstance::PJRT_Client_BufferFromHostBuffer
2025-09-11 14:26:08.821 (   6.484s) [        166DC000]     memory_instance.cc:57       1| MemoryInstance::getDevice
2025-09-11 14:26:08.821 (   6.484s) [        166DC000]      event_instance.cc:222      1| EventInstance::PJRT_Event_OnReady
2025-09-11 14:26:08.821 (   6.484s) [        166DC000]      event_instance.cc:171      1| EventInstance::PJRT_Event_Destroy
2025-09-11 14:26:08.821 (   6.484s) [        166DC000]     device_instance.cc:82       1| DeviceInstance::PJRT_Device_DefaultMemory
2025-09-11 14:26:08.821 (   6.484s) [        166DC000]     client_instance.cc:466      1| ClientInstance::PJRT_Client_BufferFromHostBuffer
2025-09-11 14:26:08.821 (   6.484s) [        166DC000]     memory_instance.cc:57       1| MemoryInstance::getDevice
2025-09-11 14:26:08.821 (   6.484s) [        166DC000]      event_instance.cc:222      1| EventInstance::PJRT_Event_OnReady
2025-09-11 14:26:08.821 (   6.484s) [        166DC000]      event_instance.cc:171      1| EventInstance::PJRT_Event_Destroy
2025-09-11 14:26:08.821 (   6.484s) [        166DC000]  device_description.cc:44       1| DeviceDescription::PJRT_DeviceDescription_Id
2025-09-11 14:26:08.821 (   6.484s) [        166DC000]  device_description.cc:44       1| DeviceDescription::PJRT_DeviceDescription_Id
2025-09-11 14:26:08.826 (   6.488s) [        166DC000]     device_instance.cc:82       1| DeviceInstance::PJRT_Device_DefaultMemory
2025-09-11 14:26:08.826 (   6.488s) [        166DC000]     client_instance.cc:466      1| ClientInstance::PJRT_Client_BufferFromHostBuffer
2025-09-11 14:26:08.826 (   6.488s) [        166DC000]     memory_instance.cc:57       1| MemoryInstance::getDevice
2025-09-11 14:26:08.826 (   6.489s) [        166DC000]      event_instance.cc:222      1| EventInstance::PJRT_Event_OnReady
2025-09-11 14:26:08.826 (   6.489s) [        166DC000]      event_instance.cc:171      1| EventInstance::PJRT_Event_Destroy
2025-09-11 14:26:08.826 (   6.489s) [        166DC000]     device_instance.cc:82       1| DeviceInstance::PJRT_Device_DefaultMemory
2025-09-11 14:26:08.826 (   6.489s) [        166DC000]     client_instance.cc:466      1| ClientInstance::PJRT_Client_BufferFromHostBuffer
2025-09-11 14:26:08.826 (   6.489s) [        166DC000]     memory_instance.cc:57       1| MemoryInstance::getDevice
2025-09-11 14:26:08.826 (   6.489s) [        166DC000]      event_instance.cc:222      1| EventInstance::PJRT_Event_OnReady
2025-09-11 14:26:08.826 (   6.489s) [        166DC000]      event_instance.cc:171      1| EventInstance::PJRT_Event_Destroy
2025-09-11 14:26:08.826 (   6.489s) [        166DC000]  device_description.cc:44       1| DeviceDescription::PJRT_DeviceDescription_Id
2025-09-11 14:26:08.826 (   6.489s) [        166DC000]  device_description.cc:44       1| DeviceDescription::PJRT_DeviceDescription_Id
2025-09-11 14:26:08.832 (   6.495s) [        166DC000]     device_instance.cc:82       1| DeviceInstance::PJRT_Device_DefaultMemory
2025-09-11 14:26:08.832 (   6.495s) [        166DC000]     client_instance.cc:466      1| ClientInstance::PJRT_Client_BufferFromHostBuffer
2025-09-11 14:26:08.832 (   6.495s) [        166DC000]     memory_instance.cc:57       1| MemoryInstance::getDevice
2025-09-11 14:26:08.832 (   6.495s) [        166DC000]      event_instance.cc:222      1| EventInstance::PJRT_Event_OnReady
2025-09-11 14:26:08.832 (   6.495s) [        166DC000]      event_instance.cc:171      1| EventInstance::PJRT_Event_Destroy
2025-09-11 14:26:08.832 (   6.495s) [        166DC000]     device_instance.cc:82       1| DeviceInstance::PJRT_Device_DefaultMemory
2025-09-11 14:26:08.832 (   6.495s) [        166DC000]     client_instance.cc:466      1| ClientInstance::PJRT_Client_BufferFromHostBuffer
2025-09-11 14:26:08.832 (   6.495s) [        166DC000]     memory_instance.cc:57       1| MemoryInstance::getDevice
2025-09-11 14:26:08.832 (   6.495s) [        166DC000]      event_instance.cc:222      1| EventInstance::PJRT_Event_OnReady
2025-09-11 14:26:08.832 (   6.495s) [        166DC000]      event_instance.cc:171      1| EventInstance::PJRT_Event_Destroy
2025-09-11 14:26:08.837 (   6.500s) [        166DC000]  device_description.cc:44       1| DeviceDescription::PJRT_DeviceDescription_Id
2025-09-11 14:26:08.837 (   6.500s) [        166DC000]  device_description.cc:44       1| DeviceDescription::PJRT_DeviceDescription_Id
2025-09-11 14:26:08.843 (   6.506s) [        166DC000]     device_instance.cc:82       1| DeviceInstance::PJRT_Device_DefaultMemory
2025-09-11 14:26:08.843 (   6.506s) [        166DC000]     client_instance.cc:466      1| ClientInstance::PJRT_Client_BufferFromHostBuffer
2025-09-11 14:26:08.843 (   6.506s) [        166DC000]     memory_instance.cc:57       1| MemoryInstance::getDevice
2025-09-11 14:26:08.843 (   6.506s) [        166DC000]      event_instance.cc:222      1| EventInstance::PJRT_Event_OnReady
2025-09-11 14:26:08.843 (   6.506s) [        166DC000]      event_instance.cc:171      1| EventInstance::PJRT_Event_Destroy
2025-09-11 14:26:08.843 (   6.506s) [        166DC000]     device_instance.cc:82       1| DeviceInstance::PJRT_Device_DefaultMemory
2025-09-11 14:26:08.843 (   6.506s) [        166DC000]     client_instance.cc:466      1| ClientInstance::PJRT_Client_BufferFromHostBuffer
2025-09-11 14:26:08.843 (   6.506s) [        166DC000]     memory_instance.cc:57       1| MemoryInstance::getDevice
2025-09-11 14:26:08.843 (   6.506s) [        166DC000]      event_instance.cc:222      1| EventInstance::PJRT_Event_OnReady
2025-09-11 14:26:08.843 (   6.506s) [        166DC000]      event_instance.cc:171      1| EventInstance::PJRT_Event_Destroy
2025-09-11 14:26:08.848 (   6.511s) [        166DC000]  device_description.cc:44       1| DeviceDescription::PJRT_DeviceDescription_Id
2025-09-11 14:26:08.848 (   6.511s) [        166DC000]  device_description.cc:44       1| DeviceDescription::PJRT_DeviceDescription_Id
2025-09-11 14:26:08.856 (   6.519s) [        166DC000]     device_instance.cc:82       1| DeviceInstance::PJRT_Device_DefaultMemory
2025-09-11 14:26:08.857 (   6.519s) [        166DC000]     client_instance.cc:466      1| ClientInstance::PJRT_Client_BufferFromHostBuffer
2025-09-11 14:26:08.857 (   6.519s) [        166DC000]     memory_instance.cc:57       1| MemoryInstance::getDevice
2025-09-11 14:26:08.857 (   6.520s) [        166DC000]      event_instance.cc:222      1| EventInstance::PJRT_Event_OnReady
2025-09-11 14:26:08.857 (   6.520s) [        166DC000]      event_instance.cc:171      1| EventInstance::PJRT_Event_Destroy
2025-09-11 14:26:08.857 (   6.520s) [        166DC000]     device_instance.cc:82       1| DeviceInstance::PJRT_Device_DefaultMemory
2025-09-11 14:26:08.857 (   6.520s) [        166DC000]     client_instance.cc:466      1| ClientInstance::PJRT_Client_BufferFromHostBuffer
2025-09-11 14:26:08.857 (   6.520s) [        166DC000]     memory_instance.cc:57       1| MemoryInstance::getDevice
2025-09-11 14:26:08.857 (   6.520s) [        166DC000]      event_instance.cc:222      1| EventInstance::PJRT_Event_OnReady
2025-09-11 14:26:08.857 (   6.520s) [        166DC000]      event_instance.cc:171      1| EventInstance::PJRT_Event_Destroy
2025-09-11 14:26:08.862 (   6.525s) [        166DC000]  device_description.cc:44       1| DeviceDescription::PJRT_DeviceDescription_Id
2025-09-11 14:26:08.862 (   6.525s) [        166DC000]  device_description.cc:44       1| DeviceDescription::PJRT_DeviceDescription_Id
2025-09-11 14:26:08.864 (   6.527s) [        166DC000]     device_instance.cc:82       1| DeviceInstance::PJRT_Device_DefaultMemory
2025-09-11 14:26:08.865 (   6.527s) [        166DC000]     client_instance.cc:466      1| ClientInstance::PJRT_Client_BufferFromHostBuffer
2025-09-11 14:26:08.865 (   6.527s) [        166DC000]     memory_instance.cc:57       1| MemoryInstance::getDevice
2025-09-11 14:26:08.865 (   6.528s) [        166DC000]      event_instance.cc:222      1| EventInstance::PJRT_Event_OnReady
2025-09-11 14:26:08.865 (   6.528s) [        166DC000]      event_instance.cc:171      1| EventInstance::PJRT_Event_Destroy
2025-09-11 14:26:08.865 (   6.528s) [        166DC000]     device_instance.cc:82       1| DeviceInstance::PJRT_Device_DefaultMemory
2025-09-11 14:26:08.865 (   6.528s) [        166DC000]     client_instance.cc:466      1| ClientInstance::PJRT_Client_BufferFromHostBuffer
2025-09-11 14:26:08.865 (   6.528s) [        166DC000]     memory_instance.cc:57       1| MemoryInstance::getDevice
2025-09-11 14:26:08.865 (   6.528s) [        166DC000]      event_instance.cc:222      1| EventInstance::PJRT_Event_OnReady
2025-09-11 14:26:08.865 (   6.528s) [        166DC000]      event_instance.cc:171      1| EventInstance::PJRT_Event_Destroy
2025-09-11 14:26:08.865 (   6.528s) [        166DC000]  device_description.cc:44       1| DeviceDescription::PJRT_DeviceDescription_Id
2025-09-11 14:26:08.865 (   6.528s) [        166DC000]  device_description.cc:44       1| DeviceDescription::PJRT_DeviceDescription_Id
2025-09-11 14:26:08.865 (   6.528s) [        166DC000]     device_instance.cc:82       1| DeviceInstance::PJRT_Device_DefaultMemory
2025-09-11 14:26:08.866 (   6.528s) [        166DC000]     client_instance.cc:466      1| ClientInstance::PJRT_Client_BufferFromHostBuffer
2025-09-11 14:26:08.866 (   6.528s) [        166DC000]     memory_instance.cc:57       1| MemoryInstance::getDevice
2025-09-11 14:26:08.866 (   6.529s) [        166DC000]      event_instance.cc:222      1| EventInstance::PJRT_Event_OnReady
2025-09-11 14:26:08.866 (   6.529s) [        166DC000]      event_instance.cc:171      1| EventInstance::PJRT_Event_Destroy
2025-09-11 14:26:08.866 (   6.529s) [        166DC000]     device_instance.cc:82       1| DeviceInstance::PJRT_Device_DefaultMemory
2025-09-11 14:26:08.866 (   6.529s) [        166DC000]     client_instance.cc:466      1| ClientInstance::PJRT_Client_BufferFromHostBuffer
2025-09-11 14:26:08.866 (   6.529s) [        166DC000]     memory_instance.cc:57       1| MemoryInstance::getDevice
2025-09-11 14:26:08.866 (   6.529s) [        166DC000]      event_instance.cc:222      1| EventInstance::PJRT_Event_OnReady
2025-09-11 14:26:08.866 (   6.529s) [        166DC000]      event_instance.cc:171      1| EventInstance::PJRT_Event_Destroy
2025-09-11 14:26:08.866 (   6.529s) [        166DC000]  device_description.cc:44       1| DeviceDescription::PJRT_DeviceDescription_Id
2025-09-11 14:26:08.866 (   6.529s) [        166DC000]  device_description.cc:44       1| DeviceDescription::PJRT_DeviceDescription_Id
2025-09-11 14:26:08.866 (   6.529s) [        166DC000]     device_instance.cc:82       1| DeviceInstance::PJRT_Device_DefaultMemory
2025-09-11 14:26:08.866 (   6.529s) [        166DC000]     client_instance.cc:466      1| ClientInstance::PJRT_Client_BufferFromHostBuffer
2025-09-11 14:26:08.866 (   6.529s) [        166DC000]     memory_instance.cc:57       1| MemoryInstance::getDevice
2025-09-11 14:26:08.866 (   6.529s) [        166DC000]      event_instance.cc:222      1| EventInstance::PJRT_Event_OnReady
2025-09-11 14:26:08.866 (   6.529s) [        166DC000]      event_instance.cc:171      1| EventInstance::PJRT_Event_Destroy
2025-09-11 14:26:08.866 (   6.529s) [        166DC000]     device_instance.cc:82       1| DeviceInstance::PJRT_Device_DefaultMemory
2025-09-11 14:26:08.866 (   6.529s) [        166DC000]     client_instance.cc:466      1| ClientInstance::PJRT_Client_BufferFromHostBuffer
2025-09-11 14:26:08.866 (   6.529s) [        166DC000]     memory_instance.cc:57       1| MemoryInstance::getDevice
2025-09-11 14:26:08.867 (   6.529s) [        166DC000]      event_instance.cc:222      1| EventInstance::PJRT_Event_OnReady
2025-09-11 14:26:08.867 (   6.529s) [        166DC000]      event_instance.cc:171      1| EventInstance::PJRT_Event_Destroy
2025-09-11 14:26:08.867 (   6.530s) [        166DC000]  device_description.cc:44       1| DeviceDescription::PJRT_DeviceDescription_Id
2025-09-11 14:26:08.867 (   6.530s) [        166DC000]  device_description.cc:44       1| DeviceDescription::PJRT_DeviceDescription_Id
2025-09-11 14:26:08.870 (   6.533s) [        166DC000]     device_instance.cc:82       1| DeviceInstance::PJRT_Device_DefaultMemory
2025-09-11 14:26:08.870 (   6.533s) [        166DC000]     client_instance.cc:466      1| ClientInstance::PJRT_Client_BufferFromHostBuffer
2025-09-11 14:26:08.870 (   6.533s) [        166DC000]     memory_instance.cc:57       1| MemoryInstance::getDevice
2025-09-11 14:26:08.870 (   6.533s) [        166DC000]      event_instance.cc:222      1| EventInstance::PJRT_Event_OnReady
2025-09-11 14:26:08.870 (   6.533s) [        166DC000]      event_instance.cc:171      1| EventInstance::PJRT_Event_Destroy
2025-09-11 14:26:08.870 (   6.533s) [        166DC000]     device_instance.cc:82       1| DeviceInstance::PJRT_Device_DefaultMemory
2025-09-11 14:26:08.870 (   6.533s) [        166DC000]     client_instance.cc:466      1| ClientInstance::PJRT_Client_BufferFromHostBuffer
2025-09-11 14:26:08.870 (   6.533s) [        166DC000]     memory_instance.cc:57       1| MemoryInstance::getDevice
2025-09-11 14:26:08.870 (   6.533s) [        166DC000]      event_instance.cc:222      1| EventInstance::PJRT_Event_OnReady
2025-09-11 14:26:08.870 (   6.533s) [        166DC000]      event_instance.cc:171      1| EventInstance::PJRT_Event_Destroy
2025-09-11 14:26:08.871 (   6.533s) [        166DC000]  device_description.cc:44       1| DeviceDescription::PJRT_DeviceDescription_Id
2025-09-11 14:26:08.871 (   6.533s) [        166DC000]  device_description.cc:44       1| DeviceDescription::PJRT_DeviceDescription_Id
2025-09-11 14:26:08.876 (   6.539s) [        166DC000]     device_instance.cc:82       1| DeviceInstance::PJRT_Device_DefaultMemory
2025-09-11 14:26:08.876 (   6.539s) [        166DC000]     client_instance.cc:466      1| ClientInstance::PJRT_Client_BufferFromHostBuffer
2025-09-11 14:26:08.876 (   6.539s) [        166DC000]     memory_instance.cc:57       1| MemoryInstance::getDevice
2025-09-11 14:26:08.876 (   6.539s) [        166DC000]      event_instance.cc:222      1| EventInstance::PJRT_Event_OnReady
2025-09-11 14:26:08.876 (   6.539s) [        166DC000]      event_instance.cc:171      1| EventInstance::PJRT_Event_Destroy
2025-09-11 14:26:08.876 (   6.539s) [        166DC000]     device_instance.cc:82       1| DeviceInstance::PJRT_Device_DefaultMemory
2025-09-11 14:26:08.876 (   6.539s) [        166DC000]     client_instance.cc:466      1| ClientInstance::PJRT_Client_BufferFromHostBuffer
2025-09-11 14:26:08.876 (   6.539s) [        166DC000]     memory_instance.cc:57       1| MemoryInstance::getDevice
2025-09-11 14:26:08.877 (   6.539s) [        166DC000]      event_instance.cc:222      1| EventInstance::PJRT_Event_OnReady
2025-09-11 14:26:08.877 (   6.539s) [        166DC000]      event_instance.cc:171      1| EventInstance::PJRT_Event_Destroy
2025-09-11 14:26:08.882 (   6.545s) [        166DC000]  device_description.cc:44       1| DeviceDescription::PJRT_DeviceDescription_Id
2025-09-11 14:26:08.882 (   6.545s) [        166DC000]  device_description.cc:44       1| DeviceDescription::PJRT_DeviceDescription_Id
2025-09-11 14:26:08.887 (   6.550s) [        166DC000]     device_instance.cc:82       1| DeviceInstance::PJRT_Device_DefaultMemory
2025-09-11 14:26:08.887 (   6.550s) [        166DC000]     client_instance.cc:466      1| ClientInstance::PJRT_Client_BufferFromHostBuffer
2025-09-11 14:26:08.887 (   6.550s) [        166DC000]     memory_instance.cc:57       1| MemoryInstance::getDevice
2025-09-11 14:26:08.888 (   6.551s) [        166DC000]      event_instance.cc:222      1| EventInstance::PJRT_Event_OnReady
2025-09-11 14:26:08.888 (   6.551s) [        166DC000]      event_instance.cc:171      1| EventInstance::PJRT_Event_Destroy
2025-09-11 14:26:08.888 (   6.551s) [        166DC000]     device_instance.cc:82       1| DeviceInstance::PJRT_Device_DefaultMemory
2025-09-11 14:26:08.888 (   6.551s) [        166DC000]     client_instance.cc:466      1| ClientInstance::PJRT_Client_BufferFromHostBuffer
2025-09-11 14:26:08.888 (   6.551s) [        166DC000]     memory_instance.cc:57       1| MemoryInstance::getDevice
2025-09-11 14:26:08.888 (   6.551s) [        166DC000]      event_instance.cc:222      1| EventInstance::PJRT_Event_OnReady
2025-09-11 14:26:08.888 (   6.551s) [        166DC000]      event_instance.cc:171      1| EventInstance::PJRT_Event_Destroy
2025-09-11 14:26:08.893 (   6.556s) [        166DC000]  device_description.cc:44       1| DeviceDescription::PJRT_DeviceDescription_Id
2025-09-11 14:26:08.893 (   6.556s) [        166DC000]  device_description.cc:44       1| DeviceDescription::PJRT_DeviceDescription_Id
2025-09-11 14:26:08.901 (   6.564s) [        166DC000]     device_instance.cc:82       1| DeviceInstance::PJRT_Device_DefaultMemory
2025-09-11 14:26:08.901 (   6.564s) [        166DC000]     client_instance.cc:466      1| ClientInstance::PJRT_Client_BufferFromHostBuffer
2025-09-11 14:26:08.901 (   6.564s) [        166DC000]     memory_instance.cc:57       1| MemoryInstance::getDevice
2025-09-11 14:26:08.901 (   6.564s) [        166DC000]      event_instance.cc:222      1| EventInstance::PJRT_Event_OnReady
2025-09-11 14:26:08.901 (   6.564s) [        166DC000]      event_instance.cc:171      1| EventInstance::PJRT_Event_Destroy
2025-09-11 14:26:08.901 (   6.564s) [        166DC000]     device_instance.cc:82       1| DeviceInstance::PJRT_Device_DefaultMemory
2025-09-11 14:26:08.901 (   6.564s) [        166DC000]     client_instance.cc:466      1| ClientInstance::PJRT_Client_BufferFromHostBuffer
2025-09-11 14:26:08.901 (   6.564s) [        166DC000]     memory_instance.cc:57       1| MemoryInstance::getDevice
2025-09-11 14:26:08.901 (   6.564s) [        166DC000]      event_instance.cc:222      1| EventInstance::PJRT_Event_OnReady
2025-09-11 14:26:08.901 (   6.564s) [        166DC000]      event_instance.cc:171      1| EventInstance::PJRT_Event_Destroy
2025-09-11 14:26:08.906 (   6.569s) [        166DC000]  device_description.cc:44       1| DeviceDescription::PJRT_DeviceDescription_Id
2025-09-11 14:26:08.906 (   6.569s) [        166DC000]  device_description.cc:44       1| DeviceDescription::PJRT_DeviceDescription_Id
2025-09-11 14:26:08.909 (   6.572s) [        166DC000]     device_instance.cc:82       1| DeviceInstance::PJRT_Device_DefaultMemory
2025-09-11 14:26:08.909 (   6.572s) [        166DC000]     client_instance.cc:466      1| ClientInstance::PJRT_Client_BufferFromHostBuffer
2025-09-11 14:26:08.909 (   6.572s) [        166DC000]     memory_instance.cc:57       1| MemoryInstance::getDevice
2025-09-11 14:26:08.909 (   6.572s) [        166DC000]      event_instance.cc:222      1| EventInstance::PJRT_Event_OnReady
2025-09-11 14:26:08.909 (   6.572s) [        166DC000]      event_instance.cc:171      1| EventInstance::PJRT_Event_Destroy
2025-09-11 14:26:08.909 (   6.572s) [        166DC000]     device_instance.cc:82       1| DeviceInstance::PJRT_Device_DefaultMemory
2025-09-11 14:26:08.909 (   6.572s) [        166DC000]     client_instance.cc:466      1| ClientInstance::PJRT_Client_BufferFromHostBuffer
2025-09-11 14:26:08.909 (   6.572s) [        166DC000]     memory_instance.cc:57       1| MemoryInstance::getDevice
2025-09-11 14:26:08.909 (   6.572s) [        166DC000]      event_instance.cc:222      1| EventInstance::PJRT_Event_OnReady
2025-09-11 14:26:08.909 (   6.572s) [        166DC000]      event_instance.cc:171      1| EventInstance::PJRT_Event_Destroy
2025-09-11 14:26:08.909 (   6.572s) [        166DC000]  device_description.cc:44       1| DeviceDescription::PJRT_DeviceDescription_Id
2025-09-11 14:26:08.909 (   6.572s) [        166DC000]  device_description.cc:44       1| DeviceDescription::PJRT_DeviceDescription_Id
2025-09-11 14:26:08.910 (   6.573s) [        166DC000]     device_instance.cc:82       1| DeviceInstance::PJRT_Device_DefaultMemory
2025-09-11 14:26:08.910 (   6.573s) [        166DC000]     client_instance.cc:466      1| ClientInstance::PJRT_Client_BufferFromHostBuffer
2025-09-11 14:26:08.910 (   6.573s) [        166DC000]     memory_instance.cc:57       1| MemoryInstance::getDevice
2025-09-11 14:26:08.910 (   6.573s) [        166DC000]      event_instance.cc:222      1| EventInstance::PJRT_Event_OnReady
2025-09-11 14:26:08.910 (   6.573s) [        166DC000]      event_instance.cc:171      1| EventInstance::PJRT_Event_Destroy
2025-09-11 14:26:08.910 (   6.573s) [        166DC000]     device_instance.cc:82       1| DeviceInstance::PJRT_Device_DefaultMemory
2025-09-11 14:26:08.910 (   6.573s) [        166DC000]     client_instance.cc:466      1| ClientInstance::PJRT_Client_BufferFromHostBuffer
2025-09-11 14:26:08.910 (   6.573s) [        166DC000]     memory_instance.cc:57       1| MemoryInstance::getDevice
2025-09-11 14:26:08.910 (   6.573s) [        166DC000]      event_instance.cc:222      1| EventInstance::PJRT_Event_OnReady
2025-09-11 14:26:08.910 (   6.573s) [        166DC000]      event_instance.cc:171      1| EventInstance::PJRT_Event_Destroy
2025-09-11 14:26:08.910 (   6.573s) [        166DC000]  device_description.cc:44       1| DeviceDescription::PJRT_DeviceDescription_Id
2025-09-11 14:26:08.910 (   6.573s) [        166DC000]  device_description.cc:44       1| DeviceDescription::PJRT_DeviceDescription_Id
2025-09-11 14:26:08.911 (   6.574s) [        166DC000]     device_instance.cc:82       1| DeviceInstance::PJRT_Device_DefaultMemory
2025-09-11 14:26:08.911 (   6.574s) [        166DC000]     client_instance.cc:466      1| ClientInstance::PJRT_Client_BufferFromHostBuffer
2025-09-11 14:26:08.911 (   6.574s) [        166DC000]     memory_instance.cc:57       1| MemoryInstance::getDevice
2025-09-11 14:26:08.911 (   6.574s) [        166DC000]      event_instance.cc:222      1| EventInstance::PJRT_Event_OnReady
2025-09-11 14:26:08.911 (   6.574s) [        166DC000]      event_instance.cc:171      1| EventInstance::PJRT_Event_Destroy
2025-09-11 14:26:08.911 (   6.574s) [        166DC000]     device_instance.cc:82       1| DeviceInstance::PJRT_Device_DefaultMemory
2025-09-11 14:26:08.911 (   6.574s) [        166DC000]     client_instance.cc:466      1| ClientInstance::PJRT_Client_BufferFromHostBuffer
2025-09-11 14:26:08.911 (   6.574s) [        166DC000]     memory_instance.cc:57       1| MemoryInstance::getDevice
2025-09-11 14:26:08.911 (   6.574s) [        166DC000]      event_instance.cc:222      1| EventInstance::PJRT_Event_OnReady
2025-09-11 14:26:08.911 (   6.574s) [        166DC000]      event_instance.cc:171      1| EventInstance::PJRT_Event_Destroy
2025-09-11 14:26:08.911 (   6.574s) [        166DC000]  device_description.cc:44       1| DeviceDescription::PJRT_DeviceDescription_Id
2025-09-11 14:26:08.911 (   6.574s) [        166DC000]  device_description.cc:44       1| DeviceDescription::PJRT_DeviceDescription_Id
2025-09-11 14:26:08.915 (   6.578s) [        166DC000]     device_instance.cc:82       1| DeviceInstance::PJRT_Device_DefaultMemory
2025-09-11 14:26:08.915 (   6.578s) [        166DC000]     client_instance.cc:466      1| ClientInstance::PJRT_Client_BufferFromHostBuffer
2025-09-11 14:26:08.915 (   6.578s) [        166DC000]     memory_instance.cc:57       1| MemoryInstance::getDevice
2025-09-11 14:26:08.915 (   6.578s) [        166DC000]      event_instance.cc:222      1| EventInstance::PJRT_Event_OnReady
2025-09-11 14:26:08.915 (   6.578s) [        166DC000]      event_instance.cc:171      1| EventInstance::PJRT_Event_Destroy
2025-09-11 14:26:08.915 (   6.578s) [        166DC000]     device_instance.cc:82       1| DeviceInstance::PJRT_Device_DefaultMemory
2025-09-11 14:26:08.915 (   6.578s) [        166DC000]     client_instance.cc:466      1| ClientInstance::PJRT_Client_BufferFromHostBuffer
2025-09-11 14:26:08.915 (   6.578s) [        166DC000]     memory_instance.cc:57       1| MemoryInstance::getDevice
2025-09-11 14:26:08.915 (   6.578s) [        166DC000]      event_instance.cc:222      1| EventInstance::PJRT_Event_OnReady
2025-09-11 14:26:08.915 (   6.578s) [        166DC000]      event_instance.cc:171      1| EventInstance::PJRT_Event_Destroy
2025-09-11 14:26:08.915 (   6.578s) [        166DC000]  device_description.cc:44       1| DeviceDescription::PJRT_DeviceDescription_Id
2025-09-11 14:26:08.915 (   6.578s) [        166DC000]  device_description.cc:44       1| DeviceDescription::PJRT_DeviceDescription_Id
2025-09-11 14:26:08.921 (   6.584s) [        166DC000]     device_instance.cc:82       1| DeviceInstance::PJRT_Device_DefaultMemory
2025-09-11 14:26:08.921 (   6.584s) [        166DC000]     client_instance.cc:466      1| ClientInstance::PJRT_Client_BufferFromHostBuffer
2025-09-11 14:26:08.921 (   6.584s) [        166DC000]     memory_instance.cc:57       1| MemoryInstance::getDevice
2025-09-11 14:26:08.921 (   6.584s) [        166DC000]      event_instance.cc:222      1| EventInstance::PJRT_Event_OnReady
2025-09-11 14:26:08.921 (   6.584s) [        166DC000]      event_instance.cc:171      1| EventInstance::PJRT_Event_Destroy
2025-09-11 14:26:08.921 (   6.584s) [        166DC000]     device_instance.cc:82       1| DeviceInstance::PJRT_Device_DefaultMemory
2025-09-11 14:26:08.921 (   6.584s) [        166DC000]     client_instance.cc:466      1| ClientInstance::PJRT_Client_BufferFromHostBuffer
2025-09-11 14:26:08.921 (   6.584s) [        166DC000]     memory_instance.cc:57       1| MemoryInstance::getDevice
2025-09-11 14:26:08.921 (   6.584s) [        166DC000]      event_instance.cc:222      1| EventInstance::PJRT_Event_OnReady
2025-09-11 14:26:08.921 (   6.584s) [        166DC000]      event_instance.cc:171      1| EventInstance::PJRT_Event_Destroy
2025-09-11 14:26:08.927 (   6.590s) [        166DC000]  device_description.cc:44       1| DeviceDescription::PJRT_DeviceDescription_Id
2025-09-11 14:26:08.927 (   6.590s) [        166DC000]  device_description.cc:44       1| DeviceDescription::PJRT_DeviceDescription_Id
2025-09-11 14:26:08.933 (   6.596s) [        166DC000]     device_instance.cc:82       1| DeviceInstance::PJRT_Device_DefaultMemory
2025-09-11 14:26:08.933 (   6.596s) [        166DC000]     client_instance.cc:466      1| ClientInstance::PJRT_Client_BufferFromHostBuffer
2025-09-11 14:26:08.933 (   6.596s) [        166DC000]     memory_instance.cc:57       1| MemoryInstance::getDevice
2025-09-11 14:26:08.933 (   6.596s) [        166DC000]      event_instance.cc:222      1| EventInstance::PJRT_Event_OnReady
2025-09-11 14:26:08.933 (   6.596s) [        166DC000]      event_instance.cc:171      1| EventInstance::PJRT_Event_Destroy
2025-09-11 14:26:08.933 (   6.596s) [        166DC000]     device_instance.cc:82       1| DeviceInstance::PJRT_Device_DefaultMemory
2025-09-11 14:26:08.933 (   6.596s) [        166DC000]     client_instance.cc:466      1| ClientInstance::PJRT_Client_BufferFromHostBuffer
2025-09-11 14:26:08.933 (   6.596s) [        166DC000]     memory_instance.cc:57       1| MemoryInstance::getDevice
2025-09-11 14:26:08.933 (   6.596s) [        166DC000]      event_instance.cc:222      1| EventInstance::PJRT_Event_OnReady
2025-09-11 14:26:08.933 (   6.596s) [        166DC000]      event_instance.cc:171      1| EventInstance::PJRT_Event_Destroy
2025-09-11 14:26:08.938 (   6.601s) [        166DC000]  device_description.cc:44       1| DeviceDescription::PJRT_DeviceDescription_Id
2025-09-11 14:26:08.938 (   6.601s) [        166DC000]  device_description.cc:44       1| DeviceDescription::PJRT_DeviceDescription_Id
2025-09-11 14:26:08.947 (   6.610s) [        166DC000]     device_instance.cc:82       1| DeviceInstance::PJRT_Device_DefaultMemory
2025-09-11 14:26:08.947 (   6.610s) [        166DC000]     client_instance.cc:466      1| ClientInstance::PJRT_Client_BufferFromHostBuffer
2025-09-11 14:26:08.947 (   6.610s) [        166DC000]     memory_instance.cc:57       1| MemoryInstance::getDevice
2025-09-11 14:26:08.948 (   6.611s) [        166DC000]      event_instance.cc:222      1| EventInstance::PJRT_Event_OnReady
2025-09-11 14:26:08.948 (   6.611s) [        166DC000]      event_instance.cc:171      1| EventInstance::PJRT_Event_Destroy
2025-09-11 14:26:08.948 (   6.611s) [        166DC000]     device_instance.cc:82       1| DeviceInstance::PJRT_Device_DefaultMemory
2025-09-11 14:26:08.948 (   6.611s) [        166DC000]     client_instance.cc:466      1| ClientInstance::PJRT_Client_BufferFromHostBuffer
2025-09-11 14:26:08.948 (   6.611s) [        166DC000]     memory_instance.cc:57       1| MemoryInstance::getDevice
2025-09-11 14:26:08.948 (   6.611s) [        166DC000]      event_instance.cc:222      1| EventInstance::PJRT_Event_OnReady
2025-09-11 14:26:08.948 (   6.611s) [        166DC000]      event_instance.cc:171      1| EventInstance::PJRT_Event_Destroy
2025-09-11 14:26:08.953 (   6.616s) [        166DC000]  device_description.cc:44       1| DeviceDescription::PJRT_DeviceDescription_Id
2025-09-11 14:26:08.953 (   6.616s) [        166DC000]  device_description.cc:44       1| DeviceDescription::PJRT_DeviceDescription_Id
2025-09-11 14:26:08.956 (   6.619s) [        166DC000]     device_instance.cc:82       1| DeviceInstance::PJRT_Device_DefaultMemory
2025-09-11 14:26:08.956 (   6.619s) [        166DC000]     client_instance.cc:466      1| ClientInstance::PJRT_Client_BufferFromHostBuffer
2025-09-11 14:26:08.956 (   6.619s) [        166DC000]     memory_instance.cc:57       1| MemoryInstance::getDevice
2025-09-11 14:26:08.956 (   6.619s) [        166DC000]      event_instance.cc:222      1| EventInstance::PJRT_Event_OnReady
2025-09-11 14:26:08.956 (   6.619s) [        166DC000]      event_instance.cc:171      1| EventInstance::PJRT_Event_Destroy
2025-09-11 14:26:08.956 (   6.619s) [        166DC000]     device_instance.cc:82       1| DeviceInstance::PJRT_Device_DefaultMemory
2025-09-11 14:26:08.956 (   6.619s) [        166DC000]     client_instance.cc:466      1| ClientInstance::PJRT_Client_BufferFromHostBuffer
2025-09-11 14:26:08.956 (   6.619s) [        166DC000]     memory_instance.cc:57       1| MemoryInstance::getDevice
2025-09-11 14:26:08.956 (   6.619s) [        166DC000]      event_instance.cc:222      1| EventInstance::PJRT_Event_OnReady
2025-09-11 14:26:08.956 (   6.619s) [        166DC000]      event_instance.cc:171      1| EventInstance::PJRT_Event_Destroy
2025-09-11 14:26:08.956 (   6.619s) [        166DC000]  device_description.cc:44       1| DeviceDescription::PJRT_DeviceDescription_Id
2025-09-11 14:26:08.956 (   6.619s) [        166DC000]  device_description.cc:44       1| DeviceDescription::PJRT_DeviceDescription_Id
2025-09-11 14:26:08.957 (   6.620s) [        166DC000]     device_instance.cc:82       1| DeviceInstance::PJRT_Device_DefaultMemory
2025-09-11 14:26:08.957 (   6.620s) [        166DC000]     client_instance.cc:466      1| ClientInstance::PJRT_Client_BufferFromHostBuffer
2025-09-11 14:26:08.957 (   6.620s) [        166DC000]     memory_instance.cc:57       1| MemoryInstance::getDevice
2025-09-11 14:26:08.957 (   6.620s) [        166DC000]      event_instance.cc:222      1| EventInstance::PJRT_Event_OnReady
2025-09-11 14:26:08.957 (   6.620s) [        166DC000]      event_instance.cc:171      1| EventInstance::PJRT_Event_Destroy
2025-09-11 14:26:08.957 (   6.620s) [        166DC000]     device_instance.cc:82       1| DeviceInstance::PJRT_Device_DefaultMemory
2025-09-11 14:26:08.957 (   6.620s) [        166DC000]     client_instance.cc:466      1| ClientInstance::PJRT_Client_BufferFromHostBuffer
2025-09-11 14:26:08.957 (   6.620s) [        166DC000]     memory_instance.cc:57       1| MemoryInstance::getDevice
2025-09-11 14:26:08.957 (   6.620s) [        166DC000]      event_instance.cc:222      1| EventInstance::PJRT_Event_OnReady
2025-09-11 14:26:08.957 (   6.620s) [        166DC000]      event_instance.cc:171      1| EventInstance::PJRT_Event_Destroy
2025-09-11 14:26:08.957 (   6.620s) [        166DC000]  device_description.cc:44       1| DeviceDescription::PJRT_DeviceDescription_Id
2025-09-11 14:26:08.957 (   6.620s) [        166DC000]  device_description.cc:44       1| DeviceDescription::PJRT_DeviceDescription_Id
2025-09-11 14:26:08.958 (   6.621s) [        166DC000]     device_instance.cc:82       1| DeviceInstance::PJRT_Device_DefaultMemory
2025-09-11 14:26:08.958 (   6.621s) [        166DC000]     client_instance.cc:466      1| ClientInstance::PJRT_Client_BufferFromHostBuffer
2025-09-11 14:26:08.958 (   6.621s) [        166DC000]     memory_instance.cc:57       1| MemoryInstance::getDevice
2025-09-11 14:26:08.958 (   6.621s) [        166DC000]      event_instance.cc:222      1| EventInstance::PJRT_Event_OnReady
2025-09-11 14:26:08.958 (   6.621s) [        166DC000]      event_instance.cc:171      1| EventInstance::PJRT_Event_Destroy
2025-09-11 14:26:08.958 (   6.621s) [        166DC000]     device_instance.cc:82       1| DeviceInstance::PJRT_Device_DefaultMemory
2025-09-11 14:26:08.958 (   6.621s) [        166DC000]     client_instance.cc:466      1| ClientInstance::PJRT_Client_BufferFromHostBuffer
2025-09-11 14:26:08.958 (   6.621s) [        166DC000]     memory_instance.cc:57       1| MemoryInstance::getDevice
2025-09-11 14:26:08.958 (   6.621s) [        166DC000]      event_instance.cc:222      1| EventInstance::PJRT_Event_OnReady
2025-09-11 14:26:08.958 (   6.621s) [        166DC000]      event_instance.cc:171      1| EventInstance::PJRT_Event_Destroy
2025-09-11 14:26:08.958 (   6.621s) [        166DC000]  device_description.cc:44       1| DeviceDescription::PJRT_DeviceDescription_Id
2025-09-11 14:26:08.958 (   6.621s) [        166DC000]  device_description.cc:44       1| DeviceDescription::PJRT_DeviceDescription_Id
2025-09-11 14:26:08.962 (   6.625s) [        166DC000]     device_instance.cc:82       1| DeviceInstance::PJRT_Device_DefaultMemory
2025-09-11 14:26:08.962 (   6.625s) [        166DC000]     client_instance.cc:466      1| ClientInstance::PJRT_Client_BufferFromHostBuffer
2025-09-11 14:26:08.962 (   6.625s) [        166DC000]     memory_instance.cc:57       1| MemoryInstance::getDevice
2025-09-11 14:26:08.962 (   6.625s) [        166DC000]      event_instance.cc:222      1| EventInstance::PJRT_Event_OnReady
2025-09-11 14:26:08.962 (   6.625s) [        166DC000]      event_instance.cc:171      1| EventInstance::PJRT_Event_Destroy
2025-09-11 14:26:08.962 (   6.625s) [        166DC000]     device_instance.cc:82       1| DeviceInstance::PJRT_Device_DefaultMemory
2025-09-11 14:26:08.962 (   6.625s) [        166DC000]     client_instance.cc:466      1| ClientInstance::PJRT_Client_BufferFromHostBuffer
2025-09-11 14:26:08.962 (   6.625s) [        166DC000]     memory_instance.cc:57       1| MemoryInstance::getDevice
2025-09-11 14:26:08.962 (   6.625s) [        166DC000]      event_instance.cc:222      1| EventInstance::PJRT_Event_OnReady
2025-09-11 14:26:08.962 (   6.625s) [        166DC000]      event_instance.cc:171      1| EventInstance::PJRT_Event_Destroy
2025-09-11 14:26:08.963 (   6.626s) [        166DC000]  device_description.cc:44       1| DeviceDescription::PJRT_DeviceDescription_Id
2025-09-11 14:26:08.963 (   6.626s) [        166DC000]  device_description.cc:44       1| DeviceDescription::PJRT_DeviceDescription_Id
2025-09-11 14:26:08.969 (   6.632s) [        166DC000]     device_instance.cc:82       1| DeviceInstance::PJRT_Device_DefaultMemory
2025-09-11 14:26:08.969 (   6.632s) [        166DC000]     client_instance.cc:466      1| ClientInstance::PJRT_Client_BufferFromHostBuffer
2025-09-11 14:26:08.969 (   6.632s) [        166DC000]     memory_instance.cc:57       1| MemoryInstance::getDevice
2025-09-11 14:26:08.970 (   6.632s) [        166DC000]      event_instance.cc:222      1| EventInstance::PJRT_Event_OnReady
2025-09-11 14:26:08.970 (   6.633s) [        166DC000]      event_instance.cc:171      1| EventInstance::PJRT_Event_Destroy
2025-09-11 14:26:08.970 (   6.633s) [        166DC000]     device_instance.cc:82       1| DeviceInstance::PJRT_Device_DefaultMemory
2025-09-11 14:26:08.970 (   6.633s) [        166DC000]     client_instance.cc:466      1| ClientInstance::PJRT_Client_BufferFromHostBuffer
2025-09-11 14:26:08.970 (   6.633s) [        166DC000]     memory_instance.cc:57       1| MemoryInstance::getDevice
2025-09-11 14:26:08.970 (   6.633s) [        166DC000]      event_instance.cc:222      1| EventInstance::PJRT_Event_OnReady
2025-09-11 14:26:08.970 (   6.633s) [        166DC000]      event_instance.cc:171      1| EventInstance::PJRT_Event_Destroy
2025-09-11 14:26:08.975 (   6.638s) [        166DC000]  device_description.cc:44       1| DeviceDescription::PJRT_DeviceDescription_Id
2025-09-11 14:26:08.975 (   6.638s) [        166DC000]  device_description.cc:44       1| DeviceDescription::PJRT_DeviceDescription_Id
2025-09-11 14:26:08.981 (   6.644s) [        166DC000]     device_instance.cc:82       1| DeviceInstance::PJRT_Device_DefaultMemory
2025-09-11 14:26:08.981 (   6.644s) [        166DC000]     client_instance.cc:466      1| ClientInstance::PJRT_Client_BufferFromHostBuffer
2025-09-11 14:26:08.981 (   6.644s) [        166DC000]     memory_instance.cc:57       1| MemoryInstance::getDevice
2025-09-11 14:26:08.982 (   6.644s) [        166DC000]      event_instance.cc:222      1| EventInstance::PJRT_Event_OnReady
2025-09-11 14:26:08.982 (   6.645s) [        166DC000]      event_instance.cc:171      1| EventInstance::PJRT_Event_Destroy
2025-09-11 14:26:08.982 (   6.645s) [        166DC000]     device_instance.cc:82       1| DeviceInstance::PJRT_Device_DefaultMemory
2025-09-11 14:26:08.982 (   6.645s) [        166DC000]     client_instance.cc:466      1| ClientInstance::PJRT_Client_BufferFromHostBuffer
2025-09-11 14:26:08.982 (   6.645s) [        166DC000]     memory_instance.cc:57       1| MemoryInstance::getDevice
2025-09-11 14:26:08.982 (   6.645s) [        166DC000]      event_instance.cc:222      1| EventInstance::PJRT_Event_OnReady
2025-09-11 14:26:08.982 (   6.645s) [        166DC000]      event_instance.cc:171      1| EventInstance::PJRT_Event_Destroy
2025-09-11 14:26:08.987 (   6.650s) [        166DC000]  device_description.cc:44       1| DeviceDescription::PJRT_DeviceDescription_Id
2025-09-11 14:26:08.987 (   6.650s) [        166DC000]  device_description.cc:44       1| DeviceDescription::PJRT_DeviceDescription_Id
2025-09-11 14:26:08.995 (   6.658s) [        166DC000]     device_instance.cc:82       1| DeviceInstance::PJRT_Device_DefaultMemory
2025-09-11 14:26:08.995 (   6.658s) [        166DC000]     client_instance.cc:466      1| ClientInstance::PJRT_Client_BufferFromHostBuffer
2025-09-11 14:26:08.995 (   6.658s) [        166DC000]     memory_instance.cc:57       1| MemoryInstance::getDevice
2025-09-11 14:26:08.995 (   6.658s) [        166DC000]      event_instance.cc:222      1| EventInstance::PJRT_Event_OnReady
2025-09-11 14:26:08.995 (   6.658s) [        166DC000]      event_instance.cc:171      1| EventInstance::PJRT_Event_Destroy
2025-09-11 14:26:08.995 (   6.658s) [        166DC000]     device_instance.cc:82       1| DeviceInstance::PJRT_Device_DefaultMemory
2025-09-11 14:26:08.995 (   6.658s) [        166DC000]     client_instance.cc:466      1| ClientInstance::PJRT_Client_BufferFromHostBuffer
2025-09-11 14:26:08.995 (   6.658s) [        166DC000]     memory_instance.cc:57       1| MemoryInstance::getDevice
2025-09-11 14:26:08.995 (   6.658s) [        166DC000]      event_instance.cc:222      1| EventInstance::PJRT_Event_OnReady
2025-09-11 14:26:08.995 (   6.658s) [        166DC000]      event_instance.cc:171      1| EventInstance::PJRT_Event_Destroy
2025-09-11 14:26:09.000 (   6.663s) [        166DC000]  device_description.cc:44       1| DeviceDescription::PJRT_DeviceDescription_Id
2025-09-11 14:26:09.000 (   6.663s) [        166DC000]  device_description.cc:44       1| DeviceDescription::PJRT_DeviceDescription_Id
2025-09-11 14:26:09.003 (   6.666s) [        166DC000]     device_instance.cc:82       1| DeviceInstance::PJRT_Device_DefaultMemory
2025-09-11 14:26:09.003 (   6.666s) [        166DC000]     client_instance.cc:466      1| ClientInstance::PJRT_Client_BufferFromHostBuffer
2025-09-11 14:26:09.003 (   6.666s) [        166DC000]     memory_instance.cc:57       1| MemoryInstance::getDevice
2025-09-11 14:26:09.003 (   6.666s) [        166DC000]      event_instance.cc:222      1| EventInstance::PJRT_Event_OnReady
2025-09-11 14:26:09.003 (   6.666s) [        166DC000]      event_instance.cc:171      1| EventInstance::PJRT_Event_Destroy
2025-09-11 14:26:09.003 (   6.666s) [        166DC000]     device_instance.cc:82       1| DeviceInstance::PJRT_Device_DefaultMemory
2025-09-11 14:26:09.003 (   6.666s) [        166DC000]     client_instance.cc:466      1| ClientInstance::PJRT_Client_BufferFromHostBuffer
2025-09-11 14:26:09.003 (   6.666s) [        166DC000]     memory_instance.cc:57       1| MemoryInstance::getDevice
2025-09-11 14:26:09.003 (   6.666s) [        166DC000]      event_instance.cc:222      1| EventInstance::PJRT_Event_OnReady
2025-09-11 14:26:09.003 (   6.666s) [        166DC000]      event_instance.cc:171      1| EventInstance::PJRT_Event_Destroy
2025-09-11 14:26:09.004 (   6.666s) [        166DC000]  device_description.cc:44       1| DeviceDescription::PJRT_DeviceDescription_Id
2025-09-11 14:26:09.004 (   6.666s) [        166DC000]  device_description.cc:44       1| DeviceDescription::PJRT_DeviceDescription_Id
2025-09-11 14:26:09.004 (   6.667s) [        166DC000]     device_instance.cc:82       1| DeviceInstance::PJRT_Device_DefaultMemory
2025-09-11 14:26:09.004 (   6.667s) [        166DC000]     client_instance.cc:466      1| ClientInstance::PJRT_Client_BufferFromHostBuffer
2025-09-11 14:26:09.004 (   6.667s) [        166DC000]     memory_instance.cc:57       1| MemoryInstance::getDevice
2025-09-11 14:26:09.005 (   6.667s) [        166DC000]      event_instance.cc:222      1| EventInstance::PJRT_Event_OnReady
2025-09-11 14:26:09.005 (   6.667s) [        166DC000]      event_instance.cc:171      1| EventInstance::PJRT_Event_Destroy
2025-09-11 14:26:09.005 (   6.668s) [        166DC000]     device_instance.cc:82       1| DeviceInstance::PJRT_Device_DefaultMemory
2025-09-11 14:26:09.005 (   6.668s) [        166DC000]     client_instance.cc:466      1| ClientInstance::PJRT_Client_BufferFromHostBuffer
2025-09-11 14:26:09.005 (   6.668s) [        166DC000]     memory_instance.cc:57       1| MemoryInstance::getDevice
2025-09-11 14:26:09.005 (   6.668s) [        166DC000]      event_instance.cc:222      1| EventInstance::PJRT_Event_OnReady
2025-09-11 14:26:09.005 (   6.668s) [        166DC000]      event_instance.cc:171      1| EventInstance::PJRT_Event_Destroy
2025-09-11 14:26:09.005 (   6.668s) [        166DC000]  device_description.cc:44       1| DeviceDescription::PJRT_DeviceDescription_Id
2025-09-11 14:26:09.005 (   6.668s) [        166DC000]  device_description.cc:44       1| DeviceDescription::PJRT_DeviceDescription_Id
2025-09-11 14:26:09.005 (   6.668s) [        166DC000]     device_instance.cc:82       1| DeviceInstance::PJRT_Device_DefaultMemory
2025-09-11 14:26:09.005 (   6.668s) [        166DC000]     client_instance.cc:466      1| ClientInstance::PJRT_Client_BufferFromHostBuffer
2025-09-11 14:26:09.005 (   6.668s) [        166DC000]     memory_instance.cc:57       1| MemoryInstance::getDevice
2025-09-11 14:26:09.005 (   6.668s) [        166DC000]      event_instance.cc:222      1| EventInstance::PJRT_Event_OnReady
2025-09-11 14:26:09.005 (   6.668s) [        166DC000]      event_instance.cc:171      1| EventInstance::PJRT_Event_Destroy
2025-09-11 14:26:09.005 (   6.668s) [        166DC000]     device_instance.cc:82       1| DeviceInstance::PJRT_Device_DefaultMemory
2025-09-11 14:26:09.005 (   6.668s) [        166DC000]     client_instance.cc:466      1| ClientInstance::PJRT_Client_BufferFromHostBuffer
2025-09-11 14:26:09.006 (   6.668s) [        166DC000]     memory_instance.cc:57       1| MemoryInstance::getDevice
2025-09-11 14:26:09.006 (   6.668s) [        166DC000]      event_instance.cc:222      1| EventInstance::PJRT_Event_OnReady
2025-09-11 14:26:09.006 (   6.669s) [        166DC000]      event_instance.cc:171      1| EventInstance::PJRT_Event_Destroy
2025-09-11 14:26:09.006 (   6.669s) [        166DC000]  device_description.cc:44       1| DeviceDescription::PJRT_DeviceDescription_Id
2025-09-11 14:26:09.006 (   6.669s) [        166DC000]  device_description.cc:44       1| DeviceDescription::PJRT_DeviceDescription_Id
2025-09-11 14:26:09.008 (   6.671s) [        166DC000]     device_instance.cc:82       1| DeviceInstance::PJRT_Device_DefaultMemory
2025-09-11 14:26:09.008 (   6.671s) [        166DC000]     client_instance.cc:466      1| ClientInstance::PJRT_Client_BufferFromHostBuffer
2025-09-11 14:26:09.008 (   6.671s) [        166DC000]     memory_instance.cc:57       1| MemoryInstance::getDevice
2025-09-11 14:26:09.009 (   6.672s) [        166DC000]      event_instance.cc:222      1| EventInstance::PJRT_Event_OnReady
2025-09-11 14:26:09.009 (   6.672s) [        166DC000]      event_instance.cc:171      1| EventInstance::PJRT_Event_Destroy
2025-09-11 14:26:09.009 (   6.672s) [        166DC000]     device_instance.cc:82       1| DeviceInstance::PJRT_Device_DefaultMemory
2025-09-11 14:26:09.009 (   6.672s) [        166DC000]     client_instance.cc:466      1| ClientInstance::PJRT_Client_BufferFromHostBuffer
2025-09-11 14:26:09.009 (   6.672s) [        166DC000]     memory_instance.cc:57       1| MemoryInstance::getDevice
2025-09-11 14:26:09.009 (   6.672s) [        166DC000]      event_instance.cc:222      1| EventInstance::PJRT_Event_OnReady
2025-09-11 14:26:09.009 (   6.672s) [        166DC000]      event_instance.cc:171      1| EventInstance::PJRT_Event_Destroy
2025-09-11 14:26:09.009 (   6.672s) [        166DC000]  device_description.cc:44       1| DeviceDescription::PJRT_DeviceDescription_Id
2025-09-11 14:26:09.009 (   6.672s) [        166DC000]  device_description.cc:44       1| DeviceDescription::PJRT_DeviceDescription_Id
2025-09-11 14:26:09.013 (   6.676s) [        166DC000]     device_instance.cc:82       1| DeviceInstance::PJRT_Device_DefaultMemory
2025-09-11 14:26:09.013 (   6.676s) [        166DC000]     client_instance.cc:466      1| ClientInstance::PJRT_Client_BufferFromHostBuffer
2025-09-11 14:26:09.013 (   6.676s) [        166DC000]     memory_instance.cc:57       1| MemoryInstance::getDevice
2025-09-11 14:26:09.014 (   6.677s) [        166DC000]      event_instance.cc:222      1| EventInstance::PJRT_Event_OnReady
2025-09-11 14:26:09.014 (   6.677s) [        166DC000]      event_instance.cc:171      1| EventInstance::PJRT_Event_Destroy
2025-09-11 14:26:09.014 (   6.677s) [        166DC000]     device_instance.cc:82       1| DeviceInstance::PJRT_Device_DefaultMemory
2025-09-11 14:26:09.014 (   6.677s) [        166DC000]     client_instance.cc:466      1| ClientInstance::PJRT_Client_BufferFromHostBuffer
2025-09-11 14:26:09.014 (   6.677s) [        166DC000]     memory_instance.cc:57       1| MemoryInstance::getDevice
2025-09-11 14:26:09.014 (   6.677s) [        166DC000]      event_instance.cc:222      1| EventInstance::PJRT_Event_OnReady
2025-09-11 14:26:09.014 (   6.677s) [        166DC000]      event_instance.cc:171      1| EventInstance::PJRT_Event_Destroy
2025-09-11 14:26:09.019 (   6.682s) [        166DC000]  device_description.cc:44       1| DeviceDescription::PJRT_DeviceDescription_Id
2025-09-11 14:26:09.019 (   6.682s) [        166DC000]  device_description.cc:44       1| DeviceDescription::PJRT_DeviceDescription_Id
2025-09-11 14:26:09.026 (   6.689s) [        166DC000]     device_instance.cc:82       1| DeviceInstance::PJRT_Device_DefaultMemory
2025-09-11 14:26:09.026 (   6.689s) [        166DC000]     client_instance.cc:466      1| ClientInstance::PJRT_Client_BufferFromHostBuffer
2025-09-11 14:26:09.026 (   6.689s) [        166DC000]     memory_instance.cc:57       1| MemoryInstance::getDevice
2025-09-11 14:26:09.026 (   6.689s) [        166DC000]      event_instance.cc:222      1| EventInstance::PJRT_Event_OnReady
2025-09-11 14:26:09.026 (   6.689s) [        166DC000]      event_instance.cc:171      1| EventInstance::PJRT_Event_Destroy
2025-09-11 14:26:09.026 (   6.689s) [        166DC000]     device_instance.cc:82       1| DeviceInstance::PJRT_Device_DefaultMemory
2025-09-11 14:26:09.026 (   6.689s) [        166DC000]     client_instance.cc:466      1| ClientInstance::PJRT_Client_BufferFromHostBuffer
2025-09-11 14:26:09.026 (   6.689s) [        166DC000]     memory_instance.cc:57       1| MemoryInstance::getDevice
2025-09-11 14:26:09.026 (   6.689s) [        166DC000]      event_instance.cc:222      1| EventInstance::PJRT_Event_OnReady
2025-09-11 14:26:09.026 (   6.689s) [        166DC000]      event_instance.cc:171      1| EventInstance::PJRT_Event_Destroy
2025-09-11 14:26:09.031 (   6.694s) [        166DC000]  device_description.cc:44       1| DeviceDescription::PJRT_DeviceDescription_Id
2025-09-11 14:26:09.031 (   6.694s) [        166DC000]  device_description.cc:44       1| DeviceDescription::PJRT_DeviceDescription_Id
2025-09-11 14:26:09.039 (   6.702s) [        166DC000]     device_instance.cc:82       1| DeviceInstance::PJRT_Device_DefaultMemory
2025-09-11 14:26:09.039 (   6.702s) [        166DC000]     client_instance.cc:466      1| ClientInstance::PJRT_Client_BufferFromHostBuffer
2025-09-11 14:26:09.039 (   6.702s) [        166DC000]     memory_instance.cc:57       1| MemoryInstance::getDevice
2025-09-11 14:26:09.039 (   6.702s) [        166DC000]      event_instance.cc:222      1| EventInstance::PJRT_Event_OnReady
2025-09-11 14:26:09.039 (   6.702s) [        166DC000]      event_instance.cc:171      1| EventInstance::PJRT_Event_Destroy
2025-09-11 14:26:09.039 (   6.702s) [        166DC000]     device_instance.cc:82       1| DeviceInstance::PJRT_Device_DefaultMemory
2025-09-11 14:26:09.039 (   6.702s) [        166DC000]     client_instance.cc:466      1| ClientInstance::PJRT_Client_BufferFromHostBuffer
2025-09-11 14:26:09.039 (   6.702s) [        166DC000]     memory_instance.cc:57       1| MemoryInstance::getDevice
2025-09-11 14:26:09.039 (   6.702s) [        166DC000]      event_instance.cc:222      1| EventInstance::PJRT_Event_OnReady
2025-09-11 14:26:09.039 (   6.702s) [        166DC000]      event_instance.cc:171      1| EventInstance::PJRT_Event_Destroy
2025-09-11 14:26:09.044 (   6.707s) [        166DC000]  device_description.cc:44       1| DeviceDescription::PJRT_DeviceDescription_Id
2025-09-11 14:26:09.044 (   6.707s) [        166DC000]  device_description.cc:44       1| DeviceDescription::PJRT_DeviceDescription_Id
2025-09-11 14:26:09.046 (   6.709s) [        166DC000]     device_instance.cc:82       1| DeviceInstance::PJRT_Device_DefaultMemory
2025-09-11 14:26:09.047 (   6.709s) [        166DC000]     client_instance.cc:466      1| ClientInstance::PJRT_Client_BufferFromHostBuffer
2025-09-11 14:26:09.047 (   6.709s) [        166DC000]     memory_instance.cc:57       1| MemoryInstance::getDevice
2025-09-11 14:26:09.047 (   6.710s) [        166DC000]      event_instance.cc:222      1| EventInstance::PJRT_Event_OnReady
2025-09-11 14:26:09.047 (   6.710s) [        166DC000]      event_instance.cc:171      1| EventInstance::PJRT_Event_Destroy
2025-09-11 14:26:09.047 (   6.710s) [        166DC000]     device_instance.cc:82       1| DeviceInstance::PJRT_Device_DefaultMemory
2025-09-11 14:26:09.047 (   6.710s) [        166DC000]     client_instance.cc:466      1| ClientInstance::PJRT_Client_BufferFromHostBuffer
2025-09-11 14:26:09.047 (   6.710s) [        166DC000]     memory_instance.cc:57       1| MemoryInstance::getDevice
2025-09-11 14:26:09.047 (   6.710s) [        166DC000]      event_instance.cc:222      1| EventInstance::PJRT_Event_OnReady
2025-09-11 14:26:09.047 (   6.710s) [        166DC000]      event_instance.cc:171      1| EventInstance::PJRT_Event_Destroy
2025-09-11 14:26:09.047 (   6.710s) [        166DC000]  device_description.cc:44       1| DeviceDescription::PJRT_DeviceDescription_Id
2025-09-11 14:26:09.047 (   6.710s) [        166DC000]  device_description.cc:44       1| DeviceDescription::PJRT_DeviceDescription_Id
2025-09-11 14:26:09.048 (   6.711s) [        166DC000]     device_instance.cc:82       1| DeviceInstance::PJRT_Device_DefaultMemory
2025-09-11 14:26:09.048 (   6.711s) [        166DC000]     client_instance.cc:466      1| ClientInstance::PJRT_Client_BufferFromHostBuffer
2025-09-11 14:26:09.048 (   6.711s) [        166DC000]     memory_instance.cc:57       1| MemoryInstance::getDevice
2025-09-11 14:26:09.048 (   6.711s) [        166DC000]      event_instance.cc:222      1| EventInstance::PJRT_Event_OnReady
2025-09-11 14:26:09.048 (   6.711s) [        166DC000]      event_instance.cc:171      1| EventInstance::PJRT_Event_Destroy
2025-09-11 14:26:09.048 (   6.711s) [        166DC000]     device_instance.cc:82       1| DeviceInstance::PJRT_Device_DefaultMemory
2025-09-11 14:26:09.048 (   6.711s) [        166DC000]     client_instance.cc:466      1| ClientInstance::PJRT_Client_BufferFromHostBuffer
2025-09-11 14:26:09.048 (   6.711s) [        166DC000]     memory_instance.cc:57       1| MemoryInstance::getDevice
2025-09-11 14:26:09.048 (   6.711s) [        166DC000]      event_instance.cc:222      1| EventInstance::PJRT_Event_OnReady
2025-09-11 14:26:09.048 (   6.711s) [        166DC000]      event_instance.cc:171      1| EventInstance::PJRT_Event_Destroy
2025-09-11 14:26:09.048 (   6.711s) [        166DC000]  device_description.cc:44       1| DeviceDescription::PJRT_DeviceDescription_Id
2025-09-11 14:26:09.048 (   6.711s) [        166DC000]  device_description.cc:44       1| DeviceDescription::PJRT_DeviceDescription_Id
2025-09-11 14:26:09.048 (   6.711s) [        166DC000]     device_instance.cc:82       1| DeviceInstance::PJRT_Device_DefaultMemory
…
2025-09-11 14:27:17.908 (  75.571s) [        166DC000]     buffer_instance.cc:398      1| BufferInstance::PJRT_Buffer_Destroy
2025-09-11 14:27:17.908 (  75.571s) [        166DC000]     buffer_instance.cc:398      1| BufferInstance::PJRT_Buffer_Destroy
2025-09-11 14:27:17.908 (  75.571s) [        166DC000]     buffer_instance.cc:398      1| BufferInstance::PJRT_Buffer_Destroy
2025-09-11 14:27:17.908 (  75.571s) [        166DC000]     buffer_instance.cc:398      1| BufferInstance::PJRT_Buffer_Destroy
2025-09-11 14:27:17.908 (  75.571s) [        166DC000]     buffer_instance.cc:398      1| BufferInstance::PJRT_Buffer_Destroy
2025-09-11 14:27:17.908 (  75.571s) [        166DC000]     buffer_instance.cc:398      1| BufferInstance::PJRT_Buffer_Destroy
2025-09-11 14:27:17.908 (  75.571s) [        166DC000]     buffer_instance.cc:398      1| BufferInstance::PJRT_Buffer_Destroy
2025-09-11 14:27:17.908 (  75.571s) [        166DC000]     buffer_instance.cc:398      1| BufferInstance::PJRT_Buffer_Destroy
2025-09-11 14:27:17.909 (  75.571s) [        166DC000]     buffer_instance.cc:398      1| BufferInstance::PJRT_Buffer_Destroy
2025-09-11 14:27:17.909 (  75.572s) [        166DC000]     buffer_instance.cc:398      1| BufferInstance::PJRT_Buffer_Destroy
2025-09-11 14:27:17.909 (  75.572s) [        166DC000]     buffer_instance.cc:398      1| BufferInstance::PJRT_Buffer_Destroy
2025-09-11 14:27:17.909 (  75.572s) [        166DC000]     buffer_instance.cc:398      1| BufferInstance::PJRT_Buffer_Destroy
2025-09-11 14:27:17.909 (  75.572s) [        166DC000]     buffer_instance.cc:398      1| BufferInstance::PJRT_Buffer_Destroy
2025-09-11 14:27:17.909 (  75.572s) [        166DC000]     buffer_instance.cc:398      1| BufferInstance::PJRT_Buffer_Destroy
2025-09-11 14:27:17.909 (  75.572s) [        166DC000]     buffer_instance.cc:398      1| BufferInstance::PJRT_Buffer_Destroy
2025-09-11 14:27:17.909 (  75.572s) [        166DC000]     buffer_instance.cc:398      1| BufferInstance::PJRT_Buffer_Destroy
2025-09-11 14:27:17.909 (  75.572s) [        166DC000]     buffer_instance.cc:398      1| BufferInstance::PJRT_Buffer_Destroy
2025-09-11 14:27:17.910 (  75.572s) [        166DC000]     buffer_instance.cc:398      1| BufferInstance::PJRT_Buffer_Destroy
2025-09-11 14:27:17.910 (  75.573s) [        166DC000]     buffer_instance.cc:398      1| BufferInstance::PJRT_Buffer_Destroy
2025-09-11 14:27:17.910 (  75.573s) [        166DC000]     buffer_instance.cc:398      1| BufferInstance::PJRT_Buffer_Destroy
2025-09-11 14:27:17.910 (  75.573s) [        166DC000]     buffer_instance.cc:398      1| BufferInstance::PJRT_Buffer_Destroy
2025-09-11 14:27:17.910 (  75.573s) [        166DC000]     buffer_instance.cc:398      1| BufferInstance::PJRT_Buffer_Destroy
2025-09-11 14:27:17.910 (  75.573s) [        166DC000]     buffer_instance.cc:398      1| BufferInstance::PJRT_Buffer_Destroy
2025-09-11 14:27:17.910 (  75.573s) [        166DC000]     buffer_instance.cc:398      1| BufferInstance::PJRT_Buffer_Destroy
2025-09-11 14:27:17.910 (  75.573s) [        166DC000]     buffer_instance.cc:398      1| BufferInstance::PJRT_Buffer_Destroy
2025-09-11 14:27:17.910 (  75.573s) [        166DC000]     buffer_instance.cc:398      1| BufferInstance::PJRT_Buffer_Destroy
2025-09-11 14:27:17.911 (  75.573s) [        166DC000]     buffer_instance.cc:398      1| BufferInstance::PJRT_Buffer_Destroy
2025-09-11 14:27:17.911 (  75.574s) [        166DC000]     buffer_instance.cc:398      1| BufferInstance::PJRT_Buffer_Destroy
2025-09-11 14:27:17.911 (  75.574s) [        166DC000]     buffer_instance.cc:398      1| BufferInstance::PJRT_Buffer_Destroy
2025-09-11 14:27:17.911 (  75.574s) [        166DC000]     buffer_instance.cc:398      1| BufferInstance::PJRT_Buffer_Destroy
2025-09-11 14:27:17.911 (  75.574s) [        166DC000]     buffer_instance.cc:398      1| BufferInstance::PJRT_Buffer_Destroy
2025-09-11 14:27:17.911 (  75.574s) [        166DC000]     buffer_instance.cc:398      1| BufferInstance::PJRT_Buffer_Destroy
2025-09-11 14:27:17.911 (  75.574s) [        166DC000]     buffer_instance.cc:398      1| BufferInstance::PJRT_Buffer_Destroy
2025-09-11 14:27:17.911 (  75.574s) [        166DC000]     buffer_instance.cc:398      1| BufferInstance::PJRT_Buffer_Destroy
2025-09-11 14:27:17.912 (  75.575s) [        166DC000]     buffer_instance.cc:398      1| BufferInstance::PJRT_Buffer_Destroy
2025-09-11 14:27:17.912 (  75.575s) [        166DC000]     buffer_instance.cc:398      1| BufferInstance::PJRT_Buffer_Destroy
2025-09-11 14:27:17.912 (  75.575s) [        166DC000]     buffer_instance.cc:398      1| BufferInstance::PJRT_Buffer_Destroy
2025-09-11 14:27:17.912 (  75.575s) [        166DC000]     buffer_instance.cc:398      1| BufferInstance::PJRT_Buffer_Destroy
2025-09-11 14:27:17.912 (  75.575s) [        166DC000]     buffer_instance.cc:398      1| BufferInstance::PJRT_Buffer_Destroy
2025-09-11 14:27:17.912 (  75.575s) [        166DC000]     buffer_instance.cc:398      1| BufferInstance::PJRT_Buffer_Destroy
2025-09-11 14:27:17.912 (  75.575s) [        166DC000]     buffer_instance.cc:398      1| BufferInstance::PJRT_Buffer_Destroy
2025-09-11 14:27:17.912 (  75.575s) [        166DC000]     buffer_instance.cc:398      1| BufferInstance::PJRT_Buffer_Destroy
2025-09-11 14:27:17.912 (  75.575s) [        166DC000]     buffer_instance.cc:398      1| BufferInstance::PJRT_Buffer_Destroy
2025-09-11 14:27:17.912 (  75.575s) [        166DC000]     buffer_instance.cc:398      1| BufferInstance::PJRT_Buffer_Destroy
2025-09-11 14:27:17.912 (  75.575s) [        166DC000]     buffer_instance.cc:398      1| BufferInstance::PJRT_Buffer_Destroy
2025-09-11 14:27:17.913 (  75.575s) [        166DC000]     buffer_instance.cc:398      1| BufferInstance::PJRT_Buffer_Destroy
2025-09-11 14:27:17.913 (  75.576s) [        166DC000]     buffer_instance.cc:398      1| BufferInstance::PJRT_Buffer_Destroy
2025-09-11 14:27:17.913 (  75.576s) [        166DC000]     buffer_instance.cc:398      1| BufferInstance::PJRT_Buffer_Destroy
2025-09-11 14:27:17.913 (  75.576s) [        166DC000]     buffer_instance.cc:398      1| BufferInstance::PJRT_Buffer_Destroy
2025-09-11 14:27:17.913 (  75.576s) [        166DC000]     buffer_instance.cc:398      1| BufferInstance::PJRT_Buffer_Destroy
2025-09-11 14:27:17.913 (  75.576s) [        166DC000]     buffer_instance.cc:398      1| BufferInstance::PJRT_Buffer_Destroy
2025-09-11 14:27:17.913 (  75.576s) [        166DC000]     buffer_instance.cc:398      1| BufferInstance::PJRT_Buffer_Destroy
2025-09-11 14:27:17.913 (  75.576s) [        166DC000]     buffer_instance.cc:398      1| BufferInstance::PJRT_Buffer_Destroy
2025-09-11 14:27:17.913 (  75.576s) [        166DC000]     buffer_instance.cc:398      1| BufferInstance::PJRT_Buffer_Destroy
2025-09-11 14:27:17.913 (  75.576s) [        166DC000]     buffer_instance.cc:398      1| BufferInstance::PJRT_Buffer_Destroy
2025-09-11 14:27:17.913 (  75.576s) [        166DC000]     buffer_instance.cc:398      1| BufferInstance::PJRT_Buffer_Destroy
2025-09-11 14:27:17.914 (  75.577s) [        166DC000]     buffer_instance.cc:398      1| BufferInstance::PJRT_Buffer_Destroy
2025-09-11 14:27:17.914 (  75.577s) [        166DC000]     buffer_instance.cc:398      1| BufferInstance::PJRT_Buffer_Destroy
2025-09-11 14:27:17.914 (  75.577s) [        166DC000]     buffer_instance.cc:398      1| BufferInstance::PJRT_Buffer_Destroy
2025-09-11 14:27:17.914 (  75.577s) [        166DC000]     buffer_instance.cc:398      1| BufferInstance::PJRT_Buffer_Destroy
2025-09-11 14:27:17.914 (  75.577s) [        166DC000]     buffer_instance.cc:398      1| BufferInstance::PJRT_Buffer_Destroy
2025-09-11 14:27:17.914 (  75.577s) [        166DC000]     buffer_instance.cc:398      1| BufferInstance::PJRT_Buffer_Destroy
2025-09-11 14:27:17.914 (  75.577s) [        166DC000]     buffer_instance.cc:398      1| BufferInstance::PJRT_Buffer_Destroy
2025-09-11 14:27:17.914 (  75.577s) [        166DC000]     buffer_instance.cc:398      1| BufferInstance::PJRT_Buffer_Destroy
2025-09-11 14:27:17.914 (  75.577s) [        166DC000]     buffer_instance.cc:398      1| BufferInstance::PJRT_Buffer_Destroy
2025-09-11 14:27:17.914 (  75.577s) [        166DC000]     buffer_instance.cc:398      1| BufferInstance::PJRT_Buffer_Destroy
2025-09-11 14:27:17.914 (  75.577s) [        166DC000]     buffer_instance.cc:398      1| BufferInstance::PJRT_Buffer_Destroy
2025-09-11 14:27:17.915 (  75.577s) [        166DC000]     buffer_instance.cc:398      1| BufferInstance::PJRT_Buffer_Destroy
2025-09-11 14:27:17.915 (  75.578s) [        166DC000]     buffer_instance.cc:398      1| BufferInstance::PJRT_Buffer_Destroy
2025-09-11 14:27:17.915 (  75.578s) [        166DC000]     buffer_instance.cc:398      1| BufferInstance::PJRT_Buffer_Destroy
2025-09-11 14:27:17.915 (  75.578s) [        166DC000]     buffer_instance.cc:398      1| BufferInstance::PJRT_Buffer_Destroy
2025-09-11 14:27:17.915 (  75.578s) [        166DC000]     buffer_instance.cc:398      1| BufferInstance::PJRT_Buffer_Destroy
2025-09-11 14:27:17.915 (  75.578s) [        166DC000]     buffer_instance.cc:398      1| BufferInstance::PJRT_Buffer_Destroy
2025-09-11 14:27:17.915 (  75.578s) [        166DC000]     buffer_instance.cc:398      1| BufferInstance::PJRT_Buffer_Destroy
2025-09-11 14:27:17.916 (  75.579s) [        166DC000]     buffer_instance.cc:398      1| BufferInstance::PJRT_Buffer_Destroy
2025-09-11 14:27:17.916 (  75.579s) [        166DC000]     buffer_instance.cc:398      1| BufferInstance::PJRT_Buffer_Destroy
2025-09-11 14:27:17.916 (  75.579s) [        166DC000]     buffer_instance.cc:398      1| BufferInstance::PJRT_Buffer_Destroy
2025-09-11 14:27:17.916 (  75.579s) [        166DC000]     buffer_instance.cc:398      1| BufferInstance::PJRT_Buffer_Destroy
2025-09-11 14:27:17.916 (  75.579s) [        166DC000]     buffer_instance.cc:398      1| BufferInstance::PJRT_Buffer_Destroy
2025-09-11 14:27:17.916 (  75.579s) [        166DC000]     buffer_instance.cc:398      1| BufferInstance::PJRT_Buffer_Destroy
2025-09-11 14:27:17.916 (  75.579s) [        166DC000]     buffer_instance.cc:398      1| BufferInstance::PJRT_Buffer_Destroy
2025-09-11 14:27:17.916 (  75.579s) [        166DC000]     buffer_instance.cc:398      1| BufferInstance::PJRT_Buffer_Destroy
2025-09-11 14:27:17.916 (  75.579s) [        166DC000]     buffer_instance.cc:398      1| BufferInstance::PJRT_Buffer_Destroy
2025-09-11 14:27:17.916 (  75.579s) [        166DC000]     buffer_instance.cc:398      1| BufferInstance::PJRT_Buffer_Destroy
2025-09-11 14:27:17.916 (  75.579s) [        166DC000]     buffer_instance.cc:398      1| BufferInstance::PJRT_Buffer_Destroy
2025-09-11 14:27:17.916 (  75.579s) [        166DC000]     buffer_instance.cc:398      1| BufferInstance::PJRT_Buffer_Destroy
2025-09-11 14:27:17.917 (  75.579s) [        166DC000]     buffer_instance.cc:398      1| BufferInstance::PJRT_Buffer_Destroy
2025-09-11 14:27:17.917 (  75.580s) [        166DC000]     buffer_instance.cc:398      1| BufferInstance::PJRT_Buffer_Destroy
2025-09-11 14:27:17.917 (  75.580s) [        166DC000]     buffer_instance.cc:398      1| BufferInstance::PJRT_Buffer_Destroy
2025-09-11 14:27:17.917 (  75.580s) [        166DC000]     buffer_instance.cc:398      1| BufferInstance::PJRT_Buffer_Destroy
2025-09-11 14:27:17.917 (  75.580s) [        166DC000]     buffer_instance.cc:398      1| BufferInstance::PJRT_Buffer_Destroy
2025-09-11 14:27:17.917 (  75.580s) [        166DC000]     buffer_instance.cc:398      1| BufferInstance::PJRT_Buffer_Destroy
2025-09-11 14:27:17.917 (  75.580s) [        166DC000]     buffer_instance.cc:398      1| BufferInstance::PJRT_Buffer_Destroy
2025-09-11 14:27:17.917 (  75.580s) [        166DC000]     buffer_instance.cc:398      1| BufferInstance::PJRT_Buffer_Destroy
2025-09-11 14:27:17.917 (  75.580s) [        166DC000]     buffer_instance.cc:398      1| BufferInstance::PJRT_Buffer_Destroy
2025-09-11 14:27:17.917 (  75.580s) [        166DC000]     buffer_instance.cc:398      1| BufferInstance::PJRT_Buffer_Destroy
2025-09-11 14:27:17.917 (  75.580s) [        166DC000]     buffer_instance.cc:398      1| BufferInstance::PJRT_Buffer_Destroy
2025-09-11 14:27:17.917 (  75.580s) [        166DC000]     buffer_instance.cc:398      1| BufferInstance::PJRT_Buffer_Destroy
2025-09-11 14:27:17.918 (  75.580s) [        166DC000]     buffer_instance.cc:398      1| BufferInstance::PJRT_Buffer_Destroy
2025-09-11 14:27:17.918 (  75.581s) [        166DC000]     buffer_instance.cc:398      1| BufferInstance::PJRT_Buffer_Destroy
2025-09-11 14:27:17.918 (  75.581s) [        166DC000]     buffer_instance.cc:398      1| BufferInstance::PJRT_Buffer_Destroy
2025-09-11 14:27:17.918 (  75.581s) [        166DC000]     buffer_instance.cc:398      1| BufferInstance::PJRT_Buffer_Destroy
2025-09-11 14:27:17.918 (  75.581s) [        166DC000]     buffer_instance.cc:398      1| BufferInstance::PJRT_Buffer_Destroy
2025-09-11 14:27:17.918 (  75.581s) [        166DC000]     buffer_instance.cc:398      1| BufferInstance::PJRT_Buffer_Destroy
2025-09-11 14:27:17.918 (  75.581s) [        166DC000]     buffer_instance.cc:398      1| BufferInstance::PJRT_Buffer_Destroy
2025-09-11 14:27:17.918 (  75.581s) [        166DC000]     buffer_instance.cc:398      1| BufferInstance::PJRT_Buffer_Destroy
2025-09-11 14:27:17.919 (  75.582s) [        166DC000]     buffer_instance.cc:398      1| BufferInstance::PJRT_Buffer_Destroy
2025-09-11 14:27:17.919 (  75.582s) [        166DC000]     buffer_instance.cc:398      1| BufferInstance::PJRT_Buffer_Destroy
2025-09-11 14:27:17.919 (  75.582s) [        166DC000]     buffer_instance.cc:398      1| BufferInstance::PJRT_Buffer_Destroy
2025-09-11 14:27:17.919 (  75.582s) [        166DC000]     buffer_instance.cc:398      1| BufferInstance::PJRT_Buffer_Destroy
2025-09-11 14:27:17.919 (  75.582s) [        166DC000]     buffer_instance.cc:398      1| BufferInstance::PJRT_Buffer_Destroy
2025-09-11 14:27:17.919 (  75.582s) [        166DC000]     buffer_instance.cc:398      1| BufferInstance::PJRT_Buffer_Destroy
2025-09-11 14:27:17.919 (  75.582s) [        166DC000]     buffer_instance.cc:398      1| BufferInstance::PJRT_Buffer_Destroy
2025-09-11 14:27:17.919 (  75.582s) [        166DC000]     buffer_instance.cc:398      1| BufferInstance::PJRT_Buffer_Destroy
2025-09-11 14:27:17.919 (  75.582s) [        166DC000]     buffer_instance.cc:398      1| BufferInstance::PJRT_Buffer_Destroy
2025-09-11 14:27:17.919 (  75.582s) [        166DC000]     buffer_instance.cc:398      1| BufferInstance::PJRT_Buffer_Destroy
2025-09-11 14:27:17.919 (  75.582s) [        166DC000]     buffer_instance.cc:398      1| BufferInstance::PJRT_Buffer_Destroy
2025-09-11 14:27:17.919 (  75.582s) [        166DC000]     buffer_instance.cc:398      1| BufferInstance::PJRT_Buffer_Destroy
2025-09-11 14:27:17.920 (  75.583s) [        166DC000]     buffer_instance.cc:398      1| BufferInstance::PJRT_Buffer_Destroy
2025-09-11 14:27:17.920 (  75.583s) [        166DC000]     buffer_instance.cc:398      1| BufferInstance::PJRT_Buffer_Destroy
2025-09-11 14:27:17.920 (  75.583s) [        166DC000]     buffer_instance.cc:398      1| BufferInstance::PJRT_Buffer_Destroy
2025-09-11 14:27:17.920 (  75.583s) [        166DC000]     buffer_instance.cc:398      1| BufferInstance::PJRT_Buffer_Destroy
2025-09-11 14:27:17.920 (  75.583s) [        166DC000]     buffer_instance.cc:398      1| BufferInstance::PJRT_Buffer_Destroy
2025-09-11 14:27:17.920 (  75.583s) [        166DC000]     buffer_instance.cc:398      1| BufferInstance::PJRT_Buffer_Destroy
2025-09-11 14:27:17.920 (  75.583s) [        166DC000]     buffer_instance.cc:398      1| BufferInstance::PJRT_Buffer_Destroy
2025-09-11 14:27:17.920 (  75.583s) [        166DC000]     buffer_instance.cc:398      1| BufferInstance::PJRT_Buffer_Destroy
2025-09-11 14:27:17.920 (  75.583s) [        166DC000]     buffer_instance.cc:398      1| BufferInstance::PJRT_Buffer_Destroy
2025-09-11 14:27:17.920 (  75.583s) [        166DC000]     buffer_instance.cc:398      1| BufferInstance::PJRT_Buffer_Destroy
2025-09-11 14:27:17.921 (  75.583s) [        166DC000]     buffer_instance.cc:398      1| BufferInstance::PJRT_Buffer_Destroy
2025-09-11 14:27:17.921 (  75.584s) [        166DC000]     buffer_instance.cc:398      1| BufferInstance::PJRT_Buffer_Destroy
2025-09-11 14:27:17.921 (  75.584s) [        166DC000]     buffer_instance.cc:398      1| BufferInstance::PJRT_Buffer_Destroy
2025-09-11 14:27:17.921 (  75.584s) [        166DC000]     buffer_instance.cc:398      1| BufferInstance::PJRT_Buffer_Destroy
2025-09-11 14:27:17.921 (  75.584s) [        166DC000]     buffer_instance.cc:398      1| BufferInstance::PJRT_Buffer_Destroy
2025-09-11 14:27:17.921 (  75.584s) [        166DC000]     buffer_instance.cc:398      1| BufferInstance::PJRT_Buffer_Destroy
2025-09-11 14:27:17.921 (  75.584s) [        166DC000]     buffer_instance.cc:398      1| BufferInstance::PJRT_Buffer_Destroy
2025-09-11 14:27:17.921 (  75.584s) [        166DC000]     buffer_instance.cc:398      1| BufferInstance::PJRT_Buffer_Destroy
2025-09-11 14:27:17.921 (  75.584s) [        166DC000]     buffer_instance.cc:398      1| BufferInstance::PJRT_Buffer_Destroy
2025-09-11 14:27:17.921 (  75.584s) [        166DC000]     buffer_instance.cc:398      1| BufferInstance::PJRT_Buffer_Destroy
2025-09-11 14:27:17.921 (  75.584s) [        166DC000]     buffer_instance.cc:398      1| BufferInstance::PJRT_Buffer_Destroy
2025-09-11 14:27:17.922 (  75.584s) [        166DC000]     buffer_instance.cc:398      1| BufferInstance::PJRT_Buffer_Destroy
2025-09-11 14:27:17.922 (  75.585s) [        166DC000]     buffer_instance.cc:398      1| BufferInstance::PJRT_Buffer_Destroy
2025-09-11 14:27:17.922 (  75.585s) [        166DC000]     buffer_instance.cc:398      1| BufferInstance::PJRT_Buffer_Destroy
2025-09-11 14:27:17.922 (  75.585s) [        166DC000]     buffer_instance.cc:398      1| BufferInstance::PJRT_Buffer_Destroy
2025-09-11 14:27:17.922 (  75.585s) [        166DC000]     buffer_instance.cc:398      1| BufferInstance::PJRT_Buffer_Destroy
2025-09-11 14:27:17.922 (  75.585s) [        166DC000]     buffer_instance.cc:398      1| BufferInstance::PJRT_Buffer_Destroy
2025-09-11 14:27:17.922 (  75.585s) [        166DC000]     buffer_instance.cc:398      1| BufferInstance::PJRT_Buffer_Destroy
2025-09-11 14:27:17.922 (  75.585s) [        166DC000]     buffer_instance.cc:398      1| BufferInstance::PJRT_Buffer_Destroy
2025-09-11 14:27:17.922 (  75.585s) [        166DC000]     buffer_instance.cc:398      1| BufferInstance::PJRT_Buffer_Destroy
2025-09-11 14:27:17.922 (  75.585s) [        166DC000]     buffer_instance.cc:398      1| BufferInstance::PJRT_Buffer_Destroy
2025-09-11 14:27:17.922 (  75.585s) [        166DC000]     buffer_instance.cc:398      1| BufferInstance::PJRT_Buffer_Destroy
2025-09-11 14:27:17.923 (  75.585s) [        166DC000]     buffer_instance.cc:398      1| BufferInstance::PJRT_Buffer_Destroy
2025-09-11 14:27:17.923 (  75.586s) [        166DC000]     buffer_instance.cc:398      1| BufferInstance::PJRT_Buffer_Destroy
2025-09-11 14:27:17.923 (  75.586s) [        166DC000]     buffer_instance.cc:398      1| BufferInstance::PJRT_Buffer_Destroy
2025-09-11 14:27:17.923 (  75.586s) [        166DC000]     buffer_instance.cc:398      1| BufferInstance::PJRT_Buffer_Destroy
2025-09-11 14:27:17.923 (  75.586s) [        166DC000]     buffer_instance.cc:398      1| BufferInstance::PJRT_Buffer_Destroy
2025-09-11 14:27:17.923 (  75.586s) [        166DC000]     buffer_instance.cc:398      1| BufferInstance::PJRT_Buffer_Destroy
2025-09-11 14:27:17.923 (  75.586s) [        166DC000]     buffer_instance.cc:398      1| BufferInstance::PJRT_Buffer_Destroy
2025-09-11 14:27:17.923 (  75.586s) [        166DC000]     buffer_instance.cc:398      1| BufferInstance::PJRT_Buffer_Destroy
2025-09-11 14:27:17.923 (  75.586s) [        166DC000]     buffer_instance.cc:398      1| BufferInstance::PJRT_Buffer_Destroy
2025-09-11 14:27:17.924 (  75.586s) [        166DC000]     buffer_instance.cc:398      1| BufferInstance::PJRT_Buffer_Destroy
2025-09-11 14:27:17.924 (  75.587s) [        166DC000]     buffer_instance.cc:398      1| BufferInstance::PJRT_Buffer_Destroy
2025-09-11 14:27:17.924 (  75.587s) [        166DC000]     buffer_instance.cc:398      1| BufferInstance::PJRT_Buffer_Destroy
2025-09-11 14:27:17.924 (  75.587s) [        166DC000]     buffer_instance.cc:398      1| BufferInstance::PJRT_Buffer_Destroy
2025-09-11 14:27:17.924 (  75.587s) [        166DC000]     buffer_instance.cc:398      1| BufferInstance::PJRT_Buffer_Destroy
2025-09-11 14:27:17.924 (  75.587s) [        166DC000]     buffer_instance.cc:398      1| BufferInstance::PJRT_Buffer_Destroy
2025-09-11 14:27:17.924 (  75.587s) [        166DC000]     buffer_instance.cc:398      1| BufferInstance::PJRT_Buffer_Destroy
2025-09-11 14:27:17.924 (  75.587s) [        166DC000]     buffer_instance.cc:398      1| BufferInstance::PJRT_Buffer_Destroy
2025-09-11 14:27:17.924 (  75.587s) [        166DC000]     buffer_instance.cc:398      1| BufferInstance::PJRT_Buffer_Destroy
2025-09-11 14:27:17.924 (  75.587s) [        166DC000]     buffer_instance.cc:398      1| BufferInstance::PJRT_Buffer_Destroy
2025-09-11 14:27:17.924 (  75.587s) [        166DC000]     buffer_instance.cc:398      1| BufferInstance::PJRT_Buffer_Destroy
2025-09-11 14:27:17.924 (  75.587s) [        166DC000]     buffer_instance.cc:398      1| BufferInstance::PJRT_Buffer_Destroy
2025-09-11 14:27:17.925 (  75.587s) [        166DC000]     buffer_instance.cc:398      1| BufferInstance::PJRT_Buffer_Destroy
2025-09-11 14:27:17.925 (  75.588s) [        166DC000]     buffer_instance.cc:398      1| BufferInstance::PJRT_Buffer_Destroy
2025-09-11 14:27:17.925 (  75.588s) [        166DC000]     buffer_instance.cc:398      1| BufferInstance::PJRT_Buffer_Destroy
2025-09-11 14:27:17.925 (  75.588s) [        166DC000]     buffer_instance.cc:398      1| BufferInstance::PJRT_Buffer_Destroy
2025-09-11 14:27:17.925 (  75.588s) [        166DC000]     buffer_instance.cc:398      1| BufferInstance::PJRT_Buffer_Destroy
2025-09-11 14:27:17.925 (  75.588s) [        166DC000]     buffer_instance.cc:398      1| BufferInstance::PJRT_Buffer_Destroy
2025-09-11 14:27:17.925 (  75.588s) [        166DC000]     buffer_instance.cc:398      1| BufferInstance::PJRT_Buffer_Destroy
2025-09-11 14:27:17.925 (  75.588s) [        166DC000]     buffer_instance.cc:398      1| BufferInstance::PJRT_Buffer_Destroy
2025-09-11 14:27:17.925 (  75.588s) [        166DC000]     buffer_instance.cc:398      1| BufferInstance::PJRT_Buffer_Destroy
2025-09-11 14:27:17.925 (  75.588s) [        166DC000]     buffer_instance.cc:398      1| BufferInstance::PJRT_Buffer_Destroy
2025-09-11 14:27:17.926 (  75.588s) [        166DC000]     buffer_instance.cc:398      1| BufferInstance::PJRT_Buffer_Destroy
2025-09-11 14:27:17.926 (  75.588s) [        166DC000]     buffer_instance.cc:398      1| BufferInstance::PJRT_Buffer_Destroy
2025-09-11 14:27:17.926 (  75.589s) [        166DC000]     buffer_instance.cc:398      1| BufferInstance::PJRT_Buffer_Destroy
2025-09-11 14:27:17.926 (  75.589s) [        166DC000]     buffer_instance.cc:398      1| BufferInstance::PJRT_Buffer_Destroy
2025-09-11 14:27:17.926 (  75.589s) [        166DC000]     buffer_instance.cc:398      1| BufferInstance::PJRT_Buffer_Destroy
2025-09-11 14:27:17.926 (  75.589s) [        166DC000]     buffer_instance.cc:398      1| BufferInstance::PJRT_Buffer_Destroy
2025-09-11 14:27:17.926 (  75.589s) [        166DC000]     buffer_instance.cc:398      1| BufferInstance::PJRT_Buffer_Destroy
2025-09-11 14:27:17.926 (  75.589s) [        166DC000]     buffer_instance.cc:398      1| BufferInstance::PJRT_Buffer_Destroy
2025-09-11 14:27:17.926 (  75.589s) [        166DC000]     buffer_instance.cc:398      1| BufferInstance::PJRT_Buffer_Destroy
2025-09-11 14:27:17.926 (  75.589s) [        166DC000]     buffer_instance.cc:398      1| BufferInstance::PJRT_Buffer_Destroy
2025-09-11 14:27:17.926 (  75.589s) [        166DC000]     buffer_instance.cc:398      1| BufferInstance::PJRT_Buffer_Destroy
2025-09-11 14:27:17.927 (  75.590s) [        166DC000]     buffer_instance.cc:398      1| BufferInstance::PJRT_Buffer_Destroy
2025-09-11 14:27:17.927 (  75.590s) [        166DC000]     buffer_instance.cc:398      1| BufferInstance::PJRT_Buffer_Destroy
2025-09-11 14:27:17.927 (  75.590s) [        166DC000]     buffer_instance.cc:398      1| BufferInstance::PJRT_Buffer_Destroy
2025-09-11 14:27:17.927 (  75.590s) [        166DC000]     buffer_instance.cc:398      1| BufferInstance::PJRT_Buffer_Destroy
2025-09-11 14:27:17.927 (  75.590s) [        166DC000]     buffer_instance.cc:398      1| BufferInstance::PJRT_Buffer_Destroy
2025-09-11 14:27:17.927 (  75.590s) [        166DC000]     buffer_instance.cc:398      1| BufferInstance::PJRT_Buffer_Destroy
2025-09-11 14:27:17.927 (  75.590s) [        166DC000]     buffer_instance.cc:398      1| BufferInstance::PJRT_Buffer_Destroy
2025-09-11 14:27:17.927 (  75.590s) [        166DC000]     buffer_instance.cc:398      1| BufferInstance::PJRT_Buffer_Destroy
2025-09-11 14:27:17.927 (  75.590s) [        166DC000]     buffer_instance.cc:398      1| BufferInstance::PJRT_Buffer_Destroy
2025-09-11 14:27:17.927 (  75.590s) [        166DC000]     buffer_instance.cc:398      1| BufferInstance::PJRT_Buffer_Destroy
2025-09-11 14:27:17.928 (  75.590s) [        166DC000]     buffer_instance.cc:398      1| BufferInstance::PJRT_Buffer_Destroy
2025-09-11 14:27:17.928 (  75.591s) [        166DC000]     buffer_instance.cc:398      1| BufferInstance::PJRT_Buffer_Destroy
2025-09-11 14:27:17.928 (  75.591s) [        166DC000]     buffer_instance.cc:398      1| BufferInstance::PJRT_Buffer_Destroy
2025-09-11 14:27:17.928 (  75.591s) [        166DC000]     buffer_instance.cc:398      1| BufferInstance::PJRT_Buffer_Destroy
2025-09-11 14:27:17.928 (  75.591s) [        166DC000]     buffer_instance.cc:398      1| BufferInstance::PJRT_Buffer_Destroy
2025-09-11 14:27:17.928 (  75.591s) [        166DC000]     buffer_instance.cc:398      1| BufferInstance::PJRT_Buffer_Destroy
2025-09-11 14:27:17.928 (  75.591s) [        166DC000]     buffer_instance.cc:398      1| BufferInstance::PJRT_Buffer_Destroy
2025-09-11 14:27:17.928 (  75.591s) [        166DC000]     buffer_instance.cc:398      1| BufferInstance::PJRT_Buffer_Destroy
2025-09-11 14:27:17.928 (  75.591s) [        166DC000]     buffer_instance.cc:398      1| BufferInstance::PJRT_Buffer_Destroy
2025-09-11 14:27:17.928 (  75.591s) [        166DC000]     buffer_instance.cc:398      1| BufferInstance::PJRT_Buffer_Destroy
2025-09-11 14:27:17.928 (  75.591s) [        166DC000]     buffer_instance.cc:398      1| BufferInstance::PJRT_Buffer_Destroy
2025-09-11 14:27:17.928 (  75.591s) [        166DC000]     buffer_instance.cc:398      1| BufferInstance::PJRT_Buffer_Destroy
2025-09-11 14:27:17.929 (  75.591s) [        166DC000]     buffer_instance.cc:398      1| BufferInstance::PJRT_Buffer_Destroy
2025-09-11 14:27:17.929 (  75.592s) [        166DC000]     buffer_instance.cc:398      1| BufferInstance::PJRT_Buffer_Destroy
2025-09-11 14:27:17.929 (  75.592s) [        166DC000]     buffer_instance.cc:398      1| BufferInstance::PJRT_Buffer_Destroy
2025-09-11 14:27:17.929 (  75.592s) [        166DC000]     buffer_instance.cc:398      1| BufferInstance::PJRT_Buffer_Destroy
2025-09-11 14:27:17.929 (  75.592s) [        166DC000]     buffer_instance.cc:398      1| BufferInstance::PJRT_Buffer_Destroy
2025-09-11 14:27:17.929 (  75.592s) [        166DC000]     buffer_instance.cc:398      1| BufferInstance::PJRT_Buffer_Destroy
2025-09-11 14:27:17.929 (  75.592s) [        166DC000]     buffer_instance.cc:398      1| BufferInstance::PJRT_Buffer_Destroy
2025-09-11 14:27:17.929 (  75.592s) [        166DC000]     buffer_instance.cc:398      1| BufferInstance::PJRT_Buffer_Destroy
2025-09-11 14:27:17.929 (  75.592s) [        166DC000]     buffer_instance.cc:398      1| BufferInstance::PJRT_Buffer_Destroy
2025-09-11 14:27:17.930 (  75.592s) [        166DC000]     buffer_instance.cc:398      1| BufferInstance::PJRT_Buffer_Destroy
2025-09-11 14:27:17.930 (  75.593s) [        166DC000]     buffer_instance.cc:398      1| BufferInstance::PJRT_Buffer_Destroy
2025-09-11 14:27:17.930 (  75.593s) [        166DC000]     buffer_instance.cc:398      1| BufferInstance::PJRT_Buffer_Destroy
2025-09-11 14:27:17.930 (  75.593s) [        166DC000]     buffer_instance.cc:398      1| BufferInstance::PJRT_Buffer_Destroy
2025-09-11 14:27:17.930 (  75.593s) [        166DC000]     buffer_instance.cc:398      1| BufferInstance::PJRT_Buffer_Destroy
2025-09-11 14:27:17.930 (  75.593s) [        166DC000]     buffer_instance.cc:398      1| BufferInstance::PJRT_Buffer_Destroy
2025-09-11 14:27:17.930 (  75.593s) [        166DC000]     buffer_instance.cc:398      1| BufferInstance::PJRT_Buffer_Destroy
2025-09-11 14:27:17.930 (  75.593s) [        166DC000]     buffer_instance.cc:398      1| BufferInstance::PJRT_Buffer_Destroy
2025-09-11 14:27:17.930 (  75.593s) [        166DC000]     buffer_instance.cc:398      1| BufferInstance::PJRT_Buffer_Destroy
2025-09-11 14:27:17.930 (  75.593s) [        166DC000]     buffer_instance.cc:398      1| BufferInstance::PJRT_Buffer_Destroy
2025-09-11 14:27:17.931 (  75.593s) [        166DC000]     buffer_instance.cc:398      1| BufferInstance::PJRT_Buffer_Destroy
2025-09-11 14:27:17.931 (  75.594s) [        166DC000]     buffer_instance.cc:398      1| BufferInstance::PJRT_Buffer_Destroy
2025-09-11 14:27:17.931 (  75.594s) [        166DC000]     buffer_instance.cc:398      1| BufferInstance::PJRT_Buffer_Destroy
2025-09-11 14:27:17.931 (  75.594s) [        166DC000]     buffer_instance.cc:398      1| BufferInstance::PJRT_Buffer_Destroy
2025-09-11 14:27:17.931 (  75.594s) [        166DC000]     buffer_instance.cc:398      1| BufferInstance::PJRT_Buffer_Destroy
2025-09-11 14:27:17.931 (  75.594s) [        166DC000]     buffer_instance.cc:398      1| BufferInstance::PJRT_Buffer_Destroy
2025-09-11 14:27:17.931 (  75.594s) [        166DC000]     buffer_instance.cc:398      1| BufferInstance::PJRT_Buffer_Destroy
2025-09-11 14:27:17.931 (  75.594s) [        166DC000]     buffer_instance.cc:398      1| BufferInstance::PJRT_Buffer_Destroy
2025-09-11 14:27:17.931 (  75.594s) [        166DC000]     buffer_instance.cc:398      1| BufferInstance::PJRT_Buffer_Destroy
2025-09-11 14:27:17.931 (  75.594s) [        166DC000]     buffer_instance.cc:398      1| BufferInstance::PJRT_Buffer_Destroy
2025-09-11 14:27:17.931 (  75.594s) [        166DC000]     buffer_instance.cc:398      1| BufferInstance::PJRT_Buffer_Destroy
2025-09-11 14:27:17.932 (  75.595s) [        166DC000]     buffer_instance.cc:398      1| BufferInstance::PJRT_Buffer_Destroy
2025-09-11 14:27:17.932 (  75.595s) [        166DC000]     buffer_instance.cc:398      1| BufferInstance::PJRT_Buffer_Destroy
2025-09-11 14:27:17.932 (  75.595s) [        166DC000]     buffer_instance.cc:398      1| BufferInstance::PJRT_Buffer_Destroy
2025-09-11 14:27:17.932 (  75.595s) [        166DC000]     buffer_instance.cc:398      1| BufferInstance::PJRT_Buffer_Destroy
2025-09-11 14:27:17.932 (  75.595s) [        166DC000]     buffer_instance.cc:398      1| BufferInstance::PJRT_Buffer_Destroy
2025-09-11 14:27:17.932 (  75.595s) [        166DC000]     buffer_instance.cc:398      1| BufferInstance::PJRT_Buffer_Destroy
2025-09-11 14:27:17.932 (  75.595s) [        166DC000]     buffer_instance.cc:398      1| BufferInstance::PJRT_Buffer_Destroy
2025-09-11 14:27:17.932 (  75.595s) [        166DC000]     buffer_instance.cc:398      1| BufferInstance::PJRT_Buffer_Destroy
2025-09-11 14:27:17.932 (  75.595s) [        166DC000]     buffer_instance.cc:398      1| BufferInstance::PJRT_Buffer_Destroy
2025-09-11 14:27:17.932 (  75.595s) [        166DC000]     buffer_instance.cc:398      1| BufferInstance::PJRT_Buffer_Destroy
2025-09-11 14:27:17.932 (  75.595s) [        166DC000]     buffer_instance.cc:398      1| BufferInstance::PJRT_Buffer_Destroy
2025-09-11 14:27:17.933 (  75.595s) [        166DC000]     buffer_instance.cc:398      1| BufferInstance::PJRT_Buffer_Destroy
2025-09-11 14:27:17.933 (  75.596s) [        166DC000]     buffer_instance.cc:398      1| BufferInstance::PJRT_Buffer_Destroy
2025-09-11 14:27:17.933 (  75.596s) [        166DC000]     buffer_instance.cc:398      1| BufferInstance::PJRT_Buffer_Destroy
2025-09-11 14:27:17.933 (  75.596s) [        166DC000]     buffer_instance.cc:398      1| BufferInstance::PJRT_Buffer_Destroy
2025-09-11 14:27:17.933 (  75.596s) [        166DC000]     buffer_instance.cc:398      1| BufferInstance::PJRT_Buffer_Destroy
2025-09-11 14:27:17.933 (  75.596s) [        166DC000]     buffer_instance.cc:398      1| BufferInstance::PJRT_Buffer_Destroy
2025-09-11 14:27:17.933 (  75.596s) [        166DC000]     buffer_instance.cc:398      1| BufferInstance::PJRT_Buffer_Destroy
2025-09-11 14:27:17.933 (  75.596s) [        166DC000]     buffer_instance.cc:398      1| BufferInstance::PJRT_Buffer_Destroy
2025-09-11 14:27:17.933 (  75.596s) [        166DC000]     buffer_instance.cc:398      1| BufferInstance::PJRT_Buffer_Destroy
2025-09-11 14:27:17.933 (  75.596s) [        166DC000]     buffer_instance.cc:398      1| BufferInstance::PJRT_Buffer_Destroy
2025-09-11 14:27:17.934 (  75.597s) [        166DC000]     buffer_instance.cc:398      1| BufferInstance::PJRT_Buffer_Destroy
2025-09-11 14:27:17.934 (  75.597s) [        166DC000]     buffer_instance.cc:398      1| BufferInstance::PJRT_Buffer_Destroy
2025-09-11 14:27:17.934 (  75.597s) [        166DC000]     buffer_instance.cc:398      1| BufferInstance::PJRT_Buffer_Destroy
2025-09-11 14:27:17.934 (  75.597s) [        166DC000]     buffer_instance.cc:398      1| BufferInstance::PJRT_Buffer_Destroy
2025-09-11 14:27:17.934 (  75.597s) [        166DC000]     buffer_instance.cc:398      1| BufferInstance::PJRT_Buffer_Destroy
2025-09-11 14:27:17.934 (  75.597s) [        166DC000]     buffer_instance.cc:398      1| BufferInstance::PJRT_Buffer_Destroy
2025-09-11 14:27:17.934 (  75.597s) [        166DC000]     buffer_instance.cc:398      1| BufferInstance::PJRT_Buffer_Destroy
2025-09-11 14:27:17.934 (  75.597s) [        166DC000]     buffer_instance.cc:398      1| BufferInstance::PJRT_Buffer_Destroy
2025-09-11 14:27:17.934 (  75.597s) [        166DC000]     buffer_instance.cc:398      1| BufferInstance::PJRT_Buffer_Destroy
2025-09-11 14:27:17.935 (  75.597s) [        166DC000]     buffer_instance.cc:398      1| BufferInstance::PJRT_Buffer_Destroy
2025-09-11 14:27:17.935 (  75.598s) [        166DC000]     buffer_instance.cc:398      1| BufferInstance::PJRT_Buffer_Destroy
2025-09-11 14:27:17.935 (  75.598s) [        166DC000]     buffer_instance.cc:398      1| BufferInstance::PJRT_Buffer_Destroy
2025-09-11 14:27:17.935 (  75.598s) [        166DC000]     buffer_instance.cc:398      1| BufferInstance::PJRT_Buffer_Destroy
2025-09-11 14:27:17.935 (  75.598s) [        166DC000]     buffer_instance.cc:398      1| BufferInstance::PJRT_Buffer_Destroy
2025-09-11 14:27:17.935 (  75.598s) [        166DC000]     buffer_instance.cc:398      1| BufferInstance::PJRT_Buffer_Destroy
2025-09-11 14:27:17.935 (  75.598s) [        166DC000]     buffer_instance.cc:398      1| BufferInstance::PJRT_Buffer_Destroy
2025-09-11 14:27:17.935 (  75.598s) [        166DC000]     buffer_instance.cc:398      1| BufferInstance::PJRT_Buffer_Destroy
2025-09-11 14:27:17.935 (  75.598s) [        166DC000]     buffer_instance.cc:398      1| BufferInstance::PJRT_Buffer_Destroy
2025-09-11 14:27:17.935 (  75.598s) [        166DC000]     buffer_instance.cc:398      1| BufferInstance::PJRT_Buffer_Destroy
2025-09-11 14:27:17.935 (  75.598s) [        166DC000]     buffer_instance.cc:398      1| BufferInstance::PJRT_Buffer_Destroy
2025-09-11 14:27:17.935 (  75.598s) [        166DC000]     buffer_instance.cc:398      1| BufferInstance::PJRT_Buffer_Destroy
2025-09-11 14:27:17.936 (  75.599s) [        166DC000]     buffer_instance.cc:398      1| BufferInstance::PJRT_Buffer_Destroy
2025-09-11 14:27:17.936 (  75.599s) [        166DC000]     buffer_instance.cc:398      1| BufferInstance::PJRT_Buffer_Destroy
2025-09-11 14:27:17.936 (  75.599s) [        166DC000]     buffer_instance.cc:398      1| BufferInstance::PJRT_Buffer_Destroy
2025-09-11 14:27:17.936 (  75.599s) [        166DC000]     buffer_instance.cc:398      1| BufferInstance::PJRT_Buffer_Destroy
2025-09-11 14:27:17.936 (  75.599s) [        166DC000]     buffer_instance.cc:398      1| BufferInstance::PJRT_Buffer_Destroy
2025-09-11 14:27:17.936 (  75.599s) [        166DC000]     buffer_instance.cc:398      1| BufferInstance::PJRT_Buffer_Destroy
2025-09-11 14:27:17.937 (  75.599s) [        166DC000]     buffer_instance.cc:398      1| BufferInstance::PJRT_Buffer_Destroy
2025-09-11 14:27:17.937 (  75.599s) [        166DC000]     buffer_instance.cc:398      1| BufferInstance::PJRT_Buffer_Destroy
2025-09-11 14:27:17.937 (  75.600s) [        166DC000]     buffer_instance.cc:398      1| BufferInstance::PJRT_Buffer_Destroy
2025-09-11 14:27:17.937 (  75.600s) [        166DC000]     buffer_instance.cc:398      1| BufferInstance::PJRT_Buffer_Destroy
2025-09-11 14:27:17.937 (  75.600s) [        166DC000]     buffer_instance.cc:398      1| BufferInstance::PJRT_Buffer_Destroy
2025-09-11 14:27:17.937 (  75.600s) [        166DC000]     buffer_instance.cc:398      1| BufferInstance::PJRT_Buffer_Destroy
2025-09-11 14:27:17.937 (  75.600s) [        166DC000]     buffer_instance.cc:398      1| BufferInstance::PJRT_Buffer_Destroy
2025-09-11 14:27:17.937 (  75.600s) [        166DC000]     buffer_instance.cc:398      1| BufferInstance::PJRT_Buffer_Destroy
2025-09-11 14:27:17.937 (  75.600s) [        166DC000]     buffer_instance.cc:398      1| BufferInstance::PJRT_Buffer_Destroy
2025-09-11 14:27:17.938 (  75.600s) [        166DC000]     buffer_instance.cc:398      1| BufferInstance::PJRT_Buffer_Destroy
2025-09-11 14:27:17.938 (  75.601s) [        166DC000]     buffer_instance.cc:398      1| BufferInstance::PJRT_Buffer_Destroy
2025-09-11 14:27:17.938 (  75.601s) [        166DC000]     buffer_instance.cc:398      1| BufferInstance::PJRT_Buffer_Destroy
2025-09-11 14:27:17.938 (  75.601s) [        166DC000]     buffer_instance.cc:398      1| BufferInstance::PJRT_Buffer_Destroy
2025-09-11 14:27:17.938 (  75.601s) [        166DC000]     buffer_instance.cc:398      1| BufferInstance::PJRT_Buffer_Destroy
2025-09-11 14:27:17.938 (  75.601s) [        166DC000]     buffer_instance.cc:398      1| BufferInstance::PJRT_Buffer_Destroy
2025-09-11 14:27:17.938 (  75.601s) [        166DC000]     buffer_instance.cc:398      1| BufferInstance::PJRT_Buffer_Destroy
2025-09-11 14:27:17.938 (  75.601s) [        166DC000]     buffer_instance.cc:398      1| BufferInstance::PJRT_Buffer_Destroy
2025-09-11 14:27:17.938 (  75.601s) [        166DC000]     buffer_instance.cc:398      1| BufferInstance::PJRT_Buffer_Destroy
2025-09-11 14:27:17.938 (  75.601s) [        166DC000]     buffer_instance.cc:398      1| BufferInstance::PJRT_Buffer_Destroy
2025-09-11 14:27:17.939 (  75.601s) [        166DC000]     buffer_instance.cc:398      1| BufferInstance::PJRT_Buffer_Destroy
2025-09-11 14:27:17.939 (  75.602s) [        166DC000]     buffer_instance.cc:398      1| BufferInstance::PJRT_Buffer_Destroy
2025-09-11 14:27:17.939 (  75.602s) [        166DC000]     buffer_instance.cc:398      1| BufferInstance::PJRT_Buffer_Destroy
2025-09-11 14:27:17.939 (  75.602s) [        166DC000]     buffer_instance.cc:398      1| BufferInstance::PJRT_Buffer_Destroy
2025-09-11 14:27:17.939 (  75.602s) [        166DC000]     buffer_instance.cc:398      1| BufferInstance::PJRT_Buffer_Destroy
2025-09-11 14:27:17.939 (  75.602s) [        166DC000]     buffer_instance.cc:398      1| BufferInstance::PJRT_Buffer_Destroy
2025-09-11 14:27:17.939 (  75.602s) [        166DC000]     buffer_instance.cc:398      1| BufferInstance::PJRT_Buffer_Destroy
2025-09-11 14:27:17.939 (  75.602s) [        166DC000]     buffer_instance.cc:398      1| BufferInstance::PJRT_Buffer_Destroy
2025-09-11 14:27:17.939 (  75.602s) [        166DC000]     buffer_instance.cc:398      1| BufferInstance::PJRT_Buffer_Destroy
2025-09-11 14:27:17.940 (  75.603s) [        166DC000]     buffer_instance.cc:398      1| BufferInstance::PJRT_Buffer_Destroy
2025-09-11 14:27:17.940 (  75.603s) [        166DC000]     buffer_instance.cc:398      1| BufferInstance::PJRT_Buffer_Destroy
2025-09-11 14:27:17.940 (  75.603s) [        166DC000]     buffer_instance.cc:398      1| BufferInstance::PJRT_Buffer_Destroy
2025-09-11 14:27:17.940 (  75.603s) [        166DC000]     buffer_instance.cc:398      1| BufferInstance::PJRT_Buffer_Destroy
2025-09-11 14:27:17.940 (  75.603s) [        166DC000]     buffer_instance.cc:398      1| BufferInstance::PJRT_Buffer_Destroy
2025-09-11 14:27:17.940 (  75.603s) [        166DC000]     buffer_instance.cc:398      1| BufferInstance::PJRT_Buffer_Destroy
2025-09-11 14:27:17.940 (  75.603s) [        166DC000]     buffer_instance.cc:398      1| BufferInstance::PJRT_Buffer_Destroy
2025-09-11 14:27:17.940 (  75.603s) [        166DC000]     buffer_instance.cc:398      1| BufferInstance::PJRT_Buffer_Destroy
2025-09-11 14:27:17.940 (  75.603s) [        166DC000]     buffer_instance.cc:398      1| BufferInstance::PJRT_Buffer_Destroy
2025-09-11 14:27:17.941 (  75.603s) [        166DC000]     buffer_instance.cc:398      1| BufferInstance::PJRT_Buffer_Destroy
2025-09-11 14:27:17.941 (  75.604s) [        166DC000]     buffer_instance.cc:398      1| BufferInstance::PJRT_Buffer_Destroy
2025-09-11 14:27:17.941 (  75.604s) [        166DC000]     buffer_instance.cc:398      1| BufferInstance::PJRT_Buffer_Destroy
2025-09-11 14:27:17.941 (  75.604s) [        166DC000]     buffer_instance.cc:398      1| BufferInstance::PJRT_Buffer_Destroy
2025-09-11 14:27:17.941 (  75.604s) [        166DC000]     buffer_instance.cc:398      1| BufferInstance::PJRT_Buffer_Destroy
2025-09-11 14:27:17.941 (  75.604s) [        166DC000]     buffer_instance.cc:398      1| BufferInstance::PJRT_Buffer_Destroy
2025-09-11 14:27:17.941 (  75.604s) [        166DC000]     buffer_instance.cc:398      1| BufferInstance::PJRT_Buffer_Destroy
2025-09-11 14:27:17.941 (  75.604s) [        166DC000]     buffer_instance.cc:398      1| BufferInstance::PJRT_Buffer_Destroy
2025-09-11 14:27:17.941 (  75.604s) [        166DC000]     buffer_instance.cc:398      1| BufferInstance::PJRT_Buffer_Destroy
2025-09-11 14:27:17.941 (  75.604s) [        166DC000]     buffer_instance.cc:398      1| BufferInstance::PJRT_Buffer_Destroy
2025-09-11 14:27:17.942 (  75.604s) [        166DC000]     buffer_instance.cc:398      1| BufferInstance::PJRT_Buffer_Destroy
2025-09-11 14:27:17.942 (  75.605s) [        166DC000]     buffer_instance.cc:398      1| BufferInstance::PJRT_Buffer_Destroy
2025-09-11 14:27:17.942 (  75.605s) [        166DC000]     buffer_instance.cc:398      1| BufferInstance::PJRT_Buffer_Destroy
2025-09-11 14:27:17.942 (  75.605s) [        166DC000]     buffer_instance.cc:398      1| BufferInstance::PJRT_Buffer_Destroy
2025-09-11 14:27:17.942 (  75.605s) [        166DC000]     buffer_instance.cc:398      1| BufferInstance::PJRT_Buffer_Destroy
2025-09-11 14:27:17.942 (  75.605s) [        166DC000]     buffer_instance.cc:398      1| BufferInstance::PJRT_Buffer_Destroy
2025-09-11 14:27:17.942 (  75.605s) [        166DC000]     buffer_instance.cc:398      1| BufferInstance::PJRT_Buffer_Destroy
2025-09-11 14:27:17.942 (  75.605s) [        166DC000]     buffer_instance.cc:398      1| BufferInstance::PJRT_Buffer_Destroy
2025-09-11 14:27:17.942 (  75.605s) [        166DC000]     buffer_instance.cc:398      1| BufferInstance::PJRT_Buffer_Destroy
2025-09-11 14:27:17.942 (  75.605s) [        166DC000]     buffer_instance.cc:398      1| BufferInstance::PJRT_Buffer_Destroy
2025-09-11 14:27:17.943 (  75.605s) [        166DC000]     buffer_instance.cc:398      1| BufferInstance::PJRT_Buffer_Destroy
2025-09-11 14:27:17.943 (  75.606s) [        166DC000]     buffer_instance.cc:398      1| BufferInstance::PJRT_Buffer_Destroy
2025-09-11 14:27:17.943 (  75.606s) [        166DC000]     buffer_instance.cc:398      1| BufferInstance::PJRT_Buffer_Destroy
2025-09-11 14:27:17.943 (  75.606s) [        166DC000]     buffer_instance.cc:398      1| BufferInstance::PJRT_Buffer_Destroy
2025-09-11 14:27:17.943 (  75.606s) [        166DC000]     buffer_instance.cc:398      1| BufferInstance::PJRT_Buffer_Destroy
2025-09-11 14:27:17.943 (  75.606s) [        166DC000]     buffer_instance.cc:398      1| BufferInstance::PJRT_Buffer_Destroy
2025-09-11 14:27:17.943 (  75.606s) [        166DC000]     buffer_instance.cc:398      1| BufferInstance::PJRT_Buffer_Destroy
2025-09-11 14:27:17.943 (  75.606s) [        166DC000]     buffer_instance.cc:398      1| BufferInstance::PJRT_Buffer_Destroy
2025-09-11 14:27:17.943 (  75.606s) [        166DC000]     buffer_instance.cc:398      1| BufferInstance::PJRT_Buffer_Destroy
2025-09-11 14:27:17.944 (  75.606s) [        166DC000]     buffer_instance.cc:398      1| BufferInstance::PJRT_Buffer_Destroy
2025-09-11 14:27:17.944 (  75.607s) [        166DC000]     buffer_instance.cc:398      1| BufferInstance::PJRT_Buffer_Destroy
2025-09-11 14:27:17.944 (  75.607s) [        166DC000]     buffer_instance.cc:398      1| BufferInstance::PJRT_Buffer_Destroy
2025-09-11 14:27:17.944 (  75.607s) [        166DC000]     buffer_instance.cc:398      1| BufferInstance::PJRT_Buffer_Destroy
2025-09-11 14:27:17.944 (  75.607s) [        166DC000]     buffer_instance.cc:398      1| BufferInstance::PJRT_Buffer_Destroy
2025-09-11 14:27:17.944 (  75.607s) [        166DC000]     buffer_instance.cc:398      1| BufferInstance::PJRT_Buffer_Destroy
2025-09-11 14:27:17.944 (  75.607s) [        166DC000]     buffer_instance.cc:398      1| BufferInstance::PJRT_Buffer_Destroy
2025-09-11 14:27:17.944 (  75.607s) [        166DC000]     buffer_instance.cc:398      1| BufferInstance::PJRT_Buffer_Destroy
2025-09-11 14:27:17.944 (  75.607s) [        166DC000]     buffer_instance.cc:398      1| BufferInstance::PJRT_Buffer_Destroy
2025-09-11 14:27:17.944 (  75.607s) [        166DC000]     buffer_instance.cc:398      1| BufferInstance::PJRT_Buffer_Destroy
2025-09-11 14:27:17.944 (  75.607s) [        166DC000]     buffer_instance.cc:398      1| BufferInstance::PJRT_Buffer_Destroy
2025-09-11 14:27:17.947 (  75.610s) [        166DC000]     buffer_instance.cc:398      1| BufferInstance::PJRT_Buffer_Destroy
2025-09-11 14:27:17.947 (  75.610s) [        166DC000]     buffer_instance.cc:398      1| BufferInstance::PJRT_Buffer_Destroy
2025-09-11 14:27:18.005 (  75.668s) [        166DC000]     buffer_instance.cc:398      1| BufferInstance::PJRT_Buffer_Destroy
2025-09-11 14:27:18.046 (  75.709s) [        166DC000]     buffer_instance.cc:398      1| BufferInstance::PJRT_Buffer_Destroy
2025-09-11 14:27:18.047 (  75.710s) [        166DC000]     buffer_instance.cc:398      1| BufferInstance::PJRT_Buffer_Destroy
2025-09-11 14:27:18.047 (  75.710s) [        166DC000]     buffer_instance.cc:398      1| BufferInstance::PJRT_Buffer_Destroy
2025-09-11 14:27:18.047 (  75.710s) [        166DC000]     buffer_instance.cc:398      1| BufferInstance::PJRT_Buffer_Destroy
2025-09-11 14:27:18.047 (  75.710s) [        166DC000]     buffer_instance.cc:398      1| BufferInstance::PJRT_Buffer_Destroy
2025-09-11 14:27:18.047 (  75.710s) [        166DC000]     buffer_instance.cc:398      1| BufferInstance::PJRT_Buffer_Destroy
2025-09-11 14:27:18.047 (  75.710s) [        166DC000]     buffer_instance.cc:398      1| BufferInstance::PJRT_Buffer_Destroy
2025-09-11 14:27:18.047 (  75.710s) [        166DC000]     buffer_instance.cc:398      1| BufferInstance::PJRT_Buffer_Destroy
2025-09-11 14:27:18.048 (  75.711s) [        166DC000]     buffer_instance.cc:398      1| BufferInstance::PJRT_Buffer_Destroy
2025-09-11 14:27:18.092 (  75.755s) [        166DC000]     buffer_instance.cc:398      1| BufferInstance::PJRT_Buffer_Destroy
2025-09-11 14:27:18.130 (  75.793s) [        166DC000]     buffer_instance.cc:398      1| BufferInstance::PJRT_Buffer_Destroy
2025-09-11 14:27:18.135 (  75.798s) [        166DC000]     buffer_instance.cc:398      1| BufferInstance::PJRT_Buffer_Destroy
2025-09-11 14:27:18.135 (  75.798s) [        166DC000]     buffer_instance.cc:398      1| BufferInstance::PJRT_Buffer_Destroy
2025-09-11 14:27:18.135 (  75.798s) [        166DC000]     buffer_instance.cc:398      1| BufferInstance::PJRT_Buffer_Destroy
2025-09-11 14:27:18.135 (  75.798s) [        166DC000]     buffer_instance.cc:398      1| BufferInstance::PJRT_Buffer_Destroy
2025-09-11 14:27:18.135 (  75.798s) [        166DC000]     buffer_instance.cc:398      1| BufferInstance::PJRT_Buffer_Destroy
2025-09-11 14:27:18.136 (  75.798s) [        166DC000]     buffer_instance.cc:398      1| BufferInstance::PJRT_Buffer_Destroy
2025-09-11 14:27:18.136 (  75.799s) [        166DC000]     buffer_instance.cc:398      1| BufferInstance::PJRT_Buffer_Destroy
2025-09-11 14:27:18.136 (  75.799s) [        166DC000]     buffer_instance.cc:398      1| BufferInstance::PJRT_Buffer_Destroy
2025-09-11 14:27:18.136 (  75.799s) [        166DC000]     buffer_instance.cc:398      1| BufferInstance::PJRT_Buffer_Destroy
2025-09-11 14:27:18.136 (  75.799s) [        166DC000]     buffer_instance.cc:398      1| BufferInstance::PJRT_Buffer_Destroy
2025-09-11 14:27:18.136 (  75.799s) [        166DC000]     buffer_instance.cc:398      1| BufferInstance::PJRT_Buffer_Destroy
2025-09-11 14:27:18.137 (  75.800s) [        166DC000]     buffer_instance.cc:398      1| BufferInstance::PJRT_Buffer_Destroy
2025-09-11 14:27:18.137 (  75.800s) [        166DC000]     buffer_instance.cc:398      1| BufferInstance::PJRT_Buffer_Destroy
Merging ToLayoutOp into ttnn.constant
Merging ToLayoutOp into ttnn.constant
Merging ToLayoutOp into ttnn.constant
