WARNING:root:Defaulting to PJRT_DEVICE=CPU
2025-09-09 19:22:11.284 (   0.000s) [        56CD8000]      dylib_platform.cc:47       1| DylibPlatform::SubclassInitialize
2025-09-09 19:22:11.286 (   0.002s) [        56CD8000]     client_instance.cc:38       1| ClientInstance::ClientInstance
2025-09-09 19:22:11.286 (   0.002s) [        56CD8000]              client.cc:18       1| TTClientInstance::TTClientInstance
2025-09-09 19:22:11.286 (   0.002s) [        56CD8000]     client_instance.cc:59       1| ClientInstance::Initialize
2025-09-09 19:22:15.251 (   3.966s) [        56CD8000]              stubs.inc:112   WARN| STUB: PJRT_Client_TopologyDescription
2025-09-09 19:22:15.251 (   3.966s) [        56CD8000]      error_instance.cc:49       1| ErrorInstance::PJRT_Error_Message
2025-09-09 19:22:15.251 (   3.966s) [        56CD8000]      error_instance.cc:58       1| ErrorInstance::PJRT_Error_GetCode
2025-09-09 19:22:15.251 (   3.966s) [        56CD8000]      error_instance.cc:43       1| ErrorInstance::PJRT_Error_Destroy
2025-09-09 19:22:15.251 (   3.966s) [        56CD8000]     client_instance.cc:340      1| ClientInstance::PJRT_Client_PlatformVersion
2025-09-09 19:22:15.251 (   3.966s) [        56CD8000]     client_instance.cc:320      1| ClientInstance::PJRT_Client_PlatformName
2025-09-09 19:22:15.251 (   3.966s) [        56CD8000]     client_instance.cc:352      1| ClientInstance::PJRT_Client_Devices
2025-09-09 19:22:15.251 (   3.966s) [        56CD8000]     device_instance.cc:44       1| DeviceInstance::PJRT_Device_GetDescription
2025-09-09 19:22:15.251 (   3.967s) [        56CD8000]  device_description.cc:63       1| DeviceDescription::PJRT_DeviceDescription_Attributes
2025-09-09 19:22:15.251 (   3.967s) [        56CD8000]     device_instance.cc:44       1| DeviceInstance::PJRT_Device_GetDescription
2025-09-09 19:22:15.251 (   3.967s) [        56CD8000]  device_description.cc:63       1| DeviceDescription::PJRT_DeviceDescription_Attributes
2025-09-09 19:22:15.251 (   3.967s) [        56CD8000]     client_instance.cc:365      1| ClientInstance::PJRT_Client_AddressableDevices
2025-09-09 19:22:15.251 (   3.967s) [        56CD8000]     client_instance.cc:415      1| ClientInstance::PJRT_Client_AddressableMemories
2025-09-09 19:22:15.251 (   3.967s) [        56CD8000]     device_instance.cc:71       1| DeviceInstance::PJRT_Device_AddressableMemories
2025-09-09 19:22:15.251 (   3.967s) [        56CD8000]     device_instance.cc:71       1| DeviceInstance::PJRT_Device_AddressableMemories
2025-09-09 19:22:15.251 (   3.967s) [        56CD8000]     memory_instance.cc:124      1| MemoryInstance::PJRT_Memory_AddressableByDevices
2025-09-09 19:22:15.251 (   3.967s) [        56CD8000]     memory_instance.cc:124      1| MemoryInstance::PJRT_Memory_AddressableByDevices
2025-09-09 19:22:15.251 (   3.967s) [        56CD8000]     memory_instance.cc:124      1| MemoryInstance::PJRT_Memory_AddressableByDevices
2025-09-09 19:22:15.251 (   3.967s) [        56CD8000]        api_bindings.cc:76       1| PJRT_Plugin_Attributes
2025-09-09 19:22:15.251350: W torch_xla/csrc/runtime/profiler.cpp:88] Profiler API not found for PJRT plugin
2025-09-09 19:22:15.251 (   3.967s) [        56CD8000]  device_description.cc:44       1| DeviceDescription::PJRT_DeviceDescription_Id
2025-09-09 19:22:15.251 (   3.967s) [        56CD8000]  device_description.cc:44       1| DeviceDescription::PJRT_DeviceDescription_Id
2025-09-09 19:22:15.251 (   3.967s) [        56CD8000]  device_description.cc:44       1| DeviceDescription::PJRT_DeviceDescription_Id
2025-09-09 19:22:15.251 (   3.967s) [        56CD8000]  device_description.cc:44       1| DeviceDescription::PJRT_DeviceDescription_Id
2025-09-09 19:22:15.251 (   3.967s) [        56CD8000]  device_description.cc:44       1| DeviceDescription::PJRT_DeviceDescription_Id
2025-09-09 19:22:15.251 (   3.967s) [        56CD8000]  device_description.cc:44       1| DeviceDescription::PJRT_DeviceDescription_Id
2025-09-09 19:22:15.251 (   3.967s) [        56CD8000]  device_description.cc:99       1| DeviceDescription::PJRT_DeviceDescription_ToString
2025-09-09 19:22:15.251 (   3.967s) [        56CD8000]  device_description.cc:99       1| DeviceDescription::PJRT_DeviceDescription_ToString
2025-09-09 19:22:15.251 (   3.967s) [        56CD8000]  device_description.cc:44       1| DeviceDescription::PJRT_DeviceDescription_Id
2025-09-09 19:22:15.251 (   3.967s) [        56CD8000]  device_description.cc:44       1| DeviceDescription::PJRT_DeviceDescription_Id
2025-09-09 19:22:15.251 (   3.967s) [        56CD8000]  device_description.cc:44       1| DeviceDescription::PJRT_DeviceDescription_Id
2025-09-09 19:22:15.251 (   3.967s) [        56CD8000]  device_description.cc:44       1| DeviceDescription::PJRT_DeviceDescription_Id
/localdev/jameszianxu/tt-xla/examples/pytorch/llama.py:68: DeprecationWarning: Use torch_xla.device instead
  device = xm.xla_device()
Using TT-Metal from the source tree: /localdev/jameszianxu/tt-xla/third_party/tt-mlir/src/tt-mlir/third_party/tt-metal/src/tt-metal
WARNING: TT plugin is setting XLA_STABLEHLO_COMPILE to 1. This is required for TT PJRT plugin to work correctly.
Setting up XLA environment...
XLA environment configured.
Created device mesh: (1, 2) with 2 devices
Loading checkpoint shards:   0%|          | 0/2 [00:00<?, ?it/s]Loading checkpoint shards: 100%|██████████| 2/2 [00:00<00:00, 52.54it/s]
2025-09-09 19:22:16.846 (   5.562s) [        56CD8000]  device_description.cc:44       1| DeviceDescription::PJRT_DeviceDescription_Id
2025-09-09 19:22:16.846 (   5.562s) [        56CD8000]  device_description.cc:44       1| DeviceDescription::PJRT_DeviceDescription_Id
2025-09-09 19:22:16.846 (   5.562s) [        56CD8000]     device_instance.cc:82       1| DeviceInstance::PJRT_Device_DefaultMemory
2025-09-09 19:22:16.846 (   5.562s) [        56CD8000]     client_instance.cc:466      1| ClientInstance::PJRT_Client_BufferFromHostBuffer
2025-09-09 19:22:16.846 (   5.562s) [        56CD8000]     memory_instance.cc:57       1| MemoryInstance::getDevice
[32m                 Always[0m | [1m[38;5;208m WARNING[0m | User provided a tensor of data type: Int64 which is not supported by runtime/ttnn. Casting to: Int32, this may impact throughput and the integrity of the data.
2025-09-09 19:22:16.847 (   5.563s) [        56CD8000]      event_instance.cc:222      1| EventInstance::PJRT_Event_OnReady
2025-09-09 19:22:16.847 (   5.563s) [        56CD8000]      event_instance.cc:171      1| EventInstance::PJRT_Event_Destroy
2025-09-09 19:22:16.847 (   5.563s) [        56CD8000]     device_instance.cc:82       1| DeviceInstance::PJRT_Device_DefaultMemory
2025-09-09 19:22:16.847 (   5.563s) [        56CD8000]     client_instance.cc:466      1| ClientInstance::PJRT_Client_BufferFromHostBuffer
2025-09-09 19:22:16.847 (   5.563s) [        56CD8000]     memory_instance.cc:57       1| MemoryInstance::getDevice
[32m                 Always[0m | [1m[38;5;208m WARNING[0m | User provided a tensor of data type: Int64 which is not supported by runtime/ttnn. Casting to: Int32, this may impact throughput and the integrity of the data.
2025-09-09 19:22:16.847 (   5.563s) [        56CD8000]      event_instance.cc:222      1| EventInstance::PJRT_Event_OnReady
2025-09-09 19:22:16.847 (   5.563s) [        56CD8000]      event_instance.cc:171      1| EventInstance::PJRT_Event_Destroy
2025-09-09 19:22:16.848 (   5.563s) [        56CD8000]  device_description.cc:44       1| DeviceDescription::PJRT_DeviceDescription_Id
2025-09-09 19:22:16.848 (   5.563s) [        56CD8000]  device_description.cc:44       1| DeviceDescription::PJRT_DeviceDescription_Id
2025-09-09 19:22:16.848 (   5.564s) [        56CD8000]     device_instance.cc:82       1| DeviceInstance::PJRT_Device_DefaultMemory
2025-09-09 19:22:16.848 (   5.564s) [        56CD8000]     client_instance.cc:466      1| ClientInstance::PJRT_Client_BufferFromHostBuffer
2025-09-09 19:22:16.848 (   5.564s) [        56CD8000]     memory_instance.cc:57       1| MemoryInstance::getDevice
[32m                 Always[0m | [1m[38;5;208m WARNING[0m | User provided a tensor of data type: Int64 which is not supported by runtime/ttnn. Casting to: Int32, this may impact throughput and the integrity of the data.
2025-09-09 19:22:16.848 (   5.564s) [        56CD8000]      event_instance.cc:222      1| EventInstance::PJRT_Event_OnReady
2025-09-09 19:22:16.848 (   5.564s) [        56CD8000]      event_instance.cc:171      1| EventInstance::PJRT_Event_Destroy
2025-09-09 19:22:16.848 (   5.564s) [        56CD8000]     device_instance.cc:82       1| DeviceInstance::PJRT_Device_DefaultMemory
2025-09-09 19:22:16.848 (   5.564s) [        56CD8000]     client_instance.cc:466      1| ClientInstance::PJRT_Client_BufferFromHostBuffer
2025-09-09 19:22:16.848 (   5.564s) [        56CD8000]     memory_instance.cc:57       1| MemoryInstance::getDevice
[32m                 Always[0m | [1m[38;5;208m WARNING[0m | User provided a tensor of data type: Int64 which is not supported by runtime/ttnn. Casting to: Int32, this may impact throughput and the integrity of the data.
2025-09-09 19:22:16.848 (   5.564s) [        56CD8000]      event_instance.cc:222      1| EventInstance::PJRT_Event_OnReady
2025-09-09 19:22:16.848 (   5.564s) [        56CD8000]      event_instance.cc:171      1| EventInstance::PJRT_Event_Destroy
2025-09-09 19:22:16.848 (   5.564s) [        56CD8000]  device_description.cc:44       1| DeviceDescription::PJRT_DeviceDescription_Id
2025-09-09 19:22:16.848 (   5.564s) [        56CD8000]  device_description.cc:44       1| DeviceDescription::PJRT_DeviceDescription_Id
2025-09-09 19:22:16.854 (   5.570s) [        56CD8000]     device_instance.cc:82       1| DeviceInstance::PJRT_Device_DefaultMemory
2025-09-09 19:22:16.854 (   5.570s) [        56CD8000]     client_instance.cc:466      1| ClientInstance::PJRT_Client_BufferFromHostBuffer
2025-09-09 19:22:16.854 (   5.570s) [        56CD8000]     memory_instance.cc:57       1| MemoryInstance::getDevice
2025-09-09 19:22:16.854 (   5.570s) [        56CD8000]      event_instance.cc:222      1| EventInstance::PJRT_Event_OnReady
2025-09-09 19:22:16.854 (   5.570s) [        56CD8000]      event_instance.cc:171      1| EventInstance::PJRT_Event_Destroy
2025-09-09 19:22:16.854 (   5.570s) [        56CD8000]     device_instance.cc:82       1| DeviceInstance::PJRT_Device_DefaultMemory
2025-09-09 19:22:16.854 (   5.570s) [        56CD8000]     client_instance.cc:466      1| ClientInstance::PJRT_Client_BufferFromHostBuffer
2025-09-09 19:22:16.854 (   5.570s) [        56CD8000]     memory_instance.cc:57       1| MemoryInstance::getDevice
2025-09-09 19:22:16.855 (   5.570s) [        56CD8000]      event_instance.cc:222      1| EventInstance::PJRT_Event_OnReady
2025-09-09 19:22:16.855 (   5.570s) [        56CD8000]      event_instance.cc:171      1| EventInstance::PJRT_Event_Destroy
2025-09-09 19:22:16.855 (   5.571s) [        56CD8000]  device_description.cc:44       1| DeviceDescription::PJRT_DeviceDescription_Id
2025-09-09 19:22:16.855 (   5.571s) [        56CD8000]  device_description.cc:44       1| DeviceDescription::PJRT_DeviceDescription_Id
2025-09-09 19:22:16.855 (   5.571s) [        56CD8000]     device_instance.cc:82       1| DeviceInstance::PJRT_Device_DefaultMemory
2025-09-09 19:22:16.855 (   5.571s) [        56CD8000]     client_instance.cc:466      1| ClientInstance::PJRT_Client_BufferFromHostBuffer
2025-09-09 19:22:16.855 (   5.571s) [        56CD8000]     memory_instance.cc:57       1| MemoryInstance::getDevice
2025-09-09 19:22:16.855 (   5.571s) [        56CD8000]      event_instance.cc:222      1| EventInstance::PJRT_Event_OnReady
2025-09-09 19:22:16.855 (   5.571s) [        56CD8000]      event_instance.cc:171      1| EventInstance::PJRT_Event_Destroy
2025-09-09 19:22:16.855 (   5.571s) [        56CD8000]     device_instance.cc:82       1| DeviceInstance::PJRT_Device_DefaultMemory
2025-09-09 19:22:16.855 (   5.571s) [        56CD8000]     client_instance.cc:466      1| ClientInstance::PJRT_Client_BufferFromHostBuffer
2025-09-09 19:22:16.855 (   5.571s) [        56CD8000]     memory_instance.cc:57       1| MemoryInstance::getDevice
2025-09-09 19:22:16.855 (   5.571s) [        56CD8000]      event_instance.cc:222      1| EventInstance::PJRT_Event_OnReady
2025-09-09 19:22:16.855 (   5.571s) [        56CD8000]      event_instance.cc:171      1| EventInstance::PJRT_Event_Destroy
2025-09-09 19:22:17.424 (   6.140s) [        56CD8000]  device_description.cc:44       1| DeviceDescription::PJRT_DeviceDescription_Id
2025-09-09 19:22:17.424 (   6.140s) [        56CD8000]  device_description.cc:44       1| DeviceDescription::PJRT_DeviceDescription_Id
2025-09-09 19:22:17.430 (   6.146s) [        56CD8000]     device_instance.cc:82       1| DeviceInstance::PJRT_Device_DefaultMemory
2025-09-09 19:22:17.430 (   6.146s) [        56CD8000]     client_instance.cc:466      1| ClientInstance::PJRT_Client_BufferFromHostBuffer
2025-09-09 19:22:17.430 (   6.146s) [        56CD8000]     memory_instance.cc:57       1| MemoryInstance::getDevice
2025-09-09 19:22:17.431 (   6.146s) [        56CD8000]      event_instance.cc:222      1| EventInstance::PJRT_Event_OnReady
2025-09-09 19:22:17.431 (   6.146s) [        56CD8000]      event_instance.cc:171      1| EventInstance::PJRT_Event_Destroy
2025-09-09 19:22:17.431 (   6.146s) [        56CD8000]     device_instance.cc:82       1| DeviceInstance::PJRT_Device_DefaultMemory
2025-09-09 19:22:17.431 (   6.147s) [        56CD8000]     client_instance.cc:466      1| ClientInstance::PJRT_Client_BufferFromHostBuffer
2025-09-09 19:22:17.431 (   6.147s) [        56CD8000]     memory_instance.cc:57       1| MemoryInstance::getDevice
2025-09-09 19:22:17.431 (   6.147s) [        56CD8000]      event_instance.cc:222      1| EventInstance::PJRT_Event_OnReady
2025-09-09 19:22:17.431 (   6.147s) [        56CD8000]      event_instance.cc:171      1| EventInstance::PJRT_Event_Destroy
2025-09-09 19:22:17.434 (   6.150s) [        56CD8000]  device_description.cc:44       1| DeviceDescription::PJRT_DeviceDescription_Id
2025-09-09 19:22:17.434 (   6.150s) [        56CD8000]  device_description.cc:44       1| DeviceDescription::PJRT_DeviceDescription_Id
2025-09-09 19:22:17.440 (   6.156s) [        56CD8000]     device_instance.cc:82       1| DeviceInstance::PJRT_Device_DefaultMemory
2025-09-09 19:22:17.440 (   6.156s) [        56CD8000]     client_instance.cc:466      1| ClientInstance::PJRT_Client_BufferFromHostBuffer
2025-09-09 19:22:17.440 (   6.156s) [        56CD8000]     memory_instance.cc:57       1| MemoryInstance::getDevice
2025-09-09 19:22:17.440 (   6.156s) [        56CD8000]      event_instance.cc:222      1| EventInstance::PJRT_Event_OnReady
2025-09-09 19:22:17.440 (   6.156s) [        56CD8000]      event_instance.cc:171      1| EventInstance::PJRT_Event_Destroy
2025-09-09 19:22:17.440 (   6.156s) [        56CD8000]     device_instance.cc:82       1| DeviceInstance::PJRT_Device_DefaultMemory
2025-09-09 19:22:17.440 (   6.156s) [        56CD8000]     client_instance.cc:466      1| ClientInstance::PJRT_Client_BufferFromHostBuffer
2025-09-09 19:22:17.440 (   6.156s) [        56CD8000]     memory_instance.cc:57       1| MemoryInstance::getDevice
2025-09-09 19:22:17.440 (   6.156s) [        56CD8000]      event_instance.cc:222      1| EventInstance::PJRT_Event_OnReady
2025-09-09 19:22:17.440 (   6.156s) [        56CD8000]      event_instance.cc:171      1| EventInstance::PJRT_Event_Destroy
2025-09-09 19:22:17.443 (   6.159s) [        56CD8000]  device_description.cc:44       1| DeviceDescription::PJRT_DeviceDescription_Id
2025-09-09 19:22:17.443 (   6.159s) [        56CD8000]  device_description.cc:44       1| DeviceDescription::PJRT_DeviceDescription_Id
2025-09-09 19:22:17.452 (   6.168s) [        56CD8000]     device_instance.cc:82       1| DeviceInstance::PJRT_Device_DefaultMemory
2025-09-09 19:22:17.452 (   6.168s) [        56CD8000]     client_instance.cc:466      1| ClientInstance::PJRT_Client_BufferFromHostBuffer
2025-09-09 19:22:17.452 (   6.168s) [        56CD8000]     memory_instance.cc:57       1| MemoryInstance::getDevice
2025-09-09 19:22:17.452 (   6.168s) [        56CD8000]      event_instance.cc:222      1| EventInstance::PJRT_Event_OnReady
2025-09-09 19:22:17.452 (   6.168s) [        56CD8000]      event_instance.cc:171      1| EventInstance::PJRT_Event_Destroy
2025-09-09 19:22:17.452 (   6.168s) [        56CD8000]     device_instance.cc:82       1| DeviceInstance::PJRT_Device_DefaultMemory
2025-09-09 19:22:17.452 (   6.168s) [        56CD8000]     client_instance.cc:466      1| ClientInstance::PJRT_Client_BufferFromHostBuffer
2025-09-09 19:22:17.452 (   6.168s) [        56CD8000]     memory_instance.cc:57       1| MemoryInstance::getDevice
2025-09-09 19:22:17.453 (   6.168s) [        56CD8000]      event_instance.cc:222      1| EventInstance::PJRT_Event_OnReady
2025-09-09 19:22:17.453 (   6.168s) [        56CD8000]      event_instance.cc:171      1| EventInstance::PJRT_Event_Destroy
2025-09-09 19:22:17.456 (   6.171s) [        56CD8000]  device_description.cc:44       1| DeviceDescription::PJRT_DeviceDescription_Id
2025-09-09 19:22:17.456 (   6.171s) [        56CD8000]  device_description.cc:44       1| DeviceDescription::PJRT_DeviceDescription_Id
2025-09-09 19:22:17.457 (   6.173s) [        56CD8000]     device_instance.cc:82       1| DeviceInstance::PJRT_Device_DefaultMemory
2025-09-09 19:22:17.457 (   6.173s) [        56CD8000]     client_instance.cc:466      1| ClientInstance::PJRT_Client_BufferFromHostBuffer
2025-09-09 19:22:17.457 (   6.173s) [        56CD8000]     memory_instance.cc:57       1| MemoryInstance::getDevice
2025-09-09 19:22:17.457 (   6.173s) [        56CD8000]      event_instance.cc:222      1| EventInstance::PJRT_Event_OnReady
2025-09-09 19:22:17.457 (   6.173s) [        56CD8000]      event_instance.cc:171      1| EventInstance::PJRT_Event_Destroy
2025-09-09 19:22:17.457 (   6.173s) [        56CD8000]     device_instance.cc:82       1| DeviceInstance::PJRT_Device_DefaultMemory
2025-09-09 19:22:17.457 (   6.173s) [        56CD8000]     client_instance.cc:466      1| ClientInstance::PJRT_Client_BufferFromHostBuffer
2025-09-09 19:22:17.457 (   6.173s) [        56CD8000]     memory_instance.cc:57       1| MemoryInstance::getDevice
2025-09-09 19:22:17.458 (   6.173s) [        56CD8000]      event_instance.cc:222      1| EventInstance::PJRT_Event_OnReady
2025-09-09 19:22:17.458 (   6.173s) [        56CD8000]      event_instance.cc:171      1| EventInstance::PJRT_Event_Destroy
2025-09-09 19:22:17.458 (   6.174s) [        56CD8000]  device_description.cc:44       1| DeviceDescription::PJRT_DeviceDescription_Id
2025-09-09 19:22:17.458 (   6.174s) [        56CD8000]  device_description.cc:44       1| DeviceDescription::PJRT_DeviceDescription_Id
2025-09-09 19:22:17.458 (   6.174s) [        56CD8000]     device_instance.cc:82       1| DeviceInstance::PJRT_Device_DefaultMemory
2025-09-09 19:22:17.458 (   6.174s) [        56CD8000]     client_instance.cc:466      1| ClientInstance::PJRT_Client_BufferFromHostBuffer
2025-09-09 19:22:17.458 (   6.174s) [        56CD8000]     memory_instance.cc:57       1| MemoryInstance::getDevice
2025-09-09 19:22:17.459 (   6.174s) [        56CD8000]      event_instance.cc:222      1| EventInstance::PJRT_Event_OnReady
2025-09-09 19:22:17.459 (   6.174s) [        56CD8000]      event_instance.cc:171      1| EventInstance::PJRT_Event_Destroy
2025-09-09 19:22:17.459 (   6.174s) [        56CD8000]     device_instance.cc:82       1| DeviceInstance::PJRT_Device_DefaultMemory
2025-09-09 19:22:17.459 (   6.174s) [        56CD8000]     client_instance.cc:466      1| ClientInstance::PJRT_Client_BufferFromHostBuffer
2025-09-09 19:22:17.459 (   6.174s) [        56CD8000]     memory_instance.cc:57       1| MemoryInstance::getDevice
2025-09-09 19:22:17.459 (   6.175s) [        56CD8000]      event_instance.cc:222      1| EventInstance::PJRT_Event_OnReady
2025-09-09 19:22:17.459 (   6.175s) [        56CD8000]      event_instance.cc:171      1| EventInstance::PJRT_Event_Destroy
2025-09-09 19:22:17.459 (   6.175s) [        56CD8000]  device_description.cc:44       1| DeviceDescription::PJRT_DeviceDescription_Id
2025-09-09 19:22:17.459 (   6.175s) [        56CD8000]  device_description.cc:44       1| DeviceDescription::PJRT_DeviceDescription_Id
2025-09-09 19:22:17.459 (   6.175s) [        56CD8000]     device_instance.cc:82       1| DeviceInstance::PJRT_Device_DefaultMemory
2025-09-09 19:22:17.459 (   6.175s) [        56CD8000]     client_instance.cc:466      1| ClientInstance::PJRT_Client_BufferFromHostBuffer
2025-09-09 19:22:17.459 (   6.175s) [        56CD8000]     memory_instance.cc:57       1| MemoryInstance::getDevice
2025-09-09 19:22:17.460 (   6.175s) [        56CD8000]      event_instance.cc:222      1| EventInstance::PJRT_Event_OnReady
2025-09-09 19:22:17.460 (   6.176s) [        56CD8000]      event_instance.cc:171      1| EventInstance::PJRT_Event_Destroy
2025-09-09 19:22:17.460 (   6.176s) [        56CD8000]     device_instance.cc:82       1| DeviceInstance::PJRT_Device_DefaultMemory
2025-09-09 19:22:17.460 (   6.176s) [        56CD8000]     client_instance.cc:466      1| ClientInstance::PJRT_Client_BufferFromHostBuffer
2025-09-09 19:22:17.460 (   6.176s) [        56CD8000]     memory_instance.cc:57       1| MemoryInstance::getDevice
2025-09-09 19:22:17.460 (   6.176s) [        56CD8000]      event_instance.cc:222      1| EventInstance::PJRT_Event_OnReady
2025-09-09 19:22:17.460 (   6.176s) [        56CD8000]      event_instance.cc:171      1| EventInstance::PJRT_Event_Destroy
2025-09-09 19:22:17.460 (   6.176s) [        56CD8000]  device_description.cc:44       1| DeviceDescription::PJRT_DeviceDescription_Id
2025-09-09 19:22:17.460 (   6.176s) [        56CD8000]  device_description.cc:44       1| DeviceDescription::PJRT_DeviceDescription_Id
2025-09-09 19:22:17.461 (   6.177s) [        56CD8000]     device_instance.cc:82       1| DeviceInstance::PJRT_Device_DefaultMemory
2025-09-09 19:22:17.461 (   6.177s) [        56CD8000]     client_instance.cc:466      1| ClientInstance::PJRT_Client_BufferFromHostBuffer
2025-09-09 19:22:17.461 (   6.177s) [        56CD8000]     memory_instance.cc:57       1| MemoryInstance::getDevice
2025-09-09 19:22:17.462 (   6.177s) [        56CD8000]      event_instance.cc:222      1| EventInstance::PJRT_Event_OnReady
2025-09-09 19:22:17.462 (   6.177s) [        56CD8000]      event_instance.cc:171      1| EventInstance::PJRT_Event_Destroy
2025-09-09 19:22:17.462 (   6.177s) [        56CD8000]     device_instance.cc:82       1| DeviceInstance::PJRT_Device_DefaultMemory
2025-09-09 19:22:17.462 (   6.177s) [        56CD8000]     client_instance.cc:466      1| ClientInstance::PJRT_Client_BufferFromHostBuffer
2025-09-09 19:22:17.462 (   6.177s) [        56CD8000]     memory_instance.cc:57       1| MemoryInstance::getDevice
2025-09-09 19:22:17.462 (   6.178s) [        56CD8000]      event_instance.cc:222      1| EventInstance::PJRT_Event_OnReady
2025-09-09 19:22:17.462 (   6.178s) [        56CD8000]      event_instance.cc:171      1| EventInstance::PJRT_Event_Destroy
2025-09-09 19:22:17.462 (   6.178s) [        56CD8000]  device_description.cc:44       1| DeviceDescription::PJRT_DeviceDescription_Id
2025-09-09 19:22:17.462 (   6.178s) [        56CD8000]  device_description.cc:44       1| DeviceDescription::PJRT_DeviceDescription_Id
2025-09-09 19:22:17.467 (   6.183s) [        56CD8000]     device_instance.cc:82       1| DeviceInstance::PJRT_Device_DefaultMemory
2025-09-09 19:22:17.468 (   6.183s) [        56CD8000]     client_instance.cc:466      1| ClientInstance::PJRT_Client_BufferFromHostBuffer
2025-09-09 19:22:17.468 (   6.183s) [        56CD8000]     memory_instance.cc:57       1| MemoryInstance::getDevice
2025-09-09 19:22:17.468 (   6.184s) [        56CD8000]      event_instance.cc:222      1| EventInstance::PJRT_Event_OnReady
2025-09-09 19:22:17.468 (   6.184s) [        56CD8000]      event_instance.cc:171      1| EventInstance::PJRT_Event_Destroy
2025-09-09 19:22:17.468 (   6.184s) [        56CD8000]     device_instance.cc:82       1| DeviceInstance::PJRT_Device_DefaultMemory
2025-09-09 19:22:17.468 (   6.184s) [        56CD8000]     client_instance.cc:466      1| ClientInstance::PJRT_Client_BufferFromHostBuffer
2025-09-09 19:22:17.468 (   6.184s) [        56CD8000]     memory_instance.cc:57       1| MemoryInstance::getDevice
2025-09-09 19:22:17.468 (   6.184s) [        56CD8000]      event_instance.cc:222      1| EventInstance::PJRT_Event_OnReady
2025-09-09 19:22:17.468 (   6.184s) [        56CD8000]      event_instance.cc:171      1| EventInstance::PJRT_Event_Destroy
2025-09-09 19:22:17.471 (   6.187s) [        56CD8000]  device_description.cc:44       1| DeviceDescription::PJRT_DeviceDescription_Id
2025-09-09 19:22:17.471 (   6.187s) [        56CD8000]  device_description.cc:44       1| DeviceDescription::PJRT_DeviceDescription_Id
2025-09-09 19:22:17.477 (   6.193s) [        56CD8000]     device_instance.cc:82       1| DeviceInstance::PJRT_Device_DefaultMemory
2025-09-09 19:22:17.477 (   6.193s) [        56CD8000]     client_instance.cc:466      1| ClientInstance::PJRT_Client_BufferFromHostBuffer
2025-09-09 19:22:17.477 (   6.193s) [        56CD8000]     memory_instance.cc:57       1| MemoryInstance::getDevice
2025-09-09 19:22:17.477 (   6.193s) [        56CD8000]      event_instance.cc:222      1| EventInstance::PJRT_Event_OnReady
2025-09-09 19:22:17.477 (   6.193s) [        56CD8000]      event_instance.cc:171      1| EventInstance::PJRT_Event_Destroy
2025-09-09 19:22:17.477 (   6.193s) [        56CD8000]     device_instance.cc:82       1| DeviceInstance::PJRT_Device_DefaultMemory
2025-09-09 19:22:17.477 (   6.193s) [        56CD8000]     client_instance.cc:466      1| ClientInstance::PJRT_Client_BufferFromHostBuffer
2025-09-09 19:22:17.477 (   6.193s) [        56CD8000]     memory_instance.cc:57       1| MemoryInstance::getDevice
2025-09-09 19:22:17.477 (   6.193s) [        56CD8000]      event_instance.cc:222      1| EventInstance::PJRT_Event_OnReady
2025-09-09 19:22:17.478 (   6.193s) [        56CD8000]      event_instance.cc:171      1| EventInstance::PJRT_Event_Destroy
2025-09-09 19:22:17.480 (   6.196s) [        56CD8000]  device_description.cc:44       1| DeviceDescription::PJRT_DeviceDescription_Id
2025-09-09 19:22:17.480 (   6.196s) [        56CD8000]  device_description.cc:44       1| DeviceDescription::PJRT_DeviceDescription_Id
2025-09-09 19:22:17.489 (   6.205s) [        56CD8000]     device_instance.cc:82       1| DeviceInstance::PJRT_Device_DefaultMemory
2025-09-09 19:22:17.489 (   6.205s) [        56CD8000]     client_instance.cc:466      1| ClientInstance::PJRT_Client_BufferFromHostBuffer
2025-09-09 19:22:17.489 (   6.205s) [        56CD8000]     memory_instance.cc:57       1| MemoryInstance::getDevice
2025-09-09 19:22:17.490 (   6.206s) [        56CD8000]      event_instance.cc:222      1| EventInstance::PJRT_Event_OnReady
2025-09-09 19:22:17.490 (   6.206s) [        56CD8000]      event_instance.cc:171      1| EventInstance::PJRT_Event_Destroy
2025-09-09 19:22:17.490 (   6.206s) [        56CD8000]     device_instance.cc:82       1| DeviceInstance::PJRT_Device_DefaultMemory
2025-09-09 19:22:17.490 (   6.206s) [        56CD8000]     client_instance.cc:466      1| ClientInstance::PJRT_Client_BufferFromHostBuffer
2025-09-09 19:22:17.490 (   6.206s) [        56CD8000]     memory_instance.cc:57       1| MemoryInstance::getDevice
2025-09-09 19:22:17.490 (   6.206s) [        56CD8000]      event_instance.cc:222      1| EventInstance::PJRT_Event_OnReady
2025-09-09 19:22:17.490 (   6.206s) [        56CD8000]      event_instance.cc:171      1| EventInstance::PJRT_Event_Destroy
2025-09-09 19:22:17.493 (   6.209s) [        56CD8000]  device_description.cc:44       1| DeviceDescription::PJRT_DeviceDescription_Id
2025-09-09 19:22:17.493 (   6.209s) [        56CD8000]  device_description.cc:44       1| DeviceDescription::PJRT_DeviceDescription_Id
2025-09-09 19:22:17.494 (   6.210s) [        56CD8000]     device_instance.cc:82       1| DeviceInstance::PJRT_Device_DefaultMemory
2025-09-09 19:22:17.494 (   6.210s) [        56CD8000]     client_instance.cc:466      1| ClientInstance::PJRT_Client_BufferFromHostBuffer
2025-09-09 19:22:17.494 (   6.210s) [        56CD8000]     memory_instance.cc:57       1| MemoryInstance::getDevice
2025-09-09 19:22:17.495 (   6.210s) [        56CD8000]      event_instance.cc:222      1| EventInstance::PJRT_Event_OnReady
2025-09-09 19:22:17.495 (   6.210s) [        56CD8000]      event_instance.cc:171      1| EventInstance::PJRT_Event_Destroy
2025-09-09 19:22:17.495 (   6.210s) [        56CD8000]     device_instance.cc:82       1| DeviceInstance::PJRT_Device_DefaultMemory
2025-09-09 19:22:17.495 (   6.210s) [        56CD8000]     client_instance.cc:466      1| ClientInstance::PJRT_Client_BufferFromHostBuffer
2025-09-09 19:22:17.495 (   6.210s) [        56CD8000]     memory_instance.cc:57       1| MemoryInstance::getDevice
2025-09-09 19:22:17.495 (   6.211s) [        56CD8000]      event_instance.cc:222      1| EventInstance::PJRT_Event_OnReady
2025-09-09 19:22:17.495 (   6.211s) [        56CD8000]      event_instance.cc:171      1| EventInstance::PJRT_Event_Destroy
2025-09-09 19:22:17.495 (   6.211s) [        56CD8000]  device_description.cc:44       1| DeviceDescription::PJRT_DeviceDescription_Id
2025-09-09 19:22:17.495 (   6.211s) [        56CD8000]  device_description.cc:44       1| DeviceDescription::PJRT_DeviceDescription_Id
2025-09-09 19:22:17.495 (   6.211s) [        56CD8000]     device_instance.cc:82       1| DeviceInstance::PJRT_Device_DefaultMemory
2025-09-09 19:22:17.495 (   6.211s) [        56CD8000]     client_instance.cc:466      1| ClientInstance::PJRT_Client_BufferFromHostBuffer
2025-09-09 19:22:17.495 (   6.211s) [        56CD8000]     memory_instance.cc:57       1| MemoryInstance::getDevice
2025-09-09 19:22:17.496 (   6.211s) [        56CD8000]      event_instance.cc:222      1| EventInstance::PJRT_Event_OnReady
2025-09-09 19:22:17.496 (   6.211s) [        56CD8000]      event_instance.cc:171      1| EventInstance::PJRT_Event_Destroy
2025-09-09 19:22:17.496 (   6.211s) [        56CD8000]     device_instance.cc:82       1| DeviceInstance::PJRT_Device_DefaultMemory
2025-09-09 19:22:17.496 (   6.212s) [        56CD8000]     client_instance.cc:466      1| ClientInstance::PJRT_Client_BufferFromHostBuffer
2025-09-09 19:22:17.496 (   6.212s) [        56CD8000]     memory_instance.cc:57       1| MemoryInstance::getDevice
2025-09-09 19:22:17.496 (   6.212s) [        56CD8000]      event_instance.cc:222      1| EventInstance::PJRT_Event_OnReady
2025-09-09 19:22:17.496 (   6.212s) [        56CD8000]      event_instance.cc:171      1| EventInstance::PJRT_Event_Destroy
2025-09-09 19:22:17.496 (   6.212s) [        56CD8000]  device_description.cc:44       1| DeviceDescription::PJRT_DeviceDescription_Id
2025-09-09 19:22:17.496 (   6.212s) [        56CD8000]  device_description.cc:44       1| DeviceDescription::PJRT_DeviceDescription_Id
2025-09-09 19:22:17.496 (   6.212s) [        56CD8000]     device_instance.cc:82       1| DeviceInstance::PJRT_Device_DefaultMemory
2025-09-09 19:22:17.496 (   6.212s) [        56CD8000]     client_instance.cc:466      1| ClientInstance::PJRT_Client_BufferFromHostBuffer
2025-09-09 19:22:17.496 (   6.212s) [        56CD8000]     memory_instance.cc:57       1| MemoryInstance::getDevice
2025-09-09 19:22:17.497 (   6.212s) [        56CD8000]      event_instance.cc:222      1| EventInstance::PJRT_Event_OnReady
2025-09-09 19:22:17.497 (   6.212s) [        56CD8000]      event_instance.cc:171      1| EventInstance::PJRT_Event_Destroy
2025-09-09 19:22:17.497 (   6.212s) [        56CD8000]     device_instance.cc:82       1| DeviceInstance::PJRT_Device_DefaultMemory
2025-09-09 19:22:17.497 (   6.212s) [        56CD8000]     client_instance.cc:466      1| ClientInstance::PJRT_Client_BufferFromHostBuffer
2025-09-09 19:22:17.497 (   6.212s) [        56CD8000]     memory_instance.cc:57       1| MemoryInstance::getDevice
2025-09-09 19:22:17.497 (   6.213s) [        56CD8000]      event_instance.cc:222      1| EventInstance::PJRT_Event_OnReady
2025-09-09 19:22:17.497 (   6.213s) [        56CD8000]      event_instance.cc:171      1| EventInstance::PJRT_Event_Destroy
2025-09-09 19:22:17.497 (   6.213s) [        56CD8000]  device_description.cc:44       1| DeviceDescription::PJRT_DeviceDescription_Id
2025-09-09 19:22:17.497 (   6.213s) [        56CD8000]  device_description.cc:44       1| DeviceDescription::PJRT_DeviceDescription_Id
2025-09-09 19:22:17.498 (   6.214s) [        56CD8000]     device_instance.cc:82       1| DeviceInstance::PJRT_Device_DefaultMemory
2025-09-09 19:22:17.498 (   6.214s) [        56CD8000]     client_instance.cc:466      1| ClientInstance::PJRT_Client_BufferFromHostBuffer
2025-09-09 19:22:17.498 (   6.214s) [        56CD8000]     memory_instance.cc:57       1| MemoryInstance::getDevice
2025-09-09 19:22:17.498 (   6.214s) [        56CD8000]      event_instance.cc:222      1| EventInstance::PJRT_Event_OnReady
2025-09-09 19:22:17.499 (   6.214s) [        56CD8000]      event_instance.cc:171      1| EventInstance::PJRT_Event_Destroy
2025-09-09 19:22:17.499 (   6.214s) [        56CD8000]     device_instance.cc:82       1| DeviceInstance::PJRT_Device_DefaultMemory
2025-09-09 19:22:17.499 (   6.214s) [        56CD8000]     client_instance.cc:466      1| ClientInstance::PJRT_Client_BufferFromHostBuffer
2025-09-09 19:22:17.499 (   6.214s) [        56CD8000]     memory_instance.cc:57       1| MemoryInstance::getDevice
2025-09-09 19:22:17.499 (   6.215s) [        56CD8000]      event_instance.cc:222      1| EventInstance::PJRT_Event_OnReady
2025-09-09 19:22:17.499 (   6.215s) [        56CD8000]      event_instance.cc:171      1| EventInstance::PJRT_Event_Destroy
2025-09-09 19:22:17.499 (   6.215s) [        56CD8000]  device_description.cc:44       1| DeviceDescription::PJRT_DeviceDescription_Id
2025-09-09 19:22:17.499 (   6.215s) [        56CD8000]  device_description.cc:44       1| DeviceDescription::PJRT_DeviceDescription_Id
2025-09-09 19:22:17.504 (   6.220s) [        56CD8000]     device_instance.cc:82       1| DeviceInstance::PJRT_Device_DefaultMemory
2025-09-09 19:22:17.504 (   6.220s) [        56CD8000]     client_instance.cc:466      1| ClientInstance::PJRT_Client_BufferFromHostBuffer
2025-09-09 19:22:17.505 (   6.220s) [        56CD8000]     memory_instance.cc:57       1| MemoryInstance::getDevice
2025-09-09 19:22:17.505 (   6.220s) [        56CD8000]      event_instance.cc:222      1| EventInstance::PJRT_Event_OnReady
2025-09-09 19:22:17.505 (   6.221s) [        56CD8000]      event_instance.cc:171      1| EventInstance::PJRT_Event_Destroy
2025-09-09 19:22:17.505 (   6.221s) [        56CD8000]     device_instance.cc:82       1| DeviceInstance::PJRT_Device_DefaultMemory
2025-09-09 19:22:17.505 (   6.221s) [        56CD8000]     client_instance.cc:466      1| ClientInstance::PJRT_Client_BufferFromHostBuffer
2025-09-09 19:22:17.505 (   6.221s) [        56CD8000]     memory_instance.cc:57       1| MemoryInstance::getDevice
2025-09-09 19:22:17.505 (   6.221s) [        56CD8000]      event_instance.cc:222      1| EventInstance::PJRT_Event_OnReady
2025-09-09 19:22:17.505 (   6.221s) [        56CD8000]      event_instance.cc:171      1| EventInstance::PJRT_Event_Destroy
2025-09-09 19:22:17.508 (   6.224s) [        56CD8000]  device_description.cc:44       1| DeviceDescription::PJRT_DeviceDescription_Id
2025-09-09 19:22:17.508 (   6.224s) [        56CD8000]  device_description.cc:44       1| DeviceDescription::PJRT_DeviceDescription_Id
2025-09-09 19:22:17.514 (   6.230s) [        56CD8000]     device_instance.cc:82       1| DeviceInstance::PJRT_Device_DefaultMemory
2025-09-09 19:22:17.514 (   6.230s) [        56CD8000]     client_instance.cc:466      1| ClientInstance::PJRT_Client_BufferFromHostBuffer
2025-09-09 19:22:17.514 (   6.230s) [        56CD8000]     memory_instance.cc:57       1| MemoryInstance::getDevice
2025-09-09 19:22:17.514 (   6.230s) [        56CD8000]      event_instance.cc:222      1| EventInstance::PJRT_Event_OnReady
2025-09-09 19:22:17.514 (   6.230s) [        56CD8000]      event_instance.cc:171      1| EventInstance::PJRT_Event_Destroy
2025-09-09 19:22:17.514 (   6.230s) [        56CD8000]     device_instance.cc:82       1| DeviceInstance::PJRT_Device_DefaultMemory
2025-09-09 19:22:17.514 (   6.230s) [        56CD8000]     client_instance.cc:466      1| ClientInstance::PJRT_Client_BufferFromHostBuffer
2025-09-09 19:22:17.514 (   6.230s) [        56CD8000]     memory_instance.cc:57       1| MemoryInstance::getDevice
2025-09-09 19:22:17.515 (   6.230s) [        56CD8000]      event_instance.cc:222      1| EventInstance::PJRT_Event_OnReady
2025-09-09 19:22:17.515 (   6.230s) [        56CD8000]      event_instance.cc:171      1| EventInstance::PJRT_Event_Destroy
2025-09-09 19:22:17.517 (   6.233s) [        56CD8000]  device_description.cc:44       1| DeviceDescription::PJRT_DeviceDescription_Id
2025-09-09 19:22:17.517 (   6.233s) [        56CD8000]  device_description.cc:44       1| DeviceDescription::PJRT_DeviceDescription_Id
2025-09-09 19:22:17.526 (   6.242s) [        56CD8000]     device_instance.cc:82       1| DeviceInstance::PJRT_Device_DefaultMemory
2025-09-09 19:22:17.526 (   6.242s) [        56CD8000]     client_instance.cc:466      1| ClientInstance::PJRT_Client_BufferFromHostBuffer
2025-09-09 19:22:17.526 (   6.242s) [        56CD8000]     memory_instance.cc:57       1| MemoryInstance::getDevice
2025-09-09 19:22:17.526 (   6.242s) [        56CD8000]      event_instance.cc:222      1| EventInstance::PJRT_Event_OnReady
2025-09-09 19:22:17.526 (   6.242s) [        56CD8000]      event_instance.cc:171      1| EventInstance::PJRT_Event_Destroy
2025-09-09 19:22:17.526 (   6.242s) [        56CD8000]     device_instance.cc:82       1| DeviceInstance::PJRT_Device_DefaultMemory
2025-09-09 19:22:17.526 (   6.242s) [        56CD8000]     client_instance.cc:466      1| ClientInstance::PJRT_Client_BufferFromHostBuffer
2025-09-09 19:22:17.526 (   6.242s) [        56CD8000]     memory_instance.cc:57       1| MemoryInstance::getDevice
2025-09-09 19:22:17.526 (   6.242s) [        56CD8000]      event_instance.cc:222      1| EventInstance::PJRT_Event_OnReady
2025-09-09 19:22:17.526 (   6.242s) [        56CD8000]      event_instance.cc:171      1| EventInstance::PJRT_Event_Destroy
2025-09-09 19:22:17.529 (   6.245s) [        56CD8000]  device_description.cc:44       1| DeviceDescription::PJRT_DeviceDescription_Id
2025-09-09 19:22:17.529 (   6.245s) [        56CD8000]  device_description.cc:44       1| DeviceDescription::PJRT_DeviceDescription_Id
2025-09-09 19:22:17.531 (   6.247s) [        56CD8000]     device_instance.cc:82       1| DeviceInstance::PJRT_Device_DefaultMemory
2025-09-09 19:22:17.531 (   6.247s) [        56CD8000]     client_instance.cc:466      1| ClientInstance::PJRT_Client_BufferFromHostBuffer
2025-09-09 19:22:17.531 (   6.247s) [        56CD8000]     memory_instance.cc:57       1| MemoryInstance::getDevice
2025-09-09 19:22:17.531 (   6.247s) [        56CD8000]      event_instance.cc:222      1| EventInstance::PJRT_Event_OnReady
2025-09-09 19:22:17.531 (   6.247s) [        56CD8000]      event_instance.cc:171      1| EventInstance::PJRT_Event_Destroy
2025-09-09 19:22:17.531 (   6.247s) [        56CD8000]     device_instance.cc:82       1| DeviceInstance::PJRT_Device_DefaultMemory
2025-09-09 19:22:17.531 (   6.247s) [        56CD8000]     client_instance.cc:466      1| ClientInstance::PJRT_Client_BufferFromHostBuffer
2025-09-09 19:22:17.531 (   6.247s) [        56CD8000]     memory_instance.cc:57       1| MemoryInstance::getDevice
2025-09-09 19:22:17.531 (   6.247s) [        56CD8000]      event_instance.cc:222      1| EventInstance::PJRT_Event_OnReady
2025-09-09 19:22:17.531 (   6.247s) [        56CD8000]      event_instance.cc:171      1| EventInstance::PJRT_Event_Destroy
2025-09-09 19:22:17.531 (   6.247s) [        56CD8000]  device_description.cc:44       1| DeviceDescription::PJRT_DeviceDescription_Id
2025-09-09 19:22:17.531 (   6.247s) [        56CD8000]  device_description.cc:44       1| DeviceDescription::PJRT_DeviceDescription_Id
2025-09-09 19:22:17.532 (   6.248s) [        56CD8000]     device_instance.cc:82       1| DeviceInstance::PJRT_Device_DefaultMemory
2025-09-09 19:22:17.532 (   6.248s) [        56CD8000]     client_instance.cc:466      1| ClientInstance::PJRT_Client_BufferFromHostBuffer
2025-09-09 19:22:17.532 (   6.248s) [        56CD8000]     memory_instance.cc:57       1| MemoryInstance::getDevice
2025-09-09 19:22:17.532 (   6.248s) [        56CD8000]      event_instance.cc:222      1| EventInstance::PJRT_Event_OnReady
2025-09-09 19:22:17.532 (   6.248s) [        56CD8000]      event_instance.cc:171      1| EventInstance::PJRT_Event_Destroy
2025-09-09 19:22:17.532 (   6.248s) [        56CD8000]     device_instance.cc:82       1| DeviceInstance::PJRT_Device_DefaultMemory
2025-09-09 19:22:17.532 (   6.248s) [        56CD8000]     client_instance.cc:466      1| ClientInstance::PJRT_Client_BufferFromHostBuffer
2025-09-09 19:22:17.532 (   6.248s) [        56CD8000]     memory_instance.cc:57       1| MemoryInstance::getDevice
2025-09-09 19:22:17.532 (   6.248s) [        56CD8000]      event_instance.cc:222      1| EventInstance::PJRT_Event_OnReady
2025-09-09 19:22:17.532 (   6.248s) [        56CD8000]      event_instance.cc:171      1| EventInstance::PJRT_Event_Destroy
2025-09-09 19:22:17.532 (   6.248s) [        56CD8000]  device_description.cc:44       1| DeviceDescription::PJRT_DeviceDescription_Id
2025-09-09 19:22:17.533 (   6.248s) [        56CD8000]  device_description.cc:44       1| DeviceDescription::PJRT_DeviceDescription_Id
2025-09-09 19:22:17.533 (   6.249s) [        56CD8000]     device_instance.cc:82       1| DeviceInstance::PJRT_Device_DefaultMemory
2025-09-09 19:22:17.533 (   6.249s) [        56CD8000]     client_instance.cc:466      1| ClientInstance::PJRT_Client_BufferFromHostBuffer
2025-09-09 19:22:17.533 (   6.249s) [        56CD8000]     memory_instance.cc:57       1| MemoryInstance::getDevice
2025-09-09 19:22:17.533 (   6.249s) [        56CD8000]      event_instance.cc:222      1| EventInstance::PJRT_Event_OnReady
2025-09-09 19:22:17.533 (   6.249s) [        56CD8000]      event_instance.cc:171      1| EventInstance::PJRT_Event_Destroy
2025-09-09 19:22:17.533 (   6.249s) [        56CD8000]     device_instance.cc:82       1| DeviceInstance::PJRT_Device_DefaultMemory
2025-09-09 19:22:17.533 (   6.249s) [        56CD8000]     client_instance.cc:466      1| ClientInstance::PJRT_Client_BufferFromHostBuffer
2025-09-09 19:22:17.533 (   6.249s) [        56CD8000]     memory_instance.cc:57       1| MemoryInstance::getDevice
2025-09-09 19:22:17.533 (   6.249s) [        56CD8000]      event_instance.cc:222      1| EventInstance::PJRT_Event_OnReady
2025-09-09 19:22:17.533 (   6.249s) [        56CD8000]      event_instance.cc:171      1| EventInstance::PJRT_Event_Destroy
2025-09-09 19:22:17.533 (   6.249s) [        56CD8000]  device_description.cc:44       1| DeviceDescription::PJRT_DeviceDescription_Id
2025-09-09 19:22:17.533 (   6.249s) [        56CD8000]  device_description.cc:44       1| DeviceDescription::PJRT_DeviceDescription_Id
2025-09-09 19:22:17.535 (   6.251s) [        56CD8000]     device_instance.cc:82       1| DeviceInstance::PJRT_Device_DefaultMemory
2025-09-09 19:22:17.535 (   6.251s) [        56CD8000]     client_instance.cc:466      1| ClientInstance::PJRT_Client_BufferFromHostBuffer
2025-09-09 19:22:17.535 (   6.251s) [        56CD8000]     memory_instance.cc:57       1| MemoryInstance::getDevice
2025-09-09 19:22:17.535 (   6.251s) [        56CD8000]      event_instance.cc:222      1| EventInstance::PJRT_Event_OnReady
2025-09-09 19:22:17.535 (   6.251s) [        56CD8000]      event_instance.cc:171      1| EventInstance::PJRT_Event_Destroy
2025-09-09 19:22:17.535 (   6.251s) [        56CD8000]     device_instance.cc:82       1| DeviceInstance::PJRT_Device_DefaultMemory
2025-09-09 19:22:17.535 (   6.251s) [        56CD8000]     client_instance.cc:466      1| ClientInstance::PJRT_Client_BufferFromHostBuffer
2025-09-09 19:22:17.535 (   6.251s) [        56CD8000]     memory_instance.cc:57       1| MemoryInstance::getDevice
2025-09-09 19:22:17.535 (   6.251s) [        56CD8000]      event_instance.cc:222      1| EventInstance::PJRT_Event_OnReady
2025-09-09 19:22:17.536 (   6.251s) [        56CD8000]      event_instance.cc:171      1| EventInstance::PJRT_Event_Destroy
2025-09-09 19:22:17.536 (   6.251s) [        56CD8000]  device_description.cc:44       1| DeviceDescription::PJRT_DeviceDescription_Id
2025-09-09 19:22:17.536 (   6.251s) [        56CD8000]  device_description.cc:44       1| DeviceDescription::PJRT_DeviceDescription_Id
2025-09-09 19:22:17.541 (   6.257s) [        56CD8000]     device_instance.cc:82       1| DeviceInstance::PJRT_Device_DefaultMemory
2025-09-09 19:22:17.541 (   6.257s) [        56CD8000]     client_instance.cc:466      1| ClientInstance::PJRT_Client_BufferFromHostBuffer
2025-09-09 19:22:17.541 (   6.257s) [        56CD8000]     memory_instance.cc:57       1| MemoryInstance::getDevice
2025-09-09 19:22:17.541 (   6.257s) [        56CD8000]      event_instance.cc:222      1| EventInstance::PJRT_Event_OnReady
2025-09-09 19:22:17.542 (   6.257s) [        56CD8000]      event_instance.cc:171      1| EventInstance::PJRT_Event_Destroy
2025-09-09 19:22:17.542 (   6.257s) [        56CD8000]     device_instance.cc:82       1| DeviceInstance::PJRT_Device_DefaultMemory
2025-09-09 19:22:17.542 (   6.257s) [        56CD8000]     client_instance.cc:466      1| ClientInstance::PJRT_Client_BufferFromHostBuffer
2025-09-09 19:22:17.542 (   6.257s) [        56CD8000]     memory_instance.cc:57       1| MemoryInstance::getDevice
2025-09-09 19:22:17.542 (   6.258s) [        56CD8000]      event_instance.cc:222      1| EventInstance::PJRT_Event_OnReady
2025-09-09 19:22:17.542 (   6.258s) [        56CD8000]      event_instance.cc:171      1| EventInstance::PJRT_Event_Destroy
2025-09-09 19:22:17.545 (   6.261s) [        56CD8000]  device_description.cc:44       1| DeviceDescription::PJRT_DeviceDescription_Id
2025-09-09 19:22:17.545 (   6.261s) [        56CD8000]  device_description.cc:44       1| DeviceDescription::PJRT_DeviceDescription_Id
2025-09-09 19:22:17.550 (   6.266s) [        56CD8000]     device_instance.cc:82       1| DeviceInstance::PJRT_Device_DefaultMemory
2025-09-09 19:22:17.550 (   6.266s) [        56CD8000]     client_instance.cc:466      1| ClientInstance::PJRT_Client_BufferFromHostBuffer
2025-09-09 19:22:17.550 (   6.266s) [        56CD8000]     memory_instance.cc:57       1| MemoryInstance::getDevice
2025-09-09 19:22:17.551 (   6.266s) [        56CD8000]      event_instance.cc:222      1| EventInstance::PJRT_Event_OnReady
2025-09-09 19:22:17.551 (   6.267s) [        56CD8000]      event_instance.cc:171      1| EventInstance::PJRT_Event_Destroy
2025-09-09 19:22:17.551 (   6.267s) [        56CD8000]     device_instance.cc:82       1| DeviceInstance::PJRT_Device_DefaultMemory
2025-09-09 19:22:17.551 (   6.267s) [        56CD8000]     client_instance.cc:466      1| ClientInstance::PJRT_Client_BufferFromHostBuffer
2025-09-09 19:22:17.551 (   6.267s) [        56CD8000]     memory_instance.cc:57       1| MemoryInstance::getDevice
2025-09-09 19:22:17.551 (   6.267s) [        56CD8000]      event_instance.cc:222      1| EventInstance::PJRT_Event_OnReady
2025-09-09 19:22:17.551 (   6.267s) [        56CD8000]      event_instance.cc:171      1| EventInstance::PJRT_Event_Destroy
2025-09-09 19:22:17.554 (   6.270s) [        56CD8000]  device_description.cc:44       1| DeviceDescription::PJRT_DeviceDescription_Id
2025-09-09 19:22:17.554 (   6.270s) [        56CD8000]  device_description.cc:44       1| DeviceDescription::PJRT_DeviceDescription_Id
2025-09-09 19:22:17.566 (   6.282s) [        56CD8000]     device_instance.cc:82       1| DeviceInstance::PJRT_Device_DefaultMemory
2025-09-09 19:22:17.566 (   6.282s) [        56CD8000]     client_instance.cc:466      1| ClientInstance::PJRT_Client_BufferFromHostBuffer
2025-09-09 19:22:17.566 (   6.282s) [        56CD8000]     memory_instance.cc:57       1| MemoryInstance::getDevice
2025-09-09 19:22:17.566 (   6.282s) [        56CD8000]      event_instance.cc:222      1| EventInstance::PJRT_Event_OnReady
2025-09-09 19:22:17.566 (   6.282s) [        56CD8000]      event_instance.cc:171      1| EventInstance::PJRT_Event_Destroy
2025-09-09 19:22:17.566 (   6.282s) [        56CD8000]     device_instance.cc:82       1| DeviceInstance::PJRT_Device_DefaultMemory
2025-09-09 19:22:17.566 (   6.282s) [        56CD8000]     client_instance.cc:466      1| ClientInstance::PJRT_Client_BufferFromHostBuffer
2025-09-09 19:22:17.566 (   6.282s) [        56CD8000]     memory_instance.cc:57       1| MemoryInstance::getDevice
2025-09-09 19:22:17.567 (   6.282s) [        56CD8000]      event_instance.cc:222      1| EventInstance::PJRT_Event_OnReady
2025-09-09 19:22:17.567 (   6.282s) [        56CD8000]      event_instance.cc:171      1| EventInstance::PJRT_Event_Destroy
2025-09-09 19:22:17.569 (   6.285s) [        56CD8000]  device_description.cc:44       1| DeviceDescription::PJRT_DeviceDescription_Id
2025-09-09 19:22:17.569 (   6.285s) [        56CD8000]  device_description.cc:44       1| DeviceDescription::PJRT_DeviceDescription_Id
2025-09-09 19:22:17.571 (   6.287s) [        56CD8000]     device_instance.cc:82       1| DeviceInstance::PJRT_Device_DefaultMemory
2025-09-09 19:22:17.571 (   6.287s) [        56CD8000]     client_instance.cc:466      1| ClientInstance::PJRT_Client_BufferFromHostBuffer
2025-09-09 19:22:17.571 (   6.287s) [        56CD8000]     memory_instance.cc:57       1| MemoryInstance::getDevice
2025-09-09 19:22:17.571 (   6.287s) [        56CD8000]      event_instance.cc:222      1| EventInstance::PJRT_Event_OnReady
2025-09-09 19:22:17.571 (   6.287s) [        56CD8000]      event_instance.cc:171      1| EventInstance::PJRT_Event_Destroy
2025-09-09 19:22:17.571 (   6.287s) [        56CD8000]     device_instance.cc:82       1| DeviceInstance::PJRT_Device_DefaultMemory
2025-09-09 19:22:17.571 (   6.287s) [        56CD8000]     client_instance.cc:466      1| ClientInstance::PJRT_Client_BufferFromHostBuffer
2025-09-09 19:22:17.571 (   6.287s) [        56CD8000]     memory_instance.cc:57       1| MemoryInstance::getDevice
2025-09-09 19:22:17.571 (   6.287s) [        56CD8000]      event_instance.cc:222      1| EventInstance::PJRT_Event_OnReady
2025-09-09 19:22:17.571 (   6.287s) [        56CD8000]      event_instance.cc:171      1| EventInstance::PJRT_Event_Destroy
2025-09-09 19:22:17.572 (   6.287s) [        56CD8000]  device_description.cc:44       1| DeviceDescription::PJRT_DeviceDescription_Id
2025-09-09 19:22:17.572 (   6.287s) [        56CD8000]  device_description.cc:44       1| DeviceDescription::PJRT_DeviceDescription_Id
2025-09-09 19:22:17.572 (   6.288s) [        56CD8000]     device_instance.cc:82       1| DeviceInstance::PJRT_Device_DefaultMemory
2025-09-09 19:22:17.572 (   6.288s) [        56CD8000]     client_instance.cc:466      1| ClientInstance::PJRT_Client_BufferFromHostBuffer
2025-09-09 19:22:17.572 (   6.288s) [        56CD8000]     memory_instance.cc:57       1| MemoryInstance::getDevice
2025-09-09 19:22:17.572 (   6.288s) [        56CD8000]      event_instance.cc:222      1| EventInstance::PJRT_Event_OnReady
2025-09-09 19:22:17.572 (   6.288s) [        56CD8000]      event_instance.cc:171      1| EventInstance::PJRT_Event_Destroy
2025-09-09 19:22:17.572 (   6.288s) [        56CD8000]     device_instance.cc:82       1| DeviceInstance::PJRT_Device_DefaultMemory
2025-09-09 19:22:17.572 (   6.288s) [        56CD8000]     client_instance.cc:466      1| ClientInstance::PJRT_Client_BufferFromHostBuffer
2025-09-09 19:22:17.572 (   6.288s) [        56CD8000]     memory_instance.cc:57       1| MemoryInstance::getDevice
2025-09-09 19:22:17.572 (   6.288s) [        56CD8000]      event_instance.cc:222      1| EventInstance::PJRT_Event_OnReady
2025-09-09 19:22:17.572 (   6.288s) [        56CD8000]      event_instance.cc:171      1| EventInstance::PJRT_Event_Destroy
2025-09-09 19:22:17.572 (   6.288s) [        56CD8000]  device_description.cc:44       1| DeviceDescription::PJRT_DeviceDescription_Id
2025-09-09 19:22:17.573 (   6.288s) [        56CD8000]  device_description.cc:44       1| DeviceDescription::PJRT_DeviceDescription_Id
2025-09-09 19:22:17.573 (   6.289s) [        56CD8000]     device_instance.cc:82       1| DeviceInstance::PJRT_Device_DefaultMemory
2025-09-09 19:22:17.573 (   6.289s) [        56CD8000]     client_instance.cc:466      1| ClientInstance::PJRT_Client_BufferFromHostBuffer
2025-09-09 19:22:17.573 (   6.289s) [        56CD8000]     memory_instance.cc:57       1| MemoryInstance::getDevice
2025-09-09 19:22:17.573 (   6.289s) [        56CD8000]      event_instance.cc:222      1| EventInstance::PJRT_Event_OnReady
2025-09-09 19:22:17.573 (   6.289s) [        56CD8000]      event_instance.cc:171      1| EventInstance::PJRT_Event_Destroy
2025-09-09 19:22:17.573 (   6.289s) [        56CD8000]     device_instance.cc:82       1| DeviceInstance::PJRT_Device_DefaultMemory
2025-09-09 19:22:17.573 (   6.289s) [        56CD8000]     client_instance.cc:466      1| ClientInstance::PJRT_Client_BufferFromHostBuffer
2025-09-09 19:22:17.573 (   6.289s) [        56CD8000]     memory_instance.cc:57       1| MemoryInstance::getDevice
2025-09-09 19:22:17.573 (   6.289s) [        56CD8000]      event_instance.cc:222      1| EventInstance::PJRT_Event_OnReady
2025-09-09 19:22:17.573 (   6.289s) [        56CD8000]      event_instance.cc:171      1| EventInstance::PJRT_Event_Destroy
2025-09-09 19:22:17.573 (   6.289s) [        56CD8000]  device_description.cc:44       1| DeviceDescription::PJRT_DeviceDescription_Id
2025-09-09 19:22:17.574 (   6.289s) [        56CD8000]  device_description.cc:44       1| DeviceDescription::PJRT_DeviceDescription_Id
2025-09-09 19:22:17.575 (   6.291s) [        56CD8000]     device_instance.cc:82       1| DeviceInstance::PJRT_Device_DefaultMemory
2025-09-09 19:22:17.575 (   6.291s) [        56CD8000]     client_instance.cc:466      1| ClientInstance::PJRT_Client_BufferFromHostBuffer
2025-09-09 19:22:17.575 (   6.291s) [        56CD8000]     memory_instance.cc:57       1| MemoryInstance::getDevice
2025-09-09 19:22:17.575 (   6.291s) [        56CD8000]      event_instance.cc:222      1| EventInstance::PJRT_Event_OnReady
2025-09-09 19:22:17.575 (   6.291s) [        56CD8000]      event_instance.cc:171      1| EventInstance::PJRT_Event_Destroy
2025-09-09 19:22:17.575 (   6.291s) [        56CD8000]     device_instance.cc:82       1| DeviceInstance::PJRT_Device_DefaultMemory
2025-09-09 19:22:17.575 (   6.291s) [        56CD8000]     client_instance.cc:466      1| ClientInstance::PJRT_Client_BufferFromHostBuffer
2025-09-09 19:22:17.575 (   6.291s) [        56CD8000]     memory_instance.cc:57       1| MemoryInstance::getDevice
2025-09-09 19:22:17.575 (   6.291s) [        56CD8000]      event_instance.cc:222      1| EventInstance::PJRT_Event_OnReady
2025-09-09 19:22:17.575 (   6.291s) [        56CD8000]      event_instance.cc:171      1| EventInstance::PJRT_Event_Destroy
2025-09-09 19:22:17.575 (   6.291s) [        56CD8000]  device_description.cc:44       1| DeviceDescription::PJRT_DeviceDescription_Id
2025-09-09 19:22:17.575 (   6.291s) [        56CD8000]  device_description.cc:44       1| DeviceDescription::PJRT_DeviceDescription_Id
2025-09-09 19:22:17.581 (   6.297s) [        56CD8000]     device_instance.cc:82       1| DeviceInstance::PJRT_Device_DefaultMemory
2025-09-09 19:22:17.581 (   6.297s) [        56CD8000]     client_instance.cc:466      1| ClientInstance::PJRT_Client_BufferFromHostBuffer
2025-09-09 19:22:17.581 (   6.297s) [        56CD8000]     memory_instance.cc:57       1| MemoryInstance::getDevice
2025-09-09 19:22:17.581 (   6.297s) [        56CD8000]      event_instance.cc:222      1| EventInstance::PJRT_Event_OnReady
2025-09-09 19:22:17.581 (   6.297s) [        56CD8000]      event_instance.cc:171      1| EventInstance::PJRT_Event_Destroy
2025-09-09 19:22:17.581 (   6.297s) [        56CD8000]     device_instance.cc:82       1| DeviceInstance::PJRT_Device_DefaultMemory
2025-09-09 19:22:17.581 (   6.297s) [        56CD8000]     client_instance.cc:466      1| ClientInstance::PJRT_Client_BufferFromHostBuffer
2025-09-09 19:22:17.581 (   6.297s) [        56CD8000]     memory_instance.cc:57       1| MemoryInstance::getDevice
2025-09-09 19:22:17.581 (   6.297s) [        56CD8000]      event_instance.cc:222      1| EventInstance::PJRT_Event_OnReady
2025-09-09 19:22:17.582 (   6.297s) [        56CD8000]      event_instance.cc:171      1| EventInstance::PJRT_Event_Destroy
2025-09-09 19:22:17.585 (   6.300s) [        56CD8000]  device_description.cc:44       1| DeviceDescription::PJRT_DeviceDescription_Id
2025-09-09 19:22:17.585 (   6.300s) [        56CD8000]  device_description.cc:44       1| DeviceDescription::PJRT_DeviceDescription_Id
2025-09-09 19:22:17.591 (   6.307s) [        56CD8000]     device_instance.cc:82       1| DeviceInstance::PJRT_Device_DefaultMemory
2025-09-09 19:22:17.591 (   6.307s) [        56CD8000]     client_instance.cc:466      1| ClientInstance::PJRT_Client_BufferFromHostBuffer
2025-09-09 19:22:17.591 (   6.307s) [        56CD8000]     memory_instance.cc:57       1| MemoryInstance::getDevice
2025-09-09 19:22:17.591 (   6.307s) [        56CD8000]      event_instance.cc:222      1| EventInstance::PJRT_Event_OnReady
2025-09-09 19:22:17.591 (   6.307s) [        56CD8000]      event_instance.cc:171      1| EventInstance::PJRT_Event_Destroy
2025-09-09 19:22:17.591 (   6.307s) [        56CD8000]     device_instance.cc:82       1| DeviceInstance::PJRT_Device_DefaultMemory
2025-09-09 19:22:17.591 (   6.307s) [        56CD8000]     client_instance.cc:466      1| ClientInstance::PJRT_Client_BufferFromHostBuffer
2025-09-09 19:22:17.591 (   6.307s) [        56CD8000]     memory_instance.cc:57       1| MemoryInstance::getDevice
2025-09-09 19:22:17.591 (   6.307s) [        56CD8000]      event_instance.cc:222      1| EventInstance::PJRT_Event_OnReady
2025-09-09 19:22:17.591 (   6.307s) [        56CD8000]      event_instance.cc:171      1| EventInstance::PJRT_Event_Destroy
2025-09-09 19:22:17.594 (   6.310s) [        56CD8000]  device_description.cc:44       1| DeviceDescription::PJRT_DeviceDescription_Id
2025-09-09 19:22:17.594 (   6.310s) [        56CD8000]  device_description.cc:44       1| DeviceDescription::PJRT_DeviceDescription_Id
2025-09-09 19:22:17.603 (   6.318s) [        56CD8000]     device_instance.cc:82       1| DeviceInstance::PJRT_Device_DefaultMemory
2025-09-09 19:22:17.603 (   6.319s) [        56CD8000]     client_instance.cc:466      1| ClientInstance::PJRT_Client_BufferFromHostBuffer
2025-09-09 19:22:17.603 (   6.319s) [        56CD8000]     memory_instance.cc:57       1| MemoryInstance::getDevice
2025-09-09 19:22:17.603 (   6.319s) [        56CD8000]      event_instance.cc:222      1| EventInstance::PJRT_Event_OnReady
2025-09-09 19:22:17.603 (   6.319s) [        56CD8000]      event_instance.cc:171      1| EventInstance::PJRT_Event_Destroy
2025-09-09 19:22:17.603 (   6.319s) [        56CD8000]     device_instance.cc:82       1| DeviceInstance::PJRT_Device_DefaultMemory
2025-09-09 19:22:17.603 (   6.319s) [        56CD8000]     client_instance.cc:466      1| ClientInstance::PJRT_Client_BufferFromHostBuffer
2025-09-09 19:22:17.603 (   6.319s) [        56CD8000]     memory_instance.cc:57       1| MemoryInstance::getDevice
2025-09-09 19:22:17.603 (   6.319s) [        56CD8000]      event_instance.cc:222      1| EventInstance::PJRT_Event_OnReady
2025-09-09 19:22:17.603 (   6.319s) [        56CD8000]      event_instance.cc:171      1| EventInstance::PJRT_Event_Destroy
2025-09-09 19:22:17.606 (   6.322s) [        56CD8000]  device_description.cc:44       1| DeviceDescription::PJRT_DeviceDescription_Id
2025-09-09 19:22:17.606 (   6.322s) [        56CD8000]  device_description.cc:44       1| DeviceDescription::PJRT_DeviceDescription_Id
2025-09-09 19:22:17.608 (   6.324s) [        56CD8000]     device_instance.cc:82       1| DeviceInstance::PJRT_Device_DefaultMemory
2025-09-09 19:22:17.608 (   6.324s) [        56CD8000]     client_instance.cc:466      1| ClientInstance::PJRT_Client_BufferFromHostBuffer
2025-09-09 19:22:17.608 (   6.324s) [        56CD8000]     memory_instance.cc:57       1| MemoryInstance::getDevice
2025-09-09 19:22:17.608 (   6.324s) [        56CD8000]      event_instance.cc:222      1| EventInstance::PJRT_Event_OnReady
2025-09-09 19:22:17.608 (   6.324s) [        56CD8000]      event_instance.cc:171      1| EventInstance::PJRT_Event_Destroy
2025-09-09 19:22:17.608 (   6.324s) [        56CD8000]     device_instance.cc:82       1| DeviceInstance::PJRT_Device_DefaultMemory
2025-09-09 19:22:17.608 (   6.324s) [        56CD8000]     client_instance.cc:466      1| ClientInstance::PJRT_Client_BufferFromHostBuffer
2025-09-09 19:22:17.608 (   6.324s) [        56CD8000]     memory_instance.cc:57       1| MemoryInstance::getDevice
2025-09-09 19:22:17.608 (   6.324s) [        56CD8000]      event_instance.cc:222      1| EventInstance::PJRT_Event_OnReady
2025-09-09 19:22:17.608 (   6.324s) [        56CD8000]      event_instance.cc:171      1| EventInstance::PJRT_Event_Destroy
2025-09-09 19:22:17.608 (   6.324s) [        56CD8000]  device_description.cc:44       1| DeviceDescription::PJRT_DeviceDescription_Id
2025-09-09 19:22:17.608 (   6.324s) [        56CD8000]  device_description.cc:44       1| DeviceDescription::PJRT_DeviceDescription_Id
2025-09-09 19:22:17.609 (   6.325s) [        56CD8000]     device_instance.cc:82       1| DeviceInstance::PJRT_Device_DefaultMemory
2025-09-09 19:22:17.609 (   6.325s) [        56CD8000]     client_instance.cc:466      1| ClientInstance::PJRT_Client_BufferFromHostBuffer
2025-09-09 19:22:17.609 (   6.325s) [        56CD8000]     memory_instance.cc:57       1| MemoryInstance::getDevice
2025-09-09 19:22:17.609 (   6.325s) [        56CD8000]      event_instance.cc:222      1| EventInstance::PJRT_Event_OnReady
2025-09-09 19:22:17.609 (   6.325s) [        56CD8000]      event_instance.cc:171      1| EventInstance::PJRT_Event_Destroy
2025-09-09 19:22:17.609 (   6.325s) [        56CD8000]     device_instance.cc:82       1| DeviceInstance::PJRT_Device_DefaultMemory
2025-09-09 19:22:17.609 (   6.325s) [        56CD8000]     client_instance.cc:466      1| ClientInstance::PJRT_Client_BufferFromHostBuffer
2025-09-09 19:22:17.609 (   6.325s) [        56CD8000]     memory_instance.cc:57       1| MemoryInstance::getDevice
2025-09-09 19:22:17.609 (   6.325s) [        56CD8000]      event_instance.cc:222      1| EventInstance::PJRT_Event_OnReady
2025-09-09 19:22:17.609 (   6.325s) [        56CD8000]      event_instance.cc:171      1| EventInstance::PJRT_Event_Destroy
2025-09-09 19:22:17.609 (   6.325s) [        56CD8000]  device_description.cc:44       1| DeviceDescription::PJRT_DeviceDescription_Id
2025-09-09 19:22:17.609 (   6.325s) [        56CD8000]  device_description.cc:44       1| DeviceDescription::PJRT_DeviceDescription_Id
2025-09-09 19:22:17.610 (   6.326s) [        56CD8000]     device_instance.cc:82       1| DeviceInstance::PJRT_Device_DefaultMemory
2025-09-09 19:22:17.610 (   6.326s) [        56CD8000]     client_instance.cc:466      1| ClientInstance::PJRT_Client_BufferFromHostBuffer
2025-09-09 19:22:17.610 (   6.326s) [        56CD8000]     memory_instance.cc:57       1| MemoryInstance::getDevice
2025-09-09 19:22:17.610 (   6.326s) [        56CD8000]      event_instance.cc:222      1| EventInstance::PJRT_Event_OnReady
2025-09-09 19:22:17.610 (   6.326s) [        56CD8000]      event_instance.cc:171      1| EventInstance::PJRT_Event_Destroy
2025-09-09 19:22:17.610 (   6.326s) [        56CD8000]     device_instance.cc:82       1| DeviceInstance::PJRT_Device_DefaultMemory
2025-09-09 19:22:17.610 (   6.326s) [        56CD8000]     client_instance.cc:466      1| ClientInstance::PJRT_Client_BufferFromHostBuffer
2025-09-09 19:22:17.610 (   6.326s) [        56CD8000]     memory_instance.cc:57       1| MemoryInstance::getDevice
2025-09-09 19:22:17.610 (   6.326s) [        56CD8000]      event_instance.cc:222      1| EventInstance::PJRT_Event_OnReady
2025-09-09 19:22:17.610 (   6.326s) [        56CD8000]      event_instance.cc:171      1| EventInstance::PJRT_Event_Destroy
2025-09-09 19:22:17.610 (   6.326s) [        56CD8000]  device_description.cc:44       1| DeviceDescription::PJRT_DeviceDescription_Id
2025-09-09 19:22:17.610 (   6.326s) [        56CD8000]  device_description.cc:44       1| DeviceDescription::PJRT_DeviceDescription_Id
2025-09-09 19:22:17.612 (   6.328s) [        56CD8000]     device_instance.cc:82       1| DeviceInstance::PJRT_Device_DefaultMemory
2025-09-09 19:22:17.612 (   6.328s) [        56CD8000]     client_instance.cc:466      1| ClientInstance::PJRT_Client_BufferFromHostBuffer
2025-09-09 19:22:17.612 (   6.328s) [        56CD8000]     memory_instance.cc:57       1| MemoryInstance::getDevice
2025-09-09 19:22:17.612 (   6.328s) [        56CD8000]      event_instance.cc:222      1| EventInstance::PJRT_Event_OnReady
2025-09-09 19:22:17.612 (   6.328s) [        56CD8000]      event_instance.cc:171      1| EventInstance::PJRT_Event_Destroy
2025-09-09 19:22:17.612 (   6.328s) [        56CD8000]     device_instance.cc:82       1| DeviceInstance::PJRT_Device_DefaultMemory
2025-09-09 19:22:17.612 (   6.328s) [        56CD8000]     client_instance.cc:466      1| ClientInstance::PJRT_Client_BufferFromHostBuffer
2025-09-09 19:22:17.612 (   6.328s) [        56CD8000]     memory_instance.cc:57       1| MemoryInstance::getDevice
2025-09-09 19:22:17.612 (   6.328s) [        56CD8000]      event_instance.cc:222      1| EventInstance::PJRT_Event_OnReady
2025-09-09 19:22:17.612 (   6.328s) [        56CD8000]      event_instance.cc:171      1| EventInstance::PJRT_Event_Destroy
2025-09-09 19:22:17.612 (   6.328s) [        56CD8000]  device_description.cc:44       1| DeviceDescription::PJRT_DeviceDescription_Id
2025-09-09 19:22:17.612 (   6.328s) [        56CD8000]  device_description.cc:44       1| DeviceDescription::PJRT_DeviceDescription_Id
2025-09-09 19:22:17.618 (   6.334s) [        56CD8000]     device_instance.cc:82       1| DeviceInstance::PJRT_Device_DefaultMemory
2025-09-09 19:22:17.618 (   6.334s) [        56CD8000]     client_instance.cc:466      1| ClientInstance::PJRT_Client_BufferFromHostBuffer
2025-09-09 19:22:17.618 (   6.334s) [        56CD8000]     memory_instance.cc:57       1| MemoryInstance::getDevice
2025-09-09 19:22:17.618 (   6.334s) [        56CD8000]      event_instance.cc:222      1| EventInstance::PJRT_Event_OnReady
2025-09-09 19:22:17.618 (   6.334s) [        56CD8000]      event_instance.cc:171      1| EventInstance::PJRT_Event_Destroy
2025-09-09 19:22:17.618 (   6.334s) [        56CD8000]     device_instance.cc:82       1| DeviceInstance::PJRT_Device_DefaultMemory
2025-09-09 19:22:17.618 (   6.334s) [        56CD8000]     client_instance.cc:466      1| ClientInstance::PJRT_Client_BufferFromHostBuffer
2025-09-09 19:22:17.618 (   6.334s) [        56CD8000]     memory_instance.cc:57       1| MemoryInstance::getDevice
2025-09-09 19:22:17.619 (   6.334s) [        56CD8000]      event_instance.cc:222      1| EventInstance::PJRT_Event_OnReady
2025-09-09 19:22:17.619 (   6.334s) [        56CD8000]      event_instance.cc:171      1| EventInstance::PJRT_Event_Destroy
2025-09-09 19:22:17.622 (   6.337s) [        56CD8000]  device_description.cc:44       1| DeviceDescription::PJRT_DeviceDescription_Id
2025-09-09 19:22:17.622 (   6.337s) [        56CD8000]  device_description.cc:44       1| DeviceDescription::PJRT_DeviceDescription_Id
2025-09-09 19:22:17.627 (   6.343s) [        56CD8000]     device_instance.cc:82       1| DeviceInstance::PJRT_Device_DefaultMemory
2025-09-09 19:22:17.627 (   6.343s) [        56CD8000]     client_instance.cc:466      1| ClientInstance::PJRT_Client_BufferFromHostBuffer
2025-09-09 19:22:17.627 (   6.343s) [        56CD8000]     memory_instance.cc:57       1| MemoryInstance::getDevice
2025-09-09 19:22:17.628 (   6.343s) [        56CD8000]      event_instance.cc:222      1| EventInstance::PJRT_Event_OnReady
2025-09-09 19:22:17.628 (   6.343s) [        56CD8000]      event_instance.cc:171      1| EventInstance::PJRT_Event_Destroy
2025-09-09 19:22:17.628 (   6.344s) [        56CD8000]     device_instance.cc:82       1| DeviceInstance::PJRT_Device_DefaultMemory
2025-09-09 19:22:17.628 (   6.344s) [        56CD8000]     client_instance.cc:466      1| ClientInstance::PJRT_Client_BufferFromHostBuffer
2025-09-09 19:22:17.628 (   6.344s) [        56CD8000]     memory_instance.cc:57       1| MemoryInstance::getDevice
2025-09-09 19:22:17.628 (   6.344s) [        56CD8000]      event_instance.cc:222      1| EventInstance::PJRT_Event_OnReady
2025-09-09 19:22:17.628 (   6.344s) [        56CD8000]      event_instance.cc:171      1| EventInstance::PJRT_Event_Destroy
2025-09-09 19:22:17.631 (   6.347s) [        56CD8000]  device_description.cc:44       1| DeviceDescription::PJRT_DeviceDescription_Id
2025-09-09 19:22:17.631 (   6.347s) [        56CD8000]  device_description.cc:44       1| DeviceDescription::PJRT_DeviceDescription_Id
2025-09-09 19:22:17.640 (   6.355s) [        56CD8000]     device_instance.cc:82       1| DeviceInstance::PJRT_Device_DefaultMemory
2025-09-09 19:22:17.640 (   6.355s) [        56CD8000]     client_instance.cc:466      1| ClientInstance::PJRT_Client_BufferFromHostBuffer
2025-09-09 19:22:17.640 (   6.355s) [        56CD8000]     memory_instance.cc:57       1| MemoryInstance::getDevice
2025-09-09 19:22:17.640 (   6.356s) [        56CD8000]      event_instance.cc:222      1| EventInstance::PJRT_Event_OnReady
2025-09-09 19:22:17.640 (   6.356s) [        56CD8000]      event_instance.cc:171      1| EventInstance::PJRT_Event_Destroy
2025-09-09 19:22:17.640 (   6.356s) [        56CD8000]     device_instance.cc:82       1| DeviceInstance::PJRT_Device_DefaultMemory
2025-09-09 19:22:17.640 (   6.356s) [        56CD8000]     client_instance.cc:466      1| ClientInstance::PJRT_Client_BufferFromHostBuffer
2025-09-09 19:22:17.640 (   6.356s) [        56CD8000]     memory_instance.cc:57       1| MemoryInstance::getDevice
2025-09-09 19:22:17.640 (   6.356s) [        56CD8000]      event_instance.cc:222      1| EventInstance::PJRT_Event_OnReady
2025-09-09 19:22:17.640 (   6.356s) [        56CD8000]      event_instance.cc:171      1| EventInstance::PJRT_Event_Destroy
2025-09-09 19:22:17.643 (   6.359s) [        56CD8000]  device_description.cc:44       1| DeviceDescription::PJRT_DeviceDescription_Id
2025-09-09 19:22:17.643 (   6.359s) [        56CD8000]  device_description.cc:44       1| DeviceDescription::PJRT_DeviceDescription_Id
2025-09-09 19:22:17.645 (   6.361s) [        56CD8000]     device_instance.cc:82       1| DeviceInstance::PJRT_Device_DefaultMemory
2025-09-09 19:22:17.645 (   6.361s) [        56CD8000]     client_instance.cc:466      1| ClientInstance::PJRT_Client_BufferFromHostBuffer
2025-09-09 19:22:17.645 (   6.361s) [        56CD8000]     memory_instance.cc:57       1| MemoryInstance::getDevice
2025-09-09 19:22:17.645 (   6.361s) [        56CD8000]      event_instance.cc:222      1| EventInstance::PJRT_Event_OnReady
2025-09-09 19:22:17.645 (   6.361s) [        56CD8000]      event_instance.cc:171      1| EventInstance::PJRT_Event_Destroy
2025-09-09 19:22:17.645 (   6.361s) [        56CD8000]     device_instance.cc:82       1| DeviceInstance::PJRT_Device_DefaultMemory
2025-09-09 19:22:17.645 (   6.361s) [        56CD8000]     client_instance.cc:466      1| ClientInstance::PJRT_Client_BufferFromHostBuffer
2025-09-09 19:22:17.645 (   6.361s) [        56CD8000]     memory_instance.cc:57       1| MemoryInstance::getDevice
2025-09-09 19:22:17.645 (   6.361s) [        56CD8000]      event_instance.cc:222      1| EventInstance::PJRT_Event_OnReady
2025-09-09 19:22:17.645 (   6.361s) [        56CD8000]      event_instance.cc:171      1| EventInstance::PJRT_Event_Destroy
2025-09-09 19:22:17.645 (   6.361s) [        56CD8000]  device_description.cc:44       1| DeviceDescription::PJRT_DeviceDescription_Id
2025-09-09 19:22:17.645 (   6.361s) [        56CD8000]  device_description.cc:44       1| DeviceDescription::PJRT_DeviceDescription_Id
2025-09-09 19:22:17.646 (   6.362s) [        56CD8000]     device_instance.cc:82       1| DeviceInstance::PJRT_Device_DefaultMemory
2025-09-09 19:22:17.646 (   6.362s) [        56CD8000]     client_instance.cc:466      1| ClientInstance::PJRT_Client_BufferFromHostBuffer
2025-09-09 19:22:17.646 (   6.362s) [        56CD8000]     memory_instance.cc:57       1| MemoryInstance::getDevice
2025-09-09 19:22:17.646 (   6.362s) [        56CD8000]      event_instance.cc:222      1| EventInstance::PJRT_Event_OnReady
2025-09-09 19:22:17.646 (   6.362s) [        56CD8000]      event_instance.cc:171      1| EventInstance::PJRT_Event_Destroy
2025-09-09 19:22:17.646 (   6.362s) [        56CD8000]     device_instance.cc:82       1| DeviceInstance::PJRT_Device_DefaultMemory
2025-09-09 19:22:17.646 (   6.362s) [        56CD8000]     client_instance.cc:466      1| ClientInstance::PJRT_Client_BufferFromHostBuffer
2025-09-09 19:22:17.646 (   6.362s) [        56CD8000]     memory_instance.cc:57       1| MemoryInstance::getDevice
2025-09-09 19:22:17.646 (   6.362s) [        56CD8000]      event_instance.cc:222      1| EventInstance::PJRT_Event_OnReady
2025-09-09 19:22:17.646 (   6.362s) [        56CD8000]      event_instance.cc:171      1| EventInstance::PJRT_Event_Destroy
2025-09-09 19:22:17.646 (   6.362s) [        56CD8000]  device_description.cc:44       1| DeviceDescription::PJRT_DeviceDescription_Id
2025-09-09 19:22:17.646 (   6.362s) [        56CD8000]  device_description.cc:44       1| DeviceDescription::PJRT_DeviceDescription_Id
2025-09-09 19:22:17.647 (   6.363s) [        56CD8000]     device_instance.cc:82       1| DeviceInstance::PJRT_Device_DefaultMemory
2025-09-09 19:22:17.647 (   6.363s) [        56CD8000]     client_instance.cc:466      1| ClientInstance::PJRT_Client_BufferFromHostBuffer
2025-09-09 19:22:17.647 (   6.363s) [        56CD8000]     memory_instance.cc:57       1| MemoryInstance::getDevice
2025-09-09 19:22:17.647 (   6.363s) [        56CD8000]      event_instance.cc:222      1| EventInstance::PJRT_Event_OnReady
2025-09-09 19:22:17.647 (   6.363s) [        56CD8000]      event_instance.cc:171      1| EventInstance::PJRT_Event_Destroy
2025-09-09 19:22:17.647 (   6.363s) [        56CD8000]     device_instance.cc:82       1| DeviceInstance::PJRT_Device_DefaultMemory
2025-09-09 19:22:17.647 (   6.363s) [        56CD8000]     client_instance.cc:466      1| ClientInstance::PJRT_Client_BufferFromHostBuffer
2025-09-09 19:22:17.647 (   6.363s) [        56CD8000]     memory_instance.cc:57       1| MemoryInstance::getDevice
2025-09-09 19:22:17.647 (   6.363s) [        56CD8000]      event_instance.cc:222      1| EventInstance::PJRT_Event_OnReady
2025-09-09 19:22:17.647 (   6.363s) [        56CD8000]      event_instance.cc:171      1| EventInstance::PJRT_Event_Destroy
2025-09-09 19:22:17.647 (   6.363s) [        56CD8000]  device_description.cc:44       1| DeviceDescription::PJRT_DeviceDescription_Id
2025-09-09 19:22:17.647 (   6.363s) [        56CD8000]  device_description.cc:44       1| DeviceDescription::PJRT_DeviceDescription_Id
2025-09-09 19:22:17.649 (   6.365s) [        56CD8000]     device_instance.cc:82       1| DeviceInstance::PJRT_Device_DefaultMemory
2025-09-09 19:22:17.649 (   6.365s) [        56CD8000]     client_instance.cc:466      1| ClientInstance::PJRT_Client_BufferFromHostBuffer
2025-09-09 19:22:17.649 (   6.365s) [        56CD8000]     memory_instance.cc:57       1| MemoryInstance::getDevice
2025-09-09 19:22:17.649 (   6.365s) [        56CD8000]      event_instance.cc:222      1| EventInstance::PJRT_Event_OnReady
2025-09-09 19:22:17.649 (   6.365s) [        56CD8000]      event_instance.cc:171      1| EventInstance::PJRT_Event_Destroy
2025-09-09 19:22:17.649 (   6.365s) [        56CD8000]     device_instance.cc:82       1| DeviceInstance::PJRT_Device_DefaultMemory
2025-09-09 19:22:17.649 (   6.365s) [        56CD8000]     client_instance.cc:466      1| ClientInstance::PJRT_Client_BufferFromHostBuffer
2025-09-09 19:22:17.649 (   6.365s) [        56CD8000]     memory_instance.cc:57       1| MemoryInstance::getDevice
2025-09-09 19:22:17.649 (   6.365s) [        56CD8000]      event_instance.cc:222      1| EventInstance::PJRT_Event_OnReady
2025-09-09 19:22:17.649 (   6.365s) [        56CD8000]      event_instance.cc:171      1| EventInstance::PJRT_Event_Destroy
2025-09-09 19:22:17.649 (   6.365s) [        56CD8000]  device_description.cc:44       1| DeviceDescription::PJRT_DeviceDescription_Id
2025-09-09 19:22:17.649 (   6.365s) [        56CD8000]  device_description.cc:44       1| DeviceDescription::PJRT_DeviceDescription_Id
2025-09-09 19:22:17.655 (   6.371s) [        56CD8000]     device_instance.cc:82       1| DeviceInstance::PJRT_Device_DefaultMemory
2025-09-09 19:22:17.655 (   6.371s) [        56CD8000]     client_instance.cc:466      1| ClientInstance::PJRT_Client_BufferFromHostBuffer
2025-09-09 19:22:17.655 (   6.371s) [        56CD8000]     memory_instance.cc:57       1| MemoryInstance::getDevice
2025-09-09 19:22:17.655 (   6.371s) [        56CD8000]      event_instance.cc:222      1| EventInstance::PJRT_Event_OnReady
2025-09-09 19:22:17.655 (   6.371s) [        56CD8000]      event_instance.cc:171      1| EventInstance::PJRT_Event_Destroy
2025-09-09 19:22:17.655 (   6.371s) [        56CD8000]     device_instance.cc:82       1| DeviceInstance::PJRT_Device_DefaultMemory
2025-09-09 19:22:17.655 (   6.371s) [        56CD8000]     client_instance.cc:466      1| ClientInstance::PJRT_Client_BufferFromHostBuffer
2025-09-09 19:22:17.655 (   6.371s) [        56CD8000]     memory_instance.cc:57       1| MemoryInstance::getDevice
2025-09-09 19:22:17.655 (   6.371s) [        56CD8000]      event_instance.cc:222      1| EventInstance::PJRT_Event_OnReady
2025-09-09 19:22:17.655 (   6.371s) [        56CD8000]      event_instance.cc:171      1| EventInstance::PJRT_Event_Destroy
2025-09-09 19:22:17.658 (   6.374s) [        56CD8000]  device_description.cc:44       1| DeviceDescription::PJRT_DeviceDescription_Id
2025-09-09 19:22:17.658 (   6.374s) [        56CD8000]  device_description.cc:44       1| DeviceDescription::PJRT_DeviceDescription_Id
2025-09-09 19:22:17.664 (   6.380s) [        56CD8000]     device_instance.cc:82       1| DeviceInstance::PJRT_Device_DefaultMemory
2025-09-09 19:22:17.664 (   6.380s) [        56CD8000]     client_instance.cc:466      1| ClientInstance::PJRT_Client_BufferFromHostBuffer
2025-09-09 19:22:17.664 (   6.380s) [        56CD8000]     memory_instance.cc:57       1| MemoryInstance::getDevice
2025-09-09 19:22:17.664 (   6.380s) [        56CD8000]      event_instance.cc:222      1| EventInstance::PJRT_Event_OnReady
2025-09-09 19:22:17.664 (   6.380s) [        56CD8000]      event_instance.cc:171      1| EventInstance::PJRT_Event_Destroy
2025-09-09 19:22:17.664 (   6.380s) [        56CD8000]     device_instance.cc:82       1| DeviceInstance::PJRT_Device_DefaultMemory
2025-09-09 19:22:17.664 (   6.380s) [        56CD8000]     client_instance.cc:466      1| ClientInstance::PJRT_Client_BufferFromHostBuffer
2025-09-09 19:22:17.664 (   6.380s) [        56CD8000]     memory_instance.cc:57       1| MemoryInstance::getDevice
2025-09-09 19:22:17.665 (   6.380s) [        56CD8000]      event_instance.cc:222      1| EventInstance::PJRT_Event_OnReady
2025-09-09 19:22:17.665 (   6.380s) [        56CD8000]      event_instance.cc:171      1| EventInstance::PJRT_Event_Destroy
2025-09-09 19:22:17.668 (   6.383s) [        56CD8000]  device_description.cc:44       1| DeviceDescription::PJRT_DeviceDescription_Id
2025-09-09 19:22:17.668 (   6.383s) [        56CD8000]  device_description.cc:44       1| DeviceDescription::PJRT_DeviceDescription_Id
2025-09-09 19:22:17.676 (   6.392s) [        56CD8000]     device_instance.cc:82       1| DeviceInstance::PJRT_Device_DefaultMemory
2025-09-09 19:22:17.676 (   6.392s) [        56CD8000]     client_instance.cc:466      1| ClientInstance::PJRT_Client_BufferFromHostBuffer
2025-09-09 19:22:17.676 (   6.392s) [        56CD8000]     memory_instance.cc:57       1| MemoryInstance::getDevice
2025-09-09 19:22:17.676 (   6.392s) [        56CD8000]      event_instance.cc:222      1| EventInstance::PJRT_Event_OnReady
2025-09-09 19:22:17.676 (   6.392s) [        56CD8000]      event_instance.cc:171      1| EventInstance::PJRT_Event_Destroy
2025-09-09 19:22:17.676 (   6.392s) [        56CD8000]     device_instance.cc:82       1| DeviceInstance::PJRT_Device_DefaultMemory
2025-09-09 19:22:17.676 (   6.392s) [        56CD8000]     client_instance.cc:466      1| ClientInstance::PJRT_Client_BufferFromHostBuffer
2025-09-09 19:22:17.676 (   6.392s) [        56CD8000]     memory_instance.cc:57       1| MemoryInstance::getDevice
2025-09-09 19:22:17.677 (   6.392s) [        56CD8000]      event_instance.cc:222      1| EventInstance::PJRT_Event_OnReady
2025-09-09 19:22:17.677 (   6.392s) [        56CD8000]      event_instance.cc:171      1| EventInstance::PJRT_Event_Destroy
2025-09-09 19:22:17.680 (   6.395s) [        56CD8000]  device_description.cc:44       1| DeviceDescription::PJRT_DeviceDescription_Id
2025-09-09 19:22:17.680 (   6.395s) [        56CD8000]  device_description.cc:44       1| DeviceDescription::PJRT_DeviceDescription_Id
2025-09-09 19:22:17.681 (   6.397s) [        56CD8000]     device_instance.cc:82       1| DeviceInstance::PJRT_Device_DefaultMemory
2025-09-09 19:22:17.681 (   6.397s) [        56CD8000]     client_instance.cc:466      1| ClientInstance::PJRT_Client_BufferFromHostBuffer
2025-09-09 19:22:17.681 (   6.397s) [        56CD8000]     memory_instance.cc:57       1| MemoryInstance::getDevice
2025-09-09 19:22:17.681 (   6.397s) [        56CD8000]      event_instance.cc:222      1| EventInstance::PJRT_Event_OnReady
2025-09-09 19:22:17.681 (   6.397s) [        56CD8000]      event_instance.cc:171      1| EventInstance::PJRT_Event_Destroy
2025-09-09 19:22:17.681 (   6.397s) [        56CD8000]     device_instance.cc:82       1| DeviceInstance::PJRT_Device_DefaultMemory
2025-09-09 19:22:17.682 (   6.397s) [        56CD8000]     client_instance.cc:466      1| ClientInstance::PJRT_Client_BufferFromHostBuffer
2025-09-09 19:22:17.682 (   6.397s) [        56CD8000]     memory_instance.cc:57       1| MemoryInstance::getDevice
2025-09-09 19:22:17.682 (   6.397s) [        56CD8000]      event_instance.cc:222      1| EventInstance::PJRT_Event_OnReady
2025-09-09 19:22:17.682 (   6.397s) [        56CD8000]      event_instance.cc:171      1| EventInstance::PJRT_Event_Destroy
2025-09-09 19:22:17.682 (   6.398s) [        56CD8000]  device_description.cc:44       1| DeviceDescription::PJRT_DeviceDescription_Id
2025-09-09 19:22:17.682 (   6.398s) [        56CD8000]  device_description.cc:44       1| DeviceDescription::PJRT_DeviceDescription_Id
2025-09-09 19:22:17.682 (   6.398s) [        56CD8000]     device_instance.cc:82       1| DeviceInstance::PJRT_Device_DefaultMemory
2025-09-09 19:22:17.682 (   6.398s) [        56CD8000]     client_instance.cc:466      1| ClientInstance::PJRT_Client_BufferFromHostBuffer
2025-09-09 19:22:17.682 (   6.398s) [        56CD8000]     memory_instance.cc:57       1| MemoryInstance::getDevice
2025-09-09 19:22:17.682 (   6.398s) [        56CD8000]      event_instance.cc:222      1| EventInstance::PJRT_Event_OnReady
2025-09-09 19:22:17.682 (   6.398s) [        56CD8000]      event_instance.cc:171      1| EventInstance::PJRT_Event_Destroy
2025-09-09 19:22:17.682 (   6.398s) [        56CD8000]     device_instance.cc:82       1| DeviceInstance::PJRT_Device_DefaultMemory
2025-09-09 19:22:17.682 (   6.398s) [        56CD8000]     client_instance.cc:466      1| ClientInstance::PJRT_Client_BufferFromHostBuffer
2025-09-09 19:22:17.683 (   6.398s) [        56CD8000]     memory_instance.cc:57       1| MemoryInstance::getDevice
2025-09-09 19:22:17.683 (   6.398s) [        56CD8000]      event_instance.cc:222      1| EventInstance::PJRT_Event_OnReady
2025-09-09 19:22:17.683 (   6.398s) [        56CD8000]      event_instance.cc:171      1| EventInstance::PJRT_Event_Destroy
2025-09-09 19:22:17.683 (   6.399s) [        56CD8000]  device_description.cc:44       1| DeviceDescription::PJRT_DeviceDescription_Id
2025-09-09 19:22:17.683 (   6.399s) [        56CD8000]  device_description.cc:44       1| DeviceDescription::PJRT_DeviceDescription_Id
2025-09-09 19:22:17.683 (   6.399s) [        56CD8000]     device_instance.cc:82       1| DeviceInstance::PJRT_Device_DefaultMemory
2025-09-09 19:22:17.683 (   6.399s) [        56CD8000]     client_instance.cc:466      1| ClientInstance::PJRT_Client_BufferFromHostBuffer
2025-09-09 19:22:17.683 (   6.399s) [        56CD8000]     memory_instance.cc:57       1| MemoryInstance::getDevice
2025-09-09 19:22:17.683 (   6.399s) [        56CD8000]      event_instance.cc:222      1| EventInstance::PJRT_Event_OnReady
2025-09-09 19:22:17.683 (   6.399s) [        56CD8000]      event_instance.cc:171      1| EventInstance::PJRT_Event_Destroy
2025-09-09 19:22:17.683 (   6.399s) [        56CD8000]     device_instance.cc:82       1| DeviceInstance::PJRT_Device_DefaultMemory
2025-09-09 19:22:17.683 (   6.399s) [        56CD8000]     client_instance.cc:466      1| ClientInstance::PJRT_Client_BufferFromHostBuffer
2025-09-09 19:22:17.683 (   6.399s) [        56CD8000]     memory_instance.cc:57       1| MemoryInstance::getDevice
2025-09-09 19:22:17.683 (   6.399s) [        56CD8000]      event_instance.cc:222      1| EventInstance::PJRT_Event_OnReady
2025-09-09 19:22:17.684 (   6.399s) [        56CD8000]      event_instance.cc:171      1| EventInstance::PJRT_Event_Destroy
2025-09-09 19:22:17.684 (   6.399s) [        56CD8000]  device_description.cc:44       1| DeviceDescription::PJRT_DeviceDescription_Id
2025-09-09 19:22:17.684 (   6.400s) [        56CD8000]  device_description.cc:44       1| DeviceDescription::PJRT_DeviceDescription_Id
2025-09-09 19:22:17.685 (   6.401s) [        56CD8000]     device_instance.cc:82       1| DeviceInstance::PJRT_Device_DefaultMemory
2025-09-09 19:22:17.685 (   6.401s) [        56CD8000]     client_instance.cc:466      1| ClientInstance::PJRT_Client_BufferFromHostBuffer
2025-09-09 19:22:17.685 (   6.401s) [        56CD8000]     memory_instance.cc:57       1| MemoryInstance::getDevice
2025-09-09 19:22:17.686 (   6.401s) [        56CD8000]      event_instance.cc:222      1| EventInstance::PJRT_Event_OnReady
2025-09-09 19:22:17.686 (   6.401s) [        56CD8000]      event_instance.cc:171      1| EventInstance::PJRT_Event_Destroy
2025-09-09 19:22:17.686 (   6.401s) [        56CD8000]     device_instance.cc:82       1| DeviceInstance::PJRT_Device_DefaultMemory
2025-09-09 19:22:17.686 (   6.401s) [        56CD8000]     client_instance.cc:466      1| ClientInstance::PJRT_Client_BufferFromHostBuffer
2025-09-09 19:22:17.686 (   6.401s) [        56CD8000]     memory_instance.cc:57       1| MemoryInstance::getDevice
2025-09-09 19:22:17.686 (   6.402s) [        56CD8000]      event_instance.cc:222      1| EventInstance::PJRT_Event_OnReady
2025-09-09 19:22:17.686 (   6.402s) [        56CD8000]      event_instance.cc:171      1| EventInstance::PJRT_Event_Destroy
2025-09-09 19:22:17.686 (   6.402s) [        56CD8000]  device_description.cc:44       1| DeviceDescription::PJRT_DeviceDescription_Id
2025-09-09 19:22:17.686 (   6.402s) [        56CD8000]  device_description.cc:44       1| DeviceDescription::PJRT_DeviceDescription_Id
2025-09-09 19:22:17.692 (   6.408s) [        56CD8000]     device_instance.cc:82       1| DeviceInstance::PJRT_Device_DefaultMemory
2025-09-09 19:22:17.692 (   6.408s) [        56CD8000]     client_instance.cc:466      1| ClientInstance::PJRT_Client_BufferFromHostBuffer
2025-09-09 19:22:17.692 (   6.408s) [        56CD8000]     memory_instance.cc:57       1| MemoryInstance::getDevice
2025-09-09 19:22:17.692 (   6.408s) [        56CD8000]      event_instance.cc:222      1| EventInstance::PJRT_Event_OnReady
2025-09-09 19:22:17.692 (   6.408s) [        56CD8000]      event_instance.cc:171      1| EventInstance::PJRT_Event_Destroy
2025-09-09 19:22:17.692 (   6.408s) [        56CD8000]     device_instance.cc:82       1| DeviceInstance::PJRT_Device_DefaultMemory
2025-09-09 19:22:17.692 (   6.408s) [        56CD8000]     client_instance.cc:466      1| ClientInstance::PJRT_Client_BufferFromHostBuffer
2025-09-09 19:22:17.692 (   6.408s) [        56CD8000]     memory_instance.cc:57       1| MemoryInstance::getDevice
2025-09-09 19:22:17.692 (   6.408s) [        56CD8000]      event_instance.cc:222      1| EventInstance::PJRT_Event_OnReady
2025-09-09 19:22:17.692 (   6.408s) [        56CD8000]      event_instance.cc:171      1| EventInstance::PJRT_Event_Destroy
2025-09-09 19:22:17.695 (   6.411s) [        56CD8000]  device_description.cc:44       1| DeviceDescription::PJRT_DeviceDescription_Id
2025-09-09 19:22:17.695 (   6.411s) [        56CD8000]  device_description.cc:44       1| DeviceDescription::PJRT_DeviceDescription_Id
2025-09-09 19:22:17.701 (   6.417s) [        56CD8000]     device_instance.cc:82       1| DeviceInstance::PJRT_Device_DefaultMemory
2025-09-09 19:22:17.701 (   6.417s) [        56CD8000]     client_instance.cc:466      1| ClientInstance::PJRT_Client_BufferFromHostBuffer
2025-09-09 19:22:17.701 (   6.417s) [        56CD8000]     memory_instance.cc:57       1| MemoryInstance::getDevice
2025-09-09 19:22:17.702 (   6.417s) [        56CD8000]      event_instance.cc:222      1| EventInstance::PJRT_Event_OnReady
2025-09-09 19:22:17.702 (   6.417s) [        56CD8000]      event_instance.cc:171      1| EventInstance::PJRT_Event_Destroy
2025-09-09 19:22:17.702 (   6.417s) [        56CD8000]     device_instance.cc:82       1| DeviceInstance::PJRT_Device_DefaultMemory
2025-09-09 19:22:17.702 (   6.417s) [        56CD8000]     client_instance.cc:466      1| ClientInstance::PJRT_Client_BufferFromHostBuffer
2025-09-09 19:22:17.702 (   6.418s) [        56CD8000]     memory_instance.cc:57       1| MemoryInstance::getDevice
2025-09-09 19:22:17.702 (   6.418s) [        56CD8000]      event_instance.cc:222      1| EventInstance::PJRT_Event_OnReady
2025-09-09 19:22:17.702 (   6.418s) [        56CD8000]      event_instance.cc:171      1| EventInstance::PJRT_Event_Destroy
2025-09-09 19:22:17.705 (   6.421s) [        56CD8000]  device_description.cc:44       1| DeviceDescription::PJRT_DeviceDescription_Id
2025-09-09 19:22:17.705 (   6.421s) [        56CD8000]  device_description.cc:44       1| DeviceDescription::PJRT_DeviceDescription_Id
2025-09-09 19:22:17.713 (   6.429s) [        56CD8000]     device_instance.cc:82       1| DeviceInstance::PJRT_Device_DefaultMemory
2025-09-09 19:22:17.713 (   6.429s) [        56CD8000]     client_instance.cc:466      1| ClientInstance::PJRT_Client_BufferFromHostBuffer
2025-09-09 19:22:17.713 (   6.429s) [        56CD8000]     memory_instance.cc:57       1| MemoryInstance::getDevice
2025-09-09 19:22:17.713 (   6.429s) [        56CD8000]      event_instance.cc:222      1| EventInstance::PJRT_Event_OnReady
2025-09-09 19:22:17.713 (   6.429s) [        56CD8000]      event_instance.cc:171      1| EventInstance::PJRT_Event_Destroy
2025-09-09 19:22:17.714 (   6.429s) [        56CD8000]     device_instance.cc:82       1| DeviceInstance::PJRT_Device_DefaultMemory
2025-09-09 19:22:17.714 (   6.429s) [        56CD8000]     client_instance.cc:466      1| ClientInstance::PJRT_Client_BufferFromHostBuffer
2025-09-09 19:22:17.714 (   6.429s) [        56CD8000]     memory_instance.cc:57       1| MemoryInstance::getDevice
2025-09-09 19:22:17.714 (   6.430s) [        56CD8000]      event_instance.cc:222      1| EventInstance::PJRT_Event_OnReady
2025-09-09 19:22:17.714 (   6.430s) [        56CD8000]      event_instance.cc:171      1| EventInstance::PJRT_Event_Destroy
2025-09-09 19:22:17.717 (   6.433s) [        56CD8000]  device_description.cc:44       1| DeviceDescription::PJRT_DeviceDescription_Id
2025-09-09 19:22:17.717 (   6.433s) [        56CD8000]  device_description.cc:44       1| DeviceDescription::PJRT_DeviceDescription_Id
2025-09-09 19:22:17.718 (   6.434s) [        56CD8000]     device_instance.cc:82       1| DeviceInstance::PJRT_Device_DefaultMemory
2025-09-09 19:22:17.718 (   6.434s) [        56CD8000]     client_instance.cc:466      1| ClientInstance::PJRT_Client_BufferFromHostBuffer
2025-09-09 19:22:17.718 (   6.434s) [        56CD8000]     memory_instance.cc:57       1| MemoryInstance::getDevice
2025-09-09 19:22:17.719 (   6.434s) [        56CD8000]      event_instance.cc:222      1| EventInstance::PJRT_Event_OnReady
2025-09-09 19:22:17.719 (   6.434s) [        56CD8000]      event_instance.cc:171      1| EventInstance::PJRT_Event_Destroy
2025-09-09 19:22:17.719 (   6.435s) [        56CD8000]     device_instance.cc:82       1| DeviceInstance::PJRT_Device_DefaultMemory
2025-09-09 19:22:17.719 (   6.435s) [        56CD8000]     client_instance.cc:466      1| ClientInstance::PJRT_Client_BufferFromHostBuffer
2025-09-09 19:22:17.719 (   6.435s) [        56CD8000]     memory_instance.cc:57       1| MemoryInstance::getDevice
2025-09-09 19:22:17.719 (   6.435s) [        56CD8000]      event_instance.cc:222      1| EventInstance::PJRT_Event_OnReady
2025-09-09 19:22:17.719 (   6.435s) [        56CD8000]      event_instance.cc:171      1| EventInstance::PJRT_Event_Destroy
2025-09-09 19:22:17.719 (   6.435s) [        56CD8000]  device_description.cc:44       1| DeviceDescription::PJRT_DeviceDescription_Id
2025-09-09 19:22:17.719 (   6.435s) [        56CD8000]  device_description.cc:44       1| DeviceDescription::PJRT_DeviceDescription_Id
2025-09-09 19:22:17.719 (   6.435s) [        56CD8000]     device_instance.cc:82       1| DeviceInstance::PJRT_Device_DefaultMemory
2025-09-09 19:22:17.719 (   6.435s) [        56CD8000]     client_instance.cc:466      1| ClientInstance::PJRT_Client_BufferFromHostBuffer
2025-09-09 19:22:17.720 (   6.435s) [        56CD8000]     memory_instance.cc:57       1| MemoryInstance::getDevice
2025-09-09 19:22:17.720 (   6.435s) [        56CD8000]      event_instance.cc:222      1| EventInstance::PJRT_Event_OnReady
2025-09-09 19:22:17.720 (   6.435s) [        56CD8000]      event_instance.cc:171      1| EventInstance::PJRT_Event_Destroy
2025-09-09 19:22:17.720 (   6.436s) [        56CD8000]     device_instance.cc:82       1| DeviceInstance::PJRT_Device_DefaultMemory
2025-09-09 19:22:17.720 (   6.436s) [        56CD8000]     client_instance.cc:466      1| ClientInstance::PJRT_Client_BufferFromHostBuffer
2025-09-09 19:22:17.720 (   6.436s) [        56CD8000]     memory_instance.cc:57       1| MemoryInstance::getDevice
2025-09-09 19:22:17.720 (   6.436s) [        56CD8000]      event_instance.cc:222      1| EventInstance::PJRT_Event_OnReady
2025-09-09 19:22:17.720 (   6.436s) [        56CD8000]      event_instance.cc:171      1| EventInstance::PJRT_Event_Destroy
2025-09-09 19:22:17.720 (   6.436s) [        56CD8000]  device_description.cc:44       1| DeviceDescription::PJRT_DeviceDescription_Id
2025-09-09 19:22:17.720 (   6.436s) [        56CD8000]  device_description.cc:44       1| DeviceDescription::PJRT_DeviceDescription_Id
2025-09-09 19:22:17.721 (   6.437s) [        56CD8000]     device_instance.cc:82       1| DeviceInstance::PJRT_Device_DefaultMemory
2025-09-09 19:22:17.721 (   6.437s) [        56CD8000]     client_instance.cc:466      1| ClientInstance::PJRT_Client_BufferFromHostBuffer
2025-09-09 19:22:17.721 (   6.437s) [        56CD8000]     memory_instance.cc:57       1| MemoryInstance::getDevice
2025-09-09 19:22:17.721 (   6.437s) [        56CD8000]      event_instance.cc:222      1| EventInstance::PJRT_Event_OnReady
2025-09-09 19:22:17.721 (   6.437s) [        56CD8000]      event_instance.cc:171      1| EventInstance::PJRT_Event_Destroy
2025-09-09 19:22:17.721 (   6.437s) [        56CD8000]     device_instance.cc:82       1| DeviceInstance::PJRT_Device_DefaultMemory
2025-09-09 19:22:17.721 (   6.437s) [        56CD8000]     client_instance.cc:466      1| ClientInstance::PJRT_Client_BufferFromHostBuffer
2025-09-09 19:22:17.721 (   6.437s) [        56CD8000]     memory_instance.cc:57       1| MemoryInstance::getDevice
2025-09-09 19:22:17.721 (   6.437s) [        56CD8000]      event_instance.cc:222      1| EventInstance::PJRT_Event_OnReady
2025-09-09 19:22:17.721 (   6.437s) [        56CD8000]      event_instance.cc:171      1| EventInstance::PJRT_Event_Destroy
2025-09-09 19:22:17.721 (   6.437s) [        56CD8000]  device_description.cc:44       1| DeviceDescription::PJRT_DeviceDescription_Id
2025-09-09 19:22:17.721 (   6.437s) [        56CD8000]  device_description.cc:44       1| DeviceDescription::PJRT_DeviceDescription_Id
2025-09-09 19:22:17.723 (   6.439s) [        56CD8000]     device_instance.cc:82       1| DeviceInstance::PJRT_Device_DefaultMemory
2025-09-09 19:22:17.723 (   6.439s) [        56CD8000]     client_instance.cc:466      1| ClientInstance::PJRT_Client_BufferFromHostBuffer
2025-09-09 19:22:17.723 (   6.439s) [        56CD8000]     memory_instance.cc:57       1| MemoryInstance::getDevice
2025-09-09 19:22:17.723 (   6.439s) [        56CD8000]      event_instance.cc:222      1| EventInstance::PJRT_Event_OnReady
2025-09-09 19:22:17.723 (   6.439s) [        56CD8000]      event_instance.cc:171      1| EventInstance::PJRT_Event_Destroy
2025-09-09 19:22:17.723 (   6.439s) [        56CD8000]     device_instance.cc:82       1| DeviceInstance::PJRT_Device_DefaultMemory
2025-09-09 19:22:17.723 (   6.439s) [        56CD8000]     client_instance.cc:466      1| ClientInstance::PJRT_Client_BufferFromHostBuffer
2025-09-09 19:22:17.723 (   6.439s) [        56CD8000]     memory_instance.cc:57       1| MemoryInstance::getDevice
2025-09-09 19:22:17.723 (   6.439s) [        56CD8000]      event_instance.cc:222      1| EventInstance::PJRT_Event_OnReady
2025-09-09 19:22:17.724 (   6.439s) [        56CD8000]      event_instance.cc:171      1| EventInstance::PJRT_Event_Destroy
2025-09-09 19:22:17.724 (   6.439s) [        56CD8000]  device_description.cc:44       1| DeviceDescription::PJRT_DeviceDescription_Id
2025-09-09 19:22:17.724 (   6.440s) [        56CD8000]  device_description.cc:44       1| DeviceDescription::PJRT_DeviceDescription_Id
2025-09-09 19:22:17.729 (   6.445s) [        56CD8000]     device_instance.cc:82       1| DeviceInstance::PJRT_Device_DefaultMemory
2025-09-09 19:22:17.729 (   6.445s) [        56CD8000]     client_instance.cc:466      1| ClientInstance::PJRT_Client_BufferFromHostBuffer
2025-09-09 19:22:17.729 (   6.445s) [        56CD8000]     memory_instance.cc:57       1| MemoryInstance::getDevice
2025-09-09 19:22:17.729 (   6.445s) [        56CD8000]      event_instance.cc:222      1| EventInstance::PJRT_Event_OnReady
2025-09-09 19:22:17.730 (   6.445s) [        56CD8000]      event_instance.cc:171      1| EventInstance::PJRT_Event_Destroy
2025-09-09 19:22:17.730 (   6.445s) [        56CD8000]     device_instance.cc:82       1| DeviceInstance::PJRT_Device_DefaultMemory
2025-09-09 19:22:17.730 (   6.445s) [        56CD8000]     client_instance.cc:466      1| ClientInstance::PJRT_Client_BufferFromHostBuffer
2025-09-09 19:22:17.730 (   6.445s) [        56CD8000]     memory_instance.cc:57       1| MemoryInstance::getDevice
2025-09-09 19:22:17.730 (   6.446s) [        56CD8000]      event_instance.cc:222      1| EventInstance::PJRT_Event_OnReady
2025-09-09 19:22:17.730 (   6.446s) [        56CD8000]      event_instance.cc:171      1| EventInstance::PJRT_Event_Destroy
2025-09-09 19:22:17.733 (   6.449s) [        56CD8000]  device_description.cc:44       1| DeviceDescription::PJRT_DeviceDescription_Id
2025-09-09 19:22:17.733 (   6.449s) [        56CD8000]  device_description.cc:44       1| DeviceDescription::PJRT_DeviceDescription_Id
2025-09-09 19:22:17.741 (   6.457s) [        56CD8000]     device_instance.cc:82       1| DeviceInstance::PJRT_Device_DefaultMemory
2025-09-09 19:22:17.741 (   6.457s) [        56CD8000]     client_instance.cc:466      1| ClientInstance::PJRT_Client_BufferFromHostBuffer
2025-09-09 19:22:17.741 (   6.457s) [        56CD8000]     memory_instance.cc:57       1| MemoryInstance::getDevice
2025-09-09 19:22:17.741 (   6.457s) [        56CD8000]      event_instance.cc:222      1| EventInstance::PJRT_Event_OnReady
2025-09-09 19:22:17.741 (   6.457s) [        56CD8000]      event_instance.cc:171      1| EventInstance::PJRT_Event_Destroy
2025-09-09 19:22:17.741 (   6.457s) [        56CD8000]     device_instance.cc:82       1| DeviceInstance::PJRT_Device_DefaultMemory
2025-09-09 19:22:17.741 (   6.457s) [        56CD8000]     client_instance.cc:466      1| ClientInstance::PJRT_Client_BufferFromHostBuffer
2025-09-09 19:22:17.741 (   6.457s) [        56CD8000]     memory_instance.cc:57       1| MemoryInstance::getDevice
2025-09-09 19:22:17.741 (   6.457s) [        56CD8000]      event_instance.cc:222      1| EventInstance::PJRT_Event_OnReady
2025-09-09 19:22:17.742 (   6.457s) [        56CD8000]      event_instance.cc:171      1| EventInstance::PJRT_Event_Destroy
2025-09-09 19:22:17.744 (   6.460s) [        56CD8000]  device_description.cc:44       1| DeviceDescription::PJRT_DeviceDescription_Id
2025-09-09 19:22:17.745 (   6.460s) [        56CD8000]  device_description.cc:44       1| DeviceDescription::PJRT_DeviceDescription_Id
2025-09-09 19:22:17.753 (   6.469s) [        56CD8000]     device_instance.cc:82       1| DeviceInstance::PJRT_Device_DefaultMemory
2025-09-09 19:22:17.753 (   6.469s) [        56CD8000]     client_instance.cc:466      1| ClientInstance::PJRT_Client_BufferFromHostBuffer
2025-09-09 19:22:17.753 (   6.469s) [        56CD8000]     memory_instance.cc:57       1| MemoryInstance::getDevice
2025-09-09 19:22:17.753 (   6.469s) [        56CD8000]      event_instance.cc:222      1| EventInstance::PJRT_Event_OnReady
2025-09-09 19:22:17.753 (   6.469s) [        56CD8000]      event_instance.cc:171      1| EventInstance::PJRT_Event_Destroy
2025-09-09 19:22:17.753 (   6.469s) [        56CD8000]     device_instance.cc:82       1| DeviceInstance::PJRT_Device_DefaultMemory
2025-09-09 19:22:17.754 (   6.469s) [        56CD8000]     client_instance.cc:466      1| ClientInstance::PJRT_Client_BufferFromHostBuffer
2025-09-09 19:22:17.754 (   6.469s) [        56CD8000]     memory_instance.cc:57       1| MemoryInstance::getDevice
2025-09-09 19:22:17.754 (   6.470s) [        56CD8000]      event_instance.cc:222      1| EventInstance::PJRT_Event_OnReady
2025-09-09 19:22:17.754 (   6.470s) [        56CD8000]      event_instance.cc:171      1| EventInstance::PJRT_Event_Destroy
2025-09-09 19:22:17.757 (   6.473s) [        56CD8000]  device_description.cc:44       1| DeviceDescription::PJRT_DeviceDescription_Id
2025-09-09 19:22:17.757 (   6.473s) [        56CD8000]  device_description.cc:44       1| DeviceDescription::PJRT_DeviceDescription_Id
2025-09-09 19:22:17.758 (   6.474s) [        56CD8000]     device_instance.cc:82       1| DeviceInstance::PJRT_Device_DefaultMemory
2025-09-09 19:22:17.758 (   6.474s) [        56CD8000]     client_instance.cc:466      1| ClientInstance::PJRT_Client_BufferFromHostBuffer
2025-09-09 19:22:17.758 (   6.474s) [        56CD8000]     memory_instance.cc:57       1| MemoryInstance::getDevice
2025-09-09 19:22:17.759 (   6.474s) [        56CD8000]      event_instance.cc:222      1| EventInstance::PJRT_Event_OnReady
2025-09-09 19:22:17.759 (   6.475s) [        56CD8000]      event_instance.cc:171      1| EventInstance::PJRT_Event_Destroy
2025-09-09 19:22:17.759 (   6.475s) [        56CD8000]     device_instance.cc:82       1| DeviceInstance::PJRT_Device_DefaultMemory
2025-09-09 19:22:17.759 (   6.475s) [        56CD8000]     client_instance.cc:466      1| ClientInstance::PJRT_Client_BufferFromHostBuffer
2025-09-09 19:22:17.759 (   6.475s) [        56CD8000]     memory_instance.cc:57       1| MemoryInstance::getDevice
2025-09-09 19:22:17.759 (   6.475s) [        56CD8000]      event_instance.cc:222      1| EventInstance::PJRT_Event_OnReady
2025-09-09 19:22:17.759 (   6.475s) [        56CD8000]      event_instance.cc:171      1| EventInstance::PJRT_Event_Destroy
2025-09-09 19:22:17.759 (   6.475s) [        56CD8000]  device_description.cc:44       1| DeviceDescription::PJRT_DeviceDescription_Id
2025-09-09 19:22:17.759 (   6.475s) [        56CD8000]  device_description.cc:44       1| DeviceDescription::PJRT_DeviceDescription_Id
2025-09-09 19:22:17.760 (   6.476s) [        56CD8000]     device_instance.cc:82       1| DeviceInstance::PJRT_Device_DefaultMemory
2025-09-09 19:22:17.760 (   6.476s) [        56CD8000]     client_instance.cc:466      1| ClientInstance::PJRT_Client_BufferFromHostBuffer
2025-09-09 19:22:17.760 (   6.476s) [        56CD8000]     memory_instance.cc:57       1| MemoryInstance::getDevice
2025-09-09 19:22:17.760 (   6.476s) [        56CD8000]      event_instance.cc:222      1| EventInstance::PJRT_Event_OnReady
2025-09-09 19:22:17.760 (   6.476s) [        56CD8000]      event_instance.cc:171      1| EventInstance::PJRT_Event_Destroy
2025-09-09 19:22:17.760 (   6.476s) [        56CD8000]     device_instance.cc:82       1| DeviceInstance::PJRT_Device_DefaultMemory
2025-09-09 19:22:17.760 (   6.476s) [        56CD8000]     client_instance.cc:466      1| ClientInstance::PJRT_Client_BufferFromHostBuffer
2025-09-09 19:22:17.760 (   6.476s) [        56CD8000]     memory_instance.cc:57       1| MemoryInstance::getDevice
2025-09-09 19:22:17.760 (   6.476s) [        56CD8000]      event_instance.cc:222      1| EventInstance::PJRT_Event_OnReady
2025-09-09 19:22:17.760 (   6.476s) [        56CD8000]      event_instance.cc:171      1| EventInstance::PJRT_Event_Destroy
2025-09-09 19:22:17.760 (   6.476s) [        56CD8000]  device_description.cc:44       1| DeviceDescription::PJRT_DeviceDescription_Id
2025-09-09 19:22:17.760 (   6.476s) [        56CD8000]  device_description.cc:44       1| DeviceDescription::PJRT_DeviceDescription_Id
2025-09-09 19:22:17.761 (   6.477s) [        56CD8000]     device_instance.cc:82       1| DeviceInstance::PJRT_Device_DefaultMemory
2025-09-09 19:22:17.761 (   6.477s) [        56CD8000]     client_instance.cc:466      1| ClientInstance::PJRT_Client_BufferFromHostBuffer
2025-09-09 19:22:17.761 (   6.477s) [        56CD8000]     memory_instance.cc:57       1| MemoryInstance::getDevice
2025-09-09 19:22:17.761 (   6.477s) [        56CD8000]      event_instance.cc:222      1| EventInstance::PJRT_Event_OnReady
2025-09-09 19:22:17.761 (   6.477s) [        56CD8000]      event_instance.cc:171      1| EventInstance::PJRT_Event_Destroy
2025-09-09 19:22:17.761 (   6.477s) [        56CD8000]     device_instance.cc:82       1| DeviceInstance::PJRT_Device_DefaultMemory
2025-09-09 19:22:17.761 (   6.477s) [        56CD8000]     client_instance.cc:466      1| ClientInstance::PJRT_Client_BufferFromHostBuffer
2025-09-09 19:22:17.761 (   6.477s) [        56CD8000]     memory_instance.cc:57       1| MemoryInstance::getDevice
2025-09-09 19:22:17.762 (   6.477s) [        56CD8000]      event_instance.cc:222      1| EventInstance::PJRT_Event_OnReady
2025-09-09 19:22:17.762 (   6.477s) [        56CD8000]      event_instance.cc:171      1| EventInstance::PJRT_Event_Destroy
2025-09-09 19:22:17.762 (   6.478s) [        56CD8000]  device_description.cc:44       1| DeviceDescription::PJRT_DeviceDescription_Id
2025-09-09 19:22:17.762 (   6.478s) [        56CD8000]  device_description.cc:44       1| DeviceDescription::PJRT_DeviceDescription_Id
2025-09-09 19:22:17.763 (   6.479s) [        56CD8000]     device_instance.cc:82       1| DeviceInstance::PJRT_Device_DefaultMemory
2025-09-09 19:22:17.763 (   6.479s) [        56CD8000]     client_instance.cc:466      1| ClientInstance::PJRT_Client_BufferFromHostBuffer
2025-09-09 19:22:17.764 (   6.479s) [        56CD8000]     memory_instance.cc:57       1| MemoryInstance::getDevice
2025-09-09 19:22:17.764 (   6.479s) [        56CD8000]      event_instance.cc:222      1| EventInstance::PJRT_Event_OnReady
2025-09-09 19:22:17.764 (   6.480s) [        56CD8000]      event_instance.cc:171      1| EventInstance::PJRT_Event_Destroy
2025-09-09 19:22:17.764 (   6.480s) [        56CD8000]     device_instance.cc:82       1| DeviceInstance::PJRT_Device_DefaultMemory
2025-09-09 19:22:17.764 (   6.480s) [        56CD8000]     client_instance.cc:466      1| ClientInstance::PJRT_Client_BufferFromHostBuffer
2025-09-09 19:22:17.764 (   6.480s) [        56CD8000]     memory_instance.cc:57       1| MemoryInstance::getDevice
2025-09-09 19:22:17.764 (   6.480s) [        56CD8000]      event_instance.cc:222      1| EventInstance::PJRT_Event_OnReady
2025-09-09 19:22:17.764 (   6.480s) [        56CD8000]      event_instance.cc:171      1| EventInstance::PJRT_Event_Destroy
2025-09-09 19:22:17.764 (   6.480s) [        56CD8000]  device_description.cc:44       1| DeviceDescription::PJRT_DeviceDescription_Id
2025-09-09 19:22:17.764 (   6.480s) [        56CD8000]  device_description.cc:44       1| DeviceDescription::PJRT_DeviceDescription_Id
2025-09-09 19:22:17.770 (   6.486s) [        56CD8000]     device_instance.cc:82       1| DeviceInstance::PJRT_Device_DefaultMemory
2025-09-09 19:22:17.770 (   6.486s) [        56CD8000]     client_instance.cc:466      1| ClientInstance::PJRT_Client_BufferFromHostBuffer
2025-09-09 19:22:17.770 (   6.486s) [        56CD8000]     memory_instance.cc:57       1| MemoryInstance::getDevice
2025-09-09 19:22:17.770 (   6.486s) [        56CD8000]      event_instance.cc:222      1| EventInstance::PJRT_Event_OnReady
2025-09-09 19:22:17.770 (   6.486s) [        56CD8000]      event_instance.cc:171      1| EventInstance::PJRT_Event_Destroy
2025-09-09 19:22:17.770 (   6.486s) [        56CD8000]     device_instance.cc:82       1| DeviceInstance::PJRT_Device_DefaultMemory
2025-09-09 19:22:17.770 (   6.486s) [        56CD8000]     client_instance.cc:466      1| ClientInstance::PJRT_Client_BufferFromHostBuffer
2025-09-09 19:22:17.770 (   6.486s) [        56CD8000]     memory_instance.cc:57       1| MemoryInstance::getDevice
2025-09-09 19:22:17.770 (   6.486s) [        56CD8000]      event_instance.cc:222      1| EventInstance::PJRT_Event_OnReady
2025-09-09 19:22:17.771 (   6.486s) [        56CD8000]      event_instance.cc:171      1| EventInstance::PJRT_Event_Destroy
2025-09-09 19:22:17.773 (   6.489s) [        56CD8000]  device_description.cc:44       1| DeviceDescription::PJRT_DeviceDescription_Id
2025-09-09 19:22:17.773 (   6.489s) [        56CD8000]  device_description.cc:44       1| DeviceDescription::PJRT_DeviceDescription_Id
2025-09-09 19:22:17.779 (   6.495s) [        56CD8000]     device_instance.cc:82       1| DeviceInstance::PJRT_Device_DefaultMemory
2025-09-09 19:22:17.779 (   6.495s) [        56CD8000]     client_instance.cc:466      1| ClientInstance::PJRT_Client_BufferFromHostBuffer
2025-09-09 19:22:17.779 (   6.495s) [        56CD8000]     memory_instance.cc:57       1| MemoryInstance::getDevice
2025-09-09 19:22:17.779 (   6.495s) [        56CD8000]      event_instance.cc:222      1| EventInstance::PJRT_Event_OnReady
2025-09-09 19:22:17.779 (   6.495s) [        56CD8000]      event_instance.cc:171      1| EventInstance::PJRT_Event_Destroy
2025-09-09 19:22:17.779 (   6.495s) [        56CD8000]     device_instance.cc:82       1| DeviceInstance::PJRT_Device_DefaultMemory
2025-09-09 19:22:17.780 (   6.495s) [        56CD8000]     client_instance.cc:466      1| ClientInstance::PJRT_Client_BufferFromHostBuffer
2025-09-09 19:22:17.780 (   6.495s) [        56CD8000]     memory_instance.cc:57       1| MemoryInstance::getDevice
2025-09-09 19:22:17.780 (   6.496s) [        56CD8000]      event_instance.cc:222      1| EventInstance::PJRT_Event_OnReady
2025-09-09 19:22:17.780 (   6.496s) [        56CD8000]      event_instance.cc:171      1| EventInstance::PJRT_Event_Destroy
2025-09-09 19:22:17.783 (   6.499s) [        56CD8000]  device_description.cc:44       1| DeviceDescription::PJRT_DeviceDescription_Id
2025-09-09 19:22:17.783 (   6.499s) [        56CD8000]  device_description.cc:44       1| DeviceDescription::PJRT_DeviceDescription_Id
2025-09-09 19:22:17.792 (   6.508s) [        56CD8000]     device_instance.cc:82       1| DeviceInstance::PJRT_Device_DefaultMemory
2025-09-09 19:22:17.792 (   6.508s) [        56CD8000]     client_instance.cc:466      1| ClientInstance::PJRT_Client_BufferFromHostBuffer
2025-09-09 19:22:17.792 (   6.508s) [        56CD8000]     memory_instance.cc:57       1| MemoryInstance::getDevice
2025-09-09 19:22:17.792 (   6.508s) [        56CD8000]      event_instance.cc:222      1| EventInstance::PJRT_Event_OnReady
2025-09-09 19:22:17.793 (   6.508s) [        56CD8000]      event_instance.cc:171      1| EventInstance::PJRT_Event_Destroy
2025-09-09 19:22:17.793 (   6.508s) [        56CD8000]     device_instance.cc:82       1| DeviceInstance::PJRT_Device_DefaultMemory
2025-09-09 19:22:17.793 (   6.508s) [        56CD8000]     client_instance.cc:466      1| ClientInstance::PJRT_Client_BufferFromHostBuffer
2025-09-09 19:22:17.793 (   6.509s) [        56CD8000]     memory_instance.cc:57       1| MemoryInstance::getDevice
2025-09-09 19:22:17.793 (   6.509s) [        56CD8000]      event_instance.cc:222      1| EventInstance::PJRT_Event_OnReady
2025-09-09 19:22:17.793 (   6.509s) [        56CD8000]      event_instance.cc:171      1| EventInstance::PJRT_Event_Destroy
2025-09-09 19:22:17.796 (   6.512s) [        56CD8000]  device_description.cc:44       1| DeviceDescription::PJRT_DeviceDescription_Id
2025-09-09 19:22:17.796 (   6.512s) [        56CD8000]  device_description.cc:44       1| DeviceDescription::PJRT_DeviceDescription_Id
2025-09-09 19:22:17.798 (   6.513s) [        56CD8000]     device_instance.cc:82       1| DeviceInstance::PJRT_Device_DefaultMemory
2025-09-09 19:22:17.798 (   6.513s) [        56CD8000]     client_instance.cc:466      1| ClientInstance::PJRT_Client_BufferFromHostBuffer
2025-09-09 19:22:17.798 (   6.513s) [        56CD8000]     memory_instance.cc:57       1| MemoryInstance::getDevice
2025-09-09 19:22:17.798 (   6.514s) [        56CD8000]      event_instance.cc:222      1| EventInstance::PJRT_Event_OnReady
2025-09-09 19:22:17.798 (   6.514s) [        56CD8000]      event_instance.cc:171      1| EventInstance::PJRT_Event_Destroy
2025-09-09 19:22:17.798 (   6.514s) [        56CD8000]     device_instance.cc:82       1| DeviceInstance::PJRT_Device_DefaultMemory
2025-09-09 19:22:17.798 (   6.514s) [        56CD8000]     client_instance.cc:466      1| ClientInstance::PJRT_Client_BufferFromHostBuffer
2025-09-09 19:22:17.798 (   6.514s) [        56CD8000]     memory_instance.cc:57       1| MemoryInstance::getDevice
2025-09-09 19:22:17.798 (   6.514s) [        56CD8000]      event_instance.cc:222      1| EventInstance::PJRT_Event_OnReady
2025-09-09 19:22:17.798 (   6.514s) [        56CD8000]      event_instance.cc:171      1| EventInstance::PJRT_Event_Destroy
2025-09-09 19:22:17.799 (   6.514s) [        56CD8000]  device_description.cc:44       1| DeviceDescription::PJRT_DeviceDescription_Id
2025-09-09 19:22:17.799 (   6.514s) [        56CD8000]  device_description.cc:44       1| DeviceDescription::PJRT_DeviceDescription_Id
2025-09-09 19:22:17.799 (   6.515s) [        56CD8000]     device_instance.cc:82       1| DeviceInstance::PJRT_Device_DefaultMemory
2025-09-09 19:22:17.799 (   6.515s) [        56CD8000]     client_instance.cc:466      1| ClientInstance::PJRT_Client_BufferFromHostBuffer
2025-09-09 19:22:17.799 (   6.515s) [        56CD8000]     memory_instance.cc:57       1| MemoryInstance::getDevice
2025-09-09 19:22:17.799 (   6.515s) [        56CD8000]      event_instance.cc:222      1| EventInstance::PJRT_Event_OnReady
2025-09-09 19:22:17.799 (   6.515s) [        56CD8000]      event_instance.cc:171      1| EventInstance::PJRT_Event_Destroy
2025-09-09 19:22:17.799 (   6.515s) [        56CD8000]     device_instance.cc:82       1| DeviceInstance::PJRT_Device_DefaultMemory
2025-09-09 19:22:17.799 (   6.515s) [        56CD8000]     client_instance.cc:466      1| ClientInstance::PJRT_Client_BufferFromHostBuffer
2025-09-09 19:22:17.799 (   6.515s) [        56CD8000]     memory_instance.cc:57       1| MemoryInstance::getDevice
2025-09-09 19:22:17.800 (   6.515s) [        56CD8000]      event_instance.cc:222      1| EventInstance::PJRT_Event_OnReady
2025-09-09 19:22:17.800 (   6.515s) [        56CD8000]      event_instance.cc:171      1| EventInstance::PJRT_Event_Destroy
2025-09-09 19:22:17.800 (   6.516s) [        56CD8000]  device_description.cc:44       1| DeviceDescription::PJRT_DeviceDescription_Id
2025-09-09 19:22:17.800 (   6.516s) [        56CD8000]  device_description.cc:44       1| DeviceDescription::PJRT_DeviceDescription_Id
2025-09-09 19:22:17.800 (   6.516s) [        56CD8000]     device_instance.cc:82       1| DeviceInstance::PJRT_Device_DefaultMemory
2025-09-09 19:22:17.800 (   6.516s) [        56CD8000]     client_instance.cc:466      1| ClientInstance::PJRT_Client_BufferFromHostBuffer
2025-09-09 19:22:17.800 (   6.516s) [        56CD8000]     memory_instance.cc:57       1| MemoryInstance::getDevice
2025-09-09 19:22:17.800 (   6.516s) [        56CD8000]      event_instance.cc:222      1| EventInstance::PJRT_Event_OnReady
2025-09-09 19:22:17.801 (   6.516s) [        56CD8000]      event_instance.cc:171      1| EventInstance::PJRT_Event_Destroy
2025-09-09 19:22:17.801 (   6.516s) [        56CD8000]     device_instance.cc:82       1| DeviceInstance::PJRT_Device_DefaultMemory
2025-09-09 19:22:17.801 (   6.516s) [        56CD8000]     client_instance.cc:466      1| ClientInstance::PJRT_Client_BufferFromHostBuffer
2025-09-09 19:22:17.801 (   6.516s) [        56CD8000]     memory_instance.cc:57       1| MemoryInstance::getDevice
2025-09-09 19:22:17.801 (   6.517s) [        56CD8000]      event_instance.cc:222      1| EventInstance::PJRT_Event_OnReady
2025-09-09 19:22:17.801 (   6.517s) [        56CD8000]      event_instance.cc:171      1| EventInstance::PJRT_Event_Destroy
2025-09-09 19:22:17.801 (   6.517s) [        56CD8000]  device_description.cc:44       1| DeviceDescription::PJRT_DeviceDescription_Id
2025-09-09 19:22:17.801 (   6.517s) [        56CD8000]  device_description.cc:44       1| DeviceDescription::PJRT_DeviceDescription_Id
2025-09-09 19:22:17.803 (   6.518s) [        56CD8000]     device_instance.cc:82       1| DeviceInstance::PJRT_Device_DefaultMemory
2025-09-09 19:22:17.803 (   6.519s) [        56CD8000]     client_instance.cc:466      1| ClientInstance::PJRT_Client_BufferFromHostBuffer
2025-09-09 19:22:17.803 (   6.519s) [        56CD8000]     memory_instance.cc:57       1| MemoryInstance::getDevice
2025-09-09 19:22:17.803 (   6.519s) [        56CD8000]      event_instance.cc:222      1| EventInstance::PJRT_Event_OnReady
2025-09-09 19:22:17.803 (   6.519s) [        56CD8000]      event_instance.cc:171      1| EventInstance::PJRT_Event_Destroy
2025-09-09 19:22:17.803 (   6.519s) [        56CD8000]     device_instance.cc:82       1| DeviceInstance::PJRT_Device_DefaultMemory
2025-09-09 19:22:17.803 (   6.519s) [        56CD8000]     client_instance.cc:466      1| ClientInstance::PJRT_Client_BufferFromHostBuffer
2025-09-09 19:22:17.803 (   6.519s) [        56CD8000]     memory_instance.cc:57       1| MemoryInstance::getDevice
2025-09-09 19:22:17.803 (   6.519s) [        56CD8000]      event_instance.cc:222      1| EventInstance::PJRT_Event_OnReady
2025-09-09 19:22:17.803 (   6.519s) [        56CD8000]      event_instance.cc:171      1| EventInstance::PJRT_Event_Destroy
2025-09-09 19:22:17.803 (   6.519s) [        56CD8000]  device_description.cc:44       1| DeviceDescription::PJRT_DeviceDescription_Id
2025-09-09 19:22:17.803 (   6.519s) [        56CD8000]  device_description.cc:44       1| DeviceDescription::PJRT_DeviceDescription_Id
2025-09-09 19:22:17.809 (   6.525s) [        56CD8000]     device_instance.cc:82       1| DeviceInstance::PJRT_Device_DefaultMemory
2025-09-09 19:22:17.809 (   6.525s) [        56CD8000]     client_instance.cc:466      1| ClientInstance::PJRT_Client_BufferFromHostBuffer
2025-09-09 19:22:17.809 (   6.525s) [        56CD8000]     memory_instance.cc:57       1| MemoryInstance::getDevice
2025-09-09 19:22:17.810 (   6.525s) [        56CD8000]      event_instance.cc:222      1| EventInstance::PJRT_Event_OnReady
2025-09-09 19:22:17.810 (   6.525s) [        56CD8000]      event_instance.cc:171      1| EventInstance::PJRT_Event_Destroy
2025-09-09 19:22:17.810 (   6.526s) [        56CD8000]     device_instance.cc:82       1| DeviceInstance::PJRT_Device_DefaultMemory
2025-09-09 19:22:17.810 (   6.526s) [        56CD8000]     client_instance.cc:466      1| ClientInstance::PJRT_Client_BufferFromHostBuffer
2025-09-09 19:22:17.810 (   6.526s) [        56CD8000]     memory_instance.cc:57       1| MemoryInstance::getDevice
2025-09-09 19:22:17.810 (   6.526s) [        56CD8000]      event_instance.cc:222      1| EventInstance::PJRT_Event_OnReady
2025-09-09 19:22:17.810 (   6.526s) [        56CD8000]      event_instance.cc:171      1| EventInstance::PJRT_Event_Destroy
2025-09-09 19:22:17.813 (   6.529s) [        56CD8000]  device_description.cc:44       1| DeviceDescription::PJRT_DeviceDescription_Id
2025-09-09 19:22:17.813 (   6.529s) [        56CD8000]  device_description.cc:44       1| DeviceDescription::PJRT_DeviceDescription_Id
2025-09-09 19:22:17.819 (   6.534s) [        56CD8000]     device_instance.cc:82       1| DeviceInstance::PJRT_Device_DefaultMemory
2025-09-09 19:22:17.819 (   6.534s) [        56CD8000]     client_instance.cc:466      1| ClientInstance::PJRT_Client_BufferFromHostBuffer
2025-09-09 19:22:17.819 (   6.535s) [        56CD8000]     memory_instance.cc:57       1| MemoryInstance::getDevice
2025-09-09 19:22:17.819 (   6.535s) [        56CD8000]      event_instance.cc:222      1| EventInstance::PJRT_Event_OnReady
2025-09-09 19:22:17.819 (   6.535s) [        56CD8000]      event_instance.cc:171      1| EventInstance::PJRT_Event_Destroy
2025-09-09 19:22:17.819 (   6.535s) [        56CD8000]     device_instance.cc:82       1| DeviceInstance::PJRT_Device_DefaultMemory
2025-09-09 19:22:17.819 (   6.535s) [        56CD8000]     client_instance.cc:466      1| ClientInstance::PJRT_Client_BufferFromHostBuffer
2025-09-09 19:22:17.819 (   6.535s) [        56CD8000]     memory_instance.cc:57       1| MemoryInstance::getDevice
2025-09-09 19:22:17.819 (   6.535s) [        56CD8000]      event_instance.cc:222      1| EventInstance::PJRT_Event_OnReady
2025-09-09 19:22:17.819 (   6.535s) [        56CD8000]      event_instance.cc:171      1| EventInstance::PJRT_Event_Destroy
2025-09-09 19:22:17.822 (   6.538s) [        56CD8000]  device_description.cc:44       1| DeviceDescription::PJRT_DeviceDescription_Id
2025-09-09 19:22:17.822 (   6.538s) [        56CD8000]  device_description.cc:44       1| DeviceDescription::PJRT_DeviceDescription_Id
2025-09-09 19:22:17.831 (   6.546s) [        56CD8000]     device_instance.cc:82       1| DeviceInstance::PJRT_Device_DefaultMemory
2025-09-09 19:22:17.831 (   6.546s) [        56CD8000]     client_instance.cc:466      1| ClientInstance::PJRT_Client_BufferFromHostBuffer
2025-09-09 19:22:17.831 (   6.547s) [        56CD8000]     memory_instance.cc:57       1| MemoryInstance::getDevice
2025-09-09 19:22:17.831 (   6.547s) [        56CD8000]      event_instance.cc:222      1| EventInstance::PJRT_Event_OnReady
2025-09-09 19:22:17.831 (   6.547s) [        56CD8000]      event_instance.cc:171      1| EventInstance::PJRT_Event_Destroy
2025-09-09 19:22:17.831 (   6.547s) [        56CD8000]     device_instance.cc:82       1| DeviceInstance::PJRT_Device_DefaultMemory
2025-09-09 19:22:17.831 (   6.547s) [        56CD8000]     client_instance.cc:466      1| ClientInstance::PJRT_Client_BufferFromHostBuffer
2025-09-09 19:22:17.831 (   6.547s) [        56CD8000]     memory_instance.cc:57       1| MemoryInstance::getDevice
2025-09-09 19:22:17.831 (   6.547s) [        56CD8000]      event_instance.cc:222      1| EventInstance::PJRT_Event_OnReady
2025-09-09 19:22:17.831 (   6.547s) [        56CD8000]      event_instance.cc:171      1| EventInstance::PJRT_Event_Destroy
2025-09-09 19:22:17.834 (   6.550s) [        56CD8000]  device_description.cc:44       1| DeviceDescription::PJRT_DeviceDescription_Id
2025-09-09 19:22:17.834 (   6.550s) [        56CD8000]  device_description.cc:44       1| DeviceDescription::PJRT_DeviceDescription_Id
2025-09-09 19:22:17.836 (   6.552s) [        56CD8000]     device_instance.cc:82       1| DeviceInstance::PJRT_Device_DefaultMemory
2025-09-09 19:22:17.836 (   6.552s) [        56CD8000]     client_instance.cc:466      1| ClientInstance::PJRT_Client_BufferFromHostBuffer
2025-09-09 19:22:17.836 (   6.552s) [        56CD8000]     memory_instance.cc:57       1| MemoryInstance::getDevice
2025-09-09 19:22:17.836 (   6.552s) [        56CD8000]      event_instance.cc:222      1| EventInstance::PJRT_Event_OnReady
2025-09-09 19:22:17.836 (   6.552s) [        56CD8000]      event_instance.cc:171      1| EventInstance::PJRT_Event_Destroy
2025-09-09 19:22:17.836 (   6.552s) [        56CD8000]     device_instance.cc:82       1| DeviceInstance::PJRT_Device_DefaultMemory
2025-09-09 19:22:17.836 (   6.552s) [        56CD8000]     client_instance.cc:466      1| ClientInstance::PJRT_Client_BufferFromHostBuffer
2025-09-09 19:22:17.836 (   6.552s) [        56CD8000]     memory_instance.cc:57       1| MemoryInstance::getDevice
2025-09-09 19:22:17.836 (   6.552s) [        56CD8000]      event_instance.cc:222      1| EventInstance::PJRT_Event_OnReady
2025-09-09 19:22:17.837 (   6.552s) [        56CD8000]      event_instance.cc:171      1| EventInstance::PJRT_Event_Destroy
2025-09-09 19:22:17.837 (   6.553s) [        56CD8000]  device_description.cc:44       1| DeviceDescription::PJRT_DeviceDescription_Id
2025-09-09 19:22:17.837 (   6.553s) [        56CD8000]  device_description.cc:44       1| DeviceDescription::PJRT_DeviceDescription_Id
2025-09-09 19:22:17.837 (   6.553s) [        56CD8000]     device_instance.cc:82       1| DeviceInstance::PJRT_Device_DefaultMemory
2025-09-09 19:22:17.837 (   6.553s) [        56CD8000]     client_instance.cc:466      1| ClientInstance::PJRT_Client_BufferFromHostBuffer
2025-09-09 19:22:17.837 (   6.553s) [        56CD8000]     memory_instance.cc:57       1| MemoryInstance::getDevice
2025-09-09 19:22:17.837 (   6.553s) [        56CD8000]      event_instance.cc:222      1| EventInstance::PJRT_Event_OnReady
2025-09-09 19:22:17.838 (   6.553s) [        56CD8000]      event_instance.cc:171      1| EventInstance::PJRT_Event_Destroy
2025-09-09 19:22:17.838 (   6.553s) [        56CD8000]     device_instance.cc:82       1| DeviceInstance::PJRT_Device_DefaultMemory
2025-09-09 19:22:17.838 (   6.553s) [        56CD8000]     client_instance.cc:466      1| ClientInstance::PJRT_Client_BufferFromHostBuffer
2025-09-09 19:22:17.838 (   6.553s) [        56CD8000]     memory_instance.cc:57       1| MemoryInstance::getDevice
2025-09-09 19:22:17.838 (   6.554s) [        56CD8000]      event_instance.cc:222      1| EventInstance::PJRT_Event_OnReady
2025-09-09 19:22:17.838 (   6.554s) [        56CD8000]      event_instance.cc:171      1| EventInstance::PJRT_Event_Destroy
2025-09-09 19:22:17.838 (   6.554s) [        56CD8000]  device_description.cc:44       1| DeviceDescription::PJRT_DeviceDescription_Id
2025-09-09 19:22:17.838 (   6.554s) [        56CD8000]  device_description.cc:44       1| DeviceDescription::PJRT_DeviceDescription_Id
2025-09-09 19:22:17.838 (   6.554s) [        56CD8000]     device_instance.cc:82       1| DeviceInstance::PJRT_Device_DefaultMemory
2025-09-09 19:22:17.838 (   6.554s) [        56CD8000]     client_instance.cc:466      1| ClientInstance::PJRT_Client_BufferFromHostBuffer
2025-09-09 19:22:17.839 (   6.554s) [        56CD8000]     memory_instance.cc:57       1| MemoryInstance::getDevice
2025-09-09 19:22:17.839 (   6.554s) [        56CD8000]      event_instance.cc:222      1| EventInstance::PJRT_Event_OnReady
2025-09-09 19:22:17.839 (   6.555s) [        56CD8000]      event_instance.cc:171      1| EventInstance::PJRT_Event_Destroy
2025-09-09 19:22:17.839 (   6.555s) [        56CD8000]     device_instance.cc:82       1| DeviceInstance::PJRT_Device_DefaultMemory
2025-09-09 19:22:17.839 (   6.555s) [        56CD8000]     client_instance.cc:466      1| ClientInstance::PJRT_Client_BufferFromHostBuffer
2025-09-09 19:22:17.839 (   6.555s) [        56CD8000]     memory_instance.cc:57       1| MemoryInstance::getDevice
2025-09-09 19:22:17.839 (   6.555s) [        56CD8000]      event_instance.cc:222      1| EventInstance::PJRT_Event_OnReady
2025-09-09 19:22:17.839 (   6.555s) [        56CD8000]      event_instance.cc:171      1| EventInstance::PJRT_Event_Destroy
2025-09-09 19:22:17.839 (   6.555s) [        56CD8000]  device_description.cc:44       1| DeviceDescription::PJRT_DeviceDescription_Id
2025-09-09 19:22:17.839 (   6.555s) [        56CD8000]  device_description.cc:44       1| DeviceDescription::PJRT_DeviceDescription_Id
2025-09-09 19:22:17.842 (   6.558s) [        56CD8000]     device_instance.cc:82       1| DeviceInstance::PJRT_Device_DefaultMemory
2025-09-09 19:22:17.842 (   6.558s) [        56CD8000]     client_instance.cc:466      1| ClientInstance::PJRT_Client_BufferFromHostBuffer
2025-09-09 19:22:17.842 (   6.558s) [        56CD8000]     memory_instance.cc:57       1| MemoryInstance::getDevice
2025-09-09 19:22:17.842 (   6.558s) [        56CD8000]      event_instance.cc:222      1| EventInstance::PJRT_Event_OnReady
2025-09-09 19:22:17.842 (   6.558s) [        56CD8000]      event_instance.cc:171      1| EventInstance::PJRT_Event_Destroy
2025-09-09 19:22:17.842 (   6.558s) [        56CD8000]     device_instance.cc:82       1| DeviceInstance::PJRT_Device_DefaultMemory
2025-09-09 19:22:17.843 (   6.558s) [        56CD8000]     client_instance.cc:466      1| ClientInstance::PJRT_Client_BufferFromHostBuffer
2025-09-09 19:22:17.843 (   6.558s) [        56CD8000]     memory_instance.cc:57       1| MemoryInstance::getDevice
2025-09-09 19:22:17.843 (   6.559s) [        56CD8000]      event_instance.cc:222      1| EventInstance::PJRT_Event_OnReady
2025-09-09 19:22:17.843 (   6.559s) [        56CD8000]      event_instance.cc:171      1| EventInstance::PJRT_Event_Destroy
2025-09-09 19:22:17.843 (   6.559s) [        56CD8000]  device_description.cc:44       1| DeviceDescription::PJRT_DeviceDescription_Id
2025-09-09 19:22:17.843 (   6.559s) [        56CD8000]  device_description.cc:44       1| DeviceDescription::PJRT_DeviceDescription_Id
2025-09-09 19:22:17.849 (   6.565s) [        56CD8000]     device_instance.cc:82       1| DeviceInstance::PJRT_Device_DefaultMemory
2025-09-09 19:22:17.849 (   6.565s) [        56CD8000]     client_instance.cc:466      1| ClientInstance::PJRT_Client_BufferFromHostBuffer
2025-09-09 19:22:17.849 (   6.565s) [        56CD8000]     memory_instance.cc:57       1| MemoryInstance::getDevice
2025-09-09 19:22:17.849 (   6.565s) [        56CD8000]      event_instance.cc:222      1| EventInstance::PJRT_Event_OnReady
2025-09-09 19:22:17.849 (   6.565s) [        56CD8000]      event_instance.cc:171      1| EventInstance::PJRT_Event_Destroy
2025-09-09 19:22:17.849 (   6.565s) [        56CD8000]     device_instance.cc:82       1| DeviceInstance::PJRT_Device_DefaultMemory
2025-09-09 19:22:17.849 (   6.565s) [        56CD8000]     client_instance.cc:466      1| ClientInstance::PJRT_Client_BufferFromHostBuffer
2025-09-09 19:22:17.849 (   6.565s) [        56CD8000]     memory_instance.cc:57       1| MemoryInstance::getDevice
2025-09-09 19:22:17.849 (   6.565s) [        56CD8000]      event_instance.cc:222      1| EventInstance::PJRT_Event_OnReady
2025-09-09 19:22:17.849 (   6.565s) [        56CD8000]      event_instance.cc:171      1| EventInstance::PJRT_Event_Destroy
2025-09-09 19:22:17.852 (   6.568s) [        56CD8000]  device_description.cc:44       1| DeviceDescription::PJRT_DeviceDescription_Id
2025-09-09 19:22:17.852 (   6.568s) [        56CD8000]  device_description.cc:44       1| DeviceDescription::PJRT_DeviceDescription_Id
2025-09-09 19:22:17.858 (   6.574s) [        56CD8000]     device_instance.cc:82       1| DeviceInstance::PJRT_Device_DefaultMemory
2025-09-09 19:22:17.858 (   6.574s) [        56CD8000]     client_instance.cc:466      1| ClientInstance::PJRT_Client_BufferFromHostBuffer
2025-09-09 19:22:17.858 (   6.574s) [        56CD8000]     memory_instance.cc:57       1| MemoryInstance::getDevice
2025-09-09 19:22:17.858 (   6.574s) [        56CD8000]      event_instance.cc:222      1| EventInstance::PJRT_Event_OnReady
2025-09-09 19:22:17.858 (   6.574s) [        56CD8000]      event_instance.cc:171      1| EventInstance::PJRT_Event_Destroy
2025-09-09 19:22:17.858 (   6.574s) [        56CD8000]     device_instance.cc:82       1| DeviceInstance::PJRT_Device_DefaultMemory
2025-09-09 19:22:17.859 (   6.574s) [        56CD8000]     client_instance.cc:466      1| ClientInstance::PJRT_Client_BufferFromHostBuffer
2025-09-09 19:22:17.859 (   6.574s) [        56CD8000]     memory_instance.cc:57       1| MemoryInstance::getDevice
2025-09-09 19:22:17.859 (   6.575s) [        56CD8000]      event_instance.cc:222      1| EventInstance::PJRT_Event_OnReady
2025-09-09 19:22:17.859 (   6.575s) [        56CD8000]      event_instance.cc:171      1| EventInstance::PJRT_Event_Destroy
2025-09-09 19:22:17.862 (   6.577s) [        56CD8000]  device_description.cc:44       1| DeviceDescription::PJRT_DeviceDescription_Id
2025-09-09 19:22:17.862 (   6.577s) [        56CD8000]  device_description.cc:44       1| DeviceDescription::PJRT_DeviceDescription_Id
2025-09-09 19:22:17.870 (   6.586s) [        56CD8000]     device_instance.cc:82       1| DeviceInstance::PJRT_Device_DefaultMemory
2025-09-09 19:22:17.870 (   6.586s) [        56CD8000]     client_instance.cc:466      1| ClientInstance::PJRT_Client_BufferFromHostBuffer
2025-09-09 19:22:17.870 (   6.586s) [        56CD8000]     memory_instance.cc:57       1| MemoryInstance::getDevice
2025-09-09 19:22:17.870 (   6.586s) [        56CD8000]      event_instance.cc:222      1| EventInstance::PJRT_Event_OnReady
2025-09-09 19:22:17.871 (   6.586s) [        56CD8000]      event_instance.cc:171      1| EventInstance::PJRT_Event_Destroy
2025-09-09 19:22:17.871 (   6.586s) [        56CD8000]     device_instance.cc:82       1| DeviceInstance::PJRT_Device_DefaultMemory
2025-09-09 19:22:17.871 (   6.586s) [        56CD8000]     client_instance.cc:466      1| ClientInstance::PJRT_Client_BufferFromHostBuffer
2025-09-09 19:22:17.871 (   6.587s) [        56CD8000]     memory_instance.cc:57       1| MemoryInstance::getDevice
2025-09-09 19:22:17.871 (   6.587s) [        56CD8000]      event_instance.cc:222      1| EventInstance::PJRT_Event_OnReady
2025-09-09 19:22:17.871 (   6.587s) [        56CD8000]      event_instance.cc:171      1| EventInstance::PJRT_Event_Destroy
2025-09-09 19:22:17.874 (   6.590s) [        56CD8000]  device_description.cc:44       1| DeviceDescription::PJRT_DeviceDescription_Id
2025-09-09 19:22:17.874 (   6.590s) [        56CD8000]  device_description.cc:44       1| DeviceDescription::PJRT_DeviceDescription_Id
2025-09-09 19:22:17.875 (   6.591s) [        56CD8000]     device_instance.cc:82       1| DeviceInstance::PJRT_Device_DefaultMemory
2025-09-09 19:22:17.875 (   6.591s) [        56CD8000]     client_instance.cc:466      1| ClientInstance::PJRT_Client_BufferFromHostBuffer
2025-09-09 19:22:17.875 (   6.591s) [        56CD8000]     memory_instance.cc:57       1| MemoryInstance::getDevice
2025-09-09 19:22:17.875 (   6.591s) [        56CD8000]      event_instance.cc:222      1| EventInstance::PJRT_Event_OnReady
2025-09-09 19:22:17.876 (   6.591s) [        56CD8000]      event_instance.cc:171      1| EventInstance::PJRT_Event_Destroy
2025-09-09 19:22:17.876 (   6.591s) [        56CD8000]     device_instance.cc:82       1| DeviceInstance::PJRT_Device_DefaultMemory
2025-09-09 19:22:17.876 (   6.591s) [        56CD8000]     client_instance.cc:466      1| ClientInstance::PJRT_Client_BufferFromHostBuffer
2025-09-09 19:22:17.876 (   6.591s) [        56CD8000]     memory_instance.cc:57       1| MemoryInstance::getDevice
2025-09-09 19:22:17.876 (   6.592s) [        56CD8000]      event_instance.cc:222      1| EventInstance::PJRT_Event_OnReady
2025-09-09 19:22:17.876 (   6.592s) [        56CD8000]      event_instance.cc:171      1| EventInstance::PJRT_Event_Destroy
2025-09-09 19:22:17.876 (   6.592s) [        56CD8000]  device_description.cc:44       1| DeviceDescription::PJRT_DeviceDescription_Id
2025-09-09 19:22:17.876 (   6.592s) [        56CD8000]  device_description.cc:44       1| DeviceDescription::PJRT_DeviceDescription_Id
2025-09-09 19:22:17.876 (   6.592s) [        56CD8000]     device_instance.cc:82       1| DeviceInstance::PJRT_Device_DefaultMemory
2025-09-09 19:22:17.877 (   6.592s) [        56CD8000]     client_instance.cc:466      1| ClientInstance::PJRT_Client_BufferFromHostBuffer
2025-09-09 19:22:17.877 (   6.592s) [        56CD8000]     memory_instance.cc:57       1| MemoryInstance::getDevice
2025-09-09 19:22:17.877 (   6.593s) [        56CD8000]      event_instance.cc:222      1| EventInstance::PJRT_Event_OnReady
2025-09-09 19:22:17.877 (   6.593s) [        56CD8000]      event_instance.cc:171      1| EventInstance::PJRT_Event_Destroy
2025-09-09 19:22:17.877 (   6.593s) [        56CD8000]     device_instance.cc:82       1| DeviceInstance::PJRT_Device_DefaultMemory
2025-09-09 19:22:17.877 (   6.593s) [        56CD8000]     client_instance.cc:466      1| ClientInstance::PJRT_Client_BufferFromHostBuffer
2025-09-09 19:22:17.877 (   6.593s) [        56CD8000]     memory_instance.cc:57       1| MemoryInstance::getDevice
2025-09-09 19:22:17.877 (   6.593s) [        56CD8000]      event_instance.cc:222      1| EventInstance::PJRT_Event_OnReady
2025-09-09 19:22:17.877 (   6.593s) [        56CD8000]      event_instance.cc:171      1| EventInstance::PJRT_Event_Destroy
2025-09-09 19:22:17.877 (   6.593s) [        56CD8000]  device_description.cc:44       1| DeviceDescription::PJRT_DeviceDescription_Id
2025-09-09 19:22:17.877 (   6.593s) [        56CD8000]  device_description.cc:44       1| DeviceDescription::PJRT_DeviceDescription_Id
2025-09-09 19:22:17.878 (   6.594s) [        56CD8000]     device_instance.cc:82       1| DeviceInstance::PJRT_Device_DefaultMemory
2025-09-09 19:22:17.878 (   6.594s) [        56CD8000]     client_instance.cc:466      1| ClientInstance::PJRT_Client_BufferFromHostBuffer
2025-09-09 19:22:17.878 (   6.594s) [        56CD8000]     memory_instance.cc:57       1| MemoryInstance::getDevice
2025-09-09 19:22:17.878 (   6.594s) [        56CD8000]      event_instance.cc:222      1| EventInstance::PJRT_Event_OnReady
2025-09-09 19:22:17.878 (   6.594s) [        56CD8000]      event_instance.cc:171      1| EventInstance::PJRT_Event_Destroy
2025-09-09 19:22:17.878 (   6.594s) [        56CD8000]     device_instance.cc:82       1| DeviceInstance::PJRT_Device_DefaultMemory
2025-09-09 19:22:17.878 (   6.594s) [        56CD8000]     client_instance.cc:466      1| ClientInstance::PJRT_Client_BufferFromHostBuffer
2025-09-09 19:22:17.878 (   6.594s) [        56CD8000]     memory_instance.cc:57       1| MemoryInstance::getDevice
2025-09-09 19:22:17.878 (   6.594s) [        56CD8000]      event_instance.cc:222      1| EventInstance::PJRT_Event_OnReady
2025-09-09 19:22:17.878 (   6.594s) [        56CD8000]      event_instance.cc:171      1| EventInstance::PJRT_Event_Destroy
2025-09-09 19:22:17.878 (   6.594s) [        56CD8000]  device_description.cc:44       1| DeviceDescription::PJRT_DeviceDescription_Id
2025-09-09 19:22:17.878 (   6.594s) [        56CD8000]  device_description.cc:44       1| DeviceDescription::PJRT_DeviceDescription_Id
2025-09-09 19:22:17.880 (   6.596s) [        56CD8000]     device_instance.cc:82       1| DeviceInstance::PJRT_Device_DefaultMemory
2025-09-09 19:22:17.880 (   6.596s) [        56CD8000]     client_instance.cc:466      1| ClientInstance::PJRT_Client_BufferFromHostBuffer
2025-09-09 19:22:17.880 (   6.596s) [        56CD8000]     memory_instance.cc:57       1| MemoryInstance::getDevice
2025-09-09 19:22:17.880 (   6.596s) [        56CD8000]      event_instance.cc:222      1| EventInstance::PJRT_Event_OnReady
2025-09-09 19:22:17.881 (   6.596s) [        56CD8000]      event_instance.cc:171      1| EventInstance::PJRT_Event_Destroy
2025-09-09 19:22:17.881 (   6.596s) [        56CD8000]     device_instance.cc:82       1| DeviceInstance::PJRT_Device_DefaultMemory
2025-09-09 19:22:17.881 (   6.596s) [        56CD8000]     client_instance.cc:466      1| ClientInstance::PJRT_Client_BufferFromHostBuffer
2025-09-09 19:22:17.881 (   6.596s) [        56CD8000]     memory_instance.cc:57       1| MemoryInstance::getDevice
2025-09-09 19:22:17.881 (   6.597s) [        56CD8000]      event_instance.cc:222      1| EventInstance::PJRT_Event_OnReady
2025-09-09 19:22:17.881 (   6.597s) [        56CD8000]      event_instance.cc:171      1| EventInstance::PJRT_Event_Destroy
2025-09-09 19:22:17.881 (   6.597s) [        56CD8000]  device_description.cc:44       1| DeviceDescription::PJRT_DeviceDescription_Id
2025-09-09 19:22:17.881 (   6.597s) [        56CD8000]  device_description.cc:44       1| DeviceDescription::PJRT_DeviceDescription_Id
2025-09-09 19:22:17.887 (   6.603s) [        56CD8000]     device_instance.cc:82       1| DeviceInstance::PJRT_Device_DefaultMemory
2025-09-09 19:22:17.887 (   6.603s) [        56CD8000]     client_instance.cc:466      1| ClientInstance::PJRT_Client_BufferFromHostBuffer
2025-09-09 19:22:17.887 (   6.603s) [        56CD8000]     memory_instance.cc:57       1| MemoryInstance::getDevice
2025-09-09 19:22:17.887 (   6.603s) [        56CD8000]      event_instance.cc:222      1| EventInstance::PJRT_Event_OnReady
2025-09-09 19:22:17.887 (   6.603s) [        56CD8000]      event_instance.cc:171      1| EventInstance::PJRT_Event_Destroy
2025-09-09 19:22:17.887 (   6.603s) [        56CD8000]     device_instance.cc:82       1| DeviceInstance::PJRT_Device_DefaultMemory
2025-09-09 19:22:17.887 (   6.603s) [        56CD8000]     client_instance.cc:466      1| ClientInstance::PJRT_Client_BufferFromHostBuffer
2025-09-09 19:22:17.887 (   6.603s) [        56CD8000]     memory_instance.cc:57       1| MemoryInstance::getDevice
2025-09-09 19:22:17.887 (   6.603s) [        56CD8000]      event_instance.cc:222      1| EventInstance::PJRT_Event_OnReady
2025-09-09 19:22:17.887 (   6.603s) [        56CD8000]      event_instance.cc:171      1| EventInstance::PJRT_Event_Destroy
2025-09-09 19:22:17.890 (   6.606s) [        56CD8000]  device_description.cc:44       1| DeviceDescription::PJRT_DeviceDescription_Id
2025-09-09 19:22:17.890 (   6.606s) [        56CD8000]  device_description.cc:44       1| DeviceDescription::PJRT_DeviceDescription_Id
2025-09-09 19:22:17.896 (   6.612s) [        56CD8000]     device_instance.cc:82       1| DeviceInstance::PJRT_Device_DefaultMemory
2025-09-09 19:22:17.896 (   6.612s) [        56CD8000]     client_instance.cc:466      1| ClientInstance::PJRT_Client_BufferFromHostBuffer
2025-09-09 19:22:17.896 (   6.612s) [        56CD8000]     memory_instance.cc:57       1| MemoryInstance::getDevice
2025-09-09 19:22:17.896 (   6.612s) [        56CD8000]      event_instance.cc:222      1| EventInstance::PJRT_Event_OnReady
2025-09-09 19:22:17.896 (   6.612s) [        56CD8000]      event_instance.cc:171      1| EventInstance::PJRT_Event_Destroy
2025-09-09 19:22:17.896 (   6.612s) [        56CD8000]     device_instance.cc:82       1| DeviceInstance::PJRT_Device_DefaultMemory
2025-09-09 19:22:17.897 (   6.612s) [        56CD8000]     client_instance.cc:466      1| ClientInstance::PJRT_Client_BufferFromHostBuffer
2025-09-09 19:22:17.897 (   6.612s) [        56CD8000]     memory_instance.cc:57       1| MemoryInstance::getDevice
2025-09-09 19:22:17.897 (   6.613s) [        56CD8000]      event_instance.cc:222      1| EventInstance::PJRT_Event_OnReady
2025-09-09 19:22:17.897 (   6.613s) [        56CD8000]      event_instance.cc:171      1| EventInstance::PJRT_Event_Destroy
2025-09-09 19:22:17.900 (   6.615s) [        56CD8000]  device_description.cc:44       1| DeviceDescription::PJRT_DeviceDescription_Id
2025-09-09 19:22:17.900 (   6.616s) [        56CD8000]  device_description.cc:44       1| DeviceDescription::PJRT_DeviceDescription_Id
2025-09-09 19:22:17.908 (   6.624s) [        56CD8000]     device_instance.cc:82       1| DeviceInstance::PJRT_Device_DefaultMemory
2025-09-09 19:22:17.909 (   6.624s) [        56CD8000]     client_instance.cc:466      1| ClientInstance::PJRT_Client_BufferFromHostBuffer
2025-09-09 19:22:17.909 (   6.624s) [        56CD8000]     memory_instance.cc:57       1| MemoryInstance::getDevice
2025-09-09 19:22:17.909 (   6.625s) [        56CD8000]      event_instance.cc:222      1| EventInstance::PJRT_Event_OnReady
2025-09-09 19:22:17.909 (   6.625s) [        56CD8000]      event_instance.cc:171      1| EventInstance::PJRT_Event_Destroy
2025-09-09 19:22:17.909 (   6.625s) [        56CD8000]     device_instance.cc:82       1| DeviceInstance::PJRT_Device_DefaultMemory
2025-09-09 19:22:17.909 (   6.625s) [        56CD8000]     client_instance.cc:466      1| ClientInstance::PJRT_Client_BufferFromHostBuffer
2025-09-09 19:22:17.909 (   6.625s) [        56CD8000]     memory_instance.cc:57       1| MemoryInstance::getDevice
2025-09-09 19:22:17.909 (   6.625s) [        56CD8000]      event_instance.cc:222      1| EventInstance::PJRT_Event_OnReady
2025-09-09 19:22:17.909 (   6.625s) [        56CD8000]      event_instance.cc:171      1| EventInstance::PJRT_Event_Destroy
2025-09-09 19:22:17.912 (   6.628s) [        56CD8000]  device_description.cc:44       1| DeviceDescription::PJRT_DeviceDescription_Id
2025-09-09 19:22:17.912 (   6.628s) [        56CD8000]  device_description.cc:44       1| DeviceDescription::PJRT_DeviceDescription_Id
2025-09-09 19:22:17.914 (   6.630s) [        56CD8000]     device_instance.cc:82       1| DeviceInstance::PJRT_Device_DefaultMemory
2025-09-09 19:22:17.914 (   6.630s) [        56CD8000]     client_instance.cc:466      1| ClientInstance::PJRT_Client_BufferFromHostBuffer
2025-09-09 19:22:17.914 (   6.630s) [        56CD8000]     memory_instance.cc:57       1| MemoryInstance::getDevice
2025-09-09 19:22:17.914 (   6.630s) [        56CD8000]      event_instance.cc:222      1| EventInstance::PJRT_Event_OnReady
2025-09-09 19:22:17.914 (   6.630s) [        56CD8000]      event_instance.cc:171      1| EventInstance::PJRT_Event_Destroy
2025-09-09 19:22:17.914 (   6.630s) [        56CD8000]     device_instance.cc:82       1| DeviceInstance::PJRT_Device_DefaultMemory
2025-09-09 19:22:17.914 (   6.630s) [        56CD8000]     client_instance.cc:466      1| ClientInstance::PJRT_Client_BufferFromHostBuffer
2025-09-09 19:22:17.914 (   6.630s) [        56CD8000]     memory_instance.cc:57       1| MemoryInstance::getDevice
2025-09-09 19:22:17.914 (   6.630s) [        56CD8000]      event_instance.cc:222      1| EventInstance::PJRT_Event_OnReady
2025-09-09 19:22:17.914 (   6.630s) [        56CD8000]      event_instance.cc:171      1| EventInstance::PJRT_Event_Destroy
2025-09-09 19:22:17.915 (   6.630s) [        56CD8000]  device_description.cc:44       1| DeviceDescription::PJRT_DeviceDescription_Id
2025-09-09 19:22:17.915 (   6.630s) [        56CD8000]  device_description.cc:44       1| DeviceDescription::PJRT_DeviceDescription_Id
2025-09-09 19:22:17.915 (   6.631s) [        56CD8000]     device_instance.cc:82       1| DeviceInstance::PJRT_Device_DefaultMemory
2025-09-09 19:22:17.915 (   6.631s) [        56CD8000]     client_instance.cc:466      1| ClientInstance::PJRT_Client_BufferFromHostBuffer
2025-09-09 19:22:17.915 (   6.631s) [        56CD8000]     memory_instance.cc:57       1| MemoryInstance::getDevice
2025-09-09 19:22:17.915 (   6.631s) [        56CD8000]      event_instance.cc:222      1| EventInstance::PJRT_Event_OnReady
2025-09-09 19:22:17.915 (   6.631s) [        56CD8000]      event_instance.cc:171      1| EventInstance::PJRT_Event_Destroy
2025-09-09 19:22:17.915 (   6.631s) [        56CD8000]     device_instance.cc:82       1| DeviceInstance::PJRT_Device_DefaultMemory
2025-09-09 19:22:17.915 (   6.631s) [        56CD8000]     client_instance.cc:466      1| ClientInstance::PJRT_Client_BufferFromHostBuffer
2025-09-09 19:22:17.915 (   6.631s) [        56CD8000]     memory_instance.cc:57       1| MemoryInstance::getDevice
2025-09-09 19:22:17.916 (   6.631s) [        56CD8000]      event_instance.cc:222      1| EventInstance::PJRT_Event_OnReady
2025-09-09 19:22:17.916 (   6.631s) [        56CD8000]      event_instance.cc:171      1| EventInstance::PJRT_Event_Destroy
2025-09-09 19:22:17.916 (   6.632s) [        56CD8000]  device_description.cc:44       1| DeviceDescription::PJRT_DeviceDescription_Id
2025-09-09 19:22:17.916 (   6.632s) [        56CD8000]  device_description.cc:44       1| DeviceDescription::PJRT_DeviceDescription_Id
2025-09-09 19:22:17.916 (   6.632s) [        56CD8000]     device_instance.cc:82       1| DeviceInstance::PJRT_Device_DefaultMemory
…
2025-09-09 19:22:21.614 (  10.330s) [        56CD8000]     buffer_instance.cc:398      1| BufferInstance::PJRT_Buffer_Destroy
2025-09-09 19:22:21.614 (  10.330s) [        56CD8000]     buffer_instance.cc:398      1| BufferInstance::PJRT_Buffer_Destroy
2025-09-09 19:22:21.653 (  10.369s) [        56CD8000]     buffer_instance.cc:398      1| BufferInstance::PJRT_Buffer_Destroy
2025-09-09 19:22:21.694 (  10.410s) [        56CD8000]     buffer_instance.cc:398      1| BufferInstance::PJRT_Buffer_Destroy
2025-09-09 19:22:21.695 (  10.410s) [        56CD8000]     buffer_instance.cc:398      1| BufferInstance::PJRT_Buffer_Destroy
2025-09-09 19:22:21.695 (  10.410s) [        56CD8000]     buffer_instance.cc:398      1| BufferInstance::PJRT_Buffer_Destroy
2025-09-09 19:22:21.695 (  10.411s) [        56CD8000]     buffer_instance.cc:398      1| BufferInstance::PJRT_Buffer_Destroy
2025-09-09 19:22:21.695 (  10.411s) [        56CD8000]     buffer_instance.cc:398      1| BufferInstance::PJRT_Buffer_Destroy
2025-09-09 19:22:21.695 (  10.411s) [        56CD8000]     buffer_instance.cc:398      1| BufferInstance::PJRT_Buffer_Destroy
2025-09-09 19:22:21.695 (  10.411s) [        56CD8000]     buffer_instance.cc:398      1| BufferInstance::PJRT_Buffer_Destroy
2025-09-09 19:22:21.695 (  10.411s) [        56CD8000]     buffer_instance.cc:398      1| BufferInstance::PJRT_Buffer_Destroy
2025-09-09 19:22:21.695 (  10.411s) [        56CD8000]     buffer_instance.cc:398      1| BufferInstance::PJRT_Buffer_Destroy
2025-09-09 19:22:21.695 (  10.411s) [        56CD8000]     buffer_instance.cc:398      1| BufferInstance::PJRT_Buffer_Destroy
2025-09-09 19:22:21.696 (  10.411s) [        56CD8000]     buffer_instance.cc:398      1| BufferInstance::PJRT_Buffer_Destroy
2025-09-09 19:22:21.696 (  10.411s) [        56CD8000]     buffer_instance.cc:398      1| BufferInstance::PJRT_Buffer_Destroy
2025-09-09 19:22:21.696 (  10.412s) [        56CD8000]     buffer_instance.cc:398      1| BufferInstance::PJRT_Buffer_Destroy
2025-09-09 19:22:21.696 (  10.412s) [        56CD8000]     buffer_instance.cc:398      1| BufferInstance::PJRT_Buffer_Destroy
2025-09-09 19:22:21.696 (  10.412s) [        56CD8000]     buffer_instance.cc:398      1| BufferInstance::PJRT_Buffer_Destroy
2025-09-09 19:22:21.728 (  10.443s) [        56CD8000]     buffer_instance.cc:398      1| BufferInstance::PJRT_Buffer_Destroy
2025-09-09 19:22:21.772 (  10.488s) [        56CD8000]     buffer_instance.cc:398      1| BufferInstance::PJRT_Buffer_Destroy
2025-09-09 19:22:21.772 (  10.488s) [        56CD8000]     buffer_instance.cc:398      1| BufferInstance::PJRT_Buffer_Destroy
2025-09-09 19:22:21.772 (  10.488s) [        56CD8000]     buffer_instance.cc:398      1| BufferInstance::PJRT_Buffer_Destroy
2025-09-09 19:22:21.773 (  10.488s) [        56CD8000]     buffer_instance.cc:398      1| BufferInstance::PJRT_Buffer_Destroy
2025-09-09 19:22:21.773 (  10.489s) [        56CD8000]     buffer_instance.cc:398      1| BufferInstance::PJRT_Buffer_Destroy
2025-09-09 19:22:21.773 (  10.489s) [        56CD8000]     buffer_instance.cc:398      1| BufferInstance::PJRT_Buffer_Destroy
2025-09-09 19:22:21.773 (  10.489s) [        56CD8000]     buffer_instance.cc:398      1| BufferInstance::PJRT_Buffer_Destroy
2025-09-09 19:22:21.773 (  10.489s) [        56CD8000]     buffer_instance.cc:398      1| BufferInstance::PJRT_Buffer_Destroy
2025-09-09 19:22:21.773 (  10.489s) [        56CD8000]     buffer_instance.cc:398      1| BufferInstance::PJRT_Buffer_Destroy
2025-09-09 19:22:21.773 (  10.489s) [        56CD8000]     buffer_instance.cc:398      1| BufferInstance::PJRT_Buffer_Destroy
2025-09-09 19:22:21.773 (  10.489s) [        56CD8000]     buffer_instance.cc:398      1| BufferInstance::PJRT_Buffer_Destroy
2025-09-09 19:22:21.773 (  10.489s) [        56CD8000]     buffer_instance.cc:398      1| BufferInstance::PJRT_Buffer_Destroy
2025-09-09 19:22:21.773 (  10.489s) [        56CD8000]     buffer_instance.cc:398      1| BufferInstance::PJRT_Buffer_Destroy
2025-09-09 19:22:21.773 (  10.489s) [        56CD8000]     buffer_instance.cc:398      1| BufferInstance::PJRT_Buffer_Destroy
2025-09-09 19:22:21.774 (  10.489s) [        56CD8000]     buffer_instance.cc:398      1| BufferInstance::PJRT_Buffer_Destroy
2025-09-09 19:22:21.774 (  10.489s) [        56CD8000]     buffer_instance.cc:398      1| BufferInstance::PJRT_Buffer_Destroy
2025-09-09 19:22:21.774 (  10.490s) [        56CD8000]     buffer_instance.cc:398      1| BufferInstance::PJRT_Buffer_Destroy
2025-09-09 19:22:21.774 (  10.490s) [        56CD8000]     buffer_instance.cc:398      1| BufferInstance::PJRT_Buffer_Destroy
2025-09-09 19:22:21.774 (  10.490s) [        56CD8000]     buffer_instance.cc:398      1| BufferInstance::PJRT_Buffer_Destroy
2025-09-09 19:22:21.774 (  10.490s) [        56CD8000]     buffer_instance.cc:398      1| BufferInstance::PJRT_Buffer_Destroy
2025-09-09 19:22:21.774 (  10.490s) [        56CD8000]     buffer_instance.cc:398      1| BufferInstance::PJRT_Buffer_Destroy
2025-09-09 19:22:21.774 (  10.490s) [        56CD8000]     buffer_instance.cc:398      1| BufferInstance::PJRT_Buffer_Destroy
2025-09-09 19:22:21.774 (  10.490s) [        56CD8000]     buffer_instance.cc:398      1| BufferInstance::PJRT_Buffer_Destroy
2025-09-09 19:22:21.774 (  10.490s) [        56CD8000]     buffer_instance.cc:398      1| BufferInstance::PJRT_Buffer_Destroy
2025-09-09 19:22:21.775 (  10.490s) [        56CD8000]     buffer_instance.cc:398      1| BufferInstance::PJRT_Buffer_Destroy
2025-09-09 19:22:21.775 (  10.490s) [        56CD8000]     buffer_instance.cc:398      1| BufferInstance::PJRT_Buffer_Destroy
2025-09-09 19:22:21.775 (  10.491s) [        56CD8000]     buffer_instance.cc:398      1| BufferInstance::PJRT_Buffer_Destroy
2025-09-09 19:22:21.775 (  10.491s) [        56CD8000]     buffer_instance.cc:398      1| BufferInstance::PJRT_Buffer_Destroy
2025-09-09 19:22:21.775 (  10.491s) [        56CD8000]     buffer_instance.cc:398      1| BufferInstance::PJRT_Buffer_Destroy
2025-09-09 19:22:21.775 (  10.491s) [        56CD8000]     buffer_instance.cc:398      1| BufferInstance::PJRT_Buffer_Destroy
2025-09-09 19:22:21.775 (  10.491s) [        56CD8000]     buffer_instance.cc:398      1| BufferInstance::PJRT_Buffer_Destroy
2025-09-09 19:22:21.775 (  10.491s) [        56CD8000]     buffer_instance.cc:398      1| BufferInstance::PJRT_Buffer_Destroy
2025-09-09 19:22:21.775 (  10.491s) [        56CD8000]     buffer_instance.cc:398      1| BufferInstance::PJRT_Buffer_Destroy
2025-09-09 19:22:21.776 (  10.491s) [        56CD8000]     buffer_instance.cc:398      1| BufferInstance::PJRT_Buffer_Destroy
2025-09-09 19:22:21.776 (  10.492s) [        56CD8000]     buffer_instance.cc:398      1| BufferInstance::PJRT_Buffer_Destroy
2025-09-09 19:22:21.776 (  10.492s) [        56CD8000]     buffer_instance.cc:398      1| BufferInstance::PJRT_Buffer_Destroy
2025-09-09 19:22:21.776 (  10.492s) [        56CD8000]     buffer_instance.cc:398      1| BufferInstance::PJRT_Buffer_Destroy
2025-09-09 19:22:21.776 (  10.492s) [        56CD8000]     buffer_instance.cc:398      1| BufferInstance::PJRT_Buffer_Destroy
2025-09-09 19:22:21.776 (  10.492s) [        56CD8000]     buffer_instance.cc:398      1| BufferInstance::PJRT_Buffer_Destroy
2025-09-09 19:22:21.776 (  10.492s) [        56CD8000]     buffer_instance.cc:398      1| BufferInstance::PJRT_Buffer_Destroy
2025-09-09 19:22:21.776 (  10.492s) [        56CD8000]     buffer_instance.cc:398      1| BufferInstance::PJRT_Buffer_Destroy
2025-09-09 19:22:21.776 (  10.492s) [        56CD8000]     buffer_instance.cc:398      1| BufferInstance::PJRT_Buffer_Destroy
2025-09-09 19:22:21.777 (  10.492s) [        56CD8000]     buffer_instance.cc:398      1| BufferInstance::PJRT_Buffer_Destroy
2025-09-09 19:22:21.777 (  10.493s) [        56CD8000]     buffer_instance.cc:398      1| BufferInstance::PJRT_Buffer_Destroy
2025-09-09 19:22:21.777 (  10.493s) [        56CD8000]     buffer_instance.cc:398      1| BufferInstance::PJRT_Buffer_Destroy
2025-09-09 19:22:21.777 (  10.493s) [        56CD8000]     buffer_instance.cc:398      1| BufferInstance::PJRT_Buffer_Destroy
2025-09-09 19:22:21.777 (  10.493s) [        56CD8000]     buffer_instance.cc:398      1| BufferInstance::PJRT_Buffer_Destroy
2025-09-09 19:22:21.777 (  10.493s) [        56CD8000]     buffer_instance.cc:398      1| BufferInstance::PJRT_Buffer_Destroy
2025-09-09 19:22:21.777 (  10.493s) [        56CD8000]     buffer_instance.cc:398      1| BufferInstance::PJRT_Buffer_Destroy
2025-09-09 19:22:21.777 (  10.493s) [        56CD8000]     buffer_instance.cc:398      1| BufferInstance::PJRT_Buffer_Destroy
2025-09-09 19:22:21.777 (  10.493s) [        56CD8000]     buffer_instance.cc:398      1| BufferInstance::PJRT_Buffer_Destroy
2025-09-09 19:22:21.778 (  10.493s) [        56CD8000]     buffer_instance.cc:398      1| BufferInstance::PJRT_Buffer_Destroy
2025-09-09 19:22:21.778 (  10.494s) [        56CD8000]     buffer_instance.cc:398      1| BufferInstance::PJRT_Buffer_Destroy
2025-09-09 19:22:21.778 (  10.494s) [        56CD8000]     buffer_instance.cc:398      1| BufferInstance::PJRT_Buffer_Destroy
2025-09-09 19:22:21.778 (  10.494s) [        56CD8000]     buffer_instance.cc:398      1| BufferInstance::PJRT_Buffer_Destroy
2025-09-09 19:22:21.778 (  10.494s) [        56CD8000]     buffer_instance.cc:398      1| BufferInstance::PJRT_Buffer_Destroy
2025-09-09 19:22:21.778 (  10.494s) [        56CD8000]     buffer_instance.cc:398      1| BufferInstance::PJRT_Buffer_Destroy
2025-09-09 19:22:21.778 (  10.494s) [        56CD8000]     buffer_instance.cc:398      1| BufferInstance::PJRT_Buffer_Destroy
2025-09-09 19:22:21.778 (  10.494s) [        56CD8000]     buffer_instance.cc:398      1| BufferInstance::PJRT_Buffer_Destroy
2025-09-09 19:22:21.778 (  10.494s) [        56CD8000]     buffer_instance.cc:398      1| BufferInstance::PJRT_Buffer_Destroy
2025-09-09 19:22:21.778 (  10.494s) [        56CD8000]     buffer_instance.cc:398      1| BufferInstance::PJRT_Buffer_Destroy
2025-09-09 19:22:21.778 (  10.494s) [        56CD8000]     buffer_instance.cc:398      1| BufferInstance::PJRT_Buffer_Destroy
2025-09-09 19:22:21.779 (  10.494s) [        56CD8000]     buffer_instance.cc:398      1| BufferInstance::PJRT_Buffer_Destroy
2025-09-09 19:22:21.779 (  10.494s) [        56CD8000]     buffer_instance.cc:398      1| BufferInstance::PJRT_Buffer_Destroy
2025-09-09 19:22:21.779 (  10.495s) [        56CD8000]     buffer_instance.cc:398      1| BufferInstance::PJRT_Buffer_Destroy
2025-09-09 19:22:21.779 (  10.495s) [        56CD8000]     buffer_instance.cc:398      1| BufferInstance::PJRT_Buffer_Destroy
2025-09-09 19:22:21.779 (  10.495s) [        56CD8000]     buffer_instance.cc:398      1| BufferInstance::PJRT_Buffer_Destroy
2025-09-09 19:22:21.779 (  10.495s) [        56CD8000]     buffer_instance.cc:398      1| BufferInstance::PJRT_Buffer_Destroy
2025-09-09 19:22:21.779 (  10.495s) [        56CD8000]     buffer_instance.cc:398      1| BufferInstance::PJRT_Buffer_Destroy
2025-09-09 19:22:21.779 (  10.495s) [        56CD8000]     buffer_instance.cc:398      1| BufferInstance::PJRT_Buffer_Destroy
2025-09-09 19:22:21.779 (  10.495s) [        56CD8000]     buffer_instance.cc:398      1| BufferInstance::PJRT_Buffer_Destroy
2025-09-09 19:22:21.779 (  10.495s) [        56CD8000]     buffer_instance.cc:398      1| BufferInstance::PJRT_Buffer_Destroy
2025-09-09 19:22:21.779 (  10.495s) [        56CD8000]     buffer_instance.cc:398      1| BufferInstance::PJRT_Buffer_Destroy
2025-09-09 19:22:21.780 (  10.495s) [        56CD8000]     buffer_instance.cc:398      1| BufferInstance::PJRT_Buffer_Destroy
2025-09-09 19:22:21.780 (  10.496s) [        56CD8000]     buffer_instance.cc:398      1| BufferInstance::PJRT_Buffer_Destroy
2025-09-09 19:22:21.780 (  10.496s) [        56CD8000]     buffer_instance.cc:398      1| BufferInstance::PJRT_Buffer_Destroy
2025-09-09 19:22:21.780 (  10.496s) [        56CD8000]     buffer_instance.cc:398      1| BufferInstance::PJRT_Buffer_Destroy
2025-09-09 19:22:21.780 (  10.496s) [        56CD8000]     buffer_instance.cc:398      1| BufferInstance::PJRT_Buffer_Destroy
2025-09-09 19:22:21.780 (  10.496s) [        56CD8000]     buffer_instance.cc:398      1| BufferInstance::PJRT_Buffer_Destroy
2025-09-09 19:22:21.780 (  10.496s) [        56CD8000]     buffer_instance.cc:398      1| BufferInstance::PJRT_Buffer_Destroy
2025-09-09 19:22:21.780 (  10.496s) [        56CD8000]     buffer_instance.cc:398      1| BufferInstance::PJRT_Buffer_Destroy
2025-09-09 19:22:21.780 (  10.496s) [        56CD8000]     buffer_instance.cc:398      1| BufferInstance::PJRT_Buffer_Destroy
2025-09-09 19:22:21.780 (  10.496s) [        56CD8000]     buffer_instance.cc:398      1| BufferInstance::PJRT_Buffer_Destroy
2025-09-09 19:22:21.780 (  10.496s) [        56CD8000]     buffer_instance.cc:398      1| BufferInstance::PJRT_Buffer_Destroy
2025-09-09 19:22:21.781 (  10.496s) [        56CD8000]     buffer_instance.cc:398      1| BufferInstance::PJRT_Buffer_Destroy
2025-09-09 19:22:21.781 (  10.496s) [        56CD8000]     buffer_instance.cc:398      1| BufferInstance::PJRT_Buffer_Destroy
2025-09-09 19:22:21.781 (  10.497s) [        56CD8000]     buffer_instance.cc:398      1| BufferInstance::PJRT_Buffer_Destroy
2025-09-09 19:22:21.781 (  10.497s) [        56CD8000]     buffer_instance.cc:398      1| BufferInstance::PJRT_Buffer_Destroy
2025-09-09 19:22:21.781 (  10.497s) [        56CD8000]     buffer_instance.cc:398      1| BufferInstance::PJRT_Buffer_Destroy
2025-09-09 19:22:21.781 (  10.497s) [        56CD8000]     buffer_instance.cc:398      1| BufferInstance::PJRT_Buffer_Destroy
2025-09-09 19:22:21.781 (  10.497s) [        56CD8000]     buffer_instance.cc:398      1| BufferInstance::PJRT_Buffer_Destroy
2025-09-09 19:22:21.781 (  10.497s) [        56CD8000]     buffer_instance.cc:398      1| BufferInstance::PJRT_Buffer_Destroy
2025-09-09 19:22:21.781 (  10.497s) [        56CD8000]     buffer_instance.cc:398      1| BufferInstance::PJRT_Buffer_Destroy
2025-09-09 19:22:21.781 (  10.497s) [        56CD8000]     buffer_instance.cc:398      1| BufferInstance::PJRT_Buffer_Destroy
2025-09-09 19:22:21.782 (  10.497s) [        56CD8000]     buffer_instance.cc:398      1| BufferInstance::PJRT_Buffer_Destroy
2025-09-09 19:22:21.782 (  10.497s) [        56CD8000]     buffer_instance.cc:398      1| BufferInstance::PJRT_Buffer_Destroy
2025-09-09 19:22:21.782 (  10.498s) [        56CD8000]     buffer_instance.cc:398      1| BufferInstance::PJRT_Buffer_Destroy
2025-09-09 19:22:21.782 (  10.498s) [        56CD8000]     buffer_instance.cc:398      1| BufferInstance::PJRT_Buffer_Destroy
2025-09-09 19:22:21.782 (  10.498s) [        56CD8000]     buffer_instance.cc:398      1| BufferInstance::PJRT_Buffer_Destroy
2025-09-09 19:22:21.782 (  10.498s) [        56CD8000]     buffer_instance.cc:398      1| BufferInstance::PJRT_Buffer_Destroy
2025-09-09 19:22:21.782 (  10.498s) [        56CD8000]     buffer_instance.cc:398      1| BufferInstance::PJRT_Buffer_Destroy
2025-09-09 19:22:21.782 (  10.498s) [        56CD8000]     buffer_instance.cc:398      1| BufferInstance::PJRT_Buffer_Destroy
2025-09-09 19:22:21.782 (  10.498s) [        56CD8000]     buffer_instance.cc:398      1| BufferInstance::PJRT_Buffer_Destroy
2025-09-09 19:22:21.782 (  10.498s) [        56CD8000]     buffer_instance.cc:398      1| BufferInstance::PJRT_Buffer_Destroy
2025-09-09 19:22:21.782 (  10.498s) [        56CD8000]     buffer_instance.cc:398      1| BufferInstance::PJRT_Buffer_Destroy
2025-09-09 19:22:21.782 (  10.498s) [        56CD8000]     buffer_instance.cc:398      1| BufferInstance::PJRT_Buffer_Destroy
2025-09-09 19:22:21.782 (  10.498s) [        56CD8000]     buffer_instance.cc:398      1| BufferInstance::PJRT_Buffer_Destroy
2025-09-09 19:22:21.783 (  10.498s) [        56CD8000]     buffer_instance.cc:398      1| BufferInstance::PJRT_Buffer_Destroy
2025-09-09 19:22:21.783 (  10.498s) [        56CD8000]     buffer_instance.cc:398      1| BufferInstance::PJRT_Buffer_Destroy
2025-09-09 19:22:21.783 (  10.498s) [        56CD8000]     buffer_instance.cc:398      1| BufferInstance::PJRT_Buffer_Destroy
2025-09-09 19:22:21.783 (  10.499s) [        56CD8000]     buffer_instance.cc:398      1| BufferInstance::PJRT_Buffer_Destroy
2025-09-09 19:22:21.783 (  10.499s) [        56CD8000]     buffer_instance.cc:398      1| BufferInstance::PJRT_Buffer_Destroy
2025-09-09 19:22:21.783 (  10.499s) [        56CD8000]     buffer_instance.cc:398      1| BufferInstance::PJRT_Buffer_Destroy
2025-09-09 19:22:21.783 (  10.499s) [        56CD8000]     buffer_instance.cc:398      1| BufferInstance::PJRT_Buffer_Destroy
2025-09-09 19:22:21.783 (  10.499s) [        56CD8000]     buffer_instance.cc:398      1| BufferInstance::PJRT_Buffer_Destroy
2025-09-09 19:22:21.783 (  10.499s) [        56CD8000]     buffer_instance.cc:398      1| BufferInstance::PJRT_Buffer_Destroy
2025-09-09 19:22:21.783 (  10.499s) [        56CD8000]     buffer_instance.cc:398      1| BufferInstance::PJRT_Buffer_Destroy
2025-09-09 19:22:21.783 (  10.499s) [        56CD8000]     buffer_instance.cc:398      1| BufferInstance::PJRT_Buffer_Destroy
2025-09-09 19:22:21.783 (  10.499s) [        56CD8000]     buffer_instance.cc:398      1| BufferInstance::PJRT_Buffer_Destroy
2025-09-09 19:22:21.783 (  10.499s) [        56CD8000]     buffer_instance.cc:398      1| BufferInstance::PJRT_Buffer_Destroy
2025-09-09 19:22:21.784 (  10.499s) [        56CD8000]     buffer_instance.cc:398      1| BufferInstance::PJRT_Buffer_Destroy
2025-09-09 19:22:21.784 (  10.499s) [        56CD8000]     buffer_instance.cc:398      1| BufferInstance::PJRT_Buffer_Destroy
2025-09-09 19:22:21.784 (  10.500s) [        56CD8000]     buffer_instance.cc:398      1| BufferInstance::PJRT_Buffer_Destroy
2025-09-09 19:22:21.784 (  10.500s) [        56CD8000]     buffer_instance.cc:398      1| BufferInstance::PJRT_Buffer_Destroy
2025-09-09 19:22:21.784 (  10.500s) [        56CD8000]     buffer_instance.cc:398      1| BufferInstance::PJRT_Buffer_Destroy
2025-09-09 19:22:21.784 (  10.500s) [        56CD8000]     buffer_instance.cc:398      1| BufferInstance::PJRT_Buffer_Destroy
2025-09-09 19:22:21.784 (  10.500s) [        56CD8000]     buffer_instance.cc:398      1| BufferInstance::PJRT_Buffer_Destroy
2025-09-09 19:22:21.784 (  10.500s) [        56CD8000]     buffer_instance.cc:398      1| BufferInstance::PJRT_Buffer_Destroy
2025-09-09 19:22:21.784 (  10.500s) [        56CD8000]     buffer_instance.cc:398      1| BufferInstance::PJRT_Buffer_Destroy
2025-09-09 19:22:21.784 (  10.500s) [        56CD8000]     buffer_instance.cc:398      1| BufferInstance::PJRT_Buffer_Destroy
2025-09-09 19:22:21.784 (  10.500s) [        56CD8000]     buffer_instance.cc:398      1| BufferInstance::PJRT_Buffer_Destroy
2025-09-09 19:22:21.784 (  10.500s) [        56CD8000]     buffer_instance.cc:398      1| BufferInstance::PJRT_Buffer_Destroy
2025-09-09 19:22:21.785 (  10.500s) [        56CD8000]     buffer_instance.cc:398      1| BufferInstance::PJRT_Buffer_Destroy
2025-09-09 19:22:21.785 (  10.500s) [        56CD8000]     buffer_instance.cc:398      1| BufferInstance::PJRT_Buffer_Destroy
2025-09-09 19:22:21.785 (  10.500s) [        56CD8000]     buffer_instance.cc:398      1| BufferInstance::PJRT_Buffer_Destroy
2025-09-09 19:22:21.785 (  10.501s) [        56CD8000]     buffer_instance.cc:398      1| BufferInstance::PJRT_Buffer_Destroy
2025-09-09 19:22:21.785 (  10.501s) [        56CD8000]     buffer_instance.cc:398      1| BufferInstance::PJRT_Buffer_Destroy
2025-09-09 19:22:21.785 (  10.501s) [        56CD8000]     buffer_instance.cc:398      1| BufferInstance::PJRT_Buffer_Destroy
2025-09-09 19:22:21.785 (  10.501s) [        56CD8000]     buffer_instance.cc:398      1| BufferInstance::PJRT_Buffer_Destroy
2025-09-09 19:22:21.785 (  10.501s) [        56CD8000]     buffer_instance.cc:398      1| BufferInstance::PJRT_Buffer_Destroy
2025-09-09 19:22:21.785 (  10.501s) [        56CD8000]     buffer_instance.cc:398      1| BufferInstance::PJRT_Buffer_Destroy
2025-09-09 19:22:21.785 (  10.501s) [        56CD8000]     buffer_instance.cc:398      1| BufferInstance::PJRT_Buffer_Destroy
2025-09-09 19:22:21.785 (  10.501s) [        56CD8000]     buffer_instance.cc:398      1| BufferInstance::PJRT_Buffer_Destroy
2025-09-09 19:22:21.785 (  10.501s) [        56CD8000]     buffer_instance.cc:398      1| BufferInstance::PJRT_Buffer_Destroy
2025-09-09 19:22:21.785 (  10.501s) [        56CD8000]     buffer_instance.cc:398      1| BufferInstance::PJRT_Buffer_Destroy
2025-09-09 19:22:21.785 (  10.501s) [        56CD8000]     buffer_instance.cc:398      1| BufferInstance::PJRT_Buffer_Destroy
2025-09-09 19:22:21.785 (  10.501s) [        56CD8000]     buffer_instance.cc:398      1| BufferInstance::PJRT_Buffer_Destroy
2025-09-09 19:22:21.786 (  10.501s) [        56CD8000]     buffer_instance.cc:398      1| BufferInstance::PJRT_Buffer_Destroy
2025-09-09 19:22:21.786 (  10.501s) [        56CD8000]     buffer_instance.cc:398      1| BufferInstance::PJRT_Buffer_Destroy
2025-09-09 19:22:21.786 (  10.501s) [        56CD8000]     buffer_instance.cc:398      1| BufferInstance::PJRT_Buffer_Destroy
2025-09-09 19:22:21.786 (  10.502s) [        56CD8000]     buffer_instance.cc:398      1| BufferInstance::PJRT_Buffer_Destroy
2025-09-09 19:22:21.786 (  10.502s) [        56CD8000]     buffer_instance.cc:398      1| BufferInstance::PJRT_Buffer_Destroy
2025-09-09 19:22:21.786 (  10.502s) [        56CD8000]     buffer_instance.cc:398      1| BufferInstance::PJRT_Buffer_Destroy
2025-09-09 19:22:21.786 (  10.502s) [        56CD8000]     buffer_instance.cc:398      1| BufferInstance::PJRT_Buffer_Destroy
2025-09-09 19:22:21.786 (  10.502s) [        56CD8000]     buffer_instance.cc:398      1| BufferInstance::PJRT_Buffer_Destroy
2025-09-09 19:22:21.786 (  10.502s) [        56CD8000]     buffer_instance.cc:398      1| BufferInstance::PJRT_Buffer_Destroy
2025-09-09 19:22:21.786 (  10.502s) [        56CD8000]     buffer_instance.cc:398      1| BufferInstance::PJRT_Buffer_Destroy
2025-09-09 19:22:21.786 (  10.502s) [        56CD8000]     buffer_instance.cc:398      1| BufferInstance::PJRT_Buffer_Destroy
2025-09-09 19:22:21.786 (  10.502s) [        56CD8000]     buffer_instance.cc:398      1| BufferInstance::PJRT_Buffer_Destroy
2025-09-09 19:22:21.786 (  10.502s) [        56CD8000]     buffer_instance.cc:398      1| BufferInstance::PJRT_Buffer_Destroy
2025-09-09 19:22:21.786 (  10.502s) [        56CD8000]     buffer_instance.cc:398      1| BufferInstance::PJRT_Buffer_Destroy
2025-09-09 19:22:21.786 (  10.502s) [        56CD8000]     buffer_instance.cc:398      1| BufferInstance::PJRT_Buffer_Destroy
2025-09-09 19:22:21.786 (  10.502s) [        56CD8000]     buffer_instance.cc:398      1| BufferInstance::PJRT_Buffer_Destroy
2025-09-09 19:22:21.786 (  10.502s) [        56CD8000]     buffer_instance.cc:398      1| BufferInstance::PJRT_Buffer_Destroy
2025-09-09 19:22:21.787 (  10.502s) [        56CD8000]     buffer_instance.cc:398      1| BufferInstance::PJRT_Buffer_Destroy
2025-09-09 19:22:21.787 (  10.502s) [        56CD8000]     buffer_instance.cc:398      1| BufferInstance::PJRT_Buffer_Destroy
2025-09-09 19:22:21.787 (  10.502s) [        56CD8000]     buffer_instance.cc:398      1| BufferInstance::PJRT_Buffer_Destroy
2025-09-09 19:22:21.787 (  10.503s) [        56CD8000]     buffer_instance.cc:398      1| BufferInstance::PJRT_Buffer_Destroy
2025-09-09 19:22:21.787 (  10.503s) [        56CD8000]     buffer_instance.cc:398      1| BufferInstance::PJRT_Buffer_Destroy
2025-09-09 19:22:21.787 (  10.503s) [        56CD8000]     buffer_instance.cc:398      1| BufferInstance::PJRT_Buffer_Destroy
2025-09-09 19:22:21.787 (  10.503s) [        56CD8000]     buffer_instance.cc:398      1| BufferInstance::PJRT_Buffer_Destroy
2025-09-09 19:22:21.787 (  10.503s) [        56CD8000]     buffer_instance.cc:398      1| BufferInstance::PJRT_Buffer_Destroy
2025-09-09 19:22:21.787 (  10.503s) [        56CD8000]     buffer_instance.cc:398      1| BufferInstance::PJRT_Buffer_Destroy
2025-09-09 19:22:21.787 (  10.503s) [        56CD8000]     buffer_instance.cc:398      1| BufferInstance::PJRT_Buffer_Destroy
2025-09-09 19:22:21.787 (  10.503s) [        56CD8000]     buffer_instance.cc:398      1| BufferInstance::PJRT_Buffer_Destroy
2025-09-09 19:22:21.787 (  10.503s) [        56CD8000]     buffer_instance.cc:398      1| BufferInstance::PJRT_Buffer_Destroy
2025-09-09 19:22:21.787 (  10.503s) [        56CD8000]     buffer_instance.cc:398      1| BufferInstance::PJRT_Buffer_Destroy
2025-09-09 19:22:21.787 (  10.503s) [        56CD8000]     buffer_instance.cc:398      1| BufferInstance::PJRT_Buffer_Destroy
2025-09-09 19:22:21.787 (  10.503s) [        56CD8000]     buffer_instance.cc:398      1| BufferInstance::PJRT_Buffer_Destroy
2025-09-09 19:22:21.787 (  10.503s) [        56CD8000]     buffer_instance.cc:398      1| BufferInstance::PJRT_Buffer_Destroy
2025-09-09 19:22:21.787 (  10.503s) [        56CD8000]     buffer_instance.cc:398      1| BufferInstance::PJRT_Buffer_Destroy
2025-09-09 19:22:21.788 (  10.503s) [        56CD8000]     buffer_instance.cc:398      1| BufferInstance::PJRT_Buffer_Destroy
2025-09-09 19:22:21.788 (  10.503s) [        56CD8000]     buffer_instance.cc:398      1| BufferInstance::PJRT_Buffer_Destroy
2025-09-09 19:22:21.788 (  10.504s) [        56CD8000]     buffer_instance.cc:398      1| BufferInstance::PJRT_Buffer_Destroy
2025-09-09 19:22:21.788 (  10.504s) [        56CD8000]     buffer_instance.cc:398      1| BufferInstance::PJRT_Buffer_Destroy
2025-09-09 19:22:21.788 (  10.504s) [        56CD8000]     buffer_instance.cc:398      1| BufferInstance::PJRT_Buffer_Destroy
2025-09-09 19:22:21.788 (  10.504s) [        56CD8000]     buffer_instance.cc:398      1| BufferInstance::PJRT_Buffer_Destroy
2025-09-09 19:22:21.788 (  10.504s) [        56CD8000]     buffer_instance.cc:398      1| BufferInstance::PJRT_Buffer_Destroy
2025-09-09 19:22:21.788 (  10.504s) [        56CD8000]     buffer_instance.cc:398      1| BufferInstance::PJRT_Buffer_Destroy
2025-09-09 19:22:21.788 (  10.504s) [        56CD8000]     buffer_instance.cc:398      1| BufferInstance::PJRT_Buffer_Destroy
2025-09-09 19:22:21.788 (  10.504s) [        56CD8000]     buffer_instance.cc:398      1| BufferInstance::PJRT_Buffer_Destroy
2025-09-09 19:22:21.788 (  10.504s) [        56CD8000]     buffer_instance.cc:398      1| BufferInstance::PJRT_Buffer_Destroy
2025-09-09 19:22:21.788 (  10.504s) [        56CD8000]     buffer_instance.cc:398      1| BufferInstance::PJRT_Buffer_Destroy
2025-09-09 19:22:21.789 (  10.504s) [        56CD8000]     buffer_instance.cc:398      1| BufferInstance::PJRT_Buffer_Destroy
2025-09-09 19:22:21.789 (  10.504s) [        56CD8000]     buffer_instance.cc:398      1| BufferInstance::PJRT_Buffer_Destroy
2025-09-09 19:22:21.789 (  10.504s) [        56CD8000]     buffer_instance.cc:398      1| BufferInstance::PJRT_Buffer_Destroy
2025-09-09 19:22:21.789 (  10.505s) [        56CD8000]     buffer_instance.cc:398      1| BufferInstance::PJRT_Buffer_Destroy
2025-09-09 19:22:21.789 (  10.505s) [        56CD8000]     buffer_instance.cc:398      1| BufferInstance::PJRT_Buffer_Destroy
2025-09-09 19:22:21.789 (  10.505s) [        56CD8000]     buffer_instance.cc:398      1| BufferInstance::PJRT_Buffer_Destroy
2025-09-09 19:22:21.789 (  10.505s) [        56CD8000]     buffer_instance.cc:398      1| BufferInstance::PJRT_Buffer_Destroy
2025-09-09 19:22:21.789 (  10.505s) [        56CD8000]     buffer_instance.cc:398      1| BufferInstance::PJRT_Buffer_Destroy
2025-09-09 19:22:21.789 (  10.505s) [        56CD8000]     buffer_instance.cc:398      1| BufferInstance::PJRT_Buffer_Destroy
2025-09-09 19:22:21.789 (  10.505s) [        56CD8000]     buffer_instance.cc:398      1| BufferInstance::PJRT_Buffer_Destroy
2025-09-09 19:22:21.789 (  10.505s) [        56CD8000]     buffer_instance.cc:398      1| BufferInstance::PJRT_Buffer_Destroy
2025-09-09 19:22:21.789 (  10.505s) [        56CD8000]     buffer_instance.cc:398      1| BufferInstance::PJRT_Buffer_Destroy
2025-09-09 19:22:21.789 (  10.505s) [        56CD8000]     buffer_instance.cc:398      1| BufferInstance::PJRT_Buffer_Destroy
2025-09-09 19:22:21.789 (  10.505s) [        56CD8000]     buffer_instance.cc:398      1| BufferInstance::PJRT_Buffer_Destroy
2025-09-09 19:22:21.789 (  10.505s) [        56CD8000]     buffer_instance.cc:398      1| BufferInstance::PJRT_Buffer_Destroy
2025-09-09 19:22:21.790 (  10.505s) [        56CD8000]     buffer_instance.cc:398      1| BufferInstance::PJRT_Buffer_Destroy
2025-09-09 19:22:21.790 (  10.505s) [        56CD8000]     buffer_instance.cc:398      1| BufferInstance::PJRT_Buffer_Destroy
2025-09-09 19:22:21.790 (  10.506s) [        56CD8000]     buffer_instance.cc:398      1| BufferInstance::PJRT_Buffer_Destroy
2025-09-09 19:22:21.790 (  10.506s) [        56CD8000]     buffer_instance.cc:398      1| BufferInstance::PJRT_Buffer_Destroy
2025-09-09 19:22:21.790 (  10.506s) [        56CD8000]     buffer_instance.cc:398      1| BufferInstance::PJRT_Buffer_Destroy
2025-09-09 19:22:21.790 (  10.506s) [        56CD8000]     buffer_instance.cc:398      1| BufferInstance::PJRT_Buffer_Destroy
2025-09-09 19:22:21.790 (  10.506s) [        56CD8000]     buffer_instance.cc:398      1| BufferInstance::PJRT_Buffer_Destroy
2025-09-09 19:22:21.790 (  10.506s) [        56CD8000]     buffer_instance.cc:398      1| BufferInstance::PJRT_Buffer_Destroy
2025-09-09 19:22:21.790 (  10.506s) [        56CD8000]     buffer_instance.cc:398      1| BufferInstance::PJRT_Buffer_Destroy
2025-09-09 19:22:21.790 (  10.506s) [        56CD8000]     buffer_instance.cc:398      1| BufferInstance::PJRT_Buffer_Destroy
2025-09-09 19:22:21.790 (  10.506s) [        56CD8000]     buffer_instance.cc:398      1| BufferInstance::PJRT_Buffer_Destroy
2025-09-09 19:22:21.790 (  10.506s) [        56CD8000]     buffer_instance.cc:398      1| BufferInstance::PJRT_Buffer_Destroy
2025-09-09 19:22:21.790 (  10.506s) [        56CD8000]     buffer_instance.cc:398      1| BufferInstance::PJRT_Buffer_Destroy
2025-09-09 19:22:21.790 (  10.506s) [        56CD8000]     buffer_instance.cc:398      1| BufferInstance::PJRT_Buffer_Destroy
2025-09-09 19:22:21.790 (  10.506s) [        56CD8000]     buffer_instance.cc:398      1| BufferInstance::PJRT_Buffer_Destroy
2025-09-09 19:22:21.791 (  10.506s) [        56CD8000]     buffer_instance.cc:398      1| BufferInstance::PJRT_Buffer_Destroy
2025-09-09 19:22:21.791 (  10.506s) [        56CD8000]     buffer_instance.cc:398      1| BufferInstance::PJRT_Buffer_Destroy
2025-09-09 19:22:21.791 (  10.507s) [        56CD8000]     buffer_instance.cc:398      1| BufferInstance::PJRT_Buffer_Destroy
2025-09-09 19:22:21.791 (  10.507s) [        56CD8000]     buffer_instance.cc:398      1| BufferInstance::PJRT_Buffer_Destroy
2025-09-09 19:22:21.791 (  10.507s) [        56CD8000]     buffer_instance.cc:398      1| BufferInstance::PJRT_Buffer_Destroy
2025-09-09 19:22:21.791 (  10.507s) [        56CD8000]     buffer_instance.cc:398      1| BufferInstance::PJRT_Buffer_Destroy
2025-09-09 19:22:21.791 (  10.507s) [        56CD8000]     buffer_instance.cc:398      1| BufferInstance::PJRT_Buffer_Destroy
2025-09-09 19:22:21.791 (  10.507s) [        56CD8000]     buffer_instance.cc:398      1| BufferInstance::PJRT_Buffer_Destroy
2025-09-09 19:22:21.791 (  10.507s) [        56CD8000]     buffer_instance.cc:398      1| BufferInstance::PJRT_Buffer_Destroy
2025-09-09 19:22:21.791 (  10.507s) [        56CD8000]     buffer_instance.cc:398      1| BufferInstance::PJRT_Buffer_Destroy
2025-09-09 19:22:21.791 (  10.507s) [        56CD8000]     buffer_instance.cc:398      1| BufferInstance::PJRT_Buffer_Destroy
2025-09-09 19:22:21.791 (  10.507s) [        56CD8000]     buffer_instance.cc:398      1| BufferInstance::PJRT_Buffer_Destroy
2025-09-09 19:22:21.791 (  10.507s) [        56CD8000]     buffer_instance.cc:398      1| BufferInstance::PJRT_Buffer_Destroy
2025-09-09 19:22:21.792 (  10.507s) [        56CD8000]     buffer_instance.cc:398      1| BufferInstance::PJRT_Buffer_Destroy
2025-09-09 19:22:21.792 (  10.507s) [        56CD8000]     buffer_instance.cc:398      1| BufferInstance::PJRT_Buffer_Destroy
2025-09-09 19:22:21.792 (  10.507s) [        56CD8000]     buffer_instance.cc:398      1| BufferInstance::PJRT_Buffer_Destroy
2025-09-09 19:22:21.792 (  10.508s) [        56CD8000]     buffer_instance.cc:398      1| BufferInstance::PJRT_Buffer_Destroy
2025-09-09 19:22:21.792 (  10.508s) [        56CD8000]     buffer_instance.cc:398      1| BufferInstance::PJRT_Buffer_Destroy
2025-09-09 19:22:21.792 (  10.508s) [        56CD8000]     buffer_instance.cc:398      1| BufferInstance::PJRT_Buffer_Destroy
2025-09-09 19:22:21.792 (  10.508s) [        56CD8000]     buffer_instance.cc:398      1| BufferInstance::PJRT_Buffer_Destroy
2025-09-09 19:22:21.792 (  10.508s) [        56CD8000]     buffer_instance.cc:398      1| BufferInstance::PJRT_Buffer_Destroy
2025-09-09 19:22:21.792 (  10.508s) [        56CD8000]     buffer_instance.cc:398      1| BufferInstance::PJRT_Buffer_Destroy
2025-09-09 19:22:21.792 (  10.508s) [        56CD8000]     buffer_instance.cc:398      1| BufferInstance::PJRT_Buffer_Destroy
2025-09-09 19:22:21.792 (  10.508s) [        56CD8000]     buffer_instance.cc:398      1| BufferInstance::PJRT_Buffer_Destroy
2025-09-09 19:22:21.792 (  10.508s) [        56CD8000]     buffer_instance.cc:398      1| BufferInstance::PJRT_Buffer_Destroy
2025-09-09 19:22:21.792 (  10.508s) [        56CD8000]     buffer_instance.cc:398      1| BufferInstance::PJRT_Buffer_Destroy
2025-09-09 19:22:21.792 (  10.508s) [        56CD8000]     buffer_instance.cc:398      1| BufferInstance::PJRT_Buffer_Destroy
2025-09-09 19:22:21.792 (  10.508s) [        56CD8000]     buffer_instance.cc:398      1| BufferInstance::PJRT_Buffer_Destroy
2025-09-09 19:22:21.793 (  10.508s) [        56CD8000]     buffer_instance.cc:398      1| BufferInstance::PJRT_Buffer_Destroy
2025-09-09 19:22:21.793 (  10.508s) [        56CD8000]     buffer_instance.cc:398      1| BufferInstance::PJRT_Buffer_Destroy
2025-09-09 19:22:21.793 (  10.509s) [        56CD8000]     buffer_instance.cc:398      1| BufferInstance::PJRT_Buffer_Destroy
2025-09-09 19:22:21.793 (  10.509s) [        56CD8000]     buffer_instance.cc:398      1| BufferInstance::PJRT_Buffer_Destroy
2025-09-09 19:22:21.793 (  10.509s) [        56CD8000]     buffer_instance.cc:398      1| BufferInstance::PJRT_Buffer_Destroy
2025-09-09 19:22:21.793 (  10.509s) [        56CD8000]     buffer_instance.cc:398      1| BufferInstance::PJRT_Buffer_Destroy
2025-09-09 19:22:21.793 (  10.509s) [        56CD8000]     buffer_instance.cc:398      1| BufferInstance::PJRT_Buffer_Destroy
2025-09-09 19:22:21.793 (  10.509s) [        56CD8000]     buffer_instance.cc:398      1| BufferInstance::PJRT_Buffer_Destroy
2025-09-09 19:22:21.793 (  10.509s) [        56CD8000]     buffer_instance.cc:398      1| BufferInstance::PJRT_Buffer_Destroy
2025-09-09 19:22:21.793 (  10.509s) [        56CD8000]     buffer_instance.cc:398      1| BufferInstance::PJRT_Buffer_Destroy
2025-09-09 19:22:21.793 (  10.509s) [        56CD8000]     buffer_instance.cc:398      1| BufferInstance::PJRT_Buffer_Destroy
2025-09-09 19:22:21.793 (  10.509s) [        56CD8000]     buffer_instance.cc:398      1| BufferInstance::PJRT_Buffer_Destroy
2025-09-09 19:22:21.793 (  10.509s) [        56CD8000]     buffer_instance.cc:398      1| BufferInstance::PJRT_Buffer_Destroy
2025-09-09 19:22:21.793 (  10.509s) [        56CD8000]     buffer_instance.cc:398      1| BufferInstance::PJRT_Buffer_Destroy
2025-09-09 19:22:21.794 (  10.509s) [        56CD8000]     buffer_instance.cc:398      1| BufferInstance::PJRT_Buffer_Destroy
2025-09-09 19:22:21.794 (  10.509s) [        56CD8000]     buffer_instance.cc:398      1| BufferInstance::PJRT_Buffer_Destroy
2025-09-09 19:22:21.794 (  10.510s) [        56CD8000]     buffer_instance.cc:398      1| BufferInstance::PJRT_Buffer_Destroy
2025-09-09 19:22:21.794 (  10.510s) [        56CD8000]     buffer_instance.cc:398      1| BufferInstance::PJRT_Buffer_Destroy
2025-09-09 19:22:21.794 (  10.510s) [        56CD8000]     buffer_instance.cc:398      1| BufferInstance::PJRT_Buffer_Destroy
2025-09-09 19:22:21.794 (  10.510s) [        56CD8000]     buffer_instance.cc:398      1| BufferInstance::PJRT_Buffer_Destroy
2025-09-09 19:22:21.794 (  10.510s) [        56CD8000]     buffer_instance.cc:398      1| BufferInstance::PJRT_Buffer_Destroy
2025-09-09 19:22:21.794 (  10.510s) [        56CD8000]     buffer_instance.cc:398      1| BufferInstance::PJRT_Buffer_Destroy
2025-09-09 19:22:21.794 (  10.510s) [        56CD8000]     buffer_instance.cc:398      1| BufferInstance::PJRT_Buffer_Destroy
2025-09-09 19:22:21.794 (  10.510s) [        56CD8000]     buffer_instance.cc:398      1| BufferInstance::PJRT_Buffer_Destroy
2025-09-09 19:22:21.794 (  10.510s) [        56CD8000]     buffer_instance.cc:398      1| BufferInstance::PJRT_Buffer_Destroy
2025-09-09 19:22:21.794 (  10.510s) [        56CD8000]     buffer_instance.cc:398      1| BufferInstance::PJRT_Buffer_Destroy
2025-09-09 19:22:21.794 (  10.510s) [        56CD8000]     buffer_instance.cc:398      1| BufferInstance::PJRT_Buffer_Destroy
2025-09-09 19:22:21.794 (  10.510s) [        56CD8000]     buffer_instance.cc:398      1| BufferInstance::PJRT_Buffer_Destroy
2025-09-09 19:22:21.794 (  10.510s) [        56CD8000]     buffer_instance.cc:398      1| BufferInstance::PJRT_Buffer_Destroy
2025-09-09 19:22:21.795 (  10.510s) [        56CD8000]     buffer_instance.cc:398      1| BufferInstance::PJRT_Buffer_Destroy
2025-09-09 19:22:21.795 (  10.510s) [        56CD8000]     buffer_instance.cc:398      1| BufferInstance::PJRT_Buffer_Destroy
2025-09-09 19:22:21.795 (  10.510s) [        56CD8000]     buffer_instance.cc:398      1| BufferInstance::PJRT_Buffer_Destroy
2025-09-09 19:22:21.795 (  10.511s) [        56CD8000]     buffer_instance.cc:398      1| BufferInstance::PJRT_Buffer_Destroy
2025-09-09 19:22:21.795 (  10.511s) [        56CD8000]     buffer_instance.cc:398      1| BufferInstance::PJRT_Buffer_Destroy
2025-09-09 19:22:21.795 (  10.511s) [        56CD8000]     buffer_instance.cc:398      1| BufferInstance::PJRT_Buffer_Destroy
2025-09-09 19:22:21.795 (  10.511s) [        56CD8000]     buffer_instance.cc:398      1| BufferInstance::PJRT_Buffer_Destroy
2025-09-09 19:22:21.795 (  10.511s) [        56CD8000]     buffer_instance.cc:398      1| BufferInstance::PJRT_Buffer_Destroy
2025-09-09 19:22:21.795 (  10.511s) [        56CD8000]     buffer_instance.cc:398      1| BufferInstance::PJRT_Buffer_Destroy
2025-09-09 19:22:21.795 (  10.511s) [        56CD8000]     buffer_instance.cc:398      1| BufferInstance::PJRT_Buffer_Destroy
2025-09-09 19:22:21.795 (  10.511s) [        56CD8000]     buffer_instance.cc:398      1| BufferInstance::PJRT_Buffer_Destroy
2025-09-09 19:22:21.795 (  10.511s) [        56CD8000]     buffer_instance.cc:398      1| BufferInstance::PJRT_Buffer_Destroy
2025-09-09 19:22:21.795 (  10.511s) [        56CD8000]     buffer_instance.cc:398      1| BufferInstance::PJRT_Buffer_Destroy
2025-09-09 19:22:21.795 (  10.511s) [        56CD8000]     buffer_instance.cc:398      1| BufferInstance::PJRT_Buffer_Destroy
2025-09-09 19:22:21.795 (  10.511s) [        56CD8000]     buffer_instance.cc:398      1| BufferInstance::PJRT_Buffer_Destroy
2025-09-09 19:22:21.796 (  10.511s) [        56CD8000]     buffer_instance.cc:398      1| BufferInstance::PJRT_Buffer_Destroy
2025-09-09 19:22:21.796 (  10.511s) [        56CD8000]     buffer_instance.cc:398      1| BufferInstance::PJRT_Buffer_Destroy
2025-09-09 19:22:21.796 (  10.511s) [        56CD8000]     buffer_instance.cc:398      1| BufferInstance::PJRT_Buffer_Destroy
2025-09-09 19:22:21.796 (  10.512s) [        56CD8000]     buffer_instance.cc:398      1| BufferInstance::PJRT_Buffer_Destroy
2025-09-09 19:22:21.796 (  10.512s) [        56CD8000]     buffer_instance.cc:398      1| BufferInstance::PJRT_Buffer_Destroy
2025-09-09 19:22:21.796 (  10.512s) [        56CD8000]     buffer_instance.cc:398      1| BufferInstance::PJRT_Buffer_Destroy
2025-09-09 19:22:21.796 (  10.512s) [        56CD8000]     buffer_instance.cc:398      1| BufferInstance::PJRT_Buffer_Destroy
2025-09-09 19:22:21.796 (  10.512s) [        56CD8000]     buffer_instance.cc:398      1| BufferInstance::PJRT_Buffer_Destroy
2025-09-09 19:22:21.796 (  10.512s) [        56CD8000]     buffer_instance.cc:398      1| BufferInstance::PJRT_Buffer_Destroy
2025-09-09 19:22:21.796 (  10.512s) [        56CD8000]     buffer_instance.cc:398      1| BufferInstance::PJRT_Buffer_Destroy
2025-09-09 19:22:21.796 (  10.512s) [        56CD8000]     buffer_instance.cc:398      1| BufferInstance::PJRT_Buffer_Destroy
2025-09-09 19:22:21.796 (  10.512s) [        56CD8000]     buffer_instance.cc:398      1| BufferInstance::PJRT_Buffer_Destroy
2025-09-09 19:22:21.796 (  10.512s) [        56CD8000]     buffer_instance.cc:398      1| BufferInstance::PJRT_Buffer_Destroy
2025-09-09 19:22:21.796 (  10.512s) [        56CD8000]     buffer_instance.cc:398      1| BufferInstance::PJRT_Buffer_Destroy
2025-09-09 19:22:21.796 (  10.512s) [        56CD8000]     buffer_instance.cc:398      1| BufferInstance::PJRT_Buffer_Destroy
2025-09-09 19:22:21.796 (  10.512s) [        56CD8000]     buffer_instance.cc:398      1| BufferInstance::PJRT_Buffer_Destroy
2025-09-09 19:22:21.797 (  10.512s) [        56CD8000]     buffer_instance.cc:398      1| BufferInstance::PJRT_Buffer_Destroy
2025-09-09 19:22:21.797 (  10.512s) [        56CD8000]     buffer_instance.cc:398      1| BufferInstance::PJRT_Buffer_Destroy
2025-09-09 19:22:21.797 (  10.512s) [        56CD8000]     buffer_instance.cc:398      1| BufferInstance::PJRT_Buffer_Destroy
2025-09-09 19:22:21.797 (  10.513s) [        56CD8000]     buffer_instance.cc:398      1| BufferInstance::PJRT_Buffer_Destroy
2025-09-09 19:22:21.797 (  10.513s) [        56CD8000]     buffer_instance.cc:398      1| BufferInstance::PJRT_Buffer_Destroy
2025-09-09 19:22:21.797 (  10.513s) [        56CD8000]     buffer_instance.cc:398      1| BufferInstance::PJRT_Buffer_Destroy
2025-09-09 19:22:21.797 (  10.513s) [        56CD8000]     buffer_instance.cc:398      1| BufferInstance::PJRT_Buffer_Destroy
2025-09-09 19:22:21.797 (  10.513s) [        56CD8000]     buffer_instance.cc:398      1| BufferInstance::PJRT_Buffer_Destroy
2025-09-09 19:22:21.797 (  10.513s) [        56CD8000]     buffer_instance.cc:398      1| BufferInstance::PJRT_Buffer_Destroy
2025-09-09 19:22:21.797 (  10.513s) [        56CD8000]     buffer_instance.cc:398      1| BufferInstance::PJRT_Buffer_Destroy
2025-09-09 19:22:21.797 (  10.513s) [        56CD8000]     buffer_instance.cc:398      1| BufferInstance::PJRT_Buffer_Destroy
2025-09-09 19:22:21.797 (  10.513s) [        56CD8000]     buffer_instance.cc:398      1| BufferInstance::PJRT_Buffer_Destroy
2025-09-09 19:22:21.797 (  10.513s) [        56CD8000]     buffer_instance.cc:398      1| BufferInstance::PJRT_Buffer_Destroy
2025-09-09 19:22:21.797 (  10.513s) [        56CD8000]     buffer_instance.cc:398      1| BufferInstance::PJRT_Buffer_Destroy
2025-09-09 19:22:21.797 (  10.513s) [        56CD8000]     buffer_instance.cc:398      1| BufferInstance::PJRT_Buffer_Destroy
2025-09-09 19:22:21.797 (  10.513s) [        56CD8000]     buffer_instance.cc:398      1| BufferInstance::PJRT_Buffer_Destroy
2025-09-09 19:22:21.797 (  10.513s) [        56CD8000]     buffer_instance.cc:398      1| BufferInstance::PJRT_Buffer_Destroy
2025-09-09 19:22:21.798 (  10.513s) [        56CD8000]     buffer_instance.cc:398      1| BufferInstance::PJRT_Buffer_Destroy
2025-09-09 19:22:21.798 (  10.513s) [        56CD8000]     buffer_instance.cc:398      1| BufferInstance::PJRT_Buffer_Destroy
2025-09-09 19:22:21.798 (  10.513s) [        56CD8000]     buffer_instance.cc:398      1| BufferInstance::PJRT_Buffer_Destroy
2025-09-09 19:22:21.798 (  10.514s) [        56CD8000]     buffer_instance.cc:398      1| BufferInstance::PJRT_Buffer_Destroy
2025-09-09 19:22:21.798 (  10.514s) [        56CD8000]     buffer_instance.cc:398      1| BufferInstance::PJRT_Buffer_Destroy
2025-09-09 19:22:21.798 (  10.514s) [        56CD8000]     buffer_instance.cc:398      1| BufferInstance::PJRT_Buffer_Destroy
2025-09-09 19:22:21.798 (  10.514s) [        56CD8000]     buffer_instance.cc:398      1| BufferInstance::PJRT_Buffer_Destroy
2025-09-09 19:22:21.798 (  10.514s) [        56CD8000]     buffer_instance.cc:398      1| BufferInstance::PJRT_Buffer_Destroy
2025-09-09 19:22:21.798 (  10.514s) [        56CD8000]     buffer_instance.cc:398      1| BufferInstance::PJRT_Buffer_Destroy
2025-09-09 19:22:21.798 (  10.514s) [        56CD8000]     buffer_instance.cc:398      1| BufferInstance::PJRT_Buffer_Destroy
2025-09-09 19:22:21.798 (  10.514s) [        56CD8000]     buffer_instance.cc:398      1| BufferInstance::PJRT_Buffer_Destroy
2025-09-09 19:22:21.798 (  10.514s) [        56CD8000]     buffer_instance.cc:398      1| BufferInstance::PJRT_Buffer_Destroy
2025-09-09 19:22:21.798 (  10.514s) [        56CD8000]     buffer_instance.cc:398      1| BufferInstance::PJRT_Buffer_Destroy
2025-09-09 19:22:21.798 (  10.514s) [        56CD8000]     buffer_instance.cc:398      1| BufferInstance::PJRT_Buffer_Destroy
2025-09-09 19:22:21.798 (  10.514s) [        56CD8000]     buffer_instance.cc:398      1| BufferInstance::PJRT_Buffer_Destroy
2025-09-09 19:22:21.798 (  10.514s) [        56CD8000]     buffer_instance.cc:398      1| BufferInstance::PJRT_Buffer_Destroy
2025-09-09 19:22:21.799 (  10.514s) [        56CD8000]     buffer_instance.cc:398      1| BufferInstance::PJRT_Buffer_Destroy
2025-09-09 19:22:21.799 (  10.514s) [        56CD8000]     buffer_instance.cc:398      1| BufferInstance::PJRT_Buffer_Destroy
2025-09-09 19:22:21.799 (  10.514s) [        56CD8000]     buffer_instance.cc:398      1| BufferInstance::PJRT_Buffer_Destroy
2025-09-09 19:22:21.799 (  10.515s) [        56CD8000]     buffer_instance.cc:398      1| BufferInstance::PJRT_Buffer_Destroy
2025-09-09 19:22:21.799 (  10.515s) [        56CD8000]     buffer_instance.cc:398      1| BufferInstance::PJRT_Buffer_Destroy
2025-09-09 19:22:21.799 (  10.515s) [        56CD8000]     buffer_instance.cc:398      1| BufferInstance::PJRT_Buffer_Destroy
2025-09-09 19:22:21.799 (  10.515s) [        56CD8000]     buffer_instance.cc:398      1| BufferInstance::PJRT_Buffer_Destroy
2025-09-09 19:22:21.799 (  10.515s) [        56CD8000]     buffer_instance.cc:398      1| BufferInstance::PJRT_Buffer_Destroy
2025-09-09 19:22:21.799 (  10.515s) [        56CD8000]     buffer_instance.cc:398      1| BufferInstance::PJRT_Buffer_Destroy
2025-09-09 19:22:21.799 (  10.515s) [        56CD8000]     buffer_instance.cc:398      1| BufferInstance::PJRT_Buffer_Destroy
2025-09-09 19:22:21.799 (  10.515s) [        56CD8000]     buffer_instance.cc:398      1| BufferInstance::PJRT_Buffer_Destroy
2025-09-09 19:22:21.799 (  10.515s) [        56CD8000]     buffer_instance.cc:398      1| BufferInstance::PJRT_Buffer_Destroy
2025-09-09 19:22:21.799 (  10.515s) [        56CD8000]     buffer_instance.cc:398      1| BufferInstance::PJRT_Buffer_Destroy
2025-09-09 19:22:21.799 (  10.515s) [        56CD8000]     buffer_instance.cc:398      1| BufferInstance::PJRT_Buffer_Destroy
2025-09-09 19:22:21.799 (  10.515s) [        56CD8000]     buffer_instance.cc:398      1| BufferInstance::PJRT_Buffer_Destroy
2025-09-09 19:22:21.799 (  10.515s) [        56CD8000]     buffer_instance.cc:398      1| BufferInstance::PJRT_Buffer_Destroy
2025-09-09 19:22:21.800 (  10.515s) [        56CD8000]     buffer_instance.cc:398      1| BufferInstance::PJRT_Buffer_Destroy
2025-09-09 19:22:21.800 (  10.515s) [        56CD8000]     buffer_instance.cc:398      1| BufferInstance::PJRT_Buffer_Destroy
2025-09-09 19:22:21.800 (  10.515s) [        56CD8000]     buffer_instance.cc:398      1| BufferInstance::PJRT_Buffer_Destroy
2025-09-09 19:22:21.800 (  10.516s) [        56CD8000]     buffer_instance.cc:398      1| BufferInstance::PJRT_Buffer_Destroy
2025-09-09 19:22:21.800 (  10.516s) [        56CD8000]     buffer_instance.cc:398      1| BufferInstance::PJRT_Buffer_Destroy
2025-09-09 19:22:21.800 (  10.516s) [        56CD8000]     buffer_instance.cc:398      1| BufferInstance::PJRT_Buffer_Destroy
2025-09-09 19:22:21.800 (  10.516s) [        56CD8000]     buffer_instance.cc:398      1| BufferInstance::PJRT_Buffer_Destroy
2025-09-09 19:22:21.800 (  10.516s) [        56CD8000]     buffer_instance.cc:398      1| BufferInstance::PJRT_Buffer_Destroy
2025-09-09 19:22:21.800 (  10.516s) [        56CD8000]     buffer_instance.cc:398      1| BufferInstance::PJRT_Buffer_Destroy
2025-09-09 19:22:21.800 (  10.516s) [        56CD8000]     buffer_instance.cc:398      1| BufferInstance::PJRT_Buffer_Destroy
2025-09-09 19:22:21.800 (  10.516s) [        56CD8000]     buffer_instance.cc:398      1| BufferInstance::PJRT_Buffer_Destroy
2025-09-09 19:22:21.800 (  10.516s) [        56CD8000]     buffer_instance.cc:398      1| BufferInstance::PJRT_Buffer_Destroy
2025-09-09 19:22:21.800 (  10.516s) [        56CD8000]     buffer_instance.cc:398      1| BufferInstance::PJRT_Buffer_Destroy
2025-09-09 19:22:21.800 (  10.516s) [        56CD8000]     buffer_instance.cc:398      1| BufferInstance::PJRT_Buffer_Destroy
2025-09-09 19:22:21.800 (  10.516s) [        56CD8000]     buffer_instance.cc:398      1| BufferInstance::PJRT_Buffer_Destroy
2025-09-09 19:22:21.800 (  10.516s) [        56CD8000]     buffer_instance.cc:398      1| BufferInstance::PJRT_Buffer_Destroy
2025-09-09 19:22:21.801 (  10.516s) [        56CD8000]     buffer_instance.cc:398      1| BufferInstance::PJRT_Buffer_Destroy
2025-09-09 19:22:21.801 (  10.516s) [        56CD8000]     buffer_instance.cc:398      1| BufferInstance::PJRT_Buffer_Destroy
