WARNING:root:Defaulting to PJRT_DEVICE=CPU
============================= test session starts ==============================
platform linux -- Python 3.10.12, pytest-8.4.1, pluggy-1.6.0 -- /localdev/jameszianxu/test32/tt-torch/env/venv/bin/python3.10
cachedir: .pytest_cache
rootdir: /localdev/jameszianxu/test32/tt-torch
configfile: pytest.ini
plugins: cov-6.2.1, forked-1.6.0, xdist-3.8.0, split-0.10.0
collecting ... collected 1 item

tests/models/llama/test_llama3_generative.py::test_llama3_generate Loading checkpoint shards:   0%|          | 0/2 [00:00<?, ?it/s]Loading checkpoint shards: 100%|██████████| 2/2 [00:00<00:00, 51.87it/s]
2025-08-20 16:58:38.360 (   0.000s) [        5E2EB1C0]      dylib_platform.cc:47       1| DylibPlatform::SubclassInitialize
2025-08-20 16:58:38.362 (   0.001s) [        5E2EB1C0]     client_instance.cc:39       1| ClientInstance::ClientInstance
2025-08-20 16:58:38.362 (   0.001s) [        5E2EB1C0]              client.cc:18       1| TTClientInstance::TTClientInstance
2025-08-20 16:58:38.362 (   0.001s) [        5E2EB1C0]     client_instance.cc:60       1| ClientInstance::Initialize
[32m                 Always[0m | [1m[38;5;240m   DEBUG[0m | Device grid size = { 8, 8 }
2025-08-20 16:58:42.138 (   3.778s) [        5E2EB1C0]              stubs.inc:112   WARN| STUB: PJRT_Client_TopologyDescription
2025-08-20 16:58:42.138 (   3.778s) [        5E2EB1C0]      error_instance.cc:49       1| ErrorInstance::PJRT_Error_Message
2025-08-20 16:58:42.138 (   3.778s) [        5E2EB1C0]      error_instance.cc:58       1| ErrorInstance::PJRT_Error_GetCode
2025-08-20 16:58:42.138 (   3.778s) [        5E2EB1C0]      error_instance.cc:43       1| ErrorInstance::PJRT_Error_Destroy
2025-08-20 16:58:42.138 (   3.778s) [        5E2EB1C0]     client_instance.cc:383      1| ClientInstance::PJRT_Client_PlatformVersion
2025-08-20 16:58:42.138 (   3.778s) [        5E2EB1C0]     client_instance.cc:363      1| ClientInstance::PJRT_Client_PlatformName
2025-08-20 16:58:42.138 (   3.778s) [        5E2EB1C0]     client_instance.cc:395      1| ClientInstance::PJRT_Client_Devices
2025-08-20 16:58:42.138 (   3.778s) [        5E2EB1C0]     device_instance.cc:44       1| DeviceInstance::PJRT_Device_GetDescription
2025-08-20 16:58:42.138 (   3.778s) [        5E2EB1C0]  device_description.cc:63       1| DeviceDescription::PJRT_DeviceDescription_Attributes
2025-08-20 16:58:42.138 (   3.778s) [        5E2EB1C0]     device_instance.cc:44       1| DeviceInstance::PJRT_Device_GetDescription
2025-08-20 16:58:42.138 (   3.778s) [        5E2EB1C0]  device_description.cc:63       1| DeviceDescription::PJRT_DeviceDescription_Attributes
2025-08-20 16:58:42.138 (   3.778s) [        5E2EB1C0]     client_instance.cc:408      1| ClientInstance::PJRT_Client_AddressableDevices
2025-08-20 16:58:42.138 (   3.778s) [        5E2EB1C0]     client_instance.cc:458      1| ClientInstance::PJRT_Client_AddressableMemories
2025-08-20 16:58:42.138 (   3.778s) [        5E2EB1C0]     device_instance.cc:71       1| DeviceInstance::PJRT_Device_AddressableMemories
2025-08-20 16:58:42.138 (   3.778s) [        5E2EB1C0]     device_instance.cc:71       1| DeviceInstance::PJRT_Device_AddressableMemories
2025-08-20 16:58:42.138 (   3.778s) [        5E2EB1C0]     memory_instance.cc:124      1| MemoryInstance::PJRT_Memory_AddressableByDevices
2025-08-20 16:58:42.138 (   3.778s) [        5E2EB1C0]     memory_instance.cc:124      1| MemoryInstance::PJRT_Memory_AddressableByDevices
2025-08-20 16:58:42.138 (   3.778s) [        5E2EB1C0]     memory_instance.cc:124      1| MemoryInstance::PJRT_Memory_AddressableByDevices
2025-08-20 16:58:42.138 (   3.778s) [        5E2EB1C0]        api_bindings.cc:76       1| PJRT_Plugin_Attributes
2025-08-20 16:58:42.138801: W torch_xla/csrc/runtime/profiler.cpp:88] Profiler API not found for PJRT plugin
2025-08-20 16:58:42.138 (   3.778s) [        5E2EB1C0]  device_description.cc:44       1| DeviceDescription::PJRT_DeviceDescription_Id
2025-08-20 16:58:42.138 (   3.778s) [        5E2EB1C0]  device_description.cc:44       1| DeviceDescription::PJRT_DeviceDescription_Id
2025-08-20 16:58:42.138 (   3.778s) [        5E2EB1C0]  device_description.cc:44       1| DeviceDescription::PJRT_DeviceDescription_Id
2025-08-20 16:58:42.138 (   3.778s) [        5E2EB1C0]  device_description.cc:44       1| DeviceDescription::PJRT_DeviceDescription_Id
2025-08-20 16:58:42.138 (   3.778s) [        5E2EB1C0]  device_description.cc:44       1| DeviceDescription::PJRT_DeviceDescription_Id
2025-08-20 16:58:42.138 (   3.778s) [        5E2EB1C0]  device_description.cc:44       1| DeviceDescription::PJRT_DeviceDescription_Id
2025-08-20 16:58:42.138 (   3.778s) [        5E2EB1C0]  device_description.cc:99       1| DeviceDescription::PJRT_DeviceDescription_ToString
2025-08-20 16:58:42.138 (   3.778s) [        5E2EB1C0]  device_description.cc:99       1| DeviceDescription::PJRT_DeviceDescription_ToString
2025-08-20 16:58:42.138 (   3.778s) [        5E2EB1C0]  device_description.cc:44       1| DeviceDescription::PJRT_DeviceDescription_Id
2025-08-20 16:58:42.138 (   3.778s) [        5E2EB1C0]  device_description.cc:44       1| DeviceDescription::PJRT_DeviceDescription_Id
2025-08-20 16:58:42.138 (   3.778s) [        5E2EB1C0]  device_description.cc:44       1| DeviceDescription::PJRT_DeviceDescription_Id
2025-08-20 16:58:42.138 (   3.778s) [        5E2EB1C0]  device_description.cc:44       1| DeviceDescription::PJRT_DeviceDescription_Id
Initial prompt: '<|begin_of_text|>I like taking walks in the'
Setting up XLA environment...
XLA environment configured.
Created device mesh: (1, 2) with 2 devices
<|begin_of_text|>I like taking walks in theNote: Using experimental XLA backend.
[XLA Debug] Processing 18 input specs:
[XLA Debug] Input 0: kind=InputKind.PARAMETER, arg=TensorArgument(name='p__fx_const_folded_attrs_0'), target=_FX_CONST_FOLDED_ATTRS.0
[XLA Debug] Input 0 is InputKind.PARAMETER, source tensor shape: torch.Size([128]), dtype: torch.int64, device: cpu
[XLA Debug] Input 0 not in cache - shape: torch.Size([128]), shard spec: None, moving to XLA device
[XLA Debug] Input 0 no sharding applied
[XLA Cache] Adding tensor to cache: key=(140280327987952, (128,), torch.int64, 'cpu'), xla_tensor_id=1, xla_sharding_spec=
[XLA Debug] Input 0 cached tensor with device: xla:0
[XLA Debug] Input 1: kind=InputKind.PARAMETER, arg=TensorArgument(name='p__fx_const_folded_attrs_1'), target=_FX_CONST_FOLDED_ATTRS.1
[XLA Debug] Input 1 is InputKind.PARAMETER, source tensor shape: torch.Size([7, 128]), dtype: torch.bfloat16, device: cpu
[XLA Debug] Input 1 not in cache - shape: torch.Size([7, 128]), shard spec: None, moving to XLA device
[XLA Debug] Input 1 no sharding applied
[XLA Cache] Adding tensor to cache: key=(140280327993952, (7, 128), torch.bfloat16, 'cpu'), xla_tensor_id=2, xla_sharding_spec=
[XLA Debug] Input 1 cached tensor with device: xla:0
[XLA Debug] Input 2: kind=InputKind.BUFFER, arg=TensorArgument(name='b_kwargs____past_key_values___key_cache_0'), target=kwargs____past_key_values___key_cache_0
[XLA Debug] Input 2 is InputKind.BUFFER, source tensor shape: torch.Size([1, 8, 128, 128]), dtype: torch.bfloat16, device: cpu
[XLA Debug] Input 2 not in cache - shape: torch.Size([1, 8, 128, 128]), shard spec: (None, 'model', None, None), moving to XLA device
[XLA Debug] Input 2 applying shard spec: (None, 'model', None, None) with mesh: {'device_ids': [0, 1], 'mesh_shape': (1, 2), 'axis_names': ('batch', 'model')}
2025-08-20 16:58:44.162 (   5.802s) [        5E2EB1C0]  device_description.cc:44       1| DeviceDescription::PJRT_DeviceDescription_Id
2025-08-20 16:58:44.162 (   5.802s) [        5E2EB1C0]  device_description.cc:44       1| DeviceDescription::PJRT_DeviceDescription_Id
2025-08-20 16:58:44.163 (   5.803s) [        5E2EB1C0]     device_instance.cc:82       1| DeviceInstance::PJRT_Device_DefaultMemory
2025-08-20 16:58:44.163 (   5.803s) [        5E2EB1C0]     client_instance.cc:509      1| ClientInstance::PJRT_Client_BufferFromHostBuffer
2025-08-20 16:58:44.163 (   5.803s) [        5E2EB1C0]     memory_instance.cc:57       1| MemoryInstance::getDevice
2025-08-20 16:58:44.164 (   5.803s) [        5E2EB1C0]     buffer_instance.cc:228      1| [BUFFER] Creating BORROWED host tensor with shape [1, 4, 128, 128] (semantics: ZeroCopy/other)
2025-08-20 16:58:44.164 (   5.804s) [        5E2EB1C0]      event_instance.cc:222      1| EventInstance::PJRT_Event_OnReady
2025-08-20 16:58:44.164 (   5.804s) [        5E2EB1C0]      event_instance.cc:171      1| EventInstance::PJRT_Event_Destroy
2025-08-20 16:58:44.164 (   5.804s) [        5E2EB1C0]     device_instance.cc:82       1| DeviceInstance::PJRT_Device_DefaultMemory
2025-08-20 16:58:44.164 (   5.804s) [        5E2EB1C0]     client_instance.cc:509      1| ClientInstance::PJRT_Client_BufferFromHostBuffer
2025-08-20 16:58:44.164 (   5.804s) [        5E2EB1C0]     memory_instance.cc:57       1| MemoryInstance::getDevice
2025-08-20 16:58:44.164 (   5.804s) [        5E2EB1C0]     buffer_instance.cc:228      1| [BUFFER] Creating BORROWED host tensor with shape [1, 4, 128, 128] (semantics: ZeroCopy/other)
2025-08-20 16:58:44.164 (   5.804s) [        5E2EB1C0]      event_instance.cc:222      1| EventInstance::PJRT_Event_OnReady
2025-08-20 16:58:44.165 (   5.804s) [        5E2EB1C0]      event_instance.cc:171      1| EventInstance::PJRT_Event_Destroy
[XLA Cache] Adding tensor to cache: key=(140279576504784, (1, 8, 128, 128), torch.bfloat16, 'cpu'), xla_tensor_id=3, xla_sharding_spec={devices=[1,2,1,1]<=[2]}
[XLA Debug] Input 2 cached tensor with device: xla:0
[XLA Debug] Input 3: kind=InputKind.BUFFER, arg=TensorArgument(name='b_kwargs____past_key_values___value_cache_0'), target=kwargs____past_key_values___value_cache_0
[XLA Debug] Input 3 is InputKind.BUFFER, source tensor shape: torch.Size([1, 8, 128, 128]), dtype: torch.bfloat16, device: cpu
[XLA Debug] Input 3 not in cache - shape: torch.Size([1, 8, 128, 128]), shard spec: (None, 'model', None, None), moving to XLA device
[XLA Debug] Input 3 applying shard spec: (None, 'model', None, None) with mesh: {'device_ids': [0, 1], 'mesh_shape': (1, 2), 'axis_names': ('batch', 'model')}
2025-08-20 16:58:44.165 (   5.805s) [        5E2EB1C0]  device_description.cc:44       1| DeviceDescription::PJRT_DeviceDescription_Id
2025-08-20 16:58:44.165 (   5.805s) [        5E2EB1C0]  device_description.cc:44       1| DeviceDescription::PJRT_DeviceDescription_Id
2025-08-20 16:58:44.165 (   5.805s) [        5E2EB1C0]     device_instance.cc:82       1| DeviceInstance::PJRT_Device_DefaultMemory
2025-08-20 16:58:44.165 (   5.805s) [        5E2EB1C0]     client_instance.cc:509      1| ClientInstance::PJRT_Client_BufferFromHostBuffer
2025-08-20 16:58:44.165 (   5.805s) [        5E2EB1C0]     memory_instance.cc:57       1| MemoryInstance::getDevice
2025-08-20 16:58:44.166 (   5.805s) [        5E2EB1C0]     buffer_instance.cc:228      1| [BUFFER] Creating BORROWED host tensor with shape [1, 4, 128, 128] (semantics: ZeroCopy/other)
2025-08-20 16:58:44.166 (   5.805s) [        5E2EB1C0]      event_instance.cc:222      1| EventInstance::PJRT_Event_OnReady
2025-08-20 16:58:44.166 (   5.805s) [        5E2EB1C0]      event_instance.cc:171      1| EventInstance::PJRT_Event_Destroy
2025-08-20 16:58:44.166 (   5.805s) [        5E2EB1C0]     device_instance.cc:82       1| DeviceInstance::PJRT_Device_DefaultMemory
2025-08-20 16:58:44.166 (   5.805s) [        5E2EB1C0]     client_instance.cc:509      1| ClientInstance::PJRT_Client_BufferFromHostBuffer
2025-08-20 16:58:44.166 (   5.805s) [        5E2EB1C0]     memory_instance.cc:57       1| MemoryInstance::getDevice
2025-08-20 16:58:44.166 (   5.806s) [        5E2EB1C0]     buffer_instance.cc:228      1| [BUFFER] Creating BORROWED host tensor with shape [1, 4, 128, 128] (semantics: ZeroCopy/other)
2025-08-20 16:58:44.166 (   5.806s) [        5E2EB1C0]      event_instance.cc:222      1| EventInstance::PJRT_Event_OnReady
2025-08-20 16:58:44.166 (   5.806s) [        5E2EB1C0]      event_instance.cc:171      1| EventInstance::PJRT_Event_Destroy
[XLA Cache] Adding tensor to cache: key=(140280331266032, (1, 8, 128, 128), torch.bfloat16, 'cpu'), xla_tensor_id=4, xla_sharding_spec={devices=[1,2,1,1]<=[2]}
[XLA Debug] Input 3 cached tensor with device: xla:0
[XLA Debug] Input 4: kind=InputKind.USER_INPUT, arg=TensorArgument(name='args_0'), target=None
[XLA Debug] Input 4 is USER_INPUT, adding None placeholder
[XLA Debug] Input 5: kind=InputKind.USER_INPUT, arg=TensorArgument(name='args_1'), target=None
[XLA Debug] Input 5 is USER_INPUT, adding None placeholder
[XLA Debug] Input 6: kind=InputKind.USER_INPUT, arg=TensorArgument(name='args_2'), target=None
[XLA Debug] Input 6 is USER_INPUT, adding None placeholder
[XLA Debug] Input 7: kind=InputKind.USER_INPUT, arg=TensorArgument(name='args_3'), target=None
[XLA Debug] Input 7 is USER_INPUT, adding None placeholder
[XLA Debug] Input 8: kind=InputKind.USER_INPUT, arg=TensorArgument(name='args_4'), target=None
[XLA Debug] Input 8 is USER_INPUT, adding None placeholder
[XLA Debug] Input 9: kind=InputKind.USER_INPUT, arg=TensorArgument(name='args_5'), target=None
[XLA Debug] Input 9 is USER_INPUT, adding None placeholder
[XLA Debug] Input 10: kind=InputKind.USER_INPUT, arg=TensorArgument(name='args_6'), target=None
[XLA Debug] Input 10 is USER_INPUT, adding None placeholder
[XLA Debug] Input 11: kind=InputKind.USER_INPUT, arg=TensorArgument(name='args_7'), target=None
[XLA Debug] Input 11 is USER_INPUT, adding None placeholder
[XLA Debug] Input 12: kind=InputKind.USER_INPUT, arg=TensorArgument(name='args_8'), target=None
[XLA Debug] Input 12 is USER_INPUT, adding None placeholder
[XLA Debug] Input 13: kind=InputKind.USER_INPUT, arg=TensorArgument(name='args_9'), target=None
[XLA Debug] Input 13 is USER_INPUT, adding None placeholder
[XLA Debug] Input 14: kind=InputKind.USER_INPUT, arg=TensorArgument(name='args_10'), target=None
[XLA Debug] Input 14 is USER_INPUT, adding None placeholder
[XLA Debug] Input 15: kind=InputKind.USER_INPUT, arg=TensorArgument(name='args_11'), target=None
[XLA Debug] Input 15 is USER_INPUT, adding None placeholder
[XLA Debug] Input 16: kind=InputKind.USER_INPUT, arg=TensorArgument(name='args_12'), target=None
[XLA Debug] Input 16 is USER_INPUT, adding None placeholder
[XLA Debug] Input 17: kind=InputKind.USER_INPUT, arg=TensorArgument(name='args_13'), target=None
[XLA Debug] Input 17 is USER_INPUT, adding None placeholder
[XLA Debug] Initialization complete - total inputs: 18, user input indices: [4, 5, 6, 7, 8, 9, 10, 11, 12, 13, 14, 15, 16, 17]
2025-08-20 16:58:44.218 (   5.858s) [        5E2EB1C0]  device_description.cc:44       1| DeviceDescription::PJRT_DeviceDescription_Id
2025-08-20 16:58:44.218 (   5.858s) [        5E2EB1C0]  device_description.cc:44       1| DeviceDescription::PJRT_DeviceDescription_Id
2025-08-20 16:58:44.218 (   5.858s) [        5E2EB1C0]     device_instance.cc:82       1| DeviceInstance::PJRT_Device_DefaultMemory
2025-08-20 16:58:44.218 (   5.858s) [        5E2EB1C0]     client_instance.cc:509      1| ClientInstance::PJRT_Client_BufferFromHostBuffer
2025-08-20 16:58:44.218 (   5.858s) [        5E2EB1C0]     memory_instance.cc:57       1| MemoryInstance::getDevice
2025-08-20 16:58:44.218 (   5.858s) [        5E2EB1C0]     buffer_instance.cc:213      1| [BUFFER] Creating OWNED host tensor with shape [1, 7] (semantics: other, supported_dtype: false)
[32m                 Always[0m | [1m[38;5;208m WARNING[0m | User provided a tensor of data type: Int64 which is not supported by runtime/ttnn. Casting to: Int32, this may impact throughput and the integrity of the data.
2025-08-20 16:58:44.219 (   5.858s) [        5E2EB1C0]      event_instance.cc:222      1| EventInstance::PJRT_Event_OnReady
2025-08-20 16:58:44.219 (   5.858s) [        5E2EB1C0]      event_instance.cc:171      1| EventInstance::PJRT_Event_Destroy
2025-08-20 16:58:44.219 (   5.858s) [        5E2EB1C0]     device_instance.cc:82       1| DeviceInstance::PJRT_Device_DefaultMemory
2025-08-20 16:58:44.219 (   5.858s) [        5E2EB1C0]     client_instance.cc:509      1| ClientInstance::PJRT_Client_BufferFromHostBuffer
2025-08-20 16:58:44.219 (   5.858s) [        5E2EB1C0]     memory_instance.cc:57       1| MemoryInstance::getDevice
2025-08-20 16:58:44.219 (   5.858s) [        5E2EB1C0]     buffer_instance.cc:213      1| [BUFFER] Creating OWNED host tensor with shape [1, 7] (semantics: other, supported_dtype: false)
[32m                 Always[0m | [1m[38;5;208m WARNING[0m | User provided a tensor of data type: Int64 which is not supported by runtime/ttnn. Casting to: Int32, this may impact throughput and the integrity of the data.
2025-08-20 16:58:44.219 (   5.859s) [        5E2EB1C0]      event_instance.cc:222      1| EventInstance::PJRT_Event_OnReady
2025-08-20 16:58:44.219 (   5.859s) [        5E2EB1C0]      event_instance.cc:171      1| EventInstance::PJRT_Event_Destroy
[james] In push tensors to device marking sharding (None, None)
[XLA Cache] Adding tensor to cache: key=(140280331271952, (1, 7), torch.int64, 'cpu'), xla_tensor_id=5, xla_sharding_spec={replicated}
2025-08-20 16:58:44.264 (   5.904s) [        5E2EB1C0]  device_description.cc:44       1| DeviceDescription::PJRT_DeviceDescription_Id
2025-08-20 16:58:44.264 (   5.904s) [        5E2EB1C0]  device_description.cc:44       1| DeviceDescription::PJRT_DeviceDescription_Id
2025-08-20 16:58:44.340 (   5.980s) [        5E2EB1C0]     device_instance.cc:82       1| DeviceInstance::PJRT_Device_DefaultMemory
2025-08-20 16:58:44.340 (   5.980s) [        5E2EB1C0]     client_instance.cc:509      1| ClientInstance::PJRT_Client_BufferFromHostBuffer
2025-08-20 16:58:44.341 (   5.980s) [        5E2EB1C0]     memory_instance.cc:57       1| MemoryInstance::getDevice
2025-08-20 16:58:44.341 (   5.980s) [        5E2EB1C0]     buffer_instance.cc:228      1| [BUFFER] Creating BORROWED host tensor with shape [64128, 3072] (semantics: ZeroCopy/other)
2025-08-20 16:58:44.341 (   5.981s) [        5E2EB1C0]      event_instance.cc:222      1| EventInstance::PJRT_Event_OnReady
2025-08-20 16:58:44.341 (   5.981s) [        5E2EB1C0]      event_instance.cc:171      1| EventInstance::PJRT_Event_Destroy
2025-08-20 16:58:44.341 (   5.981s) [        5E2EB1C0]     device_instance.cc:82       1| DeviceInstance::PJRT_Device_DefaultMemory
2025-08-20 16:58:44.341 (   5.981s) [        5E2EB1C0]     client_instance.cc:509      1| ClientInstance::PJRT_Client_BufferFromHostBuffer
2025-08-20 16:58:44.341 (   5.981s) [        5E2EB1C0]     memory_instance.cc:57       1| MemoryInstance::getDevice
2025-08-20 16:58:44.341 (   5.981s) [        5E2EB1C0]     buffer_instance.cc:228      1| [BUFFER] Creating BORROWED host tensor with shape [64128, 3072] (semantics: ZeroCopy/other)
2025-08-20 16:58:44.341 (   5.981s) [        5E2EB1C0]      event_instance.cc:222      1| EventInstance::PJRT_Event_OnReady
2025-08-20 16:58:44.341 (   5.981s) [        5E2EB1C0]      event_instance.cc:171      1| EventInstance::PJRT_Event_Destroy
[james] In push tensors to device marking sharding ('model', None)
[XLA Cache] Adding tensor to cache: key=(140279541386992, (128256, 3072), torch.bfloat16, 'cpu'), xla_tensor_id=6, xla_sharding_spec={devices=[2,1]<=[2]}
2025-08-20 16:58:44.461 (   6.101s) [        5E2EB1C0]  device_description.cc:44       1| DeviceDescription::PJRT_DeviceDescription_Id
2025-08-20 16:58:44.461 (   6.101s) [        5E2EB1C0]  device_description.cc:44       1| DeviceDescription::PJRT_DeviceDescription_Id
2025-08-20 16:58:44.462 (   6.101s) [        5E2EB1C0]     device_instance.cc:82       1| DeviceInstance::PJRT_Device_DefaultMemory
2025-08-20 16:58:44.462 (   6.101s) [        5E2EB1C0]     client_instance.cc:509      1| ClientInstance::PJRT_Client_BufferFromHostBuffer
2025-08-20 16:58:44.462 (   6.101s) [        5E2EB1C0]     memory_instance.cc:57       1| MemoryInstance::getDevice
2025-08-20 16:58:44.462 (   6.101s) [        5E2EB1C0]     buffer_instance.cc:213      1| [BUFFER] Creating OWNED host tensor with shape [7] (semantics: other, supported_dtype: false)
[32m                 Always[0m | [1m[38;5;208m WARNING[0m | User provided a tensor of data type: Int64 which is not supported by runtime/ttnn. Casting to: Int32, this may impact throughput and the integrity of the data.
2025-08-20 16:58:44.462 (   6.102s) [        5E2EB1C0]      event_instance.cc:222      1| EventInstance::PJRT_Event_OnReady
2025-08-20 16:58:44.462 (   6.102s) [        5E2EB1C0]      event_instance.cc:171      1| EventInstance::PJRT_Event_Destroy
2025-08-20 16:58:44.462 (   6.102s) [        5E2EB1C0]     device_instance.cc:82       1| DeviceInstance::PJRT_Device_DefaultMemory
2025-08-20 16:58:44.462 (   6.102s) [        5E2EB1C0]     client_instance.cc:509      1| ClientInstance::PJRT_Client_BufferFromHostBuffer
2025-08-20 16:58:44.462 (   6.102s) [        5E2EB1C0]     memory_instance.cc:57       1| MemoryInstance::getDevice
2025-08-20 16:58:44.462 (   6.102s) [        5E2EB1C0]     buffer_instance.cc:213      1| [BUFFER] Creating OWNED host tensor with shape [7] (semantics: other, supported_dtype: false)
[32m                 Always[0m | [1m[38;5;208m WARNING[0m | User provided a tensor of data type: Int64 which is not supported by runtime/ttnn. Casting to: Int32, this may impact throughput and the integrity of the data.
2025-08-20 16:58:44.462 (   6.102s) [        5E2EB1C0]      event_instance.cc:222      1| EventInstance::PJRT_Event_OnReady
2025-08-20 16:58:44.462 (   6.102s) [        5E2EB1C0]      event_instance.cc:171      1| EventInstance::PJRT_Event_Destroy
[james] In push tensors to device marking sharding (None,)
[XLA Cache] Adding tensor to cache: key=(140280331258832, (7,), torch.int64, 'cpu'), xla_tensor_id=7, xla_sharding_spec={replicated}
[XLA Cache] Adding tensor to cache: key=(140279533236720, (64,), torch.float32, 'cpu'), xla_tensor_id=8, xla_sharding_spec=
[XLA Cache] Adding tensor to cache: key=(140279541383632, (3072,), torch.bfloat16, 'cpu'), xla_tensor_id=9, xla_sharding_spec=
2025-08-20 16:58:44.464 (   6.104s) [        5E2EB1C0]  device_description.cc:44       1| DeviceDescription::PJRT_DeviceDescription_Id
2025-08-20 16:58:44.464 (   6.104s) [        5E2EB1C0]  device_description.cc:44       1| DeviceDescription::PJRT_DeviceDescription_Id
2025-08-20 16:58:44.467 (   6.106s) [        5E2EB1C0]     device_instance.cc:82       1| DeviceInstance::PJRT_Device_DefaultMemory
2025-08-20 16:58:44.467 (   6.106s) [        5E2EB1C0]     client_instance.cc:509      1| ClientInstance::PJRT_Client_BufferFromHostBuffer
2025-08-20 16:58:44.467 (   6.106s) [        5E2EB1C0]     memory_instance.cc:57       1| MemoryInstance::getDevice
2025-08-20 16:58:44.467 (   6.107s) [        5E2EB1C0]     buffer_instance.cc:228      1| [BUFFER] Creating BORROWED host tensor with shape [1536, 3072] (semantics: ZeroCopy/other)
2025-08-20 16:58:44.467 (   6.107s) [        5E2EB1C0]      event_instance.cc:222      1| EventInstance::PJRT_Event_OnReady
2025-08-20 16:58:44.467 (   6.107s) [        5E2EB1C0]      event_instance.cc:171      1| EventInstance::PJRT_Event_Destroy
2025-08-20 16:58:44.467 (   6.107s) [        5E2EB1C0]     device_instance.cc:82       1| DeviceInstance::PJRT_Device_DefaultMemory
2025-08-20 16:58:44.467 (   6.107s) [        5E2EB1C0]     client_instance.cc:509      1| ClientInstance::PJRT_Client_BufferFromHostBuffer
2025-08-20 16:58:44.467 (   6.107s) [        5E2EB1C0]     memory_instance.cc:57       1| MemoryInstance::getDevice
2025-08-20 16:58:44.467 (   6.107s) [        5E2EB1C0]     buffer_instance.cc:228      1| [BUFFER] Creating BORROWED host tensor with shape [1536, 3072] (semantics: ZeroCopy/other)
2025-08-20 16:58:44.467 (   6.107s) [        5E2EB1C0]      event_instance.cc:222      1| EventInstance::PJRT_Event_OnReady
2025-08-20 16:58:44.467 (   6.107s) [        5E2EB1C0]      event_instance.cc:171      1| EventInstance::PJRT_Event_Destroy
[james] In push tensors to device marking sharding ('model', None)
[XLA Cache] Adding tensor to cache: key=(140279532951552, (3072, 3072), torch.bfloat16, 'cpu'), xla_tensor_id=10, xla_sharding_spec={devices=[2,1]<=[2]}
2025-08-20 16:58:44.468 (   6.108s) [        5E2EB1C0]  device_description.cc:44       1| DeviceDescription::PJRT_DeviceDescription_Id
2025-08-20 16:58:44.468 (   6.108s) [        5E2EB1C0]  device_description.cc:44       1| DeviceDescription::PJRT_DeviceDescription_Id
2025-08-20 16:58:44.468 (   6.108s) [        5E2EB1C0]     device_instance.cc:82       1| DeviceInstance::PJRT_Device_DefaultMemory
2025-08-20 16:58:44.468 (   6.108s) [        5E2EB1C0]     client_instance.cc:509      1| ClientInstance::PJRT_Client_BufferFromHostBuffer
2025-08-20 16:58:44.468 (   6.108s) [        5E2EB1C0]     memory_instance.cc:57       1| MemoryInstance::getDevice
2025-08-20 16:58:44.469 (   6.108s) [        5E2EB1C0]     buffer_instance.cc:228      1| [BUFFER] Creating BORROWED host tensor with shape [512, 3072] (semantics: ZeroCopy/other)
2025-08-20 16:58:44.469 (   6.108s) [        5E2EB1C0]      event_instance.cc:222      1| EventInstance::PJRT_Event_OnReady
2025-08-20 16:58:44.469 (   6.108s) [        5E2EB1C0]      event_instance.cc:171      1| EventInstance::PJRT_Event_Destroy
2025-08-20 16:58:44.469 (   6.108s) [        5E2EB1C0]     device_instance.cc:82       1| DeviceInstance::PJRT_Device_DefaultMemory
2025-08-20 16:58:44.469 (   6.108s) [        5E2EB1C0]     client_instance.cc:509      1| ClientInstance::PJRT_Client_BufferFromHostBuffer
2025-08-20 16:58:44.469 (   6.108s) [        5E2EB1C0]     memory_instance.cc:57       1| MemoryInstance::getDevice
2025-08-20 16:58:44.469 (   6.109s) [        5E2EB1C0]     buffer_instance.cc:228      1| [BUFFER] Creating BORROWED host tensor with shape [512, 3072] (semantics: ZeroCopy/other)
2025-08-20 16:58:44.469 (   6.109s) [        5E2EB1C0]      event_instance.cc:222      1| EventInstance::PJRT_Event_OnReady
2025-08-20 16:58:44.469 (   6.109s) [        5E2EB1C0]      event_instance.cc:171      1| EventInstance::PJRT_Event_Destroy
[james] In push tensors to device marking sharding ('model', None)
[XLA Cache] Adding tensor to cache: key=(140279541383712, (1024, 3072), torch.bfloat16, 'cpu'), xla_tensor_id=11, xla_sharding_spec={devices=[2,1]<=[2]}
2025-08-20 16:58:44.469 (   6.109s) [        5E2EB1C0]  device_description.cc:44       1| DeviceDescription::PJRT_DeviceDescription_Id
2025-08-20 16:58:44.470 (   6.109s) [        5E2EB1C0]  device_description.cc:44       1| DeviceDescription::PJRT_DeviceDescription_Id
2025-08-20 16:58:44.470 (   6.110s) [        5E2EB1C0]     device_instance.cc:82       1| DeviceInstance::PJRT_Device_DefaultMemory
2025-08-20 16:58:44.470 (   6.110s) [        5E2EB1C0]     client_instance.cc:509      1| ClientInstance::PJRT_Client_BufferFromHostBuffer
2025-08-20 16:58:44.470 (   6.110s) [        5E2EB1C0]     memory_instance.cc:57       1| MemoryInstance::getDevice
2025-08-20 16:58:44.470 (   6.110s) [        5E2EB1C0]     buffer_instance.cc:228      1| [BUFFER] Creating BORROWED host tensor with shape [512, 3072] (semantics: ZeroCopy/other)
2025-08-20 16:58:44.471 (   6.110s) [        5E2EB1C0]      event_instance.cc:222      1| EventInstance::PJRT_Event_OnReady
2025-08-20 16:58:44.471 (   6.110s) [        5E2EB1C0]      event_instance.cc:171      1| EventInstance::PJRT_Event_Destroy
2025-08-20 16:58:44.471 (   6.110s) [        5E2EB1C0]     device_instance.cc:82       1| DeviceInstance::PJRT_Device_DefaultMemory
2025-08-20 16:58:44.471 (   6.110s) [        5E2EB1C0]     client_instance.cc:509      1| ClientInstance::PJRT_Client_BufferFromHostBuffer
2025-08-20 16:58:44.471 (   6.110s) [        5E2EB1C0]     memory_instance.cc:57       1| MemoryInstance::getDevice
2025-08-20 16:58:44.471 (   6.110s) [        5E2EB1C0]     buffer_instance.cc:228      1| [BUFFER] Creating BORROWED host tensor with shape [512, 3072] (semantics: ZeroCopy/other)
2025-08-20 16:58:44.471 (   6.111s) [        5E2EB1C0]      event_instance.cc:222      1| EventInstance::PJRT_Event_OnReady
2025-08-20 16:58:44.471 (   6.111s) [        5E2EB1C0]      event_instance.cc:171      1| EventInstance::PJRT_Event_Destroy
[james] In push tensors to device marking sharding ('model', None)
[XLA Cache] Adding tensor to cache: key=(140279532955392, (1024, 3072), torch.bfloat16, 'cpu'), xla_tensor_id=12, xla_sharding_spec={devices=[2,1]<=[2]}
2025-08-20 16:58:44.472 (   6.112s) [        5E2EB1C0]  device_description.cc:44       1| DeviceDescription::PJRT_DeviceDescription_Id
2025-08-20 16:58:44.472 (   6.112s) [        5E2EB1C0]  device_description.cc:44       1| DeviceDescription::PJRT_DeviceDescription_Id
2025-08-20 16:58:44.476 (   6.116s) [        5E2EB1C0]     device_instance.cc:82       1| DeviceInstance::PJRT_Device_DefaultMemory
2025-08-20 16:58:44.476 (   6.116s) [        5E2EB1C0]     client_instance.cc:509      1| ClientInstance::PJRT_Client_BufferFromHostBuffer
2025-08-20 16:58:44.476 (   6.116s) [        5E2EB1C0]     memory_instance.cc:57       1| MemoryInstance::getDevice
2025-08-20 16:58:44.477 (   6.116s) [        5E2EB1C0]     buffer_instance.cc:228      1| [BUFFER] Creating BORROWED host tensor with shape [3072, 1536] (semantics: ZeroCopy/other)
2025-08-20 16:58:44.477 (   6.116s) [        5E2EB1C0]      event_instance.cc:222      1| EventInstance::PJRT_Event_OnReady
2025-08-20 16:58:44.477 (   6.116s) [        5E2EB1C0]      event_instance.cc:171      1| EventInstance::PJRT_Event_Destroy
2025-08-20 16:58:44.477 (   6.116s) [        5E2EB1C0]     device_instance.cc:82       1| DeviceInstance::PJRT_Device_DefaultMemory
2025-08-20 16:58:44.477 (   6.116s) [        5E2EB1C0]     client_instance.cc:509      1| ClientInstance::PJRT_Client_BufferFromHostBuffer
2025-08-20 16:58:44.477 (   6.116s) [        5E2EB1C0]     memory_instance.cc:57       1| MemoryInstance::getDevice
2025-08-20 16:58:44.477 (   6.117s) [        5E2EB1C0]     buffer_instance.cc:228      1| [BUFFER] Creating BORROWED host tensor with shape [3072, 1536] (semantics: ZeroCopy/other)
2025-08-20 16:58:44.477 (   6.117s) [        5E2EB1C0]      event_instance.cc:222      1| EventInstance::PJRT_Event_OnReady
2025-08-20 16:58:44.477 (   6.117s) [        5E2EB1C0]      event_instance.cc:171      1| EventInstance::PJRT_Event_Destroy
[james] In push tensors to device marking sharding (None, 'model')
[XLA Cache] Adding tensor to cache: key=(140279532950752, (3072, 3072), torch.bfloat16, 'cpu'), xla_tensor_id=13, xla_sharding_spec={devices=[1,2]<=[2]}
[XLA Cache] Adding tensor to cache: key=(140279541386192, (3072,), torch.bfloat16, 'cpu'), xla_tensor_id=14, xla_sharding_spec=
2025-08-20 16:58:44.480 (   6.120s) [        5E2EB1C0]  device_description.cc:44       1| DeviceDescription::PJRT_DeviceDescription_Id
2025-08-20 16:58:44.481 (   6.120s) [        5E2EB1C0]  device_description.cc:44       1| DeviceDescription::PJRT_DeviceDescription_Id
2025-08-20 16:58:44.487 (   6.126s) [        5E2EB1C0]     device_instance.cc:82       1| DeviceInstance::PJRT_Device_DefaultMemory
2025-08-20 16:58:44.487 (   6.126s) [        5E2EB1C0]     client_instance.cc:509      1| ClientInstance::PJRT_Client_BufferFromHostBuffer
2025-08-20 16:58:44.487 (   6.127s) [        5E2EB1C0]     memory_instance.cc:57       1| MemoryInstance::getDevice
2025-08-20 16:58:44.487 (   6.127s) [        5E2EB1C0]     buffer_instance.cc:228      1| [BUFFER] Creating BORROWED host tensor with shape [4096, 3072] (semantics: ZeroCopy/other)
2025-08-20 16:58:44.487 (   6.127s) [        5E2EB1C0]      event_instance.cc:222      1| EventInstance::PJRT_Event_OnReady
2025-08-20 16:58:44.487 (   6.127s) [        5E2EB1C0]      event_instance.cc:171      1| EventInstance::PJRT_Event_Destroy
2025-08-20 16:58:44.487 (   6.127s) [        5E2EB1C0]     device_instance.cc:82       1| DeviceInstance::PJRT_Device_DefaultMemory
2025-08-20 16:58:44.487 (   6.127s) [        5E2EB1C0]     client_instance.cc:509      1| ClientInstance::PJRT_Client_BufferFromHostBuffer
2025-08-20 16:58:44.487 (   6.127s) [        5E2EB1C0]     memory_instance.cc:57       1| MemoryInstance::getDevice
2025-08-20 16:58:44.487 (   6.127s) [        5E2EB1C0]     buffer_instance.cc:228      1| [BUFFER] Creating BORROWED host tensor with shape [4096, 3072] (semantics: ZeroCopy/other)
2025-08-20 16:58:44.488 (   6.127s) [        5E2EB1C0]      event_instance.cc:222      1| EventInstance::PJRT_Event_OnReady
2025-08-20 16:58:44.488 (   6.127s) [        5E2EB1C0]      event_instance.cc:171      1| EventInstance::PJRT_Event_Destroy
[james] In push tensors to device marking sharding ('model', None)
[XLA Cache] Adding tensor to cache: key=(140279541384912, (8192, 3072), torch.bfloat16, 'cpu'), xla_tensor_id=15, xla_sharding_spec={devices=[2,1]<=[2]}
2025-08-20 16:58:44.498 (   6.137s) [        5E2EB1C0]  device_description.cc:44       1| DeviceDescription::PJRT_DeviceDescription_Id
2025-08-20 16:58:44.498 (   6.137s) [        5E2EB1C0]  device_description.cc:44       1| DeviceDescription::PJRT_DeviceDescription_Id
2025-08-20 16:58:44.503 (   6.143s) [        5E2EB1C0]     device_instance.cc:82       1| DeviceInstance::PJRT_Device_DefaultMemory
2025-08-20 16:58:44.503 (   6.143s) [        5E2EB1C0]     client_instance.cc:509      1| ClientInstance::PJRT_Client_BufferFromHostBuffer
2025-08-20 16:58:44.503 (   6.143s) [        5E2EB1C0]     memory_instance.cc:57       1| MemoryInstance::getDevice
2025-08-20 16:58:44.504 (   6.143s) [        5E2EB1C0]     buffer_instance.cc:228      1| [BUFFER] Creating BORROWED host tensor with shape [4096, 3072] (semantics: ZeroCopy/other)
2025-08-20 16:58:44.504 (   6.143s) [        5E2EB1C0]      event_instance.cc:222      1| EventInstance::PJRT_Event_OnReady
2025-08-20 16:58:44.504 (   6.143s) [        5E2EB1C0]      event_instance.cc:171      1| EventInstance::PJRT_Event_Destroy
2025-08-20 16:58:44.504 (   6.144s) [        5E2EB1C0]     device_instance.cc:82       1| DeviceInstance::PJRT_Device_DefaultMemory
2025-08-20 16:58:44.504 (   6.144s) [        5E2EB1C0]     client_instance.cc:509      1| ClientInstance::PJRT_Client_BufferFromHostBuffer
2025-08-20 16:58:44.504 (   6.144s) [        5E2EB1C0]     memory_instance.cc:57       1| MemoryInstance::getDevice
2025-08-20 16:58:44.504 (   6.144s) [        5E2EB1C0]     buffer_instance.cc:228      1| [BUFFER] Creating BORROWED host tensor with shape [4096, 3072] (semantics: ZeroCopy/other)
2025-08-20 16:58:44.504 (   6.144s) [        5E2EB1C0]      event_instance.cc:222      1| EventInstance::PJRT_Event_OnReady
2025-08-20 16:58:44.504 (   6.144s) [        5E2EB1C0]      event_instance.cc:171      1| EventInstance::PJRT_Event_Destroy
[james] In push tensors to device marking sharding ('model', None)
[XLA Cache] Adding tensor to cache: key=(140279541390272, (8192, 3072), torch.bfloat16, 'cpu'), xla_tensor_id=16, xla_sharding_spec={devices=[2,1]<=[2]}
2025-08-20 16:58:44.514 (   6.153s) [        5E2EB1C0]  device_description.cc:44       1| DeviceDescription::PJRT_DeviceDescription_Id
2025-08-20 16:58:44.514 (   6.154s) [        5E2EB1C0]  device_description.cc:44       1| DeviceDescription::PJRT_DeviceDescription_Id
2025-08-20 16:58:44.522 (   6.161s) [        5E2EB1C0]     device_instance.cc:82       1| DeviceInstance::PJRT_Device_DefaultMemory
2025-08-20 16:58:44.522 (   6.161s) [        5E2EB1C0]     client_instance.cc:509      1| ClientInstance::PJRT_Client_BufferFromHostBuffer
2025-08-20 16:58:44.522 (   6.161s) [        5E2EB1C0]     memory_instance.cc:57       1| MemoryInstance::getDevice
2025-08-20 16:58:44.522 (   6.162s) [        5E2EB1C0]     buffer_instance.cc:228      1| [BUFFER] Creating BORROWED host tensor with shape [3072, 4096] (semantics: ZeroCopy/other)
2025-08-20 16:58:44.522 (   6.162s) [        5E2EB1C0]      event_instance.cc:222      1| EventInstance::PJRT_Event_OnReady
2025-08-20 16:58:44.522 (   6.162s) [        5E2EB1C0]      event_instance.cc:171      1| EventInstance::PJRT_Event_Destroy
2025-08-20 16:58:44.522 (   6.162s) [        5E2EB1C0]     device_instance.cc:82       1| DeviceInstance::PJRT_Device_DefaultMemory
2025-08-20 16:58:44.522 (   6.162s) [        5E2EB1C0]     client_instance.cc:509      1| ClientInstance::PJRT_Client_BufferFromHostBuffer
2025-08-20 16:58:44.522 (   6.162s) [        5E2EB1C0]     memory_instance.cc:57       1| MemoryInstance::getDevice
2025-08-20 16:58:44.522 (   6.162s) [        5E2EB1C0]     buffer_instance.cc:228      1| [BUFFER] Creating BORROWED host tensor with shape [3072, 4096] (semantics: ZeroCopy/other)
2025-08-20 16:58:44.523 (   6.162s) [        5E2EB1C0]      event_instance.cc:222      1| EventInstance::PJRT_Event_OnReady
2025-08-20 16:58:44.523 (   6.162s) [        5E2EB1C0]      event_instance.cc:171      1| EventInstance::PJRT_Event_Destroy
[james] In push tensors to device marking sharding (None, 'model')
[XLA Cache] Adding tensor to cache: key=(140279541399072, (3072, 8192), torch.bfloat16, 'cpu'), xla_tensor_id=17, xla_sharding_spec={devices=[1,2]<=[2]}
[XLA Cache] Adding tensor to cache: key=(140279533239760, (3072,), torch.bfloat16, 'cpu'), xla_tensor_id=18, xla_sharding_spec=
2025-08-20 16:58:44.529 (   6.169s) [        5E2EB1C0]  device_description.cc:44       1| DeviceDescription::PJRT_DeviceDescription_Id
2025-08-20 16:58:44.529 (   6.169s) [        5E2EB1C0]  device_description.cc:44       1| DeviceDescription::PJRT_DeviceDescription_Id
2025-08-20 16:58:44.529 (   6.169s) [        5E2EB1C0]     device_instance.cc:82       1| DeviceInstance::PJRT_Device_DefaultMemory
2025-08-20 16:58:44.529 (   6.169s) [        5E2EB1C0]     client_instance.cc:509      1| ClientInstance::PJRT_Client_BufferFromHostBuffer
2025-08-20 16:58:44.529 (   6.169s) [        5E2EB1C0]     memory_instance.cc:57       1| MemoryInstance::getDevice
2025-08-20 16:58:44.529 (   6.169s) [        5E2EB1C0]     buffer_instance.cc:213      1| [BUFFER] Creating OWNED host tensor with shape [128] (semantics: other, supported_dtype: false)
[32m                 Always[0m | [1m[38;5;208m WARNING[0m | User provided a tensor of data type: Int64 which is not supported by runtime/ttnn. Casting to: Int32, this may impact throughput and the integrity of the data.
2025-08-20 16:58:44.529 (   6.169s) [        5E2EB1C0]      event_instance.cc:222      1| EventInstance::PJRT_Event_OnReady
2025-08-20 16:58:44.529 (   6.169s) [        5E2EB1C0]      event_instance.cc:171      1| EventInstance::PJRT_Event_Destroy
2025-08-20 16:58:44.529 (   6.169s) [        5E2EB1C0]     device_instance.cc:82       1| DeviceInstance::PJRT_Device_DefaultMemory
2025-08-20 16:58:44.529 (   6.169s) [        5E2EB1C0]     client_instance.cc:509      1| ClientInstance::PJRT_Client_BufferFromHostBuffer
2025-08-20 16:58:44.529 (   6.169s) [        5E2EB1C0]     memory_instance.cc:57       1| MemoryInstance::getDevice
2025-08-20 16:58:44.529 (   6.169s) [        5E2EB1C0]     buffer_instance.cc:213      1| [BUFFER] Creating OWNED host tensor with shape [128] (semantics: other, supported_dtype: false)
[32m                 Always[0m | [1m[38;5;208m WARNING[0m | User provided a tensor of data type: Int64 which is not supported by runtime/ttnn. Casting to: Int32, this may impact throughput and the integrity of the data.
2025-08-20 16:58:44.530 (   6.169s) [        5E2EB1C0]      event_instance.cc:222      1| EventInstance::PJRT_Event_OnReady
2025-08-20 16:58:44.530 (   6.169s) [        5E2EB1C0]      event_instance.cc:171      1| EventInstance::PJRT_Event_Destroy
2025-08-20 16:58:44.530 (   6.169s) [        5E2EB1C0]  device_description.cc:44       1| DeviceDescription::PJRT_DeviceDescription_Id
2025-08-20 16:58:44.530 (   6.169s) [        5E2EB1C0]  device_description.cc:44       1| DeviceDescription::PJRT_DeviceDescription_Id
2025-08-20 16:58:44.530 (   6.170s) [        5E2EB1C0]     device_instance.cc:82       1| DeviceInstance::PJRT_Device_DefaultMemory
2025-08-20 16:58:44.530 (   6.170s) [        5E2EB1C0]     client_instance.cc:509      1| ClientInstance::PJRT_Client_BufferFromHostBuffer
2025-08-20 16:58:44.530 (   6.170s) [        5E2EB1C0]     memory_instance.cc:57       1| MemoryInstance::getDevice
2025-08-20 16:58:44.530 (   6.170s) [        5E2EB1C0]     buffer_instance.cc:228      1| [BUFFER] Creating BORROWED host tensor with shape [7, 128] (semantics: ZeroCopy/other)
2025-08-20 16:58:44.530 (   6.170s) [        5E2EB1C0]      event_instance.cc:222      1| EventInstance::PJRT_Event_OnReady
2025-08-20 16:58:44.530 (   6.170s) [        5E2EB1C0]      event_instance.cc:171      1| EventInstance::PJRT_Event_Destroy
2025-08-20 16:58:44.530 (   6.170s) [        5E2EB1C0]     device_instance.cc:82       1| DeviceInstance::PJRT_Device_DefaultMemory
2025-08-20 16:58:44.530 (   6.170s) [        5E2EB1C0]     client_instance.cc:509      1| ClientInstance::PJRT_Client_BufferFromHostBuffer
2025-08-20 16:58:44.530 (   6.170s) [        5E2EB1C0]     memory_instance.cc:57       1| MemoryInstance::getDevice
2025-08-20 16:58:44.530 (   6.170s) [        5E2EB1C0]     buffer_instance.cc:228      1| [BUFFER] Creating BORROWED host tensor with shape [7, 128] (semantics: ZeroCopy/other)
2025-08-20 16:58:44.530 (   6.170s) [        5E2EB1C0]      event_instance.cc:222      1| EventInstance::PJRT_Event_OnReady
2025-08-20 16:58:44.530 (   6.170s) [        5E2EB1C0]      event_instance.cc:171      1| EventInstance::PJRT_Event_Destroy
2025-08-20 16:58:44.530 (   6.170s) [        5E2EB1C0]  device_description.cc:44       1| DeviceDescription::PJRT_DeviceDescription_Id
2025-08-20 16:58:44.530 (   6.170s) [        5E2EB1C0]  device_description.cc:44       1| DeviceDescription::PJRT_DeviceDescription_Id
2025-08-20 16:58:44.530 (   6.170s) [        5E2EB1C0]     device_instance.cc:82       1| DeviceInstance::PJRT_Device_DefaultMemory
2025-08-20 16:58:44.530 (   6.170s) [        5E2EB1C0]     client_instance.cc:509      1| ClientInstance::PJRT_Client_BufferFromHostBuffer
2025-08-20 16:58:44.530 (   6.170s) [        5E2EB1C0]     memory_instance.cc:57       1| MemoryInstance::getDevice
2025-08-20 16:58:44.530 (   6.170s) [        5E2EB1C0]     buffer_instance.cc:228      1| [BUFFER] Creating BORROWED host tensor with shape [64] (semantics: ZeroCopy/other)
2025-08-20 16:58:44.530 (   6.170s) [        5E2EB1C0]      event_instance.cc:222      1| EventInstance::PJRT_Event_OnReady
2025-08-20 16:58:44.530 (   6.170s) [        5E2EB1C0]      event_instance.cc:171      1| EventInstance::PJRT_Event_Destroy
2025-08-20 16:58:44.530 (   6.170s) [        5E2EB1C0]     device_instance.cc:82       1| DeviceInstance::PJRT_Device_DefaultMemory
2025-08-20 16:58:44.530 (   6.170s) [        5E2EB1C0]     client_instance.cc:509      1| ClientInstance::PJRT_Client_BufferFromHostBuffer
2025-08-20 16:58:44.530 (   6.170s) [        5E2EB1C0]     memory_instance.cc:57       1| MemoryInstance::getDevice
2025-08-20 16:58:44.531 (   6.170s) [        5E2EB1C0]     buffer_instance.cc:228      1| [BUFFER] Creating BORROWED host tensor with shape [64] (semantics: ZeroCopy/other)
2025-08-20 16:58:44.531 (   6.170s) [        5E2EB1C0]      event_instance.cc:222      1| EventInstance::PJRT_Event_OnReady
2025-08-20 16:58:44.531 (   6.170s) [        5E2EB1C0]      event_instance.cc:171      1| EventInstance::PJRT_Event_Destroy
2025-08-20 16:58:44.532 (   6.172s) [        5E2EB1C0]  device_description.cc:44       1| DeviceDescription::PJRT_DeviceDescription_Id
2025-08-20 16:58:44.532 (   6.172s) [        5E2EB1C0]  device_description.cc:44       1| DeviceDescription::PJRT_DeviceDescription_Id
2025-08-20 16:58:44.532 (   6.172s) [        5E2EB1C0]     device_instance.cc:82       1| DeviceInstance::PJRT_Device_DefaultMemory
2025-08-20 16:58:44.532 (   6.172s) [        5E2EB1C0]     client_instance.cc:509      1| ClientInstance::PJRT_Client_BufferFromHostBuffer
2025-08-20 16:58:44.532 (   6.172s) [        5E2EB1C0]     memory_instance.cc:57       1| MemoryInstance::getDevice
2025-08-20 16:58:44.532 (   6.172s) [        5E2EB1C0]     buffer_instance.cc:228      1| [BUFFER] Creating BORROWED host tensor with shape [1] (semantics: ZeroCopy/other)
2025-08-20 16:58:44.532 (   6.172s) [        5E2EB1C0]      event_instance.cc:222      1| EventInstance::PJRT_Event_OnReady
2025-08-20 16:58:44.532 (   6.172s) [        5E2EB1C0]      event_instance.cc:171      1| EventInstance::PJRT_Event_Destroy
2025-08-20 16:58:44.532 (   6.172s) [        5E2EB1C0]     device_instance.cc:82       1| DeviceInstance::PJRT_Device_DefaultMemory
2025-08-20 16:58:44.532 (   6.172s) [        5E2EB1C0]     client_instance.cc:509      1| ClientInstance::PJRT_Client_BufferFromHostBuffer
2025-08-20 16:58:44.532 (   6.172s) [        5E2EB1C0]     memory_instance.cc:57       1| MemoryInstance::getDevice
2025-08-20 16:58:44.532 (   6.172s) [        5E2EB1C0]     buffer_instance.cc:228      1| [BUFFER] Creating BORROWED host tensor with shape [1] (semantics: ZeroCopy/other)
2025-08-20 16:58:44.532 (   6.172s) [        5E2EB1C0]      event_instance.cc:222      1| EventInstance::PJRT_Event_OnReady
2025-08-20 16:58:44.532 (   6.172s) [        5E2EB1C0]      event_instance.cc:171      1| EventInstance::PJRT_Event_Destroy
2025-08-20 16:58:44.533 (   6.172s) [        5E2EB1C0]  device_description.cc:44       1| DeviceDescription::PJRT_DeviceDescription_Id
2025-08-20 16:58:44.533 (   6.172s) [        5E2EB1C0]  device_description.cc:44       1| DeviceDescription::PJRT_DeviceDescription_Id
2025-08-20 16:58:44.533 (   6.173s) [        5E2EB1C0]     device_instance.cc:82       1| DeviceInstance::PJRT_Device_DefaultMemory
2025-08-20 16:58:44.533 (   6.173s) [        5E2EB1C0]     client_instance.cc:509      1| ClientInstance::PJRT_Client_BufferFromHostBuffer
2025-08-20 16:58:44.533 (   6.173s) [        5E2EB1C0]     memory_instance.cc:57       1| MemoryInstance::getDevice
2025-08-20 16:58:44.533 (   6.173s) [        5E2EB1C0]     buffer_instance.cc:228      1| [BUFFER] Creating BORROWED host tensor with shape [3072] (semantics: ZeroCopy/other)
2025-08-20 16:58:44.533 (   6.173s) [        5E2EB1C0]      event_instance.cc:222      1| EventInstance::PJRT_Event_OnReady
2025-08-20 16:58:44.533 (   6.173s) [        5E2EB1C0]      event_instance.cc:171      1| EventInstance::PJRT_Event_Destroy
2025-08-20 16:58:44.533 (   6.173s) [        5E2EB1C0]     device_instance.cc:82       1| DeviceInstance::PJRT_Device_DefaultMemory
2025-08-20 16:58:44.533 (   6.173s) [        5E2EB1C0]     client_instance.cc:509      1| ClientInstance::PJRT_Client_BufferFromHostBuffer
2025-08-20 16:58:44.533 (   6.173s) [        5E2EB1C0]     memory_instance.cc:57       1| MemoryInstance::getDevice
2025-08-20 16:58:44.533 (   6.173s) [        5E2EB1C0]     buffer_instance.cc:228      1| [BUFFER] Creating BORROWED host tensor with shape [3072] (semantics: ZeroCopy/other)
2025-08-20 16:58:44.533 (   6.173s) [        5E2EB1C0]      event_instance.cc:222      1| EventInstance::PJRT_Event_OnReady
2025-08-20 16:58:44.533 (   6.173s) [        5E2EB1C0]      event_instance.cc:171      1| EventInstance::PJRT_Event_Destroy
2025-08-20 16:58:44.534 (   6.174s) [        5E2EB1C0]  device_description.cc:44       1| DeviceDescription::PJRT_DeviceDescription_Id
2025-08-20 16:58:44.534 (   6.174s) [        5E2EB1C0]  device_description.cc:44       1| DeviceDescription::PJRT_DeviceDescription_Id
2025-08-20 16:58:44.534 (   6.174s) [        5E2EB1C0]     device_instance.cc:82       1| DeviceInstance::PJRT_Device_DefaultMemory
2025-08-20 16:58:44.534 (   6.174s) [        5E2EB1C0]     client_instance.cc:509      1| ClientInstance::PJRT_Client_BufferFromHostBuffer
2025-08-20 16:58:44.534 (   6.174s) [        5E2EB1C0]     memory_instance.cc:57       1| MemoryInstance::getDevice
2025-08-20 16:58:44.534 (   6.174s) [        5E2EB1C0]     buffer_instance.cc:213      1| [BUFFER] Creating OWNED host tensor with shape [1] (semantics: other, supported_dtype: false)
[32m                 Always[0m | [1m[38;5;208m WARNING[0m | User provided a tensor of data type: Int64 which is not supported by runtime/ttnn. Casting to: Int32, this may impact throughput and the integrity of the data.
2025-08-20 16:58:44.534 (   6.174s) [        5E2EB1C0]      event_instance.cc:222      1| EventInstance::PJRT_Event_OnReady
2025-08-20 16:58:44.534 (   6.174s) [        5E2EB1C0]      event_instance.cc:171      1| EventInstance::PJRT_Event_Destroy
2025-08-20 16:58:44.534 (   6.174s) [        5E2EB1C0]     device_instance.cc:82       1| DeviceInstance::PJRT_Device_DefaultMemory
2025-08-20 16:58:44.534 (   6.174s) [        5E2EB1C0]     client_instance.cc:509      1| ClientInstance::PJRT_Client_BufferFromHostBuffer
2025-08-20 16:58:44.534 (   6.174s) [        5E2EB1C0]     memory_instance.cc:57       1| MemoryInstance::getDevice
2025-08-20 16:58:44.534 (   6.174s) [        5E2EB1C0]     buffer_instance.cc:213      1| [BUFFER] Creating OWNED host tensor with shape [1] (semantics: other, supported_dtype: false)
[32m                 Always[0m | [1m[38;5;208m WARNING[0m | User provided a tensor of data type: Int64 which is not supported by runtime/ttnn. Casting to: Int32, this may impact throughput and the integrity of the data.
2025-08-20 16:58:44.534 (   6.174s) [        5E2EB1C0]      event_instance.cc:222      1| EventInstance::PJRT_Event_OnReady
2025-08-20 16:58:44.535 (   6.174s) [        5E2EB1C0]      event_instance.cc:171      1| EventInstance::PJRT_Event_Destroy
2025-08-20 16:58:44.535 (   6.175s) [        5E2EB1C0]  device_description.cc:44       1| DeviceDescription::PJRT_DeviceDescription_Id
2025-08-20 16:58:44.535 (   6.175s) [        5E2EB1C0]  device_description.cc:44       1| DeviceDescription::PJRT_DeviceDescription_Id
2025-08-20 16:58:44.535 (   6.175s) [        5E2EB1C0]     device_instance.cc:82       1| DeviceInstance::PJRT_Device_DefaultMemory
2025-08-20 16:58:44.535 (   6.175s) [        5E2EB1C0]     client_instance.cc:509      1| ClientInstance::PJRT_Client_BufferFromHostBuffer
2025-08-20 16:58:44.535 (   6.175s) [        5E2EB1C0]     memory_instance.cc:57       1| MemoryInstance::getDevice
2025-08-20 16:58:44.535 (   6.175s) [        5E2EB1C0]     buffer_instance.cc:228      1| [BUFFER] Creating BORROWED host tensor with shape [1] (semantics: ZeroCopy/other)
2025-08-20 16:58:44.535 (   6.175s) [        5E2EB1C0]      event_instance.cc:222      1| EventInstance::PJRT_Event_OnReady
2025-08-20 16:58:44.535 (   6.175s) [        5E2EB1C0]      event_instance.cc:171      1| EventInstance::PJRT_Event_Destroy
2025-08-20 16:58:44.535 (   6.175s) [        5E2EB1C0]     device_instance.cc:82       1| DeviceInstance::PJRT_Device_DefaultMemory
2025-08-20 16:58:44.535 (   6.175s) [        5E2EB1C0]     client_instance.cc:509      1| ClientInstance::PJRT_Client_BufferFromHostBuffer
2025-08-20 16:58:44.535 (   6.175s) [        5E2EB1C0]     memory_instance.cc:57       1| MemoryInstance::getDevice
2025-08-20 16:58:44.535 (   6.175s) [        5E2EB1C0]     buffer_instance.cc:228      1| [BUFFER] Creating BORROWED host tensor with shape [1] (semantics: ZeroCopy/other)
2025-08-20 16:58:44.535 (   6.175s) [        5E2EB1C0]      event_instance.cc:222      1| EventInstance::PJRT_Event_OnReady
2025-08-20 16:58:44.536 (   6.175s) [        5E2EB1C0]      event_instance.cc:171      1| EventInstance::PJRT_Event_Destroy
2025-08-20 16:58:44.537 (   6.176s) [        5E2EB1C0]  device_description.cc:44       1| DeviceDescription::PJRT_DeviceDescription_Id
2025-08-20 16:58:44.537 (   6.176s) [        5E2EB1C0]  device_description.cc:44       1| DeviceDescription::PJRT_DeviceDescription_Id
2025-08-20 16:58:44.537 (   6.176s) [        5E2EB1C0]     device_instance.cc:82       1| DeviceInstance::PJRT_Device_DefaultMemory
2025-08-20 16:58:44.537 (   6.176s) [        5E2EB1C0]     client_instance.cc:509      1| ClientInstance::PJRT_Client_BufferFromHostBuffer
2025-08-20 16:58:44.537 (   6.176s) [        5E2EB1C0]     memory_instance.cc:57       1| MemoryInstance::getDevice
2025-08-20 16:58:44.537 (   6.177s) [        5E2EB1C0]     buffer_instance.cc:228      1| [BUFFER] Creating BORROWED host tensor with shape [3072] (semantics: ZeroCopy/other)
2025-08-20 16:58:44.537 (   6.177s) [        5E2EB1C0]      event_instance.cc:222      1| EventInstance::PJRT_Event_OnReady
2025-08-20 16:58:44.537 (   6.177s) [        5E2EB1C0]      event_instance.cc:171      1| EventInstance::PJRT_Event_Destroy
2025-08-20 16:58:44.537 (   6.177s) [        5E2EB1C0]     device_instance.cc:82       1| DeviceInstance::PJRT_Device_DefaultMemory
2025-08-20 16:58:44.537 (   6.177s) [        5E2EB1C0]     client_instance.cc:509      1| ClientInstance::PJRT_Client_BufferFromHostBuffer
2025-08-20 16:58:44.537 (   6.177s) [        5E2EB1C0]     memory_instance.cc:57       1| MemoryInstance::getDevice
2025-08-20 16:58:44.537 (   6.177s) [        5E2EB1C0]     buffer_instance.cc:228      1| [BUFFER] Creating BORROWED host tensor with shape [3072] (semantics: ZeroCopy/other)
2025-08-20 16:58:44.537 (   6.177s) [        5E2EB1C0]      event_instance.cc:222      1| EventInstance::PJRT_Event_OnReady
2025-08-20 16:58:44.537 (   6.177s) [        5E2EB1C0]      event_instance.cc:171      1| EventInstance::PJRT_Event_Destroy
2025-08-20 16:58:44.538 (   6.178s) [        5E2EB1C0]  device_description.cc:44       1| DeviceDescription::PJRT_DeviceDescription_Id
2025-08-20 16:58:44.538 (   6.178s) [        5E2EB1C0]  device_description.cc:44       1| DeviceDescription::PJRT_DeviceDescription_Id
2025-08-20 16:58:44.538 (   6.178s) [        5E2EB1C0]     device_instance.cc:82       1| DeviceInstance::PJRT_Device_DefaultMemory
2025-08-20 16:58:44.538 (   6.178s) [        5E2EB1C0]     client_instance.cc:509      1| ClientInstance::PJRT_Client_BufferFromHostBuffer
2025-08-20 16:58:44.538 (   6.178s) [        5E2EB1C0]     memory_instance.cc:57       1| MemoryInstance::getDevice
2025-08-20 16:58:44.538 (   6.178s) [        5E2EB1C0]     buffer_instance.cc:228      1| [BUFFER] Creating BORROWED host tensor with shape [3072] (semantics: ZeroCopy/other)
2025-08-20 16:58:44.538 (   6.178s) [        5E2EB1C0]      event_instance.cc:222      1| EventInstance::PJRT_Event_OnReady
2025-08-20 16:58:44.538 (   6.178s) [        5E2EB1C0]      event_instance.cc:171      1| EventInstance::PJRT_Event_Destroy
2025-08-20 16:58:44.538 (   6.178s) [        5E2EB1C0]     device_instance.cc:82       1| DeviceInstance::PJRT_Device_DefaultMemory
2025-08-20 16:58:44.538 (   6.178s) [        5E2EB1C0]     client_instance.cc:509      1| ClientInstance::PJRT_Client_BufferFromHostBuffer
2025-08-20 16:58:44.538 (   6.178s) [        5E2EB1C0]     memory_instance.cc:57       1| MemoryInstance::getDevice
2025-08-20 16:58:44.538 (   6.178s) [        5E2EB1C0]     buffer_instance.cc:228      1| [BUFFER] Creating BORROWED host tensor with shape [3072] (semantics: ZeroCopy/other)
2025-08-20 16:58:44.538 (   6.178s) [        5E2EB1C0]      event_instance.cc:222      1| EventInstance::PJRT_Event_OnReady
2025-08-20 16:58:44.538 (   6.178s) [        5E2EB1C0]      event_instance.cc:171      1| EventInstance::PJRT_Event_Destroy
BEFORE MARK STEP Enumerating input 0 with shape torch.Size([128]) and device xla:0
with xla tensor id 1 and sharding annotation 
BEFORE MARK STEP Enumerating input 1 with shape torch.Size([7, 128]) and device xla:0
with xla tensor id 2 and sharding annotation {replicated}
BEFORE MARK STEP Enumerating input 2 with shape torch.Size([1, 8, 128, 128]) and device xla:0
with xla tensor id 3 and sharding annotation {devices=[1,2,1,1]<=[2]}
BEFORE MARK STEP Enumerating input 3 with shape torch.Size([1, 8, 128, 128]) and device xla:0
with xla tensor id 4 and sharding annotation {devices=[1,2,1,1]<=[2]}
BEFORE MARK STEP Enumerating input 4 with shape torch.Size([1, 7]) and device xla:0
with xla tensor id 5 and sharding annotation {replicated}
BEFORE MARK STEP Enumerating input 5 with shape torch.Size([128256, 3072]) and device xla:0
with xla tensor id 6 and sharding annotation {devices=[2,1]<=[2]}
BEFORE MARK STEP Enumerating input 6 with shape torch.Size([7]) and device xla:0
with xla tensor id 7 and sharding annotation {replicated}
BEFORE MARK STEP Enumerating input 7 with shape torch.Size([64]) and device xla:0
with xla tensor id 8 and sharding annotation 
BEFORE MARK STEP Enumerating input 8 with shape torch.Size([3072]) and device xla:0
with xla tensor id 9 and sharding annotation {replicated}
BEFORE MARK STEP Enumerating input 9 with shape torch.Size([3072, 3072]) and device xla:0
with xla tensor id 10 and sharding annotation {devices=[2,1]<=[2]}
BEFORE MARK STEP Enumerating input 10 with shape torch.Size([1024, 3072]) and device xla:0
with xla tensor id 11 and sharding annotation {devices=[2,1]<=[2]}
BEFORE MARK STEP Enumerating input 11 with shape torch.Size([1024, 3072]) and device xla:0
with xla tensor id 12 and sharding annotation {devices=[2,1]<=[2]}
BEFORE MARK STEP Enumerating input 12 with shape torch.Size([3072, 3072]) and device xla:0
with xla tensor id 13 and sharding annotation {devices=[1,2]<=[2]}
BEFORE MARK STEP Enumerating input 13 with shape torch.Size([3072]) and device xla:0
with xla tensor id 14 and sharding annotation {replicated}
BEFORE MARK STEP Enumerating input 14 with shape torch.Size([8192, 3072]) and device xla:0
with xla tensor id 15 and sharding annotation {devices=[2,1]<=[2]}
BEFORE MARK STEP Enumerating input 15 with shape torch.Size([8192, 3072]) and device xla:0
with xla tensor id 16 and sharding annotation {devices=[2,1]<=[2]}
BEFORE MARK STEP Enumerating input 16 with shape torch.Size([3072, 8192]) and device xla:0
with xla tensor id 17 and sharding annotation {devices=[1,2]<=[2]}
BEFORE MARK STEP Enumerating input 17 with shape torch.Size([3072]) and device xla:0
with xla tensor id 18 and sharding annotation {replicated}
2025-08-20 16:58:44.539 (   6.179s) [        5E2EB1C0]     buffer_instance.cc:526      1| BufferInstance::PJRT_Buffer_IsDeleted
2025-08-20 16:58:44.539 (   6.179s) [        5E2EB1C0]     buffer_instance.cc:526      1| BufferInstance::PJRT_Buffer_IsDeleted
2025-08-20 16:58:44.539 (   6.179s) [        5E2EB1C0]     buffer_instance.cc:526      1| BufferInstance::PJRT_Buffer_IsDeleted
2025-08-20 16:58:44.539 (   6.179s) [        5E2EB1C0]     buffer_instance.cc:526      1| BufferInstance::PJRT_Buffer_IsDeleted
2025-08-20 16:58:44.539 (   6.179s) [        5E2EB1C0]     buffer_instance.cc:526      1| BufferInstance::PJRT_Buffer_IsDeleted
2025-08-20 16:58:44.539 (   6.179s) [        5E2EB1C0]     buffer_instance.cc:526      1| BufferInstance::PJRT_Buffer_IsDeleted
2025-08-20 16:58:44.539 (   6.179s) [        5E2EB1C0]     buffer_instance.cc:526      1| BufferInstance::PJRT_Buffer_IsDeleted
2025-08-20 16:58:44.539 (   6.179s) [        5E2EB1C0]     buffer_instance.cc:526      1| BufferInstance::PJRT_Buffer_IsDeleted
2025-08-20 16:58:44.539 (   6.179s) [        5E2EB1C0]     buffer_instance.cc:526      1| BufferInstance::PJRT_Buffer_IsDeleted
2025-08-20 16:58:44.539 (   6.179s) [        5E2EB1C0]     buffer_instance.cc:526      1| BufferInstance::PJRT_Buffer_IsDeleted
2025-08-20 16:58:44.539 (   6.179s) [        5E2EB1C0]     buffer_instance.cc:526      1| BufferInstance::PJRT_Buffer_IsDeleted
2025-08-20 16:58:44.539 (   6.179s) [        5E2EB1C0]     buffer_instance.cc:526      1| BufferInstance::PJRT_Buffer_IsDeleted
2025-08-20 16:58:44.539 (   6.179s) [        5E2EB1C0]     buffer_instance.cc:526      1| BufferInstance::PJRT_Buffer_IsDeleted
2025-08-20 16:58:44.539 (   6.179s) [        5E2EB1C0]     buffer_instance.cc:526      1| BufferInstance::PJRT_Buffer_IsDeleted
2025-08-20 16:58:44.539 (   6.179s) [        5E2EB1C0]     buffer_instance.cc:526      1| BufferInstance::PJRT_Buffer_IsDeleted
2025-08-20 16:58:44.539 (   6.179s) [        5E2EB1C0]     buffer_instance.cc:526      1| BufferInstance::PJRT_Buffer_IsDeleted
2025-08-20 16:58:44.539 (   6.179s) [        5E2EB1C0]     buffer_instance.cc:526      1| BufferInstance::PJRT_Buffer_IsDeleted
2025-08-20 16:58:44.539 (   6.179s) [        5E2EB1C0]     buffer_instance.cc:526      1| BufferInstance::PJRT_Buffer_IsDeleted
2025-08-20 16:58:44.539 (   6.179s) [        5E2EB1C0]     buffer_instance.cc:526      1| BufferInstance::PJRT_Buffer_IsDeleted
2025-08-20 16:58:44.539 (   6.179s) [        5E2EB1C0]     buffer_instance.cc:526      1| BufferInstance::PJRT_Buffer_IsDeleted
2025-08-20 16:58:44.539 (   6.179s) [        5E2EB1C0]     buffer_instance.cc:526      1| BufferInstance::PJRT_Buffer_IsDeleted
2025-08-20 16:58:44.539 (   6.179s) [        5E2EB1C0]     buffer_instance.cc:526      1| BufferInstance::PJRT_Buffer_IsDeleted
2025-08-20 16:58:44.539 (   6.179s) [        5E2EB1C0]     buffer_instance.cc:526      1| BufferInstance::PJRT_Buffer_IsDeleted
2025-08-20 16:58:44.539 (   6.179s) [        5E2EB1C0]     buffer_instance.cc:526      1| BufferInstance::PJRT_Buffer_IsDeleted
2025-08-20 16:58:44.539 (   6.179s) [        5E2EB1C0]     buffer_instance.cc:526      1| BufferInstance::PJRT_Buffer_IsDeleted
2025-08-20 16:58:44.539 (   6.179s) [        5E2EB1C0]     buffer_instance.cc:526      1| BufferInstance::PJRT_Buffer_IsDeleted
2025-08-20 16:58:44.539 (   6.179s) [        5E2EB1C0]     buffer_instance.cc:526      1| BufferInstance::PJRT_Buffer_IsDeleted
2025-08-20 16:58:44.539 (   6.179s) [        5E2EB1C0]     buffer_instance.cc:526      1| BufferInstance::PJRT_Buffer_IsDeleted
2025-08-20 16:58:44.539 (   6.179s) [        5E2EB1C0]     buffer_instance.cc:526      1| BufferInstance::PJRT_Buffer_IsDeleted
2025-08-20 16:58:44.539 (   6.179s) [        5E2EB1C0]     buffer_instance.cc:526      1| BufferInstance::PJRT_Buffer_IsDeleted
2025-08-20 16:58:44.539 (   6.179s) [        5E2EB1C0]     buffer_instance.cc:526      1| BufferInstance::PJRT_Buffer_IsDeleted
2025-08-20 16:58:44.539 (   6.179s) [        5E2EB1C0]     buffer_instance.cc:526      1| BufferInstance::PJRT_Buffer_IsDeleted
2025-08-20 16:58:44.539 (   6.179s) [        5E2EB1C0]     buffer_instance.cc:526      1| BufferInstance::PJRT_Buffer_IsDeleted
2025-08-20 16:58:44.539 (   6.179s) [        5E2EB1C0]     buffer_instance.cc:526      1| BufferInstance::PJRT_Buffer_IsDeleted
2025-08-20 16:58:44.539 (   6.179s) [        5E2EB1C0]     buffer_instance.cc:526      1| BufferInstance::PJRT_Buffer_IsDeleted
2025-08-20 16:58:44.539 (   6.179s) [        5E2EB1C0]     buffer_instance.cc:526      1| BufferInstance::PJRT_Buffer_IsDeleted
2025-08-20 16:58:44.539 (   6.179s) [        5E2EB1C0]     buffer_instance.cc:526      1| BufferInstance::PJRT_Buffer_IsDeleted
2025-08-20 16:58:44.539 (   6.179s) [        5E2EB1C0]     buffer_instance.cc:526      1| BufferInstance::PJRT_Buffer_IsDeleted
2025-08-20 16:58:44.539 (   6.179s) [        5E2EB1C0]     buffer_instance.cc:526      1| BufferInstance::PJRT_Buffer_IsDeleted
2025-08-20 16:58:44.539 (   6.179s) [        5E2EB1C0]     buffer_instance.cc:526      1| BufferInstance::PJRT_Buffer_IsDeleted
2025-08-20 16:58:44.539 (   6.179s) [        5E2EB1C0]     buffer_instance.cc:526      1| BufferInstance::PJRT_Buffer_IsDeleted
2025-08-20 16:58:44.539 (   6.179s) [        5E2EB1C0]     buffer_instance.cc:526      1| BufferInstance::PJRT_Buffer_IsDeleted
2025-08-20 16:58:44.539 (   6.179s) [        5E2EB1C0]     buffer_instance.cc:526      1| BufferInstance::PJRT_Buffer_IsDeleted
2025-08-20 16:58:44.539 (   6.179s) [        5E2EB1C0]     buffer_instance.cc:526      1| BufferInstance::PJRT_Buffer_IsDeleted
2025-08-20 16:58:44.539 (   6.179s) [        5E2EB1C0]     buffer_instance.cc:526      1| BufferInstance::PJRT_Buffer_IsDeleted
2025-08-20 16:58:44.539 (   6.179s) [        5E2EB1C0]     buffer_instance.cc:526      1| BufferInstance::PJRT_Buffer_IsDeleted
2025-08-20 16:58:44.539 (   6.179s) [        5E2EB1C0]     buffer_instance.cc:526      1| BufferInstance::PJRT_Buffer_IsDeleted
2025-08-20 16:58:44.539 (   6.179s) [        5E2EB1C0]     buffer_instance.cc:526      1| BufferInstance::PJRT_Buffer_IsDeleted
2025-08-20 16:58:44.539 (   6.179s) [        5E2EB1C0]     buffer_instance.cc:526      1| BufferInstance::PJRT_Buffer_IsDeleted
2025-08-20 16:58:44.539 (   6.179s) [        5E2EB1C0]     buffer_instance.cc:526      1| BufferInstance::PJRT_Buffer_IsDeleted
2025-08-20 16:58:44.539 (   6.179s) [        5E2EB1C0]     buffer_instance.cc:526      1| BufferInstance::PJRT_Buffer_IsDeleted
2025-08-20 16:58:44.539 (   6.179s) [        5E2EB1C0]     buffer_instance.cc:526      1| BufferInstance::PJRT_Buffer_IsDeleted
2025-08-20 16:58:44.539 (   6.179s) [        5E2EB1C0]     buffer_instance.cc:526      1| BufferInstance::PJRT_Buffer_IsDeleted
2025-08-20 16:58:44.539 (   6.179s) [        5E2EB1C0]     buffer_instance.cc:526      1| BufferInstance::PJRT_Buffer_IsDeleted
2025-08-20 16:58:44.539 (   6.179s) [        5E2EB1C0]     buffer_instance.cc:526      1| BufferInstance::PJRT_Buffer_IsDeleted
2025-08-20 16:58:44.539 (   6.179s) [        5E2EB1C0]     buffer_instance.cc:526      1| BufferInstance::PJRT_Buffer_IsDeleted
2025-08-20 16:58:44.539 (   6.179s) [        5E2EB1C0]     buffer_instance.cc:526      1| BufferInstance::PJRT_Buffer_IsDeleted
2025-08-20 16:58:44.539 (   6.179s) [        5E2EB1C0]     buffer_instance.cc:526      1| BufferInstance::PJRT_Buffer_IsDeleted
2025-08-20 16:58:44.539 (   6.179s) [        5E2EB1C0]     buffer_instance.cc:526      1| BufferInstance::PJRT_Buffer_IsDeleted
2025-08-20 16:58:44.539 (   6.179s) [        5E2EB1C0]     buffer_instance.cc:526      1| BufferInstance::PJRT_Buffer_IsDeleted
2025-08-20 16:58:44.539 (   6.179s) [        5E2EB1C0]     buffer_instance.cc:526      1| BufferInstance::PJRT_Buffer_IsDeleted
2025-08-20 16:58:44.539 (   6.179s) [        5E2EB1C0]     buffer_instance.cc:526      1| BufferInstance::PJRT_Buffer_IsDeleted
2025-08-20 16:58:44.539 (   6.179s) [        5E2EB1C0]     buffer_instance.cc:526      1| BufferInstance::PJRT_Buffer_IsDeleted
2025-08-20 16:58:44.539 (   6.179s) [        5E2EB1C0]     buffer_instance.cc:526      1| BufferInstance::PJRT_Buffer_IsDeleted
2025-08-20 16:58:44.539 (   6.179s) [        5E2EB1C0]     buffer_instance.cc:526      1| BufferInstance::PJRT_Buffer_IsDeleted
2025-08-20 16:58:44.539 (   6.179s) [        5E2EB1C0]     buffer_instance.cc:526      1| BufferInstance::PJRT_Buffer_IsDeleted
2025-08-20 16:58:44.539 (   6.179s) [        5E2EB1C0]     buffer_instance.cc:526      1| BufferInstance::PJRT_Buffer_IsDeleted
2025-08-20 16:58:44.539 (   6.179s) [        5E2EB1C0]     buffer_instance.cc:526      1| BufferInstance::PJRT_Buffer_IsDeleted
2025-08-20 16:58:44.539 (   6.179s) [        5E2EB1C0]     buffer_instance.cc:526      1| BufferInstance::PJRT_Buffer_IsDeleted
2025-08-20 16:58:44.539 (   6.179s) [        5E2EB1C0]     buffer_instance.cc:526      1| BufferInstance::PJRT_Buffer_IsDeleted
2025-08-20 16:58:44.539 (   6.179s) [        5E2EB1C0]     buffer_instance.cc:526      1| BufferInstance::PJRT_Buffer_IsDeleted
2025-08-20 16:58:44.539 (   6.179s) [        5E2EB1C0]     buffer_instance.cc:526      1| BufferInstance::PJRT_Buffer_IsDeleted
2025-08-20 16:58:44.539 (   6.179s) [        5E2EB1C0]     buffer_instance.cc:526      1| BufferInstance::PJRT_Buffer_IsDeleted
2025-08-20 16:58:44.539 (   6.179s) [        5E2EB1C0]     buffer_instance.cc:526      1| BufferInstance::PJRT_Buffer_IsDeleted
2025-08-20 16:58:44.540 (   6.179s) [        5E2EB1C0]     buffer_instance.cc:526      1| BufferInstance::PJRT_Buffer_IsDeleted
2025-08-20 16:58:44.540 (   6.179s) [        5E2EB1C0]     buffer_instance.cc:526      1| BufferInstance::PJRT_Buffer_IsDeleted
2025-08-20 16:58:44.540 (   6.179s) [        5E2EB1C0]     buffer_instance.cc:526      1| BufferInstance::PJRT_Buffer_IsDeleted
2025-08-20 16:58:44.540 (   6.179s) [        5E2EB1C0]     buffer_instance.cc:526      1| BufferInstance::PJRT_Buffer_IsDeleted
2025-08-20 16:58:44.540 (   6.179s) [        5E2EB1C0]     buffer_instance.cc:526      1| BufferInstance::PJRT_Buffer_IsDeleted
2025-08-20 16:58:44.540 (   6.180s) [        5E2EB1C0]     buffer_instance.cc:526      1| BufferInstance::PJRT_Buffer_IsDeleted
2025-08-20 16:58:44.540 (   6.180s) [        5E2EB1C0]     buffer_instance.cc:526      1| BufferInstance::PJRT_Buffer_IsDeleted
2025-08-20 16:58:44.540 (   6.180s) [        5E2EB1C0]     buffer_instance.cc:526      1| BufferInstance::PJRT_Buffer_IsDeleted
2025-08-20 16:58:44.540 (   6.180s) [        5E2EB1C0]     buffer_instance.cc:526      1| BufferInstance::PJRT_Buffer_IsDeleted
2025-08-20 16:58:44.540 (   6.180s) [        5E2EB1C0]     buffer_instance.cc:526      1| BufferInstance::PJRT_Buffer_IsDeleted
2025-08-20 16:58:44.540 (   6.180s) [        5E2EB1C0]     buffer_instance.cc:526      1| BufferInstance::PJRT_Buffer_IsDeleted
2025-08-20 16:58:44.540 (   6.180s) [        5E2EB1C0]     buffer_instance.cc:526      1| BufferInstance::PJRT_Buffer_IsDeleted
2025-08-20 16:58:44.540 (   6.180s) [        5E2EB1C0]     buffer_instance.cc:526      1| BufferInstance::PJRT_Buffer_IsDeleted
2025-08-20 16:58:44.540 (   6.180s) [        5E2EB1C0]     buffer_instance.cc:526      1| BufferInstance::PJRT_Buffer_IsDeleted
2025-08-20 16:58:44.540 (   6.180s) [        5E2EB1C0]     buffer_instance.cc:526      1| BufferInstance::PJRT_Buffer_IsDeleted
2025-08-20 16:58:44.540 (   6.180s) [        5E2EB1C0]     buffer_instance.cc:526      1| BufferInstance::PJRT_Buffer_IsDeleted
2025-08-20 16:58:44.540 (   6.180s) [        5E2EB1C0]     buffer_instance.cc:526      1| BufferInstance::PJRT_Buffer_IsDeleted
2025-08-20 16:58:44.540 (   6.180s) [        5E2EB1C0]     buffer_instance.cc:526      1| BufferInstance::PJRT_Buffer_IsDeleted
2025-08-20 16:58:44.540 (   6.180s) [        5E2EB1C0]     buffer_instance.cc:526      1| BufferInstance::PJRT_Buffer_IsDeleted
2025-08-20 16:58:44.541 (   6.181s) [        5E2EB1C0]     buffer_instance.cc:526      1| BufferInstance::PJRT_Buffer_IsDeleted
2025-08-20 16:58:44.541 (   6.181s) [        5E2EB1C0]     buffer_instance.cc:526      1| BufferInstance::PJRT_Buffer_IsDeleted
2025-08-20 16:58:44.541 (   6.181s) [        5E2EB1C0]     buffer_instance.cc:526      1| BufferInstance::PJRT_Buffer_IsDeleted
2025-08-20 16:58:44.570 (   6.209s) [        5E2EB1C0]     client_instance.cc:471      1| ClientInstance::PJRT_Client_Compile
2025-08-20 16:58:44.570 (   6.209s) [        5E2EB1C0]      module_builder.cc:101      1| ModuleBuilder::buildModule
2025-08-20 16:58:44.573 (   6.213s) [        5E2EB1C0]      module_builder.cc:157      1| VHLO Module:
module @SyncTensorsGraph.374 attributes {mhlo.cross_program_prefetches = [], mhlo.frontend_attributes = {xla.sdy.meshes = "{mesh = #sdy.mesh<[\22_axis_0\22=2]>}"}, mhlo.input_output_alias = [], mhlo.is_dynamic = false, mhlo.use_auto_spmd_partitioning = false} {
  vhlo.func_v1 @main(%arg0: !vhlo.tensor_v1<7x!vhlo.i64_v1>, %arg1: !vhlo.tensor_v1<64x!vhlo.f32_v1>, %arg2: !vhlo.tensor_v1<1024x3072x!vhlo.bf16_v1>, %arg3: !vhlo.tensor_v1<!vhlo.f32_v1>, %arg4: !vhlo.tensor_v1<1x7x!vhlo.i64_v1>, %arg5: !vhlo.tensor_v1<128256x3072x!vhlo.bf16_v1>, %arg6: !vhlo.tensor_v1<3072x!vhlo.bf16_v1>, %arg7: !vhlo.tensor_v1<!vhlo.i64_v1>, %arg8: !vhlo.tensor_v1<1x8x128x128x!vhlo.bf16_v1>, %arg9: !vhlo.tensor_v1<1024x3072x!vhlo.bf16_v1>, %arg10: !vhlo.tensor_v1<1x8x128x128x!vhlo.bf16_v1>, %arg11: !vhlo.tensor_v1<3072x8192x!vhlo.bf16_v1>, %arg12: !vhlo.tensor_v1<8192x3072x!vhlo.bf16_v1>, %arg13: !vhlo.tensor_v1<3072x3072x!vhlo.bf16_v1>, %arg14: !vhlo.tensor_v1<128x!vhlo.i64_v1>, %arg15: !vhlo.tensor_v1<7x128x!vhlo.bf16_v1>, %arg16: !vhlo.tensor_v1<!vhlo.f32_v1>, %arg17: !vhlo.tensor_v1<3072x3072x!vhlo.bf16_v1>, %arg18: !vhlo.tensor_v1<3072x!vhlo.bf16_v1>, %arg19: !vhlo.tensor_v1<8192x3072x!vhlo.bf16_v1>, %arg20: !vhlo.tensor_v1<3072x!vhlo.bf16_v1>) -> (!vhlo.tensor_v1<1x8x128x128x!vhlo.bf16_v1>, !vhlo.tensor_v1<1x8x128x128x!vhlo.bf16_v1>, !vhlo.tensor_v1<7x128256x!vhlo.bf16_v1>, !vhlo.tensor_v1<1x7x128256x!vhlo.bf16_v1>) {
    %0 = "vhlo.constant_v1"() <{value = #vhlo.tensor_v1<dense<0> : tensor<7xi64>>}> : () -> !vhlo.tensor_v1<7x!vhlo.i64_v1>
    %1 = "vhlo.constant_v1"() <{value = #vhlo.tensor_v1<dense<0.000000e+00> : tensor<f32>>}> : () -> !vhlo.tensor_v1<!vhlo.f32_v1>
    %2 = "vhlo.constant_v1"() <{value = #vhlo.tensor_v1<dense<0xFF800000> : tensor<f32>>}> : () -> !vhlo.tensor_v1<!vhlo.f32_v1>
    %3 = "vhlo.constant_v1"() <{value = #vhlo.tensor_v1<dense<3.25520843E-4> : tensor<1x7xf32>>}> : () -> !vhlo.tensor_v1<1x7x!vhlo.f32_v1>
    %4 = "vhlo.constant_v1"() <{value = #vhlo.tensor_v1<dense<2.000000e+00> : tensor<f32>>}> : () -> !vhlo.tensor_v1<!vhlo.f32_v1>
    %5 = "vhlo.broadcast_in_dim_v1"(%4) <{broadcast_dimensions = #vhlo.tensor_v1<dense<> : tensor<0xi64>>}> : (!vhlo.tensor_v1<!vhlo.f32_v1>) -> !vhlo.tensor_v1<1x7x3072x!vhlo.f32_v1>
    %6 = "vhlo.compare_v1"(%arg0, %0) <{compare_type = #vhlo<comparison_type_v1 NOTYPE>, comparison_direction = #vhlo<comparison_direction_v1 LT>}> : (!vhlo.tensor_v1<7x!vhlo.i64_v1>, !vhlo.tensor_v1<7x!vhlo.i64_v1>) -> !vhlo.tensor_v1<7x!vhlo.bool_v1>
    %7 = "vhlo.broadcast_in_dim_v1"(%arg7) <{broadcast_dimensions = #vhlo.tensor_v1<dense<> : tensor<0xi64>>}> : (!vhlo.tensor_v1<!vhlo.i64_v1>) -> !vhlo.tensor_v1<7x!vhlo.i64_v1>
    %8 = "vhlo.add_v1"(%arg0, %7) : (!vhlo.tensor_v1<7x!vhlo.i64_v1>, !vhlo.tensor_v1<7x!vhlo.i64_v1>) -> !vhlo.tensor_v1<7x!vhlo.i64_v1>
    %9 = "vhlo.select_v1"(%6, %8, %arg0) : (!vhlo.tensor_v1<7x!vhlo.bool_v1>, !vhlo.tensor_v1<7x!vhlo.i64_v1>, !vhlo.tensor_v1<7x!vhlo.i64_v1>) -> !vhlo.tensor_v1<7x!vhlo.i64_v1>
    %10 = "vhlo.reshape_v1"(%9) : (!vhlo.tensor_v1<7x!vhlo.i64_v1>) -> !vhlo.tensor_v1<7x1x!vhlo.i64_v1>
    %11 = "vhlo.convert_v1"(%arg6) : (!vhlo.tensor_v1<3072x!vhlo.bf16_v1>) -> !vhlo.tensor_v1<3072x!vhlo.f32_v1>
    %12 = "vhlo.broadcast_in_dim_v1"(%11) <{broadcast_dimensions = #vhlo.tensor_v1<dense<2> : tensor<1xi64>>}> : (!vhlo.tensor_v1<3072x!vhlo.f32_v1>) -> !vhlo.tensor_v1<1x7x3072x!vhlo.f32_v1>
    %13 = "vhlo.reshape_v1"(%arg4) : (!vhlo.tensor_v1<1x7x!vhlo.i64_v1>) -> !vhlo.tensor_v1<7x!vhlo.i64_v1>
    %14 = "vhlo.convert_v1"(%13) : (!vhlo.tensor_v1<7x!vhlo.i64_v1>) -> !vhlo.tensor_v1<7x!vhlo.ui32_v1>
    %15 = "vhlo.gather_v2"(%arg5, %14) <{collapsed_slice_dims = #vhlo.tensor_v1<dense<0> : tensor<1xi64>>, index_vector_dim = #vhlo.integer_v1<1 : i64>, indices_are_sorted = #vhlo.bool_v1<false>, offset_dims = #vhlo.tensor_v1<dense<1> : tensor<1xi64>>, operand_batching_dims = #vhlo.tensor_v1<dense<> : tensor<0xi64>>, slice_sizes = #vhlo.tensor_v1<dense<[1, 3072]> : tensor<2xi64>>, start_index_map = #vhlo.tensor_v1<dense<0> : tensor<1xi64>>, start_indices_batching_dims = #vhlo.tensor_v1<dense<> : tensor<0xi64>>}> : (!vhlo.tensor_v1<128256x3072x!vhlo.bf16_v1>, !vhlo.tensor_v1<7x!vhlo.ui32_v1>) -> !vhlo.tensor_v1<7x3072x!vhlo.bf16_v1>
    %16 = "vhlo.reshape_v1"(%15) : (!vhlo.tensor_v1<7x3072x!vhlo.bf16_v1>) -> !vhlo.tensor_v1<1x7x3072x!vhlo.bf16_v1>
    %17 = "vhlo.convert_v1"(%16) : (!vhlo.tensor_v1<1x7x3072x!vhlo.bf16_v1>) -> !vhlo.tensor_v1<1x7x3072x!vhlo.f32_v1>
    %18 = "vhlo.power_v1"(%17, %5) : (!vhlo.tensor_v1<1x7x3072x!vhlo.f32_v1>, !vhlo.tensor_v1<1x7x3072x!vhlo.f32_v1>) -> !vhlo.tensor_v1<1x7x3072x!vhlo.f32_v1>
    %19 = "vhlo.reduce_v1"(%18, %1) <{dimensions = #vhlo.tensor_v1<dense<2> : tensor<1xi64>>}> ({
    ^bb0(%arg21: !vhlo.tensor_v1<!vhlo.f32_v1>, %arg22: !vhlo.tensor_v1<!vhlo.f32_v1>):
      %189 = "vhlo.add_v1"(%arg21, %arg22) : (!vhlo.tensor_v1<!vhlo.f32_v1>, !vhlo.tensor_v1<!vhlo.f32_v1>) -> !vhlo.tensor_v1<!vhlo.f32_v1>
      "vhlo.return_v1"(%189) : (!vhlo.tensor_v1<!vhlo.f32_v1>) -> ()
    }) : (!vhlo.tensor_v1<1x7x3072x!vhlo.f32_v1>, !vhlo.tensor_v1<!vhlo.f32_v1>) -> !vhlo.tensor_v1<1x7x!vhlo.f32_v1>
    %20 = "vhlo.multiply_v1"(%19, %3) : (!vhlo.tensor_v1<1x7x!vhlo.f32_v1>, !vhlo.tensor_v1<1x7x!vhlo.f32_v1>) -> !vhlo.tensor_v1<1x7x!vhlo.f32_v1>
    %21 = "vhlo.reshape_v1"(%20) : (!vhlo.tensor_v1<1x7x!vhlo.f32_v1>) -> !vhlo.tensor_v1<1x7x1x!vhlo.f32_v1>
    %22 = "vhlo.broadcast_in_dim_v1"(%arg3) <{broadcast_dimensions = #vhlo.tensor_v1<dense<> : tensor<0xi64>>}> : (!vhlo.tensor_v1<!vhlo.f32_v1>) -> !vhlo.tensor_v1<1x7x1x!vhlo.f32_v1>
    %23 = "vhlo.add_v1"(%21, %22) : (!vhlo.tensor_v1<1x7x1x!vhlo.f32_v1>, !vhlo.tensor_v1<1x7x1x!vhlo.f32_v1>) -> !vhlo.tensor_v1<1x7x1x!vhlo.f32_v1>
    %24 = "vhlo.rsqrt_v2"(%23) <{result_accuracy = #vhlo.result_accuracy_v1<atol = 0.000000e+00, rtol = 0.000000e+00, ulps = 0, mode = #vhlo<result_accuracy_mode_v1 DEFAULT>>}> : (!vhlo.tensor_v1<1x7x1x!vhlo.f32_v1>) -> !vhlo.tensor_v1<1x7x1x!vhlo.f32_v1>
    %25 = "vhlo.reshape_v1"(%24) : (!vhlo.tensor_v1<1x7x1x!vhlo.f32_v1>) -> !vhlo.tensor_v1<1x7x!vhlo.f32_v1>
    %26 = "vhlo.broadcast_in_dim_v1"(%25) <{broadcast_dimensions = #vhlo.tensor_v1<dense<[0, 1]> : tensor<2xi64>>}> : (!vhlo.tensor_v1<1x7x!vhlo.f32_v1>) -> !vhlo.tensor_v1<1x7x3072x!vhlo.f32_v1>
    %27 = "vhlo.multiply_v1"(%17, %26) : (!vhlo.tensor_v1<1x7x3072x!vhlo.f32_v1>, !vhlo.tensor_v1<1x7x3072x!vhlo.f32_v1>) -> !vhlo.tensor_v1<1x7x3072x!vhlo.f32_v1>
    %28 = "vhlo.convert_v1"(%27) : (!vhlo.tensor_v1<1x7x3072x!vhlo.f32_v1>) -> !vhlo.tensor_v1<1x7x3072x!vhlo.bf16_v1>
    %29 = "vhlo.convert_v1"(%28) : (!vhlo.tensor_v1<1x7x3072x!vhlo.bf16_v1>) -> !vhlo.tensor_v1<1x7x3072x!vhlo.f32_v1>
    %30 = "vhlo.multiply_v1"(%12, %29) : (!vhlo.tensor_v1<1x7x3072x!vhlo.f32_v1>, !vhlo.tensor_v1<1x7x3072x!vhlo.f32_v1>) -> !vhlo.tensor_v1<1x7x3072x!vhlo.f32_v1>
    %31 = "vhlo.convert_v1"(%30) : (!vhlo.tensor_v1<1x7x3072x!vhlo.f32_v1>) -> !vhlo.tensor_v1<1x7x3072x!vhlo.bf16_v1>
    %32 = "vhlo.reshape_v1"(%31) : (!vhlo.tensor_v1<1x7x3072x!vhlo.bf16_v1>) -> !vhlo.tensor_v1<7x3072x!vhlo.bf16_v1>
    %33 = "vhlo.transpose_v1"(%arg2) <{permutation = #vhlo.tensor_v1<dense<[1, 0]> : tensor<2xi64>>}> {result_layout = #vhlo.tensor_v1<dense<[0, 1]> : tensor<2xindex>>, xla_shape = #vhlo.string_v1<"bf16[3072,1024]{0,1}">} : (!vhlo.tensor_v1<1024x3072x!vhlo.bf16_v1>) -> !vhlo.tensor_v1<3072x1024x!vhlo.bf16_v1>
    %34 = "vhlo.dot_general_v2"(%32, %33) <{accumulation_type = #vhlo.type_v1<!vhlo.none_v1>, allow_imprecise_accumulation = #vhlo.type_v1<!vhlo.none_v1>, lhs_batching_dimensions = #vhlo.tensor_v1<dense<> : tensor<0xi64>>, lhs_component_count = #vhlo.type_v1<!vhlo.none_v1>, lhs_contracting_dimensions = #vhlo.tensor_v1<dense<1> : tensor<1xi64>>, lhs_precision_type = #vhlo.type_v1<!vhlo.none_v1>, num_primitive_operations = #vhlo.type_v1<!vhlo.none_v1>, precision_config = #vhlo.array_v1<[#vhlo<precision_v1 DEFAULT>, #vhlo<precision_v1 DEFAULT>]>, rhs_batching_dimensions = #vhlo.tensor_v1<dense<> : tensor<0xi64>>, rhs_component_count = #vhlo.type_v1<!vhlo.none_v1>, rhs_contracting_dimensions = #vhlo.tensor_v1<dense<0> : tensor<1xi64>>, rhs_precision_type = #vhlo.type_v1<!vhlo.none_v1>}> : (!vhlo.tensor_v1<7x3072x!vhlo.bf16_v1>, !vhlo.tensor_v1<3072x1024x!vhlo.bf16_v1>) -> !vhlo.tensor_v1<7x1024x!vhlo.bf16_v1>
    %35 = "vhlo.reshape_v1"(%34) : (!vhlo.tensor_v1<7x1024x!vhlo.bf16_v1>) -> !vhlo.tensor_v1<1x7x8x128x!vhlo.bf16_v1>
    %36 = "vhlo.transpose_v1"(%35) <{permutation = #vhlo.tensor_v1<dense<[0, 2, 1, 3]> : tensor<4xi64>>}> {result_layout = #vhlo.tensor_v1<dense<[3, 1, 2, 0]> : tensor<4xindex>>, xla_shape = #vhlo.string_v1<"bf16[1,8,7,128]{3,1,2,0}">} : (!vhlo.tensor_v1<1x7x8x128x!vhlo.bf16_v1>) -> !vhlo.tensor_v1<1x8x7x128x!vhlo.bf16_v1>
    %37 = "vhlo.convert_v1"(%36) {result_layout = #vhlo.tensor_v1<dense<[3, 1, 2, 0]> : tensor<4xindex>>, xla_shape = #vhlo.string_v1<"f32[1,8,7,128]{3,1,2,0}">} : (!vhlo.tensor_v1<1x8x7x128x!vhlo.bf16_v1>) -> !vhlo.tensor_v1<1x8x7x128x!vhlo.f32_v1>
    %38 = "vhlo.reshape_v1"(%arg1) : (!vhlo.tensor_v1<64x!vhlo.f32_v1>) -> !vhlo.tensor_v1<1x64x1x!vhlo.f32_v1>
    %39 = "vhlo.reshape_v1"(%arg0) : (!vhlo.tensor_v1<7x!vhlo.i64_v1>) -> !vhlo.tensor_v1<1x1x7x!vhlo.i64_v1>
    %40 = "vhlo.convert_v1"(%39) : (!vhlo.tensor_v1<1x1x7x!vhlo.i64_v1>) -> !vhlo.tensor_v1<1x1x7x!vhlo.f32_v1>
    %41 = "vhlo.dot_general_v2"(%38, %40) <{accumulation_type = #vhlo.type_v1<!vhlo.none_v1>, allow_imprecise_accumulation = #vhlo.type_v1<!vhlo.none_v1>, lhs_batching_dimensions = #vhlo.tensor_v1<dense<0> : tensor<1xi64>>, lhs_component_count = #vhlo.type_v1<!vhlo.none_v1>, lhs_contracting_dimensions = #vhlo.tensor_v1<dense<2> : tensor<1xi64>>, lhs_precision_type = #vhlo.type_v1<!vhlo.none_v1>, num_primitive_operations = #vhlo.type_v1<!vhlo.none_v1>, precision_config = #vhlo.array_v1<[#vhlo<precision_v1 DEFAULT>, #vhlo<precision_v1 DEFAULT>]>, rhs_batching_dimensions = #vhlo.tensor_v1<dense<0> : tensor<1xi64>>, rhs_component_count = #vhlo.type_v1<!vhlo.none_v1>, rhs_contracting_dimensions = #vhlo.tensor_v1<dense<1> : tensor<1xi64>>, rhs_precision_type = #vhlo.type_v1<!vhlo.none_v1>}> : (!vhlo.tensor_v1<1x64x1x!vhlo.f32_v1>, !vhlo.tensor_v1<1x1x7x!vhlo.f32_v1>) -> !vhlo.tensor_v1<1x64x7x!vhlo.f32_v1>
    %42 = "vhlo.transpose_v1"(%41) <{permutation = #vhlo.tensor_v1<dense<[0, 2, 1]> : tensor<3xi64>>}> {result_layout = #vhlo.tensor_v1<dense<[1, 2, 0]> : tensor<3xindex>>, xla_shape = #vhlo.string_v1<"f32[1,7,64]{1,2,0}">} : (!vhlo.tensor_v1<1x64x7x!vhlo.f32_v1>) -> !vhlo.tensor_v1<1x7x64x!vhlo.f32_v1>
    %43 = "vhlo.concatenate_v1"(%42, %42) <{dimension = #vhlo.integer_v1<2 : i64>}> : (!vhlo.tensor_v1<1x7x64x!vhlo.f32_v1>, !vhlo.tensor_v1<1x7x64x!vhlo.f32_v1>) -> !vhlo.tensor_v1<1x7x128x!vhlo.f32_v1>
    %44 = "vhlo.cosine_v2"(%43) <{result_accuracy = #vhlo.result_accuracy_v1<atol = 0.000000e+00, rtol = 0.000000e+00, ulps = 0, mode = #vhlo<result_accuracy_mode_v1 DEFAULT>>}> : (!vhlo.tensor_v1<1x7x128x!vhlo.f32_v1>) -> !vhlo.tensor_v1<1x7x128x!vhlo.f32_v1>
    %45 = "vhlo.convert_v1"(%44) : (!vhlo.tensor_v1<1x7x128x!vhlo.f32_v1>) -> !vhlo.tensor_v1<1x7x128x!vhlo.bf16_v1>
    %46 = "vhlo.reshape_v1"(%45) : (!vhlo.tensor_v1<1x7x128x!vhlo.bf16_v1>) -> !vhlo.tensor_v1<1x1x7x128x!vhlo.bf16_v1>
    %47 = "vhlo.convert_v1"(%46) : (!vhlo.tensor_v1<1x1x7x128x!vhlo.bf16_v1>) -> !vhlo.tensor_v1<1x1x7x128x!vhlo.f32_v1>
    %48 = "vhlo.reshape_v1"(%47) : (!vhlo.tensor_v1<1x1x7x128x!vhlo.f32_v1>) -> !vhlo.tensor_v1<1x7x128x!vhlo.f32_v1>
    %49 = "vhlo.broadcast_in_dim_v1"(%48) <{broadcast_dimensions = #vhlo.tensor_v1<dense<[0, 2, 3]> : tensor<3xi64>>}> : (!vhlo.tensor_v1<1x7x128x!vhlo.f32_v1>) -> !vhlo.tensor_v1<1x8x7x128x!vhlo.f32_v1>
    %50 = "vhlo.multiply_v1"(%37, %49) : (!vhlo.tensor_v1<1x8x7x128x!vhlo.f32_v1>, !vhlo.tensor_v1<1x8x7x128x!vhlo.f32_v1>) -> !vhlo.tensor_v1<1x8x7x128x!vhlo.f32_v1>
    %51 = "vhlo.convert_v1"(%50) : (!vhlo.tensor_v1<1x8x7x128x!vhlo.f32_v1>) -> !vhlo.tensor_v1<1x8x7x128x!vhlo.bf16_v1>
    %52 = "vhlo.slice_v1"(%36) <{limit_indices = #vhlo.tensor_v1<dense<[1, 8, 7, 128]> : tensor<4xi64>>, start_indices = #vhlo.tensor_v1<dense<[0, 0, 0, 64]> : tensor<4xi64>>, strides = #vhlo.tensor_v1<dense<1> : tensor<4xi64>>}> : (!vhlo.tensor_v1<1x8x7x128x!vhlo.bf16_v1>) -> !vhlo.tensor_v1<1x8x7x64x!vhlo.bf16_v1>
    %53 = "vhlo.negate_v1"(%52) : (!vhlo.tensor_v1<1x8x7x64x!vhlo.bf16_v1>) -> !vhlo.tensor_v1<1x8x7x64x!vhlo.bf16_v1>
    %54 = "vhlo.slice_v1"(%36) <{limit_indices = #vhlo.tensor_v1<dense<[1, 8, 7, 64]> : tensor<4xi64>>, start_indices = #vhlo.tensor_v1<dense<0> : tensor<4xi64>>, strides = #vhlo.tensor_v1<dense<1> : tensor<4xi64>>}> : (!vhlo.tensor_v1<1x8x7x128x!vhlo.bf16_v1>) -> !vhlo.tensor_v1<1x8x7x64x!vhlo.bf16_v1>
    %55 = "vhlo.concatenate_v1"(%53, %54) <{dimension = #vhlo.integer_v1<3 : i64>}> : (!vhlo.tensor_v1<1x8x7x64x!vhlo.bf16_v1>, !vhlo.tensor_v1<1x8x7x64x!vhlo.bf16_v1>) -> !vhlo.tensor_v1<1x8x7x128x!vhlo.bf16_v1>
    %56 = "vhlo.convert_v1"(%55) : (!vhlo.tensor_v1<1x8x7x128x!vhlo.bf16_v1>) -> !vhlo.tensor_v1<1x8x7x128x!vhlo.f32_v1>
    %57 = "vhlo.sine_v2"(%43) <{result_accuracy = #vhlo.result_accuracy_v1<atol = 0.000000e+00, rtol = 0.000000e+00, ulps = 0, mode = #vhlo<result_accuracy_mode_v1 DEFAULT>>}> : (!vhlo.tensor_v1<1x7x128x!vhlo.f32_v1>) -> !vhlo.tensor_v1<1x7x128x!vhlo.f32_v1>
    %58 = "vhlo.convert_v1"(%57) : (!vhlo.tensor_v1<1x7x128x!vhlo.f32_v1>) -> !vhlo.tensor_v1<1x7x128x!vhlo.bf16_v1>
    %59 = "vhlo.reshape_v1"(%58) : (!vhlo.tensor_v1<1x7x128x!vhlo.bf16_v1>) -> !vhlo.tensor_v1<1x1x7x128x!vhlo.bf16_v1>
    %60 = "vhlo.convert_v1"(%59) : (!vhlo.tensor_v1<1x1x7x128x!vhlo.bf16_v1>) -> !vhlo.tensor_v1<1x1x7x128x!vhlo.f32_v1>
    %61 = "vhlo.reshape_v1"(%60) : (!vhlo.tensor_v1<1x1x7x128x!vhlo.f32_v1>) -> !vhlo.tensor_v1<1x7x128x!vhlo.f32_v1>
    %62 = "vhlo.broadcast_in_dim_v1"(%61) <{broadcast_dimensions = #vhlo.tensor_v1<dense<[0, 2, 3]> : tensor<3xi64>>}> : (!vhlo.tensor_v1<1x7x128x!vhlo.f32_v1>) -> !vhlo.tensor_v1<1x8x7x128x!vhlo.f32_v1>
    %63 = "vhlo.multiply_v1"(%56, %62) : (!vhlo.tensor_v1<1x8x7x128x!vhlo.f32_v1>, !vhlo.tensor_v1<1x8x7x128x!vhlo.f32_v1>) -> !vhlo.tensor_v1<1x8x7x128x!vhlo.f32_v1>
    %64 = "vhlo.convert_v1"(%63) : (!vhlo.tensor_v1<1x8x7x128x!vhlo.f32_v1>) -> !vhlo.tensor_v1<1x8x7x128x!vhlo.bf16_v1>
    %65 = "vhlo.add_v1"(%51, %64) : (!vhlo.tensor_v1<1x8x7x128x!vhlo.bf16_v1>, !vhlo.tensor_v1<1x8x7x128x!vhlo.bf16_v1>) -> !vhlo.tensor_v1<1x8x7x128x!vhlo.bf16_v1>
    %66 = "vhlo.scatter_v2"(%arg8, %10, %65) <{index_vector_dim = #vhlo.integer_v1<1 : i64>, indices_are_sorted = #vhlo.bool_v1<false>, input_batching_dims = #vhlo.tensor_v1<dense<> : tensor<0xi64>>, inserted_window_dims = #vhlo.tensor_v1<dense<2> : tensor<1xi64>>, scatter_dims_to_operand_dims = #vhlo.tensor_v1<dense<2> : tensor<1xi64>>, scatter_indices_batching_dims = #vhlo.tensor_v1<dense<> : tensor<0xi64>>, unique_indices = #vhlo.bool_v1<false>, update_window_dims = #vhlo.tensor_v1<dense<[0, 1, 3]> : tensor<3xi64>>}> ({
    ^bb0(%arg21: !vhlo.tensor_v1<!vhlo.bf16_v1>, %arg22: !vhlo.tensor_v1<!vhlo.bf16_v1>):
      "vhlo.return_v1"(%arg22) : (!vhlo.tensor_v1<!vhlo.bf16_v1>) -> ()
    }) : (!vhlo.tensor_v1<1x8x128x128x!vhlo.bf16_v1>, !vhlo.tensor_v1<7x1x!vhlo.i64_v1>, !vhlo.tensor_v1<1x8x7x128x!vhlo.bf16_v1>) -> !vhlo.tensor_v1<1x8x128x128x!vhlo.bf16_v1>
    %67 = "vhlo.custom_call_v1"(%66) <{api_version = #vhlo<api_version_v1 API_VERSION_ORIGINAL>, backend_config = #vhlo.string_v1<"">, call_target_name = #vhlo.string_v1<"Sharding">, called_computations = #vhlo.array_v1<[]>, has_side_effect = #vhlo.bool_v1<false>, operand_layouts = #vhlo.array_v1<[]>, output_operand_aliases = #vhlo.array_v1<[]>, result_layouts = #vhlo.array_v1<[]>}> {mhlo.frontend_attributes = #vhlo.dict_v1<{#vhlo.string_v1<"xla.sdy.sharding"> = #vhlo.string_v1<"#sdy.sharding_per_value<[<@mesh, [{}, {\22_axis_0\22}, {}, {}]>]>">}>, mhlo.sharding = #vhlo.string_v1<"{devices=[1,2,1,1]<=[2]}">} : (!vhlo.tensor_v1<1x8x128x128x!vhlo.bf16_v1>) -> !vhlo.tensor_v1<1x8x128x128x!vhlo.bf16_v1>
    %68 = "vhlo.transpose_v1"(%arg9) <{permutation = #vhlo.tensor_v1<dense<[1, 0]> : tensor<2xi64>>}> {result_layout = #vhlo.tensor_v1<dense<[0, 1]> : tensor<2xindex>>, xla_shape = #vhlo.string_v1<"bf16[3072,1024]{0,1}">} : (!vhlo.tensor_v1<1024x3072x!vhlo.bf16_v1>) -> !vhlo.tensor_v1<3072x1024x!vhlo.bf16_v1>
    %69 = "vhlo.dot_general_v2"(%32, %68) <{accumulation_type = #vhlo.type_v1<!vhlo.none_v1>, allow_imprecise_accumulation = #vhlo.type_v1<!vhlo.none_v1>, lhs_batching_dimensions = #vhlo.tensor_v1<dense<> : tensor<0xi64>>, lhs_component_count = #vhlo.type_v1<!vhlo.none_v1>, lhs_contracting_dimensions = #vhlo.tensor_v1<dense<1> : tensor<1xi64>>, lhs_precision_type = #vhlo.type_v1<!vhlo.none_v1>, num_primitive_operations = #vhlo.type_v1<!vhlo.none_v1>, precision_config = #vhlo.array_v1<[#vhlo<precision_v1 DEFAULT>, #vhlo<precision_v1 DEFAULT>]>, rhs_batching_dimensions = #vhlo.tensor_v1<dense<> : tensor<0xi64>>, rhs_component_count = #vhlo.type_v1<!vhlo.none_v1>, rhs_contracting_dimensions = #vhlo.tensor_v1<dense<0> : tensor<1xi64>>, rhs_precision_type = #vhlo.type_v1<!vhlo.none_v1>}> : (!vhlo.tensor_v1<7x3072x!vhlo.bf16_v1>, !vhlo.tensor_v1<3072x1024x!vhlo.bf16_v1>) -> !vhlo.tensor_v1<7x1024x!vhlo.bf16_v1>
    %70 = "vhlo.reshape_v1"(%69) : (!vhlo.tensor_v1<7x1024x!vhlo.bf16_v1>) -> !vhlo.tensor_v1<1x7x8x128x!vhlo.bf16_v1>
    %71 = "vhlo.transpose_v1"(%70) <{permutation = #vhlo.tensor_v1<dense<[0, 2, 1, 3]> : tensor<4xi64>>}> {result_layout = #vhlo.tensor_v1<dense<[3, 1, 2, 0]> : tensor<4xindex>>, xla_shape = #vhlo.string_v1<"bf16[1,8,7,128]{3,1,2,0}">} : (!vhlo.tensor_v1<1x7x8x128x!vhlo.bf16_v1>) -> !vhlo.tensor_v1<1x8x7x128x!vhlo.bf16_v1>
    %72 = "vhlo.scatter_v2"(%arg10, %10, %71) <{index_vector_dim = #vhlo.integer_v1<1 : i64>, indices_are_sorted = #vhlo.bool_v1<false>, input_batching_dims = #vhlo.tensor_v1<dense<> : tensor<0xi64>>, inserted_window_dims = #vhlo.tensor_v1<dense<2> : tensor<1xi64>>, scatter_dims_to_operand_dims = #vhlo.tensor_v1<dense<2> : tensor<1xi64>>, scatter_indices_batching_dims = #vhlo.tensor_v1<dense<> : tensor<0xi64>>, unique_indices = #vhlo.bool_v1<false>, update_window_dims = #vhlo.tensor_v1<dense<[0, 1, 3]> : tensor<3xi64>>}> ({
    ^bb0(%arg21: !vhlo.tensor_v1<!vhlo.bf16_v1>, %arg22: !vhlo.tensor_v1<!vhlo.bf16_v1>):
      "vhlo.return_v1"(%arg22) : (!vhlo.tensor_v1<!vhlo.bf16_v1>) -> ()
    }) : (!vhlo.tensor_v1<1x8x128x128x!vhlo.bf16_v1>, !vhlo.tensor_v1<7x1x!vhlo.i64_v1>, !vhlo.tensor_v1<1x8x7x128x!vhlo.bf16_v1>) -> !vhlo.tensor_v1<1x8x128x128x!vhlo.bf16_v1>
    %73 = "vhlo.custom_call_v1"(%72) <{api_version = #vhlo<api_version_v1 API_VERSION_ORIGINAL>, backend_config = #vhlo.string_v1<"">, call_target_name = #vhlo.string_v1<"Sharding">, called_computations = #vhlo.array_v1<[]>, has_side_effect = #vhlo.bool_v1<false>, operand_layouts = #vhlo.array_v1<[]>, output_operand_aliases = #vhlo.array_v1<[]>, result_layouts = #vhlo.array_v1<[]>}> {mhlo.frontend_attributes = #vhlo.dict_v1<{#vhlo.string_v1<"xla.sdy.sharding"> = #vhlo.string_v1<"#sdy.sharding_per_value<[<@mesh, [{}, {\22_axis_0\22}, {}, {}]>]>">}>, mhlo.sharding = #vhlo.string_v1<"{devices=[1,2,1,1]<=[2]}">} : (!vhlo.tensor_v1<1x8x128x128x!vhlo.bf16_v1>) -> !vhlo.tensor_v1<1x8x128x128x!vhlo.bf16_v1>
    %74 = "vhlo.convert_v1"(%arg20) : (!vhlo.tensor_v1<3072x!vhlo.bf16_v1>) -> !vhlo.tensor_v1<3072x!vhlo.f32_v1>
    %75 = "vhlo.broadcast_in_dim_v1"(%74) <{broadcast_dimensions = #vhlo.tensor_v1<dense<2> : tensor<1xi64>>}> : (!vhlo.tensor_v1<3072x!vhlo.f32_v1>) -> !vhlo.tensor_v1<1x7x3072x!vhlo.f32_v1>
    %76 = "vhlo.transpose_v1"(%arg17) <{permutation = #vhlo.tensor_v1<dense<[1, 0]> : tensor<2xi64>>}> {result_layout = #vhlo.tensor_v1<dense<[0, 1]> : tensor<2xindex>>, xla_shape = #vhlo.string_v1<"bf16[3072,3072]{0,1}">} : (!vhlo.tensor_v1<3072x3072x!vhlo.bf16_v1>) -> !vhlo.tensor_v1<3072x3072x!vhlo.bf16_v1>
    %77 = "vhlo.dot_general_v2"(%32, %76) <{accumulation_type = #vhlo.type_v1<!vhlo.none_v1>, allow_imprecise_accumulation = #vhlo.type_v1<!vhlo.none_v1>, lhs_batching_dimensions = #vhlo.tensor_v1<dense<> : tensor<0xi64>>, lhs_component_count = #vhlo.type_v1<!vhlo.none_v1>, lhs_contracting_dimensions = #vhlo.tensor_v1<dense<1> : tensor<1xi64>>, lhs_precision_type = #vhlo.type_v1<!vhlo.none_v1>, num_primitive_operations = #vhlo.type_v1<!vhlo.none_v1>, precision_config = #vhlo.array_v1<[#vhlo<precision_v1 DEFAULT>, #vhlo<precision_v1 DEFAULT>]>, rhs_batching_dimensions = #vhlo.tensor_v1<dense<> : tensor<0xi64>>, rhs_component_count = #vhlo.type_v1<!vhlo.none_v1>, rhs_contracting_dimensions = #vhlo.tensor_v1<dense<0> : tensor<1xi64>>, rhs_precision_type = #vhlo.type_v1<!vhlo.none_v1>}> : (!vhlo.tensor_v1<7x3072x!vhlo.bf16_v1>, !vhlo.tensor_v1<3072x3072x!vhlo.bf16_v1>) -> !vhlo.tensor_v1<7x3072x!vhlo.bf16_v1>
    %78 = "vhlo.reshape_v1"(%77) : (!vhlo.tensor_v1<7x3072x!vhlo.bf16_v1>) -> !vhlo.tensor_v1<1x7x24x128x!vhlo.bf16_v1>
    %79 = "vhlo.transpose_v1"(%78) <{permutation = #vhlo.tensor_v1<dense<[0, 2, 1, 3]> : tensor<4xi64>>}> {result_layout = #vhlo.tensor_v1<dense<[3, 1, 2, 0]> : tensor<4xindex>>, xla_shape = #vhlo.string_v1<"bf16[1,24,7,128]{3,1,2,0}">} : (!vhlo.tensor_v1<1x7x24x128x!vhlo.bf16_v1>) -> !vhlo.tensor_v1<1x24x7x128x!vhlo.bf16_v1>
    %80 = "vhlo.convert_v1"(%79) {result_layout = #vhlo.tensor_v1<dense<[3, 1, 2, 0]> : tensor<4xindex>>, xla_shape = #vhlo.string_v1<"f32[1,24,7,128]{3,1,2,0}">} : (!vhlo.tensor_v1<1x24x7x128x!vhlo.bf16_v1>) -> !vhlo.tensor_v1<1x24x7x128x!vhlo.f32_v1>
    %81 = "vhlo.broadcast_in_dim_v1"(%48) <{broadcast_dimensions = #vhlo.tensor_v1<dense<[0, 2, 3]> : tensor<3xi64>>}> : (!vhlo.tensor_v1<1x7x128x!vhlo.f32_v1>) -> !vhlo.tensor_v1<1x24x7x128x!vhlo.f32_v1>
    %82 = "vhlo.multiply_v1"(%80, %81) : (!vhlo.tensor_v1<1x24x7x128x!vhlo.f32_v1>, !vhlo.tensor_v1<1x24x7x128x!vhlo.f32_v1>) -> !vhlo.tensor_v1<1x24x7x128x!vhlo.f32_v1>
    %83 = "vhlo.convert_v1"(%82) : (!vhlo.tensor_v1<1x24x7x128x!vhlo.f32_v1>) -> !vhlo.tensor_v1<1x24x7x128x!vhlo.bf16_v1>
    %84 = "vhlo.slice_v1"(%79) <{limit_indices = #vhlo.tensor_v1<dense<[1, 24, 7, 128]> : tensor<4xi64>>, start_indices = #vhlo.tensor_v1<dense<[0, 0, 0, 64]> : tensor<4xi64>>, strides = #vhlo.tensor_v1<dense<1> : tensor<4xi64>>}> : (!vhlo.tensor_v1<1x24x7x128x!vhlo.bf16_v1>) -> !vhlo.tensor_v1<1x24x7x64x!vhlo.bf16_v1>
    %85 = "vhlo.negate_v1"(%84) : (!vhlo.tensor_v1<1x24x7x64x!vhlo.bf16_v1>) -> !vhlo.tensor_v1<1x24x7x64x!vhlo.bf16_v1>
    %86 = "vhlo.slice_v1"(%79) <{limit_indices = #vhlo.tensor_v1<dense<[1, 24, 7, 64]> : tensor<4xi64>>, start_indices = #vhlo.tensor_v1<dense<0> : tensor<4xi64>>, strides = #vhlo.tensor_v1<dense<1> : tensor<4xi64>>}> : (!vhlo.tensor_v1<1x24x7x128x!vhlo.bf16_v1>) -> !vhlo.tensor_v1<1x24x7x64x!vhlo.bf16_v1>
    %87 = "vhlo.concatenate_v1"(%85, %86) <{dimension = #vhlo.integer_v1<3 : i64>}> : (!vhlo.tensor_v1<1x24x7x64x!vhlo.bf16_v1>, !vhlo.tensor_v1<1x24x7x64x!vhlo.bf16_v1>) -> !vhlo.tensor_v1<1x24x7x128x!vhlo.bf16_v1>
    %88 = "vhlo.convert_v1"(%87) : (!vhlo.tensor_v1<1x24x7x128x!vhlo.bf16_v1>) -> !vhlo.tensor_v1<1x24x7x128x!vhlo.f32_v1>
    %89 = "vhlo.broadcast_in_dim_v1"(%61) <{broadcast_dimensions = #vhlo.tensor_v1<dense<[0, 2, 3]> : tensor<3xi64>>}> : (!vhlo.tensor_v1<1x7x128x!vhlo.f32_v1>) -> !vhlo.tensor_v1<1x24x7x128x!vhlo.f32_v1>
    %90 = "vhlo.multiply_v1"(%88, %89) : (!vhlo.tensor_v1<1x24x7x128x!vhlo.f32_v1>, !vhlo.tensor_v1<1x24x7x128x!vhlo.f32_v1>) -> !vhlo.tensor_v1<1x24x7x128x!vhlo.f32_v1>
    %91 = "vhlo.convert_v1"(%90) : (!vhlo.tensor_v1<1x24x7x128x!vhlo.f32_v1>) -> !vhlo.tensor_v1<1x24x7x128x!vhlo.bf16_v1>
    %92 = "vhlo.add_v1"(%83, %91) : (!vhlo.tensor_v1<1x24x7x128x!vhlo.bf16_v1>, !vhlo.tensor_v1<1x24x7x128x!vhlo.bf16_v1>) -> !vhlo.tensor_v1<1x24x7x128x!vhlo.bf16_v1>
    %93 = "vhlo.reshape_v1"(%92) : (!vhlo.tensor_v1<1x24x7x128x!vhlo.bf16_v1>) -> !vhlo.tensor_v1<24x7x128x!vhlo.bf16_v1>
    %94 = "vhlo.broadcast_in_dim_v1"(%66) <{broadcast_dimensions = #vhlo.tensor_v1<dense<[0, 1, 3, 4]> : tensor<4xi64>>}> : (!vhlo.tensor_v1<1x8x128x128x!vhlo.bf16_v1>) -> !vhlo.tensor_v1<1x8x3x128x128x!vhlo.bf16_v1>
    %95 = "vhlo.reshape_v1"(%94) : (!vhlo.tensor_v1<1x8x3x128x128x!vhlo.bf16_v1>) -> !vhlo.tensor_v1<1x24x128x128x!vhlo.bf16_v1>
    %96 = "vhlo.transpose_v1"(%95) <{permutation = #vhlo.tensor_v1<dense<[0, 1, 3, 2]> : tensor<4xi64>>}> {result_layout = #vhlo.tensor_v1<dense<[2, 3, 1, 0]> : tensor<4xindex>>, xla_shape = #vhlo.string_v1<"bf16[1,24,128,128]{2,3,1,0}">} : (!vhlo.tensor_v1<1x24x128x128x!vhlo.bf16_v1>) -> !vhlo.tensor_v1<1x24x128x128x!vhlo.bf16_v1>
    %97 = "vhlo.reshape_v1"(%96) : (!vhlo.tensor_v1<1x24x128x128x!vhlo.bf16_v1>) -> !vhlo.tensor_v1<24x128x128x!vhlo.bf16_v1>
    %98 = "vhlo.dot_general_v2"(%93, %97) <{accumulation_type = #vhlo.type_v1<!vhlo.none_v1>, allow_imprecise_accumulation = #vhlo.type_v1<!vhlo.none_v1>, lhs_batching_dimensions = #vhlo.tensor_v1<dense<0> : tensor<1xi64>>, lhs_component_count = #vhlo.type_v1<!vhlo.none_v1>, lhs_contracting_dimensions = #vhlo.tensor_v1<dense<2> : tensor<1xi64>>, lhs_precision_type = #vhlo.type_v1<!vhlo.none_v1>, num_primitive_operations = #vhlo.type_v1<!vhlo.none_v1>, precision_config = #vhlo.array_v1<[#vhlo<precision_v1 DEFAULT>, #vhlo<precision_v1 DEFAULT>]>, rhs_batching_dimensions = #vhlo.tensor_v1<dense<0> : tensor<1xi64>>, rhs_component_count = #vhlo.type_v1<!vhlo.none_v1>, rhs_contracting_dimensions = #vhlo.tensor_v1<dense<1> : tensor<1xi64>>, rhs_precision_type = #vhlo.type_v1<!vhlo.none_v1>}> : (!vhlo.tensor_v1<24x7x128x!vhlo.bf16_v1>, !vhlo.tensor_v1<24x128x128x!vhlo.bf16_v1>) -> !vhlo.tensor_v1<24x7x128x!vhlo.bf16_v1>
    %99 = "vhlo.reshape_v1"(%98) : (!vhlo.tensor_v1<24x7x128x!vhlo.bf16_v1>) -> !vhlo.tensor_v1<1x24x7x128x!vhlo.bf16_v1>
    %100 = "vhlo.convert_v1"(%99) : (!vhlo.tensor_v1<1x24x7x128x!vhlo.bf16_v1>) -> !vhlo.tensor_v1<1x24x7x128x!vhlo.f32_v1>
    %101 = "vhlo.broadcast_in_dim_v1"(%arg16) <{broadcast_dimensions = #vhlo.tensor_v1<dense<> : tensor<0xi64>>}> : (!vhlo.tensor_v1<!vhlo.f32_v1>) -> !vhlo.tensor_v1<1x24x7x128x!vhlo.f32_v1>
    %102 = "vhlo.multiply_v1"(%100, %101) : (!vhlo.tensor_v1<1x24x7x128x!vhlo.f32_v1>, !vhlo.tensor_v1<1x24x7x128x!vhlo.f32_v1>) -> !vhlo.tensor_v1<1x24x7x128x!vhlo.f32_v1>
    %103 = "vhlo.convert_v1"(%102) : (!vhlo.tensor_v1<1x24x7x128x!vhlo.f32_v1>) -> !vhlo.tensor_v1<1x24x7x128x!vhlo.bf16_v1>
    %104 = "vhlo.convert_v1"(%arg15) : (!vhlo.tensor_v1<7x128x!vhlo.bf16_v1>) -> !vhlo.tensor_v1<7x128x!vhlo.f32_v1>
    %105 = "vhlo.broadcast_in_dim_v1"(%arg14) <{broadcast_dimensions = #vhlo.tensor_v1<dense<1> : tensor<1xi64>>}> : (!vhlo.tensor_v1<128x!vhlo.i64_v1>) -> !vhlo.tensor_v1<7x128x!vhlo.i64_v1>
    %106 = "vhlo.broadcast_in_dim_v1"(%arg0) <{broadcast_dimensions = #vhlo.tensor_v1<dense<0> : tensor<1xi64>>}> : (!vhlo.tensor_v1<7x!vhlo.i64_v1>) -> !vhlo.tensor_v1<7x128x!vhlo.i64_v1>
    %107 = "vhlo.compare_v1"(%105, %106) <{compare_type = #vhlo<comparison_type_v1 NOTYPE>, comparison_direction = #vhlo<comparison_direction_v1 GT>}> : (!vhlo.tensor_v1<7x128x!vhlo.i64_v1>, !vhlo.tensor_v1<7x128x!vhlo.i64_v1>) -> !vhlo.tensor_v1<7x128x!vhlo.bool_v1>
    %108 = "vhlo.convert_v1"(%107) : (!vhlo.tensor_v1<7x128x!vhlo.bool_v1>) -> !vhlo.tensor_v1<7x128x!vhlo.f32_v1>
    %109 = "vhlo.multiply_v1"(%104, %108) : (!vhlo.tensor_v1<7x128x!vhlo.f32_v1>, !vhlo.tensor_v1<7x128x!vhlo.f32_v1>) -> !vhlo.tensor_v1<7x128x!vhlo.f32_v1>
    %110 = "vhlo.convert_v1"(%109) : (!vhlo.tensor_v1<7x128x!vhlo.f32_v1>) -> !vhlo.tensor_v1<7x128x!vhlo.bf16_v1>
    %111 = "vhlo.reshape_v1"(%110) : (!vhlo.tensor_v1<7x128x!vhlo.bf16_v1>) -> !vhlo.tensor_v1<1x7x128x!vhlo.bf16_v1>
    %112 = "vhlo.broadcast_in_dim_v1"(%111) <{broadcast_dimensions = #vhlo.tensor_v1<dense<[0, 2, 3]> : tensor<3xi64>>}> : (!vhlo.tensor_v1<1x7x128x!vhlo.bf16_v1>) -> !vhlo.tensor_v1<1x24x7x128x!vhlo.bf16_v1>
    %113 = "vhlo.add_v1"(%103, %112) : (!vhlo.tensor_v1<1x24x7x128x!vhlo.bf16_v1>, !vhlo.tensor_v1<1x24x7x128x!vhlo.bf16_v1>) -> !vhlo.tensor_v1<1x24x7x128x!vhlo.bf16_v1>
    %114 = "vhlo.convert_v1"(%113) : (!vhlo.tensor_v1<1x24x7x128x!vhlo.bf16_v1>) -> !vhlo.tensor_v1<1x24x7x128x!vhlo.f32_v1>
    %115 = "vhlo.reduce_v1"(%114, %2) <{dimensions = #vhlo.tensor_v1<dense<3> : tensor<1xi64>>}> ({
    ^bb0(%arg21: !vhlo.tensor_v1<!vhlo.f32_v1>, %arg22: !vhlo.tensor_v1<!vhlo.f32_v1>):
      %189 = "vhlo.maximum_v1"(%arg21, %arg22) : (!vhlo.tensor_v1<!vhlo.f32_v1>, !vhlo.tensor_v1<!vhlo.f32_v1>) -> !vhlo.tensor_v1<!vhlo.f32_v1>
      "vhlo.return_v1"(%189) : (!vhlo.tensor_v1<!vhlo.f32_v1>) -> ()
    }) : (!vhlo.tensor_v1<1x24x7x128x!vhlo.f32_v1>, !vhlo.tensor_v1<!vhlo.f32_v1>) -> !vhlo.tensor_v1<1x24x7x!vhlo.f32_v1>
    %116 = "vhlo.broadcast_in_dim_v1"(%115) <{broadcast_dimensions = #vhlo.tensor_v1<dense<[0, 1, 2]> : tensor<3xi64>>}> : (!vhlo.tensor_v1<1x24x7x!vhlo.f32_v1>) -> !vhlo.tensor_v1<1x24x7x128x!vhlo.f32_v1>
    %117 = "vhlo.subtract_v1"(%114, %116) : (!vhlo.tensor_v1<1x24x7x128x!vhlo.f32_v1>, !vhlo.tensor_v1<1x24x7x128x!vhlo.f32_v1>) -> !vhlo.tensor_v1<1x24x7x128x!vhlo.f32_v1>
    %118 = "vhlo.exponential_v2"(%117) <{result_accuracy = #vhlo.result_accuracy_v1<atol = 0.000000e+00, rtol = 0.000000e+00, ulps = 0, mode = #vhlo<result_accuracy_mode_v1 DEFAULT>>}> : (!vhlo.tensor_v1<1x24x7x128x!vhlo.f32_v1>) -> !vhlo.tensor_v1<1x24x7x128x!vhlo.f32_v1>
    %119 = "vhlo.reduce_v1"(%118, %1) <{dimensions = #vhlo.tensor_v1<dense<3> : tensor<1xi64>>}> ({
    ^bb0(%arg21: !vhlo.tensor_v1<!vhlo.f32_v1>, %arg22: !vhlo.tensor_v1<!vhlo.f32_v1>):
      %189 = "vhlo.add_v1"(%arg21, %arg22) : (!vhlo.tensor_v1<!vhlo.f32_v1>, !vhlo.tensor_v1<!vhlo.f32_v1>) -> !vhlo.tensor_v1<!vhlo.f32_v1>
      "vhlo.return_v1"(%189) : (!vhlo.tensor_v1<!vhlo.f32_v1>) -> ()
    }) : (!vhlo.tensor_v1<1x24x7x128x!vhlo.f32_v1>, !vhlo.tensor_v1<!vhlo.f32_v1>) -> !vhlo.tensor_v1<1x24x7x!vhlo.f32_v1>
    %120 = "vhlo.broadcast_in_dim_v1"(%119) <{broadcast_dimensions = #vhlo.tensor_v1<dense<[0, 1, 2]> : tensor<3xi64>>}> : (!vhlo.tensor_v1<1x24x7x!vhlo.f32_v1>) -> !vhlo.tensor_v1<1x24x7x128x!vhlo.f32_v1>
    %121 = "vhlo.divide_v1"(%118, %120) : (!vhlo.tensor_v1<1x24x7x128x!vhlo.f32_v1>, !vhlo.tensor_v1<1x24x7x128x!vhlo.f32_v1>) -> !vhlo.tensor_v1<1x24x7x128x!vhlo.f32_v1>
    %122 = "vhlo.convert_v1"(%121) : (!vhlo.tensor_v1<1x24x7x128x!vhlo.f32_v1>) -> !vhlo.tensor_v1<1x24x7x128x!vhlo.bf16_v1>
    %123 = "vhlo.reshape_v1"(%122) : (!vhlo.tensor_v1<1x24x7x128x!vhlo.bf16_v1>) -> !vhlo.tensor_v1<24x7x128x!vhlo.bf16_v1>
    %124 = "vhlo.broadcast_in_dim_v1"(%72) <{broadcast_dimensions = #vhlo.tensor_v1<dense<[0, 1, 3, 4]> : tensor<4xi64>>}> : (!vhlo.tensor_v1<1x8x128x128x!vhlo.bf16_v1>) -> !vhlo.tensor_v1<1x8x3x128x128x!vhlo.bf16_v1>
    %125 = "vhlo.reshape_v1"(%124) : (!vhlo.tensor_v1<1x8x3x128x128x!vhlo.bf16_v1>) -> !vhlo.tensor_v1<24x128x128x!vhlo.bf16_v1>
    %126 = "vhlo.dot_general_v2"(%123, %125) <{accumulation_type = #vhlo.type_v1<!vhlo.none_v1>, allow_imprecise_accumulation = #vhlo.type_v1<!vhlo.none_v1>, lhs_batching_dimensions = #vhlo.tensor_v1<dense<0> : tensor<1xi64>>, lhs_component_count = #vhlo.type_v1<!vhlo.none_v1>, lhs_contracting_dimensions = #vhlo.tensor_v1<dense<2> : tensor<1xi64>>, lhs_precision_type = #vhlo.type_v1<!vhlo.none_v1>, num_primitive_operations = #vhlo.type_v1<!vhlo.none_v1>, precision_config = #vhlo.array_v1<[#vhlo<precision_v1 DEFAULT>, #vhlo<precision_v1 DEFAULT>]>, rhs_batching_dimensions = #vhlo.tensor_v1<dense<0> : tensor<1xi64>>, rhs_component_count = #vhlo.type_v1<!vhlo.none_v1>, rhs_contracting_dimensions = #vhlo.tensor_v1<dense<1> : tensor<1xi64>>, rhs_precision_type = #vhlo.type_v1<!vhlo.none_v1>}> : (!vhlo.tensor_v1<24x7x128x!vhlo.bf16_v1>, !vhlo.tensor_v1<24x128x128x!vhlo.bf16_v1>) -> !vhlo.tensor_v1<24x7x128x!vhlo.bf16_v1>
    %127 = "vhlo.reshape_v1"(%126) : (!vhlo.tensor_v1<24x7x128x!vhlo.bf16_v1>) -> !vhlo.tensor_v1<1x24x7x128x!vhlo.bf16_v1>
    %128 = "vhlo.transpose_v1"(%127) <{permutation = #vhlo.tensor_v1<dense<[0, 2, 1, 3]> : tensor<4xi64>>}> {result_layout = #vhlo.tensor_v1<dense<[3, 1, 2, 0]> : tensor<4xindex>>, xla_shape = #vhlo.string_v1<"bf16[1,7,24,128]{3,1,2,0}">} : (!vhlo.tensor_v1<1x24x7x128x!vhlo.bf16_v1>) -> !vhlo.tensor_v1<1x7x24x128x!vhlo.bf16_v1>
    %129 = "vhlo.reshape_v1"(%128) : (!vhlo.tensor_v1<1x7x24x128x!vhlo.bf16_v1>) -> !vhlo.tensor_v1<7x3072x!vhlo.bf16_v1>
    %130 = "vhlo.transpose_v1"(%arg13) <{permutation = #vhlo.tensor_v1<dense<[1, 0]> : tensor<2xi64>>}> {result_layout = #vhlo.tensor_v1<dense<[0, 1]> : tensor<2xindex>>, xla_shape = #vhlo.string_v1<"bf16[3072,3072]{0,1}">} : (!vhlo.tensor_v1<3072x3072x!vhlo.bf16_v1>) -> !vhlo.tensor_v1<3072x3072x!vhlo.bf16_v1>
    %131 = "vhlo.dot_general_v2"(%129, %130) <{accumulation_type = #vhlo.type_v1<!vhlo.none_v1>, allow_imprecise_accumulation = #vhlo.type_v1<!vhlo.none_v1>, lhs_batching_dimensions = #vhlo.tensor_v1<dense<> : tensor<0xi64>>, lhs_component_count = #vhlo.type_v1<!vhlo.none_v1>, lhs_contracting_dimensions = #vhlo.tensor_v1<dense<1> : tensor<1xi64>>, lhs_precision_type = #vhlo.type_v1<!vhlo.none_v1>, num_primitive_operations = #vhlo.type_v1<!vhlo.none_v1>, precision_config = #vhlo.array_v1<[#vhlo<precision_v1 DEFAULT>, #vhlo<precision_v1 DEFAULT>]>, rhs_batching_dimensions = #vhlo.tensor_v1<dense<> : tensor<0xi64>>, rhs_component_count = #vhlo.type_v1<!vhlo.none_v1>, rhs_contracting_dimensions = #vhlo.tensor_v1<dense<0> : tensor<1xi64>>, rhs_precision_type = #vhlo.type_v1<!vhlo.none_v1>}> : (!vhlo.tensor_v1<7x3072x!vhlo.bf16_v1>, !vhlo.tensor_v1<3072x3072x!vhlo.bf16_v1>) -> !vhlo.tensor_v1<7x3072x!vhlo.bf16_v1>
    %132 = "vhlo.reshape_v1"(%131) : (!vhlo.tensor_v1<7x3072x!vhlo.bf16_v1>) -> !vhlo.tensor_v1<1x7x3072x!vhlo.bf16_v1>
    %133 = "vhlo.add_v1"(%16, %132) : (!vhlo.tensor_v1<1x7x3072x!vhlo.bf16_v1>, !vhlo.tensor_v1<1x7x3072x!vhlo.bf16_v1>) -> !vhlo.tensor_v1<1x7x3072x!vhlo.bf16_v1>
    %134 = "vhlo.convert_v1"(%arg18) : (!vhlo.tensor_v1<3072x!vhlo.bf16_v1>) -> !vhlo.tensor_v1<3072x!vhlo.f32_v1>
    %135 = "vhlo.broadcast_in_dim_v1"(%134) <{broadcast_dimensions = #vhlo.tensor_v1<dense<2> : tensor<1xi64>>}> : (!vhlo.tensor_v1<3072x!vhlo.f32_v1>) -> !vhlo.tensor_v1<1x7x3072x!vhlo.f32_v1>
    %136 = "vhlo.convert_v1"(%133) : (!vhlo.tensor_v1<1x7x3072x!vhlo.bf16_v1>) -> !vhlo.tensor_v1<1x7x3072x!vhlo.f32_v1>
    %137 = "vhlo.power_v1"(%136, %5) : (!vhlo.tensor_v1<1x7x3072x!vhlo.f32_v1>, !vhlo.tensor_v1<1x7x3072x!vhlo.f32_v1>) -> !vhlo.tensor_v1<1x7x3072x!vhlo.f32_v1>
    %138 = "vhlo.reduce_v1"(%137, %1) <{dimensions = #vhlo.tensor_v1<dense<2> : tensor<1xi64>>}> ({
    ^bb0(%arg21: !vhlo.tensor_v1<!vhlo.f32_v1>, %arg22: !vhlo.tensor_v1<!vhlo.f32_v1>):
      %189 = "vhlo.add_v1"(%arg21, %arg22) : (!vhlo.tensor_v1<!vhlo.f32_v1>, !vhlo.tensor_v1<!vhlo.f32_v1>) -> !vhlo.tensor_v1<!vhlo.f32_v1>
      "vhlo.return_v1"(%189) : (!vhlo.tensor_v1<!vhlo.f32_v1>) -> ()
    }) : (!vhlo.tensor_v1<1x7x3072x!vhlo.f32_v1>, !vhlo.tensor_v1<!vhlo.f32_v1>) -> !vhlo.tensor_v1<1x7x!vhlo.f32_v1>
    %139 = "vhlo.multiply_v1"(%138, %3) : (!vhlo.tensor_v1<1x7x!vhlo.f32_v1>, !vhlo.tensor_v1<1x7x!vhlo.f32_v1>) -> !vhlo.tensor_v1<1x7x!vhlo.f32_v1>
    %140 = "vhlo.reshape_v1"(%139) : (!vhlo.tensor_v1<1x7x!vhlo.f32_v1>) -> !vhlo.tensor_v1<1x7x1x!vhlo.f32_v1>
    %141 = "vhlo.add_v1"(%140, %22) : (!vhlo.tensor_v1<1x7x1x!vhlo.f32_v1>, !vhlo.tensor_v1<1x7x1x!vhlo.f32_v1>) -> !vhlo.tensor_v1<1x7x1x!vhlo.f32_v1>
    %142 = "vhlo.rsqrt_v2"(%141) <{result_accuracy = #vhlo.result_accuracy_v1<atol = 0.000000e+00, rtol = 0.000000e+00, ulps = 0, mode = #vhlo<result_accuracy_mode_v1 DEFAULT>>}> : (!vhlo.tensor_v1<1x7x1x!vhlo.f32_v1>) -> !vhlo.tensor_v1<1x7x1x!vhlo.f32_v1>
    %143 = "vhlo.reshape_v1"(%142) : (!vhlo.tensor_v1<1x7x1x!vhlo.f32_v1>) -> !vhlo.tensor_v1<1x7x!vhlo.f32_v1>
    %144 = "vhlo.broadcast_in_dim_v1"(%143) <{broadcast_dimensions = #vhlo.tensor_v1<dense<[0, 1]> : tensor<2xi64>>}> : (!vhlo.tensor_v1<1x7x!vhlo.f32_v1>) -> !vhlo.tensor_v1<1x7x3072x!vhlo.f32_v1>
    %145 = "vhlo.multiply_v1"(%136, %144) : (!vhlo.tensor_v1<1x7x3072x!vhlo.f32_v1>, !vhlo.tensor_v1<1x7x3072x!vhlo.f32_v1>) -> !vhlo.tensor_v1<1x7x3072x!vhlo.f32_v1>
    %146 = "vhlo.convert_v1"(%145) : (!vhlo.tensor_v1<1x7x3072x!vhlo.f32_v1>) -> !vhlo.tensor_v1<1x7x3072x!vhlo.bf16_v1>
    %147 = "vhlo.convert_v1"(%146) : (!vhlo.tensor_v1<1x7x3072x!vhlo.bf16_v1>) -> !vhlo.tensor_v1<1x7x3072x!vhlo.f32_v1>
    %148 = "vhlo.multiply_v1"(%135, %147) : (!vhlo.tensor_v1<1x7x3072x!vhlo.f32_v1>, !vhlo.tensor_v1<1x7x3072x!vhlo.f32_v1>) -> !vhlo.tensor_v1<1x7x3072x!vhlo.f32_v1>
    %149 = "vhlo.convert_v1"(%148) : (!vhlo.tensor_v1<1x7x3072x!vhlo.f32_v1>) -> !vhlo.tensor_v1<1x7x3072x!vhlo.bf16_v1>
    %150 = "vhlo.reshape_v1"(%149) : (!vhlo.tensor_v1<1x7x3072x!vhlo.bf16_v1>) -> !vhlo.tensor_v1<7x3072x!vhlo.bf16_v1>
    %151 = "vhlo.transpose_v1"(%arg19) <{permutation = #vhlo.tensor_v1<dense<[1, 0]> : tensor<2xi64>>}> {result_layout = #vhlo.tensor_v1<dense<[0, 1]> : tensor<2xindex>>, xla_shape = #vhlo.string_v1<"bf16[3072,8192]{0,1}">} : (!vhlo.tensor_v1<8192x3072x!vhlo.bf16_v1>) -> !vhlo.tensor_v1<3072x8192x!vhlo.bf16_v1>
    %152 = "vhlo.dot_general_v2"(%150, %151) <{accumulation_type = #vhlo.type_v1<!vhlo.none_v1>, allow_imprecise_accumulation = #vhlo.type_v1<!vhlo.none_v1>, lhs_batching_dimensions = #vhlo.tensor_v1<dense<> : tensor<0xi64>>, lhs_component_count = #vhlo.type_v1<!vhlo.none_v1>, lhs_contracting_dimensions = #vhlo.tensor_v1<dense<1> : tensor<1xi64>>, lhs_precision_type = #vhlo.type_v1<!vhlo.none_v1>, num_primitive_operations = #vhlo.type_v1<!vhlo.none_v1>, precision_config = #vhlo.array_v1<[#vhlo<precision_v1 DEFAULT>, #vhlo<precision_v1 DEFAULT>]>, rhs_batching_dimensions = #vhlo.tensor_v1<dense<> : tensor<0xi64>>, rhs_component_count = #vhlo.type_v1<!vhlo.none_v1>, rhs_contracting_dimensions = #vhlo.tensor_v1<dense<0> : tensor<1xi64>>, rhs_precision_type = #vhlo.type_v1<!vhlo.none_v1>}> : (!vhlo.tensor_v1<7x3072x!vhlo.bf16_v1>, !vhlo.tensor_v1<3072x8192x!vhlo.bf16_v1>) -> !vhlo.tensor_v1<7x8192x!vhlo.bf16_v1>
    %153 = "vhlo.reshape_v1"(%152) : (!vhlo.tensor_v1<7x8192x!vhlo.bf16_v1>) -> !vhlo.tensor_v1<1x7x8192x!vhlo.bf16_v1>
    %154 = "vhlo.convert_v1"(%153) : (!vhlo.tensor_v1<1x7x8192x!vhlo.bf16_v1>) -> !vhlo.tensor_v1<1x7x8192x!vhlo.f32_v1>
    %155 = "vhlo.logistic_v2"(%153) <{result_accuracy = #vhlo.result_accuracy_v1<atol = 0.000000e+00, rtol = 0.000000e+00, ulps = 0, mode = #vhlo<result_accuracy_mode_v1 DEFAULT>>}> : (!vhlo.tensor_v1<1x7x8192x!vhlo.bf16_v1>) -> !vhlo.tensor_v1<1x7x8192x!vhlo.bf16_v1>
    %156 = "vhlo.convert_v1"(%155) : (!vhlo.tensor_v1<1x7x8192x!vhlo.bf16_v1>) -> !vhlo.tensor_v1<1x7x8192x!vhlo.f32_v1>
    %157 = "vhlo.multiply_v1"(%154, %156) : (!vhlo.tensor_v1<1x7x8192x!vhlo.f32_v1>, !vhlo.tensor_v1<1x7x8192x!vhlo.f32_v1>) -> !vhlo.tensor_v1<1x7x8192x!vhlo.f32_v1>
    %158 = "vhlo.convert_v1"(%157) : (!vhlo.tensor_v1<1x7x8192x!vhlo.f32_v1>) -> !vhlo.tensor_v1<1x7x8192x!vhlo.bf16_v1>
    %159 = "vhlo.convert_v1"(%158) : (!vhlo.tensor_v1<1x7x8192x!vhlo.bf16_v1>) -> !vhlo.tensor_v1<1x7x8192x!vhlo.f32_v1>
    %160 = "vhlo.transpose_v1"(%arg12) <{permutation = #vhlo.tensor_v1<dense<[1, 0]> : tensor<2xi64>>}> {result_layout = #vhlo.tensor_v1<dense<[0, 1]> : tensor<2xindex>>, xla_shape = #vhlo.string_v1<"bf16[3072,8192]{0,1}">} : (!vhlo.tensor_v1<8192x3072x!vhlo.bf16_v1>) -> !vhlo.tensor_v1<3072x8192x!vhlo.bf16_v1>
    %161 = "vhlo.dot_general_v2"(%150, %160) <{accumulation_type = #vhlo.type_v1<!vhlo.none_v1>, allow_imprecise_accumulation = #vhlo.type_v1<!vhlo.none_v1>, lhs_batching_dimensions = #vhlo.tensor_v1<dense<> : tensor<0xi64>>, lhs_component_count = #vhlo.type_v1<!vhlo.none_v1>, lhs_contracting_dimensions = #vhlo.tensor_v1<dense<1> : tensor<1xi64>>, lhs_precision_type = #vhlo.type_v1<!vhlo.none_v1>, num_primitive_operations = #vhlo.type_v1<!vhlo.none_v1>, precision_config = #vhlo.array_v1<[#vhlo<precision_v1 DEFAULT>, #vhlo<precision_v1 DEFAULT>]>, rhs_batching_dimensions = #vhlo.tensor_v1<dense<> : tensor<0xi64>>, rhs_component_count = #vhlo.type_v1<!vhlo.none_v1>, rhs_contracting_dimensions = #vhlo.tensor_v1<dense<0> : tensor<1xi64>>, rhs_precision_type = #vhlo.type_v1<!vhlo.none_v1>}> : (!vhlo.tensor_v1<7x3072x!vhlo.bf16_v1>, !vhlo.tensor_v1<3072x8192x!vhlo.bf16_v1>) -> !vhlo.tensor_v1<7x8192x!vhlo.bf16_v1>
    %162 = "vhlo.reshape_v1"(%161) : (!vhlo.tensor_v1<7x8192x!vhlo.bf16_v1>) -> !vhlo.tensor_v1<1x7x8192x!vhlo.bf16_v1>
    %163 = "vhlo.convert_v1"(%162) : (!vhlo.tensor_v1<1x7x8192x!vhlo.bf16_v1>) -> !vhlo.tensor_v1<1x7x8192x!vhlo.f32_v1>
    %164 = "vhlo.multiply_v1"(%159, %163) : (!vhlo.tensor_v1<1x7x8192x!vhlo.f32_v1>, !vhlo.tensor_v1<1x7x8192x!vhlo.f32_v1>) -> !vhlo.tensor_v1<1x7x8192x!vhlo.f32_v1>
    %165 = "vhlo.convert_v1"(%164) : (!vhlo.tensor_v1<1x7x8192x!vhlo.f32_v1>) -> !vhlo.tensor_v1<1x7x8192x!vhlo.bf16_v1>
    %166 = "vhlo.reshape_v1"(%165) : (!vhlo.tensor_v1<1x7x8192x!vhlo.bf16_v1>) -> !vhlo.tensor_v1<7x8192x!vhlo.bf16_v1>
    %167 = "vhlo.transpose_v1"(%arg11) <{permutation = #vhlo.tensor_v1<dense<[1, 0]> : tensor<2xi64>>}> {result_layout = #vhlo.tensor_v1<dense<[0, 1]> : tensor<2xindex>>, xla_shape = #vhlo.string_v1<"bf16[8192,3072]{0,1}">} : (!vhlo.tensor_v1<3072x8192x!vhlo.bf16_v1>) -> !vhlo.tensor_v1<8192x3072x!vhlo.bf16_v1>
    %168 = "vhlo.dot_general_v2"(%166, %167) <{accumulation_type = #vhlo.type_v1<!vhlo.none_v1>, allow_imprecise_accumulation = #vhlo.type_v1<!vhlo.none_v1>, lhs_batching_dimensions = #vhlo.tensor_v1<dense<> : tensor<0xi64>>, lhs_component_count = #vhlo.type_v1<!vhlo.none_v1>, lhs_contracting_dimensions = #vhlo.tensor_v1<dense<1> : tensor<1xi64>>, lhs_precision_type = #vhlo.type_v1<!vhlo.none_v1>, num_primitive_operations = #vhlo.type_v1<!vhlo.none_v1>, precision_config = #vhlo.array_v1<[#vhlo<precision_v1 DEFAULT>, #vhlo<precision_v1 DEFAULT>]>, rhs_batching_dimensions = #vhlo.tensor_v1<dense<> : tensor<0xi64>>, rhs_component_count = #vhlo.type_v1<!vhlo.none_v1>, rhs_contracting_dimensions = #vhlo.tensor_v1<dense<0> : tensor<1xi64>>, rhs_precision_type = #vhlo.type_v1<!vhlo.none_v1>}> : (!vhlo.tensor_v1<7x8192x!vhlo.bf16_v1>, !vhlo.tensor_v1<8192x3072x!vhlo.bf16_v1>) -> !vhlo.tensor_v1<7x3072x!vhlo.bf16_v1>
    %169 = "vhlo.reshape_v1"(%168) : (!vhlo.tensor_v1<7x3072x!vhlo.bf16_v1>) -> !vhlo.tensor_v1<1x7x3072x!vhlo.bf16_v1>
    %170 = "vhlo.add_v1"(%133, %169) : (!vhlo.tensor_v1<1x7x3072x!vhlo.bf16_v1>, !vhlo.tensor_v1<1x7x3072x!vhlo.bf16_v1>) -> !vhlo.tensor_v1<1x7x3072x!vhlo.bf16_v1>
    %171 = "vhlo.convert_v1"(%170) : (!vhlo.tensor_v1<1x7x3072x!vhlo.bf16_v1>) -> !vhlo.tensor_v1<1x7x3072x!vhlo.f32_v1>
    %172 = "vhlo.power_v1"(%171, %5) : (!vhlo.tensor_v1<1x7x3072x!vhlo.f32_v1>, !vhlo.tensor_v1<1x7x3072x!vhlo.f32_v1>) -> !vhlo.tensor_v1<1x7x3072x!vhlo.f32_v1>
    %173 = "vhlo.reduce_v1"(%172, %1) <{dimensions = #vhlo.tensor_v1<dense<2> : tensor<1xi64>>}> ({
    ^bb0(%arg21: !vhlo.tensor_v1<!vhlo.f32_v1>, %arg22: !vhlo.tensor_v1<!vhlo.f32_v1>):
      %189 = "vhlo.add_v1"(%arg21, %arg22) : (!vhlo.tensor_v1<!vhlo.f32_v1>, !vhlo.tensor_v1<!vhlo.f32_v1>) -> !vhlo.tensor_v1<!vhlo.f32_v1>
      "vhlo.return_v1"(%189) : (!vhlo.tensor_v1<!vhlo.f32_v1>) -> ()
    }) : (!vhlo.tensor_v1<1x7x3072x!vhlo.f32_v1>, !vhlo.tensor_v1<!vhlo.f32_v1>) -> !vhlo.tensor_v1<1x7x!vhlo.f32_v1>
    %174 = "vhlo.multiply_v1"(%173, %3) : (!vhlo.tensor_v1<1x7x!vhlo.f32_v1>, !vhlo.tensor_v1<1x7x!vhlo.f32_v1>) -> !vhlo.tensor_v1<1x7x!vhlo.f32_v1>
    %175 = "vhlo.reshape_v1"(%174) : (!vhlo.tensor_v1<1x7x!vhlo.f32_v1>) -> !vhlo.tensor_v1<1x7x1x!vhlo.f32_v1>
    %176 = "vhlo.add_v1"(%175, %22) : (!vhlo.tensor_v1<1x7x1x!vhlo.f32_v1>, !vhlo.tensor_v1<1x7x1x!vhlo.f32_v1>) -> !vhlo.tensor_v1<1x7x1x!vhlo.f32_v1>
    %177 = "vhlo.rsqrt_v2"(%176) <{result_accuracy = #vhlo.result_accuracy_v1<atol = 0.000000e+00, rtol = 0.000000e+00, ulps = 0, mode = #vhlo<result_accuracy_mode_v1 DEFAULT>>}> : (!vhlo.tensor_v1<1x7x1x!vhlo.f32_v1>) -> !vhlo.tensor_v1<1x7x1x!vhlo.f32_v1>
    %178 = "vhlo.reshape_v1"(%177) : (!vhlo.tensor_v1<1x7x1x!vhlo.f32_v1>) -> !vhlo.tensor_v1<1x7x!vhlo.f32_v1>
    %179 = "vhlo.broadcast_in_dim_v1"(%178) <{broadcast_dimensions = #vhlo.tensor_v1<dense<[0, 1]> : tensor<2xi64>>}> : (!vhlo.tensor_v1<1x7x!vhlo.f32_v1>) -> !vhlo.tensor_v1<1x7x3072x!vhlo.f32_v1>
    %180 = "vhlo.multiply_v1"(%171, %179) : (!vhlo.tensor_v1<1x7x3072x!vhlo.f32_v1>, !vhlo.tensor_v1<1x7x3072x!vhlo.f32_v1>) -> !vhlo.tensor_v1<1x7x3072x!vhlo.f32_v1>
    %181 = "vhlo.convert_v1"(%180) : (!vhlo.tensor_v1<1x7x3072x!vhlo.f32_v1>) -> !vhlo.tensor_v1<1x7x3072x!vhlo.bf16_v1>
    %182 = "vhlo.convert_v1"(%181) : (!vhlo.tensor_v1<1x7x3072x!vhlo.bf16_v1>) -> !vhlo.tensor_v1<1x7x3072x!vhlo.f32_v1>
    %183 = "vhlo.multiply_v1"(%75, %182) : (!vhlo.tensor_v1<1x7x3072x!vhlo.f32_v1>, !vhlo.tensor_v1<1x7x3072x!vhlo.f32_v1>) -> !vhlo.tensor_v1<1x7x3072x!vhlo.f32_v1>
    %184 = "vhlo.convert_v1"(%183) : (!vhlo.tensor_v1<1x7x3072x!vhlo.f32_v1>) -> !vhlo.tensor_v1<1x7x3072x!vhlo.bf16_v1>
    %185 = "vhlo.reshape_v1"(%184) : (!vhlo.tensor_v1<1x7x3072x!vhlo.bf16_v1>) -> !vhlo.tensor_v1<7x3072x!vhlo.bf16_v1>
    %186 = "vhlo.transpose_v1"(%arg5) <{permutation = #vhlo.tensor_v1<dense<[1, 0]> : tensor<2xi64>>}> {result_layout = #vhlo.tensor_v1<dense<[0, 1]> : tensor<2xindex>>, xla_shape = #vhlo.string_v1<"bf16[3072,128256]{0,1}">} : (!vhlo.tensor_v1<128256x3072x!vhlo.bf16_v1>) -> !vhlo.tensor_v1<3072x128256x!vhlo.bf16_v1>
    %187 = "vhlo.dot_general_v2"(%185, %186) <{accumulation_type = #vhlo.type_v1<!vhlo.none_v1>, allow_imprecise_accumulation = #vhlo.type_v1<!vhlo.none_v1>, lhs_batching_dimensions = #vhlo.tensor_v1<dense<> : tensor<0xi64>>, lhs_component_count = #vhlo.type_v1<!vhlo.none_v1>, lhs_contracting_dimensions = #vhlo.tensor_v1<dense<1> : tensor<1xi64>>, lhs_precision_type = #vhlo.type_v1<!vhlo.none_v1>, num_primitive_operations = #vhlo.type_v1<!vhlo.none_v1>, precision_config = #vhlo.array_v1<[#vhlo<precision_v1 DEFAULT>, #vhlo<precision_v1 DEFAULT>]>, rhs_batching_dimensions = #vhlo.tensor_v1<dense<> : tensor<0xi64>>, rhs_component_count = #vhlo.type_v1<!vhlo.none_v1>, rhs_contracting_dimensions = #vhlo.tensor_v1<dense<0> : tensor<1xi64>>, rhs_precision_type = #vhlo.type_v1<!vhlo.none_v1>}> : (!vhlo.tensor_v1<7x3072x!vhlo.bf16_v1>, !vhlo.tensor_v1<3072x128256x!vhlo.bf16_v1>) -> !vhlo.tensor_v1<7x128256x!vhlo.bf16_v1>
    %188 = "vhlo.reshape_v1"(%187) : (!vhlo.tensor_v1<7x128256x!vhlo.bf16_v1>) -> !vhlo.tensor_v1<1x7x128256x!vhlo.bf16_v1>
    "vhlo.return_v1"(%67, %73, %187, %188) : (!vhlo.tensor_v1<1x8x128x128x!vhlo.bf16_v1>, !vhlo.tensor_v1<1x8x128x128x!vhlo.bf16_v1>, !vhlo.tensor_v1<7x128256x!vhlo.bf16_v1>, !vhlo.tensor_v1<1x7x128256x!vhlo.bf16_v1>) -> ()
  } {arg_attrs = #vhlo.array_v1<[#vhlo.dict_v1<{#vhlo.string_v1<"mhlo.frontend_attributes"> = #vhlo.dict_v1<{#vhlo.string_v1<"xla.sdy.sharding"> = #vhlo.string_v1<"#sdy.sharding<@mesh, [{}]>">}>, #vhlo.string_v1<"mhlo.sharding"> = #vhlo.string_v1<"{replicated}">}>, #vhlo.dict_v1<{#vhlo.string_v1<"mhlo.frontend_attributes"> = #vhlo.dict_v1<{#vhlo.string_v1<"xla.sdy.sharding"> = #vhlo.string_v1<"#sdy.sharding<@mesh, [{}]>">}>, #vhlo.string_v1<"mhlo.sharding"> = #vhlo.string_v1<"{replicated}">}>, #vhlo.dict_v1<{#vhlo.string_v1<"mhlo.frontend_attributes"> = #vhlo.dict_v1<{#vhlo.string_v1<"xla.sdy.sharding"> = #vhlo.string_v1<"#sdy.sharding<@mesh, [{\22_axis_0\22}, {}]>">}>, #vhlo.string_v1<"mhlo.sharding"> = #vhlo.string_v1<"{devices=[2,1]<=[2]}">}>, #vhlo.dict_v1<{#vhlo.string_v1<"mhlo.frontend_attributes"> = #vhlo.dict_v1<{#vhlo.string_v1<"xla.sdy.sharding"> = #vhlo.string_v1<"#sdy.sharding<@mesh, []>">}>, #vhlo.string_v1<"mhlo.sharding"> = #vhlo.string_v1<"{replicated}">}>, #vhlo.dict_v1<{#vhlo.string_v1<"mhlo.frontend_attributes"> = #vhlo.dict_v1<{#vhlo.string_v1<"xla.sdy.sharding"> = #vhlo.string_v1<"#sdy.sharding<@mesh, [{}, {}]>">}>, #vhlo.string_v1<"mhlo.sharding"> = #vhlo.string_v1<"{replicated}">}>, #vhlo.dict_v1<{#vhlo.string_v1<"mhlo.frontend_attributes"> = #vhlo.dict_v1<{#vhlo.string_v1<"xla.sdy.sharding"> = #vhlo.string_v1<"#sdy.sharding<@mesh, [{\22_axis_0\22}, {}]>">}>, #vhlo.string_v1<"mhlo.sharding"> = #vhlo.string_v1<"{devices=[2,1]<=[2]}">}>, #vhlo.dict_v1<{#vhlo.string_v1<"mhlo.frontend_attributes"> = #vhlo.dict_v1<{#vhlo.string_v1<"xla.sdy.sharding"> = #vhlo.string_v1<"#sdy.sharding<@mesh, [{}]>">}>, #vhlo.string_v1<"mhlo.sharding"> = #vhlo.string_v1<"{replicated}">}>, #vhlo.dict_v1<{#vhlo.string_v1<"mhlo.frontend_attributes"> = #vhlo.dict_v1<{#vhlo.string_v1<"xla.sdy.sharding"> = #vhlo.string_v1<"#sdy.sharding<@mesh, []>">}>, #vhlo.string_v1<"mhlo.sharding"> = #vhlo.string_v1<"{replicated}">}>, #vhlo.dict_v1<{#vhlo.string_v1<"mhlo.frontend_attributes"> = #vhlo.dict_v1<{#vhlo.string_v1<"xla.sdy.sharding"> = #vhlo.string_v1<"#sdy.sharding<@mesh, [{}, {\22_axis_0\22}, {}, {}]>">}>, #vhlo.string_v1<"mhlo.sharding"> = #vhlo.string_v1<"{devices=[1,2,1,1]<=[2]}">}>, #vhlo.dict_v1<{#vhlo.string_v1<"mhlo.frontend_attributes"> = #vhlo.dict_v1<{#vhlo.string_v1<"xla.sdy.sharding"> = #vhlo.string_v1<"#sdy.sharding<@mesh, [{\22_axis_0\22}, {}]>">}>, #vhlo.string_v1<"mhlo.sharding"> = #vhlo.string_v1<"{devices=[2,1]<=[2]}">}>, #vhlo.dict_v1<{#vhlo.string_v1<"mhlo.frontend_attributes"> = #vhlo.dict_v1<{#vhlo.string_v1<"xla.sdy.sharding"> = #vhlo.string_v1<"#sdy.sharding<@mesh, [{}, {\22_axis_0\22}, {}, {}]>">}>, #vhlo.string_v1<"mhlo.sharding"> = #vhlo.string_v1<"{devices=[1,2,1,1]<=[2]}">}>, #vhlo.dict_v1<{#vhlo.string_v1<"mhlo.frontend_attributes"> = #vhlo.dict_v1<{#vhlo.string_v1<"xla.sdy.sharding"> = #vhlo.string_v1<"#sdy.sharding<@mesh, [{}, {\22_axis_0\22}]>">}>, #vhlo.string_v1<"mhlo.sharding"> = #vhlo.string_v1<"{devices=[1,2]<=[2]}">}>, #vhlo.dict_v1<{#vhlo.string_v1<"mhlo.frontend_attributes"> = #vhlo.dict_v1<{#vhlo.string_v1<"xla.sdy.sharding"> = #vhlo.string_v1<"#sdy.sharding<@mesh, [{\22_axis_0\22}, {}]>">}>, #vhlo.string_v1<"mhlo.sharding"> = #vhlo.string_v1<"{devices=[2,1]<=[2]}">}>, #vhlo.dict_v1<{#vhlo.string_v1<"mhlo.frontend_attributes"> = #vhlo.dict_v1<{#vhlo.string_v1<"xla.sdy.sharding"> = #vhlo.string_v1<"#sdy.sharding<@mesh, [{}, {\22_axis_0\22}]>">}>, #vhlo.string_v1<"mhlo.sharding"> = #vhlo.string_v1<"{devices=[1,2]<=[2]}">}>, #vhlo.dict_v1<{#vhlo.string_v1<"mhlo.frontend_attributes"> = #vhlo.dict_v1<{#vhlo.string_v1<"xla.sdy.sharding"> = #vhlo.string_v1<"#sdy.sharding<@mesh, [{}]>">}>, #vhlo.string_v1<"mhlo.sharding"> = #vhlo.string_v1<"{replicated}">}>, #vhlo.dict_v1<{#vhlo.string_v1<"mhlo.frontend_attributes"> = #vhlo.dict_v1<{#vhlo.string_v1<"xla.sdy.sharding"> = #vhlo.string_v1<"#sdy.sharding<@mesh, [{}, {}]>">}>, #vhlo.string_v1<"mhlo.sharding"> = #vhlo.string_v1<"{replicated}">}>, #vhlo.dict_v1<{#vhlo.string_v1<"mhlo.frontend_attributes"> = #vhlo.dict_v1<{#vhlo.string_v1<"xla.sdy.sharding"> = #vhlo.string_v1<"#sdy.sharding<@mesh, []>">}>, #vhlo.string_v1<"mhlo.sharding"> = #vhlo.string_v1<"{replicated}">}>, #vhlo.dict_v1<{#vhlo.string_v1<"mhlo.frontend_attributes"> = #vhlo.dict_v1<{#vhlo.string_v1<"xla.sdy.sharding"> = #vhlo.string_v1<"#sdy.sharding<@mesh, [{\22_axis_0\22}, {}]>">}>, #vhlo.string_v1<"mhlo.sharding"> = #vhlo.string_v1<"{devices=[2,1]<=[2]}">}>, #vhlo.dict_v1<{#vhlo.string_v1<"mhlo.frontend_attributes"> = #vhlo.dict_v1<{#vhlo.string_v1<"xla.sdy.sharding"> = #vhlo.string_v1<"#sdy.sharding<@mesh, [{}]>">}>, #vhlo.string_v1<"mhlo.sharding"> = #vhlo.string_v1<"{replicated}">}>, #vhlo.dict_v1<{#vhlo.string_v1<"mhlo.frontend_attributes"> = #vhlo.dict_v1<{#vhlo.string_v1<"xla.sdy.sharding"> = #vhlo.string_v1<"#sdy.sharding<@mesh, [{\22_axis_0\22}, {}]>">}>, #vhlo.string_v1<"mhlo.sharding"> = #vhlo.string_v1<"{devices=[2,1]<=[2]}">}>, #vhlo.dict_v1<{#vhlo.string_v1<"mhlo.frontend_attributes"> = #vhlo.dict_v1<{#vhlo.string_v1<"xla.sdy.sharding"> = #vhlo.string_v1<"#sdy.sharding<@mesh, [{}]>">}>, #vhlo.string_v1<"mhlo.sharding"> = #vhlo.string_v1<"{replicated}">}>]>, res_attrs = #vhlo.array_v1<[]>, sym_visibility = #vhlo.string_v1<"">}
}
2025-08-20 16:58:44.617 (   6.257s) [        5E2EB1C0]      module_builder.cc:196      1| SHLO Module:
module @SyncTensorsGraph.374 attributes {mhlo.cross_program_prefetches = [], mhlo.input_output_alias = [], mhlo.is_dynamic = false, mhlo.use_auto_spmd_partitioning = false} {
  sdy.mesh @mesh = <["_axis_0"=2]>
  func.func @main(%arg0: tensor<7xi64> {sdy.sharding = #sdy.sharding<@mesh, [{}]>}, %arg1: tensor<64xf32> {sdy.sharding = #sdy.sharding<@mesh, [{}]>}, %arg2: tensor<1024x3072xbf16> {sdy.sharding = #sdy.sharding<@mesh, [{"_axis_0"}, {}]>}, %arg3: tensor<f32> {sdy.sharding = #sdy.sharding<@mesh, []>}, %arg4: tensor<1x7xi64> {sdy.sharding = #sdy.sharding<@mesh, [{}, {}]>}, %arg5: tensor<128256x3072xbf16> {sdy.sharding = #sdy.sharding<@mesh, [{"_axis_0"}, {}]>}, %arg6: tensor<3072xbf16> {sdy.sharding = #sdy.sharding<@mesh, [{}]>}, %arg7: tensor<i64> {sdy.sharding = #sdy.sharding<@mesh, []>}, %arg8: tensor<1x8x128x128xbf16> {sdy.sharding = #sdy.sharding<@mesh, [{}, {"_axis_0"}, {}, {}]>}, %arg9: tensor<1024x3072xbf16> {sdy.sharding = #sdy.sharding<@mesh, [{"_axis_0"}, {}]>}, %arg10: tensor<1x8x128x128xbf16> {sdy.sharding = #sdy.sharding<@mesh, [{}, {"_axis_0"}, {}, {}]>}, %arg11: tensor<3072x8192xbf16> {sdy.sharding = #sdy.sharding<@mesh, [{}, {"_axis_0"}]>}, %arg12: tensor<8192x3072xbf16> {sdy.sharding = #sdy.sharding<@mesh, [{"_axis_0"}, {}]>}, %arg13: tensor<3072x3072xbf16> {sdy.sharding = #sdy.sharding<@mesh, [{}, {"_axis_0"}]>}, %arg14: tensor<128xi64> {sdy.sharding = #sdy.sharding<@mesh, [{}]>}, %arg15: tensor<7x128xbf16> {sdy.sharding = #sdy.sharding<@mesh, [{}, {}]>}, %arg16: tensor<f32> {sdy.sharding = #sdy.sharding<@mesh, []>}, %arg17: tensor<3072x3072xbf16> {sdy.sharding = #sdy.sharding<@mesh, [{"_axis_0"}, {}]>}, %arg18: tensor<3072xbf16> {sdy.sharding = #sdy.sharding<@mesh, [{}]>}, %arg19: tensor<8192x3072xbf16> {sdy.sharding = #sdy.sharding<@mesh, [{"_axis_0"}, {}]>}, %arg20: tensor<3072xbf16> {sdy.sharding = #sdy.sharding<@mesh, [{}]>}) -> (tensor<1x8x128x128xbf16>, tensor<1x8x128x128xbf16>, tensor<7x128256xbf16>, tensor<1x7x128256xbf16>) {
    %c = stablehlo.constant dense<0> : tensor<7xi64>
    %cst = stablehlo.constant dense<0.000000e+00> : tensor<f32>
    %cst_0 = stablehlo.constant dense<0xFF800000> : tensor<f32>
    %cst_1 = stablehlo.constant dense<3.25520843E-4> : tensor<1x7xf32>
    %cst_2 = stablehlo.constant dense<2.000000e+00> : tensor<f32>
    %0 = stablehlo.broadcast_in_dim %cst_2, dims = [] : (tensor<f32>) -> tensor<1x7x3072xf32>
    %1 = stablehlo.compare  LT, %arg0, %c : (tensor<7xi64>, tensor<7xi64>) -> tensor<7xi1>
    %2 = stablehlo.broadcast_in_dim %arg7, dims = [] : (tensor<i64>) -> tensor<7xi64>
    %3 = stablehlo.add %arg0, %2 : tensor<7xi64>
    %4 = stablehlo.select %1, %3, %arg0 : tensor<7xi1>, tensor<7xi64>
    %5 = stablehlo.reshape %4 : (tensor<7xi64>) -> tensor<7x1xi64>
    %6 = stablehlo.convert %arg6 : (tensor<3072xbf16>) -> tensor<3072xf32>
    %7 = stablehlo.broadcast_in_dim %6, dims = [2] : (tensor<3072xf32>) -> tensor<1x7x3072xf32>
    %8 = stablehlo.convert %arg4 : (tensor<1x7xi64>) -> tensor<1x7xui32>
    %9 = stablehlo.reshape %8 : (tensor<1x7xui32>) -> tensor<7xui32>
    %10 = "stablehlo.gather"(%arg5, %9) <{dimension_numbers = #stablehlo.gather<offset_dims = [1], collapsed_slice_dims = [0], start_index_map = [0], index_vector_dim = 1>, slice_sizes = array<i64: 1, 3072>}> : (tensor<128256x3072xbf16>, tensor<7xui32>) -> tensor<7x3072xbf16>
    %11 = stablehlo.reshape %10 : (tensor<7x3072xbf16>) -> tensor<1x7x3072xbf16>
    %12 = stablehlo.convert %11 : (tensor<1x7x3072xbf16>) -> tensor<1x7x3072xf32>
    %13 = stablehlo.power %12, %0 : tensor<1x7x3072xf32>
    %14 = stablehlo.reduce(%13 init: %cst) applies stablehlo.add across dimensions = [2] : (tensor<1x7x3072xf32>, tensor<f32>) -> tensor<1x7xf32>
    %15 = stablehlo.multiply %14, %cst_1 : tensor<1x7xf32>
    %16 = stablehlo.reshape %15 : (tensor<1x7xf32>) -> tensor<1x7x1xf32>
    %17 = stablehlo.broadcast_in_dim %arg3, dims = [] : (tensor<f32>) -> tensor<1x7x1xf32>
    %18 = stablehlo.add %16, %17 : tensor<1x7x1xf32>
    %19 = stablehlo.rsqrt %18 : tensor<1x7x1xf32>
    %20 = stablehlo.reshape %19 : (tensor<1x7x1xf32>) -> tensor<1x7xf32>
    %21 = stablehlo.broadcast_in_dim %20, dims = [0, 1] : (tensor<1x7xf32>) -> tensor<1x7x3072xf32>
    %22 = stablehlo.multiply %12, %21 : tensor<1x7x3072xf32>
    %23 = stablehlo.convert %22 : (tensor<1x7x3072xf32>) -> tensor<1x7x3072xbf16>
    %24 = stablehlo.convert %23 : (tensor<1x7x3072xbf16>) -> tensor<1x7x3072xf32>
    %25 = stablehlo.multiply %7, %24 : tensor<1x7x3072xf32>
    %26 = stablehlo.convert %25 : (tensor<1x7x3072xf32>) -> tensor<1x7x3072xbf16>
    %27 = stablehlo.reshape %26 : (tensor<1x7x3072xbf16>) -> tensor<7x3072xbf16>
    %28 = stablehlo.transpose %arg2, dims = [1, 0] {result_layout = dense<[0, 1]> : tensor<2xindex>, xla_shape = "bf16[3072,1024]{0,1}"} : (tensor<1024x3072xbf16>) -> tensor<3072x1024xbf16>
    %29 = stablehlo.dot_general %27, %28, contracting_dims = [1] x [0] : (tensor<7x3072xbf16>, tensor<3072x1024xbf16>) -> tensor<7x1024xbf16>
    %30 = stablehlo.reshape %29 : (tensor<7x1024xbf16>) -> tensor<1x7x8x128xbf16>
    %31 = stablehlo.transpose %30, dims = [0, 2, 1, 3] {result_layout = dense<[3, 1, 2, 0]> : tensor<4xindex>, xla_shape = "bf16[1,8,7,128]{3,1,2,0}"} : (tensor<1x7x8x128xbf16>) -> tensor<1x8x7x128xbf16>
    %32 = stablehlo.convert %31 {result_layout = dense<[3, 1, 2, 0]> : tensor<4xindex>, xla_shape = "f32[1,8,7,128]{3,1,2,0}"} : (tensor<1x8x7x128xbf16>) -> tensor<1x8x7x128xf32>
    %33 = stablehlo.reshape %arg1 : (tensor<64xf32>) -> tensor<1x64x1xf32>
    %34 = stablehlo.convert %arg0 : (tensor<7xi64>) -> tensor<7xf32>
    %35 = stablehlo.reshape %34 : (tensor<7xf32>) -> tensor<1x1x7xf32>
    %36 = stablehlo.dot_general %33, %35, batching_dims = [0] x [0], contracting_dims = [2] x [1] : (tensor<1x64x1xf32>, tensor<1x1x7xf32>) -> tensor<1x64x7xf32>
    %37 = stablehlo.transpose %36, dims = [0, 2, 1] {result_layout = dense<[1, 2, 0]> : tensor<3xindex>, xla_shape = "f32[1,7,64]{1,2,0}"} : (tensor<1x64x7xf32>) -> tensor<1x7x64xf32>
    %38 = stablehlo.concatenate %37, %37, dim = 2 : (tensor<1x7x64xf32>, tensor<1x7x64xf32>) -> tensor<1x7x128xf32>
    %39 = stablehlo.cosine %38 : tensor<1x7x128xf32>
    %40 = stablehlo.convert %39 : (tensor<1x7x128xf32>) -> tensor<1x7x128xbf16>
    %41 = stablehlo.convert %40 : (tensor<1x7x128xbf16>) -> tensor<1x7x128xf32>
    %42 = stablehlo.broadcast_in_dim %41, dims = [0, 2, 3] : (tensor<1x7x128xf32>) -> tensor<1x8x7x128xf32>
    %43 = stablehlo.multiply %32, %42 : tensor<1x8x7x128xf32>
    %44 = stablehlo.convert %43 : (tensor<1x8x7x128xf32>) -> tensor<1x8x7x128xbf16>
    %45 = stablehlo.slice %31 [0:1, 0:8, 0:7, 64:128] : (tensor<1x8x7x128xbf16>) -> tensor<1x8x7x64xbf16>
    %46 = stablehlo.negate %45 : tensor<1x8x7x64xbf16>
    %47 = stablehlo.slice %31 [0:1, 0:8, 0:7, 0:64] : (tensor<1x8x7x128xbf16>) -> tensor<1x8x7x64xbf16>
    %48 = stablehlo.concatenate %46, %47, dim = 3 : (tensor<1x8x7x64xbf16>, tensor<1x8x7x64xbf16>) -> tensor<1x8x7x128xbf16>
    %49 = stablehlo.convert %48 : (tensor<1x8x7x128xbf16>) -> tensor<1x8x7x128xf32>
    %50 = stablehlo.sine %38 : tensor<1x7x128xf32>
    %51 = stablehlo.convert %50 : (tensor<1x7x128xf32>) -> tensor<1x7x128xbf16>
    %52 = stablehlo.convert %51 : (tensor<1x7x128xbf16>) -> tensor<1x7x128xf32>
    %53 = stablehlo.broadcast_in_dim %52, dims = [0, 2, 3] : (tensor<1x7x128xf32>) -> tensor<1x8x7x128xf32>
    %54 = stablehlo.multiply %49, %53 : tensor<1x8x7x128xf32>
    %55 = stablehlo.convert %54 : (tensor<1x8x7x128xf32>) -> tensor<1x8x7x128xbf16>
    %56 = stablehlo.add %44, %55 : tensor<1x8x7x128xbf16>
    %57 = "stablehlo.scatter"(%arg8, %5, %56) <{scatter_dimension_numbers = #stablehlo.scatter<update_window_dims = [0, 1, 3], inserted_window_dims = [2], scatter_dims_to_operand_dims = [2], index_vector_dim = 1>}> ({
    ^bb0(%arg21: tensor<bf16>, %arg22: tensor<bf16>):
      stablehlo.return %arg22 : tensor<bf16>
    }) : (tensor<1x8x128x128xbf16>, tensor<7x1xi64>, tensor<1x8x7x128xbf16>) -> tensor<1x8x128x128xbf16>
    %58 = sdy.sharding_constraint %57 <@mesh, [{}, {"_axis_0"}, {}, {}]> : tensor<1x8x128x128xbf16>
    %59 = stablehlo.transpose %arg9, dims = [1, 0] {result_layout = dense<[0, 1]> : tensor<2xindex>, xla_shape = "bf16[3072,1024]{0,1}"} : (tensor<1024x3072xbf16>) -> tensor<3072x1024xbf16>
    %60 = stablehlo.dot_general %27, %59, contracting_dims = [1] x [0] : (tensor<7x3072xbf16>, tensor<3072x1024xbf16>) -> tensor<7x1024xbf16>
    %61 = stablehlo.reshape %60 : (tensor<7x1024xbf16>) -> tensor<1x7x8x128xbf16>
    %62 = stablehlo.transpose %61, dims = [0, 2, 1, 3] {result_layout = dense<[3, 1, 2, 0]> : tensor<4xindex>, xla_shape = "bf16[1,8,7,128]{3,1,2,0}"} : (tensor<1x7x8x128xbf16>) -> tensor<1x8x7x128xbf16>
    %63 = "stablehlo.scatter"(%arg10, %5, %62) <{scatter_dimension_numbers = #stablehlo.scatter<update_window_dims = [0, 1, 3], inserted_window_dims = [2], scatter_dims_to_operand_dims = [2], index_vector_dim = 1>}> ({
    ^bb0(%arg21: tensor<bf16>, %arg22: tensor<bf16>):
      stablehlo.return %arg22 : tensor<bf16>
    }) : (tensor<1x8x128x128xbf16>, tensor<7x1xi64>, tensor<1x8x7x128xbf16>) -> tensor<1x8x128x128xbf16>
    %64 = sdy.sharding_constraint %63 <@mesh, [{}, {"_axis_0"}, {}, {}]> : tensor<1x8x128x128xbf16>
    %65 = stablehlo.convert %arg20 : (tensor<3072xbf16>) -> tensor<3072xf32>
    %66 = stablehlo.broadcast_in_dim %65, dims = [2] : (tensor<3072xf32>) -> tensor<1x7x3072xf32>
    %67 = stablehlo.transpose %arg17, dims = [1, 0] {result_layout = dense<[0, 1]> : tensor<2xindex>, xla_shape = "bf16[3072,3072]{0,1}"} : (tensor<3072x3072xbf16>) -> tensor<3072x3072xbf16>
    %68 = stablehlo.dot_general %27, %67, contracting_dims = [1] x [0] : (tensor<7x3072xbf16>, tensor<3072x3072xbf16>) -> tensor<7x3072xbf16>
    %69 = stablehlo.reshape %68 : (tensor<7x3072xbf16>) -> tensor<1x7x24x128xbf16>
    %70 = stablehlo.transpose %69, dims = [0, 2, 1, 3] {result_layout = dense<[3, 1, 2, 0]> : tensor<4xindex>, xla_shape = "bf16[1,24,7,128]{3,1,2,0}"} : (tensor<1x7x24x128xbf16>) -> tensor<1x24x7x128xbf16>
    %71 = stablehlo.convert %70 {result_layout = dense<[3, 1, 2, 0]> : tensor<4xindex>, xla_shape = "f32[1,24,7,128]{3,1,2,0}"} : (tensor<1x24x7x128xbf16>) -> tensor<1x24x7x128xf32>
    %72 = stablehlo.broadcast_in_dim %41, dims = [0, 2, 3] : (tensor<1x7x128xf32>) -> tensor<1x24x7x128xf32>
    %73 = stablehlo.multiply %71, %72 : tensor<1x24x7x128xf32>
    %74 = stablehlo.convert %73 : (tensor<1x24x7x128xf32>) -> tensor<1x24x7x128xbf16>
    %75 = stablehlo.slice %70 [0:1, 0:24, 0:7, 64:128] : (tensor<1x24x7x128xbf16>) -> tensor<1x24x7x64xbf16>
    %76 = stablehlo.negate %75 : tensor<1x24x7x64xbf16>
    %77 = stablehlo.slice %70 [0:1, 0:24, 0:7, 0:64] : (tensor<1x24x7x128xbf16>) -> tensor<1x24x7x64xbf16>
    %78 = stablehlo.concatenate %76, %77, dim = 3 : (tensor<1x24x7x64xbf16>, tensor<1x24x7x64xbf16>) -> tensor<1x24x7x128xbf16>
    %79 = stablehlo.convert %78 : (tensor<1x24x7x128xbf16>) -> tensor<1x24x7x128xf32>
    %80 = stablehlo.broadcast_in_dim %52, dims = [0, 2, 3] : (tensor<1x7x128xf32>) -> tensor<1x24x7x128xf32>
    %81 = stablehlo.multiply %79, %80 : tensor<1x24x7x128xf32>
    %82 = stablehlo.convert %81 : (tensor<1x24x7x128xf32>) -> tensor<1x24x7x128xbf16>
    %83 = stablehlo.add %74, %82 : tensor<1x24x7x128xbf16>
    %84 = stablehlo.reshape %83 : (tensor<1x24x7x128xbf16>) -> tensor<24x7x128xbf16>
    %85 = stablehlo.broadcast_in_dim %57, dims = [0, 1, 3, 4] : (tensor<1x8x128x128xbf16>) -> tensor<1x8x3x128x128xbf16>
    %86 = stablehlo.reshape %85 : (tensor<1x8x3x128x128xbf16>) -> tensor<1x24x128x128xbf16>
    %87 = stablehlo.transpose %86, dims = [0, 1, 3, 2] {result_layout = dense<[2, 3, 1, 0]> : tensor<4xindex>, xla_shape = "bf16[1,24,128,128]{2,3,1,0}"} : (tensor<1x24x128x128xbf16>) -> tensor<1x24x128x128xbf16>
    %88 = stablehlo.reshape %87 : (tensor<1x24x128x128xbf16>) -> tensor<24x128x128xbf16>
    %89 = stablehlo.dot_general %84, %88, batching_dims = [0] x [0], contracting_dims = [2] x [1] : (tensor<24x7x128xbf16>, tensor<24x128x128xbf16>) -> tensor<24x7x128xbf16>
    %90 = stablehlo.convert %89 : (tensor<24x7x128xbf16>) -> tensor<24x7x128xf32>
    %91 = stablehlo.reshape %90 : (tensor<24x7x128xf32>) -> tensor<1x24x7x128xf32>
    %92 = stablehlo.broadcast_in_dim %arg16, dims = [] : (tensor<f32>) -> tensor<1x24x7x128xf32>
    %93 = stablehlo.multiply %91, %92 : tensor<1x24x7x128xf32>
    %94 = stablehlo.convert %93 : (tensor<1x24x7x128xf32>) -> tensor<1x24x7x128xbf16>
    %95 = stablehlo.convert %arg15 : (tensor<7x128xbf16>) -> tensor<7x128xf32>
    %96 = stablehlo.broadcast_in_dim %arg14, dims = [1] : (tensor<128xi64>) -> tensor<7x128xi64>
    %97 = stablehlo.broadcast_in_dim %arg0, dims = [0] : (tensor<7xi64>) -> tensor<7x128xi64>
    %98 = stablehlo.compare  GT, %96, %97 : (tensor<7x128xi64>, tensor<7x128xi64>) -> tensor<7x128xi1>
    %99 = stablehlo.convert %98 : (tensor<7x128xi1>) -> tensor<7x128xf32>
    %100 = stablehlo.multiply %95, %99 : tensor<7x128xf32>
    %101 = stablehlo.convert %100 : (tensor<7x128xf32>) -> tensor<7x128xbf16>
    %102 = stablehlo.reshape %101 : (tensor<7x128xbf16>) -> tensor<1x7x128xbf16>
    %103 = stablehlo.broadcast_in_dim %102, dims = [0, 2, 3] : (tensor<1x7x128xbf16>) -> tensor<1x24x7x128xbf16>
    %104 = stablehlo.add %94, %103 : tensor<1x24x7x128xbf16>
    %105 = stablehlo.convert %104 : (tensor<1x24x7x128xbf16>) -> tensor<1x24x7x128xf32>
    %106 = stablehlo.reduce(%105 init: %cst_0) applies stablehlo.maximum across dimensions = [3] : (tensor<1x24x7x128xf32>, tensor<f32>) -> tensor<1x24x7xf32>
    %107 = stablehlo.broadcast_in_dim %106, dims = [0, 1, 2] : (tensor<1x24x7xf32>) -> tensor<1x24x7x128xf32>
    %108 = stablehlo.subtract %105, %107 : tensor<1x24x7x128xf32>
    %109 = stablehlo.exponential %108 : tensor<1x24x7x128xf32>
    %110 = stablehlo.reduce(%109 init: %cst) applies stablehlo.add across dimensions = [3] : (tensor<1x24x7x128xf32>, tensor<f32>) -> tensor<1x24x7xf32>
    %111 = stablehlo.broadcast_in_dim %110, dims = [0, 1, 2] : (tensor<1x24x7xf32>) -> tensor<1x24x7x128xf32>
    %112 = stablehlo.divide %109, %111 : tensor<1x24x7x128xf32>
    %113 = stablehlo.convert %112 : (tensor<1x24x7x128xf32>) -> tensor<1x24x7x128xbf16>
    %114 = stablehlo.reshape %113 : (tensor<1x24x7x128xbf16>) -> tensor<24x7x128xbf16>
    %115 = stablehlo.broadcast_in_dim %63, dims = [0, 1, 3, 4] : (tensor<1x8x128x128xbf16>) -> tensor<1x8x3x128x128xbf16>
    %116 = stablehlo.reshape %115 : (tensor<1x8x3x128x128xbf16>) -> tensor<24x128x128xbf16>
    %117 = stablehlo.dot_general %114, %116, batching_dims = [0] x [0], contracting_dims = [2] x [1] : (tensor<24x7x128xbf16>, tensor<24x128x128xbf16>) -> tensor<24x7x128xbf16>
    %118 = stablehlo.reshape %117 : (tensor<24x7x128xbf16>) -> tensor<1x24x7x128xbf16>
    %119 = stablehlo.transpose %118, dims = [0, 2, 1, 3] {result_layout = dense<[3, 1, 2, 0]> : tensor<4xindex>, xla_shape = "bf16[1,7,24,128]{3,1,2,0}"} : (tensor<1x24x7x128xbf16>) -> tensor<1x7x24x128xbf16>
    %120 = stablehlo.reshape %119 : (tensor<1x7x24x128xbf16>) -> tensor<7x3072xbf16>
    %121 = stablehlo.transpose %arg13, dims = [1, 0] {result_layout = dense<[0, 1]> : tensor<2xindex>, xla_shape = "bf16[3072,3072]{0,1}"} : (tensor<3072x3072xbf16>) -> tensor<3072x3072xbf16>
    %122 = stablehlo.dot_general %120, %121, contracting_dims = [1] x [0] : (tensor<7x3072xbf16>, tensor<3072x3072xbf16>) -> tensor<7x3072xbf16>
    %123 = stablehlo.reshape %122 : (tensor<7x3072xbf16>) -> tensor<1x7x3072xbf16>
    %124 = stablehlo.add %11, %123 : tensor<1x7x3072xbf16>
    %125 = stablehlo.convert %arg18 : (tensor<3072xbf16>) -> tensor<3072xf32>
    %126 = stablehlo.broadcast_in_dim %125, dims = [2] : (tensor<3072xf32>) -> tensor<1x7x3072xf32>
    %127 = stablehlo.convert %124 : (tensor<1x7x3072xbf16>) -> tensor<1x7x3072xf32>
    %128 = stablehlo.power %127, %0 : tensor<1x7x3072xf32>
    %129 = stablehlo.reduce(%128 init: %cst) applies stablehlo.add across dimensions = [2] : (tensor<1x7x3072xf32>, tensor<f32>) -> tensor<1x7xf32>
    %130 = stablehlo.multiply %129, %cst_1 : tensor<1x7xf32>
    %131 = stablehlo.reshape %130 : (tensor<1x7xf32>) -> tensor<1x7x1xf32>
    %132 = stablehlo.add %131, %17 : tensor<1x7x1xf32>
    %133 = stablehlo.rsqrt %132 : tensor<1x7x1xf32>
    %134 = stablehlo.reshape %133 : (tensor<1x7x1xf32>) -> tensor<1x7xf32>
    %135 = stablehlo.broadcast_in_dim %134, dims = [0, 1] : (tensor<1x7xf32>) -> tensor<1x7x3072xf32>
    %136 = stablehlo.multiply %127, %135 : tensor<1x7x3072xf32>
    %137 = stablehlo.convert %136 : (tensor<1x7x3072xf32>) -> tensor<1x7x3072xbf16>
    %138 = stablehlo.convert %137 : (tensor<1x7x3072xbf16>) -> tensor<1x7x3072xf32>
    %139 = stablehlo.multiply %126, %138 : tensor<1x7x3072xf32>
    %140 = stablehlo.convert %139 : (tensor<1x7x3072xf32>) -> tensor<1x7x3072xbf16>
    %141 = stablehlo.reshape %140 : (tensor<1x7x3072xbf16>) -> tensor<7x3072xbf16>
    %142 = stablehlo.transpose %arg19, dims = [1, 0] {result_layout = dense<[0, 1]> : tensor<2xindex>, xla_shape = "bf16[3072,8192]{0,1}"} : (tensor<8192x3072xbf16>) -> tensor<3072x8192xbf16>
    %143 = stablehlo.dot_general %141, %142, contracting_dims = [1] x [0] : (tensor<7x3072xbf16>, tensor<3072x8192xbf16>) -> tensor<7x8192xbf16>
    %144 = stablehlo.reshape %143 : (tensor<7x8192xbf16>) -> tensor<1x7x8192xbf16>
    %145 = stablehlo.convert %144 : (tensor<1x7x8192xbf16>) -> tensor<1x7x8192xf32>
    %146 = stablehlo.logistic %144 : tensor<1x7x8192xbf16>
    %147 = stablehlo.convert %146 : (tensor<1x7x8192xbf16>) -> tensor<1x7x8192xf32>
    %148 = stablehlo.multiply %145, %147 : tensor<1x7x8192xf32>
    %149 = stablehlo.convert %148 : (tensor<1x7x8192xf32>) -> tensor<1x7x8192xbf16>
    %150 = stablehlo.convert %149 : (tensor<1x7x8192xbf16>) -> tensor<1x7x8192xf32>
    %151 = stablehlo.transpose %arg12, dims = [1, 0] {result_layout = dense<[0, 1]> : tensor<2xindex>, xla_shape = "bf16[3072,8192]{0,1}"} : (tensor<8192x3072xbf16>) -> tensor<3072x8192xbf16>
    %152 = stablehlo.dot_general %141, %151, contracting_dims = [1] x [0] : (tensor<7x3072xbf16>, tensor<3072x8192xbf16>) -> tensor<7x8192xbf16>
    %153 = stablehlo.convert %152 : (tensor<7x8192xbf16>) -> tensor<7x8192xf32>
    %154 = stablehlo.reshape %153 : (tensor<7x8192xf32>) -> tensor<1x7x8192xf32>
    %155 = stablehlo.multiply %150, %154 : tensor<1x7x8192xf32>
    %156 = stablehlo.convert %155 : (tensor<1x7x8192xf32>) -> tensor<1x7x8192xbf16>
    %157 = stablehlo.reshape %156 : (tensor<1x7x8192xbf16>) -> tensor<7x8192xbf16>
    %158 = stablehlo.transpose %arg11, dims = [1, 0] {result_layout = dense<[0, 1]> : tensor<2xindex>, xla_shape = "bf16[8192,3072]{0,1}"} : (tensor<3072x8192xbf16>) -> tensor<8192x3072xbf16>
    %159 = stablehlo.dot_general %157, %158, contracting_dims = [1] x [0] : (tensor<7x8192xbf16>, tensor<8192x3072xbf16>) -> tensor<7x3072xbf16>
    %160 = stablehlo.reshape %159 : (tensor<7x3072xbf16>) -> tensor<1x7x3072xbf16>
    %161 = stablehlo.add %124, %160 : tensor<1x7x3072xbf16>
    %162 = stablehlo.convert %161 : (tensor<1x7x3072xbf16>) -> tensor<1x7x3072xf32>
    %163 = stablehlo.power %162, %0 : tensor<1x7x3072xf32>
    %164 = stablehlo.reduce(%163 init: %cst) applies stablehlo.add across dimensions = [2] : (tensor<1x7x3072xf32>, tensor<f32>) -> tensor<1x7xf32>
    %165 = stablehlo.multiply %164, %cst_1 : tensor<1x7xf32>
    %166 = stablehlo.reshape %165 : (tensor<1x7xf32>) -> tensor<1x7x1xf32>
    %167 = stablehlo.add %166, %17 : tensor<1x7x1xf32>
    %168 = stablehlo.rsqrt %167 : tensor<1x7x1xf32>
    %169 = stablehlo.reshape %168 : (tensor<1x7x1xf32>) -> tensor<1x7xf32>
    %170 = stablehlo.broadcast_in_dim %169, dims = [0, 1] : (tensor<1x7xf32>) -> tensor<1x7x3072xf32>
    %171 = stablehlo.multiply %162, %170 : tensor<1x7x3072xf32>
    %172 = stablehlo.convert %171 : (tensor<1x7x3072xf32>) -> tensor<1x7x3072xbf16>
    %173 = stablehlo.convert %172 : (tensor<1x7x3072xbf16>) -> tensor<1x7x3072xf32>
    %174 = stablehlo.multiply %66, %173 : tensor<1x7x3072xf32>
    %175 = stablehlo.convert %174 : (tensor<1x7x3072xf32>) -> tensor<1x7x3072xbf16>
    %176 = stablehlo.reshape %175 : (tensor<1x7x3072xbf16>) -> tensor<7x3072xbf16>
    %177 = stablehlo.transpose %arg5, dims = [1, 0] {result_layout = dense<[0, 1]> : tensor<2xindex>, xla_shape = "bf16[3072,128256]{0,1}"} : (tensor<128256x3072xbf16>) -> tensor<3072x128256xbf16>
    %178 = stablehlo.dot_general %176, %177, contracting_dims = [1] x [0] : (tensor<7x3072xbf16>, tensor<3072x128256xbf16>) -> tensor<7x128256xbf16>
    %179 = stablehlo.reshape %178 : (tensor<7x128256xbf16>) -> tensor<1x7x128256xbf16>
    return %58, %64, %178, %179 : tensor<1x8x128x128xbf16>, tensor<1x8x128x128xbf16>, tensor<7x128256xbf16>, tensor<1x7x128256xbf16>
  }
}
2025-08-20 16:58:44.727 (   6.367s) [        5E2EB1C0]      module_builder.cc:220      1| SHLO StableHLO Pipeline Module:
module @SyncTensorsGraph.374 attributes {mhlo.cross_program_prefetches = [], mhlo.input_output_alias = [], mhlo.is_dynamic = false, mhlo.use_auto_spmd_partitioning = false} {
  sdy.mesh @mesh = <["_axis_0_updated"=1, "_axis_0"=2]>
  func.func @main(%arg0: tensor<7xi64> {ttcore.shard_status = #ttcore.shard_status<presharded>}, %arg1: tensor<64xf32> {ttcore.shard_status = #ttcore.shard_status<presharded>}, %arg2: tensor<1024x3072xbf16> {ttcore.shard_status = #ttcore.shard_status<presharded>}, %arg3: tensor<f32> {ttcore.shard_status = #ttcore.shard_status<presharded>}, %arg4: tensor<1x7xi64> {ttcore.shard_status = #ttcore.shard_status<presharded>}, %arg5: tensor<128256x3072xbf16> {ttcore.shard_status = #ttcore.shard_status<presharded>}, %arg6: tensor<3072xbf16> {ttcore.shard_status = #ttcore.shard_status<presharded>}, %arg7: tensor<i64> {ttcore.shard_status = #ttcore.shard_status<presharded>}, %arg8: tensor<1x8x128x128xbf16> {ttcore.shard_status = #ttcore.shard_status<presharded>}, %arg9: tensor<1024x3072xbf16> {ttcore.shard_status = #ttcore.shard_status<presharded>}, %arg10: tensor<1x8x128x128xbf16> {ttcore.shard_status = #ttcore.shard_status<presharded>}, %arg11: tensor<3072x8192xbf16> {ttcore.shard_status = #ttcore.shard_status<presharded>}, %arg12: tensor<8192x3072xbf16> {ttcore.shard_status = #ttcore.shard_status<presharded>}, %arg13: tensor<3072x3072xbf16> {ttcore.shard_status = #ttcore.shard_status<presharded>}, %arg14: tensor<128xi64> {ttcore.shard_status = #ttcore.shard_status<presharded>}, %arg15: tensor<7x128xbf16> {ttcore.shard_status = #ttcore.shard_status<presharded>}, %arg16: tensor<f32> {ttcore.shard_status = #ttcore.shard_status<presharded>}, %arg17: tensor<3072x3072xbf16> {ttcore.shard_status = #ttcore.shard_status<presharded>}, %arg18: tensor<3072xbf16> {ttcore.shard_status = #ttcore.shard_status<presharded>}, %arg19: tensor<8192x3072xbf16> {ttcore.shard_status = #ttcore.shard_status<presharded>}, %arg20: tensor<3072xbf16> {ttcore.shard_status = #ttcore.shard_status<presharded>}) -> (tensor<1x8x128x128xbf16> {ttcore.shard_status = #ttcore.shard_status<unsharded>}, tensor<1x8x128x128xbf16> {ttcore.shard_status = #ttcore.shard_status<unsharded>}, tensor<7x128256xbf16> {ttcore.shard_status = #ttcore.shard_status<unsharded>}, tensor<1x7x128256xbf16> {ttcore.shard_status = #ttcore.shard_status<unsharded>}) {
    %0:4 = sdy.manual_computation(%arg0, %arg1, %arg2, %arg3, %arg4, %arg5, %arg6, %arg7, %arg8, %arg9, %arg10, %arg11, %arg12, %arg13, %arg14, %arg15, %arg16, %arg17, %arg18, %arg19, %arg20) in_shardings=[<@mesh, [{}]>, <@mesh, [{}]>, <@mesh, [{"_axis_0"}, {}]>, <@mesh, []>, <@mesh, [{}, {}]>, <@mesh, [{"_axis_0"}, {}]>, <@mesh, [{}]>, <@mesh, []>, <@mesh, [{}, {"_axis_0"}, {}, {}]>, <@mesh, [{"_axis_0"}, {}]>, <@mesh, [{}, {"_axis_0"}, {}, {}]>, <@mesh, [{}, {"_axis_0"}]>, <@mesh, [{"_axis_0"}, {}]>, <@mesh, [{}, {"_axis_0"}]>, <@mesh, [{}]>, <@mesh, [{}, {}]>, <@mesh, []>, <@mesh, [{"_axis_0"}, {}]>, <@mesh, [{}]>, <@mesh, [{"_axis_0"}, {}]>, <@mesh, [{}]>] out_shardings=[<@mesh, [{}, {"_axis_0"}, {}, {}]>, <@mesh, [{}, {"_axis_0"}, {}, {}]>, <@mesh, [{}, {"_axis_0"}]>, <@mesh, [{}, {}, {"_axis_0"}]>] manual_axes={"_axis_0_updated", "_axis_0"} (%arg21: tensor<7xi64>, %arg22: tensor<64xf32>, %arg23: tensor<512x3072xbf16>, %arg24: tensor<f32>, %arg25: tensor<1x7xi64>, %arg26: tensor<64128x3072xbf16>, %arg27: tensor<3072xbf16>, %arg28: tensor<i64>, %arg29: tensor<1x4x128x128xbf16>, %arg30: tensor<512x3072xbf16>, %arg31: tensor<1x4x128x128xbf16>, %arg32: tensor<3072x4096xbf16>, %arg33: tensor<4096x3072xbf16>, %arg34: tensor<3072x1536xbf16>, %arg35: tensor<128xi64>, %arg36: tensor<7x128xbf16>, %arg37: tensor<f32>, %arg38: tensor<1536x3072xbf16>, %arg39: tensor<3072xbf16>, %arg40: tensor<4096x3072xbf16>, %arg41: tensor<3072xbf16>) {
      %c = stablehlo.constant dense<0> : tensor<7xi64>
      %cst = stablehlo.constant dense<0.000000e+00> : tensor<f32>
      %cst_0 = stablehlo.constant dense<0xFF800000> : tensor<f32>
      %cst_1 = stablehlo.constant dense<3.25520843E-4> : tensor<1x7xf32>
      %cst_2 = stablehlo.constant dense<2.000000e+00> : tensor<f32>
      %1 = stablehlo.broadcast_in_dim %cst_2, dims = [] : (tensor<f32>) -> tensor<1x7x3072xf32>
      %2 = stablehlo.compare  LT, %arg21, %c : (tensor<7xi64>, tensor<7xi64>) -> tensor<7xi1>
      %3 = stablehlo.broadcast_in_dim %arg28, dims = [] : (tensor<i64>) -> tensor<7xi64>
      %4 = stablehlo.add %arg21, %3 : tensor<7xi64>
      %5 = stablehlo.select %2, %4, %arg21 : tensor<7xi1>, tensor<7xi64>
      %6 = stablehlo.reshape %5 : (tensor<7xi64>) -> tensor<7x1xi64>
      %7 = stablehlo.convert %arg27 : (tensor<3072xbf16>) -> tensor<3072xf32>
      %8 = stablehlo.broadcast_in_dim %7, dims = [2] : (tensor<3072xf32>) -> tensor<1x7x3072xf32>
      %9 = stablehlo.convert %arg25 : (tensor<1x7xi64>) -> tensor<1x7xui32>
      %10 = stablehlo.reshape %9 : (tensor<1x7xui32>) -> tensor<7xui32>
      %11 = "stablehlo.gather"(%arg26, %10) <{dimension_numbers = #stablehlo.gather<offset_dims = [1], collapsed_slice_dims = [0], start_index_map = [0], index_vector_dim = 1>, slice_sizes = array<i64: 1, 3072>}> : (tensor<64128x3072xbf16>, tensor<7xui32>) -> tensor<7x3072xbf16>
      %12 = "stablehlo.all_reduce"(%11) <{channel_handle = #stablehlo.channel_handle<handle = 1, type = 1>, replica_groups = dense<[[0, 1]]> : tensor<1x2xi64>}> ({
      ^bb0(%arg42: tensor<bf16>, %arg43: tensor<bf16>):
        %182 = stablehlo.add %arg42, %arg43 : tensor<bf16>
        stablehlo.return %182 : tensor<bf16>
      }) : (tensor<7x3072xbf16>) -> tensor<7x3072xbf16>
      %13 = stablehlo.reshape %12 : (tensor<7x3072xbf16>) -> tensor<1x7x3072xbf16>
      %14 = stablehlo.convert %13 : (tensor<1x7x3072xbf16>) -> tensor<1x7x3072xf32>
      %15 = stablehlo.power %14, %1 : tensor<1x7x3072xf32>
      %16 = stablehlo.reduce(%15 init: %cst) applies stablehlo.add across dimensions = [2] : (tensor<1x7x3072xf32>, tensor<f32>) -> tensor<1x7xf32>
      %17 = stablehlo.multiply %16, %cst_1 : tensor<1x7xf32>
      %18 = stablehlo.reshape %17 : (tensor<1x7xf32>) -> tensor<1x7x1xf32>
      %19 = stablehlo.broadcast_in_dim %arg24, dims = [] : (tensor<f32>) -> tensor<1x7x1xf32>
      %20 = stablehlo.add %18, %19 : tensor<1x7x1xf32>
      %21 = stablehlo.rsqrt %20 : tensor<1x7x1xf32>
      %22 = stablehlo.reshape %21 : (tensor<1x7x1xf32>) -> tensor<1x7xf32>
      %23 = stablehlo.broadcast_in_dim %22, dims = [0, 1] : (tensor<1x7xf32>) -> tensor<1x7x3072xf32>
      %24 = stablehlo.multiply %14, %23 : tensor<1x7x3072xf32>
…
    }) : (!vhlo.tensor_v1<1x24x1x128x!vhlo.f32_v1>, !vhlo.tensor_v1<!vhlo.f32_v1>) -> !vhlo.tensor_v1<1x24x1x!vhlo.f32_v1>
    %113 = "vhlo.broadcast_in_dim_v1"(%112) <{broadcast_dimensions = #vhlo.tensor_v1<dense<[0, 1, 2]> : tensor<3xi64>>}> : (!vhlo.tensor_v1<1x24x1x!vhlo.f32_v1>) -> !vhlo.tensor_v1<1x24x1x128x!vhlo.f32_v1>
    %114 = "vhlo.subtract_v1"(%111, %113) : (!vhlo.tensor_v1<1x24x1x128x!vhlo.f32_v1>, !vhlo.tensor_v1<1x24x1x128x!vhlo.f32_v1>) -> !vhlo.tensor_v1<1x24x1x128x!vhlo.f32_v1>
    %115 = "vhlo.exponential_v2"(%114) <{result_accuracy = #vhlo.result_accuracy_v1<atol = 0.000000e+00, rtol = 0.000000e+00, ulps = 0, mode = #vhlo<result_accuracy_mode_v1 DEFAULT>>}> : (!vhlo.tensor_v1<1x24x1x128x!vhlo.f32_v1>) -> !vhlo.tensor_v1<1x24x1x128x!vhlo.f32_v1>
    %116 = "vhlo.reduce_v1"(%115, %1) <{dimensions = #vhlo.tensor_v1<dense<3> : tensor<1xi64>>}> ({
    ^bb0(%arg21: !vhlo.tensor_v1<!vhlo.f32_v1>, %arg22: !vhlo.tensor_v1<!vhlo.f32_v1>):
      %184 = "vhlo.add_v1"(%arg21, %arg22) : (!vhlo.tensor_v1<!vhlo.f32_v1>, !vhlo.tensor_v1<!vhlo.f32_v1>) -> !vhlo.tensor_v1<!vhlo.f32_v1>
      "vhlo.return_v1"(%184) : (!vhlo.tensor_v1<!vhlo.f32_v1>) -> ()
    }) : (!vhlo.tensor_v1<1x24x1x128x!vhlo.f32_v1>, !vhlo.tensor_v1<!vhlo.f32_v1>) -> !vhlo.tensor_v1<1x24x1x!vhlo.f32_v1>
    %117 = "vhlo.broadcast_in_dim_v1"(%116) <{broadcast_dimensions = #vhlo.tensor_v1<dense<[0, 1, 2]> : tensor<3xi64>>}> : (!vhlo.tensor_v1<1x24x1x!vhlo.f32_v1>) -> !vhlo.tensor_v1<1x24x1x128x!vhlo.f32_v1>
    %118 = "vhlo.divide_v1"(%115, %117) : (!vhlo.tensor_v1<1x24x1x128x!vhlo.f32_v1>, !vhlo.tensor_v1<1x24x1x128x!vhlo.f32_v1>) -> !vhlo.tensor_v1<1x24x1x128x!vhlo.f32_v1>
    %119 = "vhlo.convert_v1"(%118) : (!vhlo.tensor_v1<1x24x1x128x!vhlo.f32_v1>) -> !vhlo.tensor_v1<1x24x1x128x!vhlo.bf16_v1>
    %120 = "vhlo.reshape_v1"(%119) : (!vhlo.tensor_v1<1x24x1x128x!vhlo.bf16_v1>) -> !vhlo.tensor_v1<24x1x128x!vhlo.bf16_v1>
    %121 = "vhlo.broadcast_in_dim_v1"(%70) <{broadcast_dimensions = #vhlo.tensor_v1<dense<[0, 1, 3, 4]> : tensor<4xi64>>}> : (!vhlo.tensor_v1<1x8x128x128x!vhlo.bf16_v1>) -> !vhlo.tensor_v1<1x8x3x128x128x!vhlo.bf16_v1>
    %122 = "vhlo.reshape_v1"(%121) : (!vhlo.tensor_v1<1x8x3x128x128x!vhlo.bf16_v1>) -> !vhlo.tensor_v1<24x128x128x!vhlo.bf16_v1>
    %123 = "vhlo.dot_general_v2"(%120, %122) <{accumulation_type = #vhlo.type_v1<!vhlo.none_v1>, allow_imprecise_accumulation = #vhlo.type_v1<!vhlo.none_v1>, lhs_batching_dimensions = #vhlo.tensor_v1<dense<0> : tensor<1xi64>>, lhs_component_count = #vhlo.type_v1<!vhlo.none_v1>, lhs_contracting_dimensions = #vhlo.tensor_v1<dense<2> : tensor<1xi64>>, lhs_precision_type = #vhlo.type_v1<!vhlo.none_v1>, num_primitive_operations = #vhlo.type_v1<!vhlo.none_v1>, precision_config = #vhlo.array_v1<[#vhlo<precision_v1 DEFAULT>, #vhlo<precision_v1 DEFAULT>]>, rhs_batching_dimensions = #vhlo.tensor_v1<dense<0> : tensor<1xi64>>, rhs_component_count = #vhlo.type_v1<!vhlo.none_v1>, rhs_contracting_dimensions = #vhlo.tensor_v1<dense<1> : tensor<1xi64>>, rhs_precision_type = #vhlo.type_v1<!vhlo.none_v1>}> : (!vhlo.tensor_v1<24x1x128x!vhlo.bf16_v1>, !vhlo.tensor_v1<24x128x128x!vhlo.bf16_v1>) -> !vhlo.tensor_v1<24x1x128x!vhlo.bf16_v1>
    %124 = "vhlo.reshape_v1"(%123) : (!vhlo.tensor_v1<24x1x128x!vhlo.bf16_v1>) -> !vhlo.tensor_v1<1x3072x!vhlo.bf16_v1>
    %125 = "vhlo.transpose_v1"(%arg13) <{permutation = #vhlo.tensor_v1<dense<[1, 0]> : tensor<2xi64>>}> {result_layout = #vhlo.tensor_v1<dense<[0, 1]> : tensor<2xindex>>, xla_shape = #vhlo.string_v1<"bf16[3072,3072]{0,1}">} : (!vhlo.tensor_v1<3072x3072x!vhlo.bf16_v1>) -> !vhlo.tensor_v1<3072x3072x!vhlo.bf16_v1>
    %126 = "vhlo.dot_general_v2"(%124, %125) <{accumulation_type = #vhlo.type_v1<!vhlo.none_v1>, allow_imprecise_accumulation = #vhlo.type_v1<!vhlo.none_v1>, lhs_batching_dimensions = #vhlo.tensor_v1<dense<> : tensor<0xi64>>, lhs_component_count = #vhlo.type_v1<!vhlo.none_v1>, lhs_contracting_dimensions = #vhlo.tensor_v1<dense<1> : tensor<1xi64>>, lhs_precision_type = #vhlo.type_v1<!vhlo.none_v1>, num_primitive_operations = #vhlo.type_v1<!vhlo.none_v1>, precision_config = #vhlo.array_v1<[#vhlo<precision_v1 DEFAULT>, #vhlo<precision_v1 DEFAULT>]>, rhs_batching_dimensions = #vhlo.tensor_v1<dense<> : tensor<0xi64>>, rhs_component_count = #vhlo.type_v1<!vhlo.none_v1>, rhs_contracting_dimensions = #vhlo.tensor_v1<dense<0> : tensor<1xi64>>, rhs_precision_type = #vhlo.type_v1<!vhlo.none_v1>}> : (!vhlo.tensor_v1<1x3072x!vhlo.bf16_v1>, !vhlo.tensor_v1<3072x3072x!vhlo.bf16_v1>) -> !vhlo.tensor_v1<1x3072x!vhlo.bf16_v1>
    %127 = "vhlo.reshape_v1"(%126) : (!vhlo.tensor_v1<1x3072x!vhlo.bf16_v1>) -> !vhlo.tensor_v1<1x1x3072x!vhlo.bf16_v1>
    %128 = "vhlo.add_v1"(%16, %127) : (!vhlo.tensor_v1<1x1x3072x!vhlo.bf16_v1>, !vhlo.tensor_v1<1x1x3072x!vhlo.bf16_v1>) -> !vhlo.tensor_v1<1x1x3072x!vhlo.bf16_v1>
    %129 = "vhlo.convert_v1"(%arg18) {mhlo.frontend_attributes = #vhlo.dict_v1<{#vhlo.string_v1<"xla.sdy.sharding"> = #vhlo.string_v1<"#sdy.sharding_per_value<[<@mesh, [{}]>]>">}>, mhlo.sharding = #vhlo.string_v1<"{replicated}">} : (!vhlo.tensor_v1<3072x!vhlo.bf16_v1>) -> !vhlo.tensor_v1<3072x!vhlo.f32_v1>
    %130 = "vhlo.reshape_v1"(%129) : (!vhlo.tensor_v1<3072x!vhlo.f32_v1>) -> !vhlo.tensor_v1<1x1x3072x!vhlo.f32_v1>
    %131 = "vhlo.convert_v1"(%128) : (!vhlo.tensor_v1<1x1x3072x!vhlo.bf16_v1>) -> !vhlo.tensor_v1<1x1x3072x!vhlo.f32_v1>
    %132 = "vhlo.power_v1"(%131, %5) : (!vhlo.tensor_v1<1x1x3072x!vhlo.f32_v1>, !vhlo.tensor_v1<1x1x3072x!vhlo.f32_v1>) -> !vhlo.tensor_v1<1x1x3072x!vhlo.f32_v1>
    %133 = "vhlo.reduce_v1"(%132, %1) <{dimensions = #vhlo.tensor_v1<dense<2> : tensor<1xi64>>}> ({
    ^bb0(%arg21: !vhlo.tensor_v1<!vhlo.f32_v1>, %arg22: !vhlo.tensor_v1<!vhlo.f32_v1>):
      %184 = "vhlo.add_v1"(%arg21, %arg22) : (!vhlo.tensor_v1<!vhlo.f32_v1>, !vhlo.tensor_v1<!vhlo.f32_v1>) -> !vhlo.tensor_v1<!vhlo.f32_v1>
      "vhlo.return_v1"(%184) : (!vhlo.tensor_v1<!vhlo.f32_v1>) -> ()
    }) : (!vhlo.tensor_v1<1x1x3072x!vhlo.f32_v1>, !vhlo.tensor_v1<!vhlo.f32_v1>) -> !vhlo.tensor_v1<1x1x!vhlo.f32_v1>
    %134 = "vhlo.multiply_v1"(%133, %3) : (!vhlo.tensor_v1<1x1x!vhlo.f32_v1>, !vhlo.tensor_v1<1x1x!vhlo.f32_v1>) -> !vhlo.tensor_v1<1x1x!vhlo.f32_v1>
    %135 = "vhlo.reshape_v1"(%134) : (!vhlo.tensor_v1<1x1x!vhlo.f32_v1>) -> !vhlo.tensor_v1<1x1x1x!vhlo.f32_v1>
    %136 = "vhlo.add_v1"(%135, %22) : (!vhlo.tensor_v1<1x1x1x!vhlo.f32_v1>, !vhlo.tensor_v1<1x1x1x!vhlo.f32_v1>) -> !vhlo.tensor_v1<1x1x1x!vhlo.f32_v1>
    %137 = "vhlo.rsqrt_v2"(%136) <{result_accuracy = #vhlo.result_accuracy_v1<atol = 0.000000e+00, rtol = 0.000000e+00, ulps = 0, mode = #vhlo<result_accuracy_mode_v1 DEFAULT>>}> : (!vhlo.tensor_v1<1x1x1x!vhlo.f32_v1>) -> !vhlo.tensor_v1<1x1x1x!vhlo.f32_v1>
    %138 = "vhlo.reshape_v1"(%137) : (!vhlo.tensor_v1<1x1x1x!vhlo.f32_v1>) -> !vhlo.tensor_v1<1x1x!vhlo.f32_v1>
    %139 = "vhlo.broadcast_in_dim_v1"(%138) <{broadcast_dimensions = #vhlo.tensor_v1<dense<[0, 1]> : tensor<2xi64>>}> : (!vhlo.tensor_v1<1x1x!vhlo.f32_v1>) -> !vhlo.tensor_v1<1x1x3072x!vhlo.f32_v1>
    %140 = "vhlo.multiply_v1"(%131, %139) : (!vhlo.tensor_v1<1x1x3072x!vhlo.f32_v1>, !vhlo.tensor_v1<1x1x3072x!vhlo.f32_v1>) -> !vhlo.tensor_v1<1x1x3072x!vhlo.f32_v1>
    %141 = "vhlo.convert_v1"(%140) : (!vhlo.tensor_v1<1x1x3072x!vhlo.f32_v1>) -> !vhlo.tensor_v1<1x1x3072x!vhlo.bf16_v1>
    %142 = "vhlo.convert_v1"(%141) : (!vhlo.tensor_v1<1x1x3072x!vhlo.bf16_v1>) -> !vhlo.tensor_v1<1x1x3072x!vhlo.f32_v1>
    %143 = "vhlo.multiply_v1"(%130, %142) : (!vhlo.tensor_v1<1x1x3072x!vhlo.f32_v1>, !vhlo.tensor_v1<1x1x3072x!vhlo.f32_v1>) -> !vhlo.tensor_v1<1x1x3072x!vhlo.f32_v1>
    %144 = "vhlo.convert_v1"(%143) : (!vhlo.tensor_v1<1x1x3072x!vhlo.f32_v1>) -> !vhlo.tensor_v1<1x1x3072x!vhlo.bf16_v1>
    %145 = "vhlo.reshape_v1"(%144) : (!vhlo.tensor_v1<1x1x3072x!vhlo.bf16_v1>) -> !vhlo.tensor_v1<1x3072x!vhlo.bf16_v1>
    %146 = "vhlo.transpose_v1"(%arg19) <{permutation = #vhlo.tensor_v1<dense<[1, 0]> : tensor<2xi64>>}> {result_layout = #vhlo.tensor_v1<dense<[0, 1]> : tensor<2xindex>>, xla_shape = #vhlo.string_v1<"bf16[3072,8192]{0,1}">} : (!vhlo.tensor_v1<8192x3072x!vhlo.bf16_v1>) -> !vhlo.tensor_v1<3072x8192x!vhlo.bf16_v1>
    %147 = "vhlo.dot_general_v2"(%145, %146) <{accumulation_type = #vhlo.type_v1<!vhlo.none_v1>, allow_imprecise_accumulation = #vhlo.type_v1<!vhlo.none_v1>, lhs_batching_dimensions = #vhlo.tensor_v1<dense<> : tensor<0xi64>>, lhs_component_count = #vhlo.type_v1<!vhlo.none_v1>, lhs_contracting_dimensions = #vhlo.tensor_v1<dense<1> : tensor<1xi64>>, lhs_precision_type = #vhlo.type_v1<!vhlo.none_v1>, num_primitive_operations = #vhlo.type_v1<!vhlo.none_v1>, precision_config = #vhlo.array_v1<[#vhlo<precision_v1 DEFAULT>, #vhlo<precision_v1 DEFAULT>]>, rhs_batching_dimensions = #vhlo.tensor_v1<dense<> : tensor<0xi64>>, rhs_component_count = #vhlo.type_v1<!vhlo.none_v1>, rhs_contracting_dimensions = #vhlo.tensor_v1<dense<0> : tensor<1xi64>>, rhs_precision_type = #vhlo.type_v1<!vhlo.none_v1>}> : (!vhlo.tensor_v1<1x3072x!vhlo.bf16_v1>, !vhlo.tensor_v1<3072x8192x!vhlo.bf16_v1>) -> !vhlo.tensor_v1<1x8192x!vhlo.bf16_v1>
    %148 = "vhlo.reshape_v1"(%147) : (!vhlo.tensor_v1<1x8192x!vhlo.bf16_v1>) -> !vhlo.tensor_v1<1x1x8192x!vhlo.bf16_v1>
    %149 = "vhlo.convert_v1"(%148) : (!vhlo.tensor_v1<1x1x8192x!vhlo.bf16_v1>) -> !vhlo.tensor_v1<1x1x8192x!vhlo.f32_v1>
    %150 = "vhlo.logistic_v2"(%148) <{result_accuracy = #vhlo.result_accuracy_v1<atol = 0.000000e+00, rtol = 0.000000e+00, ulps = 0, mode = #vhlo<result_accuracy_mode_v1 DEFAULT>>}> : (!vhlo.tensor_v1<1x1x8192x!vhlo.bf16_v1>) -> !vhlo.tensor_v1<1x1x8192x!vhlo.bf16_v1>
    %151 = "vhlo.convert_v1"(%150) : (!vhlo.tensor_v1<1x1x8192x!vhlo.bf16_v1>) -> !vhlo.tensor_v1<1x1x8192x!vhlo.f32_v1>
    %152 = "vhlo.multiply_v1"(%149, %151) : (!vhlo.tensor_v1<1x1x8192x!vhlo.f32_v1>, !vhlo.tensor_v1<1x1x8192x!vhlo.f32_v1>) -> !vhlo.tensor_v1<1x1x8192x!vhlo.f32_v1>
    %153 = "vhlo.convert_v1"(%152) : (!vhlo.tensor_v1<1x1x8192x!vhlo.f32_v1>) -> !vhlo.tensor_v1<1x1x8192x!vhlo.bf16_v1>
    %154 = "vhlo.convert_v1"(%153) : (!vhlo.tensor_v1<1x1x8192x!vhlo.bf16_v1>) -> !vhlo.tensor_v1<1x1x8192x!vhlo.f32_v1>
    %155 = "vhlo.transpose_v1"(%arg12) <{permutation = #vhlo.tensor_v1<dense<[1, 0]> : tensor<2xi64>>}> {result_layout = #vhlo.tensor_v1<dense<[0, 1]> : tensor<2xindex>>, xla_shape = #vhlo.string_v1<"bf16[3072,8192]{0,1}">} : (!vhlo.tensor_v1<8192x3072x!vhlo.bf16_v1>) -> !vhlo.tensor_v1<3072x8192x!vhlo.bf16_v1>
    %156 = "vhlo.dot_general_v2"(%145, %155) <{accumulation_type = #vhlo.type_v1<!vhlo.none_v1>, allow_imprecise_accumulation = #vhlo.type_v1<!vhlo.none_v1>, lhs_batching_dimensions = #vhlo.tensor_v1<dense<> : tensor<0xi64>>, lhs_component_count = #vhlo.type_v1<!vhlo.none_v1>, lhs_contracting_dimensions = #vhlo.tensor_v1<dense<1> : tensor<1xi64>>, lhs_precision_type = #vhlo.type_v1<!vhlo.none_v1>, num_primitive_operations = #vhlo.type_v1<!vhlo.none_v1>, precision_config = #vhlo.array_v1<[#vhlo<precision_v1 DEFAULT>, #vhlo<precision_v1 DEFAULT>]>, rhs_batching_dimensions = #vhlo.tensor_v1<dense<> : tensor<0xi64>>, rhs_component_count = #vhlo.type_v1<!vhlo.none_v1>, rhs_contracting_dimensions = #vhlo.tensor_v1<dense<0> : tensor<1xi64>>, rhs_precision_type = #vhlo.type_v1<!vhlo.none_v1>}> : (!vhlo.tensor_v1<1x3072x!vhlo.bf16_v1>, !vhlo.tensor_v1<3072x8192x!vhlo.bf16_v1>) -> !vhlo.tensor_v1<1x8192x!vhlo.bf16_v1>
    %157 = "vhlo.reshape_v1"(%156) : (!vhlo.tensor_v1<1x8192x!vhlo.bf16_v1>) -> !vhlo.tensor_v1<1x1x8192x!vhlo.bf16_v1>
    %158 = "vhlo.convert_v1"(%157) : (!vhlo.tensor_v1<1x1x8192x!vhlo.bf16_v1>) -> !vhlo.tensor_v1<1x1x8192x!vhlo.f32_v1>
    %159 = "vhlo.multiply_v1"(%154, %158) : (!vhlo.tensor_v1<1x1x8192x!vhlo.f32_v1>, !vhlo.tensor_v1<1x1x8192x!vhlo.f32_v1>) -> !vhlo.tensor_v1<1x1x8192x!vhlo.f32_v1>
    %160 = "vhlo.convert_v1"(%159) : (!vhlo.tensor_v1<1x1x8192x!vhlo.f32_v1>) -> !vhlo.tensor_v1<1x1x8192x!vhlo.bf16_v1>
    %161 = "vhlo.reshape_v1"(%160) : (!vhlo.tensor_v1<1x1x8192x!vhlo.bf16_v1>) -> !vhlo.tensor_v1<1x8192x!vhlo.bf16_v1>
    %162 = "vhlo.transpose_v1"(%arg11) <{permutation = #vhlo.tensor_v1<dense<[1, 0]> : tensor<2xi64>>}> {result_layout = #vhlo.tensor_v1<dense<[0, 1]> : tensor<2xindex>>, xla_shape = #vhlo.string_v1<"bf16[8192,3072]{0,1}">} : (!vhlo.tensor_v1<3072x8192x!vhlo.bf16_v1>) -> !vhlo.tensor_v1<8192x3072x!vhlo.bf16_v1>
    %163 = "vhlo.dot_general_v2"(%161, %162) <{accumulation_type = #vhlo.type_v1<!vhlo.none_v1>, allow_imprecise_accumulation = #vhlo.type_v1<!vhlo.none_v1>, lhs_batching_dimensions = #vhlo.tensor_v1<dense<> : tensor<0xi64>>, lhs_component_count = #vhlo.type_v1<!vhlo.none_v1>, lhs_contracting_dimensions = #vhlo.tensor_v1<dense<1> : tensor<1xi64>>, lhs_precision_type = #vhlo.type_v1<!vhlo.none_v1>, num_primitive_operations = #vhlo.type_v1<!vhlo.none_v1>, precision_config = #vhlo.array_v1<[#vhlo<precision_v1 DEFAULT>, #vhlo<precision_v1 DEFAULT>]>, rhs_batching_dimensions = #vhlo.tensor_v1<dense<> : tensor<0xi64>>, rhs_component_count = #vhlo.type_v1<!vhlo.none_v1>, rhs_contracting_dimensions = #vhlo.tensor_v1<dense<0> : tensor<1xi64>>, rhs_precision_type = #vhlo.type_v1<!vhlo.none_v1>}> : (!vhlo.tensor_v1<1x8192x!vhlo.bf16_v1>, !vhlo.tensor_v1<8192x3072x!vhlo.bf16_v1>) -> !vhlo.tensor_v1<1x3072x!vhlo.bf16_v1>
    %164 = "vhlo.reshape_v1"(%163) : (!vhlo.tensor_v1<1x3072x!vhlo.bf16_v1>) -> !vhlo.tensor_v1<1x1x3072x!vhlo.bf16_v1>
    %165 = "vhlo.add_v1"(%128, %164) : (!vhlo.tensor_v1<1x1x3072x!vhlo.bf16_v1>, !vhlo.tensor_v1<1x1x3072x!vhlo.bf16_v1>) -> !vhlo.tensor_v1<1x1x3072x!vhlo.bf16_v1>
    %166 = "vhlo.convert_v1"(%165) : (!vhlo.tensor_v1<1x1x3072x!vhlo.bf16_v1>) -> !vhlo.tensor_v1<1x1x3072x!vhlo.f32_v1>
    %167 = "vhlo.power_v1"(%166, %5) : (!vhlo.tensor_v1<1x1x3072x!vhlo.f32_v1>, !vhlo.tensor_v1<1x1x3072x!vhlo.f32_v1>) -> !vhlo.tensor_v1<1x1x3072x!vhlo.f32_v1>
    %168 = "vhlo.reduce_v1"(%167, %1) <{dimensions = #vhlo.tensor_v1<dense<2> : tensor<1xi64>>}> ({
    ^bb0(%arg21: !vhlo.tensor_v1<!vhlo.f32_v1>, %arg22: !vhlo.tensor_v1<!vhlo.f32_v1>):
      %184 = "vhlo.add_v1"(%arg21, %arg22) : (!vhlo.tensor_v1<!vhlo.f32_v1>, !vhlo.tensor_v1<!vhlo.f32_v1>) -> !vhlo.tensor_v1<!vhlo.f32_v1>
      "vhlo.return_v1"(%184) : (!vhlo.tensor_v1<!vhlo.f32_v1>) -> ()
    }) : (!vhlo.tensor_v1<1x1x3072x!vhlo.f32_v1>, !vhlo.tensor_v1<!vhlo.f32_v1>) -> !vhlo.tensor_v1<1x1x!vhlo.f32_v1>
    %169 = "vhlo.multiply_v1"(%168, %3) : (!vhlo.tensor_v1<1x1x!vhlo.f32_v1>, !vhlo.tensor_v1<1x1x!vhlo.f32_v1>) -> !vhlo.tensor_v1<1x1x!vhlo.f32_v1>
    %170 = "vhlo.reshape_v1"(%169) : (!vhlo.tensor_v1<1x1x!vhlo.f32_v1>) -> !vhlo.tensor_v1<1x1x1x!vhlo.f32_v1>
    %171 = "vhlo.add_v1"(%170, %22) : (!vhlo.tensor_v1<1x1x1x!vhlo.f32_v1>, !vhlo.tensor_v1<1x1x1x!vhlo.f32_v1>) -> !vhlo.tensor_v1<1x1x1x!vhlo.f32_v1>
    %172 = "vhlo.rsqrt_v2"(%171) <{result_accuracy = #vhlo.result_accuracy_v1<atol = 0.000000e+00, rtol = 0.000000e+00, ulps = 0, mode = #vhlo<result_accuracy_mode_v1 DEFAULT>>}> : (!vhlo.tensor_v1<1x1x1x!vhlo.f32_v1>) -> !vhlo.tensor_v1<1x1x1x!vhlo.f32_v1>
    %173 = "vhlo.reshape_v1"(%172) : (!vhlo.tensor_v1<1x1x1x!vhlo.f32_v1>) -> !vhlo.tensor_v1<1x1x!vhlo.f32_v1>
    %174 = "vhlo.broadcast_in_dim_v1"(%173) <{broadcast_dimensions = #vhlo.tensor_v1<dense<[0, 1]> : tensor<2xi64>>}> : (!vhlo.tensor_v1<1x1x!vhlo.f32_v1>) -> !vhlo.tensor_v1<1x1x3072x!vhlo.f32_v1>
    %175 = "vhlo.multiply_v1"(%166, %174) : (!vhlo.tensor_v1<1x1x3072x!vhlo.f32_v1>, !vhlo.tensor_v1<1x1x3072x!vhlo.f32_v1>) -> !vhlo.tensor_v1<1x1x3072x!vhlo.f32_v1>
    %176 = "vhlo.convert_v1"(%175) : (!vhlo.tensor_v1<1x1x3072x!vhlo.f32_v1>) -> !vhlo.tensor_v1<1x1x3072x!vhlo.bf16_v1>
    %177 = "vhlo.convert_v1"(%176) : (!vhlo.tensor_v1<1x1x3072x!vhlo.bf16_v1>) -> !vhlo.tensor_v1<1x1x3072x!vhlo.f32_v1>
    %178 = "vhlo.multiply_v1"(%73, %177) : (!vhlo.tensor_v1<1x1x3072x!vhlo.f32_v1>, !vhlo.tensor_v1<1x1x3072x!vhlo.f32_v1>) -> !vhlo.tensor_v1<1x1x3072x!vhlo.f32_v1>
    %179 = "vhlo.convert_v1"(%178) : (!vhlo.tensor_v1<1x1x3072x!vhlo.f32_v1>) -> !vhlo.tensor_v1<1x1x3072x!vhlo.bf16_v1>
    %180 = "vhlo.reshape_v1"(%179) : (!vhlo.tensor_v1<1x1x3072x!vhlo.bf16_v1>) -> !vhlo.tensor_v1<1x3072x!vhlo.bf16_v1>
    %181 = "vhlo.transpose_v1"(%arg5) <{permutation = #vhlo.tensor_v1<dense<[1, 0]> : tensor<2xi64>>}> {result_layout = #vhlo.tensor_v1<dense<[0, 1]> : tensor<2xindex>>, xla_shape = #vhlo.string_v1<"bf16[3072,128256]{0,1}">} : (!vhlo.tensor_v1<128256x3072x!vhlo.bf16_v1>) -> !vhlo.tensor_v1<3072x128256x!vhlo.bf16_v1>
    %182 = "vhlo.dot_general_v2"(%180, %181) <{accumulation_type = #vhlo.type_v1<!vhlo.none_v1>, allow_imprecise_accumulation = #vhlo.type_v1<!vhlo.none_v1>, lhs_batching_dimensions = #vhlo.tensor_v1<dense<> : tensor<0xi64>>, lhs_component_count = #vhlo.type_v1<!vhlo.none_v1>, lhs_contracting_dimensions = #vhlo.tensor_v1<dense<1> : tensor<1xi64>>, lhs_precision_type = #vhlo.type_v1<!vhlo.none_v1>, num_primitive_operations = #vhlo.type_v1<!vhlo.none_v1>, precision_config = #vhlo.array_v1<[#vhlo<precision_v1 DEFAULT>, #vhlo<precision_v1 DEFAULT>]>, rhs_batching_dimensions = #vhlo.tensor_v1<dense<> : tensor<0xi64>>, rhs_component_count = #vhlo.type_v1<!vhlo.none_v1>, rhs_contracting_dimensions = #vhlo.tensor_v1<dense<0> : tensor<1xi64>>, rhs_precision_type = #vhlo.type_v1<!vhlo.none_v1>}> : (!vhlo.tensor_v1<1x3072x!vhlo.bf16_v1>, !vhlo.tensor_v1<3072x128256x!vhlo.bf16_v1>) -> !vhlo.tensor_v1<1x128256x!vhlo.bf16_v1>
    %183 = "vhlo.reshape_v1"(%182) : (!vhlo.tensor_v1<1x128256x!vhlo.bf16_v1>) -> !vhlo.tensor_v1<1x1x128256x!vhlo.bf16_v1>
    "vhlo.return_v1"(%66, %71, %182, %183) : (!vhlo.tensor_v1<1x8x128x128x!vhlo.bf16_v1>, !vhlo.tensor_v1<1x8x128x128x!vhlo.bf16_v1>, !vhlo.tensor_v1<1x128256x!vhlo.bf16_v1>, !vhlo.tensor_v1<1x1x128256x!vhlo.bf16_v1>) -> ()
  } {arg_attrs = #vhlo.array_v1<[#vhlo.dict_v1<{#vhlo.string_v1<"mhlo.frontend_attributes"> = #vhlo.dict_v1<{#vhlo.string_v1<"xla.sdy.sharding"> = #vhlo.string_v1<"#sdy.sharding<@mesh, [{}]>">}>, #vhlo.string_v1<"mhlo.sharding"> = #vhlo.string_v1<"{replicated}">}>, #vhlo.dict_v1<{#vhlo.string_v1<"mhlo.frontend_attributes"> = #vhlo.dict_v1<{#vhlo.string_v1<"xla.sdy.sharding"> = #vhlo.string_v1<"#sdy.sharding<@mesh, [{}]>">}>, #vhlo.string_v1<"mhlo.sharding"> = #vhlo.string_v1<"{replicated}">}>, #vhlo.dict_v1<{#vhlo.string_v1<"mhlo.frontend_attributes"> = #vhlo.dict_v1<{#vhlo.string_v1<"xla.sdy.sharding"> = #vhlo.string_v1<"#sdy.sharding<@mesh, [{\22_axis_0\22}, {}]>">}>, #vhlo.string_v1<"mhlo.sharding"> = #vhlo.string_v1<"{devices=[2,1]<=[2]}">}>, #vhlo.dict_v1<{#vhlo.string_v1<"mhlo.frontend_attributes"> = #vhlo.dict_v1<{#vhlo.string_v1<"xla.sdy.sharding"> = #vhlo.string_v1<"#sdy.sharding<@mesh, []>">}>, #vhlo.string_v1<"mhlo.sharding"> = #vhlo.string_v1<"{replicated}">}>, #vhlo.dict_v1<{#vhlo.string_v1<"mhlo.frontend_attributes"> = #vhlo.dict_v1<{#vhlo.string_v1<"xla.sdy.sharding"> = #vhlo.string_v1<"#sdy.sharding<@mesh, [{}, {}]>">}>, #vhlo.string_v1<"mhlo.sharding"> = #vhlo.string_v1<"{replicated}">}>, #vhlo.dict_v1<{#vhlo.string_v1<"mhlo.frontend_attributes"> = #vhlo.dict_v1<{#vhlo.string_v1<"xla.sdy.sharding"> = #vhlo.string_v1<"#sdy.sharding<@mesh, [{\22_axis_0\22}, {}]>">}>, #vhlo.string_v1<"mhlo.sharding"> = #vhlo.string_v1<"{devices=[2,1]<=[2]}">}>, #vhlo.dict_v1<{#vhlo.string_v1<"mhlo.frontend_attributes"> = #vhlo.dict_v1<{#vhlo.string_v1<"xla.sdy.sharding"> = #vhlo.string_v1<"#sdy.sharding<@mesh, [{}]>">}>, #vhlo.string_v1<"mhlo.sharding"> = #vhlo.string_v1<"{replicated}">}>, #vhlo.dict_v1<{#vhlo.string_v1<"mhlo.frontend_attributes"> = #vhlo.dict_v1<{#vhlo.string_v1<"xla.sdy.sharding"> = #vhlo.string_v1<"#sdy.sharding<@mesh, []>">}>, #vhlo.string_v1<"mhlo.sharding"> = #vhlo.string_v1<"{replicated}">}>, #vhlo.dict_v1<{#vhlo.string_v1<"mhlo.frontend_attributes"> = #vhlo.dict_v1<{#vhlo.string_v1<"xla.sdy.sharding"> = #vhlo.string_v1<"#sdy.sharding<@mesh, [{}, {}, {}, {}]>">}>, #vhlo.string_v1<"mhlo.sharding"> = #vhlo.string_v1<"{replicated}">}>, #vhlo.dict_v1<{#vhlo.string_v1<"mhlo.frontend_attributes"> = #vhlo.dict_v1<{#vhlo.string_v1<"xla.sdy.sharding"> = #vhlo.string_v1<"#sdy.sharding<@mesh, [{\22_axis_0\22}, {}]>">}>, #vhlo.string_v1<"mhlo.sharding"> = #vhlo.string_v1<"{devices=[2,1]<=[2]}">}>, #vhlo.dict_v1<{#vhlo.string_v1<"mhlo.frontend_attributes"> = #vhlo.dict_v1<{#vhlo.string_v1<"xla.sdy.sharding"> = #vhlo.string_v1<"#sdy.sharding<@mesh, [{}, {}, {}, {}]>">}>, #vhlo.string_v1<"mhlo.sharding"> = #vhlo.string_v1<"{replicated}">}>, #vhlo.dict_v1<{#vhlo.string_v1<"mhlo.frontend_attributes"> = #vhlo.dict_v1<{#vhlo.string_v1<"xla.sdy.sharding"> = #vhlo.string_v1<"#sdy.sharding<@mesh, [{}, {\22_axis_0\22}]>">}>, #vhlo.string_v1<"mhlo.sharding"> = #vhlo.string_v1<"{devices=[1,2]<=[2]}">}>, #vhlo.dict_v1<{#vhlo.string_v1<"mhlo.frontend_attributes"> = #vhlo.dict_v1<{#vhlo.string_v1<"xla.sdy.sharding"> = #vhlo.string_v1<"#sdy.sharding<@mesh, [{\22_axis_0\22}, {}]>">}>, #vhlo.string_v1<"mhlo.sharding"> = #vhlo.string_v1<"{devices=[2,1]<=[2]}">}>, #vhlo.dict_v1<{#vhlo.string_v1<"mhlo.frontend_attributes"> = #vhlo.dict_v1<{#vhlo.string_v1<"xla.sdy.sharding"> = #vhlo.string_v1<"#sdy.sharding<@mesh, [{}, {\22_axis_0\22}]>">}>, #vhlo.string_v1<"mhlo.sharding"> = #vhlo.string_v1<"{devices=[1,2]<=[2]}">}>, #vhlo.dict_v1<{#vhlo.string_v1<"mhlo.frontend_attributes"> = #vhlo.dict_v1<{#vhlo.string_v1<"xla.sdy.sharding"> = #vhlo.string_v1<"#sdy.sharding<@mesh, [{}]>">}>, #vhlo.string_v1<"mhlo.sharding"> = #vhlo.string_v1<"{replicated}">}>, #vhlo.dict_v1<{#vhlo.string_v1<"mhlo.frontend_attributes"> = #vhlo.dict_v1<{#vhlo.string_v1<"xla.sdy.sharding"> = #vhlo.string_v1<"#sdy.sharding<@mesh, [{}, {}]>">}>, #vhlo.string_v1<"mhlo.sharding"> = #vhlo.string_v1<"{replicated}">}>, #vhlo.dict_v1<{#vhlo.string_v1<"mhlo.frontend_attributes"> = #vhlo.dict_v1<{#vhlo.string_v1<"xla.sdy.sharding"> = #vhlo.string_v1<"#sdy.sharding<@mesh, []>">}>, #vhlo.string_v1<"mhlo.sharding"> = #vhlo.string_v1<"{replicated}">}>, #vhlo.dict_v1<{#vhlo.string_v1<"mhlo.frontend_attributes"> = #vhlo.dict_v1<{#vhlo.string_v1<"xla.sdy.sharding"> = #vhlo.string_v1<"#sdy.sharding<@mesh, [{\22_axis_0\22}, {}]>">}>, #vhlo.string_v1<"mhlo.sharding"> = #vhlo.string_v1<"{devices=[2,1]<=[2]}">}>, #vhlo.dict_v1<{#vhlo.string_v1<"mhlo.frontend_attributes"> = #vhlo.dict_v1<{#vhlo.string_v1<"xla.sdy.sharding"> = #vhlo.string_v1<"#sdy.sharding<@mesh, [{}]>">}>, #vhlo.string_v1<"mhlo.sharding"> = #vhlo.string_v1<"{replicated}">}>, #vhlo.dict_v1<{#vhlo.string_v1<"mhlo.frontend_attributes"> = #vhlo.dict_v1<{#vhlo.string_v1<"xla.sdy.sharding"> = #vhlo.string_v1<"#sdy.sharding<@mesh, [{\22_axis_0\22}, {}]>">}>, #vhlo.string_v1<"mhlo.sharding"> = #vhlo.string_v1<"{devices=[2,1]<=[2]}">}>, #vhlo.dict_v1<{#vhlo.string_v1<"mhlo.frontend_attributes"> = #vhlo.dict_v1<{#vhlo.string_v1<"xla.sdy.sharding"> = #vhlo.string_v1<"#sdy.sharding<@mesh, [{}]>">}>, #vhlo.string_v1<"mhlo.sharding"> = #vhlo.string_v1<"{replicated}">}>]>, res_attrs = #vhlo.array_v1<[]>, sym_visibility = #vhlo.string_v1<"">}
}
2025-08-20 16:59:22.047 (  43.687s) [        5E2EB1C0]      module_builder.cc:196      1| SHLO Module:
module @SyncTensorsGraph.370 attributes {mhlo.cross_program_prefetches = [], mhlo.input_output_alias = [], mhlo.is_dynamic = false, mhlo.use_auto_spmd_partitioning = false} {
  sdy.mesh @mesh = <["_axis_0"=2]>
  func.func @main(%arg0: tensor<1xi64> {sdy.sharding = #sdy.sharding<@mesh, [{}]>}, %arg1: tensor<64xf32> {sdy.sharding = #sdy.sharding<@mesh, [{}]>}, %arg2: tensor<1024x3072xbf16> {sdy.sharding = #sdy.sharding<@mesh, [{"_axis_0"}, {}]>}, %arg3: tensor<f32> {sdy.sharding = #sdy.sharding<@mesh, []>}, %arg4: tensor<1x1xi64> {sdy.sharding = #sdy.sharding<@mesh, [{}, {}]>}, %arg5: tensor<128256x3072xbf16> {sdy.sharding = #sdy.sharding<@mesh, [{"_axis_0"}, {}]>}, %arg6: tensor<3072xbf16> {sdy.sharding = #sdy.sharding<@mesh, [{}]>}, %arg7: tensor<i64> {sdy.sharding = #sdy.sharding<@mesh, []>}, %arg8: tensor<1x8x128x128xbf16> {sdy.sharding = #sdy.sharding<@mesh, [{}, {}, {}, {}]>}, %arg9: tensor<1024x3072xbf16> {sdy.sharding = #sdy.sharding<@mesh, [{"_axis_0"}, {}]>}, %arg10: tensor<1x8x128x128xbf16> {sdy.sharding = #sdy.sharding<@mesh, [{}, {}, {}, {}]>}, %arg11: tensor<3072x8192xbf16> {sdy.sharding = #sdy.sharding<@mesh, [{}, {"_axis_0"}]>}, %arg12: tensor<8192x3072xbf16> {sdy.sharding = #sdy.sharding<@mesh, [{"_axis_0"}, {}]>}, %arg13: tensor<3072x3072xbf16> {sdy.sharding = #sdy.sharding<@mesh, [{}, {"_axis_0"}]>}, %arg14: tensor<128xi64> {sdy.sharding = #sdy.sharding<@mesh, [{}]>}, %arg15: tensor<1x128xbf16> {sdy.sharding = #sdy.sharding<@mesh, [{}, {}]>}, %arg16: tensor<f32> {sdy.sharding = #sdy.sharding<@mesh, []>}, %arg17: tensor<3072x3072xbf16> {sdy.sharding = #sdy.sharding<@mesh, [{"_axis_0"}, {}]>}, %arg18: tensor<3072xbf16> {sdy.sharding = #sdy.sharding<@mesh, [{}]>}, %arg19: tensor<8192x3072xbf16> {sdy.sharding = #sdy.sharding<@mesh, [{"_axis_0"}, {}]>}, %arg20: tensor<3072xbf16> {sdy.sharding = #sdy.sharding<@mesh, [{}]>}) -> (tensor<1x8x128x128xbf16>, tensor<1x8x128x128xbf16>, tensor<1x128256xbf16>, tensor<1x1x128256xbf16>) {
    %c = stablehlo.constant dense<0> : tensor<1xi64>
    %cst = stablehlo.constant dense<0.000000e+00> : tensor<f32>
    %cst_0 = stablehlo.constant dense<0xFF800000> : tensor<f32>
    %cst_1 = stablehlo.constant dense<3.25520843E-4> : tensor<1x1xf32>
    %cst_2 = stablehlo.constant dense<2.000000e+00> : tensor<f32>
    %0 = stablehlo.broadcast_in_dim %cst_2, dims = [] : (tensor<f32>) -> tensor<1x1x3072xf32>
    %1 = stablehlo.compare  LT, %arg0, %c : (tensor<1xi64>, tensor<1xi64>) -> tensor<1xi1>
    %2 = stablehlo.reshape %arg7 : (tensor<i64>) -> tensor<1xi64>
    %3 = stablehlo.add %arg0, %2 : tensor<1xi64>
    %4 = stablehlo.select %1, %3, %arg0 : tensor<1xi1>, tensor<1xi64>
    %5 = stablehlo.reshape %4 : (tensor<1xi64>) -> tensor<1x1xi64>
    %6 = stablehlo.convert %arg6 : (tensor<3072xbf16>) -> tensor<3072xf32>
    %7 = stablehlo.reshape %6 : (tensor<3072xf32>) -> tensor<1x1x3072xf32>
    %8 = stablehlo.convert %arg4 : (tensor<1x1xi64>) -> tensor<1x1xui32>
    %9 = stablehlo.reshape %8 : (tensor<1x1xui32>) -> tensor<1xui32>
    %10 = "stablehlo.gather"(%arg5, %9) <{dimension_numbers = #stablehlo.gather<offset_dims = [1], collapsed_slice_dims = [0], start_index_map = [0], index_vector_dim = 1>, slice_sizes = array<i64: 1, 3072>}> : (tensor<128256x3072xbf16>, tensor<1xui32>) -> tensor<1x3072xbf16>
    %11 = stablehlo.reshape %10 : (tensor<1x3072xbf16>) -> tensor<1x1x3072xbf16>
    %12 = stablehlo.convert %11 : (tensor<1x1x3072xbf16>) -> tensor<1x1x3072xf32>
    %13 = stablehlo.power %12, %0 : tensor<1x1x3072xf32>
    %14 = stablehlo.reduce(%13 init: %cst) applies stablehlo.add across dimensions = [2] : (tensor<1x1x3072xf32>, tensor<f32>) -> tensor<1x1xf32>
    %15 = stablehlo.multiply %14, %cst_1 : tensor<1x1xf32>
    %16 = stablehlo.reshape %15 : (tensor<1x1xf32>) -> tensor<1x1x1xf32>
    %17 = stablehlo.reshape %arg3 : (tensor<f32>) -> tensor<1x1x1xf32>
    %18 = stablehlo.add %16, %17 : tensor<1x1x1xf32>
    %19 = stablehlo.rsqrt %18 : tensor<1x1x1xf32>
    %20 = stablehlo.reshape %19 : (tensor<1x1x1xf32>) -> tensor<1x1xf32>
    %21 = stablehlo.broadcast_in_dim %20, dims = [0, 1] : (tensor<1x1xf32>) -> tensor<1x1x3072xf32>
    %22 = stablehlo.multiply %12, %21 : tensor<1x1x3072xf32>
    %23 = stablehlo.convert %22 : (tensor<1x1x3072xf32>) -> tensor<1x1x3072xbf16>
    %24 = stablehlo.convert %23 : (tensor<1x1x3072xbf16>) -> tensor<1x1x3072xf32>
    %25 = stablehlo.multiply %7, %24 : tensor<1x1x3072xf32>
    %26 = stablehlo.convert %25 : (tensor<1x1x3072xf32>) -> tensor<1x1x3072xbf16>
    %27 = stablehlo.reshape %26 : (tensor<1x1x3072xbf16>) -> tensor<1x3072xbf16>
    %28 = stablehlo.transpose %arg2, dims = [1, 0] {result_layout = dense<[0, 1]> : tensor<2xindex>, xla_shape = "bf16[3072,1024]{0,1}"} : (tensor<1024x3072xbf16>) -> tensor<3072x1024xbf16>
    %29 = stablehlo.dot_general %27, %28, contracting_dims = [1] x [0] : (tensor<1x3072xbf16>, tensor<3072x1024xbf16>) -> tensor<1x1024xbf16>
    %30 = stablehlo.reshape %29 : (tensor<1x1024xbf16>) -> tensor<1x8x1x128xbf16>
    %31 = stablehlo.convert %30 {result_layout = dense<[3, 1, 2, 0]> : tensor<4xindex>, xla_shape = "f32[1,8,1,128]{3,1,2,0}"} : (tensor<1x8x1x128xbf16>) -> tensor<1x8x1x128xf32>
    %32 = stablehlo.reshape %arg1 : (tensor<64xf32>) -> tensor<1x64x1xf32>
    %33 = stablehlo.convert %arg0 : (tensor<1xi64>) -> tensor<1xf32>
    %34 = stablehlo.reshape %33 : (tensor<1xf32>) -> tensor<1x1x1xf32>
    %35 = stablehlo.dot_general %32, %34, batching_dims = [0] x [0], contracting_dims = [2] x [1] : (tensor<1x64x1xf32>, tensor<1x1x1xf32>) -> tensor<1x64x1xf32>
    %36 = stablehlo.reshape %35 : (tensor<1x64x1xf32>) -> tensor<1x1x64xf32>
    %37 = stablehlo.concatenate %36, %36, dim = 2 : (tensor<1x1x64xf32>, tensor<1x1x64xf32>) -> tensor<1x1x128xf32>
    %38 = stablehlo.cosine %37 : tensor<1x1x128xf32>
    %39 = stablehlo.convert %38 : (tensor<1x1x128xf32>) -> tensor<1x1x128xbf16>
    %40 = stablehlo.convert %39 : (tensor<1x1x128xbf16>) -> tensor<1x1x128xf32>
    %41 = stablehlo.broadcast_in_dim %40, dims = [0, 2, 3] : (tensor<1x1x128xf32>) -> tensor<1x8x1x128xf32>
    %42 = stablehlo.multiply %31, %41 : tensor<1x8x1x128xf32>
    %43 = stablehlo.convert %42 : (tensor<1x8x1x128xf32>) -> tensor<1x8x1x128xbf16>
    %44 = stablehlo.slice %30 [0:1, 0:8, 0:1, 64:128] : (tensor<1x8x1x128xbf16>) -> tensor<1x8x1x64xbf16>
    %45 = stablehlo.negate %44 : tensor<1x8x1x64xbf16>
    %46 = stablehlo.slice %30 [0:1, 0:8, 0:1, 0:64] : (tensor<1x8x1x128xbf16>) -> tensor<1x8x1x64xbf16>
    %47 = stablehlo.concatenate %45, %46, dim = 3 : (tensor<1x8x1x64xbf16>, tensor<1x8x1x64xbf16>) -> tensor<1x8x1x128xbf16>
    %48 = stablehlo.convert %47 : (tensor<1x8x1x128xbf16>) -> tensor<1x8x1x128xf32>
    %49 = stablehlo.sine %37 : tensor<1x1x128xf32>
    %50 = stablehlo.convert %49 : (tensor<1x1x128xf32>) -> tensor<1x1x128xbf16>
    %51 = stablehlo.convert %50 : (tensor<1x1x128xbf16>) -> tensor<1x1x128xf32>
    %52 = stablehlo.broadcast_in_dim %51, dims = [0, 2, 3] : (tensor<1x1x128xf32>) -> tensor<1x8x1x128xf32>
    %53 = stablehlo.multiply %48, %52 : tensor<1x8x1x128xf32>
    %54 = stablehlo.convert %53 : (tensor<1x8x1x128xf32>) -> tensor<1x8x1x128xbf16>
    %55 = stablehlo.add %43, %54 : tensor<1x8x1x128xbf16>
    %56 = "stablehlo.scatter"(%arg8, %5, %55) <{scatter_dimension_numbers = #stablehlo.scatter<update_window_dims = [0, 1, 3], inserted_window_dims = [2], scatter_dims_to_operand_dims = [2], index_vector_dim = 1>}> ({
    ^bb0(%arg21: tensor<bf16>, %arg22: tensor<bf16>):
      stablehlo.return %arg22 : tensor<bf16>
    }) : (tensor<1x8x128x128xbf16>, tensor<1x1xi64>, tensor<1x8x1x128xbf16>) -> tensor<1x8x128x128xbf16>
    %57 = sdy.sharding_constraint %56 <@mesh, [{}, {}, {}, {}]> : tensor<1x8x128x128xbf16>
    %58 = stablehlo.transpose %arg9, dims = [1, 0] {result_layout = dense<[0, 1]> : tensor<2xindex>, xla_shape = "bf16[3072,1024]{0,1}"} : (tensor<1024x3072xbf16>) -> tensor<3072x1024xbf16>
    %59 = stablehlo.dot_general %27, %58, contracting_dims = [1] x [0] : (tensor<1x3072xbf16>, tensor<3072x1024xbf16>) -> tensor<1x1024xbf16>
    %60 = stablehlo.reshape %59 : (tensor<1x1024xbf16>) -> tensor<1x8x1x128xbf16>
    %61 = "stablehlo.scatter"(%arg10, %5, %60) <{scatter_dimension_numbers = #stablehlo.scatter<update_window_dims = [0, 1, 3], inserted_window_dims = [2], scatter_dims_to_operand_dims = [2], index_vector_dim = 1>}> ({
    ^bb0(%arg21: tensor<bf16>, %arg22: tensor<bf16>):
      stablehlo.return %arg22 : tensor<bf16>
    }) : (tensor<1x8x128x128xbf16>, tensor<1x1xi64>, tensor<1x8x1x128xbf16>) -> tensor<1x8x128x128xbf16>
    %62 = sdy.sharding_constraint %61 <@mesh, [{}, {}, {}, {}]> : tensor<1x8x128x128xbf16>
    %63 = stablehlo.convert %arg20 : (tensor<3072xbf16>) -> tensor<3072xf32>
    %64 = stablehlo.reshape %63 : (tensor<3072xf32>) -> tensor<1x1x3072xf32>
    %65 = stablehlo.transpose %arg17, dims = [1, 0] {result_layout = dense<[0, 1]> : tensor<2xindex>, xla_shape = "bf16[3072,3072]{0,1}"} : (tensor<3072x3072xbf16>) -> tensor<3072x3072xbf16>
    %66 = stablehlo.dot_general %27, %65, contracting_dims = [1] x [0] : (tensor<1x3072xbf16>, tensor<3072x3072xbf16>) -> tensor<1x3072xbf16>
    %67 = stablehlo.reshape %66 : (tensor<1x3072xbf16>) -> tensor<1x24x1x128xbf16>
    %68 = stablehlo.convert %67 {result_layout = dense<[3, 1, 2, 0]> : tensor<4xindex>, xla_shape = "f32[1,24,1,128]{3,1,2,0}"} : (tensor<1x24x1x128xbf16>) -> tensor<1x24x1x128xf32>
    %69 = stablehlo.broadcast_in_dim %40, dims = [0, 2, 3] : (tensor<1x1x128xf32>) -> tensor<1x24x1x128xf32>
    %70 = stablehlo.multiply %68, %69 : tensor<1x24x1x128xf32>
    %71 = stablehlo.convert %70 : (tensor<1x24x1x128xf32>) -> tensor<1x24x1x128xbf16>
    %72 = stablehlo.slice %67 [0:1, 0:24, 0:1, 64:128] : (tensor<1x24x1x128xbf16>) -> tensor<1x24x1x64xbf16>
    %73 = stablehlo.negate %72 : tensor<1x24x1x64xbf16>
    %74 = stablehlo.slice %67 [0:1, 0:24, 0:1, 0:64] : (tensor<1x24x1x128xbf16>) -> tensor<1x24x1x64xbf16>
    %75 = stablehlo.concatenate %73, %74, dim = 3 : (tensor<1x24x1x64xbf16>, tensor<1x24x1x64xbf16>) -> tensor<1x24x1x128xbf16>
    %76 = stablehlo.convert %75 : (tensor<1x24x1x128xbf16>) -> tensor<1x24x1x128xf32>
    %77 = stablehlo.broadcast_in_dim %51, dims = [0, 2, 3] : (tensor<1x1x128xf32>) -> tensor<1x24x1x128xf32>
    %78 = stablehlo.multiply %76, %77 : tensor<1x24x1x128xf32>
    %79 = stablehlo.convert %78 : (tensor<1x24x1x128xf32>) -> tensor<1x24x1x128xbf16>
    %80 = stablehlo.add %71, %79 : tensor<1x24x1x128xbf16>
    %81 = stablehlo.reshape %80 : (tensor<1x24x1x128xbf16>) -> tensor<24x1x128xbf16>
    %82 = stablehlo.broadcast_in_dim %56, dims = [0, 1, 3, 4] : (tensor<1x8x128x128xbf16>) -> tensor<1x8x3x128x128xbf16>
    %83 = stablehlo.reshape %82 : (tensor<1x8x3x128x128xbf16>) -> tensor<1x24x128x128xbf16>
    %84 = stablehlo.transpose %83, dims = [0, 1, 3, 2] {result_layout = dense<[2, 3, 1, 0]> : tensor<4xindex>, xla_shape = "bf16[1,24,128,128]{2,3,1,0}"} : (tensor<1x24x128x128xbf16>) -> tensor<1x24x128x128xbf16>
    %85 = stablehlo.reshape %84 : (tensor<1x24x128x128xbf16>) -> tensor<24x128x128xbf16>
    %86 = stablehlo.dot_general %81, %85, batching_dims = [0] x [0], contracting_dims = [2] x [1] : (tensor<24x1x128xbf16>, tensor<24x128x128xbf16>) -> tensor<24x1x128xbf16>
    %87 = stablehlo.convert %86 : (tensor<24x1x128xbf16>) -> tensor<24x1x128xf32>
    %88 = stablehlo.reshape %87 : (tensor<24x1x128xf32>) -> tensor<1x24x1x128xf32>
    %89 = stablehlo.broadcast_in_dim %arg16, dims = [] : (tensor<f32>) -> tensor<1x24x1x128xf32>
    %90 = stablehlo.multiply %88, %89 : tensor<1x24x1x128xf32>
    %91 = stablehlo.convert %90 : (tensor<1x24x1x128xf32>) -> tensor<1x24x1x128xbf16>
    %92 = stablehlo.convert %arg15 : (tensor<1x128xbf16>) -> tensor<1x128xf32>
    %93 = stablehlo.reshape %arg14 : (tensor<128xi64>) -> tensor<1x128xi64>
    %94 = stablehlo.broadcast_in_dim %arg0, dims = [0] : (tensor<1xi64>) -> tensor<1x128xi64>
    %95 = stablehlo.compare  GT, %93, %94 : (tensor<1x128xi64>, tensor<1x128xi64>) -> tensor<1x128xi1>
    %96 = stablehlo.convert %95 : (tensor<1x128xi1>) -> tensor<1x128xf32>
    %97 = stablehlo.multiply %92, %96 : tensor<1x128xf32>
    %98 = stablehlo.convert %97 : (tensor<1x128xf32>) -> tensor<1x128xbf16>
    %99 = stablehlo.reshape %98 : (tensor<1x128xbf16>) -> tensor<1x1x128xbf16>
    %100 = stablehlo.broadcast_in_dim %99, dims = [0, 2, 3] : (tensor<1x1x128xbf16>) -> tensor<1x24x1x128xbf16>
    %101 = stablehlo.add %91, %100 : tensor<1x24x1x128xbf16>
    %102 = stablehlo.convert %101 : (tensor<1x24x1x128xbf16>) -> tensor<1x24x1x128xf32>
    %103 = stablehlo.reduce(%102 init: %cst_0) applies stablehlo.maximum across dimensions = [3] : (tensor<1x24x1x128xf32>, tensor<f32>) -> tensor<1x24x1xf32>
    %104 = stablehlo.broadcast_in_dim %103, dims = [0, 1, 2] : (tensor<1x24x1xf32>) -> tensor<1x24x1x128xf32>
    %105 = stablehlo.subtract %102, %104 : tensor<1x24x1x128xf32>
    %106 = stablehlo.exponential %105 : tensor<1x24x1x128xf32>
    %107 = stablehlo.reduce(%106 init: %cst) applies stablehlo.add across dimensions = [3] : (tensor<1x24x1x128xf32>, tensor<f32>) -> tensor<1x24x1xf32>
    %108 = stablehlo.broadcast_in_dim %107, dims = [0, 1, 2] : (tensor<1x24x1xf32>) -> tensor<1x24x1x128xf32>
    %109 = stablehlo.divide %106, %108 : tensor<1x24x1x128xf32>
    %110 = stablehlo.convert %109 : (tensor<1x24x1x128xf32>) -> tensor<1x24x1x128xbf16>
    %111 = stablehlo.reshape %110 : (tensor<1x24x1x128xbf16>) -> tensor<24x1x128xbf16>
    %112 = stablehlo.broadcast_in_dim %61, dims = [0, 1, 3, 4] : (tensor<1x8x128x128xbf16>) -> tensor<1x8x3x128x128xbf16>
    %113 = stablehlo.reshape %112 : (tensor<1x8x3x128x128xbf16>) -> tensor<24x128x128xbf16>
    %114 = stablehlo.dot_general %111, %113, batching_dims = [0] x [0], contracting_dims = [2] x [1] : (tensor<24x1x128xbf16>, tensor<24x128x128xbf16>) -> tensor<24x1x128xbf16>
    %115 = stablehlo.reshape %114 : (tensor<24x1x128xbf16>) -> tensor<1x3072xbf16>
    %116 = stablehlo.transpose %arg13, dims = [1, 0] {result_layout = dense<[0, 1]> : tensor<2xindex>, xla_shape = "bf16[3072,3072]{0,1}"} : (tensor<3072x3072xbf16>) -> tensor<3072x3072xbf16>
    %117 = stablehlo.dot_general %115, %116, contracting_dims = [1] x [0] : (tensor<1x3072xbf16>, tensor<3072x3072xbf16>) -> tensor<1x3072xbf16>
    %118 = stablehlo.reshape %117 : (tensor<1x3072xbf16>) -> tensor<1x1x3072xbf16>
    %119 = stablehlo.add %11, %118 : tensor<1x1x3072xbf16>
    %120 = stablehlo.convert %arg18 : (tensor<3072xbf16>) -> tensor<3072xf32>
    %121 = stablehlo.reshape %120 : (tensor<3072xf32>) -> tensor<1x1x3072xf32>
    %122 = stablehlo.convert %119 : (tensor<1x1x3072xbf16>) -> tensor<1x1x3072xf32>
    %123 = stablehlo.power %122, %0 : tensor<1x1x3072xf32>
    %124 = stablehlo.reduce(%123 init: %cst) applies stablehlo.add across dimensions = [2] : (tensor<1x1x3072xf32>, tensor<f32>) -> tensor<1x1xf32>
    %125 = stablehlo.multiply %124, %cst_1 : tensor<1x1xf32>
    %126 = stablehlo.reshape %125 : (tensor<1x1xf32>) -> tensor<1x1x1xf32>
    %127 = stablehlo.add %126, %17 : tensor<1x1x1xf32>
    %128 = stablehlo.rsqrt %127 : tensor<1x1x1xf32>
    %129 = stablehlo.reshape %128 : (tensor<1x1x1xf32>) -> tensor<1x1xf32>
    %130 = stablehlo.broadcast_in_dim %129, dims = [0, 1] : (tensor<1x1xf32>) -> tensor<1x1x3072xf32>
    %131 = stablehlo.multiply %122, %130 : tensor<1x1x3072xf32>
    %132 = stablehlo.convert %131 : (tensor<1x1x3072xf32>) -> tensor<1x1x3072xbf16>
    %133 = stablehlo.convert %132 : (tensor<1x1x3072xbf16>) -> tensor<1x1x3072xf32>
    %134 = stablehlo.multiply %121, %133 : tensor<1x1x3072xf32>
    %135 = stablehlo.convert %134 : (tensor<1x1x3072xf32>) -> tensor<1x1x3072xbf16>
    %136 = stablehlo.reshape %135 : (tensor<1x1x3072xbf16>) -> tensor<1x3072xbf16>
    %137 = stablehlo.transpose %arg19, dims = [1, 0] {result_layout = dense<[0, 1]> : tensor<2xindex>, xla_shape = "bf16[3072,8192]{0,1}"} : (tensor<8192x3072xbf16>) -> tensor<3072x8192xbf16>
    %138 = stablehlo.dot_general %136, %137, contracting_dims = [1] x [0] : (tensor<1x3072xbf16>, tensor<3072x8192xbf16>) -> tensor<1x8192xbf16>
    %139 = stablehlo.reshape %138 : (tensor<1x8192xbf16>) -> tensor<1x1x8192xbf16>
    %140 = stablehlo.convert %139 : (tensor<1x1x8192xbf16>) -> tensor<1x1x8192xf32>
    %141 = stablehlo.logistic %139 : tensor<1x1x8192xbf16>
    %142 = stablehlo.convert %141 : (tensor<1x1x8192xbf16>) -> tensor<1x1x8192xf32>
    %143 = stablehlo.multiply %140, %142 : tensor<1x1x8192xf32>
    %144 = stablehlo.convert %143 : (tensor<1x1x8192xf32>) -> tensor<1x1x8192xbf16>
    %145 = stablehlo.convert %144 : (tensor<1x1x8192xbf16>) -> tensor<1x1x8192xf32>
    %146 = stablehlo.transpose %arg12, dims = [1, 0] {result_layout = dense<[0, 1]> : tensor<2xindex>, xla_shape = "bf16[3072,8192]{0,1}"} : (tensor<8192x3072xbf16>) -> tensor<3072x8192xbf16>
    %147 = stablehlo.dot_general %136, %146, contracting_dims = [1] x [0] : (tensor<1x3072xbf16>, tensor<3072x8192xbf16>) -> tensor<1x8192xbf16>
    %148 = stablehlo.convert %147 : (tensor<1x8192xbf16>) -> tensor<1x8192xf32>
    %149 = stablehlo.reshape %148 : (tensor<1x8192xf32>) -> tensor<1x1x8192xf32>
    %150 = stablehlo.multiply %145, %149 : tensor<1x1x8192xf32>
    %151 = stablehlo.convert %150 : (tensor<1x1x8192xf32>) -> tensor<1x1x8192xbf16>
    %152 = stablehlo.reshape %151 : (tensor<1x1x8192xbf16>) -> tensor<1x8192xbf16>
    %153 = stablehlo.transpose %arg11, dims = [1, 0] {result_layout = dense<[0, 1]> : tensor<2xindex>, xla_shape = "bf16[8192,3072]{0,1}"} : (tensor<3072x8192xbf16>) -> tensor<8192x3072xbf16>
    %154 = stablehlo.dot_general %152, %153, contracting_dims = [1] x [0] : (tensor<1x8192xbf16>, tensor<8192x3072xbf16>) -> tensor<1x3072xbf16>
    %155 = stablehlo.reshape %154 : (tensor<1x3072xbf16>) -> tensor<1x1x3072xbf16>
    %156 = stablehlo.add %119, %155 : tensor<1x1x3072xbf16>
    %157 = stablehlo.convert %156 : (tensor<1x1x3072xbf16>) -> tensor<1x1x3072xf32>
    %158 = stablehlo.power %157, %0 : tensor<1x1x3072xf32>
    %159 = stablehlo.reduce(%158 init: %cst) applies stablehlo.add across dimensions = [2] : (tensor<1x1x3072xf32>, tensor<f32>) -> tensor<1x1xf32>
    %160 = stablehlo.multiply %159, %cst_1 : tensor<1x1xf32>
    %161 = stablehlo.reshape %160 : (tensor<1x1xf32>) -> tensor<1x1x1xf32>
    %162 = stablehlo.add %161, %17 : tensor<1x1x1xf32>
    %163 = stablehlo.rsqrt %162 : tensor<1x1x1xf32>
    %164 = stablehlo.reshape %163 : (tensor<1x1x1xf32>) -> tensor<1x1xf32>
    %165 = stablehlo.broadcast_in_dim %164, dims = [0, 1] : (tensor<1x1xf32>) -> tensor<1x1x3072xf32>
    %166 = stablehlo.multiply %157, %165 : tensor<1x1x3072xf32>
    %167 = stablehlo.convert %166 : (tensor<1x1x3072xf32>) -> tensor<1x1x3072xbf16>
    %168 = stablehlo.convert %167 : (tensor<1x1x3072xbf16>) -> tensor<1x1x3072xf32>
    %169 = stablehlo.multiply %64, %168 : tensor<1x1x3072xf32>
    %170 = stablehlo.convert %169 : (tensor<1x1x3072xf32>) -> tensor<1x1x3072xbf16>
    %171 = stablehlo.reshape %170 : (tensor<1x1x3072xbf16>) -> tensor<1x3072xbf16>
    %172 = stablehlo.transpose %arg5, dims = [1, 0] {result_layout = dense<[0, 1]> : tensor<2xindex>, xla_shape = "bf16[3072,128256]{0,1}"} : (tensor<128256x3072xbf16>) -> tensor<3072x128256xbf16>
    %173 = stablehlo.dot_general %171, %172, contracting_dims = [1] x [0] : (tensor<1x3072xbf16>, tensor<3072x128256xbf16>) -> tensor<1x128256xbf16>
    %174 = stablehlo.reshape %173 : (tensor<1x128256xbf16>) -> tensor<1x1x128256xbf16>
    return %57, %62, %173, %174 : tensor<1x8x128x128xbf16>, tensor<1x8x128x128xbf16>, tensor<1x128256xbf16>, tensor<1x1x128256xbf16>
  }
}
loc("p8.110"): error: 'sdy.all_slice' op operates on axis "_axis_0" which is already bound by a parent sdy.manual_computation op
2025-08-20 16:59:22.157 (  43.797s) [        5E2EB1C0]      module_builder.cc:215    ERR| Failed to run stablehlo pipeline
2025-08-20 16:59:22.157 (  43.797s) [        5E2EB1C0]      error_instance.cc:49       1| ErrorInstance::PJRT_Error_Message
2025-08-20 16:59:22.157 (  43.797s) [        5E2EB1C0]      error_instance.cc:58       1| ErrorInstance::PJRT_Error_GetCode
2025-08-20 16:59:22.157 (  43.797s) [        5E2EB1C0]      error_instance.cc:43       1| ErrorInstance::PJRT_Error_Destroy
2025-08-20 16:59:22.159 (  43.799s) [        5E2EB1C0]     buffer_instance.cc:427      1| BufferInstance::PJRT_Buffer_Destroy
[32m                 Always[0m | [1m[38;5;240m   DEBUG[0m | Tensor is retained thus not deallocating. To deallocate, set retain to false first
2025-08-20 16:59:22.159 (  43.799s) [        5E2EB1C0]     buffer_instance.cc:427      1| BufferInstance::PJRT_Buffer_Destroy
[32m                 Always[0m | [1m[38;5;240m   DEBUG[0m | Tensor is retained thus not deallocating. To deallocate, set retain to false first
2025-08-20 16:59:22.159 (  43.799s) [        5E2EB1C0]     buffer_instance.cc:427      1| BufferInstance::PJRT_Buffer_Destroy
[32m                 Always[0m | [1m[38;5;240m   DEBUG[0m | Tensor is retained thus not deallocating. To deallocate, set retain to false first
2025-08-20 16:59:22.159 (  43.799s) [        5E2EB1C0]     buffer_instance.cc:427      1| BufferInstance::PJRT_Buffer_Destroy
[32m                 Always[0m | [1m[38;5;240m   DEBUG[0m | Tensor is retained thus not deallocating. To deallocate, set retain to false first
FAILED

=================================== FAILURES ===================================
_____________________________ test_llama3_generate _____________________________

    @torch.inference_mode()
    def test_llama3_generate():
        # Initialize model and inputs
        start_time = time.time()
        model, tokenizer = load_model()
        input_args = load_inputs(model, tokenizer)
        generated_ids = input_args["input_ids"]
    
        initial_prompt = tokenizer.decode(generated_ids[0].tolist())
        print(f"Initial prompt: '{initial_prompt}'")
    
        # setup XLA environment and device mesh
        setup_xla_environment()
        mesh = create_device_mesh()
    
        ts.mark_sharding(input_args["input_ids"], (None, None))
        if use_static_cache:
            ts.mark_sharding(input_args["cache_position"], (None,))
    
            # apply shardings
            for i, (key, value) in enumerate(
                zip(
                    input_args["past_key_values"].key_cache,
                    input_args["past_key_values"].value_cache,
                )
            ):
                ts.mark_sharding(key, (None, "model", None, None))
                ts.mark_sharding(value, (None, "model", None, None))
    
        for layer in model.model.layers:
            ts.mark_sharding(layer.mlp.up_proj.weight, ("model", None))
            ts.mark_sharding(layer.mlp.gate_proj.weight, ("model", None))
            ts.mark_sharding(layer.mlp.down_proj.weight, (None, "model"))
    
            ts.mark_sharding(layer.self_attn.q_proj.weight, ("model", None))
            ts.mark_sharding(layer.self_attn.k_proj.weight, ("model", None))
            ts.mark_sharding(layer.self_attn.v_proj.weight, ("model", None))
            ts.mark_sharding(layer.self_attn.o_proj.weight, (None, "model"))
    
        ts.mark_sharding(model.lm_head.weight, ("model", None))
    
        # Setup compilation
        clear_dynamo_cache()
        cc = CompilerConfig()
        cc.mesh = mesh
    
        # Consteval disabled due to 4D Causal Attention Mask evaluation getting constant folded in torchfx
        #   due to incorrect tracing of static cache and malformed output missing static cache tensors
        cc.enable_consteval = True
        cc.consteval_parameters = False
    
        options = BackendOptions()
        options.compiler_config = cc
    
        # _backend = backend
        _backend = "tt-experimental"
    
        compiled_model = torch.compile(
            model, backend=_backend, dynamic=False, options=options
        )
    
        # Token generation with data collection
        generated_tokens = []
    
        print(initial_prompt, end="", flush=True)
    
        for i in range(tokens_to_generate):
            # Execute model
>           outputs = compiled_model(**input_args)

tests/models/llama/test_llama3_generative.py:193: 
_ _ _ _ _ _ _ _ _ _ _ _ _ _ _ _ _ _ _ _ _ _ _ _ _ _ _ _ _ _ _ _ _ _ _ _ _ _ _ _ 
env/venv/lib/python3.10/site-packages/torch/nn/modules/module.py:1751: in _wrapped_call_impl
    return self._call_impl(*args, **kwargs)
env/venv/lib/python3.10/site-packages/torch/nn/modules/module.py:1762: in _call_impl
    return forward_call(*args, **kwargs)
env/venv/lib/python3.10/site-packages/torch/_dynamo/eval_frame.py:655: in _fn
    return fn(*args, **kwargs)
env/venv/lib/python3.10/site-packages/torch/nn/modules/module.py:1751: in _wrapped_call_impl
    return self._call_impl(*args, **kwargs)
env/venv/lib/python3.10/site-packages/torch/nn/modules/module.py:1762: in _call_impl
    return forward_call(*args, **kwargs)
env/venv/lib/python3.10/site-packages/transformers/utils/generic.py:953: in wrapper
    @wraps(func)
env/venv/lib/python3.10/site-packages/torch/_dynamo/eval_frame.py:838: in _fn
    return fn(*args, **kwargs)
tt_torch/dynamo/experimental/xla_backend.py:859: in __call__
    xm.mark_step()
env/venv/lib/python3.10/site-packages/typing_extensions.py:2956: in wrapper
    return arg(*args, **kwargs)
env/venv/lib/python3.10/site-packages/torch_xla/core/xla_model.py:1035: in mark_step
    torch_xla.sync(wait, reset_scope)
_ _ _ _ _ _ _ _ _ _ _ _ _ _ _ _ _ _ _ _ _ _ _ _ _ _ _ _ _ _ _ _ _ _ _ _ _ _ _ _ 

wait = False, reset_scope = True

    def sync(wait: bool = False, reset_scope: bool = True):
      """Launches all pending graph operations.
    
      Args:
        wait (bool): whether to block the current process until the execution finished.
        reset_scope (bool): whether to reset the torch::lazy::ScopeContext of the IR Nodes.
      """
      if xu.getenv_as('XLA_EMIT_STEPLOG', bool, False):
        print('torch_xla.torch_xla::sync\n', end='', file=sys.stderr, flush=True)
>     torch_xla._XLAC._xla_step_marker(
          torch_xla._XLAC._xla_get_default_device(), [],
          wait=xu.getenv_as('XLA_SYNC_WAIT', bool, wait),
          reset_scope=reset_scope)
E     ValueError: Error code: 13

env/venv/lib/python3.10/site-packages/torch_xla/torch_xla.py:87: ValueError
=============================== warnings summary ===============================
tests/models/llama/test_llama3_generative.py::test_llama3_generate
tests/models/llama/test_llama3_generative.py::test_llama3_generate
  /localdev/jameszianxu/test32/tt-torch/tt_torch/dynamo/experimental/xla_backend.py:859: DeprecationWarning: Use torch_xla.sync instead
    xm.mark_step()

-- Docs: https://docs.pytest.org/en/stable/how-to/capture-warnings.html
=========================== short test summary info ============================
FAILED tests/models/llama/test_llama3_generative.py::test_llama3_generate - ValueError: Error code: 13
======================== 1 failed, 2 warnings in 47.41s ========================
