Using PJRT plugin directory: /localdev/jameszianxu/tt-xla/python_package/pjrt_plugin_tt
Using TT-Metal from the source tree: /localdev/jameszianxu/tt-xla/third_party/tt-mlir/src/tt-mlir/third_party/tt-metal/src/tt-metal
WARNING: TT plugin is setting XLA_STABLEHLO_COMPILE to 1. This is required for TT PJRT plugin to work correctly.
============================= test session starts ==============================
platform linux -- Python 3.11.14, pytest-8.4.2, pluggy-1.6.0 -- /localdev/jameszianxu/tt-xla/venv/bin/python
cachedir: .pytest_cache
metadata: {'Python': '3.11.14', 'Platform': 'Linux-5.15.0-142-generic-x86_64-with-glibc2.35', 'Packages': {'pytest': '8.4.2', 'pluggy': '1.6.0'}, 'Plugins': {'metadata': '3.1.1', 'split': '0.10.0', 'jaxtyping': '0.3.4', 'forked': '1.6.0', 'anyio': '4.12.0', 'json-report': '1.5.0'}}
rootdir: /localdev/jameszianxu/tt-xla
configfile: pytest.ini
plugins: metadata-3.1.1, split-0.10.0, jaxtyping-0.3.4, forked-1.6.0, anyio-4.12.0, json-report-1.5.0
collecting ... collected 1 item

tests/torch/graphs/test_tensor_persistence.py::test_shared_input_across_mesh_reshape 2026-01-07 14:00:52.938105: W torch_xla/csrc/runtime/profiler.cpp:88] Profiler API not found for PJRT plugin
Running 2x4
2026-01-07 14:00:53.146640: W torch_xla/csrc/runtime/pjrt_computation_client.cpp:703] Failed to deserialize executable: UNIMPLEMENTED: Deserializing serialized executable not supported.
=== MLIR Code (size=1175) ===
MLÔRStableHLO_v1.11.0
=== End MLIR Code ===
2026-01-07 14:00:53.153 (   1.406s) [        5515B480]      module_builder.cc:1085     1| MLIR Module vhlo:
#loc1 = loc("p0.3")
#loc2 = loc("p1.12")
module @SyncTensorsGraph.20 attributes {mhlo.cross_program_prefetches = [], mhlo.frontend_attributes = {xla.sdy.meshes = "{mesh = #sdy.mesh<[\22_axis_0\22=2, \22_axis_1\22=4]>}"}, mhlo.input_output_alias = [], mhlo.is_dynamic = false, mhlo.use_auto_spmd_partitioning = false} {
  vhlo.func_v1 @main(%arg0: !vhlo.tensor_v1<32x32x!vhlo.f32_v1> loc("p0.3"), %arg1: !vhlo.tensor_v1<32x32x!vhlo.f32_v1> loc("p1.12")) -> (!vhlo.tensor_v1<32x32x!vhlo.f32_v1>, !vhlo.tensor_v1<32x32x!vhlo.f32_v1>) {
    %0 = "vhlo.constant_v1"() <{value = #vhlo.tensor_v1<dense<1.000000e+00> : tensor<f32>>}> : () -> !vhlo.tensor_v1<!vhlo.f32_v1> loc(#loc)
    %1 = "vhlo.broadcast_in_dim_v1"(%0) <{broadcast_dimensions = #vhlo.tensor_v1<dense<> : tensor<0xi64>>}> : (!vhlo.tensor_v1<!vhlo.f32_v1>) -> !vhlo.tensor_v1<32x32x!vhlo.f32_v1> loc(#loc)
    %2 = "vhlo.reshape_v1"(%arg0) : (!vhlo.tensor_v1<32x32x!vhlo.f32_v1>) -> !vhlo.tensor_v1<1x32x32x!vhlo.f32_v1> loc(#loc3)
    %3 = "vhlo.custom_call_v1"(%2) <{api_version = #vhlo<api_version_v1 API_VERSION_UNSPECIFIED>, backend_config = #vhlo.string_v1<"">, call_target_name = #vhlo.string_v1<"tt.mark_argument">, called_computations = #vhlo.array_v1<[]>, has_side_effect = #vhlo.bool_v1<false>, operand_layouts = #vhlo.array_v1<[]>, output_operand_aliases = #vhlo.array_v1<[]>, result_layouts = #vhlo.array_v1<[]>}> {mhlo.frontend_attributes = #vhlo.dict_v1<{#vhlo.string_v1<"ttcore.argument_type"> = #vhlo.string_v1<"input">, #vhlo.string_v1<"ttir.name"> = #vhlo.string_v1<"args_0">}>} : (!vhlo.tensor_v1<1x32x32x!vhlo.f32_v1>) -> !vhlo.tensor_v1<1x32x32x!vhlo.f32_v1> loc(#loc4)
    %4 = "vhlo.reshape_v1"(%3) : (!vhlo.tensor_v1<1x32x32x!vhlo.f32_v1>) -> !vhlo.tensor_v1<32x32x!vhlo.f32_v1> loc(#loc5)
    %5 = "vhlo.add_v1"(%4, %1) : (!vhlo.tensor_v1<32x32x!vhlo.f32_v1>, !vhlo.tensor_v1<32x32x!vhlo.f32_v1>) -> !vhlo.tensor_v1<32x32x!vhlo.f32_v1> loc(#loc6)
    %6 = "vhlo.reshape_v1"(%arg1) : (!vhlo.tensor_v1<32x32x!vhlo.f32_v1>) -> !vhlo.tensor_v1<1x32x32x!vhlo.f32_v1> loc(#loc7)
    %7 = "vhlo.custom_call_v1"(%6) <{api_version = #vhlo<api_version_v1 API_VERSION_UNSPECIFIED>, backend_config = #vhlo.string_v1<"">, call_target_name = #vhlo.string_v1<"tt.mark_argument">, called_computations = #vhlo.array_v1<[]>, has_side_effect = #vhlo.bool_v1<false>, operand_layouts = #vhlo.array_v1<[]>, output_operand_aliases = #vhlo.array_v1<[]>, result_layouts = #vhlo.array_v1<[]>}> {mhlo.frontend_attributes = #vhlo.dict_v1<{#vhlo.string_v1<"ttcore.argument_type"> = #vhlo.string_v1<"input">, #vhlo.string_v1<"ttir.name"> = #vhlo.string_v1<"args_1">}>} : (!vhlo.tensor_v1<1x32x32x!vhlo.f32_v1>) -> !vhlo.tensor_v1<1x32x32x!vhlo.f32_v1> loc(#loc8)
    %8 = "vhlo.reshape_v1"(%7) : (!vhlo.tensor_v1<1x32x32x!vhlo.f32_v1>) -> !vhlo.tensor_v1<32x32x!vhlo.f32_v1> loc(#loc9)
    %9 = "vhlo.add_v1"(%8, %1) : (!vhlo.tensor_v1<32x32x!vhlo.f32_v1>, !vhlo.tensor_v1<32x32x!vhlo.f32_v1>) -> !vhlo.tensor_v1<32x32x!vhlo.f32_v1> loc(#loc10)
    "vhlo.return_v1"(%5, %9) : (!vhlo.tensor_v1<32x32x!vhlo.f32_v1>, !vhlo.tensor_v1<32x32x!vhlo.f32_v1>) -> () loc(#loc)
  } {arg_attrs = #vhlo.array_v1<[#vhlo.dict_v1<{#vhlo.string_v1<"mhlo.frontend_attributes"> = #vhlo.dict_v1<{#vhlo.string_v1<"xla.sdy.sharding"> = #vhlo.string_v1<"#sdy.sharding<@mesh, [{}, {\22_axis_1\22}]>">}>, #vhlo.string_v1<"mhlo.sharding"> = #vhlo.string_v1<"{devices=[1,4,2]<=[2,4]T(1,0) last_tile_dim_replicate}">}>, #vhlo.dict_v1<{#vhlo.string_v1<"mhlo.frontend_attributes"> = #vhlo.dict_v1<{#vhlo.string_v1<"xla.sdy.sharding"> = #vhlo.string_v1<"#sdy.sharding<@mesh, [{}, {}]>">}>, #vhlo.string_v1<"mhlo.sharding"> = #vhlo.string_v1<"{replicated}">}>]>, res_attrs = #vhlo.array_v1<[]>, sym_visibility = #vhlo.string_v1<"">} loc(#loc)
} loc(#loc)
#loc = loc(unknown)
#loc3 = loc("reshape.4")
#loc4 = loc("custom-call.5")
#loc5 = loc("reshape.6")
#loc6 = loc("add.9")
#loc7 = loc("reshape.13")
#loc8 = loc("custom-call.14")
#loc9 = loc("reshape.15")
#loc10 = loc("add.18")
------------------ END OF MLIR MODULE ------------------
// -----// IR Dump Before VhloToVersionPass (vhlo-to-version) ('builtin.module' operation: @SyncTensorsGraph.20) //----- //
module @SyncTensorsGraph.20 attributes {mhlo.cross_program_prefetches = [], mhlo.frontend_attributes = {xla.sdy.meshes = "{mesh = #sdy.mesh<[\22_axis_0\22=2, \22_axis_1\22=4]>}"}, mhlo.input_output_alias = [], mhlo.is_dynamic = false, mhlo.use_auto_spmd_partitioning = false} {
  vhlo.func_v1 @main(%arg0: !vhlo.tensor_v1<32x32x!vhlo.f32_v1>, %arg1: !vhlo.tensor_v1<32x32x!vhlo.f32_v1>) -> (!vhlo.tensor_v1<32x32x!vhlo.f32_v1>, !vhlo.tensor_v1<32x32x!vhlo.f32_v1>) {
    %0 = "vhlo.constant_v1"() <{value = #vhlo.tensor_v1<dense<1.000000e+00> : tensor<f32>>}> : () -> !vhlo.tensor_v1<!vhlo.f32_v1>
    %1 = "vhlo.broadcast_in_dim_v1"(%0) <{broadcast_dimensions = #vhlo.tensor_v1<dense<> : tensor<0xi64>>}> : (!vhlo.tensor_v1<!vhlo.f32_v1>) -> !vhlo.tensor_v1<32x32x!vhlo.f32_v1>
    %2 = "vhlo.reshape_v1"(%arg0) : (!vhlo.tensor_v1<32x32x!vhlo.f32_v1>) -> !vhlo.tensor_v1<1x32x32x!vhlo.f32_v1>
    %3 = "vhlo.custom_call_v1"(%2) <{api_version = #vhlo<api_version_v1 API_VERSION_UNSPECIFIED>, backend_config = #vhlo.string_v1<"">, call_target_name = #vhlo.string_v1<"tt.mark_argument">, called_computations = #vhlo.array_v1<[]>, has_side_effect = #vhlo.bool_v1<false>, operand_layouts = #vhlo.array_v1<[]>, output_operand_aliases = #vhlo.array_v1<[]>, result_layouts = #vhlo.array_v1<[]>}> {mhlo.frontend_attributes = #vhlo.dict_v1<{#vhlo.string_v1<"ttcore.argument_type"> = #vhlo.string_v1<"input">, #vhlo.string_v1<"ttir.name"> = #vhlo.string_v1<"args_0">}>} : (!vhlo.tensor_v1<1x32x32x!vhlo.f32_v1>) -> !vhlo.tensor_v1<1x32x32x!vhlo.f32_v1>
    %4 = "vhlo.reshape_v1"(%3) : (!vhlo.tensor_v1<1x32x32x!vhlo.f32_v1>) -> !vhlo.tensor_v1<32x32x!vhlo.f32_v1>
    %5 = "vhlo.add_v1"(%4, %1) : (!vhlo.tensor_v1<32x32x!vhlo.f32_v1>, !vhlo.tensor_v1<32x32x!vhlo.f32_v1>) -> !vhlo.tensor_v1<32x32x!vhlo.f32_v1>
    %6 = "vhlo.reshape_v1"(%arg1) : (!vhlo.tensor_v1<32x32x!vhlo.f32_v1>) -> !vhlo.tensor_v1<1x32x32x!vhlo.f32_v1>
    %7 = "vhlo.custom_call_v1"(%6) <{api_version = #vhlo<api_version_v1 API_VERSION_UNSPECIFIED>, backend_config = #vhlo.string_v1<"">, call_target_name = #vhlo.string_v1<"tt.mark_argument">, called_computations = #vhlo.array_v1<[]>, has_side_effect = #vhlo.bool_v1<false>, operand_layouts = #vhlo.array_v1<[]>, output_operand_aliases = #vhlo.array_v1<[]>, result_layouts = #vhlo.array_v1<[]>}> {mhlo.frontend_attributes = #vhlo.dict_v1<{#vhlo.string_v1<"ttcore.argument_type"> = #vhlo.string_v1<"input">, #vhlo.string_v1<"ttir.name"> = #vhlo.string_v1<"args_1">}>} : (!vhlo.tensor_v1<1x32x32x!vhlo.f32_v1>) -> !vhlo.tensor_v1<1x32x32x!vhlo.f32_v1>
    %8 = "vhlo.reshape_v1"(%7) : (!vhlo.tensor_v1<1x32x32x!vhlo.f32_v1>) -> !vhlo.tensor_v1<32x32x!vhlo.f32_v1>
    %9 = "vhlo.add_v1"(%8, %1) : (!vhlo.tensor_v1<32x32x!vhlo.f32_v1>, !vhlo.tensor_v1<32x32x!vhlo.f32_v1>) -> !vhlo.tensor_v1<32x32x!vhlo.f32_v1>
    "vhlo.return_v1"(%5, %9) : (!vhlo.tensor_v1<32x32x!vhlo.f32_v1>, !vhlo.tensor_v1<32x32x!vhlo.f32_v1>) -> ()
  } {arg_attrs = #vhlo.array_v1<[#vhlo.dict_v1<{#vhlo.string_v1<"mhlo.frontend_attributes"> = #vhlo.dict_v1<{#vhlo.string_v1<"xla.sdy.sharding"> = #vhlo.string_v1<"#sdy.sharding<@mesh, [{}, {\22_axis_1\22}]>">}>, #vhlo.string_v1<"mhlo.sharding"> = #vhlo.string_v1<"{devices=[1,4,2]<=[2,4]T(1,0) last_tile_dim_replicate}">}>, #vhlo.dict_v1<{#vhlo.string_v1<"mhlo.frontend_attributes"> = #vhlo.dict_v1<{#vhlo.string_v1<"xla.sdy.sharding"> = #vhlo.string_v1<"#sdy.sharding<@mesh, [{}, {}]>">}>, #vhlo.string_v1<"mhlo.sharding"> = #vhlo.string_v1<"{replicated}">}>]>, res_attrs = #vhlo.array_v1<[]>, sym_visibility = #vhlo.string_v1<"">}
}


// -----// IR Dump Before VhloLegalizeToStablehloPass (vhlo-legalize-to-stablehlo) ('builtin.module' operation: @SyncTensorsGraph.20) //----- //
module @SyncTensorsGraph.20 attributes {mhlo.cross_program_prefetches = [], mhlo.frontend_attributes = {xla.sdy.meshes = "{mesh = #sdy.mesh<[\22_axis_0\22=2, \22_axis_1\22=4]>}"}, mhlo.input_output_alias = [], mhlo.is_dynamic = false, mhlo.use_auto_spmd_partitioning = false} {
  vhlo.func_v1 @main(%arg0: !vhlo.tensor_v1<32x32x!vhlo.f32_v1>, %arg1: !vhlo.tensor_v1<32x32x!vhlo.f32_v1>) -> (!vhlo.tensor_v1<32x32x!vhlo.f32_v1>, !vhlo.tensor_v1<32x32x!vhlo.f32_v1>) {
    %0 = "vhlo.constant_v1"() <{value = #vhlo.tensor_v1<dense<1.000000e+00> : tensor<f32>>}> : () -> !vhlo.tensor_v1<!vhlo.f32_v1>
    %1 = "vhlo.broadcast_in_dim_v1"(%0) <{broadcast_dimensions = #vhlo.tensor_v1<dense<> : tensor<0xi64>>}> : (!vhlo.tensor_v1<!vhlo.f32_v1>) -> !vhlo.tensor_v1<32x32x!vhlo.f32_v1>
    %2 = "vhlo.reshape_v1"(%arg0) : (!vhlo.tensor_v1<32x32x!vhlo.f32_v1>) -> !vhlo.tensor_v1<1x32x32x!vhlo.f32_v1>
    %3 = "vhlo.custom_call_v1"(%2) <{api_version = #vhlo<api_version_v1 API_VERSION_UNSPECIFIED>, backend_config = #vhlo.string_v1<"">, call_target_name = #vhlo.string_v1<"tt.mark_argument">, called_computations = #vhlo.array_v1<[]>, has_side_effect = #vhlo.bool_v1<false>, operand_layouts = #vhlo.array_v1<[]>, output_operand_aliases = #vhlo.array_v1<[]>, result_layouts = #vhlo.array_v1<[]>}> {mhlo.frontend_attributes = #vhlo.dict_v1<{#vhlo.string_v1<"ttcore.argument_type"> = #vhlo.string_v1<"input">, #vhlo.string_v1<"ttir.name"> = #vhlo.string_v1<"args_0">}>} : (!vhlo.tensor_v1<1x32x32x!vhlo.f32_v1>) -> !vhlo.tensor_v1<1x32x32x!vhlo.f32_v1>
    %4 = "vhlo.reshape_v1"(%3) : (!vhlo.tensor_v1<1x32x32x!vhlo.f32_v1>) -> !vhlo.tensor_v1<32x32x!vhlo.f32_v1>
    %5 = "vhlo.add_v1"(%4, %1) : (!vhlo.tensor_v1<32x32x!vhlo.f32_v1>, !vhlo.tensor_v1<32x32x!vhlo.f32_v1>) -> !vhlo.tensor_v1<32x32x!vhlo.f32_v1>
    %6 = "vhlo.reshape_v1"(%arg1) : (!vhlo.tensor_v1<32x32x!vhlo.f32_v1>) -> !vhlo.tensor_v1<1x32x32x!vhlo.f32_v1>
    %7 = "vhlo.custom_call_v1"(%6) <{api_version = #vhlo<api_version_v1 API_VERSION_UNSPECIFIED>, backend_config = #vhlo.string_v1<"">, call_target_name = #vhlo.string_v1<"tt.mark_argument">, called_computations = #vhlo.array_v1<[]>, has_side_effect = #vhlo.bool_v1<false>, operand_layouts = #vhlo.array_v1<[]>, output_operand_aliases = #vhlo.array_v1<[]>, result_layouts = #vhlo.array_v1<[]>}> {mhlo.frontend_attributes = #vhlo.dict_v1<{#vhlo.string_v1<"ttcore.argument_type"> = #vhlo.string_v1<"input">, #vhlo.string_v1<"ttir.name"> = #vhlo.string_v1<"args_1">}>} : (!vhlo.tensor_v1<1x32x32x!vhlo.f32_v1>) -> !vhlo.tensor_v1<1x32x32x!vhlo.f32_v1>
    %8 = "vhlo.reshape_v1"(%7) : (!vhlo.tensor_v1<1x32x32x!vhlo.f32_v1>) -> !vhlo.tensor_v1<32x32x!vhlo.f32_v1>
    %9 = "vhlo.add_v1"(%8, %1) : (!vhlo.tensor_v1<32x32x!vhlo.f32_v1>, !vhlo.tensor_v1<32x32x!vhlo.f32_v1>) -> !vhlo.tensor_v1<32x32x!vhlo.f32_v1>
    "vhlo.return_v1"(%5, %9) : (!vhlo.tensor_v1<32x32x!vhlo.f32_v1>, !vhlo.tensor_v1<32x32x!vhlo.f32_v1>) -> ()
  } {arg_attrs = #vhlo.array_v1<[#vhlo.dict_v1<{#vhlo.string_v1<"mhlo.frontend_attributes"> = #vhlo.dict_v1<{#vhlo.string_v1<"xla.sdy.sharding"> = #vhlo.string_v1<"#sdy.sharding<@mesh, [{}, {\22_axis_1\22}]>">}>, #vhlo.string_v1<"mhlo.sharding"> = #vhlo.string_v1<"{devices=[1,4,2]<=[2,4]T(1,0) last_tile_dim_replicate}">}>, #vhlo.dict_v1<{#vhlo.string_v1<"mhlo.frontend_attributes"> = #vhlo.dict_v1<{#vhlo.string_v1<"xla.sdy.sharding"> = #vhlo.string_v1<"#sdy.sharding<@mesh, [{}, {}]>">}>, #vhlo.string_v1<"mhlo.sharding"> = #vhlo.string_v1<"{replicated}">}>]>, res_attrs = #vhlo.array_v1<[]>, sym_visibility = #vhlo.string_v1<"">}
}


// -----// IR Dump After VhloLegalizeToStablehloPass (vhlo-legalize-to-stablehlo) ('builtin.module' operation: @SyncTensorsGraph.20) //----- //
module @SyncTensorsGraph.20 attributes {mhlo.cross_program_prefetches = [], mhlo.frontend_attributes = {xla.sdy.meshes = "{mesh = #sdy.mesh<[\22_axis_0\22=2, \22_axis_1\22=4]>}"}, mhlo.input_output_alias = [], mhlo.is_dynamic = false, mhlo.use_auto_spmd_partitioning = false} {
  func.func @main(%arg0: tensor<32x32xf32> {mhlo.frontend_attributes = {xla.sdy.sharding = "#sdy.sharding<@mesh, [{}, {\22_axis_1\22}]>"}, mhlo.sharding = "{devices=[1,4,2]<=[2,4]T(1,0) last_tile_dim_replicate}"}, %arg1: tensor<32x32xf32> {mhlo.frontend_attributes = {xla.sdy.sharding = "#sdy.sharding<@mesh, [{}, {}]>"}, mhlo.sharding = "{replicated}"}) -> (tensor<32x32xf32>, tensor<32x32xf32>) {
    %cst = stablehlo.constant dense<1.000000e+00> : tensor<f32>
    %0 = stablehlo.broadcast_in_dim %cst, dims = [] : (tensor<f32>) -> tensor<32x32xf32>
    %1 = stablehlo.reshape %arg0 : (tensor<32x32xf32>) -> tensor<1x32x32xf32>
    %2 = stablehlo.custom_call @tt.mark_argument(%1) {api_version = 0 : i32, mhlo.frontend_attributes = {ttcore.argument_type = "input", ttir.name = "args_0"}} : (tensor<1x32x32xf32>) -> tensor<1x32x32xf32>
    %3 = stablehlo.reshape %2 : (tensor<1x32x32xf32>) -> tensor<32x32xf32>
    %4 = stablehlo.add %3, %0 : tensor<32x32xf32>
    %5 = stablehlo.reshape %arg1 : (tensor<32x32xf32>) -> tensor<1x32x32xf32>
    %6 = stablehlo.custom_call @tt.mark_argument(%5) {api_version = 0 : i32, mhlo.frontend_attributes = {ttcore.argument_type = "input", ttir.name = "args_1"}} : (tensor<1x32x32xf32>) -> tensor<1x32x32xf32>
    %7 = stablehlo.reshape %6 : (tensor<1x32x32xf32>) -> tensor<32x32xf32>
    %8 = stablehlo.add %7, %0 : tensor<32x32xf32>
    return %4, %8 : tensor<32x32xf32>, tensor<32x32xf32>
  }
}


2026-01-07 14:00:53.157 (   1.411s) [        5515B480]      module_builder.cc:1085     1| MLIR Module shlo:
#loc1 = loc("p0.3")
#loc2 = loc("p1.12")
module @SyncTensorsGraph.20 attributes {mhlo.cross_program_prefetches = [], mhlo.frontend_attributes = {xla.sdy.meshes = "{mesh = #sdy.mesh<[\22_axis_0\22=2, \22_axis_1\22=4]>}"}, mhlo.input_output_alias = [], mhlo.is_dynamic = false, mhlo.use_auto_spmd_partitioning = false} {
  func.func @main(%arg0: tensor<32x32xf32> {mhlo.frontend_attributes = {xla.sdy.sharding = "#sdy.sharding<@mesh, [{}, {\22_axis_1\22}]>"}, mhlo.sharding = "{devices=[1,4,2]<=[2,4]T(1,0) last_tile_dim_replicate}"} loc("p0.3"), %arg1: tensor<32x32xf32> {mhlo.frontend_attributes = {xla.sdy.sharding = "#sdy.sharding<@mesh, [{}, {}]>"}, mhlo.sharding = "{replicated}"} loc("p1.12")) -> (tensor<32x32xf32>, tensor<32x32xf32>) {
    %cst = stablehlo.constant dense<1.000000e+00> : tensor<f32> loc(#loc)
    %0 = stablehlo.broadcast_in_dim %cst, dims = [] : (tensor<f32>) -> tensor<32x32xf32> loc(#loc)
    %1 = stablehlo.reshape %arg0 : (tensor<32x32xf32>) -> tensor<1x32x32xf32> loc(#loc3)
    %2 = stablehlo.custom_call @tt.mark_argument(%1) {api_version = 0 : i32, mhlo.frontend_attributes = {ttcore.argument_type = "input", ttir.name = "args_0"}} : (tensor<1x32x32xf32>) -> tensor<1x32x32xf32> loc(#loc4)
    %3 = stablehlo.reshape %2 : (tensor<1x32x32xf32>) -> tensor<32x32xf32> loc(#loc5)
    %4 = stablehlo.add %3, %0 : tensor<32x32xf32> loc(#loc6)
    %5 = stablehlo.reshape %arg1 : (tensor<32x32xf32>) -> tensor<1x32x32xf32> loc(#loc7)
    %6 = stablehlo.custom_call @tt.mark_argument(%5) {api_version = 0 : i32, mhlo.frontend_attributes = {ttcore.argument_type = "input", ttir.name = "args_1"}} : (tensor<1x32x32xf32>) -> tensor<1x32x32xf32> loc(#loc8)
    %7 = stablehlo.reshape %6 : (tensor<1x32x32xf32>) -> tensor<32x32xf32> loc(#loc9)
    %8 = stablehlo.add %7, %0 : tensor<32x32xf32> loc(#loc10)
    return %4, %8 : tensor<32x32xf32>, tensor<32x32xf32> loc(#loc)
  } loc(#loc)
} loc(#loc)
#loc = loc(unknown)
#loc3 = loc("reshape.4")
#loc4 = loc("custom-call.5")
#loc5 = loc("reshape.6")
#loc6 = loc("add.9")
#loc7 = loc("reshape.13")
#loc8 = loc("custom-call.14")
#loc9 = loc("reshape.15")
#loc10 = loc("add.18")
------------------ END OF MLIR MODULE ------------------
2026-01-07 14:00:53.158 (   1.411s) [        5515B480]      module_builder.cc:1085     1| MLIR Module shlo_frontend:
#loc1 = loc("p0.3")
#loc2 = loc("p1.12")
module @SyncTensorsGraph.20 attributes {mhlo.cross_program_prefetches = [], mhlo.frontend_attributes = {xla.sdy.meshes = "{mesh = #sdy.mesh<[\22_axis_0\22=2, \22_axis_1\22=4]>}"}, mhlo.input_output_alias = [], mhlo.is_dynamic = false, mhlo.use_auto_spmd_partitioning = false} {
  func.func @main(%arg0: tensor<32x32xf32> {mhlo.frontend_attributes = {xla.sdy.sharding = "#sdy.sharding<@mesh, [{}, {\22_axis_1\22}]>"}, mhlo.sharding = "{devices=[1,4,2]<=[2,4]T(1,0) last_tile_dim_replicate}", ttcore.argument_type = #ttcore.argument_type<input>, ttir.name = "args_0"} loc("p0.3"), %arg1: tensor<32x32xf32> {mhlo.frontend_attributes = {xla.sdy.sharding = "#sdy.sharding<@mesh, [{}, {}]>"}, mhlo.sharding = "{replicated}", ttcore.argument_type = #ttcore.argument_type<input>, ttir.name = "args_1"} loc("p1.12")) -> (tensor<32x32xf32>, tensor<32x32xf32>) {
    %cst = stablehlo.constant dense<1.000000e+00> : tensor<f32> loc(#loc)
    %0 = stablehlo.broadcast_in_dim %cst, dims = [] : (tensor<f32>) -> tensor<32x32xf32> loc(#loc)
    %1 = stablehlo.reshape %arg0 : (tensor<32x32xf32>) -> tensor<1x32x32xf32> loc(#loc3)
    %2 = stablehlo.reshape %1 : (tensor<1x32x32xf32>) -> tensor<32x32xf32> loc(#loc4)
    %3 = stablehlo.add %2, %0 : tensor<32x32xf32> loc(#loc5)
    %4 = stablehlo.reshape %arg1 : (tensor<32x32xf32>) -> tensor<1x32x32xf32> loc(#loc6)
    %5 = stablehlo.reshape %4 : (tensor<1x32x32xf32>) -> tensor<32x32xf32> loc(#loc7)
    %6 = stablehlo.add %5, %0 : tensor<32x32xf32> loc(#loc8)
    return %3, %6 : tensor<32x32xf32>, tensor<32x32xf32> loc(#loc)
  } loc(#loc)
} loc(#loc)
#loc = loc(unknown)
#loc3 = loc("reshape.4")
#loc4 = loc("reshape.6")
#loc5 = loc("add.9")
#loc6 = loc("reshape.13")
#loc7 = loc("reshape.15")
#loc8 = loc("add.18")
------------------ END OF MLIR MODULE ------------------
// -----// IR Dump Before Inliner (inline) ('builtin.module' operation: @SyncTensorsGraph.20) //----- //
module @SyncTensorsGraph.20 attributes {mhlo.cross_program_prefetches = [], mhlo.frontend_attributes = {xla.sdy.meshes = "{mesh = #sdy.mesh<[\22_axis_0\22=2, \22_axis_1\22=4]>}"}, mhlo.input_output_alias = [], mhlo.is_dynamic = false, mhlo.use_auto_spmd_partitioning = false} {
  func.func @main(%arg0: tensor<32x32xf32> {mhlo.frontend_attributes = {xla.sdy.sharding = "#sdy.sharding<@mesh, [{}, {\22_axis_1\22}]>"}, mhlo.sharding = "{devices=[1,4,2]<=[2,4]T(1,0) last_tile_dim_replicate}", ttcore.argument_type = #ttcore.argument_type<input>, ttir.name = "args_0"}, %arg1: tensor<32x32xf32> {mhlo.frontend_attributes = {xla.sdy.sharding = "#sdy.sharding<@mesh, [{}, {}]>"}, mhlo.sharding = "{replicated}", ttcore.argument_type = #ttcore.argument_type<input>, ttir.name = "args_1"}) -> (tensor<32x32xf32>, tensor<32x32xf32>) {
    %cst = stablehlo.constant dense<1.000000e+00> : tensor<f32>
    %0 = stablehlo.broadcast_in_dim %cst, dims = [] : (tensor<f32>) -> tensor<32x32xf32>
    %1 = stablehlo.reshape %arg0 : (tensor<32x32xf32>) -> tensor<1x32x32xf32>
    %2 = stablehlo.reshape %1 : (tensor<1x32x32xf32>) -> tensor<32x32xf32>
    %3 = stablehlo.add %2, %0 : tensor<32x32xf32>
    %4 = stablehlo.reshape %arg1 : (tensor<32x32xf32>) -> tensor<1x32x32xf32>
    %5 = stablehlo.reshape %4 : (tensor<1x32x32xf32>) -> tensor<32x32xf32>
    %6 = stablehlo.add %5, %0 : tensor<32x32xf32>
    return %3, %6 : tensor<32x32xf32>, tensor<32x32xf32>
  }
}


// -----// IR Dump Before Canonicalizer (canonicalize) ('func.func' operation: @main) //----- //
module @SyncTensorsGraph.20 attributes {mhlo.cross_program_prefetches = [], mhlo.frontend_attributes = {xla.sdy.meshes = "{mesh = #sdy.mesh<[\22_axis_0\22=2, \22_axis_1\22=4]>}"}, mhlo.input_output_alias = [], mhlo.is_dynamic = false, mhlo.use_auto_spmd_partitioning = false} {
  func.func @main(%arg0: tensor<32x32xf32> {mhlo.frontend_attributes = {xla.sdy.sharding = "#sdy.sharding<@mesh, [{}, {\22_axis_1\22}]>"}, mhlo.sharding = "{devices=[1,4,2]<=[2,4]T(1,0) last_tile_dim_replicate}", ttcore.argument_type = #ttcore.argument_type<input>, ttir.name = "args_0"}, %arg1: tensor<32x32xf32> {mhlo.frontend_attributes = {xla.sdy.sharding = "#sdy.sharding<@mesh, [{}, {}]>"}, mhlo.sharding = "{replicated}", ttcore.argument_type = #ttcore.argument_type<input>, ttir.name = "args_1"}) -> (tensor<32x32xf32>, tensor<32x32xf32>) {
    %cst = stablehlo.constant dense<1.000000e+00> : tensor<f32>
    %0 = stablehlo.broadcast_in_dim %cst, dims = [] : (tensor<f32>) -> tensor<32x32xf32>
    %1 = stablehlo.reshape %arg0 : (tensor<32x32xf32>) -> tensor<1x32x32xf32>
    %2 = stablehlo.reshape %1 : (tensor<1x32x32xf32>) -> tensor<32x32xf32>
    %3 = stablehlo.add %2, %0 : tensor<32x32xf32>
    %4 = stablehlo.reshape %arg1 : (tensor<32x32xf32>) -> tensor<1x32x32xf32>
    %5 = stablehlo.reshape %4 : (tensor<1x32x32xf32>) -> tensor<32x32xf32>
    %6 = stablehlo.add %5, %0 : tensor<32x32xf32>
    return %3, %6 : tensor<32x32xf32>, tensor<32x32xf32>
  }
}


// -----// IR Dump Before TTPopulateArgumentTypes (tt-populate-argument-types) ('builtin.module' operation: @SyncTensorsGraph.20) //----- //
module @SyncTensorsGraph.20 attributes {mhlo.cross_program_prefetches = [], mhlo.frontend_attributes = {xla.sdy.meshes = "{mesh = #sdy.mesh<[\22_axis_0\22=2, \22_axis_1\22=4]>}"}, mhlo.input_output_alias = [], mhlo.is_dynamic = false, mhlo.use_auto_spmd_partitioning = false} {
  func.func @main(%arg0: tensor<32x32xf32> {mhlo.frontend_attributes = {xla.sdy.sharding = "#sdy.sharding<@mesh, [{}, {\22_axis_1\22}]>"}, mhlo.sharding = "{devices=[1,4,2]<=[2,4]T(1,0) last_tile_dim_replicate}", ttcore.argument_type = #ttcore.argument_type<input>, ttir.name = "args_0"}, %arg1: tensor<32x32xf32> {mhlo.frontend_attributes = {xla.sdy.sharding = "#sdy.sharding<@mesh, [{}, {}]>"}, mhlo.sharding = "{replicated}", ttcore.argument_type = #ttcore.argument_type<input>, ttir.name = "args_1"}) -> (tensor<32x32xf32>, tensor<32x32xf32>) {
    %cst = stablehlo.constant dense<1.000000e+00> : tensor<f32>
    %0 = stablehlo.broadcast_in_dim %cst, dims = [] : (tensor<f32>) -> tensor<32x32xf32>
    %1 = stablehlo.reshape %arg0 : (tensor<32x32xf32>) -> tensor<1x32x32xf32>
    %2 = stablehlo.reshape %1 : (tensor<1x32x32xf32>) -> tensor<32x32xf32>
    %3 = stablehlo.add %2, %0 : tensor<32x32xf32>
    %4 = stablehlo.reshape %arg1 : (tensor<32x32xf32>) -> tensor<1x32x32xf32>
    %5 = stablehlo.reshape %4 : (tensor<1x32x32xf32>) -> tensor<32x32xf32>
    %6 = stablehlo.add %5, %0 : tensor<32x32xf32>
    return %3, %6 : tensor<32x32xf32>, tensor<32x32xf32>
  }
}


// -----// IR Dump Before ApplyArgumentShardStatusPass (apply-argument-shard-status) ('builtin.module' operation: @SyncTensorsGraph.20) //----- //
module @SyncTensorsGraph.20 attributes {mhlo.cross_program_prefetches = [], mhlo.frontend_attributes = {xla.sdy.meshes = "{mesh = #sdy.mesh<[\22_axis_0\22=2, \22_axis_1\22=4]>}"}, mhlo.input_output_alias = [], mhlo.is_dynamic = false, mhlo.use_auto_spmd_partitioning = false} {
  func.func @main(%arg0: tensor<32x32xf32> {mhlo.frontend_attributes = {xla.sdy.sharding = "#sdy.sharding<@mesh, [{}, {\22_axis_1\22}]>"}, mhlo.sharding = "{devices=[1,4,2]<=[2,4]T(1,0) last_tile_dim_replicate}", ttcore.argument_type = #ttcore.argument_type<input>, ttir.name = "args_0"}, %arg1: tensor<32x32xf32> {mhlo.frontend_attributes = {xla.sdy.sharding = "#sdy.sharding<@mesh, [{}, {}]>"}, mhlo.sharding = "{replicated}", ttcore.argument_type = #ttcore.argument_type<input>, ttir.name = "args_1"}) -> (tensor<32x32xf32>, tensor<32x32xf32>) {
    %cst = stablehlo.constant dense<1.000000e+00> : tensor<f32>
    %0 = stablehlo.broadcast_in_dim %cst, dims = [] : (tensor<f32>) -> tensor<32x32xf32>
    %1 = stablehlo.reshape %arg0 : (tensor<32x32xf32>) -> tensor<1x32x32xf32>
    %2 = stablehlo.reshape %1 : (tensor<1x32x32xf32>) -> tensor<32x32xf32>
    %3 = stablehlo.add %2, %0 : tensor<32x32xf32>
    %4 = stablehlo.reshape %arg1 : (tensor<32x32xf32>) -> tensor<1x32x32xf32>
    %5 = stablehlo.reshape %4 : (tensor<1x32x32xf32>) -> tensor<32x32xf32>
    %6 = stablehlo.add %5, %0 : tensor<32x32xf32>
    return %3, %6 : tensor<32x32xf32>, tensor<32x32xf32>
  }
}


// -----// IR Dump After ApplyArgumentShardStatusPass (apply-argument-shard-status) ('builtin.module' operation: @SyncTensorsGraph.20) //----- //
module @SyncTensorsGraph.20 attributes {mhlo.cross_program_prefetches = [], mhlo.frontend_attributes = {xla.sdy.meshes = "{mesh = #sdy.mesh<[\22_axis_0\22=2, \22_axis_1\22=4]>}"}, mhlo.input_output_alias = [], mhlo.is_dynamic = false, mhlo.use_auto_spmd_partitioning = false} {
  func.func @main(%arg0: tensor<32x32xf32> {mhlo.frontend_attributes = {xla.sdy.sharding = "#sdy.sharding<@mesh, [{}, {\22_axis_1\22}]>"}, mhlo.sharding = "{devices=[1,4,2]<=[2,4]T(1,0) last_tile_dim_replicate}", ttcore.argument_type = #ttcore.argument_type<input>, ttcore.shard_status = #ttcore.shard_status<presharded>, ttir.name = "args_0"}, %arg1: tensor<32x32xf32> {mhlo.frontend_attributes = {xla.sdy.sharding = "#sdy.sharding<@mesh, [{}, {}]>"}, mhlo.sharding = "{replicated}", ttcore.argument_type = #ttcore.argument_type<input>, ttcore.shard_status = #ttcore.shard_status<presharded>, ttir.name = "args_1"}) -> (tensor<32x32xf32> {ttcore.shard_status = #ttcore.shard_status<unsharded>}, tensor<32x32xf32> {ttcore.shard_status = #ttcore.shard_status<unsharded>}) {
    %cst = stablehlo.constant dense<1.000000e+00> : tensor<f32>
    %0 = stablehlo.broadcast_in_dim %cst, dims = [] : (tensor<f32>) -> tensor<32x32xf32>
    %1 = stablehlo.reshape %arg0 : (tensor<32x32xf32>) -> tensor<1x32x32xf32>
    %2 = stablehlo.reshape %1 : (tensor<1x32x32xf32>) -> tensor<32x32xf32>
    %3 = stablehlo.add %2, %0 : tensor<32x32xf32>
    %4 = stablehlo.reshape %arg1 : (tensor<32x32xf32>) -> tensor<1x32x32xf32>
    %5 = stablehlo.reshape %4 : (tensor<1x32x32xf32>) -> tensor<32x32xf32>
    %6 = stablehlo.add %5, %0 : tensor<32x32xf32>
    return %3, %6 : tensor<32x32xf32>, tensor<32x32xf32>
  }
}


// -----// IR Dump Before ConvertXlaSdyToSdyPass (convert-xla-sdy-to-sdy) ('builtin.module' operation: @SyncTensorsGraph.20) //----- //
module @SyncTensorsGraph.20 attributes {mhlo.cross_program_prefetches = [], mhlo.frontend_attributes = {xla.sdy.meshes = "{mesh = #sdy.mesh<[\22_axis_0\22=2, \22_axis_1\22=4]>}"}, mhlo.input_output_alias = [], mhlo.is_dynamic = false, mhlo.use_auto_spmd_partitioning = false} {
  func.func @main(%arg0: tensor<32x32xf32> {mhlo.frontend_attributes = {xla.sdy.sharding = "#sdy.sharding<@mesh, [{}, {\22_axis_1\22}]>"}, mhlo.sharding = "{devices=[1,4,2]<=[2,4]T(1,0) last_tile_dim_replicate}", ttcore.argument_type = #ttcore.argument_type<input>, ttcore.shard_status = #ttcore.shard_status<presharded>, ttir.name = "args_0"}, %arg1: tensor<32x32xf32> {mhlo.frontend_attributes = {xla.sdy.sharding = "#sdy.sharding<@mesh, [{}, {}]>"}, mhlo.sharding = "{replicated}", ttcore.argument_type = #ttcore.argument_type<input>, ttcore.shard_status = #ttcore.shard_status<presharded>, ttir.name = "args_1"}) -> (tensor<32x32xf32> {ttcore.shard_status = #ttcore.shard_status<unsharded>}, tensor<32x32xf32> {ttcore.shard_status = #ttcore.shard_status<unsharded>}) {
    %cst = stablehlo.constant dense<1.000000e+00> : tensor<f32>
    %0 = stablehlo.broadcast_in_dim %cst, dims = [] : (tensor<f32>) -> tensor<32x32xf32>
    %1 = stablehlo.reshape %arg0 : (tensor<32x32xf32>) -> tensor<1x32x32xf32>
    %2 = stablehlo.reshape %1 : (tensor<1x32x32xf32>) -> tensor<32x32xf32>
    %3 = stablehlo.add %2, %0 : tensor<32x32xf32>
    %4 = stablehlo.reshape %arg1 : (tensor<32x32xf32>) -> tensor<1x32x32xf32>
    %5 = stablehlo.reshape %4 : (tensor<1x32x32xf32>) -> tensor<32x32xf32>
    %6 = stablehlo.add %5, %0 : tensor<32x32xf32>
    return %3, %6 : tensor<32x32xf32>, tensor<32x32xf32>
  }
}


// -----// IR Dump After ConvertXlaSdyToSdyPass (convert-xla-sdy-to-sdy) ('builtin.module' operation: @SyncTensorsGraph.20) //----- //
module @SyncTensorsGraph.20 attributes {mhlo.cross_program_prefetches = [], mhlo.input_output_alias = [], mhlo.is_dynamic = false, mhlo.use_auto_spmd_partitioning = false} {
  sdy.mesh @mesh = <["_axis_0"=2, "_axis_1"=4]>
  func.func @main(%arg0: tensor<32x32xf32> {sdy.sharding = #sdy.sharding<@mesh, [{}, {"_axis_1"}]>, ttcore.argument_type = #ttcore.argument_type<input>, ttcore.shard_status = #ttcore.shard_status<presharded>, ttir.name = "args_0"}, %arg1: tensor<32x32xf32> {sdy.sharding = #sdy.sharding<@mesh, [{}, {}]>, ttcore.argument_type = #ttcore.argument_type<input>, ttcore.shard_status = #ttcore.shard_status<presharded>, ttir.name = "args_1"}) -> (tensor<32x32xf32> {ttcore.shard_status = #ttcore.shard_status<unsharded>}, tensor<32x32xf32> {ttcore.shard_status = #ttcore.shard_status<unsharded>}) {
    %cst = stablehlo.constant dense<1.000000e+00> : tensor<f32>
    %0 = stablehlo.broadcast_in_dim %cst, dims = [] : (tensor<f32>) -> tensor<32x32xf32>
    %1 = stablehlo.reshape %arg0 : (tensor<32x32xf32>) -> tensor<1x32x32xf32>
    %2 = stablehlo.reshape %1 : (tensor<1x32x32xf32>) -> tensor<32x32xf32>
    %3 = stablehlo.add %2, %0 : tensor<32x32xf32>
    %4 = stablehlo.reshape %arg1 : (tensor<32x32xf32>) -> tensor<1x32x32xf32>
    %5 = stablehlo.reshape %4 : (tensor<1x32x32xf32>) -> tensor<32x32xf32>
    %6 = stablehlo.add %5, %0 : tensor<32x32xf32>
    return %3, %6 : tensor<32x32xf32>, tensor<32x32xf32>
  }
}


// -----// IR Dump Before AnalyzeMeshPass (analyze-mesh) ('builtin.module' operation: @SyncTensorsGraph.20) //----- //
module @SyncTensorsGraph.20 attributes {mhlo.cross_program_prefetches = [], mhlo.input_output_alias = [], mhlo.is_dynamic = false, mhlo.use_auto_spmd_partitioning = false} {
  sdy.mesh @mesh = <["_axis_0"=2, "_axis_1"=4]>
  func.func @main(%arg0: tensor<32x32xf32> {sdy.sharding = #sdy.sharding<@mesh, [{}, {"_axis_1"}]>, ttcore.argument_type = #ttcore.argument_type<input>, ttcore.shard_status = #ttcore.shard_status<presharded>, ttir.name = "args_0"}, %arg1: tensor<32x32xf32> {sdy.sharding = #sdy.sharding<@mesh, [{}, {}]>, ttcore.argument_type = #ttcore.argument_type<input>, ttcore.shard_status = #ttcore.shard_status<presharded>, ttir.name = "args_1"}) -> (tensor<32x32xf32> {ttcore.shard_status = #ttcore.shard_status<unsharded>}, tensor<32x32xf32> {ttcore.shard_status = #ttcore.shard_status<unsharded>}) {
    %cst = stablehlo.constant dense<1.000000e+00> : tensor<f32>
    %0 = stablehlo.broadcast_in_dim %cst, dims = [] : (tensor<f32>) -> tensor<32x32xf32>
    %1 = stablehlo.reshape %arg0 : (tensor<32x32xf32>) -> tensor<1x32x32xf32>
    %2 = stablehlo.reshape %1 : (tensor<1x32x32xf32>) -> tensor<32x32xf32>
    %3 = stablehlo.add %2, %0 : tensor<32x32xf32>
    %4 = stablehlo.reshape %arg1 : (tensor<32x32xf32>) -> tensor<1x32x32xf32>
    %5 = stablehlo.reshape %4 : (tensor<1x32x32xf32>) -> tensor<32x32xf32>
    %6 = stablehlo.add %5, %0 : tensor<32x32xf32>
    return %3, %6 : tensor<32x32xf32>, tensor<32x32xf32>
  }
}


// -----// IR Dump Before DecoupleConstFanoutPass (decouple-const-fanout) ('builtin.module' operation: @SyncTensorsGraph.20) //----- //
module @SyncTensorsGraph.20 attributes {mhlo.cross_program_prefetches = [], mhlo.input_output_alias = [], mhlo.is_dynamic = false, mhlo.use_auto_spmd_partitioning = false} {
  sdy.mesh @mesh = <["_axis_0"=2, "_axis_1"=4]>
  func.func @main(%arg0: tensor<32x32xf32> {sdy.sharding = #sdy.sharding<@mesh, [{}, {"_axis_1"}]>, ttcore.argument_type = #ttcore.argument_type<input>, ttcore.shard_status = #ttcore.shard_status<presharded>, ttir.name = "args_0"}, %arg1: tensor<32x32xf32> {sdy.sharding = #sdy.sharding<@mesh, [{}, {}]>, ttcore.argument_type = #ttcore.argument_type<input>, ttcore.shard_status = #ttcore.shard_status<presharded>, ttir.name = "args_1"}) -> (tensor<32x32xf32> {ttcore.shard_status = #ttcore.shard_status<unsharded>}, tensor<32x32xf32> {ttcore.shard_status = #ttcore.shard_status<unsharded>}) {
    %cst = stablehlo.constant dense<1.000000e+00> : tensor<f32>
    %0 = stablehlo.broadcast_in_dim %cst, dims = [] : (tensor<f32>) -> tensor<32x32xf32>
    %1 = stablehlo.reshape %arg0 : (tensor<32x32xf32>) -> tensor<1x32x32xf32>
    %2 = stablehlo.reshape %1 : (tensor<1x32x32xf32>) -> tensor<32x32xf32>
    %3 = stablehlo.add %2, %0 : tensor<32x32xf32>
    %4 = stablehlo.reshape %arg1 : (tensor<32x32xf32>) -> tensor<1x32x32xf32>
    %5 = stablehlo.reshape %4 : (tensor<1x32x32xf32>) -> tensor<32x32xf32>
    %6 = stablehlo.add %5, %0 : tensor<32x32xf32>
    return %3, %6 : tensor<32x32xf32>, tensor<32x32xf32>
  }
}


// -----// IR Dump After DecoupleConstFanoutPass (decouple-const-fanout) ('builtin.module' operation: @SyncTensorsGraph.20) //----- //
module @SyncTensorsGraph.20 attributes {mhlo.cross_program_prefetches = [], mhlo.input_output_alias = [], mhlo.is_dynamic = false, mhlo.use_auto_spmd_partitioning = false} {
  sdy.mesh @mesh = <["_axis_0"=2, "_axis_1"=4]>
  func.func @main(%arg0: tensor<32x32xf32> {sdy.sharding = #sdy.sharding<@mesh, [{}, {"_axis_1"}]>, ttcore.argument_type = #ttcore.argument_type<input>, ttcore.shard_status = #ttcore.shard_status<presharded>, ttir.name = "args_0"}, %arg1: tensor<32x32xf32> {sdy.sharding = #sdy.sharding<@mesh, [{}, {}]>, ttcore.argument_type = #ttcore.argument_type<input>, ttcore.shard_status = #ttcore.shard_status<presharded>, ttir.name = "args_1"}) -> (tensor<32x32xf32> {ttcore.shard_status = #ttcore.shard_status<unsharded>}, tensor<32x32xf32> {ttcore.shard_status = #ttcore.shard_status<unsharded>}) {
    %cst = stablehlo.constant dense<1.000000e+00> : tensor<f32>
    %0 = stablehlo.broadcast_in_dim %cst, dims = [] : (tensor<f32>) -> tensor<32x32xf32>
    %1 = stablehlo.reshape %arg0 : (tensor<32x32xf32>) -> tensor<1x32x32xf32>
    %2 = stablehlo.reshape %1 : (tensor<1x32x32xf32>) -> tensor<32x32xf32>
    %3 = stablehlo.broadcast_in_dim %cst, dims = [] : (tensor<f32>) -> tensor<32x32xf32>
    %4 = stablehlo.add %2, %3 : tensor<32x32xf32>
    %5 = stablehlo.reshape %arg1 : (tensor<32x32xf32>) -> tensor<1x32x32xf32>
    %6 = stablehlo.reshape %5 : (tensor<1x32x32xf32>) -> tensor<32x32xf32>
    %7 = stablehlo.add %6, %0 : tensor<32x32xf32>
    return %4, %7 : tensor<32x32xf32>, tensor<32x32xf32>
  }
}


// -----// IR Dump Before FlattenCompositePass (flatten-composite) ('builtin.module' operation: @SyncTensorsGraph.20) //----- //
module @SyncTensorsGraph.20 attributes {mhlo.cross_program_prefetches = [], mhlo.input_output_alias = [], mhlo.is_dynamic = false, mhlo.use_auto_spmd_partitioning = false} {
  sdy.mesh @mesh = <["_axis_0"=2, "_axis_1"=4]>
  func.func @main(%arg0: tensor<32x32xf32> {sdy.sharding = #sdy.sharding<@mesh, [{}, {"_axis_1"}]>, ttcore.argument_type = #ttcore.argument_type<input>, ttcore.shard_status = #ttcore.shard_status<presharded>, ttir.name = "args_0"}, %arg1: tensor<32x32xf32> {sdy.sharding = #sdy.sharding<@mesh, [{}, {}]>, ttcore.argument_type = #ttcore.argument_type<input>, ttcore.shard_status = #ttcore.shard_status<presharded>, ttir.name = "args_1"}) -> (tensor<32x32xf32> {ttcore.shard_status = #ttcore.shard_status<unsharded>}, tensor<32x32xf32> {ttcore.shard_status = #ttcore.shard_status<unsharded>}) {
    %cst = stablehlo.constant dense<1.000000e+00> : tensor<f32>
    %0 = stablehlo.broadcast_in_dim %cst, dims = [] : (tensor<f32>) -> tensor<32x32xf32>
    %1 = stablehlo.reshape %arg0 : (tensor<32x32xf32>) -> tensor<1x32x32xf32>
    %2 = stablehlo.reshape %1 : (tensor<1x32x32xf32>) -> tensor<32x32xf32>
    %3 = stablehlo.broadcast_in_dim %cst, dims = [] : (tensor<f32>) -> tensor<32x32xf32>
    %4 = stablehlo.add %2, %3 : tensor<32x32xf32>
    %5 = stablehlo.reshape %arg1 : (tensor<32x32xf32>) -> tensor<1x32x32xf32>
    %6 = stablehlo.reshape %5 : (tensor<1x32x32xf32>) -> tensor<32x32xf32>
    %7 = stablehlo.add %6, %0 : tensor<32x32xf32>
    return %4, %7 : tensor<32x32xf32>, tensor<32x32xf32>
  }
}


// -----// IR Dump Before RegisterCustomShardingRulePass (register-custom-sharding-rule) ('builtin.module' operation: @SyncTensorsGraph.20) //----- //
module @SyncTensorsGraph.20 attributes {mhlo.cross_program_prefetches = [], mhlo.input_output_alias = [], mhlo.is_dynamic = false, mhlo.use_auto_spmd_partitioning = false} {
  sdy.mesh @mesh = <["_axis_0"=2, "_axis_1"=4]>
  func.func @main(%arg0: tensor<32x32xf32> {sdy.sharding = #sdy.sharding<@mesh, [{}, {"_axis_1"}]>, ttcore.argument_type = #ttcore.argument_type<input>, ttcore.shard_status = #ttcore.shard_status<presharded>, ttir.name = "args_0"}, %arg1: tensor<32x32xf32> {sdy.sharding = #sdy.sharding<@mesh, [{}, {}]>, ttcore.argument_type = #ttcore.argument_type<input>, ttcore.shard_status = #ttcore.shard_status<presharded>, ttir.name = "args_1"}) -> (tensor<32x32xf32> {ttcore.shard_status = #ttcore.shard_status<unsharded>}, tensor<32x32xf32> {ttcore.shard_status = #ttcore.shard_status<unsharded>}) {
    %cst = stablehlo.constant dense<1.000000e+00> : tensor<f32>
    %0 = stablehlo.broadcast_in_dim %cst, dims = [] : (tensor<f32>) -> tensor<32x32xf32>
    %1 = stablehlo.reshape %arg0 : (tensor<32x32xf32>) -> tensor<1x32x32xf32>
    %2 = stablehlo.reshape %1 : (tensor<1x32x32xf32>) -> tensor<32x32xf32>
    %3 = stablehlo.broadcast_in_dim %cst, dims = [] : (tensor<f32>) -> tensor<32x32xf32>
    %4 = stablehlo.add %2, %3 : tensor<32x32xf32>
    %5 = stablehlo.reshape %arg1 : (tensor<32x32xf32>) -> tensor<1x32x32xf32>
    %6 = stablehlo.reshape %5 : (tensor<1x32x32xf32>) -> tensor<32x32xf32>
    %7 = stablehlo.add %6, %0 : tensor<32x32xf32>
    return %4, %7 : tensor<32x32xf32>, tensor<32x32xf32>
  }
}


// -----// IR Dump Before ApplyShardingConstraintsPass (sdy-apply-sharding-constraints) ('builtin.module' operation: @SyncTensorsGraph.20) //----- //
module @SyncTensorsGraph.20 attributes {mhlo.cross_program_prefetches = [], mhlo.input_output_alias = [], mhlo.is_dynamic = false, mhlo.use_auto_spmd_partitioning = false} {
  sdy.mesh @mesh = <["_axis_0"=2, "_axis_1"=4]>
  func.func @main(%arg0: tensor<32x32xf32> {sdy.sharding = #sdy.sharding<@mesh, [{}, {"_axis_1"}]>, ttcore.argument_type = #ttcore.argument_type<input>, ttcore.shard_status = #ttcore.shard_status<presharded>, ttir.name = "args_0"}, %arg1: tensor<32x32xf32> {sdy.sharding = #sdy.sharding<@mesh, [{}, {}]>, ttcore.argument_type = #ttcore.argument_type<input>, ttcore.shard_status = #ttcore.shard_status<presharded>, ttir.name = "args_1"}) -> (tensor<32x32xf32> {ttcore.shard_status = #ttcore.shard_status<unsharded>}, tensor<32x32xf32> {ttcore.shard_status = #ttcore.shard_status<unsharded>}) {
    %cst = stablehlo.constant dense<1.000000e+00> : tensor<f32>
    %0 = stablehlo.broadcast_in_dim %cst, dims = [] : (tensor<f32>) -> tensor<32x32xf32>
    %1 = stablehlo.reshape %arg0 : (tensor<32x32xf32>) -> tensor<1x32x32xf32>
    %2 = stablehlo.reshape %1 : (tensor<1x32x32xf32>) -> tensor<32x32xf32>
    %3 = stablehlo.broadcast_in_dim %cst, dims = [] : (tensor<f32>) -> tensor<32x32xf32>
    %4 = stablehlo.add %2, %3 : tensor<32x32xf32>
    %5 = stablehlo.reshape %arg1 : (tensor<32x32xf32>) -> tensor<1x32x32xf32>
    %6 = stablehlo.reshape %5 : (tensor<1x32x32xf32>) -> tensor<32x32xf32>
    %7 = stablehlo.add %6, %0 : tensor<32x32xf32>
    return %4, %7 : tensor<32x32xf32>, tensor<32x32xf32>
  }
}


// -----// IR Dump Before UserPriorityPropagationPass (sdy-user-priority-propagate) ('builtin.module' operation: @SyncTensorsGraph.20) //----- //
module @SyncTensorsGraph.20 attributes {mhlo.cross_program_prefetches = [], mhlo.input_output_alias = [], mhlo.is_dynamic = false, mhlo.use_auto_spmd_partitioning = false} {
  sdy.mesh @mesh = <["_axis_0"=2, "_axis_1"=4]>
  func.func @main(%arg0: tensor<32x32xf32> {sdy.sharding = #sdy.sharding<@mesh, [{}, {"_axis_1"}]>, ttcore.argument_type = #ttcore.argument_type<input>, ttcore.shard_status = #ttcore.shard_status<presharded>, ttir.name = "args_0"}, %arg1: tensor<32x32xf32> {sdy.sharding = #sdy.sharding<@mesh, [{}, {}]>, ttcore.argument_type = #ttcore.argument_type<input>, ttcore.shard_status = #ttcore.shard_status<presharded>, ttir.name = "args_1"}) -> (tensor<32x32xf32> {ttcore.shard_status = #ttcore.shard_status<unsharded>}, tensor<32x32xf32> {ttcore.shard_status = #ttcore.shard_status<unsharded>}) {
    %cst = stablehlo.constant dense<1.000000e+00> : tensor<f32>
    %0 = stablehlo.broadcast_in_dim %cst, dims = [] : (tensor<f32>) -> tensor<32x32xf32>
    %1 = stablehlo.reshape %arg0 : (tensor<32x32xf32>) -> tensor<1x32x32xf32>
    %2 = stablehlo.reshape %1 : (tensor<1x32x32xf32>) -> tensor<32x32xf32>
    %3 = stablehlo.broadcast_in_dim %cst, dims = [] : (tensor<f32>) -> tensor<32x32xf32>
    %4 = stablehlo.add %2, %3 : tensor<32x32xf32>
    %5 = stablehlo.reshape %arg1 : (tensor<32x32xf32>) -> tensor<1x32x32xf32>
    %6 = stablehlo.reshape %5 : (tensor<1x32x32xf32>) -> tensor<32x32xf32>
    %7 = stablehlo.add %6, %0 : tensor<32x32xf32>
    return %4, %7 : tensor<32x32xf32>, tensor<32x32xf32>
  }
}


// -----// IR Dump After UserPriorityPropagationPass (sdy-user-priority-propagate) ('builtin.module' operation: @SyncTensorsGraph.20) //----- //
module @SyncTensorsGraph.20 attributes {mhlo.cross_program_prefetches = [], mhlo.input_output_alias = [], mhlo.is_dynamic = false, mhlo.use_auto_spmd_partitioning = false} {
  sdy.mesh @mesh = <["_axis_0"=2, "_axis_1"=4]>
  func.func @main(%arg0: tensor<32x32xf32> {sdy.sharding = #sdy.sharding<@mesh, [{}, {"_axis_1"}]>, ttcore.argument_type = #ttcore.argument_type<input>, ttcore.shard_status = #ttcore.shard_status<presharded>, ttir.name = "args_0"}, %arg1: tensor<32x32xf32> {sdy.sharding = #sdy.sharding<@mesh, [{}, {}]>, ttcore.argument_type = #ttcore.argument_type<input>, ttcore.shard_status = #ttcore.shard_status<presharded>, ttir.name = "args_1"}) -> (tensor<32x32xf32> {sdy.sharding = #sdy.sharding<@mesh, [{?}, {"_axis_1", ?}]>, ttcore.shard_status = #ttcore.shard_status<unsharded>}, tensor<32x32xf32> {ttcore.shard_status = #ttcore.shard_status<unsharded>}) {
    %cst = stablehlo.constant dense<1.000000e+00> : tensor<f32>
    %0 = stablehlo.broadcast_in_dim %cst, dims = [] : (tensor<f32>) -> tensor<32x32xf32>
    %1 = stablehlo.reshape %arg0 {sdy.sharding = #sdy.sharding_per_value<[<@mesh, [{?}, {?}, {"_axis_1", ?}]>]>} : (tensor<32x32xf32>) -> tensor<1x32x32xf32>
    %2 = stablehlo.reshape %1 {sdy.sharding = #sdy.sharding_per_value<[<@mesh, [{?}, {"_axis_1", ?}]>]>} : (tensor<1x32x32xf32>) -> tensor<32x32xf32>
    %3 = stablehlo.broadcast_in_dim %cst, dims = [] {sdy.sharding = #sdy.sharding_per_value<[<@mesh, [{?}, {"_axis_1", ?}]>]>} : (tensor<f32>) -> tensor<32x32xf32>
    %4 = stablehlo.add %2, %3 {sdy.sharding = #sdy.sharding_per_value<[<@mesh, [{?}, {"_axis_1", ?}]>]>} : tensor<32x32xf32>
    %5 = stablehlo.reshape %arg1 : (tensor<32x32xf32>) -> tensor<1x32x32xf32>
    %6 = stablehlo.reshape %5 : (tensor<1x32x32xf32>) -> tensor<32x32xf32>
    %7 = stablehlo.add %6, %0 : tensor<32x32xf32>
    return %4, %7 : tensor<32x32xf32>, tensor<32x32xf32>
  }
}


// -----// IR Dump Before ShardingConstraintToReshardPass (sdy-sharding-constraint-to-reshard) ('func.func' operation: @main) //----- //
module @SyncTensorsGraph.20 attributes {mhlo.cross_program_prefetches = [], mhlo.input_output_alias = [], mhlo.is_dynamic = false, mhlo.use_auto_spmd_partitioning = false} {
  sdy.mesh @mesh = <["_axis_0"=2, "_axis_1"=4]>
  func.func @main(%arg0: tensor<32x32xf32> {sdy.sharding = #sdy.sharding<@mesh, [{}, {"_axis_1"}]>, ttcore.argument_type = #ttcore.argument_type<input>, ttcore.shard_status = #ttcore.shard_status<presharded>, ttir.name = "args_0"}, %arg1: tensor<32x32xf32> {sdy.sharding = #sdy.sharding<@mesh, [{}, {}]>, ttcore.argument_type = #ttcore.argument_type<input>, ttcore.shard_status = #ttcore.shard_status<presharded>, ttir.name = "args_1"}) -> (tensor<32x32xf32> {sdy.sharding = #sdy.sharding<@mesh, [{?}, {"_axis_1", ?}]>, ttcore.shard_status = #ttcore.shard_status<unsharded>}, tensor<32x32xf32> {ttcore.shard_status = #ttcore.shard_status<unsharded>}) {
    %cst = stablehlo.constant dense<1.000000e+00> : tensor<f32>
    %0 = stablehlo.broadcast_in_dim %cst, dims = [] : (tensor<f32>) -> tensor<32x32xf32>
    %1 = stablehlo.reshape %arg0 {sdy.sharding = #sdy.sharding_per_value<[<@mesh, [{?}, {?}, {"_axis_1", ?}]>]>} : (tensor<32x32xf32>) -> tensor<1x32x32xf32>
    %2 = stablehlo.reshape %1 {sdy.sharding = #sdy.sharding_per_value<[<@mesh, [{?}, {"_axis_1", ?}]>]>} : (tensor<1x32x32xf32>) -> tensor<32x32xf32>
    %3 = stablehlo.broadcast_in_dim %cst, dims = [] {sdy.sharding = #sdy.sharding_per_value<[<@mesh, [{?}, {"_axis_1", ?}]>]>} : (tensor<f32>) -> tensor<32x32xf32>
    %4 = stablehlo.add %2, %3 {sdy.sharding = #sdy.sharding_per_value<[<@mesh, [{?}, {"_axis_1", ?}]>]>} : tensor<32x32xf32>
    %5 = stablehlo.reshape %arg1 : (tensor<32x32xf32>) -> tensor<1x32x32xf32>
    %6 = stablehlo.reshape %5 : (tensor<1x32x32xf32>) -> tensor<32x32xf32>
    %7 = stablehlo.add %6, %0 : tensor<32x32xf32>
    return %4, %7 : tensor<32x32xf32>, tensor<32x32xf32>
  }
}


// -----// IR Dump Before InsertExplicitReshardsPass (insert-explicit-reshards) ('builtin.module' operation: @SyncTensorsGraph.20) //----- //
module @SyncTensorsGraph.20 attributes {mhlo.cross_program_prefetches = [], mhlo.input_output_alias = [], mhlo.is_dynamic = false, mhlo.use_auto_spmd_partitioning = false} {
  sdy.mesh @mesh = <["_axis_0"=2, "_axis_1"=4]>
  func.func @main(%arg0: tensor<32x32xf32> {sdy.sharding = #sdy.sharding<@mesh, [{}, {"_axis_1"}]>, ttcore.argument_type = #ttcore.argument_type<input>, ttcore.shard_status = #ttcore.shard_status<presharded>, ttir.name = "args_0"}, %arg1: tensor<32x32xf32> {sdy.sharding = #sdy.sharding<@mesh, [{}, {}]>, ttcore.argument_type = #ttcore.argument_type<input>, ttcore.shard_status = #ttcore.shard_status<presharded>, ttir.name = "args_1"}) -> (tensor<32x32xf32> {sdy.sharding = #sdy.sharding<@mesh, [{?}, {"_axis_1", ?}]>, ttcore.shard_status = #ttcore.shard_status<unsharded>}, tensor<32x32xf32> {ttcore.shard_status = #ttcore.shard_status<unsharded>}) {
    %cst = stablehlo.constant dense<1.000000e+00> : tensor<f32>
    %0 = stablehlo.broadcast_in_dim %cst, dims = [] : (tensor<f32>) -> tensor<32x32xf32>
    %1 = stablehlo.reshape %arg0 {sdy.sharding = #sdy.sharding_per_value<[<@mesh, [{?}, {?}, {"_axis_1", ?}]>]>} : (tensor<32x32xf32>) -> tensor<1x32x32xf32>
    %2 = stablehlo.reshape %1 {sdy.sharding = #sdy.sharding_per_value<[<@mesh, [{?}, {"_axis_1", ?}]>]>} : (tensor<1x32x32xf32>) -> tensor<32x32xf32>
    %3 = stablehlo.broadcast_in_dim %cst, dims = [] {sdy.sharding = #sdy.sharding_per_value<[<@mesh, [{?}, {"_axis_1", ?}]>]>} : (tensor<f32>) -> tensor<32x32xf32>
    %4 = stablehlo.add %2, %3 {sdy.sharding = #sdy.sharding_per_value<[<@mesh, [{?}, {"_axis_1", ?}]>]>} : tensor<32x32xf32>
    %5 = stablehlo.reshape %arg1 : (tensor<32x32xf32>) -> tensor<1x32x32xf32>
    %6 = stablehlo.reshape %5 : (tensor<1x32x32xf32>) -> tensor<32x32xf32>
    %7 = stablehlo.add %6, %0 : tensor<32x32xf32>
    return %4, %7 : tensor<32x32xf32>, tensor<32x32xf32>
  }
}


// -----// IR Dump Before WrapUnderManualComputationPass (wrap-under-manual-computation) ('builtin.module' operation: @SyncTensorsGraph.20) //----- //
module @SyncTensorsGraph.20 attributes {mhlo.cross_program_prefetches = [], mhlo.input_output_alias = [], mhlo.is_dynamic = false, mhlo.use_auto_spmd_partitioning = false} {
  sdy.mesh @mesh = <["_axis_0"=2, "_axis_1"=4]>
  func.func @main(%arg0: tensor<32x32xf32> {sdy.sharding = #sdy.sharding<@mesh, [{}, {"_axis_1"}]>, ttcore.argument_type = #ttcore.argument_type<input>, ttcore.shard_status = #ttcore.shard_status<presharded>, ttir.name = "args_0"}, %arg1: tensor<32x32xf32> {sdy.sharding = #sdy.sharding<@mesh, [{}, {}]>, ttcore.argument_type = #ttcore.argument_type<input>, ttcore.shard_status = #ttcore.shard_status<presharded>, ttir.name = "args_1"}) -> (tensor<32x32xf32> {sdy.sharding = #sdy.sharding<@mesh, [{?}, {"_axis_1", ?}]>, ttcore.shard_status = #ttcore.shard_status<unsharded>}, tensor<32x32xf32> {ttcore.shard_status = #ttcore.shard_status<unsharded>}) {
    %cst = stablehlo.constant dense<1.000000e+00> : tensor<f32>
    %0 = stablehlo.broadcast_in_dim %cst, dims = [] : (tensor<f32>) -> tensor<32x32xf32>
    %1 = stablehlo.reshape %arg0 {sdy.sharding = #sdy.sharding_per_value<[<@mesh, [{?}, {?}, {"_axis_1", ?}]>]>} : (tensor<32x32xf32>) -> tensor<1x32x32xf32>
    %2 = stablehlo.reshape %1 {sdy.sharding = #sdy.sharding_per_value<[<@mesh, [{?}, {"_axis_1", ?}]>]>} : (tensor<1x32x32xf32>) -> tensor<32x32xf32>
    %3 = stablehlo.broadcast_in_dim %cst, dims = [] {sdy.sharding = #sdy.sharding_per_value<[<@mesh, [{?}, {"_axis_1", ?}]>]>} : (tensor<f32>) -> tensor<32x32xf32>
    %4 = stablehlo.add %2, %3 {sdy.sharding = #sdy.sharding_per_value<[<@mesh, [{?}, {"_axis_1", ?}]>]>} : tensor<32x32xf32>
    %5 = stablehlo.reshape %arg1 : (tensor<32x32xf32>) -> tensor<1x32x32xf32>
    %6 = stablehlo.reshape %5 : (tensor<1x32x32xf32>) -> tensor<32x32xf32>
    %7 = stablehlo.add %6, %0 : tensor<32x32xf32>
    return %4, %7 : tensor<32x32xf32>, tensor<32x32xf32>
  }
}


// -----// IR Dump After WrapUnderManualComputationPass (wrap-under-manual-computation) ('builtin.module' operation: @SyncTensorsGraph.20) //----- //
module @SyncTensorsGraph.20 attributes {mhlo.cross_program_prefetches = [], mhlo.input_output_alias = [], mhlo.is_dynamic = false, mhlo.use_auto_spmd_partitioning = false} {
  sdy.mesh @mesh = <["_axis_0"=2, "_axis_1"=4]>
  func.func @main(%arg0: tensor<32x32xf32> {sdy.sharding = #sdy.sharding<@mesh, [{}, {"_axis_1"}]>, ttcore.argument_type = #ttcore.argument_type<input>, ttcore.shard_status = #ttcore.shard_status<presharded>, ttir.name = "args_0"}, %arg1: tensor<32x32xf32> {sdy.sharding = #sdy.sharding<@mesh, [{}, {}]>, ttcore.argument_type = #ttcore.argument_type<input>, ttcore.shard_status = #ttcore.shard_status<presharded>, ttir.name = "args_1"}) -> (tensor<32x32xf32> {sdy.sharding = #sdy.sharding<@mesh, [{?}, {"_axis_1", ?}]>, ttcore.shard_status = #ttcore.shard_status<unsharded>}, tensor<32x32xf32> {ttcore.shard_status = #ttcore.shard_status<unsharded>}) {
    %0:2 = sdy.manual_computation(%arg0, %arg1) in_shardings=[<@mesh, [{}, {"_axis_1"}]>, <@mesh, [{}, {}]>] out_shardings=[<@mesh, [{?}, {"_axis_1", ?}]>, <@mesh, [{?}, {?}]>] manual_axes={} (%arg2: tensor<32x32xf32>, %arg3: tensor<32x32xf32>) {
      %cst = stablehlo.constant dense<1.000000e+00> : tensor<f32>
      %1 = stablehlo.broadcast_in_dim %cst, dims = [] : (tensor<f32>) -> tensor<32x32xf32>
      %2 = stablehlo.reshape %arg2 {sdy.sharding = #sdy.sharding_per_value<[<@mesh, [{?}, {?}, {"_axis_1", ?}]>]>} : (tensor<32x32xf32>) -> tensor<1x32x32xf32>
      %3 = stablehlo.reshape %2 {sdy.sharding = #sdy.sharding_per_value<[<@mesh, [{?}, {"_axis_1", ?}]>]>} : (tensor<1x32x32xf32>) -> tensor<32x32xf32>
      %4 = stablehlo.broadcast_in_dim %cst, dims = [] {sdy.sharding = #sdy.sharding_per_value<[<@mesh, [{?}, {"_axis_1", ?}]>]>} : (tensor<f32>) -> tensor<32x32xf32>
      %5 = stablehlo.add %3, %4 {sdy.sharding = #sdy.sharding_per_value<[<@mesh, [{?}, {"_axis_1", ?}]>]>} : tensor<32x32xf32>
      %6 = stablehlo.reshape %arg3 : (tensor<32x32xf32>) -> tensor<1x32x32xf32>
      %7 = stablehlo.reshape %6 : (tensor<1x32x32xf32>) -> tensor<32x32xf32>
      %8 = stablehlo.add %7, %1 : tensor<32x32xf32>
      sdy.return %5, %8 : tensor<32x32xf32>, tensor<32x32xf32>
    } : (tensor<32x32xf32>, tensor<32x32xf32>) -> (tensor<32x32xf32>, tensor<32x32xf32>)
    return %0#0, %0#1 : tensor<32x32xf32>, tensor<32x32xf32>
  }
}


// -----// IR Dump Before ReshardToCollectivesPass (sdy-reshard-to-collectives) ('func.func' operation: @main) //----- //
module @SyncTensorsGraph.20 attributes {mhlo.cross_program_prefetches = [], mhlo.input_output_alias = [], mhlo.is_dynamic = false, mhlo.use_auto_spmd_partitioning = false} {
  sdy.mesh @mesh = <["_axis_0"=2, "_axis_1"=4]>
  func.func @main(%arg0: tensor<32x32xf32> {sdy.sharding = #sdy.sharding<@mesh, [{}, {"_axis_1"}]>, ttcore.argument_type = #ttcore.argument_type<input>, ttcore.shard_status = #ttcore.shard_status<presharded>, ttir.name = "args_0"}, %arg1: tensor<32x32xf32> {sdy.sharding = #sdy.sharding<@mesh, [{}, {}]>, ttcore.argument_type = #ttcore.argument_type<input>, ttcore.shard_status = #ttcore.shard_status<presharded>, ttir.name = "args_1"}) -> (tensor<32x32xf32> {sdy.sharding = #sdy.sharding<@mesh, [{?}, {"_axis_1", ?}]>, ttcore.shard_status = #ttcore.shard_status<unsharded>}, tensor<32x32xf32> {ttcore.shard_status = #ttcore.shard_status<unsharded>}) {
    %0:2 = sdy.manual_computation(%arg0, %arg1) in_shardings=[<@mesh, [{}, {"_axis_1"}]>, <@mesh, [{}, {}]>] out_shardings=[<@mesh, [{?}, {"_axis_1", ?}]>, <@mesh, [{?}, {?}]>] manual_axes={} (%arg2: tensor<32x32xf32>, %arg3: tensor<32x32xf32>) {
      %cst = stablehlo.constant dense<1.000000e+00> : tensor<f32>
      %1 = stablehlo.broadcast_in_dim %cst, dims = [] : (tensor<f32>) -> tensor<32x32xf32>
      %2 = stablehlo.reshape %arg2 {sdy.sharding = #sdy.sharding_per_value<[<@mesh, [{?}, {?}, {"_axis_1", ?}]>]>} : (tensor<32x32xf32>) -> tensor<1x32x32xf32>
      %3 = stablehlo.reshape %2 {sdy.sharding = #sdy.sharding_per_value<[<@mesh, [{?}, {"_axis_1", ?}]>]>} : (tensor<1x32x32xf32>) -> tensor<32x32xf32>
      %4 = stablehlo.broadcast_in_dim %cst, dims = [] {sdy.sharding = #sdy.sharding_per_value<[<@mesh, [{?}, {"_axis_1", ?}]>]>} : (tensor<f32>) -> tensor<32x32xf32>
      %5 = stablehlo.add %3, %4 {sdy.sharding = #sdy.sharding_per_value<[<@mesh, [{?}, {"_axis_1", ?}]>]>} : tensor<32x32xf32>
      %6 = stablehlo.reshape %arg3 : (tensor<32x32xf32>) -> tensor<1x32x32xf32>
      %7 = stablehlo.reshape %6 : (tensor<1x32x32xf32>) -> tensor<32x32xf32>
      %8 = stablehlo.add %7, %1 : tensor<32x32xf32>
      sdy.return %5, %8 : tensor<32x32xf32>, tensor<32x32xf32>
    } : (tensor<32x32xf32>, tensor<32x32xf32>) -> (tensor<32x32xf32>, tensor<32x32xf32>)
    return %0#0, %0#1 : tensor<32x32xf32>, tensor<32x32xf32>
  }
}


// -----// IR Dump Before UpdateGlobalToLocalShapesPass (update-global-to-local-shapes) ('builtin.module' operation: @SyncTensorsGraph.20) //----- //
module @SyncTensorsGraph.20 attributes {mhlo.cross_program_prefetches = [], mhlo.input_output_alias = [], mhlo.is_dynamic = false, mhlo.use_auto_spmd_partitioning = false} {
  sdy.mesh @mesh = <["_axis_0"=2, "_axis_1"=4]>
  func.func @main(%arg0: tensor<32x32xf32> {sdy.sharding = #sdy.sharding<@mesh, [{}, {"_axis_1"}]>, ttcore.argument_type = #ttcore.argument_type<input>, ttcore.shard_status = #ttcore.shard_status<presharded>, ttir.name = "args_0"}, %arg1: tensor<32x32xf32> {sdy.sharding = #sdy.sharding<@mesh, [{}, {}]>, ttcore.argument_type = #ttcore.argument_type<input>, ttcore.shard_status = #ttcore.shard_status<presharded>, ttir.name = "args_1"}) -> (tensor<32x32xf32> {sdy.sharding = #sdy.sharding<@mesh, [{?}, {"_axis_1", ?}]>, ttcore.shard_status = #ttcore.shard_status<unsharded>}, tensor<32x32xf32> {ttcore.shard_status = #ttcore.shard_status<unsharded>}) {
    %0:2 = sdy.manual_computation(%arg0, %arg1) in_shardings=[<@mesh, [{}, {"_axis_1"}]>, <@mesh, [{}, {}]>] out_shardings=[<@mesh, [{?}, {"_axis_1", ?}]>, <@mesh, [{?}, {?}]>] manual_axes={} (%arg2: tensor<32x32xf32>, %arg3: tensor<32x32xf32>) {
      %cst = stablehlo.constant dense<1.000000e+00> : tensor<f32>
      %1 = stablehlo.broadcast_in_dim %cst, dims = [] : (tensor<f32>) -> tensor<32x32xf32>
      %2 = stablehlo.reshape %arg2 {sdy.sharding = #sdy.sharding_per_value<[<@mesh, [{?}, {?}, {"_axis_1", ?}]>]>} : (tensor<32x32xf32>) -> tensor<1x32x32xf32>
      %3 = stablehlo.reshape %2 {sdy.sharding = #sdy.sharding_per_value<[<@mesh, [{?}, {"_axis_1", ?}]>]>} : (tensor<1x32x32xf32>) -> tensor<32x32xf32>
      %4 = stablehlo.broadcast_in_dim %cst, dims = [] {sdy.sharding = #sdy.sharding_per_value<[<@mesh, [{?}, {"_axis_1", ?}]>]>} : (tensor<f32>) -> tensor<32x32xf32>
      %5 = stablehlo.add %3, %4 {sdy.sharding = #sdy.sharding_per_value<[<@mesh, [{?}, {"_axis_1", ?}]>]>} : tensor<32x32xf32>
      %6 = stablehlo.reshape %arg3 : (tensor<32x32xf32>) -> tensor<1x32x32xf32>
      %7 = stablehlo.reshape %6 : (tensor<1x32x32xf32>) -> tensor<32x32xf32>
      %8 = stablehlo.add %7, %1 : tensor<32x32xf32>
      sdy.return %5, %8 : tensor<32x32xf32>, tensor<32x32xf32>
    } : (tensor<32x32xf32>, tensor<32x32xf32>) -> (tensor<32x32xf32>, tensor<32x32xf32>)
    return %0#0, %0#1 : tensor<32x32xf32>, tensor<32x32xf32>
  }
}


// -----// IR Dump After UpdateGlobalToLocalShapesPass (update-global-to-local-shapes) ('builtin.module' operation: @SyncTensorsGraph.20) //----- //
module @SyncTensorsGraph.20 attributes {mhlo.cross_program_prefetches = [], mhlo.input_output_alias = [], mhlo.is_dynamic = false, mhlo.use_auto_spmd_partitioning = false} {
  sdy.mesh @mesh = <["_axis_0"=2, "_axis_1"=4]>
  func.func @main(%arg0: tensor<32x32xf32> {ttcore.argument_type = #ttcore.argument_type<input>, ttcore.shard_status = #ttcore.shard_status<presharded>, ttir.name = "args_0"}, %arg1: tensor<32x32xf32> {ttcore.argument_type = #ttcore.argument_type<input>, ttcore.shard_status = #ttcore.shard_status<presharded>, ttir.name = "args_1"}) -> (tensor<32x32xf32> {ttcore.shard_status = #ttcore.shard_status<unsharded>}, tensor<32x32xf32> {ttcore.shard_status = #ttcore.shard_status<unsharded>}) {
    %0:2 = sdy.manual_computation(%arg0, %arg1) in_shardings=[<@mesh, [{}, {"_axis_1"}]>, <@mesh, [{}, {}]>] out_shardings=[<@mesh, [{?}, {"_axis_1", ?}]>, <@mesh, [{?}, {?}]>] manual_axes={"_axis_0", "_axis_1"} (%arg2: tensor<32x8xf32>, %arg3: tensor<32x32xf32>) {
      %cst = stablehlo.constant dense<1.000000e+00> : tensor<f32>
      %1 = stablehlo.broadcast_in_dim %cst, dims = [] : (tensor<f32>) -> tensor<32x32xf32>
      %2 = stablehlo.reshape %arg2 : (tensor<32x8xf32>) -> tensor<1x32x8xf32>
      %3 = stablehlo.reshape %2 : (tensor<1x32x8xf32>) -> tensor<32x8xf32>
      %4 = stablehlo.broadcast_in_dim %cst, dims = [] : (tensor<f32>) -> tensor<32x8xf32>
      %5 = stablehlo.add %3, %4 : tensor<32x8xf32>
      %6 = stablehlo.reshape %arg3 : (tensor<32x32xf32>) -> tensor<1x32x32xf32>
      %7 = stablehlo.reshape %6 : (tensor<1x32x32xf32>) -> tensor<32x32xf32>
      %8 = stablehlo.add %7, %1 : tensor<32x32xf32>
      sdy.return %5, %8 : tensor<32x8xf32>, tensor<32x32xf32>
    } : (tensor<32x32xf32>, tensor<32x32xf32>) -> (tensor<32x32xf32>, tensor<32x32xf32>)
    return %0#0, %0#1 : tensor<32x32xf32>, tensor<32x32xf32>
  }
}


// -----// IR Dump Before ReoutlineCompositePass (reoutline-composite) ('builtin.module' operation: @SyncTensorsGraph.20) //----- //
module @SyncTensorsGraph.20 attributes {mhlo.cross_program_prefetches = [], mhlo.input_output_alias = [], mhlo.is_dynamic = false, mhlo.use_auto_spmd_partitioning = false} {
  sdy.mesh @mesh = <["_axis_0"=2, "_axis_1"=4]>
  func.func @main(%arg0: tensor<32x32xf32> {ttcore.argument_type = #ttcore.argument_type<input>, ttcore.shard_status = #ttcore.shard_status<presharded>, ttir.name = "args_0"}, %arg1: tensor<32x32xf32> {ttcore.argument_type = #ttcore.argument_type<input>, ttcore.shard_status = #ttcore.shard_status<presharded>, ttir.name = "args_1"}) -> (tensor<32x32xf32> {ttcore.shard_status = #ttcore.shard_status<unsharded>}, tensor<32x32xf32> {ttcore.shard_status = #ttcore.shard_status<unsharded>}) {
    %0:2 = sdy.manual_computation(%arg0, %arg1) in_shardings=[<@mesh, [{}, {"_axis_1"}]>, <@mesh, [{}, {}]>] out_shardings=[<@mesh, [{?}, {"_axis_1", ?}]>, <@mesh, [{?}, {?}]>] manual_axes={"_axis_0", "_axis_1"} (%arg2: tensor<32x8xf32>, %arg3: tensor<32x32xf32>) {
      %cst = stablehlo.constant dense<1.000000e+00> : tensor<f32>
      %1 = stablehlo.broadcast_in_dim %cst, dims = [] : (tensor<f32>) -> tensor<32x32xf32>
      %2 = stablehlo.reshape %arg2 : (tensor<32x8xf32>) -> tensor<1x32x8xf32>
      %3 = stablehlo.reshape %2 : (tensor<1x32x8xf32>) -> tensor<32x8xf32>
      %4 = stablehlo.broadcast_in_dim %cst, dims = [] : (tensor<f32>) -> tensor<32x8xf32>
      %5 = stablehlo.add %3, %4 : tensor<32x8xf32>
      %6 = stablehlo.reshape %arg3 : (tensor<32x32xf32>) -> tensor<1x32x32xf32>
      %7 = stablehlo.reshape %6 : (tensor<1x32x32xf32>) -> tensor<32x32xf32>
      %8 = stablehlo.add %7, %1 : tensor<32x32xf32>
      sdy.return %5, %8 : tensor<32x8xf32>, tensor<32x32xf32>
    } : (tensor<32x32xf32>, tensor<32x32xf32>) -> (tensor<32x32xf32>, tensor<32x32xf32>)
    return %0#0, %0#1 : tensor<32x32xf32>, tensor<32x32xf32>
  }
}


// -----// IR Dump Before CloseShardingsPass (sdy-close-shardings) ('builtin.module' operation: @SyncTensorsGraph.20) //----- //
module @SyncTensorsGraph.20 attributes {mhlo.cross_program_prefetches = [], mhlo.input_output_alias = [], mhlo.is_dynamic = false, mhlo.use_auto_spmd_partitioning = false} {
  sdy.mesh @mesh = <["_axis_0"=2, "_axis_1"=4]>
  func.func @main(%arg0: tensor<32x32xf32> {ttcore.argument_type = #ttcore.argument_type<input>, ttcore.shard_status = #ttcore.shard_status<presharded>, ttir.name = "args_0"}, %arg1: tensor<32x32xf32> {ttcore.argument_type = #ttcore.argument_type<input>, ttcore.shard_status = #ttcore.shard_status<presharded>, ttir.name = "args_1"}) -> (tensor<32x32xf32> {ttcore.shard_status = #ttcore.shard_status<unsharded>}, tensor<32x32xf32> {ttcore.shard_status = #ttcore.shard_status<unsharded>}) {
    %0:2 = sdy.manual_computation(%arg0, %arg1) in_shardings=[<@mesh, [{}, {"_axis_1"}]>, <@mesh, [{}, {}]>] out_shardings=[<@mesh, [{?}, {"_axis_1", ?}]>, <@mesh, [{?}, {?}]>] manual_axes={"_axis_0", "_axis_1"} (%arg2: tensor<32x8xf32>, %arg3: tensor<32x32xf32>) {
      %cst = stablehlo.constant dense<1.000000e+00> : tensor<f32>
      %1 = stablehlo.broadcast_in_dim %cst, dims = [] : (tensor<f32>) -> tensor<32x32xf32>
      %2 = stablehlo.reshape %arg2 : (tensor<32x8xf32>) -> tensor<1x32x8xf32>
      %3 = stablehlo.reshape %2 : (tensor<1x32x8xf32>) -> tensor<32x8xf32>
      %4 = stablehlo.broadcast_in_dim %cst, dims = [] : (tensor<f32>) -> tensor<32x8xf32>
      %5 = stablehlo.add %3, %4 : tensor<32x8xf32>
      %6 = stablehlo.reshape %arg3 : (tensor<32x32xf32>) -> tensor<1x32x32xf32>
      %7 = stablehlo.reshape %6 : (tensor<1x32x32xf32>) -> tensor<32x32xf32>
      %8 = stablehlo.add %7, %1 : tensor<32x32xf32>
      sdy.return %5, %8 : tensor<32x8xf32>, tensor<32x32xf32>
    } : (tensor<32x32xf32>, tensor<32x32xf32>) -> (tensor<32x32xf32>, tensor<32x32xf32>)
    return %0#0, %0#1 : tensor<32x32xf32>, tensor<32x32xf32>
  }
}


// -----// IR Dump After CloseShardingsPass (sdy-close-shardings) ('builtin.module' operation: @SyncTensorsGraph.20) //----- //
module @SyncTensorsGraph.20 attributes {mhlo.cross_program_prefetches = [], mhlo.input_output_alias = [], mhlo.is_dynamic = false, mhlo.use_auto_spmd_partitioning = false} {
  sdy.mesh @mesh = <["_axis_0"=2, "_axis_1"=4]>
  func.func @main(%arg0: tensor<32x32xf32> {ttcore.argument_type = #ttcore.argument_type<input>, ttcore.shard_status = #ttcore.shard_status<presharded>, ttir.name = "args_0"}, %arg1: tensor<32x32xf32> {ttcore.argument_type = #ttcore.argument_type<input>, ttcore.shard_status = #ttcore.shard_status<presharded>, ttir.name = "args_1"}) -> (tensor<32x32xf32> {ttcore.shard_status = #ttcore.shard_status<unsharded>}, tensor<32x32xf32> {ttcore.shard_status = #ttcore.shard_status<unsharded>}) {
    %0:2 = sdy.manual_computation(%arg0, %arg1) in_shardings=[<@mesh, [{}, {"_axis_1"}]>, <@mesh, [{}, {}]>] out_shardings=[<@mesh, [{}, {"_axis_1"}]>, <@mesh, [{}, {}]>] manual_axes={"_axis_0", "_axis_1"} (%arg2: tensor<32x8xf32>, %arg3: tensor<32x32xf32>) {
      %cst = stablehlo.constant dense<1.000000e+00> : tensor<f32>
      %1 = stablehlo.broadcast_in_dim %cst, dims = [] : (tensor<f32>) -> tensor<32x32xf32>
      %2 = stablehlo.reshape %arg2 : (tensor<32x8xf32>) -> tensor<1x32x8xf32>
      %3 = stablehlo.reshape %2 : (tensor<1x32x8xf32>) -> tensor<32x8xf32>
      %4 = stablehlo.broadcast_in_dim %cst, dims = [] : (tensor<f32>) -> tensor<32x8xf32>
      %5 = stablehlo.add %3, %4 : tensor<32x8xf32>
      %6 = stablehlo.reshape %arg3 : (tensor<32x32xf32>) -> tensor<1x32x32xf32>
      %7 = stablehlo.reshape %6 : (tensor<1x32x32xf32>) -> tensor<32x32xf32>
      %8 = stablehlo.add %7, %1 : tensor<32x32xf32>
      sdy.return %5, %8 : tensor<32x8xf32>, tensor<32x32xf32>
    } : (tensor<32x32xf32>, tensor<32x32xf32>) -> (tensor<32x32xf32>, tensor<32x32xf32>)
    return %0#0, %0#1 : tensor<32x32xf32>, tensor<32x32xf32>
  }
}


// -----// IR Dump Before Canonicalizer (canonicalize) ('builtin.module' operation: @SyncTensorsGraph.20) //----- //
module @SyncTensorsGraph.20 attributes {mhlo.cross_program_prefetches = [], mhlo.input_output_alias = [], mhlo.is_dynamic = false, mhlo.use_auto_spmd_partitioning = false} {
  sdy.mesh @mesh = <["_axis_0"=2, "_axis_1"=4]>
  func.func @main(%arg0: tensor<32x32xf32> {ttcore.argument_type = #ttcore.argument_type<input>, ttcore.shard_status = #ttcore.shard_status<presharded>, ttir.name = "args_0"}, %arg1: tensor<32x32xf32> {ttcore.argument_type = #ttcore.argument_type<input>, ttcore.shard_status = #ttcore.shard_status<presharded>, ttir.name = "args_1"}) -> (tensor<32x32xf32> {ttcore.shard_status = #ttcore.shard_status<unsharded>}, tensor<32x32xf32> {ttcore.shard_status = #ttcore.shard_status<unsharded>}) {
    %0:2 = sdy.manual_computation(%arg0, %arg1) in_shardings=[<@mesh, [{}, {"_axis_1"}]>, <@mesh, [{}, {}]>] out_shardings=[<@mesh, [{}, {"_axis_1"}]>, <@mesh, [{}, {}]>] manual_axes={"_axis_0", "_axis_1"} (%arg2: tensor<32x8xf32>, %arg3: tensor<32x32xf32>) {
      %cst = stablehlo.constant dense<1.000000e+00> : tensor<f32>
      %1 = stablehlo.broadcast_in_dim %cst, dims = [] : (tensor<f32>) -> tensor<32x32xf32>
      %2 = stablehlo.reshape %arg2 : (tensor<32x8xf32>) -> tensor<1x32x8xf32>
      %3 = stablehlo.reshape %2 : (tensor<1x32x8xf32>) -> tensor<32x8xf32>
      %4 = stablehlo.broadcast_in_dim %cst, dims = [] : (tensor<f32>) -> tensor<32x8xf32>
      %5 = stablehlo.add %3, %4 : tensor<32x8xf32>
      %6 = stablehlo.reshape %arg3 : (tensor<32x32xf32>) -> tensor<1x32x32xf32>
      %7 = stablehlo.reshape %6 : (tensor<1x32x32xf32>) -> tensor<32x32xf32>
      %8 = stablehlo.add %7, %1 : tensor<32x32xf32>
      sdy.return %5, %8 : tensor<32x8xf32>, tensor<32x32xf32>
    } : (tensor<32x32xf32>, tensor<32x32xf32>) -> (tensor<32x32xf32>, tensor<32x32xf32>)
    return %0#0, %0#1 : tensor<32x32xf32>, tensor<32x32xf32>
  }
}


2026-01-07 14:00:53.170 (   1.424s) [        5515B480]      module_builder.cc:1085     1| MLIR Module shlo_compiler:
#loc1 = loc("p0.3")
#loc2 = loc("p1.12")
module @SyncTensorsGraph.20 attributes {mhlo.cross_program_prefetches = [], mhlo.input_output_alias = [], mhlo.is_dynamic = false, mhlo.use_auto_spmd_partitioning = false} {
  sdy.mesh @mesh = <["_axis_0"=2, "_axis_1"=4]> loc(#loc)
  func.func @main(%arg0: tensor<32x32xf32> {ttcore.argument_type = #ttcore.argument_type<input>, ttcore.shard_status = #ttcore.shard_status<presharded>, ttir.name = "args_0"} loc("p0.3"), %arg1: tensor<32x32xf32> {ttcore.argument_type = #ttcore.argument_type<input>, ttcore.shard_status = #ttcore.shard_status<presharded>, ttir.name = "args_1"} loc("p1.12")) -> (tensor<32x32xf32> {ttcore.shard_status = #ttcore.shard_status<unsharded>}, tensor<32x32xf32> {ttcore.shard_status = #ttcore.shard_status<unsharded>}) {
    %0:2 = sdy.manual_computation(%arg0, %arg1) in_shardings=[<@mesh, [{}, {"_axis_1"}]>, <@mesh, [{}, {}]>] out_shardings=[<@mesh, [{}, {"_axis_1"}]>, <@mesh, [{}, {}]>] manual_axes={"_axis_0", "_axis_1"} (%arg2: tensor<32x8xf32> loc("p0.3"), %arg3: tensor<32x32xf32> loc("p1.12")) {
      %cst = stablehlo.constant dense<1.000000e+00> : tensor<f32> loc(#loc)
      %1 = stablehlo.broadcast_in_dim %cst, dims = [] : (tensor<f32>) -> tensor<32x32xf32> loc(#loc)
      %2 = stablehlo.reshape %arg2 : (tensor<32x8xf32>) -> tensor<1x32x8xf32> loc(#loc3)
      %3 = stablehlo.reshape %2 : (tensor<1x32x8xf32>) -> tensor<32x8xf32> loc(#loc4)
      %4 = stablehlo.broadcast_in_dim %cst, dims = [] : (tensor<f32>) -> tensor<32x8xf32> loc(#loc)
      %5 = stablehlo.add %3, %4 : tensor<32x8xf32> loc(#loc5)
      %6 = stablehlo.reshape %arg3 : (tensor<32x32xf32>) -> tensor<1x32x32xf32> loc(#loc6)
      %7 = stablehlo.reshape %6 : (tensor<1x32x32xf32>) -> tensor<32x32xf32> loc(#loc7)
      %8 = stablehlo.add %7, %1 : tensor<32x32xf32> loc(#loc8)
      sdy.return %5, %8 : tensor<32x8xf32>, tensor<32x32xf32> loc(#loc)
    } : (tensor<32x32xf32>, tensor<32x32xf32>) -> (tensor<32x32xf32>, tensor<32x32xf32>) loc(#loc)
    return %0#0, %0#1 : tensor<32x32xf32>, tensor<32x32xf32> loc(#loc)
  } loc(#loc)
} loc(#loc)
#loc = loc(unknown)
#loc3 = loc("reshape.4")
#loc4 = loc("reshape.6")
#loc5 = loc("add.9")
#loc6 = loc("reshape.13")
#loc7 = loc("reshape.15")
#loc8 = loc("add.18")
------------------ END OF MLIR MODULE ------------------
Module before extracting out sharding:
module @SyncTensorsGraph.20 attributes {mhlo.cross_program_prefetches = [], mhlo.input_output_alias = [], mhlo.is_dynamic = false, mhlo.use_auto_spmd_partitioning = false} {
  sdy.mesh @mesh = <["_axis_0"=2, "_axis_1"=4]>
  func.func @main(%arg0: tensor<32x32xf32>, %arg1: tensor<32x32xf32>) -> (tensor<32x32xf32>, tensor<32x32xf32>) {
    %0:2 = sdy.manual_computation(%arg0, %arg1) in_shardings=[<@mesh, [{}, {"_axis_1"}]>, <@mesh, [{}, {}]>] out_shardings=[<@mesh, [{}, {"_axis_1"}]>, <@mesh, [{}, {}]>] manual_axes={"_axis_0", "_axis_1"} (%arg2: tensor<32x8xf32>, %arg3: tensor<32x32xf32>) {
      %cst = stablehlo.constant dense<1.000000e+00> : tensor<f32>
      %1 = stablehlo.broadcast_in_dim %cst, dims = [] : (tensor<f32>) -> tensor<32x32xf32>
      %2 = stablehlo.reshape %arg2 : (tensor<32x8xf32>) -> tensor<1x32x8xf32>
      %3 = stablehlo.reshape %2 : (tensor<1x32x8xf32>) -> tensor<32x8xf32>
      %4 = stablehlo.broadcast_in_dim %cst, dims = [] : (tensor<f32>) -> tensor<32x8xf32>
      %5 = stablehlo.add %3, %4 : tensor<32x8xf32>
      %6 = stablehlo.reshape %arg3 : (tensor<32x32xf32>) -> tensor<1x32x32xf32>
      %7 = stablehlo.reshape %6 : (tensor<1x32x32xf32>) -> tensor<32x32xf32>
      %8 = stablehlo.add %7, %1 : tensor<32x32xf32>
      sdy.return %5, %8 : tensor<32x8xf32>, tensor<32x32xf32>
    } : (tensor<32x32xf32>, tensor<32x32xf32>) -> (tensor<32x32xf32>, tensor<32x32xf32>)
    return %0#0, %0#1 : tensor<32x32xf32>, tensor<32x32xf32>
  }
}
Out sharding: #sdy.sharding<@mesh, [{}, {"_axis_1"}]>
Out sharding: #sdy.sharding<@mesh, [{}, {}]>
  Out sharding #0, dim #0, axisName.size()=0
  Out sharding #0, dim #1, axisName.size()=1
Out sharding str for out sharding #0 is: {devices=[1,4,2]<=[8] last_tile_dim_replicate}
  Out sharding #1, dim #0, axisName.size()=0
  Out sharding #1, dim #1, axisName.size()=0
Out sharding str for out sharding #1 is: {replicated}
Module after injecting out sharding result and simplifying main function:
module @SyncTensorsGraph.20 attributes {mhlo.cross_program_prefetches = [], mhlo.input_output_alias = [], mhlo.is_dynamic = false, mhlo.spmd_output_sharding = "{{devices=[1,4,2]<=[8] last_tile_dim_replicate},{replicated}}", mhlo.use_auto_spmd_partitioning = false} {
  func.func @main(%arg0: tensor<32x32xf32>, %arg1: tensor<32x32xf32>) -> (tensor<32x32xf32>, tensor<32x32xf32>) {
    %cst = stablehlo.constant dense<0.000000e+00> : tensor<32x32xf32>
    %cst_0 = stablehlo.constant dense<0.000000e+00> : tensor<32x32xf32>
    return %cst, %cst_0 : tensor<32x32xf32>, tensor<32x32xf32>
  }
}
2026-01-07 14:00:53.172 (   1.425s) [        5515B480]      module_builder.cc:1085     1| MLIR Module shlo_compiler_cleaned:
#loc = loc(unknown)
module @SyncTensorsGraph.20 attributes {mhlo.cross_program_prefetches = [], mhlo.input_output_alias = [], mhlo.is_dynamic = false, mhlo.spmd_output_sharding = "{{devices=[1,4,2]<=[8] last_tile_dim_replicate},{replicated}}", mhlo.use_auto_spmd_partitioning = false} {
  func.func @main(%arg0: tensor<32x32xf32> loc(unknown), %arg1: tensor<32x32xf32> loc(unknown)) -> (tensor<32x32xf32>, tensor<32x32xf32>) {
    %cst = stablehlo.constant dense<0.000000e+00> : tensor<32x32xf32> loc(#loc)
    %cst_0 = stablehlo.constant dense<0.000000e+00> : tensor<32x32xf32> loc(#loc)
    return %cst, %cst_0 : tensor<32x32xf32>, tensor<32x32xf32> loc(#loc)
  } loc(#loc)
} loc(#loc)
------------------ END OF MLIR MODULE ------------------
// -----// IR Dump Before ConvertArithToStableHLO (convert-arith-to-stablehlo) ('builtin.module' operation: @SyncTensorsGraph.20) //----- //
module @SyncTensorsGraph.20 attributes {mhlo.cross_program_prefetches = [], mhlo.input_output_alias = [], mhlo.is_dynamic = false, mhlo.use_auto_spmd_partitioning = false} {
  sdy.mesh @mesh = <["_axis_0"=2, "_axis_1"=4]>
  func.func @main(%arg0: tensor<32x32xf32> {ttcore.argument_type = #ttcore.argument_type<input>, ttcore.shard_status = #ttcore.shard_status<presharded>, ttir.name = "args_0"}, %arg1: tensor<32x32xf32> {ttcore.argument_type = #ttcore.argument_type<input>, ttcore.shard_status = #ttcore.shard_status<presharded>, ttir.name = "args_1"}) -> (tensor<32x32xf32> {ttcore.shard_status = #ttcore.shard_status<unsharded>}, tensor<32x32xf32> {ttcore.shard_status = #ttcore.shard_status<unsharded>}) {
    %0:2 = sdy.manual_computation(%arg0, %arg1) in_shardings=[<@mesh, [{}, {"_axis_1"}]>, <@mesh, [{}, {}]>] out_shardings=[<@mesh, [{}, {"_axis_1"}]>, <@mesh, [{}, {}]>] manual_axes={"_axis_0", "_axis_1"} (%arg2: tensor<32x8xf32>, %arg3: tensor<32x32xf32>) {
      %cst = stablehlo.constant dense<1.000000e+00> : tensor<f32>
      %1 = stablehlo.broadcast_in_dim %cst, dims = [] : (tensor<f32>) -> tensor<32x32xf32>
      %2 = stablehlo.reshape %arg2 : (tensor<32x8xf32>) -> tensor<1x32x8xf32>
      %3 = stablehlo.reshape %2 : (tensor<1x32x8xf32>) -> tensor<32x8xf32>
      %4 = stablehlo.broadcast_in_dim %cst, dims = [] : (tensor<f32>) -> tensor<32x8xf32>
      %5 = stablehlo.add %3, %4 : tensor<32x8xf32>
      %6 = stablehlo.reshape %arg3 : (tensor<32x32xf32>) -> tensor<1x32x32xf32>
      %7 = stablehlo.reshape %6 : (tensor<1x32x32xf32>) -> tensor<32x32xf32>
      %8 = stablehlo.add %7, %1 : tensor<32x32xf32>
      sdy.return %5, %8 : tensor<32x8xf32>, tensor<32x32xf32>
    } : (tensor<32x32xf32>, tensor<32x32xf32>) -> (tensor<32x32xf32>, tensor<32x32xf32>)
    return %0#0, %0#1 : tensor<32x32xf32>, tensor<32x32xf32>
  }
}


// -----// IR Dump Before LegalizeStableHLOCompositeToTTIR (legalize-stablehlo-composite-to-ttir) ('builtin.module' operation: @SyncTensorsGraph.20) //----- //
module @SyncTensorsGraph.20 attributes {mhlo.cross_program_prefetches = [], mhlo.input_output_alias = [], mhlo.is_dynamic = false, mhlo.use_auto_spmd_partitioning = false} {
  sdy.mesh @mesh = <["_axis_0"=2, "_axis_1"=4]>
  func.func @main(%arg0: tensor<32x32xf32> {ttcore.argument_type = #ttcore.argument_type<input>, ttcore.shard_status = #ttcore.shard_status<presharded>, ttir.name = "args_0"}, %arg1: tensor<32x32xf32> {ttcore.argument_type = #ttcore.argument_type<input>, ttcore.shard_status = #ttcore.shard_status<presharded>, ttir.name = "args_1"}) -> (tensor<32x32xf32> {ttcore.shard_status = #ttcore.shard_status<unsharded>}, tensor<32x32xf32> {ttcore.shard_status = #ttcore.shard_status<unsharded>}) {
    %0:2 = sdy.manual_computation(%arg0, %arg1) in_shardings=[<@mesh, [{}, {"_axis_1"}]>, <@mesh, [{}, {}]>] out_shardings=[<@mesh, [{}, {"_axis_1"}]>, <@mesh, [{}, {}]>] manual_axes={"_axis_0", "_axis_1"} (%arg2: tensor<32x8xf32>, %arg3: tensor<32x32xf32>) {
      %cst = stablehlo.constant dense<1.000000e+00> : tensor<f32>
      %1 = stablehlo.broadcast_in_dim %cst, dims = [] : (tensor<f32>) -> tensor<32x32xf32>
      %2 = stablehlo.reshape %arg2 : (tensor<32x8xf32>) -> tensor<1x32x8xf32>
      %3 = stablehlo.reshape %2 : (tensor<1x32x8xf32>) -> tensor<32x8xf32>
      %4 = stablehlo.broadcast_in_dim %cst, dims = [] : (tensor<f32>) -> tensor<32x8xf32>
      %5 = stablehlo.add %3, %4 : tensor<32x8xf32>
      %6 = stablehlo.reshape %arg3 : (tensor<32x32xf32>) -> tensor<1x32x32xf32>
      %7 = stablehlo.reshape %6 : (tensor<1x32x32xf32>) -> tensor<32x32xf32>
      %8 = stablehlo.add %7, %1 : tensor<32x32xf32>
      sdy.return %5, %8 : tensor<32x8xf32>, tensor<32x32xf32>
    } : (tensor<32x32xf32>, tensor<32x32xf32>) -> (tensor<32x32xf32>, tensor<32x32xf32>)
    return %0#0, %0#1 : tensor<32x32xf32>, tensor<32x32xf32>
  }
}


// -----// IR Dump Before StablehloLegalizeCompositeToCallPass (stablehlo-legalize-composite-to-call) ('func.func' operation: @main) //----- //
module @SyncTensorsGraph.20 attributes {mhlo.cross_program_prefetches = [], mhlo.input_output_alias = [], mhlo.is_dynamic = false, mhlo.use_auto_spmd_partitioning = false} {
  sdy.mesh @mesh = <["_axis_0"=2, "_axis_1"=4]>
  func.func @main(%arg0: tensor<32x32xf32> {ttcore.argument_type = #ttcore.argument_type<input>, ttcore.shard_status = #ttcore.shard_status<presharded>, ttir.name = "args_0"}, %arg1: tensor<32x32xf32> {ttcore.argument_type = #ttcore.argument_type<input>, ttcore.shard_status = #ttcore.shard_status<presharded>, ttir.name = "args_1"}) -> (tensor<32x32xf32> {ttcore.shard_status = #ttcore.shard_status<unsharded>}, tensor<32x32xf32> {ttcore.shard_status = #ttcore.shard_status<unsharded>}) {
    %0:2 = sdy.manual_computation(%arg0, %arg1) in_shardings=[<@mesh, [{}, {"_axis_1"}]>, <@mesh, [{}, {}]>] out_shardings=[<@mesh, [{}, {"_axis_1"}]>, <@mesh, [{}, {}]>] manual_axes={"_axis_0", "_axis_1"} (%arg2: tensor<32x8xf32>, %arg3: tensor<32x32xf32>) {
      %cst = stablehlo.constant dense<1.000000e+00> : tensor<f32>
      %1 = stablehlo.broadcast_in_dim %cst, dims = [] : (tensor<f32>) -> tensor<32x32xf32>
      %2 = stablehlo.reshape %arg2 : (tensor<32x8xf32>) -> tensor<1x32x8xf32>
      %3 = stablehlo.reshape %2 : (tensor<1x32x8xf32>) -> tensor<32x8xf32>
      %4 = stablehlo.broadcast_in_dim %cst, dims = [] : (tensor<f32>) -> tensor<32x8xf32>
      %5 = stablehlo.add %3, %4 : tensor<32x8xf32>
      %6 = stablehlo.reshape %arg3 : (tensor<32x32xf32>) -> tensor<1x32x32xf32>
      %7 = stablehlo.reshape %6 : (tensor<1x32x32xf32>) -> tensor<32x32xf32>
      %8 = stablehlo.add %7, %1 : tensor<32x32xf32>
      sdy.return %5, %8 : tensor<32x8xf32>, tensor<32x32xf32>
    } : (tensor<32x32xf32>, tensor<32x32xf32>) -> (tensor<32x32xf32>, tensor<32x32xf32>)
    return %0#0, %0#1 : tensor<32x32xf32>, tensor<32x32xf32>
  }
}


// -----// IR Dump Before Inliner (inline) ('builtin.module' operation: @SyncTensorsGraph.20) //----- //
module @SyncTensorsGraph.20 attributes {mhlo.cross_program_prefetches = [], mhlo.input_output_alias = [], mhlo.is_dynamic = false, mhlo.use_auto_spmd_partitioning = false} {
  sdy.mesh @mesh = <["_axis_0"=2, "_axis_1"=4]>
  func.func @main(%arg0: tensor<32x32xf32> {ttcore.argument_type = #ttcore.argument_type<input>, ttcore.shard_status = #ttcore.shard_status<presharded>, ttir.name = "args_0"}, %arg1: tensor<32x32xf32> {ttcore.argument_type = #ttcore.argument_type<input>, ttcore.shard_status = #ttcore.shard_status<presharded>, ttir.name = "args_1"}) -> (tensor<32x32xf32> {ttcore.shard_status = #ttcore.shard_status<unsharded>}, tensor<32x32xf32> {ttcore.shard_status = #ttcore.shard_status<unsharded>}) {
    %0:2 = sdy.manual_computation(%arg0, %arg1) in_shardings=[<@mesh, [{}, {"_axis_1"}]>, <@mesh, [{}, {}]>] out_shardings=[<@mesh, [{}, {"_axis_1"}]>, <@mesh, [{}, {}]>] manual_axes={"_axis_0", "_axis_1"} (%arg2: tensor<32x8xf32>, %arg3: tensor<32x32xf32>) {
      %cst = stablehlo.constant dense<1.000000e+00> : tensor<f32>
      %1 = stablehlo.broadcast_in_dim %cst, dims = [] : (tensor<f32>) -> tensor<32x32xf32>
      %2 = stablehlo.reshape %arg2 : (tensor<32x8xf32>) -> tensor<1x32x8xf32>
      %3 = stablehlo.reshape %2 : (tensor<1x32x8xf32>) -> tensor<32x8xf32>
      %4 = stablehlo.broadcast_in_dim %cst, dims = [] : (tensor<f32>) -> tensor<32x8xf32>
      %5 = stablehlo.add %3, %4 : tensor<32x8xf32>
      %6 = stablehlo.reshape %arg3 : (tensor<32x32xf32>) -> tensor<1x32x32xf32>
      %7 = stablehlo.reshape %6 : (tensor<1x32x32xf32>) -> tensor<32x32xf32>
      %8 = stablehlo.add %7, %1 : tensor<32x32xf32>
      sdy.return %5, %8 : tensor<32x8xf32>, tensor<32x32xf32>
    } : (tensor<32x32xf32>, tensor<32x32xf32>) -> (tensor<32x32xf32>, tensor<32x32xf32>)
    return %0#0, %0#1 : tensor<32x32xf32>, tensor<32x32xf32>
  }
}


// -----// IR Dump Before Canonicalizer (canonicalize) ('func.func' operation: @main) //----- //
module @SyncTensorsGraph.20 attributes {mhlo.cross_program_prefetches = [], mhlo.input_output_alias = [], mhlo.is_dynamic = false, mhlo.use_auto_spmd_partitioning = false} {
  sdy.mesh @mesh = <["_axis_0"=2, "_axis_1"=4]>
  func.func @main(%arg0: tensor<32x32xf32> {ttcore.argument_type = #ttcore.argument_type<input>, ttcore.shard_status = #ttcore.shard_status<presharded>, ttir.name = "args_0"}, %arg1: tensor<32x32xf32> {ttcore.argument_type = #ttcore.argument_type<input>, ttcore.shard_status = #ttcore.shard_status<presharded>, ttir.name = "args_1"}) -> (tensor<32x32xf32> {ttcore.shard_status = #ttcore.shard_status<unsharded>}, tensor<32x32xf32> {ttcore.shard_status = #ttcore.shard_status<unsharded>}) {
    %0:2 = sdy.manual_computation(%arg0, %arg1) in_shardings=[<@mesh, [{}, {"_axis_1"}]>, <@mesh, [{}, {}]>] out_shardings=[<@mesh, [{}, {"_axis_1"}]>, <@mesh, [{}, {}]>] manual_axes={"_axis_0", "_axis_1"} (%arg2: tensor<32x8xf32>, %arg3: tensor<32x32xf32>) {
      %cst = stablehlo.constant dense<1.000000e+00> : tensor<f32>
      %1 = stablehlo.broadcast_in_dim %cst, dims = [] : (tensor<f32>) -> tensor<32x32xf32>
      %2 = stablehlo.reshape %arg2 : (tensor<32x8xf32>) -> tensor<1x32x8xf32>
      %3 = stablehlo.reshape %2 : (tensor<1x32x8xf32>) -> tensor<32x8xf32>
      %4 = stablehlo.broadcast_in_dim %cst, dims = [] : (tensor<f32>) -> tensor<32x8xf32>
      %5 = stablehlo.add %3, %4 : tensor<32x8xf32>
      %6 = stablehlo.reshape %arg3 : (tensor<32x32xf32>) -> tensor<1x32x32xf32>
      %7 = stablehlo.reshape %6 : (tensor<1x32x32xf32>) -> tensor<32x32xf32>
      %8 = stablehlo.add %7, %1 : tensor<32x32xf32>
      sdy.return %5, %8 : tensor<32x8xf32>, tensor<32x32xf32>
    } : (tensor<32x32xf32>, tensor<32x32xf32>) -> (tensor<32x32xf32>, tensor<32x32xf32>)
    return %0#0, %0#1 : tensor<32x32xf32>, tensor<32x32xf32>
  }
}


// -----// IR Dump Before ConvertStableHLOToTTIR (convert-stablehlo-to-ttir) ('builtin.module' operation: @SyncTensorsGraph.20) //----- //
module @SyncTensorsGraph.20 attributes {mhlo.cross_program_prefetches = [], mhlo.input_output_alias = [], mhlo.is_dynamic = false, mhlo.use_auto_spmd_partitioning = false} {
  sdy.mesh @mesh = <["_axis_0"=2, "_axis_1"=4]>
  func.func @main(%arg0: tensor<32x32xf32> {ttcore.argument_type = #ttcore.argument_type<input>, ttcore.shard_status = #ttcore.shard_status<presharded>, ttir.name = "args_0"}, %arg1: tensor<32x32xf32> {ttcore.argument_type = #ttcore.argument_type<input>, ttcore.shard_status = #ttcore.shard_status<presharded>, ttir.name = "args_1"}) -> (tensor<32x32xf32> {ttcore.shard_status = #ttcore.shard_status<unsharded>}, tensor<32x32xf32> {ttcore.shard_status = #ttcore.shard_status<unsharded>}) {
    %0:2 = sdy.manual_computation(%arg0, %arg1) in_shardings=[<@mesh, [{}, {"_axis_1"}]>, <@mesh, [{}, {}]>] out_shardings=[<@mesh, [{}, {"_axis_1"}]>, <@mesh, [{}, {}]>] manual_axes={"_axis_0", "_axis_1"} (%arg2: tensor<32x8xf32>, %arg3: tensor<32x32xf32>) {
      %cst = stablehlo.constant dense<1.000000e+00> : tensor<f32>
      %1 = stablehlo.broadcast_in_dim %cst, dims = [] : (tensor<f32>) -> tensor<32x32xf32>
      %2 = stablehlo.reshape %arg2 : (tensor<32x8xf32>) -> tensor<1x32x8xf32>
      %3 = stablehlo.reshape %2 : (tensor<1x32x8xf32>) -> tensor<32x8xf32>
      %4 = stablehlo.broadcast_in_dim %cst, dims = [] : (tensor<f32>) -> tensor<32x8xf32>
      %5 = stablehlo.add %3, %4 : tensor<32x8xf32>
      %6 = stablehlo.reshape %arg3 : (tensor<32x32xf32>) -> tensor<1x32x32xf32>
      %7 = stablehlo.reshape %6 : (tensor<1x32x32xf32>) -> tensor<32x32xf32>
      %8 = stablehlo.add %7, %1 : tensor<32x32xf32>
      sdy.return %5, %8 : tensor<32x8xf32>, tensor<32x32xf32>
    } : (tensor<32x32xf32>, tensor<32x32xf32>) -> (tensor<32x32xf32>, tensor<32x32xf32>)
    return %0#0, %0#1 : tensor<32x32xf32>, tensor<32x32xf32>
  }
}


// -----// IR Dump After ConvertStableHLOToTTIR (convert-stablehlo-to-ttir) ('builtin.module' operation: @SyncTensorsGraph.20) //----- //
module @SyncTensorsGraph.20 attributes {mhlo.cross_program_prefetches = [], mhlo.input_output_alias = [], mhlo.is_dynamic = false, mhlo.use_auto_spmd_partitioning = false, ttcore.meshes = #ttcore.meshes<[<"mesh" = 2x4>]>} {
  func.func @main(%arg0: tensor<32x32xf32> {ttcore.argument_type = #ttcore.argument_type<input>, ttcore.shard_status = #ttcore.shard_status<presharded>, ttir.name = "args_0"}, %arg1: tensor<32x32xf32> {ttcore.argument_type = #ttcore.argument_type<input>, ttcore.shard_status = #ttcore.shard_status<presharded>, ttir.name = "args_1"}) -> (tensor<32x32xf32> {ttcore.shard_status = #ttcore.shard_status<unsharded>}, tensor<32x32xf32> {ttcore.shard_status = #ttcore.shard_status<unsharded>}) {
    %0 = "ttir.mesh_shard"(%arg0) <{shard_dims = array<i64: -1, 1>, shard_direction = #ttcore.shard_direction<full_to_shard>, shard_shape = array<i64: 1, 4>, shard_type = #ttcore.shard_type<identity>}> : (tensor<32x32xf32>) -> tensor<32x8xf32>
    %1 = "ttir.mesh_shard"(%arg1) <{shard_dims = array<i64: -1>, shard_direction = #ttcore.shard_direction<full_to_shard>, shard_shape = array<i64: 1>, shard_type = #ttcore.shard_type<identity>}> : (tensor<32x32xf32>) -> tensor<32x32xf32>
    %2 = "ttir.constant"() <{value = dense<1.000000e+00> : tensor<f32>}> : () -> tensor<f32>
    %3 = "ttir.reshape"(%2) <{shape = [1 : i32, 1 : i32]}> : (tensor<f32>) -> tensor<1x1xf32>
    %4 = "ttir.broadcast"(%3) <{broadcast_dimensions = array<i64: 32, 32>}> : (tensor<1x1xf32>) -> tensor<32x32xf32>
    %5 = "ttir.reshape"(%0) <{shape = [1 : i32, 32 : i32, 8 : i32]}> : (tensor<32x8xf32>) -> tensor<1x32x8xf32>
    %6 = "ttir.reshape"(%5) <{shape = [32 : i32, 8 : i32]}> : (tensor<1x32x8xf32>) -> tensor<32x8xf32>
    %7 = "ttir.reshape"(%2) <{shape = [1 : i32, 1 : i32]}> : (tensor<f32>) -> tensor<1x1xf32>
    %8 = "ttir.broadcast"(%7) <{broadcast_dimensions = array<i64: 32, 8>}> : (tensor<1x1xf32>) -> tensor<32x8xf32>
    %9 = "ttir.add"(%6, %8) : (tensor<32x8xf32>, tensor<32x8xf32>) -> tensor<32x8xf32>
    %10 = "ttir.reshape"(%1) <{shape = [1 : i32, 32 : i32, 32 : i32]}> : (tensor<32x32xf32>) -> tensor<1x32x32xf32>
    %11 = "ttir.reshape"(%10) <{shape = [32 : i32, 32 : i32]}> : (tensor<1x32x32xf32>) -> tensor<32x32xf32>
    %12 = "ttir.add"(%11, %4) : (tensor<32x32xf32>, tensor<32x32xf32>) -> tensor<32x32xf32>
    %13 = "ttir.mesh_shard"(%9) <{shard_dims = array<i64: -1, 1>, shard_direction = #ttcore.shard_direction<shard_to_full>, shard_shape = array<i64: 1, 4>, shard_type = #ttcore.shard_type<identity>}> : (tensor<32x8xf32>) -> tensor<32x32xf32>
    %14 = "ttir.mesh_shard"(%12) <{shard_dims = array<i64: -1>, shard_direction = #ttcore.shard_direction<shard_to_full>, shard_shape = array<i64: 1>, shard_type = #ttcore.shard_type<identity>}> : (tensor<32x32xf32>) -> tensor<32x32xf32>
    return %13, %14 : tensor<32x32xf32>, tensor<32x32xf32>
  }
}


// -----// IR Dump Before CSE (cse) ('builtin.module' operation: @SyncTensorsGraph.20) //----- //
module @SyncTensorsGraph.20 attributes {mhlo.cross_program_prefetches = [], mhlo.input_output_alias = [], mhlo.is_dynamic = false, mhlo.use_auto_spmd_partitioning = false, ttcore.meshes = #ttcore.meshes<[<"mesh" = 2x4>]>} {
  func.func @main(%arg0: tensor<32x32xf32> {ttcore.argument_type = #ttcore.argument_type<input>, ttcore.shard_status = #ttcore.shard_status<presharded>, ttir.name = "args_0"}, %arg1: tensor<32x32xf32> {ttcore.argument_type = #ttcore.argument_type<input>, ttcore.shard_status = #ttcore.shard_status<presharded>, ttir.name = "args_1"}) -> (tensor<32x32xf32> {ttcore.shard_status = #ttcore.shard_status<unsharded>}, tensor<32x32xf32> {ttcore.shard_status = #ttcore.shard_status<unsharded>}) {
    %0 = "ttir.mesh_shard"(%arg0) <{shard_dims = array<i64: -1, 1>, shard_direction = #ttcore.shard_direction<full_to_shard>, shard_shape = array<i64: 1, 4>, shard_type = #ttcore.shard_type<identity>}> : (tensor<32x32xf32>) -> tensor<32x8xf32>
    %1 = "ttir.mesh_shard"(%arg1) <{shard_dims = array<i64: -1>, shard_direction = #ttcore.shard_direction<full_to_shard>, shard_shape = array<i64: 1>, shard_type = #ttcore.shard_type<identity>}> : (tensor<32x32xf32>) -> tensor<32x32xf32>
    %2 = "ttir.constant"() <{value = dense<1.000000e+00> : tensor<f32>}> : () -> tensor<f32>
    %3 = "ttir.reshape"(%2) <{shape = [1 : i32, 1 : i32]}> : (tensor<f32>) -> tensor<1x1xf32>
    %4 = "ttir.broadcast"(%3) <{broadcast_dimensions = array<i64: 32, 32>}> : (tensor<1x1xf32>) -> tensor<32x32xf32>
    %5 = "ttir.reshape"(%0) <{shape = [1 : i32, 32 : i32, 8 : i32]}> : (tensor<32x8xf32>) -> tensor<1x32x8xf32>
    %6 = "ttir.reshape"(%5) <{shape = [32 : i32, 8 : i32]}> : (tensor<1x32x8xf32>) -> tensor<32x8xf32>
    %7 = "ttir.reshape"(%2) <{shape = [1 : i32, 1 : i32]}> : (tensor<f32>) -> tensor<1x1xf32>
    %8 = "ttir.broadcast"(%7) <{broadcast_dimensions = array<i64: 32, 8>}> : (tensor<1x1xf32>) -> tensor<32x8xf32>
    %9 = "ttir.add"(%6, %8) : (tensor<32x8xf32>, tensor<32x8xf32>) -> tensor<32x8xf32>
    %10 = "ttir.reshape"(%1) <{shape = [1 : i32, 32 : i32, 32 : i32]}> : (tensor<32x32xf32>) -> tensor<1x32x32xf32>
    %11 = "ttir.reshape"(%10) <{shape = [32 : i32, 32 : i32]}> : (tensor<1x32x32xf32>) -> tensor<32x32xf32>
    %12 = "ttir.add"(%11, %4) : (tensor<32x32xf32>, tensor<32x32xf32>) -> tensor<32x32xf32>
    %13 = "ttir.mesh_shard"(%9) <{shard_dims = array<i64: -1, 1>, shard_direction = #ttcore.shard_direction<shard_to_full>, shard_shape = array<i64: 1, 4>, shard_type = #ttcore.shard_type<identity>}> : (tensor<32x8xf32>) -> tensor<32x32xf32>
    %14 = "ttir.mesh_shard"(%12) <{shard_dims = array<i64: -1>, shard_direction = #ttcore.shard_direction<shard_to_full>, shard_shape = array<i64: 1>, shard_type = #ttcore.shard_type<identity>}> : (tensor<32x32xf32>) -> tensor<32x32xf32>
    return %13, %14 : tensor<32x32xf32>, tensor<32x32xf32>
  }
}


// -----// IR Dump After CSE (cse) ('builtin.module' operation: @SyncTensorsGraph.20) //----- //
module @SyncTensorsGraph.20 attributes {mhlo.cross_program_prefetches = [], mhlo.input_output_alias = [], mhlo.is_dynamic = false, mhlo.use_auto_spmd_partitioning = false, ttcore.meshes = #ttcore.meshes<[<"mesh" = 2x4>]>} {
  func.func @main(%arg0: tensor<32x32xf32> {ttcore.argument_type = #ttcore.argument_type<input>, ttcore.shard_status = #ttcore.shard_status<presharded>, ttir.name = "args_0"}, %arg1: tensor<32x32xf32> {ttcore.argument_type = #ttcore.argument_type<input>, ttcore.shard_status = #ttcore.shard_status<presharded>, ttir.name = "args_1"}) -> (tensor<32x32xf32> {ttcore.shard_status = #ttcore.shard_status<unsharded>}, tensor<32x32xf32> {ttcore.shard_status = #ttcore.shard_status<unsharded>}) {
    %0 = "ttir.mesh_shard"(%arg0) <{shard_dims = array<i64: -1, 1>, shard_direction = #ttcore.shard_direction<full_to_shard>, shard_shape = array<i64: 1, 4>, shard_type = #ttcore.shard_type<identity>}> : (tensor<32x32xf32>) -> tensor<32x8xf32>
    %1 = "ttir.mesh_shard"(%arg1) <{shard_dims = array<i64: -1>, shard_direction = #ttcore.shard_direction<full_to_shard>, shard_shape = array<i64: 1>, shard_type = #ttcore.shard_type<identity>}> : (tensor<32x32xf32>) -> tensor<32x32xf32>
    %2 = "ttir.constant"() <{value = dense<1.000000e+00> : tensor<f32>}> : () -> tensor<f32>
    %3 = "ttir.reshape"(%2) <{shape = [1 : i32, 1 : i32]}> : (tensor<f32>) -> tensor<1x1xf32>
    %4 = "ttir.broadcast"(%3) <{broadcast_dimensions = array<i64: 32, 32>}> : (tensor<1x1xf32>) -> tensor<32x32xf32>
    %5 = "ttir.reshape"(%0) <{shape = [1 : i32, 32 : i32, 8 : i32]}> : (tensor<32x8xf32>) -> tensor<1x32x8xf32>
    %6 = "ttir.reshape"(%5) <{shape = [32 : i32, 8 : i32]}> : (tensor<1x32x8xf32>) -> tensor<32x8xf32>
    %7 = "ttir.broadcast"(%3) <{broadcast_dimensions = array<i64: 32, 8>}> : (tensor<1x1xf32>) -> tensor<32x8xf32>
    %8 = "ttir.add"(%6, %7) : (tensor<32x8xf32>, tensor<32x8xf32>) -> tensor<32x8xf32>
    %9 = "ttir.reshape"(%1) <{shape = [1 : i32, 32 : i32, 32 : i32]}> : (tensor<32x32xf32>) -> tensor<1x32x32xf32>
    %10 = "ttir.reshape"(%9) <{shape = [32 : i32, 32 : i32]}> : (tensor<1x32x32xf32>) -> tensor<32x32xf32>
    %11 = "ttir.add"(%10, %4) : (tensor<32x32xf32>, tensor<32x32xf32>) -> tensor<32x32xf32>
    %12 = "ttir.mesh_shard"(%8) <{shard_dims = array<i64: -1, 1>, shard_direction = #ttcore.shard_direction<shard_to_full>, shard_shape = array<i64: 1, 4>, shard_type = #ttcore.shard_type<identity>}> : (tensor<32x8xf32>) -> tensor<32x32xf32>
    %13 = "ttir.mesh_shard"(%11) <{shard_dims = array<i64: -1>, shard_direction = #ttcore.shard_direction<shard_to_full>, shard_shape = array<i64: 1>, shard_type = #ttcore.shard_type<identity>}> : (tensor<32x32xf32>) -> tensor<32x32xf32>
    return %12, %13 : tensor<32x32xf32>, tensor<32x32xf32>
  }
}


// -----// IR Dump Before TTCoreWrapDeviceModulePass (ttcore-wrap-device-module) ('builtin.module' operation: @SyncTensorsGraph.20) //----- //
module @SyncTensorsGraph.20 attributes {mhlo.cross_program_prefetches = [], mhlo.input_output_alias = [], mhlo.is_dynamic = false, mhlo.use_auto_spmd_partitioning = false, ttcore.meshes = #ttcore.meshes<[<"mesh" = 2x4>]>} {
  func.func @main(%arg0: tensor<32x32xf32> {ttcore.argument_type = #ttcore.argument_type<input>, ttcore.shard_status = #ttcore.shard_status<presharded>, ttir.name = "args_0"}, %arg1: tensor<32x32xf32> {ttcore.argument_type = #ttcore.argument_type<input>, ttcore.shard_status = #ttcore.shard_status<presharded>, ttir.name = "args_1"}) -> (tensor<32x32xf32> {ttcore.shard_status = #ttcore.shard_status<unsharded>}, tensor<32x32xf32> {ttcore.shard_status = #ttcore.shard_status<unsharded>}) {
    %0 = "ttir.mesh_shard"(%arg0) <{shard_dims = array<i64: -1, 1>, shard_direction = #ttcore.shard_direction<full_to_shard>, shard_shape = array<i64: 1, 4>, shard_type = #ttcore.shard_type<identity>}> : (tensor<32x32xf32>) -> tensor<32x8xf32>
    %1 = "ttir.mesh_shard"(%arg1) <{shard_dims = array<i64: -1>, shard_direction = #ttcore.shard_direction<full_to_shard>, shard_shape = array<i64: 1>, shard_type = #ttcore.shard_type<identity>}> : (tensor<32x32xf32>) -> tensor<32x32xf32>
    %2 = "ttir.constant"() <{value = dense<1.000000e+00> : tensor<f32>}> : () -> tensor<f32>
    %3 = "ttir.reshape"(%2) <{shape = [1 : i32, 1 : i32]}> : (tensor<f32>) -> tensor<1x1xf32>
    %4 = "ttir.broadcast"(%3) <{broadcast_dimensions = array<i64: 32, 32>}> : (tensor<1x1xf32>) -> tensor<32x32xf32>
    %5 = "ttir.reshape"(%0) <{shape = [1 : i32, 32 : i32, 8 : i32]}> : (tensor<32x8xf32>) -> tensor<1x32x8xf32>
    %6 = "ttir.reshape"(%5) <{shape = [32 : i32, 8 : i32]}> : (tensor<1x32x8xf32>) -> tensor<32x8xf32>
    %7 = "ttir.broadcast"(%3) <{broadcast_dimensions = array<i64: 32, 8>}> : (tensor<1x1xf32>) -> tensor<32x8xf32>
    %8 = "ttir.add"(%6, %7) : (tensor<32x8xf32>, tensor<32x8xf32>) -> tensor<32x8xf32>
    %9 = "ttir.reshape"(%1) <{shape = [1 : i32, 32 : i32, 32 : i32]}> : (tensor<32x32xf32>) -> tensor<1x32x32xf32>
    %10 = "ttir.reshape"(%9) <{shape = [32 : i32, 32 : i32]}> : (tensor<1x32x32xf32>) -> tensor<32x32xf32>
    %11 = "ttir.add"(%10, %4) : (tensor<32x32xf32>, tensor<32x32xf32>) -> tensor<32x32xf32>
    %12 = "ttir.mesh_shard"(%8) <{shard_dims = array<i64: -1, 1>, shard_direction = #ttcore.shard_direction<shard_to_full>, shard_shape = array<i64: 1, 4>, shard_type = #ttcore.shard_type<identity>}> : (tensor<32x8xf32>) -> tensor<32x32xf32>
    %13 = "ttir.mesh_shard"(%11) <{shard_dims = array<i64: -1>, shard_direction = #ttcore.shard_direction<shard_to_full>, shard_shape = array<i64: 1>, shard_type = #ttcore.shard_type<identity>}> : (tensor<32x32xf32>) -> tensor<32x32xf32>
    return %12, %13 : tensor<32x32xf32>, tensor<32x32xf32>
  }
}


// -----// IR Dump After TTCoreWrapDeviceModulePass (ttcore-wrap-device-module) ('builtin.module' operation: @SyncTensorsGraph.20) //----- //
module @SyncTensorsGraph.20 attributes {mhlo.cross_program_prefetches = [], mhlo.input_output_alias = [], mhlo.is_dynamic = false, mhlo.use_auto_spmd_partitioning = false, ttcore.meshes = #ttcore.meshes<[<"mesh" = 2x4>]>} {
  ttcore.device_module {
    builtin.module @SyncTensorsGraph.20 attributes {mhlo.cross_program_prefetches = [], mhlo.input_output_alias = [], mhlo.is_dynamic = false, mhlo.use_auto_spmd_partitioning = false, ttcore.meshes = #ttcore.meshes<[<"mesh" = 2x4>]>} {
      func.func @main(%arg0: tensor<32x32xf32> {ttcore.argument_type = #ttcore.argument_type<input>, ttcore.shard_status = #ttcore.shard_status<presharded>, ttir.name = "args_0"}, %arg1: tensor<32x32xf32> {ttcore.argument_type = #ttcore.argument_type<input>, ttcore.shard_status = #ttcore.shard_status<presharded>, ttir.name = "args_1"}) -> (tensor<32x32xf32> {ttcore.shard_status = #ttcore.shard_status<unsharded>}, tensor<32x32xf32> {ttcore.shard_status = #ttcore.shard_status<unsharded>}) {
        %0 = "ttir.mesh_shard"(%arg0) <{shard_dims = array<i64: -1, 1>, shard_direction = #ttcore.shard_direction<full_to_shard>, shard_shape = array<i64: 1, 4>, shard_type = #ttcore.shard_type<identity>}> : (tensor<32x32xf32>) -> tensor<32x8xf32>
        %1 = "ttir.mesh_shard"(%arg1) <{shard_dims = array<i64: -1>, shard_direction = #ttcore.shard_direction<full_to_shard>, shard_shape = array<i64: 1>, shard_type = #ttcore.shard_type<identity>}> : (tensor<32x32xf32>) -> tensor<32x32xf32>
        %2 = "ttir.constant"() <{value = dense<1.000000e+00> : tensor<f32>}> : () -> tensor<f32>
        %3 = "ttir.reshape"(%2) <{shape = [1 : i32, 1 : i32]}> : (tensor<f32>) -> tensor<1x1xf32>
        %4 = "ttir.broadcast"(%3) <{broadcast_dimensions = array<i64: 32, 32>}> : (tensor<1x1xf32>) -> tensor<32x32xf32>
        %5 = "ttir.reshape"(%0) <{shape = [1 : i32, 32 : i32, 8 : i32]}> : (tensor<32x8xf32>) -> tensor<1x32x8xf32>
        %6 = "ttir.reshape"(%5) <{shape = [32 : i32, 8 : i32]}> : (tensor<1x32x8xf32>) -> tensor<32x8xf32>
        %7 = "ttir.broadcast"(%3) <{broadcast_dimensions = array<i64: 32, 8>}> : (tensor<1x1xf32>) -> tensor<32x8xf32>
        %8 = "ttir.add"(%6, %7) : (tensor<32x8xf32>, tensor<32x8xf32>) -> tensor<32x8xf32>
        %9 = "ttir.reshape"(%1) <{shape = [1 : i32, 32 : i32, 32 : i32]}> : (tensor<32x32xf32>) -> tensor<1x32x32xf32>
        %10 = "ttir.reshape"(%9) <{shape = [32 : i32, 32 : i32]}> : (tensor<1x32x32xf32>) -> tensor<32x32xf32>
        %11 = "ttir.add"(%10, %4) : (tensor<32x32xf32>, tensor<32x32xf32>) -> tensor<32x32xf32>
        %12 = "ttir.mesh_shard"(%8) <{shard_dims = array<i64: -1, 1>, shard_direction = #ttcore.shard_direction<shard_to_full>, shard_shape = array<i64: 1, 4>, shard_type = #ttcore.shard_type<identity>}> : (tensor<32x8xf32>) -> tensor<32x32xf32>
        %13 = "ttir.mesh_shard"(%11) <{shard_dims = array<i64: -1>, shard_direction = #ttcore.shard_direction<shard_to_full>, shard_shape = array<i64: 1>, shard_type = #ttcore.shard_type<identity>}> : (tensor<32x32xf32>) -> tensor<32x32xf32>
        return %12, %13 : tensor<32x32xf32>, tensor<32x32xf32>
      }
    }
  }
}


// -----// IR Dump Before CPUHoistTransform (cpu-hoist-transform) ('builtin.module' operation: @SyncTensorsGraph.20) //----- //
module @SyncTensorsGraph.20 attributes {mhlo.cross_program_prefetches = [], mhlo.input_output_alias = [], mhlo.is_dynamic = false, mhlo.use_auto_spmd_partitioning = false, ttcore.meshes = #ttcore.meshes<[<"mesh" = 2x4>]>} {
  ttcore.device_module {
    builtin.module @SyncTensorsGraph.20 attributes {mhlo.cross_program_prefetches = [], mhlo.input_output_alias = [], mhlo.is_dynamic = false, mhlo.use_auto_spmd_partitioning = false, ttcore.meshes = #ttcore.meshes<[<"mesh" = 2x4>]>} {
      func.func @main(%arg0: tensor<32x32xf32> {ttcore.argument_type = #ttcore.argument_type<input>, ttcore.shard_status = #ttcore.shard_status<presharded>, ttir.name = "args_0"}, %arg1: tensor<32x32xf32> {ttcore.argument_type = #ttcore.argument_type<input>, ttcore.shard_status = #ttcore.shard_status<presharded>, ttir.name = "args_1"}) -> (tensor<32x32xf32> {ttcore.shard_status = #ttcore.shard_status<unsharded>}, tensor<32x32xf32> {ttcore.shard_status = #ttcore.shard_status<unsharded>}) {
        %0 = "ttir.mesh_shard"(%arg0) <{shard_dims = array<i64: -1, 1>, shard_direction = #ttcore.shard_direction<full_to_shard>, shard_shape = array<i64: 1, 4>, shard_type = #ttcore.shard_type<identity>}> : (tensor<32x32xf32>) -> tensor<32x8xf32>
        %1 = "ttir.mesh_shard"(%arg1) <{shard_dims = array<i64: -1>, shard_direction = #ttcore.shard_direction<full_to_shard>, shard_shape = array<i64: 1>, shard_type = #ttcore.shard_type<identity>}> : (tensor<32x32xf32>) -> tensor<32x32xf32>
        %2 = "ttir.constant"() <{value = dense<1.000000e+00> : tensor<f32>}> : () -> tensor<f32>
        %3 = "ttir.reshape"(%2) <{shape = [1 : i32, 1 : i32]}> : (tensor<f32>) -> tensor<1x1xf32>
        %4 = "ttir.broadcast"(%3) <{broadcast_dimensions = array<i64: 32, 32>}> : (tensor<1x1xf32>) -> tensor<32x32xf32>
        %5 = "ttir.reshape"(%0) <{shape = [1 : i32, 32 : i32, 8 : i32]}> : (tensor<32x8xf32>) -> tensor<1x32x8xf32>
        %6 = "ttir.reshape"(%5) <{shape = [32 : i32, 8 : i32]}> : (tensor<1x32x8xf32>) -> tensor<32x8xf32>
        %7 = "ttir.broadcast"(%3) <{broadcast_dimensions = array<i64: 32, 8>}> : (tensor<1x1xf32>) -> tensor<32x8xf32>
        %8 = "ttir.add"(%6, %7) : (tensor<32x8xf32>, tensor<32x8xf32>) -> tensor<32x8xf32>
        %9 = "ttir.reshape"(%1) <{shape = [1 : i32, 32 : i32, 32 : i32]}> : (tensor<32x32xf32>) -> tensor<1x32x32xf32>
        %10 = "ttir.reshape"(%9) <{shape = [32 : i32, 32 : i32]}> : (tensor<1x32x32xf32>) -> tensor<32x32xf32>
        %11 = "ttir.add"(%10, %4) : (tensor<32x32xf32>, tensor<32x32xf32>) -> tensor<32x32xf32>
        %12 = "ttir.mesh_shard"(%8) <{shard_dims = array<i64: -1, 1>, shard_direction = #ttcore.shard_direction<shard_to_full>, shard_shape = array<i64: 1, 4>, shard_type = #ttcore.shard_type<identity>}> : (tensor<32x8xf32>) -> tensor<32x32xf32>
        %13 = "ttir.mesh_shard"(%11) <{shard_dims = array<i64: -1>, shard_direction = #ttcore.shard_direction<shard_to_full>, shard_shape = array<i64: 1>, shard_type = #ttcore.shard_type<identity>}> : (tensor<32x32xf32>) -> tensor<32x32xf32>
        return %12, %13 : tensor<32x32xf32>, tensor<32x32xf32>
      }
    }
  }
}


// -----// IR Dump Before ConvertStableHLOToTTIR (convert-stablehlo-to-ttir) ('builtin.module' operation: @SyncTensorsGraph.20) //----- //
module @SyncTensorsGraph.20 attributes {mhlo.cross_program_prefetches = [], mhlo.input_output_alias = [], mhlo.is_dynamic = false, mhlo.use_auto_spmd_partitioning = false, ttcore.meshes = #ttcore.meshes<[<"mesh" = 2x4>]>} {
  ttcore.device_module {
    builtin.module @SyncTensorsGraph.20 attributes {mhlo.cross_program_prefetches = [], mhlo.input_output_alias = [], mhlo.is_dynamic = false, mhlo.use_auto_spmd_partitioning = false, ttcore.meshes = #ttcore.meshes<[<"mesh" = 2x4>]>} {
      func.func @main(%arg0: tensor<32x32xf32> {ttcore.argument_type = #ttcore.argument_type<input>, ttcore.shard_status = #ttcore.shard_status<presharded>, ttir.name = "args_0"}, %arg1: tensor<32x32xf32> {ttcore.argument_type = #ttcore.argument_type<input>, ttcore.shard_status = #ttcore.shard_status<presharded>, ttir.name = "args_1"}) -> (tensor<32x32xf32> {ttcore.shard_status = #ttcore.shard_status<unsharded>}, tensor<32x32xf32> {ttcore.shard_status = #ttcore.shard_status<unsharded>}) {
        %0 = "ttir.mesh_shard"(%arg0) <{shard_dims = array<i64: -1, 1>, shard_direction = #ttcore.shard_direction<full_to_shard>, shard_shape = array<i64: 1, 4>, shard_type = #ttcore.shard_type<identity>}> : (tensor<32x32xf32>) -> tensor<32x8xf32>
        %1 = "ttir.mesh_shard"(%arg1) <{shard_dims = array<i64: -1>, shard_direction = #ttcore.shard_direction<full_to_shard>, shard_shape = array<i64: 1>, shard_type = #ttcore.shard_type<identity>}> : (tensor<32x32xf32>) -> tensor<32x32xf32>
        %2 = "ttir.constant"() <{value = dense<1.000000e+00> : tensor<f32>}> : () -> tensor<f32>
        %3 = "ttir.reshape"(%2) <{shape = [1 : i32, 1 : i32]}> : (tensor<f32>) -> tensor<1x1xf32>
        %4 = "ttir.broadcast"(%3) <{broadcast_dimensions = array<i64: 32, 32>}> : (tensor<1x1xf32>) -> tensor<32x32xf32>
        %5 = "ttir.reshape"(%0) <{shape = [1 : i32, 32 : i32, 8 : i32]}> : (tensor<32x8xf32>) -> tensor<1x32x8xf32>
        %6 = "ttir.reshape"(%5) <{shape = [32 : i32, 8 : i32]}> : (tensor<1x32x8xf32>) -> tensor<32x8xf32>
        %7 = "ttir.broadcast"(%3) <{broadcast_dimensions = array<i64: 32, 8>}> : (tensor<1x1xf32>) -> tensor<32x8xf32>
        %8 = "ttir.add"(%6, %7) : (tensor<32x8xf32>, tensor<32x8xf32>) -> tensor<32x8xf32>
        %9 = "ttir.reshape"(%1) <{shape = [1 : i32, 32 : i32, 32 : i32]}> : (tensor<32x32xf32>) -> tensor<1x32x32xf32>
        %10 = "ttir.reshape"(%9) <{shape = [32 : i32, 32 : i32]}> : (tensor<1x32x32xf32>) -> tensor<32x32xf32>
        %11 = "ttir.add"(%10, %4) : (tensor<32x32xf32>, tensor<32x32xf32>) -> tensor<32x32xf32>
        %12 = "ttir.mesh_shard"(%8) <{shard_dims = array<i64: -1, 1>, shard_direction = #ttcore.shard_direction<shard_to_full>, shard_shape = array<i64: 1, 4>, shard_type = #ttcore.shard_type<identity>}> : (tensor<32x8xf32>) -> tensor<32x32xf32>
        %13 = "ttir.mesh_shard"(%11) <{shard_dims = array<i64: -1>, shard_direction = #ttcore.shard_direction<shard_to_full>, shard_shape = array<i64: 1>, shard_type = #ttcore.shard_type<identity>}> : (tensor<32x32xf32>) -> tensor<32x32xf32>
        return %12, %13 : tensor<32x32xf32>, tensor<32x32xf32>
      }
    }
  }
}


2026-01-07 14:00:53.180 (   1.433s) [        5515B480]      module_builder.cc:1085     1| MLIR Module ttir:
#loc1 = loc("p0.3")
#loc2 = loc("p1.12")
module @SyncTensorsGraph.20 attributes {mhlo.cross_program_prefetches = [], mhlo.input_output_alias = [], mhlo.is_dynamic = false, mhlo.use_auto_spmd_partitioning = false, ttcore.meshes = #ttcore.meshes<[<"mesh" = 2x4>]>} {
  ttcore.device_module {
    builtin.module @SyncTensorsGraph.20 attributes {mhlo.cross_program_prefetches = [], mhlo.input_output_alias = [], mhlo.is_dynamic = false, mhlo.use_auto_spmd_partitioning = false, ttcore.meshes = #ttcore.meshes<[<"mesh" = 2x4>]>} {
      func.func @main(%arg0: tensor<32x32xf32> {ttcore.argument_type = #ttcore.argument_type<input>, ttcore.shard_status = #ttcore.shard_status<presharded>, ttir.name = "args_0"} loc("p0.3"), %arg1: tensor<32x32xf32> {ttcore.argument_type = #ttcore.argument_type<input>, ttcore.shard_status = #ttcore.shard_status<presharded>, ttir.name = "args_1"} loc("p1.12")) -> (tensor<32x32xf32> {ttcore.shard_status = #ttcore.shard_status<unsharded>}, tensor<32x32xf32> {ttcore.shard_status = #ttcore.shard_status<unsharded>}) {
        %0 = "ttir.mesh_shard"(%arg0) <{shard_dims = array<i64: -1, 1>, shard_direction = #ttcore.shard_direction<full_to_shard>, shard_shape = array<i64: 1, 4>, shard_type = #ttcore.shard_type<identity>}> : (tensor<32x32xf32>) -> tensor<32x8xf32> loc(#loc)
        %1 = "ttir.mesh_shard"(%arg1) <{shard_dims = array<i64: -1>, shard_direction = #ttcore.shard_direction<full_to_shard>, shard_shape = array<i64: 1>, shard_type = #ttcore.shard_type<identity>}> : (tensor<32x32xf32>) -> tensor<32x32xf32> loc(#loc)
        %2 = "ttir.constant"() <{value = dense<1.000000e+00> : tensor<f32>}> : () -> tensor<f32> loc(#loc)
        %3 = "ttir.reshape"(%2) <{shape = [1 : i32, 1 : i32]}> : (tensor<f32>) -> tensor<1x1xf32> loc(#loc)
        %4 = "ttir.broadcast"(%3) <{broadcast_dimensions = array<i64: 32, 32>}> : (tensor<1x1xf32>) -> tensor<32x32xf32> loc(#loc)
        %5 = "ttir.reshape"(%0) <{shape = [1 : i32, 32 : i32, 8 : i32]}> : (tensor<32x8xf32>) -> tensor<1x32x8xf32> loc(#loc3)
        %6 = "ttir.reshape"(%5) <{shape = [32 : i32, 8 : i32]}> : (tensor<1x32x8xf32>) -> tensor<32x8xf32> loc(#loc4)
        %7 = "ttir.broadcast"(%3) <{broadcast_dimensions = array<i64: 32, 8>}> : (tensor<1x1xf32>) -> tensor<32x8xf32> loc(#loc)
        %8 = "ttir.add"(%6, %7) : (tensor<32x8xf32>, tensor<32x8xf32>) -> tensor<32x8xf32> loc(#loc5)
        %9 = "ttir.reshape"(%1) <{shape = [1 : i32, 32 : i32, 32 : i32]}> : (tensor<32x32xf32>) -> tensor<1x32x32xf32> loc(#loc6)
        %10 = "ttir.reshape"(%9) <{shape = [32 : i32, 32 : i32]}> : (tensor<1x32x32xf32>) -> tensor<32x32xf32> loc(#loc7)
        %11 = "ttir.add"(%10, %4) : (tensor<32x32xf32>, tensor<32x32xf32>) -> tensor<32x32xf32> loc(#loc8)
        %12 = "ttir.mesh_shard"(%8) <{shard_dims = array<i64: -1, 1>, shard_direction = #ttcore.shard_direction<shard_to_full>, shard_shape = array<i64: 1, 4>, shard_type = #ttcore.shard_type<identity>}> : (tensor<32x8xf32>) -> tensor<32x32xf32> loc(#loc)
        %13 = "ttir.mesh_shard"(%11) <{shard_dims = array<i64: -1>, shard_direction = #ttcore.shard_direction<shard_to_full>, shard_shape = array<i64: 1>, shard_type = #ttcore.shard_type<identity>}> : (tensor<32x32xf32>) -> tensor<32x32xf32> loc(#loc)
        return %12, %13 : tensor<32x32xf32>, tensor<32x32xf32> loc(#loc)
      } loc(#loc)
    } loc(#loc)
  } loc(#loc)
} loc(#loc)
#loc = loc(unknown)
#loc3 = loc("reshape.4")
#loc4 = loc("reshape.6")
#loc5 = loc("add.9")
#loc6 = loc("reshape.13")
#loc7 = loc("reshape.15")
#loc8 = loc("add.18")
------------------ END OF MLIR MODULE ------------------
// -----// IR Dump Before Canonicalizer (canonicalize) ('builtin.module' operation: @SyncTensorsGraph.20) //----- //
module @SyncTensorsGraph.20 attributes {mhlo.cross_program_prefetches = [], mhlo.input_output_alias = [], mhlo.is_dynamic = false, mhlo.use_auto_spmd_partitioning = false, ttcore.meshes = #ttcore.meshes<[<"mesh" = 2x4>]>} {
  ttcore.device_module {
    builtin.module @SyncTensorsGraph.20 attributes {mhlo.cross_program_prefetches = [], mhlo.input_output_alias = [], mhlo.is_dynamic = false, mhlo.use_auto_spmd_partitioning = false, ttcore.meshes = #ttcore.meshes<[<"mesh" = 2x4>]>} {
      func.func @main(%arg0: tensor<32x32xf32> {ttcore.argument_type = #ttcore.argument_type<input>, ttcore.shard_status = #ttcore.shard_status<presharded>, ttir.name = "args_0"}, %arg1: tensor<32x32xf32> {ttcore.argument_type = #ttcore.argument_type<input>, ttcore.shard_status = #ttcore.shard_status<presharded>, ttir.name = "args_1"}) -> (tensor<32x32xf32> {ttcore.shard_status = #ttcore.shard_status<unsharded>}, tensor<32x32xf32> {ttcore.shard_status = #ttcore.shard_status<unsharded>}) {
        %0 = "ttir.mesh_shard"(%arg0) <{shard_dims = array<i64: -1, 1>, shard_direction = #ttcore.shard_direction<full_to_shard>, shard_shape = array<i64: 1, 4>, shard_type = #ttcore.shard_type<identity>}> : (tensor<32x32xf32>) -> tensor<32x8xf32>
        %1 = "ttir.mesh_shard"(%arg1) <{shard_dims = array<i64: -1>, shard_direction = #ttcore.shard_direction<full_to_shard>, shard_shape = array<i64: 1>, shard_type = #ttcore.shard_type<identity>}> : (tensor<32x32xf32>) -> tensor<32x32xf32>
        %2 = "ttir.constant"() <{value = dense<1.000000e+00> : tensor<f32>}> : () -> tensor<f32>
        %3 = "ttir.reshape"(%2) <{shape = [1 : i32, 1 : i32]}> : (tensor<f32>) -> tensor<1x1xf32>
        %4 = "ttir.broadcast"(%3) <{broadcast_dimensions = array<i64: 32, 32>}> : (tensor<1x1xf32>) -> tensor<32x32xf32>
        %5 = "ttir.reshape"(%0) <{shape = [1 : i32, 32 : i32, 8 : i32]}> : (tensor<32x8xf32>) -> tensor<1x32x8xf32>
        %6 = "ttir.reshape"(%5) <{shape = [32 : i32, 8 : i32]}> : (tensor<1x32x8xf32>) -> tensor<32x8xf32>
        %7 = "ttir.broadcast"(%3) <{broadcast_dimensions = array<i64: 32, 8>}> : (tensor<1x1xf32>) -> tensor<32x8xf32>
        %8 = "ttir.add"(%6, %7) : (tensor<32x8xf32>, tensor<32x8xf32>) -> tensor<32x8xf32>
        %9 = "ttir.reshape"(%1) <{shape = [1 : i32, 32 : i32, 32 : i32]}> : (tensor<32x32xf32>) -> tensor<1x32x32xf32>
        %10 = "ttir.reshape"(%9) <{shape = [32 : i32, 32 : i32]}> : (tensor<1x32x32xf32>) -> tensor<32x32xf32>
        %11 = "ttir.add"(%10, %4) : (tensor<32x32xf32>, tensor<32x32xf32>) -> tensor<32x32xf32>
        %12 = "ttir.mesh_shard"(%8) <{shard_dims = array<i64: -1, 1>, shard_direction = #ttcore.shard_direction<shard_to_full>, shard_shape = array<i64: 1, 4>, shard_type = #ttcore.shard_type<identity>}> : (tensor<32x8xf32>) -> tensor<32x32xf32>
        %13 = "ttir.mesh_shard"(%11) <{shard_dims = array<i64: -1>, shard_direction = #ttcore.shard_direction<shard_to_full>, shard_shape = array<i64: 1>, shard_type = #ttcore.shard_type<identity>}> : (tensor<32x32xf32>) -> tensor<32x32xf32>
        return %12, %13 : tensor<32x32xf32>, tensor<32x32xf32>
      }
    }
  }
}


// -----// IR Dump After Canonicalizer (canonicalize) ('builtin.module' operation: @SyncTensorsGraph.20) //----- //
module @SyncTensorsGraph.20 attributes {mhlo.cross_program_prefetches = [], mhlo.input_output_alias = [], mhlo.is_dynamic = false, mhlo.use_auto_spmd_partitioning = false, ttcore.meshes = #ttcore.meshes<[<"mesh" = 2x4>]>} {
  ttcore.device_module {
    builtin.module @SyncTensorsGraph.20 attributes {mhlo.cross_program_prefetches = [], mhlo.input_output_alias = [], mhlo.is_dynamic = false, mhlo.use_auto_spmd_partitioning = false, ttcore.meshes = #ttcore.meshes<[<"mesh" = 2x4>]>} {
      func.func @main(%arg0: tensor<32x32xf32> {ttcore.argument_type = #ttcore.argument_type<input>, ttcore.shard_status = #ttcore.shard_status<presharded>, ttir.name = "args_0"}, %arg1: tensor<32x32xf32> {ttcore.argument_type = #ttcore.argument_type<input>, ttcore.shard_status = #ttcore.shard_status<presharded>, ttir.name = "args_1"}) -> (tensor<32x32xf32> {ttcore.shard_status = #ttcore.shard_status<unsharded>}, tensor<32x32xf32> {ttcore.shard_status = #ttcore.shard_status<unsharded>}) {
        %0 = "ttir.full"() <{fill_value = 1.000000e+00 : f32, shape = array<i32>}> : () -> tensor<f32>
        %1 = "ttir.mesh_shard"(%arg0) <{shard_dims = array<i64: -1, 1>, shard_direction = #ttcore.shard_direction<full_to_shard>, shard_shape = array<i64: 1, 4>, shard_type = #ttcore.shard_type<identity>}> : (tensor<32x32xf32>) -> tensor<32x8xf32>
        %2 = "ttir.reshape"(%0) <{shape = [1 : i32, 1 : i32]}> : (tensor<f32>) -> tensor<1x1xf32>
        %3 = "ttir.broadcast"(%2) <{broadcast_dimensions = array<i64: 32, 32>}> : (tensor<1x1xf32>) -> tensor<32x32xf32>
        %4 = "ttir.broadcast"(%2) <{broadcast_dimensions = array<i64: 32, 8>}> : (tensor<1x1xf32>) -> tensor<32x8xf32>
        %5 = "ttir.add"(%1, %4) : (tensor<32x8xf32>, tensor<32x8xf32>) -> tensor<32x8xf32>
        %6 = "ttir.add"(%arg1, %3) : (tensor<32x32xf32>, tensor<32x32xf32>) -> tensor<32x32xf32>
        %7 = "ttir.mesh_shard"(%5) <{shard_dims = array<i64: -1, 1>, shard_direction = #ttcore.shard_direction<shard_to_full>, shard_shape = array<i64: 1, 4>, shard_type = #ttcore.shard_type<identity>}> : (tensor<32x8xf32>) -> tensor<32x32xf32>
        return %7, %6 : tensor<32x32xf32>, tensor<32x32xf32>
      }
    }
  }
}


// -----// IR Dump Before TTIRToTTIRDecomposition (ttir-to-ttir-decomposition) ('builtin.module' operation: @SyncTensorsGraph.20) //----- //
module @SyncTensorsGraph.20 attributes {mhlo.cross_program_prefetches = [], mhlo.input_output_alias = [], mhlo.is_dynamic = false, mhlo.use_auto_spmd_partitioning = false, ttcore.meshes = #ttcore.meshes<[<"mesh" = 2x4>]>} {
  ttcore.device_module {
    builtin.module @SyncTensorsGraph.20 attributes {mhlo.cross_program_prefetches = [], mhlo.input_output_alias = [], mhlo.is_dynamic = false, mhlo.use_auto_spmd_partitioning = false, ttcore.meshes = #ttcore.meshes<[<"mesh" = 2x4>]>} {
      func.func @main(%arg0: tensor<32x32xf32> {ttcore.argument_type = #ttcore.argument_type<input>, ttcore.shard_status = #ttcore.shard_status<presharded>, ttir.name = "args_0"}, %arg1: tensor<32x32xf32> {ttcore.argument_type = #ttcore.argument_type<input>, ttcore.shard_status = #ttcore.shard_status<presharded>, ttir.name = "args_1"}) -> (tensor<32x32xf32> {ttcore.shard_status = #ttcore.shard_status<unsharded>}, tensor<32x32xf32> {ttcore.shard_status = #ttcore.shard_status<unsharded>}) {
        %0 = "ttir.full"() <{fill_value = 1.000000e+00 : f32, shape = array<i32>}> : () -> tensor<f32>
        %1 = "ttir.mesh_shard"(%arg0) <{shard_dims = array<i64: -1, 1>, shard_direction = #ttcore.shard_direction<full_to_shard>, shard_shape = array<i64: 1, 4>, shard_type = #ttcore.shard_type<identity>}> : (tensor<32x32xf32>) -> tensor<32x8xf32>
        %2 = "ttir.reshape"(%0) <{shape = [1 : i32, 1 : i32]}> : (tensor<f32>) -> tensor<1x1xf32>
        %3 = "ttir.broadcast"(%2) <{broadcast_dimensions = array<i64: 32, 32>}> : (tensor<1x1xf32>) -> tensor<32x32xf32>
        %4 = "ttir.broadcast"(%2) <{broadcast_dimensions = array<i64: 32, 8>}> : (tensor<1x1xf32>) -> tensor<32x8xf32>
        %5 = "ttir.add"(%1, %4) : (tensor<32x8xf32>, tensor<32x8xf32>) -> tensor<32x8xf32>
        %6 = "ttir.add"(%arg1, %3) : (tensor<32x32xf32>, tensor<32x32xf32>) -> tensor<32x32xf32>
        %7 = "ttir.mesh_shard"(%5) <{shard_dims = array<i64: -1, 1>, shard_direction = #ttcore.shard_direction<shard_to_full>, shard_shape = array<i64: 1, 4>, shard_type = #ttcore.shard_type<identity>}> : (tensor<32x8xf32>) -> tensor<32x32xf32>
        return %7, %6 : tensor<32x32xf32>, tensor<32x32xf32>
      }
    }
  }
}


// -----// IR Dump Before TTCoreWrapDeviceModulePass (ttcore-wrap-device-module) ('builtin.module' operation: @SyncTensorsGraph.20) //----- //
module @SyncTensorsGraph.20 attributes {mhlo.cross_program_prefetches = [], mhlo.input_output_alias = [], mhlo.is_dynamic = false, mhlo.use_auto_spmd_partitioning = false, ttcore.meshes = #ttcore.meshes<[<"mesh" = 2x4>]>} {
  ttcore.device_module {
    builtin.module @SyncTensorsGraph.20 attributes {mhlo.cross_program_prefetches = [], mhlo.input_output_alias = [], mhlo.is_dynamic = false, mhlo.use_auto_spmd_partitioning = false, ttcore.meshes = #ttcore.meshes<[<"mesh" = 2x4>]>} {
      func.func @main(%arg0: tensor<32x32xf32> {ttcore.argument_type = #ttcore.argument_type<input>, ttcore.shard_status = #ttcore.shard_status<presharded>, ttir.name = "args_0"}, %arg1: tensor<32x32xf32> {ttcore.argument_type = #ttcore.argument_type<input>, ttcore.shard_status = #ttcore.shard_status<presharded>, ttir.name = "args_1"}) -> (tensor<32x32xf32> {ttcore.shard_status = #ttcore.shard_status<unsharded>}, tensor<32x32xf32> {ttcore.shard_status = #ttcore.shard_status<unsharded>}) {
        %0 = "ttir.full"() <{fill_value = 1.000000e+00 : f32, shape = array<i32>}> : () -> tensor<f32>
        %1 = "ttir.mesh_shard"(%arg0) <{shard_dims = array<i64: -1, 1>, shard_direction = #ttcore.shard_direction<full_to_shard>, shard_shape = array<i64: 1, 4>, shard_type = #ttcore.shard_type<identity>}> : (tensor<32x32xf32>) -> tensor<32x8xf32>
        %2 = "ttir.reshape"(%0) <{shape = [1 : i32, 1 : i32]}> : (tensor<f32>) -> tensor<1x1xf32>
        %3 = "ttir.broadcast"(%2) <{broadcast_dimensions = array<i64: 32, 32>}> : (tensor<1x1xf32>) -> tensor<32x32xf32>
        %4 = "ttir.broadcast"(%2) <{broadcast_dimensions = array<i64: 32, 8>}> : (tensor<1x1xf32>) -> tensor<32x8xf32>
        %5 = "ttir.add"(%1, %4) : (tensor<32x8xf32>, tensor<32x8xf32>) -> tensor<32x8xf32>
        %6 = "ttir.add"(%arg1, %3) : (tensor<32x32xf32>, tensor<32x32xf32>) -> tensor<32x32xf32>
        %7 = "ttir.mesh_shard"(%5) <{shard_dims = array<i64: -1, 1>, shard_direction = #ttcore.shard_direction<shard_to_full>, shard_shape = array<i64: 1, 4>, shard_type = #ttcore.shard_type<identity>}> : (tensor<32x8xf32>) -> tensor<32x32xf32>
        return %7, %6 : tensor<32x32xf32>, tensor<32x32xf32>
      }
    }
  }
}


// -----// IR Dump Before CPUHoistTransform (cpu-hoist-transform) ('builtin.module' operation: @SyncTensorsGraph.20) //----- //
module @SyncTensorsGraph.20 attributes {mhlo.cross_program_prefetches = [], mhlo.input_output_alias = [], mhlo.is_dynamic = false, mhlo.use_auto_spmd_partitioning = false, ttcore.meshes = #ttcore.meshes<[<"mesh" = 2x4>]>} {
  ttcore.device_module {
    builtin.module @SyncTensorsGraph.20 attributes {mhlo.cross_program_prefetches = [], mhlo.input_output_alias = [], mhlo.is_dynamic = false, mhlo.use_auto_spmd_partitioning = false, ttcore.meshes = #ttcore.meshes<[<"mesh" = 2x4>]>} {
      func.func @main(%arg0: tensor<32x32xf32> {ttcore.argument_type = #ttcore.argument_type<input>, ttcore.shard_status = #ttcore.shard_status<presharded>, ttir.name = "args_0"}, %arg1: tensor<32x32xf32> {ttcore.argument_type = #ttcore.argument_type<input>, ttcore.shard_status = #ttcore.shard_status<presharded>, ttir.name = "args_1"}) -> (tensor<32x32xf32> {ttcore.shard_status = #ttcore.shard_status<unsharded>}, tensor<32x32xf32> {ttcore.shard_status = #ttcore.shard_status<unsharded>}) {
        %0 = "ttir.full"() <{fill_value = 1.000000e+00 : f32, shape = array<i32>}> : () -> tensor<f32>
        %1 = "ttir.mesh_shard"(%arg0) <{shard_dims = array<i64: -1, 1>, shard_direction = #ttcore.shard_direction<full_to_shard>, shard_shape = array<i64: 1, 4>, shard_type = #ttcore.shard_type<identity>}> : (tensor<32x32xf32>) -> tensor<32x8xf32>
        %2 = "ttir.reshape"(%0) <{shape = [1 : i32, 1 : i32]}> : (tensor<f32>) -> tensor<1x1xf32>
        %3 = "ttir.broadcast"(%2) <{broadcast_dimensions = array<i64: 32, 32>}> : (tensor<1x1xf32>) -> tensor<32x32xf32>
        %4 = "ttir.broadcast"(%2) <{broadcast_dimensions = array<i64: 32, 8>}> : (tensor<1x1xf32>) -> tensor<32x8xf32>
        %5 = "ttir.add"(%1, %4) : (tensor<32x8xf32>, tensor<32x8xf32>) -> tensor<32x8xf32>
        %6 = "ttir.add"(%arg1, %3) : (tensor<32x32xf32>, tensor<32x32xf32>) -> tensor<32x32xf32>
        %7 = "ttir.mesh_shard"(%5) <{shard_dims = array<i64: -1, 1>, shard_direction = #ttcore.shard_direction<shard_to_full>, shard_shape = array<i64: 1, 4>, shard_type = #ttcore.shard_type<identity>}> : (tensor<32x8xf32>) -> tensor<32x32xf32>
        return %7, %6 : tensor<32x32xf32>, tensor<32x32xf32>
      }
    }
  }
}


// -----// IR Dump Before ElementTypeNormalization (ttir-element-type-normalization) ('builtin.module' operation: @SyncTensorsGraph.20) //----- //
module @SyncTensorsGraph.20 attributes {mhlo.cross_program_prefetches = [], mhlo.input_output_alias = [], mhlo.is_dynamic = false, mhlo.use_auto_spmd_partitioning = false, ttcore.meshes = #ttcore.meshes<[<"mesh" = 2x4>]>} {
  ttcore.device_module {
    builtin.module @SyncTensorsGraph.20 attributes {mhlo.cross_program_prefetches = [], mhlo.input_output_alias = [], mhlo.is_dynamic = false, mhlo.use_auto_spmd_partitioning = false, ttcore.meshes = #ttcore.meshes<[<"mesh" = 2x4>]>} {
      func.func @main(%arg0: tensor<32x32xf32> {ttcore.argument_type = #ttcore.argument_type<input>, ttcore.shard_status = #ttcore.shard_status<presharded>, ttir.name = "args_0"}, %arg1: tensor<32x32xf32> {ttcore.argument_type = #ttcore.argument_type<input>, ttcore.shard_status = #ttcore.shard_status<presharded>, ttir.name = "args_1"}) -> (tensor<32x32xf32> {ttcore.shard_status = #ttcore.shard_status<unsharded>}, tensor<32x32xf32> {ttcore.shard_status = #ttcore.shard_status<unsharded>}) {
        %0 = "ttir.full"() <{fill_value = 1.000000e+00 : f32, shape = array<i32>}> : () -> tensor<f32>
        %1 = "ttir.mesh_shard"(%arg0) <{shard_dims = array<i64: -1, 1>, shard_direction = #ttcore.shard_direction<full_to_shard>, shard_shape = array<i64: 1, 4>, shard_type = #ttcore.shard_type<identity>}> : (tensor<32x32xf32>) -> tensor<32x8xf32>
        %2 = "ttir.reshape"(%0) <{shape = [1 : i32, 1 : i32]}> : (tensor<f32>) -> tensor<1x1xf32>
        %3 = "ttir.broadcast"(%2) <{broadcast_dimensions = array<i64: 32, 32>}> : (tensor<1x1xf32>) -> tensor<32x32xf32>
        %4 = "ttir.broadcast"(%2) <{broadcast_dimensions = array<i64: 32, 8>}> : (tensor<1x1xf32>) -> tensor<32x8xf32>
        %5 = "ttir.add"(%1, %4) : (tensor<32x8xf32>, tensor<32x8xf32>) -> tensor<32x8xf32>
        %6 = "ttir.add"(%arg1, %3) : (tensor<32x32xf32>, tensor<32x32xf32>) -> tensor<32x32xf32>
        %7 = "ttir.mesh_shard"(%5) <{shard_dims = array<i64: -1, 1>, shard_direction = #ttcore.shard_direction<shard_to_full>, shard_shape = array<i64: 1, 4>, shard_type = #ttcore.shard_type<identity>}> : (tensor<32x8xf32>) -> tensor<32x32xf32>
        return %7, %6 : tensor<32x32xf32>, tensor<32x32xf32>
      }
    }
  }
}


// -----// IR Dump Before TTCoreRegisterDevicePass (ttcore-register-device) ('builtin.module' operation: @SyncTensorsGraph.20) //----- //
module @SyncTensorsGraph.20 attributes {mhlo.cross_program_prefetches = [], mhlo.input_output_alias = [], mhlo.is_dynamic = false, mhlo.use_auto_spmd_partitioning = false, ttcore.meshes = #ttcore.meshes<[<"mesh" = 2x4>]>} {
  ttcore.device_module {
    builtin.module @SyncTensorsGraph.20 attributes {mhlo.cross_program_prefetches = [], mhlo.input_output_alias = [], mhlo.is_dynamic = false, mhlo.use_auto_spmd_partitioning = false, ttcore.meshes = #ttcore.meshes<[<"mesh" = 2x4>]>} {
      func.func @main(%arg0: tensor<32x32xf32> {ttcore.argument_type = #ttcore.argument_type<input>, ttcore.shard_status = #ttcore.shard_status<presharded>, ttir.name = "args_0"}, %arg1: tensor<32x32xf32> {ttcore.argument_type = #ttcore.argument_type<input>, ttcore.shard_status = #ttcore.shard_status<presharded>, ttir.name = "args_1"}) -> (tensor<32x32xf32> {ttcore.shard_status = #ttcore.shard_status<unsharded>}, tensor<32x32xf32> {ttcore.shard_status = #ttcore.shard_status<unsharded>}) {
        %0 = "ttir.full"() <{fill_value = 1.000000e+00 : f32, shape = array<i32>}> : () -> tensor<f32>
        %1 = "ttir.mesh_shard"(%arg0) <{shard_dims = array<i64: -1, 1>, shard_direction = #ttcore.shard_direction<full_to_shard>, shard_shape = array<i64: 1, 4>, shard_type = #ttcore.shard_type<identity>}> : (tensor<32x32xf32>) -> tensor<32x8xf32>
        %2 = "ttir.reshape"(%0) <{shape = [1 : i32, 1 : i32]}> : (tensor<f32>) -> tensor<1x1xf32>
        %3 = "ttir.broadcast"(%2) <{broadcast_dimensions = array<i64: 32, 32>}> : (tensor<1x1xf32>) -> tensor<32x32xf32>
        %4 = "ttir.broadcast"(%2) <{broadcast_dimensions = array<i64: 32, 8>}> : (tensor<1x1xf32>) -> tensor<32x8xf32>
        %5 = "ttir.add"(%1, %4) : (tensor<32x8xf32>, tensor<32x8xf32>) -> tensor<32x8xf32>
        %6 = "ttir.add"(%arg1, %3) : (tensor<32x32xf32>, tensor<32x32xf32>) -> tensor<32x32xf32>
        %7 = "ttir.mesh_shard"(%5) <{shard_dims = array<i64: -1, 1>, shard_direction = #ttcore.shard_direction<shard_to_full>, shard_shape = array<i64: 1, 4>, shard_type = #ttcore.shard_type<identity>}> : (tensor<32x8xf32>) -> tensor<32x32xf32>
        return %7, %6 : tensor<32x32xf32>, tensor<32x32xf32>
      }
    }
  }
}


// -----// IR Dump After TTCoreRegisterDevicePass (ttcore-register-device) ('builtin.module' operation: @SyncTensorsGraph.20) //----- //
#system_desc = #ttcore.system_desc<[{role = host, target_triple = "x86_64-pc-linux"}], [{arch = <wormhole_b0>, grid = 8x8, coord_translation_offsets = 18x18, l1_size = 1499136, num_dram_channels = 12, dram_channel_size = 1073741824, noc_l1_address_align_bytes = 16, pcie_address_align_bytes = 32, noc_dram_address_align_bytes = 32, l1_unreserved_base = 102656, erisc_l1_unreserved_base = 98304, dram_unreserved_base = 32, dram_unreserved_end = 1073142976, supported_data_types = [<f32>, <f16>, <bf16>, <bfp_f8>, <bfp_bf8>, <bfp_f4>, <bfp_bf4>, <bfp_f2>, <bfp_bf2>, <u32>, <u16>, <u8>, <si32>], supported_tile_sizes = [ 4x16,  16x16,  32x16,  4x32,  16x32,  32x32], dst_physical_size_tiles = 16, num_cbs = 32, num_compute_threads = 1, num_datamovement_threads = 2}, {arch = <wormhole_b0>, grid = 8x8, coord_translation_offsets = 18x18, l1_size = 1499136, num_dram_channels = 12, dram_channel_size = 1073741824, noc_l1_address_align_bytes = 16, pcie_address_align_bytes = 32, noc_dram_address_align_bytes = 32, l1_unreserved_base = 102656, erisc_l1_unreserved_base = 98304, dram_unreserved_base = 32, dram_unreserved_end = 1073142976, supported_data_types = [<f32>, <f16>, <bf16>, <bfp_f8>, <bfp_bf8>, <bfp_f4>, <bfp_bf4>, <bfp_f2>, <bfp_bf2>, <u32>, <u16>, <u8>, <si32>], supported_tile_sizes = [ 4x16,  16x16,  32x16,  4x32,  16x32,  32x32], dst_physical_size_tiles = 16, num_cbs = 32, num_compute_threads = 1, num_datamovement_threads = 2}, {arch = <wormhole_b0>, grid = 8x8, coord_translation_offsets = 18x18, l1_size = 1499136, num_dram_channels = 12, dram_channel_size = 1073741824, noc_l1_address_align_bytes = 16, pcie_address_align_bytes = 32, noc_dram_address_align_bytes = 32, l1_unreserved_base = 102656, erisc_l1_unreserved_base = 98304, dram_unreserved_base = 32, dram_unreserved_end = 1073142976, supported_data_types = [<f32>, <f16>, <bf16>, <bfp_f8>, <bfp_bf8>, <bfp_f4>, <bfp_bf4>, <bfp_f2>, <bfp_bf2>, <u32>, <u16>, <u8>, <si32>], supported_tile_sizes = [ 4x16,  16x16,  32x16,  4x32,  16x32,  32x32], dst_physical_size_tiles = 16, num_cbs = 32, num_compute_threads = 1, num_datamovement_threads = 2}, {arch = <wormhole_b0>, grid = 8x8, coord_translation_offsets = 18x18, l1_size = 1499136, num_dram_channels = 12, dram_channel_size = 1073741824, noc_l1_address_align_bytes = 16, pcie_address_align_bytes = 32, noc_dram_address_align_bytes = 32, l1_unreserved_base = 102656, erisc_l1_unreserved_base = 98304, dram_unreserved_base = 32, dram_unreserved_end = 1073142976, supported_data_types = [<f32>, <f16>, <bf16>, <bfp_f8>, <bfp_bf8>, <bfp_f4>, <bfp_bf4>, <bfp_f2>, <bfp_bf2>, <u32>, <u16>, <u8>, <si32>], supported_tile_sizes = [ 4x16,  16x16,  32x16,  4x32,  16x32,  32x32], dst_physical_size_tiles = 16, num_cbs = 32, num_compute_threads = 1, num_datamovement_threads = 2}, {arch = <wormhole_b0>, grid = 8x8, coord_translation_offsets = 18x18, l1_size = 1499136, num_dram_channels = 12, dram_channel_size = 1073741824, noc_l1_address_align_bytes = 16, pcie_address_align_bytes = 32, noc_dram_address_align_bytes = 32, l1_unreserved_base = 102656, erisc_l1_unreserved_base = 98304, dram_unreserved_base = 32, dram_unreserved_end = 1073160096, supported_data_types = [<f32>, <f16>, <bf16>, <bfp_f8>, <bfp_bf8>, <bfp_f4>, <bfp_bf4>, <bfp_f2>, <bfp_bf2>, <u32>, <u16>, <u8>, <si32>], supported_tile_sizes = [ 4x16,  16x16,  32x16,  4x32,  16x32,  32x32], dst_physical_size_tiles = 16, num_cbs = 32, num_compute_threads = 1, num_datamovement_threads = 2}, {arch = <wormhole_b0>, grid = 8x8, coord_translation_offsets = 18x18, l1_size = 1499136, num_dram_channels = 12, dram_channel_size = 1073741824, noc_l1_address_align_bytes = 16, pcie_address_align_bytes = 32, noc_dram_address_align_bytes = 32, l1_unreserved_base = 102656, erisc_l1_unreserved_base = 98304, dram_unreserved_base = 32, dram_unreserved_end = 1073160096, supported_data_types = [<f32>, <f16>, <bf16>, <bfp_f8>, <bfp_bf8>, <bfp_f4>, <bfp_bf4>, <bfp_f2>, <bfp_bf2>, <u32>, <u16>, <u8>, <si32>], supported_tile_sizes = [ 4x16,  16x16,  32x16,  4x32,  16x32,  32x32], dst_physical_size_tiles = 16, num_cbs = 32, num_compute_threads = 1, num_datamovement_threads = 2}, {arch = <wormhole_b0>, grid = 8x8, coord_translation_offsets = 18x18, l1_size = 1499136, num_dram_channels = 12, dram_channel_size = 1073741824, noc_l1_address_align_bytes = 16, pcie_address_align_bytes = 32, noc_dram_address_align_bytes = 32, l1_unreserved_base = 102656, erisc_l1_unreserved_base = 98304, dram_unreserved_base = 32, dram_unreserved_end = 1073160096, supported_data_types = [<f32>, <f16>, <bf16>, <bfp_f8>, <bfp_bf8>, <bfp_f4>, <bfp_bf4>, <bfp_f2>, <bfp_bf2>, <u32>, <u16>, <u8>, <si32>], supported_tile_sizes = [ 4x16,  16x16,  32x16,  4x32,  16x32,  32x32], dst_physical_size_tiles = 16, num_cbs = 32, num_compute_threads = 1, num_datamovement_threads = 2}, {arch = <wormhole_b0>, grid = 8x8, coord_translation_offsets = 18x18, l1_size = 1499136, num_dram_channels = 12, dram_channel_size = 1073741824, noc_l1_address_align_bytes = 16, pcie_address_align_bytes = 32, noc_dram_address_align_bytes = 32, l1_unreserved_base = 102656, erisc_l1_unreserved_base = 98304, dram_unreserved_base = 32, dram_unreserved_end = 1073160096, supported_data_types = [<f32>, <f16>, <bf16>, <bfp_f8>, <bfp_bf8>, <bfp_f4>, <bfp_bf4>, <bfp_f2>, <bfp_bf2>, <u32>, <u16>, <u8>, <si32>], supported_tile_sizes = [ 4x16,  16x16,  32x16,  4x32,  16x32,  32x32], dst_physical_size_tiles = 16, num_cbs = 32, num_compute_threads = 1, num_datamovement_threads = 2}], [0, 1, 2, 3, 4, 5, 6, 7], [1 : i32, 1 : i32, 1 : i32, 1 : i32, 0 : i32, 0 : i32, 0 : i32, 0 : i32], [ 0x0x0x0]>
module @SyncTensorsGraph.20 attributes {mhlo.cross_program_prefetches = [], mhlo.input_output_alias = [], mhlo.is_dynamic = false, mhlo.use_auto_spmd_partitioning = false, ttcore.meshes = #ttcore.meshes<[<"mesh" = 2x4>]>} {
  ttcore.device_module {
    builtin.module @SyncTensorsGraph.20 attributes {mhlo.cross_program_prefetches = [], mhlo.input_output_alias = [], mhlo.is_dynamic = false, mhlo.use_auto_spmd_partitioning = false, ttcore.meshes = #ttcore.meshes<[<"mesh" = 2x4>]>, ttcore.system_desc = #system_desc} {
      ttcore.device @default_device = <workerGrid = #ttcore.grid<8x8, (d0, d1) -> (0, d0, d1)>, l1Map = (d0, d1, d2)[s0] -> (0, d0, d1, d2 + s0), dramMap = (d0, d1, d2)[s0, s1, s2, s3, s4, s5, s6] -> (0, 0, (((d0 * s1) * (s2 * (s3 * s6)) + d1 * (s2 * (s3 * s6)) + d2) floordiv s4) mod 12, ((((d0 * s1) * (s2 * (s3 * s6)) + d1 * (s2 * (s3 * s6)) + d2) floordiv s4) floordiv 12) * s4 + ((d0 * s1) * (s2 * (s3 * s6)) + d1 * (s2 * (s3 * s6)) + d2) mod s4 + s5), meshShape = 2x4, chipIds = [0, 1, 2, 3, 4, 5, 6, 7]>
      func.func @main(%arg0: tensor<32x32xf32> {ttcore.argument_type = #ttcore.argument_type<input>, ttcore.shard_status = #ttcore.shard_status<presharded>, ttir.name = "args_0"}, %arg1: tensor<32x32xf32> {ttcore.argument_type = #ttcore.argument_type<input>, ttcore.shard_status = #ttcore.shard_status<presharded>, ttir.name = "args_1"}) -> (tensor<32x32xf32> {ttcore.shard_status = #ttcore.shard_status<unsharded>}, tensor<32x32xf32> {ttcore.shard_status = #ttcore.shard_status<unsharded>}) {
        %0 = "ttir.full"() <{fill_value = 1.000000e+00 : f32, shape = array<i32>}> : () -> tensor<f32>
        %1 = "ttir.mesh_shard"(%arg0) <{shard_dims = array<i64: -1, 1>, shard_direction = #ttcore.shard_direction<full_to_shard>, shard_shape = array<i64: 1, 4>, shard_type = #ttcore.shard_type<identity>}> : (tensor<32x32xf32>) -> tensor<32x8xf32>
        %2 = "ttir.reshape"(%0) <{shape = [1 : i32, 1 : i32]}> : (tensor<f32>) -> tensor<1x1xf32>
        %3 = "ttir.broadcast"(%2) <{broadcast_dimensions = array<i64: 32, 32>}> : (tensor<1x1xf32>) -> tensor<32x32xf32>
        %4 = "ttir.broadcast"(%2) <{broadcast_dimensions = array<i64: 32, 8>}> : (tensor<1x1xf32>) -> tensor<32x8xf32>
        %5 = "ttir.add"(%1, %4) : (tensor<32x8xf32>, tensor<32x8xf32>) -> tensor<32x8xf32>
        %6 = "ttir.add"(%arg1, %3) : (tensor<32x32xf32>, tensor<32x32xf32>) -> tensor<32x32xf32>
        %7 = "ttir.mesh_shard"(%5) <{shard_dims = array<i64: -1, 1>, shard_direction = #ttcore.shard_direction<shard_to_full>, shard_shape = array<i64: 1, 4>, shard_type = #ttcore.shard_type<identity>}> : (tensor<32x8xf32>) -> tensor<32x32xf32>
        return %7, %6 : tensor<32x32xf32>, tensor<32x32xf32>
      }
    }
  }
}


// -----// IR Dump Before TTPopulateArgumentTypes (tt-populate-argument-types) ('builtin.module' operation: @SyncTensorsGraph.20) //----- //
#system_desc = #ttcore.system_desc<[{role = host, target_triple = "x86_64-pc-linux"}], [{arch = <wormhole_b0>, grid = 8x8, coord_translation_offsets = 18x18, l1_size = 1499136, num_dram_channels = 12, dram_channel_size = 1073741824, noc_l1_address_align_bytes = 16, pcie_address_align_bytes = 32, noc_dram_address_align_bytes = 32, l1_unreserved_base = 102656, erisc_l1_unreserved_base = 98304, dram_unreserved_base = 32, dram_unreserved_end = 1073142976, supported_data_types = [<f32>, <f16>, <bf16>, <bfp_f8>, <bfp_bf8>, <bfp_f4>, <bfp_bf4>, <bfp_f2>, <bfp_bf2>, <u32>, <u16>, <u8>, <si32>], supported_tile_sizes = [ 4x16,  16x16,  32x16,  4x32,  16x32,  32x32], dst_physical_size_tiles = 16, num_cbs = 32, num_compute_threads = 1, num_datamovement_threads = 2}, {arch = <wormhole_b0>, grid = 8x8, coord_translation_offsets = 18x18, l1_size = 1499136, num_dram_channels = 12, dram_channel_size = 1073741824, noc_l1_address_align_bytes = 16, pcie_address_align_bytes = 32, noc_dram_address_align_bytes = 32, l1_unreserved_base = 102656, erisc_l1_unreserved_base = 98304, dram_unreserved_base = 32, dram_unreserved_end = 1073142976, supported_data_types = [<f32>, <f16>, <bf16>, <bfp_f8>, <bfp_bf8>, <bfp_f4>, <bfp_bf4>, <bfp_f2>, <bfp_bf2>, <u32>, <u16>, <u8>, <si32>], supported_tile_sizes = [ 4x16,  16x16,  32x16,  4x32,  16x32,  32x32], dst_physical_size_tiles = 16, num_cbs = 32, num_compute_threads = 1, num_datamovement_threads = 2}, {arch = <wormhole_b0>, grid = 8x8, coord_translation_offsets = 18x18, l1_size = 1499136, num_dram_channels = 12, dram_channel_size = 1073741824, noc_l1_address_align_bytes = 16, pcie_address_align_bytes = 32, noc_dram_address_align_bytes = 32, l1_unreserved_base = 102656, erisc_l1_unreserved_base = 98304, dram_unreserved_base = 32, dram_unreserved_end = 1073142976, supported_data_types = [<f32>, <f16>, <bf16>, <bfp_f8>, <bfp_bf8>, <bfp_f4>, <bfp_bf4>, <bfp_f2>, <bfp_bf2>, <u32>, <u16>, <u8>, <si32>], supported_tile_sizes = [ 4x16,  16x16,  32x16,  4x32,  16x32,  32x32], dst_physical_size_tiles = 16, num_cbs = 32, num_compute_threads = 1, num_datamovement_threads = 2}, {arch = <wormhole_b0>, grid = 8x8, coord_translation_offsets = 18x18, l1_size = 1499136, num_dram_channels = 12, dram_channel_size = 1073741824, noc_l1_address_align_bytes = 16, pcie_address_align_bytes = 32, noc_dram_address_align_bytes = 32, l1_unreserved_base = 102656, erisc_l1_unreserved_base = 98304, dram_unreserved_base = 32, dram_unreserved_end = 1073142976, supported_data_types = [<f32>, <f16>, <bf16>, <bfp_f8>, <bfp_bf8>, <bfp_f4>, <bfp_bf4>, <bfp_f2>, <bfp_bf2>, <u32>, <u16>, <u8>, <si32>], supported_tile_sizes = [ 4x16,  16x16,  32x16,  4x32,  16x32,  32x32], dst_physical_size_tiles = 16, num_cbs = 32, num_compute_threads = 1, num_datamovement_threads = 2}, {arch = <wormhole_b0>, grid = 8x8, coord_translation_offsets = 18x18, l1_size = 1499136, num_dram_channels = 12, dram_channel_size = 1073741824, noc_l1_address_align_bytes = 16, pcie_address_align_bytes = 32, noc_dram_address_align_bytes = 32, l1_unreserved_base = 102656, erisc_l1_unreserved_base = 98304, dram_unreserved_base = 32, dram_unreserved_end = 1073160096, supported_data_types = [<f32>, <f16>, <bf16>, <bfp_f8>, <bfp_bf8>, <bfp_f4>, <bfp_bf4>, <bfp_f2>, <bfp_bf2>, <u32>, <u16>, <u8>, <si32>], supported_tile_sizes = [ 4x16,  16x16,  32x16,  4x32,  16x32,  32x32], dst_physical_size_tiles = 16, num_cbs = 32, num_compute_threads = 1, num_datamovement_threads = 2}, {arch = <wormhole_b0>, grid = 8x8, coord_translation_offsets = 18x18, l1_size = 1499136, num_dram_channels = 12, dram_channel_size = 1073741824, noc_l1_address_align_bytes = 16, pcie_address_align_bytes = 32, noc_dram_address_align_bytes = 32, l1_unreserved_base = 102656, erisc_l1_unreserved_base = 98304, dram_unreserved_base = 32, dram_unreserved_end = 1073160096, supported_data_types = [<f32>, <f16>, <bf16>, <bfp_f8>, <bfp_bf8>, <bfp_f4>, <bfp_bf4>, <bfp_f2>, <bfp_bf2>, <u32>, <u16>, <u8>, <si32>], supported_tile_sizes = [ 4x16,  16x16,  32x16,  4x32,  16x32,  32x32], dst_physical_size_tiles = 16, num_cbs = 32, num_compute_threads = 1, num_datamovement_threads = 2}, {arch = <wormhole_b0>, grid = 8x8, coord_translation_offsets = 18x18, l1_size = 1499136, num_dram_channels = 12, dram_channel_size = 1073741824, noc_l1_address_align_bytes = 16, pcie_address_align_bytes = 32, noc_dram_address_align_bytes = 32, l1_unreserved_base = 102656, erisc_l1_unreserved_base = 98304, dram_unreserved_base = 32, dram_unreserved_end = 1073160096, supported_data_types = [<f32>, <f16>, <bf16>, <bfp_f8>, <bfp_bf8>, <bfp_f4>, <bfp_bf4>, <bfp_f2>, <bfp_bf2>, <u32>, <u16>, <u8>, <si32>], supported_tile_sizes = [ 4x16,  16x16,  32x16,  4x32,  16x32,  32x32], dst_physical_size_tiles = 16, num_cbs = 32, num_compute_threads = 1, num_datamovement_threads = 2}, {arch = <wormhole_b0>, grid = 8x8, coord_translation_offsets = 18x18, l1_size = 1499136, num_dram_channels = 12, dram_channel_size = 1073741824, noc_l1_address_align_bytes = 16, pcie_address_align_bytes = 32, noc_dram_address_align_bytes = 32, l1_unreserved_base = 102656, erisc_l1_unreserved_base = 98304, dram_unreserved_base = 32, dram_unreserved_end = 1073160096, supported_data_types = [<f32>, <f16>, <bf16>, <bfp_f8>, <bfp_bf8>, <bfp_f4>, <bfp_bf4>, <bfp_f2>, <bfp_bf2>, <u32>, <u16>, <u8>, <si32>], supported_tile_sizes = [ 4x16,  16x16,  32x16,  4x32,  16x32,  32x32], dst_physical_size_tiles = 16, num_cbs = 32, num_compute_threads = 1, num_datamovement_threads = 2}], [0, 1, 2, 3, 4, 5, 6, 7], [1 : i32, 1 : i32, 1 : i32, 1 : i32, 0 : i32, 0 : i32, 0 : i32, 0 : i32], [ 0x0x0x0]>
module @SyncTensorsGraph.20 attributes {mhlo.cross_program_prefetches = [], mhlo.input_output_alias = [], mhlo.is_dynamic = false, mhlo.use_auto_spmd_partitioning = false, ttcore.meshes = #ttcore.meshes<[<"mesh" = 2x4>]>} {
  ttcore.device_module {
    builtin.module @SyncTensorsGraph.20 attributes {mhlo.cross_program_prefetches = [], mhlo.input_output_alias = [], mhlo.is_dynamic = false, mhlo.use_auto_spmd_partitioning = false, ttcore.meshes = #ttcore.meshes<[<"mesh" = 2x4>]>, ttcore.system_desc = #system_desc} {
      ttcore.device @default_device = <workerGrid = #ttcore.grid<8x8, (d0, d1) -> (0, d0, d1)>, l1Map = (d0, d1, d2)[s0] -> (0, d0, d1, d2 + s0), dramMap = (d0, d1, d2)[s0, s1, s2, s3, s4, s5, s6] -> (0, 0, (((d0 * s1) * (s2 * (s3 * s6)) + d1 * (s2 * (s3 * s6)) + d2) floordiv s4) mod 12, ((((d0 * s1) * (s2 * (s3 * s6)) + d1 * (s2 * (s3 * s6)) + d2) floordiv s4) floordiv 12) * s4 + ((d0 * s1) * (s2 * (s3 * s6)) + d1 * (s2 * (s3 * s6)) + d2) mod s4 + s5), meshShape = 2x4, chipIds = [0, 1, 2, 3, 4, 5, 6, 7]>
      func.func @main(%arg0: tensor<32x32xf32> {ttcore.argument_type = #ttcore.argument_type<input>, ttcore.shard_status = #ttcore.shard_status<presharded>, ttir.name = "args_0"}, %arg1: tensor<32x32xf32> {ttcore.argument_type = #ttcore.argument_type<input>, ttcore.shard_status = #ttcore.shard_status<presharded>, ttir.name = "args_1"}) -> (tensor<32x32xf32> {ttcore.shard_status = #ttcore.shard_status<unsharded>}, tensor<32x32xf32> {ttcore.shard_status = #ttcore.shard_status<unsharded>}) {
        %0 = "ttir.full"() <{fill_value = 1.000000e+00 : f32, shape = array<i32>}> : () -> tensor<f32>
        %1 = "ttir.mesh_shard"(%arg0) <{shard_dims = array<i64: -1, 1>, shard_direction = #ttcore.shard_direction<full_to_shard>, shard_shape = array<i64: 1, 4>, shard_type = #ttcore.shard_type<identity>}> : (tensor<32x32xf32>) -> tensor<32x8xf32>
        %2 = "ttir.reshape"(%0) <{shape = [1 : i32, 1 : i32]}> : (tensor<f32>) -> tensor<1x1xf32>
        %3 = "ttir.broadcast"(%2) <{broadcast_dimensions = array<i64: 32, 32>}> : (tensor<1x1xf32>) -> tensor<32x32xf32>
        %4 = "ttir.broadcast"(%2) <{broadcast_dimensions = array<i64: 32, 8>}> : (tensor<1x1xf32>) -> tensor<32x8xf32>
        %5 = "ttir.add"(%1, %4) : (tensor<32x8xf32>, tensor<32x8xf32>) -> tensor<32x8xf32>
        %6 = "ttir.add"(%arg1, %3) : (tensor<32x32xf32>, tensor<32x32xf32>) -> tensor<32x32xf32>
        %7 = "ttir.mesh_shard"(%5) <{shard_dims = array<i64: -1, 1>, shard_direction = #ttcore.shard_direction<shard_to_full>, shard_shape = array<i64: 1, 4>, shard_type = #ttcore.shard_type<identity>}> : (tensor<32x8xf32>) -> tensor<32x32xf32>
        return %7, %6 : tensor<32x32xf32>, tensor<32x32xf32>
      }
    }
  }
}


// -----// IR Dump Before Canonicalizer (canonicalize) ('builtin.module' operation: @SyncTensorsGraph.20) //----- //
#system_desc = #ttcore.system_desc<[{role = host, target_triple = "x86_64-pc-linux"}], [{arch = <wormhole_b0>, grid = 8x8, coord_translation_offsets = 18x18, l1_size = 1499136, num_dram_channels = 12, dram_channel_size = 1073741824, noc_l1_address_align_bytes = 16, pcie_address_align_bytes = 32, noc_dram_address_align_bytes = 32, l1_unreserved_base = 102656, erisc_l1_unreserved_base = 98304, dram_unreserved_base = 32, dram_unreserved_end = 1073142976, supported_data_types = [<f32>, <f16>, <bf16>, <bfp_f8>, <bfp_bf8>, <bfp_f4>, <bfp_bf4>, <bfp_f2>, <bfp_bf2>, <u32>, <u16>, <u8>, <si32>], supported_tile_sizes = [ 4x16,  16x16,  32x16,  4x32,  16x32,  32x32], dst_physical_size_tiles = 16, num_cbs = 32, num_compute_threads = 1, num_datamovement_threads = 2}, {arch = <wormhole_b0>, grid = 8x8, coord_translation_offsets = 18x18, l1_size = 1499136, num_dram_channels = 12, dram_channel_size = 1073741824, noc_l1_address_align_bytes = 16, pcie_address_align_bytes = 32, noc_dram_address_align_bytes = 32, l1_unreserved_base = 102656, erisc_l1_unreserved_base = 98304, dram_unreserved_base = 32, dram_unreserved_end = 1073142976, supported_data_types = [<f32>, <f16>, <bf16>, <bfp_f8>, <bfp_bf8>, <bfp_f4>, <bfp_bf4>, <bfp_f2>, <bfp_bf2>, <u32>, <u16>, <u8>, <si32>], supported_tile_sizes = [ 4x16,  16x16,  32x16,  4x32,  16x32,  32x32], dst_physical_size_tiles = 16, num_cbs = 32, num_compute_threads = 1, num_datamovement_threads = 2}, {arch = <wormhole_b0>, grid = 8x8, coord_translation_offsets = 18x18, l1_size = 1499136, num_dram_channels = 12, dram_channel_size = 1073741824, noc_l1_address_align_bytes = 16, pcie_address_align_bytes = 32, noc_dram_address_align_bytes = 32, l1_unreserved_base = 102656, erisc_l1_unreserved_base = 98304, dram_unreserved_base = 32, dram_unreserved_end = 1073142976, supported_data_types = [<f32>, <f16>, <bf16>, <bfp_f8>, <bfp_bf8>, <bfp_f4>, <bfp_bf4>, <bfp_f2>, <bfp_bf2>, <u32>, <u16>, <u8>, <si32>], supported_tile_sizes = [ 4x16,  16x16,  32x16,  4x32,  16x32,  32x32], dst_physical_size_tiles = 16, num_cbs = 32, num_compute_threads = 1, num_datamovement_threads = 2}, {arch = <wormhole_b0>, grid = 8x8, coord_translation_offsets = 18x18, l1_size = 1499136, num_dram_channels = 12, dram_channel_size = 1073741824, noc_l1_address_align_bytes = 16, pcie_address_align_bytes = 32, noc_dram_address_align_bytes = 32, l1_unreserved_base = 102656, erisc_l1_unreserved_base = 98304, dram_unreserved_base = 32, dram_unreserved_end = 1073142976, supported_data_types = [<f32>, <f16>, <bf16>, <bfp_f8>, <bfp_bf8>, <bfp_f4>, <bfp_bf4>, <bfp_f2>, <bfp_bf2>, <u32>, <u16>, <u8>, <si32>], supported_tile_sizes = [ 4x16,  16x16,  32x16,  4x32,  16x32,  32x32], dst_physical_size_tiles = 16, num_cbs = 32, num_compute_threads = 1, num_datamovement_threads = 2}, {arch = <wormhole_b0>, grid = 8x8, coord_translation_offsets = 18x18, l1_size = 1499136, num_dram_channels = 12, dram_channel_size = 1073741824, noc_l1_address_align_bytes = 16, pcie_address_align_bytes = 32, noc_dram_address_align_bytes = 32, l1_unreserved_base = 102656, erisc_l1_unreserved_base = 98304, dram_unreserved_base = 32, dram_unreserved_end = 1073160096, supported_data_types = [<f32>, <f16>, <bf16>, <bfp_f8>, <bfp_bf8>, <bfp_f4>, <bfp_bf4>, <bfp_f2>, <bfp_bf2>, <u32>, <u16>, <u8>, <si32>], supported_tile_sizes = [ 4x16,  16x16,  32x16,  4x32,  16x32,  32x32], dst_physical_size_tiles = 16, num_cbs = 32, num_compute_threads = 1, num_datamovement_threads = 2}, {arch = <wormhole_b0>, grid = 8x8, coord_translation_offsets = 18x18, l1_size = 1499136, num_dram_channels = 12, dram_channel_size = 1073741824, noc_l1_address_align_bytes = 16, pcie_address_align_bytes = 32, noc_dram_address_align_bytes = 32, l1_unreserved_base = 102656, erisc_l1_unreserved_base = 98304, dram_unreserved_base = 32, dram_unreserved_end = 1073160096, supported_data_types = [<f32>, <f16>, <bf16>, <bfp_f8>, <bfp_bf8>, <bfp_f4>, <bfp_bf4>, <bfp_f2>, <bfp_bf2>, <u32>, <u16>, <u8>, <si32>], supported_tile_sizes = [ 4x16,  16x16,  32x16,  4x32,  16x32,  32x32], dst_physical_size_tiles = 16, num_cbs = 32, num_compute_threads = 1, num_datamovement_threads = 2}, {arch = <wormhole_b0>, grid = 8x8, coord_translation_offsets = 18x18, l1_size = 1499136, num_dram_channels = 12, dram_channel_size = 1073741824, noc_l1_address_align_bytes = 16, pcie_address_align_bytes = 32, noc_dram_address_align_bytes = 32, l1_unreserved_base = 102656, erisc_l1_unreserved_base = 98304, dram_unreserved_base = 32, dram_unreserved_end = 1073160096, supported_data_types = [<f32>, <f16>, <bf16>, <bfp_f8>, <bfp_bf8>, <bfp_f4>, <bfp_bf4>, <bfp_f2>, <bfp_bf2>, <u32>, <u16>, <u8>, <si32>], supported_tile_sizes = [ 4x16,  16x16,  32x16,  4x32,  16x32,  32x32], dst_physical_size_tiles = 16, num_cbs = 32, num_compute_threads = 1, num_datamovement_threads = 2}, {arch = <wormhole_b0>, grid = 8x8, coord_translation_offsets = 18x18, l1_size = 1499136, num_dram_channels = 12, dram_channel_size = 1073741824, noc_l1_address_align_bytes = 16, pcie_address_align_bytes = 32, noc_dram_address_a…
<bfp_bf2>, <u32>, <u16>, <u8>, <si32>], supported_tile_sizes = [ 4x16,  16x16,  32x16,  4x32,  16x32,  32x32], dst_physical_size_tiles = 16, num_cbs = 32, num_compute_threads = 1, num_datamovement_threads = 2}, {arch = <wormhole_b0>, grid = 8x8, coord_translation_offsets = 18x18, l1_size = 1499136, num_dram_channels = 12, dram_channel_size = 1073741824, noc_l1_address_align_bytes = 16, pcie_address_align_bytes = 32, noc_dram_address_align_bytes = 32, l1_unreserved_base = 102656, erisc_l1_unreserved_base = 98304, dram_unreserved_base = 32, dram_unreserved_end = 1073142976, supported_data_types = [<f32>, <f16>, <bf16>, <bfp_f8>, <bfp_bf8>, <bfp_f4>, <bfp_bf4>, <bfp_f2>, <bfp_bf2>, <u32>, <u16>, <u8>, <si32>], supported_tile_sizes = [ 4x16,  16x16,  32x16,  4x32,  16x32,  32x32], dst_physical_size_tiles = 16, num_cbs = 32, num_compute_threads = 1, num_datamovement_threads = 2}, {arch = <wormhole_b0>, grid = 8x8, coord_translation_offsets = 18x18, l1_size = 1499136, num_dram_channels = 12, dram_channel_size = 1073741824, noc_l1_address_align_bytes = 16, pcie_address_align_bytes = 32, noc_dram_address_align_bytes = 32, l1_unreserved_base = 102656, erisc_l1_unreserved_base = 98304, dram_unreserved_base = 32, dram_unreserved_end = 1073142976, supported_data_types = [<f32>, <f16>, <bf16>, <bfp_f8>, <bfp_bf8>, <bfp_f4>, <bfp_bf4>, <bfp_f2>, <bfp_bf2>, <u32>, <u16>, <u8>, <si32>], supported_tile_sizes = [ 4x16,  16x16,  32x16,  4x32,  16x32,  32x32], dst_physical_size_tiles = 16, num_cbs = 32, num_compute_threads = 1, num_datamovement_threads = 2}, {arch = <wormhole_b0>, grid = 8x8, coord_translation_offsets = 18x18, l1_size = 1499136, num_dram_channels = 12, dram_channel_size = 1073741824, noc_l1_address_align_bytes = 16, pcie_address_align_bytes = 32, noc_dram_address_align_bytes = 32, l1_unreserved_base = 102656, erisc_l1_unreserved_base = 98304, dram_unreserved_base = 32, dram_unreserved_end = 1073142976, supported_data_types = [<f32>, <f16>, <bf16>, <bfp_f8>, <bfp_bf8>, <bfp_f4>, <bfp_bf4>, <bfp_f2>, <bfp_bf2>, <u32>, <u16>, <u8>, <si32>], supported_tile_sizes = [ 4x16,  16x16,  32x16,  4x32,  16x32,  32x32], dst_physical_size_tiles = 16, num_cbs = 32, num_compute_threads = 1, num_datamovement_threads = 2}, {arch = <wormhole_b0>, grid = 8x8, coord_translation_offsets = 18x18, l1_size = 1499136, num_dram_channels = 12, dram_channel_size = 1073741824, noc_l1_address_align_bytes = 16, pcie_address_align_bytes = 32, noc_dram_address_align_bytes = 32, l1_unreserved_base = 102656, erisc_l1_unreserved_base = 98304, dram_unreserved_base = 32, dram_unreserved_end = 1073160096, supported_data_types = [<f32>, <f16>, <bf16>, <bfp_f8>, <bfp_bf8>, <bfp_f4>, <bfp_bf4>, <bfp_f2>, <bfp_bf2>, <u32>, <u16>, <u8>, <si32>], supported_tile_sizes = [ 4x16,  16x16,  32x16,  4x32,  16x32,  32x32], dst_physical_size_tiles = 16, num_cbs = 32, num_compute_threads = 1, num_datamovement_threads = 2}, {arch = <wormhole_b0>, grid = 8x8, coord_translation_offsets = 18x18, l1_size = 1499136, num_dram_channels = 12, dram_channel_size = 1073741824, noc_l1_address_align_bytes = 16, pcie_address_align_bytes = 32, noc_dram_address_align_bytes = 32, l1_unreserved_base = 102656, erisc_l1_unreserved_base = 98304, dram_unreserved_base = 32, dram_unreserved_end = 1073160096, supported_data_types = [<f32>, <f16>, <bf16>, <bfp_f8>, <bfp_bf8>, <bfp_f4>, <bfp_bf4>, <bfp_f2>, <bfp_bf2>, <u32>, <u16>, <u8>, <si32>], supported_tile_sizes = [ 4x16,  16x16,  32x16,  4x32,  16x32,  32x32], dst_physical_size_tiles = 16, num_cbs = 32, num_compute_threads = 1, num_datamovement_threads = 2}, {arch = <wormhole_b0>, grid = 8x8, coord_translation_offsets = 18x18, l1_size = 1499136, num_dram_channels = 12, dram_channel_size = 1073741824, noc_l1_address_align_bytes = 16, pcie_address_align_bytes = 32, noc_dram_address_align_bytes = 32, l1_unreserved_base = 102656, erisc_l1_unreserved_base = 98304, dram_unreserved_base = 32, dram_unreserved_end = 1073160096, supported_data_types = [<f32>, <f16>, <bf16>, <bfp_f8>, <bfp_bf8>, <bfp_f4>, <bfp_bf4>, <bfp_f2>, <bfp_bf2>, <u32>, <u16>, <u8>, <si32>], supported_tile_sizes = [ 4x16,  16x16,  32x16,  4x32,  16x32,  32x32], dst_physical_size_tiles = 16, num_cbs = 32, num_compute_threads = 1, num_datamovement_threads = 2}, {arch = <wormhole_b0>, grid = 8x8, coord_translation_offsets = 18x18, l1_size = 1499136, num_dram_channels = 12, dram_channel_size = 1073741824, noc_l1_address_align_bytes = 16, pcie_address_align_bytes = 32, noc_dram_address_align_bytes = 32, l1_unreserved_base = 102656, erisc_l1_unreserved_base = 98304, dram_unreserved_base = 32, dram_unreserved_end = 1073160096, supported_data_types = [<f32>, <f16>, <bf16>, <bfp_f8>, <bfp_bf8>, <bfp_f4>, <bfp_bf4>, <bfp_f2>, <bfp_bf2>, <u32>, <u16>, <u8>, <si32>], supported_tile_sizes = [ 4x16,  16x16,  32x16,  4x32,  16x32,  32x32], dst_physical_size_tiles = 16, num_cbs = 32, num_compute_threads = 1, num_datamovement_threads = 2}], [0, 1, 2, 3, 4, 5, 6, 7], [1 : i32, 1 : i32, 1 : i32, 1 : i32, 0 : i32, 0 : i32, 0 : i32, 0 : i32], [ 0x0x0x0]>
#ttnn_layout = #ttnn.ttnn_layout<(d0, d1) -> (d0, d1), <1x1>, memref<1x1x!ttcore.tile<32x32, f32>, #dram>, <interleaved>>
#ttnn_layout1 = #ttnn.ttnn_layout<() -> (0, 0), <1x1>, memref<1x1x!ttcore.tile<32x32, f32>, #dram>, <interleaved>>
#ttnn_layout2 = #ttnn.ttnn_layout<(d0, d1) -> (d0, d1), <1x1>, memref<32x32xf32, #dram>, <interleaved>>
module @SyncTensorsGraph.20 attributes {mhlo.cross_program_prefetches = [], mhlo.input_output_alias = [], mhlo.is_dynamic = false, mhlo.use_auto_spmd_partitioning = false, ttcore.meshes = #ttcore.meshes<[<"mesh" = 2x4>]>} {
  ttcore.device_module {
    builtin.module @SyncTensorsGraph.20 attributes {mhlo.cross_program_prefetches = [], mhlo.input_output_alias = [], mhlo.is_dynamic = false, mhlo.use_auto_spmd_partitioning = false, ttcore.meshes = #ttcore.meshes<[<"mesh" = 2x4>]>, ttcore.system_desc = #system_desc} {
      ttcore.device @default_device = <workerGrid = #ttcore.grid<8x8, (d0, d1) -> (0, d0, d1)>, l1Map = (d0, d1, d2)[s0] -> (0, d0, d1, d2 + s0), dramMap = (d0, d1, d2)[s0, s1, s2, s3, s4, s5, s6] -> (0, 0, (((d0 * s1) * (s2 * (s3 * s6)) + d1 * (s2 * (s3 * s6)) + d2) floordiv s4) mod 12, ((((d0 * s1) * (s2 * (s3 * s6)) + d1 * (s2 * (s3 * s6)) + d2) floordiv s4) floordiv 12) * s4 + ((d0 * s1) * (s2 * (s3 * s6)) + d1 * (s2 * (s3 * s6)) + d2) mod s4 + s5), meshShape = 2x4, chipIds = [0, 1, 2, 3, 4, 5, 6, 7]> loc(#loc)
      func.func private @main_const_eval_0() -> tensor<1x1xf32, #ttnn_layout> attributes {const_eval} {
        %0 = "ttnn.get_device"() <{mesh_offset = #ttnn<mesh_offset 0x0>, mesh_shape = #ttnn<mesh_shape 2x4>}> : () -> !ttnn.device loc(#loc)
        %1 = "ttnn.full"(%0) <{dtype = #ttcore.supportedDataTypes<f32>, fill_value = 1.000000e+00 : f32, layout = #ttnn.layout<tile>, shape = #ttnn.shape<>}> : (!ttnn.device) -> tensor<f32, #ttnn_layout1> loc(#loc)
        %2 = "ttnn.reshape"(%1) <{shape = [1 : i32, 1 : i32]}> : (tensor<f32, #ttnn_layout1>) -> tensor<1x1xf32, #ttnn_layout> loc(#loc)
        "ttnn.deallocate"(%1) <{force = false}> : (tensor<f32, #ttnn_layout1>) -> () loc(#loc)
        return %2 : tensor<1x1xf32, #ttnn_layout> loc(#loc)
      } loc(#loc)
      func.func @main(%arg0: tensor<32x32xf32, #ttnn_layout> {ttcore.argument_type = #ttcore.argument_type<input>, ttcore.shard_status = #ttcore.shard_status<presharded>, ttir.name = "args_0"} loc("p0.3"), %arg1: tensor<32x32xf32, #ttnn_layout2> {ttcore.argument_type = #ttcore.argument_type<input>, ttcore.shard_status = #ttcore.shard_status<presharded>, ttir.name = "args_1"} loc("p1.12")) -> (tensor<32x32xf32, #ttnn_layout> {ttcore.shard_status = #ttcore.shard_status<unsharded>}, tensor<32x32xf32, #ttnn_layout> {ttcore.shard_status = #ttcore.shard_status<unsharded>}) {
        %0 = ttcore.load_cached(@main_const_eval_0, []) : () -> tensor<1x1xf32, #ttnn_layout> loc(#loc)
        %1 = "ttnn.get_device"() <{mesh_offset = #ttnn<mesh_offset 0x0>, mesh_shape = #ttnn<mesh_shape 2x4>}> : () -> !ttnn.device loc(#loc)
        %2 = "ttnn.mesh_shard"(%arg0, %1) <{shard_dims = array<i64: -1, 1>, shard_direction = #ttcore.shard_direction<full_to_shard>, shard_shape = array<i64: 1, 4>, shard_type = #ttcore.shard_type<identity>}> : (tensor<32x32xf32, #ttnn_layout>, !ttnn.device) -> tensor<32x8xf32, #ttnn_layout> loc(#loc)
        "ttnn.deallocate"(%arg0) <{force = false}> : (tensor<32x32xf32, #ttnn_layout>) -> () loc(#loc)
        %3 = "ttnn.add"(%2, %0) <{dtype = #ttcore.supportedDataTypes<f32>}> : (tensor<32x8xf32, #ttnn_layout>, tensor<1x1xf32, #ttnn_layout>) -> tensor<32x8xf32, #ttnn_layout> loc(#loc3)
        "ttnn.deallocate"(%2) <{force = false}> : (tensor<32x8xf32, #ttnn_layout>) -> () loc(#loc3)
        %4 = "ttnn.to_layout"(%arg1) <{layout = #ttnn.layout<tile>}> : (tensor<32x32xf32, #ttnn_layout2>) -> tensor<32x32xf32, #ttnn_layout> loc(#loc4)
        "ttnn.deallocate"(%arg1) <{force = false}> : (tensor<32x32xf32, #ttnn_layout2>) -> () loc(#loc4)
        %5 = "ttnn.add"(%4, %0) <{dtype = #ttcore.supportedDataTypes<f32>}> : (tensor<32x32xf32, #ttnn_layout>, tensor<1x1xf32, #ttnn_layout>) -> tensor<32x32xf32, #ttnn_layout> loc(#loc5)
        "ttnn.deallocate"(%4) <{force = false}> : (tensor<32x32xf32, #ttnn_layout>) -> () loc(#loc5)
        "ttnn.deallocate"(%0) <{force = false}> : (tensor<1x1xf32, #ttnn_layout>) -> () loc(#loc5)
        %6 = "ttnn.mesh_shard"(%3, %1) <{shard_dims = array<i64: -1, 1>, shard_direction = #ttcore.shard_direction<shard_to_full>, shard_shape = array<i64: 1, 4>, shard_type = #ttcore.shard_type<identity>}> : (tensor<32x8xf32, #ttnn_layout>, !ttnn.device) -> tensor<32x32xf32, #ttnn_layout> loc(#loc)
        "ttnn.deallocate"(%3) <{force = false}> : (tensor<32x8xf32, #ttnn_layout>) -> () loc(#loc)
        return %6, %5 : tensor<32x32xf32, #ttnn_layout>, tensor<32x32xf32, #ttnn_layout> loc(#loc)
      } loc(#loc)
    } loc(#loc)
  } loc(#loc)
} loc(#loc)
#loc = loc(unknown)
#loc3 = loc("add.9")
#loc4 = loc("add.18_in_0_layout")
#loc5 = loc("add.18")
------------------ END OF MLIR MODULE ------------------
=== MLIR Code (size=778) ===
MLÔRStableHLO_v1.11.0
=== End MLIR Code ===
2026-01-07 14:00:53.949 (   2.203s) [        5515B480]      module_builder.cc:1085     1| MLIR Module vhlo:
#loc1 = loc("p0.1")
module @ReplicateShardedData.6 attributes {mhlo.cross_program_prefetches = [], mhlo.frontend_attributes = {xla.sdy.meshes = "{mesh = #sdy.mesh<[\22_axis_0\22=4, \22_axis_1\22=2]>}"}, mhlo.input_output_alias = [], mhlo.is_dynamic = false, mhlo.use_auto_spmd_partitioning = false} {
  vhlo.func_v1 @main(%arg0: !vhlo.tensor_v1<32x32x!vhlo.f32_v1> loc("p0.1")) -> (!vhlo.tensor_v1<32x32x!vhlo.f32_v1>) {
    %0 = "vhlo.custom_call_v1"(%arg0) <{api_version = #vhlo<api_version_v1 API_VERSION_ORIGINAL>, backend_config = #vhlo.string_v1<"">, call_target_name = #vhlo.string_v1<"xla.sdy.FuncResultSharding">, called_computations = #vhlo.array_v1<[]>, has_side_effect = #vhlo.bool_v1<true>, operand_layouts = #vhlo.array_v1<[]>, output_operand_aliases = #vhlo.array_v1<[]>, result_layouts = #vhlo.array_v1<[]>}> {mhlo.frontend_attributes = #vhlo.dict_v1<{#vhlo.string_v1<"xla.sdy.sharding"> = #vhlo.string_v1<"#sdy.sharding_per_value<[<@mesh, [{}, {}]>]>">}>} : (!vhlo.tensor_v1<32x32x!vhlo.f32_v1>) -> !vhlo.tensor_v1<32x32x!vhlo.f32_v1> loc(#loc1)
    "vhlo.return_v1"(%0) : (!vhlo.tensor_v1<32x32x!vhlo.f32_v1>) -> () loc(#loc)
  } {arg_attrs = #vhlo.array_v1<[#vhlo.dict_v1<{#vhlo.string_v1<"mhlo.frontend_attributes"> = #vhlo.dict_v1<{#vhlo.string_v1<"xla.sdy.sharding"> = #vhlo.string_v1<"#sdy.sharding<@mesh, [{}, {\22_axis_0\22}]>">}>, #vhlo.string_v1<"mhlo.sharding"> = #vhlo.string_v1<"{devices=[1,4,2]<=[8] last_tile_dim_replicate}">}>]>, res_attrs = #vhlo.array_v1<[#vhlo.dict_v1<{#vhlo.string_v1<"mhlo.sharding"> = #vhlo.string_v1<"{replicated}">}>]>, sym_visibility = #vhlo.string_v1<"">} loc(#loc)
} loc(#loc)
#loc = loc(unknown)
------------------ END OF MLIR MODULE ------------------
// -----// IR Dump Before VhloToVersionPass (vhlo-to-version) ('builtin.module' operation: @ReplicateShardedData.6) //----- //
module @ReplicateShardedData.6 attributes {mhlo.cross_program_prefetches = [], mhlo.frontend_attributes = {xla.sdy.meshes = "{mesh = #sdy.mesh<[\22_axis_0\22=4, \22_axis_1\22=2]>}"}, mhlo.input_output_alias = [], mhlo.is_dynamic = false, mhlo.use_auto_spmd_partitioning = false} {
  vhlo.func_v1 @main(%arg0: !vhlo.tensor_v1<32x32x!vhlo.f32_v1>) -> (!vhlo.tensor_v1<32x32x!vhlo.f32_v1>) {
    %0 = "vhlo.custom_call_v1"(%arg0) <{api_version = #vhlo<api_version_v1 API_VERSION_ORIGINAL>, backend_config = #vhlo.string_v1<"">, call_target_name = #vhlo.string_v1<"xla.sdy.FuncResultSharding">, called_computations = #vhlo.array_v1<[]>, has_side_effect = #vhlo.bool_v1<true>, operand_layouts = #vhlo.array_v1<[]>, output_operand_aliases = #vhlo.array_v1<[]>, result_layouts = #vhlo.array_v1<[]>}> {mhlo.frontend_attributes = #vhlo.dict_v1<{#vhlo.string_v1<"xla.sdy.sharding"> = #vhlo.string_v1<"#sdy.sharding_per_value<[<@mesh, [{}, {}]>]>">}>} : (!vhlo.tensor_v1<32x32x!vhlo.f32_v1>) -> !vhlo.tensor_v1<32x32x!vhlo.f32_v1>
    "vhlo.return_v1"(%0) : (!vhlo.tensor_v1<32x32x!vhlo.f32_v1>) -> ()
  } {arg_attrs = #vhlo.array_v1<[#vhlo.dict_v1<{#vhlo.string_v1<"mhlo.frontend_attributes"> = #vhlo.dict_v1<{#vhlo.string_v1<"xla.sdy.sharding"> = #vhlo.string_v1<"#sdy.sharding<@mesh, [{}, {\22_axis_0\22}]>">}>, #vhlo.string_v1<"mhlo.sharding"> = #vhlo.string_v1<"{devices=[1,4,2]<=[8] last_tile_dim_replicate}">}>]>, res_attrs = #vhlo.array_v1<[#vhlo.dict_v1<{#vhlo.string_v1<"mhlo.sharding"> = #vhlo.string_v1<"{replicated}">}>]>, sym_visibility = #vhlo.string_v1<"">}
}


// -----// IR Dump Before VhloLegalizeToStablehloPass (vhlo-legalize-to-stablehlo) ('builtin.module' operation: @ReplicateShardedData.6) //----- //
module @ReplicateShardedData.6 attributes {mhlo.cross_program_prefetches = [], mhlo.frontend_attributes = {xla.sdy.meshes = "{mesh = #sdy.mesh<[\22_axis_0\22=4, \22_axis_1\22=2]>}"}, mhlo.input_output_alias = [], mhlo.is_dynamic = false, mhlo.use_auto_spmd_partitioning = false} {
  vhlo.func_v1 @main(%arg0: !vhlo.tensor_v1<32x32x!vhlo.f32_v1>) -> (!vhlo.tensor_v1<32x32x!vhlo.f32_v1>) {
    %0 = "vhlo.custom_call_v1"(%arg0) <{api_version = #vhlo<api_version_v1 API_VERSION_ORIGINAL>, backend_config = #vhlo.string_v1<"">, call_target_name = #vhlo.string_v1<"xla.sdy.FuncResultSharding">, called_computations = #vhlo.array_v1<[]>, has_side_effect = #vhlo.bool_v1<true>, operand_layouts = #vhlo.array_v1<[]>, output_operand_aliases = #vhlo.array_v1<[]>, result_layouts = #vhlo.array_v1<[]>}> {mhlo.frontend_attributes = #vhlo.dict_v1<{#vhlo.string_v1<"xla.sdy.sharding"> = #vhlo.string_v1<"#sdy.sharding_per_value<[<@mesh, [{}, {}]>]>">}>} : (!vhlo.tensor_v1<32x32x!vhlo.f32_v1>) -> !vhlo.tensor_v1<32x32x!vhlo.f32_v1>
    "vhlo.return_v1"(%0) : (!vhlo.tensor_v1<32x32x!vhlo.f32_v1>) -> ()
  } {arg_attrs = #vhlo.array_v1<[#vhlo.dict_v1<{#vhlo.string_v1<"mhlo.frontend_attributes"> = #vhlo.dict_v1<{#vhlo.string_v1<"xla.sdy.sharding"> = #vhlo.string_v1<"#sdy.sharding<@mesh, [{}, {\22_axis_0\22}]>">}>, #vhlo.string_v1<"mhlo.sharding"> = #vhlo.string_v1<"{devices=[1,4,2]<=[8] last_tile_dim_replicate}">}>]>, res_attrs = #vhlo.array_v1<[#vhlo.dict_v1<{#vhlo.string_v1<"mhlo.sharding"> = #vhlo.string_v1<"{replicated}">}>]>, sym_visibility = #vhlo.string_v1<"">}
}


// -----// IR Dump After VhloLegalizeToStablehloPass (vhlo-legalize-to-stablehlo) ('builtin.module' operation: @ReplicateShardedData.6) //----- //
module @ReplicateShardedData.6 attributes {mhlo.cross_program_prefetches = [], mhlo.frontend_attributes = {xla.sdy.meshes = "{mesh = #sdy.mesh<[\22_axis_0\22=4, \22_axis_1\22=2]>}"}, mhlo.input_output_alias = [], mhlo.is_dynamic = false, mhlo.use_auto_spmd_partitioning = false} {
  func.func @main(%arg0: tensor<32x32xf32> {mhlo.frontend_attributes = {xla.sdy.sharding = "#sdy.sharding<@mesh, [{}, {\22_axis_0\22}]>"}, mhlo.sharding = "{devices=[1,4,2]<=[8] last_tile_dim_replicate}"}) -> (tensor<32x32xf32> {mhlo.sharding = "{replicated}"}) {
    %0 = stablehlo.custom_call @xla.sdy.FuncResultSharding(%arg0) {has_side_effect = true, mhlo.frontend_attributes = {xla.sdy.sharding = "#sdy.sharding_per_value<[<@mesh, [{}, {}]>]>"}} : (tensor<32x32xf32>) -> tensor<32x32xf32>
    return %0 : tensor<32x32xf32>
  }
}


2026-01-07 14:00:53.950 (   2.204s) [        5515B480]      module_builder.cc:1085     1| MLIR Module shlo:
#loc1 = loc("p0.1")
module @ReplicateShardedData.6 attributes {mhlo.cross_program_prefetches = [], mhlo.frontend_attributes = {xla.sdy.meshes = "{mesh = #sdy.mesh<[\22_axis_0\22=4, \22_axis_1\22=2]>}"}, mhlo.input_output_alias = [], mhlo.is_dynamic = false, mhlo.use_auto_spmd_partitioning = false} {
  func.func @main(%arg0: tensor<32x32xf32> {mhlo.frontend_attributes = {xla.sdy.sharding = "#sdy.sharding<@mesh, [{}, {\22_axis_0\22}]>"}, mhlo.sharding = "{devices=[1,4,2]<=[8] last_tile_dim_replicate}"} loc("p0.1")) -> (tensor<32x32xf32> {mhlo.sharding = "{replicated}"}) {
    %0 = stablehlo.custom_call @xla.sdy.FuncResultSharding(%arg0) {has_side_effect = true, mhlo.frontend_attributes = {xla.sdy.sharding = "#sdy.sharding_per_value<[<@mesh, [{}, {}]>]>"}} : (tensor<32x32xf32>) -> tensor<32x32xf32> loc(#loc1)
    return %0 : tensor<32x32xf32> loc(#loc)
  } loc(#loc)
} loc(#loc)
#loc = loc(unknown)
------------------ END OF MLIR MODULE ------------------
2026-01-07 14:00:53.950 (   2.204s) [        5515B480]      module_builder.cc:1085     1| MLIR Module shlo_frontend:
#loc1 = loc("p0.1")
module @ReplicateShardedData.6 attributes {mhlo.cross_program_prefetches = [], mhlo.frontend_attributes = {xla.sdy.meshes = "{mesh = #sdy.mesh<[\22_axis_0\22=4, \22_axis_1\22=2]>}"}, mhlo.input_output_alias = [], mhlo.is_dynamic = false, mhlo.use_auto_spmd_partitioning = false} {
  func.func @main(%arg0: tensor<32x32xf32> {mhlo.frontend_attributes = {xla.sdy.sharding = "#sdy.sharding<@mesh, [{}, {\22_axis_0\22}]>"}, mhlo.sharding = "{devices=[1,4,2]<=[8] last_tile_dim_replicate}", ttcore.argument_type = #ttcore.argument_type<input>} loc("p0.1")) -> (tensor<32x32xf32> {mhlo.sharding = "{replicated}"}) {
    %0 = stablehlo.custom_call @xla.sdy.FuncResultSharding(%arg0) {has_side_effect = true, mhlo.frontend_attributes = {xla.sdy.sharding = "#sdy.sharding_per_value<[<@mesh, [{}, {}]>]>"}} : (tensor<32x32xf32>) -> tensor<32x32xf32> loc(#loc1)
    return %0 : tensor<32x32xf32> loc(#loc)
  } loc(#loc)
} loc(#loc)
#loc = loc(unknown)
------------------ END OF MLIR MODULE ------------------
// -----// IR Dump Before Inliner (inline) ('builtin.module' operation: @ReplicateShardedData.6) //----- //
module @ReplicateShardedData.6 attributes {mhlo.cross_program_prefetches = [], mhlo.frontend_attributes = {xla.sdy.meshes = "{mesh = #sdy.mesh<[\22_axis_0\22=4, \22_axis_1\22=2]>}"}, mhlo.input_output_alias = [], mhlo.is_dynamic = false, mhlo.use_auto_spmd_partitioning = false} {
  func.func @main(%arg0: tensor<32x32xf32> {mhlo.frontend_attributes = {xla.sdy.sharding = "#sdy.sharding<@mesh, [{}, {\22_axis_0\22}]>"}, mhlo.sharding = "{devices=[1,4,2]<=[8] last_tile_dim_replicate}", ttcore.argument_type = #ttcore.argument_type<input>}) -> (tensor<32x32xf32> {mhlo.sharding = "{replicated}"}) {
    %0 = stablehlo.custom_call @xla.sdy.FuncResultSharding(%arg0) {has_side_effect = true, mhlo.frontend_attributes = {xla.sdy.sharding = "#sdy.sharding_per_value<[<@mesh, [{}, {}]>]>"}} : (tensor<32x32xf32>) -> tensor<32x32xf32>
    return %0 : tensor<32x32xf32>
  }
}


// -----// IR Dump Before Canonicalizer (canonicalize) ('func.func' operation: @main) //----- //
module @ReplicateShardedData.6 attributes {mhlo.cross_program_prefetches = [], mhlo.frontend_attributes = {xla.sdy.meshes = "{mesh = #sdy.mesh<[\22_axis_0\22=4, \22_axis_1\22=2]>}"}, mhlo.input_output_alias = [], mhlo.is_dynamic = false, mhlo.use_auto_spmd_partitioning = false} {
  func.func @main(%arg0: tensor<32x32xf32> {mhlo.frontend_attributes = {xla.sdy.sharding = "#sdy.sharding<@mesh, [{}, {\22_axis_0\22}]>"}, mhlo.sharding = "{devices=[1,4,2]<=[8] last_tile_dim_replicate}", ttcore.argument_type = #ttcore.argument_type<input>}) -> (tensor<32x32xf32> {mhlo.sharding = "{replicated}"}) {
    %0 = stablehlo.custom_call @xla.sdy.FuncResultSharding(%arg0) {has_side_effect = true, mhlo.frontend_attributes = {xla.sdy.sharding = "#sdy.sharding_per_value<[<@mesh, [{}, {}]>]>"}} : (tensor<32x32xf32>) -> tensor<32x32xf32>
    return %0 : tensor<32x32xf32>
  }
}


// -----// IR Dump Before TTPopulateArgumentTypes (tt-populate-argument-types) ('builtin.module' operation: @ReplicateShardedData.6) //----- //
module @ReplicateShardedData.6 attributes {mhlo.cross_program_prefetches = [], mhlo.frontend_attributes = {xla.sdy.meshes = "{mesh = #sdy.mesh<[\22_axis_0\22=4, \22_axis_1\22=2]>}"}, mhlo.input_output_alias = [], mhlo.is_dynamic = false, mhlo.use_auto_spmd_partitioning = false} {
  func.func @main(%arg0: tensor<32x32xf32> {mhlo.frontend_attributes = {xla.sdy.sharding = "#sdy.sharding<@mesh, [{}, {\22_axis_0\22}]>"}, mhlo.sharding = "{devices=[1,4,2]<=[8] last_tile_dim_replicate}", ttcore.argument_type = #ttcore.argument_type<input>}) -> (tensor<32x32xf32> {mhlo.sharding = "{replicated}"}) {
    %0 = stablehlo.custom_call @xla.sdy.FuncResultSharding(%arg0) {has_side_effect = true, mhlo.frontend_attributes = {xla.sdy.sharding = "#sdy.sharding_per_value<[<@mesh, [{}, {}]>]>"}} : (tensor<32x32xf32>) -> tensor<32x32xf32>
    return %0 : tensor<32x32xf32>
  }
}


// -----// IR Dump Before ApplyArgumentShardStatusPass (apply-argument-shard-status) ('builtin.module' operation: @ReplicateShardedData.6) //----- //
module @ReplicateShardedData.6 attributes {mhlo.cross_program_prefetches = [], mhlo.frontend_attributes = {xla.sdy.meshes = "{mesh = #sdy.mesh<[\22_axis_0\22=4, \22_axis_1\22=2]>}"}, mhlo.input_output_alias = [], mhlo.is_dynamic = false, mhlo.use_auto_spmd_partitioning = false} {
  func.func @main(%arg0: tensor<32x32xf32> {mhlo.frontend_attributes = {xla.sdy.sharding = "#sdy.sharding<@mesh, [{}, {\22_axis_0\22}]>"}, mhlo.sharding = "{devices=[1,4,2]<=[8] last_tile_dim_replicate}", ttcore.argument_type = #ttcore.argument_type<input>}) -> (tensor<32x32xf32> {mhlo.sharding = "{replicated}"}) {
    %0 = stablehlo.custom_call @xla.sdy.FuncResultSharding(%arg0) {has_side_effect = true, mhlo.frontend_attributes = {xla.sdy.sharding = "#sdy.sharding_per_value<[<@mesh, [{}, {}]>]>"}} : (tensor<32x32xf32>) -> tensor<32x32xf32>
    return %0 : tensor<32x32xf32>
  }
}


// -----// IR Dump After ApplyArgumentShardStatusPass (apply-argument-shard-status) ('builtin.module' operation: @ReplicateShardedData.6) //----- //
module @ReplicateShardedData.6 attributes {mhlo.cross_program_prefetches = [], mhlo.frontend_attributes = {xla.sdy.meshes = "{mesh = #sdy.mesh<[\22_axis_0\22=4, \22_axis_1\22=2]>}"}, mhlo.input_output_alias = [], mhlo.is_dynamic = false, mhlo.use_auto_spmd_partitioning = false} {
  func.func @main(%arg0: tensor<32x32xf32> {mhlo.frontend_attributes = {xla.sdy.sharding = "#sdy.sharding<@mesh, [{}, {\22_axis_0\22}]>"}, mhlo.sharding = "{devices=[1,4,2]<=[8] last_tile_dim_replicate}", ttcore.argument_type = #ttcore.argument_type<input>, ttcore.shard_status = #ttcore.shard_status<presharded>}) -> (tensor<32x32xf32> {mhlo.sharding = "{replicated}", ttcore.shard_status = #ttcore.shard_status<presharded>}) {
    %0 = stablehlo.custom_call @xla.sdy.FuncResultSharding(%arg0) {has_side_effect = true, mhlo.frontend_attributes = {xla.sdy.sharding = "#sdy.sharding_per_value<[<@mesh, [{}, {}]>]>"}} : (tensor<32x32xf32>) -> tensor<32x32xf32>
    return %0 : tensor<32x32xf32>
  }
}


// -----// IR Dump Before ConvertXlaSdyToSdyPass (convert-xla-sdy-to-sdy) ('builtin.module' operation: @ReplicateShardedData.6) //----- //
module @ReplicateShardedData.6 attributes {mhlo.cross_program_prefetches = [], mhlo.frontend_attributes = {xla.sdy.meshes = "{mesh = #sdy.mesh<[\22_axis_0\22=4, \22_axis_1\22=2]>}"}, mhlo.input_output_alias = [], mhlo.is_dynamic = false, mhlo.use_auto_spmd_partitioning = false} {
  func.func @main(%arg0: tensor<32x32xf32> {mhlo.frontend_attributes = {xla.sdy.sharding = "#sdy.sharding<@mesh, [{}, {\22_axis_0\22}]>"}, mhlo.sharding = "{devices=[1,4,2]<=[8] last_tile_dim_replicate}", ttcore.argument_type = #ttcore.argument_type<input>, ttcore.shard_status = #ttcore.shard_status<presharded>}) -> (tensor<32x32xf32> {mhlo.sharding = "{replicated}", ttcore.shard_status = #ttcore.shard_status<presharded>}) {
    %0 = stablehlo.custom_call @xla.sdy.FuncResultSharding(%arg0) {has_side_effect = true, mhlo.frontend_attributes = {xla.sdy.sharding = "#sdy.sharding_per_value<[<@mesh, [{}, {}]>]>"}} : (tensor<32x32xf32>) -> tensor<32x32xf32>
    return %0 : tensor<32x32xf32>
  }
}


// -----// IR Dump After ConvertXlaSdyToSdyPass (convert-xla-sdy-to-sdy) ('builtin.module' operation: @ReplicateShardedData.6) //----- //
module @ReplicateShardedData.6 attributes {mhlo.cross_program_prefetches = [], mhlo.input_output_alias = [], mhlo.is_dynamic = false, mhlo.use_auto_spmd_partitioning = false} {
  sdy.mesh @mesh = <["_axis_0"=4, "_axis_1"=2]>
  func.func @main(%arg0: tensor<32x32xf32> {sdy.sharding = #sdy.sharding<@mesh, [{}, {"_axis_0"}]>, ttcore.argument_type = #ttcore.argument_type<input>, ttcore.shard_status = #ttcore.shard_status<presharded>}) -> (tensor<32x32xf32> {ttcore.shard_status = #ttcore.shard_status<presharded>}) {
    %0 = sdy.sharding_constraint %arg0 <@mesh, [{}, {}]> : tensor<32x32xf32>
    return %0 : tensor<32x32xf32>
  }
}


// -----// IR Dump Before AnalyzeMeshPass (analyze-mesh) ('builtin.module' operation: @ReplicateShardedData.6) //----- //
module @ReplicateShardedData.6 attributes {mhlo.cross_program_prefetches = [], mhlo.input_output_alias = [], mhlo.is_dynamic = false, mhlo.use_auto_spmd_partitioning = false} {
  sdy.mesh @mesh = <["_axis_0"=4, "_axis_1"=2]>
  func.func @main(%arg0: tensor<32x32xf32> {sdy.sharding = #sdy.sharding<@mesh, [{}, {"_axis_0"}]>, ttcore.argument_type = #ttcore.argument_type<input>, ttcore.shard_status = #ttcore.shard_status<presharded>}) -> (tensor<32x32xf32> {ttcore.shard_status = #ttcore.shard_status<presharded>}) {
    %0 = sdy.sharding_constraint %arg0 <@mesh, [{}, {}]> : tensor<32x32xf32>
    return %0 : tensor<32x32xf32>
  }
}


error: Mesh is not valid
// -----// IR Dump After AnalyzeMeshPass Failed (analyze-mesh) ('builtin.module' operation: @ReplicateShardedData.6) //----- //
module @ReplicateShardedData.6 attributes {mhlo.cross_program_prefetches = [], mhlo.input_output_alias = [], mhlo.is_dynamic = false, mhlo.use_auto_spmd_partitioning = false} {
  sdy.mesh @mesh = <["_axis_0"=4, "_axis_1"=2]>
  func.func @main(%arg0: tensor<32x32xf32> {sdy.sharding = #sdy.sharding<@mesh, [{}, {"_axis_0"}]>, ttcore.argument_type = #ttcore.argument_type<input>, ttcore.shard_status = #ttcore.shard_status<presharded>}) -> (tensor<32x32xf32> {ttcore.shard_status = #ttcore.shard_status<presharded>}) {
    %0 = sdy.sharding_constraint %arg0 <@mesh, [{}, {}]> : tensor<32x32xf32>
    return %0 : tensor<32x32xf32>
  }
}


=== MLIR Code (size=778) ===
MLÔRStableHLO_v1.11.0
=== End MLIR Code ===
2026-01-07 14:00:54.304 (   2.557s) [        5515B480]      module_builder.cc:1085     1| MLIR Module vhlo:
#loc1 = loc("p0.1")
module @ReplicateShardedData.6 attributes {mhlo.cross_program_prefetches = [], mhlo.frontend_attributes = {xla.sdy.meshes = "{mesh = #sdy.mesh<[\22_axis_0\22=4, \22_axis_1\22=2]>}"}, mhlo.input_output_alias = [], mhlo.is_dynamic = false, mhlo.use_auto_spmd_partitioning = false} {
  vhlo.func_v1 @main(%arg0: !vhlo.tensor_v1<32x32x!vhlo.f32_v1> loc("p0.1")) -> (!vhlo.tensor_v1<32x32x!vhlo.f32_v1>) {
    %0 = "vhlo.custom_call_v1"(%arg0) <{api_version = #vhlo<api_version_v1 API_VERSION_ORIGINAL>, backend_config = #vhlo.string_v1<"">, call_target_name = #vhlo.string_v1<"xla.sdy.FuncResultSharding">, called_computations = #vhlo.array_v1<[]>, has_side_effect = #vhlo.bool_v1<true>, operand_layouts = #vhlo.array_v1<[]>, output_operand_aliases = #vhlo.array_v1<[]>, result_layouts = #vhlo.array_v1<[]>}> {mhlo.frontend_attributes = #vhlo.dict_v1<{#vhlo.string_v1<"xla.sdy.sharding"> = #vhlo.string_v1<"#sdy.sharding_per_value<[<@mesh, [{}, {}]>]>">}>} : (!vhlo.tensor_v1<32x32x!vhlo.f32_v1>) -> !vhlo.tensor_v1<32x32x!vhlo.f32_v1> loc(#loc1)
    "vhlo.return_v1"(%0) : (!vhlo.tensor_v1<32x32x!vhlo.f32_v1>) -> () loc(#loc)
  } {arg_attrs = #vhlo.array_v1<[#vhlo.dict_v1<{#vhlo.string_v1<"mhlo.frontend_attributes"> = #vhlo.dict_v1<{#vhlo.string_v1<"xla.sdy.sharding"> = #vhlo.string_v1<"#sdy.sharding<@mesh, [{}, {\22_axis_0\22}]>">}>, #vhlo.string_v1<"mhlo.sharding"> = #vhlo.string_v1<"{devices=[1,4,2]<=[8] last_tile_dim_replicate}">}>]>, res_attrs = #vhlo.array_v1<[#vhlo.dict_v1<{#vhlo.string_v1<"mhlo.sharding"> = #vhlo.string_v1<"{replicated}">}>]>, sym_visibility = #vhlo.string_v1<"">} loc(#loc)
} loc(#loc)
#loc = loc(unknown)
------------------ END OF MLIR MODULE ------------------
// -----// IR Dump Before VhloToVersionPass (vhlo-to-version) ('builtin.module' operation: @ReplicateShardedData.6) //----- //
module @ReplicateShardedData.6 attributes {mhlo.cross_program_prefetches = [], mhlo.frontend_attributes = {xla.sdy.meshes = "{mesh = #sdy.mesh<[\22_axis_0\22=4, \22_axis_1\22=2]>}"}, mhlo.input_output_alias = [], mhlo.is_dynamic = false, mhlo.use_auto_spmd_partitioning = false} {
  vhlo.func_v1 @main(%arg0: !vhlo.tensor_v1<32x32x!vhlo.f32_v1>) -> (!vhlo.tensor_v1<32x32x!vhlo.f32_v1>) {
    %0 = "vhlo.custom_call_v1"(%arg0) <{api_version = #vhlo<api_version_v1 API_VERSION_ORIGINAL>, backend_config = #vhlo.string_v1<"">, call_target_name = #vhlo.string_v1<"xla.sdy.FuncResultSharding">, called_computations = #vhlo.array_v1<[]>, has_side_effect = #vhlo.bool_v1<true>, operand_layouts = #vhlo.array_v1<[]>, output_operand_aliases = #vhlo.array_v1<[]>, result_layouts = #vhlo.array_v1<[]>}> {mhlo.frontend_attributes = #vhlo.dict_v1<{#vhlo.string_v1<"xla.sdy.sharding"> = #vhlo.string_v1<"#sdy.sharding_per_value<[<@mesh, [{}, {}]>]>">}>} : (!vhlo.tensor_v1<32x32x!vhlo.f32_v1>) -> !vhlo.tensor_v1<32x32x!vhlo.f32_v1>
    "vhlo.return_v1"(%0) : (!vhlo.tensor_v1<32x32x!vhlo.f32_v1>) -> ()
  } {arg_attrs = #vhlo.array_v1<[#vhlo.dict_v1<{#vhlo.string_v1<"mhlo.frontend_attributes"> = #vhlo.dict_v1<{#vhlo.string_v1<"xla.sdy.sharding"> = #vhlo.string_v1<"#sdy.sharding<@mesh, [{}, {\22_axis_0\22}]>">}>, #vhlo.string_v1<"mhlo.sharding"> = #vhlo.string_v1<"{devices=[1,4,2]<=[8] last_tile_dim_replicate}">}>]>, res_attrs = #vhlo.array_v1<[#vhlo.dict_v1<{#vhlo.string_v1<"mhlo.sharding"> = #vhlo.string_v1<"{replicated}">}>]>, sym_visibility = #vhlo.string_v1<"">}
}


// -----// IR Dump Before VhloLegalizeToStablehloPass (vhlo-legalize-to-stablehlo) ('builtin.module' operation: @ReplicateShardedData.6) //----- //
module @ReplicateShardedData.6 attributes {mhlo.cross_program_prefetches = [], mhlo.frontend_attributes = {xla.sdy.meshes = "{mesh = #sdy.mesh<[\22_axis_0\22=4, \22_axis_1\22=2]>}"}, mhlo.input_output_alias = [], mhlo.is_dynamic = false, mhlo.use_auto_spmd_partitioning = false} {
  vhlo.func_v1 @main(%arg0: !vhlo.tensor_v1<32x32x!vhlo.f32_v1>) -> (!vhlo.tensor_v1<32x32x!vhlo.f32_v1>) {
    %0 = "vhlo.custom_call_v1"(%arg0) <{api_version = #vhlo<api_version_v1 API_VERSION_ORIGINAL>, backend_config = #vhlo.string_v1<"">, call_target_name = #vhlo.string_v1<"xla.sdy.FuncResultSharding">, called_computations = #vhlo.array_v1<[]>, has_side_effect = #vhlo.bool_v1<true>, operand_layouts = #vhlo.array_v1<[]>, output_operand_aliases = #vhlo.array_v1<[]>, result_layouts = #vhlo.array_v1<[]>}> {mhlo.frontend_attributes = #vhlo.dict_v1<{#vhlo.string_v1<"xla.sdy.sharding"> = #vhlo.string_v1<"#sdy.sharding_per_value<[<@mesh, [{}, {}]>]>">}>} : (!vhlo.tensor_v1<32x32x!vhlo.f32_v1>) -> !vhlo.tensor_v1<32x32x!vhlo.f32_v1>
    "vhlo.return_v1"(%0) : (!vhlo.tensor_v1<32x32x!vhlo.f32_v1>) -> ()
  } {arg_attrs = #vhlo.array_v1<[#vhlo.dict_v1<{#vhlo.string_v1<"mhlo.frontend_attributes"> = #vhlo.dict_v1<{#vhlo.string_v1<"xla.sdy.sharding"> = #vhlo.string_v1<"#sdy.sharding<@mesh, [{}, {\22_axis_0\22}]>">}>, #vhlo.string_v1<"mhlo.sharding"> = #vhlo.string_v1<"{devices=[1,4,2]<=[8] last_tile_dim_replicate}">}>]>, res_attrs = #vhlo.array_v1<[#vhlo.dict_v1<{#vhlo.string_v1<"mhlo.sharding"> = #vhlo.string_v1<"{replicated}">}>]>, sym_visibility = #vhlo.string_v1<"">}
}


// -----// IR Dump After VhloLegalizeToStablehloPass (vhlo-legalize-to-stablehlo) ('builtin.module' operation: @ReplicateShardedData.6) //----- //
module @ReplicateShardedData.6 attributes {mhlo.cross_program_prefetches = [], mhlo.frontend_attributes = {xla.sdy.meshes = "{mesh = #sdy.mesh<[\22_axis_0\22=4, \22_axis_1\22=2]>}"}, mhlo.input_output_alias = [], mhlo.is_dynamic = false, mhlo.use_auto_spmd_partitioning = false} {
  func.func @main(%arg0: tensor<32x32xf32> {mhlo.frontend_attributes = {xla.sdy.sharding = "#sdy.sharding<@mesh, [{}, {\22_axis_0\22}]>"}, mhlo.sharding = "{devices=[1,4,2]<=[8] last_tile_dim_replicate}"}) -> (tensor<32x32xf32> {mhlo.sharding = "{replicated}"}) {
    %0 = stablehlo.custom_call @xla.sdy.FuncResultSharding(%arg0) {has_side_effect = true, mhlo.frontend_attributes = {xla.sdy.sharding = "#sdy.sharding_per_value<[<@mesh, [{}, {}]>]>"}} : (tensor<32x32xf32>) -> tensor<32x32xf32>
    return %0 : tensor<32x32xf32>
  }
}


2026-01-07 14:00:54.305 (   2.559s) [        5515B480]      module_builder.cc:1085     1| MLIR Module shlo:
#loc1 = loc("p0.1")
module @ReplicateShardedData.6 attributes {mhlo.cross_program_prefetches = [], mhlo.frontend_attributes = {xla.sdy.meshes = "{mesh = #sdy.mesh<[\22_axis_0\22=4, \22_axis_1\22=2]>}"}, mhlo.input_output_alias = [], mhlo.is_dynamic = false, mhlo.use_auto_spmd_partitioning = false} {
  func.func @main(%arg0: tensor<32x32xf32> {mhlo.frontend_attributes = {xla.sdy.sharding = "#sdy.sharding<@mesh, [{}, {\22_axis_0\22}]>"}, mhlo.sharding = "{devices=[1,4,2]<=[8] last_tile_dim_replicate}"} loc("p0.1")) -> (tensor<32x32xf32> {mhlo.sharding = "{replicated}"}) {
    %0 = stablehlo.custom_call @xla.sdy.FuncResultSharding(%arg0) {has_side_effect = true, mhlo.frontend_attributes = {xla.sdy.sharding = "#sdy.sharding_per_value<[<@mesh, [{}, {}]>]>"}} : (tensor<32x32xf32>) -> tensor<32x32xf32> loc(#loc1)
    return %0 : tensor<32x32xf32> loc(#loc)
  } loc(#loc)
} loc(#loc)
#loc = loc(unknown)
------------------ END OF MLIR MODULE ------------------
2026-01-07 14:00:54.305 (   2.559s) [        5515B480]      module_builder.cc:1085     1| MLIR Module shlo_frontend:
#loc1 = loc("p0.1")
module @ReplicateShardedData.6 attributes {mhlo.cross_program_prefetches = [], mhlo.frontend_attributes = {xla.sdy.meshes = "{mesh = #sdy.mesh<[\22_axis_0\22=4, \22_axis_1\22=2]>}"}, mhlo.input_output_alias = [], mhlo.is_dynamic = false, mhlo.use_auto_spmd_partitioning = false} {
  func.func @main(%arg0: tensor<32x32xf32> {mhlo.frontend_attributes = {xla.sdy.sharding = "#sdy.sharding<@mesh, [{}, {\22_axis_0\22}]>"}, mhlo.sharding = "{devices=[1,4,2]<=[8] last_tile_dim_replicate}", ttcore.argument_type = #ttcore.argument_type<input>} loc("p0.1")) -> (tensor<32x32xf32> {mhlo.sharding = "{replicated}"}) {
    %0 = stablehlo.custom_call @xla.sdy.FuncResultSharding(%arg0) {has_side_effect = true, mhlo.frontend_attributes = {xla.sdy.sharding = "#sdy.sharding_per_value<[<@mesh, [{}, {}]>]>"}} : (tensor<32x32xf32>) -> tensor<32x32xf32> loc(#loc1)
    return %0 : tensor<32x32xf32> loc(#loc)
  } loc(#loc)
} loc(#loc)
#loc = loc(unknown)
------------------ END OF MLIR MODULE ------------------
// -----// IR Dump Before Inliner (inline) ('builtin.module' operation: @ReplicateShardedData.6) //----- //
module @ReplicateShardedData.6 attributes {mhlo.cross_program_prefetches = [], mhlo.frontend_attributes = {xla.sdy.meshes = "{mesh = #sdy.mesh<[\22_axis_0\22=4, \22_axis_1\22=2]>}"}, mhlo.input_output_alias = [], mhlo.is_dynamic = false, mhlo.use_auto_spmd_partitioning = false} {
  func.func @main(%arg0: tensor<32x32xf32> {mhlo.frontend_attributes = {xla.sdy.sharding = "#sdy.sharding<@mesh, [{}, {\22_axis_0\22}]>"}, mhlo.sharding = "{devices=[1,4,2]<=[8] last_tile_dim_replicate}", ttcore.argument_type = #ttcore.argument_type<input>}) -> (tensor<32x32xf32> {mhlo.sharding = "{replicated}"}) {
    %0 = stablehlo.custom_call @xla.sdy.FuncResultSharding(%arg0) {has_side_effect = true, mhlo.frontend_attributes = {xla.sdy.sharding = "#sdy.sharding_per_value<[<@mesh, [{}, {}]>]>"}} : (tensor<32x32xf32>) -> tensor<32x32xf32>
    return %0 : tensor<32x32xf32>
  }
}


// -----// IR Dump Before Canonicalizer (canonicalize) ('func.func' operation: @main) //----- //
module @ReplicateShardedData.6 attributes {mhlo.cross_program_prefetches = [], mhlo.frontend_attributes = {xla.sdy.meshes = "{mesh = #sdy.mesh<[\22_axis_0\22=4, \22_axis_1\22=2]>}"}, mhlo.input_output_alias = [], mhlo.is_dynamic = false, mhlo.use_auto_spmd_partitioning = false} {
  func.func @main(%arg0: tensor<32x32xf32> {mhlo.frontend_attributes = {xla.sdy.sharding = "#sdy.sharding<@mesh, [{}, {\22_axis_0\22}]>"}, mhlo.sharding = "{devices=[1,4,2]<=[8] last_tile_dim_replicate}", ttcore.argument_type = #ttcore.argument_type<input>}) -> (tensor<32x32xf32> {mhlo.sharding = "{replicated}"}) {
    %0 = stablehlo.custom_call @xla.sdy.FuncResultSharding(%arg0) {has_side_effect = true, mhlo.frontend_attributes = {xla.sdy.sharding = "#sdy.sharding_per_value<[<@mesh, [{}, {}]>]>"}} : (tensor<32x32xf32>) -> tensor<32x32xf32>
    return %0 : tensor<32x32xf32>
  }
}


// -----// IR Dump Before TTPopulateArgumentTypes (tt-populate-argument-types) ('builtin.module' operation: @ReplicateShardedData.6) //----- //
module @ReplicateShardedData.6 attributes {mhlo.cross_program_prefetches = [], mhlo.frontend_attributes = {xla.sdy.meshes = "{mesh = #sdy.mesh<[\22_axis_0\22=4, \22_axis_1\22=2]>}"}, mhlo.input_output_alias = [], mhlo.is_dynamic = false, mhlo.use_auto_spmd_partitioning = false} {
  func.func @main(%arg0: tensor<32x32xf32> {mhlo.frontend_attributes = {xla.sdy.sharding = "#sdy.sharding<@mesh, [{}, {\22_axis_0\22}]>"}, mhlo.sharding = "{devices=[1,4,2]<=[8] last_tile_dim_replicate}", ttcore.argument_type = #ttcore.argument_type<input>}) -> (tensor<32x32xf32> {mhlo.sharding = "{replicated}"}) {
    %0 = stablehlo.custom_call @xla.sdy.FuncResultSharding(%arg0) {has_side_effect = true, mhlo.frontend_attributes = {xla.sdy.sharding = "#sdy.sharding_per_value<[<@mesh, [{}, {}]>]>"}} : (tensor<32x32xf32>) -> tensor<32x32xf32>
    return %0 : tensor<32x32xf32>
  }
}


// -----// IR Dump Before ApplyArgumentShardStatusPass (apply-argument-shard-status) ('builtin.module' operation: @ReplicateShardedData.6) //----- //
module @ReplicateShardedData.6 attributes {mhlo.cross_program_prefetches = [], mhlo.frontend_attributes = {xla.sdy.meshes = "{mesh = #sdy.mesh<[\22_axis_0\22=4, \22_axis_1\22=2]>}"}, mhlo.input_output_alias = [], mhlo.is_dynamic = false, mhlo.use_auto_spmd_partitioning = false} {
  func.func @main(%arg0: tensor<32x32xf32> {mhlo.frontend_attributes = {xla.sdy.sharding = "#sdy.sharding<@mesh, [{}, {\22_axis_0\22}]>"}, mhlo.sharding = "{devices=[1,4,2]<=[8] last_tile_dim_replicate}", ttcore.argument_type = #ttcore.argument_type<input>}) -> (tensor<32x32xf32> {mhlo.sharding = "{replicated}"}) {
    %0 = stablehlo.custom_call @xla.sdy.FuncResultSharding(%arg0) {has_side_effect = true, mhlo.frontend_attributes = {xla.sdy.sharding = "#sdy.sharding_per_value<[<@mesh, [{}, {}]>]>"}} : (tensor<32x32xf32>) -> tensor<32x32xf32>
    return %0 : tensor<32x32xf32>
  }
}


// -----// IR Dump After ApplyArgumentShardStatusPass (apply-argument-shard-status) ('builtin.module' operation: @ReplicateShardedData.6) //----- //
module @ReplicateShardedData.6 attributes {mhlo.cross_program_prefetches = [], mhlo.frontend_attributes = {xla.sdy.meshes = "{mesh = #sdy.mesh<[\22_axis_0\22=4, \22_axis_1\22=2]>}"}, mhlo.input_output_alias = [], mhlo.is_dynamic = false, mhlo.use_auto_spmd_partitioning = false} {
  func.func @main(%arg0: tensor<32x32xf32> {mhlo.frontend_attributes = {xla.sdy.sharding = "#sdy.sharding<@mesh, [{}, {\22_axis_0\22}]>"}, mhlo.sharding = "{devices=[1,4,2]<=[8] last_tile_dim_replicate}", ttcore.argument_type = #ttcore.argument_type<input>, ttcore.shard_status = #ttcore.shard_status<presharded>}) -> (tensor<32x32xf32> {mhlo.sharding = "{replicated}", ttcore.shard_status = #ttcore.shard_status<presharded>}) {
    %0 = stablehlo.custom_call @xla.sdy.FuncResultSharding(%arg0) {has_side_effect = true, mhlo.frontend_attributes = {xla.sdy.sharding = "#sdy.sharding_per_value<[<@mesh, [{}, {}]>]>"}} : (tensor<32x32xf32>) -> tensor<32x32xf32>
    return %0 : tensor<32x32xf32>
  }
}


// -----// IR Dump Before ConvertXlaSdyToSdyPass (convert-xla-sdy-to-sdy) ('builtin.module' operation: @ReplicateShardedData.6) //----- //
module @ReplicateShardedData.6 attributes {mhlo.cross_program_prefetches = [], mhlo.frontend_attributes = {xla.sdy.meshes = "{mesh = #sdy.mesh<[\22_axis_0\22=4, \22_axis_1\22=2]>}"}, mhlo.input_output_alias = [], mhlo.is_dynamic = false, mhlo.use_auto_spmd_partitioning = false} {
  func.func @main(%arg0: tensor<32x32xf32> {mhlo.frontend_attributes = {xla.sdy.sharding = "#sdy.sharding<@mesh, [{}, {\22_axis_0\22}]>"}, mhlo.sharding = "{devices=[1,4,2]<=[8] last_tile_dim_replicate}", ttcore.argument_type = #ttcore.argument_type<input>, ttcore.shard_status = #ttcore.shard_status<presharded>}) -> (tensor<32x32xf32> {mhlo.sharding = "{replicated}", ttcore.shard_status = #ttcore.shard_status<presharded>}) {
    %0 = stablehlo.custom_call @xla.sdy.FuncResultSharding(%arg0) {has_side_effect = true, mhlo.frontend_attributes = {xla.sdy.sharding = "#sdy.sharding_per_value<[<@mesh, [{}, {}]>]>"}} : (tensor<32x32xf32>) -> tensor<32x32xf32>
    return %0 : tensor<32x32xf32>
  }
}


// -----// IR Dump After ConvertXlaSdyToSdyPass (convert-xla-sdy-to-sdy) ('builtin.module' operation: @ReplicateShardedData.6) //----- //
module @ReplicateShardedData.6 attributes {mhlo.cross_program_prefetches = [], mhlo.input_output_alias = [], mhlo.is_dynamic = false, mhlo.use_auto_spmd_partitioning = false} {
  sdy.mesh @mesh = <["_axis_0"=4, "_axis_1"=2]>
  func.func @main(%arg0: tensor<32x32xf32> {sdy.sharding = #sdy.sharding<@mesh, [{}, {"_axis_0"}]>, ttcore.argument_type = #ttcore.argument_type<input>, ttcore.shard_status = #ttcore.shard_status<presharded>}) -> (tensor<32x32xf32> {ttcore.shard_status = #ttcore.shard_status<presharded>}) {
    %0 = sdy.sharding_constraint %arg0 <@mesh, [{}, {}]> : tensor<32x32xf32>
    return %0 : tensor<32x32xf32>
  }
}


// -----// IR Dump Before AnalyzeMeshPass (analyze-mesh) ('builtin.module' operation: @ReplicateShardedData.6) //----- //
module @ReplicateShardedData.6 attributes {mhlo.cross_program_prefetches = [], mhlo.input_output_alias = [], mhlo.is_dynamic = false, mhlo.use_auto_spmd_partitioning = false} {
  sdy.mesh @mesh = <["_axis_0"=4, "_axis_1"=2]>
  func.func @main(%arg0: tensor<32x32xf32> {sdy.sharding = #sdy.sharding<@mesh, [{}, {"_axis_0"}]>, ttcore.argument_type = #ttcore.argument_type<input>, ttcore.shard_status = #ttcore.shard_status<presharded>}) -> (tensor<32x32xf32> {ttcore.shard_status = #ttcore.shard_status<presharded>}) {
    %0 = sdy.sharding_constraint %arg0 <@mesh, [{}, {}]> : tensor<32x32xf32>
    return %0 : tensor<32x32xf32>
  }
}


error: Mesh is not valid
// -----// IR Dump After AnalyzeMeshPass Failed (analyze-mesh) ('builtin.module' operation: @ReplicateShardedData.6) //----- //
module @ReplicateShardedData.6 attributes {mhlo.cross_program_prefetches = [], mhlo.input_output_alias = [], mhlo.is_dynamic = false, mhlo.use_auto_spmd_partitioning = false} {
  sdy.mesh @mesh = <["_axis_0"=4, "_axis_1"=2]>
  func.func @main(%arg0: tensor<32x32xf32> {sdy.sharding = #sdy.sharding<@mesh, [{}, {"_axis_0"}]>, ttcore.argument_type = #ttcore.argument_type<input>, ttcore.shard_status = #ttcore.shard_status<presharded>}) -> (tensor<32x32xf32> {ttcore.shard_status = #ttcore.shard_status<presharded>}) {
    %0 = sdy.sharding_constraint %arg0 <@mesh, [{}, {}]> : tensor<32x32xf32>
    return %0 : tensor<32x32xf32>
  }
}


FAILED

=================================== FAILURES ===================================
____________________ test_shared_input_across_mesh_reshape _____________________

    @pytest.mark.nightly
    @pytest.mark.llmbox
    def test_shared_input_across_mesh_reshape():
        """
        Test scenario: Run 2 models back to back, one on 2x4 mesh and a 1x8 mesh,
        and share a (replicated) input between them.
    
        Issue repro:
        A meshDevice close/open happens after execution of first and second model.
        This causes all live tensors to be deallocated, silently invalidating the
        prepared tensor cache. The shared input also gets deallocated, but PJRT
        doesn't know about it so when the 1x8 model gets executed the shared input
        is reused but fails due to prior deallocation.
    
        This test is expected to fail with:
        "Prepared input tensor is not allocated on device. This means it was
        deallocated by a previous operation."
        """
    
        class Program2x4(torch.nn.Module):
            def forward(self, x, y):
                return x + 1, y + 1
    
        class Program1x8(torch.nn.Module):
            def forward(self, y):
                return y + 1
    
        xr.set_device_type("TT")
        setup_spmd()
        device = torch_xla.device()
    
        # run 2x4 program
        mesh = create_device_mesh(
            (
                2,
                4,
            )
        )
        t1 = torch.zeros(32, 32).to(device)
        t2 = torch.zeros(32, 32).to(device)
    
        # shard one input to 2x4 graph to signal to compiler that the graph is non-replicated
        # eg. to avoid this case if no inputs are sharded:
        # SPMD-enabled mesh has trivial size [1, 1], reshaping to [1, 8]
        xs.mark_sharding(t1, mesh, (None, "model"))
    
        print("Running 2x4", flush=True)
        compiled_model = torch.compile(Program2x4(), backend="tt")
        compiled_model = compiled_model.to(device)
        output = compiled_model(t1, t2)
>       print(output)

tests/torch/graphs/test_tensor_persistence.py:651: 
_ _ _ _ _ _ _ _ _ _ _ _ _ _ _ _ _ _ _ _ _ _ _ _ _ _ _ _ _ _ _ _ _ _ _ _ _ _ _ _ 
/usr/local/lib/python3.11/dist-packages/torch/_tensor.py:586: in __repr__
    return handle_torch_function(
/usr/local/lib/python3.11/dist-packages/torch/overrides.py:1721: in handle_torch_function
    result = mode.__torch_function__(public_api, types, args, kwargs)
             ^^^^^^^^^^^^^^^^^^^^^^^^^^^^^^^^^^^^^^^^^^^^^^^^^^^^^^^^
python_package/tt_torch/torch_overrides.py:22: in __torch_function__
    return func(*args, **(kwargs or {}))
           ^^^^^^^^^^^^^^^^^^^^^^^^^^^^^
/usr/local/lib/python3.11/dist-packages/torch/_tensor.py:590: in __repr__
    return torch._tensor_str._str(self, tensor_contents=tensor_contents)
           ^^^^^^^^^^^^^^^^^^^^^^^^^^^^^^^^^^^^^^^^^^^^^^^^^^^^^^^^^^^^^
/usr/local/lib/python3.11/dist-packages/torch/_tensor_str.py:710: in _str
    return _str_intern(self, tensor_contents=tensor_contents)
           ^^^^^^^^^^^^^^^^^^^^^^^^^^^^^^^^^^^^^^^^^^^^^^^^^^
_ _ _ _ _ _ _ _ _ _ _ _ _ _ _ _ _ _ _ _ _ _ _ _ _ _ _ _ _ _ _ _ _ _ _ _ _ _ _ _ 

inp = <[RuntimeError('Error code: 13') raised in repr()] Tensor object at 0x7f135a6c3cb0>

    def _str_intern(inp, *, tensor_contents=None):
        if torch._C._functorch.is_functorch_wrapped_tensor(inp):
            return _functorch_wrapper_str_intern(inp, tensor_contents=tensor_contents)
        is_plain_tensor = type(inp) is torch.Tensor or type(inp) is torch.nn.Parameter
        if inp.is_nested:
            prefix = "nested_tensor("
        elif is_plain_tensor:
            prefix = "tensor("
        else:
            prefix = f"{type(inp).__name__}("
        indent = len(prefix)
        suffixes = []
        custom_contents_provided = tensor_contents is not None
        if custom_contents_provided:
            tensor_str = tensor_contents
    
        # This is used to extract the primal value and thus disable the forward AD
        # within this function.
        # TODO(albanD) This needs to be updated when more than one level is supported
        self, tangent = torch.autograd.forward_ad.unpack_dual(inp)
    
        # Note [Print tensor device]:
        # A general logic here is we only print device when it doesn't match
        # the device specified in default tensor type.
        # Currently torch.set_default_tensor_type() only supports CPU/CUDA, thus
        # torch._C._get_default_device() only returns either cpu or cuda.
        # In other cases, we don't have a way to set them as default yet,
        # and we should always print out device for them.
        if (
            self.device.type != torch._C._get_default_device()
            or (
                self.device.type == "cuda"
                and torch.cuda.current_device() != self.device.index
            )
            or (self.device.type == "mps")
        ):
            suffixes.append("device='" + str(self.device) + "'")
    
        # Tensor printing performs tensor operations like slice, indexing, etc to make it in a
        # representable format. These operations on ipu/xla/lazy/mtia tensor results in compilations. Hence,
        # to avoid compilations, copying the tensor to cpu before printing.
        if self.device.type in ["xla", "lazy", "ipu", "mtia"]:
>           self = self.to("cpu")
                   ^^^^^^^^^^^^^^
E           RuntimeError: Error code: 13

/usr/local/lib/python3.11/dist-packages/torch/_tensor_str.py:446: RuntimeError
=========================== short test summary info ============================
FAILED tests/torch/graphs/test_tensor_persistence.py::test_shared_input_across_mesh_reshape - RuntimeError: Error code: 13
============================== 1 failed in 2.81s ===============================
