WARNING:root:Defaulting to PJRT_DEVICE=CPU
Using TT-Metal from the source tree: /localdev/jameszianxu/clean/tt-xla/third_party/tt-mlir/src/tt-mlir/third_party/tt-metal/src/tt-metal
WARNING: TT plugin is setting XLA_STABLEHLO_COMPILE to 1. This is required for TT PJRT plugin to work correctly.
============================= test session starts ==============================
platform linux -- Python 3.11.13, pytest-8.4.2, pluggy-1.6.0 -- /localdev/jameszianxu/clean/tt-xla/venv/bin/python
cachedir: .pytest_cache
rootdir: /localdev/jameszianxu/clean/tt-xla
configfile: pytest.ini
plugins: forked-1.6.0, split-0.10.0, jaxtyping-0.3.3
collecting ... collected 2 items

tests/torch/multi_chip/n300/models/tensor_parallel/llama3/test_llama_step_n300.py::test_llama_step[LLMRunMode.PREFILL] 2025-10-03 19:57:40.347 (   0.000s) [        53665000]      dylib_platform.cc:47       1| DylibPlatform::SubclassInitialize
2025-10-03 19:57:40.349 (   0.002s) [        53665000]     client_instance.cc:44       1| ClientInstance::ClientInstance
2025-10-03 19:57:40.349 (   0.002s) [        53665000]              client.cc:18       1| TTClientInstance::TTClientInstance
2025-10-03 19:57:40.349 (   0.002s) [        53665000]     client_instance.cc:69       1| ClientInstance::Initialize
2025-10-03 19:58:22.968 (  42.622s) [        53665000]              stubs.inc:106   WARN| STUB: PJRT_Client_TopologyDescription
2025-10-03 19:58:22.969 (  42.622s) [        53665000]      error_instance.cc:49       1| ErrorInstance::PJRT_Error_Message
2025-10-03 19:58:22.969 (  42.622s) [        53665000]      error_instance.cc:58       1| ErrorInstance::PJRT_Error_GetCode
2025-10-03 19:58:22.969 (  42.622s) [        53665000]      error_instance.cc:43       1| ErrorInstance::PJRT_Error_Destroy
2025-10-03 19:58:22.969 (  42.622s) [        53665000]     client_instance.cc:461      1| ClientInstance::PJRT_Client_PlatformVersion
2025-10-03 19:58:22.969 (  42.622s) [        53665000]     client_instance.cc:441      1| ClientInstance::PJRT_Client_PlatformName
2025-10-03 19:58:22.969 (  42.622s) [        53665000]     client_instance.cc:473      1| ClientInstance::PJRT_Client_Devices
2025-10-03 19:58:22.969 (  42.622s) [        53665000]     device_instance.cc:44       1| DeviceInstance::PJRT_Device_GetDescription
2025-10-03 19:58:22.969 (  42.622s) [        53665000]  device_description.cc:63       1| DeviceDescription::PJRT_DeviceDescription_Attributes
2025-10-03 19:58:22.969 (  42.622s) [        53665000]     device_instance.cc:44       1| DeviceInstance::PJRT_Device_GetDescription
2025-10-03 19:58:22.969 (  42.622s) [        53665000]  device_description.cc:63       1| DeviceDescription::PJRT_DeviceDescription_Attributes
2025-10-03 19:58:22.969 (  42.622s) [        53665000]     client_instance.cc:486      1| ClientInstance::PJRT_Client_AddressableDevices
2025-10-03 19:58:22.969 (  42.622s) [        53665000]     client_instance.cc:536      1| ClientInstance::PJRT_Client_AddressableMemories
2025-10-03 19:58:22.969 (  42.622s) [        53665000]     device_instance.cc:71       1| DeviceInstance::PJRT_Device_AddressableMemories
2025-10-03 19:58:22.969 (  42.622s) [        53665000]     device_instance.cc:71       1| DeviceInstance::PJRT_Device_AddressableMemories
2025-10-03 19:58:22.969 (  42.622s) [        53665000]     memory_instance.cc:124      1| MemoryInstance::PJRT_Memory_AddressableByDevices
2025-10-03 19:58:22.969 (  42.622s) [        53665000]     memory_instance.cc:124      1| MemoryInstance::PJRT_Memory_AddressableByDevices
2025-10-03 19:58:22.969 (  42.622s) [        53665000]     memory_instance.cc:124      1| MemoryInstance::PJRT_Memory_AddressableByDevices
2025-10-03 19:58:22.969 (  42.622s) [        53665000]        api_bindings.cc:76       1| PJRT_Plugin_Attributes
2025-10-03 19:58:22.969347: W torch_xla/csrc/runtime/profiler.cpp:88] Profiler API not found for PJRT plugin
2025-10-03 19:58:22.969 (  42.622s) [        53665000]  device_description.cc:44       1| DeviceDescription::PJRT_DeviceDescription_Id
2025-10-03 19:58:22.969 (  42.622s) [        53665000]  device_description.cc:44       1| DeviceDescription::PJRT_DeviceDescription_Id
2025-10-03 19:58:22.969 (  42.622s) [        53665000]  device_description.cc:44       1| DeviceDescription::PJRT_DeviceDescription_Id
2025-10-03 19:58:22.969 (  42.622s) [        53665000]  device_description.cc:44       1| DeviceDescription::PJRT_DeviceDescription_Id
2025-10-03 19:58:22.969 (  42.622s) [        53665000]  device_description.cc:44       1| DeviceDescription::PJRT_DeviceDescription_Id
2025-10-03 19:58:22.969 (  42.622s) [        53665000]  device_description.cc:44       1| DeviceDescription::PJRT_DeviceDescription_Id
2025-10-03 19:58:22.969 (  42.622s) [        53665000]  device_description.cc:99       1| DeviceDescription::PJRT_DeviceDescription_ToString
2025-10-03 19:58:22.969 (  42.622s) [        53665000]  device_description.cc:99       1| DeviceDescription::PJRT_DeviceDescription_ToString
2025-10-03 19:58:22.969 (  42.622s) [        53665000]  device_description.cc:44       1| DeviceDescription::PJRT_DeviceDescription_Id
2025-10-03 19:58:22.969 (  42.622s) [        53665000]  device_description.cc:44       1| DeviceDescription::PJRT_DeviceDescription_Id
2025-10-03 19:58:22.969 (  42.622s) [        53665000]  device_description.cc:44       1| DeviceDescription::PJRT_DeviceDescription_Id
2025-10-03 19:58:22.969 (  42.622s) [        53665000]  device_description.cc:44       1| DeviceDescription::PJRT_DeviceDescription_Id
Created device mesh: (1, 2) with 2 devices.
Loading checkpoint shards:   0%|          | 0/2 [00:00<?, ?it/s]Loading checkpoint shards: 100%|██████████| 2/2 [00:00<00:00, 45.66it/s]
2025-10-03 19:58:24.782 (  44.435s) [        53665000]  device_description.cc:44       1| DeviceDescription::PJRT_DeviceDescription_Id
2025-10-03 19:58:24.782 (  44.435s) [        53665000]  device_description.cc:44       1| DeviceDescription::PJRT_DeviceDescription_Id
2025-10-03 19:58:24.782 (  44.435s) [        53665000]     device_instance.cc:82       1| DeviceInstance::PJRT_Device_DefaultMemory
2025-10-03 19:58:24.782 (  44.435s) [        53665000]     client_instance.cc:592      1| ClientInstance::PJRT_Client_BufferFromHostBuffer
2025-10-03 19:58:24.782 (  44.435s) [        53665000]     memory_instance.cc:57       1| MemoryInstance::getDevice
[32m                 Always[0m | [1m[38;5;208m WARNING[0m | User provided a tensor of data type: Int64 which is not supported by runtime/ttnn. Casting to: Int32, this may impact throughput and the integrity of the data.
2025-10-03 19:58:24.783 (  44.436s) [        53665000]      event_instance.cc:222      1| EventInstance::PJRT_Event_OnReady
2025-10-03 19:58:24.783 (  44.436s) [        53665000]      event_instance.cc:171      1| EventInstance::PJRT_Event_Destroy
2025-10-03 19:58:24.783 (  44.436s) [        53665000]     device_instance.cc:82       1| DeviceInstance::PJRT_Device_DefaultMemory
2025-10-03 19:58:24.783 (  44.436s) [        53665000]     client_instance.cc:592      1| ClientInstance::PJRT_Client_BufferFromHostBuffer
2025-10-03 19:58:24.783 (  44.436s) [        53665000]     memory_instance.cc:57       1| MemoryInstance::getDevice
[32m                 Always[0m | [1m[38;5;208m WARNING[0m | User provided a tensor of data type: Int64 which is not supported by runtime/ttnn. Casting to: Int32, this may impact throughput and the integrity of the data.
2025-10-03 19:58:24.783 (  44.436s) [        53665000]      event_instance.cc:222      1| EventInstance::PJRT_Event_OnReady
2025-10-03 19:58:24.783 (  44.436s) [        53665000]      event_instance.cc:171      1| EventInstance::PJRT_Event_Destroy
2025-10-03 19:58:24.783 (  44.436s) [        53665000]  device_description.cc:44       1| DeviceDescription::PJRT_DeviceDescription_Id
2025-10-03 19:58:24.783 (  44.436s) [        53665000]  device_description.cc:44       1| DeviceDescription::PJRT_DeviceDescription_Id
2025-10-03 19:58:24.783 (  44.436s) [        53665000]     device_instance.cc:82       1| DeviceInstance::PJRT_Device_DefaultMemory
2025-10-03 19:58:24.783 (  44.436s) [        53665000]     client_instance.cc:592      1| ClientInstance::PJRT_Client_BufferFromHostBuffer
2025-10-03 19:58:24.783 (  44.436s) [        53665000]     memory_instance.cc:57       1| MemoryInstance::getDevice
[32m                 Always[0m | [1m[38;5;208m WARNING[0m | User provided a tensor of data type: Int64 which is not supported by runtime/ttnn. Casting to: Int32, this may impact throughput and the integrity of the data.
2025-10-03 19:58:24.784 (  44.437s) [        53665000]      event_instance.cc:222      1| EventInstance::PJRT_Event_OnReady
2025-10-03 19:58:24.784 (  44.437s) [        53665000]      event_instance.cc:171      1| EventInstance::PJRT_Event_Destroy
2025-10-03 19:58:24.784 (  44.437s) [        53665000]     device_instance.cc:82       1| DeviceInstance::PJRT_Device_DefaultMemory
2025-10-03 19:58:24.784 (  44.437s) [        53665000]     client_instance.cc:592      1| ClientInstance::PJRT_Client_BufferFromHostBuffer
2025-10-03 19:58:24.784 (  44.437s) [        53665000]     memory_instance.cc:57       1| MemoryInstance::getDevice
[32m                 Always[0m | [1m[38;5;208m WARNING[0m | User provided a tensor of data type: Int64 which is not supported by runtime/ttnn. Casting to: Int32, this may impact throughput and the integrity of the data.
2025-10-03 19:58:24.784 (  44.437s) [        53665000]      event_instance.cc:222      1| EventInstance::PJRT_Event_OnReady
2025-10-03 19:58:24.784 (  44.437s) [        53665000]      event_instance.cc:171      1| EventInstance::PJRT_Event_Destroy
2025-10-03 19:58:24.784 (  44.437s) [        53665000]  device_description.cc:44       1| DeviceDescription::PJRT_DeviceDescription_Id
2025-10-03 19:58:24.784 (  44.437s) [        53665000]  device_description.cc:44       1| DeviceDescription::PJRT_DeviceDescription_Id
2025-10-03 19:58:24.784 (  44.437s) [        53665000]     device_instance.cc:82       1| DeviceInstance::PJRT_Device_DefaultMemory
2025-10-03 19:58:24.784 (  44.437s) [        53665000]     client_instance.cc:592      1| ClientInstance::PJRT_Client_BufferFromHostBuffer
2025-10-03 19:58:24.784 (  44.437s) [        53665000]     memory_instance.cc:57       1| MemoryInstance::getDevice
2025-10-03 19:58:24.784 (  44.437s) [        53665000]      event_instance.cc:222      1| EventInstance::PJRT_Event_OnReady
2025-10-03 19:58:24.784 (  44.437s) [        53665000]      event_instance.cc:171      1| EventInstance::PJRT_Event_Destroy
2025-10-03 19:58:24.784 (  44.437s) [        53665000]     device_instance.cc:82       1| DeviceInstance::PJRT_Device_DefaultMemory
2025-10-03 19:58:24.784 (  44.437s) [        53665000]     client_instance.cc:592      1| ClientInstance::PJRT_Client_BufferFromHostBuffer
2025-10-03 19:58:24.784 (  44.437s) [        53665000]     memory_instance.cc:57       1| MemoryInstance::getDevice
2025-10-03 19:58:24.785 (  44.438s) [        53665000]      event_instance.cc:222      1| EventInstance::PJRT_Event_OnReady
2025-10-03 19:58:24.785 (  44.438s) [        53665000]      event_instance.cc:171      1| EventInstance::PJRT_Event_Destroy
2025-10-03 19:58:24.785 (  44.438s) [        53665000]  device_description.cc:44       1| DeviceDescription::PJRT_DeviceDescription_Id
2025-10-03 19:58:24.785 (  44.438s) [        53665000]  device_description.cc:44       1| DeviceDescription::PJRT_DeviceDescription_Id
2025-10-03 19:58:24.785 (  44.438s) [        53665000]     device_instance.cc:82       1| DeviceInstance::PJRT_Device_DefaultMemory
2025-10-03 19:58:24.785 (  44.438s) [        53665000]     client_instance.cc:592      1| ClientInstance::PJRT_Client_BufferFromHostBuffer
2025-10-03 19:58:24.785 (  44.438s) [        53665000]     memory_instance.cc:57       1| MemoryInstance::getDevice
2025-10-03 19:58:24.785 (  44.438s) [        53665000]      event_instance.cc:222      1| EventInstance::PJRT_Event_OnReady
2025-10-03 19:58:24.785 (  44.438s) [        53665000]      event_instance.cc:171      1| EventInstance::PJRT_Event_Destroy
2025-10-03 19:58:24.785 (  44.438s) [        53665000]     device_instance.cc:82       1| DeviceInstance::PJRT_Device_DefaultMemory
2025-10-03 19:58:24.785 (  44.438s) [        53665000]     client_instance.cc:592      1| ClientInstance::PJRT_Client_BufferFromHostBuffer
2025-10-03 19:58:24.785 (  44.438s) [        53665000]     memory_instance.cc:57       1| MemoryInstance::getDevice
2025-10-03 19:58:24.785 (  44.438s) [        53665000]      event_instance.cc:222      1| EventInstance::PJRT_Event_OnReady
2025-10-03 19:58:24.785 (  44.438s) [        53665000]      event_instance.cc:171      1| EventInstance::PJRT_Event_Destroy
2025-10-03 19:58:24.785 (  44.438s) [        53665000]  device_description.cc:44       1| DeviceDescription::PJRT_DeviceDescription_Id
2025-10-03 19:58:24.785 (  44.438s) [        53665000]  device_description.cc:44       1| DeviceDescription::PJRT_DeviceDescription_Id
2025-10-03 19:58:24.791 (  44.444s) [        53665000]     device_instance.cc:82       1| DeviceInstance::PJRT_Device_DefaultMemory
2025-10-03 19:58:24.791 (  44.444s) [        53665000]     client_instance.cc:592      1| ClientInstance::PJRT_Client_BufferFromHostBuffer
2025-10-03 19:58:24.791 (  44.444s) [        53665000]     memory_instance.cc:57       1| MemoryInstance::getDevice
2025-10-03 19:58:24.791 (  44.444s) [        53665000]      event_instance.cc:222      1| EventInstance::PJRT_Event_OnReady
2025-10-03 19:58:24.791 (  44.444s) [        53665000]      event_instance.cc:171      1| EventInstance::PJRT_Event_Destroy
2025-10-03 19:58:24.791 (  44.444s) [        53665000]     device_instance.cc:82       1| DeviceInstance::PJRT_Device_DefaultMemory
2025-10-03 19:58:24.791 (  44.444s) [        53665000]     client_instance.cc:592      1| ClientInstance::PJRT_Client_BufferFromHostBuffer
2025-10-03 19:58:24.791 (  44.444s) [        53665000]     memory_instance.cc:57       1| MemoryInstance::getDevice
2025-10-03 19:58:24.791 (  44.444s) [        53665000]      event_instance.cc:222      1| EventInstance::PJRT_Event_OnReady
2025-10-03 19:58:24.791 (  44.444s) [        53665000]      event_instance.cc:171      1| EventInstance::PJRT_Event_Destroy
2025-10-03 19:58:24.800 (  44.453s) [        53665000]  device_description.cc:44       1| DeviceDescription::PJRT_DeviceDescription_Id
2025-10-03 19:58:24.800 (  44.453s) [        53665000]  device_description.cc:44       1| DeviceDescription::PJRT_DeviceDescription_Id
2025-10-03 19:58:24.806 (  44.459s) [        53665000]     device_instance.cc:82       1| DeviceInstance::PJRT_Device_DefaultMemory
2025-10-03 19:58:24.806 (  44.459s) [        53665000]     client_instance.cc:592      1| ClientInstance::PJRT_Client_BufferFromHostBuffer
2025-10-03 19:58:24.806 (  44.459s) [        53665000]     memory_instance.cc:57       1| MemoryInstance::getDevice
2025-10-03 19:58:24.806 (  44.459s) [        53665000]      event_instance.cc:222      1| EventInstance::PJRT_Event_OnReady
2025-10-03 19:58:24.806 (  44.459s) [        53665000]      event_instance.cc:171      1| EventInstance::PJRT_Event_Destroy
2025-10-03 19:58:24.806 (  44.459s) [        53665000]     device_instance.cc:82       1| DeviceInstance::PJRT_Device_DefaultMemory
2025-10-03 19:58:24.806 (  44.459s) [        53665000]     client_instance.cc:592      1| ClientInstance::PJRT_Client_BufferFromHostBuffer
2025-10-03 19:58:24.806 (  44.459s) [        53665000]     memory_instance.cc:57       1| MemoryInstance::getDevice
2025-10-03 19:58:24.806 (  44.459s) [        53665000]      event_instance.cc:222      1| EventInstance::PJRT_Event_OnReady
2025-10-03 19:58:24.806 (  44.459s) [        53665000]      event_instance.cc:171      1| EventInstance::PJRT_Event_Destroy
2025-10-03 19:58:24.811 (  44.464s) [        53665000]  device_description.cc:44       1| DeviceDescription::PJRT_DeviceDescription_Id
2025-10-03 19:58:24.811 (  44.464s) [        53665000]  device_description.cc:44       1| DeviceDescription::PJRT_DeviceDescription_Id
2025-10-03 19:58:24.819 (  44.472s) [        53665000]     device_instance.cc:82       1| DeviceInstance::PJRT_Device_DefaultMemory
2025-10-03 19:58:24.819 (  44.472s) [        53665000]     client_instance.cc:592      1| ClientInstance::PJRT_Client_BufferFromHostBuffer
2025-10-03 19:58:24.819 (  44.472s) [        53665000]     memory_instance.cc:57       1| MemoryInstance::getDevice
2025-10-03 19:58:24.819 (  44.472s) [        53665000]      event_instance.cc:222      1| EventInstance::PJRT_Event_OnReady
2025-10-03 19:58:24.819 (  44.472s) [        53665000]      event_instance.cc:171      1| EventInstance::PJRT_Event_Destroy
2025-10-03 19:58:24.819 (  44.472s) [        53665000]     device_instance.cc:82       1| DeviceInstance::PJRT_Device_DefaultMemory
2025-10-03 19:58:24.819 (  44.472s) [        53665000]     client_instance.cc:592      1| ClientInstance::PJRT_Client_BufferFromHostBuffer
2025-10-03 19:58:24.819 (  44.472s) [        53665000]     memory_instance.cc:57       1| MemoryInstance::getDevice
2025-10-03 19:58:24.819 (  44.472s) [        53665000]      event_instance.cc:222      1| EventInstance::PJRT_Event_OnReady
2025-10-03 19:58:24.819 (  44.472s) [        53665000]      event_instance.cc:171      1| EventInstance::PJRT_Event_Destroy
2025-10-03 19:58:24.825 (  44.478s) [        53665000]  device_description.cc:44       1| DeviceDescription::PJRT_DeviceDescription_Id
2025-10-03 19:58:24.825 (  44.478s) [        53665000]  device_description.cc:44       1| DeviceDescription::PJRT_DeviceDescription_Id
2025-10-03 19:58:24.827 (  44.480s) [        53665000]     device_instance.cc:82       1| DeviceInstance::PJRT_Device_DefaultMemory
2025-10-03 19:58:24.827 (  44.480s) [        53665000]     client_instance.cc:592      1| ClientInstance::PJRT_Client_BufferFromHostBuffer
2025-10-03 19:58:24.827 (  44.480s) [        53665000]     memory_instance.cc:57       1| MemoryInstance::getDevice
2025-10-03 19:58:24.827 (  44.480s) [        53665000]      event_instance.cc:222      1| EventInstance::PJRT_Event_OnReady
2025-10-03 19:58:24.827 (  44.480s) [        53665000]      event_instance.cc:171      1| EventInstance::PJRT_Event_Destroy
2025-10-03 19:58:24.827 (  44.480s) [        53665000]     device_instance.cc:82       1| DeviceInstance::PJRT_Device_DefaultMemory
2025-10-03 19:58:24.827 (  44.480s) [        53665000]     client_instance.cc:592      1| ClientInstance::PJRT_Client_BufferFromHostBuffer
2025-10-03 19:58:24.827 (  44.480s) [        53665000]     memory_instance.cc:57       1| MemoryInstance::getDevice
2025-10-03 19:58:24.828 (  44.481s) [        53665000]      event_instance.cc:222      1| EventInstance::PJRT_Event_OnReady
2025-10-03 19:58:24.828 (  44.481s) [        53665000]      event_instance.cc:171      1| EventInstance::PJRT_Event_Destroy
2025-10-03 19:58:24.828 (  44.481s) [        53665000]  device_description.cc:44       1| DeviceDescription::PJRT_DeviceDescription_Id
2025-10-03 19:58:24.828 (  44.481s) [        53665000]  device_description.cc:44       1| DeviceDescription::PJRT_DeviceDescription_Id
2025-10-03 19:58:24.829 (  44.482s) [        53665000]     device_instance.cc:82       1| DeviceInstance::PJRT_Device_DefaultMemory
2025-10-03 19:58:24.829 (  44.482s) [        53665000]     client_instance.cc:592      1| ClientInstance::PJRT_Client_BufferFromHostBuffer
2025-10-03 19:58:24.829 (  44.482s) [        53665000]     memory_instance.cc:57       1| MemoryInstance::getDevice
2025-10-03 19:58:24.829 (  44.482s) [        53665000]      event_instance.cc:222      1| EventInstance::PJRT_Event_OnReady
2025-10-03 19:58:24.829 (  44.482s) [        53665000]      event_instance.cc:171      1| EventInstance::PJRT_Event_Destroy
2025-10-03 19:58:24.829 (  44.482s) [        53665000]     device_instance.cc:82       1| DeviceInstance::PJRT_Device_DefaultMemory
2025-10-03 19:58:24.829 (  44.482s) [        53665000]     client_instance.cc:592      1| ClientInstance::PJRT_Client_BufferFromHostBuffer
2025-10-03 19:58:24.829 (  44.482s) [        53665000]     memory_instance.cc:57       1| MemoryInstance::getDevice
2025-10-03 19:58:24.829 (  44.482s) [        53665000]      event_instance.cc:222      1| EventInstance::PJRT_Event_OnReady
2025-10-03 19:58:24.829 (  44.482s) [        53665000]      event_instance.cc:171      1| EventInstance::PJRT_Event_Destroy
2025-10-03 19:58:24.829 (  44.482s) [        53665000]  device_description.cc:44       1| DeviceDescription::PJRT_DeviceDescription_Id
2025-10-03 19:58:24.829 (  44.482s) [        53665000]  device_description.cc:44       1| DeviceDescription::PJRT_DeviceDescription_Id
2025-10-03 19:58:24.831 (  44.484s) [        53665000]     device_instance.cc:82       1| DeviceInstance::PJRT_Device_DefaultMemory
2025-10-03 19:58:24.831 (  44.484s) [        53665000]     client_instance.cc:592      1| ClientInstance::PJRT_Client_BufferFromHostBuffer
2025-10-03 19:58:24.831 (  44.484s) [        53665000]     memory_instance.cc:57       1| MemoryInstance::getDevice
2025-10-03 19:58:24.831 (  44.484s) [        53665000]      event_instance.cc:222      1| EventInstance::PJRT_Event_OnReady
2025-10-03 19:58:24.831 (  44.484s) [        53665000]      event_instance.cc:171      1| EventInstance::PJRT_Event_Destroy
2025-10-03 19:58:24.831 (  44.484s) [        53665000]     device_instance.cc:82       1| DeviceInstance::PJRT_Device_DefaultMemory
2025-10-03 19:58:24.831 (  44.484s) [        53665000]     client_instance.cc:592      1| ClientInstance::PJRT_Client_BufferFromHostBuffer
2025-10-03 19:58:24.831 (  44.484s) [        53665000]     memory_instance.cc:57       1| MemoryInstance::getDevice
2025-10-03 19:58:24.831 (  44.484s) [        53665000]      event_instance.cc:222      1| EventInstance::PJRT_Event_OnReady
2025-10-03 19:58:24.831 (  44.484s) [        53665000]      event_instance.cc:171      1| EventInstance::PJRT_Event_Destroy
2025-10-03 19:58:24.831 (  44.484s) [        53665000]  device_description.cc:44       1| DeviceDescription::PJRT_DeviceDescription_Id
2025-10-03 19:58:24.831 (  44.484s) [        53665000]  device_description.cc:44       1| DeviceDescription::PJRT_DeviceDescription_Id
2025-10-03 19:58:24.833 (  44.486s) [        53665000]     device_instance.cc:82       1| DeviceInstance::PJRT_Device_DefaultMemory
2025-10-03 19:58:24.833 (  44.486s) [        53665000]     client_instance.cc:592      1| ClientInstance::PJRT_Client_BufferFromHostBuffer
2025-10-03 19:58:24.833 (  44.486s) [        53665000]     memory_instance.cc:57       1| MemoryInstance::getDevice
2025-10-03 19:58:24.834 (  44.487s) [        53665000]      event_instance.cc:222      1| EventInstance::PJRT_Event_OnReady
2025-10-03 19:58:24.834 (  44.487s) [        53665000]      event_instance.cc:171      1| EventInstance::PJRT_Event_Destroy
2025-10-03 19:58:24.834 (  44.487s) [        53665000]     device_instance.cc:82       1| DeviceInstance::PJRT_Device_DefaultMemory
2025-10-03 19:58:24.834 (  44.487s) [        53665000]     client_instance.cc:592      1| ClientInstance::PJRT_Client_BufferFromHostBuffer
2025-10-03 19:58:24.834 (  44.487s) [        53665000]     memory_instance.cc:57       1| MemoryInstance::getDevice
2025-10-03 19:58:24.834 (  44.487s) [        53665000]      event_instance.cc:222      1| EventInstance::PJRT_Event_OnReady
2025-10-03 19:58:24.834 (  44.487s) [        53665000]      event_instance.cc:171      1| EventInstance::PJRT_Event_Destroy
2025-10-03 19:58:24.834 (  44.487s) [        53665000]  device_description.cc:44       1| DeviceDescription::PJRT_DeviceDescription_Id
2025-10-03 19:58:24.834 (  44.487s) [        53665000]  device_description.cc:44       1| DeviceDescription::PJRT_DeviceDescription_Id
2025-10-03 19:58:24.839 (  44.492s) [        53665000]     device_instance.cc:82       1| DeviceInstance::PJRT_Device_DefaultMemory
2025-10-03 19:58:24.839 (  44.492s) [        53665000]     client_instance.cc:592      1| ClientInstance::PJRT_Client_BufferFromHostBuffer
2025-10-03 19:58:24.839 (  44.492s) [        53665000]     memory_instance.cc:57       1| MemoryInstance::getDevice
2025-10-03 19:58:24.839 (  44.492s) [        53665000]      event_instance.cc:222      1| EventInstance::PJRT_Event_OnReady
2025-10-03 19:58:24.839 (  44.492s) [        53665000]      event_instance.cc:171      1| EventInstance::PJRT_Event_Destroy
2025-10-03 19:58:24.839 (  44.492s) [        53665000]     device_instance.cc:82       1| DeviceInstance::PJRT_Device_DefaultMemory
2025-10-03 19:58:24.839 (  44.492s) [        53665000]     client_instance.cc:592      1| ClientInstance::PJRT_Client_BufferFromHostBuffer
2025-10-03 19:58:24.839 (  44.492s) [        53665000]     memory_instance.cc:57       1| MemoryInstance::getDevice
2025-10-03 19:58:24.839 (  44.492s) [        53665000]      event_instance.cc:222      1| EventInstance::PJRT_Event_OnReady
2025-10-03 19:58:24.839 (  44.492s) [        53665000]      event_instance.cc:171      1| EventInstance::PJRT_Event_Destroy
2025-10-03 19:58:24.845 (  44.498s) [        53665000]  device_description.cc:44       1| DeviceDescription::PJRT_DeviceDescription_Id
2025-10-03 19:58:24.845 (  44.498s) [        53665000]  device_description.cc:44       1| DeviceDescription::PJRT_DeviceDescription_Id
2025-10-03 19:58:24.850 (  44.503s) [        53665000]     device_instance.cc:82       1| DeviceInstance::PJRT_Device_DefaultMemory
2025-10-03 19:58:24.850 (  44.503s) [        53665000]     client_instance.cc:592      1| ClientInstance::PJRT_Client_BufferFromHostBuffer
2025-10-03 19:58:24.850 (  44.503s) [        53665000]     memory_instance.cc:57       1| MemoryInstance::getDevice
2025-10-03 19:58:24.850 (  44.503s) [        53665000]      event_instance.cc:222      1| EventInstance::PJRT_Event_OnReady
2025-10-03 19:58:24.850 (  44.503s) [        53665000]      event_instance.cc:171      1| EventInstance::PJRT_Event_Destroy
2025-10-03 19:58:24.850 (  44.503s) [        53665000]     device_instance.cc:82       1| DeviceInstance::PJRT_Device_DefaultMemory
2025-10-03 19:58:24.850 (  44.504s) [        53665000]     client_instance.cc:592      1| ClientInstance::PJRT_Client_BufferFromHostBuffer
2025-10-03 19:58:24.850 (  44.504s) [        53665000]     memory_instance.cc:57       1| MemoryInstance::getDevice
2025-10-03 19:58:24.851 (  44.504s) [        53665000]      event_instance.cc:222      1| EventInstance::PJRT_Event_OnReady
2025-10-03 19:58:24.851 (  44.504s) [        53665000]      event_instance.cc:171      1| EventInstance::PJRT_Event_Destroy
2025-10-03 19:58:24.856 (  44.509s) [        53665000]  device_description.cc:44       1| DeviceDescription::PJRT_DeviceDescription_Id
2025-10-03 19:58:24.856 (  44.509s) [        53665000]  device_description.cc:44       1| DeviceDescription::PJRT_DeviceDescription_Id
2025-10-03 19:58:24.862 (  44.515s) [        53665000]     device_instance.cc:82       1| DeviceInstance::PJRT_Device_DefaultMemory
2025-10-03 19:58:24.862 (  44.515s) [        53665000]     client_instance.cc:592      1| ClientInstance::PJRT_Client_BufferFromHostBuffer
2025-10-03 19:58:24.862 (  44.515s) [        53665000]     memory_instance.cc:57       1| MemoryInstance::getDevice
2025-10-03 19:58:24.862 (  44.515s) [        53665000]      event_instance.cc:222      1| EventInstance::PJRT_Event_OnReady
2025-10-03 19:58:24.862 (  44.515s) [        53665000]      event_instance.cc:171      1| EventInstance::PJRT_Event_Destroy
2025-10-03 19:58:24.862 (  44.515s) [        53665000]     device_instance.cc:82       1| DeviceInstance::PJRT_Device_DefaultMemory
2025-10-03 19:58:24.862 (  44.515s) [        53665000]     client_instance.cc:592      1| ClientInstance::PJRT_Client_BufferFromHostBuffer
2025-10-03 19:58:24.862 (  44.515s) [        53665000]     memory_instance.cc:57       1| MemoryInstance::getDevice
2025-10-03 19:58:24.862 (  44.515s) [        53665000]      event_instance.cc:222      1| EventInstance::PJRT_Event_OnReady
2025-10-03 19:58:24.862 (  44.515s) [        53665000]      event_instance.cc:171      1| EventInstance::PJRT_Event_Destroy
2025-10-03 19:58:24.868 (  44.521s) [        53665000]  device_description.cc:44       1| DeviceDescription::PJRT_DeviceDescription_Id
2025-10-03 19:58:24.868 (  44.521s) [        53665000]  device_description.cc:44       1| DeviceDescription::PJRT_DeviceDescription_Id
2025-10-03 19:58:24.870 (  44.523s) [        53665000]     device_instance.cc:82       1| DeviceInstance::PJRT_Device_DefaultMemory
2025-10-03 19:58:24.870 (  44.523s) [        53665000]     client_instance.cc:592      1| ClientInstance::PJRT_Client_BufferFromHostBuffer
2025-10-03 19:58:24.870 (  44.523s) [        53665000]     memory_instance.cc:57       1| MemoryInstance::getDevice
2025-10-03 19:58:24.870 (  44.523s) [        53665000]      event_instance.cc:222      1| EventInstance::PJRT_Event_OnReady
2025-10-03 19:58:24.870 (  44.523s) [        53665000]      event_instance.cc:171      1| EventInstance::PJRT_Event_Destroy
2025-10-03 19:58:24.870 (  44.523s) [        53665000]     device_instance.cc:82       1| DeviceInstance::PJRT_Device_DefaultMemory
2025-10-03 19:58:24.870 (  44.523s) [        53665000]     client_instance.cc:592      1| ClientInstance::PJRT_Client_BufferFromHostBuffer
2025-10-03 19:58:24.870 (  44.523s) [        53665000]     memory_instance.cc:57       1| MemoryInstance::getDevice
2025-10-03 19:58:24.870 (  44.523s) [        53665000]      event_instance.cc:222      1| EventInstance::PJRT_Event_OnReady
2025-10-03 19:58:24.870 (  44.523s) [        53665000]      event_instance.cc:171      1| EventInstance::PJRT_Event_Destroy
2025-10-03 19:58:24.870 (  44.523s) [        53665000]  device_description.cc:44       1| DeviceDescription::PJRT_DeviceDescription_Id
2025-10-03 19:58:24.870 (  44.523s) [        53665000]  device_description.cc:44       1| DeviceDescription::PJRT_DeviceDescription_Id
2025-10-03 19:58:24.871 (  44.524s) [        53665000]     device_instance.cc:82       1| DeviceInstance::PJRT_Device_DefaultMemory
2025-10-03 19:58:24.871 (  44.524s) [        53665000]     client_instance.cc:592      1| ClientInstance::PJRT_Client_BufferFromHostBuffer
2025-10-03 19:58:24.871 (  44.524s) [        53665000]     memory_instance.cc:57       1| MemoryInstance::getDevice
2025-10-03 19:58:24.871 (  44.524s) [        53665000]      event_instance.cc:222      1| EventInstance::PJRT_Event_OnReady
2025-10-03 19:58:24.871 (  44.524s) [        53665000]      event_instance.cc:171      1| EventInstance::PJRT_Event_Destroy
2025-10-03 19:58:24.871 (  44.524s) [        53665000]     device_instance.cc:82       1| DeviceInstance::PJRT_Device_DefaultMemory
2025-10-03 19:58:24.871 (  44.524s) [        53665000]     client_instance.cc:592      1| ClientInstance::PJRT_Client_BufferFromHostBuffer
2025-10-03 19:58:24.871 (  44.524s) [        53665000]     memory_instance.cc:57       1| MemoryInstance::getDevice
2025-10-03 19:58:24.872 (  44.525s) [        53665000]      event_instance.cc:222      1| EventInstance::PJRT_Event_OnReady
2025-10-03 19:58:24.872 (  44.525s) [        53665000]      event_instance.cc:171      1| EventInstance::PJRT_Event_Destroy
2025-10-03 19:58:24.872 (  44.525s) [        53665000]  device_description.cc:44       1| DeviceDescription::PJRT_DeviceDescription_Id
2025-10-03 19:58:24.872 (  44.525s) [        53665000]  device_description.cc:44       1| DeviceDescription::PJRT_DeviceDescription_Id
2025-10-03 19:58:24.873 (  44.526s) [        53665000]     device_instance.cc:82       1| DeviceInstance::PJRT_Device_DefaultMemory
2025-10-03 19:58:24.873 (  44.526s) [        53665000]     client_instance.cc:592      1| ClientInstance::PJRT_Client_BufferFromHostBuffer
2025-10-03 19:58:24.873 (  44.526s) [        53665000]     memory_instance.cc:57       1| MemoryInstance::getDevice
2025-10-03 19:58:24.873 (  44.526s) [        53665000]      event_instance.cc:222      1| EventInstance::PJRT_Event_OnReady
2025-10-03 19:58:24.873 (  44.526s) [        53665000]      event_instance.cc:171      1| EventInstance::PJRT_Event_Destroy
2025-10-03 19:58:24.873 (  44.526s) [        53665000]     device_instance.cc:82       1| DeviceInstance::PJRT_Device_DefaultMemory
2025-10-03 19:58:24.873 (  44.526s) [        53665000]     client_instance.cc:592      1| ClientInstance::PJRT_Client_BufferFromHostBuffer
2025-10-03 19:58:24.873 (  44.526s) [        53665000]     memory_instance.cc:57       1| MemoryInstance::getDevice
2025-10-03 19:58:24.873 (  44.526s) [        53665000]      event_instance.cc:222      1| EventInstance::PJRT_Event_OnReady
2025-10-03 19:58:24.873 (  44.527s) [        53665000]      event_instance.cc:171      1| EventInstance::PJRT_Event_Destroy
2025-10-03 19:58:24.874 (  44.527s) [        53665000]  device_description.cc:44       1| DeviceDescription::PJRT_DeviceDescription_Id
2025-10-03 19:58:24.874 (  44.527s) [        53665000]  device_description.cc:44       1| DeviceDescription::PJRT_DeviceDescription_Id
2025-10-03 19:58:24.875 (  44.528s) [        53665000]     device_instance.cc:82       1| DeviceInstance::PJRT_Device_DefaultMemory
2025-10-03 19:58:24.875 (  44.528s) [        53665000]     client_instance.cc:592      1| ClientInstance::PJRT_Client_BufferFromHostBuffer
2025-10-03 19:58:24.875 (  44.528s) [        53665000]     memory_instance.cc:57       1| MemoryInstance::getDevice
2025-10-03 19:58:24.875 (  44.528s) [        53665000]      event_instance.cc:222      1| EventInstance::PJRT_Event_OnReady
2025-10-03 19:58:24.875 (  44.528s) [        53665000]      event_instance.cc:171      1| EventInstance::PJRT_Event_Destroy
2025-10-03 19:58:24.875 (  44.528s) [        53665000]     device_instance.cc:82       1| DeviceInstance::PJRT_Device_DefaultMemory
2025-10-03 19:58:24.875 (  44.528s) [        53665000]     client_instance.cc:592      1| ClientInstance::PJRT_Client_BufferFromHostBuffer
2025-10-03 19:58:24.875 (  44.528s) [        53665000]     memory_instance.cc:57       1| MemoryInstance::getDevice
2025-10-03 19:58:24.875 (  44.528s) [        53665000]      event_instance.cc:222      1| EventInstance::PJRT_Event_OnReady
2025-10-03 19:58:24.875 (  44.528s) [        53665000]      event_instance.cc:171      1| EventInstance::PJRT_Event_Destroy
2025-10-03 19:58:24.875 (  44.529s) [        53665000]  device_description.cc:44       1| DeviceDescription::PJRT_DeviceDescription_Id
2025-10-03 19:58:24.875 (  44.529s) [        53665000]  device_description.cc:44       1| DeviceDescription::PJRT_DeviceDescription_Id
2025-10-03 19:58:24.880 (  44.533s) [        53665000]     device_instance.cc:82       1| DeviceInstance::PJRT_Device_DefaultMemory
2025-10-03 19:58:24.880 (  44.533s) [        53665000]     client_instance.cc:592      1| ClientInstance::PJRT_Client_BufferFromHostBuffer
2025-10-03 19:58:24.880 (  44.533s) [        53665000]     memory_instance.cc:57       1| MemoryInstance::getDevice
2025-10-03 19:58:24.881 (  44.534s) [        53665000]      event_instance.cc:222      1| EventInstance::PJRT_Event_OnReady
2025-10-03 19:58:24.881 (  44.534s) [        53665000]      event_instance.cc:171      1| EventInstance::PJRT_Event_Destroy
2025-10-03 19:58:24.881 (  44.534s) [        53665000]     device_instance.cc:82       1| DeviceInstance::PJRT_Device_DefaultMemory
2025-10-03 19:58:24.881 (  44.534s) [        53665000]     client_instance.cc:592      1| ClientInstance::PJRT_Client_BufferFromHostBuffer
2025-10-03 19:58:24.881 (  44.534s) [        53665000]     memory_instance.cc:57       1| MemoryInstance::getDevice
2025-10-03 19:58:24.881 (  44.534s) [        53665000]      event_instance.cc:222      1| EventInstance::PJRT_Event_OnReady
2025-10-03 19:58:24.881 (  44.534s) [        53665000]      event_instance.cc:171      1| EventInstance::PJRT_Event_Destroy
2025-10-03 19:58:24.885 (  44.538s) [        53665000]  device_description.cc:44       1| DeviceDescription::PJRT_DeviceDescription_Id
2025-10-03 19:58:24.885 (  44.538s) [        53665000]  device_description.cc:44       1| DeviceDescription::PJRT_DeviceDescription_Id
2025-10-03 19:58:24.890 (  44.543s) [        53665000]     device_instance.cc:82       1| DeviceInstance::PJRT_Device_DefaultMemory
2025-10-03 19:58:24.890 (  44.543s) [        53665000]     client_instance.cc:592      1| ClientInstance::PJRT_Client_BufferFromHostBuffer
2025-10-03 19:58:24.890 (  44.544s) [        53665000]     memory_instance.cc:57       1| MemoryInstance::getDevice
2025-10-03 19:58:24.891 (  44.544s) [        53665000]      event_instance.cc:222      1| EventInstance::PJRT_Event_OnReady
2025-10-03 19:58:24.891 (  44.544s) [        53665000]      event_instance.cc:171      1| EventInstance::PJRT_Event_Destroy
2025-10-03 19:58:24.891 (  44.544s) [        53665000]     device_instance.cc:82       1| DeviceInstance::PJRT_Device_DefaultMemory
2025-10-03 19:58:24.891 (  44.544s) [        53665000]     client_instance.cc:592      1| ClientInstance::PJRT_Client_BufferFromHostBuffer
2025-10-03 19:58:24.891 (  44.544s) [        53665000]     memory_instance.cc:57       1| MemoryInstance::getDevice
2025-10-03 19:58:24.891 (  44.544s) [        53665000]      event_instance.cc:222      1| EventInstance::PJRT_Event_OnReady
2025-10-03 19:58:24.891 (  44.544s) [        53665000]      event_instance.cc:171      1| EventInstance::PJRT_Event_Destroy
2025-10-03 19:58:24.895 (  44.548s) [        53665000]  device_description.cc:44       1| DeviceDescription::PJRT_DeviceDescription_Id
2025-10-03 19:58:24.895 (  44.548s) [        53665000]  device_description.cc:44       1| DeviceDescription::PJRT_DeviceDescription_Id
2025-10-03 19:58:24.901 (  44.554s) [        53665000]     device_instance.cc:82       1| DeviceInstance::PJRT_Device_DefaultMemory
2025-10-03 19:58:24.901 (  44.554s) [        53665000]     client_instance.cc:592      1| ClientInstance::PJRT_Client_BufferFromHostBuffer
2025-10-03 19:58:24.901 (  44.554s) [        53665000]     memory_instance.cc:57       1| MemoryInstance::getDevice
2025-10-03 19:58:24.901 (  44.554s) [        53665000]      event_instance.cc:222      1| EventInstance::PJRT_Event_OnReady
2025-10-03 19:58:24.901 (  44.554s) [        53665000]      event_instance.cc:171      1| EventInstance::PJRT_Event_Destroy
2025-10-03 19:58:24.901 (  44.554s) [        53665000]     device_instance.cc:82       1| DeviceInstance::PJRT_Device_DefaultMemory
2025-10-03 19:58:24.901 (  44.554s) [        53665000]     client_instance.cc:592      1| ClientInstance::PJRT_Client_BufferFromHostBuffer
2025-10-03 19:58:24.901 (  44.554s) [        53665000]     memory_instance.cc:57       1| MemoryInstance::getDevice
2025-10-03 19:58:24.901 (  44.554s) [        53665000]      event_instance.cc:222      1| EventInstance::PJRT_Event_OnReady
2025-10-03 19:58:24.901 (  44.554s) [        53665000]      event_instance.cc:171      1| EventInstance::PJRT_Event_Destroy
2025-10-03 19:58:24.906 (  44.559s) [        53665000]  device_description.cc:44       1| DeviceDescription::PJRT_DeviceDescription_Id
2025-10-03 19:58:24.906 (  44.559s) [        53665000]  device_description.cc:44       1| DeviceDescription::PJRT_DeviceDescription_Id
2025-10-03 19:58:24.908 (  44.561s) [        53665000]     device_instance.cc:82       1| DeviceInstance::PJRT_Device_DefaultMemory
2025-10-03 19:58:24.908 (  44.561s) [        53665000]     client_instance.cc:592      1| ClientInstance::PJRT_Client_BufferFromHostBuffer
2025-10-03 19:58:24.908 (  44.561s) [        53665000]     memory_instance.cc:57       1| MemoryInstance::getDevice
2025-10-03 19:58:24.908 (  44.561s) [        53665000]      event_instance.cc:222      1| EventInstance::PJRT_Event_OnReady
2025-10-03 19:58:24.908 (  44.561s) [        53665000]      event_instance.cc:171      1| EventInstance::PJRT_Event_Destroy
2025-10-03 19:58:24.908 (  44.561s) [        53665000]     device_instance.cc:82       1| DeviceInstance::PJRT_Device_DefaultMemory
2025-10-03 19:58:24.908 (  44.561s) [        53665000]     client_instance.cc:592      1| ClientInstance::PJRT_Client_BufferFromHostBuffer
2025-10-03 19:58:24.908 (  44.561s) [        53665000]     memory_instance.cc:57       1| MemoryInstance::getDevice
2025-10-03 19:58:24.908 (  44.561s) [        53665000]      event_instance.cc:222      1| EventInstance::PJRT_Event_OnReady
2025-10-03 19:58:24.908 (  44.561s) [        53665000]      event_instance.cc:171      1| EventInstance::PJRT_Event_Destroy
2025-10-03 19:58:24.908 (  44.561s) [        53665000]  device_description.cc:44       1| DeviceDescription::PJRT_DeviceDescription_Id
2025-10-03 19:58:24.908 (  44.561s) [        53665000]  device_description.cc:44       1| DeviceDescription::PJRT_DeviceDescription_Id
2025-10-03 19:58:24.909 (  44.562s) [        53665000]     device_instance.cc:82       1| DeviceInstance::PJRT_Device_DefaultMemory
2025-10-03 19:58:24.909 (  44.562s) [        53665000]     client_instance.cc:592      1| ClientInstance::PJRT_Client_BufferFromHostBuffer
2025-10-03 19:58:24.909 (  44.562s) [        53665000]     memory_instance.cc:57       1| MemoryInstance::getDevice
2025-10-03 19:58:24.909 (  44.562s) [        53665000]      event_instance.cc:222      1| EventInstance::PJRT_Event_OnReady
2025-10-03 19:58:24.909 (  44.562s) [        53665000]      event_instance.cc:171      1| EventInstance::PJRT_Event_Destroy
2025-10-03 19:58:24.909 (  44.562s) [        53665000]     device_instance.cc:82       1| DeviceInstance::PJRT_Device_DefaultMemory
2025-10-03 19:58:24.909 (  44.562s) [        53665000]     client_instance.cc:592      1| ClientInstance::PJRT_Client_BufferFromHostBuffer
2025-10-03 19:58:24.909 (  44.562s) [        53665000]     memory_instance.cc:57       1| MemoryInstance::getDevice
2025-10-03 19:58:24.910 (  44.563s) [        53665000]      event_instance.cc:222      1| EventInstance::PJRT_Event_OnReady
2025-10-03 19:58:24.910 (  44.563s) [        53665000]      event_instance.cc:171      1| EventInstance::PJRT_Event_Destroy
2025-10-03 19:58:24.910 (  44.563s) [        53665000]  device_description.cc:44       1| DeviceDescription::PJRT_DeviceDescription_Id
2025-10-03 19:58:24.910 (  44.563s) [        53665000]  device_description.cc:44       1| DeviceDescription::PJRT_DeviceDescription_Id
2025-10-03 19:58:24.911 (  44.564s) [        53665000]     device_instance.cc:82       1| DeviceInstance::PJRT_Device_DefaultMemory
2025-10-03 19:58:24.911 (  44.564s) [        53665000]     client_instance.cc:592      1| ClientInstance::PJRT_Client_BufferFromHostBuffer
2025-10-03 19:58:24.911 (  44.564s) [        53665000]     memory_instance.cc:57       1| MemoryInstance::getDevice
2025-10-03 19:58:24.911 (  44.564s) [        53665000]      event_instance.cc:222      1| EventInstance::PJRT_Event_OnReady
2025-10-03 19:58:24.911 (  44.564s) [        53665000]      event_instance.cc:171      1| EventInstance::PJRT_Event_Destroy
2025-10-03 19:58:24.911 (  44.564s) [        53665000]     device_instance.cc:82       1| DeviceInstance::PJRT_Device_DefaultMemory
2025-10-03 19:58:24.911 (  44.564s) [        53665000]     client_instance.cc:592      1| ClientInstance::PJRT_Client_BufferFromHostBuffer
2025-10-03 19:58:24.911 (  44.564s) [        53665000]     memory_instance.cc:57       1| MemoryInstance::getDevice
2025-10-03 19:58:24.911 (  44.564s) [        53665000]      event_instance.cc:222      1| EventInstance::PJRT_Event_OnReady
2025-10-03 19:58:24.911 (  44.564s) [        53665000]      event_instance.cc:171      1| EventInstance::PJRT_Event_Destroy
2025-10-03 19:58:24.911 (  44.564s) [        53665000]  device_description.cc:44       1| DeviceDescription::PJRT_DeviceDescription_Id
2025-10-03 19:58:24.911 (  44.564s) [        53665000]  device_description.cc:44       1| DeviceDescription::PJRT_DeviceDescription_Id
2025-10-03 19:58:24.913 (  44.566s) [        53665000]     device_instance.cc:82       1| DeviceInstance::PJRT_Device_DefaultMemory
2025-10-03 19:58:24.913 (  44.566s) [        53665000]     client_instance.cc:592      1| ClientInstance::PJRT_Client_BufferFromHostBuffer
2025-10-03 19:58:24.913 (  44.566s) [        53665000]     memory_instance.cc:57       1| MemoryInstance::getDevice
2025-10-03 19:58:24.913 (  44.566s) [        53665000]      event_instance.cc:222      1| EventInstance::PJRT_Event_OnReady
2025-10-03 19:58:24.913 (  44.566s) [        53665000]      event_instance.cc:171      1| EventInstance::PJRT_Event_Destroy
2025-10-03 19:58:24.913 (  44.566s) [        53665000]     device_instance.cc:82       1| DeviceInstance::PJRT_Device_DefaultMemory
2025-10-03 19:58:24.913 (  44.566s) [        53665000]     client_instance.cc:592      1| ClientInstance::PJRT_Client_BufferFromHostBuffer
2025-10-03 19:58:24.913 (  44.566s) [        53665000]     memory_instance.cc:57       1| MemoryInstance::getDevice
2025-10-03 19:58:24.913 (  44.566s) [        53665000]      event_instance.cc:222      1| EventInstance::PJRT_Event_OnReady
2025-10-03 19:58:24.913 (  44.566s) [        53665000]      event_instance.cc:171      1| EventInstance::PJRT_Event_Destroy
2025-10-03 19:58:24.913 (  44.566s) [        53665000]  device_description.cc:44       1| DeviceDescription::PJRT_DeviceDescription_Id
2025-10-03 19:58:24.913 (  44.566s) [        53665000]  device_description.cc:44       1| DeviceDescription::PJRT_DeviceDescription_Id
2025-10-03 19:58:24.918 (  44.571s) [        53665000]     device_instance.cc:82       1| DeviceInstance::PJRT_Device_DefaultMemory
2025-10-03 19:58:24.918 (  44.571s) [        53665000]     client_instance.cc:592      1| ClientInstance::PJRT_Client_BufferFromHostBuffer
2025-10-03 19:58:24.918 (  44.571s) [        53665000]     memory_instance.cc:57       1| MemoryInstance::getDevice
2025-10-03 19:58:24.918 (  44.571s) [        53665000]      event_instance.cc:222      1| EventInstance::PJRT_Event_OnReady
2025-10-03 19:58:24.918 (  44.571s) [        53665000]      event_instance.cc:171      1| EventInstance::PJRT_Event_Destroy
2025-10-03 19:58:24.918 (  44.571s) [        53665000]     device_instance.cc:82       1| DeviceInstance::PJRT_Device_DefaultMemory
2025-10-03 19:58:24.918 (  44.571s) [        53665000]     client_instance.cc:592      1| ClientInstance::PJRT_Client_BufferFromHostBuffer
2025-10-03 19:58:24.918 (  44.571s) [        53665000]     memory_instance.cc:57       1| MemoryInstance::getDevice
2025-10-03 19:58:24.918 (  44.571s) [        53665000]      event_instance.cc:222      1| EventInstance::PJRT_Event_OnReady
2025-10-03 19:58:24.918 (  44.571s) [        53665000]      event_instance.cc:171      1| EventInstance::PJRT_Event_Destroy
2025-10-03 19:58:24.923 (  44.576s) [        53665000]  device_description.cc:44       1| DeviceDescription::PJRT_DeviceDescription_Id
2025-10-03 19:58:24.923 (  44.576s) [        53665000]  device_description.cc:44       1| DeviceDescription::PJRT_DeviceDescription_Id
2025-10-03 19:58:24.928 (  44.581s) [        53665000]     device_instance.cc:82       1| DeviceInstance::PJRT_Device_DefaultMemory
2025-10-03 19:58:24.928 (  44.581s) [        53665000]     client_instance.cc:592      1| ClientInstance::PJRT_Client_BufferFromHostBuffer
2025-10-03 19:58:24.928 (  44.581s) [        53665000]     memory_instance.cc:57       1| MemoryInstance::getDevice
2025-10-03 19:58:24.928 (  44.581s) [        53665000]      event_instance.cc:222      1| EventInstance::PJRT_Event_OnReady
2025-10-03 19:58:24.928 (  44.581s) [        53665000]      event_instance.cc:171      1| EventInstance::PJRT_Event_Destroy
2025-10-03 19:58:24.928 (  44.581s) [        53665000]     device_instance.cc:82       1| DeviceInstance::PJRT_Device_DefaultMemory
2025-10-03 19:58:24.928 (  44.581s) [        53665000]     client_instance.cc:592      1| ClientInstance::PJRT_Client_BufferFromHostBuffer
2025-10-03 19:58:24.928 (  44.582s) [        53665000]     memory_instance.cc:57       1| MemoryInstance::getDevice
2025-10-03 19:58:24.929 (  44.582s) [        53665000]      event_instance.cc:222      1| EventInstance::PJRT_Event_OnReady
2025-10-03 19:58:24.929 (  44.582s) [        53665000]      event_instance.cc:171      1| EventInstance::PJRT_Event_Destroy
2025-10-03 19:58:24.933 (  44.586s) [        53665000]  device_description.cc:44       1| DeviceDescription::PJRT_DeviceDescription_Id
2025-10-03 19:58:24.933 (  44.586s) [        53665000]  device_description.cc:44       1| DeviceDescription::PJRT_DeviceDescription_Id
2025-10-03 19:58:24.939 (  44.592s) [        53665000]     device_instance.cc:82       1| DeviceInstance::PJRT_Device_DefaultMemory
2025-10-03 19:58:24.939 (  44.592s) [        53665000]     client_instance.cc:592      1| ClientInstance::PJRT_Client_BufferFromHostBuffer
2025-10-03 19:58:24.939 (  44.592s) [        53665000]     memory_instance.cc:57       1| MemoryInstance::getDevice
2025-10-03 19:58:24.939 (  44.592s) [        53665000]      event_instance.cc:222      1| EventInstance::PJRT_Event_OnReady
2025-10-03 19:58:24.939 (  44.592s) [        53665000]      event_instance.cc:171      1| EventInstance::PJRT_Event_Destroy
2025-10-03 19:58:24.939 (  44.592s) [        53665000]     device_instance.cc:82       1| DeviceInstance::PJRT_Device_DefaultMemory
2025-10-03 19:58:24.939 (  44.592s) [        53665000]     client_instance.cc:592      1| ClientInstance::PJRT_Client_BufferFromHostBuffer
2025-10-03 19:58:24.939 (  44.592s) [        53665000]     memory_instance.cc:57       1| MemoryInstance::getDevice
2025-10-03 19:58:24.939 (  44.592s) [        53665000]      event_instance.cc:222      1| EventInstance::PJRT_Event_OnReady
2025-10-03 19:58:24.939 (  44.592s) [        53665000]      event_instance.cc:171      1| EventInstance::PJRT_Event_Destroy
2025-10-03 19:58:24.943 (  44.596s) [        53665000]  device_description.cc:44       1| DeviceDescription::PJRT_DeviceDescription_Id
2025-10-03 19:58:24.943 (  44.596s) [        53665000]  device_description.cc:44       1| DeviceDescription::PJRT_DeviceDescription_Id
2025-10-03 19:58:24.945 (  44.598s) [        53665000]     device_instance.cc:82       1| DeviceInstance::PJRT_Device_DefaultMemory
2025-10-03 19:58:24.945 (  44.598s) [        53665000]     client_instance.cc:592      1| ClientInstance::PJRT_Client_BufferFromHostBuffer
2025-10-03 19:58:24.945 (  44.598s) [        53665000]     memory_instance.cc:57       1| MemoryInstance::getDevice
2025-10-03 19:58:24.945 (  44.598s) [        53665000]      event_instance.cc:222      1| EventInstance::PJRT_Event_OnReady
2025-10-03 19:58:24.945 (  44.598s) [        53665000]      event_instance.cc:171      1| EventInstance::PJRT_Event_Destroy
2025-10-03 19:58:24.945 (  44.598s) [        53665000]     device_instance.cc:82       1| DeviceInstance::PJRT_Device_DefaultMemory
2025-10-03 19:58:24.945 (  44.598s) [        53665000]     client_instance.cc:592      1| ClientInstance::PJRT_Client_BufferFromHostBuffer
2025-10-03 19:58:24.945 (  44.598s) [        53665000]     memory_instance.cc:57       1| MemoryInstance::getDevice
2025-10-03 19:58:24.945 (  44.598s) [        53665000]      event_instance.cc:222      1| EventInstance::PJRT_Event_OnReady
2025-10-03 19:58:24.945 (  44.598s) [        53665000]      event_instance.cc:171      1| EventInstance::PJRT_Event_Destroy
2025-10-03 19:58:24.945 (  44.598s) [        53665000]  device_description.cc:44       1| DeviceDescription::PJRT_DeviceDescription_Id
2025-10-03 19:58:24.945 (  44.598s) [        53665000]  device_description.cc:44       1| DeviceDescription::PJRT_DeviceDescription_Id
2025-10-03 19:58:24.946 (  44.599s) [        53665000]     device_instance.cc:82       1| DeviceInstance::PJRT_Device_DefaultMemory
2025-10-03 19:58:24.946 (  44.599s) [        53665000]     client_instance.cc:592      1| ClientInstance::PJRT_Client_BufferFromHostBuffer
2025-10-03 19:58:24.946 (  44.599s) [        53665000]     memory_instance.cc:57       1| MemoryInstance::getDevice
2025-10-03 19:58:24.946 (  44.599s) [        53665000]      event_instance.cc:222      1| EventInstance::PJRT_Event_OnReady
2025-10-03 19:58:24.946 (  44.599s) [        53665000]      event_instance.cc:171      1| EventInstance::PJRT_Event_Destroy
2025-10-03 19:58:24.946 (  44.599s) [        53665000]     device_instance.cc:82       1| DeviceInstance::PJRT_Device_DefaultMemory
2025-10-03 19:58:24.946 (  44.599s) [        53665000]     client_instance.cc:592      1| ClientInstance::PJRT_Client_BufferFromHostBuffer
2025-10-03 19:58:24.946 (  44.599s) [        53665000]     memory_instance.cc:57       1| MemoryInstance::getDevice
2025-10-03 19:58:24.946 (  44.599s) [        53665000]      event_instance.cc:222      1| EventInstance::PJRT_Event_OnReady
2025-10-03 19:58:24.946 (  44.599s) [        53665000]      event_instance.cc:171      1| EventInstance::PJRT_Event_Destroy
2025-10-03 19:58:24.946 (  44.599s) [        53665000]  device_description.cc:44       1| DeviceDescription::PJRT_DeviceDescription_Id
2025-10-03 19:58:24.946 (  44.599s) [        53665000]  device_description.cc:44       1| DeviceDescription::PJRT_DeviceDescription_Id
2025-10-03 19:58:24.947 (  44.600s) [        53665000]     device_instance.cc:82       1| DeviceInstance::PJRT_Device_DefaultMemory
2025-10-03 19:58:24.947 (  44.600s) [        53665000]     client_instance.cc:592      1| ClientInstance::PJRT_Client_BufferFromHostBuffer
2025-10-03 19:58:24.947 (  44.600s) [        53665000]     memory_instance.cc:57       1| MemoryInstance::getDevice
2025-10-03 19:58:24.947 (  44.600s) [        53665000]      event_instance.cc:222      1| EventInstance::PJRT_Event_OnReady
2025-10-03 19:58:24.947 (  44.600s) [        53665000]      event_instance.cc:171      1| EventInstance::PJRT_Event_Destroy
2025-10-03 19:58:24.947 (  44.600s) [        53665000]     device_instance.cc:82       1| DeviceInstance::PJRT_Device_DefaultMemory
2025-10-03 19:58:24.947 (  44.600s) [        53665000]     client_instance.cc:592      1| ClientInstance::PJRT_Client_BufferFromHostBuffer
2025-10-03 19:58:24.947 (  44.600s) [        53665000]     memory_instance.cc:57       1| MemoryInstance::getDevice
2025-10-03 19:58:24.948 (  44.601s) [        53665000]      event_instance.cc:222      1| EventInstance::PJRT_Event_OnReady
2025-10-03 19:58:24.948 (  44.601s) [        53665000]      event_instance.cc:171      1| EventInstance::PJRT_Event_Destroy
2025-10-03 19:58:24.948 (  44.601s) [        53665000]  device_description.cc:44       1| DeviceDescription::PJRT_DeviceDescription_Id
2025-10-03 19:58:24.948 (  44.601s) [        53665000]  device_description.cc:44       1| DeviceDescription::PJRT_DeviceDescription_Id
2025-10-03 19:58:24.949 (  44.602s) [        53665000]     device_instance.cc:82       1| DeviceInstance::PJRT_Device_DefaultMemory
2025-10-03 19:58:24.949 (  44.602s) [        53665000]     client_instance.cc:592      1| ClientInstance::PJRT_Client_BufferFromHostBuffer
2025-10-03 19:58:24.949 (  44.602s) [        53665000]     memory_instance.cc:57       1| MemoryInstance::getDevice
2025-10-03 19:58:24.949 (  44.602s) [        53665000]      event_instance.cc:222      1| EventInstance::PJRT_Event_OnReady
2025-10-03 19:58:24.949 (  44.602s) [        53665000]      event_instance.cc:171      1| EventInstance::PJRT_Event_Destroy
2025-10-03 19:58:24.949 (  44.602s) [        53665000]     device_instance.cc:82       1| DeviceInstance::PJRT_Device_DefaultMemory
2025-10-03 19:58:24.949 (  44.602s) [        53665000]     client_instance.cc:592      1| ClientInstance::PJRT_Client_BufferFromHostBuffer
2025-10-03 19:58:24.949 (  44.602s) [        53665000]     memory_instance.cc:57       1| MemoryInstance::getDevice
2025-10-03 19:58:24.949 (  44.602s) [        53665000]      event_instance.cc:222      1| EventInstance::PJRT_Event_OnReady
2025-10-03 19:58:24.949 (  44.602s) [        53665000]      event_instance.cc:171      1| EventInstance::PJRT_Event_Destroy
2025-10-03 19:58:24.949 (  44.602s) [        53665000]  device_description.cc:44       1| DeviceDescription::PJRT_DeviceDescription_Id
2025-10-03 19:58:24.949 (  44.602s) [        53665000]  device_description.cc:44       1| DeviceDescription::PJRT_DeviceDescription_Id
2025-10-03 19:58:24.954 (  44.607s) [        53665000]     device_instance.cc:82       1| DeviceInstance::PJRT_Device_DefaultMemory
2025-10-03 19:58:24.954 (  44.607s) [        53665000]     client_instance.cc:592      1| ClientInstance::PJRT_Client_BufferFromHostBuffer
2025-10-03 19:58:24.954 (  44.607s) [        53665000]     memory_instance.cc:57       1| MemoryInstance::getDevice
2025-10-03 19:58:24.955 (  44.608s) [        53665000]      event_instance.cc:222      1| EventInstance::PJRT_Event_OnReady
2025-10-03 19:58:24.955 (  44.608s) [        53665000]      event_instance.cc:171      1| EventInstance::PJRT_Event_Destroy
2025-10-03 19:58:24.955 (  44.608s) [        53665000]     device_instance.cc:82       1| DeviceInstance::PJRT_Device_DefaultMemory
2025-10-03 19:58:24.955 (  44.608s) [        53665000]     client_instance.cc:592      1| ClientInstance::PJRT_Client_BufferFromHostBuffer
2025-10-03 19:58:24.955 (  44.608s) [        53665000]     memory_instance.cc:57       1| MemoryInstance::getDevice
2025-10-03 19:58:24.955 (  44.608s) [        53665000]      event_instance.cc:222      1| EventInstance::PJRT_Event_OnReady
2025-10-03 19:58:24.955 (  44.608s) [        53665000]      event_instance.cc:171      1| EventInstance::PJRT_Event_Destroy
2025-10-03 19:58:24.959 (  44.612s) [        53665000]  device_description.cc:44       1| DeviceDescription::PJRT_DeviceDescription_Id
2025-10-03 19:58:24.959 (  44.612s) [        53665000]  device_description.cc:44       1| DeviceDescription::PJRT_DeviceDescription_Id
2025-10-03 19:58:24.964 (  44.617s) [        53665000]     device_instance.cc:82       1| DeviceInstance::PJRT_Device_DefaultMemory
2025-10-03 19:58:24.964 (  44.617s) [        53665000]     client_instance.cc:592      1| ClientInstance::PJRT_Client_BufferFromHostBuffer
2025-10-03 19:58:24.964 (  44.617s) [        53665000]     memory_instance.cc:57       1| MemoryInstance::getDevice
2025-10-03 19:58:24.965 (  44.618s) [        53665000]      event_instance.cc:222      1| EventInstance::PJRT_Event_OnReady
2025-10-03 19:58:24.965 (  44.618s) [        53665000]      event_instance.cc:171      1| EventInstance::PJRT_Event_Destroy
2025-10-03 19:58:24.965 (  44.618s) [        53665000]     device_instance.cc:82       1| DeviceInstance::PJRT_Device_DefaultMemory
2025-10-03 19:58:24.965 (  44.618s) [        53665000]     client_instance.cc:592      1| ClientInstance::PJRT_Client_BufferFromHostBuffer
2025-10-03 19:58:24.965 (  44.618s) [        53665000]     memory_instance.cc:57       1| MemoryInstance::getDevice
2025-10-03 19:58:24.965 (  44.618s) [        53665000]      event_instance.cc:222      1| EventInstance::PJRT_Event_OnReady
2025-10-03 19:58:24.965 (  44.618s) [        53665000]      event_instance.cc:171      1| EventInstance::PJRT_Event_Destroy
2025-10-03 19:58:24.969 (  44.622s) [        53665000]  device_description.cc:44       1| DeviceDescription::PJRT_DeviceDescription_Id
2025-10-03 19:58:24.969 (  44.622s) [        53665000]  device_description.cc:44       1| DeviceDescription::PJRT_DeviceDescription_Id
2025-10-03 19:58:24.975 (  44.628s) [        53665000]     device_instance.cc:82       1| DeviceInstance::PJRT_Device_DefaultMemory
2025-10-03 19:58:24.975 (  44.628s) [        53665000]     client_instance.cc:592      1| ClientInstance::PJRT_Client_BufferFromHostBuffer
2025-10-03 19:58:24.975 (  44.628s) [        53665000]     memory_instance.cc:57       1| MemoryInstance::getDevice
2025-10-03 19:58:24.975 (  44.628s) [        53665000]      event_instance.cc:222      1| EventInstance::PJRT_Event_OnReady
2025-10-03 19:58:24.975 (  44.628s) [        53665000]      event_instance.cc:171      1| EventInstance::PJRT_Event_Destroy
2025-10-03 19:58:24.975 (  44.628s) [        53665000]     device_instance.cc:82       1| DeviceInstance::PJRT_Device_DefaultMemory
2025-10-03 19:58:24.975 (  44.628s) [        53665000]     client_instance.cc:592      1| ClientInstance::PJRT_Client_BufferFromHostBuffer
2025-10-03 19:58:24.975 (  44.628s) [        53665000]     memory_instance.cc:57       1| MemoryInstance::getDevice
2025-10-03 19:58:24.975 (  44.628s) [        53665000]      event_instance.cc:222      1| EventInstance::PJRT_Event_OnReady
2025-10-03 19:58:24.975 (  44.628s) [        53665000]      event_instance.cc:171      1| EventInstance::PJRT_Event_Destroy
2025-10-03 19:58:24.979 (  44.632s) [        53665000]  device_description.cc:44       1| DeviceDescription::PJRT_DeviceDescription_Id
2025-10-03 19:58:24.979 (  44.632s) [        53665000]  device_description.cc:44       1| DeviceDescription::PJRT_DeviceDescription_Id
2025-10-03 19:58:24.981 (  44.634s) [        53665000]     device_instance.cc:82       1| DeviceInstance::PJRT_Device_DefaultMemory
2025-10-03 19:58:24.981 (  44.634s) [        53665000]     client_instance.cc:592      1| ClientInstance::PJRT_Client_BufferFromHostBuffer
2025-10-03 19:58:24.981 (  44.634s) [        53665000]     memory_instance.cc:57       1| MemoryInstance::getDevice
2025-10-03 19:58:24.981 (  44.634s) [        53665000]      event_instance.cc:222      1| EventInstance::PJRT_Event_OnReady
2025-10-03 19:58:24.981 (  44.634s) [        53665000]      event_instance.cc:171      1| EventInstance::PJRT_Event_Destroy
2025-10-03 19:58:24.981 (  44.634s) [        53665000]     device_instance.cc:82       1| DeviceInstance::PJRT_Device_DefaultMemory
2025-10-03 19:58:24.981 (  44.634s) [        53665000]     client_instance.cc:592      1| ClientInstance::PJRT_Client_BufferFromHostBuffer
2025-10-03 19:58:24.981 (  44.634s) [        53665000]     memory_instance.cc:57       1| MemoryInstance::getDevice
2025-10-03 19:58:24.981 (  44.634s) [        53665000]      event_instance.cc:222      1| EventInstance::PJRT_Event_OnReady
2025-10-03 19:58:24.981 (  44.634s) [        53665000]      event_instance.cc:171      1| EventInstance::PJRT_Event_Destroy
2025-10-03 19:58:24.981 (  44.634s) [        53665000]  device_description.cc:44       1| DeviceDescription::PJRT_DeviceDescription_Id
2025-10-03 19:58:24.981 (  44.634s) [        53665000]  device_description.cc:44       1| DeviceDescription::PJRT_DeviceDescription_Id
2025-10-03 19:58:24.982 (  44.635s) [        53665000]     device_instance.cc:82       1| DeviceInstance::PJRT_Device_DefaultMemory
2025-10-03 19:58:24.982 (  44.635s) [        53665000]     client_instance.cc:592      1| ClientInstance::PJRT_Client_BufferFromHostBuffer
2025-10-03 19:58:24.982 (  44.635s) [        53665000]     memory_instance.cc:57       1| MemoryInstance::getDevice
2025-10-03 19:58:24.982 (  44.635s) [        53665000]      event_instance.cc:222      1| EventInstance::PJRT_Event_OnReady
2025-10-03 19:58:24.982 (  44.635s) [        53665000]      event_instance.cc:171      1| EventInstance::PJRT_Event_Destroy
2025-10-03 19:58:24.982 (  44.635s) [        53665000]     device_instance.cc:82       1| DeviceInstance::PJRT_Device_DefaultMemory
2025-10-03 19:58:24.982 (  44.635s) [        53665000]     client_instance.cc:592      1| ClientInstance::PJRT_Client_BufferFromHostBuffer
2025-10-03 19:58:24.982 (  44.635s) [        53665000]     memory_instance.cc:57       1| MemoryInstance::getDevice
2025-10-03 19:58:24.982 (  44.635s) [        53665000]      event_instance.cc:222      1| EventInstance::PJRT_Event_OnReady
2025-10-03 19:58:24.982 (  44.635s) [        53665000]      event_instance.cc:171      1| EventInstance::PJRT_Event_Destroy
2025-10-03 19:58:24.982 (  44.635s) [        53665000]  device_description.cc:44       1| DeviceDescription::PJRT_DeviceDescription_Id
2025-10-03 19:58:24.982 (  44.635s) [        53665000]  device_description.cc:44       1| DeviceDescription::PJRT_DeviceDescription_Id
2025-10-03 19:58:24.984 (  44.637s) [        53665000]     device_instance.cc:82       1| DeviceInstance::PJRT_Device_DefaultMemory
2025-10-03 19:58:24.984 (  44.637s) [        53665000]     client_instance.cc:592      1| ClientInstance::PJRT_Client_BufferFromHostBuffer
2025-10-03 19:58:24.984 (  44.637s) [        53665000]     memory_instance.cc:57       1| MemoryInstance::getDevice
2025-10-03 19:58:24.984 (  44.637s) [        53665000]      event_instance.cc:222      1| EventInstance::PJRT_Event_OnReady
2025-10-03 19:58:24.984 (  44.637s) [        53665000]      event_instance.cc:171      1| EventInstance::PJRT_Event_Destroy
2025-10-03 19:58:24.984 (  44.637s) [        53665000]     device_instance.cc:82       1| DeviceInstance::PJRT_Device_DefaultMemory
2025-10-03 19:58:24.984 (  44.637s) [        53665000]     client_instance.cc:592      1| ClientInstance::PJRT_Client_BufferFromHostBuffer
2025-10-03 19:58:24.984 (  44.637s) [        53665000]     memory_instance.cc:57       1| MemoryInstance::getDevice
2025-10-03 19:58:24.984 (  44.637s) [        53665000]      event_instance.cc:222      1| EventInstance::PJRT_Event_OnReady
2025-10-03 19:58:24.984 (  44.637s) [        53665000]      event_instance.cc:171      1| EventInstance::PJRT_Event_Destroy
2025-10-03 19:58:24.984 (  44.637s) [        53665000]  device_description.cc:44       1| DeviceDescription::PJRT_DeviceDescription_Id
2025-10-03 19:58:24.984 (  44.637s) [        53665000]  device_description.cc:44       1| DeviceDescription::PJRT_DeviceDescription_Id
2025-10-03 19:58:24.985 (  44.638s) [        53665000]     device_instance.cc:82       1| DeviceInstance::PJRT_Device_DefaultMemory
2025-10-03 19:58:24.985 (  44.638s) [        53665000]     client_instance.cc:592      1| ClientInstance::PJRT_Client_BufferFromHostBuffer
2025-10-03 19:58:24.985 (  44.638s) [        53665000]     memory_instance.cc:57       1| MemoryInstance::getDevice
2025-10-03 19:58:24.985 (  44.638s) [        53665000]      event_instance.cc:222      1| EventInstance::PJRT_Event_OnReady
2025-10-03 19:58:24.985 (  44.638s) [        53665000]      event_instance.cc:171      1| EventInstance::PJRT_Event_Destroy
2025-10-03 19:58:24.985 (  44.638s) [        53665000]     device_instance.cc:82       1| DeviceInstance::PJRT_Device_DefaultMemory
2025-10-03 19:58:24.985 (  44.638s) [        53665000]     client_instance.cc:592      1| ClientInstance::PJRT_Client_BufferFromHostBuffer
2025-10-03 19:58:24.985 (  44.638s) [        53665000]     memory_instance.cc:57       1| MemoryInstance::getDevice
2025-10-03 19:58:24.985 (  44.639s) [        53665000]      event_instance.cc:222      1| EventInstance::PJRT_Event_OnReady
2025-10-03 19:58:24.985 (  44.639s) [        53665000]      event_instance.cc:171      1| EventInstance::PJRT_Event_Destroy
2025-10-03 19:58:24.986 (  44.639s) [        53665000]  device_description.cc:44       1| DeviceDescription::PJRT_DeviceDescription_Id
2025-10-03 19:58:24.986 (  44.639s) [        53665000]  device_description.cc:44       1| DeviceDescription::PJRT_DeviceDescription_Id
2025-10-03 19:58:24.991 (  44.644s) [        53665000]     device_instance.cc:82       1| DeviceInstance::PJRT_Device_DefaultMemory
2025-10-03 19:58:24.991 (  44.644s) [        53665000]     client_instance.cc:592      1| ClientInstance::PJRT_Client_BufferFromHostBuffer
2025-10-03 19:58:24.991 (  44.644s) [        53665000]     memory_instance.cc:57       1| MemoryInstance::getDevice
2025-10-03 19:58:24.991 (  44.644s) [        53665000]      event_instance.cc:222      1| EventInstance::PJRT_Event_OnReady
2025-10-03 19:58:24.991 (  44.644s) [        53665000]      event_instance.cc:171      1| EventInstance::PJRT_Event_Destroy
2025-10-03 19:58:24.991 (  44.644s) [        53665000]     device_instance.cc:82       1| DeviceInstance::PJRT_Device_DefaultMemory
2025-10-03 19:58:24.991 (  44.644s) [        53665000]     client_instance.cc:592      1| ClientInstance::PJRT_Client_BufferFromHostBuffer
2025-10-03 19:58:24.991 (  44.644s) [        53665000]     memory_instance.cc:57       1| MemoryInstance::getDevice
2025-10-03 19:58:24.991 (  44.644s) [        53665000]      event_instance.cc:222      1| EventInstance::PJRT_Event_OnReady
2025-10-03 19:58:24.991 (  44.644s) [        53665000]      event_instance.cc:171      1| EventInstance::PJRT_Event_Destroy
2025-10-03 19:58:24.995 (  44.648s) [        53665000]  device_description.cc:44       1| DeviceDescription::PJRT_DeviceDescription_Id
2025-10-03 19:58:24.995 (  44.648s) [        53665000]  device_description.cc:44       1| DeviceDescription::PJRT_DeviceDescription_Id
2025-10-03 19:58:25.000 (  44.653s) [        53665000]     device_instance.cc:82       1| DeviceInstance::PJRT_Device_DefaultMemory
2025-10-03 19:58:25.000 (  44.653s) [        53665000]     client_instance.cc:592      1| ClientInstance::PJRT_Client_BufferFromHostBuffer
2025-10-03 19:58:25.000 (  44.653s) [        53665000]     memory_instance.cc:57       1| MemoryInstance::getDevice
2025-10-03 19:58:25.001 (  44.654s) [        53665000]      event_instance.cc:222      1| EventInstance::PJRT_Event_OnReady
2025-10-03 19:58:25.001 (  44.654s) [        53665000]      event_instance.cc:171      1| EventInstance::PJRT_Event_Destroy
2025-10-03 19:58:25.001 (  44.654s) [        53665000]     device_instance.cc:82       1| DeviceInstance::PJRT_Device_DefaultMemory
2025-10-03 19:58:25.001 (  44.654s) [        53665000]     client_instance.cc:592      1| ClientInstance::PJRT_Client_BufferFromHostBuffer
2025-10-03 19:58:25.001 (  44.654s) [        53665000]     memory_instance.cc:57       1| MemoryInstance::getDevice
2025-10-03 19:58:25.001 (  44.654s) [        53665000]      event_instance.cc:222      1| EventInstance::PJRT_Event_OnReady
2025-10-03 19:58:25.001 (  44.654s) [        53665000]      event_instance.cc:171      1| EventInstance::PJRT_Event_Destroy
2025-10-03 19:58:25.005 (  44.658s) [        53665000]  device_description.cc:44       1| DeviceDescription::PJRT_DeviceDescription_Id
2025-10-03 19:58:25.005 (  44.658s) [        53665000]  device_description.cc:44       1| DeviceDescription::PJRT_DeviceDescription_Id
2025-10-03 19:58:25.011 (  44.664s) [        53665000]     device_instance.cc:82       1| DeviceInstance::PJRT_Device_DefaultMemory
2025-10-03 19:58:25.011 (  44.664s) [        53665000]     client_instance.cc:592      1| ClientInstance::PJRT_Client_BufferFromHostBuffer
2025-10-03 19:58:25.011 (  44.664s) [        53665000]     memory_instance.cc:57       1| MemoryInstance::getDevice
2025-10-03 19:58:25.011 (  44.664s) [        53665000]      event_instance.cc:222      1| EventInstance::PJRT_Event_OnReady
2025-10-03 19:58:25.011 (  44.664s) [        53665000]      event_instance.cc:171      1| EventInstance::PJRT_Event_Destroy
2025-10-03 19:58:25.011 (  44.664s) [        53665000]     device_instance.cc:82       1| DeviceInstance::PJRT_Device_DefaultMemory
2025-10-03 19:58:25.011 (  44.664s) [        53665000]     client_instance.cc:592      1| ClientInstance::PJRT_Client_BufferFromHostBuffer
2025-10-03 19:58:25.011 (  44.664s) [        53665000]     memory_instance.cc:57       1| MemoryInstance::getDevice
2025-10-03 19:58:25.011 (  44.664s) [        53665000]      event_instance.cc:222      1| EventInstance::PJRT_Event_OnReady
2025-10-03 19:58:25.011 (  44.664s) [        53665000]      event_instance.cc:171      1| EventInstance::PJRT_Event_Destroy
2025-10-03 19:58:25.015 (  44.668s) [        53665000]  device_description.cc:44       1| DeviceDescription::PJRT_DeviceDescription_Id
2025-10-03 19:58:25.015 (  44.668s) [        53665000]  device_description.cc:44       1| DeviceDescription::PJRT_DeviceDescription_Id
2025-10-03 19:58:25.017 (  44.670s) [        53665000]     device_instance.cc:82       1| DeviceInstance::PJRT_Device_DefaultMemory
2025-10-03 19:58:25.017 (  44.670s) [        53665000]     client_instance.cc:592      1| ClientInstance::PJRT_Client_BufferFromHostBuffer
2025-10-03 19:58:25.017 (  44.670s) [        53665000]     memory_instance.cc:57       1| MemoryInstance::getDevice
2025-10-03 19:58:25.017 (  44.670s) [        53665000]      event_instance.cc:222      1| EventInstance::PJRT_Event_OnReady
2025-10-03 19:58:25.017 (  44.670s) [        53665000]      event_instance.cc:171      1| EventInstance::PJRT_Event_Destroy
2025-10-03 19:58:25.017 (  44.670s) [        53665000]     device_instance.cc:82       1| DeviceInstance::PJRT_Device_DefaultMemory
2025-10-03 19:58:25.017 (  44.670s) [        53665000]     client_instance.cc:592      1| ClientInstance::PJRT_Client_BufferFromHostBuffer
2025-10-03 19:58:25.017 (  44.670s) [        53665000]     memory_instance.cc:57       1| MemoryInstance::getDevice
2025-10-03 19:58:25.017 (  44.670s) [        53665000]      event_instance.cc:222      1| EventInstance::PJRT_Event_OnReady
2025-10-03 19:58:25.017 (  44.670s) [        53665000]      event_instance.cc:171      1| EventInstance::PJRT_Event_Destroy
2025-10-03 19:58:25.017 (  44.670s) [        53665000]  device_description.cc:44       1| DeviceDescription::PJRT_DeviceDescription_Id
2025-10-03 19:58:25.017 (  44.670s) [        53665000]  device_description.cc:44       1| DeviceDescription::PJRT_DeviceDescription_Id
2025-10-03 19:58:25.018 (  44.671s) [        53665000]     device_instance.cc:82       1| DeviceInstance::PJRT_Device_DefaultMemory
2025-10-03 19:58:25.018 (  44.671s) [        53665000]     client_instance.cc:592      1| ClientInstance::PJRT_Client_BufferFromHostBuffer
2025-10-03 19:58:25.018 (  44.671s) [        53665000]     memory_instance.cc:57       1| MemoryInstance::getDevice
2025-10-03 19:58:25.018 (  44.671s) [        53665000]      event_instance.cc:222      1| EventInstance::PJRT_Event_OnReady
2025-10-03 19:58:25.018 (  44.671s) [        53665000]      event_instance.cc:171      1| EventInstance::PJRT_Event_Destroy
2025-10-03 19:58:25.018 (  44.671s) [        53665000]     device_instance.cc:82       1| DeviceInstance::PJRT_Device_DefaultMemory
2025-10-03 19:58:25.018 (  44.671s) [        53665000]     client_instance.cc:592      1| ClientInstance::PJRT_Client_BufferFromHostBuffer
2025-10-03 19:58:25.018 (  44.671s) [        53665000]     memory_instance.cc:57       1| MemoryInstance::getDevice
2025-10-03 19:58:25.018 (  44.671s) [        53665000]      event_instance.cc:222      1| EventInstance::PJRT_Event_OnReady
2025-10-03 19:58:25.018 (  44.671s) [        53665000]      event_instance.cc:171      1| EventInstance::PJRT_Event_Destroy
2025-10-03 19:58:25.018 (  44.671s) [        53665000]  device_description.cc:44       1| DeviceDescription::PJRT_DeviceDescription_Id
2025-10-03 19:58:25.018 (  44.671s) [        53665000]  device_description.cc:44       1| DeviceDescription::PJRT_DeviceDescription_Id
2025-10-03 19:58:25.019 (  44.672s) [        53665000]     device_instance.cc:82       1| DeviceInstance::PJRT_Device_DefaultMemory
2025-10-03 19:58:25.019 (  44.672s) [        53665000]     client_instance.cc:592      1| ClientInstance::PJRT_Client_BufferFromHostBuffer
2025-10-03 19:58:25.019 (  44.672s) [        53665000]     memory_instance.cc:57       1| MemoryInstance::getDevice
2025-10-03 19:58:25.019 (  44.672s) [        53665000]      event_instance.cc:222      1| EventInstance::PJRT_Event_OnReady
2025-10-03 19:58:25.019 (  44.672s) [        53665000]      event_instance.cc:171      1| EventInstance::PJRT_Event_Destroy
2025-10-03 19:58:25.019 (  44.672s) [        53665000]     device_instance.cc:82       1| DeviceInstance::PJRT_Device_DefaultMemory
2025-10-03 19:58:25.019 (  44.672s) [        53665000]     client_instance.cc:592      1| ClientInstance::PJRT_Client_BufferFromHostBuffer
2025-10-03 19:58:25.019 (  44.672s) [        53665000]     memory_instance.cc:57       1| MemoryInstance::getDevice
2025-10-03 19:58:25.019 (  44.672s) [        53665000]      event_instance.cc:222      1| EventInstance::PJRT_Event_OnReady
2025-10-03 19:58:25.019 (  44.672s) [        53665000]      event_instance.cc:171      1| EventInstance::PJRT_Event_Destroy
2025-10-03 19:58:25.020 (  44.673s) [        53665000]  device_description.cc:44       1| DeviceDescription::PJRT_DeviceDescription_Id
2025-10-03 19:58:25.020 (  44.673s) [        53665000]  device_description.cc:44       1| DeviceDescription::PJRT_DeviceDescription_Id
2025-10-03 19:58:25.021 (  44.674s) [        53665000]     device_instance.cc:82       1| DeviceInstance::PJRT_Device_DefaultMemory
2025-10-03 19:58:25.021 (  44.674s) [        53665000]     client_instance.cc:592      1| ClientInstance::PJRT_Client_BufferFromHostBuffer
2025-10-03 19:58:25.021 (  44.674s) [        53665000]     memory_instance.cc:57       1| MemoryInstance::getDevice
2025-10-03 19:58:25.021 (  44.674s) [        53665000]      event_instance.cc:222      1| EventInstance::PJRT_Event_OnReady
2025-10-03 19:58:25.021 (  44.674s) [        53665000]      event_instance.cc:171      1| EventInstance::PJRT_Event_Destroy
2025-10-03 19:58:25.021 (  44.674s) [        53665000]     device_instance.cc:82       1| DeviceInstance::PJRT_Device_DefaultMemory
2025-10-03 19:58:25.021 (  44.674s) [        53665000]     client_instance.cc:592      1| ClientInstance::PJRT_Client_BufferFromHostBuffer
2025-10-03 19:58:25.021 (  44.674s) [        53665000]     memory_instance.cc:57       1| MemoryInstance::getDevice
2025-10-03 19:58:25.021 (  44.674s) [        53665000]      event_instance.cc:222      1| EventInstance::PJRT_Event_OnReady
2025-10-03 19:58:25.021 (  44.674s) [        53665000]      event_instance.cc:171      1| EventInstance::PJRT_Event_Destroy
2025-10-03 19:58:25.021 (  44.674s) [        53665000]  device_description.cc:44       1| DeviceDescription::PJRT_DeviceDescription_Id
2025-10-03 19:58:25.021 (  44.674s) [        53665000]  device_description.cc:44       1| DeviceDescription::PJRT_DeviceDescription_Id
2025-10-03 19:58:25.026 (  44.679s) [        53665000]     device_instance.cc:82       1| DeviceInstance::PJRT_Device_DefaultMemory
2025-10-03 19:58:25.026 (  44.679s) [        53665000]     client_instance.cc:592      1| ClientInstance::PJRT_Client_BufferFromHostBuffer
2025-10-03 19:58:25.026 (  44.679s) [        53665000]     memory_instance.cc:57       1| MemoryInstance::getDevice
2025-10-03 19:58:25.026 (  44.680s) [        53665000]      event_instance.cc:222      1| EventInstance::PJRT_Event_OnReady
2025-10-03 19:58:25.026 (  44.680s) [        53665000]      event_instance.cc:171      1| EventInstance::PJRT_Event_Destroy
2025-10-03 19:58:25.026 (  44.680s) [        53665000]     device_instance.cc:82       1| DeviceInstance::PJRT_Device_DefaultMemory
2025-10-03 19:58:25.026 (  44.680s) [        53665000]     client_instance.cc:592      1| ClientInstance::PJRT_Client_BufferFromHostBuffer
2025-10-03 19:58:25.027 (  44.680s) [        53665000]     memory_instance.cc:57       1| MemoryInstance::getDevice
2025-10-03 19:58:25.027 (  44.680s) [        53665000]      event_instance.cc:222      1| EventInstance::PJRT_Event_OnReady
2025-10-03 19:58:25.027 (  44.680s) [        53665000]      event_instance.cc:171      1| EventInstance::PJRT_Event_Destroy
2025-10-03 19:58:25.031 (  44.684s) [        53665000]  device_description.cc:44       1| DeviceDescription::PJRT_DeviceDescription_Id
2025-10-03 19:58:25.031 (  44.684s) [        53665000]  device_description.cc:44       1| DeviceDescription::PJRT_DeviceDescription_Id
2025-10-03 19:58:25.036 (  44.689s) [        53665000]     device_instance.cc:82       1| DeviceInstance::PJRT_Device_DefaultMemory
2025-10-03 19:58:25.036 (  44.689s) [        53665000]     client_instance.cc:592      1| ClientInstance::PJRT_Client_BufferFromHostBuffer
2025-10-03 19:58:25.036 (  44.689s) [        53665000]     memory_instance.cc:57       1| MemoryInstance::getDevice
2025-10-03 19:58:25.036 (  44.689s) [        53665000]      event_instance.cc:222      1| EventInstance::PJRT_Event_OnReady
2025-10-03 19:58:25.036 (  44.689s) [        53665000]      event_instance.cc:171      1| EventInstance::PJRT_Event_Destroy
2025-10-03 19:58:25.036 (  44.689s) [        53665000]     device_instance.cc:82       1| DeviceInstance::PJRT_Device_DefaultMemory
2025-10-03 19:58:25.036 (  44.689s) [        53665000]     client_instance.cc:592      1| ClientInstance::PJRT_Client_BufferFromHostBuffer
2025-10-03 19:58:25.036 (  44.689s) [        53665000]     memory_instance.cc:57       1| MemoryInstance::getDevice
2025-10-03 19:58:25.036 (  44.689s) [        53665000]      event_instance.cc:222      1| EventInstance::PJRT_Event_OnReady
2025-10-03 19:58:25.036 (  44.689s) [        53665000]      event_instance.cc:171      1| EventInstance::PJRT_Event_Destroy
2025-10-03 19:58:25.040 (  44.693s) [        53665000]  device_description.cc:44       1| DeviceDescription::PJRT_DeviceDescription_Id
2025-10-03 19:58:25.040 (  44.693s) [        53665000]  device_description.cc:44       1| DeviceDescription::PJRT_DeviceDescription_Id
2025-10-03 19:58:25.046 (  44.699s) [        53665000]     device_instance.cc:82       1| DeviceInstance::PJRT_Device_DefaultMemory
2025-10-03 19:58:25.046 (  44.699s) [        53665000]     client_instance.cc:592      1| ClientInstance::PJRT_Client_BufferFromHostBuffer
2025-10-03 19:58:25.046 (  44.699s) [        53665000]     memory_instance.cc:57       1| MemoryInstance::getDevice
2025-10-03 19:58:25.046 (  44.699s) [        53665000]      event_instance.cc:222      1| EventInstance::PJRT_Event_OnReady
2025-10-03 19:58:25.046 (  44.699s) [        53665000]      event_instance.cc:171      1| EventInstance::PJRT_Event_Destroy
2025-10-03 19:58:25.046 (  44.699s) [        53665000]     device_instance.cc:82       1| DeviceInstance::PJRT_Device_DefaultMemory
2025-10-03 19:58:25.046 (  44.699s) [        53665000]     client_instance.cc:592      1| ClientInstance::PJRT_Client_BufferFromHostBuffer
2025-10-03 19:58:25.046 (  44.699s) [        53665000]     memory_instance.cc:57       1| MemoryInstance::getDevice
2025-10-03 19:58:25.046 (  44.699s) [        53665000]      event_instance.cc:222      1| EventInstance::PJRT_Event_OnReady
2025-10-03 19:58:25.046 (  44.699s) [        53665000]      event_instance.cc:171      1| EventInstance::PJRT_Event_Destroy
2025-10-03 19:58:25.051 (  44.704s) [        53665000]  device_description.cc:44       1| DeviceDescription::PJRT_DeviceDescription_Id
2025-10-03 19:58:25.051 (  44.704s) [        53665000]  device_description.cc:44       1| DeviceDescription::PJRT_DeviceDescription_Id
2025-10-03 19:58:25.052 (  44.705s) [        53665000]     device_instance.cc:82       1| DeviceInstance::PJRT_Device_DefaultMemory
2025-10-03 19:58:25.052 (  44.705s) [        53665000]     client_instance.cc:592      1| ClientInstance::PJRT_Client_BufferFromHostBuffer
2025-10-03 19:58:25.052 (  44.705s) [        53665000]     memory_instance.cc:57       1| MemoryInstance::getDevice
2025-10-03 19:58:25.052 (  44.705s) [        53665000]      event_instance.cc:222      1| EventInstance::PJRT_Event_OnReady
2025-10-03 19:58:25.052 (  44.705s) [        53665000]      event_instance.cc:171      1| EventInstance::PJRT_Event_Destroy
2025-10-03 19:58:25.052 (  44.705s) [        53665000]     device_instance.cc:82       1| DeviceInstance::PJRT_Device_DefaultMemory
2025-10-03 19:58:25.052 (  44.705s) [        53665000]     client_instance.cc:592      1| ClientInstance::PJRT_Client_BufferFromHostBuffer
2025-10-03 19:58:25.052 (  44.706s) [        53665000]     memory_instance.cc:57       1| MemoryInstance::getDevice
2025-10-03 19:58:25.053 (  44.706s) [        53665000]      event_instance.cc:222      1| EventInstance::PJRT_Event_OnReady
2025-10-03 19:58:25.053 (  44.706s) [        53665000]      event_instance.cc:171      1| EventInstance::PJRT_Event_Destroy
2025-10-03 19:58:25.053 (  44.706s) [        53665000]  device_description.cc:44       1| DeviceDescription::PJRT_DeviceDescription_Id
2025-10-03 19:58:25.053 (  44.706s) [        53665000]  device_description.cc:44       1| DeviceDescription::PJRT_DeviceDescription_Id
2025-10-03 19:58:25.053 (  44.706s) [        53665000]     device_instance.cc:82       1| DeviceInstance::PJRT_Device_DefaultMemory
2025-10-03 19:58:25.053 (  44.706s) [        53665000]     client_instance.cc:592      1| ClientInstance::PJRT_Client_BufferFromHostBuffer
2025-10-03 19:58:25.053 (  44.706s) [        53665000]     memory_instance.cc:57       1| MemoryInstance::getDevice
2025-10-03 19:58:25.053 (  44.706s) [        53665000]      event_instance.cc:222      1| EventInstance::PJRT_Event_OnReady
2025-10-03 19:58:25.053 (  44.706s) [        53665000]      event_instance.cc:171      1| EventInstance::PJRT_Event_Destroy
2025-10-03 19:58:25.053 (  44.706s) [        53665000]     device_instance.cc:82       1| DeviceInstance::PJRT_Device_DefaultMemory
2025-10-03 19:58:25.053 (  44.706s) [        53665000]     client_instance.cc:592      1| ClientInstance::PJRT_Client_BufferFromHostBuffer
2025-10-03 19:58:25.053 (  44.706s) [        53665000]     memory_instance.cc:57       1| MemoryInstance::getDevice
2025-10-03 19:58:25.053 (  44.706s) [        53665000]      event_instance.cc:222      1| EventInstance::PJRT_Event_OnReady
2025-10-03 19:58:25.053 (  44.706s) [        53665000]      event_instance.cc:171      1| EventInstance::PJRT_Event_Destroy
2025-10-03 19:58:25.054 (  44.707s) [        53665000]  device_description.cc:44       1| DeviceDescription::PJRT_DeviceDescription_Id
2025-10-03 19:58:25.054 (  44.707s) [        53665000]  device_description.cc:44       1| DeviceDescription::PJRT_DeviceDescription_Id
2025-10-03 19:58:25.055 (  44.708s) [        53665000]     device_instance.cc:82       1| DeviceInstance::PJRT_Device_DefaultMemory
2025-10-03 19:58:25.055 (  44.708s) [        53665000]     client_instance.cc:592      1| ClientInstance::PJRT_Client_BufferFromHostBuffer
2025-10-03 19:58:25.055 (  44.708s) [        53665000]     memory_instance.cc:57       1| MemoryInstance::getDevice
2025-10-03 19:58:25.055 (  44.708s) [        53665000]      event_instance.cc:222      1| EventInstance::PJRT_Event_OnReady
2025-10-03 19:58:25.055 (  44.708s) [        53665000]      event_instance.cc:171      1| EventInstance::PJRT_Event_Destroy
2025-10-03 19:58:25.055 (  44.708s) [        53665000]     device_instance.cc:82       1| DeviceInstance::PJRT_Device_DefaultMemory
2025-10-03 19:58:25.055 (  44.708s) [        53665000]     client_instance.cc:592      1| ClientInstance::PJRT_Client_BufferFromHostBuffer
2025-10-03 19:58:25.055 (  44.708s) [        53665000]     memory_instance.cc:57       1| MemoryInstance::getDevice
2025-10-03 19:58:25.055 (  44.708s) [        53665000]      event_instance.cc:222      1| EventInstance::PJRT_Event_OnReady
2025-10-03 19:58:25.055 (  44.708s) [        53665000]      event_instance.cc:171      1| EventInstance::PJRT_Event_Destroy
2025-10-03 19:58:25.055 (  44.708s) [        53665000]  device_description.cc:44       1| DeviceDescription::PJRT_DeviceDescription_Id
2025-10-03 19:58:25.055 (  44.708s) [        53665000]  device_description.cc:44       1| DeviceDescription::PJRT_DeviceDescription_Id
2025-10-03 19:58:25.057 (  44.710s) [        53665000]     device_instance.cc:82       1| DeviceInstance::PJRT_Device_DefaultMemory
2025-10-03 19:58:25.057 (  44.710s) [        53665000]     client_instance.cc:592      1| ClientInstance::PJRT_Client_BufferFromHostBuffer
2025-10-03 19:58:25.057 (  44.710s) [        53665000]     memory_instance.cc:57       1| MemoryInstance::getDevice
2025-10-03 19:58:25.057 (  44.710s) [        53665000]      event_instance.cc:222      1| EventInstance::PJRT_Event_OnReady
2025-10-03 19:58:25.057 (  44.710s) [        53665000]      event_instance.cc:171      1| EventInstance::PJRT_Event_Destroy
2025-10-03 19:58:25.057 (  44.710s) [        53665000]     device_instance.cc:82       1| DeviceInstance::PJRT_Device_DefaultMemory
2025-10-03 19:58:25.057 (  44.710s) [        53665000]     client_instance.cc:592      1| ClientInstance::PJRT_Client_BufferFromHostBuffer
2025-10-03 19:58:25.057 (  44.710s) [        53665000]     memory_instance.cc:57       1| MemoryInstance::getDevice
2025-10-03 19:58:25.057 (  44.710s) [        53665000]      event_instance.cc:222      1| EventInstance::PJRT_Event_OnReady
2025-10-03 19:58:25.057 (  44.710s) [        53665000]      event_instance.cc:171      1| EventInstance::PJRT_Event_Destroy
2025-10-03 19:58:25.057 (  44.710s) [        53665000]  device_description.cc:44       1| DeviceDescription::PJRT_DeviceDescription_Id
2025-10-03 19:58:25.057 (  44.710s) [        53665000]  device_description.cc:44       1| DeviceDescription::PJRT_DeviceDescription_Id
2025-10-03 19:58:25.062 (  44.715s) [        53665000]     device_instance.cc:82       1| DeviceInstance::PJRT_Device_DefaultMemory
2025-10-03 19:58:25.062 (  44.715s) [        53665000]     client_instance.cc:592      1| ClientInstance::PJRT_Client_BufferFromHostBuffer
2025-10-03 19:58:25.062 (  44.715s) [        53665000]     memory_instance.cc:57       1| MemoryInstance::getDevice
2025-10-03 19:58:25.062 (  44.715s) [        53665000]      event_instance.cc:222      1| EventInstance::PJRT_Event_OnReady
2025-10-03 19:58:25.062 (  44.715s) [        53665000]      event_instance.cc:171      1| EventInstance::PJRT_Event_Destroy
2025-10-03 19:58:25.062 (  44.715s) [        53665000]     device_instance.cc:82       1| DeviceInstance::PJRT_Device_DefaultMemory
2025-10-03 19:58:25.062 (  44.715s) [        53665000]     client_instance.cc:592      1| ClientInstance::PJRT_Client_BufferFromHostBuffer
2025-10-03 19:58:25.062 (  44.715s) [        53665000]     memory_instance.cc:57       1| MemoryInstance::getDevice
2025-10-03 19:58:25.062 (  44.715s) [        53665000]      event_instance.cc:222      1| EventInstance::PJRT_Event_OnReady
2025-10-03 19:58:25.062 (  44.715s) [        53665000]      event_instance.cc:171      1| EventInstance::PJRT_Event_Destroy
2025-10-03 19:58:25.066 (  44.719s) [        53665000]  device_description.cc:44       1| DeviceDescription::PJRT_DeviceDescription_Id
2025-10-03 19:58:25.066 (  44.719s) [        53665000]  device_description.cc:44       1| DeviceDescription::PJRT_DeviceDescription_Id
2025-10-03 19:58:25.072 (  44.725s) [        53665000]     device_instance.cc:82       1| DeviceInstance::PJRT_Device_DefaultMemory
2025-10-03 19:58:25.072 (  44.725s) [        53665000]     client_instance.cc:592      1| ClientInstance::PJRT_Client_BufferFromHostBuffer
2025-10-03 19:58:25.072 (  44.725s) [        53665000]     memory_instance.cc:57       1| MemoryInstance::getDevice
2025-10-03 19:58:25.072 (  44.725s) [        53665000]      event_instance.cc:222      1| EventInstance::PJRT_Event_OnReady
2025-10-03 19:58:25.072 (  44.725s) [        53665000]      event_instance.cc:171      1| EventInstance::PJRT_Event_Destroy
2025-10-03 19:58:25.072 (  44.725s) [        53665000]     device_instance.cc:82       1| DeviceInstance::PJRT_Device_DefaultMemory
2025-10-03 19:58:25.072 (  44.725s) [        53665000]     client_instance.cc:592      1| ClientInstance::PJRT_Client_BufferFromHostBuffer
2025-10-03 19:58:25.072 (  44.725s) [        53665000]     memory_instance.cc:57       1| MemoryInstance::getDevice
2025-10-03 19:58:25.072 (  44.725s) [        53665000]      event_instance.cc:222      1| EventInstance::PJRT_Event_OnReady
2025-10-03 19:58:25.072 (  44.725s) [        53665000]      event_instance.cc:171      1| EventInstance::PJRT_Event_Destroy
2025-10-03 19:58:25.076 (  44.729s) [        53665000]  device_description.cc:44       1| DeviceDescription::PJRT_DeviceDescription_Id
2025-10-03 19:58:25.076 (  44.729s) [        53665000]  device_description.cc:44       1| DeviceDescription::PJRT_DeviceDescription_Id
2025-10-03 19:58:25.082 (  44.735s) [        53665000]     device_instance.cc:82       1| DeviceInstance::PJRT_Device_DefaultMemory
2025-10-03 19:58:25.082 (  44.735s) [        53665000]     client_instance.cc:592      1| ClientInstance::PJRT_Client_BufferFromHostBuffer
2025-10-03 19:58:25.082 (  44.735s) [        53665000]     memory_instance.cc:57       1| MemoryInstance::getDevice
2025-10-03 19:58:25.082 (  44.735s) [        53665000]      event_instance.cc:222      1| EventInstance::PJRT_Event_OnReady
2025-10-03 19:58:25.082 (  44.735s) [        53665000]      event_instance.cc:171      1| EventInstance::PJRT_Event_Destroy
2025-10-03 19:58:25.082 (  44.735s) [        53665000]     device_instance.cc:82       1| DeviceInstance::PJRT_Device_DefaultMemory
2025-10-03 19:58:25.082 (  44.735s) [        53665000]     client_instance.cc:592      1| ClientInstance::PJRT_Client_BufferFromHostBuffer
2025-10-03 19:58:25.082 (  44.735s) [        53665000]     memory_instance.cc:57       1| MemoryInstance::getDevice
2025-10-03 19:58:25.082 (  44.736s) [        53665000]      event_instance.cc:222      1| EventInstance::PJRT_Event_OnReady
2025-10-03 19:58:25.083 (  44.736s) [        53665000]      event_instance.cc:171      1| EventInstance::PJRT_Event_Destroy
2025-10-03 19:58:25.087 (  44.740s) [        53665000]  device_description.cc:44       1| DeviceDescription::PJRT_DeviceDescription_Id
2025-10-03 19:58:25.087 (  44.740s) [        53665000]  device_description.cc:44       1| DeviceDescription::PJRT_DeviceDescription_Id
2025-10-03 19:58:25.088 (  44.741s) [        53665000]     device_instance.cc:82       1| DeviceInstance::PJRT_Device_DefaultMemory
2025-10-03 19:58:25.088 (  44.741s) [        53665000]     client_instance.cc:592      1| ClientInstance::PJRT_Client_BufferFromHostBuffer
2025-10-03 19:58:25.088 (  44.741s) [        53665000]     memory_instance.cc:57       1| MemoryInstance::getDevice
2025-10-03 19:58:25.088 (  44.741s) [        53665000]      event_instance.cc:222      1| EventInstance::PJRT_Event_OnReady
2025-10-03 19:58:25.088 (  44.741s) [        53665000]      event_instance.cc:171      1| EventInstance::PJRT_Event_Destroy
2025-10-03 19:58:25.088 (  44.742s) [        53665000]     device_instance.cc:82       1| DeviceInstance::PJRT_Device_DefaultMemory
2025-10-03 19:58:25.088 (  44.742s) [        53665000]     client_instance.cc:592      1| ClientInstance::PJRT_Client_BufferFromHostBuffer
2025-10-03 19:58:25.088 (  44.742s) [        53665000]     memory_instance.cc:57       1| MemoryInstance::getDevice
2025-10-03 19:58:25.089 (  44.742s) [        53665000]      event_instance.cc:222      1| EventInstance::PJRT_Event_OnReady
2025-10-03 19:58:25.089 (  44.742s) [        53665000]      event_instance.cc:171      1| EventInstance::PJRT_Event_Destroy
2025-10-03 19:58:25.089 (  44.742s) [        53665000]  device_description.cc:44       1| DeviceDescription::PJRT_DeviceDescription_Id
2025-10-03 19:58:25.089 (  44.742s) [        53665000]  device_description.cc:44       1| DeviceDescription::PJRT_DeviceDescription_Id
2025-10-03 19:58:25.089 (  44.742s) [        53665000]     device_instance.cc:82       1| DeviceInstance::PJRT_Device_DefaultMemory
2025-10-03 19:58:25.089 (  44.742s) [        53665000]     client_instance.cc:592      1| ClientInstance::PJRT_Client_BufferFromHostBuffer
2025-10-03 19:58:25.089 (  44.742s) [        53665000]     memory_instance.cc:57       1| MemoryInstance::getDevice
2025-10-03 19:58:25.089 (  44.742s) [        53665000]      event_instance.cc:222      1| EventInstance::PJRT_Event_OnReady
2025-10-03 19:58:25.089 (  44.742s) [        53665000]      event_instance.cc:171      1| EventInstance::PJRT_Event_Destroy
2025-10-03 19:58:25.089 (  44.742s) [        53665000]     device_instance.cc:82       1| DeviceInstance::PJRT_Device_DefaultMemory
2025-10-03 19:58:25.089 (  44.742s) [        53665000]     client_instance.cc:592      1| ClientInstance::PJRT_Client_BufferFromHostBuffer
2025-10-03 19:58:25.089 (  44.742s) [        53665000]     memory_instance.cc:57       1| MemoryInstance::getDevice
2025-10-03 19:58:25.089 (  44.742s) [        53665000]      event_instance.cc:222      1| EventInstance::PJRT_Event_OnReady
2025-10-03 19:58:25.089 (  44.742s) [        53665000]      event_instance.cc:171      1| EventInstance::PJRT_Event_Destroy
2025-10-03 19:58:25.089 (  44.743s) [        53665000]  device_description.cc:44       1| DeviceDescription::PJRT_DeviceDescription_Id
2025-10-03 19:58:25.089 (  44.743s) [        53665000]  device_description.cc:44       1| DeviceDescription::PJRT_DeviceDescription_Id
2025-10-03 19:58:25.091 (  44.744s) [        53665000]     device_instance.cc:82       1| DeviceInstance::PJRT_Device_DefaultMemory
2025-10-03 19:58:25.091 (  44.744s) [        53665000]     client_instance.cc:592      1| ClientInstance::PJRT_Client_BufferFromHostBuffer
2025-10-03 19:58:25.091 (  44.744s) [        53665000]     memory_instance.cc:57       1| MemoryInstance::getDevice
2025-10-03 19:58:25.091 (  44.744s) [        53665000]      event_instance.cc:222      1| EventInstance::PJRT_Event_OnReady
2025-10-03 19:58:25.091 (  44.744s) [        53665000]      event_instance.cc:171      1| EventInstance::PJRT_Event_Destroy
2025-10-03 19:58:25.091 (  44.744s) [        53665000]     device_instance.cc:82       1| DeviceInstance::PJRT_Device_DefaultMemory
2025-10-03 19:58:25.091 (  44.744s) [        53665000]     client_instance.cc:592      1| ClientInstance::PJRT_Client_BufferFromHostBuffer
2025-10-03 19:58:25.091 (  44.744s) [        53665000]     memory_instance.cc:57       1| MemoryInstance::getDevice
2025-10-03 19:58:25.091 (  44.744s) [        53665000]      event_instance.cc:222      1| EventInstance::PJRT_Event_OnReady
2025-10-03 19:58:25.091 (  44.744s) [        53665000]      event_instance.cc:171      1| EventInstance::PJRT_Event_Destroy
2025-10-03 19:58:25.091 (  44.744s) [        53665000]  device_description.cc:44       1| DeviceDescription::PJRT_DeviceDescription_Id
2025-10-03 19:58:25.091 (  44.744s) [        53665000]  device_description.cc:44       1| DeviceDescription::PJRT_DeviceDescription_Id
2025-10-03 19:58:25.092 (  44.745s) [        53665000]     device_instance.cc:82       1| DeviceInstance::PJRT_Device_DefaultMemory
2025-10-03 19:58:25.092 (  44.746s) [        53665000]     client_instance.cc:592      1| ClientInstance::PJRT_Client_BufferFromHostBuffer
2025-10-03 19:58:25.092 (  44.746s) [        53665000]     memory_instance.cc:57       1| MemoryInstance::getDevice
2025-10-03 19:58:25.093 (  44.746s) [        53665000]      event_instance.cc:222      1| EventInstance::PJRT_Event_OnReady
2025-10-03 19:58:25.093 (  44.746s) [        53665000]      event_instance.cc:171      1| EventInstance::PJRT_Event_Destroy
2025-10-03 19:58:25.093 (  44.746s) [        53665000]     device_instance.cc:82       1| DeviceInstance::PJRT_Device_DefaultMemory
2025-10-03 19:58:25.093 (  44.746s) [        53665000]     client_instance.cc:592      1| ClientInstance::PJRT_Client_BufferFromHostBuffer
2025-10-03 19:58:25.093 (  44.746s) [        53665000]     memory_instance.cc:57       1| MemoryInstance::getDevice
2025-10-03 19:58:25.093 (  44.746s) [        53665000]      event_instance.cc:222      1| EventInstance::PJRT_Event_OnReady
2025-10-03 19:58:25.093 (  44.746s) [        53665000]      event_instance.cc:171      1| EventInstance::PJRT_Event_Destroy
2025-10-03 19:58:25.093 (  44.746s) [        53665000]  device_description.cc:44       1| DeviceDescription::PJRT_DeviceDescription_Id
2025-10-03 19:58:25.093 (  44.746s) [        53665000]  device_description.cc:44       1| DeviceDescription::PJRT_DeviceDescription_Id
2025-10-03 19:58:25.098 (  44.751s) [        53665000]     device_instance.cc:82       1| DeviceInstance::PJRT_Device_DefaultMemory
2025-10-03 19:58:25.098 (  44.751s) [        53665000]     client_instance.cc:592      1| ClientInstance::PJRT_Client_BufferFromHostBuffer
2025-10-03 19:58:25.098 (  44.751s) [        53665000]     memory_instance.cc:57       1| MemoryInstance::getDevice
2025-10-03 19:58:25.098 (  44.751s) [        53665000]      event_instance.cc:222      1| EventInstance::PJRT_Event_OnReady
2025-10-03 19:58:25.098 (  44.751s) [        53665000]      event_instance.cc:171      1| EventInstance::PJRT_Event_Destroy
2025-10-03 19:58:25.098 (  44.751s) [        53665000]     device_instance.cc:82       1| DeviceInstance::PJRT_Device_DefaultMemory
2025-10-03 19:58:25.098 (  44.751s) [        53665000]     client_instance.cc:592      1| ClientInstance::PJRT_Client_BufferFromHostBuffer
2025-10-03 19:58:25.098 (  44.751s) [        53665000]     memory_instance.cc:57       1| MemoryInstance::getDevice
2025-10-03 19:58:25.098 (  44.751s) [        53665000]      event_instance.cc:222      1| EventInstance::PJRT_Event_OnReady
2025-10-03 19:58:25.098 (  44.751s) [        53665000]      event_instance.cc:171      1| EventInstance::PJRT_Event_Destroy
2025-10-03 19:58:25.102 (  44.755s) [        53665000]  device_description.cc:44       1| DeviceDescription::PJRT_DeviceDescription_Id
2025-10-03 19:58:25.102 (  44.755s) [        53665000]  device_description.cc:44       1| DeviceDescription::PJRT_DeviceDescription_Id
2025-10-03 19:58:25.108 (  44.761s) [        53665000]     device_instance.cc:82       1| DeviceInstance::PJRT_Device_DefaultMemory
2025-10-03 19:58:25.108 (  44.761s) [        53665000]     client_instance.cc:592      1| ClientInstance::PJRT_Client_BufferFromHostBuffer
2025-10-03 19:58:25.108 (  44.761s) [        53665000]     memory_instance.cc:57       1| MemoryInstance::getDevice
2025-10-03 19:58:25.108 (  44.761s) [        53665000]      event_instance.cc:222      1| EventInstance::PJRT_Event_OnReady
2025-10-03 19:58:25.108 (  44.761s) [        53665000]      event_instance.cc:171      1| EventInstance::PJRT_Event_Destroy
2025-10-03 19:58:25.108 (  44.761s) [        53665000]     device_instance.cc:82       1| DeviceInstance::PJRT_Device_DefaultMemory
2025-10-03 19:58:25.108 (  44.761s) [        53665000]     client_instance.cc:592      1| ClientInstance::PJRT_Client_BufferFromHostBuffer
2025-10-03 19:58:25.108 (  44.761s) [        53665000]     memory_instance.cc:57       1| MemoryInstance::getDevice
2025-10-03 19:58:25.108 (  44.761s) [        53665000]      event_instance.cc:222      1| EventInstance::PJRT_Event_OnReady
2025-10-03 19:58:25.108 (  44.761s) [        53665000]      event_instance.cc:171      1| EventInstance::PJRT_Event_Destroy
2025-10-03 19:58:25.113 (  44.766s) [        53665000]  device_description.cc:44       1| DeviceDescription::PJRT_DeviceDescription_Id
2025-10-03 19:58:25.113 (  44.766s) [        53665000]  device_description.cc:44       1| DeviceDescription::PJRT_DeviceDescription_Id
2025-10-03 19:58:25.118 (  44.771s) [        53665000]     device_instance.cc:82       1| DeviceInstance::PJRT_Device_DefaultMemory
2025-10-03 19:58:25.118 (  44.771s) [        53665000]     client_instance.cc:592      1| ClientInstance::PJRT_Client_BufferFromHostBuffer
2025-10-03 19:58:25.118 (  44.771s) [        53665000]     memory_instance.cc:57       1| MemoryInstance::getDevice
2025-10-03 19:58:25.119 (  44.772s) [        53665000]      event_instance.cc:222      1| EventInstance::PJRT_Event_OnReady
2025-10-03 19:58:25.119 (  44.772s) [        53665000]      event_instance.cc:171      1| EventInstance::PJRT_Event_Destroy
2025-10-03 19:58:25.119 (  44.772s) [        53665000]     device_instance.cc:82       1| DeviceInstance::PJRT_Device_DefaultMemory
2025-10-03 19:58:25.119 (  44.772s) [        53665000]     client_instance.cc:592      1| ClientInstance::PJRT_Client_BufferFromHostBuffer
2025-10-03 19:58:25.119 (  44.772s) [        53665000]     memory_instance.cc:57       1| MemoryInstance::getDevice
2025-10-03 19:58:25.119 (  44.772s) [        53665000]      event_instance.cc:222      1| EventInstance::PJRT_Event_OnReady
2025-10-03 19:58:25.119 (  44.772s) [        53665000]      event_instance.cc:171      1| EventInstance::PJRT_Event_Destroy
2025-10-03 19:58:25.123 (  44.776s) [        53665000]  device_description.cc:44       1| DeviceDescription::PJRT_DeviceDescription_Id
2025-10-03 19:58:25.123 (  44.776s) [        53665000]  device_description.cc:44       1| DeviceDescription::PJRT_DeviceDescription_Id
2025-10-03 19:58:25.125 (  44.778s) [        53665000]     device_instance.cc:82       1| DeviceInstance::PJRT_Device_DefaultMemory
2025-10-03 19:58:25.125 (  44.778s) [        53665000]     client_instance.cc:592      1| ClientInstance::PJRT_Client_BufferFromHostBuffer
2025-10-03 19:58:25.125 (  44.778s) [        53665000]     memory_instance.cc:57       1| MemoryInstance::getDevice
2025-10-03 19:58:25.125 (  44.778s) [        53665000]      event_instance.cc:222      1| EventInstance::PJRT_Event_OnReady
2025-10-03 19:58:25.125 (  44.778s) [        53665000]      event_instance.cc:171      1| EventInstance::PJRT_Event_Destroy
2025-10-03 19:58:25.125 (  44.778s) [        53665000]     device_instance.cc:82       1| DeviceInstance::PJRT_Device_DefaultMemory
2025-10-03 19:58:25.125 (  44.778s) [        53665000]     client_instance.cc:592      1| ClientInstance::PJRT_Client_BufferFromHostBuffer
2025-10-03 19:58:25.125 (  44.778s) [        53665000]     memory_instance.cc:57       1| MemoryInstance::getDevice
2025-10-03 19:58:25.125 (  44.778s) [        53665000]      event_instance.cc:222      1| EventInstance::PJRT_Event_OnReady
2025-10-03 19:58:25.125 (  44.778s) [        53665000]      event_instance.cc:171      1| EventInstance::PJRT_Event_Destroy
2025-10-03 19:58:25.125 (  44.778s) [        53665000]  device_description.cc:44       1| DeviceDescription::PJRT_DeviceDescription_Id
2025-10-03 19:58:25.125 (  44.778s) [        53665000]  device_description.cc:44       1| DeviceDescription::PJRT_DeviceDescription_Id
2025-10-03 19:58:25.126 (  44.779s) [        53665000]     device_instance.cc:82       1| DeviceInstance::PJRT_Device_DefaultMemory
2025-10-03 19:58:25.126 (  44.779s) [        53665000]     client_instance.cc:592      1| ClientInstance::PJRT_Client_BufferFromHostBuffer
2025-10-03 19:58:25.126 (  44.779s) [        53665000]     memory_instance.cc:57       1| MemoryInstance::getDevice
2025-10-03 19:58:25.126 (  44.779s) [        53665000]      event_instance.cc:222      1| EventInstance::PJRT_Event_OnReady
2025-10-03 19:58:25.126 (  44.779s) [        53665000]      event_instance.cc:171      1| EventInstance::PJRT_Event_Destroy
2025-10-03 19:58:25.126 (  44.779s) [        53665000]     device_instance.cc:82       1| DeviceInstance::PJRT_Device_DefaultMemory
2025-10-03 19:58:25.126 (  44.779s) [        53665000]     client_instance.cc:592      1| ClientInstance::PJRT_Client_BufferFromHostBuffer
2025-10-03 19:58:25.126 (  44.779s) [        53665000]     memory_instance.cc:57       1| MemoryInstance::getDevice
2025-10-03 19:58:25.126 (  44.779s) [        53665000]      event_instance.cc:222      1| EventInstance::PJRT_Event_OnReady
2025-10-03 19:58:25.126 (  44.779s) [        53665000]      event_instance.cc:171      1| EventInstance::PJRT_Event_Destroy
2025-10-03 19:58:25.126 (  44.779s) [        53665000]  device_description.cc:44       1| DeviceDescription::PJRT_DeviceDescription_Id
2025-10-03 19:58:25.126 (  44.779s) [        53665000]  device_description.cc:44       1| DeviceDescription::PJRT_DeviceDescription_Id
2025-10-03 19:58:25.127 (  44.780s) [        53665000]     device_instance.cc:82       1| DeviceInstance::PJRT_Device_DefaultMemory
2025-10-03 19:58:25.127 (  44.780s) [        53665000]     client_instance.cc:592      1| ClientInstance::PJRT_Client_BufferFromHostBuffer
2025-10-03 19:58:25.127 (  44.780s) [        53665000]     memory_instance.cc:57       1| MemoryInstance::getDevice
2025-10-03 19:58:25.127 (  44.780s) [        53665000]      event_instance.cc:222      1| EventInstance::PJRT_Event_OnReady
2025-10-03 19:58:25.127 (  44.780s) [        53665000]      event_instance.cc:171      1| EventInstance::PJRT_Event_Destroy
2025-10-03 19:58:25.127 (  44.780s) [        53665000]     device_instance.cc:82       1| DeviceInstance::PJRT_Device_DefaultMemory
2025-10-03 19:58:25.127 (  44.780s) [        53665000]     client_instance.cc:592      1| ClientInstance::PJRT_Client_BufferFromHostBuffer
2025-10-03 19:58:25.127 (  44.780s) [        53665000]     memory_instance.cc:57       1| MemoryInstance::getDevice
2025-10-03 19:58:25.127 (  44.780s) [        53665000]      event_instance.cc:222      1| EventInstance::PJRT_Event_OnReady
2025-10-03 19:58:25.127 (  44.780s) [        53665000]      event_instance.cc:171      1| EventInstance::PJRT_Event_Destroy
2025-10-03 19:58:25.127 (  44.780s) [        53665000]  device_description.cc:44       1| DeviceDescription::PJRT_DeviceDescription_Id
2025-10-03 19:58:25.127 (  44.780s) [        53665000]  device_description.cc:44       1| DeviceDescription::PJRT_DeviceDescription_Id
2025-10-03 19:58:25.129 (  44.782s) [        53665000]     device_instance.cc:82       1| DeviceInstance::PJRT_Device_DefaultMemory
2025-10-03 19:58:25.129 (  44.782s) [        53665000]     client_instance.cc:592      1| ClientInstance::PJRT_Client_BufferFromHostBuffer
2025-10-03 19:58:25.129 (  44.782s) [        53665000]     memory_instance.cc:57       1| MemoryInstance::getDevice
2025-10-03 19:58:25.129 (  44.782s) [        53665000]      event_instance.cc:222      1| EventInstance::PJRT_Event_OnReady
2025-10-03 19:58:25.129 (  44.782s) [        53665000]      event_instance.cc:171      1| EventInstance::PJRT_Event_Destroy
2025-10-03 19:58:25.129 (  44.782s) [        53665000]     device_instance.cc:82       1| DeviceInstance::PJRT_Device_DefaultMemory
2025-10-03 19:58:25.129 (  44.782s) [        53665000]     client_instance.cc:592      1| ClientInstance::PJRT_Client_BufferFromHostBuffer
2025-10-03 19:58:25.129 (  44.782s) [        53665000]     memory_instance.cc:57       1| MemoryInstance::getDevice
2025-10-03 19:58:25.129 (  44.782s) [        53665000]      event_instance.cc:222      1| EventInstance::PJRT_Event_OnReady
2025-10-03 19:58:25.129 (  44.782s) [        53665000]      event_instance.cc:171      1| EventInstance::PJRT_Event_Destroy
2025-10-03 19:58:25.129 (  44.782s) [        53665000]  device_description.cc:44       1| DeviceDescription::PJRT_DeviceDescription_Id
2025-10-03 19:58:25.129 (  44.782s) [        53665000]  device_description.cc:44       1| DeviceDescription::PJRT_DeviceDescription_Id
2025-10-03 19:58:25.134 (  44.787s) [        53665000]     device_instance.cc:82       1| DeviceInstance::PJRT_Device_DefaultMemory
2025-10-03 19:58:25.134 (  44.787s) [        53665000]     client_instance.cc:592      1| ClientInstance::PJRT_Client_BufferFromHostBuffer
2025-10-03 19:58:25.134 (  44.787s) [        53665000]     memory_instance.cc:57       1| MemoryInstance::getDevice
2025-10-03 19:58:25.134 (  44.787s) [        53665000]      event_instance.cc:222      1| EventInstance::PJRT_Event_OnReady
2025-10-03 19:58:25.134 (  44.787s) [        53665000]      event_instance.cc:171      1| EventInstance::PJRT_Event_Destroy
2025-10-03 19:58:25.134 (  44.787s) [        53665000]     device_instance.cc:82       1| DeviceInstance::PJRT_Device_DefaultMemory
2025-10-03 19:58:25.134 (  44.787s) [        53665000]     client_instance.cc:592      1| ClientInstance::PJRT_Client_BufferFromHostBuffer
2025-10-03 19:58:25.134 (  44.787s) [        53665000]     memory_instance.cc:57       1| MemoryInstance::getDevice
2025-10-03 19:58:25.134 (  44.787s) [        53665000]      event_instance.cc:222      1| EventInstance::PJRT_Event_OnReady
2025-10-03 19:58:25.134 (  44.787s) [        53665000]      event_instance.cc:171      1| EventInstance::PJRT_Event_Destroy
2025-10-03 19:58:25.138 (  44.791s) [        53665000]  device_description.cc:44       1| DeviceDescription::PJRT_DeviceDescription_Id
2025-10-03 19:58:25.138 (  44.791s) [        53665000]  device_description.cc:44       1| DeviceDescription::PJRT_DeviceDescription_Id
2025-10-03 19:58:25.144 (  44.797s) [        53665000]     device_instance.cc:82       1| DeviceInstance::PJRT_Device_DefaultMemory
2025-10-03 19:58:25.144 (  44.797s) [        53665000]     client_instance.cc:592      1| ClientInstance::PJRT_Client_BufferFromHostBuffer
2025-10-03 19:58:25.144 (  44.797s) [        53665000]     memory_instance.cc:57       1| MemoryInstance::getDevice
2025-10-03 19:58:25.144 (  44.797s) [        53665000]      event_instance.cc:222      1| EventInstance::PJRT_Event_OnReady
2025-10-03 19:58:25.144 (  44.797s) [        53665000]      event_instance.cc:171      1| EventInstance::PJRT_Event_Destroy
2025-10-03 19:58:25.144 (  44.797s) [        53665000]     device_instance.cc:82       1| DeviceInstance::PJRT_Device_DefaultMemory
2025-10-03 19:58:25.144 (  44.797s) [        53665000]     client_instance.cc:592      1| ClientInstance::PJRT_Client_BufferFromHostBuffer
2025-10-03 19:58:25.144 (  44.797s) [        53665000]     memory_instance.cc:57       1| MemoryInstance::getDevice
2025-10-03 19:58:25.144 (  44.797s) [        53665000]      event_instance.cc:222      1| EventInstance::PJRT_Event_OnReady
2025-10-03 19:58:25.144 (  44.797s) [        53665000]      event_instance.cc:171      1| EventInstance::PJRT_Event_Destroy
2025-10-03 19:58:25.148 (  44.801s) [        53665000]  device_description.cc:44       1| DeviceDescription::PJRT_DeviceDescription_Id
2025-10-03 19:58:25.148 (  44.801s) [        53665000]  device_description.cc:44       1| DeviceDescription::PJRT_DeviceDescription_Id
2025-10-03 19:58:25.154 (  44.807s) [        53665000]     device_instance.cc:82       1| DeviceInstance::PJRT_Device_DefaultMemory
2025-10-03 19:58:25.154 (  44.807s) [        53665000]     client_instance.cc:592      1| ClientInstance::PJRT_Client_BufferFromHostBuffer
2025-10-03 19:58:25.154 (  44.807s) [        53665000]     memory_instance.cc:57       1| MemoryInstance::getDevice
2025-10-03 19:58:25.154 (  44.807s) [        53665000]      event_instance.cc:222      1| EventInstance::PJRT_Event_OnReady
2025-10-03 19:58:25.154 (  44.807s) [        53665000]      event_instance.cc:171      1| EventInstance::PJRT_Event_Destroy
2025-10-03 19:58:25.154 (  44.807s) [        53665000]     device_instance.cc:82       1| DeviceInstance::PJRT_Device_DefaultMemory
2025-10-03 19:58:25.154 (  44.807s) [        53665000]     client_instance.cc:592      1| ClientInstance::PJRT_Client_BufferFromHostBuffer
2025-10-03 19:58:25.154 (  44.807s) [        53665000]     memory_instance.cc:57       1| MemoryInstance::getDevice
2025-10-03 19:58:25.154 (  44.807s) [        53665000]      event_instance.cc:222      1| EventInstance::PJRT_Event_OnReady
2025-10-03 19:58:25.154 (  44.807s) [        53665000]      event_instance.cc:171      1| EventInstance::PJRT_Event_Destroy
2025-10-03 19:58:25.159 (  44.812s) [        53665000]  device_description.cc:44       1| DeviceDescription::PJRT_DeviceDescription_Id
2025-10-03 19:58:25.159 (  44.812s) [        53665000]  device_description.cc:44       1| DeviceDescription::PJRT_DeviceDescription_Id
2025-10-03 19:58:25.160 (  44.813s) [        53665000]     device_instance.cc:82       1| DeviceInstance::PJRT_Device_DefaultMemory
2025-10-03 19:58:25.160 (  44.813s) [        53665000]     client_instance.cc:592      1| ClientInstance::PJRT_Client_BufferFromHostBuffer
2025-10-03 19:58:25.160 (  44.813s) [        53665000]     memory_instance.cc:57       1| MemoryInstance::getDevice
2025-10-03 19:58:25.160 (  44.813s) [        53665000]      event_instance.cc:222      1| EventInstance::PJRT_Event_OnReady
2025-10-03 19:58:25.160 (  44.813s) [        53665000]      event_instance.cc:171      1| EventInstance::PJRT_Event_Destroy
2025-10-03 19:58:25.160 (  44.813s) [        53665000]     device_instance.cc:82       1| DeviceInstance::PJRT_Device_DefaultMemory
2025-10-03 19:58:25.160 (  44.813s) [        53665000]     client_instance.cc:592      1| ClientInstance::PJRT_Client_BufferFromHostBuffer
2025-10-03 19:58:25.160 (  44.813s) [        53665000]     memory_instance.cc:57       1| MemoryInstance::getDevice
2025-10-03 19:58:25.160 (  44.813s) [        53665000]      event_instance.cc:222      1| EventInstance::PJRT_Event_OnReady
2025-10-03 19:58:25.160 (  44.813s) [        53665000]      event_instance.cc:171      1| EventInstance::PJRT_Event_Destroy
2025-10-03 19:58:25.160 (  44.813s) [        53665000]  device_description.cc:44       1| DeviceDescription::PJRT_DeviceDescription_Id
2025-10-03 19:58:25.160 (  44.813s) [        53665000]  device_description.cc:44       1| DeviceDescription::PJRT_DeviceDescription_Id
2025-10-03 19:58:25.161 (  44.814s) [        53665000]     device_instance.cc:82       1| DeviceInstance::PJRT_Device_DefaultMemory
2025-10-03 19:58:25.161 (  44.814s) [        53665000]     client_instance.cc:592      1| ClientInstance::PJRT_Client_BufferFromHostBuffer
2025-10-03 19:58:25.161 (  44.814s) [        53665000]     memory_instance.cc:57       1| MemoryInstance::getDevice
2025-10-03 19:58:25.161 (  44.814s) [        53665000]      event_instance.cc:222      1| EventInstance::PJRT_Event_OnReady
2025-10-03 19:58:25.161 (  44.814s) [        53665000]      event_instance.cc:171      1| EventInstance::PJRT_Event_Destroy
2025-10-03 19:58:25.161 (  44.814s) [        53665000]     device_instance.cc:82       1| DeviceInstance::PJRT_Device_DefaultMemory
2025-10-03 19:58:25.161 (  44.814s) [        53665000]     client_instance.cc:592      1| ClientInstance::PJRT_Client_BufferFromHostBuffer
2025-10-03 19:58:25.161 (  44.814s) [        53665000]     memory_instance.cc:57       1| MemoryInstance::getDevice
2025-10-03 19:58:25.161 (  44.814s) [        53665000]      event_instance.cc:222      1| EventInstance::PJRT_Event_OnReady
2025-10-03 19:58:25.161 (  44.814s) [        53665000]      event_instance.cc:171      1| EventInstance::PJRT_Event_Destroy
2025-10-03 19:58:25.161 (  44.814s) [        53665000]  device_description.cc:44       1| DeviceDescription::PJRT_DeviceDescription_Id
2025-10-03 19:58:25.161 (  44.814s) [        53665000]  device_description.cc:44       1| DeviceDescription::PJRT_DeviceDescription_Id
2025-10-03 19:58:25.162 (  44.815s) [        53665000]     device_instance.cc:82       1| DeviceInstance::PJRT_Device_DefaultMemory
2025-10-03 19:58:25.162 (  44.815s) [        53665000]     client_instance.cc:592      1| ClientInstance::PJRT_Client_BufferFromHostBuffer
2025-10-03 19:58:25.162 (  44.815s) [        53665000]     memory_instance.cc:57       1| MemoryInstance::getDevice
2025-10-03 19:58:25.163 (  44.816s) [        53665000]      event_instance.cc:222      1| EventInstance::PJRT_Event_OnReady
2025-10-03 19:58:25.163 (  44.816s) [        53665000]      event_instance.cc:171      1| EventInstance::PJRT_Event_Destroy
2025-10-03 19:58:25.163 (  44.816s) [        53665000]     device_instance.cc:82       1| DeviceInstance::PJRT_Device_DefaultMemory
2025-10-03 19:58:25.163 (  44.816s) [        53665000]     client_instance.cc:592      1| ClientInstance::PJRT_Client_BufferFromHostBuffer
2025-10-03 19:58:25.163 (  44.816s) [        53665000]     memory_instance.cc:57       1| MemoryInstance::getDevice
2025-10-03 19:58:25.163 (  44.816s) [        53665000]      event_instance.cc:222      1| EventInstance::PJRT_Event_OnReady
2025-10-03 19:58:25.163 (  44.816s) [        53665000]      event_instance.cc:171      1| EventInstance::PJRT_Event_Destroy
2025-10-03 19:58:25.163 (  44.816s) [        53665000]  device_description.cc:44       1| DeviceDescription::PJRT_DeviceDescription_Id
2025-10-03 19:58:25.163 (  44.816s) [        53665000]  device_description.cc:44       1| DeviceDescription::PJRT_DeviceDescription_Id
2025-10-03 19:58:25.164 (  44.817s) [        53665000]     device_instance.cc:82       1| DeviceInstance::PJRT_Device_DefaultMemory
2025-10-03 19:58:25.164 (  44.817s) [        53665000]     client_instance.cc:592      1| ClientInstance::PJRT_Client_BufferFromHostBuffer
2025-10-03 19:58:25.164 (  44.817s) [        53665000]     memory_instance.cc:57       1| MemoryInstance::getDevice
2025-10-03 19:58:25.164 (  44.817s) [        53665000]      event_instance.cc:222      1| EventInstance::PJRT_Event_OnReady
2025-10-03 19:58:25.164 (  44.817s) [        53665000]      event_instance.cc:171      1| EventInstance::PJRT_Event_Destroy
2025-10-03 19:58:25.164 (  44.817s) [        53665000]     device_instance.cc:82       1| DeviceInstance::PJRT_Device_DefaultMemory
2025-10-03 19:58:25.164 (  44.817s) [        53665000]     client_instance.cc:592      1| ClientInstance::PJRT_Client_BufferFromHostBuffer
2025-10-03 19:58:25.164 (  44.817s) [        53665000]     memory_instance.cc:57       1| MemoryInstance::getDevice
2025-10-03 19:58:25.164 (  44.817s) [        53665000]      event_instance.cc:222      1| EventInstance::PJRT_Event_OnReady
2025-10-03 19:58:25.164 (  44.817s) [        53665000]      event_instance.cc:171      1| EventInstance::PJRT_Event_Destroy
2025-10-03 19:58:25.164 (  44.817s) [        53665000]  device_description.cc:44       1| DeviceDescription::PJRT_DeviceDescription_Id
2025-10-03 19:58:25.164 (  44.818s) [        53665000]  device_description.cc:44       1| DeviceDescription::PJRT_DeviceDescription_Id
2025-10-03 19:58:25.169 (  44.823s) [        53665000]     device_instance.cc:82       1| DeviceInstance::PJRT_Device_DefaultMemory
2025-10-03 19:58:25.169 (  44.823s) [        53665000]     client_instance.cc:592      1| ClientInstance::PJRT_Client_BufferFromHostBuffer
2025-10-03 19:58:25.169 (  44.823s) [        53665000]     memory_instance.cc:57       1| MemoryInstance::getDevice
2025-10-03 19:58:25.170 (  44.823s) [        53665000]      event_instance.cc:222      1| EventInstance::PJRT_Event_OnReady
2025-10-03 19:58:25.170 (  44.823s) [        53665000]      event_instance.cc:171      1| EventInstance::PJRT_Event_Destroy
2025-10-03 19:58:25.170 (  44.823s) [        53665000]     device_instance.cc:82       1| DeviceInstance::PJRT_Device_DefaultMemory
2025-10-03 19:58:25.170 (  44.823s) [        53665000]     client_instance.cc:592      1| ClientInstance::PJRT_Client_BufferFromHostBuffer
2025-10-03 19:58:25.170 (  44.823s) [        53665000]     memory_instance.cc:57       1| MemoryInstance::getDevice
2025-10-03 19:58:25.170 (  44.823s) [        53665000]      event_instance.cc:222      1| EventInstance::PJRT_Event_OnReady
2025-10-03 19:58:25.170 (  44.823s) [        53665000]      event_instance.cc:171      1| EventInstance::PJRT_Event_Destroy
2025-10-03 19:58:25.174 (  44.827s) [        53665000]  device_description.cc:44       1| DeviceDescription::PJRT_DeviceDescription_Id
2025-10-03 19:58:25.174 (  44.827s) [        53665000]  device_description.cc:44       1| DeviceDescription::PJRT_DeviceDescription_Id
2025-10-03 19:58:25.179 (  44.832s) [        53665000]     device_instance.cc:82       1| DeviceInstance::PJRT_Device_DefaultMemory
2025-10-03 19:58:25.179 (  44.832s) [        53665000]     client_instance.cc:592      1| ClientInstance::PJRT_Client_BufferFromHostBuffer
2025-10-03 19:58:25.179 (  44.832s) [        53665000]     memory_instance.cc:57       1| MemoryInstance::getDevice
2025-10-03 19:58:25.179 (  44.832s) [        53665000]      event_instance.cc:222      1| EventInstance::PJRT_Event_OnReady
2025-10-03 19:58:25.179 (  44.832s) [        53665000]      event_instance.cc:171      1| EventInstance::PJRT_Event_Destroy
2025-10-03 19:58:25.179 (  44.832s) [        53665000]     device_instance.cc:82       1| DeviceInstance::PJRT_Device_DefaultMemory
2025-10-03 19:58:25.179 (  44.832s) [        53665000]     client_instance.cc:592      1| ClientInstance::PJRT_Client_BufferFromHostBuffer
2025-10-03 19:58:25.179 (  44.832s) [        53665000]     memory_instance.cc:57       1| MemoryInstance::getDevice
2025-10-03 19:58:25.179 (  44.833s) [        53665000]      event_instance.cc:222      1| EventInstance::PJRT_Event_OnReady
2025-10-03 19:58:25.179 (  44.833s) [        53665000]      event_instance.cc:171      1| EventInstance::PJRT_Event_Destroy
2025-10-03 19:58:25.183 (  44.836s) [        53665000]  device_description.cc:44       1| DeviceDescription::PJRT_DeviceDescription_Id
2025-10-03 19:58:25.183 (  44.836s) [        53665000]  device_description.cc:44       1| DeviceDescription::PJRT_DeviceDescription_Id
2025-10-03 19:58:25.189 (  44.842s) [        53665000]     device_instance.cc:82       1| DeviceInstance::PJRT_Device_DefaultMemory
2025-10-03 19:58:25.189 (  44.842s) [        53665000]     client_instance.cc:592      1| ClientInstance::PJRT_Client_BufferFromHostBuffer
2025-10-03 19:58:25.189 (  44.842s) [        53665000]     memory_instance.cc:57       1| MemoryInstance::getDevice
2025-10-03 19:58:25.189 (  44.842s) [        53665000]      event_instance.cc:222      1| EventInstance::PJRT_Event_OnReady
2025-10-03 19:58:25.189 (  44.842s) [        53665000]      event_instance.cc:171      1| EventInstance::PJRT_Event_Destroy
2025-10-03 19:58:25.189 (  44.842s) [        53665000]     device_instance.cc:82       1| DeviceInstance::PJRT_Device_DefaultMemory
2025-10-03 19:58:25.189 (  44.842s) [        53665000]     client_instance.cc:592      1| ClientInstance::PJRT_Client_BufferFromHostBuffer
2025-10-03 19:58:25.189 (  44.842s) [        53665000]     memory_instance.cc:57       1| MemoryInstance::getDevice
2025-10-03 19:58:25.189 (  44.842s) [        53665000]      event_instance.cc:222      1| EventInstance::PJRT_Event_OnReady
2025-10-03 19:58:25.189 (  44.842s) [        53665000]      event_instance.cc:171      1| EventInstance::PJRT_Event_Destroy
2025-10-03 19:58:25.194 (  44.847s) [        53665000]  device_description.cc:44       1| DeviceDescription::PJRT_DeviceDescription_Id
2025-10-03 19:58:25.194 (  44.847s) [        53665000]  device_description.cc:44       1| DeviceDescription::PJRT_DeviceDescription_Id
2025-10-03 19:58:25.195 (  44.848s) [        53665000]     device_instance.cc:82       1| DeviceInstance::PJRT_Device_DefaultMemory
2025-10-03 19:58:25.195 (  44.848s) [        53665000]     client_instance.cc:592      1| ClientInstance::PJRT_Client_BufferFromHostBuffer
2025-10-03 19:58:25.195 (  44.848s) [        53665000]     memory_instance.cc:57       1| MemoryInstance::getDevice
2025-10-03 19:58:25.196 (  44.849s) [        53665000]      event_instance.cc:222      1| EventInstance::PJRT_Event_OnReady
2025-10-03 19:58:25.196 (  44.849s) [        53665000]      event_instance.cc:171      1| EventInstance::PJRT_Event_Destroy
2025-10-03 19:58:25.196 (  44.849s) [        53665000]     device_instance.cc:82       1| DeviceInstance::PJRT_Device_DefaultMemory
2025-10-03 19:58:25.196 (  44.849s) [        53665000]     client_instance.cc:592      1| ClientInstance::PJRT_Client_BufferFromHostBuffer
2025-10-03 19:58:25.196 (  44.849s) [        53665000]     memory_instance.cc:57       1| MemoryInstance::getDevice
2025-10-03 19:58:25.196 (  44.849s) [        53665000]      event_instance.cc:222      1| EventInstance::PJRT_Event_OnReady
2025-10-03 19:58:25.196 (  44.849s) [        53665000]      event_instance.cc:171      1| EventInstance::PJRT_Event_Destroy
2025-10-03 19:58:25.196 (  44.849s) [        53665000]  device_description.cc:44       1| DeviceDescription::PJRT_DeviceDescription_Id
2025-10-03 19:58:25.196 (  44.849s) [        53665000]  device_description.cc:44       1| DeviceDescription::PJRT_DeviceDescription_Id
2025-10-03 19:58:25.196 (  44.849s) [        53665000]     device_instance.cc:82       1| DeviceInstance::PJRT_Device_DefaultMemory
2025-10-03 19:58:25.196 (  44.849s) [        53665000]     client_instance.cc:592      1| ClientInstance::PJRT_Client_BufferFromHostBuffer
2025-10-03 19:58:25.196 (  44.849s) [        53665000]     memory_instance.cc:57       1| MemoryInstance::getDevice
2025-10-03 19:58:25.196 (  44.849s) [        53665000]      event_instance.cc:222      1| EventInstance::PJRT_Event_OnReady
2025-10-03 19:58:25.196 (  44.849s) [        53665000]      event_instance.cc:171      1| EventInstance::PJRT_Event_Destroy
2025-10-03 19:58:25.196 (  44.849s) [        53665000]     device_instance.cc:82       1| DeviceInstance::PJRT_Device_DefaultMemory
2025-10-03 19:58:25.196 (  44.849s) [        53665000]     client_instance.cc:592      1| ClientInstance::PJRT_Client_BufferFromHostBuffer
2025-10-03 19:58:25.196 (  44.849s) [        53665000]     memory_instance.cc:57       1| MemoryInstance::getDevice
2025-10-03 19:58:25.196 (  44.849s) [        53665000]      event_instance.cc:222      1| EventInstance::PJRT_Event_OnReady
2025-10-03 19:58:25.196 (  44.849s) [        53665000]      event_instance.cc:171      1| EventInstance::PJRT_Event_Destroy
2025-10-03 19:58:25.197 (  44.850s) [        53665000]  device_description.cc:44       1| DeviceDescription::PJRT_DeviceDescription_Id
2025-10-03 19:58:25.197 (  44.850s) [        53665000]  device_description.cc:44       1| DeviceDescription::PJRT_DeviceDescription_Id
2025-10-03 19:58:25.198 (  44.851s) [        53665000]     device_instance.cc:82       1| DeviceInstance::PJRT_Device_DefaultMemory
2025-10-03 19:58:25.198 (  44.851s) [        53665000]     client_instance.cc:592      1| ClientInstance::PJRT_Client_BufferFromHostBuffer
2025-10-03 19:58:25.198 (  44.851s) [        53665000]     memory_instance.cc:57       1| MemoryInstance::getDevice
2025-10-03 19:58:25.198 (  44.851s) [        53665000]      event_instance.cc:222      1| EventInstance::PJRT_Event_OnReady
2025-10-03 19:58:25.198 (  44.851s) [        53665000]      event_instance.cc:171      1| EventInstance::PJRT_Event_Destroy
2025-10-03 19:58:25.198 (  44.851s) [        53665000]     device_instance.cc:82       1| DeviceInstance::PJRT_Device_DefaultMemory
2025-10-03 19:58:25.198 (  44.851s) [        53665000]     client_instance.cc:592      1| ClientInstance::PJRT_Client_BufferFromHostBuffer
2025-10-03 19:58:25.198 (  44.851s) [        53665000]     memory_instance.cc:57       1| MemoryInstance::getDevice
2025-10-03 19:58:25.198 (  44.851s) [        53665000]      event_instance.cc:222      1| EventInstance::PJRT_Event_OnReady
2025-10-03 19:58:25.198 (  44.851s) [        53665000]      event_instance.cc:171      1| EventInstance::PJRT_Event_Destroy
2025-10-03 19:58:25.198 (  44.852s) [        53665000]  device_description.cc:44       1| DeviceDescription::PJRT_DeviceDescription_Id
2025-10-03 19:58:25.198 (  44.852s) [        53665000]  device_description.cc:44       1| DeviceDescription::PJRT_DeviceDescription_Id
2025-10-03 19:58:25.200 (  44.853s) [        53665000]     device_instance.cc:82       1| DeviceInstance::PJRT_Device_DefaultMemory
2025-10-03 19:58:25.200 (  44.853s) [        53665000]     client_instance.cc:592      1| ClientInstance::PJRT_Client_BufferFromHostBuffer
2025-10-03 19:58:25.200 (  44.853s) [        53665000]     memory_instance.cc:57       1| MemoryInstance::getDevice
2025-10-03 19:58:25.200 (  44.853s) [        53665000]      event_instance.cc:222      1| EventInstance::PJRT_Event_OnReady
2025-10-03 19:58:25.200 (  44.853s) [        53665000]      event_instance.cc:171      1| EventInstance::PJRT_Event_Destroy
2025-10-03 19:58:25.200 (  44.853s) [        53665000]     device_instance.cc:82       1| DeviceInstance::PJRT_Device_DefaultMemory
2025-10-03 19:58:25.200 (  44.853s) [        53665000]     client_instance.cc:592      1| ClientInstance::PJRT_Client_BufferFromHostBuffer
2025-10-03 19:58:25.200 (  44.853s) [        53665000]     memory_instance.cc:57       1| MemoryInstance::getDevice
2025-10-03 19:58:25.200 (  44.853s) [        53665000]      event_instance.cc:222      1| EventInstance::PJRT_Event_OnReady
2025-10-03 19:58:25.200 (  44.853s) [        53665000]      event_instance.cc:171      1| EventInstance::PJRT_Event_Destroy
2025-10-03 19:58:25.200 (  44.853s) [        53665000]  device_description.cc:44       1| DeviceDescription::PJRT_DeviceDescription_Id
2025-10-03 19:58:25.200 (  44.853s) [        53665000]  device_description.cc:44       1| DeviceDescription::PJRT_DeviceDescription_Id
2025-10-03 19:58:25.205 (  44.858s) [        53665000]     device_instance.cc:82       1| DeviceInstance::PJRT_Device_DefaultMemory
2025-10-03 19:58:25.205 (  44.858s) [        53665000]     client_instance.cc:592      1| ClientInstance::PJRT_Client_BufferFromHostBuffer
2025-10-03 19:58:25.205 (  44.858s) [        53665000]     memory_instance.cc:57       1| MemoryInstance::getDevice
2025-10-03 19:58:25.205 (  44.858s) [        53665000]      event_instance.cc:222      1| EventInstance::PJRT_Event_OnReady
2025-10-03 19:58:25.205 (  44.858s) [        53665000]      event_instance.cc:171      1| EventInstance::PJRT_Event_Destroy
2025-10-03 19:58:25.205 (  44.858s) [        53665000]     device_instance.cc:82       1| DeviceInstance::PJRT_Device_DefaultMemory
2025-10-03 19:58:25.205 (  44.858s) [        53665000]     client_instance.cc:592      1| ClientInstance::PJRT_Client_BufferFromHostBuffer
2025-10-03 19:58:25.205 (  44.858s) [        53665000]     memory_instance.cc:57       1| MemoryInstance::getDevice
2025-10-03 19:58:25.205 (  44.859s) [        53665000]      event_instance.cc:222      1| EventInstance::PJRT_Event_OnReady
2025-10-03 19:58:25.205 (  44.859s) [        53665000]      event_instance.cc:171      1| EventInstance::PJRT_Event_Destroy
2025-10-03 19:58:25.210 (  44.863s) [        53665000]  device_description.cc:44       1| DeviceDescription::PJRT_DeviceDescription_Id
2025-10-03 19:58:25.210 (  44.863s) [        53665000]  device_description.cc:44       1| DeviceDescription::PJRT_DeviceDescription_Id
2025-10-03 19:58:25.216 (  44.869s) [        53665000]     device_instance.cc:82       1| DeviceInstance::PJRT_Device_DefaultMemory
2025-10-03 19:58:25.216 (  44.869s) [        53665000]     client_instance.cc:592      1| ClientInstance::PJRT_Client_BufferFromHostBuffer
2025-10-03 19:58:25.216 (  44.869s) [        53665000]     memory_instance.cc:57       1| MemoryInstance::getDevice
2025-10-03 19:58:25.216 (  44.869s) [        53665000]      event_instance.cc:222      1| EventInstance::PJRT_Event_OnReady
2025-10-03 19:58:25.216 (  44.869s) [        53665000]      event_instance.cc:171      1| EventInstance::PJRT_Event_Destroy
2025-10-03 19:58:25.216 (  44.869s) [        53665000]     device_instance.cc:82       1| DeviceInstance::PJRT_Device_DefaultMemory
2025-10-03 19:58:25.216 (  44.869s) [        53665000]     client_instance.cc:592      1| ClientInstance::PJRT_Client_BufferFromHostBuffer
2025-10-03 19:58:25.216 (  44.869s) [        53665000]     memory_instance.cc:57       1| MemoryInstance::getDevice
2025-10-03 19:58:25.216 (  44.869s) [        53665000]      event_instance.cc:222      1| EventInstance::PJRT_Event_OnReady
2025-10-03 19:58:25.216 (  44.869s) [        53665000]      event_instance.cc:171      1| EventInstance::PJRT_Event_Destroy
2025-10-03 19:58:25.221 (  44.874s) [        53665000]  device_description.cc:44       1| DeviceDescription::PJRT_DeviceDescription_Id
2025-10-03 19:58:25.221 (  44.874s) [        53665000]  device_description.cc:44       1| DeviceDescription::PJRT_DeviceDescription_Id
2025-10-03 19:58:25.226 (  44.879s) [        53665000]     device_instance.cc:82       1| DeviceInstance::PJRT_Device_DefaultMemory
2025-10-03 19:58:25.226 (  44.879s) [        53665000]     client_instance.cc:592      1| ClientInstance::PJRT_Client_BufferFromHostBuffer
2025-10-03 19:58:25.226 (  44.879s) [        53665000]     memory_instance.cc:57       1| MemoryInstance::getDevice
2025-10-03 19:58:25.226 (  44.880s) [        53665000]      event_instance.cc:222      1| EventInstance::PJRT_Event_OnReady
2025-10-03 19:58:25.226 (  44.880s) [        53665000]      event_instance.cc:171      1| EventInstance::PJRT_Event_Destroy
2025-10-03 19:58:25.226 (  44.880s) [        53665000]     device_instance.cc:82       1| DeviceInstance::PJRT_Device_DefaultMemory
2025-10-03 19:58:25.227 (  44.880s) [        53665000]     client_instance.cc:592      1| ClientInstance::PJRT_Client_BufferFromHostBuffer
2025-10-03 19:58:25.227 (  44.880s) [        53665000]     memory_instance.cc:57       1| MemoryInstance::getDevice
2025-10-03 19:58:25.227 (  44.880s) [        53665000]      event_instance.cc:222      1| EventInstance::PJRT_Event_OnReady
2025-10-03 19:58:25.227 (  44.880s) [        53665000]      event_instance.cc:171      1| EventInstance::PJRT_Event_Destroy
2025-10-03 19:58:25.231 (  44.884s) [        53665000]  device_description.cc:44       1| DeviceDescription::PJRT_DeviceDescription_Id
2025-10-03 19:58:25.231 (  44.884s) [        53665000]  device_description.cc:44       1| DeviceDescription::PJRT_DeviceDescription_Id
2025-10-03 19:58:25.233 (  44.886s) [        53665000]     device_instance.cc:82       1| DeviceInstance::PJRT_Device_DefaultMemory
2025-10-03 19:58:25.233 (  44.886s) [        53665000]     client_instance.cc:592      1| ClientInstance::PJRT_Client_BufferFromHostBuffer
2025-10-03 19:58:25.233 (  44.886s) [        53665000]     memory_instance.cc:57       1| MemoryInstance::getDevice
2025-10-03 19:58:25.233 (  44.886s) [        53665000]      event_instance.cc:222      1| EventInstance::PJRT_Event_OnReady
2025-10-03 19:58:25.233 (  44.886s) [        53665000]      event_instance.cc:171      1| EventInstance::PJRT_Event_Destroy
2025-10-03 19:58:25.233 (  44.886s) [        53665000]     device_instance.cc:82       1| DeviceInstance::PJRT_Device_DefaultMemory
2025-10-03 19:58:25.233 (  44.886s) [        53665000]     client_instance.cc:592      1| ClientInstance::PJRT_Client_BufferFromHostBuffer
2025-10-03 19:58:25.233 (  44.886s) [        53665000]     memory_instance.cc:57       1| MemoryInstance::getDevice
2025-10-03 19:58:25.233 (  44.886s) [        53665000]      event_instance.cc:222      1| EventInstance::PJRT_Event_OnReady
2025-10-03 19:58:25.233 (  44.886s) [        53665000]      event_instance.cc:171      1| EventInstance::PJRT_Event_Destroy
2025-10-03 19:58:25.233 (  44.886s) [        53665000]  device_description.cc:44       1| DeviceDescription::PJRT_DeviceDescription_Id
2025-10-03 19:58:25.233 (  44.886s) [        53665000]  device_description.cc:44       1| DeviceDescription::PJRT_DeviceDescription_Id
2025-10-03 19:58:25.234 (  44.887s) [        53665000]     device_instance.cc:82       1| DeviceInstance::PJRT_Device_DefaultMemory
2025-10-03 19:58:25.234 (  44.887s) [        53665000]     client_instance.cc:592      1| ClientInstance::PJRT_Client_BufferFromHostBuffer
2025-10-03 19:58:25.234 (  44.887s) [        53665000]     memory_instance.cc:57       1| MemoryInstance::getDevice
2025-10-03 19:58:25.234 (  44.887s) [        53665000]      event_instance.cc:222      1| EventInstance::PJRT_Event_OnReady
2025-10-03 19:58:25.234 (  44.887s) [        53665000]      event_instance.cc:171      1| EventInstance::PJRT_Event_Destroy
2025-10-03 19:58:25.234 (  44.887s) [        53665000]     device_instance.cc:82       1| DeviceInstance::PJRT_Device_DefaultMemory
2025-10-03 19:58:25.234 (  44.887s) [        53665000]     client_instance.cc:592      1| ClientInstance::PJRT_Client_BufferFromHostBuffer
2025-10-03 19:58:25.234 (  44.887s) [        53665000]     memory_instance.cc:57       1| MemoryInstance::getDevice
2025-10-03 19:58:25.234 (  44.887s) [        53665000]      event_instance.cc:222      1| EventInstance::PJRT_Event_OnReady
2025-10-03 19:58:25.234 (  44.887s) [        53665000]      event_instance.cc:171      1| EventInstance::PJRT_Event_Destroy
2025-10-03 19:58:25.234 (  44.887s) [        53665000]  device_description.cc:44       1| DeviceDescription::PJRT_DeviceDescription_Id
2025-10-03 19:58:25.234 (  44.887s) [        53665000]  device_description.cc:44       1| DeviceDescription::PJRT_DeviceDescription_Id
2025-10-03 19:58:25.235 (  44.888s) [        53665000]     device_instance.cc:82       1| DeviceInstance::PJRT_Device_DefaultMemory
2025-10-03 19:58:25.235 (  44.888s) [        53665000]     client_instance.cc:592      1| ClientInstance::PJRT_Client_BufferFromHostBuffer
2025-10-03 19:58:25.235 (  44.888s) [        53665000]     memory_instance.cc:57       1| MemoryInstance::getDevice
2025-10-03 19:58:25.236 (  44.889s) [        53665000]      event_instance.cc:222      1| EventInstance::PJRT_Event_OnReady
2025-10-03 19:58:25.236 (  44.889s) [        53665000]      event_instance.cc:171      1| EventInstance::PJRT_Event_Destroy
2025-10-03 19:58:25.236 (  44.889s) [        53665000]     device_instance.cc:82       1| DeviceInstance::PJRT_Device_DefaultMemory
2025-10-03 19:58:25.236 (  44.889s) [        53665000]     client_instance.cc:592      1| ClientInstance::PJRT_Client_BufferFromHostBuffer
2025-10-03 19:58:25.236 (  44.889s) [        53665000]     memory_instance.cc:57       1| MemoryInstance::getDevice
2025-10-03 19:58:25.236 (  44.889s) [        53665000]      event_instance.cc:222      1| EventInstance::PJRT_Event_OnReady
2025-10-03 19:58:25.236 (  44.889s) [        53665000]      event_instance.cc:171      1| EventInstance::PJRT_Event_Destroy
2025-10-03 19:58:25.236 (  44.889s) [        53665000]  device_description.cc:44       1| DeviceDescription::PJRT_DeviceDescription_Id
2025-10-03 19:58:25.236 (  44.889s) [        53665000]  device_description.cc:44       1| DeviceDescription::PJRT_DeviceDescription_Id
2025-10-03 19:58:25.237 (  44.890s) [        53665000]     device_instance.cc:82       1| DeviceInstance::PJRT_Device_DefaultMemory
2025-10-03 19:58:25.237 (  44.890s) [        53665000]     client_instance.cc:592      1| ClientInstance::PJRT_Client_BufferFromHostBuffer
2025-10-03 19:58:25.237 (  44.890s) [        53665000]     memory_instance.cc:57       1| MemoryInstance::getDevice
2025-10-03 19:58:25.237 (  44.890s) [        53665000]      event_instance.cc:222      1| EventInstance::PJRT_Event_OnReady
2025-10-03 19:58:25.237 (  44.890s) [        53665000]      event_instance.cc:171      1| EventInstance::PJRT_Event_Destroy
2025-10-03 19:58:25.237 (  44.890s) [        53665000]     device_instance.cc:82       1| DeviceInstance::PJRT_Device_DefaultMemory
2025-10-03 19:58:25.237 (  44.890s) [        53665000]     client_instance.cc:592      1| ClientInstance::PJRT_Client_BufferFromHostBuffer
2025-10-03 19:58:25.237 (  44.890s) [        53665000]     memory_instance.cc:57       1| MemoryInstance::getDevice
2025-10-03 19:58:25.237 (  44.890s) [        53665000]      event_instance.cc:222      1| EventInstance::PJRT_Event_OnReady
2025-10-03 19:58:25.237 (  44.890s) [        53665000]      event_instance.cc:171      1| EventInstance::PJRT_Event_Destroy
2025-10-03 19:58:25.237 (  44.890s) [        53665000]  device_description.cc:44       1| DeviceDescription::PJRT_DeviceDescription_Id
2025-10-03 19:58:25.237 (  44.891s) [        53665000]  device_description.cc:44       1| DeviceDescription::PJRT_DeviceDescription_Id
2025-10-03 19:58:25.242 (  44.896s) [        53665000]     device_instance.cc:82       1| DeviceInstance::PJRT_Device_DefaultMemory
2025-10-03 19:58:25.243 (  44.896s) [        53665000]     client_instance.cc:592      1| ClientInstance::PJRT_Client_BufferFromHostBuffer
2025-10-03 19:58:25.243 (  44.896s) [        53665000]     memory_instance.cc:57       1| MemoryInstance::getDevice
2025-10-03 19:58:25.243 (  44.896s) [        53665000]      event_instance.cc:222      1| EventInstance::PJRT_Event_OnReady
2025-10-03 19:58:25.243 (  44.896s) [        53665000]      event_instance.cc:171      1| EventInstance::PJRT_Event_Destroy
2025-10-03 19:58:25.243 (  44.896s) [        53665000]     device_instance.cc:82       1| DeviceInstance::PJRT_Device_DefaultMemory
2025-10-03 19:58:25.243 (  44.896s) [        53665000]     client_instance.cc:592      1| ClientInstance::PJRT_Client_BufferFromHostBuffer
2025-10-03 19:58:25.243 (  44.896s) [        53665000]     memory_instance.cc:57       1| MemoryInstance::getDevice
2025-10-03 19:58:25.243 (  44.896s) [        53665000]      event_instance.cc:222      1| EventInstance::PJRT_Event_OnReady
2025-10-03 19:58:25.243 (  44.896s) [        53665000]      event_instance.cc:171      1| EventInstance::PJRT_Event_Destroy
2025-10-03 19:58:25.247 (  44.900s) [        53665000]  device_description.cc:44       1| DeviceDescription::PJRT_DeviceDescription_Id
2025-10-03 19:58:25.247 (  44.900s) [        53665000]  device_description.cc:44       1| DeviceDescription::PJRT_DeviceDescription_Id
2025-10-03 19:58:25.253 (  44.906s) [        53665000]     device_instance.cc:82       1| DeviceInstance::PJRT_Device_DefaultMemory
2025-10-03 19:58:25.253 (  44.906s) [        53665000]     client_instance.cc:592      1| ClientInstance::PJRT_Client_BufferFromHostBuffer
2025-10-03 19:58:25.253 (  44.906s) [        53665000]     memory_instance.cc:57       1| MemoryInstance::getDevice
2025-10-03 19:58:25.253 (  44.906s) [        53665000]      event_instance.cc:222      1| EventInstance::PJRT_Event_OnReady
2025-10-03 19:58:25.253 (  44.906s) [        53665000]      event_instance.cc:171      1| EventInstance::PJRT_Event_Destroy
2025-10-03 19:58:25.253 (  44.906s) [        53665000]     device_instance.cc:82       1| DeviceInstance::PJRT_Device_DefaultMemory
2025-10-03 19:58:25.253 (  44.906s) [        53665000]     client_instance.cc:592      1| ClientInstance::PJRT_Client_BufferFromHostBuffer
2025-10-03 19:58:25.253 (  44.906s) [        53665000]     memory_instance.cc:57       1| MemoryInstance::getDevice
2025-10-03 19:58:25.253 (  44.906s) [        53665000]      event_instance.cc:222      1| EventInstance::PJRT_Event_OnReady
2025-10-03 19:58:25.253 (  44.906s) [        53665000]      event_instance.cc:171      1| EventInstance::PJRT_Event_Destroy
2025-10-03 19:58:25.257 (  44.910s) [        53665000]  device_description.cc:44       1| DeviceDescription::PJRT_DeviceDescription_Id
2025-10-03 19:58:25.257 (  44.910s) [        53665000]  device_description.cc:44       1| DeviceDescription::PJRT_DeviceDescription_Id
2025-10-03 19:58:25.262 (  44.916s) [        53665000]     device_instance.cc:82       1| DeviceInstance::PJRT_Device_DefaultMemory
2025-10-03 19:58:25.263 (  44.916s) [        53665000]     client_instance.cc:592      1| ClientInstance::PJRT_Client_BufferFromHostBuffer
2025-10-03 19:58:25.263 (  44.916s) [        53665000]     memory_instance.cc:57       1| MemoryInstance::getDevice
2025-10-03 19:58:25.263 (  44.916s) [        53665000]      event_instance.cc:222      1| EventInstance::PJRT_Event_OnReady
2025-10-03 19:58:25.263 (  44.916s) [        53665000]      event_instance.cc:171      1| EventInstance::PJRT_Event_Destroy
2025-10-03 19:58:25.263 (  44.916s) [        53665000]     device_instance.cc:82       1| DeviceInstance::PJRT_Device_DefaultMemory
2025-10-03 19:58:25.263 (  44.916s) [        53665000]     client_instance.cc:592      1| ClientInstance::PJRT_Client_BufferFromHostBuffer
2025-10-03 19:58:25.263 (  44.916s) [        53665000]     memory_instance.cc:57       1| MemoryInstance::getDevice
2025-10-03 19:58:25.263 (  44.916s) [        53665000]      event_instance.cc:222      1| EventInstance::PJRT_Event_OnReady
2025-10-03 19:58:25.263 (  44.916s) [        53665000]      event_instance.cc:171      1| EventInstance::PJRT_Event_Destroy
2025-10-03 19:58:25.267 (  44.920s) [        53665000]  device_description.cc:44       1| DeviceDescription::PJRT_DeviceDescription_Id
2025-10-03 19:58:25.267 (  44.920s) [        53665000]  device_description.cc:44       1| DeviceDescription::PJRT_DeviceDescription_Id
2025-10-03 19:58:25.268 (  44.921s) [        53665000]     device_instance.cc:82       1| DeviceInstance::PJRT_Device_DefaultMemory
2025-10-03 19:58:25.268 (  44.921s) [        53665000]     client_instance.cc:592      1| ClientInstance::PJRT_Client_BufferFromHostBuffer
2025-10-03 19:58:25.268 (  44.921s) [        53665000]     memory_instance.cc:57       1| MemoryInstance::getDevice
2025-10-03 19:58:25.268 (  44.922s) [        53665000]      event_instance.cc:222      1| EventInstance::PJRT_Event_OnReady
2025-10-03 19:58:25.269 (  44.922s) [        53665000]      event_instance.cc:171      1| EventInstance::PJRT_Event_Destroy
2025-10-03 19:58:25.269 (  44.922s) [        53665000]     device_instance.cc:82       1| DeviceInstance::PJRT_Device_DefaultMemory
2025-10-03 19:58:25.269 (  44.922s) [        53665000]     client_instance.cc:592      1| ClientInstance::PJRT_Client_BufferFromHostBuffer
2025-10-03 19:58:25.269 (  44.922s) [        53665000]     memory_instance.cc:57       1| MemoryInstance::getDevice
2025-10-03 19:58:25.269 (  44.922s) [        53665000]      event_instance.cc:222      1| EventInstance::PJRT_Event_OnReady
2025-10-03 19:58:25.269 (  44.922s) [        53665000]      event_instance.cc:171      1| EventInstance::PJRT_Event_Destroy
2025-10-03 19:58:25.269 (  44.922s) [        53665000]  device_description.cc:44       1| DeviceDescription::PJRT_DeviceDescription_Id
2025-10-03 19:58:25.269 (  44.922s) [        53665000]  device_description.cc:44       1| DeviceDescription::PJRT_DeviceDescription_Id
2025-10-03 19:58:25.269 (  44.922s) [        53665000]     device_instance.cc:82       1| DeviceInstance::PJRT_Device_DefaultMemory
2025-10-03 19:58:25.269 (  44.922s) [        53665000]     client_instance.cc:592      1| ClientInstance::PJRT_Client_BufferFromHostBuffer
2025-10-03 19:58:25.269 (  44.922s) [        53665000]     memory_instance.cc:57       1| MemoryInstance::getDevice
2025-10-03 19:58:25.269 (  44.922s) [        53665000]      event_instance.cc:222      1| EventInstance::PJRT_Event_OnReady
2025-10-03 19:58:25.269 (  44.922s) [        53665000]      event_instance.cc:171      1| EventInstance::PJRT_Event_Destroy
2025-10-03 19:58:25.269 (  44.922s) [        53665000]     device_instance.cc:82       1| DeviceInstance::PJRT_Device_DefaultMemory
2025-10-03 19:58:25.269 (  44.922s) [        53665000]     client_instance.cc:592      1| ClientInstance::PJRT_Client_BufferFromHostBuffer
2025-10-03 19:58:25.269 (  44.922s) [        53665000]     memory_instance.cc:57       1| MemoryInstance::getDevice
2025-10-03 19:58:25.269 (  44.922s) [        53665000]      event_instance.cc:222      1| EventInstance::PJRT_Event_OnReady
2025-10-03 19:58:25.269 (  44.922s) [        53665000]      event_instance.cc:171      1| EventInstance::PJRT_Event_Destroy
2025-10-03 19:58:25.269 (  44.923s) [        53665000]  device_description.cc:44       1| DeviceDescription::PJRT_DeviceDescription_Id
…
2025-10-03 19:59:39.180 ( 118.833s) [        53665000]     buffer_instance.cc:401      1| BufferInstance::PJRT_Buffer_Destroy
2025-10-03 19:59:39.180 ( 118.833s) [        53665000]     buffer_instance.cc:401      1| BufferInstance::PJRT_Buffer_Destroy
2025-10-03 19:59:39.180 ( 118.833s) [        53665000]     buffer_instance.cc:401      1| BufferInstance::PJRT_Buffer_Destroy
2025-10-03 19:59:39.180 ( 118.833s) [        53665000]     buffer_instance.cc:401      1| BufferInstance::PJRT_Buffer_Destroy
2025-10-03 19:59:39.180 ( 118.833s) [        53665000]     buffer_instance.cc:401      1| BufferInstance::PJRT_Buffer_Destroy
2025-10-03 19:59:39.181 ( 118.834s) [        53665000]     buffer_instance.cc:401      1| BufferInstance::PJRT_Buffer_Destroy
2025-10-03 19:59:39.181 ( 118.834s) [        53665000]     buffer_instance.cc:401      1| BufferInstance::PJRT_Buffer_Destroy
2025-10-03 19:59:39.181 ( 118.834s) [        53665000]     buffer_instance.cc:401      1| BufferInstance::PJRT_Buffer_Destroy
2025-10-03 19:59:39.181 ( 118.834s) [        53665000]     buffer_instance.cc:401      1| BufferInstance::PJRT_Buffer_Destroy
2025-10-03 19:59:39.181 ( 118.834s) [        53665000]     buffer_instance.cc:401      1| BufferInstance::PJRT_Buffer_Destroy
2025-10-03 19:59:39.181 ( 118.834s) [        53665000]     buffer_instance.cc:401      1| BufferInstance::PJRT_Buffer_Destroy
2025-10-03 19:59:39.181 ( 118.834s) [        53665000]     buffer_instance.cc:401      1| BufferInstance::PJRT_Buffer_Destroy
2025-10-03 19:59:39.181 ( 118.834s) [        53665000]     buffer_instance.cc:401      1| BufferInstance::PJRT_Buffer_Destroy
2025-10-03 19:59:39.181 ( 118.834s) [        53665000]     buffer_instance.cc:401      1| BufferInstance::PJRT_Buffer_Destroy
2025-10-03 19:59:39.181 ( 118.834s) [        53665000]     buffer_instance.cc:401      1| BufferInstance::PJRT_Buffer_Destroy
2025-10-03 19:59:39.181 ( 118.835s) [        53665000]     buffer_instance.cc:401      1| BufferInstance::PJRT_Buffer_Destroy
2025-10-03 19:59:39.182 ( 118.835s) [        53665000]     buffer_instance.cc:401      1| BufferInstance::PJRT_Buffer_Destroy
2025-10-03 19:59:39.182 ( 118.835s) [        53665000]     buffer_instance.cc:401      1| BufferInstance::PJRT_Buffer_Destroy
2025-10-03 19:59:39.182 ( 118.835s) [        53665000]     buffer_instance.cc:401      1| BufferInstance::PJRT_Buffer_Destroy
2025-10-03 19:59:39.182 ( 118.835s) [        53665000]     buffer_instance.cc:401      1| BufferInstance::PJRT_Buffer_Destroy
2025-10-03 19:59:39.182 ( 118.835s) [        53665000]     buffer_instance.cc:401      1| BufferInstance::PJRT_Buffer_Destroy
2025-10-03 19:59:39.182 ( 118.835s) [        53665000]     buffer_instance.cc:401      1| BufferInstance::PJRT_Buffer_Destroy
2025-10-03 19:59:39.182 ( 118.835s) [        53665000]     buffer_instance.cc:401      1| BufferInstance::PJRT_Buffer_Destroy
2025-10-03 19:59:39.182 ( 118.835s) [        53665000]     buffer_instance.cc:401      1| BufferInstance::PJRT_Buffer_Destroy
2025-10-03 19:59:39.182 ( 118.835s) [        53665000]     buffer_instance.cc:401      1| BufferInstance::PJRT_Buffer_Destroy
2025-10-03 19:59:39.182 ( 118.835s) [        53665000]     buffer_instance.cc:401      1| BufferInstance::PJRT_Buffer_Destroy
2025-10-03 19:59:39.182 ( 118.835s) [        53665000]     buffer_instance.cc:401      1| BufferInstance::PJRT_Buffer_Destroy
2025-10-03 19:59:39.182 ( 118.835s) [        53665000]     buffer_instance.cc:401      1| BufferInstance::PJRT_Buffer_Destroy
2025-10-03 19:59:39.183 ( 118.836s) [        53665000]     buffer_instance.cc:401      1| BufferInstance::PJRT_Buffer_Destroy
2025-10-03 19:59:39.183 ( 118.836s) [        53665000]     buffer_instance.cc:401      1| BufferInstance::PJRT_Buffer_Destroy
2025-10-03 19:59:39.183 ( 118.836s) [        53665000]     buffer_instance.cc:401      1| BufferInstance::PJRT_Buffer_Destroy
2025-10-03 19:59:39.183 ( 118.836s) [        53665000]     buffer_instance.cc:401      1| BufferInstance::PJRT_Buffer_Destroy
2025-10-03 19:59:39.183 ( 118.836s) [        53665000]     buffer_instance.cc:401      1| BufferInstance::PJRT_Buffer_Destroy
2025-10-03 19:59:39.183 ( 118.836s) [        53665000]     buffer_instance.cc:401      1| BufferInstance::PJRT_Buffer_Destroy
2025-10-03 19:59:39.183 ( 118.836s) [        53665000]     buffer_instance.cc:401      1| BufferInstance::PJRT_Buffer_Destroy
2025-10-03 19:59:39.183 ( 118.836s) [        53665000]     buffer_instance.cc:401      1| BufferInstance::PJRT_Buffer_Destroy
2025-10-03 19:59:39.183 ( 118.836s) [        53665000]     buffer_instance.cc:401      1| BufferInstance::PJRT_Buffer_Destroy
2025-10-03 19:59:39.183 ( 118.836s) [        53665000]     buffer_instance.cc:401      1| BufferInstance::PJRT_Buffer_Destroy
2025-10-03 19:59:39.183 ( 118.836s) [        53665000]     buffer_instance.cc:401      1| BufferInstance::PJRT_Buffer_Destroy
2025-10-03 19:59:39.184 ( 118.837s) [        53665000]     buffer_instance.cc:401      1| BufferInstance::PJRT_Buffer_Destroy
2025-10-03 19:59:39.184 ( 118.837s) [        53665000]     buffer_instance.cc:401      1| BufferInstance::PJRT_Buffer_Destroy
2025-10-03 19:59:39.184 ( 118.837s) [        53665000]     buffer_instance.cc:401      1| BufferInstance::PJRT_Buffer_Destroy
2025-10-03 19:59:39.184 ( 118.837s) [        53665000]     buffer_instance.cc:401      1| BufferInstance::PJRT_Buffer_Destroy
2025-10-03 19:59:39.184 ( 118.837s) [        53665000]     buffer_instance.cc:401      1| BufferInstance::PJRT_Buffer_Destroy
2025-10-03 19:59:39.184 ( 118.837s) [        53665000]     buffer_instance.cc:401      1| BufferInstance::PJRT_Buffer_Destroy
2025-10-03 19:59:39.184 ( 118.837s) [        53665000]     buffer_instance.cc:401      1| BufferInstance::PJRT_Buffer_Destroy
2025-10-03 19:59:39.184 ( 118.837s) [        53665000]     buffer_instance.cc:401      1| BufferInstance::PJRT_Buffer_Destroy
2025-10-03 19:59:39.184 ( 118.837s) [        53665000]     buffer_instance.cc:401      1| BufferInstance::PJRT_Buffer_Destroy
2025-10-03 19:59:39.184 ( 118.837s) [        53665000]     buffer_instance.cc:401      1| BufferInstance::PJRT_Buffer_Destroy
2025-10-03 19:59:39.184 ( 118.838s) [        53665000]     buffer_instance.cc:401      1| BufferInstance::PJRT_Buffer_Destroy
2025-10-03 19:59:39.185 ( 118.838s) [        53665000]     buffer_instance.cc:401      1| BufferInstance::PJRT_Buffer_Destroy
2025-10-03 19:59:39.185 ( 118.838s) [        53665000]     buffer_instance.cc:401      1| BufferInstance::PJRT_Buffer_Destroy
2025-10-03 19:59:39.185 ( 118.838s) [        53665000]     buffer_instance.cc:401      1| BufferInstance::PJRT_Buffer_Destroy
2025-10-03 19:59:39.185 ( 118.838s) [        53665000]     buffer_instance.cc:401      1| BufferInstance::PJRT_Buffer_Destroy
2025-10-03 19:59:39.185 ( 118.838s) [        53665000]     buffer_instance.cc:401      1| BufferInstance::PJRT_Buffer_Destroy
2025-10-03 19:59:39.185 ( 118.838s) [        53665000]     buffer_instance.cc:401      1| BufferInstance::PJRT_Buffer_Destroy
2025-10-03 19:59:39.185 ( 118.838s) [        53665000]     buffer_instance.cc:401      1| BufferInstance::PJRT_Buffer_Destroy
2025-10-03 19:59:39.185 ( 118.838s) [        53665000]     buffer_instance.cc:401      1| BufferInstance::PJRT_Buffer_Destroy
2025-10-03 19:59:39.185 ( 118.838s) [        53665000]     buffer_instance.cc:401      1| BufferInstance::PJRT_Buffer_Destroy
2025-10-03 19:59:39.185 ( 118.838s) [        53665000]     buffer_instance.cc:401      1| BufferInstance::PJRT_Buffer_Destroy
2025-10-03 19:59:39.185 ( 118.838s) [        53665000]     buffer_instance.cc:401      1| BufferInstance::PJRT_Buffer_Destroy
2025-10-03 19:59:39.185 ( 118.838s) [        53665000]     buffer_instance.cc:401      1| BufferInstance::PJRT_Buffer_Destroy
2025-10-03 19:59:39.186 ( 118.839s) [        53665000]     buffer_instance.cc:401      1| BufferInstance::PJRT_Buffer_Destroy
2025-10-03 19:59:39.186 ( 118.839s) [        53665000]     buffer_instance.cc:401      1| BufferInstance::PJRT_Buffer_Destroy
2025-10-03 19:59:39.186 ( 118.839s) [        53665000]     buffer_instance.cc:401      1| BufferInstance::PJRT_Buffer_Destroy
2025-10-03 19:59:39.186 ( 118.839s) [        53665000]     buffer_instance.cc:401      1| BufferInstance::PJRT_Buffer_Destroy
2025-10-03 19:59:39.186 ( 118.839s) [        53665000]     buffer_instance.cc:401      1| BufferInstance::PJRT_Buffer_Destroy
2025-10-03 19:59:39.186 ( 118.839s) [        53665000]     buffer_instance.cc:401      1| BufferInstance::PJRT_Buffer_Destroy
2025-10-03 19:59:39.186 ( 118.839s) [        53665000]     buffer_instance.cc:401      1| BufferInstance::PJRT_Buffer_Destroy
2025-10-03 19:59:39.186 ( 118.839s) [        53665000]     buffer_instance.cc:401      1| BufferInstance::PJRT_Buffer_Destroy
2025-10-03 19:59:39.186 ( 118.839s) [        53665000]     buffer_instance.cc:401      1| BufferInstance::PJRT_Buffer_Destroy
2025-10-03 19:59:39.186 ( 118.839s) [        53665000]     buffer_instance.cc:401      1| BufferInstance::PJRT_Buffer_Destroy
2025-10-03 19:59:39.186 ( 118.839s) [        53665000]     buffer_instance.cc:401      1| BufferInstance::PJRT_Buffer_Destroy
2025-10-03 19:59:39.186 ( 118.839s) [        53665000]     buffer_instance.cc:401      1| BufferInstance::PJRT_Buffer_Destroy
2025-10-03 19:59:39.186 ( 118.840s) [        53665000]     buffer_instance.cc:401      1| BufferInstance::PJRT_Buffer_Destroy
2025-10-03 19:59:39.187 ( 118.840s) [        53665000]     buffer_instance.cc:401      1| BufferInstance::PJRT_Buffer_Destroy
2025-10-03 19:59:39.187 ( 118.840s) [        53665000]     buffer_instance.cc:401      1| BufferInstance::PJRT_Buffer_Destroy
2025-10-03 19:59:39.187 ( 118.840s) [        53665000]     buffer_instance.cc:401      1| BufferInstance::PJRT_Buffer_Destroy
2025-10-03 19:59:39.187 ( 118.840s) [        53665000]     buffer_instance.cc:401      1| BufferInstance::PJRT_Buffer_Destroy
2025-10-03 19:59:39.187 ( 118.840s) [        53665000]     buffer_instance.cc:401      1| BufferInstance::PJRT_Buffer_Destroy
2025-10-03 19:59:39.187 ( 118.840s) [        53665000]     buffer_instance.cc:401      1| BufferInstance::PJRT_Buffer_Destroy
2025-10-03 19:59:39.187 ( 118.840s) [        53665000]     buffer_instance.cc:401      1| BufferInstance::PJRT_Buffer_Destroy
2025-10-03 19:59:39.187 ( 118.840s) [        53665000]     buffer_instance.cc:401      1| BufferInstance::PJRT_Buffer_Destroy
2025-10-03 19:59:39.187 ( 118.840s) [        53665000]     buffer_instance.cc:401      1| BufferInstance::PJRT_Buffer_Destroy
2025-10-03 19:59:39.187 ( 118.840s) [        53665000]     buffer_instance.cc:401      1| BufferInstance::PJRT_Buffer_Destroy
2025-10-03 19:59:39.188 ( 118.841s) [        53665000]     buffer_instance.cc:401      1| BufferInstance::PJRT_Buffer_Destroy
2025-10-03 19:59:39.188 ( 118.841s) [        53665000]     buffer_instance.cc:401      1| BufferInstance::PJRT_Buffer_Destroy
2025-10-03 19:59:39.188 ( 118.841s) [        53665000]     buffer_instance.cc:401      1| BufferInstance::PJRT_Buffer_Destroy
2025-10-03 19:59:39.188 ( 118.841s) [        53665000]     buffer_instance.cc:401      1| BufferInstance::PJRT_Buffer_Destroy
2025-10-03 19:59:39.188 ( 118.841s) [        53665000]     buffer_instance.cc:401      1| BufferInstance::PJRT_Buffer_Destroy
2025-10-03 19:59:39.188 ( 118.841s) [        53665000]     buffer_instance.cc:401      1| BufferInstance::PJRT_Buffer_Destroy
2025-10-03 19:59:39.188 ( 118.841s) [        53665000]     buffer_instance.cc:401      1| BufferInstance::PJRT_Buffer_Destroy
2025-10-03 19:59:39.188 ( 118.841s) [        53665000]     buffer_instance.cc:401      1| BufferInstance::PJRT_Buffer_Destroy
2025-10-03 19:59:39.188 ( 118.841s) [        53665000]     buffer_instance.cc:401      1| BufferInstance::PJRT_Buffer_Destroy
2025-10-03 19:59:39.188 ( 118.841s) [        53665000]     buffer_instance.cc:401      1| BufferInstance::PJRT_Buffer_Destroy
2025-10-03 19:59:39.188 ( 118.841s) [        53665000]     buffer_instance.cc:401      1| BufferInstance::PJRT_Buffer_Destroy
2025-10-03 19:59:39.188 ( 118.841s) [        53665000]     buffer_instance.cc:401      1| BufferInstance::PJRT_Buffer_Destroy
2025-10-03 19:59:39.189 ( 118.842s) [        53665000]     buffer_instance.cc:401      1| BufferInstance::PJRT_Buffer_Destroy
2025-10-03 19:59:39.189 ( 118.842s) [        53665000]     buffer_instance.cc:401      1| BufferInstance::PJRT_Buffer_Destroy
2025-10-03 19:59:39.189 ( 118.842s) [        53665000]     buffer_instance.cc:401      1| BufferInstance::PJRT_Buffer_Destroy
2025-10-03 19:59:39.189 ( 118.842s) [        53665000]     buffer_instance.cc:401      1| BufferInstance::PJRT_Buffer_Destroy
2025-10-03 19:59:39.189 ( 118.842s) [        53665000]     buffer_instance.cc:401      1| BufferInstance::PJRT_Buffer_Destroy
2025-10-03 19:59:39.189 ( 118.842s) [        53665000]     buffer_instance.cc:401      1| BufferInstance::PJRT_Buffer_Destroy
2025-10-03 19:59:39.189 ( 118.842s) [        53665000]     buffer_instance.cc:401      1| BufferInstance::PJRT_Buffer_Destroy
2025-10-03 19:59:39.189 ( 118.842s) [        53665000]     buffer_instance.cc:401      1| BufferInstance::PJRT_Buffer_Destroy
2025-10-03 19:59:39.189 ( 118.842s) [        53665000]     buffer_instance.cc:401      1| BufferInstance::PJRT_Buffer_Destroy
2025-10-03 19:59:39.189 ( 118.842s) [        53665000]     buffer_instance.cc:401      1| BufferInstance::PJRT_Buffer_Destroy
2025-10-03 19:59:39.189 ( 118.842s) [        53665000]     buffer_instance.cc:401      1| BufferInstance::PJRT_Buffer_Destroy
2025-10-03 19:59:39.189 ( 118.842s) [        53665000]     buffer_instance.cc:401      1| BufferInstance::PJRT_Buffer_Destroy
2025-10-03 19:59:39.190 ( 118.843s) [        53665000]     buffer_instance.cc:401      1| BufferInstance::PJRT_Buffer_Destroy
2025-10-03 19:59:39.190 ( 118.843s) [        53665000]     buffer_instance.cc:401      1| BufferInstance::PJRT_Buffer_Destroy
2025-10-03 19:59:39.190 ( 118.843s) [        53665000]     buffer_instance.cc:401      1| BufferInstance::PJRT_Buffer_Destroy
2025-10-03 19:59:39.190 ( 118.843s) [        53665000]     buffer_instance.cc:401      1| BufferInstance::PJRT_Buffer_Destroy
2025-10-03 19:59:39.190 ( 118.843s) [        53665000]     buffer_instance.cc:401      1| BufferInstance::PJRT_Buffer_Destroy
2025-10-03 19:59:39.190 ( 118.843s) [        53665000]     buffer_instance.cc:401      1| BufferInstance::PJRT_Buffer_Destroy
2025-10-03 19:59:39.190 ( 118.843s) [        53665000]     buffer_instance.cc:401      1| BufferInstance::PJRT_Buffer_Destroy
2025-10-03 19:59:39.190 ( 118.843s) [        53665000]     buffer_instance.cc:401      1| BufferInstance::PJRT_Buffer_Destroy
2025-10-03 19:59:39.190 ( 118.843s) [        53665000]     buffer_instance.cc:401      1| BufferInstance::PJRT_Buffer_Destroy
2025-10-03 19:59:39.190 ( 118.843s) [        53665000]     buffer_instance.cc:401      1| BufferInstance::PJRT_Buffer_Destroy
2025-10-03 19:59:39.190 ( 118.843s) [        53665000]     buffer_instance.cc:401      1| BufferInstance::PJRT_Buffer_Destroy
2025-10-03 19:59:39.190 ( 118.843s) [        53665000]     buffer_instance.cc:401      1| BufferInstance::PJRT_Buffer_Destroy
2025-10-03 19:59:39.190 ( 118.843s) [        53665000]     buffer_instance.cc:401      1| BufferInstance::PJRT_Buffer_Destroy
2025-10-03 19:59:39.191 ( 118.844s) [        53665000]     buffer_instance.cc:401      1| BufferInstance::PJRT_Buffer_Destroy
2025-10-03 19:59:39.191 ( 118.844s) [        53665000]     buffer_instance.cc:401      1| BufferInstance::PJRT_Buffer_Destroy
2025-10-03 19:59:39.191 ( 118.844s) [        53665000]     buffer_instance.cc:401      1| BufferInstance::PJRT_Buffer_Destroy
2025-10-03 19:59:39.191 ( 118.844s) [        53665000]     buffer_instance.cc:401      1| BufferInstance::PJRT_Buffer_Destroy
2025-10-03 19:59:39.191 ( 118.844s) [        53665000]     buffer_instance.cc:401      1| BufferInstance::PJRT_Buffer_Destroy
2025-10-03 19:59:39.191 ( 118.844s) [        53665000]     buffer_instance.cc:401      1| BufferInstance::PJRT_Buffer_Destroy
2025-10-03 19:59:39.191 ( 118.844s) [        53665000]     buffer_instance.cc:401      1| BufferInstance::PJRT_Buffer_Destroy
2025-10-03 19:59:39.191 ( 118.844s) [        53665000]     buffer_instance.cc:401      1| BufferInstance::PJRT_Buffer_Destroy
2025-10-03 19:59:39.191 ( 118.844s) [        53665000]     buffer_instance.cc:401      1| BufferInstance::PJRT_Buffer_Destroy
2025-10-03 19:59:39.191 ( 118.844s) [        53665000]     buffer_instance.cc:401      1| BufferInstance::PJRT_Buffer_Destroy
2025-10-03 19:59:39.191 ( 118.844s) [        53665000]     buffer_instance.cc:401      1| BufferInstance::PJRT_Buffer_Destroy
2025-10-03 19:59:39.192 ( 118.845s) [        53665000]     buffer_instance.cc:401      1| BufferInstance::PJRT_Buffer_Destroy
2025-10-03 19:59:39.192 ( 118.845s) [        53665000]     buffer_instance.cc:401      1| BufferInstance::PJRT_Buffer_Destroy
2025-10-03 19:59:39.192 ( 118.845s) [        53665000]     buffer_instance.cc:401      1| BufferInstance::PJRT_Buffer_Destroy
2025-10-03 19:59:39.192 ( 118.845s) [        53665000]     buffer_instance.cc:401      1| BufferInstance::PJRT_Buffer_Destroy
2025-10-03 19:59:39.192 ( 118.845s) [        53665000]     buffer_instance.cc:401      1| BufferInstance::PJRT_Buffer_Destroy
2025-10-03 19:59:39.192 ( 118.845s) [        53665000]     buffer_instance.cc:401      1| BufferInstance::PJRT_Buffer_Destroy
2025-10-03 19:59:39.192 ( 118.845s) [        53665000]     buffer_instance.cc:401      1| BufferInstance::PJRT_Buffer_Destroy
2025-10-03 19:59:39.192 ( 118.845s) [        53665000]     buffer_instance.cc:401      1| BufferInstance::PJRT_Buffer_Destroy
2025-10-03 19:59:39.192 ( 118.845s) [        53665000]     buffer_instance.cc:401      1| BufferInstance::PJRT_Buffer_Destroy
2025-10-03 19:59:39.192 ( 118.845s) [        53665000]     buffer_instance.cc:401      1| BufferInstance::PJRT_Buffer_Destroy
2025-10-03 19:59:39.192 ( 118.845s) [        53665000]     buffer_instance.cc:401      1| BufferInstance::PJRT_Buffer_Destroy
2025-10-03 19:59:39.192 ( 118.845s) [        53665000]     buffer_instance.cc:401      1| BufferInstance::PJRT_Buffer_Destroy
2025-10-03 19:59:39.193 ( 118.846s) [        53665000]     buffer_instance.cc:401      1| BufferInstance::PJRT_Buffer_Destroy
2025-10-03 19:59:39.193 ( 118.846s) [        53665000]     buffer_instance.cc:401      1| BufferInstance::PJRT_Buffer_Destroy
2025-10-03 19:59:39.193 ( 118.846s) [        53665000]     buffer_instance.cc:401      1| BufferInstance::PJRT_Buffer_Destroy
2025-10-03 19:59:39.193 ( 118.846s) [        53665000]     buffer_instance.cc:401      1| BufferInstance::PJRT_Buffer_Destroy
2025-10-03 19:59:39.193 ( 118.846s) [        53665000]     buffer_instance.cc:401      1| BufferInstance::PJRT_Buffer_Destroy
2025-10-03 19:59:39.193 ( 118.846s) [        53665000]     buffer_instance.cc:401      1| BufferInstance::PJRT_Buffer_Destroy
2025-10-03 19:59:39.193 ( 118.846s) [        53665000]     buffer_instance.cc:401      1| BufferInstance::PJRT_Buffer_Destroy
2025-10-03 19:59:39.193 ( 118.846s) [        53665000]     buffer_instance.cc:401      1| BufferInstance::PJRT_Buffer_Destroy
2025-10-03 19:59:39.193 ( 118.846s) [        53665000]     buffer_instance.cc:401      1| BufferInstance::PJRT_Buffer_Destroy
2025-10-03 19:59:39.193 ( 118.846s) [        53665000]     buffer_instance.cc:401      1| BufferInstance::PJRT_Buffer_Destroy
2025-10-03 19:59:39.193 ( 118.846s) [        53665000]     buffer_instance.cc:401      1| BufferInstance::PJRT_Buffer_Destroy
2025-10-03 19:59:39.193 ( 118.846s) [        53665000]     buffer_instance.cc:401      1| BufferInstance::PJRT_Buffer_Destroy
2025-10-03 19:59:39.193 ( 118.847s) [        53665000]     buffer_instance.cc:401      1| BufferInstance::PJRT_Buffer_Destroy
2025-10-03 19:59:39.194 ( 118.847s) [        53665000]     buffer_instance.cc:401      1| BufferInstance::PJRT_Buffer_Destroy
2025-10-03 19:59:39.194 ( 118.847s) [        53665000]     buffer_instance.cc:401      1| BufferInstance::PJRT_Buffer_Destroy
2025-10-03 19:59:39.194 ( 118.847s) [        53665000]     buffer_instance.cc:401      1| BufferInstance::PJRT_Buffer_Destroy
2025-10-03 19:59:39.194 ( 118.847s) [        53665000]     buffer_instance.cc:401      1| BufferInstance::PJRT_Buffer_Destroy
2025-10-03 19:59:39.194 ( 118.847s) [        53665000]     buffer_instance.cc:401      1| BufferInstance::PJRT_Buffer_Destroy
2025-10-03 19:59:39.194 ( 118.847s) [        53665000]     buffer_instance.cc:401      1| BufferInstance::PJRT_Buffer_Destroy
2025-10-03 19:59:39.194 ( 118.847s) [        53665000]     buffer_instance.cc:401      1| BufferInstance::PJRT_Buffer_Destroy
2025-10-03 19:59:39.194 ( 118.847s) [        53665000]     buffer_instance.cc:401      1| BufferInstance::PJRT_Buffer_Destroy
2025-10-03 19:59:39.194 ( 118.847s) [        53665000]     buffer_instance.cc:401      1| BufferInstance::PJRT_Buffer_Destroy
2025-10-03 19:59:39.194 ( 118.847s) [        53665000]     buffer_instance.cc:401      1| BufferInstance::PJRT_Buffer_Destroy
2025-10-03 19:59:39.194 ( 118.847s) [        53665000]     buffer_instance.cc:401      1| BufferInstance::PJRT_Buffer_Destroy
2025-10-03 19:59:39.194 ( 118.847s) [        53665000]     buffer_instance.cc:401      1| BufferInstance::PJRT_Buffer_Destroy
2025-10-03 19:59:39.194 ( 118.847s) [        53665000]     buffer_instance.cc:401      1| BufferInstance::PJRT_Buffer_Destroy
2025-10-03 19:59:39.194 ( 118.848s) [        53665000]     buffer_instance.cc:401      1| BufferInstance::PJRT_Buffer_Destroy
2025-10-03 19:59:39.195 ( 118.848s) [        53665000]     buffer_instance.cc:401      1| BufferInstance::PJRT_Buffer_Destroy
2025-10-03 19:59:39.195 ( 118.848s) [        53665000]     buffer_instance.cc:401      1| BufferInstance::PJRT_Buffer_Destroy
2025-10-03 19:59:39.195 ( 118.848s) [        53665000]     buffer_instance.cc:401      1| BufferInstance::PJRT_Buffer_Destroy
2025-10-03 19:59:39.195 ( 118.848s) [        53665000]     buffer_instance.cc:401      1| BufferInstance::PJRT_Buffer_Destroy
2025-10-03 19:59:39.195 ( 118.848s) [        53665000]     buffer_instance.cc:401      1| BufferInstance::PJRT_Buffer_Destroy
2025-10-03 19:59:39.195 ( 118.848s) [        53665000]     buffer_instance.cc:401      1| BufferInstance::PJRT_Buffer_Destroy
2025-10-03 19:59:39.195 ( 118.848s) [        53665000]     buffer_instance.cc:401      1| BufferInstance::PJRT_Buffer_Destroy
2025-10-03 19:59:39.195 ( 118.848s) [        53665000]     buffer_instance.cc:401      1| BufferInstance::PJRT_Buffer_Destroy
2025-10-03 19:59:39.195 ( 118.848s) [        53665000]     buffer_instance.cc:401      1| BufferInstance::PJRT_Buffer_Destroy
2025-10-03 19:59:39.195 ( 118.848s) [        53665000]     buffer_instance.cc:401      1| BufferInstance::PJRT_Buffer_Destroy
2025-10-03 19:59:39.195 ( 118.848s) [        53665000]     buffer_instance.cc:401      1| BufferInstance::PJRT_Buffer_Destroy
2025-10-03 19:59:39.195 ( 118.848s) [        53665000]     buffer_instance.cc:401      1| BufferInstance::PJRT_Buffer_Destroy
2025-10-03 19:59:39.195 ( 118.848s) [        53665000]     buffer_instance.cc:401      1| BufferInstance::PJRT_Buffer_Destroy
2025-10-03 19:59:39.195 ( 118.849s) [        53665000]     buffer_instance.cc:401      1| BufferInstance::PJRT_Buffer_Destroy
2025-10-03 19:59:39.196 ( 118.849s) [        53665000]     buffer_instance.cc:401      1| BufferInstance::PJRT_Buffer_Destroy
2025-10-03 19:59:39.196 ( 118.849s) [        53665000]     buffer_instance.cc:401      1| BufferInstance::PJRT_Buffer_Destroy
2025-10-03 19:59:39.196 ( 118.849s) [        53665000]     buffer_instance.cc:401      1| BufferInstance::PJRT_Buffer_Destroy
2025-10-03 19:59:39.196 ( 118.849s) [        53665000]     buffer_instance.cc:401      1| BufferInstance::PJRT_Buffer_Destroy
2025-10-03 19:59:39.196 ( 118.849s) [        53665000]     buffer_instance.cc:401      1| BufferInstance::PJRT_Buffer_Destroy
2025-10-03 19:59:39.196 ( 118.849s) [        53665000]     buffer_instance.cc:401      1| BufferInstance::PJRT_Buffer_Destroy
2025-10-03 19:59:39.196 ( 118.849s) [        53665000]     buffer_instance.cc:401      1| BufferInstance::PJRT_Buffer_Destroy
2025-10-03 19:59:39.196 ( 118.849s) [        53665000]     buffer_instance.cc:401      1| BufferInstance::PJRT_Buffer_Destroy
2025-10-03 19:59:39.196 ( 118.849s) [        53665000]     buffer_instance.cc:401      1| BufferInstance::PJRT_Buffer_Destroy
2025-10-03 19:59:39.196 ( 118.849s) [        53665000]     buffer_instance.cc:401      1| BufferInstance::PJRT_Buffer_Destroy
2025-10-03 19:59:39.196 ( 118.849s) [        53665000]     buffer_instance.cc:401      1| BufferInstance::PJRT_Buffer_Destroy
2025-10-03 19:59:39.196 ( 118.849s) [        53665000]     buffer_instance.cc:401      1| BufferInstance::PJRT_Buffer_Destroy
2025-10-03 19:59:39.196 ( 118.849s) [        53665000]     buffer_instance.cc:401      1| BufferInstance::PJRT_Buffer_Destroy
2025-10-03 19:59:39.196 ( 118.849s) [        53665000]     buffer_instance.cc:401      1| BufferInstance::PJRT_Buffer_Destroy
2025-10-03 19:59:39.196 ( 118.850s) [        53665000]     buffer_instance.cc:401      1| BufferInstance::PJRT_Buffer_Destroy
2025-10-03 19:59:39.197 ( 118.850s) [        53665000]     buffer_instance.cc:401      1| BufferInstance::PJRT_Buffer_Destroy
2025-10-03 19:59:39.197 ( 118.850s) [        53665000]     buffer_instance.cc:401      1| BufferInstance::PJRT_Buffer_Destroy
2025-10-03 19:59:39.197 ( 118.850s) [        53665000]     buffer_instance.cc:401      1| BufferInstance::PJRT_Buffer_Destroy
2025-10-03 19:59:39.197 ( 118.850s) [        53665000]     buffer_instance.cc:401      1| BufferInstance::PJRT_Buffer_Destroy
2025-10-03 19:59:39.197 ( 118.850s) [        53665000]     buffer_instance.cc:401      1| BufferInstance::PJRT_Buffer_Destroy
2025-10-03 19:59:39.197 ( 118.850s) [        53665000]     buffer_instance.cc:401      1| BufferInstance::PJRT_Buffer_Destroy
2025-10-03 19:59:39.197 ( 118.850s) [        53665000]     buffer_instance.cc:401      1| BufferInstance::PJRT_Buffer_Destroy
2025-10-03 19:59:39.197 ( 118.850s) [        53665000]     buffer_instance.cc:401      1| BufferInstance::PJRT_Buffer_Destroy
2025-10-03 19:59:39.197 ( 118.850s) [        53665000]     buffer_instance.cc:401      1| BufferInstance::PJRT_Buffer_Destroy
2025-10-03 19:59:39.197 ( 118.850s) [        53665000]     buffer_instance.cc:401      1| BufferInstance::PJRT_Buffer_Destroy
2025-10-03 19:59:39.197 ( 118.850s) [        53665000]     buffer_instance.cc:401      1| BufferInstance::PJRT_Buffer_Destroy
2025-10-03 19:59:39.197 ( 118.850s) [        53665000]     buffer_instance.cc:401      1| BufferInstance::PJRT_Buffer_Destroy
2025-10-03 19:59:39.197 ( 118.851s) [        53665000]     buffer_instance.cc:401      1| BufferInstance::PJRT_Buffer_Destroy
2025-10-03 19:59:39.198 ( 118.851s) [        53665000]     buffer_instance.cc:401      1| BufferInstance::PJRT_Buffer_Destroy
2025-10-03 19:59:39.198 ( 118.851s) [        53665000]     buffer_instance.cc:401      1| BufferInstance::PJRT_Buffer_Destroy
2025-10-03 19:59:39.198 ( 118.851s) [        53665000]     buffer_instance.cc:401      1| BufferInstance::PJRT_Buffer_Destroy
2025-10-03 19:59:39.198 ( 118.851s) [        53665000]     buffer_instance.cc:401      1| BufferInstance::PJRT_Buffer_Destroy
2025-10-03 19:59:39.198 ( 118.851s) [        53665000]     buffer_instance.cc:401      1| BufferInstance::PJRT_Buffer_Destroy
2025-10-03 19:59:39.198 ( 118.851s) [        53665000]     buffer_instance.cc:401      1| BufferInstance::PJRT_Buffer_Destroy
2025-10-03 19:59:39.198 ( 118.851s) [        53665000]     buffer_instance.cc:401      1| BufferInstance::PJRT_Buffer_Destroy
2025-10-03 19:59:39.198 ( 118.851s) [        53665000]     buffer_instance.cc:401      1| BufferInstance::PJRT_Buffer_Destroy
2025-10-03 19:59:39.198 ( 118.851s) [        53665000]     buffer_instance.cc:401      1| BufferInstance::PJRT_Buffer_Destroy
2025-10-03 19:59:39.198 ( 118.851s) [        53665000]     buffer_instance.cc:401      1| BufferInstance::PJRT_Buffer_Destroy
2025-10-03 19:59:39.198 ( 118.851s) [        53665000]     buffer_instance.cc:401      1| BufferInstance::PJRT_Buffer_Destroy
2025-10-03 19:59:39.199 ( 118.852s) [        53665000]     buffer_instance.cc:401      1| BufferInstance::PJRT_Buffer_Destroy
2025-10-03 19:59:39.199 ( 118.852s) [        53665000]     buffer_instance.cc:401      1| BufferInstance::PJRT_Buffer_Destroy
2025-10-03 19:59:39.199 ( 118.852s) [        53665000]     buffer_instance.cc:401      1| BufferInstance::PJRT_Buffer_Destroy
2025-10-03 19:59:39.199 ( 118.852s) [        53665000]     buffer_instance.cc:401      1| BufferInstance::PJRT_Buffer_Destroy
2025-10-03 19:59:39.199 ( 118.852s) [        53665000]     buffer_instance.cc:401      1| BufferInstance::PJRT_Buffer_Destroy
2025-10-03 19:59:39.199 ( 118.852s) [        53665000]     buffer_instance.cc:401      1| BufferInstance::PJRT_Buffer_Destroy
2025-10-03 19:59:39.199 ( 118.852s) [        53665000]     buffer_instance.cc:401      1| BufferInstance::PJRT_Buffer_Destroy
2025-10-03 19:59:39.199 ( 118.852s) [        53665000]     buffer_instance.cc:401      1| BufferInstance::PJRT_Buffer_Destroy
2025-10-03 19:59:39.199 ( 118.852s) [        53665000]     buffer_instance.cc:401      1| BufferInstance::PJRT_Buffer_Destroy
2025-10-03 19:59:39.199 ( 118.852s) [        53665000]     buffer_instance.cc:401      1| BufferInstance::PJRT_Buffer_Destroy
2025-10-03 19:59:39.199 ( 118.852s) [        53665000]     buffer_instance.cc:401      1| BufferInstance::PJRT_Buffer_Destroy
2025-10-03 19:59:39.199 ( 118.852s) [        53665000]     buffer_instance.cc:401      1| BufferInstance::PJRT_Buffer_Destroy
2025-10-03 19:59:39.199 ( 118.853s) [        53665000]     buffer_instance.cc:401      1| BufferInstance::PJRT_Buffer_Destroy
2025-10-03 19:59:39.200 ( 118.853s) [        53665000]     buffer_instance.cc:401      1| BufferInstance::PJRT_Buffer_Destroy
2025-10-03 19:59:39.200 ( 118.853s) [        53665000]     buffer_instance.cc:401      1| BufferInstance::PJRT_Buffer_Destroy
2025-10-03 19:59:39.200 ( 118.853s) [        53665000]     buffer_instance.cc:401      1| BufferInstance::PJRT_Buffer_Destroy
2025-10-03 19:59:39.200 ( 118.853s) [        53665000]     buffer_instance.cc:401      1| BufferInstance::PJRT_Buffer_Destroy
2025-10-03 19:59:39.200 ( 118.853s) [        53665000]     buffer_instance.cc:401      1| BufferInstance::PJRT_Buffer_Destroy
2025-10-03 19:59:39.200 ( 118.853s) [        53665000]     buffer_instance.cc:401      1| BufferInstance::PJRT_Buffer_Destroy
2025-10-03 19:59:39.200 ( 118.853s) [        53665000]     buffer_instance.cc:401      1| BufferInstance::PJRT_Buffer_Destroy
2025-10-03 19:59:39.200 ( 118.853s) [        53665000]     buffer_instance.cc:401      1| BufferInstance::PJRT_Buffer_Destroy
2025-10-03 19:59:39.200 ( 118.853s) [        53665000]     buffer_instance.cc:401      1| BufferInstance::PJRT_Buffer_Destroy
2025-10-03 19:59:39.200 ( 118.853s) [        53665000]     buffer_instance.cc:401      1| BufferInstance::PJRT_Buffer_Destroy
2025-10-03 19:59:39.200 ( 118.853s) [        53665000]     buffer_instance.cc:401      1| BufferInstance::PJRT_Buffer_Destroy
2025-10-03 19:59:39.201 ( 118.854s) [        53665000]     buffer_instance.cc:401      1| BufferInstance::PJRT_Buffer_Destroy
2025-10-03 19:59:39.201 ( 118.854s) [        53665000]     buffer_instance.cc:401      1| BufferInstance::PJRT_Buffer_Destroy
2025-10-03 19:59:39.201 ( 118.854s) [        53665000]     buffer_instance.cc:401      1| BufferInstance::PJRT_Buffer_Destroy
2025-10-03 19:59:39.201 ( 118.854s) [        53665000]     buffer_instance.cc:401      1| BufferInstance::PJRT_Buffer_Destroy
2025-10-03 19:59:39.201 ( 118.854s) [        53665000]     buffer_instance.cc:401      1| BufferInstance::PJRT_Buffer_Destroy
2025-10-03 19:59:39.201 ( 118.854s) [        53665000]     buffer_instance.cc:401      1| BufferInstance::PJRT_Buffer_Destroy
2025-10-03 19:59:39.201 ( 118.854s) [        53665000]     buffer_instance.cc:401      1| BufferInstance::PJRT_Buffer_Destroy
2025-10-03 19:59:39.201 ( 118.854s) [        53665000]     buffer_instance.cc:401      1| BufferInstance::PJRT_Buffer_Destroy
2025-10-03 19:59:39.201 ( 118.854s) [        53665000]     buffer_instance.cc:401      1| BufferInstance::PJRT_Buffer_Destroy
2025-10-03 19:59:39.201 ( 118.854s) [        53665000]     buffer_instance.cc:401      1| BufferInstance::PJRT_Buffer_Destroy
2025-10-03 19:59:39.201 ( 118.854s) [        53665000]     buffer_instance.cc:401      1| BufferInstance::PJRT_Buffer_Destroy
2025-10-03 19:59:39.201 ( 118.854s) [        53665000]     buffer_instance.cc:401      1| BufferInstance::PJRT_Buffer_Destroy
2025-10-03 19:59:39.201 ( 118.854s) [        53665000]     buffer_instance.cc:401      1| BufferInstance::PJRT_Buffer_Destroy
2025-10-03 19:59:39.201 ( 118.854s) [        53665000]     buffer_instance.cc:401      1| BufferInstance::PJRT_Buffer_Destroy
2025-10-03 19:59:39.202 ( 118.855s) [        53665000]     buffer_instance.cc:401      1| BufferInstance::PJRT_Buffer_Destroy
2025-10-03 19:59:39.202 ( 118.855s) [        53665000]     buffer_instance.cc:401      1| BufferInstance::PJRT_Buffer_Destroy
2025-10-03 19:59:39.202 ( 118.855s) [        53665000]     buffer_instance.cc:401      1| BufferInstance::PJRT_Buffer_Destroy
2025-10-03 19:59:39.202 ( 118.855s) [        53665000]     buffer_instance.cc:401      1| BufferInstance::PJRT_Buffer_Destroy
2025-10-03 19:59:39.202 ( 118.855s) [        53665000]     buffer_instance.cc:401      1| BufferInstance::PJRT_Buffer_Destroy
2025-10-03 19:59:39.202 ( 118.855s) [        53665000]     buffer_instance.cc:401      1| BufferInstance::PJRT_Buffer_Destroy
2025-10-03 19:59:39.202 ( 118.855s) [        53665000]     buffer_instance.cc:401      1| BufferInstance::PJRT_Buffer_Destroy
2025-10-03 19:59:39.202 ( 118.855s) [        53665000]     buffer_instance.cc:401      1| BufferInstance::PJRT_Buffer_Destroy
2025-10-03 19:59:39.202 ( 118.855s) [        53665000]     buffer_instance.cc:401      1| BufferInstance::PJRT_Buffer_Destroy
2025-10-03 19:59:39.202 ( 118.855s) [        53665000]     buffer_instance.cc:401      1| BufferInstance::PJRT_Buffer_Destroy
2025-10-03 19:59:39.202 ( 118.855s) [        53665000]     buffer_instance.cc:401      1| BufferInstance::PJRT_Buffer_Destroy
2025-10-03 19:59:39.202 ( 118.855s) [        53665000]     buffer_instance.cc:401      1| BufferInstance::PJRT_Buffer_Destroy
2025-10-03 19:59:39.202 ( 118.856s) [        53665000]     buffer_instance.cc:401      1| BufferInstance::PJRT_Buffer_Destroy
2025-10-03 19:59:39.203 ( 118.856s) [        53665000]     buffer_instance.cc:401      1| BufferInstance::PJRT_Buffer_Destroy
2025-10-03 19:59:39.203 ( 118.856s) [        53665000]     buffer_instance.cc:401      1| BufferInstance::PJRT_Buffer_Destroy
2025-10-03 19:59:39.203 ( 118.856s) [        53665000]     buffer_instance.cc:401      1| BufferInstance::PJRT_Buffer_Destroy
2025-10-03 19:59:39.203 ( 118.856s) [        53665000]     buffer_instance.cc:401      1| BufferInstance::PJRT_Buffer_Destroy
2025-10-03 19:59:39.203 ( 118.856s) [        53665000]     buffer_instance.cc:401      1| BufferInstance::PJRT_Buffer_Destroy
2025-10-03 19:59:39.203 ( 118.856s) [        53665000]     buffer_instance.cc:401      1| BufferInstance::PJRT_Buffer_Destroy
2025-10-03 19:59:39.203 ( 118.856s) [        53665000]     buffer_instance.cc:401      1| BufferInstance::PJRT_Buffer_Destroy
2025-10-03 19:59:39.203 ( 118.856s) [        53665000]     buffer_instance.cc:401      1| BufferInstance::PJRT_Buffer_Destroy
2025-10-03 19:59:39.203 ( 118.856s) [        53665000]     buffer_instance.cc:401      1| BufferInstance::PJRT_Buffer_Destroy
2025-10-03 19:59:39.203 ( 118.856s) [        53665000]     buffer_instance.cc:401      1| BufferInstance::PJRT_Buffer_Destroy
2025-10-03 19:59:39.203 ( 118.856s) [        53665000]     buffer_instance.cc:401      1| BufferInstance::PJRT_Buffer_Destroy
2025-10-03 19:59:39.203 ( 118.856s) [        53665000]     buffer_instance.cc:401      1| BufferInstance::PJRT_Buffer_Destroy
2025-10-03 19:59:39.204 ( 118.857s) [        53665000]     buffer_instance.cc:401      1| BufferInstance::PJRT_Buffer_Destroy
2025-10-03 19:59:39.204 ( 118.857s) [        53665000]     buffer_instance.cc:401      1| BufferInstance::PJRT_Buffer_Destroy
2025-10-03 19:59:39.204 ( 118.857s) [        53665000]     buffer_instance.cc:401      1| BufferInstance::PJRT_Buffer_Destroy
2025-10-03 19:59:39.204 ( 118.857s) [        53665000]     buffer_instance.cc:401      1| BufferInstance::PJRT_Buffer_Destroy
2025-10-03 19:59:39.204 ( 118.857s) [        53665000]     buffer_instance.cc:401      1| BufferInstance::PJRT_Buffer_Destroy
2025-10-03 19:59:39.204 ( 118.857s) [        53665000]     buffer_instance.cc:401      1| BufferInstance::PJRT_Buffer_Destroy
2025-10-03 19:59:39.204 ( 118.857s) [        53665000]     buffer_instance.cc:401      1| BufferInstance::PJRT_Buffer_Destroy
2025-10-03 19:59:39.204 ( 118.857s) [        53665000]     buffer_instance.cc:401      1| BufferInstance::PJRT_Buffer_Destroy
2025-10-03 19:59:39.204 ( 118.857s) [        53665000]     buffer_instance.cc:401      1| BufferInstance::PJRT_Buffer_Destroy
2025-10-03 19:59:39.204 ( 118.857s) [        53665000]     buffer_instance.cc:401      1| BufferInstance::PJRT_Buffer_Destroy
2025-10-03 19:59:39.204 ( 118.857s) [        53665000]     buffer_instance.cc:401      1| BufferInstance::PJRT_Buffer_Destroy
2025-10-03 19:59:39.204 ( 118.858s) [        53665000]     buffer_instance.cc:401      1| BufferInstance::PJRT_Buffer_Destroy
2025-10-03 19:59:39.205 ( 118.858s) [        53665000]     buffer_instance.cc:401      1| BufferInstance::PJRT_Buffer_Destroy
2025-10-03 19:59:39.205 ( 118.858s) [        53665000]     buffer_instance.cc:401      1| BufferInstance::PJRT_Buffer_Destroy
2025-10-03 19:59:39.205 ( 118.858s) [        53665000]     buffer_instance.cc:401      1| BufferInstance::PJRT_Buffer_Destroy
2025-10-03 19:59:39.205 ( 118.858s) [        53665000]     buffer_instance.cc:401      1| BufferInstance::PJRT_Buffer_Destroy
2025-10-03 19:59:39.205 ( 118.858s) [        53665000]     buffer_instance.cc:401      1| BufferInstance::PJRT_Buffer_Destroy
2025-10-03 19:59:39.205 ( 118.858s) [        53665000]     buffer_instance.cc:401      1| BufferInstance::PJRT_Buffer_Destroy
2025-10-03 19:59:39.205 ( 118.858s) [        53665000]     buffer_instance.cc:401      1| BufferInstance::PJRT_Buffer_Destroy
2025-10-03 19:59:39.205 ( 118.858s) [        53665000]     buffer_instance.cc:401      1| BufferInstance::PJRT_Buffer_Destroy
2025-10-03 19:59:39.205 ( 118.858s) [        53665000]     buffer_instance.cc:401      1| BufferInstance::PJRT_Buffer_Destroy
2025-10-03 19:59:39.205 ( 118.858s) [        53665000]     buffer_instance.cc:401      1| BufferInstance::PJRT_Buffer_Destroy
2025-10-03 19:59:39.205 ( 118.858s) [        53665000]     buffer_instance.cc:401      1| BufferInstance::PJRT_Buffer_Destroy
2025-10-03 19:59:39.205 ( 118.858s) [        53665000]     buffer_instance.cc:401      1| BufferInstance::PJRT_Buffer_Destroy
2025-10-03 19:59:39.205 ( 118.858s) [        53665000]     buffer_instance.cc:401      1| BufferInstance::PJRT_Buffer_Destroy
2025-10-03 19:59:39.205 ( 118.859s) [        53665000]     buffer_instance.cc:401      1| BufferInstance::PJRT_Buffer_Destroy
2025-10-03 19:59:39.206 ( 118.859s) [        53665000]     buffer_instance.cc:401      1| BufferInstance::PJRT_Buffer_Destroy
2025-10-03 19:59:39.206 ( 118.859s) [        53665000]     buffer_instance.cc:401      1| BufferInstance::PJRT_Buffer_Destroy
2025-10-03 19:59:39.206 ( 118.859s) [        53665000]     buffer_instance.cc:401      1| BufferInstance::PJRT_Buffer_Destroy
2025-10-03 19:59:39.206 ( 118.859s) [        53665000]     buffer_instance.cc:401      1| BufferInstance::PJRT_Buffer_Destroy
2025-10-03 19:59:39.206 ( 118.859s) [        53665000]     buffer_instance.cc:401      1| BufferInstance::PJRT_Buffer_Destroy
2025-10-03 19:59:39.206 ( 118.859s) [        53665000]     buffer_instance.cc:401      1| BufferInstance::PJRT_Buffer_Destroy
2025-10-03 19:59:39.206 ( 118.859s) [        53665000]     buffer_instance.cc:401      1| BufferInstance::PJRT_Buffer_Destroy
2025-10-03 19:59:39.206 ( 118.859s) [        53665000]     buffer_instance.cc:401      1| BufferInstance::PJRT_Buffer_Destroy
2025-10-03 19:59:39.206 ( 118.859s) [        53665000]     buffer_instance.cc:401      1| BufferInstance::PJRT_Buffer_Destroy
2025-10-03 19:59:39.206 ( 118.859s) [        53665000]     buffer_instance.cc:401      1| BufferInstance::PJRT_Buffer_Destroy
2025-10-03 19:59:39.206 ( 118.859s) [        53665000]     buffer_instance.cc:401      1| BufferInstance::PJRT_Buffer_Destroy
2025-10-03 19:59:39.206 ( 118.859s) [        53665000]     buffer_instance.cc:401      1| BufferInstance::PJRT_Buffer_Destroy
2025-10-03 19:59:39.206 ( 118.859s) [        53665000]     buffer_instance.cc:401      1| BufferInstance::PJRT_Buffer_Destroy
2025-10-03 19:59:39.206 ( 118.859s) [        53665000]     buffer_instance.cc:401      1| BufferInstance::PJRT_Buffer_Destroy
2025-10-03 19:59:39.206 ( 118.860s) [        53665000]     buffer_instance.cc:401      1| BufferInstance::PJRT_Buffer_Destroy
2025-10-03 19:59:39.207 ( 118.860s) [        53665000]     buffer_instance.cc:401      1| BufferInstance::PJRT_Buffer_Destroy
2025-10-03 19:59:39.207 ( 118.860s) [        53665000]     buffer_instance.cc:401      1| BufferInstance::PJRT_Buffer_Destroy
2025-10-03 19:59:39.207 ( 118.860s) [        53665000]     buffer_instance.cc:401      1| BufferInstance::PJRT_Buffer_Destroy
2025-10-03 19:59:39.207 ( 118.860s) [        53665000]     buffer_instance.cc:401      1| BufferInstance::PJRT_Buffer_Destroy
2025-10-03 19:59:39.207 ( 118.860s) [        53665000]     buffer_instance.cc:401      1| BufferInstance::PJRT_Buffer_Destroy
2025-10-03 19:59:39.207 ( 118.860s) [        53665000]     buffer_instance.cc:401      1| BufferInstance::PJRT_Buffer_Destroy
2025-10-03 19:59:39.207 ( 118.860s) [        53665000]     buffer_instance.cc:401      1| BufferInstance::PJRT_Buffer_Destroy
2025-10-03 19:59:39.207 ( 118.860s) [        53665000]     buffer_instance.cc:401      1| BufferInstance::PJRT_Buffer_Destroy
2025-10-03 19:59:39.207 ( 118.860s) [        53665000]     buffer_instance.cc:401      1| BufferInstance::PJRT_Buffer_Destroy
2025-10-03 19:59:39.207 ( 118.860s) [        53665000]     buffer_instance.cc:401      1| BufferInstance::PJRT_Buffer_Destroy
2025-10-03 19:59:39.207 ( 118.860s) [        53665000]     buffer_instance.cc:401      1| BufferInstance::PJRT_Buffer_Destroy
2025-10-03 19:59:39.207 ( 118.860s) [        53665000]     buffer_instance.cc:401      1| BufferInstance::PJRT_Buffer_Destroy
2025-10-03 19:59:39.208 ( 118.861s) [        53665000]     buffer_instance.cc:401      1| BufferInstance::PJRT_Buffer_Destroy
2025-10-03 19:59:39.208 ( 118.861s) [        53665000]     buffer_instance.cc:401      1| BufferInstance::PJRT_Buffer_Destroy
2025-10-03 19:59:39.208 ( 118.861s) [        53665000]     buffer_instance.cc:401      1| BufferInstance::PJRT_Buffer_Destroy
2025-10-03 19:59:39.208 ( 118.861s) [        53665000]     buffer_instance.cc:401      1| BufferInstance::PJRT_Buffer_Destroy
2025-10-03 19:59:39.208 ( 118.861s) [        53665000]     buffer_instance.cc:401      1| BufferInstance::PJRT_Buffer_Destroy
2025-10-03 19:59:39.208 ( 118.861s) [        53665000]     buffer_instance.cc:401      1| BufferInstance::PJRT_Buffer_Destroy
2025-10-03 19:59:39.208 ( 118.861s) [        53665000]     buffer_instance.cc:401      1| BufferInstance::PJRT_Buffer_Destroy
2025-10-03 19:59:39.208 ( 118.861s) [        53665000]     buffer_instance.cc:401      1| BufferInstance::PJRT_Buffer_Destroy
2025-10-03 19:59:39.208 ( 118.861s) [        53665000]     buffer_instance.cc:401      1| BufferInstance::PJRT_Buffer_Destroy
2025-10-03 19:59:39.208 ( 118.861s) [        53665000]     buffer_instance.cc:401      1| BufferInstance::PJRT_Buffer_Destroy
2025-10-03 19:59:39.208 ( 118.861s) [        53665000]     buffer_instance.cc:401      1| BufferInstance::PJRT_Buffer_Destroy
2025-10-03 19:59:39.208 ( 118.861s) [        53665000]     buffer_instance.cc:401      1| BufferInstance::PJRT_Buffer_Destroy
2025-10-03 19:59:39.209 ( 118.862s) [        53665000]     buffer_instance.cc:401      1| BufferInstance::PJRT_Buffer_Destroy
2025-10-03 19:59:39.209 ( 118.862s) [        53665000]     buffer_instance.cc:401      1| BufferInstance::PJRT_Buffer_Destroy
2025-10-03 19:59:39.209 ( 118.862s) [        53665000]     buffer_instance.cc:401      1| BufferInstance::PJRT_Buffer_Destroy
2025-10-03 19:59:39.209 ( 118.862s) [        53665000]     buffer_instance.cc:401      1| BufferInstance::PJRT_Buffer_Destroy
2025-10-03 19:59:39.209 ( 118.862s) [        53665000]     buffer_instance.cc:401      1| BufferInstance::PJRT_Buffer_Destroy
2025-10-03 19:59:39.209 ( 118.862s) [        53665000]     buffer_instance.cc:401      1| BufferInstance::PJRT_Buffer_Destroy
2025-10-03 19:59:39.209 ( 118.862s) [        53665000]     buffer_instance.cc:401      1| BufferInstance::PJRT_Buffer_Destroy
2025-10-03 19:59:39.209 ( 118.862s) [        53665000]     buffer_instance.cc:401      1| BufferInstance::PJRT_Buffer_Destroy
2025-10-03 19:59:39.209 ( 118.862s) [        53665000]     buffer_instance.cc:401      1| BufferInstance::PJRT_Buffer_Destroy
2025-10-03 19:59:39.209 ( 118.862s) [        53665000]     buffer_instance.cc:401      1| BufferInstance::PJRT_Buffer_Destroy
2025-10-03 19:59:39.209 ( 118.862s) [        53665000]     buffer_instance.cc:401      1| BufferInstance::PJRT_Buffer_Destroy
2025-10-03 19:59:39.249 ( 118.902s) [        53665000]     buffer_instance.cc:401      1| BufferInstance::PJRT_Buffer_Destroy
2025-10-03 19:59:39.289 ( 118.942s) [        53665000]     buffer_instance.cc:401      1| BufferInstance::PJRT_Buffer_Destroy
2025-10-03 19:59:39.290 ( 118.943s) [        53665000]     buffer_instance.cc:401      1| BufferInstance::PJRT_Buffer_Destroy
2025-10-03 19:59:39.290 ( 118.943s) [        53665000]     buffer_instance.cc:401      1| BufferInstance::PJRT_Buffer_Destroy
2025-10-03 19:59:39.290 ( 118.943s) [        53665000]     buffer_instance.cc:401      1| BufferInstance::PJRT_Buffer_Destroy
2025-10-03 19:59:39.290 ( 118.943s) [        53665000]     buffer_instance.cc:401      1| BufferInstance::PJRT_Buffer_Destroy
2025-10-03 19:59:39.290 ( 118.943s) [        53665000]     buffer_instance.cc:401      1| BufferInstance::PJRT_Buffer_Destroy
2025-10-03 19:59:39.290 ( 118.943s) [        53665000]     buffer_instance.cc:401      1| BufferInstance::PJRT_Buffer_Destroy
2025-10-03 19:59:39.291 ( 118.944s) [        53665000]     buffer_instance.cc:401      1| BufferInstance::PJRT_Buffer_Destroy
2025-10-03 19:59:39.291 ( 118.944s) [        53665000]     buffer_instance.cc:401      1| BufferInstance::PJRT_Buffer_Destroy
2025-10-03 19:59:39.291 ( 118.944s) [        53665000]     buffer_instance.cc:401      1| BufferInstance::PJRT_Buffer_Destroy
2025-10-03 19:59:39.291 ( 118.944s) [        53665000]     buffer_instance.cc:401      1| BufferInstance::PJRT_Buffer_Destroy
2025-10-03 19:59:39.291 ( 118.944s) [        53665000]     buffer_instance.cc:401      1| BufferInstance::PJRT_Buffer_Destroy
2025-10-03 19:59:39.291 ( 118.944s) [        53665000]     buffer_instance.cc:401      1| BufferInstance::PJRT_Buffer_Destroy
2025-10-03 19:59:39.291 ( 118.944s) [        53665000]     buffer_instance.cc:401      1| BufferInstance::PJRT_Buffer_Destroy
2025-10-03 19:59:39.291 ( 118.944s) [        53665000]     buffer_instance.cc:401      1| BufferInstance::PJRT_Buffer_Destroy
2025-10-03 19:59:39.291 ( 118.944s) [        53665000]     buffer_instance.cc:401      1| BufferInstance::PJRT_Buffer_Destroy
2025-10-03 19:59:39.291 ( 118.944s) [        53665000]     buffer_instance.cc:401      1| BufferInstance::PJRT_Buffer_Destroy
2025-10-03 19:59:39.292 ( 118.945s) [        53665000]     buffer_instance.cc:401      1| BufferInstance::PJRT_Buffer_Destroy
2025-10-03 19:59:39.292 ( 118.945s) [        53665000]     buffer_instance.cc:401      1| BufferInstance::PJRT_Buffer_Destroy
2025-10-03 19:59:39.292 ( 118.945s) [        53665000]     buffer_instance.cc:401      1| BufferInstance::PJRT_Buffer_Destroy
2025-10-03 19:59:39.292 ( 118.945s) [        53665000]     buffer_instance.cc:401      1| BufferInstance::PJRT_Buffer_Destroy
2025-10-03 19:59:39.292 ( 118.945s) [        53665000]     buffer_instance.cc:401      1| BufferInstance::PJRT_Buffer_Destroy
2025-10-03 19:59:39.292 ( 118.945s) [        53665000]     buffer_instance.cc:401      1| BufferInstance::PJRT_Buffer_Destroy
2025-10-03 19:59:39.332 ( 118.985s) [        53665000]     buffer_instance.cc:401      1| BufferInstance::PJRT_Buffer_Destroy


=============================== warnings summary ===============================
tests/torch/multi_chip/n300/models/tensor_parallel/llama3/test_llama_step_n300.py::test_llama_step[LLMRunMode.PREFILL]
tests/torch/multi_chip/n300/models/tensor_parallel/llama3/test_llama_step_n300.py::test_llama_step[LLMRunMode.DECODE]
  /localdev/jameszianxu/clean/tt-xla/tests/torch/multi_chip/n300/models/tensor_parallel/llama3/test_llama_step_n300.py:61: DeprecationWarning: Use torch_xla.device instead
    device: torch.device = xm.xla_device()

tests/torch/multi_chip/n300/models/tensor_parallel/llama3/test_llama_step_n300.py::test_llama_step[LLMRunMode.DECODE]
  /localdev/jameszianxu/clean/tt-xla/venv/lib/python3.11/site-packages/torch_xla/runtime.py:213: UserWarning: XLA_USE_SPMD is being deprecated. Use torch_xla.runtime.use_spmd() without setting XLA_USE_SPMD env-var.
    warnings.warn("XLA_USE_SPMD is being deprecated. "

-- Docs: https://docs.pytest.org/en/stable/how-to/capture-warnings.html
================== 2 passed, 3 warnings in 120.03s (0:02:00) ===================
