WARNING:root:Defaulting to PJRT_DEVICE=CPU
============================= test session starts ==============================
platform linux -- Python 3.10.12, pytest-8.4.1, pluggy-1.6.0 -- /localdev/jameszianxu/gen_mc/tt-torch/env/venv/bin/python3.10
cachedir: .pytest_cache
rootdir: /localdev/jameszianxu/gen_mc/tt-torch
configfile: pyproject.toml
plugins: cov-6.2.1, forked-1.6.0, xdist-3.8.0, split-0.10.0
collecting ... collected 1 item

tests/models/llama/test_llama3_generative.py::test_llama3_generate Loading checkpoint shards:   0%|          | 0/2 [00:00<?, ?it/s]Loading checkpoint shards: 100%|██████████| 2/2 [00:00<00:00, 51.54it/s]
[James] Manually forwarding attention mask
Initial prompt: '<|begin_of_text|>I like taking walks in the'
<|begin_of_text|>I like taking walks in the2025-08-12 15:38:59.557 (   0.000s) [        C545D1C0]      dylib_platform.cc:47       1| DylibPlatform::SubclassInitialize
2025-08-12 15:38:59.558 (   0.001s) [        C545D1C0]     client_instance.cc:39       1| ClientInstance::ClientInstance
2025-08-12 15:38:59.558 (   0.001s) [        C545D1C0]              client.cc:18       1| TTClientInstance::TTClientInstance
2025-08-12 15:38:59.558 (   0.001s) [        C545D1C0]     client_instance.cc:60       1| ClientInstance::Initialize
2025-08-12 15:39:02.841 (   3.284s) [        C545D1C0]              stubs.inc:112   WARN| STUB: PJRT_Client_TopologyDescription
2025-08-12 15:39:02.841 (   3.284s) [        C545D1C0]      error_instance.cc:49       1| ErrorInstance::PJRT_Error_Message
2025-08-12 15:39:02.841 (   3.284s) [        C545D1C0]      error_instance.cc:58       1| ErrorInstance::PJRT_Error_GetCode
2025-08-12 15:39:02.841 (   3.284s) [        C545D1C0]      error_instance.cc:43       1| ErrorInstance::PJRT_Error_Destroy
2025-08-12 15:39:02.841 (   3.284s) [        C545D1C0]     client_instance.cc:383      1| ClientInstance::PJRT_Client_PlatformVersion
2025-08-12 15:39:02.841 (   3.284s) [        C545D1C0]     client_instance.cc:363      1| ClientInstance::PJRT_Client_PlatformName
2025-08-12 15:39:02.842 (   3.284s) [        C545D1C0]     client_instance.cc:395      1| ClientInstance::PJRT_Client_Devices
2025-08-12 15:39:02.842 (   3.284s) [        C545D1C0]     device_instance.cc:44       1| DeviceInstance::PJRT_Device_GetDescription
2025-08-12 15:39:02.842 (   3.284s) [        C545D1C0]  device_description.cc:63       1| DeviceDescription::PJRT_DeviceDescription_Attributes
2025-08-12 15:39:02.842 (   3.284s) [        C545D1C0]     device_instance.cc:44       1| DeviceInstance::PJRT_Device_GetDescription
2025-08-12 15:39:02.842 (   3.284s) [        C545D1C0]  device_description.cc:63       1| DeviceDescription::PJRT_DeviceDescription_Attributes
2025-08-12 15:39:02.842 (   3.284s) [        C545D1C0]     client_instance.cc:408      1| ClientInstance::PJRT_Client_AddressableDevices
2025-08-12 15:39:02.842 (   3.284s) [        C545D1C0]     client_instance.cc:458      1| ClientInstance::PJRT_Client_AddressableMemories
2025-08-12 15:39:02.842 (   3.284s) [        C545D1C0]     device_instance.cc:71       1| DeviceInstance::PJRT_Device_AddressableMemories
2025-08-12 15:39:02.842 (   3.284s) [        C545D1C0]     device_instance.cc:71       1| DeviceInstance::PJRT_Device_AddressableMemories
2025-08-12 15:39:02.842 (   3.284s) [        C545D1C0]     memory_instance.cc:124      1| MemoryInstance::PJRT_Memory_AddressableByDevices
2025-08-12 15:39:02.842 (   3.284s) [        C545D1C0]     memory_instance.cc:124      1| MemoryInstance::PJRT_Memory_AddressableByDevices
2025-08-12 15:39:02.842 (   3.284s) [        C545D1C0]     memory_instance.cc:124      1| MemoryInstance::PJRT_Memory_AddressableByDevices
2025-08-12 15:39:02.842 (   3.284s) [        C545D1C0]        api_bindings.cc:76       1| PJRT_Plugin_Attributes
2025-08-12 15:39:02.842198: W torch_xla/csrc/runtime/profiler.cpp:88] Profiler API not found for PJRT plugin
2025-08-12 15:39:02.842 (   3.285s) [        C545D1C0]  device_description.cc:44       1| DeviceDescription::PJRT_DeviceDescription_Id
2025-08-12 15:39:02.842 (   3.285s) [        C545D1C0]  device_description.cc:44       1| DeviceDescription::PJRT_DeviceDescription_Id
2025-08-12 15:39:02.842 (   3.285s) [        C545D1C0]  device_description.cc:44       1| DeviceDescription::PJRT_DeviceDescription_Id
2025-08-12 15:39:02.842 (   3.285s) [        C545D1C0]  device_description.cc:44       1| DeviceDescription::PJRT_DeviceDescription_Id
2025-08-12 15:39:02.842 (   3.285s) [        C545D1C0]  device_description.cc:44       1| DeviceDescription::PJRT_DeviceDescription_Id
2025-08-12 15:39:02.842 (   3.285s) [        C545D1C0]  device_description.cc:44       1| DeviceDescription::PJRT_DeviceDescription_Id
2025-08-12 15:39:02.842 (   3.285s) [        C545D1C0]  device_description.cc:99       1| DeviceDescription::PJRT_DeviceDescription_ToString
2025-08-12 15:39:02.842 (   3.285s) [        C545D1C0]  device_description.cc:99       1| DeviceDescription::PJRT_DeviceDescription_ToString
2025-08-12 15:39:02.842 (   3.285s) [        C545D1C0]  device_description.cc:44       1| DeviceDescription::PJRT_DeviceDescription_Id
2025-08-12 15:39:02.842 (   3.285s) [        C545D1C0]  device_description.cc:44       1| DeviceDescription::PJRT_DeviceDescription_Id
2025-08-12 15:39:02.842 (   3.285s) [        C545D1C0]  device_description.cc:44       1| DeviceDescription::PJRT_DeviceDescription_Id
2025-08-12 15:39:02.842 (   3.285s) [        C545D1C0]  device_description.cc:44       1| DeviceDescription::PJRT_DeviceDescription_Id
2025-08-12 15:39:02.842 (   3.285s) [        C545D1C0]  device_description.cc:44       1| DeviceDescription::PJRT_DeviceDescription_Id
2025-08-12 15:39:02.843 (   3.286s) [        C545D1C0]     device_instance.cc:82       1| DeviceInstance::PJRT_Device_DefaultMemory
2025-08-12 15:39:02.843 (   3.286s) [        C545D1C0]     client_instance.cc:509      1| ClientInstance::PJRT_Client_BufferFromHostBuffer
2025-08-12 15:39:02.843 (   3.286s) [        C545D1C0]     memory_instance.cc:57       1| MemoryInstance::getDevice
2025-08-12 15:39:02.843 (   3.286s) [        C545D1C0]     buffer_instance.cc:228      1| [BUFFER] Creating BORROWED host tensor with shape [3072] (semantics: ZeroCopy/other)
2025-08-12 15:39:02.843 (   3.286s) [        C545D1C0]      event_instance.cc:222      1| EventInstance::PJRT_Event_OnReady
2025-08-12 15:39:02.843 (   3.286s) [        C545D1C0]      event_instance.cc:171      1| EventInstance::PJRT_Event_Destroy
2025-08-12 15:39:02.843 (   3.286s) [        C545D1C0]     device_instance.cc:82       1| DeviceInstance::PJRT_Device_DefaultMemory
2025-08-12 15:39:02.843 (   3.286s) [        C545D1C0]     client_instance.cc:509      1| ClientInstance::PJRT_Client_BufferFromHostBuffer
2025-08-12 15:39:02.843 (   3.286s) [        C545D1C0]     memory_instance.cc:57       1| MemoryInstance::getDevice
2025-08-12 15:39:02.844 (   3.286s) [        C545D1C0]     buffer_instance.cc:228      1| [BUFFER] Creating BORROWED host tensor with shape [3072] (semantics: ZeroCopy/other)
2025-08-12 15:39:02.844 (   3.286s) [        C545D1C0]      event_instance.cc:222      1| EventInstance::PJRT_Event_OnReady
2025-08-12 15:39:02.844 (   3.286s) [        C545D1C0]      event_instance.cc:171      1| EventInstance::PJRT_Event_Destroy
2025-08-12 15:39:02.844 (   3.286s) [        C545D1C0]     device_instance.cc:82       1| DeviceInstance::PJRT_Device_DefaultMemory
2025-08-12 15:39:02.844 (   3.286s) [        C545D1C0]     client_instance.cc:509      1| ClientInstance::PJRT_Client_BufferFromHostBuffer
2025-08-12 15:39:02.844 (   3.286s) [        C545D1C0]     memory_instance.cc:57       1| MemoryInstance::getDevice
2025-08-12 15:39:02.844 (   3.286s) [        C545D1C0]     buffer_instance.cc:228      1| [BUFFER] Creating BORROWED host tensor with shape [3072] (semantics: ZeroCopy/other)
2025-08-12 15:39:02.844 (   3.286s) [        C545D1C0]      event_instance.cc:222      1| EventInstance::PJRT_Event_OnReady
2025-08-12 15:39:02.844 (   3.286s) [        C545D1C0]      event_instance.cc:171      1| EventInstance::PJRT_Event_Destroy
2025-08-12 15:39:02.844 (   3.287s) [        C545D1C0]     device_instance.cc:82       1| DeviceInstance::PJRT_Device_DefaultMemory
2025-08-12 15:39:02.844 (   3.287s) [        C545D1C0]     client_instance.cc:509      1| ClientInstance::PJRT_Client_BufferFromHostBuffer
2025-08-12 15:39:02.844 (   3.287s) [        C545D1C0]     memory_instance.cc:57       1| MemoryInstance::getDevice
2025-08-12 15:39:02.844 (   3.287s) [        C545D1C0]     buffer_instance.cc:228      1| [BUFFER] Creating BORROWED host tensor with shape [3072] (semantics: ZeroCopy/other)
2025-08-12 15:39:02.844 (   3.287s) [        C545D1C0]      event_instance.cc:222      1| EventInstance::PJRT_Event_OnReady
2025-08-12 15:39:02.844 (   3.287s) [        C545D1C0]      event_instance.cc:171      1| EventInstance::PJRT_Event_Destroy
2025-08-12 15:39:02.844 (   3.287s) [        C545D1C0]     device_instance.cc:82       1| DeviceInstance::PJRT_Device_DefaultMemory
2025-08-12 15:39:02.844 (   3.287s) [        C545D1C0]     client_instance.cc:509      1| ClientInstance::PJRT_Client_BufferFromHostBuffer
2025-08-12 15:39:02.844 (   3.287s) [        C545D1C0]     memory_instance.cc:57       1| MemoryInstance::getDevice
2025-08-12 15:39:02.844 (   3.287s) [        C545D1C0]     buffer_instance.cc:228      1| [BUFFER] Creating BORROWED host tensor with shape [3072] (semantics: ZeroCopy/other)
2025-08-12 15:39:02.844 (   3.287s) [        C545D1C0]      event_instance.cc:222      1| EventInstance::PJRT_Event_OnReady
2025-08-12 15:39:02.844 (   3.287s) [        C545D1C0]      event_instance.cc:171      1| EventInstance::PJRT_Event_Destroy
2025-08-12 15:39:02.876 (   3.319s) [        C545D1C0]     device_instance.cc:82       1| DeviceInstance::PJRT_Device_DefaultMemory
2025-08-12 15:39:02.876 (   3.319s) [        C545D1C0]     client_instance.cc:509      1| ClientInstance::PJRT_Client_BufferFromHostBuffer
2025-08-12 15:39:02.876 (   3.319s) [        C545D1C0]     memory_instance.cc:57       1| MemoryInstance::getDevice
2025-08-12 15:39:02.876 (   3.319s) [        C545D1C0]     buffer_instance.cc:228      1| [BUFFER] Creating BORROWED host tensor with shape [128256, 3072] (semantics: ZeroCopy/other)
2025-08-12 15:39:02.876 (   3.319s) [        C545D1C0]      event_instance.cc:222      1| EventInstance::PJRT_Event_OnReady
2025-08-12 15:39:02.876 (   3.319s) [        C545D1C0]      event_instance.cc:171      1| EventInstance::PJRT_Event_Destroy
2025-08-12 15:39:02.877 (   3.320s) [        C545D1C0]     device_instance.cc:82       1| DeviceInstance::PJRT_Device_DefaultMemory
2025-08-12 15:39:02.877 (   3.320s) [        C545D1C0]     client_instance.cc:509      1| ClientInstance::PJRT_Client_BufferFromHostBuffer
2025-08-12 15:39:02.877 (   3.320s) [        C545D1C0]     memory_instance.cc:57       1| MemoryInstance::getDevice
2025-08-12 15:39:02.877 (   3.320s) [        C545D1C0]     buffer_instance.cc:228      1| [BUFFER] Creating BORROWED host tensor with shape [1, 64, 1] (semantics: ZeroCopy/other)
2025-08-12 15:39:02.877 (   3.320s) [        C545D1C0]      event_instance.cc:222      1| EventInstance::PJRT_Event_OnReady
2025-08-12 15:39:02.877 (   3.320s) [        C545D1C0]      event_instance.cc:171      1| EventInstance::PJRT_Event_Destroy
2025-08-12 15:39:02.892 (   3.335s) [        C545D1C0]     device_instance.cc:82       1| DeviceInstance::PJRT_Device_DefaultMemory
2025-08-12 15:39:02.892 (   3.335s) [        C545D1C0]     client_instance.cc:509      1| ClientInstance::PJRT_Client_BufferFromHostBuffer
2025-08-12 15:39:02.892 (   3.335s) [        C545D1C0]     memory_instance.cc:57       1| MemoryInstance::getDevice
2025-08-12 15:39:02.892 (   3.335s) [        C545D1C0]     buffer_instance.cc:228      1| [BUFFER] Creating BORROWED host tensor with shape [3072, 3072] (semantics: ZeroCopy/other)
2025-08-12 15:39:02.892 (   3.335s) [        C545D1C0]      event_instance.cc:222      1| EventInstance::PJRT_Event_OnReady
2025-08-12 15:39:02.892 (   3.335s) [        C545D1C0]      event_instance.cc:171      1| EventInstance::PJRT_Event_Destroy
2025-08-12 15:39:02.896 (   3.339s) [        C545D1C0]     device_instance.cc:82       1| DeviceInstance::PJRT_Device_DefaultMemory
2025-08-12 15:39:02.896 (   3.339s) [        C545D1C0]     client_instance.cc:509      1| ClientInstance::PJRT_Client_BufferFromHostBuffer
2025-08-12 15:39:02.896 (   3.339s) [        C545D1C0]     memory_instance.cc:57       1| MemoryInstance::getDevice
2025-08-12 15:39:02.897 (   3.339s) [        C545D1C0]     buffer_instance.cc:228      1| [BUFFER] Creating BORROWED host tensor with shape [3072, 1024] (semantics: ZeroCopy/other)
2025-08-12 15:39:02.897 (   3.339s) [        C545D1C0]      event_instance.cc:222      1| EventInstance::PJRT_Event_OnReady
2025-08-12 15:39:02.897 (   3.339s) [        C545D1C0]      event_instance.cc:171      1| EventInstance::PJRT_Event_Destroy
2025-08-12 15:39:02.901 (   3.344s) [        C545D1C0]     device_instance.cc:82       1| DeviceInstance::PJRT_Device_DefaultMemory
2025-08-12 15:39:02.901 (   3.344s) [        C545D1C0]     client_instance.cc:509      1| ClientInstance::PJRT_Client_BufferFromHostBuffer
2025-08-12 15:39:02.901 (   3.344s) [        C545D1C0]     memory_instance.cc:57       1| MemoryInstance::getDevice
2025-08-12 15:39:02.901 (   3.344s) [        C545D1C0]     buffer_instance.cc:228      1| [BUFFER] Creating BORROWED host tensor with shape [3072, 1024] (semantics: ZeroCopy/other)
2025-08-12 15:39:02.901 (   3.344s) [        C545D1C0]      event_instance.cc:222      1| EventInstance::PJRT_Event_OnReady
2025-08-12 15:39:02.901 (   3.344s) [        C545D1C0]      event_instance.cc:171      1| EventInstance::PJRT_Event_Destroy
2025-08-12 15:39:02.916 (   3.358s) [        C545D1C0]     device_instance.cc:82       1| DeviceInstance::PJRT_Device_DefaultMemory
2025-08-12 15:39:02.916 (   3.358s) [        C545D1C0]     client_instance.cc:509      1| ClientInstance::PJRT_Client_BufferFromHostBuffer
2025-08-12 15:39:02.916 (   3.358s) [        C545D1C0]     memory_instance.cc:57       1| MemoryInstance::getDevice
2025-08-12 15:39:02.916 (   3.359s) [        C545D1C0]     buffer_instance.cc:228      1| [BUFFER] Creating BORROWED host tensor with shape [3072, 3072] (semantics: ZeroCopy/other)
2025-08-12 15:39:02.916 (   3.359s) [        C545D1C0]      event_instance.cc:222      1| EventInstance::PJRT_Event_OnReady
2025-08-12 15:39:02.916 (   3.359s) [        C545D1C0]      event_instance.cc:171      1| EventInstance::PJRT_Event_Destroy
2025-08-12 15:39:02.959 (   3.402s) [        C545D1C0]     device_instance.cc:82       1| DeviceInstance::PJRT_Device_DefaultMemory
2025-08-12 15:39:02.959 (   3.402s) [        C545D1C0]     client_instance.cc:509      1| ClientInstance::PJRT_Client_BufferFromHostBuffer
2025-08-12 15:39:02.959 (   3.402s) [        C545D1C0]     memory_instance.cc:57       1| MemoryInstance::getDevice
2025-08-12 15:39:02.959 (   3.402s) [        C545D1C0]     buffer_instance.cc:228      1| [BUFFER] Creating BORROWED host tensor with shape [3072, 8192] (semantics: ZeroCopy/other)
2025-08-12 15:39:02.959 (   3.402s) [        C545D1C0]      event_instance.cc:222      1| EventInstance::PJRT_Event_OnReady
2025-08-12 15:39:02.959 (   3.402s) [        C545D1C0]      event_instance.cc:171      1| EventInstance::PJRT_Event_Destroy
2025-08-12 15:39:03.002 (   3.445s) [        C545D1C0]     device_instance.cc:82       1| DeviceInstance::PJRT_Device_DefaultMemory
2025-08-12 15:39:03.002 (   3.445s) [        C545D1C0]     client_instance.cc:509      1| ClientInstance::PJRT_Client_BufferFromHostBuffer
2025-08-12 15:39:03.002 (   3.445s) [        C545D1C0]     memory_instance.cc:57       1| MemoryInstance::getDevice
2025-08-12 15:39:03.002 (   3.445s) [        C545D1C0]     buffer_instance.cc:228      1| [BUFFER] Creating BORROWED host tensor with shape [3072, 8192] (semantics: ZeroCopy/other)
2025-08-12 15:39:03.002 (   3.445s) [        C545D1C0]      event_instance.cc:222      1| EventInstance::PJRT_Event_OnReady
2025-08-12 15:39:03.002 (   3.445s) [        C545D1C0]      event_instance.cc:171      1| EventInstance::PJRT_Event_Destroy
2025-08-12 15:39:03.043 (   3.485s) [        C545D1C0]     device_instance.cc:82       1| DeviceInstance::PJRT_Device_DefaultMemory
2025-08-12 15:39:03.043 (   3.486s) [        C545D1C0]     client_instance.cc:509      1| ClientInstance::PJRT_Client_BufferFromHostBuffer
2025-08-12 15:39:03.043 (   3.486s) [        C545D1C0]     memory_instance.cc:57       1| MemoryInstance::getDevice
2025-08-12 15:39:03.043 (   3.486s) [        C545D1C0]     buffer_instance.cc:228      1| [BUFFER] Creating BORROWED host tensor with shape [8192, 3072] (semantics: ZeroCopy/other)
2025-08-12 15:39:03.043 (   3.486s) [        C545D1C0]      event_instance.cc:222      1| EventInstance::PJRT_Event_OnReady
2025-08-12 15:39:03.043 (   3.486s) [        C545D1C0]      event_instance.cc:171      1| EventInstance::PJRT_Event_Destroy
2025-08-12 15:39:03.057 (   3.500s) [        C545D1C0]     device_instance.cc:82       1| DeviceInstance::PJRT_Device_DefaultMemory
2025-08-12 15:39:03.057 (   3.500s) [        C545D1C0]     client_instance.cc:509      1| ClientInstance::PJRT_Client_BufferFromHostBuffer
2025-08-12 15:39:03.057 (   3.500s) [        C545D1C0]     memory_instance.cc:57       1| MemoryInstance::getDevice
2025-08-12 15:39:03.057 (   3.500s) [        C545D1C0]     buffer_instance.cc:228      1| [BUFFER] Creating BORROWED host tensor with shape [3072, 3072] (semantics: ZeroCopy/other)
2025-08-12 15:39:03.058 (   3.500s) [        C545D1C0]      event_instance.cc:222      1| EventInstance::PJRT_Event_OnReady
2025-08-12 15:39:03.058 (   3.500s) [        C545D1C0]      event_instance.cc:171      1| EventInstance::PJRT_Event_Destroy
2025-08-12 15:39:03.062 (   3.505s) [        C545D1C0]     device_instance.cc:82       1| DeviceInstance::PJRT_Device_DefaultMemory
2025-08-12 15:39:03.062 (   3.505s) [        C545D1C0]     client_instance.cc:509      1| ClientInstance::PJRT_Client_BufferFromHostBuffer
2025-08-12 15:39:03.062 (   3.505s) [        C545D1C0]     memory_instance.cc:57       1| MemoryInstance::getDevice
2025-08-12 15:39:03.063 (   3.505s) [        C545D1C0]     buffer_instance.cc:228      1| [BUFFER] Creating BORROWED host tensor with shape [3072, 1024] (semantics: ZeroCopy/other)
2025-08-12 15:39:03.063 (   3.505s) [        C545D1C0]      event_instance.cc:222      1| EventInstance::PJRT_Event_OnReady
2025-08-12 15:39:03.063 (   3.505s) [        C545D1C0]      event_instance.cc:171      1| EventInstance::PJRT_Event_Destroy
2025-08-12 15:39:03.067 (   3.510s) [        C545D1C0]     device_instance.cc:82       1| DeviceInstance::PJRT_Device_DefaultMemory
2025-08-12 15:39:03.067 (   3.510s) [        C545D1C0]     client_instance.cc:509      1| ClientInstance::PJRT_Client_BufferFromHostBuffer
2025-08-12 15:39:03.067 (   3.510s) [        C545D1C0]     memory_instance.cc:57       1| MemoryInstance::getDevice
2025-08-12 15:39:03.068 (   3.510s) [        C545D1C0]     buffer_instance.cc:228      1| [BUFFER] Creating BORROWED host tensor with shape [3072, 1024] (semantics: ZeroCopy/other)
2025-08-12 15:39:03.068 (   3.510s) [        C545D1C0]      event_instance.cc:222      1| EventInstance::PJRT_Event_OnReady
2025-08-12 15:39:03.068 (   3.510s) [        C545D1C0]      event_instance.cc:171      1| EventInstance::PJRT_Event_Destroy
2025-08-12 15:39:03.082 (   3.525s) [        C545D1C0]     device_instance.cc:82       1| DeviceInstance::PJRT_Device_DefaultMemory
2025-08-12 15:39:03.082 (   3.525s) [        C545D1C0]     client_instance.cc:509      1| ClientInstance::PJRT_Client_BufferFromHostBuffer
2025-08-12 15:39:03.082 (   3.525s) [        C545D1C0]     memory_instance.cc:57       1| MemoryInstance::getDevice
2025-08-12 15:39:03.082 (   3.525s) [        C545D1C0]     buffer_instance.cc:228      1| [BUFFER] Creating BORROWED host tensor with shape [3072, 3072] (semantics: ZeroCopy/other)
2025-08-12 15:39:03.082 (   3.525s) [        C545D1C0]      event_instance.cc:222      1| EventInstance::PJRT_Event_OnReady
2025-08-12 15:39:03.082 (   3.525s) [        C545D1C0]      event_instance.cc:171      1| EventInstance::PJRT_Event_Destroy
2025-08-12 15:39:03.125 (   3.568s) [        C545D1C0]     device_instance.cc:82       1| DeviceInstance::PJRT_Device_DefaultMemory
2025-08-12 15:39:03.125 (   3.568s) [        C545D1C0]     client_instance.cc:509      1| ClientInstance::PJRT_Client_BufferFromHostBuffer
2025-08-12 15:39:03.125 (   3.568s) [        C545D1C0]     memory_instance.cc:57       1| MemoryInstance::getDevice
2025-08-12 15:39:03.125 (   3.568s) [        C545D1C0]     buffer_instance.cc:228      1| [BUFFER] Creating BORROWED host tensor with shape [3072, 8192] (semantics: ZeroCopy/other)
2025-08-12 15:39:03.125 (   3.568s) [        C545D1C0]      event_instance.cc:222      1| EventInstance::PJRT_Event_OnReady
2025-08-12 15:39:03.125 (   3.568s) [        C545D1C0]      event_instance.cc:171      1| EventInstance::PJRT_Event_Destroy
2025-08-12 15:39:03.168 (   3.611s) [        C545D1C0]     device_instance.cc:82       1| DeviceInstance::PJRT_Device_DefaultMemory
2025-08-12 15:39:03.168 (   3.611s) [        C545D1C0]     client_instance.cc:509      1| ClientInstance::PJRT_Client_BufferFromHostBuffer
2025-08-12 15:39:03.168 (   3.611s) [        C545D1C0]     memory_instance.cc:57       1| MemoryInstance::getDevice
2025-08-12 15:39:03.168 (   3.611s) [        C545D1C0]     buffer_instance.cc:228      1| [BUFFER] Creating BORROWED host tensor with shape [3072, 8192] (semantics: ZeroCopy/other)
2025-08-12 15:39:03.168 (   3.611s) [        C545D1C0]      event_instance.cc:222      1| EventInstance::PJRT_Event_OnReady
2025-08-12 15:39:03.168 (   3.611s) [        C545D1C0]      event_instance.cc:171      1| EventInstance::PJRT_Event_Destroy
2025-08-12 15:39:03.208 (   3.651s) [        C545D1C0]     device_instance.cc:82       1| DeviceInstance::PJRT_Device_DefaultMemory
2025-08-12 15:39:03.208 (   3.651s) [        C545D1C0]     client_instance.cc:509      1| ClientInstance::PJRT_Client_BufferFromHostBuffer
2025-08-12 15:39:03.208 (   3.651s) [        C545D1C0]     memory_instance.cc:57       1| MemoryInstance::getDevice
2025-08-12 15:39:03.209 (   3.651s) [        C545D1C0]     buffer_instance.cc:228      1| [BUFFER] Creating BORROWED host tensor with shape [8192, 3072] (semantics: ZeroCopy/other)
2025-08-12 15:39:03.209 (   3.651s) [        C545D1C0]      event_instance.cc:222      1| EventInstance::PJRT_Event_OnReady
2025-08-12 15:39:03.209 (   3.651s) [        C545D1C0]      event_instance.cc:171      1| EventInstance::PJRT_Event_Destroy
2025-08-12 15:39:03.912 (   4.355s) [        C545D1C0]     device_instance.cc:82       1| DeviceInstance::PJRT_Device_DefaultMemory
2025-08-12 15:39:03.912 (   4.355s) [        C545D1C0]     client_instance.cc:509      1| ClientInstance::PJRT_Client_BufferFromHostBuffer
2025-08-12 15:39:03.912 (   4.355s) [        C545D1C0]     memory_instance.cc:57       1| MemoryInstance::getDevice
2025-08-12 15:39:03.912 (   4.355s) [        C545D1C0]     buffer_instance.cc:228      1| [BUFFER] Creating BORROWED host tensor with shape [3072, 128256] (semantics: ZeroCopy/other)
2025-08-12 15:39:03.912 (   4.355s) [        C545D1C0]      event_instance.cc:222      1| EventInstance::PJRT_Event_OnReady
2025-08-12 15:39:03.912 (   4.355s) [        C545D1C0]      event_instance.cc:171      1| EventInstance::PJRT_Event_Destroy
2025-08-12 15:39:03.914 (   4.356s) [        C545D1C0]     device_instance.cc:82       1| DeviceInstance::PJRT_Device_DefaultMemory
2025-08-12 15:39:03.914 (   4.356s) [        C545D1C0]     client_instance.cc:509      1| ClientInstance::PJRT_Client_BufferFromHostBuffer
2025-08-12 15:39:03.914 (   4.356s) [        C545D1C0]     memory_instance.cc:57       1| MemoryInstance::getDevice
2025-08-12 15:39:03.914 (   4.356s) [        C545D1C0]     buffer_instance.cc:228      1| [BUFFER] Creating BORROWED host tensor with shape [3072, 3072] (semantics: ZeroCopy/other)
2025-08-12 15:39:03.914 (   4.356s) [        C545D1C0]      event_instance.cc:222      1| EventInstance::PJRT_Event_OnReady
2025-08-12 15:39:03.914 (   4.356s) [        C545D1C0]      event_instance.cc:171      1| EventInstance::PJRT_Event_Destroy
2025-08-12 15:39:03.914 (   4.357s) [        C545D1C0]     device_instance.cc:82       1| DeviceInstance::PJRT_Device_DefaultMemory
2025-08-12 15:39:03.914 (   4.357s) [        C545D1C0]     client_instance.cc:509      1| ClientInstance::PJRT_Client_BufferFromHostBuffer
2025-08-12 15:39:03.914 (   4.357s) [        C545D1C0]     memory_instance.cc:57       1| MemoryInstance::getDevice
2025-08-12 15:39:03.914 (   4.357s) [        C545D1C0]     buffer_instance.cc:228      1| [BUFFER] Creating BORROWED host tensor with shape [1024, 3072] (semantics: ZeroCopy/other)
2025-08-12 15:39:03.914 (   4.357s) [        C545D1C0]      event_instance.cc:222      1| EventInstance::PJRT_Event_OnReady
2025-08-12 15:39:03.914 (   4.357s) [        C545D1C0]      event_instance.cc:171      1| EventInstance::PJRT_Event_Destroy
2025-08-12 15:39:03.915 (   4.358s) [        C545D1C0]     device_instance.cc:82       1| DeviceInstance::PJRT_Device_DefaultMemory
2025-08-12 15:39:03.915 (   4.358s) [        C545D1C0]     client_instance.cc:509      1| ClientInstance::PJRT_Client_BufferFromHostBuffer
2025-08-12 15:39:03.915 (   4.358s) [        C545D1C0]     memory_instance.cc:57       1| MemoryInstance::getDevice
2025-08-12 15:39:03.915 (   4.358s) [        C545D1C0]     buffer_instance.cc:228      1| [BUFFER] Creating BORROWED host tensor with shape [1024, 3072] (semantics: ZeroCopy/other)
2025-08-12 15:39:03.915 (   4.358s) [        C545D1C0]      event_instance.cc:222      1| EventInstance::PJRT_Event_OnReady
2025-08-12 15:39:03.915 (   4.358s) [        C545D1C0]      event_instance.cc:171      1| EventInstance::PJRT_Event_Destroy
2025-08-12 15:39:03.916 (   4.359s) [        C545D1C0]     device_instance.cc:82       1| DeviceInstance::PJRT_Device_DefaultMemory
2025-08-12 15:39:03.916 (   4.359s) [        C545D1C0]     client_instance.cc:509      1| ClientInstance::PJRT_Client_BufferFromHostBuffer
2025-08-12 15:39:03.916 (   4.359s) [        C545D1C0]     memory_instance.cc:57       1| MemoryInstance::getDevice
2025-08-12 15:39:03.916 (   4.359s) [        C545D1C0]     buffer_instance.cc:228      1| [BUFFER] Creating BORROWED host tensor with shape [3072, 3072] (semantics: ZeroCopy/other)
2025-08-12 15:39:03.916 (   4.359s) [        C545D1C0]      event_instance.cc:222      1| EventInstance::PJRT_Event_OnReady
2025-08-12 15:39:03.916 (   4.359s) [        C545D1C0]      event_instance.cc:171      1| EventInstance::PJRT_Event_Destroy
2025-08-12 15:39:03.919 (   4.361s) [        C545D1C0]     device_instance.cc:82       1| DeviceInstance::PJRT_Device_DefaultMemory
2025-08-12 15:39:03.919 (   4.361s) [        C545D1C0]     client_instance.cc:509      1| ClientInstance::PJRT_Client_BufferFromHostBuffer
2025-08-12 15:39:03.919 (   4.361s) [        C545D1C0]     memory_instance.cc:57       1| MemoryInstance::getDevice
2025-08-12 15:39:03.919 (   4.361s) [        C545D1C0]     buffer_instance.cc:228      1| [BUFFER] Creating BORROWED host tensor with shape [8192, 3072] (semantics: ZeroCopy/other)
2025-08-12 15:39:03.919 (   4.361s) [        C545D1C0]      event_instance.cc:222      1| EventInstance::PJRT_Event_OnReady
2025-08-12 15:39:03.919 (   4.362s) [        C545D1C0]      event_instance.cc:171      1| EventInstance::PJRT_Event_Destroy
2025-08-12 15:39:03.921 (   4.364s) [        C545D1C0]     device_instance.cc:82       1| DeviceInstance::PJRT_Device_DefaultMemory
2025-08-12 15:39:03.921 (   4.364s) [        C545D1C0]     client_instance.cc:509      1| ClientInstance::PJRT_Client_BufferFromHostBuffer
2025-08-12 15:39:03.921 (   4.364s) [        C545D1C0]     memory_instance.cc:57       1| MemoryInstance::getDevice
2025-08-12 15:39:03.921 (   4.364s) [        C545D1C0]     buffer_instance.cc:228      1| [BUFFER] Creating BORROWED host tensor with shape [8192, 3072] (semantics: ZeroCopy/other)
2025-08-12 15:39:03.921 (   4.364s) [        C545D1C0]      event_instance.cc:222      1| EventInstance::PJRT_Event_OnReady
2025-08-12 15:39:03.921 (   4.364s) [        C545D1C0]      event_instance.cc:171      1| EventInstance::PJRT_Event_Destroy
2025-08-12 15:39:03.923 (   4.366s) [        C545D1C0]     device_instance.cc:82       1| DeviceInstance::PJRT_Device_DefaultMemory
2025-08-12 15:39:03.923 (   4.366s) [        C545D1C0]     client_instance.cc:509      1| ClientInstance::PJRT_Client_BufferFromHostBuffer
2025-08-12 15:39:03.923 (   4.366s) [        C545D1C0]     memory_instance.cc:57       1| MemoryInstance::getDevice
2025-08-12 15:39:03.923 (   4.366s) [        C545D1C0]     buffer_instance.cc:228      1| [BUFFER] Creating BORROWED host tensor with shape [3072, 8192] (semantics: ZeroCopy/other)
2025-08-12 15:39:03.923 (   4.366s) [        C545D1C0]      event_instance.cc:222      1| EventInstance::PJRT_Event_OnReady
2025-08-12 15:39:03.924 (   4.366s) [        C545D1C0]      event_instance.cc:171      1| EventInstance::PJRT_Event_Destroy
2025-08-12 15:39:03.924 (   4.367s) [        C545D1C0]     device_instance.cc:82       1| DeviceInstance::PJRT_Device_DefaultMemory
2025-08-12 15:39:03.924 (   4.367s) [        C545D1C0]     client_instance.cc:509      1| ClientInstance::PJRT_Client_BufferFromHostBuffer
2025-08-12 15:39:03.924 (   4.367s) [        C545D1C0]     memory_instance.cc:57       1| MemoryInstance::getDevice
2025-08-12 15:39:03.925 (   4.367s) [        C545D1C0]     buffer_instance.cc:228      1| [BUFFER] Creating BORROWED host tensor with shape [3072, 3072] (semantics: ZeroCopy/other)
2025-08-12 15:39:03.925 (   4.367s) [        C545D1C0]      event_instance.cc:222      1| EventInstance::PJRT_Event_OnReady
2025-08-12 15:39:03.925 (   4.367s) [        C545D1C0]      event_instance.cc:171      1| EventInstance::PJRT_Event_Destroy
2025-08-12 15:39:03.925 (   4.368s) [        C545D1C0]     device_instance.cc:82       1| DeviceInstance::PJRT_Device_DefaultMemory
2025-08-12 15:39:03.925 (   4.368s) [        C545D1C0]     client_instance.cc:509      1| ClientInstance::PJRT_Client_BufferFromHostBuffer
2025-08-12 15:39:03.925 (   4.368s) [        C545D1C0]     memory_instance.cc:57       1| MemoryInstance::getDevice
2025-08-12 15:39:03.925 (   4.368s) [        C545D1C0]     buffer_instance.cc:228      1| [BUFFER] Creating BORROWED host tensor with shape [1024, 3072] (semantics: ZeroCopy/other)
2025-08-12 15:39:03.925 (   4.368s) [        C545D1C0]      event_instance.cc:222      1| EventInstance::PJRT_Event_OnReady
2025-08-12 15:39:03.925 (   4.368s) [        C545D1C0]      event_instance.cc:171      1| EventInstance::PJRT_Event_Destroy
2025-08-12 15:39:03.926 (   4.368s) [        C545D1C0]     device_instance.cc:82       1| DeviceInstance::PJRT_Device_DefaultMemory
2025-08-12 15:39:03.926 (   4.368s) [        C545D1C0]     client_instance.cc:509      1| ClientInstance::PJRT_Client_BufferFromHostBuffer
2025-08-12 15:39:03.926 (   4.368s) [        C545D1C0]     memory_instance.cc:57       1| MemoryInstance::getDevice
2025-08-12 15:39:03.926 (   4.368s) [        C545D1C0]     buffer_instance.cc:228      1| [BUFFER] Creating BORROWED host tensor with shape [1024, 3072] (semantics: ZeroCopy/other)
2025-08-12 15:39:03.926 (   4.368s) [        C545D1C0]      event_instance.cc:222      1| EventInstance::PJRT_Event_OnReady
2025-08-12 15:39:03.926 (   4.369s) [        C545D1C0]      event_instance.cc:171      1| EventInstance::PJRT_Event_Destroy
2025-08-12 15:39:03.927 (   4.369s) [        C545D1C0]     device_instance.cc:82       1| DeviceInstance::PJRT_Device_DefaultMemory
2025-08-12 15:39:03.927 (   4.369s) [        C545D1C0]     client_instance.cc:509      1| ClientInstance::PJRT_Client_BufferFromHostBuffer
2025-08-12 15:39:03.927 (   4.369s) [        C545D1C0]     memory_instance.cc:57       1| MemoryInstance::getDevice
2025-08-12 15:39:03.927 (   4.370s) [        C545D1C0]     buffer_instance.cc:228      1| [BUFFER] Creating BORROWED host tensor with shape [3072, 3072] (semantics: ZeroCopy/other)
2025-08-12 15:39:03.927 (   4.370s) [        C545D1C0]      event_instance.cc:222      1| EventInstance::PJRT_Event_OnReady
2025-08-12 15:39:03.927 (   4.370s) [        C545D1C0]      event_instance.cc:171      1| EventInstance::PJRT_Event_Destroy
2025-08-12 15:39:03.933 (   4.376s) [        C545D1C0]     device_instance.cc:82       1| DeviceInstance::PJRT_Device_DefaultMemory
2025-08-12 15:39:03.933 (   4.376s) [        C545D1C0]     client_instance.cc:509      1| ClientInstance::PJRT_Client_BufferFromHostBuffer
2025-08-12 15:39:03.933 (   4.376s) [        C545D1C0]     memory_instance.cc:57       1| MemoryInstance::getDevice
2025-08-12 15:39:03.934 (   4.376s) [        C545D1C0]     buffer_instance.cc:228      1| [BUFFER] Creating BORROWED host tensor with shape [8192, 3072] (semantics: ZeroCopy/other)
2025-08-12 15:39:03.934 (   4.376s) [        C545D1C0]      event_instance.cc:222      1| EventInstance::PJRT_Event_OnReady
2025-08-12 15:39:03.934 (   4.376s) [        C545D1C0]      event_instance.cc:171      1| EventInstance::PJRT_Event_Destroy
2025-08-12 15:39:03.936 (   4.379s) [        C545D1C0]     device_instance.cc:82       1| DeviceInstance::PJRT_Device_DefaultMemory
2025-08-12 15:39:03.936 (   4.379s) [        C545D1C0]     client_instance.cc:509      1| ClientInstance::PJRT_Client_BufferFromHostBuffer
2025-08-12 15:39:03.936 (   4.379s) [        C545D1C0]     memory_instance.cc:57       1| MemoryInstance::getDevice
2025-08-12 15:39:03.936 (   4.379s) [        C545D1C0]     buffer_instance.cc:228      1| [BUFFER] Creating BORROWED host tensor with shape [8192, 3072] (semantics: ZeroCopy/other)
2025-08-12 15:39:03.936 (   4.379s) [        C545D1C0]      event_instance.cc:222      1| EventInstance::PJRT_Event_OnReady
2025-08-12 15:39:03.936 (   4.379s) [        C545D1C0]      event_instance.cc:171      1| EventInstance::PJRT_Event_Destroy
2025-08-12 15:39:03.938 (   4.381s) [        C545D1C0]     device_instance.cc:82       1| DeviceInstance::PJRT_Device_DefaultMemory
2025-08-12 15:39:03.938 (   4.381s) [        C545D1C0]     client_instance.cc:509      1| ClientInstance::PJRT_Client_BufferFromHostBuffer
2025-08-12 15:39:03.938 (   4.381s) [        C545D1C0]     memory_instance.cc:57       1| MemoryInstance::getDevice
2025-08-12 15:39:03.938 (   4.381s) [        C545D1C0]     buffer_instance.cc:228      1| [BUFFER] Creating BORROWED host tensor with shape [3072, 8192] (semantics: ZeroCopy/other)
2025-08-12 15:39:03.938 (   4.381s) [        C545D1C0]      event_instance.cc:222      1| EventInstance::PJRT_Event_OnReady
2025-08-12 15:39:03.938 (   4.381s) [        C545D1C0]      event_instance.cc:171      1| EventInstance::PJRT_Event_Destroy
2025-08-12 15:39:03.970 (   4.413s) [        C545D1C0]     device_instance.cc:82       1| DeviceInstance::PJRT_Device_DefaultMemory
2025-08-12 15:39:03.970 (   4.413s) [        C545D1C0]     client_instance.cc:509      1| ClientInstance::PJRT_Client_BufferFromHostBuffer
2025-08-12 15:39:03.970 (   4.413s) [        C545D1C0]     memory_instance.cc:57       1| MemoryInstance::getDevice
2025-08-12 15:39:03.970 (   4.413s) [        C545D1C0]     buffer_instance.cc:228      1| [BUFFER] Creating BORROWED host tensor with shape [128256, 3072] (semantics: ZeroCopy/other)
2025-08-12 15:39:03.971 (   4.413s) [        C545D1C0]      event_instance.cc:222      1| EventInstance::PJRT_Event_OnReady
2025-08-12 15:39:03.971 (   4.413s) [        C545D1C0]      event_instance.cc:171      1| EventInstance::PJRT_Event_Destroy
2025-08-12 15:39:03.971 (   4.414s) [        C545D1C0]     device_instance.cc:82       1| DeviceInstance::PJRT_Device_DefaultMemory
2025-08-12 15:39:03.971 (   4.414s) [        C545D1C0]     client_instance.cc:509      1| ClientInstance::PJRT_Client_BufferFromHostBuffer
2025-08-12 15:39:03.971 (   4.414s) [        C545D1C0]     memory_instance.cc:57       1| MemoryInstance::getDevice
2025-08-12 15:39:03.971 (   4.414s) [        C545D1C0]     buffer_instance.cc:228      1| [BUFFER] Creating BORROWED host tensor with shape [1, 8, 128, 128] (semantics: ZeroCopy/other)
2025-08-12 15:39:03.971 (   4.414s) [        C545D1C0]      event_instance.cc:222      1| EventInstance::PJRT_Event_OnReady
2025-08-12 15:39:03.971 (   4.414s) [        C545D1C0]      event_instance.cc:171      1| EventInstance::PJRT_Event_Destroy
2025-08-12 15:39:03.971 (   4.414s) [        C545D1C0]     device_instance.cc:82       1| DeviceInstance::PJRT_Device_DefaultMemory
2025-08-12 15:39:03.971 (   4.414s) [        C545D1C0]     client_instance.cc:509      1| ClientInstance::PJRT_Client_BufferFromHostBuffer
2025-08-12 15:39:03.971 (   4.414s) [        C545D1C0]     memory_instance.cc:57       1| MemoryInstance::getDevice
2025-08-12 15:39:03.971 (   4.414s) [        C545D1C0]     buffer_instance.cc:228      1| [BUFFER] Creating BORROWED host tensor with shape [1, 8, 128, 128] (semantics: ZeroCopy/other)
2025-08-12 15:39:03.971 (   4.414s) [        C545D1C0]      event_instance.cc:222      1| EventInstance::PJRT_Event_OnReady
2025-08-12 15:39:03.971 (   4.414s) [        C545D1C0]      event_instance.cc:171      1| EventInstance::PJRT_Event_Destroy
2025-08-12 15:39:03.972 (   4.414s) [        C545D1C0]     device_instance.cc:82       1| DeviceInstance::PJRT_Device_DefaultMemory
2025-08-12 15:39:03.972 (   4.414s) [        C545D1C0]     client_instance.cc:509      1| ClientInstance::PJRT_Client_BufferFromHostBuffer
2025-08-12 15:39:03.972 (   4.414s) [        C545D1C0]     memory_instance.cc:57       1| MemoryInstance::getDevice
2025-08-12 15:39:03.972 (   4.414s) [        C545D1C0]     buffer_instance.cc:228      1| [BUFFER] Creating BORROWED host tensor with shape [1, 8, 128, 128] (semantics: ZeroCopy/other)
2025-08-12 15:39:03.972 (   4.414s) [        C545D1C0]      event_instance.cc:222      1| EventInstance::PJRT_Event_OnReady
2025-08-12 15:39:03.972 (   4.414s) [        C545D1C0]      event_instance.cc:171      1| EventInstance::PJRT_Event_Destroy
2025-08-12 15:39:03.972 (   4.415s) [        C545D1C0]     device_instance.cc:82       1| DeviceInstance::PJRT_Device_DefaultMemory
2025-08-12 15:39:03.972 (   4.415s) [        C545D1C0]     client_instance.cc:509      1| ClientInstance::PJRT_Client_BufferFromHostBuffer
2025-08-12 15:39:03.972 (   4.415s) [        C545D1C0]     memory_instance.cc:57       1| MemoryInstance::getDevice
2025-08-12 15:39:03.972 (   4.415s) [        C545D1C0]     buffer_instance.cc:228      1| [BUFFER] Creating BORROWED host tensor with shape [1, 8, 128, 128] (semantics: ZeroCopy/other)
2025-08-12 15:39:03.972 (   4.415s) [        C545D1C0]      event_instance.cc:222      1| EventInstance::PJRT_Event_OnReady
2025-08-12 15:39:03.972 (   4.415s) [        C545D1C0]      event_instance.cc:171      1| EventInstance::PJRT_Event_Destroy
2025-08-12 15:39:03.972 (   4.415s) [        C545D1C0]     device_instance.cc:82       1| DeviceInstance::PJRT_Device_DefaultMemory
2025-08-12 15:39:03.972 (   4.415s) [        C545D1C0]     client_instance.cc:509      1| ClientInstance::PJRT_Client_BufferFromHostBuffer
2025-08-12 15:39:03.972 (   4.415s) [        C545D1C0]     memory_instance.cc:57       1| MemoryInstance::getDevice
2025-08-12 15:39:03.972 (   4.415s) [        C545D1C0]     buffer_instance.cc:228      1| [BUFFER] Creating BORROWED host tensor with shape [64] (semantics: ZeroCopy/other)
2025-08-12 15:39:03.972 (   4.415s) [        C545D1C0]      event_instance.cc:222      1| EventInstance::PJRT_Event_OnReady
2025-08-12 15:39:03.972 (   4.415s) [        C545D1C0]      event_instance.cc:171      1| EventInstance::PJRT_Event_Destroy
2025-08-12 15:39:04.031 (   4.473s) [        C545D1C0]     device_instance.cc:82       1| DeviceInstance::PJRT_Device_DefaultMemory
2025-08-12 15:39:04.031 (   4.473s) [        C545D1C0]     client_instance.cc:509      1| ClientInstance::PJRT_Client_BufferFromHostBuffer
2025-08-12 15:39:04.031 (   4.473s) [        C545D1C0]     memory_instance.cc:57       1| MemoryInstance::getDevice
2025-08-12 15:39:04.031 (   4.473s) [        C545D1C0]     buffer_instance.cc:213      1| [BUFFER] Creating OWNED host tensor with shape [1, 7] (semantics: other, supported_dtype: false)
[32m                 Always[0m | [1m[38;5;208m WARNING[0m | User provided a tensor of data type: Int64 which is not supported by runtime/ttnn. Casting to: Int32, this may impact throughput and the integrity of the data.
2025-08-12 15:39:04.031 (   4.474s) [        C545D1C0]      event_instance.cc:222      1| EventInstance::PJRT_Event_OnReady
2025-08-12 15:39:04.031 (   4.474s) [        C545D1C0]      event_instance.cc:171      1| EventInstance::PJRT_Event_Destroy
2025-08-12 15:39:04.031 (   4.474s) [        C545D1C0]     device_instance.cc:82       1| DeviceInstance::PJRT_Device_DefaultMemory
2025-08-12 15:39:04.031 (   4.474s) [        C545D1C0]     client_instance.cc:509      1| ClientInstance::PJRT_Client_BufferFromHostBuffer
2025-08-12 15:39:04.031 (   4.474s) [        C545D1C0]     memory_instance.cc:57       1| MemoryInstance::getDevice
2025-08-12 15:39:04.031 (   4.474s) [        C545D1C0]     buffer_instance.cc:213      1| [BUFFER] Creating OWNED host tensor with shape [7] (semantics: other, supported_dtype: false)
[32m                 Always[0m | [1m[38;5;208m WARNING[0m | User provided a tensor of data type: Int64 which is not supported by runtime/ttnn. Casting to: Int32, this may impact throughput and the integrity of the data.
2025-08-12 15:39:04.031 (   4.474s) [        C545D1C0]      event_instance.cc:222      1| EventInstance::PJRT_Event_OnReady
2025-08-12 15:39:04.031 (   4.474s) [        C545D1C0]      event_instance.cc:171      1| EventInstance::PJRT_Event_Destroy
2025-08-12 15:39:04.031 (   4.474s) [        C545D1C0]     device_instance.cc:82       1| DeviceInstance::PJRT_Device_DefaultMemory
2025-08-12 15:39:04.031 (   4.474s) [        C545D1C0]     client_instance.cc:509      1| ClientInstance::PJRT_Client_BufferFromHostBuffer
2025-08-12 15:39:04.031 (   4.474s) [        C545D1C0]     memory_instance.cc:57       1| MemoryInstance::getDevice
2025-08-12 15:39:04.031 (   4.474s) [        C545D1C0]     buffer_instance.cc:228      1| [BUFFER] Creating BORROWED host tensor with shape [1, 1, 7, 128] (semantics: ZeroCopy/other)
2025-08-12 15:39:04.031 (   4.474s) [        C545D1C0]      event_instance.cc:222      1| EventInstance::PJRT_Event_OnReady
2025-08-12 15:39:04.031 (   4.474s) [        C545D1C0]      event_instance.cc:171      1| EventInstance::PJRT_Event_Destroy
2025-08-12 15:39:04.033 (   4.476s) [        C545D1C0]     device_instance.cc:82       1| DeviceInstance::PJRT_Device_DefaultMemory
2025-08-12 15:39:04.033 (   4.476s) [        C545D1C0]     client_instance.cc:509      1| ClientInstance::PJRT_Client_BufferFromHostBuffer
2025-08-12 15:39:04.033 (   4.476s) [        C545D1C0]     memory_instance.cc:57       1| MemoryInstance::getDevice
2025-08-12 15:39:04.033 (   4.476s) [        C545D1C0]     buffer_instance.cc:228      1| [BUFFER] Creating BORROWED host tensor with shape [1] (semantics: ZeroCopy/other)
2025-08-12 15:39:04.033 (   4.476s) [        C545D1C0]      event_instance.cc:222      1| EventInstance::PJRT_Event_OnReady
2025-08-12 15:39:04.033 (   4.476s) [        C545D1C0]      event_instance.cc:171      1| EventInstance::PJRT_Event_Destroy
2025-08-12 15:39:04.035 (   4.477s) [        C545D1C0]     device_instance.cc:82       1| DeviceInstance::PJRT_Device_DefaultMemory
2025-08-12 15:39:04.035 (   4.477s) [        C545D1C0]     client_instance.cc:509      1| ClientInstance::PJRT_Client_BufferFromHostBuffer
2025-08-12 15:39:04.035 (   4.477s) [        C545D1C0]     memory_instance.cc:57       1| MemoryInstance::getDevice
2025-08-12 15:39:04.035 (   4.477s) [        C545D1C0]     buffer_instance.cc:213      1| [BUFFER] Creating OWNED host tensor with shape [1] (semantics: other, supported_dtype: false)
[32m                 Always[0m | [1m[38;5;208m WARNING[0m | User provided a tensor of data type: Int64 which is not supported by runtime/ttnn. Casting to: Int32, this may impact throughput and the integrity of the data.
2025-08-12 15:39:04.035 (   4.477s) [        C545D1C0]      event_instance.cc:222      1| EventInstance::PJRT_Event_OnReady
2025-08-12 15:39:04.035 (   4.477s) [        C545D1C0]      event_instance.cc:171      1| EventInstance::PJRT_Event_Destroy
2025-08-12 15:39:04.035 (   4.478s) [        C545D1C0]     device_instance.cc:82       1| DeviceInstance::PJRT_Device_DefaultMemory
2025-08-12 15:39:04.035 (   4.478s) [        C545D1C0]     client_instance.cc:509      1| ClientInstance::PJRT_Client_BufferFromHostBuffer
2025-08-12 15:39:04.035 (   4.478s) [        C545D1C0]     memory_instance.cc:57       1| MemoryInstance::getDevice
2025-08-12 15:39:04.035 (   4.478s) [        C545D1C0]     buffer_instance.cc:228      1| [BUFFER] Creating BORROWED host tensor with shape [1] (semantics: ZeroCopy/other)
2025-08-12 15:39:04.035 (   4.478s) [        C545D1C0]      event_instance.cc:222      1| EventInstance::PJRT_Event_OnReady
2025-08-12 15:39:04.035 (   4.478s) [        C545D1C0]      event_instance.cc:171      1| EventInstance::PJRT_Event_Destroy
2025-08-12 15:39:04.041 (   4.483s) [        C545D1C0]     buffer_instance.cc:526      1| BufferInstance::PJRT_Buffer_IsDeleted
2025-08-12 15:39:04.041 (   4.483s) [        C545D1C0]     buffer_instance.cc:526      1| BufferInstance::PJRT_Buffer_IsDeleted
2025-08-12 15:39:04.041 (   4.484s) [        C545D1C0]     buffer_instance.cc:526      1| BufferInstance::PJRT_Buffer_IsDeleted
2025-08-12 15:39:04.041 (   4.484s) [        C545D1C0]     buffer_instance.cc:526      1| BufferInstance::PJRT_Buffer_IsDeleted
2025-08-12 15:39:04.041 (   4.484s) [        C545D1C0]     buffer_instance.cc:526      1| BufferInstance::PJRT_Buffer_IsDeleted
2025-08-12 15:39:04.041 (   4.484s) [        C545D1C0]     buffer_instance.cc:526      1| BufferInstance::PJRT_Buffer_IsDeleted
2025-08-12 15:39:04.041 (   4.484s) [        C545D1C0]     buffer_instance.cc:526      1| BufferInstance::PJRT_Buffer_IsDeleted
2025-08-12 15:39:04.041 (   4.484s) [        C545D1C0]     buffer_instance.cc:526      1| BufferInstance::PJRT_Buffer_IsDeleted
2025-08-12 15:39:04.041 (   4.484s) [        C545D1C0]     buffer_instance.cc:526      1| BufferInstance::PJRT_Buffer_IsDeleted
2025-08-12 15:39:04.041 (   4.484s) [        C545D1C0]     buffer_instance.cc:526      1| BufferInstance::PJRT_Buffer_IsDeleted
2025-08-12 15:39:04.041 (   4.484s) [        C545D1C0]     buffer_instance.cc:526      1| BufferInstance::PJRT_Buffer_IsDeleted
2025-08-12 15:39:04.041 (   4.484s) [        C545D1C0]     buffer_instance.cc:526      1| BufferInstance::PJRT_Buffer_IsDeleted
2025-08-12 15:39:04.041 (   4.484s) [        C545D1C0]     buffer_instance.cc:526      1| BufferInstance::PJRT_Buffer_IsDeleted
2025-08-12 15:39:04.041 (   4.484s) [        C545D1C0]     buffer_instance.cc:526      1| BufferInstance::PJRT_Buffer_IsDeleted
2025-08-12 15:39:04.041 (   4.484s) [        C545D1C0]     buffer_instance.cc:526      1| BufferInstance::PJRT_Buffer_IsDeleted
2025-08-12 15:39:04.041 (   4.484s) [        C545D1C0]     buffer_instance.cc:526      1| BufferInstance::PJRT_Buffer_IsDeleted
2025-08-12 15:39:04.041 (   4.484s) [        C545D1C0]     buffer_instance.cc:526      1| BufferInstance::PJRT_Buffer_IsDeleted
2025-08-12 15:39:04.041 (   4.484s) [        C545D1C0]     buffer_instance.cc:526      1| BufferInstance::PJRT_Buffer_IsDeleted
2025-08-12 15:39:04.041 (   4.484s) [        C545D1C0]     buffer_instance.cc:526      1| BufferInstance::PJRT_Buffer_IsDeleted
2025-08-12 15:39:04.041 (   4.484s) [        C545D1C0]     buffer_instance.cc:526      1| BufferInstance::PJRT_Buffer_IsDeleted
2025-08-12 15:39:04.041 (   4.484s) [        C545D1C0]     buffer_instance.cc:526      1| BufferInstance::PJRT_Buffer_IsDeleted
2025-08-12 15:39:04.041 (   4.484s) [        C545D1C0]     buffer_instance.cc:526      1| BufferInstance::PJRT_Buffer_IsDeleted
2025-08-12 15:39:04.041 (   4.484s) [        C545D1C0]     buffer_instance.cc:526      1| BufferInstance::PJRT_Buffer_IsDeleted
2025-08-12 15:39:04.041 (   4.484s) [        C545D1C0]     buffer_instance.cc:526      1| BufferInstance::PJRT_Buffer_IsDeleted
2025-08-12 15:39:04.041 (   4.484s) [        C545D1C0]     buffer_instance.cc:526      1| BufferInstance::PJRT_Buffer_IsDeleted
2025-08-12 15:39:04.041 (   4.484s) [        C545D1C0]     buffer_instance.cc:526      1| BufferInstance::PJRT_Buffer_IsDeleted
2025-08-12 15:39:04.041 (   4.484s) [        C545D1C0]     buffer_instance.cc:526      1| BufferInstance::PJRT_Buffer_IsDeleted
2025-08-12 15:39:04.041 (   4.484s) [        C545D1C0]     buffer_instance.cc:526      1| BufferInstance::PJRT_Buffer_IsDeleted
2025-08-12 15:39:04.041 (   4.484s) [        C545D1C0]     buffer_instance.cc:526      1| BufferInstance::PJRT_Buffer_IsDeleted
2025-08-12 15:39:04.041 (   4.484s) [        C545D1C0]     buffer_instance.cc:526      1| BufferInstance::PJRT_Buffer_IsDeleted
2025-08-12 15:39:04.041 (   4.484s) [        C545D1C0]     buffer_instance.cc:526      1| BufferInstance::PJRT_Buffer_IsDeleted
2025-08-12 15:39:04.041 (   4.484s) [        C545D1C0]     buffer_instance.cc:526      1| BufferInstance::PJRT_Buffer_IsDeleted
2025-08-12 15:39:04.041 (   4.484s) [        C545D1C0]     buffer_instance.cc:526      1| BufferInstance::PJRT_Buffer_IsDeleted
2025-08-12 15:39:04.041 (   4.484s) [        C545D1C0]     buffer_instance.cc:526      1| BufferInstance::PJRT_Buffer_IsDeleted
2025-08-12 15:39:04.041 (   4.484s) [        C545D1C0]     buffer_instance.cc:526      1| BufferInstance::PJRT_Buffer_IsDeleted
2025-08-12 15:39:04.041 (   4.484s) [        C545D1C0]     buffer_instance.cc:526      1| BufferInstance::PJRT_Buffer_IsDeleted
2025-08-12 15:39:04.041 (   4.484s) [        C545D1C0]     buffer_instance.cc:526      1| BufferInstance::PJRT_Buffer_IsDeleted
2025-08-12 15:39:04.041 (   4.484s) [        C545D1C0]     buffer_instance.cc:526      1| BufferInstance::PJRT_Buffer_IsDeleted
2025-08-12 15:39:04.041 (   4.484s) [        C545D1C0]     buffer_instance.cc:526      1| BufferInstance::PJRT_Buffer_IsDeleted
2025-08-12 15:39:04.041 (   4.484s) [        C545D1C0]     buffer_instance.cc:526      1| BufferInstance::PJRT_Buffer_IsDeleted
Note: Using experimental XLA backend.
[James] disable rectify buffer inplace copy
Tensor id via xlac: 1 with shape torch.Size([3072])
Tensor id via xlac: 2 with shape torch.Size([3072])
Tensor id via xlac: 3 with shape torch.Size([3072])
Tensor id via xlac: 4 with shape torch.Size([3072])
Tensor id via xlac: 5 with shape torch.Size([3072])
Tensor id via xlac: 6 with shape torch.Size([128256, 3072])
Tensor id via xlac: 7 with shape torch.Size([1, 64, 1])
Tensor id via xlac: 8 with shape torch.Size([3072, 3072])
Tensor id via xlac: 9 with shape torch.Size([3072, 1024])
Tensor id via xlac: 10 with shape torch.Size([3072, 1024])
Tensor id via xlac: 11 with shape torch.Size([3072, 3072])
Tensor id via xlac: 12 with shape torch.Size([3072, 8192])
Tensor id via xlac: 13 with shape torch.Size([3072, 8192])
Tensor id via xlac: 14 with shape torch.Size([8192, 3072])
Tensor id via xlac: 15 with shape torch.Size([3072, 3072])
Tensor id via xlac: 16 with shape torch.Size([3072, 1024])
Tensor id via xlac: 17 with shape torch.Size([3072, 1024])
Tensor id via xlac: 18 with shape torch.Size([3072, 3072])
Tensor id via xlac: 19 with shape torch.Size([3072, 8192])
Tensor id via xlac: 20 with shape torch.Size([3072, 8192])
Tensor id via xlac: 21 with shape torch.Size([8192, 3072])
Tensor id via xlac: 22 with shape torch.Size([3072, 128256])
Tensor id via xlac: 23 with shape torch.Size([3072, 3072])
Tensor id via xlac: 24 with shape torch.Size([1024, 3072])
Tensor id via xlac: 25 with shape torch.Size([1024, 3072])
Tensor id via xlac: 26 with shape torch.Size([3072, 3072])
Tensor id via xlac: 27 with shape torch.Size([8192, 3072])
Tensor id via xlac: 28 with shape torch.Size([8192, 3072])
Tensor id via xlac: 29 with shape torch.Size([3072, 8192])
Tensor id via xlac: 30 with shape torch.Size([3072, 3072])
Tensor id via xlac: 31 with shape torch.Size([1024, 3072])
Tensor id via xlac: 32 with shape torch.Size([1024, 3072])
Tensor id via xlac: 33 with shape torch.Size([3072, 3072])
Tensor id via xlac: 34 with shape torch.Size([8192, 3072])
Tensor id via xlac: 35 with shape torch.Size([8192, 3072])
Tensor id via xlac: 36 with shape torch.Size([3072, 8192])
Tensor id via xlac: 37 with shape torch.Size([128256, 3072])
Tensor id via xlac: 38 with shape torch.Size([1, 8, 128, 128])
Tensor id via xlac: 39 with shape torch.Size([1, 8, 128, 128])
Tensor id via xlac: 40 with shape torch.Size([1, 8, 128, 128])
Tensor id via xlac: 41 with shape torch.Size([1, 8, 128, 128])
Tensor id via xlac: 42 with shape torch.Size([64])
Tensor id via xlac: 43 with shape torch.Size([1, 7])
Tensor id via xlac: 44 with shape torch.Size([7])
Tensor id via xlac: 45 with shape torch.Size([1, 1, 7, 128])
[XLA Cache] New inputs: ['input_0_shape_[3072]_dtype_torch.bfloat16 (idx=0)', 'input_1_shape_[3072]_dtype_torch.bfloat16 (idx=1)', 'input_2_shape_[3072]_dtype_torch.bfloat16 (idx=2)', 'input_3_shape_[3072]_dtype_torch.bfloat16 (idx=3)', 'input_4_shape_[3072]_dtype_torch.bfloat16 (idx=4)', 'input_5_shape_[128256, 3072]_dtype_torch.bfloat16 (idx=5)', 'input_6_shape_[1, 64, 1]_dtype_torch.float32 (idx=6)', 'input_7_shape_[3072, 3072]_dtype_torch.bfloat16 (idx=7)', 'input_8_shape_[3072, 1024]_dtype_torch.bfloat16 (idx=8)', 'input_9_shape_[3072, 1024]_dtype_torch.bfloat16 (idx=9)', 'input_10_shape_[3072, 3072]_dtype_torch.bfloat16 (idx=10)', 'input_11_shape_[3072, 8192]_dtype_torch.bfloat16 (idx=11)', 'input_12_shape_[3072, 8192]_dtype_torch.bfloat16 (idx=12)', 'input_13_shape_[8192, 3072]_dtype_torch.bfloat16 (idx=13)', 'input_14_shape_[3072, 3072]_dtype_torch.bfloat16 (idx=14)', 'input_15_shape_[3072, 1024]_dtype_torch.bfloat16 (idx=15)', 'input_16_shape_[3072, 1024]_dtype_torch.bfloat16 (idx=16)', 'input_17_shape_[3072, 3072]_dtype_torch.bfloat16 (idx=17)', 'input_18_shape_[3072, 8192]_dtype_torch.bfloat16 (idx=18)', 'input_19_shape_[3072, 8192]_dtype_torch.bfloat16 (idx=19)', 'input_20_shape_[8192, 3072]_dtype_torch.bfloat16 (idx=20)', 'input_21_shape_[3072, 128256]_dtype_torch.bfloat16 (idx=21)', 'input_22_shape_[3072, 3072]_dtype_torch.bfloat16 (idx=22)', 'input_23_shape_[1024, 3072]_dtype_torch.bfloat16 (idx=23)', 'input_24_shape_[1024, 3072]_dtype_torch.bfloat16 (idx=24)', 'input_25_shape_[3072, 3072]_dtype_torch.bfloat16 (idx=25)', 'input_26_shape_[8192, 3072]_dtype_torch.bfloat16 (idx=26)', 'input_27_shape_[8192, 3072]_dtype_torch.bfloat16 (idx=27)', 'input_28_shape_[3072, 8192]_dtype_torch.bfloat16 (idx=28)', 'input_29_shape_[3072, 3072]_dtype_torch.bfloat16 (idx=29)', 'input_30_shape_[1024, 3072]_dtype_torch.bfloat16 (idx=30)', 'input_31_shape_[1024, 3072]_dtype_torch.bfloat16 (idx=31)', 'input_32_shape_[3072, 3072]_dtype_torch.bfloat16 (idx=32)', 'input_33_shape_[8192, 3072]_dtype_torch.bfloat16 (idx=33)', 'input_34_shape_[8192, 3072]_dtype_torch.bfloat16 (idx=34)', 'input_35_shape_[3072, 8192]_dtype_torch.bfloat16 (idx=35)', 'input_36_shape_[128256, 3072]_dtype_torch.bfloat16 (idx=36)', 'input_37_shape_[1, 8, 128, 128]_dtype_torch.bfloat16 (idx=37)', 'input_38_shape_[1, 8, 128, 128]_dtype_torch.bfloat16 (idx=38)', 'input_39_shape_[1, 8, 128, 128]_dtype_torch.bfloat16 (idx=39)', 'input_40_shape_[1, 8, 128, 128]_dtype_torch.bfloat16 (idx=40)', 'input_41_shape_[64]_dtype_torch.float32 (idx=41)', 'input_42_shape_[1, 7]_dtype_torch.int64 (idx=42)', 'input_43_shape_[7]_dtype_torch.int64 (idx=43)', 'input_44_shape_[1, 1, 7, 128]_dtype_torch.bfloat16 (idx=44)']
[XLA Cache] Total cache size: 45 unique tensors
Hlo input positions pre normalization [22, 375, 21, 20, 18, 17, 14, 13, 11, 10, 43, 37, 1, 44, -1, 39, 45, 312, 7, 9, 38, 8, 2, 12, 3, 41, 16, 40, 15, 4, 19, 5]
Hlo input positions post normalization [23, 376, 22, 21, 19, 18, 15, 14, 12, 11, 44, 38, 2, 45, 0, 40, 46, 313, 8, 10, 39, 9, 3, 13, 4, 42, 17, 41, 16, 5, 20, 6]
match key in_spec.target L__self___model_layers__modules__0___input_layernorm_weight with ID 139658584088448 and kind InputKind.PARAMETER
match key in_spec.target L__self___model_layers__modules__0___post_attention_layernorm_weight with ID 139658589162128 and kind InputKind.PARAMETER
match key in_spec.target L__self___model_layers__modules__1___input_layernorm_weight with ID 139658589165728 and kind InputKind.PARAMETER
match key in_spec.target L__self___model_layers__modules__1___post_attention_layernorm_weight with ID 139658581142368 and kind InputKind.PARAMETER
match key in_spec.target L__self___model_norm_weight with ID 139658581024640 and kind InputKind.PARAMETER
match key in_spec.target L__self___lm_head.weight with ID 139658584091808 and kind InputKind.PARAMETER
match key in_spec.target _FX_CONST_FOLDED_ATTRS.0 with ID 139654937127536 and kind InputKind.PARAMETER
match key in_spec.target _FX_CONST_FOLDED_ATTRS.1 with ID 139659373550368 and kind InputKind.PARAMETER
match key in_spec.target _FX_CONST_FOLDED_ATTRS.2 with ID 139654937229920 and kind InputKind.PARAMETER
match key in_spec.target _FX_CONST_FOLDED_ATTRS.3 with ID 139654937230480 and kind InputKind.PARAMETER
match key in_spec.target _FX_CONST_FOLDED_ATTRS.4 with ID 139654937230560 and kind InputKind.PARAMETER
match key in_spec.target _FX_CONST_FOLDED_ATTRS.5 with ID 139654937229120 and kind InputKind.PARAMETER
match key in_spec.target _FX_CONST_FOLDED_ATTRS.6 with ID 139654937229200 and kind InputKind.PARAMETER
match key in_spec.target _FX_CONST_FOLDED_ATTRS.7 with ID 139654937230800 and kind InputKind.PARAMETER
match key in_spec.target _FX_CONST_FOLDED_ATTRS.8 with ID 139654937228480 and kind InputKind.PARAMETER
match key in_spec.target _FX_CONST_FOLDED_ATTRS.9 with ID 139654937230320 and kind InputKind.PARAMETER
match key in_spec.target _FX_CONST_FOLDED_ATTRS.10 with ID 139654937231040 and kind InputKind.PARAMETER
match key in_spec.target _FX_CONST_FOLDED_ATTRS.11 with ID 139654937228560 and kind InputKind.PARAMETER
match key in_spec.target _FX_CONST_FOLDED_ATTRS.12 with ID 139654937228640 and kind InputKind.PARAMETER
match key in_spec.target _FX_CONST_FOLDED_ATTRS.13 with ID 139654937228400 and kind InputKind.PARAMETER
match key in_spec.target _FX_CONST_FOLDED_ATTRS.14 with ID 139654937229040 and kind InputKind.PARAMETER
match key in_spec.target _FX_CONST_FOLDED_ATTRS.15 with ID 139654937228960 and kind InputKind.PARAMETER
match key in_spec.target const_subgraph_module.L__self___model_layers__modules__0___self_attn_q_proj.weight with ID 139658589160768 and kind InputKind.PARAMETER
match key in_spec.target const_subgraph_module.L__self___model_layers__modules__0___self_attn_k_proj.weight with ID 139658589162688 and kind InputKind.PARAMETER
match key in_spec.target const_subgraph_module.L__self___model_layers__modules__0___self_attn_v_proj.weight with ID 139658589173008 and kind InputKind.PARAMETER
match key in_spec.target const_subgraph_module.L__self___model_layers__modules__0___self_attn_o_proj.weight with ID 139658589164768 and kind InputKind.PARAMETER
match key in_spec.target const_subgraph_module.L__self___model_layers__modules__0___mlp_gate_proj.weight with ID 139658584087008 and kind InputKind.PARAMETER
match key in_spec.target const_subgraph_module.L__self___model_layers__modules__0___mlp_up_proj.weight with ID 139658589172608 and kind InputKind.PARAMETER
match key in_spec.target const_subgraph_module.L__self___model_layers__modules__0___mlp_down_proj.weight with ID 139658584095888 and kind InputKind.PARAMETER
match key in_spec.target const_subgraph_module.L__self___model_layers__modules__1___self_attn_q_proj.weight with ID 139658581139488 and kind InputKind.PARAMETER
match key in_spec.target const_subgraph_module.L__self___model_layers__modules__1___self_attn_k_proj.weight with ID 139658581145168 and kind InputKind.PARAMETER
match key in_spec.target const_subgraph_module.L__self___model_layers__modules__1___self_attn_v_proj.weight with ID 139658581134368 and kind InputKind.PARAMETER
match key in_spec.target const_subgraph_module.L__self___model_layers__modules__1___self_attn_o_proj.weight with ID 139658581144048 and kind InputKind.PARAMETER
match key in_spec.target const_subgraph_module.L__self___model_layers__modules__1___mlp_gate_proj.weight with ID 139658589162288 and kind InputKind.PARAMETER
match key in_spec.target const_subgraph_module.L__self___model_layers__modules__1___mlp_up_proj.weight with ID 139658589171488 and kind InputKind.PARAMETER
match key in_spec.target const_subgraph_module.L__self___model_layers__modules__1___mlp_down_proj.weight with ID 139658589163008 and kind InputKind.PARAMETER
match key in_spec.target const_subgraph_module.L__self___lm_head.weight with ID 139658584091808 and kind InputKind.PARAMETER
match key in_spec.target kwargs____past_key_values___key_cache_0 with ID 139659373973792 and kind InputKind.BUFFER
match key in_spec.target kwargs____past_key_values___value_cache_0 with ID 139659373983872 and kind InputKind.BUFFER
match key in_spec.target kwargs____past_key_values___key_cache_1 with ID 139659373976192 and kind InputKind.BUFFER
match key in_spec.target kwargs____past_key_values___value_cache_1 with ID 139659373976432 and kind InputKind.BUFFER
match key in_spec.target const_subgraph_module.L__self___model_rotary_emb_inv_freq with ID 139658581032480 and kind InputKind.BUFFER
[JAMES] setting arg ref map to  refs=139658589162688,constant_unknown,139658589160768,139654937228960,139654937228400,139654937228640,139654937230320,139654937228480,139654937229200,139654937229120,user_input,139659373983872,139658589165728,constant_unknown,139658584088448,139659373976432,constant_unknown,constant_unknown,139654937229920,139654937230560,139659373976192,139654937230480,139658581142368,139654937230800,139658581024640,user_input,139654937228560,139658581032480,139654937231040,139658584091808,139654937229040,139654937127536
2025-08-12 15:39:04.041 (   4.484s) [        C545D1C0]     buffer_instance.cc:526      1| BufferInstance::PJRT_Buffer_IsDeleted
2025-08-12 15:39:04.041 (   4.484s) [        C545D1C0]     buffer_instance.cc:526      1| BufferInstance::PJRT_Buffer_IsDeleted
2025-08-12 15:39:04.041 (   4.484s) [        C545D1C0]     buffer_instance.cc:526      1| BufferInstance::PJRT_Buffer_IsDeleted
2025-08-12 15:39:04.041 (   4.484s) [        C545D1C0]     buffer_instance.cc:526      1| BufferInstance::PJRT_Buffer_IsDeleted
2025-08-12 15:39:04.041 (   4.484s) [        C545D1C0]     buffer_instance.cc:526      1| BufferInstance::PJRT_Buffer_IsDeleted
2025-08-12 15:39:04.041 (   4.484s) [        C545D1C0]     buffer_instance.cc:526      1| BufferInstance::PJRT_Buffer_IsDeleted
2025-08-12 15:39:04.041 (   4.484s) [        C545D1C0]     buffer_instance.cc:526      1| BufferInstance::PJRT_Buffer_IsDeleted
2025-08-12 15:39:04.041 (   4.484s) [        C545D1C0]     buffer_instance.cc:526      1| BufferInstance::PJRT_Buffer_IsDeleted
2025-08-12 15:39:04.041 (   4.484s) [        C545D1C0]     buffer_instance.cc:526      1| BufferInstance::PJRT_Buffer_IsDeleted
2025-08-12 15:39:04.041 (   4.484s) [        C545D1C0]     buffer_instance.cc:526      1| BufferInstance::PJRT_Buffer_IsDeleted
2025-08-12 15:39:04.041 (   4.484s) [        C545D1C0]     buffer_instance.cc:526      1| BufferInstance::PJRT_Buffer_IsDeleted
2025-08-12 15:39:04.041 (   4.484s) [        C545D1C0]     buffer_instance.cc:526      1| BufferInstance::PJRT_Buffer_IsDeleted
2025-08-12 15:39:04.041 (   4.484s) [        C545D1C0]     buffer_instance.cc:526      1| BufferInstance::PJRT_Buffer_IsDeleted
2025-08-12 15:39:04.041 (   4.484s) [        C545D1C0]     buffer_instance.cc:526      1| BufferInstance::PJRT_Buffer_IsDeleted
2025-08-12 15:39:04.041 (   4.484s) [        C545D1C0]     buffer_instance.cc:526      1| BufferInstance::PJRT_Buffer_IsDeleted
2025-08-12 15:39:04.041 (   4.484s) [        C545D1C0]     buffer_instance.cc:526      1| BufferInstance::PJRT_Buffer_IsDeleted
2025-08-12 15:39:04.041 (   4.484s) [        C545D1C0]     buffer_instance.cc:526      1| BufferInstance::PJRT_Buffer_IsDeleted
2025-08-12 15:39:04.042 (   4.484s) [        C545D1C0]     buffer_instance.cc:526      1| BufferInstance::PJRT_Buffer_IsDeleted
2025-08-12 15:39:04.042 (   4.484s) [        C545D1C0]     buffer_instance.cc:526      1| BufferInstance::PJRT_Buffer_IsDeleted
2025-08-12 15:39:04.042 (   4.484s) [        C545D1C0]     buffer_instance.cc:526      1| BufferInstance::PJRT_Buffer_IsDeleted
2025-08-12 15:39:04.042 (   4.484s) [        C545D1C0]     buffer_instance.cc:526      1| BufferInstance::PJRT_Buffer_IsDeleted
2025-08-12 15:39:04.042 (   4.484s) [        C545D1C0]     buffer_instance.cc:526      1| BufferInstance::PJRT_Buffer_IsDeleted
2025-08-12 15:39:04.042 (   4.484s) [        C545D1C0]     buffer_instance.cc:526      1| BufferInstance::PJRT_Buffer_IsDeleted
2025-08-12 15:39:04.042 (   4.484s) [        C545D1C0]     buffer_instance.cc:526      1| BufferInstance::PJRT_Buffer_IsDeleted
2025-08-12 15:39:04.042 (   4.484s) [        C545D1C0]     buffer_instance.cc:526      1| BufferInstance::PJRT_Buffer_IsDeleted
2025-08-12 15:39:04.042 (   4.484s) [        C545D1C0]     buffer_instance.cc:526      1| BufferInstance::PJRT_Buffer_IsDeleted
2025-08-12 15:39:04.042 (   4.484s) [        C545D1C0]     buffer_instance.cc:526      1| BufferInstance::PJRT_Buffer_IsDeleted
2025-08-12 15:39:04.042 (   4.484s) [        C545D1C0]     buffer_instance.cc:526      1| BufferInstance::PJRT_Buffer_IsDeleted
2025-08-12 15:39:04.042 (   4.484s) [        C545D1C0]     buffer_instance.cc:526      1| BufferInstance::PJRT_Buffer_IsDeleted
2025-08-12 15:39:04.042 (   4.484s) [        C545D1C0]     buffer_instance.cc:526      1| BufferInstance::PJRT_Buffer_IsDeleted
2025-08-12 15:39:04.042 (   4.484s) [        C545D1C0]     buffer_instance.cc:526      1| BufferInstance::PJRT_Buffer_IsDeleted
2025-08-12 15:39:04.042 (   4.484s) [        C545D1C0]     buffer_instance.cc:526      1| BufferInstance::PJRT_Buffer_IsDeleted
2025-08-12 15:39:04.042 (   4.484s) [        C545D1C0]     buffer_instance.cc:526      1| BufferInstance::PJRT_Buffer_IsDeleted
2025-08-12 15:39:04.042 (   4.484s) [        C545D1C0]     buffer_instance.cc:526      1| BufferInstance::PJRT_Buffer_IsDeleted
2025-08-12 15:39:04.042 (   4.484s) [        C545D1C0]     buffer_instance.cc:526      1| BufferInstance::PJRT_Buffer_IsDeleted
2025-08-12 15:39:04.042 (   4.484s) [        C545D1C0]     buffer_instance.cc:526      1| BufferInstance::PJRT_Buffer_IsDeleted
2025-08-12 15:39:04.042 (   4.484s) [        C545D1C0]     buffer_instance.cc:526      1| BufferInstance::PJRT_Buffer_IsDeleted
2025-08-12 15:39:04.042 (   4.484s) [        C545D1C0]     buffer_instance.cc:526      1| BufferInstance::PJRT_Buffer_IsDeleted
2025-08-12 15:39:04.042 (   4.484s) [        C545D1C0]     buffer_instance.cc:526      1| BufferInstance::PJRT_Buffer_IsDeleted
2025-08-12 15:39:04.042 (   4.484s) [        C545D1C0]     buffer_instance.cc:526      1| BufferInstance::PJRT_Buffer_IsDeleted
2025-08-12 15:39:04.042 (   4.484s) [        C545D1C0]     buffer_instance.cc:526      1| BufferInstance::PJRT_Buffer_IsDeleted
2025-08-12 15:39:04.042 (   4.484s) [        C545D1C0]     buffer_instance.cc:526      1| BufferInstance::PJRT_Buffer_IsDeleted
2025-08-12 15:39:04.042 (   4.484s) [        C545D1C0]     buffer_instance.cc:526      1| BufferInstance::PJRT_Buffer_IsDeleted
2025-08-12 15:39:04.042 (   4.484s) [        C545D1C0]     buffer_instance.cc:526      1| BufferInstance::PJRT_Buffer_IsDeleted
2025-08-12 15:39:04.042 (   4.484s) [        C545D1C0]     buffer_instance.cc:526      1| BufferInstance::PJRT_Buffer_IsDeleted
2025-08-12 15:39:04.042 (   4.484s) [        C545D1C0]     buffer_instance.cc:526      1| BufferInstance::PJRT_Buffer_IsDeleted
2025-08-12 15:39:04.042 (   4.484s) [        C545D1C0]     buffer_instance.cc:526      1| BufferInstance::PJRT_Buffer_IsDeleted
2025-08-12 15:39:04.042 (   4.484s) [        C545D1C0]     buffer_instance.cc:526      1| BufferInstance::PJRT_Buffer_IsDeleted
2025-08-12 15:39:04.042 (   4.484s) [        C545D1C0]     buffer_instance.cc:526      1| BufferInstance::PJRT_Buffer_IsDeleted
2025-08-12 15:39:04.042 (   4.484s) [        C545D1C0]     buffer_instance.cc:526      1| BufferInstance::PJRT_Buffer_IsDeleted
2025-08-12 15:39:04.042 (   4.484s) [        C545D1C0]     buffer_instance.cc:526      1| BufferInstance::PJRT_Buffer_IsDeleted
2025-08-12 15:39:04.042 (   4.484s) [        C545D1C0]     buffer_instance.cc:526      1| BufferInstance::PJRT_Buffer_IsDeleted
2025-08-12 15:39:04.042 (   4.484s) [        C545D1C0]     buffer_instance.cc:526      1| BufferInstance::PJRT_Buffer_IsDeleted
2025-08-12 15:39:04.042 (   4.484s) [        C545D1C0]     buffer_instance.cc:526      1| BufferInstance::PJRT_Buffer_IsDeleted
2025-08-12 15:39:04.042 (   4.484s) [        C545D1C0]     buffer_instance.cc:526      1| BufferInstance::PJRT_Buffer_IsDeleted
2025-08-12 15:39:04.042 (   4.484s) [        C545D1C0]     buffer_instance.cc:526      1| BufferInstance::PJRT_Buffer_IsDeleted
2025-08-12 15:39:04.042 (   4.484s) [        C545D1C0]     buffer_instance.cc:526      1| BufferInstance::PJRT_Buffer_IsDeleted
2025-08-12 15:39:04.042 (   4.484s) [        C545D1C0]     buffer_instance.cc:526      1| BufferInstance::PJRT_Buffer_IsDeleted
2025-08-12 15:39:04.042 (   4.484s) [        C545D1C0]     buffer_instance.cc:526      1| BufferInstance::PJRT_Buffer_IsDeleted
2025-08-12 15:39:04.042 (   4.484s) [        C545D1C0]     buffer_instance.cc:526      1| BufferInstance::PJRT_Buffer_IsDeleted
2025-08-12 15:39:04.042 (   4.484s) [        C545D1C0]     buffer_instance.cc:526      1| BufferInstance::PJRT_Buffer_IsDeleted
2025-08-12 15:39:04.042 (   4.484s) [        C545D1C0]     buffer_instance.cc:526      1| BufferInstance::PJRT_Buffer_IsDeleted
2025-08-12 15:39:04.042 (   4.484s) [        C545D1C0]     buffer_instance.cc:526      1| BufferInstance::PJRT_Buffer_IsDeleted
2025-08-12 15:39:04.042 (   4.484s) [        C545D1C0]     buffer_instance.cc:526      1| BufferInstance::PJRT_Buffer_IsDeleted
2025-08-12 15:39:04.042 (   4.484s) [        C545D1C0]     buffer_instance.cc:526      1| BufferInstance::PJRT_Buffer_IsDeleted
2025-08-12 15:39:04.042 (   4.484s) [        C545D1C0]     buffer_instance.cc:526      1| BufferInstance::PJRT_Buffer_IsDeleted
2025-08-12 15:39:04.042 (   4.484s) [        C545D1C0]     buffer_instance.cc:526      1| BufferInstance::PJRT_Buffer_IsDeleted
2025-08-12 15:39:04.042 (   4.484s) [        C545D1C0]     buffer_instance.cc:526      1| BufferInstance::PJRT_Buffer_IsDeleted
2025-08-12 15:39:04.042 (   4.484s) [        C545D1C0]     buffer_instance.cc:526      1| BufferInstance::PJRT_Buffer_IsDeleted
2025-08-12 15:39:04.042 (   4.484s) [        C545D1C0]     buffer_instance.cc:526      1| BufferInstance::PJRT_Buffer_IsDeleted
2025-08-12 15:39:04.042 (   4.484s) [        C545D1C0]     buffer_instance.cc:526      1| BufferInstance::PJRT_Buffer_IsDeleted
2025-08-12 15:39:04.042 (   4.484s) [        C545D1C0]     buffer_instance.cc:526      1| BufferInstance::PJRT_Buffer_IsDeleted
2025-08-12 15:39:04.042 (   4.484s) [        C545D1C0]     buffer_instance.cc:526      1| BufferInstance::PJRT_Buffer_IsDeleted
2025-08-12 15:39:04.042 (   4.484s) [        C545D1C0]     buffer_instance.cc:526      1| BufferInstance::PJRT_Buffer_IsDeleted
2025-08-12 15:39:04.042 (   4.485s) [        C545D1C0]     buffer_instance.cc:526      1| BufferInstance::PJRT_Buffer_IsDeleted
2025-08-12 15:39:04.042 (   4.485s) [        C545D1C0]     buffer_instance.cc:526      1| BufferInstance::PJRT_Buffer_IsDeleted
2025-08-12 15:39:04.042 (   4.485s) [        C545D1C0]     buffer_instance.cc:526      1| BufferInstance::PJRT_Buffer_IsDeleted
2025-08-12 15:39:04.042 (   4.485s) [        C545D1C0]     buffer_instance.cc:526      1| BufferInstance::PJRT_Buffer_IsDeleted
2025-08-12 15:39:04.042 (   4.485s) [        C545D1C0]     buffer_instance.cc:526      1| BufferInstance::PJRT_Buffer_IsDeleted
2025-08-12 15:39:04.042 (   4.485s) [        C545D1C0]     buffer_instance.cc:526      1| BufferInstance::PJRT_Buffer_IsDeleted
2025-08-12 15:39:04.042 (   4.485s) [        C545D1C0]     buffer_instance.cc:526      1| BufferInstance::PJRT_Buffer_IsDeleted
2025-08-12 15:39:04.042 (   4.485s) [        C545D1C0]     buffer_instance.cc:526      1| BufferInstance::PJRT_Buffer_IsDeleted
2025-08-12 15:39:04.042 (   4.485s) [        C545D1C0]     buffer_instance.cc:526      1| BufferInstance::PJRT_Buffer_IsDeleted
2025-08-12 15:39:04.042 (   4.485s) [        C545D1C0]     buffer_instance.cc:526      1| BufferInstance::PJRT_Buffer_IsDeleted
2025-08-12 15:39:04.042 (   4.485s) [        C545D1C0]     buffer_instance.cc:526      1| BufferInstance::PJRT_Buffer_IsDeleted
2025-08-12 15:39:04.042 (   4.485s) [        C545D1C0]     buffer_instance.cc:526      1| BufferInstance::PJRT_Buffer_IsDeleted
2025-08-12 15:39:04.042 (   4.485s) [        C545D1C0]     buffer_instance.cc:526      1| BufferInstance::PJRT_Buffer_IsDeleted
2025-08-12 15:39:04.042 (   4.485s) [        C545D1C0]     buffer_instance.cc:526      1| BufferInstance::PJRT_Buffer_IsDeleted
2025-08-12 15:39:04.042 (   4.485s) [        C545D1C0]     buffer_instance.cc:526      1| BufferInstance::PJRT_Buffer_IsDeleted
2025-08-12 15:39:04.042 (   4.485s) [        C545D1C0]     buffer_instance.cc:526      1| BufferInstance::PJRT_Buffer_IsDeleted
2025-08-12 15:39:04.042 (   4.485s) [        C545D1C0]     buffer_instance.cc:526      1| BufferInstance::PJRT_Buffer_IsDeleted
2025-08-12 15:39:04.042 (   4.485s) [        C545D1C0]     buffer_instance.cc:526      1| BufferInstance::PJRT_Buffer_IsDeleted
2025-08-12 15:39:04.042 (   4.485s) [        C545D1C0]     buffer_instance.cc:526      1| BufferInstance::PJRT_Buffer_IsDeleted
2025-08-12 15:39:04.042 (   4.485s) [        C545D1C0]     buffer_instance.cc:526      1| BufferInstance::PJRT_Buffer_IsDeleted
2025-08-12 15:39:04.042 (   4.485s) [        C545D1C0]     buffer_instance.cc:526      1| BufferInstance::PJRT_Buffer_IsDeleted
2025-08-12 15:39:04.042 (   4.485s) [        C545D1C0]     buffer_instance.cc:526      1| BufferInstance::PJRT_Buffer_IsDeleted
2025-08-12 15:39:04.042 (   4.485s) [        C545D1C0]     buffer_instance.cc:526      1| BufferInstance::PJRT_Buffer_IsDeleted
2025-08-12 15:39:04.042 (   4.485s) [        C545D1C0]     buffer_instance.cc:526      1| BufferInstance::PJRT_Buffer_IsDeleted
2025-08-12 15:39:04.042 (   4.485s) [        C545D1C0]     buffer_instance.cc:526      1| BufferInstance::PJRT_Buffer_IsDeleted
2025-08-12 15:39:04.043 (   4.485s) [        C545D1C0]     buffer_instance.cc:526      1| BufferInstance::PJRT_Buffer_IsDeleted
2025-08-12 15:39:04.043 (   4.485s) [        C545D1C0]     buffer_instance.cc:526      1| BufferInstance::PJRT_Buffer_IsDeleted
2025-08-12 15:39:04.043 (   4.486s) [        C545D1C0]     buffer_instance.cc:526      1| BufferInstance::PJRT_Buffer_IsDeleted
2025-08-12 15:39:04.043 (   4.486s) [        C545D1C0]     buffer_instance.cc:526      1| BufferInstance::PJRT_Buffer_IsDeleted
2025-08-12 15:39:04.043 (   4.486s) [        C545D1C0]     buffer_instance.cc:526      1| BufferInstance::PJRT_Buffer_IsDeleted
2025-08-12 15:39:04.043 (   4.486s) [        C545D1C0]     buffer_instance.cc:526      1| BufferInstance::PJRT_Buffer_IsDeleted
2025-08-12 15:39:04.043 (   4.486s) [        C545D1C0]     buffer_instance.cc:526      1| BufferInstance::PJRT_Buffer_IsDeleted
2025-08-12 15:39:04.043 (   4.486s) [        C545D1C0]     buffer_instance.cc:526      1| BufferInstance::PJRT_Buffer_IsDeleted
2025-08-12 15:39:04.043 (   4.486s) [        C545D1C0]     buffer_instance.cc:526      1| BufferInstance::PJRT_Buffer_IsDeleted
2025-08-12 15:39:04.043 (   4.486s) [        C545D1C0]     buffer_instance.cc:526      1| BufferInstance::PJRT_Buffer_IsDeleted
2025-08-12 15:39:04.043 (   4.486s) [        C545D1C0]     buffer_instance.cc:526      1| BufferInstance::PJRT_Buffer_IsDeleted
2025-08-12 15:39:04.043 (   4.486s) [        C545D1C0]     buffer_instance.cc:526      1| BufferInstance::PJRT_Buffer_IsDeleted
2025-08-12 15:39:04.043 (   4.486s) [        C545D1C0]     buffer_instance.cc:526      1| BufferInstance::PJRT_Buffer_IsDeleted
2025-08-12 15:39:04.043 (   4.486s) [        C545D1C0]     buffer_instance.cc:526      1| BufferInstance::PJRT_Buffer_IsDeleted
2025-08-12 15:39:04.043 (   4.486s) [        C545D1C0]     buffer_instance.cc:526      1| BufferInstance::PJRT_Buffer_IsDeleted
2025-08-12 15:39:04.043 (   4.486s) [        C545D1C0]     buffer_instance.cc:526      1| BufferInstance::PJRT_Buffer_IsDeleted
2025-08-12 15:39:04.044 (   4.486s) [        C545D1C0]     buffer_instance.cc:526      1| BufferInstance::PJRT_Buffer_IsDeleted
2025-08-12 15:39:04.044 (   4.486s) [        C545D1C0]     buffer_instance.cc:526      1| BufferInstance::PJRT_Buffer_IsDeleted
2025-08-12 15:39:04.044 (   4.487s) [        C545D1C0]     buffer_instance.cc:526      1| BufferInstance::PJRT_Buffer_IsDeleted
2025-08-12 15:39:04.044 (   4.487s) [        C545D1C0]     buffer_instance.cc:526      1| BufferInstance::PJRT_Buffer_IsDeleted
2025-08-12 15:39:04.044 (   4.487s) [        C545D1C0]     buffer_instance.cc:526      1| BufferInstance::PJRT_Buffer_IsDeleted
2025-08-12 15:39:04.077 (   4.520s) [        C545D1C0]     client_instance.cc:471      1| ClientInstance::PJRT_Client_Compile
2025-08-12 15:39:04.077 (   4.520s) [        C545D1C0]      module_builder.cc:101      1| ModuleBuilder::buildModule
2025-08-12 15:39:04.079 (   4.522s) [        C545D1C0]      module_builder.cc:155      1| VHLO Module:
module @SyncTensorsGraph.613 attributes {mhlo.cross_program_prefetches = [], mhlo.input_output_alias = [], mhlo.is_dynamic = false, mhlo.use_auto_spmd_partitioning = false} {
  vhlo.func_v1 @main(%arg0: !vhlo.tensor_v1<7x!vhlo.i64_v1>, %arg1: !vhlo.tensor_v1<1x64x1x!vhlo.f32_v1>, %arg2: !vhlo.tensor_v1<3072x1024x!vhlo.bf16_v1>, %arg3: !vhlo.tensor_v1<!vhlo.f32_v1>, %arg4: !vhlo.tensor_v1<1x7x!vhlo.i64_v1>, %arg5: !vhlo.tensor_v1<128256x3072x!vhlo.bf16_v1>, %arg6: !vhlo.tensor_v1<3072x!vhlo.bf16_v1>, %arg7: !vhlo.tensor_v1<!vhlo.i64_v1>, %arg8: !vhlo.tensor_v1<1x8x128x128x!vhlo.bf16_v1>, %arg9: !vhlo.tensor_v1<3072x1024x!vhlo.bf16_v1>, %arg10: !vhlo.tensor_v1<1x8x128x128x!vhlo.bf16_v1>, %arg11: !vhlo.tensor_v1<3072x1024x!vhlo.bf16_v1>, %arg12: !vhlo.tensor_v1<8192x3072x!vhlo.bf16_v1>, %arg13: !vhlo.tensor_v1<3072x8192x!vhlo.bf16_v1>, %arg14: !vhlo.tensor_v1<3072x3072x!vhlo.bf16_v1>, %arg15: !vhlo.tensor_v1<1x1x7x128x!vhlo.bf16_v1>, %arg16: !vhlo.tensor_v1<!vhlo.f32_v1>, %arg17: !vhlo.tensor_v1<3072x3072x!vhlo.bf16_v1>, %arg18: !vhlo.tensor_v1<3072x!vhlo.bf16_v1>, %arg19: !vhlo.tensor_v1<3072x8192x!vhlo.bf16_v1>, %arg20: !vhlo.tensor_v1<3072x!vhlo.bf16_v1>, %arg21: !vhlo.tensor_v1<1x8x128x128x!vhlo.bf16_v1>, %arg22: !vhlo.tensor_v1<3072x1024x!vhlo.bf16_v1>, %arg23: !vhlo.tensor_v1<1x8x128x128x!vhlo.bf16_v1>, %arg24: !vhlo.tensor_v1<3072x128256x!vhlo.bf16_v1>, %arg25: !vhlo.tensor_v1<8192x3072x!vhlo.bf16_v1>, %arg26: !vhlo.tensor_v1<3072x8192x!vhlo.bf16_v1>, %arg27: !vhlo.tensor_v1<3072x3072x!vhlo.bf16_v1>, %arg28: !vhlo.tensor_v1<3072x3072x!vhlo.bf16_v1>, %arg29: !vhlo.tensor_v1<3072x!vhlo.bf16_v1>, %arg30: !vhlo.tensor_v1<3072x8192x!vhlo.bf16_v1>, %arg31: !vhlo.tensor_v1<3072x!vhlo.bf16_v1>) -> (!vhlo.tensor_v1<1x8x128x128x!vhlo.bf16_v1>, !vhlo.tensor_v1<1x8x128x128x!vhlo.bf16_v1>, !vhlo.tensor_v1<1x8x128x128x!vhlo.bf16_v1>, !vhlo.tensor_v1<1x8x128x128x!vhlo.bf16_v1>, !vhlo.tensor_v1<7x128256x!vhlo.bf16_v1>, !vhlo.tensor_v1<1x7x128256x!vhlo.bf16_v1>) {
    %0 = "vhlo.constant_v1"() <{value = #vhlo.tensor_v1<dense<3.25520843E-4> : tensor<1x7xf32>>}> : () -> !vhlo.tensor_v1<1x7x!vhlo.f32_v1>
    %1 = "vhlo.constant_v1"() <{value = #vhlo.tensor_v1<dense<2.000000e+00> : tensor<1x7x3072xf32>>}> : () -> !vhlo.tensor_v1<1x7x3072x!vhlo.f32_v1>
    %2 = "vhlo.constant_v1"() <{value = #vhlo.tensor_v1<dense<0xFF800000> : tensor<f32>>}> : () -> !vhlo.tensor_v1<!vhlo.f32_v1>
    %3 = "vhlo.constant_v1"() <{value = #vhlo.tensor_v1<dense<0.000000e+00> : tensor<f32>>}> : () -> !vhlo.tensor_v1<!vhlo.f32_v1>
    %4 = "vhlo.constant_v1"() <{value = #vhlo.tensor_v1<dense<0> : tensor<7xi64>>}> : () -> !vhlo.tensor_v1<7x!vhlo.i64_v1>
    %5 = "vhlo.compare_v1"(%arg0, %4) <{compare_type = #vhlo<comparison_type_v1 NOTYPE>, comparison_direction = #vhlo<comparison_direction_v1 LT>}> : (!vhlo.tensor_v1<7x!vhlo.i64_v1>, !vhlo.tensor_v1<7x!vhlo.i64_v1>) -> !vhlo.tensor_v1<7x!vhlo.bool_v1>
    %6 = "vhlo.broadcast_in_dim_v1"(%arg7) <{broadcast_dimensions = #vhlo.tensor_v1<dense<> : tensor<0xi64>>}> : (!vhlo.tensor_v1<!vhlo.i64_v1>) -> !vhlo.tensor_v1<7x!vhlo.i64_v1>
    %7 = "vhlo.add_v1"(%arg0, %6) : (!vhlo.tensor_v1<7x!vhlo.i64_v1>, !vhlo.tensor_v1<7x!vhlo.i64_v1>) -> !vhlo.tensor_v1<7x!vhlo.i64_v1>
    %8 = "vhlo.select_v1"(%5, %7, %arg0) : (!vhlo.tensor_v1<7x!vhlo.bool_v1>, !vhlo.tensor_v1<7x!vhlo.i64_v1>, !vhlo.tensor_v1<7x!vhlo.i64_v1>) -> !vhlo.tensor_v1<7x!vhlo.i64_v1>
    %9 = "vhlo.reshape_v1"(%8) : (!vhlo.tensor_v1<7x!vhlo.i64_v1>) -> !vhlo.tensor_v1<7x1x!vhlo.i64_v1>
    %10 = "vhlo.convert_v1"(%arg6) : (!vhlo.tensor_v1<3072x!vhlo.bf16_v1>) -> !vhlo.tensor_v1<3072x!vhlo.f32_v1>
    %11 = "vhlo.broadcast_in_dim_v1"(%10) <{broadcast_dimensions = #vhlo.tensor_v1<dense<2> : tensor<1xi64>>}> : (!vhlo.tensor_v1<3072x!vhlo.f32_v1>) -> !vhlo.tensor_v1<1x7x3072x!vhlo.f32_v1>
    %12 = "vhlo.reshape_v1"(%arg4) : (!vhlo.tensor_v1<1x7x!vhlo.i64_v1>) -> !vhlo.tensor_v1<7x!vhlo.i64_v1>
    %13 = "vhlo.convert_v1"(%12) : (!vhlo.tensor_v1<7x!vhlo.i64_v1>) -> !vhlo.tensor_v1<7x!vhlo.ui32_v1>
    %14 = "vhlo.gather_v2"(%arg5, %13) <{collapsed_slice_dims = #vhlo.tensor_v1<dense<0> : tensor<1xi64>>, index_vector_dim = #vhlo.integer_v1<1 : i64>, indices_are_sorted = #vhlo.bool_v1<false>, offset_dims = #vhlo.tensor_v1<dense<1> : tensor<1xi64>>, operand_batching_dims = #vhlo.tensor_v1<dense<> : tensor<0xi64>>, slice_sizes = #vhlo.tensor_v1<dense<[1, 3072]> : tensor<2xi64>>, start_index_map = #vhlo.tensor_v1<dense<0> : tensor<1xi64>>, start_indices_batching_dims = #vhlo.tensor_v1<dense<> : tensor<0xi64>>}> : (!vhlo.tensor_v1<128256x3072x!vhlo.bf16_v1>, !vhlo.tensor_v1<7x!vhlo.ui32_v1>) -> !vhlo.tensor_v1<7x3072x!vhlo.bf16_v1>
    %15 = "vhlo.reshape_v1"(%14) : (!vhlo.tensor_v1<7x3072x!vhlo.bf16_v1>) -> !vhlo.tensor_v1<1x7x3072x!vhlo.bf16_v1>
    %16 = "vhlo.convert_v1"(%15) : (!vhlo.tensor_v1<1x7x3072x!vhlo.bf16_v1>) -> !vhlo.tensor_v1<1x7x3072x!vhlo.f32_v1>
    %17 = "vhlo.power_v1"(%16, %1) : (!vhlo.tensor_v1<1x7x3072x!vhlo.f32_v1>, !vhlo.tensor_v1<1x7x3072x!vhlo.f32_v1>) -> !vhlo.tensor_v1<1x7x3072x!vhlo.f32_v1>
    %18 = "vhlo.reduce_v1"(%17, %3) <{dimensions = #vhlo.tensor_v1<dense<2> : tensor<1xi64>>}> ({
    ^bb0(%arg32: !vhlo.tensor_v1<!vhlo.f32_v1>, %arg33: !vhlo.tensor_v1<!vhlo.f32_v1>):
      %284 = "vhlo.add_v1"(%arg32, %arg33) : (!vhlo.tensor_v1<!vhlo.f32_v1>, !vhlo.tensor_v1<!vhlo.f32_v1>) -> !vhlo.tensor_v1<!vhlo.f32_v1>
      "vhlo.return_v1"(%284) : (!vhlo.tensor_v1<!vhlo.f32_v1>) -> ()
    }) : (!vhlo.tensor_v1<1x7x3072x!vhlo.f32_v1>, !vhlo.tensor_v1<!vhlo.f32_v1>) -> !vhlo.tensor_v1<1x7x!vhlo.f32_v1>
    %19 = "vhlo.multiply_v1"(%18, %0) : (!vhlo.tensor_v1<1x7x!vhlo.f32_v1>, !vhlo.tensor_v1<1x7x!vhlo.f32_v1>) -> !vhlo.tensor_v1<1x7x!vhlo.f32_v1>
    %20 = "vhlo.reshape_v1"(%19) : (!vhlo.tensor_v1<1x7x!vhlo.f32_v1>) -> !vhlo.tensor_v1<1x7x1x!vhlo.f32_v1>
    %21 = "vhlo.broadcast_in_dim_v1"(%arg3) <{broadcast_dimensions = #vhlo.tensor_v1<dense<> : tensor<0xi64>>}> : (!vhlo.tensor_v1<!vhlo.f32_v1>) -> !vhlo.tensor_v1<1x7x1x!vhlo.f32_v1>
    %22 = "vhlo.add_v1"(%20, %21) : (!vhlo.tensor_v1<1x7x1x!vhlo.f32_v1>, !vhlo.tensor_v1<1x7x1x!vhlo.f32_v1>) -> !vhlo.tensor_v1<1x7x1x!vhlo.f32_v1>
    %23 = "vhlo.rsqrt_v2"(%22) <{result_accuracy = #vhlo.result_accuracy_v1<atol = 0.000000e+00, rtol = 0.000000e+00, ulps = 0, mode = #vhlo<result_accuracy_mode_v1 DEFAULT>>}> : (!vhlo.tensor_v1<1x7x1x!vhlo.f32_v1>) -> !vhlo.tensor_v1<1x7x1x!vhlo.f32_v1>
    %24 = "vhlo.reshape_v1"(%23) : (!vhlo.tensor_v1<1x7x1x!vhlo.f32_v1>) -> !vhlo.tensor_v1<1x7x!vhlo.f32_v1>
    %25 = "vhlo.broadcast_in_dim_v1"(%24) <{broadcast_dimensions = #vhlo.tensor_v1<dense<[0, 1]> : tensor<2xi64>>}> : (!vhlo.tensor_v1<1x7x!vhlo.f32_v1>) -> !vhlo.tensor_v1<1x7x3072x!vhlo.f32_v1>
    %26 = "vhlo.multiply_v1"(%16, %25) : (!vhlo.tensor_v1<1x7x3072x!vhlo.f32_v1>, !vhlo.tensor_v1<1x7x3072x!vhlo.f32_v1>) -> !vhlo.tensor_v1<1x7x3072x!vhlo.f32_v1>
    %27 = "vhlo.convert_v1"(%26) : (!vhlo.tensor_v1<1x7x3072x!vhlo.f32_v1>) -> !vhlo.tensor_v1<1x7x3072x!vhlo.bf16_v1>
    %28 = "vhlo.convert_v1"(%27) : (!vhlo.tensor_v1<1x7x3072x!vhlo.bf16_v1>) -> !vhlo.tensor_v1<1x7x3072x!vhlo.f32_v1>
    %29 = "vhlo.multiply_v1"(%11, %28) : (!vhlo.tensor_v1<1x7x3072x!vhlo.f32_v1>, !vhlo.tensor_v1<1x7x3072x!vhlo.f32_v1>) -> !vhlo.tensor_v1<1x7x3072x!vhlo.f32_v1>
    %30 = "vhlo.convert_v1"(%29) : (!vhlo.tensor_v1<1x7x3072x!vhlo.f32_v1>) -> !vhlo.tensor_v1<1x7x3072x!vhlo.bf16_v1>
    %31 = "vhlo.reshape_v1"(%30) : (!vhlo.tensor_v1<1x7x3072x!vhlo.bf16_v1>) -> !vhlo.tensor_v1<7x3072x!vhlo.bf16_v1>
    %32 = "vhlo.dot_general_v2"(%31, %arg2) <{accumulation_type = #vhlo.type_v1<!vhlo.none_v1>, allow_imprecise_accumulation = #vhlo.type_v1<!vhlo.none_v1>, lhs_batching_dimensions = #vhlo.tensor_v1<dense<> : tensor<0xi64>>, lhs_component_count = #vhlo.type_v1<!vhlo.none_v1>, lhs_contracting_dimensions = #vhlo.tensor_v1<dense<1> : tensor<1xi64>>, lhs_precision_type = #vhlo.type_v1<!vhlo.none_v1>, num_primitive_operations = #vhlo.type_v1<!vhlo.none_v1>, precision_config = #vhlo.array_v1<[#vhlo<precision_v1 DEFAULT>, #vhlo<precision_v1 DEFAULT>]>, rhs_batching_dimensions = #vhlo.tensor_v1<dense<> : tensor<0xi64>>, rhs_component_count = #vhlo.type_v1<!vhlo.none_v1>, rhs_contracting_dimensions = #vhlo.tensor_v1<dense<0> : tensor<1xi64>>, rhs_precision_type = #vhlo.type_v1<!vhlo.none_v1>}> : (!vhlo.tensor_v1<7x3072x!vhlo.bf16_v1>, !vhlo.tensor_v1<3072x1024x!vhlo.bf16_v1>) -> !vhlo.tensor_v1<7x1024x!vhlo.bf16_v1>
    %33 = "vhlo.reshape_v1"(%32) : (!vhlo.tensor_v1<7x1024x!vhlo.bf16_v1>) -> !vhlo.tensor_v1<1x7x8x128x!vhlo.bf16_v1>
    %34 = "vhlo.transpose_v1"(%33) <{permutation = #vhlo.tensor_v1<dense<[0, 2, 1, 3]> : tensor<4xi64>>}> {result_layout = #vhlo.tensor_v1<dense<[3, 1, 2, 0]> : tensor<4xindex>>, xla_shape = #vhlo.string_v1<"bf16[1,8,7,128]{3,1,2,0}">} : (!vhlo.tensor_v1<1x7x8x128x!vhlo.bf16_v1>) -> !vhlo.tensor_v1<1x8x7x128x!vhlo.bf16_v1>
    %35 = "vhlo.convert_v1"(%34) {result_layout = #vhlo.tensor_v1<dense<[3, 1, 2, 0]> : tensor<4xindex>>, xla_shape = #vhlo.string_v1<"f32[1,8,7,128]{3,1,2,0}">} : (!vhlo.tensor_v1<1x8x7x128x!vhlo.bf16_v1>) -> !vhlo.tensor_v1<1x8x7x128x!vhlo.f32_v1>
    %36 = "vhlo.reshape_v1"(%arg0) : (!vhlo.tensor_v1<7x!vhlo.i64_v1>) -> !vhlo.tensor_v1<1x1x7x!vhlo.i64_v1>
    %37 = "vhlo.convert_v1"(%36) : (!vhlo.tensor_v1<1x1x7x!vhlo.i64_v1>) -> !vhlo.tensor_v1<1x1x7x!vhlo.f32_v1>
    %38 = "vhlo.dot_general_v2"(%arg1, %37) <{accumulation_type = #vhlo.type_v1<!vhlo.none_v1>, allow_imprecise_accumulation = #vhlo.type_v1<!vhlo.none_v1>, lhs_batching_dimensions = #vhlo.tensor_v1<dense<0> : tensor<1xi64>>, lhs_component_count = #vhlo.type_v1<!vhlo.none_v1>, lhs_contracting_dimensions = #vhlo.tensor_v1<dense<2> : tensor<1xi64>>, lhs_precision_type = #vhlo.type_v1<!vhlo.none_v1>, num_primitive_operations = #vhlo.type_v1<!vhlo.none_v1>, precision_config = #vhlo.array_v1<[#vhlo<precision_v1 DEFAULT>, #vhlo<precision_v1 DEFAULT>]>, rhs_batching_dimensions = #vhlo.tensor_v1<dense<0> : tensor<1xi64>>, rhs_component_count = #vhlo.type_v1<!vhlo.none_v1>, rhs_contracting_dimensions = #vhlo.tensor_v1<dense<1> : tensor<1xi64>>, rhs_precision_type = #vhlo.type_v1<!vhlo.none_v1>}> : (!vhlo.tensor_v1<1x64x1x!vhlo.f32_v1>, !vhlo.tensor_v1<1x1x7x!vhlo.f32_v1>) -> !vhlo.tensor_v1<1x64x7x!vhlo.f32_v1>
    %39 = "vhlo.transpose_v1"(%38) <{permutation = #vhlo.tensor_v1<dense<[0, 2, 1]> : tensor<3xi64>>}> {result_layout = #vhlo.tensor_v1<dense<[1, 2, 0]> : tensor<3xindex>>, xla_shape = #vhlo.string_v1<"f32[1,7,64]{1,2,0}">} : (!vhlo.tensor_v1<1x64x7x!vhlo.f32_v1>) -> !vhlo.tensor_v1<1x7x64x!vhlo.f32_v1>
    %40 = "vhlo.concatenate_v1"(%39, %39) <{dimension = #vhlo.integer_v1<2 : i64>}> : (!vhlo.tensor_v1<1x7x64x!vhlo.f32_v1>, !vhlo.tensor_v1<1x7x64x!vhlo.f32_v1>) -> !vhlo.tensor_v1<1x7x128x!vhlo.f32_v1>
    %41 = "vhlo.cosine_v2"(%40) <{result_accuracy = #vhlo.result_accuracy_v1<atol = 0.000000e+00, rtol = 0.000000e+00, ulps = 0, mode = #vhlo<result_accuracy_mode_v1 DEFAULT>>}> : (!vhlo.tensor_v1<1x7x128x!vhlo.f32_v1>) -> !vhlo.tensor_v1<1x7x128x!vhlo.f32_v1>
    %42 = "vhlo.convert_v1"(%41) : (!vhlo.tensor_v1<1x7x128x!vhlo.f32_v1>) -> !vhlo.tensor_v1<1x7x128x!vhlo.bf16_v1>
    %43 = "vhlo.reshape_v1"(%42) : (!vhlo.tensor_v1<1x7x128x!vhlo.bf16_v1>) -> !vhlo.tensor_v1<1x1x7x128x!vhlo.bf16_v1>
    %44 = "vhlo.convert_v1"(%43) : (!vhlo.tensor_v1<1x1x7x128x!vhlo.bf16_v1>) -> !vhlo.tensor_v1<1x1x7x128x!vhlo.f32_v1>
    %45 = "vhlo.reshape_v1"(%44) : (!vhlo.tensor_v1<1x1x7x128x!vhlo.f32_v1>) -> !vhlo.tensor_v1<1x7x128x!vhlo.f32_v1>
    %46 = "vhlo.broadcast_in_dim_v1"(%45) <{broadcast_dimensions = #vhlo.tensor_v1<dense<[0, 2, 3]> : tensor<3xi64>>}> : (!vhlo.tensor_v1<1x7x128x!vhlo.f32_v1>) -> !vhlo.tensor_v1<1x8x7x128x!vhlo.f32_v1>
    %47 = "vhlo.multiply_v1"(%35, %46) : (!vhlo.tensor_v1<1x8x7x128x!vhlo.f32_v1>, !vhlo.tensor_v1<1x8x7x128x!vhlo.f32_v1>) -> !vhlo.tensor_v1<1x8x7x128x!vhlo.f32_v1>
    %48 = "vhlo.convert_v1"(%47) : (!vhlo.tensor_v1<1x8x7x128x!vhlo.f32_v1>) -> !vhlo.tensor_v1<1x8x7x128x!vhlo.bf16_v1>
    %49 = "vhlo.slice_v1"(%34) <{limit_indices = #vhlo.tensor_v1<dense<[1, 8, 7, 128]> : tensor<4xi64>>, start_indices = #vhlo.tensor_v1<dense<[0, 0, 0, 64]> : tensor<4xi64>>, strides = #vhlo.tensor_v1<dense<1> : tensor<4xi64>>}> : (!vhlo.tensor_v1<1x8x7x128x!vhlo.bf16_v1>) -> !vhlo.tensor_v1<1x8x7x64x!vhlo.bf16_v1>
    %50 = "vhlo.negate_v1"(%49) : (!vhlo.tensor_v1<1x8x7x64x!vhlo.bf16_v1>) -> !vhlo.tensor_v1<1x8x7x64x!vhlo.bf16_v1>
    %51 = "vhlo.slice_v1"(%34) <{limit_indices = #vhlo.tensor_v1<dense<[1, 8, 7, 64]> : tensor<4xi64>>, start_indices = #vhlo.tensor_v1<dense<0> : tensor<4xi64>>, strides = #vhlo.tensor_v1<dense<1> : tensor<4xi64>>}> : (!vhlo.tensor_v1<1x8x7x128x!vhlo.bf16_v1>) -> !vhlo.tensor_v1<1x8x7x64x!vhlo.bf16_v1>
    %52 = "vhlo.concatenate_v1"(%50, %51) <{dimension = #vhlo.integer_v1<3 : i64>}> : (!vhlo.tensor_v1<1x8x7x64x!vhlo.bf16_v1>, !vhlo.tensor_v1<1x8x7x64x!vhlo.bf16_v1>) -> !vhlo.tensor_v1<1x8x7x128x!vhlo.bf16_v1>
    %53 = "vhlo.convert_v1"(%52) : (!vhlo.tensor_v1<1x8x7x128x!vhlo.bf16_v1>) -> !vhlo.tensor_v1<1x8x7x128x!vhlo.f32_v1>
    %54 = "vhlo.sine_v2"(%40) <{result_accuracy = #vhlo.result_accuracy_v1<atol = 0.000000e+00, rtol = 0.000000e+00, ulps = 0, mode = #vhlo<result_accuracy_mode_v1 DEFAULT>>}> : (!vhlo.tensor_v1<1x7x128x!vhlo.f32_v1>) -> !vhlo.tensor_v1<1x7x128x!vhlo.f32_v1>
    %55 = "vhlo.convert_v1"(%54) : (!vhlo.tensor_v1<1x7x128x!vhlo.f32_v1>) -> !vhlo.tensor_v1<1x7x128x!vhlo.bf16_v1>
    %56 = "vhlo.reshape_v1"(%55) : (!vhlo.tensor_v1<1x7x128x!vhlo.bf16_v1>) -> !vhlo.tensor_v1<1x1x7x128x!vhlo.bf16_v1>
    %57 = "vhlo.convert_v1"(%56) : (!vhlo.tensor_v1<1x1x7x128x!vhlo.bf16_v1>) -> !vhlo.tensor_v1<1x1x7x128x!vhlo.f32_v1>
    %58 = "vhlo.reshape_v1"(%57) : (!vhlo.tensor_v1<1x1x7x128x!vhlo.f32_v1>) -> !vhlo.tensor_v1<1x7x128x!vhlo.f32_v1>
    %59 = "vhlo.broadcast_in_dim_v1"(%58) <{broadcast_dimensions = #vhlo.tensor_v1<dense<[0, 2, 3]> : tensor<3xi64>>}> : (!vhlo.tensor_v1<1x7x128x!vhlo.f32_v1>) -> !vhlo.tensor_v1<1x8x7x128x!vhlo.f32_v1>
    %60 = "vhlo.multiply_v1"(%53, %59) : (!vhlo.tensor_v1<1x8x7x128x!vhlo.f32_v1>, !vhlo.tensor_v1<1x8x7x128x!vhlo.f32_v1>) -> !vhlo.tensor_v1<1x8x7x128x!vhlo.f32_v1>
    %61 = "vhlo.convert_v1"(%60) : (!vhlo.tensor_v1<1x8x7x128x!vhlo.f32_v1>) -> !vhlo.tensor_v1<1x8x7x128x!vhlo.bf16_v1>
    %62 = "vhlo.add_v1"(%48, %61) : (!vhlo.tensor_v1<1x8x7x128x!vhlo.bf16_v1>, !vhlo.tensor_v1<1x8x7x128x!vhlo.bf16_v1>) -> !vhlo.tensor_v1<1x8x7x128x!vhlo.bf16_v1>
    %63 = "vhlo.scatter_v2"(%arg8, %9, %62) <{index_vector_dim = #vhlo.integer_v1<1 : i64>, indices_are_sorted = #vhlo.bool_v1<false>, input_batching_dims = #vhlo.tensor_v1<dense<> : tensor<0xi64>>, inserted_window_dims = #vhlo.tensor_v1<dense<2> : tensor<1xi64>>, scatter_dims_to_operand_dims = #vhlo.tensor_v1<dense<2> : tensor<1xi64>>, scatter_indices_batching_dims = #vhlo.tensor_v1<dense<> : tensor<0xi64>>, unique_indices = #vhlo.bool_v1<false>, update_window_dims = #vhlo.tensor_v1<dense<[0, 1, 3]> : tensor<3xi64>>}> ({
    ^bb0(%arg32: !vhlo.tensor_v1<!vhlo.bf16_v1>, %arg33: !vhlo.tensor_v1<!vhlo.bf16_v1>):
      "vhlo.return_v1"(%arg33) : (!vhlo.tensor_v1<!vhlo.bf16_v1>) -> ()
    }) : (!vhlo.tensor_v1<1x8x128x128x!vhlo.bf16_v1>, !vhlo.tensor_v1<7x1x!vhlo.i64_v1>, !vhlo.tensor_v1<1x8x7x128x!vhlo.bf16_v1>) -> !vhlo.tensor_v1<1x8x128x128x!vhlo.bf16_v1>
    %64 = "vhlo.dot_general_v2"(%31, %arg9) <{accumulation_type = #vhlo.type_v1<!vhlo.none_v1>, allow_imprecise_accumulation = #vhlo.type_v1<!vhlo.none_v1>, lhs_batching_dimensions = #vhlo.tensor_v1<dense<> : tensor<0xi64>>, lhs_component_count = #vhlo.type_v1<!vhlo.none_v1>, lhs_contracting_dimensions = #vhlo.tensor_v1<dense<1> : tensor<1xi64>>, lhs_precision_type = #vhlo.type_v1<!vhlo.none_v1>, num_primitive_operations = #vhlo.type_v1<!vhlo.none_v1>, precision_config = #vhlo.array_v1<[#vhlo<precision_v1 DEFAULT>, #vhlo<precision_v1 DEFAULT>]>, rhs_batching_dimensions = #vhlo.tensor_v1<dense<> : tensor<0xi64>>, rhs_component_count = #vhlo.type_v1<!vhlo.none_v1>, rhs_contracting_dimensions = #vhlo.tensor_v1<dense<0> : tensor<1xi64>>, rhs_precision_type = #vhlo.type_v1<!vhlo.none_v1>}> : (!vhlo.tensor_v1<7x3072x!vhlo.bf16_v1>, !vhlo.tensor_v1<3072x1024x!vhlo.bf16_v1>) -> !vhlo.tensor_v1<7x1024x!vhlo.bf16_v1>
    %65 = "vhlo.reshape_v1"(%64) : (!vhlo.tensor_v1<7x1024x!vhlo.bf16_v1>) -> !vhlo.tensor_v1<1x7x8x128x!vhlo.bf16_v1>
    %66 = "vhlo.transpose_v1"(%65) <{permutation = #vhlo.tensor_v1<dense<[0, 2, 1, 3]> : tensor<4xi64>>}> {result_layout = #vhlo.tensor_v1<dense<[3, 1, 2, 0]> : tensor<4xindex>>, xla_shape = #vhlo.string_v1<"bf16[1,8,7,128]{3,1,2,0}">} : (!vhlo.tensor_v1<1x7x8x128x!vhlo.bf16_v1>) -> !vhlo.tensor_v1<1x8x7x128x!vhlo.bf16_v1>
    %67 = "vhlo.scatter_v2"(%arg10, %9, %66) <{index_vector_dim = #vhlo.integer_v1<1 : i64>, indices_are_sorted = #vhlo.bool_v1<false>, input_batching_dims = #vhlo.tensor_v1<dense<> : tensor<0xi64>>, inserted_window_dims = #vhlo.tensor_v1<dense<2> : tensor<1xi64>>, scatter_dims_to_operand_dims = #vhlo.tensor_v1<dense<2> : tensor<1xi64>>, scatter_indices_batching_dims = #vhlo.tensor_v1<dense<> : tensor<0xi64>>, unique_indices = #vhlo.bool_v1<false>, update_window_dims = #vhlo.tensor_v1<dense<[0, 1, 3]> : tensor<3xi64>>}> ({
    ^bb0(%arg32: !vhlo.tensor_v1<!vhlo.bf16_v1>, %arg33: !vhlo.tensor_v1<!vhlo.bf16_v1>):
      "vhlo.return_v1"(%arg33) : (!vhlo.tensor_v1<!vhlo.bf16_v1>) -> ()
    }) : (!vhlo.tensor_v1<1x8x128x128x!vhlo.bf16_v1>, !vhlo.tensor_v1<7x1x!vhlo.i64_v1>, !vhlo.tensor_v1<1x8x7x128x!vhlo.bf16_v1>) -> !vhlo.tensor_v1<1x8x128x128x!vhlo.bf16_v1>
    %68 = "vhlo.convert_v1"(%arg20) : (!vhlo.tensor_v1<3072x!vhlo.bf16_v1>) -> !vhlo.tensor_v1<3072x!vhlo.f32_v1>
    %69 = "vhlo.broadcast_in_dim_v1"(%68) <{broadcast_dimensions = #vhlo.tensor_v1<dense<2> : tensor<1xi64>>}> : (!vhlo.tensor_v1<3072x!vhlo.f32_v1>) -> !vhlo.tensor_v1<1x7x3072x!vhlo.f32_v1>
    %70 = "vhlo.dot_general_v2"(%31, %arg17) <{accumulation_type = #vhlo.type_v1<!vhlo.none_v1>, allow_imprecise_accumulation = #vhlo.type_v1<!vhlo.none_v1>, lhs_batching_dimensions = #vhlo.tensor_v1<dense<> : tensor<0xi64>>, lhs_component_count = #vhlo.type_v1<!vhlo.none_v1>, lhs_contracting_dimensions = #vhlo.tensor_v1<dense<1> : tensor<1xi64>>, lhs_precision_type = #vhlo.type_v1<!vhlo.none_v1>, num_primitive_operations = #vhlo.type_v1<!vhlo.none_v1>, precision_config = #vhlo.array_v1<[#vhlo<precision_v1 DEFAULT>, #vhlo<precision_v1 DEFAULT>]>, rhs_batching_dimensions = #vhlo.tensor_v1<dense<> : tensor<0xi64>>, rhs_component_count = #vhlo.type_v1<!vhlo.none_v1>, rhs_contracting_dimensions = #vhlo.tensor_v1<dense<0> : tensor<1xi64>>, rhs_precision_type = #vhlo.type_v1<!vhlo.none_v1>}> : (!vhlo.tensor_v1<7x3072x!vhlo.bf16_v1>, !vhlo.tensor_v1<3072x3072x!vhlo.bf16_v1>) -> !vhlo.tensor_v1<7x3072x!vhlo.bf16_v1>
    %71 = "vhlo.reshape_v1"(%70) : (!vhlo.tensor_v1<7x3072x!vhlo.bf16_v1>) -> !vhlo.tensor_v1<1x7x24x128x!vhlo.bf16_v1>
    %72 = "vhlo.transpose_v1"(%71) <{permutation = #vhlo.tensor_v1<dense<[0, 2, 1, 3]> : tensor<4xi64>>}> {result_layout = #vhlo.tensor_v1<dense<[3, 1, 2, 0]> : tensor<4xindex>>, xla_shape = #vhlo.string_v1<"bf16[1,24,7,128]{3,1,2,0}">} : (!vhlo.tensor_v1<1x7x24x128x!vhlo.bf16_v1>) -> !vhlo.tensor_v1<1x24x7x128x!vhlo.bf16_v1>
    %73 = "vhlo.convert_v1"(%72) {result_layout = #vhlo.tensor_v1<dense<[3, 1, 2, 0]> : tensor<4xindex>>, xla_shape = #vhlo.string_v1<"f32[1,24,7,128]{3,1,2,0}">} : (!vhlo.tensor_v1<1x24x7x128x!vhlo.bf16_v1>) -> !vhlo.tensor_v1<1x24x7x128x!vhlo.f32_v1>
    %74 = "vhlo.broadcast_in_dim_v1"(%45) <{broadcast_dimensions = #vhlo.tensor_v1<dense<[0, 2, 3]> : tensor<3xi64>>}> : (!vhlo.tensor_v1<1x7x128x!vhlo.f32_v1>) -> !vhlo.tensor_v1<1x24x7x128x!vhlo.f32_v1>
    %75 = "vhlo.multiply_v1"(%73, %74) : (!vhlo.tensor_v1<1x24x7x128x!vhlo.f32_v1>, !vhlo.tensor_v1<1x24x7x128x!vhlo.f32_v1>) -> !vhlo.tensor_v1<1x24x7x128x!vhlo.f32_v1>
    %76 = "vhlo.convert_v1"(%75) : (!vhlo.tensor_v1<1x24x7x128x!vhlo.f32_v1>) -> !vhlo.tensor_v1<1x24x7x128x!vhlo.bf16_v1>
    %77 = "vhlo.slice_v1"(%72) <{limit_indices = #vhlo.tensor_v1<dense<[1, 24, 7, 128]> : tensor<4xi64>>, start_indices = #vhlo.tensor_v1<dense<[0, 0, 0, 64]> : tensor<4xi64>>, strides = #vhlo.tensor_v1<dense<1> : tensor<4xi64>>}> : (!vhlo.tensor_v1<1x24x7x128x!vhlo.bf16_v1>) -> !vhlo.tensor_v1<1x24x7x64x!vhlo.bf16_v1>
    %78 = "vhlo.negate_v1"(%77) : (!vhlo.tensor_v1<1x24x7x64x!vhlo.bf16_v1>) -> !vhlo.tensor_v1<1x24x7x64x!vhlo.bf16_v1>
    %79 = "vhlo.slice_v1"(%72) <{limit_indices = #vhlo.tensor_v1<dense<[1, 24, 7, 64]> : tensor<4xi64>>, start_indices = #vhlo.tensor_v1<dense<0> : tensor<4xi64>>, strides = #vhlo.tensor_v1<dense<1> : tensor<4xi64>>}> : (!vhlo.tensor_v1<1x24x7x128x!vhlo.bf16_v1>) -> !vhlo.tensor_v1<1x24x7x64x!vhlo.bf16_v1>
    %80 = "vhlo.concatenate_v1"(%78, %79) <{dimension = #vhlo.integer_v1<3 : i64>}> : (!vhlo.tensor_v1<1x24x7x64x!vhlo.bf16_v1>, !vhlo.tensor_v1<1x24x7x64x!vhlo.bf16_v1>) -> !vhlo.tensor_v1<1x24x7x128x!vhlo.bf16_v1>
    %81 = "vhlo.convert_v1"(%80) : (!vhlo.tensor_v1<1x24x7x128x!vhlo.bf16_v1>) -> !vhlo.tensor_v1<1x24x7x128x!vhlo.f32_v1>
    %82 = "vhlo.broadcast_in_dim_v1"(%58) <{broadcast_dimensions = #vhlo.tensor_v1<dense<[0, 2, 3]> : tensor<3xi64>>}> : (!vhlo.tensor_v1<1x7x128x!vhlo.f32_v1>) -> !vhlo.tensor_v1<1x24x7x128x!vhlo.f32_v1>
    %83 = "vhlo.multiply_v1"(%81, %82) : (!vhlo.tensor_v1<1x24x7x128x!vhlo.f32_v1>, !vhlo.tensor_v1<1x24x7x128x!vhlo.f32_v1>) -> !vhlo.tensor_v1<1x24x7x128x!vhlo.f32_v1>
    %84 = "vhlo.convert_v1"(%83) : (!vhlo.tensor_v1<1x24x7x128x!vhlo.f32_v1>) -> !vhlo.tensor_v1<1x24x7x128x!vhlo.bf16_v1>
    %85 = "vhlo.add_v1"(%76, %84) : (!vhlo.tensor_v1<1x24x7x128x!vhlo.bf16_v1>, !vhlo.tensor_v1<1x24x7x128x!vhlo.bf16_v1>) -> !vhlo.tensor_v1<1x24x7x128x!vhlo.bf16_v1>
    %86 = "vhlo.reshape_v1"(%85) : (!vhlo.tensor_v1<1x24x7x128x!vhlo.bf16_v1>) -> !vhlo.tensor_v1<24x7x128x!vhlo.bf16_v1>
    %87 = "vhlo.broadcast_in_dim_v1"(%63) <{broadcast_dimensions = #vhlo.tensor_v1<dense<[0, 1, 3, 4]> : tensor<4xi64>>}> : (!vhlo.tensor_v1<1x8x128x128x!vhlo.bf16_v1>) -> !vhlo.tensor_v1<1x8x3x128x128x!vhlo.bf16_v1>
    %88 = "vhlo.reshape_v1"(%87) : (!vhlo.tensor_v1<1x8x3x128x128x!vhlo.bf16_v1>) -> !vhlo.tensor_v1<1x24x128x128x!vhlo.bf16_v1>
    %89 = "vhlo.transpose_v1"(%88) <{permutation = #vhlo.tensor_v1<dense<[0, 1, 3, 2]> : tensor<4xi64>>}> {result_layout = #vhlo.tensor_v1<dense<[2, 3, 1, 0]> : tensor<4xindex>>, xla_shape = #vhlo.string_v1<"bf16[1,24,128,128]{2,3,1,0}">} : (!vhlo.tensor_v1<1x24x128x128x!vhlo.bf16_v1>) -> !vhlo.tensor_v1<1x24x128x128x!vhlo.bf16_v1>
    %90 = "vhlo.reshape_v1"(%89) : (!vhlo.tensor_v1<1x24x128x128x!vhlo.bf16_v1>) -> !vhlo.tensor_v1<24x128x128x!vhlo.bf16_v1>
    %91 = "vhlo.dot_general_v2"(%86, %90) <{accumulation_type = #vhlo.type_v1<!vhlo.none_v1>, allow_imprecise_accumulation = #vhlo.type_v1<!vhlo.none_v1>, lhs_batching_dimensions = #vhlo.tensor_v1<dense<0> : tensor<1xi64>>, lhs_component_count = #vhlo.type_v1<!vhlo.none_v1>, lhs_contracting_dimensions = #vhlo.tensor_v1<dense<2> : tensor<1xi64>>, lhs_precision_type = #vhlo.type_v1<!vhlo.none_v1>, num_primitive_operations = #vhlo.type_v1<!vhlo.none_v1>, precision_config = #vhlo.array_v1<[#vhlo<precision_v1 DEFAULT>, #vhlo<precision_v1 DEFAULT>]>, rhs_batching_dimensions = #vhlo.tensor_v1<dense<0> : tensor<1xi64>>, rhs_component_count = #vhlo.type_v1<!vhlo.none_v1>, rhs_contracting_dimensions = #vhlo.tensor_v1<dense<1> : tensor<1xi64>>, rhs_precision_type = #vhlo.type_v1<!vhlo.none_v1>}> : (!vhlo.tensor_v1<24x7x128x!vhlo.bf16_v1>, !vhlo.tensor_v1<24x128x128x!vhlo.bf16_v1>) -> !vhlo.tensor_v1<24x7x128x!vhlo.bf16_v1>
    %92 = "vhlo.reshape_v1"(%91) : (!vhlo.tensor_v1<24x7x128x!vhlo.bf16_v1>) -> !vhlo.tensor_v1<1x24x7x128x!vhlo.bf16_v1>
    %93 = "vhlo.convert_v1"(%92) : (!vhlo.tensor_v1<1x24x7x128x!vhlo.bf16_v1>) -> !vhlo.tensor_v1<1x24x7x128x!vhlo.f32_v1>
    %94 = "vhlo.broadcast_in_dim_v1"(%arg16) <{broadcast_dimensions = #vhlo.tensor_v1<dense<> : tensor<0xi64>>}> : (!vhlo.tensor_v1<!vhlo.f32_v1>) -> !vhlo.tensor_v1<1x24x7x128x!vhlo.f32_v1>
    %95 = "vhlo.multiply_v1"(%93, %94) : (!vhlo.tensor_v1<1x24x7x128x!vhlo.f32_v1>, !vhlo.tensor_v1<1x24x7x128x!vhlo.f32_v1>) -> !vhlo.tensor_v1<1x24x7x128x!vhlo.f32_v1>
    %96 = "vhlo.convert_v1"(%95) : (!vhlo.tensor_v1<1x24x7x128x!vhlo.f32_v1>) -> !vhlo.tensor_v1<1x24x7x128x!vhlo.bf16_v1>
    %97 = "vhlo.reshape_v1"(%arg15) : (!vhlo.tensor_v1<1x1x7x128x!vhlo.bf16_v1>) -> !vhlo.tensor_v1<1x7x128x!vhlo.bf16_v1>
    %98 = "vhlo.broadcast_in_dim_v1"(%97) <{broadcast_dimensions = #vhlo.tensor_v1<dense<[0, 2, 3]> : tensor<3xi64>>}> : (!vhlo.tensor_v1<1x7x128x!vhlo.bf16_v1>) -> !vhlo.tensor_v1<1x24x7x128x!vhlo.bf16_v1>
    %99 = "vhlo.add_v1"(%96, %98) : (!vhlo.tensor_v1<1x24x7x128x!vhlo.bf16_v1>, !vhlo.tensor_v1<1x24x7x128x!vhlo.bf16_v1>) -> !vhlo.tensor_v1<1x24x7x128x!vhlo.bf16_v1>
    %100 = "vhlo.convert_v1"(%99) : (!vhlo.tensor_v1<1x24x7x128x!vhlo.bf16_v1>) -> !vhlo.tensor_v1<1x24x7x128x!vhlo.f32_v1>
    %101 = "vhlo.reduce_v1"(%100, %2) <{dimensions = #vhlo.tensor_v1<dense<3> : tensor<1xi64>>}> ({
    ^bb0(%arg32: !vhlo.tensor_v1<!vhlo.f32_v1>, %arg33: !vhlo.tensor_v1<!vhlo.f32_v1>):
      %284 = "vhlo.maximum_v1"(%arg32, %arg33) : (!vhlo.tensor_v1<!vhlo.f32_v1>, !vhlo.tensor_v1<!vhlo.f32_v1>) -> !vhlo.tensor_v1<!vhlo.f32_v1>
      "vhlo.return_v1"(%284) : (!vhlo.tensor_v1<!vhlo.f32_v1>) -> ()
    }) : (!vhlo.tensor_v1<1x24x7x128x!vhlo.f32_v1>, !vhlo.tensor_v1<!vhlo.f32_v1>) -> !vhlo.tensor_v1<1x24x7x!vhlo.f32_v1>
    %102 = "vhlo.broadcast_in_dim_v1"(%101) <{broadcast_dimensions = #vhlo.tensor_v1<dense<[0, 1, 2]> : tensor<3xi64>>}> : (!vhlo.tensor_v1<1x24x7x!vhlo.f32_v1>) -> !vhlo.tensor_v1<1x24x7x128x!vhlo.f32_v1>
    %103 = "vhlo.subtract_v1"(%100, %102) : (!vhlo.tensor_v1<1x24x7x128x!vhlo.f32_v1>, !vhlo.tensor_v1<1x24x7x128x!vhlo.f32_v1>) -> !vhlo.tensor_v1<1x24x7x128x!vhlo.f32_v1>
    %104 = "vhlo.exponential_v2"(%103) <{result_accuracy = #vhlo.result_accuracy_v1<atol = 0.000000e+00, rtol = 0.000000e+00, ulps = 0, mode = #vhlo<result_accuracy_mode_v1 DEFAULT>>}> : (!vhlo.tensor_v1<1x24x7x128x!vhlo.f32_v1>) -> !vhlo.tensor_v1<1x24x7x128x!vhlo.f32_v1>
    %105 = "vhlo.reduce_v1"(%104, %3) <{dimensions = #vhlo.tensor_v1<dense<3> : tensor<1xi64>>}> ({
    ^bb0(%arg32: !vhlo.tensor_v1<!vhlo.f32_v1>, %arg33: !vhlo.tensor_v1<!vhlo.f32_v1>):
      %284 = "vhlo.add_v1"(%arg32, %arg33) : (!vhlo.tensor_v1<!vhlo.f32_v1>, !vhlo.tensor_v1<!vhlo.f32_v1>) -> !vhlo.tensor_v1<!vhlo.f32_v1>
      "vhlo.return_v1"(%284) : (!vhlo.tensor_v1<!vhlo.f32_v1>) -> ()
    }) : (!vhlo.tensor_v1<1x24x7x128x!vhlo.f32_v1>, !vhlo.tensor_v1<!vhlo.f32_v1>) -> !vhlo.tensor_v1<1x24x7x!vhlo.f32_v1>
    %106 = "vhlo.broadcast_in_dim_v1"(%105) <{broadcast_dimensions = #vhlo.tensor_v1<dense<[0, 1, 2]> : tensor<3xi64>>}> : (!vhlo.tensor_v1<1x24x7x!vhlo.f32_v1>) -> !vhlo.tensor_v1<1x24x7x128x!vhlo.f32_v1>
    %107 = "vhlo.divide_v1"(%104, %106) : (!vhlo.tensor_v1<1x24x7x128x!vhlo.f32_v1>, !vhlo.tensor_v1<1x24x7x128x!vhlo.f32_v1>) -> !vhlo.tensor_v1<1x24x7x128x!vhlo.f32_v1>
    %108 = "vhlo.convert_v1"(%107) : (!vhlo.tensor_v1<1x24x7x128x!vhlo.f32_v1>) -> !vhlo.tensor_v1<1x24x7x128x!vhlo.bf16_v1>
    %109 = "vhlo.reshape_v1"(%108) : (!vhlo.tensor_v1<1x24x7x128x!vhlo.bf16_v1>) -> !vhlo.tensor_v1<24x7x128x!vhlo.bf16_v1>
    %110 = "vhlo.broadcast_in_dim_v1"(%67) <{broadcast_dimensions = #vhlo.tensor_v1<dense<[0, 1, 3, 4]> : tensor<4xi64>>}> : (!vhlo.tensor_v1<1x8x128x128x!vhlo.bf16_v1>) -> !vhlo.tensor_v1<1x8x3x128x128x!vhlo.bf16_v1>
    %111 = "vhlo.reshape_v1"(%110) : (!vhlo.tensor_v1<1x8x3x128x128x!vhlo.bf16_v1>) -> !vhlo.tensor_v1<24x128x128x!vhlo.bf16_v1>
    %112 = "vhlo.dot_general_v2"(%109, %111) <{accumulation_type = #vhlo.type_v1<!vhlo.none_v1>, allow_imprecise_accumulation = #vhlo.type_v1<!vhlo.none_v1>, lhs_batching_dimensions = #vhlo.tensor_v1<dense<0> : tensor<1xi64>>, lhs_component_count = #vhlo.type_v1<!vhlo.none_v1>, lhs_contracting_dimensions = #vhlo.tensor_v1<dense<2> : tensor<1xi64>>, lhs_precision_type = #vhlo.type_v1<!vhlo.none_v1>, num_primitive_operations = #vhlo.type_v1<!vhlo.none_v1>, precision_config = #vhlo.array_v1<[#vhlo<precision_v1 DEFAULT>, #vhlo<precision_v1 DEFAULT>]>, rhs_batching_dimensions = #vhlo.tensor_v1<dense<0> : tensor<1xi64>>, rhs_component_count = #vhlo.type_v1<!vhlo.none_v1>, rhs_contracting_dimensions = #vhlo.tensor_v1<dense<1> : tensor<1xi64>>, rhs_precision_type = #vhlo.type_v1<!vhlo.none_v1>}> : (!vhlo.tensor_v1<24x7x128x!vhlo.bf16_v1>, !vhlo.tensor_v1<24x128x128x!vhlo.bf16_v1>) -> !vhlo.tensor_v1<24x7x128x!vhlo.bf16_v1>
    %113 = "vhlo.reshape_v1"(%112) : (!vhlo.tensor_v1<24x7x128x!vhlo.bf16_v1>) -> !vhlo.tensor_v1<1x24x7x128x!vhlo.bf16_v1>
    %114 = "vhlo.transpose_v1"(%113) <{permutation = #vhlo.tensor_v1<dense<[0, 2, 1, 3]> : tensor<4xi64>>}> {result_layout = #vhlo.tensor_v1<dense<[3, 1, 2, 0]> : tensor<4xindex>>, xla_shape = #vhlo.string_v1<"bf16[1,7,24,128]{3,1,2,0}">} : (!vhlo.tensor_v1<1x24x7x128x!vhlo.bf16_v1>) -> !vhlo.tensor_v1<1x7x24x128x!vhlo.bf16_v1>
    %115 = "vhlo.reshape_v1"(%114) : (!vhlo.tensor_v1<1x7x24x128x!vhlo.bf16_v1>) -> !vhlo.tensor_v1<7x3072x!vhlo.bf16_v1>
    %116 = "vhlo.dot_general_v2"(%115, %arg14) <{accumulation_type = #vhlo.type_v1<!vhlo.none_v1>, allow_imprecise_accumulation = #vhlo.type_v1<!vhlo.none_v1>, lhs_batching_dimensions = #vhlo.tensor_v1<dense<> : tensor<0xi64>>, lhs_component_count = #vhlo.type_v1<!vhlo.none_v1>, lhs_contracting_dimensions = #vhlo.tensor_v1<dense<1> : tensor<1xi64>>, lhs_precision_type = #vhlo.type_v1<!vhlo.none_v1>, num_primitive_operations = #vhlo.type_v1<!vhlo.none_v1>, precision_config = #vhlo.array_v1<[#vhlo<precision_v1 DEFAULT>, #vhlo<precision_v1 DEFAULT>]>, rhs_batching_dimensions = #vhlo.tensor_v1<dense<> : tensor<0xi64>>, rhs_component_count = #vhlo.type_v1<!vhlo.none_v1>, rhs_contracting_dimensions = #vhlo.tensor_v1<dense<0> : tensor<1xi64>>, rhs_precision_type = #vhlo.type_v1<!vhlo.none_v1>}> : (!vhlo.tensor_v1<7x3072x!vhlo.bf16_v1>, !vhlo.tensor_v1<3072x3072x!vhlo.bf16_v1>) -> !vhlo.tensor_v1<7x3072x!vhlo.bf16_v1>
    %117 = "vhlo.reshape_v1"(%116) : (!vhlo.tensor_v1<7x3072x!vhlo.bf16_v1>) -> !vhlo.tensor_v1<1x7x3072x!vhlo.bf16_v1>
    %118 = "vhlo.add_v1"(%15, %117) : (!vhlo.tensor_v1<1x7x3072x!vhlo.bf16_v1>, !vhlo.tensor_v1<1x7x3072x!vhlo.bf16_v1>) -> !vhlo.tensor_v1<1x7x3072x!vhlo.bf16_v1>
    %119 = "vhlo.convert_v1"(%arg18) : (!vhlo.tensor_v1<3072x!vhlo.bf16_v1>) -> !vhlo.tensor_v1<3072x!vhlo.f32_v1>
    %120 = "vhlo.broadcast_in_dim_v1"(%119) <{broadcast_dimensions = #vhlo.tensor_v1<dense<2> : tensor<1xi64>>}> : (!vhlo.tensor_v1<3072x!vhlo.f32_v1>) -> !vhlo.tensor_v1<1x7x3072x!vhlo.f32_v1>
    %121 = "vhlo.convert_v1"(%118) : (!vhlo.tensor_v1<1x7x3072x!vhlo.bf16_v1>) -> !vhlo.tensor_v1<1x7x3072x!vhlo.f32_v1>
    %122 = "vhlo.power_v1"(%121, %1) : (!vhlo.tensor_v1<1x7x3072x!vhlo.f32_v1>, !vhlo.tensor_v1<1x7x3072x!vhlo.f32_v1>) -> !vhlo.tensor_v1<1x7x3072x!vhlo.f32_v1>
    %123 = "vhlo.reduce_v1"(%122, %3) <{dimensions = #vhlo.tensor_v1<dense<2> : tensor<1xi64>>}> ({
    ^bb0(%arg32: !vhlo.tensor_v1<!vhlo.f32_v1>, %arg33: !vhlo.tensor_v1<!vhlo.f32_v1>):
      %284 = "vhlo.add_v1"(%arg32, %arg33) : (!vhlo.tensor_v1<!vhlo.f32_v1>, !vhlo.tensor_v1<!vhlo.f32_v1>) -> !vhlo.tensor_v1<!vhlo.f32_v1>
      "vhlo.return_v1"(%284) : (!vhlo.tensor_v1<!vhlo.f32_v1>) -> ()
    }) : (!vhlo.tensor_v1<1x7x3072x!vhlo.f32_v1>, !vhlo.tensor_v1<!vhlo.f32_v1>) -> !vhlo.tensor_v1<1x7x!vhlo.f32_v1>
    %124 = "vhlo.multiply_v1"(%123, %0) : (!vhlo.tensor_v1<1x7x!vhlo.f32_v1>, !vhlo.tensor_v1<1x7x!vhlo.f32_v1>) -> !vhlo.tensor_v1<1x7x!vhlo.f32_v1>
    %125 = "vhlo.reshape_v1"(%124) : (!vhlo.tensor_v1<1x7x!vhlo.f32_v1>) -> !vhlo.tensor_v1<1x7x1x!vhlo.f32_v1>
    %126 = "vhlo.add_v1"(%125, %21) : (!vhlo.tensor_v1<1x7x1x!vhlo.f32_v1>, !vhlo.tensor_v1<1x7x1x!vhlo.f32_v1>) -> !vhlo.tensor_v1<1x7x1x!vhlo.f32_v1>
    %127 = "vhlo.rsqrt_v2"(%126) <{result_accuracy = #vhlo.result_accuracy_v1<atol = 0.000000e+00, rtol = 0.000000e+00, ulps = 0, mode = #vhlo<result_accuracy_mode_v1 DEFAULT>>}> : (!vhlo.tensor_v1<1x7x1x!vhlo.f32_v1>) -> !vhlo.tensor_v1<1x7x1x!vhlo.f32_v1>
    %128 = "vhlo.reshape_v1"(%127) : (!vhlo.tensor_v1<1x7x1x!vhlo.f32_v1>) -> !vhlo.tensor_v1<1x7x!vhlo.f32_v1>
    %129 = "vhlo.broadcast_in_dim_v1"(%128) <{broadcast_dimensions = #vhlo.tensor_v1<dense<[0, 1]> : tensor<2xi64>>}> : (!vhlo.tensor_v1<1x7x!vhlo.f32_v1>) -> !vhlo.tensor_v1<1x7x3072x!vhlo.f32_v1>
    %130 = "vhlo.multiply_v1"(%121, %129) : (!vhlo.tensor_v1<1x7x3072x!vhlo.f32_v1>, !vhlo.tensor_v1<1x7x3072x!vhlo.f32_v1>) -> !vhlo.tensor_v1<1x7x3072x!vhlo.f32_v1>
    %131 = "vhlo.convert_v1"(%130) : (!vhlo.tensor_v1<1x7x3072x!vhlo.f32_v1>) -> !vhlo.tensor_v1<1x7x3072x!vhlo.bf16_v1>
    %132 = "vhlo.convert_v1"(%131) : (!vhlo.tensor_v1<1x7x3072x!vhlo.bf16_v1>) -> !vhlo.tensor_v1<1x7x3072x!vhlo.f32_v1>
    %133 = "vhlo.multiply_v1"(%120, %132) : (!vhlo.tensor_v1<1x7x3072x!vhlo.f32_v1>, !vhlo.tensor_v1<1x7x3072x!vhlo.f32_v1>) -> !vhlo.tensor_v1<1x7x3072x!vhlo.f32_v1>
    %134 = "vhlo.convert_v1"(%133) : (!vhlo.tensor_v1<1x7x3072x!vhlo.f32_v1>) -> !vhlo.tensor_v1<1x7x3072x!vhlo.bf16_v1>
    %135 = "vhlo.reshape_v1"(%134) : (!vhlo.tensor_v1<1x7x3072x!vhlo.bf16_v1>) -> !vhlo.tensor_v1<7x3072x!vhlo.bf16_v1>
    %136 = "vhlo.dot_general_v2"(%135, %arg19) <{accumulation_type = #vhlo.type_v1<!vhlo.none_v1>, allow_imprecise_accumulation = #vhlo.type_v1<!vhlo.none_v1>, lhs_batching_dimensions = #vhlo.tensor_v1<dense<> : tensor<0xi64>>, lhs_component_count = #vhlo.type_v1<!vhlo.none_v1>, lhs_contracting_dimensions = #vhlo.tensor_v1<dense<1> : tensor<1xi64>>, lhs_precision_type = #vhlo.type_v1<!vhlo.none_v1>, num_primitive_operations = #vhlo.type_v1<!vhlo.none_v1>, precision_config = #vhlo.array_v1<[#vhlo<precision_v1 DEFAULT>, #vhlo<precision_v1 DEFAULT>]>, rhs_batching_dimensions = #vhlo.tensor_v1<dense<> : tensor<0xi64>>, rhs_component_count = #vhlo.type_v1<!vhlo.none_v1>, rhs_contracting_dimensions = #vhlo.tensor_v1<dense<0> : tensor<1xi64>>, rhs_precision_type = #vhlo.type_v1<!vhlo.none_v1>}> : (!vhlo.tensor_v1<7x3072x!vhlo.bf16_v1>, !vhlo.tensor_v1<3072x8192x!vhlo.bf16_v1>) -> !vhlo.tensor_v1<7x8192x!vhlo.bf16_v1>
    %137 = "vhlo.reshape_v1"(%136) : (!vhlo.tensor_v1<7x8192x!vhlo.bf16_v1>) -> !vhlo.tensor_v1<1x7x8192x!vhlo.bf16_v1>
    %138 = "vhlo.convert_v1"(%137) : (!vhlo.tensor_v1<1x7x8192x!vhlo.bf16_v1>) -> !vhlo.tensor_v1<1x7x8192x!vhlo.f32_v1>
    %139 = "vhlo.logistic_v2"(%137) <{result_accuracy = #vhlo.result_accuracy_v1<atol = 0.000000e+00, rtol = 0.000000e+00, ulps = 0, mode = #vhlo<result_accuracy_mode_v1 DEFAULT>>}> : (!vhlo.tensor_v1<1x7x8192x!vhlo.bf16_v1>) -> !vhlo.tensor_v1<1x7x8192x!vhlo.bf16_v1>
    %140 = "vhlo.convert_v1"(%139) : (!vhlo.tensor_v1<1x7x8192x!vhlo.bf16_v1>) -> !vhlo.tensor_v1<1x7x8192x!vhlo.f32_v1>
    %141 = "vhlo.multiply_v1"(%138, %140) : (!vhlo.tensor_v1<1x7x8192x!vhlo.f32_v1>, !vhlo.tensor_v1<1x7x8192x!vhlo.f32_v1>) -> !vhlo.tensor_v1<1x7x8192x!vhlo.f32_v1>
    %142 = "vhlo.convert_v1"(%141) : (!vhlo.tensor_v1<1x7x8192x!vhlo.f32_v1>) -> !vhlo.tensor_v1<1x7x8192x!vhlo.bf16_v1>
    %143 = "vhlo.convert_v1"(%142) : (!vhlo.tensor_v1<1x7x8192x!vhlo.bf16_v1>) -> !vhlo.tensor_v1<1x7x8192x!vhlo.f32_v1>
    %144 = "vhlo.dot_general_v2"(%135, %arg13) <{accumulation_type = #vhlo.type_v1<!vhlo.none_v1>, allow_imprecise_accumulation = #vhlo.type_v1<!vhlo.none_v1>, lhs_batching_dimensions = #vhlo.tensor_v1<dense<> : tensor<0xi64>>, lhs_component_count = #vhlo.type_v1<!vhlo.none_v1>, lhs_contracting_dimensions = #vhlo.tensor_v1<dense<1> : tensor<1xi64>>, lhs_precision_type = #vhlo.type_v1<!vhlo.none_v1>, num_primitive_operations = #vhlo.type_v1<!vhlo.none_v1>, precision_config = #vhlo.array_v1<[#vhlo<precision_v1 DEFAULT>, #vhlo<precision_v1 DEFAULT>]>, rhs_batching_dimensions = #vhlo.tensor_v1<dense<> : tensor<0xi64>>, rhs_component_count = #vhlo.type_v1<!vhlo.none_v1>, rhs_contracting_dimensions = #vhlo.tensor_v1<dense<0> : tensor<1xi64>>, rhs_precision_type = #vhlo.type_v1<!vhlo.none_v1>}> : (!vhlo.tensor_v1<7x3072x!vhlo.bf16_v1>, !vhlo.tensor_v1<3072x8192x!vhlo.bf16_v1>) -> !vhlo.tensor_v1<7x8192x!vhlo.bf16_v1>
    %145 = "vhlo.reshape_v1"(%144) : (!vhlo.tensor_v1<7x8192x!vhlo.bf16_v1>) -> !vhlo.tensor_v1<1x7x8192x!vhlo.bf16_v1>
    %146 = "vhlo.convert_v1"(%145) : (!vhlo.tensor_v1<1x7x8192x!vhlo.bf16_v1>) -> !vhlo.tensor_v1<1x7x8192x!vhlo.f32_v1>
    %147 = "vhlo.multiply_v1"(%143, %146) : (!vhlo.tensor_v1<1x7x8192x!vhlo.f32_v1>, !vhlo.tensor_v1<1x7x8192x!vhlo.f32_v1>) -> !vhlo.tensor_v1<1x7x8192x!vhlo.f32_v1>
    %148 = "vhlo.convert_v1"(%147) : (!vhlo.tensor_v1<1x7x8192x!vhlo.f32_v1>) -> !vhlo.tensor_v1<1x7x8192x!vhlo.bf16_v1>
    %149 = "vhlo.reshape_v1"(%148) : (!vhlo.tensor_v1<1x7x8192x!vhlo.bf16_v1>) -> !vhlo.tensor_v1<7x8192x!vhlo.bf16_v1>
    %150 = "vhlo.dot_general_v2"(%149, %arg12) <{accumulation_type = #vhlo.type_v1<!vhlo.none_v1>, allow_imprecise_accumulation = #vhlo.type_v1<!vhlo.none_v1>, lhs_batching_dimensions = #vhlo.tensor_v1<dense<> : tensor<0xi64>>, lhs_component_count = #vhlo.type_v1<!vhlo.none_v1>, lhs_contracting_dimensions = #vhlo.tensor_v1<dense<1> : tensor<1xi64>>, lhs_precision_type = #vhlo.type_v1<!vhlo.none_v1>, num_primitive_operations = #vhlo.type_v1<!vhlo.none_v1>, precision_config = #vhlo.array_v1<[#vhlo<precision_v1 DEFAULT>, #vhlo<precision_v1 DEFAULT>]>, rhs_batching_dimensions = #vhlo.tensor_v1<dense<> : tensor<0xi64>>, rhs_component_count = #vhlo.type_v1<!vhlo.none_v1>, rhs_contracting_dimensions = #vhlo.tensor_v1<dense<0> : tensor<1xi64>>, rhs_precision_type = #vhlo.type_v1<!vhlo.none_v1>}> : (!vhlo.tensor_v1<7x8192x!vhlo.bf16_v1>, !vhlo.tensor_v1<8192x3072x!vhlo.bf16_v1>) -> !vhlo.tensor_v1<7x3072x!vhlo.bf16_v1>
    %151 = "vhlo.reshape_v1"(%150) : (!vhlo.tensor_v1<7x3072x!vhlo.bf16_v1>) -> !vhlo.tensor_v1<1x7x3072x!vhlo.bf16_v1>
    %152 = "vhlo.add_v1"(%118, %151) : (!vhlo.tensor_v1<1x7x3072x!vhlo.bf16_v1>, !vhlo.tensor_v1<1x7x3072x!vhlo.bf16_v1>) -> !vhlo.tensor_v1<1x7x3072x!vhlo.bf16_v1>
    %153 = "vhlo.convert_v1"(%152) : (!vhlo.tensor_v1<1x7x3072x!vhlo.bf16_v1>) -> !vhlo.tensor_v1<1x7x3072x!vhlo.f32_v1>
    %154 = "vhlo.power_v1"(%153, %1) : (!vhlo.tensor_v1<1x7x3072x!vhlo.f32_v1>, !vhlo.tensor_v1<1x7x3072x!vhlo.f32_v1>) -> !vhlo.tensor_v1<1x7x3072x!vhlo.f32_v1>
    %155 = "vhlo.reduce_v1"(%154, %3) <{dimensions = #vhlo.tensor_v1<dense<2> : tensor<1xi64>>}> ({
    ^bb0(%arg32: !vhlo.tensor_v1<!vhlo.f32_v1>, %arg33: !vhlo.tensor_v1<!vhlo.f32_v1>):
      %284 = "vhlo.add_v1"(%arg32, %arg33) : (!vhlo.tensor_v1<!vhlo.f32_v1>, !vhlo.tensor_v1<!vhlo.f32_v1>) -> !vhlo.tensor_v1<!vhlo.f32_v1>
      "vhlo.return_v1"(%284) : (!vhlo.tensor_v1<!vhlo.f32_v1>) -> ()
    }) : (!vhlo.tensor_v1<1x7x3072x!vhlo.f32_v1>, !vhlo.tensor_v1<!vhlo.f32_v1>) -> !vhlo.tensor_v1<1x7x!vhlo.f32_v1>
    %156 = "vhlo.multiply_v1"(%155, %0) : (!vhlo.tensor_v1<1x7x!vhlo.f32_v1>, !vhlo.tensor_v1<1x7x!vhlo.f32_v1>) -> !vhlo.tensor_v1<1x7x!vhlo.f32_v1>
    %157 = "vhlo.reshape_v1"(%156) : (!vhlo.tensor_v1<1x7x!vhlo.f32_v1>) -> !vhlo.tensor_v1<1x7x1x!vhlo.f32_v1>
    %158 = "vhlo.add_v1"(%157, %21) : (!vhlo.tensor_v1<1x7x1x!vhlo.f32_v1>, !vhlo.tensor_v1<1x7x1x!vhlo.f32_v1>) -> !vhlo.tensor_v1<1x7x1x!vhlo.f32_v1>
    %159 = "vhlo.rsqrt_v2"(%158) <{result_accuracy = #vhlo.result_accuracy_v1<atol = 0.000000e+00, rtol = 0.000000e+00, ulps = 0, mode = #vhlo<result_accuracy_mode_v1 DEFAULT>>}> : (!vhlo.tensor_v1<1x7x1x!vhlo.f32_v1>) -> !vhlo.tensor_v1<1x7x1x!vhlo.f32_v1>
    %160 = "vhlo.reshape_v1"(%159) : (!vhlo.tensor_v1<1x7x1x!vhlo.f32_v1>) -> !vhlo.tensor_v1<1x7x!vhlo.f32_v1>
    %161 = "vhlo.broadcast_in_dim_v1"(%160) <{broadcast_dimensions = #vhlo.tensor_v1<dense<[0, 1]> : tensor<2xi64>>}> : (!vhlo.tensor_v1<1x7x!vhlo.f32_v1>) -> !vhlo.tensor_v1<1x7x3072x!vhlo.f32_v1>
    %162 = "vhlo.multiply_v1"(%153, %161) : (!vhlo.tensor_v1<1x7x3072x!vhlo.f32_v1>, !vhlo.tensor_v1<1x7x3072x!vhlo.f32_v1>) -> !vhlo.tensor_v1<1x7x3072x!vhlo.f32_v1>
    %163 = "vhlo.convert_v1"(%162) : (!vhlo.tensor_v1<1x7x3072x!vhlo.f32_v1>) -> !vhlo.tensor_v1<1x7x3072x!vhlo.bf16_v1>
    %164 = "vhlo.convert_v1"(%163) : (!vhlo.tensor_v1<1x7x3072x!vhlo.bf16_v1>) -> !vhlo.tensor_v1<1x7x3072x!vhlo.f32_v1>
    %165 = "vhlo.multiply_v1"(%69, %164) : (!vhlo.tensor_v1<1x7x3072x!vhlo.f32_v1>, !vhlo.tensor_v1<1x7x3072x!vhlo.f32_v1>) -> !vhlo.tensor_v1<1x7x3072x!vhlo.f32_v1>
    %166 = "vhlo.convert_v1"(%165) : (!vhlo.tensor_v1<1x7x3072x!vhlo.f32_v1>) -> !vhlo.tensor_v1<1x7x3072x!vhlo.bf16_v1>
    %167 = "vhlo.reshape_v1"(%166) : (!vhlo.tensor_v1<1x7x3072x!vhlo.bf16_v1>) -> !vhlo.tensor_v1<7x3072x!vhlo.bf16_v1>
    %168 = "vhlo.dot_general_v2"(%167, %arg11) <{accumulation_type = #vhlo.type_v1<!vhlo.none_v1>, allow_imprecise_accumulation = #vhlo.type_v1<!vhlo.none_v1>, lhs_batching_dimensions = #vhlo.tensor_v1<dense<> : tensor<0xi64>>, lhs_component_count = #vhlo.type_v1<!vhlo.none_v1>, lhs_contracting_dimensions = #vhlo.tensor_v1<dense<1> : tensor<1xi64>>, lhs_precision_type = #vhlo.type_v1<!vhlo.none_v1>, num_primitive_operations = #vhlo.type_v1<!vhlo.none_v1>, precision_config = #vhlo.array_v1<[#vhlo<precision_v1 DEFAULT>, #vhlo<precision_v1 DEFAULT>]>, rhs_batching_dimensions = #vhlo.tensor_v1<dense<> : tensor<0xi64>>, rhs_component_count = #vhlo.type_v1<!vhlo.none_v1>, rhs_contracting_dimensions = #vhlo.tensor_v1<dense<0> : tensor<1xi64>>, rhs_precision_type = #vhlo.type_v1<!vhlo.none_v1>}> : (!vhlo.tensor_v1<7x3072x!vhlo.bf16_v1>, !vhlo.tensor_v1<3072x1024x!vhlo.bf16_v1>) -> !vhlo.tensor_v1<7x1024x!vhlo.bf16_v1>
    %169 = "vhlo.reshape_v1"(%168) : (!vhlo.tensor_v1<7x1024x!vhlo.bf16_v1>) -> !vhlo.tensor_v1<1x7x8x128x!vhlo.bf16_v1>
    %170 = "vhlo.transpose_v1"(%169) <{permutation = #vhlo.tensor_v1<dense<[0, 2, 1, 3]> : tensor<4xi64>>}> {result_layout = #vhlo.tensor_v1<dense<[3, 1, 2, 0]> : tensor<4xindex>>, xla_shape = #vhlo.string_v1<"bf16[1,8,7,128]{3,1,2,0}">} : (!vhlo.tensor_v1<1x7x8x128x!vhlo.bf16_v1>) -> !vhlo.tensor_v1<1x8x7x128x!vhlo.bf16_v1>
    %171 = "vhlo.convert_v1"(%170) {result_layout = #vhlo.tensor_v1<dense<[3, 1, 2, 0]> : tensor<4xindex>>, xla_shape = #vhlo.string_v1<"f32[1,8,7,128]{3,1,2,0}">} : (!vhlo.tensor_v1<1x8x7x128x!vhlo.bf16_v1>) -> !vhlo.tensor_v1<1x8x7x128x!vhlo.f32_v1>
    %172 = "vhlo.multiply_v1"(%171, %46) : (!vhlo.tensor_v1<1x8x7x128x!vhlo.f32_v1>, !vhlo.tensor_v1<1x8x7x128x!vhlo.f32_v1>) -> !vhlo.tensor_v1<1x8x7x128x!vhlo.f32_v1>
    %173 = "vhlo.convert_v1"(%172) : (!vhlo.tensor_v1<1x8x7x128x!vhlo.f32_v1>) -> !vhlo.tensor_v1<1x8x7x128x!vhlo.bf16_v1>
    %174 = "vhlo.slice_v1"(%170) <{limit_indices = #vhlo.tensor_v1<dense<[1, 8, 7, 128]> : tensor<4xi64>>, start_indices = #vhlo.tensor_v1<dense<[0, 0, 0, 64]> : tensor<4xi64>>, strides = #vhlo.tensor_v1<dense<1> : tensor<4xi64>>}> : (!vhlo.tensor_v1<1x8x7x128x!vhlo.bf16_v1>) -> !vhlo.tensor_v1<1x8x7x64x!vhlo.bf16_v1>
    %175 = "vhlo.negate_v1"(%174) : (!vhlo.tensor_v1<1x8x7x64x!vhlo.bf16_v1>) -> !vhlo.tensor_v1<1x8x7x64x!vhlo.bf16_v1>
    %176 = "vhlo.slice_v1"(%170) <{limit_indices = #vhlo.tensor_v1<dense<[1, 8, 7, 64]> : tensor<4xi64>>, start_indices = #vhlo.tensor_v1<dense<0> : tensor<4xi64>>, strides = #vhlo.tensor_v1<dense<1> : tensor<4xi64>>}> : (!vhlo.tensor_v1<1x8x7x128x!vhlo.bf16_v1>) -> !vhlo.tensor_v1<1x8x7x64x!vhlo.bf16_v1>
    %177 = "vhlo.concatenate_v1"(%175, %176) <{dimension = #vhlo.integer_v1<3 : i64>}> : (!vhlo.tensor_v1<1x8x7x64x!vhlo.bf16_v1>, !vhlo.tensor_v1<1x8x7x64x!vhlo.bf16_v1>) -> !vhlo.tensor_v1<1x8x7x128x!vhlo.bf16_v1>
    %178 = "vhlo.convert_v1"(%177) : (!vhlo.tensor_v1<1x8x7x128x!vhlo.bf16_v1>) -> !vhlo.tensor_v1<1x8x7x128x!vhlo.f32_v1>
    %179 = "vhlo.multiply_v1"(%178, %59) : (!vhlo.tensor_v1<1x8x7x128x!vhlo.f32_v1>, !vhlo.tensor_v1<1x8x7x128x!vhlo.f32_v1>) -> !vhlo.tensor_v1<1x8x7x128x!vhlo.f32_v1>
    %180 = "vhlo.convert_v1"(%179) : (!vhlo.tensor_v1<1x8x7x128x!vhlo.f32_v1>) -> !vhlo.tensor_v1<1x8x7x128x!vhlo.bf16_v1>
    %181 = "vhlo.add_v1"(%173, %180) : (!vhlo.tensor_v1<1x8x7x128x!vhlo.bf16_v1>, !vhlo.tensor_v1<1x8x7x128x!vhlo.bf16_v1>) -> !vhlo.tensor_v1<1x8x7x128x!vhlo.bf16_v1>
    %182 = "vhlo.scatter_v2"(%arg21, %9, %181) <{index_vector_dim = #vhlo.integer_v1<1 : i64>, indices_are_sorted = #vhlo.bool_v1<false>, input_batching_dims = #vhlo.tensor_v1<dense<> : tensor<0xi64>>, inserted_window_dims = #vhlo.tensor_v1<dense<2> : tensor<1xi64>>, scatter_dims_to_operand_dims = #vhlo.tensor_v1<dense<2> : tensor<1xi64>>, scatter_indices_batching_dims = #vhlo.tensor_v1<dense<> : tensor<0xi64>>, unique_indices = #vhlo.bool_v1<false>, update_window_dims = #vhlo.tensor_v1<dense<[0, 1, 3]> : tensor<3xi64>>}> ({
    ^bb0(%arg32: !vhlo.tensor_v1<!vhlo.bf16_v1>, %arg33: !vhlo.tensor_v1<!vhlo.bf16_v1>):
      "vhlo.return_v1"(%arg33) : (!vhlo.tensor_v1<!vhlo.bf16_v1>) -> ()
    }) : (!vhlo.tensor_v1<1x8x128x128x!vhlo.bf16_v1>, !vhlo.tensor_v1<7x1x!vhlo.i64_v1>, !vhlo.tensor_v1<1x8x7x128x!vhlo.bf16_v1>) -> !vhlo.tensor_v1<1x8x128x128x!vhlo.bf16_v1>
    %183 = "vhlo.dot_general_v2"(%167, %arg22) <{accumulation_type = #vhlo.type_v1<!vhlo.none_v1>, allow_imprecise_accumulation = #vhlo.type_v1<!vhlo.none_v1>, lhs_batching_dimensions = #vhlo.tensor_v1<dense<> : tensor<0xi64>>, lhs_component_count = #vhlo.type_v1<!vhlo.none_v1>, lhs_contracting_dimensions = #vhlo.tensor_v1<dense<1> : tensor<1xi64>>, lhs_precision_type = #vhlo.type_v1<!vhlo.none_v1>, num_primitive_operations = #vhlo.type_v1<!vhlo.none_v1>, precision_config = #vhlo.array_v1<[#vhlo<precision_v1 DEFAULT>, #vhlo<precision_v1 DEFAULT>]>, rhs_batching_dimensions = #vhlo.tensor_v1<dense<> : tensor<0xi64>>, rhs_component_count = #vhlo.type_v1<!vhlo.none_v1>, rhs_contracting_dimensions = #vhlo.tensor_v1<dense<0> : tensor<1xi64>>, rhs_precision_type = #vhlo.type_v1<!vhlo.none_v1>}> : (!vhlo.tensor_v1<7x3072x!vhlo.bf16_v1>, !vhlo.tensor_v1<3072x1024x!vhlo.bf16_v1>) -> !vhlo.tensor_v1<7x1024x!vhlo.bf16_v1>
    %184 = "vhlo.reshape_v1"(%183) : (!vhlo.tensor_v1<7x1024x!vhlo.bf16_v1>) -> !vhlo.tensor_v1<1x7x8x128x!vhlo.bf16_v1>
    %185 = "vhlo.transpose_v1"(%184) <{permutation = #vhlo.tensor_v1<dense<[0, 2, 1, 3]> : tensor<4xi64>>}> {result_layout = #vhlo.tensor_v1<dense<[3, 1, 2, 0]> : tensor<4xindex>>, xla_shape = #vhlo.string_v1<"bf16[1,8,7,128]{3,1,2,0}">} : (!vhlo.tensor_v1<1x7x8x128x!vhlo.bf16_v1>) -> !vhlo.tensor_v1<1x8x7x128x!vhlo.bf16_v1>
    %186 = "vhlo.scatter_v2"(%arg23, %9, %185) <{index_vector_dim = #vhlo.integer_v1<1 : i64>, indices_are_sorted = #vhlo.bool_v1<false>, input_batching_dims = #vhlo.tensor_v1<dense<> : tensor<0xi64>>, inserted_window_dims = #vhlo.tensor_v1<dense<2> : tensor<1xi64>>, scatter_dims_to_operand_dims = #vhlo.tensor_v1<dense<2> : tensor<1xi64>>, scatter_indices_batching_dims = #vhlo.tensor_v1<dense<> : tensor<0xi64>>, unique_indices = #vhlo.bool_v1<false>, update_window_dims = #vhlo.tensor_v1<dense<[0, 1, 3]> : tensor<3xi64>>}> ({
    ^bb0(%arg32: !vhlo.tensor_v1<!vhlo.bf16_v1>, %arg33: !vhlo.tensor_v1<!vhlo.bf16_v1>):
      "vhlo.return_v1"(%arg33) : (!vhlo.tensor_v1<!vhlo.bf16_v1>) -> ()
    }) : (!vhlo.tensor_v1<1x8x128x128x!vhlo.bf16_v1>, !vhlo.tensor_v1<7x1x!vhlo.i64_v1>, !vhlo.tensor_v1<1x8x7x128x!vhlo.bf16_v1>) -> !vhlo.tensor_v1<1x8x128x128x!vhlo.bf16_v1>
    %187 = "vhlo.convert_v1"(%arg31) : (!vhlo.tensor_v1<3072x!vhlo.bf16_v1>) -> !vhlo.tensor_v1<3072x!vhlo.f32_v1>
    %188 = "vhlo.broadcast_in_dim_v1"(%187) <{broadcast_dimensions = #vhlo.tensor_v1<dense<2> : tensor<1xi64>>}> : (!vhlo.tensor_v1<3072x!vhlo.f32_v1>) -> !vhlo.tensor_v1<1x7x3072x!vhlo.f32_v1>
    %189 = "vhlo.dot_general_v2"(%167, %arg28) <{accumulation_type = #vhlo.type_v1<!vhlo.none_v1>, allow_imprecise_accumulation = #vhlo.type_v1<!vhlo.none_v1>, lhs_batching_dimensions = #vhlo.tensor_v1<dense<> : tensor<0xi64>>, lhs_component_count = #vhlo.type_v1<!vhlo.none_v1>, lhs_contracting_dimensions = #vhlo.tensor_v1<dense<1> : tensor<1xi64>>, lhs_precision_type = #vhlo.type_v1<!vhlo.none_v1>, num_primitive_operations = #vhlo.type_v1<!vhlo.none_v1>, precision_config = #vhlo.array_v1<[#vhlo<precision_v1 DEFAULT>, #vhlo<precision_v1 DEFAULT>]>, rhs_batching_dimensions = #vhlo.tensor_v1<dense<> : tensor<0xi64>>, rhs_component_count = #vhlo.type_v1<!vhlo.none_v1>, rhs_contracting_dimensions = #vhlo.tensor_v1<dense<0> : tensor<1xi64>>, rhs_precision_type = #vhlo.type_v1<!vhlo.none_v1>}> : (!vhlo.tensor_v1<7x3072x!vhlo.bf16_v1>, !vhlo.tensor_v1<3072x3072x!vhlo.bf16_v1>) -> !vhlo.tensor_v1<7x3072x!vhlo.bf16_v1>
    %190 = "vhlo.reshape_v1"(%189) : (!vhlo.tensor_v1<7x3072x!vhlo.bf16_v1>) -> !vhlo.tensor_v1<1x7x24x128x!vhlo.bf16_v1>
    %191 = "vhlo.transpose_v1"(%190) <{permutation = #vhlo.tensor_v1<dense<[0, 2, 1, 3]> : tensor<4xi64>>}> {result_layout = #vhlo.tensor_v1<dense<[3, 1, 2, 0]> : tensor<4xindex>>, xla_shape = #vhlo.string_v1<"bf16[1,24,7,128]{3,1,2,0}">} : (!vhlo.tensor_v1<1x7x24x128x!vhlo.bf16_v1>) -> !vhlo.tensor_v1<1x24x7x128x!vhlo.bf16_v1>
    %192 = "vhlo.convert_v1"(%191) {result_layout = #vhlo.tensor_v1<dense<[3, 1, 2, 0]> : tensor<4xindex>>, xla_shape = #vhlo.string_v1<"f32[1,24,7,128]{3,1,2,0}">} : (!vhlo.tensor_v1<1x24x7x128x!vhlo.bf16_v1>) -> !vhlo.tensor_v1<1x24x7x128x!vhlo.f32_v1>
    %193 = "vhlo.multiply_v1"(%192, %74) : (!vhlo.tensor_v1<1x24x7x128x!vhlo.f32_v1>, !vhlo.tensor_v1<1x24x7x128x!vhlo.f32_v1>) -> !vhlo.tensor_v1<1x24x7x128x!vhlo.f32_v1>
    %194 = "vhlo.convert_v1"(%193) : (!vhlo.tensor_v1<1x24x7x128x!vhlo.f32_v1>) -> !vhlo.tensor_v1<1x24x7x128x!vhlo.bf16_v1>
    %195 = "vhlo.slice_v1"(%191) <{limit_indices = #vhlo.tensor_v1<dense<[1, 24, 7, 128]> : tensor<4xi64>>, start_indices = #vhlo.tensor_v1<dense<[0, 0, 0, 64]> : tensor<4xi64>>, strides = #vhlo.tensor_v1<dense<1> : tensor<4xi64>>}> : (!vhlo.tensor_v1<1x24x7x128x!vhlo.bf16_v1>) -> !vhlo.tensor_v1<1x24x7x64x!vhlo.bf16_v1>
    %196 = "vhlo.negate_v1"(%195) : (!vhlo.tensor_v1<1x24x7x64x!vhlo.bf16_v1>) -> !vhlo.tensor_v1<1x24x7x64x!vhlo.bf16_v1>
    %197 = "vhlo.slice_v1"(%191) <{limit_indices = #vhlo.tensor_v1<dense<[1, 24, 7, 64]> : tensor<4xi64>>, start_indices = #vhlo.tensor_v1<dense<0> : tensor<4xi64>>, strides = #vhlo.tensor_v1<dense<1> : tensor<4xi64>>}> : (!vhlo.tensor_v1<1x24x7x128x!vhlo.bf16_v1>) -> !vhlo.tensor_v1<1x24x7x64x!vhlo.bf16_v1>
    %198 = "vhlo.concatenate_v1"(%196, %197) <{dimension = #vhlo.integer_v1<3 : i64>}> : (!vhlo.tensor_v1<1x24x7x64x!vhlo.bf16_v1>, !vhlo.tensor_v1<1x24x7x64x!vhlo.bf16_v1>) -> !vhlo.tensor_v1<1x24x7x128x!vhlo.bf16_v1>
    %199 = "vhlo.convert_v1"(%198) : (!vhlo.tensor_v1<1x24x7x128x!vhlo.bf16_v1>) -> !vhlo.tensor_v1<1x24x7x128x!vhlo.f32_v1>
    %200 = "vhlo.multiply_v1"(%199, %82) : (!vhlo.tensor_v1<1x24x7x128x!vhlo.f32_v1>, !vhlo.tensor_v1<1x24x7x128x!vhlo.f32_v1>) -> !vhlo.tensor_v1<1x24x7x128x!vhlo.f32_v1>
    %201 = "vhlo.convert_v1"(%200) : (!vhlo.tensor_v1<1x24x7x128x!vhlo.f32_v1>) -> !vhlo.tensor_v1<1x24x7x128x!vhlo.bf16_v1>
    %202 = "vhlo.add_v1"(%194, %201) : (!vhlo.tensor_v1<1x24x7x128x!vhlo.bf16_v1>, !vhlo.tensor_v1<1x24x7x128x!vhlo.bf16_v1>) -> !vhlo.tensor_v1<1x24x7x128x!vhlo.bf16_v1>
    %203 = "vhlo.reshape_v1"(%202) : (!vhlo.tensor_v1<1x24x7x128x!vhlo.bf16_v1>) -> !vhlo.tensor_v1<24x7x128x!vhlo.bf16_v1>
    %204 = "vhlo.broadcast_in_dim_v1"(%182) <{broadcast_dimensions = #vhlo.tensor_v1<dense<[0, 1, 3, 4]> : tensor<4xi64>>}> : (!vhlo.tensor_v1<1x8x128x128x!vhlo.bf16_v1>) -> !vhlo.tensor_v1<1x8x3x128x128x!vhlo.bf16_v1>
    %205 = "vhlo.reshape_v1"(%204) : (!vhlo.tensor_v1<1x8x3x128x128x!vhlo.bf16_v1>) -> !vhlo.tensor_v1<1x24x128x128x!vhlo.bf16_v1>
    %206 = "vhlo.transpose_v1"(%205) <{permutation = #vhlo.tensor_v1<dense<[0, 1, 3, 2]> : tensor<4xi64>>}> {result_layout = #vhlo.tensor_v1<dense<[2, 3, 1, 0]> : tensor<4xindex>>, xla_shape = #vhlo.string_v1<"bf16[1,24,128,128]{2,3,1,0}">} : (!vhlo.tensor_v1<1x24x128x128x!vhlo.bf16_v1>) -> !vhlo.tensor_v1<1x24x128x128x!vhlo.bf16_v1>
    %207 = "vhlo.reshape_v1"(%206) : (!vhlo.tensor_v1<1x24x128x128x!vhlo.bf16_v1>) -> !vhlo.tensor_v1<24x128x128x!vhlo.bf16_v1>
    %208 = "vhlo.dot_general_v2"(%203, %207) <{accumulation_type = #vhlo.type_v1<!vhlo.none_v1>, allow_imprecise_accumulation = #vhlo.type_v1<!vhlo.none_v1>, lhs_batching_dimensions = #vhlo.tensor_v1<dense<0> : tensor<1xi64>>, lhs_component_count = #vhlo.type_v1<!vhlo.none_v1>, lhs_contracting_dimensions = #vhlo.tensor_v1<dense<2> : tensor<1xi64>>, lhs_precision_type = #vhlo.type_v1<!vhlo.none_v1>, num_primitive_operations = #vhlo.type_v1<!vhlo.none_v1>, precision_config = #vhlo.array_v1<[#vhlo<precision_v1 DEFAULT>, #vhlo<precision_v1 DEFAULT>]>, rhs_batching_dimensions = #vhlo.tensor_v1<dense<0> : tensor<1xi64>>, rhs_component_count = #vhlo.type_v1<!vhlo.none_v1>, rhs_contracting_dimensions = #vhlo.tensor_v1<dense<1> : tensor<1xi64>>, rhs_precision_type = #vhlo.type_v1<!vhlo.none_v1>}> : (!vhlo.tensor_v1<24x7x128x!vhlo.bf16_v1>, !vhlo.tensor_v1<24x128x128x!vhlo.bf16_v1>) -> !vhlo.tensor_v1<24x7x128x!vhlo.bf16_v1>
    %209 = "vhlo.reshape_v1"(%208) : (!vhlo.tensor_v1<24x7x128x!vhlo.bf16_v1>) -> !vhlo.tensor_v1<1x24x7x128x!vhlo.bf16_v1>
    %210 = "vhlo.convert_v1"(%209) : (!vhlo.tensor_v1<1x24x7x128x!vhlo.bf16_v1>) -> !vhlo.tensor_v1<1x24x7x128x!vhlo.f32_v1>
    %211 = "vhlo.multiply_v1"(%210, %94) : (!vhlo.tensor_v1<1x24x7x128x!vhlo.f32_v1>, !vhlo.tensor_v1<1x24x7x128x!vhlo.f32_v1>) -> !vhlo.tensor_v1<1x24x7x128x!vhlo.f32_v1>
    %212 = "vhlo.convert_v1"(%211) : (!vhlo.tensor_v1<1x24x7x128x!vhlo.f32_v1>) -> !vhlo.tensor_v1<1x24x7x128x!vhlo.bf16_v1>
    %213 = "vhlo.add_v1"(%212, %98) : (!vhlo.tensor_v1<1x24x7x128x!vhlo.bf16_v1>, !vhlo.tensor_v1<1x24x7x128x!vhlo.bf16_v1>) -> !vhlo.tensor_v1<1x24x7x128x!vhlo.bf16_v1>
    %214 = "vhlo.convert_v1"(%213) : (!vhlo.tensor_v1<1x24x7x128x!vhlo.bf16_v1>) -> !vhlo.tensor_v1<1x24x7x128x!vhlo.f32_v1>
    %215 = "vhlo.reduce_v1"(%214, %2) <{dimensions = #vhlo.tensor_v1<dense<3> : tensor<1xi64>>}> ({
    ^bb0(%arg32: !vhlo.tensor_v1<!vhlo.f32_v1>, %arg33: !vhlo.tensor_v1<!vhlo.f32_v1>):
      %284 = "vhlo.maximum_v1"(%arg32, %arg33) : (!vhlo.tensor_v1<!vhlo.f32_v1>, !vhlo.tensor_v1<!vhlo.f32_v1>) -> !vhlo.tensor_v1<!vhlo.f32_v1>
      "vhlo.return_v1"(%284) : (!vhlo.tensor_v1<!vhlo.f32_v1>) -> ()
    }) : (!vhlo.tensor_v1<1x24x7x128x!vhlo.f32_v1>, !vhlo.tensor_v1<!vhlo.f32_v1>) -> !vhlo.tensor_v1<1x24x7x!vhlo.f32_v1>
    %216 = "vhlo.broadcast_in_dim_v1"(%215) <{broadcast_dimensions = #vhlo.tensor_v1<dense<[0, 1, 2]> : tensor<3xi64>>}> : (!vhlo.tensor_v1<1x24x7x!vhlo.f32_v1>) -> !vhlo.tensor_v1<1x24x7x128x!vhlo.f32_v1>
    %217 = "vhlo.subtract_v1"(%214, %216) : (!vhlo.tensor_v1<1x24x7x128x!vhlo.f32_v1>, !vhlo.tensor_v1<1x24x7x128x!vhlo.f32_v1>) -> !vhlo.tensor_v1<1x24x7x128x!vhlo.f32_v1>
    %218 = "vhlo.exponential_v2"(%217) <{result_accuracy = #vhlo.result_accuracy_v1<atol = 0.000000e+00, rtol = 0.000000e+00, ulps = 0, mode = #vhlo<result_accuracy_mode_v1 DEFAULT>>}> : (!vhlo.tensor_v1<1x24x7x128x!vhlo.f32_v1>) -> !vhlo.tensor_v1<1x24x7x128x!vhlo.f32_v1>
    %219 = "vhlo.reduce_v1"(%218, %3) <{dimensions = #vhlo.tensor_v1<dense<3> : tensor<1xi64>>}> ({
    ^bb0(%arg32: !vhlo.tensor_v1<!vhlo.f32_v1>, %arg33: !vhlo.tensor_v1<!vhlo.f32_v1>):
      %284 = "vhlo.add_v1"(%arg32, %arg33) : (!vhlo.tensor_v1<!vhlo.f32_v1>, !vhlo.tensor_v1<!vhlo.f32_v1>) -> !vhlo.tensor_v1<!vhlo.f32_v1>
      "vhlo.return_v1"(%284) : (!vhlo.tensor_v1<!vhlo.f32_v1>) -> ()
    }) : (!vhlo.tensor_v1<1x24x7x128x!vhlo.f32_v1>, !vhlo.tensor_v1<!vhlo.f32_v1>) -> !vhlo.tensor_v1<1x24x7x!vhlo.f32_v1>
    %220 = "vhlo.broadcast_in_dim_v1"(%219) <{broadcast_dimensions = #vhlo.tensor_v1<dense<[0, 1, 2]> : tensor<3xi64>>}> : (!vhlo.tensor_v1<1x24x7x!vhlo.f32_v1>) -> !vhlo.tensor_v1<1x24x7x128x!vhlo.f32_v1>
    %221 = "vhlo.divide_v1"(%218, %220) : (!vhlo.tensor_v1<1x24x7x128x!vhlo.f32_v1>, !vhlo.tensor_v1<1x24x7x128x!vhlo.f32_v1>) -> !vhlo.tensor_v1<1x24x7x128x!vhlo.f32_v1>
    %222 = "vhlo.convert_v1"(%221) : (!vhlo.tensor_v1<1x24x7x128x!vhlo.f32_v1>) -> !vhlo.tensor_v1<1x24x7x128x!vhlo.bf16_v1>
    %223 = "vhlo.reshape_v1"(%222) : (!vhlo.tensor_v1<1x24x7x128x!vhlo.bf16_v1>) -> !vhlo.tensor_v1<24x7x128x!vhlo.bf16_v1>
    %224 = "vhlo.broadcast_in_dim_v1"(%186) <{broadcast_dimensions = #vhlo.tensor_v1<dense<[0, 1, 3, 4]> : tensor<4xi64>>}> : (!vhlo.tensor_v1<1x8x128x128x!vhlo.bf16_v1>) -> !vhlo.tensor_v1<1x8x3x128x128x!vhlo.bf16_v1>
    %225 = "vhlo.reshape_v1"(%224) : (!vhlo.tensor_v1<1x8x3x128x128x!vhlo.bf16_v1>) -> !vhlo.tensor_v1<24x128x128x!vhlo.bf16_v1>
    %226 = "vhlo.dot_general_v2"(%223, %225) <{accumulation_type = #vhlo.type_v1<!vhlo.none_v1>, allow_imprecise_accumulation = #vhlo.type_v1<!vhlo.none_v1>, lhs_batching_dimensions = #vhlo.tensor_v1<dense<0> : tensor<1xi64>>, lhs_component_count = #vhlo.type_v1<!vhlo.none_v1>, lhs_contracting_dimensions = #vhlo.tensor_v1<dense<2> : tensor<1xi64>>, lhs_precision_type = #vhlo.type_v1<!vhlo.none_v1>, num_primitive_operations = #vhlo.type_v1<!vhlo.none_v1>, precision_config = #vhlo.array_v1<[#vhlo<precision_v1 DEFAULT>, #vhlo<precision_v1 DEFAULT>]>, rhs_batching_dimensions = #vhlo.tensor_v1<dense<0> : tensor<1xi64>>, rhs_component_count = #vhlo.type_v1<!vhlo.none_v1>, rhs_contracting_dimensions = #vhlo.tensor_v1<dense<1> : tensor<1xi64>>, rhs_precision_type = #vhlo.type_v1<!vhlo.none_v1>}> : (!vhlo.tensor_v1<24x7x128x!vhlo.bf16_v1>, !vhlo.tensor_v1<24x128x128x!vhlo.bf16_v1>) -> !vhlo.tensor_v1<24x7x128x!vhlo.bf16_v1>
    %227 = "vhlo.reshape_v1"(%226) : (!vhlo.tensor_v1<24x7x128x!vhlo.bf16_v1>) -> !vhlo.tensor_v1<1x24x7x128x!vhlo.bf16_v1>
    %228 = "vhlo.transpose_v1"(%227) <{permutation = #vhlo.tensor_v1<dense<[0, 2, 1, 3]> : tensor<4xi64>>}> {result_layout = #vhlo.tensor_v1<dense<[3, 1, 2, 0]> : tensor<4xindex>>, xla_shape = #vhlo.string_v1<"bf16[1,7,24,128]{3,1,2,0}">} : (!vhlo.tensor_v1<1x24x7x128x!vhlo.bf16_v1>) -> !vhlo.tensor_v1<1x7x24x128x!vhlo.bf16_v1>
    %229 = "vhlo.reshape_v1"(%228) : (!vhlo.tensor_v1<1x7x24x128x!vhlo.bf16_v1>) -> !vhlo.tensor_v1<7x3072x!vhlo.bf16_v1>
    %230 = "vhlo.dot_general_v2"(%229, %arg27) <{accumulation_type = #vhlo.type_v1<!vhlo.none_v1>, allow_imprecise_accumulation = #vhlo.type_v1<!vhlo.none_v1>, lhs_batching_dimensions = #vhlo.tensor_v1<dense<> : tensor<0xi64>>, lhs_component_count = #vhlo.type_v1<!vhlo.none_v1>, lhs_contracting_dimensions = #vhlo.tensor_v1<dense<1> : tensor<1xi64>>, lhs_precision_type = #vhlo.type_v1<!vhlo.none_v1>, num_primitive_operations = #vhlo.type_v1<!vhlo.none_v1>, precision_config = #vhlo.array_v1<[#vhlo<precision_v1 DEFAULT>, #vhlo<precision_v1 DEFAULT>]>, rhs_batching_dimensions = #vhlo.tensor_v1<dense<> : tensor<0xi64>>, rhs_component_count = #vhlo.type_v1<!vhlo.none_v1>, rhs_contracting_dimensions = #vhlo.tensor_v1<dense<0> : tensor<1xi64>>, rhs_precision_type = #vhlo.type_v1<!vhlo.none_v1>}> : (!vhlo.tensor_v1<7x3072x!vhlo.bf16_v1>, !vhlo.tensor_v1<3072x3072x!vhlo.bf16_v1>) -> !vhlo.tensor_v1<7x3072x!vhlo.bf16_v1>
    %231 = "vhlo.reshape_v1"(%230) : (!vhlo.tensor_v1<7x3072x!vhlo.bf16_v1>) -> !vhlo.tensor_v1<1x7x3072x!vhlo.bf16_v1>
    %232 = "vhlo.add_v1"(%152, %231) : (!vhlo.tensor_v1<1x7x3072x!vhlo.bf16_v1>, !vhlo.tensor_v1<1x7x3072x!vhlo.bf16_v1>) -> !vhlo.tensor_v1<1x7x3072x!vhlo.bf16_v1>
    %233 = "vhlo.convert_v1"(%arg29) : (!vhlo.tensor_v1<3072x!vhlo.bf16_v1>) -> !vhlo.tensor_v1<3072x!vhlo.f32_v1>
    %234 = "vhlo.broadcast_in_dim_v1"(%233) <{broadcast_dimensions = #vhlo.tensor_v1<dense<2> : tensor<1xi64>>}> : (!vhlo.tensor_v1<3072x!vhlo.f32_v1>) -> !vhlo.tensor_v1<1x7x3072x!vhlo.f32_v1>
    %235 = "vhlo.convert_v1"(%232) : (!vhlo.tensor_v1<1x7x3072x!vhlo.bf16_v1>) -> !vhlo.tensor_v1<1x7x3072x!vhlo.f32_v1>
    %236 = "vhlo.power_v1"(%235, %1) : (!vhlo.tensor_v1<1x7x3072x!vhlo.f32_v1>, !vhlo.tensor_v1<1x7x3072x!vhlo.f32_v1>) -> !vhlo.tensor_v1<1x7x3072x!vhlo.f32_v1>
    %237 = "vhlo.reduce_v1"(%236, %3) <{dimensions = #vhlo.tensor_v1<dense<2> : tensor<1xi64>>}> ({
    ^bb0(%arg32: !vhlo.tensor_v1<!vhlo.f32_v1>, %arg33: !vhlo.tensor_v1<!vhlo.f32_v1>):
      %284 = "vhlo.add_v1"(%arg32, %arg33) : (!vhlo.tensor_v1<!vhlo.f32_v1>, !vhlo.tensor_v1<!vhlo.f32_v1>) -> !vhlo.tensor_v1<!vhlo.f32_v1>
      "vhlo.return_v1"(%284) : (!vhlo.tensor_v1<!vhlo.f32_v1>) -> ()
    }) : (!vhlo.tensor_v1<1x7x3072x!vhlo.f32_v1>, !vhlo.tensor_v1<!vhlo.f32_v1>) -> !vhlo.tensor_v1<1x7x!vhlo.f32_v1>
    %238 = "vhlo.multiply_v1"(%237, %0) : (!vhlo.tensor_v1<1x7x!vhlo.f32_v1>, !vhlo.tensor_v1<1x7x!vhlo.f32_v1>) -> !vhlo.tensor_v1<1x7x!vhlo.f32_v1>
    %239 = "vhlo.reshape_v1"(%238) : (!vhlo.tensor_v1<1x7x!vhlo.f32_v1>) -> !vhlo.tensor_v1<1x7x1x!vhlo.f32_v1>
    %240 = "vhlo.add_v1"(%239, %21) : (!vhlo.tensor_v1<1x7x1x!vhlo.f32_v1>, !vhlo.tensor_v1<1x7x1x!vhlo.f32_v1>) -> !vhlo.tensor_v1<1x7x1x!vhlo.f32_v1>
    %241 = "vhlo.rsqrt_v2"(%240) <{result_accuracy = #vhlo.result_accuracy_v1<atol = 0.000000e+00, rtol = 0.000000e+00, ulps = 0, mode = #vhlo<result_accuracy_mode_v1 DEFAULT>>}> : (!vhlo.tensor_v1<1x7x1x!vhlo.f32_v1>) -> !vhlo.tensor_v1<1x7x1x!vhlo.f32_v1>
    %242 = "vhlo.reshape_v1"(%241) : (!vhlo.tensor_v1<1x7x1x!vhlo.f32_v1>) -> !vhlo.tensor_v1<1x7x!vhlo.f32_v1>
    %243 = "vhlo.broadcast_in_dim_v1"(%242) <{broadcast_dimensions = #vhlo.tensor_v1<dense<[0, 1]> : tensor<2xi64>>}> : (!vhlo.tensor_v1<1x7x!vhlo.f32_v1>) -> !vhlo.tensor_v1<1x7x3072x!vhlo.f32_v1>
    %244 = "vhlo.multiply_v1"(%235, %243) : (!vhlo.tensor_v1<1x7x3072x!vhlo.f32_v1>, !vhlo.tensor_v1<1x7x3072x!vhlo.f32_v1>) -> !vhlo.tensor_v1<1x7x3072x!vhlo.f32_v1>
    %245 = "vhlo.convert_v1"(%244) : (!vhlo.tensor_v1<1x7x3072x!vhlo.f32_v1>) -> !vhlo.tensor_v1<1x7x3072x!vhlo.bf16_v1>
    %246 = "vhlo.convert_v1"(%245) : (!vhlo.tensor_v1<1x7x3072x!vhlo.bf16_v1>) -> !vhlo.tensor_v1<1x7x3072x!vhlo.f32_v1>
    %247 = "vhlo.multiply_v1"(%234, %246) : (!vhlo.tensor_v1<1x7x3072x!vhlo.f32_v1>, !vhlo.tensor_v1<1x7x3072x!vhlo.f32_v1>) -> !vhlo.tensor_v1<1x7x3072x!vhlo.f32_v1>
    %248 = "vhlo.convert_v1"(%247) : (!vhlo.tensor_v1<1x7x3072x!vhlo.f32_v1>) -> !vhlo.tensor_v1<1x7x3072x!vhlo.bf16_v1>
    %249 = "vhlo.reshape_v1"(%248) : (!vhlo.tensor_v1<1x7x3072x!vhlo.bf16_v1>) -> !vhlo.tensor_v1<7x3072x!vhlo.bf16_v1>
    %250 = "vhlo.dot_general_v2"(%249, %arg30) <{accumulation_type = #vhlo.type_v1<!vhlo.none_v1>, allow_imprecise_accumulation = #vhlo.type_v1<!vhlo.none_v1>, lhs_batching_dimensions = #vhlo.tensor_v1<dense<> : tensor<0xi64>>, lhs_component_count = #vhlo.type_v1<!vhlo.none_v1>, lhs_contracting_dimensions = #vhlo.tensor_v1<dense<1> : tensor<1xi64>>, lhs_precision_type = #vhlo.type_v1<!vhlo.none_v1>, num_primitive_operations = #vhlo.type_v1<!vhlo.none_v1>, precision_config = #vhlo.array_v1<[#vhlo<precision_v1 DEFAULT>, #vhlo<precision_v1 DEFAULT>]>, rhs_batching_dimensions = #vhlo.tensor_v1<dense<> : tensor<0xi64>>, rhs_component_count = #vhlo.type_v1<!vhlo.none_v1>, rhs_contracting_dimensions = #vhlo.tensor_v1<dense<0> : tensor<1xi64>>, rhs_precision_type = #vhlo.type_v1<!vhlo.none_v1>}> : (!vhlo.tensor_v1<7x3072x!vhlo.bf16_v1>, !vhlo.tensor_v1<3072x8192x!vhlo.bf16_v1>) -> !vhlo.tensor_v1<7x8192x!vhlo.bf16_v1>
    %251 = "vhlo.reshape_v1"(%250) : (!vhlo.tensor_v1<7x8192x!vhlo.bf16_v1>) -> !vhlo.tensor_v1<1x7x8192x!vhlo.bf16_v1>
    %252 = "vhlo.convert_v1"(%251) : (!vhlo.tensor_v1<1x7x8192x!vhlo.bf16_v1>) -> !vhlo.tensor_v1<1x7x8192x!vhlo.f32_v1>
    %253 = "vhlo.logistic_v2"(%251) <{result_accuracy = #vhlo.result_accuracy_v1<atol = 0.000000e+00, rtol = 0.000000e+00, ulps = 0, mode = #vhlo<result_accuracy_mode_v1 DEFAULT>>}> : (!vhlo.tensor_v1<1x7x8192x!vhlo.bf16_v1>) -> !vhlo.tensor_v1<1x7x8192x!vhlo.bf16_v1>
    %254 = "vhlo.convert_v1"(%253) : (!vhlo.tensor_v1<1x7x8192x!vhlo.bf16_v1>) -> !vhlo.tensor_v1<1x7x8192x!vhlo.f32_v1>
    %255 = "vhlo.multiply_v1"(%252, %254) : (!vhlo.tensor_v1<1x7x8192x!vhlo.f32_v1>, !vhlo.tensor_v1<1x7x8192x!vhlo.f32_v1>) -> !vhlo.tensor_v1<1x7x8192x!vhlo.f32_v1>
    %256 = "vhlo.convert_v1"(%255) : (!vhlo.tensor_v1<1x7x8192x!vhlo.f32_v1>) -> !vhlo.tensor_v1<1x7x8192x!vhlo.bf16_v1>
    %257 = "vhlo.convert_v1"(%256) : (!vhlo.tensor_v1<1x7x8192x!vhlo.bf16_v1>) -> !vhlo.tensor_v1<1x7x8192x!vhlo.f32_v1>
    %258 = "vhlo.dot_general_v2"(%249, %arg26) <{accumulation_type = #vhlo.type_v1<!vhlo.none_v1>, allow_imprecise_accumulation = #vhlo.type_v1<!vhlo.none_v1>, lhs_batching_dimensions = #vhlo.tensor_v1<dense<> : tensor<0xi64>>, lhs_component_count = #vhlo.type_v1<!vhlo.none_v1>, lhs_contracting_dimensions = #vhlo.tensor_v1<dense<1> : tensor<1xi64>>, lhs_precision_type = #vhlo.type_v1<!vhlo.none_v1>, num_primitive_operations = #vhlo.type_v1<!vhlo.none_v1>, precision_config = #vhlo.array_v1<[#vhlo<precision_v1 DEFAULT>, #vhlo<precision_v1 DEFAULT>]>, rhs_batching_dimensions = #vhlo.tensor_v1<dense<> : tensor<0xi64>>, rhs_component_count = #vhlo.type_v1<!vhlo.none_v1>, rhs_contracting_dimensions = #vhlo.tensor_v1<dense<0> : tensor<1xi64>>, rhs_precision_type = #vhlo.type_v1<!vhlo.none_v1>}> : (!vhlo.tensor_v1<7x3072x!vhlo.bf16_v1>, !vhlo.tensor_v1<3072x8192x!vhlo.bf16_v1>) -> !vhlo.tensor_v1<7x8192x!vhlo.bf16_v1>
    %259 = "vhlo.reshape_v1"(%258) : (!vhlo.tensor_v1<7x8192x!vhlo.bf16_v1>) -> !vhlo.tensor_v1<1x7x8192x!vhlo.bf16_v1>
    %260 = "vhlo.convert_v1"(%259) : (!vhlo.tensor_v1<1x7x8192x!vhlo.bf16_v1>) -> !vhlo.tensor_v1<1x7x8192x!vhlo.f32_v1>
    %261 = "vhlo.multiply_v1"(%257, %260) : (!vhlo.tensor_v1<1x7x8192x!vhlo.f32_v1>, !vhlo.tensor_v1<1x7x8192x!vhlo.f32_v1>) -> !vhlo.tensor_v1<1x7x8192x!vhlo.f32_v1>
    %262 = "vhlo.convert_v1"(%261) : (!vhlo.tensor_v1<1x7x8192x!vhlo.f32_v1>) -> !vhlo.tensor_v1<1x7x8192x!vhlo.bf16_v1>
    %263 = "vhlo.reshape_v1"(%262) : (!vhlo.tensor_v1<1x7x8192x!vhlo.bf16_v1>) -> !vhlo.tensor_v1<7x8192x!vhlo.bf16_v1>
    %264 = "vhlo.dot_general_v2"(%263, %arg25) <{accumulation_type = #vhlo.type_v1<!vhlo.none_v1>, allow_imprecise_accumulation = #vhlo.type_v1<!vhlo.none_v1>, lhs_batching_dimensions = #vhlo.tensor_v1<dense<> : tensor<0xi64>>, lhs_component_count = #vhlo.type_v1<!vhlo.none_v1>, lhs_contracting_dimensions = #vhlo.tensor_v1<dense<1> : tensor<1xi64>>, lhs_precision_type = #vhlo.type_v1<!vhlo.none_v1>, num_primitive_operations = #vhlo.type_v1<!vhlo.none_v1>, precision_config = #vhlo.array_v1<[#vhlo<precision_v1 DEFAULT>, #vhlo<precision_v1 DEFAULT>]>, rhs_batching_dimensions = #vhlo.tensor_v1<dense<> : tensor<0xi64>>, rhs_component_count = #vhlo.type_v1<!vhlo.none_v1>, rhs_contracting_dimensions = #vhlo.tensor_v1<dense<0> : tensor<1xi64>>, rhs_precision_type = #vhlo.type_v1<!vhlo.none_v1>}> : (!vhlo.tensor_v1<7x8192x!vhlo.bf16_v1>, !vhlo.tensor_v1<8192x3072x!vhlo.bf16_v1>) -> !vhlo.tensor_v1<7x3072x!vhlo.bf16_v1>
    %265 = "vhlo.reshape_v1"(%264) : (!vhlo.tensor_v1<7x3072x!vhlo.bf16_v1>) -> !vhlo.tensor_v1<1x7x3072x!vhlo.bf16_v1>
    %266 = "vhlo.add_v1"(%232, %265) : (!vhlo.tensor_v1<1x7x3072x!vhlo.bf16_v1>, !vhlo.tensor_v1<1x7x3072x!vhlo.bf16_v1>) -> !vhlo.tensor_v1<1x7x3072x!vhlo.bf16_v1>
    %267 = "vhlo.convert_v1"(%266) : (!vhlo.tensor_v1<1x7x3072x!vhlo.bf16_v1>) -> !vhlo.tensor_v1<1x7x3072x!vhlo.f32_v1>
    %268 = "vhlo.power_v1"(%267, %1) : (!vhlo.tensor_v1<1x7x3072x!vhlo.f32_v1>, !vhlo.tensor_v1<1x7x3072x!vhlo.f32_v1>) -> !vhlo.tensor_v1<1x7x3072x!vhlo.f32_v1>
    %269 = "vhlo.reduce_v1"(%268, %3) <{dimensions = #vhlo.tensor_v1<dense<2> : tensor<1xi64>>}> ({
    ^bb0(%arg32: !vhlo.tensor_v1<!vhlo.f32_v1>, %arg33: !vhlo.tensor_v1<!vhlo.f32_v1>):
      %284 = "vhlo.add_v1"(%arg32, %arg33) : (!vhlo.tensor_v1<!vhlo.f32_v1>, !vhlo.tensor_v1<!vhlo.f32_v1>) -> !vhlo.tensor_v1<!vhlo.f32_v1>
      "vhlo.return_v1"(%284) : (!vhlo.tensor_v1<!vhlo.f32_v1>) -> ()
    }) : (!vhlo.tensor_v1<1x7x3072x!vhlo.f32_v1>, !vhlo.tensor_v1<!vhlo.f32_v1>) -> !vhlo.tensor_v1<1x7x!vhlo.f32_v1>
    %270 = "vhlo.multiply_v1"(%269, %0) : (!vhlo.tensor_v1<1x7x!vhlo.f32_v1>, !vhlo.tensor_v1<1x7x!vhlo.f32_v1>) -> !vhlo.tensor_v1<1x7x!vhlo.f32_v1>
    %271 = "vhlo.reshape_v1"(%270) : (!vhlo.tensor_v1<1x7x!vhlo.f32_v1>) -> !vhlo.tensor_v1<1x7x1x!vhlo.f32_v1>
    %272 = "vhlo.add_v1"(%271, %21) : (!vhlo.tensor_v1<1x7x1x!vhlo.f32_v1>, !vhlo.tensor_v1<1x7x1x!vhlo.f32_v1>) -> !vhlo.tensor_v1<1x7x1x!vhlo.f32_v1>
    %273 = "vhlo.rsqrt_v2"(%272) <{result_accuracy = #vhlo.result_accuracy_v1<atol = 0.000000e+00, rtol = 0.000000e+00, ulps = 0, mode = #vhlo<result_accuracy_mode_v1 DEFAULT>>}> : (!vhlo.tensor_v1<1x7x1x!vhlo.f32_v1>) -> !vhlo.tensor_v1<1x7x1x!vhlo.f32_v1>
    %274 = "vhlo.reshape_v1"(%273) : (!vhlo.tensor_v1<1x7x1x!vhlo.f32_v1>) -> !vhlo.tensor_v1<1x7x!vhlo.f32_v1>
    %275 = "vhlo.broadcast_in_dim_v1"(%274) <{broadcast_dimensions = #vhlo.tensor_v1<dense<[0, 1]> : tensor<2xi64>>}> : (!vhlo.tensor_v1<1x7x!vhlo.f32_v1>) -> !vhlo.tensor_v1<1x7x3072x!vhlo.f32_v1>
    %276 = "vhlo.multiply_v1"(%267, %275) : (!vhlo.tensor_v1<1x7x3072x!vhlo.f32_v1>, !vhlo.tensor_v1<1x7x3072x!vhlo.f32_v1>) -> !vhlo.tensor_v1<1x7x3072x!vhlo.f32_v1>
    %277 = "vhlo.convert_v1"(%276) : (!vhlo.tensor_v1<1x7x3072x!vhlo.f32_v1>) -> !vhlo.tensor_v1<1x7x3072x!vhlo.bf16_v1>
    %278 = "vhlo.convert_v1"(%277) : (!vhlo.tensor_v1<1x7x3072x!vhlo.bf16_v1>) -> !vhlo.tensor_v1<1x7x3072x!vhlo.f32_v1>
    %279 = "vhlo.multiply_v1"(%188, %278) : (!vhlo.tensor_v1<1x7x3072x!vhlo.f32_v1>, !vhlo.tensor_v1<1x7x3072x!vhlo.f32_v1>) -> !vhlo.tensor_v1<1x7x3072x!vhlo.f32_v1>
    %280 = "vhlo.convert_v1"(%279) : (!vhlo.tensor_v1<1x7x3072x!vhlo.f32_v1>) -> !vhlo.tensor_v1<1x7x3072x!vhlo.bf16_v1>
    %281 = "vhlo.reshape_v1"(%280) : (!vhlo.tensor_v1<1x7x3072x!vhlo.bf16_v1>) -> !vhlo.tensor_v1<7x3072x!vhlo.bf16_v1>
    %282 = "vhlo.dot_general_v2"(%281, %arg24) <{accumulation_type = #vhlo.type_v1<!vhlo.none_v1>, allow_imprecise_accumulation = #vhlo.type_v1<!vhlo.none_v1>, lhs_batching_dimensions = #vhlo.tensor_v1<dense<> : tensor<0xi64>>, lhs_component_count = #vhlo.type_v1<!vhlo.none_v1>, lhs_contracting_dimensions = #vhlo.tensor_v1<dense<1> : tensor<1xi64>>, lhs_precision_type = #vhlo.type_v1<!vhlo.none_v1>, num_primitive_operations = #vhlo.type_v1<!vhlo.none_v1>, precision_config = #vhlo.array_v1<[#vhlo<precision_v1 DEFAULT>, #vhlo<precision_v1 DEFAULT>]>, rhs_batching_dimensions = #vhlo.tensor_v1<dense<> : tensor<0xi64>>, rhs_component_count = #vhlo.type_v1<!vhlo.none_v1>, rhs_contracting_dimensions = #vhlo.tensor_v1<dense<0> : tensor<1xi64>>, rhs_precision_type = #vhlo.type_v1<!vhlo.none_v1>}> : (!vhlo.tensor_v1<7x3072x!vhlo.bf16_v1>, !vhlo.tensor_v1<3072x128256x!vhlo.bf16_v1>) -> !vhlo.tensor_v1<7x128256x!vhlo.bf16_v1>
    %283 = "vhlo.reshape_v1"(%282) : (!vhlo.tensor_v1<7x128256x!vhlo.bf16_v1>) -> !vhlo.tensor_v1<1x7x128256x!vhlo.bf16_v1>
    "vhlo.return_v1"(%63, %67, %182, %186, %282, %283) : (!vhlo.tensor_v1<1x8x128x128x!vhlo.bf16_v1>, !vhlo.tensor_v1<1x8x128x128x!vhlo.bf16_v1>, !vhlo.tensor_v1<1x8x128x128x!vhlo.bf16_v1>, !vhlo.tensor_v1<1x8x128x128x!vhlo.bf16_v1>, !vhlo.tensor_v1<7x128256x!vhlo.bf16_v1>, !vhlo.tensor_v1<1x7x128256x!vhlo.bf16_v1>) -> ()
  } {arg_attrs = #vhlo.array_v1<[]>, res_attrs = #vhlo.array_v1<[]>, sym_visibility = #vhlo.string_v1<"">}
}
2025-08-12 15:39:04.093 (   4.535s) [        C545D1C0]      module_builder.cc:188      1| SHLO Module:
module @SyncTensorsGraph.613 attributes {mhlo.cross_program_prefetches = [], mhlo.input_output_alias = [], mhlo.is_dynamic = false, mhlo.use_auto_spmd_partitioning = false} {
  func.func @main(%arg0: tensor<7xi64>, %arg1: tensor<1x64x1xf32>, %arg2: tensor<3072x1024xbf16>, %arg3: tensor<f32>, %arg4: tensor<1x7xi64>, %arg5: tensor<128256x3072xbf16>, %arg6: tensor<3072xbf16>, %arg7: tensor<i64>, %arg8: tensor<1x8x128x128xbf16>, %arg9: tensor<3072x1024xbf16>, %arg10: tensor<1x8x128x128xbf16>, %arg11: tensor<3072x1024xbf16>, %arg12: tensor<8192x3072xbf16>, %arg13: tensor<3072x8192xbf16>, %arg14: tensor<3072x3072xbf16>, %arg15: tensor<1x1x7x128xbf16>, %arg16: tensor<f32>, %arg17: tensor<3072x3072xbf16>, %arg18: tensor<3072xbf16>, %arg19: tensor<3072x8192xbf16>, %arg20: tensor<3072xbf16>, %arg21: tensor<1x8x128x128xbf16>, %arg22: tensor<3072x1024xbf16>, %arg23: tensor<1x8x128x128xbf16>, %arg24: tensor<3072x128256xbf16>, %arg25: tensor<8192x3072xbf16>, %arg26: tensor<3072x8192xbf16>, %arg27: tensor<3072x3072xbf16>, %arg…
match key in_spec.target _FX_CONST_FOLDED_ATTRS.8 with ID 139654952038416 and kind InputKind.PARAMETER
match key in_spec.target _FX_CONST_FOLDED_ATTRS.9 with ID 139654952041216 and kind InputKind.PARAMETER
match key in_spec.target _FX_CONST_FOLDED_ATTRS.10 with ID 139654952030496 and kind InputKind.PARAMETER
match key in_spec.target _FX_CONST_FOLDED_ATTRS.11 with ID 139654952040656 and kind InputKind.PARAMETER
match key in_spec.target _FX_CONST_FOLDED_ATTRS.12 with ID 139654952039776 and kind InputKind.PARAMETER
match key in_spec.target _FX_CONST_FOLDED_ATTRS.13 with ID 139654952041696 and kind InputKind.PARAMETER
match key in_spec.target _FX_CONST_FOLDED_ATTRS.14 with ID 139654952040976 and kind InputKind.PARAMETER
match key in_spec.target _FX_CONST_FOLDED_ATTRS.15 with ID 139654952041856 and kind InputKind.PARAMETER
match key in_spec.target const_subgraph_module.L__self___model_layers__modules__0___self_attn_q_proj.weight with ID 139658589160768 and kind InputKind.PARAMETER
match key in_spec.target const_subgraph_module.L__self___model_layers__modules__0___self_attn_k_proj.weight with ID 139658589162688 and kind InputKind.PARAMETER
match key in_spec.target const_subgraph_module.L__self___model_layers__modules__0___self_attn_v_proj.weight with ID 139658589173008 and kind InputKind.PARAMETER
match key in_spec.target const_subgraph_module.L__self___model_layers__modules__0___self_attn_o_proj.weight with ID 139658589164768 and kind InputKind.PARAMETER
match key in_spec.target const_subgraph_module.L__self___model_layers__modules__0___mlp_gate_proj.weight with ID 139658584087008 and kind InputKind.PARAMETER
match key in_spec.target const_subgraph_module.L__self___model_layers__modules__0___mlp_up_proj.weight with ID 139658589172608 and kind InputKind.PARAMETER
match key in_spec.target const_subgraph_module.L__self___model_layers__modules__0___mlp_down_proj.weight with ID 139658584095888 and kind InputKind.PARAMETER
match key in_spec.target const_subgraph_module.L__self___model_layers__modules__1___self_attn_q_proj.weight with ID 139658581139488 and kind InputKind.PARAMETER
match key in_spec.target const_subgraph_module.L__self___model_layers__modules__1___self_attn_k_proj.weight with ID 139658581145168 and kind InputKind.PARAMETER
match key in_spec.target const_subgraph_module.L__self___model_layers__modules__1___self_attn_v_proj.weight with ID 139658581134368 and kind InputKind.PARAMETER
match key in_spec.target const_subgraph_module.L__self___model_layers__modules__1___self_attn_o_proj.weight with ID 139658581144048 and kind InputKind.PARAMETER
match key in_spec.target const_subgraph_module.L__self___model_layers__modules__1___mlp_gate_proj.weight with ID 139658589162288 and kind InputKind.PARAMETER
match key in_spec.target const_subgraph_module.L__self___model_layers__modules__1___mlp_up_proj.weight with ID 139658589171488 and kind InputKind.PARAMETER
match key in_spec.target const_subgraph_module.L__self___model_layers__modules__1___mlp_down_proj.weight with ID 139658589163008 and kind InputKind.PARAMETER
match key in_spec.target const_subgraph_module.L__self___lm_head.weight with ID 139658584091808 and kind InputKind.PARAMETER
match key in_spec.target kwargs____past_key_values___key_cache_0 with ID 139659373973792 and kind InputKind.BUFFER
match key in_spec.target kwargs____past_key_values___value_cache_0 with ID 139659373983872 and kind InputKind.BUFFER
match key in_spec.target kwargs____past_key_values___key_cache_1 with ID 139659373976192 and kind InputKind.BUFFER
match key in_spec.target kwargs____past_key_values___value_cache_1 with ID 139659373976432 and kind InputKind.BUFFER
match key in_spec.target const_subgraph_module.L__self___model_rotary_emb_inv_freq with ID 139658581032480 and kind InputKind.BUFFER
[JAMES] setting arg ref map to  refs=constant_unknown,constant_unknown,constant_unknown,constant_unknown,constant_unknown,constant_unknown,constant_unknown,constant_unknown,constant_unknown,constant_unknown,constant_unknown,constant_unknown,constant_unknown,constant_unknown,139658584088448,constant_unknown,constant_unknown,constant_unknown,constant_unknown,constant_unknown,constant_unknown,constant_unknown,constant_unknown,constant_unknown,constant_unknown,constant_unknown,constant_unknown,constant_unknown,constant_unknown,constant_unknown,constant_unknown,constant_unknown
2025-08-12 15:39:46.920 (  47.363s) [        C545D1C0]     buffer_instance.cc:526      1| BufferInstance::PJRT_Buffer_IsDeleted
2025-08-12 15:39:46.920 (  47.363s) [        C545D1C0]     buffer_instance.cc:526      1| BufferInstance::PJRT_Buffer_IsDeleted
2025-08-12 15:39:46.921 (  47.363s) [        C545D1C0]     buffer_instance.cc:526      1| BufferInstance::PJRT_Buffer_IsDeleted
2025-08-12 15:39:46.921 (  47.363s) [        C545D1C0]     buffer_instance.cc:526      1| BufferInstance::PJRT_Buffer_IsDeleted
2025-08-12 15:39:46.921 (  47.363s) [        C545D1C0]     buffer_instance.cc:526      1| BufferInstance::PJRT_Buffer_IsDeleted
2025-08-12 15:39:46.921 (  47.363s) [        C545D1C0]     buffer_instance.cc:526      1| BufferInstance::PJRT_Buffer_IsDeleted
2025-08-12 15:39:46.921 (  47.363s) [        C545D1C0]     buffer_instance.cc:526      1| BufferInstance::PJRT_Buffer_IsDeleted
2025-08-12 15:39:46.921 (  47.363s) [        C545D1C0]     buffer_instance.cc:526      1| BufferInstance::PJRT_Buffer_IsDeleted
2025-08-12 15:39:46.921 (  47.363s) [        C545D1C0]     buffer_instance.cc:526      1| BufferInstance::PJRT_Buffer_IsDeleted
2025-08-12 15:39:46.921 (  47.363s) [        C545D1C0]     buffer_instance.cc:526      1| BufferInstance::PJRT_Buffer_IsDeleted
2025-08-12 15:39:46.921 (  47.363s) [        C545D1C0]     buffer_instance.cc:526      1| BufferInstance::PJRT_Buffer_IsDeleted
2025-08-12 15:39:46.921 (  47.363s) [        C545D1C0]     buffer_instance.cc:526      1| BufferInstance::PJRT_Buffer_IsDeleted
2025-08-12 15:39:46.921 (  47.363s) [        C545D1C0]     buffer_instance.cc:526      1| BufferInstance::PJRT_Buffer_IsDeleted
2025-08-12 15:39:46.921 (  47.363s) [        C545D1C0]     buffer_instance.cc:526      1| BufferInstance::PJRT_Buffer_IsDeleted
2025-08-12 15:39:46.921 (  47.363s) [        C545D1C0]     buffer_instance.cc:526      1| BufferInstance::PJRT_Buffer_IsDeleted
2025-08-12 15:39:46.921 (  47.363s) [        C545D1C0]     buffer_instance.cc:526      1| BufferInstance::PJRT_Buffer_IsDeleted
2025-08-12 15:39:46.921 (  47.363s) [        C545D1C0]     buffer_instance.cc:526      1| BufferInstance::PJRT_Buffer_IsDeleted
2025-08-12 15:39:46.921 (  47.363s) [        C545D1C0]     buffer_instance.cc:526      1| BufferInstance::PJRT_Buffer_IsDeleted
2025-08-12 15:39:46.921 (  47.363s) [        C545D1C0]     buffer_instance.cc:526      1| BufferInstance::PJRT_Buffer_IsDeleted
2025-08-12 15:39:46.921 (  47.363s) [        C545D1C0]     buffer_instance.cc:526      1| BufferInstance::PJRT_Buffer_IsDeleted
2025-08-12 15:39:46.921 (  47.363s) [        C545D1C0]     buffer_instance.cc:526      1| BufferInstance::PJRT_Buffer_IsDeleted
2025-08-12 15:39:46.921 (  47.363s) [        C545D1C0]     buffer_instance.cc:526      1| BufferInstance::PJRT_Buffer_IsDeleted
2025-08-12 15:39:46.921 (  47.363s) [        C545D1C0]     buffer_instance.cc:526      1| BufferInstance::PJRT_Buffer_IsDeleted
2025-08-12 15:39:46.921 (  47.363s) [        C545D1C0]     buffer_instance.cc:526      1| BufferInstance::PJRT_Buffer_IsDeleted
2025-08-12 15:39:46.921 (  47.363s) [        C545D1C0]     buffer_instance.cc:526      1| BufferInstance::PJRT_Buffer_IsDeleted
2025-08-12 15:39:46.921 (  47.363s) [        C545D1C0]     buffer_instance.cc:526      1| BufferInstance::PJRT_Buffer_IsDeleted
2025-08-12 15:39:46.921 (  47.363s) [        C545D1C0]     buffer_instance.cc:526      1| BufferInstance::PJRT_Buffer_IsDeleted
2025-08-12 15:39:46.921 (  47.363s) [        C545D1C0]     buffer_instance.cc:526      1| BufferInstance::PJRT_Buffer_IsDeleted
2025-08-12 15:39:46.921 (  47.363s) [        C545D1C0]     buffer_instance.cc:526      1| BufferInstance::PJRT_Buffer_IsDeleted
2025-08-12 15:39:46.921 (  47.363s) [        C545D1C0]     buffer_instance.cc:526      1| BufferInstance::PJRT_Buffer_IsDeleted
2025-08-12 15:39:46.921 (  47.363s) [        C545D1C0]     buffer_instance.cc:526      1| BufferInstance::PJRT_Buffer_IsDeleted
2025-08-12 15:39:46.921 (  47.363s) [        C545D1C0]     buffer_instance.cc:526      1| BufferInstance::PJRT_Buffer_IsDeleted
2025-08-12 15:39:46.921 (  47.363s) [        C545D1C0]     buffer_instance.cc:526      1| BufferInstance::PJRT_Buffer_IsDeleted
2025-08-12 15:39:46.921 (  47.363s) [        C545D1C0]     buffer_instance.cc:526      1| BufferInstance::PJRT_Buffer_IsDeleted
2025-08-12 15:39:46.921 (  47.363s) [        C545D1C0]     buffer_instance.cc:526      1| BufferInstance::PJRT_Buffer_IsDeleted
2025-08-12 15:39:46.921 (  47.363s) [        C545D1C0]     buffer_instance.cc:526      1| BufferInstance::PJRT_Buffer_IsDeleted
2025-08-12 15:39:46.921 (  47.363s) [        C545D1C0]     buffer_instance.cc:526      1| BufferInstance::PJRT_Buffer_IsDeleted
2025-08-12 15:39:46.921 (  47.363s) [        C545D1C0]     buffer_instance.cc:526      1| BufferInstance::PJRT_Buffer_IsDeleted
2025-08-12 15:39:46.921 (  47.363s) [        C545D1C0]     buffer_instance.cc:526      1| BufferInstance::PJRT_Buffer_IsDeleted
2025-08-12 15:39:46.921 (  47.363s) [        C545D1C0]     buffer_instance.cc:526      1| BufferInstance::PJRT_Buffer_IsDeleted
2025-08-12 15:39:46.921 (  47.363s) [        C545D1C0]     buffer_instance.cc:526      1| BufferInstance::PJRT_Buffer_IsDeleted
2025-08-12 15:39:46.921 (  47.363s) [        C545D1C0]     buffer_instance.cc:526      1| BufferInstance::PJRT_Buffer_IsDeleted
2025-08-12 15:39:46.921 (  47.363s) [        C545D1C0]     buffer_instance.cc:526      1| BufferInstance::PJRT_Buffer_IsDeleted
2025-08-12 15:39:46.921 (  47.363s) [        C545D1C0]     buffer_instance.cc:526      1| BufferInstance::PJRT_Buffer_IsDeleted
2025-08-12 15:39:46.921 (  47.363s) [        C545D1C0]     buffer_instance.cc:526      1| BufferInstance::PJRT_Buffer_IsDeleted
2025-08-12 15:39:46.921 (  47.363s) [        C545D1C0]     buffer_instance.cc:526      1| BufferInstance::PJRT_Buffer_IsDeleted
2025-08-12 15:39:46.921 (  47.363s) [        C545D1C0]     buffer_instance.cc:526      1| BufferInstance::PJRT_Buffer_IsDeleted
2025-08-12 15:39:46.921 (  47.363s) [        C545D1C0]     buffer_instance.cc:526      1| BufferInstance::PJRT_Buffer_IsDeleted
2025-08-12 15:39:46.921 (  47.363s) [        C545D1C0]     buffer_instance.cc:526      1| BufferInstance::PJRT_Buffer_IsDeleted
2025-08-12 15:39:46.921 (  47.363s) [        C545D1C0]     buffer_instance.cc:526      1| BufferInstance::PJRT_Buffer_IsDeleted
2025-08-12 15:39:46.921 (  47.363s) [        C545D1C0]     buffer_instance.cc:526      1| BufferInstance::PJRT_Buffer_IsDeleted
2025-08-12 15:39:46.921 (  47.363s) [        C545D1C0]     buffer_instance.cc:526      1| BufferInstance::PJRT_Buffer_IsDeleted
2025-08-12 15:39:46.921 (  47.363s) [        C545D1C0]     buffer_instance.cc:526      1| BufferInstance::PJRT_Buffer_IsDeleted
2025-08-12 15:39:46.921 (  47.363s) [        C545D1C0]     buffer_instance.cc:526      1| BufferInstance::PJRT_Buffer_IsDeleted
2025-08-12 15:39:46.921 (  47.363s) [        C545D1C0]     buffer_instance.cc:526      1| BufferInstance::PJRT_Buffer_IsDeleted
2025-08-12 15:39:46.921 (  47.363s) [        C545D1C0]     buffer_instance.cc:526      1| BufferInstance::PJRT_Buffer_IsDeleted
2025-08-12 15:39:46.921 (  47.364s) [        C545D1C0]     buffer_instance.cc:526      1| BufferInstance::PJRT_Buffer_IsDeleted
2025-08-12 15:39:46.921 (  47.364s) [        C545D1C0]     buffer_instance.cc:526      1| BufferInstance::PJRT_Buffer_IsDeleted
2025-08-12 15:39:46.921 (  47.364s) [        C545D1C0]     buffer_instance.cc:526      1| BufferInstance::PJRT_Buffer_IsDeleted
2025-08-12 15:39:46.921 (  47.364s) [        C545D1C0]     buffer_instance.cc:526      1| BufferInstance::PJRT_Buffer_IsDeleted
2025-08-12 15:39:46.921 (  47.364s) [        C545D1C0]     buffer_instance.cc:526      1| BufferInstance::PJRT_Buffer_IsDeleted
2025-08-12 15:39:46.921 (  47.364s) [        C545D1C0]     buffer_instance.cc:526      1| BufferInstance::PJRT_Buffer_IsDeleted
2025-08-12 15:39:46.921 (  47.364s) [        C545D1C0]     buffer_instance.cc:526      1| BufferInstance::PJRT_Buffer_IsDeleted
2025-08-12 15:39:46.921 (  47.364s) [        C545D1C0]     buffer_instance.cc:526      1| BufferInstance::PJRT_Buffer_IsDeleted
2025-08-12 15:39:46.921 (  47.364s) [        C545D1C0]     buffer_instance.cc:526      1| BufferInstance::PJRT_Buffer_IsDeleted
2025-08-12 15:39:46.921 (  47.364s) [        C545D1C0]     buffer_instance.cc:526      1| BufferInstance::PJRT_Buffer_IsDeleted
2025-08-12 15:39:46.921 (  47.364s) [        C545D1C0]     buffer_instance.cc:526      1| BufferInstance::PJRT_Buffer_IsDeleted
2025-08-12 15:39:46.921 (  47.364s) [        C545D1C0]     buffer_instance.cc:526      1| BufferInstance::PJRT_Buffer_IsDeleted
2025-08-12 15:39:46.921 (  47.364s) [        C545D1C0]     buffer_instance.cc:526      1| BufferInstance::PJRT_Buffer_IsDeleted
2025-08-12 15:39:46.921 (  47.364s) [        C545D1C0]     buffer_instance.cc:526      1| BufferInstance::PJRT_Buffer_IsDeleted
2025-08-12 15:39:46.921 (  47.364s) [        C545D1C0]     buffer_instance.cc:526      1| BufferInstance::PJRT_Buffer_IsDeleted
2025-08-12 15:39:46.921 (  47.364s) [        C545D1C0]     buffer_instance.cc:526      1| BufferInstance::PJRT_Buffer_IsDeleted
2025-08-12 15:39:46.921 (  47.364s) [        C545D1C0]     buffer_instance.cc:526      1| BufferInstance::PJRT_Buffer_IsDeleted
2025-08-12 15:39:46.921 (  47.364s) [        C545D1C0]     buffer_instance.cc:526      1| BufferInstance::PJRT_Buffer_IsDeleted
2025-08-12 15:39:46.921 (  47.364s) [        C545D1C0]     buffer_instance.cc:526      1| BufferInstance::PJRT_Buffer_IsDeleted
2025-08-12 15:39:46.921 (  47.364s) [        C545D1C0]     buffer_instance.cc:526      1| BufferInstance::PJRT_Buffer_IsDeleted
2025-08-12 15:39:46.921 (  47.364s) [        C545D1C0]     buffer_instance.cc:526      1| BufferInstance::PJRT_Buffer_IsDeleted
2025-08-12 15:39:46.921 (  47.364s) [        C545D1C0]     buffer_instance.cc:526      1| BufferInstance::PJRT_Buffer_IsDeleted
2025-08-12 15:39:46.921 (  47.364s) [        C545D1C0]     buffer_instance.cc:526      1| BufferInstance::PJRT_Buffer_IsDeleted
2025-08-12 15:39:46.921 (  47.364s) [        C545D1C0]     buffer_instance.cc:526      1| BufferInstance::PJRT_Buffer_IsDeleted
2025-08-12 15:39:46.921 (  47.364s) [        CAFFD640]     device_instance.cc:53       1| DeviceInstance::PJRT_Device_IsAddressable
2025-08-12 15:39:46.921 (  47.364s) [        CAFFD640]     buffer_instance.cc:578      1| BufferInstance::PJRT_Buffer_Device
2025-08-12 15:39:46.921 (  47.364s) [        CAFFD640]     buffer_instance.cc:578      1| BufferInstance::PJRT_Buffer_Device
2025-08-12 15:39:46.921 (  47.364s) [        CAFFD640]     buffer_instance.cc:578      1| BufferInstance::PJRT_Buffer_Device
2025-08-12 15:39:46.921 (  47.364s) [        CAFFD640]     buffer_instance.cc:578      1| BufferInstance::PJRT_Buffer_Device
2025-08-12 15:39:46.921 (  47.364s) [        CAFFD640]     buffer_instance.cc:578      1| BufferInstance::PJRT_Buffer_Device
2025-08-12 15:39:46.921 (  47.364s) [        CAFFD640]     buffer_instance.cc:578      1| BufferInstance::PJRT_Buffer_Device
2025-08-12 15:39:46.921 (  47.364s) [        CAFFD640]     buffer_instance.cc:578      1| BufferInstance::PJRT_Buffer_Device
2025-08-12 15:39:46.921 (  47.364s) [        CAFFD640]     buffer_instance.cc:578      1| BufferInstance::PJRT_Buffer_Device
2025-08-12 15:39:46.921 (  47.364s) [        CAFFD640]     buffer_instance.cc:578      1| BufferInstance::PJRT_Buffer_Device
2025-08-12 15:39:46.921 (  47.364s) [        CAFFD640]     buffer_instance.cc:578      1| BufferInstance::PJRT_Buffer_Device
2025-08-12 15:39:46.921 (  47.364s) [        CAFFD640]     buffer_instance.cc:578      1| BufferInstance::PJRT_Buffer_Device
2025-08-12 15:39:46.921 (  47.364s) [        CAFFD640]     buffer_instance.cc:578      1| BufferInstance::PJRT_Buffer_Device
2025-08-12 15:39:46.921 (  47.364s) [        CAFFD640]     buffer_instance.cc:578      1| BufferInstance::PJRT_Buffer_Device
2025-08-12 15:39:46.921 (  47.364s) [        CAFFD640]     buffer_instance.cc:578      1| BufferInstance::PJRT_Buffer_Device
2025-08-12 15:39:46.921 (  47.364s) [        CAFFD640]     buffer_instance.cc:578      1| BufferInstance::PJRT_Buffer_Device
2025-08-12 15:39:46.921 (  47.364s) [        CAFFD640]     buffer_instance.cc:578      1| BufferInstance::PJRT_Buffer_Device
2025-08-12 15:39:46.921 (  47.364s) [        CAFFD640]     buffer_instance.cc:578      1| BufferInstance::PJRT_Buffer_Device
2025-08-12 15:39:46.921 (  47.364s) [        CAFFD640]     buffer_instance.cc:578      1| BufferInstance::PJRT_Buffer_Device
2025-08-12 15:39:46.921 (  47.364s) [        CAFFD640]     buffer_instance.cc:578      1| BufferInstance::PJRT_Buffer_Device
2025-08-12 15:39:46.921 (  47.364s) [        CAFFD640]     buffer_instance.cc:578      1| BufferInstance::PJRT_Buffer_Device
2025-08-12 15:39:46.921 (  47.364s) [        CAFFD640]     buffer_instance.cc:578      1| BufferInstance::PJRT_Buffer_Device
2025-08-12 15:39:46.921 (  47.364s) [        CAFFD640]     buffer_instance.cc:578      1| BufferInstance::PJRT_Buffer_Device
2025-08-12 15:39:46.921 (  47.364s) [        CAFFD640]     buffer_instance.cc:578      1| BufferInstance::PJRT_Buffer_Device
2025-08-12 15:39:46.921 (  47.364s) [        CAFFD640]     buffer_instance.cc:578      1| BufferInstance::PJRT_Buffer_Device
2025-08-12 15:39:46.921 (  47.364s) [        CAFFD640]     buffer_instance.cc:578      1| BufferInstance::PJRT_Buffer_Device
2025-08-12 15:39:46.921 (  47.364s) [        CAFFD640]     buffer_instance.cc:578      1| BufferInstance::PJRT_Buffer_Device
2025-08-12 15:39:46.921 (  47.364s) [        CAFFD640]     buffer_instance.cc:578      1| BufferInstance::PJRT_Buffer_Device
2025-08-12 15:39:46.921 (  47.364s) [        CAFFD640]     buffer_instance.cc:578      1| BufferInstance::PJRT_Buffer_Device
2025-08-12 15:39:46.921 (  47.364s) [        CAFFD640]     buffer_instance.cc:578      1| BufferInstance::PJRT_Buffer_Device
2025-08-12 15:39:46.921 (  47.364s) [        CAFFD640]     buffer_instance.cc:578      1| BufferInstance::PJRT_Buffer_Device
2025-08-12 15:39:46.921 (  47.364s) [        CAFFD640]     buffer_instance.cc:578      1| BufferInstance::PJRT_Buffer_Device
2025-08-12 15:39:46.921 (  47.364s) [        CAFFD640]     buffer_instance.cc:578      1| BufferInstance::PJRT_Buffer_Device
2025-08-12 15:39:46.921 (  47.364s) [        CAFFD640] executable_instance.cc:138      1| ExecutableInstance::PJRT_Executable_NumOutputs
2025-08-12 15:39:46.921 (  47.364s) [        CAFFD640]loaded_executable_insta:571      1| LoadedExecutableInstance::PJRT_LoadedExecutable_Execute
2025-08-12 15:39:46.921 (  47.364s) [        CAFFD640]loaded_executable_insta:95       1| LoadedExecutableInstance::Execute
2025-08-12 15:39:46.921 (  47.364s) [        CAFFD640]loaded_executable_insta:125      1| [DEVICE] Runtime device already opened, reusing existing device
2025-08-12 15:39:46.921 (  47.364s) [        CAFFD640]loaded_executable_insta:337      1| [LAYOUT] Converting layout for tensor handle 0x565442e56f80 (arg 0)
2025-08-12 15:39:46.921 (  47.364s) [        CAFFD640]loaded_executable_insta:337      1| [LAYOUT] Converting layout for tensor handle 0x56541956fb70 (arg 1)
2025-08-12 15:39:46.921 (  47.364s) [        CAFFD640]loaded_executable_insta:337      1| [LAYOUT] Converting layout for tensor handle 0x56543ae08a20 (arg 2)
2025-08-12 15:39:46.923 (  47.365s) [        CAFFD640]loaded_executable_insta:337      1| [LAYOUT] Converting layout for tensor handle 0x565442df5210 (arg 3)
2025-08-12 15:39:46.923 (  47.365s) [        CAFFD640]loaded_executable_insta:337      1| [LAYOUT] Converting layout for tensor handle 0x7efa8c46d430 (arg 4)
2025-08-12 15:39:46.923 (  47.365s) [        CAFFD640]loaded_executable_insta:337      1| [LAYOUT] Converting layout for tensor handle 0x56543ae22a60 (arg 5)
2025-08-12 15:39:47.006 (  47.448s) [        CAFFD640]loaded_executable_insta:337      1| [LAYOUT] Converting layout for tensor handle 0x565433e38450 (arg 6)
2025-08-12 15:39:47.006 (  47.449s) [        CAFFD640]loaded_executable_insta:337      1| [LAYOUT] Converting layout for tensor handle 0x56543ff46020 (arg 7)
2025-08-12 15:39:47.007 (  47.449s) [        CAFFD640]loaded_executable_insta:337      1| [LAYOUT] Converting layout for tensor handle 0x7efa8c4e0610 (arg 8)
2025-08-12 15:39:47.007 (  47.450s) [        CAFFD640]loaded_executable_insta:337      1| [LAYOUT] Converting layout for tensor handle 0x56543ae1a5b0 (arg 9)
2025-08-12 15:39:47.016 (  47.458s) [        CAFFD640]loaded_executable_insta:337      1| [LAYOUT] Converting layout for tensor handle 0x7efa8c46ef50 (arg 10)
2025-08-12 15:39:47.016 (  47.459s) [        CAFFD640]loaded_executable_insta:337      1| [LAYOUT] Converting layout for tensor handle 0x56544d19c270 (arg 11)
2025-08-12 15:39:47.017 (  47.460s) [        CAFFD640]loaded_executable_insta:337      1| [LAYOUT] Converting layout for tensor handle 0x565419544220 (arg 12)
2025-08-12 15:39:47.023 (  47.466s) [        CAFFD640]loaded_executable_insta:337      1| [LAYOUT] Converting layout for tensor handle 0x56543ff47ba0 (arg 13)
2025-08-12 15:39:47.032 (  47.475s) [        CAFFD640]loaded_executable_insta:337      1| [LAYOUT] Converting layout for tensor handle 0x5654070aebb0 (arg 14)
2025-08-12 15:39:47.036 (  47.478s) [        CAFFD640]loaded_executable_insta:337      1| [LAYOUT] Converting layout for tensor handle 0x565445829370 (arg 15)
2025-08-12 15:39:47.036 (  47.479s) [        CAFFD640]loaded_executable_insta:337      1| [LAYOUT] Converting layout for tensor handle 0x56544d2685d0 (arg 16)
2025-08-12 15:39:47.036 (  47.479s) [        CAFFD640]loaded_executable_insta:337      1| [LAYOUT] Converting layout for tensor handle 0x56543ae3cb00 (arg 17)
2025-08-12 15:39:47.039 (  47.482s) [        CAFFD640]loaded_executable_insta:337      1| [LAYOUT] Converting layout for tensor handle 0x56544438c610 (arg 18)
2025-08-12 15:39:47.040 (  47.483s) [        CAFFD640]loaded_executable_insta:337      1| [LAYOUT] Converting layout for tensor handle 0x56544d22fa40 (arg 19)
2025-08-12 15:39:47.048 (  47.491s) [        CAFFD640]loaded_executable_insta:337      1| [LAYOUT] Converting layout for tensor handle 0x7efa8c218220 (arg 20)
2025-08-12 15:39:47.049 (  47.492s) [        CAFFD640]loaded_executable_insta:337      1| [LAYOUT] Converting layout for tensor handle 0x7efa8c35b3f0 (arg 21)
2025-08-12 15:39:47.049 (  47.492s) [        CAFFD640]loaded_executable_insta:337      1| [LAYOUT] Converting layout for tensor handle 0x56543ae84780 (arg 22)
2025-08-12 15:39:47.051 (  47.493s) [        CAFFD640]loaded_executable_insta:337      1| [LAYOUT] Converting layout for tensor handle 0x7efa8c479f40 (arg 23)
2025-08-12 15:39:47.051 (  47.494s) [        CAFFD640]loaded_executable_insta:337      1| [LAYOUT] Converting layout for tensor handle 0x5654447af160 (arg 24)
2025-08-12 15:39:47.138 (  47.581s) [        CAFFD640]loaded_executable_insta:337      1| [LAYOUT] Converting layout for tensor handle 0x56544584e8c0 (arg 25)
2025-08-12 15:39:47.152 (  47.595s) [        CAFFD640]loaded_executable_insta:337      1| [LAYOUT] Converting layout for tensor handle 0x565442b58f60 (arg 26)
2025-08-12 15:39:47.161 (  47.604s) [        CAFFD640]loaded_executable_insta:337      1| [LAYOUT] Converting layout for tensor handle 0x56543ae7e8c0 (arg 27)
2025-08-12 15:39:47.164 (  47.607s) [        CAFFD640]loaded_executable_insta:337      1| [LAYOUT] Converting layout for tensor handle 0x56544572c160 (arg 28)
2025-08-12 15:39:47.168 (  47.610s) [        CAFFD640]loaded_executable_insta:337      1| [LAYOUT] Converting layout for tensor handle 0x7efa8c2222e0 (arg 29)
2025-08-12 15:39:47.168 (  47.611s) [        CAFFD640]loaded_executable_insta:337      1| [LAYOUT] Converting layout for tensor handle 0x5654447c4260 (arg 30)
2025-08-12 15:39:47.176 (  47.619s) [        CAFFD640]loaded_executable_insta:337      1| [LAYOUT] Converting layout for tensor handle 0x56541967fae0 (arg 31)
2025-08-12 15:39:47.296 (  47.739s) [        CAFFD640]      event_instance.cc:222      1| EventInstance::PJRT_Event_OnReady
2025-08-12 15:39:47.296 (  47.739s) [        CAFFD640]      event_instance.cc:171      1| EventInstance::PJRT_Event_Destroy
2025-08-12 15:39:47.296 (  47.739s) [        CAFFD640]     buffer_instance.cc:443      1| BufferInstance::PJRT_Buffer_Dimensions
2025-08-12 15:39:47.296 (  47.739s) [        CAFFD640]     buffer_instance.cc:466      1| BufferInstance::PJRT_Buffer_DynamicDimensionIndices
2025-08-12 15:39:47.296 (  47.739s) [        CAFFD640]     buffer_instance.cc:443      1| BufferInstance::PJRT_Buffer_Dimensions
2025-08-12 15:39:47.296 (  47.739s) [        CAFFD640]     buffer_instance.cc:435      1| BufferInstance::PJRT_Buffer_ElementType
2025-08-12 15:39:47.296 (  47.739s) [        CAFFD640]     buffer_instance.cc:443      1| BufferInstance::PJRT_Buffer_Dimensions
2025-08-12 15:39:47.296 (  47.739s) [        CAFFD640]     buffer_instance.cc:466      1| BufferInstance::PJRT_Buffer_DynamicDimensionIndices
2025-08-12 15:39:47.296 (  47.739s) [        CAFFD640]     buffer_instance.cc:443      1| BufferInstance::PJRT_Buffer_Dimensions
2025-08-12 15:39:47.296 (  47.739s) [        CAFFD640]     buffer_instance.cc:435      1| BufferInstance::PJRT_Buffer_ElementType
2025-08-12 15:39:47.296 (  47.739s) [        CAFFD640]     buffer_instance.cc:443      1| BufferInstance::PJRT_Buffer_Dimensions
2025-08-12 15:39:47.296 (  47.739s) [        CAFFD640]     buffer_instance.cc:466      1| BufferInstance::PJRT_Buffer_DynamicDimensionIndices
2025-08-12 15:39:47.296 (  47.739s) [        CAFFD640]     buffer_instance.cc:443      1| BufferInstance::PJRT_Buffer_Dimensions
2025-08-12 15:39:47.296 (  47.739s) [        CAFFD640]     buffer_instance.cc:435      1| BufferInstance::PJRT_Buffer_ElementType
2025-08-12 15:39:47.296 (  47.739s) [        CAFFD640]     buffer_instance.cc:443      1| BufferInstance::PJRT_Buffer_Dimensions
2025-08-12 15:39:47.296 (  47.739s) [        CAFFD640]     buffer_instance.cc:466      1| BufferInstance::PJRT_Buffer_DynamicDimensionIndices
2025-08-12 15:39:47.296 (  47.739s) [        CAFFD640]     buffer_instance.cc:443      1| BufferInstance::PJRT_Buffer_Dimensions
2025-08-12 15:39:47.296 (  47.739s) [        CAFFD640]     buffer_instance.cc:435      1| BufferInstance::PJRT_Buffer_ElementType
2025-08-12 15:39:47.296 (  47.739s) [        CAFFD640]     buffer_instance.cc:443      1| BufferInstance::PJRT_Buffer_Dimensions
2025-08-12 15:39:47.296 (  47.739s) [        CAFFD640]     buffer_instance.cc:466      1| BufferInstance::PJRT_Buffer_DynamicDimensionIndices
2025-08-12 15:39:47.296 (  47.739s) [        CAFFD640]     buffer_instance.cc:443      1| BufferInstance::PJRT_Buffer_Dimensions
2025-08-12 15:39:47.296 (  47.739s) [        CAFFD640]     buffer_instance.cc:435      1| BufferInstance::PJRT_Buffer_ElementType
2025-08-12 15:39:47.296 (  47.739s) [        CAFFD640]     buffer_instance.cc:443      1| BufferInstance::PJRT_Buffer_Dimensions
2025-08-12 15:39:47.296 (  47.739s) [        CAFFD640]     buffer_instance.cc:466      1| BufferInstance::PJRT_Buffer_DynamicDimensionIndices
2025-08-12 15:39:47.296 (  47.739s) [        CAFFD640]     buffer_instance.cc:443      1| BufferInstance::PJRT_Buffer_Dimensions
2025-08-12 15:39:47.296 (  47.739s) [        CAFFD640]     buffer_instance.cc:435      1| BufferInstance::PJRT_Buffer_ElementType
2025-08-12 15:39:47.296 (  47.739s) [        CAFFD640]     buffer_instance.cc:427      1| BufferInstance::PJRT_Buffer_Destroy
2025-08-12 15:39:47.296 (  47.739s) [        CAFFD640]     buffer_instance.cc:427      1| BufferInstance::PJRT_Buffer_Destroy
2025-08-12 15:39:47.296 (  47.739s) [        CAFFD640]     buffer_instance.cc:427      1| BufferInstance::PJRT_Buffer_Destroy
2025-08-12 15:39:47.296 (  47.739s) [        CAFFD640]     buffer_instance.cc:427      1| BufferInstance::PJRT_Buffer_Destroy
2025-08-12 15:39:47.296 (  47.739s) [        C545D1C0]     buffer_instance.cc:526      1| BufferInstance::PJRT_Buffer_IsDeleted
2025-08-12 15:39:47.297 (  47.739s) [        C545D1C0]     buffer_instance.cc:454      1| BufferInstance::PJRT_Buffer_UnpaddedDimensions
2025-08-12 15:39:47.297 (  47.739s) [        C545D1C0]     buffer_instance.cc:435      1| BufferInstance::PJRT_Buffer_ElementType
2025-08-12 15:39:47.297 (  47.739s) [        C545D1C0]     buffer_instance.cc:443      1| BufferInstance::PJRT_Buffer_Dimensions
2025-08-12 15:39:47.297 (  47.739s) [        C545D1C0]     buffer_instance.cc:476      1| BufferInstance::PJRT_Buffer_ToHostBuffer
2025-08-12 15:39:47.297 (  47.739s) [        C545D1C0]     buffer_instance.cc:497      1| [BUFFER_TO_HOST] Source buffer shape: [1, 1, 128256], data_type: 13, required_size: 256512 bytes
2025-08-12 15:39:47.297 (  47.739s) [        C545D1C0]     buffer_instance.cc:508      1| [BUFFER_TO_HOST] Destination buffer: dst_size=256512 bytes, dst_ptr=0x5654446f37c0
2025-08-12 15:39:47.297 (  47.740s) [        C545D1C0]      event_instance.cc:222      1| EventInstance::PJRT_Event_OnReady
2025-08-12 15:39:47.297 (  47.740s) [        121D0640]      event_instance.cc:171      1| EventInstance::PJRT_Event_Destroy
2025-08-12 15:39:47.303 (  47.746s) [        C545D1C0]     buffer_instance.cc:427      1| BufferInstance::PJRT_Buffer_Destroy
2025-08-12 15:39:47.303 (  47.746s) [        C545D1C0]     buffer_instance.cc:427      1| BufferInstance::PJRT_Buffer_Destroy
alink2025-08-12 15:39:47.304 (  47.747s) [        C545D1C0]     buffer_instance.cc:427      1| BufferInstance::PJRT_Buffer_Destroy
2025-08-12 15:39:47.305 (  47.748s) [        C545D1C0]     buffer_instance.cc:427      1| BufferInstance::PJRT_Buffer_Destroy
2025-08-12 15:39:47.305 (  47.748s) [        C545D1C0]     buffer_instance.cc:427      1| BufferInstance::PJRT_Buffer_Destroy
2025-08-12 15:39:47.305 (  47.748s) [        C545D1C0]     buffer_instance.cc:427      1| BufferInstance::PJRT_Buffer_Destroy
2025-08-12 15:39:47.305 (  47.748s) [        C545D1C0]     buffer_instance.cc:427      1| BufferInstance::PJRT_Buffer_Destroy
2025-08-12 15:39:47.305 (  47.748s) [        C545D1C0]     buffer_instance.cc:427      1| BufferInstance::PJRT_Buffer_Destroy
2025-08-12 15:39:47.305 (  47.748s) [        C545D1C0]     buffer_instance.cc:427      1| BufferInstance::PJRT_Buffer_Destroy
2025-08-12 15:39:47.305 (  47.748s) [        C545D1C0]     buffer_instance.cc:427      1| BufferInstance::PJRT_Buffer_Destroy
2025-08-12 15:39:47.305 (  47.748s) [        C545D1C0]     buffer_instance.cc:427      1| BufferInstance::PJRT_Buffer_Destroy
2025-08-12 15:39:47.340 (  47.783s) [        C545D1C0]     buffer_instance.cc:427      1| BufferInstance::PJRT_Buffer_Destroy
2025-08-12 15:39:47.343 (  47.786s) [        C545D1C0]     buffer_instance.cc:427      1| BufferInstance::PJRT_Buffer_Destroy
2025-08-12 15:39:47.345 (  47.788s) [        C545D1C0]     buffer_instance.cc:427      1| BufferInstance::PJRT_Buffer_Destroy
2025-08-12 15:39:47.348 (  47.790s) [        C545D1C0]     buffer_instance.cc:427      1| BufferInstance::PJRT_Buffer_Destroy
2025-08-12 15:39:47.348 (  47.791s) [        C545D1C0]     buffer_instance.cc:427      1| BufferInstance::PJRT_Buffer_Destroy
2025-08-12 15:39:47.348 (  47.791s) [        C545D1C0]     buffer_instance.cc:427      1| BufferInstance::PJRT_Buffer_Destroy
2025-08-12 15:39:47.348 (  47.791s) [        C545D1C0]     buffer_instance.cc:427      1| BufferInstance::PJRT_Buffer_Destroy
2025-08-12 15:39:47.348 (  47.791s) [        C545D1C0]     buffer_instance.cc:427      1| BufferInstance::PJRT_Buffer_Destroy
2025-08-12 15:39:47.351 (  47.793s) [        C545D1C0]     buffer_instance.cc:427      1| BufferInstance::PJRT_Buffer_Destroy
2025-08-12 15:39:47.353 (  47.796s) [        C545D1C0]     buffer_instance.cc:427      1| BufferInstance::PJRT_Buffer_Destroy
2025-08-12 15:39:47.356 (  47.798s) [        C545D1C0]     buffer_instance.cc:427      1| BufferInstance::PJRT_Buffer_Destroy
2025-08-12 15:39:47.356 (  47.799s) [        C545D1C0]     buffer_instance.cc:427      1| BufferInstance::PJRT_Buffer_Destroy
2025-08-12 15:39:47.359 (  47.802s) [        C545D1C0]     buffer_instance.cc:427      1| BufferInstance::PJRT_Buffer_Destroy
2025-08-12 15:39:47.360 (  47.802s) [        C545D1C0]     buffer_instance.cc:427      1| BufferInstance::PJRT_Buffer_Destroy
2025-08-12 15:39:47.360 (  47.803s) [        C545D1C0]     buffer_instance.cc:427      1| BufferInstance::PJRT_Buffer_Destroy
2025-08-12 15:39:47.392 (  47.835s) [        C545D1C0]     buffer_instance.cc:427      1| BufferInstance::PJRT_Buffer_Destroy
2025-08-12 15:39:47.394 (  47.837s) [        C545D1C0]     buffer_instance.cc:427      1| BufferInstance::PJRT_Buffer_Destroy
2025-08-12 15:39:47.396 (  47.839s) [        C545D1C0]     buffer_instance.cc:427      1| BufferInstance::PJRT_Buffer_Destroy
2025-08-12 15:39:47.398 (  47.841s) [        C545D1C0]     buffer_instance.cc:427      1| BufferInstance::PJRT_Buffer_Destroy
2025-08-12 15:39:47.399 (  47.841s) [        C545D1C0]     buffer_instance.cc:427      1| BufferInstance::PJRT_Buffer_Destroy
2025-08-12 15:39:47.399 (  47.841s) [        C545D1C0]     buffer_instance.cc:427      1| BufferInstance::PJRT_Buffer_Destroy
2025-08-12 15:39:47.399 (  47.842s) [        C545D1C0]     buffer_instance.cc:427      1| BufferInstance::PJRT_Buffer_Destroy
2025-08-12 15:39:47.399 (  47.842s) [        C545D1C0]     buffer_instance.cc:427      1| BufferInstance::PJRT_Buffer_Destroy
2025-08-12 15:39:47.401 (  47.844s) [        C545D1C0]     buffer_instance.cc:427      1| BufferInstance::PJRT_Buffer_Destroy
2025-08-12 15:39:47.403 (  47.846s) [        C545D1C0]     buffer_instance.cc:427      1| BufferInstance::PJRT_Buffer_Destroy
2025-08-12 15:39:47.405 (  47.848s) [        C545D1C0]     buffer_instance.cc:427      1| BufferInstance::PJRT_Buffer_Destroy
2025-08-12 15:39:47.408 (  47.851s) [        C545D1C0]     buffer_instance.cc:427      1| BufferInstance::PJRT_Buffer_Destroy
2025-08-12 15:39:47.408 (  47.851s) [        C545D1C0]     buffer_instance.cc:427      1| BufferInstance::PJRT_Buffer_Destroy
2025-08-12 15:39:47.408 (  47.851s) [        C545D1C0]     buffer_instance.cc:427      1| BufferInstance::PJRT_Buffer_Destroy
2025-08-12 15:39:47.408 (  47.851s) [        C545D1C0]     buffer_instance.cc:427      1| BufferInstance::PJRT_Buffer_Destroy
2025-08-12 15:39:47.408 (  47.851s) [        C545D1C0]     buffer_instance.cc:427      1| BufferInstance::PJRT_Buffer_Destroy
2025-08-12 15:39:47.443 (  47.886s) [        C545D1C0]     buffer_instance.cc:427      1| BufferInstance::PJRT_Buffer_Destroy
2025-08-12 15:39:47.443 (  47.886s) [        C545D1C0]     buffer_instance.cc:427      1| BufferInstance::PJRT_Buffer_Destroy
2025-08-12 15:39:47.443 (  47.886s) [        C545D1C0]     buffer_instance.cc:427      1| BufferInstance::PJRT_Buffer_Destroy
2025-08-12 15:39:47.443 (  47.886s) [        C545D1C0]     buffer_instance.cc:427      1| BufferInstance::PJRT_Buffer_Destroy
2025-08-12 15:39:47.444 (  47.886s) [        C545D1C0]     buffer_instance.cc:427      1| BufferInstance::PJRT_Buffer_Destroy
2025-08-12 15:39:47.524 (  47.967s) [        C545D1C0]     buffer_instance.cc:427      1| BufferInstance::PJRT_Buffer_Destroy
2025-08-12 15:39:47.524 (  47.967s) [        C545D1C0]     buffer_instance.cc:427      1| BufferInstance::PJRT_Buffer_Destroy
2025-08-12 15:39:47.524 (  47.967s) [        C545D1C0]     buffer_instance.cc:427      1| BufferInstance::PJRT_Buffer_Destroy
2025-08-12 15:39:47.524 (  47.967s) [        C545D1C0]     buffer_instance.cc:427      1| BufferInstance::PJRT_Buffer_Destroy
2025-08-12 15:39:47.524 (  47.967s) [        C545D1C0]     buffer_instance.cc:427      1| BufferInstance::PJRT_Buffer_Destroy
2025-08-12 15:39:47.524 (  47.967s) [        C545D1C0]     buffer_instance.cc:427      1| BufferInstance::PJRT_Buffer_Destroy
2025-08-12 15:39:47.524 (  47.967s) [        C545D1C0]     buffer_instance.cc:427      1| BufferInstance::PJRT_Buffer_Destroy
2025-08-12 15:39:47.524 (  47.967s) [        C545D1C0]     buffer_instance.cc:427      1| BufferInstance::PJRT_Buffer_Destroy
2025-08-12 15:39:47.524 (  47.967s) [        C545D1C0]     buffer_instance.cc:427      1| BufferInstance::PJRT_Buffer_Destroy
2025-08-12 15:39:47.566 (  48.009s) [        C545D1C0]     buffer_instance.cc:427      1| BufferInstance::PJRT_Buffer_Destroy
2025-08-12 15:39:47.569 (  48.012s) [        C545D1C0]     buffer_instance.cc:427      1| BufferInstance::PJRT_Buffer_Destroy
2025-08-12 15:39:47.572 (  48.014s) [        C545D1C0]     buffer_instance.cc:427      1| BufferInstance::PJRT_Buffer_Destroy
2025-08-12 15:39:47.575 (  48.017s) [        C545D1C0]     buffer_instance.cc:427      1| BufferInstance::PJRT_Buffer_Destroy
2025-08-12 15:39:47.575 (  48.018s) [        C545D1C0]     buffer_instance.cc:427      1| BufferInstance::PJRT_Buffer_Destroy
2025-08-12 15:39:47.575 (  48.018s) [        C545D1C0]     buffer_instance.cc:427      1| BufferInstance::PJRT_Buffer_Destroy
2025-08-12 15:39:47.575 (  48.018s) [        C545D1C0]     buffer_instance.cc:427      1| BufferInstance::PJRT_Buffer_Destroy
2025-08-12 15:39:47.575 (  48.018s) [        C545D1C0]     buffer_instance.cc:427      1| BufferInstance::PJRT_Buffer_Destroy
2025-08-12 15:39:47.578 (  48.021s) [        C545D1C0]     buffer_instance.cc:427      1| BufferInstance::PJRT_Buffer_Destroy
2025-08-12 15:39:47.581 (  48.024s) [        C545D1C0]     buffer_instance.cc:427      1| BufferInstance::PJRT_Buffer_Destroy
2025-08-12 15:39:47.584 (  48.027s) [        C545D1C0]     buffer_instance.cc:427      1| BufferInstance::PJRT_Buffer_Destroy
2025-08-12 15:39:47.584 (  48.027s) [        C545D1C0]     buffer_instance.cc:427      1| BufferInstance::PJRT_Buffer_Destroy
2025-08-12 15:39:47.585 (  48.027s) [        C545D1C0]     buffer_instance.cc:427      1| BufferInstance::PJRT_Buffer_Destroy
2025-08-12 15:39:47.585 (  48.028s) [        C545D1C0]     buffer_instance.cc:427      1| BufferInstance::PJRT_Buffer_Destroy
2025-08-12 15:39:47.585 (  48.028s) [        C545D1C0]     buffer_instance.cc:427      1| BufferInstance::PJRT_Buffer_Destroy
2025-08-12 15:39:47.622 (  48.065s) [        C545D1C0]     buffer_instance.cc:427      1| BufferInstance::PJRT_Buffer_Destroy
2025-08-12 15:39:47.625 (  48.067s) [        C545D1C0]     buffer_instance.cc:427      1| BufferInstance::PJRT_Buffer_Destroy
2025-08-12 15:39:47.627 (  48.070s) [        C545D1C0]     buffer_instance.cc:427      1| BufferInstance::PJRT_Buffer_Destroy
2025-08-12 15:39:47.630 (  48.073s) [        C545D1C0]     buffer_instance.cc:427      1| BufferInstance::PJRT_Buffer_Destroy
2025-08-12 15:39:47.630 (  48.073s) [        C545D1C0]     buffer_instance.cc:427      1| BufferInstance::PJRT_Buffer_Destroy
2025-08-12 15:39:47.630 (  48.073s) [        C545D1C0]     buffer_instance.cc:427      1| BufferInstance::PJRT_Buffer_Destroy
2025-08-12 15:39:47.630 (  48.073s) [        C545D1C0]     buffer_instance.cc:427      1| BufferInstance::PJRT_Buffer_Destroy
2025-08-12 15:39:47.631 (  48.073s) [        C545D1C0]     buffer_instance.cc:427      1| BufferInstance::PJRT_Buffer_Destroy
2025-08-12 15:39:47.633 (  48.076s) [        C545D1C0]     buffer_instance.cc:427      1| BufferInstance::PJRT_Buffer_Destroy
2025-08-12 15:39:47.636 (  48.078s) [        C545D1C0]     buffer_instance.cc:427      1| BufferInstance::PJRT_Buffer_Destroy
2025-08-12 15:39:47.638 (  48.081s) [        C545D1C0]     buffer_instance.cc:427      1| BufferInstance::PJRT_Buffer_Destroy
2025-08-12 15:39:47.638 (  48.081s) [        C545D1C0]     buffer_instance.cc:427      1| BufferInstance::PJRT_Buffer_Destroy
2025-08-12 15:39:47.638 (  48.081s) [        C545D1C0]     buffer_instance.cc:427      1| BufferInstance::PJRT_Buffer_Destroy
2025-08-12 15:39:47.639 (  48.081s) [        C545D1C0]     buffer_instance.cc:427      1| BufferInstance::PJRT_Buffer_Destroy
2025-08-12 15:39:47.639 (  48.081s) [        C545D1C0]     buffer_instance.cc:427      1| BufferInstance::PJRT_Buffer_Destroy
2025-08-12 15:39:47.639 (  48.082s) [        C545D1C0]     buffer_instance.cc:427      1| BufferInstance::PJRT_Buffer_Destroy
2025-08-12 15:39:47.681 (  48.124s) [        C545D1C0]     buffer_instance.cc:427      1| BufferInstance::PJRT_Buffer_Destroy
2025-08-12 15:39:47.681 (  48.124s) [        C545D1C0]     buffer_instance.cc:427      1| BufferInstance::PJRT_Buffer_Destroy
2025-08-12 15:39:47.682 (  48.124s) [        C545D1C0]     buffer_instance.cc:427      1| BufferInstance::PJRT_Buffer_Destroy
2025-08-12 15:39:47.682 (  48.124s) [        C545D1C0]     buffer_instance.cc:427      1| BufferInstance::PJRT_Buffer_Destroy
2025-08-12 15:39:47.682 (  48.125s) [        C545D1C0]     buffer_instance.cc:427      1| BufferInstance::PJRT_Buffer_Destroy

================================================================================
GENERATION SUMMARY
================================================================================
Initial prompt: '<|begin_of_text|>I like taking walks in the'
Generated text: '<|begin_of_text|>I like taking walks in thealinkalinkalinkalinkalinkalinkalinkalink'

Model loading time: 0.822s
Total generation time: 49.668s
Tokens generated: 8
Average tokens/second: 0.16

PREFILL (first token):
  Time: 39.609s

DECODE (subsequent tokens):
  Count: 7
  Average time: 1.437s
  Min time: 0.385s
  Max time: 7.711s
  Average tokens/second: 0.70

DETAILED TIMING (all iterations):
Iter | Phase   | Total   | Token
--------------------------------------------------
   0 | prefill | 39.609s | 'alink'
   1 | decode  |  7.711s | 'alink'
   2 | decode  |  0.397s | 'alink'
   3 | decode  |  0.390s | 'alink'
   4 | decode  |  0.394s | 'alink'
   5 | decode  |  0.390s | 'alink'
   6 | decode  |  0.385s | 'alink'
   7 | decode  |  0.391s | 'alink'
PASSED

=============================== warnings summary ===============================
tests/models/llama/test_llama3_generative.py::test_llama3_generate
tests/models/llama/test_llama3_generative.py::test_llama3_generate
  /localdev/jameszianxu/gen_mc/tt-torch/env/venv/lib/python3.10/site-packages/torch/fx/experimental/const_fold.py:264: UserWarning: Attempted to insert a get_attr Node with no underlying reference in the owning GraphModule! Call GraphModule.add_submodule to add the necessary submodule, GraphModule.add_parameter to add the necessary Parameter, or nn.Module.register_buffer to add the necessary buffer
    new_node = root_const_gm.graph.get_attr(in_node.target)

tests/models/llama/test_llama3_generative.py::test_llama3_generate
tests/models/llama/test_llama3_generative.py::test_llama3_generate
  /localdev/jameszianxu/gen_mc/tt-torch/env/venv/lib/python3.10/site-packages/torch/fx/graph.py:1316: UserWarning: Failed to fetch module L__self___model_layers__modules__0___self_attn_q_proj!
    warnings.warn(f"Failed to fetch module {module_path}!")

tests/models/llama/test_llama3_generative.py::test_llama3_generate
tests/models/llama/test_llama3_generative.py::test_llama3_generate
  /localdev/jameszianxu/gen_mc/tt-torch/env/venv/lib/python3.10/site-packages/torch/fx/graph.py:1316: UserWarning: Failed to fetch module L__self___model_layers__modules__0___self_attn_k_proj!
    warnings.warn(f"Failed to fetch module {module_path}!")

tests/models/llama/test_llama3_generative.py::test_llama3_generate
tests/models/llama/test_llama3_generative.py::test_llama3_generate
  /localdev/jameszianxu/gen_mc/tt-torch/env/venv/lib/python3.10/site-packages/torch/fx/graph.py:1316: UserWarning: Failed to fetch module L__self___model_layers__modules__0___self_attn_v_proj!
    warnings.warn(f"Failed to fetch module {module_path}!")

tests/models/llama/test_llama3_generative.py::test_llama3_generate
tests/models/llama/test_llama3_generative.py::test_llama3_generate
  /localdev/jameszianxu/gen_mc/tt-torch/env/venv/lib/python3.10/site-packages/torch/fx/graph.py:1316: UserWarning: Failed to fetch module L__self___model_layers__modules__0___self_attn_o_proj!
    warnings.warn(f"Failed to fetch module {module_path}!")

tests/models/llama/test_llama3_generative.py::test_llama3_generate
tests/models/llama/test_llama3_generative.py::test_llama3_generate
  /localdev/jameszianxu/gen_mc/tt-torch/env/venv/lib/python3.10/site-packages/torch/fx/graph.py:1316: UserWarning: Failed to fetch module L__self___model_layers__modules__0___mlp_gate_proj!
    warnings.warn(f"Failed to fetch module {module_path}!")

tests/models/llama/test_llama3_generative.py::test_llama3_generate
tests/models/llama/test_llama3_generative.py::test_llama3_generate
  /localdev/jameszianxu/gen_mc/tt-torch/env/venv/lib/python3.10/site-packages/torch/fx/graph.py:1316: UserWarning: Failed to fetch module L__self___model_layers__modules__0___mlp_up_proj!
    warnings.warn(f"Failed to fetch module {module_path}!")

tests/models/llama/test_llama3_generative.py::test_llama3_generate
tests/models/llama/test_llama3_generative.py::test_llama3_generate
  /localdev/jameszianxu/gen_mc/tt-torch/env/venv/lib/python3.10/site-packages/torch/fx/graph.py:1316: UserWarning: Failed to fetch module L__self___model_layers__modules__0___mlp_down_proj!
    warnings.warn(f"Failed to fetch module {module_path}!")

tests/models/llama/test_llama3_generative.py::test_llama3_generate
tests/models/llama/test_llama3_generative.py::test_llama3_generate
  /localdev/jameszianxu/gen_mc/tt-torch/env/venv/lib/python3.10/site-packages/torch/fx/graph.py:1316: UserWarning: Failed to fetch module L__self___model_layers__modules__1___self_attn_q_proj!
    warnings.warn(f"Failed to fetch module {module_path}!")

tests/models/llama/test_llama3_generative.py::test_llama3_generate
tests/models/llama/test_llama3_generative.py::test_llama3_generate
  /localdev/jameszianxu/gen_mc/tt-torch/env/venv/lib/python3.10/site-packages/torch/fx/graph.py:1316: UserWarning: Failed to fetch module L__self___model_layers__modules__1___self_attn_k_proj!
    warnings.warn(f"Failed to fetch module {module_path}!")

tests/models/llama/test_llama3_generative.py::test_llama3_generate
tests/models/llama/test_llama3_generative.py::test_llama3_generate
  /localdev/jameszianxu/gen_mc/tt-torch/env/venv/lib/python3.10/site-packages/torch/fx/graph.py:1316: UserWarning: Failed to fetch module L__self___model_layers__modules__1___self_attn_v_proj!
    warnings.warn(f"Failed to fetch module {module_path}!")

tests/models/llama/test_llama3_generative.py::test_llama3_generate
tests/models/llama/test_llama3_generative.py::test_llama3_generate
  /localdev/jameszianxu/gen_mc/tt-torch/env/venv/lib/python3.10/site-packages/torch/fx/graph.py:1316: UserWarning: Failed to fetch module L__self___model_layers__modules__1___self_attn_o_proj!
    warnings.warn(f"Failed to fetch module {module_path}!")

tests/models/llama/test_llama3_generative.py::test_llama3_generate
tests/models/llama/test_llama3_generative.py::test_llama3_generate
  /localdev/jameszianxu/gen_mc/tt-torch/env/venv/lib/python3.10/site-packages/torch/fx/graph.py:1316: UserWarning: Failed to fetch module L__self___model_layers__modules__1___mlp_gate_proj!
    warnings.warn(f"Failed to fetch module {module_path}!")

tests/models/llama/test_llama3_generative.py::test_llama3_generate
tests/models/llama/test_llama3_generative.py::test_llama3_generate
  /localdev/jameszianxu/gen_mc/tt-torch/env/venv/lib/python3.10/site-packages/torch/fx/graph.py:1316: UserWarning: Failed to fetch module L__self___model_layers__modules__1___mlp_up_proj!
    warnings.warn(f"Failed to fetch module {module_path}!")

tests/models/llama/test_llama3_generative.py::test_llama3_generate
tests/models/llama/test_llama3_generative.py::test_llama3_generate
  /localdev/jameszianxu/gen_mc/tt-torch/env/venv/lib/python3.10/site-packages/torch/fx/graph.py:1316: UserWarning: Failed to fetch module L__self___model_layers__modules__1___mlp_down_proj!
    warnings.warn(f"Failed to fetch module {module_path}!")

tests/models/llama/test_llama3_generative.py::test_llama3_generate
tests/models/llama/test_llama3_generative.py::test_llama3_generate
  /localdev/jameszianxu/gen_mc/tt-torch/env/venv/lib/python3.10/site-packages/torch/fx/graph.py:1316: UserWarning: Failed to fetch module L__self___lm_head!
    warnings.warn(f"Failed to fetch module {module_path}!")

tests/models/llama/test_llama3_generative.py::test_llama3_generate
tests/models/llama/test_llama3_generative.py::test_llama3_generate
tests/models/llama/test_llama3_generative.py::test_llama3_generate
tests/models/llama/test_llama3_generative.py::test_llama3_generate
tests/models/llama/test_llama3_generative.py::test_llama3_generate
tests/models/llama/test_llama3_generative.py::test_llama3_generate
tests/models/llama/test_llama3_generative.py::test_llama3_generate
tests/models/llama/test_llama3_generative.py::test_llama3_generate
  /localdev/jameszianxu/gen_mc/tt-torch/tt_torch/dynamo/experimental/xla_backend.py:810: DeprecationWarning: Use torch_xla.sync instead
    xm.mark_step() # explicit compile step

-- Docs: https://docs.pytest.org/en/stable/how-to/capture-warnings.html
======================= 1 passed, 40 warnings in 53.73s ========================
2025-08-12 15:39:50.353 (  50.795s) [        C545D1C0]  device_description.cc:44       1| DeviceDescription::PJRT_DeviceDescription_Id
2025-08-12 15:39:50.353 (  50.795s) [        C545D1C0]  device_description.cc:44       1| DeviceDescription::PJRT_DeviceDescription_Id
2025-08-12 15:39:50.353 (  50.795s) [        C545D1C0]  device_description.cc:44       1| DeviceDescription::PJRT_DeviceDescription_Id
2025-08-12 15:39:50.353 (  50.795s) [        C545D1C0]  device_description.cc:44       1| DeviceDescription::PJRT_DeviceDescription_Id
