Using PJRT plugin directory: /localdev/jameszianxu/tt-xla/python_package/pjrt_plugin_tt
Using TT-Metal from the source tree: /localdev/jameszianxu/tt-xla/third_party/tt-mlir/src/tt-mlir/third_party/tt-metal/src/tt-metal
WARNING: TT plugin is setting XLA_STABLEHLO_COMPILE to 1. This is required for TT PJRT plugin to work correctly.
============================= test session starts ==============================
platform linux -- Python 3.11.14, pytest-8.4.2, pluggy-1.6.0 -- /localdev/jameszianxu/tt-xla/venv/bin/python
cachedir: .pytest_cache
metadata: {'Python': '3.11.14', 'Platform': 'Linux-5.4.0-216-generic-x86_64-with-glibc2.35', 'Packages': {'pytest': '8.4.2', 'pluggy': '1.6.0'}, 'Plugins': {'anyio': '4.12.1', 'jaxtyping': '0.3.6', 'json-report': '1.5.0', 'metadata': '3.1.1', 'split': '0.10.0', 'forked': '1.6.0'}}
rootdir: /localdev/jameszianxu/tt-xla
configfile: pytest.ini
plugins: anyio-4.12.1, jaxtyping-0.3.6, json-report-1.5.0, metadata-3.1.1, split-0.10.0, forked-1.6.0
collecting ... collected 1 item

tests/torch/training/test_basic.py::test_qwen3_multichip_backward 2026-01-28 22:12:52.833 (   0.000s) [        66B35000]   plugin_attributes.cc:60       1| PluginAttributes::PJRT_Plugin_Initialize
2026-01-28 22:12:52.833 (   0.000s) [        66B35000]     client_instance.cc:546      1| ClientInstance::PJRT_Client_Create
2026-01-28 22:12:52.836 (   0.003s) [        66B35000]     client_instance.cc:177      1| ClientInstance::ClientInstance
2026-01-28 22:12:52.836 (   0.003s) [        66B35000]     client_instance.cc:198      1| ClientInstance::Initialize
[32m                 Always[0m | [1m[38;5;240m   DEBUG[0m | Device grid size = { 8, 8 }
[32m                 Always[0m | [1m[38;5;240m   DEBUG[0m | Device grid size = { 8, 8 }
2026-01-28 22:12:54.282 (   1.449s) [        66B35000]              stubs.inc:103   WARN| STUB: PJRT_Client_TopologyDescription
2026-01-28 22:12:54.282 (   1.449s) [        66B35000]      error_instance.cc:52       1| ErrorInstance::PJRT_Error_Message
2026-01-28 22:12:54.282 (   1.449s) [        66B35000]      error_instance.cc:61       1| ErrorInstance::PJRT_Error_GetCode
2026-01-28 22:12:54.282 (   1.449s) [        66B35000]      error_instance.cc:46       1| ErrorInstance::PJRT_Error_Destroy
2026-01-28 22:12:54.282 (   1.449s) [        66B35000]     client_instance.cc:600      1| ClientInstance::PJRT_Client_PlatformVersion
2026-01-28 22:12:54.282 (   1.449s) [        66B35000]     client_instance.cc:581      1| ClientInstance::PJRT_Client_PlatformName
2026-01-28 22:12:54.282 (   1.449s) [        66B35000]     client_instance.cc:611      1| ClientInstance::PJRT_Client_Devices
2026-01-28 22:12:54.282 (   1.449s) [        66B35000]     device_instance.cc:44       1| DeviceInstance::PJRT_Device_GetDescription
2026-01-28 22:12:54.282 (   1.449s) [        66B35000]  device_description.cc:82       1| DeviceDescription::PJRT_DeviceDescription_Attributes
2026-01-28 22:12:54.282 (   1.449s) [        66B35000]     device_instance.cc:44       1| DeviceInstance::PJRT_Device_GetDescription
2026-01-28 22:12:54.282 (   1.449s) [        66B35000]  device_description.cc:82       1| DeviceDescription::PJRT_DeviceDescription_Attributes
2026-01-28 22:12:54.282 (   1.449s) [        66B35000]     client_instance.cc:624      1| ClientInstance::PJRT_Client_AddressableDevices
2026-01-28 22:12:54.282 (   1.449s) [        66B35000]     client_instance.cc:674      1| ClientInstance::PJRT_Client_AddressableMemories
2026-01-28 22:12:54.282 (   1.449s) [        66B35000]     device_instance.cc:71       1| DeviceInstance::PJRT_Device_AddressableMemories
2026-01-28 22:12:54.282 (   1.449s) [        66B35000]     device_instance.cc:71       1| DeviceInstance::PJRT_Device_AddressableMemories
2026-01-28 22:12:54.282 (   1.449s) [        66B35000]     memory_instance.cc:124      1| MemoryInstance::PJRT_Memory_AddressableByDevices
2026-01-28 22:12:54.282 (   1.449s) [        66B35000]     memory_instance.cc:124      1| MemoryInstance::PJRT_Memory_AddressableByDevices
2026-01-28 22:12:54.282 (   1.449s) [        66B35000]     memory_instance.cc:124      1| MemoryInstance::PJRT_Memory_AddressableByDevices
2026-01-28 22:12:54.282 (   1.449s) [        66B35000]   plugin_attributes.cc:66       1| PluginAttributes::PJRT_Plugin_Attributes
2026-01-28 22:12:54.282852: W torch_xla/csrc/runtime/profiler.cpp:88] Profiler API not found for PJRT plugin
2026-01-28 22:12:54.282 (   1.449s) [        66B35000]  device_description.cc:63       1| DeviceDescription::PJRT_DeviceDescription_Id
2026-01-28 22:12:54.282 (   1.449s) [        66B35000]  device_description.cc:63       1| DeviceDescription::PJRT_DeviceDescription_Id
2026-01-28 22:12:54.282 (   1.449s) [        66B35000]  device_description.cc:63       1| DeviceDescription::PJRT_DeviceDescription_Id
2026-01-28 22:12:54.282 (   1.449s) [        66B35000]  device_description.cc:63       1| DeviceDescription::PJRT_DeviceDescription_Id
2026-01-28 22:12:54.282 (   1.449s) [        66B35000]  device_description.cc:63       1| DeviceDescription::PJRT_DeviceDescription_Id
2026-01-28 22:12:54.282 (   1.449s) [        66B35000]  device_description.cc:63       1| DeviceDescription::PJRT_DeviceDescription_Id
2026-01-28 22:12:54.282 (   1.449s) [        66B35000]  device_description.cc:120      1| DeviceDescription::PJRT_DeviceDescription_ToString
2026-01-28 22:12:54.282 (   1.449s) [        66B35000]  device_description.cc:120      1| DeviceDescription::PJRT_DeviceDescription_ToString
2026-01-28 22:12:54.282 (   1.449s) [        66B35000]  device_description.cc:63       1| DeviceDescription::PJRT_DeviceDescription_Id
2026-01-28 22:12:54.282 (   1.449s) [        66B35000]  device_description.cc:63       1| DeviceDescription::PJRT_DeviceDescription_Id
2026-01-28 22:12:54.282 (   1.449s) [        66B35000]  device_description.cc:63       1| DeviceDescription::PJRT_DeviceDescription_Id
2026-01-28 22:12:54.282 (   1.449s) [        66B35000]  device_description.cc:63       1| DeviceDescription::PJRT_DeviceDescription_Id
2026-01-28 22:12:54.517 (   1.684s) [        66B35000]  device_description.cc:63       1| DeviceDescription::PJRT_DeviceDescription_Id
2026-01-28 22:12:54.517 (   1.684s) [        66B35000]  device_description.cc:63       1| DeviceDescription::PJRT_DeviceDescription_Id
2026-01-28 22:12:54.518 (   1.685s) [        66B35000]     device_instance.cc:82       1| DeviceInstance::PJRT_Device_DefaultMemory
2026-01-28 22:12:54.518 (   1.685s) [        66B35000]     client_instance.cc:735      1| ClientInstance::PJRT_Client_BufferFromHostBuffer
2026-01-28 22:12:54.518 (   1.685s) [        66B35000]     memory_instance.cc:57       1| MemoryInstance::getDevice
2026-01-28 22:12:54.520 (   1.686s) [        66B35000]      event_instance.cc:223      1| EventInstance::PJRT_Event_OnReady
2026-01-28 22:12:54.520 (   1.686s) [        66B35000]      event_instance.cc:172      1| EventInstance::PJRT_Event_Destroy
2026-01-28 22:12:54.520 (   1.686s) [        66B35000]     device_instance.cc:82       1| DeviceInstance::PJRT_Device_DefaultMemory
2026-01-28 22:12:54.520 (   1.686s) [        66B35000]     client_instance.cc:735      1| ClientInstance::PJRT_Client_BufferFromHostBuffer
2026-01-28 22:12:54.520 (   1.686s) [        66B35000]     memory_instance.cc:57       1| MemoryInstance::getDevice
2026-01-28 22:12:54.520 (   1.687s) [        66B35000]      event_instance.cc:223      1| EventInstance::PJRT_Event_OnReady
2026-01-28 22:12:54.520 (   1.687s) [        66B35000]      event_instance.cc:172      1| EventInstance::PJRT_Event_Destroy
2026-01-28 22:12:54.520 (   1.687s) [        66B35000]  device_description.cc:63       1| DeviceDescription::PJRT_DeviceDescription_Id
2026-01-28 22:12:54.520 (   1.687s) [        66B35000]  device_description.cc:63       1| DeviceDescription::PJRT_DeviceDescription_Id
2026-01-28 22:12:54.522 (   1.689s) [        66B35000]     device_instance.cc:82       1| DeviceInstance::PJRT_Device_DefaultMemory
2026-01-28 22:12:54.522 (   1.689s) [        66B35000]     client_instance.cc:735      1| ClientInstance::PJRT_Client_BufferFromHostBuffer
2026-01-28 22:12:54.522 (   1.689s) [        66B35000]     memory_instance.cc:57       1| MemoryInstance::getDevice
2026-01-28 22:12:54.522 (   1.689s) [        66B35000]      event_instance.cc:223      1| EventInstance::PJRT_Event_OnReady
2026-01-28 22:12:54.523 (   1.689s) [        66B35000]      event_instance.cc:172      1| EventInstance::PJRT_Event_Destroy
2026-01-28 22:12:54.523 (   1.689s) [        66B35000]     device_instance.cc:82       1| DeviceInstance::PJRT_Device_DefaultMemory
2026-01-28 22:12:54.523 (   1.689s) [        66B35000]     client_instance.cc:735      1| ClientInstance::PJRT_Client_BufferFromHostBuffer
2026-01-28 22:12:54.523 (   1.689s) [        66B35000]     memory_instance.cc:57       1| MemoryInstance::getDevice
2026-01-28 22:12:54.523 (   1.689s) [        66B35000]      event_instance.cc:223      1| EventInstance::PJRT_Event_OnReady
2026-01-28 22:12:54.523 (   1.689s) [        66B35000]      event_instance.cc:172      1| EventInstance::PJRT_Event_Destroy
2026-01-28 22:12:54.523 (   1.690s) [        66B35000]  device_description.cc:63       1| DeviceDescription::PJRT_DeviceDescription_Id
2026-01-28 22:12:54.523 (   1.690s) [        66B35000]  device_description.cc:63       1| DeviceDescription::PJRT_DeviceDescription_Id
2026-01-28 22:12:54.524 (   1.691s) [        66B35000]     device_instance.cc:82       1| DeviceInstance::PJRT_Device_DefaultMemory
2026-01-28 22:12:54.524 (   1.691s) [        66B35000]     client_instance.cc:735      1| ClientInstance::PJRT_Client_BufferFromHostBuffer
2026-01-28 22:12:54.524 (   1.691s) [        66B35000]     memory_instance.cc:57       1| MemoryInstance::getDevice
2026-01-28 22:12:54.524 (   1.691s) [        66B35000]      event_instance.cc:223      1| EventInstance::PJRT_Event_OnReady
2026-01-28 22:12:54.524 (   1.691s) [        66B35000]      event_instance.cc:172      1| EventInstance::PJRT_Event_Destroy
2026-01-28 22:12:54.524 (   1.691s) [        66B35000]     device_instance.cc:82       1| DeviceInstance::PJRT_Device_DefaultMemory
2026-01-28 22:12:54.524 (   1.691s) [        66B35000]     client_instance.cc:735      1| ClientInstance::PJRT_Client_BufferFromHostBuffer
2026-01-28 22:12:54.524 (   1.691s) [        66B35000]     memory_instance.cc:57       1| MemoryInstance::getDevice
2026-01-28 22:12:54.524 (   1.691s) [        66B35000]      event_instance.cc:223      1| EventInstance::PJRT_Event_OnReady
2026-01-28 22:12:54.524 (   1.691s) [        66B35000]      event_instance.cc:172      1| EventInstance::PJRT_Event_Destroy
2026-01-28 22:12:54.525 (   1.691s) [        66B35000]  device_description.cc:63       1| DeviceDescription::PJRT_DeviceDescription_Id
2026-01-28 22:12:54.525 (   1.691s) [        66B35000]  device_description.cc:63       1| DeviceDescription::PJRT_DeviceDescription_Id
2026-01-28 22:12:54.526 (   1.693s) [        66B35000]     device_instance.cc:82       1| DeviceInstance::PJRT_Device_DefaultMemory
2026-01-28 22:12:54.526 (   1.693s) [        66B35000]     client_instance.cc:735      1| ClientInstance::PJRT_Client_BufferFromHostBuffer
2026-01-28 22:12:54.526 (   1.693s) [        66B35000]     memory_instance.cc:57       1| MemoryInstance::getDevice
2026-01-28 22:12:54.526 (   1.693s) [        66B35000]      event_instance.cc:223      1| EventInstance::PJRT_Event_OnReady
2026-01-28 22:12:54.526 (   1.693s) [        66B35000]      event_instance.cc:172      1| EventInstance::PJRT_Event_Destroy
2026-01-28 22:12:54.526 (   1.693s) [        66B35000]     device_instance.cc:82       1| DeviceInstance::PJRT_Device_DefaultMemory
2026-01-28 22:12:54.526 (   1.693s) [        66B35000]     client_instance.cc:735      1| ClientInstance::PJRT_Client_BufferFromHostBuffer
2026-01-28 22:12:54.526 (   1.693s) [        66B35000]     memory_instance.cc:57       1| MemoryInstance::getDevice
2026-01-28 22:12:54.527 (   1.693s) [        66B35000]      event_instance.cc:223      1| EventInstance::PJRT_Event_OnReady
2026-01-28 22:12:54.527 (   1.693s) [        66B35000]      event_instance.cc:172      1| EventInstance::PJRT_Event_Destroy
2026-01-28 22:12:54.527 (   1.693s) [        66B35000]  device_description.cc:63       1| DeviceDescription::PJRT_DeviceDescription_Id
2026-01-28 22:12:54.527 (   1.693s) [        66B35000]  device_description.cc:63       1| DeviceDescription::PJRT_DeviceDescription_Id
2026-01-28 22:12:54.527 (   1.694s) [        66B35000]     device_instance.cc:82       1| DeviceInstance::PJRT_Device_DefaultMemory
2026-01-28 22:12:54.527 (   1.694s) [        66B35000]     client_instance.cc:735      1| ClientInstance::PJRT_Client_BufferFromHostBuffer
2026-01-28 22:12:54.527 (   1.694s) [        66B35000]     memory_instance.cc:57       1| MemoryInstance::getDevice
2026-01-28 22:12:54.528 (   1.694s) [        66B35000]      event_instance.cc:223      1| EventInstance::PJRT_Event_OnReady
2026-01-28 22:12:54.528 (   1.694s) [        66B35000]      event_instance.cc:172      1| EventInstance::PJRT_Event_Destroy
2026-01-28 22:12:54.528 (   1.694s) [        66B35000]     device_instance.cc:82       1| DeviceInstance::PJRT_Device_DefaultMemory
2026-01-28 22:12:54.528 (   1.694s) [        66B35000]     client_instance.cc:735      1| ClientInstance::PJRT_Client_BufferFromHostBuffer
2026-01-28 22:12:54.528 (   1.694s) [        66B35000]     memory_instance.cc:57       1| MemoryInstance::getDevice
2026-01-28 22:12:54.528 (   1.694s) [        66B35000]      event_instance.cc:223      1| EventInstance::PJRT_Event_OnReady
2026-01-28 22:12:54.528 (   1.694s) [        66B35000]      event_instance.cc:172      1| EventInstance::PJRT_Event_Destroy
2026-01-28 22:12:54.528 (   1.695s) [        66B35000]  device_description.cc:63       1| DeviceDescription::PJRT_DeviceDescription_Id
2026-01-28 22:12:54.528 (   1.695s) [        66B35000]  device_description.cc:63       1| DeviceDescription::PJRT_DeviceDescription_Id
2026-01-28 22:12:54.528 (   1.695s) [        66B35000]     device_instance.cc:82       1| DeviceInstance::PJRT_Device_DefaultMemory
2026-01-28 22:12:54.529 (   1.695s) [        66B35000]     client_instance.cc:735      1| ClientInstance::PJRT_Client_BufferFromHostBuffer
2026-01-28 22:12:54.529 (   1.695s) [        66B35000]     memory_instance.cc:57       1| MemoryInstance::getDevice
2026-01-28 22:12:54.529 (   1.695s) [        66B35000]      event_instance.cc:223      1| EventInstance::PJRT_Event_OnReady
2026-01-28 22:12:54.529 (   1.695s) [        66B35000]      event_instance.cc:172      1| EventInstance::PJRT_Event_Destroy
2026-01-28 22:12:54.529 (   1.695s) [        66B35000]     device_instance.cc:82       1| DeviceInstance::PJRT_Device_DefaultMemory
2026-01-28 22:12:54.529 (   1.695s) [        66B35000]     client_instance.cc:735      1| ClientInstance::PJRT_Client_BufferFromHostBuffer
2026-01-28 22:12:54.529 (   1.696s) [        66B35000]     memory_instance.cc:57       1| MemoryInstance::getDevice
2026-01-28 22:12:54.529 (   1.696s) [        66B35000]      event_instance.cc:223      1| EventInstance::PJRT_Event_OnReady
2026-01-28 22:12:54.529 (   1.696s) [        66B35000]      event_instance.cc:172      1| EventInstance::PJRT_Event_Destroy
2026-01-28 22:12:54.529 (   1.696s) [        66B35000]  device_description.cc:63       1| DeviceDescription::PJRT_DeviceDescription_Id
2026-01-28 22:12:54.529 (   1.696s) [        66B35000]  device_description.cc:63       1| DeviceDescription::PJRT_DeviceDescription_Id
2026-01-28 22:12:54.530 (   1.696s) [        66B35000]     device_instance.cc:82       1| DeviceInstance::PJRT_Device_DefaultMemory
2026-01-28 22:12:54.530 (   1.696s) [        66B35000]     client_instance.cc:735      1| ClientInstance::PJRT_Client_BufferFromHostBuffer
2026-01-28 22:12:54.530 (   1.696s) [        66B35000]     memory_instance.cc:57       1| MemoryInstance::getDevice
2026-01-28 22:12:54.530 (   1.697s) [        66B35000]      event_instance.cc:223      1| EventInstance::PJRT_Event_OnReady
2026-01-28 22:12:54.530 (   1.697s) [        66B35000]      event_instance.cc:172      1| EventInstance::PJRT_Event_Destroy
2026-01-28 22:12:54.530 (   1.697s) [        66B35000]     device_instance.cc:82       1| DeviceInstance::PJRT_Device_DefaultMemory
2026-01-28 22:12:54.530 (   1.697s) [        66B35000]     client_instance.cc:735      1| ClientInstance::PJRT_Client_BufferFromHostBuffer
2026-01-28 22:12:54.530 (   1.697s) [        66B35000]     memory_instance.cc:57       1| MemoryInstance::getDevice
2026-01-28 22:12:54.530 (   1.697s) [        66B35000]      event_instance.cc:223      1| EventInstance::PJRT_Event_OnReady
2026-01-28 22:12:54.530 (   1.697s) [        66B35000]      event_instance.cc:172      1| EventInstance::PJRT_Event_Destroy
2026-01-28 22:12:54.530 (   1.697s) [        66B35000]  device_description.cc:63       1| DeviceDescription::PJRT_DeviceDescription_Id
2026-01-28 22:12:54.531 (   1.697s) [        66B35000]  device_description.cc:63       1| DeviceDescription::PJRT_DeviceDescription_Id
2026-01-28 22:12:54.531 (   1.698s) [        66B35000]     device_instance.cc:82       1| DeviceInstance::PJRT_Device_DefaultMemory
2026-01-28 22:12:54.531 (   1.698s) [        66B35000]     client_instance.cc:735      1| ClientInstance::PJRT_Client_BufferFromHostBuffer
2026-01-28 22:12:54.531 (   1.698s) [        66B35000]     memory_instance.cc:57       1| MemoryInstance::getDevice
2026-01-28 22:12:54.531 (   1.698s) [        66B35000]      event_instance.cc:223      1| EventInstance::PJRT_Event_OnReady
2026-01-28 22:12:54.531 (   1.698s) [        66B35000]      event_instance.cc:172      1| EventInstance::PJRT_Event_Destroy
2026-01-28 22:12:54.531 (   1.698s) [        66B35000]     device_instance.cc:82       1| DeviceInstance::PJRT_Device_DefaultMemory
2026-01-28 22:12:54.531 (   1.698s) [        66B35000]     client_instance.cc:735      1| ClientInstance::PJRT_Client_BufferFromHostBuffer
2026-01-28 22:12:54.531 (   1.698s) [        66B35000]     memory_instance.cc:57       1| MemoryInstance::getDevice
2026-01-28 22:12:54.532 (   1.698s) [        66B35000]      event_instance.cc:223      1| EventInstance::PJRT_Event_OnReady
2026-01-28 22:12:54.532 (   1.698s) [        66B35000]      event_instance.cc:172      1| EventInstance::PJRT_Event_Destroy
2026-01-28 22:12:54.532 (   1.698s) [        66B35000]  device_description.cc:63       1| DeviceDescription::PJRT_DeviceDescription_Id
2026-01-28 22:12:54.532 (   1.699s) [        66B35000]  device_description.cc:63       1| DeviceDescription::PJRT_DeviceDescription_Id
2026-01-28 22:12:54.533 (   1.699s) [        66B35000]     device_instance.cc:82       1| DeviceInstance::PJRT_Device_DefaultMemory
2026-01-28 22:12:54.533 (   1.699s) [        66B35000]     client_instance.cc:735      1| ClientInstance::PJRT_Client_BufferFromHostBuffer
2026-01-28 22:12:54.533 (   1.699s) [        66B35000]     memory_instance.cc:57       1| MemoryInstance::getDevice
2026-01-28 22:12:54.533 (   1.700s) [        66B35000]      event_instance.cc:223      1| EventInstance::PJRT_Event_OnReady
2026-01-28 22:12:54.533 (   1.700s) [        66B35000]      event_instance.cc:172      1| EventInstance::PJRT_Event_Destroy
2026-01-28 22:12:54.533 (   1.700s) [        66B35000]     device_instance.cc:82       1| DeviceInstance::PJRT_Device_DefaultMemory
2026-01-28 22:12:54.533 (   1.700s) [        66B35000]     client_instance.cc:735      1| ClientInstance::PJRT_Client_BufferFromHostBuffer
2026-01-28 22:12:54.533 (   1.700s) [        66B35000]     memory_instance.cc:57       1| MemoryInstance::getDevice
2026-01-28 22:12:54.533 (   1.700s) [        66B35000]      event_instance.cc:223      1| EventInstance::PJRT_Event_OnReady
2026-01-28 22:12:54.533 (   1.700s) [        66B35000]      event_instance.cc:172      1| EventInstance::PJRT_Event_Destroy
2026-01-28 22:12:54.534 (   1.700s) [        66B35000]  device_description.cc:63       1| DeviceDescription::PJRT_DeviceDescription_Id
2026-01-28 22:12:54.534 (   1.700s) [        66B35000]  device_description.cc:63       1| DeviceDescription::PJRT_DeviceDescription_Id
2026-01-28 22:12:54.535 (   1.702s) [        66B35000]     device_instance.cc:82       1| DeviceInstance::PJRT_Device_DefaultMemory
2026-01-28 22:12:54.535 (   1.702s) [        66B35000]     client_instance.cc:735      1| ClientInstance::PJRT_Client_BufferFromHostBuffer
2026-01-28 22:12:54.535 (   1.702s) [        66B35000]     memory_instance.cc:57       1| MemoryInstance::getDevice
2026-01-28 22:12:54.535 (   1.702s) [        66B35000]      event_instance.cc:223      1| EventInstance::PJRT_Event_OnReady
2026-01-28 22:12:54.535 (   1.702s) [        66B35000]      event_instance.cc:172      1| EventInstance::PJRT_Event_Destroy
2026-01-28 22:12:54.535 (   1.702s) [        66B35000]     device_instance.cc:82       1| DeviceInstance::PJRT_Device_DefaultMemory
2026-01-28 22:12:54.535 (   1.702s) [        66B35000]     client_instance.cc:735      1| ClientInstance::PJRT_Client_BufferFromHostBuffer
2026-01-28 22:12:54.535 (   1.702s) [        66B35000]     memory_instance.cc:57       1| MemoryInstance::getDevice
2026-01-28 22:12:54.535 (   1.702s) [        66B35000]      event_instance.cc:223      1| EventInstance::PJRT_Event_OnReady
2026-01-28 22:12:54.535 (   1.702s) [        66B35000]      event_instance.cc:172      1| EventInstance::PJRT_Event_Destroy
2026-01-28 22:12:54.535 (   1.702s) [        66B35000]  device_description.cc:63       1| DeviceDescription::PJRT_DeviceDescription_Id
2026-01-28 22:12:54.535 (   1.702s) [        66B35000]  device_description.cc:63       1| DeviceDescription::PJRT_DeviceDescription_Id
2026-01-28 22:12:54.536 (   1.703s) [        66B35000]     device_instance.cc:82       1| DeviceInstance::PJRT_Device_DefaultMemory
2026-01-28 22:12:54.536 (   1.703s) [        66B35000]     client_instance.cc:735      1| ClientInstance::PJRT_Client_BufferFromHostBuffer
2026-01-28 22:12:54.536 (   1.703s) [        66B35000]     memory_instance.cc:57       1| MemoryInstance::getDevice
2026-01-28 22:12:54.536 (   1.703s) [        66B35000]      event_instance.cc:223      1| EventInstance::PJRT_Event_OnReady
2026-01-28 22:12:54.536 (   1.703s) [        66B35000]      event_instance.cc:172      1| EventInstance::PJRT_Event_Destroy
2026-01-28 22:12:54.536 (   1.703s) [        66B35000]     device_instance.cc:82       1| DeviceInstance::PJRT_Device_DefaultMemory
2026-01-28 22:12:54.536 (   1.703s) [        66B35000]     client_instance.cc:735      1| ClientInstance::PJRT_Client_BufferFromHostBuffer
2026-01-28 22:12:54.536 (   1.703s) [        66B35000]     memory_instance.cc:57       1| MemoryInstance::getDevice
2026-01-28 22:12:54.536 (   1.703s) [        66B35000]      event_instance.cc:223      1| EventInstance::PJRT_Event_OnReady
2026-01-28 22:12:54.536 (   1.703s) [        66B35000]      event_instance.cc:172      1| EventInstance::PJRT_Event_Destroy
2026-01-28 22:12:54.536 (   1.703s) [        66B35000]  device_description.cc:63       1| DeviceDescription::PJRT_DeviceDescription_Id
2026-01-28 22:12:54.536 (   1.703s) [        66B35000]  device_description.cc:63       1| DeviceDescription::PJRT_DeviceDescription_Id
2026-01-28 22:12:54.537 (   1.703s) [        66B35000]     device_instance.cc:82       1| DeviceInstance::PJRT_Device_DefaultMemory
2026-01-28 22:12:54.537 (   1.703s) [        66B35000]     client_instance.cc:735      1| ClientInstance::PJRT_Client_BufferFromHostBuffer
2026-01-28 22:12:54.537 (   1.703s) [        66B35000]     memory_instance.cc:57       1| MemoryInstance::getDevice
2026-01-28 22:12:54.537 (   1.704s) [        66B35000]      event_instance.cc:223      1| EventInstance::PJRT_Event_OnReady
2026-01-28 22:12:54.537 (   1.704s) [        66B35000]      event_instance.cc:172      1| EventInstance::PJRT_Event_Destroy
2026-01-28 22:12:54.537 (   1.704s) [        66B35000]     device_instance.cc:82       1| DeviceInstance::PJRT_Device_DefaultMemory
2026-01-28 22:12:54.537 (   1.704s) [        66B35000]     client_instance.cc:735      1| ClientInstance::PJRT_Client_BufferFromHostBuffer
2026-01-28 22:12:54.537 (   1.704s) [        66B35000]     memory_instance.cc:57       1| MemoryInstance::getDevice
2026-01-28 22:12:54.537 (   1.704s) [        66B35000]      event_instance.cc:223      1| EventInstance::PJRT_Event_OnReady
2026-01-28 22:12:54.537 (   1.704s) [        66B35000]      event_instance.cc:172      1| EventInstance::PJRT_Event_Destroy
2026-01-28 22:12:54.537 (   1.704s) [        66B35000]  device_description.cc:63       1| DeviceDescription::PJRT_DeviceDescription_Id
2026-01-28 22:12:54.537 (   1.704s) [        66B35000]  device_description.cc:63       1| DeviceDescription::PJRT_DeviceDescription_Id
2026-01-28 22:12:54.538 (   1.704s) [        66B35000]     device_instance.cc:82       1| DeviceInstance::PJRT_Device_DefaultMemory
2026-01-28 22:12:54.538 (   1.704s) [        66B35000]     client_instance.cc:735      1| ClientInstance::PJRT_Client_BufferFromHostBuffer
2026-01-28 22:12:54.538 (   1.704s) [        66B35000]     memory_instance.cc:57       1| MemoryInstance::getDevice
2026-01-28 22:12:54.538 (   1.705s) [        66B35000]      event_instance.cc:223      1| EventInstance::PJRT_Event_OnReady
2026-01-28 22:12:54.538 (   1.705s) [        66B35000]      event_instance.cc:172      1| EventInstance::PJRT_Event_Destroy
2026-01-28 22:12:54.538 (   1.705s) [        66B35000]     device_instance.cc:82       1| DeviceInstance::PJRT_Device_DefaultMemory
2026-01-28 22:12:54.538 (   1.705s) [        66B35000]     client_instance.cc:735      1| ClientInstance::PJRT_Client_BufferFromHostBuffer
2026-01-28 22:12:54.538 (   1.705s) [        66B35000]     memory_instance.cc:57       1| MemoryInstance::getDevice
2026-01-28 22:12:54.538 (   1.705s) [        66B35000]      event_instance.cc:223      1| EventInstance::PJRT_Event_OnReady
2026-01-28 22:12:54.538 (   1.705s) [        66B35000]      event_instance.cc:172      1| EventInstance::PJRT_Event_Destroy
2026-01-28 22:12:54.538 (   1.705s) [        66B35000]  device_description.cc:63       1| DeviceDescription::PJRT_DeviceDescription_Id
2026-01-28 22:12:54.538 (   1.705s) [        66B35000]  device_description.cc:63       1| DeviceDescription::PJRT_DeviceDescription_Id
2026-01-28 22:12:54.539 (   1.706s) [        66B35000]     device_instance.cc:82       1| DeviceInstance::PJRT_Device_DefaultMemory
2026-01-28 22:12:54.539 (   1.706s) [        66B35000]     client_instance.cc:735      1| ClientInstance::PJRT_Client_BufferFromHostBuffer
2026-01-28 22:12:54.539 (   1.706s) [        66B35000]     memory_instance.cc:57       1| MemoryInstance::getDevice
2026-01-28 22:12:54.539 (   1.706s) [        66B35000]      event_instance.cc:223      1| EventInstance::PJRT_Event_OnReady
2026-01-28 22:12:54.539 (   1.706s) [        66B35000]      event_instance.cc:172      1| EventInstance::PJRT_Event_Destroy
2026-01-28 22:12:54.539 (   1.706s) [        66B35000]     device_instance.cc:82       1| DeviceInstance::PJRT_Device_DefaultMemory
2026-01-28 22:12:54.539 (   1.706s) [        66B35000]     client_instance.cc:735      1| ClientInstance::PJRT_Client_BufferFromHostBuffer
2026-01-28 22:12:54.539 (   1.706s) [        66B35000]     memory_instance.cc:57       1| MemoryInstance::getDevice
2026-01-28 22:12:54.539 (   1.706s) [        66B35000]      event_instance.cc:223      1| EventInstance::PJRT_Event_OnReady
2026-01-28 22:12:54.539 (   1.706s) [        66B35000]      event_instance.cc:172      1| EventInstance::PJRT_Event_Destroy
2026-01-28 22:12:54.540 (   1.706s) [        66B35000]  device_description.cc:63       1| DeviceDescription::PJRT_DeviceDescription_Id
2026-01-28 22:12:54.540 (   1.706s) [        66B35000]  device_description.cc:63       1| DeviceDescription::PJRT_DeviceDescription_Id
2026-01-28 22:12:54.540 (   1.707s) [        66B35000]     device_instance.cc:82       1| DeviceInstance::PJRT_Device_DefaultMemory
2026-01-28 22:12:54.540 (   1.707s) [        66B35000]     client_instance.cc:735      1| ClientInstance::PJRT_Client_BufferFromHostBuffer
2026-01-28 22:12:54.540 (   1.707s) [        66B35000]     memory_instance.cc:57       1| MemoryInstance::getDevice
2026-01-28 22:12:54.541 (   1.707s) [        66B35000]      event_instance.cc:223      1| EventInstance::PJRT_Event_OnReady
2026-01-28 22:12:54.541 (   1.707s) [        66B35000]      event_instance.cc:172      1| EventInstance::PJRT_Event_Destroy
2026-01-28 22:12:54.541 (   1.707s) [        66B35000]     device_instance.cc:82       1| DeviceInstance::PJRT_Device_DefaultMemory
2026-01-28 22:12:54.541 (   1.707s) [        66B35000]     client_instance.cc:735      1| ClientInstance::PJRT_Client_BufferFromHostBuffer
2026-01-28 22:12:54.541 (   1.707s) [        66B35000]     memory_instance.cc:57       1| MemoryInstance::getDevice
2026-01-28 22:12:54.541 (   1.707s) [        66B35000]      event_instance.cc:223      1| EventInstance::PJRT_Event_OnReady
2026-01-28 22:12:54.541 (   1.707s) [        66B35000]      event_instance.cc:172      1| EventInstance::PJRT_Event_Destroy
2026-01-28 22:12:54.541 (   1.707s) [        66B35000]  device_description.cc:63       1| DeviceDescription::PJRT_DeviceDescription_Id
2026-01-28 22:12:54.541 (   1.708s) [        66B35000]  device_description.cc:63       1| DeviceDescription::PJRT_DeviceDescription_Id
2026-01-28 22:12:54.541 (   1.708s) [        66B35000]     device_instance.cc:82       1| DeviceInstance::PJRT_Device_DefaultMemory
2026-01-28 22:12:54.541 (   1.708s) [        66B35000]     client_instance.cc:735      1| ClientInstance::PJRT_Client_BufferFromHostBuffer
2026-01-28 22:12:54.541 (   1.708s) [        66B35000]     memory_instance.cc:57       1| MemoryInstance::getDevice
2026-01-28 22:12:54.541 (   1.708s) [        66B35000]      event_instance.cc:223      1| EventInstance::PJRT_Event_OnReady
2026-01-28 22:12:54.541 (   1.708s) [        66B35000]      event_instance.cc:172      1| EventInstance::PJRT_Event_Destroy
2026-01-28 22:12:54.541 (   1.708s) [        66B35000]     device_instance.cc:82       1| DeviceInstance::PJRT_Device_DefaultMemory
2026-01-28 22:12:54.541 (   1.708s) [        66B35000]     client_instance.cc:735      1| ClientInstance::PJRT_Client_BufferFromHostBuffer
2026-01-28 22:12:54.541 (   1.708s) [        66B35000]     memory_instance.cc:57       1| MemoryInstance::getDevice
2026-01-28 22:12:54.542 (   1.708s) [        66B35000]      event_instance.cc:223      1| EventInstance::PJRT_Event_OnReady
2026-01-28 22:12:54.542 (   1.708s) [        66B35000]      event_instance.cc:172      1| EventInstance::PJRT_Event_Destroy
2026-01-28 22:12:54.542 (   1.708s) [        66B35000]  device_description.cc:63       1| DeviceDescription::PJRT_DeviceDescription_Id
2026-01-28 22:12:54.542 (   1.708s) [        66B35000]  device_description.cc:63       1| DeviceDescription::PJRT_DeviceDescription_Id
2026-01-28 22:12:54.542 (   1.709s) [        66B35000]     device_instance.cc:82       1| DeviceInstance::PJRT_Device_DefaultMemory
2026-01-28 22:12:54.542 (   1.709s) [        66B35000]     client_instance.cc:735      1| ClientInstance::PJRT_Client_BufferFromHostBuffer
2026-01-28 22:12:54.542 (   1.709s) [        66B35000]     memory_instance.cc:57       1| MemoryInstance::getDevice
2026-01-28 22:12:54.542 (   1.709s) [        66B35000]      event_instance.cc:223      1| EventInstance::PJRT_Event_OnReady
2026-01-28 22:12:54.542 (   1.709s) [        66B35000]      event_instance.cc:172      1| EventInstance::PJRT_Event_Destroy
2026-01-28 22:12:54.542 (   1.709s) [        66B35000]     device_instance.cc:82       1| DeviceInstance::PJRT_Device_DefaultMemory
2026-01-28 22:12:54.542 (   1.709s) [        66B35000]     client_instance.cc:735      1| ClientInstance::PJRT_Client_BufferFromHostBuffer
2026-01-28 22:12:54.542 (   1.709s) [        66B35000]     memory_instance.cc:57       1| MemoryInstance::getDevice
2026-01-28 22:12:54.543 (   1.709s) [        66B35000]      event_instance.cc:223      1| EventInstance::PJRT_Event_OnReady
2026-01-28 22:12:54.543 (   1.709s) [        66B35000]      event_instance.cc:172      1| EventInstance::PJRT_Event_Destroy
2026-01-28 22:12:54.543 (   1.709s) [        66B35000]  device_description.cc:63       1| DeviceDescription::PJRT_DeviceDescription_Id
2026-01-28 22:12:54.543 (   1.709s) [        66B35000]  device_description.cc:63       1| DeviceDescription::PJRT_DeviceDescription_Id
2026-01-28 22:12:54.543 (   1.710s) [        66B35000]     device_instance.cc:82       1| DeviceInstance::PJRT_Device_DefaultMemory
2026-01-28 22:12:54.543 (   1.710s) [        66B35000]     client_instance.cc:735      1| ClientInstance::PJRT_Client_BufferFromHostBuffer
2026-01-28 22:12:54.543 (   1.710s) [        66B35000]     memory_instance.cc:57       1| MemoryInstance::getDevice
2026-01-28 22:12:54.543 (   1.710s) [        66B35000]      event_instance.cc:223      1| EventInstance::PJRT_Event_OnReady
2026-01-28 22:12:54.543 (   1.710s) [        66B35000]      event_instance.cc:172      1| EventInstance::PJRT_Event_Destroy
2026-01-28 22:12:54.544 (   1.710s) [        66B35000]     device_instance.cc:82       1| DeviceInstance::PJRT_Device_DefaultMemory
2026-01-28 22:12:54.544 (   1.710s) [        66B35000]     client_instance.cc:735      1| ClientInstance::PJRT_Client_BufferFromHostBuffer
2026-01-28 22:12:54.544 (   1.710s) [        66B35000]     memory_instance.cc:57       1| MemoryInstance::getDevice
2026-01-28 22:12:54.544 (   1.710s) [        66B35000]      event_instance.cc:223      1| EventInstance::PJRT_Event_OnReady
2026-01-28 22:12:54.544 (   1.710s) [        66B35000]      event_instance.cc:172      1| EventInstance::PJRT_Event_Destroy
2026-01-28 22:12:54.544 (   1.711s) [        66B35000]  device_description.cc:63       1| DeviceDescription::PJRT_DeviceDescription_Id
2026-01-28 22:12:54.544 (   1.711s) [        66B35000]  device_description.cc:63       1| DeviceDescription::PJRT_DeviceDescription_Id
2026-01-28 22:12:54.544 (   1.711s) [        66B35000]     device_instance.cc:82       1| DeviceInstance::PJRT_Device_DefaultMemory
2026-01-28 22:12:54.544 (   1.711s) [        66B35000]     client_instance.cc:735      1| ClientInstance::PJRT_Client_BufferFromHostBuffer
2026-01-28 22:12:54.544 (   1.711s) [        66B35000]     memory_instance.cc:57       1| MemoryInstance::getDevice
2026-01-28 22:12:54.544 (   1.711s) [        66B35000]      event_instance.cc:223      1| EventInstance::PJRT_Event_OnReady
2026-01-28 22:12:54.544 (   1.711s) [        66B35000]      event_instance.cc:172      1| EventInstance::PJRT_Event_Destroy
2026-01-28 22:12:54.544 (   1.711s) [        66B35000]     device_instance.cc:82       1| DeviceInstance::PJRT_Device_DefaultMemory
2026-01-28 22:12:54.544 (   1.711s) [        66B35000]     client_instance.cc:735      1| ClientInstance::PJRT_Client_BufferFromHostBuffer
2026-01-28 22:12:54.544 (   1.711s) [        66B35000]     memory_instance.cc:57       1| MemoryInstance::getDevice
2026-01-28 22:12:54.545 (   1.711s) [        66B35000]      event_instance.cc:223      1| EventInstance::PJRT_Event_OnReady
2026-01-28 22:12:54.545 (   1.711s) [        66B35000]      event_instance.cc:172      1| EventInstance::PJRT_Event_Destroy
2026-01-28 22:12:54.545 (   1.711s) [        66B35000]  device_description.cc:63       1| DeviceDescription::PJRT_DeviceDescription_Id
2026-01-28 22:12:54.545 (   1.711s) [        66B35000]  device_description.cc:63       1| DeviceDescription::PJRT_DeviceDescription_Id
2026-01-28 22:12:54.545 (   1.712s) [        66B35000]     device_instance.cc:82       1| DeviceInstance::PJRT_Device_DefaultMemory
2026-01-28 22:12:54.545 (   1.712s) [        66B35000]     client_instance.cc:735      1| ClientInstance::PJRT_Client_BufferFromHostBuffer
2026-01-28 22:12:54.545 (   1.712s) [        66B35000]     memory_instance.cc:57       1| MemoryInstance::getDevice
2026-01-28 22:12:54.545 (   1.712s) [        66B35000]      event_instance.cc:223      1| EventInstance::PJRT_Event_OnReady
2026-01-28 22:12:54.545 (   1.712s) [        66B35000]      event_instance.cc:172      1| EventInstance::PJRT_Event_Destroy
2026-01-28 22:12:54.545 (   1.712s) [        66B35000]     device_instance.cc:82       1| DeviceInstance::PJRT_Device_DefaultMemory
2026-01-28 22:12:54.545 (   1.712s) [        66B35000]     client_instance.cc:735      1| ClientInstance::PJRT_Client_BufferFromHostBuffer
2026-01-28 22:12:54.545 (   1.712s) [        66B35000]     memory_instance.cc:57       1| MemoryInstance::getDevice
2026-01-28 22:12:54.545 (   1.712s) [        66B35000]      event_instance.cc:223      1| EventInstance::PJRT_Event_OnReady
2026-01-28 22:12:54.545 (   1.712s) [        66B35000]      event_instance.cc:172      1| EventInstance::PJRT_Event_Destroy
2026-01-28 22:12:54.545 (   1.712s) [        66B35000]  device_description.cc:63       1| DeviceDescription::PJRT_DeviceDescription_Id
2026-01-28 22:12:54.545 (   1.712s) [        66B35000]  device_description.cc:63       1| DeviceDescription::PJRT_DeviceDescription_Id
2026-01-28 22:12:54.546 (   1.713s) [        66B35000]     device_instance.cc:82       1| DeviceInstance::PJRT_Device_DefaultMemory
2026-01-28 22:12:54.546 (   1.713s) [        66B35000]     client_instance.cc:735      1| ClientInstance::PJRT_Client_BufferFromHostBuffer
2026-01-28 22:12:54.546 (   1.713s) [        66B35000]     memory_instance.cc:57       1| MemoryInstance::getDevice
2026-01-28 22:12:54.546 (   1.713s) [        66B35000]      event_instance.cc:223      1| EventInstance::PJRT_Event_OnReady
2026-01-28 22:12:54.546 (   1.713s) [        66B35000]      event_instance.cc:172      1| EventInstance::PJRT_Event_Destroy
2026-01-28 22:12:54.546 (   1.713s) [        66B35000]     device_instance.cc:82       1| DeviceInstance::PJRT_Device_DefaultMemory
2026-01-28 22:12:54.546 (   1.713s) [        66B35000]     client_instance.cc:735      1| ClientInstance::PJRT_Client_BufferFromHostBuffer
2026-01-28 22:12:54.546 (   1.713s) [        66B35000]     memory_instance.cc:57       1| MemoryInstance::getDevice
2026-01-28 22:12:54.546 (   1.713s) [        66B35000]      event_instance.cc:223      1| EventInstance::PJRT_Event_OnReady
2026-01-28 22:12:54.546 (   1.713s) [        66B35000]      event_instance.cc:172      1| EventInstance::PJRT_Event_Destroy
2026-01-28 22:12:54.546 (   1.713s) [        66B35000]  device_description.cc:63       1| DeviceDescription::PJRT_DeviceDescription_Id
2026-01-28 22:12:54.546 (   1.713s) [        66B35000]  device_description.cc:63       1| DeviceDescription::PJRT_DeviceDescription_Id
2026-01-28 22:12:54.547 (   1.714s) [        66B35000]     device_instance.cc:82       1| DeviceInstance::PJRT_Device_DefaultMemory
2026-01-28 22:12:54.547 (   1.714s) [        66B35000]     client_instance.cc:735      1| ClientInstance::PJRT_Client_BufferFromHostBuffer
2026-01-28 22:12:54.547 (   1.714s) [        66B35000]     memory_instance.cc:57       1| MemoryInstance::getDevice
2026-01-28 22:12:54.547 (   1.714s) [        66B35000]      event_instance.cc:223      1| EventInstance::PJRT_Event_OnReady
2026-01-28 22:12:54.548 (   1.714s) [        66B35000]      event_instance.cc:172      1| EventInstance::PJRT_Event_Destroy
2026-01-28 22:12:54.548 (   1.714s) [        66B35000]     device_instance.cc:82       1| DeviceInstance::PJRT_Device_DefaultMemory
2026-01-28 22:12:54.548 (   1.714s) [        66B35000]     client_instance.cc:735      1| ClientInstance::PJRT_Client_BufferFromHostBuffer
2026-01-28 22:12:54.548 (   1.714s) [        66B35000]     memory_instance.cc:57       1| MemoryInstance::getDevice
2026-01-28 22:12:54.548 (   1.714s) [        66B35000]      event_instance.cc:223      1| EventInstance::PJRT_Event_OnReady
2026-01-28 22:12:54.548 (   1.714s) [        66B35000]      event_instance.cc:172      1| EventInstance::PJRT_Event_Destroy
2026-01-28 22:12:54.548 (   1.714s) [        66B35000]  device_description.cc:63       1| DeviceDescription::PJRT_DeviceDescription_Id
2026-01-28 22:12:54.548 (   1.715s) [        66B35000]  device_description.cc:63       1| DeviceDescription::PJRT_DeviceDescription_Id
2026-01-28 22:12:54.548 (   1.715s) [        66B35000]     device_instance.cc:82       1| DeviceInstance::PJRT_Device_DefaultMemory
2026-01-28 22:12:54.548 (   1.715s) [        66B35000]     client_instance.cc:735      1| ClientInstance::PJRT_Client_BufferFromHostBuffer
2026-01-28 22:12:54.548 (   1.715s) [        66B35000]     memory_instance.cc:57       1| MemoryInstance::getDevice
2026-01-28 22:12:54.548 (   1.715s) [        66B35000]      event_instance.cc:223      1| EventInstance::PJRT_Event_OnReady
2026-01-28 22:12:54.549 (   1.715s) [        66B35000]      event_instance.cc:172      1| EventInstance::PJRT_Event_Destroy
2026-01-28 22:12:54.549 (   1.715s) [        66B35000]     device_instance.cc:82       1| DeviceInstance::PJRT_Device_DefaultMemory
2026-01-28 22:12:54.549 (   1.715s) [        66B35000]     client_instance.cc:735      1| ClientInstance::PJRT_Client_BufferFromHostBuffer
2026-01-28 22:12:54.549 (   1.715s) [        66B35000]     memory_instance.cc:57       1| MemoryInstance::getDevice
2026-01-28 22:12:54.549 (   1.715s) [        66B35000]      event_instance.cc:223      1| EventInstance::PJRT_Event_OnReady
2026-01-28 22:12:54.549 (   1.715s) [        66B35000]      event_instance.cc:172      1| EventInstance::PJRT_Event_Destroy
2026-01-28 22:12:54.549 (   1.715s) [        66B35000]  device_description.cc:63       1| DeviceDescription::PJRT_DeviceDescription_Id
2026-01-28 22:12:54.549 (   1.715s) [        66B35000]  device_description.cc:63       1| DeviceDescription::PJRT_DeviceDescription_Id
2026-01-28 22:12:54.549 (   1.716s) [        66B35000]     device_instance.cc:82       1| DeviceInstance::PJRT_Device_DefaultMemory
2026-01-28 22:12:54.549 (   1.716s) [        66B35000]     client_instance.cc:735      1| ClientInstance::PJRT_Client_BufferFromHostBuffer
2026-01-28 22:12:54.550 (   1.716s) [        66B35000]     memory_instance.cc:57       1| MemoryInstance::getDevice
2026-01-28 22:12:54.550 (   1.716s) [        66B35000]      event_instance.cc:223      1| EventInstance::PJRT_Event_OnReady
2026-01-28 22:12:54.550 (   1.716s) [        66B35000]      event_instance.cc:172      1| EventInstance::PJRT_Event_Destroy
2026-01-28 22:12:54.550 (   1.716s) [        66B35000]     device_instance.cc:82       1| DeviceInstance::PJRT_Device_DefaultMemory
2026-01-28 22:12:54.550 (   1.716s) [        66B35000]     client_instance.cc:735      1| ClientInstance::PJRT_Client_BufferFromHostBuffer
2026-01-28 22:12:54.550 (   1.716s) [        66B35000]     memory_instance.cc:57       1| MemoryInstance::getDevice
2026-01-28 22:12:54.550 (   1.717s) [        66B35000]      event_instance.cc:223      1| EventInstance::PJRT_Event_OnReady
2026-01-28 22:12:54.550 (   1.717s) [        66B35000]      event_instance.cc:172      1| EventInstance::PJRT_Event_Destroy
2026-01-28 22:12:54.550 (   1.717s) [        66B35000]  device_description.cc:63       1| DeviceDescription::PJRT_DeviceDescription_Id
2026-01-28 22:12:54.550 (   1.717s) [        66B35000]  device_description.cc:63       1| DeviceDescription::PJRT_DeviceDescription_Id
2026-01-28 22:12:54.551 (   1.717s) [        66B35000]     device_instance.cc:82       1| DeviceInstance::PJRT_Device_DefaultMemory
2026-01-28 22:12:54.551 (   1.717s) [        66B35000]     client_instance.cc:735      1| ClientInstance::PJRT_Client_BufferFromHostBuffer
2026-01-28 22:12:54.551 (   1.717s) [        66B35000]     memory_instance.cc:57       1| MemoryInstance::getDevice
2026-01-28 22:12:54.551 (   1.717s) [        66B35000]      event_instance.cc:223      1| EventInstance::PJRT_Event_OnReady
2026-01-28 22:12:54.551 (   1.717s) [        66B35000]      event_instance.cc:172      1| EventInstance::PJRT_Event_Destroy
2026-01-28 22:12:54.551 (   1.717s) [        66B35000]     device_instance.cc:82       1| DeviceInstance::PJRT_Device_DefaultMemory
2026-01-28 22:12:54.551 (   1.717s) [        66B35000]     client_instance.cc:735      1| ClientInstance::PJRT_Client_BufferFromHostBuffer
2026-01-28 22:12:54.551 (   1.717s) [        66B35000]     memory_instance.cc:57       1| MemoryInstance::getDevice
2026-01-28 22:12:54.551 (   1.718s) [        66B35000]      event_instance.cc:223      1| EventInstance::PJRT_Event_OnReady
2026-01-28 22:12:54.551 (   1.718s) [        66B35000]      event_instance.cc:172      1| EventInstance::PJRT_Event_Destroy
2026-01-28 22:12:54.551 (   1.718s) [        66B35000]  device_description.cc:63       1| DeviceDescription::PJRT_DeviceDescription_Id
2026-01-28 22:12:54.551 (   1.718s) [        66B35000]  device_description.cc:63       1| DeviceDescription::PJRT_DeviceDescription_Id
2026-01-28 22:12:54.551 (   1.718s) [        66B35000]     device_instance.cc:82       1| DeviceInstance::PJRT_Device_DefaultMemory
2026-01-28 22:12:54.551 (   1.718s) [        66B35000]     client_instance.cc:735      1| ClientInstance::PJRT_Client_BufferFromHostBuffer
2026-01-28 22:12:54.551 (   1.718s) [        66B35000]     memory_instance.cc:57       1| MemoryInstance::getDevice
2026-01-28 22:12:54.551 (   1.718s) [        66B35000]      event_instance.cc:223      1| EventInstance::PJRT_Event_OnReady
2026-01-28 22:12:54.551 (   1.718s) [        66B35000]      event_instance.cc:172      1| EventInstance::PJRT_Event_Destroy
2026-01-28 22:12:54.551 (   1.718s) [        66B35000]     device_instance.cc:82       1| DeviceInstance::PJRT_Device_DefaultMemory
2026-01-28 22:12:54.552 (   1.718s) [        66B35000]     client_instance.cc:735      1| ClientInstance::PJRT_Client_BufferFromHostBuffer
2026-01-28 22:12:54.552 (   1.718s) [        66B35000]     memory_instance.cc:57       1| MemoryInstance::getDevice
2026-01-28 22:12:54.552 (   1.718s) [        66B35000]      event_instance.cc:223      1| EventInstance::PJRT_Event_OnReady
2026-01-28 22:12:54.552 (   1.718s) [        66B35000]      event_instance.cc:172      1| EventInstance::PJRT_Event_Destroy
2026-01-28 22:12:54.552 (   1.718s) [        66B35000]  device_description.cc:63       1| DeviceDescription::PJRT_DeviceDescription_Id
2026-01-28 22:12:54.552 (   1.718s) [        66B35000]  device_description.cc:63       1| DeviceDescription::PJRT_DeviceDescription_Id
2026-01-28 22:12:54.552 (   1.719s) [        66B35000]     device_instance.cc:82       1| DeviceInstance::PJRT_Device_DefaultMemory
2026-01-28 22:12:54.552 (   1.719s) [        66B35000]     client_instance.cc:735      1| ClientInstance::PJRT_Client_BufferFromHostBuffer
2026-01-28 22:12:54.552 (   1.719s) [        66B35000]     memory_instance.cc:57       1| MemoryInstance::getDevice
2026-01-28 22:12:54.552 (   1.719s) [        66B35000]      event_instance.cc:223      1| EventInstance::PJRT_Event_OnReady
2026-01-28 22:12:54.552 (   1.719s) [        66B35000]      event_instance.cc:172      1| EventInstance::PJRT_Event_Destroy
2026-01-28 22:12:54.552 (   1.719s) [        66B35000]     device_instance.cc:82       1| DeviceInstance::PJRT_Device_DefaultMemory
2026-01-28 22:12:54.552 (   1.719s) [        66B35000]     client_instance.cc:735      1| ClientInstance::PJRT_Client_BufferFromHostBuffer
2026-01-28 22:12:54.552 (   1.719s) [        66B35000]     memory_instance.cc:57       1| MemoryInstance::getDevice
2026-01-28 22:12:54.552 (   1.719s) [        66B35000]      event_instance.cc:223      1| EventInstance::PJRT_Event_OnReady
2026-01-28 22:12:54.552 (   1.719s) [        66B35000]      event_instance.cc:172      1| EventInstance::PJRT_Event_Destroy
2026-01-28 22:12:54.553 (   1.719s) [        66B35000]  device_description.cc:63       1| DeviceDescription::PJRT_DeviceDescription_Id
2026-01-28 22:12:54.553 (   1.719s) [        66B35000]  device_description.cc:63       1| DeviceDescription::PJRT_DeviceDescription_Id
2026-01-28 22:12:54.553 (   1.720s) [        66B35000]     device_instance.cc:82       1| DeviceInstance::PJRT_Device_DefaultMemory
2026-01-28 22:12:54.553 (   1.720s) [        66B35000]     client_instance.cc:735      1| ClientInstance::PJRT_Client_BufferFromHostBuffer
2026-01-28 22:12:54.553 (   1.720s) [        66B35000]     memory_instance.cc:57       1| MemoryInstance::getDevice
2026-01-28 22:12:54.553 (   1.720s) [        66B35000]      event_instance.cc:223      1| EventInstance::PJRT_Event_OnReady
2026-01-28 22:12:54.553 (   1.720s) [        66B35000]      event_instance.cc:172      1| EventInstance::PJRT_Event_Destroy
2026-01-28 22:12:54.553 (   1.720s) [        66B35000]     device_instance.cc:82       1| DeviceInstance::PJRT_Device_DefaultMemory
2026-01-28 22:12:54.553 (   1.720s) [        66B35000]     client_instance.cc:735      1| ClientInstance::PJRT_Client_BufferFromHostBuffer
2026-01-28 22:12:54.553 (   1.720s) [        66B35000]     memory_instance.cc:57       1| MemoryInstance::getDevice
2026-01-28 22:12:54.553 (   1.720s) [        66B35000]      event_instance.cc:223      1| EventInstance::PJRT_Event_OnReady
2026-01-28 22:12:54.553 (   1.720s) [        66B35000]      event_instance.cc:172      1| EventInstance::PJRT_Event_Destroy
2026-01-28 22:12:54.553 (   1.720s) [        66B35000]  device_description.cc:63       1| DeviceDescription::PJRT_DeviceDescription_Id
2026-01-28 22:12:54.554 (   1.720s) [        66B35000]  device_description.cc:63       1| DeviceDescription::PJRT_DeviceDescription_Id
2026-01-28 22:12:54.554 (   1.721s) [        66B35000]     device_instance.cc:82       1| DeviceInstance::PJRT_Device_DefaultMemory
2026-01-28 22:12:54.554 (   1.721s) [        66B35000]     client_instance.cc:735      1| ClientInstance::PJRT_Client_BufferFromHostBuffer
2026-01-28 22:12:54.554 (   1.721s) [        66B35000]     memory_instance.cc:57       1| MemoryInstance::getDevice
2026-01-28 22:12:54.554 (   1.721s) [        66B35000]      event_instance.cc:223      1| EventInstance::PJRT_Event_OnReady
2026-01-28 22:12:54.555 (   1.721s) [        66B35000]      event_instance.cc:172      1| EventInstance::PJRT_Event_Destroy
2026-01-28 22:12:54.555 (   1.721s) [        66B35000]     device_instance.cc:82       1| DeviceInstance::PJRT_Device_DefaultMemory
2026-01-28 22:12:54.555 (   1.721s) [        66B35000]     client_instance.cc:735      1| ClientInstance::PJRT_Client_BufferFromHostBuffer
2026-01-28 22:12:54.555 (   1.721s) [        66B35000]     memory_instance.cc:57       1| MemoryInstance::getDevice
2026-01-28 22:12:54.555 (   1.722s) [        66B35000]      event_instance.cc:223      1| EventInstance::PJRT_Event_OnReady
2026-01-28 22:12:54.555 (   1.722s) [        66B35000]      event_instance.cc:172      1| EventInstance::PJRT_Event_Destroy
2026-01-28 22:12:54.555 (   1.722s) [        66B35000]  device_description.cc:63       1| DeviceDescription::PJRT_DeviceDescription_Id
2026-01-28 22:12:54.555 (   1.722s) [        66B35000]  device_description.cc:63       1| DeviceDescription::PJRT_DeviceDescription_Id
2026-01-28 22:12:54.556 (   1.722s) [        66B35000]     device_instance.cc:82       1| DeviceInstance::PJRT_Device_DefaultMemory
2026-01-28 22:12:54.556 (   1.722s) [        66B35000]     client_instance.cc:735      1| ClientInstance::PJRT_Client_BufferFromHostBuffer
2026-01-28 22:12:54.556 (   1.722s) [        66B35000]     memory_instance.cc:57       1| MemoryInstance::getDevice
2026-01-28 22:12:54.556 (   1.723s) [        66B35000]      event_instance.cc:223      1| EventInstance::PJRT_Event_OnReady
2026-01-28 22:12:54.556 (   1.723s) [        66B35000]      event_instance.cc:172      1| EventInstance::PJRT_Event_Destroy
2026-01-28 22:12:54.556 (   1.723s) [        66B35000]     device_instance.cc:82       1| DeviceInstance::PJRT_Device_DefaultMemory
2026-01-28 22:12:54.556 (   1.723s) [        66B35000]     client_instance.cc:735      1| ClientInstance::PJRT_Client_BufferFromHostBuffer
2026-01-28 22:12:54.556 (   1.723s) [        66B35000]     memory_instance.cc:57       1| MemoryInstance::getDevice
2026-01-28 22:12:54.556 (   1.723s) [        66B35000]      event_instance.cc:223      1| EventInstance::PJRT_Event_OnReady
2026-01-28 22:12:54.556 (   1.723s) [        66B35000]      event_instance.cc:172      1| EventInstance::PJRT_Event_Destroy
2026-01-28 22:12:54.556 (   1.723s) [        66B35000]  device_description.cc:63       1| DeviceDescription::PJRT_DeviceDescription_Id
2026-01-28 22:12:54.556 (   1.723s) [        66B35000]  device_description.cc:63       1| DeviceDescription::PJRT_DeviceDescription_Id
2026-01-28 22:12:54.557 (   1.724s) [        66B35000]     device_instance.cc:82       1| DeviceInstance::PJRT_Device_DefaultMemory
2026-01-28 22:12:54.557 (   1.724s) [        66B35000]     client_instance.cc:735      1| ClientInstance::PJRT_Client_BufferFromHostBuffer
2026-01-28 22:12:54.557 (   1.724s) [        66B35000]     memory_instance.cc:57       1| MemoryInstance::getDevice
2026-01-28 22:12:54.557 (   1.724s) [        66B35000]      event_instance.cc:223      1| EventInstance::PJRT_Event_OnReady
2026-01-28 22:12:54.557 (   1.724s) [        66B35000]      event_instance.cc:172      1| EventInstance::PJRT_Event_Destroy
2026-01-28 22:12:54.557 (   1.724s) [        66B35000]     device_instance.cc:82       1| DeviceInstance::PJRT_Device_DefaultMemory
2026-01-28 22:12:54.557 (   1.724s) [        66B35000]     client_instance.cc:735      1| ClientInstance::PJRT_Client_BufferFromHostBuffer
2026-01-28 22:12:54.557 (   1.724s) [        66B35000]     memory_instance.cc:57       1| MemoryInstance::getDevice
2026-01-28 22:12:54.557 (   1.724s) [        66B35000]      event_instance.cc:223      1| EventInstance::PJRT_Event_OnReady
2026-01-28 22:12:54.557 (   1.724s) [        66B35000]      event_instance.cc:172      1| EventInstance::PJRT_Event_Destroy
2026-01-28 22:12:54.558 (   1.724s) [        66B35000]  device_description.cc:63       1| DeviceDescription::PJRT_DeviceDescription_Id
2026-01-28 22:12:54.558 (   1.724s) [        66B35000]  device_description.cc:63       1| DeviceDescription::PJRT_DeviceDescription_Id
2026-01-28 22:12:54.558 (   1.725s) [        66B35000]     device_instance.cc:82       1| DeviceInstance::PJRT_Device_DefaultMemory
2026-01-28 22:12:54.558 (   1.725s) [        66B35000]     client_instance.cc:735      1| ClientInstance::PJRT_Client_BufferFromHostBuffer
2026-01-28 22:12:54.558 (   1.725s) [        66B35000]     memory_instance.cc:57       1| MemoryInstance::getDevice
2026-01-28 22:12:54.558 (   1.725s) [        66B35000]      event_instance.cc:223      1| EventInstance::PJRT_Event_OnReady
2026-01-28 22:12:54.558 (   1.725s) [        66B35000]      event_instance.cc:172      1| EventInstance::PJRT_Event_Destroy
2026-01-28 22:12:54.558 (   1.725s) [        66B35000]     device_instance.cc:82       1| DeviceInstance::PJRT_Device_DefaultMemory
2026-01-28 22:12:54.558 (   1.725s) [        66B35000]     client_instance.cc:735      1| ClientInstance::PJRT_Client_BufferFromHostBuffer
2026-01-28 22:12:54.558 (   1.725s) [        66B35000]     memory_instance.cc:57       1| MemoryInstance::getDevice
2026-01-28 22:12:54.558 (   1.725s) [        66B35000]      event_instance.cc:223      1| EventInstance::PJRT_Event_OnReady
2026-01-28 22:12:54.558 (   1.725s) [        66B35000]      event_instance.cc:172      1| EventInstance::PJRT_Event_Destroy
2026-01-28 22:12:54.559 (   1.725s) [        66B35000]  device_description.cc:63       1| DeviceDescription::PJRT_DeviceDescription_Id
2026-01-28 22:12:54.559 (   1.725s) [        66B35000]  device_description.cc:63       1| DeviceDescription::PJRT_DeviceDescription_Id
2026-01-28 22:12:54.559 (   1.725s) [        66B35000]     device_instance.cc:82       1| DeviceInstance::PJRT_Device_DefaultMemory
2026-01-28 22:12:54.559 (   1.725s) [        66B35000]     client_instance.cc:735      1| ClientInstance::PJRT_Client_BufferFromHostBuffer
2026-01-28 22:12:54.559 (   1.725s) [        66B35000]     memory_instance.cc:57       1| MemoryInstance::getDevice
2026-01-28 22:12:54.559 (   1.726s) [        66B35000]      event_instance.cc:223      1| EventInstance::PJRT_Event_OnReady
2026-01-28 22:12:54.559 (   1.726s) [        66B35000]      event_instance.cc:172      1| EventInstance::PJRT_Event_Destroy
2026-01-28 22:12:54.559 (   1.726s) [        66B35000]     device_instance.cc:82       1| DeviceInstance::PJRT_Device_DefaultMemory
2026-01-28 22:12:54.559 (   1.726s) [        66B35000]     client_instance.cc:735      1| ClientInstance::PJRT_Client_BufferFromHostBuffer
2026-01-28 22:12:54.559 (   1.726s) [        66B35000]     memory_instance.cc:57       1| MemoryInstance::getDevice
2026-01-28 22:12:54.559 (   1.726s) [        66B35000]      event_instance.cc:223      1| EventInstance::PJRT_Event_OnReady
2026-01-28 22:12:54.559 (   1.726s) [        66B35000]      event_instance.cc:172      1| EventInstance::PJRT_Event_Destroy
2026-01-28 22:12:54.559 (   1.726s) [        66B35000]  device_description.cc:63       1| DeviceDescription::PJRT_DeviceDescription_Id
2026-01-28 22:12:54.559 (   1.726s) [        66B35000]  device_description.cc:63       1| DeviceDescription::PJRT_DeviceDescription_Id
2026-01-28 22:12:54.560 (   1.726s) [        66B35000]     device_instance.cc:82       1| DeviceInstance::PJRT_Device_DefaultMemory
2026-01-28 22:12:54.560 (   1.726s) [        66B35000]     client_instance.cc:735      1| ClientInstance::PJRT_Client_BufferFromHostBuffer
2026-01-28 22:12:54.560 (   1.726s) [        66B35000]     memory_instance.cc:57       1| MemoryInstance::getDevice
2026-01-28 22:12:54.560 (   1.726s) [        66B35000]      event_instance.cc:223      1| EventInstance::PJRT_Event_OnReady
2026-01-28 22:12:54.560 (   1.726s) [        66B35000]      event_instance.cc:172      1| EventInstance::PJRT_Event_Destroy
2026-01-28 22:12:54.560 (   1.726s) [        66B35000]     device_instance.cc:82       1| DeviceInstance::PJRT_Device_DefaultMemory
2026-01-28 22:12:54.560 (   1.726s) [        66B35000]     client_instance.cc:735      1| ClientInstance::PJRT_Client_BufferFromHostBuffer
2026-01-28 22:12:54.560 (   1.726s) [        66B35000]     memory_instance.cc:57       1| MemoryInstance::getDevice
2026-01-28 22:12:54.560 (   1.727s) [        66B35000]      event_instance.cc:223      1| EventInstance::PJRT_Event_OnReady
2026-01-28 22:12:54.560 (   1.727s) [        66B35000]      event_instance.cc:172      1| EventInstance::PJRT_Event_Destroy
2026-01-28 22:12:54.560 (   1.727s) [        66B35000]  device_description.cc:63       1| DeviceDescription::PJRT_DeviceDescription_Id
2026-01-28 22:12:54.560 (   1.727s) [        66B35000]  device_description.cc:63       1| DeviceDescription::PJRT_DeviceDescription_Id
2026-01-28 22:12:54.561 (   1.727s) [        66B35000]     device_instance.cc:82       1| DeviceInstance::PJRT_Device_DefaultMemory
2026-01-28 22:12:54.561 (   1.727s) [        66B35000]     client_instance.cc:735      1| ClientInstance::PJRT_Client_BufferFromHostBuffer
2026-01-28 22:12:54.561 (   1.727s) [        66B35000]     memory_instance.cc:57       1| MemoryInstance::getDevice
2026-01-28 22:12:54.561 (   1.727s) [        66B35000]      event_instance.cc:223      1| EventInstance::PJRT_Event_OnReady
2026-01-28 22:12:54.561 (   1.727s) [        66B35000]      event_instance.cc:172      1| EventInstance::PJRT_Event_Destroy
2026-01-28 22:12:54.561 (   1.727s) [        66B35000]     device_instance.cc:82       1| DeviceInstance::PJRT_Device_DefaultMemory
2026-01-28 22:12:54.561 (   1.727s) [        66B35000]     client_instance.cc:735      1| ClientInstance::PJRT_Client_BufferFromHostBuffer
2026-01-28 22:12:54.561 (   1.727s) [        66B35000]     memory_instance.cc:57       1| MemoryInstance::getDevice
2026-01-28 22:12:54.561 (   1.728s) [        66B35000]      event_instance.cc:223      1| EventInstance::PJRT_Event_OnReady
2026-01-28 22:12:54.561 (   1.728s) [        66B35000]      event_instance.cc:172      1| EventInstance::PJRT_Event_Destroy
2026-01-28 22:12:54.561 (   1.728s) [        66B35000]  device_description.cc:63       1| DeviceDescription::PJRT_DeviceDescription_Id
2026-01-28 22:12:54.561 (   1.728s) [        66B35000]  device_description.cc:63       1| DeviceDescription::PJRT_DeviceDescription_Id
2026-01-28 22:12:54.562 (   1.728s) [        66B35000]     device_instance.cc:82       1| DeviceInstance::PJRT_Device_DefaultMemory
2026-01-28 22:12:54.562 (   1.728s) [        66B35000]     client_instance.cc:735      1| ClientInstance::PJRT_Client_BufferFromHostBuffer
2026-01-28 22:12:54.562 (   1.728s) [        66B35000]     memory_instance.cc:57       1| MemoryInstance::getDevice
2026-01-28 22:12:54.562 (   1.728s) [        66B35000]      event_instance.cc:223      1| EventInstance::PJRT_Event_OnReady
2026-01-28 22:12:54.562 (   1.728s) [        66B35000]      event_instance.cc:172      1| EventInstance::PJRT_Event_Destroy
2026-01-28 22:12:54.562 (   1.728s) [        66B35000]     device_instance.cc:82       1| DeviceInstance::PJRT_Device_DefaultMemory
2026-01-28 22:12:54.562 (   1.728s) [        66B35000]     client_instance.cc:735      1| ClientInstance::PJRT_Client_BufferFromHostBuffer
2026-01-28 22:12:54.562 (   1.728s) [        66B35000]     memory_instance.cc:57       1| MemoryInstance::getDevice
2026-01-28 22:12:54.562 (   1.729s) [        66B35000]      event_instance.cc:223      1| EventInstance::PJRT_Event_OnReady
2026-01-28 22:12:54.562 (   1.729s) [        66B35000]      event_instance.cc:172      1| EventInstance::PJRT_Event_Destroy
2026-01-28 22:12:54.562 (   1.729s) [        66B35000]  device_description.cc:63       1| DeviceDescription::PJRT_DeviceDescription_Id
2026-01-28 22:12:54.562 (   1.729s) [        66B35000]  device_description.cc:63       1| DeviceDescription::PJRT_DeviceDescription_Id
2026-01-28 22:12:54.563 (   1.729s) [        66B35000]     device_instance.cc:82       1| DeviceInstance::PJRT_Device_DefaultMemory
2026-01-28 22:12:54.563 (   1.729s) [        66B35000]     client_instance.cc:735      1| ClientInstance::PJRT_Client_BufferFromHostBuffer
2026-01-28 22:12:54.563 (   1.729s) [        66B35000]     memory_instance.cc:57       1| MemoryInstance::getDevice
2026-01-28 22:12:54.563 (   1.729s) [        66B35000]      event_instance.cc:223      1| EventInstance::PJRT_Event_OnReady
2026-01-28 22:12:54.563 (   1.729s) [        66B35000]      event_instance.cc:172      1| EventInstance::PJRT_Event_Destroy
2026-01-28 22:12:54.563 (   1.729s) [        66B35000]     device_instance.cc:82       1| DeviceInstance::PJRT_Device_DefaultMemory
2026-01-28 22:12:54.563 (   1.729s) [        66B35000]     client_instance.cc:735      1| ClientInstance::PJRT_Client_BufferFromHostBuffer
2026-01-28 22:12:54.563 (   1.729s) [        66B35000]     memory_instance.cc:57       1| MemoryInstance::getDevice
2026-01-28 22:12:54.563 (   1.730s) [        66B35000]      event_instance.cc:223      1| EventInstance::PJRT_Event_OnReady
2026-01-28 22:12:54.563 (   1.730s) [        66B35000]      event_instance.cc:172      1| EventInstance::PJRT_Event_Destroy
2026-01-28 22:12:54.563 (   1.730s) [        66B35000]  device_description.cc:63       1| DeviceDescription::PJRT_DeviceDescription_Id
2026-01-28 22:12:54.563 (   1.730s) [        66B35000]  device_description.cc:63       1| DeviceDescription::PJRT_DeviceDescription_Id
2026-01-28 22:12:54.564 (   1.730s) [        66B35000]     device_instance.cc:82       1| DeviceInstance::PJRT_Device_DefaultMemory
2026-01-28 22:12:54.564 (   1.730s) [        66B35000]     client_instance.cc:735      1| ClientInstance::PJRT_Client_BufferFromHostBuffer
2026-01-28 22:12:54.564 (   1.730s) [        66B35000]     memory_instance.cc:57       1| MemoryInstance::getDevice
2026-01-28 22:12:54.564 (   1.731s) [        66B35000]      event_instance.cc:223      1| EventInstance::PJRT_Event_OnReady
2026-01-28 22:12:54.564 (   1.731s) [        66B35000]      event_instance.cc:172      1| EventInstance::PJRT_Event_Destroy
2026-01-28 22:12:54.564 (   1.731s) [        66B35000]     device_instance.cc:82       1| DeviceInstance::PJRT_Device_DefaultMemory
2026-01-28 22:12:54.564 (   1.731s) [        66B35000]     client_instance.cc:735      1| ClientInstance::PJRT_Client_BufferFromHostBuffer
2026-01-28 22:12:54.564 (   1.731s) [        66B35000]     memory_instance.cc:57       1| MemoryInstance::getDevice
2026-01-28 22:12:54.564 (   1.731s) [        66B35000]      event_instance.cc:223      1| EventInstance::PJRT_Event_OnReady
2026-01-28 22:12:54.564 (   1.731s) [        66B35000]      event_instance.cc:172      1| EventInstance::PJRT_Event_Destroy
2026-01-28 22:12:54.564 (   1.731s) [        66B35000]  device_description.cc:63       1| DeviceDescription::PJRT_DeviceDescription_Id
2026-01-28 22:12:54.564 (   1.731s) [        66B35000]  device_description.cc:63       1| DeviceDescription::PJRT_DeviceDescription_Id
2026-01-28 22:12:54.565 (   1.731s) [        66B35000]     device_instance.cc:82       1| DeviceInstance::PJRT_Device_DefaultMemory
2026-01-28 22:12:54.565 (   1.731s) [        66B35000]     client_instance.cc:735      1| ClientInstance::PJRT_Client_BufferFromHostBuffer
2026-01-28 22:12:54.565 (   1.731s) [        66B35000]     memory_instance.cc:57       1| MemoryInstance::getDevice
2026-01-28 22:12:54.565 (   1.731s) [        66B35000]      event_instance.cc:223      1| EventInstance::PJRT_Event_OnReady
2026-01-28 22:12:54.565 (   1.732s) [        66B35000]      event_instance.cc:172      1| EventInstance::PJRT_Event_Destroy
2026-01-28 22:12:54.565 (   1.732s) [        66B35000]     device_instance.cc:82       1| DeviceInstance::PJRT_Device_DefaultMemory
2026-01-28 22:12:54.565 (   1.732s) [        66B35000]     client_instance.cc:735      1| ClientInstance::PJRT_Client_BufferFromHostBuffer
2026-01-28 22:12:54.565 (   1.732s) [        66B35000]     memory_instance.cc:57       1| MemoryInstance::getDevice
2026-01-28 22:12:54.565 (   1.732s) [        66B35000]      event_instance.cc:223      1| EventInstance::PJRT_Event_OnReady
2026-01-28 22:12:54.565 (   1.732s) [        66B35000]      event_instance.cc:172      1| EventInstance::PJRT_Event_Destroy
2026-01-28 22:12:54.565 (   1.732s) [        66B35000]  device_description.cc:63       1| DeviceDescription::PJRT_DeviceDescription_Id
2026-01-28 22:12:54.565 (   1.732s) [        66B35000]  device_description.cc:63       1| DeviceDescription::PJRT_DeviceDescription_Id
2026-01-28 22:12:54.565 (   1.732s) [        66B35000]     device_instance.cc:82       1| DeviceInstance::PJRT_Device_DefaultMemory
2026-01-28 22:12:54.565 (   1.732s) [        66B35000]     client_instance.cc:735      1| ClientInstance::PJRT_Client_BufferFromHostBuffer
2026-01-28 22:12:54.565 (   1.732s) [        66B35000]     memory_instance.cc:57       1| MemoryInstance::getDevice
2026-01-28 22:12:54.566 (   1.732s) [        66B35000]      event_instance.cc:223      1| EventInstance::PJRT_Event_OnReady
2026-01-28 22:12:54.566 (   1.732s) [        66B35000]      event_instance.cc:172      1| EventInstance::PJRT_Event_Destroy
2026-01-28 22:12:54.566 (   1.732s) [        66B35000]     device_instance.cc:82       1| DeviceInstance::PJRT_Device_DefaultMemory
2026-01-28 22:12:54.566 (   1.732s) [        66B35000]     client_instance.cc:735      1| ClientInstance::PJRT_Client_BufferFromHostBuffer
2026-01-28 22:12:54.566 (   1.732s) [        66B35000]     memory_instance.cc:57       1| MemoryInstance::getDevice
2026-01-28 22:12:54.566 (   1.732s) [        66B35000]      event_instance.cc:223      1| EventInstance::PJRT_Event_OnReady
2026-01-28 22:12:54.566 (   1.732s) [        66B35000]      event_instance.cc:172      1| EventInstance::PJRT_Event_Destroy
2026-01-28 22:12:54.566 (   1.733s) [        66B35000]  device_description.cc:63       1| DeviceDescription::PJRT_DeviceDescription_Id
2026-01-28 22:12:54.566 (   1.733s) [        66B35000]  device_description.cc:63       1| DeviceDescription::PJRT_DeviceDescription_Id
2026-01-28 22:12:54.566 (   1.733s) [        66B35000]     device_instance.cc:82       1| DeviceInstance::PJRT_Device_DefaultMemory
2026-01-28 22:12:54.566 (   1.733s) [        66B35000]     client_instance.cc:735      1| ClientInstance::PJRT_Client_BufferFromHostBuffer
2026-01-28 22:12:54.566 (   1.733s) [        66B35000]     memory_instance.cc:57       1| MemoryInstance::getDevice
2026-01-28 22:12:54.566 (   1.733s) [        66B35000]      event_instance.cc:223      1| EventInstance::PJRT_Event_OnReady
2026-01-28 22:12:54.566 (   1.733s) [        66B35000]      event_instance.cc:172      1| EventInstance::PJRT_Event_Destroy
2026-01-28 22:12:54.566 (   1.733s) [        66B35000]     device_instance.cc:82       1| DeviceInstance::PJRT_Device_DefaultMemory
2026-01-28 22:12:54.566 (   1.733s) [        66B35000]     client_instance.cc:735      1| ClientInstance::PJRT_Client_BufferFromHostBuffer
2026-01-28 22:12:54.566 (   1.733s) [        66B35000]     memory_instance.cc:57       1| MemoryInstance::getDevice
2026-01-28 22:12:54.566 (   1.733s) [        66B35000]      event_instance.cc:223      1| EventInstance::PJRT_Event_OnReady
2026-01-28 22:12:54.567 (   1.733s) [        66B35000]      event_instance.cc:172      1| EventInstance::PJRT_Event_Destroy
2026-01-28 22:12:54.567 (   1.733s) [        66B35000]  device_description.cc:63       1| DeviceDescription::PJRT_DeviceDescription_Id
2026-01-28 22:12:54.567 (   1.734s) [        66B35000]  device_description.cc:63       1| DeviceDescription::PJRT_DeviceDescription_Id
2026-01-28 22:12:54.567 (   1.734s) [        66B35000]     device_instance.cc:82       1| DeviceInstance::PJRT_Device_DefaultMemory
2026-01-28 22:12:54.567 (   1.734s) [        66B35000]     client_instance.cc:735      1| ClientInstance::PJRT_Client_BufferFromHostBuffer
2026-01-28 22:12:54.567 (   1.734s) [        66B35000]     memory_instance.cc:57       1| MemoryInstance::getDevice
2026-01-28 22:12:54.568 (   1.734s) [        66B35000]      event_instance.cc:223      1| EventInstance::PJRT_Event_OnReady
2026-01-28 22:12:54.568 (   1.734s) [        66B35000]      event_instance.cc:172      1| EventInstance::PJRT_Event_Destroy
2026-01-28 22:12:54.568 (   1.734s) [        66B35000]     device_instance.cc:82       1| DeviceInstance::PJRT_Device_DefaultMemory
2026-01-28 22:12:54.568 (   1.734s) [        66B35000]     client_instance.cc:735      1| ClientInstance::PJRT_Client_BufferFromHostBuffer
2026-01-28 22:12:54.568 (   1.734s) [        66B35000]     memory_instance.cc:57       1| MemoryInstance::getDevice
2026-01-28 22:12:54.568 (   1.735s) [        66B35000]      event_instance.cc:223      1| EventInstance::PJRT_Event_OnReady
2026-01-28 22:12:54.568 (   1.735s) [        66B35000]      event_instance.cc:172      1| EventInstance::PJRT_Event_Destroy
2026-01-28 22:12:54.568 (   1.735s) [        66B35000]  device_description.cc:63       1| DeviceDescription::PJRT_DeviceDescription_Id
2026-01-28 22:12:54.568 (   1.735s) [        66B35000]  device_description.cc:63       1| DeviceDescription::PJRT_DeviceDescription_Id
2026-01-28 22:12:54.569 (   1.735s) [        66B35000]     device_instance.cc:82       1| DeviceInstance::PJRT_Device_DefaultMemory
2026-01-28 22:12:54.569 (   1.735s) [        66B35000]     client_instance.cc:735      1| ClientInstance::PJRT_Client_BufferFromHostBuffer
2026-01-28 22:12:54.569 (   1.735s) [        66B35000]     memory_instance.cc:57       1| MemoryInstance::getDevice
2026-01-28 22:12:54.569 (   1.736s) [        66B35000]      event_instance.cc:223      1| EventInstance::PJRT_Event_OnReady
2026-01-28 22:12:54.569 (   1.736s) [        66B35000]      event_instance.cc:172      1| EventInstance::PJRT_Event_Destroy
2026-01-28 22:12:54.569 (   1.736s) [        66B35000]     device_instance.cc:82       1| DeviceInstance::PJRT_Device_DefaultMemory
2026-01-28 22:12:54.569 (   1.736s) [        66B35000]     client_instance.cc:735      1| ClientInstance::PJRT_Client_BufferFromHostBuffer
2026-01-28 22:12:54.569 (   1.736s) [        66B35000]     memory_instance.cc:57       1| MemoryInstance::getDevice
2026-01-28 22:12:54.569 (   1.736s) [        66B35000]      event_instance.cc:223      1| EventInstance::PJRT_Event_OnReady
2026-01-28 22:12:54.569 (   1.736s) [        66B35000]      event_instance.cc:172      1| EventInstance::PJRT_Event_Destroy
2026-01-28 22:12:54.569 (   1.736s) [        66B35000]  device_description.cc:63       1| DeviceDescription::PJRT_DeviceDescription_Id
2026-01-28 22:12:54.569 (   1.736s) [        66B35000]  device_description.cc:63       1| DeviceDescription::PJRT_DeviceDescription_Id
2026-01-28 22:12:54.570 (   1.737s) [        66B35000]     device_instance.cc:82       1| DeviceInstance::PJRT_Device_DefaultMemory
2026-01-28 22:12:54.570 (   1.737s) [        66B35000]     client_instance.cc:735      1| ClientInstance::PJRT_Client_BufferFromHostBuffer
2026-01-28 22:12:54.570 (   1.737s) [        66B35000]     memory_instance.cc:57       1| MemoryInstance::getDevice
2026-01-28 22:12:54.570 (   1.737s) [        66B35000]      event_instance.cc:223      1| EventInstance::PJRT_Event_OnReady
2026-01-28 22:12:54.570 (   1.737s) [        66B35000]      event_instance.cc:172      1| EventInstance::PJRT_Event_Destroy
2026-01-28 22:12:54.570 (   1.737s) [        66B35000]     device_instance.cc:82       1| DeviceInstance::PJRT_Device_DefaultMemory
2026-01-28 22:12:54.570 (   1.737s) [        66B35000]     client_instance.cc:735      1| ClientInstance::PJRT_Client_BufferFromHostBuffer
2026-01-28 22:12:54.570 (   1.737s) [        66B35000]     memory_instance.cc:57       1| MemoryInstance::getDevice
2026-01-28 22:12:54.570 (   1.737s) [        66B35000]      event_instance.cc:223      1| EventInstance::PJRT_Event_OnReady
2026-01-28 22:12:54.570 (   1.737s) [        66B35000]      event_instance.cc:172      1| EventInstance::PJRT_Event_Destroy
2026-01-28 22:12:54.571 (   1.737s) [        66B35000]  device_description.cc:63       1| DeviceDescription::PJRT_DeviceDescription_Id
2026-01-28 22:12:54.571 (   1.737s) [        66B35000]  device_description.cc:63       1| DeviceDescription::PJRT_DeviceDescription_Id
2026-01-28 22:12:54.571 (   1.738s) [        66B35000]     device_instance.cc:82       1| DeviceInstance::PJRT_Device_DefaultMemory
2026-01-28 22:12:54.571 (   1.738s) [        66B35000]     client_instance.cc:735      1| ClientInstance::PJRT_Client_BufferFromHostBuffer
2026-01-28 22:12:54.571 (   1.738s) [        66B35000]     memory_instance.cc:57       1| MemoryInstance::getDevice
2026-01-28 22:12:54.571 (   1.738s) [        66B35000]      event_instance.cc:223      1| EventInstance::PJRT_Event_OnReady
2026-01-28 22:12:54.571 (   1.738s) [        66B35000]      event_instance.cc:172      1| EventInstance::PJRT_Event_Destroy
2026-01-28 22:12:54.571 (   1.738s) [        66B35000]     device_instance.cc:82       1| DeviceInstance::PJRT_Device_DefaultMemory
2026-01-28 22:12:54.571 (   1.738s) [        66B35000]     client_instance.cc:735      1| ClientInstance::PJRT_Client_BufferFromHostBuffer
2026-01-28 22:12:54.571 (   1.738s) [        66B35000]     memory_instance.cc:57       1| MemoryInstance::getDevice
2026-01-28 22:12:54.572 (   1.738s) [        66B35000]      event_instance.cc:223      1| EventInstance::PJRT_Event_OnReady
2026-01-28 22:12:54.572 (   1.738s) [        66B35000]      event_instance.cc:172      1| EventInstance::PJRT_Event_Destroy
2026-01-28 22:12:54.572 (   1.739s) [        66B35000]  device_description.cc:63       1| DeviceDescription::PJRT_DeviceDescription_Id
2026-01-28 22:12:54.572 (   1.739s) [        66B35000]  device_description.cc:63       1| DeviceDescription::PJRT_DeviceDescription_Id
2026-01-28 22:12:54.572 (   1.739s) [        66B35000]     device_instance.cc:82       1| DeviceInstance::PJRT_Device_DefaultMemory
2026-01-28 22:12:54.572 (   1.739s) [        66B35000]     client_instance.cc:735      1| ClientInstance::PJRT_Client_BufferFromHostBuffer
2026-01-28 22:12:54.572 (   1.739s) [        66B35000]     memory_instance.cc:57       1| MemoryInstance::getDevice
2026-01-28 22:12:54.572 (   1.739s) [        66B35000]      event_instance.cc:223      1| EventInstance::PJRT_Event_OnReady
2026-01-28 22:12:54.573 (   1.739s) [        66B35000]      event_instance.cc:172      1| EventInstance::PJRT_Event_Destroy
2026-01-28 22:12:54.573 (   1.739s) [        66B35000]     device_instance.cc:82       1| DeviceInstance::PJRT_Device_DefaultMemory
2026-01-28 22:12:54.573 (   1.739s) [        66B35000]     client_instance.cc:735      1| ClientInstance::PJRT_Client_BufferFromHostBuffer
2026-01-28 22:12:54.573 (   1.739s) [        66B35000]     memory_instance.cc:57       1| MemoryInstance::getDevice
2026-01-28 22:12:54.573 (   1.739s) [        66B35000]      event_instance.cc:223      1| EventInstance::PJRT_Event_OnReady
2026-01-28 22:12:54.573 (   1.739s) [        66B35000]      event_instance.cc:172      1| EventInstance::PJRT_Event_Destroy
2026-01-28 22:12:54.573 (   1.740s) [        66B35000]  device_description.cc:63       1| DeviceDescription::PJRT_DeviceDescription_Id
2026-01-28 22:12:54.573 (   1.740s) [        66B35000]  device_description.cc:63       1| DeviceDescription::PJRT_DeviceDescription_Id
2026-01-28 22:12:54.573 (   1.740s) [        66B35000]     device_instance.cc:82       1| DeviceInstance::PJRT_Device_DefaultMemory
2026-01-28 22:12:54.573 (   1.740s) [        66B35000]     client_instance.cc:735      1| ClientInstance::PJRT_Client_BufferFromHostBuffer
2026-01-28 22:12:54.573 (   1.740s) [        66B35000]     memory_instance.cc:57       1| MemoryInstance::getDevice
2026-01-28 22:12:54.573 (   1.740s) [        66B35000]      event_instance.cc:223      1| EventInstance::PJRT_Event_OnReady
2026-01-28 22:12:54.573 (   1.740s) [        66B35000]      event_instance.cc:172      1| EventInstance::PJRT_Event_Destroy
2026-01-28 22:12:54.573 (   1.740s) [        66B35000]     device_instance.cc:82       1| DeviceInstance::PJRT_Device_DefaultMemory
2026-01-28 22:12:54.573 (   1.740s) [        66B35000]     client_instance.cc:735      1| ClientInstance::PJRT_Client_BufferFromHostBuffer
2026-01-28 22:12:54.573 (   1.740s) [        66B35000]     memory_instance.cc:57       1| MemoryInstance::getDevice
2026-01-28 22:12:54.574 (   1.740s) [        66B35000]      event_instance.cc:223      1| EventInstance::PJRT_Event_OnReady
2026-01-28 22:12:54.574 (   1.740s) [        66B35000]      event_instance.cc:172      1| EventInstance::PJRT_Event_Destroy
2026-01-28 22:12:54.574 (   1.740s) [        66B35000]  device_description.cc:63       1| DeviceDescription::PJRT_DeviceDescription_Id
2026-01-28 22:12:54.574 (   1.741s) [        66B35000]  device_description.cc:63       1| DeviceDescription::PJRT_DeviceDescription_Id
2026-01-28 22:12:54.574 (   1.741s) [        66B35000]     device_instance.cc:82       1| DeviceInstance::PJRT_Device_DefaultMemory
2026-01-28 22:12:54.574 (   1.741s) [        66B35000]     client_instance.cc:735      1| ClientInstance::PJRT_Client_BufferFromHostBuffer
2026-01-28 22:12:54.574 (   1.741s) [        66B35000]     memory_instance.cc:57       1| MemoryInstance::getDevice
2026-01-28 22:12:54.574 (   1.741s) [        66B35000]      event_instance.cc:223      1| EventInstance::PJRT_Event_OnReady
2026-01-28 22:12:54.574 (   1.741s) [        66B35000]      event_instance.cc:172      1| EventInstance::PJRT_Event_Destroy
2026-01-28 22:12:54.574 (   1.741s) [        66B35000]     device_instance.cc:82       1| DeviceInstance::PJRT_Device_DefaultMemory
2026-01-28 22:12:54.574 (   1.741s) [        66B35000]     client_instance.cc:735      1| ClientInstance::PJRT_Client_BufferFromHostBuffer
2026-01-28 22:12:54.574 (   1.741s) [        66B35000]     memory_instance.cc:57       1| MemoryInstance::getDevice
2026-01-28 22:12:54.575 (   1.741s) [        66B35000]      event_instance.cc:223      1| EventInstance::PJRT_Event_OnReady
2026-01-28 22:12:54.575 (   1.741s) [        66B35000]      event_instance.cc:172      1| EventInstance::PJRT_Event_Destroy
2026-01-28 22:12:54.575 (   1.741s) [        66B35000]  device_description.cc:63       1| DeviceDescription::PJRT_DeviceDescription_Id
2026-01-28 22:12:54.575 (   1.741s) [        66B35000]  device_description.cc:63       1| DeviceDescription::PJRT_DeviceDescription_Id
2026-01-28 22:12:54.575 (   1.742s) [        66B35000]     device_instance.cc:82       1| DeviceInstance::PJRT_Device_DefaultMemory
2026-01-28 22:12:54.575 (   1.742s) [        66B35000]     client_instance.cc:735      1| ClientInstance::PJRT_Client_BufferFromHostBuffer
2026-01-28 22:12:54.575 (   1.742s) [        66B35000]     memory_instance.cc:57       1| MemoryInstance::getDevice
2026-01-28 22:12:54.575 (   1.742s) [        66B35000]      event_instance.cc:223      1| EventInstance::PJRT_Event_OnReady
2026-01-28 22:12:54.575 (   1.742s) [        66B35000]      event_instance.cc:172      1| EventInstance::PJRT_Event_Destroy
2026-01-28 22:12:54.576 (   1.742s) [        66B35000]     device_instance.cc:82       1| DeviceInstance::PJRT_Device_DefaultMemory
2026-01-28 22:12:54.576 (   1.742s) [        66B35000]     client_instance.cc:735      1| ClientInstance::PJRT_Client_BufferFromHostBuffer
2026-01-28 22:12:54.576 (   1.742s) [        66B35000]     memory_instance.cc:57       1| MemoryInstance::getDevice
2026-01-28 22:12:54.576 (   1.742s) [        66B35000]      event_instance.cc:223      1| EventInstance::PJRT_Event_OnReady
2026-01-28 22:12:54.576 (   1.742s) [        66B35000]      event_instance.cc:172      1| EventInstance::PJRT_Event_Destroy
2026-01-28 22:12:54.576 (   1.743s) [        66B35000]  device_description.cc:63       1| DeviceDescription::PJRT_DeviceDescription_Id
2026-01-28 22:12:54.576 (   1.743s) [        66B35000]  device_description.cc:63       1| DeviceDescription::PJRT_DeviceDescription_Id
2026-01-28 22:12:54.577 (   1.743s) [        66B35000]     device_instance.cc:82       1| DeviceInstance::PJRT_Device_DefaultMemory
2026-01-28 22:12:54.577 (   1.743s) [        66B35000]     client_instance.cc:735      1| ClientInstance::PJRT_Client_BufferFromHostBuffer
2026-01-28 22:12:54.577 (   1.743s) [        66B35000]     memory_instance.cc:57       1| MemoryInstance::getDevice
2026-01-28 22:12:54.577 (   1.743s) [        66B35000]      event_instance.cc:223      1| EventInstance::PJRT_Event_OnReady
2026-01-28 22:12:54.577 (   1.743s) [        66B35000]      event_instance.cc:172      1| EventInstance::PJRT_Event_Destroy
2026-01-28 22:12:54.577 (   1.743s) [        66B35000]     device_instance.cc:82       1| DeviceInstance::PJRT_Device_DefaultMemory
2026-01-28 22:12:54.577 (   1.743s) [        66B35000]     client_instance.cc:735      1| ClientInstance::PJRT_Client_BufferFromHostBuffer
2026-01-28 22:12:54.577 (   1.743s) [        66B35000]     memory_instance.cc:57       1| MemoryInstance::getDevice
2026-01-28 22:12:54.577 (   1.744s) [        66B35000]      event_instance.cc:223      1| EventInstance::PJRT_Event_OnReady
2026-01-28 22:12:54.577 (   1.744s) [        66B35000]      event_instance.cc:172      1| EventInstance::PJRT_Event_Destroy
2026-01-28 22:12:54.577 (   1.744s) [        66B35000]  device_description.cc:63       1| DeviceDescription::PJRT_DeviceDescription_Id
2026-01-28 22:12:54.577 (   1.744s) [        66B35000]  device_description.cc:63       1| DeviceDescription::PJRT_DeviceDescription_Id
2026-01-28 22:12:54.578 (   1.744s) [        66B35000]     device_instance.cc:82       1| DeviceInstance::PJRT_Device_DefaultMemory
2026-01-28 22:12:54.578 (   1.744s) [        66B35000]     client_instance.cc:735      1| ClientInstance::PJRT_Client_BufferFromHostBuffer
2026-01-28 22:12:54.578 (   1.744s) [        66B35000]     memory_instance.cc:57       1| MemoryInstance::getDevice
2026-01-28 22:12:54.578 (   1.745s) [        66B35000]      event_instance.cc:223      1| EventInstance::PJRT_Event_OnReady
2026-01-28 22:12:54.578 (   1.745s) [        66B35000]      event_instance.cc:172      1| EventInstance::PJRT_Event_Destroy
2026-01-28 22:12:54.578 (   1.745s) [        66B35000]     device_instance.cc:82       1| DeviceInstance::PJRT_Device_DefaultMemory
2026-01-28 22:12:54.578 (   1.745s) [        66B35000]     client_instance.cc:735      1| ClientInstance::PJRT_Client_BufferFromHostBuffer
2026-01-28 22:12:54.578 (   1.745s) [        66B35000]     memory_instance.cc:57       1| MemoryInstance::getDevice
2026-01-28 22:12:54.578 (   1.745s) [        66B35000]      event_instance.cc:223      1| EventInstance::PJRT_Event_OnReady
2026-01-28 22:12:54.578 (   1.745s) [        66B35000]      event_instance.cc:172      1| EventInstance::PJRT_Event_Destroy
2026-01-28 22:12:54.578 (   1.745s) [        66B35000]  device_description.cc:63       1| DeviceDescription::PJRT_DeviceDescription_Id
2026-01-28 22:12:54.578 (   1.745s) [        66B35000]  device_description.cc:63       1| DeviceDescription::PJRT_DeviceDescription_Id
2026-01-28 22:12:54.579 (   1.746s) [        66B35000]     device_instance.cc:82       1| DeviceInstance::PJRT_Device_DefaultMemory
2026-01-28 22:12:54.579 (   1.746s) [        66B35000]     client_instance.cc:735      1| ClientInstance::PJRT_Client_BufferFromHostBuffer
2026-01-28 22:12:54.579 (   1.746s) [        66B35000]     memory_instance.cc:57       1| MemoryInstance::getDevice
2026-01-28 22:12:54.579 (   1.746s) [        66B35000]      event_instance.cc:223      1| EventInstance::PJRT_Event_OnReady
2026-01-28 22:12:54.579 (   1.746s) [        66B35000]      event_instance.cc:172      1| EventInstance::PJRT_Event_Destroy
2026-01-28 22:12:54.579 (   1.746s) [        66B35000]     device_instance.cc:82       1| DeviceInstance::PJRT_Device_DefaultMemory
2026-01-28 22:12:54.579 (   1.746s) [        66B35000]     client_instance.cc:735      1| ClientInstance::PJRT_Client_BufferFromHostBuffer
2026-01-28 22:12:54.579 (   1.746s) [        66B35000]     memory_instance.cc:57       1| MemoryInstance::getDevice
2026-01-28 22:12:54.579 (   1.746s) [        66B35000]      event_instance.cc:223      1| EventInstance::PJRT_Event_OnReady
2026-01-28 22:12:54.579 (   1.746s) [        66B35000]      event_instance.cc:172      1| EventInstance::PJRT_Event_Destroy
2026-01-28 22:12:54.580 (   1.746s) [        66B35000]  device_description.cc:63       1| DeviceDescription::PJRT_DeviceDescription_Id
2026-01-28 22:12:54.580 (   1.746s) [        66B35000]  device_description.cc:63       1| DeviceDescription::PJRT_DeviceDescription_Id
2026-01-28 22:12:54.580 (   1.747s) [        66B35000]     device_instance.cc:82       1| DeviceInstance::PJRT_Device_DefaultMemory
2026-01-28 22:12:54.580 (   1.747s) [        66B35000]     client_instance.cc:735      1| ClientInstance::PJRT_Client_BufferFromHostBuffer
2026-01-28 22:12:54.580 (   1.747s) [        66B35000]     memory_instance.cc:57       1| MemoryInstance::getDevice
2026-01-28 22:12:54.580 (   1.747s) [        66B35000]      event_instance.cc:223      1| EventInstance::PJRT_Event_OnReady
2026-01-28 22:12:54.580 (   1.747s) [        66B35000]      event_instance.cc:172      1| EventInstance::PJRT_Event_Destroy
2026-01-28 22:12:54.580 (   1.747s) [        66B35000]     device_instance.cc:82       1| DeviceInstance::PJRT_Device_DefaultMemory
2026-01-28 22:12:54.580 (   1.747s) [        66B35000]     client_instance.cc:735      1| ClientInstance::PJRT_Client_BufferFromHostBuffer
2026-01-28 22:12:54.580 (   1.747s) [        66B35000]     memory_instance.cc:57       1| MemoryInstance::getDevice
2026-01-28 22:12:54.580 (   1.747s) [        66B35000]      event_instance.cc:223      1| EventInstance::PJRT_Event_OnReady
2026-01-28 22:12:54.580 (   1.747s) [        66B35000]      event_instance.cc:172      1| EventInstance::PJRT_Event_Destroy
2026-01-28 22:12:54.580 (   1.747s) [        66B35000]  device_description.cc:63       1| DeviceDescription::PJRT_DeviceDescription_Id
2026-01-28 22:12:54.580 (   1.747s) [        66B35000]  device_description.cc:63       1| DeviceDescription::PJRT_DeviceDescription_Id
2026-01-28 22:12:54.581 (   1.747s) [        66B35000]     device_instance.cc:82       1| DeviceInstance::PJRT_Device_DefaultMemory
2026-01-28 22:12:54.581 (   1.747s) [        66B35000]     client_instance.cc:735      1| ClientInstance::PJRT_Client_BufferFromHostBuffer
2026-01-28 22:12:54.581 (   1.747s) [        66B35000]     memory_instance.cc:57       1| MemoryInstance::getDevice
2026-01-28 22:12:54.581 (   1.748s) [        66B35000]      event_instance.cc:223      1| EventInstance::PJRT_Event_OnReady
2026-01-28 22:12:54.581 (   1.748s) [        66B35000]      event_instance.cc:172      1| EventInstance::PJRT_Event_Destroy
2026-01-28 22:12:54.581 (   1.748s) [        66B35000]     device_instance.cc:82       1| DeviceInstance::PJRT_Device_DefaultMemory
2026-01-28 22:12:54.581 (   1.748s) [        66B35000]     client_instance.cc:735      1| ClientInstance::PJRT_Client_BufferFromHostBuffer
2026-01-28 22:12:54.581 (   1.748s) [        66B35000]     memory_instance.cc:57       1| MemoryInstance::getDevice
2026-01-28 22:12:54.581 (   1.748s) [        66B35000]      event_instance.cc:223      1| EventInstance::PJRT_Event_OnReady
2026-01-28 22:12:54.581 (   1.748s) [        66B35000]      event_instance.cc:172      1| EventInstance::PJRT_Event_Destroy
2026-01-28 22:12:54.581 (   1.748s) [        66B35000]  device_description.cc:63       1| DeviceDescription::PJRT_DeviceDescription_Id
2026-01-28 22:12:54.581 (   1.748s) [        66B35000]  device_description.cc:63       1| DeviceDescription::PJRT_DeviceDescription_Id
2026-01-28 22:12:54.582 (   1.748s) [        66B35000]     device_instance.cc:82       1| DeviceInstance::PJRT_Device_DefaultMemory
2026-01-28 22:12:54.582 (   1.748s) [        66B35000]     client_instance.cc:735      1| ClientInstance::PJRT_Client_BufferFromHostBuffer
2026-01-28 22:12:54.582 (   1.748s) [        66B35000]     memory_instance.cc:57       1| MemoryInstance::getDevice
2026-01-28 22:12:54.582 (   1.748s) [        66B35000]      event_instance.cc:223      1| EventInstance::PJRT_Event_OnReady
2026-01-28 22:12:54.582 (   1.748s) [        66B35000]      event_instance.cc:172      1| EventInstance::PJRT_Event_Destroy
2026-01-28 22:12:54.582 (   1.748s) [        66B35000]     device_instance.cc:82       1| DeviceInstance::PJRT_Device_DefaultMemory
2026-01-28 22:12:54.582 (   1.748s) [        66B35000]     client_instance.cc:735      1| ClientInstance::PJRT_Client_BufferFromHostBuffer
2026-01-28 22:12:54.582 (   1.748s) [        66B35000]     memory_instance.cc:57       1| MemoryInstance::getDevice
2026-01-28 22:12:54.582 (   1.749s) [        66B35000]      event_instance.cc:223      1| EventInstance::PJRT_Event_OnReady
2026-01-28 22:12:54.582 (   1.749s) [        66B35000]      event_instance.cc:172      1| EventInstance::PJRT_Event_Destroy
2026-01-28 22:12:54.582 (   1.749s) [        66B35000]  device_description.cc:63       1| DeviceDescription::PJRT_DeviceDescription_Id
2026-01-28 22:12:54.582 (   1.749s) [        66B35000]  device_description.cc:63       1| DeviceDescription::PJRT_DeviceDescription_Id
2026-01-28 22:12:54.583 (   1.749s) [        66B35000]     device_instance.cc:82       1| DeviceInstance::PJRT_Device_DefaultMemory
2026-01-28 22:12:54.583 (   1.749s) [        66B35000]     client_instance.cc:735      1| ClientInstance::PJRT_Client_BufferFromHostBuffer
2026-01-28 22:12:54.583 (   1.749s) [        66B35000]     memory_instance.cc:57       1| MemoryInstance::getDevice
2026-01-28 22:12:54.583 (   1.749s) [        66B35000]      event_instance.cc:223      1| EventInstance::PJRT_Event_OnReady
2026-01-28 22:12:54.583 (   1.749s) [        66B35000]      event_instance.cc:172      1| EventInstance::PJRT_Event_Destroy
2026-01-28 22:12:54.583 (   1.749s) [        66B35000]     device_instance.cc:82       1| DeviceInstance::PJRT_Device_DefaultMemory
2026-01-28 22:12:54.583 (   1.749s) [        66B35000]     client_instance.cc:735      1| ClientInstance::PJRT_Client_BufferFromHostBuffer
2026-01-28 22:12:54.583 (   1.749s) [        66B35000]     memory_instance.cc:57       1| MemoryInstance::getDevice
2026-01-28 22:12:54.583 (   1.750s) [        66B35000]      event_instance.cc:223      1| EventInstance::PJRT_Event_OnReady
2026-01-28 22:12:54.583 (   1.750s) [        66B35000]      event_instance.cc:172      1| EventInstance::PJRT_Event_Destroy
2026-01-28 22:12:54.583 (   1.750s) [        66B35000]  device_description.cc:63       1| DeviceDescription::PJRT_DeviceDescription_Id
2026-01-28 22:12:54.583 (   1.750s) [        66B35000]  device_description.cc:63       1| DeviceDescription::PJRT_DeviceDescription_Id
2026-01-28 22:12:54.584 (   1.750s) [        66B35000]     device_instance.cc:82       1| DeviceInstance::PJRT_Device_DefaultMemory
2026-01-28 22:12:54.584 (   1.750s) [        66B35000]     client_instance.cc:735      1| ClientInstance::PJRT_Client_BufferFromHostBuffer
2026-01-28 22:12:54.584 (   1.750s) [        66B35000]     memory_instance.cc:57       1| MemoryInstance::getDevice
2026-01-28 22:12:54.584 (   1.750s) [        66B35000]      event_instance.cc:223      1| EventInstance::PJRT_Event_OnReady
2026-01-28 22:12:54.584 (   1.750s) [        66B35000]      event_instance.cc:172      1| EventInstance::PJRT_Event_Destroy
2026-01-28 22:12:54.584 (   1.750s) [        66B35000]     device_instance.cc:82       1| DeviceInstance::PJRT_Device_DefaultMemory
2026-01-28 22:12:54.584 (   1.750s) [        66B35000]     client_instance.cc:735      1| ClientInstance::PJRT_Client_BufferFromHostBuffer
2026-01-28 22:12:54.584 (   1.750s) [        66B35000]     memory_instance.cc:57       1| MemoryInstance::getDevice
2026-01-28 22:12:54.584 (   1.751s) [        66B35000]      event_instance.cc:223      1| EventInstance::PJRT_Event_OnReady
2026-01-28 22:12:54.584 (   1.751s) [        66B35000]      event_instance.cc:172      1| EventInstance::PJRT_Event_Destroy
2026-01-28 22:12:54.584 (   1.751s) [        66B35000]  device_description.cc:63       1| DeviceDescription::PJRT_DeviceDescription_Id
2026-01-28 22:12:54.584 (   1.751s) [        66B35000]  device_description.cc:63       1| DeviceDescription::PJRT_DeviceDescription_Id
2026-01-28 22:12:54.585 (   1.751s) [        66B35000]     device_instance.cc:82       1| DeviceInstance::PJRT_Device_DefaultMemory
2026-01-28 22:12:54.585 (   1.751s) [        66B35000]     client_instance.cc:735      1| ClientInstance::PJRT_Client_BufferFromHostBuffer
2026-01-28 22:12:54.585 (   1.751s) [        66B35000]     memory_instance.cc:57       1| MemoryInstance::getDevice
2026-01-28 22:12:54.585 (   1.751s) [        66B35000]      event_instance.cc:223      1| EventInstance::PJRT_Event_OnReady
2026-01-28 22:12:54.585 (   1.751s) [        66B35000]      event_instance.cc:172      1| EventInstance::PJRT_Event_Destroy
2026-01-28 22:12:54.585 (   1.751s) [        66B35000]     device_instance.cc:82       1| DeviceInstance::PJRT_Device_DefaultMemory
2026-01-28 22:12:54.585 (   1.751s) [        66B35000]     client_instance.cc:735      1| ClientInstance::PJRT_Client_BufferFromHostBuffer
2026-01-28 22:12:54.585 (   1.751s) [        66B35000]     memory_instance.cc:57       1| MemoryInstance::getDevice
2026-01-28 22:12:54.585 (   1.752s) [        66B35000]      event_instance.cc:223      1| EventInstance::PJRT_Event_OnReady
2026-01-28 22:12:54.585 (   1.752s) [        66B35000]      event_instance.cc:172      1| EventInstance::PJRT_Event_Destroy
2026-01-28 22:12:54.585 (   1.752s) [        66B35000]  device_description.cc:63       1| DeviceDescription::PJRT_DeviceDescription_Id
2026-01-28 22:12:54.585 (   1.752s) [        66B35000]  device_description.cc:63       1| DeviceDescription::PJRT_DeviceDescription_Id
2026-01-28 22:12:54.586 (   1.752s) [        66B35000]     device_instance.cc:82       1| DeviceInstance::PJRT_Device_DefaultMemory
2026-01-28 22:12:54.586 (   1.752s) [        66B35000]     client_instance.cc:735      1| ClientInstance::PJRT_Client_BufferFromHostBuffer
2026-01-28 22:12:54.586 (   1.752s) [        66B35000]     memory_instance.cc:57       1| MemoryInstance::getDevice
2026-01-28 22:12:54.586 (   1.752s) [        66B35000]      event_instance.cc:223      1| EventInstance::PJRT_Event_OnReady
2026-01-28 22:12:54.586 (   1.752s) [        66B35000]      event_instance.cc:172      1| EventInstance::PJRT_Event_Destroy
2026-01-28 22:12:54.586 (   1.752s) [        66B35000]     device_instance.cc:82       1| DeviceInstance::PJRT_Device_DefaultMemory
2026-01-28 22:12:54.586 (   1.752s) [        66B35000]     client_instance.cc:735      1| ClientInstance::PJRT_Client_BufferFromHostBuffer
2026-01-28 22:12:54.586 (   1.753s) [        66B35000]     memory_instance.cc:57       1| MemoryInstance::getDevice
2026-01-28 22:12:54.586 (   1.753s) [        66B35000]      event_instance.cc:223      1| EventInstance::PJRT_Event_OnReady
2026-01-28 22:12:54.586 (   1.753s) [        66B35000]      event_instance.cc:172      1| EventInstance::PJRT_Event_Destroy
2026-01-28 22:12:54.586 (   1.753s) [        66B35000]  device_description.cc:63       1| DeviceDescription::PJRT_DeviceDescription_Id
2026-01-28 22:12:54.586 (   1.753s) [        66B35000]  device_description.cc:63       1| DeviceDescription::PJRT_DeviceDescription_Id
2026-01-28 22:12:54.586 (   1.753s) [        66B35000]     device_instance.cc:82       1| DeviceInstance::PJRT_Device_DefaultMemory
2026-01-28 22:12:54.586 (   1.753s) [        66B35000]     client_instance.cc:735      1| ClientInstance::PJRT_Client_BufferFromHostBuffer
2026-01-28 22:12:54.586 (   1.753s) [        66B35000]     memory_instance.cc:57       1| MemoryInstance::getDevice
2026-01-28 22:12:54.587 (   1.753s) [        66B35000]      event_instance.cc:223      1| EventInstance::PJRT_Event_OnReady
2026-01-28 22:12:54.587 (   1.753s) [        66B35000]      event_instance.cc:172      1| EventInstance::PJRT_Event_Destroy
2026-01-28 22:12:54.587 (   1.753s) [        66B35000]     device_instance.cc:82       1| DeviceInstance::PJRT_Device_DefaultMemory
2026-01-28 22:12:54.587 (   1.753s) [        66B35000]     client_instance.cc:735      1| ClientInstance::PJRT_Client_BufferFromHostBuffer
2026-01-28 22:12:54.587 (   1.753s) [        66B35000]     memory_instance.cc:57       1| MemoryInstance::getDevice
2026-01-28 22:12:54.587 (   1.753s) [        66B35000]      event_instance.cc:223      1| EventInstance::PJRT_Event_OnReady
2026-01-28 22:12:54.587 (   1.753s) [        66B35000]      event_instance.cc:172      1| EventInstance::PJRT_Event_Destroy
2026-01-28 22:12:54.587 (   1.754s) [        66B35000]  device_description.cc:63       1| DeviceDescription::PJRT_DeviceDescription_Id
2026-01-28 22:12:54.587 (   1.754s) [        66B35000]  device_description.cc:63       1| DeviceDescription::PJRT_DeviceDescription_Id
2026-01-28 22:12:54.587 (   1.754s) [        66B35000]     device_instance.cc:82       1| DeviceInstance::PJRT_Device_DefaultMemory
2026-01-28 22:12:54.587 (   1.754s) [        66B35000]     client_instance.cc:735      1| ClientInstance::PJRT_Client_BufferFromHostBuffer
2026-01-28 22:12:54.587 (   1.754s) [        66B35000]     memory_instance.cc:57       1| MemoryInstance::getDevice
2026-01-28 22:12:54.587 (   1.754s) [        66B35000]      event_instance.cc:223      1| EventInstance::PJRT_Event_OnReady
2026-01-28 22:12:54.587 (   1.754s) [        66B35000]      event_instance.cc:172      1| EventInstance::PJRT_Event_Destroy
2026-01-28 22:12:54.587 (   1.754s) [        66B35000]     device_instance.cc:82       1| DeviceInstance::PJRT_Device_DefaultMemory
2026-01-28 22:12:54.587 (   1.754s) [        66B35000]     client_instance.cc:735      1| ClientInstance::PJRT_Client_BufferFromHostBuffer
2026-01-28 22:12:54.587 (   1.754s) [        66B35000]     memory_instance.cc:57       1| MemoryInstance::getDevice
2026-01-28 22:12:54.587 (   1.754s) [        66B35000]      event_instance.cc:223      1| EventInstance::PJRT_Event_OnReady
2026-01-28 22:12:54.588 (   1.754s) [        66B35000]      event_instance.cc:172      1| EventInstance::PJRT_Event_Destroy
2026-01-28 22:12:54.588 (   1.754s) [        66B35000]  device_description.cc:63       1| DeviceDescription::PJRT_DeviceDescription_Id
2026-01-28 22:12:54.588 (   1.754s) [        66B35000]  device_description.cc:63       1| DeviceDescription::PJRT_DeviceDescription_Id
2026-01-28 22:12:54.588 (   1.755s) [        66B35000]     device_instance.cc:82       1| DeviceInstance::PJRT_Device_DefaultMemory
2026-01-28 22:12:54.588 (   1.755s) [        66B35000]     client_instance.cc:735      1| ClientInstance::PJRT_Client_BufferFromHostBuffer
2026-01-28 22:12:54.588 (   1.755s) [        66B35000]     memory_instance.cc:57       1| MemoryInstance::getDevice
2026-01-28 22:12:54.588 (   1.755s) [        66B35000]      event_instance.cc:223      1| EventInstance::PJRT_Event_OnReady
2026-01-28 22:12:54.588 (   1.755s) [        66B35000]      event_instance.cc:172      1| EventInstance::PJRT_Event_Destroy
2026-01-28 22:12:54.588 (   1.755s) [        66B35000]     device_instance.cc:82       1| DeviceInstance::PJRT_Device_DefaultMemory
2026-01-28 22:12:54.588 (   1.755s) [        66B35000]     client_instance.cc:735      1| ClientInstance::PJRT_Client_BufferFromHostBuffer
2026-01-28 22:12:54.588 (   1.755s) [        66B35000]     memory_instance.cc:57       1| MemoryInstance::getDevice
2026-01-28 22:12:54.588 (   1.755s) [        66B35000]      event_instance.cc:223      1| EventInstance::PJRT_Event_OnReady
2026-01-28 22:12:54.588 (   1.755s) [        66B35000]      event_instance.cc:172      1| EventInstance::PJRT_Event_Destroy
2026-01-28 22:12:54.588 (   1.755s) [        66B35000]  device_description.cc:63       1| DeviceDescription::PJRT_DeviceDescription_Id
2026-01-28 22:12:54.588 (   1.755s) [        66B35000]  device_description.cc:63       1| DeviceDescription::PJRT_DeviceDescription_Id
2026-01-28 22:12:54.589 (   1.756s) [        66B35000]     device_instance.cc:82       1| DeviceInstance::PJRT_Device_DefaultMemory
2026-01-28 22:12:54.589 (   1.756s) [        66B35000]     client_instance.cc:735      1| ClientInstance::PJRT_Client_BufferFromHostBuffer
2026-01-28 22:12:54.589 (   1.756s) [        66B35000]     memory_instance.cc:57       1| MemoryInstance::getDevice
2026-01-28 22:12:54.589 (   1.756s) [        66B35000]      event_instance.cc:223      1| EventInstance::PJRT_Event_OnReady
2026-01-28 22:12:54.589 (   1.756s) [        66B35000]      event_instance.cc:172      1| EventInstance::PJRT_Event_Destroy
2026-01-28 22:12:54.589 (   1.756s) [        66B35000]     device_instance.cc:82       1| DeviceInstance::PJRT_Device_DefaultMemory
2026-01-28 22:12:54.589 (   1.756s) [        66B35000]     client_instance.cc:735      1| ClientInstance::PJRT_Client_BufferFromHostBuffer
2026-01-28 22:12:54.589 (   1.756s) [        66B35000]     memory_instance.cc:57       1| MemoryInstance::getDevice
2026-01-28 22:12:54.589 (   1.756s) [        66B35000]      event_instance.cc:223      1| EventInstance::PJRT_Event_OnReady
2026-01-28 22:12:54.589 (   1.756s) [        66B35000]      event_instance.cc:172      1| EventInstance::PJRT_Event_Destroy
2026-01-28 22:12:54.589 (   1.756s) [        66B35000]  device_description.cc:63       1| DeviceDescription::PJRT_DeviceDescription_Id
2026-01-28 22:12:54.589 (   1.756s) [        66B35000]  device_description.cc:63       1| DeviceDescription::PJRT_DeviceDescription_Id
2026-01-28 22:12:54.590 (   1.757s) [        66B35000]     device_instance.cc:82       1| DeviceInstance::PJRT_Device_DefaultMemory
2026-01-28 22:12:54.590 (   1.757s) [        66B35000]     client_instance.cc:735      1| ClientInstance::PJRT_Client_BufferFromHostBuffer
2026-01-28 22:12:54.590 (   1.757s) [        66B35000]     memory_instance.cc:57       1| MemoryInstance::getDevice
2026-01-28 22:12:54.590 (   1.757s) [        66B35000]      event_instance.cc:223      1| EventInstance::PJRT_Event_OnReady
2026-01-28 22:12:54.590 (   1.757s) [        66B35000]      event_instance.cc:172      1| EventInstance::PJRT_Event_Destroy
2026-01-28 22:12:54.590 (   1.757s) [        66B35000]     device_instance.cc:82       1| DeviceInstance::PJRT_Device_DefaultMemory
2026-01-28 22:12:54.590 (   1.757s) [        66B35000]     client_instance.cc:735      1| ClientInstance::PJRT_Client_BufferFromHostBuffer
2026-01-28 22:12:54.590 (   1.757s) [        66B35000]     memory_instance.cc:57       1| MemoryInstance::getDevice
2026-01-28 22:12:54.591 (   1.757s) [        66B35000]      event_instance.cc:223      1| EventInstance::PJRT_Event_OnReady
2026-01-28 22:12:54.591 (   1.757s) [        66B35000]      event_instance.cc:172      1| EventInstance::PJRT_Event_Destroy
2026-01-28 22:12:54.591 (   1.757s) [        66B35000]  device_description.cc:63       1| DeviceDescription::PJRT_DeviceDescription_Id
2026-01-28 22:12:54.591 (   1.757s) [        66B35000]  device_description.cc:63       1| DeviceDescription::PJRT_DeviceDescription_Id
2026-01-28 22:12:54.591 (   1.758s) [        66B35000]     device_instance.cc:82       1| DeviceInstance::PJRT_Device_DefaultMemory
2026-01-28 22:12:54.591 (   1.758s) [        66B35000]     client_instance.cc:735      1| ClientInstance::PJRT_Client_BufferFromHostBuffer
2026-01-28 22:12:54.591 (   1.758s) [        66B35000]     memory_instance.cc:57       1| MemoryInstance::getDevice
2026-01-28 22:12:54.591 (   1.758s) [        66B35000]      event_instance.cc:223      1| EventInstance::PJRT_Event_OnReady
2026-01-28 22:12:54.591 (   1.758s) [        66B35000]      event_instance.cc:172      1| EventInstance::PJRT_Event_Destroy
2026-01-28 22:12:54.591 (   1.758s) [        66B35000]     device_instance.cc:82       1| DeviceInstance::PJRT_Device_DefaultMemory
2026-01-28 22:12:54.591 (   1.758s) [        66B35000]     client_instance.cc:735      1| ClientInstance::PJRT_Client_BufferFromHostBuffer
2026-01-28 22:12:54.591 (   1.758s) [        66B35000]     memory_instance.cc:57       1| MemoryInstance::getDevice
2026-01-28 22:12:54.591 (   1.758s) [        66B35000]      event_instance.cc:223      1| EventInstance::PJRT_Event_OnReady
2026-01-28 22:12:54.591 (   1.758s) [        66B35000]      event_instance.cc:172      1| EventInstance::PJRT_Event_Destroy
2026-01-28 22:12:54.592 (   1.758s) [        66B35000]  device_description.cc:63       1| DeviceDescription::PJRT_DeviceDescription_Id
2026-01-28 22:12:54.592 (   1.758s) [        66B35000]  device_description.cc:63       1| DeviceDescription::PJRT_DeviceDescription_Id
2026-01-28 22:12:54.592 (   1.759s) [        66B35000]     device_instance.cc:82       1| DeviceInstance::PJRT_Device_DefaultMemory
2026-01-28 22:12:54.592 (   1.759s) [        66B35000]     client_instance.cc:735      1| ClientInstance::PJRT_Client_BufferFromHostBuffer
2026-01-28 22:12:54.592 (   1.759s) [        66B35000]     memory_instance.cc:57       1| MemoryInstance::getDevice
2026-01-28 22:12:54.592 (   1.759s) [        66B35000]      event_instance.cc:223      1| EventInstance::PJRT_Event_OnReady
2026-01-28 22:12:54.592 (   1.759s) [        66B35000]      event_instance.cc:172      1| EventInstance::PJRT_Event_Destroy
2026-01-28 22:12:54.592 (   1.759s) [        66B35000]     device_instance.cc:82       1| DeviceInstance::PJRT_Device_DefaultMemory
2026-01-28 22:12:54.593 (   1.759s) [        66B35000]     client_instance.cc:735      1| ClientInstance::PJRT_Client_BufferFromHostBuffer
2026-01-28 22:12:54.593 (   1.759s) [        66B35000]     memory_instance.cc:57       1| MemoryInstance::getDevice
2026-01-28 22:12:54.593 (   1.759s) [        66B35000]      event_instance.cc:223      1| EventInstance::PJRT_Event_OnReady
2026-01-28 22:12:54.593 (   1.759s) [        66B35000]      event_instance.cc:172      1| EventInstance::PJRT_Event_Destroy
2026-01-28 22:12:54.593 (   1.759s) [        66B35000]  device_description.cc:63       1| DeviceDescription::PJRT_DeviceDescription_Id
2026-01-28 22:12:54.593 (   1.759s) [        66B35000]  device_description.cc:63       1| DeviceDescription::PJRT_DeviceDescription_Id
2026-01-28 22:12:54.593 (   1.760s) [        66B35000]     device_instance.cc:82       1| DeviceInstance::PJRT_Device_DefaultMemory
2026-01-28 22:12:54.593 (   1.760s) [        66B35000]     client_instance.cc:735      1| ClientInstance::PJRT_Client_BufferFromHostBuffer
2026-01-28 22:12:54.593 (   1.760s) [        66B35000]     memory_instance.cc:57       1| MemoryInstance::getDevice
2026-01-28 22:12:54.593 (   1.760s) [        66B35000]      event_instance.cc:223      1| EventInstance::PJRT_Event_OnReady
2026-01-28 22:12:54.593 (   1.760s) [        66B35000]      event_instance.cc:172      1| EventInstance::PJRT_Event_Destroy
2026-01-28 22:12:54.593 (   1.760s) [        66B35000]     device_instance.cc:82       1| DeviceInstance::PJRT_Device_DefaultMemory
2026-01-28 22:12:54.593 (   1.760s) [        66B35000]     client_instance.cc:735      1| ClientInstance::PJRT_Client_BufferFromHostBuffer
2026-01-28 22:12:54.593 (   1.760s) [        66B35000]     memory_instance.cc:57       1| MemoryInstance::getDevice
2026-01-28 22:12:54.594 (   1.760s) [        66B35000]      event_instance.cc:223      1| EventInstance::PJRT_Event_OnReady
2026-01-28 22:12:54.594 (   1.760s) [        66B35000]      event_instance.cc:172      1| EventInstance::PJRT_Event_Destroy
2026-01-28 22:12:54.594 (   1.760s) [        66B35000]  device_description.cc:63       1| DeviceDescription::PJRT_DeviceDescription_Id
2026-01-28 22:12:54.594 (   1.760s) [        66B35000]  device_description.cc:63       1| DeviceDescription::PJRT_DeviceDescription_Id
2026-01-28 22:12:54.594 (   1.761s) [        66B35000]     device_instance.cc:82       1| DeviceInstance::PJRT_Device_DefaultMemory
2026-01-28 22:12:54.594 (   1.761s) [        66B35000]     client_instance.cc:735      1| ClientInstance::PJRT_Client_BufferFromHostBuffer
2026-01-28 22:12:54.594 (   1.761s) [        66B35000]     memory_instance.cc:57       1| MemoryInstance::getDevice
2026-01-28 22:12:54.594 (   1.761s) [        66B35000]      event_instance.cc:223      1| EventInstance::PJRT_Event_OnReady
2026-01-28 22:12:54.594 (   1.761s) [        66B35000]      event_instance.cc:172      1| EventInstance::PJRT_Event_Destroy
2026-01-28 22:12:54.594 (   1.761s) [        66B35000]     device_instance.cc:82       1| DeviceInstance::PJRT_Device_DefaultMemory
2026-01-28 22:12:54.594 (   1.761s) [        66B35000]     client_instance.cc:735      1| ClientInstance::PJRT_Client_BufferFromHostBuffer
2026-01-28 22:12:54.594 (   1.761s) [        66B35000]     memory_instance.cc:57       1| MemoryInstance::getDevice
2026-01-28 22:12:54.594 (   1.761s) [        66B35000]      event_instance.cc:223      1| EventInstance::PJRT_Event_OnReady
2026-01-28 22:12:54.594 (   1.761s) [        66B35000]      event_instance.cc:172      1| EventInstance::PJRT_Event_Destroy
2026-01-28 22:12:54.595 (   1.761s) [        66B35000]  device_description.cc:63       1| DeviceDescription::PJRT_DeviceDescription_Id
2026-01-28 22:12:54.595 (   1.761s) [        66B35000]  device_description.cc:63       1| DeviceDescription::PJRT_DeviceDescription_Id
2026-01-28 22:12:54.595 (   1.762s) [        66B35000]     device_instance.cc:82       1| DeviceInstance::PJRT_Device_DefaultMemory
2026-01-28 22:12:54.595 (   1.762s) [        66B35000]     client_instance.cc:735      1| ClientInstance::PJRT_Client_BufferFromHostBuffer
2026-01-28 22:12:54.595 (   1.762s) [        66B35000]     memory_instance.cc:57       1| MemoryInstance::getDevice
2026-01-28 22:12:54.595 (   1.762s) [        66B35000]      event_instance.cc:223      1| EventInstance::PJRT_Event_OnReady
2026-01-28 22:12:54.595 (   1.762s) [        66B35000]      event_instance.cc:172      1| EventInstance::PJRT_Event_Destroy
2026-01-28 22:12:54.595 (   1.762s) [        66B35000]     device_instance.cc:82       1| DeviceInstance::PJRT_Device_DefaultMemory
2026-01-28 22:12:54.595 (   1.762s) [        66B35000]     client_instance.cc:735      1| ClientInstance::PJRT_Client_BufferFromHostBuffer
2026-01-28 22:12:54.595 (   1.762s) [        66B35000]     memory_instance.cc:57       1| MemoryInstance::getDevice
2026-01-28 22:12:54.595 (   1.762s) [        66B35000]      event_instance.cc:223      1| EventInstance::PJRT_Event_OnReady
2026-01-28 22:12:54.595 (   1.762s) [        66B35000]      event_instance.cc:172      1| EventInstance::PJRT_Event_Destroy
2026-01-28 22:12:54.595 (   1.762s) [        66B35000]  device_description.cc:63       1| DeviceDescription::PJRT_DeviceDescription_Id
2026-01-28 22:12:54.595 (   1.762s) [        66B35000]  device_description.cc:63       1| DeviceDescription::PJRT_DeviceDescription_Id
2026-01-28 22:12:54.596 (   1.762s) [        66B35000]     device_instance.cc:82       1| DeviceInstance::PJRT_Device_DefaultMemory
2026-01-28 22:12:54.596 (   1.762s) [        66B35000]     client_instance.cc:735      1| ClientInstance::PJRT_Client_BufferFromHostBuffer
2026-01-28 22:12:54.596 (   1.762s) [        66B35000]     memory_instance.cc:57       1| MemoryInstance::getDevice
2026-01-28 22:12:54.596 (   1.763s) [        66B35000]      event_instance.cc:223      1| EventInstance::PJRT_Event_OnReady
2026-01-28 22:12:54.596 (   1.763s) [        66B35000]      event_instance.cc:172      1| EventInstance::PJRT_Event_Destroy
2026-01-28 22:12:54.596 (   1.763s) [        66B35000]     device_instance.cc:82       1| DeviceInstance::PJRT_Device_DefaultMemory
2026-01-28 22:12:54.596 (   1.763s) [        66B35000]     client_instance.cc:735      1| ClientInstance::PJRT_Client_BufferFromHostBuffer
2026-01-28 22:12:54.596 (   1.763s) [        66B35000]     memory_instance.cc:57       1| MemoryInstance::getDevice
2026-01-28 22:12:54.596 (   1.763s) [        66B35000]      event_instance.cc:223      1| EventInstance::PJRT_Event_OnReady
2026-01-28 22:12:54.596 (   1.763s) [        66B35000]      event_instance.cc:172      1| EventInstance::PJRT_Event_Destroy
2026-01-28 22:12:54.596 (   1.763s) [        66B35000]  device_description.cc:63       1| DeviceDescription::PJRT_DeviceDescription_Id
2026-01-28 22:12:54.596 (   1.763s) [        66B35000]  device_description.cc:63       1| DeviceDescription::PJRT_DeviceDescription_Id
2026-01-28 22:12:54.597 (   1.764s) [        66B35000]     device_instance.cc:82       1| DeviceInstance::PJRT_Device_DefaultMemory
2026-01-28 22:12:54.597 (   1.764s) [        66B35000]     client_instance.cc:735      1| ClientInstance::PJRT_Client_BufferFromHostBuffer
2026-01-28 22:12:54.597 (   1.764s) [        66B35000]     memory_instance.cc:57       1| MemoryInstance::getDevice
2026-01-28 22:12:54.597 (   1.764s) [        66B35000]      event_instance.cc:223      1| EventInstance::PJRT_Event_OnReady
2026-01-28 22:12:54.597 (   1.764s) [        66B35000]      event_instance.cc:172      1| EventInstance::PJRT_Event_Destroy
2026-01-28 22:12:54.597 (   1.764s) [        66B35000]     device_instance.cc:82       1| DeviceInstance::PJRT_Device_DefaultMemory
2026-01-28 22:12:54.597 (   1.764s) [        66B35000]     client_instance.cc:735      1| ClientInstance::PJRT_Client_BufferFromHostBuffer
2026-01-28 22:12:54.597 (   1.764s) [        66B35000]     memory_instance.cc:57       1| MemoryInstance::getDevice
2026-01-28 22:12:54.597 (   1.764s) [        66B35000]      event_instance.cc:223      1| EventInstance::PJRT_Event_OnReady
2026-01-28 22:12:54.597 (   1.764s) [        66B35000]      event_instance.cc:172      1| EventInstance::PJRT_Event_Destroy
2026-01-28 22:12:54.597 (   1.764s) [        66B35000]  device_description.cc:63       1| DeviceDescription::PJRT_DeviceDescription_Id
2026-01-28 22:12:54.597 (   1.764s) [        66B35000]  device_description.cc:63       1| DeviceDescription::PJRT_DeviceDescription_Id
2026-01-28 22:12:54.598 (   1.765s) [        66B35000]     device_instance.cc:82       1| DeviceInstance::PJRT_Device_DefaultMemory
2026-01-28 22:12:54.598 (   1.765s) [        66B35000]     client_instance.cc:735      1| ClientInstance::PJRT_Client_BufferFromHostBuffer
2026-01-28 22:12:54.598 (   1.765s) [        66B35000]     memory_instance.cc:57       1| MemoryInstance::getDevice
2026-01-28 22:12:54.598 (   1.765s) [        66B35000]      event_instance.cc:223      1| EventInstance::PJRT_Event_OnReady
2026-01-28 22:12:54.598 (   1.765s) [        66B35000]      event_instance.cc:172      1| EventInstance::PJRT_Event_Destroy
2026-01-28 22:12:54.598 (   1.765s) [        66B35000]     device_instance.cc:82       1| DeviceInstance::PJRT_Device_DefaultMemory
2026-01-28 22:12:54.598 (   1.765s) [        66B35000]     client_instance.cc:735      1| ClientInstance::PJRT_Client_BufferFromHostBuffer
2026-01-28 22:12:54.598 (   1.765s) [        66B35000]     memory_instance.cc:57       1| MemoryInstance::getDevice
2026-01-28 22:12:54.598 (   1.765s) [        66B35000]      event_instance.cc:223      1| EventInstance::PJRT_Event_OnReady
2026-01-28 22:12:54.598 (   1.765s) [        66B35000]      event_instance.cc:172      1| EventInstance::PJRT_Event_Destroy
2026-01-28 22:12:54.598 (   1.765s) [        66B35000]  device_description.cc:63       1| DeviceDescription::PJRT_DeviceDescription_Id
2026-01-28 22:12:54.598 (   1.765s) [        66B35000]  device_description.cc:63       1| DeviceDescription::PJRT_DeviceDescription_Id
2026-01-28 22:12:54.599 (   1.766s) [        66B35000]     device_instance.cc:82       1| DeviceInstance::PJRT_Device_DefaultMemory
2026-01-28 22:12:54.599 (   1.766s) [        66B35000]     client_instance.cc:735      1| ClientInstance::PJRT_Client_BufferFromHostBuffer
2026-01-28 22:12:54.599 (   1.766s) [        66B35000]     memory_instance.cc:57       1| MemoryInstance::getDevice
2026-01-28 22:12:54.599 (   1.766s) [        66B35000]      event_instance.cc:223      1| EventInstance::PJRT_Event_OnReady
2026-01-28 22:12:54.599 (   1.766s) [        66B35000]      event_instance.cc:172      1| EventInstance::PJRT_Event_Destroy
2026-01-28 22:12:54.599 (   1.766s) [        66B35000]     device_instance.cc:82       1| DeviceInstance::PJRT_Device_DefaultMemory
2026-01-28 22:12:54.599 (   1.766s) [        66B35000]     client_instance.cc:735      1| ClientInstance::PJRT_Client_BufferFromHostBuffer
2026-01-28 22:12:54.599 (   1.766s) [        66B35000]     memory_instance.cc:57       1| MemoryInstance::getDevice
2026-01-28 22:12:54.599 (   1.766s) [        66B35000]      event_instance.cc:223      1| EventInstance::PJRT_Event_OnReady
2026-01-28 22:12:54.599 (   1.766s) [        66B35000]      event_instance.cc:172      1| EventInstance::PJRT_Event_Destroy
2026-01-28 22:12:54.600 (   1.766s) [        66B35000]  device_description.cc:63       1| DeviceDescription::PJRT_DeviceDescription_Id
2026-01-28 22:12:54.600 (   1.766s) [        66B35000]  device_description.cc:63       1| DeviceDescription::PJRT_DeviceDescription_Id
2026-01-28 22:12:54.600 (   1.767s) [        66B35000]     device_instance.cc:82       1| DeviceInstance::PJRT_Device_DefaultMemory
2026-01-28 22:12:54.600 (   1.767s) [        66B35000]     client_instance.cc:735      1| ClientInstance::PJRT_Client_BufferFromHostBuffer
2026-01-28 22:12:54.600 (   1.767s) [        66B35000]     memory_instance.cc:57       1| MemoryInstance::getDevice
2026-01-28 22:12:54.600 (   1.767s) [        66B35000]      event_instance.cc:223      1| EventInstance::PJRT_Event_OnReady
2026-01-28 22:12:54.600 (   1.767s) [        66B35000]      event_instance.cc:172      1| EventInstance::PJRT_Event_Destroy
2026-01-28 22:12:54.600 (   1.767s) [        66B35000]     device_instance.cc:82       1| DeviceInstance::PJRT_Device_DefaultMemory
2026-01-28 22:12:54.600 (   1.767s) [        66B35000]     client_instance.cc:735      1| ClientInstance::PJRT_Client_BufferFromHostBuffer
2026-01-28 22:12:54.600 (   1.767s) [        66B35000]     memory_instance.cc:57       1| MemoryInstance::getDevice
2026-01-28 22:12:54.600 (   1.767s) [        66B35000]      event_instance.cc:223      1| EventInstance::PJRT_Event_OnReady
2026-01-28 22:12:54.600 (   1.767s) [        66B35000]      event_instance.cc:172      1| EventInstance::PJRT_Event_Destroy
2026-01-28 22:12:54.600 (   1.767s) [        66B35000]  device_description.cc:63       1| DeviceDescription::PJRT_DeviceDescription_Id
2026-01-28 22:12:54.601 (   1.767s) [        66B35000]  device_description.cc:63       1| DeviceDescription::PJRT_DeviceDescription_Id
2026-01-28 22:12:54.601 (   1.767s) [        66B35000]     device_instance.cc:82       1| DeviceInstance::PJRT_Device_DefaultMemory
2026-01-28 22:12:54.601 (   1.767s) [        66B35000]     client_instance.cc:735      1| ClientInstance::PJRT_Client_BufferFromHostBuffer
2026-01-28 22:12:54.601 (   1.767s) [        66B35000]     memory_instance.cc:57       1| MemoryInstance::getDevice
2026-01-28 22:12:54.601 (   1.768s) [        66B35000]      event_instance.cc:223      1| EventInstance::PJRT_Event_OnReady
2026-01-28 22:12:54.601 (   1.768s) [        66B35000]      event_instance.cc:172      1| EventInstance::PJRT_Event_Destroy
2026-01-28 22:12:54.601 (   1.768s) [        66B35000]     device_instance.cc:82       1| DeviceInstance::PJRT_Device_DefaultMemory
2026-01-28 22:12:54.601 (   1.768s) [        66B35000]     client_instance.cc:735      1| ClientInstance::PJRT_Client_BufferFromHostBuffer
2026-01-28 22:12:54.601 (   1.768s) [        66B35000]     memory_instance.cc:57       1| MemoryInstance::getDevice
2026-01-28 22:12:54.601 (   1.768s) [        66B35000]      event_instance.cc:223      1| EventInstance::PJRT_Event_OnReady
2026-01-28 22:12:54.601 (   1.768s) [        66B35000]      event_instance.cc:172      1| EventInstance::PJRT_Event_Destroy
2026-01-28 22:12:54.601 (   1.768s) [        66B35000]  device_description.cc:63       1| DeviceDescription::PJRT_DeviceDescription_Id
2026-01-28 22:12:54.601 (   1.768s) [        66B35000]  device_description.cc:63       1| DeviceDescription::PJRT_DeviceDescription_Id
2026-01-28 22:12:54.602 (   1.768s) [        66B35000]     device_instance.cc:82       1| DeviceInstance::PJRT_Device_DefaultMemory
2026-01-28 22:12:54.602 (   1.768s) [        66B35000]     client_instance.cc:735      1| ClientInstance::PJRT_Client_BufferFromHostBuffer
2026-01-28 22:12:54.602 (   1.768s) [        66B35000]     memory_instance.cc:57       1| MemoryInstance::getDevice
2026-01-28 22:12:54.602 (   1.768s) [        66B35000]      event_instance.cc:223      1| EventInstance::PJRT_Event_OnReady
2026-01-28 22:12:54.602 (   1.768s) [        66B35000]      event_instance.cc:172      1| EventInstance::PJRT_Event_Destroy
2026-01-28 22:12:54.602 (   1.768s) [        66B35000]     device_instance.cc:82       1| DeviceInstance::PJRT_Device_DefaultMemory
2026-01-28 22:12:54.602 (   1.768s) [        66B35000]     client_instance.cc:735      1| ClientInstance::PJRT_Client_BufferFromHostBuffer
2026-01-28 22:12:54.602 (   1.768s) [        66B35000]     memory_instance.cc:57       1| MemoryInstance::getDevice
2026-01-28 22:12:54.602 (   1.769s) [        66B35000]      event_instance.cc:223      1| EventInstance::PJRT_Event_OnReady
2026-01-28 22:12:54.602 (   1.769s) [        66B35000]      event_instance.cc:172      1| EventInstance::PJRT_Event_Destroy
2026-01-28 22:12:54.602 (   1.769s) [        66B35000]  device_description.cc:63       1| DeviceDescription::PJRT_DeviceDescription_Id
2026-01-28 22:12:54.602 (   1.769s) [        66B35000]  device_description.cc:63       1| DeviceDescription::PJRT_DeviceDescription_Id
2026-01-28 22:12:54.602 (   1.769s) [        66B35000]     device_instance.cc:82       1| DeviceInstance::PJRT_Device_DefaultMemory
2026-01-28 22:12:54.603 (   1.769s) [        66B35000]     client_instance.cc:735      1| ClientInstance::PJRT_Client_BufferFromHostBuffer
2026-01-28 22:12:54.603 (   1.769s) [        66B35000]     memory_instance.cc:57       1| MemoryInstance::getDevice
2026-01-28 22:12:54.603 (   1.769s) [        66B35000]      event_instance.cc:223      1| EventInstance::PJRT_Event_OnReady
2026-01-28 22:12:54.603 (   1.769s) [        66B35000]      event_instance.cc:172      1| EventInstance::PJRT_Event_Destroy
2026-01-28 22:12:54.603 (   1.769s) [        66B35000]     device_instance.cc:82       1| DeviceInstance::PJRT_Device_DefaultMemory
2026-01-28 22:12:54.603 (   1.769s) [        66B35000]     client_instance.cc:735      1| ClientInstance::PJRT_Client_BufferFromHostBuffer
2026-01-28 22:12:54.603 (   1.769s) [        66B35000]     memory_instance.cc:57       1| MemoryInstance::getDevice
2026-01-28 22:12:54.603 (   1.770s) [        66B35000]      event_instance.cc:223      1| EventInstance::PJRT_Event_OnReady
2026-01-28 22:12:54.603 (   1.770s) [        66B35000]      event_instance.cc:172      1| EventInstance::PJRT_Event_Destroy
2026-01-28 22:12:54.603 (   1.770s) [        66B35000]  device_description.cc:63       1| DeviceDescription::PJRT_DeviceDescription_Id
2026-01-28 22:12:54.603 (   1.770s) [        66B35000]  device_description.cc:63       1| DeviceDescription::PJRT_DeviceDescription_Id
2026-01-28 22:12:54.604 (   1.770s) [        66B35000]     device_instance.cc:82       1| DeviceInstance::PJRT_Device_DefaultMemory
2026-01-28 22:12:54.604 (   1.770s) [        66B35000]     client_instance.cc:735      1| ClientInstance::PJRT_Client_BufferFromHostBuffer
2026-01-28 22:12:54.604 (   1.770s) [        66B35000]     memory_instance.cc:57       1| MemoryInstance::getDevice
2026-01-28 22:12:54.604 (   1.771s) [        66B35000]      event_instance.cc:223      1| EventInstance::PJRT_Event_OnReady
2026-01-28 22:12:54.604 (   1.771s) [        66B35000]      event_instance.cc:172      1| EventInstance::PJRT_Event_Destroy
2026-01-28 22:12:54.604 (   1.771s) [        66B35000]     device_instance.cc:82       1| DeviceInstance::PJRT_Device_DefaultMemory
2026-01-28 22:12:54.604 (   1.771s) [        66B35000]     client_instance.cc:735      1| ClientInstance::PJRT_Client_BufferFromHostBuffer
2026-01-28 22:12:54.604 (   1.771s) [        66B35000]     memory_instance.cc:57       1| MemoryInstance::getDevice
2026-01-28 22:12:54.604 (   1.771s) [        66B35000]      event_instance.cc:223      1| EventInstance::PJRT_Event_OnReady
2026-01-28 22:12:54.604 (   1.771s) [        66B35000]      event_instance.cc:172      1| EventInstance::PJRT_Event_Destroy
2026-01-28 22:12:54.604 (   1.771s) [        66B35000]  device_description.cc:63       1| DeviceDescription::PJRT_DeviceDescription_Id
2026-01-28 22:12:54.604 (   1.771s) [        66B35000]  device_description.cc:63       1| DeviceDescription::PJRT_DeviceDescription_Id
2026-01-28 22:12:54.605 (   1.771s) [        66B35000]     device_instance.cc:82       1| DeviceInstance::PJRT_Device_DefaultMemory
2026-01-28 22:12:54.605 (   1.771s) [        66B35000]     client_instance.cc:735      1| ClientInstance::PJRT_Client_BufferFromHostBuffer
2026-01-28 22:12:54.605 (   1.771s) [        66B35000]     memory_instance.cc:57       1| MemoryInstance::getDevice
2026-01-28 22:12:54.605 (   1.771s) [        66B35000]      event_instance.cc:223      1| EventInstance::PJRT_Event_OnReady
2026-01-28 22:12:54.605 (   1.771s) [        66B35000]      event_instance.cc:172      1| EventInstance::PJRT_Event_Destroy
2026-01-28 22:12:54.605 (   1.771s) [        66B35000]     device_instance.cc:82       1| DeviceInstance::PJRT_Device_DefaultMemory
2026-01-28 22:12:54.605 (   1.771s) [        66B35000]     client_instance.cc:735      1| ClientInstance::PJRT_Client_BufferFromHostBuffer
2026-01-28 22:12:54.605 (   1.771s) [        66B35000]     memory_instance.cc:57       1| MemoryInstance::getDevice
2026-01-28 22:12:54.605 (   1.772s) [        66B35000]      event_instance.cc:223      1| EventInstance::PJRT_Event_OnReady
2026-01-28 22:12:54.605 (   1.772s) [        66B35000]      event_instance.cc:172      1| EventInstance::PJRT_Event_Destroy
2026-01-28 22:12:54.605 (   1.772s) [        66B35000]  device_description.cc:63       1| DeviceDescription::PJRT_DeviceDescription_Id
2026-01-28 22:12:54.605 (   1.772s) [        66B35000]  device_description.cc:63       1| DeviceDescription::PJRT_DeviceDescription_Id
2026-01-28 22:12:54.606 (   1.772s) [        66B35000]     device_instance.cc:82       1| DeviceInstance::PJRT_Device_DefaultMemory
2026-01-28 22:12:54.606 (   1.772s) [        66B35000]     client_instance.cc:735      1| ClientInstance::PJRT_Client_BufferFromHostBuffer
2026-01-28 22:12:54.606 (   1.772s) [        66B35000]     memory_instance.cc:57       1| MemoryInstance::getDevice
2026-01-28 22:12:54.606 (   1.772s) [        66B35000]      event_instance.cc:223      1| EventInstance::PJRT_Event_OnReady
2026-01-28 22:12:54.606 (   1.772s) [        66B35000]      event_instance.cc:172      1| EventInstance::PJRT_Event_Destroy
2026-01-28 22:12:54.606 (   1.772s) [        66B35000]     device_instance.cc:82       1| DeviceInstance::PJRT_Device_DefaultMemory
2026-01-28 22:12:54.606 (   1.772s) [        66B35000]     client_instance.cc:735      1| ClientInstance::PJRT_Client_BufferFromHostBuffer
2026-01-28 22:12:54.606 (   1.772s) [        66B35000]     memory_instance.cc:57       1| MemoryInstance::getDevice
2026-01-28 22:12:54.606 (   1.773s) [        66B35000]      event_instance.cc:223      1| EventInstance::PJRT_Event_OnReady
2026-01-28 22:12:54.606 (   1.773s) [        66B35000]      event_instance.cc:172      1| EventInstance::PJRT_Event_Destroy
2026-01-28 22:12:54.606 (   1.773s) [        66B35000]  device_description.cc:63       1| DeviceDescription::PJRT_DeviceDescription_Id
2026-01-28 22:12:54.606 (   1.773s) [        66B35000]  device_description.cc:63       1| DeviceDescription::PJRT_DeviceDescription_Id
2026-01-28 22:12:54.606 (   1.773s) [        66B35000]     device_instance.cc:82       1| DeviceInstance::PJRT_Device_DefaultMemory
2026-01-28 22:12:54.606 (   1.773s) [        66B35000]     client_instance.cc:735      1| ClientInstance::PJRT_Client_BufferFromHostBuffer
2026-01-28 22:12:54.606 (   1.773s) [        66B35000]     memory_instance.cc:57       1| MemoryInstance::getDevice
2026-01-28 22:12:54.607 (   1.773s) [        66B35000]      event_instance.cc:223      1| EventInstance::PJRT_Event_OnReady
2026-01-28 22:12:54.607 (   1.773s) [        66B35000]      event_instance.cc:172      1| EventInstance::PJRT_Event_Destroy
2026-01-28 22:12:54.607 (   1.773s) [        66B35000]     device_instance.cc:82       1| DeviceInstance::PJRT_Device_DefaultMemory
2026-01-28 22:12:54.607 (   1.773s) [        66B35000]     client_instance.cc:735      1| ClientInstance::PJRT_Client_BufferFromHostBuffer
2026-01-28 22:12:54.607 (   1.773s) [        66B35000]     memory_instance.cc:57       1| MemoryInstance::getDevice
2026-01-28 22:12:54.607 (   1.773s) [        66B35000]      event_instance.cc:223      1| EventInstance::PJRT_Event_OnReady
2026-01-28 22:12:54.607 (   1.773s) [        66B35000]      event_instance.cc:172      1| EventInstance::PJRT_Event_Destroy
2026-01-28 22:12:54.607 (   1.774s) [        66B35000]  device_description.cc:63       1| DeviceDescription::PJRT_DeviceDescription_Id
2026-01-28 22:12:54.607 (   1.774s) [        66B35000]  device_description.cc:63       1| DeviceDescription::PJRT_DeviceDescription_Id
2026-01-28 22:12:54.607 (   1.774s) [        66B35000]     device_instance.cc:82       1| DeviceInstance::PJRT_Device_DefaultMemory
2026-01-28 22:12:54.607 (   1.774s) [        66B35000]     client_instance.cc:735      1| ClientInstance::PJRT_Client_BufferFromHostBuffer
2026-01-28 22:12:54.607 (   1.774s) [        66B35000]     memory_instance.cc:57       1| MemoryInstance::getDevice
2026-01-28 22:12:54.607 (   1.774s) [        66B35000]      event_instance.cc:223      1| EventInstance::PJRT_Event_OnReady
2026-01-28 22:12:54.607 (   1.774s) [        66B35000]      event_instance.cc:172      1| EventInstance::PJRT_Event_Destroy
2026-01-28 22:12:54.607 (   1.774s) [        66B35000]     device_instance.cc:82       1| DeviceInstance::PJRT_Device_DefaultMemory
2026-01-28 22:12:54.607 (   1.774s) [        66B35000]     client_instance.cc:735      1| ClientInstance::PJRT_Client_BufferFromHostBuffer
2026-01-28 22:12:54.607 (   1.774s) [        66B35000]     memory_instance.cc:57       1| MemoryInstance::getDevice
2026-01-28 22:12:54.608 (   1.774s) [        66B35000]      event_instance.cc:223      1| EventInstance::PJRT_Event_OnReady
2026-01-28 22:12:54.608 (   1.774s) [        66B35000]      event_instance.cc:172      1| EventInstance::PJRT_Event_Destroy
2026-01-28 22:12:54.608 (   1.774s) [        66B35000]  device_description.cc:63       1| DeviceDescription::PJRT_DeviceDescription_Id
2026-01-28 22:12:54.608 (   1.774s) [        66B35000]  device_description.cc:63       1| DeviceDescription::PJRT_DeviceDescription_Id
2026-01-28 22:12:54.608 (   1.775s) [        66B35000]     device_instance.cc:82       1| DeviceInstance::PJRT_Device_DefaultMemory
2026-01-28 22:12:54.608 (   1.775s) [        66B35000]     client_instance.cc:735      1| ClientInstance::PJRT_Client_BufferFromHostBuffer
2026-01-28 22:12:54.608 (   1.775s) [        66B35000]     memory_instance.cc:57       1| MemoryInstance::getDevice
2026-01-28 22:12:54.608 (   1.775s) [        66B35000]      event_instance.cc:223      1| EventInstance::PJRT_Event_OnReady
2026-01-28 22:12:54.608 (   1.775s) [        66B35000]      event_instance.cc:172      1| EventInstance::PJRT_Event_Destroy
2026-01-28 22:12:54.608 (   1.775s) [        66B35000]     device_instance.cc:82       1| DeviceInstance::PJRT_Device_DefaultMemory
2026-01-28 22:12:54.608 (   1.775s) [        66B35000]     client_instance.cc:735      1| ClientInstance::PJRT_Client_BufferFromHostBuffer
2026-01-28 22:12:54.608 (   1.775s) [        66B35000]     memory_instance.cc:57       1| MemoryInstance::getDevice
2026-01-28 22:12:54.608 (   1.775s) [        66B35000]      event_instance.cc:223      1| EventInstance::PJRT_Event_OnReady
2026-01-28 22:12:54.608 (   1.775s) [        66B35000]      event_instance.cc:172      1| EventInstance::PJRT_Event_Destroy
2026-01-28 22:12:54.608 (   1.775s) [        66B35000]  device_description.cc:63       1| DeviceDescription::PJRT_DeviceDescription_Id
2026-01-28 22:12:54.608 (   1.775s) [        66B35000]  device_description.cc:63       1| DeviceDescription::PJRT_DeviceDescription_Id
2026-01-28 22:12:54.609 (   1.776s) [        66B35000]     device_instance.cc:82       1| DeviceInstance::PJRT_Device_DefaultMemory
2026-01-28 22:12:54.609 (   1.776s) [        66B35000]     client_instance.cc:735      1| ClientInstance::PJRT_Client_BufferFromHostBuffer
2026-01-28 22:12:54.609 (   1.776s) [        66B35000]     memory_instance.cc:57       1| MemoryInstance::getDevice
2026-01-28 22:12:54.609 (   1.776s) [        66B35000]      event_instance.cc:223      1| EventInstance::PJRT_Event_OnReady
2026-01-28 22:12:54.609 (   1.776s) [        66B35000]      event_instance.cc:172      1| EventInstance::PJRT_Event_Destroy
2026-01-28 22:12:54.609 (   1.776s) [        66B35000]     device_instance.cc:82       1| DeviceInstance::PJRT_Device_DefaultMemory
2026-01-28 22:12:54.609 (   1.776s) [        66B35000]     client_instance.cc:735      1| ClientInstance::PJRT_Client_BufferFromHostBuffer
2026-01-28 22:12:54.609 (   1.776s) [        66B35000]     memory_instance.cc:57       1| MemoryInstance::getDevice
2026-01-28 22:12:54.609 (   1.776s) [        66B35000]      event_instance.cc:223      1| EventInstance::PJRT_Event_OnReady
2026-01-28 22:12:54.609 (   1.776s) [        66B35000]      event_instance.cc:172      1| EventInstance::PJRT_Event_Destroy
2026-01-28 22:12:54.609 (   1.776s) [        66B35000]  device_description.cc:63       1| DeviceDescription::PJRT_DeviceDescription_Id
2026-01-28 22:12:54.609 (   1.776s) [        66B35000]  device_description.cc:63       1| DeviceDescription::PJRT_DeviceDescription_Id
2026-01-28 22:12:54.610 (   1.777s) [        66B35000]     device_instance.cc:82       1| DeviceInstance::PJRT_Device_DefaultMemory
2026-01-28 22:12:54.610 (   1.777s) [        66B35000]     client_instance.cc:735      1| ClientInstance::PJRT_Client_BufferFromHostBuffer
2026-01-28 22:12:54.610 (   1.777s) [        66B35000]     memory_instance.cc:57       1| MemoryInstance::getDevice
2026-01-28 22:12:54.610 (   1.777s) [        66B35000]      event_instance.cc:223      1| EventInstance::PJRT_Event_OnReady
2026-01-28 22:12:54.610 (   1.777s) [        66B35000]      event_instance.cc:172      1| EventInstance::PJRT_Event_Destroy
2026-01-28 22:12:54.610 (   1.777s) [        66B35000]     device_instance.cc:82       1| DeviceInstance::PJRT_Device_DefaultMemory
2026-01-28 22:12:54.610 (   1.777s) [        66B35000]     client_instance.cc:735      1| ClientInstance::PJRT_Client_BufferFromHostBuffer
2026-01-28 22:12:54.610 (   1.777s) [        66B35000]     memory_instance.cc:57       1| MemoryInstance::getDevice
2026-01-28 22:12:54.610 (   1.777s) [        66B35000]      event_instance.cc:223      1| EventInstance::PJRT_Event_OnReady
2026-01-28 22:12:54.610 (   1.777s) [        66B35000]      event_instance.cc:172      1| EventInstance::PJRT_Event_Destroy
2026-01-28 22:12:54.611 (   1.777s) [        66B35000]  device_description.cc:63       1| DeviceDescription::PJRT_DeviceDescription_Id
2026-01-28 22:12:54.611 (   1.777s) [        66B35000]  device_description.cc:63       1| DeviceDescription::PJRT_DeviceDescription_Id
2026-01-28 22:12:54.611 (   1.778s) [        66B35000]     device_instance.cc:82       1| DeviceInstance::PJRT_Device_DefaultMemory
2026-01-28 22:12:54.611 (   1.778s) [        66B35000]     client_instance.cc:735      1| ClientInstance::PJRT_Client_BufferFromHostBuffer
2026-01-28 22:12:54.611 (   1.778s) [        66B35000]     memory_instance.cc:57       1| MemoryInstance::getDevice
2026-01-28 22:12:54.611 (   1.778s) [        66B35000]      event_instance.cc:223      1| EventInstance::PJRT_Event_OnReady
2026-01-28 22:12:54.611 (   1.778s) [        66B35000]      event_instance.cc:172      1| EventInstance::PJRT_Event_Destroy
2026-01-28 22:12:54.611 (   1.778s) [        66B35000]     device_instance.cc:82       1| DeviceInstance::PJRT_Device_DefaultMemory
2026-01-28 22:12:54.611 (   1.778s) [        66B35000]     client_instance.cc:735      1| ClientInstance::PJRT_Client_BufferFromHostBuffer
2026-01-28 22:12:54.611 (   1.778s) [        66B35000]     memory_instance.cc:57       1| MemoryInstance::getDevice
2026-01-28 22:12:54.611 (   1.778s) [        66B35000]      event_instance.cc:223      1| EventInstance::PJRT_Event_OnReady
2026-01-28 22:12:54.611 (   1.778s) [        66B35000]      event_instance.cc:172      1| EventInstance::PJRT_Event_Destroy
2026-01-28 22:12:54.611 (   1.778s) [        66B35000]  device_description.cc:63       1| DeviceDescription::PJRT_DeviceDescription_Id
2026-01-28 22:12:54.611 (   1.778s) [        66B35000]  device_description.cc:63       1| DeviceDescription::PJRT_DeviceDescription_Id
2026-01-28 22:12:54.612 (   1.779s) [        66B35000]     device_instance.cc:82       1| DeviceInstance::PJRT_Device_DefaultMemory
2026-01-28 22:12:54.612 (   1.779s) [        66B35000]     client_instance.cc:735      1| ClientInstance::PJRT_Client_BufferFromHostBuffer
2026-01-28 22:12:54.612 (   1.779s) [        66B35000]     memory_instance.cc:57       1| MemoryInstance::getDevice
2026-01-28 22:12:54.612 (   1.779s) [        66B35000]      event_instance.cc:223      1| EventInstance::PJRT_Event_OnReady
2026-01-28 22:12:54.612 (   1.779s) [        66B35000]      event_instance.cc:172      1| EventInstance::PJRT_Event_Destroy
2026-01-28 22:12:54.612 (   1.779s) [        66B35000]     device_instance.cc:82       1| DeviceInstance::PJRT_Device_DefaultMemory
2026-01-28 22:12:54.612 (   1.779s) [        66B35000]     client_instance.cc:735      1| ClientInstance::PJRT_Client_BufferFromHostBuffer
2026-01-28 22:12:54.612 (   1.779s) [        66B35000]     memory_instance.cc:57       1| MemoryInstance::getDevice
2026-01-28 22:12:54.613 (   1.779s) [        66B35000]      event_instance.cc:223      1| EventInstance::PJRT_Event_OnReady
2026-01-28 22:12:54.613 (   1.779s) [        66B35000]      event_instance.cc:172      1| EventInstance::PJRT_Event_Destroy
2026-01-28 22:12:54.613 (   1.779s) [        66B35000]  device_description.cc:63       1| DeviceDescription::PJRT_DeviceDescription_Id
2026-01-28 22:12:54.613 (   1.779s) [        66B35000]  device_description.cc:63       1| DeviceDescription::PJRT_DeviceDescription_Id
2026-01-28 22:12:54.613 (   1.780s) [        66B35000]     device_instance.cc:82       1| DeviceInstance::PJRT_Device_DefaultMemory
2026-01-28 22:12:54.613 (   1.780s) [        66B35000]     client_instance.cc:735      1| ClientInstance::PJRT_Client_BufferFromHostBuffer
2026-01-28 22:12:54.613 (   1.780s) [        66B35000]     memory_instance.cc:57       1| MemoryInstance::getDevice
2026-01-28 22:12:54.613 (   1.780s) [        66B35000]      event_instance.cc:223      1| EventInstance::PJRT_Event_OnReady
2026-01-28 22:12:54.613 (   1.780s) [        66B35000]      event_instance.cc:172      1| EventInstance::PJRT_Event_Destroy
2026-01-28 22:12:54.613 (   1.780s) [        66B35000]     device_instance.cc:82       1| DeviceInstance::PJRT_Device_DefaultMemory
2026-01-28 22:12:54.613 (   1.780s) [        66B35000]     client_instance.cc:735      1| ClientInstance::PJRT_Client_BufferFromHostBuffer
2026-01-28 22:12:54.613 (   1.780s) [        66B35000]     memory_instance.cc:57       1| MemoryInstance::getDevice
2026-01-28 22:12:54.613 (   1.780s) [        66B35000]      event_instance.cc:223      1| EventInstance::PJRT_Event_OnReady
2026-01-28 22:12:54.613 (   1.780s) [        66B35000]      event_instance.cc:172      1| EventInstance::PJRT_Event_Destroy
2026-01-28 22:12:54.614 (   1.780s) [        66B35000]  device_description.cc:63       1| DeviceDescription::PJRT_DeviceDescription_Id
2026-01-28 22:12:54.614 (   1.780s) [        66B35000]  device_description.cc:63       1| DeviceDescription::PJRT_DeviceDescription_Id
2026-01-28 22:12:54.614 (   1.781s) [        66B35000]     device_instance.cc:82       1| DeviceInstance::PJRT_Device_DefaultMemory
2026-01-28 22:12:54.614 (   1.781s) [        66B35000]     client_instance.cc:735      1| ClientInstance::PJRT_Client_BufferFromHostBuffer
2026-01-28 22:12:54.614 (   1.781s) [        66B35000]     memory_instance.cc:57       1| MemoryInstance::getDevice
2026-01-28 22:12:54.614 (   1.781s) [        66B35000]      event_instance.cc:223      1| EventInstance::PJRT_Event_OnReady
2026-01-28 22:12:54.614 (   1.781s) [        66B35000]      event_instance.cc:172      1| EventInstance::PJRT_Event_Destroy
2026-01-28 22:12:54.614 (   1.781s) [        66B35000]     device_instance.cc:82       1| DeviceInstance::PJRT_Device_DefaultMemory
2026-01-28 22:12:54.614 (   1.781s) [        66B35000]     client_instance.cc:735      1| ClientInstance::PJRT_Client_BufferFromHostBuffer
2026-01-28 22:12:54.614 (   1.781s) [        66B35000]     memory_instance.cc:57       1| MemoryInstance::getDevice
2026-01-28 22:12:54.614 (   1.781s) [        66B35000]      event_instance.cc:223      1| EventInstance::PJRT_Event_OnReady
2026-01-28 22:12:54.614 (   1.781s) [        66B35000]      event_instance.cc:172      1| EventInstance::PJRT_Event_Destroy
2026-01-28 22:12:54.614 (   1.781s) [        66B35000]  device_description.cc:63       1| DeviceDescription::PJRT_DeviceDescription_Id
2026-01-28 22:12:54.614 (   1.781s) [        66B35000]  device_description.cc:63       1| DeviceDescription::PJRT_DeviceDescription_Id
2026-01-28 22:12:54.615 (   1.781s) [        66B35000]     device_instance.cc:82       1| DeviceInstance::PJRT_Device_DefaultMemory
2026-01-28 22:12:54.615 (   1.781s) [        66B35000]     client_instance.cc:735      1| ClientInstance::PJRT_Client_BufferFromHostBuffer
2026-01-28 22:12:54.615 (   1.781s) [        66B35000]     memory_instance.cc:57       1| MemoryInstance::getDevice
2026-01-28 22:12:54.615 (   1.781s) [        66B35000]      event_instance.cc:223      1| EventInstance::PJRT_Event_OnReady
2026-01-28 22:12:54.615 (   1.781s) [        66B35000]      event_instance.cc:172      1| EventInstance::PJRT_Event_Destroy
2026-01-28 22:12:54.615 (   1.781s) [        66B35000]     device_instance.cc:82       1| DeviceInstance::PJRT_Device_DefaultMemory
2026-01-28 22:12:54.615 (   1.781s) [        66B35000]     client_instance.cc:735      1| ClientInstance::PJRT_Client_BufferFromHostBuffer
2026-01-28 22:12:54.615 (   1.781s) [        66B35000]     memory_instance.cc:57       1| MemoryInstance::getDevice
2026-01-28 22:12:54.615 (   1.782s) [        66B35000]      event_instance.cc:223      1| EventInstance::PJRT_Event_OnReady
2026-01-28 22:12:54.615 (   1.782s) [        66B35000]      event_instance.cc:172      1| EventInstance::PJRT_Event_Destroy
2026-01-28 22:12:54.615 (   1.782s) [        66B35000]  device_description.cc:63       1| DeviceDescription::PJRT_DeviceDescription_Id
2026-01-28 22:12:54.615 (   1.782s) [        66B35000]  device_description.cc:63       1| DeviceDescription::PJRT_DeviceDescription_Id
2026-01-28 22:12:54.616 (   1.782s) [        66B35000]     device_instance.cc:82       1| DeviceInstance::PJRT_Device_DefaultMemory
2026-01-28 22:12:54.616 (   1.782s) [        66B35000]     client_instance.cc:735      1| ClientInstance::PJRT_Client_BufferFromHostBuffer
2026-01-28 22:12:54.616 (   1.782s) [        66B35000]     memory_instance.cc:57       1| MemoryInstance::getDevice
2026-01-28 22:12:54.616 (   1.782s) [        66B35000]      event_instance.cc:223      1| EventInstance::PJRT_Event_OnReady
2026-01-28 22:12:54.616 (   1.782s) [        66B35000]      event_instance.cc:172      1| EventInstance::PJRT_Event_Destroy
2026-01-28 22:12:54.616 (   1.782s) [        66B35000]     device_instance.cc:82       1| DeviceInstance::PJRT_Device_DefaultMemory
2026-01-28 22:12:54.616 (   1.782s) [        66B35000]     client_instance.cc:735      1| ClientInstance::PJRT_Client_BufferFromHostBuffer
2026-01-28 22:12:54.616 (   1.782s) [        66B35000]     memory_instance.cc:57       1| MemoryInstance::getDevice
2026-01-28 22:12:54.616 (   1.783s) [        66B35000]      event_instance.cc:223      1| EventInstance::PJRT_Event_OnReady
2026-01-28 22:12:54.616 (   1.783s) [        66B35000]      event_instance.cc:172      1| EventInstance::PJRT_Event_Destroy
2026-01-28 22:12:54.616 (   1.783s) [        66B35000]  device_description.cc:63       1| DeviceDescription::PJRT_DeviceDescription_Id
2026-01-28 22:12:54.616 (   1.783s) [        66B35000]  device_description.cc:63       1| DeviceDescription::PJRT_DeviceDescription_Id
2026-01-28 22:12:54.617 (   1.783s) [        66B35000]     device_instance.cc:82       1| DeviceInstance::PJRT_Device_DefaultMemory
2026-01-28 22:12:54.617 (   1.783s) [        66B35000]     client_instance.cc:735      1| ClientInstance::PJRT_Client_BufferFromHostBuffer
2026-01-28 22:12:54.617 (   1.783s) [        66B35000]     memory_instance.cc:57       1| MemoryInstance::getDevice
2026-01-28 22:12:54.617 (   1.783s) [        66B35000]      event_instance.cc:223      1| EventInstance::PJRT_Event_OnReady
2026-01-28 22:12:54.617 (   1.784s) [        66B35000]      event_instance.cc:172      1| EventInstance::PJRT_Event_Destroy
2026-01-28 22:12:54.617 (   1.784s) [        66B35000]     device_instance.cc:82       1| DeviceInstance::PJRT_Device_DefaultMemory
2026-01-28 22:12:54.617 (   1.784s) [        66B35000]     client_instance.cc:735      1| ClientInstance::PJRT_Client_BufferFromHostBuffer
2026-01-28 22:12:54.617 (   1.784s) [        66B35000]     memory_instance.cc:57       1| MemoryInstance::getDevice
2026-01-28 22:12:54.617 (   1.784s) [        66B35000]      event_instance.cc:223      1| EventInstance::PJRT_Event_OnReady
2026-01-28 22:12:54.617 (   1.784s) [        66B35000]      event_instance.cc:172      1| EventInstance::PJRT_Event_Destroy
2026-01-28 22:12:54.617 (   1.784s) [        66B35000]  device_description.cc:63       1| DeviceDescription::PJRT_DeviceDescription_Id
2026-01-28 22:12:54.617 (   1.784s) [        66B35000]  device_description.cc:63       1| DeviceDescription::PJRT_DeviceDescription_Id
2026-01-28 22:12:54.618 (   1.784s) [        66B35000]     device_instance.cc:82       1| DeviceInstance::PJRT_Device_DefaultMemory
2026-01-28 22:12:54.618 (   1.784s) [        66B35000]     client_instance.cc:735      1| ClientInstance::PJRT_Client_BufferFromHostBuffer
2026-01-28 22:12:54.618 (   1.784s) [        66B35000]     memory_instance.cc:57       1| MemoryInstance::getDevice
2026-01-28 22:12:54.618 (   1.784s) [        66B35000]      event_instance.cc:223      1| EventInstance::PJRT_Event_OnReady
2026-01-28 22:12:54.618 (   1.784s) [        66B35000]      event_instance.cc:172      1| EventInstance::PJRT_Event_Destroy
2026-01-28 22:12:54.618 (   1.784s) [        66B35000]     device_instance.cc:82       1| DeviceInstance::PJRT_Device_DefaultMemory
2026-01-28 22:12:54.618 (   1.784s) [        66B35000]     client_instance.cc:735      1| ClientInstance::PJRT_Client_BufferFromHostBuffer
2026-01-28 22:12:54.618 (   1.784s) [        66B35000]     memory_instance.cc:57       1| MemoryInstance::getDevice
2026-01-28 22:12:54.618 (   1.785s) [        66B35000]      event_instance.cc:223      1| EventInstance::PJRT_Event_OnReady
2026-01-28 22:12:54.618 (   1.785s) [        66B35000]      event_instance.cc:172      1| EventInstance::PJRT_Event_Destroy
2026-01-28 22:12:54.618 (   1.785s) [        66B35000]  device_description.cc:63       1| DeviceDescription::PJRT_DeviceDescription_Id
2026-01-28 22:12:54.618 (   1.785s) [        66B35000]  device_description.cc:63       1| DeviceDescription::PJRT_DeviceDescription_Id
2026-01-28 22:12:54.619 (   1.785s) [        66B35000]     device_instance.cc:82       1| DeviceInstance::PJRT_Device_DefaultMemory
2026-01-28 22:12:54.619 (   1.785s) [        66B35000]     client_instance.cc:735      1| ClientInstance::PJRT_Client_BufferFromHostBuffer
2026-01-28 22:12:54.619 (   1.785s) [        66B35000]     memory_instance.cc:57       1| MemoryInstance::getDevice
…
#ttnn.buffer_type<dram>>, <interleaved>>> loc("select.265")
[32m            RuntimeTTNN[0m | [1m[38;5;240m   DEBUG[0m | Executing operation: "ttnn.deallocate"(%31) <{force = false}> : (tensor<1x18xsi32, #ttnn.ttnn_layout<(d0, d1) -> (d0, d1), <1x1>, memref<1x1x!ttcore.tile<32x32, si32>, #ttnn.buffer_type<dram>>, <interleaved>>>) -> () loc("select.265")
[32m            RuntimeTTNN[0m | [1m[38;5;240m   DEBUG[0m | Executing operation: %33 = "ttnn.reshape"(%32) <{shape = [4 : i32, 18 : i32, 1 : i32]}> : (tensor<4x18xsi32, #ttnn.ttnn_layout<(d0, d1) -> (d0, d1), <1x1>, memref<1x1x!ttcore.tile<32x32, si32>, #ttnn.buffer_type<dram>>, <interleaved>>>) -> tensor<4x18x1xsi32, #ttnn.ttnn_layout<(d0, d1, d2) -> (d0 * 32 + d1, d2), <1x1>, memref<4x1x!ttcore.tile<32x32, si32>, #ttnn.buffer_type<dram>>, <interleaved>>> loc("reshape.282")
[32m            RuntimeTTNN[0m | [1m[38;5;240m   DEBUG[0m | Executing operation: "ttnn.deallocate"(%32) <{force = false}> : (tensor<4x18xsi32, #ttnn.ttnn_layout<(d0, d1) -> (d0, d1), <1x1>, memref<1x1x!ttcore.tile<32x32, si32>, #ttnn.buffer_type<dram>>, <interleaved>>>) -> () loc("reshape.282")
[32m            RuntimeTTNN[0m | [1m[38;5;240m   DEBUG[0m | Executing operation: %34 = "ttnn.typecast"(%24) <{dtype = #ttcore.supportedDataTypes<bf16>}> : (tensor<4x18x1xsi32, #ttnn.ttnn_layout<(d0, d1, d2) -> (d0 * 32 + d1, d2), <1x1>, memref<4x1x!ttcore.tile<32x32, si32>, #ttnn.buffer_type<dram>>, <interleaved>>>) -> tensor<4x18x1xbf16, #ttnn.ttnn_layout<(d0, d1, d2) -> (d0 * 32 + d1, d2), <1x1>, memref<4x1x!ttcore.tile<32x32, bf16>, #ttnn.buffer_type<dram>>, <interleaved>>> loc("concatenate.283_workaround"("concatenate.283"))
[32m            RuntimeTTNN[0m | [1m[38;5;240m   DEBUG[0m | Executing operation: "ttnn.deallocate"(%24) <{force = false}> : (tensor<4x18x1xsi32, #ttnn.ttnn_layout<(d0, d1, d2) -> (d0 * 32 + d1, d2), <1x1>, memref<4x1x!ttcore.tile<32x32, si32>, #ttnn.buffer_type<dram>>, <interleaved>>>) -> () loc("concatenate.283_workaround"("concatenate.283"))
[32m            RuntimeTTNN[0m | [1m[38;5;240m   DEBUG[0m | Executing operation: %35 = "ttnn.typecast"(%33) <{dtype = #ttcore.supportedDataTypes<bf16>}> : (tensor<4x18x1xsi32, #ttnn.ttnn_layout<(d0, d1, d2) -> (d0 * 32 + d1, d2), <1x1>, memref<4x1x!ttcore.tile<32x32, si32>, #ttnn.buffer_type<dram>>, <interleaved>>>) -> tensor<4x18x1xbf16, #ttnn.ttnn_layout<(d0, d1, d2) -> (d0 * 32 + d1, d2), <1x1>, memref<4x1x!ttcore.tile<32x32, bf16>, #ttnn.buffer_type<dram>>, <interleaved>>> loc("concatenate.283_workaround"("concatenate.283"))
[32m            RuntimeTTNN[0m | [1m[38;5;240m   DEBUG[0m | Executing operation: "ttnn.deallocate"(%33) <{force = false}> : (tensor<4x18x1xsi32, #ttnn.ttnn_layout<(d0, d1, d2) -> (d0 * 32 + d1, d2), <1x1>, memref<4x1x!ttcore.tile<32x32, si32>, #ttnn.buffer_type<dram>>, <interleaved>>>) -> () loc("concatenate.283_workaround"("concatenate.283"))
[32m            RuntimeTTNN[0m | [1m[38;5;240m   DEBUG[0m | Executing operation: %36 = "ttnn.concat"(%34, %35) <{dim = 2 : si32}> : (tensor<4x18x1xbf16, #ttnn.ttnn_layout<(d0, d1, d2) -> (d0 * 32 + d1, d2), <1x1>, memref<4x1x!ttcore.tile<32x32, bf16>, #ttnn.buffer_type<dram>>, <interleaved>>>, tensor<4x18x1xbf16, #ttnn.ttnn_layout<(d0, d1, d2) -> (d0 * 32 + d1, d2), <1x1>, memref<4x1x!ttcore.tile<32x32, bf16>, #ttnn.buffer_type<dram>>, <interleaved>>>) -> tensor<4x18x2xbf16, #ttnn.ttnn_layout<(d0, d1, d2) -> (d0 * 32 + d1, d2), <1x1>, memref<4x1x!ttcore.tile<32x32, bf16>, #ttnn.buffer_type<dram>>, <interleaved>>> loc("concatenate.283")
[32m            RuntimeTTNN[0m | [1m[38;5;240m   DEBUG[0m | Executing operation: "ttnn.deallocate"(%35) <{force = false}> : (tensor<4x18x1xbf16, #ttnn.ttnn_layout<(d0, d1, d2) -> (d0 * 32 + d1, d2), <1x1>, memref<4x1x!ttcore.tile<32x32, bf16>, #ttnn.buffer_type<dram>>, <interleaved>>>) -> () loc("concatenate.283")
[32m            RuntimeTTNN[0m | [1m[38;5;240m   DEBUG[0m | Executing operation: "ttnn.deallocate"(%34) <{force = false}> : (tensor<4x18x1xbf16, #ttnn.ttnn_layout<(d0, d1, d2) -> (d0 * 32 + d1, d2), <1x1>, memref<4x1x!ttcore.tile<32x32, bf16>, #ttnn.buffer_type<dram>>, <interleaved>>>) -> () loc("concatenate.283")
[32m            RuntimeTTNN[0m | [1m[38;5;240m   DEBUG[0m | Executing operation: %37 = "ttnn.typecast"(%36) <{dtype = #ttcore.supportedDataTypes<si32>}> : (tensor<4x18x2xbf16, #ttnn.ttnn_layout<(d0, d1, d2) -> (d0 * 32 + d1, d2), <1x1>, memref<4x1x!ttcore.tile<32x32, bf16>, #ttnn.buffer_type<dram>>, <interleaved>>>) -> tensor<4x18x2xsi32, #ttnn.ttnn_layout<(d0, d1, d2) -> (d0 * 32 + d1, d2), <1x1>, memref<4x1x!ttcore.tile<32x32, si32>, #ttnn.buffer_type<dram>>, <interleaved>>> loc("concatenate.283_workaround"("concatenate.283"))
[32m            RuntimeTTNN[0m | [1m[38;5;240m   DEBUG[0m | Executing operation: "ttnn.deallocate"(%36) <{force = false}> : (tensor<4x18x2xbf16, #ttnn.ttnn_layout<(d0, d1, d2) -> (d0 * 32 + d1, d2), <1x1>, memref<4x1x!ttcore.tile<32x32, bf16>, #ttnn.buffer_type<dram>>, <interleaved>>>) -> () loc("concatenate.283_workaround"("concatenate.283"))
[32m            RuntimeTTNN[0m | [1m[38;5;240m   DEBUG[0m | Executing operation: %38 = "ttnn.typecast"(%37) <{dtype = #ttcore.supportedDataTypes<f32>}> : (tensor<4x18x2xsi32, #ttnn.ttnn_layout<(d0, d1, d2) -> (d0 * 32 + d1, d2), <1x1>, memref<4x1x!ttcore.tile<32x32, si32>, #ttnn.buffer_type<dram>>, <interleaved>>>) -> tensor<4x18x2xf32, #ttnn.ttnn_layout<(d0, d1, d2) -> (d0 * 32 + d1, d2), <1x1>, memref<4x1x!ttcore.tile<32x32, f32>, #ttnn.buffer_type<dram>>, <interleaved>>> loc("gather.289_typecast"("gather.289"))
[32m            RuntimeTTNN[0m | [1m[38;5;240m   DEBUG[0m | Executing operation: "ttnn.deallocate"(%37) <{force = false}> : (tensor<4x18x2xsi32, #ttnn.ttnn_layout<(d0, d1, d2) -> (d0 * 32 + d1, d2), <1x1>, memref<4x1x!ttcore.tile<32x32, si32>, #ttnn.buffer_type<dram>>, <interleaved>>>) -> () loc("gather.289_typecast"("gather.289"))
[32m            RuntimeTTNN[0m | [1m[38;5;240m   DEBUG[0m | Executing operation: %39 = "ttnn.matmul"(%38, %1) <{compute_config = #ttnn.device_compute_kernel_config<math_fidelity = hifi4, fp32_dest_acc_en = true>, transpose_a = false, transpose_b = false}> : (tensor<4x18x2xf32, #ttnn.ttnn_layout<(d0, d1, d2) -> (d0 * 32 + d1, d2), <1x1>, memref<4x1x!ttcore.tile<32x32, f32>, #ttnn.buffer_type<dram>>, <interleaved>>>, tensor<2x1xf32, #ttnn.ttnn_layout<(d0, d1) -> (d0, d1), <1x1>, memref<1x1x!ttcore.tile<32x32, f32>, #ttnn.buffer_type<dram>>, <interleaved>>>) -> tensor<4x18x1xf32, #ttnn.ttnn_layout<(d0, d1, d2) -> (d0 * 32 + d1, d2), <1x1>, memref<4x1x!ttcore.tile<32x32, f32>, #ttnn.buffer_type<dram>>, <interleaved>>> loc("gather.289")
[32m            RuntimeTTNN[0m | [1m[38;5;240m   DEBUG[0m | Executing operation: "ttnn.deallocate"(%38) <{force = false}> : (tensor<4x18x2xf32, #ttnn.ttnn_layout<(d0, d1, d2) -> (d0 * 32 + d1, d2), <1x1>, memref<4x1x!ttcore.tile<32x32, f32>, #ttnn.buffer_type<dram>>, <interleaved>>>) -> () loc("gather.289")
[32m            RuntimeTTNN[0m | [1m[38;5;240m   DEBUG[0m | Executing operation: "ttnn.deallocate"(%1) <{force = false}> : (tensor<2x1xf32, #ttnn.ttnn_layout<(d0, d1) -> (d0, d1), <1x1>, memref<1x1x!ttcore.tile<32x32, f32>, #ttnn.buffer_type<dram>>, <interleaved>>>) -> () loc("gather.289")
[32m            RuntimeTTNN[0m | [1m[38;5;240m   DEBUG[0m | Executing operation: %40 = "ttnn.reshape"(%39) <{shape = [1 : i32, 72 : i32]}> : (tensor<4x18x1xf32, #ttnn.ttnn_layout<(d0, d1, d2) -> (d0 * 32 + d1, d2), <1x1>, memref<4x1x!ttcore.tile<32x32, f32>, #ttnn.buffer_type<dram>>, <interleaved>>>) -> tensor<1x72xf32, #ttnn.ttnn_layout<(d0, d1) -> (d0, d1), <1x1>, memref<1x3x!ttcore.tile<32x32, f32>, #ttnn.buffer_type<dram>>, <interleaved>>> loc("gather.289_reshapeStartIndices"("gather.289"))
[32m            RuntimeTTNN[0m | [1m[38;5;240m   DEBUG[0m | Executing operation: "ttnn.deallocate"(%39) <{force = false}> : (tensor<4x18x1xf32, #ttnn.ttnn_layout<(d0, d1, d2) -> (d0 * 32 + d1, d2), <1x1>, memref<4x1x!ttcore.tile<32x32, f32>, #ttnn.buffer_type<dram>>, <interleaved>>>) -> () loc("gather.289_reshapeStartIndices"("gather.289"))
[32m            RuntimeTTNN[0m | [1m[38;5;240m   DEBUG[0m | Executing operation: %41 = "ttnn.typecast"(%40) <{dtype = #ttcore.supportedDataTypes<u32>}> : (tensor<1x72xf32, #ttnn.ttnn_layout<(d0, d1) -> (d0, d1), <1x1>, memref<1x3x!ttcore.tile<32x32, f32>, #ttnn.buffer_type<dram>>, <interleaved>>>) -> tensor<1x72xui32, #ttnn.ttnn_layout<(d0, d1) -> (d0, d1), <1x1>, memref<1x3x!ttcore.tile<32x32, u32>, #ttnn.buffer_type<dram>>, <interleaved>>> loc("gather.289_workaround"("gather.289"))
[32m            RuntimeTTNN[0m | [1m[38;5;240m   DEBUG[0m | Executing operation: "ttnn.deallocate"(%40) <{force = false}> : (tensor<1x72xf32, #ttnn.ttnn_layout<(d0, d1) -> (d0, d1), <1x1>, memref<1x3x!ttcore.tile<32x32, f32>, #ttnn.buffer_type<dram>>, <interleaved>>>) -> () loc("gather.289_workaround"("gather.289"))
[32m            RuntimeTTNN[0m | [1m[38;5;240m   DEBUG[0m | Executing operation: %42 = "ttnn.to_layout"(%41) <{layout = #ttnn.layout<row_major>}> : (tensor<1x72xui32, #ttnn.ttnn_layout<(d0, d1) -> (d0, d1), <1x1>, memref<1x3x!ttcore.tile<32x32, u32>, #ttnn.buffer_type<dram>>, <interleaved>>>) -> tensor<1x72xui32, #ttnn.ttnn_layout<(d0, d1) -> (d0, d1), <1x1>, memref<1x72xui32, #ttnn.buffer_type<dram>>, <interleaved>>> loc("gather.289_workaround"("gather.289"))
[32m            RuntimeTTNN[0m | [1m[38;5;240m   DEBUG[0m | Executing operation: "ttnn.deallocate"(%41) <{force = false}> : (tensor<1x72xui32, #ttnn.ttnn_layout<(d0, d1) -> (d0, d1), <1x1>, memref<1x3x!ttcore.tile<32x32, u32>, #ttnn.buffer_type<dram>>, <interleaved>>>) -> () loc("gather.289_workaround"("gather.289"))
[32m            RuntimeTTNN[0m | [1m[38;5;240m   DEBUG[0m | Executing operation: %43 = "ttnn.repeat"(%7) <{repeat_dims = #ttnn.shape<72>}> : (tensor<1xsi32, #ttnn.ttnn_layout<(d0) -> (0, d0), <1x1>, memref<1x1x!ttcore.tile<32x32, si32>, #ttnn.buffer_type<dram>>, <interleaved>>>) -> tensor<72xsi32, #ttnn.ttnn_layout<(d0) -> (0, d0), <1x1>, memref<1x3x!ttcore.tile<32x32, si32>, #ttnn.buffer_type<dram>>, <interleaved>>> loc("select.186")
[32m            RuntimeTTNN[0m | [1m[38;5;240m   DEBUG[0m | Executing operation: "ttnn.deallocate"(%7) <{force = false}> : (tensor<1xsi32, #ttnn.ttnn_layout<(d0) -> (0, d0), <1x1>, memref<1x1x!ttcore.tile<32x32, si32>, #ttnn.buffer_type<dram>>, <interleaved>>>) -> () loc("select.186")
[32m            RuntimeTTNN[0m | [1m[38;5;240m   DEBUG[0m | Executing operation: %44 = "ttnn.typecast"(%43) <{dtype = #ttcore.supportedDataTypes<f32>}> : (tensor<72xsi32, #ttnn.ttnn_layout<(d0) -> (0, d0), <1x1>, memref<1x3x!ttcore.tile<32x32, si32>, #ttnn.buffer_type<dram>>, <interleaved>>>) -> tensor<72xf32, #ttnn.ttnn_layout<(d0) -> (0, d0), <1x1>, memref<1x3x!ttcore.tile<32x32, f32>, #ttnn.buffer_type<dram>>, <interleaved>>> loc("select.186_workaround"("select.186"))
[32m            RuntimeTTNN[0m | [1m[38;5;240m   DEBUG[0m | Executing operation: "ttnn.deallocate"(%43) <{force = false}> : (tensor<72xsi32, #ttnn.ttnn_layout<(d0) -> (0, d0), <1x1>, memref<1x3x!ttcore.tile<32x32, si32>, #ttnn.buffer_type<dram>>, <interleaved>>>) -> () loc("select.186_workaround"("select.186"))
[32m            RuntimeTTNN[0m | [1m[38;5;240m   DEBUG[0m | Finished execution of program: main_const_eval_12
[32m                 Always[0m | [1m[38;5;240m   DEBUG[0m | executed sub-func: main_const_eval_12
[32m            RuntimeTTNN[0m | [1m[38;5;240m   DEBUG[0m | Executing operation: %13 = ttcore.load_cached(@main_const_eval_13, [%arg12]) : (tensor<1024x2048xf32, #ttnn.ttnn_layout<(d0, d1) -> (d0, d1), <1x1>, memref<1024x2048xf32, #ttnn.buffer_type<system_memory>>>>) -> tensor<1024x1024xf32, #ttnn.ttnn_layout<(d0, d1) -> (d0, d1), <1x1>, memref<32x32x!ttcore.tile<32x32, f32>, #ttnn.buffer_type<dram>>, <interleaved>>> loc(unknown)
[32m                 Always[0m | [1m[38;5;240m   DEBUG[0m | Running LoadCachedOp for function main_const_eval_13 with hash: f3db4c2aca05a772b251678852abfb5d22942bc64c1cef7dc25ae5c6ce8d3330
[32m                 Always[0m | [1m[38;5;240m   DEBUG[0m | Cache miss or invalid cache for function: main_const_eval_13
[32m            RuntimeTTNN[0m | [1m[38;5;240m   DEBUG[0m | Starting execution of program: main_const_eval_13
[32m            RuntimeTTNN[0m | [1m[38;5;240m   DEBUG[0m | Executing operation: %0 = "ttnn.get_device"() <{mesh_offset = #ttnn<mesh_offset 0x0>, mesh_shape = #ttnn<mesh_shape 1x2>}> : () -> !ttnn.device loc(unknown)
[32m            RuntimeTTNN[0m | [1m[38;5;240m   DEBUG[0m | Executing operation: %1 = "ttnn.to_device"(%arg0, %0) <{memory_config = #ttnn.memory_config<<dram>, <interleaved>>}> : (tensor<1024x2048xf32, #ttnn.ttnn_layout<(d0, d1) -> (d0, d1), <1x1>, memref<1024x2048xf32, #ttnn.buffer_type<system_memory>>>>, !ttnn.device) -> tensor<1024x2048xf32, #ttnn.ttnn_layout<(d0, d1) -> (d0, d1), <1x1>, memref<1024x2048xf32, #ttnn.buffer_type<dram>>, <interleaved>>> loc(unknown)
[32m            RuntimeTTNN[0m | [1m[38;5;240m   DEBUG[0m | Executing operation: %2 = "ttnn.to_layout"(%1) <{layout = #ttnn.layout<tile>}> : (tensor<1024x2048xf32, #ttnn.ttnn_layout<(d0, d1) -> (d0, d1), <1x1>, memref<1024x2048xf32, #ttnn.buffer_type<dram>>, <interleaved>>>) -> tensor<1024x2048xf32, #ttnn.ttnn_layout<(d0, d1) -> (d0, d1), <1x1>, memref<32x64x!ttcore.tile<32x32, f32>, #ttnn.buffer_type<dram>>, <interleaved>>> loc(unknown)
[32m            RuntimeTTNN[0m | [1m[38;5;240m   DEBUG[0m | Executing operation: "ttnn.deallocate"(%1) <{force = false}> : (tensor<1024x2048xf32, #ttnn.ttnn_layout<(d0, d1) -> (d0, d1), <1x1>, memref<1024x2048xf32, #ttnn.buffer_type<dram>>, <interleaved>>>) -> () loc(unknown)
[32m            RuntimeTTNN[0m | [1m[38;5;240m   DEBUG[0m | Executing operation: %3 = "ttnn.mesh_shard"(%2, %0) <{shard_dims = array<i64: -1, 1>, shard_direction = #ttcore.shard_direction<full_to_shard>, shard_shape = array<i64: 1, 2>, shard_type = #ttcore.shard_type<identity>}> : (tensor<1024x2048xf32, #ttnn.ttnn_layout<(d0, d1) -> (d0, d1), <1x1>, memref<32x64x!ttcore.tile<32x32, f32>, #ttnn.buffer_type<dram>>, <interleaved>>>, !ttnn.device) -> tensor<1024x1024xf32, #ttnn.ttnn_layout<(d0, d1) -> (d0, d1), <1x1>, memref<32x32x!ttcore.tile<32x32, f32>, #ttnn.buffer_type<dram>>, <interleaved>>> loc(unknown)
[32m            RuntimeTTNN[0m | [1m[38;5;240m   DEBUG[0m | Executing operation: "ttnn.deallocate"(%2) <{force = false}> : (tensor<1024x2048xf32, #ttnn.ttnn_layout<(d0, d1) -> (d0, d1), <1x1>, memref<32x64x!ttcore.tile<32x32, f32>, #ttnn.buffer_type<dram>>, <interleaved>>>) -> () loc(unknown)
[32m            RuntimeTTNN[0m | [1m[38;5;240m   DEBUG[0m | Finished execution of program: main_const_eval_13
[32m                 Always[0m | [1m[38;5;240m   DEBUG[0m | executed sub-func: main_const_eval_13
[32m            RuntimeTTNN[0m | [1m[38;5;240m   DEBUG[0m | Executing operation: "ttnn.deallocate"(%arg12) <{force = false}> : (tensor<1024x2048xf32, #ttnn.ttnn_layout<(d0, d1) -> (d0, d1), <1x1>, memref<1024x2048xf32, #ttnn.buffer_type<system_memory>>>>) -> () loc(unknown)
[32m                 Always[0m | [1m[38;5;240m   DEBUG[0m | Tensor is retained thus not deallocating. To deallocate, set retain to false first
[32m            RuntimeTTNN[0m | [1m[38;5;240m   DEBUG[0m | Executing operation: %14 = ttcore.load_cached(@main_const_eval_14, [%arg17]) : (tensor<3072x1024xf32, #ttnn.ttnn_layout<(d0, d1) -> (d0, d1), <1x1>, memref<3072x1024xf32, #ttnn.buffer_type<system_memory>>>>) -> tensor<1536x1024xf32, #ttnn.ttnn_layout<(d0, d1) -> (d0, d1), <1x1>, memref<48x32x!ttcore.tile<32x32, f32>, #ttnn.buffer_type<dram>>, <interleaved>>> loc(unknown)
[32m                 Always[0m | [1m[38;5;240m   DEBUG[0m | Running LoadCachedOp for function main_const_eval_14 with hash: 3f6a54dc427fe71d56d6a0b55d9a05f3d6a9ecac003844873cfb2176235426e0
[32m                 Always[0m | [1m[38;5;240m   DEBUG[0m | Cache miss or invalid cache for function: main_const_eval_14
[32m            RuntimeTTNN[0m | [1m[38;5;240m   DEBUG[0m | Starting execution of program: main_const_eval_14
[32m            RuntimeTTNN[0m | [1m[38;5;240m   DEBUG[0m | Executing operation: %0 = "ttnn.get_device"() <{mesh_offset = #ttnn<mesh_offset 0x0>, mesh_shape = #ttnn<mesh_shape 1x2>}> : () -> !ttnn.device loc(unknown)
[32m            RuntimeTTNN[0m | [1m[38;5;240m   DEBUG[0m | Executing operation: %1 = "ttnn.to_device"(%arg0, %0) <{memory_config = #ttnn.memory_config<<dram>, <interleaved>>}> : (tensor<3072x1024xf32, #ttnn.ttnn_layout<(d0, d1) -> (d0, d1), <1x1>, memref<3072x1024xf32, #ttnn.buffer_type<system_memory>>>>, !ttnn.device) -> tensor<3072x1024xf32, #ttnn.ttnn_layout<(d0, d1) -> (d0, d1), <1x1>, memref<3072x1024xf32, #ttnn.buffer_type<dram>>, <interleaved>>> loc(unknown)
[32m            RuntimeTTNN[0m | [1m[38;5;240m   DEBUG[0m | Executing operation: %2 = "ttnn.to_layout"(%1) <{layout = #ttnn.layout<tile>}> : (tensor<3072x1024xf32, #ttnn.ttnn_layout<(d0, d1) -> (d0, d1), <1x1>, memref<3072x1024xf32, #ttnn.buffer_type<dram>>, <interleaved>>>) -> tensor<3072x1024xf32, #ttnn.ttnn_layout<(d0, d1) -> (d0, d1), <1x1>, memref<96x32x!ttcore.tile<32x32, f32>, #ttnn.buffer_type<dram>>, <interleaved>>> loc(unknown)
[32m            RuntimeTTNN[0m | [1m[38;5;240m   DEBUG[0m | Executing operation: "ttnn.deallocate"(%1) <{force = false}> : (tensor<3072x1024xf32, #ttnn.ttnn_layout<(d0, d1) -> (d0, d1), <1x1>, memref<3072x1024xf32, #ttnn.buffer_type<dram>>, <interleaved>>>) -> () loc(unknown)
[32m            RuntimeTTNN[0m | [1m[38;5;240m   DEBUG[0m | Executing operation: %3 = "ttnn.mesh_shard"(%2, %0) <{shard_dims = array<i64: -1, 0>, shard_direction = #ttcore.shard_direction<full_to_shard>, shard_shape = array<i64: 2, 1>, shard_type = #ttcore.shard_type<identity>}> : (tensor<3072x1024xf32, #ttnn.ttnn_layout<(d0, d1) -> (d0, d1), <1x1>, memref<96x32x!ttcore.tile<32x32, f32>, #ttnn.buffer_type<dram>>, <interleaved>>>, !ttnn.device) -> tensor<1536x1024xf32, #ttnn.ttnn_layout<(d0, d1) -> (d0, d1), <1x1>, memref<48x32x!ttcore.tile<32x32, f32>, #ttnn.buffer_type<dram>>, <interleaved>>> loc(unknown)
[32m            RuntimeTTNN[0m | [1m[38;5;240m   DEBUG[0m | Executing operation: "ttnn.deallocate"(%2) <{force = false}> : (tensor<3072x1024xf32, #ttnn.ttnn_layout<(d0, d1) -> (d0, d1), <1x1>, memref<96x32x!ttcore.tile<32x32, f32>, #ttnn.buffer_type<dram>>, <interleaved>>>) -> () loc(unknown)
[32m            RuntimeTTNN[0m | [1m[38;5;240m   DEBUG[0m | Finished execution of program: main_const_eval_14
[32m                 Always[0m | [1m[38;5;240m   DEBUG[0m | executed sub-func: main_const_eval_14
[32m            RuntimeTTNN[0m | [1m[38;5;240m   DEBUG[0m | Executing operation: "ttnn.deallocate"(%arg17) <{force = false}> : (tensor<3072x1024xf32, #ttnn.ttnn_layout<(d0, d1) -> (d0, d1), <1x1>, memref<3072x1024xf32, #ttnn.buffer_type<system_memory>>>>) -> () loc(unknown)
[32m                 Always[0m | [1m[38;5;240m   DEBUG[0m | Tensor is retained thus not deallocating. To deallocate, set retain to false first
[32m            RuntimeTTNN[0m | [1m[38;5;240m   DEBUG[0m | Executing operation: %15 = ttcore.load_cached(@main_const_eval_15, []) : () -> tensor<1x1x1x1xf32, #ttnn.ttnn_layout<(d0, d1, d2, d3) -> (d0 * 32 + d1 * 32 + d2, d3), <1x1>, memref<1x1x!ttcore.tile<32x32, f32>, #ttnn.buffer_type<dram>>, <interleaved>>> loc(unknown)
[32m                 Always[0m | [1m[38;5;240m   DEBUG[0m | Running LoadCachedOp for function main_const_eval_15 with hash: 45c6c505c7a5bf6fc2dee232b291e5738568124a523194a9b1c5327d227d3bfc
[32m                 Always[0m | [1m[38;5;240m   DEBUG[0m | Cache miss or invalid cache for function: main_const_eval_15
[32m            RuntimeTTNN[0m | [1m[38;5;240m   DEBUG[0m | Starting execution of program: main_const_eval_15
[32m            RuntimeTTNN[0m | [1m[38;5;240m   DEBUG[0m | Executing operation: %0 = "ttnn.get_device"() <{mesh_offset = #ttnn<mesh_offset 0x0>, mesh_shape = #ttnn<mesh_shape 1x2>}> : () -> !ttnn.device loc(unknown)
[32m            RuntimeTTNN[0m | [1m[38;5;240m   DEBUG[0m | Executing operation: %1 = "ttnn.full"(%0) <{dtype = #ttcore.supportedDataTypes<f32>, fill_value = 0.297301769 : f32, layout = #ttnn.layout<tile>, shape = #ttnn.shape<>}> : (!ttnn.device) -> tensor<f32, #ttnn.ttnn_layout<() -> (0, 0), <1x1>, memref<1x1x!ttcore.tile<32x32, f32>, #ttnn.buffer_type<dram>>, <interleaved>>> loc(unknown)
[32m            RuntimeTTNN[0m | [1m[38;5;240m   DEBUG[0m | Executing operation: %2 = "ttnn.reshape"(%1) <{shape = [1 : i32, 1 : i32, 1 : i32, 1 : i32]}> : (tensor<f32, #ttnn.ttnn_layout<() -> (0, 0), <1x1>, memref<1x1x!ttcore.tile<32x32, f32>, #ttnn.buffer_type<dram>>, <interleaved>>>) -> tensor<1x1x1x1xf32, #ttnn.ttnn_layout<(d0, d1, d2, d3) -> (d0 * 32 + d1 * 32 + d2, d3), <1x1>, memref<1x1x!ttcore.tile<32x32, f32>, #ttnn.buffer_type<dram>>, <interleaved>>> loc(unknown)
[32m            RuntimeTTNN[0m | [1m[38;5;240m   DEBUG[0m | Executing operation: "ttnn.deallocate"(%1) <{force = false}> : (tensor<f32, #ttnn.ttnn_layout<() -> (0, 0), <1x1>, memref<1x1x!ttcore.tile<32x32, f32>, #ttnn.buffer_type<dram>>, <interleaved>>>) -> () loc(unknown)
[32m            RuntimeTTNN[0m | [1m[38;5;240m   DEBUG[0m | Finished execution of program: main_const_eval_15
[32m                 Always[0m | [1m[38;5;240m   DEBUG[0m | executed sub-func: main_const_eval_15
[32m            RuntimeTTNN[0m | [1m[38;5;240m   DEBUG[0m | Executing operation: %16 = ttcore.load_cached(@main_const_eval_16, [%arg6]) : (tensor<1024x1024xf32, #ttnn.ttnn_layout<(d0, d1) -> (d0, d1), <1x1>, memref<1024x1024xf32, #ttnn.buffer_type<system_memory>>>>) -> tensor<512x1024xf32, #ttnn.ttnn_layout<(d0, d1) -> (d0, d1), <1x1>, memref<16x32x!ttcore.tile<32x32, f32>, #ttnn.buffer_type<dram>>, <interleaved>>> loc(unknown)
[32m                 Always[0m | [1m[38;5;240m   DEBUG[0m | Running LoadCachedOp for function main_const_eval_16 with hash: 4740a9824337f67dff8d0d9211ec45fc61d6a66e308b958b6d207dab01e7e9cd
[32m                 Always[0m | [1m[38;5;240m   DEBUG[0m | Cache miss or invalid cache for function: main_const_eval_16
[32m            RuntimeTTNN[0m | [1m[38;5;240m   DEBUG[0m | Starting execution of program: main_const_eval_16
[32m            RuntimeTTNN[0m | [1m[38;5;240m   DEBUG[0m | Executing operation: %0 = "ttnn.get_device"() <{mesh_offset = #ttnn<mesh_offset 0x0>, mesh_shape = #ttnn<mesh_shape 1x2>}> : () -> !ttnn.device loc(unknown)
[32m            RuntimeTTNN[0m | [1m[38;5;240m   DEBUG[0m | Executing operation: %1 = "ttnn.to_device"(%arg0, %0) <{memory_config = #ttnn.memory_config<<dram>, <interleaved>>}> : (tensor<1024x1024xf32, #ttnn.ttnn_layout<(d0, d1) -> (d0, d1), <1x1>, memref<1024x1024xf32, #ttnn.buffer_type<system_memory>>>>, !ttnn.device) -> tensor<1024x1024xf32, #ttnn.ttnn_layout<(d0, d1) -> (d0, d1), <1x1>, memref<1024x1024xf32, #ttnn.buffer_type<dram>>, <interleaved>>> loc(unknown)
[32m            RuntimeTTNN[0m | [1m[38;5;240m   DEBUG[0m | Executing operation: %2 = "ttnn.to_layout"(%1) <{layout = #ttnn.layout<tile>}> : (tensor<1024x1024xf32, #ttnn.ttnn_layout<(d0, d1) -> (d0, d1), <1x1>, memref<1024x1024xf32, #ttnn.buffer_type<dram>>, <interleaved>>>) -> tensor<1024x1024xf32, #ttnn.ttnn_layout<(d0, d1) -> (d0, d1), <1x1>, memref<32x32x!ttcore.tile<32x32, f32>, #ttnn.buffer_type<dram>>, <interleaved>>> loc(unknown)
[32m            RuntimeTTNN[0m | [1m[38;5;240m   DEBUG[0m | Executing operation: "ttnn.deallocate"(%1) <{force = false}> : (tensor<1024x1024xf32, #ttnn.ttnn_layout<(d0, d1) -> (d0, d1), <1x1>, memref<1024x1024xf32, #ttnn.buffer_type<dram>>, <interleaved>>>) -> () loc(unknown)
[32m            RuntimeTTNN[0m | [1m[38;5;240m   DEBUG[0m | Executing operation: %3 = "ttnn.mesh_shard"(%2, %0) <{shard_dims = array<i64: -1, 0>, shard_direction = #ttcore.shard_direction<full_to_shard>, shard_shape = array<i64: 2, 1>, shard_type = #ttcore.shard_type<identity>}> : (tensor<1024x1024xf32, #ttnn.ttnn_layout<(d0, d1) -> (d0, d1), <1x1>, memref<32x32x!ttcore.tile<32x32, f32>, #ttnn.buffer_type<dram>>, <interleaved>>>, !ttnn.device) -> tensor<512x1024xf32, #ttnn.ttnn_layout<(d0, d1) -> (d0, d1), <1x1>, memref<16x32x!ttcore.tile<32x32, f32>, #ttnn.buffer_type<dram>>, <interleaved>>> loc(unknown)
[32m            RuntimeTTNN[0m | [1m[38;5;240m   DEBUG[0m | Executing operation: "ttnn.deallocate"(%2) <{force = false}> : (tensor<1024x1024xf32, #ttnn.ttnn_layout<(d0, d1) -> (d0, d1), <1x1>, memref<32x32x!ttcore.tile<32x32, f32>, #ttnn.buffer_type<dram>>, <interleaved>>>) -> () loc(unknown)
[32m            RuntimeTTNN[0m | [1m[38;5;240m   DEBUG[0m | Finished execution of program: main_const_eval_16
[32m                 Always[0m | [1m[38;5;240m   DEBUG[0m | executed sub-func: main_const_eval_16
[32m            RuntimeTTNN[0m | [1m[38;5;240m   DEBUG[0m | Executing operation: "ttnn.deallocate"(%arg6) <{force = false}> : (tensor<1024x1024xf32, #ttnn.ttnn_layout<(d0, d1) -> (d0, d1), <1x1>, memref<1024x1024xf32, #ttnn.buffer_type<system_memory>>>>) -> () loc(unknown)
[32m                 Always[0m | [1m[38;5;240m   DEBUG[0m | Tensor is retained thus not deallocating. To deallocate, set retain to false first
[32m            RuntimeTTNN[0m | [1m[38;5;240m   DEBUG[0m | Executing operation: %17 = ttcore.load_cached(@main_const_eval_17, []) : () -> tensor<1x1x1x1xf32, #ttnn.ttnn_layout<(d0, d1, d2, d3) -> (d0 * 32 + d1 * 32 + d2, d3), <1x1>, memref<1x1x!ttcore.tile<32x32, f32>, #ttnn.buffer_type<dram>>, <interleaved>>> loc(unknown)
[32m                 Always[0m | [1m[38;5;240m   DEBUG[0m | Running LoadCachedOp for function main_const_eval_17 with hash: b2d76728f0d937409fc05a80b1f50885f30e09e737b8f0f9be1d768f6f4b242d
[32m                 Always[0m | [1m[38;5;240m   DEBUG[0m | Cache miss or invalid cache for function: main_const_eval_17
[32m            RuntimeTTNN[0m | [1m[38;5;240m   DEBUG[0m | Starting execution of program: main_const_eval_17
[32m            RuntimeTTNN[0m | [1m[38;5;240m   DEBUG[0m | Executing operation: %0 = "ttnn.get_device"() <{mesh_offset = #ttnn<mesh_offset 0x0>, mesh_shape = #ttnn<mesh_shape 1x2>}> : () -> !ttnn.device loc(unknown)
[32m            RuntimeTTNN[0m | [1m[38;5;240m   DEBUG[0m | Executing operation: %1 = "ttnn.full"(%0) <{dtype = #ttcore.supportedDataTypes<f32>, fill_value = 0xFF800000 : f32, layout = #ttnn.layout<tile>, shape = #ttnn.shape<>}> : (!ttnn.device) -> tensor<f32, #ttnn.ttnn_layout<() -> (0, 0), <1x1>, memref<1x1x!ttcore.tile<32x32, f32>, #ttnn.buffer_type<dram>>, <interleaved>>> loc(unknown)
[32m            RuntimeTTNN[0m | [1m[38;5;240m   DEBUG[0m | Executing operation: %2 = "ttnn.reshape"(%1) <{shape = [1 : i32, 1 : i32, 1 : i32, 1 : i32]}> : (tensor<f32, #ttnn.ttnn_layout<() -> (0, 0), <1x1>, memref<1x1x!ttcore.tile<32x32, f32>, #ttnn.buffer_type<dram>>, <interleaved>>>) -> tensor<1x1x1x1xf32, #ttnn.ttnn_layout<(d0, d1, d2, d3) -> (d0 * 32 + d1 * 32 + d2, d3), <1x1>, memref<1x1x!ttcore.tile<32x32, f32>, #ttnn.buffer_type<dram>>, <interleaved>>> loc(unknown)
[32m            RuntimeTTNN[0m | [1m[38;5;240m   DEBUG[0m | Executing operation: "ttnn.deallocate"(%1) <{force = false}> : (tensor<f32, #ttnn.ttnn_layout<() -> (0, 0), <1x1>, memref<1x1x!ttcore.tile<32x32, f32>, #ttnn.buffer_type<dram>>, <interleaved>>>) -> () loc(unknown)
[32m            RuntimeTTNN[0m | [1m[38;5;240m   DEBUG[0m | Finished execution of program: main_const_eval_17
[32m                 Always[0m | [1m[38;5;240m   DEBUG[0m | executed sub-func: main_const_eval_17
[32m            RuntimeTTNN[0m | [1m[38;5;240m   DEBUG[0m | Executing operation: %18 = ttcore.load_cached(@main_const_eval_18, []) : () -> tensor<4x8x18xbf16, #ttnn.ttnn_layout<(d0, d1, d2) -> (d0 * 32 + d1, d2), <1x1>, memref<4x1x!ttcore.tile<32x32, bf16>, #ttnn.buffer_type<dram>>, <interleaved>>> loc(unknown)
[32m                 Always[0m | [1m[38;5;240m   DEBUG[0m | Running LoadCachedOp for function main_const_eval_18 with hash: a0f45a862bdbcd2d18cf44b29b7a4a3ce3aeef69a4281b8ea1fd31c33fc9ec7f
[32m                 Always[0m | [1m[38;5;240m   DEBUG[0m | Cache miss or invalid cache for function: main_const_eval_18
[32m            RuntimeTTNN[0m | [1m[38;5;240m   DEBUG[0m | Starting execution of program: main_const_eval_18
[32m            RuntimeTTNN[0m | [1m[38;5;240m   DEBUG[0m | Executing operation: %0 = "ttnn.get_device"() <{mesh_offset = #ttnn<mesh_offset 0x0>, mesh_shape = #ttnn<mesh_shape 1x2>}> : () -> !ttnn.device loc(unknown)
[32m            RuntimeTTNN[0m | [1m[38;5;240m   DEBUG[0m | Executing operation: %1 = "ttnn.full"(%0) <{dtype = #ttcore.supportedDataTypes<bf16>, fill_value = 0.000000e+00 : f32, layout = #ttnn.layout<tile>, shape = #ttnn.shape<4x8x18>}> : (!ttnn.device) -> tensor<4x8x18xbf16, #ttnn.ttnn_layout<(d0, d1, d2) -> (d0 * 32 + d1, d2), <1x1>, memref<4x1x!ttcore.tile<32x32, bf16>, #ttnn.buffer_type<dram>>, <interleaved>>> loc("reduce.440_zeroConstant"("reduce.440"))
[32m            RuntimeTTNN[0m | [1m[38;5;240m   DEBUG[0m | Finished execution of program: main_const_eval_18
[32m                 Always[0m | [1m[38;5;240m   DEBUG[0m | executed sub-func: main_const_eval_18
[32m            RuntimeTTNN[0m | [1m[38;5;240m   DEBUG[0m | Executing operation: %19 = "ttnn.get_device"() <{mesh_offset = #ttnn<mesh_offset 0x0>, mesh_shape = #ttnn<mesh_shape 1x2>}> : () -> !ttnn.device loc(unknown)
[32m            RuntimeTTNN[0m | [1m[38;5;240m   DEBUG[0m | Executing operation: %20 = "ttnn.distribute_tensor"(%arg14, %19) <{mapper_config = #ttnn.mesh_mapper_config<placements = [<replicate, -1 : i32>, <replicate, -1 : i32>], mesh_shape_override = [1 : ui32, 2 : ui32]>}> : (tensor<bf16, #ttnn.ttnn_layout<() -> (0, 0), <1x1>, memref<1x1xbf16, #ttnn.buffer_type<system_memory>>>>, !ttnn.device) -> tensor<bf16, #ttnn.ttnn_layout<() -> (0, 0), <1x1>, memref<1x1xbf16, #ttnn.buffer_type<system_memory>>>> loc(unknown)
2026-01-28 22:13:08.326 | critical |          Always | TT_FATAL: Can't get a single buffer from host storage distributed over mesh shape MeshShape([1, 2]) (assert.hpp:104)
2026-01-28 22:13:08.363 (  15.529s) [        DEFFD640]                utils.h:62     ERR| Exception:
{TT_FATAL @ /localdev/jameszianxu/tt-xla/third_party/tt-mlir/src/tt-mlir/third_party/tt-metal/src/tt-metal/ttnn/core/tensor/host_buffer/functions.cpp:25: buffers.size() == 1
info:
Can't get a single buffer from host storage distributed over mesh shape MeshShape([1, 2])
backtrace:
 --- /localdev/jameszianxu/tt-xla/third_party/tt-mlir/install/lib/libtt_metal.so(+0x13d723f) [0x7f72c364123f]
 --- /localdev/jameszianxu/tt-xla/third_party/tt-mlir/install/lib/_ttnncpp.so(+0x20bf126) [0x7f72ba24e126]
 --- /localdev/jameszianxu/tt-xla/third_party/tt-mlir/install/lib/_ttnncpp.so(+0x20bf008) [0x7f72ba24e008]
 --- /localdev/jameszianxu/tt-xla/third_party/tt-mlir/install/lib/_ttnncpp.so(+0x20befa8) [0x7f72ba24dfa8]
 --- /localdev/jameszianxu/tt-xla/third_party/tt-mlir/install/lib/_ttnncpp.so(+0x20bef20) [0x7f72ba24df20]
 --- /localdev/jameszianxu/tt-xla/third_party/tt-mlir/install/lib/_ttnncpp.so(+0x20bee97) [0x7f72ba24de97]
 --- /localdev/jameszianxu/tt-xla/third_party/tt-mlir/install/lib/_ttnncpp.so(+0x20b8eee) [0x7f72ba247eee]
 --- tt::tt_metal::host_buffer::get_host_buffer(tt::tt_metal::Tensor const&)
 --- /localdev/jameszianxu/tt-xla/third_party/tt-mlir/install/lib/_ttnncpp.so(+0x288c915) [0x7f72baa1b915]
 --- /localdev/jameszianxu/tt-xla/third_party/tt-mlir/install/lib/_ttnncpp.so(+0x28896a2) [0x7f72baa186a2]
 --- ttnn::distributed::TensorToMesh::operator()(tt::tt_metal::Tensor const&) const
 --- ttnn::distributed::distribute_tensor(tt::tt_metal::Tensor const&, ttnn::distributed::TensorToMesh const&, std::optional<std::reference_wrapper<tt::tt_metal::distributed::MeshDevice> >, std::optional<ttsl::StrongType<unsigned char, tt::tt_metal::QueueIdTag> >)
 --- tt::runtime::ttnn::operations::ccl::run(tt::target::ttnn::DistributeTensorOp const*, tt::runtime::ttnn::ProgramContext&)
 --- tt::runtime::ttnn::ProgramExecutor::runOperation(tt::target::ttnn::Operation const*)
 --- tt::runtime::ttnn::ProgramExecutor::execute()
 --- tt::runtime::ttnn::submit(tt::runtime::Device, tt::runtime::Binary, unsigned int, std::vector<tt::runtime::Tensor, std::allocator<tt::runtime::Tensor> >&)
 --- /localdev/jameszianxu/tt-xla/third_party/tt-mlir/install/lib/libTTMLIRRuntime.so(+0x30159c) [0x7f7399cdc59c]
 --- /localdev/jameszianxu/tt-xla/third_party/tt-mlir/install/lib/libTTMLIRRuntime.so(+0x2fb634) [0x7f7399cd6634]
 --- tt::runtime::submit(tt::runtime::Device, tt::runtime::Binary, unsigned int, std::vector<tt::runtime::Tensor, std::allocator<tt::runtime::Tensor> >&)
 --- std::vector<tt::runtime::Tensor, std::allocator<tt::runtime::Tensor> > std::__invoke_impl<std::vector<tt::runtime::Tensor, std::allocator<tt::runtime::Tensor> >, std::vector<tt::runtime::Tensor, std::allocator<tt::runtime::Tensor> > (&)(tt::runtime::Device, tt::runtime::Binary, unsigned int, std::vector<tt::runtime::Tensor, std::allocator<tt::runtime::Tensor> >&), tt::runtime::Device&, tt::runtime::Binary const&, unsigned int&, std::vector<tt::runtime::Tensor, std::allocator<tt::runtime::Tensor> >&>(std::__invoke_other, std::vector<tt::runtime::Tensor, std::allocator<tt::runtime::Tensor> > (&)(tt::runtime::Device, tt::runtime::Binary, unsigned int, std::vector<tt::runtime::Tensor, std::allocator<tt::runtime::Tensor> >&), tt::runtime::Device&, tt::runtime::Binary const&, unsigned int&, std::vector<tt::runtime::Tensor, std::allocator<tt::runtime::Tensor> >&)
 --- std::__invoke_result<std::vector<tt::runtime::Tensor, std::allocator<tt::runtime::Tensor> > (&)(tt::runtime::Device, tt::runtime::Binary, unsigned int, std::vector<tt::runtime::Tensor, std::allocator<tt::runtime::Tensor> >&), tt::runtime::Device&, tt::runtime::Binary const&, unsigned int&, std::vector<tt::runtime::Tensor, std::allocator<tt::runtime::Tensor> >&>::type std::__invoke<std::vector<tt::runtime::Tensor, std::allocator<tt::runtime::Tensor> > (&)(tt::runtime::Device, tt::runtime::Binary, unsigned int, std::vector<tt::runtime::Tensor, std::allocator<tt::runtime::Tensor> >&), tt::runtime::Device&, tt::runtime::Binary const&, unsigned int&, std::vector<tt::runtime::Tensor, std::allocator<tt::runtime::Tensor> >&>(std::vector<tt::runtime::Tensor, std::allocator<tt::runtime::Tensor> > (&)(tt::runtime::Device, tt::runtime::Binary, unsigned int, std::vector<tt::runtime::Tensor, std::allocator<tt::runtime::Tensor> >&), tt::runtime::Device&, tt::runtime::Binary const&, unsigned int&, std::vector<tt::runtime::Tensor, std::allocator<tt::runtime::Tensor> >&)
 --- std::invoke_result<std::vector<tt::runtime::Tensor, std::allocator<tt::runtime::Tensor> > (&)(tt::runtime::Device, tt::runtime::Binary, unsigned int, std::vector<tt::runtime::Tensor, std::allocator<tt::runtime::Tensor> >&), tt::runtime::Device&, tt::runtime::Binary const&, unsigned int&, std::vector<tt::runtime::Tensor, std::allocator<tt::runtime::Tensor> >&>::type std::invoke<std::vector<tt::runtime::Tensor, std::allocator<tt::runtime::Tensor> > (&)(tt::runtime::Device, tt::runtime::Binary, unsigned int, std::vector<tt::runtime::Tensor, std::allocator<tt::runtime::Tensor> >&), tt::runtime::Device&, tt::runtime::Binary const&, unsigned int&, std::vector<tt::runtime::Tensor, std::allocator<tt::runtime::Tensor> >&>(std::vector<tt::runtime::Tensor, std::allocator<tt::runtime::Tensor> > (&)(tt::runtime::Device, tt::runtime::Binary, unsigned int, std::vector<tt::runtime::Tensor, std::allocator<tt::runtime::Tensor> >&), tt::runtime::Device&, tt::runtime::Binary const&, unsigned int&, std::vector<tt::runtime::Tensor, std::allocator<tt::runtime::Tensor> >&)
 --- std::optional<std::conditional<std::is_same_v<std::vector<tt::runtime::Tensor, std::allocator<tt::runtime::Tensor> >, void>, std::monostate, std::vector<tt::runtime::Tensor, std::allocator<tt::runtime::Tensor> > >::type> tt::pjrt::utils::invoke_noexcept<std::vector<tt::runtime::Tensor, std::allocator<tt::runtime::Tensor> > (&)(tt::runtime::Device, tt::runtime::Binary, unsigned int, std::vector<tt::runtime::Tensor, std::allocator<tt::runtime::Tensor> >&), tt::runtime::Device&, tt::runtime::Binary const&, unsigned int&, std::vector<tt::runtime::Tensor, std::allocator<tt::runtime::Tensor> >&, std::vector<tt::runtime::Tensor, std::allocator<tt::runtime::Tensor> > >(std::vector<tt::runtime::Tensor, std::allocator<tt::runtime::Tensor> > (&)(tt::runtime::Device, tt::runtime::Binary, unsigned int, std::vector<tt::runtime::Tensor, std::allocator<tt::runtime::Tensor> >&), tt::runtime::Device&, tt::runtime::Binary const&, unsigned int&, std::vector<tt::runtime::Tensor, std::allocator<tt::runtime::Tensor> >&)
 --- tt::pjrt::FlatbufferLoadedExecutableInstance::execute(PJRT_LoadedExecutable_Execute_Args*)
 --- tt::pjrt::internal::onLoadedExecutableExecute(PJRT_LoadedExecutable_Execute_Args*)
 --- xla::PjRtCApiLoadedExecutable::Execute(absl::lts_20230802::Span<std::vector<xla::PjRtBuffer*, std::allocator<xla::PjRtBuffer*> > const>, xla::ExecuteOptions const&, std::optional<std::vector<xla::PjRtFuture<void>, std::allocator<xla::PjRtFuture<void> > > >&)
 --- torch_xla::runtime::PjRtComputationClient::ExecuteReplicated(torch_xla::runtime::ComputationClient::Computation const&, absl::lts_20230802::Span<std::shared_ptr<torch_xla::runtime::ComputationClient::Data> const>, absl::lts_20230802::Span<std::__cxx11::basic_string<char, std::char_traits<char>, std::allocator<char> > const>, torch_xla::runtime::ComputationClient::ExecuteReplicatedOptions const&)
 --- /usr/local/lib/python3.11/dist-packages/_XLAC.cpython-311-x86_64-linux-gnu.so(+0x6ded712) [0x7f749a17f712]
 --- torch::lazy::MultiWait::Complete(std::function<void ()> const&)
 --- Eigen::ThreadPoolTempl<tsl::thread::EigenEnvironment>::WorkerLoop(int)
 --- void absl::lts_20230802::internal_any_invocable::RemoteInvoker<false, void, tsl::thread::EigenEnvironment::CreateThread(std::function<void ()>)::{lambda()#1}&>(absl::lts_20230802::internal_any_invocable::TypeErasedState*)
 --- /usr/local/lib/python3.11/dist-packages/_XLAC.cpython-311-x86_64-linux-gnu.so(+0x1168a1c2) [0x7f74a4a1c1c2]
 --- /lib/x86_64-linux-gnu/libc.so.6(+0x94ac3) [0x7f7566bcaac3]
 --- /lib/x86_64-linux-gnu/libc.so.6(+0x1268c0) [0x7f7566c5c8c0]
}

2026-01-28 22:13:08.363 (  15.529s) [        DEFFD640]     client_instance.cc:499      1| Closing parent mesh.
2026-01-28 22:13:08.450 (  15.616s) [        DEFFD640]      error_instance.cc:52       1| ErrorInstance::PJRT_Error_Message
2026-01-28 22:13:08.450 (  15.616s) [        DEFFD640]      error_instance.cc:61       1| ErrorInstance::PJRT_Error_GetCode
2026-01-28 22:13:08.450 (  15.616s) [        DEFFD640]      error_instance.cc:46       1| ErrorInstance::PJRT_Error_Destroy
Fatal Python error: Segmentation fault

Thread 0x00007f6cdd7fa640 (most recent call first):
  <no Python frame>

Thread 0x00007f6cddffb640 (most recent call first):
  <no Python frame>

Thread 0x00007f6f2ae7e640 (most recent call first):
  File "/usr/lib/python3.11/threading.py", line 331 in wait
  File "/usr/lib/python3.11/threading.py", line 629 in wait
  File "/usr/local/lib/python3.11/dist-packages/tqdm/_monitor.py", line 60 in run
  File "/usr/lib/python3.11/threading.py", line 1045 in _bootstrap_inner
  File "/usr/lib/python3.11/threading.py", line 1002 in _bootstrap

Current thread 0x00007f7566b35000 (most recent call first):
  File "/usr/local/lib/python3.11/dist-packages/torch/_tensor_str.py", line 458 in _str_intern
  File "/usr/local/lib/python3.11/dist-packages/torch/_tensor_str.py", line 722 in _str
  File "/usr/local/lib/python3.11/dist-packages/torch/_tensor.py", line 568 in __repr__
  File "/localdev/jameszianxu/tt-xla/python_package/tt_torch/torch_overrides.py", line 22 in __torch_function__
  File "/usr/local/lib/python3.11/dist-packages/torch/overrides.py", line 1728 in handle_torch_function
  File "/usr/local/lib/python3.11/dist-packages/torch/_tensor.py", line 564 in __repr__
  File "/usr/local/lib/python3.11/dist-packages/_pytest/_io/saferepr.py", line 73 in repr_instance
  File "/usr/lib/python3.11/reprlib.py", line 63 in repr1
  File "/usr/lib/python3.11/reprlib.py", line 72 in <listcomp>
  File "/usr/lib/python3.11/reprlib.py", line 72 in _repr_iterable
  File "/usr/lib/python3.11/reprlib.py", line 81 in repr_tuple
  File "/usr/lib/python3.11/reprlib.py", line 61 in repr1
  File "/usr/lib/python3.11/reprlib.py", line 53 in repr
  File "/usr/local/lib/python3.11/dist-packages/_pytest/_io/saferepr.py", line 62 in repr
  File "/usr/local/lib/python3.11/dist-packages/_pytest/_io/saferepr.py", line 111 in saferepr
  File "/usr/local/lib/python3.11/dist-packages/_pytest/_code/code.py", line 913 in repr_args
  File "/usr/local/lib/python3.11/dist-packages/_pytest/_code/code.py", line 1076 in repr_traceback_entry
  File "/usr/local/lib/python3.11/dist-packages/_pytest/_code/code.py", line 1135 in <listcomp>
  File "/usr/local/lib/python3.11/dist-packages/_pytest/_code/code.py", line 1134 in repr_traceback
  File "/usr/local/lib/python3.11/dist-packages/_pytest/_code/code.py", line 1202 in repr_excinfo
  File "/usr/local/lib/python3.11/dist-packages/_pytest/_code/code.py", line 766 in getrepr
  File "/usr/local/lib/python3.11/dist-packages/_pytest/nodes.py", line 456 in _repr_failure_py
  File "/usr/local/lib/python3.11/dist-packages/_pytest/python.py", line 1713 in repr_failure
  File "/usr/local/lib/python3.11/dist-packages/_pytest/reports.py", line 377 in from_item_and_call
  File "/usr/local/lib/python3.11/dist-packages/_pytest/runner.py", line 368 in pytest_runtest_makereport
  File "/usr/local/lib/python3.11/dist-packages/pluggy/_callers.py", line 121 in _multicall
  File "/usr/local/lib/python3.11/dist-packages/pluggy/_manager.py", line 120 in _hookexec
  File "/usr/local/lib/python3.11/dist-packages/pluggy/_hooks.py", line 512 in __call__
  File "/usr/local/lib/python3.11/dist-packages/_pytest/runner.py", line 248 in call_and_report
  File "/usr/local/lib/python3.11/dist-packages/_pytest/runner.py", line 136 in runtestprotocol
  File "/usr/local/lib/python3.11/dist-packages/_pytest/runner.py", line 117 in pytest_runtest_protocol
  File "/usr/local/lib/python3.11/dist-packages/pluggy/_callers.py", line 121 in _multicall
  File "/usr/local/lib/python3.11/dist-packages/pluggy/_manager.py", line 120 in _hookexec
  File "/usr/local/lib/python3.11/dist-packages/pluggy/_hooks.py", line 512 in __call__
  File "/usr/local/lib/python3.11/dist-packages/_pytest/main.py", line 367 in pytest_runtestloop
  File "/usr/local/lib/python3.11/dist-packages/pluggy/_callers.py", line 121 in _multicall
  File "/usr/local/lib/python3.11/dist-packages/pluggy/_manager.py", line 120 in _hookexec
  File "/usr/local/lib/python3.11/dist-packages/pluggy/_hooks.py", line 512 in __call__
  File "/usr/local/lib/python3.11/dist-packages/_pytest/main.py", line 343 in _main
  File "/usr/local/lib/python3.11/dist-packages/_pytest/main.py", line 289 in wrap_session
  File "/usr/local/lib/python3.11/dist-packages/_pytest/main.py", line 336 in pytest_cmdline_main
  File "/usr/local/lib/python3.11/dist-packages/pluggy/_callers.py", line 121 in _multicall
  File "/usr/local/lib/python3.11/dist-packages/pluggy/_manager.py", line 120 in _hookexec
  File "/usr/local/lib/python3.11/dist-packages/pluggy/_hooks.py", line 512 in __call__
  File "/usr/local/lib/python3.11/dist-packages/_pytest/config/__init__.py", line 175 in main
  File "/usr/local/lib/python3.11/dist-packages/_pytest/config/__init__.py", line 201 in console_main
  File "/usr/local/lib/python3.11/dist-packages/pytest/__main__.py", line 9 in <module>
  File "<frozen runpy>", line 88 in _run_code
  File "<frozen runpy>", line 198 in _run_module_as_main

Extension modules: numpy._core._multiarray_umath, numpy.linalg._umath_linalg, psutil._psutil_linux, torch._C, torch._C._dynamo.autograd_compiler, torch._C._dynamo.eval_frame, torch._C._dynamo.guards, torch._C._dynamo.utils, torch._C._fft, torch._C._linalg, torch._C._nested, torch._C._nn, torch._C._sparse, torch._C._special, charset_normalizer.md, simplejson._speedups, requests.packages.charset_normalizer.md, requests.packages.chardet.md, yaml._yaml, numpy.random._common, numpy.random.bit_generator, numpy.random._bounded_integers, numpy.random._pcg64, numpy.random._mt19937, numpy.random._generator, numpy.random._philox, numpy.random._sfc64, numpy.random.mtrand, markupsafe._speedups, jaxlib.cpu_feature_guard, msgpack._cmsgpack, regex._regex, PIL._imaging, sklearn.__check_build._check_build, _cyutility, scipy._cyutility, scipy._lib._ccallback_c, scipy.sparse._sparsetools, _csparsetools, scipy.sparse._csparsetools, lz4._version, lz4.frame._frame, scipy.special._ufuncs_cxx, scipy.special._ellip_harm_2, scipy.special._special_ufuncs, scipy.special._gufuncs, scipy.special._ufuncs, scipy.special._specfun, scipy.special._comb, scipy.linalg._fblas, scipy.linalg._flapack, scipy.linalg.cython_lapack, scipy.linalg._cythonized_array_utils, scipy.linalg._solve_toeplitz, scipy.linalg._batched_linalg, scipy.linalg._decomp_lu_cython, scipy.linalg._matfuncs_schur_sqrtm, scipy.linalg._matfuncs_expm, scipy.linalg._linalg_pythran, scipy.linalg.cython_blas, scipy.linalg._decomp_update, scipy.sparse.linalg._dsolve._superlu, scipy.sparse.linalg._eigen.arpack._arpacklib, scipy.sparse.linalg._propack, scipy.spatial._ckdtree, scipy._lib.messagestream, scipy.spatial._qhull, scipy.spatial._voronoi, scipy.spatial._hausdorff, scipy.spatial._distance_wrap, scipy.spatial.transform._rotation_cy, scipy.spatial.transform._rigid_transform_cy, scipy.optimize._group_columns, scipy.optimize._trlib._trlib, scipy.optimize._lbfgsb, _moduleTNC, scipy.optimize._moduleTNC, scipy.optimize._slsqplib, scipy.optimize._minpack, scipy.optimize._lsq.givens_elimination, scipy.optimize._zeros, scipy._lib._uarray._uarray, scipy.linalg._decomp_interpolative, scipy.optimize._bglu_dense, scipy.optimize._lsap, scipy.optimize._direct, scipy.integrate._odepack, scipy.integrate._quadpack, scipy.integrate._vode, scipy.integrate._dop, scipy.interpolate._fitpack, scipy.interpolate._dfitpack, scipy.interpolate._dierckx, scipy.interpolate._ppoly, scipy.interpolate._interpnd, scipy.interpolate._rbfinterp_pythran, scipy.interpolate._rgi_cython, scipy.special.cython_special, scipy.stats._stats, scipy.stats._biasedurn, scipy.stats._stats_pythran, scipy.stats._levy_stable.levyst, scipy.stats._ansari_swilk_statistics, scipy.sparse.csgraph._tools, scipy.sparse.csgraph._shortest_path, scipy.sparse.csgraph._traversal, scipy.sparse.csgraph._min_spanning_tree, scipy.sparse.csgraph._flow, scipy.sparse.csgraph._matching, scipy.sparse.csgraph._reordering, scipy.stats._sobol, scipy.stats._qmc_cy, scipy.stats._rcont.rcont, scipy.stats._qmvnt_cy, scipy.ndimage._nd_image, scipy.ndimage._rank_filter_1d, _ni_label, scipy.ndimage._ni_label, pyarrow.lib, pandas._libs._cyutility, pandas._libs.tslibs.ccalendar, pandas._libs.tslibs.np_datetime, pandas._libs.tslibs.dtypes, pandas._libs.tslibs.base, pandas._libs.tslibs.nattype, pandas._libs.tslibs.timezones, pandas._libs.properties, pandas._libs.tslibs.fields, pandas._libs.tslibs.timedeltas, pandas._libs.tslibs.tzconversion, pandas._libs.tslibs.timestamps, pandas._libs.tslibs.offsets, pandas._libs.tslibs.strptime, pandas._libs.tslibs.parsing, pandas._libs.tslibs.conversion, pandas._libs.tslibs.period, pandas._libs.tslibs.vectorized, pandas._libs.ops_dispatch, pandas._libs.missing, pandas._libs.hashtable, pandas._libs.algos, pandas._libs.interval, pandas._libs.lib, pyarrow._compute, pandas._libs.ops, pandas._libs.hashing, pandas._libs.arrays, pandas._libs.tslib, pandas._libs.sparse, pandas._libs.internals, pandas._libs.indexing, pandas._libs.index, pandas._libs.writers, pandas._libs.join, pandas._libs.window.aggregations, pandas._libs.window.indexers, pandas._libs.reshape, pandas._libs.groupby, pandas._libs.json, pandas._libs.parsers, pandas._libs.testing, sklearn._cyutility, sklearn.utils._isfinite, sklearn.utils.sparsefuncs_fast, sklearn.utils.murmurhash, sklearn.utils._openmp_helpers, sklearn.metrics.cluster._expected_mutual_info_fast, sklearn.metrics._dist_metrics, sklearn.metrics._pairwise_distances_reduction._datasets_pair, sklearn.utils._cython_blas, sklearn.metrics._pairwise_distances_reduction._base, sklearn.metrics._pairwise_distances_reduction._middle_term_computer, sklearn.utils._heap, sklearn.utils._sorting, sklearn.metrics._pairwise_distances_reduction._argkmin, sklearn.metrics._pairwise_distances_reduction._argkmin_classmode, sklearn.utils._vector_sentinel, sklearn.metrics._pairwise_distances_reduction._radius_neighbors, sklearn.metrics._pairwise_distances_reduction._radius_neighbors_classmode, sklearn.metrics._pairwise_fast, sklearn.preprocessing._csr_polynomial_expansion, sklearn.preprocessing._target_encoder_fast, PIL._imagingft, av._core, av.logging, av.bytesource, av.buffer, av.audio.format, av.error, av.dictionary, av.container.pyio, av.option, av.descriptor, av.format, av.utils, av.stream, av.container.streams, av.sidedata.encparams, av.sidedata.motionvectors, av.sidedata.sidedata, av.opaque, av.packet, av.container.input, av.container.output, av.container.core, av.codec.context, av.video.format, av.video.reformatter, av.plane, av.video.plane, av.video.frame, av.video.stream, av.codec.hwaccel, av.codec.codec, av.frame, av.audio.layout, av.audio.plane, av.audio.frame, av.audio.stream, av.filter.link, av.filter.context, av.filter.graph, av.filter.filter, av.filter.loudnorm, av.audio.resampler, av.audio.codeccontext, av.audio.fifo, av.bitstream, av.video.codeccontext, _cffi_backend (total: 230)
