2026-04-23 21:17:04.012 | INFO     | pjrt_plugin_tt:setup_tt_pjrt_plugin_dir:42 - Using PJRT plugin directory: /localdev/jameszianxu/clean/tt-xla/python_package/pjrt_plugin_tt
2026-04-23 21:17:04.012 | INFO     | pjrt_plugin_tt:setup_tt_metal_home:103 - Using TT-Metal from the source tree: /localdev/jameszianxu/clean/tt-xla/third_party/tt-mlir/src/tt-mlir/third_party/tt-metal/src/tt-metal
2026-04-23 21:17:04.012 | WARNING  | torch_plugin_tt:__init__:38 - TT plugin is setting XLA_STABLEHLO_COMPILE to 1. This is required for TT PJRT plugin to work correctly.
2026-04-23 21:17:04.653770: W torch_xla/csrc/runtime/profiler.cpp:88] Profiler API not found for PJRT plugin
Warning: You are sending unauthenticated requests to the HF Hub. Please set a HF_TOKEN to enable higher rate limits and faster downloads.
WARNING:huggingface_hub.utils._http:Warning: You are sending unauthenticated requests to the HF Hub. Please set a HF_TOKEN to enable higher rate limits and faster downloads.
Fetching 11 files:   0%|          | 0/11 [00:00<?, ?it/s]Fetching 11 files: 100%|██████████| 11/11 [00:00<00:00, 91907.06it/s]
Loading weights: 0it [00:00, ?it/s]Loading weights: 0it [00:00, ?it/s]
[1mQwen3_5VisionModel LOAD REPORT[0m from: Qwen/Qwen3.5-27B
Key                                                                  | Status     | 
---------------------------------------------------------------------+------------+-
model.language_model.layers.{0...63}.mlp.up_proj.weight              | UNEXPECTED | 
model.visual.blocks.{0...26}.norm1.weight                            | UNEXPECTED | 
model.language_model.layers.{0...62}.linear_attn.in_proj_a.weight    | UNEXPECTED | 
model.visual.blocks.{0...26}.norm2.weight                            | UNEXPECTED | 
model.language_model.layers.{0...63}.post_attention_layernorm.weight | UNEXPECTED | 
model.language_model.layers.{0...62}.linear_attn.norm.weight         | UNEXPECTED | 
model.visual.blocks.{0...26}.attn.qkv.weight                         | UNEXPECTED | 
model.language_model.layers.{0...62}.linear_attn.in_proj_z.weight    | UNEXPECTED | 
model.language_model.layers.{0...63}.mlp.gate_proj.weight            | UNEXPECTED | 
model.language_model.layers.{0...63}.mlp.down_proj.weight            | UNEXPECTED | 
model.language_model.layers.{0...63}.input_layernorm.weight          | UNEXPECTED | 
model.language_model.layers.{0...62}.linear_attn.in_proj_b.weight    | UNEXPECTED | 
model.language_model.layers.{0...62}.linear_attn.out_proj.weight     | UNEXPECTED | 
model.visual.blocks.{0...26}.norm1.bias                              | UNEXPECTED | 
model.language_model.layers.{0...62}.linear_attn.in_proj_qkv.weight  | UNEXPECTED | 
model.language_model.layers.{3...63}.self_attn.v_proj.weight         | UNEXPECTED | 
model.language_model.layers.{0...62}.linear_attn.conv1d.weight       | UNEXPECTED | 
model.visual.blocks.{0...26}.attn.qkv.bias                           | UNEXPECTED | 
model.visual.blocks.{0...26}.attn.proj.bias                          | UNEXPECTED | 
model.language_model.layers.{3...63}.self_attn.k_proj.weight         | UNEXPECTED | 
model.visual.blocks.{0...26}.mlp.linear_fc2.weight                   | UNEXPECTED | 
model.visual.blocks.{0...26}.norm2.bias                              | UNEXPECTED | 
model.language_model.layers.{0...62}.linear_attn.A_log               | UNEXPECTED | 
model.visual.blocks.{0...26}.mlp.linear_fc1.bias                     | UNEXPECTED | 
model.visual.blocks.{0...26}.mlp.linear_fc2.bias                     | UNEXPECTED | 
model.language_model.layers.{0...62}.linear_attn.dt_bias             | UNEXPECTED | 
model.visual.blocks.{0...26}.mlp.linear_fc1.weight                   | UNEXPECTED | 
model.language_model.layers.{3...63}.self_attn.k_norm.weight         | UNEXPECTED | 
model.language_model.layers.{3...63}.self_attn.o_proj.weight         | UNEXPECTED | 
model.visual.blocks.{0...26}.attn.proj.weight                        | UNEXPECTED | 
lm_head.weight                                                       | UNEXPECTED | 
model.visual.merger.linear_fc2.bias                                  | UNEXPECTED | 
model.language_model.layers.{3...63}.self_attn.q_proj.weight         | UNEXPECTED | 
model.language_model.layers.{3...63}.self_attn.q_norm.weight         | UNEXPECTED | 
model.visual.merger.linear_fc2.weight                                | UNEXPECTED | 
model.language_model.embed_tokens.weight                             | UNEXPECTED | 
model.visual.pos_embed.weight                                        | UNEXPECTED | 
model.language_model.norm.weight                                     | UNEXPECTED | 
model.visual.patch_embed.proj.weight                                 | UNEXPECTED | 
model.visual.merger.linear_fc1.bias                                  | UNEXPECTED | 
model.visual.merger.norm.weight                                      | UNEXPECTED | 
model.visual.patch_embed.proj.bias                                   | UNEXPECTED | 
model.visual.merger.linear_fc1.weight                                | UNEXPECTED | 
model.visual.merger.norm.bias                                        | UNEXPECTED | 
blocks.{0...26}.norm1.weight                                         | MISSING    | 
blocks.{0...26}.norm1.bias                                           | MISSING    | 
patch_embed.proj.bias                                                | MISSING    | 
blocks.{0...26}.norm2.bias                                           | MISSING    | 
blocks.{0...26}.attn.proj.weight                                     | MISSING    | 
blocks.{0...26}.mlp.linear_fc1.weight                                | MISSING    | 
blocks.{0...26}.norm2.weight                                         | MISSING    | 
blocks.{0...26}.mlp.linear_fc1.bias                                  | MISSING    | 
blocks.{0...26}.attn.proj.bias                                       | MISSING    | 
blocks.{0...26}.attn.qkv.bias                                        | MISSING    | 
blocks.{0...26}.mlp.linear_fc2.weight                                | MISSING    | 
blocks.{0...26}.attn.qkv.weight                                      | MISSING    | 
blocks.{0...26}.mlp.linear_fc2.bias                                  | MISSING    | 
pos_embed.weight                                                     | MISSING    | 
merger.norm.weight                                                   | MISSING    | 
merger.linear_fc2.bias                                               | MISSING    | 
merger.norm.bias                                                     | MISSING    | 
merger.linear_fc1.weight                                             | MISSING    | 
merger.linear_fc2.weight                                             | MISSING    | 
patch_embed.proj.weight                                              | MISSING    | 
merger.linear_fc1.bias                                               | MISSING    | 

[3mNotes:
- UNEXPECTED[3m	:can be ignored when loading from different task/architecture; not ok if you expect identical arch.
- MISSING[3m	:those params were newly initialized because missing from the checkpoint. Consider training on your downstream task.[0m
2026-04-23 21:17:17.448 (  13.128s) [        F0E90740]      module_builder.cc:1220     1| MLIR Module vhlo:
module @SyncTensorsGraph.18 attributes {mhlo.cross_program_prefetches = [], mhlo.input_output_alias = [], mhlo.is_dynamic = false, mhlo.use_auto_spmd_partitioning = false} {
  vhlo.func_v1 @main(%arg0: !vhlo.tensor_v1<1152x!vhlo.bf16_v1>, %arg1: !vhlo.tensor_v1<1152x3x2x16x16x!vhlo.bf16_v1>, %arg2: !vhlo.tensor_v1<16x1536x!vhlo.bf16_v1>) -> (!vhlo.tensor_v1<16x1152x!vhlo.bf16_v1>) {
    %0 = "vhlo.reshape_v1"(%arg2) : (!vhlo.tensor_v1<16x1536x!vhlo.bf16_v1>) -> !vhlo.tensor_v1<1x16x1536x!vhlo.bf16_v1>
    %1 = "vhlo.custom_call_v1"(%0) <{api_version = #vhlo<api_version_v1 API_VERSION_UNSPECIFIED>, backend_config = #vhlo.string_v1<"">, call_target_name = #vhlo.string_v1<"tt.mark_argument">, called_computations = #vhlo.array_v1<[]>, has_side_effect = #vhlo.bool_v1<false>, operand_layouts = #vhlo.array_v1<[]>, output_operand_aliases = #vhlo.array_v1<[]>, result_layouts = #vhlo.array_v1<[]>}> {mhlo.frontend_attributes = #vhlo.dict_v1<{#vhlo.string_v1<"ttcore.argument_type"> = #vhlo.string_v1<"input">, #vhlo.string_v1<"ttir.name"> = #vhlo.string_v1<"args_0">}>} : (!vhlo.tensor_v1<1x16x1536x!vhlo.bf16_v1>) -> !vhlo.tensor_v1<1x16x1536x!vhlo.bf16_v1>
    %2 = "vhlo.reshape_v1"(%1) : (!vhlo.tensor_v1<1x16x1536x!vhlo.bf16_v1>) -> !vhlo.tensor_v1<16x3x2x16x16x!vhlo.bf16_v1>
    %3 = "vhlo.custom_call_v1"(%arg1) <{api_version = #vhlo<api_version_v1 API_VERSION_UNSPECIFIED>, backend_config = #vhlo.string_v1<"">, call_target_name = #vhlo.string_v1<"tt.mark_argument">, called_computations = #vhlo.array_v1<[]>, has_side_effect = #vhlo.bool_v1<false>, operand_layouts = #vhlo.array_v1<[]>, output_operand_aliases = #vhlo.array_v1<[]>, result_layouts = #vhlo.array_v1<[]>}> {mhlo.frontend_attributes = #vhlo.dict_v1<{#vhlo.string_v1<"ttcore.argument_type"> = #vhlo.string_v1<"parameter">, #vhlo.string_v1<"ttir.name"> = #vhlo.string_v1<"patch_embed.proj.weight">}>} : (!vhlo.tensor_v1<1152x3x2x16x16x!vhlo.bf16_v1>) -> !vhlo.tensor_v1<1152x3x2x16x16x!vhlo.bf16_v1>
    %4 = "vhlo.convolution_v1"(%2, %3) <{batch_group_count = #vhlo.integer_v1<1 : i64>, feature_group_count = #vhlo.integer_v1<1 : i64>, input_batch_dimension = #vhlo.integer_v1<0 : i64>, input_feature_dimension = #vhlo.integer_v1<1 : i64>, input_spatial_dimensions = #vhlo.tensor_v1<dense<[2, 3, 4]> : tensor<3xi64>>, kernel_input_feature_dimension = #vhlo.integer_v1<1 : i64>, kernel_output_feature_dimension = #vhlo.integer_v1<0 : i64>, kernel_spatial_dimensions = #vhlo.tensor_v1<dense<[2, 3, 4]> : tensor<3xi64>>, lhs_dilation = #vhlo.tensor_v1<dense<1> : tensor<3xi64>>, output_batch_dimension = #vhlo.integer_v1<0 : i64>, output_feature_dimension = #vhlo.integer_v1<1 : i64>, output_spatial_dimensions = #vhlo.tensor_v1<dense<[2, 3, 4]> : tensor<3xi64>>, padding = #vhlo.tensor_v1<dense<0> : tensor<3x2xi64>>, precision_config = #vhlo.array_v1<[#vhlo<precision_v1 DEFAULT>, #vhlo<precision_v1 DEFAULT>]>, rhs_dilation = #vhlo.tensor_v1<dense<1> : tensor<3xi64>>, window_reversal = #vhlo.tensor_v1<dense<false> : tensor<3xi1>>, window_strides = #vhlo.tensor_v1<dense<[2, 16, 16]> : tensor<3xi64>>}> : (!vhlo.tensor_v1<16x3x2x16x16x!vhlo.bf16_v1>, !vhlo.tensor_v1<1152x3x2x16x16x!vhlo.bf16_v1>) -> !vhlo.tensor_v1<16x1152x1x1x1x!vhlo.bf16_v1>
    %5 = "vhlo.reshape_v1"(%arg0) : (!vhlo.tensor_v1<1152x!vhlo.bf16_v1>) -> !vhlo.tensor_v1<1x1x1152x!vhlo.bf16_v1>
    %6 = "vhlo.custom_call_v1"(%5) <{api_version = #vhlo<api_version_v1 API_VERSION_UNSPECIFIED>, backend_config = #vhlo.string_v1<"">, call_target_name = #vhlo.string_v1<"tt.mark_argument">, called_computations = #vhlo.array_v1<[]>, has_side_effect = #vhlo.bool_v1<false>, operand_layouts = #vhlo.array_v1<[]>, output_operand_aliases = #vhlo.array_v1<[]>, result_layouts = #vhlo.array_v1<[]>}> {mhlo.frontend_attributes = #vhlo.dict_v1<{#vhlo.string_v1<"ttcore.argument_type"> = #vhlo.string_v1<"parameter">, #vhlo.string_v1<"ttir.name"> = #vhlo.string_v1<"patch_embed.proj.bias">}>} : (!vhlo.tensor_v1<1x1x1152x!vhlo.bf16_v1>) -> !vhlo.tensor_v1<1x1x1152x!vhlo.bf16_v1>
    %7 = "vhlo.reshape_v1"(%6) : (!vhlo.tensor_v1<1x1x1152x!vhlo.bf16_v1>) -> !vhlo.tensor_v1<1152x!vhlo.bf16_v1>
    %8 = "vhlo.broadcast_in_dim_v1"(%7) <{broadcast_dimensions = #vhlo.tensor_v1<dense<1> : tensor<1xi64>>}> : (!vhlo.tensor_v1<1152x!vhlo.bf16_v1>) -> !vhlo.tensor_v1<16x1152x1x1x1x!vhlo.bf16_v1>
    %9 = "vhlo.add_v1"(%4, %8) : (!vhlo.tensor_v1<16x1152x1x1x1x!vhlo.bf16_v1>, !vhlo.tensor_v1<16x1152x1x1x1x!vhlo.bf16_v1>) -> !vhlo.tensor_v1<16x1152x1x1x1x!vhlo.bf16_v1>
    %10 = "vhlo.reshape_v1"(%9) : (!vhlo.tensor_v1<16x1152x1x1x1x!vhlo.bf16_v1>) -> !vhlo.tensor_v1<16x1152x!vhlo.bf16_v1>
    "vhlo.return_v1"(%10) : (!vhlo.tensor_v1<16x1152x!vhlo.bf16_v1>) -> ()
  } {arg_attrs = #vhlo.array_v1<[]>, res_attrs = #vhlo.array_v1<[]>, sym_visibility = #vhlo.string_v1<"">}
}
------------------ END OF MLIR MODULE ------------------
2026-04-23 21:17:17.453 (  13.133s) [        F0E90740]      module_builder.cc:1220     1| MLIR Module shlo:
module @SyncTensorsGraph.18 attributes {mhlo.cross_program_prefetches = [], mhlo.input_output_alias = [], mhlo.is_dynamic = false, mhlo.use_auto_spmd_partitioning = false} {
  func.func @main(%arg0: tensor<1152xbf16>, %arg1: tensor<1152x3x2x16x16xbf16>, %arg2: tensor<16x1536xbf16>) -> tensor<16x1152xbf16> {
    %0 = stablehlo.reshape %arg2 : (tensor<16x1536xbf16>) -> tensor<1x16x1536xbf16>
    %1 = stablehlo.custom_call @tt.mark_argument(%0) {api_version = 0 : i32, mhlo.frontend_attributes = {ttcore.argument_type = "input", ttir.name = "args_0"}} : (tensor<1x16x1536xbf16>) -> tensor<1x16x1536xbf16>
    %2 = stablehlo.reshape %1 : (tensor<1x16x1536xbf16>) -> tensor<16x3x2x16x16xbf16>
    %3 = stablehlo.custom_call @tt.mark_argument(%arg1) {api_version = 0 : i32, mhlo.frontend_attributes = {ttcore.argument_type = "parameter", ttir.name = "patch_embed.proj.weight"}} : (tensor<1152x3x2x16x16xbf16>) -> tensor<1152x3x2x16x16xbf16>
    %4 = stablehlo.convolution(%2, %3) dim_numbers = [b, f, 0, 1, 2]x[o, i, 0, 1, 2]->[b, f, 0, 1, 2], window = {stride = [2, 16, 16]} {batch_group_count = 1 : i64, feature_group_count = 1 : i64} : (tensor<16x3x2x16x16xbf16>, tensor<1152x3x2x16x16xbf16>) -> tensor<16x1152x1x1x1xbf16>
    %5 = stablehlo.reshape %arg0 : (tensor<1152xbf16>) -> tensor<1x1x1152xbf16>
    %6 = stablehlo.custom_call @tt.mark_argument(%5) {api_version = 0 : i32, mhlo.frontend_attributes = {ttcore.argument_type = "parameter", ttir.name = "patch_embed.proj.bias"}} : (tensor<1x1x1152xbf16>) -> tensor<1x1x1152xbf16>
    %7 = stablehlo.reshape %6 : (tensor<1x1x1152xbf16>) -> tensor<1152xbf16>
    %8 = stablehlo.broadcast_in_dim %7, dims = [1] : (tensor<1152xbf16>) -> tensor<16x1152x1x1x1xbf16>
    %9 = stablehlo.add %4, %8 : tensor<16x1152x1x1x1xbf16>
    %10 = stablehlo.reshape %9 : (tensor<16x1152x1x1x1xbf16>) -> tensor<16x1152xbf16>
    return %10 : tensor<16x1152xbf16>
  }
}
------------------ END OF MLIR MODULE ------------------
2026-04-23 21:17:17.454 (  13.134s) [        F0E90740]      module_builder.cc:1220     1| MLIR Module shlo_frontend:
module @SyncTensorsGraph.18 attributes {mhlo.cross_program_prefetches = [], mhlo.input_output_alias = [], mhlo.is_dynamic = false, mhlo.use_auto_spmd_partitioning = false} {
  func.func @main(%arg0: tensor<1152xbf16> {ttcore.argument_type = #ttcore.argument_type<parameter>, ttir.name = "patch_embed.proj.bias"}, %arg1: tensor<1152x3x2x16x16xbf16> {ttcore.argument_type = #ttcore.argument_type<parameter>, ttir.name = "patch_embed.proj.weight"}, %arg2: tensor<16x1536xbf16> {ttcore.argument_type = #ttcore.argument_type<input>, ttir.name = "args_0"}) -> tensor<16x1152xbf16> {
    %0 = stablehlo.reshape %arg2 : (tensor<16x1536xbf16>) -> tensor<1x16x1536xbf16>
    %1 = stablehlo.reshape %0 : (tensor<1x16x1536xbf16>) -> tensor<16x3x2x16x16xbf16>
    %2 = stablehlo.convolution(%1, %arg1) dim_numbers = [b, f, 0, 1, 2]x[o, i, 0, 1, 2]->[b, f, 0, 1, 2], window = {stride = [2, 16, 16]} {batch_group_count = 1 : i64, feature_group_count = 1 : i64} : (tensor<16x3x2x16x16xbf16>, tensor<1152x3x2x16x16xbf16>) -> tensor<16x1152x1x1x1xbf16>
    %3 = stablehlo.reshape %arg0 : (tensor<1152xbf16>) -> tensor<1x1x1152xbf16>
    %4 = stablehlo.reshape %3 : (tensor<1x1x1152xbf16>) -> tensor<1152xbf16>
    %5 = stablehlo.broadcast_in_dim %4, dims = [1] : (tensor<1152xbf16>) -> tensor<16x1152x1x1x1xbf16>
    %6 = stablehlo.add %2, %5 : tensor<16x1152x1x1x1xbf16>
    %7 = stablehlo.reshape %6 : (tensor<16x1152x1x1x1xbf16>) -> tensor<16x1152xbf16>
    return %7 : tensor<16x1152xbf16>
  }
}
------------------ END OF MLIR MODULE ------------------
2026-04-23 21:17:17.459 (  13.139s) [        F0E90740]      module_builder.cc:1220     1| MLIR Module shlo_compiler:
module @SyncTensorsGraph.18 attributes {mhlo.cross_program_prefetches = [], mhlo.input_output_alias = [], mhlo.is_dynamic = false, mhlo.use_auto_spmd_partitioning = false} {
  sdy.mesh @mesh = <["x"=1, "y"=1]>
  func.func @main(%arg0: tensor<1152xbf16> {ttcore.argument_type = #ttcore.argument_type<parameter>, ttcore.local_shape = #ttcore<local_shape local_shape = tensor<1152xbf16>>, ttcore.shard_status = #ttcore.shard_status<unsharded>, ttir.name = "patch_embed.proj.bias"}, %arg1: tensor<1152x3x2x16x16xbf16> {ttcore.argument_type = #ttcore.argument_type<parameter>, ttcore.local_shape = #ttcore<local_shape local_shape = tensor<1152x3x2x16x16xbf16>>, ttcore.shard_status = #ttcore.shard_status<unsharded>, ttir.name = "patch_embed.proj.weight"}, %arg2: tensor<16x1536xbf16> {ttcore.argument_type = #ttcore.argument_type<input>, ttcore.local_shape = #ttcore<local_shape local_shape = tensor<16x1536xbf16>>, ttcore.shard_status = #ttcore.shard_status<unsharded>, ttir.name = "args_0"}) -> (tensor<16x1152xbf16> {ttcore.local_shape = #ttcore<local_shape local_shape = tensor<16x1152xbf16>>, ttcore.shard_status = #ttcore.shard_status<presharded>}) {
    %0 = stablehlo.reshape %arg2 : (tensor<16x1536xbf16>) -> tensor<1x16x1536xbf16>
    %1 = stablehlo.reshape %0 : (tensor<1x16x1536xbf16>) -> tensor<16x3x2x16x16xbf16>
    %2 = stablehlo.convolution(%1, %arg1) dim_numbers = [b, f, 0, 1, 2]x[o, i, 0, 1, 2]->[b, f, 0, 1, 2], window = {stride = [2, 16, 16]} {batch_group_count = 1 : i64, feature_group_count = 1 : i64} : (tensor<16x3x2x16x16xbf16>, tensor<1152x3x2x16x16xbf16>) -> tensor<16x1152x1x1x1xbf16>
    %3 = stablehlo.reshape %arg0 : (tensor<1152xbf16>) -> tensor<1x1x1152xbf16>
    %4 = stablehlo.reshape %3 : (tensor<1x1x1152xbf16>) -> tensor<1152xbf16>
    %5 = stablehlo.broadcast_in_dim %4, dims = [1] : (tensor<1152xbf16>) -> tensor<16x1152x1x1x1xbf16>
    %6 = stablehlo.add %2, %5 : tensor<16x1152x1x1x1xbf16>
    %7 = stablehlo.reshape %6 : (tensor<16x1152x1x1x1xbf16>) -> tensor<16x1152xbf16>
    return %7 : tensor<16x1152xbf16>
  }
}
------------------ END OF MLIR MODULE ------------------
2026-04-23 21:17:17.460 (  13.140s) [        F0E90740]      module_builder.cc:1220     1| MLIR Module shlo_set_mesh_attr:
module @SyncTensorsGraph.18 attributes {mhlo.cross_program_prefetches = [], mhlo.input_output_alias = [], mhlo.is_dynamic = false, mhlo.use_auto_spmd_partitioning = false} {
  sdy.mesh @mesh = <["x"=1, "y"=1]>
  func.func @main(%arg0: tensor<1152xbf16> {ttcore.argument_type = #ttcore.argument_type<parameter>, ttcore.local_shape = #ttcore<local_shape local_shape = tensor<1152xbf16>>, ttcore.shard_status = #ttcore.shard_status<unsharded>, ttir.name = "patch_embed.proj.bias"}, %arg1: tensor<1152x3x2x16x16xbf16> {ttcore.argument_type = #ttcore.argument_type<parameter>, ttcore.local_shape = #ttcore<local_shape local_shape = tensor<1152x3x2x16x16xbf16>>, ttcore.shard_status = #ttcore.shard_status<unsharded>, ttir.name = "patch_embed.proj.weight"}, %arg2: tensor<16x1536xbf16> {ttcore.argument_type = #ttcore.argument_type<input>, ttcore.local_shape = #ttcore<local_shape local_shape = tensor<16x1536xbf16>>, ttcore.shard_status = #ttcore.shard_status<unsharded>, ttir.name = "args_0"}) -> (tensor<16x1152xbf16> {ttcore.local_shape = #ttcore<local_shape local_shape = tensor<16x1152xbf16>>, ttcore.shard_status = #ttcore.shard_status<presharded>}) {
    %0 = stablehlo.reshape %arg2 : (tensor<16x1536xbf16>) -> tensor<1x16x1536xbf16>
    %1 = stablehlo.reshape %0 : (tensor<1x16x1536xbf16>) -> tensor<16x3x2x16x16xbf16>
    %2 = stablehlo.convolution(%1, %arg1) dim_numbers = [b, f, 0, 1, 2]x[o, i, 0, 1, 2]->[b, f, 0, 1, 2], window = {stride = [2, 16, 16]} {batch_group_count = 1 : i64, feature_group_count = 1 : i64} : (tensor<16x3x2x16x16xbf16>, tensor<1152x3x2x16x16xbf16>) -> tensor<16x1152x1x1x1xbf16>
    %3 = stablehlo.reshape %arg0 : (tensor<1152xbf16>) -> tensor<1x1x1152xbf16>
    %4 = stablehlo.reshape %3 : (tensor<1x1x1152xbf16>) -> tensor<1152xbf16>
    %5 = stablehlo.broadcast_in_dim %4, dims = [1] : (tensor<1152xbf16>) -> tensor<16x1152x1x1x1xbf16>
    %6 = stablehlo.add %2, %5 : tensor<16x1152x1x1x1xbf16>
    %7 = stablehlo.reshape %6 : (tensor<16x1152x1x1x1xbf16>) -> tensor<16x1152xbf16>
    return %7 : tensor<16x1152xbf16>
  }
}
------------------ END OF MLIR MODULE ------------------
2026-04-23 21:17:17.461 (  13.141s) [        F0E90740]      module_builder.cc:1220     1| MLIR Module shlo_compiler_cleaned:
module @SyncTensorsGraph.18 attributes {mhlo.cross_program_prefetches = [], mhlo.input_output_alias = [], mhlo.is_dynamic = false, mhlo.use_auto_spmd_partitioning = false} {
  func.func @main(%arg0: tensor<1152xbf16>, %arg1: tensor<1152x3x2x16x16xbf16>, %arg2: tensor<16x1536xbf16>) -> tensor<16x1152xbf16> {
    %0 = stablehlo.reshape %arg2 : (tensor<16x1536xbf16>) -> tensor<1x16x1536xbf16>
    %1 = stablehlo.reshape %0 : (tensor<1x16x1536xbf16>) -> tensor<16x3x2x16x16xbf16>
    %2 = stablehlo.convolution(%1, %arg1) dim_numbers = [b, f, 0, 1, 2]x[o, i, 0, 1, 2]->[b, f, 0, 1, 2], window = {stride = [2, 16, 16]} {batch_group_count = 1 : i64, feature_group_count = 1 : i64} : (tensor<16x3x2x16x16xbf16>, tensor<1152x3x2x16x16xbf16>) -> tensor<16x1152x1x1x1xbf16>
    %3 = stablehlo.reshape %arg0 : (tensor<1152xbf16>) -> tensor<1x1x1152xbf16>
    %4 = stablehlo.reshape %3 : (tensor<1x1x1152xbf16>) -> tensor<1152xbf16>
    %5 = stablehlo.broadcast_in_dim %4, dims = [1] : (tensor<1152xbf16>) -> tensor<16x1152x1x1x1xbf16>
    %6 = stablehlo.add %2, %5 : tensor<16x1152x1x1x1xbf16>
    %7 = stablehlo.reshape %6 : (tensor<16x1152x1x1x1xbf16>) -> tensor<16x1152xbf16>
    return %7 : tensor<16x1152xbf16>
  }
}
------------------ END OF MLIR MODULE ------------------
2026-04-23 21:17:17.463 (  13.143s) [        F0E90740]      module_builder.cc:1220     1| MLIR Module ttir:
module @SyncTensorsGraph.18 attributes {mhlo.cross_program_prefetches = [], mhlo.input_output_alias = [], mhlo.is_dynamic = false, mhlo.use_auto_spmd_partitioning = false, ttcore.meshes = #ttcore.meshes<[<"mesh" = 1x1>]>} {
  ttcore.device_module {
    builtin.module @SyncTensorsGraph.18 attributes {mhlo.cross_program_prefetches = [], mhlo.input_output_alias = [], mhlo.is_dynamic = false, mhlo.use_auto_spmd_partitioning = false, ttcore.meshes = #ttcore.meshes<[<"mesh" = 1x1>]>} {
      func.func @main(%arg0: tensor<1152xbf16> {ttcore.argument_type = #ttcore.argument_type<parameter>, ttcore.local_shape = #ttcore<local_shape local_shape = tensor<1152xbf16>>, ttcore.shard_status = #ttcore.shard_status<unsharded>, ttir.name = "patch_embed.proj.bias"}, %arg1: tensor<1152x3x2x16x16xbf16> {ttcore.argument_type = #ttcore.argument_type<parameter>, ttcore.local_shape = #ttcore<local_shape local_shape = tensor<1152x3x2x16x16xbf16>>, ttcore.shard_status = #ttcore.shard_status<unsharded>, ttir.name = "patch_embed.proj.weight"}, %arg2: tensor<16x1536xbf16> {ttcore.argument_type = #ttcore.argument_type<input>, ttcore.local_shape = #ttcore<local_shape local_shape = tensor<16x1536xbf16>>, ttcore.shard_status = #ttcore.shard_status<unsharded>, ttir.name = "args_0"}) -> (tensor<16x1152xbf16> {ttcore.local_shape = #ttcore<local_shape local_shape = tensor<16x1152xbf16>>, ttcore.shard_status = #ttcore.shard_status<presharded>}) {
        %0 = "ttir.reshape"(%arg2) <{shape = [16 : i32, 3 : i32, 2 : i32, 16 : i32, 16 : i32]}> : (tensor<16x1536xbf16>) -> tensor<16x3x2x16x16xbf16>
        %1 = "ttir.permute"(%arg1) <{permutation = array<i64: 0, 1, 2, 3, 4>}> : (tensor<1152x3x2x16x16xbf16>) -> tensor<1152x3x2x16x16xbf16>
        %2 = "ttir.conv3d"(%0, %1) <{batch_dim = 0 : i64, channel_dim = 1 : i64, depth_dim = 2 : i64, groups = 1 : i32, height_dim = 3 : i64, padding = array<i32: 0, 0, 0>, padding_mode = "zeros", stride = array<i32: 2, 16, 16>, width_dim = 4 : i64}> : (tensor<16x3x2x16x16xbf16>, tensor<1152x3x2x16x16xbf16>) -> tensor<16x1152x1x1x1xbf16>
        %3 = "ttir.reshape"(%arg0) <{shape = [1 : i32, 1152 : i32, 1 : i32, 1 : i32, 1 : i32]}> : (tensor<1152xbf16>) -> tensor<1x1152x1x1x1xbf16>
        %4 = "ttir.broadcast"(%3) <{broadcast_dimensions = array<i64: 16, 1, 1, 1, 1>}> : (tensor<1x1152x1x1x1xbf16>) -> tensor<16x1152x1x1x1xbf16>
        %5 = "ttir.add"(%2, %4) : (tensor<16x1152x1x1x1xbf16>, tensor<16x1152x1x1x1xbf16>) -> tensor<16x1152x1x1x1xbf16>
        %6 = "ttir.reshape"(%5) <{shape = [16 : i32, 1152 : i32]}> : (tensor<16x1152x1x1x1xbf16>) -> tensor<16x1152xbf16>
        return %6 : tensor<16x1152xbf16>
      }
    }
  }
}
------------------ END OF MLIR MODULE ------------------
[conv3d-lowering] channel blocks: requested=16, l1_alignment=16, c_in_selected=16, c_out_selected=32
2026-04-23 21:17:17.484 (  13.164s) [        F0E90740]      module_builder.cc:1220     1| MLIR Module ttnn:
#dram = #ttnn.buffer_type<dram>
#system_desc = #ttcore.system_desc<[{role = host, target_triple = "x86_64-pc-linux"}], [{arch = <wormhole_b0>, grid = 8x8, coord_translation_offsets = 18x18, l1_size = 1499136, num_dram_channels = 12, dram_channel_size = 1073741824, noc_l1_address_align_bytes = 16, pcie_address_align_bytes = 32, noc_dram_address_align_bytes = 32, l1_unreserved_base = 103712, erisc_l1_unreserved_base = 98304, dram_unreserved_base = 1920032, dram_unreserved_end = 1073119552, supported_data_types = [<f32>, <f16>, <bf16>, <bfp_f8>, <bfp_bf8>, <bfp_f4>, <bfp_bf4>, <bfp_f2>, <bfp_bf2>, <u32>, <u16>, <u8>, <si32>], supported_tile_sizes = [ 4x16,  16x16,  32x16,  4x32,  16x32,  32x32], dst_physical_size_tiles = 16, num_cbs = 64, num_compute_threads = 1, num_datamovement_threads = 2}], [0], [1 : i32], [ 0x0x0x0]>
#system_memory = #ttnn.buffer_type<system_memory>
#ttnn_layout = #ttnn.ttnn_layout<(d0, d1, d2, d3, d4) -> (d0 * 96 + d1 * 32 + d2 * 16 + d3, d4), <1x1>, memref<110592x16xbf16, #system_memory>>
#ttnn_layout1 = #ttnn.ttnn_layout<(d0, d1) -> (d0, d1), <1x1>, memref<512x36x!ttcore.tile<32x32, bf16>, #dram>, <interleaved>>
#ttnn_layout2 = #ttnn.ttnn_layout<(d0, d1, d2, d3, d4) -> (d0 * 96 + d1 * 32 + d2 * 16 + d3, d4), <1x1>, memref<110592x16xbf16, #dram>, <interleaved>>
#ttnn_layout3 = #ttnn.ttnn_layout<(d0, d1, d2, d3, d4) -> (d0 * 192 + d1 * 64 + d2 * 32 + d3, d4), <1x1>, memref<6912x1x!ttcore.tile<32x32, bf16>, #dram>, <interleaved>>
#ttnn_layout4 = #ttnn.ttnn_layout<(d0, d1, d2, d3, d4) -> (d0 * 294912 + d1 * 18432 + d2 * 1152 + d3, d4), <1x1>, memref<18432x1x!ttcore.tile<32x32, bf16>, #dram>, <interleaved>>
#ttnn_layout5 = #ttnn.ttnn_layout<(d0, d1) -> (d0, d1), <1x1>, memref<18432x1x!ttcore.tile<32x32, bf16>, #dram>, <interleaved>>
#ttnn_layout6 = #ttnn.ttnn_layout<(d0, d1, d2, d3, d4) -> (d0 * 8192 + d1 * 512 + d2 * 32 + d3, d4), <1x1>, memref<512x36x!ttcore.tile<32x32, bf16>, #dram>, <interleaved>>
#ttnn_layout7 = #ttnn.ttnn_layout<(d0, d1, d2, d3, d4, d5) -> (d0 * 16384 + d1 * 1024 + d2 * 64 + d3 * 32 + d4, d5), <1x1>, memref<1024x36x!ttcore.tile<32x32, bf16>, #dram>, <interleaved>>
#ttnn_layout8 = #ttnn.ttnn_layout<(d0, d1, d2, d3, d4, d5) -> (d0 * 16384 + d1 * 8192 + d2 * 512 + d3 * 32 + d4, d5), <1x1>, memref<1024x36x!ttcore.tile<32x32, bf16>, #dram>, <interleaved>>
#ttnn_layout9 = #ttnn.ttnn_layout<(d0) -> (0, d0), <1x1>, memref<1x1152xbf16, #system_memory>>
#ttnn_layout10 = #ttnn.ttnn_layout<(d0, d1) -> (d0, d1), <1x1>, memref<1x36x!ttcore.tile<32x32, bf16>, #dram>, <interleaved>>
#ttnn_layout11 = #ttnn.ttnn_layout<(d0) -> (0, d0), <1x1>, memref<1x1152xf32, #system_memory>>
#ttnn_layout12 = #ttnn.ttnn_layout<(d0, d1, d2, d3, d4) -> (d0 * 1152 + d1 + d2 + d3, d4), <1x1>, memref<1152x1xf32, #system_memory>>
#ttnn_layout13 = #ttnn.ttnn_layout<(d0, d1, d2, d3, d4) -> (d0 * 1152 + d1 + d2 + d3, d4), <1x1>, memref<1152x1xbf16, #system_memory>>
#ttnn_layout14 = #ttnn.ttnn_layout<(d0, d1, d2, d3, d4) -> (d0 * 36864 + d1 * 32 + d2 * 32 + d3, d4), <1x1>, memref<1152x1x!ttcore.tile<32x32, bf16>, #system_memory>>
#ttnn_layout15 = #ttnn.ttnn_layout<(d0, d1, d2, d3, d4) -> (d0 * 36864 + d1 * 32 + d2 * 32 + d3, d4), <1x1>, memref<1152x1x!ttcore.tile<32x32, bf16>, #dram>, <interleaved>>
#ttnn_layout16 = #ttnn.ttnn_layout<(d0, d1) -> (d0, d1), <1x1>, memref<16x1536xbf16, #dram>, <interleaved>>
#ttnn_layout17 = #ttnn.ttnn_layout<(d0, d1) -> (d0, d1), <1x1>, memref<1x48x!ttcore.tile<32x32, bf16>, #dram>, <interleaved>>
#ttnn_layout18 = #ttnn.ttnn_layout<(d0, d1, d2, d3, d4) -> (d0 * 192 + d1 * 64 + d2 * 32 + d3, d4), <1x1>, memref<96x1x!ttcore.tile<32x32, bf16>, #dram>, <interleaved>>
#ttnn_layout19 = #ttnn.ttnn_layout<(d0, d1, d2, d3, d4) -> (d0 * 1024 + d1 * 512 + d2 * 32 + d3, d4), <1x1>, memref<512x1x!ttcore.tile<32x32, bf16>, #dram>, <interleaved>>
#ttnn_layout20 = #ttnn.ttnn_layout<(d0, d1) -> (d0, d1), <1x1>, memref<256x1x!ttcore.tile<32x32, bf16>, #dram>, <interleaved>>
#ttnn_layout21 = #ttnn.ttnn_layout<(d0, d1, d2, d3, d4) -> (d0 * 512 + d1 * 256 + d2 * 16 + d3, d4), <1x1>, memref<8192x32xbf16, #dram>, <interleaved>>
#ttnn_layout22 = #ttnn.ttnn_layout<(d0, d1, d2, d3, d4) -> (d0 + d1 + d2 + d3, d4), <1x1>, memref<16x1152xbf16, #dram>, <interleaved>>
#ttnn_layout23 = #ttnn.ttnn_layout<(d0, d1, d2, d3, d4) -> (d0 * 1152 + d1 + d2 + d3, d4), <1x1>, memref<18432x1xbf16, #dram>, <interleaved>>
#ttnn_layout24 = #ttnn.ttnn_layout<(d0, d1, d2, d3, d4) -> (d0 * 36864 + d1 * 32 + d2 * 32 + d3, d4), <1x1>, memref<18432x1x!ttcore.tile<32x32, bf16>, #dram>, <interleaved>>
module @SyncTensorsGraph.18 attributes {mhlo.cross_program_prefetches = [], mhlo.input_output_alias = [], mhlo.is_dynamic = false, mhlo.use_auto_spmd_partitioning = false, ttcore.meshes = #ttcore.meshes<[<"mesh" = 1x1>]>} {
  ttcore.device_module {
    builtin.module @SyncTensorsGraph.18 attributes {mhlo.cross_program_prefetches = [], mhlo.input_output_alias = [], mhlo.is_dynamic = false, mhlo.use_auto_spmd_partitioning = false, ttcore.meshes = #ttcore.meshes<[<"mesh" = 1x1>]>, ttcore.system_desc = #system_desc} {
      ttcore.device @default_device = <workerGrid = #ttcore.grid<8x8, virt_to_physical_map = (d0, d1) -> (0, d0, d1), physical_to_virt_map = (d0, d1, d2) -> (d1, d2)>, l1Map = (d0, d1, d2)[s0] -> (0, d0, d1, d2 + s0), dramMap = (d0, d1, d2)[s0, s1, s2, s3, s4, s5, s6] -> (0, 0, (((d0 * s1) * (s2 * (s3 * s6)) + d1 * (s2 * (s3 * s6)) + d2) floordiv s4) mod 12, ((((d0 * s1) * (s2 * (s3 * s6)) + d1 * (s2 * (s3 * s6)) + d2) floordiv s4) floordiv 12) * s4 + ((d0 * s1) * (s2 * (s3 * s6)) + d1 * (s2 * (s3 * s6)) + d2) mod s4 + s5), meshShape = 1x1, chipIds = [0]>
      func.func private @main_const_eval_0(%arg0: tensor<1152x3x2x16x16xbf16, #ttnn_layout> {ttir.conv2d_weight}) -> tensor<16384x1152xbf16, #ttnn_layout1> attributes {tt.function_type = "const_eval"} {
        %0 = "ttnn.get_device"() <{mesh_offset = #ttnn<mesh_offset 0x0>, mesh_shape = #ttnn<mesh_shape 1x1>}> : () -> !ttnn.device
        %1 = "ttnn.to_device"(%arg0, %0) <{memory_config = #ttnn.memory_config<#dram, <interleaved>>}> : (tensor<1152x3x2x16x16xbf16, #ttnn_layout>, !ttnn.device) -> tensor<1152x3x2x16x16xbf16, #ttnn_layout2>
        %2 = "ttnn.to_layout"(%1) <{layout = #ttnn.layout<tile>}> : (tensor<1152x3x2x16x16xbf16, #ttnn_layout2>) -> tensor<1152x3x2x16x16xbf16, #ttnn_layout3>
        "ttnn.deallocate"(%1) <{force = false}> : (tensor<1152x3x2x16x16xbf16, #ttnn_layout2>) -> ()
        %3 = "ttnn.permute"(%2) <{permutation = array<i64: 2, 3, 4, 0, 1>}> : (tensor<1152x3x2x16x16xbf16, #ttnn_layout3>) -> tensor<2x16x16x1152x3xbf16, #ttnn_layout4>
        "ttnn.deallocate"(%2) <{force = false}> : (tensor<1152x3x2x16x16xbf16, #ttnn_layout3>) -> ()
        %4 = "ttnn.reshape"(%3) <{shape = [589824 : i32, 3 : i32]}> : (tensor<2x16x16x1152x3xbf16, #ttnn_layout4>) -> tensor<589824x3xbf16, #ttnn_layout5>
        "ttnn.deallocate"(%3) <{force = false}> : (tensor<2x16x16x1152x3xbf16, #ttnn_layout4>) -> ()
        %5 = "ttnn.pad"(%4) <{padding = array<i32: 0, 0, 0, 29>, use_multicore = true, value = 0.000000e+00 : f32}> : (tensor<589824x3xbf16, #ttnn_layout5>) -> tensor<589824x32xbf16, #ttnn_layout5>
        "ttnn.deallocate"(%4) <{force = false}> : (tensor<589824x3xbf16, #ttnn_layout5>) -> ()
        %6 = "ttnn.reshape"(%5) <{shape = [2 : i32, 16 : i32, 16 : i32, 1152 : i32, 32 : i32]}> : (tensor<589824x32xbf16, #ttnn_layout5>) -> tensor<2x16x16x1152x32xbf16, #ttnn_layout4>
        "ttnn.deallocate"(%5) <{force = false}> : (tensor<589824x32xbf16, #ttnn_layout5>) -> ()
        %7 = "ttnn.permute"(%6) <{permutation = array<i64: 0, 1, 2, 4, 3>}> : (tensor<2x16x16x1152x32xbf16, #ttnn_layout4>) -> tensor<2x16x16x32x1152xbf16, #ttnn_layout6>
        "ttnn.deallocate"(%6) <{force = false}> : (tensor<2x16x16x1152x32xbf16, #ttnn_layout4>) -> ()
        %8 = "ttnn.reshape"(%7) <{shape = [2 : i32, 16 : i32, 16 : i32, 2 : i32, 16 : i32, 1152 : i32]}> : (tensor<2x16x16x32x1152xbf16, #ttnn_layout6>) -> tensor<2x16x16x2x16x1152xbf16, #ttnn_layout7>
        "ttnn.deallocate"(%7) <{force = false}> : (tensor<2x16x16x32x1152xbf16, #ttnn_layout6>) -> ()
        %9 = "ttnn.permute"(%8) <{permutation = array<i64: 3, 0, 1, 2, 4, 5>}> : (tensor<2x16x16x2x16x1152xbf16, #ttnn_layout7>) -> tensor<2x2x16x16x16x1152xbf16, #ttnn_layout8>
        "ttnn.deallocate"(%8) <{force = false}> : (tensor<2x16x16x2x16x1152xbf16, #ttnn_layout7>) -> ()
        %10 = "ttnn.reshape"(%9) <{shape = [16384 : i32, 1152 : i32]}> : (tensor<2x2x16x16x16x1152xbf16, #ttnn_layout8>) -> tensor<16384x1152xbf16, #ttnn_layout1>
        "ttnn.deallocate"(%9) <{force = false}> : (tensor<2x2x16x16x16x1152xbf16, #ttnn_layout8>) -> ()
        return %10 : tensor<16384x1152xbf16, #ttnn_layout1>
      }
      func.func private @main_const_eval_1(%arg0: tensor<1152xbf16, #ttnn_layout9>) -> tensor<1x1152xbf16, #ttnn_layout10> attributes {tt.function_type = "const_eval"} {
        %0 = "ttnn.get_device"() <{mesh_offset = #ttnn<mesh_offset 0x0>, mesh_shape = #ttnn<mesh_shape 1x1>}> : () -> !ttnn.device
        %1 = "ttnn.typecast"(%arg0) <{dtype = #ttcore.supportedDataTypes<f32>}> : (tensor<1152xbf16, #ttnn_layout9>) -> tensor<1152xf32, #ttnn_layout11>
        %2 = call @cpu_hoisted_const_eval_f2bca5ab(%1) {ttir.cpu_hoist_call} : (tensor<1152xf32, #ttnn_layout11>) -> tensor<1x1152x1x1x1xf32, #ttnn_layout12>
        "ttnn.deallocate"(%1) <{force = false}> : (tensor<1152xf32, #ttnn_layout11>) -> ()
        %3 = "ttnn.typecast"(%2) <{dtype = #ttcore.supportedDataTypes<bf16>}> : (tensor<1x1152x1x1x1xf32, #ttnn_layout12>) -> tensor<1x1152x1x1x1xbf16, #ttnn_layout13>
        "ttnn.deallocate"(%2) <{force = false}> : (tensor<1x1152x1x1x1xf32, #ttnn_layout12>) -> ()
        %4 = "ttnn.to_layout"(%3) <{layout = #ttnn.layout<tile>}> : (tensor<1x1152x1x1x1xbf16, #ttnn_layout13>) -> tensor<1x1152x1x1x1xbf16, #ttnn_layout14>
        "ttnn.deallocate"(%3) <{force = false}> : (tensor<1x1152x1x1x1xbf16, #ttnn_layout13>) -> ()
        %5 = "ttnn.to_device"(%4, %0) <{memory_config = #ttnn.memory_config<#dram, <interleaved>>}> : (tensor<1x1152x1x1x1xbf16, #ttnn_layout14>, !ttnn.device) -> tensor<1x1152x1x1x1xbf16, #ttnn_layout15>
        "ttnn.deallocate"(%4) <{force = false}> : (tensor<1x1152x1x1x1xbf16, #ttnn_layout14>) -> ()
        %6 = "ttnn.reshape"(%5) <{shape = [1 : i32, 1152 : i32]}> : (tensor<1x1152x1x1x1xbf16, #ttnn_layout15>) -> tensor<1x1152xbf16, #ttnn_layout10>
        "ttnn.deallocate"(%5) <{force = false}> : (tensor<1x1152x1x1x1xbf16, #ttnn_layout15>) -> ()
        return %6 : tensor<1x1152xbf16, #ttnn_layout10>
      }
      func.func @main(%arg0: tensor<1152xbf16, #ttnn_layout9> {ttcore.argument_type = #ttcore.argument_type<parameter>, ttcore.local_shape = #ttcore<local_shape local_shape = tensor<1152xbf16>>, ttcore.shard_status = #ttcore.shard_status<unsharded>, ttir.name = "patch_embed.proj.bias"}, %arg1: tensor<1152x3x2x16x16xbf16, #ttnn_layout> {ttcore.argument_type = #ttcore.argument_type<parameter>, ttcore.local_shape = #ttcore<local_shape local_shape = tensor<1152x3x2x16x16xbf16>>, ttcore.shard_status = #ttcore.shard_status<unsharded>, ttir.conv2d_weight, ttir.name = "patch_embed.proj.weight"}, %arg2: tensor<16x1536xbf16, #ttnn_layout16> {ttcore.argument_type = #ttcore.argument_type<input>, ttcore.local_shape = #ttcore<local_shape local_shape = tensor<16x1536xbf16>>, ttcore.shard_status = #ttcore.shard_status<unsharded>, ttir.name = "args_0"}) -> (tensor<16x1152xbf16, #ttnn_layout10> {ttcore.local_shape = #ttcore<local_shape local_shape = tensor<16x1152xbf16>>, ttcore.shard_status = #ttcore.shard_status<presharded>}) attributes {tt.function_type = "forward_device"} {
        %0 = ttcore.load_cached(@main_const_eval_0, [%arg1]) : (tensor<1152x3x2x16x16xbf16, #ttnn_layout>) -> tensor<16384x1152xbf16, #ttnn_layout1>
        "ttnn.deallocate"(%arg1) <{force = false}> : (tensor<1152x3x2x16x16xbf16, #ttnn_layout>) -> ()
        %1 = ttcore.load_cached(@main_const_eval_1, [%arg0]) : (tensor<1152xbf16, #ttnn_layout9>) -> tensor<1x1152xbf16, #ttnn_layout10>
        "ttnn.deallocate"(%arg0) <{force = false}> : (tensor<1152xbf16, #ttnn_layout9>) -> ()
        %2 = "ttnn.get_device"() <{mesh_offset = #ttnn<mesh_offset 0x0>, mesh_shape = #ttnn<mesh_shape 1x1>}> : () -> !ttnn.device
        %3 = "ttnn.to_layout"(%arg2) <{layout = #ttnn.layout<tile>}> : (tensor<16x1536xbf16, #ttnn_layout16>) -> tensor<16x1536xbf16, #ttnn_layout17>
        "ttnn.deallocate"(%arg2) <{force = false}> : (tensor<16x1536xbf16, #ttnn_layout16>) -> ()
        %4 = "ttnn.reshape"(%3) <{shape = [16 : i32, 3 : i32, 2 : i32, 16 : i32, 16 : i32]}> : (tensor<16x1536xbf16, #ttnn_layout17>) -> tensor<16x3x2x16x16xbf16, #ttnn_layout18>
        "ttnn.deallocate"(%3) <{force = false}> : (tensor<16x1536xbf16, #ttnn_layout17>) -> ()
        %5 = "ttnn.permute"(%4) <{permutation = array<i64: 0, 2, 3, 4, 1>}> : (tensor<16x3x2x16x16xbf16, #ttnn_layout18>) -> tensor<16x2x16x16x3xbf16, #ttnn_layout19>
        "ttnn.deallocate"(%4) <{force = false}> : (tensor<16x3x2x16x16xbf16, #ttnn_layout18>) -> ()
        %6 = "ttnn.reshape"(%5) <{shape = [8192 : i32, 3 : i32]}> : (tensor<16x2x16x16x3xbf16, #ttnn_layout19>) -> tensor<8192x3xbf16, #ttnn_layout20>
        "ttnn.deallocate"(%5) <{force = false}> : (tensor<16x2x16x16x3xbf16, #ttnn_layout19>) -> ()
        %7 = "ttnn.pad"(%6) <{padding = array<i32: 0, 0, 0, 29>, use_multicore = true, value = 0.000000e+00 : f32}> : (tensor<8192x3xbf16, #ttnn_layout20>) -> tensor<8192x32xbf16, #ttnn_layout20>
        "ttnn.deallocate"(%6) <{force = false}> : (tensor<8192x3xbf16, #ttnn_layout20>) -> ()
        %8 = "ttnn.reshape"(%7) <{shape = [16 : i32, 2 : i32, 16 : i32, 16 : i32, 32 : i32]}> : (tensor<8192x32xbf16, #ttnn_layout20>) -> tensor<16x2x16x16x32xbf16, #ttnn_layout19>
        "ttnn.deallocate"(%7) <{force = false}> : (tensor<8192x32xbf16, #ttnn_layout20>) -> ()
        %9 = "ttnn.to_layout"(%8) <{layout = #ttnn.layout<row_major>}> : (tensor<16x2x16x16x32xbf16, #ttnn_layout19>) -> tensor<16x2x16x16x32xbf16, #ttnn_layout21>
        "ttnn.deallocate"(%8) <{force = false}> : (tensor<16x2x16x16x32xbf16, #ttnn_layout19>) -> ()
        %10 = "ttnn.conv3d"(%9, %0, %1, %2) <{batch_size = 16 : i32, compute_config = #ttnn.device_compute_kernel_config<math_fidelity = hifi4, fp32_dest_acc_en = true>, conv3d_config = #ttnn.conv3d_config<c_out_block = 32, c_in_block = 16>, dtype = #ttcore.supportedDataTypes<bf16>, groups = 1 : i32, in_channels = 32 : i32, input_depth = 2 : i32, input_height = 16 : i32, input_width = 16 : i32, kernel_size = array<i32: 2, 16, 16>, out_channels = 1152 : i32, padding = array<i32: 0, 0, 0>, padding_mode = "zeros", stride = array<i32: 2, 16, 16>}> : (tensor<16x2x16x16x32xbf16, #ttnn_layout21>, tensor<16384x1152xbf16, #ttnn_layout1>, tensor<1x1152xbf16, #ttnn_layout10>, !ttnn.device) -> tensor<16x1x1x1x1152xbf16, #ttnn_layout22>
        "ttnn.deallocate"(%9) <{force = false}> : (tensor<16x2x16x16x32xbf16, #ttnn_layout21>) -> ()
        "ttnn.deallocate"(%1) <{force = false}> : (tensor<1x1152xbf16, #ttnn_layout10>) -> ()
        "ttnn.deallocate"(%0) <{force = false}> : (tensor<16384x1152xbf16, #ttnn_layout1>) -> ()
        %11 = "ttnn.reshape"(%10) <{shape = [16 : i32, 1152 : i32, 1 : i32, 1 : i32, 1 : i32]}> : (tensor<16x1x1x1x1152xbf16, #ttnn_layout22>) -> tensor<16x1152x1x1x1xbf16, #ttnn_layout23>
        "ttnn.deallocate"(%10) <{force = false}> : (tensor<16x1x1x1x1152xbf16, #ttnn_layout22>) -> ()
        %12 = "ttnn.to_layout"(%11) <{layout = #ttnn.layout<tile>}> : (tensor<16x1152x1x1x1xbf16, #ttnn_layout23>) -> tensor<16x1152x1x1x1xbf16, #ttnn_layout24>
        "ttnn.deallocate"(%11) <{force = false}> : (tensor<16x1152x1x1x1xbf16, #ttnn_layout23>) -> ()
        %13 = "ttnn.reshape"(%12) <{shape = [16 : i32, 1152 : i32]}> : (tensor<16x1152x1x1x1xbf16, #ttnn_layout24>) -> tensor<16x1152xbf16, #ttnn_layout10>
        "ttnn.deallocate"(%12) <{force = false}> : (tensor<16x1152x1x1x1xbf16, #ttnn_layout24>) -> ()
        return %13 : tensor<16x1152xbf16, #ttnn_layout10>
      }
      func.func private @cpu_hoisted_const_eval_f2bca5ab(tensor<1152xf32, #ttnn_layout11>) -> tensor<1x1152x1x1x1xf32, #ttnn_layout12> attributes {func_hash = "f2bca5ab6e8793ff59a87c8044406621c95874b440ac8a04d59b7869e2dd820d", tt.function_type = "forward_cpu_declaration"}
    }
  }
  ttcore.cpu_module {
    builtin.module {
      llvm.func @malloc(i64) -> !llvm.ptr
      llvm.func @cpu_hoisted_const_eval_f2bca5ab(%arg0: !llvm.ptr, %arg1: !llvm.ptr, %arg2: i64, %arg3: i64, %arg4: i64) -> !llvm.struct<(ptr, ptr, i64, array<5 x i64>, array<5 x i64>)> attributes {arg_ranks = [1], func_hash = "f2bca5ab6e8793ff59a87c8044406621c95874b440ac8a04d59b7869e2dd820d", result_ranks = [5], tt.function_type = "forward_cpu"} {
        %0 = llvm.mlir.poison : !llvm.struct<(ptr, ptr, i64, array<5 x i64>, array<5 x i64>)>
        %1 = llvm.mlir.zero : !llvm.ptr
        %2 = llvm.mlir.constant(1152 : index) : i64
        %3 = llvm.mlir.constant(1 : index) : i64
        %4 = llvm.mlir.constant(0 : index) : i64
        %5 = llvm.getelementptr %1[1152] : (!llvm.ptr) -> !llvm.ptr, f32
        %6 = llvm.ptrtoint %5 : !llvm.ptr to i64
        %7 = llvm.call @malloc(%6) : (i64) -> !llvm.ptr
        %8 = llvm.insertvalue %7, %0[0] : !llvm.struct<(ptr, ptr, i64, array<5 x i64>, array<5 x i64>)> 
        %9 = llvm.insertvalue %7, %8[1] : !llvm.struct<(ptr, ptr, i64, array<5 x i64>, array<5 x i64>)> 
        %10 = llvm.insertvalue %4, %9[2] : !llvm.struct<(ptr, ptr, i64, array<5 x i64>, array<5 x i64>)> 
        %11 = llvm.insertvalue %3, %10[3, 0] : !llvm.struct<(ptr, ptr, i64, array<5 x i64>, array<5 x i64>)> 
        %12 = llvm.insertvalue %2, %11[3, 1] : !llvm.struct<(ptr, ptr, i64, array<5 x i64>, array<5 x i64>)> 
        %13 = llvm.insertvalue %3, %12[3, 2] : !llvm.struct<(ptr, ptr, i64, array<5 x i64>, array<5 x i64>)> 
        %14 = llvm.insertvalue %3, %13[3, 3] : !llvm.struct<(ptr, ptr, i64, array<5 x i64>, array<5 x i64>)> 
        %15 = llvm.insertvalue %3, %14[3, 4] : !llvm.struct<(ptr, ptr, i64, array<5 x i64>, array<5 x i64>)> 
        %16 = llvm.insertvalue %2, %15[4, 0] : !llvm.struct<(ptr, ptr, i64, array<5 x i64>, array<5 x i64>)> 
        %17 = llvm.insertvalue %3, %16[4, 1] : !llvm.struct<(ptr, ptr, i64, array<5 x i64>, array<5 x i64>)> 
        %18 = llvm.insertvalue %3, %17[4, 2] : !llvm.struct<(ptr, ptr, i64, array<5 x i64>, array<5 x i64>)> 
        %19 = llvm.insertvalue %3, %18[4, 3] : !llvm.struct<(ptr, ptr, i64, array<5 x i64>, array<5 x i64>)> 
        %20 = llvm.insertvalue %3, %19[4, 4] : !llvm.struct<(ptr, ptr, i64, array<5 x i64>, array<5 x i64>)> 
        %21 = llvm.mul %3, %3 : i64
        %22 = llvm.mul %21, %2 : i64
        %23 = llvm.mul %22, %3 : i64
        %24 = llvm.mul %23, %3 : i64
        %25 = llvm.mul %24, %3 : i64
        %26 = llvm.getelementptr %1[1] : (!llvm.ptr) -> !llvm.ptr, f32
        %27 = llvm.ptrtoint %26 : !llvm.ptr to i64
        %28 = llvm.mul %25, %27 : i64
        "llvm.intr.memcpy"(%7, %arg1, %28) <{isVolatile = false}> : (!llvm.ptr, !llvm.ptr, i64) -> ()
        llvm.return %20 : !llvm.struct<(ptr, ptr, i64, array<5 x i64>, array<5 x i64>)>
      }
      llvm.func @cpu_hoisted_const_eval_f2bca5ab_helper(%arg0: !llvm.ptr) -> !llvm.ptr {
        %0 = llvm.mlir.constant(0 : i64) : i64
        %1 = llvm.mlir.constant(4 : i64) : i64
        %2 = llvm.mul %0, %1 : i64
        %3 = llvm.getelementptr inbounds %arg0[%2] : (!llvm.ptr, i64) -> !llvm.ptr, !llvm.ptr
        %4 = llvm.load %3 : !llvm.ptr -> !llvm.struct<(ptr, ptr, i64, ptr)>
        %5 = llvm.extractvalue %4[0] : !llvm.struct<(ptr, ptr, i64, ptr)> 
        %6 = llvm.extractvalue %4[1] : !llvm.struct<(ptr, ptr, i64, ptr)> 
        %7 = llvm.extractvalue %4[2] : !llvm.struct<(ptr, ptr, i64, ptr)> 
        %8 = llvm.extractvalue %4[3] : !llvm.struct<(ptr, ptr, i64, ptr)> 
        %9 = llvm.mlir.constant(0 : i64) : i64
        %10 = llvm.getelementptr %8[%9] : (!llvm.ptr, i64) -> !llvm.ptr, !llvm.ptr
        %11 = llvm.load %10 : !llvm.ptr -> i64
        %12 = llvm.mlir.constant(1 : i64) : i64
        %13 = llvm.getelementptr %8[%12] : (!llvm.ptr, i64) -> !llvm.ptr, !llvm.ptr
        %14 = llvm.load %13 : !llvm.ptr -> i64
        %15 = llvm.call @cpu_hoisted_const_eval_f2bca5ab(%5, %6, %7, %11, %14) : (!llvm.ptr, !llvm.ptr, i64, i64, i64) -> !llvm.struct<(ptr, ptr, i64, array<5 x i64>, array<5 x i64>)>
        %16 = llvm.mlir.constant(32 : i64) : i64
        %17 = llvm.call @malloc(%16) : (i64) -> !llvm.ptr
        %18 = llvm.mlir.constant(80 : i64) : i64
        %19 = llvm.call @malloc(%18) : (i64) -> !llvm.ptr
        %20 = llvm.extractvalue %15[0] : !llvm.struct<(ptr, ptr, i64, array<5 x i64>, array<5 x i64>)> 
        %21 = llvm.extractvalue %15[1] : !llvm.struct<(ptr, ptr, i64, array<5 x i64>, array<5 x i64>)> 
        %22 = llvm.extractvalue %15[2] : !llvm.struct<(ptr, ptr, i64, array<5 x i64>, array<5 x i64>)> 
        %23 = llvm.mlir.constant(0 : i64) : i64
        %24 = llvm.getelementptr %19[%23] : (!llvm.ptr, i64) -> !llvm.ptr, i8
        %25 = llvm.extractvalue %15[3, 0] : !llvm.struct<(ptr, ptr, i64, array<5 x i64>, array<5 x i64>)> 
        %26 = llvm.mlir.constant(0 : i64) : i64
        %27 = llvm.getelementptr %24[%26] : (!llvm.ptr, i64) -> !llvm.ptr, i64
        llvm.store %25, %27 : i64, !llvm.ptr
        %28 = llvm.extractvalue %15[3, 1] : !llvm.struct<(ptr, ptr, i64, array<5 x i64>, array<5 x i64>)> 
        %29 = llvm.mlir.constant(1 : i64) : i64
        %30 = llvm.getelementptr %24[%29] : (!llvm.ptr, i64) -> !llvm.ptr, i64
        llvm.store %28, %30 : i64, !llvm.ptr
        %31 = llvm.extractvalue %15[3, 2] : !llvm.struct<(ptr, ptr, i64, array<5 x i64>, array<5 x i64>)> 
        %32 = llvm.mlir.constant(2 : i64) : i64
        %33 = llvm.getelementptr %24[%32] : (!llvm.ptr, i64) -> !llvm.ptr, i64
        llvm.store %31, %33 : i64, !llvm.ptr
        %34 = llvm.extractvalue %15[3, 3] : !llvm.struct<(ptr, ptr, i64, array<5 x i64>, array<5 x i64>)> 
        %35 = llvm.mlir.constant(3 : i64) : i64
        %36 = llvm.getelementptr %24[%35] : (!llvm.ptr, i64) -> !llvm.ptr, i64
        llvm.store %34, %36 : i64, !llvm.ptr
        %37 = llvm.extractvalue %15[3, 4] : !llvm.struct<(ptr, ptr, i64, array<5 x i64>, array<5 x i64>)> 
        %38 = llvm.mlir.constant(4 : i64) : i64
        %39 = llvm.getelementptr %24[%38] : (!llvm.ptr, i64) -> !llvm.ptr, i64
        llvm.store %37, %39 : i64, !llvm.ptr
        %40 = llvm.extractvalue %15[4, 0] : !llvm.struct<(ptr, ptr, i64, array<5 x i64>, array<5 x i64>)> 
        %41 = llvm.mlir.constant(5 : i64) : i64
        %42 = llvm.getelementptr %24[%41] : (!llvm.ptr, i64) -> !llvm.ptr, i64
        llvm.store %40, %42 : i64, !llvm.ptr
        %43 = llvm.extractvalue %15[4, 1] : !llvm.struct<(ptr, ptr, i64, array<5 x i64>, array<5 x i64>)> 
        %44 = llvm.mlir.constant(6 : i64) : i64
        %45 = llvm.getelementptr %24[%44] : (!llvm.ptr, i64) -> !llvm.ptr, i64
        llvm.store %43, %45 : i64, !llvm.ptr
        %46 = llvm.extractvalue %15[4, 2] : !llvm.struct<(ptr, ptr, i64, array<5 x i64>, array<5 x i64>)> 
        %47 = llvm.mlir.constant(7 : i64) : i64
        %48 = llvm.getelementptr %24[%47] : (!llvm.ptr, i64) -> !llvm.ptr, i64
        llvm.store %46, %48 : i64, !llvm.ptr
        %49 = llvm.extractvalue %15[4, 3] : !llvm.struct<(ptr, ptr, i64, array<5 x i64>, array<5 x i64>)> 
        %50 = llvm.mlir.constant(8 : i64) : i64
        %51 = llvm.getelementptr %24[%50] : (!llvm.ptr, i64) -> !llvm.ptr, i64
        llvm.store %49, %51 : i64, !llvm.ptr
        %52 = llvm.extractvalue %15[4, 4] : !llvm.struct<(ptr, ptr, i64, array<5 x i64>, array<5 x i64>)> 
        %53 = llvm.mlir.constant(9 : i64) : i64
        %54 = llvm.getelementptr %24[%53] : (!llvm.ptr, i64) -> !llvm.ptr, i64
        llvm.store %52, %54 : i64, !llvm.ptr
        %55 = llvm.mlir.undef : !llvm.struct<(ptr, ptr, i64, ptr)>
        %56 = llvm.insertvalue %20, %55[0] : !llvm.struct<(ptr, ptr, i64, ptr)> 
        %57 = llvm.insertvalue %21, %56[1] : !llvm.struct<(ptr, ptr, i64, ptr)> 
        %58 = llvm.insertvalue %22, %57[2] : !llvm.struct<(ptr, ptr, i64, ptr)> 
        %59 = llvm.insertvalue %24, %58[3] : !llvm.struct<(ptr, ptr, i64, ptr)> 
        %60 = llvm.mlir.constant(0 : i64) : i64
        %61 = llvm.getelementptr %17[%60] : (!llvm.ptr, i64) -> !llvm.ptr, !llvm.struct<(ptr, ptr, i64, ptr)>
        llvm.store %59, %61 : !llvm.struct<(ptr, ptr, i64, ptr)>, !llvm.ptr
        llvm.return %17 : !llvm.ptr
      }
    }
  }
}
------------------ END OF MLIR MODULE ------------------
W0423 21:17:17.581000 509150 venv/lib/python3.12/site-packages/torch/_dynamo/exc.py:593] [4/0] Backend compiler exception
W0423 21:17:17.581000 509150 venv/lib/python3.12/site-packages/torch/_dynamo/exc.py:593] [4/0]   Explanation: Backend compiler `tt` failed with aten._local_scalar_dense.default
W0423 21:17:17.581000 509150 venv/lib/python3.12/site-packages/torch/_dynamo/exc.py:593] [4/0] 
W0423 21:17:17.581000 509150 venv/lib/python3.12/site-packages/torch/_dynamo/exc.py:593] [4/0]     While executing %item : [num_users=1] = call_method[target=item](args = (%getitem_1,), kwargs = {})
W0423 21:17:17.581000 509150 venv/lib/python3.12/site-packages/torch/_dynamo/exc.py:593] [4/0]     Original traceback:
W0423 21:17:17.581000 509150 venv/lib/python3.12/site-packages/torch/_dynamo/exc.py:593] [4/0]       File "/localdev/jameszianxu/clean/tt-xla/python_package/tt_torch/torch_overrides.py", line 22, in __torch_function__
W0423 21:17:17.581000 509150 venv/lib/python3.12/site-packages/torch/_dynamo/exc.py:593] [4/0]         return func(*args, **(kwargs or {}))
W0423 21:17:17.581000 509150 venv/lib/python3.12/site-packages/torch/_dynamo/exc.py:593] [4/0] 
W0423 21:17:17.581000 509150 venv/lib/python3.12/site-packages/torch/_dynamo/exc.py:593] [4/0]     Use tlparse to see full graph. (https://github.com/pytorch/tlparse?tab=readme-ov-file#tlparse-parse-structured-pt2-logs). Adding a graph break.
W0423 21:17:17.581000 509150 venv/lib/python3.12/site-packages/torch/_dynamo/exc.py:593] [4/0]   Hint: Report an issue to the backend compiler repo.
W0423 21:17:17.581000 509150 venv/lib/python3.12/site-packages/torch/_dynamo/exc.py:593] [4/0] 
W0423 21:17:17.581000 509150 venv/lib/python3.12/site-packages/torch/_dynamo/exc.py:593] [4/0]   Developer debug context: Backend: tt
W0423 21:17:17.581000 509150 venv/lib/python3.12/site-packages/torch/_dynamo/exc.py:593] [4/0]     Exception:aten._local_scalar_dense.default
W0423 21:17:17.581000 509150 venv/lib/python3.12/site-packages/torch/_dynamo/exc.py:593] [4/0] 
W0423 21:17:17.581000 509150 venv/lib/python3.12/site-packages/torch/_dynamo/exc.py:593] [4/0]     While executing %item : [num_users=1] = call_method[target=item](args = (%getitem_1,), kwargs = {})
W0423 21:17:17.581000 509150 venv/lib/python3.12/site-packages/torch/_dynamo/exc.py:593] [4/0]     Original traceback:
W0423 21:17:17.581000 509150 venv/lib/python3.12/site-packages/torch/_dynamo/exc.py:593] [4/0]       File "/localdev/jameszianxu/clean/tt-xla/python_package/tt_torch/torch_overrides.py", line 22, in __torch_function__
W0423 21:17:17.581000 509150 venv/lib/python3.12/site-packages/torch/_dynamo/exc.py:593] [4/0]         return func(*args, **(kwargs or {}))
W0423 21:17:17.581000 509150 venv/lib/python3.12/site-packages/torch/_dynamo/exc.py:593] [4/0] 
W0423 21:17:17.581000 509150 venv/lib/python3.12/site-packages/torch/_dynamo/exc.py:593] [4/0]     Use tlparse to see full graph. (https://github.com/pytorch/tlparse?tab=readme-ov-file#tlparse-parse-structured-pt2-logs)
W0423 21:17:17.581000 509150 venv/lib/python3.12/site-packages/torch/_dynamo/exc.py:593] [4/0]     Traceback:
W0423 21:17:17.581000 509150 venv/lib/python3.12/site-packages/torch/_dynamo/exc.py:593] [4/0]       File "/localdev/jameszianxu/clean/tt-xla/python_package/tt_torch/torch_overrides.py", line 22, in __torch_function__
W0423 21:17:17.581000 509150 venv/lib/python3.12/site-packages/torch/_dynamo/exc.py:593] [4/0]         return func(*args, **(kwargs or {}))
W0423 21:17:17.581000 509150 venv/lib/python3.12/site-packages/torch/_dynamo/exc.py:593] [4/0] 
W0423 21:17:17.581000 509150 venv/lib/python3.12/site-packages/torch/_dynamo/exc.py:593] [4/0] 
W0423 21:17:17.581000 509150 venv/lib/python3.12/site-packages/torch/_dynamo/exc.py:593] [4/0]  For more details about this graph break, please visit: https://meta-pytorch.github.io/compile-graph-break-site/gb/gb0219.html
[32m                 Always[0m | [1m[38;5;69m    INFO[0m | [conv3d-runtime] channel blocks: c_in requested=16, c_out requested=32, l1_alignment=16, tile_width=32, selected_c_in=16, selected_c_out=32, has_config=1
2026-04-23 21:17:23.463 | DEBUG    | tt_torch.backend.metadata_propagation:_extract_source_and_module_hierarchy_info:289 - Function name mismatch between stack_trace and found_func_name modes
stack_trace: torch_dynamo_resume_in_forward_at_1239
found_func_name: forward
found_func_name_ast: forward
2026-04-23 21:17:23.528 (  19.208s) [        F0E90740]      module_builder.cc:1220     1| MLIR Module vhlo:
module @SyncTensorsGraph.40 attributes {mhlo.cross_program_prefetches = [], mhlo.input_output_alias = [], mhlo.is_dynamic = false, mhlo.use_auto_spmd_partitioning = false} {
  vhlo.func_v1 @main(%arg0: !vhlo.tensor_v1<4x16x!vhlo.bf16_v1>, %arg1: !vhlo.tensor_v1<4x16x!vhlo.i64_v1>, %arg2: !vhlo.tensor_v1<2304x1152x!vhlo.bf16_v1>) -> (!vhlo.tensor_v1<16x1152x!vhlo.bf16_v1>) {
    %0 = "vhlo.reshape_v1"(%arg1) : (!vhlo.tensor_v1<4x16x!vhlo.i64_v1>) -> !vhlo.tensor_v1<64x!vhlo.i64_v1>
    %1 = "vhlo.convert_v1"(%0) : (!vhlo.tensor_v1<64x!vhlo.i64_v1>) -> !vhlo.tensor_v1<64x!vhlo.ui32_v1>
    %2 = "vhlo.gather_v2"(%arg2, %1) <{collapsed_slice_dims = #vhlo.tensor_v1<dense<0> : tensor<1xi64>>, index_vector_dim = #vhlo.integer_v1<1 : i64>, indices_are_sorted = #vhlo.bool_v1<false>, offset_dims = #vhlo.tensor_v1<dense<1> : tensor<1xi64>>, operand_batching_dims = #vhlo.tensor_v1<dense<> : tensor<0xi64>>, slice_sizes = #vhlo.tensor_v1<dense<[1, 1152]> : tensor<2xi64>>, start_index_map = #vhlo.tensor_v1<dense<0> : tensor<1xi64>>, start_indices_batching_dims = #vhlo.tensor_v1<dense<> : tensor<0xi64>>}> : (!vhlo.tensor_v1<2304x1152x!vhlo.bf16_v1>, !vhlo.tensor_v1<64x!vhlo.ui32_v1>) -> !vhlo.tensor_v1<64x1152x!vhlo.bf16_v1>
    %3 = "vhlo.reshape_v1"(%2) : (!vhlo.tensor_v1<64x1152x!vhlo.bf16_v1>) -> !vhlo.tensor_v1<4x16x1152x!vhlo.bf16_v1>
    %4 = "vhlo.broadcast_in_dim_v1"(%arg0) <{broadcast_dimensions = #vhlo.tensor_v1<dense<[0, 1]> : tensor<2xi64>>}> : (!vhlo.tensor_v1<4x16x!vhlo.bf16_v1>) -> !vhlo.tensor_v1<4x16x1152x!vhlo.bf16_v1>
    %5 = "vhlo.multiply_v1"(%3, %4) : (!vhlo.tensor_v1<4x16x1152x!vhlo.bf16_v1>, !vhlo.tensor_v1<4x16x1152x!vhlo.bf16_v1>) -> !vhlo.tensor_v1<4x16x1152x!vhlo.bf16_v1>
    %6 = "vhlo.slice_v1"(%5) <{limit_indices = #vhlo.tensor_v1<dense<[1, 16, 1152]> : tensor<3xi64>>, start_indices = #vhlo.tensor_v1<dense<0> : tensor<3xi64>>, strides = #vhlo.tensor_v1<dense<1> : tensor<3xi64>>}> : (!vhlo.tensor_v1<4x16x1152x!vhlo.bf16_v1>) -> !vhlo.tensor_v1<1x16x1152x!vhlo.bf16_v1>
    %7 = "vhlo.reshape_v1"(%6) : (!vhlo.tensor_v1<1x16x1152x!vhlo.bf16_v1>) -> !vhlo.tensor_v1<16x1152x!vhlo.bf16_v1>
    %8 = "vhlo.slice_v1"(%5) <{limit_indices = #vhlo.tensor_v1<dense<[2, 16, 1152]> : tensor<3xi64>>, start_indices = #vhlo.tensor_v1<dense<[1, 0, 0]> : tensor<3xi64>>, strides = #vhlo.tensor_v1<dense<1> : tensor<3xi64>>}> : (!vhlo.tensor_v1<4x16x1152x!vhlo.bf16_v1>) -> !vhlo.tensor_v1<1x16x1152x!vhlo.bf16_v1>
    %9 = "vhlo.reshape_v1"(%8) : (!vhlo.tensor_v1<1x16x1152x!vhlo.bf16_v1>) -> !vhlo.tensor_v1<16x1152x!vhlo.bf16_v1>
    %10 = "vhlo.add_v1"(%7, %9) : (!vhlo.tensor_v1<16x1152x!vhlo.bf16_v1>, !vhlo.tensor_v1<16x1152x!vhlo.bf16_v1>) -> !vhlo.tensor_v1<16x1152x!vhlo.bf16_v1>
    %11 = "vhlo.slice_v1"(%5) <{limit_indices = #vhlo.tensor_v1<dense<[3, 16, 1152]> : tensor<3xi64>>, start_indices = #vhlo.tensor_v1<dense<[2, 0, 0]> : tensor<3xi64>>, strides = #vhlo.tensor_v1<dense<1> : tensor<3xi64>>}> : (!vhlo.tensor_v1<4x16x1152x!vhlo.bf16_v1>) -> !vhlo.tensor_v1<1x16x1152x!vhlo.bf16_v1>
    %12 = "vhlo.reshape_v1"(%11) : (!vhlo.tensor_v1<1x16x1152x!vhlo.bf16_v1>) -> !vhlo.tensor_v1<16x1152x!vhlo.bf16_v1>
    %13 = "vhlo.add_v1"(%10, %12) : (!vhlo.tensor_v1<16x1152x!vhlo.bf16_v1>, !vhlo.tensor_v1<16x1152x!vhlo.bf16_v1>) -> !vhlo.tensor_v1<16x1152x!vhlo.bf16_v1>
    %14 = "vhlo.slice_v1"(%5) <{limit_indices = #vhlo.tensor_v1<dense<[4, 16, 1152]> : tensor<3xi64>>, start_indices = #vhlo.tensor_v1<dense<[3, 0, 0]> : tensor<3xi64>>, strides = #vhlo.tensor_v1<dense<1> : tensor<3xi64>>}> : (!vhlo.tensor_v1<4x16x1152x!vhlo.bf16_v1>) -> !vhlo.tensor_v1<1x16x1152x!vhlo.bf16_v1>
    %15 = "vhlo.reshape_v1"(%14) : (!vhlo.tensor_v1<1x16x1152x!vhlo.bf16_v1>) -> !vhlo.tensor_v1<16x1152x!vhlo.bf16_v1>
    %16 = "vhlo.add_v1"(%13, %15) : (!vhlo.tensor_v1<16x1152x!vhlo.bf16_v1>, !vhlo.tensor_v1<16x1152x!vhlo.bf16_v1>) -> !vhlo.tensor_v1<16x1152x!vhlo.bf16_v1>
    %17 = "vhlo.reshape_v1"(%16) : (!vhlo.tensor_v1<16x1152x!vhlo.bf16_v1>) -> !vhlo.tensor_v1<1x2x2x2x2x1152x!vhlo.bf16_v1>
    %18 = "vhlo.transpose_v1"(%17) <{permutation = #vhlo.tensor_v1<dense<[0, 1, 3, 2, 4, 5]> : tensor<6xi64>>}> {result_layout = #vhlo.tensor_v1<dense<[5, 4, 2, 3, 1, 0]> : tensor<6xindex>>, xla_shape = #vhlo.string_v1<"bf16[1,2,2,2,2,1152]{5,4,2,3,1,0}">} : (!vhlo.tensor_v1<1x2x2x2x2x1152x!vhlo.bf16_v1>) -> !vhlo.tensor_v1<1x2x2x2x2x1152x!vhlo.bf16_v1>
    %19 = "vhlo.reshape_v1"(%18) : (!vhlo.tensor_v1<1x2x2x2x2x1152x!vhlo.bf16_v1>) -> !vhlo.tensor_v1<16x1152x!vhlo.bf16_v1>
    "vhlo.return_v1"(%19) : (!vhlo.tensor_v1<16x1152x!vhlo.bf16_v1>) -> ()
  } {arg_attrs = #vhlo.array_v1<[]>, res_attrs = #vhlo.array_v1<[]>, sym_visibility = #vhlo.string_v1<"">}
}
------------------ END OF MLIR MODULE ------------------
2026-04-23 21:17:23.530 (  19.211s) [        F0E90740]      module_builder.cc:1220     1| MLIR Module shlo:
module @SyncTensorsGraph.40 attributes {mhlo.cross_program_prefetches = [], mhlo.input_output_alias = [], mhlo.is_dynamic = false, mhlo.use_auto_spmd_partitioning = false} {
  func.func @main(%arg0: tensor<4x16xbf16>, %arg1: tensor<4x16xi64>, %arg2: tensor<2304x1152xbf16>) -> tensor<16x1152xbf16> {
    %0 = stablehlo.reshape %arg1 : (tensor<4x16xi64>) -> tensor<64xi64>
    %1 = stablehlo.convert %0 : (tensor<64xi64>) -> tensor<64xui32>
    %2 = "stablehlo.gather"(%arg2, %1) <{dimension_numbers = #stablehlo.gather<offset_dims = [1], collapsed_slice_dims = [0], start_index_map = [0], index_vector_dim = 1>, slice_sizes = array<i64: 1, 1152>}> : (tensor<2304x1152xbf16>, tensor<64xui32>) -> tensor<64x1152xbf16>
    %3 = stablehlo.reshape %2 : (tensor<64x1152xbf16>) -> tensor<4x16x1152xbf16>
    %4 = stablehlo.broadcast_in_dim %arg0, dims = [0, 1] : (tensor<4x16xbf16>) -> tensor<4x16x1152xbf16>
    %5 = stablehlo.multiply %3, %4 : tensor<4x16x1152xbf16>
    %6 = stablehlo.slice %5 [0:1, 0:16, 0:1152] : (tensor<4x16x1152xbf16>) -> tensor<1x16x1152xbf16>
    %7 = stablehlo.reshape %6 : (tensor<1x16x1152xbf16>) -> tensor<16x1152xbf16>
    %8 = stablehlo.slice %5 [1:2, 0:16, 0:1152] : (tensor<4x16x1152xbf16>) -> tensor<1x16x1152xbf16>
    %9 = stablehlo.reshape %8 : (tensor<1x16x1152xbf16>) -> tensor<16x1152xbf16>
    %10 = stablehlo.add %7, %9 : tensor<16x1152xbf16>
    %11 = stablehlo.slice %5 [2:3, 0:16, 0:1152] : (tensor<4x16x1152xbf16>) -> tensor<1x16x1152xbf16>
    %12 = stablehlo.reshape %11 : (tensor<1x16x1152xbf16>) -> tensor<16x1152xbf16>
    %13 = stablehlo.add %10, %12 : tensor<16x1152xbf16>
    %14 = stablehlo.slice %5 [3:4, 0:16, 0:1152] : (tensor<4x16x1152xbf16>) -> tensor<1x16x1152xbf16>
    %15 = stablehlo.reshape %14 : (tensor<1x16x1152xbf16>) -> tensor<16x1152xbf16>
    %16 = stablehlo.add %13, %15 : tensor<16x1152xbf16>
    %17 = stablehlo.reshape %16 : (tensor<16x1152xbf16>) -> tensor<1x2x2x2x2x1152xbf16>
    %18 = stablehlo.transpose %17, dims = [0, 1, 3, 2, 4, 5] {result_layout = dense<[5, 4, 2, 3, 1, 0]> : tensor<6xindex>, xla_shape = "bf16[1,2,2,2,2,1152]{5,4,2,3,1,0}"} : (tensor<1x2x2x2x2x1152xbf16>) -> tensor<1x2x2x2x2x1152xbf16>
    %19 = stablehlo.reshape %18 : (tensor<1x2x2x2x2x1152xbf16>) -> tensor<16x1152xbf16>
    return %19 : tensor<16x1152xbf16>
  }
}
------------------ END OF MLIR MODULE ------------------
2026-04-23 21:17:23.532 (  19.212s) [        F0E90740]      module_builder.cc:1220     1| MLIR Module shlo_frontend:
module @SyncTensorsGraph.40 attributes {mhlo.cross_program_prefetches = [], mhlo.input_output_alias = [], mhlo.is_dynamic = false, mhlo.use_auto_spmd_partitioning = false} {
  func.func @main(%arg0: tensor<4x16xbf16> {ttcore.argument_type = #ttcore.argument_type<input>}, %arg1: tensor<4x16xi64> {ttcore.argument_type = #ttcore.argument_type<input>}, %arg2: tensor<2304x1152xbf16> {ttcore.argument_type = #ttcore.argument_type<input>}) -> tensor<16x1152xbf16> {
    %0 = stablehlo.reshape %arg1 : (tensor<4x16xi64>) -> tensor<64xi64>
    %1 = stablehlo.convert %0 : (tensor<64xi64>) -> tensor<64xui32>
    %2 = "stablehlo.gather"(%arg2, %1) <{dimension_numbers = #stablehlo.gather<offset_dims = [1], collapsed_slice_dims = [0], start_index_map = [0], index_vector_dim = 1>, slice_sizes = array<i64: 1, 1152>}> : (tensor<2304x1152xbf16>, tensor<64xui32>) -> tensor<64x1152xbf16>
    %3 = stablehlo.reshape %2 : (tensor<64x1152xbf16>) -> tensor<4x16x1152xbf16>
    %4 = stablehlo.broadcast_in_dim %arg0, dims = [0, 1] : (tensor<4x16xbf16>) -> tensor<4x16x1152xbf16>
    %5 = stablehlo.multiply %3, %4 : tensor<4x16x1152xbf16>
    %6 = stablehlo.slice %5 [0:1, 0:16, 0:1152] : (tensor<4x16x1152xbf16>) -> tensor<1x16x1152xbf16>
    %7 = stablehlo.reshape %6 : (tensor<1x16x1152xbf16>) -> tensor<16x1152xbf16>
    %8 = stablehlo.slice %5 [1:2, 0:16, 0:1152] : (tensor<4x16x1152xbf16>) -> tensor<1x16x1152xbf16>
    %9 = stablehlo.reshape %8 : (tensor<1x16x1152xbf16>) -> tensor<16x1152xbf16>
    %10 = stablehlo.add %7, %9 : tensor<16x1152xbf16>
    %11 = stablehlo.slice %5 [2:3, 0:16, 0:1152] : (tensor<4x16x1152xbf16>) -> tensor<1x16x1152xbf16>
    %12 = stablehlo.reshape %11 : (tensor<1x16x1152xbf16>) -> tensor<16x1152xbf16>
    %13 = stablehlo.add %10, %12 : tensor<16x1152xbf16>
    %14 = stablehlo.slice %5 [3:4, 0:16, 0:1152] : (tensor<4x16x1152xbf16>) -> tensor<1x16x1152xbf16>
    %15 = stablehlo.reshape %14 : (tensor<1x16x1152xbf16>) -> tensor<16x1152xbf16>
    %16 = stablehlo.add %13, %15 : tensor<16x1152xbf16>
    %17 = stablehlo.reshape %16 : (tensor<16x1152xbf16>) -> tensor<1x2x2x2x2x1152xbf16>
    %18 = stablehlo.transpose %17, dims = [0, 1, 3, 2, 4, 5] {result_layout = dense<[5, 4, 2, 3, 1, 0]> : tensor<6xindex>, xla_shape = "bf16[1,2,2,2,2,1152]{5,4,2,3,1,0}"} : (tensor<1x2x2x2x2x1152xbf16>) -> tensor<1x2x2x2x2x1152xbf16>
    %19 = stablehlo.reshape %18 : (tensor<1x2x2x2x2x1152xbf16>) -> tensor<16x1152xbf16>
    return %19 : tensor<16x1152xbf16>
  }
}
------------------ END OF MLIR MODULE ------------------
2026-04-23 21:17:23.537 (  19.218s) [        F0E90740]      module_builder.cc:1220     1| MLIR Module shlo_compiler:
module @SyncTensorsGraph.40 attributes {mhlo.cross_program_prefetches = [], mhlo.input_output_alias = [], mhlo.is_dynamic = false, mhlo.use_auto_spmd_partitioning = false} {
  sdy.mesh @mesh = <["x"=1, "y"=1]>
  func.func @main(%arg0: tensor<4x16xbf16> {ttcore.argument_type = #ttcore.argument_type<input>, ttcore.local_shape = #ttcore<local_shape local_shape = tensor<4x16xbf16>>, ttcore.shard_status = #ttcore.shard_status<unsharded>}, %arg1: tensor<4x16xi64> {ttcore.argument_type = #ttcore.argument_type<input>, ttcore.local_shape = #ttcore<local_shape local_shape = tensor<4x16xi64>>, ttcore.shard_status = #ttcore.shard_status<unsharded>}, %arg2: tensor<2304x1152xbf16> {ttcore.argument_type = #ttcore.argument_type<input>, ttcore.local_shape = #ttcore<local_shape local_shape = tensor<2304x1152xbf16>>, ttcore.shard_status = #ttcore.shard_status<unsharded>}) -> (tensor<16x1152xbf16> {ttcore.local_shape = #ttcore<local_shape local_shape = tensor<16x1152xbf16>>, ttcore.shard_status = #ttcore.shard_status<presharded>}) {
    %0 = stablehlo.reshape %arg1 : (tensor<4x16xi64>) -> tensor<64xi64>
    %1 = stablehlo.convert %0 : (tensor<64xi64>) -> tensor<64xui32>
    %2 = "stablehlo.gather"(%arg2, %1) <{dimension_numbers = #stablehlo.gather<offset_dims = [1], collapsed_slice_dims = [0], start_index_map = [0], index_vector_dim = 1>, slice_sizes = array<i64: 1, 1152>}> : (tensor<2304x1152xbf16>, tensor<64xui32>) -> tensor<64x1152xbf16>
    %3 = stablehlo.reshape %2 : (tensor<64x1152xbf16>) -> tensor<4x16x1152xbf16>
    %4 = stablehlo.broadcast_in_dim %arg0, dims = [0, 1] : (tensor<4x16xbf16>) -> tensor<4x16x1152xbf16>
    %5 = stablehlo.multiply %3, %4 : tensor<4x16x1152xbf16>
    %6 = stablehlo.slice %5 [0:1, 0:16, 0:1152] : (tensor<4x16x1152xbf16>) -> tensor<1x16x1152xbf16>
    %7 = stablehlo.reshape %6 : (tensor<1x16x1152xbf16>) -> tensor<16x1152xbf16>
    %8 = stablehlo.slice %5 [1:2, 0:16, 0:1152] : (tensor<4x16x1152xbf16>) -> tensor<1x16x1152xbf16>
    %9 = stablehlo.reshape %8 : (tensor<1x16x1152xbf16>) -> tensor<16x1152xbf16>
    %10 = stablehlo.add %7, %9 : tensor<16x1152xbf16>
    %11 = stablehlo.slice %5 [2:3, 0:16, 0:1152] : (tensor<4x16x1152xbf16>) -> tensor<1x16x1152xbf16>
    %12 = stablehlo.reshape %11 : (tensor<1x16x1152xbf16>) -> tensor<16x1152xbf16>
    %13 = stablehlo.add %10, %12 : tensor<16x1152xbf16>
    %14 = stablehlo.slice %5 [3:4, 0:16, 0:1152] : (tensor<4x16x1152xbf16>) -> tensor<1x16x1152xbf16>
    %15 = stablehlo.reshape %14 : (tensor<1x16x1152xbf16>) -> tensor<16x1152xbf16>
    %16 = stablehlo.add %13, %15 : tensor<16x1152xbf16>
    %17 = stablehlo.reshape %16 : (tensor<16x1152xbf16>) -> tensor<1x2x2x2x2x1152xbf16>
    %18 = stablehlo.transpose %17, dims = [0, 1, 3, 2, 4, 5] {result_layout = dense<[5, 4, 2, 3, 1, 0]> : tensor<6xindex>, xla_shape = "bf16[1,2,2,2,2,1152]{5,4,2,3,1,0}"} : (tensor<1x2x2x2x2x1152xbf16>) -> tensor<1x2x2x2x2x1152xbf16>
    %19 = stablehlo.reshape %18 : (tensor<1x2x2x2x2x1152xbf16>) -> tensor<16x1152xbf16>
    return %19 : tensor<16x1152xbf16>
  }
}
------------------ END OF MLIR MODULE ------------------
2026-04-23 21:17:23.539 (  19.219s) [        F0E90740]      module_builder.cc:1220     1| MLIR Module shlo_set_mesh_attr:
module @SyncTensorsGraph.40 attributes {mhlo.cross_program_prefetches = [], mhlo.input_output_alias = [], mhlo.is_dynamic = false, mhlo.use_auto_spmd_partitioning = false} {
  sdy.mesh @mesh = <["x"=1, "y"=1]>
  func.func @main(%arg0: tensor<4x16xbf16> {ttcore.argument_type = #ttcore.argument_type<input>, ttcore.local_shape = #ttcore<local_shape local_shape = tensor<4x16xbf16>>, ttcore.shard_status = #ttcore.shard_status<unsharded>}, %arg1: tensor<4x16xi64> {ttcore.argument_type = #ttcore.argument_type<input>, ttcore.local_shape = #ttcore<local_shape local_shape = tensor<4x16xi64>>, ttcore.shard_status = #ttcore.shard_status<unsharded>}, %arg2: tensor<2304x1152xbf16> {ttcore.argument_type = #ttcore.argument_type<input>, ttcore.local_shape = #ttcore<local_shape local_shape = tensor<2304x1152xbf16>>, ttcore.shard_status = #ttcore.shard_status<unsharded>}) -> (tensor<16x1152xbf16> {ttcore.local_shape = #ttcore<local_shape local_shape = tensor<16x1152xbf16>>, ttcore.shard_status = #ttcore.shard_status<presharded>}) {
    %0 = stablehlo.reshape %arg1 : (tensor<4x16xi64>) -> tensor<64xi64>
    %1 = stablehlo.convert %0 : (tensor<64xi64>) -> tensor<64xui32>
    %2 = "stablehlo.gather"(%arg2, %1) <{dimension_numbers = #stablehlo.gather<offset_dims = [1], collapsed_slice_dims = [0], start_index_map = [0], index_vector_dim = 1>, slice_sizes = array<i64: 1, 1152>}> : (tensor<2304x1152xbf16>, tensor<64xui32>) -> tensor<64x1152xbf16>
    %3 = stablehlo.reshape %2 : (tensor<64x1152xbf16>) -> tensor<4x16x1152xbf16>
    %4 = stablehlo.broadcast_in_dim %arg0, dims = [0, 1] : (tensor<4x16xbf16>) -> tensor<4x16x1152xbf16>
    %5 = stablehlo.multiply %3, %4 : tensor<4x16x1152xbf16>
    %6 = stablehlo.slice %5 [0:1, 0:16, 0:1152] : (tensor<4x16x1152xbf16>) -> tensor<1x16x1152xbf16>
    %7 = stablehlo.reshape %6 : (tensor<1x16x1152xbf16>) -> tensor<16x1152xbf16>
    %8 = stablehlo.slice %5 [1:2, 0:16, 0:1152] : (tensor<4x16x1152xbf16>) -> tensor<1x16x1152xbf16>
    %9 = stablehlo.reshape %8 : (tensor<1x16x1152xbf16>) -> tensor<16x1152xbf16>
    %10 = stablehlo.add %7, %9 : tensor<16x1152xbf16>
    %11 = stablehlo.slice %5 [2:3, 0:16, 0:1152] : (tensor<4x16x1152xbf16>) -> tensor<1x16x1152xbf16>
    %12 = stablehlo.reshape %11 : (tensor<1x16x1152xbf16>) -> tensor<16x1152xbf16>
    %13 = stablehlo.add %10, %12 : tensor<16x1152xbf16>
    %14 = stablehlo.slice %5 [3:4, 0:16, 0:1152] : (tensor<4x16x1152xbf16>) -> tensor<1x16x1152xbf16>
    %15 = stablehlo.reshape %14 : (tensor<1x16x1152xbf16>) -> tensor<16x1152xbf16>
    %16 = stablehlo.add %13, %15 : tensor<16x1152xbf16>
    %17 = stablehlo.reshape %16 : (tensor<16x1152xbf16>) -> tensor<1x2x2x2x2x1152xbf16>
    %18 = stablehlo.transpose %17, dims = [0, 1, 3, 2, 4, 5] {result_layout = dense<[5, 4, 2, 3, 1, 0]> : tensor<6xindex>, xla_shape = "bf16[1,2,2,2,2,1152]{5,4,2,3,1,0}"} : (tensor<1x2x2x2x2x1152xbf16>) -> tensor<1x2x2x2x2x1152xbf16>
    %19 = stablehlo.reshape %18 : (tensor<1x2x2x2x2x1152xbf16>) -> tensor<16x1152xbf16>
    return %19 : tensor<16x1152xbf16>
  }
}
------------------ END OF MLIR MODULE ------------------
2026-04-23 21:17:23.540 (  19.220s) [        F0E90740]      module_builder.cc:1220     1| MLIR Module shlo_compiler_cleaned:
module @SyncTensorsGraph.40 attributes {mhlo.cross_program_prefetches = [], mhlo.input_output_alias = [], mhlo.is_dynamic = false, mhlo.use_auto_spmd_partitioning = false} {
  func.func @main(%arg0: tensor<4x16xbf16>, %arg1: tensor<4x16xi64>, %arg2: tensor<2304x1152xbf16>) -> tensor<16x1152xbf16> {
    %0 = stablehlo.reshape %arg1 : (tensor<4x16xi64>) -> tensor<64xi64>
    %1 = stablehlo.convert %0 : (tensor<64xi64>) -> tensor<64xui32>
    %2 = "stablehlo.gather"(%arg2, %1) <{dimension_numbers = #stablehlo.gather<offset_dims = [1], collapsed_slice_dims = [0], start_index_map = [0], index_vector_dim = 1>, slice_sizes = array<i64: 1, 1152>}> : (tensor<2304x1152xbf16>, tensor<64xui32>) -> tensor<64x1152xbf16>
    %3 = stablehlo.reshape %2 : (tensor<64x1152xbf16>) -> tensor<4x16x1152xbf16>
    %4 = stablehlo.broadcast_in_dim %arg0, dims = [0, 1] : (tensor<4x16xbf16>) -> tensor<4x16x1152xbf16>
    %5 = stablehlo.multiply %3, %4 : tensor<4x16x1152xbf16>
    %6 = stablehlo.slice %5 [0:1, 0:16, 0:1152] : (tensor<4x16x1152xbf16>) -> tensor<1x16x1152xbf16>
    %7 = stablehlo.reshape %6 : (tensor<1x16x1152xbf16>) -> tensor<16x1152xbf16>
    %8 = stablehlo.slice %5 [1:2, 0:16, 0:1152] : (tensor<4x16x1152xbf16>) -> tensor<1x16x1152xbf16>
    %9 = stablehlo.reshape %8 : (tensor<1x16x1152xbf16>) -> tensor<16x1152xbf16>
    %10 = stablehlo.add %7, %9 : tensor<16x1152xbf16>
    %11 = stablehlo.slice %5 [2:3, 0:16, 0:1152] : (tensor<4x16x1152xbf16>) -> tensor<1x16x1152xbf16>
    %12 = stablehlo.reshape %11 : (tensor<1x16x1152xbf16>) -> tensor<16x1152xbf16>
    %13 = stablehlo.add %10, %12 : tensor<16x1152xbf16>
    %14 = stablehlo.slice %5 [3:4, 0:16, 0:1152] : (tensor<4x16x1152xbf16>) -> tensor<1x16x1152xbf16>
    %15 = stablehlo.reshape %14 : (tensor<1x16x1152xbf16>) -> tensor<16x1152xbf16>
    %16 = stablehlo.add %13, %15 : tensor<16x1152xbf16>
    %17 = stablehlo.reshape %16 : (tensor<16x1152xbf16>) -> tensor<1x2x2x2x2x1152xbf16>
    %18 = stablehlo.transpose %17, dims = [0, 1, 3, 2, 4, 5] {result_layout = dense<[5, 4, 2, 3, 1, 0]> : tensor<6xindex>, xla_shape = "bf16[1,2,2,2,2,1152]{5,4,2,3,1,0}"} : (tensor<1x2x2x2x2x1152xbf16>) -> tensor<1x2x2x2x2x1152xbf16>
    %19 = stablehlo.reshape %18 : (tensor<1x2x2x2x2x1152xbf16>) -> tensor<16x1152xbf16>
    return %19 : tensor<16x1152xbf16>
  }
}
------------------ END OF MLIR MODULE ------------------
2026-04-23 21:17:23.544 (  19.224s) [        F0E90740]      module_builder.cc:1220     1| MLIR Module ttir:
module @SyncTensorsGraph.40 attributes {mhlo.cross_program_prefetches = [], mhlo.input_output_alias = [], mhlo.is_dynamic = false, mhlo.use_auto_spmd_partitioning = false, ttcore.meshes = #ttcore.meshes<[<"mesh" = 1x1>]>} {
  ttcore.device_module {
    builtin.module @SyncTensorsGraph.40 attributes {mhlo.cross_program_prefetches = [], mhlo.input_output_alias = [], mhlo.is_dynamic = false, mhlo.use_auto_spmd_partitioning = false, ttcore.meshes = #ttcore.meshes<[<"mesh" = 1x1>]>} {
      func.func @main(%arg0: tensor<4x16xbf16> {ttcore.argument_type = #ttcore.argument_type<input>, ttcore.local_shape = #ttcore<local_shape local_shape = tensor<4x16xbf16>>, ttcore.shard_status = #ttcore.shard_status<unsharded>}, %arg1: tensor<4x16xi64> {ttcore.argument_type = #ttcore.argument_type<input>, ttcore.local_shape = #ttcore<local_shape local_shape = tensor<4x16xi64>>, ttcore.shard_status = #ttcore.shard_status<unsharded>}, %arg2: tensor<2304x1152xbf16> {ttcore.argument_type = #ttcore.argument_type<input>, ttcore.local_shape = #ttcore<local_shape local_shape = tensor<2304x1152xbf16>>, ttcore.shard_status = #ttcore.shard_status<unsharded>}) -> (tensor<16x1152xbf16> {ttcore.local_shape = #ttcore<local_shape local_shape = tensor<16x1152xbf16>>, ttcore.shard_status = #ttcore.shard_status<presharded>}) {
        %0 = "ttir.reshape"(%arg1) <{shape = [64 : i32]}> : (tensor<4x16xi64>) -> tensor<64xi64>
        %1 = "ttir.typecast"(%0) <{conservative_folding = false}> : (tensor<64xi64>) -> tensor<64xui32>
        %2 = "ttir.permute"(%arg2) <{permutation = array<i64: 0, 1>}> : (tensor<2304x1152xbf16>) -> tensor<2304x1152xbf16>
        %3 = "ttir.reshape"(%2) <{shape = [2304 : i32, 1152 : i32]}> : (tensor<2304x1152xbf16>) -> tensor<2304x1152xbf16>
        %4 = "ttir.reshape"(%1) <{shape = [1 : i32, 64 : i32]}> : (tensor<64xui32>) -> tensor<1x64xui32>
        %5 = "ttir.embedding"(%4, %3) : (tensor<1x64xui32>, tensor<2304x1152xbf16>) -> tensor<1x64x1152xbf16>
        %6 = "ttir.reshape"(%5) <{shape = [64 : i32, 1152 : i32]}> : (tensor<1x64x1152xbf16>) -> tensor<64x1152xbf16>
        %7 = "ttir.permute"(%6) <{permutation = array<i64: 0, 1>}> : (tensor<64x1152xbf16>) -> tensor<64x1152xbf16>
        %8 = "ttir.reshape"(%7) <{shape = [4 : i32, 16 : i32, 1152 : i32]}> : (tensor<64x1152xbf16>) -> tensor<4x16x1152xbf16>
        %9 = "ttir.reshape"(%arg0) <{shape = [4 : i32, 16 : i32, 1 : i32]}> : (tensor<4x16xbf16>) -> tensor<4x16x1xbf16>
        %10 = "ttir.broadcast"(%9) <{broadcast_dimensions = array<i64: 1, 1, 1152>}> : (tensor<4x16x1xbf16>) -> tensor<4x16x1152xbf16>
        %11 = "ttir.multiply"(%8, %10) : (tensor<4x16x1152xbf16>, tensor<4x16x1152xbf16>) -> tensor<4x16x1152xbf16>
        %12 = "ttir.slice_static"(%11) <{begins = [0 : i32, 0 : i32, 0 : i32], ends = [1 : i32, 16 : i32, 1152 : i32], step = [1 : i32, 1 : i32, 1 : i32]}> : (tensor<4x16x1152xbf16>) -> tensor<1x16x1152xbf16>
        %13 = "ttir.reshape"(%12) <{shape = [16 : i32, 1152 : i32]}> : (tensor<1x16x1152xbf16>) -> tensor<16x1152xbf16>
        %14 = "ttir.slice_static"(%11) <{begins = [1 : i32, 0 : i32, 0 : i32], ends = [2 : i32, 16 : i32, 1152 : i32], step = [1 : i32, 1 : i32, 1 : i32]}> : (tensor<4x16x1152xbf16>) -> tensor<1x16x1152xbf16>
        %15 = "ttir.reshape"(%14) <{shape = [16 : i32, 1152 : i32]}> : (tensor<1x16x1152xbf16>) -> tensor<16x1152xbf16>
        %16 = "ttir.add"(%13, %15) : (tensor<16x1152xbf16>, tensor<16x1152xbf16>) -> tensor<16x1152xbf16>
        %17 = "ttir.slice_static"(%11) <{begins = [2 : i32, 0 : i32, 0 : i32], ends = [3 : i32, 16 : i32, 1152 : i32], step = [1 : i32, 1 : i32, 1 : i32]}> : (tensor<4x16x1152xbf16>) -> tensor<1x16x1152xbf16>
        %18 = "ttir.reshape"(%17) <{shape = [16 : i32, 1152 : i32]}> : (tensor<1x16x1152xbf16>) -> tensor<16x1152xbf16>
        %19 = "ttir.add"(%16, %18) : (tensor<16x1152xbf16>, tensor<16x1152xbf16>) -> tensor<16x1152xbf16>
        %20 = "ttir.slice_static"(%11) <{begins = [3 : i32, 0 : i32, 0 : i32], ends = [4 : i32, 16 : i32, 1152 : i32], step = [1 : i32, 1 : i32, 1 : i32]}> : (tensor<4x16x1152xbf16>) -> tensor<1x16x1152xbf16>
        %21 = "ttir.reshape"(%20) <{shape = [16 : i32, 1152 : i32]}> : (tensor<1x16x1152xbf16>) -> tensor<16x1152xbf16>
        %22 = "ttir.add"(%19, %21) : (tensor<16x1152xbf16>, tensor<16x1152xbf16>) -> tensor<16x1152xbf16>
        %23 = "ttir.reshape"(%22) <{shape = [1 : i32, 2 : i32, 2 : i32, 2 : i32, 2 : i32, 1152 : i32]}> : (tensor<16x1152xbf16>) -> tensor<1x2x2x2x2x1152xbf16>
        %24 = "ttir.permute"(%23) <{permutation = array<i64: 0, 1, 3, 2, 4, 5>}> : (tensor<1x2x2x2x2x1152xbf16>) -> tensor<1x2x2x2x2x1152xbf16>
        %25 = "ttir.reshape"(%24) <{shape = [16 : i32, 1152 : i32]}> : (tensor<1x2x2x2x2x1152xbf16>) -> tensor<16x1152xbf16>
        return %25 : tensor<16x1152xbf16>
      }
    }
  }
}
------------------ END OF MLIR MODULE ------------------
2026-04-23 21:17:23.556 (  19.236s) [        F0E90740]      module_builder.cc:1220     1| MLIR Module ttnn:
#dram = #ttnn.buffer_type<dram>
#system_desc = #ttcore.system_desc<[{role = host, target_triple = "x86_64-pc-linux"}], [{arch = <wormhole_b0>, grid = 8x8, coord_translation_offsets = 18x18, l1_size = 1499136, num_dram_channels = 12, dram_channel_size = 1073741824, noc_l1_address_align_bytes = 16, pcie_address_align_bytes = 32, noc_dram_address_align_bytes = 32, l1_unreserved_base = 103712, erisc_l1_unreserved_base = 98304, dram_unreserved_base = 1920032, dram_unreserved_end = 1073119552, supported_data_types = [<f32>, <f16>, <bf16>, <bfp_f8>, <bfp_bf8>, <bfp_f4>, <bfp_bf4>, <bfp_f2>, <bfp_bf2>, <u32>, <u16>, <u8>, <si32>], supported_tile_sizes = [ 4x16,  16x16,  32x16,  4x32,  16x32,  32x32], dst_physical_size_tiles = 16, num_cbs = 64, num_compute_threads = 1, num_datamovement_threads = 2}], [0], [1 : i32], [ 0x0x0x0]>
#ttnn_layout = #ttnn.ttnn_layout<(d0, d1) -> (d0, d1), <1x1>, memref<4x16xbf16, #dram>, <interleaved>>
#ttnn_layout1 = #ttnn.ttnn_layout<(d0, d1) -> (d0, d1), <1x1>, memref<4x16xsi32, #dram>, <interleaved>>
#ttnn_layout2 = #ttnn.ttnn_layout<(d0, d1) -> (d0, d1), <1x1>, memref<2304x1152xbf16, #dram>, <interleaved>>
#ttnn_layout3 = #ttnn.ttnn_layout<(d0, d1) -> (d0, d1), <1x1>, memref<1x36x!ttcore.tile<32x32, bf16>, #dram>, <interleaved>>
#ttnn_layout4 = #ttnn.ttnn_layout<(d0, d1) -> (d0, d1), <1x1>, memref<1x1x!ttcore.tile<32x32, si32>, #dram>, <interleaved>>
#ttnn_layout5 = #ttnn.ttnn_layout<(d0, d1) -> (d0, d1), <1x1>, memref<1x1x!ttcore.tile<32x32, u32>, #dram>, <interleaved>>
#ttnn_layout6 = #ttnn.ttnn_layout<(d0, d1) -> (d0, d1), <1x1>, memref<1x2x!ttcore.tile<32x32, u32>, #dram>, <interleaved>>
#ttnn_layout7 = #ttnn.ttnn_layout<(d0, d1) -> (d0, d1), <1x1>, memref<1x64xui32, #dram>, <interleaved>>
#ttnn_layout8 = #ttnn.ttnn_layout<(d0, d1, d2) -> (d0 * 64 + d1, d2), <1x1>, memref<2x36x!ttcore.tile<32x32, bf16>, #dram>, <interleaved>>
#ttnn_layout9 = #ttnn.ttnn_layout<(d0, d1, d2) -> (d0 * 32 + d1, d2), <1x1>, memref<4x36x!ttcore.tile<32x32, bf16>, #dram>, <interleaved>>
#ttnn_layout10 = #ttnn.ttnn_layout<(d0, d1) -> (d0, d1), <1x1>, memref<1x1x!ttcore.tile<32x32, bf16>, #dram>, <interleaved>>
#ttnn_layout11 = #ttnn.ttnn_layout<(d0, d1, d2) -> (d0 * 32 + d1, d2), <1x1>, memref<4x1x!ttcore.tile<32x32, bf16>, #dram>, <interleaved>>
#ttnn_layout12 = #ttnn.ttnn_layout<(d0, d1, d2) -> (d0 * 32 + d1, d2), <1x1>, memref<1x36x!ttcore.tile<32x32, bf16>, #dram>, <interleaved>>
#ttnn_layout13 = #ttnn.ttnn_layout<(d0, d1, d2, d3, d4, d5) -> (d0 * 256 + d1 * 128 + d2 * 64 + d3 * 32 + d4, d5), <1x1>, memref<8x36x!ttcore.tile<32x32, bf16>, #dram>, <interleaved>>
module @SyncTensorsGraph.40 attributes {mhlo.cross_program_prefetches = [], mhlo.input_output_alias = [], mhlo.is_dynamic = false, mhlo.use_auto_spmd_partitioning = false, ttcore.meshes = #ttcore.meshes<[<"mesh" = 1x1>]>} {
  ttcore.device_module {
    builtin.module @SyncTensorsGraph.40 attributes {mhlo.cross_program_prefetches = [], mhlo.input_output_alias = [], mhlo.is_dynamic = false, mhlo.use_auto_spmd_partitioning = false, ttcore.meshes = #ttcore.meshes<[<"mesh" = 1x1>]>, ttcore.system_desc = #system_desc} {
      ttcore.device @default_device = <workerGrid = #ttcore.grid<8x8, virt_to_physical_map = (d0, d1) -> (0, d0, d1), physical_to_virt_map = (d0, d1, d2) -> (d1, d2)>, l1Map = (d0, d1, d2)[s0] -> (0, d0, d1, d2 + s0), dramMap = (d0, d1, d2)[s0, s1, s2, s3, s4, s5, s6] -> (0, 0, (((d0 * s1) * (s2 * (s3 * s6)) + d1 * (s2 * (s3 * s6)) + d2) floordiv s4) mod 12, ((((d0 * s1) * (s2 * (s3 * s6)) + d1 * (s2 * (s3 * s6)) + d2) floordiv s4) floordiv 12) * s4 + ((d0 * s1) * (s2 * (s3 * s6)) + d1 * (s2 * (s3 * s6)) + d2) mod s4 + s5), meshShape = 1x1, chipIds = [0]>
      func.func @main(%arg0: tensor<4x16xbf16, #ttnn_layout> {ttcore.argument_type = #ttcore.argument_type<input>, ttcore.local_shape = #ttcore<local_shape local_shape = tensor<4x16xbf16>>, ttcore.shard_status = #ttcore.shard_status<unsharded>}, %arg1: tensor<4x16xsi32, #ttnn_layout1> {ttcore.argument_type = #ttcore.argument_type<input>, ttcore.local_shape = #ttcore<local_shape local_shape = tensor<4x16xi64>>, ttcore.shard_status = #ttcore.shard_status<unsharded>}, %arg2: tensor<2304x1152xbf16, #ttnn_layout2> {ttcore.argument_type = #ttcore.argument_type<input>, ttcore.local_shape = #ttcore<local_shape local_shape = tensor<2304x1152xbf16>>, ttcore.shard_status = #ttcore.shard_status<unsharded>}) -> (tensor<16x1152xbf16, #ttnn_layout3> {ttcore.local_shape = #ttcore<local_shape local_shape = tensor<16x1152xbf16>>, ttcore.shard_status = #ttcore.shard_status<presharded>}) attributes {tt.function_type = "forward_device"} {
        %0 = "ttnn.to_layout"(%arg1) <{layout = #ttnn.layout<tile>}> : (tensor<4x16xsi32, #ttnn_layout1>) -> tensor<4x16xsi32, #ttnn_layout4>
        "ttnn.deallocate"(%arg1) <{force = false}> : (tensor<4x16xsi32, #ttnn_layout1>) -> ()
        %1 = "ttnn.typecast"(%0) <{dtype = #ttcore.supportedDataTypes<u32>}> : (tensor<4x16xsi32, #ttnn_layout4>) -> tensor<4x16xui32, #ttnn_layout5>
        "ttnn.deallocate"(%0) <{force = false}> : (tensor<4x16xsi32, #ttnn_layout4>) -> ()
        %2 = "ttnn.reshape"(%1) <{shape = [1 : i32, 64 : i32]}> : (tensor<4x16xui32, #ttnn_layout5>) -> tensor<1x64xui32, #ttnn_layout6>
        "ttnn.deallocate"(%1) <{force = false}> : (tensor<4x16xui32, #ttnn_layout5>) -> ()
        %3 = "ttnn.to_layout"(%2) <{layout = #ttnn.layout<row_major>}> : (tensor<1x64xui32, #ttnn_layout6>) -> tensor<1x64xui32, #ttnn_layout7>
        "ttnn.deallocate"(%2) <{force = false}> : (tensor<1x64xui32, #ttnn_layout6>) -> ()
        %4 = "ttnn.embedding"(%3, %arg2) : (tensor<1x64xui32, #ttnn_layout7>, tensor<2304x1152xbf16, #ttnn_layout2>) -> tensor<1x64x1152xbf16, #ttnn_layout8>
        "ttnn.deallocate"(%3) <{force = false}> : (tensor<1x64xui32, #ttnn_layout7>) -> ()
        "ttnn.deallocate"(%arg2) <{force = false}> : (tensor<2304x1152xbf16, #ttnn_layout2>) -> ()
        %5 = "ttnn.reshape"(%4) <{shape = [4 : i32, 16 : i32, 1152 : i32]}> : (tensor<1x64x1152xbf16, #ttnn_layout8>) -> tensor<4x16x1152xbf16, #ttnn_layout9>
        "ttnn.deallocate"(%4) <{force = false}> : (tensor<1x64x1152xbf16, #ttnn_layout8>) -> ()
        %6 = "ttnn.to_layout"(%arg0) <{layout = #ttnn.layout<tile>}> : (tensor<4x16xbf16, #ttnn_layout>) -> tensor<4x16xbf16, #ttnn_layout10>
        "ttnn.deallocate"(%arg0) <{force = false}> : (tensor<4x16xbf16, #ttnn_layout>) -> ()
        %7 = "ttnn.reshape"(%6) <{shape = [4 : i32, 16 : i32, 1 : i32]}> : (tensor<4x16xbf16, #ttnn_layout10>) -> tensor<4x16x1xbf16, #ttnn_layout11>
        "ttnn.deallocate"(%6) <{force = false}> : (tensor<4x16xbf16, #ttnn_layout10>) -> ()
        %8 = "ttnn.multiply"(%5, %7) <{dtype = #ttcore.supportedDataTypes<bf16>}> : (tensor<4x16x1152xbf16, #ttnn_layout9>, tensor<4x16x1xbf16, #ttnn_layout11>) -> tensor<4x16x1152xbf16, #ttnn_layout9>
        "ttnn.deallocate"(%7) <{force = false}> : (tensor<4x16x1xbf16, #ttnn_layout11>) -> ()
        "ttnn.deallocate"(%5) <{force = false}> : (tensor<4x16x1152xbf16, #ttnn_layout9>) -> ()
        %9 = "ttnn.slice_static"(%8) <{begins = [0 : i32, 0 : i32, 0 : i32], ends = [1 : i32, 16 : i32, 1152 : i32], step = [1 : i32, 1 : i32, 1 : i32]}> : (tensor<4x16x1152xbf16, #ttnn_layout9>) -> tensor<1x16x1152xbf16, #ttnn_layout12>
        %10 = "ttnn.slice_static"(%8) <{begins = [1 : i32, 0 : i32, 0 : i32], ends = [2 : i32, 16 : i32, 1152 : i32], step = [1 : i32, 1 : i32, 1 : i32]}> : (tensor<4x16x1152xbf16, #ttnn_layout9>) -> tensor<1x16x1152xbf16, #ttnn_layout12>
        %11 = "ttnn.add"(%9, %10) <{dtype = #ttcore.supportedDataTypes<bf16>}> : (tensor<1x16x1152xbf16, #ttnn_layout12>, tensor<1x16x1152xbf16, #ttnn_layout12>) -> tensor<1x16x1152xbf16, #ttnn_layout12>
        "ttnn.deallocate"(%10) <{force = false}> : (tensor<1x16x1152xbf16, #ttnn_layout12>) -> ()
        "ttnn.deallocate"(%9) <{force = false}> : (tensor<1x16x1152xbf16, #ttnn_layout12>) -> ()
        %12 = "ttnn.slice_static"(%8) <{begins = [2 : i32, 0 : i32, 0 : i32], ends = [3 : i32, 16 : i32, 1152 : i32], step = [1 : i32, 1 : i32, 1 : i32]}> : (tensor<4x16x1152xbf16, #ttnn_layout9>) -> tensor<1x16x1152xbf16, #ttnn_layout12>
        %13 = "ttnn.add"(%11, %12) <{dtype = #ttcore.supportedDataTypes<bf16>}> : (tensor<1x16x1152xbf16, #ttnn_layout12>, tensor<1x16x1152xbf16, #ttnn_layout12>) -> tensor<1x16x1152xbf16, #ttnn_layout12>
        "ttnn.deallocate"(%12) <{force = false}> : (tensor<1x16x1152xbf16, #ttnn_layout12>) -> ()
        "ttnn.deallocate"(%11) <{force = false}> : (tensor<1x16x1152xbf16, #ttnn_layout12>) -> ()
        %14 = "ttnn.slice_static"(%8) <{begins = [3 : i32, 0 : i32, 0 : i32], ends = [4 : i32, 16 : i32, 1152 : i32], step = [1 : i32, 1 : i32, 1 : i32]}> : (tensor<4x16x1152xbf16, #ttnn_layout9>) -> tensor<1x16x1152xbf16, #ttnn_layout12>
        "ttnn.deallocate"(%8) <{force = false}> : (tensor<4x16x1152xbf16, #ttnn_layout9>) -> ()
        %15 = "ttnn.add"(%13, %14) <{dtype = #ttcore.supportedDataTypes<bf16>}> : (tensor<1x16x1152xbf16, #ttnn_layout12>, tensor<1x16x1152xbf16, #ttnn_layout12>) -> tensor<1x16x1152xbf16, #ttnn_layout12>
        "ttnn.deallocate"(%14) <{force = false}> : (tensor<1x16x1152xbf16, #ttnn_layout12>) -> ()
        "ttnn.deallocate"(%13) <{force = false}> : (tensor<1x16x1152xbf16, #ttnn_layout12>) -> ()
        %16 = "ttnn.reshape"(%15) <{shape = [1 : i32, 2 : i32, 2 : i32, 2 : i32, 2 : i32, 1152 : i32]}> : (tensor<1x16x1152xbf16, #ttnn_layout12>) -> tensor<1x2x2x2x2x1152xbf16, #ttnn_layout13>
        "ttnn.deallocate"(%15) <{force = false}> : (tensor<1x16x1152xbf16, #ttnn_layout12>) -> ()
        %17 = "ttnn.permute"(%16) <{permutation = array<i64: 0, 1, 3, 2, 4, 5>}> : (tensor<1x2x2x2x2x1152xbf16, #ttnn_layout13>) -> tensor<1x2x2x2x2x1152xbf16, #ttnn_layout13>
        "ttnn.deallocate"(%16) <{force = false}> : (tensor<1x2x2x2x2x1152xbf16, #ttnn_layout13>) -> ()
        %18 = "ttnn.reshape"(%17) <{shape = [16 : i32, 1152 : i32]}> : (tensor<1x2x2x2x2x1152xbf16, #ttnn_layout13>) -> tensor<16x1152xbf16, #ttnn_layout3>
        "ttnn.deallocate"(%17) <{force = false}> : (tensor<1x2x2x2x2x1152xbf16, #ttnn_layout13>) -> ()
        return %18 : tensor<16x1152xbf16, #ttnn_layout3>
      }
    }
  }
}
------------------ END OF MLIR MODULE ------------------
2026-04-23 21:17:25.138 (  20.818s) [        F0E90740]      module_builder.cc:1220     1| MLIR Module vhlo:
module @SyncTensorsGraph.14 attributes {mhlo.cross_program_prefetches = [], mhlo.input_output_alias = [], mhlo.is_dynamic = false, mhlo.use_auto_spmd_partitioning = false} {
  vhlo.func_v1 @main(%arg0: !vhlo.tensor_v1<16x1152x!vhlo.bf16_v1>, %arg1: !vhlo.tensor_v1<16x1152x!vhlo.bf16_v1>) -> (!vhlo.tensor_v1<16x1152x!vhlo.bf16_v1>) {
    %0 = "vhlo.reshape_v1"(%arg1) : (!vhlo.tensor_v1<16x1152x!vhlo.bf16_v1>) -> !vhlo.tensor_v1<1x16x1152x!vhlo.bf16_v1>
    %1 = "vhlo.custom_call_v1"(%0) <{api_version = #vhlo<api_version_v1 API_VERSION_UNSPECIFIED>, backend_config = #vhlo.string_v1<"">, call_target_name = #vhlo.string_v1<"tt.mark_argument">, called_computations = #vhlo.array_v1<[]>, has_side_effect = #vhlo.bool_v1<false>, operand_layouts = #vhlo.array_v1<[]>, output_operand_aliases = #vhlo.array_v1<[]>, result_layouts = #vhlo.array_v1<[]>}> {mhlo.frontend_attributes = #vhlo.dict_v1<{#vhlo.string_v1<"ttcore.argument_type"> = #vhlo.string_v1<"input">, #vhlo.string_v1<"ttir.name"> = #vhlo.string_v1<"args_0">}>} : (!vhlo.tensor_v1<1x16x1152x!vhlo.bf16_v1>) -> !vhlo.tensor_v1<1x16x1152x!vhlo.bf16_v1>
    %2 = "vhlo.reshape_v1"(%1) : (!vhlo.tensor_v1<1x16x1152x!vhlo.bf16_v1>) -> !vhlo.tensor_v1<16x1152x!vhlo.bf16_v1>
    %3 = "vhlo.reshape_v1"(%arg0) : (!vhlo.tensor_v1<16x1152x!vhlo.bf16_v1>) -> !vhlo.tensor_v1<1x16x1152x!vhlo.bf16_v1>
    %4 = "vhlo.custom_call_v1"(%3) <{api_version = #vhlo<api_version_v1 API_VERSION_UNSPECIFIED>, backend_config = #vhlo.string_v1<"">, call_target_name = #vhlo.string_v1<"tt.mark_argument">, called_computations = #vhlo.array_v1<[]>, has_side_effect = #vhlo.bool_v1<false>, operand_layouts = #vhlo.array_v1<[]>, output_operand_aliases = #vhlo.array_v1<[]>, result_layouts = #vhlo.array_v1<[]>}> {mhlo.frontend_attributes = #vhlo.dict_v1<{#vhlo.string_v1<"ttcore.argument_type"> = #vhlo.string_v1<"input">, #vhlo.string_v1<"ttir.name"> = #vhlo.string_v1<"args_1">}>} : (!vhlo.tensor_v1<1x16x1152x!vhlo.bf16_v1>) -> !vhlo.tensor_v1<1x16x1152x!vhlo.bf16_v1>
    %5 = "vhlo.reshape_v1"(%4) : (!vhlo.tensor_v1<1x16x1152x!vhlo.bf16_v1>) -> !vhlo.tensor_v1<16x1152x!vhlo.bf16_v1>
    %6 = "vhlo.add_v1"(%2, %5) : (!vhlo.tensor_v1<16x1152x!vhlo.bf16_v1>, !vhlo.tensor_v1<16x1152x!vhlo.bf16_v1>) -> !vhlo.tensor_v1<16x1152x!vhlo.bf16_v1>
    "vhlo.return_v1"(%6) : (!vhlo.tensor_v1<16x1152x!vhlo.bf16_v1>) -> ()
  } {arg_attrs = #vhlo.array_v1<[]>, res_attrs = #vhlo.array_v1<[]>, sym_visibility = #vhlo.string_v1<"">}
}
------------------ END OF MLIR MODULE ------------------
2026-04-23 21:17:25.139 (  20.820s) [        F0E90740]      module_builder.cc:1220     1| MLIR Module shlo:
module @SyncTensorsGraph.14 attributes {mhlo.cross_program_prefetches = [], mhlo.input_output_alias = [], mhlo.is_dynamic = false, mhlo.use_auto_spmd_partitioning = false} {
  func.func @main(%arg0: tensor<16x1152xbf16>, %arg1: tensor<16x1152xbf16>) -> tensor<16x1152xbf16> {
    %0 = stablehlo.reshape %arg1 : (tensor<16x1152xbf16>) -> tensor<1x16x1152xbf16>
    %1 = stablehlo.custom_call @tt.mark_argument(%0) {api_version = 0 : i32, mhlo.frontend_attributes = {ttcore.argument_type = "input", ttir.name = "args_0"}} : (tensor<1x16x1152xbf16>) -> tensor<1x16x1152xbf16>
    %2 = stablehlo.reshape %1 : (tensor<1x16x1152xbf16>) -> tensor<16x1152xbf16>
    %3 = stablehlo.reshape %arg0 : (tensor<16x1152xbf16>) -> tensor<1x16x1152xbf16>
    %4 = stablehlo.custom_call @tt.mark_argument(%3) {api_version = 0 : i32, mhlo.frontend_attributes = {ttcore.argument_type = "input", ttir.name = "args_1"}} : (tensor<1x16x1152xbf16>) -> tensor<1x16x1152xbf16>
    %5 = stablehlo.reshape %4 : (tensor<1x16x1152xbf16>) -> tensor<16x1152xbf16>
    %6 = stablehlo.add %2, %5 : tensor<16x1152xbf16>
    return %6 : tensor<16x1152xbf16>
  }
}
------------------ END OF MLIR MODULE ------------------
2026-04-23 21:17:25.140 (  20.820s) [        F0E90740]      module_builder.cc:1220     1| MLIR Module shlo_frontend:
module @SyncTensorsGraph.14 attributes {mhlo.cross_program_prefetches = [], mhlo.input_output_alias = [], mhlo.is_dynamic = false, mhlo.use_auto_spmd_partitioning = false} {
  func.func @main(%arg0: tensor<16x1152xbf16> {ttcore.argument_type = #ttcore.argument_type<input>, ttir.name = "args_1"}, %arg1: tensor<16x1152xbf16> {ttcore.argument_type = #ttcore.argument_type<input>, ttir.name = "args_0"}) -> tensor<16x1152xbf16> {
    %0 = stablehlo.reshape %arg1 : (tensor<16x1152xbf16>) -> tensor<1x16x1152xbf16>
    %1 = stablehlo.reshape %0 : (tensor<1x16x1152xbf16>) -> tensor<16x1152xbf16>
    %2 = stablehlo.reshape %arg0 : (tensor<16x1152xbf16>) -> tensor<1x16x1152xbf16>
    %3 = stablehlo.reshape %2 : (tensor<1x16x1152xbf16>) -> tensor<16x1152xbf16>
    %4 = stablehlo.add %1, %3 : tensor<16x1152xbf16>
    return %4 : tensor<16x1152xbf16>
  }
}
------------------ END OF MLIR MODULE ------------------
2026-04-23 21:17:25.143 (  20.823s) [        F0E90740]      module_builder.cc:1220     1| MLIR Module shlo_compiler:
module @SyncTensorsGraph.14 attributes {mhlo.cross_program_prefetches = [], mhlo.input_output_alias = [], mhlo.is_dynamic = false, mhlo.use_auto_spmd_partitioning = false} {
  sdy.mesh @mesh = <["x"=1, "y"=1]>
  func.func @main(%arg0: tensor<16x1152xbf16> {ttcore.argument_type = #ttcore.argument_type<input>, ttcore.local_shape = #ttcore<local_shape local_shape = tensor<16x1152xbf16>>, ttcore.shard_status = #ttcore.shard_status<unsharded>, ttir.name = "args_1"}, %arg1: tensor<16x1152xbf16> {ttcore.argument_type = #ttcore.argument_type<input>, ttcore.local_shape = #ttcore<local_shape local_shape = tensor<16x1152xbf16>>, ttcore.shard_status = #ttcore.shard_status<unsharded>, ttir.name = "args_0"}) -> (tensor<16x1152xbf16> {ttcore.local_shape = #ttcore<local_shape local_shape = tensor<16x1152xbf16>>, ttcore.shard_status = #ttcore.shard_status<presharded>}) {
    %0 = stablehlo.reshape %arg1 : (tensor<16x1152xbf16>) -> tensor<1x16x1152xbf16>
    %1 = stablehlo.reshape %0 : (tensor<1x16x1152xbf16>) -> tensor<16x1152xbf16>
    %2 = stablehlo.reshape %arg0 : (tensor<16x1152xbf16>) -> tensor<1x16x1152xbf16>
    %3 = stablehlo.reshape %2 : (tensor<1x16x1152xbf16>) -> tensor<16x1152xbf16>
    %4 = stablehlo.add %1, %3 : tensor<16x1152xbf16>
    return %4 : tensor<16x1152xbf16>
  }
}
------------------ END OF MLIR MODULE ------------------
2026-04-23 21:17:25.143 (  20.823s) [        F0E90740]      module_builder.cc:1220     1| MLIR Module shlo_set_mesh_attr:
module @SyncTensorsGraph.14 attributes {mhlo.cross_program_prefetches = [], mhlo.input_output_alias = [], mhlo.is_dynamic = false, mhlo.use_auto_spmd_partitioning = false} {
  sdy.mesh @mesh = <["x"=1, "y"=1]>
  func.func @main(%arg0: tensor<16x1152xbf16> {ttcore.argument_type = #ttcore.argument_type<input>, ttcore.local_shape = #ttcore<local_shape local_shape = tensor<16x1152xbf16>>, ttcore.shard_status = #ttcore.shard_status<unsharded>, ttir.name = "args_1"}, %arg1: tensor<16x1152xbf16> {ttcore.argument_type = #ttcore.argument_type<input>, ttcore.local_shape = #ttcore<local_shape local_shape = tensor<16x1152xbf16>>, ttcore.shard_status = #ttcore.shard_status<unsharded>, ttir.name = "args_0"}) -> (tensor<16x1152xbf16> {ttcore.local_shape = #ttcore<local_shape local_shape = tensor<16x1152xbf16>>, ttcore.shard_status = #ttcore.shard_status<presharded>}) {
    %0 = stablehlo.reshape %arg1 : (tensor<16x1152xbf16>) -> tensor<1x16x1152xbf16>
    %1 = stablehlo.reshape %0 : (tensor<1x16x1152xbf16>) -> tensor<16x1152xbf16>
    %2 = stablehlo.reshape %arg0 : (tensor<16x1152xbf16>) -> tensor<1x16x1152xbf16>
    %3 = stablehlo.reshape %2 : (tensor<1x16x1152xbf16>) -> tensor<16x1152xbf16>
    %4 = stablehlo.add %1, %3 : tensor<16x1152xbf16>
    return %4 : tensor<16x1152xbf16>
  }
}
------------------ END OF MLIR MODULE ------------------
2026-04-23 21:17:25.144 (  20.824s) [        F0E90740]      module_builder.cc:1220     1| MLIR Module shlo_compiler_cleaned:
module @SyncTensorsGraph.14 attributes {mhlo.cross_program_prefetches = [], mhlo.input_output_alias = [], mhlo.is_dynamic = false, mhlo.use_auto_spmd_partitioning = false} {
  func.func @main(%arg0: tensor<16x1152xbf16>, %arg1: tensor<16x1152xbf16>) -> tensor<16x1152xbf16> {
    %0 = stablehlo.reshape %arg1 : (tensor<16x1152xbf16>) -> tensor<1x16x1152xbf16>
    %1 = stablehlo.reshape %0 : (tensor<1x16x1152xbf16>) -> tensor<16x1152xbf16>
    %2 = stablehlo.reshape %arg0 : (tensor<16x1152xbf16>) -> tensor<1x16x1152xbf16>
    %3 = stablehlo.reshape %2 : (tensor<1x16x1152xbf16>) -> tensor<16x1152xbf16>
    %4 = stablehlo.add %1, %3 : tensor<16x1152xbf16>
    return %4 : tensor<16x1152xbf16>
  }
}
------------------ END OF MLIR MODULE ------------------
2026-04-23 21:17:25.145 (  20.825s) [        F0E90740]      module_builder.cc:1220     1| MLIR Module ttir:
module @SyncTensorsGraph.14 attributes {mhlo.cross_program_prefetches = [], mhlo.input_output_alias = [], mhlo.is_dynamic = false, mhlo.use_auto_spmd_partitioning = false, ttcore.meshes = #ttcore.meshes<[<"mesh" = 1x1>]>} {
  ttcore.device_module {
    builtin.module @SyncTensorsGraph.14 attributes {mhlo.cross_program_prefetches = [], mhlo.input_output_alias = [], mhlo.is_dynamic = false, mhlo.use_auto_spmd_partitioning = false, ttcore.meshes = #ttcore.meshes<[<"mesh" = 1x1>]>} {
      func.func @main(%arg0: tensor<16x1152xbf16> {ttcore.argument_type = #ttcore.argument_type<input>, ttcore.local_shape = #ttcore<local_shape local_shape = tensor<16x1152xbf16>>, ttcore.shard_status = #ttcore.shard_status<unsharded>, ttir.name = "args_1"}, %arg1: tensor<16x1152xbf16> {ttcore.argument_type = #ttcore.argument_type<input>, ttcore.local_shape = #ttcore<local_shape local_shape = tensor<16x1152xbf16>>, ttcore.shard_status = #ttcore.shard_status<unsharded>, ttir.name = "args_0"}) -> (tensor<16x1152xbf16> {ttcore.local_shape = #ttcore<local_shape local_shape = tensor<16x1152xbf16>>, ttcore.shard_status = #ttcore.shard_status<presharded>}) {
        %0 = "ttir.add"(%arg1, %arg0) : (tensor<16x1152xbf16>, tensor<16x1152xbf16>) -> tensor<16x1152xbf16>
        return %0 : tensor<16x1152xbf16>
      }
    }
  }
}
------------------ END OF MLIR MODULE ------------------
2026-04-23 21:17:25.152 (  20.832s) [        F0E90740]      module_builder.cc:1220     1| MLIR Module ttnn:
#dram = #ttnn.buffer_type<dram>
#system_desc = #ttcore.system_desc<[{role = host, target_triple = "x86_64-pc-linux"}], [{arch = <wormhole_b0>, grid = 8x8, coord_translation_offsets = 18x18, l1_size = 1499136, num_dram_channels = 12, dram_channel_size = 1073741824, noc_l1_address_align_bytes = 16, pcie_address_align_bytes = 32, noc_dram_address_align_bytes = 32, l1_unreserved_base = 103712, erisc_l1_unreserved_base = 98304, dram_unreserved_base = 1920032, dram_unreserved_end = 1073119552, supported_data_types = [<f32>, <f16>, <bf16>, <bfp_f8>, <bfp_bf8>, <bfp_f4>, <bfp_bf4>, <bfp_f2>, <bfp_bf2>, <u32>, <u16>, <u8>, <si32>], supported_tile_sizes = [ 4x16,  16x16,  32x16,  4x32,  16x32,  32x32], dst_physical_size_tiles = 16, num_cbs = 64, num_compute_threads = 1, num_datamovement_threads = 2}], [0], [1 : i32], [ 0x0x0x0]>
#ttnn_layout = #ttnn.ttnn_layout<(d0, d1) -> (d0, d1), <1x1>, memref<16x1152xbf16, #dram>, <interleaved>>
#ttnn_layout1 = #ttnn.ttnn_layout<(d0, d1) -> (d0, d1), <1x1>, memref<1x36x!ttcore.tile<32x32, bf16>, #dram>, <interleaved>>
module @SyncTensorsGraph.14 attributes {mhlo.cross_program_prefetches = [], mhlo.input_output_alias = [], mhlo.is_dynamic = false, mhlo.use_auto_spmd_partitioning = false, ttcore.meshes = #ttcore.meshes<[<"mesh" = 1x1>]>} {
  ttcore.device_module {
    builtin.module @SyncTensorsGraph.14 attributes {mhlo.cross_program_prefetches = [], mhlo.input_output_alias = [], mhlo.is_dynamic = false, mhlo.use_auto_spmd_partitioning = false, ttcore.meshes = #ttcore.meshes<[<"mesh" = 1x1>]>, ttcore.system_desc = #system_desc} {
      ttcore.device @default_device = <workerGrid = #ttcore.grid<8x8, virt_to_physical_map = (d0, d1) -> (0, d0, d1), physical_to_virt_map = (d0, d1, d2) -> (d1, d2)>, l1Map = (d0, d1, d2)[s0] -> (0, d0, d1, d2 + s0), dramMap = (d0, d1, d2)[s0, s1, s2, s3, s4, s5, s6] -> (0, 0, (((d0 * s1) * (s2 * (s3 * s6)) + d1 * (s2 * (s3 * s6)) + d2) floordiv s4) mod 12, ((((d0 * s1) * (s2 * (s3 * s6)) + d1 * (s2 * (s3 * s6)) + d2) floordiv s4) floordiv 12) * s4 + ((d0 * s1) * (s2 * (s3 * s6)) + d1 * (s2 * (s3 * s6)) + d2) mod s4 + s5), meshShape = 1x1, chipIds = [0]>
      func.func @main(%arg0: tensor<16x1152xbf16, #ttnn_layout> {ttcore.argument_type = #ttcore.argument_type<input>, ttcore.local_shape = #ttcore<local_shape local_shape = tensor<16x1152xbf16>>, ttcore.shard_status = #ttcore.shard_status<unsharded>, ttir.name = "args_1"}, %arg1: tensor<16x1152xbf16, #ttnn_layout> {ttcore.argument_type = #ttcore.argument_type<input>, ttcore.local_shape = #ttcore<local_shape local_shape = tensor<16x1152xbf16>>, ttcore.shard_status = #ttcore.shard_status<unsharded>, ttir.name = "args_0"}) -> (tensor<16x1152xbf16, #ttnn_layout1> {ttcore.local_shape = #ttcore<local_shape local_shape = tensor<16x1152xbf16>>, ttcore.shard_status = #ttcore.shard_status<presharded>}) attributes {tt.function_type = "forward_device"} {
        %0 = "ttnn.to_layout"(%arg1) <{layout = #ttnn.layout<tile>}> : (tensor<16x1152xbf16, #ttnn_layout>) -> tensor<16x1152xbf16, #ttnn_layout1>
        "ttnn.deallocate"(%arg1) <{force = false}> : (tensor<16x1152xbf16, #ttnn_layout>) -> ()
        %1 = "ttnn.to_layout"(%arg0) <{layout = #ttnn.layout<tile>}> : (tensor<16x1152xbf16, #ttnn_layout>) -> tensor<16x1152xbf16, #ttnn_layout1>
        "ttnn.deallocate"(%arg0) <{force = false}> : (tensor<16x1152xbf16, #ttnn_layout>) -> ()
        %2 = "ttnn.add"(%0, %1) <{dtype = #ttcore.supportedDataTypes<bf16>}> : (tensor<16x1152xbf16, #ttnn_layout1>, tensor<16x1152xbf16, #ttnn_layout1>) -> tensor<16x1152xbf16, #ttnn_layout1>
        "ttnn.deallocate"(%1) <{force = false}> : (tensor<16x1152xbf16, #ttnn_layout1>) -> ()
        "ttnn.deallocate"(%0) <{force = false}> : (tensor<16x1152xbf16, #ttnn_layout1>) -> ()
        return %2 : tensor<16x1152xbf16, #ttnn_layout1>
      }
    }
  }
}
------------------ END OF MLIR MODULE ------------------
2026-04-23 21:17:27.152 | DEBUG    | tt_torch.backend.passes:_validate_demangling:463 - Failed to demangle 1 argument name(s): ['inv_freq']
2026-04-23 21:17:27.250 (  22.931s) [        F0E90740]      module_builder.cc:1220     1| MLIR Module vhlo:
module @SyncTensorsGraph.12 attributes {mhlo.cross_program_prefetches = [], mhlo.input_output_alias = [], mhlo.is_dynamic = false, mhlo.use_auto_spmd_partitioning = false} {
  vhlo.func_v1 @main(%arg0: !vhlo.tensor_v1<18x!vhlo.f32_v1>) -> (!vhlo.tensor_v1<4x18x!vhlo.f32_v1>) {
    %0 = "vhlo.constant_v1"() <{value = #vhlo.tensor_v1<dense<[0.000000e+00, 1.000000e+00, 2.000000e+00, 3.000000e+00]> : tensor<4xf32>>}> : () -> !vhlo.tensor_v1<4x!vhlo.f32_v1>
    %1 = "vhlo.broadcast_in_dim_v1"(%0) <{broadcast_dimensions = #vhlo.tensor_v1<dense<0> : tensor<1xi64>>}> : (!vhlo.tensor_v1<4x!vhlo.f32_v1>) -> !vhlo.tensor_v1<4x18x!vhlo.f32_v1>
    %2 = "vhlo.reshape_v1"(%arg0) : (!vhlo.tensor_v1<18x!vhlo.f32_v1>) -> !vhlo.tensor_v1<1x1x18x!vhlo.f32_v1>
    %3 = "vhlo.custom_call_v1"(%2) <{api_version = #vhlo<api_version_v1 API_VERSION_UNSPECIFIED>, backend_config = #vhlo.string_v1<"">, call_target_name = #vhlo.string_v1<"tt.mark_argument">, called_computations = #vhlo.array_v1<[]>, has_side_effect = #vhlo.bool_v1<false>, operand_layouts = #vhlo.array_v1<[]>, output_operand_aliases = #vhlo.array_v1<[]>, result_layouts = #vhlo.array_v1<[]>}> {mhlo.frontend_attributes = #vhlo.dict_v1<{#vhlo.string_v1<"ttcore.argument_type"> = #vhlo.string_v1<"constant">, #vhlo.string_v1<"ttir.name"> = #vhlo.string_v1<"inv_freq">}>} : (!vhlo.tensor_v1<1x1x18x!vhlo.f32_v1>) -> !vhlo.tensor_v1<1x1x18x!vhlo.f32_v1>
    %4 = "vhlo.reshape_v1"(%3) : (!vhlo.tensor_v1<1x1x18x!vhlo.f32_v1>) -> !vhlo.tensor_v1<18x!vhlo.f32_v1>
    %5 = "vhlo.broadcast_in_dim_v1"(%4) <{broadcast_dimensions = #vhlo.tensor_v1<dense<1> : tensor<1xi64>>}> : (!vhlo.tensor_v1<18x!vhlo.f32_v1>) -> !vhlo.tensor_v1<4x18x!vhlo.f32_v1>
    %6 = "vhlo.multiply_v1"(%1, %5) : (!vhlo.tensor_v1<4x18x!vhlo.f32_v1>, !vhlo.tensor_v1<4x18x!vhlo.f32_v1>) -> !vhlo.tensor_v1<4x18x!vhlo.f32_v1>
    "vhlo.return_v1"(%6) : (!vhlo.tensor_v1<4x18x!vhlo.f32_v1>) -> ()
  } {arg_attrs = #vhlo.array_v1<[]>, res_attrs = #vhlo.array_v1<[]>, sym_visibility = #vhlo.string_v1<"">}
}
------------------ END OF MLIR MODULE ------------------
2026-04-23 21:17:27.252 (  22.932s) [        F0E90740]      module_builder.cc:1220     1| MLIR Module shlo:
module @SyncTensorsGraph.12 attributes {mhlo.cross_program_prefetches = [], mhlo.input_output_alias = [], mhlo.is_dynamic = false, mhlo.use_auto_spmd_partitioning = false} {
  func.func @main(%arg0: tensor<18xf32>) -> tensor<4x18xf32> {
    %cst = stablehlo.constant dense<[0.000000e+00, 1.000000e+00, 2.000000e+00, 3.000000e+00]> : tensor<4xf32>
    %0 = stablehlo.broadcast_in_dim %cst, dims = [0] : (tensor<4xf32>) -> tensor<4x18xf32>
    %1 = stablehlo.reshape %arg0 : (tensor<18xf32>) -> tensor<1x1x18xf32>
    %2 = stablehlo.custom_call @tt.mark_argument(%1) {api_version = 0 : i32, mhlo.frontend_attributes = {ttcore.argument_type = "constant", ttir.name = "inv_freq"}} : (tensor<1x1x18xf32>) -> tensor<1x1x18xf32>
    %3 = stablehlo.reshape %2 : (tensor<1x1x18xf32>) -> tensor<18xf32>
    %4 = stablehlo.broadcast_in_dim %3, dims = [1] : (tensor<18xf32>) -> tensor<4x18xf32>
    %5 = stablehlo.multiply %0, %4 : tensor<4x18xf32>
    return %5 : tensor<4x18xf32>
  }
}
------------------ END OF MLIR MODULE ------------------
2026-04-23 21:17:27.253 (  22.933s) [        F0E90740]      module_builder.cc:1220     1| MLIR Module shlo_frontend:
module @SyncTensorsGraph.12 attributes {mhlo.cross_program_prefetches = [], mhlo.input_output_alias = [], mhlo.is_dynamic = false, mhlo.use_auto_spmd_partitioning = false} {
  func.func @main(%arg0: tensor<18xf32> {ttcore.argument_type = #ttcore.argument_type<constant>, ttir.name = "inv_freq"}) -> tensor<4x18xf32> {
    %cst = stablehlo.constant dense<[0.000000e+00, 1.000000e+00, 2.000000e+00, 3.000000e+00]> : tensor<4xf32>
    %0 = stablehlo.broadcast_in_dim %cst, dims = [0] : (tensor<4xf32>) -> tensor<4x18xf32>
    %1 = stablehlo.reshape %arg0 : (tensor<18xf32>) -> tensor<1x1x18xf32>
    %2 = stablehlo.reshape %1 : (tensor<1x1x18xf32>) -> tensor<18xf32>
    %3 = stablehlo.broadcast_in_dim %2, dims = [1] : (tensor<18xf32>) -> tensor<4x18xf32>
    %4 = stablehlo.multiply %0, %3 : tensor<4x18xf32>
    return %4 : tensor<4x18xf32>
  }
}
------------------ END OF MLIR MODULE ------------------
2026-04-23 21:17:27.255 (  22.935s) [        F0E90740]      module_builder.cc:1220     1| MLIR Module shlo_compiler:
module @SyncTensorsGraph.12 attributes {mhlo.cross_program_prefetches = [], mhlo.input_output_alias = [], mhlo.is_dynamic = false, mhlo.use_auto_spmd_partitioning = false} {
  sdy.mesh @mesh = <["x"=1, "y"=1]>
  func.func @main(%arg0: tensor<18xf32> {ttcore.argument_type = #ttcore.argument_type<constant>, ttcore.local_shape = #ttcore<local_shape local_shape = tensor<18xf32>>, ttcore.shard_status = #ttcore.shard_status<unsharded>, ttir.name = "inv_freq"}) -> (tensor<4x18xf32> {ttcore.local_shape = #ttcore<local_shape local_shape = tensor<4x18xf32>>, ttcore.shard_status = #ttcore.shard_status<presharded>}) {
    %cst = stablehlo.constant dense<[0.000000e+00, 1.000000e+00, 2.000000e+00, 3.000000e+00]> : tensor<4xf32>
    %0 = stablehlo.broadcast_in_dim %cst, dims = [0] : (tensor<4xf32>) -> tensor<4x18xf32>
    %1 = stablehlo.reshape %arg0 : (tensor<18xf32>) -> tensor<1x1x18xf32>
    %2 = stablehlo.reshape %1 : (tensor<1x1x18xf32>) -> tensor<18xf32>
    %3 = stablehlo.broadcast_in_dim %2, dims = [1] : (tensor<18xf32>) -> tensor<4x18xf32>
    %4 = stablehlo.multiply %0, %3 : tensor<4x18xf32>
    return %4 : tensor<4x18xf32>
  }
}
------------------ END OF MLIR MODULE ------------------
2026-04-23 21:17:27.256 (  22.936s) [        F0E90740]      module_builder.cc:1220     1| MLIR Module shlo_set_mesh_attr:
module @SyncTensorsGraph.12 attributes {mhlo.cross_program_prefetches = [], mhlo.input_output_alias = [], mhlo.is_dynamic = false, mhlo.use_auto_spmd_partitioning = false} {
  sdy.mesh @mesh = <["x"=1, "y"=1]>
  func.func @main(%arg0: tensor<18xf32> {ttcore.argument_type = #ttcore.argument_type<constant>, ttcore.local_shape = #ttcore<local_shape local_shape = tensor<18xf32>>, ttcore.shard_status = #ttcore.shard_status<unsharded>, ttir.name = "inv_freq"}) -> (tensor<4x18xf32> {ttcore.local_shape = #ttcore<local_shape local_shape = tensor<4x18xf32>>, ttcore.shard_status = #ttcore.shard_status<presharded>}) {
    %cst = stablehlo.constant dense<[0.000000e+00, 1.000000e+00, 2.000000e+00, 3.000000e+00]> : tensor<4xf32>
    %0 = stablehlo.broadcast_in_dim %cst, dims = [0] : (tensor<4xf32>) -> tensor<4x18xf32>
    %1 = stablehlo.reshape %arg0 : (tensor<18xf32>) -> tensor<1x1x18xf32>
    %2 = stablehlo.reshape %1 : (tensor<1x1x18xf32>) -> tensor<18xf32>
    %3 = stablehlo.broadcast_in_dim %2, dims = [1] : (tensor<18xf32>) -> tensor<4x18xf32>
    %4 = stablehlo.multiply %0, %3 : tensor<4x18xf32>
    return %4 : tensor<4x18xf32>
  }
}
------------------ END OF MLIR MODULE ------------------
2026-04-23 21:17:27.256 (  22.936s) [        F0E90740]      module_builder.cc:1220     1| MLIR Module shlo_compiler_cleaned:
module @SyncTensorsGraph.12 attributes {mhlo.cross_program_prefetches = [], mhlo.input_output_alias = [], mhlo.is_dynamic = false, mhlo.use_auto_spmd_partitioning = false} {
  func.func @main(%arg0: tensor<18xf32>) -> tensor<4x18xf32> {
    %cst = stablehlo.constant dense<[0.000000e+00, 1.000000e+00, 2.000000e+00, 3.000000e+00]> : tensor<4xf32>
    %0 = stablehlo.broadcast_in_dim %cst, dims = [0] : (tensor<4xf32>) -> tensor<4x18xf32>
    %1 = stablehlo.reshape %arg0 : (tensor<18xf32>) -> tensor<1x1x18xf32>
    %2 = stablehlo.reshape %1 : (tensor<1x1x18xf32>) -> tensor<18xf32>
    %3 = stablehlo.broadcast_in_dim %2, dims = [1] : (tensor<18xf32>) -> tensor<4x18xf32>
    %4 = stablehlo.multiply %0, %3 : tensor<4x18xf32>
    return %4 : tensor<4x18xf32>
  }
}
------------------ END OF MLIR MODULE ------------------
2026-04-23 21:17:27.258 (  22.938s) [        F0E90740]      module_builder.cc:1220     1| MLIR Module ttir:
module @SyncTensorsGraph.12 attributes {mhlo.cross_program_prefetches = [], mhlo.input_output_alias = [], mhlo.is_dynamic = false, mhlo.use_auto_spmd_partitioning = false, ttcore.meshes = #ttcore.meshes<[<"mesh" = 1x1>]>} {
  ttcore.device_module {
    builtin.module @SyncTensorsGraph.12 attributes {mhlo.cross_program_prefetches = [], mhlo.input_output_alias = [], mhlo.is_dynamic = false, mhlo.use_auto_spmd_partitioning = false, ttcore.meshes = #ttcore.meshes<[<"mesh" = 1x1>]>} {
      func.func @main(%arg0: tensor<18xf32> {ttcore.argument_type = #ttcore.argument_type<constant>, ttcore.local_shape = #ttcore<local_shape local_shape = tensor<18xf32>>, ttcore.shard_status = #ttcore.shard_status<unsharded>, ttir.name = "inv_freq"}) -> (tensor<4x18xf32> {ttcore.local_shape = #ttcore<local_shape local_shape = tensor<4x18xf32>>, ttcore.shard_status = #ttcore.shard_status<presharded>}) {
        %0 = "ttir.constant"() <{value = dense<[0.000000e+00, 1.000000e+00, 2.000000e+00, 3.000000e+00]> : tensor<4xf32>}> : () -> tensor<4xf32>
        %1 = "ttir.reshape"(%0) <{shape = [4 : i32, 1 : i32]}> : (tensor<4xf32>) -> tensor<4x1xf32>
        %2 = "ttir.broadcast"(%1) <{broadcast_dimensions = array<i64: 1, 18>}> : (tensor<4x1xf32>) -> tensor<4x18xf32>
        %3 = "ttir.reshape"(%arg0) <{shape = [1 : i32, 18 : i32]}> : (tensor<18xf32>) -> tensor<1x18xf32>
        %4 = "ttir.broadcast"(%3) <{broadcast_dimensions = array<i64: 4, 1>}> : (tensor<1x18xf32>) -> tensor<4x18xf32>
        %5 = "ttir.multiply"(%2, %4) : (tensor<4x18xf32>, tensor<4x18xf32>) -> tensor<4x18xf32>
        return %5 : tensor<4x18xf32>
      }
    }
  }
}
------------------ END OF MLIR MODULE ------------------
2026-04-23 21:17:27.277 (  22.957s) [        F0E90740]      module_builder.cc:1220     1| MLIR Module ttnn:
#dram = #ttnn.buffer_type<dram>
#system_desc = #ttcore.system_desc<[{role = host, target_triple = "x86_64-pc-linux"}], [{arch = <wormhole_b0>, grid = 8x8, coord_translation_offsets = 18x18, l1_size = 1499136, num_dram_channels = 12, dram_channel_size = 1073741824, noc_l1_address_align_bytes = 16, pcie_address_align_bytes = 32, noc_dram_address_align_bytes = 32, l1_unreserved_base = 103712, erisc_l1_unreserved_base = 98304, dram_unreserved_base = 1920032, dram_unreserved_end = 1073119552, supported_data_types = [<f32>, <f16>, <bf16>, <bfp_f8>, <bfp_bf8>, <bfp_f4>, <bfp_bf4>, <bfp_f2>, <bfp_bf2>, <u32>, <u16>, <u8>, <si32>], supported_tile_sizes = [ 4x16,  16x16,  32x16,  4x32,  16x32,  32x32], dst_physical_size_tiles = 16, num_cbs = 64, num_compute_threads = 1, num_datamovement_threads = 2}], [0], [1 : i32], [ 0x0x0x0]>
#system_memory = #ttnn.buffer_type<system_memory>
#ttnn_layout = #ttnn.ttnn_layout<(d0) -> (0, d0), <1x1>, memref<1x18xf32, #system_memory>>
#ttnn_layout1 = #ttnn.ttnn_layout<(d0, d1) -> (d0, d1), <1x1>, memref<1x1x!ttcore.tile<32x32, f32>, #dram>, <interleaved>>
#ttnn_layout2 = #ttnn.ttnn_layout<(d0, d1) -> (d0, d1), <1x1>, memref<4x18xf32, #system_memory>>
#ttnn_layout3 = #ttnn.ttnn_layout<(d0, d1) -> (d0, d1), <1x1>, memref<1x1x!ttcore.tile<32x32, f32>, #system_memory>>
module @SyncTensorsGraph.12 attributes {mhlo.cross_program_prefetches = [], mhlo.input_output_alias = [], mhlo.is_dynamic = false, mhlo.use_auto_spmd_partitioning = false, ttcore.meshes = #ttcore.meshes<[<"mesh" = 1x1>]>} {
  ttcore.device_module {
    builtin.module @SyncTensorsGraph.12 attributes {mhlo.cross_program_prefetches = [], mhlo.input_output_alias = [], mhlo.is_dynamic = false, mhlo.use_auto_spmd_partitioning = false, ttcore.meshes = #ttcore.meshes<[<"mesh" = 1x1>]>, ttcore.system_desc = #system_desc} {
      ttcore.device @default_device = <workerGrid = #ttcore.grid<8x8, virt_to_physical_map = (d0, d1) -> (0, d0, d1), physical_to_virt_map = (d0, d1, d2) -> (d1, d2)>, l1Map = (d0, d1, d2)[s0] -> (0, d0, d1, d2 + s0), dramMap = (d0, d1, d2)[s0, s1, s2, s3, s4, s5, s6] -> (0, 0, (((d0 * s1) * (s2 * (s3 * s6)) + d1 * (s2 * (s3 * s6)) + d2) floordiv s4) mod 12, ((((d0 * s1) * (s2 * (s3 * s6)) + d1 * (s2 * (s3 * s6)) + d2) floordiv s4) floordiv 12) * s4 + ((d0 * s1) * (s2 * (s3 * s6)) + d1 * (s2 * (s3 * s6)) + d2) mod s4 + s5), meshShape = 1x1, chipIds = [0]>
      func.func private @main_const_eval_0(%arg0: tensor<18xf32, #ttnn_layout>) -> tensor<4x18xf32, #ttnn_layout1> attributes {tt.function_type = "const_eval"} {
        %0 = "ttnn.get_device"() <{mesh_offset = #ttnn<mesh_offset 0x0>, mesh_shape = #ttnn<mesh_shape 1x1>}> : () -> !ttnn.device
        %1 = call @cpu_hoisted_const_eval_390bb380(%arg0) {ttir.cpu_hoist_call} : (tensor<18xf32, #ttnn_layout>) -> tensor<4x18xf32, #ttnn_layout2>
        %2 = "ttnn.to_layout"(%1) <{layout = #ttnn.layout<tile>}> : (tensor<4x18xf32, #ttnn_layout2>) -> tensor<4x18xf32, #ttnn_layout3>
        "ttnn.deallocate"(%1) <{force = false}> : (tensor<4x18xf32, #ttnn_layout2>) -> ()
        %3 = "ttnn.to_device"(%2, %0) <{memory_config = #ttnn.memory_config<#dram, <interleaved>>}> : (tensor<4x18xf32, #ttnn_layout3>, !ttnn.device) -> tensor<4x18xf32, #ttnn_layout1>
        "ttnn.deallocate"(%2) <{force = false}> : (tensor<4x18xf32, #ttnn_layout3>) -> ()
        return %3 : tensor<4x18xf32, #ttnn_layout1>
      }
      func.func @main(%arg0: tensor<18xf32, #ttnn_layout> {ttcore.argument_type = #ttcore.argument_type<constant>, ttcore.local_shape = #ttcore<local_shape local_shape = tensor<18xf32>>, ttcore.shard_status = #ttcore.shard_status<unsharded>, ttir.name = "inv_freq"}) -> (tensor<4x18xf32, #ttnn_layout1> {ttcore.local_shape = #ttcore<local_shape local_shape = tensor<4x18xf32>>, ttcore.shard_status = #ttcore.shard_status<presharded>}) attributes {tt.function_type = "forward_device"} {
        %0 = ttcore.load_cached(@main_const_eval_0, [%arg0]) : (tensor<18xf32, #ttnn_layout>) -> tensor<4x18xf32, #ttnn_layout1>
        "ttnn.deallocate"(%arg0) <{force = false}> : (tensor<18xf32, #ttnn_layout>) -> ()
        return %0 : tensor<4x18xf32, #ttnn_layout1>
      }
      func.func private @cpu_hoisted_const_eval_390bb380(tensor<18xf32, #ttnn_layout>) -> tensor<4x18xf32, #ttnn_layout2> attributes {func_hash = "390bb3808eb64cb65db8292b914ebbd58eac958b906c2462fc6817f9644a5975", tt.function_type = "forward_cpu_declaration"}
    }
  }
  ttcore.cpu_module {
    builtin.module {
      llvm.func @malloc(i64) -> !llvm.ptr
      llvm.mlir.global private constant @__constant_4x1xf32(dense<[[0.000000e+00], [1.000000e+00], [2.000000e+00], [3.000000e+00]]> : tensor<4x1xf32>) {addr_space = 0 : i32, alignment = 64 : i64} : !llvm.array<4 x array<1 x f32>>
      llvm.func @cpu_hoisted_const_eval_390bb380(%arg0: !llvm.ptr, %arg1: !llvm.ptr, %arg2: i64, %arg3: i64, %arg4: i64) -> !llvm.struct<(ptr, ptr, i64, array<2 x i64>, array<2 x i64>)> attributes {arg_ranks = [1], func_hash = "390bb3808eb64cb65db8292b914ebbd58eac958b906c2462fc6817f9644a5975", result_ranks = [2], tt.function_type = "forward_cpu"} {
        %0 = llvm.mlir.zero : !llvm.ptr
        %1 = llvm.mlir.addressof @__constant_4x1xf32 : !llvm.ptr
        %2 = llvm.mlir.poison : !llvm.struct<(ptr, ptr, i64, array<2 x i64>, array<2 x i64>)>
        %3 = llvm.mlir.constant(64 : index) : i64
        %4 = llvm.mlir.constant(0 : index) : i64
        %5 = llvm.mlir.constant(4 : index) : i64
        %6 = llvm.mlir.constant(1 : index) : i64
        %7 = llvm.mlir.constant(18 : index) : i64
        %8 = llvm.getelementptr %1[0, 0, 0] : (!llvm.ptr) -> !llvm.ptr, !llvm.array<4 x array<1 x f32>>
        %9 = llvm.getelementptr %0[72] : (!llvm.ptr) -> !llvm.ptr, f32
        %10 = llvm.ptrtoint %9 : !llvm.ptr to i64
        %11 = llvm.add %10, %3 : i64
        %12 = llvm.call @malloc(%11) : (i64) -> !llvm.ptr
        %13 = llvm.ptrtoint %12 : !llvm.ptr to i64
        %14 = llvm.sub %3, %6 : i64
        %15 = llvm.add %13, %14 : i64
        %16 = llvm.urem %15, %3 : i64
        %17 = llvm.sub %15, %16 : i64
        %18 = llvm.inttoptr %17 : i64 to !llvm.ptr
        %19 = llvm.insertvalue %12, %2[0] : !llvm.struct<(ptr, ptr, i64, array<2 x i64>, array<2 x i64>)> 
        %20 = llvm.insertvalue %18, %19[1] : !llvm.struct<(ptr, ptr, i64, array<2 x i64>, array<2 x i64>)> 
        %21 = llvm.insertvalue %4, %20[2] : !llvm.struct<(ptr, ptr, i64, array<2 x i64>, array<2 x i64>)> 
        %22 = llvm.insertvalue %5, %21[3, 0] : !llvm.struct<(ptr, ptr, i64, array<2 x i64>, array<2 x i64>)> 
        %23 = llvm.insertvalue %7, %22[3, 1] : !llvm.struct<(ptr, ptr, i64, array<2 x i64>, array<2 x i64>)> 
        %24 = llvm.insertvalue %7, %23[4, 0] : !llvm.struct<(ptr, ptr, i64, array<2 x i64>, array<2 x i64>)> 
        %25 = llvm.insertvalue %6, %24[4, 1] : !llvm.struct<(ptr, ptr, i64, array<2 x i64>, array<2 x i64>)> 
        llvm.br ^bb1(%4 : i64)
      ^bb1(%26: i64):  // 2 preds: ^bb0, ^bb5
        %27 = llvm.icmp "slt" %26, %5 : i64
        llvm.cond_br %27, ^bb2, ^bb6
      ^bb2:  // pred: ^bb1
        llvm.br ^bb3(%4 : i64)
      ^bb3(%28: i64):  // 2 preds: ^bb2, ^bb4
        %29 = llvm.icmp "slt" %28, %7 : i64
        llvm.cond_br %29, ^bb4, ^bb5
      ^bb4:  // pred: ^bb3
        %30 = llvm.add %26, %4 overflow<nsw, nuw> : i64
        %31 = llvm.getelementptr inbounds|nuw %8[%30] : (!llvm.ptr, i64) -> !llvm.ptr, f32
        %32 = llvm.load %31 : !llvm.ptr -> f32
        %33 = llvm.mul %4, %7 overflow<nsw, nuw> : i64
        %34 = llvm.add %33, %28 overflow<nsw, nuw> : i64
        %35 = llvm.getelementptr inbounds|nuw %arg1[%34] : (!llvm.ptr, i64) -> !llvm.ptr, f32
        %36 = llvm.load %35 : !llvm.ptr -> f32
        %37 = llvm.fmul %32, %36 : f32
        %38 = llvm.mul %26, %7 overflow<nsw, nuw> : i64
        %39 = llvm.add %38, %28 overflow<nsw, nuw> : i64
        %40 = llvm.getelementptr inbounds|nuw %18[%39] : (!llvm.ptr, i64) -> !llvm.ptr, f32
        llvm.store %37, %40 : f32, !llvm.ptr
        %41 = llvm.add %28, %6 : i64
        llvm.br ^bb3(%41 : i64)
      ^bb5:  // pred: ^bb3
        %42 = llvm.add %26, %6 : i64
        llvm.br ^bb1(%42 : i64)
      ^bb6:  // pred: ^bb1
        llvm.return %25 : !llvm.struct<(ptr, ptr, i64, array<2 x i64>, array<2 x i64>)>
      }
      llvm.func @cpu_hoisted_const_eval_390bb380_helper(%arg0: !llvm.ptr) -> !llvm.ptr {
        %0 = llvm.mlir.constant(0 : i64) : i64
        %1 = llvm.mlir.constant(4 : i64) : i64
        %2 = llvm.mul %0, %1 : i64
        %3 = llvm.getelementptr inbounds %arg0[%2] : (!llvm.ptr, i64) -> !llvm.ptr, !llvm.ptr
        %4 = llvm.load %3 : !llvm.ptr -> !llvm.struct<(ptr, ptr, i64, ptr)>
        %5 = llvm.extractvalue %4[0] : !llvm.struct<(ptr, ptr, i64, ptr)> 
        %6 = llvm.extractvalue %4[1] : !llvm.struct<(ptr, ptr, i64, ptr)> 
        %7 = llvm.extractvalue %4[2] : !llvm.struct<(ptr, ptr, i64, ptr)> 
        %8 = llvm.extractvalue %4[3] : !llvm.struct<(ptr, ptr, i64, ptr)> 
        %9 = llvm.mlir.constant(0 : i64) : i64
        %10 = llvm.getelementptr %8[%9] : (!llvm.ptr, i64) -> !llvm.ptr, !llvm.ptr
        %11 = llvm.load %10 : !llvm.ptr -> i64
        %12 = llvm.mlir.constant(1 : i64) : i64
        %13 = llvm.getelementptr %8[%12] : (!llvm.ptr, i64) -> !llvm.ptr, !llvm.ptr
        %14 = llvm.load %13 : !llvm.ptr -> i64
        %15 = llvm.call @cpu_hoisted_const_eval_390bb380(%5, %6, %7, %11, %14) : (!llvm.ptr, !llvm.ptr, i64, i64, i64) -> !llvm.struct<(ptr, ptr, i64, array<2 x i64>, array<2 x i64>)>
        %16 = llvm.mlir.constant(32 : i64) : i64
        %17 = llvm.call @malloc(%16) : (i64) -> !llvm.ptr
        %18 = llvm.mlir.constant(32 : i64) : i64
        %19 = llvm.call @malloc(%18) : (i64) -> !llvm.ptr
        %20 = llvm.extractvalue %15[0] : !llvm.struct<(ptr, ptr, i64, array<2 x i64>, array<2 x i64>)> 
        %21 = llvm.extractvalue %15[1] : !llvm.struct<(ptr, ptr, i64, array<2 x i64>, array<2 x i64>)> 
        %22 = llvm.extractvalue %15[2] : !llvm.struct<(ptr, ptr, i64, array<2 x i64>, array<2 x i64>)> 
        %23 = llvm.mlir.constant(0 : i64) : i64
        %24 = llvm.getelementptr %19[%23] : (!llvm.ptr, i64) -> !llvm.ptr, i8
        %25 = llvm.extractvalue %15[3, 0] : !llvm.struct<(ptr, ptr, i64, array<2 x i64>, array<2 x i64>)> 
        %26 = llvm.mlir.constant(0 : i64) : i64
        %27 = llvm.getelementptr %24[%26] : (!llvm.ptr, i64) -> !llvm.ptr, i64
        llvm.store %25, %27 : i64, !llvm.ptr
        %28 = llvm.extractvalue %15[3, 1] : !llvm.struct<(ptr, ptr, i64, array<2 x i64>, array<2 x i64>)> 
        %29 = llvm.mlir.constant(1 : i64) : i64
        %30 = llvm.getelementptr %24[%29] : (!llvm.ptr, i64) -> !llvm.ptr, i64
        llvm.store %28, %30 : i64, !llvm.ptr
        %31 = llvm.extractvalue %15[4, 0] : !llvm.struct<(ptr, ptr, i64, array<2 x i64>, array<2 x i64>)> 
        %32 = llvm.mlir.constant(2 : i64) : i64
        %33 = llvm.getelementptr %24[%32] : (!llvm.ptr, i64) -> !llvm.ptr, i64
        llvm.store %31, %33 : i64, !llvm.ptr
        %34 = llvm.extractvalue %15[4, 1] : !llvm.struct<(ptr, ptr, i64, array<2 x i64>, array<2 x i64>)> 
        %35 = llvm.mlir.constant(3 : i64) : i64
        %36 = llvm.getelementptr %24[%35] : (!llvm.ptr, i64) -> !llvm.ptr, i64
        llvm.store %34, %36 : i64, !llvm.ptr
        %37 = llvm.mlir.undef : !llvm.struct<(ptr, ptr, i64, ptr)>
        %38 = llvm.insertvalue %20, %37[0] : !llvm.struct<(ptr, ptr, i64, ptr)> 
        %39 = llvm.insertvalue %21, %38[1] : !llvm.struct<(ptr, ptr, i64, ptr)> 
        %40 = llvm.insertvalue %22, %39[2] : !llvm.struct<(ptr, ptr, i64, ptr)> 
        %41 = llvm.insertvalue %24, %40[3] : !llvm.struct<(ptr, ptr, i64, ptr)> 
        %42 = llvm.mlir.constant(0 : i64) : i64
        %43 = llvm.getelementptr %17[%42] : (!llvm.ptr, i64) -> !llvm.ptr, !llvm.struct<(ptr, ptr, i64, ptr)>
        llvm.store %41, %43 : !llvm.struct<(ptr, ptr, i64, ptr)>, !llvm.ptr
        llvm.return %17 : !llvm.ptr
      }
    }
  }
}
------------------ END OF MLIR MODULE ------------------
2026-04-23 21:17:27.631 | DEBUG    | tt_torch.backend.metadata_propagation:_extract_source_and_module_hierarchy_info:289 - Function name mismatch between stack_trace and found_func_name modes
stack_trace: torch_dynamo_resume_in_forward_at_1242
found_func_name: forward
found_func_name_ast: forward
2026-04-23 21:17:27.646 | DEBUG    | tt_torch.backend.metadata_propagation:_extract_source_and_module_hierarchy_info:289 - Function name mismatch between stack_trace and found_func_name modes
stack_trace: torch_dynamo_resume_in_forward_at_1242
found_func_name: forward
found_func_name_ast: forward
2026-04-23 21:17:27.661 | DEBUG    | tt_torch.backend.metadata_propagation:_extract_source_and_module_hierarchy_info:289 - Function name mismatch between stack_trace and found_func_name modes
stack_trace: torch_dynamo_resume_in_forward_at_1242
found_func_name: forward
found_func_name_ast: forward
2026-04-23 21:17:27.676 | DEBUG    | tt_torch.backend.metadata_propagation:_extract_source_and_module_hierarchy_info:289 - Function name mismatch between stack_trace and found_func_name modes
stack_trace: torch_dynamo_resume_in_forward_at_1242
found_func_name: forward
found_func_name_ast: forward
2026-04-23 21:17:27.691 | DEBUG    | tt_torch.backend.metadata_propagation:_extract_source_and_module_hierarchy_info:289 - Function name mismatch between stack_trace and found_func_name modes
stack_trace: torch_dynamo_resume_in_forward_at_1242
found_func_name: forward
found_func_name_ast: forward
2026-04-23 21:17:27.706 | DEBUG    | tt_torch.backend.metadata_propagation:_extract_source_and_module_hierarchy_info:289 - Function name mismatch between stack_trace and found_func_name modes
stack_trace: torch_dynamo_resume_in_forward_at_1242
found_func_name: forward
found_func_name_ast: forward
2026-04-23 21:17:27.721 | DEBUG    | tt_torch.backend.metadata_propagation:_extract_source_and_module_hierarchy_info:289 - Function name mismatch between stack_trace and found_func_name modes
stack_trace: torch_dynamo_resume_in_forward_at_1242
found_func_name: forward
found_func_name_ast: forward
2026-04-23 21:17:27.736 | DEBUG    | tt_torch.backend.metadata_propagation:_extract_source_and_module_hierarchy_info:289 - Function name mismatch between stack_trace and found_func_name modes
stack_trace: torch_dynamo_resume_in_forward_at_1242
found_func_name: forward
found_func_name_ast: forward
2026-04-23 21:17:27.751 | DEBUG    | tt_torch.backend.metadata_propagation:_extract_source_and_module_hierarchy_info:289 - Function name mismatch between stack_trace and found_func_name modes
stack_trace: torch_dynamo_resume_in_forward_at_1242
found_func_name: forward
found_func_name_ast: forward
2026-04-23 21:17:27.851 (  23.531s) [        F0E90740]      module_builder.cc:1220     1| MLIR Module vhlo:
module @SyncTensorsGraph.66 attributes {mhlo.cross_program_prefetches = [], mhlo.input_output_alias = [], mhlo.is_dynamic = false, mhlo.use_auto_spmd_partitioning = false} {
  vhlo.func_v1 @main(%arg0: !vhlo.tensor_v1<4x18x!vhlo.f32_v1>) -> (!vhlo.tensor_v1<16x2x18x!vhlo.f32_v1>, !vhlo.tensor_v1<16x36x!vhlo.f32_v1>) {
    %0 = "vhlo.constant_v1"() <{value = #vhlo.tensor_v1<dense<4> : tensor<16x2xi64>>}> : () -> !vhlo.tensor_v1<16x2x!vhlo.i64_v1>
    %1 = "vhlo.constant_v1"() <{value = #vhlo.tensor_v1<dense<0> : tensor<16x2xi64>>}> : () -> !vhlo.tensor_v1<16x2x!vhlo.i64_v1>
    %2 = "vhlo.constant_v1"() <{value = #vhlo.tensor_v1<dense<[[[0, 1]]]> : tensor<1x1x2xi64>>}> : () -> !vhlo.tensor_v1<1x1x2x!vhlo.i64_v1>
    %3 = "vhlo.constant_v1"() <{value = #vhlo.tensor_v1<dense<[[[0], [2]]]> : tensor<1x2x1xi64>>}> : () -> !vhlo.tensor_v1<1x2x1x!vhlo.i64_v1>
    %4 = "vhlo.constant_v1"() <{value = #vhlo.tensor_v1<dense<[[[0], [1]]]> : tensor<1x2x1xi64>>}> : () -> !vhlo.tensor_v1<1x2x1x!vhlo.i64_v1>
    %5 = "vhlo.constant_v1"() <{value = #vhlo.tensor_v1<dense<[[[0]], [[2]]]> : tensor<2x1x1xi64>>}> : () -> !vhlo.tensor_v1<2x1x1x!vhlo.i64_v1>
    %6 = "vhlo.broadcast_in_dim_v1"(%5) <{broadcast_dimensions = #vhlo.tensor_v1<dense<[0, 1, 3]> : tensor<3xi64>>}> : (!vhlo.tensor_v1<2x1x1x!vhlo.i64_v1>) -> !vhlo.tensor_v1<2x1x2x1x!vhlo.i64_v1>
    %7 = "vhlo.broadcast_in_dim_v1"(%4) <{broadcast_dimensions = #vhlo.tensor_v1<dense<[1, 2, 3]> : tensor<3xi64>>}> : (!vhlo.tensor_v1<1x2x1x!vhlo.i64_v1>) -> !vhlo.tensor_v1<2x1x2x1x!vhlo.i64_v1>
    %8 = "vhlo.add_v1"(%6, %7) : (!vhlo.tensor_v1<2x1x2x1x!vhlo.i64_v1>, !vhlo.tensor_v1<2x1x2x1x!vhlo.i64_v1>) -> !vhlo.tensor_v1<2x1x2x1x!vhlo.i64_v1>
    %9 = "vhlo.reshape_v1"(%8) : (!vhlo.tensor_v1<2x1x2x1x!vhlo.i64_v1>) -> !vhlo.tensor_v1<2x2x!vhlo.i64_v1>
    %10 = "vhlo.broadcast_in_dim_v1"(%9) <{broadcast_dimensions = #vhlo.tensor_v1<dense<[0, 2]> : tensor<2xi64>>}> : (!vhlo.tensor_v1<2x2x!vhlo.i64_v1>) -> !vhlo.tensor_v1<2x2x2x2x!vhlo.i64_v1>
    %11 = "vhlo.reshape_v1"(%10) : (!vhlo.tensor_v1<2x2x2x2x!vhlo.i64_v1>) -> !vhlo.tensor_v1<16x1x!vhlo.i64_v1>
    %12 = "vhlo.broadcast_in_dim_v1"(%3) <{broadcast_dimensions = #vhlo.tensor_v1<dense<[0, 1, 2]> : tensor<3xi64>>}> : (!vhlo.tensor_v1<1x2x1x!vhlo.i64_v1>) -> !vhlo.tensor_v1<1x2x1x2x!vhlo.i64_v1>
    %13 = "vhlo.broadcast_in_dim_v1"(%2) <{broadcast_dimensions = #vhlo.tensor_v1<dense<[0, 2, 3]> : tensor<3xi64>>}> : (!vhlo.tensor_v1<1x1x2x!vhlo.i64_v1>) -> !vhlo.tensor_v1<1x2x1x2x!vhlo.i64_v1>
    %14 = "vhlo.add_v1"(%12, %13) : (!vhlo.tensor_v1<1x2x1x2x!vhlo.i64_v1>, !vhlo.tensor_v1<1x2x1x2x!vhlo.i64_v1>) -> !vhlo.tensor_v1<1x2x1x2x!vhlo.i64_v1>
    %15 = "vhlo.reshape_v1"(%14) : (!vhlo.tensor_v1<1x2x1x2x!vhlo.i64_v1>) -> !vhlo.tensor_v1<2x2x!vhlo.i64_v1>
    %16 = "vhlo.broadcast_in_dim_v1"(%15) <{broadcast_dimensions = #vhlo.tensor_v1<dense<[1, 3]> : tensor<2xi64>>}> : (!vhlo.tensor_v1<2x2x!vhlo.i64_v1>) -> !vhlo.tensor_v1<2x2x2x2x!vhlo.i64_v1>
    %17 = "vhlo.reshape_v1"(%16) : (!vhlo.tensor_v1<2x2x2x2x!vhlo.i64_v1>) -> !vhlo.tensor_v1<16x1x!vhlo.i64_v1>
    %18 = "vhlo.concatenate_v1"(%11, %17) <{dimension = #vhlo.integer_v1<1 : i64>}> : (!vhlo.tensor_v1<16x1x!vhlo.i64_v1>, !vhlo.tensor_v1<16x1x!vhlo.i64_v1>) -> !vhlo.tensor_v1<16x2x!vhlo.i64_v1>
    %19 = "vhlo.compare_v1"(%18, %1) <{compare_type = #vhlo<comparison_type_v1 NOTYPE>, comparison_direction = #vhlo<comparison_direction_v1 LT>}> : (!vhlo.tensor_v1<16x2x!vhlo.i64_v1>, !vhlo.tensor_v1<16x2x!vhlo.i64_v1>) -> !vhlo.tensor_v1<16x2x!vhlo.bool_v1>
    %20 = "vhlo.add_v1"(%18, %0) : (!vhlo.tensor_v1<16x2x!vhlo.i64_v1>, !vhlo.tensor_v1<16x2x!vhlo.i64_v1>) -> !vhlo.tensor_v1<16x2x!vhlo.i64_v1>
    %21 = "vhlo.select_v1"(%19, %20, %18) : (!vhlo.tensor_v1<16x2x!vhlo.bool_v1>, !vhlo.tensor_v1<16x2x!vhlo.i64_v1>, !vhlo.tensor_v1<16x2x!vhlo.i64_v1>) -> !vhlo.tensor_v1<16x2x!vhlo.i64_v1>
    %22 = "vhlo.reshape_v1"(%21) : (!vhlo.tensor_v1<16x2x!vhlo.i64_v1>) -> !vhlo.tensor_v1<16x2x1x!vhlo.i64_v1>
    %23 = "vhlo.gather_v2"(%arg0, %22) <{collapsed_slice_dims = #vhlo.tensor_v1<dense<0> : tensor<1xi64>>, index_vector_dim = #vhlo.integer_v1<2 : i64>, indices_are_sorted = #vhlo.bool_v1<false>, offset_dims = #vhlo.tensor_v1<dense<2> : tensor<1xi64>>, operand_batching_dims = #vhlo.tensor_v1<dense<> : tensor<0xi64>>, slice_sizes = #vhlo.tensor_v1<dense<[1, 18]> : tensor<2xi64>>, start_index_map = #vhlo.tensor_v1<dense<0> : tensor<1xi64>>, start_indices_batching_dims = #vhlo.tensor_v1<dense<> : tensor<0xi64>>}> : (!vhlo.tensor_v1<4x18x!vhlo.f32_v1>, !vhlo.tensor_v1<16x2x1x!vhlo.i64_v1>) -> !vhlo.tensor_v1<16x2x18x!vhlo.f32_v1>
    %24 = "vhlo.reshape_v1"(%23) : (!vhlo.tensor_v1<16x2x18x!vhlo.f32_v1>) -> !vhlo.tensor_v1<16x36x!vhlo.f32_v1>
    "vhlo.return_v1"(%23, %24) : (!vhlo.tensor_v1<16x2x18x!vhlo.f32_v1>, !vhlo.tensor_v1<16x36x!vhlo.f32_v1>) -> ()
  } {arg_attrs = #vhlo.array_v1<[]>, res_attrs = #vhlo.array_v1<[]>, sym_visibility = #vhlo.string_v1<"">}
}
------------------ END OF MLIR MODULE ------------------
2026-04-23 21:17:27.853 (  23.533s) [        F0E90740]      module_builder.cc:1220     1| MLIR Module shlo:
module @SyncTensorsGraph.66 attributes {mhlo.cross_program_prefetches = [], mhlo.input_output_alias = [], mhlo.is_dynamic = false, mhlo.use_auto_spmd_partitioning = false} {
  func.func @main(%arg0: tensor<4x18xf32>) -> (tensor<16x2x18xf32>, tensor<16x36xf32>) {
    %c = stablehlo.constant dense<4> : tensor<16x2xi64>
    %c_0 = stablehlo.constant dense<0> : tensor<16x2xi64>
    %c_1 = stablehlo.constant dense<[[[0, 1]]]> : tensor<1x1x2xi64>
    %c_2 = stablehlo.constant dense<[[[0], [2]]]> : tensor<1x2x1xi64>
    %c_3 = stablehlo.constant dense<[[[0], [1]]]> : tensor<1x2x1xi64>
    %c_4 = stablehlo.constant dense<[[[0]], [[2]]]> : tensor<2x1x1xi64>
    %0 = stablehlo.broadcast_in_dim %c_4, dims = [0, 1, 3] : (tensor<2x1x1xi64>) -> tensor<2x1x2x1xi64>
    %1 = stablehlo.broadcast_in_dim %c_3, dims = [1, 2, 3] : (tensor<1x2x1xi64>) -> tensor<2x1x2x1xi64>
    %2 = stablehlo.add %0, %1 : tensor<2x1x2x1xi64>
    %3 = stablehlo.reshape %2 : (tensor<2x1x2x1xi64>) -> tensor<2x2xi64>
    %4 = stablehlo.broadcast_in_dim %3, dims = [0, 2] : (tensor<2x2xi64>) -> tensor<2x2x2x2xi64>
    %5 = stablehlo.reshape %4 : (tensor<2x2x2x2xi64>) -> tensor<16x1xi64>
    %6 = stablehlo.broadcast_in_dim %c_2, dims = [0, 1, 2] : (tensor<1x2x1xi64>) -> tensor<1x2x1x2xi64>
    %7 = stablehlo.broadcast_in_dim %c_1, dims = [0, 2, 3] : (tensor<1x1x2xi64>) -> tensor<1x2x1x2xi64>
    %8 = stablehlo.add %6, %7 : tensor<1x2x1x2xi64>
    %9 = stablehlo.reshape %8 : (tensor<1x2x1x2xi64>) -> tensor<2x2xi64>
    %10 = stablehlo.broadcast_in_dim %9, dims = [1, 3] : (tensor<2x2xi64>) -> tensor<2x2x2x2xi64>
    %11 = stablehlo.reshape %10 : (tensor<2x2x2x2xi64>) -> tensor<16x1xi64>
    %12 = stablehlo.concatenate %5, %11, dim = 1 : (tensor<16x1xi64>, tensor<16x1xi64>) -> tensor<16x2xi64>
    %13 = stablehlo.compare  LT, %12, %c_0 : (tensor<16x2xi64>, tensor<16x2xi64>) -> tensor<16x2xi1>
    %14 = stablehlo.add %12, %c : tensor<16x2xi64>
    %15 = stablehlo.select %13, %14, %12 : tensor<16x2xi1>, tensor<16x2xi64>
    %16 = stablehlo.reshape %15 : (tensor<16x2xi64>) -> tensor<16x2x1xi64>
    %17 = "stablehlo.gather"(%arg0, %16) <{dimension_numbers = #stablehlo.gather<offset_dims = [2], collapsed_slice_dims = [0], start_index_map = [0], index_vector_dim = 2>, slice_sizes = array<i64: 1, 18>}> : (tensor<4x18xf32>, tensor<16x2x1xi64>) -> tensor<16x2x18xf32>
    %18 = stablehlo.reshape %17 : (tensor<16x2x18xf32>) -> tensor<16x36xf32>
    return %17, %18 : tensor<16x2x18xf32>, tensor<16x36xf32>
  }
}
------------------ END OF MLIR MODULE ------------------
2026-04-23 21:17:27.855 (  23.535s) [        F0E90740]      module_builder.cc:1220     1| MLIR Module shlo_frontend:
module @SyncTensorsGraph.66 attributes {mhlo.cross_program_prefetches = [], mhlo.input_output_alias = [], mhlo.is_dynamic = false, mhlo.use_auto_spmd_partitioning = false} {
  func.func @main(%arg0: tensor<4x18xf32> {ttcore.argument_type = #ttcore.argument_type<input>}) -> (tensor<16x2x18xf32>, tensor<16x36xf32>) {
    %c = stablehlo.constant dense<4> : tensor<16x2xi64>
    %c_0 = stablehlo.constant dense<0> : tensor<16x2xi64>
    %c_1 = stablehlo.constant dense<[[[0, 1]]]> : tensor<1x1x2xi64>
    %c_2 = stablehlo.constant dense<[[[0], [2]]]> : tensor<1x2x1xi64>
    %c_3 = stablehlo.constant dense<[[[0], [1]]]> : tensor<1x2x1xi64>
    %c_4 = stablehlo.constant dense<[[[0]], [[2]]]> : tensor<2x1x1xi64>
    %0 = stablehlo.broadcast_in_dim %c_4, dims = [0, 1, 3] : (tensor<2x1x1xi64>) -> tensor<2x1x2x1xi64>
    %1 = stablehlo.broadcast_in_dim %c_3, dims = [1, 2, 3] : (tensor<1x2x1xi64>) -> tensor<2x1x2x1xi64>
    %2 = stablehlo.add %0, %1 : tensor<2x1x2x1xi64>
    %3 = stablehlo.reshape %2 : (tensor<2x1x2x1xi64>) -> tensor<2x2xi64>
    %4 = stablehlo.broadcast_in_dim %3, dims = [0, 2] : (tensor<2x2xi64>) -> tensor<2x2x2x2xi64>
    %5 = stablehlo.reshape %4 : (tensor<2x2x2x2xi64>) -> tensor<16x1xi64>
    %6 = stablehlo.broadcast_in_dim %c_2, dims = [0, 1, 2] : (tensor<1x2x1xi64>) -> tensor<1x2x1x2xi64>
    %7 = stablehlo.broadcast_in_dim %c_1, dims = [0, 2, 3] : (tensor<1x1x2xi64>) -> tensor<1x2x1x2xi64>
    %8 = stablehlo.add %6, %7 : tensor<1x2x1x2xi64>
    %9 = stablehlo.reshape %8 : (tensor<1x2x1x2xi64>) -> tensor<2x2xi64>
    %10 = stablehlo.broadcast_in_dim %9, dims = [1, 3] : (tensor<2x2xi64>) -> tensor<2x2x2x2xi64>
    %11 = stablehlo.reshape %10 : (tensor<2x2x2x2xi64>) -> tensor<16x1xi64>
    %12 = stablehlo.concatenate %5, %11, dim = 1 : (tensor<16x1xi64>, tensor<16x1xi64>) -> tensor<16x2xi64>
    %13 = stablehlo.compare  LT, %12, %c_0 : (tensor<16x2xi64>, tensor<16x2xi64>) -> tensor<16x2xi1>
    %14 = stablehlo.add %12, %c : tensor<16x2xi64>
    %15 = stablehlo.select %13, %14, %12 : tensor<16x2xi1>, tensor<16x2xi64>
    %16 = stablehlo.reshape %15 : (tensor<16x2xi64>) -> tensor<16x2x1xi64>
    %17 = "stablehlo.gather"(%arg0, %16) <{dimension_numbers = #stablehlo.gather<offset_dims = [2], collapsed_slice_dims = [0], start_index_map = [0], index_vector_dim = 2>, slice_sizes = array<i64: 1, 18>}> : (tensor<4x18xf32>, tensor<16x2x1xi64>) -> tensor<16x2x18xf32>
    %18 = stablehlo.reshape %17 : (tensor<16x2x18xf32>) -> tensor<16x36xf32>
    return %17, %18 : tensor<16x2x18xf32>, tensor<16x36xf32>
  }
}
------------------ END OF MLIR MODULE ------------------
2026-04-23 21:17:27.861 (  23.541s) [        F0E90740]      module_builder.cc:1220     1| MLIR Module shlo_compiler:
module @SyncTensorsGraph.66 attributes {mhlo.cross_program_prefetches = [], mhlo.input_output_alias = [], mhlo.is_dynamic = false, mhlo.use_auto_spmd_partitioning = false} {
  sdy.mesh @mesh = <["x"=1, "y"=1]>
  func.func @main(%arg0: tensor<4x18xf32> {ttcore.argument_type = #ttcore.argument_type<input>, ttcore.local_shape = #ttcore<local_shape local_shape = tensor<4x18xf32>>, ttcore.shard_status = #ttcore.shard_status<unsharded>}) -> (tensor<16x2x18xf32> {ttcore.local_shape = #ttcore<local_shape local_shape = tensor<16x2x18xf32>>, ttcore.shard_status = #ttcore.shard_status<presharded>}, tensor<16x36xf32> {ttcore.local_shape = #ttcore<local_shape local_shape = tensor<16x36xf32>>, ttcore.shard_status = #ttcore.shard_status<presharded>}) {
    %c = stablehlo.constant dense<4> : tensor<16x2xi64>
    %c_0 = stablehlo.constant dense<0> : tensor<16x2xi64>
    %c_1 = stablehlo.constant dense<[[[0, 1]]]> : tensor<1x1x2xi64>
    %c_2 = stablehlo.constant dense<[[[0], [2]]]> : tensor<1x2x1xi64>
    %c_3 = stablehlo.constant dense<[[[0], [1]]]> : tensor<1x2x1xi64>
    %c_4 = stablehlo.constant dense<[[[0]], [[2]]]> : tensor<2x1x1xi64>
    %0 = stablehlo.broadcast_in_dim %c_4, dims = [0, 1, 3] : (tensor<2x1x1xi64>) -> tensor<2x1x2x1xi64>
    %1 = stablehlo.broadcast_in_dim %c_3, dims = [1, 2, 3] : (tensor<1x2x1xi64>) -> tensor<2x1x2x1xi64>
    %2 = stablehlo.add %0, %1 : tensor<2x1x2x1xi64>
    %3 = stablehlo.reshape %2 : (tensor<2x1x2x1xi64>) -> tensor<2x2xi64>
    %4 = stablehlo.broadcast_in_dim %3, dims = [0, 2] : (tensor<2x2xi64>) -> tensor<2x2x2x2xi64>
    %5 = stablehlo.reshape %4 : (tensor<2x2x2x2xi64>) -> tensor<16x1xi64>
    %6 = stablehlo.broadcast_in_dim %c_2, dims = [0, 1, 2] : (tensor<1x2x1xi64>) -> tensor<1x2x1x2xi64>
    %7 = stablehlo.broadcast_in_dim %c_1, dims = [0, 2, 3] : (tensor<1x1x2xi64>) -> tensor<1x2x1x2xi64>
    %8 = stablehlo.add %6, %7 : tensor<1x2x1x2xi64>
    %9 = stablehlo.reshape %8 : (tensor<1x2x1x2xi64>) -> tensor<2x2xi64>
    %10 = stablehlo.broadcast_in_dim %9, dims = [1, 3] : (tensor<2x2xi64>) -> tensor<2x2x2x2xi64>
    %11 = stablehlo.reshape %10 : (tensor<2x2x2x2xi64>) -> tensor<16x1xi64>
    %12 = stablehlo.concatenate %5, %11, dim = 1 : (tensor<16x1xi64>, tensor<16x1xi64>) -> tensor<16x2xi64>
    %13 = stablehlo.compare  LT, %12, %c_0 : (tensor<16x2xi64>, tensor<16x2xi64>) -> tensor<16x2xi1>
    %14 = stablehlo.add %12, %c : tensor<16x2xi64>
    %15 = stablehlo.select %13, %14, %12 : tensor<16x2xi1>, tensor<16x2xi64>
    %16 = stablehlo.reshape %15 : (tensor<16x2xi64>) -> tensor<16x2x1xi64>
    %17 = "stablehlo.gather"(%arg0, %16) <{dimension_numbers = #stablehlo.gather<offset_dims = [2], collapsed_slice_dims = [0], start_index_map = [0], index_vector_dim = 2>, slice_sizes = array<i64: 1, 18>}> : (tensor<4x18xf32>, tensor<16x2x1xi64>) -> tensor<16x2x18xf32>
    %18 = stablehlo.reshape %17 : (tensor<16x2x18xf32>) -> tensor<16x36xf32>
    return %17, %18 : tensor<16x2x18xf32>, tensor<16x36xf32>
  }
}
------------------ END OF MLIR MODULE ------------------
2026-04-23 21:17:27.862 (  23.542s) [        F0E90740]      module_builder.cc:1220     1| MLIR Module shlo_set_mesh_attr:
module @SyncTensorsGraph.66 attributes {mhlo.cross_program_prefetches = [], mhlo.input_output_alias = [], mhlo.is_dynamic = false, mhlo.use_auto_spmd_partitioning = false} {
  sdy.mesh @mesh = <["x"=1, "y"=1]>
  func.func @main(%arg0: tensor<4x18xf32> {ttcore.argument_type = #ttcore.argument_type<input>, ttcore.local_shape = #ttcore<local_shape local_shape = tensor<4x18xf32>>, ttcore.shard_status = #ttcore.shard_status<unsharded>}) -> (tensor<16x2x18xf32> {ttcore.local_shape = #ttcore<local_shape local_shape = tensor<16x2x18xf32>>, ttcore.shard_status = #ttcore.shard_status<presharded>}, tensor<16x36xf32> {ttcore.local_shape = #ttcore<local_shape local_shape = tensor<16x36xf32>>, ttcore.shard_status = #ttcore.shard_status<presharded>}) {
    %c = stablehlo.constant dense<4> : tensor<16x2xi64>
    %c_0 = stablehlo.constant dense<0> : tensor<16x2xi64>
    %c_1 = stablehlo.constant dense<[[[0, 1]]]> : tensor<1x1x2xi64>
    %c_2 = stablehlo.constant dense<[[[0], [2]]]> : tensor<1x2x1xi64>
    %c_3 = stablehlo.constant dense<[[[0], [1]]]> : tensor<1x2x1xi64>
    %c_4 = stablehlo.constant dense<[[[0]], [[2]]]> : tensor<2x1x1xi64>
    %0 = stablehlo.broadcast_in_dim %c_4, dims = [0, 1, 3] : (tensor<2x1x1xi64>) -> tensor<2x1x2x1xi64>
    %1 = stablehlo.broadcast_in_dim %c_3, dims = [1, 2, 3] : (tensor<1x2x1xi64>) -> tensor<2x1x2x1xi64>
    %2 = stablehlo.add %0, %1 : tensor<2x1x2x1xi64>
    %3 = stablehlo.reshape %2 : (tensor<2x1x2x1xi64>) -> tensor<2x2xi64>
    %4 = stablehlo.broadcast_in_dim %3, dims = [0, 2] : (tensor<2x2xi64>) -> tensor<2x2x2x2xi64>
    %5 = stablehlo.reshape %4 : (tensor<2x2x2x2xi64>) -> tensor<16x1xi64>
    %6 = stablehlo.broadcast_in_dim %c_2, dims = [0, 1, 2] : (tensor<1x2x1xi64>) -> tensor<1x2x1x2xi64>
    %7 = stablehlo.broadcast_in_dim %c_1, dims = [0, 2, 3] : (tensor<1x1x2xi64>) -> tensor<1x2x1x2xi64>
    %8 = stablehlo.add %6, %7 : tensor<1x2x1x2xi64>
    %9 = stablehlo.reshape %8 : (tensor<1x2x1x2xi64>) -> tensor<2x2xi64>
    %10 = stablehlo.broadcast_in_dim %9, dims = [1, 3] : (tensor<2x2xi64>) -> tensor<2x2x2x2xi64>
    %11 = stablehlo.reshape %10 : (tensor<2x2x2x2xi64>) -> tensor<16x1xi64>
    %12 = stablehlo.concatenate %5, %11, dim = 1 : (tensor<16x1xi64>, tensor<16x1xi64>) -> tensor<16x2xi64>
    %13 = stablehlo.compare  LT, %12, %c_0 : (tensor<16x2xi64>, tensor<16x2xi64>) -> tensor<16x2xi1>
    %14 = stablehlo.add %12, %c : tensor<16x2xi64>
    %15 = stablehlo.select %13, %14, %12 : tensor<16x2xi1>, tensor<16x2xi64>
    %16 = stablehlo.reshape %15 : (tensor<16x2xi64>) -> tensor<16x2x1xi64>
    %17 = "stablehlo.gather"(%arg0, %16) <{dimension_numbers = #stablehlo.gather<offset_dims = [2], collapsed_slice_dims = [0], start_index_map = [0], index_vector_dim = 2>, slice_sizes = array<i64: 1, 18>}> : (tensor<4x18xf32>, tensor<16x2x1xi64>) -> tensor<16x2x18xf32>
    %18 = stablehlo.reshape %17 : (tensor<16x2x18xf32>) -> tensor<16x36xf32>
    return %17, %18 : tensor<16x2x18xf32>, tensor<16x36xf32>
  }
}
------------------ END OF MLIR MODULE ------------------
2026-04-23 21:17:27.864 (  23.544s) [        F0E90740]      module_builder.cc:1220     1| MLIR Module shlo_compiler_cleaned:
module @SyncTensorsGraph.66 attributes {mhlo.cross_program_prefetches = [], mhlo.input_output_alias = [], mhlo.is_dynamic = false, mhlo.use_auto_spmd_partitioning = false} {
  func.func @main(%arg0: tensor<4x18xf32>) -> (tensor<16x2x18xf32>, tensor<16x36xf32>) {
    %c = stablehlo.constant dense<4> : tensor<16x2xi64>
    %c_0 = stablehlo.constant dense<0> : tensor<16x2xi64>
    %c_1 = stablehlo.constant dense<[[[0, 1]]]> : tensor<1x1x2xi64>
    %c_2 = stablehlo.constant dense<[[[0], [2]]]> : tensor<1x2x1xi64>
    %c_3 = stablehlo.constant dense<[[[0], [1]]]> : tensor<1x2x1xi64>
    %c_4 = stablehlo.constant dense<[[[0]], [[2]]]> : tensor<2x1x1xi64>
    %0 = stablehlo.broadcast_in_dim %c_4, dims = [0, 1, 3] : (tensor<2x1x1xi64>) -> tensor<2x1x2x1xi64>
    %1 = stablehlo.broadcast_in_dim %c_3, dims = [1, 2, 3] : (tensor<1x2x1xi64>) -> tensor<2x1x2x1xi64>
    %2 = stablehlo.add %0, %1 : tensor<2x1x2x1xi64>
    %3 = stablehlo.reshape %2 : (tensor<2x1x2x1xi64>) -> tensor<2x2xi64>
    %4 = stablehlo.broadcast_in_dim %3, dims = [0, 2] : (tensor<2x2xi64>) -> tensor<2x2x2x2xi64>
    %5 = stablehlo.reshape %4 : (tensor<2x2x2x2xi64>) -> tensor<16x1xi64>
    %6 = stablehlo.broadcast_in_dim %c_2, dims = [0, 1, 2] : (tensor<1x2x1xi64>) -> tensor<1x2x1x2xi64>
    %7 = stablehlo.broadcast_in_dim %c_1, dims = [0, 2, 3] : (tensor<1x1x2xi64>) -> tensor<1x2x1x2xi64>
    %8 = stablehlo.add %6, %7 : tensor<1x2x1x2xi64>
    %9 = stablehlo.reshape %8 : (tensor<1x2x1x2xi64>) -> tensor<2x2xi64>
    %10 = stablehlo.broadcast_in_dim %9, dims = [1, 3] : (tensor<2x2xi64>) -> tensor<2x2x2x2xi64>
    %11 = stablehlo.reshape %10 : (tensor<2x2x2x2xi64>) -> tensor<16x1xi64>
    %12 = stablehlo.concatenate %5, %11, dim = 1 : (tensor<16x1xi64>, tensor<16x1xi64>) -> tensor<16x2xi64>
    %13 = stablehlo.compare  LT, %12, %c_0 : (tensor<16x2xi64>, tensor<16x2xi64>) -> tensor<16x2xi1>
    %14 = stablehlo.add %12, %c : tensor<16x2xi64>
    %15 = stablehlo.select %13, %14, %12 : tensor<16x2xi1>, tensor<16x2xi64>
    %16 = stablehlo.reshape %15 : (tensor<16x2xi64>) -> tensor<16x2x1xi64>
    %17 = "stablehlo.gather"(%arg0, %16) <{dimension_numbers = #stablehlo.gather<offset_dims = [2], collapsed_slice_dims = [0], start_index_map = [0], index_vector_dim = 2>, slice_sizes = array<i64: 1, 18>}> : (tensor<4x18xf32>, tensor<16x2x1xi64>) -> tensor<16x2x18xf32>
    %18 = stablehlo.reshape %17 : (tensor<16x2x18xf32>) -> tensor<16x36xf32>
    return %17, %18 : tensor<16x2x18xf32>, tensor<16x36xf32>
  }
}
------------------ END OF MLIR MODULE ------------------
2026-04-23 21:17:27.868 (  23.548s) [        F0E90740]      module_builder.cc:1220     1| MLIR Module ttir:
module @SyncTensorsGraph.66 attributes {mhlo.cross_program_prefetches = [], mhlo.input_output_alias = [], mhlo.is_dynamic = false, mhlo.use_auto_spmd_partitioning = false, ttcore.meshes = #ttcore.meshes<[<"mesh" = 1x1>]>} {
  ttcore.device_module {
    builtin.module @SyncTensorsGraph.66 attributes {mhlo.cross_program_prefetches = [], mhlo.input_output_alias = [], mhlo.is_dynamic = false, mhlo.use_auto_spmd_partitioning = false, ttcore.meshes = #ttcore.meshes<[<"mesh" = 1x1>]>} {
      func.func @main(%arg0: tensor<4x18xf32> {ttcore.argument_type = #ttcore.argument_type<input>, ttcore.local_shape = #ttcore<local_shape local_shape = tensor<4x18xf32>>, ttcore.shard_status = #ttcore.shard_status<unsharded>}) -> (tensor<16x2x18xf32> {ttcore.local_shape = #ttcore<local_shape local_shape = tensor<16x2x18xf32>>, ttcore.shard_status = #ttcore.shard_status<presharded>}, tensor<16x36xf32> {ttcore.local_shape = #ttcore<local_shape local_shape = tensor<16x36xf32>>, ttcore.shard_status = #ttcore.shard_status<presharded>}) {
        %0 = "ttir.constant"() <{value = dense<4> : tensor<16x2xi64>}> : () -> tensor<16x2xi64>
        %1 = "ttir.constant"() <{value = dense<0> : tensor<16x2xi64>}> : () -> tensor<16x2xi64>
        %2 = "ttir.constant"() <{value = dense<[[[0, 1]]]> : tensor<1x1x2xi64>}> : () -> tensor<1x1x2xi64>
        %3 = "ttir.constant"() <{value = dense<[[[0], [2]]]> : tensor<1x2x1xi64>}> : () -> tensor<1x2x1xi64>
        %4 = "ttir.constant"() <{value = dense<[[[0], [1]]]> : tensor<1x2x1xi64>}> : () -> tensor<1x2x1xi64>
        %5 = "ttir.constant"() <{value = dense<[[[0]], [[2]]]> : tensor<2x1x1xi64>}> : () -> tensor<2x1x1xi64>
        %6 = "ttir.reshape"(%5) <{shape = [2 : i32, 1 : i32, 1 : i32, 1 : i32]}> : (tensor<2x1x1xi64>) -> tensor<2x1x1x1xi64>
        %7 = "ttir.broadcast"(%6) <{broadcast_dimensions = array<i64: 1, 1, 2, 1>}> : (tensor<2x1x1x1xi64>) -> tensor<2x1x2x1xi64>
        %8 = "ttir.reshape"(%4) <{shape = [1 : i32, 1 : i32, 2 : i32, 1 : i32]}> : (tensor<1x2x1xi64>) -> tensor<1x1x2x1xi64>
        %9 = "ttir.broadcast"(%8) <{broadcast_dimensions = array<i64: 2, 1, 1, 1>}> : (tensor<1x1x2x1xi64>) -> tensor<2x1x2x1xi64>
        %10 = "ttir.add"(%7, %9) : (tensor<2x1x2x1xi64>, tensor<2x1x2x1xi64>) -> tensor<2x1x2x1xi64>
        %11 = "ttir.reshape"(%10) <{shape = [2 : i32, 2 : i32]}> : (tensor<2x1x2x1xi64>) -> tensor<2x2xi64>
        %12 = "ttir.reshape"(%11) <{shape = [2 : i32, 1 : i32, 2 : i32, 1 : i32]}> : (tensor<2x2xi64>) -> tensor<2x1x2x1xi64>
        %13 = "ttir.broadcast"(%12) <{broadcast_dimensions = array<i64: 1, 2, 1, 2>}> : (tensor<2x1x2x1xi64>) -> tensor<2x2x2x2xi64>
        %14 = "ttir.reshape"(%13) <{shape = [16 : i32, 1 : i32]}> : (tensor<2x2x2x2xi64>) -> tensor<16x1xi64>
        %15 = "ttir.reshape"(%3) <{shape = [1 : i32, 2 : i32, 1 : i32, 1 : i32]}> : (tensor<1x2x1xi64>) -> tensor<1x2x1x1xi64>
        %16 = "ttir.broadcast"(%15) <{broadcast_dimensions = array<i64: 1, 1, 1, 2>}> : (tensor<1x2x1x1xi64>) -> tensor<1x2x1x2xi64>
        %17 = "ttir.reshape"(%2) <{shape = [1 : i32, 1 : i32, 1 : i32, 2 : i32]}> : (tensor<1x1x2xi64>) -> tensor<1x1x1x2xi64>
        %18 = "ttir.broadcast"(%17) <{broadcast_dimensions = array<i64: 1, 2, 1, 1>}> : (tensor<1x1x1x2xi64>) -> tensor<1x2x1x2xi64>
…
    %5 = stablehlo.multiply %4, %4 : tensor<16x1152xf32>
    %6 = stablehlo.reduce(%5 init: %cst_1) applies stablehlo.add across dimensions = [1] : (tensor<16x1152xf32>, tensor<f32>) -> tensor<16xf32>
    %7 = stablehlo.multiply %6, %cst_0 : tensor<16xf32>
    %8 = stablehlo.reshape %7 : (tensor<16xf32>) -> tensor<16x1xf32>
    %9 = stablehlo.add %8, %cst : tensor<16x1xf32>
    %10 = stablehlo.rsqrt %9 : tensor<16x1xf32>
    %11 = stablehlo.reshape %10 : (tensor<16x1xf32>) -> tensor<16xf32>
    %12 = stablehlo.broadcast_in_dim %11, dims = [0] : (tensor<16xf32>) -> tensor<16x1152xf32>
    %13 = stablehlo.multiply %4, %12 : tensor<16x1152xf32>
    %14 = stablehlo.convert %arg1 : (tensor<1152xbf16>) -> tensor<1152xf32>
    %15 = stablehlo.broadcast_in_dim %14, dims = [1] : (tensor<1152xf32>) -> tensor<16x1152xf32>
    %16 = stablehlo.multiply %13, %15 : tensor<16x1152xf32>
    %17 = stablehlo.convert %arg2 : (tensor<1152xbf16>) -> tensor<1152xf32>
    %18 = stablehlo.broadcast_in_dim %17, dims = [1] : (tensor<1152xf32>) -> tensor<16x1152xf32>
    %19 = stablehlo.add %16, %18 : tensor<16x1152xf32>
    %20 = stablehlo.convert %19 : (tensor<16x1152xf32>) -> tensor<16x1152xbf16>
    return %20 : tensor<16x1152xbf16>
  }
}
------------------ END OF MLIR MODULE ------------------
2026-04-23 21:18:50.639 ( 106.319s) [        F0E90740]      module_builder.cc:1220     1| MLIR Module ttir:
module @SyncTensorsGraph.162 attributes {mhlo.cross_program_prefetches = [], mhlo.input_output_alias = [], mhlo.is_dynamic = false, mhlo.use_auto_spmd_partitioning = false, ttcore.meshes = #ttcore.meshes<[<"mesh" = 1x1>]>} {
  ttcore.device_module {
    builtin.module @SyncTensorsGraph.162 attributes {mhlo.cross_program_prefetches = [], mhlo.input_output_alias = [], mhlo.is_dynamic = false, mhlo.use_auto_spmd_partitioning = false, ttcore.meshes = #ttcore.meshes<[<"mesh" = 1x1>]>} {
      func.func @main(%arg0: tensor<5120xbf16> {ttcore.argument_type = #ttcore.argument_type<parameter>, ttcore.local_shape = #ttcore<local_shape local_shape = tensor<5120xbf16>>, ttcore.shard_status = #ttcore.shard_status<unsharded>, ttir.name = "linear_fc2.bias"}, %arg1: tensor<5120x4608xbf16> {ttcore.argument_type = #ttcore.argument_type<parameter>, ttcore.local_shape = #ttcore<local_shape local_shape = tensor<5120x4608xbf16>>, ttcore.shard_status = #ttcore.shard_status<unsharded>, ttir.name = "linear_fc2.weight"}, %arg2: tensor<4608xbf16> {ttcore.argument_type = #ttcore.argument_type<parameter>, ttcore.local_shape = #ttcore<local_shape local_shape = tensor<4608xbf16>>, ttcore.shard_status = #ttcore.shard_status<unsharded>, ttir.name = "linear_fc1.bias"}, %arg3: tensor<4608x4608xbf16> {ttcore.argument_type = #ttcore.argument_type<parameter>, ttcore.local_shape = #ttcore<local_shape local_shape = tensor<4608x4608xbf16>>, ttcore.shard_status = #ttcore.shard_status<unsharded>, ttir.name = "linear_fc1.weight"}, %arg4: tensor<1152xbf16> {ttcore.argument_type = #ttcore.argument_type<parameter>, ttcore.local_shape = #ttcore<local_shape local_shape = tensor<1152xbf16>>, ttcore.shard_status = #ttcore.shard_status<unsharded>, ttir.name = "norm.bias"}, %arg5: tensor<1152xbf16> {ttcore.argument_type = #ttcore.argument_type<parameter>, ttcore.local_shape = #ttcore<local_shape local_shape = tensor<1152xbf16>>, ttcore.shard_status = #ttcore.shard_status<unsharded>, ttir.name = "norm.weight"}, %arg6: tensor<16x1152xbf16> {ttcore.argument_type = #ttcore.argument_type<input>, ttcore.local_shape = #ttcore<local_shape local_shape = tensor<16x1152xbf16>>, ttcore.shard_status = #ttcore.shard_status<unsharded>, ttir.name = "args_0"}) -> (tensor<4x5120xbf16> {ttcore.local_shape = #ttcore<local_shape local_shape = tensor<4x5120xbf16>>, ttcore.shard_status = #ttcore.shard_status<presharded>}) {
        %0 = "ttir.constant"() <{value = dense<1.000000e+00> : tensor<4x4608xbf16>}> : () -> tensor<4x4608xbf16>
        %1 = "ttir.constant"() <{value = dense<7.070310e-01> : tensor<4x4608xbf16>}> : () -> tensor<4x4608xbf16>
        %2 = "ttir.constant"() <{value = dense<5.000000e-01> : tensor<4x4608xbf16>}> : () -> tensor<4x4608xbf16>
        %3 = "ttir.layer_norm"(%arg6, %arg5, %arg4) <{epsilon = 9.99999997E-7 : f32, normalized_shape = array<i64: 1152>, operandSegmentSizes = array<i32: 1, 1, 1>}> : (tensor<16x1152xbf16>, tensor<1152xbf16>, tensor<1152xbf16>) -> tensor<16x1152xbf16>
        %4 = "ttir.reshape"(%3) <{shape = [4 : i32, 4608 : i32]}> : (tensor<16x1152xbf16>) -> tensor<4x4608xbf16>
        %5 = "ttir.typecast"(%4) <{conservative_folding = false}> : (tensor<4x4608xbf16>) -> tensor<4x4608xf32>
        %6 = "ttir.permute"(%arg3) <{permutation = array<i64: 1, 0>}> : (tensor<4608x4608xbf16>) -> tensor<4608x4608xbf16>
        %7 = "ttir.typecast"(%6) <{conservative_folding = false}> : (tensor<4608x4608xbf16>) -> tensor<4608x4608xf32>
        %8 = "ttir.dot_general"(%5, %7) <{batch_dims_lhs = array<i64>, batch_dims_rhs = array<i64>, contract_dims_lhs = array<i64: 1>, contract_dims_rhs = array<i64: 0>}> : (tensor<4x4608xf32>, tensor<4608x4608xf32>) -> tensor<4x4608xf32>
        %9 = "ttir.typecast"(%arg2) <{conservative_folding = false}> : (tensor<4608xbf16>) -> tensor<4608xf32>
        %10 = "ttir.reshape"(%9) <{shape = [1 : i32, 4608 : i32]}> : (tensor<4608xf32>) -> tensor<1x4608xf32>
        %11 = "ttir.broadcast"(%10) <{broadcast_dimensions = array<i64: 4, 1>}> : (tensor<1x4608xf32>) -> tensor<4x4608xf32>
        %12 = "ttir.add"(%8, %11) : (tensor<4x4608xf32>, tensor<4x4608xf32>) -> tensor<4x4608xf32>
        %13 = "ttir.typecast"(%12) <{conservative_folding = false}> : (tensor<4x4608xf32>) -> tensor<4x4608xbf16>
        %14 = "ttir.multiply"(%13, %2) : (tensor<4x4608xbf16>, tensor<4x4608xbf16>) -> tensor<4x4608xbf16>
        %15 = "ttir.multiply"(%13, %1) : (tensor<4x4608xbf16>, tensor<4x4608xbf16>) -> tensor<4x4608xbf16>
        %16 = "ttir.erf"(%15) : (tensor<4x4608xbf16>) -> tensor<4x4608xbf16>
        %17 = "ttir.add"(%16, %0) : (tensor<4x4608xbf16>, tensor<4x4608xbf16>) -> tensor<4x4608xbf16>
        %18 = "ttir.multiply"(%14, %17) : (tensor<4x4608xbf16>, tensor<4x4608xbf16>) -> tensor<4x4608xbf16>
        %19 = "ttir.typecast"(%18) <{conservative_folding = false}> : (tensor<4x4608xbf16>) -> tensor<4x4608xf32>
        %20 = "ttir.permute"(%arg1) <{permutation = array<i64: 1, 0>}> : (tensor<5120x4608xbf16>) -> tensor<4608x5120xbf16>
        %21 = "ttir.typecast"(%20) <{conservative_folding = false}> : (tensor<4608x5120xbf16>) -> tensor<4608x5120xf32>
        %22 = "ttir.dot_general"(%19, %21) <{batch_dims_lhs = array<i64>, batch_dims_rhs = array<i64>, contract_dims_lhs = array<i64: 1>, contract_dims_rhs = array<i64: 0>}> : (tensor<4x4608xf32>, tensor<4608x5120xf32>) -> tensor<4x5120xf32>
        %23 = "ttir.typecast"(%arg0) <{conservative_folding = false}> : (tensor<5120xbf16>) -> tensor<5120xf32>
        %24 = "ttir.reshape"(%23) <{shape = [1 : i32, 5120 : i32]}> : (tensor<5120xf32>) -> tensor<1x5120xf32>
        %25 = "ttir.broadcast"(%24) <{broadcast_dimensions = array<i64: 4, 1>}> : (tensor<1x5120xf32>) -> tensor<4x5120xf32>
        %26 = "ttir.add"(%22, %25) : (tensor<4x5120xf32>, tensor<4x5120xf32>) -> tensor<4x5120xf32>
        %27 = "ttir.typecast"(%26) <{conservative_folding = false}> : (tensor<4x5120xf32>) -> tensor<4x5120xbf16>
        return %27 : tensor<4x5120xbf16>
      }
    }
  }
}
------------------ END OF MLIR MODULE ------------------
2026-04-23 21:18:50.667 ( 106.347s) [        F0E90740]      module_builder.cc:1220     1| MLIR Module ttnn:
#dram = #ttnn.buffer_type<dram>
#system_desc = #ttcore.system_desc<[{role = host, target_triple = "x86_64-pc-linux"}], [{arch = <wormhole_b0>, grid = 8x8, coord_translation_offsets = 18x18, l1_size = 1499136, num_dram_channels = 12, dram_channel_size = 1073741824, noc_l1_address_align_bytes = 16, pcie_address_align_bytes = 32, noc_dram_address_align_bytes = 32, l1_unreserved_base = 103712, erisc_l1_unreserved_base = 98304, dram_unreserved_base = 1920032, dram_unreserved_end = 1073119552, supported_data_types = [<f32>, <f16>, <bf16>, <bfp_f8>, <bfp_bf8>, <bfp_f4>, <bfp_bf4>, <bfp_f2>, <bfp_bf2>, <u32>, <u16>, <u8>, <si32>], supported_tile_sizes = [ 4x16,  16x16,  32x16,  4x32,  16x32,  32x32], dst_physical_size_tiles = 16, num_cbs = 64, num_compute_threads = 1, num_datamovement_threads = 2}], [0], [1 : i32], [ 0x0x0x0]>
#system_memory = #ttnn.buffer_type<system_memory>
#ttnn_layout = #ttnn.ttnn_layout<(d0, d1) -> (d0, d1), <1x1>, memref<4608x4608xbf16, #system_memory>>
#ttnn_layout1 = #ttnn.ttnn_layout<(d0, d1) -> (d0, d1), <1x1>, memref<144x144x!ttcore.tile<32x32, f32>, #dram>, <interleaved>>
#ttnn_layout2 = #ttnn.ttnn_layout<(d0, d1) -> (d0, d1), <1x1>, memref<4608x4608xf32, #system_memory>>
#ttnn_layout3 = #ttnn.ttnn_layout<(d0, d1) -> (d0, d1), <1x1>, memref<144x144x!ttcore.tile<32x32, f32>, #system_memory>>
#ttnn_layout4 = #ttnn.ttnn_layout<(d0, d1) -> (d0, d1), <1x1>, memref<5120x4608xbf16, #system_memory>>
#ttnn_layout5 = #ttnn.ttnn_layout<(d0, d1) -> (d0, d1), <1x1>, memref<144x160x!ttcore.tile<32x32, f32>, #dram>, <interleaved>>
#ttnn_layout6 = #ttnn.ttnn_layout<(d0, d1) -> (d0, d1), <1x1>, memref<5120x4608xf32, #system_memory>>
#ttnn_layout7 = #ttnn.ttnn_layout<(d0, d1) -> (d0, d1), <1x1>, memref<4608x5120xf32, #system_memory>>
#ttnn_layout8 = #ttnn.ttnn_layout<(d0, d1) -> (d0, d1), <1x1>, memref<144x160x!ttcore.tile<32x32, f32>, #system_memory>>
#ttnn_layout9 = #ttnn.ttnn_layout<(d0) -> (0, d0), <1x1>, memref<1x4608xbf16, #system_memory>>
#ttnn_layout10 = #ttnn.ttnn_layout<(d0) -> (0, d0), <1x1>, memref<1x144x!ttcore.tile<32x32, f32>, #dram>, <interleaved>>
#ttnn_layout11 = #ttnn.ttnn_layout<(d0) -> (0, d0), <1x1>, memref<1x4608xf32, #system_memory>>
#ttnn_layout12 = #ttnn.ttnn_layout<(d0) -> (0, d0), <1x1>, memref<1x144x!ttcore.tile<32x32, f32>, #system_memory>>
#ttnn_layout13 = #ttnn.ttnn_layout<(d0) -> (0, d0), <1x1>, memref<1x5120xbf16, #system_memory>>
#ttnn_layout14 = #ttnn.ttnn_layout<(d0) -> (0, d0), <1x1>, memref<1x160x!ttcore.tile<32x32, f32>, #dram>, <interleaved>>
#ttnn_layout15 = #ttnn.ttnn_layout<(d0) -> (0, d0), <1x1>, memref<1x5120xf32, #system_memory>>
#ttnn_layout16 = #ttnn.ttnn_layout<(d0) -> (0, d0), <1x1>, memref<1x160x!ttcore.tile<32x32, f32>, #system_memory>>
#ttnn_layout17 = #ttnn.ttnn_layout<(d0) -> (0, d0), <1x1>, memref<1x36x!ttcore.tile<32x32, bf16>, #dram>, <interleaved>>
#ttnn_layout18 = #ttnn.ttnn_layout<(d0, d1) -> (d0, d1), <1x1>, memref<16x1152xbf16, #dram>, <interleaved>>
#ttnn_layout19 = #ttnn.ttnn_layout<(d0, d1) -> (d0, d1), <1x1>, memref<1x160x!ttcore.tile<32x32, bf16>, #dram>, <interleaved>>
#ttnn_layout20 = #ttnn.ttnn_layout<(d0, d1) -> (d0, d1), <1x1>, memref<1x36x!ttcore.tile<32x32, bf16>, #dram>, <interleaved>>
#ttnn_layout21 = #ttnn.ttnn_layout<(d0, d1) -> (d0, d1), <1x1>, memref<1x36x!ttcore.tile<32x32, f32>, #dram>, <interleaved>>
#ttnn_layout22 = #ttnn.ttnn_layout<(d0, d1) -> (d0, d1), <1x1>, memref<1x144x!ttcore.tile<32x32, f32>, #dram>, <interleaved>>
#ttnn_layout23 = #ttnn.ttnn_layout<(d0, d1) -> (d0, d1), <1x1>, memref<1x144x!ttcore.tile<32x32, bf16>, #dram>, <interleaved>>
#ttnn_layout24 = #ttnn.ttnn_layout<(d0, d1) -> (d0, d1), <1x1>, memref<1x160x!ttcore.tile<32x32, f32>, #dram>, <interleaved>>
module @SyncTensorsGraph.162 attributes {mhlo.cross_program_prefetches = [], mhlo.input_output_alias = [], mhlo.is_dynamic = false, mhlo.use_auto_spmd_partitioning = false, ttcore.meshes = #ttcore.meshes<[<"mesh" = 1x1>]>} {
  ttcore.device_module {
    builtin.module @SyncTensorsGraph.162 attributes {mhlo.cross_program_prefetches = [], mhlo.input_output_alias = [], mhlo.is_dynamic = false, mhlo.use_auto_spmd_partitioning = false, ttcore.meshes = #ttcore.meshes<[<"mesh" = 1x1>]>, ttcore.system_desc = #system_desc} {
      ttcore.device @default_device = <workerGrid = #ttcore.grid<8x8, virt_to_physical_map = (d0, d1) -> (0, d0, d1), physical_to_virt_map = (d0, d1, d2) -> (d1, d2)>, l1Map = (d0, d1, d2)[s0] -> (0, d0, d1, d2 + s0), dramMap = (d0, d1, d2)[s0, s1, s2, s3, s4, s5, s6] -> (0, 0, (((d0 * s1) * (s2 * (s3 * s6)) + d1 * (s2 * (s3 * s6)) + d2) floordiv s4) mod 12, ((((d0 * s1) * (s2 * (s3 * s6)) + d1 * (s2 * (s3 * s6)) + d2) floordiv s4) floordiv 12) * s4 + ((d0 * s1) * (s2 * (s3 * s6)) + d1 * (s2 * (s3 * s6)) + d2) mod s4 + s5), meshShape = 1x1, chipIds = [0]>
      func.func private @main_const_eval_0(%arg0: tensor<4608x4608xbf16, #ttnn_layout>) -> tensor<4608x4608xf32, #ttnn_layout1> attributes {tt.function_type = "const_eval"} {
        %0 = "ttnn.get_device"() <{mesh_offset = #ttnn<mesh_offset 0x0>, mesh_shape = #ttnn<mesh_shape 1x1>}> : () -> !ttnn.device
        %1 = "ttnn.typecast"(%arg0) <{dtype = #ttcore.supportedDataTypes<f32>}> : (tensor<4608x4608xbf16, #ttnn_layout>) -> tensor<4608x4608xf32, #ttnn_layout2>
        %2 = call @cpu_hoisted_const_eval_c20de3ae(%1) {ttir.cpu_hoist_call} : (tensor<4608x4608xf32, #ttnn_layout2>) -> tensor<4608x4608xf32, #ttnn_layout2>
        "ttnn.deallocate"(%1) <{force = false}> : (tensor<4608x4608xf32, #ttnn_layout2>) -> ()
        %3 = "ttnn.to_layout"(%2) <{layout = #ttnn.layout<tile>}> : (tensor<4608x4608xf32, #ttnn_layout2>) -> tensor<4608x4608xf32, #ttnn_layout3>
        "ttnn.deallocate"(%2) <{force = false}> : (tensor<4608x4608xf32, #ttnn_layout2>) -> ()
        %4 = "ttnn.to_device"(%3, %0) <{memory_config = #ttnn.memory_config<#dram, <interleaved>>}> : (tensor<4608x4608xf32, #ttnn_layout3>, !ttnn.device) -> tensor<4608x4608xf32, #ttnn_layout1>
        "ttnn.deallocate"(%3) <{force = false}> : (tensor<4608x4608xf32, #ttnn_layout3>) -> ()
        return %4 : tensor<4608x4608xf32, #ttnn_layout1>
      }
      func.func private @main_const_eval_1(%arg0: tensor<5120x4608xbf16, #ttnn_layout4>) -> tensor<4608x5120xf32, #ttnn_layout5> attributes {tt.function_type = "const_eval"} {
        %0 = "ttnn.get_device"() <{mesh_offset = #ttnn<mesh_offset 0x0>, mesh_shape = #ttnn<mesh_shape 1x1>}> : () -> !ttnn.device
        %1 = "ttnn.typecast"(%arg0) <{dtype = #ttcore.supportedDataTypes<f32>}> : (tensor<5120x4608xbf16, #ttnn_layout4>) -> tensor<5120x4608xf32, #ttnn_layout6>
        %2 = call @cpu_hoisted_const_eval_85fbf4fd(%1) {ttir.cpu_hoist_call} : (tensor<5120x4608xf32, #ttnn_layout6>) -> tensor<4608x5120xf32, #ttnn_layout7>
        "ttnn.deallocate"(%1) <{force = false}> : (tensor<5120x4608xf32, #ttnn_layout6>) -> ()
        %3 = "ttnn.to_layout"(%2) <{layout = #ttnn.layout<tile>}> : (tensor<4608x5120xf32, #ttnn_layout7>) -> tensor<4608x5120xf32, #ttnn_layout8>
        "ttnn.deallocate"(%2) <{force = false}> : (tensor<4608x5120xf32, #ttnn_layout7>) -> ()
        %4 = "ttnn.to_device"(%3, %0) <{memory_config = #ttnn.memory_config<#dram, <interleaved>>}> : (tensor<4608x5120xf32, #ttnn_layout8>, !ttnn.device) -> tensor<4608x5120xf32, #ttnn_layout5>
        "ttnn.deallocate"(%3) <{force = false}> : (tensor<4608x5120xf32, #ttnn_layout8>) -> ()
        return %4 : tensor<4608x5120xf32, #ttnn_layout5>
      }
      func.func private @main_const_eval_2(%arg0: tensor<4608xbf16, #ttnn_layout9>) -> tensor<4608xf32, #ttnn_layout10> attributes {tt.function_type = "const_eval"} {
        %0 = "ttnn.get_device"() <{mesh_offset = #ttnn<mesh_offset 0x0>, mesh_shape = #ttnn<mesh_shape 1x1>}> : () -> !ttnn.device
        %1 = "ttnn.typecast"(%arg0) <{dtype = #ttcore.supportedDataTypes<f32>}> : (tensor<4608xbf16, #ttnn_layout9>) -> tensor<4608xf32, #ttnn_layout11>
        %2 = call @cpu_hoisted_const_eval_165754fb(%1) {ttir.cpu_hoist_call} : (tensor<4608xf32, #ttnn_layout11>) -> tensor<4608xf32, #ttnn_layout11>
        "ttnn.deallocate"(%1) <{force = false}> : (tensor<4608xf32, #ttnn_layout11>) -> ()
        %3 = "ttnn.to_layout"(%2) <{layout = #ttnn.layout<tile>}> : (tensor<4608xf32, #ttnn_layout11>) -> tensor<4608xf32, #ttnn_layout12>
        "ttnn.deallocate"(%2) <{force = false}> : (tensor<4608xf32, #ttnn_layout11>) -> ()
        %4 = "ttnn.to_device"(%3, %0) <{memory_config = #ttnn.memory_config<#dram, <interleaved>>}> : (tensor<4608xf32, #ttnn_layout12>, !ttnn.device) -> tensor<4608xf32, #ttnn_layout10>
        "ttnn.deallocate"(%3) <{force = false}> : (tensor<4608xf32, #ttnn_layout12>) -> ()
        return %4 : tensor<4608xf32, #ttnn_layout10>
      }
      func.func private @main_const_eval_3(%arg0: tensor<5120xbf16, #ttnn_layout13>) -> tensor<5120xf32, #ttnn_layout14> attributes {tt.function_type = "const_eval"} {
        %0 = "ttnn.get_device"() <{mesh_offset = #ttnn<mesh_offset 0x0>, mesh_shape = #ttnn<mesh_shape 1x1>}> : () -> !ttnn.device
        %1 = "ttnn.typecast"(%arg0) <{dtype = #ttcore.supportedDataTypes<f32>}> : (tensor<5120xbf16, #ttnn_layout13>) -> tensor<5120xf32, #ttnn_layout15>
        %2 = call @cpu_hoisted_const_eval_ce704573(%1) {ttir.cpu_hoist_call} : (tensor<5120xf32, #ttnn_layout15>) -> tensor<5120xf32, #ttnn_layout15>
        "ttnn.deallocate"(%1) <{force = false}> : (tensor<5120xf32, #ttnn_layout15>) -> ()
        %3 = "ttnn.to_layout"(%2) <{layout = #ttnn.layout<tile>}> : (tensor<5120xf32, #ttnn_layout15>) -> tensor<5120xf32, #ttnn_layout16>
        "ttnn.deallocate"(%2) <{force = false}> : (tensor<5120xf32, #ttnn_layout15>) -> ()
        %4 = "ttnn.to_device"(%3, %0) <{memory_config = #ttnn.memory_config<#dram, <interleaved>>}> : (tensor<5120xf32, #ttnn_layout16>, !ttnn.device) -> tensor<5120xf32, #ttnn_layout14>
        "ttnn.deallocate"(%3) <{force = false}> : (tensor<5120xf32, #ttnn_layout16>) -> ()
        return %4 : tensor<5120xf32, #ttnn_layout14>
      }
      func.func @main(%arg0: tensor<5120xbf16, #ttnn_layout13> {ttcore.argument_type = #ttcore.argument_type<parameter>, ttcore.local_shape = #ttcore<local_shape local_shape = tensor<5120xbf16>>, ttcore.shard_status = #ttcore.shard_status<unsharded>, ttir.name = "linear_fc2.bias"}, %arg1: tensor<5120x4608xbf16, #ttnn_layout4> {ttcore.argument_type = #ttcore.argument_type<parameter>, ttcore.local_shape = #ttcore<local_shape local_shape = tensor<5120x4608xbf16>>, ttcore.shard_status = #ttcore.shard_status<unsharded>, ttir.name = "linear_fc2.weight"}, %arg2: tensor<4608xbf16, #ttnn_layout9> {ttcore.argument_type = #ttcore.argument_type<parameter>, ttcore.local_shape = #ttcore<local_shape local_shape = tensor<4608xbf16>>, ttcore.shard_status = #ttcore.shard_status<unsharded>, ttir.name = "linear_fc1.bias"}, %arg3: tensor<4608x4608xbf16, #ttnn_layout> {ttcore.argument_type = #ttcore.argument_type<parameter>, ttcore.local_shape = #ttcore<local_shape local_shape = tensor<4608x4608xbf16>>, ttcore.shard_status = #ttcore.shard_status<unsharded>, ttir.name = "linear_fc1.weight"}, %arg4: tensor<1152xbf16, #ttnn_layout17> {ttcore.argument_type = #ttcore.argument_type<parameter>, ttcore.local_shape = #ttcore<local_shape local_shape = tensor<1152xbf16>>, ttcore.shard_status = #ttcore.shard_status<unsharded>, ttir.name = "norm.bias"}, %arg5: tensor<1152xbf16, #ttnn_layout17> {ttcore.argument_type = #ttcore.argument_type<parameter>, ttcore.local_shape = #ttcore<local_shape local_shape = tensor<1152xbf16>>, ttcore.shard_status = #ttcore.shard_status<unsharded>, ttir.name = "norm.weight"}, %arg6: tensor<16x1152xbf16, #ttnn_layout18> {ttcore.argument_type = #ttcore.argument_type<input>, ttcore.local_shape = #ttcore<local_shape local_shape = tensor<16x1152xbf16>>, ttcore.shard_status = #ttcore.shard_status<unsharded>, ttir.name = "args_0"}) -> (tensor<4x5120xbf16, #ttnn_layout19> {ttcore.local_shape = #ttcore<local_shape local_shape = tensor<4x5120xbf16>>, ttcore.shard_status = #ttcore.shard_status<presharded>}) attributes {tt.function_type = "forward_device"} {
        %0 = ttcore.load_cached(@main_const_eval_0, [%arg3]) : (tensor<4608x4608xbf16, #ttnn_layout>) -> tensor<4608x4608xf32, #ttnn_layout1>
        "ttnn.deallocate"(%arg3) <{force = false}> : (tensor<4608x4608xbf16, #ttnn_layout>) -> ()
        %1 = ttcore.load_cached(@main_const_eval_1, [%arg1]) : (tensor<5120x4608xbf16, #ttnn_layout4>) -> tensor<4608x5120xf32, #ttnn_layout5>
        "ttnn.deallocate"(%arg1) <{force = false}> : (tensor<5120x4608xbf16, #ttnn_layout4>) -> ()
        %2 = ttcore.load_cached(@main_const_eval_2, [%arg2]) : (tensor<4608xbf16, #ttnn_layout9>) -> tensor<4608xf32, #ttnn_layout10>
        "ttnn.deallocate"(%arg2) <{force = false}> : (tensor<4608xbf16, #ttnn_layout9>) -> ()
        %3 = ttcore.load_cached(@main_const_eval_3, [%arg0]) : (tensor<5120xbf16, #ttnn_layout13>) -> tensor<5120xf32, #ttnn_layout14>
        "ttnn.deallocate"(%arg0) <{force = false}> : (tensor<5120xbf16, #ttnn_layout13>) -> ()
        %4 = "ttnn.to_layout"(%arg6) <{layout = #ttnn.layout<tile>}> : (tensor<16x1152xbf16, #ttnn_layout18>) -> tensor<16x1152xbf16, #ttnn_layout20>
        "ttnn.deallocate"(%arg6) <{force = false}> : (tensor<16x1152xbf16, #ttnn_layout18>) -> ()
        %5 = "ttnn.layer_norm"(%4, %arg5, %arg4) <{epsilon = 9.99999997E-7 : f32, operandSegmentSizes = array<i32: 1, 1, 1>}> : (tensor<16x1152xbf16, #ttnn_layout20>, tensor<1152xbf16, #ttnn_layout17>, tensor<1152xbf16, #ttnn_layout17>) -> tensor<16x1152xbf16, #ttnn_layout20>
        "ttnn.deallocate"(%4) <{force = false}> : (tensor<16x1152xbf16, #ttnn_layout20>) -> ()
        "ttnn.deallocate"(%arg5) <{force = false}> : (tensor<1152xbf16, #ttnn_layout17>) -> ()
        "ttnn.deallocate"(%arg4) <{force = false}> : (tensor<1152xbf16, #ttnn_layout17>) -> ()
        %6 = "ttnn.typecast"(%5) <{dtype = #ttcore.supportedDataTypes<f32>}> : (tensor<16x1152xbf16, #ttnn_layout20>) -> tensor<16x1152xf32, #ttnn_layout21>
        "ttnn.deallocate"(%5) <{force = false}> : (tensor<16x1152xbf16, #ttnn_layout20>) -> ()
        %7 = "ttnn.reshape"(%6) <{shape = [4 : i32, 4608 : i32]}> : (tensor<16x1152xf32, #ttnn_layout21>) -> tensor<4x4608xf32, #ttnn_layout22>
        "ttnn.deallocate"(%6) <{force = false}> : (tensor<16x1152xf32, #ttnn_layout21>) -> ()
        %8 = "ttnn.linear"(%7, %0, %2) <{compute_config = #ttnn.device_compute_kernel_config<math_fidelity = hifi4, fp32_dest_acc_en = true>, transpose_a = false, transpose_b = false}> : (tensor<4x4608xf32, #ttnn_layout22>, tensor<4608x4608xf32, #ttnn_layout1>, tensor<4608xf32, #ttnn_layout10>) -> tensor<4x4608xf32, #ttnn_layout22>
        "ttnn.deallocate"(%7) <{force = false}> : (tensor<4x4608xf32, #ttnn_layout22>) -> ()
        "ttnn.deallocate"(%2) <{force = false}> : (tensor<4608xf32, #ttnn_layout10>) -> ()
        "ttnn.deallocate"(%0) <{force = false}> : (tensor<4608x4608xf32, #ttnn_layout1>) -> ()
        %9 = "ttnn.typecast"(%8) <{dtype = #ttcore.supportedDataTypes<bf16>}> : (tensor<4x4608xf32, #ttnn_layout22>) -> tensor<4x4608xbf16, #ttnn_layout23>
        "ttnn.deallocate"(%8) <{force = false}> : (tensor<4x4608xf32, #ttnn_layout22>) -> ()
        %10 = "ttnn.gelu"(%9) : (tensor<4x4608xbf16, #ttnn_layout23>) -> tensor<4x4608xbf16, #ttnn_layout23>
        "ttnn.deallocate"(%9) <{force = false}> : (tensor<4x4608xbf16, #ttnn_layout23>) -> ()
        %11 = "ttnn.typecast"(%10) <{dtype = #ttcore.supportedDataTypes<f32>}> : (tensor<4x4608xbf16, #ttnn_layout23>) -> tensor<4x4608xf32, #ttnn_layout22>
        "ttnn.deallocate"(%10) <{force = false}> : (tensor<4x4608xbf16, #ttnn_layout23>) -> ()
        %12 = "ttnn.linear"(%11, %1, %3) <{compute_config = #ttnn.device_compute_kernel_config<math_fidelity = hifi4, fp32_dest_acc_en = true>, transpose_a = false, transpose_b = false}> : (tensor<4x4608xf32, #ttnn_layout22>, tensor<4608x5120xf32, #ttnn_layout5>, tensor<5120xf32, #ttnn_layout14>) -> tensor<4x5120xf32, #ttnn_layout24>
        "ttnn.deallocate"(%11) <{force = false}> : (tensor<4x4608xf32, #ttnn_layout22>) -> ()
        "ttnn.deallocate"(%3) <{force = false}> : (tensor<5120xf32, #ttnn_layout14>) -> ()
        "ttnn.deallocate"(%1) <{force = false}> : (tensor<4608x5120xf32, #ttnn_layout5>) -> ()
        %13 = "ttnn.typecast"(%12) <{dtype = #ttcore.supportedDataTypes<bf16>}> : (tensor<4x5120xf32, #ttnn_layout24>) -> tensor<4x5120xbf16, #ttnn_layout19>
        "ttnn.deallocate"(%12) <{force = false}> : (tensor<4x5120xf32, #ttnn_layout24>) -> ()
        return %13 : tensor<4x5120xbf16, #ttnn_layout19>
      }
      func.func private @cpu_hoisted_const_eval_c20de3ae(tensor<4608x4608xf32, #ttnn_layout2>) -> tensor<4608x4608xf32, #ttnn_layout2> attributes {func_hash = "c20de3aebdaae0d5d3172535de927c38b80d2ded18f2848fa12ade3eeec2ea2f", tt.function_type = "forward_cpu_declaration"}
      func.func private @cpu_hoisted_const_eval_85fbf4fd(tensor<5120x4608xf32, #ttnn_layout6>) -> tensor<4608x5120xf32, #ttnn_layout7> attributes {func_hash = "85fbf4fdd7a519e8332d194dad5701090e43fd5e20d83bd1b133ed33636d1cc9", tt.function_type = "forward_cpu_declaration"}
      func.func private @cpu_hoisted_const_eval_165754fb(tensor<4608xf32, #ttnn_layout11>) -> tensor<4608xf32, #ttnn_layout11> attributes {func_hash = "165754fbb16a4ecbc3e6d9d6f40dc0a29c9f14fc71c9f2224d6de10cbc2048c7", tt.function_type = "forward_cpu_declaration"}
      func.func private @cpu_hoisted_const_eval_ce704573(tensor<5120xf32, #ttnn_layout15>) -> tensor<5120xf32, #ttnn_layout15> attributes {func_hash = "ce7045733633db620113c3a91c6aa761293ebd78487d01b4fdd2eb04b0e8633c", tt.function_type = "forward_cpu_declaration"}
    }
  }
  ttcore.cpu_module {
    builtin.module {
      llvm.func @malloc(i64) -> !llvm.ptr
      llvm.func @cpu_hoisted_const_eval_c20de3ae(%arg0: !llvm.ptr, %arg1: !llvm.ptr, %arg2: i64, %arg3: i64, %arg4: i64, %arg5: i64, %arg6: i64) -> !llvm.struct<(ptr, ptr, i64, array<2 x i64>, array<2 x i64>)> attributes {arg_ranks = [2], func_hash = "c20de3aebdaae0d5d3172535de927c38b80d2ded18f2848fa12ade3eeec2ea2f", result_ranks = [2], tt.function_type = "forward_cpu"} {
        %0 = llvm.mlir.poison : !llvm.struct<(ptr, ptr, i64, array<2 x i64>, array<2 x i64>)>
        %1 = llvm.mlir.zero : !llvm.ptr
        %2 = llvm.mlir.constant(64 : index) : i64
        %3 = llvm.mlir.constant(0 : index) : i64
        %4 = llvm.mlir.constant(4608 : index) : i64
        %5 = llvm.mlir.constant(1 : index) : i64
        %6 = llvm.getelementptr %1[21233664] : (!llvm.ptr) -> !llvm.ptr, f32
        %7 = llvm.ptrtoint %6 : !llvm.ptr to i64
        %8 = llvm.add %7, %2 : i64
        %9 = llvm.call @malloc(%8) : (i64) -> !llvm.ptr
        %10 = llvm.ptrtoint %9 : !llvm.ptr to i64
        %11 = llvm.sub %2, %5 : i64
        %12 = llvm.add %10, %11 : i64
        %13 = llvm.urem %12, %2 : i64
        %14 = llvm.sub %12, %13 : i64
        %15 = llvm.inttoptr %14 : i64 to !llvm.ptr
        %16 = llvm.insertvalue %9, %0[0] : !llvm.struct<(ptr, ptr, i64, array<2 x i64>, array<2 x i64>)> 
        %17 = llvm.insertvalue %15, %16[1] : !llvm.struct<(ptr, ptr, i64, array<2 x i64>, array<2 x i64>)> 
        %18 = llvm.insertvalue %3, %17[2] : !llvm.struct<(ptr, ptr, i64, array<2 x i64>, array<2 x i64>)> 
        %19 = llvm.insertvalue %4, %18[3, 0] : !llvm.struct<(ptr, ptr, i64, array<2 x i64>, array<2 x i64>)> 
        %20 = llvm.insertvalue %4, %19[3, 1] : !llvm.struct<(ptr, ptr, i64, array<2 x i64>, array<2 x i64>)> 
        %21 = llvm.insertvalue %4, %20[4, 0] : !llvm.struct<(ptr, ptr, i64, array<2 x i64>, array<2 x i64>)> 
        %22 = llvm.insertvalue %5, %21[4, 1] : !llvm.struct<(ptr, ptr, i64, array<2 x i64>, array<2 x i64>)> 
        llvm.br ^bb1(%3 : i64)
      ^bb1(%23: i64):  // 2 preds: ^bb0, ^bb5
        %24 = llvm.icmp "slt" %23, %4 : i64
        llvm.cond_br %24, ^bb2, ^bb6
      ^bb2:  // pred: ^bb1
        llvm.br ^bb3(%3 : i64)
      ^bb3(%25: i64):  // 2 preds: ^bb2, ^bb4
        %26 = llvm.icmp "slt" %25, %4 : i64
        llvm.cond_br %26, ^bb4, ^bb5
      ^bb4:  // pred: ^bb3
        %27 = llvm.mul %25, %4 overflow<nsw, nuw> : i64
        %28 = llvm.add %27, %23 overflow<nsw, nuw> : i64
        %29 = llvm.getelementptr inbounds|nuw %arg1[%28] : (!llvm.ptr, i64) -> !llvm.ptr, f32
        %30 = llvm.load %29 : !llvm.ptr -> f32
        %31 = llvm.mul %23, %4 overflow<nsw, nuw> : i64
        %32 = llvm.add %31, %25 overflow<nsw, nuw> : i64
        %33 = llvm.getelementptr inbounds|nuw %15[%32] : (!llvm.ptr, i64) -> !llvm.ptr, f32
        llvm.store %30, %33 : f32, !llvm.ptr
        %34 = llvm.add %25, %5 : i64
        llvm.br ^bb3(%34 : i64)
      ^bb5:  // pred: ^bb3
        %35 = llvm.add %23, %5 : i64
        llvm.br ^bb1(%35 : i64)
      ^bb6:  // pred: ^bb1
        llvm.return %22 : !llvm.struct<(ptr, ptr, i64, array<2 x i64>, array<2 x i64>)>
      }
      llvm.func @cpu_hoisted_const_eval_85fbf4fd(%arg0: !llvm.ptr, %arg1: !llvm.ptr, %arg2: i64, %arg3: i64, %arg4: i64, %arg5: i64, %arg6: i64) -> !llvm.struct<(ptr, ptr, i64, array<2 x i64>, array<2 x i64>)> attributes {arg_ranks = [2], func_hash = "85fbf4fdd7a519e8332d194dad5701090e43fd5e20d83bd1b133ed33636d1cc9", result_ranks = [2], tt.function_type = "forward_cpu"} {
        %0 = llvm.mlir.poison : !llvm.struct<(ptr, ptr, i64, array<2 x i64>, array<2 x i64>)>
        %1 = llvm.mlir.zero : !llvm.ptr
        %2 = llvm.mlir.constant(64 : index) : i64
        %3 = llvm.mlir.constant(0 : index) : i64
        %4 = llvm.mlir.constant(4608 : index) : i64
        %5 = llvm.mlir.constant(1 : index) : i64
        %6 = llvm.mlir.constant(5120 : index) : i64
        %7 = llvm.getelementptr %1[23592960] : (!llvm.ptr) -> !llvm.ptr, f32
        %8 = llvm.ptrtoint %7 : !llvm.ptr to i64
        %9 = llvm.add %8, %2 : i64
        %10 = llvm.call @malloc(%9) : (i64) -> !llvm.ptr
        %11 = llvm.ptrtoint %10 : !llvm.ptr to i64
        %12 = llvm.sub %2, %5 : i64
        %13 = llvm.add %11, %12 : i64
        %14 = llvm.urem %13, %2 : i64
        %15 = llvm.sub %13, %14 : i64
        %16 = llvm.inttoptr %15 : i64 to !llvm.ptr
        %17 = llvm.insertvalue %10, %0[0] : !llvm.struct<(ptr, ptr, i64, array<2 x i64>, array<2 x i64>)> 
        %18 = llvm.insertvalue %16, %17[1] : !llvm.struct<(ptr, ptr, i64, array<2 x i64>, array<2 x i64>)> 
        %19 = llvm.insertvalue %3, %18[2] : !llvm.struct<(ptr, ptr, i64, array<2 x i64>, array<2 x i64>)> 
        %20 = llvm.insertvalue %4, %19[3, 0] : !llvm.struct<(ptr, ptr, i64, array<2 x i64>, array<2 x i64>)> 
        %21 = llvm.insertvalue %6, %20[3, 1] : !llvm.struct<(ptr, ptr, i64, array<2 x i64>, array<2 x i64>)> 
        %22 = llvm.insertvalue %6, %21[4, 0] : !llvm.struct<(ptr, ptr, i64, array<2 x i64>, array<2 x i64>)> 
        %23 = llvm.insertvalue %5, %22[4, 1] : !llvm.struct<(ptr, ptr, i64, array<2 x i64>, array<2 x i64>)> 
        llvm.br ^bb1(%3 : i64)
      ^bb1(%24: i64):  // 2 preds: ^bb0, ^bb5
        %25 = llvm.icmp "slt" %24, %4 : i64
        llvm.cond_br %25, ^bb2, ^bb6
      ^bb2:  // pred: ^bb1
        llvm.br ^bb3(%3 : i64)
      ^bb3(%26: i64):  // 2 preds: ^bb2, ^bb4
        %27 = llvm.icmp "slt" %26, %6 : i64
        llvm.cond_br %27, ^bb4, ^bb5
      ^bb4:  // pred: ^bb3
        %28 = llvm.mul %26, %4 overflow<nsw, nuw> : i64
        %29 = llvm.add %28, %24 overflow<nsw, nuw> : i64
        %30 = llvm.getelementptr inbounds|nuw %arg1[%29] : (!llvm.ptr, i64) -> !llvm.ptr, f32
        %31 = llvm.load %30 : !llvm.ptr -> f32
        %32 = llvm.mul %24, %6 overflow<nsw, nuw> : i64
        %33 = llvm.add %32, %26 overflow<nsw, nuw> : i64
        %34 = llvm.getelementptr inbounds|nuw %16[%33] : (!llvm.ptr, i64) -> !llvm.ptr, f32
        llvm.store %31, %34 : f32, !llvm.ptr
        %35 = llvm.add %26, %5 : i64
        llvm.br ^bb3(%35 : i64)
      ^bb5:  // pred: ^bb3
        %36 = llvm.add %24, %5 : i64
        llvm.br ^bb1(%36 : i64)
      ^bb6:  // pred: ^bb1
        llvm.return %23 : !llvm.struct<(ptr, ptr, i64, array<2 x i64>, array<2 x i64>)>
      }
      llvm.func @cpu_hoisted_const_eval_165754fb(%arg0: !llvm.ptr, %arg1: !llvm.ptr, %arg2: i64, %arg3: i64, %arg4: i64) -> !llvm.struct<(ptr, ptr, i64, array<1 x i64>, array<1 x i64>)> attributes {arg_ranks = [1], func_hash = "165754fbb16a4ecbc3e6d9d6f40dc0a29c9f14fc71c9f2224d6de10cbc2048c7", result_ranks = [1], tt.function_type = "forward_cpu"} {
        %0 = llvm.mlir.poison : !llvm.struct<(ptr, ptr, i64, array<1 x i64>, array<1 x i64>)>
        %1 = llvm.mlir.zero : !llvm.ptr
        %2 = llvm.mlir.constant(0 : index) : i64
        %3 = llvm.mlir.constant(1 : index) : i64
        %4 = llvm.mlir.constant(4608 : index) : i64
        %5 = llvm.getelementptr %1[4608] : (!llvm.ptr) -> !llvm.ptr, f32
        %6 = llvm.ptrtoint %5 : !llvm.ptr to i64
        %7 = llvm.call @malloc(%6) : (i64) -> !llvm.ptr
        %8 = llvm.insertvalue %7, %0[0] : !llvm.struct<(ptr, ptr, i64, array<1 x i64>, array<1 x i64>)> 
        %9 = llvm.insertvalue %7, %8[1] : !llvm.struct<(ptr, ptr, i64, array<1 x i64>, array<1 x i64>)> 
        %10 = llvm.insertvalue %2, %9[2] : !llvm.struct<(ptr, ptr, i64, array<1 x i64>, array<1 x i64>)> 
        %11 = llvm.insertvalue %4, %10[3, 0] : !llvm.struct<(ptr, ptr, i64, array<1 x i64>, array<1 x i64>)> 
        %12 = llvm.insertvalue %3, %11[4, 0] : !llvm.struct<(ptr, ptr, i64, array<1 x i64>, array<1 x i64>)> 
        %13 = llvm.mul %arg3, %3 : i64
        %14 = llvm.getelementptr %1[1] : (!llvm.ptr) -> !llvm.ptr, f32
        %15 = llvm.ptrtoint %14 : !llvm.ptr to i64
        %16 = llvm.mul %13, %15 : i64
        %17 = llvm.getelementptr %arg1[%arg2] : (!llvm.ptr, i64) -> !llvm.ptr, f32
        "llvm.intr.memcpy"(%7, %17, %16) <{isVolatile = false}> : (!llvm.ptr, !llvm.ptr, i64) -> ()
        llvm.return %12 : !llvm.struct<(ptr, ptr, i64, array<1 x i64>, array<1 x i64>)>
      }
      llvm.func @cpu_hoisted_const_eval_ce704573(%arg0: !llvm.ptr, %arg1: !llvm.ptr, %arg2: i64, %arg3: i64, %arg4: i64) -> !llvm.struct<(ptr, ptr, i64, array<1 x i64>, array<1 x i64>)> attributes {arg_ranks = [1], func_hash = "ce7045733633db620113c3a91c6aa761293ebd78487d01b4fdd2eb04b0e8633c", result_ranks = [1], tt.function_type = "forward_cpu"} {
        %0 = llvm.mlir.poison : !llvm.struct<(ptr, ptr, i64, array<1 x i64>, array<1 x i64>)>
        %1 = llvm.mlir.zero : !llvm.ptr
        %2 = llvm.mlir.constant(0 : index) : i64
        %3 = llvm.mlir.constant(1 : index) : i64
        %4 = llvm.mlir.constant(5120 : index) : i64
        %5 = llvm.getelementptr %1[5120] : (!llvm.ptr) -> !llvm.ptr, f32
        %6 = llvm.ptrtoint %5 : !llvm.ptr to i64
        %7 = llvm.call @malloc(%6) : (i64) -> !llvm.ptr
        %8 = llvm.insertvalue %7, %0[0] : !llvm.struct<(ptr, ptr, i64, array<1 x i64>, array<1 x i64>)> 
        %9 = llvm.insertvalue %7, %8[1] : !llvm.struct<(ptr, ptr, i64, array<1 x i64>, array<1 x i64>)> 
        %10 = llvm.insertvalue %2, %9[2] : !llvm.struct<(ptr, ptr, i64, array<1 x i64>, array<1 x i64>)> 
        %11 = llvm.insertvalue %4, %10[3, 0] : !llvm.struct<(ptr, ptr, i64, array<1 x i64>, array<1 x i64>)> 
        %12 = llvm.insertvalue %3, %11[4, 0] : !llvm.struct<(ptr, ptr, i64, array<1 x i64>, array<1 x i64>)> 
        %13 = llvm.mul %arg3, %3 : i64
        %14 = llvm.getelementptr %1[1] : (!llvm.ptr) -> !llvm.ptr, f32
        %15 = llvm.ptrtoint %14 : !llvm.ptr to i64
        %16 = llvm.mul %13, %15 : i64
        %17 = llvm.getelementptr %arg1[%arg2] : (!llvm.ptr, i64) -> !llvm.ptr, f32
        "llvm.intr.memcpy"(%7, %17, %16) <{isVolatile = false}> : (!llvm.ptr, !llvm.ptr, i64) -> ()
        llvm.return %12 : !llvm.struct<(ptr, ptr, i64, array<1 x i64>, array<1 x i64>)>
      }
      llvm.func @cpu_hoisted_const_eval_c20de3ae_helper(%arg0: !llvm.ptr) -> !llvm.ptr {
        %0 = llvm.mlir.constant(0 : i64) : i64
        %1 = llvm.mlir.constant(4 : i64) : i64
        %2 = llvm.mul %0, %1 : i64
        %3 = llvm.getelementptr inbounds %arg0[%2] : (!llvm.ptr, i64) -> !llvm.ptr, !llvm.ptr
        %4 = llvm.load %3 : !llvm.ptr -> !llvm.struct<(ptr, ptr, i64, ptr)>
        %5 = llvm.extractvalue %4[0] : !llvm.struct<(ptr, ptr, i64, ptr)> 
        %6 = llvm.extractvalue %4[1] : !llvm.struct<(ptr, ptr, i64, ptr)> 
        %7 = llvm.extractvalue %4[2] : !llvm.struct<(ptr, ptr, i64, ptr)> 
        %8 = llvm.extractvalue %4[3] : !llvm.struct<(ptr, ptr, i64, ptr)> 
        %9 = llvm.mlir.constant(0 : i64) : i64
        %10 = llvm.getelementptr %8[%9] : (!llvm.ptr, i64) -> !llvm.ptr, !llvm.ptr
        %11 = llvm.load %10 : !llvm.ptr -> i64
        %12 = llvm.mlir.constant(1 : i64) : i64
        %13 = llvm.getelementptr %8[%12] : (!llvm.ptr, i64) -> !llvm.ptr, !llvm.ptr
        %14 = llvm.load %13 : !llvm.ptr -> i64
        %15 = llvm.mlir.constant(2 : i64) : i64
        %16 = llvm.getelementptr %8[%15] : (!llvm.ptr, i64) -> !llvm.ptr, !llvm.ptr
        %17 = llvm.load %16 : !llvm.ptr -> i64
        %18 = llvm.mlir.constant(3 : i64) : i64
        %19 = llvm.getelementptr %8[%18] : (!llvm.ptr, i64) -> !llvm.ptr, !llvm.ptr
        %20 = llvm.load %19 : !llvm.ptr -> i64
        %21 = llvm.call @cpu_hoisted_const_eval_c20de3ae(%5, %6, %7, %11, %14, %17, %20) : (!llvm.ptr, !llvm.ptr, i64, i64, i64, i64, i64) -> !llvm.struct<(ptr, ptr, i64, array<2 x i64>, array<2 x i64>)>
        %22 = llvm.mlir.constant(32 : i64) : i64
        %23 = llvm.call @malloc(%22) : (i64) -> !llvm.ptr
        %24 = llvm.mlir.constant(32 : i64) : i64
        %25 = llvm.call @malloc(%24) : (i64) -> !llvm.ptr
        %26 = llvm.extractvalue %21[0] : !llvm.struct<(ptr, ptr, i64, array<2 x i64>, array<2 x i64>)> 
        %27 = llvm.extractvalue %21[1] : !llvm.struct<(ptr, ptr, i64, array<2 x i64>, array<2 x i64>)> 
        %28 = llvm.extractvalue %21[2] : !llvm.struct<(ptr, ptr, i64, array<2 x i64>, array<2 x i64>)> 
        %29 = llvm.mlir.constant(0 : i64) : i64
        %30 = llvm.getelementptr %25[%29] : (!llvm.ptr, i64) -> !llvm.ptr, i8
        %31 = llvm.extractvalue %21[3, 0] : !llvm.struct<(ptr, ptr, i64, array<2 x i64>, array<2 x i64>)> 
        %32 = llvm.mlir.constant(0 : i64) : i64
        %33 = llvm.getelementptr %30[%32] : (!llvm.ptr, i64) -> !llvm.ptr, i64
        llvm.store %31, %33 : i64, !llvm.ptr
        %34 = llvm.extractvalue %21[3, 1] : !llvm.struct<(ptr, ptr, i64, array<2 x i64>, array<2 x i64>)> 
        %35 = llvm.mlir.constant(1 : i64) : i64
        %36 = llvm.getelementptr %30[%35] : (!llvm.ptr, i64) -> !llvm.ptr, i64
        llvm.store %34, %36 : i64, !llvm.ptr
        %37 = llvm.extractvalue %21[4, 0] : !llvm.struct<(ptr, ptr, i64, array<2 x i64>, array<2 x i64>)> 
        %38 = llvm.mlir.constant(2 : i64) : i64
        %39 = llvm.getelementptr %30[%38] : (!llvm.ptr, i64) -> !llvm.ptr, i64
        llvm.store %37, %39 : i64, !llvm.ptr
        %40 = llvm.extractvalue %21[4, 1] : !llvm.struct<(ptr, ptr, i64, array<2 x i64>, array<2 x i64>)> 
        %41 = llvm.mlir.constant(3 : i64) : i64
        %42 = llvm.getelementptr %30[%41] : (!llvm.ptr, i64) -> !llvm.ptr, i64
        llvm.store %40, %42 : i64, !llvm.ptr
        %43 = llvm.mlir.undef : !llvm.struct<(ptr, ptr, i64, ptr)>
        %44 = llvm.insertvalue %26, %43[0] : !llvm.struct<(ptr, ptr, i64, ptr)> 
        %45 = llvm.insertvalue %27, %44[1] : !llvm.struct<(ptr, ptr, i64, ptr)> 
        %46 = llvm.insertvalue %28, %45[2] : !llvm.struct<(ptr, ptr, i64, ptr)> 
        %47 = llvm.insertvalue %30, %46[3] : !llvm.struct<(ptr, ptr, i64, ptr)> 
        %48 = llvm.mlir.constant(0 : i64) : i64
        %49 = llvm.getelementptr %23[%48] : (!llvm.ptr, i64) -> !llvm.ptr, !llvm.struct<(ptr, ptr, i64, ptr)>
        llvm.store %47, %49 : !llvm.struct<(ptr, ptr, i64, ptr)>, !llvm.ptr
        llvm.return %23 : !llvm.ptr
      }
      llvm.func @cpu_hoisted_const_eval_85fbf4fd_helper(%arg0: !llvm.ptr) -> !llvm.ptr {
        %0 = llvm.mlir.constant(0 : i64) : i64
        %1 = llvm.mlir.constant(4 : i64) : i64
        %2 = llvm.mul %0, %1 : i64
        %3 = llvm.getelementptr inbounds %arg0[%2] : (!llvm.ptr, i64) -> !llvm.ptr, !llvm.ptr
        %4 = llvm.load %3 : !llvm.ptr -> !llvm.struct<(ptr, ptr, i64, ptr)>
        %5 = llvm.extractvalue %4[0] : !llvm.struct<(ptr, ptr, i64, ptr)> 
        %6 = llvm.extractvalue %4[1] : !llvm.struct<(ptr, ptr, i64, ptr)> 
        %7 = llvm.extractvalue %4[2] : !llvm.struct<(ptr, ptr, i64, ptr)> 
        %8 = llvm.extractvalue %4[3] : !llvm.struct<(ptr, ptr, i64, ptr)> 
        %9 = llvm.mlir.constant(0 : i64) : i64
        %10 = llvm.getelementptr %8[%9] : (!llvm.ptr, i64) -> !llvm.ptr, !llvm.ptr
        %11 = llvm.load %10 : !llvm.ptr -> i64
        %12 = llvm.mlir.constant(1 : i64) : i64
        %13 = llvm.getelementptr %8[%12] : (!llvm.ptr, i64) -> !llvm.ptr, !llvm.ptr
        %14 = llvm.load %13 : !llvm.ptr -> i64
        %15 = llvm.mlir.constant(2 : i64) : i64
        %16 = llvm.getelementptr %8[%15] : (!llvm.ptr, i64) -> !llvm.ptr, !llvm.ptr
        %17 = llvm.load %16 : !llvm.ptr -> i64
        %18 = llvm.mlir.constant(3 : i64) : i64
        %19 = llvm.getelementptr %8[%18] : (!llvm.ptr, i64) -> !llvm.ptr, !llvm.ptr
        %20 = llvm.load %19 : !llvm.ptr -> i64
        %21 = llvm.call @cpu_hoisted_const_eval_85fbf4fd(%5, %6, %7, %11, %14, %17, %20) : (!llvm.ptr, !llvm.ptr, i64, i64, i64, i64, i64) -> !llvm.struct<(ptr, ptr, i64, array<2 x i64>, array<2 x i64>)>
        %22 = llvm.mlir.constant(32 : i64) : i64
        %23 = llvm.call @malloc(%22) : (i64) -> !llvm.ptr
        %24 = llvm.mlir.constant(32 : i64) : i64
        %25 = llvm.call @malloc(%24) : (i64) -> !llvm.ptr
        %26 = llvm.extractvalue %21[0] : !llvm.struct<(ptr, ptr, i64, array<2 x i64>, array<2 x i64>)> 
        %27 = llvm.extractvalue %21[1] : !llvm.struct<(ptr, ptr, i64, array<2 x i64>, array<2 x i64>)> 
        %28 = llvm.extractvalue %21[2] : !llvm.struct<(ptr, ptr, i64, array<2 x i64>, array<2 x i64>)> 
        %29 = llvm.mlir.constant(0 : i64) : i64
        %30 = llvm.getelementptr %25[%29] : (!llvm.ptr, i64) -> !llvm.ptr, i8
        %31 = llvm.extractvalue %21[3, 0] : !llvm.struct<(ptr, ptr, i64, array<2 x i64>, array<2 x i64>)> 
        %32 = llvm.mlir.constant(0 : i64) : i64
        %33 = llvm.getelementptr %30[%32] : (!llvm.ptr, i64) -> !llvm.ptr, i64
        llvm.store %31, %33 : i64, !llvm.ptr
        %34 = llvm.extractvalue %21[3, 1] : !llvm.struct<(ptr, ptr, i64, array<2 x i64>, array<2 x i64>)> 
        %35 = llvm.mlir.constant(1 : i64) : i64
        %36 = llvm.getelementptr %30[%35] : (!llvm.ptr, i64) -> !llvm.ptr, i64
        llvm.store %34, %36 : i64, !llvm.ptr
        %37 = llvm.extractvalue %21[4, 0] : !llvm.struct<(ptr, ptr, i64, array<2 x i64>, array<2 x i64>)> 
        %38 = llvm.mlir.constant(2 : i64) : i64
        %39 = llvm.getelementptr %30[%38] : (!llvm.ptr, i64) -> !llvm.ptr, i64
        llvm.store %37, %39 : i64, !llvm.ptr
        %40 = llvm.extractvalue %21[4, 1] : !llvm.struct<(ptr, ptr, i64, array<2 x i64>, array<2 x i64>)> 
        %41 = llvm.mlir.constant(3 : i64) : i64
        %42 = llvm.getelementptr %30[%41] : (!llvm.ptr, i64) -> !llvm.ptr, i64
        llvm.store %40, %42 : i64, !llvm.ptr
        %43 = llvm.mlir.undef : !llvm.struct<(ptr, ptr, i64, ptr)>
        %44 = llvm.insertvalue %26, %43[0] : !llvm.struct<(ptr, ptr, i64, ptr)> 
        %45 = llvm.insertvalue %27, %44[1] : !llvm.struct<(ptr, ptr, i64, ptr)> 
        %46 = llvm.insertvalue %28, %45[2] : !llvm.struct<(ptr, ptr, i64, ptr)> 
        %47 = llvm.insertvalue %30, %46[3] : !llvm.struct<(ptr, ptr, i64, ptr)> 
        %48 = llvm.mlir.constant(0 : i64) : i64
        %49 = llvm.getelementptr %23[%48] : (!llvm.ptr, i64) -> !llvm.ptr, !llvm.struct<(ptr, ptr, i64, ptr)>
        llvm.store %47, %49 : !llvm.struct<(ptr, ptr, i64, ptr)>, !llvm.ptr
        llvm.return %23 : !llvm.ptr
      }
      llvm.func @cpu_hoisted_const_eval_165754fb_helper(%arg0: !llvm.ptr) -> !llvm.ptr {
        %0 = llvm.mlir.constant(0 : i64) : i64
        %1 = llvm.mlir.constant(4 : i64) : i64
        %2 = llvm.mul %0, %1 : i64
        %3 = llvm.getelementptr inbounds %arg0[%2] : (!llvm.ptr, i64) -> !llvm.ptr, !llvm.ptr
        %4 = llvm.load %3 : !llvm.ptr -> !llvm.struct<(ptr, ptr, i64, ptr)>
        %5 = llvm.extractvalue %4[0] : !llvm.struct<(ptr, ptr, i64, ptr)> 
        %6 = llvm.extractvalue %4[1] : !llvm.struct<(ptr, ptr, i64, ptr)> 
        %7 = llvm.extractvalue %4[2] : !llvm.struct<(ptr, ptr, i64, ptr)> 
        %8 = llvm.extractvalue %4[3] : !llvm.struct<(ptr, ptr, i64, ptr)> 
        %9 = llvm.mlir.constant(0 : i64) : i64
        %10 = llvm.getelementptr %8[%9] : (!llvm.ptr, i64) -> !llvm.ptr, !llvm.ptr
        %11 = llvm.load %10 : !llvm.ptr -> i64
        %12 = llvm.mlir.constant(1 : i64) : i64
        %13 = llvm.getelementptr %8[%12] : (!llvm.ptr, i64) -> !llvm.ptr, !llvm.ptr
        %14 = llvm.load %13 : !llvm.ptr -> i64
        %15 = llvm.call @cpu_hoisted_const_eval_165754fb(%5, %6, %7, %11, %14) : (!llvm.ptr, !llvm.ptr, i64, i64, i64) -> !llvm.struct<(ptr, ptr, i64, array<1 x i64>, array<1 x i64>)>
        %16 = llvm.mlir.constant(32 : i64) : i64
        %17 = llvm.call @malloc(%16) : (i64) -> !llvm.ptr
        %18 = llvm.mlir.constant(16 : i64) : i64
        %19 = llvm.call @malloc(%18) : (i64) -> !llvm.ptr
        %20 = llvm.extractvalue %15[0] : !llvm.struct<(ptr, ptr, i64, array<1 x i64>, array<1 x i64>)> 
        %21 = llvm.extractvalue %15[1] : !llvm.struct<(ptr, ptr, i64, array<1 x i64>, array<1 x i64>)> 
        %22 = llvm.extractvalue %15[2] : !llvm.struct<(ptr, ptr, i64, array<1 x i64>, array<1 x i64>)> 
        %23 = llvm.mlir.constant(0 : i64) : i64
        %24 = llvm.getelementptr %19[%23] : (!llvm.ptr, i64) -> !llvm.ptr, i8
        %25 = llvm.extractvalue %15[3, 0] : !llvm.struct<(ptr, ptr, i64, array<1 x i64>, array<1 x i64>)> 
        %26 = llvm.mlir.constant(0 : i64) : i64
        %27 = llvm.getelementptr %24[%26] : (!llvm.ptr, i64) -> !llvm.ptr, i64
        llvm.store %25, %27 : i64, !llvm.ptr
        %28 = llvm.extractvalue %15[4, 0] : !llvm.struct<(ptr, ptr, i64, array<1 x i64>, array<1 x i64>)> 
        %29 = llvm.mlir.constant(1 : i64) : i64
        %30 = llvm.getelementptr %24[%29] : (!llvm.ptr, i64) -> !llvm.ptr, i64
        llvm.store %28, %30 : i64, !llvm.ptr
        %31 = llvm.mlir.undef : !llvm.struct<(ptr, ptr, i64, ptr)>
        %32 = llvm.insertvalue %20, %31[0] : !llvm.struct<(ptr, ptr, i64, ptr)> 
        %33 = llvm.insertvalue %21, %32[1] : !llvm.struct<(ptr, ptr, i64, ptr)> 
        %34 = llvm.insertvalue %22, %33[2] : !llvm.struct<(ptr, ptr, i64, ptr)> 
        %35 = llvm.insertvalue %24, %34[3] : !llvm.struct<(ptr, ptr, i64, ptr)> 
        %36 = llvm.mlir.constant(0 : i64) : i64
        %37 = llvm.getelementptr %17[%36] : (!llvm.ptr, i64) -> !llvm.ptr, !llvm.struct<(ptr, ptr, i64, ptr)>
        llvm.store %35, %37 : !llvm.struct<(ptr, ptr, i64, ptr)>, !llvm.ptr
        llvm.return %17 : !llvm.ptr
      }
      llvm.func @cpu_hoisted_const_eval_ce704573_helper(%arg0: !llvm.ptr) -> !llvm.ptr {
        %0 = llvm.mlir.constant(0 : i64) : i64
        %1 = llvm.mlir.constant(4 : i64) : i64
        %2 = llvm.mul %0, %1 : i64
        %3 = llvm.getelementptr inbounds %arg0[%2] : (!llvm.ptr, i64) -> !llvm.ptr, !llvm.ptr
        %4 = llvm.load %3 : !llvm.ptr -> !llvm.struct<(ptr, ptr, i64, ptr)>
        %5 = llvm.extractvalue %4[0] : !llvm.struct<(ptr, ptr, i64, ptr)> 
        %6 = llvm.extractvalue %4[1] : !llvm.struct<(ptr, ptr, i64, ptr)> 
        %7 = llvm.extractvalue %4[2] : !llvm.struct<(ptr, ptr, i64, ptr)> 
        %8 = llvm.extractvalue %4[3] : !llvm.struct<(ptr, ptr, i64, ptr)> 
        %9 = llvm.mlir.constant(0 : i64) : i64
        %10 = llvm.getelementptr %8[%9] : (!llvm.ptr, i64) -> !llvm.ptr, !llvm.ptr
        %11 = llvm.load %10 : !llvm.ptr -> i64
        %12 = llvm.mlir.constant(1 : i64) : i64
        %13 = llvm.getelementptr %8[%12] : (!llvm.ptr, i64) -> !llvm.ptr, !llvm.ptr
        %14 = llvm.load %13 : !llvm.ptr -> i64
        %15 = llvm.call @cpu_hoisted_const_eval_ce704573(%5, %6, %7, %11, %14) : (!llvm.ptr, !llvm.ptr, i64, i64, i64) -> !llvm.struct<(ptr, ptr, i64, array<1 x i64>, array<1 x i64>)>
        %16 = llvm.mlir.constant(32 : i64) : i64
        %17 = llvm.call @malloc(%16) : (i64) -> !llvm.ptr
        %18 = llvm.mlir.constant(16 : i64) : i64
        %19 = llvm.call @malloc(%18) : (i64) -> !llvm.ptr
        %20 = llvm.extractvalue %15[0] : !llvm.struct<(ptr, ptr, i64, array<1 x i64>, array<1 x i64>)> 
        %21 = llvm.extractvalue %15[1] : !llvm.struct<(ptr, ptr, i64, array<1 x i64>, array<1 x i64>)> 
        %22 = llvm.extractvalue %15[2] : !llvm.struct<(ptr, ptr, i64, array<1 x i64>, array<1 x i64>)> 
        %23 = llvm.mlir.constant(0 : i64) : i64
        %24 = llvm.getelementptr %19[%23] : (!llvm.ptr, i64) -> !llvm.ptr, i8
        %25 = llvm.extractvalue %15[3, 0] : !llvm.struct<(ptr, ptr, i64, array<1 x i64>, array<1 x i64>)> 
        %26 = llvm.mlir.constant(0 : i64) : i64
        %27 = llvm.getelementptr %24[%26] : (!llvm.ptr, i64) -> !llvm.ptr, i64
        llvm.store %25, %27 : i64, !llvm.ptr
        %28 = llvm.extractvalue %15[4, 0] : !llvm.struct<(ptr, ptr, i64, array<1 x i64>, array<1 x i64>)> 
        %29 = llvm.mlir.constant(1 : i64) : i64
        %30 = llvm.getelementptr %24[%29] : (!llvm.ptr, i64) -> !llvm.ptr, i64
        llvm.store %28, %30 : i64, !llvm.ptr
        %31 = llvm.mlir.undef : !llvm.struct<(ptr, ptr, i64, ptr)>
        %32 = llvm.insertvalue %20, %31[0] : !llvm.struct<(ptr, ptr, i64, ptr)> 
        %33 = llvm.insertvalue %21, %32[1] : !llvm.struct<(ptr, ptr, i64, ptr)> 
        %34 = llvm.insertvalue %22, %33[2] : !llvm.struct<(ptr, ptr, i64, ptr)> 
        %35 = llvm.insertvalue %24, %34[3] : !llvm.struct<(ptr, ptr, i64, ptr)> 
        %36 = llvm.mlir.constant(0 : i64) : i64
        %37 = llvm.getelementptr %17[%36] : (!llvm.ptr, i64) -> !llvm.ptr, !llvm.struct<(ptr, ptr, i64, ptr)>
        llvm.store %35, %37 : !llvm.struct<(ptr, ptr, i64, ptr)>, !llvm.ptr
        llvm.return %17 : !llvm.ptr
      }
    }
  }
}
------------------ END OF MLIR MODULE ------------------
Compiled model
Model: Qwen/Qwen3.5-27B (full vision encoder)
Input pixel patches shape: (16, 1536)
Grid (T, H, W): [[1, 4, 4]]
Output pooler shape: (4, 5120)
Expected: 4 merged tokens x 5120 dims
PCC: 0.260452  (threshold: 0.99)
Result: FAIL
Traceback (most recent call last):
  File "/localdev/jameszianxu/clean/tt-xla/qwen_3_5_vision_encoder_demo.py", line 72, in <module>
    assert passed, f"PCC {pcc:.6f} is below threshold {PCC_THRESHOLD}"
           ^^^^^^
AssertionError: PCC 0.260452 is below threshold 0.99
