2026-04-23 16:20:19.586 | INFO     | pjrt_plugin_tt:setup_tt_pjrt_plugin_dir:42 - Using PJRT plugin directory: /localdev/jameszianxu/aot/tt-xla/python_package/pjrt_plugin_tt
2026-04-23 16:20:19.587 | INFO     | pjrt_plugin_tt:setup_tt_metal_home:103 - Using TT-Metal from the source tree: /localdev/jameszianxu/aot/tt-xla/third_party/tt-mlir/src/tt-mlir/third_party/tt-metal/src/tt-metal
2026-04-23 16:20:19.587 | WARNING  | torch_plugin_tt:__init__:38 - TT plugin is setting XLA_STABLEHLO_COMPILE to 1. This is required for TT PJRT plugin to work correctly.
============================= test session starts ==============================
platform linux -- Python 3.12.3, pytest-9.0.3, pluggy-1.6.0 -- /localdev/jameszianxu/aot/tt-xla/venv/bin/python
cachedir: .pytest_cache
metadata: {'Python': '3.12.3', 'Platform': 'Linux-6.8.0-85-generic-x86_64-with-glibc2.39', 'Packages': {'pytest': '9.0.3', 'pluggy': '1.6.0'}, 'Plugins': {'metadata': '3.1.1', 'jaxtyping': '0.3.9', 'anyio': '4.13.0', 'json-report': '1.5.0', 'forked': '1.6.0', 'split': '0.11.0'}}
rootdir: /localdev/jameszianxu/aot/tt-xla
configfile: pytest.ini
plugins: metadata-3.1.1, jaxtyping-0.3.9, anyio-4.13.0, json-report-1.5.0, forked-1.6.0, split-0.11.0
collecting ... collected 1 item

tests/torch/training/test_basic.py::test_qwen3_multichip_backward Loading weights:   0%|          | 0/311 [00:00<?, ?it/s]Loading weights:   0%|          | 1/311 [00:00<00:00, 13066.37it/s, Materializing param=lm_head.weight]Loading weights:   0%|          | 1/311 [00:00<00:00, 3983.19it/s, Materializing param=lm_head.weight] Loading weights:   1%|          | 2/311 [00:00<00:00, 3355.44it/s, Materializing param=model.embed_tokens.weight]Loading weights:   1%|          | 2/311 [00:00<00:00, 3021.83it/s, Materializing param=model.embed_tokens.weight]Loading weights:   1%|          | 3/311 [00:00<00:00, 3795.75it/s, Materializing param=model.layers.0.input_layernorm.weight]Loading weights:   1%|          | 3/311 [00:00<00:00, 3547.48it/s, Materializing param=model.layers.0.input_layernorm.weight]Loading weights:   1%|▏         | 4/311 [00:00<00:00, 4147.64it/s, Materializing param=model.layers.0.mlp.down_proj.weight]  Loading weights:   1%|▏         | 4/311 [00:00<00:00, 3912.60it/s, Materializing param=model.layers.0.mlp.down_proj.weight]Loading weights:   2%|▏         | 5/311 [00:00<00:00, 4409.49it/s, Materializing param=model.layers.0.mlp.gate_proj.weight]Loading weights:   2%|▏         | 5/311 [00:00<00:00, 4212.84it/s, Materializing param=model.layers.0.mlp.gate_proj.weight]Loading weights:   2%|▏         | 6/311 [00:00<00:00, 4634.59it/s, Materializing param=model.layers.0.mlp.up_proj.weight]  Loading weights:   2%|▏         | 6/311 [00:00<00:00, 4450.98it/s, Materializing param=model.layers.0.mlp.up_proj.weight]Loading weights:   2%|▏         | 7/311 [00:00<00:00, 4770.90it/s, Materializing param=model.layers.0.post_attention_layernorm.weight]Loading weights:   2%|▏         | 7/311 [00:00<00:00, 4603.34it/s, Materializing param=model.layers.0.post_attention_layernorm.weight]Loading weights:   3%|▎         | 8/311 [00:00<00:00, 4924.34it/s, Materializing param=model.layers.0.self_attn.k_norm.weight]        Loading weights:   3%|▎         | 8/311 [00:00<00:00, 4773.71it/s, Materializing param=model.layers.0.self_attn.k_norm.weight]Loading weights:   3%|▎         | 9/311 [00:00<00:00, 5050.67it/s, Materializing param=model.layers.0.self_attn.k_proj.weight]Loading weights:   3%|▎         | 9/311 [00:00<00:00, 4911.36it/s, Materializing param=model.layers.0.self_attn.k_proj.weight]Loading weights:   3%|▎         | 10/311 [00:00<00:00, 5168.58it/s, Materializing param=model.layers.0.self_attn.o_proj.weight]Loading weights:   3%|▎         | 10/311 [00:00<00:00, 5033.37it/s, Materializing param=model.layers.0.self_attn.o_proj.weight]Loading weights:   4%|▎         | 11/311 [00:00<00:00, 5269.83it/s, Materializing param=model.layers.0.self_attn.q_norm.weight]Loading weights:   4%|▎         | 11/311 [00:00<00:00, 5144.66it/s, Materializing param=model.layers.0.self_attn.q_norm.weight]Loading weights:   4%|▍         | 12/311 [00:00<00:00, 5356.14it/s, Materializing param=model.layers.0.self_attn.q_proj.weight]Loading weights:   4%|▍         | 12/311 [00:00<00:00, 5238.51it/s, Materializing param=model.layers.0.self_attn.q_proj.weight]Loading weights:   4%|▍         | 13/311 [00:00<00:00, 5407.71it/s, Materializing param=model.layers.0.self_attn.v_proj.weight]Loading weights:   4%|▍         | 13/311 [00:00<00:00, 5291.21it/s, Materializing param=model.layers.0.self_attn.v_proj.weight]Loading weights:   5%|▍         | 14/311 [00:00<00:00, 5465.40it/s, Materializing param=model.layers.1.input_layernorm.weight] Loading weights:   5%|▍         | 14/311 [00:00<00:00, 5360.13it/s, Materializing param=model.layers.1.input_layernorm.weight]Loading weights:   5%|▍         | 15/311 [00:00<00:00, 5527.06it/s, Materializing param=model.layers.1.mlp.down_proj.weight]  Loading weights:   5%|▍         | 15/311 [00:00<00:00, 5426.48it/s, Materializing param=model.layers.1.mlp.down_proj.weight]Loading weights:   5%|▌         | 16/311 [00:00<00:00, 5586.35it/s, Materializing param=model.layers.1.mlp.gate_proj.weight]Loading weights:   5%|▌         | 16/311 [00:00<00:00, 5491.72it/s, Materializing param=model.layers.1.mlp.gate_proj.weight]Loading weights:   5%|▌         | 17/311 [00:00<00:00, 5641.52it/s, Materializing param=model.layers.1.mlp.up_proj.weight]  Loading weights:   5%|▌         | 17/311 [00:00<00:00, 5548.88it/s, Materializing param=model.layers.1.mlp.up_proj.weight]Loading weights:   6%|▌         | 18/311 [00:00<00:00, 5693.63it/s, Materializing param=model.layers.1.post_attention_layernorm.weight]Loading weights:   6%|▌         | 18/311 [00:00<00:00, 5599.04it/s, Materializing param=model.layers.1.post_attention_layernorm.weight]Loading weights:   6%|▌         | 19/311 [00:00<00:00, 5731.57it/s, Materializing param=model.layers.1.self_attn.k_norm.weight]        Loading weights:   6%|▌         | 19/311 [00:00<00:00, 5645.09it/s, Materializing param=model.layers.1.self_attn.k_norm.weight]Loading weights:   6%|▋         | 20/311 [00:00<00:00, 2283.11it/s, Materializing param=model.layers.1.self_attn.k_proj.weight]Loading weights:   6%|▋         | 20/311 [00:00<00:00, 2261.51it/s, Materializing param=model.layers.1.self_attn.k_proj.weight]Loading weights:   7%|▋         | 21/311 [00:00<00:00, 2335.42it/s, Materializing param=model.layers.1.self_attn.o_proj.weight]Loading weights:   7%|▋         | 21/311 [00:00<00:00, 2319.86it/s, Materializing param=model.layers.1.self_attn.o_proj.weight]Loading weights:   7%|▋         | 22/311 [00:00<00:00, 2393.02it/s, Materializing param=model.layers.1.self_attn.q_norm.weight]Loading weights:   7%|▋         | 22/311 [00:00<00:00, 2377.91it/s, Materializing param=model.layers.1.self_attn.q_norm.weight]Loading weights:   7%|▋         | 23/311 [00:00<00:00, 2445.47it/s, Materializing param=model.layers.1.self_attn.q_proj.weight]Loading weights:   7%|▋         | 23/311 [00:00<00:00, 2402.48it/s, Materializing param=model.layers.1.self_attn.q_proj.weight]Loading weights:   8%|▊         | 24/311 [00:00<00:00, 2450.78it/s, Materializing param=model.layers.1.self_attn.v_proj.weight]Loading weights:   8%|▊         | 24/311 [00:00<00:00, 2414.86it/s, Materializing param=model.layers.1.self_attn.v_proj.weight]Loading weights:   8%|▊         | 25/311 [00:00<00:00, 2461.79it/s, Materializing param=model.layers.2.input_layernorm.weight] Loading weights:   8%|▊         | 25/311 [00:00<00:00, 2185.63it/s, Materializing param=model.layers.2.input_layernorm.weight]Loading weights:   8%|▊         | 26/311 [00:00<00:00, 2231.51it/s, Materializing param=model.layers.2.mlp.down_proj.weight]  Loading weights:   8%|▊         | 26/311 [00:00<00:00, 2218.13it/s, Materializing param=model.layers.2.mlp.down_proj.weight]Loading weights:   9%|▊         | 27/311 [00:00<00:00, 2279.38it/s, Materializing param=model.layers.2.mlp.gate_proj.weight]Loading weights:   9%|▊         | 27/311 [00:00<00:00, 2268.24it/s, Materializing param=model.layers.2.mlp.gate_proj.weight]Loading weights:   9%|▉         | 28/311 [00:00<00:00, 2329.89it/s, Materializing param=model.layers.2.mlp.up_proj.weight]  Loading weights:   9%|▉         | 28/311 [00:00<00:00, 2318.80it/s, Materializing param=model.layers.2.mlp.up_proj.weight]Loading weights:   9%|▉         | 29/311 [00:00<00:00, 2379.91it/s, Materializing param=model.layers.2.post_attention_layernorm.weight]Loading weights:   9%|▉         | 29/311 [00:00<00:00, 2368.28it/s, Materializing param=model.layers.2.post_attention_layernorm.weight]Loading weights:  10%|▉         | 30/311 [00:00<00:00, 2427.59it/s, Materializing param=model.layers.2.self_attn.k_norm.weight]        Loading weights:  10%|▉         | 30/311 [00:00<00:00, 2415.05it/s, Materializing param=model.layers.2.self_attn.k_norm.weight]Loading weights:  10%|▉         | 31/311 [00:00<00:00, 2473.43it/s, Materializing param=model.layers.2.self_attn.k_proj.weight]Loading weights:  10%|▉         | 31/311 [00:00<00:00, 2462.47it/s, Materializing param=model.layers.2.self_attn.k_proj.weight]Loading weights:  10%|█         | 32/311 [00:00<00:00, 2519.91it/s, Materializing param=model.layers.2.self_attn.o_proj.weight]Loading weights:  10%|█         | 32/311 [00:00<00:00, 2509.16it/s, Materializing param=model.layers.2.self_attn.o_proj.weight]Loading weights:  11%|█         | 33/311 [00:00<00:00, 2565.70it/s, Materializing param=model.layers.2.self_attn.q_norm.weight]Loading weights:  11%|█         | 33/311 [00:00<00:00, 2554.81it/s, Materializing param=model.layers.2.self_attn.q_norm.weight]Loading weights:  11%|█         | 34/311 [00:00<00:00, 2609.64it/s, Materializing param=model.layers.2.self_attn.q_proj.weight]Loading weights:  11%|█         | 34/311 [00:00<00:00, 2595.34it/s, Materializing param=model.layers.2.self_attn.q_proj.weight]Loading weights:  11%|█▏        | 35/311 [00:00<00:00, 2644.53it/s, Materializing param=model.layers.2.self_attn.v_proj.weight]Loading weights:  11%|█▏        | 35/311 [00:00<00:00, 2632.96it/s, Materializing param=model.layers.2.self_attn.v_proj.weight]Loading weights:  12%|█▏        | 36/311 [00:00<00:00, 2683.21it/s, Materializing param=model.layers.3.input_layernorm.weight] Loading weights:  12%|█▏        | 36/311 [00:00<00:00, 2672.24it/s, Materializing param=model.layers.3.input_layernorm.weight]Loading weights:  12%|█▏        | 37/311 [00:00<00:00, 2724.34it/s, Materializing param=model.layers.3.mlp.down_proj.weight]  Loading weights:  12%|█▏        | 37/311 [00:00<00:00, 2713.91it/s, Materializing param=model.layers.3.mlp.down_proj.weight]Loading weights:  12%|█▏        | 38/311 [00:00<00:00, 2765.54it/s, Materializing param=model.layers.3.mlp.gate_proj.weight]Loading weights:  12%|█▏        | 38/311 [00:00<00:00, 2755.26it/s, Materializing param=model.layers.3.mlp.gate_proj.weight]Loading weights:  13%|█▎        | 39/311 [00:00<00:00, 2806.37it/s, Materializing param=model.layers.3.mlp.up_proj.weight]  Loading weights:  13%|█▎        | 39/311 [00:00<00:00, 2794.86it/s, Materializing param=model.layers.3.mlp.up_proj.weight]Loading weights:  13%|█▎        | 40/311 [00:00<00:00, 2844.80it/s, Materializing param=model.layers.3.post_attention_layernorm.weight]Loading weights:  13%|█▎        | 40/311 [00:00<00:00, 2833.80it/s, Materializing param=model.layers.3.post_attention_layernorm.weight]Loading weights:  13%|█▎        | 41/311 [00:00<00:00, 2882.83it/s, Materializing param=model.layers.3.self_attn.k_norm.weight]        Loading weights:  13%|█▎        | 41/311 [00:00<00:00, 2872.48it/s, Materializing param=model.layers.3.self_attn.k_norm.weight]Loading weights:  14%|█▎        | 42/311 [00:00<00:00, 2918.79it/s, Materializing param=model.layers.3.self_attn.k_proj.weight]Loading weights:  14%|█▎        | 42/311 [00:00<00:00, 2907.90it/s, Materializing param=model.layers.3.self_attn.k_proj.weight]Loading weights:  14%|█▍        | 43/311 [00:00<00:00, 2955.14it/s, Materializing param=model.layers.3.self_attn.o_proj.weight]Loading weights:  14%|█▍        | 43/311 [00:00<00:00, 2944.38it/s, Materializing param=model.layers.3.self_attn.o_proj.weight]Loading weights:  14%|█▍        | 44/311 [00:00<00:00, 2990.93it/s, Materializing param=model.layers.3.self_attn.q_norm.weight]Loading weights:  14%|█▍        | 44/311 [00:00<00:00, 2980.45it/s, Materializing param=model.layers.3.self_attn.q_norm.weight]Loading weights:  14%|█▍        | 45/311 [00:00<00:00, 3026.63it/s, Materializing param=model.layers.3.self_attn.q_proj.weight]Loading weights:  14%|█▍        | 45/311 [00:00<00:00, 3016.09it/s, Materializing param=model.layers.3.self_attn.q_proj.weight]Loading weights:  15%|█▍        | 46/311 [00:00<00:00, 3061.88it/s, Materializing param=model.layers.3.self_attn.v_proj.weight]Loading weights:  15%|█▍        | 46/311 [00:00<00:00, 3051.37it/s, Materializing param=model.layers.3.self_attn.v_proj.weight]Loading weights:  15%|█▌        | 47/311 [00:00<00:00, 3094.89it/s, Materializing param=model.layers.4.input_layernorm.weight] Loading weights:  15%|█▌        | 47/311 [00:00<00:00, 3084.48it/s, Materializing param=model.layers.4.input_layernorm.weight]Loading weights:  15%|█▌        | 48/311 [00:00<00:00, 3128.72it/s, Materializing param=model.layers.4.mlp.down_proj.weight]  Loading weights:  15%|█▌        | 48/311 [00:00<00:00, 2835.71it/s, Materializing param=model.layers.4.mlp.down_proj.weight]Loading weights:  16%|█▌        | 49/311 [00:00<00:00, 2849.67it/s, Materializing param=model.layers.4.mlp.gate_proj.weight]Loading weights:  16%|█▌        | 49/311 [00:00<00:00, 2839.71it/s, Materializing param=model.layers.4.mlp.gate_proj.weight]Loading weights:  16%|█▌        | 50/311 [00:00<00:00, 2863.44it/s, Materializing param=model.layers.4.mlp.up_proj.weight]  Loading weights:  16%|█▌        | 50/311 [00:00<00:00, 2853.81it/s, Materializing param=model.layers.4.mlp.up_proj.weight]Loading weights:  16%|█▋        | 51/311 [00:00<00:00, 2877.95it/s, Materializing param=model.layers.4.post_attention_layernorm.weight]Loading weights:  16%|█▋        | 51/311 [00:00<00:00, 2868.27it/s, Materializing param=model.layers.4.post_attention_layernorm.weight]Loading weights:  17%|█▋        | 52/311 [00:00<00:00, 2892.70it/s, Materializing param=model.layers.4.self_attn.k_norm.weight]        Loading weights:  17%|█▋        | 52/311 [00:00<00:00, 2883.25it/s, Materializing param=model.layers.4.self_attn.k_norm.weight]Loading weights:  17%|█▋        | 53/311 [00:00<00:00, 2907.57it/s, Materializing param=model.layers.4.self_attn.k_proj.weight]Loading weights:  17%|█▋        | 53/311 [00:00<00:00, 2898.51it/s, Materializing param=model.layers.4.self_attn.k_proj.weight]Loading weights:  17%|█▋        | 54/311 [00:00<00:00, 2904.98it/s, Materializing param=model.layers.4.self_attn.o_proj.weight]Loading weights:  17%|█▋        | 54/311 [00:00<00:00, 2896.99it/s, Materializing param=model.layers.4.self_attn.o_proj.weight]Loading weights:  18%|█▊        | 55/311 [00:00<00:00, 2540.35it/s, Materializing param=model.layers.4.self_attn.q_norm.weight]Loading weights:  18%|█▊        | 55/311 [00:00<00:00, 2531.99it/s, Materializing param=model.layers.4.self_attn.q_norm.weight]Loading weights:  18%|█▊        | 56/311 [00:00<00:00, 2563.95it/s, Materializing param=model.layers.4.self_attn.q_proj.weight]Loading weights:  18%|█▊        | 56/311 [00:00<00:00, 2557.45it/s, Materializing param=model.layers.4.self_attn.q_proj.weight]Loading weights:  18%|█▊        | 57/311 [00:00<00:00, 2590.51it/s, Materializing param=model.layers.4.self_attn.v_proj.weight]Loading weights:  18%|█▊        | 57/311 [00:00<00:00, 2584.51it/s, Materializing param=model.layers.4.self_attn.v_proj.weight]Loading weights:  19%|█▊        | 58/311 [00:00<00:00, 2617.43it/s, Materializing param=model.layers.5.input_layernorm.weight] Loading weights:  19%|█▊        | 58/311 [00:00<00:00, 2611.39it/s, Materializing param=model.layers.5.input_layernorm.weight]Loading weights:  19%|█▉        | 59/311 [00:00<00:00, 2643.85it/s, Materializing param=model.layers.5.mlp.down_proj.weight]  Loading weights:  19%|█▉        | 59/311 [00:00<00:00, 2637.79it/s, Materializing param=model.layers.5.mlp.down_proj.weight]Loading weights:  19%|█▉        | 60/311 [00:00<00:00, 2668.81it/s, Materializing param=model.layers.5.mlp.gate_proj.weight]Loading weights:  19%|█▉        | 60/311 [00:00<00:00, 2662.71it/s, Materializing param=model.layers.5.mlp.gate_proj.weight]Loading weights:  20%|█▉        | 61/311 [00:00<00:00, 2694.43it/s, Materializing param=model.layers.5.mlp.up_proj.weight]  Loading weights:  20%|█▉        | 61/311 [00:00<00:00, 2688.40it/s, Materializing param=model.layers.5.mlp.up_proj.weight]Loading weights:  20%|█▉        | 62/311 [00:00<00:00, 2720.13it/s, Materializing param=model.layers.5.post_attention_layernorm.weight]Loading weights:  20%|█▉        | 62/311 [00:00<00:00, 2713.82it/s, Materializing param=model.layers.5.post_attention_layernorm.weight]Loading weights:  20%|██        | 63/311 [00:00<00:00, 2745.36it/s, Materializing param=model.layers.5.self_attn.k_norm.weight]        Loading weights:  20%|██        | 63/311 [00:00<00:00, 2738.90it/s, Materializing param=model.layers.5.self_attn.k_norm.weight]Loading weights:  21%|██        | 64/311 [00:00<00:00, 2769.89it/s, Materializing param=model.layers.5.self_attn.k_proj.weight]Loading weights:  21%|██        | 64/311 [00:00<00:00, 2763.67it/s, Materializing param=model.layers.5.self_attn.k_proj.weight]Loading weights:  21%|██        | 65/311 [00:00<00:00, 2794.45it/s, Materializing param=model.layers.5.self_attn.o_proj.weight]Loading weights:  21%|██        | 65/311 [00:00<00:00, 2788.11it/s, Materializing param=model.layers.5.self_attn.o_proj.weight]Loading weights:  21%|██        | 66/311 [00:00<00:00, 2817.35it/s, Materializing param=model.layers.5.self_attn.q_norm.weight]Loading weights:  21%|██        | 66/311 [00:00<00:00, 2810.88it/s, Materializing param=model.layers.5.self_attn.q_norm.weight]Loading weights:  22%|██▏       | 67/311 [00:00<00:00, 2841.24it/s, Materializing param=model.layers.5.self_attn.q_proj.weight]Loading weights:  22%|██▏       | 67/311 [00:00<00:00, 2834.99it/s, Materializing param=model.layers.5.self_attn.q_proj.weight]Loading weights:  22%|██▏       | 68/311 [00:00<00:00, 2865.05it/s, Materializing param=model.layers.5.self_attn.v_proj.weight]Loading weights:  22%|██▏       | 68/311 [00:00<00:00, 2858.79it/s, Materializing param=model.layers.5.self_attn.v_proj.weight]Loading weights:  22%|██▏       | 69/311 [00:00<00:00, 2888.41it/s, Materializing param=model.layers.6.input_layernorm.weight] Loading weights:  22%|██▏       | 69/311 [00:00<00:00, 2882.14it/s, Materializing param=model.layers.6.input_layernorm.weight]Loading weights:  23%|██▎       | 70/311 [00:00<00:00, 2911.35it/s, Materializing param=model.layers.6.mlp.down_proj.weight]  Loading weights:  23%|██▎       | 70/311 [00:00<00:00, 2905.30it/s, Materializing param=model.layers.6.mlp.down_proj.weight]Loading weights:  23%|██▎       | 71/311 [00:00<00:00, 2934.29it/s, Materializing param=model.layers.6.mlp.gate_proj.weight]Loading weights:  23%|██▎       | 71/311 [00:00<00:00, 2927.86it/s, Materializing param=model.layers.6.mlp.gate_proj.weight]Loading weights:  23%|██▎       | 72/311 [00:00<00:00, 2956.71it/s, Materializing param=model.layers.6.mlp.up_proj.weight]  Loading weights:  23%|██▎       | 72/311 [00:00<00:00, 2949.44it/s, Materializing param=model.layers.6.mlp.up_proj.weight]Loading weights:  23%|██▎       | 73/311 [00:00<00:00, 2977.98it/s, Materializing param=model.layers.6.post_attention_layernorm.weight]Loading weights:  23%|██▎       | 73/311 [00:00<00:00, 2971.77it/s, Materializing param=model.layers.6.post_attention_layernorm.weight]Loading weights:  24%|██▍       | 74/311 [00:00<00:00, 3000.04it/s, Materializing param=model.layers.6.self_attn.k_norm.weight]        Loading weights:  24%|██▍       | 74/311 [00:00<00:00, 2993.91it/s, Materializing param=model.layers.6.self_attn.k_norm.weight]Loading weights:  24%|██▍       | 75/311 [00:00<00:00, 3021.95it/s, Materializing param=model.layers.6.self_attn.k_proj.weight]Loading weights:  24%|██▍       | 75/311 [00:00<00:00, 3015.78it/s, Materializing param=model.layers.6.self_attn.k_proj.weight]Loading weights:  24%|██▍       | 76/311 [00:00<00:00, 3043.47it/s, Materializing param=model.layers.6.self_attn.o_proj.weight]Loading weights:  24%|██▍       | 76/311 [00:00<00:00, 3037.35it/s, Materializing param=model.layers.6.self_attn.o_proj.weight]Loading weights:  25%|██▍       | 77/311 [00:00<00:00, 3064.88it/s, Materializing param=model.layers.6.self_attn.q_norm.weight]Loading weights:  25%|██▍       | 77/311 [00:00<00:00, 3058.69it/s, Materializing param=model.layers.6.self_attn.q_norm.weight]Loading weights:  25%|██▌       | 78/311 [00:00<00:00, 3086.14it/s, Materializing param=model.layers.6.self_attn.q_proj.weight]Loading weights:  25%|██▌       | 78/311 [00:00<00:00, 3080.13it/s, Materializing param=model.layers.6.self_attn.q_proj.weight]Loading weights:  25%|██▌       | 79/311 [00:00<00:00, 3105.76it/s, Materializing param=model.layers.6.self_attn.v_proj.weight]Loading weights:  25%|██▌       | 79/311 [00:00<00:00, 3099.42it/s, Materializing param=model.layers.6.self_attn.v_proj.weight]Loading weights:  26%|██▌       | 80/311 [00:00<00:00, 3126.29it/s, Materializing param=model.layers.7.input_layernorm.weight] Loading weights:  26%|██▌       | 80/311 [00:00<00:00, 3120.15it/s, Materializing param=model.layers.7.input_layernorm.weight]Loading weights:  26%|██▌       | 81/311 [00:00<00:00, 3147.01it/s, Materializing param=model.layers.7.mlp.down_proj.weight]  Loading weights:  26%|██▌       | 81/311 [00:00<00:00, 3140.99it/s, Materializing param=model.layers.7.mlp.down_proj.weight]Loading weights:  26%|██▋       | 82/311 [00:00<00:00, 3167.23it/s, Materializing param=model.layers.7.mlp.gate_proj.weight]Loading weights:  26%|██▋       | 82/311 [00:00<00:00, 3161.09it/s, Materializing param=model.layers.7.mlp.gate_proj.weight]Loading weights:  27%|██▋       | 83/311 [00:00<00:00, 3187.13it/s, Materializing param=model.layers.7.mlp.up_proj.weight]  Loading weights:  27%|██▋       | 83/311 [00:00<00:00, 3181.10it/s, Materializing param=model.layers.7.mlp.up_proj.weight]Loading weights:  27%|██▋       | 84/311 [00:00<00:00, 3206.60it/s, Materializing param=model.layers.7.post_attention_layernorm.weight]Loading weights:  27%|██▋       | 84/311 [00:00<00:00, 3200.33it/s, Materializing param=model.layers.7.post_attention_layernorm.weight]Loading weights:  27%|██▋       | 85/311 [00:00<00:00, 3226.21it/s, Materializing param=model.layers.7.self_attn.k_norm.weight]        Loading weights:  27%|██▋       | 85/311 [00:00<00:00, 3218.87it/s, Materializing param=model.layers.7.self_attn.k_norm.weight]Loading weights:  28%|██▊       | 86/311 [00:00<00:00, 3244.20it/s, Materializing param=model.layers.7.self_attn.k_proj.weight]Loading weights:  28%|██▊       | 86/311 [00:00<00:00, 3237.94it/s, Materializing param=model.layers.7.self_attn.k_proj.weight]Loading weights:  28%|██▊       | 87/311 [00:00<00:00, 3263.26it/s, Materializing param=model.layers.7.self_attn.o_proj.weight]Loading weights:  28%|██▊       | 87/311 [00:00<00:00, 3256.80it/s, Materializing param=model.layers.7.self_attn.o_proj.weight]Loading weights:  28%|██▊       | 88/311 [00:00<00:00, 3281.87it/s, Materializing param=model.layers.7.self_attn.q_norm.weight]Loading weights:  28%|██▊       | 88/311 [00:00<00:00, 3275.84it/s, Materializing param=model.layers.7.self_attn.q_norm.weight]Loading weights:  29%|██▊       | 89/311 [00:00<00:00, 3300.79it/s, Materializing param=model.layers.7.self_attn.q_proj.weight]Loading weights:  29%|██▊       | 89/311 [00:00<00:00, 3294.76it/s, Materializing param=model.layers.7.self_attn.q_proj.weight]Loading weights:  29%|██▉       | 90/311 [00:00<00:00, 3319.80it/s, Materializing param=model.layers.7.self_attn.v_proj.weight]Loading weights:  29%|██▉       | 90/311 [00:00<00:00, 3313.62it/s, Materializing param=model.layers.7.self_attn.v_proj.weight]Loading weights:  29%|██▉       | 91/311 [00:00<00:00, 3338.13it/s, Materializing param=model.layers.8.input_layernorm.weight] Loading weights:  29%|██▉       | 91/311 [00:00<00:00, 3332.04it/s, Materializing param=model.layers.8.input_layernorm.weight]Loading weights:  30%|██▉       | 92/311 [00:00<00:00, 3355.01it/s, Materializing param=model.layers.8.mlp.down_proj.weight]  Loading weights:  30%|██▉       | 92/311 [00:00<00:00, 3348.72it/s, Materializing param=model.layers.8.mlp.down_proj.weight]Loading weights:  30%|██▉       | 93/311 [00:00<00:00, 3372.30it/s, Materializing param=model.layers.8.mlp.gate_proj.weight]Loading weights:  30%|██▉       | 93/311 [00:00<00:00, 3366.22it/s, Materializing param=model.layers.8.mlp.gate_proj.weight]Loading weights:  30%|███       | 94/311 [00:00<00:00, 3390.15it/s, Materializing param=model.layers.8.mlp.up_proj.weight]  Loading weights:  30%|███       | 94/311 [00:00<00:00, 3384.07it/s, Materializing param=model.layers.8.mlp.up_proj.weight]Loading weights:  31%|███       | 95/311 [00:00<00:00, 3407.99it/s, Materializing param=model.layers.8.post_attention_layernorm.weight]Loading weights:  31%|███       | 95/311 [00:00<00:00, 3401.79it/s, Materializing param=model.layers.8.post_attention_layernorm.weight]Loading weights:  31%|███       | 96/311 [00:00<00:00, 3425.67it/s, Materializing param=model.layers.8.self_attn.k_norm.weight]        Loading weights:  31%|███       | 96/311 [00:00<00:00, 3419.47it/s, Materializing param=model.layers.8.self_attn.k_norm.weight]Loading weights:  31%|███       | 97/311 [00:00<00:00, 3442.06it/s, Materializing param=model.layers.8.self_attn.k_proj.weight]Loading weights:  31%|███       | 97/311 [00:00<00:00, 3435.92it/s, Materializing param=model.layers.8.self_attn.k_proj.weight]Loading weights:  32%|███▏      | 98/311 [00:00<00:00, 3459.13it/s, Materializing param=model.layers.8.self_attn.o_proj.weight]Loading weights:  32%|███▏      | 98/311 [00:00<00:00, 3451.17it/s, Materializing param=model.layers.8.self_attn.o_proj.weight]Loading weights:  32%|███▏      | 99/311 [00:00<00:00, 3473.85it/s, Materializing param=model.layers.8.self_attn.q_norm.weight]Loading weights:  32%|███▏      | 99/311 [00:00<00:00, 3467.35it/s, Materializing param=model.layers.8.self_attn.q_norm.weight]Loading weights:  32%|███▏      | 100/311 [00:00<00:00, 3490.28it/s, Materializing param=model.layers.8.self_attn.q_proj.weight]Loading weights:  32%|███▏      | 100/311 [00:00<00:00, 3483.87it/s, Materializing param=model.layers.8.self_attn.q_proj.weight]Loading weights:  32%|███▏      | 101/311 [00:00<00:00, 3505.99it/s, Materializing param=model.layers.8.self_attn.v_proj.weight]Loading weights:  32%|███▏      | 101/311 [00:00<00:00, 3499.79it/s, Materializing param=model.layers.8.self_attn.v_proj.weight]Loading weights:  33%|███▎      | 102/311 [00:00<00:00, 3522.25it/s, Materializing param=model.layers.9.input_layernorm.weight] Loading weights:  33%|███▎      | 102/311 [00:00<00:00, 3515.82it/s, Materializing param=model.layers.9.input_layernorm.weight]Loading weights:  33%|███▎      | 103/311 [00:00<00:00, 3537.84it/s, Materializing param=model.layers.9.mlp.down_proj.weight]  Loading weights:  33%|███▎      | 103/311 [00:00<00:00, 3531.45it/s, Materializing param=model.layers.9.mlp.down_proj.weight]Loading weights:  33%|███▎      | 104/311 [00:00<00:00, 3553.37it/s, Materializing param=model.layers.9.mlp.gate_proj.weight]Loading weights:  33%|███▎      | 104/311 [00:00<00:00, 3546.98it/s, Materializing param=model.layers.9.mlp.gate_proj.weight]Loading weights:  34%|███▍      | 105/311 [00:00<00:00, 3567.28it/s, Materializing param=model.layers.9.mlp.up_proj.weight]  Loading weights:  34%|███▍      | 105/311 [00:00<00:00, 3560.79it/s, Materializing param=model.layers.9.mlp.up_proj.weight]Loading weights:  34%|███▍      | 106/311 [00:00<00:00, 3582.48it/s, Materializing param=model.layers.9.post_attention_layernorm.weight]Loading weights:  34%|███▍      | 106/311 [00:00<00:00, 3576.20it/s, Materializing param=model.layers.9.post_attention_layernorm.weight]Loading weights:  34%|███▍      | 107/311 [00:00<00:00, 3597.72it/s, Materializing param=model.layers.9.self_attn.k_norm.weight]        Loading weights:  34%|███▍      | 107/311 [00:00<00:00, 3591.62it/s, Materializing param=model.layers.9.self_attn.k_norm.weight]Loading weights:  35%|███▍      | 108/311 [00:00<00:00, 3612.78it/s, Materializing param=model.layers.9.self_attn.k_proj.weight]Loading weights:  35%|███▍      | 108/311 [00:00<00:00, 3606.68it/s, Materializing param=model.layers.9.self_attn.k_proj.weight]Loading weights:  35%|███▌      | 109/311 [00:00<00:00, 3626.91it/s, Materializing param=model.layers.9.self_attn.o_proj.weight]Loading weights:  35%|███▌      | 109/311 [00:00<00:00, 3618.96it/s, Materializing param=model.layers.9.self_attn.o_proj.weight]Loading weights:  35%|███▌      | 110/311 [00:00<00:00, 3637.36it/s, Materializing param=model.layers.9.self_attn.q_norm.weight]Loading weights:  35%|███▌      | 110/311 [00:00<00:00, 3631.26it/s, Materializing param=model.layers.9.self_attn.q_norm.weight]Loading weights:  36%|███▌      | 111/311 [00:00<00:00, 3646.28it/s, Materializing param=model.layers.9.self_attn.q_proj.weight]Loading weights:  36%|███▌      | 111/311 [00:00<00:00, 3638.16it/s, Materializing param=model.layers.9.self_attn.q_proj.weight]Loading weights:  36%|███▌      | 112/311 [00:00<00:00, 3657.64it/s, Materializing param=model.layers.9.self_attn.v_proj.weight]Loading weights:  36%|███▌      | 112/311 [00:00<00:00, 3651.70it/s, Materializing param=model.layers.9.self_attn.v_proj.weight]Loading weights:  36%|███▋      | 113/311 [00:00<00:00, 3672.49it/s, Materializing param=model.layers.10.input_layernorm.weight]Loading weights:  36%|███▋      | 113/311 [00:00<00:00, 3666.58it/s, Materializing param=model.layers.10.input_layernorm.weight]Loading weights:  37%|███▋      | 114/311 [00:00<00:00, 3687.10it/s, Materializing param=model.layers.10.mlp.down_proj.weight]  Loading weights:  37%|███▋      | 114/311 [00:00<00:00, 3681.11it/s, Materializing param=model.layers.10.mlp.down_proj.weight]Loading weights:  37%|███▋      | 115/311 [00:00<00:00, 3701.12it/s, Materializing param=model.layers.10.mlp.gate_proj.weight]Loading weights:  37%|███▋      | 115/311 [00:00<00:00, 3695.17it/s, Materializing param=model.layers.10.mlp.gate_proj.weight]Loading weights:  37%|███▋      | 116/311 [00:00<00:00, 3715.34it/s, Materializing param=model.layers.10.mlp.up_proj.weight]  Loading weights:  37%|███▋      | 116/311 [00:00<00:00, 3709.45it/s, Materializing param=model.layers.10.mlp.up_proj.weight]Loading weights:  38%|███▊      | 117/311 [00:00<00:00, 3729.66it/s, Materializing param=model.layers.10.post_attention_layernorm.weight]Loading weights:  38%|███▊      | 117/311 [00:00<00:00, 3722.33it/s, Materializing param=model.layers.10.post_attention_layernorm.weight]Loading weights:  38%|███▊      | 118/311 [00:00<00:00, 3741.91it/s, Materializing param=model.layers.10.self_attn.k_norm.weight]        Loading weights:  38%|███▊      | 118/311 [00:00<00:00, 3736.01it/s, Materializing param=model.layers.10.self_attn.k_norm.weight]Loading weights:  38%|███▊      | 119/311 [00:00<00:00, 3755.68it/s, Materializing param=model.layers.10.self_attn.k_proj.weight]Loading weights:  38%|███▊      | 119/311 [00:00<00:00, 3749.78it/s, Materializing param=model.layers.10.self_attn.k_proj.weight]Loading weights:  39%|███▊      | 120/311 [00:00<00:00, 3769.40it/s, Materializing param=model.layers.10.self_attn.o_proj.weight]Loading weights:  39%|███▊      | 120/311 [00:00<00:00, 3762.97it/s, Materializing param=model.layers.10.self_attn.o_proj.weight]Loading weights:  39%|███▉      | 121/311 [00:00<00:00, 3782.12it/s, Materializing param=model.layers.10.self_attn.q_norm.weight]Loading weights:  39%|███▉      | 121/311 [00:00<00:00, 3776.15it/s, Materializing param=model.layers.10.self_attn.q_norm.weight]Loading weights:  39%|███▉      | 122/311 [00:00<00:00, 3795.27it/s, Materializing param=model.layers.10.self_attn.q_proj.weight]Loading weights:  39%|███▉      | 122/311 [00:00<00:00, 3789.40it/s, Materializing param=model.layers.10.self_attn.q_proj.weight]Loading weights:  40%|███▉      | 123/311 [00:00<00:00, 3808.58it/s, Materializing param=model.layers.10.self_attn.v_proj.weight]Loading weights:  40%|███▉      | 123/311 [00:00<00:00, 3802.55it/s, Materializing param=model.layers.10.self_attn.v_proj.weight]Loading weights:  40%|███▉      | 124/311 [00:00<00:00, 3820.37it/s, Materializing param=model.layers.11.input_layernorm.weight] Loading weights:  40%|███▉      | 124/311 [00:00<00:00, 3813.76it/s, Materializing param=model.layers.11.input_layernorm.weight]Loading weights:  40%|████      | 125/311 [00:00<00:00, 3832.21it/s, Materializing param=model.layers.11.mlp.down_proj.weight]  Loading weights:  40%|████      | 125/311 [00:00<00:00, 3826.08it/s, Materializing param=model.layers.11.mlp.down_proj.weight]Loading weights:  41%|████      | 126/311 [00:00<00:00, 3844.40it/s, Materializing param=model.layers.11.mlp.gate_proj.weight]Loading weights:  41%|████      | 126/311 [00:00<00:00, 3838.34it/s, Materializing param=model.layers.11.mlp.gate_proj.weight]Loading weights:  41%|████      | 127/311 [00:00<00:00, 3856.68it/s, Materializing param=model.layers.11.mlp.up_proj.weight]  Loading weights:  41%|████      | 127/311 [00:00<00:00, 3850.68it/s, Materializing param=model.layers.11.mlp.up_proj.weight]Loading weights:  41%|████      | 128/311 [00:00<00:00, 3868.95it/s, Materializing param=model.layers.11.post_attention_layernorm.weight]Loading weights:  41%|████      | 128/311 [00:00<00:00, 3862.77it/s, Materializing param=model.layers.11.post_attention_layernorm.weight]Loading weights:  41%|████▏     | 129/311 [00:00<00:00, 3880.88it/s, Materializing param=model.layers.11.self_attn.k_norm.weight]        Loading weights:  41%|████▏     | 129/311 [00:00<00:00, 3874.83it/s, Materializing param=model.layers.11.self_attn.k_norm.weight]Loading weights:  42%|████▏     | 130/311 [00:00<00:00, 3891.90it/s, Materializing param=model.layers.11.self_attn.k_proj.weight]Loading weights:  42%|████▏     | 130/311 [00:00<00:00, 3885.88it/s, Materializing param=model.layers.11.self_attn.k_proj.weight]Loading weights:  42%|████▏     | 131/311 [00:00<00:00, 3903.90it/s, Materializing param=model.layers.11.self_attn.o_proj.weight]Loading weights:  42%|████▏     | 131/311 [00:00<00:00, 3897.86it/s, Materializing param=model.layers.11.self_attn.o_proj.weight]Loading weights:  42%|████▏     | 132/311 [00:00<00:00, 3915.67it/s, Materializing param=model.layers.11.self_attn.q_norm.weight]Loading weights:  42%|████▏     | 132/311 [00:00<00:00, 3909.70it/s, Materializing param=model.layers.11.self_attn.q_norm.weight]Loading weights:  43%|████▎     | 133/311 [00:00<00:00, 3927.33it/s, Materializing param=model.layers.11.self_attn.q_proj.weight]Loading weights:  43%|████▎     | 133/311 [00:00<00:00, 3921.40it/s, Materializing param=model.layers.11.self_attn.q_proj.weight]Loading weights:  43%|████▎     | 134/311 [00:00<00:00, 3939.14it/s, Materializing param=model.layers.11.self_attn.v_proj.weight]Loading weights:  43%|████▎     | 134/311 [00:00<00:00, 3933.27it/s, Materializing param=model.layers.11.self_attn.v_proj.weight]Loading weights:  43%|████▎     | 135/311 [00:00<00:00, 3951.01it/s, Materializing param=model.layers.12.input_layernorm.weight] Loading weights:  43%|████▎     | 135/311 [00:00<00:00, 3945.20it/s, Materializing param=model.layers.12.input_layernorm.weight]Loading weights:  44%|████▎     | 136/311 [00:00<00:00, 3962.75it/s, Materializing param=model.layers.12.mlp.down_proj.weight]  Loading weights:  44%|████▎     | 136/311 [00:00<00:00, 3956.97it/s, Materializing param=model.layers.12.mlp.down_proj.weight]Loading weights:  44%|████▍     | 137/311 [00:00<00:00, 3973.17it/s, Materializing param=model.layers.12.mlp.gate_proj.weight]Loading weights:  44%|████▍     | 137/311 [00:00<00:00, 3967.33it/s, Materializing param=model.layers.12.mlp.gate_proj.weight]Loading weights:  44%|████▍     | 138/311 [00:00<00:00, 3984.43it/s, Materializing param=model.layers.12.mlp.up_proj.weight]  Loading weights:  44%|████▍     | 138/311 [00:00<00:00, 3978.59it/s, Materializing param=model.layers.12.mlp.up_proj.weight]Loading weights:  45%|████▍     | 139/311 [00:00<00:00, 3995.92it/s, Materializing param=model.layers.12.post_attention_layernorm.weight]Loading weights:  45%|████▍     | 139/311 [00:00<00:00, 3989.90it/s, Materializing param=model.layers.12.post_attention_layernorm.weight]Loading weights:  45%|████▌     | 140/311 [00:00<00:00, 4006.92it/s, Materializing param=model.layers.12.self_attn.k_norm.weight]        Loading weights:  45%|████▌     | 140/311 [00:00<00:00, 4001.16it/s, Materializing param=model.layers.12.self_attn.k_norm.weight]Loading weights:  45%|████▌     | 141/311 [00:00<00:00, 4017.94it/s, Materializing param=model.layers.12.self_attn.k_proj.weight]Loading weights:  45%|████▌     | 141/311 [00:00<00:00, 4012.16it/s, Materializing param=model.layers.12.self_attn.k_proj.weight]Loading weights:  46%|████▌     | 142/311 [00:00<00:00, 4028.78it/s, Materializing param=model.layers.12.self_attn.o_proj.weight]Loading weights:  46%|████▌     | 142/311 [00:00<00:00, 4022.91it/s, Materializing param=model.layers.12.self_attn.o_proj.weight]Loading weights:  46%|████▌     | 143/311 [00:00<00:00, 4038.61it/s, Materializing param=model.layers.12.self_attn.q_norm.weight]Loading weights:  46%|████▌     | 143/311 [00:00<00:00, 4032.79it/s, Materializing param=model.layers.12.self_attn.q_norm.weight]Loading weights:  46%|████▋     | 144/311 [00:00<00:00, 4049.53it/s, Materializing param=model.layers.12.self_attn.q_proj.weight]Loading weights:  46%|████▋     | 144/311 [00:00<00:00, 4043.70it/s, Materializing param=model.layers.12.self_attn.q_proj.weight]Loading weights:  47%|████▋     | 145/311 [00:00<00:00, 4060.50it/s, Materializing param=model.layers.12.self_attn.v_proj.weight]Loading weights:  47%|████▋     | 145/311 [00:00<00:00, 4054.82it/s, Materializing param=model.layers.12.self_attn.v_proj.weight]Loading weights:  47%|████▋     | 146/311 [00:00<00:00, 4071.54it/s, Materializing param=model.layers.13.input_layernorm.weight] Loading weights:  47%|████▋     | 146/311 [00:00<00:00, 4065.79it/s, Materializing param=model.layers.13.input_layernorm.weight]Loading weights:  47%|████▋     | 147/311 [00:00<00:00, 4082.39it/s, Materializing param=model.layers.13.mlp.down_proj.weight]  Loading weights:  47%|████▋     | 147/311 [00:00<00:00, 4076.66it/s, Materializing param=model.layers.13.mlp.down_proj.weight]Loading weights:  48%|████▊     | 148/311 [00:00<00:00, 4091.90it/s, Materializing param=model.layers.13.mlp.gate_proj.weight]Loading weights:  48%|████▊     | 148/311 [00:00<00:00, 4085.76it/s, Materializing param=model.layers.13.mlp.gate_proj.weight]Loading weights:  48%|████▊     | 149/311 [00:00<00:00, 4101.73it/s, Materializing param=model.layers.13.mlp.up_proj.weight]  Loading weights:  48%|████▊     | 149/311 [00:00<00:00, 4094.68it/s, Materializing param=model.layers.13.mlp.up_proj.weight]Loading weights:  48%|████▊     | 150/311 [00:00<00:00, 4110.56it/s, Materializing param=model.layers.13.post_attention_layernorm.weight]Loading weights:  48%|████▊     | 150/311 [00:00<00:00, 4104.50it/s, Materializing param=model.layers.13.post_attention_layernorm.weight]Loading weights:  49%|████▊     | 151/311 [00:00<00:00, 4120.41it/s, Materializing param=model.layers.13.self_attn.k_norm.weight]        Loading weights:  49%|████▊     | 151/311 [00:00<00:00, 4114.41it/s, Materializing param=model.layers.13.self_attn.k_norm.weight]Loading weights:  49%|████▉     | 152/311 [00:00<00:00, 4129.94it/s, Materializing param=model.layers.13.self_attn.k_proj.weight]Loading weights:  49%|████▉     | 152/311 [00:00<00:00, 4124.22it/s, Materializing param=model.layers.13.self_attn.k_proj.weight]Loading weights:  49%|████▉     | 153/311 [00:00<00:00, 4140.18it/s, Materializing param=model.layers.13.self_attn.o_proj.weight]Loading weights:  49%|████▉     | 153/311 [00:00<00:00, 4134.53it/s, Materializing param=model.layers.13.self_attn.o_proj.weight]Loading weights:  50%|████▉     | 154/311 [00:00<00:00, 4150.51it/s, Materializing param=model.layers.13.self_attn.q_norm.weight]Loading weights:  50%|████▉     | 154/311 [00:00<00:00, 4144.91it/s, Materializing param=model.layers.13.self_attn.q_norm.weight]Loading weights:  50%|████▉     | 155/311 [00:00<00:00, 4160.64it/s, Materializing param=model.layers.13.self_attn.q_proj.weight]Loading weights:  50%|████▉     | 155/311 [00:00<00:00, 4155.06it/s, Materializing param=model.layers.13.self_attn.q_proj.weight]Loading weights:  50%|█████     | 156/311 [00:00<00:00, 4169.63it/s, Materializing param=model.layers.13.self_attn.v_proj.weight]Loading weights:  50%|█████     | 156/311 [00:00<00:00, 4163.96it/s, Materializing param=model.layers.13.self_attn.v_proj.weight]Loading weights:  50%|█████     | 157/311 [00:00<00:00, 4179.48it/s, Materializing param=model.layers.14.input_layernorm.weight] Loading weights:  50%|█████     | 157/311 [00:00<00:00, 4173.91it/s, Materializing param=model.layers.14.input_layernorm.weight]Loading weights:  51%|█████     | 158/311 [00:00<00:00, 4189.35it/s, Materializing param=model.layers.14.mlp.down_proj.weight]  Loading weights:  51%|█████     | 158/311 [00:00<00:00, 4183.79it/s, Materializing param=model.layers.14.mlp.down_proj.weight]Loading weights:  51%|█████     | 159/311 [00:00<00:00, 4199.14it/s, Materializing param=model.layers.14.mlp.gate_proj.weight]Loading weights:  51%|█████     | 159/311 [00:00<00:00, 4193.57it/s, Materializing param=model.layers.14.mlp.gate_proj.weight]Loading weights:  51%|█████▏    | 160/311 [00:00<00:00, 4208.88it/s, Materializing param=model.layers.14.mlp.up_proj.weight]  Loading weights:  51%|█████▏    | 160/311 [00:00<00:00, 4203.26it/s, Materializing param=model.layers.14.mlp.up_proj.weight]Loading weights:  52%|█████▏    | 161/311 [00:00<00:00, 4218.33it/s, Materializing param=model.layers.14.post_attention_layernorm.weight]Loading weights:  52%|█████▏    | 161/311 [00:00<00:00, 4212.59it/s, Materializing param=model.layers.14.post_attention_layernorm.weight]Loading weights:  52%|█████▏    | 162/311 [00:00<00:00, 4227.63it/s, Materializing param=model.layers.14.self_attn.k_norm.weight]        Loading weights:  52%|█████▏    | 162/311 [00:00<00:00, 4221.96it/s, Materializing param=model.layers.14.self_attn.k_norm.weight]Loading weights:  52%|█████▏    | 163/311 [00:00<00:00, 4235.78it/s, Materializing param=model.layers.14.self_attn.k_proj.weight]Loading weights:  52%|█████▏    | 163/311 [00:00<00:00, 4230.22it/s, Materializing param=model.layers.14.self_attn.k_proj.weight]Loading weights:  53%|█████▎    | 164/311 [00:00<00:00, 4244.93it/s, Materializing param=model.layers.14.self_attn.o_proj.weight]Loading weights:  53%|█████▎    | 164/311 [00:00<00:00, 4239.44it/s, Materializing param=model.layers.14.self_attn.o_proj.weight]Loading weights:  53%|█████▎    | 165/311 [00:00<00:00, 4254.22it/s, Materializing param=model.layers.14.self_attn.q_norm.weight]Loading weights:  53%|█████▎    | 165/311 [00:00<00:00, 4248.58it/s, Materializing param=model.layers.14.self_attn.q_norm.weight]Loading weights:  53%|█████▎    | 166/311 [00:00<00:00, 4263.26it/s, Materializing param=model.layers.14.self_attn.q_proj.weight]Loading weights:  53%|█████▎    | 166/311 [00:00<00:00, 4257.21it/s, Materializing param=model.layers.14.self_attn.q_proj.weight]Loading weights:  54%|█████▎    | 167/311 [00:00<00:00, 4271.71it/s, Materializing param=model.layers.14.self_attn.v_proj.weight]Loading weights:  54%|█████▎    | 167/311 [00:00<00:00, 4266.14it/s, Materializing param=model.layers.14.self_attn.v_proj.weight]Loading weights:  54%|█████▍    | 168/311 [00:00<00:00, 4280.73it/s, Materializing param=model.layers.15.input_layernorm.weight] Loading weights:  54%|█████▍    | 168/311 [00:00<00:00, 4275.12it/s, Materializing param=model.layers.15.input_layernorm.weight]Loading weights:  54%|█████▍    | 169/311 [00:00<00:00, 4288.68it/s, Materializing param=model.layers.15.mlp.down_proj.weight]  Loading weights:  54%|█████▍    | 169/311 [00:00<00:00, 4283.08it/s, Materializing param=model.layers.15.mlp.down_proj.weight]Loading weights:  55%|█████▍    | 170/311 [00:00<00:00, 4297.34it/s, Materializing param=model.layers.15.mlp.gate_proj.weight]Loading weights:  55%|█████▍    | 170/311 [00:00<00:00, 4291.88it/s, Materializing param=model.layers.15.mlp.gate_proj.weight]Loading weights:  55%|█████▍    | 171/311 [00:00<00:00, 4306.27it/s, Materializing param=model.layers.15.mlp.up_proj.weight]  Loading weights:  55%|█████▍    | 171/311 [00:00<00:00, 4300.79it/s, Materializing param=model.layers.15.mlp.up_proj.weight]Loading weights:  55%|█████▌    | 172/311 [00:00<00:00, 4315.18it/s, Materializing param=model.layers.15.post_attention_layernorm.weight]Loading weights:  55%|█████▌    | 172/311 [00:00<00:00, 4309.59it/s, Materializing param=model.layers.15.post_attention_layernorm.weight]Loading weights:  56%|█████▌    | 173/311 [00:00<00:00, 4323.95it/s, Materializing param=model.layers.15.self_attn.k_norm.weight]        Loading weights:  56%|█████▌    | 173/311 [00:00<00:00, 4318.52it/s, Materializing param=model.layers.15.self_attn.k_norm.weight]Loading weights:  56%|█████▌    | 174/311 [00:00<00:00, 4332.55it/s, Materializing param=model.layers.15.self_attn.k_proj.weight]Loading weights:  56%|█████▌    | 174/311 [00:00<00:00, 4327.08it/s, Materializing param=model.layers.15.self_attn.k_proj.weight]Loading weights:  56%|█████▋    | 175/311 [00:00<00:00, 4340.98it/s, Materializing param=model.layers.15.self_attn.o_proj.weight]Loading weights:  56%|█████▋    | 175/311 [00:00<00:00, 4335.54it/s, Materializing param=model.layers.15.self_attn.o_proj.weight]Loading weights:  57%|█████▋    | 176/311 [00:00<00:00, 4348.76it/s, Materializing param=model.layers.15.self_attn.q_norm.weight]Loading weights:  57%|█████▋    | 176/311 [00:00<00:00, 4343.39it/s, Materializing param=model.layers.15.self_attn.q_norm.weight]Loading weights:  57%|█████▋    | 177/311 [00:00<00:00, 4357.30it/s, Materializing param=model.layers.15.self_attn.q_proj.weight]Loading weights:  57%|█████▋    | 177/311 [00:00<00:00, 4351.93it/s, Materializing param=model.layers.15.self_attn.q_proj.weight]Loading weights:  57%|█████▋    | 178/311 [00:00<00:00, 4365.92it/s, Materializing param=model.layers.15.self_attn.v_proj.weight]Loading weights:  57%|█████▋    | 178/311 [00:00<00:00, 4360.42it/s, Materializing param=model.layers.15.self_attn.v_proj.weight]Loading weights:  58%|█████▊    | 179/311 [00:00<00:00, 4374.29it/s, Materializing param=model.layers.16.input_layernorm.weight] Loading weights:  58%|█████▊    | 179/311 [00:00<00:00, 4368.63it/s, Materializing param=model.layers.16.input_layernorm.weight]Loading weights:  58%|█████▊    | 180/311 [00:00<00:00, 4382.20it/s, Materializing param=model.layers.16.mlp.down_proj.weight]  Loading weights:  58%|█████▊    | 180/311 [00:00<00:00, 4376.56it/s, Materializing param=model.layers.16.mlp.down_proj.weight]Loading weights:  58%|█████▊    | 181/311 [00:00<00:00, 4390.06it/s, Materializing param=model.layers.16.mlp.gate_proj.weight]Loading weights:  58%|█████▊    | 181/311 [00:00<00:00, 4384.38it/s, Materializing param=model.layers.16.mlp.gate_proj.weight]Loading weights:  59%|█████▊    | 182/311 [00:00<00:00, 4396.85it/s, Materializing param=model.layers.16.mlp.up_proj.weight]  Loading weights:  59%|█████▊    | 182/311 [00:00<00:00, 4391.03it/s, Materializing param=model.layers.16.mlp.up_proj.weight]Loading weights:  59%|█████▉    | 183/311 [00:00<00:00, 4404.19it/s, Materializing param=model.layers.16.post_attention_layernorm.weight]Loading weights:  59%|█████▉    | 183/311 [00:00<00:00, 4398.61it/s, Materializing param=model.layers.16.post_attention_layernorm.weight]Loading weights:  59%|█████▉    | 184/311 [00:00<00:00, 4411.80it/s, Materializing param=model.layers.16.self_attn.k_norm.weight]        Loading weights:  59%|█████▉    | 184/311 [00:00<00:00, 4406.33it/s, Materializing param=model.layers.16.self_attn.k_norm.weight]Loading weights:  59%|█████▉    | 185/311 [00:00<00:00, 4419.56it/s, Materializing param=model.layers.16.self_attn.k_proj.weight]Loading weights:  59%|█████▉    | 185/311 [00:00<00:00, 4414.18it/s, Materializing param=model.layers.16.self_attn.k_proj.weight]Loading weights:  60%|█████▉    | 186/311 [00:00<00:00, 4427.26it/s, Materializing param=model.layers.16.self_attn.o_proj.weight]Loading weights:  60%|█████▉    | 186/311 [00:00<00:00, 4421.84it/s, Materializing param=model.layers.16.self_attn.o_proj.weight]Loading weights:  60%|██████    | 187/311 [00:00<00:00, 4434.50it/s, Materializing param=model.layers.16.self_attn.q_norm.weight]Loading weights:  60%|██████    | 187/311 [00:00<00:00, 4428.92it/s, Materializing param=model.layers.16.self_attn.q_norm.weight]Loading weights:  60%|██████    | 188/311 [00:00<00:00, 4442.12it/s, Materializing param=model.layers.16.self_attn.q_proj.weight]Loading weights:  60%|██████    | 188/311 [00:00<00:00, 4436.62it/s, Materializing param=model.layers.16.self_attn.q_proj.weight]Loading weights:  61%|██████    | 189/311 [00:00<00:00, 4448.60it/s, Materializing param=model.layers.16.self_attn.v_proj.weight]Loading weights:  61%|██████    | 189/311 [00:00<00:00, 4442.97it/s, Materializing param=model.layers.16.self_attn.v_proj.weight]Loading weights:  61%|██████    | 190/311 [00:00<00:00, 4456.11it/s, Materializing param=model.layers.17.input_layernorm.weight] Loading weights:  61%|██████    | 190/311 [00:00<00:00, 4450.61it/s, Materializing param=model.layers.17.input_layernorm.weight]Loading weights:  61%|██████▏   | 191/311 [00:00<00:00, 4463.47it/s, Materializing param=model.layers.17.mlp.down_proj.weight]  Loading weights:  61%|██████▏   | 191/311 [00:00<00:00, 4457.90it/s, Materializing param=model.layers.17.mlp.down_proj.weight]Loading weights:  62%|██████▏   | 192/311 [00:00<00:00, 4470.52it/s, Materializing param=model.layers.17.mlp.gate_proj.weight]Loading weights:  62%|██████▏   | 192/311 [00:00<00:00, 4465.12it/s, Materializing param=model.layers.17.mlp.gate_proj.weight]Loading weights:  62%|██████▏   | 193/311 [00:00<00:00, 4477.70it/s, Materializing param=model.layers.17.mlp.up_proj.weight]  Loading weights:  62%|██████▏   | 193/311 [00:00<00:00, 4472.18it/s, Materializing param=model.layers.17.mlp.up_proj.weight]Loading weights:  62%|██████▏   | 194/311 [00:00<00:00, 4484.77it/s, Materializing param=model.layers.17.post_attention_layernorm.weight]Loading weights:  62%|██████▏   | 194/311 [00:00<00:00, 4479.19it/s, Materializing param=model.layers.17.post_attention_layernorm.weight]Loading weights:  63%|██████▎   | 195/311 [00:00<00:00, 4490.89it/s, Materializing param=model.layers.17.self_attn.k_norm.weight]        Loading weights:  63%|██████▎   | 195/311 [00:00<00:00, 4485.17it/s, Materializing param=model.layers.17.self_attn.k_norm.weight]Loading weights:  63%|██████▎   | 196/311 [00:00<00:00, 4497.49it/s, Materializing param=model.layers.17.self_attn.k_proj.weight]Loading weights:  63%|██████▎   | 196/311 [00:00<00:00, 4492.01it/s, Materializing param=model.layers.17.self_attn.k_proj.weight]Loading weights:  63%|██████▎   | 197/311 [00:00<00:00, 4504.47it/s, Materializing param=model.layers.17.self_attn.o_proj.weight]Loading weights:  63%|██████▎   | 197/311 [00:00<00:00, 4498.95it/s, Materializing param=model.layers.17.self_attn.o_proj.weight]Loading weights:  64%|██████▎   | 198/311 [00:00<00:00, 4511.25it/s, Materializing param=model.layers.17.self_attn.q_norm.weight]Loading weights:  64%|██████▎   | 198/311 [00:00<00:00, 4505.80it/s, Materializing param=model.layers.17.self_attn.q_norm.weight]Loading weights:  64%|██████▍   | 199/311 [00:00<00:00, 4518.16it/s, Materializing param=model.layers.17.self_attn.q_proj.weight]Loading weights:  64%|██████▍   | 199/311 [00:00<00:00, 4512.61it/s, Materializing param=model.layers.17.self_attn.q_proj.weight]Loading weights:  64%|██████▍   | 200/311 [00:00<00:00, 4524.99it/s, Materializing param=model.layers.17.self_attn.v_proj.weight]Loading weights:  64%|██████▍   | 200/311 [00:00<00:00, 4519.60it/s, Materializing param=model.layers.17.self_attn.v_proj.weight]Loading weights:  65%|██████▍   | 201/311 [00:00<00:00, 4531.97it/s, Materializing param=model.layers.18.input_layernorm.weight] Loading weights:  65%|██████▍   | 201/311 [00:00<00:00, 4525.74it/s, Materializing param=model.layers.18.input_layernorm.weight]Loading weights:  65%|██████▍   | 202/311 [00:00<00:00, 4537.73it/s, Materializing param=model.layers.18.mlp.down_proj.weight]  Loading weights:  65%|██████▍   | 202/311 [00:00<00:00, 4532.27it/s, Materializing param=model.layers.18.mlp.down_proj.weight]Loading weights:  65%|██████▌   | 203/311 [00:00<00:00, 4544.09it/s, Materializing param=model.layers.18.mlp.gate_proj.weight]Loading weights:  65%|██████▌   | 203/311 [00:00<00:00, 4538.71it/s, Materializing param=model.layers.18.mlp.gate_proj.weight]Loading weights:  66%|██████▌   | 204/311 [00:00<00:00, 4550.73it/s, Materializing param=model.layers.18.mlp.up_proj.weight]  Loading weights:  66%|██████▌   | 204/311 [00:00<00:00, 4545.44it/s, Materializing param=model.layers.18.mlp.up_proj.weight]Loading weights:  66%|██████▌   | 205/311 [00:00<00:00, 4557.38it/s, Materializing param=model.layers.18.post_attention_layernorm.weight]Loading weights:  66%|██████▌   | 205/311 [00:00<00:00, 4551.86it/s, Materializing param=model.layers.18.post_attention_layernorm.weight]Loading weights:  66%|██████▌   | 206/311 [00:00<00:00, 4563.84it/s, Materializing param=model.layers.18.self_attn.k_norm.weight]        Loading weights:  66%|██████▌   | 206/311 [00:00<00:00, 4558.40it/s, Materializing param=model.layers.18.self_attn.k_norm.weight]Loading weights:  67%|██████▋   | 207/311 [00:00<00:00, 4570.26it/s, Materializing param=model.layers.18.self_attn.k_proj.weight]Loading weights:  67%|██████▋   | 207/311 [00:00<00:00, 4565.07it/s, Materializing param=model.layers.18.self_attn.k_proj.weight]Loading weights:  67%|██████▋   | 208/311 [00:00<00:00, 4576.00it/s, Materializing param=model.layers.18.self_attn.o_proj.weight]Loading weights:  67%|██████▋   | 208/311 [00:00<00:00, 4570.87it/s, Materializing param=model.layers.18.self_attn.o_proj.weight]Loading weights:  67%|██████▋   | 209/311 [00:00<00:00, 4582.69it/s, Materializing param=model.layers.18.self_attn.q_norm.weight]Loading weights:  67%|██████▋   | 209/311 [00:00<00:00, 4577.52it/s, Materializing param=model.layers.18.self_attn.q_norm.weight]Loading weights:  68%|██████▊   | 210/311 [00:00<00:00, 4589.17it/s, Materializing param=model.layers.18.self_attn.q_proj.weight]Loading weights:  68%|██████▊   | 210/311 [00:00<00:00, 4584.06it/s, Materializing param=model.layers.18.self_attn.q_proj.weight]Loading weights:  68%|██████▊   | 211/311 [00:00<00:00, 4595.58it/s, Materializing param=model.layers.18.self_attn.v_proj.weight]Loading weights:  68%|██████▊   | 211/311 [00:00<00:00, 4590.50it/s, Materializing param=model.layers.18.self_attn.v_proj.weight]Loading weights:  68%|██████▊   | 212/311 [00:00<00:00, 4602.16it/s, Materializing param=model.layers.19.input_layernorm.weight] Loading weights:  68%|██████▊   | 212/311 [00:00<00:00, 4597.14it/s, Materializing param=model.layers.19.input_layernorm.weight]Loading weights:  68%|██████▊   | 213/311 [00:00<00:00, 4605.47it/s, Materializing param=model.layers.19.mlp.down_proj.weight]  Loading weights:  68%|██████▊   | 213/311 [00:00<00:00, 4599.85it/s, Materializing param=model.layers.19.mlp.down_proj.weight]Loading weights:  69%|██████▉   | 214/311 [00:00<00:00, 4315.90it/s, Materializing param=model.layers.19.mlp.gate_proj.weight]Loading weights:  69%|██████▉   | 214/311 [00:00<00:00, 4305.05it/s, Materializing param=model.layers.19.mlp.gate_proj.weight]Loading weights:  69%|██████▉   | 215/311 [00:00<00:00, 4302.32it/s, Materializing param=model.layers.19.mlp.up_proj.weight]  Loading weights:  69%|██████▉   | 215/311 [00:00<00:00, 4296.79it/s, Materializing param=model.layers.19.mlp.up_proj.weight]Loading weights:  69%|██████▉   | 216/311 [00:00<00:00, 4296.87it/s, Materializing param=model.layers.19.post_attention_layernorm.weight]Loading weights:  69%|██████▉   | 216/311 [00:00<00:00, 4290.14it/s, Materializing param=model.layers.19.post_attention_layernorm.weight]Loading weights:  70%|██████▉   | 217/311 [00:00<00:00, 4291.40it/s, Materializing param=model.layers.19.self_attn.k_norm.weight]        Loading weights:  70%|██████▉   | 217/311 [00:00<00:00, 4286.29it/s, Materializing param=model.layers.19.self_attn.k_norm.weight]Loading weights:  70%|███████   | 218/311 [00:00<00:00, 4288.37it/s, Materializing param=model.layers.19.self_attn.k_proj.weight]Loading weights:  70%|███████   | 218/311 [00:00<00:00, 4283.37it/s, Materializing param=model.layers.19.self_attn.k_proj.weight]Loading weights:  70%|███████   | 219/311 [00:00<00:00, 4172.62it/s, Materializing param=model.layers.19.self_attn.o_proj.weight]Loading weights:  70%|███████   | 219/311 [00:00<00:00, 4166.30it/s, Materializing param=model.layers.19.self_attn.o_proj.weight]Loading weights:  71%|███████   | 220/311 [00:00<00:00, 4175.19it/s, Materializing param=model.layers.19.self_attn.q_norm.weight]Loading weights:  71%|███████   | 220/311 [00:00<00:00, 4170.93it/s, Materializing param=model.layers.19.self_attn.q_norm.weight]Loading weights:  71%|███████   | 221/311 [00:00<00:00, 4181.42it/s, Materializing param=model.layers.19.self_attn.q_proj.weight]Loading weights:  71%|███████   | 221/311 [00:00<00:00, 4177.42it/s, Materializing param=model.layers.19.self_attn.q_proj.weight]Loading weights:  71%|███████▏  | 222/311 [00:00<00:00, 4187.97it/s, Materializing param=model.layers.19.self_attn.v_proj.weight]Loading weights:  71%|███████▏  | 222/311 [00:00<00:00, 4183.94it/s, Materializing param=model.layers.19.self_attn.v_proj.weight]Loading weights:  72%|███████▏  | 223/311 [00:00<00:00, 4194.85it/s, Materializing param=model.layers.20.input_layernorm.weight] Loading weights:  72%|███████▏  | 223/311 [00:00<00:00, 4190.86it/s, Materializing param=model.layers.20.input_layernorm.weight]Loading weights:  72%|███████▏  | 224/311 [00:00<00:00, 4201.58it/s, Materializing param=model.layers.20.mlp.down_proj.weight]  Loading weights:  72%|███████▏  | 224/311 [00:00<00:00, 4197.53it/s, Materializing param=model.layers.20.mlp.down_proj.weight]Loading weights:  72%|███████▏  | 225/311 [00:00<00:00, 4207.26it/s, Materializing param=model.layers.20.mlp.gate_proj.weight]Loading weights:  72%|███████▏  | 225/311 [00:00<00:00, 4203.23it/s, Materializing param=model.layers.20.mlp.gate_proj.weight]Loading weights:  73%|███████▎  | 226/311 [00:00<00:00, 4213.83it/s, Materializing param=model.layers.20.mlp.up_proj.weight]  Loading weights:  73%|███████▎  | 226/311 [00:00<00:00, 4209.84it/s, Materializing param=model.layers.20.mlp.up_proj.weight]Loading weights:  73%|███████▎  | 227/311 [00:00<00:00, 4220.41it/s, Materializing param=model.layers.20.post_attention_layernorm.weight]Loading weights:  73%|███████▎  | 227/311 [00:00<00:00, 4216.24it/s, Materializing param=model.layers.20.post_attention_layernorm.weight]Loading weights:  73%|███████▎  | 228/311 [00:00<00:00, 4226.63it/s, Materializing param=model.layers.20.self_attn.k_norm.weight]        Loading weights:  73%|███████▎  | 228/311 [00:00<00:00, 4222.57it/s, Materializing param=model.layers.20.self_attn.k_norm.weight]Loading weights:  74%|███████▎  | 229/311 [00:00<00:00, 4233.01it/s, Materializing param=model.layers.20.self_attn.k_proj.weight]Loading weights:  74%|███████▎  | 229/311 [00:00<00:00, 4229.02it/s, Materializing param=model.layers.20.self_attn.k_proj.weight]Loading weights:  74%|███████▍  | 230/311 [00:00<00:00, 4239.43it/s, Materializing param=model.layers.20.self_attn.o_proj.weight]Loading weights:  74%|███████▍  | 230/311 [00:00<00:00, 4235.48it/s, Materializing param=model.layers.20.self_attn.o_proj.weight]Loading weights:  74%|███████▍  | 231/311 [00:00<00:00, 4135.86it/s, Materializing param=model.layers.20.self_attn.q_norm.weight]Loading weights:  74%|███████▍  | 231/311 [00:00<00:00, 4130.10it/s, Materializing param=model.layers.20.self_attn.q_norm.weight]Loading weights:  75%|███████▍  | 232/311 [00:00<00:00, 4138.77it/s, Materializing param=model.layers.20.self_attn.q_proj.weight]Loading weights:  75%|███████▍  | 232/311 [00:00<00:00, 4134.88it/s, Materializing param=model.layers.20.self_attn.q_proj.weight]Loading weights:  75%|███████▍  | 233/311 [00:00<00:00, 4145.08it/s, Materializing param=model.layers.20.self_attn.v_proj.weight]Loading weights:  75%|███████▍  | 233/311 [00:00<00:00, 4141.37it/s, Materializing param=model.layers.20.self_attn.v_proj.weight]Loading weights:  75%|███████▌  | 234/311 [00:00<00:00, 4151.34it/s, Materializing param=model.layers.21.input_layernorm.weight] Loading weights:  75%|███████▌  | 234/311 [00:00<00:00, 4146.95it/s, Materializing param=model.layers.21.input_layernorm.weight]Loading weights:  76%|███████▌  | 235/311 [00:00<00:00, 4026.33it/s, Materializing param=model.layers.21.mlp.down_proj.weight]  Loading weights:  76%|███████▌  | 235/311 [00:00<00:00, 4007.32it/s, Materializing param=model.layers.21.mlp.down_proj.weight]Loading weights:  76%|███████▌  | 236/311 [00:00<00:00, 4005.78it/s, Materializing param=model.layers.21.mlp.gate_proj.weight]Loading weights:  76%|███████▌  | 236/311 [00:00<00:00, 3993.45it/s, Materializing param=model.layers.21.mlp.gate_proj.weight]Loading weights:  76%|███████▌  | 237/311 [00:00<00:00, 3992.81it/s, Materializing param=model.layers.21.mlp.up_proj.weight]  Loading weights:  76%|███████▌  | 237/311 [00:00<00:00, 3941.09it/s, Materializing param=model.layers.21.mlp.up_proj.weight]Loading weights:  77%|███████▋  | 238/311 [00:00<00:00, 3937.20it/s, Materializing param=model.layers.21.post_attention_layernorm.weight]Loading weights:  77%|███████▋  | 238/311 [00:00<00:00, 3932.33it/s, Materializing param=model.layers.21.post_attention_layernorm.weight]Loading weights:  77%|███████▋  | 239/311 [00:00<00:00, 3941.15it/s, Materializing param=model.layers.21.self_attn.k_norm.weight]        Loading weights:  77%|███████▋  | 239/311 [00:00<00:00, 3937.60it/s, Materializing param=model.layers.21.self_attn.k_norm.weight]Loading weights:  77%|███████▋  | 240/311 [00:00<00:00, 3946.87it/s, Materializing param=model.layers.21.self_attn.k_proj.weight]Loading weights:  77%|███████▋  | 240/311 [00:00<00:00, 3943.51it/s, Materializing param=model.layers.21.self_attn.k_proj.weight]Loading weights:  77%|███████▋  | 241/311 [00:00<00:00, 3952.94it/s, Materializing param=model.layers.21.self_attn.o_proj.weight]Loading weights:  77%|███████▋  | 241/311 [00:00<00:00, 3949.69it/s, Materializing param=model.layers.21.self_attn.o_proj.weight]Loading weights:  78%|███████▊  | 242/311 [00:00<00:00, 3959.13it/s, Materializing param=model.layers.21.self_attn.q_norm.weight]Loading weights:  78%|███████▊  | 242/311 [00:00<00:00, 3898.29it/s, Materializing param=model.layers.21.self_attn.q_norm.weight]Loading weights:  78%|███████▊  | 243/311 [00:00<00:00, 3896.92it/s, Materializing param=model.layers.21.self_attn.q_proj.weight]Loading weights:  78%|███████▊  | 243/311 [00:00<00:00, 3856.15it/s, Materializing param=model.layers.21.self_attn.q_proj.weight]Loading weights:  78%|███████▊  | 244/311 [00:00<00:00, 3854.26it/s, Materializing param=model.layers.21.self_attn.v_proj.weight]Loading weights:  78%|███████▊  | 244/311 [00:00<00:00, 3850.11it/s, Materializing param=model.layers.21.self_attn.v_proj.weight]Loading weights:  79%|███████▉  | 245/311 [00:00<00:00, 3857.19it/s, Materializing param=model.layers.22.input_layernorm.weight] Loading weights:  79%|███████▉  | 245/311 [00:00<00:00, 3853.93it/s, Materializing param=model.layers.22.input_layernorm.weight]Loading weights:  79%|███████▉  | 246/311 [00:00<00:00, 3863.00it/s, Materializing param=model.layers.22.mlp.down_proj.weight]  Loading weights:  79%|███████▉  | 246/311 [00:00<00:00, 3859.86it/s, Materializing param=model.layers.22.mlp.down_proj.weight]Loading weights:  79%|███████▉  | 247/311 [00:00<00:00, 3868.97it/s, Materializing param=model.layers.22.mlp.gate_proj.weight]Loading weights:  79%|███████▉  | 247/311 [00:00<00:00, 3865.83it/s, Materializing param=model.layers.22.mlp.gate_proj.weight]Loading weights:  80%|███████▉  | 248/311 [00:00<00:00, 3875.04it/s, Materializing param=model.layers.22.mlp.up_proj.weight]  Loading weights:  80%|███████▉  | 248/311 [00:00<00:00, 3871.93it/s, Materializing param=model.layers.22.mlp.up_proj.weight]Loading weights:  80%|████████  | 249/311 [00:00<00:00, 3881.06it/s, Materializing param=model.layers.22.post_attention_layernorm.weight]Loading weights:  80%|████████  | 249/311 [00:00<00:00, 3877.86it/s, Materializing param=model.layers.22.post_attention_layernorm.weight]Loading weights:  80%|████████  | 250/311 [00:00<00:00, 3887.11it/s, Materializing param=model.layers.22.self_attn.k_norm.weight]        Loading weights:  80%|████████  | 250/311 [00:00<00:00, 3883.97it/s, Materializing param=model.layers.22.self_attn.k_norm.weight]Loading weights:  81%|████████  | 251/311 [00:00<00:00, 3873.60it/s, Materializing param=model.layers.22.self_attn.k_proj.weight]Loading weights:  81%|████████  | 251/311 [00:00<00:00, 3862.91it/s, Materializing param=model.layers.22.self_attn.k_proj.weight]Loading weights:  81%|████████  | 252/311 [00:00<00:00, 3863.17it/s, Materializing param=model.layers.22.self_attn.o_proj.weight]Loading weights:  81%|████████  | 252/311 [00:00<00:00, 3851.74it/s, Materializing param=model.layers.22.self_attn.o_proj.weight]Loading weights:  81%|████████▏ | 253/311 [00:00<00:00, 3850.22it/s, Materializing param=model.layers.22.self_attn.q_norm.weight]Loading weights:  81%|████████▏ | 253/311 [00:00<00:00, 3839.67it/s, Materializing param=model.layers.22.self_attn.q_norm.weight]Loading weights:  82%|████████▏ | 254/311 [00:00<00:00, 3842.63it/s, Materializing param=model.layers.22.self_attn.q_proj.weight]Loading weights:  82%|████████▏ | 254/311 [00:00<00:00, 3839.37it/s, Materializing param=model.layers.22.self_attn.q_proj.weight]Loading weights:  82%|████████▏ | 255/311 [00:00<00:00, 3848.33it/s, Materializing param=model.layers.22.self_attn.v_proj.weight]Loading weights:  82%|████████▏ | 255/311 [00:00<00:00, 3845.37it/s, Materializing param=model.layers.22.self_attn.v_proj.weight]Loading weights:  82%|████████▏ | 256/311 [00:00<00:00, 3853.40it/s, Materializing param=model.layers.23.input_layernorm.weight] Loading weights:  82%|████████▏ | 256/311 [00:00<00:00, 3849.71it/s, Materializing param=model.layers.23.input_layernorm.weight]Loading weights:  83%|████████▎ | 257/311 [00:00<00:00, 3858.49it/s, Materializing param=model.layers.23.mlp.down_proj.weight]  Loading weights:  83%|████████▎ | 257/311 [00:00<00:00, 3855.53it/s, Materializing param=model.layers.23.mlp.down_proj.weight]Loading weights:  83%|████████▎ | 258/311 [00:00<00:00, 3864.57it/s, Materializing param=model.layers.23.mlp.gate_proj.weight]Loading weights:  83%|████████▎ | 258/311 [00:00<00:00, 3861.57it/s, Materializing param=model.layers.23.mlp.gate_proj.weight]Loading weights:  83%|████████▎ | 259/311 [00:00<00:00, 3870.64it/s, Materializing param=model.layers.23.mlp.up_proj.weight]  Loading weights:  83%|████████▎ | 259/311 [00:00<00:00, 3867.74it/s, Materializing param=model.layers.23.mlp.up_proj.weight]Loading weights:  84%|████████▎ | 260/311 [00:00<00:00, 3876.73it/s, Materializing param=model.layers.23.post_attention_layernorm.weight]Loading weights:  84%|████████▎ | 260/311 [00:00<00:00, 3873.60it/s, Materializing param=model.layers.23.post_attention_layernorm.weight]Loading weights:  84%|████████▍ | 261/311 [00:00<00:00, 3882.57it/s, Materializing param=model.layers.23.self_attn.k_norm.weight]        Loading weights:  84%|████████▍ | 261/311 [00:00<00:00, 3879.16it/s, Materializing param=model.layers.23.self_attn.k_norm.weight]Loading weights:  84%|████████▍ | 262/311 [00:00<00:00, 3887.31it/s, Materializing param=model.layers.23.self_attn.k_proj.weight]Loading weights:  84%|████████▍ | 262/311 [00:00<00:00, 3883.55it/s, Materializing param=model.layers.23.self_attn.k_proj.weight]Loading weights:  85%|████████▍ | 263/311 [00:00<00:00, 3891.89it/s, Materializing param=model.layers.23.self_attn.o_proj.weight]Loading weights:  85%|████████▍ | 263/311 [00:00<00:00, 3888.97it/s, Materializing param=model.layers.23.self_attn.o_proj.weight]Loading weights:  85%|████████▍ | 264/311 [00:00<00:00, 3897.83it/s, Materializing param=model.layers.23.self_attn.q_norm.weight]Loading weights:  85%|████████▍ | 264/311 [00:00<00:00, 3894.98it/s, Materializing param=model.layers.23.self_attn.q_norm.weight]Loading weights:  85%|████████▌ | 265/311 [00:00<00:00, 3904.02it/s, Materializing param=model.layers.23.self_attn.q_proj.weight]Loading weights:  85%|████████▌ | 265/311 [00:00<00:00, 3901.14it/s, Materializing param=model.layers.23.self_attn.q_proj.weight]Loading weights:  86%|████████▌ | 266/311 [00:00<00:00, 3910.03it/s, Materializing param=model.layers.23.self_attn.v_proj.weight]Loading weights:  86%|████████▌ | 266/311 [00:00<00:00, 3907.18it/s, Materializing param=model.layers.23.self_attn.v_proj.weight]Loading weights:  86%|████████▌ | 267/311 [00:00<00:00, 3916.06it/s, Materializing param=model.layers.24.input_layernorm.weight] Loading weights:  86%|████████▌ | 267/311 [00:00<00:00, 3912.86it/s, Materializing param=model.layers.24.input_layernorm.weight]Loading weights:  86%|████████▌ | 268/311 [00:00<00:00, 3921.48it/s, Materializing param=model.layers.24.mlp.down_proj.weight]  Loading weights:  86%|████████▌ | 268/311 [00:00<00:00, 3887.47it/s, Materializing param=model.layers.24.mlp.down_proj.weight]Loading weights:  86%|████████▋ | 269/311 [00:00<00:00, 3887.12it/s, Materializing param=model.layers.24.mlp.gate_proj.weight]Loading weights:  86%|████████▋ | 269/311 [00:00<00:00, 3823.88it/s, Materializing param=model.layers.24.mlp.gate_proj.weight]Loading weights:  87%|████████▋ | 270/311 [00:00<00:00, 3810.62it/s, Materializing param=model.layers.24.mlp.up_proj.weight]  Loading weights:  87%|████████▋ | 270/311 [00:00<00:00, 3807.02it/s, Materializing param=model.layers.24.mlp.up_proj.weight]Loading weights:  87%|████████▋ | 271/311 [00:00<00:00, 3815.14it/s, Materializing param=model.layers.24.post_attention_layernorm.weight]Loading weights:  87%|████████▋ | 271/311 [00:00<00:00, 3812.25it/s, Materializing param=model.layers.24.post_attention_layernorm.weight]Loading weights:  87%|████████▋ | 272/311 [00:00<00:00, 3820.36it/s, Materializing param=model.layers.24.self_attn.k_norm.weight]        Loading weights:  87%|████████▋ | 272/311 [00:00<00:00, 3817.61it/s, Materializing param=model.layers.24.self_attn.k_norm.weight]Loading weights:  88%|████████▊ | 273/311 [00:00<00:00, 3826.02it/s, Materializing param=model.layers.24.self_attn.k_proj.weight]Loading weights:  88%|████████▊ | 273/311 [00:00<00:00, 3822.42it/s, Materializing param=model.layers.24.self_attn.k_proj.weight]Loading weights:  88%|████████▊ | 274/311 [00:00<00:00, 3830.03it/s, Materializing param=model.layers.24.self_attn.o_proj.weight]Loading weights:  88%|████████▊ | 274/311 [00:00<00:00, 3827.34it/s, Materializing param=model.layers.24.self_attn.o_proj.weight]Loading weights:  88%|████████▊ | 275/311 [00:00<00:00, 3835.85it/s, Materializing param=model.layers.24.self_attn.q_norm.weight]Loading weights:  88%|████████▊ | 275/311 [00:00<00:00, 3833.16it/s, Materializing param=model.layers.24.self_attn.q_norm.weight]Loading weights:  89%|████████▊ | 276/311 [00:00<00:00, 3841.60it/s, Materializing param=model.layers.24.self_attn.q_proj.weight]Loading weights:  89%|████████▊ | 276/311 [00:00<00:00, 3838.93it/s, Materializing param=model.layers.24.self_attn.q_proj.weight]Loading weights:  89%|████████▉ | 277/311 [00:00<00:00, 3847.40it/s, Materializing param=model.layers.24.self_attn.v_proj.weight]Loading weights:  89%|████████▉ | 277/311 [00:00<00:00, 3844.75it/s, Materializing param=model.layers.24.self_attn.v_proj.weight]Loading weights:  89%|████████▉ | 278/311 [00:00<00:00, 3853.25it/s, Materializing param=model.layers.25.input_layernorm.weight] Loading weights:  89%|████████▉ | 278/311 [00:00<00:00, 3850.58it/s, Materializing param=model.layers.25.input_layernorm.weight]Loading weights:  90%|████████▉ | 279/311 [00:00<00:00, 3858.99it/s, Materializing param=model.layers.25.mlp.down_proj.weight]  Loading weights:  90%|████████▉ | 279/311 [00:00<00:00, 3856.29it/s, Materializing param=model.layers.25.mlp.down_proj.weight]Loading weights:  90%|█████████ | 280/311 [00:00<00:00, 3863.00it/s, Materializing param=model.layers.25.mlp.gate_proj.weight]Loading weights:  90%|█████████ | 280/311 [00:00<00:00, 3860.08it/s, Materializing param=model.layers.25.mlp.gate_proj.weight]Loading weights:  90%|█████████ | 281/311 [00:00<00:00, 3868.45it/s, Materializing param=model.layers.25.mlp.up_proj.weight]  Loading weights:  90%|█████████ | 281/311 [00:00<00:00, 3865.82it/s, Materializing param=model.layers.25.mlp.up_proj.weight]Loading weights:  91%|█████████ | 282/311 [00:00<00:00, 3874.30it/s, Materializing param=model.layers.25.post_attention_layernorm.weight]Loading weights:  91%|█████████ | 282/311 [00:00<00:00, 3871.56it/s, Materializing param=model.layers.25.post_attention_layernorm.weight]Loading weights:  91%|█████████ | 283/311 [00:00<00:00, 3879.98it/s, Materializing param=model.layers.25.self_attn.k_norm.weight]        Loading weights:  91%|█████████ | 283/311 [00:00<00:00, 3877.28it/s, Materializing param=model.layers.25.self_attn.k_norm.weight]Loading weights:  91%|█████████▏| 284/311 [00:00<00:00, 3885.45it/s, Materializing param=model.layers.25.self_attn.k_proj.weight]Loading weights:  91%|█████████▏| 284/311 [00:00<00:00, 3882.74it/s, Materializing param=model.layers.25.self_attn.k_proj.weight]Loading weights:  92%|█████████▏| 285/311 [00:00<00:00, 3890.97it/s, Materializing param=model.layers.25.self_attn.o_proj.weight]Loading weights:  92%|█████████▏| 285/311 [00:00<00:00, 3888.25it/s, Materializing param=model.layers.25.self_attn.o_proj.weight]Loading weights:  92%|█████████▏| 286/311 [00:00<00:00, 3895.62it/s, Materializing param=model.layers.25.self_attn.q_norm.weight]Loading weights:  92%|█████████▏| 286/311 [00:00<00:00, 3892.28it/s, Materializing param=model.layers.25.self_attn.q_norm.weight]Loading weights:  92%|█████████▏| 287/311 [00:00<00:00, 3899.31it/s, Materializing param=model.layers.25.self_attn.q_proj.weight]Loading weights:  92%|█████████▏| 287/311 [00:00<00:00, 3896.58it/s, Materializing param=model.layers.25.self_attn.q_proj.weight]Loading weights:  93%|█████████▎| 288/311 [00:00<00:00, 3904.79it/s, Materializing param=model.layers.25.self_attn.v_proj.weight]Loading weights:  93%|█████████▎| 288/311 [00:00<00:00, 3902.16it/s, Materializing param=model.layers.25.self_attn.v_proj.weight]Loading weights:  93%|█████████▎| 289/311 [00:00<00:00, 3910.41it/s, Materializing param=model.layers.26.input_layernorm.weight] Loading weights:  93%|█████████▎| 289/311 [00:00<00:00, 3907.70it/s, Materializing param=model.layers.26.input_layernorm.weight]Loading weights:  93%|█████████▎| 290/311 [00:00<00:00, 3915.91it/s, Materializing param=model.layers.26.mlp.down_proj.weight]  Loading weights:  93%|█████████▎| 290/311 [00:00<00:00, 3913.21it/s, Materializing param=model.layers.26.mlp.down_proj.weight]Loading weights:  94%|█████████▎| 291/311 [00:00<00:00, 3921.06it/s, Materializing param=model.layers.26.mlp.gate_proj.weight]Loading weights:  94%|█████████▎| 291/311 [00:00<00:00, 3918.41it/s, Materializing param=model.layers.26.mlp.gate_proj.weight]Loading weights:  94%|█████████▍| 292/311 [00:00<00:00, 3926.65it/s, Materializing param=model.layers.26.mlp.up_proj.weight]  Loading weights:  94%|█████████▍| 292/311 [00:00<00:00, 3881.57it/s, Materializing param=model.layers.26.mlp.up_proj.weight]Loading weights:  94%|█████████▍| 293/311 [00:00<00:00, 3833.64it/s, Materializing param=model.layers.26.post_attention_layernorm.weight]Loading weights:  94%|█████████▍| 293/311 [00:00<00:00, 3814.13it/s, Materializing param=model.layers.26.post_attention_layernorm.weight]Loading weights:  95%|█████████▍| 294/311 [00:00<00:00, 3813.49it/s, Materializing param=model.layers.26.self_attn.k_norm.weight]        Loading weights:  95%|█████████▍| 294/311 [00:00<00:00, 3804.66it/s, Materializing param=model.layers.26.self_attn.k_norm.weight]Loading weights:  95%|█████████▍| 295/311 [00:00<00:00, 3803.36it/s, Materializing param=model.layers.26.self_attn.k_proj.weight]Loading weights:  95%|█████████▍| 295/311 [00:00<00:00, 3793.78it/s, Materializing param=model.layers.26.self_attn.k_proj.weight]Loading weights:  95%|█████████▌| 296/311 [00:00<00:00, 3794.46it/s, Materializing param=model.layers.26.self_attn.o_proj.weight]Loading weights:  95%|█████████▌| 296/311 [00:00<00:00, 3785.33it/s, Materializing param=model.layers.26.self_attn.o_proj.weight]Loading weights:  95%|█████████▌| 297/311 [00:00<00:00, 3785.23it/s, Materializing param=model.layers.26.self_attn.q_norm.weight]Loading weights:  95%|█████████▌| 297/311 [00:00<00:00, 3775.53it/s, Materializing param=model.layers.26.self_attn.q_norm.weight]Loading weights:  96%|█████████▌| 298/311 [00:00<00:00, 3776.22it/s, Materializing param=model.layers.26.self_attn.q_proj.weight]Loading weights:  96%|█████████▌| 298/311 [00:00<00:00, 3767.84it/s, Materializing param=model.layers.26.self_attn.q_proj.weight]Loading weights:  96%|█████████▌| 299/311 [00:00<00:00, 3768.66it/s, Materializing param=model.layers.26.self_attn.v_proj.weight]Loading weights:  96%|█████████▌| 299/311 [00:00<00:00, 3758.44it/s, Materializing param=model.layers.26.self_attn.v_proj.weight]Loading weights:  96%|█████████▋| 300/311 [00:00<00:00, 3742.66it/s, Materializing param=model.layers.27.input_layernorm.weight] Loading weights:  96%|█████████▋| 300/311 [00:00<00:00, 3732.99it/s, Materializing param=model.layers.27.input_layernorm.weight]Loading weights:  97%|█████████▋| 301/311 [00:00<00:00, 3710.52it/s, Materializing param=model.layers.27.mlp.down_proj.weight]  Loading weights:  97%|█████████▋| 301/311 [00:00<00:00, 3701.42it/s, Materializing param=model.layers.27.mlp.down_proj.weight]Loading weights:  97%|█████████▋| 302/311 [00:00<00:00, 3699.90it/s, Materializing param=model.layers.27.mlp.gate_proj.weight]Loading weights:  97%|█████████▋| 302/311 [00:00<00:00, 3691.49it/s, Materializing param=model.layers.27.mlp.gate_proj.weight]Loading weights:  97%|█████████▋| 303/311 [00:00<00:00, 3695.05it/s, Materializing param=model.layers.27.mlp.up_proj.weight]  Loading weights:  97%|█████████▋| 303/311 [00:00<00:00, 3692.46it/s, Materializing param=model.layers.27.mlp.up_proj.weight]Loading weights:  98%|█████████▊| 304/311 [00:00<00:00, 3699.87it/s, Materializing param=model.layers.27.post_attention_layernorm.weight]Loading weights:  98%|█████████▊| 304/311 [00:00<00:00, 3697.49it/s, Materializing param=model.layers.27.post_attention_layernorm.weight]Loading weights:  98%|█████████▊| 305/311 [00:00<00:00, 3705.04it/s, Materializing param=model.layers.27.self_attn.k_norm.weight]        Loading weights:  98%|█████████▊| 305/311 [00:00<00:00, 3702.75it/s, Materializing param=model.layers.27.self_attn.k_norm.weight]Loading weights:  98%|█████████▊| 306/311 [00:00<00:00, 3702.84it/s, Materializing param=model.layers.27.self_attn.k_proj.weight]Loading weights:  98%|█████████▊| 306/311 [00:00<00:00, 3700.03it/s, Materializing param=model.layers.27.self_attn.k_proj.weight]Loading weights:  99%|█████████▊| 307/311 [00:00<00:00, 3698.06it/s, Materializing param=model.layers.27.self_attn.o_proj.weight]Loading weights:  99%|█████████▊| 307/311 [00:00<00:00, 3695.34it/s, Materializing param=model.layers.27.self_attn.o_proj.weight]Loading weights:  99%|█████████▉| 308/311 [00:00<00:00, 3692.49it/s, Materializing param=model.layers.27.self_attn.q_norm.weight]Loading weights:  99%|█████████▉| 308/311 [00:00<00:00, 3689.11it/s, Materializing param=model.layers.27.self_attn.q_norm.weight]Loading weights:  99%|█████████▉| 309/311 [00:00<00:00, 3686.95it/s, Materializing param=model.layers.27.self_attn.q_proj.weight]Loading weights:  99%|█████████▉| 309/311 [00:00<00:00, 3684.26it/s, Materializing param=model.layers.27.self_attn.q_proj.weight]Loading weights: 100%|█████████▉| 310/311 [00:00<00:00, 3651.39it/s, Materializing param=model.layers.27.self_attn.v_proj.weight]Loading weights: 100%|█████████▉| 310/311 [00:00<00:00, 3648.44it/s, Materializing param=model.layers.27.self_attn.v_proj.weight]Loading weights: 100%|██████████| 311/311 [00:00<00:00, 3655.62it/s, Materializing param=model.norm.weight]                      Loading weights: 100%|██████████| 311/311 [00:00<00:00, 3653.51it/s, Materializing param=model.norm.weight]Loading weights: 100%|██████████| 311/311 [00:00<00:00, 3647.73it/s, Materializing param=model.norm.weight]
The tied weights mapping and config for this model specifies to tie model.embed_tokens.weight to lm_head.weight, but both are present in the checkpoints, so we will NOT tie them. You should update the config with `tie_word_embeddings=False` to silence this warning
2026-04-23 16:20:23.563 (   0.000s) [        45967140]   plugin_attributes.cc:64       1| PluginAttributes::PJRT_Plugin_Initialize
2026-04-23 16:20:23.563 (   0.000s) [        45967140]     client_instance.cc:647      1| ClientInstance::PJRT_Client_Create
2026-04-23 16:20:23.570 (   0.006s) [        45967140]     client_instance.cc:257      1| ClientInstance::ClientInstance
2026-04-23 16:20:23.570 (   0.006s) [        45967140]     client_instance.cc:279      1| ClientInstance::Initialize
2026-04-23 16:20:33.059 | critical |          Always | TT_FATAL: Logical eth core (x=0,y=15) is not an active eth core on chip 0. (assert.hpp:104)
[32m                 Always[0m | [1m[38;5;208m WARNING[0m | Skipping ethernet core ((x=0,y=15)) on chip 0
2026-04-23 16:20:33.100 (   9.536s) [        45967140]     client_instance.cc:564      1| ClientInstance::openMeshDevice - setting fabric config: FABRIC_1D_RING
2026-04-23 16:20:38.696 (  15.132s) [        45967140]              stubs.inc:122   WARN| STUB: PJRT_Client_TopologyDescription
2026-04-23 16:20:38.696 (  15.132s) [        45967140]      error_instance.cc:52       1| ErrorInstance::PJRT_Error_Message
2026-04-23 16:20:38.696 (  15.132s) [        45967140]      error_instance.cc:61       1| ErrorInstance::PJRT_Error_GetCode
2026-04-23 16:20:38.696 (  15.132s) [        45967140]      error_instance.cc:46       1| ErrorInstance::PJRT_Error_Destroy
2026-04-23 16:20:38.696 (  15.132s) [        45967140]     client_instance.cc:706      1| ClientInstance::PJRT_Client_PlatformVersion
2026-04-23 16:20:38.696 (  15.132s) [        45967140]     client_instance.cc:685      1| ClientInstance::PJRT_Client_PlatformName
2026-04-23 16:20:38.696 (  15.132s) [        45967140]     client_instance.cc:718      1| ClientInstance::PJRT_Client_Devices
2026-04-23 16:20:38.696 (  15.132s) [        45967140]     device_instance.cc:48       1| DeviceInstance::PJRT_Device_GetDescription
2026-04-23 16:20:38.696 (  15.132s) [        45967140]  device_description.cc:88       1| DeviceDescription::PJRT_DeviceDescription_Attributes
2026-04-23 16:20:38.696 (  15.132s) [        45967140]     device_instance.cc:48       1| DeviceInstance::PJRT_Device_GetDescription
2026-04-23 16:20:38.696 (  15.132s) [        45967140]  device_description.cc:88       1| DeviceDescription::PJRT_DeviceDescription_Attributes
2026-04-23 16:20:38.696 (  15.132s) [        45967140]     client_instance.cc:732      1| ClientInstance::PJRT_Client_AddressableDevices
2026-04-23 16:20:38.696 (  15.132s) [        45967140]     client_instance.cc:785      1| ClientInstance::PJRT_Client_AddressableMemories
2026-04-23 16:20:38.696 (  15.132s) [        45967140]     device_instance.cc:78       1| DeviceInstance::PJRT_Device_AddressableMemories
2026-04-23 16:20:38.696 (  15.132s) [        45967140]     device_instance.cc:78       1| DeviceInstance::PJRT_Device_AddressableMemories
2026-04-23 16:20:38.696 (  15.132s) [        45967140]     memory_instance.cc:134      1| MemoryInstance::PJRT_Memory_AddressableByDevices
2026-04-23 16:20:38.696 (  15.132s) [        45967140]     memory_instance.cc:134      1| MemoryInstance::PJRT_Memory_AddressableByDevices
2026-04-23 16:20:38.696 (  15.132s) [        45967140]     memory_instance.cc:134      1| MemoryInstance::PJRT_Memory_AddressableByDevices
2026-04-23 16:20:38.696 (  15.132s) [        45967140]   plugin_attributes.cc:71       1| PluginAttributes::PJRT_Plugin_Attributes
2026-04-23 16:20:38.696584: W torch_xla/csrc/runtime/profiler.cpp:88] Profiler API not found for PJRT plugin
2026-04-23 16:20:38.696 (  15.132s) [        45967140]  device_description.cc:67       1| DeviceDescription::PJRT_DeviceDescription_Id
2026-04-23 16:20:38.696 (  15.132s) [        45967140]  device_description.cc:67       1| DeviceDescription::PJRT_DeviceDescription_Id
2026-04-23 16:20:38.696 (  15.132s) [        45967140]  device_description.cc:67       1| DeviceDescription::PJRT_DeviceDescription_Id
2026-04-23 16:20:38.696 (  15.132s) [        45967140]  device_description.cc:67       1| DeviceDescription::PJRT_DeviceDescription_Id
2026-04-23 16:20:38.696 (  15.132s) [        45967140]  device_description.cc:67       1| DeviceDescription::PJRT_DeviceDescription_Id
2026-04-23 16:20:38.696 (  15.132s) [        45967140]  device_description.cc:67       1| DeviceDescription::PJRT_DeviceDescription_Id
2026-04-23 16:20:38.696 (  15.132s) [        45967140]  device_description.cc:129      1| DeviceDescription::PJRT_DeviceDescription_ToString
2026-04-23 16:20:38.696 (  15.132s) [        45967140]  device_description.cc:129      1| DeviceDescription::PJRT_DeviceDescription_ToString
2026-04-23 16:20:38.696 (  15.132s) [        45967140]  device_description.cc:67       1| DeviceDescription::PJRT_DeviceDescription_Id
2026-04-23 16:20:38.696 (  15.132s) [        45967140]  device_description.cc:67       1| DeviceDescription::PJRT_DeviceDescription_Id
2026-04-23 16:20:38.696 (  15.132s) [        45967140]  device_description.cc:67       1| DeviceDescription::PJRT_DeviceDescription_Id
2026-04-23 16:20:38.696 (  15.132s) [        45967140]  device_description.cc:67       1| DeviceDescription::PJRT_DeviceDescription_Id
2026-04-23 16:20:40.442 (  16.878s) [        45967140]  device_description.cc:67       1| DeviceDescription::PJRT_DeviceDescription_Id
2026-04-23 16:20:40.442 (  16.878s) [        45967140]  device_description.cc:67       1| DeviceDescription::PJRT_DeviceDescription_Id
2026-04-23 16:20:40.442 (  16.878s) [        45967140]     device_instance.cc:90       1| DeviceInstance::PJRT_Device_DefaultMemory
2026-04-23 16:20:40.442 (  16.878s) [        45967140]     client_instance.cc:850      1| ClientInstance::PJRT_Client_BufferFromHostBuffer
2026-04-23 16:20:40.442 (  16.878s) [        45967140]     memory_instance.cc:60       1| MemoryInstance::getDevice
2026-04-23 16:20:40.442 (  16.879s) [        45967140]      event_instance.cc:204      1| EventInstance::PJRT_Event_OnReady
2026-04-23 16:20:40.442 (  16.879s) [        45967140]      event_instance.cc:149      1| EventInstance::PJRT_Event_Destroy
2026-04-23 16:20:40.442 (  16.879s) [        45967140]     device_instance.cc:90       1| DeviceInstance::PJRT_Device_DefaultMemory
2026-04-23 16:20:40.442 (  16.879s) [        45967140]     client_instance.cc:850      1| ClientInstance::PJRT_Client_BufferFromHostBuffer
2026-04-23 16:20:40.442 (  16.879s) [        45967140]     memory_instance.cc:60       1| MemoryInstance::getDevice
2026-04-23 16:20:40.443 (  16.879s) [        45967140]      event_instance.cc:204      1| EventInstance::PJRT_Event_OnReady
2026-04-23 16:20:40.443 (  16.879s) [        45967140]      event_instance.cc:149      1| EventInstance::PJRT_Event_Destroy
2026-04-23 16:20:40.443 (  16.879s) [        45967140]  device_description.cc:67       1| DeviceDescription::PJRT_DeviceDescription_Id
2026-04-23 16:20:40.443 (  16.879s) [        45967140]  device_description.cc:67       1| DeviceDescription::PJRT_DeviceDescription_Id
2026-04-23 16:20:40.443 (  16.879s) [        45967140]     device_instance.cc:90       1| DeviceInstance::PJRT_Device_DefaultMemory
2026-04-23 16:20:40.443 (  16.879s) [        45967140]     client_instance.cc:850      1| ClientInstance::PJRT_Client_BufferFromHostBuffer
2026-04-23 16:20:40.443 (  16.879s) [        45967140]     memory_instance.cc:60       1| MemoryInstance::getDevice
2026-04-23 16:20:40.443 (  16.879s) [        45967140]      event_instance.cc:204      1| EventInstance::PJRT_Event_OnReady
2026-04-23 16:20:40.443 (  16.879s) [        45967140]      event_instance.cc:149      1| EventInstance::PJRT_Event_Destroy
2026-04-23 16:20:40.443 (  16.879s) [        45967140]     device_instance.cc:90       1| DeviceInstance::PJRT_Device_DefaultMemory
2026-04-23 16:20:40.443 (  16.879s) [        45967140]     client_instance.cc:850      1| ClientInstance::PJRT_Client_BufferFromHostBuffer
2026-04-23 16:20:40.443 (  16.879s) [        45967140]     memory_instance.cc:60       1| MemoryInstance::getDevice
2026-04-23 16:20:40.443 (  16.879s) [        45967140]      event_instance.cc:204      1| EventInstance::PJRT_Event_OnReady
2026-04-23 16:20:40.443 (  16.879s) [        45967140]      event_instance.cc:149      1| EventInstance::PJRT_Event_Destroy
2026-04-23 16:20:40.443 (  16.879s) [        45967140]  device_description.cc:67       1| DeviceDescription::PJRT_DeviceDescription_Id
2026-04-23 16:20:40.443 (  16.880s) [        45967140]  device_description.cc:67       1| DeviceDescription::PJRT_DeviceDescription_Id
2026-04-23 16:20:40.455 (  16.892s) [        45967140]     device_instance.cc:90       1| DeviceInstance::PJRT_Device_DefaultMemory
2026-04-23 16:20:40.455 (  16.892s) [        45967140]     client_instance.cc:850      1| ClientInstance::PJRT_Client_BufferFromHostBuffer
2026-04-23 16:20:40.455 (  16.892s) [        45967140]     memory_instance.cc:60       1| MemoryInstance::getDevice
2026-04-23 16:20:40.456 (  16.892s) [        45967140]      event_instance.cc:204      1| EventInstance::PJRT_Event_OnReady
2026-04-23 16:20:40.456 (  16.892s) [        45967140]      event_instance.cc:149      1| EventInstance::PJRT_Event_Destroy
2026-04-23 16:20:40.456 (  16.892s) [        45967140]     device_instance.cc:90       1| DeviceInstance::PJRT_Device_DefaultMemory
2026-04-23 16:20:40.456 (  16.892s) [        45967140]     client_instance.cc:850      1| ClientInstance::PJRT_Client_BufferFromHostBuffer
2026-04-23 16:20:40.456 (  16.892s) [        45967140]     memory_instance.cc:60       1| MemoryInstance::getDevice
2026-04-23 16:20:40.456 (  16.892s) [        45967140]      event_instance.cc:204      1| EventInstance::PJRT_Event_OnReady
2026-04-23 16:20:40.456 (  16.892s) [        45967140]      event_instance.cc:149      1| EventInstance::PJRT_Event_Destroy
2026-04-23 16:20:40.456 (  16.892s) [        45967140]  device_description.cc:67       1| DeviceDescription::PJRT_DeviceDescription_Id
2026-04-23 16:20:40.456 (  16.892s) [        45967140]  device_description.cc:67       1| DeviceDescription::PJRT_DeviceDescription_Id
2026-04-23 16:20:40.456 (  16.893s) [        45967140]     device_instance.cc:90       1| DeviceInstance::PJRT_Device_DefaultMemory
2026-04-23 16:20:40.457 (  16.893s) [        45967140]     client_instance.cc:850      1| ClientInstance::PJRT_Client_BufferFromHostBuffer
2026-04-23 16:20:40.457 (  16.893s) [        45967140]     memory_instance.cc:60       1| MemoryInstance::getDevice
2026-04-23 16:20:40.457 (  16.893s) [        45967140]      event_instance.cc:204      1| EventInstance::PJRT_Event_OnReady
2026-04-23 16:20:40.457 (  16.893s) [        45967140]      event_instance.cc:149      1| EventInstance::PJRT_Event_Destroy
2026-04-23 16:20:40.457 (  16.893s) [        45967140]     device_instance.cc:90       1| DeviceInstance::PJRT_Device_DefaultMemory
2026-04-23 16:20:40.457 (  16.893s) [        45967140]     client_instance.cc:850      1| ClientInstance::PJRT_Client_BufferFromHostBuffer
2026-04-23 16:20:40.457 (  16.893s) [        45967140]     memory_instance.cc:60       1| MemoryInstance::getDevice
2026-04-23 16:20:40.457 (  16.893s) [        45967140]      event_instance.cc:204      1| EventInstance::PJRT_Event_OnReady
2026-04-23 16:20:40.457 (  16.893s) [        45967140]      event_instance.cc:149      1| EventInstance::PJRT_Event_Destroy
2026-04-23 16:20:40.457 (  16.893s) [        45967140]  device_description.cc:67       1| DeviceDescription::PJRT_DeviceDescription_Id
2026-04-23 16:20:40.457 (  16.893s) [        45967140]  device_description.cc:67       1| DeviceDescription::PJRT_DeviceDescription_Id
2026-04-23 16:20:40.457 (  16.893s) [        45967140]     device_instance.cc:90       1| DeviceInstance::PJRT_Device_DefaultMemory
2026-04-23 16:20:40.457 (  16.893s) [        45967140]     client_instance.cc:850      1| ClientInstance::PJRT_Client_BufferFromHostBuffer
2026-04-23 16:20:40.457 (  16.893s) [        45967140]     memory_instance.cc:60       1| MemoryInstance::getDevice
2026-04-23 16:20:40.457 (  16.893s) [        45967140]      event_instance.cc:204      1| EventInstance::PJRT_Event_OnReady
2026-04-23 16:20:40.457 (  16.893s) [        45967140]      event_instance.cc:149      1| EventInstance::PJRT_Event_Destroy
2026-04-23 16:20:40.457 (  16.893s) [        45967140]     device_instance.cc:90       1| DeviceInstance::PJRT_Device_DefaultMemory
2026-04-23 16:20:40.457 (  16.893s) [        45967140]     client_instance.cc:850      1| ClientInstance::PJRT_Client_BufferFromHostBuffer
2026-04-23 16:20:40.457 (  16.893s) [        45967140]     memory_instance.cc:60       1| MemoryInstance::getDevice
2026-04-23 16:20:40.457 (  16.893s) [        45967140]      event_instance.cc:204      1| EventInstance::PJRT_Event_OnReady
2026-04-23 16:20:40.457 (  16.893s) [        45967140]      event_instance.cc:149      1| EventInstance::PJRT_Event_Destroy
2026-04-23 16:20:40.457 (  16.893s) [        45967140]  device_description.cc:67       1| DeviceDescription::PJRT_DeviceDescription_Id
2026-04-23 16:20:40.457 (  16.893s) [        45967140]  device_description.cc:67       1| DeviceDescription::PJRT_DeviceDescription_Id
2026-04-23 16:20:40.457 (  16.893s) [        45967140]     device_instance.cc:90       1| DeviceInstance::PJRT_Device_DefaultMemory
2026-04-23 16:20:40.457 (  16.893s) [        45967140]     client_instance.cc:850      1| ClientInstance::PJRT_Client_BufferFromHostBuffer
2026-04-23 16:20:40.457 (  16.893s) [        45967140]     memory_instance.cc:60       1| MemoryInstance::getDevice
2026-04-23 16:20:40.457 (  16.893s) [        45967140]      event_instance.cc:204      1| EventInstance::PJRT_Event_OnReady
2026-04-23 16:20:40.457 (  16.893s) [        45967140]      event_instance.cc:149      1| EventInstance::PJRT_Event_Destroy
2026-04-23 16:20:40.457 (  16.893s) [        45967140]     device_instance.cc:90       1| DeviceInstance::PJRT_Device_DefaultMemory
2026-04-23 16:20:40.457 (  16.894s) [        45967140]     client_instance.cc:850      1| ClientInstance::PJRT_Client_BufferFromHostBuffer
2026-04-23 16:20:40.458 (  16.894s) [        45967140]     memory_instance.cc:60       1| MemoryInstance::getDevice
2026-04-23 16:20:40.458 (  16.894s) [        45967140]      event_instance.cc:204      1| EventInstance::PJRT_Event_OnReady
2026-04-23 16:20:40.458 (  16.894s) [        45967140]      event_instance.cc:149      1| EventInstance::PJRT_Event_Destroy
2026-04-23 16:20:40.458 (  16.894s) [        45967140]  device_description.cc:67       1| DeviceDescription::PJRT_DeviceDescription_Id
2026-04-23 16:20:40.458 (  16.895s) [        45967140]  device_description.cc:67       1| DeviceDescription::PJRT_DeviceDescription_Id
2026-04-23 16:20:40.465 (  16.902s) [        45967140]     device_instance.cc:90       1| DeviceInstance::PJRT_Device_DefaultMemory
2026-04-23 16:20:40.465 (  16.902s) [        45967140]     client_instance.cc:850      1| ClientInstance::PJRT_Client_BufferFromHostBuffer
2026-04-23 16:20:40.465 (  16.902s) [        45967140]     memory_instance.cc:60       1| MemoryInstance::getDevice
2026-04-23 16:20:40.466 (  16.902s) [        45967140]      event_instance.cc:204      1| EventInstance::PJRT_Event_OnReady
2026-04-23 16:20:40.466 (  16.902s) [        45967140]      event_instance.cc:149      1| EventInstance::PJRT_Event_Destroy
2026-04-23 16:20:40.466 (  16.902s) [        45967140]     device_instance.cc:90       1| DeviceInstance::PJRT_Device_DefaultMemory
2026-04-23 16:20:40.466 (  16.902s) [        45967140]     client_instance.cc:850      1| ClientInstance::PJRT_Client_BufferFromHostBuffer
2026-04-23 16:20:40.466 (  16.902s) [        45967140]     memory_instance.cc:60       1| MemoryInstance::getDevice
2026-04-23 16:20:40.466 (  16.902s) [        45967140]      event_instance.cc:204      1| EventInstance::PJRT_Event_OnReady
2026-04-23 16:20:40.466 (  16.902s) [        45967140]      event_instance.cc:149      1| EventInstance::PJRT_Event_Destroy
2026-04-23 16:20:40.466 (  16.902s) [        45967140]  device_description.cc:67       1| DeviceDescription::PJRT_DeviceDescription_Id
2026-04-23 16:20:40.466 (  16.902s) [        45967140]  device_description.cc:67       1| DeviceDescription::PJRT_DeviceDescription_Id
2026-04-23 16:20:40.466 (  16.902s) [        45967140]     device_instance.cc:90       1| DeviceInstance::PJRT_Device_DefaultMemory
2026-04-23 16:20:40.466 (  16.902s) [        45967140]     client_instance.cc:850      1| ClientInstance::PJRT_Client_BufferFromHostBuffer
2026-04-23 16:20:40.466 (  16.902s) [        45967140]     memory_instance.cc:60       1| MemoryInstance::getDevice
2026-04-23 16:20:40.466 (  16.902s) [        45967140]      event_instance.cc:204      1| EventInstance::PJRT_Event_OnReady
2026-04-23 16:20:40.466 (  16.902s) [        45967140]      event_instance.cc:149      1| EventInstance::PJRT_Event_Destroy
2026-04-23 16:20:40.466 (  16.902s) [        45967140]     device_instance.cc:90       1| DeviceInstance::PJRT_Device_DefaultMemory
2026-04-23 16:20:40.466 (  16.902s) [        45967140]     client_instance.cc:850      1| ClientInstance::PJRT_Client_BufferFromHostBuffer
2026-04-23 16:20:40.466 (  16.902s) [        45967140]     memory_instance.cc:60       1| MemoryInstance::getDevice
2026-04-23 16:20:40.466 (  16.902s) [        45967140]      event_instance.cc:204      1| EventInstance::PJRT_Event_OnReady
2026-04-23 16:20:40.466 (  16.902s) [        45967140]      event_instance.cc:149      1| EventInstance::PJRT_Event_Destroy
2026-04-23 16:20:40.466 (  16.902s) [        45967140]  device_description.cc:67       1| DeviceDescription::PJRT_DeviceDescription_Id
2026-04-23 16:20:40.466 (  16.902s) [        45967140]  device_description.cc:67       1| DeviceDescription::PJRT_DeviceDescription_Id
2026-04-23 16:20:40.466 (  16.903s) [        45967140]     device_instance.cc:90       1| DeviceInstance::PJRT_Device_DefaultMemory
2026-04-23 16:20:40.466 (  16.903s) [        45967140]     client_instance.cc:850      1| ClientInstance::PJRT_Client_BufferFromHostBuffer
2026-04-23 16:20:40.466 (  16.903s) [        45967140]     memory_instance.cc:60       1| MemoryInstance::getDevice
2026-04-23 16:20:40.466 (  16.903s) [        45967140]      event_instance.cc:204      1| EventInstance::PJRT_Event_OnReady
2026-04-23 16:20:40.466 (  16.903s) [        45967140]      event_instance.cc:149      1| EventInstance::PJRT_Event_Destroy
2026-04-23 16:20:40.466 (  16.903s) [        45967140]     device_instance.cc:90       1| DeviceInstance::PJRT_Device_DefaultMemory
2026-04-23 16:20:40.466 (  16.903s) [        45967140]     client_instance.cc:850      1| ClientInstance::PJRT_Client_BufferFromHostBuffer
2026-04-23 16:20:40.466 (  16.903s) [        45967140]     memory_instance.cc:60       1| MemoryInstance::getDevice
2026-04-23 16:20:40.466 (  16.903s) [        45967140]      event_instance.cc:204      1| EventInstance::PJRT_Event_OnReady
2026-04-23 16:20:40.466 (  16.903s) [        45967140]      event_instance.cc:149      1| EventInstance::PJRT_Event_Destroy
2026-04-23 16:20:40.466 (  16.903s) [        45967140]  device_description.cc:67       1| DeviceDescription::PJRT_DeviceDescription_Id
2026-04-23 16:20:40.466 (  16.903s) [        45967140]  device_description.cc:67       1| DeviceDescription::PJRT_DeviceDescription_Id
2026-04-23 16:20:40.475 (  16.912s) [        45967140]     device_instance.cc:90       1| DeviceInstance::PJRT_Device_DefaultMemory
2026-04-23 16:20:40.475 (  16.912s) [        45967140]     client_instance.cc:850      1| ClientInstance::PJRT_Client_BufferFromHostBuffer
2026-04-23 16:20:40.475 (  16.912s) [        45967140]     memory_instance.cc:60       1| MemoryInstance::getDevice
2026-04-23 16:20:40.475 (  16.912s) [        45967140]      event_instance.cc:204      1| EventInstance::PJRT_Event_OnReady
2026-04-23 16:20:40.475 (  16.912s) [        45967140]      event_instance.cc:149      1| EventInstance::PJRT_Event_Destroy
2026-04-23 16:20:40.475 (  16.912s) [        45967140]     device_instance.cc:90       1| DeviceInstance::PJRT_Device_DefaultMemory
2026-04-23 16:20:40.475 (  16.912s) [        45967140]     client_instance.cc:850      1| ClientInstance::PJRT_Client_BufferFromHostBuffer
2026-04-23 16:20:40.475 (  16.912s) [        45967140]     memory_instance.cc:60       1| MemoryInstance::getDevice
2026-04-23 16:20:40.477 (  16.913s) [        45967140]      event_instance.cc:204      1| EventInstance::PJRT_Event_OnReady
2026-04-23 16:20:40.477 (  16.913s) [        45967140]      event_instance.cc:149      1| EventInstance::PJRT_Event_Destroy
2026-04-23 16:20:40.477 (  16.913s) [        45967140]  device_description.cc:67       1| DeviceDescription::PJRT_DeviceDescription_Id
2026-04-23 16:20:40.477 (  16.913s) [        45967140]  device_description.cc:67       1| DeviceDescription::PJRT_DeviceDescription_Id
2026-04-23 16:20:40.477 (  16.913s) [        45967140]     device_instance.cc:90       1| DeviceInstance::PJRT_Device_DefaultMemory
2026-04-23 16:20:40.477 (  16.913s) [        45967140]     client_instance.cc:850      1| ClientInstance::PJRT_Client_BufferFromHostBuffer
2026-04-23 16:20:40.477 (  16.913s) [        45967140]     memory_instance.cc:60       1| MemoryInstance::getDevice
2026-04-23 16:20:40.477 (  16.913s) [        45967140]      event_instance.cc:204      1| EventInstance::PJRT_Event_OnReady
2026-04-23 16:20:40.477 (  16.913s) [        45967140]      event_instance.cc:149      1| EventInstance::PJRT_Event_Destroy
2026-04-23 16:20:40.477 (  16.913s) [        45967140]     device_instance.cc:90       1| DeviceInstance::PJRT_Device_DefaultMemory
2026-04-23 16:20:40.477 (  16.913s) [        45967140]     client_instance.cc:850      1| ClientInstance::PJRT_Client_BufferFromHostBuffer
2026-04-23 16:20:40.477 (  16.913s) [        45967140]     memory_instance.cc:60       1| MemoryInstance::getDevice
2026-04-23 16:20:40.477 (  16.913s) [        45967140]      event_instance.cc:204      1| EventInstance::PJRT_Event_OnReady
2026-04-23 16:20:40.477 (  16.913s) [        45967140]      event_instance.cc:149      1| EventInstance::PJRT_Event_Destroy
2026-04-23 16:20:40.477 (  16.913s) [        45967140]  device_description.cc:67       1| DeviceDescription::PJRT_DeviceDescription_Id
2026-04-23 16:20:40.477 (  16.913s) [        45967140]  device_description.cc:67       1| DeviceDescription::PJRT_DeviceDescription_Id
2026-04-23 16:20:40.477 (  16.913s) [        45967140]     device_instance.cc:90       1| DeviceInstance::PJRT_Device_DefaultMemory
2026-04-23 16:20:40.477 (  16.913s) [        45967140]     client_instance.cc:850      1| ClientInstance::PJRT_Client_BufferFromHostBuffer
2026-04-23 16:20:40.477 (  16.913s) [        45967140]     memory_instance.cc:60       1| MemoryInstance::getDevice
2026-04-23 16:20:40.477 (  16.913s) [        45967140]      event_instance.cc:204      1| EventInstance::PJRT_Event_OnReady
2026-04-23 16:20:40.477 (  16.913s) [        45967140]      event_instance.cc:149      1| EventInstance::PJRT_Event_Destroy
2026-04-23 16:20:40.477 (  16.913s) [        45967140]     device_instance.cc:90       1| DeviceInstance::PJRT_Device_DefaultMemory
2026-04-23 16:20:40.477 (  16.913s) [        45967140]     client_instance.cc:850      1| ClientInstance::PJRT_Client_BufferFromHostBuffer
2026-04-23 16:20:40.477 (  16.913s) [        45967140]     memory_instance.cc:60       1| MemoryInstance::getDevice
2026-04-23 16:20:40.477 (  16.913s) [        45967140]      event_instance.cc:204      1| EventInstance::PJRT_Event_OnReady
2026-04-23 16:20:40.477 (  16.913s) [        45967140]      event_instance.cc:149      1| EventInstance::PJRT_Event_Destroy
2026-04-23 16:20:40.477 (  16.913s) [        45967140]  device_description.cc:67       1| DeviceDescription::PJRT_DeviceDescription_Id
2026-04-23 16:20:40.477 (  16.913s) [        45967140]  device_description.cc:67       1| DeviceDescription::PJRT_DeviceDescription_Id
2026-04-23 16:20:40.477 (  16.913s) [        45967140]     device_instance.cc:90       1| DeviceInstance::PJRT_Device_DefaultMemory
2026-04-23 16:20:40.477 (  16.913s) [        45967140]     client_instance.cc:850      1| ClientInstance::PJRT_Client_BufferFromHostBuffer
2026-04-23 16:20:40.477 (  16.913s) [        45967140]     memory_instance.cc:60       1| MemoryInstance::getDevice
2026-04-23 16:20:40.477 (  16.914s) [        45967140]      event_instance.cc:204      1| EventInstance::PJRT_Event_OnReady
2026-04-23 16:20:40.477 (  16.914s) [        45967140]      event_instance.cc:149      1| EventInstance::PJRT_Event_Destroy
2026-04-23 16:20:40.477 (  16.914s) [        45967140]     device_instance.cc:90       1| DeviceInstance::PJRT_Device_DefaultMemory
2026-04-23 16:20:40.477 (  16.914s) [        45967140]     client_instance.cc:850      1| ClientInstance::PJRT_Client_BufferFromHostBuffer
2026-04-23 16:20:40.477 (  16.914s) [        45967140]     memory_instance.cc:60       1| MemoryInstance::getDevice
2026-04-23 16:20:40.477 (  16.914s) [        45967140]      event_instance.cc:204      1| EventInstance::PJRT_Event_OnReady
2026-04-23 16:20:40.477 (  16.914s) [        45967140]      event_instance.cc:149      1| EventInstance::PJRT_Event_Destroy
2026-04-23 16:20:40.477 (  16.914s) [        45967140]  device_description.cc:67       1| DeviceDescription::PJRT_DeviceDescription_Id
2026-04-23 16:20:40.477 (  16.914s) [        45967140]  device_description.cc:67       1| DeviceDescription::PJRT_DeviceDescription_Id
2026-04-23 16:20:40.487 (  16.923s) [        45967140]     device_instance.cc:90       1| DeviceInstance::PJRT_Device_DefaultMemory
2026-04-23 16:20:40.487 (  16.923s) [        45967140]     client_instance.cc:850      1| ClientInstance::PJRT_Client_BufferFromHostBuffer
2026-04-23 16:20:40.487 (  16.923s) [        45967140]     memory_instance.cc:60       1| MemoryInstance::getDevice
2026-04-23 16:20:40.487 (  16.923s) [        45967140]      event_instance.cc:204      1| EventInstance::PJRT_Event_OnReady
2026-04-23 16:20:40.487 (  16.923s) [        45967140]      event_instance.cc:149      1| EventInstance::PJRT_Event_Destroy
2026-04-23 16:20:40.487 (  16.923s) [        45967140]     device_instance.cc:90       1| DeviceInstance::PJRT_Device_DefaultMemory
2026-04-23 16:20:40.487 (  16.923s) [        45967140]     client_instance.cc:850      1| ClientInstance::PJRT_Client_BufferFromHostBuffer
2026-04-23 16:20:40.487 (  16.923s) [        45967140]     memory_instance.cc:60       1| MemoryInstance::getDevice
2026-04-23 16:20:40.487 (  16.923s) [        45967140]      event_instance.cc:204      1| EventInstance::PJRT_Event_OnReady
2026-04-23 16:20:40.487 (  16.923s) [        45967140]      event_instance.cc:149      1| EventInstance::PJRT_Event_Destroy
2026-04-23 16:20:40.487 (  16.924s) [        45967140]  device_description.cc:67       1| DeviceDescription::PJRT_DeviceDescription_Id
2026-04-23 16:20:40.487 (  16.924s) [        45967140]  device_description.cc:67       1| DeviceDescription::PJRT_DeviceDescription_Id
2026-04-23 16:20:40.487 (  16.924s) [        45967140]     device_instance.cc:90       1| DeviceInstance::PJRT_Device_DefaultMemory
2026-04-23 16:20:40.487 (  16.924s) [        45967140]     client_instance.cc:850      1| ClientInstance::PJRT_Client_BufferFromHostBuffer
2026-04-23 16:20:40.487 (  16.924s) [        45967140]     memory_instance.cc:60       1| MemoryInstance::getDevice
2026-04-23 16:20:40.487 (  16.924s) [        45967140]      event_instance.cc:204      1| EventInstance::PJRT_Event_OnReady
2026-04-23 16:20:40.487 (  16.924s) [        45967140]      event_instance.cc:149      1| EventInstance::PJRT_Event_Destroy
2026-04-23 16:20:40.487 (  16.924s) [        45967140]     device_instance.cc:90       1| DeviceInstance::PJRT_Device_DefaultMemory
2026-04-23 16:20:40.487 (  16.924s) [        45967140]     client_instance.cc:850      1| ClientInstance::PJRT_Client_BufferFromHostBuffer
2026-04-23 16:20:40.487 (  16.924s) [        45967140]     memory_instance.cc:60       1| MemoryInstance::getDevice
2026-04-23 16:20:40.487 (  16.924s) [        45967140]      event_instance.cc:204      1| EventInstance::PJRT_Event_OnReady
2026-04-23 16:20:40.487 (  16.924s) [        45967140]      event_instance.cc:149      1| EventInstance::PJRT_Event_Destroy
2026-04-23 16:20:40.488 (  16.924s) [        45967140]  device_description.cc:67       1| DeviceDescription::PJRT_DeviceDescription_Id
2026-04-23 16:20:40.488 (  16.924s) [        45967140]  device_description.cc:67       1| DeviceDescription::PJRT_DeviceDescription_Id
2026-04-23 16:20:40.488 (  16.924s) [        45967140]     device_instance.cc:90       1| DeviceInstance::PJRT_Device_DefaultMemory
2026-04-23 16:20:40.488 (  16.924s) [        45967140]     client_instance.cc:850      1| ClientInstance::PJRT_Client_BufferFromHostBuffer
2026-04-23 16:20:40.488 (  16.924s) [        45967140]     memory_instance.cc:60       1| MemoryInstance::getDevice
2026-04-23 16:20:40.488 (  16.924s) [        45967140]      event_instance.cc:204      1| EventInstance::PJRT_Event_OnReady
2026-04-23 16:20:40.488 (  16.924s) [        45967140]      event_instance.cc:149      1| EventInstance::PJRT_Event_Destroy
2026-04-23 16:20:40.488 (  16.924s) [        45967140]     device_instance.cc:90       1| DeviceInstance::PJRT_Device_DefaultMemory
2026-04-23 16:20:40.488 (  16.924s) [        45967140]     client_instance.cc:850      1| ClientInstance::PJRT_Client_BufferFromHostBuffer
2026-04-23 16:20:40.488 (  16.924s) [        45967140]     memory_instance.cc:60       1| MemoryInstance::getDevice
2026-04-23 16:20:40.488 (  16.924s) [        45967140]      event_instance.cc:204      1| EventInstance::PJRT_Event_OnReady
2026-04-23 16:20:40.488 (  16.924s) [        45967140]      event_instance.cc:149      1| EventInstance::PJRT_Event_Destroy
2026-04-23 16:20:40.488 (  16.924s) [        45967140]  device_description.cc:67       1| DeviceDescription::PJRT_DeviceDescription_Id
2026-04-23 16:20:40.488 (  16.924s) [        45967140]  device_description.cc:67       1| DeviceDescription::PJRT_DeviceDescription_Id
2026-04-23 16:20:40.491 (  16.928s) [        45967140]     device_instance.cc:90       1| DeviceInstance::PJRT_Device_DefaultMemory
2026-04-23 16:20:40.491 (  16.928s) [        45967140]     client_instance.cc:850      1| ClientInstance::PJRT_Client_BufferFromHostBuffer
2026-04-23 16:20:40.491 (  16.928s) [        45967140]     memory_instance.cc:60       1| MemoryInstance::getDevice
2026-04-23 16:20:40.491 (  16.928s) [        45967140]      event_instance.cc:204      1| EventInstance::PJRT_Event_OnReady
2026-04-23 16:20:40.492 (  16.928s) [        45967140]      event_instance.cc:149      1| EventInstance::PJRT_Event_Destroy
2026-04-23 16:20:40.492 (  16.928s) [        45967140]     device_instance.cc:90       1| DeviceInstance::PJRT_Device_DefaultMemory
2026-04-23 16:20:40.492 (  16.928s) [        45967140]     client_instance.cc:850      1| ClientInstance::PJRT_Client_BufferFromHostBuffer
2026-04-23 16:20:40.492 (  16.928s) [        45967140]     memory_instance.cc:60       1| MemoryInstance::getDevice
2026-04-23 16:20:40.492 (  16.928s) [        45967140]      event_instance.cc:204      1| EventInstance::PJRT_Event_OnReady
2026-04-23 16:20:40.492 (  16.928s) [        45967140]      event_instance.cc:149      1| EventInstance::PJRT_Event_Destroy
2026-04-23 16:20:40.492 (  16.928s) [        45967140]  device_description.cc:67       1| DeviceDescription::PJRT_DeviceDescription_Id
2026-04-23 16:20:40.492 (  16.929s) [        45967140]  device_description.cc:67       1| DeviceDescription::PJRT_DeviceDescription_Id
2026-04-23 16:20:40.492 (  16.929s) [        45967140]     device_instance.cc:90       1| DeviceInstance::PJRT_Device_DefaultMemory
2026-04-23 16:20:40.492 (  16.929s) [        45967140]     client_instance.cc:850      1| ClientInstance::PJRT_Client_BufferFromHostBuffer
2026-04-23 16:20:40.492 (  16.929s) [        45967140]     memory_instance.cc:60       1| MemoryInstance::getDevice
2026-04-23 16:20:40.492 (  16.929s) [        45967140]      event_instance.cc:204      1| EventInstance::PJRT_Event_OnReady
2026-04-23 16:20:40.492 (  16.929s) [        45967140]      event_instance.cc:149      1| EventInstance::PJRT_Event_Destroy
2026-04-23 16:20:40.492 (  16.929s) [        45967140]     device_instance.cc:90       1| DeviceInstance::PJRT_Device_DefaultMemory
2026-04-23 16:20:40.492 (  16.929s) [        45967140]     client_instance.cc:850      1| ClientInstance::PJRT_Client_BufferFromHostBuffer
2026-04-23 16:20:40.492 (  16.929s) [        45967140]     memory_instance.cc:60       1| MemoryInstance::getDevice
2026-04-23 16:20:40.492 (  16.929s) [        45967140]      event_instance.cc:204      1| EventInstance::PJRT_Event_OnReady
2026-04-23 16:20:40.492 (  16.929s) [        45967140]      event_instance.cc:149      1| EventInstance::PJRT_Event_Destroy
2026-04-23 16:20:40.493 (  16.929s) [        45967140]  device_description.cc:67       1| DeviceDescription::PJRT_DeviceDescription_Id
2026-04-23 16:20:40.493 (  16.929s) [        45967140]  device_description.cc:67       1| DeviceDescription::PJRT_DeviceDescription_Id
2026-04-23 16:20:40.493 (  16.929s) [        45967140]     device_instance.cc:90       1| DeviceInstance::PJRT_Device_DefaultMemory
2026-04-23 16:20:40.493 (  16.929s) [        45967140]     client_instance.cc:850      1| ClientInstance::PJRT_Client_BufferFromHostBuffer
2026-04-23 16:20:40.493 (  16.929s) [        45967140]     memory_instance.cc:60       1| MemoryInstance::getDevice
2026-04-23 16:20:40.493 (  16.929s) [        45967140]      event_instance.cc:204      1| EventInstance::PJRT_Event_OnReady
2026-04-23 16:20:40.493 (  16.929s) [        45967140]      event_instance.cc:149      1| EventInstance::PJRT_Event_Destroy
2026-04-23 16:20:40.493 (  16.929s) [        45967140]     device_instance.cc:90       1| DeviceInstance::PJRT_Device_DefaultMemory
2026-04-23 16:20:40.493 (  16.929s) [        45967140]     client_instance.cc:850      1| ClientInstance::PJRT_Client_BufferFromHostBuffer
2026-04-23 16:20:40.493 (  16.929s) [        45967140]     memory_instance.cc:60       1| MemoryInstance::getDevice
2026-04-23 16:20:40.493 (  16.929s) [        45967140]      event_instance.cc:204      1| EventInstance::PJRT_Event_OnReady
2026-04-23 16:20:40.493 (  16.929s) [        45967140]      event_instance.cc:149      1| EventInstance::PJRT_Event_Destroy
2026-04-23 16:20:40.493 (  16.929s) [        45967140]  device_description.cc:67       1| DeviceDescription::PJRT_DeviceDescription_Id
2026-04-23 16:20:40.493 (  16.929s) [        45967140]  device_description.cc:67       1| DeviceDescription::PJRT_DeviceDescription_Id
2026-04-23 16:20:40.493 (  16.929s) [        45967140]     device_instance.cc:90       1| DeviceInstance::PJRT_Device_DefaultMemory
2026-04-23 16:20:40.493 (  16.929s) [        45967140]     client_instance.cc:850      1| ClientInstance::PJRT_Client_BufferFromHostBuffer
2026-04-23 16:20:40.493 (  16.929s) [        45967140]     memory_instance.cc:60       1| MemoryInstance::getDevice
2026-04-23 16:20:40.493 (  16.929s) [        45967140]      event_instance.cc:204      1| EventInstance::PJRT_Event_OnReady
2026-04-23 16:20:40.493 (  16.929s) [        45967140]      event_instance.cc:149      1| EventInstance::PJRT_Event_Destroy
2026-04-23 16:20:40.493 (  16.929s) [        45967140]     device_instance.cc:90       1| DeviceInstance::PJRT_Device_DefaultMemory
2026-04-23 16:20:40.493 (  16.929s) [        45967140]     client_instance.cc:850      1| ClientInstance::PJRT_Client_BufferFromHostBuffer
2026-04-23 16:20:40.493 (  16.929s) [        45967140]     memory_instance.cc:60       1| MemoryInstance::getDevice
2026-04-23 16:20:40.493 (  16.929s) [        45967140]      event_instance.cc:204      1| EventInstance::PJRT_Event_OnReady
2026-04-23 16:20:40.493 (  16.929s) [        45967140]      event_instance.cc:149      1| EventInstance::PJRT_Event_Destroy
2026-04-23 16:20:40.493 (  16.929s) [        45967140]  device_description.cc:67       1| DeviceDescription::PJRT_DeviceDescription_Id
2026-04-23 16:20:40.493 (  16.929s) [        45967140]  device_description.cc:67       1| DeviceDescription::PJRT_DeviceDescription_Id
2026-04-23 16:20:40.497 (  16.933s) [        45967140]     device_instance.cc:90       1| DeviceInstance::PJRT_Device_DefaultMemory
2026-04-23 16:20:40.497 (  16.933s) [        45967140]     client_instance.cc:850      1| ClientInstance::PJRT_Client_BufferFromHostBuffer
2026-04-23 16:20:40.497 (  16.933s) [        45967140]     memory_instance.cc:60       1| MemoryInstance::getDevice
2026-04-23 16:20:40.497 (  16.933s) [        45967140]      event_instance.cc:204      1| EventInstance::PJRT_Event_OnReady
2026-04-23 16:20:40.497 (  16.933s) [        45967140]      event_instance.cc:149      1| EventInstance::PJRT_Event_Destroy
2026-04-23 16:20:40.497 (  16.933s) [        45967140]     device_instance.cc:90       1| DeviceInstance::PJRT_Device_DefaultMemory
2026-04-23 16:20:40.497 (  16.933s) [        45967140]     client_instance.cc:850      1| ClientInstance::PJRT_Client_BufferFromHostBuffer
2026-04-23 16:20:40.497 (  16.933s) [        45967140]     memory_instance.cc:60       1| MemoryInstance::getDevice
2026-04-23 16:20:40.497 (  16.933s) [        45967140]      event_instance.cc:204      1| EventInstance::PJRT_Event_OnReady
2026-04-23 16:20:40.498 (  16.934s) [        45967140]      event_instance.cc:149      1| EventInstance::PJRT_Event_Destroy
2026-04-23 16:20:40.498 (  16.934s) [        45967140]  device_description.cc:67       1| DeviceDescription::PJRT_DeviceDescription_Id
2026-04-23 16:20:40.498 (  16.934s) [        45967140]  device_description.cc:67       1| DeviceDescription::PJRT_DeviceDescription_Id
2026-04-23 16:20:40.498 (  16.934s) [        45967140]     device_instance.cc:90       1| DeviceInstance::PJRT_Device_DefaultMemory
2026-04-23 16:20:40.498 (  16.934s) [        45967140]     client_instance.cc:850      1| ClientInstance::PJRT_Client_BufferFromHostBuffer
2026-04-23 16:20:40.498 (  16.934s) [        45967140]     memory_instance.cc:60       1| MemoryInstance::getDevice
2026-04-23 16:20:40.498 (  16.934s) [        45967140]      event_instance.cc:204      1| EventInstance::PJRT_Event_OnReady
2026-04-23 16:20:40.498 (  16.934s) [        45967140]      event_instance.cc:149      1| EventInstance::PJRT_Event_Destroy
2026-04-23 16:20:40.498 (  16.934s) [        45967140]     device_instance.cc:90       1| DeviceInstance::PJRT_Device_DefaultMemory
2026-04-23 16:20:40.498 (  16.934s) [        45967140]     client_instance.cc:850      1| ClientInstance::PJRT_Client_BufferFromHostBuffer
2026-04-23 16:20:40.498 (  16.934s) [        45967140]     memory_instance.cc:60       1| MemoryInstance::getDevice
2026-04-23 16:20:40.498 (  16.934s) [        45967140]      event_instance.cc:204      1| EventInstance::PJRT_Event_OnReady
2026-04-23 16:20:40.498 (  16.934s) [        45967140]      event_instance.cc:149      1| EventInstance::PJRT_Event_Destroy
2026-04-23 16:20:40.498 (  16.934s) [        45967140]  device_description.cc:67       1| DeviceDescription::PJRT_DeviceDescription_Id
2026-04-23 16:20:40.498 (  16.934s) [        45967140]  device_description.cc:67       1| DeviceDescription::PJRT_DeviceDescription_Id
2026-04-23 16:20:40.498 (  16.934s) [        45967140]     device_instance.cc:90       1| DeviceInstance::PJRT_Device_DefaultMemory
2026-04-23 16:20:40.498 (  16.934s) [        45967140]     client_instance.cc:850      1| ClientInstance::PJRT_Client_BufferFromHostBuffer
2026-04-23 16:20:40.498 (  16.934s) [        45967140]     memory_instance.cc:60       1| MemoryInstance::getDevice
2026-04-23 16:20:40.498 (  16.934s) [        45967140]      event_instance.cc:204      1| EventInstance::PJRT_Event_OnReady
2026-04-23 16:20:40.498 (  16.934s) [        45967140]      event_instance.cc:149      1| EventInstance::PJRT_Event_Destroy
2026-04-23 16:20:40.498 (  16.934s) [        45967140]     device_instance.cc:90       1| DeviceInstance::PJRT_Device_DefaultMemory
2026-04-23 16:20:40.498 (  16.934s) [        45967140]     client_instance.cc:850      1| ClientInstance::PJRT_Client_BufferFromHostBuffer
2026-04-23 16:20:40.498 (  16.934s) [        45967140]     memory_instance.cc:60       1| MemoryInstance::getDevice
2026-04-23 16:20:40.498 (  16.934s) [        45967140]      event_instance.cc:204      1| EventInstance::PJRT_Event_OnReady
2026-04-23 16:20:40.498 (  16.934s) [        45967140]      event_instance.cc:149      1| EventInstance::PJRT_Event_Destroy
2026-04-23 16:20:40.498 (  16.934s) [        45967140]  device_description.cc:67       1| DeviceDescription::PJRT_DeviceDescription_Id
2026-04-23 16:20:40.498 (  16.934s) [        45967140]  device_description.cc:67       1| DeviceDescription::PJRT_DeviceDescription_Id
2026-04-23 16:20:40.502 (  16.939s) [        45967140]     device_instance.cc:90       1| DeviceInstance::PJRT_Device_DefaultMemory
2026-04-23 16:20:40.503 (  16.939s) [        45967140]     client_instance.cc:850      1| ClientInstance::PJRT_Client_BufferFromHostBuffer
2026-04-23 16:20:40.503 (  16.939s) [        45967140]     memory_instance.cc:60       1| MemoryInstance::getDevice
2026-04-23 16:20:40.503 (  16.939s) [        45967140]      event_instance.cc:204      1| EventInstance::PJRT_Event_OnReady
2026-04-23 16:20:40.503 (  16.939s) [        45967140]      event_instance.cc:149      1| EventInstance::PJRT_Event_Destroy
2026-04-23 16:20:40.503 (  16.939s) [        45967140]     device_instance.cc:90       1| DeviceInstance::PJRT_Device_DefaultMemory
2026-04-23 16:20:40.503 (  16.939s) [        45967140]     client_instance.cc:850      1| ClientInstance::PJRT_Client_BufferFromHostBuffer
2026-04-23 16:20:40.503 (  16.940s) [        45967140]     memory_instance.cc:60       1| MemoryInstance::getDevice
2026-04-23 16:20:40.503 (  16.940s) [        45967140]      event_instance.cc:204      1| EventInstance::PJRT_Event_OnReady
2026-04-23 16:20:40.503 (  16.940s) [        45967140]      event_instance.cc:149      1| EventInstance::PJRT_Event_Destroy
2026-04-23 16:20:40.503 (  16.940s) [        45967140]  device_description.cc:67       1| DeviceDescription::PJRT_DeviceDescription_Id
2026-04-23 16:20:40.503 (  16.940s) [        45967140]  device_description.cc:67       1| DeviceDescription::PJRT_DeviceDescription_Id
2026-04-23 16:20:40.503 (  16.940s) [        45967140]     device_instance.cc:90       1| DeviceInstance::PJRT_Device_DefaultMemory
2026-04-23 16:20:40.503 (  16.940s) [        45967140]     client_instance.cc:850      1| ClientInstance::PJRT_Client_BufferFromHostBuffer
2026-04-23 16:20:40.503 (  16.940s) [        45967140]     memory_instance.cc:60       1| MemoryInstance::getDevice
2026-04-23 16:20:40.503 (  16.940s) [        45967140]      event_instance.cc:204      1| EventInstance::PJRT_Event_OnReady
2026-04-23 16:20:40.503 (  16.940s) [        45967140]      event_instance.cc:149      1| EventInstance::PJRT_Event_Destroy
2026-04-23 16:20:40.503 (  16.940s) [        45967140]     device_instance.cc:90       1| DeviceInstance::PJRT_Device_DefaultMemory
2026-04-23 16:20:40.504 (  16.940s) [        45967140]     client_instance.cc:850      1| ClientInstance::PJRT_Client_BufferFromHostBuffer
2026-04-23 16:20:40.504 (  16.940s) [        45967140]     memory_instance.cc:60       1| MemoryInstance::getDevice
2026-04-23 16:20:40.504 (  16.940s) [        45967140]      event_instance.cc:204      1| EventInstance::PJRT_Event_OnReady
2026-04-23 16:20:40.504 (  16.940s) [        45967140]      event_instance.cc:149      1| EventInstance::PJRT_Event_Destroy
2026-04-23 16:20:40.504 (  16.940s) [        45967140]  device_description.cc:67       1| DeviceDescription::PJRT_DeviceDescription_Id
2026-04-23 16:20:40.504 (  16.940s) [        45967140]  device_description.cc:67       1| DeviceDescription::PJRT_DeviceDescription_Id
2026-04-23 16:20:40.504 (  16.940s) [        45967140]     device_instance.cc:90       1| DeviceInstance::PJRT_Device_DefaultMemory
2026-04-23 16:20:40.504 (  16.940s) [        45967140]     client_instance.cc:850      1| ClientInstance::PJRT_Client_BufferFromHostBuffer
2026-04-23 16:20:40.504 (  16.940s) [        45967140]     memory_instance.cc:60       1| MemoryInstance::getDevice
2026-04-23 16:20:40.504 (  16.940s) [        45967140]      event_instance.cc:204      1| EventInstance::PJRT_Event_OnReady
2026-04-23 16:20:40.504 (  16.940s) [        45967140]      event_instance.cc:149      1| EventInstance::PJRT_Event_Destroy
2026-04-23 16:20:40.504 (  16.940s) [        45967140]     device_instance.cc:90       1| DeviceInstance::PJRT_Device_DefaultMemory
2026-04-23 16:20:40.504 (  16.940s) [        45967140]     client_instance.cc:850      1| ClientInstance::PJRT_Client_BufferFromHostBuffer
2026-04-23 16:20:40.504 (  16.940s) [        45967140]     memory_instance.cc:60       1| MemoryInstance::getDevice
2026-04-23 16:20:40.504 (  16.940s) [        45967140]      event_instance.cc:204      1| EventInstance::PJRT_Event_OnReady
2026-04-23 16:20:40.504 (  16.940s) [        45967140]      event_instance.cc:149      1| EventInstance::PJRT_Event_Destroy
2026-04-23 16:20:40.504 (  16.940s) [        45967140]  device_description.cc:67       1| DeviceDescription::PJRT_DeviceDescription_Id
2026-04-23 16:20:40.504 (  16.940s) [        45967140]  device_description.cc:67       1| DeviceDescription::PJRT_DeviceDescription_Id
2026-04-23 16:20:40.504 (  16.940s) [        45967140]     device_instance.cc:90       1| DeviceInstance::PJRT_Device_DefaultMemory
2026-04-23 16:20:40.504 (  16.940s) [        45967140]     client_instance.cc:850      1| ClientInstance::PJRT_Client_BufferFromHostBuffer
2026-04-23 16:20:40.504 (  16.940s) [        45967140]     memory_instance.cc:60       1| MemoryInstance::getDevice
2026-04-23 16:20:40.504 (  16.940s) [        45967140]      event_instance.cc:204      1| EventInstance::PJRT_Event_OnReady
2026-04-23 16:20:40.504 (  16.940s) [        45967140]      event_instance.cc:149      1| EventInstance::PJRT_Event_Destroy
2026-04-23 16:20:40.504 (  16.940s) [        45967140]     device_instance.cc:90       1| DeviceInstance::PJRT_Device_DefaultMemory
2026-04-23 16:20:40.504 (  16.940s) [        45967140]     client_instance.cc:850      1| ClientInstance::PJRT_Client_BufferFromHostBuffer
2026-04-23 16:20:40.504 (  16.940s) [        45967140]     memory_instance.cc:60       1| MemoryInstance::getDevice
2026-04-23 16:20:40.504 (  16.940s) [        45967140]      event_instance.cc:204      1| EventInstance::PJRT_Event_OnReady
2026-04-23 16:20:40.504 (  16.940s) [        45967140]      event_instance.cc:149      1| EventInstance::PJRT_Event_Destroy
2026-04-23 16:20:40.504 (  16.941s) [        45967140]  device_description.cc:67       1| DeviceDescription::PJRT_DeviceDescription_Id
2026-04-23 16:20:40.505 (  16.941s) [        45967140]  device_description.cc:67       1| DeviceDescription::PJRT_DeviceDescription_Id
2026-04-23 16:20:40.510 (  16.947s) [        45967140]     device_instance.cc:90       1| DeviceInstance::PJRT_Device_DefaultMemory
2026-04-23 16:20:40.510 (  16.947s) [        45967140]     client_instance.cc:850      1| ClientInstance::PJRT_Client_BufferFromHostBuffer
2026-04-23 16:20:40.510 (  16.947s) [        45967140]     memory_instance.cc:60       1| MemoryInstance::getDevice
2026-04-23 16:20:40.510 (  16.947s) [        45967140]      event_instance.cc:204      1| EventInstance::PJRT_Event_OnReady
2026-04-23 16:20:40.510 (  16.947s) [        45967140]      event_instance.cc:149      1| EventInstance::PJRT_Event_Destroy
2026-04-23 16:20:40.510 (  16.947s) [        45967140]     device_instance.cc:90       1| DeviceInstance::PJRT_Device_DefaultMemory
2026-04-23 16:20:40.510 (  16.947s) [        45967140]     client_instance.cc:850      1| ClientInstance::PJRT_Client_BufferFromHostBuffer
2026-04-23 16:20:40.510 (  16.947s) [        45967140]     memory_instance.cc:60       1| MemoryInstance::getDevice
2026-04-23 16:20:40.510 (  16.947s) [        45967140]      event_instance.cc:204      1| EventInstance::PJRT_Event_OnReady
2026-04-23 16:20:40.510 (  16.947s) [        45967140]      event_instance.cc:149      1| EventInstance::PJRT_Event_Destroy
2026-04-23 16:20:40.511 (  16.947s) [        45967140]  device_description.cc:67       1| DeviceDescription::PJRT_DeviceDescription_Id
2026-04-23 16:20:40.511 (  16.947s) [        45967140]  device_description.cc:67       1| DeviceDescription::PJRT_DeviceDescription_Id
2026-04-23 16:20:40.511 (  16.947s) [        45967140]     device_instance.cc:90       1| DeviceInstance::PJRT_Device_DefaultMemory
2026-04-23 16:20:40.511 (  16.947s) [        45967140]     client_instance.cc:850      1| ClientInstance::PJRT_Client_BufferFromHostBuffer
2026-04-23 16:20:40.511 (  16.947s) [        45967140]     memory_instance.cc:60       1| MemoryInstance::getDevice
2026-04-23 16:20:40.511 (  16.947s) [        45967140]      event_instance.cc:204      1| EventInstance::PJRT_Event_OnReady
2026-04-23 16:20:40.511 (  16.947s) [        45967140]      event_instance.cc:149      1| EventInstance::PJRT_Event_Destroy
2026-04-23 16:20:40.511 (  16.947s) [        45967140]     device_instance.cc:90       1| DeviceInstance::PJRT_Device_DefaultMemory
2026-04-23 16:20:40.511 (  16.947s) [        45967140]     client_instance.cc:850      1| ClientInstance::PJRT_Client_BufferFromHostBuffer
2026-04-23 16:20:40.511 (  16.947s) [        45967140]     memory_instance.cc:60       1| MemoryInstance::getDevice
2026-04-23 16:20:40.511 (  16.947s) [        45967140]      event_instance.cc:204      1| EventInstance::PJRT_Event_OnReady
2026-04-23 16:20:40.511 (  16.947s) [        45967140]      event_instance.cc:149      1| EventInstance::PJRT_Event_Destroy
2026-04-23 16:20:40.511 (  16.947s) [        45967140]  device_description.cc:67       1| DeviceDescription::PJRT_DeviceDescription_Id
2026-04-23 16:20:40.511 (  16.947s) [        45967140]  device_description.cc:67       1| DeviceDescription::PJRT_DeviceDescription_Id
2026-04-23 16:20:40.511 (  16.947s) [        45967140]     device_instance.cc:90       1| DeviceInstance::PJRT_Device_DefaultMemory
2026-04-23 16:20:40.511 (  16.947s) [        45967140]     client_instance.cc:850      1| ClientInstance::PJRT_Client_BufferFromHostBuffer
2026-04-23 16:20:40.511 (  16.947s) [        45967140]     memory_instance.cc:60       1| MemoryInstance::getDevice
2026-04-23 16:20:40.511 (  16.947s) [        45967140]      event_instance.cc:204      1| EventInstance::PJRT_Event_OnReady
2026-04-23 16:20:40.511 (  16.947s) [        45967140]      event_instance.cc:149      1| EventInstance::PJRT_Event_Destroy
2026-04-23 16:20:40.511 (  16.947s) [        45967140]     device_instance.cc:90       1| DeviceInstance::PJRT_Device_DefaultMemory
2026-04-23 16:20:40.511 (  16.947s) [        45967140]     client_instance.cc:850      1| ClientInstance::PJRT_Client_BufferFromHostBuffer
2026-04-23 16:20:40.511 (  16.947s) [        45967140]     memory_instance.cc:60       1| MemoryInstance::getDevice
2026-04-23 16:20:40.511 (  16.947s) [        45967140]      event_instance.cc:204      1| EventInstance::PJRT_Event_OnReady
2026-04-23 16:20:40.511 (  16.947s) [        45967140]      event_instance.cc:149      1| EventInstance::PJRT_Event_Destroy
2026-04-23 16:20:40.511 (  16.947s) [        45967140]  device_description.cc:67       1| DeviceDescription::PJRT_DeviceDescription_Id
2026-04-23 16:20:40.511 (  16.947s) [        45967140]  device_description.cc:67       1| DeviceDescription::PJRT_DeviceDescription_Id
2026-04-23 16:20:40.522 (  16.959s) [        45967140]     device_instance.cc:90       1| DeviceInstance::PJRT_Device_DefaultMemory
2026-04-23 16:20:40.523 (  16.959s) [        45967140]     client_instance.cc:850      1| ClientInstance::PJRT_Client_BufferFromHostBuffer
2026-04-23 16:20:40.523 (  16.959s) [        45967140]     memory_instance.cc:60       1| MemoryInstance::getDevice
2026-04-23 16:20:40.523 (  16.959s) [        45967140]      event_instance.cc:204      1| EventInstance::PJRT_Event_OnReady
2026-04-23 16:20:40.523 (  16.959s) [        45967140]      event_instance.cc:149      1| EventInstance::PJRT_Event_Destroy
2026-04-23 16:20:40.523 (  16.959s) [        45967140]     device_instance.cc:90       1| DeviceInstance::PJRT_Device_DefaultMemory
2026-04-23 16:20:40.523 (  16.959s) [        45967140]     client_instance.cc:850      1| ClientInstance::PJRT_Client_BufferFromHostBuffer
2026-04-23 16:20:40.523 (  16.959s) [        45967140]     memory_instance.cc:60       1| MemoryInstance::getDevice
2026-04-23 16:20:40.523 (  16.959s) [        45967140]      event_instance.cc:204      1| EventInstance::PJRT_Event_OnReady
2026-04-23 16:20:40.523 (  16.959s) [        45967140]      event_instance.cc:149      1| EventInstance::PJRT_Event_Destroy
2026-04-23 16:20:40.523 (  16.959s) [        45967140]  device_description.cc:67       1| DeviceDescription::PJRT_DeviceDescription_Id
2026-04-23 16:20:40.523 (  16.959s) [        45967140]  device_description.cc:67       1| DeviceDescription::PJRT_DeviceDescription_Id
2026-04-23 16:20:40.523 (  16.959s) [        45967140]     device_instance.cc:90       1| DeviceInstance::PJRT_Device_DefaultMemory
2026-04-23 16:20:40.523 (  16.959s) [        45967140]     client_instance.cc:850      1| ClientInstance::PJRT_Client_BufferFromHostBuffer
2026-04-23 16:20:40.523 (  16.959s) [        45967140]     memory_instance.cc:60       1| MemoryInstance::getDevice
2026-04-23 16:20:40.523 (  16.959s) [        45967140]      event_instance.cc:204      1| EventInstance::PJRT_Event_OnReady
2026-04-23 16:20:40.523 (  16.959s) [        45967140]      event_instance.cc:149      1| EventInstance::PJRT_Event_Destroy
2026-04-23 16:20:40.523 (  16.959s) [        45967140]     device_instance.cc:90       1| DeviceInstance::PJRT_Device_DefaultMemory
2026-04-23 16:20:40.523 (  16.959s) [        45967140]     client_instance.cc:850      1| ClientInstance::PJRT_Client_BufferFromHostBuffer
2026-04-23 16:20:40.523 (  16.959s) [        45967140]     memory_instance.cc:60       1| MemoryInstance::getDevice
2026-04-23 16:20:40.523 (  16.960s) [        45967140]      event_instance.cc:204      1| EventInstance::PJRT_Event_OnReady
2026-04-23 16:20:40.523 (  16.960s) [        45967140]      event_instance.cc:149      1| EventInstance::PJRT_Event_Destroy
2026-04-23 16:20:40.524 (  16.960s) [        45967140]  device_description.cc:67       1| DeviceDescription::PJRT_DeviceDescription_Id
2026-04-23 16:20:40.524 (  16.960s) [        45967140]  device_description.cc:67       1| DeviceDescription::PJRT_DeviceDescription_Id
2026-04-23 16:20:40.524 (  16.960s) [        45967140]     device_instance.cc:90       1| DeviceInstance::PJRT_Device_DefaultMemory
2026-04-23 16:20:40.524 (  16.960s) [        45967140]     client_instance.cc:850      1| ClientInstance::PJRT_Client_BufferFromHostBuffer
2026-04-23 16:20:40.524 (  16.960s) [        45967140]     memory_instance.cc:60       1| MemoryInstance::getDevice
2026-04-23 16:20:40.524 (  16.960s) [        45967140]      event_instance.cc:204      1| EventInstance::PJRT_Event_OnReady
2026-04-23 16:20:40.524 (  16.960s) [        45967140]      event_instance.cc:149      1| EventInstance::PJRT_Event_Destroy
2026-04-23 16:20:40.524 (  16.960s) [        45967140]     device_instance.cc:90       1| DeviceInstance::PJRT_Device_DefaultMemory
2026-04-23 16:20:40.524 (  16.960s) [        45967140]     client_instance.cc:850      1| ClientInstance::PJRT_Client_BufferFromHostBuffer
2026-04-23 16:20:40.524 (  16.960s) [        45967140]     memory_instance.cc:60       1| MemoryInstance::getDevice
2026-04-23 16:20:40.524 (  16.960s) [        45967140]      event_instance.cc:204      1| EventInstance::PJRT_Event_OnReady
2026-04-23 16:20:40.524 (  16.960s) [        45967140]      event_instance.cc:149      1| EventInstance::PJRT_Event_Destroy
2026-04-23 16:20:40.524 (  16.960s) [        45967140]  device_description.cc:67       1| DeviceDescription::PJRT_DeviceDescription_Id
2026-04-23 16:20:40.524 (  16.960s) [        45967140]  device_description.cc:67       1| DeviceDescription::PJRT_DeviceDescription_Id
2026-04-23 16:20:40.524 (  16.960s) [        45967140]     device_instance.cc:90       1| DeviceInstance::PJRT_Device_DefaultMemory
2026-04-23 16:20:40.524 (  16.960s) [        45967140]     client_instance.cc:850      1| ClientInstance::PJRT_Client_BufferFromHostBuffer
2026-04-23 16:20:40.524 (  16.960s) [        45967140]     memory_instance.cc:60       1| MemoryInstance::getDevice
2026-04-23 16:20:40.524 (  16.960s) [        45967140]      event_instance.cc:204      1| EventInstance::PJRT_Event_OnReady
2026-04-23 16:20:40.524 (  16.960s) [        45967140]      event_instance.cc:149      1| EventInstance::PJRT_Event_Destroy
2026-04-23 16:20:40.524 (  16.960s) [        45967140]     device_instance.cc:90       1| DeviceInstance::PJRT_Device_DefaultMemory
2026-04-23 16:20:40.524 (  16.960s) [        45967140]     client_instance.cc:850      1| ClientInstance::PJRT_Client_BufferFromHostBuffer
2026-04-23 16:20:40.524 (  16.960s) [        45967140]     memory_instance.cc:60       1| MemoryInstance::getDevice
2026-04-23 16:20:40.524 (  16.960s) [        45967140]      event_instance.cc:204      1| EventInstance::PJRT_Event_OnReady
2026-04-23 16:20:40.524 (  16.960s) [        45967140]      event_instance.cc:149      1| EventInstance::PJRT_Event_Destroy
2026-04-23 16:20:40.524 (  16.960s) [        45967140]  device_description.cc:67       1| DeviceDescription::PJRT_DeviceDescription_Id
2026-04-23 16:20:40.524 (  16.961s) [        45967140]  device_description.cc:67       1| DeviceDescription::PJRT_DeviceDescription_Id
2026-04-23 16:20:40.537 (  16.973s) [        45967140]     device_instance.cc:90       1| DeviceInstance::PJRT_Device_DefaultMemory
2026-04-23 16:20:40.538 (  16.974s) [        45967140]     client_instance.cc:850      1| ClientInstance::PJRT_Client_BufferFromHostBuffer
2026-04-23 16:20:40.538 (  16.974s) [        45967140]     memory_instance.cc:60       1| MemoryInstance::getDevice
2026-04-23 16:20:40.538 (  16.974s) [        45967140]      event_instance.cc:204      1| EventInstance::PJRT_Event_OnReady
2026-04-23 16:20:40.538 (  16.974s) [        45967140]      event_instance.cc:149      1| EventInstance::PJRT_Event_Destroy
2026-04-23 16:20:40.538 (  16.974s) [        45967140]     device_instance.cc:90       1| DeviceInstance::PJRT_Device_DefaultMemory
2026-04-23 16:20:40.538 (  16.974s) [        45967140]     client_instance.cc:850      1| ClientInstance::PJRT_Client_BufferFromHostBuffer
2026-04-23 16:20:40.538 (  16.974s) [        45967140]     memory_instance.cc:60       1| MemoryInstance::getDevice
2026-04-23 16:20:40.538 (  16.974s) [        45967140]      event_instance.cc:204      1| EventInstance::PJRT_Event_OnReady
2026-04-23 16:20:40.538 (  16.974s) [        45967140]      event_instance.cc:149      1| EventInstance::PJRT_Event_Destroy
2026-04-23 16:20:40.538 (  16.974s) [        45967140]  device_description.cc:67       1| DeviceDescription::PJRT_DeviceDescription_Id
2026-04-23 16:20:40.538 (  16.974s) [        45967140]  device_description.cc:67       1| DeviceDescription::PJRT_DeviceDescription_Id
2026-04-23 16:20:40.538 (  16.974s) [        45967140]     device_instance.cc:90       1| DeviceInstance::PJRT_Device_DefaultMemory
2026-04-23 16:20:40.538 (  16.974s) [        45967140]     client_instance.cc:850      1| ClientInstance::PJRT_Client_BufferFromHostBuffer
2026-04-23 16:20:40.538 (  16.974s) [        45967140]     memory_instance.cc:60       1| MemoryInstance::getDevice
2026-04-23 16:20:40.538 (  16.974s) [        45967140]      event_instance.cc:204      1| EventInstance::PJRT_Event_OnReady
2026-04-23 16:20:40.538 (  16.974s) [        45967140]      event_instance.cc:149      1| EventInstance::PJRT_Event_Destroy
2026-04-23 16:20:40.538 (  16.974s) [        45967140]     device_instance.cc:90       1| DeviceInstance::PJRT_Device_DefaultMemory
2026-04-23 16:20:40.538 (  16.974s) [        45967140]     client_instance.cc:850      1| ClientInstance::PJRT_Client_BufferFromHostBuffer
2026-04-23 16:20:40.538 (  16.974s) [        45967140]     memory_instance.cc:60       1| MemoryInstance::getDevice
2026-04-23 16:20:40.538 (  16.974s) [        45967140]      event_instance.cc:204      1| EventInstance::PJRT_Event_OnReady
2026-04-23 16:20:40.538 (  16.975s) [        45967140]      event_instance.cc:149      1| EventInstance::PJRT_Event_Destroy
2026-04-23 16:20:40.538 (  16.975s) [        45967140]  device_description.cc:67       1| DeviceDescription::PJRT_DeviceDescription_Id
2026-04-23 16:20:40.538 (  16.975s) [        45967140]  device_description.cc:67       1| DeviceDescription::PJRT_DeviceDescription_Id
2026-04-23 16:20:40.538 (  16.975s) [        45967140]     device_instance.cc:90       1| DeviceInstance::PJRT_Device_DefaultMemory
2026-04-23 16:20:40.538 (  16.975s) [        45967140]     client_instance.cc:850      1| ClientInstance::PJRT_Client_BufferFromHostBuffer
2026-04-23 16:20:40.538 (  16.975s) [        45967140]     memory_instance.cc:60       1| MemoryInstance::getDevice
2026-04-23 16:20:40.538 (  16.975s) [        45967140]      event_instance.cc:204      1| EventInstance::PJRT_Event_OnReady
2026-04-23 16:20:40.538 (  16.975s) [        45967140]      event_instance.cc:149      1| EventInstance::PJRT_Event_Destroy
2026-04-23 16:20:40.538 (  16.975s) [        45967140]     device_instance.cc:90       1| DeviceInstance::PJRT_Device_DefaultMemory
2026-04-23 16:20:40.538 (  16.975s) [        45967140]     client_instance.cc:850      1| ClientInstance::PJRT_Client_BufferFromHostBuffer
2026-04-23 16:20:40.538 (  16.975s) [        45967140]     memory_instance.cc:60       1| MemoryInstance::getDevice
2026-04-23 16:20:40.538 (  16.975s) [        45967140]      event_instance.cc:204      1| EventInstance::PJRT_Event_OnReady
2026-04-23 16:20:40.538 (  16.975s) [        45967140]      event_instance.cc:149      1| EventInstance::PJRT_Event_Destroy
2026-04-23 16:20:40.539 (  16.975s) [        45967140]  device_description.cc:67       1| DeviceDescription::PJRT_DeviceDescription_Id
2026-04-23 16:20:40.539 (  16.975s) [        45967140]  device_description.cc:67       1| DeviceDescription::PJRT_DeviceDescription_Id
2026-04-23 16:20:40.558 (  16.995s) [        45967140]     device_instance.cc:90       1| DeviceInstance::PJRT_Device_DefaultMemory
2026-04-23 16:20:40.559 (  16.995s) [        45967140]     client_instance.cc:850      1| ClientInstance::PJRT_Client_BufferFromHostBuffer
2026-04-23 16:20:40.559 (  16.995s) [        45967140]     memory_instance.cc:60       1| MemoryInstance::getDevice
2026-04-23 16:20:40.559 (  16.995s) [        45967140]      event_instance.cc:204      1| EventInstance::PJRT_Event_OnReady
2026-04-23 16:20:40.559 (  16.995s) [        45967140]      event_instance.cc:149      1| EventInstance::PJRT_Event_Destroy
2026-04-23 16:20:40.559 (  16.995s) [        45967140]     device_instance.cc:90       1| DeviceInstance::PJRT_Device_DefaultMemory
2026-04-23 16:20:40.559 (  16.995s) [        45967140]     client_instance.cc:850      1| ClientInstance::PJRT_Client_BufferFromHostBuffer
2026-04-23 16:20:40.559 (  16.995s) [        45967140]     memory_instance.cc:60       1| MemoryInstance::getDevice
2026-04-23 16:20:40.559 (  16.995s) [        45967140]      event_instance.cc:204      1| EventInstance::PJRT_Event_OnReady
2026-04-23 16:20:40.559 (  16.995s) [        45967140]      event_instance.cc:149      1| EventInstance::PJRT_Event_Destroy
2026-04-23 16:20:40.559 (  16.996s) [        45967140]  device_description.cc:67       1| DeviceDescription::PJRT_DeviceDescription_Id
2026-04-23 16:20:40.559 (  16.996s) [        45967140]  device_description.cc:67       1| DeviceDescription::PJRT_DeviceDescription_Id
2026-04-23 16:20:40.559 (  16.996s) [        45967140]     device_instance.cc:90       1| DeviceInstance::PJRT_Device_DefaultMemory
2026-04-23 16:20:40.559 (  16.996s) [        45967140]     client_instance.cc:850      1| ClientInstance::PJRT_Client_BufferFromHostBuffer
2026-04-23 16:20:40.559 (  16.996s) [        45967140]     memory_instance.cc:60       1| MemoryInstance::getDevice
2026-04-23 16:20:40.559 (  16.996s) [        45967140]      event_instance.cc:204      1| EventInstance::PJRT_Event_OnReady
2026-04-23 16:20:40.559 (  16.996s) [        45967140]      event_instance.cc:149      1| EventInstance::PJRT_Event_Destroy
2026-04-23 16:20:40.559 (  16.996s) [        45967140]     device_instance.cc:90       1| DeviceInstance::PJRT_Device_DefaultMemory
2026-04-23 16:20:40.559 (  16.996s) [        45967140]     client_instance.cc:850      1| ClientInstance::PJRT_Client_BufferFromHostBuffer
2026-04-23 16:20:40.559 (  16.996s) [        45967140]     memory_instance.cc:60       1| MemoryInstance::getDevice
2026-04-23 16:20:40.559 (  16.996s) [        45967140]      event_instance.cc:204      1| EventInstance::PJRT_Event_OnReady
2026-04-23 16:20:40.559 (  16.996s) [        45967140]      event_instance.cc:149      1| EventInstance::PJRT_Event_Destroy
2026-04-23 16:20:40.560 (  16.996s) [        45967140]  device_description.cc:67       1| DeviceDescription::PJRT_DeviceDescription_Id
2026-04-23 16:20:40.560 (  16.996s) [        45967140]  device_description.cc:67       1| DeviceDescription::PJRT_DeviceDescription_Id
2026-04-23 16:20:40.560 (  16.996s) [        45967140]     device_instance.cc:90       1| DeviceInstance::PJRT_Device_DefaultMemory
2026-04-23 16:20:40.560 (  16.996s) [        45967140]     client_instance.cc:850      1| ClientInstance::PJRT_Client_BufferFromHostBuffer
2026-04-23 16:20:40.560 (  16.996s) [        45967140]     memory_instance.cc:60       1| MemoryInstance::getDevice
2026-04-23 16:20:40.560 (  16.996s) [        45967140]      event_instance.cc:204      1| EventInstance::PJRT_Event_OnReady
2026-04-23 16:20:40.560 (  16.996s) [        45967140]      event_instance.cc:149      1| EventInstance::PJRT_Event_Destroy
2026-04-23 16:20:40.560 (  16.996s) [        45967140]     device_instance.cc:90       1| DeviceInstance::PJRT_Device_DefaultMemory
2026-04-23 16:20:40.560 (  16.996s) [        45967140]     client_instance.cc:850      1| ClientInstance::PJRT_Client_BufferFromHostBuffer
2026-04-23 16:20:40.560 (  16.996s) [        45967140]     memory_instance.cc:60       1| MemoryInstance::getDevice
2026-04-23 16:20:40.560 (  16.996s) [        45967140]      event_instance.cc:204      1| EventInstance::PJRT_Event_OnReady
2026-04-23 16:20:40.560 (  16.996s) [        45967140]      event_instance.cc:149      1| EventInstance::PJRT_Event_Destroy
2026-04-23 16:20:40.560 (  16.996s) [        45967140]  device_description.cc:67       1| DeviceDescription::PJRT_DeviceDescription_Id
2026-04-23 16:20:40.560 (  16.996s) [        45967140]  device_description.cc:67       1| DeviceDescription::PJRT_DeviceDescription_Id
2026-04-23 16:20:40.560 (  16.996s) [        45967140]     device_instance.cc:90       1| DeviceInstance::PJRT_Device_DefaultMemory
2026-04-23 16:20:40.560 (  16.996s) [        45967140]     client_instance.cc:850      1| ClientInstance::PJRT_Client_BufferFromHostBuffer
2026-04-23 16:20:40.560 (  16.996s) [        45967140]     memory_instance.cc:60       1| MemoryInstance::getDevice
2026-04-23 16:20:40.560 (  16.996s) [        45967140]      event_instance.cc:204      1| EventInstance::PJRT_Event_OnReady
2026-04-23 16:20:40.560 (  16.996s) [        45967140]      event_instance.cc:149      1| EventInstance::PJRT_Event_Destroy
…
module @SyncTensorsGraph.19 attributes {mhlo.cross_program_prefetches = [], mhlo.input_output_alias = [], mhlo.is_dynamic = false, mhlo.use_auto_spmd_partitioning = false} {
  vhlo.func_v1 @main() -> (!vhlo.tensor_v1<!vhlo.f32_v1>, !vhlo.tensor_v1<4x8x18x128x!vhlo.bf16_v1>, !vhlo.tensor_v1<4x8x18x128x!vhlo.bf16_v1>, !vhlo.tensor_v1<4x18x151936x!vhlo.bf16_v1>) {
    %0 = sdy.constant dense<1.000000e+00> : tensor<f32> loc(#loc1)
    %1 = builtin.unrealized_conversion_cast %0 : tensor<f32> to !vhlo.tensor_v1<!vhlo.f32_v1> loc(#loc)
    %2 = sdy.constant dense<0.000000e+00> : tensor<bf16> loc(#loc)
    %3 = builtin.unrealized_conversion_cast %2 : tensor<bf16> to !vhlo.tensor_v1<!vhlo.bf16_v1> loc(#loc)
    %4 = "vhlo.broadcast_in_dim_v1"(%3) <{broadcast_dimensions = #vhlo.tensor_v1<dense<> : tensor<0xi64>>}> : (!vhlo.tensor_v1<!vhlo.bf16_v1>) -> !vhlo.tensor_v1<4x8x18x128x!vhlo.bf16_v1> loc(#loc)
    %5 = sdy.constant dense<0.000000e+00> : tensor<bf16> loc(#loc2)
    %6 = builtin.unrealized_conversion_cast %5 : tensor<bf16> to !vhlo.tensor_v1<!vhlo.bf16_v1> loc(#loc2)
    %7 = "vhlo.broadcast_in_dim_v1"(%6) <{broadcast_dimensions = #vhlo.tensor_v1<dense<> : tensor<0xi64>>}> : (!vhlo.tensor_v1<!vhlo.bf16_v1>) -> !vhlo.tensor_v1<4x18x151936x!vhlo.bf16_v1> loc(#loc2)
    "vhlo.return_v1"(%1, %4, %4, %7) : (!vhlo.tensor_v1<!vhlo.f32_v1>, !vhlo.tensor_v1<4x8x18x128x!vhlo.bf16_v1>, !vhlo.tensor_v1<4x8x18x128x!vhlo.bf16_v1>, !vhlo.tensor_v1<4x18x151936x!vhlo.bf16_v1>) -> () loc(#loc)
  } {arg_attrs = #vhlo.array_v1<[]>, res_attrs = #vhlo.array_v1<[]>, sym_visibility = #vhlo.string_v1<"">} loc(#loc)
} loc(#loc)
#loc = loc(unknown)
#loc1 = loc("constant.1")
#loc2 = loc("broadcast.17")
------------------ END OF MLIR MODULE ------------------
2026-04-23 16:20:46.246 (  22.683s) [        4F4F76C0]      module_builder.cc:1220     1| MLIR Module shlo:
module @SyncTensorsGraph.19 attributes {mhlo.cross_program_prefetches = [], mhlo.input_output_alias = [], mhlo.is_dynamic = false, mhlo.use_auto_spmd_partitioning = false} {
  func.func @main() -> (tensor<f32>, tensor<4x8x18x128xbf16>, tensor<4x8x18x128xbf16>, tensor<4x18x151936xbf16>) {
    %0 = sdy.constant dense<1.000000e+00> : tensor<f32> loc(#loc1)
    %1 = sdy.constant dense<0.000000e+00> : tensor<bf16> loc(#loc)
    %2 = stablehlo.broadcast_in_dim %1, dims = [] : (tensor<bf16>) -> tensor<4x8x18x128xbf16> loc(#loc)
    %3 = sdy.constant dense<0.000000e+00> : tensor<bf16> loc(#loc2)
    %4 = stablehlo.broadcast_in_dim %3, dims = [] : (tensor<bf16>) -> tensor<4x18x151936xbf16> loc(#loc2)
    return %0, %2, %2, %4 : tensor<f32>, tensor<4x8x18x128xbf16>, tensor<4x8x18x128xbf16>, tensor<4x18x151936xbf16> loc(#loc)
  } loc(#loc)
} loc(#loc)
#loc = loc(unknown)
#loc1 = loc("constant.1")
#loc2 = loc("broadcast.17")
------------------ END OF MLIR MODULE ------------------
2026-04-23 16:20:46.247 (  22.683s) [        4F4F76C0]      module_builder.cc:1220     1| MLIR Module shlo_frontend:
module @SyncTensorsGraph.19 attributes {mhlo.cross_program_prefetches = [], mhlo.input_output_alias = [], mhlo.is_dynamic = false, mhlo.use_auto_spmd_partitioning = false} {
  func.func @main() -> (tensor<f32>, tensor<4x8x18x128xbf16>, tensor<4x8x18x128xbf16>, tensor<4x18x151936xbf16>) {
    %0 = sdy.constant dense<1.000000e+00> : tensor<f32> loc(#loc1)
    %1 = sdy.constant dense<0.000000e+00> : tensor<bf16> loc(#loc)
    %2 = stablehlo.broadcast_in_dim %1, dims = [] : (tensor<bf16>) -> tensor<4x8x18x128xbf16> loc(#loc)
    %3 = sdy.constant dense<0.000000e+00> : tensor<bf16> loc(#loc2)
    %4 = stablehlo.broadcast_in_dim %3, dims = [] : (tensor<bf16>) -> tensor<4x18x151936xbf16> loc(#loc2)
    return %0, %2, %2, %4 : tensor<f32>, tensor<4x8x18x128xbf16>, tensor<4x8x18x128xbf16>, tensor<4x18x151936xbf16> loc(#loc)
  } loc(#loc)
} loc(#loc)
#loc = loc(unknown)
#loc1 = loc("constant.1")
#loc2 = loc("broadcast.17")
------------------ END OF MLIR MODULE ------------------
2026-04-23 16:20:46.250 (  22.687s) [        4F4F76C0]      module_builder.cc:1220     1| MLIR Module shlo_compiler:
module @SyncTensorsGraph.19 attributes {mhlo.cross_program_prefetches = [], mhlo.input_output_alias = [], mhlo.is_dynamic = false, mhlo.use_auto_spmd_partitioning = false} {
  sdy.mesh @mesh = <["x"=1, "y"=1]> loc(#loc)
  func.func @main() -> (tensor<f32> {ttcore.local_shape = #ttcore<local_shape local_shape = tensor<f32>>, ttcore.shard_status = #ttcore.shard_status<presharded>}, tensor<4x8x18x128xbf16> {ttcore.local_shape = #ttcore<local_shape local_shape = tensor<4x8x18x128xbf16>>, ttcore.shard_status = #ttcore.shard_status<presharded>}, tensor<4x8x18x128xbf16> {ttcore.local_shape = #ttcore<local_shape local_shape = tensor<4x8x18x128xbf16>>, ttcore.shard_status = #ttcore.shard_status<presharded>}, tensor<4x18x151936xbf16> {ttcore.local_shape = #ttcore<local_shape local_shape = tensor<4x18x151936xbf16>>, ttcore.shard_status = #ttcore.shard_status<presharded>}) {
    %cst = stablehlo.constant dense<1.000000e+00> : tensor<f32> loc(#loc1)
    %cst_0 = stablehlo.constant dense<0.000000e+00> : tensor<bf16> loc(#loc)
    %0 = stablehlo.broadcast_in_dim %cst_0, dims = [] : (tensor<bf16>) -> tensor<4x8x18x128xbf16> loc(#loc)
    %1 = stablehlo.broadcast_in_dim %cst_0, dims = [] : (tensor<bf16>) -> tensor<4x18x151936xbf16> loc(#loc2)
    return %cst, %0, %0, %1 : tensor<f32>, tensor<4x8x18x128xbf16>, tensor<4x8x18x128xbf16>, tensor<4x18x151936xbf16> loc(#loc)
  } loc(#loc)
} loc(#loc)
#loc = loc(unknown)
#loc1 = loc("constant.1")
#loc2 = loc("broadcast.17")
------------------ END OF MLIR MODULE ------------------
2026-04-23 16:20:46.251 (  22.687s) [        4F4F76C0]      module_builder.cc:1220     1| MLIR Module shlo_set_mesh_attr:
module @SyncTensorsGraph.19 attributes {mhlo.cross_program_prefetches = [], mhlo.input_output_alias = [], mhlo.is_dynamic = false, mhlo.use_auto_spmd_partitioning = false} {
  sdy.mesh @mesh = <["x"=1, "y"=1]> loc(#loc)
  func.func @main() -> (tensor<f32> {ttcore.local_shape = #ttcore<local_shape local_shape = tensor<f32>>, ttcore.shard_status = #ttcore.shard_status<presharded>}, tensor<4x8x18x128xbf16> {ttcore.local_shape = #ttcore<local_shape local_shape = tensor<4x8x18x128xbf16>>, ttcore.shard_status = #ttcore.shard_status<presharded>}, tensor<4x8x18x128xbf16> {ttcore.local_shape = #ttcore<local_shape local_shape = tensor<4x8x18x128xbf16>>, ttcore.shard_status = #ttcore.shard_status<presharded>}, tensor<4x18x151936xbf16> {ttcore.local_shape = #ttcore<local_shape local_shape = tensor<4x18x151936xbf16>>, ttcore.shard_status = #ttcore.shard_status<presharded>}) {
    %cst = stablehlo.constant dense<1.000000e+00> : tensor<f32> loc(#loc1)
    %cst_0 = stablehlo.constant dense<0.000000e+00> : tensor<bf16> loc(#loc)
    %0 = stablehlo.broadcast_in_dim %cst_0, dims = [] : (tensor<bf16>) -> tensor<4x8x18x128xbf16> loc(#loc)
    %1 = stablehlo.broadcast_in_dim %cst_0, dims = [] : (tensor<bf16>) -> tensor<4x18x151936xbf16> loc(#loc2)
    return %cst, %0, %0, %1 : tensor<f32>, tensor<4x8x18x128xbf16>, tensor<4x8x18x128xbf16>, tensor<4x18x151936xbf16> loc(#loc)
  } loc(#loc)
} loc(#loc)
#loc = loc(unknown)
#loc1 = loc("constant.1")
#loc2 = loc("broadcast.17")
------------------ END OF MLIR MODULE ------------------
2026-04-23 16:20:46.252 (  22.688s) [        4F4F76C0]      module_builder.cc:329      1| SHLO compiler pipeline run completed - is using shardy output shardings: 0
2026-04-23 16:20:46.252 (  22.688s) [        4F4F76C0]      module_builder.cc:1220     1| MLIR Module shlo_compiler_cleaned:
module @SyncTensorsGraph.19 attributes {mhlo.cross_program_prefetches = [], mhlo.input_output_alias = [], mhlo.is_dynamic = false, mhlo.use_auto_spmd_partitioning = false} {
  func.func @main() -> (tensor<f32>, tensor<4x8x18x128xbf16>, tensor<4x8x18x128xbf16>, tensor<4x18x151936xbf16>) {
    %cst = stablehlo.constant dense<1.000000e+00> : tensor<f32> loc(#loc)
    %cst_0 = stablehlo.constant dense<0.000000e+00> : tensor<bf16> loc(#loc)
    %0 = stablehlo.broadcast_in_dim %cst_0, dims = [] : (tensor<bf16>) -> tensor<4x8x18x128xbf16> loc(#loc)
    %1 = stablehlo.broadcast_in_dim %cst_0, dims = [] : (tensor<bf16>) -> tensor<4x18x151936xbf16> loc(#loc)
    return %cst, %0, %0, %1 : tensor<f32>, tensor<4x8x18x128xbf16>, tensor<4x8x18x128xbf16>, tensor<4x18x151936xbf16> loc(#loc)
  } loc(#loc)
} loc(#loc)
#loc = loc(unknown)
------------------ END OF MLIR MODULE ------------------
2026-04-23 16:20:46.254 (  22.690s) [        4F4F76C0]      module_builder.cc:1220     1| MLIR Module ttir:
module @SyncTensorsGraph.19 attributes {mhlo.cross_program_prefetches = [], mhlo.input_output_alias = [], mhlo.is_dynamic = false, mhlo.use_auto_spmd_partitioning = false, ttcore.meshes = #ttcore.meshes<[<"mesh" = 1x1>]>} {
  ttcore.device_module {
    builtin.module @SyncTensorsGraph.19 attributes {mhlo.cross_program_prefetches = [], mhlo.input_output_alias = [], mhlo.is_dynamic = false, mhlo.use_auto_spmd_partitioning = false, ttcore.meshes = #ttcore.meshes<[<"mesh" = 1x1>]>} {
      func.func @main() -> (tensor<f32> {ttcore.local_shape = #ttcore<local_shape local_shape = tensor<f32>>, ttcore.shard_status = #ttcore.shard_status<presharded>}, tensor<4x8x18x128xbf16> {ttcore.local_shape = #ttcore<local_shape local_shape = tensor<4x8x18x128xbf16>>, ttcore.shard_status = #ttcore.shard_status<presharded>}, tensor<4x8x18x128xbf16> {ttcore.local_shape = #ttcore<local_shape local_shape = tensor<4x8x18x128xbf16>>, ttcore.shard_status = #ttcore.shard_status<presharded>}, tensor<4x18x151936xbf16> {ttcore.local_shape = #ttcore<local_shape local_shape = tensor<4x18x151936xbf16>>, ttcore.shard_status = #ttcore.shard_status<presharded>}) {
        %0 = "ttir.constant"() <{value = dense<1.000000e+00> : tensor<f32>}> : () -> tensor<f32> loc(#loc1)
        %1 = "ttir.constant"() <{value = dense<0.000000e+00> : tensor<bf16>}> : () -> tensor<bf16> loc(#loc)
        %2 = "ttir.reshape"(%1) <{shape = [1 : i32, 1 : i32, 1 : i32, 1 : i32]}> : (tensor<bf16>) -> tensor<1x1x1x1xbf16> loc(#loc)
        %3 = "ttir.broadcast"(%2) <{broadcast_dimensions = array<i64: 4, 8, 18, 128>}> : (tensor<1x1x1x1xbf16>) -> tensor<4x8x18x128xbf16> loc(#loc)
        %4 = "ttir.reshape"(%1) <{shape = [1 : i32, 1 : i32, 1 : i32]}> : (tensor<bf16>) -> tensor<1x1x1xbf16> loc(#loc2)
        %5 = "ttir.broadcast"(%4) <{broadcast_dimensions = array<i64: 4, 18, 151936>}> : (tensor<1x1x1xbf16>) -> tensor<4x18x151936xbf16> loc(#loc2)
        return %0, %3, %3, %5 : tensor<f32>, tensor<4x8x18x128xbf16>, tensor<4x8x18x128xbf16>, tensor<4x18x151936xbf16> loc(#loc)
      } loc(#loc)
    } loc(#loc)
  } loc(#loc)
} loc(#loc)
#loc = loc(unknown)
#loc1 = loc("constant.1")
#loc2 = loc("broadcast.17")
------------------ END OF MLIR MODULE ------------------
2026-04-23 16:20:46.255 (  22.691s) [        4F4F76C0]      module_builder.cc:936   WARN| `mhlo.num_partitions` attribute not found, assuming default number of partitions: 1
2026-04-23 16:20:46.255 (  22.691s) [        4F4F76C0]      module_builder.cc:950   WARN| `mhlo.num_replicas` attribute not found, assuming default number of replicas: 1
2026-04-23 16:20:46.255 (  22.691s) [        4F4F76C0]      module_builder.cc:960   WARN| Num replicas and num partitions are not set, inferring the number of devices from mesh shape
2026-04-23 16:20:46.282 (  22.718s) [        4F4F76C0]      module_builder.cc:1220     1| MLIR Module ttnn:
#dram = #ttnn.buffer_type<dram>
#loc = loc(unknown)
#loc2 = loc("broadcast.17")
#system_desc = #ttcore.system_desc<[{role = host, target_triple = "x86_64-pc-linux"}], [{arch = <wormhole_b0>, grid = 8x8, coord_translation_offsets = 18x18, l1_size = 1499136, num_dram_channels = 12, dram_channel_size = 1073741824, noc_l1_address_align_bytes = 16, pcie_address_align_bytes = 32, noc_dram_address_align_bytes = 32, l1_unreserved_base = 103712, erisc_l1_unreserved_base = 98304, dram_unreserved_base = 1920032, dram_unreserved_end = 1073162752, supported_data_types = [<f32>, <f16>, <bf16>, <bfp_f8>, <bfp_bf8>, <bfp_f4>, <bfp_bf4>, <bfp_f2>, <bfp_bf2>, <u32>, <u16>, <u8>, <si32>], supported_tile_sizes = [ 4x16,  16x16,  32x16,  4x32,  16x32,  32x32], dst_physical_size_tiles = 16, num_cbs = 64, num_compute_threads = 1, num_datamovement_threads = 2}, {arch = <wormhole_b0>, grid = 8x8, coord_translation_offsets = 18x18, l1_size = 1499136, num_dram_channels = 12, dram_channel_size = 1073741824, noc_l1_address_align_bytes = 16, pcie_address_align_bytes = 32, noc_dram_address_align_bytes = 32, l1_unreserved_base = 103712, erisc_l1_unreserved_base = 98304, dram_unreserved_base = 1920032, dram_unreserved_end = 1073171392, supported_data_types = [<f32>, <f16>, <bf16>, <bfp_f8>, <bfp_bf8>, <bfp_f4>, <bfp_bf4>, <bfp_f2>, <bfp_bf2>, <u32>, <u16>, <u8>, <si32>], supported_tile_sizes = [ 4x16,  16x16,  32x16,  4x32,  16x32,  32x32], dst_physical_size_tiles = 16, num_cbs = 64, num_compute_threads = 1, num_datamovement_threads = 2}], [0, 1], [1 : i32, 0 : i32], [ 0x0x0x0], [<[0, 9, 0], [1, 1, 0]>]>
#system_memory = #ttnn.buffer_type<system_memory>
#ttnn_layout = #ttnn.ttnn_layout<() -> (0, 0), <1x1>, memref<1x1x!ttcore.tile<32x32, f32>, #dram>, <interleaved>>
#ttnn_layout1 = #ttnn.ttnn_layout<(d0, d1, d2, d3) -> (d0 * 256 + d1 * 32 + d2, d3), <1x1>, memref<32x4x!ttcore.tile<32x32, bf16>, #dram>, <interleaved>>
#ttnn_layout2 = #ttnn.ttnn_layout<(d0, d1, d2) -> (d0 * 32 + d1, d2), <1x1>, memref<4x4748x!ttcore.tile<32x32, bf16>, #dram>, <interleaved>>
#ttnn_layout3 = #ttnn.ttnn_layout<(d0, d1, d2, d3) -> (d0 * 144 + d1 * 18 + d2, d3), <1x1>, memref<576x128xf32, #system_memory>>
#ttnn_layout4 = #ttnn.ttnn_layout<(d0, d1, d2) -> (d0 * 18 + d1, d2), <1x1>, memref<72x151936xf32, #system_memory>>
#ttnn_layout5 = #ttnn.ttnn_layout<(d0, d1, d2, d3) -> (d0 * 144 + d1 * 18 + d2, d3), <1x1>, memref<576x128xbf16, #system_memory>>
#ttnn_layout6 = #ttnn.ttnn_layout<(d0, d1, d2, d3) -> (d0 * 256 + d1 * 32 + d2, d3), <1x1>, memref<32x4x!ttcore.tile<32x32, bf16>, #system_memory>>
#ttnn_layout7 = #ttnn.ttnn_layout<(d0, d1, d2) -> (d0 * 18 + d1, d2), <1x1>, memref<72x151936xbf16, #system_memory>>
#ttnn_layout8 = #ttnn.ttnn_layout<(d0, d1, d2) -> (d0 * 32 + d1, d2), <1x1>, memref<4x4748x!ttcore.tile<32x32, bf16>, #system_memory>>
module @SyncTensorsGraph.19 attributes {mhlo.cross_program_prefetches = [], mhlo.input_output_alias = [], mhlo.is_dynamic = false, mhlo.use_auto_spmd_partitioning = false, ttcore.meshes = #ttcore.meshes<[<"mesh" = 1x1>]>} {
  ttcore.device_module {
    builtin.module @SyncTensorsGraph.19 attributes {mhlo.cross_program_prefetches = [], mhlo.input_output_alias = [], mhlo.is_dynamic = false, mhlo.use_auto_spmd_partitioning = false, ttcore.meshes = #ttcore.meshes<[<"mesh" = 1x1>]>, ttcore.system_desc = #system_desc} {
      ttcore.device @default_device = <workerGrid = #ttcore.grid<8x8, virt_to_physical_map = (d0, d1) -> (0, d0, d1), physical_to_virt_map = (d0, d1, d2) -> (d1, d2)>, l1Map = (d0, d1, d2)[s0] -> (0, d0, d1, d2 + s0), dramMap = (d0, d1, d2)[s0, s1, s2, s3, s4, s5, s6] -> (0, 0, (((d0 * s1) * (s2 * (s3 * s6)) + d1 * (s2 * (s3 * s6)) + d2) floordiv s4) mod 12, ((((d0 * s1) * (s2 * (s3 * s6)) + d1 * (s2 * (s3 * s6)) + d2) floordiv s4) floordiv 12) * s4 + ((d0 * s1) * (s2 * (s3 * s6)) + d1 * (s2 * (s3 * s6)) + d2) mod s4 + s5), meshShape = 1x1, chipIds = [0]> loc(#loc)
      func.func private @main_const_eval_0() -> tensor<f32, #ttnn_layout> attributes {tt.function_type = "const_eval"} {
        %0 = "ttnn.get_device"() <{mesh_offset = #ttnn<mesh_offset 0x0>, mesh_shape = #ttnn<mesh_shape 1x1>}> : () -> !ttnn.device loc(#loc1)
        %1 = "ttnn.full"(%0) <{dtype = #ttcore.supportedDataTypes<f32>, fill_value = 1.000000e+00 : f32, layout = #ttnn.layout<tile>, shape = #ttnn.shape<>}> : (!ttnn.device) -> tensor<f32, #ttnn_layout> loc(#loc1)
        return %1 : tensor<f32, #ttnn_layout> loc(#loc)
      } loc(#loc)
      func.func private @main_const_eval_1() -> (tensor<4x8x18x128xbf16, #ttnn_layout1>, tensor<4x18x151936xbf16, #ttnn_layout2>) attributes {tt.function_type = "const_eval"} {
        %0 = "ttnn.get_device"() <{mesh_offset = #ttnn<mesh_offset 0x0>, mesh_shape = #ttnn<mesh_shape 1x1>}> : () -> !ttnn.device loc(#loc)
        %1:2 = call @cpu_hoisted_const_eval_7834e56c() {ttir.cpu_hoist_call} : () -> (tensor<4x8x18x128xf32, #ttnn_layout3>, tensor<4x18x151936xf32, #ttnn_layout4>) loc(#loc)
        %2 = "ttnn.typecast"(%1#0) <{dtype = #ttcore.supportedDataTypes<bf16>}> : (tensor<4x8x18x128xf32, #ttnn_layout3>) -> tensor<4x8x18x128xbf16, #ttnn_layout5> loc(#loc)
        "ttnn.deallocate"(%1#0) <{force = false}> : (tensor<4x8x18x128xf32, #ttnn_layout3>) -> () loc(#loc)
        %3 = "ttnn.to_layout"(%2) <{layout = #ttnn.layout<tile>}> : (tensor<4x8x18x128xbf16, #ttnn_layout5>) -> tensor<4x8x18x128xbf16, #ttnn_layout6> loc(#loc)
        "ttnn.deallocate"(%2) <{force = false}> : (tensor<4x8x18x128xbf16, #ttnn_layout5>) -> () loc(#loc)
        %4 = "ttnn.to_device"(%3, %0) <{memory_config = #ttnn.memory_config<#dram, <interleaved>>}> : (tensor<4x8x18x128xbf16, #ttnn_layout6>, !ttnn.device) -> tensor<4x8x18x128xbf16, #ttnn_layout1> loc(#loc)
        "ttnn.deallocate"(%3) <{force = false}> : (tensor<4x8x18x128xbf16, #ttnn_layout6>) -> () loc(#loc)
        %5 = "ttnn.typecast"(%1#1) <{dtype = #ttcore.supportedDataTypes<bf16>}> : (tensor<4x18x151936xf32, #ttnn_layout4>) -> tensor<4x18x151936xbf16, #ttnn_layout7> loc(#loc)
        "ttnn.deallocate"(%1#1) <{force = false}> : (tensor<4x18x151936xf32, #ttnn_layout4>) -> () loc(#loc)
        %6 = "ttnn.to_layout"(%5) <{layout = #ttnn.layout<tile>}> : (tensor<4x18x151936xbf16, #ttnn_layout7>) -> tensor<4x18x151936xbf16, #ttnn_layout8> loc(#loc)
        "ttnn.deallocate"(%5) <{force = false}> : (tensor<4x18x151936xbf16, #ttnn_layout7>) -> () loc(#loc)
        %7 = "ttnn.to_device"(%6, %0) <{memory_config = #ttnn.memory_config<#dram, <interleaved>>}> : (tensor<4x18x151936xbf16, #ttnn_layout8>, !ttnn.device) -> tensor<4x18x151936xbf16, #ttnn_layout2> loc(#loc)
        "ttnn.deallocate"(%6) <{force = false}> : (tensor<4x18x151936xbf16, #ttnn_layout8>) -> () loc(#loc)
        return %4, %7 : tensor<4x8x18x128xbf16, #ttnn_layout1>, tensor<4x18x151936xbf16, #ttnn_layout2> loc(#loc)
      } loc(#loc)
      func.func @main() -> (tensor<f32, #ttnn_layout> {ttcore.local_shape = #ttcore<local_shape local_shape = tensor<f32>>, ttcore.shard_status = #ttcore.shard_status<presharded>}, tensor<4x8x18x128xbf16, #ttnn_layout1> {ttcore.local_shape = #ttcore<local_shape local_shape = tensor<4x8x18x128xbf16>>, ttcore.shard_status = #ttcore.shard_status<presharded>}, tensor<4x8x18x128xbf16, #ttnn_layout1> {ttcore.local_shape = #ttcore<local_shape local_shape = tensor<4x8x18x128xbf16>>, ttcore.shard_status = #ttcore.shard_status<presharded>}, tensor<4x18x151936xbf16, #ttnn_layout2> {ttcore.local_shape = #ttcore<local_shape local_shape = tensor<4x18x151936xbf16>>, ttcore.shard_status = #ttcore.shard_status<presharded>}) attributes {tt.function_type = "forward_device"} {
        %0 = ttcore.load_cached(@main_const_eval_0, []) : () -> tensor<f32, #ttnn_layout> loc(#loc)
        %1:2 = ttcore.load_cached(@main_const_eval_1, []) : () -> (tensor<4x8x18x128xbf16, #ttnn_layout1>, tensor<4x18x151936xbf16, #ttnn_layout2>) loc(#loc)
        return %0, %1#0, %1#0, %1#1 : tensor<f32, #ttnn_layout>, tensor<4x8x18x128xbf16, #ttnn_layout1>, tensor<4x8x18x128xbf16, #ttnn_layout1>, tensor<4x18x151936xbf16, #ttnn_layout2> loc(#loc)
      } loc(#loc)
      func.func private @cpu_hoisted_const_eval_7834e56c() -> (tensor<4x8x18x128xf32, #ttnn_layout3>, tensor<4x18x151936xf32, #ttnn_layout4>) attributes {func_hash = "7834e56c62f4ad6a8e655f8fc77524be1bd41c8c884f598af5e45bd3f754e7b1", tt.function_type = "forward_cpu_declaration"} loc(#loc)
    } loc(#loc)
  } loc(#loc)
  ttcore.cpu_module {
    builtin.module {
      llvm.func @malloc(i64) -> !llvm.ptr loc(#loc)
      llvm.mlir.global private constant @__constant_xf32(0.000000e+00 : f32) {addr_space = 0 : i32, alignment = 64 : i64} : f32 loc(#loc)
      llvm.func @cpu_hoisted_const_eval_7834e56c() -> !llvm.struct<(struct<(ptr, ptr, i64, array<4 x i64>, array<4 x i64>)>, struct<(ptr, ptr, i64, array<3 x i64>, array<3 x i64>)>)> attributes {arg_ranks = [], func_hash = "7834e56c62f4ad6a8e655f8fc77524be1bd41c8c884f598af5e45bd3f754e7b1", result_ranks = [4, 3], tt.function_type = "forward_cpu"} {
        %0 = llvm.mlir.zero : !llvm.ptr loc(#loc)
        %1 = llvm.mlir.addressof @__constant_xf32 : !llvm.ptr loc(#loc)
        %2 = llvm.mlir.poison : !llvm.struct<(ptr, ptr, i64, array<4 x i64>, array<4 x i64>)> loc(#loc)
        %3 = llvm.mlir.poison : !llvm.struct<(ptr, ptr, i64, array<3 x i64>, array<3 x i64>)> loc(#loc)
        %4 = llvm.mlir.poison : !llvm.struct<(struct<(ptr, ptr, i64, array<4 x i64>, array<4 x i64>)>, struct<(ptr, ptr, i64, array<3 x i64>, array<3 x i64>)>)> loc(#loc)
        %5 = llvm.mlir.constant(2734848 : index) : i64 loc(#loc)
        %6 = llvm.mlir.constant(64 : index) : i64 loc(#loc)
        %7 = llvm.mlir.constant(18432 : index) : i64 loc(#loc)
        %8 = llvm.mlir.constant(2304 : index) : i64 loc(#loc)
        %9 = llvm.mlir.constant(151936 : index) : i64 loc(#loc)
        %10 = llvm.mlir.constant(128 : index) : i64 loc(#loc)
        %11 = llvm.mlir.constant(18 : index) : i64 loc(#loc)
        %12 = llvm.mlir.constant(8 : index) : i64 loc(#loc)
        %13 = llvm.mlir.constant(1 : index) : i64 loc(#loc)
        %14 = llvm.mlir.constant(4 : index) : i64 loc(#loc)
        %15 = llvm.mlir.constant(0 : index) : i64 loc(#loc)
        %16 = llvm.getelementptr %0[73728] : (!llvm.ptr) -> !llvm.ptr, f32 loc(#loc)
        %17 = llvm.ptrtoint %16 : !llvm.ptr to i64 loc(#loc)
        %18 = llvm.add %17, %6 : i64 loc(#loc)
        %19 = llvm.call @malloc(%18) : (i64) -> !llvm.ptr loc(#loc)
        %20 = llvm.ptrtoint %19 : !llvm.ptr to i64 loc(#loc)
        %21 = llvm.sub %6, %13 : i64 loc(#loc2)
        %22 = llvm.add %20, %21 : i64 loc(#loc)
        %23 = llvm.urem %22, %6 : i64 loc(#loc)
        %24 = llvm.sub %22, %23 : i64 loc(#loc)
        %25 = llvm.inttoptr %24 : i64 to !llvm.ptr loc(#loc)
        %26 = llvm.insertvalue %19, %2[0] : !llvm.struct<(ptr, ptr, i64, array<4 x i64>, array<4 x i64>)>  loc(#loc)
        %27 = llvm.insertvalue %25, %26[1] : !llvm.struct<(ptr, ptr, i64, array<4 x i64>, array<4 x i64>)>  loc(#loc)
        %28 = llvm.insertvalue %15, %27[2] : !llvm.struct<(ptr, ptr, i64, array<4 x i64>, array<4 x i64>)>  loc(#loc)
        %29 = llvm.insertvalue %14, %28[3, 0] : !llvm.struct<(ptr, ptr, i64, array<4 x i64>, array<4 x i64>)>  loc(#loc)
        %30 = llvm.insertvalue %12, %29[3, 1] : !llvm.struct<(ptr, ptr, i64, array<4 x i64>, array<4 x i64>)>  loc(#loc)
        %31 = llvm.insertvalue %11, %30[3, 2] : !llvm.struct<(ptr, ptr, i64, array<4 x i64>, array<4 x i64>)>  loc(#loc)
        %32 = llvm.insertvalue %10, %31[3, 3] : !llvm.struct<(ptr, ptr, i64, array<4 x i64>, array<4 x i64>)>  loc(#loc)
        %33 = llvm.insertvalue %7, %32[4, 0] : !llvm.struct<(ptr, ptr, i64, array<4 x i64>, array<4 x i64>)>  loc(#loc)
        %34 = llvm.insertvalue %8, %33[4, 1] : !llvm.struct<(ptr, ptr, i64, array<4 x i64>, array<4 x i64>)>  loc(#loc)
        %35 = llvm.insertvalue %10, %34[4, 2] : !llvm.struct<(ptr, ptr, i64, array<4 x i64>, array<4 x i64>)>  loc(#loc)
        %36 = llvm.insertvalue %13, %35[4, 3] : !llvm.struct<(ptr, ptr, i64, array<4 x i64>, array<4 x i64>)>  loc(#loc)
        llvm.br ^bb1(%15 : i64) loc(#loc)
      ^bb1(%37: i64 loc(unknown)):  // 2 preds: ^bb0, ^bb11
        %38 = llvm.icmp "slt" %37, %14 : i64 loc(#loc)
        llvm.cond_br %38, ^bb2, ^bb12 loc(#loc)
      ^bb2:  // pred: ^bb1
        llvm.br ^bb3(%15 : i64) loc(#loc)
      ^bb3(%39: i64 loc(unknown)):  // 2 preds: ^bb2, ^bb10
        %40 = llvm.icmp "slt" %39, %12 : i64 loc(#loc)
        llvm.cond_br %40, ^bb4, ^bb11 loc(#loc)
      ^bb4:  // pred: ^bb3
        llvm.br ^bb5(%15 : i64) loc(#loc)
      ^bb5(%41: i64 loc(unknown)):  // 2 preds: ^bb4, ^bb9
        %42 = llvm.icmp "slt" %41, %11 : i64 loc(#loc)
        llvm.cond_br %42, ^bb6, ^bb10 loc(#loc)
      ^bb6:  // pred: ^bb5
        llvm.br ^bb7(%15 : i64) loc(#loc)
      ^bb7(%43: i64 loc(unknown)):  // 2 preds: ^bb6, ^bb8
        %44 = llvm.icmp "slt" %43, %10 : i64 loc(#loc)
        llvm.cond_br %44, ^bb8, ^bb9 loc(#loc)
      ^bb8:  // pred: ^bb7
        %45 = llvm.load %1 : !llvm.ptr -> f32 loc(#loc)
        %46 = llvm.mul %37, %7 overflow<nsw, nuw> : i64 loc(#loc)
        %47 = llvm.mul %39, %8 overflow<nsw, nuw> : i64 loc(#loc)
        %48 = llvm.add %46, %47 overflow<nsw, nuw> : i64 loc(#loc)
        %49 = llvm.mul %41, %10 overflow<nsw, nuw> : i64 loc(#loc)
        %50 = llvm.add %48, %49 overflow<nsw, nuw> : i64 loc(#loc)
        %51 = llvm.add %50, %43 overflow<nsw, nuw> : i64 loc(#loc)
        %52 = llvm.getelementptr inbounds|nuw %25[%51] : (!llvm.ptr, i64) -> !llvm.ptr, f32 loc(#loc)
        llvm.store %45, %52 : f32, !llvm.ptr loc(#loc)
        %53 = llvm.add %43, %13 : i64 loc(#loc)
        llvm.br ^bb7(%53 : i64) loc(#loc)
      ^bb9:  // pred: ^bb7
        %54 = llvm.add %41, %13 : i64 loc(#loc)
        llvm.br ^bb5(%54 : i64) loc(#loc)
      ^bb10:  // pred: ^bb5
        %55 = llvm.add %39, %13 : i64 loc(#loc)
        llvm.br ^bb3(%55 : i64) loc(#loc)
      ^bb11:  // pred: ^bb3
        %56 = llvm.add %37, %13 : i64 loc(#loc)
        llvm.br ^bb1(%56 : i64) loc(#loc)
      ^bb12:  // pred: ^bb1
        %57 = llvm.getelementptr %0[10939392] : (!llvm.ptr) -> !llvm.ptr, f32 loc(#loc2)
        %58 = llvm.ptrtoint %57 : !llvm.ptr to i64 loc(#loc2)
        %59 = llvm.add %58, %6 : i64 loc(#loc2)
        %60 = llvm.call @malloc(%59) : (i64) -> !llvm.ptr loc(#loc2)
        %61 = llvm.ptrtoint %60 : !llvm.ptr to i64 loc(#loc2)
        %62 = llvm.add %61, %21 : i64 loc(#loc2)
        %63 = llvm.urem %62, %6 : i64 loc(#loc2)
        %64 = llvm.sub %62, %63 : i64 loc(#loc2)
        %65 = llvm.inttoptr %64 : i64 to !llvm.ptr loc(#loc2)
        %66 = llvm.insertvalue %60, %3[0] : !llvm.struct<(ptr, ptr, i64, array<3 x i64>, array<3 x i64>)>  loc(#loc2)
        %67 = llvm.insertvalue %65, %66[1] : !llvm.struct<(ptr, ptr, i64, array<3 x i64>, array<3 x i64>)>  loc(#loc2)
        %68 = llvm.insertvalue %15, %67[2] : !llvm.struct<(ptr, ptr, i64, array<3 x i64>, array<3 x i64>)>  loc(#loc2)
        %69 = llvm.insertvalue %14, %68[3, 0] : !llvm.struct<(ptr, ptr, i64, array<3 x i64>, array<3 x i64>)>  loc(#loc2)
        %70 = llvm.insertvalue %11, %69[3, 1] : !llvm.struct<(ptr, ptr, i64, array<3 x i64>, array<3 x i64>)>  loc(#loc2)
        %71 = llvm.insertvalue %9, %70[3, 2] : !llvm.struct<(ptr, ptr, i64, array<3 x i64>, array<3 x i64>)>  loc(#loc2)
        %72 = llvm.insertvalue %5, %71[4, 0] : !llvm.struct<(ptr, ptr, i64, array<3 x i64>, array<3 x i64>)>  loc(#loc2)
        %73 = llvm.insertvalue %9, %72[4, 1] : !llvm.struct<(ptr, ptr, i64, array<3 x i64>, array<3 x i64>)>  loc(#loc2)
        %74 = llvm.insertvalue %13, %73[4, 2] : !llvm.struct<(ptr, ptr, i64, array<3 x i64>, array<3 x i64>)>  loc(#loc2)
        llvm.br ^bb13(%15 : i64) loc(#loc2)
      ^bb13(%75: i64 loc("broadcast.17")):  // 2 preds: ^bb12, ^bb20
        %76 = llvm.icmp "slt" %75, %14 : i64 loc(#loc2)
        llvm.cond_br %76, ^bb14, ^bb21 loc(#loc2)
      ^bb14:  // pred: ^bb13
        llvm.br ^bb15(%15 : i64) loc(#loc2)
      ^bb15(%77: i64 loc("broadcast.17")):  // 2 preds: ^bb14, ^bb19
        %78 = llvm.icmp "slt" %77, %11 : i64 loc(#loc2)
        llvm.cond_br %78, ^bb16, ^bb20 loc(#loc2)
      ^bb16:  // pred: ^bb15
        llvm.br ^bb17(%15 : i64) loc(#loc2)
      ^bb17(%79: i64 loc("broadcast.17")):  // 2 preds: ^bb16, ^bb18
        %80 = llvm.icmp "slt" %79, %9 : i64 loc(#loc2)
        llvm.cond_br %80, ^bb18, ^bb19 loc(#loc2)
      ^bb18:  // pred: ^bb17
        %81 = llvm.load %1 : !llvm.ptr -> f32 loc(#loc2)
        %82 = llvm.mul %75, %5 overflow<nsw, nuw> : i64 loc(#loc2)
        %83 = llvm.mul %77, %9 overflow<nsw, nuw> : i64 loc(#loc2)
        %84 = llvm.add %82, %83 overflow<nsw, nuw> : i64 loc(#loc2)
        %85 = llvm.add %84, %79 overflow<nsw, nuw> : i64 loc(#loc2)
        %86 = llvm.getelementptr inbounds|nuw %65[%85] : (!llvm.ptr, i64) -> !llvm.ptr, f32 loc(#loc2)
        llvm.store %81, %86 : f32, !llvm.ptr loc(#loc2)
        %87 = llvm.add %79, %13 : i64 loc(#loc2)
        llvm.br ^bb17(%87 : i64) loc(#loc2)
      ^bb19:  // pred: ^bb17
        %88 = llvm.add %77, %13 : i64 loc(#loc2)
        llvm.br ^bb15(%88 : i64) loc(#loc2)
      ^bb20:  // pred: ^bb15
        %89 = llvm.add %75, %13 : i64 loc(#loc2)
        llvm.br ^bb13(%89 : i64) loc(#loc2)
      ^bb21:  // pred: ^bb13
        %90 = llvm.insertvalue %36, %4[0] : !llvm.struct<(struct<(ptr, ptr, i64, array<4 x i64>, array<4 x i64>)>, struct<(ptr, ptr, i64, array<3 x i64>, array<3 x i64>)>)>  loc(#loc)
        %91 = llvm.insertvalue %74, %90[1] : !llvm.struct<(struct<(ptr, ptr, i64, array<4 x i64>, array<4 x i64>)>, struct<(ptr, ptr, i64, array<3 x i64>, array<3 x i64>)>)>  loc(#loc)
        llvm.return %91 : !llvm.struct<(struct<(ptr, ptr, i64, array<4 x i64>, array<4 x i64>)>, struct<(ptr, ptr, i64, array<3 x i64>, array<3 x i64>)>)> loc(#loc)
      } loc(#loc)
      llvm.func @cpu_hoisted_const_eval_7834e56c_helper(%arg0: !llvm.ptr loc(unknown)) -> !llvm.ptr {
        %0 = llvm.call @cpu_hoisted_const_eval_7834e56c() : () -> !llvm.struct<(struct<(ptr, ptr, i64, array<4 x i64>, array<4 x i64>)>, struct<(ptr, ptr, i64, array<3 x i64>, array<3 x i64>)>)> loc(#loc)
        %1 = llvm.mlir.constant(64 : i64) : i64 loc(#loc)
        %2 = llvm.call @malloc(%1) : (i64) -> !llvm.ptr loc(#loc)
        %3 = llvm.mlir.constant(112 : i64) : i64 loc(#loc)
        %4 = llvm.call @malloc(%3) : (i64) -> !llvm.ptr loc(#loc)
        %5 = llvm.extractvalue %0[0] : !llvm.struct<(struct<(ptr, ptr, i64, array<4 x i64>, array<4 x i64>)>, struct<(ptr, ptr, i64, array<3 x i64>, array<3 x i64>)>)>  loc(#loc)
        %6 = llvm.extractvalue %5[0] : !llvm.struct<(ptr, ptr, i64, array<4 x i64>, array<4 x i64>)>  loc(#loc)
        %7 = llvm.extractvalue %5[1] : !llvm.struct<(ptr, ptr, i64, array<4 x i64>, array<4 x i64>)>  loc(#loc)
        %8 = llvm.extractvalue %5[2] : !llvm.struct<(ptr, ptr, i64, array<4 x i64>, array<4 x i64>)>  loc(#loc)
        %9 = llvm.mlir.constant(0 : i64) : i64 loc(#loc)
        %10 = llvm.getelementptr %4[%9] : (!llvm.ptr, i64) -> !llvm.ptr, i8 loc(#loc)
        %11 = llvm.extractvalue %5[3, 0] : !llvm.struct<(ptr, ptr, i64, array<4 x i64>, array<4 x i64>)>  loc(#loc)
        %12 = llvm.mlir.constant(0 : i64) : i64 loc(#loc)
        %13 = llvm.getelementptr %10[%12] : (!llvm.ptr, i64) -> !llvm.ptr, i64 loc(#loc)
        llvm.store %11, %13 : i64, !llvm.ptr loc(#loc)
        %14 = llvm.extractvalue %5[3, 1] : !llvm.struct<(ptr, ptr, i64, array<4 x i64>, array<4 x i64>)>  loc(#loc)
        %15 = llvm.mlir.constant(1 : i64) : i64 loc(#loc)
        %16 = llvm.getelementptr %10[%15] : (!llvm.ptr, i64) -> !llvm.ptr, i64 loc(#loc)
        llvm.store %14, %16 : i64, !llvm.ptr loc(#loc)
        %17 = llvm.extractvalue %5[3, 2] : !llvm.struct<(ptr, ptr, i64, array<4 x i64>, array<4 x i64>)>  loc(#loc)
        %18 = llvm.mlir.constant(2 : i64) : i64 loc(#loc)
        %19 = llvm.getelementptr %10[%18] : (!llvm.ptr, i64) -> !llvm.ptr, i64 loc(#loc)
        llvm.store %17, %19 : i64, !llvm.ptr loc(#loc)
        %20 = llvm.extractvalue %5[3, 3] : !llvm.struct<(ptr, ptr, i64, array<4 x i64>, array<4 x i64>)>  loc(#loc)
        %21 = llvm.mlir.constant(3 : i64) : i64 loc(#loc)
        %22 = llvm.getelementptr %10[%21] : (!llvm.ptr, i64) -> !llvm.ptr, i64 loc(#loc)
        llvm.store %20, %22 : i64, !llvm.ptr loc(#loc)
        %23 = llvm.extractvalue %5[4, 0] : !llvm.struct<(ptr, ptr, i64, array<4 x i64>, array<4 x i64>)>  loc(#loc)
        %24 = llvm.mlir.constant(4 : i64) : i64 loc(#loc)
        %25 = llvm.getelementptr %10[%24] : (!llvm.ptr, i64) -> !llvm.ptr, i64 loc(#loc)
        llvm.store %23, %25 : i64, !llvm.ptr loc(#loc)
        %26 = llvm.extractvalue %5[4, 1] : !llvm.struct<(ptr, ptr, i64, array<4 x i64>, array<4 x i64>)>  loc(#loc)
        %27 = llvm.mlir.constant(5 : i64) : i64 loc(#loc)
        %28 = llvm.getelementptr %10[%27] : (!llvm.ptr, i64) -> !llvm.ptr, i64 loc(#loc)
        llvm.store %26, %28 : i64, !llvm.ptr loc(#loc)
        %29 = llvm.extractvalue %5[4, 2] : !llvm.struct<(ptr, ptr, i64, array<4 x i64>, array<4 x i64>)>  loc(#loc)
        %30 = llvm.mlir.constant(6 : i64) : i64 loc(#loc)
        %31 = llvm.getelementptr %10[%30] : (!llvm.ptr, i64) -> !llvm.ptr, i64 loc(#loc)
        llvm.store %29, %31 : i64, !llvm.ptr loc(#loc)
        %32 = llvm.extractvalue %5[4, 3] : !llvm.struct<(ptr, ptr, i64, array<4 x i64>, array<4 x i64>)>  loc(#loc)
        %33 = llvm.mlir.constant(7 : i64) : i64 loc(#loc)
        %34 = llvm.getelementptr %10[%33] : (!llvm.ptr, i64) -> !llvm.ptr, i64 loc(#loc)
        llvm.store %32, %34 : i64, !llvm.ptr loc(#loc)
        %35 = llvm.mlir.undef : !llvm.struct<(ptr, ptr, i64, ptr)> loc(#loc)
        %36 = llvm.insertvalue %6, %35[0] : !llvm.struct<(ptr, ptr, i64, ptr)>  loc(#loc)
        %37 = llvm.insertvalue %7, %36[1] : !llvm.struct<(ptr, ptr, i64, ptr)>  loc(#loc)
        %38 = llvm.insertvalue %8, %37[2] : !llvm.struct<(ptr, ptr, i64, ptr)>  loc(#loc)
        %39 = llvm.insertvalue %10, %38[3] : !llvm.struct<(ptr, ptr, i64, ptr)>  loc(#loc)
        %40 = llvm.mlir.constant(0 : i64) : i64 loc(#loc)
        %41 = llvm.getelementptr %2[%40] : (!llvm.ptr, i64) -> !llvm.ptr, !llvm.struct<(ptr, ptr, i64, ptr)> loc(#loc)
        llvm.store %39, %41 : !llvm.struct<(ptr, ptr, i64, ptr)>, !llvm.ptr loc(#loc)
        %42 = llvm.extractvalue %0[1] : !llvm.struct<(struct<(ptr, ptr, i64, array<4 x i64>, array<4 x i64>)>, struct<(ptr, ptr, i64, array<3 x i64>, array<3 x i64>)>)>  loc(#loc)
        %43 = llvm.extractvalue %42[0] : !llvm.struct<(ptr, ptr, i64, array<3 x i64>, array<3 x i64>)>  loc(#loc)
        %44 = llvm.extractvalue %42[1] : !llvm.struct<(ptr, ptr, i64, array<3 x i64>, array<3 x i64>)>  loc(#loc)
        %45 = llvm.extractvalue %42[2] : !llvm.struct<(ptr, ptr, i64, array<3 x i64>, array<3 x i64>)>  loc(#loc)
        %46 = llvm.mlir.constant(64 : i64) : i64 loc(#loc)
        %47 = llvm.getelementptr %4[%46] : (!llvm.ptr, i64) -> !llvm.ptr, i8 loc(#loc)
        %48 = llvm.extractvalue %42[3, 0] : !llvm.struct<(ptr, ptr, i64, array<3 x i64>, array<3 x i64>)>  loc(#loc)
        %49 = llvm.mlir.constant(0 : i64) : i64 loc(#loc)
        %50 = llvm.getelementptr %47[%49] : (!llvm.ptr, i64) -> !llvm.ptr, i64 loc(#loc)
        llvm.store %48, %50 : i64, !llvm.ptr loc(#loc)
        %51 = llvm.extractvalue %42[3, 1] : !llvm.struct<(ptr, ptr, i64, array<3 x i64>, array<3 x i64>)>  loc(#loc)
        %52 = llvm.mlir.constant(1 : i64) : i64 loc(#loc)
        %53 = llvm.getelementptr %47[%52] : (!llvm.ptr, i64) -> !llvm.ptr, i64 loc(#loc)
        llvm.store %51, %53 : i64, !llvm.ptr loc(#loc)
        %54 = llvm.extractvalue %42[3, 2] : !llvm.struct<(ptr, ptr, i64, array<3 x i64>, array<3 x i64>)>  loc(#loc)
        %55 = llvm.mlir.constant(2 : i64) : i64 loc(#loc)
        %56 = llvm.getelementptr %47[%55] : (!llvm.ptr, i64) -> !llvm.ptr, i64 loc(#loc)
        llvm.store %54, %56 : i64, !llvm.ptr loc(#loc)
        %57 = llvm.extractvalue %42[4, 0] : !llvm.struct<(ptr, ptr, i64, array<3 x i64>, array<3 x i64>)>  loc(#loc)
        %58 = llvm.mlir.constant(3 : i64) : i64 loc(#loc)
        %59 = llvm.getelementptr %47[%58] : (!llvm.ptr, i64) -> !llvm.ptr, i64 loc(#loc)
        llvm.store %57, %59 : i64, !llvm.ptr loc(#loc)
        %60 = llvm.extractvalue %42[4, 1] : !llvm.struct<(ptr, ptr, i64, array<3 x i64>, array<3 x i64>)>  loc(#loc)
        %61 = llvm.mlir.constant(4 : i64) : i64 loc(#loc)
        %62 = llvm.getelementptr %47[%61] : (!llvm.ptr, i64) -> !llvm.ptr, i64 loc(#loc)
        llvm.store %60, %62 : i64, !llvm.ptr loc(#loc)
        %63 = llvm.extractvalue %42[4, 2] : !llvm.struct<(ptr, ptr, i64, array<3 x i64>, array<3 x i64>)>  loc(#loc)
        %64 = llvm.mlir.constant(5 : i64) : i64 loc(#loc)
        %65 = llvm.getelementptr %47[%64] : (!llvm.ptr, i64) -> !llvm.ptr, i64 loc(#loc)
        llvm.store %63, %65 : i64, !llvm.ptr loc(#loc)
        %66 = llvm.mlir.undef : !llvm.struct<(ptr, ptr, i64, ptr)> loc(#loc)
        %67 = llvm.insertvalue %43, %66[0] : !llvm.struct<(ptr, ptr, i64, ptr)>  loc(#loc)
        %68 = llvm.insertvalue %44, %67[1] : !llvm.struct<(ptr, ptr, i64, ptr)>  loc(#loc)
        %69 = llvm.insertvalue %45, %68[2] : !llvm.struct<(ptr, ptr, i64, ptr)>  loc(#loc)
        %70 = llvm.insertvalue %47, %69[3] : !llvm.struct<(ptr, ptr, i64, ptr)>  loc(#loc)
        %71 = llvm.mlir.constant(1 : i64) : i64 loc(#loc)
        %72 = llvm.getelementptr %2[%71] : (!llvm.ptr, i64) -> !llvm.ptr, !llvm.struct<(ptr, ptr, i64, ptr)> loc(#loc)
        llvm.store %70, %72 : !llvm.struct<(ptr, ptr, i64, ptr)>, !llvm.ptr loc(#loc)
        llvm.return %2 : !llvm.ptr loc(#loc)
      } loc(#loc)
    } loc(#loc)
  } loc(#loc)
} loc(#loc)
#loc1 = loc("constant.1")
------------------ END OF MLIR MODULE ------------------
2026-04-23 16:20:46.294 (  22.730s) [        4F4F76C0]     client_instance.cc:524      1| ClientInstance::getOrCreateMeshDevice - reshaping mesh device - [1, 2] -> [1, 1]
2026-04-23 16:20:46.294 (  22.730s) [        4F4F76C0]         tensor_pool.cc:91       1| Moving tensors to host.
terminate called after throwing an instance of 'std::bad_variant_access'
  what():  std::visit: variant is valueless
Fatal Python error: Aborted

Thread 0x000078de4ecf66c0 (most recent call first):
  <no Python frame>

Current thread 0x000078de4f4f76c0 (most recent call first):
  File "/localdev/jameszianxu/aot/tt-xla/venv/lib/python3.12/site-packages/torch_xla/torch_xla.py", line 87 in sync
  File "/localdev/jameszianxu/aot/tt-xla/venv/lib/python3.12/site-packages/torch_xla/_dynamo/dynamo_bridge.py", line 826 in extract_compiled_graph_helper
  File "/localdev/jameszianxu/aot/tt-xla/venv/lib/python3.12/site-packages/torch_xla/_dynamo/dynamo_bridge.py", line 737 in extract_compiled_graph
  File "/localdev/jameszianxu/aot/tt-xla/python_package/tt_torch/backend/backend.py", line 375 in _call_experimental_compile
  File "/localdev/jameszianxu/aot/tt-xla/python_package/tt_torch/backend/backend.py", line 385 in __call__
  File "/localdev/jameszianxu/aot/tt-xla/venv/lib/python3.12/site-packages/torch/_functorch/_aot_autograd/utils.py", line 103 in g
  File "/localdev/jameszianxu/aot/tt-xla/venv/lib/python3.12/site-packages/torch/_dynamo/eval_frame.py", line 1044 in _fn
  File "/localdev/jameszianxu/aot/tt-xla/venv/lib/python3.12/site-packages/torch/_functorch/_aot_autograd/utils.py", line 129 in call_func_at_runtime_with_args
  File "/localdev/jameszianxu/aot/tt-xla/venv/lib/python3.12/site-packages/torch/_functorch/_aot_autograd/runtime_wrappers.py", line 2461 in _backward_impl
  File "/localdev/jameszianxu/aot/tt-xla/venv/lib/python3.12/site-packages/torch/_functorch/_aot_autograd/runtime_wrappers.py", line 2289 in impl_fn
  File "/localdev/jameszianxu/aot/tt-xla/venv/lib/python3.12/site-packages/torch/_functorch/_aot_autograd/runtime_wrappers.py", line 2303 in backward
  File "/localdev/jameszianxu/aot/tt-xla/venv/lib/python3.12/site-packages/torch/autograd/function.py", line 315 in apply

Thread 0x000078de4fcf86c0 (most recent call first):
  File "/usr/lib/python3.12/threading.py", line 359 in wait
  File "/usr/lib/python3.12/threading.py", line 655 in wait
  File "/localdev/jameszianxu/aot/tt-xla/venv/lib/python3.12/site-packages/tqdm/_monitor.py", line 60 in run
  File "/usr/lib/python3.12/threading.py", line 1073 in _bootstrap_inner
  File "/usr/lib/python3.12/threading.py", line 1030 in _bootstrap

Thread 0x000078de9bfff6c0 (most recent call first):
  File "/usr/lib/python3.12/threading.py", line 359 in wait
  File "/usr/lib/python3.12/threading.py", line 655 in wait
  File "/localdev/jameszianxu/aot/tt-xla/venv/lib/python3.12/site-packages/tqdm/_monitor.py", line 60 in run
  File "/usr/lib/python3.12/threading.py", line 1073 in _bootstrap_inner
  File "/usr/lib/python3.12/threading.py", line 1030 in _bootstrap

Thread 0x000078df45967140 (most recent call first):
  File "/localdev/jameszianxu/aot/tt-xla/venv/lib/python3.12/site-packages/torch/autograd/graph.py", line 841 in _engine_run_backward
  File "/localdev/jameszianxu/aot/tt-xla/venv/lib/python3.12/site-packages/torch/autograd/__init__.py", line 354 in backward
  File "/localdev/jameszianxu/aot/tt-xla/venv/lib/python3.12/site-packages/torch/_tensor.py", line 625 in backward
  File "/localdev/jameszianxu/aot/tt-xla/python_package/tt_torch/torch_overrides.py", line 22 in __torch_function__
  File "/localdev/jameszianxu/aot/tt-xla/venv/lib/python3.12/site-packages/torch/overrides.py", line 1728 in handle_torch_function
  File "/localdev/jameszianxu/aot/tt-xla/venv/lib/python3.12/site-packages/torch/_tensor.py", line 616 in backward
  File "/localdev/jameszianxu/aot/tt-xla/tests/torch/training/test_basic.py", line 99 in test_qwen3_multichip_backward
  File "/localdev/jameszianxu/aot/tt-xla/venv/lib/python3.12/site-packages/_pytest/python.py", line 166 in pytest_pyfunc_call
  File "/localdev/jameszianxu/aot/tt-xla/venv/lib/python3.12/site-packages/pluggy/_callers.py", line 121 in _multicall
  File "/localdev/jameszianxu/aot/tt-xla/venv/lib/python3.12/site-packages/pluggy/_manager.py", line 120 in _hookexec
  File "/localdev/jameszianxu/aot/tt-xla/venv/lib/python3.12/site-packages/pluggy/_hooks.py", line 512 in __call__
  File "/localdev/jameszianxu/aot/tt-xla/venv/lib/python3.12/site-packages/_pytest/python.py", line 1720 in runtest
  File "/localdev/jameszianxu/aot/tt-xla/venv/lib/python3.12/site-packages/_pytest/runner.py", line 179 in pytest_runtest_call
  File "/localdev/jameszianxu/aot/tt-xla/venv/lib/python3.12/site-packages/pluggy/_callers.py", line 121 in _multicall
  File "/localdev/jameszianxu/aot/tt-xla/venv/lib/python3.12/site-packages/pluggy/_manager.py", line 120 in _hookexec
  File "/localdev/jameszianxu/aot/tt-xla/venv/lib/python3.12/site-packages/pluggy/_hooks.py", line 512 in __call__
  File "/localdev/jameszianxu/aot/tt-xla/venv/lib/python3.12/site-packages/_pytest/runner.py", line 245 in <lambda>
  File "/localdev/jameszianxu/aot/tt-xla/venv/lib/python3.12/site-packages/_pytest/runner.py", line 353 in from_call
  File "/localdev/jameszianxu/aot/tt-xla/venv/lib/python3.12/site-packages/_pytest/runner.py", line 244 in call_and_report
  File "/localdev/jameszianxu/aot/tt-xla/venv/lib/python3.12/site-packages/_pytest/runner.py", line 137 in runtestprotocol
  File "/localdev/jameszianxu/aot/tt-xla/venv/lib/python3.12/site-packages/_pytest/runner.py", line 118 in pytest_runtest_protocol
  File "/localdev/jameszianxu/aot/tt-xla/venv/lib/python3.12/site-packages/pluggy/_callers.py", line 121 in _multicall
  File "/localdev/jameszianxu/aot/tt-xla/venv/lib/python3.12/site-packages/pluggy/_manager.py", line 120 in _hookexec
  File "/localdev/jameszianxu/aot/tt-xla/venv/lib/python3.12/site-packages/pluggy/_hooks.py", line 512 in __call__
  File "/localdev/jameszianxu/aot/tt-xla/venv/lib/python3.12/site-packages/_pytest/main.py", line 396 in pytest_runtestloop
  File "/localdev/jameszianxu/aot/tt-xla/venv/lib/python3.12/site-packages/pluggy/_callers.py", line 121 in _multicall
  File "/localdev/jameszianxu/aot/tt-xla/venv/lib/python3.12/site-packages/pluggy/_manager.py", line 120 in _hookexec
  File "/localdev/jameszianxu/aot/tt-xla/venv/lib/python3.12/site-packages/pluggy/_hooks.py", line 512 in __call__
  File "/localdev/jameszianxu/aot/tt-xla/venv/lib/python3.12/site-packages/_pytest/main.py", line 372 in _main
  File "/localdev/jameszianxu/aot/tt-xla/venv/lib/python3.12/site-packages/_pytest/main.py", line 318 in wrap_session
  File "/localdev/jameszianxu/aot/tt-xla/venv/lib/python3.12/site-packages/_pytest/main.py", line 365 in pytest_cmdline_main
  File "/localdev/jameszianxu/aot/tt-xla/venv/lib/python3.12/site-packages/pluggy/_callers.py", line 121 in _multicall
  File "/localdev/jameszianxu/aot/tt-xla/venv/lib/python3.12/site-packages/pluggy/_manager.py", line 120 in _hookexec
  File "/localdev/jameszianxu/aot/tt-xla/venv/lib/python3.12/site-packages/pluggy/_hooks.py", line 512 in __call__
  File "/localdev/jameszianxu/aot/tt-xla/venv/lib/python3.12/site-packages/_pytest/config/__init__.py", line 199 in main
  File "/localdev/jameszianxu/aot/tt-xla/venv/lib/python3.12/site-packages/_pytest/config/__init__.py", line 223 in console_main
  File "/localdev/jameszianxu/aot/tt-xla/venv/lib/python3.12/site-packages/pytest/__main__.py", line 9 in <module>
  File "<frozen runpy>", line 88 in _run_code
  File "<frozen runpy>", line 198 in _run_module_as_main

Extension modules: numpy._core._multiarray_umath, numpy.linalg._umath_linalg, psutil._psutil_linux, torch._C, torch._C._dynamo.autograd_compiler, torch._C._dynamo.eval_frame, torch._C._dynamo.guards, torch._C._dynamo.utils, torch._C._fft, torch._C._linalg, torch._C._nested, torch._C._nn, torch._C._sparse, torch._C._special, charset_normalizer.md, charset_normalizer.cd, simplejson._speedups, requests.packages.charset_normalizer.md, requests.packages.chardet.md, requests.packages.charset_normalizer.cd, requests.packages.chardet.cd, yaml._yaml, numpy.random._common, numpy.random.bit_generator, numpy.random._bounded_integers, numpy.random._mt19937, numpy.random.mtrand, numpy.random._philox, numpy.random._pcg64, numpy.random._sfc64, numpy.random._generator, markupsafe._speedups, regex._regex, PIL._imaging, sklearn.__check_build._check_build, _cyutility, scipy._cyutility, scipy._lib._ccallback_c, scipy.sparse._sparsetools, _csparsetools, scipy.sparse._csparsetools, lz4._version, lz4.frame._frame, scipy.special._ufuncs_cxx, scipy.special._ellip_harm_2, scipy.special._special_ufuncs, scipy.special._gufuncs, scipy.special._ufuncs, scipy.special._specfun, scipy.special._comb, scipy.linalg._fblas, scipy.linalg._flapack, scipy.linalg.cython_lapack, scipy.linalg._cythonized_array_utils, scipy.linalg._solve_toeplitz, scipy.linalg._batched_linalg, scipy.linalg._decomp_lu_cython, scipy.linalg._matfuncs_schur_sqrtm, scipy.linalg._matfuncs_expm, scipy.linalg._linalg_pythran, scipy.linalg.cython_blas, scipy.linalg._decomp_update, scipy.sparse.linalg._dsolve._superlu, scipy.sparse.linalg._eigen.arpack._arpacklib, scipy.sparse.linalg._propack, scipy.spatial._ckdtree, scipy._lib.messagestream, scipy.spatial._qhull, scipy.spatial._voronoi, scipy.spatial._hausdorff, scipy.spatial._distance_wrap, scipy.spatial.transform._rotation_cy, scipy.spatial.transform._rigid_transform_cy, scipy.optimize._group_columns, scipy.optimize._trlib._trlib, scipy.optimize._lbfgsb, _moduleTNC, scipy.optimize._moduleTNC, scipy.optimize._slsqplib, scipy.optimize._minpack, scipy.optimize._lsq.givens_elimination, scipy.optimize._zeros, scipy._lib._uarray._uarray, scipy.linalg._decomp_interpolative, scipy.optimize._bglu_dense, scipy.optimize._lsap, scipy.optimize._direct, scipy.integrate._odepack, scipy.integrate._quadpack, scipy.integrate._vode, scipy.integrate._dop, scipy.interpolate._fitpack, scipy.interpolate._dfitpack, scipy.interpolate._dierckx, scipy.interpolate._ppoly, scipy.interpolate._interpnd, scipy.interpolate._rbfinterp_pythran, scipy.interpolate._rgi_cython, scipy.special.cython_special, scipy.stats._stats, scipy.stats._biasedurn, scipy.stats._stats_pythran, scipy.stats._levy_stable.levyst, scipy.stats._ansari_swilk_statistics, scipy.sparse.csgraph._tools, scipy.sparse.csgraph._shortest_path, scipy.sparse.csgraph._traversal, scipy.sparse.csgraph._min_spanning_tree, scipy.sparse.csgraph._flow, scipy.sparse.csgraph._matching, scipy.sparse.csgraph._reordering, scipy.stats._sobol, scipy.stats._qmc_cy, scipy.stats._rcont.rcont, scipy.stats._qmvnt_cy, scipy.ndimage._nd_image, scipy.ndimage._rank_filter_1d, _ni_label, scipy.ndimage._ni_label, pyarrow.lib, pandas._libs._cyutility, pandas._libs.tslibs.ccalendar, pandas._libs.tslibs.np_datetime, pandas._libs.tslibs.dtypes, pandas._libs.tslibs.base, pandas._libs.tslibs.nattype, pandas._libs.tslibs.timezones, pandas._libs.properties, pandas._libs.tslibs.fields, pandas._libs.tslibs.timedeltas, pandas._libs.tslibs.tzconversion, pandas._libs.tslibs.timestamps, pandas._libs.tslibs.offsets, pandas._libs.tslibs.strptime, pandas._libs.tslibs.parsing, pandas._libs.tslibs.conversion, pandas._libs.tslibs.period, pandas._libs.tslibs.vectorized, pandas._libs.ops_dispatch, pandas._libs.missing, pandas._libs.hashtable, pandas._libs.algos, pandas._libs.interval, pandas._libs.lib, pyarrow._compute, pandas._libs.ops, pandas._libs.hashing, pandas._libs.arrays, pandas._libs.tslib, pandas._libs.sparse, pandas._libs.internals, pandas._libs.indexing, pandas._libs.index, pandas._libs.writers, pandas._libs.join, pandas._libs.window.aggregations, pandas._libs.window.indexers, pandas._libs.reshape, pandas._libs.groupby, pandas._libs.json, pandas._libs.parsers, pandas._libs.testing, sklearn._cyutility, sklearn.utils._isfinite, sklearn.utils.sparsefuncs_fast, sklearn.utils.murmurhash, sklearn.utils._openmp_helpers, sklearn.metrics.cluster._expected_mutual_info_fast, sklearn.metrics._dist_metrics, sklearn.metrics._pairwise_distances_reduction._datasets_pair, sklearn.utils._cython_blas, sklearn.metrics._pairwise_distances_reduction._base, sklearn.metrics._pairwise_distances_reduction._middle_term_computer, sklearn.utils._heap, sklearn.utils._sorting, sklearn.metrics._pairwise_distances_reduction._argkmin, sklearn.metrics._pairwise_distances_reduction._argkmin_classmode, sklearn.utils._vector_sentinel, sklearn.metrics._pairwise_distances_reduction._radius_neighbors, sklearn.metrics._pairwise_distances_reduction._radius_neighbors_classmode, sklearn.metrics._pairwise_fast, sklearn.preprocessing._csr_polynomial_expansion, sklearn.preprocessing._target_encoder_fast, _cffi_backend, sentencepiece._sentencepiece, PIL._imagingft, jaxlib.cpu_feature_guard, msgpack._cmsgpack (total: 188)
