2026-03-14 18:31:09.724 | INFO     | pjrt_plugin_tt:setup_tt_pjrt_plugin_dir:42 - Using PJRT plugin directory: /localdev/jameszianxu/tt-xla/python_package/pjrt_plugin_tt
2026-03-14 18:31:09.724 | INFO     | pjrt_plugin_tt:setup_tt_metal_home:103 - Using TT-Metal from the source tree: /localdev/jameszianxu/tt-xla/third_party/tt-mlir/src/tt-mlir/third_party/tt-metal/src/tt-metal
2026-03-14 18:31:09.724 | WARNING  | torch_plugin_tt:__init__:38 - TT plugin is setting XLA_STABLEHLO_COMPILE to 1. This is required for TT PJRT plugin to work correctly.
============================= test session starts ==============================
platform linux -- Python 3.12.13, pytest-9.0.2, pluggy-1.6.0 -- /localdev/jameszianxu/tt-xla/venv/bin/python
cachedir: .pytest_cache
metadata: {'Python': '3.12.13', 'Platform': 'Linux-6.8.0-87-generic-x86_64-with-glibc2.35', 'Packages': {'pytest': '9.0.2', 'pluggy': '1.6.0'}, 'Plugins': {'forked': '1.6.0', 'metadata': '3.1.1', 'jaxtyping': '0.3.9', 'anyio': '4.12.1', 'split': '0.11.0', 'json-report': '1.5.0'}}
rootdir: /localdev/jameszianxu/tt-xla
configfile: pytest.ini
plugins: forked-1.6.0, metadata-3.1.1, jaxtyping-0.3.9, anyio-4.12.1, split-0.11.0, json-report-1.5.0
collecting ... collected 1 item

tests/torch/ops/test_repeat.py::test_repeat_parameterized[input_shape18-repeat_dims18] 2026-03-14 18:31:22.513 (   0.000s) [        DC95F000]   plugin_attributes.cc:64       1| PluginAttributes::PJRT_Plugin_Initialize
2026-03-14 18:31:22.513 (   0.000s) [        DC95F000]     client_instance.cc:603      1| ClientInstance::PJRT_Client_Create
2026-03-14 18:31:22.516 (   0.003s) [        DC95F000]     client_instance.cc:241      1| ClientInstance::ClientInstance
2026-03-14 18:31:22.516 (   0.003s) [        DC95F000]     client_instance.cc:263      1| ClientInstance::Initialize
[32m                 Always[0m | [1m[38;5;240m   DEBUG[0m | Device grid size = { 8, 8 }
2026-03-14 18:31:22.825 (   0.312s) [        DC95F000]     client_instance.cc:520      1| ClientInstance::openMeshDevice - setting fabric config: DISABLED
[32m                 Always[0m | [1m[38;5;240m   DEBUG[0m | Device grid size = { 8, 8 }
2026-03-14 18:31:22.862 (   0.349s) [        DC95F000]              stubs.inc:121   WARN| STUB: PJRT_Client_TopologyDescription
2026-03-14 18:31:22.862 (   0.349s) [        DC95F000]      error_instance.cc:52       1| ErrorInstance::PJRT_Error_Message
2026-03-14 18:31:22.862 (   0.349s) [        DC95F000]      error_instance.cc:61       1| ErrorInstance::PJRT_Error_GetCode
2026-03-14 18:31:22.862 (   0.349s) [        DC95F000]      error_instance.cc:46       1| ErrorInstance::PJRT_Error_Destroy
2026-03-14 18:31:22.862 (   0.349s) [        DC95F000]     client_instance.cc:661      1| ClientInstance::PJRT_Client_PlatformVersion
2026-03-14 18:31:22.862 (   0.349s) [        DC95F000]     client_instance.cc:640      1| ClientInstance::PJRT_Client_PlatformName
2026-03-14 18:31:22.862 (   0.349s) [        DC95F000]     client_instance.cc:673      1| ClientInstance::PJRT_Client_Devices
2026-03-14 18:31:22.862 (   0.349s) [        DC95F000]     device_instance.cc:48       1| DeviceInstance::PJRT_Device_GetDescription
2026-03-14 18:31:22.862 (   0.349s) [        DC95F000]  device_description.cc:88       1| DeviceDescription::PJRT_DeviceDescription_Attributes
2026-03-14 18:31:22.862 (   0.349s) [        DC95F000]     client_instance.cc:687      1| ClientInstance::PJRT_Client_AddressableDevices
2026-03-14 18:31:22.862 (   0.349s) [        DC95F000]     client_instance.cc:740      1| ClientInstance::PJRT_Client_AddressableMemories
2026-03-14 18:31:22.862 (   0.349s) [        DC95F000]     device_instance.cc:78       1| DeviceInstance::PJRT_Device_AddressableMemories
2026-03-14 18:31:22.862 (   0.349s) [        DC95F000]     memory_instance.cc:133      1| MemoryInstance::PJRT_Memory_AddressableByDevices
2026-03-14 18:31:22.862 (   0.349s) [        DC95F000]     memory_instance.cc:133      1| MemoryInstance::PJRT_Memory_AddressableByDevices
2026-03-14 18:31:22.862 (   0.349s) [        DC95F000]   plugin_attributes.cc:71       1| PluginAttributes::PJRT_Plugin_Attributes
2026-03-14 18:31:22.863045: W torch_xla/csrc/runtime/profiler.cpp:88] Profiler API not found for PJRT plugin
2026-03-14 18:31:22.863 (   0.350s) [        DC95F000]  device_description.cc:67       1| DeviceDescription::PJRT_DeviceDescription_Id
2026-03-14 18:31:22.863 (   0.350s) [        DC95F000]  device_description.cc:67       1| DeviceDescription::PJRT_DeviceDescription_Id
2026-03-14 18:31:22.863 (   0.350s) [        DC95F000]  device_description.cc:129      1| DeviceDescription::PJRT_DeviceDescription_ToString
2026-03-14 18:31:22.863 (   0.350s) [        DC95F000]  device_description.cc:67       1| DeviceDescription::PJRT_DeviceDescription_Id
2026-03-14 18:31:22.863 (   0.350s) [        DC95F000]  device_description.cc:67       1| DeviceDescription::PJRT_DeviceDescription_Id
2026-03-14 18:31:22.863 (   0.350s) [        DC95F000]  device_description.cc:67       1| DeviceDescription::PJRT_DeviceDescription_Id
2026-03-14 18:31:22.863 (   0.350s) [        DC95F000]  device_description.cc:67       1| DeviceDescription::PJRT_DeviceDescription_Id
2026-03-14 18:31:22.863 (   0.350s) [        DC95F000]  device_description.cc:67       1| DeviceDescription::PJRT_DeviceDescription_Id
2026-03-14 18:31:22.865 (   0.352s) [        DC95F000]     device_instance.cc:90       1| DeviceInstance::PJRT_Device_DefaultMemory
2026-03-14 18:31:22.865 (   0.352s) [        DC95F000]     client_instance.cc:805      1| ClientInstance::PJRT_Client_BufferFromHostBuffer
2026-03-14 18:31:22.865 (   0.352s) [        DC95F000]     memory_instance.cc:60       1| MemoryInstance::getDevice
2026-03-14 18:31:22.865 (   0.352s) [        DC95F000]      event_instance.cc:203      1| EventInstance::PJRT_Event_OnReady
2026-03-14 18:31:22.865 (   0.352s) [        DC95F000]      event_instance.cc:148      1| EventInstance::PJRT_Event_Destroy
2026-03-14 18:31:23.408 (   0.895s) [        DC95F000]  device_description.cc:67       1| DeviceDescription::PJRT_DeviceDescription_Id
2026-03-14 18:31:23.408 (   0.895s) [        DC95F000]  device_description.cc:67       1| DeviceDescription::PJRT_DeviceDescription_Id
2026-03-14 18:31:23.408 (   0.895s) [        DC95F000]     buffer_instance.cc:514      1| BufferInstance::PJRT_Buffer_IsDeleted
2026-03-14 18:31:23.408 (   0.895s) [        DC95F000]     buffer_instance.cc:514      1| BufferInstance::PJRT_Buffer_IsDeleted
2026-03-14 18:31:23.408 (   0.895s) [        DC95F000]     buffer_instance.cc:514      1| BufferInstance::PJRT_Buffer_IsDeleted
2026-03-14 18:31:23.408 (   0.895s) [        DC95F000]     buffer_instance.cc:514      1| BufferInstance::PJRT_Buffer_IsDeleted
2026-03-14 18:31:23.408 (   0.895s) [        DC95F000]     buffer_instance.cc:514      1| BufferInstance::PJRT_Buffer_IsDeleted
2026-03-14 18:31:23.408 (   0.895s) [        DC95F000]     buffer_instance.cc:514      1| BufferInstance::PJRT_Buffer_IsDeleted
2026-03-14 18:31:23.415 (   0.902s) [        DC95F000]     client_instance.cc:754      1| ClientInstance::PJRT_Client_Compile
2026-03-14 18:31:23.415 (   0.902s) [        DC95F000]      module_builder.cc:243      1| ModuleBuilder::buildModule
2026-03-14 18:31:23.417 (   0.904s) [        DC95F000]      module_builder.cc:1190     1| MLIR Module vhlo:
#loc1 = loc("p0.1")
module @SyncTensorsGraph.7 attributes {mhlo.cross_program_prefetches = [], mhlo.input_output_alias = [], mhlo.is_dynamic = false, mhlo.use_auto_spmd_partitioning = false} {
  vhlo.func_v1 @main(%arg0: !vhlo.tensor_v1<1x!vhlo.bf16_v1> loc("p0.1")) -> (!vhlo.tensor_v1<100x!vhlo.bf16_v1>) {
    %0 = "vhlo.reshape_v1"(%arg0) : (!vhlo.tensor_v1<1x!vhlo.bf16_v1>) -> !vhlo.tensor_v1<1x1x1x!vhlo.bf16_v1> loc(#loc2)
    %1 = "vhlo.custom_call_v1"(%0) <{api_version = #vhlo<api_version_v1 API_VERSION_UNSPECIFIED>, backend_config = #vhlo.string_v1<"">, call_target_name = #vhlo.string_v1<"tt.mark_argument">, called_computations = #vhlo.array_v1<[]>, has_side_effect = #vhlo.bool_v1<false>, operand_layouts = #vhlo.array_v1<[]>, output_operand_aliases = #vhlo.array_v1<[]>, result_layouts = #vhlo.array_v1<[]>}> {mhlo.frontend_attributes = #vhlo.dict_v1<{#vhlo.string_v1<"ttcore.argument_type"> = #vhlo.string_v1<"input">, #vhlo.string_v1<"ttir.name"> = #vhlo.string_v1<"args_0">}>} : (!vhlo.tensor_v1<1x1x1x!vhlo.bf16_v1>) -> !vhlo.tensor_v1<1x1x1x!vhlo.bf16_v1> loc(#loc3)
    %2 = "vhlo.reshape_v1"(%1) : (!vhlo.tensor_v1<1x1x1x!vhlo.bf16_v1>) -> !vhlo.tensor_v1<1x!vhlo.bf16_v1> loc(#loc4)
    %3 = "vhlo.concatenate_v1"(%2, %2, %2, %2, %2, %2, %2, %2, %2, %2, %2, %2, %2, %2, %2, %2, %2, %2, %2, %2, %2, %2, %2, %2, %2, %2, %2, %2, %2, %2, %2, %2, %2, %2, %2, %2, %2, %2, %2, %2, %2, %2, %2, %2, %2, %2, %2, %2, %2, %2, %2, %2, %2, %2, %2, %2, %2, %2, %2, %2, %2, %2, %2, %2, %2, %2, %2, %2, %2, %2, %2, %2, %2, %2, %2, %2, %2, %2, %2, %2, %2, %2, %2, %2, %2, %2, %2, %2, %2, %2, %2, %2, %2, %2, %2, %2, %2, %2, %2, %2) <{dimension = #vhlo.integer_v1<0 : i64>}> : (!vhlo.tensor_v1<1x!vhlo.bf16_v1>, !vhlo.tensor_v1<1x!vhlo.bf16_v1>, !vhlo.tensor_v1<1x!vhlo.bf16_v1>, !vhlo.tensor_v1<1x!vhlo.bf16_v1>, !vhlo.tensor_v1<1x!vhlo.bf16_v1>, !vhlo.tensor_v1<1x!vhlo.bf16_v1>, !vhlo.tensor_v1<1x!vhlo.bf16_v1>, !vhlo.tensor_v1<1x!vhlo.bf16_v1>, !vhlo.tensor_v1<1x!vhlo.bf16_v1>, !vhlo.tensor_v1<1x!vhlo.bf16_v1>, !vhlo.tensor_v1<1x!vhlo.bf16_v1>, !vhlo.tensor_v1<1x!vhlo.bf16_v1>, !vhlo.tensor_v1<1x!vhlo.bf16_v1>, !vhlo.tensor_v1<1x!vhlo.bf16_v1>, !vhlo.tensor_v1<1x!vhlo.bf16_v1>, !vhlo.tensor_v1<1x!vhlo.bf16_v1>, !vhlo.tensor_v1<1x!vhlo.bf16_v1>, !vhlo.tensor_v1<1x!vhlo.bf16_v1>, !vhlo.tensor_v1<1x!vhlo.bf16_v1>, !vhlo.tensor_v1<1x!vhlo.bf16_v1>, !vhlo.tensor_v1<1x!vhlo.bf16_v1>, !vhlo.tensor_v1<1x!vhlo.bf16_v1>, !vhlo.tensor_v1<1x!vhlo.bf16_v1>, !vhlo.tensor_v1<1x!vhlo.bf16_v1>, !vhlo.tensor_v1<1x!vhlo.bf16_v1>, !vhlo.tensor_v1<1x!vhlo.bf16_v1>, !vhlo.tensor_v1<1x!vhlo.bf16_v1>, !vhlo.tensor_v1<1x!vhlo.bf16_v1>, !vhlo.tensor_v1<1x!vhlo.bf16_v1>, !vhlo.tensor_v1<1x!vhlo.bf16_v1>, !vhlo.tensor_v1<1x!vhlo.bf16_v1>, !vhlo.tensor_v1<1x!vhlo.bf16_v1>, !vhlo.tensor_v1<1x!vhlo.bf16_v1>, !vhlo.tensor_v1<1x!vhlo.bf16_v1>, !vhlo.tensor_v1<1x!vhlo.bf16_v1>, !vhlo.tensor_v1<1x!vhlo.bf16_v1>, !vhlo.tensor_v1<1x!vhlo.bf16_v1>, !vhlo.tensor_v1<1x!vhlo.bf16_v1>, !vhlo.tensor_v1<1x!vhlo.bf16_v1>, !vhlo.tensor_v1<1x!vhlo.bf16_v1>, !vhlo.tensor_v1<1x!vhlo.bf16_v1>, !vhlo.tensor_v1<1x!vhlo.bf16_v1>, !vhlo.tensor_v1<1x!vhlo.bf16_v1>, !vhlo.tensor_v1<1x!vhlo.bf16_v1>, !vhlo.tensor_v1<1x!vhlo.bf16_v1>, !vhlo.tensor_v1<1x!vhlo.bf16_v1>, !vhlo.tensor_v1<1x!vhlo.bf16_v1>, !vhlo.tensor_v1<1x!vhlo.bf16_v1>, !vhlo.tensor_v1<1x!vhlo.bf16_v1>, !vhlo.tensor_v1<1x!vhlo.bf16_v1>, !vhlo.tensor_v1<1x!vhlo.bf16_v1>, !vhlo.tensor_v1<1x!vhlo.bf16_v1>, !vhlo.tensor_v1<1x!vhlo.bf16_v1>, !vhlo.tensor_v1<1x!vhlo.bf16_v1>, !vhlo.tensor_v1<1x!vhlo.bf16_v1>, !vhlo.tensor_v1<1x!vhlo.bf16_v1>, !vhlo.tensor_v1<1x!vhlo.bf16_v1>, !vhlo.tensor_v1<1x!vhlo.bf16_v1>, !vhlo.tensor_v1<1x!vhlo.bf16_v1>, !vhlo.tensor_v1<1x!vhlo.bf16_v1>, !vhlo.tensor_v1<1x!vhlo.bf16_v1>, !vhlo.tensor_v1<1x!vhlo.bf16_v1>, !vhlo.tensor_v1<1x!vhlo.bf16_v1>, !vhlo.tensor_v1<1x!vhlo.bf16_v1>, !vhlo.tensor_v1<1x!vhlo.bf16_v1>, !vhlo.tensor_v1<1x!vhlo.bf16_v1>, !vhlo.tensor_v1<1x!vhlo.bf16_v1>, !vhlo.tensor_v1<1x!vhlo.bf16_v1>, !vhlo.tensor_v1<1x!vhlo.bf16_v1>, !vhlo.tensor_v1<1x!vhlo.bf16_v1>, !vhlo.tensor_v1<1x!vhlo.bf16_v1>, !vhlo.tensor_v1<1x!vhlo.bf16_v1>, !vhlo.tensor_v1<1x!vhlo.bf16_v1>, !vhlo.tensor_v1<1x!vhlo.bf16_v1>, !vhlo.tensor_v1<1x!vhlo.bf16_v1>, !vhlo.tensor_v1<1x!vhlo.bf16_v1>, !vhlo.tensor_v1<1x!vhlo.bf16_v1>, !vhlo.tensor_v1<1x!vhlo.bf16_v1>, !vhlo.tensor_v1<1x!vhlo.bf16_v1>, !vhlo.tensor_v1<1x!vhlo.bf16_v1>, !vhlo.tensor_v1<1x!vhlo.bf16_v1>, !vhlo.tensor_v1<1x!vhlo.bf16_v1>, !vhlo.tensor_v1<1x!vhlo.bf16_v1>, !vhlo.tensor_v1<1x!vhlo.bf16_v1>, !vhlo.tensor_v1<1x!vhlo.bf16_v1>, !vhlo.tensor_v1<1x!vhlo.bf16_v1>, !vhlo.tensor_v1<1x!vhlo.bf16_v1>, !vhlo.tensor_v1<1x!vhlo.bf16_v1>, !vhlo.tensor_v1<1x!vhlo.bf16_v1>, !vhlo.tensor_v1<1x!vhlo.bf16_v1>, !vhlo.tensor_v1<1x!vhlo.bf16_v1>, !vhlo.tensor_v1<1x!vhlo.bf16_v1>, !vhlo.tensor_v1<1x!vhlo.bf16_v1>, !vhlo.tensor_v1<1x!vhlo.bf16_v1>, !vhlo.tensor_v1<1x!vhlo.bf16_v1>, !vhlo.tensor_v1<1x!vhlo.bf16_v1>, !vhlo.tensor_v1<1x!vhlo.bf16_v1>, !vhlo.tensor_v1<1x!vhlo.bf16_v1>, !vhlo.tensor_v1<1x!vhlo.bf16_v1>, !vhlo.tensor_v1<1x!vhlo.bf16_v1>) -> !vhlo.tensor_v1<100x!vhlo.bf16_v1> loc(#loc5)
    "vhlo.return_v1"(%3) : (!vhlo.tensor_v1<100x!vhlo.bf16_v1>) -> () loc(#loc)
  } {arg_attrs = #vhlo.array_v1<[]>, res_attrs = #vhlo.array_v1<[]>, sym_visibility = #vhlo.string_v1<"">} loc(#loc)
} loc(#loc)
#loc = loc(unknown)
#loc2 = loc("reshape.2")
#loc3 = loc("custom-call.3")
#loc4 = loc("reshape.4")
#loc5 = loc("concatenate.5")
------------------ END OF MLIR MODULE ------------------
2026-03-14 18:31:23.422 (   0.909s) [        DC95F000]      module_builder.cc:1190     1| MLIR Module shlo:
#loc1 = loc("p0.1")
module @SyncTensorsGraph.7 attributes {mhlo.cross_program_prefetches = [], mhlo.input_output_alias = [], mhlo.is_dynamic = false, mhlo.use_auto_spmd_partitioning = false} {
  func.func @main(%arg0: tensor<1xbf16> loc("p0.1")) -> tensor<100xbf16> {
    %0 = stablehlo.reshape %arg0 : (tensor<1xbf16>) -> tensor<1x1x1xbf16> loc(#loc2)
    %1 = stablehlo.custom_call @tt.mark_argument(%0) {api_version = 0 : i32, mhlo.frontend_attributes = {ttcore.argument_type = "input", ttir.name = "args_0"}} : (tensor<1x1x1xbf16>) -> tensor<1x1x1xbf16> loc(#loc3)
    %2 = stablehlo.reshape %1 : (tensor<1x1x1xbf16>) -> tensor<1xbf16> loc(#loc4)
    %3 = stablehlo.concatenate %2, %2, %2, %2, %2, %2, %2, %2, %2, %2, %2, %2, %2, %2, %2, %2, %2, %2, %2, %2, %2, %2, %2, %2, %2, %2, %2, %2, %2, %2, %2, %2, %2, %2, %2, %2, %2, %2, %2, %2, %2, %2, %2, %2, %2, %2, %2, %2, %2, %2, %2, %2, %2, %2, %2, %2, %2, %2, %2, %2, %2, %2, %2, %2, %2, %2, %2, %2, %2, %2, %2, %2, %2, %2, %2, %2, %2, %2, %2, %2, %2, %2, %2, %2, %2, %2, %2, %2, %2, %2, %2, %2, %2, %2, %2, %2, %2, %2, %2, %2, dim = 0 : (tensor<1xbf16>, tensor<1xbf16>, tensor<1xbf16>, tensor<1xbf16>, tensor<1xbf16>, tensor<1xbf16>, tensor<1xbf16>, tensor<1xbf16>, tensor<1xbf16>, tensor<1xbf16>, tensor<1xbf16>, tensor<1xbf16>, tensor<1xbf16>, tensor<1xbf16>, tensor<1xbf16>, tensor<1xbf16>, tensor<1xbf16>, tensor<1xbf16>, tensor<1xbf16>, tensor<1xbf16>, tensor<1xbf16>, tensor<1xbf16>, tensor<1xbf16>, tensor<1xbf16>, tensor<1xbf16>, tensor<1xbf16>, tensor<1xbf16>, tensor<1xbf16>, tensor<1xbf16>, tensor<1xbf16>, tensor<1xbf16>, tensor<1xbf16>, tensor<1xbf16>, tensor<1xbf16>, tensor<1xbf16>, tensor<1xbf16>, tensor<1xbf16>, tensor<1xbf16>, tensor<1xbf16>, tensor<1xbf16>, tensor<1xbf16>, tensor<1xbf16>, tensor<1xbf16>, tensor<1xbf16>, tensor<1xbf16>, tensor<1xbf16>, tensor<1xbf16>, tensor<1xbf16>, tensor<1xbf16>, tensor<1xbf16>, tensor<1xbf16>, tensor<1xbf16>, tensor<1xbf16>, tensor<1xbf16>, tensor<1xbf16>, tensor<1xbf16>, tensor<1xbf16>, tensor<1xbf16>, tensor<1xbf16>, tensor<1xbf16>, tensor<1xbf16>, tensor<1xbf16>, tensor<1xbf16>, tensor<1xbf16>, tensor<1xbf16>, tensor<1xbf16>, tensor<1xbf16>, tensor<1xbf16>, tensor<1xbf16>, tensor<1xbf16>, tensor<1xbf16>, tensor<1xbf16>, tensor<1xbf16>, tensor<1xbf16>, tensor<1xbf16>, tensor<1xbf16>, tensor<1xbf16>, tensor<1xbf16>, tensor<1xbf16>, tensor<1xbf16>, tensor<1xbf16>, tensor<1xbf16>, tensor<1xbf16>, tensor<1xbf16>, tensor<1xbf16>, tensor<1xbf16>, tensor<1xbf16>, tensor<1xbf16>, tensor<1xbf16>, tensor<1xbf16>, tensor<1xbf16>, tensor<1xbf16>, tensor<1xbf16>, tensor<1xbf16>, tensor<1xbf16>, tensor<1xbf16>, tensor<1xbf16>, tensor<1xbf16>, tensor<1xbf16>, tensor<1xbf16>) -> tensor<100xbf16> loc(#loc5)
    return %3 : tensor<100xbf16> loc(#loc)
  } loc(#loc)
} loc(#loc)
#loc = loc(unknown)
#loc2 = loc("reshape.2")
#loc3 = loc("custom-call.3")
#loc4 = loc("reshape.4")
#loc5 = loc("concatenate.5")
------------------ END OF MLIR MODULE ------------------
2026-03-14 18:31:23.424 (   0.911s) [        DC95F000]      module_builder.cc:1190     1| MLIR Module shlo_frontend:
#loc1 = loc("p0.1")
module @SyncTensorsGraph.7 attributes {mhlo.cross_program_prefetches = [], mhlo.input_output_alias = [], mhlo.is_dynamic = false, mhlo.use_auto_spmd_partitioning = false} {
  func.func @main(%arg0: tensor<1xbf16> {ttcore.argument_type = #ttcore.argument_type<input>, ttir.name = "args_0"} loc("p0.1")) -> tensor<100xbf16> {
    %0 = stablehlo.reshape %arg0 : (tensor<1xbf16>) -> tensor<1x1x1xbf16> loc(#loc2)
    %1 = stablehlo.reshape %0 : (tensor<1x1x1xbf16>) -> tensor<1xbf16> loc(#loc3)
    %2 = stablehlo.concatenate %1, %1, %1, %1, %1, %1, %1, %1, %1, %1, %1, %1, %1, %1, %1, %1, %1, %1, %1, %1, %1, %1, %1, %1, %1, %1, %1, %1, %1, %1, %1, %1, %1, %1, %1, %1, %1, %1, %1, %1, %1, %1, %1, %1, %1, %1, %1, %1, %1, %1, %1, %1, %1, %1, %1, %1, %1, %1, %1, %1, %1, %1, %1, %1, %1, %1, %1, %1, %1, %1, %1, %1, %1, %1, %1, %1, %1, %1, %1, %1, %1, %1, %1, %1, %1, %1, %1, %1, %1, %1, %1, %1, %1, %1, %1, %1, %1, %1, %1, %1, dim = 0 : (tensor<1xbf16>, tensor<1xbf16>, tensor<1xbf16>, tensor<1xbf16>, tensor<1xbf16>, tensor<1xbf16>, tensor<1xbf16>, tensor<1xbf16>, tensor<1xbf16>, tensor<1xbf16>, tensor<1xbf16>, tensor<1xbf16>, tensor<1xbf16>, tensor<1xbf16>, tensor<1xbf16>, tensor<1xbf16>, tensor<1xbf16>, tensor<1xbf16>, tensor<1xbf16>, tensor<1xbf16>, tensor<1xbf16>, tensor<1xbf16>, tensor<1xbf16>, tensor<1xbf16>, tensor<1xbf16>, tensor<1xbf16>, tensor<1xbf16>, tensor<1xbf16>, tensor<1xbf16>, tensor<1xbf16>, tensor<1xbf16>, tensor<1xbf16>, tensor<1xbf16>, tensor<1xbf16>, tensor<1xbf16>, tensor<1xbf16>, tensor<1xbf16>, tensor<1xbf16>, tensor<1xbf16>, tensor<1xbf16>, tensor<1xbf16>, tensor<1xbf16>, tensor<1xbf16>, tensor<1xbf16>, tensor<1xbf16>, tensor<1xbf16>, tensor<1xbf16>, tensor<1xbf16>, tensor<1xbf16>, tensor<1xbf16>, tensor<1xbf16>, tensor<1xbf16>, tensor<1xbf16>, tensor<1xbf16>, tensor<1xbf16>, tensor<1xbf16>, tensor<1xbf16>, tensor<1xbf16>, tensor<1xbf16>, tensor<1xbf16>, tensor<1xbf16>, tensor<1xbf16>, tensor<1xbf16>, tensor<1xbf16>, tensor<1xbf16>, tensor<1xbf16>, tensor<1xbf16>, tensor<1xbf16>, tensor<1xbf16>, tensor<1xbf16>, tensor<1xbf16>, tensor<1xbf16>, tensor<1xbf16>, tensor<1xbf16>, tensor<1xbf16>, tensor<1xbf16>, tensor<1xbf16>, tensor<1xbf16>, tensor<1xbf16>, tensor<1xbf16>, tensor<1xbf16>, tensor<1xbf16>, tensor<1xbf16>, tensor<1xbf16>, tensor<1xbf16>, tensor<1xbf16>, tensor<1xbf16>, tensor<1xbf16>, tensor<1xbf16>, tensor<1xbf16>, tensor<1xbf16>, tensor<1xbf16>, tensor<1xbf16>, tensor<1xbf16>, tensor<1xbf16>, tensor<1xbf16>, tensor<1xbf16>, tensor<1xbf16>, tensor<1xbf16>, tensor<1xbf16>) -> tensor<100xbf16> loc(#loc4)
    return %2 : tensor<100xbf16> loc(#loc)
  } loc(#loc)
} loc(#loc)
#loc = loc(unknown)
#loc2 = loc("reshape.2")
#loc3 = loc("reshape.4")
#loc4 = loc("concatenate.5")
------------------ END OF MLIR MODULE ------------------
2026-03-14 18:31:23.430 (   0.917s) [        DC95F000]      module_builder.cc:1190     1| MLIR Module shlo_compiler:
#loc1 = loc("p0.1")
module @SyncTensorsGraph.7 attributes {mhlo.cross_program_prefetches = [], mhlo.input_output_alias = [], mhlo.is_dynamic = false, mhlo.use_auto_spmd_partitioning = false} {
  sdy.mesh @mesh = <["x"=1, "y"=1]> loc(#loc)
  func.func @main(%arg0: tensor<1xbf16> {ttcore.argument_type = #ttcore.argument_type<input>, ttcore.local_shape = #ttcore<local_shape local_shape = tensor<1xbf16>>, ttcore.shard_status = #ttcore.shard_status<unsharded>, ttir.name = "args_0"} loc("p0.1")) -> (tensor<100xbf16> {ttcore.local_shape = #ttcore<local_shape local_shape = tensor<100xbf16>>, ttcore.shard_status = #ttcore.shard_status<presharded>}) {
    %0 = stablehlo.reshape %arg0 : (tensor<1xbf16>) -> tensor<1x1x1xbf16> loc(#loc2)
    %1 = stablehlo.reshape %0 : (tensor<1x1x1xbf16>) -> tensor<1xbf16> loc(#loc3)
    %2 = stablehlo.concatenate %1, %1, %1, %1, %1, %1, %1, %1, %1, %1, %1, %1, %1, %1, %1, %1, %1, %1, %1, %1, %1, %1, %1, %1, %1, %1, %1, %1, %1, %1, %1, %1, %1, %1, %1, %1, %1, %1, %1, %1, %1, %1, %1, %1, %1, %1, %1, %1, %1, %1, %1, %1, %1, %1, %1, %1, %1, %1, %1, %1, %1, %1, %1, %1, %1, %1, %1, %1, %1, %1, %1, %1, %1, %1, %1, %1, %1, %1, %1, %1, %1, %1, %1, %1, %1, %1, %1, %1, %1, %1, %1, %1, %1, %1, %1, %1, %1, %1, %1, %1, dim = 0 : (tensor<1xbf16>, tensor<1xbf16>, tensor<1xbf16>, tensor<1xbf16>, tensor<1xbf16>, tensor<1xbf16>, tensor<1xbf16>, tensor<1xbf16>, tensor<1xbf16>, tensor<1xbf16>, tensor<1xbf16>, tensor<1xbf16>, tensor<1xbf16>, tensor<1xbf16>, tensor<1xbf16>, tensor<1xbf16>, tensor<1xbf16>, tensor<1xbf16>, tensor<1xbf16>, tensor<1xbf16>, tensor<1xbf16>, tensor<1xbf16>, tensor<1xbf16>, tensor<1xbf16>, tensor<1xbf16>, tensor<1xbf16>, tensor<1xbf16>, tensor<1xbf16>, tensor<1xbf16>, tensor<1xbf16>, tensor<1xbf16>, tensor<1xbf16>, tensor<1xbf16>, tensor<1xbf16>, tensor<1xbf16>, tensor<1xbf16>, tensor<1xbf16>, tensor<1xbf16>, tensor<1xbf16>, tensor<1xbf16>, tensor<1xbf16>, tensor<1xbf16>, tensor<1xbf16>, tensor<1xbf16>, tensor<1xbf16>, tensor<1xbf16>, tensor<1xbf16>, tensor<1xbf16>, tensor<1xbf16>, tensor<1xbf16>, tensor<1xbf16>, tensor<1xbf16>, tensor<1xbf16>, tensor<1xbf16>, tensor<1xbf16>, tensor<1xbf16>, tensor<1xbf16>, tensor<1xbf16>, tensor<1xbf16>, tensor<1xbf16>, tensor<1xbf16>, tensor<1xbf16>, tensor<1xbf16>, tensor<1xbf16>, tensor<1xbf16>, tensor<1xbf16>, tensor<1xbf16>, tensor<1xbf16>, tensor<1xbf16>, tensor<1xbf16>, tensor<1xbf16>, tensor<1xbf16>, tensor<1xbf16>, tensor<1xbf16>, tensor<1xbf16>, tensor<1xbf16>, tensor<1xbf16>, tensor<1xbf16>, tensor<1xbf16>, tensor<1xbf16>, tensor<1xbf16>, tensor<1xbf16>, tensor<1xbf16>, tensor<1xbf16>, tensor<1xbf16>, tensor<1xbf16>, tensor<1xbf16>, tensor<1xbf16>, tensor<1xbf16>, tensor<1xbf16>, tensor<1xbf16>, tensor<1xbf16>, tensor<1xbf16>, tensor<1xbf16>, tensor<1xbf16>, tensor<1xbf16>, tensor<1xbf16>, tensor<1xbf16>, tensor<1xbf16>, tensor<1xbf16>) -> tensor<100xbf16> loc(#loc4)
    return %2 : tensor<100xbf16> loc(#loc)
  } loc(#loc)
} loc(#loc)
#loc = loc(unknown)
#loc2 = loc("reshape.2")
#loc3 = loc("reshape.4")
#loc4 = loc("concatenate.5")
------------------ END OF MLIR MODULE ------------------
2026-03-14 18:31:23.432 (   0.919s) [        DC95F000]      module_builder.cc:323      1| SHLO compiler pipeline run completed - is using shardy output shardings: 0
2026-03-14 18:31:23.432 (   0.919s) [        DC95F000]      module_builder.cc:1190     1| MLIR Module shlo_compiler_cleaned:
#loc = loc(unknown)
module @SyncTensorsGraph.7 attributes {mhlo.cross_program_prefetches = [], mhlo.input_output_alias = [], mhlo.is_dynamic = false, mhlo.use_auto_spmd_partitioning = false} {
  func.func @main(%arg0: tensor<1xbf16> loc(unknown)) -> tensor<100xbf16> {
    %0 = stablehlo.reshape %arg0 : (tensor<1xbf16>) -> tensor<1x1x1xbf16> loc(#loc)
    %1 = stablehlo.reshape %0 : (tensor<1x1x1xbf16>) -> tensor<1xbf16> loc(#loc)
    %2 = stablehlo.concatenate %1, %1, %1, %1, %1, %1, %1, %1, %1, %1, %1, %1, %1, %1, %1, %1, %1, %1, %1, %1, %1, %1, %1, %1, %1, %1, %1, %1, %1, %1, %1, %1, %1, %1, %1, %1, %1, %1, %1, %1, %1, %1, %1, %1, %1, %1, %1, %1, %1, %1, %1, %1, %1, %1, %1, %1, %1, %1, %1, %1, %1, %1, %1, %1, %1, %1, %1, %1, %1, %1, %1, %1, %1, %1, %1, %1, %1, %1, %1, %1, %1, %1, %1, %1, %1, %1, %1, %1, %1, %1, %1, %1, %1, %1, %1, %1, %1, %1, %1, %1, dim = 0 : (tensor<1xbf16>, tensor<1xbf16>, tensor<1xbf16>, tensor<1xbf16>, tensor<1xbf16>, tensor<1xbf16>, tensor<1xbf16>, tensor<1xbf16>, tensor<1xbf16>, tensor<1xbf16>, tensor<1xbf16>, tensor<1xbf16>, tensor<1xbf16>, tensor<1xbf16>, tensor<1xbf16>, tensor<1xbf16>, tensor<1xbf16>, tensor<1xbf16>, tensor<1xbf16>, tensor<1xbf16>, tensor<1xbf16>, tensor<1xbf16>, tensor<1xbf16>, tensor<1xbf16>, tensor<1xbf16>, tensor<1xbf16>, tensor<1xbf16>, tensor<1xbf16>, tensor<1xbf16>, tensor<1xbf16>, tensor<1xbf16>, tensor<1xbf16>, tensor<1xbf16>, tensor<1xbf16>, tensor<1xbf16>, tensor<1xbf16>, tensor<1xbf16>, tensor<1xbf16>, tensor<1xbf16>, tensor<1xbf16>, tensor<1xbf16>, tensor<1xbf16>, tensor<1xbf16>, tensor<1xbf16>, tensor<1xbf16>, tensor<1xbf16>, tensor<1xbf16>, tensor<1xbf16>, tensor<1xbf16>, tensor<1xbf16>, tensor<1xbf16>, tensor<1xbf16>, tensor<1xbf16>, tensor<1xbf16>, tensor<1xbf16>, tensor<1xbf16>, tensor<1xbf16>, tensor<1xbf16>, tensor<1xbf16>, tensor<1xbf16>, tensor<1xbf16>, tensor<1xbf16>, tensor<1xbf16>, tensor<1xbf16>, tensor<1xbf16>, tensor<1xbf16>, tensor<1xbf16>, tensor<1xbf16>, tensor<1xbf16>, tensor<1xbf16>, tensor<1xbf16>, tensor<1xbf16>, tensor<1xbf16>, tensor<1xbf16>, tensor<1xbf16>, tensor<1xbf16>, tensor<1xbf16>, tensor<1xbf16>, tensor<1xbf16>, tensor<1xbf16>, tensor<1xbf16>, tensor<1xbf16>, tensor<1xbf16>, tensor<1xbf16>, tensor<1xbf16>, tensor<1xbf16>, tensor<1xbf16>, tensor<1xbf16>, tensor<1xbf16>, tensor<1xbf16>, tensor<1xbf16>, tensor<1xbf16>, tensor<1xbf16>, tensor<1xbf16>, tensor<1xbf16>, tensor<1xbf16>, tensor<1xbf16>, tensor<1xbf16>, tensor<1xbf16>, tensor<1xbf16>) -> tensor<100xbf16> loc(#loc)
    return %2 : tensor<100xbf16> loc(#loc)
  } loc(#loc)
} loc(#loc)
------------------ END OF MLIR MODULE ------------------
2026-03-14 18:31:23.435 (   0.921s) [        DC95F000]      module_builder.cc:1190     1| MLIR Module ttir:
#loc1 = loc("p0.1")
module @SyncTensorsGraph.7 attributes {mhlo.cross_program_prefetches = [], mhlo.input_output_alias = [], mhlo.is_dynamic = false, mhlo.use_auto_spmd_partitioning = false, ttcore.meshes = #ttcore.meshes<[<"mesh" = 1x1>]>} {
  ttcore.device_module {
    builtin.module @SyncTensorsGraph.7 attributes {mhlo.cross_program_prefetches = [], mhlo.input_output_alias = [], mhlo.is_dynamic = false, mhlo.use_auto_spmd_partitioning = false, ttcore.meshes = #ttcore.meshes<[<"mesh" = 1x1>]>} {
      func.func @main(%arg0: tensor<1xbf16> {ttcore.argument_type = #ttcore.argument_type<input>, ttcore.local_shape = #ttcore<local_shape local_shape = tensor<1xbf16>>, ttcore.shard_status = #ttcore.shard_status<unsharded>, ttir.name = "args_0"} loc("p0.1")) -> (tensor<100xbf16> {ttcore.local_shape = #ttcore<local_shape local_shape = tensor<100xbf16>>, ttcore.shard_status = #ttcore.shard_status<presharded>}) {
        %0 = "ttir.reshape"(%arg0) <{shape = [1 : i32, 1 : i32, 1 : i32]}> : (tensor<1xbf16>) -> tensor<1x1x1xbf16> loc(#loc2)
        %1 = "ttir.reshape"(%0) <{shape = [1 : i32]}> : (tensor<1x1x1xbf16>) -> tensor<1xbf16> loc(#loc3)
        %2 = "ttir.concat"(%1, %1, %1, %1, %1, %1, %1, %1, %1, %1, %1, %1, %1, %1, %1, %1, %1, %1, %1, %1, %1, %1, %1, %1, %1, %1, %1, %1, %1, %1, %1, %1, %1, %1, %1, %1, %1, %1, %1, %1, %1, %1, %1, %1, %1, %1, %1, %1, %1, %1, %1, %1, %1, %1, %1, %1, %1, %1, %1, %1, %1, %1, %1, %1, %1, %1, %1, %1, %1, %1, %1, %1, %1, %1, %1, %1, %1, %1, %1, %1, %1, %1, %1, %1, %1, %1, %1, %1, %1, %1, %1, %1, %1, %1, %1, %1, %1, %1, %1, %1) <{dim = 0 : si32}> : (tensor<1xbf16>, tensor<1xbf16>, tensor<1xbf16>, tensor<1xbf16>, tensor<1xbf16>, tensor<1xbf16>, tensor<1xbf16>, tensor<1xbf16>, tensor<1xbf16>, tensor<1xbf16>, tensor<1xbf16>, tensor<1xbf16>, tensor<1xbf16>, tensor<1xbf16>, tensor<1xbf16>, tensor<1xbf16>, tensor<1xbf16>, tensor<1xbf16>, tensor<1xbf16>, tensor<1xbf16>, tensor<1xbf16>, tensor<1xbf16>, tensor<1xbf16>, tensor<1xbf16>, tensor<1xbf16>, tensor<1xbf16>, tensor<1xbf16>, tensor<1xbf16>, tensor<1xbf16>, tensor<1xbf16>, tensor<1xbf16>, tensor<1xbf16>, tensor<1xbf16>, tensor<1xbf16>, tensor<1xbf16>, tensor<1xbf16>, tensor<1xbf16>, tensor<1xbf16>, tensor<1xbf16>, tensor<1xbf16>, tensor<1xbf16>, tensor<1xbf16>, tensor<1xbf16>, tensor<1xbf16>, tensor<1xbf16>, tensor<1xbf16>, tensor<1xbf16>, tensor<1xbf16>, tensor<1xbf16>, tensor<1xbf16>, tensor<1xbf16>, tensor<1xbf16>, tensor<1xbf16>, tensor<1xbf16>, tensor<1xbf16>, tensor<1xbf16>, tensor<1xbf16>, tensor<1xbf16>, tensor<1xbf16>, tensor<1xbf16>, tensor<1xbf16>, tensor<1xbf16>, tensor<1xbf16>, tensor<1xbf16>, tensor<1xbf16>, tensor<1xbf16>, tensor<1xbf16>, tensor<1xbf16>, tensor<1xbf16>, tensor<1xbf16>, tensor<1xbf16>, tensor<1xbf16>, tensor<1xbf16>, tensor<1xbf16>, tensor<1xbf16>, tensor<1xbf16>, tensor<1xbf16>, tensor<1xbf16>, tensor<1xbf16>, tensor<1xbf16>, tensor<1xbf16>, tensor<1xbf16>, tensor<1xbf16>, tensor<1xbf16>, tensor<1xbf16>, tensor<1xbf16>, tensor<1xbf16>, tensor<1xbf16>, tensor<1xbf16>, tensor<1xbf16>, tensor<1xbf16>, tensor<1xbf16>, tensor<1xbf16>, tensor<1xbf16>, tensor<1xbf16>, tensor<1xbf16>, tensor<1xbf16>, tensor<1xbf16>, tensor<1xbf16>, tensor<1xbf16>) -> tensor<100xbf16> loc(#loc4)
        return %2 : tensor<100xbf16> loc(#loc)
      } loc(#loc)
    } loc(#loc)
  } loc(#loc)
} loc(#loc)
#loc = loc(unknown)
#loc2 = loc("reshape.2")
#loc3 = loc("reshape.4")
#loc4 = loc("concatenate.5")
------------------ END OF MLIR MODULE ------------------
2026-03-14 18:31:23.436 (   0.923s) [        DC95F000]      module_builder.cc:915   WARN| `mhlo.num_partitions` attribute not found, assuming default number of partitions: 1
2026-03-14 18:31:23.436 (   0.923s) [        DC95F000]      module_builder.cc:929   WARN| `mhlo.num_replicas` attribute not found, assuming default number of replicas: 1
2026-03-14 18:31:23.436 (   0.923s) [        DC95F000]      module_builder.cc:939   WARN| Num replicas and num partitions are not set, inferring the number of devices from mesh shape
2026-03-14 18:31:23.453 (   0.940s) [        DC95F000]      module_builder.cc:1190     1| MLIR Module ttnn:
#dram = #ttnn.buffer_type<dram>
#loc1 = loc("p0.1")
#system_desc = #ttcore.system_desc<[{role = host, target_triple = "x86_64-pc-linux"}], [{arch = <wormhole_b0>, grid = 8x8, coord_translation_offsets = 18x18, l1_size = 1499136, num_dram_channels = 12, dram_channel_size = 1073741824, noc_l1_address_align_bytes = 16, pcie_address_align_bytes = 32, noc_dram_address_align_bytes = 32, l1_unreserved_base = 103712, erisc_l1_unreserved_base = 98304, dram_unreserved_base = 1920032, dram_unreserved_end = 1073119552, supported_data_types = [<f32>, <f16>, <bf16>, <bfp_f8>, <bfp_bf8>, <bfp_f4>, <bfp_bf4>, <bfp_f2>, <bfp_bf2>, <u32>, <u16>, <u8>, <si32>], supported_tile_sizes = [ 4x16,  16x16,  32x16,  4x32,  16x32,  32x32], dst_physical_size_tiles = 16, num_cbs = 64, num_compute_threads = 1, num_datamovement_threads = 2}], [0], [1 : i32], [ 0x0x0x0]>
#ttnn_layout = #ttnn.ttnn_layout<(d0) -> (0, d0), <1x1>, memref<1x1xbf16, #dram>, <interleaved>>
#ttnn_layout1 = #ttnn.ttnn_layout<(d0) -> (0, d0), <1x1>, memref<1x4x!ttcore.tile<32x32, bf16>, #dram>, <interleaved>>
#ttnn_layout2 = #ttnn.ttnn_layout<(d0) -> (0, d0), <1x1>, memref<1x1x!ttcore.tile<32x32, bf16>, #dram>, <interleaved>>
module @SyncTensorsGraph.7 attributes {mhlo.cross_program_prefetches = [], mhlo.input_output_alias = [], mhlo.is_dynamic = false, mhlo.use_auto_spmd_partitioning = false, ttcore.meshes = #ttcore.meshes<[<"mesh" = 1x1>]>} {
  ttcore.device_module {
    builtin.module @SyncTensorsGraph.7 attributes {mhlo.cross_program_prefetches = [], mhlo.input_output_alias = [], mhlo.is_dynamic = false, mhlo.use_auto_spmd_partitioning = false, ttcore.meshes = #ttcore.meshes<[<"mesh" = 1x1>]>, ttcore.system_desc = #system_desc} {
      ttcore.device @default_device = <workerGrid = #ttcore.grid<8x8, (d0, d1) -> (0, d0, d1)>, l1Map = (d0, d1, d2)[s0] -> (0, d0, d1, d2 + s0), dramMap = (d0, d1, d2)[s0, s1, s2, s3, s4, s5, s6] -> (0, 0, (((d0 * s1) * (s2 * (s3 * s6)) + d1 * (s2 * (s3 * s6)) + d2) floordiv s4) mod 12, ((((d0 * s1) * (s2 * (s3 * s6)) + d1 * (s2 * (s3 * s6)) + d2) floordiv s4) floordiv 12) * s4 + ((d0 * s1) * (s2 * (s3 * s6)) + d1 * (s2 * (s3 * s6)) + d2) mod s4 + s5), meshShape = 1x1, chipIds = [0]> loc(#loc)
      func.func @main(%arg0: tensor<1xbf16, #ttnn_layout> {ttcore.argument_type = #ttcore.argument_type<input>, ttcore.local_shape = #ttcore<local_shape local_shape = tensor<1xbf16>>, ttcore.shard_status = #ttcore.shard_status<unsharded>, ttir.name = "args_0"} loc("p0.1")) -> (tensor<100xbf16, #ttnn_layout1> {ttcore.local_shape = #ttcore<local_shape local_shape = tensor<100xbf16>>, ttcore.shard_status = #ttcore.shard_status<presharded>}) attributes {tt.function_type = "forward_device"} {
        %0 = "ttnn.to_layout"(%arg0) <{layout = #ttnn.layout<tile>}> : (tensor<1xbf16, #ttnn_layout>) -> tensor<1xbf16, #ttnn_layout2> loc(#loc2)
        "ttnn.deallocate"(%arg0) <{force = false}> : (tensor<1xbf16, #ttnn_layout>) -> () loc(#loc2)
        %1 = "ttnn.concat"(%0, %0, %0, %0, %0, %0, %0, %0, %0, %0, %0, %0, %0, %0, %0, %0, %0, %0, %0, %0, %0, %0, %0, %0, %0, %0, %0, %0, %0, %0, %0, %0, %0, %0, %0, %0, %0, %0, %0, %0, %0, %0, %0, %0, %0, %0, %0, %0, %0, %0, %0, %0, %0, %0, %0, %0, %0, %0, %0, %0, %0, %0, %0, %0, %0, %0, %0, %0, %0, %0, %0, %0, %0, %0, %0, %0, %0, %0, %0, %0, %0, %0, %0, %0, %0, %0, %0, %0, %0, %0, %0, %0, %0, %0, %0, %0, %0, %0, %0, %0) <{dim = 0 : si32}> : (tensor<1xbf16, #ttnn_layout2>, tensor<1xbf16, #ttnn_layout2>, tensor<1xbf16, #ttnn_layout2>, tensor<1xbf16, #ttnn_layout2>, tensor<1xbf16, #ttnn_layout2>, tensor<1xbf16, #ttnn_layout2>, tensor<1xbf16, #ttnn_layout2>, tensor<1xbf16, #ttnn_layout2>, tensor<1xbf16, #ttnn_layout2>, tensor<1xbf16, #ttnn_layout2>, tensor<1xbf16, #ttnn_layout2>, tensor<1xbf16, #ttnn_layout2>, tensor<1xbf16, #ttnn_layout2>, tensor<1xbf16, #ttnn_layout2>, tensor<1xbf16, #ttnn_layout2>, tensor<1xbf16, #ttnn_layout2>, tensor<1xbf16, #ttnn_layout2>, tensor<1xbf16, #ttnn_layout2>, tensor<1xbf16, #ttnn_layout2>, tensor<1xbf16, #ttnn_layout2>, tensor<1xbf16, #ttnn_layout2>, tensor<1xbf16, #ttnn_layout2>, tensor<1xbf16, #ttnn_layout2>, tensor<1xbf16, #ttnn_layout2>, tensor<1xbf16, #ttnn_layout2>, tensor<1xbf16, #ttnn_layout2>, tensor<1xbf16, #ttnn_layout2>, tensor<1xbf16, #ttnn_layout2>, tensor<1xbf16, #ttnn_layout2>, tensor<1xbf16, #ttnn_layout2>, tensor<1xbf16, #ttnn_layout2>, tensor<1xbf16, #ttnn_layout2>, tensor<1xbf16, #ttnn_layout2>, tensor<1xbf16, #ttnn_layout2>, tensor<1xbf16, #ttnn_layout2>, tensor<1xbf16, #ttnn_layout2>, tensor<1xbf16, #ttnn_layout2>, tensor<1xbf16, #ttnn_layout2>, tensor<1xbf16, #ttnn_layout2>, tensor<1xbf16, #ttnn_layout2>, tensor<1xbf16, #ttnn_layout2>, tensor<1xbf16, #ttnn_layout2>, tensor<1xbf16, #ttnn_layout2>, tensor<1xbf16, #ttnn_layout2>, tensor<1xbf16, #ttnn_layout2>, tensor<1xbf16, #ttnn_layout2>, tensor<1xbf16, #ttnn_layout2>, tensor<1xbf16, #ttnn_layout2>, tensor<1xbf16, #ttnn_layout2>, tensor<1xbf16, #ttnn_layout2>, tensor<1xbf16, #ttnn_layout2>, tensor<1xbf16, #ttnn_layout2>, tensor<1xbf16, #ttnn_layout2>, tensor<1xbf16, #ttnn_layout2>, tensor<1xbf16, #ttnn_layout2>, tensor<1xbf16, #ttnn_layout2>, tensor<1xbf16, #ttnn_layout2>, tensor<1xbf16, #ttnn_layout2>, tensor<1xbf16, #ttnn_layout2>, tensor<1xbf16, #ttnn_layout2>, tensor<1xbf16, #ttnn_layout2>, tensor<1xbf16, #ttnn_layout2>, tensor<1xbf16, #ttnn_layout2>, tensor<1xbf16, #ttnn_layout2>, tensor<1xbf16, #ttnn_layout2>, tensor<1xbf16, #ttnn_layout2>, tensor<1xbf16, #ttnn_layout2>, tensor<1xbf16, #ttnn_layout2>, tensor<1xbf16, #ttnn_layout2>, tensor<1xbf16, #ttnn_layout2>, tensor<1xbf16, #ttnn_layout2>, tensor<1xbf16, #ttnn_layout2>, tensor<1xbf16, #ttnn_layout2>, tensor<1xbf16, #ttnn_layout2>, tensor<1xbf16, #ttnn_layout2>, tensor<1xbf16, #ttnn_layout2>, tensor<1xbf16, #ttnn_layout2>, tensor<1xbf16, #ttnn_layout2>, tensor<1xbf16, #ttnn_layout2>, tensor<1xbf16, #ttnn_layout2>, tensor<1xbf16, #ttnn_layout2>, tensor<1xbf16, #ttnn_layout2>, tensor<1xbf16, #ttnn_layout2>, tensor<1xbf16, #ttnn_layout2>, tensor<1xbf16, #ttnn_layout2>, tensor<1xbf16, #ttnn_layout2>, tensor<1xbf16, #ttnn_layout2>, tensor<1xbf16, #ttnn_layout2>, tensor<1xbf16, #ttnn_layout2>, tensor<1xbf16, #ttnn_layout2>, tensor<1xbf16, #ttnn_layout2>, tensor<1xbf16, #ttnn_layout2>, tensor<1xbf16, #ttnn_layout2>, tensor<1xbf16, #ttnn_layout2>, tensor<1xbf16, #ttnn_layout2>, tensor<1xbf16, #ttnn_layout2>, tensor<1xbf16, #ttnn_layout2>, tensor<1xbf16, #ttnn_layout2>, tensor<1xbf16, #ttnn_layout2>, tensor<1xbf16, #ttnn_layout2>) -> tensor<100xbf16, #ttnn_layout1> loc(#loc3)
        "ttnn.deallocate"(%0) <{force = false}> : (tensor<1xbf16, #ttnn_layout2>) -> () loc(#loc3)
        return %1 : tensor<100xbf16, #ttnn_layout1> loc(#loc)
      } loc(#loc)
    } loc(#loc)
  } loc(#loc)
} loc(#loc)
#loc = loc(unknown)
#loc2 = loc("concatenate.5_in_0_layout")
#loc3 = loc("concatenate.5")
------------------ END OF MLIR MODULE ------------------
2026-03-14 18:31:23.458 (   0.945s) [        DC95F000]loaded_executable_insta:261      1| LoadedExecutableInstance::PJRT_LoadedExecutable_GetExecutable
2026-03-14 18:31:23.458 (   0.945s) [        DC95F000]loaded_executable_insta:281      1| LoadedExecutableInstance::PJRT_LoadedExecutable_AddressableDevices
2026-03-14 18:31:23.458 (   0.945s) [        DC95F000]              stubs.inc:80    WARN| STUB: PJRT_Executable_GetCompiledMemoryStats
2026-03-14 18:31:23.458 (   0.945s) [        DC95F000]      error_instance.cc:52       1| ErrorInstance::PJRT_Error_Message
2026-03-14 18:31:23.458 (   0.945s) [        DC95F000]      error_instance.cc:61       1| ErrorInstance::PJRT_Error_GetCode
2026-03-14 18:31:23.458 (   0.945s) [        DC95F000]      error_instance.cc:46       1| ErrorInstance::PJRT_Error_Destroy
2026-03-14 18:31:23.458 (   0.945s) [        DC95F000] executable_instance.cc:116      1| ExecutableInstance::PJRT_Executable_OptimizedProgram
2026-03-14 18:31:23.458 (   0.945s) [        DC95F000] executable_instance.cc:116      1| ExecutableInstance::PJRT_Executable_OptimizedProgram
2026-03-14 18:31:23.462 (   0.949s) [        DC95F000] executable_instance.cc:116      1| ExecutableInstance::PJRT_Executable_OptimizedProgram
2026-03-14 18:31:23.462 (   0.949s) [        DC95F000] executable_instance.cc:116      1| ExecutableInstance::PJRT_Executable_OptimizedProgram
2026-03-14 18:31:23.464 (   0.951s) [        DC95F000] executable_instance.cc:254      1| ExecutableInstance::PJRT_Executable_Serialize
2026-03-14 18:31:23.465 (   0.952s) [        DC95F000]     buffer_instance.cc:514      1| BufferInstance::PJRT_Buffer_IsDeleted
2026-03-14 18:31:23.478 (   0.965s) [        C37FE640]     device_instance.cc:58       1| DeviceInstance::PJRT_Device_IsAddressable
2026-03-14 18:31:23.478 (   0.965s) [        C37FE640]     buffer_instance.cc:572      1| BufferInstance::PJRT_Buffer_Device
2026-03-14 18:31:23.478 (   0.965s) [        C37FE640] executable_instance.cc:154      1| ExecutableInstance::PJRT_Executable_NumOutputs
2026-03-14 18:31:23.478 (   0.965s) [        C37FE640]loaded_executable_insta:320      1| LoadedExecutableInstance::PJRT_LoadedExecutable_Execute
2026-03-14 18:31:23.478 (   0.965s) [        C37FE640]flatbuffer_loaded_execu:194      1| FlatbufferLoadedExecutableInstance::Execute
2026-03-14 18:31:23.478 (   0.965s) [        C37FE640]     client_instance.cc:472      1| ClientInstance::getOrCreateMeshDevice - reusing already opened mesh device [1, 1]
[32m            RuntimeTTNN[0m | [1m[38;5;240m   DEBUG[0m | Starting execution of program: main
[32m            RuntimeTTNN[0m | [1m[38;5;240m   DEBUG[0m | Executing operation: %0 = "ttnn.to_layout"(%arg0) <{layout = #ttnn.layout<tile>}> : (tensor<1xbf16, #ttnn.ttnn_layout<(d0) -> (0, d0), <1x1>, memref<1x1xbf16, #ttnn.buffer_type<dram>>, <interleaved>>>) -> tensor<1xbf16, #ttnn.ttnn_layout<(d0) -> (0, d0), <1x1>, memref<1x1x!ttcore.tile<32x32, bf16>, #ttnn.buffer_type<dram>>, <interleaved>>> loc("concatenate.5_in_0_layout")
[32m            RuntimeTTNN[0m | [1m[38;5;240m   DEBUG[0m | Executing operation: "ttnn.deallocate"(%arg0) <{force = false}> : (tensor<1xbf16, #ttnn.ttnn_layout<(d0) -> (0, d0), <1x1>, memref<1x1xbf16, #ttnn.buffer_type<dram>>, <interleaved>>>) -> () loc("concatenate.5_in_0_layout")
[32m                 Always[0m | [1m[38;5;240m   DEBUG[0m | Tensor is retained thus not deallocating. To deallocate, set retain to false first
[32m            RuntimeTTNN[0m | [1m[38;5;240m   DEBUG[0m | Executing operation: %1 = "ttnn.concat"(%0, %0, %0, %0, %0, %0, %0, %0, %0, %0, %0, %0, %0, %0, %0, %0, %0, %0, %0, %0, %0, %0, %0, %0, %0, %0, %0, %0, %0, %0, %0, %0, %0, %0, %0, %0, %0, %0, %0, %0, %0, %0, %0, %0, %0, %0, %0, %0, %0, %0, %0, %0, %0, %0, %0, %0, %0, %0, %0, %0, %0, %0, %0, %0, %0, %0, %0, %0, %0, %0, %0, %0, %0, %0, %0, %0, %0, %0, %0, %0, %0, %0, %0, %0, %0, %0, %0, %0, %0, %0, %0, %0, %0, %0, %0, %0, %0, %0, %0, %0) <{dim = 0 : si32}> : (tensor<1xbf16, #ttnn.ttnn_layout<(d0) -> (0, d0), <1x1>, memref<1x1x!ttcore.tile<32x32, bf16>, #ttnn.buffer_type<dram>>, <interleaved>>>, tensor<1xbf16, #ttnn.ttnn_layout<(d0) -> (0, d0), <1x1>, memref<1x1x!ttcore.tile<32x32, bf16>, #ttnn.buffer_type<dram>>, <interleaved>>>, tensor<1xbf16, #ttnn.ttnn_layout<(d0) -> (0, d0), <1x1>, memref<1x1x!ttcore.tile<32x32, bf16>, #ttnn.buffer_type<dram>>, <interleaved>>>, tensor<1xbf16, #ttnn.ttnn_layout<(d0) -> (0, d0), <1x1>, memref<1x1x!ttcore.tile<32x32, bf16>, #ttnn.buffer_type<dram>>, <interleaved>>>, tensor<1xbf16, #ttnn.ttnn_layout<(d0) -> (0, d0), <1x1>, memref<1x1x!ttcore.tile<32x32, bf16>, #ttnn.buffer_type<dram>>, <interleaved>>>, tensor<1xbf16, #ttnn.ttnn_layout<(d0) -> (0, d0), <1x1>, memref<1x1x!ttcore.tile<32x32, bf16>, #ttnn.buffer_type<dram>>, <interleaved>>>, tensor<1xbf16, #ttnn.ttnn_layout<(d0) -> (0, d0), <1x1>, memref<1x1x!ttcore.tile<32x32, bf16>, #ttnn.buffer_type<dram>>, <interleaved>>>, tensor<1xbf16, #ttnn.ttnn_layout<(d0) -> (0, d0), <1x1>, memref<1x1x!ttcore.tile<32x32, bf16>, #ttnn.buffer_type<dram>>, <interleaved>>>, tensor<1xbf16, #ttnn.ttnn_layout<(d0) -> (0, d0), <1x1>, memref<1x1x!ttcore.tile<32x32, bf16>, #ttnn.buffer_type<dram>>, <interleaved>>>, tensor<1xbf16, #ttnn.ttnn_layout<(d0) -> (0, d0), <1x1>, memref<1x1x!ttcore.tile<32x32, bf16>, #ttnn.buffer_type<dram>>, <interleaved>>>, tensor<1xbf16, #ttnn.ttnn_layout<(d0) -> (0, d0), <1x1>, memref<1x1x!ttcore.tile<32x32, bf16>, #ttnn.buffer_type<dram>>, <interleaved>>>, tensor<1xbf16, #ttnn.ttnn_layout<(d0) -> (0, d0), <1x1>, memref<1x1x!ttcore.tile<32x32, bf16>, #ttnn.buffer_type<dram>>, <interleaved>>>, tensor<1xbf16, #ttnn.ttnn_layout<(d0) -> (0, d0), <1x1>, memref<1x1x!ttcore.tile<32x32, bf16>, #ttnn.buffer_type<dram>>, <interleaved>>>, tensor<1xbf16, #ttnn.ttnn_layout<(d0) -> (0, d0), <1x1>, memref<1x1x!ttcore.tile<32x32, bf16>, #ttnn.buffer_type<dram>>, <interleaved>>>, tensor<1xbf16, #ttnn.ttnn_layout<(d0) -> (0, d0), <1x1>, memref<1x1x!ttcore.tile<32x32, bf16>, #ttnn.buffer_type<dram>>, <interleaved>>>, tensor<1xbf16, #ttnn.ttnn_layout<(d0) -> (0, d0), <1x1>, memref<1x1x!ttcore.tile<32x32, bf16>, #ttnn.buffer_type<dram>>, <interleaved>>>, tensor<1xbf16, #ttnn.ttnn_layout<(d0) -> (0, d0), <1x1>, memref<1x1x!ttcore.tile<32x32, bf16>, #ttnn.buffer_type<dram>>, <interleaved>>>, tensor<1xbf16, #ttnn.ttnn_layout<(d0) -> (0, d0), <1x1>, memref<1x1x!ttcore.tile<32x32, bf16>, #ttnn.buffer_type<dram>>, <interleaved>>>, tensor<1xbf16, #ttnn.ttnn_layout<(d0) -> (0, d0), <1x1>, memref<1x1x!ttcore.tile<32x32, bf16>, #ttnn.buffer_type<dram>>, <interleaved>>>, tensor<1xbf16, #ttnn.ttnn_layout<(d0) -> (0, d0), <1x1>, memref<1x1x!ttcore.tile<32x32, bf16>, #ttnn.buffer_type<dram>>, <interleaved>>>, tensor<1xbf16, #ttnn.ttnn_layout<(d0) -> (0, d0), <1x1>, memref<1x1x!ttcore.tile<32x32, bf16>, #ttnn.buffer_type<dram>>, <interleaved>>>, tensor<1xbf16, #ttnn.ttnn_layout<(d0) -> (0, d0), <1x1>, memref<1x1x!ttcore.tile<32x32, bf16>, #ttnn.buffer_type<dram>>, <interleaved>>>, tensor<1xbf16, #ttnn.ttnn_layout<(d0) -> (0, d0), <1x1>, memref<1x1x!ttcore.tile<32x32, bf16>, #ttnn.buffer_type<dram>>, <interleaved>>>, tensor<1xbf16, #ttnn.ttnn_layout<(d0) -> (0, d0), <1x1>, memref<1x1x!ttcore.tile<32x32, bf16>, #ttnn.buffer_type<dram>>, <interleaved>>>, tensor<1xbf16, #ttnn.ttnn_layout<(d0) -> (0, d0), <1x1>, memref<1x1x!ttcore.tile<32x32, bf16>, #ttnn.buffer_type<dram>>, <interleaved>>>, tensor<1xbf16, #ttnn.ttnn_layout<(d0) -> (0, d0), <1x1>, memref<1x1x!ttcore.tile<32x32, bf16>, #ttnn.buffer_type<dram>>, <interleaved>>>, tensor<1xbf16, #ttnn.ttnn_layout<(d0) -> (0, d0), <1x1>, memref<1x1x!ttcore.tile<32x32, bf16>, #ttnn.buffer_type<dram>>, <interleaved>>>, tensor<1xbf16, #ttnn.ttnn_layout<(d0) -> (0, d0), <1x1>, memref<1x1x!ttcore.tile<32x32, bf16>, #ttnn.buffer_type<dram>>, <interleaved>>>, tensor<1xbf16, #ttnn.ttnn_layout<(d0) -> (0, d0), <1x1>, memref<1x1x!ttcore.tile<32x32, bf16>, #ttnn.buffer_type<dram>>, <interleaved>>>, tensor<1xbf16, #ttnn.ttnn_layout<(d0) -> (0, d0), <1x1>, memref<1x1x!ttcore.tile<32x32, bf16>, #ttnn.buffer_type<dram>>, <interleaved>>>, tensor<1xbf16, #ttnn.ttnn_layout<(d0) -> (0, d0), <1x1>, memref<1x1x!ttcore.tile<32x32, bf16>, #ttnn.buffer_type<dram>>, <interleaved>>>, tensor<1xbf16, #ttnn.ttnn_layout<(d0) -> (0, d0), <1x1>, memref<1x1x!ttcore.tile<32x32, bf16>, #ttnn.buffer_type<dram>>, <interleaved>>>, tensor<1xbf16, #ttnn.ttnn_layout<(d0) -> (0, d0), <1x1>, memref<1x1x!ttcore.tile<32x32, bf16>, #ttnn.buffer_type<dram>>, <interleaved>>>, tensor<1xbf16, #ttnn.ttnn_layout<(d0) -> (0, d0), <1x1>, memref<1x1x!ttcore.tile<32x32, bf16>, #ttnn.buffer_type<dram>>, <interleaved>>>, tensor<1xbf16, #ttnn.ttnn_layout<(d0) -> (0, d0), <1x1>, memref<1x1x!ttcore.tile<32x32, bf16>, #ttnn.buffer_type<dram>>, <interleaved>>>, tensor<1xbf16, #ttnn.ttnn_layout<(d0) -> (0, d0), <1x1>, memref<1x1x!ttcore.tile<32x32, bf16>, #ttnn.buffer_type<dram>>, <interleaved>>>, tensor<1xbf16, #ttnn.ttnn_layout<(d0) -> (0, d0), <1x1>, memref<1x1x!ttcore.tile<32x32, bf16>, #ttnn.buffer_type<dram>>, <interleaved>>>, tensor<1xbf16, #ttnn.ttnn_layout<(d0) -> (0, d0), <1x1>, memref<1x1x!ttcore.tile<32x32, bf16>, #ttnn.buffer_type<dram>>, <interleaved>>>, tensor<1xbf16, #ttnn.ttnn_layout<(d0) -> (0, d0), <1x1>, memref<1x1x!ttcore.tile<32x32, bf16>, #ttnn.buffer_type<dram>>, <interleaved>>>, tensor<1xbf16, #ttnn.ttnn_layout<(d0) -> (0, d0), <1x1>, memref<1x1x!ttcore.tile<32x32, bf16>, #ttnn.buffer_type<dram>>, <interleaved>>>, tensor<1xbf16, #ttnn.ttnn_layout<(d0) -> (0, d0), <1x1>, memref<1x1x!ttcore.tile<32x32, bf16>, #ttnn.buffer_type<dram>>, <interleaved>>>, tensor<1xbf16, #ttnn.ttnn_layout<(d0) -> (0, d0), <1x1>, memref<1x1x!ttcore.tile<32x32, bf16>, #ttnn.buffer_type<dram>>, <interleaved>>>, tensor<1xbf16, #ttnn.ttnn_layout<(d0) -> (0, d0), <1x1>, memref<1x1x!ttcore.tile<32x32, bf16>, #ttnn.buffer_type<dram>>, <interleaved>>>, tensor<1xbf16, #ttnn.ttnn_layout<(d0) -> (0, d0), <1x1>, memref<1x1x!ttcore.tile<32x32, bf16>, #ttnn.buffer_type<dram>>, <interleaved>>>, tensor<1xbf16, #ttnn.ttnn_layout<(d0) -> (0, d0), <1x1>, memref<1x1x!ttcore.tile<32x32, bf16>, #ttnn.buffer_type<dram>>, <interleaved>>>, tensor<1xbf16, #ttnn.ttnn_layout<(d0) -> (0, d0), <1x1>, memref<1x1x!ttcore.tile<32x32, bf16>, #ttnn.buffer_type<dram>>, <interleaved>>>, tensor<1xbf16, #ttnn.ttnn_layout<(d0) -> (0, d0), <1x1>, memref<1x1x!ttcore.tile<32x32, bf16>, #ttnn.buffer_type<dram>>, <interleaved>>>, tensor<1xbf16, #ttnn.ttnn_layout<(d0) -> (0, d0), <1x1>, memref<1x1x!ttcore.tile<32x32, bf16>, #ttnn.buffer_type<dram>>, <interleaved>>>, tensor<1xbf16, #ttnn.ttnn_layout<(d0) -> (0, d0), <1x1>, memref<1x1x!ttcore.tile<32x32, bf16>, #ttnn.buffer_type<dram>>, <interleaved>>>, tensor<1xbf16, #ttnn.ttnn_layout<(d0) -> (0, d0), <1x1>, memref<1x1x!ttcore.tile<32x32, bf16>, #ttnn.buffer_type<dram>>, <interleaved>>>, tensor<1xbf16, #ttnn.ttnn_layout<(d0) -> (0, d0), <1x1>, memref<1x1x!ttcore.tile<32x32, bf16>, #ttnn.buffer_type<dram>>, <interleaved>>>, tensor<1xbf16, #ttnn.ttnn_layout<(d0) -> (0, d0), <1x1>, memref<1x1x!ttcore.tile<32x32, bf16>, #ttnn.buffer_type<dram>>, <interleaved>>>, tensor<1xbf16, #ttnn.ttnn_layout<(d0) -> (0, d0), <1x1>, memref<1x1x!ttcore.tile<32x32, bf16>, #ttnn.buffer_type<dram>>, <interleaved>>>, tensor<1xbf16, #ttnn.ttnn_layout<(d0) -> (0, d0), <1x1>, memref<1x1x!ttcore.tile<32x32, bf16>, #ttnn.buffer_type<dram>>, <interleaved>>>, tensor<1xbf16, #ttnn.ttnn_layout<(d0) -> (0, d0), <1x1>, memref<1x1x!ttcore.tile<32x32, bf16>, #ttnn.buffer_type<dram>>, <interleaved>>>, tensor<1xbf16, #ttnn.ttnn_layout<(d0) -> (0, d0), <1x1>, memref<1x1x!ttcore.tile<32x32, bf16>, #ttnn.buffer_type<dram>>, <interleaved>>>, tensor<1xbf16, #ttnn.ttnn_layout<(d0) -> (0, d0), <1x1>, memref<1x1x!ttcore.tile<32x32, bf16>, #ttnn.buffer_type<dram>>, <interleaved>>>, tensor<1xbf16, #ttnn.ttnn_layout<(d0) -> (0, d0), <1x1>, memref<1x1x!ttcore.tile<32x32, bf16>, #ttnn.buffer_type<dram>>, <interleaved>>>, tensor<1xbf16, #ttnn.ttnn_layout<(d0) -> (0, d0), <1x1>, memref<1x1x!ttcore.tile<32x32, bf16>, #ttnn.buffer_type<dram>>, <interleaved>>>, tensor<1xbf16, #ttnn.ttnn_layout<(d0) -> (0, d0), <1x1>, memref<1x1x!ttcore.tile<32x32, bf16>, #ttnn.buffer_type<dram>>, <interleaved>>>, tensor<1xbf16, #ttnn.ttnn_layout<(d0) -> (0, d0), <1x1>, memref<1x1x!ttcore.tile<32x32, bf16>, #ttnn.buffer_type<dram>>, <interleaved>>>, tensor<1xbf16, #ttnn.ttnn_layout<(d0) -> (0, d0), <1x1>, memref<1x1x!ttcore.tile<32x32, bf16>, #ttnn.buffer_type<dram>>, <interleaved>>>, tensor<1xbf16, #ttnn.ttnn_layout<(d0) -> (0, d0), <1x1>, memref<1x1x!ttcore.tile<32x32, bf16>, #ttnn.buffer_type<dram>>, <interleaved>>>, tensor<1xbf16, #ttnn.ttnn_layout<(d0) -> (0, d0), <1x1>, memref<1x1x!ttcore.tile<32x32, bf16>, #ttnn.buffer_type<dram>>, <interleaved>>>, tensor<1xbf16, #ttnn.ttnn_layout<(d0) -> (0, d0), <1x1>, memref<1x1x!ttcore.tile<32x32, bf16>, #ttnn.buffer_type<dram>>, <interleaved>>>, tensor<1xbf16, #ttnn.ttnn_layout<(d0) -> (0, d0), <1x1>, memref<1x1x!ttcore.tile<32x32, bf16>, #ttnn.buffer_type<dram>>, <interleaved>>>, tensor<1xbf16, #ttnn.ttnn_layout<(d0) -> (0, d0), <1x1>, memref<1x1x!ttcore.tile<32x32, bf16>, #ttnn.buffer_type<dram>>, <interleaved>>>, tensor<1xbf16, #ttnn.ttnn_layout<(d0) -> (0, d0), <1x1>, memref<1x1x!ttcore.tile<32x32, bf16>, #ttnn.buffer_type<dram>>, <interleaved>>>, tensor<1xbf16, #ttnn.ttnn_layout<(d0) -> (0, d0), <1x1>, memref<1x1x!ttcore.tile<32x32, bf16>, #ttnn.buffer_type<dram>>, <interleaved>>>, tensor<1xbf16, #ttnn.ttnn_layout<(d0) -> (0, d0), <1x1>, memref<1x1x!ttcore.tile<32x32, bf16>, #ttnn.buffer_type<dram>>, <interleaved>>>, tensor<1xbf16, #ttnn.ttnn_layout<(d0) -> (0, d0), <1x1>, memref<1x1x!ttcore.tile<32x32, bf16>, #ttnn.buffer_type<dram>>, <interleaved>>>, tensor<1xbf16, #ttnn.ttnn_layout<(d0) -> (0, d0), <1x1>, memref<1x1x!ttcore.tile<32x32, bf16>, #ttnn.buffer_type<dram>>, <interleaved>>>, tensor<1xbf16, #ttnn.ttnn_layout<(d0) -> (0, d0), <1x1>, memref<1x1x!ttcore.tile<32x32, bf16>, #ttnn.buffer_type<dram>>, <interleaved>>>, tensor<1xbf16, #ttnn.ttnn_layout<(d0) -> (0, d0), <1x1>, memref<1x1x!ttcore.tile<32x32, bf16>, #ttnn.buffer_type<dram>>, <interleaved>>>, tensor<1xbf16, #ttnn.ttnn_layout<(d0) -> (0, d0), <1x1>, memref<1x1x!ttcore.tile<32x32, bf16>, #ttnn.buffer_type<dram>>, <interleaved>>>, tensor<1xbf16, #ttnn.ttnn_layout<(d0) -> (0, d0), <1x1>, memref<1x1x!ttcore.tile<32x32, bf16>, #ttnn.buffer_type<dram>>, <interleaved>>>, tensor<1xbf16, #ttnn.ttnn_layout<(d0) -> (0, d0), <1x1>, memref<1x1x!ttcore.tile<32x32, bf16>, #ttnn.buffer_type<dram>>, <interleaved>>>, tensor<1xbf16, #ttnn.ttnn_layout<(d0) -> (0, d0), <1x1>, memref<1x1x!ttcore.tile<32x32, bf16>, #ttnn.buffer_type<dram>>, <interleaved>>>, tensor<1xbf16, #ttnn.ttnn_layout<(d0) -> (0, d0), <1x1>, memref<1x1x!ttcore.tile<32x32, bf16>, #ttnn.buffer_type<dram>>, <interleaved>>>, tensor<1xbf16, #ttnn.ttnn_layout<(d0) -> (0, d0), <1x1>, memref<1x1x!ttcore.tile<32x32, bf16>, #ttnn.buffer_type<dram>>, <interleaved>>>, tensor<1xbf16, #ttnn.ttnn_layout<(d0) -> (0, d0), <1x1>, memref<1x1x!ttcore.tile<32x32, bf16>, #ttnn.buffer_type<dram>>, <interleaved>>>, tensor<1xbf16, #ttnn.ttnn_layout<(d0) -> (0, d0), <1x1>, memref<1x1x!ttcore.tile<32x32, bf16>, #ttnn.buffer_type<dram>>, <interleaved>>>, tensor<1xbf16, #ttnn.ttnn_layout<(d0) -> (0, d0), <1x1>, memref<1x1x!ttcore.tile<32x32, bf16>, #ttnn.buffer_type<dram>>, <interleaved>>>, tensor<1xbf16, #ttnn.ttnn_layout<(d0) -> (0, d0), <1x1>, memref<1x1x!ttcore.tile<32x32, bf16>, #ttnn.buffer_type<dram>>, <interleaved>>>, tensor<1xbf16, #ttnn.ttnn_layout<(d0) -> (0, d0), <1x1>, memref<1x1x!ttcore.tile<32x32, bf16>, #ttnn.buffer_type<dram>>, <interleaved>>>, tensor<1xbf16, #ttnn.ttnn_layout<(d0) -> (0, d0), <1x1>, memref<1x1x!ttcore.tile<32x32, bf16>, #ttnn.buffer_type<dram>>, <interleaved>>>, tensor<1xbf16, #ttnn.ttnn_layout<(d0) -> (0, d0), <1x1>, memref<1x1x!ttcore.tile<32x32, bf16>, #ttnn.buffer_type<dram>>, <interleaved>>>, tensor<1xbf16, #ttnn.ttnn_layout<(d0) -> (0, d0), <1x1>, memref<1x1x!ttcore.tile<32x32, bf16>, #ttnn.buffer_type<dram>>, <interleaved>>>, tensor<1xbf16, #ttnn.ttnn_layout<(d0) -> (0, d0), <1x1>, memref<1x1x!ttcore.tile<32x32, bf16>, #ttnn.buffer_type<dram>>, <interleaved>>>, tensor<1xbf16, #ttnn.ttnn_layout<(d0) -> (0, d0), <1x1>, memref<1x1x!ttcore.tile<32x32, bf16>, #ttnn.buffer_type<dram>>, <interleaved>>>, tensor<1xbf16, #ttnn.ttnn_layout<(d0) -> (0, d0), <1x1>, memref<1x1x!ttcore.tile<32x32, bf16>, #ttnn.buffer_type<dram>>, <interleaved>>>, tensor<1xbf16, #ttnn.ttnn_layout<(d0) -> (0, d0), <1x1>, memref<1x1x!ttcore.tile<32x32, bf16>, #ttnn.buffer_type<dram>>, <interleaved>>>, tensor<1xbf16, #ttnn.ttnn_layout<(d0) -> (0, d0), <1x1>, memref<1x1x!ttcore.tile<32x32, bf16>, #ttnn.buffer_type<dram>>, <interleaved>>>, tensor<1xbf16, #ttnn.ttnn_layout<(d0) -> (0, d0), <1x1>, memref<1x1x!ttcore.tile<32x32, bf16>, #ttnn.buffer_type<dram>>, <interleaved>>>, tensor<1xbf16, #ttnn.ttnn_layout<(d0) -> (0, d0), <1x1>, memref<1x1x!ttcore.tile<32x32, bf16>, #ttnn.buffer_type<dram>>, <interleaved>>>, tensor<1xbf16, #ttnn.ttnn_layout<(d0) -> (0, d0), <1x1>, memref<1x1x!ttcore.tile<32x32, bf16>, #ttnn.buffer_type<dram>>, <interleaved>>>, tensor<1xbf16, #ttnn.ttnn_layout<(d0) -> (0, d0), <1x1>, memref<1x1x!ttcore.tile<32x32, bf16>, #ttnn.buffer_type<dram>>, <interleaved>>>, tensor<1xbf16, #ttnn.ttnn_layout<(d0) -> (0, d0), <1x1>, memref<1x1x!ttcore.tile<32x32, bf16>, #ttnn.buffer_type<dram>>, <interleaved>>>, tensor<1xbf16, #ttnn.ttnn_layout<(d0) -> (0, d0), <1x1>, memref<1x1x!ttcore.tile<32x32, bf16>, #ttnn.buffer_type<dram>>, <interleaved>>>, tensor<1xbf16, #ttnn.ttnn_layout<(d0) -> (0, d0), <1x1>, memref<1x1x!ttcore.tile<32x32, bf16>, #ttnn.buffer_type<dram>>, <interleaved>>>) -> tensor<100xbf16, #ttnn.ttnn_layout<(d0) -> (0, d0), <1x1>, memref<1x4x!ttcore.tile<32x32, bf16>, #ttnn.buffer_type<dram>>, <interleaved>>> loc("concatenate.5")
[32m            RuntimeTTNN[0m | [1m[38;5;240m   DEBUG[0m | Executing operation: "ttnn.deallocate"(%0) <{force = false}> : (tensor<1xbf16, #ttnn.ttnn_layout<(d0) -> (0, d0), <1x1>, memref<1x1x!ttcore.tile<32x32, bf16>, #ttnn.buffer_type<dram>>, <interleaved>>>) -> () loc("concatenate.5")
[32m            RuntimeTTNN[0m | [1m[38;5;240m   DEBUG[0m | Finished execution of program: main
2026-03-14 18:31:29.648 (   7.135s) [        C37FE640]flatbuffer_loaded_execu:124      1| Filled output at output_index 0 device_index 0 with shape [100] and UID 1
2026-03-14 18:31:29.648 (   7.135s) [        C37FE640]      event_instance.cc:203      1| EventInstance::PJRT_Event_OnReady
2026-03-14 18:31:29.648 (   7.135s) [        C37FE640]      event_instance.cc:148      1| EventInstance::PJRT_Event_Destroy
2026-03-14 18:31:29.648 (   7.135s) [        C37FE640]     buffer_instance.cc:439      1| BufferInstance::PJRT_Buffer_Dimensions
2026-03-14 18:31:29.648 (   7.135s) [        C37FE640]     buffer_instance.cc:464      1| BufferInstance::PJRT_Buffer_DynamicDimensionIndices
2026-03-14 18:31:29.648 (   7.135s) [        C37FE640]     buffer_instance.cc:439      1| BufferInstance::PJRT_Buffer_Dimensions
2026-03-14 18:31:29.648 (   7.135s) [        C37FE640]     buffer_instance.cc:430      1| BufferInstance::PJRT_Buffer_ElementType
2026-03-14 18:31:29.648 (   7.135s) [        DC95F000]     buffer_instance.cc:514      1| BufferInstance::PJRT_Buffer_IsDeleted
2026-03-14 18:31:29.648 (   7.135s) [        DC95F000]     buffer_instance.cc:451      1| BufferInstance::PJRT_Buffer_UnpaddedDimensions
2026-03-14 18:31:29.648 (   7.135s) [        DC95F000]     buffer_instance.cc:430      1| BufferInstance::PJRT_Buffer_ElementType
2026-03-14 18:31:29.648 (   7.135s) [        DC95F000]     buffer_instance.cc:439      1| BufferInstance::PJRT_Buffer_Dimensions
2026-03-14 18:31:29.648 (   7.135s) [        DC95F000]     buffer_instance.cc:475      1| BufferInstance::PJRT_Buffer_ToHostBuffer
2026-03-14 18:31:29.649 (   7.135s) [        DC95F000]      event_instance.cc:203      1| EventInstance::PJRT_Event_OnReady
<KILLED BY GDB DUE TO HANG - run on n150>