WARNING:root:Defaulting to PJRT_DEVICE=CPU
2025-09-15 15:40:51.673 (   0.000s) [        F073E000]      dylib_platform.cc:47       1| DylibPlatform::SubclassInitialize
2025-09-15 15:40:51.675 (   0.002s) [        F073E000]     client_instance.cc:38       1| ClientInstance::ClientInstance
2025-09-15 15:40:51.676 (   0.002s) [        F073E000]              client.cc:18       1| TTClientInstance::TTClientInstance
2025-09-15 15:40:51.676 (   0.002s) [        F073E000]     client_instance.cc:59       1| ClientInstance::Initialize
[32m                 Always[0m | [1m[38;5;240m   DEBUG[0m | Device grid size = { 8, 8 }
2025-09-15 15:40:56.254 (   4.580s) [        F073E000]              stubs.inc:112   WARN| STUB: PJRT_Client_TopologyDescription
2025-09-15 15:40:56.254 (   4.580s) [        F073E000]      error_instance.cc:49       1| ErrorInstance::PJRT_Error_Message
2025-09-15 15:40:56.254 (   4.580s) [        F073E000]      error_instance.cc:58       1| ErrorInstance::PJRT_Error_GetCode
2025-09-15 15:40:56.254 (   4.580s) [        F073E000]      error_instance.cc:43       1| ErrorInstance::PJRT_Error_Destroy
2025-09-15 15:40:56.254 (   4.580s) [        F073E000]     client_instance.cc:340      1| ClientInstance::PJRT_Client_PlatformVersion
2025-09-15 15:40:56.254 (   4.580s) [        F073E000]     client_instance.cc:320      1| ClientInstance::PJRT_Client_PlatformName
2025-09-15 15:40:56.254 (   4.580s) [        F073E000]     client_instance.cc:352      1| ClientInstance::PJRT_Client_Devices
2025-09-15 15:40:56.254 (   4.580s) [        F073E000]     device_instance.cc:44       1| DeviceInstance::PJRT_Device_GetDescription
2025-09-15 15:40:56.254 (   4.580s) [        F073E000]  device_description.cc:63       1| DeviceDescription::PJRT_DeviceDescription_Attributes
2025-09-15 15:40:56.254 (   4.580s) [        F073E000]     device_instance.cc:44       1| DeviceInstance::PJRT_Device_GetDescription
2025-09-15 15:40:56.254 (   4.580s) [        F073E000]  device_description.cc:63       1| DeviceDescription::PJRT_DeviceDescription_Attributes
2025-09-15 15:40:56.254 (   4.580s) [        F073E000]     client_instance.cc:365      1| ClientInstance::PJRT_Client_AddressableDevices
2025-09-15 15:40:56.254 (   4.580s) [        F073E000]     client_instance.cc:415      1| ClientInstance::PJRT_Client_AddressableMemories
2025-09-15 15:40:56.254 (   4.580s) [        F073E000]     device_instance.cc:71       1| DeviceInstance::PJRT_Device_AddressableMemories
2025-09-15 15:40:56.254 (   4.580s) [        F073E000]     device_instance.cc:71       1| DeviceInstance::PJRT_Device_AddressableMemories
2025-09-15 15:40:56.254 (   4.580s) [        F073E000]     memory_instance.cc:124      1| MemoryInstance::PJRT_Memory_AddressableByDevices
2025-09-15 15:40:56.254 (   4.580s) [        F073E000]     memory_instance.cc:124      1| MemoryInstance::PJRT_Memory_AddressableByDevices
2025-09-15 15:40:56.254 (   4.580s) [        F073E000]     memory_instance.cc:124      1| MemoryInstance::PJRT_Memory_AddressableByDevices
2025-09-15 15:40:56.254 (   4.580s) [        F073E000]        api_bindings.cc:76       1| PJRT_Plugin_Attributes
2025-09-15 15:40:56.254663: W torch_xla/csrc/runtime/profiler.cpp:88] Profiler API not found for PJRT plugin
2025-09-15 15:40:56.254 (   4.581s) [        F073E000]  device_description.cc:44       1| DeviceDescription::PJRT_DeviceDescription_Id
2025-09-15 15:40:56.254 (   4.581s) [        F073E000]  device_description.cc:44       1| DeviceDescription::PJRT_DeviceDescription_Id
2025-09-15 15:40:56.254 (   4.581s) [        F073E000]  device_description.cc:44       1| DeviceDescription::PJRT_DeviceDescription_Id
2025-09-15 15:40:56.254 (   4.581s) [        F073E000]  device_description.cc:44       1| DeviceDescription::PJRT_DeviceDescription_Id
2025-09-15 15:40:56.254 (   4.581s) [        F073E000]  device_description.cc:44       1| DeviceDescription::PJRT_DeviceDescription_Id
2025-09-15 15:40:56.254 (   4.581s) [        F073E000]  device_description.cc:44       1| DeviceDescription::PJRT_DeviceDescription_Id
2025-09-15 15:40:56.254 (   4.581s) [        F073E000]  device_description.cc:99       1| DeviceDescription::PJRT_DeviceDescription_ToString
2025-09-15 15:40:56.254 (   4.581s) [        F073E000]  device_description.cc:99       1| DeviceDescription::PJRT_DeviceDescription_ToString
2025-09-15 15:40:56.254 (   4.581s) [        F073E000]  device_description.cc:44       1| DeviceDescription::PJRT_DeviceDescription_Id
2025-09-15 15:40:56.254 (   4.581s) [        F073E000]  device_description.cc:44       1| DeviceDescription::PJRT_DeviceDescription_Id
2025-09-15 15:40:56.254 (   4.581s) [        F073E000]  device_description.cc:44       1| DeviceDescription::PJRT_DeviceDescription_Id
2025-09-15 15:40:56.254 (   4.581s) [        F073E000]  device_description.cc:44       1| DeviceDescription::PJRT_DeviceDescription_Id
/localdev/jameszianxu/tt-xla/examples/pytorch/llama.py:68: DeprecationWarning: Use torch_xla.device instead
  device = xm.xla_device()
Using TT-Metal from the source tree: /localdev/jameszianxu/tt-xla/third_party/tt-mlir/src/tt-mlir/third_party/tt-metal/src/tt-metal
WARNING: TT plugin is setting XLA_STABLEHLO_COMPILE to 1. This is required for TT PJRT plugin to work correctly.
Setting up XLA environment...
XLA environment configured.
Created device mesh: (1, 2) with 2 devices
Loading checkpoint shards:   0%|          | 0/2 [00:00<?, ?it/s]Loading checkpoint shards: 100%|██████████| 2/2 [00:00<00:00, 51.34it/s]
2025-09-15 15:40:57.732 (   6.059s) [        F073E000]  device_description.cc:44       1| DeviceDescription::PJRT_DeviceDescription_Id
2025-09-15 15:40:57.732 (   6.059s) [        F073E000]  device_description.cc:44       1| DeviceDescription::PJRT_DeviceDescription_Id
2025-09-15 15:40:57.732 (   6.059s) [        F073E000]     device_instance.cc:82       1| DeviceInstance::PJRT_Device_DefaultMemory
2025-09-15 15:40:57.732 (   6.059s) [        F073E000]     client_instance.cc:466      1| ClientInstance::PJRT_Client_BufferFromHostBuffer
2025-09-15 15:40:57.732 (   6.059s) [        F073E000]     memory_instance.cc:57       1| MemoryInstance::getDevice
[32m                 Always[0m | [1m[38;5;208m WARNING[0m | User provided a tensor of data type: Int64 which is not supported by runtime/ttnn. Casting to: Int32, this may impact throughput and the integrity of the data.
2025-09-15 15:40:57.733 (   6.060s) [        F073E000]      event_instance.cc:222      1| EventInstance::PJRT_Event_OnReady
2025-09-15 15:40:57.733 (   6.060s) [        F073E000]      event_instance.cc:171      1| EventInstance::PJRT_Event_Destroy
2025-09-15 15:40:57.734 (   6.060s) [        F073E000]     device_instance.cc:82       1| DeviceInstance::PJRT_Device_DefaultMemory
2025-09-15 15:40:57.734 (   6.060s) [        F073E000]     client_instance.cc:466      1| ClientInstance::PJRT_Client_BufferFromHostBuffer
2025-09-15 15:40:57.734 (   6.060s) [        F073E000]     memory_instance.cc:57       1| MemoryInstance::getDevice
[32m                 Always[0m | [1m[38;5;208m WARNING[0m | User provided a tensor of data type: Int64 which is not supported by runtime/ttnn. Casting to: Int32, this may impact throughput and the integrity of the data.
2025-09-15 15:40:57.734 (   6.060s) [        F073E000]      event_instance.cc:222      1| EventInstance::PJRT_Event_OnReady
2025-09-15 15:40:57.734 (   6.060s) [        F073E000]      event_instance.cc:171      1| EventInstance::PJRT_Event_Destroy
2025-09-15 15:40:57.734 (   6.060s) [        F073E000]  device_description.cc:44       1| DeviceDescription::PJRT_DeviceDescription_Id
2025-09-15 15:40:57.734 (   6.060s) [        F073E000]  device_description.cc:44       1| DeviceDescription::PJRT_DeviceDescription_Id
2025-09-15 15:40:57.734 (   6.060s) [        F073E000]     device_instance.cc:82       1| DeviceInstance::PJRT_Device_DefaultMemory
2025-09-15 15:40:57.734 (   6.060s) [        F073E000]     client_instance.cc:466      1| ClientInstance::PJRT_Client_BufferFromHostBuffer
2025-09-15 15:40:57.734 (   6.060s) [        F073E000]     memory_instance.cc:57       1| MemoryInstance::getDevice
[32m                 Always[0m | [1m[38;5;208m WARNING[0m | User provided a tensor of data type: Int64 which is not supported by runtime/ttnn. Casting to: Int32, this may impact throughput and the integrity of the data.
2025-09-15 15:40:57.734 (   6.061s) [        F073E000]      event_instance.cc:222      1| EventInstance::PJRT_Event_OnReady
2025-09-15 15:40:57.734 (   6.061s) [        F073E000]      event_instance.cc:171      1| EventInstance::PJRT_Event_Destroy
2025-09-15 15:40:57.734 (   6.061s) [        F073E000]     device_instance.cc:82       1| DeviceInstance::PJRT_Device_DefaultMemory
2025-09-15 15:40:57.734 (   6.061s) [        F073E000]     client_instance.cc:466      1| ClientInstance::PJRT_Client_BufferFromHostBuffer
2025-09-15 15:40:57.734 (   6.061s) [        F073E000]     memory_instance.cc:57       1| MemoryInstance::getDevice
[32m                 Always[0m | [1m[38;5;208m WARNING[0m | User provided a tensor of data type: Int64 which is not supported by runtime/ttnn. Casting to: Int32, this may impact throughput and the integrity of the data.
2025-09-15 15:40:57.734 (   6.061s) [        F073E000]      event_instance.cc:222      1| EventInstance::PJRT_Event_OnReady
2025-09-15 15:40:57.734 (   6.061s) [        F073E000]      event_instance.cc:171      1| EventInstance::PJRT_Event_Destroy
2025-09-15 15:40:57.734 (   6.061s) [        F073E000]  device_description.cc:44       1| DeviceDescription::PJRT_DeviceDescription_Id
2025-09-15 15:40:57.735 (   6.061s) [        F073E000]  device_description.cc:44       1| DeviceDescription::PJRT_DeviceDescription_Id
2025-09-15 15:40:57.778 (   6.104s) [        F073E000]     device_instance.cc:82       1| DeviceInstance::PJRT_Device_DefaultMemory
2025-09-15 15:40:57.778 (   6.104s) [        F073E000]     client_instance.cc:466      1| ClientInstance::PJRT_Client_BufferFromHostBuffer
2025-09-15 15:40:57.778 (   6.104s) [        F073E000]     memory_instance.cc:57       1| MemoryInstance::getDevice
2025-09-15 15:40:57.778 (   6.105s) [        F073E000]      event_instance.cc:222      1| EventInstance::PJRT_Event_OnReady
2025-09-15 15:40:57.778 (   6.105s) [        F073E000]      event_instance.cc:171      1| EventInstance::PJRT_Event_Destroy
2025-09-15 15:40:57.778 (   6.105s) [        F073E000]     device_instance.cc:82       1| DeviceInstance::PJRT_Device_DefaultMemory
2025-09-15 15:40:57.778 (   6.105s) [        F073E000]     client_instance.cc:466      1| ClientInstance::PJRT_Client_BufferFromHostBuffer
2025-09-15 15:40:57.778 (   6.105s) [        F073E000]     memory_instance.cc:57       1| MemoryInstance::getDevice
2025-09-15 15:40:57.779 (   6.105s) [        F073E000]      event_instance.cc:222      1| EventInstance::PJRT_Event_OnReady
2025-09-15 15:40:57.779 (   6.105s) [        F073E000]      event_instance.cc:171      1| EventInstance::PJRT_Event_Destroy
2025-09-15 15:40:57.779 (   6.105s) [        F073E000]  device_description.cc:44       1| DeviceDescription::PJRT_DeviceDescription_Id
2025-09-15 15:40:57.779 (   6.105s) [        F073E000]  device_description.cc:44       1| DeviceDescription::PJRT_DeviceDescription_Id
2025-09-15 15:40:57.827 (   6.154s) [        F073E000]     device_instance.cc:82       1| DeviceInstance::PJRT_Device_DefaultMemory
2025-09-15 15:40:57.827 (   6.154s) [        F073E000]     client_instance.cc:466      1| ClientInstance::PJRT_Client_BufferFromHostBuffer
2025-09-15 15:40:57.827 (   6.154s) [        F073E000]     memory_instance.cc:57       1| MemoryInstance::getDevice
2025-09-15 15:40:57.828 (   6.154s) [        F073E000]      event_instance.cc:222      1| EventInstance::PJRT_Event_OnReady
2025-09-15 15:40:57.828 (   6.154s) [        F073E000]      event_instance.cc:171      1| EventInstance::PJRT_Event_Destroy
2025-09-15 15:40:57.828 (   6.154s) [        F073E000]     device_instance.cc:82       1| DeviceInstance::PJRT_Device_DefaultMemory
2025-09-15 15:40:57.828 (   6.154s) [        F073E000]     client_instance.cc:466      1| ClientInstance::PJRT_Client_BufferFromHostBuffer
2025-09-15 15:40:57.828 (   6.154s) [        F073E000]     memory_instance.cc:57       1| MemoryInstance::getDevice
2025-09-15 15:40:57.828 (   6.154s) [        F073E000]      event_instance.cc:222      1| EventInstance::PJRT_Event_OnReady
2025-09-15 15:40:57.828 (   6.154s) [        F073E000]      event_instance.cc:171      1| EventInstance::PJRT_Event_Destroy
2025-09-15 15:40:58.617 (   6.944s) [        F073E000]  device_description.cc:44       1| DeviceDescription::PJRT_DeviceDescription_Id
2025-09-15 15:40:58.617 (   6.944s) [        F073E000]  device_description.cc:44       1| DeviceDescription::PJRT_DeviceDescription_Id
2025-09-15 15:40:58.623 (   6.950s) [        F073E000]     device_instance.cc:82       1| DeviceInstance::PJRT_Device_DefaultMemory
2025-09-15 15:40:58.623 (   6.950s) [        F073E000]     client_instance.cc:466      1| ClientInstance::PJRT_Client_BufferFromHostBuffer
2025-09-15 15:40:58.623 (   6.950s) [        F073E000]     memory_instance.cc:57       1| MemoryInstance::getDevice
2025-09-15 15:40:58.624 (   6.950s) [        F073E000]      event_instance.cc:222      1| EventInstance::PJRT_Event_OnReady
2025-09-15 15:40:58.624 (   6.950s) [        F073E000]      event_instance.cc:171      1| EventInstance::PJRT_Event_Destroy
2025-09-15 15:40:58.624 (   6.950s) [        F073E000]     device_instance.cc:82       1| DeviceInstance::PJRT_Device_DefaultMemory
2025-09-15 15:40:58.624 (   6.950s) [        F073E000]     client_instance.cc:466      1| ClientInstance::PJRT_Client_BufferFromHostBuffer
2025-09-15 15:40:58.624 (   6.950s) [        F073E000]     memory_instance.cc:57       1| MemoryInstance::getDevice
2025-09-15 15:40:58.624 (   6.950s) [        F073E000]      event_instance.cc:222      1| EventInstance::PJRT_Event_OnReady
2025-09-15 15:40:58.624 (   6.950s) [        F073E000]      event_instance.cc:171      1| EventInstance::PJRT_Event_Destroy
2025-09-15 15:40:58.629 (   6.955s) [        F073E000]  device_description.cc:44       1| DeviceDescription::PJRT_DeviceDescription_Id
2025-09-15 15:40:58.629 (   6.955s) [        F073E000]  device_description.cc:44       1| DeviceDescription::PJRT_DeviceDescription_Id
2025-09-15 15:40:58.635 (   6.961s) [        F073E000]     device_instance.cc:82       1| DeviceInstance::PJRT_Device_DefaultMemory
2025-09-15 15:40:58.635 (   6.961s) [        F073E000]     client_instance.cc:466      1| ClientInstance::PJRT_Client_BufferFromHostBuffer
2025-09-15 15:40:58.635 (   6.961s) [        F073E000]     memory_instance.cc:57       1| MemoryInstance::getDevice
2025-09-15 15:40:58.635 (   6.961s) [        F073E000]      event_instance.cc:222      1| EventInstance::PJRT_Event_OnReady
2025-09-15 15:40:58.635 (   6.961s) [        F073E000]      event_instance.cc:171      1| EventInstance::PJRT_Event_Destroy
2025-09-15 15:40:58.635 (   6.961s) [        F073E000]     device_instance.cc:82       1| DeviceInstance::PJRT_Device_DefaultMemory
2025-09-15 15:40:58.635 (   6.961s) [        F073E000]     client_instance.cc:466      1| ClientInstance::PJRT_Client_BufferFromHostBuffer
2025-09-15 15:40:58.635 (   6.961s) [        F073E000]     memory_instance.cc:57       1| MemoryInstance::getDevice
2025-09-15 15:40:58.635 (   6.961s) [        F073E000]      event_instance.cc:222      1| EventInstance::PJRT_Event_OnReady
2025-09-15 15:40:58.635 (   6.961s) [        F073E000]      event_instance.cc:171      1| EventInstance::PJRT_Event_Destroy
2025-09-15 15:40:58.640 (   6.966s) [        F073E000]  device_description.cc:44       1| DeviceDescription::PJRT_DeviceDescription_Id
2025-09-15 15:40:58.640 (   6.966s) [        F073E000]  device_description.cc:44       1| DeviceDescription::PJRT_DeviceDescription_Id
2025-09-15 15:40:58.647 (   6.973s) [        F073E000]     device_instance.cc:82       1| DeviceInstance::PJRT_Device_DefaultMemory
2025-09-15 15:40:58.647 (   6.973s) [        F073E000]     client_instance.cc:466      1| ClientInstance::PJRT_Client_BufferFromHostBuffer
2025-09-15 15:40:58.647 (   6.973s) [        F073E000]     memory_instance.cc:57       1| MemoryInstance::getDevice
2025-09-15 15:40:58.647 (   6.974s) [        F073E000]      event_instance.cc:222      1| EventInstance::PJRT_Event_OnReady
2025-09-15 15:40:58.647 (   6.974s) [        F073E000]      event_instance.cc:171      1| EventInstance::PJRT_Event_Destroy
2025-09-15 15:40:58.647 (   6.974s) [        F073E000]     device_instance.cc:82       1| DeviceInstance::PJRT_Device_DefaultMemory
2025-09-15 15:40:58.647 (   6.974s) [        F073E000]     client_instance.cc:466      1| ClientInstance::PJRT_Client_BufferFromHostBuffer
2025-09-15 15:40:58.647 (   6.974s) [        F073E000]     memory_instance.cc:57       1| MemoryInstance::getDevice
2025-09-15 15:40:58.647 (   6.974s) [        F073E000]      event_instance.cc:222      1| EventInstance::PJRT_Event_OnReady
2025-09-15 15:40:58.648 (   6.974s) [        F073E000]      event_instance.cc:171      1| EventInstance::PJRT_Event_Destroy
2025-09-15 15:40:58.652 (   6.978s) [        F073E000]  device_description.cc:44       1| DeviceDescription::PJRT_DeviceDescription_Id
2025-09-15 15:40:58.652 (   6.978s) [        F073E000]  device_description.cc:44       1| DeviceDescription::PJRT_DeviceDescription_Id
2025-09-15 15:40:58.653 (   6.980s) [        F073E000]     device_instance.cc:82       1| DeviceInstance::PJRT_Device_DefaultMemory
2025-09-15 15:40:58.653 (   6.980s) [        F073E000]     client_instance.cc:466      1| ClientInstance::PJRT_Client_BufferFromHostBuffer
2025-09-15 15:40:58.653 (   6.980s) [        F073E000]     memory_instance.cc:57       1| MemoryInstance::getDevice
2025-09-15 15:40:58.653 (   6.980s) [        F073E000]      event_instance.cc:222      1| EventInstance::PJRT_Event_OnReady
2025-09-15 15:40:58.654 (   6.980s) [        F073E000]      event_instance.cc:171      1| EventInstance::PJRT_Event_Destroy
2025-09-15 15:40:58.654 (   6.980s) [        F073E000]     device_instance.cc:82       1| DeviceInstance::PJRT_Device_DefaultMemory
2025-09-15 15:40:58.654 (   6.980s) [        F073E000]     client_instance.cc:466      1| ClientInstance::PJRT_Client_BufferFromHostBuffer
2025-09-15 15:40:58.654 (   6.980s) [        F073E000]     memory_instance.cc:57       1| MemoryInstance::getDevice
2025-09-15 15:40:58.654 (   6.980s) [        F073E000]      event_instance.cc:222      1| EventInstance::PJRT_Event_OnReady
2025-09-15 15:40:58.654 (   6.980s) [        F073E000]      event_instance.cc:171      1| EventInstance::PJRT_Event_Destroy
2025-09-15 15:40:58.654 (   6.980s) [        F073E000]  device_description.cc:44       1| DeviceDescription::PJRT_DeviceDescription_Id
2025-09-15 15:40:58.654 (   6.980s) [        F073E000]  device_description.cc:44       1| DeviceDescription::PJRT_DeviceDescription_Id
2025-09-15 15:40:58.654 (   6.981s) [        F073E000]     device_instance.cc:82       1| DeviceInstance::PJRT_Device_DefaultMemory
2025-09-15 15:40:58.654 (   6.981s) [        F073E000]     client_instance.cc:466      1| ClientInstance::PJRT_Client_BufferFromHostBuffer
2025-09-15 15:40:58.654 (   6.981s) [        F073E000]     memory_instance.cc:57       1| MemoryInstance::getDevice
2025-09-15 15:40:58.655 (   6.981s) [        F073E000]      event_instance.cc:222      1| EventInstance::PJRT_Event_OnReady
2025-09-15 15:40:58.655 (   6.981s) [        F073E000]      event_instance.cc:171      1| EventInstance::PJRT_Event_Destroy
2025-09-15 15:40:58.655 (   6.981s) [        F073E000]     device_instance.cc:82       1| DeviceInstance::PJRT_Device_DefaultMemory
2025-09-15 15:40:58.655 (   6.981s) [        F073E000]     client_instance.cc:466      1| ClientInstance::PJRT_Client_BufferFromHostBuffer
2025-09-15 15:40:58.655 (   6.981s) [        F073E000]     memory_instance.cc:57       1| MemoryInstance::getDevice
2025-09-15 15:40:58.655 (   6.981s) [        F073E000]      event_instance.cc:222      1| EventInstance::PJRT_Event_OnReady
2025-09-15 15:40:58.655 (   6.981s) [        F073E000]      event_instance.cc:171      1| EventInstance::PJRT_Event_Destroy
2025-09-15 15:40:58.655 (   6.981s) [        F073E000]  device_description.cc:44       1| DeviceDescription::PJRT_DeviceDescription_Id
2025-09-15 15:40:58.655 (   6.981s) [        F073E000]  device_description.cc:44       1| DeviceDescription::PJRT_DeviceDescription_Id
2025-09-15 15:40:58.655 (   6.982s) [        F073E000]     device_instance.cc:82       1| DeviceInstance::PJRT_Device_DefaultMemory
2025-09-15 15:40:58.655 (   6.982s) [        F073E000]     client_instance.cc:466      1| ClientInstance::PJRT_Client_BufferFromHostBuffer
2025-09-15 15:40:58.655 (   6.982s) [        F073E000]     memory_instance.cc:57       1| MemoryInstance::getDevice
2025-09-15 15:40:58.655 (   6.982s) [        F073E000]      event_instance.cc:222      1| EventInstance::PJRT_Event_OnReady
2025-09-15 15:40:58.656 (   6.982s) [        F073E000]      event_instance.cc:171      1| EventInstance::PJRT_Event_Destroy
2025-09-15 15:40:58.656 (   6.982s) [        F073E000]     device_instance.cc:82       1| DeviceInstance::PJRT_Device_DefaultMemory
2025-09-15 15:40:58.656 (   6.982s) [        F073E000]     client_instance.cc:466      1| ClientInstance::PJRT_Client_BufferFromHostBuffer
2025-09-15 15:40:58.656 (   6.982s) [        F073E000]     memory_instance.cc:57       1| MemoryInstance::getDevice
2025-09-15 15:40:58.656 (   6.982s) [        F073E000]      event_instance.cc:222      1| EventInstance::PJRT_Event_OnReady
2025-09-15 15:40:58.656 (   6.982s) [        F073E000]      event_instance.cc:171      1| EventInstance::PJRT_Event_Destroy
2025-09-15 15:40:58.656 (   6.982s) [        F073E000]  device_description.cc:44       1| DeviceDescription::PJRT_DeviceDescription_Id
2025-09-15 15:40:58.656 (   6.982s) [        F073E000]  device_description.cc:44       1| DeviceDescription::PJRT_DeviceDescription_Id
2025-09-15 15:40:58.657 (   6.984s) [        F073E000]     device_instance.cc:82       1| DeviceInstance::PJRT_Device_DefaultMemory
2025-09-15 15:40:58.657 (   6.984s) [        F073E000]     client_instance.cc:466      1| ClientInstance::PJRT_Client_BufferFromHostBuffer
2025-09-15 15:40:58.657 (   6.984s) [        F073E000]     memory_instance.cc:57       1| MemoryInstance::getDevice
2025-09-15 15:40:58.658 (   6.984s) [        F073E000]      event_instance.cc:222      1| EventInstance::PJRT_Event_OnReady
2025-09-15 15:40:58.658 (   6.984s) [        F073E000]      event_instance.cc:171      1| EventInstance::PJRT_Event_Destroy
2025-09-15 15:40:58.658 (   6.984s) [        F073E000]     device_instance.cc:82       1| DeviceInstance::PJRT_Device_DefaultMemory
2025-09-15 15:40:58.658 (   6.984s) [        F073E000]     client_instance.cc:466      1| ClientInstance::PJRT_Client_BufferFromHostBuffer
2025-09-15 15:40:58.658 (   6.984s) [        F073E000]     memory_instance.cc:57       1| MemoryInstance::getDevice
2025-09-15 15:40:58.658 (   6.984s) [        F073E000]      event_instance.cc:222      1| EventInstance::PJRT_Event_OnReady
2025-09-15 15:40:58.658 (   6.984s) [        F073E000]      event_instance.cc:171      1| EventInstance::PJRT_Event_Destroy
2025-09-15 15:40:58.658 (   6.984s) [        F073E000]  device_description.cc:44       1| DeviceDescription::PJRT_DeviceDescription_Id
2025-09-15 15:40:58.658 (   6.984s) [        F073E000]  device_description.cc:44       1| DeviceDescription::PJRT_DeviceDescription_Id
2025-09-15 15:40:58.662 (   6.989s) [        F073E000]     device_instance.cc:82       1| DeviceInstance::PJRT_Device_DefaultMemory
2025-09-15 15:40:58.662 (   6.989s) [        F073E000]     client_instance.cc:466      1| ClientInstance::PJRT_Client_BufferFromHostBuffer
2025-09-15 15:40:58.662 (   6.989s) [        F073E000]     memory_instance.cc:57       1| MemoryInstance::getDevice
2025-09-15 15:40:58.663 (   6.989s) [        F073E000]      event_instance.cc:222      1| EventInstance::PJRT_Event_OnReady
2025-09-15 15:40:58.663 (   6.989s) [        F073E000]      event_instance.cc:171      1| EventInstance::PJRT_Event_Destroy
2025-09-15 15:40:58.663 (   6.989s) [        F073E000]     device_instance.cc:82       1| DeviceInstance::PJRT_Device_DefaultMemory
2025-09-15 15:40:58.663 (   6.989s) [        F073E000]     client_instance.cc:466      1| ClientInstance::PJRT_Client_BufferFromHostBuffer
2025-09-15 15:40:58.663 (   6.989s) [        F073E000]     memory_instance.cc:57       1| MemoryInstance::getDevice
2025-09-15 15:40:58.663 (   6.989s) [        F073E000]      event_instance.cc:222      1| EventInstance::PJRT_Event_OnReady
2025-09-15 15:40:58.663 (   6.989s) [        F073E000]      event_instance.cc:171      1| EventInstance::PJRT_Event_Destroy
2025-09-15 15:40:58.667 (   6.994s) [        F073E000]  device_description.cc:44       1| DeviceDescription::PJRT_DeviceDescription_Id
2025-09-15 15:40:58.667 (   6.994s) [        F073E000]  device_description.cc:44       1| DeviceDescription::PJRT_DeviceDescription_Id
2025-09-15 15:40:58.673 (   7.000s) [        F073E000]     device_instance.cc:82       1| DeviceInstance::PJRT_Device_DefaultMemory
2025-09-15 15:40:58.673 (   7.000s) [        F073E000]     client_instance.cc:466      1| ClientInstance::PJRT_Client_BufferFromHostBuffer
2025-09-15 15:40:58.673 (   7.000s) [        F073E000]     memory_instance.cc:57       1| MemoryInstance::getDevice
2025-09-15 15:40:58.674 (   7.000s) [        F073E000]      event_instance.cc:222      1| EventInstance::PJRT_Event_OnReady
2025-09-15 15:40:58.674 (   7.000s) [        F073E000]      event_instance.cc:171      1| EventInstance::PJRT_Event_Destroy
2025-09-15 15:40:58.674 (   7.000s) [        F073E000]     device_instance.cc:82       1| DeviceInstance::PJRT_Device_DefaultMemory
2025-09-15 15:40:58.674 (   7.000s) [        F073E000]     client_instance.cc:466      1| ClientInstance::PJRT_Client_BufferFromHostBuffer
2025-09-15 15:40:58.674 (   7.000s) [        F073E000]     memory_instance.cc:57       1| MemoryInstance::getDevice
2025-09-15 15:40:58.674 (   7.000s) [        F073E000]      event_instance.cc:222      1| EventInstance::PJRT_Event_OnReady
2025-09-15 15:40:58.674 (   7.000s) [        F073E000]      event_instance.cc:171      1| EventInstance::PJRT_Event_Destroy
2025-09-15 15:40:58.678 (   7.005s) [        F073E000]  device_description.cc:44       1| DeviceDescription::PJRT_DeviceDescription_Id
2025-09-15 15:40:58.678 (   7.005s) [        F073E000]  device_description.cc:44       1| DeviceDescription::PJRT_DeviceDescription_Id
2025-09-15 15:40:58.685 (   7.012s) [        F073E000]     device_instance.cc:82       1| DeviceInstance::PJRT_Device_DefaultMemory
2025-09-15 15:40:58.685 (   7.012s) [        F073E000]     client_instance.cc:466      1| ClientInstance::PJRT_Client_BufferFromHostBuffer
2025-09-15 15:40:58.685 (   7.012s) [        F073E000]     memory_instance.cc:57       1| MemoryInstance::getDevice
2025-09-15 15:40:58.685 (   7.012s) [        F073E000]      event_instance.cc:222      1| EventInstance::PJRT_Event_OnReady
2025-09-15 15:40:58.685 (   7.012s) [        F073E000]      event_instance.cc:171      1| EventInstance::PJRT_Event_Destroy
2025-09-15 15:40:58.685 (   7.012s) [        F073E000]     device_instance.cc:82       1| DeviceInstance::PJRT_Device_DefaultMemory
2025-09-15 15:40:58.685 (   7.012s) [        F073E000]     client_instance.cc:466      1| ClientInstance::PJRT_Client_BufferFromHostBuffer
2025-09-15 15:40:58.685 (   7.012s) [        F073E000]     memory_instance.cc:57       1| MemoryInstance::getDevice
2025-09-15 15:40:58.686 (   7.012s) [        F073E000]      event_instance.cc:222      1| EventInstance::PJRT_Event_OnReady
2025-09-15 15:40:58.686 (   7.012s) [        F073E000]      event_instance.cc:171      1| EventInstance::PJRT_Event_Destroy
2025-09-15 15:40:58.690 (   7.017s) [        F073E000]  device_description.cc:44       1| DeviceDescription::PJRT_DeviceDescription_Id
2025-09-15 15:40:58.690 (   7.017s) [        F073E000]  device_description.cc:44       1| DeviceDescription::PJRT_DeviceDescription_Id
2025-09-15 15:40:58.691 (   7.018s) [        F073E000]     device_instance.cc:82       1| DeviceInstance::PJRT_Device_DefaultMemory
2025-09-15 15:40:58.691 (   7.018s) [        F073E000]     client_instance.cc:466      1| ClientInstance::PJRT_Client_BufferFromHostBuffer
2025-09-15 15:40:58.691 (   7.018s) [        F073E000]     memory_instance.cc:57       1| MemoryInstance::getDevice
2025-09-15 15:40:58.692 (   7.018s) [        F073E000]      event_instance.cc:222      1| EventInstance::PJRT_Event_OnReady
2025-09-15 15:40:58.692 (   7.018s) [        F073E000]      event_instance.cc:171      1| EventInstance::PJRT_Event_Destroy
2025-09-15 15:40:58.692 (   7.018s) [        F073E000]     device_instance.cc:82       1| DeviceInstance::PJRT_Device_DefaultMemory
2025-09-15 15:40:58.692 (   7.018s) [        F073E000]     client_instance.cc:466      1| ClientInstance::PJRT_Client_BufferFromHostBuffer
2025-09-15 15:40:58.692 (   7.018s) [        F073E000]     memory_instance.cc:57       1| MemoryInstance::getDevice
2025-09-15 15:40:58.692 (   7.018s) [        F073E000]      event_instance.cc:222      1| EventInstance::PJRT_Event_OnReady
2025-09-15 15:40:58.692 (   7.018s) [        F073E000]      event_instance.cc:171      1| EventInstance::PJRT_Event_Destroy
2025-09-15 15:40:58.692 (   7.018s) [        F073E000]  device_description.cc:44       1| DeviceDescription::PJRT_DeviceDescription_Id
2025-09-15 15:40:58.692 (   7.018s) [        F073E000]  device_description.cc:44       1| DeviceDescription::PJRT_DeviceDescription_Id
2025-09-15 15:40:58.692 (   7.019s) [        F073E000]     device_instance.cc:82       1| DeviceInstance::PJRT_Device_DefaultMemory
2025-09-15 15:40:58.692 (   7.019s) [        F073E000]     client_instance.cc:466      1| ClientInstance::PJRT_Client_BufferFromHostBuffer
2025-09-15 15:40:58.692 (   7.019s) [        F073E000]     memory_instance.cc:57       1| MemoryInstance::getDevice
2025-09-15 15:40:58.692 (   7.019s) [        F073E000]      event_instance.cc:222      1| EventInstance::PJRT_Event_OnReady
2025-09-15 15:40:58.692 (   7.019s) [        F073E000]      event_instance.cc:171      1| EventInstance::PJRT_Event_Destroy
2025-09-15 15:40:58.692 (   7.019s) [        F073E000]     device_instance.cc:82       1| DeviceInstance::PJRT_Device_DefaultMemory
2025-09-15 15:40:58.692 (   7.019s) [        F073E000]     client_instance.cc:466      1| ClientInstance::PJRT_Client_BufferFromHostBuffer
2025-09-15 15:40:58.692 (   7.019s) [        F073E000]     memory_instance.cc:57       1| MemoryInstance::getDevice
2025-09-15 15:40:58.693 (   7.019s) [        F073E000]      event_instance.cc:222      1| EventInstance::PJRT_Event_OnReady
2025-09-15 15:40:58.693 (   7.019s) [        F073E000]      event_instance.cc:171      1| EventInstance::PJRT_Event_Destroy
2025-09-15 15:40:58.693 (   7.019s) [        F073E000]  device_description.cc:44       1| DeviceDescription::PJRT_DeviceDescription_Id
2025-09-15 15:40:58.693 (   7.019s) [        F073E000]  device_description.cc:44       1| DeviceDescription::PJRT_DeviceDescription_Id
2025-09-15 15:40:58.693 (   7.019s) [        F073E000]     device_instance.cc:82       1| DeviceInstance::PJRT_Device_DefaultMemory
2025-09-15 15:40:58.693 (   7.019s) [        F073E000]     client_instance.cc:466      1| ClientInstance::PJRT_Client_BufferFromHostBuffer
2025-09-15 15:40:58.693 (   7.019s) [        F073E000]     memory_instance.cc:57       1| MemoryInstance::getDevice
2025-09-15 15:40:58.693 (   7.020s) [        F073E000]      event_instance.cc:222      1| EventInstance::PJRT_Event_OnReady
2025-09-15 15:40:58.693 (   7.020s) [        F073E000]      event_instance.cc:171      1| EventInstance::PJRT_Event_Destroy
2025-09-15 15:40:58.693 (   7.020s) [        F073E000]     device_instance.cc:82       1| DeviceInstance::PJRT_Device_DefaultMemory
2025-09-15 15:40:58.693 (   7.020s) [        F073E000]     client_instance.cc:466      1| ClientInstance::PJRT_Client_BufferFromHostBuffer
2025-09-15 15:40:58.693 (   7.020s) [        F073E000]     memory_instance.cc:57       1| MemoryInstance::getDevice
2025-09-15 15:40:58.693 (   7.020s) [        F073E000]      event_instance.cc:222      1| EventInstance::PJRT_Event_OnReady
2025-09-15 15:40:58.693 (   7.020s) [        F073E000]      event_instance.cc:171      1| EventInstance::PJRT_Event_Destroy
2025-09-15 15:40:58.693 (   7.020s) [        F073E000]  device_description.cc:44       1| DeviceDescription::PJRT_DeviceDescription_Id
2025-09-15 15:40:58.693 (   7.020s) [        F073E000]  device_description.cc:44       1| DeviceDescription::PJRT_DeviceDescription_Id
2025-09-15 15:40:58.695 (   7.021s) [        F073E000]     device_instance.cc:82       1| DeviceInstance::PJRT_Device_DefaultMemory
2025-09-15 15:40:58.695 (   7.021s) [        F073E000]     client_instance.cc:466      1| ClientInstance::PJRT_Client_BufferFromHostBuffer
2025-09-15 15:40:58.695 (   7.021s) [        F073E000]     memory_instance.cc:57       1| MemoryInstance::getDevice
2025-09-15 15:40:58.695 (   7.021s) [        F073E000]      event_instance.cc:222      1| EventInstance::PJRT_Event_OnReady
2025-09-15 15:40:58.695 (   7.021s) [        F073E000]      event_instance.cc:171      1| EventInstance::PJRT_Event_Destroy
2025-09-15 15:40:58.695 (   7.021s) [        F073E000]     device_instance.cc:82       1| DeviceInstance::PJRT_Device_DefaultMemory
2025-09-15 15:40:58.695 (   7.021s) [        F073E000]     client_instance.cc:466      1| ClientInstance::PJRT_Client_BufferFromHostBuffer
2025-09-15 15:40:58.695 (   7.021s) [        F073E000]     memory_instance.cc:57       1| MemoryInstance::getDevice
2025-09-15 15:40:58.695 (   7.022s) [        F073E000]      event_instance.cc:222      1| EventInstance::PJRT_Event_OnReady
2025-09-15 15:40:58.695 (   7.022s) [        F073E000]      event_instance.cc:171      1| EventInstance::PJRT_Event_Destroy
2025-09-15 15:40:58.695 (   7.022s) [        F073E000]  device_description.cc:44       1| DeviceDescription::PJRT_DeviceDescription_Id
2025-09-15 15:40:58.695 (   7.022s) [        F073E000]  device_description.cc:44       1| DeviceDescription::PJRT_DeviceDescription_Id
2025-09-15 15:40:58.701 (   7.027s) [        F073E000]     device_instance.cc:82       1| DeviceInstance::PJRT_Device_DefaultMemory
2025-09-15 15:40:58.701 (   7.027s) [        F073E000]     client_instance.cc:466      1| ClientInstance::PJRT_Client_BufferFromHostBuffer
2025-09-15 15:40:58.701 (   7.027s) [        F073E000]     memory_instance.cc:57       1| MemoryInstance::getDevice
2025-09-15 15:40:58.701 (   7.027s) [        F073E000]      event_instance.cc:222      1| EventInstance::PJRT_Event_OnReady
2025-09-15 15:40:58.701 (   7.027s) [        F073E000]      event_instance.cc:171      1| EventInstance::PJRT_Event_Destroy
2025-09-15 15:40:58.701 (   7.027s) [        F073E000]     device_instance.cc:82       1| DeviceInstance::PJRT_Device_DefaultMemory
2025-09-15 15:40:58.701 (   7.027s) [        F073E000]     client_instance.cc:466      1| ClientInstance::PJRT_Client_BufferFromHostBuffer
2025-09-15 15:40:58.701 (   7.027s) [        F073E000]     memory_instance.cc:57       1| MemoryInstance::getDevice
2025-09-15 15:40:58.701 (   7.027s) [        F073E000]      event_instance.cc:222      1| EventInstance::PJRT_Event_OnReady
2025-09-15 15:40:58.701 (   7.028s) [        F073E000]      event_instance.cc:171      1| EventInstance::PJRT_Event_Destroy
2025-09-15 15:40:58.706 (   7.032s) [        F073E000]  device_description.cc:44       1| DeviceDescription::PJRT_DeviceDescription_Id
2025-09-15 15:40:58.706 (   7.032s) [        F073E000]  device_description.cc:44       1| DeviceDescription::PJRT_DeviceDescription_Id
2025-09-15 15:40:58.712 (   7.038s) [        F073E000]     device_instance.cc:82       1| DeviceInstance::PJRT_Device_DefaultMemory
2025-09-15 15:40:58.712 (   7.038s) [        F073E000]     client_instance.cc:466      1| ClientInstance::PJRT_Client_BufferFromHostBuffer
2025-09-15 15:40:58.712 (   7.038s) [        F073E000]     memory_instance.cc:57       1| MemoryInstance::getDevice
2025-09-15 15:40:58.712 (   7.038s) [        F073E000]      event_instance.cc:222      1| EventInstance::PJRT_Event_OnReady
2025-09-15 15:40:58.712 (   7.038s) [        F073E000]      event_instance.cc:171      1| EventInstance::PJRT_Event_Destroy
2025-09-15 15:40:58.712 (   7.038s) [        F073E000]     device_instance.cc:82       1| DeviceInstance::PJRT_Device_DefaultMemory
2025-09-15 15:40:58.712 (   7.038s) [        F073E000]     client_instance.cc:466      1| ClientInstance::PJRT_Client_BufferFromHostBuffer
2025-09-15 15:40:58.712 (   7.038s) [        F073E000]     memory_instance.cc:57       1| MemoryInstance::getDevice
2025-09-15 15:40:58.712 (   7.038s) [        F073E000]      event_instance.cc:222      1| EventInstance::PJRT_Event_OnReady
2025-09-15 15:40:58.712 (   7.038s) [        F073E000]      event_instance.cc:171      1| EventInstance::PJRT_Event_Destroy
2025-09-15 15:40:58.717 (   7.043s) [        F073E000]  device_description.cc:44       1| DeviceDescription::PJRT_DeviceDescription_Id
2025-09-15 15:40:58.717 (   7.043s) [        F073E000]  device_description.cc:44       1| DeviceDescription::PJRT_DeviceDescription_Id
2025-09-15 15:40:58.724 (   7.050s) [        F073E000]     device_instance.cc:82       1| DeviceInstance::PJRT_Device_DefaultMemory
2025-09-15 15:40:58.724 (   7.050s) [        F073E000]     client_instance.cc:466      1| ClientInstance::PJRT_Client_BufferFromHostBuffer
2025-09-15 15:40:58.724 (   7.050s) [        F073E000]     memory_instance.cc:57       1| MemoryInstance::getDevice
2025-09-15 15:40:58.724 (   7.050s) [        F073E000]      event_instance.cc:222      1| EventInstance::PJRT_Event_OnReady
2025-09-15 15:40:58.724 (   7.050s) [        F073E000]      event_instance.cc:171      1| EventInstance::PJRT_Event_Destroy
2025-09-15 15:40:58.724 (   7.051s) [        F073E000]     device_instance.cc:82       1| DeviceInstance::PJRT_Device_DefaultMemory
2025-09-15 15:40:58.724 (   7.051s) [        F073E000]     client_instance.cc:466      1| ClientInstance::PJRT_Client_BufferFromHostBuffer
2025-09-15 15:40:58.724 (   7.051s) [        F073E000]     memory_instance.cc:57       1| MemoryInstance::getDevice
2025-09-15 15:40:58.724 (   7.051s) [        F073E000]      event_instance.cc:222      1| EventInstance::PJRT_Event_OnReady
2025-09-15 15:40:58.724 (   7.051s) [        F073E000]      event_instance.cc:171      1| EventInstance::PJRT_Event_Destroy
2025-09-15 15:40:58.729 (   7.055s) [        F073E000]  device_description.cc:44       1| DeviceDescription::PJRT_DeviceDescription_Id
2025-09-15 15:40:58.729 (   7.055s) [        F073E000]  device_description.cc:44       1| DeviceDescription::PJRT_DeviceDescription_Id
2025-09-15 15:40:58.730 (   7.057s) [        F073E000]     device_instance.cc:82       1| DeviceInstance::PJRT_Device_DefaultMemory
2025-09-15 15:40:58.730 (   7.057s) [        F073E000]     client_instance.cc:466      1| ClientInstance::PJRT_Client_BufferFromHostBuffer
2025-09-15 15:40:58.730 (   7.057s) [        F073E000]     memory_instance.cc:57       1| MemoryInstance::getDevice
2025-09-15 15:40:58.731 (   7.057s) [        F073E000]      event_instance.cc:222      1| EventInstance::PJRT_Event_OnReady
2025-09-15 15:40:58.731 (   7.057s) [        F073E000]      event_instance.cc:171      1| EventInstance::PJRT_Event_Destroy
2025-09-15 15:40:58.731 (   7.057s) [        F073E000]     device_instance.cc:82       1| DeviceInstance::PJRT_Device_DefaultMemory
2025-09-15 15:40:58.731 (   7.057s) [        F073E000]     client_instance.cc:466      1| ClientInstance::PJRT_Client_BufferFromHostBuffer
2025-09-15 15:40:58.731 (   7.057s) [        F073E000]     memory_instance.cc:57       1| MemoryInstance::getDevice
2025-09-15 15:40:58.731 (   7.057s) [        F073E000]      event_instance.cc:222      1| EventInstance::PJRT_Event_OnReady
2025-09-15 15:40:58.731 (   7.057s) [        F073E000]      event_instance.cc:171      1| EventInstance::PJRT_Event_Destroy
2025-09-15 15:40:58.731 (   7.057s) [        F073E000]  device_description.cc:44       1| DeviceDescription::PJRT_DeviceDescription_Id
2025-09-15 15:40:58.731 (   7.057s) [        F073E000]  device_description.cc:44       1| DeviceDescription::PJRT_DeviceDescription_Id
2025-09-15 15:40:58.731 (   7.058s) [        F073E000]     device_instance.cc:82       1| DeviceInstance::PJRT_Device_DefaultMemory
2025-09-15 15:40:58.731 (   7.058s) [        F073E000]     client_instance.cc:466      1| ClientInstance::PJRT_Client_BufferFromHostBuffer
2025-09-15 15:40:58.731 (   7.058s) [        F073E000]     memory_instance.cc:57       1| MemoryInstance::getDevice
2025-09-15 15:40:58.732 (   7.058s) [        F073E000]      event_instance.cc:222      1| EventInstance::PJRT_Event_OnReady
2025-09-15 15:40:58.732 (   7.058s) [        F073E000]      event_instance.cc:171      1| EventInstance::PJRT_Event_Destroy
2025-09-15 15:40:58.732 (   7.058s) [        F073E000]     device_instance.cc:82       1| DeviceInstance::PJRT_Device_DefaultMemory
2025-09-15 15:40:58.732 (   7.058s) [        F073E000]     client_instance.cc:466      1| ClientInstance::PJRT_Client_BufferFromHostBuffer
2025-09-15 15:40:58.732 (   7.058s) [        F073E000]     memory_instance.cc:57       1| MemoryInstance::getDevice
2025-09-15 15:40:58.732 (   7.058s) [        F073E000]      event_instance.cc:222      1| EventInstance::PJRT_Event_OnReady
2025-09-15 15:40:58.732 (   7.058s) [        F073E000]      event_instance.cc:171      1| EventInstance::PJRT_Event_Destroy
2025-09-15 15:40:58.732 (   7.058s) [        F073E000]  device_description.cc:44       1| DeviceDescription::PJRT_DeviceDescription_Id
2025-09-15 15:40:58.732 (   7.058s) [        F073E000]  device_description.cc:44       1| DeviceDescription::PJRT_DeviceDescription_Id
2025-09-15 15:40:58.732 (   7.058s) [        F073E000]     device_instance.cc:82       1| DeviceInstance::PJRT_Device_DefaultMemory
2025-09-15 15:40:58.732 (   7.059s) [        F073E000]     client_instance.cc:466      1| ClientInstance::PJRT_Client_BufferFromHostBuffer
2025-09-15 15:40:58.732 (   7.059s) [        F073E000]     memory_instance.cc:57       1| MemoryInstance::getDevice
2025-09-15 15:40:58.732 (   7.059s) [        F073E000]      event_instance.cc:222      1| EventInstance::PJRT_Event_OnReady
2025-09-15 15:40:58.732 (   7.059s) [        F073E000]      event_instance.cc:171      1| EventInstance::PJRT_Event_Destroy
2025-09-15 15:40:58.732 (   7.059s) [        F073E000]     device_instance.cc:82       1| DeviceInstance::PJRT_Device_DefaultMemory
2025-09-15 15:40:58.732 (   7.059s) [        F073E000]     client_instance.cc:466      1| ClientInstance::PJRT_Client_BufferFromHostBuffer
2025-09-15 15:40:58.732 (   7.059s) [        F073E000]     memory_instance.cc:57       1| MemoryInstance::getDevice
2025-09-15 15:40:58.732 (   7.059s) [        F073E000]      event_instance.cc:222      1| EventInstance::PJRT_Event_OnReady
2025-09-15 15:40:58.732 (   7.059s) [        F073E000]      event_instance.cc:171      1| EventInstance::PJRT_Event_Destroy
2025-09-15 15:40:58.733 (   7.059s) [        F073E000]  device_description.cc:44       1| DeviceDescription::PJRT_DeviceDescription_Id
2025-09-15 15:40:58.733 (   7.059s) [        F073E000]  device_description.cc:44       1| DeviceDescription::PJRT_DeviceDescription_Id
2025-09-15 15:40:58.734 (   7.060s) [        F073E000]     device_instance.cc:82       1| DeviceInstance::PJRT_Device_DefaultMemory
2025-09-15 15:40:58.734 (   7.060s) [        F073E000]     client_instance.cc:466      1| ClientInstance::PJRT_Client_BufferFromHostBuffer
2025-09-15 15:40:58.734 (   7.060s) [        F073E000]     memory_instance.cc:57       1| MemoryInstance::getDevice
2025-09-15 15:40:58.734 (   7.060s) [        F073E000]      event_instance.cc:222      1| EventInstance::PJRT_Event_OnReady
2025-09-15 15:40:58.734 (   7.060s) [        F073E000]      event_instance.cc:171      1| EventInstance::PJRT_Event_Destroy
2025-09-15 15:40:58.734 (   7.060s) [        F073E000]     device_instance.cc:82       1| DeviceInstance::PJRT_Device_DefaultMemory
2025-09-15 15:40:58.734 (   7.060s) [        F073E000]     client_instance.cc:466      1| ClientInstance::PJRT_Client_BufferFromHostBuffer
2025-09-15 15:40:58.734 (   7.060s) [        F073E000]     memory_instance.cc:57       1| MemoryInstance::getDevice
2025-09-15 15:40:58.734 (   7.061s) [        F073E000]      event_instance.cc:222      1| EventInstance::PJRT_Event_OnReady
2025-09-15 15:40:58.734 (   7.061s) [        F073E000]      event_instance.cc:171      1| EventInstance::PJRT_Event_Destroy
2025-09-15 15:40:58.734 (   7.061s) [        F073E000]  device_description.cc:44       1| DeviceDescription::PJRT_DeviceDescription_Id
2025-09-15 15:40:58.734 (   7.061s) [        F073E000]  device_description.cc:44       1| DeviceDescription::PJRT_DeviceDescription_Id
2025-09-15 15:40:58.740 (   7.066s) [        F073E000]     device_instance.cc:82       1| DeviceInstance::PJRT_Device_DefaultMemory
2025-09-15 15:40:58.740 (   7.066s) [        F073E000]     client_instance.cc:466      1| ClientInstance::PJRT_Client_BufferFromHostBuffer
2025-09-15 15:40:58.740 (   7.066s) [        F073E000]     memory_instance.cc:57       1| MemoryInstance::getDevice
2025-09-15 15:40:58.740 (   7.066s) [        F073E000]      event_instance.cc:222      1| EventInstance::PJRT_Event_OnReady
2025-09-15 15:40:58.740 (   7.066s) [        F073E000]      event_instance.cc:171      1| EventInstance::PJRT_Event_Destroy
2025-09-15 15:40:58.740 (   7.066s) [        F073E000]     device_instance.cc:82       1| DeviceInstance::PJRT_Device_DefaultMemory
2025-09-15 15:40:58.740 (   7.066s) [        F073E000]     client_instance.cc:466      1| ClientInstance::PJRT_Client_BufferFromHostBuffer
2025-09-15 15:40:58.740 (   7.066s) [        F073E000]     memory_instance.cc:57       1| MemoryInstance::getDevice
2025-09-15 15:40:58.740 (   7.066s) [        F073E000]      event_instance.cc:222      1| EventInstance::PJRT_Event_OnReady
2025-09-15 15:40:58.740 (   7.067s) [        F073E000]      event_instance.cc:171      1| EventInstance::PJRT_Event_Destroy
2025-09-15 15:40:58.745 (   7.071s) [        F073E000]  device_description.cc:44       1| DeviceDescription::PJRT_DeviceDescription_Id
2025-09-15 15:40:58.745 (   7.071s) [        F073E000]  device_description.cc:44       1| DeviceDescription::PJRT_DeviceDescription_Id
2025-09-15 15:40:58.750 (   7.077s) [        F073E000]     device_instance.cc:82       1| DeviceInstance::PJRT_Device_DefaultMemory
2025-09-15 15:40:58.750 (   7.077s) [        F073E000]     client_instance.cc:466      1| ClientInstance::PJRT_Client_BufferFromHostBuffer
2025-09-15 15:40:58.750 (   7.077s) [        F073E000]     memory_instance.cc:57       1| MemoryInstance::getDevice
2025-09-15 15:40:58.750 (   7.077s) [        F073E000]      event_instance.cc:222      1| EventInstance::PJRT_Event_OnReady
2025-09-15 15:40:58.750 (   7.077s) [        F073E000]      event_instance.cc:171      1| EventInstance::PJRT_Event_Destroy
2025-09-15 15:40:58.750 (   7.077s) [        F073E000]     device_instance.cc:82       1| DeviceInstance::PJRT_Device_DefaultMemory
2025-09-15 15:40:58.750 (   7.077s) [        F073E000]     client_instance.cc:466      1| ClientInstance::PJRT_Client_BufferFromHostBuffer
2025-09-15 15:40:58.750 (   7.077s) [        F073E000]     memory_instance.cc:57       1| MemoryInstance::getDevice
2025-09-15 15:40:58.751 (   7.077s) [        F073E000]      event_instance.cc:222      1| EventInstance::PJRT_Event_OnReady
2025-09-15 15:40:58.751 (   7.077s) [        F073E000]      event_instance.cc:171      1| EventInstance::PJRT_Event_Destroy
2025-09-15 15:40:58.755 (   7.081s) [        F073E000]  device_description.cc:44       1| DeviceDescription::PJRT_DeviceDescription_Id
2025-09-15 15:40:58.755 (   7.081s) [        F073E000]  device_description.cc:44       1| DeviceDescription::PJRT_DeviceDescription_Id
2025-09-15 15:40:58.762 (   7.089s) [        F073E000]     device_instance.cc:82       1| DeviceInstance::PJRT_Device_DefaultMemory
2025-09-15 15:40:58.762 (   7.089s) [        F073E000]     client_instance.cc:466      1| ClientInstance::PJRT_Client_BufferFromHostBuffer
2025-09-15 15:40:58.762 (   7.089s) [        F073E000]     memory_instance.cc:57       1| MemoryInstance::getDevice
2025-09-15 15:40:58.763 (   7.089s) [        F073E000]      event_instance.cc:222      1| EventInstance::PJRT_Event_OnReady
2025-09-15 15:40:58.763 (   7.089s) [        F073E000]      event_instance.cc:171      1| EventInstance::PJRT_Event_Destroy
2025-09-15 15:40:58.763 (   7.089s) [        F073E000]     device_instance.cc:82       1| DeviceInstance::PJRT_Device_DefaultMemory
2025-09-15 15:40:58.763 (   7.089s) [        F073E000]     client_instance.cc:466      1| ClientInstance::PJRT_Client_BufferFromHostBuffer
2025-09-15 15:40:58.763 (   7.089s) [        F073E000]     memory_instance.cc:57       1| MemoryInstance::getDevice
2025-09-15 15:40:58.763 (   7.089s) [        F073E000]      event_instance.cc:222      1| EventInstance::PJRT_Event_OnReady
2025-09-15 15:40:58.763 (   7.089s) [        F073E000]      event_instance.cc:171      1| EventInstance::PJRT_Event_Destroy
2025-09-15 15:40:58.767 (   7.094s) [        F073E000]  device_description.cc:44       1| DeviceDescription::PJRT_DeviceDescription_Id
2025-09-15 15:40:58.767 (   7.094s) [        F073E000]  device_description.cc:44       1| DeviceDescription::PJRT_DeviceDescription_Id
2025-09-15 15:40:58.769 (   7.096s) [        F073E000]     device_instance.cc:82       1| DeviceInstance::PJRT_Device_DefaultMemory
2025-09-15 15:40:58.769 (   7.096s) [        F073E000]     client_instance.cc:466      1| ClientInstance::PJRT_Client_BufferFromHostBuffer
2025-09-15 15:40:58.769 (   7.096s) [        F073E000]     memory_instance.cc:57       1| MemoryInstance::getDevice
2025-09-15 15:40:58.769 (   7.096s) [        F073E000]      event_instance.cc:222      1| EventInstance::PJRT_Event_OnReady
2025-09-15 15:40:58.769 (   7.096s) [        F073E000]      event_instance.cc:171      1| EventInstance::PJRT_Event_Destroy
2025-09-15 15:40:58.769 (   7.096s) [        F073E000]     device_instance.cc:82       1| DeviceInstance::PJRT_Device_DefaultMemory
2025-09-15 15:40:58.769 (   7.096s) [        F073E000]     client_instance.cc:466      1| ClientInstance::PJRT_Client_BufferFromHostBuffer
2025-09-15 15:40:58.769 (   7.096s) [        F073E000]     memory_instance.cc:57       1| MemoryInstance::getDevice
2025-09-15 15:40:58.770 (   7.096s) [        F073E000]      event_instance.cc:222      1| EventInstance::PJRT_Event_OnReady
2025-09-15 15:40:58.770 (   7.096s) [        F073E000]      event_instance.cc:171      1| EventInstance::PJRT_Event_Destroy
2025-09-15 15:40:58.770 (   7.096s) [        F073E000]  device_description.cc:44       1| DeviceDescription::PJRT_DeviceDescription_Id
2025-09-15 15:40:58.770 (   7.096s) [        F073E000]  device_description.cc:44       1| DeviceDescription::PJRT_DeviceDescription_Id
2025-09-15 15:40:58.770 (   7.097s) [        F073E000]     device_instance.cc:82       1| DeviceInstance::PJRT_Device_DefaultMemory
2025-09-15 15:40:58.770 (   7.097s) [        F073E000]     client_instance.cc:466      1| ClientInstance::PJRT_Client_BufferFromHostBuffer
2025-09-15 15:40:58.770 (   7.097s) [        F073E000]     memory_instance.cc:57       1| MemoryInstance::getDevice
2025-09-15 15:40:58.770 (   7.097s) [        F073E000]      event_instance.cc:222      1| EventInstance::PJRT_Event_OnReady
2025-09-15 15:40:58.770 (   7.097s) [        F073E000]      event_instance.cc:171      1| EventInstance::PJRT_Event_Destroy
2025-09-15 15:40:58.771 (   7.097s) [        F073E000]     device_instance.cc:82       1| DeviceInstance::PJRT_Device_DefaultMemory
2025-09-15 15:40:58.771 (   7.097s) [        F073E000]     client_instance.cc:466      1| ClientInstance::PJRT_Client_BufferFromHostBuffer
2025-09-15 15:40:58.771 (   7.097s) [        F073E000]     memory_instance.cc:57       1| MemoryInstance::getDevice
2025-09-15 15:40:58.771 (   7.097s) [        F073E000]      event_instance.cc:222      1| EventInstance::PJRT_Event_OnReady
2025-09-15 15:40:58.771 (   7.097s) [        F073E000]      event_instance.cc:171      1| EventInstance::PJRT_Event_Destroy
2025-09-15 15:40:58.771 (   7.097s) [        F073E000]  device_description.cc:44       1| DeviceDescription::PJRT_DeviceDescription_Id
2025-09-15 15:40:58.771 (   7.097s) [        F073E000]  device_description.cc:44       1| DeviceDescription::PJRT_DeviceDescription_Id
2025-09-15 15:40:58.772 (   7.098s) [        F073E000]     device_instance.cc:82       1| DeviceInstance::PJRT_Device_DefaultMemory
2025-09-15 15:40:58.772 (   7.098s) [        F073E000]     client_instance.cc:466      1| ClientInstance::PJRT_Client_BufferFromHostBuffer
2025-09-15 15:40:58.772 (   7.098s) [        F073E000]     memory_instance.cc:57       1| MemoryInstance::getDevice
2025-09-15 15:40:58.772 (   7.098s) [        F073E000]      event_instance.cc:222      1| EventInstance::PJRT_Event_OnReady
2025-09-15 15:40:58.772 (   7.098s) [        F073E000]      event_instance.cc:171      1| EventInstance::PJRT_Event_Destroy
2025-09-15 15:40:58.772 (   7.098s) [        F073E000]     device_instance.cc:82       1| DeviceInstance::PJRT_Device_DefaultMemory
2025-09-15 15:40:58.772 (   7.098s) [        F073E000]     client_instance.cc:466      1| ClientInstance::PJRT_Client_BufferFromHostBuffer
2025-09-15 15:40:58.772 (   7.098s) [        F073E000]     memory_instance.cc:57       1| MemoryInstance::getDevice
2025-09-15 15:40:58.772 (   7.098s) [        F073E000]      event_instance.cc:222      1| EventInstance::PJRT_Event_OnReady
2025-09-15 15:40:58.772 (   7.098s) [        F073E000]      event_instance.cc:171      1| EventInstance::PJRT_Event_Destroy
2025-09-15 15:40:58.772 (   7.099s) [        F073E000]  device_description.cc:44       1| DeviceDescription::PJRT_DeviceDescription_Id
2025-09-15 15:40:58.772 (   7.099s) [        F073E000]  device_description.cc:44       1| DeviceDescription::PJRT_DeviceDescription_Id
2025-09-15 15:40:58.774 (   7.100s) [        F073E000]     device_instance.cc:82       1| DeviceInstance::PJRT_Device_DefaultMemory
2025-09-15 15:40:58.774 (   7.100s) [        F073E000]     client_instance.cc:466      1| ClientInstance::PJRT_Client_BufferFromHostBuffer
2025-09-15 15:40:58.774 (   7.100s) [        F073E000]     memory_instance.cc:57       1| MemoryInstance::getDevice
2025-09-15 15:40:58.774 (   7.100s) [        F073E000]      event_instance.cc:222      1| EventInstance::PJRT_Event_OnReady
2025-09-15 15:40:58.774 (   7.100s) [        F073E000]      event_instance.cc:171      1| EventInstance::PJRT_Event_Destroy
2025-09-15 15:40:58.774 (   7.100s) [        F073E000]     device_instance.cc:82       1| DeviceInstance::PJRT_Device_DefaultMemory
2025-09-15 15:40:58.774 (   7.100s) [        F073E000]     client_instance.cc:466      1| ClientInstance::PJRT_Client_BufferFromHostBuffer
2025-09-15 15:40:58.774 (   7.100s) [        F073E000]     memory_instance.cc:57       1| MemoryInstance::getDevice
2025-09-15 15:40:58.774 (   7.101s) [        F073E000]      event_instance.cc:222      1| EventInstance::PJRT_Event_OnReady
2025-09-15 15:40:58.774 (   7.101s) [        F073E000]      event_instance.cc:171      1| EventInstance::PJRT_Event_Destroy
2025-09-15 15:40:58.774 (   7.101s) [        F073E000]  device_description.cc:44       1| DeviceDescription::PJRT_DeviceDescription_Id
2025-09-15 15:40:58.774 (   7.101s) [        F073E000]  device_description.cc:44       1| DeviceDescription::PJRT_DeviceDescription_Id
2025-09-15 15:40:58.780 (   7.106s) [        F073E000]     device_instance.cc:82       1| DeviceInstance::PJRT_Device_DefaultMemory
2025-09-15 15:40:58.780 (   7.106s) [        F073E000]     client_instance.cc:466      1| ClientInstance::PJRT_Client_BufferFromHostBuffer
2025-09-15 15:40:58.780 (   7.106s) [        F073E000]     memory_instance.cc:57       1| MemoryInstance::getDevice
2025-09-15 15:40:58.780 (   7.107s) [        F073E000]      event_instance.cc:222      1| EventInstance::PJRT_Event_OnReady
2025-09-15 15:40:58.780 (   7.107s) [        F073E000]      event_instance.cc:171      1| EventInstance::PJRT_Event_Destroy
2025-09-15 15:40:58.780 (   7.107s) [        F073E000]     device_instance.cc:82       1| DeviceInstance::PJRT_Device_DefaultMemory
2025-09-15 15:40:58.780 (   7.107s) [        F073E000]     client_instance.cc:466      1| ClientInstance::PJRT_Client_BufferFromHostBuffer
2025-09-15 15:40:58.780 (   7.107s) [        F073E000]     memory_instance.cc:57       1| MemoryInstance::getDevice
2025-09-15 15:40:58.780 (   7.107s) [        F073E000]      event_instance.cc:222      1| EventInstance::PJRT_Event_OnReady
2025-09-15 15:40:58.780 (   7.107s) [        F073E000]      event_instance.cc:171      1| EventInstance::PJRT_Event_Destroy
2025-09-15 15:40:58.785 (   7.111s) [        F073E000]  device_description.cc:44       1| DeviceDescription::PJRT_DeviceDescription_Id
2025-09-15 15:40:58.785 (   7.111s) [        F073E000]  device_description.cc:44       1| DeviceDescription::PJRT_DeviceDescription_Id
2025-09-15 15:40:58.789 (   7.116s) [        F073E000]     device_instance.cc:82       1| DeviceInstance::PJRT_Device_DefaultMemory
2025-09-15 15:40:58.789 (   7.116s) [        F073E000]     client_instance.cc:466      1| ClientInstance::PJRT_Client_BufferFromHostBuffer
2025-09-15 15:40:58.789 (   7.116s) [        F073E000]     memory_instance.cc:57       1| MemoryInstance::getDevice
2025-09-15 15:40:58.790 (   7.116s) [        F073E000]      event_instance.cc:222      1| EventInstance::PJRT_Event_OnReady
2025-09-15 15:40:58.790 (   7.116s) [        F073E000]      event_instance.cc:171      1| EventInstance::PJRT_Event_Destroy
2025-09-15 15:40:58.790 (   7.116s) [        F073E000]     device_instance.cc:82       1| DeviceInstance::PJRT_Device_DefaultMemory
2025-09-15 15:40:58.790 (   7.116s) [        F073E000]     client_instance.cc:466      1| ClientInstance::PJRT_Client_BufferFromHostBuffer
2025-09-15 15:40:58.790 (   7.116s) [        F073E000]     memory_instance.cc:57       1| MemoryInstance::getDevice
2025-09-15 15:40:58.790 (   7.116s) [        F073E000]      event_instance.cc:222      1| EventInstance::PJRT_Event_OnReady
2025-09-15 15:40:58.790 (   7.116s) [        F073E000]      event_instance.cc:171      1| EventInstance::PJRT_Event_Destroy
2025-09-15 15:40:58.794 (   7.121s) [        F073E000]  device_description.cc:44       1| DeviceDescription::PJRT_DeviceDescription_Id
2025-09-15 15:40:58.794 (   7.121s) [        F073E000]  device_description.cc:44       1| DeviceDescription::PJRT_DeviceDescription_Id
2025-09-15 15:40:58.801 (   7.128s) [        F073E000]     device_instance.cc:82       1| DeviceInstance::PJRT_Device_DefaultMemory
2025-09-15 15:40:58.801 (   7.128s) [        F073E000]     client_instance.cc:466      1| ClientInstance::PJRT_Client_BufferFromHostBuffer
2025-09-15 15:40:58.801 (   7.128s) [        F073E000]     memory_instance.cc:57       1| MemoryInstance::getDevice
2025-09-15 15:40:58.802 (   7.128s) [        F073E000]      event_instance.cc:222      1| EventInstance::PJRT_Event_OnReady
2025-09-15 15:40:58.802 (   7.128s) [        F073E000]      event_instance.cc:171      1| EventInstance::PJRT_Event_Destroy
2025-09-15 15:40:58.802 (   7.128s) [        F073E000]     device_instance.cc:82       1| DeviceInstance::PJRT_Device_DefaultMemory
2025-09-15 15:40:58.802 (   7.128s) [        F073E000]     client_instance.cc:466      1| ClientInstance::PJRT_Client_BufferFromHostBuffer
2025-09-15 15:40:58.802 (   7.128s) [        F073E000]     memory_instance.cc:57       1| MemoryInstance::getDevice
2025-09-15 15:40:58.802 (   7.128s) [        F073E000]      event_instance.cc:222      1| EventInstance::PJRT_Event_OnReady
2025-09-15 15:40:58.802 (   7.128s) [        F073E000]      event_instance.cc:171      1| EventInstance::PJRT_Event_Destroy
2025-09-15 15:40:58.806 (   7.133s) [        F073E000]  device_description.cc:44       1| DeviceDescription::PJRT_DeviceDescription_Id
2025-09-15 15:40:58.806 (   7.133s) [        F073E000]  device_description.cc:44       1| DeviceDescription::PJRT_DeviceDescription_Id
2025-09-15 15:40:58.807 (   7.134s) [        F073E000]     device_instance.cc:82       1| DeviceInstance::PJRT_Device_DefaultMemory
2025-09-15 15:40:58.807 (   7.134s) [        F073E000]     client_instance.cc:466      1| ClientInstance::PJRT_Client_BufferFromHostBuffer
2025-09-15 15:40:58.807 (   7.134s) [        F073E000]     memory_instance.cc:57       1| MemoryInstance::getDevice
2025-09-15 15:40:58.808 (   7.134s) [        F073E000]      event_instance.cc:222      1| EventInstance::PJRT_Event_OnReady
2025-09-15 15:40:58.808 (   7.134s) [        F073E000]      event_instance.cc:171      1| EventInstance::PJRT_Event_Destroy
2025-09-15 15:40:58.808 (   7.134s) [        F073E000]     device_instance.cc:82       1| DeviceInstance::PJRT_Device_DefaultMemory
2025-09-15 15:40:58.808 (   7.134s) [        F073E000]     client_instance.cc:466      1| ClientInstance::PJRT_Client_BufferFromHostBuffer
2025-09-15 15:40:58.808 (   7.134s) [        F073E000]     memory_instance.cc:57       1| MemoryInstance::getDevice
2025-09-15 15:40:58.808 (   7.134s) [        F073E000]      event_instance.cc:222      1| EventInstance::PJRT_Event_OnReady
2025-09-15 15:40:58.808 (   7.134s) [        F073E000]      event_instance.cc:171      1| EventInstance::PJRT_Event_Destroy
2025-09-15 15:40:58.808 (   7.134s) [        F073E000]  device_description.cc:44       1| DeviceDescription::PJRT_DeviceDescription_Id
2025-09-15 15:40:58.808 (   7.134s) [        F073E000]  device_description.cc:44       1| DeviceDescription::PJRT_DeviceDescription_Id
2025-09-15 15:40:58.808 (   7.135s) [        F073E000]     device_instance.cc:82       1| DeviceInstance::PJRT_Device_DefaultMemory
2025-09-15 15:40:58.808 (   7.135s) [        F073E000]     client_instance.cc:466      1| ClientInstance::PJRT_Client_BufferFromHostBuffer
2025-09-15 15:40:58.808 (   7.135s) [        F073E000]     memory_instance.cc:57       1| MemoryInstance::getDevice
2025-09-15 15:40:58.808 (   7.135s) [        F073E000]      event_instance.cc:222      1| EventInstance::PJRT_Event_OnReady
2025-09-15 15:40:58.808 (   7.135s) [        F073E000]      event_instance.cc:171      1| EventInstance::PJRT_Event_Destroy
2025-09-15 15:40:58.808 (   7.135s) [        F073E000]     device_instance.cc:82       1| DeviceInstance::PJRT_Device_DefaultMemory
2025-09-15 15:40:58.808 (   7.135s) [        F073E000]     client_instance.cc:466      1| ClientInstance::PJRT_Client_BufferFromHostBuffer
2025-09-15 15:40:58.808 (   7.135s) [        F073E000]     memory_instance.cc:57       1| MemoryInstance::getDevice
2025-09-15 15:40:58.809 (   7.135s) [        F073E000]      event_instance.cc:222      1| EventInstance::PJRT_Event_OnReady
2025-09-15 15:40:58.809 (   7.135s) [        F073E000]      event_instance.cc:171      1| EventInstance::PJRT_Event_Destroy
2025-09-15 15:40:58.809 (   7.135s) [        F073E000]  device_description.cc:44       1| DeviceDescription::PJRT_DeviceDescription_Id
2025-09-15 15:40:58.809 (   7.135s) [        F073E000]  device_description.cc:44       1| DeviceDescription::PJRT_DeviceDescription_Id
2025-09-15 15:40:58.809 (   7.135s) [        F073E000]     device_instance.cc:82       1| DeviceInstance::PJRT_Device_DefaultMemory
2025-09-15 15:40:58.809 (   7.135s) [        F073E000]     client_instance.cc:466      1| ClientInstance::PJRT_Client_BufferFromHostBuffer
2025-09-15 15:40:58.809 (   7.135s) [        F073E000]     memory_instance.cc:57       1| MemoryInstance::getDevice
2025-09-15 15:40:58.809 (   7.136s) [        F073E000]      event_instance.cc:222      1| EventInstance::PJRT_Event_OnReady
2025-09-15 15:40:58.809 (   7.136s) [        F073E000]      event_instance.cc:171      1| EventInstance::PJRT_Event_Destroy
2025-09-15 15:40:58.809 (   7.136s) [        F073E000]     device_instance.cc:82       1| DeviceInstance::PJRT_Device_DefaultMemory
2025-09-15 15:40:58.809 (   7.136s) [        F073E000]     client_instance.cc:466      1| ClientInstance::PJRT_Client_BufferFromHostBuffer
2025-09-15 15:40:58.809 (   7.136s) [        F073E000]     memory_instance.cc:57       1| MemoryInstance::getDevice
2025-09-15 15:40:58.809 (   7.136s) [        F073E000]      event_instance.cc:222      1| EventInstance::PJRT_Event_OnReady
2025-09-15 15:40:58.809 (   7.136s) [        F073E000]      event_instance.cc:171      1| EventInstance::PJRT_Event_Destroy
2025-09-15 15:40:58.809 (   7.136s) [        F073E000]  device_description.cc:44       1| DeviceDescription::PJRT_DeviceDescription_Id
2025-09-15 15:40:58.809 (   7.136s) [        F073E000]  device_description.cc:44       1| DeviceDescription::PJRT_DeviceDescription_Id
2025-09-15 15:40:58.811 (   7.138s) [        F073E000]     device_instance.cc:82       1| DeviceInstance::PJRT_Device_DefaultMemory
2025-09-15 15:40:58.811 (   7.138s) [        F073E000]     client_instance.cc:466      1| ClientInstance::PJRT_Client_BufferFromHostBuffer
2025-09-15 15:40:58.811 (   7.138s) [        F073E000]     memory_instance.cc:57       1| MemoryInstance::getDevice
2025-09-15 15:40:58.811 (   7.138s) [        F073E000]      event_instance.cc:222      1| EventInstance::PJRT_Event_OnReady
2025-09-15 15:40:58.811 (   7.138s) [        F073E000]      event_instance.cc:171      1| EventInstance::PJRT_Event_Destroy
2025-09-15 15:40:58.811 (   7.138s) [        F073E000]     device_instance.cc:82       1| DeviceInstance::PJRT_Device_DefaultMemory
2025-09-15 15:40:58.811 (   7.138s) [        F073E000]     client_instance.cc:466      1| ClientInstance::PJRT_Client_BufferFromHostBuffer
2025-09-15 15:40:58.811 (   7.138s) [        F073E000]     memory_instance.cc:57       1| MemoryInstance::getDevice
2025-09-15 15:40:58.812 (   7.138s) [        F073E000]      event_instance.cc:222      1| EventInstance::PJRT_Event_OnReady
2025-09-15 15:40:58.812 (   7.138s) [        F073E000]      event_instance.cc:171      1| EventInstance::PJRT_Event_Destroy
2025-09-15 15:40:58.812 (   7.138s) [        F073E000]  device_description.cc:44       1| DeviceDescription::PJRT_DeviceDescription_Id
2025-09-15 15:40:58.812 (   7.138s) [        F073E000]  device_description.cc:44       1| DeviceDescription::PJRT_DeviceDescription_Id
2025-09-15 15:40:58.817 (   7.143s) [        F073E000]     device_instance.cc:82       1| DeviceInstance::PJRT_Device_DefaultMemory
2025-09-15 15:40:58.817 (   7.143s) [        F073E000]     client_instance.cc:466      1| ClientInstance::PJRT_Client_BufferFromHostBuffer
2025-09-15 15:40:58.817 (   7.144s) [        F073E000]     memory_instance.cc:57       1| MemoryInstance::getDevice
2025-09-15 15:40:58.817 (   7.144s) [        F073E000]      event_instance.cc:222      1| EventInstance::PJRT_Event_OnReady
2025-09-15 15:40:58.817 (   7.144s) [        F073E000]      event_instance.cc:171      1| EventInstance::PJRT_Event_Destroy
2025-09-15 15:40:58.817 (   7.144s) [        F073E000]     device_instance.cc:82       1| DeviceInstance::PJRT_Device_DefaultMemory
2025-09-15 15:40:58.817 (   7.144s) [        F073E000]     client_instance.cc:466      1| ClientInstance::PJRT_Client_BufferFromHostBuffer
2025-09-15 15:40:58.817 (   7.144s) [        F073E000]     memory_instance.cc:57       1| MemoryInstance::getDevice
2025-09-15 15:40:58.817 (   7.144s) [        F073E000]      event_instance.cc:222      1| EventInstance::PJRT_Event_OnReady
2025-09-15 15:40:58.817 (   7.144s) [        F073E000]      event_instance.cc:171      1| EventInstance::PJRT_Event_Destroy
2025-09-15 15:40:58.822 (   7.148s) [        F073E000]  device_description.cc:44       1| DeviceDescription::PJRT_DeviceDescription_Id
2025-09-15 15:40:58.822 (   7.148s) [        F073E000]  device_description.cc:44       1| DeviceDescription::PJRT_DeviceDescription_Id
2025-09-15 15:40:58.828 (   7.154s) [        F073E000]     device_instance.cc:82       1| DeviceInstance::PJRT_Device_DefaultMemory
2025-09-15 15:40:58.828 (   7.154s) [        F073E000]     client_instance.cc:466      1| ClientInstance::PJRT_Client_BufferFromHostBuffer
2025-09-15 15:40:58.828 (   7.154s) [        F073E000]     memory_instance.cc:57       1| MemoryInstance::getDevice
2025-09-15 15:40:58.828 (   7.154s) [        F073E000]      event_instance.cc:222      1| EventInstance::PJRT_Event_OnReady
2025-09-15 15:40:58.828 (   7.154s) [        F073E000]      event_instance.cc:171      1| EventInstance::PJRT_Event_Destroy
2025-09-15 15:40:58.828 (   7.154s) [        F073E000]     device_instance.cc:82       1| DeviceInstance::PJRT_Device_DefaultMemory
2025-09-15 15:40:58.828 (   7.154s) [        F073E000]     client_instance.cc:466      1| ClientInstance::PJRT_Client_BufferFromHostBuffer
2025-09-15 15:40:58.828 (   7.154s) [        F073E000]     memory_instance.cc:57       1| MemoryInstance::getDevice
2025-09-15 15:40:58.828 (   7.154s) [        F073E000]      event_instance.cc:222      1| EventInstance::PJRT_Event_OnReady
2025-09-15 15:40:58.828 (   7.154s) [        F073E000]      event_instance.cc:171      1| EventInstance::PJRT_Event_Destroy
2025-09-15 15:40:58.832 (   7.159s) [        F073E000]  device_description.cc:44       1| DeviceDescription::PJRT_DeviceDescription_Id
2025-09-15 15:40:58.832 (   7.159s) [        F073E000]  device_description.cc:44       1| DeviceDescription::PJRT_DeviceDescription_Id
2025-09-15 15:40:58.839 (   7.166s) [        F073E000]     device_instance.cc:82       1| DeviceInstance::PJRT_Device_DefaultMemory
2025-09-15 15:40:58.839 (   7.166s) [        F073E000]     client_instance.cc:466      1| ClientInstance::PJRT_Client_BufferFromHostBuffer
2025-09-15 15:40:58.839 (   7.166s) [        F073E000]     memory_instance.cc:57       1| MemoryInstance::getDevice
2025-09-15 15:40:58.840 (   7.166s) [        F073E000]      event_instance.cc:222      1| EventInstance::PJRT_Event_OnReady
2025-09-15 15:40:58.840 (   7.166s) [        F073E000]      event_instance.cc:171      1| EventInstance::PJRT_Event_Destroy
2025-09-15 15:40:58.840 (   7.166s) [        F073E000]     device_instance.cc:82       1| DeviceInstance::PJRT_Device_DefaultMemory
2025-09-15 15:40:58.840 (   7.166s) [        F073E000]     client_instance.cc:466      1| ClientInstance::PJRT_Client_BufferFromHostBuffer
2025-09-15 15:40:58.840 (   7.166s) [        F073E000]     memory_instance.cc:57       1| MemoryInstance::getDevice
2025-09-15 15:40:58.840 (   7.166s) [        F073E000]      event_instance.cc:222      1| EventInstance::PJRT_Event_OnReady
2025-09-15 15:40:58.840 (   7.166s) [        F073E000]      event_instance.cc:171      1| EventInstance::PJRT_Event_Destroy
2025-09-15 15:40:58.844 (   7.171s) [        F073E000]  device_description.cc:44       1| DeviceDescription::PJRT_DeviceDescription_Id
2025-09-15 15:40:58.844 (   7.171s) [        F073E000]  device_description.cc:44       1| DeviceDescription::PJRT_DeviceDescription_Id
2025-09-15 15:40:58.846 (   7.172s) [        F073E000]     device_instance.cc:82       1| DeviceInstance::PJRT_Device_DefaultMemory
2025-09-15 15:40:58.846 (   7.172s) [        F073E000]     client_instance.cc:466      1| ClientInstance::PJRT_Client_BufferFromHostBuffer
2025-09-15 15:40:58.846 (   7.172s) [        F073E000]     memory_instance.cc:57       1| MemoryInstance::getDevice
2025-09-15 15:40:58.846 (   7.172s) [        F073E000]      event_instance.cc:222      1| EventInstance::PJRT_Event_OnReady
2025-09-15 15:40:58.846 (   7.172s) [        F073E000]      event_instance.cc:171      1| EventInstance::PJRT_Event_Destroy
2025-09-15 15:40:58.846 (   7.172s) [        F073E000]     device_instance.cc:82       1| DeviceInstance::PJRT_Device_DefaultMemory
2025-09-15 15:40:58.846 (   7.172s) [        F073E000]     client_instance.cc:466      1| ClientInstance::PJRT_Client_BufferFromHostBuffer
2025-09-15 15:40:58.846 (   7.172s) [        F073E000]     memory_instance.cc:57       1| MemoryInstance::getDevice
2025-09-15 15:40:58.846 (   7.172s) [        F073E000]      event_instance.cc:222      1| EventInstance::PJRT_Event_OnReady
2025-09-15 15:40:58.846 (   7.172s) [        F073E000]      event_instance.cc:171      1| EventInstance::PJRT_Event_Destroy
2025-09-15 15:40:58.846 (   7.172s) [        F073E000]  device_description.cc:44       1| DeviceDescription::PJRT_DeviceDescription_Id
2025-09-15 15:40:58.846 (   7.172s) [        F073E000]  device_description.cc:44       1| DeviceDescription::PJRT_DeviceDescription_Id
2025-09-15 15:40:58.846 (   7.173s) [        F073E000]     device_instance.cc:82       1| DeviceInstance::PJRT_Device_DefaultMemory
2025-09-15 15:40:58.846 (   7.173s) [        F073E000]     client_instance.cc:466      1| ClientInstance::PJRT_Client_BufferFromHostBuffer
2025-09-15 15:40:58.846 (   7.173s) [        F073E000]     memory_instance.cc:57       1| MemoryInstance::getDevice
2025-09-15 15:40:58.847 (   7.173s) [        F073E000]      event_instance.cc:222      1| EventInstance::PJRT_Event_OnReady
2025-09-15 15:40:58.847 (   7.173s) [        F073E000]      event_instance.cc:171      1| EventInstance::PJRT_Event_Destroy
2025-09-15 15:40:58.847 (   7.173s) [        F073E000]     device_instance.cc:82       1| DeviceInstance::PJRT_Device_DefaultMemory
2025-09-15 15:40:58.847 (   7.173s) [        F073E000]     client_instance.cc:466      1| ClientInstance::PJRT_Client_BufferFromHostBuffer
2025-09-15 15:40:58.847 (   7.173s) [        F073E000]     memory_instance.cc:57       1| MemoryInstance::getDevice
2025-09-15 15:40:58.847 (   7.173s) [        F073E000]      event_instance.cc:222      1| EventInstance::PJRT_Event_OnReady
2025-09-15 15:40:58.847 (   7.173s) [        F073E000]      event_instance.cc:171      1| EventInstance::PJRT_Event_Destroy
2025-09-15 15:40:58.847 (   7.173s) [        F073E000]  device_description.cc:44       1| DeviceDescription::PJRT_DeviceDescription_Id
2025-09-15 15:40:58.847 (   7.173s) [        F073E000]  device_description.cc:44       1| DeviceDescription::PJRT_DeviceDescription_Id
2025-09-15 15:40:58.847 (   7.174s) [        F073E000]     device_instance.cc:82       1| DeviceInstance::PJRT_Device_DefaultMemory
2025-09-15 15:40:58.847 (   7.174s) [        F073E000]     client_instance.cc:466      1| ClientInstance::PJRT_Client_BufferFromHostBuffer
2025-09-15 15:40:58.847 (   7.174s) [        F073E000]     memory_instance.cc:57       1| MemoryInstance::getDevice
2025-09-15 15:40:58.847 (   7.174s) [        F073E000]      event_instance.cc:222      1| EventInstance::PJRT_Event_OnReady
2025-09-15 15:40:58.847 (   7.174s) [        F073E000]      event_instance.cc:171      1| EventInstance::PJRT_Event_Destroy
2025-09-15 15:40:58.847 (   7.174s) [        F073E000]     device_instance.cc:82       1| DeviceInstance::PJRT_Device_DefaultMemory
2025-09-15 15:40:58.847 (   7.174s) [        F073E000]     client_instance.cc:466      1| ClientInstance::PJRT_Client_BufferFromHostBuffer
2025-09-15 15:40:58.847 (   7.174s) [        F073E000]     memory_instance.cc:57       1| MemoryInstance::getDevice
2025-09-15 15:40:58.848 (   7.174s) [        F073E000]      event_instance.cc:222      1| EventInstance::PJRT_Event_OnReady
2025-09-15 15:40:58.848 (   7.174s) [        F073E000]      event_instance.cc:171      1| EventInstance::PJRT_Event_Destroy
2025-09-15 15:40:58.848 (   7.174s) [        F073E000]  device_description.cc:44       1| DeviceDescription::PJRT_DeviceDescription_Id
2025-09-15 15:40:58.848 (   7.174s) [        F073E000]  device_description.cc:44       1| DeviceDescription::PJRT_DeviceDescription_Id
2025-09-15 15:40:58.849 (   7.176s) [        F073E000]     device_instance.cc:82       1| DeviceInstance::PJRT_Device_DefaultMemory
2025-09-15 15:40:58.849 (   7.176s) [        F073E000]     client_instance.cc:466      1| ClientInstance::PJRT_Client_BufferFromHostBuffer
2025-09-15 15:40:58.849 (   7.176s) [        F073E000]     memory_instance.cc:57       1| MemoryInstance::getDevice
2025-09-15 15:40:58.849 (   7.176s) [        F073E000]      event_instance.cc:222      1| EventInstance::PJRT_Event_OnReady
2025-09-15 15:40:58.849 (   7.176s) [        F073E000]      event_instance.cc:171      1| EventInstance::PJRT_Event_Destroy
2025-09-15 15:40:58.849 (   7.176s) [        F073E000]     device_instance.cc:82       1| DeviceInstance::PJRT_Device_DefaultMemory
2025-09-15 15:40:58.849 (   7.176s) [        F073E000]     client_instance.cc:466      1| ClientInstance::PJRT_Client_BufferFromHostBuffer
2025-09-15 15:40:58.849 (   7.176s) [        F073E000]     memory_instance.cc:57       1| MemoryInstance::getDevice
2025-09-15 15:40:58.849 (   7.176s) [        F073E000]      event_instance.cc:222      1| EventInstance::PJRT_Event_OnReady
2025-09-15 15:40:58.849 (   7.176s) [        F073E000]      event_instance.cc:171      1| EventInstance::PJRT_Event_Destroy
2025-09-15 15:40:58.850 (   7.176s) [        F073E000]  device_description.cc:44       1| DeviceDescription::PJRT_DeviceDescription_Id
2025-09-15 15:40:58.850 (   7.176s) [        F073E000]  device_description.cc:44       1| DeviceDescription::PJRT_DeviceDescription_Id
2025-09-15 15:40:58.855 (   7.181s) [        F073E000]     device_instance.cc:82       1| DeviceInstance::PJRT_Device_DefaultMemory
2025-09-15 15:40:58.855 (   7.181s) [        F073E000]     client_instance.cc:466      1| ClientInstance::PJRT_Client_BufferFromHostBuffer
2025-09-15 15:40:58.855 (   7.181s) [        F073E000]     memory_instance.cc:57       1| MemoryInstance::getDevice
2025-09-15 15:40:58.855 (   7.182s) [        F073E000]      event_instance.cc:222      1| EventInstance::PJRT_Event_OnReady
2025-09-15 15:40:58.855 (   7.182s) [        F073E000]      event_instance.cc:171      1| EventInstance::PJRT_Event_Destroy
2025-09-15 15:40:58.855 (   7.182s) [        F073E000]     device_instance.cc:82       1| DeviceInstance::PJRT_Device_DefaultMemory
2025-09-15 15:40:58.855 (   7.182s) [        F073E000]     client_instance.cc:466      1| ClientInstance::PJRT_Client_BufferFromHostBuffer
2025-09-15 15:40:58.855 (   7.182s) [        F073E000]     memory_instance.cc:57       1| MemoryInstance::getDevice
2025-09-15 15:40:58.855 (   7.182s) [        F073E000]      event_instance.cc:222      1| EventInstance::PJRT_Event_OnReady
2025-09-15 15:40:58.855 (   7.182s) [        F073E000]      event_instance.cc:171      1| EventInstance::PJRT_Event_Destroy
2025-09-15 15:40:58.860 (   7.186s) [        F073E000]  device_description.cc:44       1| DeviceDescription::PJRT_DeviceDescription_Id
2025-09-15 15:40:58.860 (   7.187s) [        F073E000]  device_description.cc:44       1| DeviceDescription::PJRT_DeviceDescription_Id
2025-09-15 15:40:58.865 (   7.191s) [        F073E000]     device_instance.cc:82       1| DeviceInstance::PJRT_Device_DefaultMemory
2025-09-15 15:40:58.865 (   7.191s) [        F073E000]     client_instance.cc:466      1| ClientInstance::PJRT_Client_BufferFromHostBuffer
2025-09-15 15:40:58.865 (   7.191s) [        F073E000]     memory_instance.cc:57       1| MemoryInstance::getDevice
2025-09-15 15:40:58.865 (   7.191s) [        F073E000]      event_instance.cc:222      1| EventInstance::PJRT_Event_OnReady
2025-09-15 15:40:58.865 (   7.191s) [        F073E000]      event_instance.cc:171      1| EventInstance::PJRT_Event_Destroy
2025-09-15 15:40:58.865 (   7.191s) [        F073E000]     device_instance.cc:82       1| DeviceInstance::PJRT_Device_DefaultMemory
2025-09-15 15:40:58.865 (   7.191s) [        F073E000]     client_instance.cc:466      1| ClientInstance::PJRT_Client_BufferFromHostBuffer
2025-09-15 15:40:58.865 (   7.191s) [        F073E000]     memory_instance.cc:57       1| MemoryInstance::getDevice
2025-09-15 15:40:58.865 (   7.191s) [        F073E000]      event_instance.cc:222      1| EventInstance::PJRT_Event_OnReady
2025-09-15 15:40:58.865 (   7.191s) [        F073E000]      event_instance.cc:171      1| EventInstance::PJRT_Event_Destroy
2025-09-15 15:40:58.870 (   7.196s) [        F073E000]  device_description.cc:44       1| DeviceDescription::PJRT_DeviceDescription_Id
2025-09-15 15:40:58.870 (   7.196s) [        F073E000]  device_description.cc:44       1| DeviceDescription::PJRT_DeviceDescription_Id
2025-09-15 15:40:58.877 (   7.203s) [        F073E000]     device_instance.cc:82       1| DeviceInstance::PJRT_Device_DefaultMemory
2025-09-15 15:40:58.877 (   7.203s) [        F073E000]     client_instance.cc:466      1| ClientInstance::PJRT_Client_BufferFromHostBuffer
2025-09-15 15:40:58.877 (   7.203s) [        F073E000]     memory_instance.cc:57       1| MemoryInstance::getDevice
2025-09-15 15:40:58.877 (   7.204s) [        F073E000]      event_instance.cc:222      1| EventInstance::PJRT_Event_OnReady
2025-09-15 15:40:58.877 (   7.204s) [        F073E000]      event_instance.cc:171      1| EventInstance::PJRT_Event_Destroy
2025-09-15 15:40:58.877 (   7.204s) [        F073E000]     device_instance.cc:82       1| DeviceInstance::PJRT_Device_DefaultMemory
2025-09-15 15:40:58.877 (   7.204s) [        F073E000]     client_instance.cc:466      1| ClientInstance::PJRT_Client_BufferFromHostBuffer
2025-09-15 15:40:58.877 (   7.204s) [        F073E000]     memory_instance.cc:57       1| MemoryInstance::getDevice
2025-09-15 15:40:58.877 (   7.204s) [        F073E000]      event_instance.cc:222      1| EventInstance::PJRT_Event_OnReady
2025-09-15 15:40:58.877 (   7.204s) [        F073E000]      event_instance.cc:171      1| EventInstance::PJRT_Event_Destroy
2025-09-15 15:40:58.882 (   7.208s) [        F073E000]  device_description.cc:44       1| DeviceDescription::PJRT_DeviceDescription_Id
2025-09-15 15:40:58.882 (   7.208s) [        F073E000]  device_description.cc:44       1| DeviceDescription::PJRT_DeviceDescription_Id
2025-09-15 15:40:58.883 (   7.210s) [        F073E000]     device_instance.cc:82       1| DeviceInstance::PJRT_Device_DefaultMemory
2025-09-15 15:40:58.883 (   7.210s) [        F073E000]     client_instance.cc:466      1| ClientInstance::PJRT_Client_BufferFromHostBuffer
2025-09-15 15:40:58.883 (   7.210s) [        F073E000]     memory_instance.cc:57       1| MemoryInstance::getDevice
2025-09-15 15:40:58.883 (   7.210s) [        F073E000]      event_instance.cc:222      1| EventInstance::PJRT_Event_OnReady
2025-09-15 15:40:58.883 (   7.210s) [        F073E000]      event_instance.cc:171      1| EventInstance::PJRT_Event_Destroy
2025-09-15 15:40:58.883 (   7.210s) [        F073E000]     device_instance.cc:82       1| DeviceInstance::PJRT_Device_DefaultMemory
2025-09-15 15:40:58.883 (   7.210s) [        F073E000]     client_instance.cc:466      1| ClientInstance::PJRT_Client_BufferFromHostBuffer
2025-09-15 15:40:58.883 (   7.210s) [        F073E000]     memory_instance.cc:57       1| MemoryInstance::getDevice
2025-09-15 15:40:58.884 (   7.210s) [        F073E000]      event_instance.cc:222      1| EventInstance::PJRT_Event_OnReady
2025-09-15 15:40:58.884 (   7.210s) [        F073E000]      event_instance.cc:171      1| EventInstance::PJRT_Event_Destroy
2025-09-15 15:40:58.884 (   7.210s) [        F073E000]  device_description.cc:44       1| DeviceDescription::PJRT_DeviceDescription_Id
2025-09-15 15:40:58.884 (   7.210s) [        F073E000]  device_description.cc:44       1| DeviceDescription::PJRT_DeviceDescription_Id
2025-09-15 15:40:58.884 (   7.211s) [        F073E000]     device_instance.cc:82       1| DeviceInstance::PJRT_Device_DefaultMemory
2025-09-15 15:40:58.884 (   7.211s) [        F073E000]     client_instance.cc:466      1| ClientInstance::PJRT_Client_BufferFromHostBuffer
2025-09-15 15:40:58.884 (   7.211s) [        F073E000]     memory_instance.cc:57       1| MemoryInstance::getDevice
2025-09-15 15:40:58.884 (   7.211s) [        F073E000]      event_instance.cc:222      1| EventInstance::PJRT_Event_OnReady
2025-09-15 15:40:58.884 (   7.211s) [        F073E000]      event_instance.cc:171      1| EventInstance::PJRT_Event_Destroy
2025-09-15 15:40:58.884 (   7.211s) [        F073E000]     device_instance.cc:82       1| DeviceInstance::PJRT_Device_DefaultMemory
2025-09-15 15:40:58.884 (   7.211s) [        F073E000]     client_instance.cc:466      1| ClientInstance::PJRT_Client_BufferFromHostBuffer
2025-09-15 15:40:58.884 (   7.211s) [        F073E000]     memory_instance.cc:57       1| MemoryInstance::getDevice
2025-09-15 15:40:58.885 (   7.211s) [        F073E000]      event_instance.cc:222      1| EventInstance::PJRT_Event_OnReady
2025-09-15 15:40:58.885 (   7.211s) [        F073E000]      event_instance.cc:171      1| EventInstance::PJRT_Event_Destroy
2025-09-15 15:40:58.885 (   7.211s) [        F073E000]  device_description.cc:44       1| DeviceDescription::PJRT_DeviceDescription_Id
2025-09-15 15:40:58.885 (   7.211s) [        F073E000]  device_description.cc:44       1| DeviceDescription::PJRT_DeviceDescription_Id
2025-09-15 15:40:58.885 (   7.211s) [        F073E000]     device_instance.cc:82       1| DeviceInstance::PJRT_Device_DefaultMemory
2025-09-15 15:40:58.885 (   7.211s) [        F073E000]     client_instance.cc:466      1| ClientInstance::PJRT_Client_BufferFromHostBuffer
2025-09-15 15:40:58.885 (   7.211s) [        F073E000]     memory_instance.cc:57       1| MemoryInstance::getDevice
2025-09-15 15:40:58.885 (   7.212s) [        F073E000]      event_instance.cc:222      1| EventInstance::PJRT_Event_OnReady
2025-09-15 15:40:58.885 (   7.212s) [        F073E000]      event_instance.cc:171      1| EventInstance::PJRT_Event_Destroy
2025-09-15 15:40:58.885 (   7.212s) [        F073E000]     device_instance.cc:82       1| DeviceInstance::PJRT_Device_DefaultMemory
2025-09-15 15:40:58.885 (   7.212s) [        F073E000]     client_instance.cc:466      1| ClientInstance::PJRT_Client_BufferFromHostBuffer
2025-09-15 15:40:58.885 (   7.212s) [        F073E000]     memory_instance.cc:57       1| MemoryInstance::getDevice
2025-09-15 15:40:58.885 (   7.212s) [        F073E000]      event_instance.cc:222      1| EventInstance::PJRT_Event_OnReady
2025-09-15 15:40:58.885 (   7.212s) [        F073E000]      event_instance.cc:171      1| EventInstance::PJRT_Event_Destroy
2025-09-15 15:40:58.886 (   7.212s) [        F073E000]  device_description.cc:44       1| DeviceDescription::PJRT_DeviceDescription_Id
2025-09-15 15:40:58.886 (   7.212s) [        F073E000]  device_description.cc:44       1| DeviceDescription::PJRT_DeviceDescription_Id
2025-09-15 15:40:58.887 (   7.214s) [        F073E000]     device_instance.cc:82       1| DeviceInstance::PJRT_Device_DefaultMemory
2025-09-15 15:40:58.887 (   7.214s) [        F073E000]     client_instance.cc:466      1| ClientInstance::PJRT_Client_BufferFromHostBuffer
2025-09-15 15:40:58.887 (   7.214s) [        F073E000]     memory_instance.cc:57       1| MemoryInstance::getDevice
2025-09-15 15:40:58.887 (   7.214s) [        F073E000]      event_instance.cc:222      1| EventInstance::PJRT_Event_OnReady
2025-09-15 15:40:58.887 (   7.214s) [        F073E000]      event_instance.cc:171      1| EventInstance::PJRT_Event_Destroy
2025-09-15 15:40:58.887 (   7.214s) [        F073E000]     device_instance.cc:82       1| DeviceInstance::PJRT_Device_DefaultMemory
2025-09-15 15:40:58.887 (   7.214s) [        F073E000]     client_instance.cc:466      1| ClientInstance::PJRT_Client_BufferFromHostBuffer
2025-09-15 15:40:58.887 (   7.214s) [        F073E000]     memory_instance.cc:57       1| MemoryInstance::getDevice
2025-09-15 15:40:58.888 (   7.214s) [        F073E000]      event_instance.cc:222      1| EventInstance::PJRT_Event_OnReady
2025-09-15 15:40:58.888 (   7.214s) [        F073E000]      event_instance.cc:171      1| EventInstance::PJRT_Event_Destroy
2025-09-15 15:40:58.888 (   7.214s) [        F073E000]  device_description.cc:44       1| DeviceDescription::PJRT_DeviceDescription_Id
2025-09-15 15:40:58.888 (   7.214s) [        F073E000]  device_description.cc:44       1| DeviceDescription::PJRT_DeviceDescription_Id
2025-09-15 15:40:58.893 (   7.220s) [        F073E000]     device_instance.cc:82       1| DeviceInstance::PJRT_Device_DefaultMemory
2025-09-15 15:40:58.893 (   7.220s) [        F073E000]     client_instance.cc:466      1| ClientInstance::PJRT_Client_BufferFromHostBuffer
2025-09-15 15:40:58.893 (   7.220s) [        F073E000]     memory_instance.cc:57       1| MemoryInstance::getDevice
2025-09-15 15:40:58.894 (   7.220s) [        F073E000]      event_instance.cc:222      1| EventInstance::PJRT_Event_OnReady
2025-09-15 15:40:58.894 (   7.220s) [        F073E000]      event_instance.cc:171      1| EventInstance::PJRT_Event_Destroy
2025-09-15 15:40:58.894 (   7.220s) [        F073E000]     device_instance.cc:82       1| DeviceInstance::PJRT_Device_DefaultMemory
2025-09-15 15:40:58.894 (   7.220s) [        F073E000]     client_instance.cc:466      1| ClientInstance::PJRT_Client_BufferFromHostBuffer
2025-09-15 15:40:58.894 (   7.220s) [        F073E000]     memory_instance.cc:57       1| MemoryInstance::getDevice
2025-09-15 15:40:58.894 (   7.220s) [        F073E000]      event_instance.cc:222      1| EventInstance::PJRT_Event_OnReady
2025-09-15 15:40:58.894 (   7.220s) [        F073E000]      event_instance.cc:171      1| EventInstance::PJRT_Event_Destroy
2025-09-15 15:40:58.899 (   7.225s) [        F073E000]  device_description.cc:44       1| DeviceDescription::PJRT_DeviceDescription_Id
2025-09-15 15:40:58.899 (   7.225s) [        F073E000]  device_description.cc:44       1| DeviceDescription::PJRT_DeviceDescription_Id
2025-09-15 15:40:58.904 (   7.231s) [        F073E000]     device_instance.cc:82       1| DeviceInstance::PJRT_Device_DefaultMemory
2025-09-15 15:40:58.904 (   7.231s) [        F073E000]     client_instance.cc:466      1| ClientInstance::PJRT_Client_BufferFromHostBuffer
2025-09-15 15:40:58.904 (   7.231s) [        F073E000]     memory_instance.cc:57       1| MemoryInstance::getDevice
2025-09-15 15:40:58.904 (   7.231s) [        F073E000]      event_instance.cc:222      1| EventInstance::PJRT_Event_OnReady
2025-09-15 15:40:58.904 (   7.231s) [        F073E000]      event_instance.cc:171      1| EventInstance::PJRT_Event_Destroy
2025-09-15 15:40:58.904 (   7.231s) [        F073E000]     device_instance.cc:82       1| DeviceInstance::PJRT_Device_DefaultMemory
2025-09-15 15:40:58.904 (   7.231s) [        F073E000]     client_instance.cc:466      1| ClientInstance::PJRT_Client_BufferFromHostBuffer
2025-09-15 15:40:58.904 (   7.231s) [        F073E000]     memory_instance.cc:57       1| MemoryInstance::getDevice
2025-09-15 15:40:58.905 (   7.231s) [        F073E000]      event_instance.cc:222      1| EventInstance::PJRT_Event_OnReady
2025-09-15 15:40:58.905 (   7.231s) [        F073E000]      event_instance.cc:171      1| EventInstance::PJRT_Event_Destroy
2025-09-15 15:40:58.909 (   7.236s) [        F073E000]  device_description.cc:44       1| DeviceDescription::PJRT_DeviceDescription_Id
2025-09-15 15:40:58.909 (   7.236s) [        F073E000]  device_description.cc:44       1| DeviceDescription::PJRT_DeviceDescription_Id
2025-09-15 15:40:58.916 (   7.243s) [        F073E000]     device_instance.cc:82       1| DeviceInstance::PJRT_Device_DefaultMemory
2025-09-15 15:40:58.916 (   7.243s) [        F073E000]     client_instance.cc:466      1| ClientInstance::PJRT_Client_BufferFromHostBuffer
2025-09-15 15:40:58.916 (   7.243s) [        F073E000]     memory_instance.cc:57       1| MemoryInstance::getDevice
2025-09-15 15:40:58.916 (   7.243s) [        F073E000]      event_instance.cc:222      1| EventInstance::PJRT_Event_OnReady
2025-09-15 15:40:58.916 (   7.243s) [        F073E000]      event_instance.cc:171      1| EventInstance::PJRT_Event_Destroy
2025-09-15 15:40:58.917 (   7.243s) [        F073E000]     device_instance.cc:82       1| DeviceInstance::PJRT_Device_DefaultMemory
2025-09-15 15:40:58.917 (   7.243s) [        F073E000]     client_instance.cc:466      1| ClientInstance::PJRT_Client_BufferFromHostBuffer
2025-09-15 15:40:58.917 (   7.243s) [        F073E000]     memory_instance.cc:57       1| MemoryInstance::getDevice
2025-09-15 15:40:58.917 (   7.243s) [        F073E000]      event_instance.cc:222      1| EventInstance::PJRT_Event_OnReady
2025-09-15 15:40:58.917 (   7.243s) [        F073E000]      event_instance.cc:171      1| EventInstance::PJRT_Event_Destroy
2025-09-15 15:40:58.921 (   7.248s) [        F073E000]  device_description.cc:44       1| DeviceDescription::PJRT_DeviceDescription_Id
2025-09-15 15:40:58.921 (   7.248s) [        F073E000]  device_description.cc:44       1| DeviceDescription::PJRT_DeviceDescription_Id
2025-09-15 15:40:58.923 (   7.249s) [        F073E000]     device_instance.cc:82       1| DeviceInstance::PJRT_Device_DefaultMemory
2025-09-15 15:40:58.923 (   7.249s) [        F073E000]     client_instance.cc:466      1| ClientInstance::PJRT_Client_BufferFromHostBuffer
2025-09-15 15:40:58.923 (   7.249s) [        F073E000]     memory_instance.cc:57       1| MemoryInstance::getDevice
2025-09-15 15:40:58.923 (   7.249s) [        F073E000]      event_instance.cc:222      1| EventInstance::PJRT_Event_OnReady
2025-09-15 15:40:58.923 (   7.249s) [        F073E000]      event_instance.cc:171      1| EventInstance::PJRT_Event_Destroy
2025-09-15 15:40:58.923 (   7.249s) [        F073E000]     device_instance.cc:82       1| DeviceInstance::PJRT_Device_DefaultMemory
2025-09-15 15:40:58.923 (   7.249s) [        F073E000]     client_instance.cc:466      1| ClientInstance::PJRT_Client_BufferFromHostBuffer
2025-09-15 15:40:58.923 (   7.249s) [        F073E000]     memory_instance.cc:57       1| MemoryInstance::getDevice
2025-09-15 15:40:58.923 (   7.249s) [        F073E000]      event_instance.cc:222      1| EventInstance::PJRT_Event_OnReady
2025-09-15 15:40:58.923 (   7.249s) [        F073E000]      event_instance.cc:171      1| EventInstance::PJRT_Event_Destroy
2025-09-15 15:40:58.923 (   7.249s) [        F073E000]  device_description.cc:44       1| DeviceDescription::PJRT_DeviceDescription_Id
2025-09-15 15:40:58.923 (   7.249s) [        F073E000]  device_description.cc:44       1| DeviceDescription::PJRT_DeviceDescription_Id
2025-09-15 15:40:58.923 (   7.250s) [        F073E000]     device_instance.cc:82       1| DeviceInstance::PJRT_Device_DefaultMemory
2025-09-15 15:40:58.923 (   7.250s) [        F073E000]     client_instance.cc:466      1| ClientInstance::PJRT_Client_BufferFromHostBuffer
2025-09-15 15:40:58.923 (   7.250s) [        F073E000]     memory_instance.cc:57       1| MemoryInstance::getDevice
2025-09-15 15:40:58.924 (   7.250s) [        F073E000]      event_instance.cc:222      1| EventInstance::PJRT_Event_OnReady
2025-09-15 15:40:58.924 (   7.250s) [        F073E000]      event_instance.cc:171      1| EventInstance::PJRT_Event_Destroy
2025-09-15 15:40:58.924 (   7.250s) [        F073E000]     device_instance.cc:82       1| DeviceInstance::PJRT_Device_DefaultMemory
2025-09-15 15:40:58.924 (   7.250s) [        F073E000]     client_instance.cc:466      1| ClientInstance::PJRT_Client_BufferFromHostBuffer
2025-09-15 15:40:58.924 (   7.250s) [        F073E000]     memory_instance.cc:57       1| MemoryInstance::getDevice
2025-09-15 15:40:58.924 (   7.250s) [        F073E000]      event_instance.cc:222      1| EventInstance::PJRT_Event_OnReady
2025-09-15 15:40:58.924 (   7.250s) [        F073E000]      event_instance.cc:171      1| EventInstance::PJRT_Event_Destroy
2025-09-15 15:40:58.924 (   7.250s) [        F073E000]  device_description.cc:44       1| DeviceDescription::PJRT_DeviceDescription_Id
2025-09-15 15:40:58.924 (   7.250s) [        F073E000]  device_description.cc:44       1| DeviceDescription::PJRT_DeviceDescription_Id
2025-09-15 15:40:58.924 (   7.251s) [        F073E000]     device_instance.cc:82       1| DeviceInstance::PJRT_Device_DefaultMemory
2025-09-15 15:40:58.924 (   7.251s) [        F073E000]     client_instance.cc:466      1| ClientInstance::PJRT_Client_BufferFromHostBuffer
2025-09-15 15:40:58.924 (   7.251s) [        F073E000]     memory_instance.cc:57       1| MemoryInstance::getDevice
2025-09-15 15:40:58.924 (   7.251s) [        F073E000]      event_instance.cc:222      1| EventInstance::PJRT_Event_OnReady
2025-09-15 15:40:58.924 (   7.251s) [        F073E000]      event_instance.cc:171      1| EventInstance::PJRT_Event_Destroy
2025-09-15 15:40:58.924 (   7.251s) [        F073E000]     device_instance.cc:82       1| DeviceInstance::PJRT_Device_DefaultMemory
2025-09-15 15:40:58.924 (   7.251s) [        F073E000]     client_instance.cc:466      1| ClientInstance::PJRT_Client_BufferFromHostBuffer
2025-09-15 15:40:58.924 (   7.251s) [        F073E000]     memory_instance.cc:57       1| MemoryInstance::getDevice
2025-09-15 15:40:58.924 (   7.251s) [        F073E000]      event_instance.cc:222      1| EventInstance::PJRT_Event_OnReady
2025-09-15 15:40:58.924 (   7.251s) [        F073E000]      event_instance.cc:171      1| EventInstance::PJRT_Event_Destroy
2025-09-15 15:40:58.925 (   7.251s) [        F073E000]  device_description.cc:44       1| DeviceDescription::PJRT_DeviceDescription_Id
2025-09-15 15:40:58.925 (   7.251s) [        F073E000]  device_description.cc:44       1| DeviceDescription::PJRT_DeviceDescription_Id
2025-09-15 15:40:58.926 (   7.252s) [        F073E000]     device_instance.cc:82       1| DeviceInstance::PJRT_Device_DefaultMemory
2025-09-15 15:40:58.926 (   7.252s) [        F073E000]     client_instance.cc:466      1| ClientInstance::PJRT_Client_BufferFromHostBuffer
2025-09-15 15:40:58.926 (   7.252s) [        F073E000]     memory_instance.cc:57       1| MemoryInstance::getDevice
2025-09-15 15:40:58.926 (   7.252s) [        F073E000]      event_instance.cc:222      1| EventInstance::PJRT_Event_OnReady
2025-09-15 15:40:58.926 (   7.252s) [        F073E000]      event_instance.cc:171      1| EventInstance::PJRT_Event_Destroy
2025-09-15 15:40:58.926 (   7.252s) [        F073E000]     device_instance.cc:82       1| DeviceInstance::PJRT_Device_DefaultMemory
2025-09-15 15:40:58.926 (   7.252s) [        F073E000]     client_instance.cc:466      1| ClientInstance::PJRT_Client_BufferFromHostBuffer
2025-09-15 15:40:58.926 (   7.252s) [        F073E000]     memory_instance.cc:57       1| MemoryInstance::getDevice
2025-09-15 15:40:58.926 (   7.252s) [        F073E000]      event_instance.cc:222      1| EventInstance::PJRT_Event_OnReady
2025-09-15 15:40:58.926 (   7.252s) [        F073E000]      event_instance.cc:171      1| EventInstance::PJRT_Event_Destroy
2025-09-15 15:40:58.926 (   7.253s) [        F073E000]  device_description.cc:44       1| DeviceDescription::PJRT_DeviceDescription_Id
2025-09-15 15:40:58.926 (   7.253s) [        F073E000]  device_description.cc:44       1| DeviceDescription::PJRT_DeviceDescription_Id
2025-09-15 15:40:58.931 (   7.257s) [        F073E000]     device_instance.cc:82       1| DeviceInstance::PJRT_Device_DefaultMemory
2025-09-15 15:40:58.931 (   7.257s) [        F073E000]     client_instance.cc:466      1| ClientInstance::PJRT_Client_BufferFromHostBuffer
2025-09-15 15:40:58.931 (   7.257s) [        F073E000]     memory_instance.cc:57       1| MemoryInstance::getDevice
2025-09-15 15:40:58.931 (   7.257s) [        F073E000]      event_instance.cc:222      1| EventInstance::PJRT_Event_OnReady
2025-09-15 15:40:58.931 (   7.257s) [        F073E000]      event_instance.cc:171      1| EventInstance::PJRT_Event_Destroy
2025-09-15 15:40:58.931 (   7.257s) [        F073E000]     device_instance.cc:82       1| DeviceInstance::PJRT_Device_DefaultMemory
2025-09-15 15:40:58.931 (   7.257s) [        F073E000]     client_instance.cc:466      1| ClientInstance::PJRT_Client_BufferFromHostBuffer
2025-09-15 15:40:58.931 (   7.257s) [        F073E000]     memory_instance.cc:57       1| MemoryInstance::getDevice
2025-09-15 15:40:58.931 (   7.257s) [        F073E000]      event_instance.cc:222      1| EventInstance::PJRT_Event_OnReady
2025-09-15 15:40:58.931 (   7.257s) [        F073E000]      event_instance.cc:171      1| EventInstance::PJRT_Event_Destroy
2025-09-15 15:40:58.936 (   7.262s) [        F073E000]  device_description.cc:44       1| DeviceDescription::PJRT_DeviceDescription_Id
2025-09-15 15:40:58.936 (   7.262s) [        F073E000]  device_description.cc:44       1| DeviceDescription::PJRT_DeviceDescription_Id
2025-09-15 15:40:58.942 (   7.268s) [        F073E000]     device_instance.cc:82       1| DeviceInstance::PJRT_Device_DefaultMemory
2025-09-15 15:40:58.942 (   7.268s) [        F073E000]     client_instance.cc:466      1| ClientInstance::PJRT_Client_BufferFromHostBuffer
2025-09-15 15:40:58.942 (   7.268s) [        F073E000]     memory_instance.cc:57       1| MemoryInstance::getDevice
2025-09-15 15:40:58.942 (   7.268s) [        F073E000]      event_instance.cc:222      1| EventInstance::PJRT_Event_OnReady
2025-09-15 15:40:58.942 (   7.268s) [        F073E000]      event_instance.cc:171      1| EventInstance::PJRT_Event_Destroy
2025-09-15 15:40:58.942 (   7.268s) [        F073E000]     device_instance.cc:82       1| DeviceInstance::PJRT_Device_DefaultMemory
2025-09-15 15:40:58.942 (   7.268s) [        F073E000]     client_instance.cc:466      1| ClientInstance::PJRT_Client_BufferFromHostBuffer
2025-09-15 15:40:58.942 (   7.268s) [        F073E000]     memory_instance.cc:57       1| MemoryInstance::getDevice
2025-09-15 15:40:58.942 (   7.268s) [        F073E000]      event_instance.cc:222      1| EventInstance::PJRT_Event_OnReady
2025-09-15 15:40:58.942 (   7.268s) [        F073E000]      event_instance.cc:171      1| EventInstance::PJRT_Event_Destroy
2025-09-15 15:40:58.946 (   7.273s) [        F073E000]  device_description.cc:44       1| DeviceDescription::PJRT_DeviceDescription_Id
2025-09-15 15:40:58.946 (   7.273s) [        F073E000]  device_description.cc:44       1| DeviceDescription::PJRT_DeviceDescription_Id
2025-09-15 15:40:58.952 (   7.279s) [        F073E000]     device_instance.cc:82       1| DeviceInstance::PJRT_Device_DefaultMemory
2025-09-15 15:40:58.952 (   7.279s) [        F073E000]     client_instance.cc:466      1| ClientInstance::PJRT_Client_BufferFromHostBuffer
2025-09-15 15:40:58.952 (   7.279s) [        F073E000]     memory_instance.cc:57       1| MemoryInstance::getDevice
2025-09-15 15:40:58.953 (   7.279s) [        F073E000]      event_instance.cc:222      1| EventInstance::PJRT_Event_OnReady
2025-09-15 15:40:58.953 (   7.279s) [        F073E000]      event_instance.cc:171      1| EventInstance::PJRT_Event_Destroy
2025-09-15 15:40:58.953 (   7.279s) [        F073E000]     device_instance.cc:82       1| DeviceInstance::PJRT_Device_DefaultMemory
2025-09-15 15:40:58.953 (   7.279s) [        F073E000]     client_instance.cc:466      1| ClientInstance::PJRT_Client_BufferFromHostBuffer
2025-09-15 15:40:58.953 (   7.279s) [        F073E000]     memory_instance.cc:57       1| MemoryInstance::getDevice
2025-09-15 15:40:58.953 (   7.279s) [        F073E000]      event_instance.cc:222      1| EventInstance::PJRT_Event_OnReady
2025-09-15 15:40:58.953 (   7.279s) [        F073E000]      event_instance.cc:171      1| EventInstance::PJRT_Event_Destroy
2025-09-15 15:40:58.957 (   7.284s) [        F073E000]  device_description.cc:44       1| DeviceDescription::PJRT_DeviceDescription_Id
2025-09-15 15:40:58.957 (   7.284s) [        F073E000]  device_description.cc:44       1| DeviceDescription::PJRT_DeviceDescription_Id
2025-09-15 15:40:58.958 (   7.285s) [        F073E000]     device_instance.cc:82       1| DeviceInstance::PJRT_Device_DefaultMemory
2025-09-15 15:40:58.958 (   7.285s) [        F073E000]     client_instance.cc:466      1| ClientInstance::PJRT_Client_BufferFromHostBuffer
2025-09-15 15:40:58.958 (   7.285s) [        F073E000]     memory_instance.cc:57       1| MemoryInstance::getDevice
2025-09-15 15:40:58.959 (   7.285s) [        F073E000]      event_instance.cc:222      1| EventInstance::PJRT_Event_OnReady
2025-09-15 15:40:58.959 (   7.285s) [        F073E000]      event_instance.cc:171      1| EventInstance::PJRT_Event_Destroy
2025-09-15 15:40:58.959 (   7.285s) [        F073E000]     device_instance.cc:82       1| DeviceInstance::PJRT_Device_DefaultMemory
2025-09-15 15:40:58.959 (   7.285s) [        F073E000]     client_instance.cc:466      1| ClientInstance::PJRT_Client_BufferFromHostBuffer
2025-09-15 15:40:58.959 (   7.285s) [        F073E000]     memory_instance.cc:57       1| MemoryInstance::getDevice
2025-09-15 15:40:58.959 (   7.285s) [        F073E000]      event_instance.cc:222      1| EventInstance::PJRT_Event_OnReady
2025-09-15 15:40:58.959 (   7.285s) [        F073E000]      event_instance.cc:171      1| EventInstance::PJRT_Event_Destroy
2025-09-15 15:40:58.959 (   7.285s) [        F073E000]  device_description.cc:44       1| DeviceDescription::PJRT_DeviceDescription_Id
2025-09-15 15:40:58.959 (   7.285s) [        F073E000]  device_description.cc:44       1| DeviceDescription::PJRT_DeviceDescription_Id
2025-09-15 15:40:58.959 (   7.286s) [        F073E000]     device_instance.cc:82       1| DeviceInstance::PJRT_Device_DefaultMemory
2025-09-15 15:40:58.959 (   7.286s) [        F073E000]     client_instance.cc:466      1| ClientInstance::PJRT_Client_BufferFromHostBuffer
2025-09-15 15:40:58.959 (   7.286s) [        F073E000]     memory_instance.cc:57       1| MemoryInstance::getDevice
2025-09-15 15:40:58.960 (   7.286s) [        F073E000]      event_instance.cc:222      1| EventInstance::PJRT_Event_OnReady
2025-09-15 15:40:58.960 (   7.286s) [        F073E000]      event_instance.cc:171      1| EventInstance::PJRT_Event_Destroy
2025-09-15 15:40:58.960 (   7.286s) [        F073E000]     device_instance.cc:82       1| DeviceInstance::PJRT_Device_DefaultMemory
2025-09-15 15:40:58.960 (   7.286s) [        F073E000]     client_instance.cc:466      1| ClientInstance::PJRT_Client_BufferFromHostBuffer
2025-09-15 15:40:58.960 (   7.286s) [        F073E000]     memory_instance.cc:57       1| MemoryInstance::getDevice
2025-09-15 15:40:58.960 (   7.286s) [        F073E000]      event_instance.cc:222      1| EventInstance::PJRT_Event_OnReady
2025-09-15 15:40:58.960 (   7.286s) [        F073E000]      event_instance.cc:171      1| EventInstance::PJRT_Event_Destroy
2025-09-15 15:40:58.960 (   7.286s) [        F073E000]  device_description.cc:44       1| DeviceDescription::PJRT_DeviceDescription_Id
2025-09-15 15:40:58.960 (   7.286s) [        F073E000]  device_description.cc:44       1| DeviceDescription::PJRT_DeviceDescription_Id
2025-09-15 15:40:58.960 (   7.287s) [        F073E000]     device_instance.cc:82       1| DeviceInstance::PJRT_Device_DefaultMemory
2025-09-15 15:40:58.960 (   7.287s) [        F073E000]     client_instance.cc:466      1| ClientInstance::PJRT_Client_BufferFromHostBuffer
2025-09-15 15:40:58.960 (   7.287s) [        F073E000]     memory_instance.cc:57       1| MemoryInstance::getDevice
2025-09-15 15:40:58.960 (   7.287s) [        F073E000]      event_instance.cc:222      1| EventInstance::PJRT_Event_OnReady
2025-09-15 15:40:58.960 (   7.287s) [        F073E000]      event_instance.cc:171      1| EventInstance::PJRT_Event_Destroy
2025-09-15 15:40:58.960 (   7.287s) [        F073E000]     device_instance.cc:82       1| DeviceInstance::PJRT_Device_DefaultMemory
2025-09-15 15:40:58.960 (   7.287s) [        F073E000]     client_instance.cc:466      1| ClientInstance::PJRT_Client_BufferFromHostBuffer
2025-09-15 15:40:58.960 (   7.287s) [        F073E000]     memory_instance.cc:57       1| MemoryInstance::getDevice
2025-09-15 15:40:58.961 (   7.287s) [        F073E000]      event_instance.cc:222      1| EventInstance::PJRT_Event_OnReady
2025-09-15 15:40:58.961 (   7.287s) [        F073E000]      event_instance.cc:171      1| EventInstance::PJRT_Event_Destroy
2025-09-15 15:40:58.961 (   7.287s) [        F073E000]  device_description.cc:44       1| DeviceDescription::PJRT_DeviceDescription_Id
2025-09-15 15:40:58.961 (   7.287s) [        F073E000]  device_description.cc:44       1| DeviceDescription::PJRT_DeviceDescription_Id
2025-09-15 15:40:58.962 (   7.288s) [        F073E000]     device_instance.cc:82       1| DeviceInstance::PJRT_Device_DefaultMemory
2025-09-15 15:40:58.962 (   7.288s) [        F073E000]     client_instance.cc:466      1| ClientInstance::PJRT_Client_BufferFromHostBuffer
2025-09-15 15:40:58.962 (   7.288s) [        F073E000]     memory_instance.cc:57       1| MemoryInstance::getDevice
2025-09-15 15:40:58.962 (   7.288s) [        F073E000]      event_instance.cc:222      1| EventInstance::PJRT_Event_OnReady
2025-09-15 15:40:58.962 (   7.288s) [        F073E000]      event_instance.cc:171      1| EventInstance::PJRT_Event_Destroy
2025-09-15 15:40:58.962 (   7.288s) [        F073E000]     device_instance.cc:82       1| DeviceInstance::PJRT_Device_DefaultMemory
2025-09-15 15:40:58.962 (   7.288s) [        F073E000]     client_instance.cc:466      1| ClientInstance::PJRT_Client_BufferFromHostBuffer
2025-09-15 15:40:58.962 (   7.288s) [        F073E000]     memory_instance.cc:57       1| MemoryInstance::getDevice
2025-09-15 15:40:58.962 (   7.289s) [        F073E000]      event_instance.cc:222      1| EventInstance::PJRT_Event_OnReady
2025-09-15 15:40:58.962 (   7.289s) [        F073E000]      event_instance.cc:171      1| EventInstance::PJRT_Event_Destroy
2025-09-15 15:40:58.962 (   7.289s) [        F073E000]  device_description.cc:44       1| DeviceDescription::PJRT_DeviceDescription_Id
2025-09-15 15:40:58.962 (   7.289s) [        F073E000]  device_description.cc:44       1| DeviceDescription::PJRT_DeviceDescription_Id
2025-09-15 15:40:58.968 (   7.294s) [        F073E000]     device_instance.cc:82       1| DeviceInstance::PJRT_Device_DefaultMemory
2025-09-15 15:40:58.968 (   7.294s) [        F073E000]     client_instance.cc:466      1| ClientInstance::PJRT_Client_BufferFromHostBuffer
2025-09-15 15:40:58.968 (   7.294s) [        F073E000]     memory_instance.cc:57       1| MemoryInstance::getDevice
2025-09-15 15:40:58.968 (   7.294s) [        F073E000]      event_instance.cc:222      1| EventInstance::PJRT_Event_OnReady
2025-09-15 15:40:58.968 (   7.294s) [        F073E000]      event_instance.cc:171      1| EventInstance::PJRT_Event_Destroy
2025-09-15 15:40:58.968 (   7.294s) [        F073E000]     device_instance.cc:82       1| DeviceInstance::PJRT_Device_DefaultMemory
2025-09-15 15:40:58.968 (   7.294s) [        F073E000]     client_instance.cc:466      1| ClientInstance::PJRT_Client_BufferFromHostBuffer
2025-09-15 15:40:58.968 (   7.294s) [        F073E000]     memory_instance.cc:57       1| MemoryInstance::getDevice
2025-09-15 15:40:58.968 (   7.295s) [        F073E000]      event_instance.cc:222      1| EventInstance::PJRT_Event_OnReady
2025-09-15 15:40:58.968 (   7.295s) [        F073E000]      event_instance.cc:171      1| EventInstance::PJRT_Event_Destroy
2025-09-15 15:40:58.973 (   7.299s) [        F073E000]  device_description.cc:44       1| DeviceDescription::PJRT_DeviceDescription_Id
2025-09-15 15:40:58.973 (   7.300s) [        F073E000]  device_description.cc:44       1| DeviceDescription::PJRT_DeviceDescription_Id
2025-09-15 15:40:58.979 (   7.305s) [        F073E000]     device_instance.cc:82       1| DeviceInstance::PJRT_Device_DefaultMemory
2025-09-15 15:40:58.979 (   7.305s) [        F073E000]     client_instance.cc:466      1| ClientInstance::PJRT_Client_BufferFromHostBuffer
2025-09-15 15:40:58.979 (   7.305s) [        F073E000]     memory_instance.cc:57       1| MemoryInstance::getDevice
2025-09-15 15:40:58.979 (   7.305s) [        F073E000]      event_instance.cc:222      1| EventInstance::PJRT_Event_OnReady
2025-09-15 15:40:58.979 (   7.305s) [        F073E000]      event_instance.cc:171      1| EventInstance::PJRT_Event_Destroy
2025-09-15 15:40:58.979 (   7.305s) [        F073E000]     device_instance.cc:82       1| DeviceInstance::PJRT_Device_DefaultMemory
2025-09-15 15:40:58.979 (   7.305s) [        F073E000]     client_instance.cc:466      1| ClientInstance::PJRT_Client_BufferFromHostBuffer
2025-09-15 15:40:58.979 (   7.305s) [        F073E000]     memory_instance.cc:57       1| MemoryInstance::getDevice
2025-09-15 15:40:58.979 (   7.306s) [        F073E000]      event_instance.cc:222      1| EventInstance::PJRT_Event_OnReady
2025-09-15 15:40:58.979 (   7.306s) [        F073E000]      event_instance.cc:171      1| EventInstance::PJRT_Event_Destroy
2025-09-15 15:40:58.984 (   7.310s) [        F073E000]  device_description.cc:44       1| DeviceDescription::PJRT_DeviceDescription_Id
2025-09-15 15:40:58.984 (   7.310s) [        F073E000]  device_description.cc:44       1| DeviceDescription::PJRT_DeviceDescription_Id
2025-09-15 15:40:58.990 (   7.316s) [        F073E000]     device_instance.cc:82       1| DeviceInstance::PJRT_Device_DefaultMemory
2025-09-15 15:40:58.990 (   7.316s) [        F073E000]     client_instance.cc:466      1| ClientInstance::PJRT_Client_BufferFromHostBuffer
2025-09-15 15:40:58.990 (   7.316s) [        F073E000]     memory_instance.cc:57       1| MemoryInstance::getDevice
2025-09-15 15:40:58.990 (   7.317s) [        F073E000]      event_instance.cc:222      1| EventInstance::PJRT_Event_OnReady
2025-09-15 15:40:58.990 (   7.317s) [        F073E000]      event_instance.cc:171      1| EventInstance::PJRT_Event_Destroy
2025-09-15 15:40:58.990 (   7.317s) [        F073E000]     device_instance.cc:82       1| DeviceInstance::PJRT_Device_DefaultMemory
2025-09-15 15:40:58.990 (   7.317s) [        F073E000]     client_instance.cc:466      1| ClientInstance::PJRT_Client_BufferFromHostBuffer
2025-09-15 15:40:58.990 (   7.317s) [        F073E000]     memory_instance.cc:57       1| MemoryInstance::getDevice
2025-09-15 15:40:58.990 (   7.317s) [        F073E000]      event_instance.cc:222      1| EventInstance::PJRT_Event_OnReady
2025-09-15 15:40:58.991 (   7.317s) [        F073E000]      event_instance.cc:171      1| EventInstance::PJRT_Event_Destroy
2025-09-15 15:40:58.995 (   7.322s) [        F073E000]  device_description.cc:44       1| DeviceDescription::PJRT_DeviceDescription_Id
2025-09-15 15:40:58.995 (   7.322s) [        F073E000]  device_description.cc:44       1| DeviceDescription::PJRT_DeviceDescription_Id
2025-09-15 15:40:58.997 (   7.323s) [        F073E000]     device_instance.cc:82       1| DeviceInstance::PJRT_Device_DefaultMemory
2025-09-15 15:40:58.997 (   7.323s) [        F073E000]     client_instance.cc:466      1| ClientInstance::PJRT_Client_BufferFromHostBuffer
2025-09-15 15:40:58.997 (   7.323s) [        F073E000]     memory_instance.cc:57       1| MemoryInstance::getDevice
2025-09-15 15:40:58.997 (   7.323s) [        F073E000]      event_instance.cc:222      1| EventInstance::PJRT_Event_OnReady
2025-09-15 15:40:58.997 (   7.323s) [        F073E000]      event_instance.cc:171      1| EventInstance::PJRT_Event_Destroy
2025-09-15 15:40:58.997 (   7.323s) [        F073E000]     device_instance.cc:82       1| DeviceInstance::PJRT_Device_DefaultMemory
2025-09-15 15:40:58.997 (   7.323s) [        F073E000]     client_instance.cc:466      1| ClientInstance::PJRT_Client_BufferFromHostBuffer
2025-09-15 15:40:58.997 (   7.323s) [        F073E000]     memory_instance.cc:57       1| MemoryInstance::getDevice
2025-09-15 15:40:58.997 (   7.323s) [        F073E000]      event_instance.cc:222      1| EventInstance::PJRT_Event_OnReady
2025-09-15 15:40:58.997 (   7.323s) [        F073E000]      event_instance.cc:171      1| EventInstance::PJRT_Event_Destroy
2025-09-15 15:40:58.997 (   7.324s) [        F073E000]  device_description.cc:44       1| DeviceDescription::PJRT_DeviceDescription_Id
2025-09-15 15:40:58.997 (   7.324s) [        F073E000]  device_description.cc:44       1| DeviceDescription::PJRT_DeviceDescription_Id
2025-09-15 15:40:58.998 (   7.324s) [        F073E000]     device_instance.cc:82       1| DeviceInstance::PJRT_Device_DefaultMemory
2025-09-15 15:40:58.998 (   7.324s) [        F073E000]     client_instance.cc:466      1| ClientInstance::PJRT_Client_BufferFromHostBuffer
2025-09-15 15:40:58.998 (   7.324s) [        F073E000]     memory_instance.cc:57       1| MemoryInstance::getDevice
2025-09-15 15:40:58.998 (   7.324s) [        F073E000]      event_instance.cc:222      1| EventInstance::PJRT_Event_OnReady
2025-09-15 15:40:58.998 (   7.324s) [        F073E000]      event_instance.cc:171      1| EventInstance::PJRT_Event_Destroy
2025-09-15 15:40:58.998 (   7.324s) [        F073E000]     device_instance.cc:82       1| DeviceInstance::PJRT_Device_DefaultMemory
2025-09-15 15:40:58.998 (   7.324s) [        F073E000]     client_instance.cc:466      1| ClientInstance::PJRT_Client_BufferFromHostBuffer
2025-09-15 15:40:58.998 (   7.324s) [        F073E000]     memory_instance.cc:57       1| MemoryInstance::getDevice
2025-09-15 15:40:58.998 (   7.324s) [        F073E000]      event_instance.cc:222      1| EventInstance::PJRT_Event_OnReady
2025-09-15 15:40:58.998 (   7.324s) [        F073E000]      event_instance.cc:171      1| EventInstance::PJRT_Event_Destroy
2025-09-15 15:40:58.998 (   7.325s) [        F073E000]  device_description.cc:44       1| DeviceDescription::PJRT_DeviceDescription_Id
2025-09-15 15:40:58.998 (   7.325s) [        F073E000]  device_description.cc:44       1| DeviceDescription::PJRT_DeviceDescription_Id
2025-09-15 15:40:58.999 (   7.325s) [        F073E000]     device_instance.cc:82       1| DeviceInstance::PJRT_Device_DefaultMemory
2025-09-15 15:40:58.999 (   7.325s) [        F073E000]     client_instance.cc:466      1| ClientInstance::PJRT_Client_BufferFromHostBuffer
2025-09-15 15:40:58.999 (   7.325s) [        F073E000]     memory_instance.cc:57       1| MemoryInstance::getDevice
2025-09-15 15:40:58.999 (   7.325s) [        F073E000]      event_instance.cc:222      1| EventInstance::PJRT_Event_OnReady
2025-09-15 15:40:58.999 (   7.325s) [        F073E000]      event_instance.cc:171      1| EventInstance::PJRT_Event_Destroy
2025-09-15 15:40:58.999 (   7.325s) [        F073E000]     device_instance.cc:82       1| DeviceInstance::PJRT_Device_DefaultMemory
2025-09-15 15:40:58.999 (   7.325s) [        F073E000]     client_instance.cc:466      1| ClientInstance::PJRT_Client_BufferFromHostBuffer
2025-09-15 15:40:58.999 (   7.325s) [        F073E000]     memory_instance.cc:57       1| MemoryInstance::getDevice
2025-09-15 15:40:58.999 (   7.325s) [        F073E000]      event_instance.cc:222      1| EventInstance::PJRT_Event_OnReady
2025-09-15 15:40:58.999 (   7.325s) [        F073E000]      event_instance.cc:171      1| EventInstance::PJRT_Event_Destroy
2025-09-15 15:40:58.999 (   7.325s) [        F073E000]  device_description.cc:44       1| DeviceDescription::PJRT_DeviceDescription_Id
2025-09-15 15:40:58.999 (   7.325s) [        F073E000]  device_description.cc:44       1| DeviceDescription::PJRT_DeviceDescription_Id
2025-09-15 15:40:59.000 (   7.327s) [        F073E000]     device_instance.cc:82       1| DeviceInstance::PJRT_Device_DefaultMemory
2025-09-15 15:40:59.000 (   7.327s) [        F073E000]     client_instance.cc:466      1| ClientInstance::PJRT_Client_BufferFromHostBuffer
2025-09-15 15:40:59.000 (   7.327s) [        F073E000]     memory_instance.cc:57       1| MemoryInstance::getDevice
2025-09-15 15:40:59.001 (   7.327s) [        F073E000]      event_instance.cc:222      1| EventInstance::PJRT_Event_OnReady
2025-09-15 15:40:59.001 (   7.327s) [        F073E000]      event_instance.cc:171      1| EventInstance::PJRT_Event_Destroy
2025-09-15 15:40:59.001 (   7.327s) [        F073E000]     device_instance.cc:82       1| DeviceInstance::PJRT_Device_DefaultMemory
2025-09-15 15:40:59.001 (   7.327s) [        F073E000]     client_instance.cc:466      1| ClientInstance::PJRT_Client_BufferFromHostBuffer
2025-09-15 15:40:59.001 (   7.327s) [        F073E000]     memory_instance.cc:57       1| MemoryInstance::getDevice
2025-09-15 15:40:59.001 (   7.327s) [        F073E000]      event_instance.cc:222      1| EventInstance::PJRT_Event_OnReady
2025-09-15 15:40:59.001 (   7.327s) [        F073E000]      event_instance.cc:171      1| EventInstance::PJRT_Event_Destroy
2025-09-15 15:40:59.001 (   7.327s) [        F073E000]  device_description.cc:44       1| DeviceDescription::PJRT_DeviceDescription_Id
2025-09-15 15:40:59.001 (   7.327s) [        F073E000]  device_description.cc:44       1| DeviceDescription::PJRT_DeviceDescription_Id
2025-09-15 15:40:59.006 (   7.333s) [        F073E000]     device_instance.cc:82       1| DeviceInstance::PJRT_Device_DefaultMemory
2025-09-15 15:40:59.006 (   7.333s) [        F073E000]     client_instance.cc:466      1| ClientInstance::PJRT_Client_BufferFromHostBuffer
2025-09-15 15:40:59.006 (   7.333s) [        F073E000]     memory_instance.cc:57       1| MemoryInstance::getDevice
2025-09-15 15:40:59.007 (   7.333s) [        F073E000]      event_instance.cc:222      1| EventInstance::PJRT_Event_OnReady
2025-09-15 15:40:59.007 (   7.333s) [        F073E000]      event_instance.cc:171      1| EventInstance::PJRT_Event_Destroy
2025-09-15 15:40:59.007 (   7.333s) [        F073E000]     device_instance.cc:82       1| DeviceInstance::PJRT_Device_DefaultMemory
2025-09-15 15:40:59.007 (   7.333s) [        F073E000]     client_instance.cc:466      1| ClientInstance::PJRT_Client_BufferFromHostBuffer
2025-09-15 15:40:59.007 (   7.333s) [        F073E000]     memory_instance.cc:57       1| MemoryInstance::getDevice
2025-09-15 15:40:59.007 (   7.333s) [        F073E000]      event_instance.cc:222      1| EventInstance::PJRT_Event_OnReady
2025-09-15 15:40:59.007 (   7.333s) [        F073E000]      event_instance.cc:171      1| EventInstance::PJRT_Event_Destroy
2025-09-15 15:40:59.012 (   7.338s) [        F073E000]  device_description.cc:44       1| DeviceDescription::PJRT_DeviceDescription_Id
2025-09-15 15:40:59.012 (   7.338s) [        F073E000]  device_description.cc:44       1| DeviceDescription::PJRT_DeviceDescription_Id
2025-09-15 15:40:59.017 (   7.344s) [        F073E000]     device_instance.cc:82       1| DeviceInstance::PJRT_Device_DefaultMemory
2025-09-15 15:40:59.017 (   7.344s) [        F073E000]     client_instance.cc:466      1| ClientInstance::PJRT_Client_BufferFromHostBuffer
2025-09-15 15:40:59.017 (   7.344s) [        F073E000]     memory_instance.cc:57       1| MemoryInstance::getDevice
2025-09-15 15:40:59.017 (   7.344s) [        F073E000]      event_instance.cc:222      1| EventInstance::PJRT_Event_OnReady
2025-09-15 15:40:59.017 (   7.344s) [        F073E000]      event_instance.cc:171      1| EventInstance::PJRT_Event_Destroy
2025-09-15 15:40:59.017 (   7.344s) [        F073E000]     device_instance.cc:82       1| DeviceInstance::PJRT_Device_DefaultMemory
2025-09-15 15:40:59.017 (   7.344s) [        F073E000]     client_instance.cc:466      1| ClientInstance::PJRT_Client_BufferFromHostBuffer
2025-09-15 15:40:59.017 (   7.344s) [        F073E000]     memory_instance.cc:57       1| MemoryInstance::getDevice
2025-09-15 15:40:59.018 (   7.344s) [        F073E000]      event_instance.cc:222      1| EventInstance::PJRT_Event_OnReady
2025-09-15 15:40:59.018 (   7.344s) [        F073E000]      event_instance.cc:171      1| EventInstance::PJRT_Event_Destroy
2025-09-15 15:40:59.022 (   7.348s) [        F073E000]  device_description.cc:44       1| DeviceDescription::PJRT_DeviceDescription_Id
2025-09-15 15:40:59.022 (   7.348s) [        F073E000]  device_description.cc:44       1| DeviceDescription::PJRT_DeviceDescription_Id
2025-09-15 15:40:59.029 (   7.355s) [        F073E000]     device_instance.cc:82       1| DeviceInstance::PJRT_Device_DefaultMemory
2025-09-15 15:40:59.029 (   7.355s) [        F073E000]     client_instance.cc:466      1| ClientInstance::PJRT_Client_BufferFromHostBuffer
2025-09-15 15:40:59.029 (   7.355s) [        F073E000]     memory_instance.cc:57       1| MemoryInstance::getDevice
2025-09-15 15:40:59.029 (   7.356s) [        F073E000]      event_instance.cc:222      1| EventInstance::PJRT_Event_OnReady
2025-09-15 15:40:59.029 (   7.356s) [        F073E000]      event_instance.cc:171      1| EventInstance::PJRT_Event_Destroy
2025-09-15 15:40:59.029 (   7.356s) [        F073E000]     device_instance.cc:82       1| DeviceInstance::PJRT_Device_DefaultMemory
2025-09-15 15:40:59.029 (   7.356s) [        F073E000]     client_instance.cc:466      1| ClientInstance::PJRT_Client_BufferFromHostBuffer
2025-09-15 15:40:59.029 (   7.356s) [        F073E000]     memory_instance.cc:57       1| MemoryInstance::getDevice
2025-09-15 15:40:59.029 (   7.356s) [        F073E000]      event_instance.cc:222      1| EventInstance::PJRT_Event_OnReady
2025-09-15 15:40:59.030 (   7.356s) [        F073E000]      event_instance.cc:171      1| EventInstance::PJRT_Event_Destroy
2025-09-15 15:40:59.034 (   7.361s) [        F073E000]  device_description.cc:44       1| DeviceDescription::PJRT_DeviceDescription_Id
2025-09-15 15:40:59.034 (   7.361s) [        F073E000]  device_description.cc:44       1| DeviceDescription::PJRT_DeviceDescription_Id
2025-09-15 15:40:59.035 (   7.362s) [        F073E000]     device_instance.cc:82       1| DeviceInstance::PJRT_Device_DefaultMemory
2025-09-15 15:40:59.035 (   7.362s) [        F073E000]     client_instance.cc:466      1| ClientInstance::PJRT_Client_BufferFromHostBuffer
2025-09-15 15:40:59.035 (   7.362s) [        F073E000]     memory_instance.cc:57       1| MemoryInstance::getDevice
2025-09-15 15:40:59.036 (   7.362s) [        F073E000]      event_instance.cc:222      1| EventInstance::PJRT_Event_OnReady
2025-09-15 15:40:59.036 (   7.362s) [        F073E000]      event_instance.cc:171      1| EventInstance::PJRT_Event_Destroy
2025-09-15 15:40:59.036 (   7.362s) [        F073E000]     device_instance.cc:82       1| DeviceInstance::PJRT_Device_DefaultMemory
2025-09-15 15:40:59.036 (   7.362s) [        F073E000]     client_instance.cc:466      1| ClientInstance::PJRT_Client_BufferFromHostBuffer
2025-09-15 15:40:59.036 (   7.362s) [        F073E000]     memory_instance.cc:57       1| MemoryInstance::getDevice
2025-09-15 15:40:59.036 (   7.362s) [        F073E000]      event_instance.cc:222      1| EventInstance::PJRT_Event_OnReady
2025-09-15 15:40:59.036 (   7.362s) [        F073E000]      event_instance.cc:171      1| EventInstance::PJRT_Event_Destroy
2025-09-15 15:40:59.036 (   7.362s) [        F073E000]  device_description.cc:44       1| DeviceDescription::PJRT_DeviceDescription_Id
2025-09-15 15:40:59.036 (   7.362s) [        F073E000]  device_description.cc:44       1| DeviceDescription::PJRT_DeviceDescription_Id
2025-09-15 15:40:59.036 (   7.363s) [        F073E000]     device_instance.cc:82       1| DeviceInstance::PJRT_Device_DefaultMemory
2025-09-15 15:40:59.036 (   7.363s) [        F073E000]     client_instance.cc:466      1| ClientInstance::PJRT_Client_BufferFromHostBuffer
2025-09-15 15:40:59.036 (   7.363s) [        F073E000]     memory_instance.cc:57       1| MemoryInstance::getDevice
2025-09-15 15:40:59.036 (   7.363s) [        F073E000]      event_instance.cc:222      1| EventInstance::PJRT_Event_OnReady
2025-09-15 15:40:59.036 (   7.363s) [        F073E000]      event_instance.cc:171      1| EventInstance::PJRT_Event_Destroy
2025-09-15 15:40:59.036 (   7.363s) [        F073E000]     device_instance.cc:82       1| DeviceInstance::PJRT_Device_DefaultMemory
2025-09-15 15:40:59.036 (   7.363s) [        F073E000]     client_instance.cc:466      1| ClientInstance::PJRT_Client_BufferFromHostBuffer
2025-09-15 15:40:59.036 (   7.363s) [        F073E000]     memory_instance.cc:57       1| MemoryInstance::getDevice
2025-09-15 15:40:59.037 (   7.363s) [        F073E000]      event_instance.cc:222      1| EventInstance::PJRT_Event_OnReady
2025-09-15 15:40:59.037 (   7.363s) [        F073E000]      event_instance.cc:171      1| EventInstance::PJRT_Event_Destroy
2025-09-15 15:40:59.037 (   7.363s) [        F073E000]  device_description.cc:44       1| DeviceDescription::PJRT_DeviceDescription_Id
2025-09-15 15:40:59.037 (   7.363s) [        F073E000]  device_description.cc:44       1| DeviceDescription::PJRT_DeviceDescription_Id
2025-09-15 15:40:59.037 (   7.363s) [        F073E000]     device_instance.cc:82       1| DeviceInstance::PJRT_Device_DefaultMemory
2025-09-15 15:40:59.037 (   7.363s) [        F073E000]     client_instance.cc:466      1| ClientInstance::PJRT_Client_BufferFromHostBuffer
2025-09-15 15:40:59.037 (   7.363s) [        F073E000]     memory_instance.cc:57       1| MemoryInstance::getDevice
2025-09-15 15:40:59.037 (   7.364s) [        F073E000]      event_instance.cc:222      1| EventInstance::PJRT_Event_OnReady
2025-09-15 15:40:59.037 (   7.364s) [        F073E000]      event_instance.cc:171      1| EventInstance::PJRT_Event_Destroy
2025-09-15 15:40:59.037 (   7.364s) [        F073E000]     device_instance.cc:82       1| DeviceInstance::PJRT_Device_DefaultMemory
2025-09-15 15:40:59.037 (   7.364s) [        F073E000]     client_instance.cc:466      1| ClientInstance::PJRT_Client_BufferFromHostBuffer
2025-09-15 15:40:59.037 (   7.364s) [        F073E000]     memory_instance.cc:57       1| MemoryInstance::getDevice
2025-09-15 15:40:59.037 (   7.364s) [        F073E000]      event_instance.cc:222      1| EventInstance::PJRT_Event_OnReady
2025-09-15 15:40:59.037 (   7.364s) [        F073E000]      event_instance.cc:171      1| EventInstance::PJRT_Event_Destroy
2025-09-15 15:40:59.037 (   7.364s) [        F073E000]  device_description.cc:44       1| DeviceDescription::PJRT_DeviceDescription_Id
2025-09-15 15:40:59.037 (   7.364s) [        F073E000]  device_description.cc:44       1| DeviceDescription::PJRT_DeviceDescription_Id
2025-09-15 15:40:59.039 (   7.366s) [        F073E000]     device_instance.cc:82       1| DeviceInstance::PJRT_Device_DefaultMemory
2025-09-15 15:40:59.039 (   7.366s) [        F073E000]     client_instance.cc:466      1| ClientInstance::PJRT_Client_BufferFromHostBuffer
2025-09-15 15:40:59.039 (   7.366s) [        F073E000]     memory_instance.cc:57       1| MemoryInstance::getDevice
2025-09-15 15:40:59.039 (   7.366s) [        F073E000]      event_instance.cc:222      1| EventInstance::PJRT_Event_OnReady
2025-09-15 15:40:59.039 (   7.366s) [        F073E000]      event_instance.cc:171      1| EventInstance::PJRT_Event_Destroy
2025-09-15 15:40:59.039 (   7.366s) [        F073E000]     device_instance.cc:82       1| DeviceInstance::PJRT_Device_DefaultMemory
2025-09-15 15:40:59.039 (   7.366s) [        F073E000]     client_instance.cc:466      1| ClientInstance::PJRT_Client_BufferFromHostBuffer
2025-09-15 15:40:59.039 (   7.366s) [        F073E000]     memory_instance.cc:57       1| MemoryInstance::getDevice
2025-09-15 15:40:59.040 (   7.366s) [        F073E000]      event_instance.cc:222      1| EventInstance::PJRT_Event_OnReady
2025-09-15 15:40:59.040 (   7.366s) [        F073E000]      event_instance.cc:171      1| EventInstance::PJRT_Event_Destroy
2025-09-15 15:40:59.040 (   7.366s) [        F073E000]  device_description.cc:44       1| DeviceDescription::PJRT_DeviceDescription_Id
2025-09-15 15:40:59.040 (   7.366s) [        F073E000]  device_description.cc:44       1| DeviceDescription::PJRT_DeviceDescription_Id
2025-09-15 15:40:59.045 (   7.371s) [        F073E000]     device_instance.cc:82       1| DeviceInstance::PJRT_Device_DefaultMemory
2025-09-15 15:40:59.045 (   7.371s) [        F073E000]     client_instance.cc:466      1| ClientInstance::PJRT_Client_BufferFromHostBuffer
2025-09-15 15:40:59.045 (   7.371s) [        F073E000]     memory_instance.cc:57       1| MemoryInstance::getDevice
2025-09-15 15:40:59.045 (   7.372s) [        F073E000]      event_instance.cc:222      1| EventInstance::PJRT_Event_OnReady
2025-09-15 15:40:59.045 (   7.372s) [        F073E000]      event_instance.cc:171      1| EventInstance::PJRT_Event_Destroy
2025-09-15 15:40:59.045 (   7.372s) [        F073E000]     device_instance.cc:82       1| DeviceInstance::PJRT_Device_DefaultMemory
2025-09-15 15:40:59.045 (   7.372s) [        F073E000]     client_instance.cc:466      1| ClientInstance::PJRT_Client_BufferFromHostBuffer
2025-09-15 15:40:59.045 (   7.372s) [        F073E000]     memory_instance.cc:57       1| MemoryInstance::getDevice
2025-09-15 15:40:59.045 (   7.372s) [        F073E000]      event_instance.cc:222      1| EventInstance::PJRT_Event_OnReady
2025-09-15 15:40:59.045 (   7.372s) [        F073E000]      event_instance.cc:171      1| EventInstance::PJRT_Event_Destroy
2025-09-15 15:40:59.050 (   7.377s) [        F073E000]  device_description.cc:44       1| DeviceDescription::PJRT_DeviceDescription_Id
2025-09-15 15:40:59.050 (   7.377s) [        F073E000]  device_description.cc:44       1| DeviceDescription::PJRT_DeviceDescription_Id
2025-09-15 15:40:59.056 (   7.382s) [        F073E000]     device_instance.cc:82       1| DeviceInstance::PJRT_Device_DefaultMemory
2025-09-15 15:40:59.056 (   7.382s) [        F073E000]     client_instance.cc:466      1| ClientInstance::PJRT_Client_BufferFromHostBuffer
2025-09-15 15:40:59.056 (   7.382s) [        F073E000]     memory_instance.cc:57       1| MemoryInstance::getDevice
2025-09-15 15:40:59.056 (   7.382s) [        F073E000]      event_instance.cc:222      1| EventInstance::PJRT_Event_OnReady
2025-09-15 15:40:59.056 (   7.382s) [        F073E000]      event_instance.cc:171      1| EventInstance::PJRT_Event_Destroy
2025-09-15 15:40:59.056 (   7.382s) [        F073E000]     device_instance.cc:82       1| DeviceInstance::PJRT_Device_DefaultMemory
2025-09-15 15:40:59.056 (   7.382s) [        F073E000]     client_instance.cc:466      1| ClientInstance::PJRT_Client_BufferFromHostBuffer
2025-09-15 15:40:59.056 (   7.382s) [        F073E000]     memory_instance.cc:57       1| MemoryInstance::getDevice
2025-09-15 15:40:59.056 (   7.383s) [        F073E000]      event_instance.cc:222      1| EventInstance::PJRT_Event_OnReady
2025-09-15 15:40:59.056 (   7.383s) [        F073E000]      event_instance.cc:171      1| EventInstance::PJRT_Event_Destroy
2025-09-15 15:40:59.061 (   7.387s) [        F073E000]  device_description.cc:44       1| DeviceDescription::PJRT_DeviceDescription_Id
2025-09-15 15:40:59.061 (   7.387s) [        F073E000]  device_description.cc:44       1| DeviceDescription::PJRT_DeviceDescription_Id
2025-09-15 15:40:59.067 (   7.393s) [        F073E000]     device_instance.cc:82       1| DeviceInstance::PJRT_Device_DefaultMemory
2025-09-15 15:40:59.067 (   7.393s) [        F073E000]     client_instance.cc:466      1| ClientInstance::PJRT_Client_BufferFromHostBuffer
2025-09-15 15:40:59.067 (   7.393s) [        F073E000]     memory_instance.cc:57       1| MemoryInstance::getDevice
2025-09-15 15:40:59.067 (   7.393s) [        F073E000]      event_instance.cc:222      1| EventInstance::PJRT_Event_OnReady
2025-09-15 15:40:59.067 (   7.393s) [        F073E000]      event_instance.cc:171      1| EventInstance::PJRT_Event_Destroy
2025-09-15 15:40:59.067 (   7.393s) [        F073E000]     device_instance.cc:82       1| DeviceInstance::PJRT_Device_DefaultMemory
2025-09-15 15:40:59.067 (   7.393s) [        F073E000]     client_instance.cc:466      1| ClientInstance::PJRT_Client_BufferFromHostBuffer
2025-09-15 15:40:59.067 (   7.393s) [        F073E000]     memory_instance.cc:57       1| MemoryInstance::getDevice
2025-09-15 15:40:59.067 (   7.394s) [        F073E000]      event_instance.cc:222      1| EventInstance::PJRT_Event_OnReady
2025-09-15 15:40:59.067 (   7.394s) [        F073E000]      event_instance.cc:171      1| EventInstance::PJRT_Event_Destroy
2025-09-15 15:40:59.072 (   7.398s) [        F073E000]  device_description.cc:44       1| DeviceDescription::PJRT_DeviceDescription_Id
2025-09-15 15:40:59.072 (   7.398s) [        F073E000]  device_description.cc:44       1| DeviceDescription::PJRT_DeviceDescription_Id
2025-09-15 15:40:59.073 (   7.399s) [        F073E000]     device_instance.cc:82       1| DeviceInstance::PJRT_Device_DefaultMemory
2025-09-15 15:40:59.073 (   7.399s) [        F073E000]     client_instance.cc:466      1| ClientInstance::PJRT_Client_BufferFromHostBuffer
2025-09-15 15:40:59.073 (   7.399s) [        F073E000]     memory_instance.cc:57       1| MemoryInstance::getDevice
2025-09-15 15:40:59.073 (   7.399s) [        F073E000]      event_instance.cc:222      1| EventInstance::PJRT_Event_OnReady
2025-09-15 15:40:59.073 (   7.399s) [        F073E000]      event_instance.cc:171      1| EventInstance::PJRT_Event_Destroy
2025-09-15 15:40:59.073 (   7.399s) [        F073E000]     device_instance.cc:82       1| DeviceInstance::PJRT_Device_DefaultMemory
2025-09-15 15:40:59.073 (   7.399s) [        F073E000]     client_instance.cc:466      1| ClientInstance::PJRT_Client_BufferFromHostBuffer
2025-09-15 15:40:59.073 (   7.399s) [        F073E000]     memory_instance.cc:57       1| MemoryInstance::getDevice
2025-09-15 15:40:59.073 (   7.400s) [        F073E000]      event_instance.cc:222      1| EventInstance::PJRT_Event_OnReady
2025-09-15 15:40:59.073 (   7.400s) [        F073E000]      event_instance.cc:171      1| EventInstance::PJRT_Event_Destroy
2025-09-15 15:40:59.073 (   7.400s) [        F073E000]  device_description.cc:44       1| DeviceDescription::PJRT_DeviceDescription_Id
2025-09-15 15:40:59.073 (   7.400s) [        F073E000]  device_description.cc:44       1| DeviceDescription::PJRT_DeviceDescription_Id
2025-09-15 15:40:59.074 (   7.400s) [        F073E000]     device_instance.cc:82       1| DeviceInstance::PJRT_Device_DefaultMemory
2025-09-15 15:40:59.074 (   7.400s) [        F073E000]     client_instance.cc:466      1| ClientInstance::PJRT_Client_BufferFromHostBuffer
2025-09-15 15:40:59.074 (   7.400s) [        F073E000]     memory_instance.cc:57       1| MemoryInstance::getDevice
2025-09-15 15:40:59.074 (   7.400s) [        F073E000]      event_instance.cc:222      1| EventInstance::PJRT_Event_OnReady
2025-09-15 15:40:59.074 (   7.400s) [        F073E000]      event_instance.cc:171      1| EventInstance::PJRT_Event_Destroy
2025-09-15 15:40:59.074 (   7.400s) [        F073E000]     device_instance.cc:82       1| DeviceInstance::PJRT_Device_DefaultMemory
2025-09-15 15:40:59.074 (   7.400s) [        F073E000]     client_instance.cc:466      1| ClientInstance::PJRT_Client_BufferFromHostBuffer
2025-09-15 15:40:59.074 (   7.400s) [        F073E000]     memory_instance.cc:57       1| MemoryInstance::getDevice
2025-09-15 15:40:59.074 (   7.400s) [        F073E000]      event_instance.cc:222      1| EventInstance::PJRT_Event_OnReady
2025-09-15 15:40:59.074 (   7.400s) [        F073E000]      event_instance.cc:171      1| EventInstance::PJRT_Event_Destroy
2025-09-15 15:40:59.074 (   7.400s) [        F073E000]  device_description.cc:44       1| DeviceDescription::PJRT_DeviceDescription_Id
2025-09-15 15:40:59.074 (   7.400s) [        F073E000]  device_description.cc:44       1| DeviceDescription::PJRT_DeviceDescription_Id
2025-09-15 15:40:59.074 (   7.401s) [        F073E000]     device_instance.cc:82       1| DeviceInstance::PJRT_Device_DefaultMemory
2025-09-15 15:40:59.074 (   7.401s) [        F073E000]     client_instance.cc:466      1| ClientInstance::PJRT_Client_BufferFromHostBuffer
2025-09-15 15:40:59.074 (   7.401s) [        F073E000]     memory_instance.cc:57       1| MemoryInstance::getDevice
2025-09-15 15:40:59.075 (   7.401s) [        F073E000]      event_instance.cc:222      1| EventInstance::PJRT_Event_OnReady
2025-09-15 15:40:59.075 (   7.401s) [        F073E000]      event_instance.cc:171      1| EventInstance::PJRT_Event_Destroy
2025-09-15 15:40:59.075 (   7.401s) [        F073E000]     device_instance.cc:82       1| DeviceInstance::PJRT_Device_DefaultMemory
2025-09-15 15:40:59.075 (   7.401s) [        F073E000]     client_instance.cc:466      1| ClientInstance::PJRT_Client_BufferFromHostBuffer
2025-09-15 15:40:59.075 (   7.401s) [        F073E000]     memory_instance.cc:57       1| MemoryInstance::getDevice
2025-09-15 15:40:59.075 (   7.401s) [        F073E000]      event_instance.cc:222      1| EventInstance::PJRT_Event_OnReady
2025-09-15 15:40:59.075 (   7.401s) [        F073E000]      event_instance.cc:171      1| EventInstance::PJRT_Event_Destroy
2025-09-15 15:40:59.075 (   7.401s) [        F073E000]  device_description.cc:44       1| DeviceDescription::PJRT_DeviceDescription_Id
2025-09-15 15:40:59.075 (   7.401s) [        F073E000]  device_description.cc:44       1| DeviceDescription::PJRT_DeviceDescription_Id
2025-09-15 15:40:59.076 (   7.403s) [        F073E000]     device_instance.cc:82       1| DeviceInstance::PJRT_Device_DefaultMemory
2025-09-15 15:40:59.076 (   7.403s) [        F073E000]     client_instance.cc:466      1| ClientInstance::PJRT_Client_BufferFromHostBuffer
2025-09-15 15:40:59.076 (   7.403s) [        F073E000]     memory_instance.cc:57       1| MemoryInstance::getDevice
2025-09-15 15:40:59.077 (   7.403s) [        F073E000]      event_instance.cc:222      1| EventInstance::PJRT_Event_OnReady
2025-09-15 15:40:59.077 (   7.403s) [        F073E000]      event_instance.cc:171      1| EventInstance::PJRT_Event_Destroy
2025-09-15 15:40:59.077 (   7.403s) [        F073E000]     device_instance.cc:82       1| DeviceInstance::PJRT_Device_DefaultMemory
2025-09-15 15:40:59.077 (   7.403s) [        F073E000]     client_instance.cc:466      1| ClientInstance::PJRT_Client_BufferFromHostBuffer
2025-09-15 15:40:59.077 (   7.403s) [        F073E000]     memory_instance.cc:57       1| MemoryInstance::getDevice
2025-09-15 15:40:59.077 (   7.403s) [        F073E000]      event_instance.cc:222      1| EventInstance::PJRT_Event_OnReady
2025-09-15 15:40:59.077 (   7.403s) [        F073E000]      event_instance.cc:171      1| EventInstance::PJRT_Event_Destroy
2025-09-15 15:40:59.077 (   7.403s) [        F073E000]  device_description.cc:44       1| DeviceDescription::PJRT_DeviceDescription_Id
2025-09-15 15:40:59.077 (   7.403s) [        F073E000]  device_description.cc:44       1| DeviceDescription::PJRT_DeviceDescription_Id
2025-09-15 15:40:59.082 (   7.409s) [        F073E000]     device_instance.cc:82       1| DeviceInstance::PJRT_Device_DefaultMemory
2025-09-15 15:40:59.082 (   7.409s) [        F073E000]     client_instance.cc:466      1| ClientInstance::PJRT_Client_BufferFromHostBuffer
2025-09-15 15:40:59.082 (   7.409s) [        F073E000]     memory_instance.cc:57       1| MemoryInstance::getDevice
2025-09-15 15:40:59.082 (   7.409s) [        F073E000]      event_instance.cc:222      1| EventInstance::PJRT_Event_OnReady
2025-09-15 15:40:59.083 (   7.409s) [        F073E000]      event_instance.cc:171      1| EventInstance::PJRT_Event_Destroy
2025-09-15 15:40:59.083 (   7.409s) [        F073E000]     device_instance.cc:82       1| DeviceInstance::PJRT_Device_DefaultMemory
2025-09-15 15:40:59.083 (   7.409s) [        F073E000]     client_instance.cc:466      1| ClientInstance::PJRT_Client_BufferFromHostBuffer
2025-09-15 15:40:59.083 (   7.409s) [        F073E000]     memory_instance.cc:57       1| MemoryInstance::getDevice
2025-09-15 15:40:59.083 (   7.409s) [        F073E000]      event_instance.cc:222      1| EventInstance::PJRT_Event_OnReady
2025-09-15 15:40:59.083 (   7.409s) [        F073E000]      event_instance.cc:171      1| EventInstance::PJRT_Event_Destroy
2025-09-15 15:40:59.087 (   7.414s) [        F073E000]  device_description.cc:44       1| DeviceDescription::PJRT_DeviceDescription_Id
2025-09-15 15:40:59.087 (   7.414s) [        F073E000]  device_description.cc:44       1| DeviceDescription::PJRT_DeviceDescription_Id
2025-09-15 15:40:59.092 (   7.418s) [        F073E000]     device_instance.cc:82       1| DeviceInstance::PJRT_Device_DefaultMemory
2025-09-15 15:40:59.092 (   7.418s) [        F073E000]     client_instance.cc:466      1| ClientInstance::PJRT_Client_BufferFromHostBuffer
2025-09-15 15:40:59.092 (   7.418s) [        F073E000]     memory_instance.cc:57       1| MemoryInstance::getDevice
2025-09-15 15:40:59.092 (   7.419s) [        F073E000]      event_instance.cc:222      1| EventInstance::PJRT_Event_OnReady
2025-09-15 15:40:59.092 (   7.419s) [        F073E000]      event_instance.cc:171      1| EventInstance::PJRT_Event_Destroy
2025-09-15 15:40:59.092 (   7.419s) [        F073E000]     device_instance.cc:82       1| DeviceInstance::PJRT_Device_DefaultMemory
2025-09-15 15:40:59.092 (   7.419s) [        F073E000]     client_instance.cc:466      1| ClientInstance::PJRT_Client_BufferFromHostBuffer
2025-09-15 15:40:59.092 (   7.419s) [        F073E000]     memory_instance.cc:57       1| MemoryInstance::getDevice
2025-09-15 15:40:59.092 (   7.419s) [        F073E000]      event_instance.cc:222      1| EventInstance::PJRT_Event_OnReady
2025-09-15 15:40:59.092 (   7.419s) [        F073E000]      event_instance.cc:171      1| EventInstance::PJRT_Event_Destroy
2025-09-15 15:40:59.097 (   7.424s) [        F073E000]  device_description.cc:44       1| DeviceDescription::PJRT_DeviceDescription_Id
2025-09-15 15:40:59.097 (   7.424s) [        F073E000]  device_description.cc:44       1| DeviceDescription::PJRT_DeviceDescription_Id
2025-09-15 15:40:59.105 (   7.431s) [        F073E000]     device_instance.cc:82       1| DeviceInstance::PJRT_Device_DefaultMemory
2025-09-15 15:40:59.105 (   7.431s) [        F073E000]     client_instance.cc:466      1| ClientInstance::PJRT_Client_BufferFromHostBuffer
2025-09-15 15:40:59.105 (   7.431s) [        F073E000]     memory_instance.cc:57       1| MemoryInstance::getDevice
2025-09-15 15:40:59.105 (   7.432s) [        F073E000]      event_instance.cc:222      1| EventInstance::PJRT_Event_OnReady
2025-09-15 15:40:59.105 (   7.432s) [        F073E000]      event_instance.cc:171      1| EventInstance::PJRT_Event_Destroy
2025-09-15 15:40:59.105 (   7.432s) [        F073E000]     device_instance.cc:82       1| DeviceInstance::PJRT_Device_DefaultMemory
2025-09-15 15:40:59.105 (   7.432s) [        F073E000]     client_instance.cc:466      1| ClientInstance::PJRT_Client_BufferFromHostBuffer
2025-09-15 15:40:59.105 (   7.432s) [        F073E000]     memory_instance.cc:57       1| MemoryInstance::getDevice
2025-09-15 15:40:59.105 (   7.432s) [        F073E000]      event_instance.cc:222      1| EventInstance::PJRT_Event_OnReady
2025-09-15 15:40:59.105 (   7.432s) [        F073E000]      event_instance.cc:171      1| EventInstance::PJRT_Event_Destroy
2025-09-15 15:40:59.110 (   7.437s) [        F073E000]  device_description.cc:44       1| DeviceDescription::PJRT_DeviceDescription_Id
2025-09-15 15:40:59.110 (   7.437s) [        F073E000]  device_description.cc:44       1| DeviceDescription::PJRT_DeviceDescription_Id
2025-09-15 15:40:59.111 (   7.438s) [        F073E000]     device_instance.cc:82       1| DeviceInstance::PJRT_Device_DefaultMemory
2025-09-15 15:40:59.111 (   7.438s) [        F073E000]     client_instance.cc:466      1| ClientInstance::PJRT_Client_BufferFromHostBuffer
2025-09-15 15:40:59.111 (   7.438s) [        F073E000]     memory_instance.cc:57       1| MemoryInstance::getDevice
2025-09-15 15:40:59.112 (   7.438s) [        F073E000]      event_instance.cc:222      1| EventInstance::PJRT_Event_OnReady
2025-09-15 15:40:59.112 (   7.438s) [        F073E000]      event_instance.cc:171      1| EventInstance::PJRT_Event_Destroy
2025-09-15 15:40:59.112 (   7.438s) [        F073E000]     device_instance.cc:82       1| DeviceInstance::PJRT_Device_DefaultMemory
2025-09-15 15:40:59.112 (   7.438s) [        F073E000]     client_instance.cc:466      1| ClientInstance::PJRT_Client_BufferFromHostBuffer
2025-09-15 15:40:59.112 (   7.438s) [        F073E000]     memory_instance.cc:57       1| MemoryInstance::getDevice
2025-09-15 15:40:59.112 (   7.438s) [        F073E000]      event_instance.cc:222      1| EventInstance::PJRT_Event_OnReady
2025-09-15 15:40:59.112 (   7.438s) [        F073E000]      event_instance.cc:171      1| EventInstance::PJRT_Event_Destroy
2025-09-15 15:40:59.112 (   7.438s) [        F073E000]  device_description.cc:44       1| DeviceDescription::PJRT_DeviceDescription_Id
2025-09-15 15:40:59.112 (   7.438s) [        F073E000]  device_description.cc:44       1| DeviceDescription::PJRT_DeviceDescription_Id
2025-09-15 15:40:59.113 (   7.439s) [        F073E000]     device_instance.cc:82       1| DeviceInstance::PJRT_Device_DefaultMemory
2025-09-15 15:40:59.113 (   7.439s) [        F073E000]     client_instance.cc:466      1| ClientInstance::PJRT_Client_BufferFromHostBuffer
2025-09-15 15:40:59.113 (   7.439s) [        F073E000]     memory_instance.cc:57       1| MemoryInstance::getDevice
2025-09-15 15:40:59.113 (   7.439s) [        F073E000]      event_instance.cc:222      1| EventInstance::PJRT_Event_OnReady
2025-09-15 15:40:59.113 (   7.439s) [        F073E000]      event_instance.cc:171      1| EventInstance::PJRT_Event_Destroy
2025-09-15 15:40:59.113 (   7.439s) [        F073E000]     device_instance.cc:82       1| DeviceInstance::PJRT_Device_DefaultMemory
2025-09-15 15:40:59.113 (   7.439s) [        F073E000]     client_instance.cc:466      1| ClientInstance::PJRT_Client_BufferFromHostBuffer
2025-09-15 15:40:59.113 (   7.439s) [        F073E000]     memory_instance.cc:57       1| MemoryInstance::getDevice
2025-09-15 15:40:59.113 (   7.439s) [        F073E000]      event_instance.cc:222      1| EventInstance::PJRT_Event_OnReady
2025-09-15 15:40:59.113 (   7.439s) [        F073E000]      event_instance.cc:171      1| EventInstance::PJRT_Event_Destroy
2025-09-15 15:40:59.113 (   7.439s) [        F073E000]  device_description.cc:44       1| DeviceDescription::PJRT_DeviceDescription_Id
2025-09-15 15:40:59.113 (   7.439s) [        F073E000]  device_description.cc:44       1| DeviceDescription::PJRT_DeviceDescription_Id
…
[32m                 Always[0m | [1m[38;5;240m   DEBUG[0m | Tensor is retained thus not deallocating. To deallocate, set retain to false first
2025-09-15 15:42:15.877 (  84.203s) [        F073E000]     buffer_instance.cc:398      1| BufferInstance::PJRT_Buffer_Destroy
[32m                 Always[0m | [1m[38;5;240m   DEBUG[0m | Tensor is retained thus not deallocating. To deallocate, set retain to false first
2025-09-15 15:42:15.877 (  84.203s) [        F073E000]     buffer_instance.cc:398      1| BufferInstance::PJRT_Buffer_Destroy
[32m                 Always[0m | [1m[38;5;240m   DEBUG[0m | Tensor is retained thus not deallocating. To deallocate, set retain to false first
2025-09-15 15:42:15.877 (  84.203s) [        F073E000]     buffer_instance.cc:398      1| BufferInstance::PJRT_Buffer_Destroy
[32m                 Always[0m | [1m[38;5;240m   DEBUG[0m | Tensor is retained thus not deallocating. To deallocate, set retain to false first
2025-09-15 15:42:15.877 (  84.203s) [        F073E000]     buffer_instance.cc:398      1| BufferInstance::PJRT_Buffer_Destroy
[32m                 Always[0m | [1m[38;5;240m   DEBUG[0m | Tensor is retained thus not deallocating. To deallocate, set retain to false first
2025-09-15 15:42:15.877 (  84.203s) [        F073E000]     buffer_instance.cc:398      1| BufferInstance::PJRT_Buffer_Destroy
[32m                 Always[0m | [1m[38;5;240m   DEBUG[0m | Tensor is retained thus not deallocating. To deallocate, set retain to false first
2025-09-15 15:42:15.877 (  84.203s) [        F073E000]     buffer_instance.cc:398      1| BufferInstance::PJRT_Buffer_Destroy
[32m                 Always[0m | [1m[38;5;240m   DEBUG[0m | Tensor is retained thus not deallocating. To deallocate, set retain to false first
2025-09-15 15:42:15.877 (  84.203s) [        F073E000]     buffer_instance.cc:398      1| BufferInstance::PJRT_Buffer_Destroy
[32m                 Always[0m | [1m[38;5;240m   DEBUG[0m | Tensor is retained thus not deallocating. To deallocate, set retain to false first
2025-09-15 15:42:15.877 (  84.204s) [        F073E000]     buffer_instance.cc:398      1| BufferInstance::PJRT_Buffer_Destroy
[32m                 Always[0m | [1m[38;5;240m   DEBUG[0m | Tensor is retained thus not deallocating. To deallocate, set retain to false first
2025-09-15 15:42:15.877 (  84.204s) [        F073E000]     buffer_instance.cc:398      1| BufferInstance::PJRT_Buffer_Destroy
[32m                 Always[0m | [1m[38;5;240m   DEBUG[0m | Tensor is retained thus not deallocating. To deallocate, set retain to false first
2025-09-15 15:42:15.877 (  84.204s) [        F073E000]     buffer_instance.cc:398      1| BufferInstance::PJRT_Buffer_Destroy
[32m                 Always[0m | [1m[38;5;240m   DEBUG[0m | Tensor is retained thus not deallocating. To deallocate, set retain to false first
2025-09-15 15:42:15.877 (  84.204s) [        F073E000]     buffer_instance.cc:398      1| BufferInstance::PJRT_Buffer_Destroy
[32m                 Always[0m | [1m[38;5;240m   DEBUG[0m | Tensor is retained thus not deallocating. To deallocate, set retain to false first
2025-09-15 15:42:15.878 (  84.204s) [        F073E000]     buffer_instance.cc:398      1| BufferInstance::PJRT_Buffer_Destroy
[32m                 Always[0m | [1m[38;5;240m   DEBUG[0m | Tensor is retained thus not deallocating. To deallocate, set retain to false first
2025-09-15 15:42:15.878 (  84.204s) [        F073E000]     buffer_instance.cc:398      1| BufferInstance::PJRT_Buffer_Destroy
[32m                 Always[0m | [1m[38;5;240m   DEBUG[0m | Tensor is retained thus not deallocating. To deallocate, set retain to false first
2025-09-15 15:42:15.878 (  84.204s) [        F073E000]     buffer_instance.cc:398      1| BufferInstance::PJRT_Buffer_Destroy
[32m                 Always[0m | [1m[38;5;240m   DEBUG[0m | Tensor is retained thus not deallocating. To deallocate, set retain to false first
2025-09-15 15:42:15.878 (  84.204s) [        F073E000]     buffer_instance.cc:398      1| BufferInstance::PJRT_Buffer_Destroy
[32m                 Always[0m | [1m[38;5;240m   DEBUG[0m | Tensor is retained thus not deallocating. To deallocate, set retain to false first
2025-09-15 15:42:15.878 (  84.204s) [        F073E000]     buffer_instance.cc:398      1| BufferInstance::PJRT_Buffer_Destroy
[32m                 Always[0m | [1m[38;5;240m   DEBUG[0m | Tensor is retained thus not deallocating. To deallocate, set retain to false first
2025-09-15 15:42:15.878 (  84.204s) [        F073E000]     buffer_instance.cc:398      1| BufferInstance::PJRT_Buffer_Destroy
[32m                 Always[0m | [1m[38;5;240m   DEBUG[0m | Tensor is retained thus not deallocating. To deallocate, set retain to false first
2025-09-15 15:42:15.878 (  84.204s) [        F073E000]     buffer_instance.cc:398      1| BufferInstance::PJRT_Buffer_Destroy
[32m                 Always[0m | [1m[38;5;240m   DEBUG[0m | Tensor is retained thus not deallocating. To deallocate, set retain to false first
2025-09-15 15:42:15.878 (  84.204s) [        F073E000]     buffer_instance.cc:398      1| BufferInstance::PJRT_Buffer_Destroy
[32m                 Always[0m | [1m[38;5;240m   DEBUG[0m | Tensor is retained thus not deallocating. To deallocate, set retain to false first
2025-09-15 15:42:15.878 (  84.205s) [        F073E000]     buffer_instance.cc:398      1| BufferInstance::PJRT_Buffer_Destroy
[32m                 Always[0m | [1m[38;5;240m   DEBUG[0m | Tensor is retained thus not deallocating. To deallocate, set retain to false first
2025-09-15 15:42:15.878 (  84.205s) [        F073E000]     buffer_instance.cc:398      1| BufferInstance::PJRT_Buffer_Destroy
[32m                 Always[0m | [1m[38;5;240m   DEBUG[0m | Tensor is retained thus not deallocating. To deallocate, set retain to false first
2025-09-15 15:42:15.878 (  84.205s) [        F073E000]     buffer_instance.cc:398      1| BufferInstance::PJRT_Buffer_Destroy
[32m                 Always[0m | [1m[38;5;240m   DEBUG[0m | Tensor is retained thus not deallocating. To deallocate, set retain to false first
2025-09-15 15:42:15.878 (  84.205s) [        F073E000]     buffer_instance.cc:398      1| BufferInstance::PJRT_Buffer_Destroy
[32m                 Always[0m | [1m[38;5;240m   DEBUG[0m | Tensor is retained thus not deallocating. To deallocate, set retain to false first
2025-09-15 15:42:15.879 (  84.205s) [        F073E000]     buffer_instance.cc:398      1| BufferInstance::PJRT_Buffer_Destroy
[32m                 Always[0m | [1m[38;5;240m   DEBUG[0m | Tensor is retained thus not deallocating. To deallocate, set retain to false first
2025-09-15 15:42:15.879 (  84.205s) [        F073E000]     buffer_instance.cc:398      1| BufferInstance::PJRT_Buffer_Destroy
[32m                 Always[0m | [1m[38;5;240m   DEBUG[0m | Tensor is retained thus not deallocating. To deallocate, set retain to false first
2025-09-15 15:42:15.879 (  84.205s) [        F073E000]     buffer_instance.cc:398      1| BufferInstance::PJRT_Buffer_Destroy
[32m                 Always[0m | [1m[38;5;240m   DEBUG[0m | Tensor is retained thus not deallocating. To deallocate, set retain to false first
2025-09-15 15:42:15.879 (  84.205s) [        F073E000]     buffer_instance.cc:398      1| BufferInstance::PJRT_Buffer_Destroy
[32m                 Always[0m | [1m[38;5;240m   DEBUG[0m | Tensor is retained thus not deallocating. To deallocate, set retain to false first
2025-09-15 15:42:15.879 (  84.205s) [        F073E000]     buffer_instance.cc:398      1| BufferInstance::PJRT_Buffer_Destroy
[32m                 Always[0m | [1m[38;5;240m   DEBUG[0m | Tensor is retained thus not deallocating. To deallocate, set retain to false first
2025-09-15 15:42:15.879 (  84.205s) [        F073E000]     buffer_instance.cc:398      1| BufferInstance::PJRT_Buffer_Destroy
[32m                 Always[0m | [1m[38;5;240m   DEBUG[0m | Tensor is retained thus not deallocating. To deallocate, set retain to false first
2025-09-15 15:42:15.879 (  84.205s) [        F073E000]     buffer_instance.cc:398      1| BufferInstance::PJRT_Buffer_Destroy
[32m                 Always[0m | [1m[38;5;240m   DEBUG[0m | Tensor is retained thus not deallocating. To deallocate, set retain to false first
2025-09-15 15:42:15.879 (  84.206s) [        F073E000]     buffer_instance.cc:398      1| BufferInstance::PJRT_Buffer_Destroy
[32m                 Always[0m | [1m[38;5;240m   DEBUG[0m | Tensor is retained thus not deallocating. To deallocate, set retain to false first
2025-09-15 15:42:15.879 (  84.206s) [        F073E000]     buffer_instance.cc:398      1| BufferInstance::PJRT_Buffer_Destroy
[32m                 Always[0m | [1m[38;5;240m   DEBUG[0m | Tensor is retained thus not deallocating. To deallocate, set retain to false first
2025-09-15 15:42:15.879 (  84.206s) [        F073E000]     buffer_instance.cc:398      1| BufferInstance::PJRT_Buffer_Destroy
[32m                 Always[0m | [1m[38;5;240m   DEBUG[0m | Tensor is retained thus not deallocating. To deallocate, set retain to false first
2025-09-15 15:42:15.879 (  84.206s) [        F073E000]     buffer_instance.cc:398      1| BufferInstance::PJRT_Buffer_Destroy
[32m                 Always[0m | [1m[38;5;240m   DEBUG[0m | Tensor is retained thus not deallocating. To deallocate, set retain to false first
2025-09-15 15:42:15.879 (  84.206s) [        F073E000]     buffer_instance.cc:398      1| BufferInstance::PJRT_Buffer_Destroy
[32m                 Always[0m | [1m[38;5;240m   DEBUG[0m | Tensor is retained thus not deallocating. To deallocate, set retain to false first
2025-09-15 15:42:15.880 (  84.206s) [        F073E000]     buffer_instance.cc:398      1| BufferInstance::PJRT_Buffer_Destroy
[32m                 Always[0m | [1m[38;5;240m   DEBUG[0m | Tensor is retained thus not deallocating. To deallocate, set retain to false first
2025-09-15 15:42:15.880 (  84.206s) [        F073E000]     buffer_instance.cc:398      1| BufferInstance::PJRT_Buffer_Destroy
[32m                 Always[0m | [1m[38;5;240m   DEBUG[0m | Tensor is retained thus not deallocating. To deallocate, set retain to false first
2025-09-15 15:42:15.880 (  84.206s) [        F073E000]     buffer_instance.cc:398      1| BufferInstance::PJRT_Buffer_Destroy
[32m                 Always[0m | [1m[38;5;240m   DEBUG[0m | Tensor is retained thus not deallocating. To deallocate, set retain to false first
2025-09-15 15:42:15.880 (  84.206s) [        F073E000]     buffer_instance.cc:398      1| BufferInstance::PJRT_Buffer_Destroy
[32m                 Always[0m | [1m[38;5;240m   DEBUG[0m | Tensor is retained thus not deallocating. To deallocate, set retain to false first
2025-09-15 15:42:15.880 (  84.206s) [        F073E000]     buffer_instance.cc:398      1| BufferInstance::PJRT_Buffer_Destroy
[32m                 Always[0m | [1m[38;5;240m   DEBUG[0m | Tensor is retained thus not deallocating. To deallocate, set retain to false first
2025-09-15 15:42:15.880 (  84.206s) [        F073E000]     buffer_instance.cc:398      1| BufferInstance::PJRT_Buffer_Destroy
[32m                 Always[0m | [1m[38;5;240m   DEBUG[0m | Tensor is retained thus not deallocating. To deallocate, set retain to false first
2025-09-15 15:42:15.880 (  84.206s) [        F073E000]     buffer_instance.cc:398      1| BufferInstance::PJRT_Buffer_Destroy
[32m                 Always[0m | [1m[38;5;240m   DEBUG[0m | Tensor is retained thus not deallocating. To deallocate, set retain to false first
2025-09-15 15:42:15.880 (  84.207s) [        F073E000]     buffer_instance.cc:398      1| BufferInstance::PJRT_Buffer_Destroy
[32m                 Always[0m | [1m[38;5;240m   DEBUG[0m | Tensor is retained thus not deallocating. To deallocate, set retain to false first
2025-09-15 15:42:15.880 (  84.207s) [        F073E000]     buffer_instance.cc:398      1| BufferInstance::PJRT_Buffer_Destroy
[32m                 Always[0m | [1m[38;5;240m   DEBUG[0m | Tensor is retained thus not deallocating. To deallocate, set retain to false first
2025-09-15 15:42:15.880 (  84.207s) [        F073E000]     buffer_instance.cc:398      1| BufferInstance::PJRT_Buffer_Destroy
[32m                 Always[0m | [1m[38;5;240m   DEBUG[0m | Tensor is retained thus not deallocating. To deallocate, set retain to false first
2025-09-15 15:42:15.880 (  84.207s) [        F073E000]     buffer_instance.cc:398      1| BufferInstance::PJRT_Buffer_Destroy
[32m                 Always[0m | [1m[38;5;240m   DEBUG[0m | Tensor is retained thus not deallocating. To deallocate, set retain to false first
2025-09-15 15:42:15.881 (  84.207s) [        F073E000]     buffer_instance.cc:398      1| BufferInstance::PJRT_Buffer_Destroy
[32m                 Always[0m | [1m[38;5;240m   DEBUG[0m | Tensor is retained thus not deallocating. To deallocate, set retain to false first
2025-09-15 15:42:15.881 (  84.207s) [        F073E000]     buffer_instance.cc:398      1| BufferInstance::PJRT_Buffer_Destroy
[32m                 Always[0m | [1m[38;5;240m   DEBUG[0m | Tensor is retained thus not deallocating. To deallocate, set retain to false first
2025-09-15 15:42:15.881 (  84.208s) [        F073E000]     buffer_instance.cc:398      1| BufferInstance::PJRT_Buffer_Destroy
[32m                 Always[0m | [1m[38;5;240m   DEBUG[0m | Tensor is retained thus not deallocating. To deallocate, set retain to false first
2025-09-15 15:42:15.881 (  84.208s) [        F073E000]     buffer_instance.cc:398      1| BufferInstance::PJRT_Buffer_Destroy
[32m                 Always[0m | [1m[38;5;240m   DEBUG[0m | Tensor is retained thus not deallocating. To deallocate, set retain to false first
2025-09-15 15:42:15.881 (  84.208s) [        F073E000]     buffer_instance.cc:398      1| BufferInstance::PJRT_Buffer_Destroy
[32m                 Always[0m | [1m[38;5;240m   DEBUG[0m | Tensor is retained thus not deallocating. To deallocate, set retain to false first
2025-09-15 15:42:15.881 (  84.208s) [        F073E000]     buffer_instance.cc:398      1| BufferInstance::PJRT_Buffer_Destroy
[32m                 Always[0m | [1m[38;5;240m   DEBUG[0m | Tensor is retained thus not deallocating. To deallocate, set retain to false first
2025-09-15 15:42:15.882 (  84.208s) [        F073E000]     buffer_instance.cc:398      1| BufferInstance::PJRT_Buffer_Destroy
[32m                 Always[0m | [1m[38;5;240m   DEBUG[0m | Tensor is retained thus not deallocating. To deallocate, set retain to false first
2025-09-15 15:42:15.882 (  84.208s) [        F073E000]     buffer_instance.cc:398      1| BufferInstance::PJRT_Buffer_Destroy
[32m                 Always[0m | [1m[38;5;240m   DEBUG[0m | Tensor is retained thus not deallocating. To deallocate, set retain to false first
2025-09-15 15:42:15.882 (  84.208s) [        F073E000]     buffer_instance.cc:398      1| BufferInstance::PJRT_Buffer_Destroy
[32m                 Always[0m | [1m[38;5;240m   DEBUG[0m | Tensor is retained thus not deallocating. To deallocate, set retain to false first
2025-09-15 15:42:15.882 (  84.208s) [        F073E000]     buffer_instance.cc:398      1| BufferInstance::PJRT_Buffer_Destroy
[32m                 Always[0m | [1m[38;5;240m   DEBUG[0m | Tensor is retained thus not deallocating. To deallocate, set retain to false first
2025-09-15 15:42:15.882 (  84.208s) [        F073E000]     buffer_instance.cc:398      1| BufferInstance::PJRT_Buffer_Destroy
[32m                 Always[0m | [1m[38;5;240m   DEBUG[0m | Tensor is retained thus not deallocating. To deallocate, set retain to false first
2025-09-15 15:42:15.882 (  84.208s) [        F073E000]     buffer_instance.cc:398      1| BufferInstance::PJRT_Buffer_Destroy
[32m                 Always[0m | [1m[38;5;240m   DEBUG[0m | Tensor is retained thus not deallocating. To deallocate, set retain to false first
2025-09-15 15:42:15.882 (  84.208s) [        F073E000]     buffer_instance.cc:398      1| BufferInstance::PJRT_Buffer_Destroy
[32m                 Always[0m | [1m[38;5;240m   DEBUG[0m | Tensor is retained thus not deallocating. To deallocate, set retain to false first
2025-09-15 15:42:15.882 (  84.209s) [        F073E000]     buffer_instance.cc:398      1| BufferInstance::PJRT_Buffer_Destroy
[32m                 Always[0m | [1m[38;5;240m   DEBUG[0m | Tensor is retained thus not deallocating. To deallocate, set retain to false first
2025-09-15 15:42:15.882 (  84.209s) [        F073E000]     buffer_instance.cc:398      1| BufferInstance::PJRT_Buffer_Destroy
[32m                 Always[0m | [1m[38;5;240m   DEBUG[0m | Tensor is retained thus not deallocating. To deallocate, set retain to false first
2025-09-15 15:42:15.882 (  84.209s) [        F073E000]     buffer_instance.cc:398      1| BufferInstance::PJRT_Buffer_Destroy
[32m                 Always[0m | [1m[38;5;240m   DEBUG[0m | Tensor is retained thus not deallocating. To deallocate, set retain to false first
2025-09-15 15:42:15.882 (  84.209s) [        F073E000]     buffer_instance.cc:398      1| BufferInstance::PJRT_Buffer_Destroy
[32m                 Always[0m | [1m[38;5;240m   DEBUG[0m | Tensor is retained thus not deallocating. To deallocate, set retain to false first
2025-09-15 15:42:15.883 (  84.209s) [        F073E000]     buffer_instance.cc:398      1| BufferInstance::PJRT_Buffer_Destroy
[32m                 Always[0m | [1m[38;5;240m   DEBUG[0m | Tensor is retained thus not deallocating. To deallocate, set retain to false first
2025-09-15 15:42:15.883 (  84.209s) [        F073E000]     buffer_instance.cc:398      1| BufferInstance::PJRT_Buffer_Destroy
[32m                 Always[0m | [1m[38;5;240m   DEBUG[0m | Tensor is retained thus not deallocating. To deallocate, set retain to false first
2025-09-15 15:42:15.883 (  84.209s) [        F073E000]     buffer_instance.cc:398      1| BufferInstance::PJRT_Buffer_Destroy
[32m                 Always[0m | [1m[38;5;240m   DEBUG[0m | Tensor is retained thus not deallocating. To deallocate, set retain to false first
2025-09-15 15:42:15.883 (  84.209s) [        F073E000]     buffer_instance.cc:398      1| BufferInstance::PJRT_Buffer_Destroy
[32m                 Always[0m | [1m[38;5;240m   DEBUG[0m | Tensor is retained thus not deallocating. To deallocate, set retain to false first
2025-09-15 15:42:15.883 (  84.209s) [        F073E000]     buffer_instance.cc:398      1| BufferInstance::PJRT_Buffer_Destroy
[32m                 Always[0m | [1m[38;5;240m   DEBUG[0m | Tensor is retained thus not deallocating. To deallocate, set retain to false first
2025-09-15 15:42:15.883 (  84.209s) [        F073E000]     buffer_instance.cc:398      1| BufferInstance::PJRT_Buffer_Destroy
[32m                 Always[0m | [1m[38;5;240m   DEBUG[0m | Tensor is retained thus not deallocating. To deallocate, set retain to false first
2025-09-15 15:42:15.883 (  84.210s) [        F073E000]     buffer_instance.cc:398      1| BufferInstance::PJRT_Buffer_Destroy
[32m                 Always[0m | [1m[38;5;240m   DEBUG[0m | Tensor is retained thus not deallocating. To deallocate, set retain to false first
2025-09-15 15:42:15.883 (  84.210s) [        F073E000]     buffer_instance.cc:398      1| BufferInstance::PJRT_Buffer_Destroy
[32m                 Always[0m | [1m[38;5;240m   DEBUG[0m | Tensor is retained thus not deallocating. To deallocate, set retain to false first
2025-09-15 15:42:15.883 (  84.210s) [        F073E000]     buffer_instance.cc:398      1| BufferInstance::PJRT_Buffer_Destroy
[32m                 Always[0m | [1m[38;5;240m   DEBUG[0m | Tensor is retained thus not deallocating. To deallocate, set retain to false first
2025-09-15 15:42:15.884 (  84.210s) [        F073E000]     buffer_instance.cc:398      1| BufferInstance::PJRT_Buffer_Destroy
[32m                 Always[0m | [1m[38;5;240m   DEBUG[0m | Tensor is retained thus not deallocating. To deallocate, set retain to false first
2025-09-15 15:42:15.884 (  84.210s) [        F073E000]     buffer_instance.cc:398      1| BufferInstance::PJRT_Buffer_Destroy
[32m                 Always[0m | [1m[38;5;240m   DEBUG[0m | Tensor is retained thus not deallocating. To deallocate, set retain to false first
2025-09-15 15:42:15.884 (  84.210s) [        F073E000]     buffer_instance.cc:398      1| BufferInstance::PJRT_Buffer_Destroy
[32m                 Always[0m | [1m[38;5;240m   DEBUG[0m | Tensor is retained thus not deallocating. To deallocate, set retain to false first
2025-09-15 15:42:15.884 (  84.210s) [        F073E000]     buffer_instance.cc:398      1| BufferInstance::PJRT_Buffer_Destroy
[32m                 Always[0m | [1m[38;5;240m   DEBUG[0m | Tensor is retained thus not deallocating. To deallocate, set retain to false first
2025-09-15 15:42:15.884 (  84.210s) [        F073E000]     buffer_instance.cc:398      1| BufferInstance::PJRT_Buffer_Destroy
[32m                 Always[0m | [1m[38;5;240m   DEBUG[0m | Tensor is retained thus not deallocating. To deallocate, set retain to false first
2025-09-15 15:42:15.884 (  84.210s) [        F073E000]     buffer_instance.cc:398      1| BufferInstance::PJRT_Buffer_Destroy
[32m                 Always[0m | [1m[38;5;240m   DEBUG[0m | Tensor is retained thus not deallocating. To deallocate, set retain to false first
2025-09-15 15:42:15.884 (  84.210s) [        F073E000]     buffer_instance.cc:398      1| BufferInstance::PJRT_Buffer_Destroy
[32m                 Always[0m | [1m[38;5;240m   DEBUG[0m | Tensor is retained thus not deallocating. To deallocate, set retain to false first
2025-09-15 15:42:15.884 (  84.211s) [        F073E000]     buffer_instance.cc:398      1| BufferInstance::PJRT_Buffer_Destroy
[32m                 Always[0m | [1m[38;5;240m   DEBUG[0m | Tensor is retained thus not deallocating. To deallocate, set retain to false first
2025-09-15 15:42:15.884 (  84.211s) [        F073E000]     buffer_instance.cc:398      1| BufferInstance::PJRT_Buffer_Destroy
[32m                 Always[0m | [1m[38;5;240m   DEBUG[0m | Tensor is retained thus not deallocating. To deallocate, set retain to false first
2025-09-15 15:42:15.885 (  84.211s) [        F073E000]     buffer_instance.cc:398      1| BufferInstance::PJRT_Buffer_Destroy
[32m                 Always[0m | [1m[38;5;240m   DEBUG[0m | Tensor is retained thus not deallocating. To deallocate, set retain to false first
2025-09-15 15:42:15.885 (  84.211s) [        F073E000]     buffer_instance.cc:398      1| BufferInstance::PJRT_Buffer_Destroy
[32m                 Always[0m | [1m[38;5;240m   DEBUG[0m | Tensor is retained thus not deallocating. To deallocate, set retain to false first
2025-09-15 15:42:15.885 (  84.212s) [        F073E000]     buffer_instance.cc:398      1| BufferInstance::PJRT_Buffer_Destroy
[32m                 Always[0m | [1m[38;5;240m   DEBUG[0m | Tensor is retained thus not deallocating. To deallocate, set retain to false first
2025-09-15 15:42:15.885 (  84.212s) [        F073E000]     buffer_instance.cc:398      1| BufferInstance::PJRT_Buffer_Destroy
[32m                 Always[0m | [1m[38;5;240m   DEBUG[0m | Tensor is retained thus not deallocating. To deallocate, set retain to false first
2025-09-15 15:42:15.885 (  84.212s) [        F073E000]     buffer_instance.cc:398      1| BufferInstance::PJRT_Buffer_Destroy
[32m                 Always[0m | [1m[38;5;240m   DEBUG[0m | Tensor is retained thus not deallocating. To deallocate, set retain to false first
2025-09-15 15:42:15.886 (  84.212s) [        F073E000]     buffer_instance.cc:398      1| BufferInstance::PJRT_Buffer_Destroy
[32m                 Always[0m | [1m[38;5;240m   DEBUG[0m | Tensor is retained thus not deallocating. To deallocate, set retain to false first
2025-09-15 15:42:15.886 (  84.212s) [        F073E000]     buffer_instance.cc:398      1| BufferInstance::PJRT_Buffer_Destroy
[32m                 Always[0m | [1m[38;5;240m   DEBUG[0m | Tensor is retained thus not deallocating. To deallocate, set retain to false first
2025-09-15 15:42:15.886 (  84.212s) [        F073E000]     buffer_instance.cc:398      1| BufferInstance::PJRT_Buffer_Destroy
[32m                 Always[0m | [1m[38;5;240m   DEBUG[0m | Tensor is retained thus not deallocating. To deallocate, set retain to false first
2025-09-15 15:42:15.886 (  84.212s) [        F073E000]     buffer_instance.cc:398      1| BufferInstance::PJRT_Buffer_Destroy
[32m                 Always[0m | [1m[38;5;240m   DEBUG[0m | Tensor is retained thus not deallocating. To deallocate, set retain to false first
2025-09-15 15:42:15.886 (  84.212s) [        F073E000]     buffer_instance.cc:398      1| BufferInstance::PJRT_Buffer_Destroy
[32m                 Always[0m | [1m[38;5;240m   DEBUG[0m | Tensor is retained thus not deallocating. To deallocate, set retain to false first
2025-09-15 15:42:15.886 (  84.212s) [        F073E000]     buffer_instance.cc:398      1| BufferInstance::PJRT_Buffer_Destroy
[32m                 Always[0m | [1m[38;5;240m   DEBUG[0m | Tensor is retained thus not deallocating. To deallocate, set retain to false first
2025-09-15 15:42:15.886 (  84.212s) [        F073E000]     buffer_instance.cc:398      1| BufferInstance::PJRT_Buffer_Destroy
[32m                 Always[0m | [1m[38;5;240m   DEBUG[0m | Tensor is retained thus not deallocating. To deallocate, set retain to false first
2025-09-15 15:42:15.886 (  84.213s) [        F073E000]     buffer_instance.cc:398      1| BufferInstance::PJRT_Buffer_Destroy
[32m                 Always[0m | [1m[38;5;240m   DEBUG[0m | Tensor is retained thus not deallocating. To deallocate, set retain to false first
2025-09-15 15:42:15.886 (  84.213s) [        F073E000]     buffer_instance.cc:398      1| BufferInstance::PJRT_Buffer_Destroy
[32m                 Always[0m | [1m[38;5;240m   DEBUG[0m | Tensor is retained thus not deallocating. To deallocate, set retain to false first
2025-09-15 15:42:15.886 (  84.213s) [        F073E000]     buffer_instance.cc:398      1| BufferInstance::PJRT_Buffer_Destroy
[32m                 Always[0m | [1m[38;5;240m   DEBUG[0m | Tensor is retained thus not deallocating. To deallocate, set retain to false first
2025-09-15 15:42:15.887 (  84.213s) [        F073E000]     buffer_instance.cc:398      1| BufferInstance::PJRT_Buffer_Destroy
[32m                 Always[0m | [1m[38;5;240m   DEBUG[0m | Tensor is retained thus not deallocating. To deallocate, set retain to false first
2025-09-15 15:42:15.887 (  84.213s) [        F073E000]     buffer_instance.cc:398      1| BufferInstance::PJRT_Buffer_Destroy
[32m                 Always[0m | [1m[38;5;240m   DEBUG[0m | Tensor is retained thus not deallocating. To deallocate, set retain to false first
2025-09-15 15:42:15.887 (  84.213s) [        F073E000]     buffer_instance.cc:398      1| BufferInstance::PJRT_Buffer_Destroy
[32m                 Always[0m | [1m[38;5;240m   DEBUG[0m | Tensor is retained thus not deallocating. To deallocate, set retain to false first
2025-09-15 15:42:15.887 (  84.213s) [        F073E000]     buffer_instance.cc:398      1| BufferInstance::PJRT_Buffer_Destroy
[32m                 Always[0m | [1m[38;5;240m   DEBUG[0m | Tensor is retained thus not deallocating. To deallocate, set retain to false first
2025-09-15 15:42:15.887 (  84.213s) [        F073E000]     buffer_instance.cc:398      1| BufferInstance::PJRT_Buffer_Destroy
[32m                 Always[0m | [1m[38;5;240m   DEBUG[0m | Tensor is retained thus not deallocating. To deallocate, set retain to false first
2025-09-15 15:42:15.887 (  84.213s) [        F073E000]     buffer_instance.cc:398      1| BufferInstance::PJRT_Buffer_Destroy
[32m                 Always[0m | [1m[38;5;240m   DEBUG[0m | Tensor is retained thus not deallocating. To deallocate, set retain to false first
2025-09-15 15:42:15.887 (  84.214s) [        F073E000]     buffer_instance.cc:398      1| BufferInstance::PJRT_Buffer_Destroy
[32m                 Always[0m | [1m[38;5;240m   DEBUG[0m | Tensor is retained thus not deallocating. To deallocate, set retain to false first
2025-09-15 15:42:15.887 (  84.214s) [        F073E000]     buffer_instance.cc:398      1| BufferInstance::PJRT_Buffer_Destroy
[32m                 Always[0m | [1m[38;5;240m   DEBUG[0m | Tensor is retained thus not deallocating. To deallocate, set retain to false first
2025-09-15 15:42:15.887 (  84.214s) [        F073E000]     buffer_instance.cc:398      1| BufferInstance::PJRT_Buffer_Destroy
[32m                 Always[0m | [1m[38;5;240m   DEBUG[0m | Tensor is retained thus not deallocating. To deallocate, set retain to false first
2025-09-15 15:42:15.887 (  84.214s) [        F073E000]     buffer_instance.cc:398      1| BufferInstance::PJRT_Buffer_Destroy
[32m                 Always[0m | [1m[38;5;240m   DEBUG[0m | Tensor is retained thus not deallocating. To deallocate, set retain to false first
2025-09-15 15:42:15.888 (  84.214s) [        F073E000]     buffer_instance.cc:398      1| BufferInstance::PJRT_Buffer_Destroy
[32m                 Always[0m | [1m[38;5;240m   DEBUG[0m | Tensor is retained thus not deallocating. To deallocate, set retain to false first
2025-09-15 15:42:15.888 (  84.214s) [        F073E000]     buffer_instance.cc:398      1| BufferInstance::PJRT_Buffer_Destroy
[32m                 Always[0m | [1m[38;5;240m   DEBUG[0m | Tensor is retained thus not deallocating. To deallocate, set retain to false first
2025-09-15 15:42:15.888 (  84.214s) [        F073E000]     buffer_instance.cc:398      1| BufferInstance::PJRT_Buffer_Destroy
[32m                 Always[0m | [1m[38;5;240m   DEBUG[0m | Tensor is retained thus not deallocating. To deallocate, set retain to false first
2025-09-15 15:42:15.888 (  84.214s) [        F073E000]     buffer_instance.cc:398      1| BufferInstance::PJRT_Buffer_Destroy
[32m                 Always[0m | [1m[38;5;240m   DEBUG[0m | Tensor is retained thus not deallocating. To deallocate, set retain to false first
2025-09-15 15:42:15.888 (  84.214s) [        F073E000]     buffer_instance.cc:398      1| BufferInstance::PJRT_Buffer_Destroy
[32m                 Always[0m | [1m[38;5;240m   DEBUG[0m | Tensor is retained thus not deallocating. To deallocate, set retain to false first
2025-09-15 15:42:15.888 (  84.214s) [        F073E000]     buffer_instance.cc:398      1| BufferInstance::PJRT_Buffer_Destroy
[32m                 Always[0m | [1m[38;5;240m   DEBUG[0m | Tensor is retained thus not deallocating. To deallocate, set retain to false first
2025-09-15 15:42:15.889 (  84.215s) [        F073E000]     buffer_instance.cc:398      1| BufferInstance::PJRT_Buffer_Destroy
[32m                 Always[0m | [1m[38;5;240m   DEBUG[0m | Tensor is retained thus not deallocating. To deallocate, set retain to false first
2025-09-15 15:42:15.889 (  84.215s) [        F073E000]     buffer_instance.cc:398      1| BufferInstance::PJRT_Buffer_Destroy
[32m                 Always[0m | [1m[38;5;240m   DEBUG[0m | Tensor is retained thus not deallocating. To deallocate, set retain to false first
2025-09-15 15:42:15.889 (  84.215s) [        F073E000]     buffer_instance.cc:398      1| BufferInstance::PJRT_Buffer_Destroy
[32m                 Always[0m | [1m[38;5;240m   DEBUG[0m | Tensor is retained thus not deallocating. To deallocate, set retain to false first
2025-09-15 15:42:15.889 (  84.215s) [        F073E000]     buffer_instance.cc:398      1| BufferInstance::PJRT_Buffer_Destroy
[32m                 Always[0m | [1m[38;5;240m   DEBUG[0m | Tensor is retained thus not deallocating. To deallocate, set retain to false first
2025-09-15 15:42:15.889 (  84.215s) [        F073E000]     buffer_instance.cc:398      1| BufferInstance::PJRT_Buffer_Destroy
[32m                 Always[0m | [1m[38;5;240m   DEBUG[0m | Tensor is retained thus not deallocating. To deallocate, set retain to false first
2025-09-15 15:42:15.889 (  84.215s) [        F073E000]     buffer_instance.cc:398      1| BufferInstance::PJRT_Buffer_Destroy
[32m                 Always[0m | [1m[38;5;240m   DEBUG[0m | Tensor is retained thus not deallocating. To deallocate, set retain to false first
2025-09-15 15:42:15.889 (  84.216s) [        F073E000]     buffer_instance.cc:398      1| BufferInstance::PJRT_Buffer_Destroy
[32m                 Always[0m | [1m[38;5;240m   DEBUG[0m | Tensor is retained thus not deallocating. To deallocate, set retain to false first
2025-09-15 15:42:15.889 (  84.216s) [        F073E000]     buffer_instance.cc:398      1| BufferInstance::PJRT_Buffer_Destroy
[32m                 Always[0m | [1m[38;5;240m   DEBUG[0m | Tensor is retained thus not deallocating. To deallocate, set retain to false first
2025-09-15 15:42:15.889 (  84.216s) [        F073E000]     buffer_instance.cc:398      1| BufferInstance::PJRT_Buffer_Destroy
[32m                 Always[0m | [1m[38;5;240m   DEBUG[0m | Tensor is retained thus not deallocating. To deallocate, set retain to false first
2025-09-15 15:42:15.889 (  84.216s) [        F073E000]     buffer_instance.cc:398      1| BufferInstance::PJRT_Buffer_Destroy
[32m                 Always[0m | [1m[38;5;240m   DEBUG[0m | Tensor is retained thus not deallocating. To deallocate, set retain to false first
2025-09-15 15:42:15.890 (  84.216s) [        F073E000]     buffer_instance.cc:398      1| BufferInstance::PJRT_Buffer_Destroy
[32m                 Always[0m | [1m[38;5;240m   DEBUG[0m | Tensor is retained thus not deallocating. To deallocate, set retain to false first
2025-09-15 15:42:15.890 (  84.216s) [        F073E000]     buffer_instance.cc:398      1| BufferInstance::PJRT_Buffer_Destroy
[32m                 Always[0m | [1m[38;5;240m   DEBUG[0m | Tensor is retained thus not deallocating. To deallocate, set retain to false first
2025-09-15 15:42:15.890 (  84.216s) [        F073E000]     buffer_instance.cc:398      1| BufferInstance::PJRT_Buffer_Destroy
[32m                 Always[0m | [1m[38;5;240m   DEBUG[0m | Tensor is retained thus not deallocating. To deallocate, set retain to false first
2025-09-15 15:42:15.890 (  84.216s) [        F073E000]     buffer_instance.cc:398      1| BufferInstance::PJRT_Buffer_Destroy
[32m                 Always[0m | [1m[38;5;240m   DEBUG[0m | Tensor is retained thus not deallocating. To deallocate, set retain to false first
2025-09-15 15:42:15.890 (  84.216s) [        F073E000]     buffer_instance.cc:398      1| BufferInstance::PJRT_Buffer_Destroy
[32m                 Always[0m | [1m[38;5;240m   DEBUG[0m | Tensor is retained thus not deallocating. To deallocate, set retain to false first
2025-09-15 15:42:15.890 (  84.216s) [        F073E000]     buffer_instance.cc:398      1| BufferInstance::PJRT_Buffer_Destroy
[32m                 Always[0m | [1m[38;5;240m   DEBUG[0m | Tensor is retained thus not deallocating. To deallocate, set retain to false first
2025-09-15 15:42:15.890 (  84.217s) [        F073E000]     buffer_instance.cc:398      1| BufferInstance::PJRT_Buffer_Destroy
[32m                 Always[0m | [1m[38;5;240m   DEBUG[0m | Tensor is retained thus not deallocating. To deallocate, set retain to false first
2025-09-15 15:42:15.890 (  84.217s) [        F073E000]     buffer_instance.cc:398      1| BufferInstance::PJRT_Buffer_Destroy
[32m                 Always[0m | [1m[38;5;240m   DEBUG[0m | Tensor is retained thus not deallocating. To deallocate, set retain to false first
2025-09-15 15:42:15.890 (  84.217s) [        F073E000]     buffer_instance.cc:398      1| BufferInstance::PJRT_Buffer_Destroy
[32m                 Always[0m | [1m[38;5;240m   DEBUG[0m | Tensor is retained thus not deallocating. To deallocate, set retain to false first
2025-09-15 15:42:15.890 (  84.217s) [        F073E000]     buffer_instance.cc:398      1| BufferInstance::PJRT_Buffer_Destroy
[32m                 Always[0m | [1m[38;5;240m   DEBUG[0m | Tensor is retained thus not deallocating. To deallocate, set retain to false first
2025-09-15 15:42:15.890 (  84.217s) [        F073E000]     buffer_instance.cc:398      1| BufferInstance::PJRT_Buffer_Destroy
[32m                 Always[0m | [1m[38;5;240m   DEBUG[0m | Tensor is retained thus not deallocating. To deallocate, set retain to false first
2025-09-15 15:42:15.891 (  84.217s) [        F073E000]     buffer_instance.cc:398      1| BufferInstance::PJRT_Buffer_Destroy
[32m                 Always[0m | [1m[38;5;240m   DEBUG[0m | Tensor is retained thus not deallocating. To deallocate, set retain to false first
2025-09-15 15:42:15.891 (  84.217s) [        F073E000]     buffer_instance.cc:398      1| BufferInstance::PJRT_Buffer_Destroy
[32m                 Always[0m | [1m[38;5;240m   DEBUG[0m | Tensor is retained thus not deallocating. To deallocate, set retain to false first
2025-09-15 15:42:15.891 (  84.217s) [        F073E000]     buffer_instance.cc:398      1| BufferInstance::PJRT_Buffer_Destroy
[32m                 Always[0m | [1m[38;5;240m   DEBUG[0m | Tensor is retained thus not deallocating. To deallocate, set retain to false first
2025-09-15 15:42:15.891 (  84.217s) [        F073E000]     buffer_instance.cc:398      1| BufferInstance::PJRT_Buffer_Destroy
[32m                 Always[0m | [1m[38;5;240m   DEBUG[0m | Tensor is retained thus not deallocating. To deallocate, set retain to false first
2025-09-15 15:42:15.891 (  84.217s) [        F073E000]     buffer_instance.cc:398      1| BufferInstance::PJRT_Buffer_Destroy
[32m                 Always[0m | [1m[38;5;240m   DEBUG[0m | Tensor is retained thus not deallocating. To deallocate, set retain to false first
2025-09-15 15:42:15.891 (  84.218s) [        F073E000]     buffer_instance.cc:398      1| BufferInstance::PJRT_Buffer_Destroy
[32m                 Always[0m | [1m[38;5;240m   DEBUG[0m | Tensor is retained thus not deallocating. To deallocate, set retain to false first
2025-09-15 15:42:15.891 (  84.218s) [        F073E000]     buffer_instance.cc:398      1| BufferInstance::PJRT_Buffer_Destroy
[32m                 Always[0m | [1m[38;5;240m   DEBUG[0m | Tensor is retained thus not deallocating. To deallocate, set retain to false first
2025-09-15 15:42:15.891 (  84.218s) [        F073E000]     buffer_instance.cc:398      1| BufferInstance::PJRT_Buffer_Destroy
[32m                 Always[0m | [1m[38;5;240m   DEBUG[0m | Tensor is retained thus not deallocating. To deallocate, set retain to false first
2025-09-15 15:42:15.892 (  84.218s) [        F073E000]     buffer_instance.cc:398      1| BufferInstance::PJRT_Buffer_Destroy
[32m                 Always[0m | [1m[38;5;240m   DEBUG[0m | Tensor is retained thus not deallocating. To deallocate, set retain to false first
2025-09-15 15:42:15.892 (  84.218s) [        F073E000]     buffer_instance.cc:398      1| BufferInstance::PJRT_Buffer_Destroy
[32m                 Always[0m | [1m[38;5;240m   DEBUG[0m | Tensor is retained thus not deallocating. To deallocate, set retain to false first
2025-09-15 15:42:15.892 (  84.218s) [        F073E000]     buffer_instance.cc:398      1| BufferInstance::PJRT_Buffer_Destroy
[32m                 Always[0m | [1m[38;5;240m   DEBUG[0m | Tensor is retained thus not deallocating. To deallocate, set retain to false first
2025-09-15 15:42:15.892 (  84.218s) [        F073E000]     buffer_instance.cc:398      1| BufferInstance::PJRT_Buffer_Destroy
[32m                 Always[0m | [1m[38;5;240m   DEBUG[0m | Tensor is retained thus not deallocating. To deallocate, set retain to false first
2025-09-15 15:42:15.892 (  84.218s) [        F073E000]     buffer_instance.cc:398      1| BufferInstance::PJRT_Buffer_Destroy
[32m                 Always[0m | [1m[38;5;240m   DEBUG[0m | Tensor is retained thus not deallocating. To deallocate, set retain to false first
2025-09-15 15:42:15.892 (  84.218s) [        F073E000]     buffer_instance.cc:398      1| BufferInstance::PJRT_Buffer_Destroy
[32m                 Always[0m | [1m[38;5;240m   DEBUG[0m | Tensor is retained thus not deallocating. To deallocate, set retain to false first
2025-09-15 15:42:15.892 (  84.219s) [        F073E000]     buffer_instance.cc:398      1| BufferInstance::PJRT_Buffer_Destroy
[32m                 Always[0m | [1m[38;5;240m   DEBUG[0m | Tensor is retained thus not deallocating. To deallocate, set retain to false first
2025-09-15 15:42:15.892 (  84.219s) [        F073E000]     buffer_instance.cc:398      1| BufferInstance::PJRT_Buffer_Destroy
[32m                 Always[0m | [1m[38;5;240m   DEBUG[0m | Tensor is retained thus not deallocating. To deallocate, set retain to false first
2025-09-15 15:42:15.892 (  84.219s) [        F073E000]     buffer_instance.cc:398      1| BufferInstance::PJRT_Buffer_Destroy
[32m                 Always[0m | [1m[38;5;240m   DEBUG[0m | Tensor is retained thus not deallocating. To deallocate, set retain to false first
2025-09-15 15:42:15.892 (  84.219s) [        F073E000]     buffer_instance.cc:398      1| BufferInstance::PJRT_Buffer_Destroy
[32m                 Always[0m | [1m[38;5;240m   DEBUG[0m | Tensor is retained thus not deallocating. To deallocate, set retain to false first
2025-09-15 15:42:15.901 (  84.227s) [        F073E000]     buffer_instance.cc:398      1| BufferInstance::PJRT_Buffer_Destroy
[32m                 Always[0m | [1m[38;5;240m   DEBUG[0m | Tensor is retained thus not deallocating. To deallocate, set retain to false first
2025-09-15 15:42:15.901 (  84.227s) [        F073E000]     buffer_instance.cc:398      1| BufferInstance::PJRT_Buffer_Destroy
[32m                 Always[0m | [1m[38;5;240m   DEBUG[0m | Tensor is retained thus not deallocating. To deallocate, set retain to false first
2025-09-15 15:42:15.901 (  84.227s) [        F073E000]     buffer_instance.cc:398      1| BufferInstance::PJRT_Buffer_Destroy
[32m                 Always[0m | [1m[38;5;240m   DEBUG[0m | Tensor is retained thus not deallocating. To deallocate, set retain to false first
2025-09-15 15:42:15.901 (  84.228s) [        F073E000]     buffer_instance.cc:398      1| BufferInstance::PJRT_Buffer_Destroy
[32m                 Always[0m | [1m[38;5;240m   DEBUG[0m | Tensor is retained thus not deallocating. To deallocate, set retain to false first
2025-09-15 15:42:15.901 (  84.228s) [        F073E000]     buffer_instance.cc:398      1| BufferInstance::PJRT_Buffer_Destroy
[32m                 Always[0m | [1m[38;5;240m   DEBUG[0m | Tensor is retained thus not deallocating. To deallocate, set retain to false first
2025-09-15 15:42:15.901 (  84.228s) [        F073E000]     buffer_instance.cc:398      1| BufferInstance::PJRT_Buffer_Destroy
[32m                 Always[0m | [1m[38;5;240m   DEBUG[0m | Tensor is retained thus not deallocating. To deallocate, set retain to false first
2025-09-15 15:42:15.957 (  84.284s) [        F073E000]     buffer_instance.cc:398      1| BufferInstance::PJRT_Buffer_Destroy
[32m                 Always[0m | [1m[38;5;240m   DEBUG[0m | Tensor is retained thus not deallocating. To deallocate, set retain to false first
2025-09-15 15:42:16.004 (  84.330s) [        F073E000]     buffer_instance.cc:398      1| BufferInstance::PJRT_Buffer_Destroy
[32m                 Always[0m | [1m[38;5;240m   DEBUG[0m | Tensor is retained thus not deallocating. To deallocate, set retain to false first
2025-09-15 15:42:16.004 (  84.330s) [        F073E000]     buffer_instance.cc:398      1| BufferInstance::PJRT_Buffer_Destroy
[32m                 Always[0m | [1m[38;5;240m   DEBUG[0m | Tensor is retained thus not deallocating. To deallocate, set retain to false first
2025-09-15 15:42:16.004 (  84.331s) [        F073E000]     buffer_instance.cc:398      1| BufferInstance::PJRT_Buffer_Destroy
[32m                 Always[0m | [1m[38;5;240m   DEBUG[0m | Tensor is retained thus not deallocating. To deallocate, set retain to false first
2025-09-15 15:42:16.005 (  84.331s) [        F073E000]     buffer_instance.cc:398      1| BufferInstance::PJRT_Buffer_Destroy
[32m                 Always[0m | [1m[38;5;240m   DEBUG[0m | Tensor is retained thus not deallocating. To deallocate, set retain to false first
2025-09-15 15:42:16.005 (  84.331s) [        F073E000]     buffer_instance.cc:398      1| BufferInstance::PJRT_Buffer_Destroy
[32m                 Always[0m | [1m[38;5;240m   DEBUG[0m | Tensor is retained thus not deallocating. To deallocate, set retain to false first
2025-09-15 15:42:16.005 (  84.331s) [        F073E000]     buffer_instance.cc:398      1| BufferInstance::PJRT_Buffer_Destroy
[32m                 Always[0m | [1m[38;5;240m   DEBUG[0m | Tensor is retained thus not deallocating. To deallocate, set retain to false first
2025-09-15 15:42:16.005 (  84.331s) [        F073E000]     buffer_instance.cc:398      1| BufferInstance::PJRT_Buffer_Destroy
[32m                 Always[0m | [1m[38;5;240m   DEBUG[0m | Tensor is retained thus not deallocating. To deallocate, set retain to false first
2025-09-15 15:42:16.005 (  84.332s) [        F073E000]     buffer_instance.cc:398      1| BufferInstance::PJRT_Buffer_Destroy
[32m                 Always[0m | [1m[38;5;240m   DEBUG[0m | Tensor is retained thus not deallocating. To deallocate, set retain to false first
2025-09-15 15:42:16.005 (  84.332s) [        F073E000]     buffer_instance.cc:398      1| BufferInstance::PJRT_Buffer_Destroy
[32m                 Always[0m | [1m[38;5;240m   DEBUG[0m | Tensor is retained thus not deallocating. To deallocate, set retain to false first
2025-09-15 15:42:16.061 (  84.387s) [        F073E000]     buffer_instance.cc:398      1| BufferInstance::PJRT_Buffer_Destroy
[32m                 Always[0m | [1m[38;5;240m   DEBUG[0m | Tensor is retained thus not deallocating. To deallocate, set retain to false first
2025-09-15 15:42:16.118 (  84.444s) [        F073E000]     buffer_instance.cc:398      1| BufferInstance::PJRT_Buffer_Destroy
[32m                 Always[0m | [1m[38;5;240m   DEBUG[0m | Tensor is retained thus not deallocating. To deallocate, set retain to false first
2025-09-15 15:42:16.118 (  84.445s) [        F073E000]     buffer_instance.cc:398      1| BufferInstance::PJRT_Buffer_Destroy
[32m                 Always[0m | [1m[38;5;240m   DEBUG[0m | Tensor is retained thus not deallocating. To deallocate, set retain to false first
2025-09-15 15:42:16.118 (  84.445s) [        F073E000]     buffer_instance.cc:398      1| BufferInstance::PJRT_Buffer_Destroy
[32m                 Always[0m | [1m[38;5;240m   DEBUG[0m | Tensor is retained thus not deallocating. To deallocate, set retain to false first
2025-09-15 15:42:16.119 (  84.445s) [        F073E000]     buffer_instance.cc:398      1| BufferInstance::PJRT_Buffer_Destroy
[32m                 Always[0m | [1m[38;5;240m   DEBUG[0m | Tensor is retained thus not deallocating. To deallocate, set retain to false first
2025-09-15 15:42:16.119 (  84.445s) [        F073E000]     buffer_instance.cc:398      1| BufferInstance::PJRT_Buffer_Destroy
[32m                 Always[0m | [1m[38;5;240m   DEBUG[0m | Tensor is retained thus not deallocating. To deallocate, set retain to false first
2025-09-15 15:42:16.119 (  84.445s) [        F073E000]     buffer_instance.cc:398      1| BufferInstance::PJRT_Buffer_Destroy
[32m                 Always[0m | [1m[38;5;240m   DEBUG[0m | Tensor is retained thus not deallocating. To deallocate, set retain to false first
2025-09-15 15:42:16.119 (  84.445s) [        F073E000]     buffer_instance.cc:398      1| BufferInstance::PJRT_Buffer_Destroy
[32m                 Always[0m | [1m[38;5;240m   DEBUG[0m | Tensor is retained thus not deallocating. To deallocate, set retain to false first
2025-09-15 15:42:16.119 (  84.445s) [        F073E000]     buffer_instance.cc:398      1| BufferInstance::PJRT_Buffer_Destroy
[32m                 Always[0m | [1m[38;5;240m   DEBUG[0m | Tensor is retained thus not deallocating. To deallocate, set retain to false first
2025-09-15 15:42:16.119 (  84.445s) [        F073E000]     buffer_instance.cc:398      1| BufferInstance::PJRT_Buffer_Destroy
[32m                 Always[0m | [1m[38;5;240m   DEBUG[0m | Tensor is retained thus not deallocating. To deallocate, set retain to false first
2025-09-15 15:42:16.119 (  84.446s) [        F073E000]     buffer_instance.cc:398      1| BufferInstance::PJRT_Buffer_Destroy
[32m                 Always[0m | [1m[38;5;240m   DEBUG[0m | Tensor is retained thus not deallocating. To deallocate, set retain to false first
2025-09-15 15:42:16.119 (  84.446s) [        F073E000]     buffer_instance.cc:398      1| BufferInstance::PJRT_Buffer_Destroy
[32m                 Always[0m | [1m[38;5;240m   DEBUG[0m | Tensor is retained thus not deallocating. To deallocate, set retain to false first
2025-09-15 15:42:16.119 (  84.446s) [        F073E000]     buffer_instance.cc:398      1| BufferInstance::PJRT_Buffer_Destroy
[32m                 Always[0m | [1m[38;5;240m   DEBUG[0m | Tensor is retained thus not deallocating. To deallocate, set retain to false first
2025-09-15 15:42:16.120 (  84.446s) [        F073E000]     buffer_instance.cc:398      1| BufferInstance::PJRT_Buffer_Destroy
[32m                 Always[0m | [1m[38;5;240m   DEBUG[0m | Tensor is retained thus not deallocating. To deallocate, set retain to false first
2025-09-15 15:42:16.120 (  84.446s) [        F073E000]     buffer_instance.cc:398      1| BufferInstance::PJRT_Buffer_Destroy
[32m                 Always[0m | [1m[38;5;240m   DEBUG[0m | Tensor is retained thus not deallocating. To deallocate, set retain to false first
Merging ToLayoutOp into ttnn.constant
Merging ToLayoutOp into ttnn.constant
Merging ToLayoutOp into ttnn.constant
