WARNING:root:Defaulting to PJRT_DEVICE=CPU
============================= test session starts ==============================
platform linux -- Python 3.10.12, pytest-8.4.1, pluggy-1.6.0 -- /localdev/jameszianxu/gen_mc/tt-torch/env/venv/bin/python3.10
cachedir: .pytest_cache
rootdir: /localdev/jameszianxu/gen_mc/tt-torch
configfile: pyproject.toml
plugins: cov-6.2.1, forked-1.6.0, xdist-3.8.0, split-0.10.0
collecting ... collected 1 item

tests/models/llama/test_llama3_generative.py::test_llama3_generate Loading checkpoint shards:   0%|          | 0/2 [00:00<?, ?it/s]Loading checkpoint shards: 100%|██████████| 2/2 [00:00<00:00, 52.71it/s]
2025-08-13 23:25:01.921 (   0.000s) [        CA99B1C0]      dylib_platform.cc:47       1| DylibPlatform::SubclassInitialize
2025-08-13 23:25:01.923 (   0.001s) [        CA99B1C0]     client_instance.cc:39       1| ClientInstance::ClientInstance
2025-08-13 23:25:01.923 (   0.001s) [        CA99B1C0]              client.cc:18       1| TTClientInstance::TTClientInstance
2025-08-13 23:25:01.923 (   0.001s) [        CA99B1C0]     client_instance.cc:60       1| ClientInstance::Initialize
2025-08-13 23:25:05.179 (   3.257s) [        CA99B1C0]              stubs.inc:112   WARN| STUB: PJRT_Client_TopologyDescription
2025-08-13 23:25:05.179 (   3.257s) [        CA99B1C0]      error_instance.cc:49       1| ErrorInstance::PJRT_Error_Message
2025-08-13 23:25:05.179 (   3.257s) [        CA99B1C0]      error_instance.cc:58       1| ErrorInstance::PJRT_Error_GetCode
2025-08-13 23:25:05.179 (   3.257s) [        CA99B1C0]      error_instance.cc:43       1| ErrorInstance::PJRT_Error_Destroy
2025-08-13 23:25:05.179 (   3.257s) [        CA99B1C0]     client_instance.cc:383      1| ClientInstance::PJRT_Client_PlatformVersion
2025-08-13 23:25:05.179 (   3.257s) [        CA99B1C0]     client_instance.cc:363      1| ClientInstance::PJRT_Client_PlatformName
2025-08-13 23:25:05.179 (   3.257s) [        CA99B1C0]     client_instance.cc:395      1| ClientInstance::PJRT_Client_Devices
2025-08-13 23:25:05.179 (   3.257s) [        CA99B1C0]     device_instance.cc:44       1| DeviceInstance::PJRT_Device_GetDescription
2025-08-13 23:25:05.179 (   3.257s) [        CA99B1C0]  device_description.cc:63       1| DeviceDescription::PJRT_DeviceDescription_Attributes
2025-08-13 23:25:05.179 (   3.257s) [        CA99B1C0]     device_instance.cc:44       1| DeviceInstance::PJRT_Device_GetDescription
2025-08-13 23:25:05.179 (   3.257s) [        CA99B1C0]  device_description.cc:63       1| DeviceDescription::PJRT_DeviceDescription_Attributes
2025-08-13 23:25:05.179 (   3.257s) [        CA99B1C0]     client_instance.cc:408      1| ClientInstance::PJRT_Client_AddressableDevices
2025-08-13 23:25:05.179 (   3.257s) [        CA99B1C0]     client_instance.cc:458      1| ClientInstance::PJRT_Client_AddressableMemories
2025-08-13 23:25:05.179 (   3.257s) [        CA99B1C0]     device_instance.cc:71       1| DeviceInstance::PJRT_Device_AddressableMemories
2025-08-13 23:25:05.179 (   3.257s) [        CA99B1C0]     device_instance.cc:71       1| DeviceInstance::PJRT_Device_AddressableMemories
2025-08-13 23:25:05.179 (   3.257s) [        CA99B1C0]     memory_instance.cc:124      1| MemoryInstance::PJRT_Memory_AddressableByDevices
2025-08-13 23:25:05.179 (   3.257s) [        CA99B1C0]     memory_instance.cc:124      1| MemoryInstance::PJRT_Memory_AddressableByDevices
2025-08-13 23:25:05.179 (   3.257s) [        CA99B1C0]     memory_instance.cc:124      1| MemoryInstance::PJRT_Memory_AddressableByDevices
2025-08-13 23:25:05.179 (   3.257s) [        CA99B1C0]        api_bindings.cc:76       1| PJRT_Plugin_Attributes
2025-08-13 23:25:05.179669: W torch_xla/csrc/runtime/profiler.cpp:88] Profiler API not found for PJRT plugin
2025-08-13 23:25:05.179 (   3.257s) [        CA99B1C0]  device_description.cc:44       1| DeviceDescription::PJRT_DeviceDescription_Id
2025-08-13 23:25:05.179 (   3.257s) [        CA99B1C0]  device_description.cc:44       1| DeviceDescription::PJRT_DeviceDescription_Id
2025-08-13 23:25:05.179 (   3.258s) [        CA99B1C0]  device_description.cc:44       1| DeviceDescription::PJRT_DeviceDescription_Id
2025-08-13 23:25:05.179 (   3.258s) [        CA99B1C0]  device_description.cc:44       1| DeviceDescription::PJRT_DeviceDescription_Id
2025-08-13 23:25:05.179 (   3.258s) [        CA99B1C0]  device_description.cc:44       1| DeviceDescription::PJRT_DeviceDescription_Id
2025-08-13 23:25:05.179 (   3.258s) [        CA99B1C0]  device_description.cc:44       1| DeviceDescription::PJRT_DeviceDescription_Id
2025-08-13 23:25:05.179 (   3.258s) [        CA99B1C0]  device_description.cc:99       1| DeviceDescription::PJRT_DeviceDescription_ToString
2025-08-13 23:25:05.179 (   3.258s) [        CA99B1C0]  device_description.cc:99       1| DeviceDescription::PJRT_DeviceDescription_ToString
2025-08-13 23:25:05.179 (   3.258s) [        CA99B1C0]  device_description.cc:44       1| DeviceDescription::PJRT_DeviceDescription_Id
2025-08-13 23:25:05.179 (   3.258s) [        CA99B1C0]  device_description.cc:44       1| DeviceDescription::PJRT_DeviceDescription_Id
2025-08-13 23:25:05.179 (   3.258s) [        CA99B1C0]  device_description.cc:44       1| DeviceDescription::PJRT_DeviceDescription_Id
2025-08-13 23:25:05.179 (   3.258s) [        CA99B1C0]  device_description.cc:44       1| DeviceDescription::PJRT_DeviceDescription_Id
[James] Manually forwarding attention mask
Initial prompt: '<|begin_of_text|>I like taking walks in the'
Setting up XLA environment...
XLA environment configured.
Created device mesh: (1, 2) with 2 devices
[SHARD_DEBUG] ADDED tensor: id=140716026138592, shape=[1, 7], dtype=torch.int64, device=cpu
[SHARD_DEBUG]   shard_spec: (None, None)
[SHARD_DEBUG] ADDED tensor: id=140716025109200, shape=[7], dtype=torch.int64, device=cpu
[SHARD_DEBUG]   shard_spec: None
[SHARD_DEBUG] ADDED tensor: id=140716026146992, shape=[1, 8, 128, 128], dtype=torch.bfloat16, device=cpu
[SHARD_DEBUG]   shard_spec: (None, 'batch', None, None)
[SHARD_DEBUG] ADDED tensor: id=140716026145072, shape=[1, 8, 128, 128], dtype=torch.bfloat16, device=cpu
[SHARD_DEBUG]   shard_spec: (None, 'batch', None, None)
[SHARD_DEBUG] ADDED tensor: id=140715232194416, shape=[8192, 3072], dtype=torch.bfloat16, device=cpu
[SHARD_DEBUG]   shard_spec: ('model', None)
[SHARD_DEBUG] ADDED tensor: id=140715232193056, shape=[8192, 3072], dtype=torch.bfloat16, device=cpu
[SHARD_DEBUG]   shard_spec: ('model', None)
[SHARD_DEBUG] ADDED tensor: id=140715232192496, shape=[3072, 8192], dtype=torch.bfloat16, device=cpu
[SHARD_DEBUG]   shard_spec: (None, 'model')
[SHARD_DEBUG] ADDED tensor: id=140715232198496, shape=[3072, 3072], dtype=torch.bfloat16, device=cpu
[SHARD_DEBUG]   shard_spec: ('model', None)
[SHARD_DEBUG] ADDED tensor: id=140715232196096, shape=[1024, 3072], dtype=torch.bfloat16, device=cpu
[SHARD_DEBUG]   shard_spec: ('model', None)
[SHARD_DEBUG] ADDED tensor: id=140715232191216, shape=[1024, 3072], dtype=torch.bfloat16, device=cpu
[SHARD_DEBUG]   shard_spec: ('model', None)
[SHARD_DEBUG] ADDED tensor: id=140715232190016, shape=[3072, 3072], dtype=torch.bfloat16, device=cpu
[SHARD_DEBUG]   shard_spec: (None, 'model')
[SHARD_DEBUG] ADDED tensor: id=140715232195136, shape=[8192, 3072], dtype=torch.bfloat16, device=cpu
[SHARD_DEBUG]   shard_spec: ('model', None)
[SHARD_DEBUG] ADDED tensor: id=140715232190576, shape=[8192, 3072], dtype=torch.bfloat16, device=cpu
[SHARD_DEBUG]   shard_spec: ('model', None)
[SHARD_DEBUG] ADDED tensor: id=140715232189216, shape=[3072, 8192], dtype=torch.bfloat16, device=cpu
[SHARD_DEBUG]   shard_spec: (None, 'model')
[SHARD_DEBUG] ADDED tensor: id=140715232065184, shape=[3072, 3072], dtype=torch.bfloat16, device=cpu
[SHARD_DEBUG]   shard_spec: ('model', None)
[SHARD_DEBUG] ADDED tensor: id=140715232197616, shape=[1024, 3072], dtype=torch.bfloat16, device=cpu
[SHARD_DEBUG]   shard_spec: ('model', None)
[SHARD_DEBUG] ADDED tensor: id=140715232067264, shape=[1024, 3072], dtype=torch.bfloat16, device=cpu
[SHARD_DEBUG]   shard_spec: ('model', None)
[SHARD_DEBUG] ADDED tensor: id=140715232063024, shape=[3072, 3072], dtype=torch.bfloat16, device=cpu
[SHARD_DEBUG]   shard_spec: (None, 'model')
[SHARD_DEBUG] ADDED tensor: id=140715244815760, shape=[8192, 3072], dtype=torch.bfloat16, device=cpu
[SHARD_DEBUG]   shard_spec: ('model', None)
[SHARD_DEBUG] ADDED tensor: id=140715232164928, shape=[8192, 3072], dtype=torch.bfloat16, device=cpu
[SHARD_DEBUG]   shard_spec: ('model', None)
[SHARD_DEBUG] ADDED tensor: id=140715232153168, shape=[3072, 8192], dtype=torch.bfloat16, device=cpu
[SHARD_DEBUG]   shard_spec: (None, 'model')
[SHARD_DEBUG] ADDED tensor: id=140715244818320, shape=[3072, 3072], dtype=torch.bfloat16, device=cpu
[SHARD_DEBUG]   shard_spec: ('model', None)
[SHARD_DEBUG] ADDED tensor: id=140715244818560, shape=[1024, 3072], dtype=torch.bfloat16, device=cpu
[SHARD_DEBUG]   shard_spec: ('model', None)
[SHARD_DEBUG] ADDED tensor: id=140715231705696, shape=[1024, 3072], dtype=torch.bfloat16, device=cpu
[SHARD_DEBUG]   shard_spec: ('model', None)
[SHARD_DEBUG] ADDED tensor: id=140715244818160, shape=[3072, 3072], dtype=torch.bfloat16, device=cpu
[SHARD_DEBUG]   shard_spec: (None, 'model')
[SHARD_DEBUG] ADDED tensor: id=140715231700016, shape=[8192, 3072], dtype=torch.bfloat16, device=cpu
[SHARD_DEBUG]   shard_spec: ('model', None)
[SHARD_DEBUG] ADDED tensor: id=140715231699856, shape=[8192, 3072], dtype=torch.bfloat16, device=cpu
[SHARD_DEBUG]   shard_spec: ('model', None)
[SHARD_DEBUG] ADDED tensor: id=140715231698656, shape=[3072, 8192], dtype=torch.bfloat16, device=cpu
[SHARD_DEBUG]   shard_spec: (None, 'model')
[SHARD_DEBUG] ADDED tensor: id=140715231706336, shape=[3072, 3072], dtype=torch.bfloat16, device=cpu
[SHARD_DEBUG]   shard_spec: ('model', None)
[SHARD_DEBUG] ADDED tensor: id=140715231699696, shape=[1024, 3072], dtype=torch.bfloat16, device=cpu
[SHARD_DEBUG]   shard_spec: ('model', None)
[SHARD_DEBUG] ADDED tensor: id=140715231698496, shape=[1024, 3072], dtype=torch.bfloat16, device=cpu
[SHARD_DEBUG]   shard_spec: ('model', None)
[SHARD_DEBUG] ADDED tensor: id=140715231706256, shape=[3072, 3072], dtype=torch.bfloat16, device=cpu
[SHARD_DEBUG]   shard_spec: (None, 'model')
[SHARD_DEBUG] ADDED tensor: id=140715231698176, shape=[8192, 3072], dtype=torch.bfloat16, device=cpu
[SHARD_DEBUG]   shard_spec: ('model', None)
[SHARD_DEBUG] ADDED tensor: id=140715231698016, shape=[8192, 3072], dtype=torch.bfloat16, device=cpu
[SHARD_DEBUG]   shard_spec: ('model', None)
[SHARD_DEBUG] ADDED tensor: id=140715231703936, shape=[3072, 8192], dtype=torch.bfloat16, device=cpu
[SHARD_DEBUG]   shard_spec: (None, 'model')
[SHARD_DEBUG] ADDED tensor: id=140715231698336, shape=[3072, 3072], dtype=torch.bfloat16, device=cpu
[SHARD_DEBUG]   shard_spec: ('model', None)
[SHARD_DEBUG] ADDED tensor: id=140715231700096, shape=[1024, 3072], dtype=torch.bfloat16, device=cpu
[SHARD_DEBUG]   shard_spec: ('model', None)
[SHARD_DEBUG] ADDED tensor: id=140715231698976, shape=[1024, 3072], dtype=torch.bfloat16, device=cpu
[SHARD_DEBUG]   shard_spec: ('model', None)
[SHARD_DEBUG] ADDED tensor: id=140715231702016, shape=[3072, 3072], dtype=torch.bfloat16, device=cpu
[SHARD_DEBUG]   shard_spec: (None, 'model')
[SHARD_DEBUG] ADDED tensor: id=140715231706576, shape=[8192, 3072], dtype=torch.bfloat16, device=cpu
[SHARD_DEBUG]   shard_spec: ('model', None)
[SHARD_DEBUG] ADDED tensor: id=140715231703856, shape=[8192, 3072], dtype=torch.bfloat16, device=cpu
[SHARD_DEBUG]   shard_spec: ('model', None)
[SHARD_DEBUG] ADDED tensor: id=140715231699776, shape=[3072, 8192], dtype=torch.bfloat16, device=cpu
[SHARD_DEBUG]   shard_spec: (None, 'model')
[SHARD_DEBUG] ADDED tensor: id=140716026996640, shape=[3072, 3072], dtype=torch.bfloat16, device=cpu
[SHARD_DEBUG]   shard_spec: ('model', None)
[SHARD_DEBUG] ADDED tensor: id=140716026996720, shape=[1024, 3072], dtype=torch.bfloat16, device=cpu
[SHARD_DEBUG]   shard_spec: ('model', None)
[SHARD_DEBUG] ADDED tensor: id=140716026995520, shape=[1024, 3072], dtype=torch.bfloat16, device=cpu
[SHARD_DEBUG]   shard_spec: ('model', None)
[SHARD_DEBUG] ADDED tensor: id=140716026999840, shape=[3072, 3072], dtype=torch.bfloat16, device=cpu
[SHARD_DEBUG]   shard_spec: (None, 'model')
[SHARD_DEBUG] ADDED tensor: id=140716023643200, shape=[8192, 3072], dtype=torch.bfloat16, device=cpu
[SHARD_DEBUG]   shard_spec: ('model', None)
[SHARD_DEBUG] ADDED tensor: id=140716023625056, shape=[8192, 3072], dtype=torch.bfloat16, device=cpu
[SHARD_DEBUG]   shard_spec: ('model', None)
[SHARD_DEBUG] ADDED tensor: id=140716026996240, shape=[3072, 8192], dtype=torch.bfloat16, device=cpu
[SHARD_DEBUG]   shard_spec: (None, 'model')
[SHARD_DEBUG] ADDED tensor: id=140716023638480, shape=[3072, 3072], dtype=torch.bfloat16, device=cpu
[SHARD_DEBUG]   shard_spec: ('model', None)
[SHARD_DEBUG] ADDED tensor: id=140716023643520, shape=[1024, 3072], dtype=torch.bfloat16, device=cpu
[SHARD_DEBUG]   shard_spec: ('model', None)
[SHARD_DEBUG] ADDED tensor: id=140716023630480, shape=[1024, 3072], dtype=torch.bfloat16, device=cpu
[SHARD_DEBUG]   shard_spec: ('model', None)
[SHARD_DEBUG] ADDED tensor: id=140716023642320, shape=[3072, 3072], dtype=torch.bfloat16, device=cpu
[SHARD_DEBUG]   shard_spec: (None, 'model')
[SHARD_DEBUG] ADDED tensor: id=140716023640480, shape=[8192, 3072], dtype=torch.bfloat16, device=cpu
[SHARD_DEBUG]   shard_spec: ('model', None)
[SHARD_DEBUG] ADDED tensor: id=140716023633520, shape=[8192, 3072], dtype=torch.bfloat16, device=cpu
[SHARD_DEBUG]   shard_spec: ('model', None)
[SHARD_DEBUG] ADDED tensor: id=140715230277568, shape=[3072, 8192], dtype=torch.bfloat16, device=cpu
[SHARD_DEBUG]   shard_spec: (None, 'model')
[SHARD_DEBUG] ADDED tensor: id=140716023638000, shape=[3072, 3072], dtype=torch.bfloat16, device=cpu
[SHARD_DEBUG]   shard_spec: ('model', None)
[SHARD_DEBUG] ADDED tensor: id=140716023640240, shape=[1024, 3072], dtype=torch.bfloat16, device=cpu
[SHARD_DEBUG]   shard_spec: ('model', None)
[SHARD_DEBUG] ADDED tensor: id=140716024700960, shape=[1024, 3072], dtype=torch.bfloat16, device=cpu
[SHARD_DEBUG]   shard_spec: ('model', None)
[SHARD_DEBUG] ADDED tensor: id=140715231698816, shape=[3072, 3072], dtype=torch.bfloat16, device=cpu
[SHARD_DEBUG]   shard_spec: (None, 'model')
[SHARD_DEBUG] ADDED tensor: id=140715232190656, shape=[8192, 3072], dtype=torch.bfloat16, device=cpu
[SHARD_DEBUG]   shard_spec: ('model', None)
[SHARD_DEBUG] ADDED tensor: id=140716023639920, shape=[8192, 3072], dtype=torch.bfloat16, device=cpu
[SHARD_DEBUG]   shard_spec: ('model', None)
[SHARD_DEBUG] ADDED tensor: id=140716023615136, shape=[3072, 8192], dtype=torch.bfloat16, device=cpu
[SHARD_DEBUG]   shard_spec: (None, 'model')
[SHARD_DEBUG] ADDED tensor: id=140716023641280, shape=[3072, 3072], dtype=torch.bfloat16, device=cpu
[SHARD_DEBUG]   shard_spec: ('model', None)
[SHARD_DEBUG] ADDED tensor: id=140716023641440, shape=[1024, 3072], dtype=torch.bfloat16, device=cpu
[SHARD_DEBUG]   shard_spec: ('model', None)
[SHARD_DEBUG] ADDED tensor: id=140715231702096, shape=[1024, 3072], dtype=torch.bfloat16, device=cpu
[SHARD_DEBUG]   shard_spec: ('model', None)
[SHARD_DEBUG] ADDED tensor: id=140716023634320, shape=[3072, 3072], dtype=torch.bfloat16, device=cpu
[SHARD_DEBUG]   shard_spec: (None, 'model')
[SHARD_DEBUG] ADDED tensor: id=140716023640320, shape=[8192, 3072], dtype=torch.bfloat16, device=cpu
[SHARD_DEBUG]   shard_spec: ('model', None)
[SHARD_DEBUG] ADDED tensor: id=140716023639840, shape=[8192, 3072], dtype=torch.bfloat16, device=cpu
[SHARD_DEBUG]   shard_spec: ('model', None)
[SHARD_DEBUG] ADDED tensor: id=140716023632080, shape=[3072, 8192], dtype=torch.bfloat16, device=cpu
[SHARD_DEBUG]   shard_spec: (None, 'model')
[SHARD_DEBUG] ADDED tensor: id=140716023644000, shape=[3072, 3072], dtype=torch.bfloat16, device=cpu
[SHARD_DEBUG]   shard_spec: ('model', None)
[SHARD_DEBUG] ADDED tensor: id=140716023641520, shape=[1024, 3072], dtype=torch.bfloat16, device=cpu
[SHARD_DEBUG]   shard_spec: ('model', None)
[SHARD_DEBUG] ADDED tensor: id=140716023640640, shape=[1024, 3072], dtype=torch.bfloat16, device=cpu
[SHARD_DEBUG]   shard_spec: ('model', None)
[SHARD_DEBUG] ADDED tensor: id=140716023643920, shape=[3072, 3072], dtype=torch.bfloat16, device=cpu
[SHARD_DEBUG]   shard_spec: (None, 'model')
[SHARD_DEBUG] ADDED tensor: id=140715232065104, shape=[8192, 3072], dtype=torch.bfloat16, device=cpu
[SHARD_DEBUG]   shard_spec: ('model', None)
[SHARD_DEBUG] ADDED tensor: id=140715232053344, shape=[8192, 3072], dtype=torch.bfloat16, device=cpu
[SHARD_DEBUG]   shard_spec: ('model', None)
[SHARD_DEBUG] ADDED tensor: id=140715232060384, shape=[3072, 8192], dtype=torch.bfloat16, device=cpu
[SHARD_DEBUG]   shard_spec: (None, 'model')
[SHARD_DEBUG] ADDED tensor: id=140715232056064, shape=[3072, 3072], dtype=torch.bfloat16, device=cpu
[SHARD_DEBUG]   shard_spec: ('model', None)
[SHARD_DEBUG] ADDED tensor: id=140715232066384, shape=[1024, 3072], dtype=torch.bfloat16, device=cpu
[SHARD_DEBUG]   shard_spec: ('model', None)
[SHARD_DEBUG] ADDED tensor: id=140715232059664, shape=[1024, 3072], dtype=torch.bfloat16, device=cpu
[SHARD_DEBUG]   shard_spec: ('model', None)
[SHARD_DEBUG] ADDED tensor: id=140715232062464, shape=[3072, 3072], dtype=torch.bfloat16, device=cpu
[SHARD_DEBUG]   shard_spec: (None, 'model')
[SHARD_DEBUG] ADDED tensor: id=140715232055504, shape=[8192, 3072], dtype=torch.bfloat16, device=cpu
[SHARD_DEBUG]   shard_spec: ('model', None)
[SHARD_DEBUG] ADDED tensor: id=140715232056224, shape=[8192, 3072], dtype=torch.bfloat16, device=cpu
[SHARD_DEBUG]   shard_spec: ('model', None)
[SHARD_DEBUG] ADDED tensor: id=140715232053104, shape=[3072, 8192], dtype=torch.bfloat16, device=cpu
[SHARD_DEBUG]   shard_spec: (None, 'model')
[SHARD_DEBUG] ADDED tensor: id=140715232057424, shape=[3072, 3072], dtype=torch.bfloat16, device=cpu
[SHARD_DEBUG]   shard_spec: ('model', None)
[SHARD_DEBUG] ADDED tensor: id=140715232053664, shape=[1024, 3072], dtype=torch.bfloat16, device=cpu
[SHARD_DEBUG]   shard_spec: ('model', None)
[SHARD_DEBUG] ADDED tensor: id=140715232055904, shape=[1024, 3072], dtype=torch.bfloat16, device=cpu
[SHARD_DEBUG]   shard_spec: ('model', None)
[SHARD_DEBUG] ADDED tensor: id=140715232061584, shape=[3072, 3072], dtype=torch.bfloat16, device=cpu
[SHARD_DEBUG]   shard_spec: (None, 'model')
[SHARD_DEBUG] ADDED tensor: id=140715232055424, shape=[8192, 3072], dtype=torch.bfloat16, device=cpu
[SHARD_DEBUG]   shard_spec: ('model', None)
[SHARD_DEBUG] ADDED tensor: id=140715232059984, shape=[8192, 3072], dtype=torch.bfloat16, device=cpu
[SHARD_DEBUG]   shard_spec: ('model', None)
[SHARD_DEBUG] ADDED tensor: id=140715232051824, shape=[3072, 8192], dtype=torch.bfloat16, device=cpu
[SHARD_DEBUG]   shard_spec: (None, 'model')
[SHARD_DEBUG] ADDED tensor: id=140715233137008, shape=[3072, 3072], dtype=torch.bfloat16, device=cpu
[SHARD_DEBUG]   shard_spec: ('model', None)
[SHARD_DEBUG] ADDED tensor: id=140715232051744, shape=[1024, 3072], dtype=torch.bfloat16, device=cpu
[SHARD_DEBUG]   shard_spec: ('model', None)
[SHARD_DEBUG] ADDED tensor: id=140715232061024, shape=[1024, 3072], dtype=torch.bfloat16, device=cpu
[SHARD_DEBUG]   shard_spec: ('model', None)
[SHARD_DEBUG] ADDED tensor: id=140715232057744, shape=[3072, 3072], dtype=torch.bfloat16, device=cpu
[SHARD_DEBUG]   shard_spec: (None, 'model')
[SHARD_DEBUG] ADDED tensor: id=140715232062624, shape=[8192, 3072], dtype=torch.bfloat16, device=cpu
[SHARD_DEBUG]   shard_spec: ('model', None)
[SHARD_DEBUG] ADDED tensor: id=140715232064544, shape=[8192, 3072], dtype=torch.bfloat16, device=cpu
[SHARD_DEBUG]   shard_spec: ('model', None)
[SHARD_DEBUG] ADDED tensor: id=140715232062304, shape=[3072, 8192], dtype=torch.bfloat16, device=cpu
[SHARD_DEBUG]   shard_spec: (None, 'model')
[SHARD_DEBUG] ADDED tensor: id=140715232059904, shape=[3072, 3072], dtype=torch.bfloat16, device=cpu
[SHARD_DEBUG]   shard_spec: ('model', None)
[SHARD_DEBUG] ADDED tensor: id=140715232061264, shape=[1024, 3072], dtype=torch.bfloat16, device=cpu
[SHARD_DEBUG]   shard_spec: ('model', None)
[SHARD_DEBUG] ADDED tensor: id=140715232063664, shape=[1024, 3072], dtype=torch.bfloat16, device=cpu
[SHARD_DEBUG]   shard_spec: ('model', None)
[SHARD_DEBUG] ADDED tensor: id=140715232065824, shape=[3072, 3072], dtype=torch.bfloat16, device=cpu
[SHARD_DEBUG]   shard_spec: (None, 'model')
[SHARD_DEBUG] ADDED tensor: id=140715232057264, shape=[8192, 3072], dtype=torch.bfloat16, device=cpu
[SHARD_DEBUG]   shard_spec: ('model', None)
[SHARD_DEBUG] ADDED tensor: id=140716025215504, shape=[8192, 3072], dtype=torch.bfloat16, device=cpu
[SHARD_DEBUG]   shard_spec: ('model', None)
[SHARD_DEBUG] ADDED tensor: id=140715232058944, shape=[3072, 8192], dtype=torch.bfloat16, device=cpu
[SHARD_DEBUG]   shard_spec: (None, 'model')
[SHARD_DEBUG] ADDED tensor: id=140715232059344, shape=[3072, 3072], dtype=torch.bfloat16, device=cpu
[SHARD_DEBUG]   shard_spec: ('model', None)
[SHARD_DEBUG] ADDED tensor: id=140715232059104, shape=[1024, 3072], dtype=torch.bfloat16, device=cpu
[SHARD_DEBUG]   shard_spec: ('model', None)
[SHARD_DEBUG] ADDED tensor: id=140715232157648, shape=[1024, 3072], dtype=torch.bfloat16, device=cpu
[SHARD_DEBUG]   shard_spec: ('model', None)
[SHARD_DEBUG] ADDED tensor: id=140715232057104, shape=[3072, 3072], dtype=torch.bfloat16, device=cpu
[SHARD_DEBUG]   shard_spec: (None, 'model')
[SHARD_DEBUG] ADDED tensor: id=140715232165408, shape=[8192, 3072], dtype=torch.bfloat16, device=cpu
[SHARD_DEBUG]   shard_spec: ('model', None)
[SHARD_DEBUG] ADDED tensor: id=140715232158368, shape=[8192, 3072], dtype=torch.bfloat16, device=cpu
[SHARD_DEBUG]   shard_spec: ('model', None)
[SHARD_DEBUG] ADDED tensor: id=140715232165728, shape=[3072, 8192], dtype=torch.bfloat16, device=cpu
[SHARD_DEBUG]   shard_spec: (None, 'model')
[SHARD_DEBUG] ADDED tensor: id=140715232165248, shape=[3072, 3072], dtype=torch.bfloat16, device=cpu
[SHARD_DEBUG]   shard_spec: ('model', None)
[SHARD_DEBUG] ADDED tensor: id=140715232154368, shape=[1024, 3072], dtype=torch.bfloat16, device=cpu
[SHARD_DEBUG]   shard_spec: ('model', None)
[SHARD_DEBUG] ADDED tensor: id=140715232150128, shape=[1024, 3072], dtype=torch.bfloat16, device=cpu
[SHARD_DEBUG]   shard_spec: ('model', None)
[SHARD_DEBUG] ADDED tensor: id=140715232191056, shape=[3072, 3072], dtype=torch.bfloat16, device=cpu
[SHARD_DEBUG]   shard_spec: (None, 'model')
[SHARD_DEBUG] ADDED tensor: id=140715232156288, shape=[8192, 3072], dtype=torch.bfloat16, device=cpu
[SHARD_DEBUG]   shard_spec: ('model', None)
[SHARD_DEBUG] ADDED tensor: id=140715232150208, shape=[8192, 3072], dtype=torch.bfloat16, device=cpu
[SHARD_DEBUG]   shard_spec: ('model', None)
[SHARD_DEBUG] ADDED tensor: id=140715232149568, shape=[3072, 8192], dtype=torch.bfloat16, device=cpu
[SHARD_DEBUG]   shard_spec: (None, 'model')
[SHARD_DEBUG] ADDED tensor: id=140715232153648, shape=[3072, 3072], dtype=torch.bfloat16, device=cpu
[SHARD_DEBUG]   shard_spec: ('model', None)
[SHARD_DEBUG] ADDED tensor: id=140715232154768, shape=[1024, 3072], dtype=torch.bfloat16, device=cpu
[SHARD_DEBUG]   shard_spec: ('model', None)
[SHARD_DEBUG] ADDED tensor: id=140715232155008, shape=[1024, 3072], dtype=torch.bfloat16, device=cpu
[SHARD_DEBUG]   shard_spec: ('model', None)
[SHARD_DEBUG] ADDED tensor: id=140715232161088, shape=[3072, 3072], dtype=torch.bfloat16, device=cpu
[SHARD_DEBUG]   shard_spec: (None, 'model')
[SHARD_DEBUG] ADDED tensor: id=140715232157488, shape=[8192, 3072], dtype=torch.bfloat16, device=cpu
[SHARD_DEBUG]   shard_spec: ('model', None)
[SHARD_DEBUG] ADDED tensor: id=140715232151648, shape=[8192, 3072], dtype=torch.bfloat16, device=cpu
[SHARD_DEBUG]   shard_spec: ('model', None)
[SHARD_DEBUG] ADDED tensor: id=140715232150688, shape=[3072, 8192], dtype=torch.bfloat16, device=cpu
[SHARD_DEBUG]   shard_spec: (None, 'model')
[SHARD_DEBUG] ADDED tensor: id=140715232164608, shape=[3072, 3072], dtype=torch.bfloat16, device=cpu
[SHARD_DEBUG]   shard_spec: ('model', None)
[SHARD_DEBUG] ADDED tensor: id=140715232162768, shape=[1024, 3072], dtype=torch.bfloat16, device=cpu
[SHARD_DEBUG]   shard_spec: ('model', None)
[SHARD_DEBUG] ADDED tensor: id=140715232161648, shape=[1024, 3072], dtype=torch.bfloat16, device=cpu
[SHARD_DEBUG]   shard_spec: ('model', None)
[SHARD_DEBUG] ADDED tensor: id=140715232155328, shape=[3072, 3072], dtype=torch.bfloat16, device=cpu
[SHARD_DEBUG]   shard_spec: (None, 'model')
[SHARD_DEBUG] ADDED tensor: id=140715232160448, shape=[8192, 3072], dtype=torch.bfloat16, device=cpu
[SHARD_DEBUG]   shard_spec: ('model', None)
[SHARD_DEBUG] ADDED tensor: id=140715232158208, shape=[8192, 3072], dtype=torch.bfloat16, device=cpu
[SHARD_DEBUG]   shard_spec: ('model', None)
[SHARD_DEBUG] ADDED tensor: id=140715232153888, shape=[3072, 8192], dtype=torch.bfloat16, device=cpu
[SHARD_DEBUG]   shard_spec: (None, 'model')
[SHARD_DEBUG] ADDED tensor: id=140715232158528, shape=[3072, 3072], dtype=torch.bfloat16, device=cpu
[SHARD_DEBUG]   shard_spec: ('model', None)
[SHARD_DEBUG] ADDED tensor: id=140715232163808, shape=[1024, 3072], dtype=torch.bfloat16, device=cpu
[SHARD_DEBUG]   shard_spec: ('model', None)
[SHARD_DEBUG] ADDED tensor: id=140715232155968, shape=[1024, 3072], dtype=torch.bfloat16, device=cpu
[SHARD_DEBUG]   shard_spec: ('model', None)
[SHARD_DEBUG] ADDED tensor: id=140715232163168, shape=[3072, 3072], dtype=torch.bfloat16, device=cpu
[SHARD_DEBUG]   shard_spec: (None, 'model')
[SHARD_DEBUG] ADDED tensor: id=140715232163568, shape=[8192, 3072], dtype=torch.bfloat16, device=cpu
[SHARD_DEBUG]   shard_spec: ('model', None)
[SHARD_DEBUG] ADDED tensor: id=140715232163328, shape=[8192, 3072], dtype=torch.bfloat16, device=cpu
[SHARD_DEBUG]   shard_spec: ('model', None)
[SHARD_DEBUG] ADDED tensor: id=140715232165328, shape=[3072, 8192], dtype=torch.bfloat16, device=cpu
[SHARD_DEBUG]   shard_spec: (None, 'model')
[SHARD_DEBUG] ADDED tensor: id=140715232851696, shape=[3072, 3072], dtype=torch.bfloat16, device=cpu
[SHARD_DEBUG]   shard_spec: ('model', None)
[SHARD_DEBUG] ADDED tensor: id=140715232051504, shape=[1024, 3072], dtype=torch.bfloat16, device=cpu
[SHARD_DEBUG]   shard_spec: ('model', None)
[SHARD_DEBUG] ADDED tensor: id=140715232154288, shape=[1024, 3072], dtype=torch.bfloat16, device=cpu
[SHARD_DEBUG]   shard_spec: ('model', None)
[SHARD_DEBUG] ADDED tensor: id=140715232161248, shape=[3072, 3072], dtype=torch.bfloat16, device=cpu
[SHARD_DEBUG]   shard_spec: (None, 'model')
[SHARD_DEBUG] ADDED tensor: id=140715231699136, shape=[8192, 3072], dtype=torch.bfloat16, device=cpu
[SHARD_DEBUG]   shard_spec: ('model', None)
[SHARD_DEBUG] ADDED tensor: id=140715231699536, shape=[8192, 3072], dtype=torch.bfloat16, device=cpu
[SHARD_DEBUG]   shard_spec: ('model', None)
[SHARD_DEBUG] ADDED tensor: id=140715232236128, shape=[3072, 8192], dtype=torch.bfloat16, device=cpu
[SHARD_DEBUG]   shard_spec: (None, 'model')
[SHARD_DEBUG] ADDED tensor: id=140715231698256, shape=[3072, 3072], dtype=torch.bfloat16, device=cpu
[SHARD_DEBUG]   shard_spec: ('model', None)
[SHARD_DEBUG] ADDED tensor: id=140715231706176, shape=[1024, 3072], dtype=torch.bfloat16, device=cpu
[SHARD_DEBUG]   shard_spec: ('model', None)
[SHARD_DEBUG] ADDED tensor: id=140715231706976, shape=[1024, 3072], dtype=torch.bfloat16, device=cpu
[SHARD_DEBUG]   shard_spec: ('model', None)
[SHARD_DEBUG] ADDED tensor: id=140715231698736, shape=[3072, 3072], dtype=torch.bfloat16, device=cpu
[SHARD_DEBUG]   shard_spec: (None, 'model')
[SHARD_DEBUG] ADDED tensor: id=140715232245808, shape=[8192, 3072], dtype=torch.bfloat16, device=cpu
[SHARD_DEBUG]   shard_spec: ('model', None)
[SHARD_DEBUG] ADDED tensor: id=140715232237648, shape=[8192, 3072], dtype=torch.bfloat16, device=cpu
[SHARD_DEBUG]   shard_spec: ('model', None)
[SHARD_DEBUG] ADDED tensor: id=140715232234288, shape=[3072, 8192], dtype=torch.bfloat16, device=cpu
[SHARD_DEBUG]   shard_spec: (None, 'model')
[SHARD_DEBUG] ADDED tensor: id=140715232242608, shape=[3072, 3072], dtype=torch.bfloat16, device=cpu
[SHARD_DEBUG]   shard_spec: ('model', None)
[SHARD_DEBUG] ADDED tensor: id=140715232246448, shape=[1024, 3072], dtype=torch.bfloat16, device=cpu
[SHARD_DEBUG]   shard_spec: ('model', None)
[SHARD_DEBUG] ADDED tensor: id=140715232134704, shape=[1024, 3072], dtype=torch.bfloat16, device=cpu
[SHARD_DEBUG]   shard_spec: ('model', None)
[SHARD_DEBUG] ADDED tensor: id=140715232247728, shape=[3072, 3072], dtype=torch.bfloat16, device=cpu
[SHARD_DEBUG]   shard_spec: (None, 'model')
[SHARD_DEBUG] ADDED tensor: id=140715232136464, shape=[8192, 3072], dtype=torch.bfloat16, device=cpu
[SHARD_DEBUG]   shard_spec: ('model', None)
[SHARD_DEBUG] ADDED tensor: id=140715232143504, shape=[8192, 3072], dtype=torch.bfloat16, device=cpu
[SHARD_DEBUG]   shard_spec: ('model', None)
[SHARD_DEBUG] ADDED tensor: id=140715232148544, shape=[3072, 8192], dtype=torch.bfloat16, device=cpu
[SHARD_DEBUG]   shard_spec: (None, 'model')
[SHARD_DEBUG] ADDED tensor: id=140715232145424, shape=[3072, 3072], dtype=torch.bfloat16, device=cpu
[SHARD_DEBUG]   shard_spec: ('model', None)
[SHARD_DEBUG] ADDED tensor: id=140715232143024, shape=[1024, 3072], dtype=torch.bfloat16, device=cpu
[SHARD_DEBUG]   shard_spec: ('model', None)
[SHARD_DEBUG] ADDED tensor: id=140715232140944, shape=[1024, 3072], dtype=torch.bfloat16, device=cpu
[SHARD_DEBUG]   shard_spec: ('model', None)
[SHARD_DEBUG] ADDED tensor: id=140715232134784, shape=[3072, 3072], dtype=torch.bfloat16, device=cpu
[SHARD_DEBUG]   shard_spec: (None, 'model')
[SHARD_DEBUG] ADDED tensor: id=140715232148064, shape=[8192, 3072], dtype=torch.bfloat16, device=cpu
[SHARD_DEBUG]   shard_spec: ('model', None)
[SHARD_DEBUG] ADDED tensor: id=140715232138864, shape=[8192, 3072], dtype=torch.bfloat16, device=cpu
[SHARD_DEBUG]   shard_spec: ('model', None)
[SHARD_DEBUG] ADDED tensor: id=140715232134304, shape=[3072, 8192], dtype=torch.bfloat16, device=cpu
[SHARD_DEBUG]   shard_spec: (None, 'model')
[SHARD_DEBUG] ADDED tensor: id=140715232146464, shape=[3072, 3072], dtype=torch.bfloat16, device=cpu
[SHARD_DEBUG]   shard_spec: ('model', None)
[SHARD_DEBUG] ADDED tensor: id=140715232136304, shape=[1024, 3072], dtype=torch.bfloat16, device=cpu
[SHARD_DEBUG]   shard_spec: ('model', None)
[SHARD_DEBUG] ADDED tensor: id=140715232138624, shape=[1024, 3072], dtype=torch.bfloat16, device=cpu
[SHARD_DEBUG]   shard_spec: ('model', None)
[SHARD_DEBUG] ADDED tensor: id=140715232137424, shape=[3072, 3072], dtype=torch.bfloat16, device=cpu
[SHARD_DEBUG]   shard_spec: (None, 'model')
[SHARD_DEBUG] ADDED tensor: id=140715232136784, shape=[8192, 3072], dtype=torch.bfloat16, device=cpu
[SHARD_DEBUG]   shard_spec: ('model', None)
[SHARD_DEBUG] ADDED tensor: id=140715232143424, shape=[8192, 3072], dtype=torch.bfloat16, device=cpu
[SHARD_DEBUG]   shard_spec: ('model', None)
[SHARD_DEBUG] ADDED tensor: id=140715232146624, shape=[3072, 8192], dtype=torch.bfloat16, device=cpu
[SHARD_DEBUG]   shard_spec: (None, 'model')
[SHARD_DEBUG] ADDED tensor: id=140715232135344, shape=[3072, 3072], dtype=torch.bfloat16, device=cpu
[SHARD_DEBUG]   shard_spec: ('model', None)
[SHARD_DEBUG] ADDED tensor: id=140715232145664, shape=[1024, 3072], dtype=torch.bfloat16, device=cpu
[SHARD_DEBUG]   shard_spec: ('model', None)
[SHARD_DEBUG] ADDED tensor: id=140715232143824, shape=[1024, 3072], dtype=torch.bfloat16, device=cpu
[SHARD_DEBUG]   shard_spec: ('model', None)
[SHARD_DEBUG] ADDED tensor: id=140715232144544, shape=[3072, 3072], dtype=torch.bfloat16, device=cpu
[SHARD_DEBUG]   shard_spec: (None, 'model')
[SHARD_DEBUG] ADDED tensor: id=140715232139584, shape=[8192, 3072], dtype=torch.bfloat16, device=cpu
[SHARD_DEBUG]   shard_spec: ('model', None)
[SHARD_DEBUG] ADDED tensor: id=140715232142784, shape=[8192, 3072], dtype=torch.bfloat16, device=cpu
[SHARD_DEBUG]   shard_spec: ('model', None)
[SHARD_DEBUG] ADDED tensor: id=140712235723296, shape=[3072, 8192], dtype=torch.bfloat16, device=cpu
[SHARD_DEBUG]   shard_spec: (None, 'model')
[SHARD_DEBUG] ADDED tensor: id=140715232137584, shape=[3072, 3072], dtype=torch.bfloat16, device=cpu
[SHARD_DEBUG]   shard_spec: ('model', None)
[SHARD_DEBUG] ADDED tensor: id=140715232133344, shape=[1024, 3072], dtype=torch.bfloat16, device=cpu
[SHARD_DEBUG]   shard_spec: ('model', None)
[SHARD_DEBUG] ADDED tensor: id=140715232143104, shape=[1024, 3072], dtype=torch.bfloat16, device=cpu
[SHARD_DEBUG]   shard_spec: ('model', None)
[SHARD_DEBUG] ADDED tensor: id=140715232149424, shape=[3072, 3072], dtype=torch.bfloat16, device=cpu
[SHARD_DEBUG]   shard_spec: (None, 'model')
[SHARD_DEBUG] ADDED tensor: id=140715232135584, shape=[8192, 3072], dtype=torch.bfloat16, device=cpu
[SHARD_DEBUG]   shard_spec: ('model', None)
[SHARD_DEBUG] ADDED tensor: id=140715232144384, shape=[8192, 3072], dtype=torch.bfloat16, device=cpu
[SHARD_DEBUG]   shard_spec: ('model', None)
[SHARD_DEBUG] ADDED tensor: id=140715232142304, shape=[3072, 8192], dtype=torch.bfloat16, device=cpu
[SHARD_DEBUG]   shard_spec: (None, 'model')
[SHARD_DEBUG] ADDED tensor: id=140716023626176, shape=[3072, 3072], dtype=torch.bfloat16, device=cpu
[SHARD_DEBUG]   shard_spec: ('model', None)
[SHARD_DEBUG] ADDED tensor: id=140716023622096, shape=[1024, 3072], dtype=torch.bfloat16, device=cpu
[SHARD_DEBUG]   shard_spec: ('model', None)
[SHARD_DEBUG] ADDED tensor: id=140716024832992, shape=[1024, 3072], dtype=torch.bfloat16, device=cpu
[SHARD_DEBUG]   shard_spec: ('model', None)
[SHARD_DEBUG] ADDED tensor: id=140716023616816, shape=[3072, 3072], dtype=torch.bfloat16, device=cpu
[SHARD_DEBUG]   shard_spec: (None, 'model')
[SHARD_DEBUG] ADDED tensor: id=140716026892016, shape=[8192, 3072], dtype=torch.bfloat16, device=cpu
[SHARD_DEBUG]   shard_spec: ('model', None)
[SHARD_DEBUG] ADDED tensor: id=140716024828032, shape=[8192, 3072], dtype=torch.bfloat16, device=cpu
[SHARD_DEBUG]   shard_spec: ('model', None)
[SHARD_DEBUG] ADDED tensor: id=140716024827152, shape=[3072, 8192], dtype=torch.bfloat16, device=cpu
[SHARD_DEBUG]   shard_spec: (None, 'model')
[SHARD_DEBUG] ADDED tensor: id=140716024550624, shape=[3072, 3072], dtype=torch.bfloat16, device=cpu
[SHARD_DEBUG]   shard_spec: ('model', None)
[SHARD_DEBUG] ADDED tensor: id=140715231682512, shape=[1024, 3072], dtype=torch.bfloat16, device=cpu
[SHARD_DEBUG]   shard_spec: ('model', None)
[SHARD_DEBUG] ADDED tensor: id=140715231674992, shape=[1024, 3072], dtype=torch.bfloat16, device=cpu
[SHARD_DEBUG]   shard_spec: ('model', None)
[SHARD_DEBUG] ADDED tensor: id=140715231683312, shape=[3072, 3072], dtype=torch.bfloat16, device=cpu
[SHARD_DEBUG]   shard_spec: (None, 'model')
[SHARD_DEBUG] ADDED tensor: id=140715232188816, shape=[128256, 3072], dtype=torch.bfloat16, device=cpu
[SHARD_DEBUG]   shard_spec: ('model', None)
<|begin_of_text|>I like taking walks in theNote: Using experimental XLA backend.
[James] disable rectify buffer inplace copy
[SHARD_DEBUG] GET tensor: id=140715232198416, shape=[3072], dtype=torch.bfloat16 -> NOT FOUND
[Cache] Cached new tensor for L__self___model_layers__modules__0___input_layernorm_weight
[SHARD_DEBUG] GET tensor: id=140715232183856, shape=[3072], dtype=torch.bfloat16 -> NOT FOUND
[Cache] Cached new tensor for L__self___model_layers__modules__0___post_attention_layernorm_weight
[SHARD_DEBUG] GET tensor: id=140715231682672, shape=[3072], dtype=torch.bfloat16 -> NOT FOUND
[Cache] Cached new tensor for L__self___model_norm_weight
[SHARD_DEBUG] GET tensor: id=140715232188816, shape=[128256, 3072], dtype=torch.bfloat16 -> shard_spec: ('model', None)
2025-08-13 23:25:07.132 (   5.210s) [        CA99B1C0]  device_description.cc:44       1| DeviceDescription::PJRT_DeviceDescription_Id
2025-08-13 23:25:07.132 (   5.210s) [        CA99B1C0]  device_description.cc:44       1| DeviceDescription::PJRT_DeviceDescription_Id
2025-08-13 23:25:07.216 (   5.294s) [        CA99B1C0]     device_instance.cc:82       1| DeviceInstance::PJRT_Device_DefaultMemory
2025-08-13 23:25:07.216 (   5.294s) [        CA99B1C0]     client_instance.cc:509      1| ClientInstance::PJRT_Client_BufferFromHostBuffer
2025-08-13 23:25:07.216 (   5.294s) [        CA99B1C0]     memory_instance.cc:57       1| MemoryInstance::getDevice
2025-08-13 23:25:07.216 (   5.295s) [        CA99B1C0]     buffer_instance.cc:228      1| [BUFFER] Creating BORROWED host tensor with shape [64128, 3072] (semantics: ZeroCopy/other)
2025-08-13 23:25:07.217 (   5.295s) [        CA99B1C0]      event_instance.cc:222      1| EventInstance::PJRT_Event_OnReady
2025-08-13 23:25:07.217 (   5.295s) [        CA99B1C0]      event_instance.cc:171      1| EventInstance::PJRT_Event_Destroy
2025-08-13 23:25:07.217 (   5.295s) [        CA99B1C0]     device_instance.cc:82       1| DeviceInstance::PJRT_Device_DefaultMemory
2025-08-13 23:25:07.217 (   5.295s) [        CA99B1C0]     client_instance.cc:509      1| ClientInstance::PJRT_Client_BufferFromHostBuffer
2025-08-13 23:25:07.217 (   5.295s) [        CA99B1C0]     memory_instance.cc:57       1| MemoryInstance::getDevice
2025-08-13 23:25:07.217 (   5.295s) [        CA99B1C0]     buffer_instance.cc:228      1| [BUFFER] Creating BORROWED host tensor with shape [64128, 3072] (semantics: ZeroCopy/other)
2025-08-13 23:25:07.217 (   5.295s) [        CA99B1C0]      event_instance.cc:222      1| EventInstance::PJRT_Event_OnReady
2025-08-13 23:25:07.217 (   5.295s) [        CA99B1C0]      event_instance.cc:171      1| EventInstance::PJRT_Event_Destroy
[Sharding] Applying cached shard_spec ('model', None) to L__self___lm_head.weight
[Cache] Cached new tensor for L__self___lm_head.weight
[SHARD_DEBUG] GET tensor: id=140711049670192, shape=[128], dtype=torch.int64 -> NOT FOUND
[Cache] Cached new tensor for _FX_CONST_FOLDED_ATTRS.0
[SHARD_DEBUG] GET tensor: id=140711049670352, shape=[7, 128], dtype=torch.bfloat16 -> NOT FOUND
[Cache] Cached new tensor for _FX_CONST_FOLDED_ATTRS.1
[SHARD_DEBUG] GET tensor: id=140711049674512, shape=[1, 64, 1], dtype=torch.float32 -> NOT FOUND
[Cache] Cached new tensor for _FX_CONST_FOLDED_ATTRS.2
[SHARD_DEBUG] GET tensor: id=140711049674672, shape=[3072, 3072], dtype=torch.bfloat16 -> NOT FOUND
[Cache] Cached new tensor for _FX_CONST_FOLDED_ATTRS.3
[SHARD_DEBUG] GET tensor: id=140711049668032, shape=[3072, 1024], dtype=torch.bfloat16 -> NOT FOUND
[Cache] Cached new tensor for _FX_CONST_FOLDED_ATTRS.4
[SHARD_DEBUG] GET tensor: id=140711049670752, shape=[3072, 1024], dtype=torch.bfloat16 -> NOT FOUND
[Cache] Cached new tensor for _FX_CONST_FOLDED_ATTRS.5
[SHARD_DEBUG] GET tensor: id=140711049667872, shape=[3072, 3072], dtype=torch.bfloat16 -> NOT FOUND
[Cache] Cached new tensor for _FX_CONST_FOLDED_ATTRS.6
[SHARD_DEBUG] GET tensor: id=140711049670912, shape=[3072, 8192], dtype=torch.bfloat16 -> NOT FOUND
[Cache] Cached new tensor for _FX_CONST_FOLDED_ATTRS.7
[SHARD_DEBUG] GET tensor: id=140711049674112, shape=[3072, 8192], dtype=torch.bfloat16 -> NOT FOUND
[Cache] Cached new tensor for _FX_CONST_FOLDED_ATTRS.8
[SHARD_DEBUG] GET tensor: id=140711049674272, shape=[8192, 3072], dtype=torch.bfloat16 -> NOT FOUND
[Cache] Cached new tensor for _FX_CONST_FOLDED_ATTRS.9
[SHARD_DEBUG] GET tensor: id=140711049673152, shape=[3072, 128256], dtype=torch.bfloat16 -> NOT FOUND
[Cache] Cached new tensor for _FX_CONST_FOLDED_ATTRS.10
[SHARD_DEBUG] GET tensor: id=140715232198496, shape=[3072, 3072], dtype=torch.bfloat16 -> shard_spec: ('model', None)
2025-08-13 23:25:07.375 (   5.453s) [        CA99B1C0]  device_description.cc:44       1| DeviceDescription::PJRT_DeviceDescription_Id
2025-08-13 23:25:07.375 (   5.453s) [        CA99B1C0]  device_description.cc:44       1| DeviceDescription::PJRT_DeviceDescription_Id
2025-08-13 23:25:07.378 (   5.456s) [        CA99B1C0]     device_instance.cc:82       1| DeviceInstance::PJRT_Device_DefaultMemory
2025-08-13 23:25:07.378 (   5.456s) [        CA99B1C0]     client_instance.cc:509      1| ClientInstance::PJRT_Client_BufferFromHostBuffer
2025-08-13 23:25:07.378 (   5.456s) [        CA99B1C0]     memory_instance.cc:57       1| MemoryInstance::getDevice
2025-08-13 23:25:07.378 (   5.457s) [        CA99B1C0]     buffer_instance.cc:228      1| [BUFFER] Creating BORROWED host tensor with shape [1536, 3072] (semantics: ZeroCopy/other)
2025-08-13 23:25:07.378 (   5.457s) [        CA99B1C0]      event_instance.cc:222      1| EventInstance::PJRT_Event_OnReady
2025-08-13 23:25:07.378 (   5.457s) [        CA99B1C0]      event_instance.cc:171      1| EventInstance::PJRT_Event_Destroy
2025-08-13 23:25:07.379 (   5.457s) [        CA99B1C0]     device_instance.cc:82       1| DeviceInstance::PJRT_Device_DefaultMemory
2025-08-13 23:25:07.379 (   5.457s) [        CA99B1C0]     client_instance.cc:509      1| ClientInstance::PJRT_Client_BufferFromHostBuffer
2025-08-13 23:25:07.379 (   5.457s) [        CA99B1C0]     memory_instance.cc:57       1| MemoryInstance::getDevice
2025-08-13 23:25:07.379 (   5.457s) [        CA99B1C0]     buffer_instance.cc:228      1| [BUFFER] Creating BORROWED host tensor with shape [1536, 3072] (semantics: ZeroCopy/other)
2025-08-13 23:25:07.379 (   5.457s) [        CA99B1C0]      event_instance.cc:222      1| EventInstance::PJRT_Event_OnReady
2025-08-13 23:25:07.379 (   5.457s) [        CA99B1C0]      event_instance.cc:171      1| EventInstance::PJRT_Event_Destroy
[Sharding] Applying cached shard_spec ('model', None) to const_subgraph_module.L__self___model_layers__modules__0___self_attn_q_proj.weight
[Cache] Cached new tensor for const_subgraph_module.L__self___model_layers__modules__0___self_attn_q_proj.weight
[SHARD_DEBUG] GET tensor: id=140715232196096, shape=[1024, 3072], dtype=torch.bfloat16 -> shard_spec: ('model', None)
2025-08-13 23:25:07.379 (   5.458s) [        CA99B1C0]  device_description.cc:44       1| DeviceDescription::PJRT_DeviceDescription_Id
2025-08-13 23:25:07.379 (   5.458s) [        CA99B1C0]  device_description.cc:44       1| DeviceDescription::PJRT_DeviceDescription_Id
2025-08-13 23:25:07.380 (   5.458s) [        CA99B1C0]     device_instance.cc:82       1| DeviceInstance::PJRT_Device_DefaultMemory
2025-08-13 23:25:07.380 (   5.459s) [        CA99B1C0]     client_instance.cc:509      1| ClientInstance::PJRT_Client_BufferFromHostBuffer
2025-08-13 23:25:07.380 (   5.459s) [        CA99B1C0]     memory_instance.cc:57       1| MemoryInstance::getDevice
2025-08-13 23:25:07.380 (   5.459s) [        CA99B1C0]     buffer_instance.cc:228      1| [BUFFER] Creating BORROWED host tensor with shape [512, 3072] (semantics: ZeroCopy/other)
2025-08-13 23:25:07.380 (   5.459s) [        CA99B1C0]      event_instance.cc:222      1| EventInstance::PJRT_Event_OnReady
2025-08-13 23:25:07.380 (   5.459s) [        CA99B1C0]      event_instance.cc:171      1| EventInstance::PJRT_Event_Destroy
2025-08-13 23:25:07.380 (   5.459s) [        CA99B1C0]     device_instance.cc:82       1| DeviceInstance::PJRT_Device_DefaultMemory
2025-08-13 23:25:07.380 (   5.459s) [        CA99B1C0]     client_instance.cc:509      1| ClientInstance::PJRT_Client_BufferFromHostBuffer
2025-08-13 23:25:07.380 (   5.459s) [        CA99B1C0]     memory_instance.cc:57       1| MemoryInstance::getDevice
2025-08-13 23:25:07.381 (   5.459s) [        CA99B1C0]     buffer_instance.cc:228      1| [BUFFER] Creating BORROWED host tensor with shape [512, 3072] (semantics: ZeroCopy/other)
2025-08-13 23:25:07.381 (   5.459s) [        CA99B1C0]      event_instance.cc:222      1| EventInstance::PJRT_Event_OnReady
2025-08-13 23:25:07.381 (   5.459s) [        CA99B1C0]      event_instance.cc:171      1| EventInstance::PJRT_Event_Destroy
[Sharding] Applying cached shard_spec ('model', None) to const_subgraph_module.L__self___model_layers__modules__0___self_attn_k_proj.weight
[Cache] Cached new tensor for const_subgraph_module.L__self___model_layers__modules__0___self_attn_k_proj.weight
[SHARD_DEBUG] GET tensor: id=140715232191216, shape=[1024, 3072], dtype=torch.bfloat16 -> shard_spec: ('model', None)
2025-08-13 23:25:07.381 (   5.460s) [        CA99B1C0]  device_description.cc:44       1| DeviceDescription::PJRT_DeviceDescription_Id
2025-08-13 23:25:07.381 (   5.460s) [        CA99B1C0]  device_description.cc:44       1| DeviceDescription::PJRT_DeviceDescription_Id
2025-08-13 23:25:07.383 (   5.461s) [        CA99B1C0]     device_instance.cc:82       1| DeviceInstance::PJRT_Device_DefaultMemory
2025-08-13 23:25:07.383 (   5.461s) [        CA99B1C0]     client_instance.cc:509      1| ClientInstance::PJRT_Client_BufferFromHostBuffer
2025-08-13 23:25:07.383 (   5.461s) [        CA99B1C0]     memory_instance.cc:57       1| MemoryInstance::getDevice
2025-08-13 23:25:07.383 (   5.461s) [        CA99B1C0]     buffer_instance.cc:228      1| [BUFFER] Creating BORROWED host tensor with shape [512, 3072] (semantics: ZeroCopy/other)
2025-08-13 23:25:07.383 (   5.461s) [        CA99B1C0]      event_instance.cc:222      1| EventInstance::PJRT_Event_OnReady
2025-08-13 23:25:07.383 (   5.461s) [        CA99B1C0]      event_instance.cc:171      1| EventInstance::PJRT_Event_Destroy
2025-08-13 23:25:07.383 (   5.461s) [        CA99B1C0]     device_instance.cc:82       1| DeviceInstance::PJRT_Device_DefaultMemory
2025-08-13 23:25:07.383 (   5.461s) [        CA99B1C0]     client_instance.cc:509      1| ClientInstance::PJRT_Client_BufferFromHostBuffer
2025-08-13 23:25:07.383 (   5.461s) [        CA99B1C0]     memory_instance.cc:57       1| MemoryInstance::getDevice
2025-08-13 23:25:07.383 (   5.461s) [        CA99B1C0]     buffer_instance.cc:228      1| [BUFFER] Creating BORROWED host tensor with shape [512, 3072] (semantics: ZeroCopy/other)
2025-08-13 23:25:07.383 (   5.461s) [        CA99B1C0]      event_instance.cc:222      1| EventInstance::PJRT_Event_OnReady
2025-08-13 23:25:07.383 (   5.461s) [        CA99B1C0]      event_instance.cc:171      1| EventInstance::PJRT_Event_Destroy
[Sharding] Applying cached shard_spec ('model', None) to const_subgraph_module.L__self___model_layers__modules__0___self_attn_v_proj.weight
[Cache] Cached new tensor for const_subgraph_module.L__self___model_layers__modules__0___self_attn_v_proj.weight
[SHARD_DEBUG] GET tensor: id=140715232190016, shape=[3072, 3072], dtype=torch.bfloat16 -> shard_spec: (None, 'model')
2025-08-13 23:25:07.385 (   5.463s) [        CA99B1C0]  device_description.cc:44       1| DeviceDescription::PJRT_DeviceDescription_Id
2025-08-13 23:25:07.385 (   5.463s) [        CA99B1C0]  device_description.cc:44       1| DeviceDescription::PJRT_DeviceDescription_Id
2025-08-13 23:25:07.388 (   5.467s) [        CA99B1C0]     device_instance.cc:82       1| DeviceInstance::PJRT_Device_DefaultMemory
2025-08-13 23:25:07.388 (   5.467s) [        CA99B1C0]     client_instance.cc:509      1| ClientInstance::PJRT_Client_BufferFromHostBuffer
2025-08-13 23:25:07.388 (   5.467s) [        CA99B1C0]     memory_instance.cc:57       1| MemoryInstance::getDevice
2025-08-13 23:25:07.389 (   5.467s) [        CA99B1C0]     buffer_instance.cc:228      1| [BUFFER] Creating BORROWED host tensor with shape [3072, 1536] (semantics: ZeroCopy/other)
2025-08-13 23:25:07.389 (   5.467s) [        CA99B1C0]      event_instance.cc:222      1| EventInstance::PJRT_Event_OnReady
2025-08-13 23:25:07.389 (   5.467s) [        CA99B1C0]      event_instance.cc:171      1| EventInstance::PJRT_Event_Destroy
2025-08-13 23:25:07.389 (   5.467s) [        CA99B1C0]     device_instance.cc:82       1| DeviceInstance::PJRT_Device_DefaultMemory
2025-08-13 23:25:07.389 (   5.467s) [        CA99B1C0]     client_instance.cc:509      1| ClientInstance::PJRT_Client_BufferFromHostBuffer
2025-08-13 23:25:07.389 (   5.467s) [        CA99B1C0]     memory_instance.cc:57       1| MemoryInstance::getDevice
2025-08-13 23:25:07.389 (   5.467s) [        CA99B1C0]     buffer_instance.cc:228      1| [BUFFER] Creating BORROWED host tensor with shape [3072, 1536] (semantics: ZeroCopy/other)
2025-08-13 23:25:07.389 (   5.467s) [        CA99B1C0]      event_instance.cc:222      1| EventInstance::PJRT_Event_OnReady
2025-08-13 23:25:07.389 (   5.467s) [        CA99B1C0]      event_instance.cc:171      1| EventInstance::PJRT_Event_Destroy
[Sharding] Applying cached shard_spec (None, 'model') to const_subgraph_module.L__self___model_layers__modules__0___self_attn_o_proj.weight
[Cache] Cached new tensor for const_subgraph_module.L__self___model_layers__modules__0___self_attn_o_proj.weight
[SHARD_DEBUG] GET tensor: id=140715232193056, shape=[8192, 3072], dtype=torch.bfloat16 -> shard_spec: ('model', None)
2025-08-13 23:25:07.392 (   5.471s) [        CA99B1C0]  device_description.cc:44       1| DeviceDescription::PJRT_DeviceDescription_Id
2025-08-13 23:25:07.392 (   5.471s) [        CA99B1C0]  device_description.cc:44       1| DeviceDescription::PJRT_DeviceDescription_Id
2025-08-13 23:25:07.399 (   5.477s) [        CA99B1C0]     device_instance.cc:82       1| DeviceInstance::PJRT_Device_DefaultMemory
2025-08-13 23:25:07.399 (   5.478s) [        CA99B1C0]     client_instance.cc:509      1| ClientInstance::PJRT_Client_BufferFromHostBuffer
2025-08-13 23:25:07.399 (   5.478s) [        CA99B1C0]     memory_instance.cc:57       1| MemoryInstance::getDevice
2025-08-13 23:25:07.399 (   5.478s) [        CA99B1C0]     buffer_instance.cc:228      1| [BUFFER] Creating BORROWED host tensor with shape [4096, 3072] (semantics: ZeroCopy/other)
2025-08-13 23:25:07.400 (   5.478s) [        CA99B1C0]      event_instance.cc:222      1| EventInstance::PJRT_Event_OnReady
2025-08-13 23:25:07.400 (   5.478s) [        CA99B1C0]      event_instance.cc:171      1| EventInstance::PJRT_Event_Destroy
2025-08-13 23:25:07.400 (   5.478s) [        CA99B1C0]     device_instance.cc:82       1| DeviceInstance::PJRT_Device_DefaultMemory
2025-08-13 23:25:07.400 (   5.478s) [        CA99B1C0]     client_instance.cc:509      1| ClientInstance::PJRT_Client_BufferFromHostBuffer
2025-08-13 23:25:07.400 (   5.478s) [        CA99B1C0]     memory_instance.cc:57       1| MemoryInstance::getDevice
2025-08-13 23:25:07.400 (   5.478s) [        CA99B1C0]     buffer_instance.cc:228      1| [BUFFER] Creating BORROWED host tensor with shape [4096, 3072] (semantics: ZeroCopy/other)
2025-08-13 23:25:07.400 (   5.478s) [        CA99B1C0]      event_instance.cc:222      1| EventInstance::PJRT_Event_OnReady
2025-08-13 23:25:07.400 (   5.478s) [        CA99B1C0]      event_instance.cc:171      1| EventInstance::PJRT_Event_Destroy
[Sharding] Applying cached shard_spec ('model', None) to const_subgraph_module.L__self___model_layers__modules__0___mlp_gate_proj.weight
[Cache] Cached new tensor for const_subgraph_module.L__self___model_layers__modules__0___mlp_gate_proj.weight
[SHARD_DEBUG] GET tensor: id=140715232194416, shape=[8192, 3072], dtype=torch.bfloat16 -> shard_spec: ('model', None)
2025-08-13 23:25:07.412 (   5.490s) [        CA99B1C0]  device_description.cc:44       1| DeviceDescription::PJRT_DeviceDescription_Id
2025-08-13 23:25:07.412 (   5.490s) [        CA99B1C0]  device_description.cc:44       1| DeviceDescription::PJRT_DeviceDescription_Id
2025-08-13 23:25:07.418 (   5.496s) [        CA99B1C0]     device_instance.cc:82       1| DeviceInstance::PJRT_Device_DefaultMemory
2025-08-13 23:25:07.418 (   5.496s) [        CA99B1C0]     client_instance.cc:509      1| ClientInstance::PJRT_Client_BufferFromHostBuffer
2025-08-13 23:25:07.418 (   5.496s) [        CA99B1C0]     memory_instance.cc:57       1| MemoryInstance::getDevice
2025-08-13 23:25:07.418 (   5.497s) [        CA99B1C0]     buffer_instance.cc:228      1| [BUFFER] Creating BORROWED host tensor with shape [4096, 3072] (semantics: ZeroCopy/other)
2025-08-13 23:25:07.418 (   5.497s) [        CA99B1C0]      event_instance.cc:222      1| EventInstance::PJRT_Event_OnReady
2025-08-13 23:25:07.418 (   5.497s) [        CA99B1C0]      event_instance.cc:171      1| EventInstance::PJRT_Event_Destroy
2025-08-13 23:25:07.418 (   5.497s) [        CA99B1C0]     device_instance.cc:82       1| DeviceInstance::PJRT_Device_DefaultMemory
2025-08-13 23:25:07.419 (   5.497s) [        CA99B1C0]     client_instance.cc:509      1| ClientInstance::PJRT_Client_BufferFromHostBuffer
2025-08-13 23:25:07.419 (   5.497s) [        CA99B1C0]     memory_instance.cc:57       1| MemoryInstance::getDevice
2025-08-13 23:25:07.419 (   5.497s) [        CA99B1C0]     buffer_instance.cc:228      1| [BUFFER] Creating BORROWED host tensor with shape [4096, 3072] (semantics: ZeroCopy/other)
2025-08-13 23:25:07.419 (   5.497s) [        CA99B1C0]      event_instance.cc:222      1| EventInstance::PJRT_Event_OnReady
2025-08-13 23:25:07.419 (   5.497s) [        CA99B1C0]      event_instance.cc:171      1| EventInstance::PJRT_Event_Destroy
[Sharding] Applying cached shard_spec ('model', None) to const_subgraph_module.L__self___model_layers__modules__0___mlp_up_proj.weight
[Cache] Cached new tensor for const_subgraph_module.L__self___model_layers__modules__0___mlp_up_proj.weight
[SHARD_DEBUG] GET tensor: id=140715232192496, shape=[3072, 8192], dtype=torch.bfloat16 -> shard_spec: (None, 'model')
2025-08-13 23:25:07.427 (   5.505s) [        CA99B1C0]  device_description.cc:44       1| DeviceDescription::PJRT_DeviceDescription_Id
2025-08-13 23:25:07.427 (   5.505s) [        CA99B1C0]  device_description.cc:44       1| DeviceDescription::PJRT_DeviceDescription_Id
2025-08-13 23:25:07.436 (   5.514s) [        CA99B1C0]     device_instance.cc:82       1| DeviceInstance::PJRT_Device_DefaultMemory
2025-08-13 23:25:07.436 (   5.514s) [        CA99B1C0]     client_instance.cc:509      1| ClientInstance::PJRT_Client_BufferFromHostBuffer
2025-08-13 23:25:07.436 (   5.514s) [        CA99B1C0]     memory_instance.cc:57       1| MemoryInstance::getDevice
2025-08-13 23:25:07.436 (   5.515s) [        CA99B1C0]     buffer_instance.cc:228      1| [BUFFER] Creating BORROWED host tensor with shape [3072, 4096] (semantics: ZeroCopy/other)
2025-08-13 23:25:07.436 (   5.515s) [        CA99B1C0]      event_instance.cc:222      1| EventInstance::PJRT_Event_OnReady
2025-08-13 23:25:07.436 (   5.515s) [        CA99B1C0]      event_instance.cc:171      1| EventInstance::PJRT_Event_Destroy
2025-08-13 23:25:07.436 (   5.515s) [        CA99B1C0]     device_instance.cc:82       1| DeviceInstance::PJRT_Device_DefaultMemory
2025-08-13 23:25:07.436 (   5.515s) [        CA99B1C0]     client_instance.cc:509      1| ClientInstance::PJRT_Client_BufferFromHostBuffer
2025-08-13 23:25:07.437 (   5.515s) [        CA99B1C0]     memory_instance.cc:57       1| MemoryInstance::getDevice
2025-08-13 23:25:07.437 (   5.515s) [        CA99B1C0]     buffer_instance.cc:228      1| [BUFFER] Creating BORROWED host tensor with shape [3072, 4096] (semantics: ZeroCopy/other)
2025-08-13 23:25:07.437 (   5.515s) [        CA99B1C0]      event_instance.cc:222      1| EventInstance::PJRT_Event_OnReady
2025-08-13 23:25:07.437 (   5.515s) [        CA99B1C0]      event_instance.cc:171      1| EventInstance::PJRT_Event_Destroy
[Sharding] Applying cached shard_spec (None, 'model') to const_subgraph_module.L__self___model_layers__modules__0___mlp_down_proj.weight
[Cache] Cached new tensor for const_subgraph_module.L__self___model_layers__modules__0___mlp_down_proj.weight
[SHARD_DEBUG] GET tensor: id=140715232188816, shape=[128256, 3072], dtype=torch.bfloat16 -> shard_spec: ('model', None)
2025-08-13 23:25:07.485 (   5.563s) [        CA99B1C0]  device_description.cc:44       1| DeviceDescription::PJRT_DeviceDescription_Id
2025-08-13 23:25:07.485 (   5.563s) [        CA99B1C0]  device_description.cc:44       1| DeviceDescription::PJRT_DeviceDescription_Id
2025-08-13 23:25:07.575 (   5.653s) [        CA99B1C0]     device_instance.cc:82       1| DeviceInstance::PJRT_Device_DefaultMemory
2025-08-13 23:25:07.575 (   5.653s) [        CA99B1C0]     client_instance.cc:509      1| ClientInstance::PJRT_Client_BufferFromHostBuffer
2025-08-13 23:25:07.575 (   5.653s) [        CA99B1C0]     memory_instance.cc:57       1| MemoryInstance::getDevice
2025-08-13 23:25:07.575 (   5.654s) [        CA99B1C0]     buffer_instance.cc:228      1| [BUFFER] Creating BORROWED host tensor with shape [64128, 3072] (semantics: ZeroCopy/other)
2025-08-13 23:25:07.575 (   5.654s) [        CA99B1C0]      event_instance.cc:222      1| EventInstance::PJRT_Event_OnReady
2025-08-13 23:25:07.575 (   5.654s) [        CA99B1C0]      event_instance.cc:171      1| EventInstance::PJRT_Event_Destroy
2025-08-13 23:25:07.576 (   5.654s) [        CA99B1C0]     device_instance.cc:82       1| DeviceInstance::PJRT_Device_DefaultMemory
2025-08-13 23:25:07.576 (   5.654s) [        CA99B1C0]     client_instance.cc:509      1| ClientInstance::PJRT_Client_BufferFromHostBuffer
2025-08-13 23:25:07.576 (   5.654s) [        CA99B1C0]     memory_instance.cc:57       1| MemoryInstance::getDevice
2025-08-13 23:25:07.576 (   5.654s) [        CA99B1C0]     buffer_instance.cc:228      1| [BUFFER] Creating BORROWED host tensor with shape [64128, 3072] (semantics: ZeroCopy/other)
2025-08-13 23:25:07.576 (   5.654s) [        CA99B1C0]      event_instance.cc:222      1| EventInstance::PJRT_Event_OnReady
2025-08-13 23:25:07.576 (   5.654s) [        CA99B1C0]      event_instance.cc:171      1| EventInstance::PJRT_Event_Destroy
[Sharding] Applying cached shard_spec ('model', None) to const_subgraph_module.L__self___lm_head.weight
[Cache] Cached new tensor for const_subgraph_module.L__self___lm_head.weight
[SHARD_DEBUG] GET tensor: id=140716026146992, shape=[1, 8, 128, 128], dtype=torch.bfloat16 -> shard_spec: (None, 'batch', None, None)
2025-08-13 23:25:07.671 (   5.750s) [        CA99B1C0]  device_description.cc:44       1| DeviceDescription::PJRT_DeviceDescription_Id
2025-08-13 23:25:07.671 (   5.750s) [        CA99B1C0]  device_description.cc:44       1| DeviceDescription::PJRT_DeviceDescription_Id
2025-08-13 23:25:07.672 (   5.750s) [        CA99B1C0]     device_instance.cc:82       1| DeviceInstance::PJRT_Device_DefaultMemory
2025-08-13 23:25:07.672 (   5.750s) [        CA99B1C0]     client_instance.cc:509      1| ClientInstance::PJRT_Client_BufferFromHostBuffer
2025-08-13 23:25:07.672 (   5.750s) [        CA99B1C0]     memory_instance.cc:57       1| MemoryInstance::getDevice
2025-08-13 23:25:07.672 (   5.750s) [        CA99B1C0]     buffer_instance.cc:228      1| [BUFFER] Creating BORROWED host tensor with shape [1, 8, 128, 128] (semantics: ZeroCopy/other)
2025-08-13 23:25:07.672 (   5.750s) [        CA99B1C0]      event_instance.cc:222      1| EventInstance::PJRT_Event_OnReady
2025-08-13 23:25:07.672 (   5.750s) [        CA99B1C0]      event_instance.cc:171      1| EventInstance::PJRT_Event_Destroy
2025-08-13 23:25:07.672 (   5.751s) [        CA99B1C0]     device_instance.cc:82       1| DeviceInstance::PJRT_Device_DefaultMemory
2025-08-13 23:25:07.672 (   5.751s) [        CA99B1C0]     client_instance.cc:509      1| ClientInstance::PJRT_Client_BufferFromHostBuffer
2025-08-13 23:25:07.672 (   5.751s) [        CA99B1C0]     memory_instance.cc:57       1| MemoryInstance::getDevice
2025-08-13 23:25:07.672 (   5.751s) [        CA99B1C0]     buffer_instance.cc:228      1| [BUFFER] Creating BORROWED host tensor with shape [1, 8, 128, 128] (semantics: ZeroCopy/other)
2025-08-13 23:25:07.672 (   5.751s) [        CA99B1C0]      event_instance.cc:222      1| EventInstance::PJRT_Event_OnReady
2025-08-13 23:25:07.672 (   5.751s) [        CA99B1C0]      event_instance.cc:171      1| EventInstance::PJRT_Event_Destroy
[Sharding] Applying cached shard_spec (None, 'batch', None, None) to kwargs____past_key_values___key_cache_0
[Cache] Cached new tensor for kwargs____past_key_values___key_cache_0
[SHARD_DEBUG] GET tensor: id=140716026145072, shape=[1, 8, 128, 128], dtype=torch.bfloat16 -> shard_spec: (None, 'batch', None, None)
2025-08-13 23:25:07.673 (   5.751s) [        CA99B1C0]  device_description.cc:44       1| DeviceDescription::PJRT_DeviceDescription_Id
2025-08-13 23:25:07.673 (   5.751s) [        CA99B1C0]  device_description.cc:44       1| DeviceDescription::PJRT_DeviceDescription_Id
2025-08-13 23:25:07.673 (   5.751s) [        CA99B1C0]     device_instance.cc:82       1| DeviceInstance::PJRT_Device_DefaultMemory
2025-08-13 23:25:07.673 (   5.751s) [        CA99B1C0]     client_instance.cc:509      1| ClientInstance::PJRT_Client_BufferFromHostBuffer
2025-08-13 23:25:07.673 (   5.751s) [        CA99B1C0]     memory_instance.cc:57       1| MemoryInstance::getDevice
2025-08-13 23:25:07.673 (   5.751s) [        CA99B1C0]     buffer_instance.cc:228      1| [BUFFER] Creating BORROWED host tensor with shape [1, 8, 128, 128] (semantics: ZeroCopy/other)
2025-08-13 23:25:07.673 (   5.752s) [        CA99B1C0]      event_instance.cc:222      1| EventInstance::PJRT_Event_OnReady
2025-08-13 23:25:07.673 (   5.752s) [        CA99B1C0]      event_instance.cc:171      1| EventInstance::PJRT_Event_Destroy
2025-08-13 23:25:07.673 (   5.752s) [        CA99B1C0]     device_instance.cc:82       1| DeviceInstance::PJRT_Device_DefaultMemory
2025-08-13 23:25:07.673 (   5.752s) [        CA99B1C0]     client_instance.cc:509      1| ClientInstance::PJRT_Client_BufferFromHostBuffer
2025-08-13 23:25:07.673 (   5.752s) [        CA99B1C0]     memory_instance.cc:57       1| MemoryInstance::getDevice
2025-08-13 23:25:07.673 (   5.752s) [        CA99B1C0]     buffer_instance.cc:228      1| [BUFFER] Creating BORROWED host tensor with shape [1, 8, 128, 128] (semantics: ZeroCopy/other)
2025-08-13 23:25:07.673 (   5.752s) [        CA99B1C0]      event_instance.cc:222      1| EventInstance::PJRT_Event_OnReady
2025-08-13 23:25:07.673 (   5.752s) [        CA99B1C0]      event_instance.cc:171      1| EventInstance::PJRT_Event_Destroy
[Sharding] Applying cached shard_spec (None, 'batch', None, None) to kwargs____past_key_values___value_cache_0
[Cache] Cached new tensor for kwargs____past_key_values___value_cache_0
[SHARD_DEBUG] GET tensor: id=140716026202448, shape=[64], dtype=torch.float32 -> NOT FOUND
[Cache] Cached new tensor for const_subgraph_module.L__self___model_rotary_emb_inv_freq
attempting retrieval of shard spec for inputs tensor([[128000,     40,   1093,   4737,  23291,    304,    279]])
[SHARD_DEBUG] GET tensor: id=140716026138592, shape=[1, 7], dtype=torch.int64 -> shard_spec: (None, None)
2025-08-13 23:25:07.719 (   5.797s) [        CA99B1C0]  device_description.cc:44       1| DeviceDescription::PJRT_DeviceDescription_Id
2025-08-13 23:25:07.719 (   5.797s) [        CA99B1C0]  device_description.cc:44       1| DeviceDescription::PJRT_DeviceDescription_Id
2025-08-13 23:25:07.719 (   5.797s) [        CA99B1C0]     device_instance.cc:82       1| DeviceInstance::PJRT_Device_DefaultMemory
2025-08-13 23:25:07.719 (   5.797s) [        CA99B1C0]     client_instance.cc:509      1| ClientInstance::PJRT_Client_BufferFromHostBuffer
2025-08-13 23:25:07.719 (   5.797s) [        CA99B1C0]     memory_instance.cc:57       1| MemoryInstance::getDevice
2025-08-13 23:25:07.719 (   5.797s) [        CA99B1C0]     buffer_instance.cc:213      1| [BUFFER] Creating OWNED host tensor with shape [1, 7] (semantics: other, supported_dtype: false)
[32m                 Always[0m | [1m[38;5;208m WARNING[0m | User provided a tensor of data type: Int64 which is not supported by runtime/ttnn. Casting to: Int32, this may impact throughput and the integrity of the data.
2025-08-13 23:25:07.719 (   5.798s) [        CA99B1C0]      event_instance.cc:222      1| EventInstance::PJRT_Event_OnReady
2025-08-13 23:25:07.719 (   5.798s) [        CA99B1C0]      event_instance.cc:171      1| EventInstance::PJRT_Event_Destroy
2025-08-13 23:25:07.719 (   5.798s) [        CA99B1C0]     device_instance.cc:82       1| DeviceInstance::PJRT_Device_DefaultMemory
2025-08-13 23:25:07.719 (   5.798s) [        CA99B1C0]     client_instance.cc:509      1| ClientInstance::PJRT_Client_BufferFromHostBuffer
2025-08-13 23:25:07.719 (   5.798s) [        CA99B1C0]     memory_instance.cc:57       1| MemoryInstance::getDevice
2025-08-13 23:25:07.719 (   5.798s) [        CA99B1C0]     buffer_instance.cc:213      1| [BUFFER] Creating OWNED host tensor with shape [1, 7] (semantics: other, supported_dtype: false)
[32m                 Always[0m | [1m[38;5;208m WARNING[0m | User provided a tensor of data type: Int64 which is not supported by runtime/ttnn. Casting to: Int32, this may impact throughput and the integrity of the data.
2025-08-13 23:25:07.719 (   5.798s) [        CA99B1C0]      event_instance.cc:222      1| EventInstance::PJRT_Event_OnReady
2025-08-13 23:25:07.719 (   5.798s) [        CA99B1C0]      event_instance.cc:171      1| EventInstance::PJRT_Event_Destroy
[Sharding] Applying runtime shard_spec (None, None) to tensor shape torch.Size([1, 7])
attempting retrieval of shard spec for inputs tensor([0, 1, 2, 3, 4, 5, 6])
[SHARD_DEBUG] GET tensor: id=140716025109200, shape=[7], dtype=torch.int64 -> NOT FOUND
[Sharding] No shard_spec found for runtime tensor shape torch.Size([7]), skipping sharding

[XLA Cache] === DETAILED CACHE ANALYSIS ===
[XLA Cache] Total inputs to analyze: 28
[XLA Cache] Current cache contains 0 unique tensor keys
[XLA Cache] Input 0: input_0_shape_[3072]_dtype_torch.bfloat16
[XLA Cache]   Cache key: id=140711054734448, shape=(3072,), dtype=torch.bfloat16, device=xla:0
[XLA Cache]   Tensor object id: 140711054734448
[XLA Cache]   XLA tensor id: 1
[XLA Cache]   Result: CACHE MISS - added to cache
[XLA Cache]   ---
[XLA Cache] Input 1: input_1_shape_[3072]_dtype_torch.bfloat16
[XLA Cache]   Cache key: id=140711048747168, shape=(3072,), dtype=torch.bfloat16, device=xla:0
[XLA Cache]   Tensor object id: 140711048747168
[XLA Cache]   XLA tensor id: 2
[XLA Cache]   Result: CACHE MISS - added to cache
[XLA Cache]   ---
[XLA Cache] Input 2: input_2_shape_[3072]_dtype_torch.bfloat16
[XLA Cache]   Cache key: id=140711052554416, shape=(3072,), dtype=torch.bfloat16, device=xla:0
[XLA Cache]   Tensor object id: 140711052554416
[XLA Cache]   XLA tensor id: 3
[XLA Cache]   Result: CACHE MISS - added to cache
[XLA Cache]   ---
[XLA Cache] Input 3: input_3_shape_[128256, 3072]_dtype_torch.bfloat16
[XLA Cache]   Cache key: id=140711051624368, shape=(128256, 3072), dtype=torch.bfloat16, device=xla:0
[XLA Cache]   Tensor object id: 140711051624368
[XLA Cache]   XLA tensor id: 4
[XLA Cache]   Result: CACHE MISS - added to cache
[XLA Cache]   ---
[XLA Cache] Input 4: input_4_shape_[128]_dtype_torch.int64
[XLA Cache]   Cache key: id=140709176378128, shape=(128,), dtype=torch.int64, device=xla:0
[XLA Cache]   Tensor object id: 140709176378128
[XLA Cache]   XLA tensor id: 5
[XLA Cache]   Result: CACHE MISS - added to cache
[XLA Cache]   ---
[XLA Cache] Input 5: input_5_shape_[7, 128]_dtype_torch.bfloat16
[XLA Cache]   Cache key: id=140709170807248, shape=(7, 128), dtype=torch.bfloat16, device=xla:0
[XLA Cache]   Tensor object id: 140709170807248
[XLA Cache]   XLA tensor id: 6
[XLA Cache]   Result: CACHE MISS - added to cache
[XLA Cache]   ---
[XLA Cache] Input 6: input_6_shape_[1, 64, 1]_dtype_torch.float32
[XLA Cache]   Cache key: id=140711051624208, shape=(1, 64, 1), dtype=torch.float32, device=xla:0
[XLA Cache]   Tensor object id: 140711051624208
[XLA Cache]   XLA tensor id: 7
[XLA Cache]   Result: CACHE MISS - added to cache
[XLA Cache]   ---
[XLA Cache] Input 7: input_7_shape_[3072, 3072]_dtype_torch.bfloat16
[XLA Cache]   Cache key: id=140708366995584, shape=(3072, 3072), dtype=torch.bfloat16, device=xla:0
[XLA Cache]   Tensor object id: 140708366995584
[XLA Cache]   XLA tensor id: 8
[XLA Cache]   Result: CACHE MISS - added to cache
[XLA Cache]   ---
[XLA Cache] Input 8: input_8_shape_[3072, 1024]_dtype_torch.bfloat16
[XLA Cache]   Cache key: id=140708366995504, shape=(3072, 1024), dtype=torch.bfloat16, device=xla:0
[XLA Cache]   Tensor object id: 140708366995504
[XLA Cache]   XLA tensor id: 9
[XLA Cache]   Result: CACHE MISS - added to cache
[XLA Cache]   ---
[XLA Cache] Input 9: input_9_shape_[3072, 1024]_dtype_torch.bfloat16
[XLA Cache]   Cache key: id=140708366995664, shape=(3072, 1024), dtype=torch.bfloat16, device=xla:0
[XLA Cache]   Tensor object id: 140708366995664
[XLA Cache]   XLA tensor id: 10
[XLA Cache]   Result: CACHE MISS - added to cache
[XLA Cache]   ---
[XLA Cache] Input 10: input_10_shape_[3072, 3072]_dtype_torch.bfloat16
[XLA Cache]   Cache key: id=140708366995744, shape=(3072, 3072), dtype=torch.bfloat16, device=xla:0
[XLA Cache]   Tensor object id: 140708366995744
[XLA Cache]   XLA tensor id: 11
[XLA Cache]   Result: CACHE MISS - added to cache
[XLA Cache]   ---
[XLA Cache] Input 11: input_11_shape_[3072, 8192]_dtype_torch.bfloat16
[XLA Cache]   Cache key: id=140708366995824, shape=(3072, 8192), dtype=torch.bfloat16, device=xla:0
[XLA Cache]   Tensor object id: 140708366995824
[XLA Cache]   XLA tensor id: 12
[XLA Cache]   Result: CACHE MISS - added to cache
[XLA Cache]   ---
[XLA Cache] Input 12: input_12_shape_[3072, 8192]_dtype_torch.bfloat16
[XLA Cache]   Cache key: id=140708366995904, shape=(3072, 8192), dtype=torch.bfloat16, device=xla:0
[XLA Cache]   Tensor object id: 140708366995904
[XLA Cache]   XLA tensor id: 13
[XLA Cache]   Result: CACHE MISS - added to cache
[XLA Cache]   ---
[XLA Cache] Input 13: input_13_shape_[8192, 3072]_dtype_torch.bfloat16
[XLA Cache]   Cache key: id=140708366995984, shape=(8192, 3072), dtype=torch.bfloat16, device=xla:0
[XLA Cache]   Tensor object id: 140708366995984
[XLA Cache]   XLA tensor id: 14
[XLA Cache]   Result: CACHE MISS - added to cache
[XLA Cache]   ---
[XLA Cache] Input 14: input_14_shape_[3072, 128256]_dtype_torch.bfloat16
[XLA Cache]   Cache key: id=140708366996064, shape=(3072, 128256), dtype=torch.bfloat16, device=xla:0
[XLA Cache]   Tensor object id: 140708366996064
[XLA Cache]   XLA tensor id: 15
[XLA Cache]   Result: CACHE MISS - added to cache
[XLA Cache]   ---
[XLA Cache] Input 15: input_15_shape_[3072, 3072]_dtype_torch.bfloat16
[XLA Cache]   Cache key: id=140708366996224, shape=(3072, 3072), dtype=torch.bfloat16, device=xla:0
[XLA Cache]   Tensor object id: 140708366996224
[XLA Cache]   XLA tensor id: 16
[XLA Cache]   Result: CACHE MISS - added to cache
[XLA Cache]   ---
[XLA Cache] Input 16: input_16_shape_[1024, 3072]_dtype_torch.bfloat16
[XLA Cache]   Cache key: id=140708366996144, shape=(1024, 3072), dtype=torch.bfloat16, device=xla:0
[XLA Cache]   Tensor object id: 140708366996144
[XLA Cache]   XLA tensor id: 17
[XLA Cache]   Result: CACHE MISS - added to cache
[XLA Cache]   ---
[XLA Cache] Input 17: input_17_shape_[1024, 3072]_dtype_torch.bfloat16
[XLA Cache]   Cache key: id=140708366996304, shape=(1024, 3072), dtype=torch.bfloat16, device=xla:0
[XLA Cache]   Tensor object id: 140708366996304
[XLA Cache]   XLA tensor id: 18
[XLA Cache]   Result: CACHE MISS - added to cache
[XLA Cache]   ---
[XLA Cache] Input 18: input_18_shape_[3072, 3072]_dtype_torch.bfloat16
[XLA Cache]   Cache key: id=140708366996384, shape=(3072, 3072), dtype=torch.bfloat16, device=xla:0
[XLA Cache]   Tensor object id: 140708366996384
[XLA Cache]   XLA tensor id: 19
[XLA Cache]   Result: CACHE MISS - added to cache
[XLA Cache]   ---
[XLA Cache] Input 19: input_19_shape_[8192, 3072]_dtype_torch.bfloat16
[XLA Cache]   Cache key: id=140708366996464, shape=(8192, 3072), dtype=torch.bfloat16, device=xla:0
[XLA Cache]   Tensor object id: 140708366996464
[XLA Cache]   XLA tensor id: 20
[XLA Cache]   Result: CACHE MISS - added to cache
[XLA Cache]   ---
[XLA Cache] Input 20: input_20_shape_[8192, 3072]_dtype_torch.bfloat16
[XLA Cache]   Cache key: id=140708366996544, shape=(8192, 3072), dtype=torch.bfloat16, device=xla:0
[XLA Cache]   Tensor object id: 140708366996544
[XLA Cache]   XLA tensor id: 21
[XLA Cache]   Result: CACHE MISS - added to cache
[XLA Cache]   ---
[XLA Cache] Input 21: input_21_shape_[3072, 8192]_dtype_torch.bfloat16
[XLA Cache]   Cache key: id=140708366996624, shape=(3072, 8192), dtype=torch.bfloat16, device=xla:0
[XLA Cache]   Tensor object id: 140708366996624
[XLA Cache]   XLA tensor id: 22
[XLA Cache]   Result: CACHE MISS - added to cache
[XLA Cache]   ---
[XLA Cache] Input 22: input_22_shape_[128256, 3072]_dtype_torch.bfloat16
[XLA Cache]   Cache key: id=140708366996704, shape=(128256, 3072), dtype=torch.bfloat16, device=xla:0
[XLA Cache]   Tensor object id: 140708366996704
[XLA Cache]   XLA tensor id: 23
[XLA Cache]   Result: CACHE MISS - added to cache
[XLA Cache]   ---
[XLA Cache] Input 23: input_23_shape_[1, 8, 128, 128]_dtype_torch.bfloat16
[XLA Cache]   Cache key: id=140708366996864, shape=(1, 8, 128, 128), dtype=torch.bfloat16, device=xla:0
[XLA Cache]   Tensor object id: 140708366996864
[XLA Cache]   XLA tensor id: 24
[XLA Cache]   *** STATIC CACHE TENSOR DETECTED ***
[XLA Cache]   Result: CACHE MISS - added to cache
[XLA Cache]   *** CACHE MISS ANALYSIS FOR STATIC CACHE ***
[XLA Cache]   Reason: Each tensor object has unique id() = 140708366996864
[XLA Cache]   Even identical static cache tensors get different cache keys due to object identity
[XLA Cache]   Total static cache tensors in cache: 1
2025-08-13 23:25:07.720 (   5.799s) [        CA99B1C0]  device_description.cc:44       1| DeviceDescription::PJRT_DeviceDescription_Id
2025-08-13 23:25:07.720 (   5.799s) [        CA99B1C0]  device_description.cc:44       1| DeviceDescription::PJRT_DeviceDescription_Id
2025-08-13 23:25:07.720 (   5.799s) [        CA99B1C0]     device_instance.cc:82       1| DeviceInstance::PJRT_Device_DefaultMemory
2025-08-13 23:25:07.720 (   5.799s) [        CA99B1C0]     client_instance.cc:509      1| ClientInstance::PJRT_Client_BufferFromHostBuffer
2025-08-13 23:25:07.720 (   5.799s) [        CA99B1C0]     memory_instance.cc:57       1| MemoryInstance::getDevice
2025-08-13 23:25:07.720 (   5.799s) [        CA99B1C0]     buffer_instance.cc:213      1| [BUFFER] Creating OWNED host tensor with shape [7] (semantics: other, supported_dtype: false)
[32m                 Always[0m | [1m[38;5;208m WARNING[0m | User provided a tensor of data type: Int64 which is not supported by runtime/ttnn. Casting to: Int32, this may impact throughput and the integrity of the data.
2025-08-13 23:25:07.720 (   5.799s) [        CA99B1C0]      event_instance.cc:222      1| EventInstance::PJRT_Event_OnReady
2025-08-13 23:25:07.720 (   5.799s) [        CA99B1C0]      event_instance.cc:171      1| EventInstance::PJRT_Event_Destroy
2025-08-13 23:25:07.720 (   5.799s) [        CA99B1C0]     device_instance.cc:82       1| DeviceInstance::PJRT_Device_DefaultMemory
2025-08-13 23:25:07.720 (   5.799s) [        CA99B1C0]     client_instance.cc:509      1| ClientInstance::PJRT_Client_BufferFromHostBuffer
2025-08-13 23:25:07.720 (   5.799s) [        CA99B1C0]     memory_instance.cc:57       1| MemoryInstance::getDevice
2025-08-13 23:25:07.721 (   5.799s) [        CA99B1C0]     buffer_instance.cc:213      1| [BUFFER] Creating OWNED host tensor with shape [7] (semantics: other, supported_dtype: false)
[32m                 Always[0m | [1m[38;5;208m WARNING[0m | User provided a tensor of data type: Int64 which is not supported by runtime/ttnn. Casting to: Int32, this may impact throughput and the integrity of the data.
2025-08-13 23:25:07.721 (   5.799s) [        CA99B1C0]      event_instance.cc:222      1| EventInstance::PJRT_Event_OnReady
2025-08-13 23:25:07.721 (   5.799s) [        CA99B1C0]      event_instance.cc:171      1| EventInstance::PJRT_Event_Destroy
2025-08-13 23:25:07.721 (   5.799s) [        CA99B1C0]  device_description.cc:44       1| DeviceDescription::PJRT_DeviceDescription_Id
2025-08-13 23:25:07.721 (   5.799s) [        CA99B1C0]  device_description.cc:44       1| DeviceDescription::PJRT_DeviceDescription_Id
2025-08-13 23:25:07.721 (   5.799s) [        CA99B1C0]     device_instance.cc:82       1| DeviceInstance::PJRT_Device_DefaultMemory
2025-08-13 23:25:07.721 (   5.799s) [        CA99B1C0]     client_instance.cc:509      1| ClientInstance::PJRT_Client_BufferFromHostBuffer
2025-08-13 23:25:07.721 (   5.799s) [        CA99B1C0]     memory_instance.cc:57       1| MemoryInstance::getDevice
2025-08-13 23:25:07.721 (   5.799s) [        CA99B1C0]     buffer_instance.cc:213      1| [BUFFER] Creating OWNED host tensor with shape [128] (semantics: other, supported_dtype: false)
[32m                 Always[0m | [1m[38;5;208m WARNING[0m | User provided a tensor of data type: Int64 which is not supported by runtime/ttnn. Casting to: Int32, this may impact throughput and the integrity of the data.
2025-08-13 23:25:07.721 (   5.799s) [        CA99B1C0]      event_instance.cc:222      1| EventInstance::PJRT_Event_OnReady
2025-08-13 23:25:07.721 (   5.799s) [        CA99B1C0]      event_instance.cc:171      1| EventInstance::PJRT_Event_Destroy
2025-08-13 23:25:07.721 (   5.799s) [        CA99B1C0]     device_instance.cc:82       1| DeviceInstance::PJRT_Device_DefaultMemory
2025-08-13 23:25:07.721 (   5.799s) [        CA99B1C0]     client_instance.cc:509      1| ClientInstance::PJRT_Client_BufferFromHostBuffer
2025-08-13 23:25:07.721 (   5.799s) [        CA99B1C0]     memory_instance.cc:57       1| MemoryInstance::getDevice
2025-08-13 23:25:07.721 (   5.799s) [        CA99B1C0]     buffer_instance.cc:213      1| [BUFFER] Creating OWNED host tensor with shape [128] (semantics: other, supported_dtype: false)
[32m                 Always[0m | [1m[38;5;208m WARNING[0m | User provided a tensor of data type: Int64 which is not supported by runtime/ttnn. Casting to: Int32, this may impact throughput and the integrity of the data.
2025-08-13 23:25:07.721 (   5.799s) [        CA99B1C0]      event_instance.cc:222      1| EventInstance::PJRT_Event_OnReady
2025-08-13 23:25:07.721 (   5.799s) [        CA99B1C0]      event_instance.cc:171      1| EventInstance::PJRT_Event_Destroy
2025-08-13 23:25:07.721 (   5.799s) [        CA99B1C0]  device_description.cc:44       1| DeviceDescription::PJRT_DeviceDescription_Id
2025-08-13 23:25:07.721 (   5.799s) [        CA99B1C0]  device_description.cc:44       1| DeviceDescription::PJRT_DeviceDescription_Id
2025-08-13 23:25:07.721 (   5.800s) [        CA99B1C0]     device_instance.cc:82       1| DeviceInstance::PJRT_Device_DefaultMemory
2025-08-13 23:25:07.721 (   5.800s) [        CA99B1C0]     client_instance.cc:509      1| ClientInstance::PJRT_Client_BufferFromHostBuffer
2025-08-13 23:25:07.721 (   5.800s) [        CA99B1C0]     memory_instance.cc:57       1| MemoryInstance::getDevice
2025-08-13 23:25:07.721 (   5.800s) [        CA99B1C0]     buffer_instance.cc:228      1| [BUFFER] Creating BORROWED host tensor with shape [7, 128] (semantics: ZeroCopy/other)
2025-08-13 23:25:07.721 (   5.800s) [        CA99B1C0]      event_instance.cc:222      1| EventInstance::PJRT_Event_OnReady
2025-08-13 23:25:07.721 (   5.800s) [        CA99B1C0]      event_instance.cc:171      1| EventInstance::PJRT_Event_Destroy
2025-08-13 23:25:07.721 (   5.800s) [        CA99B1C0]     device_instance.cc:82       1| DeviceInstance::PJRT_Device_DefaultMemory
2025-08-13 23:25:07.721 (   5.800s) [        CA99B1C0]     client_instance.cc:509      1| ClientInstance::PJRT_Client_BufferFromHostBuffer
2025-08-13 23:25:07.721 (   5.800s) [        CA99B1C0]     memory_instance.cc:57       1| MemoryInstance::getDevice
2025-08-13 23:25:07.721 (   5.800s) [        CA99B1C0]     buffer_instance.cc:228      1| [BUFFER] Creating BORROWED host tensor with shape [7, 128] (semantics: ZeroCopy/other)
2025-08-13 23:25:07.721 (   5.800s) [        CA99B1C0]      event_instance.cc:222      1| EventInstance::PJRT_Event_OnReady
2025-08-13 23:25:07.721 (   5.800s) [        CA99B1C0]      event_instance.cc:171      1| EventInstance::PJRT_Event_Destroy
2025-08-13 23:25:07.722 (   5.800s) [        CA99B1C0]  device_description.cc:44       1| DeviceDescription::PJRT_DeviceDescription_Id
2025-08-13 23:25:07.722 (   5.800s) [        CA99B1C0]  device_description.cc:44       1| DeviceDescription::PJRT_DeviceDescription_Id
2025-08-13 23:25:07.722 (   5.800s) [        CA99B1C0]     device_instance.cc:82       1| DeviceInstance::PJRT_Device_DefaultMemory
2025-08-13 23:25:07.722 (   5.800s) [        CA99B1C0]     client_instance.cc:509      1| ClientInstance::PJRT_Client_BufferFromHostBuffer
2025-08-13 23:25:07.722 (   5.800s) [        CA99B1C0]     memory_instance.cc:57       1| MemoryInstance::getDevice
2025-08-13 23:25:07.722 (   5.800s) [        CA99B1C0]     buffer_instance.cc:228      1| [BUFFER] Creating BORROWED host tensor with shape [1, 64, 1] (semantics: ZeroCopy/other)
2025-08-13 23:25:07.722 (   5.800s) [        CA99B1C0]      event_instance.cc:222      1| EventInstance::PJRT_Event_OnReady
2025-08-13 23:25:07.722 (   5.800s) [        CA99B1C0]      event_instance.cc:171      1| EventInstance::PJRT_Event_Destroy
2025-08-13 23:25:07.722 (   5.800s) [        CA99B1C0]     device_instance.cc:82       1| DeviceInstance::PJRT_Device_DefaultMemory
2025-08-13 23:25:07.722 (   5.800s) [        CA99B1C0]     client_instance.cc:509      1| ClientInstance::PJRT_Client_BufferFromHostBuffer
2025-08-13 23:25:07.722 (   5.800s) [        CA99B1C0]     memory_instance.cc:57       1| MemoryInstance::getDevice
2025-08-13 23:25:07.722 (   5.800s) [        CA99B1C0]     buffer_instance.cc:228      1| [BUFFER] Creating BORROWED host tensor with shape [1, 64, 1] (semantics: ZeroCopy/other)
2025-08-13 23:25:07.722 (   5.800s) [        CA99B1C0]      event_instance.cc:222      1| EventInstance::PJRT_Event_OnReady
2025-08-13 23:25:07.722 (   5.800s) [        CA99B1C0]      event_instance.cc:171      1| EventInstance::PJRT_Event_Destroy
2025-08-13 23:25:07.723 (   5.801s) [        CA99B1C0]  device_description.cc:44       1| DeviceDescription::PJRT_DeviceDescription_Id
2025-08-13 23:25:07.723 (   5.801s) [        CA99B1C0]  device_description.cc:44       1| DeviceDescription::PJRT_DeviceDescription_Id
2025-08-13 23:25:07.723 (   5.801s) [        CA99B1C0]     device_instance.cc:82       1| DeviceInstance::PJRT_Device_DefaultMemory
2025-08-13 23:25:07.723 (   5.801s) [        CA99B1C0]     client_instance.cc:509      1| ClientInstance::PJRT_Client_BufferFromHostBuffer
2025-08-13 23:25:07.723 (   5.801s) [        CA99B1C0]     memory_instance.cc:57       1| MemoryInstance::getDevice
2025-08-13 23:25:07.723 (   5.801s) [        CA99B1C0]     buffer_instance.cc:228      1| [BUFFER] Creating BORROWED host tensor with shape [1] (semantics: ZeroCopy/other)
2025-08-13 23:25:07.723 (   5.802s) [        CA99B1C0]      event_instance.cc:222      1| EventInstance::PJRT_Event_OnReady
2025-08-13 23:25:07.723 (   5.802s) [        CA99B1C0]      event_instance.cc:171      1| EventInstance::PJRT_Event_Destroy
2025-08-13 23:25:07.723 (   5.802s) [        CA99B1C0]     device_instance.cc:82       1| DeviceInstance::PJRT_Device_DefaultMemory
2025-08-13 23:25:07.723 (   5.802s) [        CA99B1C0]     client_instance.cc:509      1| ClientInstance::PJRT_Client_BufferFromHostBuffer
2025-08-13 23:25:07.723 (   5.802s) [        CA99B1C0]     memory_instance.cc:57       1| MemoryInstance::getDevice
2025-08-13 23:25:07.723 (   5.802s) [        CA99B1C0]     buffer_instance.cc:228      1| [BUFFER] Creating BORROWED host tensor with shape [1] (semantics: ZeroCopy/other)
2025-08-13 23:25:07.723 (   5.802s) [        CA99B1C0]      event_instance.cc:222      1| EventInstance::PJRT_Event_OnReady
2025-08-13 23:25:07.723 (   5.802s) [        CA99B1C0]      event_instance.cc:171      1| EventInstance::PJRT_Event_Destroy
2025-08-13 23:25:07.724 (   5.802s) [        CA99B1C0]  device_description.cc:44       1| DeviceDescription::PJRT_DeviceDescription_Id
2025-08-13 23:25:07.724 (   5.802s) [        CA99B1C0]  device_description.cc:44       1| DeviceDescription::PJRT_DeviceDescription_Id
2025-08-13 23:25:07.724 (   5.802s) [        CA99B1C0]     device_instance.cc:82       1| DeviceInstance::PJRT_Device_DefaultMemory
2025-08-13 23:25:07.724 (   5.802s) [        CA99B1C0]     client_instance.cc:509      1| ClientInstance::PJRT_Client_BufferFromHostBuffer
2025-08-13 23:25:07.724 (   5.802s) [        CA99B1C0]     memory_instance.cc:57       1| MemoryInstance::getDevice
2025-08-13 23:25:07.724 (   5.802s) [        CA99B1C0]     buffer_instance.cc:228      1| [BUFFER] Creating BORROWED host tensor with shape [3072] (semantics: ZeroCopy/other)
2025-08-13 23:25:07.724 (   5.802s) [        CA99B1C0]      event_instance.cc:222      1| EventInstance::PJRT_Event_OnReady
2025-08-13 23:25:07.724 (   5.802s) [        CA99B1C0]      event_instance.cc:171      1| EventInstance::PJRT_Event_Destroy
2025-08-13 23:25:07.724 (   5.802s) [        CA99B1C0]     device_instance.cc:82       1| DeviceInstance::PJRT_Device_DefaultMemory
2025-08-13 23:25:07.724 (   5.802s) [        CA99B1C0]     client_instance.cc:509      1| ClientInstance::PJRT_Client_BufferFromHostBuffer
2025-08-13 23:25:07.724 (   5.802s) [        CA99B1C0]     memory_instance.cc:57       1| MemoryInstance::getDevice
2025-08-13 23:25:07.724 (   5.802s) [        CA99B1C0]     buffer_instance.cc:228      1| [BUFFER] Creating BORROWED host tensor with shape [3072] (semantics: ZeroCopy/other)
2025-08-13 23:25:07.724 (   5.802s) [        CA99B1C0]      event_instance.cc:222      1| EventInstance::PJRT_Event_OnReady
2025-08-13 23:25:07.724 (   5.802s) [        CA99B1C0]      event_instance.cc:171      1| EventInstance::PJRT_Event_Destroy
2025-08-13 23:25:07.724 (   5.802s) [        CA99B1C0]  device_description.cc:44       1| DeviceDescription::PJRT_DeviceDescription_Id
2025-08-13 23:25:07.724 (   5.802s) [        CA99B1C0]  device_description.cc:44       1| DeviceDescription::PJRT_DeviceDescription_Id
2025-08-13 23:25:07.746 (   5.825s) [        CA99B1C0]     device_instance.cc:82       1| DeviceInstance::PJRT_Device_DefaultMemory
2025-08-13 23:25:07.747 (   5.825s) [        CA99B1C0]     client_instance.cc:509      1| ClientInstance::PJRT_Client_BufferFromHostBuffer
2025-08-13 23:25:07.747 (   5.825s) [        CA99B1C0]     memory_instance.cc:57       1| MemoryInstance::getDevice
2025-08-13 23:25:07.747 (   5.825s) [        CA99B1C0]     buffer_instance.cc:228      1| [BUFFER] Creating BORROWED host tensor with shape [3072, 3072] (semantics: ZeroCopy/other)
2025-08-13 23:25:07.747 (   5.825s) [        CA99B1C0]      event_instance.cc:222      1| EventInstance::PJRT_Event_OnReady
2025-08-13 23:25:07.747 (   5.825s) [        CA99B1C0]      event_instance.cc:171      1| EventInstance::PJRT_Event_Destroy
2025-08-13 23:25:07.747 (   5.825s) [        CA99B1C0]     device_instance.cc:82       1| DeviceInstance::PJRT_Device_DefaultMemory
2025-08-13 23:25:07.747 (   5.825s) [        CA99B1C0]     client_instance.cc:509      1| ClientInstance::PJRT_Client_BufferFromHostBuffer
2025-08-13 23:25:07.747 (   5.825s) [        CA99B1C0]     memory_instance.cc:57       1| MemoryInstance::getDevice
2025-08-13 23:25:07.747 (   5.825s) [        CA99B1C0]     buffer_instance.cc:228      1| [BUFFER] Creating BORROWED host tensor with shape [3072, 3072] (semantics: ZeroCopy/other)
2025-08-13 23:25:07.747 (   5.825s) [        CA99B1C0]      event_instance.cc:222      1| EventInstance::PJRT_Event_OnReady
2025-08-13 23:25:07.747 (   5.825s) [        CA99B1C0]      event_instance.cc:171      1| EventInstance::PJRT_Event_Destroy
2025-08-13 23:25:07.747 (   5.826s) [        CA99B1C0]  device_description.cc:44       1| DeviceDescription::PJRT_DeviceDescription_Id
2025-08-13 23:25:07.747 (   5.826s) [        CA99B1C0]  device_description.cc:44       1| DeviceDescription::PJRT_DeviceDescription_Id
2025-08-13 23:25:07.757 (   5.835s) [        CA99B1C0]     device_instance.cc:82       1| DeviceInstance::PJRT_Device_DefaultMemory
2025-08-13 23:25:07.757 (   5.835s) [        CA99B1C0]     client_instance.cc:509      1| ClientInstance::PJRT_Client_BufferFromHostBuffer
2025-08-13 23:25:07.757 (   5.835s) [        CA99B1C0]     memory_instance.cc:57       1| MemoryInstance::getDevice
2025-08-13 23:25:07.757 (   5.836s) [        CA99B1C0]     buffer_instance.cc:228      1| [BUFFER] Creating BORROWED host tensor with shape [3072, 1024] (semantics: ZeroCopy/other)
2025-08-13 23:25:07.757 (   5.836s) [        CA99B1C0]      event_instance.cc:222      1| EventInstance::PJRT_Event_OnReady
2025-08-13 23:25:07.757 (   5.836s) [        CA99B1C0]      event_instance.cc:171      1| EventInstance::PJRT_Event_Destroy
2025-08-13 23:25:07.757 (   5.836s) [        CA99B1C0]     device_instance.cc:82       1| DeviceInstance::PJRT_Device_DefaultMemory
2025-08-13 23:25:07.757 (   5.836s) [        CA99B1C0]     client_instance.cc:509      1| ClientInstance::PJRT_Client_BufferFromHostBuffer
2025-08-13 23:25:07.757 (   5.836s) [        CA99B1C0]     memory_instance.cc:57       1| MemoryInstance::getDevice
2025-08-13 23:25:07.757 (   5.836s) [        CA99B1C0]     buffer_instance.cc:228      1| [BUFFER] Creating BORROWED host tensor with shape [3072, 1024] (semantics: ZeroCopy/other)
2025-08-13 23:25:07.758 (   5.836s) [        CA99B1C0]      event_instance.cc:222      1| EventInstance::PJRT_Event_OnReady
2025-08-13 23:25:07.758 (   5.836s) [        CA99B1C0]      event_instance.cc:171      1| EventInstance::PJRT_Event_Destroy
2025-08-13 23:25:07.758 (   5.836s) [        CA99B1C0]  device_description.cc:44       1| DeviceDescription::PJRT_DeviceDescription_Id
2025-08-13 23:25:07.758 (   5.836s) [        CA99B1C0]  device_description.cc:44       1| DeviceDescription::PJRT_DeviceDescription_Id
2025-08-13 23:25:07.768 (   5.846s) [        CA99B1C0]     device_instance.cc:82       1| DeviceInstance::PJRT_Device_DefaultMemory
2025-08-13 23:25:07.768 (   5.846s) [        CA99B1C0]     client_instance.cc:509      1| ClientInstance::PJRT_Client_BufferFromHostBuffer
2025-08-13 23:25:07.768 (   5.846s) [        CA99B1C0]     memory_instance.cc:57       1| MemoryInstance::getDevice
2025-08-13 23:25:07.768 (   5.846s) [        CA99B1C0]     buffer_instance.cc:228      1| [BUFFER] Creating BORROWED host tensor with shape [3072, 1024] (semantics: ZeroCopy/other)
2025-08-13 23:25:07.768 (   5.846s) [        CA99B1C0]      event_instance.cc:222      1| EventInstance::PJRT_Event_OnReady
2025-08-13 23:25:07.768 (   5.846s) [        CA99B1C0]      event_instance.cc:171      1| EventInstance::PJRT_Event_Destroy
2025-08-13 23:25:07.768 (   5.846s) [        CA99B1C0]     device_instance.cc:82       1| DeviceInstance::PJRT_Device_DefaultMemory
2025-08-13 23:25:07.768 (   5.846s) [        CA99B1C0]     client_instance.cc:509      1| ClientInstance::PJRT_Client_BufferFromHostBuffer
2025-08-13 23:25:07.768 (   5.846s) [        CA99B1C0]     memory_instance.cc:57       1| MemoryInstance::getDevice
2025-08-13 23:25:07.768 (   5.846s) [        CA99B1C0]     buffer_instance.cc:228      1| [BUFFER] Creating BORROWED host tensor with shape [3072, 1024] (semantics: ZeroCopy/other)
2025-08-13 23:25:07.768 (   5.846s) [        CA99B1C0]      event_instance.cc:222      1| EventInstance::PJRT_Event_OnReady
2025-08-13 23:25:07.768 (   5.846s) [        CA99B1C0]      event_instance.cc:171      1| EventInstance::PJRT_Event_Destroy
2025-08-13 23:25:07.769 (   5.847s) [        CA99B1C0]  device_description.cc:44       1| DeviceDescription::PJRT_DeviceDescription_Id
2025-08-13 23:25:07.769 (   5.847s) [        CA99B1C0]  device_description.cc:44       1| DeviceDescription::PJRT_DeviceDescription_Id
2025-08-13 23:25:07.769 (   5.847s) [        CA99B1C0]     device_instance.cc:82       1| DeviceInstance::PJRT_Device_DefaultMemory
2025-08-13 23:25:07.769 (   5.847s) [        CA99B1C0]     client_instance.cc:509      1| ClientInstance::PJRT_Client_BufferFromHostBuffer
2025-08-13 23:25:07.769 (   5.847s) [        CA99B1C0]     memory_instance.cc:57       1| MemoryInstance::getDevice
2025-08-13 23:25:07.769 (   5.848s) [        CA99B1C0]     buffer_instance.cc:213      1| [BUFFER] Creating OWNED host tensor with shape [1] (semantics: other, supported_dtype: false)
[32m                 Always[0m | [1m[38;5;208m WARNING[0m | User provided a tensor of data type: Int64 which is not supported by runtime/ttnn. Casting to: Int32, this may impact throughput and the integrity of the data.
2025-08-13 23:25:07.769 (   5.848s) [        CA99B1C0]      event_instance.cc:222      1| EventInstance::PJRT_Event_OnReady
2025-08-13 23:25:07.769 (   5.848s) [        CA99B1C0]      event_instance.cc:171      1| EventInstance::PJRT_Event_Destroy
2025-08-13 23:25:07.769 (   5.848s) [        CA99B1C0]     device_instance.cc:82       1| DeviceInstance::PJRT_Device_DefaultMemory
2025-08-13 23:25:07.769 (   5.848s) [        CA99B1C0]     client_instance.cc:509      1| ClientInstance::PJRT_Client_BufferFromHostBuffer
2025-08-13 23:25:07.769 (   5.848s) [        CA99B1C0]     memory_instance.cc:57       1| MemoryInstance::getDevice
2025-08-13 23:25:07.769 (   5.848s) [        CA99B1C0]     buffer_instance.cc:213      1| [BUFFER] Creating OWNED host tensor with shape [1] (semantics: other, supported_dtype: false)
[32m                 Always[0m | [1m[38;5;208m WARNING[0m | User provided a tensor of data type: Int64 which is not supported by runtime/ttnn. Casting to: Int32, this may impact throughput and the integrity of the data.
2025-08-13 23:25:07.769 (   5.848s) [        CA99B1C0]      event_instance.cc:222      1| EventInstance::PJRT_Event_OnReady
2025-08-13 23:25:07.769 (   5.848s) [        CA99B1C0]      event_instance.cc:171      1| EventInstance::PJRT_Event_Destroy
2025-08-13 23:25:07.770 (   5.848s) [        CA99B1C0]  device_description.cc:44       1| DeviceDescription::PJRT_DeviceDescription_Id
2025-08-13 23:25:07.770 (   5.848s) [        CA99B1C0]  device_description.cc:44       1| DeviceDescription::PJRT_DeviceDescription_Id
2025-08-13 23:25:07.770 (   5.848s) [        CA99B1C0]     device_instance.cc:82       1| DeviceInstance::PJRT_Device_DefaultMemory
2025-08-13 23:25:07.770 (   5.848s) [        CA99B1C0]     client_instance.cc:509      1| ClientInstance::PJRT_Client_BufferFromHostBuffer
2025-08-13 23:25:07.770 (   5.848s) [        CA99B1C0]     memory_instance.cc:57       1| MemoryInstance::getDevice
2025-08-13 23:25:07.770 (   5.849s) [        CA99B1C0]     buffer_instance.cc:228      1| [BUFFER] Creating BORROWED host tensor with shape [1] (semantics: ZeroCopy/other)
2025-08-13 23:25:07.770 (   5.849s) [        CA99B1C0]      event_instance.cc:222      1| EventInstance::PJRT_Event_OnReady
2025-08-13 23:25:07.770 (   5.849s) [        CA99B1C0]      event_instance.cc:171      1| EventInstance::PJRT_Event_Destroy
2025-08-13 23:25:07.770 (   5.849s) [        CA99B1C0]     device_instance.cc:82       1| DeviceInstance::PJRT_Device_DefaultMemory
2025-08-13 23:25:07.770 (   5.849s) [        CA99B1C0]     client_instance.cc:509      1| ClientInstance::PJRT_Client_BufferFromHostBuffer
2025-08-13 23:25:07.770 (   5.849s) [        CA99B1C0]     memory_instance.cc:57       1| MemoryInstance::getDevice
2025-08-13 23:25:07.770 (   5.849s) [        CA99B1C0]     buffer_instance.cc:228      1| [BUFFER] Creating BORROWED host tensor with shape [1] (semantics: ZeroCopy/other)
2025-08-13 23:25:07.770 (   5.849s) [        CA99B1C0]      event_instance.cc:222      1| EventInstance::PJRT_Event_OnReady
2025-08-13 23:25:07.770 (   5.849s) [        CA99B1C0]      event_instance.cc:171      1| EventInstance::PJRT_Event_Destroy
2025-08-13 23:25:07.771 (   5.849s) [        CA99B1C0]  device_description.cc:44       1| DeviceDescription::PJRT_DeviceDescription_Id
2025-08-13 23:25:07.771 (   5.849s) [        CA99B1C0]  device_description.cc:44       1| DeviceDescription::PJRT_DeviceDescription_Id
2025-08-13 23:25:07.794 (   5.873s) [        CA99B1C0]     device_instance.cc:82       1| DeviceInstance::PJRT_Device_DefaultMemory
2025-08-13 23:25:07.794 (   5.873s) [        CA99B1C0]     client_instance.cc:509      1| ClientInstance::PJRT_Client_BufferFromHostBuffer
2025-08-13 23:25:07.794 (   5.873s) [        CA99B1C0]     memory_instance.cc:57       1| MemoryInstance::getDevice
2025-08-13 23:25:07.795 (   5.873s) [        CA99B1C0]     buffer_instance.cc:228      1| [BUFFER] Creating BORROWED host tensor with shape [3072, 3072] (semantics: ZeroCopy/other)
2025-08-13 23:25:07.795 (   5.873s) [        CA99B1C0]      event_instance.cc:222      1| EventInstance::PJRT_Event_OnReady
2025-08-13 23:25:07.795 (   5.873s) [        CA99B1C0]      event_instance.cc:171      1| EventInstance::PJRT_Event_Destroy
2025-08-13 23:25:07.795 (   5.873s) [        CA99B1C0]     device_instance.cc:82       1| DeviceInstance::PJRT_Device_DefaultMemory
2025-08-13 23:25:07.795 (   5.873s) [        CA99B1C0]     client_instance.cc:509      1| ClientInstance::PJRT_Client_BufferFromHostBuffer
2025-08-13 23:25:07.795 (   5.873s) [        CA99B1C0]     memory_instance.cc:57       1| MemoryInstance::getDevice
2025-08-13 23:25:07.795 (   5.873s) [        CA99B1C0]     buffer_instance.cc:228      1| [BUFFER] Creating BORROWED host tensor with shape [3072, 3072] (semantics: ZeroCopy/other)
2025-08-13 23:25:07.795 (   5.873s) [        CA99B1C0]      event_instance.cc:222      1| EventInstance::PJRT_Event_OnReady
2025-08-13 23:25:07.795 (   5.873s) [        CA99B1C0]      event_instance.cc:171      1| EventInstance::PJRT_Event_Destroy
2025-08-13 23:25:07.796 (   5.874s) [        CA99B1C0]  device_description.cc:44       1| DeviceDescription::PJRT_DeviceDescription_Id
2025-08-13 23:25:07.796 (   5.874s) [        CA99B1C0]  device_description.cc:44       1| DeviceDescription::PJRT_DeviceDescription_Id
2025-08-13 23:25:07.796 (   5.874s) [        CA99B1C0]     device_instance.cc:82       1| DeviceInstance::PJRT_Device_DefaultMemory
2025-08-13 23:25:07.796 (   5.874s) [        CA99B1C0]     client_instance.cc:509      1| ClientInstance::PJRT_Client_BufferFromHostBuffer
2025-08-13 23:25:07.796 (   5.874s) [        CA99B1C0]     memory_instance.cc:57       1| MemoryInstance::getDevice
2025-08-13 23:25:07.796 (   5.874s) [        CA99B1C0]     buffer_instance.cc:228      1| [BUFFER] Creating BORROWED host tensor with shape [3072] (semantics: ZeroCopy/other)
2025-08-13 23:25:07.796 (   5.874s) [        CA99B1C0]      event_instance.cc:222      1| EventInstance::PJRT_Event_OnReady
2025-08-13 23:25:07.796 (   5.874s) [        CA99B1C0]      event_instance.cc:171      1| EventInstance::PJRT_Event_Destroy
2025-08-13 23:25:07.796 (   5.874s) [        CA99B1C0]     device_instance.cc:82       1| DeviceInstance::PJRT_Device_DefaultMemory
2025-08-13 23:25:07.796 (   5.874s) [        CA99B1C0]     client_instance.cc:509      1| ClientInstance::PJRT_Client_BufferFromHostBuffer
2025-08-13 23:25:07.796 (   5.875s) [        CA99B1C0]     memory_instance.cc:57       1| MemoryInstance::getDevice
2025-08-13 23:25:07.796 (   5.875s) [        CA99B1C0]     buffer_instance.cc:228      1| [BUFFER] Creating BORROWED host tensor with shape [3072] (semantics: ZeroCopy/other)
2025-08-13 23:25:07.796 (   5.875s) [        CA99B1C0]      event_instance.cc:222      1| EventInstance::PJRT_Event_OnReady
2025-08-13 23:25:07.796 (   5.875s) [        CA99B1C0]      event_instance.cc:171      1| EventInstance::PJRT_Event_Destroy
2025-08-13 23:25:07.796 (   5.875s) [        CA99B1C0]  device_description.cc:44       1| DeviceDescription::PJRT_DeviceDescription_Id
2025-08-13 23:25:07.796 (   5.875s) [        CA99B1C0]  device_description.cc:44       1| DeviceDescription::PJRT_DeviceDescription_Id
2025-08-13 23:25:07.889 (   5.968s) [        CA99B1C0]     device_instance.cc:82       1| DeviceInstance::PJRT_Device_DefaultMemory
2025-08-13 23:25:07.889 (   5.968s) [        CA99B1C0]     client_instance.cc:509      1| ClientInstance::PJRT_Client_BufferFromHostBuffer
2025-08-13 23:25:07.889 (   5.968s) [        CA99B1C0]     memory_instance.cc:57       1| MemoryInstance::getDevice
2025-08-13 23:25:07.890 (   5.968s) [        CA99B1C0]     buffer_instance.cc:228      1| [BUFFER] Creating BORROWED host tensor with shape [3072, 8192] (semantics: ZeroCopy/other)
2025-08-13 23:25:07.890 (   5.968s) [        CA99B1C0]      event_instance.cc:222      1| EventInstance::PJRT_Event_OnReady
2025-08-13 23:25:07.890 (   5.968s) [        CA99B1C0]      event_instance.cc:171      1| EventInstance::PJRT_Event_Destroy
2025-08-13 23:25:07.890 (   5.968s) [        CA99B1C0]     device_instance.cc:82       1| DeviceInstance::PJRT_Device_DefaultMemory
2025-08-13 23:25:07.890 (   5.968s) [        CA99B1C0]     client_instance.cc:509      1| ClientInstance::PJRT_Client_BufferFromHostBuffer
2025-08-13 23:25:07.890 (   5.968s) [        CA99B1C0]     memory_instance.cc:57       1| MemoryInstance::getDevice
2025-08-13 23:25:07.890 (   5.968s) [        CA99B1C0]     buffer_instance.cc:228      1| [BUFFER] Creating BORROWED host tensor with shape [3072, 8192] (semantics: ZeroCopy/other)
2025-08-13 23:25:07.890 (   5.968s) [        CA99B1C0]      event_instance.cc:222      1| EventInstance::PJRT_Event_OnReady
2025-08-13 23:25:07.890 (   5.968s) [        CA99B1C0]      event_instance.cc:171      1| EventInstance::PJRT_Event_Destroy
2025-08-13 23:25:07.894 (   5.972s) [        CA99B1C0]  device_description.cc:44       1| DeviceDescription::PJRT_DeviceDescription_Id
2025-08-13 23:25:07.894 (   5.972s) [        CA99B1C0]  device_description.cc:44       1| DeviceDescription::PJRT_DeviceDescription_Id
2025-08-13 23:25:07.988 (   6.066s) [        CA99B1C0]     device_instance.cc:82       1| DeviceInstance::PJRT_Device_DefaultMemory
2025-08-13 23:25:07.988 (   6.066s) [        CA99B1C0]     client_instance.cc:509      1| ClientInstance::PJRT_Client_BufferFromHostBuffer
2025-08-13 23:25:07.988 (   6.066s) [        CA99B1C0]     memory_instance.cc:57       1| MemoryInstance::getDevice
2025-08-13 23:25:07.988 (   6.067s) [        CA99B1C0]     buffer_instance.cc:228      1| [BUFFER] Creating BORROWED host tensor with shape [3072, 8192] (semantics: ZeroCopy/other)
2025-08-13 23:25:07.988 (   6.067s) [        CA99B1C0]      event_instance.cc:222      1| EventInstance::PJRT_Event_OnReady
2025-08-13 23:25:07.988 (   6.067s) [        CA99B1C0]      event_instance.cc:171      1| EventInstance::PJRT_Event_Destroy
2025-08-13 23:25:07.988 (   6.067s) [        CA99B1C0]     device_instance.cc:82       1| DeviceInstance::PJRT_Device_DefaultMemory
2025-08-13 23:25:07.988 (   6.067s) [        CA99B1C0]     client_instance.cc:509      1| ClientInstance::PJRT_Client_BufferFromHostBuffer
2025-08-13 23:25:07.988 (   6.067s) [        CA99B1C0]     memory_instance.cc:57       1| MemoryInstance::getDevice
2025-08-13 23:25:07.988 (   6.067s) [        CA99B1C0]     buffer_instance.cc:228      1| [BUFFER] Creating BORROWED host tensor with shape [3072, 8192] (semantics: ZeroCopy/other)
2025-08-13 23:25:07.988 (   6.067s) [        CA99B1C0]      event_instance.cc:222      1| EventInstance::PJRT_Event_OnReady
2025-08-13 23:25:07.988 (   6.067s) [        CA99B1C0]      event_instance.cc:171      1| EventInstance::PJRT_Event_Destroy
2025-08-13 23:25:07.992 (   6.070s) [        CA99B1C0]  device_description.cc:44       1| DeviceDescription::PJRT_DeviceDescription_Id
2025-08-13 23:25:07.992 (   6.070s) [        CA99B1C0]  device_description.cc:44       1| DeviceDescription::PJRT_DeviceDescription_Id
2025-08-13 23:25:08.074 (   6.152s) [        CA99B1C0]     device_instance.cc:82       1| DeviceInstance::PJRT_Device_DefaultMemory
2025-08-13 23:25:08.074 (   6.152s) [        CA99B1C0]     client_instance.cc:509      1| ClientInstance::PJRT_Client_BufferFromHostBuffer
2025-08-13 23:25:08.074 (   6.152s) [        CA99B1C0]     memory_instance.cc:57       1| MemoryInstance::getDevice
2025-08-13 23:25:08.074 (   6.152s) [        CA99B1C0]     buffer_instance.cc:228      1| [BUFFER] Creating BORROWED host tensor with shape [8192, 3072] (semantics: ZeroCopy/other)
2025-08-13 23:25:08.074 (   6.153s) [        CA99B1C0]      event_instance.cc:222      1| EventInstance::PJRT_Event_OnReady
2025-08-13 23:25:08.074 (   6.153s) [        CA99B1C0]      event_instance.cc:171      1| EventInstance::PJRT_Event_Destroy
2025-08-13 23:25:08.074 (   6.153s) [        CA99B1C0]     device_instance.cc:82       1| DeviceInstance::PJRT_Device_DefaultMemory
2025-08-13 23:25:08.074 (   6.153s) [        CA99B1C0]     client_instance.cc:509      1| ClientInstance::PJRT_Client_BufferFromHostBuffer
2025-08-13 23:25:08.074 (   6.153s) [        CA99B1C0]     memory_instance.cc:57       1| MemoryInstance::getDevice
2025-08-13 23:25:08.074 (   6.153s) [        CA99B1C0]     buffer_instance.cc:228      1| [BUFFER] Creating BORROWED host tensor with shape [8192, 3072] (semantics: ZeroCopy/other)
2025-08-13 23:25:08.074 (   6.153s) [        CA99B1C0]      event_instance.cc:222      1| EventInstance::PJRT_Event_OnReady
2025-08-13 23:25:08.074 (   6.153s) [        CA99B1C0]      event_instance.cc:171      1| EventInstance::PJRT_Event_Destroy
2025-08-13 23:25:08.079 (   6.157s) [        CA99B1C0]  device_description.cc:44       1| DeviceDescription::PJRT_DeviceDescription_Id
2025-08-13 23:25:08.079 (   6.157s) [        CA99B1C0]  device_description.cc:44       1| DeviceDescription::PJRT_DeviceDescription_Id
2025-08-13 23:25:08.079 (   6.157s) [        CA99B1C0]     device_instance.cc:82       1| DeviceInstance::PJRT_Device_DefaultMemory
2025-08-13 23:25:08.079 (   6.157s) [        CA99B1C0]     client_instance.cc:509      1| ClientInstance::PJRT_Client_BufferFromHostBuffer
2025-08-13 23:25:08.079 (   6.157s) [        CA99B1C0]     memory_instance.cc:57       1| MemoryInstance::getDevice
2025-08-13 23:25:08.079 (   6.157s) [        CA99B1C0]     buffer_instance.cc:228      1| [BUFFER] Creating BORROWED host tensor with shape [3072] (semantics: ZeroCopy/other)
2025-08-13 23:25:08.079 (   6.157s) [        CA99B1C0]      event_instance.cc:222      1| EventInstance::PJRT_Event_OnReady
2025-08-13 23:25:08.079 (   6.157s) [        CA99B1C0]      event_instance.cc:171      1| EventInstance::PJRT_Event_Destroy
2025-08-13 23:25:08.079 (   6.157s) [        CA99B1C0]     device_instance.cc:82       1| DeviceInstance::PJRT_Device_DefaultMemory
2025-08-13 23:25:08.079 (   6.157s) [        CA99B1C0]     client_instance.cc:509      1| ClientInstance::PJRT_Client_BufferFromHostBuffer
2025-08-13 23:25:08.079 (   6.157s) [        CA99B1C0]     memory_instance.cc:57       1| MemoryInstance::getDevice
2025-08-13 23:25:08.079 (   6.157s) [        CA99B1C0]     buffer_instance.cc:228      1| [BUFFER] Creating BORROWED host tensor with shape [3072] (semantics: ZeroCopy/other)
2025-08-13 23:25:08.079 (   6.157s) [        CA99B1C0]      event_instance.cc:222      1| EventInstance::PJRT_Event_OnReady
2025-08-13 23:25:08.079 (   6.157s) [        CA99B1C0]      event_instance.cc:171      1| EventInstance::PJRT_Event_Destroy
2025-08-13 23:25:08.079 (   6.158s) [        CA99B1C0]  device_description.cc:44       1| DeviceDescription::PJRT_DeviceDescription_Id
2025-08-13 23:25:08.079 (   6.158s) [        CA99B1C0]  device_description.cc:44       1| DeviceDescription::PJRT_DeviceDescription_Id
2025-08-13 23:25:09.529 (   7.607s) [        CA99B1C0]     device_instance.cc:82       1| DeviceInstance::PJRT_Device_DefaultMemory
2025-08-13 23:25:09.529 (   7.607s) [        CA99B1C0]     client_instance.cc:509      1| ClientInstance::PJRT_Client_BufferFromHostBuffer
2025-08-13 23:25:09.529 (   7.607s) [        CA99B1C0]     memory_instance.cc:57       1| MemoryInstance::getDevice
2025-08-13 23:25:09.529 (   7.607s) [        CA99B1C0]     buffer_instance.cc:228      1| [BUFFER] Creating BORROWED host tensor with shape [3072, 128256] (semantics: ZeroCopy/other)
2025-08-13 23:25:09.529 (   7.607s) [        CA99B1C0]      event_instance.cc:222      1| EventInstance::PJRT_Event_OnReady
2025-08-13 23:25:09.529 (   7.607s) [        CA99B1C0]      event_instance.cc:171      1| EventInstance::PJRT_Event_Destroy
2025-08-13 23:25:09.529 (   7.607s) [        CA99B1C0]     device_instance.cc:82       1| DeviceInstance::PJRT_Device_DefaultMemory
2025-08-13 23:25:09.529 (   7.607s) [        CA99B1C0]     client_instance.cc:509      1| ClientInstance::PJRT_Client_BufferFromHostBuffer
2025-08-13 23:25:09.529 (   7.607s) [        CA99B1C0]     memory_instance.cc:57       1| MemoryInstance::getDevice
2025-08-13 23:25:09.529 (   7.607s) [        CA99B1C0]     buffer_instance.cc:228      1| [BUFFER] Creating BORROWED host tensor with shape [3072, 128256] (semantics: ZeroCopy/other)
2025-08-13 23:25:09.529 (   7.607s) [        CA99B1C0]      event_instance.cc:222      1| EventInstance::PJRT_Event_OnReady
2025-08-13 23:25:09.529 (   7.607s) [        CA99B1C0]      event_instance.cc:171      1| EventInstance::PJRT_Event_Destroy
2025-08-13 23:25:09.573 (   7.651s) [        CA99B1C0]     buffer_instance.cc:526      1| BufferInstance::PJRT_Buffer_IsDeleted
2025-08-13 23:25:09.573 (   7.651s) [        CA99B1C0]     buffer_instance.cc:526      1| BufferInstance::PJRT_Buffer_IsDeleted
2025-08-13 23:25:09.573 (   7.651s) [        CA99B1C0]     buffer_instance.cc:526      1| BufferInstance::PJRT_Buffer_IsDeleted
2025-08-13 23:25:09.573 (   7.651s) [        CA99B1C0]     buffer_instance.cc:526      1| BufferInstance::PJRT_Buffer_IsDeleted
2025-08-13 23:25:09.573 (   7.651s) [        CA99B1C0]     buffer_instance.cc:526      1| BufferInstance::PJRT_Buffer_IsDeleted
2025-08-13 23:25:09.573 (   7.651s) [        CA99B1C0]     buffer_instance.cc:526      1| BufferInstance::PJRT_Buffer_IsDeleted
2025-08-13 23:25:09.573 (   7.651s) [        CA99B1C0]     buffer_instance.cc:526      1| BufferInstance::PJRT_Buffer_IsDeleted
2025-08-13 23:25:09.573 (   7.651s) [        CA99B1C0]     buffer_instance.cc:526      1| BufferInstance::PJRT_Buffer_IsDeleted
2025-08-13 23:25:09.573 (   7.651s) [        CA99B1C0]     buffer_instance.cc:526      1| BufferInstance::PJRT_Buffer_IsDeleted
2025-08-13 23:25:09.573 (   7.651s) [        CA99B1C0]     buffer_instance.cc:526      1| BufferInstance::PJRT_Buffer_IsDeleted
2025-08-13 23:25:09.573 (   7.652s) [        CA99B1C0]     buffer_instance.cc:526      1| BufferInstance::PJRT_Buffer_IsDeleted
2025-08-13 23:25:09.573 (   7.652s) [        CA99B1C0]     buffer_instance.cc:526      1| BufferInstance::PJRT_Buffer_IsDeleted
2025-08-13 23:25:09.573 (   7.652s) [        CA99B1C0]     buffer_instance.cc:526      1| BufferInstance::PJRT_Buffer_IsDeleted
2025-08-13 23:25:09.573 (   7.652s) [        CA99B1C0]     buffer_instance.cc:526      1| BufferInstance::PJRT_Buffer_IsDeleted
2025-08-13 23:25:09.574 (   7.652s) [        CA99B1C0]     buffer_instance.cc:526      1| BufferInstance::PJRT_Buffer_IsDeleted
2025-08-13 23:25:09.574 (   7.652s) [        CA99B1C0]     buffer_instance.cc:526      1| BufferInstance::PJRT_Buffer_IsDeleted
2025-08-13 23:25:09.574 (   7.652s) [        CA99B1C0]     buffer_instance.cc:526      1| BufferInstance::PJRT_Buffer_IsDeleted
2025-08-13 23:25:09.574 (   7.652s) [        CA99B1C0]     buffer_instance.cc:526      1| BufferInstance::PJRT_Buffer_IsDeleted
2025-08-13 23:25:09.574 (   7.652s) [        CA99B1C0]     buffer_instance.cc:526      1| BufferInstance::PJRT_Buffer_IsDeleted
2025-08-13 23:25:09.574 (   7.652s) [        CA99B1C0]     buffer_instance.cc:526      1| BufferInstance::PJRT_Buffer_IsDeleted
2025-08-13 23:25:09.574 (   7.652s) [        CA99B1C0]     buffer_instance.cc:526      1| BufferInstance::PJRT_Buffer_IsDeleted
2025-08-13 23:25:09.574 (   7.652s) [        CA99B1C0]     buffer_instance.cc:526      1| BufferInstance::PJRT_Buffer_IsDeleted
2025-08-13 23:25:09.574 (   7.653s) [        CA99B1C0]     buffer_instance.cc:526      1| BufferInstance::PJRT_Buffer_IsDeleted
2025-08-13 23:25:09.574 (   7.653s) [        CA99B1C0]     buffer_instance.cc:526      1| BufferInstance::PJRT_Buffer_IsDeleted
2025-08-13 23:25:09.574 (   7.653s) [        CA99B1C0]     buffer_instance.cc:526      1| BufferInstance::PJRT_Buffer_IsDeleted
[XLA Cache]   Similar cache keys with same shape/dtype/device:
[XLA Cache]     id=140708366996864 (different from current 140708366996864)
[XLA Cache]   ---
[XLA Cache] Input 24: input_24_shape_[1, 8, 128, 128]_dtype_torch.bfloat16
[XLA Cache]   Cache key: id=140708366997104, shape=(1, 8, 128, 128), dtype=torch.bfloat16, device=xla:0
[XLA Cache]   Tensor object id: 140708366997104
[XLA Cache]   XLA tensor id: 25
[XLA Cache]   *** STATIC CACHE TENSOR DETECTED ***
[XLA Cache]   Result: CACHE MISS - added to cache
[XLA Cache]   *** CACHE MISS ANALYSIS FOR STATIC CACHE ***
[XLA Cache]   Reason: Each tensor object has unique id() = 140708366997104
[XLA Cache]   Even identical static cache tensors get different cache keys due to object identity
[XLA Cache]   Total static cache tensors in cache: 2
[XLA Cache]   Similar cache keys with same shape/dtype/device:
[XLA Cache]     id=140708366996864 (different from current 140708366997104)
[XLA Cache]     id=140708366997104 (different from current 140708366997104)
[XLA Cache]   ---
[XLA Cache] Input 25: input_25_shape_[64]_dtype_torch.float32
[XLA Cache]   Cache key: id=140708366997184, shape=(64,), dtype=torch.float32, device=xla:0
[XLA Cache]   Tensor object id: 140708366997184
[XLA Cache]   XLA tensor id: 26
[XLA Cache]   Result: CACHE MISS - added to cache
[XLA Cache]   ---
[XLA Cache] Input 26: input_26_shape_[1, 7]_dtype_torch.int64
[XLA Cache]   Cache key: id=140716024407088, shape=(1, 7), dtype=torch.int64, device=xla:0
[XLA Cache]   Tensor object id: 140716024407088
[XLA Cache]   XLA tensor id: 27
[XLA Cache]   Result: CACHE MISS - added to cache
[XLA Cache]   ---
[XLA Cache] Input 27: input_27_shape_[7]_dtype_torch.int64
[XLA Cache]   Cache key: id=140711052837008, shape=(7,), dtype=torch.int64, device=xla:0
[XLA Cache]   Tensor object id: 140711052837008
[XLA Cache]   XLA tensor id: 28
[XLA Cache]   Result: CACHE MISS - added to cache
[XLA Cache]   ---
[XLA Cache] CACHE MISSES (28): ['input_0_shape_[3072]_dtype_torch.bfloat16 (idx=0)', 'input_1_shape_[3072]_dtype_torch.bfloat16 (idx=1)', 'input_2_shape_[3072]_dtype_torch.bfloat16 (idx=2)', 'input_3_shape_[128256, 3072]_dtype_torch.bfloat16 (idx=3)', 'input_4_shape_[128]_dtype_torch.int64 (idx=4)', 'input_5_shape_[7, 128]_dtype_torch.bfloat16 (idx=5)', 'input_6_shape_[1, 64, 1]_dtype_torch.float32 (idx=6)', 'input_7_shape_[3072, 3072]_dtype_torch.bfloat16 (idx=7)', 'input_8_shape_[3072, 1024]_dtype_torch.bfloat16 (idx=8)', 'input_9_shape_[3072, 1024]_dtype_torch.bfloat16 (idx=9)', 'input_10_shape_[3072, 3072]_dtype_torch.bfloat16 (idx=10)', 'input_11_shape_[3072, 8192]_dtype_torch.bfloat16 (idx=11)', 'input_12_shape_[3072, 8192]_dtype_torch.bfloat16 (idx=12)', 'input_13_shape_[8192, 3072]_dtype_torch.bfloat16 (idx=13)', 'input_14_shape_[3072, 128256]_dtype_torch.bfloat16 (idx=14)', 'input_15_shape_[3072, 3072]_dtype_torch.bfloat16 (idx=15)', 'input_16_shape_[1024, 3072]_dtype_torch.bfloat16 (idx=16)', 'input_17_shape_[1024, 3072]_dtype_torch.bfloat16 (idx=17)', 'input_18_shape_[3072, 3072]_dtype_torch.bfloat16 (idx=18)', 'input_19_shape_[8192, 3072]_dtype_torch.bfloat16 (idx=19)', 'input_20_shape_[8192, 3072]_dtype_torch.bfloat16 (idx=20)', 'input_21_shape_[3072, 8192]_dtype_torch.bfloat16 (idx=21)', 'input_22_shape_[128256, 3072]_dtype_torch.bfloat16 (idx=22)', 'input_23_shape_[1, 8, 128, 128]_dtype_torch.bfloat16 (idx=23)', 'input_24_shape_[1, 8, 128, 128]_dtype_torch.bfloat16 (idx=24)', 'input_25_shape_[64]_dtype_torch.float32 (idx=25)', 'input_26_shape_[1, 7]_dtype_torch.int64 (idx=26)', 'input_27_shape_[7]_dtype_torch.int64 (idx=27)']
[XLA Cache] STATIC CACHE TENSORS FOUND (2):
[XLA Cache]   input_23_shape_[1, 8, 128, 128]_dtype_torch.bfloat16 -> HIT (tensor_id=140708366996864, xla_id=24)
[XLA Cache]   input_24_shape_[1, 8, 128, 128]_dtype_torch.bfloat16 -> HIT (tensor_id=140708366997104, xla_id=25)
[XLA Cache] Updated cache size: 28 unique tensors
[XLA Cache] === END CACHE ANALYSIS ===

[JAMES] StableHLO IR:
 module @IrToHlo.360 attributes {mhlo.cross_program_prefetches = [], mhlo.input_output_alias = [], mhlo.is_dynamic = false, mhlo.use_auto_spmd_partitioning = false} {
  func.func @main(%arg0: tensor<3072x128256xbf16> {mhlo.sharding = "{replicated}"}, %arg1: tensor<f32> {mhlo.sharding = "{replicated}"}, %arg2: tensor<8192x3072xbf16> {mhlo.sharding = "{replicated}"}, %arg3: tensor<3072x8192xbf16> {mhlo.sharding = "{replicated}"}, %arg4: tensor<3072x3072xbf16> {mhlo.sharding = "{replicated}"}, %arg5: tensor<3072x1024xbf16> {mhlo.sharding = "{replicated}"}, %arg6: tensor<1x7xi64> {mhlo.sharding = "{replicated}"}, %arg7: tensor<128256x3072xbf16> {mhlo.sharding = "{devices=[2,1]<=[2]}"}, %arg8: tensor<3072xbf16> {mhlo.sharding = "{replicated}"}, %arg9: tensor<7xi64> {mhlo.sharding = "{replicated}"}, %arg10: tensor<i64> {mhlo.sharding = "{replicated}"}, %arg11: tensor<1x8x128x128xbf16> {mhlo.sharding = "{replicated}"}, %arg12: tensor<128xi64> {mhlo.sharding = "{replicated}"}, %arg13: tensor<7x128xbf16> {mhlo.sharding = "{replicated}"}, %arg14: tensor<f32> {mhlo.sharding = "{replicated}"}, %arg15: tensor<1x64x1xf32> {mhlo.sharding = "{replicated}"}, %arg16: tensor<3072x1024xbf16> {mhlo.sharding = "{replicated}"}, %arg17: tensor<1x8x128x128xbf16> {mhlo.sharding = "{replicated}"}, %arg18: tensor<3072x3072xbf16> {mhlo.sharding = "{replicated}"}, %arg19: tensor<3072xbf16> {mhlo.sharding = "{replicated}"}, %arg20: tensor<3072x8192xbf16> {mhlo.sharding = "{replicated}"}, %arg21: tensor<3072xbf16> {mhlo.sharding = "{replicated}"}) -> tensor<1x7x128256xbf16> {
    %c = stablehlo.constant dense<0> : tensor<7xi64>
    %cst = stablehlo.constant dense<3.25520843E-4> : tensor<1x7xf32>
    %cst_0 = stablehlo.constant dense<2.000000e+00> : tensor<1x7x3072xf32>
    %cst_1 = stablehlo.constant dense<0xFF800000> : tensor<f32>
    %cst_2 = stablehlo.constant dense<0.000000e+00> : tensor<f32>
    %0 = stablehlo.convert %arg21 : (tensor<3072xbf16>) -> tensor<3072xf32>
    %1 = stablehlo.broadcast_in_dim %0, dims = [2] : (tensor<3072xf32>) -> tensor<1x7x3072xf32>
    %2 = stablehlo.reshape %arg6 : (tensor<1x7xi64>) -> tensor<7xi64>
    %3 = stablehlo.convert %2 : (tensor<7xi64>) -> tensor<7xui32>
    %4 = "stablehlo.gather"(%arg7, %3) <{dimension_numbers = #stablehlo.gather<offset_dims = [1], collapsed_slice_dims = [0], start_index_map = [0], index_vector_dim = 1>, indices_are_sorted = false, slice_sizes = array<i64: 1, 3072>}> : (tensor<128256x3072xbf16>, tensor<7xui32>) -> tensor<7x3072xbf16>
    %5 = stablehlo.reshape %4 : (tensor<7x3072xbf16>) -> tensor<1x7x3072xbf16>
    %6 = stablehlo.convert %arg8 : (tensor<3072xbf16>) -> tensor<3072xf32>
    %7 = stablehlo.broadcast_in_dim %6, dims = [2] : (tensor<3072xf32>) -> tensor<1x7x3072xf32>
    %8 = stablehlo.convert %5 : (tensor<1x7x3072xbf16>) -> tensor<1x7x3072xf32>
    %9 = stablehlo.power %8, %cst_0 : tensor<1x7x3072xf32>
    %10 = stablehlo.reduce(%9 init: %cst_2) applies stablehlo.add across dimensions = [2] : (tensor<1x7x3072xf32>, tensor<f32>) -> tensor<1x7xf32>
    %11 = stablehlo.multiply %10, %cst : tensor<1x7xf32>
    %12 = stablehlo.reshape %11 : (tensor<1x7xf32>) -> tensor<1x7x1xf32>
    %13 = stablehlo.broadcast_in_dim %arg1, dims = [] : (tensor<f32>) -> tensor<1x7x1xf32>
    %14 = stablehlo.add %12, %13 : tensor<1x7x1xf32>
    %15 = stablehlo.rsqrt %14 : tensor<1x7x1xf32>
    %16 = stablehlo.reshape %15 : (tensor<1x7x1xf32>) -> tensor<1x7xf32>
    %17 = stablehlo.broadcast_in_dim %16, dims = [0, 1] : (tensor<1x7xf32>) -> tensor<1x7x3072xf32>
    %18 = stablehlo.multiply %8, %17 : tensor<1x7x3072xf32>
    %19 = stablehlo.convert %18 : (tensor<1x7x3072xf32>) -> tensor<1x7x3072xbf16>
    %20 = stablehlo.convert %19 : (tensor<1x7x3072xbf16>) -> tensor<1x7x3072xf32>
    %21 = stablehlo.multiply %7, %20 : tensor<1x7x3072xf32>
    %22 = stablehlo.convert %21 : (tensor<1x7x3072xf32>) -> tensor<1x7x3072xbf16>
    %23 = stablehlo.reshape %22 : (tensor<1x7x3072xbf16>) -> tensor<7x3072xbf16>
    %24 = stablehlo.dot_general %23, %arg18, contracting_dims = [1] x [0], precision = [DEFAULT, DEFAULT] : (tensor<7x3072xbf16>, tensor<3072x3072xbf16>) -> tensor<7x3072xbf16>
    %25 = stablehlo.reshape %24 : (tensor<7x3072xbf16>) -> tensor<1x7x24x128xbf16>
    %26 = stablehlo.transpose %25, dims = [0, 2, 1, 3] {result_layout = dense<[3, 1, 2, 0]> : tensor<4xindex>, xla_shape = "bf16[1,24,7,128]{3,1,2,0}"} : (tensor<1x7x24x128xbf16>) -> tensor<1x24x7x128xbf16>
    %27 = stablehlo.convert %26 {result_layout = dense<[3, 1, 2, 0]> : tensor<4xindex>, xla_shape = "f32[1,24,7,128]{3,1,2,0}"} : (tensor<1x24x7x128xbf16>) -> tensor<1x24x7x128xf32>
    %28 = stablehlo.reshape %arg9 : (tensor<7xi64>) -> tensor<1x1x7xi64>
    %29 = stablehlo.convert %28 : (tensor<1x1x7xi64>) -> tensor<1x1x7xf32>
    %30 = stablehlo.dot_general %arg15, %29, batching_dims = [0] x [0], contracting_dims = [2] x [1], precision = [DEFAULT, DEFAULT] : (tensor<1x64x1xf32>, tensor<1x1x7xf32>) -> tensor<1x64x7xf32>
    %31 = stablehlo.transpose %30, dims = [0, 2, 1] {result_layout = dense<[1, 2, 0]> : tensor<3xindex>, xla_shape = "f32[1,7,64]{1,2,0}"} : (tensor<1x64x7xf32>) -> tensor<1x7x64xf32>
    %32 = stablehlo.concatenate %31, %31, dim = 2 : (tensor<1x7x64xf32>, tensor<1x7x64xf32>) -> tensor<1x7x128xf32>
    %33 = stablehlo.cosine %32 : tensor<1x7x128xf32>
    %34 = stablehlo.convert %33 : (tensor<1x7x128xf32>) -> tensor<1x7x128xbf16>
    %35 = stablehlo.reshape %34 : (tensor<1x7x128xbf16>) -> tensor<1x1x7x128xbf16>
    %36 = stablehlo.convert %35 : (tensor<1x1x7x128xbf16>) -> tensor<1x1x7x128xf32>
    %37 = stablehlo.reshape %36 : (tensor<1x1x7x128xf32>) -> tensor<1x7x128xf32>
    %38 = stablehlo.broadcast_in_dim %37, dims = [0, 2, 3] : (tensor<1x7x128xf32>) -> tensor<1x24x7x128xf32>
    %39 = stablehlo.multiply %27, %38 : tensor<1x24x7x128xf32>
    %40 = stablehlo.convert %39 : (tensor<1x24x7x128xf32>) -> tensor<1x24x7x128xbf16>
    %41 = stablehlo.slice %26 [0:1, 0:24, 0:7, 64:128] : (tensor<1x24x7x128xbf16>) -> tensor<1x24x7x64xbf16>
    %42 = stablehlo.negate %41 : tensor<1x24x7x64xbf16>
    %43 = stablehlo.slice %26 [0:1, 0:24, 0:7, 0:64] : (tensor<1x24x7x128xbf16>) -> tensor<1x24x7x64xbf16>
    %44 = stablehlo.concatenate %42, %43, dim = 3 : (tensor<1x24x7x64xbf16>, tensor<1x24x7x64xbf16>) -> tensor<1x24x7x128xbf16>
    %45 = stablehlo.convert %44 : (tensor<1x24x7x128xbf16>) -> tensor<1x24x7x128xf32>
    %46 = stablehlo.sine %32 : tensor<1x7x128xf32>
    %47 = stablehlo.convert %46 : (tensor<1x7x128xf32>) -> tensor<1x7x128xbf16>
    %48 = stablehlo.reshape %47 : (tensor<1x7x128xbf16>) -> tensor<1x1x7x128xbf16>
    %49 = stablehlo.convert %48 : (tensor<1x1x7x128xbf16>) -> tensor<1x1x7x128xf32>
    %50 = stablehlo.reshape %49 : (tensor<1x1x7x128xf32>) -> tensor<1x7x128xf32>
    %51 = stablehlo.broadcast_in_dim %50, dims = [0, 2, 3] : (tensor<1x7x128xf32>) -> tensor<1x24x7x128xf32>
    %52 = stablehlo.multiply %45, %51 : tensor<1x24x7x128xf32>
    %53 = stablehlo.convert %52 : (tensor<1x24x7x128xf32>) -> tensor<1x24x7x128xbf16>
    %54 = stablehlo.add %40, %53 : tensor<1x24x7x128xbf16>
    %55 = stablehlo.reshape %54 : (tensor<1x24x7x128xbf16>) -> tensor<24x7x128xbf16>
    %56 = stablehlo.compare  LT, %arg9, %c : (tensor<7xi64>, tensor<7xi64>) -> tensor<7xi1>
    %57 = stablehlo.broadcast_in_dim %arg10, dims = [] : (tensor<i64>) -> tensor<7xi64>
    %58 = stablehlo.add %arg9, %57 : tensor<7xi64>
    %59 = stablehlo.select %56, %58, %arg9 : tensor<7xi1>, tensor<7xi64>
    %60 = stablehlo.reshape %59 : (tensor<7xi64>) -> tensor<7x1xi64>
    %61 = stablehlo.dot_general %23, %arg16, contracting_dims = [1] x [0], precision = [DEFAULT, DEFAULT] : (tensor<7x3072xbf16>, tensor<3072x1024xbf16>) -> tensor<7x1024xbf16>
    %62 = stablehlo.reshape %61 : (tensor<7x1024xbf16>) -> tensor<1x7x8x128xbf16>
    %63 = stablehlo.transpose %62, dims = [0, 2, 1, 3] {result_layout = dense<[3, 1, 2, 0]> : tensor<4xindex>, xla_shape = "bf16[1,8,7,128]{3,1,2,0}"} : (tensor<1x7x8x128xbf16>) -> tensor<1x8x7x128xbf16>
    %64 = stablehlo.convert %63 {result_layout = dense<[3, 1, 2, 0]> : tensor<4xindex>, xla_shape = "f32[1,8,7,128]{3,1,2,0}"} : (tensor<1x8x7x128xbf16>) -> tensor<1x8x7x128xf32>
    %65 = stablehlo.broadcast_in_dim %37, dims = [0, 2, 3] : (tensor<1x7x128xf32>) -> tensor<1x8x7x128xf32>
    %66 = stablehlo.multiply %64, %65 : tensor<1x8x7x128xf32>
    %67 = stablehlo.convert %66 : (tensor<1x8x7x128xf32>) -> tensor<1x8x7x128xbf16>
    %68 = stablehlo.slice %63 [0:1, 0:8, 0:7, 64:128] : (tensor<1x8x7x128xbf16>) -> tensor<1x8x7x64xbf16>
    %69 = stablehlo.negate %68 : tensor<1x8x7x64xbf16>
    %70 = stablehlo.slice %63 [0:1, 0:8, 0:7, 0:64] : (tensor<1x8x7x128xbf16>) -> tensor<1x8x7x64xbf16>
    %71 = stablehlo.concatenate %69, %70, dim = 3 : (tensor<1x8x7x64xbf16>, tensor<1x8x7x64xbf16>) -> tensor<1x8x7x128xbf16>
    %72 = stablehlo.convert %71 : (tensor<1x8x7x128xbf16>) -> tensor<1x8x7x128xf32>
    %73 = stablehlo.broadcast_in_dim %50, dims = [0, 2, 3] : (tensor<1x7x128xf32>) -> tensor<1x8x7x128xf32>
    %74 = stablehlo.multiply %72, %73 : tensor<1x8x7x128xf32>
    %75 = stablehlo.convert %74 : (tensor<1x8x7x128xf32>) -> tensor<1x8x7x128xbf16>
    %76 = stablehlo.add %67, %75 : tensor<1x8x7x128xbf16>
    %77 = "stablehlo.scatter"(%arg17, %60, %76) <{indices_are_sorted = false, scatter_dimension_numbers = #stablehlo.scatter<update_window_dims = [0, 1, 3], inserted_window_dims = [2], scatter_dims_to_operand_dims = [2], index_vector_dim = 1>, unique_indices = false}> ({
    ^bb0(%arg22: tensor<bf16>, %arg23: tensor<bf16>):
      stablehlo.return %arg23 : tensor<bf16>
    }) : (tensor<1x8x128x128xbf16>, tensor<7x1xi64>, tensor<1x8x7x128xbf16>) -> tensor<1x8x128x128xbf16>
    %78 = stablehlo.broadcast_in_dim %77, dims = [0, 1, 3, 4] : (tensor<1x8x128x128xbf16>) -> tensor<1x8x3x128x128xbf16>
    %79 = stablehlo.reshape %78 : (tensor<1x8x3x128x128xbf16>) -> tensor<1x24x128x128xbf16>
    %80 = stablehlo.transpose %79, dims = [0, 1, 3, 2] {result_layout = dense<[2, 3, 1, 0]> : tensor<4xindex>, xla_shape = "bf16[1,24,128,128]{2,3,1,0}"} : (tensor<1x24x128x128xbf16>) -> tensor<1x24x128x128xbf16>
    %81 = stablehlo.reshape %80 : (tensor<1x24x128x128xbf16>) -> tensor<24x128x128xbf16>
    %82 = stablehlo.dot_general %55, %81, batching_dims = [0] x [0], contracting_dims = [2] x [1], precision = [DEFAULT, DEFAULT] : (tensor<24x7x128xbf16>, tensor<24x128x128xbf16>) -> tensor<24x7x128xbf16>
    %83 = stablehlo.reshape %82 : (tensor<24x7x128xbf16>) -> tensor<1x24x7x128xbf16>
    %84 = stablehlo.convert %83 : (tensor<1x24x7x128xbf16>) -> tensor<1x24x7x128xf32>
    %85 = stablehlo.broadcast_in_dim %arg14, dims = [] : (tensor<f32>) -> tensor<1x24x7x128xf32>
    %86 = stablehlo.multiply %84, %85 : tensor<1x24x7x128xf32>
    %87 = stablehlo.convert %86 : (tensor<1x24x7x128xf32>) -> tensor<1x24x7x128xbf16>
    %88 = stablehlo.convert %arg13 : (tensor<7x128xbf16>) -> tensor<7x128xf32>
    %89 = stablehlo.broadcast_in_dim %arg12, dims = [1] : (tensor<128xi64>) -> tensor<7x128xi64>
    %90 = stablehlo.broadcast_in_dim %arg9, dims = [0] : (tensor<7xi64>) -> tensor<7x128xi64>
    %91 = stablehlo.compare  GT, %89, %90 : (tensor<7x128xi64>, tensor<7x128xi64>) -> tensor<7x128xi1>
    %92 = stablehlo.convert %91 : (tensor<7x128xi1>) -> tensor<7x128xf32>
    %93 = stablehlo.multiply %88, %92 : tensor<7x128xf32>
    %94 = stablehlo.convert %93 : (tensor<7x128xf32>) -> tensor<7x128xbf16>
    %95 = stablehlo.reshape %94 : (tensor<7x128xbf16>) -> tensor<1x7x128xbf16>
    %96 = stablehlo.broadcast_in_dim %95, dims = [0, 2, 3] : (tensor<1x7x128xbf16>) -> tensor<1x24x7x128xbf16>
    %97 = stablehlo.add %87, %96 : tensor<1x24x7x128xbf16>
    %98 = stablehlo.convert %97 : (tensor<1x24x7x128xbf16>) -> tensor<1x24x7x128xf32>
    %99 = stablehlo.reduce(%98 init: %cst_1) applies stablehlo.maximum across dimensions = [3] : (tensor<1x24x7x128xf32>, tensor<f32>) -> tensor<1x24x7xf32>
    %100 = stablehlo.broadcast_in_dim %99, dims = [0, 1, 2] : (tensor<1x24x7xf32>) -> tensor<1x24x7x128xf32>
    %101 = stablehlo.subtract %98, %100 : tensor<1x24x7x128xf32>
    %102 = stablehlo.exponential %101 : tensor<1x24x7x128xf32>
    %103 = stablehlo.reduce(%102 init: %cst_2) applies stablehlo.add across dimensions = [3] : (tensor<1x24x7x128xf32>, tensor<f32>) -> tensor<1x24x7xf32>
    %104 = stablehlo.broadcast_in_dim %103, dims = [0, 1, 2] : (tensor<1x24x7xf32>) -> tensor<1x24x7x128xf32>
    %105 = stablehlo.divide %102, %104 : tensor<1x24x7x128xf32>
    %106 = stablehlo.convert %105 : (tensor<1x24x7x128xf32>) -> tensor<1x24x7x128xbf16>
    %107 = stablehlo.reshape %106 : (tensor<1x24x7x128xbf16>) -> tensor<24x7x128xbf16>
    %108 = stablehlo.dot_general %23, %arg5, contracting_dims = [1] x [0], precision = [DEFAULT, DEFAULT] : (tensor<7x3072xbf16>, tensor<3072x1024xbf16>) -> tensor<7x1024xbf16>
    %109 = stablehlo.reshape %108 : (tensor<7x1024xbf16>) -> tensor<1x7x8x128xbf16>
    %110 = stablehlo.transpose %109, dims = [0, 2, 1, 3] {result_layout = dense<[3, 1, 2, 0]> : tensor<4xindex>, xla_shape = "bf16[1,8,7,128]{3,1,2,0}"} : (tensor<1x7x8x128xbf16>) -> tensor<1x8x7x128xbf16>
    %111 = "stablehlo.scatter"(%arg11, %60, %110) <{indices_are_sorted = false, scatter_dimension_numbers = #stablehlo.scatter<update_window_dims = [0, 1, 3], inserted_window_dims = [2], scatter_dims_to_operand_dims = [2], index_vector_dim = 1>, unique_indices = false}> ({
    ^bb0(%arg22: tensor<bf16>, %arg23: tensor<bf16>):
      stablehlo.return %arg23 : tensor<bf16>
    }) : (tensor<1x8x128x128xbf16>, tensor<7x1xi64>, tensor<1x8x7x128xbf16>) -> tensor<1x8x128x128xbf16>
    %112 = stablehlo.broadcast_in_dim %111, dims = [0, 1, 3, 4] : (tensor<1x8x128x128xbf16>) -> tensor<1x8x3x128x128xbf16>
    %113 = stablehlo.reshape %112 : (tensor<1x8x3x128x128xbf16>) -> tensor<24x128x128xbf16>
    %114 = stablehlo.dot_general %107, %113, batching_dims = [0] x [0], contracting_dims = [2] x [1], precision = [DEFAULT, DEFAULT] : (tensor<24x7x128xbf16>, tensor<24x128x128xbf16>) -> tensor<24x7x128xbf16>
    %115 = stablehlo.reshape %114 : (tensor<24x7x128xbf16>) -> tensor<1x24x7x128xbf16>
    %116 = stablehlo.transpose %115, dims = [0, 2, 1, 3] {result_layout = dense<[3, 1, 2, 0]> : tensor<4xindex>, xla_shape = "bf16[1,7,24,128]{3,1,2,0}"} : (tensor<1x24x7x128xbf16>) -> tensor<1x7x24x128xbf16>
    %117 = stablehlo.reshape %116 : (tensor<1x7x24x128xbf16>) -> tensor<7x3072xbf16>
    %118 = stablehlo.dot_general %117, %arg4, contracting_dims = [1] x [0], precision = [DEFAULT, DEFAULT] : (tensor<7x3072xbf16>, tensor<3072x3072xbf16>) -> tensor<7x3072xbf16>
    %119 = stablehlo.reshape %118 : (tensor<7x3072xbf16>) -> tensor<1x7x3072xbf16>
    %120 = stablehlo.add %5, %119 : tensor<1x7x3072xbf16>
    %121 = stablehlo.convert %arg19 : (tensor<3072xbf16>) -> tensor<3072xf32>
    %122 = stablehlo.broadcast_in_dim %121, dims = [2] : (tensor<3072xf32>) -> tensor<1x7x3072xf32>
    %123 = stablehlo.convert %120 : (tensor<1x7x3072xbf16>) -> tensor<1x7x3072xf32>
    %124 = stablehlo.power %123, %cst_0 : tensor<1x7x3072xf32>
    %125 = stablehlo.reduce(%124 init: %cst_2) applies stablehlo.add across dimensions = [2] : (tensor<1x7x3072xf32>, tensor<f32>) -> tensor<1x7xf32>
    %126 = stablehlo.multiply %125, %cst : tensor<1x7xf32>
    %127 = stablehlo.reshape %126 : (tensor<1x7xf32>) -> tensor<1x7x1xf32>
    %128 = stablehlo.add %127, %13 : tensor<1x7x1xf32>
    %129 = stablehlo.rsqrt %128 : tensor<1x7x1xf32>
    %130 = stablehlo.reshape %129 : (tensor<1x7x1xf32>) -> tensor<1x7xf32>
    %131 = stablehlo.broadcast_in_dim %130, dims = [0, 1] : (tensor<1x7xf32>) -> tensor<1x7x3072xf32>
    %132 = stablehlo.multiply %123, %131 : tensor<1x7x3072xf32>
    %133 = stablehlo.convert %132 : (tensor<1x7x3072xf32>) -> tensor<1x7x3072xbf16>
    %134 = stablehlo.convert %133 : (tensor<1x7x3072xbf16>) -> tensor<1x7x3072xf32>
    %135 = stablehlo.multiply %122, %134 : tensor<1x7x3072xf32>
    %136 = stablehlo.convert %135 : (tensor<1x7x3072xf32>) -> tensor<1x7x3072xbf16>
    %137 = stablehlo.reshape %136 : (tensor<1x7x3072xbf16>) -> tensor<7x3072xbf16>
    %138 = stablehlo.dot_general %137, %arg20, contracting_dims = [1] x [0], precision = [DEFAULT, DEFAULT] : (tensor<7x3072xbf16>, tensor<3072x8192xbf16>) -> tensor<7x8192xbf16>
    %139 = stablehlo.reshape %138 : (tensor<7x8192xbf16>) -> tensor<1x7x8192xbf16>
    %140 = stablehlo.convert %139 : (tensor<1x7x8192xbf16>) -> tensor<1x7x8192xf32>
    %141 = stablehlo.logistic %139 : tensor<1x7x8192xbf16>
    %142 = stablehlo.convert %141 : (tensor<1x7x8192xbf16>) -> tensor<1x7x8192xf32>
    %143 = stablehlo.multiply %140, %142 : tensor<1x7x8192xf32>
    %144 = stablehlo.convert %143 : (tensor<1x7x8192xf32>) -> tensor<1x7x8192xbf16>
    %145 = stablehlo.convert %144 : (tensor<1x7x8192xbf16>) -> tensor<1x7x8192xf32>
    %146 = stablehlo.dot_general %137, %arg3, contracting_dims = [1] x [0], precision = [DEFAULT, DEFAULT] : (tensor<7x3072xbf16>, tensor<3072x8192xbf16>) -> tensor<7x8192xbf16>
    %147 = stablehlo.reshape %146 : (tensor<7x8192xbf16>) -> tensor<1x7x8192xbf16>
    %148 = stablehlo.convert %147 : (tensor<1x7x8192xbf16>) -> tensor<1x7x8192xf32>
    %149 = stablehlo.multiply %145, %148 : tensor<1x7x8192xf32>
    %150 = stablehlo.convert %149 : (tensor<1x7x8192xf32>) -> tensor<1x7x8192xbf16>
    %151 = stablehlo.reshape %150 : (tensor<1x7x8192xbf16>) -> tensor<7x8192xbf16>
    %152 = stablehlo.dot_general %151, %arg2, contracting_dims = [1] x [0], precision = [DEFAULT, DEFAULT] : (tensor<7x8192xbf16>, tensor<8192x3072xbf16>) -> tensor<7x3072xbf16>
    %153 = stablehlo.reshape %152 : (tensor<7x3072xbf16>) -> tensor<1x7x3072xbf16>
    %154 = stablehlo.add %120, %153 : tensor<1x7x3072xbf16>
    %155 = stablehlo.convert %154 : (tensor<1x7x3072xbf16>) -> tensor<1x7x3072xf32>
    %156 = stablehlo.power %155, %cst_0 : tensor<1x7x3072xf32>
    %157 = stablehlo.reduce(%156 init: %cst_2) applies stablehlo.add across dimensions = [2] : (tensor<1x7x3072xf32>, tensor<f32>) -> tensor<1x7xf32>
    %158 = stablehlo.multiply %157, %cst : tensor<1x7xf32>
    %159 = stablehlo.reshape %158 : (tensor<1x7xf32>) -> tensor<1x7x1xf32>
    %160 = stablehlo.add %159, %13 : tensor<1x7x1xf32>
    %161 = stablehlo.rsqrt %160 : tensor<1x7x1xf32>
    %162 = stablehlo.reshape %161 : (tensor<1x7x1xf32>) -> tensor<1x7xf32>
    %163 = stablehlo.broadcast_in_dim %162, dims = [0, 1] : (tensor<1x7xf32>) -> tensor<1x7x3072xf32>
    %164 = stablehlo.multiply %155, %163 : tensor<1x7x3072xf32>
    %165 = stablehlo.convert %164 : (tensor<1x7x3072xf32>) -> tensor<1x7x3072xbf16>
    %166 = stablehlo.convert %165 : (tensor<1x7x3072xbf16>) -> tensor<1x7x3072xf32>
    %167 = stablehlo.multiply %1, %166 : tensor<1x7x3072xf32>
    %168 = stablehlo.convert %167 : (tensor<1x7x3072xf32>) -> tensor<1x7x3072xbf16>
    %169 = stablehlo.reshape %168 : (tensor<1x7x3072xbf16>) -> tensor<7x3072xbf16>
    %170 = stablehlo.dot_general %169, %arg0, contracting_dims = [1] x [0], precision = [DEFAULT, DEFAULT] : (tensor<7x3072xbf16>, tensor<3072x128256xbf16>) -> tensor<7x128256xbf16>
    %171 = stablehlo.reshape %170 : (tensor<7x128256xbf16>) -> tensor<1x7x128256xbf16>
    return %171 : tensor<1x7x128256xbf16>
  }
}

2025-08-13 23:25:09.590 (   7.668s) [        CA99B1C0]     buffer_instance.cc:526      1| BufferInstance::PJRT_Buffer_IsDeleted
2025-08-13 23:25:09.590 (   7.668s) [        CA99B1C0]     buffer_instance.cc:526      1| BufferInstance::PJRT_Buffer_IsDeleted
2025-08-13 23:25:09.590 (   7.668s) [        CA99B1C0]     buffer_instance.cc:526      1| BufferInstance::PJRT_Buffer_IsDeleted
2025-08-13 23:25:09.590 (   7.668s) [        CA99B1C0]     buffer_instance.cc:526      1| BufferInstance::PJRT_Buffer_IsDeleted
2025-08-13 23:25:09.590 (   7.668s) [        CA99B1C0]     buffer_instance.cc:526      1| BufferInstance::PJRT_Buffer_IsDeleted
2025-08-13 23:25:09.590 (   7.668s) [        CA99B1C0]     buffer_instance.cc:526      1| BufferInstance::PJRT_Buffer_IsDeleted
2025-08-13 23:25:09.590 (   7.668s) [        CA99B1C0]     buffer_instance.cc:526      1| BufferInstance::PJRT_Buffer_IsDeleted
2025-08-13 23:25:09.590 (   7.668s) [        CA99B1C0]     buffer_instance.cc:526      1| BufferInstance::PJRT_Buffer_IsDeleted
2025-08-13 23:25:09.590 (   7.668s) [        CA99B1C0]     buffer_instance.cc:526      1| BufferInstance::PJRT_Buffer_IsDeleted
2025-08-13 23:25:09.590 (   7.668s) [        CA99B1C0]     buffer_instance.cc:526      1| BufferInstance::PJRT_Buffer_IsDeleted
2025-08-13 23:25:09.590 (   7.668s) [        CA99B1C0]     buffer_instance.cc:526      1| BufferInstance::PJRT_Buffer_IsDeleted
2025-08-13 23:25:09.590 (   7.668s) [        CA99B1C0]     buffer_instance.cc:526      1| BufferInstance::PJRT_Buffer_IsDeleted
2025-08-13 23:25:09.590 (   7.668s) [        CA99B1C0]     buffer_instance.cc:526      1| BufferInstance::PJRT_Buffer_IsDeleted
2025-08-13 23:25:09.590 (   7.668s) [        CA99B1C0]     buffer_instance.cc:526      1| BufferInstance::PJRT_Buffer_IsDeleted
2025-08-13 23:25:09.590 (   7.668s) [        CA99B1C0]     buffer_instance.cc:526      1| BufferInstance::PJRT_Buffer_IsDeleted
2025-08-13 23:25:09.590 (   7.668s) [        CA99B1C0]     buffer_instance.cc:526      1| BufferInstance::PJRT_Buffer_IsDeleted
2025-08-13 23:25:09.590 (   7.668s) [        CA99B1C0]     buffer_instance.cc:526      1| BufferInstance::PJRT_Buffer_IsDeleted
2025-08-13 23:25:09.590 (   7.668s) [        CA99B1C0]     buffer_instance.cc:526      1| BufferInstance::PJRT_Buffer_IsDeleted
2025-08-13 23:25:09.590 (   7.668s) [        CA99B1C0]     buffer_instance.cc:526      1| BufferInstance::PJRT_Buffer_IsDeleted
2025-08-13 23:25:09.590 (   7.668s) [        CA99B1C0]     buffer_instance.cc:526      1| BufferInstance::PJRT_Buffer_IsDeleted
2025-08-13 23:25:09.590 (   7.668s) [        CA99B1C0]     buffer_instance.cc:526      1| BufferInstance::PJRT_Buffer_IsDeleted
2025-08-13 23:25:09.590 (   7.668s) [        CA99B1C0]     buffer_instance.cc:526      1| BufferInstance::PJRT_Buffer_IsDeleted
2025-08-13 23:25:09.590 (   7.668s) [        CA99B1C0]     buffer_instance.cc:526      1| BufferInstance::PJRT_Buffer_IsDeleted
2025-08-13 23:25:09.590 (   7.668s) [        CA99B1C0]     buffer_instance.cc:526      1| BufferInstance::PJRT_Buffer_IsDeleted
2025-08-13 23:25:09.590 (   7.668s) [        CA99B1C0]     buffer_instance.cc:526      1| BufferInstance::PJRT_Buffer_IsDeleted
Hlo input positions pre normalization [15, 219, 14, 13, 11, 10, 27, 23, 1, 28, -1, 25, 5, 6, 151, 7, 9, 24, 8, 2, 12, 3]
Hlo input positions post normalization [16, 220, 15, 14, 12, 11, 28, 24, 2, 29, 0, 26, 6, 7, 152, 8, 10, 25, 9, 3, 13, 4]
[JAMES] setting arg ref map to  refs=140715232196096,constant_unknown,140715232198496,140711049673152,140711049674112,140711049670912,constant_unknown,140716026145072,140715231682672,constant_unknown,140715232198416,user_input,140711049674512,140711049674672,constant_unknown,140711049668032,140711049667872,140716026202448,140711049670752,140715232188816,140711049674272,140711049670192
2025-08-13 23:25:09.590 (   7.669s) [        CA99B1C0]  device_description.cc:44       1| DeviceDescription::PJRT_DeviceDescription_Id
2025-08-13 23:25:09.590 (   7.669s) [        CA99B1C0]  device_description.cc:44       1| DeviceDescription::PJRT_DeviceDescription_Id
2025-08-13 23:25:09.590 (   7.669s) [        CA99B1C0]     device_instance.cc:82       1| DeviceInstance::PJRT_Device_DefaultMemory
2025-08-13 23:25:09.590 (   7.669s) [        CA99B1C0]     client_instance.cc:509      1| ClientInstance::PJRT_Client_BufferFromHostBuffer
2025-08-13 23:25:09.590 (   7.669s) [        CA99B1C0]     memory_instance.cc:57       1| MemoryInstance::getDevice
2025-08-13 23:25:09.591 (   7.669s) [        CA99B1C0]     buffer_instance.cc:228      1| [BUFFER] Creating BORROWED host tensor with shape [64] (semantics: ZeroCopy/other)
2025-08-13 23:25:09.591 (   7.669s) [        CA99B1C0]      event_instance.cc:222      1| EventInstance::PJRT_Event_OnReady
2025-08-13 23:25:09.591 (   7.669s) [        CA99B1C0]      event_instance.cc:171      1| EventInstance::PJRT_Event_Destroy
2025-08-13 23:25:09.591 (   7.669s) [        CA99B1C0]     device_instance.cc:82       1| DeviceInstance::PJRT_Device_DefaultMemory
2025-08-13 23:25:09.591 (   7.669s) [        CA99B1C0]     client_instance.cc:509      1| ClientInstance::PJRT_Client_BufferFromHostBuffer
2025-08-13 23:25:09.591 (   7.669s) [        CA99B1C0]     memory_instance.cc:57       1| MemoryInstance::getDevice
2025-08-13 23:25:09.591 (   7.669s) [        CA99B1C0]     buffer_instance.cc:228      1| [BUFFER] Creating BORROWED host tensor with shape [64] (semantics: ZeroCopy/other)
2025-08-13 23:25:09.591 (   7.669s) [        CA99B1C0]      event_instance.cc:222      1| EventInstance::PJRT_Event_OnReady
2025-08-13 23:25:09.591 (   7.669s) [        CA99B1C0]      event_instance.cc:171      1| EventInstance::PJRT_Event_Destroy
2025-08-13 23:25:09.591 (   7.669s) [        CA99B1C0]     buffer_instance.cc:526      1| BufferInstance::PJRT_Buffer_IsDeleted
2025-08-13 23:25:09.591 (   7.669s) [        CA99B1C0]     buffer_instance.cc:526      1| BufferInstance::PJRT_Buffer_IsDeleted
2025-08-13 23:25:09.591 (   7.669s) [        CA99B1C0]     buffer_instance.cc:526      1| BufferInstance::PJRT_Buffer_IsDeleted
2025-08-13 23:25:09.591 (   7.669s) [        CA99B1C0]     buffer_instance.cc:526      1| BufferInstance::PJRT_Buffer_IsDeleted
2025-08-13 23:25:09.591 (   7.669s) [        CA99B1C0]     buffer_instance.cc:526      1| BufferInstance::PJRT_Buffer_IsDeleted
2025-08-13 23:25:09.591 (   7.669s) [        CA99B1C0]     buffer_instance.cc:526      1| BufferInstance::PJRT_Buffer_IsDeleted
2025-08-13 23:25:09.591 (   7.669s) [        CA99B1C0]     buffer_instance.cc:526      1| BufferInstance::PJRT_Buffer_IsDeleted
2025-08-13 23:25:09.591 (   7.669s) [        CA99B1C0]     buffer_instance.cc:526      1| BufferInstance::PJRT_Buffer_IsDeleted
2025-08-13 23:25:09.591 (   7.669s) [        CA99B1C0]     buffer_instance.cc:526      1| BufferInstance::PJRT_Buffer_IsDeleted
2025-08-13 23:25:09.591 (   7.669s) [        CA99B1C0]     buffer_instance.cc:526      1| BufferInstance::PJRT_Buffer_IsDeleted
2025-08-13 23:25:09.591 (   7.669s) [        CA99B1C0]     buffer_instance.cc:526      1| BufferInstance::PJRT_Buffer_IsDeleted
2025-08-13 23:25:09.591 (   7.669s) [        CA99B1C0]     buffer_instance.cc:526      1| BufferInstance::PJRT_Buffer_IsDeleted
2025-08-13 23:25:09.591 (   7.669s) [        CA99B1C0]     buffer_instance.cc:526      1| BufferInstance::PJRT_Buffer_IsDeleted
2025-08-13 23:25:09.591 (   7.669s) [        CA99B1C0]     buffer_instance.cc:526      1| BufferInstance::PJRT_Buffer_IsDeleted
2025-08-13 23:25:09.591 (   7.669s) [        CA99B1C0]     buffer_instance.cc:526      1| BufferInstance::PJRT_Buffer_IsDeleted
2025-08-13 23:25:09.591 (   7.669s) [        CA99B1C0]     buffer_instance.cc:526      1| BufferInstance::PJRT_Buffer_IsDeleted
2025-08-13 23:25:09.591 (   7.669s) [        CA99B1C0]     buffer_instance.cc:526      1| BufferInstance::PJRT_Buffer_IsDeleted
2025-08-13 23:25:09.591 (   7.669s) [        CA99B1C0]     buffer_instance.cc:526      1| BufferInstance::PJRT_Buffer_IsDeleted
2025-08-13 23:25:09.591 (   7.669s) [        CA99B1C0]     buffer_instance.cc:526      1| BufferInstance::PJRT_Buffer_IsDeleted
2025-08-13 23:25:09.591 (   7.669s) [        CA99B1C0]     buffer_instance.cc:526      1| BufferInstance::PJRT_Buffer_IsDeleted
2025-08-13 23:25:09.591 (   7.669s) [        CA99B1C0]     buffer_instance.cc:526      1| BufferInstance::PJRT_Buffer_IsDeleted
2025-08-13 23:25:09.591 (   7.669s) [        CA99B1C0]     buffer_instance.cc:526      1| BufferInstance::PJRT_Buffer_IsDeleted
2025-08-13 23:25:09.591 (   7.669s) [        CA99B1C0]     buffer_instance.cc:526      1| BufferInstance::PJRT_Buffer_IsDeleted
2025-08-13 23:25:09.591 (   7.669s) [        CA99B1C0]     buffer_instance.cc:526      1| BufferInstance::PJRT_Buffer_IsDeleted
2025-08-13 23:25:09.591 (   7.669s) [        CA99B1C0]     buffer_instance.cc:526      1| BufferInstance::PJRT_Buffer_IsDeleted
2025-08-13 23:25:09.591 (   7.669s) [        CA99B1C0]     buffer_instance.cc:526      1| BufferInstance::PJRT_Buffer_IsDeleted
2025-08-13 23:25:09.591 (   7.669s) [        CA99B1C0]     buffer_instance.cc:526      1| BufferInstance::PJRT_Buffer_IsDeleted
2025-08-13 23:25:09.591 (   7.669s) [        CA99B1C0]     buffer_instance.cc:526      1| BufferInstance::PJRT_Buffer_IsDeleted
2025-08-13 23:25:09.591 (   7.669s) [        CA99B1C0]     buffer_instance.cc:526      1| BufferInstance::PJRT_Buffer_IsDeleted
2025-08-13 23:25:09.591 (   7.669s) [        CA99B1C0]     buffer_instance.cc:526      1| BufferInstance::PJRT_Buffer_IsDeleted
2025-08-13 23:25:09.591 (   7.669s) [        CA99B1C0]     buffer_instance.cc:526      1| BufferInstance::PJRT_Buffer_IsDeleted
2025-08-13 23:25:09.591 (   7.669s) [        CA99B1C0]     buffer_instance.cc:526      1| BufferInstance::PJRT_Buffer_IsDeleted
2025-08-13 23:25:09.591 (   7.669s) [        CA99B1C0]     buffer_instance.cc:526      1| BufferInstance::PJRT_Buffer_IsDeleted
2025-08-13 23:25:09.591 (   7.669s) [        CA99B1C0]     buffer_instance.cc:526      1| BufferInstance::PJRT_Buffer_IsDeleted
2025-08-13 23:25:09.591 (   7.669s) [        CA99B1C0]     buffer_instance.cc:526      1| BufferInstance::PJRT_Buffer_IsDeleted
2025-08-13 23:25:09.591 (   7.669s) [        CA99B1C0]     buffer_instance.cc:526      1| BufferInstance::PJRT_Buffer_IsDeleted
2025-08-13 23:25:09.591 (   7.669s) [        CA99B1C0]     buffer_instance.cc:526      1| BufferInstance::PJRT_Buffer_IsDeleted
2025-08-13 23:25:09.591 (   7.669s) [        CA99B1C0]     buffer_instance.cc:526      1| BufferInstance::PJRT_Buffer_IsDeleted
2025-08-13 23:25:09.591 (   7.669s) [        CA99B1C0]     buffer_instance.cc:526      1| BufferInstance::PJRT_Buffer_IsDeleted
2025-08-13 23:25:09.591 (   7.669s) [        CA99B1C0]     buffer_instance.cc:526      1| BufferInstance::PJRT_Buffer_IsDeleted
2025-08-13 23:25:09.591 (   7.669s) [        CA99B1C0]     buffer_instance.cc:526      1| BufferInstance::PJRT_Buffer_IsDeleted
2025-08-13 23:25:09.591 (   7.669s) [        CA99B1C0]     buffer_instance.cc:526      1| BufferInstance::PJRT_Buffer_IsDeleted
2025-08-13 23:25:09.591 (   7.669s) [        CA99B1C0]     buffer_instance.cc:526      1| BufferInstance::PJRT_Buffer_IsDeleted
2025-08-13 23:25:09.591 (   7.669s) [        CA99B1C0]     buffer_instance.cc:526      1| BufferInstance::PJRT_Buffer_IsDeleted
2025-08-13 23:25:09.591 (   7.669s) [        CA99B1C0]     buffer_instance.cc:526      1| BufferInstance::PJRT_Buffer_IsDeleted
2025-08-13 23:25:09.591 (   7.669s) [        CA99B1C0]     buffer_instance.cc:526      1| BufferInstance::PJRT_Buffer_IsDeleted
2025-08-13 23:25:09.591 (   7.669s) [        CA99B1C0]     buffer_instance.cc:526      1| BufferInstance::PJRT_Buffer_IsDeleted
2025-08-13 23:25:09.591 (   7.669s) [        CA99B1C0]     buffer_instance.cc:526      1| BufferInstance::PJRT_Buffer_IsDeleted
2025-08-13 23:25:09.591 (   7.669s) [        CA99B1C0]     buffer_instance.cc:526      1| BufferInstance::PJRT_Buffer_IsDeleted
2025-08-13 23:25:09.591 (   7.669s) [        CA99B1C0]     buffer_instance.cc:526      1| BufferInstance::PJRT_Buffer_IsDeleted
2025-08-13 23:25:09.591 (   7.669s) [        CA99B1C0]     buffer_instance.cc:526      1| BufferInstance::PJRT_Buffer_IsDeleted
2025-08-13 23:25:09.591 (   7.669s) [        CA99B1C0]     buffer_instance.cc:526      1| BufferInstance::PJRT_Buffer_IsDeleted
2025-08-13 23:25:09.591 (   7.669s) [        CA99B1C0]     buffer_instance.cc:526      1| BufferInstance::PJRT_Buffer_IsDeleted
2025-08-13 23:25:09.591 (   7.669s) [        CA99B1C0]     buffer_instance.cc:526      1| BufferInstance::PJRT_Buffer_IsDeleted
2025-08-13 23:25:09.591 (   7.669s) [        CA99B1C0]     buffer_instance.cc:526      1| BufferInstance::PJRT_Buffer_IsDeleted
2025-08-13 23:25:09.591 (   7.669s) [        CA99B1C0]     buffer_instance.cc:526      1| BufferInstance::PJRT_Buffer_IsDeleted
2025-08-13 23:25:09.591 (   7.669s) [        CA99B1C0]     buffer_instance.cc:526      1| BufferInstance::PJRT_Buffer_IsDeleted
2025-08-13 23:25:09.591 (   7.669s) [        CA99B1C0]     buffer_instance.cc:526      1| BufferInstance::PJRT_Buffer_IsDeleted
2025-08-13 23:25:09.591 (   7.669s) [        CA99B1C0]     buffer_instance.cc:526      1| BufferInstance::PJRT_Buffer_IsDeleted
2025-08-13 23:25:09.591 (   7.669s) [        CA99B1C0]     buffer_instance.cc:526      1| BufferInstance::PJRT_Buffer_IsDeleted
2025-08-13 23:25:09.591 (   7.669s) [        CA99B1C0]     buffer_instance.cc:526      1| BufferInstance::PJRT_Buffer_IsDeleted
2025-08-13 23:25:09.591 (   7.669s) [        CA99B1C0]     buffer_instance.cc:526      1| BufferInstance::PJRT_Buffer_IsDeleted
2025-08-13 23:25:09.591 (   7.669s) [        CA99B1C0]     buffer_instance.cc:526      1| BufferInstance::PJRT_Buffer_IsDeleted
2025-08-13 23:25:09.591 (   7.669s) [        CA99B1C0]     buffer_instance.cc:526      1| BufferInstance::PJRT_Buffer_IsDeleted
2025-08-13 23:25:09.591 (   7.669s) [        CA99B1C0]     buffer_instance.cc:526      1| BufferInstance::PJRT_Buffer_IsDeleted
2025-08-13 23:25:09.591 (   7.669s) [        CA99B1C0]     buffer_instance.cc:526      1| BufferInstance::PJRT_Buffer_IsDeleted
2025-08-13 23:25:09.591 (   7.669s) [        CA99B1C0]     buffer_instance.cc:526      1| BufferInstance::PJRT_Buffer_IsDeleted
2025-08-13 23:25:09.591 (   7.669s) [        CA99B1C0]     buffer_instance.cc:526      1| BufferInstance::PJRT_Buffer_IsDeleted
2025-08-13 23:25:09.591 (   7.669s) [        CA99B1C0]     buffer_instance.cc:526      1| BufferInstance::PJRT_Buffer_IsDeleted
2025-08-13 23:25:09.591 (   7.669s) [        CA99B1C0]     buffer_instance.cc:526      1| BufferInstance::PJRT_Buffer_IsDeleted
2025-08-13 23:25:09.591 (   7.669s) [        CA99B1C0]     buffer_instance.cc:526      1| BufferInstance::PJRT_Buffer_IsDeleted
2025-08-13 23:25:09.591 (   7.669s) [        CA99B1C0]     buffer_instance.cc:526      1| BufferInstance::PJRT_Buffer_IsDeleted
2025-08-13 23:25:09.591 (   7.669s) [        CA99B1C0]     buffer_instance.cc:526      1| BufferInstance::PJRT_Buffer_IsDeleted
…
<1x256x!ttcore.tile<32x32, f32>, #ttnn.buffer_type<dram>>, <interleaved>>>
        "ttnn.deallocate"(%144) <{force = false}> : (tensor<1x8192xf32, #ttnn.ttnn_layout<(d0, d1) -> (d0, d1), <1x1>, memref<1x256x!ttcore.tile<32x32, f32>, #ttnn.buffer_type<dram>>, <interleaved>>>) -> ()
        "ttnn.deallocate"(%142) <{force = false}> : (tensor<1x8192xf32, #ttnn.ttnn_layout<(d0, d1) -> (d0, d1), <1x1>, memref<1x256x!ttcore.tile<32x32, f32>, #ttnn.buffer_type<dram>>, <interleaved>>>) -> ()
        %146 = "ttnn.typecast"(%145) <{dtype = #ttcore.supportedDataTypes<bf16>}> : (tensor<1x8192xf32, #ttnn.ttnn_layout<(d0, d1) -> (d0, d1), <1x1>, memref<1x256x!ttcore.tile<32x32, f32>, #ttnn.buffer_type<dram>>, <interleaved>>>) -> tensor<1x8192xbf16, #ttnn.ttnn_layout<(d0, d1) -> (d0, d1), <1x1>, memref<1x256x!ttcore.tile<32x32, bf16>, #ttnn.buffer_type<dram>>, <interleaved>>>
        "ttnn.deallocate"(%145) <{force = false}> : (tensor<1x8192xf32, #ttnn.ttnn_layout<(d0, d1) -> (d0, d1), <1x1>, memref<1x256x!ttcore.tile<32x32, f32>, #ttnn.buffer_type<dram>>, <interleaved>>>) -> ()
        %147 = "ttnn.matmul"(%146, %14) <{transpose_a = false, transpose_b = false}> : (tensor<1x8192xbf16, #ttnn.ttnn_layout<(d0, d1) -> (d0, d1), <1x1>, memref<1x256x!ttcore.tile<32x32, bf16>, #ttnn.buffer_type<dram>>, <interleaved>>>, tensor<8192x3072xbf16, #ttnn.ttnn_layout<(d0, d1) -> (d0, d1), <1x1>, memref<256x96x!ttcore.tile<32x32, bf16>, #ttnn.buffer_type<dram>>, <interleaved>>>) -> tensor<1x3072xbf16, #ttnn.ttnn_layout<(d0, d1) -> (d0, d1), <1x1>, memref<1x96x!ttcore.tile<32x32, bf16>, #ttnn.buffer_type<dram>>, <interleaved>>>
        "ttnn.deallocate"(%146) <{force = false}> : (tensor<1x8192xbf16, #ttnn.ttnn_layout<(d0, d1) -> (d0, d1), <1x1>, memref<1x256x!ttcore.tile<32x32, bf16>, #ttnn.buffer_type<dram>>, <interleaved>>>) -> ()
        "ttnn.deallocate"(%14) <{force = false}> : (tensor<8192x3072xbf16, #ttnn.ttnn_layout<(d0, d1) -> (d0, d1), <1x1>, memref<256x96x!ttcore.tile<32x32, bf16>, #ttnn.buffer_type<dram>>, <interleaved>>>) -> ()
        %148 = "ttnn.add"(%124, %147) <{output_dtype = #ttcore.supportedDataTypes<bf16>}> : (tensor<1x3072xbf16, #ttnn.ttnn_layout<(d0, d1) -> (d0, d1), <1x1>, memref<1x96x!ttcore.tile<32x32, bf16>, #ttnn.buffer_type<dram>>, <interleaved>>>, tensor<1x3072xbf16, #ttnn.ttnn_layout<(d0, d1) -> (d0, d1), <1x1>, memref<1x96x!ttcore.tile<32x32, bf16>, #ttnn.buffer_type<dram>>, <interleaved>>>) -> tensor<1x3072xbf16, #ttnn.ttnn_layout<(d0, d1) -> (d0, d1), <1x1>, memref<1x96x!ttcore.tile<32x32, bf16>, #ttnn.buffer_type<dram>>, <interleaved>>>
        "ttnn.deallocate"(%147) <{force = false}> : (tensor<1x3072xbf16, #ttnn.ttnn_layout<(d0, d1) -> (d0, d1), <1x1>, memref<1x96x!ttcore.tile<32x32, bf16>, #ttnn.buffer_type<dram>>, <interleaved>>>) -> ()
        "ttnn.deallocate"(%124) <{force = false}> : (tensor<1x3072xbf16, #ttnn.ttnn_layout<(d0, d1) -> (d0, d1), <1x1>, memref<1x96x!ttcore.tile<32x32, bf16>, #ttnn.buffer_type<dram>>, <interleaved>>>) -> ()
        %149 = "ttnn.typecast"(%148) <{dtype = #ttcore.supportedDataTypes<f32>}> : (tensor<1x3072xbf16, #ttnn.ttnn_layout<(d0, d1) -> (d0, d1), <1x1>, memref<1x96x!ttcore.tile<32x32, bf16>, #ttnn.buffer_type<dram>>, <interleaved>>>) -> tensor<1x3072xf32, #ttnn.ttnn_layout<(d0, d1) -> (d0, d1), <1x1>, memref<1x96x!ttcore.tile<32x32, f32>, #ttnn.buffer_type<dram>>, <interleaved>>>
        "ttnn.deallocate"(%148) <{force = false}> : (tensor<1x3072xbf16, #ttnn.ttnn_layout<(d0, d1) -> (d0, d1), <1x1>, memref<1x96x!ttcore.tile<32x32, bf16>, #ttnn.buffer_type<dram>>, <interleaved>>>) -> ()
        %150 = "ttnn.reshape"(%149) <{shape = [1 : i32, 1 : i32, 3072 : i32]}> : (tensor<1x3072xf32, #ttnn.ttnn_layout<(d0, d1) -> (d0, d1), <1x1>, memref<1x96x!ttcore.tile<32x32, f32>, #ttnn.buffer_type<dram>>, <interleaved>>>) -> tensor<1x1x3072xf32, #ttnn.ttnn_layout<(d0, d1, d2) -> (d0 * 32 + d1, d2), <1x1>, memref<1x96x!ttcore.tile<32x32, f32>, #ttnn.buffer_type<dram>>, <interleaved>>>
        %151 = "ttnn.pow"(%150, %0) : (tensor<1x1x3072xf32, #ttnn.ttnn_layout<(d0, d1, d2) -> (d0 * 32 + d1, d2), <1x1>, memref<1x96x!ttcore.tile<32x32, f32>, #ttnn.buffer_type<dram>>, <interleaved>>>, tensor<1x1x1xf32, #ttnn.ttnn_layout<(d0, d1, d2) -> (d0 * 32 + d1, d2), <1x1>, memref<1x1x!ttcore.tile<32x32, f32>, #ttnn.buffer_type<dram>>, <interleaved>>>) -> tensor<1x1x3072xf32, #ttnn.ttnn_layout<(d0, d1, d2) -> (d0 * 32 + d1, d2), <1x1>, memref<1x96x!ttcore.tile<32x32, f32>, #ttnn.buffer_type<dram>>, <interleaved>>>
        "ttnn.deallocate"(%150) <{force = false}> : (tensor<1x1x3072xf32, #ttnn.ttnn_layout<(d0, d1, d2) -> (d0 * 32 + d1, d2), <1x1>, memref<1x96x!ttcore.tile<32x32, f32>, #ttnn.buffer_type<dram>>, <interleaved>>>) -> ()
        "ttnn.deallocate"(%0) <{force = false}> : (tensor<1x1x1xf32, #ttnn.ttnn_layout<(d0, d1, d2) -> (d0 * 32 + d1, d2), <1x1>, memref<1x1x!ttcore.tile<32x32, f32>, #ttnn.buffer_type<dram>>, <interleaved>>>) -> ()
        %152 = "ttnn.sum"(%151) <{dim_arg = [2 : i32], keep_dim = false}> : (tensor<1x1x3072xf32, #ttnn.ttnn_layout<(d0, d1, d2) -> (d0 * 32 + d1, d2), <1x1>, memref<1x96x!ttcore.tile<32x32, f32>, #ttnn.buffer_type<dram>>, <interleaved>>>) -> tensor<1x1xf32, #ttnn.ttnn_layout<(d0, d1) -> (d0, d1), <1x1>, memref<1x1x!ttcore.tile<32x32, f32>, #ttnn.buffer_type<dram>>, <interleaved>>>
        "ttnn.deallocate"(%151) <{force = false}> : (tensor<1x1x3072xf32, #ttnn.ttnn_layout<(d0, d1, d2) -> (d0 * 32 + d1, d2), <1x1>, memref<1x96x!ttcore.tile<32x32, f32>, #ttnn.buffer_type<dram>>, <interleaved>>>) -> ()
        %153 = "ttnn.multiply"(%152, %2) <{output_dtype = #ttcore.supportedDataTypes<f32>}> : (tensor<1x1xf32, #ttnn.ttnn_layout<(d0, d1) -> (d0, d1), <1x1>, memref<1x1x!ttcore.tile<32x32, f32>, #ttnn.buffer_type<dram>>, <interleaved>>>, tensor<1x1xf32, #ttnn.ttnn_layout<(d0, d1) -> (d0, d1), <1x1>, memref<1x1x!ttcore.tile<32x32, f32>, #ttnn.buffer_type<dram>>, <interleaved>>>) -> tensor<1x1xf32, #ttnn.ttnn_layout<(d0, d1) -> (d0, d1), <1x1>, memref<1x1x!ttcore.tile<32x32, f32>, #ttnn.buffer_type<dram>>, <interleaved>>>
        "ttnn.deallocate"(%152) <{force = false}> : (tensor<1x1xf32, #ttnn.ttnn_layout<(d0, d1) -> (d0, d1), <1x1>, memref<1x1x!ttcore.tile<32x32, f32>, #ttnn.buffer_type<dram>>, <interleaved>>>) -> ()
        "ttnn.deallocate"(%2) <{force = false}> : (tensor<1x1xf32, #ttnn.ttnn_layout<(d0, d1) -> (d0, d1), <1x1>, memref<1x1x!ttcore.tile<32x32, f32>, #ttnn.buffer_type<dram>>, <interleaved>>>) -> ()
        %154 = "ttnn.reshape"(%6) <{shape = [1 : i32, 1 : i32]}> : (tensor<f32, #ttnn.ttnn_layout<() -> (0, 0), <1x1>, memref<1x1x!ttcore.tile<32x32, f32>, #ttnn.buffer_type<dram>>, <interleaved>>>) -> tensor<1x1xf32, #ttnn.ttnn_layout<(d0, d1) -> (d0, d1), <1x1>, memref<1x1x!ttcore.tile<32x32, f32>, #ttnn.buffer_type<dram>>, <interleaved>>>
        "ttnn.deallocate"(%6) <{force = false}> : (tensor<f32, #ttnn.ttnn_layout<() -> (0, 0), <1x1>, memref<1x1x!ttcore.tile<32x32, f32>, #ttnn.buffer_type<dram>>, <interleaved>>>) -> ()
        %155 = "ttnn.add"(%153, %154) <{output_dtype = #ttcore.supportedDataTypes<f32>}> : (tensor<1x1xf32, #ttnn.ttnn_layout<(d0, d1) -> (d0, d1), <1x1>, memref<1x1x!ttcore.tile<32x32, f32>, #ttnn.buffer_type<dram>>, <interleaved>>>, tensor<1x1xf32, #ttnn.ttnn_layout<(d0, d1) -> (d0, d1), <1x1>, memref<1x1x!ttcore.tile<32x32, f32>, #ttnn.buffer_type<dram>>, <interleaved>>>) -> tensor<1x1xf32, #ttnn.ttnn_layout<(d0, d1) -> (d0, d1), <1x1>, memref<1x1x!ttcore.tile<32x32, f32>, #ttnn.buffer_type<dram>>, <interleaved>>>
        "ttnn.deallocate"(%154) <{force = false}> : (tensor<1x1xf32, #ttnn.ttnn_layout<(d0, d1) -> (d0, d1), <1x1>, memref<1x1x!ttcore.tile<32x32, f32>, #ttnn.buffer_type<dram>>, <interleaved>>>) -> ()
        "ttnn.deallocate"(%153) <{force = false}> : (tensor<1x1xf32, #ttnn.ttnn_layout<(d0, d1) -> (d0, d1), <1x1>, memref<1x1x!ttcore.tile<32x32, f32>, #ttnn.buffer_type<dram>>, <interleaved>>>) -> ()
        %156 = "ttnn.rsqrt"(%155) : (tensor<1x1xf32, #ttnn.ttnn_layout<(d0, d1) -> (d0, d1), <1x1>, memref<1x1x!ttcore.tile<32x32, f32>, #ttnn.buffer_type<dram>>, <interleaved>>>) -> tensor<1x1xf32, #ttnn.ttnn_layout<(d0, d1) -> (d0, d1), <1x1>, memref<1x1x!ttcore.tile<32x32, f32>, #ttnn.buffer_type<dram>>, <interleaved>>>
        "ttnn.deallocate"(%155) <{force = false}> : (tensor<1x1xf32, #ttnn.ttnn_layout<(d0, d1) -> (d0, d1), <1x1>, memref<1x1x!ttcore.tile<32x32, f32>, #ttnn.buffer_type<dram>>, <interleaved>>>) -> ()
        %157 = "ttnn.multiply"(%149, %156) <{output_dtype = #ttcore.supportedDataTypes<f32>}> : (tensor<1x3072xf32, #ttnn.ttnn_layout<(d0, d1) -> (d0, d1), <1x1>, memref<1x96x!ttcore.tile<32x32, f32>, #ttnn.buffer_type<dram>>, <interleaved>>>, tensor<1x1xf32, #ttnn.ttnn_layout<(d0, d1) -> (d0, d1), <1x1>, memref<1x1x!ttcore.tile<32x32, f32>, #ttnn.buffer_type<dram>>, <interleaved>>>) -> tensor<1x3072xf32, #ttnn.ttnn_layout<(d0, d1) -> (d0, d1), <1x1>, memref<1x96x!ttcore.tile<32x32, f32>, #ttnn.buffer_type<dram>>, <interleaved>>>
        "ttnn.deallocate"(%156) <{force = false}> : (tensor<1x1xf32, #ttnn.ttnn_layout<(d0, d1) -> (d0, d1), <1x1>, memref<1x1x!ttcore.tile<32x32, f32>, #ttnn.buffer_type<dram>>, <interleaved>>>) -> ()
        "ttnn.deallocate"(%149) <{force = false}> : (tensor<1x3072xf32, #ttnn.ttnn_layout<(d0, d1) -> (d0, d1), <1x1>, memref<1x96x!ttcore.tile<32x32, f32>, #ttnn.buffer_type<dram>>, <interleaved>>>) -> ()
        %158 = "ttnn.multiply"(%70, %157) <{output_dtype = #ttcore.supportedDataTypes<f32>}> : (tensor<1x3072xf32, #ttnn.ttnn_layout<(d0, d1) -> (d0, d1), <1x1>, memref<1x96x!ttcore.tile<32x32, f32>, #ttnn.buffer_type<dram>>, <interleaved>>>, tensor<1x3072xf32, #ttnn.ttnn_layout<(d0, d1) -> (d0, d1), <1x1>, memref<1x96x!ttcore.tile<32x32, f32>, #ttnn.buffer_type<dram>>, <interleaved>>>) -> tensor<1x3072xf32, #ttnn.ttnn_layout<(d0, d1) -> (d0, d1), <1x1>, memref<1x96x!ttcore.tile<32x32, f32>, #ttnn.buffer_type<dram>>, <interleaved>>>
        "ttnn.deallocate"(%157) <{force = false}> : (tensor<1x3072xf32, #ttnn.ttnn_layout<(d0, d1) -> (d0, d1), <1x1>, memref<1x96x!ttcore.tile<32x32, f32>, #ttnn.buffer_type<dram>>, <interleaved>>>) -> ()
        "ttnn.deallocate"(%70) <{force = false}> : (tensor<1x3072xf32, #ttnn.ttnn_layout<(d0, d1) -> (d0, d1), <1x1>, memref<1x96x!ttcore.tile<32x32, f32>, #ttnn.buffer_type<dram>>, <interleaved>>>) -> ()
        %159 = "ttnn.typecast"(%158) <{dtype = #ttcore.supportedDataTypes<bf16>}> : (tensor<1x3072xf32, #ttnn.ttnn_layout<(d0, d1) -> (d0, d1), <1x1>, memref<1x96x!ttcore.tile<32x32, f32>, #ttnn.buffer_type<dram>>, <interleaved>>>) -> tensor<1x3072xbf16, #ttnn.ttnn_layout<(d0, d1) -> (d0, d1), <1x1>, memref<1x96x!ttcore.tile<32x32, bf16>, #ttnn.buffer_type<dram>>, <interleaved>>>
        "ttnn.deallocate"(%158) <{force = false}> : (tensor<1x3072xf32, #ttnn.ttnn_layout<(d0, d1) -> (d0, d1), <1x1>, memref<1x96x!ttcore.tile<32x32, f32>, #ttnn.buffer_type<dram>>, <interleaved>>>) -> ()
        %160 = "ttnn.matmul"(%159, %13) <{transpose_a = false, transpose_b = false}> : (tensor<1x3072xbf16, #ttnn.ttnn_layout<(d0, d1) -> (d0, d1), <1x1>, memref<1x96x!ttcore.tile<32x32, bf16>, #ttnn.buffer_type<dram>>, <interleaved>>>, tensor<3072x128256xbf16, #ttnn.ttnn_layout<(d0, d1) -> (d0, d1), <1x1>, memref<96x4008x!ttcore.tile<32x32, bf16>, #ttnn.buffer_type<dram>>, <interleaved>>>) -> tensor<1x128256xbf16, #ttnn.ttnn_layout<(d0, d1) -> (d0, d1), <1x1>, memref<1x4008x!ttcore.tile<32x32, bf16>, #ttnn.buffer_type<dram>>, <interleaved>>>
        "ttnn.deallocate"(%159) <{force = false}> : (tensor<1x3072xbf16, #ttnn.ttnn_layout<(d0, d1) -> (d0, d1), <1x1>, memref<1x96x!ttcore.tile<32x32, bf16>, #ttnn.buffer_type<dram>>, <interleaved>>>) -> ()
        "ttnn.deallocate"(%13) <{force = false}> : (tensor<3072x128256xbf16, #ttnn.ttnn_layout<(d0, d1) -> (d0, d1), <1x1>, memref<96x4008x!ttcore.tile<32x32, bf16>, #ttnn.buffer_type<dram>>, <interleaved>>>) -> ()
        %161 = "ttnn.reshape"(%160) <{shape = [1 : i32, 1 : i32, 128256 : i32]}> : (tensor<1x128256xbf16, #ttnn.ttnn_layout<(d0, d1) -> (d0, d1), <1x1>, memref<1x4008x!ttcore.tile<32x32, bf16>, #ttnn.buffer_type<dram>>, <interleaved>>>) -> tensor<1x1x128256xbf16, #ttnn.ttnn_layout<(d0, d1, d2) -> (d0 * 32 + d1, d2), <1x1>, memref<1x4008x!ttcore.tile<32x32, bf16>, #ttnn.buffer_type<dram>>, <interleaved>>>
        %162 = "ttnn.to_layout"(%10) <{layout = #ttnn.layout<row_major>}> : (tensor<1x8x128x128xbf16, #ttnn.ttnn_layout<(d0, d1, d2, d3) -> (d0 * 1024 + d1 * 128 + d2, d3), <1x1>, memref<32x4x!ttcore.tile<32x32, bf16>, #ttnn.buffer_type<dram>>, <interleaved>>>) -> tensor<1x8x128x128xbf16, #ttnn.ttnn_layout<(d0, d1, d2, d3) -> (d0 * 1024 + d1 * 128 + d2, d3), <1x1>, memref<1024x128xbf16, #ttnn.buffer_type<dram>>, <interleaved>>>
        "ttnn.deallocate"(%10) <{force = false}> : (tensor<1x8x128x128xbf16, #ttnn.ttnn_layout<(d0, d1, d2, d3) -> (d0 * 1024 + d1 * 128 + d2, d3), <1x1>, memref<32x4x!ttcore.tile<32x32, bf16>, #ttnn.buffer_type<dram>>, <interleaved>>>) -> ()
        %163 = "ttnn.from_device"(%162) : (tensor<1x8x128x128xbf16, #ttnn.ttnn_layout<(d0, d1, d2, d3) -> (d0 * 1024 + d1 * 128 + d2, d3), <1x1>, memref<1024x128xbf16, #ttnn.buffer_type<dram>>, <interleaved>>>) -> tensor<1x8x128x128xbf16, #ttnn.ttnn_layout<(d0, d1, d2, d3) -> (d0 * 1024 + d1 * 128 + d2, d3), <1x1>, memref<1024x128xbf16, #ttnn.buffer_type<system_memory>>>>
        "ttnn.deallocate"(%162) <{force = false}> : (tensor<1x8x128x128xbf16, #ttnn.ttnn_layout<(d0, d1, d2, d3) -> (d0 * 1024 + d1 * 128 + d2, d3), <1x1>, memref<1024x128xbf16, #ttnn.buffer_type<dram>>, <interleaved>>>) -> ()
        %164 = "ttnn.mesh_shard"(%163, %1) <{shard_dims = array<i64: -1>, shard_direction = #ttcore.shard_direction<shard_to_full>, shard_shape = array<i64: 1>, shard_type = #ttcore.shard_type<replicate>}> : (tensor<1x8x128x128xbf16, #ttnn.ttnn_layout<(d0, d1, d2, d3) -> (d0 * 1024 + d1 * 128 + d2, d3), <1x1>, memref<1024x128xbf16, #ttnn.buffer_type<system_memory>>>>, !ttnn.device) -> tensor<1x8x128x128xbf16, #ttnn.ttnn_layout<(d0, d1, d2, d3) -> (d0 * 1024 + d1 * 128 + d2, d3), <1x1>, memref<1024x128xbf16, #ttnn.buffer_type<system_memory>>>>
        "ttnn.deallocate"(%163) <{force = false}> : (tensor<1x8x128x128xbf16, #ttnn.ttnn_layout<(d0, d1, d2, d3) -> (d0 * 1024 + d1 * 128 + d2, d3), <1x1>, memref<1024x128xbf16, #ttnn.buffer_type<system_memory>>>>) -> ()
        %165 = "ttnn.to_layout"(%12) <{layout = #ttnn.layout<row_major>}> : (tensor<1x8x128x128xbf16, #ttnn.ttnn_layout<(d0, d1, d2, d3) -> (d0 * 1024 + d1 * 128 + d2, d3), <1x1>, memref<32x4x!ttcore.tile<32x32, bf16>, #ttnn.buffer_type<dram>>, <interleaved>>>) -> tensor<1x8x128x128xbf16, #ttnn.ttnn_layout<(d0, d1, d2, d3) -> (d0 * 1024 + d1 * 128 + d2, d3), <1x1>, memref<1024x128xbf16, #ttnn.buffer_type<dram>>, <interleaved>>>
        "ttnn.deallocate"(%12) <{force = false}> : (tensor<1x8x128x128xbf16, #ttnn.ttnn_layout<(d0, d1, d2, d3) -> (d0 * 1024 + d1 * 128 + d2, d3), <1x1>, memref<32x4x!ttcore.tile<32x32, bf16>, #ttnn.buffer_type<dram>>, <interleaved>>>) -> ()
        %166 = "ttnn.from_device"(%165) : (tensor<1x8x128x128xbf16, #ttnn.ttnn_layout<(d0, d1, d2, d3) -> (d0 * 1024 + d1 * 128 + d2, d3), <1x1>, memref<1024x128xbf16, #ttnn.buffer_type<dram>>, <interleaved>>>) -> tensor<1x8x128x128xbf16, #ttnn.ttnn_layout<(d0, d1, d2, d3) -> (d0 * 1024 + d1 * 128 + d2, d3), <1x1>, memref<1024x128xbf16, #ttnn.buffer_type<system_memory>>>>
        "ttnn.deallocate"(%165) <{force = false}> : (tensor<1x8x128x128xbf16, #ttnn.ttnn_layout<(d0, d1, d2, d3) -> (d0 * 1024 + d1 * 128 + d2, d3), <1x1>, memref<1024x128xbf16, #ttnn.buffer_type<dram>>, <interleaved>>>) -> ()
        %167 = "ttnn.mesh_shard"(%166, %1) <{shard_dims = array<i64: -1>, shard_direction = #ttcore.shard_direction<shard_to_full>, shard_shape = array<i64: 1>, shard_type = #ttcore.shard_type<replicate>}> : (tensor<1x8x128x128xbf16, #ttnn.ttnn_layout<(d0, d1, d2, d3) -> (d0 * 1024 + d1 * 128 + d2, d3), <1x1>, memref<1024x128xbf16, #ttnn.buffer_type<system_memory>>>>, !ttnn.device) -> tensor<1x8x128x128xbf16, #ttnn.ttnn_layout<(d0, d1, d2, d3) -> (d0 * 1024 + d1 * 128 + d2, d3), <1x1>, memref<1024x128xbf16, #ttnn.buffer_type<system_memory>>>>
        "ttnn.deallocate"(%166) <{force = false}> : (tensor<1x8x128x128xbf16, #ttnn.ttnn_layout<(d0, d1, d2, d3) -> (d0 * 1024 + d1 * 128 + d2, d3), <1x1>, memref<1024x128xbf16, #ttnn.buffer_type<system_memory>>>>) -> ()
        %168 = "ttnn.to_layout"(%160) <{layout = #ttnn.layout<row_major>}> : (tensor<1x128256xbf16, #ttnn.ttnn_layout<(d0, d1) -> (d0, d1), <1x1>, memref<1x4008x!ttcore.tile<32x32, bf16>, #ttnn.buffer_type<dram>>, <interleaved>>>) -> tensor<1x128256xbf16, #ttnn.ttnn_layout<(d0, d1) -> (d0, d1), <1x1>, memref<1x128256xbf16, #ttnn.buffer_type<dram>>, <interleaved>>>
        "ttnn.deallocate"(%160) <{force = false}> : (tensor<1x128256xbf16, #ttnn.ttnn_layout<(d0, d1) -> (d0, d1), <1x1>, memref<1x4008x!ttcore.tile<32x32, bf16>, #ttnn.buffer_type<dram>>, <interleaved>>>) -> ()
        %169 = "ttnn.from_device"(%168) : (tensor<1x128256xbf16, #ttnn.ttnn_layout<(d0, d1) -> (d0, d1), <1x1>, memref<1x128256xbf16, #ttnn.buffer_type<dram>>, <interleaved>>>) -> tensor<1x128256xbf16, #ttnn.ttnn_layout<(d0, d1) -> (d0, d1), <1x1>, memref<1x128256xbf16, #ttnn.buffer_type<system_memory>>>>
        "ttnn.deallocate"(%168) <{force = false}> : (tensor<1x128256xbf16, #ttnn.ttnn_layout<(d0, d1) -> (d0, d1), <1x1>, memref<1x128256xbf16, #ttnn.buffer_type<dram>>, <interleaved>>>) -> ()
        %170 = "ttnn.mesh_shard"(%169, %1) <{shard_dims = array<i64: -1>, shard_direction = #ttcore.shard_direction<shard_to_full>, shard_shape = array<i64: 1>, shard_type = #ttcore.shard_type<replicate>}> : (tensor<1x128256xbf16, #ttnn.ttnn_layout<(d0, d1) -> (d0, d1), <1x1>, memref<1x128256xbf16, #ttnn.buffer_type<system_memory>>>>, !ttnn.device) -> tensor<1x128256xbf16, #ttnn.ttnn_layout<(d0, d1) -> (d0, d1), <1x1>, memref<1x128256xbf16, #ttnn.buffer_type<system_memory>>>>
        "ttnn.deallocate"(%169) <{force = false}> : (tensor<1x128256xbf16, #ttnn.ttnn_layout<(d0, d1) -> (d0, d1), <1x1>, memref<1x128256xbf16, #ttnn.buffer_type<system_memory>>>>) -> ()
        %171 = "ttnn.to_layout"(%161) <{layout = #ttnn.layout<row_major>}> : (tensor<1x1x128256xbf16, #ttnn.ttnn_layout<(d0, d1, d2) -> (d0 * 32 + d1, d2), <1x1>, memref<1x4008x!ttcore.tile<32x32, bf16>, #ttnn.buffer_type<dram>>, <interleaved>>>) -> tensor<1x1x128256xbf16, #ttnn.ttnn_layout<(d0, d1, d2) -> (d0 + d1, d2), <1x1>, memref<1x128256xbf16, #ttnn.buffer_type<dram>>, <interleaved>>>
        "ttnn.deallocate"(%161) <{force = false}> : (tensor<1x1x128256xbf16, #ttnn.ttnn_layout<(d0, d1, d2) -> (d0 * 32 + d1, d2), <1x1>, memref<1x4008x!ttcore.tile<32x32, bf16>, #ttnn.buffer_type<dram>>, <interleaved>>>) -> ()
        %172 = "ttnn.from_device"(%171) : (tensor<1x1x128256xbf16, #ttnn.ttnn_layout<(d0, d1, d2) -> (d0 + d1, d2), <1x1>, memref<1x128256xbf16, #ttnn.buffer_type<dram>>, <interleaved>>>) -> tensor<1x1x128256xbf16, #ttnn.ttnn_layout<(d0, d1, d2) -> (d0 + d1, d2), <1x1>, memref<1x128256xbf16, #ttnn.buffer_type<system_memory>>>>
        "ttnn.deallocate"(%171) <{force = false}> : (tensor<1x1x128256xbf16, #ttnn.ttnn_layout<(d0, d1, d2) -> (d0 + d1, d2), <1x1>, memref<1x128256xbf16, #ttnn.buffer_type<dram>>, <interleaved>>>) -> ()
        %173 = "ttnn.mesh_shard"(%172, %1) <{shard_dims = array<i64: -1>, shard_direction = #ttcore.shard_direction<shard_to_full>, shard_shape = array<i64: 1>, shard_type = #ttcore.shard_type<replicate>}> : (tensor<1x1x128256xbf16, #ttnn.ttnn_layout<(d0, d1, d2) -> (d0 + d1, d2), <1x1>, memref<1x128256xbf16, #ttnn.buffer_type<system_memory>>>>, !ttnn.device) -> tensor<1x1x128256xbf16, #ttnn.ttnn_layout<(d0, d1, d2) -> (d0 + d1, d2), <1x1>, memref<1x128256xbf16, #ttnn.buffer_type<system_memory>>>>
        "ttnn.deallocate"(%172) <{force = false}> : (tensor<1x1x128256xbf16, #ttnn.ttnn_layout<(d0, d1, d2) -> (d0 + d1, d2), <1x1>, memref<1x128256xbf16, #ttnn.buffer_type<system_memory>>>>) -> ()
        return %164, %167, %170, %173 : tensor<1x8x128x128xbf16, #ttnn.ttnn_layout<(d0, d1, d2, d3) -> (d0 * 1024 + d1 * 128 + d2, d3), <1x1>, memref<1024x128xbf16, #ttnn.buffer_type<system_memory>>>>, tensor<1x8x128x128xbf16, #ttnn.ttnn_layout<(d0, d1, d2, d3) -> (d0 * 1024 + d1 * 128 + d2, d3), <1x1>, memref<1024x128xbf16, #ttnn.buffer_type<system_memory>>>>, tensor<1x128256xbf16, #ttnn.ttnn_layout<(d0, d1) -> (d0, d1), <1x1>, memref<1x128256xbf16, #ttnn.buffer_type<system_memory>>>>, tensor<1x1x128256xbf16, #ttnn.ttnn_layout<(d0, d1, d2) -> (d0 + d1, d2), <1x1>, memref<1x128256xbf16, #ttnn.buffer_type<system_memory>>>>
      }
    }
  }
}
2025-08-13 23:25:45.739 (  43.817s) [        CA99B1C0]loaded_executable_insta:98       1| [LIFECYCLE] LoadedExecutableInstance constructor - instance created: 0x5572df905e10
2025-08-13 23:25:45.739 (  43.817s) [        CA99B1C0]loaded_executable_insta:516      1| LoadedExecutableInstance::PJRT_LoadedExecutable_GetExecutable
2025-08-13 23:25:45.739 (  43.817s) [        CA99B1C0]loaded_executable_insta:535      1| LoadedExecutableInstance::PJRT_LoadedExecutable_AddressableDevices
2025-08-13 23:25:45.739 (  43.818s) [        CA99B1C0]              stubs.inc:76    WARN| STUB: PJRT_Executable_GetCompiledMemoryStats
2025-08-13 23:25:45.739 (  43.818s) [        CA99B1C0]      error_instance.cc:49       1| ErrorInstance::PJRT_Error_Message
2025-08-13 23:25:45.739 (  43.818s) [        CA99B1C0]      error_instance.cc:58       1| ErrorInstance::PJRT_Error_GetCode
2025-08-13 23:25:45.739 (  43.818s) [        CA99B1C0]      error_instance.cc:43       1| ErrorInstance::PJRT_Error_Destroy
2025-08-13 23:25:45.739 (  43.818s) [        CA99B1C0] executable_instance.cc:106      1| ExecutableInstance::PJRT_Executable_OptimizedProgram
2025-08-13 23:25:45.739 (  43.818s) [        CA99B1C0] executable_instance.cc:106      1| ExecutableInstance::PJRT_Executable_OptimizedProgram
2025-08-13 23:25:45.749 (  43.827s) [        CA99B1C0] executable_instance.cc:106      1| ExecutableInstance::PJRT_Executable_OptimizedProgram
2025-08-13 23:25:45.749 (  43.827s) [        CA99B1C0] executable_instance.cc:106      1| ExecutableInstance::PJRT_Executable_OptimizedProgram
2025-08-13 23:25:45.757 (  43.835s) [        8AFFD640]  device_description.cc:44       1| DeviceDescription::PJRT_DeviceDescription_Id
2025-08-13 23:25:45.757 (  43.835s) [        8AFFD640]  device_description.cc:44       1| DeviceDescription::PJRT_DeviceDescription_Id
2025-08-13 23:25:45.757 (  43.835s) [        8AFFD640]     buffer_instance.cc:578      1| BufferInstance::PJRT_Buffer_Device
2025-08-13 23:25:45.757 (  43.835s) [        8AFFD640]     device_instance.cc:53       1| DeviceInstance::PJRT_Device_IsAddressable
2025-08-13 23:25:45.757 (  43.835s) [        8AFFD640]     buffer_instance.cc:578      1| BufferInstance::PJRT_Buffer_Device
2025-08-13 23:25:45.757 (  43.835s) [        8AFFD640]     device_instance.cc:53       1| DeviceInstance::PJRT_Device_IsAddressable
2025-08-13 23:25:45.757 (  43.835s) [        8AFFD640]     buffer_instance.cc:578      1| BufferInstance::PJRT_Buffer_Device
2025-08-13 23:25:45.757 (  43.835s) [        8AFFD640]     device_instance.cc:53       1| DeviceInstance::PJRT_Device_IsAddressable
2025-08-13 23:25:45.757 (  43.835s) [        8AFFD640]     buffer_instance.cc:578      1| BufferInstance::PJRT_Buffer_Device
2025-08-13 23:25:45.757 (  43.835s) [        8AFFD640]     device_instance.cc:53       1| DeviceInstance::PJRT_Device_IsAddressable
2025-08-13 23:25:45.757 (  43.835s) [        8AFFD640]     buffer_instance.cc:578      1| BufferInstance::PJRT_Buffer_Device
2025-08-13 23:25:45.757 (  43.835s) [        8AFFD640]     device_instance.cc:53       1| DeviceInstance::PJRT_Device_IsAddressable
2025-08-13 23:25:45.757 (  43.835s) [        8AFFD640]     buffer_instance.cc:578      1| BufferInstance::PJRT_Buffer_Device
2025-08-13 23:25:45.757 (  43.835s) [        8AFFD640]     device_instance.cc:53       1| DeviceInstance::PJRT_Device_IsAddressable
2025-08-13 23:25:45.757 (  43.835s) [        8AFFD640]     buffer_instance.cc:578      1| BufferInstance::PJRT_Buffer_Device
2025-08-13 23:25:45.757 (  43.835s) [        327FC640]     buffer_instance.cc:578      1| BufferInstance::PJRT_Buffer_Device
2025-08-13 23:25:45.757 (  43.835s) [        33FFF640]     buffer_instance.cc:578      1| BufferInstance::PJRT_Buffer_Device
2025-08-13 23:25:45.757 (  43.835s) [        31FFB640]     buffer_instance.cc:578      1| BufferInstance::PJRT_Buffer_Device
2025-08-13 23:25:45.757 (  43.835s) [        33FFF640]     device_instance.cc:53       1| DeviceInstance::PJRT_Device_IsAddressable
2025-08-13 23:25:45.757 (  43.835s) [        31FFB640]     device_instance.cc:53       1| DeviceInstance::PJRT_Device_IsAddressable
2025-08-13 23:25:45.757 (  43.835s) [        8AFFD640]     device_instance.cc:53       1| DeviceInstance::PJRT_Device_IsAddressable
2025-08-13 23:25:45.757 (  43.835s) [        31FFB640]     buffer_instance.cc:578      1| BufferInstance::PJRT_Buffer_Device
2025-08-13 23:25:45.757 (  43.835s) [        337FE640]     buffer_instance.cc:578      1| BufferInstance::PJRT_Buffer_Device
2025-08-13 23:25:45.757 (  43.835s) [        33FFF640]     buffer_instance.cc:578      1| BufferInstance::PJRT_Buffer_Device
2025-08-13 23:25:45.757 (  43.835s) [        337FE640]     device_instance.cc:53       1| DeviceInstance::PJRT_Device_IsAddressable
2025-08-13 23:25:45.757 (  43.835s) [        327FC640]     device_instance.cc:53       1| DeviceInstance::PJRT_Device_IsAddressable
2025-08-13 23:25:45.757 (  43.835s) [        327FC640]     buffer_instance.cc:578      1| BufferInstance::PJRT_Buffer_Device
2025-08-13 23:25:45.757 (  43.835s) [        31FFB640]     device_instance.cc:53       1| DeviceInstance::PJRT_Device_IsAddressable
2025-08-13 23:25:45.757 (  43.835s) [        337FE640]     buffer_instance.cc:578      1| BufferInstance::PJRT_Buffer_Device
2025-08-13 23:25:45.757 (  43.835s) [        33FFF640]     device_instance.cc:53       1| DeviceInstance::PJRT_Device_IsAddressable
2025-08-13 23:25:45.757 (  43.835s) [        337FE640]     device_instance.cc:53       1| DeviceInstance::PJRT_Device_IsAddressable
2025-08-13 23:25:45.757 (  43.835s) [        8AFFD640]     buffer_instance.cc:578      1| BufferInstance::PJRT_Buffer_Device
2025-08-13 23:25:45.757 (  43.835s) [        8AFFD640]     device_instance.cc:53       1| DeviceInstance::PJRT_Device_IsAddressable
2025-08-13 23:25:45.757 (  43.835s) [        31FFB640]     buffer_instance.cc:578      1| BufferInstance::PJRT_Buffer_Device
2025-08-13 23:25:45.757 (  43.835s) [        337FE640]     buffer_instance.cc:578      1| BufferInstance::PJRT_Buffer_Device
2025-08-13 23:25:45.757 (  43.835s) [        33FFF640]     buffer_instance.cc:578      1| BufferInstance::PJRT_Buffer_Device
2025-08-13 23:25:45.757 (  43.836s) [        337FE640]     device_instance.cc:53       1| DeviceInstance::PJRT_Device_IsAddressable
2025-08-13 23:25:45.757 (  43.835s) [        327FC640]     device_instance.cc:53       1| DeviceInstance::PJRT_Device_IsAddressable
2025-08-13 23:25:45.757 (  43.836s) [        337FE640]     buffer_instance.cc:578      1| BufferInstance::PJRT_Buffer_Device
2025-08-13 23:25:45.757 (  43.836s) [        327FC640]     buffer_instance.cc:578      1| BufferInstance::PJRT_Buffer_Device
2025-08-13 23:25:45.757 (  43.835s) [        8AFFD640]     buffer_instance.cc:578      1| BufferInstance::PJRT_Buffer_Device
2025-08-13 23:25:45.757 (  43.835s) [        31FFB640]     device_instance.cc:53       1| DeviceInstance::PJRT_Device_IsAddressable
2025-08-13 23:25:45.757 (  43.836s) [        33FFF640]     device_instance.cc:53       1| DeviceInstance::PJRT_Device_IsAddressable
2025-08-13 23:25:45.757 (  43.836s) [        337FE640]     device_instance.cc:53       1| DeviceInstance::PJRT_Device_IsAddressable
2025-08-13 23:25:45.757 (  43.836s) [        31FFB640]     buffer_instance.cc:578      1| BufferInstance::PJRT_Buffer_Device
2025-08-13 23:25:45.757 (  43.836s) [        33FFF640]     buffer_instance.cc:578      1| BufferInstance::PJRT_Buffer_Device
2025-08-13 23:25:45.757 (  43.836s) [        327FC640]     device_instance.cc:53       1| DeviceInstance::PJRT_Device_IsAddressable
2025-08-13 23:25:45.757 (  43.836s) [        31FFB640]     device_instance.cc:53       1| DeviceInstance::PJRT_Device_IsAddressable
2025-08-13 23:25:45.757 (  43.836s) [        8AFFD640]     device_instance.cc:53       1| DeviceInstance::PJRT_Device_IsAddressable
2025-08-13 23:25:45.757 (  43.836s) [        327FC640]     buffer_instance.cc:578      1| BufferInstance::PJRT_Buffer_Device
2025-08-13 23:25:45.757 (  43.836s) [        33FFF640]     device_instance.cc:53       1| DeviceInstance::PJRT_Device_IsAddressable
2025-08-13 23:25:45.757 (  43.836s) [        327FC640]     device_instance.cc:53       1| DeviceInstance::PJRT_Device_IsAddressable
2025-08-13 23:25:45.757 (  43.836s) [        8AFFD640]     buffer_instance.cc:578      1| BufferInstance::PJRT_Buffer_Device
2025-08-13 23:25:45.757 (  43.836s) [        33FFF640]     buffer_instance.cc:578      1| BufferInstance::PJRT_Buffer_Device
2025-08-13 23:25:45.757 (  43.836s) [        8AFFD640]     device_instance.cc:53       1| DeviceInstance::PJRT_Device_IsAddressable
2025-08-13 23:25:45.757 (  43.836s) [        327FC640]     buffer_instance.cc:578      1| BufferInstance::PJRT_Buffer_Device
2025-08-13 23:25:45.757 (  43.836s) [        31FFB640]     buffer_instance.cc:578      1| BufferInstance::PJRT_Buffer_Device
2025-08-13 23:25:45.757 (  43.836s) [        33FFF640]     device_instance.cc:53       1| DeviceInstance::PJRT_Device_IsAddressable
2025-08-13 23:25:45.757 (  43.836s) [        31FFB640]     device_instance.cc:53       1| DeviceInstance::PJRT_Device_IsAddressable
2025-08-13 23:25:45.757 (  43.836s) [        327FC640]     device_instance.cc:53       1| DeviceInstance::PJRT_Device_IsAddressable
2025-08-13 23:25:45.757 (  43.836s) [        31FFB640]     buffer_instance.cc:578      1| BufferInstance::PJRT_Buffer_Device
2025-08-13 23:25:45.757 (  43.836s) [        33FFF640]     buffer_instance.cc:578      1| BufferInstance::PJRT_Buffer_Device
2025-08-13 23:25:45.757 (  43.836s) [        327FC640]     buffer_instance.cc:578      1| BufferInstance::PJRT_Buffer_Device
2025-08-13 23:25:45.757 (  43.836s) [        33FFF640]     device_instance.cc:53       1| DeviceInstance::PJRT_Device_IsAddressable
2025-08-13 23:25:45.757 (  43.836s) [        31FFB640]     device_instance.cc:53       1| DeviceInstance::PJRT_Device_IsAddressable
2025-08-13 23:25:45.757 (  43.836s) [        327FC640]     device_instance.cc:53       1| DeviceInstance::PJRT_Device_IsAddressable
2025-08-13 23:25:45.757 (  43.836s) [        33FFF640]     buffer_instance.cc:578      1| BufferInstance::PJRT_Buffer_Device
2025-08-13 23:25:45.757 (  43.836s) [        327FC640]     buffer_instance.cc:578      1| BufferInstance::PJRT_Buffer_Device
2025-08-13 23:25:45.757 (  43.836s) [        31FFB640]     buffer_instance.cc:578      1| BufferInstance::PJRT_Buffer_Device
2025-08-13 23:25:45.757 (  43.836s) [        327FC640]     device_instance.cc:53       1| DeviceInstance::PJRT_Device_IsAddressable
2025-08-13 23:25:45.757 (  43.836s) [        31FFB640]     device_instance.cc:53       1| DeviceInstance::PJRT_Device_IsAddressable
2025-08-13 23:25:45.757 (  43.836s) [        33FFF640]     device_instance.cc:53       1| DeviceInstance::PJRT_Device_IsAddressable
2025-08-13 23:25:45.757 (  43.836s) [        327FC640]     buffer_instance.cc:578      1| BufferInstance::PJRT_Buffer_Device
2025-08-13 23:25:45.757 (  43.836s) [        31FFB640]     buffer_instance.cc:578      1| BufferInstance::PJRT_Buffer_Device
2025-08-13 23:25:45.757 (  43.836s) [        33FFF640]     buffer_instance.cc:578      1| BufferInstance::PJRT_Buffer_Device
2025-08-13 23:25:45.757 (  43.836s) [        327FC640]     device_instance.cc:53       1| DeviceInstance::PJRT_Device_IsAddressable
2025-08-13 23:25:45.757 (  43.836s) [        31FFB640]     device_instance.cc:53       1| DeviceInstance::PJRT_Device_IsAddressable
2025-08-13 23:25:45.757 (  43.836s) [        327FC640]     buffer_instance.cc:578      1| BufferInstance::PJRT_Buffer_Device
2025-08-13 23:25:45.757 (  43.836s) [        31FFB640]     buffer_instance.cc:578      1| BufferInstance::PJRT_Buffer_Device
2025-08-13 23:25:45.757 (  43.836s) [        33FFF640]     device_instance.cc:53       1| DeviceInstance::PJRT_Device_IsAddressable
2025-08-13 23:25:45.757 (  43.836s) [        327FC640]     device_instance.cc:53       1| DeviceInstance::PJRT_Device_IsAddressable
2025-08-13 23:25:45.757 (  43.836s) [        33FFF640]     buffer_instance.cc:578      1| BufferInstance::PJRT_Buffer_Device
2025-08-13 23:25:45.757 (  43.836s) [        327FC640]     buffer_instance.cc:578      1| BufferInstance::PJRT_Buffer_Device
2025-08-13 23:25:45.757 (  43.836s) [        33FFF640]     device_instance.cc:53       1| DeviceInstance::PJRT_Device_IsAddressable
2025-08-13 23:25:45.757 (  43.836s) [        31FFB640]     device_instance.cc:53       1| DeviceInstance::PJRT_Device_IsAddressable
2025-08-13 23:25:45.757 (  43.836s) [        327FC640]     device_instance.cc:53       1| DeviceInstance::PJRT_Device_IsAddressable
2025-08-13 23:25:45.757 (  43.836s) [        31FFB640]     buffer_instance.cc:578      1| BufferInstance::PJRT_Buffer_Device
2025-08-13 23:25:45.757 (  43.836s) [        33FFF640]     buffer_instance.cc:578      1| BufferInstance::PJRT_Buffer_Device
2025-08-13 23:25:45.757 (  43.836s) [        31FFB640]     device_instance.cc:53       1| DeviceInstance::PJRT_Device_IsAddressable
2025-08-13 23:25:45.757 (  43.836s) [        33FFF640]     device_instance.cc:53       1| DeviceInstance::PJRT_Device_IsAddressable
2025-08-13 23:25:45.758 (  43.836s) [        8AFFD640] executable_instance.cc:138      1| ExecutableInstance::PJRT_Executable_NumOutputs
2025-08-13 23:25:45.758 (  43.836s) [        8AFFD640]loaded_executable_insta:571      1| LoadedExecutableInstance::PJRT_LoadedExecutable_Execute
2025-08-13 23:25:45.758 (  43.836s) [        8AFFD640]loaded_executable_insta:95       1| LoadedExecutableInstance::Execute
2025-08-13 23:25:45.758 (  43.836s) [        8AFFD640]loaded_executable_insta:125      1| [DEVICE] Runtime device already opened, reusing existing device
2025-08-13 23:25:45.758 (  43.836s) [        8AFFD640]loaded_executable_insta:337      1| [LAYOUT] Converting layout for tensor handle 0x7ff048cb33d0 (arg 0)
2025-08-13 23:25:45.759 (  43.837s) [        8AFFD640]loaded_executable_insta:337      1| [LAYOUT] Converting layout for tensor handle 0x7ff048cb33d0 (arg 1)
2025-08-13 23:25:45.759 (  43.838s) [        8AFFD640]loaded_executable_insta:337      1| [LAYOUT] Converting layout for tensor handle 0x7ff048cb33d0 (arg 2)
2025-08-13 23:25:45.762 (  43.840s) [        8AFFD640]loaded_executable_insta:337      1| [LAYOUT] Converting layout for tensor handle 0x7ff048cb33d0 (arg 3)
2025-08-13 23:25:45.762 (  43.840s) [        8AFFD640]loaded_executable_insta:337      1| [LAYOUT] Converting layout for tensor handle 0x7ff048cb33d0 (arg 4)
2025-08-13 23:25:45.762 (  43.841s) [        8AFFD640]loaded_executable_insta:337      1| [LAYOUT] Converting layout for tensor handle 0x7ff048cb33d0 (arg 5)
2025-08-13 23:25:45.822 (  43.900s) [        8AFFD640]loaded_executable_insta:337      1| [LAYOUT] Converting layout for tensor handle 0x7ff048cb33d0 (arg 6)
2025-08-13 23:25:45.823 (  43.901s) [        8AFFD640]loaded_executable_insta:337      1| [LAYOUT] Converting layout for tensor handle 0x7ff048cb33d0 (arg 7)
2025-08-13 23:25:45.823 (  43.901s) [        8AFFD640]loaded_executable_insta:337      1| [LAYOUT] Converting layout for tensor handle 0x7ff048cb33d0 (arg 8)
2025-08-13 23:25:45.824 (  43.902s) [        8AFFD640]loaded_executable_insta:337      1| [LAYOUT] Converting layout for tensor handle 0x7ff048cb33d0 (arg 9)
2025-08-13 23:25:45.828 (  43.906s) [        8AFFD640]loaded_executable_insta:337      1| [LAYOUT] Converting layout for tensor handle 0x7ff048cb33d0 (arg 10)
2025-08-13 23:25:45.829 (  43.907s) [        8AFFD640]loaded_executable_insta:337      1| [LAYOUT] Converting layout for tensor handle 0x7ff048cb33d0 (arg 11)
2025-08-13 23:25:45.955 (  44.034s) [        8AFFD640]loaded_executable_insta:337      1| [LAYOUT] Converting layout for tensor handle 0x7ff048cb33d0 (arg 12)
2025-08-13 23:25:45.972 (  44.050s) [        8AFFD640]loaded_executable_insta:337      1| [LAYOUT] Converting layout for tensor handle 0x7ff048cb33d0 (arg 13)
2025-08-13 23:25:45.982 (  44.061s) [        8AFFD640]loaded_executable_insta:337      1| [LAYOUT] Converting layout for tensor handle 0x7ff048cb33d0 (arg 14)
2025-08-13 23:25:45.986 (  44.064s) [        8AFFD640]loaded_executable_insta:337      1| [LAYOUT] Converting layout for tensor handle 0x7ff048cb33d0 (arg 15)
2025-08-13 23:25:45.986 (  44.065s) [        8AFFD640]loaded_executable_insta:337      1| [LAYOUT] Converting layout for tensor handle 0x7ff048cb33d0 (arg 16)
2025-08-13 23:25:45.987 (  44.065s) [        8AFFD640]loaded_executable_insta:337      1| [LAYOUT] Converting layout for tensor handle 0x7ff048cb33d0 (arg 17)
2025-08-13 23:25:45.987 (  44.066s) [        8AFFD640]loaded_executable_insta:337      1| [LAYOUT] Converting layout for tensor handle 0x7ff048cb33d0 (arg 18)
2025-08-13 23:25:45.991 (  44.069s) [        8AFFD640]loaded_executable_insta:337      1| [LAYOUT] Converting layout for tensor handle 0x7ff048cb33d0 (arg 19)
2025-08-13 23:25:45.992 (  44.070s) [        8AFFD640]loaded_executable_insta:337      1| [LAYOUT] Converting layout for tensor handle 0x7ff048cb33d0 (arg 20)
2025-08-13 23:25:46.001 (  44.080s) [        8AFFD640]loaded_executable_insta:337      1| [LAYOUT] Converting layout for tensor handle 0x7ff048cb33d0 (arg 21)
2025-08-13 23:25:48.215 | critical |          Always | Can't get a single buffer from host storage distributed over mesh shape MeshShape([1, 2]) (assert.hpp:107)
2025-08-13 23:25:48.240 (  46.319s) [        8AFFD640]     buffer_instance.cc:427      1| BufferInstance::PJRT_Buffer_Destroy
2025-08-13 23:25:48.241 (  46.319s) [        8AFFD640]     buffer_instance.cc:427      1| BufferInstance::PJRT_Buffer_Destroy
2025-08-13 23:25:48.241 (  46.319s) [        8AFFD640]     buffer_instance.cc:427      1| BufferInstance::PJRT_Buffer_Destroy
2025-08-13 23:25:48.241 (  46.319s) [        8AFFD640]     buffer_instance.cc:427      1| BufferInstance::PJRT_Buffer_Destroy
Fatal Python error: Segmentation fault

Thread 0x00007ff5227fc640 (most recent call first):
  File "/usr/lib/python3.10/threading.py", line 324 in wait
  File "/usr/lib/python3.10/threading.py", line 607 in wait
  File "/localdev/jameszianxu/gen_mc/tt-torch/env/venv/lib/python3.10/site-packages/tqdm/_monitor.py", line 60 in run
  File "/usr/lib/python3.10/threading.py", line 1016 in _bootstrap_inner
  File "/usr/lib/python3.10/threading.py", line 973 in _bootstrap

Thread 0x00007ffa1d85f640 (most recent call first):
  File "/usr/lib/python3.10/threading.py", line 324 in wait
  File "/usr/lib/python3.10/threading.py", line 607 in wait
  File "/localdev/jameszianxu/gen_mc/tt-torch/env/venv/lib/python3.10/site-packages/tqdm/_monitor.py", line 60 in run
  File "/usr/lib/python3.10/threading.py", line 1016 in _bootstrap_inner
  File "/usr/lib/python3.10/threading.py", line 973 in _bootstrap

Current thread 0x00007ffbca99b1c0 (most recent call first):
  File "/localdev/jameszianxu/gen_mc/tt-torch/tt_torch/dynamo/experimental/xla_backend.py", line 920 in __call__
  File "/localdev/jameszianxu/gen_mc/tt-torch/env/venv/lib/python3.10/site-packages/torch/_dynamo/eval_frame.py", line 838 in _fn
  File "/localdev/jameszianxu/gen_mc/tt-torch/env/venv/lib/python3.10/site-packages/transformers/utils/generic.py", line 953 in wrapper
  File "/localdev/jameszianxu/gen_mc/tt-torch/env/venv/lib/python3.10/site-packages/torch/nn/modules/module.py", line 1762 in _call_impl
  File "/localdev/jameszianxu/gen_mc/tt-torch/env/venv/lib/python3.10/site-packages/torch/nn/modules/module.py", line 1751 in _wrapped_call_impl
  File "/localdev/jameszianxu/gen_mc/tt-torch/env/venv/lib/python3.10/site-packages/torch/_dynamo/eval_frame.py", line 655 in _fn
  File "/localdev/jameszianxu/gen_mc/tt-torch/env/venv/lib/python3.10/site-packages/torch/nn/modules/module.py", line 1762 in _call_impl
  File "/localdev/jameszianxu/gen_mc/tt-torch/env/venv/lib/python3.10/site-packages/torch/nn/modules/module.py", line 1751 in _wrapped_call_impl
  File "/localdev/jameszianxu/gen_mc/tt-torch/tests/models/llama/test_llama3_generative.py", line 217 in test_llama3_generate
  File "/localdev/jameszianxu/gen_mc/tt-torch/env/venv/lib/python3.10/site-packages/torch/utils/_contextlib.py", line 116 in decorate_context
  File "/localdev/jameszianxu/gen_mc/tt-torch/env/venv/lib/python3.10/site-packages/_pytest/python.py", line 157 in pytest_pyfunc_call
  File "/localdev/jameszianxu/gen_mc/tt-torch/env/venv/lib/python3.10/site-packages/pluggy/_callers.py", line 121 in _multicall
  File "/localdev/jameszianxu/gen_mc/tt-torch/env/venv/lib/python3.10/site-packages/pluggy/_manager.py", line 120 in _hookexec
  File "/localdev/jameszianxu/gen_mc/tt-torch/env/venv/lib/python3.10/site-packages/pluggy/_hooks.py", line 512 in __call__
  File "/localdev/jameszianxu/gen_mc/tt-torch/env/venv/lib/python3.10/site-packages/_pytest/python.py", line 1671 in runtest
  File "/localdev/jameszianxu/gen_mc/tt-torch/env/venv/lib/python3.10/site-packages/_pytest/runner.py", line 178 in pytest_runtest_call
  File "/localdev/jameszianxu/gen_mc/tt-torch/env/venv/lib/python3.10/site-packages/pluggy/_callers.py", line 121 in _multicall
  File "/localdev/jameszianxu/gen_mc/tt-torch/env/venv/lib/python3.10/site-packages/pluggy/_manager.py", line 120 in _hookexec
  File "/localdev/jameszianxu/gen_mc/tt-torch/env/venv/lib/python3.10/site-packages/pluggy/_hooks.py", line 512 in __call__
  File "/localdev/jameszianxu/gen_mc/tt-torch/env/venv/lib/python3.10/site-packages/_pytest/runner.py", line 246 in <lambda>
  File "/localdev/jameszianxu/gen_mc/tt-torch/env/venv/lib/python3.10/site-packages/_pytest/runner.py", line 344 in from_call
  File "/localdev/jameszianxu/gen_mc/tt-torch/env/venv/lib/python3.10/site-packages/_pytest/runner.py", line 245 in call_and_report
  File "/localdev/jameszianxu/gen_mc/tt-torch/env/venv/lib/python3.10/site-packages/_pytest/runner.py", line 136 in runtestprotocol
  File "/localdev/jameszianxu/gen_mc/tt-torch/env/venv/lib/python3.10/site-packages/_pytest/runner.py", line 117 in pytest_runtest_protocol
  File "/localdev/jameszianxu/gen_mc/tt-torch/env/venv/lib/python3.10/site-packages/pluggy/_callers.py", line 121 in _multicall
  File "/localdev/jameszianxu/gen_mc/tt-torch/env/venv/lib/python3.10/site-packages/pluggy/_manager.py", line 120 in _hookexec
  File "/localdev/jameszianxu/gen_mc/tt-torch/env/venv/lib/python3.10/site-packages/pluggy/_hooks.py", line 512 in __call__
  File "/localdev/jameszianxu/gen_mc/tt-torch/env/venv/lib/python3.10/site-packages/_pytest/main.py", line 367 in pytest_runtestloop
  File "/localdev/jameszianxu/gen_mc/tt-torch/env/venv/lib/python3.10/site-packages/pluggy/_callers.py", line 121 in _multicall
  File "/localdev/jameszianxu/gen_mc/tt-torch/env/venv/lib/python3.10/site-packages/pluggy/_manager.py", line 120 in _hookexec
  File "/localdev/jameszianxu/gen_mc/tt-torch/env/venv/lib/python3.10/site-packages/pluggy/_hooks.py", line 512 in __call__
  File "/localdev/jameszianxu/gen_mc/tt-torch/env/venv/lib/python3.10/site-packages/_pytest/main.py", line 343 in _main
  File "/localdev/jameszianxu/gen_mc/tt-torch/env/venv/lib/python3.10/site-packages/_pytest/main.py", line 289 in wrap_session
  File "/localdev/jameszianxu/gen_mc/tt-torch/env/venv/lib/python3.10/site-packages/_pytest/main.py", line 336 in pytest_cmdline_main
  File "/localdev/jameszianxu/gen_mc/tt-torch/env/venv/lib/python3.10/site-packages/pluggy/_callers.py", line 121 in _multicall
  File "/localdev/jameszianxu/gen_mc/tt-torch/env/venv/lib/python3.10/site-packages/pluggy/_manager.py", line 120 in _hookexec
  File "/localdev/jameszianxu/gen_mc/tt-torch/env/venv/lib/python3.10/site-packages/pluggy/_hooks.py", line 512 in __call__
  File "/localdev/jameszianxu/gen_mc/tt-torch/env/venv/lib/python3.10/site-packages/_pytest/config/__init__.py", line 175 in main
  File "/localdev/jameszianxu/gen_mc/tt-torch/env/venv/lib/python3.10/site-packages/_pytest/config/__init__.py", line 201 in console_main
  File "/localdev/jameszianxu/gen_mc/tt-torch/env/venv/bin/pytest", line 7 in <module>

Extension modules: numpy._core._multiarray_umath, numpy.linalg._umath_linalg, torch._C, torch._C._dynamo.autograd_compiler, torch._C._dynamo.eval_frame, torch._C._dynamo.guards, torch._C._dynamo.utils, torch._C._fft, torch._C._linalg, torch._C._nested, torch._C._nn, torch._C._sparse, torch._C._special, numpy.random._common, numpy.random.bit_generator, numpy.random._bounded_integers, numpy.random._mt19937, numpy.random.mtrand, numpy.random._philox, numpy.random._pcg64, numpy.random._sfc64, numpy.random._generator, google._upb._message, charset_normalizer.md, requests.packages.charset_normalizer.md, requests.packages.chardet.md, yaml._yaml, markupsafe._speedups, regex._regex, PIL._imaging, sklearn.__check_build._check_build, scipy._lib._ccallback_c, scipy.sparse._sparsetools, _csparsetools, scipy.sparse._csparsetools, scipy.linalg._fblas, scipy.linalg._flapack, scipy.linalg.cython_lapack, scipy.linalg._cythonized_array_utils, scipy.linalg._solve_toeplitz, scipy.linalg._decomp_lu_cython, scipy.linalg._matfuncs_sqrtm_triu, scipy.linalg._matfuncs_expm, scipy.linalg._linalg_pythran, scipy.linalg.cython_blas, scipy.linalg._decomp_update, scipy.sparse.linalg._dsolve._superlu, scipy.sparse.linalg._eigen.arpack._arpack, scipy.sparse.linalg._propack._spropack, scipy.sparse.linalg._propack._dpropack, scipy.sparse.linalg._propack._cpropack, scipy.sparse.linalg._propack._zpropack, scipy.sparse.csgraph._tools, scipy.sparse.csgraph._shortest_path, scipy.sparse.csgraph._traversal, scipy.sparse.csgraph._min_spanning_tree, scipy.sparse.csgraph._flow, scipy.sparse.csgraph._matching, scipy.sparse.csgraph._reordering, psutil._psutil_linux, psutil._psutil_posix, scipy.special._ufuncs_cxx, scipy.special._ufuncs, scipy.special._specfun, scipy.special._comb, scipy.special._ellip_harm_2, scipy.spatial._ckdtree, scipy._lib.messagestream, scipy.spatial._qhull, scipy.spatial._voronoi, scipy.spatial._distance_wrap, scipy.spatial._hausdorff, scipy.spatial.transform._rotation, scipy.optimize._group_columns, scipy.optimize._trlib._trlib, scipy.optimize._lbfgsb, _moduleTNC, scipy.optimize._moduleTNC, scipy.optimize._cobyla, scipy.optimize._slsqp, scipy.optimize._minpack, scipy.optimize._lsq.givens_elimination, scipy.optimize._zeros, scipy.optimize._cython_nnls, scipy._lib._uarray._uarray, scipy.linalg._decomp_interpolative, scipy.optimize._bglu_dense, scipy.optimize._lsap, scipy.optimize._direct, scipy.integrate._odepack, scipy.integrate._quadpack, scipy.integrate._vode, scipy.integrate._dop, scipy.integrate._lsoda, scipy.interpolate._fitpack, scipy.interpolate._dfitpack, scipy.interpolate._dierckx, scipy.interpolate._ppoly, scipy.interpolate._interpnd, scipy.interpolate._rbfinterp_pythran, scipy.interpolate._rgi_cython, scipy.interpolate._bspl, scipy.special.cython_special, scipy.stats._stats, scipy.stats._sobol, scipy.stats._qmc_cy, scipy.stats._biasedurn, scipy.stats._stats_pythran, scipy.stats._levy_stable.levyst, scipy.stats._ansari_swilk_statistics, scipy.stats._mvn, scipy.stats._rcont.rcont, scipy.ndimage._nd_image, scipy.ndimage._rank_filter_1d, _ni_label, scipy.ndimage._ni_label, pyarrow.lib, pandas._libs.tslibs.ccalendar, pandas._libs.tslibs.np_datetime, pandas._libs.tslibs.dtypes, pandas._libs.tslibs.base, pandas._libs.tslibs.nattype, pandas._libs.tslibs.timezones, pandas._libs.tslibs.fields, pandas._libs.tslibs.timedeltas, pandas._libs.tslibs.tzconversion, pandas._libs.tslibs.timestamps, pandas._libs.properties, pandas._libs.tslibs.offsets, pandas._libs.tslibs.strptime, pandas._libs.tslibs.parsing, pandas._libs.tslibs.conversion, pandas._libs.tslibs.period, pandas._libs.tslibs.vectorized, pandas._libs.ops_dispatch, pandas._libs.missing, pandas._libs.hashtable, pandas._libs.algos, pandas._libs.interval, pandas._libs.lib, pyarrow._compute, pandas._libs.ops, pandas._libs.hashing, pandas._libs.arrays, pandas._libs.tslib, pandas._libs.sparse, pandas._libs.internals, pandas._libs.indexing, pandas._libs.index, pandas._libs.writers, pandas._libs.join, pandas._libs.window.aggregations, pandas._libs.window.indexers, pandas._libs.reshape, pandas._libs.groupby, pandas._libs.json, pandas._libs.parsers, pandas._libs.testing, _cyutility, sklearn._cyutility, sklearn.utils._isfinite, sklearn.utils.sparsefuncs_fast, sklearn.utils.murmurhash, sklearn.utils._openmp_helpers, sklearn.metrics.cluster._expected_mutual_info_fast, sklearn.preprocessing._csr_polynomial_expansion, sklearn.preprocessing._target_encoder_fast, sklearn.metrics._dist_metrics, sklearn.metrics._pairwise_distances_reduction._datasets_pair, sklearn.utils._cython_blas, sklearn.metrics._pairwise_distances_reduction._base, sklearn.metrics._pairwise_distances_reduction._middle_term_computer, sklearn.utils._heap, sklearn.utils._sorting, sklearn.metrics._pairwise_distances_reduction._argkmin, sklearn.metrics._pairwise_distances_reduction._argkmin_classmode, sklearn.utils._vector_sentinel, sklearn.metrics._pairwise_distances_reduction._radius_neighbors, sklearn.metrics._pairwise_distances_reduction._radius_neighbors_classmode, sklearn.metrics._pairwise_fast, PIL._imagingft, jaxlib.cpu_feature_guard (total: 182)
/usr/lib/python3.10/multiprocessing/resource_tracker.py:224: UserWarning: resource_tracker: There appear to be 1 leaked semaphore objects to clean up at shutdown
  warnings.warn('resource_tracker: There appear to be %d '
