WARNING:root:Defaulting to PJRT_DEVICE=CPU
============================= test session starts ==============================
platform linux -- Python 3.10.12, pytest-8.4.1, pluggy-1.6.0 -- /localdev/jameszianxu/gen_mc/tt-torch/env/venv/bin/python3.10
cachedir: .pytest_cache
rootdir: /localdev/jameszianxu/gen_mc/tt-torch
configfile: pyproject.toml
plugins: cov-6.2.1, forked-1.6.0, xdist-3.8.0, split-0.10.0
collecting ... collected 1 item

tests/models/llama/test_llama3_generative.py::test_llama3_generate Loading checkpoint shards:   0%|          | 0/2 [00:00<?, ?it/s]Loading checkpoint shards: 100%|██████████| 2/2 [00:00<00:00, 51.82it/s]
[James] Manually forwarding attention mask
Initial prompt: '<|begin_of_text|>I like taking walks in the'
<|begin_of_text|>I like taking walks in the2025-08-11 19:24:42.379 (   0.000s) [        ABDE41C0]      dylib_platform.cc:47       1| DylibPlatform::SubclassInitialize
2025-08-11 19:24:42.381 (   0.001s) [        ABDE41C0]     client_instance.cc:39       1| ClientInstance::ClientInstance
2025-08-11 19:24:42.381 (   0.002s) [        ABDE41C0]              client.cc:18       1| TTClientInstance::TTClientInstance
2025-08-11 19:24:42.381 (   0.002s) [        ABDE41C0]     client_instance.cc:60       1| ClientInstance::Initialize
[32m                 Always[0m | [1m[38;5;240m   DEBUG[0m | Device grid size = { 8, 8 }
2025-08-11 19:24:45.627 (   3.248s) [        ABDE41C0]              stubs.inc:112   WARN| STUB: PJRT_Client_TopologyDescription
2025-08-11 19:24:45.627 (   3.248s) [        ABDE41C0]      error_instance.cc:49       1| ErrorInstance::PJRT_Error_Message
2025-08-11 19:24:45.627 (   3.248s) [        ABDE41C0]      error_instance.cc:58       1| ErrorInstance::PJRT_Error_GetCode
2025-08-11 19:24:45.627 (   3.248s) [        ABDE41C0]      error_instance.cc:43       1| ErrorInstance::PJRT_Error_Destroy
2025-08-11 19:24:45.627 (   3.248s) [        ABDE41C0]     client_instance.cc:383      1| ClientInstance::PJRT_Client_PlatformVersion
2025-08-11 19:24:45.627 (   3.248s) [        ABDE41C0]     client_instance.cc:363      1| ClientInstance::PJRT_Client_PlatformName
2025-08-11 19:24:45.627 (   3.248s) [        ABDE41C0]     client_instance.cc:395      1| ClientInstance::PJRT_Client_Devices
2025-08-11 19:24:45.627 (   3.248s) [        ABDE41C0]     device_instance.cc:44       1| DeviceInstance::PJRT_Device_GetDescription
2025-08-11 19:24:45.627 (   3.248s) [        ABDE41C0]  device_description.cc:63       1| DeviceDescription::PJRT_DeviceDescription_Attributes
2025-08-11 19:24:45.627 (   3.248s) [        ABDE41C0]     device_instance.cc:44       1| DeviceInstance::PJRT_Device_GetDescription
2025-08-11 19:24:45.627 (   3.248s) [        ABDE41C0]  device_description.cc:63       1| DeviceDescription::PJRT_DeviceDescription_Attributes
2025-08-11 19:24:45.627 (   3.248s) [        ABDE41C0]     client_instance.cc:408      1| ClientInstance::PJRT_Client_AddressableDevices
2025-08-11 19:24:45.627 (   3.248s) [        ABDE41C0]     client_instance.cc:458      1| ClientInstance::PJRT_Client_AddressableMemories
2025-08-11 19:24:45.627 (   3.248s) [        ABDE41C0]     device_instance.cc:71       1| DeviceInstance::PJRT_Device_AddressableMemories
2025-08-11 19:24:45.627 (   3.248s) [        ABDE41C0]     device_instance.cc:71       1| DeviceInstance::PJRT_Device_AddressableMemories
2025-08-11 19:24:45.627 (   3.248s) [        ABDE41C0]     memory_instance.cc:124      1| MemoryInstance::PJRT_Memory_AddressableByDevices
2025-08-11 19:24:45.627 (   3.248s) [        ABDE41C0]     memory_instance.cc:124      1| MemoryInstance::PJRT_Memory_AddressableByDevices
2025-08-11 19:24:45.627 (   3.248s) [        ABDE41C0]     memory_instance.cc:124      1| MemoryInstance::PJRT_Memory_AddressableByDevices
2025-08-11 19:24:45.627 (   3.248s) [        ABDE41C0]        api_bindings.cc:76       1| PJRT_Plugin_Attributes
2025-08-11 19:24:45.627462: W torch_xla/csrc/runtime/profiler.cpp:88] Profiler API not found for PJRT plugin
2025-08-11 19:24:45.627 (   3.248s) [        ABDE41C0]  device_description.cc:44       1| DeviceDescription::PJRT_DeviceDescription_Id
2025-08-11 19:24:45.627 (   3.248s) [        ABDE41C0]  device_description.cc:44       1| DeviceDescription::PJRT_DeviceDescription_Id
2025-08-11 19:24:45.627 (   3.248s) [        ABDE41C0]  device_description.cc:44       1| DeviceDescription::PJRT_DeviceDescription_Id
2025-08-11 19:24:45.627 (   3.248s) [        ABDE41C0]  device_description.cc:44       1| DeviceDescription::PJRT_DeviceDescription_Id
2025-08-11 19:24:45.627 (   3.248s) [        ABDE41C0]  device_description.cc:44       1| DeviceDescription::PJRT_DeviceDescription_Id
2025-08-11 19:24:45.627 (   3.248s) [        ABDE41C0]  device_description.cc:44       1| DeviceDescription::PJRT_DeviceDescription_Id
2025-08-11 19:24:45.627 (   3.248s) [        ABDE41C0]  device_description.cc:99       1| DeviceDescription::PJRT_DeviceDescription_ToString
2025-08-11 19:24:45.627 (   3.248s) [        ABDE41C0]  device_description.cc:99       1| DeviceDescription::PJRT_DeviceDescription_ToString
2025-08-11 19:24:45.627 (   3.248s) [        ABDE41C0]  device_description.cc:44       1| DeviceDescription::PJRT_DeviceDescription_Id
2025-08-11 19:24:45.627 (   3.248s) [        ABDE41C0]  device_description.cc:44       1| DeviceDescription::PJRT_DeviceDescription_Id
2025-08-11 19:24:45.627 (   3.248s) [        ABDE41C0]  device_description.cc:44       1| DeviceDescription::PJRT_DeviceDescription_Id
2025-08-11 19:24:45.627 (   3.248s) [        ABDE41C0]  device_description.cc:44       1| DeviceDescription::PJRT_DeviceDescription_Id
2025-08-11 19:24:45.627 (   3.248s) [        ABDE41C0]  device_description.cc:44       1| DeviceDescription::PJRT_DeviceDescription_Id
2025-08-11 19:24:45.628 (   3.249s) [        ABDE41C0]     device_instance.cc:82       1| DeviceInstance::PJRT_Device_DefaultMemory
2025-08-11 19:24:45.628 (   3.249s) [        ABDE41C0]     client_instance.cc:509      1| ClientInstance::PJRT_Client_BufferFromHostBuffer
2025-08-11 19:24:45.628 (   3.249s) [        ABDE41C0]     memory_instance.cc:57       1| MemoryInstance::getDevice
2025-08-11 19:24:45.629 (   3.249s) [        ABDE41C0]     buffer_instance.cc:228      1| [BUFFER] Creating BORROWED host tensor with shape [3072] (semantics: ZeroCopy/other)
2025-08-11 19:24:45.629 (   3.249s) [        ABDE41C0]      event_instance.cc:222      1| EventInstance::PJRT_Event_OnReady
2025-08-11 19:24:45.629 (   3.250s) [        ABDE41C0]      event_instance.cc:171      1| EventInstance::PJRT_Event_Destroy
2025-08-11 19:24:45.629 (   3.250s) [        ABDE41C0]     device_instance.cc:82       1| DeviceInstance::PJRT_Device_DefaultMemory
2025-08-11 19:24:45.629 (   3.250s) [        ABDE41C0]     client_instance.cc:509      1| ClientInstance::PJRT_Client_BufferFromHostBuffer
2025-08-11 19:24:45.629 (   3.250s) [        ABDE41C0]     memory_instance.cc:57       1| MemoryInstance::getDevice
2025-08-11 19:24:45.629 (   3.250s) [        ABDE41C0]     buffer_instance.cc:228      1| [BUFFER] Creating BORROWED host tensor with shape [3072] (semantics: ZeroCopy/other)
2025-08-11 19:24:45.629 (   3.250s) [        ABDE41C0]      event_instance.cc:222      1| EventInstance::PJRT_Event_OnReady
2025-08-11 19:24:45.629 (   3.250s) [        ABDE41C0]      event_instance.cc:171      1| EventInstance::PJRT_Event_Destroy
2025-08-11 19:24:45.629 (   3.250s) [        ABDE41C0]     device_instance.cc:82       1| DeviceInstance::PJRT_Device_DefaultMemory
2025-08-11 19:24:45.629 (   3.250s) [        ABDE41C0]     client_instance.cc:509      1| ClientInstance::PJRT_Client_BufferFromHostBuffer
2025-08-11 19:24:45.629 (   3.250s) [        ABDE41C0]     memory_instance.cc:57       1| MemoryInstance::getDevice
2025-08-11 19:24:45.629 (   3.250s) [        ABDE41C0]     buffer_instance.cc:228      1| [BUFFER] Creating BORROWED host tensor with shape [3072] (semantics: ZeroCopy/other)
2025-08-11 19:24:45.629 (   3.250s) [        ABDE41C0]      event_instance.cc:222      1| EventInstance::PJRT_Event_OnReady
2025-08-11 19:24:45.629 (   3.250s) [        ABDE41C0]      event_instance.cc:171      1| EventInstance::PJRT_Event_Destroy
2025-08-11 19:24:45.629 (   3.250s) [        ABDE41C0]     device_instance.cc:82       1| DeviceInstance::PJRT_Device_DefaultMemory
2025-08-11 19:24:45.629 (   3.250s) [        ABDE41C0]     client_instance.cc:509      1| ClientInstance::PJRT_Client_BufferFromHostBuffer
2025-08-11 19:24:45.629 (   3.250s) [        ABDE41C0]     memory_instance.cc:57       1| MemoryInstance::getDevice
2025-08-11 19:24:45.629 (   3.250s) [        ABDE41C0]     buffer_instance.cc:228      1| [BUFFER] Creating BORROWED host tensor with shape [3072] (semantics: ZeroCopy/other)
2025-08-11 19:24:45.629 (   3.250s) [        ABDE41C0]      event_instance.cc:222      1| EventInstance::PJRT_Event_OnReady
2025-08-11 19:24:45.629 (   3.250s) [        ABDE41C0]      event_instance.cc:171      1| EventInstance::PJRT_Event_Destroy
2025-08-11 19:24:45.629 (   3.250s) [        ABDE41C0]     device_instance.cc:82       1| DeviceInstance::PJRT_Device_DefaultMemory
2025-08-11 19:24:45.629 (   3.250s) [        ABDE41C0]     client_instance.cc:509      1| ClientInstance::PJRT_Client_BufferFromHostBuffer
2025-08-11 19:24:45.629 (   3.250s) [        ABDE41C0]     memory_instance.cc:57       1| MemoryInstance::getDevice
2025-08-11 19:24:45.629 (   3.250s) [        ABDE41C0]     buffer_instance.cc:228      1| [BUFFER] Creating BORROWED host tensor with shape [3072] (semantics: ZeroCopy/other)
2025-08-11 19:24:45.629 (   3.250s) [        ABDE41C0]      event_instance.cc:222      1| EventInstance::PJRT_Event_OnReady
2025-08-11 19:24:45.629 (   3.250s) [        ABDE41C0]      event_instance.cc:171      1| EventInstance::PJRT_Event_Destroy
2025-08-11 19:24:45.666 (   3.287s) [        ABDE41C0]     device_instance.cc:82       1| DeviceInstance::PJRT_Device_DefaultMemory
2025-08-11 19:24:45.667 (   3.287s) [        ABDE41C0]     client_instance.cc:509      1| ClientInstance::PJRT_Client_BufferFromHostBuffer
2025-08-11 19:24:45.667 (   3.287s) [        ABDE41C0]     memory_instance.cc:57       1| MemoryInstance::getDevice
2025-08-11 19:24:45.667 (   3.288s) [        ABDE41C0]     buffer_instance.cc:228      1| [BUFFER] Creating BORROWED host tensor with shape [128256, 3072] (semantics: ZeroCopy/other)
2025-08-11 19:24:45.667 (   3.288s) [        ABDE41C0]      event_instance.cc:222      1| EventInstance::PJRT_Event_OnReady
2025-08-11 19:24:45.667 (   3.288s) [        ABDE41C0]      event_instance.cc:171      1| EventInstance::PJRT_Event_Destroy
2025-08-11 19:24:45.667 (   3.288s) [        ABDE41C0]     device_instance.cc:82       1| DeviceInstance::PJRT_Device_DefaultMemory
2025-08-11 19:24:45.667 (   3.288s) [        ABDE41C0]     client_instance.cc:509      1| ClientInstance::PJRT_Client_BufferFromHostBuffer
2025-08-11 19:24:45.667 (   3.288s) [        ABDE41C0]     memory_instance.cc:57       1| MemoryInstance::getDevice
2025-08-11 19:24:45.667 (   3.288s) [        ABDE41C0]     buffer_instance.cc:228      1| [BUFFER] Creating BORROWED host tensor with shape [1, 64, 1] (semantics: ZeroCopy/other)
2025-08-11 19:24:45.667 (   3.288s) [        ABDE41C0]      event_instance.cc:222      1| EventInstance::PJRT_Event_OnReady
2025-08-11 19:24:45.668 (   3.288s) [        ABDE41C0]      event_instance.cc:171      1| EventInstance::PJRT_Event_Destroy
2025-08-11 19:24:45.683 (   3.304s) [        ABDE41C0]     device_instance.cc:82       1| DeviceInstance::PJRT_Device_DefaultMemory
2025-08-11 19:24:45.683 (   3.304s) [        ABDE41C0]     client_instance.cc:509      1| ClientInstance::PJRT_Client_BufferFromHostBuffer
2025-08-11 19:24:45.683 (   3.304s) [        ABDE41C0]     memory_instance.cc:57       1| MemoryInstance::getDevice
2025-08-11 19:24:45.683 (   3.304s) [        ABDE41C0]     buffer_instance.cc:228      1| [BUFFER] Creating BORROWED host tensor with shape [3072, 3072] (semantics: ZeroCopy/other)
2025-08-11 19:24:45.683 (   3.304s) [        ABDE41C0]      event_instance.cc:222      1| EventInstance::PJRT_Event_OnReady
2025-08-11 19:24:45.683 (   3.304s) [        ABDE41C0]      event_instance.cc:171      1| EventInstance::PJRT_Event_Destroy
2025-08-11 19:24:45.687 (   3.308s) [        ABDE41C0]     device_instance.cc:82       1| DeviceInstance::PJRT_Device_DefaultMemory
2025-08-11 19:24:45.687 (   3.308s) [        ABDE41C0]     client_instance.cc:509      1| ClientInstance::PJRT_Client_BufferFromHostBuffer
2025-08-11 19:24:45.687 (   3.308s) [        ABDE41C0]     memory_instance.cc:57       1| MemoryInstance::getDevice
2025-08-11 19:24:45.687 (   3.308s) [        ABDE41C0]     buffer_instance.cc:228      1| [BUFFER] Creating BORROWED host tensor with shape [3072, 1024] (semantics: ZeroCopy/other)
2025-08-11 19:24:45.687 (   3.308s) [        ABDE41C0]      event_instance.cc:222      1| EventInstance::PJRT_Event_OnReady
2025-08-11 19:24:45.687 (   3.308s) [        ABDE41C0]      event_instance.cc:171      1| EventInstance::PJRT_Event_Destroy
2025-08-11 19:24:45.692 (   3.313s) [        ABDE41C0]     device_instance.cc:82       1| DeviceInstance::PJRT_Device_DefaultMemory
2025-08-11 19:24:45.692 (   3.313s) [        ABDE41C0]     client_instance.cc:509      1| ClientInstance::PJRT_Client_BufferFromHostBuffer
2025-08-11 19:24:45.692 (   3.313s) [        ABDE41C0]     memory_instance.cc:57       1| MemoryInstance::getDevice
2025-08-11 19:24:45.692 (   3.313s) [        ABDE41C0]     buffer_instance.cc:228      1| [BUFFER] Creating BORROWED host tensor with shape [3072, 1024] (semantics: ZeroCopy/other)
2025-08-11 19:24:45.692 (   3.313s) [        ABDE41C0]      event_instance.cc:222      1| EventInstance::PJRT_Event_OnReady
2025-08-11 19:24:45.693 (   3.313s) [        ABDE41C0]      event_instance.cc:171      1| EventInstance::PJRT_Event_Destroy
2025-08-11 19:24:45.707 (   3.328s) [        ABDE41C0]     device_instance.cc:82       1| DeviceInstance::PJRT_Device_DefaultMemory
2025-08-11 19:24:45.707 (   3.328s) [        ABDE41C0]     client_instance.cc:509      1| ClientInstance::PJRT_Client_BufferFromHostBuffer
2025-08-11 19:24:45.707 (   3.328s) [        ABDE41C0]     memory_instance.cc:57       1| MemoryInstance::getDevice
2025-08-11 19:24:45.707 (   3.328s) [        ABDE41C0]     buffer_instance.cc:228      1| [BUFFER] Creating BORROWED host tensor with shape [3072, 3072] (semantics: ZeroCopy/other)
2025-08-11 19:24:45.707 (   3.328s) [        ABDE41C0]      event_instance.cc:222      1| EventInstance::PJRT_Event_OnReady
2025-08-11 19:24:45.707 (   3.328s) [        ABDE41C0]      event_instance.cc:171      1| EventInstance::PJRT_Event_Destroy
2025-08-11 19:24:45.751 (   3.372s) [        ABDE41C0]     device_instance.cc:82       1| DeviceInstance::PJRT_Device_DefaultMemory
2025-08-11 19:24:45.751 (   3.372s) [        ABDE41C0]     client_instance.cc:509      1| ClientInstance::PJRT_Client_BufferFromHostBuffer
2025-08-11 19:24:45.752 (   3.372s) [        ABDE41C0]     memory_instance.cc:57       1| MemoryInstance::getDevice
2025-08-11 19:24:45.752 (   3.373s) [        ABDE41C0]     buffer_instance.cc:228      1| [BUFFER] Creating BORROWED host tensor with shape [3072, 8192] (semantics: ZeroCopy/other)
2025-08-11 19:24:45.752 (   3.373s) [        ABDE41C0]      event_instance.cc:222      1| EventInstance::PJRT_Event_OnReady
2025-08-11 19:24:45.752 (   3.373s) [        ABDE41C0]      event_instance.cc:171      1| EventInstance::PJRT_Event_Destroy
2025-08-11 19:24:45.795 (   3.416s) [        ABDE41C0]     device_instance.cc:82       1| DeviceInstance::PJRT_Device_DefaultMemory
2025-08-11 19:24:45.795 (   3.416s) [        ABDE41C0]     client_instance.cc:509      1| ClientInstance::PJRT_Client_BufferFromHostBuffer
2025-08-11 19:24:45.795 (   3.416s) [        ABDE41C0]     memory_instance.cc:57       1| MemoryInstance::getDevice
2025-08-11 19:24:45.795 (   3.416s) [        ABDE41C0]     buffer_instance.cc:228      1| [BUFFER] Creating BORROWED host tensor with shape [3072, 8192] (semantics: ZeroCopy/other)
2025-08-11 19:24:45.795 (   3.416s) [        ABDE41C0]      event_instance.cc:222      1| EventInstance::PJRT_Event_OnReady
2025-08-11 19:24:45.796 (   3.416s) [        ABDE41C0]      event_instance.cc:171      1| EventInstance::PJRT_Event_Destroy
2025-08-11 19:24:45.836 (   3.457s) [        ABDE41C0]     device_instance.cc:82       1| DeviceInstance::PJRT_Device_DefaultMemory
2025-08-11 19:24:45.836 (   3.457s) [        ABDE41C0]     client_instance.cc:509      1| ClientInstance::PJRT_Client_BufferFromHostBuffer
2025-08-11 19:24:45.836 (   3.457s) [        ABDE41C0]     memory_instance.cc:57       1| MemoryInstance::getDevice
2025-08-11 19:24:45.837 (   3.457s) [        ABDE41C0]     buffer_instance.cc:228      1| [BUFFER] Creating BORROWED host tensor with shape [8192, 3072] (semantics: ZeroCopy/other)
2025-08-11 19:24:45.837 (   3.458s) [        ABDE41C0]      event_instance.cc:222      1| EventInstance::PJRT_Event_OnReady
2025-08-11 19:24:45.837 (   3.458s) [        ABDE41C0]      event_instance.cc:171      1| EventInstance::PJRT_Event_Destroy
2025-08-11 19:24:45.851 (   3.472s) [        ABDE41C0]     device_instance.cc:82       1| DeviceInstance::PJRT_Device_DefaultMemory
2025-08-11 19:24:45.851 (   3.472s) [        ABDE41C0]     client_instance.cc:509      1| ClientInstance::PJRT_Client_BufferFromHostBuffer
2025-08-11 19:24:45.851 (   3.472s) [        ABDE41C0]     memory_instance.cc:57       1| MemoryInstance::getDevice
2025-08-11 19:24:45.851 (   3.472s) [        ABDE41C0]     buffer_instance.cc:228      1| [BUFFER] Creating BORROWED host tensor with shape [3072, 3072] (semantics: ZeroCopy/other)
2025-08-11 19:24:45.852 (   3.472s) [        ABDE41C0]      event_instance.cc:222      1| EventInstance::PJRT_Event_OnReady
2025-08-11 19:24:45.852 (   3.472s) [        ABDE41C0]      event_instance.cc:171      1| EventInstance::PJRT_Event_Destroy
2025-08-11 19:24:45.857 (   3.477s) [        ABDE41C0]     device_instance.cc:82       1| DeviceInstance::PJRT_Device_DefaultMemory
2025-08-11 19:24:45.857 (   3.477s) [        ABDE41C0]     client_instance.cc:509      1| ClientInstance::PJRT_Client_BufferFromHostBuffer
2025-08-11 19:24:45.857 (   3.477s) [        ABDE41C0]     memory_instance.cc:57       1| MemoryInstance::getDevice
2025-08-11 19:24:45.857 (   3.478s) [        ABDE41C0]     buffer_instance.cc:228      1| [BUFFER] Creating BORROWED host tensor with shape [3072, 1024] (semantics: ZeroCopy/other)
2025-08-11 19:24:45.857 (   3.478s) [        ABDE41C0]      event_instance.cc:222      1| EventInstance::PJRT_Event_OnReady
2025-08-11 19:24:45.857 (   3.478s) [        ABDE41C0]      event_instance.cc:171      1| EventInstance::PJRT_Event_Destroy
2025-08-11 19:24:45.862 (   3.483s) [        ABDE41C0]     device_instance.cc:82       1| DeviceInstance::PJRT_Device_DefaultMemory
2025-08-11 19:24:45.862 (   3.483s) [        ABDE41C0]     client_instance.cc:509      1| ClientInstance::PJRT_Client_BufferFromHostBuffer
2025-08-11 19:24:45.862 (   3.483s) [        ABDE41C0]     memory_instance.cc:57       1| MemoryInstance::getDevice
2025-08-11 19:24:45.862 (   3.483s) [        ABDE41C0]     buffer_instance.cc:228      1| [BUFFER] Creating BORROWED host tensor with shape [3072, 1024] (semantics: ZeroCopy/other)
2025-08-11 19:24:45.862 (   3.483s) [        ABDE41C0]      event_instance.cc:222      1| EventInstance::PJRT_Event_OnReady
2025-08-11 19:24:45.862 (   3.483s) [        ABDE41C0]      event_instance.cc:171      1| EventInstance::PJRT_Event_Destroy
2025-08-11 19:24:45.877 (   3.498s) [        ABDE41C0]     device_instance.cc:82       1| DeviceInstance::PJRT_Device_DefaultMemory
2025-08-11 19:24:45.877 (   3.498s) [        ABDE41C0]     client_instance.cc:509      1| ClientInstance::PJRT_Client_BufferFromHostBuffer
2025-08-11 19:24:45.877 (   3.498s) [        ABDE41C0]     memory_instance.cc:57       1| MemoryInstance::getDevice
2025-08-11 19:24:45.877 (   3.498s) [        ABDE41C0]     buffer_instance.cc:228      1| [BUFFER] Creating BORROWED host tensor with shape [3072, 3072] (semantics: ZeroCopy/other)
2025-08-11 19:24:45.877 (   3.498s) [        ABDE41C0]      event_instance.cc:222      1| EventInstance::PJRT_Event_OnReady
2025-08-11 19:24:45.877 (   3.498s) [        ABDE41C0]      event_instance.cc:171      1| EventInstance::PJRT_Event_Destroy
2025-08-11 19:24:45.920 (   3.541s) [        ABDE41C0]     device_instance.cc:82       1| DeviceInstance::PJRT_Device_DefaultMemory
2025-08-11 19:24:45.920 (   3.541s) [        ABDE41C0]     client_instance.cc:509      1| ClientInstance::PJRT_Client_BufferFromHostBuffer
2025-08-11 19:24:45.920 (   3.541s) [        ABDE41C0]     memory_instance.cc:57       1| MemoryInstance::getDevice
2025-08-11 19:24:45.921 (   3.541s) [        ABDE41C0]     buffer_instance.cc:228      1| [BUFFER] Creating BORROWED host tensor with shape [3072, 8192] (semantics: ZeroCopy/other)
2025-08-11 19:24:45.921 (   3.542s) [        ABDE41C0]      event_instance.cc:222      1| EventInstance::PJRT_Event_OnReady
2025-08-11 19:24:45.921 (   3.542s) [        ABDE41C0]      event_instance.cc:171      1| EventInstance::PJRT_Event_Destroy
2025-08-11 19:24:45.964 (   3.585s) [        ABDE41C0]     device_instance.cc:82       1| DeviceInstance::PJRT_Device_DefaultMemory
2025-08-11 19:24:45.964 (   3.585s) [        ABDE41C0]     client_instance.cc:509      1| ClientInstance::PJRT_Client_BufferFromHostBuffer
2025-08-11 19:24:45.964 (   3.585s) [        ABDE41C0]     memory_instance.cc:57       1| MemoryInstance::getDevice
2025-08-11 19:24:45.964 (   3.585s) [        ABDE41C0]     buffer_instance.cc:228      1| [BUFFER] Creating BORROWED host tensor with shape [3072, 8192] (semantics: ZeroCopy/other)
2025-08-11 19:24:45.964 (   3.585s) [        ABDE41C0]      event_instance.cc:222      1| EventInstance::PJRT_Event_OnReady
2025-08-11 19:24:45.964 (   3.585s) [        ABDE41C0]      event_instance.cc:171      1| EventInstance::PJRT_Event_Destroy
2025-08-11 19:24:46.006 (   3.626s) [        ABDE41C0]     device_instance.cc:82       1| DeviceInstance::PJRT_Device_DefaultMemory
2025-08-11 19:24:46.006 (   3.626s) [        ABDE41C0]     client_instance.cc:509      1| ClientInstance::PJRT_Client_BufferFromHostBuffer
2025-08-11 19:24:46.006 (   3.626s) [        ABDE41C0]     memory_instance.cc:57       1| MemoryInstance::getDevice
2025-08-11 19:24:46.006 (   3.627s) [        ABDE41C0]     buffer_instance.cc:228      1| [BUFFER] Creating BORROWED host tensor with shape [8192, 3072] (semantics: ZeroCopy/other)
2025-08-11 19:24:46.006 (   3.627s) [        ABDE41C0]      event_instance.cc:222      1| EventInstance::PJRT_Event_OnReady
2025-08-11 19:24:46.006 (   3.627s) [        ABDE41C0]      event_instance.cc:171      1| EventInstance::PJRT_Event_Destroy
2025-08-11 19:24:46.731 (   4.352s) [        ABDE41C0]     device_instance.cc:82       1| DeviceInstance::PJRT_Device_DefaultMemory
2025-08-11 19:24:46.731 (   4.352s) [        ABDE41C0]     client_instance.cc:509      1| ClientInstance::PJRT_Client_BufferFromHostBuffer
2025-08-11 19:24:46.731 (   4.352s) [        ABDE41C0]     memory_instance.cc:57       1| MemoryInstance::getDevice
2025-08-11 19:24:46.732 (   4.353s) [        ABDE41C0]     buffer_instance.cc:228      1| [BUFFER] Creating BORROWED host tensor with shape [3072, 128256] (semantics: ZeroCopy/other)
2025-08-11 19:24:46.732 (   4.353s) [        ABDE41C0]      event_instance.cc:222      1| EventInstance::PJRT_Event_OnReady
2025-08-11 19:24:46.732 (   4.353s) [        ABDE41C0]      event_instance.cc:171      1| EventInstance::PJRT_Event_Destroy
2025-08-11 19:24:46.736 (   4.357s) [        ABDE41C0]     device_instance.cc:82       1| DeviceInstance::PJRT_Device_DefaultMemory
2025-08-11 19:24:46.736 (   4.357s) [        ABDE41C0]     client_instance.cc:509      1| ClientInstance::PJRT_Client_BufferFromHostBuffer
2025-08-11 19:24:46.736 (   4.357s) [        ABDE41C0]     memory_instance.cc:57       1| MemoryInstance::getDevice
2025-08-11 19:24:46.736 (   4.357s) [        ABDE41C0]     buffer_instance.cc:228      1| [BUFFER] Creating BORROWED host tensor with shape [3072, 3072] (semantics: ZeroCopy/other)
2025-08-11 19:24:46.736 (   4.357s) [        ABDE41C0]      event_instance.cc:222      1| EventInstance::PJRT_Event_OnReady
2025-08-11 19:24:46.736 (   4.357s) [        ABDE41C0]      event_instance.cc:171      1| EventInstance::PJRT_Event_Destroy
2025-08-11 19:24:46.749 (   4.370s) [        ABDE41C0]     device_instance.cc:82       1| DeviceInstance::PJRT_Device_DefaultMemory
2025-08-11 19:24:46.749 (   4.370s) [        ABDE41C0]     client_instance.cc:509      1| ClientInstance::PJRT_Client_BufferFromHostBuffer
2025-08-11 19:24:46.749 (   4.370s) [        ABDE41C0]     memory_instance.cc:57       1| MemoryInstance::getDevice
2025-08-11 19:24:46.750 (   4.370s) [        ABDE41C0]     buffer_instance.cc:228      1| [BUFFER] Creating BORROWED host tensor with shape [1024, 3072] (semantics: ZeroCopy/other)
2025-08-11 19:24:46.750 (   4.370s) [        ABDE41C0]      event_instance.cc:222      1| EventInstance::PJRT_Event_OnReady
2025-08-11 19:24:46.750 (   4.370s) [        ABDE41C0]      event_instance.cc:171      1| EventInstance::PJRT_Event_Destroy
2025-08-11 19:24:46.750 (   4.371s) [        ABDE41C0]     device_instance.cc:82       1| DeviceInstance::PJRT_Device_DefaultMemory
2025-08-11 19:24:46.750 (   4.371s) [        ABDE41C0]     client_instance.cc:509      1| ClientInstance::PJRT_Client_BufferFromHostBuffer
2025-08-11 19:24:46.750 (   4.371s) [        ABDE41C0]     memory_instance.cc:57       1| MemoryInstance::getDevice
2025-08-11 19:24:46.751 (   4.371s) [        ABDE41C0]     buffer_instance.cc:228      1| [BUFFER] Creating BORROWED host tensor with shape [1024, 3072] (semantics: ZeroCopy/other)
2025-08-11 19:24:46.751 (   4.371s) [        ABDE41C0]      event_instance.cc:222      1| EventInstance::PJRT_Event_OnReady
2025-08-11 19:24:46.751 (   4.371s) [        ABDE41C0]      event_instance.cc:171      1| EventInstance::PJRT_Event_Destroy
2025-08-11 19:24:46.752 (   4.373s) [        ABDE41C0]     device_instance.cc:82       1| DeviceInstance::PJRT_Device_DefaultMemory
2025-08-11 19:24:46.752 (   4.373s) [        ABDE41C0]     client_instance.cc:509      1| ClientInstance::PJRT_Client_BufferFromHostBuffer
2025-08-11 19:24:46.752 (   4.373s) [        ABDE41C0]     memory_instance.cc:57       1| MemoryInstance::getDevice
2025-08-11 19:24:46.752 (   4.373s) [        ABDE41C0]     buffer_instance.cc:228      1| [BUFFER] Creating BORROWED host tensor with shape [3072, 3072] (semantics: ZeroCopy/other)
2025-08-11 19:24:46.752 (   4.373s) [        ABDE41C0]      event_instance.cc:222      1| EventInstance::PJRT_Event_OnReady
2025-08-11 19:24:46.752 (   4.373s) [        ABDE41C0]      event_instance.cc:171      1| EventInstance::PJRT_Event_Destroy
2025-08-11 19:24:46.755 (   4.376s) [        ABDE41C0]     device_instance.cc:82       1| DeviceInstance::PJRT_Device_DefaultMemory
2025-08-11 19:24:46.755 (   4.376s) [        ABDE41C0]     client_instance.cc:509      1| ClientInstance::PJRT_Client_BufferFromHostBuffer
2025-08-11 19:24:46.755 (   4.376s) [        ABDE41C0]     memory_instance.cc:57       1| MemoryInstance::getDevice
2025-08-11 19:24:46.755 (   4.376s) [        ABDE41C0]     buffer_instance.cc:228      1| [BUFFER] Creating BORROWED host tensor with shape [8192, 3072] (semantics: ZeroCopy/other)
2025-08-11 19:24:46.755 (   4.376s) [        ABDE41C0]      event_instance.cc:222      1| EventInstance::PJRT_Event_OnReady
2025-08-11 19:24:46.755 (   4.376s) [        ABDE41C0]      event_instance.cc:171      1| EventInstance::PJRT_Event_Destroy
2025-08-11 19:24:46.758 (   4.379s) [        ABDE41C0]     device_instance.cc:82       1| DeviceInstance::PJRT_Device_DefaultMemory
2025-08-11 19:24:46.758 (   4.379s) [        ABDE41C0]     client_instance.cc:509      1| ClientInstance::PJRT_Client_BufferFromHostBuffer
2025-08-11 19:24:46.758 (   4.379s) [        ABDE41C0]     memory_instance.cc:57       1| MemoryInstance::getDevice
2025-08-11 19:24:46.758 (   4.379s) [        ABDE41C0]     buffer_instance.cc:228      1| [BUFFER] Creating BORROWED host tensor with shape [8192, 3072] (semantics: ZeroCopy/other)
2025-08-11 19:24:46.758 (   4.379s) [        ABDE41C0]      event_instance.cc:222      1| EventInstance::PJRT_Event_OnReady
2025-08-11 19:24:46.758 (   4.379s) [        ABDE41C0]      event_instance.cc:171      1| EventInstance::PJRT_Event_Destroy
2025-08-11 19:24:46.761 (   4.382s) [        ABDE41C0]     device_instance.cc:82       1| DeviceInstance::PJRT_Device_DefaultMemory
2025-08-11 19:24:46.761 (   4.382s) [        ABDE41C0]     client_instance.cc:509      1| ClientInstance::PJRT_Client_BufferFromHostBuffer
2025-08-11 19:24:46.761 (   4.382s) [        ABDE41C0]     memory_instance.cc:57       1| MemoryInstance::getDevice
2025-08-11 19:24:46.761 (   4.382s) [        ABDE41C0]     buffer_instance.cc:228      1| [BUFFER] Creating BORROWED host tensor with shape [3072, 8192] (semantics: ZeroCopy/other)
2025-08-11 19:24:46.761 (   4.382s) [        ABDE41C0]      event_instance.cc:222      1| EventInstance::PJRT_Event_OnReady
2025-08-11 19:24:46.761 (   4.382s) [        ABDE41C0]      event_instance.cc:171      1| EventInstance::PJRT_Event_Destroy
2025-08-11 19:24:46.762 (   4.383s) [        ABDE41C0]     device_instance.cc:82       1| DeviceInstance::PJRT_Device_DefaultMemory
2025-08-11 19:24:46.762 (   4.383s) [        ABDE41C0]     client_instance.cc:509      1| ClientInstance::PJRT_Client_BufferFromHostBuffer
2025-08-11 19:24:46.762 (   4.383s) [        ABDE41C0]     memory_instance.cc:57       1| MemoryInstance::getDevice
2025-08-11 19:24:46.762 (   4.383s) [        ABDE41C0]     buffer_instance.cc:228      1| [BUFFER] Creating BORROWED host tensor with shape [3072, 3072] (semantics: ZeroCopy/other)
2025-08-11 19:24:46.762 (   4.383s) [        ABDE41C0]      event_instance.cc:222      1| EventInstance::PJRT_Event_OnReady
2025-08-11 19:24:46.762 (   4.383s) [        ABDE41C0]      event_instance.cc:171      1| EventInstance::PJRT_Event_Destroy
2025-08-11 19:24:46.763 (   4.384s) [        ABDE41C0]     device_instance.cc:82       1| DeviceInstance::PJRT_Device_DefaultMemory
2025-08-11 19:24:46.763 (   4.384s) [        ABDE41C0]     client_instance.cc:509      1| ClientInstance::PJRT_Client_BufferFromHostBuffer
2025-08-11 19:24:46.763 (   4.384s) [        ABDE41C0]     memory_instance.cc:57       1| MemoryInstance::getDevice
2025-08-11 19:24:46.763 (   4.384s) [        ABDE41C0]     buffer_instance.cc:228      1| [BUFFER] Creating BORROWED host tensor with shape [1024, 3072] (semantics: ZeroCopy/other)
2025-08-11 19:24:46.763 (   4.384s) [        ABDE41C0]      event_instance.cc:222      1| EventInstance::PJRT_Event_OnReady
2025-08-11 19:24:46.763 (   4.384s) [        ABDE41C0]      event_instance.cc:171      1| EventInstance::PJRT_Event_Destroy
2025-08-11 19:24:46.764 (   4.384s) [        ABDE41C0]     device_instance.cc:82       1| DeviceInstance::PJRT_Device_DefaultMemory
2025-08-11 19:24:46.764 (   4.384s) [        ABDE41C0]     client_instance.cc:509      1| ClientInstance::PJRT_Client_BufferFromHostBuffer
2025-08-11 19:24:46.764 (   4.384s) [        ABDE41C0]     memory_instance.cc:57       1| MemoryInstance::getDevice
2025-08-11 19:24:46.764 (   4.385s) [        ABDE41C0]     buffer_instance.cc:228      1| [BUFFER] Creating BORROWED host tensor with shape [1024, 3072] (semantics: ZeroCopy/other)
2025-08-11 19:24:46.764 (   4.385s) [        ABDE41C0]      event_instance.cc:222      1| EventInstance::PJRT_Event_OnReady
2025-08-11 19:24:46.764 (   4.385s) [        ABDE41C0]      event_instance.cc:171      1| EventInstance::PJRT_Event_Destroy
2025-08-11 19:24:46.765 (   4.386s) [        ABDE41C0]     device_instance.cc:82       1| DeviceInstance::PJRT_Device_DefaultMemory
2025-08-11 19:24:46.765 (   4.386s) [        ABDE41C0]     client_instance.cc:509      1| ClientInstance::PJRT_Client_BufferFromHostBuffer
2025-08-11 19:24:46.765 (   4.386s) [        ABDE41C0]     memory_instance.cc:57       1| MemoryInstance::getDevice
2025-08-11 19:24:46.765 (   4.386s) [        ABDE41C0]     buffer_instance.cc:228      1| [BUFFER] Creating BORROWED host tensor with shape [3072, 3072] (semantics: ZeroCopy/other)
2025-08-11 19:24:46.765 (   4.386s) [        ABDE41C0]      event_instance.cc:222      1| EventInstance::PJRT_Event_OnReady
2025-08-11 19:24:46.765 (   4.386s) [        ABDE41C0]      event_instance.cc:171      1| EventInstance::PJRT_Event_Destroy
2025-08-11 19:24:46.768 (   4.389s) [        ABDE41C0]     device_instance.cc:82       1| DeviceInstance::PJRT_Device_DefaultMemory
2025-08-11 19:24:46.768 (   4.389s) [        ABDE41C0]     client_instance.cc:509      1| ClientInstance::PJRT_Client_BufferFromHostBuffer
2025-08-11 19:24:46.768 (   4.389s) [        ABDE41C0]     memory_instance.cc:57       1| MemoryInstance::getDevice
2025-08-11 19:24:46.768 (   4.389s) [        ABDE41C0]     buffer_instance.cc:228      1| [BUFFER] Creating BORROWED host tensor with shape [8192, 3072] (semantics: ZeroCopy/other)
2025-08-11 19:24:46.768 (   4.389s) [        ABDE41C0]      event_instance.cc:222      1| EventInstance::PJRT_Event_OnReady
2025-08-11 19:24:46.768 (   4.389s) [        ABDE41C0]      event_instance.cc:171      1| EventInstance::PJRT_Event_Destroy
2025-08-11 19:24:46.771 (   4.391s) [        ABDE41C0]     device_instance.cc:82       1| DeviceInstance::PJRT_Device_DefaultMemory
2025-08-11 19:24:46.771 (   4.391s) [        ABDE41C0]     client_instance.cc:509      1| ClientInstance::PJRT_Client_BufferFromHostBuffer
2025-08-11 19:24:46.771 (   4.391s) [        ABDE41C0]     memory_instance.cc:57       1| MemoryInstance::getDevice
2025-08-11 19:24:46.771 (   4.392s) [        ABDE41C0]     buffer_instance.cc:228      1| [BUFFER] Creating BORROWED host tensor with shape [8192, 3072] (semantics: ZeroCopy/other)
2025-08-11 19:24:46.771 (   4.392s) [        ABDE41C0]      event_instance.cc:222      1| EventInstance::PJRT_Event_OnReady
2025-08-11 19:24:46.771 (   4.392s) [        ABDE41C0]      event_instance.cc:171      1| EventInstance::PJRT_Event_Destroy
2025-08-11 19:24:46.773 (   4.394s) [        ABDE41C0]     device_instance.cc:82       1| DeviceInstance::PJRT_Device_DefaultMemory
2025-08-11 19:24:46.773 (   4.394s) [        ABDE41C0]     client_instance.cc:509      1| ClientInstance::PJRT_Client_BufferFromHostBuffer
2025-08-11 19:24:46.773 (   4.394s) [        ABDE41C0]     memory_instance.cc:57       1| MemoryInstance::getDevice
2025-08-11 19:24:46.774 (   4.394s) [        ABDE41C0]     buffer_instance.cc:228      1| [BUFFER] Creating BORROWED host tensor with shape [3072, 8192] (semantics: ZeroCopy/other)
2025-08-11 19:24:46.774 (   4.394s) [        ABDE41C0]      event_instance.cc:222      1| EventInstance::PJRT_Event_OnReady
2025-08-11 19:24:46.774 (   4.394s) [        ABDE41C0]      event_instance.cc:171      1| EventInstance::PJRT_Event_Destroy
2025-08-11 19:24:46.812 (   4.433s) [        ABDE41C0]     device_instance.cc:82       1| DeviceInstance::PJRT_Device_DefaultMemory
2025-08-11 19:24:46.812 (   4.433s) [        ABDE41C0]     client_instance.cc:509      1| ClientInstance::PJRT_Client_BufferFromHostBuffer
2025-08-11 19:24:46.812 (   4.433s) [        ABDE41C0]     memory_instance.cc:57       1| MemoryInstance::getDevice
2025-08-11 19:24:46.813 (   4.433s) [        ABDE41C0]     buffer_instance.cc:228      1| [BUFFER] Creating BORROWED host tensor with shape [128256, 3072] (semantics: ZeroCopy/other)
2025-08-11 19:24:46.813 (   4.434s) [        ABDE41C0]      event_instance.cc:222      1| EventInstance::PJRT_Event_OnReady
2025-08-11 19:24:46.813 (   4.434s) [        ABDE41C0]      event_instance.cc:171      1| EventInstance::PJRT_Event_Destroy
2025-08-11 19:24:46.813 (   4.434s) [        ABDE41C0]     device_instance.cc:82       1| DeviceInstance::PJRT_Device_DefaultMemory
2025-08-11 19:24:46.813 (   4.434s) [        ABDE41C0]     client_instance.cc:509      1| ClientInstance::PJRT_Client_BufferFromHostBuffer
2025-08-11 19:24:46.813 (   4.434s) [        ABDE41C0]     memory_instance.cc:57       1| MemoryInstance::getDevice
2025-08-11 19:24:46.813 (   4.434s) [        ABDE41C0]     buffer_instance.cc:228      1| [BUFFER] Creating BORROWED host tensor with shape [1, 8, 128, 128] (semantics: ZeroCopy/other)
2025-08-11 19:24:46.813 (   4.434s) [        ABDE41C0]      event_instance.cc:222      1| EventInstance::PJRT_Event_OnReady
2025-08-11 19:24:46.813 (   4.434s) [        ABDE41C0]      event_instance.cc:171      1| EventInstance::PJRT_Event_Destroy
2025-08-11 19:24:46.813 (   4.434s) [        ABDE41C0]     device_instance.cc:82       1| DeviceInstance::PJRT_Device_DefaultMemory
2025-08-11 19:24:46.813 (   4.434s) [        ABDE41C0]     client_instance.cc:509      1| ClientInstance::PJRT_Client_BufferFromHostBuffer
2025-08-11 19:24:46.813 (   4.434s) [        ABDE41C0]     memory_instance.cc:57       1| MemoryInstance::getDevice
2025-08-11 19:24:46.814 (   4.434s) [        ABDE41C0]     buffer_instance.cc:228      1| [BUFFER] Creating BORROWED host tensor with shape [1, 8, 128, 128] (semantics: ZeroCopy/other)
2025-08-11 19:24:46.814 (   4.434s) [        ABDE41C0]      event_instance.cc:222      1| EventInstance::PJRT_Event_OnReady
2025-08-11 19:24:46.814 (   4.434s) [        ABDE41C0]      event_instance.cc:171      1| EventInstance::PJRT_Event_Destroy
2025-08-11 19:24:46.814 (   4.435s) [        ABDE41C0]     device_instance.cc:82       1| DeviceInstance::PJRT_Device_DefaultMemory
2025-08-11 19:24:46.814 (   4.435s) [        ABDE41C0]     client_instance.cc:509      1| ClientInstance::PJRT_Client_BufferFromHostBuffer
2025-08-11 19:24:46.814 (   4.435s) [        ABDE41C0]     memory_instance.cc:57       1| MemoryInstance::getDevice
2025-08-11 19:24:46.814 (   4.435s) [        ABDE41C0]     buffer_instance.cc:228      1| [BUFFER] Creating BORROWED host tensor with shape [1, 8, 128, 128] (semantics: ZeroCopy/other)
2025-08-11 19:24:46.814 (   4.435s) [        ABDE41C0]      event_instance.cc:222      1| EventInstance::PJRT_Event_OnReady
2025-08-11 19:24:46.814 (   4.435s) [        ABDE41C0]      event_instance.cc:171      1| EventInstance::PJRT_Event_Destroy
2025-08-11 19:24:46.814 (   4.435s) [        ABDE41C0]     device_instance.cc:82       1| DeviceInstance::PJRT_Device_DefaultMemory
2025-08-11 19:24:46.814 (   4.435s) [        ABDE41C0]     client_instance.cc:509      1| ClientInstance::PJRT_Client_BufferFromHostBuffer
2025-08-11 19:24:46.814 (   4.435s) [        ABDE41C0]     memory_instance.cc:57       1| MemoryInstance::getDevice
2025-08-11 19:24:46.814 (   4.435s) [        ABDE41C0]     buffer_instance.cc:228      1| [BUFFER] Creating BORROWED host tensor with shape [1, 8, 128, 128] (semantics: ZeroCopy/other)
2025-08-11 19:24:46.814 (   4.435s) [        ABDE41C0]      event_instance.cc:222      1| EventInstance::PJRT_Event_OnReady
2025-08-11 19:24:46.814 (   4.435s) [        ABDE41C0]      event_instance.cc:171      1| EventInstance::PJRT_Event_Destroy
2025-08-11 19:24:46.814 (   4.435s) [        ABDE41C0]     device_instance.cc:82       1| DeviceInstance::PJRT_Device_DefaultMemory
2025-08-11 19:24:46.814 (   4.435s) [        ABDE41C0]     client_instance.cc:509      1| ClientInstance::PJRT_Client_BufferFromHostBuffer
2025-08-11 19:24:46.814 (   4.435s) [        ABDE41C0]     memory_instance.cc:57       1| MemoryInstance::getDevice
2025-08-11 19:24:46.814 (   4.435s) [        ABDE41C0]     buffer_instance.cc:228      1| [BUFFER] Creating BORROWED host tensor with shape [64] (semantics: ZeroCopy/other)
2025-08-11 19:24:46.814 (   4.435s) [        ABDE41C0]      event_instance.cc:222      1| EventInstance::PJRT_Event_OnReady
2025-08-11 19:24:46.814 (   4.435s) [        ABDE41C0]      event_instance.cc:171      1| EventInstance::PJRT_Event_Destroy
2025-08-11 19:24:46.881 (   4.502s) [        ABDE41C0]     device_instance.cc:82       1| DeviceInstance::PJRT_Device_DefaultMemory
2025-08-11 19:24:46.881 (   4.502s) [        ABDE41C0]     client_instance.cc:509      1| ClientInstance::PJRT_Client_BufferFromHostBuffer
2025-08-11 19:24:46.881 (   4.502s) [        ABDE41C0]     memory_instance.cc:57       1| MemoryInstance::getDevice
2025-08-11 19:24:46.882 (   4.502s) [        ABDE41C0]     buffer_instance.cc:213      1| [BUFFER] Creating OWNED host tensor with shape [1, 7] (semantics: other, supported_dtype: false)
[32m                 Always[0m | [1m[38;5;208m WARNING[0m | User provided a tensor of data type: Int64 which is not supported by runtime/ttnn. Casting to: Int32, this may impact throughput and the integrity of the data.
2025-08-11 19:24:46.882 (   4.502s) [        ABDE41C0]      event_instance.cc:222      1| EventInstance::PJRT_Event_OnReady
2025-08-11 19:24:46.882 (   4.502s) [        ABDE41C0]      event_instance.cc:171      1| EventInstance::PJRT_Event_Destroy
2025-08-11 19:24:46.882 (   4.503s) [        ABDE41C0]     device_instance.cc:82       1| DeviceInstance::PJRT_Device_DefaultMemory
2025-08-11 19:24:46.882 (   4.503s) [        ABDE41C0]     client_instance.cc:509      1| ClientInstance::PJRT_Client_BufferFromHostBuffer
2025-08-11 19:24:46.882 (   4.503s) [        ABDE41C0]     memory_instance.cc:57       1| MemoryInstance::getDevice
2025-08-11 19:24:46.882 (   4.503s) [        ABDE41C0]     buffer_instance.cc:213      1| [BUFFER] Creating OWNED host tensor with shape [7] (semantics: other, supported_dtype: false)
[32m                 Always[0m | [1m[38;5;208m WARNING[0m | User provided a tensor of data type: Int64 which is not supported by runtime/ttnn. Casting to: Int32, this may impact throughput and the integrity of the data.
2025-08-11 19:24:46.882 (   4.503s) [        ABDE41C0]      event_instance.cc:222      1| EventInstance::PJRT_Event_OnReady
2025-08-11 19:24:46.882 (   4.503s) [        ABDE41C0]      event_instance.cc:171      1| EventInstance::PJRT_Event_Destroy
2025-08-11 19:24:46.882 (   4.503s) [        ABDE41C0]     device_instance.cc:82       1| DeviceInstance::PJRT_Device_DefaultMemory
2025-08-11 19:24:46.882 (   4.503s) [        ABDE41C0]     client_instance.cc:509      1| ClientInstance::PJRT_Client_BufferFromHostBuffer
2025-08-11 19:24:46.882 (   4.503s) [        ABDE41C0]     memory_instance.cc:57       1| MemoryInstance::getDevice
2025-08-11 19:24:46.882 (   4.503s) [        ABDE41C0]     buffer_instance.cc:228      1| [BUFFER] Creating BORROWED host tensor with shape [1, 1, 7, 128] (semantics: ZeroCopy/other)
2025-08-11 19:24:46.882 (   4.503s) [        ABDE41C0]      event_instance.cc:222      1| EventInstance::PJRT_Event_OnReady
2025-08-11 19:24:46.882 (   4.503s) [        ABDE41C0]      event_instance.cc:171      1| EventInstance::PJRT_Event_Destroy
2025-08-11 19:24:46.884 (   4.505s) [        ABDE41C0]     device_instance.cc:82       1| DeviceInstance::PJRT_Device_DefaultMemory
2025-08-11 19:24:46.884 (   4.505s) [        ABDE41C0]     client_instance.cc:509      1| ClientInstance::PJRT_Client_BufferFromHostBuffer
2025-08-11 19:24:46.884 (   4.505s) [        ABDE41C0]     memory_instance.cc:57       1| MemoryInstance::getDevice
2025-08-11 19:24:46.884 (   4.505s) [        ABDE41C0]     buffer_instance.cc:228      1| [BUFFER] Creating BORROWED host tensor with shape [1] (semantics: ZeroCopy/other)
2025-08-11 19:24:46.884 (   4.505s) [        ABDE41C0]      event_instance.cc:222      1| EventInstance::PJRT_Event_OnReady
2025-08-11 19:24:46.884 (   4.505s) [        ABDE41C0]      event_instance.cc:171      1| EventInstance::PJRT_Event_Destroy
2025-08-11 19:24:46.886 (   4.506s) [        ABDE41C0]     device_instance.cc:82       1| DeviceInstance::PJRT_Device_DefaultMemory
2025-08-11 19:24:46.886 (   4.506s) [        ABDE41C0]     client_instance.cc:509      1| ClientInstance::PJRT_Client_BufferFromHostBuffer
2025-08-11 19:24:46.886 (   4.506s) [        ABDE41C0]     memory_instance.cc:57       1| MemoryInstance::getDevice
2025-08-11 19:24:46.886 (   4.506s) [        ABDE41C0]     buffer_instance.cc:213      1| [BUFFER] Creating OWNED host tensor with shape [1] (semantics: other, supported_dtype: false)
[32m                 Always[0m | [1m[38;5;208m WARNING[0m | User provided a tensor of data type: Int64 which is not supported by runtime/ttnn. Casting to: Int32, this may impact throughput and the integrity of the data.
2025-08-11 19:24:46.886 (   4.506s) [        ABDE41C0]      event_instance.cc:222      1| EventInstance::PJRT_Event_OnReady
2025-08-11 19:24:46.886 (   4.507s) [        ABDE41C0]      event_instance.cc:171      1| EventInstance::PJRT_Event_Destroy
2025-08-11 19:24:46.886 (   4.507s) [        ABDE41C0]     device_instance.cc:82       1| DeviceInstance::PJRT_Device_DefaultMemory
2025-08-11 19:24:46.886 (   4.507s) [        ABDE41C0]     client_instance.cc:509      1| ClientInstance::PJRT_Client_BufferFromHostBuffer
2025-08-11 19:24:46.886 (   4.507s) [        ABDE41C0]     memory_instance.cc:57       1| MemoryInstance::getDevice
2025-08-11 19:24:46.887 (   4.507s) [        ABDE41C0]     buffer_instance.cc:228      1| [BUFFER] Creating BORROWED host tensor with shape [1] (semantics: ZeroCopy/other)
2025-08-11 19:24:46.887 (   4.507s) [        ABDE41C0]      event_instance.cc:222      1| EventInstance::PJRT_Event_OnReady
2025-08-11 19:24:46.887 (   4.507s) [        ABDE41C0]      event_instance.cc:171      1| EventInstance::PJRT_Event_Destroy
2025-08-11 19:24:46.892 (   4.513s) [        ABDE41C0]     buffer_instance.cc:526      1| BufferInstance::PJRT_Buffer_IsDeleted
2025-08-11 19:24:46.892 (   4.513s) [        ABDE41C0]     buffer_instance.cc:526      1| BufferInstance::PJRT_Buffer_IsDeleted
2025-08-11 19:24:46.892 (   4.513s) [        ABDE41C0]     buffer_instance.cc:526      1| BufferInstance::PJRT_Buffer_IsDeleted
2025-08-11 19:24:46.892 (   4.513s) [        ABDE41C0]     buffer_instance.cc:526      1| BufferInstance::PJRT_Buffer_IsDeleted
2025-08-11 19:24:46.892 (   4.513s) [        ABDE41C0]     buffer_instance.cc:526      1| BufferInstance::PJRT_Buffer_IsDeleted
2025-08-11 19:24:46.892 (   4.513s) [        ABDE41C0]     buffer_instance.cc:526      1| BufferInstance::PJRT_Buffer_IsDeleted
2025-08-11 19:24:46.892 (   4.513s) [        ABDE41C0]     buffer_instance.cc:526      1| BufferInstance::PJRT_Buffer_IsDeleted
2025-08-11 19:24:46.892 (   4.513s) [        ABDE41C0]     buffer_instance.cc:526      1| BufferInstance::PJRT_Buffer_IsDeleted
2025-08-11 19:24:46.892 (   4.513s) [        ABDE41C0]     buffer_instance.cc:526      1| BufferInstance::PJRT_Buffer_IsDeleted
2025-08-11 19:24:46.892 (   4.513s) [        ABDE41C0]     buffer_instance.cc:526      1| BufferInstance::PJRT_Buffer_IsDeleted
2025-08-11 19:24:46.892 (   4.513s) [        ABDE41C0]     buffer_instance.cc:526      1| BufferInstance::PJRT_Buffer_IsDeleted
2025-08-11 19:24:46.892 (   4.513s) [        ABDE41C0]     buffer_instance.cc:526      1| BufferInstance::PJRT_Buffer_IsDeleted
2025-08-11 19:24:46.892 (   4.513s) [        ABDE41C0]     buffer_instance.cc:526      1| BufferInstance::PJRT_Buffer_IsDeleted
2025-08-11 19:24:46.892 (   4.513s) [        ABDE41C0]     buffer_instance.cc:526      1| BufferInstance::PJRT_Buffer_IsDeleted
2025-08-11 19:24:46.892 (   4.513s) [        ABDE41C0]     buffer_instance.cc:526      1| BufferInstance::PJRT_Buffer_IsDeleted
2025-08-11 19:24:46.892 (   4.513s) [        ABDE41C0]     buffer_instance.cc:526      1| BufferInstance::PJRT_Buffer_IsDeleted
2025-08-11 19:24:46.892 (   4.513s) [        ABDE41C0]     buffer_instance.cc:526      1| BufferInstance::PJRT_Buffer_IsDeleted
2025-08-11 19:24:46.892 (   4.513s) [        ABDE41C0]     buffer_instance.cc:526      1| BufferInstance::PJRT_Buffer_IsDeleted
2025-08-11 19:24:46.892 (   4.513s) [        ABDE41C0]     buffer_instance.cc:526      1| BufferInstance::PJRT_Buffer_IsDeleted
2025-08-11 19:24:46.892 (   4.513s) [        ABDE41C0]     buffer_instance.cc:526      1| BufferInstance::PJRT_Buffer_IsDeleted
2025-08-11 19:24:46.892 (   4.513s) [        ABDE41C0]     buffer_instance.cc:526      1| BufferInstance::PJRT_Buffer_IsDeleted
2025-08-11 19:24:46.892 (   4.513s) [        ABDE41C0]     buffer_instance.cc:526      1| BufferInstance::PJRT_Buffer_IsDeleted
2025-08-11 19:24:46.892 (   4.513s) [        ABDE41C0]     buffer_instance.cc:526      1| BufferInstance::PJRT_Buffer_IsDeleted
2025-08-11 19:24:46.892 (   4.513s) [        ABDE41C0]     buffer_instance.cc:526      1| BufferInstance::PJRT_Buffer_IsDeleted
2025-08-11 19:24:46.892 (   4.513s) [        ABDE41C0]     buffer_instance.cc:526      1| BufferInstance::PJRT_Buffer_IsDeleted
2025-08-11 19:24:46.892 (   4.513s) [        ABDE41C0]     buffer_instance.cc:526      1| BufferInstance::PJRT_Buffer_IsDeleted
2025-08-11 19:24:46.892 (   4.513s) [        ABDE41C0]     buffer_instance.cc:526      1| BufferInstance::PJRT_Buffer_IsDeleted
2025-08-11 19:24:46.892 (   4.513s) [        ABDE41C0]     buffer_instance.cc:526      1| BufferInstance::PJRT_Buffer_IsDeleted
2025-08-11 19:24:46.892 (   4.513s) [        ABDE41C0]     buffer_instance.cc:526      1| BufferInstance::PJRT_Buffer_IsDeleted
2025-08-11 19:24:46.892 (   4.513s) [        ABDE41C0]     buffer_instance.cc:526      1| BufferInstance::PJRT_Buffer_IsDeleted
2025-08-11 19:24:46.892 (   4.513s) [        ABDE41C0]     buffer_instance.cc:526      1| BufferInstance::PJRT_Buffer_IsDeleted
2025-08-11 19:24:46.892 (   4.513s) [        ABDE41C0]     buffer_instance.cc:526      1| BufferInstance::PJRT_Buffer_IsDeleted
2025-08-11 19:24:46.892 (   4.513s) [        ABDE41C0]     buffer_instance.cc:526      1| BufferInstance::PJRT_Buffer_IsDeleted
2025-08-11 19:24:46.892 (   4.513s) [        ABDE41C0]     buffer_instance.cc:526      1| BufferInstance::PJRT_Buffer_IsDeleted
2025-08-11 19:24:46.892 (   4.513s) [        ABDE41C0]     buffer_instance.cc:526      1| BufferInstance::PJRT_Buffer_IsDeleted
2025-08-11 19:24:46.892 (   4.513s) [        ABDE41C0]     buffer_instance.cc:526      1| BufferInstance::PJRT_Buffer_IsDeleted
2025-08-11 19:24:46.892 (   4.513s) [        ABDE41C0]     buffer_instance.cc:526      1| BufferInstance::PJRT_Buffer_IsDeleted
2025-08-11 19:24:46.892 (   4.513s) [        ABDE41C0]     buffer_instance.cc:526      1| BufferInstance::PJRT_Buffer_IsDeleted
2025-08-11 19:24:46.892 (   4.513s) [        ABDE41C0]     buffer_instance.cc:526      1| BufferInstance::PJRT_Buffer_IsDeleted
2025-08-11 19:24:46.892 (   4.513s) [        ABDE41C0]     buffer_instance.cc:526      1| BufferInstance::PJRT_Buffer_IsDeleted
Note: Using experimental XLA backend.
[James] disable rectify buffer inplace copy
Tensor id via xlac: 1 with shape torch.Size([3072])
Tensor id via xlac: 2 with shape torch.Size([3072])
Tensor id via xlac: 3 with shape torch.Size([3072])
Tensor id via xlac: 4 with shape torch.Size([3072])
Tensor id via xlac: 5 with shape torch.Size([3072])
Tensor id via xlac: 6 with shape torch.Size([128256, 3072])
Tensor id via xlac: 7 with shape torch.Size([1, 64, 1])
Tensor id via xlac: 8 with shape torch.Size([3072, 3072])
Tensor id via xlac: 9 with shape torch.Size([3072, 1024])
Tensor id via xlac: 10 with shape torch.Size([3072, 1024])
Tensor id via xlac: 11 with shape torch.Size([3072, 3072])
Tensor id via xlac: 12 with shape torch.Size([3072, 8192])
Tensor id via xlac: 13 with shape torch.Size([3072, 8192])
Tensor id via xlac: 14 with shape torch.Size([8192, 3072])
Tensor id via xlac: 15 with shape torch.Size([3072, 3072])
Tensor id via xlac: 16 with shape torch.Size([3072, 1024])
Tensor id via xlac: 17 with shape torch.Size([3072, 1024])
Tensor id via xlac: 18 with shape torch.Size([3072, 3072])
Tensor id via xlac: 19 with shape torch.Size([3072, 8192])
Tensor id via xlac: 20 with shape torch.Size([3072, 8192])
Tensor id via xlac: 21 with shape torch.Size([8192, 3072])
Tensor id via xlac: 22 with shape torch.Size([3072, 128256])
Tensor id via xlac: 23 with shape torch.Size([3072, 3072])
Tensor id via xlac: 24 with shape torch.Size([1024, 3072])
Tensor id via xlac: 25 with shape torch.Size([1024, 3072])
Tensor id via xlac: 26 with shape torch.Size([3072, 3072])
Tensor id via xlac: 27 with shape torch.Size([8192, 3072])
Tensor id via xlac: 28 with shape torch.Size([8192, 3072])
Tensor id via xlac: 29 with shape torch.Size([3072, 8192])
Tensor id via xlac: 30 with shape torch.Size([3072, 3072])
Tensor id via xlac: 31 with shape torch.Size([1024, 3072])
Tensor id via xlac: 32 with shape torch.Size([1024, 3072])
Tensor id via xlac: 33 with shape torch.Size([3072, 3072])
Tensor id via xlac: 34 with shape torch.Size([8192, 3072])
Tensor id via xlac: 35 with shape torch.Size([8192, 3072])
Tensor id via xlac: 36 with shape torch.Size([3072, 8192])
Tensor id via xlac: 37 with shape torch.Size([128256, 3072])
Tensor id via xlac: 38 with shape torch.Size([1, 8, 128, 128])
Tensor id via xlac: 39 with shape torch.Size([1, 8, 128, 128])
Tensor id via xlac: 40 with shape torch.Size([1, 8, 128, 128])
Tensor id via xlac: 41 with shape torch.Size([1, 8, 128, 128])
Tensor id via xlac: 42 with shape torch.Size([64])
Tensor id via xlac: 43 with shape torch.Size([1, 7])
Tensor id via xlac: 44 with shape torch.Size([7])
Tensor id via xlac: 45 with shape torch.Size([1, 1, 7, 128])
Hlo input positions pre normalization [22, 375, 21, 20, 18, 17, 14, 13, 11, 10, 43, 37, 1, 44, -1, 39, 45, 312, 7, 9, 38, 8, 2, 12, 3, 41, 16, 40, 15, 4, 19, 5]
Hlo input positions post normalization [23, 376, 22, 21, 19, 18, 15, 14, 12, 11, 44, 38, 2, 45, 0, 40, 46, 313, 8, 10, 39, 9, 3, 13, 4, 42, 17, 41, 16, 5, 20, 6]
match key in_spec.target L__self___model_layers__modules__0___input_layernorm_weight with ID 140590165840720 and kind InputKind.PARAMETER
match key in_spec.target L__self___model_layers__modules__0___post_attention_layernorm_weight with ID 140590165846880 and kind InputKind.PARAMETER
match key in_spec.target L__self___model_layers__modules__1___input_layernorm_weight with ID 140590166185424 and kind InputKind.PARAMETER
match key in_spec.target L__self___model_layers__modules__1___post_attention_layernorm_weight with ID 140590166193024 and kind InputKind.PARAMETER
match key in_spec.target L__self___model_norm_weight with ID 140590161370448 and kind InputKind.PARAMETER
match key in_spec.target L__self___lm_head.weight with ID 140590165842560 and kind InputKind.PARAMETER
match key in_spec.target _FX_CONST_FOLDED_ATTRS.0 with ID 140587098850464 and kind InputKind.PARAMETER
match key in_spec.target _FX_CONST_FOLDED_ATTRS.1 with ID 140587098863184 and kind InputKind.PARAMETER
match key in_spec.target _FX_CONST_FOLDED_ATTRS.2 with ID 140587098859664 and kind InputKind.PARAMETER
match key in_spec.target _FX_CONST_FOLDED_ATTRS.3 with ID 140586533502336 and kind InputKind.PARAMETER
match key in_spec.target _FX_CONST_FOLDED_ATTRS.4 with ID 140586533499216 and kind InputKind.PARAMETER
match key in_spec.target _FX_CONST_FOLDED_ATTRS.5 with ID 140586533497856 and kind InputKind.PARAMETER
match key in_spec.target _FX_CONST_FOLDED_ATTRS.6 with ID 140590165698784 and kind InputKind.PARAMETER
match key in_spec.target _FX_CONST_FOLDED_ATTRS.7 with ID 140587155847616 and kind InputKind.PARAMETER
match key in_spec.target _FX_CONST_FOLDED_ATTRS.8 with ID 140591258655360 and kind InputKind.PARAMETER
match key in_spec.target _FX_CONST_FOLDED_ATTRS.9 with ID 140586521394880 and kind InputKind.PARAMETER
match key in_spec.target _FX_CONST_FOLDED_ATTRS.10 with ID 140586521394800 and kind InputKind.PARAMETER
match key in_spec.target _FX_CONST_FOLDED_ATTRS.11 with ID 140586521394640 and kind InputKind.PARAMETER
match key in_spec.target _FX_CONST_FOLDED_ATTRS.12 with ID 140586521394720 and kind InputKind.PARAMETER
match key in_spec.target _FX_CONST_FOLDED_ATTRS.13 with ID 140586521394560 and kind InputKind.PARAMETER
match key in_spec.target _FX_CONST_FOLDED_ATTRS.14 with ID 140586521394400 and kind InputKind.PARAMETER
match key in_spec.target _FX_CONST_FOLDED_ATTRS.15 with ID 140586521394320 and kind InputKind.PARAMETER
match key in_spec.target const_subgraph_module.L__self___model_layers__modules__0___self_attn_q_proj.weight with ID 140590166195184 and kind InputKind.PARAMETER
match key in_spec.target const_subgraph_module.L__self___model_layers__modules__0___self_attn_k_proj.weight with ID 140590166194384 and kind InputKind.PARAMETER
match key in_spec.target const_subgraph_module.L__self___model_layers__modules__0___self_attn_v_proj.weight with ID 140590166185904 and kind InputKind.PARAMETER
match key in_spec.target const_subgraph_module.L__self___model_layers__modules__0___self_attn_o_proj.weight with ID 140590166190464 and kind InputKind.PARAMETER
match key in_spec.target const_subgraph_module.L__self___model_layers__modules__0___mlp_gate_proj.weight with ID 140590165846000 and kind InputKind.PARAMETER
match key in_spec.target const_subgraph_module.L__self___model_layers__modules__0___mlp_up_proj.weight with ID 140590165846960 and kind InputKind.PARAMETER
match key in_spec.target const_subgraph_module.L__self___model_layers__modules__0___mlp_down_proj.weight with ID 140590165842880 and kind InputKind.PARAMETER
match key in_spec.target const_subgraph_module.L__self___model_layers__modules__1___self_attn_q_proj.weight with ID 140590162963376 and kind InputKind.PARAMETER
match key in_spec.target const_subgraph_module.L__self___model_layers__modules__1___self_attn_k_proj.weight with ID 140590162968176 and kind InputKind.PARAMETER
match key in_spec.target const_subgraph_module.L__self___model_layers__modules__1___self_attn_v_proj.weight with ID 140590162964336 and kind InputKind.PARAMETER
match key in_spec.target const_subgraph_module.L__self___model_layers__modules__1___self_attn_o_proj.weight with ID 140590162962096 and kind InputKind.PARAMETER
match key in_spec.target const_subgraph_module.L__self___model_layers__modules__1___mlp_gate_proj.weight with ID 140590166190224 and kind InputKind.PARAMETER
match key in_spec.target const_subgraph_module.L__self___model_layers__modules__1___mlp_up_proj.weight with ID 140590166189104 and kind InputKind.PARAMETER
match key in_spec.target const_subgraph_module.L__self___model_layers__modules__1___mlp_down_proj.weight with ID 140590166188224 and kind InputKind.PARAMETER
match key in_spec.target const_subgraph_module.L__self___lm_head.weight with ID 140590165842560 and kind InputKind.PARAMETER
match key in_spec.target kwargs____past_key_values___key_cache_0 with ID 140590956919472 and kind InputKind.BUFFER
match key in_spec.target kwargs____past_key_values___value_cache_0 with ID 140590955176208 and kind InputKind.BUFFER
match key in_spec.target kwargs____past_key_values___key_cache_1 with ID 140590955182608 and kind InputKind.BUFFER
match key in_spec.target kwargs____past_key_values___value_cache_1 with ID 140590955181888 and kind InputKind.BUFFER
match key in_spec.target const_subgraph_module.L__self___model_rotary_emb_inv_freq with ID 140590161698608 and kind InputKind.BUFFER
[JAMES] setting arg ref map to  refs=140590166194384,constant_unknown,140590166195184,140586521394320,140586521394560,140586521394720,140586521394880,140591258655360,140590165698784,140586533497856,user_input,140590955176208,140590166185424,constant_unknown,140590165840720,140590955181888,constant_unknown,constant_unknown,140587098859664,140586533499216,140590955182608,140586533502336,140590166193024,140587155847616,140590161370448,user_input,140586521394640,140590161698608,140586521394800,140590165842560,140586521394400,140587098850464
2025-08-11 19:24:46.893 (   4.514s) [        ABDE41C0]     buffer_instance.cc:526      1| BufferInstance::PJRT_Buffer_IsDeleted
2025-08-11 19:24:46.893 (   4.514s) [        ABDE41C0]     buffer_instance.cc:526      1| BufferInstance::PJRT_Buffer_IsDeleted
2025-08-11 19:24:46.893 (   4.514s) [        ABDE41C0]     buffer_instance.cc:526      1| BufferInstance::PJRT_Buffer_IsDeleted
2025-08-11 19:24:46.893 (   4.514s) [        ABDE41C0]     buffer_instance.cc:526      1| BufferInstance::PJRT_Buffer_IsDeleted
2025-08-11 19:24:46.893 (   4.514s) [        ABDE41C0]     buffer_instance.cc:526      1| BufferInstance::PJRT_Buffer_IsDeleted
2025-08-11 19:24:46.893 (   4.514s) [        ABDE41C0]     buffer_instance.cc:526      1| BufferInstance::PJRT_Buffer_IsDeleted
2025-08-11 19:24:46.893 (   4.514s) [        ABDE41C0]     buffer_instance.cc:526      1| BufferInstance::PJRT_Buffer_IsDeleted
2025-08-11 19:24:46.893 (   4.514s) [        ABDE41C0]     buffer_instance.cc:526      1| BufferInstance::PJRT_Buffer_IsDeleted
2025-08-11 19:24:46.893 (   4.514s) [        ABDE41C0]     buffer_instance.cc:526      1| BufferInstance::PJRT_Buffer_IsDeleted
2025-08-11 19:24:46.893 (   4.514s) [        ABDE41C0]     buffer_instance.cc:526      1| BufferInstance::PJRT_Buffer_IsDeleted
2025-08-11 19:24:46.893 (   4.514s) [        ABDE41C0]     buffer_instance.cc:526      1| BufferInstance::PJRT_Buffer_IsDeleted
2025-08-11 19:24:46.893 (   4.514s) [        ABDE41C0]     buffer_instance.cc:526      1| BufferInstance::PJRT_Buffer_IsDeleted
2025-08-11 19:24:46.893 (   4.514s) [        ABDE41C0]     buffer_instance.cc:526      1| BufferInstance::PJRT_Buffer_IsDeleted
2025-08-11 19:24:46.893 (   4.514s) [        ABDE41C0]     buffer_instance.cc:526      1| BufferInstance::PJRT_Buffer_IsDeleted
2025-08-11 19:24:46.893 (   4.514s) [        ABDE41C0]     buffer_instance.cc:526      1| BufferInstance::PJRT_Buffer_IsDeleted
2025-08-11 19:24:46.893 (   4.514s) [        ABDE41C0]     buffer_instance.cc:526      1| BufferInstance::PJRT_Buffer_IsDeleted
2025-08-11 19:24:46.893 (   4.514s) [        ABDE41C0]     buffer_instance.cc:526      1| BufferInstance::PJRT_Buffer_IsDeleted
2025-08-11 19:24:46.893 (   4.514s) [        ABDE41C0]     buffer_instance.cc:526      1| BufferInstance::PJRT_Buffer_IsDeleted
2025-08-11 19:24:46.893 (   4.514s) [        ABDE41C0]     buffer_instance.cc:526      1| BufferInstance::PJRT_Buffer_IsDeleted
2025-08-11 19:24:46.893 (   4.514s) [        ABDE41C0]     buffer_instance.cc:526      1| BufferInstance::PJRT_Buffer_IsDeleted
2025-08-11 19:24:46.893 (   4.514s) [        ABDE41C0]     buffer_instance.cc:526      1| BufferInstance::PJRT_Buffer_IsDeleted
2025-08-11 19:24:46.893 (   4.514s) [        ABDE41C0]     buffer_instance.cc:526      1| BufferInstance::PJRT_Buffer_IsDeleted
2025-08-11 19:24:46.893 (   4.514s) [        ABDE41C0]     buffer_instance.cc:526      1| BufferInstance::PJRT_Buffer_IsDeleted
2025-08-11 19:24:46.893 (   4.514s) [        ABDE41C0]     buffer_instance.cc:526      1| BufferInstance::PJRT_Buffer_IsDeleted
2025-08-11 19:24:46.893 (   4.514s) [        ABDE41C0]     buffer_instance.cc:526      1| BufferInstance::PJRT_Buffer_IsDeleted
2025-08-11 19:24:46.893 (   4.514s) [        ABDE41C0]     buffer_instance.cc:526      1| BufferInstance::PJRT_Buffer_IsDeleted
2025-08-11 19:24:46.893 (   4.514s) [        ABDE41C0]     buffer_instance.cc:526      1| BufferInstance::PJRT_Buffer_IsDeleted
2025-08-11 19:24:46.893 (   4.514s) [        ABDE41C0]     buffer_instance.cc:526      1| BufferInstance::PJRT_Buffer_IsDeleted
2025-08-11 19:24:46.893 (   4.514s) [        ABDE41C0]     buffer_instance.cc:526      1| BufferInstance::PJRT_Buffer_IsDeleted
2025-08-11 19:24:46.893 (   4.514s) [        ABDE41C0]     buffer_instance.cc:526      1| BufferInstance::PJRT_Buffer_IsDeleted
2025-08-11 19:24:46.893 (   4.514s) [        ABDE41C0]     buffer_instance.cc:526      1| BufferInstance::PJRT_Buffer_IsDeleted
2025-08-11 19:24:46.893 (   4.514s) [        ABDE41C0]     buffer_instance.cc:526      1| BufferInstance::PJRT_Buffer_IsDeleted
2025-08-11 19:24:46.893 (   4.514s) [        ABDE41C0]     buffer_instance.cc:526      1| BufferInstance::PJRT_Buffer_IsDeleted
2025-08-11 19:24:46.893 (   4.514s) [        ABDE41C0]     buffer_instance.cc:526      1| BufferInstance::PJRT_Buffer_IsDeleted
2025-08-11 19:24:46.893 (   4.514s) [        ABDE41C0]     buffer_instance.cc:526      1| BufferInstance::PJRT_Buffer_IsDeleted
2025-08-11 19:24:46.893 (   4.514s) [        ABDE41C0]     buffer_instance.cc:526      1| BufferInstance::PJRT_Buffer_IsDeleted
2025-08-11 19:24:46.893 (   4.514s) [        ABDE41C0]     buffer_instance.cc:526      1| BufferInstance::PJRT_Buffer_IsDeleted
2025-08-11 19:24:46.893 (   4.514s) [        ABDE41C0]     buffer_instance.cc:526      1| BufferInstance::PJRT_Buffer_IsDeleted
2025-08-11 19:24:46.893 (   4.514s) [        ABDE41C0]     buffer_instance.cc:526      1| BufferInstance::PJRT_Buffer_IsDeleted
2025-08-11 19:24:46.893 (   4.514s) [        ABDE41C0]     buffer_instance.cc:526      1| BufferInstance::PJRT_Buffer_IsDeleted
2025-08-11 19:24:46.893 (   4.514s) [        ABDE41C0]     buffer_instance.cc:526      1| BufferInstance::PJRT_Buffer_IsDeleted
2025-08-11 19:24:46.893 (   4.514s) [        ABDE41C0]     buffer_instance.cc:526      1| BufferInstance::PJRT_Buffer_IsDeleted
2025-08-11 19:24:46.893 (   4.514s) [        ABDE41C0]     buffer_instance.cc:526      1| BufferInstance::PJRT_Buffer_IsDeleted
2025-08-11 19:24:46.893 (   4.514s) [        ABDE41C0]     buffer_instance.cc:526      1| BufferInstance::PJRT_Buffer_IsDeleted
2025-08-11 19:24:46.893 (   4.514s) [        ABDE41C0]     buffer_instance.cc:526      1| BufferInstance::PJRT_Buffer_IsDeleted
2025-08-11 19:24:46.893 (   4.514s) [        ABDE41C0]     buffer_instance.cc:526      1| BufferInstance::PJRT_Buffer_IsDeleted
2025-08-11 19:24:46.893 (   4.514s) [        ABDE41C0]     buffer_instance.cc:526      1| BufferInstance::PJRT_Buffer_IsDeleted
2025-08-11 19:24:46.893 (   4.514s) [        ABDE41C0]     buffer_instance.cc:526      1| BufferInstance::PJRT_Buffer_IsDeleted
2025-08-11 19:24:46.893 (   4.514s) [        ABDE41C0]     buffer_instance.cc:526      1| BufferInstance::PJRT_Buffer_IsDeleted
2025-08-11 19:24:46.893 (   4.514s) [        ABDE41C0]     buffer_instance.cc:526      1| BufferInstance::PJRT_Buffer_IsDeleted
2025-08-11 19:24:46.893 (   4.514s) [        ABDE41C0]     buffer_instance.cc:526      1| BufferInstance::PJRT_Buffer_IsDeleted
2025-08-11 19:24:46.893 (   4.514s) [        ABDE41C0]     buffer_instance.cc:526      1| BufferInstance::PJRT_Buffer_IsDeleted
2025-08-11 19:24:46.893 (   4.514s) [        ABDE41C0]     buffer_instance.cc:526      1| BufferInstance::PJRT_Buffer_IsDeleted
2025-08-11 19:24:46.893 (   4.514s) [        ABDE41C0]     buffer_instance.cc:526      1| BufferInstance::PJRT_Buffer_IsDeleted
2025-08-11 19:24:46.893 (   4.514s) [        ABDE41C0]     buffer_instance.cc:526      1| BufferInstance::PJRT_Buffer_IsDeleted
2025-08-11 19:24:46.893 (   4.514s) [        ABDE41C0]     buffer_instance.cc:526      1| BufferInstance::PJRT_Buffer_IsDeleted
2025-08-11 19:24:46.893 (   4.514s) [        ABDE41C0]     buffer_instance.cc:526      1| BufferInstance::PJRT_Buffer_IsDeleted
2025-08-11 19:24:46.893 (   4.514s) [        ABDE41C0]     buffer_instance.cc:526      1| BufferInstance::PJRT_Buffer_IsDeleted
2025-08-11 19:24:46.893 (   4.514s) [        ABDE41C0]     buffer_instance.cc:526      1| BufferInstance::PJRT_Buffer_IsDeleted
2025-08-11 19:24:46.893 (   4.514s) [        ABDE41C0]     buffer_instance.cc:526      1| BufferInstance::PJRT_Buffer_IsDeleted
2025-08-11 19:24:46.893 (   4.514s) [        ABDE41C0]     buffer_instance.cc:526      1| BufferInstance::PJRT_Buffer_IsDeleted
2025-08-11 19:24:46.893 (   4.514s) [        ABDE41C0]     buffer_instance.cc:526      1| BufferInstance::PJRT_Buffer_IsDeleted
2025-08-11 19:24:46.893 (   4.514s) [        ABDE41C0]     buffer_instance.cc:526      1| BufferInstance::PJRT_Buffer_IsDeleted
2025-08-11 19:24:46.893 (   4.514s) [        ABDE41C0]     buffer_instance.cc:526      1| BufferInstance::PJRT_Buffer_IsDeleted
2025-08-11 19:24:46.893 (   4.514s) [        ABDE41C0]     buffer_instance.cc:526      1| BufferInstance::PJRT_Buffer_IsDeleted
2025-08-11 19:24:46.893 (   4.514s) [        ABDE41C0]     buffer_instance.cc:526      1| BufferInstance::PJRT_Buffer_IsDeleted
2025-08-11 19:24:46.893 (   4.514s) [        ABDE41C0]     buffer_instance.cc:526      1| BufferInstance::PJRT_Buffer_IsDeleted
2025-08-11 19:24:46.893 (   4.514s) [        ABDE41C0]     buffer_instance.cc:526      1| BufferInstance::PJRT_Buffer_IsDeleted
2025-08-11 19:24:46.893 (   4.514s) [        ABDE41C0]     buffer_instance.cc:526      1| BufferInstance::PJRT_Buffer_IsDeleted
2025-08-11 19:24:46.893 (   4.514s) [        ABDE41C0]     buffer_instance.cc:526      1| BufferInstance::PJRT_Buffer_IsDeleted
2025-08-11 19:24:46.893 (   4.514s) [        ABDE41C0]     buffer_instance.cc:526      1| BufferInstance::PJRT_Buffer_IsDeleted
2025-08-11 19:24:46.893 (   4.514s) [        ABDE41C0]     buffer_instance.cc:526      1| BufferInstance::PJRT_Buffer_IsDeleted
2025-08-11 19:24:46.893 (   4.514s) [        ABDE41C0]     buffer_instance.cc:526      1| BufferInstance::PJRT_Buffer_IsDeleted
2025-08-11 19:24:46.893 (   4.514s) [        ABDE41C0]     buffer_instance.cc:526      1| BufferInstance::PJRT_Buffer_IsDeleted
2025-08-11 19:24:46.893 (   4.514s) [        ABDE41C0]     buffer_instance.cc:526      1| BufferInstance::PJRT_Buffer_IsDeleted
2025-08-11 19:24:46.893 (   4.514s) [        ABDE41C0]     buffer_instance.cc:526      1| BufferInstance::PJRT_Buffer_IsDeleted
2025-08-11 19:24:46.893 (   4.514s) [        ABDE41C0]     buffer_instance.cc:526      1| BufferInstance::PJRT_Buffer_IsDeleted
2025-08-11 19:24:46.893 (   4.514s) [        ABDE41C0]     buffer_instance.cc:526      1| BufferInstance::PJRT_Buffer_IsDeleted
2025-08-11 19:24:46.893 (   4.514s) [        ABDE41C0]     buffer_instance.cc:526      1| BufferInstance::PJRT_Buffer_IsDeleted
2025-08-11 19:24:46.893 (   4.514s) [        ABDE41C0]     buffer_instance.cc:526      1| BufferInstance::PJRT_Buffer_IsDeleted
2025-08-11 19:24:46.893 (   4.514s) [        ABDE41C0]     buffer_instance.cc:526      1| BufferInstance::PJRT_Buffer_IsDeleted
2025-08-11 19:24:46.893 (   4.514s) [        ABDE41C0]     buffer_instance.cc:526      1| BufferInstance::PJRT_Buffer_IsDeleted
2025-08-11 19:24:46.893 (   4.514s) [        ABDE41C0]     buffer_instance.cc:526      1| BufferInstance::PJRT_Buffer_IsDeleted
2025-08-11 19:24:46.893 (   4.514s) [        ABDE41C0]     buffer_instance.cc:526      1| BufferInstance::PJRT_Buffer_IsDeleted
2025-08-11 19:24:46.893 (   4.514s) [        ABDE41C0]     buffer_instance.cc:526      1| BufferInstance::PJRT_Buffer_IsDeleted
2025-08-11 19:24:46.893 (   4.514s) [        ABDE41C0]     buffer_instance.cc:526      1| BufferInstance::PJRT_Buffer_IsDeleted
2025-08-11 19:24:46.894 (   4.514s) [        ABDE41C0]     buffer_instance.cc:526      1| BufferInstance::PJRT_Buffer_IsDeleted
2025-08-11 19:24:46.894 (   4.515s) [        ABDE41C0]     buffer_instance.cc:526      1| BufferInstance::PJRT_Buffer_IsDeleted
2025-08-11 19:24:46.894 (   4.515s) [        ABDE41C0]     buffer_instance.cc:526      1| BufferInstance::PJRT_Buffer_IsDeleted
2025-08-11 19:24:46.894 (   4.515s) [        ABDE41C0]     buffer_instance.cc:526      1| BufferInstance::PJRT_Buffer_IsDeleted
2025-08-11 19:24:46.894 (   4.515s) [        ABDE41C0]     buffer_instance.cc:526      1| BufferInstance::PJRT_Buffer_IsDeleted
2025-08-11 19:24:46.894 (   4.515s) [        ABDE41C0]     buffer_instance.cc:526      1| BufferInstance::PJRT_Buffer_IsDeleted
2025-08-11 19:24:46.894 (   4.515s) [        ABDE41C0]     buffer_instance.cc:526      1| BufferInstance::PJRT_Buffer_IsDeleted
2025-08-11 19:24:46.894 (   4.515s) [        ABDE41C0]     buffer_instance.cc:526      1| BufferInstance::PJRT_Buffer_IsDeleted
2025-08-11 19:24:46.894 (   4.515s) [        ABDE41C0]     buffer_instance.cc:526      1| BufferInstance::PJRT_Buffer_IsDeleted
2025-08-11 19:24:46.894 (   4.515s) [        ABDE41C0]     buffer_instance.cc:526      1| BufferInstance::PJRT_Buffer_IsDeleted
2025-08-11 19:24:46.894 (   4.515s) [        ABDE41C0]     buffer_instance.cc:526      1| BufferInstance::PJRT_Buffer_IsDeleted
2025-08-11 19:24:46.894 (   4.515s) [        ABDE41C0]     buffer_instance.cc:526      1| BufferInstance::PJRT_Buffer_IsDeleted
2025-08-11 19:24:46.894 (   4.515s) [        ABDE41C0]     buffer_instance.cc:526      1| BufferInstance::PJRT_Buffer_IsDeleted
2025-08-11 19:24:46.894 (   4.515s) [        ABDE41C0]     buffer_instance.cc:526      1| BufferInstance::PJRT_Buffer_IsDeleted
2025-08-11 19:24:46.894 (   4.515s) [        ABDE41C0]     buffer_instance.cc:526      1| BufferInstance::PJRT_Buffer_IsDeleted
2025-08-11 19:24:46.895 (   4.516s) [        ABDE41C0]     buffer_instance.cc:526      1| BufferInstance::PJRT_Buffer_IsDeleted
2025-08-11 19:24:46.895 (   4.516s) [        ABDE41C0]     buffer_instance.cc:526      1| BufferInstance::PJRT_Buffer_IsDeleted
2025-08-11 19:24:46.895 (   4.516s) [        ABDE41C0]     buffer_instance.cc:526      1| BufferInstance::PJRT_Buffer_IsDeleted
2025-08-11 19:24:46.895 (   4.516s) [        ABDE41C0]     buffer_instance.cc:526      1| BufferInstance::PJRT_Buffer_IsDeleted
2025-08-11 19:24:46.895 (   4.516s) [        ABDE41C0]     buffer_instance.cc:526      1| BufferInstance::PJRT_Buffer_IsDeleted
2025-08-11 19:24:46.895 (   4.516s) [        ABDE41C0]     buffer_instance.cc:526      1| BufferInstance::PJRT_Buffer_IsDeleted
2025-08-11 19:24:46.895 (   4.516s) [        ABDE41C0]     buffer_instance.cc:526      1| BufferInstance::PJRT_Buffer_IsDeleted
2025-08-11 19:24:46.895 (   4.516s) [        ABDE41C0]     buffer_instance.cc:526      1| BufferInstance::PJRT_Buffer_IsDeleted
2025-08-11 19:24:46.896 (   4.516s) [        ABDE41C0]     buffer_instance.cc:526      1| BufferInstance::PJRT_Buffer_IsDeleted
2025-08-11 19:24:46.896 (   4.516s) [        ABDE41C0]     buffer_instance.cc:526      1| BufferInstance::PJRT_Buffer_IsDeleted
2025-08-11 19:24:46.896 (   4.516s) [        ABDE41C0]     buffer_instance.cc:526      1| BufferInstance::PJRT_Buffer_IsDeleted
2025-08-11 19:24:46.896 (   4.516s) [        ABDE41C0]     buffer_instance.cc:526      1| BufferInstance::PJRT_Buffer_IsDeleted
2025-08-11 19:24:46.896 (   4.516s) [        ABDE41C0]     buffer_instance.cc:526      1| BufferInstance::PJRT_Buffer_IsDeleted
2025-08-11 19:24:46.896 (   4.516s) [        ABDE41C0]     buffer_instance.cc:526      1| BufferInstance::PJRT_Buffer_IsDeleted
2025-08-11 19:24:46.896 (   4.517s) [        ABDE41C0]     buffer_instance.cc:526      1| BufferInstance::PJRT_Buffer_IsDeleted
2025-08-11 19:24:46.896 (   4.517s) [        ABDE41C0]     buffer_instance.cc:526      1| BufferInstance::PJRT_Buffer_IsDeleted
2025-08-11 19:24:46.896 (   4.517s) [        ABDE41C0]     buffer_instance.cc:526      1| BufferInstance::PJRT_Buffer_IsDeleted
2025-08-11 19:24:46.896 (   4.517s) [        ABDE41C0]     buffer_instance.cc:526      1| BufferInstance::PJRT_Buffer_IsDeleted
2025-08-11 19:24:46.896 (   4.517s) [        ABDE41C0]     buffer_instance.cc:526      1| BufferInstance::PJRT_Buffer_IsDeleted
2025-08-11 19:24:46.929 (   4.550s) [        ABDE41C0]     client_instance.cc:471      1| ClientInstance::PJRT_Client_Compile
2025-08-11 19:24:46.929 (   4.550s) [        ABDE41C0]      module_builder.cc:101      1| ModuleBuilder::buildModule
2025-08-11 19:24:46.931 (   4.552s) [        ABDE41C0]      module_builder.cc:155      1| VHLO Module:
module @SyncTensorsGraph.613 attributes {mhlo.cross_program_prefetches = [], mhlo.input_output_alias = [], mhlo.is_dynamic = false, mhlo.use_auto_spmd_partitioning = false} {
  vhlo.func_v1 @main(%arg0: !vhlo.tensor_v1<7x!vhlo.i64_v1>, %arg1: !vhlo.tensor_v1<1x64x1x!vhlo.f32_v1>, %arg2: !vhlo.tensor_v1<3072x1024x!vhlo.bf16_v1>, %arg3: !vhlo.tensor_v1<!vhlo.f32_v1>, %arg4: !vhlo.tensor_v1<1x7x!vhlo.i64_v1>, %arg5: !vhlo.tensor_v1<128256x3072x!vhlo.bf16_v1>, %arg6: !vhlo.tensor_v1<3072x!vhlo.bf16_v1>, %arg7: !vhlo.tensor_v1<!vhlo.i64_v1>, %arg8: !vhlo.tensor_v1<1x8x128x128x!vhlo.bf16_v1>, %arg9: !vhlo.tensor_v1<3072x1024x!vhlo.bf16_v1>, %arg10: !vhlo.tensor_v1<1x8x128x128x!vhlo.bf16_v1>, %arg11: !vhlo.tensor_v1<3072x1024x!vhlo.bf16_v1>, %arg12: !vhlo.tensor_v1<8192x3072x!vhlo.bf16_v1>, %arg13: !vhlo.tensor_v1<3072x8192x!vhlo.bf16_v1>, %arg14: !vhlo.tensor_v1<3072x3072x!vhlo.bf16_v1>, %arg15: !vhlo.tensor_v1<1x1x7x128x!vhlo.bf16_v1>, %arg16: !vhlo.tensor_v1<!vhlo.f32_v1>, %arg17: !vhlo.tensor_v1<3072x3072x!vhlo.bf16_v1>, %arg18: !vhlo.tensor_v1<3072x!vhlo.bf16_v1>, %arg19: !vhlo.tensor_v1<3072x8192x!vhlo.bf16_v1>, %arg20: !vhlo.tensor_v1<3072x!vhlo.bf16_v1>, %arg21: !vhlo.tensor_v1<1x8x128x128x!vhlo.bf16_v1>, %arg22: !vhlo.tensor_v1<3072x1024x!vhlo.bf16_v1>, %arg23: !vhlo.tensor_v1<1x8x128x128x!vhlo.bf16_v1>, %arg24: !vhlo.tensor_v1<3072x128256x!vhlo.bf16_v1>, %arg25: !vhlo.tensor_v1<8192x3072x!vhlo.bf16_v1>, %arg26: !vhlo.tensor_v1<3072x8192x!vhlo.bf16_v1>, %arg27: !vhlo.tensor_v1<3072x3072x!vhlo.bf16_v1>, %arg28: !vhlo.tensor_v1<3072x3072x!vhlo.bf16_v1>, %arg29: !vhlo.tensor_v1<3072x!vhlo.bf16_v1>, %arg30: !vhlo.tensor_v1<3072x8192x!vhlo.bf16_v1>, %arg31: !vhlo.tensor_v1<3072x!vhlo.bf16_v1>) -> (!vhlo.tensor_v1<1x8x128x128x!vhlo.bf16_v1>, !vhlo.tensor_v1<1x8x128x128x!vhlo.bf16_v1>, !vhlo.tensor_v1<1x8x128x128x!vhlo.bf16_v1>, !vhlo.tensor_v1<1x8x128x128x!vhlo.bf16_v1>, !vhlo.tensor_v1<7x128256x!vhlo.bf16_v1>, !vhlo.tensor_v1<1x7x128256x!vhlo.bf16_v1>) {
    %0 = "vhlo.constant_v1"() <{value = #vhlo.tensor_v1<dense<3.25520843E-4> : tensor<1x7xf32>>}> : () -> !vhlo.tensor_v1<1x7x!vhlo.f32_v1>
    %1 = "vhlo.constant_v1"() <{value = #vhlo.tensor_v1<dense<2.000000e+00> : tensor<1x7x3072xf32>>}> : () -> !vhlo.tensor_v1<1x7x3072x!vhlo.f32_v1>
    %2 = "vhlo.constant_v1"() <{value = #vhlo.tensor_v1<dense<0xFF800000> : tensor<f32>>}> : () -> !vhlo.tensor_v1<!vhlo.f32_v1>
    %3 = "vhlo.constant_v1"() <{value = #vhlo.tensor_v1<dense<0.000000e+00> : tensor<f32>>}> : () -> !vhlo.tensor_v1<!vhlo.f32_v1>
    %4 = "vhlo.constant_v1"() <{value = #vhlo.tensor_v1<dense<0> : tensor<7xi64>>}> : () -> !vhlo.tensor_v1<7x!vhlo.i64_v1>
    %5 = "vhlo.compare_v1"(%arg0, %4) <{compare_type = #vhlo<comparison_type_v1 NOTYPE>, comparison_direction = #vhlo<comparison_direction_v1 LT>}> : (!vhlo.tensor_v1<7x!vhlo.i64_v1>, !vhlo.tensor_v1<7x!vhlo.i64_v1>) -> !vhlo.tensor_v1<7x!vhlo.bool_v1>
    %6 = "vhlo.broadcast_in_dim_v1"(%arg7) <{broadcast_dimensions = #vhlo.tensor_v1<dense<> : tensor<0xi64>>}> : (!vhlo.tensor_v1<!vhlo.i64_v1>) -> !vhlo.tensor_v1<7x!vhlo.i64_v1>
    %7 = "vhlo.add_v1"(%arg0, %6) : (!vhlo.tensor_v1<7x!vhlo.i64_v1>, !vhlo.tensor_v1<7x!vhlo.i64_v1>) -> !vhlo.tensor_v1<7x!vhlo.i64_v1>
    %8 = "vhlo.select_v1"(%5, %7, %arg0) : (!vhlo.tensor_v1<7x!vhlo.bool_v1>, !vhlo.tensor_v1<7x!vhlo.i64_v1>, !vhlo.tensor_v1<7x!vhlo.i64_v1>) -> !vhlo.tensor_v1<7x!vhlo.i64_v1>
    %9 = "vhlo.reshape_v1"(%8) : (!vhlo.tensor_v1<7x!vhlo.i64_v1>) -> !vhlo.tensor_v1<7x1x!vhlo.i64_v1>
    %10 = "vhlo.convert_v1"(%arg6) : (!vhlo.tensor_v1<3072x!vhlo.bf16_v1>) -> !vhlo.tensor_v1<3072x!vhlo.f32_v1>
    %11 = "vhlo.broadcast_in_dim_v1"(%10) <{broadcast_dimensions = #vhlo.tensor_v1<dense<2> : tensor<1xi64>>}> : (!vhlo.tensor_v1<3072x!vhlo.f32_v1>) -> !vhlo.tensor_v1<1x7x3072x!vhlo.f32_v1>
    %12 = "vhlo.reshape_v1"(%arg4) : (!vhlo.tensor_v1<1x7x!vhlo.i64_v1>) -> !vhlo.tensor_v1<7x!vhlo.i64_v1>
    %13 = "vhlo.convert_v1"(%12) : (!vhlo.tensor_v1<7x!vhlo.i64_v1>) -> !vhlo.tensor_v1<7x!vhlo.ui32_v1>
    %14 = "vhlo.gather_v2"(%arg5, %13) <{collapsed_slice_dims = #vhlo.tensor_v1<dense<0> : tensor<1xi64>>, index_vector_dim = #vhlo.integer_v1<1 : i64>, indices_are_sorted = #vhlo.bool_v1<false>, offset_dims = #vhlo.tensor_v1<dense<1> : tensor<1xi64>>, operand_batching_dims = #vhlo.tensor_v1<dense<> : tensor<0xi64>>, slice_sizes = #vhlo.tensor_v1<dense<[1, 3072]> : tensor<2xi64>>, start_index_map = #vhlo.tensor_v1<dense<0> : tensor<1xi64>>, start_indices_batching_dims = #vhlo.tensor_v1<dense<> : tensor<0xi64>>}> : (!vhlo.tensor_v1<128256x3072x!vhlo.bf16_v1>, !vhlo.tensor_v1<7x!vhlo.ui32_v1>) -> !vhlo.tensor_v1<7x3072x!vhlo.bf16_v1>
    %15 = "vhlo.reshape_v1"(%14) : (!vhlo.tensor_v1<7x3072x!vhlo.bf16_v1>) -> !vhlo.tensor_v1<1x7x3072x!vhlo.bf16_v1>
    %16 = "vhlo.convert_v1"(%15) : (!vhlo.tensor_v1<1x7x3072x!vhlo.bf16_v1>) -> !vhlo.tensor_v1<1x7x3072x!vhlo.f32_v1>
    %17 = "vhlo.power_v1"(%16, %1) : (!vhlo.tensor_v1<1x7x3072x!vhlo.f32_v1>, !vhlo.tensor_v1<1x7x3072x!vhlo.f32_v1>) -> !vhlo.tensor_v1<1x7x3072x!vhlo.f32_v1>
    %18 = "vhlo.reduce_v1"(%17, %3) <{dimensions = #vhlo.tensor_v1<dense<2> : tensor<1xi64>>}> ({
    ^bb0(%arg32: !vhlo.tensor_v1<!vhlo.f32_v1>, %arg33: !vhlo.tensor_v1<!vhlo.f32_v1>):
      %284 = "vhlo.add_v1"(%arg32, %arg33) : (!vhlo.tensor_v1<!vhlo.f32_v1>, !vhlo.tensor_v1<!vhlo.f32_v1>) -> !vhlo.tensor_v1<!vhlo.f32_v1>
      "vhlo.return_v1"(%284) : (!vhlo.tensor_v1<!vhlo.f32_v1>) -> ()
    }) : (!vhlo.tensor_v1<1x7x3072x!vhlo.f32_v1>, !vhlo.tensor_v1<!vhlo.f32_v1>) -> !vhlo.tensor_v1<1x7x!vhlo.f32_v1>
    %19 = "vhlo.multiply_v1"(%18, %0) : (!vhlo.tensor_v1<1x7x!vhlo.f32_v1>, !vhlo.tensor_v1<1x7x!vhlo.f32_v1>) -> !vhlo.tensor_v1<1x7x!vhlo.f32_v1>
    %20 = "vhlo.reshape_v1"(%19) : (!vhlo.tensor_v1<1x7x!vhlo.f32_v1>) -> !vhlo.tensor_v1<1x7x1x!vhlo.f32_v1>
    %21 = "vhlo.broadcast_in_dim_v1"(%arg3) <{broadcast_dimensions = #vhlo.tensor_v1<dense<> : tensor<0xi64>>}> : (!vhlo.tensor_v1<!vhlo.f32_v1>) -> !vhlo.tensor_v1<1x7x1x!vhlo.f32_v1>
    %22 = "vhlo.add_v1"(%20, %21) : (!vhlo.tensor_v1<1x7x1x!vhlo.f32_v1>, !vhlo.tensor_v1<1x7x1x!vhlo.f32_v1>) -> !vhlo.tensor_v1<1x7x1x!vhlo.f32_v1>
    %23 = "vhlo.rsqrt_v2"(%22) <{result_accuracy = #vhlo.result_accuracy_v1<atol = 0.000000e+00, rtol = 0.000000e+00, ulps = 0, mode = #vhlo<result_accuracy_mode_v1 DEFAULT>>}> : (!vhlo.tensor_v1<1x7x1x!vhlo.f32_v1>) -> !vhlo.tensor_v1<1x7x1x!vhlo.f32_v1>
    %24 = "vhlo.reshape_v1"(%23) : (!vhlo.tensor_v1<1x7x1x!vhlo.f32_v1>) -> !vhlo.tensor_v1<1x7x!vhlo.f32_v1>
    %25 = "vhlo.broadcast_in_dim_v1"(%24) <{broadcast_dimensions = #vhlo.tensor_v1<dense<[0, 1]> : tensor<2xi64>>}> : (!vhlo.tensor_v1<1x7x!vhlo.f32_v1>) -> !vhlo.tensor_v1<1x7x3072x!vhlo.f32_v1>
    %26 = "vhlo.multiply_v1"(%16, %25) : (!vhlo.tensor_v1<1x7x3072x!vhlo.f32_v1>, !vhlo.tensor_v1<1x7x3072x!vhlo.f32_v1>) -> !vhlo.tensor_v1<1x7x3072x!vhlo.f32_v1>
    %27 = "vhlo.convert_v1"(%26) : (!vhlo.tensor_v1<1x7x3072x!vhlo.f32_v1>) -> !vhlo.tensor_v1<1x7x3072x!vhlo.bf16_v1>
    %28 = "vhlo.convert_v1"(%27) : (!vhlo.tensor_v1<1x7x3072x!vhlo.bf16_v1>) -> !vhlo.tensor_v1<1x7x3072x!vhlo.f32_v1>
    %29 = "vhlo.multiply_v1"(%11, %28) : (!vhlo.tensor_v1<1x7x3072x!vhlo.f32_v1>, !vhlo.tensor_v1<1x7x3072x!vhlo.f32_v1>) -> !vhlo.tensor_v1<1x7x3072x!vhlo.f32_v1>
    %30 = "vhlo.convert_v1"(%29) : (!vhlo.tensor_v1<1x7x3072x!vhlo.f32_v1>) -> !vhlo.tensor_v1<1x7x3072x!vhlo.bf16_v1>
    %31 = "vhlo.reshape_v1"(%30) : (!vhlo.tensor_v1<1x7x3072x!vhlo.bf16_v1>) -> !vhlo.tensor_v1<7x3072x!vhlo.bf16_v1>
    %32 = "vhlo.dot_general_v2"(%31, %arg2) <{accumulation_type = #vhlo.type_v1<!vhlo.none_v1>, allow_imprecise_accumulation = #vhlo.type_v1<!vhlo.none_v1>, lhs_batching_dimensions = #vhlo.tensor_v1<dense<> : tensor<0xi64>>, lhs_component_count = #vhlo.type_v1<!vhlo.none_v1>, lhs_contracting_dimensions = #vhlo.tensor_v1<dense<1> : tensor<1xi64>>, lhs_precision_type = #vhlo.type_v1<!vhlo.none_v1>, num_primitive_operations = #vhlo.type_v1<!vhlo.none_v1>, precision_config = #vhlo.array_v1<[#vhlo<precision_v1 DEFAULT>, #vhlo<precision_v1 DEFAULT>]>, rhs_batching_dimensions = #vhlo.tensor_v1<dense<> : tensor<0xi64>>, rhs_component_count = #vhlo.type_v1<!vhlo.none_v1>, rhs_contracting_dimensions = #vhlo.tensor_v1<dense<0> : tensor<1xi64>>, rhs_precision_type = #vhlo.type_v1<!vhlo.none_v1>}> : (!vhlo.tensor_v1<7x3072x!vhlo.bf16_v1>, !vhlo.tensor_v1<3072x1024x!vhlo.bf16_v1>) -> !vhlo.tensor_v1<7x1024x!vhlo.bf16_v1>
    %33 = "vhlo.reshape_v1"(%32) : (!vhlo.tensor_v1<7x1024x!vhlo.bf16_v1>) -> !vhlo.tensor_v1<1x7x8x128x!vhlo.bf16_v1>
    %34 = "vhlo.transpose_v1"(%33) <{permutation = #vhlo.tensor_v1<dense<[0, 2, 1, 3]> : tensor<4xi64>>}> {result_layout = #vhlo.tensor_v1<dense<[3, 1, 2, 0]> : tensor<4xindex>>, xla_shape = #vhlo.string_v1<"bf16[1,8,7,128]{3,1,2,0}">} : (!vhlo.tensor_v1<1x7x8x128x!vhlo.bf16_v1>) -> !vhlo.tensor_v1<1x8x7x128x!vhlo.bf16_v1>
    %35 = "vhlo.convert_v1"(%34) {result_layout = #vhlo.tensor_v1<dense<[3, 1, 2, 0]> : tensor<4xindex>>, xla_shape = #vhlo.string_v1<"f32[1,8,7,128]{3,1,2,0}">} : (!vhlo.tensor_v1<1x8x7x128x!vhlo.bf16_v1>) -> !vhlo.tensor_v1<1x8x7x128x!vhlo.f32_v1>
    %36 = "vhlo.reshape_v1"(%arg0) : (!vhlo.tensor_v1<7x!vhlo.i64_v1>) -> !vhlo.tensor_v1<1x1x7x!vhlo.i64_v1>
    %37 = "vhlo.convert_v1"(%36) : (!vhlo.tensor_v1<1x1x7x!vhlo.i64_v1>) -> !vhlo.tensor_v1<1x1x7x!vhlo.f32_v1>
    %38 = "vhlo.dot_general_v2"(%arg1, %37) <{accumulation_type = #vhlo.type_v1<!vhlo.none_v1>, allow_imprecise_accumulation = #vhlo.type_v1<!vhlo.none_v1>, lhs_batching_dimensions = #vhlo.tensor_v1<dense<0> : tensor<1xi64>>, lhs_component_count = #vhlo.type_v1<!vhlo.none_v1>, lhs_contracting_dimensions = #vhlo.tensor_v1<dense<2> : tensor<1xi64>>, lhs_precision_type = #vhlo.type_v1<!vhlo.none_v1>, num_primitive_operations = #vhlo.type_v1<!vhlo.none_v1>, precision_config = #vhlo.array_v1<[#vhlo<precision_v1 DEFAULT>, #vhlo<precision_v1 DEFAULT>]>, rhs_batching_dimensions = #vhlo.tensor_v1<dense<0> : tensor<1xi64>>, rhs_component_count = #vhlo.type_v1<!vhlo.none_v1>, rhs_contracting_dimensions = #vhlo.tensor_v1<dense<1> : tensor<1xi64>>, rhs_precision_type = #vhlo.type_v1<!vhlo.none_v1>}> : (!vhlo.tensor_v1<1x64x1x!vhlo.f32_v1>, !vhlo.tensor_v1<1x1x7x!vhlo.f32_v1>) -> !vhlo.tensor_v1<1x64x7x!vhlo.f32_v1>
    %39 = "vhlo.transpose_v1"(%38) <{permutation = #vhlo.tensor_v1<dense<[0, 2, 1]> : tensor<3xi64>>}> {result_layout = #vhlo.tensor_v1<dense<[1, 2, 0]> : tensor<3xindex>>, xla_shape = #vhlo.string_v1<"f32[1,7,64]{1,2,0}">} : (!vhlo.tensor_v1<1x64x7x!vhlo.f32_v1>) -> !vhlo.tensor_v1<1x7x64x!vhlo.f32_v1>
    %40 = "vhlo.concatenate_v1"(%39, %39) <{dimension = #vhlo.integer_v1<2 : i64>}> : (!vhlo.tensor_v1<1x7x64x!vhlo.f32_v1>, !vhlo.tensor_v1<1x7x64x!vhlo.f32_v1>) -> !vhlo.tensor_v1<1x7x128x!vhlo.f32_v1>
    %41 = "vhlo.cosine_v2"(%40) <{result_accuracy = #vhlo.result_accuracy_v1<atol = 0.000000e+00, rtol = 0.000000e+00, ulps = 0, mode = #vhlo<result_accuracy_mode_v1 DEFAULT>>}> : (!vhlo.tensor_v1<1x7x128x!vhlo.f32_v1>) -> !vhlo.tensor_v1<1x7x128x!vhlo.f32_v1>
    %42 = "vhlo.convert_v1"(%41) : (!vhlo.tensor_v1<1x7x128x!vhlo.f32_v1>) -> !vhlo.tensor_v1<1x7x128x!vhlo.bf16_v1>
    %43 = "vhlo.reshape_v1"(%42) : (!vhlo.tensor_v1<1x7x128x!vhlo.bf16_v1>) -> !vhlo.tensor_v1<1x1x7x128x!vhlo.bf16_v1>
    %44 = "vhlo.convert_v1"(%43) : (!vhlo.tensor_v1<1x1x7x128x!vhlo.bf16_v1>) -> !vhlo.tensor_v1<1x1x7x128x!vhlo.f32_v1>
    %45 = "vhlo.reshape_v1"(%44) : (!vhlo.tensor_v1<1x1x7x128x!vhlo.f32_v1>) -> !vhlo.tensor_v1<1x7x128x!vhlo.f32_v1>
    %46 = "vhlo.broadcast_in_dim_v1"(%45) <{broadcast_dimensions = #vhlo.tensor_v1<dense<[0, 2, 3]> : tensor<3xi64>>}> : (!vhlo.tensor_v1<1x7x128x!vhlo.f32_v1>) -> !vhlo.tensor_v1<1x8x7x128x!vhlo.f32_v1>
    %47 = "vhlo.multiply_v1"(%35, %46) : (!vhlo.tensor_v1<1x8x7x128x!vhlo.f32_v1>, !vhlo.tensor_v1<1x8x7x128x!vhlo.f32_v1>) -> !vhlo.tensor_v1<1x8x7x128x!vhlo.f32_v1>
    %48 = "vhlo.convert_v1"(%47) : (!vhlo.tensor_v1<1x8x7x128x!vhlo.f32_v1>) -> !vhlo.tensor_v1<1x8x7x128x!vhlo.bf16_v1>
    %49 = "vhlo.slice_v1"(%34) <{limit_indices = #vhlo.tensor_v1<dense<[1, 8, 7, 128]> : tensor<4xi64>>, start_indices = #vhlo.tensor_v1<dense<[0, 0, 0, 64]> : tensor<4xi64>>, strides = #vhlo.tensor_v1<dense<1> : tensor<4xi64>>}> : (!vhlo.tensor_v1<1x8x7x128x!vhlo.bf16_v1>) -> !vhlo.tensor_v1<1x8x7x64x!vhlo.bf16_v1>
    %50 = "vhlo.negate_v1"(%49) : (!vhlo.tensor_v1<1x8x7x64x!vhlo.bf16_v1>) -> !vhlo.tensor_v1<1x8x7x64x!vhlo.bf16_v1>
    %51 = "vhlo.slice_v1"(%34) <{limit_indices = #vhlo.tensor_v1<dense<[1, 8, 7, 64]> : tensor<4xi64>>, start_indices = #vhlo.tensor_v1<dense<0> : tensor<4xi64>>, strides = #vhlo.tensor_v1<dense<1> : tensor<4xi64>>}> : (!vhlo.tensor_v1<1x8x7x128x!vhlo.bf16_v1>) -> !vhlo.tensor_v1<1x8x7x64x!vhlo.bf16_v1>
    %52 = "vhlo.concatenate_v1"(%50, %51) <{dimension = #vhlo.integer_v1<3 : i64>}> : (!vhlo.tensor_v1<1x8x7x64x!vhlo.bf16_v1>, !vhlo.tensor_v1<1x8x7x64x!vhlo.bf16_v1>) -> !vhlo.tensor_v1<1x8x7x128x!vhlo.bf16_v1>
    %53 = "vhlo.convert_v1"(%52) : (!vhlo.tensor_v1<1x8x7x128x!vhlo.bf16_v1>) -> !vhlo.tensor_v1<1x8x7x128x!vhlo.f32_v1>
    %54 = "vhlo.sine_v2"(%40) <{result_accuracy = #vhlo.result_accuracy_v1<atol = 0.000000e+00, rtol = 0.000000e+00, ulps = 0, mode = #vhlo<result_accuracy_mode_v1 DEFAULT>>}> : (!vhlo.tensor_v1<1x7x128x!vhlo.f32_v1>) -> !vhlo.tensor_v1<1x7x128x!vhlo.f32_v1>
    %55 = "vhlo.convert_v1"(%54) : (!vhlo.tensor_v1<1x7x128x!vhlo.f32_v1>) -> !vhlo.tensor_v1<1x7x128x!vhlo.bf16_v1>
    %56 = "vhlo.reshape_v1"(%55) : (!vhlo.tensor_v1<1x7x128x!vhlo.bf16_v1>) -> !vhlo.tensor_v1<1x1x7x128x!vhlo.bf16_v1>
    %57 = "vhlo.convert_v1"(%56) : (!vhlo.tensor_v1<1x1x7x128x!vhlo.bf16_v1>) -> !vhlo.tensor_v1<1x1x7x128x!vhlo.f32_v1>
    %58 = "vhlo.reshape_v1"(%57) : (!vhlo.tensor_v1<1x1x7x128x!vhlo.f32_v1>) -> !vhlo.tensor_v1<1x7x128x!vhlo.f32_v1>
    %59 = "vhlo.broadcast_in_dim_v1"(%58) <{broadcast_dimensions = #vhlo.tensor_v1<dense<[0, 2, 3]> : tensor<3xi64>>}> : (!vhlo.tensor_v1<1x7x128x!vhlo.f32_v1>) -> !vhlo.tensor_v1<1x8x7x128x!vhlo.f32_v1>
    %60 = "vhlo.multiply_v1"(%53, %59) : (!vhlo.tensor_v1<1x8x7x128x!vhlo.f32_v1>, !vhlo.tensor_v1<1x8x7x128x!vhlo.f32_v1>) -> !vhlo.tensor_v1<1x8x7x128x!vhlo.f32_v1>
    %61 = "vhlo.convert_v1"(%60) : (!vhlo.tensor_v1<1x8x7x128x!vhlo.f32_v1>) -> !vhlo.tensor_v1<1x8x7x128x!vhlo.bf16_v1>
    %62 = "vhlo.add_v1"(%48, %61) : (!vhlo.tensor_v1<1x8x7x128x!vhlo.bf16_v1>, !vhlo.tensor_v1<1x8x7x128x!vhlo.bf16_v1>) -> !vhlo.tensor_v1<1x8x7x128x!vhlo.bf16_v1>
    %63 = "vhlo.scatter_v2"(%arg8, %9, %62) <{index_vector_dim = #vhlo.integer_v1<1 : i64>, indices_are_sorted = #vhlo.bool_v1<false>, input_batching_dims = #vhlo.tensor_v1<dense<> : tensor<0xi64>>, inserted_window_dims = #vhlo.tensor_v1<dense<2> : tensor<1xi64>>, scatter_dims_to_operand_dims = #vhlo.tensor_v1<dense<2> : tensor<1xi64>>, scatter_indices_batching_dims = #vhlo.tensor_v1<dense<> : tensor<0xi64>>, unique_indices = #vhlo.bool_v1<false>, update_window_dims = #vhlo.tensor_v1<dense<[0, 1, 3]> : tensor<3xi64>>}> ({
    ^bb0(%arg32: !vhlo.tensor_v1<!vhlo.bf16_v1>, %arg33: !vhlo.tensor_v1<!vhlo.bf16_v1>):
      "vhlo.return_v1"(%arg33) : (!vhlo.tensor_v1<!vhlo.bf16_v1>) -> ()
    }) : (!vhlo.tensor_v1<1x8x128x128x!vhlo.bf16_v1>, !vhlo.tensor_v1<7x1x!vhlo.i64_v1>, !vhlo.tensor_v1<1x8x7x128x!vhlo.bf16_v1>) -> !vhlo.tensor_v1<1x8x128x128x!vhlo.bf16_v1>
    %64 = "vhlo.dot_general_v2"(%31, %arg9) <{accumulation_type = #vhlo.type_v1<!vhlo.none_v1>, allow_imprecise_accumulation = #vhlo.type_v1<!vhlo.none_v1>, lhs_batching_dimensions = #vhlo.tensor_v1<dense<> : tensor<0xi64>>, lhs_component_count = #vhlo.type_v1<!vhlo.none_v1>, lhs_contracting_dimensions = #vhlo.tensor_v1<dense<1> : tensor<1xi64>>, lhs_precision_type = #vhlo.type_v1<!vhlo.none_v1>, num_primitive_operations = #vhlo.type_v1<!vhlo.none_v1>, precision_config = #vhlo.array_v1<[#vhlo<precision_v1 DEFAULT>, #vhlo<precision_v1 DEFAULT>]>, rhs_batching_dimensions = #vhlo.tensor_v1<dense<> : tensor<0xi64>>, rhs_component_count = #vhlo.type_v1<!vhlo.none_v1>, rhs_contracting_dimensions = #vhlo.tensor_v1<dense<0> : tensor<1xi64>>, rhs_precision_type = #vhlo.type_v1<!vhlo.none_v1>}> : (!vhlo.tensor_v1<7x3072x!vhlo.bf16_v1>, !vhlo.tensor_v1<3072x1024x!vhlo.bf16_v1>) -> !vhlo.tensor_v1<7x1024x!vhlo.bf16_v1>
    %65 = "vhlo.reshape_v1"(%64) : (!vhlo.tensor_v1<7x1024x!vhlo.bf16_v1>) -> !vhlo.tensor_v1<1x7x8x128x!vhlo.bf16_v1>
    %66 = "vhlo.transpose_v1"(%65) <{permutation = #vhlo.tensor_v1<dense<[0, 2, 1, 3]> : tensor<4xi64>>}> {result_layout = #vhlo.tensor_v1<dense<[3, 1, 2, 0]> : tensor<4xindex>>, xla_shape = #vhlo.string_v1<"bf16[1,8,7,128]{3,1,2,0}">} : (!vhlo.tensor_v1<1x7x8x128x!vhlo.bf16_v1>) -> !vhlo.tensor_v1<1x8x7x128x!vhlo.bf16_v1>
    %67 = "vhlo.scatter_v2"(%arg10, %9, %66) <{index_vector_dim = #vhlo.integer_v1<1 : i64>, indices_are_sorted = #vhlo.bool_v1<false>, input_batching_dims = #vhlo.tensor_v1<dense<> : tensor<0xi64>>, inserted_window_dims = #vhlo.tensor_v1<dense<2> : tensor<1xi64>>, scatter_dims_to_operand_dims = #vhlo.tensor_v1<dense<2> : tensor<1xi64>>, scatter_indices_batching_dims = #vhlo.tensor_v1<dense<> : tensor<0xi64>>, unique_indices = #vhlo.bool_v1<false>, update_window_dims = #vhlo.tensor_v1<dense<[0, 1, 3]> : tensor<3xi64>>}> ({
    ^bb0(%arg32: !vhlo.tensor_v1<!vhlo.bf16_v1>, %arg33: !vhlo.tensor_v1<!vhlo.bf16_v1>):
      "vhlo.return_v1"(%arg33) : (!vhlo.tensor_v1<!vhlo.bf16_v1>) -> ()
    }) : (!vhlo.tensor_v1<1x8x128x128x!vhlo.bf16_v1>, !vhlo.tensor_v1<7x1x!vhlo.i64_v1>, !vhlo.tensor_v1<1x8x7x128x!vhlo.bf16_v1>) -> !vhlo.tensor_v1<1x8x128x128x!vhlo.bf16_v1>
    %68 = "vhlo.convert_v1"(%arg20) : (!vhlo.tensor_v1<3072x!vhlo.bf16_v1>) -> !vhlo.tensor_v1<3072x!vhlo.f32_v1>
    %69 = "vhlo.broadcast_in_dim_v1"(%68) <{broadcast_dimensions = #vhlo.tensor_v1<dense<2> : tensor<1xi64>>}> : (!vhlo.tensor_v1<3072x!vhlo.f32_v1>) -> !vhlo.tensor_v1<1x7x3072x!vhlo.f32_v1>
    %70 = "vhlo.dot_general_v2"(%31, %arg17) <{accumulation_type = #vhlo.type_v1<!vhlo.none_v1>, allow_imprecise_accumulation = #vhlo.type_v1<!vhlo.none_v1>, lhs_batching_dimensions = #vhlo.tensor_v1<dense<> : tensor<0xi64>>, lhs_component_count = #vhlo.type_v1<!vhlo.none_v1>, lhs_contracting_dimensions = #vhlo.tensor_v1<dense<1> : tensor<1xi64>>, lhs_precision_type = #vhlo.type_v1<!vhlo.none_v1>, num_primitive_operations = #vhlo.type_v1<!vhlo.none_v1>, precision_config = #vhlo.array_v1<[#vhlo<precision_v1 DEFAULT>, #vhlo<precision_v1 DEFAULT>]>, rhs_batching_dimensions = #vhlo.tensor_v1<dense<> : tensor<0xi64>>, rhs_component_count = #vhlo.type_v1<!vhlo.none_v1>, rhs_contracting_dimensions = #vhlo.tensor_v1<dense<0> : tensor<1xi64>>, rhs_precision_type = #vhlo.type_v1<!vhlo.none_v1>}> : (!vhlo.tensor_v1<7x3072x!vhlo.bf16_v1>, !vhlo.tensor_v1<3072x3072x!vhlo.bf16_v1>) -> !vhlo.tensor_v1<7x3072x!vhlo.bf16_v1>
    %71 = "vhlo.reshape_v1"(%70) : (!vhlo.tensor_v1<7x3072x!vhlo.bf16_v1>) -> !vhlo.tensor_v1<1x7x24x128x!vhlo.bf16_v1>
    %72 = "vhlo.transpose_v1"(%71) <{permutation = #vhlo.tensor_v1<dense<[0, 2, 1, 3]> : tensor<4xi64>>}> {result_layout = #vhlo.tensor_v1<dense<[3, 1, 2, 0]> : tensor<4xindex>>, xla_shape = #vhlo.string_v1<"bf16[1,24,7,128]{3,1,2,0}">} : (!vhlo.tensor_v1<1x7x24x128x!vhlo.bf16_v1>) -> !vhlo.tensor_v1<1x24x7x128x!vhlo.bf16_v1>
    %73 = "vhlo.convert_v1"(%72) {result_layout = #vhlo.tensor_v1<dense<[3, 1, 2, 0]> : tensor<4xindex>>, xla_shape = #vhlo.string_v1<"f32[1,24,7,128]{3,1,2,0}">} : (!vhlo.tensor_v1<1x24x7x128x!vhlo.bf16_v1>) -> !vhlo.tensor_v1<1x24x7x128x!vhlo.f32_v1>
    %74 = "vhlo.broadcast_in_dim_v1"(%45) <{broadcast_dimensions = #vhlo.tensor_v1<dense<[0, 2, 3]> : tensor<3xi64>>}> : (!vhlo.tensor_v1<1x7x128x!vhlo.f32_v1>) -> !vhlo.tensor_v1<1x24x7x128x!vhlo.f32_v1>
    %75 = "vhlo.multiply_v1"(%73, %74) : (!vhlo.tensor_v1<1x24x7x128x!vhlo.f32_v1>, !vhlo.tensor_v1<1x24x7x128x!vhlo.f32_v1>) -> !vhlo.tensor_v1<1x24x7x128x!vhlo.f32_v1>
    %76 = "vhlo.convert_v1"(%75) : (!vhlo.tensor_v1<1x24x7x128x!vhlo.f32_v1>) -> !vhlo.tensor_v1<1x24x7x128x!vhlo.bf16_v1>
    %77 = "vhlo.slice_v1"(%72) <{limit_indices = #vhlo.tensor_v1<dense<[1, 24, 7, 128]> : tensor<4xi64>>, start_indices = #vhlo.tensor_v1<dense<[0, 0, 0, 64]> : tensor<4xi64>>, strides = #vhlo.tensor_v1<dense<1> : tensor<4xi64>>}> : (!vhlo.tensor_v1<1x24x7x128x!vhlo.bf16_v1>) -> !vhlo.tensor_v1<1x24x7x64x!vhlo.bf16_v1>
    %78 = "vhlo.negate_v1"(%77) : (!vhlo.tensor_v1<1x24x7x64x!vhlo.bf16_v1>) -> !vhlo.tensor_v1<1x24x7x64x!vhlo.bf16_v1>
    %79 = "vhlo.slice_v1"(%72) <{limit_indices = #vhlo.tensor_v1<dense<[1, 24, 7, 64]> : tensor<4xi64>>, start_indices = #vhlo.tensor_v1<dense<0> : tensor<4xi64>>, strides = #vhlo.tensor_v1<dense<1> : tensor<4xi64>>}> : (!vhlo.tensor_v1<1x24x7x128x!vhlo.bf16_v1>) -> !vhlo.tensor_v1<1x24x7x64x!vhlo.bf16_v1>
    %80 = "vhlo.concatenate_v1"(%78, %79) <{dimension = #vhlo.integer_v1<3 : i64>}> : (!vhlo.tensor_v1<1x24x7x64x!vhlo.bf16_v1>, !vhlo.tensor_v1<1x24x7x64x!vhlo.bf16_v1>) -> !vhlo.tensor_v1<1x24x7x128x!vhlo.bf16_v1>
    %81 = "vhlo.convert_v1"(%80) : (!vhlo.tensor_v1<1x24x7x128x!vhlo.bf16_v1>) -> !vhlo.tensor_v1<1x24x7x128x!vhlo.f32_v1>
    %82 = "vhlo.broadcast_in_dim_v1"(%58) <{broadcast_dimensions = #vhlo.tensor_v1<dense<[0, 2, 3]> : tensor<3xi64>>}> : (!vhlo.tensor_v1<1x7x128x!vhlo.f32_v1>) -> !vhlo.tensor_v1<1x24x7x128x!vhlo.f32_v1>
    %83 = "vhlo.multiply_v1"(%81, %82) : (!vhlo.tensor_v1<1x24x7x128x!vhlo.f32_v1>, !vhlo.tensor_v1<1x24x7x128x!vhlo.f32_v1>) -> !vhlo.tensor_v1<1x24x7x128x!vhlo.f32_v1>
    %84 = "vhlo.convert_v1"(%83) : (!vhlo.tensor_v1<1x24x7x128x!vhlo.f32_v1>) -> !vhlo.tensor_v1<1x24x7x128x!vhlo.bf16_v1>
    %85 = "vhlo.add_v1"(%76, %84) : (!vhlo.tensor_v1<1x24x7x128x!vhlo.bf16_v1>, !vhlo.tensor_v1<1x24x7x128x!vhlo.bf16_v1>) -> !vhlo.tensor_v1<1x24x7x128x!vhlo.bf16_v1>
    %86 = "vhlo.reshape_v1"(%85) : (!vhlo.tensor_v1<1x24x7x128x!vhlo.bf16_v1>) -> !vhlo.tensor_v1<24x7x128x!vhlo.bf16_v1>
    %87 = "vhlo.broadcast_in_dim_v1"(%63) <{broadcast_dimensions = #vhlo.tensor_v1<dense<[0, 1, 3, 4]> : tensor<4xi64>>}> : (!vhlo.tensor_v1<1x8x128x128x!vhlo.bf16_v1>) -> !vhlo.tensor_v1<1x8x3x128x128x!vhlo.bf16_v1>
    %88 = "vhlo.reshape_v1"(%87) : (!vhlo.tensor_v1<1x8x3x128x128x!vhlo.bf16_v1>) -> !vhlo.tensor_v1<1x24x128x128x!vhlo.bf16_v1>
    %89 = "vhlo.transpose_v1"(%88) <{permutation = #vhlo.tensor_v1<dense<[0, 1, 3, 2]> : tensor<4xi64>>}> {result_layout = #vhlo.tensor_v1<dense<[2, 3, 1, 0]> : tensor<4xindex>>, xla_shape = #vhlo.string_v1<"bf16[1,24,128,128]{2,3,1,0}">} : (!vhlo.tensor_v1<1x24x128x128x!vhlo.bf16_v1>) -> !vhlo.tensor_v1<1x24x128x128x!vhlo.bf16_v1>
    %90 = "vhlo.reshape_v1"(%89) : (!vhlo.tensor_v1<1x24x128x128x!vhlo.bf16_v1>) -> !vhlo.tensor_v1<24x128x128x!vhlo.bf16_v1>
    %91 = "vhlo.dot_general_v2"(%86, %90) <{accumulation_type = #vhlo.type_v1<!vhlo.none_v1>, allow_imprecise_accumulation = #vhlo.type_v1<!vhlo.none_v1>, lhs_batching_dimensions = #vhlo.tensor_v1<dense<0> : tensor<1xi64>>, lhs_component_count = #vhlo.type_v1<!vhlo.none_v1>, lhs_contracting_dimensions = #vhlo.tensor_v1<dense<2> : tensor<1xi64>>, lhs_precision_type = #vhlo.type_v1<!vhlo.none_v1>, num_primitive_operations = #vhlo.type_v1<!vhlo.none_v1>, precision_config = #vhlo.array_v1<[#vhlo<precision_v1 DEFAULT>, #vhlo<precision_v1 DEFAULT>]>, rhs_batching_dimensions = #vhlo.tensor_v1<dense<0> : tensor<1xi64>>, rhs_component_count = #vhlo.type_v1<!vhlo.none_v1>, rhs_contracting_dimensions = #vhlo.tensor_v1<dense<1> : tensor<1xi64>>, rhs_precision_type = #vhlo.type_v1<!vhlo.none_v1>}> : (!vhlo.tensor_v1<24x7x128x!vhlo.bf16_v1>, !vhlo.tensor_v1<24x128x128x!vhlo.bf16_v1>) -> !vhlo.tensor_v1<24x7x128x!vhlo.bf16_v1>
    %92 = "vhlo.reshape_v1"(%91) : (!vhlo.tensor_v1<24x7x128x!vhlo.bf16_v1>) -> !vhlo.tensor_v1<1x24x7x128x!vhlo.bf16_v1>
    %93 = "vhlo.convert_v1"(%92) : (!vhlo.tensor_v1<1x24x7x128x!vhlo.bf16_v1>) -> !vhlo.tensor_v1<1x24x7x128x!vhlo.f32_v1>
    %94 = "vhlo.broadcast_in_dim_v1"(%arg16) <{broadcast_dimensions = #vhlo.tensor_v1<dense<> : tensor<0xi64>>}> : (!vhlo.tensor_v1<!vhlo.f32_v1>) -> !vhlo.tensor_v1<1x24x7x128x!vhlo.f32_v1>
    %95 = "vhlo.multiply_v1"(%93, %94) : (!vhlo.tensor_v1<1x24x7x128x!vhlo.f32_v1>, !vhlo.tensor_v1<1x24x7x128x!vhlo.f32_v1>) -> !vhlo.tensor_v1<1x24x7x128x!vhlo.f32_v1>
    %96 = "vhlo.convert_v1"(%95) : (!vhlo.tensor_v1<1x24x7x128x!vhlo.f32_v1>) -> !vhlo.tensor_v1<1x24x7x128x!vhlo.bf16_v1>
    %97 = "vhlo.reshape_v1"(%arg15) : (!vhlo.tensor_v1<1x1x7x128x!vhlo.bf16_v1>) -> !vhlo.tensor_v1<1x7x128x!vhlo.bf16_v1>
    %98 = "vhlo.broadcast_in_dim_v1"(%97) <{broadcast_dimensions = #vhlo.tensor_v1<dense<[0, 2, 3]> : tensor<3xi64>>}> : (!vhlo.tensor_v1<1x7x128x!vhlo.bf16_v1>) -> !vhlo.tensor_v1<1x24x7x128x!vhlo.bf16_v1>
    %99 = "vhlo.add_v1"(%96, %98) : (!vhlo.tensor_v1<1x24x7x128x!vhlo.bf16_v1>, !vhlo.tensor_v1<1x24x7x128x!vhlo.bf16_v1>) -> !vhlo.tensor_v1<1x24x7x128x!vhlo.bf16_v1>
    %100 = "vhlo.convert_v1"(%99) : (!vhlo.tensor_v1<1x24x7x128x!vhlo.bf16_v1>) -> !vhlo.tensor_v1<1x24x7x128x!vhlo.f32_v1>
    %101 = "vhlo.reduce_v1"(%100, %2) <{dimensions = #vhlo.tensor_v1<dense<3> : tensor<1xi64>>}> ({
    ^bb0(%arg32: !vhlo.tensor_v1<!vhlo.f32_v1>, %arg33: !vhlo.tensor_v1<!vhlo.f32_v1>):
      %284 = "vhlo.maximum_v1"(%arg32, %arg33) : (!vhlo.tensor_v1<!vhlo.f32_v1>, !vhlo.tensor_v1<!vhlo.f32_v1>) -> !vhlo.tensor_v1<!vhlo.f32_v1>
      "vhlo.return_v1"(%284) : (!vhlo.tensor_v1<!vhlo.f32_v1>) -> ()
    }) : (!vhlo.tensor_v1<1x24x7x128x!vhlo.f32_v1>, !vhlo.tensor_v1<!vhlo.f32_v1>) -> !vhlo.tensor_v1<1x24x7x!vhlo.f32_v1>
    %102 = "vhlo.broadcast_in_dim_v1"(%101) <{broadcast_dimensions = #vhlo.tensor_v1<dense<[0, 1, 2]> : tensor<3xi64>>}> : (!vhlo.tensor_v1<1x24x7x!vhlo.f32_v1>) -> !vhlo.tensor_v1<1x24x7x128x!vhlo.f32_v1>
    %103 = "vhlo.subtract_v1"(%100, %102) : (!vhlo.tensor_v1<1x24x7x128x!vhlo.f32_v1>, !vhlo.tensor_v1<1x24x7x128x!vhlo.f32_v1>) -> !vhlo.tensor_v1<1x24x7x128x!vhlo.f32_v1>
    %104 = "vhlo.exponential_v2"(%103) <{result_accuracy = #vhlo.result_accuracy_v1<atol = 0.000000e+00, rtol = 0.000000e+00, ulps = 0, mode = #vhlo<result_accuracy_mode_v1 DEFAULT>>}> : (!vhlo.tensor_v1<1x24x7x128x!vhlo.f32_v1>) -> !vhlo.tensor_v1<1x24x7x128x!vhlo.f32_v1>
    %105 = "vhlo.reduce_v1"(%104, %3) <{dimensions = #vhlo.tensor_v1<dense<3> : tensor<1xi64>>}> ({
    ^bb0(%arg32: !vhlo.tensor_v1<!vhlo.f32_v1>, %arg33: !vhlo.tensor_v1<!vhlo.f32_v1>):
      %284 = "vhlo.add_v1"(%arg32, %arg33) : (!vhlo.tensor_v1<!vhlo.f32_v1>, !vhlo.tensor_v1<!vhlo.f32_v1>) -> !vhlo.tensor_v1<!vhlo.f32_v1>
      "vhlo.return_v1"(%284) : (!vhlo.tensor_v1<!vhlo.f32_v1>) -> ()
    }) : (!vhlo.tensor_v1<1x24x7x128x!vhlo.f32_v1>, !vhlo.tensor_v1<!vhlo.f32_v1>) -> !vhlo.tensor_v1<1x24x7x!vhlo.f32_v1>
    %106 = "vhlo.broadcast_in_dim_v1"(%105) <{broadcast_dimensions = #vhlo.tensor_v1<dense<[0, 1, 2]> : tensor<3xi64>>}> : (!vhlo.tensor_v1<1x24x7x!vhlo.f32_v1>) -> !vhlo.tensor_v1<1x24x7x128x!vhlo.f32_v1>
    %107 = "vhlo.divide_v1"(%104, %106) : (!vhlo.tensor_v1<1x24x7x128x!vhlo.f32_v1>, !vhlo.tensor_v1<1x24x7x128x!vhlo.f32_v1>) -> !vhlo.tensor_v1<1x24x7x128x!vhlo.f32_v1>
    %108 = "vhlo.convert_v1"(%107) : (!vhlo.tensor_v1<1x24x7x128x!vhlo.f32_v1>) -> !vhlo.tensor_v1<1x24x7x128x!vhlo.bf16_v1>
    %109 = "vhlo.reshape_v1"(%108) : (!vhlo.tensor_v1<1x24x7x128x!vhlo.bf16_v1>) -> !vhlo.tensor_v1<24x7x128x!vhlo.bf16_v1>
    %110 = "vhlo.broadcast_in_dim_v1"(%67) <{broadcast_dimensions = #vhlo.tensor_v1<dense<[0, 1, 3, 4]> : tensor<4xi64>>}> : (!vhlo.tensor_v1<1x8x128x128x!vhlo.bf16_v1>) -> !vhlo.tensor_v1<1x8x3x128x128x!vhlo.bf16_v1>
    %111 = "vhlo.reshape_v1"(%110) : (!vhlo.tensor_v1<1x8x3x128x128x!vhlo.bf16_v1>) -> !vhlo.tensor_v1<24x128x128x!vhlo.bf16_v1>
    %112 = "vhlo.dot_general_v2"(%109, %111) <{accumulation_type = #vhlo.type_v1<!vhlo.none_v1>, allow_imprecise_accumulation = #vhlo.type_v1<!vhlo.none_v1>, lhs_batching_dimensions = #vhlo.tensor_v1<dense<0> : tensor<1xi64>>, lhs_component_count = #vhlo.type_v1<!vhlo.none_v1>, lhs_contracting_dimensions = #vhlo.tensor_v1<dense<2> : tensor<1xi64>>, lhs_precision_type = #vhlo.type_v1<!vhlo.none_v1>, num_primitive_operations = #vhlo.type_v1<!vhlo.none_v1>, precision_config = #vhlo.array_v1<[#vhlo<precision_v1 DEFAULT>, #vhlo<precision_v1 DEFAULT>]>, rhs_batching_dimensions = #vhlo.tensor_v1<dense<0> : tensor<1xi64>>, rhs_component_count = #vhlo.type_v1<!vhlo.none_v1>, rhs_contracting_dimensions = #vhlo.tensor_v1<dense<1> : tensor<1xi64>>, rhs_precision_type = #vhlo.type_v1<!vhlo.none_v1>}> : (!vhlo.tensor_v1<24x7x128x!vhlo.bf16_v1>, !vhlo.tensor_v1<24x128x128x!vhlo.bf16_v1>) -> !vhlo.tensor_v1<24x7x128x!vhlo.bf16_v1>
    %113 = "vhlo.reshape_v1"(%112) : (!vhlo.tensor_v1<24x7x128x!vhlo.bf16_v1>) -> !vhlo.tensor_v1<1x24x7x128x!vhlo.bf16_v1>
    %114 = "vhlo.transpose_v1"(%113) <{permutation = #vhlo.tensor_v1<dense<[0, 2, 1, 3]> : tensor<4xi64>>}> {result_layout = #vhlo.tensor_v1<dense<[3, 1, 2, 0]> : tensor<4xindex>>, xla_shape = #vhlo.string_v1<"bf16[1,7,24,128]{3,1,2,0}">} : (!vhlo.tensor_v1<1x24x7x128x!vhlo.bf16_v1>) -> !vhlo.tensor_v1<1x7x24x128x!vhlo.bf16_v1>
    %115 = "vhlo.reshape_v1"(%114) : (!vhlo.tensor_v1<1x7x24x128x!vhlo.bf16_v1>) -> !vhlo.tensor_v1<7x3072x!vhlo.bf16_v1>
    %116 = "vhlo.dot_general_v2"(%115, %arg14) <{accumulation_type = #vhlo.type_v1<!vhlo.none_v1>, allow_imprecise_accumulation = #vhlo.type_v1<!vhlo.none_v1>, lhs_batching_dimensions = #vhlo.tensor_v1<dense<> : tensor<0xi64>>, lhs_component_count = #vhlo.type_v1<!vhlo.none_v1>, lhs_contracting_dimensions = #vhlo.tensor_v1<dense<1> : tensor<1xi64>>, lhs_precision_type = #vhlo.type_v1<!vhlo.none_v1>, num_primitive_operations = #vhlo.type_v1<!vhlo.none_v1>, precision_config = #vhlo.array_v1<[#vhlo<precision_v1 DEFAULT>, #vhlo<precision_v1 DEFAULT>]>, rhs_batching_dimensions = #vhlo.tensor_v1<dense<> : tensor<0xi64>>, rhs_component_count = #vhlo.type_v1<!vhlo.none_v1>, rhs_contracting_dimensions = #vhlo.tensor_v1<dense<0> : tensor<1xi64>>, rhs_precision_type = #vhlo.type_v1<!vhlo.none_v1>}> : (!vhlo.tensor_v1<7x3072x!vhlo.bf16_v1>, !vhlo.tensor_v1<3072x3072x!vhlo.bf16_v1>) -> !vhlo.tensor_v1<7x3072x!vhlo.bf16_v1>
    %117 = "vhlo.reshape_v1"(%116) : (!vhlo.tensor_v1<7x3072x!vhlo.bf16_v1>) -> !vhlo.tensor_v1<1x7x3072x!vhlo.bf16_v1>
    %118 = "vhlo.add_v1"(%15, %117) : (!vhlo.tensor_v1<1x7x3072x!vhlo.bf16_v1>, !vhlo.tensor_v1<1x7x3072x!vhlo.bf16_v1>) -> !vhlo.tensor_v1<1x7x3072x!vhlo.bf16_v1>
    %119 = "vhlo.convert_v1"(%arg18) : (!vhlo.tensor_v1<3072x!vhlo.bf16_v1>) -> !vhlo.tensor_v1<3072x!vhlo.f32_v1>
    %120 = "vhlo.broadcast_in_dim_v1"(%119) <{broadcast_dimensions = #vhlo.tensor_v1<dense<2> : tensor<1xi64>>}> : (!vhlo.tensor_v1<3072x!vhlo.f32_v1>) -> !vhlo.tensor_v1<1x7x3072x!vhlo.f32_v1>
    %121 = "vhlo.convert_v1"(%118) : (!vhlo.tensor_v1<1x7x3072x!vhlo.bf16_v1>) -> !vhlo.tensor_v1<1x7x3072x!vhlo.f32_v1>
    %122 = "vhlo.power_v1"(%121, %1) : (!vhlo.tensor_v1<1x7x3072x!vhlo.f32_v1>, !vhlo.tensor_v1<1x7x3072x!vhlo.f32_v1>) -> !vhlo.tensor_v1<1x7x3072x!vhlo.f32_v1>
    %123 = "vhlo.reduce_v1"(%122, %3) <{dimensions = #vhlo.tensor_v1<dense<2> : tensor<1xi64>>}> ({
    ^bb0(%arg32: !vhlo.tensor_v1<!vhlo.f32_v1>, %arg33: !vhlo.tensor_v1<!vhlo.f32_v1>):
      %284 = "vhlo.add_v1"(%arg32, %arg33) : (!vhlo.tensor_v1<!vhlo.f32_v1>, !vhlo.tensor_v1<!vhlo.f32_v1>) -> !vhlo.tensor_v1<!vhlo.f32_v1>
      "vhlo.return_v1"(%284) : (!vhlo.tensor_v1<!vhlo.f32_v1>) -> ()
    }) : (!vhlo.tensor_v1<1x7x3072x!vhlo.f32_v1>, !vhlo.tensor_v1<!vhlo.f32_v1>) -> !vhlo.tensor_v1<1x7x!vhlo.f32_v1>
    %124 = "vhlo.multiply_v1"(%123, %0) : (!vhlo.tensor_v1<1x7x!vhlo.f32_v1>, !vhlo.tensor_v1<1x7x!vhlo.f32_v1>) -> !vhlo.tensor_v1<1x7x!vhlo.f32_v1>
    %125 = "vhlo.reshape_v1"(%124) : (!vhlo.tensor_v1<1x7x!vhlo.f32_v1>) -> !vhlo.tensor_v1<1x7x1x!vhlo.f32_v1>
    %126 = "vhlo.add_v1"(%125, %21) : (!vhlo.tensor_v1<1x7x1x!vhlo.f32_v1>, !vhlo.tensor_v1<1x7x1x!vhlo.f32_v1>) -> !vhlo.tensor_v1<1x7x1x!vhlo.f32_v1>
    %127 = "vhlo.rsqrt_v2"(%126) <{result_accuracy = #vhlo.result_accuracy_v1<atol = 0.000000e+00, rtol = 0.000000e+00, ulps = 0, mode = #vhlo<result_accuracy_mode_v1 DEFAULT>>}> : (!vhlo.tensor_v1<1x7x1x!vhlo.f32_v1>) -> !vhlo.tensor_v1<1x7x1x!vhlo.f32_v1>
    %128 = "vhlo.reshape_v1"(%127) : (!vhlo.tensor_v1<1x7x1x!vhlo.f32_v1>) -> !vhlo.tensor_v1<1x7x!vhlo.f32_v1>
    %129 = "vhlo.broadcast_in_dim_v1"(%128) <{broadcast_dimensions = #vhlo.tensor_v1<dense<[0, 1]> : tensor<2xi64>>}> : (!vhlo.tensor_v1<1x7x!vhlo.f32_v1>) -> !vhlo.tensor_v1<1x7x3072x!vhlo.f32_v1>
    %130 = "vhlo.multiply_v1"(%121, %129) : (!vhlo.tensor_v1<1x7x3072x!vhlo.f32_v1>, !vhlo.tensor_v1<1x7x3072x!vhlo.f32_v1>) -> !vhlo.tensor_v1<1x7x3072x!vhlo.f32_v1>
    %131 = "vhlo.convert_v1"(%130) : (!vhlo.tensor_v1<1x7x3072x!vhlo.f32_v1>) -> !vhlo.tensor_v1<1x7x3072x!vhlo.bf16_v1>
    %132 = "vhlo.convert_v1"(%131) : (!vhlo.tensor_v1<1x7x3072x!vhlo.bf16_v1>) -> !vhlo.tensor_v1<1x7x3072x!vhlo.f32_v1>
    %133 = "vhlo.multiply_v1"(%120, %132) : (!vhlo.tensor_v1<1x7x3072x!vhlo.f32_v1>, !vhlo.tensor_v1<1x7x3072x!vhlo.f32_v1>) -> !vhlo.tensor_v1<1x7x3072x!vhlo.f32_v1>
    %134 = "vhlo.convert_v1"(%133) : (!vhlo.tensor_v1<1x7x3072x!vhlo.f32_v1>) -> !vhlo.tensor_v1<1x7x3072x!vhlo.bf16_v1>
    %135 = "vhlo.reshape_v1"(%134) : (!vhlo.tensor_v1<1x7x3072x!vhlo.bf16_v1>) -> !vhlo.tensor_v1<7x3072x!vhlo.bf16_v1>
    %136 = "vhlo.dot_general_v2"(%135, %arg19) <{accumulation_type = #vhlo.type_v1<!vhlo.none_v1>, allow_imprecise_accumulation = #vhlo.type_v1<!vhlo.none_v1>, lhs_batching_dimensions = #vhlo.tensor_v1<dense<> : tensor<0xi64>>, lhs_component_count = #vhlo.type_v1<!vhlo.none_v1>, lhs_contracting_dimensions = #vhlo.tensor_v1<dense<1> : tensor<1xi64>>, lhs_precision_type = #vhlo.type_v1<!vhlo.none_v1>, num_primitive_operations = #vhlo.type_v1<!vhlo.none_v1>, precision_config = #vhlo.array_v1<[#vhlo<precision_v1 DEFAULT>, #vhlo<precision_v1 DEFAULT>]>, rhs_batching_dimensions = #vhlo.tensor_v1<dense<> : tensor<0xi64>>, rhs_component_count = #vhlo.type_v1<!vhlo.none_v1>, rhs_contracting_dimensions = #vhlo.tensor_v1<dense<0> : tensor<1xi64>>, rhs_precision_type = #vhlo.type_v1<!vhlo.none_v1>}> : (!vhlo.tensor_v1<7x3072x!vhlo.bf16_v1>, !vhlo.tensor_v1<3072x8192x!vhlo.bf16_v1>) -> !vhlo.tensor_v1<7x8192x!vhlo.bf16_v1>
    %137 = "vhlo.reshape_v1"(%136) : (!vhlo.tensor_v1<7x8192x!vhlo.bf16_v1>) -> !vhlo.tensor_v1<1x7x8192x!vhlo.bf16_v1>
    %138 = "vhlo.convert_v1"(%137) : (!vhlo.tensor_v1<1x7x8192x!vhlo.bf16_v1>) -> !vhlo.tensor_v1<1x7x8192x!vhlo.f32_v1>
    %139 = "vhlo.logistic_v2"(%137) <{result_accuracy = #vhlo.result_accuracy_v1<atol = 0.000000e+00, rtol = 0.000000e+00, ulps = 0, mode = #vhlo<result_accuracy_mode_v1 DEFAULT>>}> : (!vhlo.tensor_v1<1x7x8192x!vhlo.bf16_v1>) -> !vhlo.tensor_v1<1x7x8192x!vhlo.bf16_v1>
    %140 = "vhlo.convert_v1"(%139) : (!vhlo.tensor_v1<1x7x8192x!vhlo.bf16_v1>) -> !vhlo.tensor_v1<1x7x8192x!vhlo.f32_v1>
    %141 = "vhlo.multiply_v1"(%138, %140) : (!vhlo.tensor_v1<1x7x8192x!vhlo.f32_v1>, !vhlo.tensor_v1<1x7x8192x!vhlo.f32_v1>) -> !vhlo.tensor_v1<1x7x8192x!vhlo.f32_v1>
    %142 = "vhlo.convert_v1"(%141) : (!vhlo.tensor_v1<1x7x8192x!vhlo.f32_v1>) -> !vhlo.tensor_v1<1x7x8192x!vhlo.bf16_v1>
    %143 = "vhlo.convert_v1"(%142) : (!vhlo.tensor_v1<1x7x8192x!vhlo.bf16_v1>) -> !vhlo.tensor_v1<1x7x8192x!vhlo.f32_v1>
    %144 = "vhlo.dot_general_v2"(%135, %arg13) <{accumulation_type = #vhlo.type_v1<!vhlo.none_v1>, allow_imprecise_accumulation = #vhlo.type_v1<!vhlo.none_v1>, lhs_batching_dimensions = #vhlo.tensor_v1<dense<> : tensor<0xi64>>, lhs_component_count = #vhlo.type_v1<!vhlo.none_v1>, lhs_contracting_dimensions = #vhlo.tensor_v1<dense<1> : tensor<1xi64>>, lhs_precision_type = #vhlo.type_v1<!vhlo.none_v1>, num_primitive_operations = #vhlo.type_v1<!vhlo.none_v1>, precision_config = #vhlo.array_v1<[#vhlo<precision_v1 DEFAULT>, #vhlo<precision_v1 DEFAULT>]>, rhs_batching_dimensions = #vhlo.tensor_v1<dense<> : tensor<0xi64>>, rhs_component_count = #vhlo.type_v1<!vhlo.none_v1>, rhs_contracting_dimensions = #vhlo.tensor_v1<dense<0> : tensor<1xi64>>, rhs_precision_type = #vhlo.type_v1<!vhlo.none_v1>}> : (!vhlo.tensor_v1<7x3072x!vhlo.bf16_v1>, !vhlo.tensor_v1<3072x8192x!vhlo.bf16_v1>) -> !vhlo.tensor_v1<7x8192x!vhlo.bf16_v1>
    %145 = "vhlo.reshape_v1"(%144) : (!vhlo.tensor_v1<7x8192x!vhlo.bf16_v1>) -> !vhlo.tensor_v1<1x7x8192x!vhlo.bf16_v1>
    %146 = "vhlo.convert_v1"(%145) : (!vhlo.tensor_v1<1x7x8192x!vhlo.bf16_v1>) -> !vhlo.tensor_v1<1x7x8192x!vhlo.f32_v1>
    %147 = "vhlo.multiply_v1"(%143, %146) : (!vhlo.tensor_v1<1x7x8192x!vhlo.f32_v1>, !vhlo.tensor_v1<1x7x8192x!vhlo.f32_v1>) -> !vhlo.tensor_v1<1x7x8192x!vhlo.f32_v1>
    %148 = "vhlo.convert_v1"(%147) : (!vhlo.tensor_v1<1x7x8192x!vhlo.f32_v1>) -> !vhlo.tensor_v1<1x7x8192x!vhlo.bf16_v1>
    %149 = "vhlo.reshape_v1"(%148) : (!vhlo.tensor_v1<1x7x8192x!vhlo.bf16_v1>) -> !vhlo.tensor_v1<7x8192x!vhlo.bf16_v1>
    %150 = "vhlo.dot_general_v2"(%149, %arg12) <{accumulation_type = #vhlo.type_v1<!vhlo.none_v1>, allow_imprecise_accumulation = #vhlo.type_v1<!vhlo.none_v1>, lhs_batching_dimensions = #vhlo.tensor_v1<dense<> : tensor<0xi64>>, lhs_component_count = #vhlo.type_v1<!vhlo.none_v1>, lhs_contracting_dimensions = #vhlo.tensor_v1<dense<1> : tensor<1xi64>>, lhs_precision_type = #vhlo.type_v1<!vhlo.none_v1>, num_primitive_operations = #vhlo.type_v1<!vhlo.none_v1>, precision_config = #vhlo.array_v1<[#vhlo<precision_v1 DEFAULT>, #vhlo<precision_v1 DEFAULT>]>, rhs_batching_dimensions = #vhlo.tensor_v1<dense<> : tensor<0xi64>>, rhs_component_count = #vhlo.type_v1<!vhlo.none_v1>, rhs_contracting_dimensions = #vhlo.tensor_v1<dense<0> : tensor<1xi64>>, rhs_precision_type = #vhlo.type_v1<!vhlo.none_v1>}> : (!vhlo.tensor_v1<7x8192x!vhlo.bf16_v1>, !vhlo.tensor_v1<8192x3072x!vhlo.bf16_v1>) -> !vhlo.tensor_v1<7x3072x!vhlo.bf16_v1>
    %151 = "vhlo.reshape_v1"(%150) : (!vhlo.tensor_v1<7x3072x!vhlo.bf16_v1>) -> !vhlo.tensor_v1<1x7x3072x!vhlo.bf16_v1>
    %152 = "vhlo.add_v1"(%118, %151) : (!vhlo.tensor_v1<1x7x3072x!vhlo.bf16_v1>, !vhlo.tensor_v1<1x7x3072x!vhlo.bf16_v1>) -> !vhlo.tensor_v1<1x7x3072x!vhlo.bf16_v1>
    %153 = "vhlo.convert_v1"(%152) : (!vhlo.tensor_v1<1x7x3072x!vhlo.bf16_v1>) -> !vhlo.tensor_v1<1x7x3072x!vhlo.f32_v1>
    %154 = "vhlo.power_v1"(%153, %1) : (!vhlo.tensor_v1<1x7x3072x!vhlo.f32_v1>, !vhlo.tensor_v1<1x7x3072x!vhlo.f32_v1>) -> !vhlo.tensor_v1<1x7x3072x!vhlo.f32_v1>
    %155 = "vhlo.reduce_v1"(%154, %3) <{dimensions = #vhlo.tensor_v1<dense<2> : tensor<1xi64>>}> ({
    ^bb0(%arg32: !vhlo.tensor_v1<!vhlo.f32_v1>, %arg33: !vhlo.tensor_v1<!vhlo.f32_v1>):
      %284 = "vhlo.add_v1"(%arg32, %arg33) : (!vhlo.tensor_v1<!vhlo.f32_v1>, !vhlo.tensor_v1<!vhlo.f32_v1>) -> !vhlo.tensor_v1<!vhlo.f32_v1>
      "vhlo.return_v1"(%284) : (!vhlo.tensor_v1<!vhlo.f32_v1>) -> ()
    }) : (!vhlo.tensor_v1<1x7x3072x!vhlo.f32_v1>, !vhlo.tensor_v1<!vhlo.f32_v1>) -> !vhlo.tensor_v1<1x7x!vhlo.f32_v1>
    %156 = "vhlo.multiply_v1"(%155, %0) : (!vhlo.tensor_v1<1x7x!vhlo.f32_v1>, !vhlo.tensor_v1<1x7x!vhlo.f32_v1>) -> !vhlo.tensor_v1<1x7x!vhlo.f32_v1>
    %157 = "vhlo.reshape_v1"(%156) : (!vhlo.tensor_v1<1x7x!vhlo.f32_v1>) -> !vhlo.tensor_v1<1x7x1x!vhlo.f32_v1>
    %158 = "vhlo.add_v1"(%157, %21) : (!vhlo.tensor_v1<1x7x1x!vhlo.f32_v1>, !vhlo.tensor_v1<1x7x1x!vhlo.f32_v1>) -> !vhlo.tensor_v1<1x7x1x!vhlo.f32_v1>
    %159 = "vhlo.rsqrt_v2"(%158) <{result_accuracy = #vhlo.result_accuracy_v1<atol = 0.000000e+00, rtol = 0.000000e+00, ulps = 0, mode = #vhlo<result_accuracy_mode_v1 DEFAULT>>}> : (!vhlo.tensor_v1<1x7x1x!vhlo.f32_v1>) -> !vhlo.tensor_v1<1x7x1x!vhlo.f32_v1>
    %160 = "vhlo.reshape_v1"(%159) : (!vhlo.tensor_v1<1x7x1x!vhlo.f32_v1>) -> !vhlo.tensor_v1<1x7x!vhlo.f32_v1>
    %161 = "vhlo.broadcast_in_dim_v1"(%160) <{broadcast_dimensions = #vhlo.tensor_v1<dense<[0, 1]> : tensor<2xi64>>}> : (!vhlo.tensor_v1<1x7x!vhlo.f32_v1>) -> !vhlo.tensor_v1<1x7x3072x!vhlo.f32_v1>
    %162 = "vhlo.multiply_v1"(%153, %161) : (!vhlo.tensor_v1<1x7x3072x!vhlo.f32_v1>, !vhlo.tensor_v1<1x7x3072x!vhlo.f32_v1>) -> !vhlo.tensor_v1<1x7x3072x!vhlo.f32_v1>
    %163 = "vhlo.convert_v1"(%162) : (!vhlo.tensor_v1<1x7x3072x!vhlo.f32_v1>) -> !vhlo.tensor_v1<1x7x3072x!vhlo.bf16_v1>
    %164 = "vhlo.convert_v1"(%163) : (!vhlo.tensor_v1<1x7x3072x!vhlo.bf16_v1>) -> !vhlo.tensor_v1<1x7x3072x!vhlo.f32_v1>
    %165 = "vhlo.multiply_v1"(%69, %164) : (!vhlo.tensor_v1<1x7x3072x!vhlo.f32_v1>, !vhlo.tensor_v1<1x7x3072x!vhlo.f32_v1>) -> !vhlo.tensor_v1<1x7x3072x!vhlo.f32_v1>
    %166 = "vhlo.convert_v1"(%165) : (!vhlo.tensor_v1<1x7x3072x!vhlo.f32_v1>) -> !vhlo.tensor_v1<1x7x3072x!vhlo.bf16_v1>
    %167 = "vhlo.reshape_v1"(%166) : (!vhlo.tensor_v1<1x7x3072x!vhlo.bf16_v1>) -> !vhlo.tensor_v1<7x3072x!vhlo.bf16_v1>
    %168 = "vhlo.dot_general_v2"(%167, %arg11) <{accumulation_type = #vhlo.type_v1<!vhlo.none_v1>, allow_imprecise_accumulation = #vhlo.type_v1<!vhlo.none_v1>, lhs_batching_dimensions = #vhlo.tensor_v1<dense<> : tensor<0xi64>>, lhs_component_count = #vhlo.type_v1<!vhlo.none_v1>, lhs_contracting_dimensions = #vhlo.tensor_v1<dense<1> : tensor<1xi64>>, lhs_precision_type = #vhlo.type_v1<!vhlo.none_v1>, num_primitive_operations = #vhlo.type_v1<!vhlo.none_v1>, precision_config = #vhlo.array_v1<[#vhlo<precision_v1 DEFAULT>, #vhlo<precision_v1 DEFAULT>]>, rhs_batching_dimensions = #vhlo.tensor_v1<dense<> : tensor<0xi64>>, rhs_component_count = #vhlo.type_v1<!vhlo.none_v1>, rhs_contracting_dimensions = #vhlo.tensor_v1<dense<0> : tensor<1xi64>>, rhs_precision_type = #vhlo.type_v1<!vhlo.none_v1>}> : (!vhlo.tensor_v1<7x3072x!vhlo.bf16_v1>, !vhlo.tensor_v1<3072x1024x!vhlo.bf16_v1>) -> !vhlo.tensor_v1<7x1024x!vhlo.bf16_v1>
    %169 = "vhlo.reshape_v1"(%168) : (!vhlo.tensor_v1<7x1024x!vhlo.bf16_v1>) -> !vhlo.tensor_v1<1x7x8x128x!vhlo.bf16_v1>
    %170 = "vhlo.transpose_v1"(%169) <{permutation = #vhlo.tensor_v1<dense<[0, 2, 1, 3]> : tensor<4xi64>>}> {result_layout = #vhlo.tensor_v1<dense<[3, 1, 2, 0]> : tensor<4xindex>>, xla_shape = #vhlo.string_v1<"bf16[1,8,7,128]{3,1,2,0}">} : (!vhlo.tensor_v1<1x7x8x128x!vhlo.bf16_v1>) -> !vhlo.tensor_v1<1x8x7x128x!vhlo.bf16_v1>
    %171 = "vhlo.convert_v1"(%170) {result_layout = #vhlo.tensor_v1<dense<[3, 1, 2, 0]> : tensor<4xindex>>, xla_shape = #vhlo.string_v1<"f32[1,8,7,128]{3,1,2,0}">} : (!vhlo.tensor_v1<1x8x7x128x!vhlo.bf16_v1>) -> !vhlo.tensor_v1<1x8x7x128x!vhlo.f32_v1>
    %172 = "vhlo.multiply_v1"(%171, %46) : (!vhlo.tensor_v1<1x8x7x128x!vhlo.f32_v1>, !vhlo.tensor_v1<1x8x7x128x!vhlo.f32_v1>) -> !vhlo.tensor_v1<1x8x7x128x!vhlo.f32_v1>
    %173 = "vhlo.convert_v1"(%172) : (!vhlo.tensor_v1<1x8x7x128x!vhlo.f32_v1>) -> !vhlo.tensor_v1<1x8x7x128x!vhlo.bf16_v1>
    %174 = "vhlo.slice_v1"(%170) <{limit_indices = #vhlo.tensor_v1<dense<[1, 8, 7, 128]> : tensor<4xi64>>, start_indices = #vhlo.tensor_v1<dense<[0, 0, 0, 64]> : tensor<4xi64>>, strides = #vhlo.tensor_v1<dense<1> : tensor<4xi64>>}> : (!vhlo.tensor_v1<1x8x7x128x!vhlo.bf16_v1>) -> !vhlo.tensor_v1<1x8x7x64x!vhlo.bf16_v1>
    %175 = "vhlo.negate_v1"(%174) : (!vhlo.tensor_v1<1x8x7x64x!vhlo.bf16_v1>) -> !vhlo.tensor_v1<1x8x7x64x!vhlo.bf16_v1>
    %176 = "vhlo.slice_v1"(%170) <{limit_indices = #vhlo.tensor_v1<dense<[1, 8, 7, 64]> : tensor<4xi64>>, start_indices = #vhlo.tensor_v1<dense<0> : tensor<4xi64>>, strides = #vhlo.tensor_v1<dense<1> : tensor<4xi64>>}> : (!vhlo.tensor_v1<1x8x7x128x!vhlo.bf16_v1>) -> !vhlo.tensor_v1<1x8x7x64x!vhlo.bf16_v1>
    %177 = "vhlo.concatenate_v1"(%175, %176) <{dimension = #vhlo.integer_v1<3 : i64>}> : (!vhlo.tensor_v1<1x8x7x64x!vhlo.bf16_v1>, !vhlo.tensor_v1<1x8x7x64x!vhlo.bf16_v1>) -> !vhlo.tensor_v1<1x8x7x128x!vhlo.bf16_v1>
    %178 = "vhlo.convert_v1"(%177) : (!vhlo.tensor_v1<1x8x7x128x!vhlo.bf16_v1>) -> !vhlo.tensor_v1<1x8x7x128x!vhlo.f32_v1>
    %179 = "vhlo.multiply_v1"(%178, %59) : (!vhlo.tensor_v1<1x8x7x128x!vhlo.f32_v1>, !vhlo.tensor_v1<1x8x7x128x!vhlo.f32_v1>) -> !vhlo.tensor_v1<1x8x7x128x!vhlo.f32_v1>
    %180 = "vhlo.convert_v1"(%179) : (!vhlo.tensor_v1<1x8x7x128x!vhlo.f32_v1>) -> !vhlo.tensor_v1<1x8x7x128x!vhlo.bf16_v1>
    %181 = "vhlo.add_v1"(%173, %180) : (!vhlo.tensor_v1<1x8x7x128x!vhlo.bf16_v1>, !vhlo.tensor_v1<1x8x7x128x!vhlo.bf16_v1>) -> !vhlo.tensor_v1<1x8x7x128x!vhlo.bf16_v1>
    %182 = "vhlo.scatter_v2"(%arg21, %9, %181) <{index_vector_dim = #vhlo.integer_v1<1 : i64>, indices_are_sorted = #vhlo.bool_v1<false>, input_batching_dims = #vhlo.tensor_v1<dense<> : tensor<0xi64>>, inserted_window_dims = #vhlo.tensor_v1<dense<2> : tensor<1xi64>>, scatter_dims_to_operand_dims = #vhlo.tensor_v1<dense<2> : tensor<1xi64>>, scatter_indices_batching_dims = #vhlo.tensor_v1<dense<> : tensor<0xi64>>, unique_indices = #vhlo.bool_v1<false>, update_window_dims = #vhlo.tensor_v1<dense<[0, 1, 3]> : tensor<3xi64>>}> ({
    ^bb0(%arg32: !vhlo.tensor_v1<!vhlo.bf16_v1>, %arg33: !vhlo.tensor_v1<!vhlo.bf16_v1>):
      "vhlo.return_v1"(%arg33) : (!vhlo.tensor_v1<!vhlo.bf16_v1>) -> ()
    }) : (!vhlo.tensor_v1<1x8x128x128x!vhlo.bf16_v1>, !vhlo.tensor_v1<7x1x!vhlo.i64_v1>, !vhlo.tensor_v1<1x8x7x128x!vhlo.bf16_v1>) -> !vhlo.tensor_v1<1x8x128x128x!vhlo.bf16_v1>
    %183 = "vhlo.dot_general_v2"(%167, %arg22) <{accumulation_type = #vhlo.type_v1<!vhlo.none_v1>, allow_imprecise_accumulation = #vhlo.type_v1<!vhlo.none_v1>, lhs_batching_dimensions = #vhlo.tensor_v1<dense<> : tensor<0xi64>>, lhs_component_count = #vhlo.type_v1<!vhlo.none_v1>, lhs_contracting_dimensions = #vhlo.tensor_v1<dense<1> : tensor<1xi64>>, lhs_precision_type = #vhlo.type_v1<!vhlo.none_v1>, num_primitive_operations = #vhlo.type_v1<!vhlo.none_v1>, precision_config = #vhlo.array_v1<[#vhlo<precision_v1 DEFAULT>, #vhlo<precision_v1 DEFAULT>]>, rhs_batching_dimensions = #vhlo.tensor_v1<dense<> : tensor<0xi64>>, rhs_component_count = #vhlo.type_v1<!vhlo.none_v1>, rhs_contracting_dimensions = #vhlo.tensor_v1<dense<0> : tensor<1xi64>>, rhs_precision_type = #vhlo.type_v1<!vhlo.none_v1>}> : (!vhlo.tensor_v1<7x3072x!vhlo.bf16_v1>, !vhlo.tensor_v1<3072x1024x!vhlo.bf16_v1>) -> !vhlo.tensor_v1<7x1024x!vhlo.bf16_v1>
    %184 = "vhlo.reshape_v1"(%183) : (!vhlo.tensor_v1<7x1024x!vhlo.bf16_v1>) -> !vhlo.tensor_v1<1x7x8x128x!vhlo.bf16_v1>
    %185 = "vhlo.transpose_v1"(%184) <{permutation = #vhlo.tensor_v1<dense<[0, 2, 1, 3]> : tensor<4xi64>>}> {result_layout = #vhlo.tensor_v1<dense<[3, 1, 2, 0]> : tensor<4xindex>>, xla_shape = #vhlo.string_v1<"bf16[1,8,7,128]{3,1,2,0}">} : (!vhlo.tensor_v1<1x7x8x128x!vhlo.bf16_v1>) -> !vhlo.tensor_v1<1x8x7x128x!vhlo.bf16_v1>
    %186 = "vhlo.scatter_v2"(%arg23, %9, %185) <{index_vector_dim = #vhlo.integer_v1<1 : i64>, indices_are_sorted = #vhlo.bool_v1<false>, input_batching_dims = #vhlo.tensor_v1<dense<> : tensor<0xi64>>, inserted_window_dims = #vhlo.tensor_v1<dense<2> : tensor<1xi64>>, scatter_dims_to_operand_dims = #vhlo.tensor_v1<dense<2> : tensor<1xi64>>, scatter_indices_batching_dims = #vhlo.tensor_v1<dense<> : tensor<0xi64>>, unique_indices = #vhlo.bool_v1<false>, update_window_dims = #vhlo.tensor_v1<dense<[0, 1, 3]> : tensor<3xi64>>}> ({
    ^bb0(%arg32: !vhlo.tensor_v1<!vhlo.bf16_v1>, %arg33: !vhlo.tensor_v1<!vhlo.bf16_v1>):
      "vhlo.return_v1"(%arg33) : (!vhlo.tensor_v1<!vhlo.bf16_v1>) -> ()
    }) : (!vhlo.tensor_v1<1x8x128x128x!vhlo.bf16_v1>, !vhlo.tensor_v1<7x1x!vhlo.i64_v1>, !vhlo.tensor_v1<1x8x7x128x!vhlo.bf16_v1>) -> !vhlo.tensor_v1<1x8x128x128x!vhlo.bf16_v1>
    %187 = "vhlo.convert_v1"(%arg31) : (!vhlo.tensor_v1<3072x!vhlo.bf16_v1>) -> !vhlo.tensor_v1<3072x!vhlo.f32_v1>
    %188 = "vhlo.broadcast_in_dim_v1"(%187) <{broadcast_dimensions = #vhlo.tensor_v1<dense<2> : tensor<1xi64>>}> : (!vhlo.tensor_v1<3072x!vhlo.f32_v1>) -> !vhlo.tensor_v1<1x7x3072x!vhlo.f32_v1>
    %189 = "vhlo.dot_general_v2"(%167, %arg28) <{accumulation_type = #vhlo.type_v1<!vhlo.none_v1>, allow_imprecise_accumulation = #vhlo.type_v1<!vhlo.none_v1>, lhs_batching_dimensions = #vhlo.tensor_v1<dense<> : tensor<0xi64>>, lhs_component_count = #vhlo.type_v1<!vhlo.none_v1>, lhs_contracting_dimensions = #vhlo.tensor_v1<dense<1> : tensor<1xi64>>, lhs_precision_type = #vhlo.type_v1<!vhlo.none_v1>, num_primitive_operations = #vhlo.type_v1<!vhlo.none_v1>, precision_config = #vhlo.array_v1<[#vhlo<precision_v1 DEFAULT>, #vhlo<precision_v1 DEFAULT>]>, rhs_batching_dimensions = #vhlo.tensor_v1<dense<> : tensor<0xi64>>, rhs_component_count = #vhlo.type_v1<!vhlo.none_v1>, rhs_contracting_dimensions = #vhlo.tensor_v1<dense<0> : tensor<1xi64>>, rhs_precision_type = #vhlo.type_v1<!vhlo.none_v1>}> : (!vhlo.tensor_v1<7x3072x!vhlo.bf16_v1>, !vhlo.tensor_v1<3072x3072x!vhlo.bf16_v1>) -> !vhlo.tensor_v1<7x3072x!vhlo.bf16_v1>
    %190 = "vhlo.reshape_v1"(%189) : (!vhlo.tensor_v1<7x3072x!vhlo.bf16_v1>) -> !vhlo.tensor_v1<1x7x24x128x!vhlo.bf16_v1>
    %191 = "vhlo.transpose_v1"(%190) <{permutation = #vhlo.tensor_v1<dense<[0, 2, 1, 3]> : tensor<4xi64>>}> {result_layout = #vhlo.tensor_v1<dense<[3, 1, 2, 0]> : tensor<4xindex>>, xla_shape = #vhlo.string_v1<"bf16[1,24,7,128]{3,1,2,0}">} : (!vhlo.tensor_v1<1x7x24x128x!vhlo.bf16_v1>) -> !vhlo.tensor_v1<1x24x7x128x!vhlo.bf16_v1>
    %192 = "vhlo.convert_v1"(%191) {result_layout = #vhlo.tensor_v1<dense<[3, 1, 2, 0]> : tensor<4xindex>>, xla_shape = #vhlo.string_v1<"f32[1,24,7,128]{3,1,2,0}">} : (!vhlo.tensor_v1<1x24x7x128x!vhlo.bf16_v1>) -> !vhlo.tensor_v1<1x24x7x128x!vhlo.f32_v1>
    %193 = "vhlo.multiply_v1"(%192, %74) : (!vhlo.tensor_v1<1x24x7x128x!vhlo.f32_v1>, !vhlo.tensor_v1<1x24x7x128x!vhlo.f32_v1>) -> !vhlo.tensor_v1<1x24x7x128x!vhlo.f32_v1>
    %194 = "vhlo.convert_v1"(%193) : (!vhlo.tensor_v1<1x24x7x128x!vhlo.f32_v1>) -> !vhlo.tensor_v1<1x24x7x128x!vhlo.bf16_v1>
    %195 = "vhlo.slice_v1"(%191) <{limit_indices = #vhlo.tensor_v1<dense<[1, 24, 7, 128]> : tensor<4xi64>>, start_indices = #vhlo.tensor_v1<dense<[0, 0, 0, 64]> : tensor<4xi64>>, strides = #vhlo.tensor_v1<dense<1> : tensor<4xi64>>}> : (!vhlo.tensor_v1<1x24x7x128x!vhlo.bf16_v1>) -> !vhlo.tensor_v1<1x24x7x64x!vhlo.bf16_v1>
    %196 = "vhlo.negate_v1"(%195) : (!vhlo.tensor_v1<1x24x7x64x!vhlo.bf16_v1>) -> !vhlo.tensor_v1<1x24x7x64x!vhlo.bf16_v1>
    %197 = "vhlo.slice_v1"(%191) <{limit_indices = #vhlo.tensor_v1<dense<[1, 24, 7, 64]> : tensor<4xi64>>, start_indices = #vhlo.tensor_v1<dense<0> : tensor<4xi64>>, strides = #vhlo.tensor_v1<dense<1> : tensor<4xi64>>}> : (!vhlo.tensor_v1<1x24x7x128x!vhlo.bf16_v1>) -> !vhlo.tensor_v1<1x24x7x64x!vhlo.bf16_v1>
    %198 = "vhlo.concatenate_v1"(%196, %197) <{dimension = #vhlo.integer_v1<3 : i64>}> : (!vhlo.tensor_v1<1x24x7x64x!vhlo.bf16_v1>, !vhlo.tensor_v1<1x24x7x64x!vhlo.bf16_v1>) -> !vhlo.tensor_v1<1x24x7x128x!vhlo.bf16_v1>
    %199 = "vhlo.convert_v1"(%198) : (!vhlo.tensor_v1<1x24x7x128x!vhlo.bf16_v1>) -> !vhlo.tensor_v1<1x24x7x128x!vhlo.f32_v1>
    %200 = "vhlo.multiply_v1"(%199, %82) : (!vhlo.tensor_v1<1x24x7x128x!vhlo.f32_v1>, !vhlo.tensor_v1<1x24x7x128x!vhlo.f32_v1>) -> !vhlo.tensor_v1<1x24x7x128x!vhlo.f32_v1>
    %201 = "vhlo.convert_v1"(%200) : (!vhlo.tensor_v1<1x24x7x128x!vhlo.f32_v1>) -> !vhlo.tensor_v1<1x24x7x128x!vhlo.bf16_v1>
    %202 = "vhlo.add_v1"(%194, %201) : (!vhlo.tensor_v1<1x24x7x128x!vhlo.bf16_v1>, !vhlo.tensor_v1<1x24x7x128x!vhlo.bf16_v1>) -> !vhlo.tensor_v1<1x24x7x128x!vhlo.bf16_v1>
    %203 = "vhlo.reshape_v1"(%202) : (!vhlo.tensor_v1<1x24x7x128x!vhlo.bf16_v1>) -> !vhlo.tensor_v1<24x7x128x!vhlo.bf16_v1>
    %204 = "vhlo.broadcast_in_dim_v1"(%182) <{broadcast_dimensions = #vhlo.tensor_v1<dense<[0, 1, 3, 4]> : tensor<4xi64>>}> : (!vhlo.tensor_v1<1x8x128x128x!vhlo.bf16_v1>) -> !vhlo.tensor_v1<1x8x3x128x128x!vhlo.bf16_v1>
    %205 = "vhlo.reshape_v1"(%204) : (!vhlo.tensor_v1<1x8x3x128x128x!vhlo.bf16_v1>) -> !vhlo.tensor_v1<1x24x128x128x!vhlo.bf16_v1>
    %206 = "vhlo.transpose_v1"(%205) <{permutation = #vhlo.tensor_v1<dense<[0, 1, 3, 2]> : tensor<4xi64>>}> {result_layout = #vhlo.tensor_v1<dense<[2, 3, 1, 0]> : tensor<4xindex>>, xla_shape = #vhlo.string_v1<"bf16[1,24,128,128]{2,3,1,0}">} : (!vhlo.tensor_v1<1x24x128x128x!vhlo.bf16_v1>) -> !vhlo.tensor_v1<1x24x128x128x!vhlo.bf16_v1>
    %207 = "vhlo.reshape_v1"(%206) : (!vhlo.tensor_v1<1x24x128x128x!vhlo.bf16_v1>) -> !vhlo.tensor_v1<24x128x128x!vhlo.bf16_v1>
    %208 = "vhlo.dot_general_v2"(%203, %207) <{accumulation_type = #vhlo.type_v1<!vhlo.none_v1>, allow_imprecise_accumulation = #vhlo.type_v1<!vhlo.none_v1>, lhs_batching_dimensions = #vhlo.tensor_v1<dense<0> : tensor<1xi64>>, lhs_component_count = #vhlo.type_v1<!vhlo.none_v1>, lhs_contracting_dimensions = #vhlo.tensor_v1<dense<2> : tensor<1xi64>>, lhs_precision_type = #vhlo.type_v1<!vhlo.none_v1>, num_primitive_operations = #vhlo.type_v1<!vhlo.none_v1>, precision_config = #vhlo.array_v1<[#vhlo<precision_v1 DEFAULT>, #vhlo<precision_v1 DEFAULT>]>, rhs_batching_dimensions = #vhlo.tensor_v1<dense<0> : tensor<1xi64>>, rhs_component_count = #vhlo.type_v1<!vhlo.none_v1>, rhs_contracting_dimensions = #vhlo.tensor_v1<dense<1> : tensor<1xi64>>, rhs_precision_type = #vhlo.type_v1<!vhlo.none_v1>}> : (!vhlo.tensor_v1<24x7x128x!vhlo.bf16_v1>, !vhlo.tensor_v1<24x128x128x!vhlo.bf16_v1>) -> !vhlo.tensor_v1<24x7x128x!vhlo.bf16_v1>
    %209 = "vhlo.reshape_v1"(%208) : (!vhlo.tensor_v1<24x7x128x!vhlo.bf16_v1>) -> !vhlo.tensor_v1<1x24x7x128x!vhlo.bf16_v1>
    %210 = "vhlo.convert_v1"(%209) : (!vhlo.tensor_v1<1x24x7x128x!vhlo.bf16_v1>) -> !vhlo.tensor_v1<1x24x7x128x!vhlo.f32_v1>
    %211 = "vhlo.multiply_v1"(%210, %94) : (!vhlo.tensor_v1<1x24x7x128x!vhlo.f32_v1>, !vhlo.tensor_v1<1x24x7x128x!vhlo.f32_v1>) -> !vhlo.tensor_v1<1x24x7x128x!vhlo.f32_v1>
    %212 = "vhlo.convert_v1"(%211) : (!vhlo.tensor_v1<1x24x7x128x!vhlo.f32_v1>) -> !vhlo.tensor_v1<1x24x7x128x!vhlo.bf16_v1>
    %213 = "vhlo.add_v1"(%212, %98) : (!vhlo.tensor_v1<1x24x7x128x!vhlo.bf16_v1>, !vhlo.tensor_v1<1x24x7x128x!vhlo.bf16_v1>) -> !vhlo.tensor_v1<1x24x7x128x!vhlo.bf16_v1>
    %214 = "vhlo.convert_v1"(%213) : (!vhlo.tensor_v1<1x24x7x128x!vhlo.bf16_v1>) -> !vhlo.tensor_v1<1x24x7x128x!vhlo.f32_v1>
    %215 = "vhlo.reduce_v1"(%214, %2) <{dimensions = #vhlo.tensor_v1<dense<3> : tensor<1xi64>>}> ({
    ^bb0(%arg32: !vhlo.tensor_v1<!vhlo.f32_v1>, %arg33: !vhlo.tensor_v1<!vhlo.f32_v1>):
      %284 = "vhlo.maximum_v1"(%arg32, %arg33) : (!vhlo.tensor_v1<!vhlo.f32_v1>, !vhlo.tensor_v1<!vhlo.f32_v1>) -> !vhlo.tensor_v1<!vhlo.f32_v1>
      "vhlo.return_v1"(%284) : (!vhlo.tensor_v1<!vhlo.f32_v1>) -> ()
    }) : (!vhlo.tensor_v1<1x24x7x128x!vhlo.f32_v1>, !vhlo.tensor_v1<!vhlo.f32_v1>) -> !vhlo.tensor_v1<1x24x7x!vhlo.f32_v1>
    %216 = "vhlo.broadcast_in_dim_v1"(%215) <{broadcast_dimensions = #vhlo.tensor_v1<dense<[0, 1, 2]> : tensor<3xi64>>}> : (!vhlo.tensor_v1<1x24x7x!vhlo.f32_v1>) -> !vhlo.tensor_v1<1x24x7x128x!vhlo.f32_v1>
    %217 = "vhlo.subtract_v1"(%214, %216) : (!vhlo.tensor_v1<1x24x7x128x!vhlo.f32_v1>, !vhlo.tensor_v1<1x24x7x128x!vhlo.f32_v1>) -> !vhlo.tensor_v1<1x24x7x128x!vhlo.f32_v1>
    %218 = "vhlo.exponential_v2"(%217) <{result_accuracy = #vhlo.result_accuracy_v1<atol = 0.000000e+00, rtol = 0.000000e+00, ulps = 0, mode = #vhlo<result_accuracy_mode_v1 DEFAULT>>}> : (!vhlo.tensor_v1<1x24x7x128x!vhlo.f32_v1>) -> !vhlo.tensor_v1<1x24x7x128x!vhlo.f32_v1>
    %219 = "vhlo.reduce_v1"(%218, %3) <{dimensions = #vhlo.tensor_v1<dense<3> : tensor<1xi64>>}> ({
    ^bb0(%arg32: !vhlo.tensor_v1<!vhlo.f32_v1>, %arg33: !vhlo.tensor_v1<!vhlo.f32_v1>):
      %284 = "vhlo.add_v1"(%arg32, %arg33) : (!vhlo.tensor_v1<!vhlo.f32_v1>, !vhlo.tensor_v1<!vhlo.f32_v1>) -> !vhlo.tensor_v1<!vhlo.f32_v1>
      "vhlo.return_v1"(%284) : (!vhlo.tensor_v1<!vhlo.f32_v1>) -> ()
    }) : (!vhlo.tensor_v1<1x24x7x128x!vhlo.f32_v1>, !vhlo.tensor_v1<!vhlo.f32_v1>) -> !vhlo.tensor_v1<1x24x7x!vhlo.f32_v1>
    %220 = "vhlo.broadcast_in_dim_v1"(%219) <{broadcast_dimensions = #vhlo.tensor_v1<dense<[0, 1, 2]> : tensor<3xi64>>}> : (!vhlo.tensor_v1<1x24x7x!vhlo.f32_v1>) -> !vhlo.tensor_v1<1x24x7x128x!vhlo.f32_v1>
    %221 = "vhlo.divide_v1"(%218, %220) : (!vhlo.tensor_v1<1x24x7x128x!vhlo.f32_v1>, !vhlo.tensor_v1<1x24x7x128x!vhlo.f32_v1>) -> !vhlo.tensor_v1<1x24x7x128x!vhlo.f32_v1>
    %222 = "vhlo.convert_v1"(%221) : (!vhlo.tensor_v1<1x24x7x128x!vhlo.f32_v1>) -> !vhlo.tensor_v1<1x24x7x128x!vhlo.bf16_v1>
    %223 = "vhlo.reshape_v1"(%222) : (!vhlo.tensor_v1<1x24x7x128x!vhlo.bf16_v1>) -> !vhlo.tensor_v1<24x7x128x!vhlo.bf16_v1>
    %224 = "vhlo.broadcast_in_dim_v1"(%186) <{broadcast_dimensions = #vhlo.tensor_v1<dense<[0, 1, 3, 4]> : tensor<4xi64>>}> : (!vhlo.tensor_v1<1x8x128x128x!vhlo.bf16_v1>) -> !vhlo.tensor_v1<1x8x3x128x128x!vhlo.bf16_v1>
    %225 = "vhlo.reshape_v1"(%224) : (!vhlo.tensor_v1<1x8x3x128x128x!vhlo.bf16_v1>) -> !vhlo.tensor_v1<24x128x128x!vhlo.bf16_v1>
    %226 = "vhlo.dot_general_v2"(%223, %225) <{accumulation_type = #vhlo.type_v1<!vhlo.none_v1>, allow_imprecise_accumulation = #vhlo.type_v1<!vhlo.none_v1>, lhs_batching_dimensions = #vhlo.tensor_v1<dense<0> : tensor<1xi64>>, lhs_component_count = #vhlo.type_v1<!vhlo.none_v1>, lhs_contracting_dimensions = #vhlo.tensor_v1<dense<2> : tensor<1xi64>>, lhs_precision_type = #vhlo.type_v1<!vhlo.none_v1>, num_primitive_operations = #vhlo.type_v1<!vhlo.none_v1>, precision_config = #vhlo.array_v1<[#vhlo<precision_v1 DEFAULT>, #vhlo<precision_v1 DEFAULT>]>, rhs_batching_dimensions = #vhlo.tensor_v1<dense<0> : tensor<1xi64>>, rhs_component_count = #vhlo.type_v1<!vhlo.none_v1>, rhs_contracting_dimensions = #vhlo.tensor_v1<dense<1> : tensor<1xi64>>, rhs_precision_type = #vhlo.type_v1<!vhlo.none_v1>}> : (!vhlo.tensor_v1<24x7x128x!vhlo.bf16_v1>, !vhlo.tensor_v1<24x128x128x!vhlo.bf16_v1>) -> !vhlo.tensor_v1<24x7x128x!vhlo.bf16_v1>
    %227 = "vhlo.reshape_v1"(%226) : (!vhlo.tensor_v1<24x7x128x!vhlo.bf16_v1>) -> !vhlo.tensor_v1<1x24x7x128x!vhlo.bf16_v1>
    %228 = "vhlo.transpose_v1"(%227) <{permutation = #vhlo.tensor_v1<dense<[0, 2, 1, 3]> : tensor<4xi64>>}> {result_layout = #vhlo.tensor_v1<dense<[3, 1, 2, 0]> : tensor<4xindex>>, xla_shape = #vhlo.string_v1<"bf16[1,7,24,128]{3,1,2,0}">} : (!vhlo.tensor_v1<1x24x7x128x!vhlo.bf16_v1>) -> !vhlo.tensor_v1<1x7x24x128x!vhlo.bf16_v1>
    %229 = "vhlo.reshape_v1"(%228) : (!vhlo.tensor_v1<1x7x24x128x!vhlo.bf16_v1>) -> !vhlo.tensor_v1<7x3072x!vhlo.bf16_v1>
    %230 = "vhlo.dot_general_v2"(%229, %arg27) <{accumulation_type = #vhlo.type_v1<!vhlo.none_v1>, allow_imprecise_accumulation = #vhlo.type_v1<!vhlo.none_v1>, lhs_batching_dimensions = #vhlo.tensor_v1<dense<> : tensor<0xi64>>, lhs_component_count = #vhlo.type_v1<!vhlo.none_v1>, lhs_contracting_dimensions = #vhlo.tensor_v1<dense<1> : tensor<1xi64>>, lhs_precision_type = #vhlo.type_v1<!vhlo.none_v1>, num_primitive_operations = #vhlo.type_v1<!vhlo.none_v1>, precision_config = #vhlo.array_v1<[#vhlo<precision_v1 DEFAULT>, #vhlo<precision_v1 DEFAULT>]>, rhs_batching_dimensions = #vhlo.tensor_v1<dense<> : tensor<0xi64>>, rhs_component_count = #vhlo.type_v1<!vhlo.none_v1>, rhs_contracting_dimensions = #vhlo.tensor_v1<dense<0> : tensor<1xi64>>, rhs_precision_type = #vhlo.type_v1<!vhlo.none_v1>}> : (!vhlo.tensor_v1<7x3072x!vhlo.bf16_v1>, !vhlo.tensor_v1<3072x3072x!vhlo.bf16_v1>) -> !vhlo.tensor_v1<7x3072x!vhlo.bf16_v1>
    %231 = "vhlo.reshape_v1"(%230) : (!vhlo.tensor_v1<7x3072x!vhlo.bf16_v1>) -> !vhlo.tensor_v1<1x7x3072x!vhlo.bf16_v1>
    %232 = "vhlo.add_v1"(%152, %231) : (!vhlo.tensor_v1<1x7x3072x!vhlo.bf16_v1>, !vhlo.tensor_v1<1x7x3072x!vhlo.bf16_v1>) -> !vhlo.tensor_v1<1x7x3072x!vhlo.bf16_v1>
    %233 = "vhlo.convert_v1"(%arg29) : (!vhlo.tensor_v1<3072x!vhlo.bf16_v1>) -> !vhlo.tensor_v1<3072x!vhlo.f32_v1>
    %234 = "vhlo.broadcast_in_dim_v1"(%233) <{broadcast_dimensions = #vhlo.tensor_v1<dense<2> : tensor<1xi64>>}> : (!vhlo.tensor_v1<3072x!vhlo.f32_v1>) -> !vhlo.tensor_v1<1x7x3072x!vhlo.f32_v1>
    %235 = "vhlo.convert_v1"(%232) : (!vhlo.tensor_v1<1x7x3072x!vhlo.bf16_v1>) -> !vhlo.tensor_v1<1x7x3072x!vhlo.f32_v1>
    %236 = "vhlo.power_v1"(%235, %1) : (!vhlo.tensor_v1<1x7x3072x!vhlo.f32_v1>, !vhlo.tensor_v1<1x7x3072x!vhlo.f32_v1>) -> !vhlo.tensor_v1<1x7x3072x!vhlo.f32_v1>
    %237 = "vhlo.reduce_v1"(%236, %3) <{dimensions = #vhlo.tensor_v1<dense<2> : tensor<1xi64>>}> ({
    ^bb0(%arg32: !vhlo.tensor_v1<!vhlo.f32_v1>, %arg33: !vhlo.tensor_v1<!vhlo.f32_v1>):
      %284 = "vhlo.add_v1"(%arg32, %arg33) : (!vhlo.tensor_v1<!vhlo.f32_v1>, !vhlo.tensor_v1<!vhlo.f32_v1>) -> !vhlo.tensor_v1<!vhlo.f32_v1>
      "vhlo.return_v1"(%284) : (!vhlo.tensor_v1<!vhlo.f32_v1>) -> ()
    }) : (!vhlo.tensor_v1<1x7x3072x!vhlo.f32_v1>, !vhlo.tensor_v1<!vhlo.f32_v1>) -> !vhlo.tensor_v1<1x7x!vhlo.f32_v1>
    %238 = "vhlo.multiply_v1"(%237, %0) : (!vhlo.tensor_v1<1x7x!vhlo.f32_v1>, !vhlo.tensor_v1<1x7x!vhlo.f32_v1>) -> !vhlo.tensor_v1<1x7x!vhlo.f32_v1>
    %239 = "vhlo.reshape_v1"(%238) : (!vhlo.tensor_v1<1x7x!vhlo.f32_v1>) -> !vhlo.tensor_v1<1x7x1x!vhlo.f32_v1>
    %240 = "vhlo.add_v1"(%239, %21) : (!vhlo.tensor_v1<1x7x1x!vhlo.f32_v1>, !vhlo.tensor_v1<1x7x1x!vhlo.f32_v1>) -> !vhlo.tensor_v1<1x7x1x!vhlo.f32_v1>
    %241 = "vhlo.rsqrt_v2"(%240) <{result_accuracy = #vhlo.result_accuracy_v1<atol = 0.000000e+00, rtol = 0.000000e+00, ulps = 0, mode = #vhlo<result_accuracy_mode_v1 DEFAULT>>}> : (!vhlo.tensor_v1<1x7x1x!vhlo.f32_v1>) -> !vhlo.tensor_v1<1x7x1x!vhlo.f32_v1>
    %242 = "vhlo.reshape_v1"(%241) : (!vhlo.tensor_v1<1x7x1x!vhlo.f32_v1>) -> !vhlo.tensor_v1<1x7x!vhlo.f32_v1>
    %243 = "vhlo.broadcast_in_dim_v1"(%242) <{broadcast_dimensions = #vhlo.tensor_v1<dense<[0, 1]> : tensor<2xi64>>}> : (!vhlo.tensor_v1<1x7x!vhlo.f32_v1>) -> !vhlo.tensor_v1<1x7x3072x!vhlo.f32_v1>
    %244 = "vhlo.multiply_v1"(%235, %243) : (!vhlo.tensor_v1<1x7x3072x!vhlo.f32_v1>, !vhlo.tensor_v1<1x7x3072x!vhlo.f32_v1>) -> !vhlo.tensor_v1<1x7x3072x!vhlo.f32_v1>
    %245 = "vhlo.convert_v1"(%244) : (!vhlo.tensor_v1<1x7x3072x!vhlo.f32_v1>) -> !vhlo.tensor_v1<1x7x3072x!vhlo.bf16_v1>
    %246 = "vhlo.convert_v1"(%245) : (!vhlo.tensor_v1<1x7x3072x!vhlo.bf16_v1>) -> !vhlo.tensor_v1<1x7x3072x!vhlo.f32_v1>
    %247 = "vhlo.multiply_v1"(%234, %246) : (!vhlo.tensor_v1<1x7x3072x!vhlo.f32_v1>, !vhlo.tensor_v1<1x7x3072x!vhlo.f32_v1>) -> !vhlo.tensor_v1<1x7x3072x!vhlo.f32_v1>
    %248 = "vhlo.convert_v1"(%247) : (!vhlo.tensor_v1<1x7x3072x!vhlo.f32_v1>) -> !vhlo.tensor_v1<1x7x3072x!vhlo.bf16_v1>
    %249 = "vhlo.reshape_v1"(%248) : (!vhlo.tensor_v1<1x7x3072x!vhlo.bf16_v1>) -> !vhlo.tensor_v1<7x3072x!vhlo.bf16_v1>
    %250 = "vhlo.dot_general_v2"(%249, %arg30) <{accumulation_type = #vhlo.type_v1<!vhlo.none_v1>, allow_imprecise_accumulation = #vhlo.type_v1<!vhlo.none_v1>, lhs_batching_dimensions = #vhlo.tensor_v1<dense<> : tensor<0xi64>>, lhs_component_count = #vhlo.type_v1<!vhlo.none_v1>, lhs_contracting_dimensions = #vhlo.tensor_v1<dense<1> : tensor<1xi64>>, lhs_precision_type = #vhlo.type_v1<!vhlo.none_v1>, num_primitive_operations = #vhlo.type_v1<!vhlo.none_v1>, precision_config = #vhlo.array_v1<[#vhlo<precision_v1 DEFAULT>, #vhlo<precision_v1 DEFAULT>]>, rhs_batching_dimensions = #vhlo.tensor_v1<dense<> : tensor<0xi64>>, rhs_component_count = #vhlo.type_v1<!vhlo.none_v1>, rhs_contracting_dimensions = #vhlo.tensor_v1<dense<0> : tensor<1xi64>>, rhs_precision_type = #vhlo.type_v1<!vhlo.none_v1>}> : (!vhlo.tensor_v1<7x3072x!vhlo.bf16_v1>, !vhlo.tensor_v1<3072x8192x!vhlo.bf16_v1>) -> !vhlo.tensor_v1<7x8192x!vhlo.bf16_v1>
    %251 = "vhlo.reshape_v1"(%250) : (!vhlo.tensor_v1<7x8192x!vhlo.bf16_v1>) -> !vhlo.tensor_v1<1x7x8192x!vhlo.bf16_v1>
    %252 = "vhlo.convert_v1"(%251) : (!vhlo.tensor_v1<1x7x8192x!vhlo.bf16_v1>) -> !vhlo.tensor_v1<1x7x8192x!vhlo.f32_v1>
    %253 = "vhlo.logistic_v2"(%251) <{result_accuracy = #vhlo.result_accuracy_v1<atol = 0.000000e+00, rtol = 0.000000e+00, ulps = 0, mode = #vhlo<result_accuracy_mode_v1 DEFAULT>>}> : (!vhlo.tensor_v1<1x7x8192x!vhlo.bf16_v1>) -> !vhlo.tensor_v1<1x7x8192x!vhlo.bf16_v1>
    %254 = "vhlo.convert_v1"(%253) : (!vhlo.tensor_v1<1x7x8192x!vhlo.bf16_v1>) -> !vhlo.tensor_v1<1x7x8192x!vhlo.f32_v1>
    %255 = "vhlo.multiply_v1"(%252, %254) : (!vhlo.tensor_v1<1x7x8192x!vhlo.f32_v1>, !vhlo.tensor_v1<1x7x8192x!vhlo.f32_v1>) -> !vhlo.tensor_v1<1x7x8192x!vhlo.f32_v1>
    %256 = "vhlo.convert_v1"(%255) : (!vhlo.tensor_v1<1x7x8192x!vhlo.f32_v1>) -> !vhlo.tensor_v1<1x7x8192x!vhlo.bf16_v1>
    %257 = "vhlo.convert_v1"(%256) : (!vhlo.tensor_v1<1x7x8192x!vhlo.bf16_v1>) -> !vhlo.tensor_v1<1x7x8192x!vhlo.f32_v1>
    %258 = "vhlo.dot_general_v2"(%249, %arg26) <{accumulation_type = #vhlo.type_v1<!vhlo.none_v1>, allow_imprecise_accumulation = #vhlo.type_v1<!vhlo.none_v1>, lhs_batching_dimensions = #vhlo.tensor_v1<dense<> : tensor<0xi64>>, lhs_component_count = #vhlo.type_v1<!vhlo.none_v1>, lhs_contracting_dimensions = #vhlo.tensor_v1<dense<1> : tensor<1xi64>>, lhs_precision_type = #vhlo.type_v1<!vhlo.none_v1>, num_primitive_operations = #vhlo.type_v1<!vhlo.none_v1>, precision_config = #vhlo.array_v1<[#vhlo<precision_v1 DEFAULT>, #vhlo<precision_v1 DEFAULT>]>, rhs_batching_dimensions = #vhlo.tensor_v1<dense<> : tensor<0xi64>>, rhs_component_count = #vhlo.type_v1<!vhlo.none_v1>, rhs_contracting_dimensions = #vhlo.tensor_v1<dense<0> : tensor<1xi64>>, rhs_precision_type = #vhlo.type_v1<!vhlo.none_v1>}> : (!vhlo.tensor_v1<7x3072x!vhlo.bf16_v1>, !vhlo.tensor_v1<3072x8192x!vhlo.bf16_v1>) -> !vhlo.tensor_v1<7x8192x!vhlo.bf16_v1>
    %259 = "vhlo.reshape_v1"(%258) : (!vhlo.tensor_v1<7x8192x!vhlo.bf16_v1>) -> !vhlo.tensor_v1<1x7x8192x!vhlo.bf16_v1>
    %260 = "vhlo.convert_v1"(%259) : (!vhlo.tensor_v1<1x7x8192x!vhlo.bf16_v1>) -> !vhlo.tensor_v1<1x7x8192x!vhlo.f32_v1>
    %261 = "vhlo.multiply_v1"(%257, %260) : (!vhlo.tensor_v1<1x7x8192x!vhlo.f32_v1>, !vhlo.tensor_v1<1x7x8192x!vhlo.f32_v1>) -> !vhlo.tensor_v1<1x7x8192x!vhlo.f32_v1>
    %262 = "vhlo.convert_v1"(%261) : (!vhlo.tensor_v1<1x7x8192x!vhlo.f32_v1>) -> !vhlo.tensor_v1<1x7x8192x!vhlo.bf16_v1>
    %263 = "vhlo.reshape_v1"(%262) : (!vhlo.tensor_v1<1x7x8192x!vhlo.bf16_v1>) -> !vhlo.tensor_v1<7x8192x!vhlo.bf16_v1>
    %264 = "vhlo.dot_general_v2"(%263, %arg25) <{accumulation_type = #vhlo.type_v1<!vhlo.none_v1>, allow_imprecise_accumulation = #vhlo.type_v1<!vhlo.none_v1>, lhs_batching_dimensions = #vhlo.tensor_v1<dense<> : tensor<0xi64>>, lhs_component_count = #vhlo.type_v1<!vhlo.none_v1>, lhs_contracting_dimensions = #vhlo.tensor_v1<dense<1> : tensor<1xi64>>, lhs_precision_type = #vhlo.type_v1<!vhlo.none_v1>, num_primitive_operations = #vhlo.type_v1<!vhlo.none_v1>, precision_config = #vhlo.array_v1<[#vhlo<precision_v1 DEFAULT>, #vhlo<precision_v1 DEFAULT>]>, rhs_batching_dimensions = #vhlo.tensor_v1<dense<> : tensor<0xi64>>, rhs_component_count = #vhlo.type_v1<!vhlo.none_v1>, rhs_contracting_dimensions = #vhlo.tensor_v1<dense<0> : tensor<1xi64>>, rhs_precision_type = #vhlo.type_v1<!vhlo.none_v1>}> : (!vhlo.tensor_v1<7x8192x!vhlo.bf16_v1>, !vhlo.tensor_v1<8192x3072x!vhlo.bf16_v1>) -> !vhlo.tensor_v1<7x3072x!vhlo.bf16_v1>
    %265 = "vhlo.reshape_v1"(%264) : (!vhlo.tensor_v1<7x3072x!vhlo.bf16_v1>) -> !vhlo.tensor_v1<1x7x3072x!vhlo.bf16_v1>
    %266 = "vhlo.add_v1"(%232, %265) : (!vhlo.tensor_v1<1x7x3072x!vhlo.bf16_v1>, !vhlo.tensor_v1<1x7x3072x!vhlo.bf16_v1>) -> !vhlo.tensor_v1<1x7x3072x!vhlo.bf16_v1>
    %267 = "vhlo.convert_v1"(%266) : (!vhlo.tensor_v1<1x7x3072x!vhlo.bf16_v1>) -> !vhlo.tensor_v1<1x7x3072x!vhlo.f32_v1>
    %268 = "vhlo.power_v1"(%267, %1) : (!vhlo.tensor_v1<1x7x3072x!vhlo.f32_v1>, !vhlo.tensor_v1<1x7x3072x!vhlo.f32_v1>) -> !vhlo.tensor_v1<1x7x3072x!vhlo.f32_v1>
    %269 = "vhlo.reduce_v1"(%268, %3) <{dimensions = #vhlo.tensor_v1<dense<2> : tensor<1xi64>>}> ({
    ^bb0(%arg32: !vhlo.tensor_v1<!vhlo.f32_v1>, %arg33: !vhlo.tensor_v1<!vhlo.f32_v1>):
      %284 = "vhlo.add_v1"(%arg32, %arg33) : (!vhlo.tensor_v1<!vhlo.f32_v1>, !vhlo.tensor_v1<!vhlo.f32_v1>) -> !vhlo.tensor_v1<!vhlo.f32_v1>
      "vhlo.return_v1"(%284) : (!vhlo.tensor_v1<!vhlo.f32_v1>) -> ()
    }) : (!vhlo.tensor_v1<1x7x3072x!vhlo.f32_v1>, !vhlo.tensor_v1<!vhlo.f32_v1>) -> !vhlo.tensor_v1<1x7x!vhlo.f32_v1>
    %270 = "vhlo.multiply_v1"(%269, %0) : (!vhlo.tensor_v1<1x7x!vhlo.f32_v1>, !vhlo.tensor_v1<1x7x!vhlo.f32_v1>) -> !vhlo.tensor_v1<1x7x!vhlo.f32_v1>
    %271 = "vhlo.reshape_v1"(%270) : (!vhlo.tensor_v1<1x7x!vhlo.f32_v1>) -> !vhlo.tensor_v1<1x7x1x!vhlo.f32_v1>
    %272 = "vhlo.add_v1"(%271, %21) : (!vhlo.tensor_v1<1x7x1x!vhlo.f32_v1>, !vhlo.tensor_v1<1x7x1x!vhlo.f32_v1>) -> !vhlo.tensor_v1<1x7x1x!vhlo.f32_v1>
    %273 = "vhlo.rsqrt_v2"(%272) <{result_accuracy = #vhlo.result_accuracy_v1<atol = 0.000000e+00, rtol = 0.000000e+00, ulps = 0, mode = #vhlo<result_accuracy_mode_v1 DEFAULT>>}> : (!vhlo.tensor_v1<1x7x1x!vhlo.f32_v1>) -> !vhlo.tensor_v1<1x7x1x!vhlo.f32_v1>
    %274 = "vhlo.reshape_v1"(%273) : (!vhlo.tensor_v1<1x7x1x!vhlo.f32_v1>) -> !vhlo.tensor_v1<1x7x!vhlo.f32_v1>
    %275 = "vhlo.broadcast_in_dim_v1"(%274) <{broadcast_dimensions = #vhlo.tensor_v1<dense<[0, 1]> : tensor<2xi64>>}> : (!vhlo.tensor_v1<1x7x!vhlo.f32_v1>) -> !vhlo.tensor_v1<1x7x3072x!vhlo.f32_v1>
    %276 = "vhlo.multiply_v1"(%267, %275) : (!vhlo.tensor_v1<1x7x3072x!vhlo.f32_v1>, !vhlo.tensor_v1<1x7x3072x!vhlo.f32_v1>) -> !vhlo.tensor_v1<1x7x3072x!vhlo.f32_v1>
    %277 = "vhlo.convert_v1"(%276) : (!vhlo.tensor_v1<1x7x3072x!vhlo.f32_v1>) -> !vhlo.tensor_v1<1x7x3072x!vhlo.bf16_v1>
    %278 = "vhlo.convert_v1"(%277) : (!vhlo.tensor_v1<1x7x3072x!vhlo.bf16_v1>) -> !vhlo.tensor_v1<1x7x3072x!vhlo.f32_v1>
    %279 = "vhlo.multiply_v1"(%188, %278) : (!vhlo.tensor_v1<1x7x3072x!vhlo.f32_v1>, !vhlo.tensor_v1<1x7x3072x!vhlo.f32_v1>) -> !vhlo.tensor_v1<1x7x3072x!vhlo.f32_v1>
    %280 = "vhlo.convert_v1"(%279) : (!vhlo.tensor_v1<1x7x3072x!vhlo.f32_v1>) -> !vhlo.tensor_v1<1x7x3072x!vhlo.bf16_v1>
    %281 = "vhlo.reshape_v1"(%280) : (!vhlo.tensor_v1<1x7x3072x!vhlo.bf16_v1>) -> !vhlo.tensor_v1<7x3072x!vhlo.bf16_v1>
    %282 = "vhlo.dot_general_v2"(%281, %arg24) <{accumulation_type = #vhlo.type_v1<!vhlo.none_v1>, allow_imprecise_accumulation = #vhlo.type_v1<!vhlo.none_v1>, lhs_batching_dimensions = #vhlo.tensor_v1<dense<> : tensor<0xi64>>, lhs_component_count = #vhlo.type_v1<!vhlo.none_v1>, lhs_contracting_dimensions = #vhlo.tensor_v1<dense<1> : tensor<1xi64>>, lhs_precision_type = #vhlo.type_v1<!vhlo.none_v1>, num_primitive_operations = #vhlo.type_v1<!vhlo.none_v1>, precision_config = #vhlo.array_v1<[#vhlo<precision_v1 DEFAULT>, #vhlo<precision_v1 DEFAULT>]>, rhs_batching_dimensions = #vhlo.tensor_v1<dense<> : tensor<0xi64>>, rhs_component_count = #vhlo.type_v1<!vhlo.none_v1>, rhs_contracting_dimensions = #vhlo.tensor_v1<dense<0> : tensor<1xi64>>, rhs_precision_type = #vhlo.type_v1<!vhlo.none_v1>}> : (!vhlo.tensor_v1<7x3072x!vhlo.bf16_v1>, !vhlo.tensor_v1<3072x128256x!vhlo.bf16_v1>) -> !vhlo.tensor_v1<7x128256x!vhlo.bf16_v1>
    %283 = "vhlo.reshape_v1"(%282) : (!vhlo.tensor_v1<7x128256x!vhlo.bf16_v1>) -> !vhlo.tensor_v1<1x7x128256x!vhlo.bf16_v1>
    "vhlo.return_v1"(%63, %67, %182, %186, %282, %283) : (!vhlo.tensor_v1<1x8x128x128x!vhlo.bf16_v1>, !vhlo.tensor_v1<1x8x128x128x!vhlo.bf16_v1>, !vhlo.tensor_v1<1x8x128x128x!vhlo.bf16_v1>, !vhlo.tensor_v1<1x8x128x128x!vhlo.bf16_v1>, !vhlo.tensor_v1<7x128256x!vhlo.bf16_v1>, !vhlo.tensor_v1<1x7x128256x!vhlo.bf16_v1>) -> ()
  } {arg_attrs = #vhlo.array_v1<[]>, res_attrs = #vhlo.array_v1<[]>, sym_visibility = #vhlo.string_v1<"">}
}
2025-08-11 19:24:46.949 (   4.570s) [        ABDE41C0]      module_builder.cc:188      1| SHLO Module:
module @SyncTensorsGraph.613 attributes {mhlo.cross_program_prefetches = [], mhlo.input_output_alias = [], mhlo.is_dynamic = false, mhlo.use_auto_spmd_partitioning = false} {
  func.func @main(%arg0: tensor<7xi64>, %arg1: tensor<1x64x1xf32>, %arg2: tensor<3072x1024xbf16>, %arg3: tensor<f32>, %arg4: tensor<1x7xi64>, %arg5: tensor<128256x3072xbf16>, %arg6: tensor<3072xbf16>, %arg7: tensor<i64>, %arg8: tensor<1x8x128x128xbf16>, %arg9: tensor<3072x1024xbf16>, %arg10: tensor<1x8x128x128xbf16>, %arg11: tensor<3072x1024xbf16>, %arg12: tensor<8192x3072xbf16>, %arg13: tensor<3072x8192xbf16>, %arg14: tensor<3072x3072xbf16>, %arg15: tensor<1x1x7x128xbf16>, %arg16: tensor<f32>, %arg17: tensor<3072x3072xbf16>, %arg18: tensor<3072xbf16>, %arg19: tensor<3072x8192xbf16>, %arg20: tensor<3072xbf16>, %arg21: tensor<1x8x128x128xbf16>, %arg22: tensor<3072x1024xbf16>, %arg23: tensor<1x8x128x128xbf16>, %arg24: tensor<3072x128256xbf16>, %arg25: tensor<8192x3072xbf16>, %arg26: tensor<3072x8192xbf16>, %arg27: tensor<3072x3072xbf16>, %arg28: tensor<3072x3072xbf16>, %arg29: tensor<3072xbf16>, %arg30: tensor<3072x8192xbf16>, %arg31: tensor<3072xbf16>) -> (tensor<1x8x128x128xbf16>, tensor<1x8x128x128xbf16>, tensor<1x8x128x128xbf16>, tensor<1x8x128x128xbf16>, tensor<7x128256xbf16>, tensor<1x7x128256xbf16>) {
    %cst = stablehlo.constant dense<3.25520843E-4> : tensor<1x7xf32>
    %cst_0 = stablehlo.constant dense<2.000000e+00> : tensor<1x7x3072xf32>
    %cst_1 = stablehlo.constant dense<0xFF800000> : tensor<f32>
    %cst_2 = stablehlo.constant dense<0.000000e+00> : tensor<f32>
    %c = stablehlo.constant dense<0> : tensor<7xi64>
    %0 = stablehlo.compare  LT, %arg0, %c : (tensor<7xi64>, tensor<7xi64>) -> tensor<7xi1>
    %1 = stablehlo.broadcast_in_dim %arg7, dims = [] : (tensor<i64>) -> tensor<7xi64>
    %2 = stablehlo.add %arg0, %1 : tensor<7xi64>
    %3 = stablehlo.select %0, %2, %arg0 : tensor<7xi1>, tensor<7xi64>
    %4 = stablehlo.reshape %3 : (tensor<7xi64>) -> tensor<7x1xi64>
    %5 = stablehlo.convert %arg6 : (tensor<3072xbf16>) -> tensor<3072xf32>
    %6 = stablehlo.broadcast_in_dim %5, dims = [2] : (tensor<3072xf32>) -> tensor<1x7x3072xf32>
    %7 = stablehlo.reshape %arg4 : (tensor<1x7xi64>) -> tensor<7xi64>
    %8 = stablehlo.convert %7 : (tensor<7xi64>) -> tensor<7xui32>
    %9 = "stablehlo.gather"(%arg5, %8) <{dimension_numbers = #stablehlo.gather<offset_dims = [1], collapsed_slice_dims = [0], start_index_map = [0], index_vector_dim = 1>, slice_sizes = array<i64: 1, 3072>}> : (tensor<128256x3072xbf16>, tensor<7xui32>) -> tensor<7x3072xbf16>
    %10 = stablehlo.reshape %9 : (tensor<7x3072xbf16>) -> tensor<1x7x3072xbf16>
    %11 = stablehlo.convert %10 : (tensor<1x7x3072xbf16>) -> tensor<1x7x3072xf32>
    %12 = stablehlo.power %11, %cst_0 : tensor<1x7x3072xf32>
    %13 = stablehlo.reduce(%12 init: %cst_2) applies stablehlo.add across dimensions = [2] : (tensor<1x7x3072xf32>, tensor<f32>) -> tensor<1x7xf32>
    %14 = stablehlo.multiply %13, %cst : tensor<1x7xf32>
    %15 = stablehlo.reshape %14 : (tensor<1x7xf32>) -> tensor<1x7x1xf32>
    %16 = stablehlo.broadcast_in_dim %arg3, dims = [] : (tensor<f32>) -> tensor<1x7x1xf32>
    %17 = stablehlo.add %15, %16 : tensor<1x7x1xf32>
    %18 = stablehlo.rsqrt %17 : tensor<1x7x1xf32>
    %19 = stablehlo.reshape %18 : (tensor<1x7x1xf32>) -> tensor<1x7xf32>
    %20 = stablehlo.broadcast_in_dim %19, dims = [0, 1] : (tensor<1x7xf32>) -> tensor<1x7x3072xf32>
    %21 = stablehlo.multiply %11, %20 : tensor<1x7x3072xf32>
    %22 = stablehlo.convert %21 : (tensor<1x7x3072xf32>) -> tensor<1x7x3072xbf16>
    %23 = stablehlo.convert %22 : (tensor<1x7x3072xbf16>) -> tensor<1x7x3072xf32>
…
le<32x32, bf16>, #ttnn.buffer_type<dram>>, <interleaved>>>) -> tensor<1x128256xbf16, #ttnn.ttnn_layout<(d0, d1) -> (d0, d1), <1x1>, memref<1x4008x!ttcore.tile<32x32, bf16>, #ttnn.buffer_type<dram>>, <interleaved>>> loc("dot.602")
[32m            RuntimeTTNN[0m | [1m[38;5;240m   DEBUG[0m | Executing operation: "ttnn.deallocate"(%222) <{force = false}> : (tensor<1x3072xbf16, #ttnn.ttnn_layout<(d0, d1) -> (d0, d1), <1x1>, memref<1x96x!ttcore.tile<32x32, bf16>, #ttnn.buffer_type<dram>>, <interleaved>>>) -> () loc("dot.602")
[32m            RuntimeTTNN[0m | [1m[38;5;240m   DEBUG[0m | Executing operation: "ttnn.deallocate"(%arg24) <{force = false}> : (tensor<3072x128256xbf16, #ttnn.ttnn_layout<(d0, d1) -> (d0, d1), <1x1>, memref<96x4008x!ttcore.tile<32x32, bf16>, #ttnn.buffer_type<dram>>, <interleaved>>>) -> () loc("dot.602")
[32m            RuntimeTTNN[0m | [1m[38;5;240m   DEBUG[0m | Executing operation: %224 = "ttnn.reshape"(%223) <{shape = [1 : i32, 1 : i32, 128256 : i32]}> : (tensor<1x128256xbf16, #ttnn.ttnn_layout<(d0, d1) -> (d0, d1), <1x1>, memref<1x4008x!ttcore.tile<32x32, bf16>, #ttnn.buffer_type<dram>>, <interleaved>>>) -> tensor<1x1x128256xbf16, #ttnn.ttnn_layout<(d0, d1, d2) -> (d0 * 32 + d1, d2), <1x1>, memref<1x4008x!ttcore.tile<32x32, bf16>, #ttnn.buffer_type<dram>>, <interleaved>>> loc("reshape.603")
[32m            RuntimeTTNN[0m | [1m[38;5;240m   DEBUG[0m | Finished execution of program: main
[32m                 Always[0m | [1m[38;5;240m   DEBUG[0m | Tensor is retained thus not deallocating. To deallocate, set retain to false first
[32m                 Always[0m | [1m[38;5;240m   DEBUG[0m | Tensor is retained thus not deallocating. To deallocate, set retain to false first
[32m                 Always[0m | [1m[38;5;240m   DEBUG[0m | Tensor is retained thus not deallocating. To deallocate, set retain to false first
[32m                 Always[0m | [1m[38;5;240m   DEBUG[0m | Tensor is retained thus not deallocating. To deallocate, set retain to false first
2025-08-11 19:25:31.038 (  48.659s) [        97FFF640]      event_instance.cc:222      1| EventInstance::PJRT_Event_OnReady
2025-08-11 19:25:31.038 (  48.659s) [        97FFF640]      event_instance.cc:171      1| EventInstance::PJRT_Event_Destroy
2025-08-11 19:25:31.038 (  48.659s) [        97FFF640]     buffer_instance.cc:443      1| BufferInstance::PJRT_Buffer_Dimensions
2025-08-11 19:25:31.038 (  48.659s) [        97FFF640]     buffer_instance.cc:466      1| BufferInstance::PJRT_Buffer_DynamicDimensionIndices
2025-08-11 19:25:31.038 (  48.659s) [        97FFF640]     buffer_instance.cc:443      1| BufferInstance::PJRT_Buffer_Dimensions
2025-08-11 19:25:31.038 (  48.659s) [        97FFF640]     buffer_instance.cc:435      1| BufferInstance::PJRT_Buffer_ElementType
2025-08-11 19:25:31.038 (  48.659s) [        97FFF640]     buffer_instance.cc:443      1| BufferInstance::PJRT_Buffer_Dimensions
2025-08-11 19:25:31.038 (  48.659s) [        97FFF640]     buffer_instance.cc:466      1| BufferInstance::PJRT_Buffer_DynamicDimensionIndices
2025-08-11 19:25:31.038 (  48.659s) [        97FFF640]     buffer_instance.cc:443      1| BufferInstance::PJRT_Buffer_Dimensions
2025-08-11 19:25:31.038 (  48.659s) [        97FFF640]     buffer_instance.cc:435      1| BufferInstance::PJRT_Buffer_ElementType
2025-08-11 19:25:31.038 (  48.659s) [        97FFF640]     buffer_instance.cc:443      1| BufferInstance::PJRT_Buffer_Dimensions
2025-08-11 19:25:31.038 (  48.659s) [        97FFF640]     buffer_instance.cc:466      1| BufferInstance::PJRT_Buffer_DynamicDimensionIndices
2025-08-11 19:25:31.038 (  48.659s) [        97FFF640]     buffer_instance.cc:443      1| BufferInstance::PJRT_Buffer_Dimensions
2025-08-11 19:25:31.038 (  48.659s) [        97FFF640]     buffer_instance.cc:435      1| BufferInstance::PJRT_Buffer_ElementType
2025-08-11 19:25:31.038 (  48.659s) [        97FFF640]     buffer_instance.cc:443      1| BufferInstance::PJRT_Buffer_Dimensions
2025-08-11 19:25:31.038 (  48.659s) [        97FFF640]     buffer_instance.cc:466      1| BufferInstance::PJRT_Buffer_DynamicDimensionIndices
2025-08-11 19:25:31.038 (  48.659s) [        97FFF640]     buffer_instance.cc:443      1| BufferInstance::PJRT_Buffer_Dimensions
2025-08-11 19:25:31.038 (  48.659s) [        97FFF640]     buffer_instance.cc:435      1| BufferInstance::PJRT_Buffer_ElementType
2025-08-11 19:25:31.038 (  48.659s) [        97FFF640]     buffer_instance.cc:443      1| BufferInstance::PJRT_Buffer_Dimensions
2025-08-11 19:25:31.038 (  48.659s) [        97FFF640]     buffer_instance.cc:466      1| BufferInstance::PJRT_Buffer_DynamicDimensionIndices
2025-08-11 19:25:31.038 (  48.659s) [        97FFF640]     buffer_instance.cc:443      1| BufferInstance::PJRT_Buffer_Dimensions
2025-08-11 19:25:31.038 (  48.659s) [        97FFF640]     buffer_instance.cc:435      1| BufferInstance::PJRT_Buffer_ElementType
2025-08-11 19:25:31.038 (  48.659s) [        97FFF640]     buffer_instance.cc:443      1| BufferInstance::PJRT_Buffer_Dimensions
2025-08-11 19:25:31.038 (  48.659s) [        97FFF640]     buffer_instance.cc:466      1| BufferInstance::PJRT_Buffer_DynamicDimensionIndices
2025-08-11 19:25:31.038 (  48.659s) [        97FFF640]     buffer_instance.cc:443      1| BufferInstance::PJRT_Buffer_Dimensions
2025-08-11 19:25:31.038 (  48.659s) [        97FFF640]     buffer_instance.cc:435      1| BufferInstance::PJRT_Buffer_ElementType
2025-08-11 19:25:31.038 (  48.659s) [        97FFF640]     buffer_instance.cc:427      1| BufferInstance::PJRT_Buffer_Destroy
[32m                 Always[0m | [1m[38;5;240m   DEBUG[0m | Tensor is retained thus not deallocating. To deallocate, set retain to false first
2025-08-11 19:25:31.038 (  48.659s) [        97FFF640]     buffer_instance.cc:427      1| BufferInstance::PJRT_Buffer_Destroy
[32m                 Always[0m | [1m[38;5;240m   DEBUG[0m | Tensor is retained thus not deallocating. To deallocate, set retain to false first
2025-08-11 19:25:31.038 (  48.659s) [        97FFF640]     buffer_instance.cc:427      1| BufferInstance::PJRT_Buffer_Destroy
[32m                 Always[0m | [1m[38;5;240m   DEBUG[0m | Tensor is retained thus not deallocating. To deallocate, set retain to false first
2025-08-11 19:25:31.038 (  48.659s) [        97FFF640]     buffer_instance.cc:427      1| BufferInstance::PJRT_Buffer_Destroy
[32m                 Always[0m | [1m[38;5;240m   DEBUG[0m | Tensor is retained thus not deallocating. To deallocate, set retain to false first
2025-08-11 19:25:31.038 (  48.659s) [        ABDE41C0]     buffer_instance.cc:526      1| BufferInstance::PJRT_Buffer_IsDeleted
2025-08-11 19:25:31.038 (  48.659s) [        ABDE41C0]     buffer_instance.cc:454      1| BufferInstance::PJRT_Buffer_UnpaddedDimensions
2025-08-11 19:25:31.038 (  48.659s) [        ABDE41C0]     buffer_instance.cc:435      1| BufferInstance::PJRT_Buffer_ElementType
2025-08-11 19:25:31.038 (  48.659s) [        ABDE41C0]     buffer_instance.cc:443      1| BufferInstance::PJRT_Buffer_Dimensions
2025-08-11 19:25:31.039 (  48.660s) [        ABDE41C0]     buffer_instance.cc:476      1| BufferInstance::PJRT_Buffer_ToHostBuffer
2025-08-11 19:25:31.039 (  48.660s) [        ABDE41C0]     buffer_instance.cc:497      1| [BUFFER_TO_HOST] Source buffer shape: [1, 8, 128, 128], data_type: 13, required_size: 262144 bytes
2025-08-11 19:25:31.039 (  48.660s) [        ABDE41C0]     buffer_instance.cc:508      1| [BUFFER_TO_HOST] Destination buffer: dst_size=262144 bytes, dst_ptr=0x55bf15df69c0
2025-08-11 19:25:31.039 (  48.660s) [        ABDE41C0]      event_instance.cc:222      1| EventInstance::PJRT_Event_OnReady
2025-08-11 19:25:31.039 (  48.660s) [        F41CC640]      event_instance.cc:171      1| EventInstance::PJRT_Event_Destroy
2025-08-11 19:25:31.041 (  48.662s) [        ABDE41C0]     buffer_instance.cc:526      1| BufferInstance::PJRT_Buffer_IsDeleted
2025-08-11 19:25:31.041 (  48.662s) [        ABDE41C0]     buffer_instance.cc:454      1| BufferInstance::PJRT_Buffer_UnpaddedDimensions
2025-08-11 19:25:31.041 (  48.662s) [        ABDE41C0]     buffer_instance.cc:435      1| BufferInstance::PJRT_Buffer_ElementType
2025-08-11 19:25:31.041 (  48.662s) [        ABDE41C0]     buffer_instance.cc:443      1| BufferInstance::PJRT_Buffer_Dimensions
2025-08-11 19:25:31.041 (  48.662s) [        ABDE41C0]     buffer_instance.cc:476      1| BufferInstance::PJRT_Buffer_ToHostBuffer
2025-08-11 19:25:31.041 (  48.662s) [        ABDE41C0]     buffer_instance.cc:497      1| [BUFFER_TO_HOST] Source buffer shape: [1, 8, 128, 128], data_type: 13, required_size: 262144 bytes
2025-08-11 19:25:31.041 (  48.662s) [        ABDE41C0]     buffer_instance.cc:508      1| [BUFFER_TO_HOST] Destination buffer: dst_size=262144 bytes, dst_ptr=0x55bf14e03440
2025-08-11 19:25:31.041 (  48.662s) [        ABDE41C0]      event_instance.cc:222      1| EventInstance::PJRT_Event_OnReady
2025-08-11 19:25:31.041 (  48.662s) [        F41CC640]      event_instance.cc:171      1| EventInstance::PJRT_Event_Destroy
2025-08-11 19:25:31.042 (  48.663s) [        ABDE41C0]     buffer_instance.cc:526      1| BufferInstance::PJRT_Buffer_IsDeleted
2025-08-11 19:25:31.042 (  48.663s) [        ABDE41C0]     buffer_instance.cc:454      1| BufferInstance::PJRT_Buffer_UnpaddedDimensions
2025-08-11 19:25:31.042 (  48.663s) [        ABDE41C0]     buffer_instance.cc:435      1| BufferInstance::PJRT_Buffer_ElementType
2025-08-11 19:25:31.042 (  48.663s) [        ABDE41C0]     buffer_instance.cc:443      1| BufferInstance::PJRT_Buffer_Dimensions
2025-08-11 19:25:31.042 (  48.663s) [        ABDE41C0]     buffer_instance.cc:476      1| BufferInstance::PJRT_Buffer_ToHostBuffer
2025-08-11 19:25:31.042 (  48.663s) [        ABDE41C0]     buffer_instance.cc:497      1| [BUFFER_TO_HOST] Source buffer shape: [1, 8, 128, 128], data_type: 13, required_size: 262144 bytes
2025-08-11 19:25:31.042 (  48.663s) [        ABDE41C0]     buffer_instance.cc:508      1| [BUFFER_TO_HOST] Destination buffer: dst_size=262144 bytes, dst_ptr=0x55bf15df69c0
2025-08-11 19:25:31.042 (  48.663s) [        ABDE41C0]      event_instance.cc:222      1| EventInstance::PJRT_Event_OnReady
2025-08-11 19:25:31.042 (  48.663s) [        F41CC640]      event_instance.cc:171      1| EventInstance::PJRT_Event_Destroy
2025-08-11 19:25:31.043 (  48.664s) [        ABDE41C0]     buffer_instance.cc:526      1| BufferInstance::PJRT_Buffer_IsDeleted
2025-08-11 19:25:31.043 (  48.664s) [        ABDE41C0]     buffer_instance.cc:454      1| BufferInstance::PJRT_Buffer_UnpaddedDimensions
2025-08-11 19:25:31.043 (  48.664s) [        ABDE41C0]     buffer_instance.cc:435      1| BufferInstance::PJRT_Buffer_ElementType
2025-08-11 19:25:31.043 (  48.664s) [        ABDE41C0]     buffer_instance.cc:443      1| BufferInstance::PJRT_Buffer_Dimensions
2025-08-11 19:25:31.043 (  48.664s) [        ABDE41C0]     buffer_instance.cc:476      1| BufferInstance::PJRT_Buffer_ToHostBuffer
2025-08-11 19:25:31.043 (  48.664s) [        ABDE41C0]     buffer_instance.cc:497      1| [BUFFER_TO_HOST] Source buffer shape: [1, 8, 128, 128], data_type: 13, required_size: 262144 bytes
2025-08-11 19:25:31.043 (  48.664s) [        ABDE41C0]     buffer_instance.cc:508      1| [BUFFER_TO_HOST] Destination buffer: dst_size=262144 bytes, dst_ptr=0x55bf15df69c0
2025-08-11 19:25:31.043 (  48.664s) [        ABDE41C0]      event_instance.cc:222      1| EventInstance::PJRT_Event_OnReady
2025-08-11 19:25:31.044 (  48.664s) [        F41CC640]      event_instance.cc:171      1| EventInstance::PJRT_Event_Destroy
input 0: device = xla:0, shape torch.Size([3072])
input 1: device = xla:0, shape torch.Size([3072])
input 2: device = xla:0, shape torch.Size([3072])
input 3: device = xla:0, shape torch.Size([3072])
input 4: device = xla:0, shape torch.Size([3072])
input 5: device = xla:0, shape torch.Size([128256, 3072])
input 6: device = xla:0, shape torch.Size([1, 64, 1])
input 7: device = xla:0, shape torch.Size([3072, 3072])
input 8: device = xla:0, shape torch.Size([3072, 1024])
input 9: device = xla:0, shape torch.Size([3072, 1024])
input 10: device = xla:0, shape torch.Size([3072, 3072])
input 11: device = xla:0, shape torch.Size([3072, 8192])
input 12: device = xla:0, shape torch.Size([3072, 8192])
input 13: device = xla:0, shape torch.Size([8192, 3072])
input 14: device = xla:0, shape torch.Size([3072, 3072])
input 15: device = xla:0, shape torch.Size([3072, 1024])
input 16: device = xla:0, shape torch.Size([3072, 1024])
input 17: device = xla:0, shape torch.Size([3072, 3072])
input 18: device = xla:0, shape torch.Size([3072, 8192])
input 19: device = xla:0, shape torch.Size([3072, 8192])
input 20: device = xla:0, shape torch.Size([8192, 3072])
input 21: device = xla:0, shape torch.Size([3072, 128256])
input 22: device = xla:0, shape torch.Size([3072, 3072])
input 23: device = xla:0, shape torch.Size([1024, 3072])
input 24: device = xla:0, shape torch.Size([1024, 3072])
input 25: device = xla:0, shape torch.Size([3072, 3072])
input 26: device = xla:0, shape torch.Size([8192, 3072])
input 27: device = xla:0, shape torch.Size([8192, 3072])
input 28: device = xla:0, shape torch.Size([3072, 8192])
input 29: device = xla:0, shape torch.Size([3072, 3072])
input 30: device = xla:0, shape torch.Size([1024, 3072])
input 31: device = xla:0, shape torch.Size([1024, 3072])
input 32: device = xla:0, shape torch.Size([3072, 3072])
input 33: device = xla:0, shape torch.Size([8192, 3072])
input 34: device = xla:0, shape torch.Size([8192, 3072])
input 35: device = xla:0, shape torch.Size([3072, 8192])
input 36: device = xla:0, shape torch.Size([128256, 3072])
input 37: device = xla:0, shape torch.Size([1, 8, 128, 128])
	mean along seqlen for static cache @ input idx 37 and shape torch.Size([1, 8, 128, 128]): tensor([ … dtype=torch.bfloat16)
input 38: device = xla:0, shape torch.Size([1, 8, 128, 128])
	mean along seqlen for static cache @ input idx 38 and shape torch.Size([1, 8, 128, 128]): tensor([ … dtype=torch.bfloat16)
input 39: device = xla:0, shape torch.Size([1, 8, 128, 128])
	mean along seqlen for static cache @ input idx 39 and shape torch.Size([1, 8, 128, 128]): tensor([ … dtype=torch.bfloat16)
input 40: device = xla:0, shape torch.Size([1, 8, 128, 128])
	mean along seqlen for static cache @ input idx 40 and shape torch.Size([1, 8, 128, 128]): 2025-08-11 19:25:31.044 (  48.665s) [        ABDE41C0]     buffer_instance.cc:526      1| BufferInstance::PJRT_Buffer_IsDeleted
2025-08-11 19:25:31.044 (  48.665s) [        ABDE41C0]     buffer_instance.cc:454      1| BufferInstance::PJRT_Buffer_UnpaddedDimensions
2025-08-11 19:25:31.044 (  48.665s) [        ABDE41C0]     buffer_instance.cc:435      1| BufferInstance::PJRT_Buffer_ElementType
2025-08-11 19:25:31.044 (  48.665s) [        ABDE41C0]     buffer_instance.cc:443      1| BufferInstance::PJRT_Buffer_Dimensions
2025-08-11 19:25:31.044 (  48.665s) [        ABDE41C0]     buffer_instance.cc:476      1| BufferInstance::PJRT_Buffer_ToHostBuffer
2025-08-11 19:25:31.044 (  48.665s) [        ABDE41C0]     buffer_instance.cc:497      1| [BUFFER_TO_HOST] Source buffer shape: [1, 1, 128256], data_type: 13, required_size: 256512 bytes
2025-08-11 19:25:31.044 (  48.665s) [        ABDE41C0]     buffer_instance.cc:508      1| [BUFFER_TO_HOST] Destination buffer: dst_size=256512 bytes, dst_ptr=0x55bf14e03440
2025-08-11 19:25:31.045 (  48.665s) [        ABDE41C0]      event_instance.cc:222      1| EventInstance::PJRT_Event_OnReady
2025-08-11 19:25:31.045 (  48.666s) [        F41CC640]      event_instance.cc:171      1| EventInstance::PJRT_Event_Destroy
2025-08-11 19:25:31.045 (  48.666s) [        ABDE41C0]     buffer_instance.cc:427      1| BufferInstance::PJRT_Buffer_Destroy
[32m                 Always[0m | [1m[38;5;240m   DEBUG[0m | Tensor is retained thus not deallocating. To deallocate, set retain to false first
2025-08-11 19:25:31.045 (  48.666s) [        ABDE41C0]     buffer_instance.cc:427      1| BufferInstance::PJRT_Buffer_Destroy
[32m                 Always[0m | [1m[38;5;240m   DEBUG[0m | Tensor is retained thus not deallocating. To deallocate, set retain to false first
tensor([ … dtype=torch.bfloat16)
input 41: device = xla:0, shape torch.Size([64])
input 42: device = xla:0, shape torch.Size([1, 1])
input 43: device = xla:0, shape torch.Size([1])
input 44: device = xla:0, shape torch.Size([1, 1, 1, 128])
alink2025-08-11 19:25:31.046 (  48.667s) [        ABDE41C0]     buffer_instance.cc:427      1| BufferInstance::PJRT_Buffer_Destroy
[32m                 Always[0m | [1m[38;5;240m   DEBUG[0m | Tensor is retained thus not deallocating. To deallocate, set retain to false first
2025-08-11 19:25:31.047 (  48.667s) [        ABDE41C0]     buffer_instance.cc:427      1| BufferInstance::PJRT_Buffer_Destroy
[32m                 Always[0m | [1m[38;5;240m   DEBUG[0m | Tensor is retained thus not deallocating. To deallocate, set retain to false first
2025-08-11 19:25:31.047 (  48.667s) [        ABDE41C0]     buffer_instance.cc:427      1| BufferInstance::PJRT_Buffer_Destroy
[32m                 Always[0m | [1m[38;5;240m   DEBUG[0m | Tensor is retained thus not deallocating. To deallocate, set retain to false first
2025-08-11 19:25:31.047 (  48.667s) [        ABDE41C0]     buffer_instance.cc:427      1| BufferInstance::PJRT_Buffer_Destroy
[32m                 Always[0m | [1m[38;5;240m   DEBUG[0m | Tensor is retained thus not deallocating. To deallocate, set retain to false first
2025-08-11 19:25:31.047 (  48.668s) [        ABDE41C0]     buffer_instance.cc:427      1| BufferInstance::PJRT_Buffer_Destroy
[32m                 Always[0m | [1m[38;5;240m   DEBUG[0m | Tensor is retained thus not deallocating. To deallocate, set retain to false first
2025-08-11 19:25:31.047 (  48.668s) [        ABDE41C0]     buffer_instance.cc:427      1| BufferInstance::PJRT_Buffer_Destroy
[32m                 Always[0m | [1m[38;5;240m   DEBUG[0m | Tensor is retained thus not deallocating. To deallocate, set retain to false first
2025-08-11 19:25:31.047 (  48.668s) [        ABDE41C0]     buffer_instance.cc:427      1| BufferInstance::PJRT_Buffer_Destroy
[32m                 Always[0m | [1m[38;5;240m   DEBUG[0m | Tensor is retained thus not deallocating. To deallocate, set retain to false first
2025-08-11 19:25:31.047 (  48.668s) [        ABDE41C0]     buffer_instance.cc:427      1| BufferInstance::PJRT_Buffer_Destroy
[32m                 Always[0m | [1m[38;5;240m   DEBUG[0m | Tensor is retained thus not deallocating. To deallocate, set retain to false first
2025-08-11 19:25:31.047 (  48.668s) [        ABDE41C0]     buffer_instance.cc:427      1| BufferInstance::PJRT_Buffer_Destroy
[32m                 Always[0m | [1m[38;5;240m   DEBUG[0m | Tensor is retained thus not deallocating. To deallocate, set retain to false first
2025-08-11 19:25:31.124 (  48.745s) [        ABDE41C0]     buffer_instance.cc:427      1| BufferInstance::PJRT_Buffer_Destroy
[32m                 Always[0m | [1m[38;5;240m   DEBUG[0m | Tensor is retained thus not deallocating. To deallocate, set retain to false first
2025-08-11 19:25:31.128 (  48.749s) [        ABDE41C0]     buffer_instance.cc:427      1| BufferInstance::PJRT_Buffer_Destroy
[32m                 Always[0m | [1m[38;5;240m   DEBUG[0m | Tensor is retained thus not deallocating. To deallocate, set retain to false first
2025-08-11 19:25:31.132 (  48.753s) [        ABDE41C0]     buffer_instance.cc:427      1| BufferInstance::PJRT_Buffer_Destroy
[32m                 Always[0m | [1m[38;5;240m   DEBUG[0m | Tensor is retained thus not deallocating. To deallocate, set retain to false first
2025-08-11 19:25:31.137 (  48.757s) [        ABDE41C0]     buffer_instance.cc:427      1| BufferInstance::PJRT_Buffer_Destroy
[32m                 Always[0m | [1m[38;5;240m   DEBUG[0m | Tensor is retained thus not deallocating. To deallocate, set retain to false first
2025-08-11 19:25:31.137 (  48.758s) [        ABDE41C0]     buffer_instance.cc:427      1| BufferInstance::PJRT_Buffer_Destroy
[32m                 Always[0m | [1m[38;5;240m   DEBUG[0m | Tensor is retained thus not deallocating. To deallocate, set retain to false first
2025-08-11 19:25:31.137 (  48.758s) [        ABDE41C0]     buffer_instance.cc:427      1| BufferInstance::PJRT_Buffer_Destroy
[32m                 Always[0m | [1m[38;5;240m   DEBUG[0m | Tensor is retained thus not deallocating. To deallocate, set retain to false first
2025-08-11 19:25:31.137 (  48.758s) [        ABDE41C0]     buffer_instance.cc:427      1| BufferInstance::PJRT_Buffer_Destroy
[32m                 Always[0m | [1m[38;5;240m   DEBUG[0m | Tensor is retained thus not deallocating. To deallocate, set retain to false first
2025-08-11 19:25:31.137 (  48.758s) [        ABDE41C0]     buffer_instance.cc:427      1| BufferInstance::PJRT_Buffer_Destroy
[32m                 Always[0m | [1m[38;5;240m   DEBUG[0m | Tensor is retained thus not deallocating. To deallocate, set retain to false first
2025-08-11 19:25:31.141 (  48.762s) [        ABDE41C0]     buffer_instance.cc:427      1| BufferInstance::PJRT_Buffer_Destroy
[32m                 Always[0m | [1m[38;5;240m   DEBUG[0m | Tensor is retained thus not deallocating. To deallocate, set retain to false first
2025-08-11 19:25:31.145 (  48.766s) [        ABDE41C0]     buffer_instance.cc:427      1| BufferInstance::PJRT_Buffer_Destroy
[32m                 Always[0m | [1m[38;5;240m   DEBUG[0m | Tensor is retained thus not deallocating. To deallocate, set retain to false first
2025-08-11 19:25:31.149 (  48.769s) [        ABDE41C0]     buffer_instance.cc:427      1| BufferInstance::PJRT_Buffer_Destroy
[32m                 Always[0m | [1m[38;5;240m   DEBUG[0m | Tensor is retained thus not deallocating. To deallocate, set retain to false first
2025-08-11 19:25:31.149 (  48.770s) [        ABDE41C0]     buffer_instance.cc:427      1| BufferInstance::PJRT_Buffer_Destroy
[32m                 Always[0m | [1m[38;5;240m   DEBUG[0m | Tensor is retained thus not deallocating. To deallocate, set retain to false first
2025-08-11 19:25:31.153 (  48.774s) [        ABDE41C0]     buffer_instance.cc:427      1| BufferInstance::PJRT_Buffer_Destroy
[32m                 Always[0m | [1m[38;5;240m   DEBUG[0m | Tensor is retained thus not deallocating. To deallocate, set retain to false first
2025-08-11 19:25:31.154 (  48.774s) [        ABDE41C0]     buffer_instance.cc:427      1| BufferInstance::PJRT_Buffer_Destroy
[32m                 Always[0m | [1m[38;5;240m   DEBUG[0m | Tensor is retained thus not deallocating. To deallocate, set retain to false first
2025-08-11 19:25:31.154 (  48.774s) [        ABDE41C0]     buffer_instance.cc:427      1| BufferInstance::PJRT_Buffer_Destroy
[32m                 Always[0m | [1m[38;5;240m   DEBUG[0m | Tensor is retained thus not deallocating. To deallocate, set retain to false first
2025-08-11 19:25:31.202 (  48.823s) [        ABDE41C0]     buffer_instance.cc:427      1| BufferInstance::PJRT_Buffer_Destroy
[32m                 Always[0m | [1m[38;5;240m   DEBUG[0m | Tensor is retained thus not deallocating. To deallocate, set retain to false first
2025-08-11 19:25:31.205 (  48.825s) [        ABDE41C0]     buffer_instance.cc:427      1| BufferInstance::PJRT_Buffer_Destroy
[32m                 Always[0m | [1m[38;5;240m   DEBUG[0m | Tensor is retained thus not deallocating. To deallocate, set retain to false first
2025-08-11 19:25:31.208 (  48.828s) [        ABDE41C0]     buffer_instance.cc:427      1| BufferInstance::PJRT_Buffer_Destroy
[32m                 Always[0m | [1m[38;5;240m   DEBUG[0m | Tensor is retained thus not deallocating. To deallocate, set retain to false first
2025-08-11 19:25:31.211 (  48.832s) [        ABDE41C0]     buffer_instance.cc:427      1| BufferInstance::PJRT_Buffer_Destroy
[32m                 Always[0m | [1m[38;5;240m   DEBUG[0m | Tensor is retained thus not deallocating. To deallocate, set retain to false first
2025-08-11 19:25:31.211 (  48.832s) [        ABDE41C0]     buffer_instance.cc:427      1| BufferInstance::PJRT_Buffer_Destroy
[32m                 Always[0m | [1m[38;5;240m   DEBUG[0m | Tensor is retained thus not deallocating. To deallocate, set retain to false first
2025-08-11 19:25:31.211 (  48.832s) [        ABDE41C0]     buffer_instance.cc:427      1| BufferInstance::PJRT_Buffer_Destroy
[32m                 Always[0m | [1m[38;5;240m   DEBUG[0m | Tensor is retained thus not deallocating. To deallocate, set retain to false first
2025-08-11 19:25:31.211 (  48.832s) [        ABDE41C0]     buffer_instance.cc:427      1| BufferInstance::PJRT_Buffer_Destroy
[32m                 Always[0m | [1m[38;5;240m   DEBUG[0m | Tensor is retained thus not deallocating. To deallocate, set retain to false first
2025-08-11 19:25:31.215 (  48.836s) [        ABDE41C0]     buffer_instance.cc:427      1| BufferInstance::PJRT_Buffer_Destroy
[32m                 Always[0m | [1m[38;5;240m   DEBUG[0m | Tensor is retained thus not deallocating. To deallocate, set retain to false first
2025-08-11 19:25:31.218 (  48.839s) [        ABDE41C0]     buffer_instance.cc:427      1| BufferInstance::PJRT_Buffer_Destroy
[32m                 Always[0m | [1m[38;5;240m   DEBUG[0m | Tensor is retained thus not deallocating. To deallocate, set retain to false first
2025-08-11 19:25:31.221 (  48.842s) [        ABDE41C0]     buffer_instance.cc:427      1| BufferInstance::PJRT_Buffer_Destroy
[32m                 Always[0m | [1m[38;5;240m   DEBUG[0m | Tensor is retained thus not deallocating. To deallocate, set retain to false first
2025-08-11 19:25:31.224 (  48.845s) [        ABDE41C0]     buffer_instance.cc:427      1| BufferInstance::PJRT_Buffer_Destroy
[32m                 Always[0m | [1m[38;5;240m   DEBUG[0m | Tensor is retained thus not deallocating. To deallocate, set retain to false first
2025-08-11 19:25:31.225 (  48.845s) [        ABDE41C0]     buffer_instance.cc:427      1| BufferInstance::PJRT_Buffer_Destroy
[32m                 Always[0m | [1m[38;5;240m   DEBUG[0m | Tensor is retained thus not deallocating. To deallocate, set retain to false first
2025-08-11 19:25:31.225 (  48.846s) [        ABDE41C0]     buffer_instance.cc:427      1| BufferInstance::PJRT_Buffer_Destroy
[32m                 Always[0m | [1m[38;5;240m   DEBUG[0m | Tensor is retained thus not deallocating. To deallocate, set retain to false first
2025-08-11 19:25:31.225 (  48.846s) [        ABDE41C0]     buffer_instance.cc:427      1| BufferInstance::PJRT_Buffer_Destroy
[32m                 Always[0m | [1m[38;5;240m   DEBUG[0m | Tensor is retained thus not deallocating. To deallocate, set retain to false first
2025-08-11 19:25:31.225 (  48.846s) [        ABDE41C0]     buffer_instance.cc:427      1| BufferInstance::PJRT_Buffer_Destroy
[32m                 Always[0m | [1m[38;5;240m   DEBUG[0m | Tensor is retained thus not deallocating. To deallocate, set retain to false first
2025-08-11 19:25:31.225 (  48.846s) [        ABDE41C0]     buffer_instance.cc:427      1| BufferInstance::PJRT_Buffer_Destroy
[32m                 Always[0m | [1m[38;5;240m   DEBUG[0m | Tensor is retained thus not deallocating. To deallocate, set retain to false first
2025-08-11 19:25:31.283 (  48.904s) [        ABDE41C0]     buffer_instance.cc:427      1| BufferInstance::PJRT_Buffer_Destroy
[32m                 Always[0m | [1m[38;5;240m   DEBUG[0m | Tensor is retained thus not deallocating. To deallocate, set retain to false first
2025-08-11 19:25:31.283 (  48.904s) [        ABDE41C0]     buffer_instance.cc:427      1| BufferInstance::PJRT_Buffer_Destroy
[32m                 Always[0m | [1m[38;5;240m   DEBUG[0m | Tensor is retained thus not deallocating. To deallocate, set retain to false first
2025-08-11 19:25:31.283 (  48.904s) [        ABDE41C0]     buffer_instance.cc:427      1| BufferInstance::PJRT_Buffer_Destroy
[32m                 Always[0m | [1m[38;5;240m   DEBUG[0m | Tensor is retained thus not deallocating. To deallocate, set retain to false first
2025-08-11 19:25:31.284 (  48.905s) [        ABDE41C0]     buffer_instance.cc:427      1| BufferInstance::PJRT_Buffer_Destroy
[32m                 Always[0m | [1m[38;5;240m   DEBUG[0m | Tensor is retained thus not deallocating. To deallocate, set retain to false first
2025-08-11 19:25:31.284 (  48.905s) [        ABDE41C0]     buffer_instance.cc:427      1| BufferInstance::PJRT_Buffer_Destroy
[32m                 Always[0m | [1m[38;5;240m   DEBUG[0m | Tensor is retained thus not deallocating. To deallocate, set retain to false first
2025-08-11 19:25:31.365 (  48.986s) [        ABDE41C0]     buffer_instance.cc:427      1| BufferInstance::PJRT_Buffer_Destroy
[32m                 Always[0m | [1m[38;5;240m   DEBUG[0m | Tensor is retained thus not deallocating. To deallocate, set retain to false first
2025-08-11 19:25:31.365 (  48.986s) [        ABDE41C0]     buffer_instance.cc:427      1| BufferInstance::PJRT_Buffer_Destroy
[32m                 Always[0m | [1m[38;5;240m   DEBUG[0m | Tensor is retained thus not deallocating. To deallocate, set retain to false first
2025-08-11 19:25:31.365 (  48.986s) [        ABDE41C0]     buffer_instance.cc:427      1| BufferInstance::PJRT_Buffer_Destroy
[32m                 Always[0m | [1m[38;5;240m   DEBUG[0m | Tensor is retained thus not deallocating. To deallocate, set retain to false first
2025-08-11 19:25:31.365 (  48.986s) [        ABDE41C0]     buffer_instance.cc:427      1| BufferInstance::PJRT_Buffer_Destroy
[32m                 Always[0m | [1m[38;5;240m   DEBUG[0m | Tensor is retained thus not deallocating. To deallocate, set retain to false first
2025-08-11 19:25:31.365 (  48.986s) [        ABDE41C0]     buffer_instance.cc:427      1| BufferInstance::PJRT_Buffer_Destroy
[32m                 Always[0m | [1m[38;5;240m   DEBUG[0m | Tensor is retained thus not deallocating. To deallocate, set retain to false first
2025-08-11 19:25:31.365 (  48.986s) [        ABDE41C0]     buffer_instance.cc:427      1| BufferInstance::PJRT_Buffer_Destroy
[32m                 Always[0m | [1m[38;5;240m   DEBUG[0m | Tensor is retained thus not deallocating. To deallocate, set retain to false first
2025-08-11 19:25:31.365 (  48.986s) [        ABDE41C0]     buffer_instance.cc:427      1| BufferInstance::PJRT_Buffer_Destroy
[32m                 Always[0m | [1m[38;5;240m   DEBUG[0m | Tensor is retained thus not deallocating. To deallocate, set retain to false first
2025-08-11 19:25:31.366 (  48.986s) [        ABDE41C0]     buffer_instance.cc:427      1| BufferInstance::PJRT_Buffer_Destroy
[32m                 Always[0m | [1m[38;5;240m   DEBUG[0m | Tensor is retained thus not deallocating. To deallocate, set retain to false first
2025-08-11 19:25:31.366 (  48.986s) [        ABDE41C0]     buffer_instance.cc:427      1| BufferInstance::PJRT_Buffer_Destroy
[32m                 Always[0m | [1m[38;5;240m   DEBUG[0m | Tensor is retained thus not deallocating. To deallocate, set retain to false first
2025-08-11 19:25:31.427 (  49.048s) [        ABDE41C0]     buffer_instance.cc:427      1| BufferInstance::PJRT_Buffer_Destroy
[32m                 Always[0m | [1m[38;5;240m   DEBUG[0m | Tensor is retained thus not deallocating. To deallocate, set retain to false first
2025-08-11 19:25:31.431 (  49.052s) [        ABDE41C0]     buffer_instance.cc:427      1| BufferInstance::PJRT_Buffer_Destroy
[32m                 Always[0m | [1m[38;5;240m   DEBUG[0m | Tensor is retained thus not deallocating. To deallocate, set retain to false first
2025-08-11 19:25:31.435 (  49.056s) [        ABDE41C0]     buffer_instance.cc:427      1| BufferInstance::PJRT_Buffer_Destroy
[32m                 Always[0m | [1m[38;5;240m   DEBUG[0m | Tensor is retained thus not deallocating. To deallocate, set retain to false first
2025-08-11 19:25:31.439 (  49.060s) [        ABDE41C0]     buffer_instance.cc:427      1| BufferInstance::PJRT_Buffer_Destroy
[32m                 Always[0m | [1m[38;5;240m   DEBUG[0m | Tensor is retained thus not deallocating. To deallocate, set retain to false first
2025-08-11 19:25:31.440 (  49.061s) [        ABDE41C0]     buffer_instance.cc:427      1| BufferInstance::PJRT_Buffer_Destroy
[32m                 Always[0m | [1m[38;5;240m   DEBUG[0m | Tensor is retained thus not deallocating. To deallocate, set retain to false first
2025-08-11 19:25:31.440 (  49.061s) [        ABDE41C0]     buffer_instance.cc:427      1| BufferInstance::PJRT_Buffer_Destroy
[32m                 Always[0m | [1m[38;5;240m   DEBUG[0m | Tensor is retained thus not deallocating. To deallocate, set retain to false first
2025-08-11 19:25:31.440 (  49.061s) [        ABDE41C0]     buffer_instance.cc:427      1| BufferInstance::PJRT_Buffer_Destroy
[32m                 Always[0m | [1m[38;5;240m   DEBUG[0m | Tensor is retained thus not deallocating. To deallocate, set retain to false first
2025-08-11 19:25:31.440 (  49.061s) [        ABDE41C0]     buffer_instance.cc:427      1| BufferInstance::PJRT_Buffer_Destroy
[32m                 Always[0m | [1m[38;5;240m   DEBUG[0m | Tensor is retained thus not deallocating. To deallocate, set retain to false first
2025-08-11 19:25:31.444 (  49.065s) [        ABDE41C0]     buffer_instance.cc:427      1| BufferInstance::PJRT_Buffer_Destroy
[32m                 Always[0m | [1m[38;5;240m   DEBUG[0m | Tensor is retained thus not deallocating. To deallocate, set retain to false first
2025-08-11 19:25:31.449 (  49.069s) [        ABDE41C0]     buffer_instance.cc:427      1| BufferInstance::PJRT_Buffer_Destroy
[32m                 Always[0m | [1m[38;5;240m   DEBUG[0m | Tensor is retained thus not deallocating. To deallocate, set retain to false first
2025-08-11 19:25:31.453 (  49.073s) [        ABDE41C0]     buffer_instance.cc:427      1| BufferInstance::PJRT_Buffer_Destroy
[32m                 Always[0m | [1m[38;5;240m   DEBUG[0m | Tensor is retained thus not deallocating. To deallocate, set retain to false first
2025-08-11 19:25:31.453 (  49.074s) [        ABDE41C0]     buffer_instance.cc:427      1| BufferInstance::PJRT_Buffer_Destroy
[32m                 Always[0m | [1m[38;5;240m   DEBUG[0m | Tensor is retained thus not deallocating. To deallocate, set retain to false first
2025-08-11 19:25:31.453 (  49.074s) [        ABDE41C0]     buffer_instance.cc:427      1| BufferInstance::PJRT_Buffer_Destroy
[32m                 Always[0m | [1m[38;5;240m   DEBUG[0m | Tensor is retained thus not deallocating. To deallocate, set retain to false first
2025-08-11 19:25:31.453 (  49.074s) [        ABDE41C0]     buffer_instance.cc:427      1| BufferInstance::PJRT_Buffer_Destroy
[32m                 Always[0m | [1m[38;5;240m   DEBUG[0m | Tensor is retained thus not deallocating. To deallocate, set retain to false first
2025-08-11 19:25:31.453 (  49.074s) [        ABDE41C0]     buffer_instance.cc:427      1| BufferInstance::PJRT_Buffer_Destroy
[32m                 Always[0m | [1m[38;5;240m   DEBUG[0m | Tensor is retained thus not deallocating. To deallocate, set retain to false first
2025-08-11 19:25:31.499 (  49.120s) [        ABDE41C0]     buffer_instance.cc:427      1| BufferInstance::PJRT_Buffer_Destroy
[32m                 Always[0m | [1m[38;5;240m   DEBUG[0m | Tensor is retained thus not deallocating. To deallocate, set retain to false first
2025-08-11 19:25:31.502 (  49.123s) [        ABDE41C0]     buffer_instance.cc:427      1| BufferInstance::PJRT_Buffer_Destroy
[32m                 Always[0m | [1m[38;5;240m   DEBUG[0m | Tensor is retained thus not deallocating. To deallocate, set retain to false first
2025-08-11 19:25:31.506 (  49.127s) [        ABDE41C0]     buffer_instance.cc:427      1| BufferInstance::PJRT_Buffer_Destroy
[32m                 Always[0m | [1m[38;5;240m   DEBUG[0m | Tensor is retained thus not deallocating. To deallocate, set retain to false first
2025-08-11 19:25:31.509 (  49.130s) [        ABDE41C0]     buffer_instance.cc:427      1| BufferInstance::PJRT_Buffer_Destroy
[32m                 Always[0m | [1m[38;5;240m   DEBUG[0m | Tensor is retained thus not deallocating. To deallocate, set retain to false first
2025-08-11 19:25:31.509 (  49.130s) [        ABDE41C0]     buffer_instance.cc:427      1| BufferInstance::PJRT_Buffer_Destroy
[32m                 Always[0m | [1m[38;5;240m   DEBUG[0m | Tensor is retained thus not deallocating. To deallocate, set retain to false first
2025-08-11 19:25:31.509 (  49.130s) [        ABDE41C0]     buffer_instance.cc:427      1| BufferInstance::PJRT_Buffer_Destroy
[32m                 Always[0m | [1m[38;5;240m   DEBUG[0m | Tensor is retained thus not deallocating. To deallocate, set retain to false first
2025-08-11 19:25:31.509 (  49.130s) [        ABDE41C0]     buffer_instance.cc:427      1| BufferInstance::PJRT_Buffer_Destroy
[32m                 Always[0m | [1m[38;5;240m   DEBUG[0m | Tensor is retained thus not deallocating. To deallocate, set retain to false first
2025-08-11 19:25:31.510 (  49.130s) [        ABDE41C0]     buffer_instance.cc:427      1| BufferInstance::PJRT_Buffer_Destroy
[32m                 Always[0m | [1m[38;5;240m   DEBUG[0m | Tensor is retained thus not deallocating. To deallocate, set retain to false first
2025-08-11 19:25:31.513 (  49.133s) [        ABDE41C0]     buffer_instance.cc:427      1| BufferInstance::PJRT_Buffer_Destroy
[32m                 Always[0m | [1m[38;5;240m   DEBUG[0m | Tensor is retained thus not deallocating. To deallocate, set retain to false first
2025-08-11 19:25:31.516 (  49.137s) [        ABDE41C0]     buffer_instance.cc:427      1| BufferInstance::PJRT_Buffer_Destroy
[32m                 Always[0m | [1m[38;5;240m   DEBUG[0m | Tensor is retained thus not deallocating. To deallocate, set retain to false first
2025-08-11 19:25:31.520 (  49.141s) [        ABDE41C0]     buffer_instance.cc:427      1| BufferInstance::PJRT_Buffer_Destroy
[32m                 Always[0m | [1m[38;5;240m   DEBUG[0m | Tensor is retained thus not deallocating. To deallocate, set retain to false first
2025-08-11 19:25:31.520 (  49.141s) [        ABDE41C0]     buffer_instance.cc:427      1| BufferInstance::PJRT_Buffer_Destroy
[32m                 Always[0m | [1m[38;5;240m   DEBUG[0m | Tensor is retained thus not deallocating. To deallocate, set retain to false first
2025-08-11 19:25:31.520 (  49.141s) [        ABDE41C0]     buffer_instance.cc:427      1| BufferInstance::PJRT_Buffer_Destroy
[32m                 Always[0m | [1m[38;5;240m   DEBUG[0m | Tensor is retained thus not deallocating. To deallocate, set retain to false first
2025-08-11 19:25:31.520 (  49.141s) [        ABDE41C0]     buffer_instance.cc:427      1| BufferInstance::PJRT_Buffer_Destroy
[32m                 Always[0m | [1m[38;5;240m   DEBUG[0m | Tensor is retained thus not deallocating. To deallocate, set retain to false first
2025-08-11 19:25:31.520 (  49.141s) [        ABDE41C0]     buffer_instance.cc:427      1| BufferInstance::PJRT_Buffer_Destroy
[32m                 Always[0m | [1m[38;5;240m   DEBUG[0m | Tensor is retained thus not deallocating. To deallocate, set retain to false first
2025-08-11 19:25:31.521 (  49.141s) [        ABDE41C0]     buffer_instance.cc:427      1| BufferInstance::PJRT_Buffer_Destroy
[32m                 Always[0m | [1m[38;5;240m   DEBUG[0m | Tensor is retained thus not deallocating. To deallocate, set retain to false first
2025-08-11 19:25:31.567 (  49.188s) [        ABDE41C0]     buffer_instance.cc:427      1| BufferInstance::PJRT_Buffer_Destroy
[32m                 Always[0m | [1m[38;5;240m   DEBUG[0m | Tensor is retained thus not deallocating. To deallocate, set retain to false first
2025-08-11 19:25:31.567 (  49.188s) [        ABDE41C0]     buffer_instance.cc:427      1| BufferInstance::PJRT_Buffer_Destroy
[32m                 Always[0m | [1m[38;5;240m   DEBUG[0m | Tensor is retained thus not deallocating. To deallocate, set retain to false first
2025-08-11 19:25:31.567 (  49.188s) [        ABDE41C0]     buffer_instance.cc:427      1| BufferInstance::PJRT_Buffer_Destroy
[32m                 Always[0m | [1m[38;5;240m   DEBUG[0m | Tensor is retained thus not deallocating. To deallocate, set retain to false first
2025-08-11 19:25:31.567 (  49.188s) [        ABDE41C0]     buffer_instance.cc:427      1| BufferInstance::PJRT_Buffer_Destroy
[32m                 Always[0m | [1m[38;5;240m   DEBUG[0m | Tensor is retained thus not deallocating. To deallocate, set retain to false first
2025-08-11 19:25:31.567 (  49.188s) [        ABDE41C0]     buffer_instance.cc:427      1| BufferInstance::PJRT_Buffer_Destroy
[32m                 Always[0m | [1m[38;5;240m   DEBUG[0m | Tensor is retained thus not deallocating. To deallocate, set retain to false first

================================================================================
GENERATION SUMMARY
================================================================================
Initial prompt: '<|begin_of_text|>I like taking walks in the'
Generated text: '<|begin_of_text|>I like taking walks in thealinkalinkalinkalinkalinkalinkalinkalink'

Model loading time: 0.850s
Total generation time: 50.619s
Tokens generated: 8
Average tokens/second: 0.16

PREFILL (first token):
  Time: 39.969s

DECODE (subsequent tokens):
  Count: 7
  Average time: 1.521s
  Min time: 0.410s
  Max time: 8.159s
  Average tokens/second: 0.66

DETAILED TIMING (all iterations):
Iter | Phase   | Total   | Token
--------------------------------------------------
   0 | prefill | 39.969s | 'alink'
   1 | decode  |  8.159s | 'alink'
   2 | decode  |  0.426s | 'alink'
   3 | decode  |  0.410s | 'alink'
   4 | decode  |  0.414s | 'alink'
   5 | decode  |  0.412s | 'alink'
   6 | decode  |  0.414s | 'alink'
   7 | decode  |  0.414s | 'alink'
PASSED

=============================== warnings summary ===============================
tests/models/llama/test_llama3_generative.py::test_llama3_generate
tests/models/llama/test_llama3_generative.py::test_llama3_generate
  /localdev/jameszianxu/gen_mc/tt-torch/env/venv/lib/python3.10/site-packages/torch/fx/experimental/const_fold.py:264: UserWarning: Attempted to insert a get_attr Node with no underlying reference in the owning GraphModule! Call GraphModule.add_submodule to add the necessary submodule, GraphModule.add_parameter to add the necessary Parameter, or nn.Module.register_buffer to add the necessary buffer
    new_node = root_const_gm.graph.get_attr(in_node.target)

tests/models/llama/test_llama3_generative.py::test_llama3_generate
tests/models/llama/test_llama3_generative.py::test_llama3_generate
  /localdev/jameszianxu/gen_mc/tt-torch/env/venv/lib/python3.10/site-packages/torch/fx/graph.py:1316: UserWarning: Failed to fetch module L__self___model_layers__modules__0___self_attn_q_proj!
    warnings.warn(f"Failed to fetch module {module_path}!")

tests/models/llama/test_llama3_generative.py::test_llama3_generate
tests/models/llama/test_llama3_generative.py::test_llama3_generate
  /localdev/jameszianxu/gen_mc/tt-torch/env/venv/lib/python3.10/site-packages/torch/fx/graph.py:1316: UserWarning: Failed to fetch module L__self___model_layers__modules__0___self_attn_k_proj!
    warnings.warn(f"Failed to fetch module {module_path}!")

tests/models/llama/test_llama3_generative.py::test_llama3_generate
tests/models/llama/test_llama3_generative.py::test_llama3_generate
  /localdev/jameszianxu/gen_mc/tt-torch/env/venv/lib/python3.10/site-packages/torch/fx/graph.py:1316: UserWarning: Failed to fetch module L__self___model_layers__modules__0___self_attn_v_proj!
    warnings.warn(f"Failed to fetch module {module_path}!")

tests/models/llama/test_llama3_generative.py::test_llama3_generate
tests/models/llama/test_llama3_generative.py::test_llama3_generate
  /localdev/jameszianxu/gen_mc/tt-torch/env/venv/lib/python3.10/site-packages/torch/fx/graph.py:1316: UserWarning: Failed to fetch module L__self___model_layers__modules__0___self_attn_o_proj!
    warnings.warn(f"Failed to fetch module {module_path}!")

tests/models/llama/test_llama3_generative.py::test_llama3_generate
tests/models/llama/test_llama3_generative.py::test_llama3_generate
  /localdev/jameszianxu/gen_mc/tt-torch/env/venv/lib/python3.10/site-packages/torch/fx/graph.py:1316: UserWarning: Failed to fetch module L__self___model_layers__modules__0___mlp_gate_proj!
    warnings.warn(f"Failed to fetch module {module_path}!")

tests/models/llama/test_llama3_generative.py::test_llama3_generate
tests/models/llama/test_llama3_generative.py::test_llama3_generate
  /localdev/jameszianxu/gen_mc/tt-torch/env/venv/lib/python3.10/site-packages/torch/fx/graph.py:1316: UserWarning: Failed to fetch module L__self___model_layers__modules__0___mlp_up_proj!
    warnings.warn(f"Failed to fetch module {module_path}!")

tests/models/llama/test_llama3_generative.py::test_llama3_generate
tests/models/llama/test_llama3_generative.py::test_llama3_generate
  /localdev/jameszianxu/gen_mc/tt-torch/env/venv/lib/python3.10/site-packages/torch/fx/graph.py:1316: UserWarning: Failed to fetch module L__self___model_layers__modules__0___mlp_down_proj!
    warnings.warn(f"Failed to fetch module {module_path}!")

tests/models/llama/test_llama3_generative.py::test_llama3_generate
tests/models/llama/test_llama3_generative.py::test_llama3_generate
  /localdev/jameszianxu/gen_mc/tt-torch/env/venv/lib/python3.10/site-packages/torch/fx/graph.py:1316: UserWarning: Failed to fetch module L__self___model_layers__modules__1___self_attn_q_proj!
    warnings.warn(f"Failed to fetch module {module_path}!")

tests/models/llama/test_llama3_generative.py::test_llama3_generate
tests/models/llama/test_llama3_generative.py::test_llama3_generate
  /localdev/jameszianxu/gen_mc/tt-torch/env/venv/lib/python3.10/site-packages/torch/fx/graph.py:1316: UserWarning: Failed to fetch module L__self___model_layers__modules__1___self_attn_k_proj!
    warnings.warn(f"Failed to fetch module {module_path}!")

tests/models/llama/test_llama3_generative.py::test_llama3_generate
tests/models/llama/test_llama3_generative.py::test_llama3_generate
  /localdev/jameszianxu/gen_mc/tt-torch/env/venv/lib/python3.10/site-packages/torch/fx/graph.py:1316: UserWarning: Failed to fetch module L__self___model_layers__modules__1___self_attn_v_proj!
    warnings.warn(f"Failed to fetch module {module_path}!")

tests/models/llama/test_llama3_generative.py::test_llama3_generate
tests/models/llama/test_llama3_generative.py::test_llama3_generate
  /localdev/jameszianxu/gen_mc/tt-torch/env/venv/lib/python3.10/site-packages/torch/fx/graph.py:1316: UserWarning: Failed to fetch module L__self___model_layers__modules__1___self_attn_o_proj!
    warnings.warn(f"Failed to fetch module {module_path}!")

tests/models/llama/test_llama3_generative.py::test_llama3_generate
tests/models/llama/test_llama3_generative.py::test_llama3_generate
  /localdev/jameszianxu/gen_mc/tt-torch/env/venv/lib/python3.10/site-packages/torch/fx/graph.py:1316: UserWarning: Failed to fetch module L__self___model_layers__modules__1___mlp_gate_proj!
    warnings.warn(f"Failed to fetch module {module_path}!")

tests/models/llama/test_llama3_generative.py::test_llama3_generate
tests/models/llama/test_llama3_generative.py::test_llama3_generate
  /localdev/jameszianxu/gen_mc/tt-torch/env/venv/lib/python3.10/site-packages/torch/fx/graph.py:1316: UserWarning: Failed to fetch module L__self___model_layers__modules__1___mlp_up_proj!
    warnings.warn(f"Failed to fetch module {module_path}!")

tests/models/llama/test_llama3_generative.py::test_llama3_generate
tests/models/llama/test_llama3_generative.py::test_llama3_generate
  /localdev/jameszianxu/gen_mc/tt-torch/env/venv/lib/python3.10/site-packages/torch/fx/graph.py:1316: UserWarning: Failed to fetch module L__self___model_layers__modules__1___mlp_down_proj!
    warnings.warn(f"Failed to fetch module {module_path}!")

tests/models/llama/test_llama3_generative.py::test_llama3_generate
tests/models/llama/test_llama3_generative.py::test_llama3_generate
  /localdev/jameszianxu/gen_mc/tt-torch/env/venv/lib/python3.10/site-packages/torch/fx/graph.py:1316: UserWarning: Failed to fetch module L__self___lm_head!
    warnings.warn(f"Failed to fetch module {module_path}!")

tests/models/llama/test_llama3_generative.py::test_llama3_generate
tests/models/llama/test_llama3_generative.py::test_llama3_generate
tests/models/llama/test_llama3_generative.py::test_llama3_generate
tests/models/llama/test_llama3_generative.py::test_llama3_generate
tests/models/llama/test_llama3_generative.py::test_llama3_generate
tests/models/llama/test_llama3_generative.py::test_llama3_generate
tests/models/llama/test_llama3_generative.py::test_llama3_generate
tests/models/llama/test_llama3_generative.py::test_llama3_generate
  /localdev/jameszianxu/gen_mc/tt-torch/tt_torch/dynamo/experimental/xla_backend.py:761: DeprecationWarning: Use torch_xla.sync instead
    xm.mark_step() # explicit compile step

-- Docs: https://docs.pytest.org/en/stable/how-to/capture-warnings.html
======================= 1 passed, 40 warnings in 54.80s ========================
2025-08-11 19:25:34.299 (  51.920s) [        ABDE41C0]  device_description.cc:44       1| DeviceDescription::PJRT_DeviceDescription_Id
2025-08-11 19:25:34.300 (  51.920s) [        ABDE41C0]  device_description.cc:44       1| DeviceDescription::PJRT_DeviceDescription_Id
2025-08-11 19:25:34.300 (  51.920s) [        ABDE41C0]  device_description.cc:44       1| DeviceDescription::PJRT_DeviceDescription_Id
2025-08-11 19:25:34.300 (  51.920s) [        ABDE41C0]  device_description.cc:44       1| DeviceDescription::PJRT_DeviceDescription_Id
