2026-04-27 18:37:01.575 | INFO     | pjrt_plugin_tt:setup_tt_pjrt_plugin_dir:42 - Using PJRT plugin directory: /localdev/jameszianxu/clean/tt-xla/python_package/pjrt_plugin_tt
2026-04-27 18:37:01.575 | INFO     | pjrt_plugin_tt:setup_tt_metal_home:103 - Using TT-Metal from the source tree: /localdev/jameszianxu/clean/tt-xla/third_party/tt-mlir/src/tt-mlir/third_party/tt-metal/src/tt-metal
2026-04-27 18:37:01.575 | WARNING  | torch_plugin_tt:__init__:38 - TT plugin is setting XLA_STABLEHLO_COMPILE to 1. This is required for TT PJRT plugin to work correctly.
============================= test session starts ==============================
platform linux -- Python 3.12.13, pytest-9.0.3, pluggy-1.6.0 -- /localdev/jameszianxu/clean/tt-xla/venv/bin/python
cachedir: .pytest_cache
metadata: {'Python': '3.12.13', 'Platform': 'Linux-6.8.0-87-generic-x86_64-with-glibc2.39', 'Packages': {'pytest': '9.0.3', 'pluggy': '1.6.0'}, 'Plugins': {'forked': '1.6.0', 'metadata': '3.1.1', 'anyio': '4.13.0', 'jaxtyping': '0.3.9', 'split': '0.11.0', 'json-report': '1.5.0'}}
rootdir: /localdev/jameszianxu/clean/tt-xla
configfile: pytest.ini
plugins: forked-1.6.0, metadata-3.1.1, anyio-4.13.0, jaxtyping-0.3.9, split-0.11.0, json-report-1.5.0
collecting ... collected 1 item

tests/torch/models/deepseek_v4/test_deepseek_v4_single_device.py::test_attention_prefill_tt_only_cache_debug [32m                 Always[0m | [1m[38;5;240m   DEBUG[0m | Device grid size = { 8, 8 }
[32m                 Always[0m | [1m[38;5;240m   DEBUG[0m | Device grid size = { 8, 8 }
2026-04-27 18:37:03.738610: W torch_xla/csrc/runtime/profiler.cpp:88] Profiler API not found for PJRT plugin
2026-04-27 18:37:05.594 | DEBUG    | tt_torch.backend.passes:_validate_demangling:463 - Failed to demangle 2 argument name(s): ['attn_sink', 'freqs_cis']
[32m                 Always[0m | [1m[38;5;240m   DEBUG[0m | User provided a tensor of data type: Bool which is not supported by runtime/ttnn. Casting to: BFloat16, this may impact throughput and the integrity of the data.
2026-04-27 18:37:08.561412: W torch_xla/csrc/runtime/pjrt_computation_client.cpp:703] Failed to deserialize executable: UNIMPLEMENTED: Deserializing serialized executable not supported.
2026-04-27 18:37:08.574 (   5.165s) [        CBBAC740]      module_builder.cc:1220     1| MLIR Module vhlo:
#loc1 = loc("p0.1")
#loc2 = loc("p1.5")
#loc3 = loc("p2.7")
#loc4 = loc("p3.14")
#loc5 = loc("p4.71")
#loc40 = loc("reduce.96")
module @SyncTensorsGraph.116 attributes {mhlo.cross_program_prefetches = [], mhlo.input_output_alias = [], mhlo.is_dynamic = false, mhlo.use_auto_spmd_partitioning = false} {
  vhlo.func_v1 @main(%arg0: !vhlo.tensor_v1<32x!vhlo.f32_v1> loc("p0.1"), %arg1: !vhlo.tensor_v1<32x8x2x!vhlo.f32_v1> loc("p1.5"), %arg2: !vhlo.tensor_v1<1x4x128x!vhlo.bf16_v1> loc("p2.7"), %arg3: !vhlo.tensor_v1<!vhlo.bool_v1> loc("p3.14"), %arg4: !vhlo.tensor_v1<32x128x!vhlo.bf16_v1> loc("p4.71")) -> (!vhlo.tensor_v1<1x1x32x!vhlo.f32_v1>, !vhlo.tensor_v1<32x!vhlo.f32_v1>, !vhlo.tensor_v1<32x8x2x!vhlo.f32_v1>, !vhlo.tensor_v1<1x4x128x!vhlo.bf16_v1>, !vhlo.tensor_v1<4x8x2x!vhlo.f32_v1>, !vhlo.tensor_v1<32x!vhlo.bool_v1>, !vhlo.tensor_v1<8x!vhlo.bool_v1>, !vhlo.tensor_v1<4x128x!vhlo.bf16_v1>, !vhlo.tensor_v1<1x4x8x2x!vhlo.f32_v1>, !vhlo.tensor_v1<32x!vhlo.i64_v1>, !vhlo.tensor_v1<1x1x32x!vhlo.bool_v1>, !vhlo.tensor_v1<8x!vhlo.i64_v1>, !vhlo.tensor_v1<1x8x1x!vhlo.bool_v1>, !vhlo.tensor_v1<1x4x32x!vhlo.f32_v1>, !vhlo.tensor_v1<1x4x8x!vhlo.f32_v1>, !vhlo.tensor_v1<1x4x8x!vhlo.f32_v1>, !vhlo.tensor_v1<1x1x32x!vhlo.bool_v1>, !vhlo.tensor_v1<1x8x1x!vhlo.bool_v1>, !vhlo.tensor_v1<1x4x1x!vhlo.f32_v1>, !vhlo.tensor_v1<1x4x32x!vhlo.f32_v1>) {
    %0 = "vhlo.constant_v1"() <{value = #vhlo.tensor_v1<dense<9.99999997E-7> : tensor<1x4x1xf32>>}> : () -> !vhlo.tensor_v1<1x4x1x!vhlo.f32_v1> loc(#loc)
    %1 = "vhlo.constant_v1"() <{value = #vhlo.tensor_v1<dense<3.125000e-02> : tensor<1x4xf32>>}> : () -> !vhlo.tensor_v1<1x4x!vhlo.f32_v1> loc(#loc)
    %2 = "vhlo.constant_v1"() <{value = #vhlo.tensor_v1<dense<2.000000e+00> : tensor<1x4x32xf32>>}> : () -> !vhlo.tensor_v1<1x4x32x!vhlo.f32_v1> loc(#loc)
    %3 = "vhlo.constant_v1"() <{value = #vhlo.tensor_v1<dense<3> : tensor<8xi64>>}> : () -> !vhlo.tensor_v1<8x!vhlo.i64_v1> loc(#loc)
    %4 = "vhlo.constant_v1"() <{value = #vhlo.tensor_v1<dense<[0.000000e+00, 1.000000e+00, 2.000000e+00, 3.000000e+00, 4.000000e+00, 5.000000e+00, 6.000000e+00, 7.000000e+00]> : tensor<8xf32>>}> : () -> !vhlo.tensor_v1<8x!vhlo.f32_v1> loc(#loc)
    %5 = "vhlo.constant_v1"() <{value = #vhlo.tensor_v1<dense<0> : tensor<8xi64>>}> : () -> !vhlo.tensor_v1<8x!vhlo.i64_v1> loc(#loc)
    %6 = "vhlo.constant_v1"() <{value = #vhlo.tensor_v1<dense<15> : tensor<32xi64>>}> : () -> !vhlo.tensor_v1<32x!vhlo.i64_v1> loc(#loc)
    %7 = "vhlo.constant_v1"() <{value = #vhlo.tensor_v1<dense<[… > : tensor<32xf32>>}> : () -> !vhlo.tensor_v1<32x!vhlo.f32_v1> loc(#loc)
    %8 = "vhlo.constant_v1"() <{value = #vhlo.tensor_v1<dense<0> : tensor<32xi64>>}> : () -> !vhlo.tensor_v1<32x!vhlo.i64_v1> loc(#loc)
    %9 = "vhlo.constant_v1"() <{value = #vhlo.tensor_v1<dense<[true, true, true, true, false, false, false, false]> : tensor<8xi1>>}> : () -> !vhlo.tensor_v1<8x!vhlo.bool_v1> loc(#loc)
    %10 = "vhlo.constant_v1"() <{value = #vhlo.tensor_v1<dense<[false, false, false, false, false, false, false, false, false, false, false, false, false, false, false, false, true, true, true, true, true, true, true, true, true, true, true, true, true, true, true, true]> : tensor<32xi1>>}> : () -> !vhlo.tensor_v1<32x!vhlo.bool_v1> loc(#loc)
    %11 = "vhlo.constant_v1"() <{value = #vhlo.tensor_v1<dense<0.000000e+00> : tensor<f32>>}> : () -> !vhlo.tensor_v1<!vhlo.f32_v1> loc(#loc)
    %12 = "vhlo.reshape_v1"(%arg0) : (!vhlo.tensor_v1<32x!vhlo.f32_v1>) -> !vhlo.tensor_v1<1x1x32x!vhlo.f32_v1> loc(#loc6)
    %13 = "vhlo.custom_call_v1"(%12) <{api_version = #vhlo<api_version_v1 API_VERSION_UNSPECIFIED>, backend_config = #vhlo.string_v1<"">, call_target_name = #vhlo.string_v1<"tt.mark_argument">, called_computations = #vhlo.array_v1<[]>, has_side_effect = #vhlo.bool_v1<false>, operand_layouts = #vhlo.array_v1<[]>, output_operand_aliases = #vhlo.array_v1<[]>, result_layouts = #vhlo.array_v1<[]>}> {mhlo.frontend_attributes = #vhlo.dict_v1<{#vhlo.string_v1<"ttcore.argument_type"> = #vhlo.string_v1<"parameter">, #vhlo.string_v1<"ttir.name"> = #vhlo.string_v1<"kv_norm.weight">}>} : (!vhlo.tensor_v1<1x1x32x!vhlo.f32_v1>) -> !vhlo.tensor_v1<1x1x32x!vhlo.f32_v1> loc(#loc7)
    %14 = "vhlo.reshape_v1"(%13) : (!vhlo.tensor_v1<1x1x32x!vhlo.f32_v1>) -> !vhlo.tensor_v1<32x!vhlo.f32_v1> loc(#loc8)
    %15 = "vhlo.custom_call_v1"(%arg1) <{api_version = #vhlo<api_version_v1 API_VERSION_UNSPECIFIED>, backend_config = #vhlo.string_v1<"">, call_target_name = #vhlo.string_v1<"tt.mark_argument">, called_computations = #vhlo.array_v1<[]>, has_side_effect = #vhlo.bool_v1<false>, operand_layouts = #vhlo.array_v1<[]>, output_operand_aliases = #vhlo.array_v1<[]>, result_layouts = #vhlo.array_v1<[]>}> {mhlo.frontend_attributes = #vhlo.dict_v1<{#vhlo.string_v1<"ttcore.argument_type"> = #vhlo.string_v1<"constant">, #vhlo.string_v1<"ttir.name"> = #vhlo.string_v1<"freqs_cis">}>} : (!vhlo.tensor_v1<32x8x2x!vhlo.f32_v1>) -> !vhlo.tensor_v1<32x8x2x!vhlo.f32_v1> loc(#loc9)
    %16 = "vhlo.custom_call_v1"(%arg2) <{api_version = #vhlo<api_version_v1 API_VERSION_UNSPECIFIED>, backend_config = #vhlo.string_v1<"">, call_target_name = #vhlo.string_v1<"tt.mark_argument">, called_computations = #vhlo.array_v1<[]>, has_side_effect = #vhlo.bool_v1<false>, operand_layouts = #vhlo.array_v1<[]>, output_operand_aliases = #vhlo.array_v1<[]>, result_layouts = #vhlo.array_v1<[]>}> {mhlo.frontend_attributes = #vhlo.dict_v1<{#vhlo.string_v1<"ttcore.argument_type"> = #vhlo.string_v1<"input">, #vhlo.string_v1<"ttir.name"> = #vhlo.string_v1<"args_0">}>} : (!vhlo.tensor_v1<1x4x128x!vhlo.bf16_v1>) -> !vhlo.tensor_v1<1x4x128x!vhlo.bf16_v1> loc(#loc10)
    %17 = "vhlo.slice_v1"(%15) <{limit_indices = #vhlo.tensor_v1<dense<[4, 8, 2]> : tensor<3xi64>>, start_indices = #vhlo.tensor_v1<dense<0> : tensor<3xi64>>, strides = #vhlo.tensor_v1<dense<1> : tensor<3xi64>>}> : (!vhlo.tensor_v1<32x8x2x!vhlo.f32_v1>) -> !vhlo.tensor_v1<4x8x2x!vhlo.f32_v1> loc(#loc11)
    %18 = "vhlo.broadcast_in_dim_v1"(%arg3) <{broadcast_dimensions = #vhlo.tensor_v1<dense<> : tensor<0xi64>>}> : (!vhlo.tensor_v1<!vhlo.bool_v1>) -> !vhlo.tensor_v1<32x!vhlo.bool_v1> loc(#loc12)
    %19 = "vhlo.and_v1"(%18, %10) : (!vhlo.tensor_v1<32x!vhlo.bool_v1>, !vhlo.tensor_v1<32x!vhlo.bool_v1>) -> !vhlo.tensor_v1<32x!vhlo.bool_v1> loc(#loc13)
    %20 = "vhlo.broadcast_in_dim_v1"(%arg3) <{broadcast_dimensions = #vhlo.tensor_v1<dense<> : tensor<0xi64>>}> : (!vhlo.tensor_v1<!vhlo.bool_v1>) -> !vhlo.tensor_v1<8x!vhlo.bool_v1> loc(#loc14)
    %21 = "vhlo.and_v1"(%20, %9) : (!vhlo.tensor_v1<8x!vhlo.bool_v1>, !vhlo.tensor_v1<8x!vhlo.bool_v1>) -> !vhlo.tensor_v1<8x!vhlo.bool_v1> loc(#loc15)
    %22 = "vhlo.reshape_v1"(%16) : (!vhlo.tensor_v1<1x4x128x!vhlo.bf16_v1>) -> !vhlo.tensor_v1<4x128x!vhlo.bf16_v1> loc(#loc16)
    %23 = "vhlo.reshape_v1"(%17) : (!vhlo.tensor_v1<4x8x2x!vhlo.f32_v1>) -> !vhlo.tensor_v1<1x4x8x2x!vhlo.f32_v1> loc(#loc17)
    %24 = "vhlo.floor_v1"(%7) : (!vhlo.tensor_v1<32x!vhlo.f32_v1>) -> !vhlo.tensor_v1<32x!vhlo.f32_v1> loc(#loc18)
    %25 = "vhlo.convert_v1"(%24) : (!vhlo.tensor_v1<32x!vhlo.f32_v1>) -> !vhlo.tensor_v1<32x!vhlo.i64_v1> loc(#loc19)
    %26 = "vhlo.clamp_v1"(%8, %25, %6) : (!vhlo.tensor_v1<32x!vhlo.i64_v1>, !vhlo.tensor_v1<32x!vhlo.i64_v1>, !vhlo.tensor_v1<32x!vhlo.i64_v1>) -> !vhlo.tensor_v1<32x!vhlo.i64_v1> loc(#loc20)
    %27 = "vhlo.reshape_v1"(%19) : (!vhlo.tensor_v1<32x!vhlo.bool_v1>) -> !vhlo.tensor_v1<1x1x32x!vhlo.bool_v1> loc(#loc21)
    %28 = "vhlo.floor_v1"(%4) : (!vhlo.tensor_v1<8x!vhlo.f32_v1>) -> !vhlo.tensor_v1<8x!vhlo.f32_v1> loc(#loc22)
    %29 = "vhlo.convert_v1"(%28) : (!vhlo.tensor_v1<8x!vhlo.f32_v1>) -> !vhlo.tensor_v1<8x!vhlo.i64_v1> loc(#loc23)
    %30 = "vhlo.clamp_v1"(%5, %29, %3) : (!vhlo.tensor_v1<8x!vhlo.i64_v1>, !vhlo.tensor_v1<8x!vhlo.i64_v1>, !vhlo.tensor_v1<8x!vhlo.i64_v1>) -> !vhlo.tensor_v1<8x!vhlo.i64_v1> loc(#loc24)
    %31 = "vhlo.reshape_v1"(%21) : (!vhlo.tensor_v1<8x!vhlo.bool_v1>) -> !vhlo.tensor_v1<1x8x1x!vhlo.bool_v1> loc(#loc25)
    %32 = "vhlo.reshape_v1"(%arg4) : (!vhlo.tensor_v1<32x128x!vhlo.bf16_v1>) -> !vhlo.tensor_v1<1x32x128x!vhlo.bf16_v1> loc(#loc26)
    %33 = "vhlo.custom_call_v1"(%32) <{api_version = #vhlo<api_version_v1 API_VERSION_UNSPECIFIED>, backend_config = #vhlo.string_v1<"">, call_target_name = #vhlo.string_v1<"tt.mark_argument">, called_computations = #vhlo.array_v1<[]>, has_side_effect = #vhlo.bool_v1<false>, operand_layouts = #vhlo.array_v1<[]>, output_operand_aliases = #vhlo.array_v1<[]>, result_layouts = #vhlo.array_v1<[]>}> {mhlo.frontend_attributes = #vhlo.dict_v1<{#vhlo.string_v1<"ttcore.argument_type"> = #vhlo.string_v1<"parameter">, #vhlo.string_v1<"ttir.name"> = #vhlo.string_v1<"wkv.weight">}>} : (!vhlo.tensor_v1<1x32x128x!vhlo.bf16_v1>) -> !vhlo.tensor_v1<1x32x128x!vhlo.bf16_v1> loc(#loc27)
    %34 = "vhlo.reshape_v1"(%33) : (!vhlo.tensor_v1<1x32x128x!vhlo.bf16_v1>) -> !vhlo.tensor_v1<32x128x!vhlo.bf16_v1> loc(#loc28)
    %35 = "vhlo.transpose_v1"(%34) <{permutation = #vhlo.tensor_v1<dense<[1, 0]> : tensor<2xi64>>}> {result_layout = #vhlo.tensor_v1<dense<[0, 1]> : tensor<2xindex>>, xla_shape = #vhlo.string_v1<"bf16[128,32]{0,1}">} : (!vhlo.tensor_v1<32x128x!vhlo.bf16_v1>) -> !vhlo.tensor_v1<128x32x!vhlo.bf16_v1> loc(#loc29)
    %36 = "vhlo.dot_general_v2"(%22, %35) <{accumulation_type = #vhlo.type_v1<!vhlo.none_v1>, allow_imprecise_accumulation = #vhlo.type_v1<!vhlo.none_v1>, lhs_batching_dimensions = #vhlo.tensor_v1<dense<> : tensor<0xi64>>, lhs_component_count = #vhlo.type_v1<!vhlo.none_v1>, lhs_contracting_dimensions = #vhlo.tensor_v1<dense<1> : tensor<1xi64>>, lhs_precision_type = #vhlo.type_v1<!vhlo.none_v1>, num_primitive_operations = #vhlo.type_v1<!vhlo.none_v1>, precision_config = #vhlo.array_v1<[#vhlo<precision_v1 DEFAULT>, #vhlo<precision_v1 DEFAULT>]>, rhs_batching_dimensions = #vhlo.tensor_v1<dense<> : tensor<0xi64>>, rhs_component_count = #vhlo.type_v1<!vhlo.none_v1>, rhs_contracting_dimensions = #vhlo.tensor_v1<dense<0> : tensor<1xi64>>, rhs_precision_type = #vhlo.type_v1<!vhlo.none_v1>}> : (!vhlo.tensor_v1<4x128x!vhlo.bf16_v1>, !vhlo.tensor_v1<128x32x!vhlo.bf16_v1>) -> !vhlo.tensor_v1<4x32x!vhlo.bf16_v1> loc(#loc30)
    %37 = "vhlo.reshape_v1"(%36) : (!vhlo.tensor_v1<4x32x!vhlo.bf16_v1>) -> !vhlo.tensor_v1<1x4x32x!vhlo.bf16_v1> loc(#loc31)
    %38 = "vhlo.convert_v1"(%37) : (!vhlo.tensor_v1<1x4x32x!vhlo.bf16_v1>) -> !vhlo.tensor_v1<1x4x32x!vhlo.f32_v1> loc(#loc32)
    %39 = "vhlo.slice_v1"(%23) <{limit_indices = #vhlo.tensor_v1<dense<[1, 4, 8, 1]> : tensor<4xi64>>, start_indices = #vhlo.tensor_v1<dense<0> : tensor<4xi64>>, strides = #vhlo.tensor_v1<dense<1> : tensor<4xi64>>}> : (!vhlo.tensor_v1<1x4x8x2x!vhlo.f32_v1>) -> !vhlo.tensor_v1<1x4x8x1x!vhlo.f32_v1> loc(#loc33)
    %40 = "vhlo.reshape_v1"(%39) : (!vhlo.tensor_v1<1x4x8x1x!vhlo.f32_v1>) -> !vhlo.tensor_v1<1x4x8x!vhlo.f32_v1> loc(#loc34)
    %41 = "vhlo.slice_v1"(%23) <{limit_indices = #vhlo.tensor_v1<dense<[1, 4, 8, 2]> : tensor<4xi64>>, start_indices = #vhlo.tensor_v1<dense<[0, 0, 0, 1]> : tensor<4xi64>>, strides = #vhlo.tensor_v1<dense<1> : tensor<4xi64>>}> : (!vhlo.tensor_v1<1x4x8x2x!vhlo.f32_v1>) -> !vhlo.tensor_v1<1x4x8x1x!vhlo.f32_v1> loc(#loc35)
    %42 = "vhlo.reshape_v1"(%41) : (!vhlo.tensor_v1<1x4x8x1x!vhlo.f32_v1>) -> !vhlo.tensor_v1<1x4x8x!vhlo.f32_v1> loc(#loc36)
    %43 = "vhlo.not_v1"(%27) : (!vhlo.tensor_v1<1x1x32x!vhlo.bool_v1>) -> !vhlo.tensor_v1<1x1x32x!vhlo.bool_v1> loc(#loc37)
    %44 = "vhlo.not_v1"(%31) : (!vhlo.tensor_v1<1x8x1x!vhlo.bool_v1>) -> !vhlo.tensor_v1<1x8x1x!vhlo.bool_v1> loc(#loc38)
    %45 = "vhlo.power_v1"(%38, %2) : (!vhlo.tensor_v1<1x4x32x!vhlo.f32_v1>, !vhlo.tensor_v1<1x4x32x!vhlo.f32_v1>) -> !vhlo.tensor_v1<1x4x32x!vhlo.f32_v1> loc(#loc39)
    %46 = "vhlo.reduce_v1"(%45, %11) <{dimensions = #vhlo.tensor_v1<dense<2> : tensor<1xi64>>}> ({
    ^bb0(%arg5: !vhlo.tensor_v1<!vhlo.f32_v1> loc("reduce.96"), %arg6: !vhlo.tensor_v1<!vhlo.f32_v1> loc("reduce.96")):
      %54 = "vhlo.add_v1"(%arg5, %arg6) : (!vhlo.tensor_v1<!vhlo.f32_v1>, !vhlo.tensor_v1<!vhlo.f32_v1>) -> !vhlo.tensor_v1<!vhlo.f32_v1> loc(#loc41)
      "vhlo.return_v1"(%54) : (!vhlo.tensor_v1<!vhlo.f32_v1>) -> () loc(#loc)
    }) : (!vhlo.tensor_v1<1x4x32x!vhlo.f32_v1>, !vhlo.tensor_v1<!vhlo.f32_v1>) -> !vhlo.tensor_v1<1x4x!vhlo.f32_v1> loc(#loc40)
    %47 = "vhlo.multiply_v1"(%46, %1) : (!vhlo.tensor_v1<1x4x!vhlo.f32_v1>, !vhlo.tensor_v1<1x4x!vhlo.f32_v1>) -> !vhlo.tensor_v1<1x4x!vhlo.f32_v1> loc(#loc42)
    %48 = "vhlo.reshape_v1"(%47) : (!vhlo.tensor_v1<1x4x!vhlo.f32_v1>) -> !vhlo.tensor_v1<1x4x1x!vhlo.f32_v1> loc(#loc43)
    %49 = "vhlo.add_v1"(%48, %0) : (!vhlo.tensor_v1<1x4x1x!vhlo.f32_v1>, !vhlo.tensor_v1<1x4x1x!vhlo.f32_v1>) -> !vhlo.tensor_v1<1x4x1x!vhlo.f32_v1> loc(#loc44)
    %50 = "vhlo.rsqrt_v2"(%49) <{result_accuracy = #vhlo.result_accuracy_v1<atol = 0.000000e+00, rtol = 0.000000e+00, ulps = 0, mode = #vhlo<result_accuracy_mode_v1 DEFAULT>>}> : (!vhlo.tensor_v1<1x4x1x!vhlo.f32_v1>) -> !vhlo.tensor_v1<1x4x1x!vhlo.f32_v1> loc(#loc45)
    %51 = "vhlo.reshape_v1"(%50) : (!vhlo.tensor_v1<1x4x1x!vhlo.f32_v1>) -> !vhlo.tensor_v1<1x4x!vhlo.f32_v1> loc(#loc46)
    %52 = "vhlo.broadcast_in_dim_v1"(%51) <{broadcast_dimensions = #vhlo.tensor_v1<dense<[0, 1]> : tensor<2xi64>>}> : (!vhlo.tensor_v1<1x4x!vhlo.f32_v1>) -> !vhlo.tensor_v1<1x4x32x!vhlo.f32_v1> loc(#loc47)
    %53 = "vhlo.multiply_v1"(%38, %52) : (!vhlo.tensor_v1<1x4x32x!vhlo.f32_v1>, !vhlo.tensor_v1<1x4x32x!vhlo.f32_v1>) -> !vhlo.tensor_v1<1x4x32x!vhlo.f32_v1> loc(#loc48)
    "vhlo.return_v1"(%13, %14, %15, %16, %17, %19, %21, %22, %23, %26, %27, %30, %31, %38, %40, %42, %43, %44, %50, %53) : (!vhlo.tensor_v1<1x1x32x!vhlo.f32_v1>, !vhlo.tensor_v1<32x!vhlo.f32_v1>, !vhlo.tensor_v1<32x8x2x!vhlo.f32_v1>, !vhlo.tensor_v1<1x4x128x!vhlo.bf16_v1>, !vhlo.tensor_v1<4x8x2x!vhlo.f32_v1>, !vhlo.tensor_v1<32x!vhlo.bool_v1>, !vhlo.tensor_v1<8x!vhlo.bool_v1>, !vhlo.tensor_v1<4x128x!vhlo.bf16_v1>, !vhlo.tensor_v1<1x4x8x2x!vhlo.f32_v1>, !vhlo.tensor_v1<32x!vhlo.i64_v1>, !vhlo.tensor_v1<1x1x32x!vhlo.bool_v1>, !vhlo.tensor_v1<8x!vhlo.i64_v1>, !vhlo.tensor_v1<1x8x1x!vhlo.bool_v1>, !vhlo.tensor_v1<1x4x32x!vhlo.f32_v1>, !vhlo.tensor_v1<1x4x8x!vhlo.f32_v1>, !vhlo.tensor_v1<1x4x8x!vhlo.f32_v1>, !vhlo.tensor_v1<1x1x32x!vhlo.bool_v1>, !vhlo.tensor_v1<1x8x1x!vhlo.bool_v1>, !vhlo.tensor_v1<1x4x1x!vhlo.f32_v1>, !vhlo.tensor_v1<1x4x32x!vhlo.f32_v1>) -> () loc(#loc)
  } {arg_attrs = #vhlo.array_v1<[]>, res_attrs = #vhlo.array_v1<[]>, sym_visibility = #vhlo.string_v1<"">} loc(#loc)
} loc(#loc)
#loc = loc(unknown)
#loc6 = loc("reshape.2")
#loc7 = loc("custom-call.3")
#loc8 = loc("reshape.4")
#loc9 = loc("custom-call.6")
#loc10 = loc("custom-call.8")
#loc11 = loc("slice.9")
#loc12 = loc("broadcast.18")
#loc13 = loc("and.21")
#loc14 = loc("broadcast.29")
#loc15 = loc("and.32")
#loc16 = loc("reshape.33")
#loc17 = loc("reshape.34")
#loc18 = loc("floor.47")
#loc19 = loc("convert.48")
#loc20 = loc("clamp.51")
#loc21 = loc("reshape.52")
#loc22 = loc("floor.65")
#loc23 = loc("convert.66")
#loc24 = loc("clamp.69")
#loc25 = loc("reshape.70")
#loc26 = loc("reshape.72")
#loc27 = loc("custom-call.73")
#loc28 = loc("reshape.74")
#loc29 = loc("transpose.75")
#loc30 = loc("dot.76")
#loc31 = loc("reshape.77")
#loc32 = loc("convert.78")
#loc33 = loc("slice.79")
#loc34 = loc("reshape.80")
#loc35 = loc("slice.81")
#loc36 = loc("reshape.82")
#loc37 = loc("not.83")
#loc38 = loc("not.84")
#loc39 = loc("power.89")
#loc41 = loc("add.95")
#loc42 = loc("multiply.105")
#loc43 = loc("reshape.106")
#loc44 = loc("add.110")
#loc45 = loc("rsqrt.111")
#loc46 = loc("reshape.112")
#loc47 = loc("broadcast.113")
#loc48 = loc("multiply.114")
------------------ END OF MLIR MODULE ------------------
2026-04-27 18:37:08.585 (   5.176s) [        CBBAC740]      module_builder.cc:1220     1| MLIR Module shlo:
#loc1 = loc("p0.1")
#loc2 = loc("p1.5")
#loc3 = loc("p2.7")
#loc4 = loc("p3.14")
#loc5 = loc("p4.71")
module @SyncTensorsGraph.116 attributes {mhlo.cross_program_prefetches = [], mhlo.input_output_alias = [], mhlo.is_dynamic = false, mhlo.use_auto_spmd_partitioning = false} {
  func.func @main(%arg0: tensor<32xf32> loc("p0.1"), %arg1: tensor<32x8x2xf32> loc("p1.5"), %arg2: tensor<1x4x128xbf16> loc("p2.7"), %arg3: tensor<i1> loc("p3.14"), %arg4: tensor<32x128xbf16> loc("p4.71")) -> (tensor<1x1x32xf32>, tensor<32xf32>, tensor<32x8x2xf32>, tensor<1x4x128xbf16>, tensor<4x8x2xf32>, tensor<32xi1>, tensor<8xi1>, tensor<4x128xbf16>, tensor<1x4x8x2xf32>, tensor<32xi64>, tensor<1x1x32xi1>, tensor<8xi64>, tensor<1x8x1xi1>, tensor<1x4x32xf32>, tensor<1x4x8xf32>, tensor<1x4x8xf32>, tensor<1x1x32xi1>, tensor<1x8x1xi1>, tensor<1x4x1xf32>, tensor<1x4x32xf32>) {
    %cst = stablehlo.constant dense<9.99999997E-7> : tensor<1x4x1xf32> loc(#loc)
    %cst_0 = stablehlo.constant dense<3.125000e-02> : tensor<1x4xf32> loc(#loc)
    %cst_1 = stablehlo.constant dense<2.000000e+00> : tensor<1x4x32xf32> loc(#loc)
    %c = stablehlo.constant dense<3> : tensor<8xi64> loc(#loc)
    %cst_2 = stablehlo.constant dense<[0.000000e+00, 1.000000e+00, 2.000000e+00, 3.000000e+00, 4.000000e+00, 5.000000e+00, 6.000000e+00, 7.000000e+00]> : tensor<8xf32> loc(#loc)
    %c_3 = stablehlo.constant dense<0> : tensor<8xi64> loc(#loc)
    %c_4 = stablehlo.constant dense<15> : tensor<32xi64> loc(#loc)
    %cst_5 = stablehlo.constant dense<[… > : tensor<32xf32> loc(#loc)
    %c_6 = stablehlo.constant dense<0> : tensor<32xi64> loc(#loc)
    %c_7 = stablehlo.constant dense<[true, true, true, true, false, false, false, false]> : tensor<8xi1> loc(#loc)
    %c_8 = stablehlo.constant dense<[false, false, false, false, false, false, false, false, false, false, false, false, false, false, false, false, true, true, true, true, true, true, true, true, true, true, true, true, true, true, true, true]> : tensor<32xi1> loc(#loc)
    %cst_9 = stablehlo.constant dense<0.000000e+00> : tensor<f32> loc(#loc)
    %0 = stablehlo.reshape %arg0 : (tensor<32xf32>) -> tensor<1x1x32xf32> loc(#loc6)
    %1 = stablehlo.custom_call @tt.mark_argument(%0) {api_version = 0 : i32, mhlo.frontend_attributes = {ttcore.argument_type = "parameter", ttir.name = "kv_norm.weight"}} : (tensor<1x1x32xf32>) -> tensor<1x1x32xf32> loc(#loc7)
    %2 = stablehlo.reshape %1 : (tensor<1x1x32xf32>) -> tensor<32xf32> loc(#loc8)
    %3 = stablehlo.custom_call @tt.mark_argument(%arg1) {api_version = 0 : i32, mhlo.frontend_attributes = {ttcore.argument_type = "constant", ttir.name = "freqs_cis"}} : (tensor<32x8x2xf32>) -> tensor<32x8x2xf32> loc(#loc9)
    %4 = stablehlo.custom_call @tt.mark_argument(%arg2) {api_version = 0 : i32, mhlo.frontend_attributes = {ttcore.argument_type = "input", ttir.name = "args_0"}} : (tensor<1x4x128xbf16>) -> tensor<1x4x128xbf16> loc(#loc10)
    %5 = stablehlo.slice %3 [0:4, 0:8, 0:2] : (tensor<32x8x2xf32>) -> tensor<4x8x2xf32> loc(#loc11)
    %6 = stablehlo.broadcast_in_dim %arg3, dims = [] : (tensor<i1>) -> tensor<32xi1> loc(#loc12)
    %7 = stablehlo.and %6, %c_8 : tensor<32xi1> loc(#loc13)
    %8 = stablehlo.broadcast_in_dim %arg3, dims = [] : (tensor<i1>) -> tensor<8xi1> loc(#loc14)
    %9 = stablehlo.and %8, %c_7 : tensor<8xi1> loc(#loc15)
    %10 = stablehlo.reshape %4 : (tensor<1x4x128xbf16>) -> tensor<4x128xbf16> loc(#loc16)
    %11 = stablehlo.reshape %5 : (tensor<4x8x2xf32>) -> tensor<1x4x8x2xf32> loc(#loc17)
    %12 = stablehlo.floor %cst_5 : tensor<32xf32> loc(#loc18)
    %13 = stablehlo.convert %12 : (tensor<32xf32>) -> tensor<32xi64> loc(#loc19)
    %14 = stablehlo.clamp %c_6, %13, %c_4 : tensor<32xi64> loc(#loc20)
    %15 = stablehlo.reshape %7 : (tensor<32xi1>) -> tensor<1x1x32xi1> loc(#loc21)
    %16 = stablehlo.floor %cst_2 : tensor<8xf32> loc(#loc22)
    %17 = stablehlo.convert %16 : (tensor<8xf32>) -> tensor<8xi64> loc(#loc23)
    %18 = stablehlo.clamp %c_3, %17, %c : tensor<8xi64> loc(#loc24)
    %19 = stablehlo.reshape %9 : (tensor<8xi1>) -> tensor<1x8x1xi1> loc(#loc25)
    %20 = stablehlo.reshape %arg4 : (tensor<32x128xbf16>) -> tensor<1x32x128xbf16> loc(#loc26)
    %21 = stablehlo.custom_call @tt.mark_argument(%20) {api_version = 0 : i32, mhlo.frontend_attributes = {ttcore.argument_type = "parameter", ttir.name = "wkv.weight"}} : (tensor<1x32x128xbf16>) -> tensor<1x32x128xbf16> loc(#loc27)
    %22 = stablehlo.reshape %21 : (tensor<1x32x128xbf16>) -> tensor<32x128xbf16> loc(#loc28)
    %23 = stablehlo.transpose %22, dims = [1, 0] {result_layout = dense<[0, 1]> : tensor<2xindex>, xla_shape = "bf16[128,32]{0,1}"} : (tensor<32x128xbf16>) -> tensor<128x32xbf16> loc(#loc29)
    %24 = stablehlo.dot_general %10, %23, contracting_dims = [1] x [0] : (tensor<4x128xbf16>, tensor<128x32xbf16>) -> tensor<4x32xbf16> loc(#loc30)
    %25 = stablehlo.reshape %24 : (tensor<4x32xbf16>) -> tensor<1x4x32xbf16> loc(#loc31)
    %26 = stablehlo.convert %25 : (tensor<1x4x32xbf16>) -> tensor<1x4x32xf32> loc(#loc32)
    %27 = stablehlo.slice %11 [0:1, 0:4, 0:8, 0:1] : (tensor<1x4x8x2xf32>) -> tensor<1x4x8x1xf32> loc(#loc33)
    %28 = stablehlo.reshape %27 : (tensor<1x4x8x1xf32>) -> tensor<1x4x8xf32> loc(#loc34)
    %29 = stablehlo.slice %11 [0:1, 0:4, 0:8, 1:2] : (tensor<1x4x8x2xf32>) -> tensor<1x4x8x1xf32> loc(#loc35)
    %30 = stablehlo.reshape %29 : (tensor<1x4x8x1xf32>) -> tensor<1x4x8xf32> loc(#loc36)
    %31 = stablehlo.not %15 : tensor<1x1x32xi1> loc(#loc37)
    %32 = stablehlo.not %19 : tensor<1x8x1xi1> loc(#loc38)
    %33 = stablehlo.power %26, %cst_1 : tensor<1x4x32xf32> loc(#loc39)
    %34 = stablehlo.reduce(%33 init: %cst_9) applies stablehlo.add across dimensions = [2] : (tensor<1x4x32xf32>, tensor<f32>) -> tensor<1x4xf32> loc(#loc40)
    %35 = stablehlo.multiply %34, %cst_0 : tensor<1x4xf32> loc(#loc41)
    %36 = stablehlo.reshape %35 : (tensor<1x4xf32>) -> tensor<1x4x1xf32> loc(#loc42)
    %37 = stablehlo.add %36, %cst : tensor<1x4x1xf32> loc(#loc43)
    %38 = stablehlo.rsqrt %37 : tensor<1x4x1xf32> loc(#loc44)
    %39 = stablehlo.reshape %38 : (tensor<1x4x1xf32>) -> tensor<1x4xf32> loc(#loc45)
    %40 = stablehlo.broadcast_in_dim %39, dims = [0, 1] : (tensor<1x4xf32>) -> tensor<1x4x32xf32> loc(#loc46)
    %41 = stablehlo.multiply %26, %40 : tensor<1x4x32xf32> loc(#loc47)
    return %1, %2, %3, %4, %5, %7, %9, %10, %11, %14, %15, %18, %19, %26, %28, %30, %31, %32, %38, %41 : tensor<1x1x32xf32>, tensor<32xf32>, tensor<32x8x2xf32>, tensor<1x4x128xbf16>, tensor<4x8x2xf32>, tensor<32xi1>, tensor<8xi1>, tensor<4x128xbf16>, tensor<1x4x8x2xf32>, tensor<32xi64>, tensor<1x1x32xi1>, tensor<8xi64>, tensor<1x8x1xi1>, tensor<1x4x32xf32>, tensor<1x4x8xf32>, tensor<1x4x8xf32>, tensor<1x1x32xi1>, tensor<1x8x1xi1>, tensor<1x4x1xf32>, tensor<1x4x32xf32> loc(#loc)
  } loc(#loc)
} loc(#loc)
#loc = loc(unknown)
#loc6 = loc("reshape.2")
#loc7 = loc("custom-call.3")
#loc8 = loc("reshape.4")
#loc9 = loc("custom-call.6")
#loc10 = loc("custom-call.8")
#loc11 = loc("slice.9")
#loc12 = loc("broadcast.18")
#loc13 = loc("and.21")
#loc14 = loc("broadcast.29")
#loc15 = loc("and.32")
#loc16 = loc("reshape.33")
#loc17 = loc("reshape.34")
#loc18 = loc("floor.47")
#loc19 = loc("convert.48")
#loc20 = loc("clamp.51")
#loc21 = loc("reshape.52")
#loc22 = loc("floor.65")
#loc23 = loc("convert.66")
#loc24 = loc("clamp.69")
#loc25 = loc("reshape.70")
#loc26 = loc("reshape.72")
#loc27 = loc("custom-call.73")
#loc28 = loc("reshape.74")
#loc29 = loc("transpose.75")
#loc30 = loc("dot.76")
#loc31 = loc("reshape.77")
#loc32 = loc("convert.78")
#loc33 = loc("slice.79")
#loc34 = loc("reshape.80")
#loc35 = loc("slice.81")
#loc36 = loc("reshape.82")
#loc37 = loc("not.83")
#loc38 = loc("not.84")
#loc39 = loc("power.89")
#loc40 = loc("reduce.96")
#loc41 = loc("multiply.105")
#loc42 = loc("reshape.106")
#loc43 = loc("add.110")
#loc44 = loc("rsqrt.111")
#loc45 = loc("reshape.112")
#loc46 = loc("broadcast.113")
#loc47 = loc("multiply.114")
------------------ END OF MLIR MODULE ------------------
2026-04-27 18:37:08.590 (   5.181s) [        CBBAC740]      module_builder.cc:1220     1| MLIR Module shlo_frontend:
#loc1 = loc("p0.1")
#loc2 = loc("p1.5")
#loc3 = loc("p2.7")
#loc4 = loc("p3.14")
#loc5 = loc("p4.71")
module @SyncTensorsGraph.116 attributes {mhlo.cross_program_prefetches = [], mhlo.input_output_alias = [], mhlo.is_dynamic = false, mhlo.use_auto_spmd_partitioning = false} {
  func.func @main(%arg0: tensor<32xf32> {ttcore.argument_type = #ttcore.argument_type<parameter>, ttir.name = "kv_norm.weight"} loc("p0.1"), %arg1: tensor<32x8x2xf32> {ttcore.argument_type = #ttcore.argument_type<constant>, ttir.name = "freqs_cis"} loc("p1.5"), %arg2: tensor<1x4x128xbf16> {ttcore.argument_type = #ttcore.argument_type<input>, ttir.name = "args_0"} loc("p2.7"), %arg3: tensor<i1> {ttcore.argument_type = #ttcore.argument_type<input>} loc("p3.14"), %arg4: tensor<32x128xbf16> {ttcore.argument_type = #ttcore.argument_type<parameter>, ttir.name = "wkv.weight"} loc("p4.71")) -> (tensor<1x1x32xf32>, tensor<32xf32>, tensor<32x8x2xf32>, tensor<1x4x128xbf16>, tensor<4x8x2xf32>, tensor<32xi1>, tensor<8xi1>, tensor<4x128xbf16>, tensor<1x4x8x2xf32>, tensor<32xi64>, tensor<1x1x32xi1>, tensor<8xi64>, tensor<1x8x1xi1>, tensor<1x4x32xf32>, tensor<1x4x8xf32>, tensor<1x4x8xf32>, tensor<1x1x32xi1>, tensor<1x8x1xi1>, tensor<1x4x1xf32>, tensor<1x4x32xf32>) {
    %cst = stablehlo.constant dense<9.99999997E-7> : tensor<1x4x1xf32> loc(#loc)
    %cst_0 = stablehlo.constant dense<3.125000e-02> : tensor<1x4xf32> loc(#loc)
    %cst_1 = stablehlo.constant dense<2.000000e+00> : tensor<1x4x32xf32> loc(#loc)
    %c = stablehlo.constant dense<3> : tensor<8xi64> loc(#loc)
    %cst_2 = stablehlo.constant dense<[0.000000e+00, 1.000000e+00, 2.000000e+00, 3.000000e+00, 4.000000e+00, 5.000000e+00, 6.000000e+00, 7.000000e+00]> : tensor<8xf32> loc(#loc)
    %c_3 = stablehlo.constant dense<0> : tensor<8xi64> loc(#loc)
    %c_4 = stablehlo.constant dense<15> : tensor<32xi64> loc(#loc)
    %cst_5 = stablehlo.constant dense<[… > : tensor<32xf32> loc(#loc)
    %c_6 = stablehlo.constant dense<0> : tensor<32xi64> loc(#loc)
    %c_7 = stablehlo.constant dense<[true, true, true, true, false, false, false, false]> : tensor<8xi1> loc(#loc)
    %c_8 = stablehlo.constant dense<[false, false, false, false, false, false, false, false, false, false, false, false, false, false, false, false, true, true, true, true, true, true, true, true, true, true, true, true, true, true, true, true]> : tensor<32xi1> loc(#loc)
    %cst_9 = stablehlo.constant dense<0.000000e+00> : tensor<f32> loc(#loc)
    %0 = stablehlo.reshape %arg0 : (tensor<32xf32>) -> tensor<1x1x32xf32> loc(#loc6)
    %1 = stablehlo.reshape %0 : (tensor<1x1x32xf32>) -> tensor<32xf32> loc(#loc7)
    %2 = stablehlo.slice %arg1 [0:4, 0:8, 0:2] : (tensor<32x8x2xf32>) -> tensor<4x8x2xf32> loc(#loc8)
    %3 = stablehlo.broadcast_in_dim %arg3, dims = [] : (tensor<i1>) -> tensor<32xi1> loc(#loc9)
    %4 = stablehlo.and %3, %c_8 : tensor<32xi1> loc(#loc10)
    %5 = stablehlo.broadcast_in_dim %arg3, dims = [] : (tensor<i1>) -> tensor<8xi1> loc(#loc11)
    %6 = stablehlo.and %5, %c_7 : tensor<8xi1> loc(#loc12)
    %7 = stablehlo.reshape %arg2 : (tensor<1x4x128xbf16>) -> tensor<4x128xbf16> loc(#loc13)
    %8 = stablehlo.reshape %2 : (tensor<4x8x2xf32>) -> tensor<1x4x8x2xf32> loc(#loc14)
    %9 = stablehlo.floor %cst_5 : tensor<32xf32> loc(#loc15)
    %10 = stablehlo.convert %9 : (tensor<32xf32>) -> tensor<32xi64> loc(#loc16)
    %11 = stablehlo.clamp %c_6, %10, %c_4 : tensor<32xi64> loc(#loc17)
    %12 = stablehlo.reshape %4 : (tensor<32xi1>) -> tensor<1x1x32xi1> loc(#loc18)
    %13 = stablehlo.floor %cst_2 : tensor<8xf32> loc(#loc19)
    %14 = stablehlo.convert %13 : (tensor<8xf32>) -> tensor<8xi64> loc(#loc20)
    %15 = stablehlo.clamp %c_3, %14, %c : tensor<8xi64> loc(#loc21)
    %16 = stablehlo.reshape %6 : (tensor<8xi1>) -> tensor<1x8x1xi1> loc(#loc22)
    %17 = stablehlo.reshape %arg4 : (tensor<32x128xbf16>) -> tensor<1x32x128xbf16> loc(#loc23)
    %18 = stablehlo.reshape %17 : (tensor<1x32x128xbf16>) -> tensor<32x128xbf16> loc(#loc24)
    %19 = stablehlo.transpose %18, dims = [1, 0] {result_layout = dense<[0, 1]> : tensor<2xindex>, xla_shape = "bf16[128,32]{0,1}"} : (tensor<32x128xbf16>) -> tensor<128x32xbf16> loc(#loc25)
    %20 = stablehlo.dot_general %7, %19, contracting_dims = [1] x [0] : (tensor<4x128xbf16>, tensor<128x32xbf16>) -> tensor<4x32xbf16> loc(#loc26)
    %21 = stablehlo.reshape %20 : (tensor<4x32xbf16>) -> tensor<1x4x32xbf16> loc(#loc27)
    %22 = stablehlo.convert %21 : (tensor<1x4x32xbf16>) -> tensor<1x4x32xf32> loc(#loc28)
    %23 = stablehlo.slice %8 [0:1, 0:4, 0:8, 0:1] : (tensor<1x4x8x2xf32>) -> tensor<1x4x8x1xf32> loc(#loc29)
    %24 = stablehlo.reshape %23 : (tensor<1x4x8x1xf32>) -> tensor<1x4x8xf32> loc(#loc30)
    %25 = stablehlo.slice %8 [0:1, 0:4, 0:8, 1:2] : (tensor<1x4x8x2xf32>) -> tensor<1x4x8x1xf32> loc(#loc31)
    %26 = stablehlo.reshape %25 : (tensor<1x4x8x1xf32>) -> tensor<1x4x8xf32> loc(#loc32)
    %27 = stablehlo.not %12 : tensor<1x1x32xi1> loc(#loc33)
    %28 = stablehlo.not %16 : tensor<1x8x1xi1> loc(#loc34)
    %29 = stablehlo.power %22, %cst_1 : tensor<1x4x32xf32> loc(#loc35)
    %30 = stablehlo.reduce(%29 init: %cst_9) applies stablehlo.add across dimensions = [2] : (tensor<1x4x32xf32>, tensor<f32>) -> tensor<1x4xf32> loc(#loc36)
    %31 = stablehlo.multiply %30, %cst_0 : tensor<1x4xf32> loc(#loc37)
    %32 = stablehlo.reshape %31 : (tensor<1x4xf32>) -> tensor<1x4x1xf32> loc(#loc38)
    %33 = stablehlo.add %32, %cst : tensor<1x4x1xf32> loc(#loc39)
    %34 = stablehlo.rsqrt %33 : tensor<1x4x1xf32> loc(#loc40)
    %35 = stablehlo.reshape %34 : (tensor<1x4x1xf32>) -> tensor<1x4xf32> loc(#loc41)
    %36 = stablehlo.broadcast_in_dim %35, dims = [0, 1] : (tensor<1x4xf32>) -> tensor<1x4x32xf32> loc(#loc42)
    %37 = stablehlo.multiply %22, %36 : tensor<1x4x32xf32> loc(#loc43)
    return %0, %1, %arg1, %arg2, %2, %4, %6, %7, %8, %11, %12, %15, %16, %22, %24, %26, %27, %28, %34, %37 : tensor<1x1x32xf32>, tensor<32xf32>, tensor<32x8x2xf32>, tensor<1x4x128xbf16>, tensor<4x8x2xf32>, tensor<32xi1>, tensor<8xi1>, tensor<4x128xbf16>, tensor<1x4x8x2xf32>, tensor<32xi64>, tensor<1x1x32xi1>, tensor<8xi64>, tensor<1x8x1xi1>, tensor<1x4x32xf32>, tensor<1x4x8xf32>, tensor<1x4x8xf32>, tensor<1x1x32xi1>, tensor<1x8x1xi1>, tensor<1x4x1xf32>, tensor<1x4x32xf32> loc(#loc)
  } loc(#loc)
} loc(#loc)
#loc = loc(unknown)
#loc6 = loc("reshape.2")
#loc7 = loc("reshape.4")
#loc8 = loc("slice.9")
#loc9 = loc("broadcast.18")
#loc10 = loc("and.21")
#loc11 = loc("broadcast.29")
#loc12 = loc("and.32")
#loc13 = loc("reshape.33")
#loc14 = loc("reshape.34")
#loc15 = loc("floor.47")
#loc16 = loc("convert.48")
#loc17 = loc("clamp.51")
#loc18 = loc("reshape.52")
#loc19 = loc("floor.65")
#loc20 = loc("convert.66")
#loc21 = loc("clamp.69")
#loc22 = loc("reshape.70")
#loc23 = loc("reshape.72")
#loc24 = loc("reshape.74")
#loc25 = loc("transpose.75")
#loc26 = loc("dot.76")
#loc27 = loc("reshape.77")
#loc28 = loc("convert.78")
#loc29 = loc("slice.79")
#loc30 = loc("reshape.80")
#loc31 = loc("slice.81")
#loc32 = loc("reshape.82")
#loc33 = loc("not.83")
#loc34 = loc("not.84")
#loc35 = loc("power.89")
#loc36 = loc("reduce.96")
#loc37 = loc("multiply.105")
#loc38 = loc("reshape.106")
#loc39 = loc("add.110")
#loc40 = loc("rsqrt.111")
#loc41 = loc("reshape.112")
#loc42 = loc("broadcast.113")
#loc43 = loc("multiply.114")
------------------ END OF MLIR MODULE ------------------
2026-04-27 18:37:08.615 (   5.207s) [        CBBAC740]      module_builder.cc:1220     1| MLIR Module shlo_compiler:
#loc1 = loc("p0.1")
#loc2 = loc("p1.5")
#loc3 = loc("p2.7")
#loc4 = loc("p3.14")
#loc5 = loc("p4.71")
module @SyncTensorsGraph.116 attributes {mhlo.cross_program_prefetches = [], mhlo.input_output_alias = [], mhlo.is_dynamic = false, mhlo.use_auto_spmd_partitioning = false} {
  sdy.mesh @mesh = <["x"=1, "y"=1]> loc(#loc)
  func.func @main(%arg0: tensor<32xf32> {ttcore.argument_type = #ttcore.argument_type<parameter>, ttcore.local_shape = #ttcore<local_shape local_shape = tensor<32xf32>>, ttcore.shard_status = #ttcore.shard_status<unsharded>, ttir.name = "kv_norm.weight"} loc("p0.1"), %arg1: tensor<32x8x2xf32> {ttcore.argument_type = #ttcore.argument_type<constant>, ttcore.local_shape = #ttcore<local_shape local_shape = tensor<32x8x2xf32>>, ttcore.shard_status = #ttcore.shard_status<unsharded>, ttir.name = "freqs_cis"} loc("p1.5"), %arg2: tensor<1x4x128xbf16> {ttcore.argument_type = #ttcore.argument_type<input>, ttcore.local_shape = #ttcore<local_shape local_shape = tensor<1x4x128xbf16>>, ttcore.shard_status = #ttcore.shard_status<unsharded>, ttir.name = "args_0"} loc("p2.7"), %arg3: tensor<i1> {ttcore.argument_type = #ttcore.argument_type<input>, ttcore.local_shape = #ttcore<local_shape local_shape = tensor<i1>>, ttcore.shard_status = #ttcore.shard_status<unsharded>} loc("p3.14"), %arg4: tensor<32x128xbf16> {ttcore.argument_type = #ttcore.argument_type<parameter>, ttcore.local_shape = #ttcore<local_shape local_shape = tensor<32x128xbf16>>, ttcore.shard_status = #ttcore.shard_status<unsharded>, ttir.name = "wkv.weight"} loc("p4.71")) -> (tensor<1x1x32xf32> {ttcore.local_shape = #ttcore<local_shape local_shape = tensor<1x1x32xf32>>, ttcore.shard_status = #ttcore.shard_status<presharded>}, tensor<32xf32> {ttcore.local_shape = #ttcore<local_shape local_shape = tensor<32xf32>>, ttcore.shard_status = #ttcore.shard_status<presharded>}, tensor<32x8x2xf32> {ttcore.local_shape = #ttcore<local_shape local_shape = tensor<32x8x2xf32>>, ttcore.shard_status = #ttcore.shard_status<presharded>}, tensor<1x4x128xbf16> {ttcore.local_shape = #ttcore<local_shape local_shape = tensor<1x4x128xbf16>>, ttcore.shard_status = #ttcore.shard_status<presharded>}, tensor<4x8x2xf32> {ttcore.local_shape = #ttcore<local_shape local_shape = tensor<4x8x2xf32>>, ttcore.shard_status = #ttcore.shard_status<presharded>}, tensor<32xi1> {ttcore.local_shape = #ttcore<local_shape local_shape = tensor<32xi1>>, ttcore.shard_status = #ttcore.shard_status<presharded>}, tensor<8xi1> {ttcore.local_shape = #ttcore<local_shape local_shape = tensor<8xi1>>, ttcore.shard_status = #ttcore.shard_status<presharded>}, tensor<4x128xbf16> {ttcore.local_shape = #ttcore<local_shape local_shape = tensor<4x128xbf16>>, ttcore.shard_status = #ttcore.shard_status<presharded>}, tensor<1x4x8x2xf32> {ttcore.local_shape = #ttcore<local_shape local_shape = tensor<1x4x8x2xf32>>, ttcore.shard_status = #ttcore.shard_status<presharded>}, tensor<32xi64> {ttcore.local_shape = #ttcore<local_shape local_shape = tensor<32xi64>>, ttcore.shard_status = #ttcore.shard_status<presharded>}, tensor<1x1x32xi1> {ttcore.local_shape = #ttcore<local_shape local_shape = tensor<1x1x32xi1>>, ttcore.shard_status = #ttcore.shard_status<presharded>}, tensor<8xi64> {ttcore.local_shape = #ttcore<local_shape local_shape = tensor<8xi64>>, ttcore.shard_status = #ttcore.shard_status<presharded>}, tensor<1x8x1xi1> {ttcore.local_shape = #ttcore<local_shape local_shape = tensor<1x8x1xi1>>, ttcore.shard_status = #ttcore.shard_status<presharded>}, tensor<1x4x32xf32> {ttcore.local_shape = #ttcore<local_shape local_shape = tensor<1x4x32xf32>>, ttcore.shard_status = #ttcore.shard_status<presharded>}, tensor<1x4x8xf32> {ttcore.local_shape = #ttcore<local_shape local_shape = tensor<1x4x8xf32>>, ttcore.shard_status = #ttcore.shard_status<presharded>}, tensor<1x4x8xf32> {ttcore.local_shape = #ttcore<local_shape local_shape = tensor<1x4x8xf32>>, ttcore.shard_status = #ttcore.shard_status<presharded>}, tensor<1x1x32xi1> {ttcore.local_shape = #ttcore<local_shape local_shape = tensor<1x1x32xi1>>, ttcore.shard_status = #ttcore.shard_status<presharded>}, tensor<1x8x1xi1> {ttcore.local_shape = #ttcore<local_shape local_shape = tensor<1x8x1xi1>>, ttcore.shard_status = #ttcore.shard_status<presharded>}, tensor<1x4x1xf32> {ttcore.local_shape = #ttcore<local_shape local_shape = tensor<1x4x1xf32>>, ttcore.shard_status = #ttcore.shard_status<presharded>}, tensor<1x4x32xf32> {ttcore.local_shape = #ttcore<local_shape local_shape = tensor<1x4x32xf32>>, ttcore.shard_status = #ttcore.shard_status<presharded>}) {
    %cst = stablehlo.constant dense<9.99999997E-7> : tensor<1x4x1xf32> loc(#loc)
    %cst_0 = stablehlo.constant dense<3.125000e-02> : tensor<1x4xf32> loc(#loc)
    %cst_1 = stablehlo.constant dense<2.000000e+00> : tensor<1x4x32xf32> loc(#loc)
    %c = stablehlo.constant dense<3> : tensor<8xi64> loc(#loc)
    %cst_2 = stablehlo.constant dense<[0.000000e+00, 1.000000e+00, 2.000000e+00, 3.000000e+00, 4.000000e+00, 5.000000e+00, 6.000000e+00, 7.000000e+00]> : tensor<8xf32> loc(#loc)
    %c_3 = stablehlo.constant dense<0> : tensor<8xi64> loc(#loc)
    %c_4 = stablehlo.constant dense<15> : tensor<32xi64> loc(#loc)
    %cst_5 = stablehlo.constant dense<[… > : tensor<32xf32> loc(#loc)
    %c_6 = stablehlo.constant dense<0> : tensor<32xi64> loc(#loc)
    %c_7 = stablehlo.constant dense<[true, true, true, true, false, false, false, false]> : tensor<8xi1> loc(#loc)
    %c_8 = stablehlo.constant dense<[false, false, false, false, false, false, false, false, false, false, false, false, false, false, false, false, true, true, true, true, true, true, true, true, true, true, true, true, true, true, true, true]> : tensor<32xi1> loc(#loc)
    %cst_9 = stablehlo.constant dense<0.000000e+00> : tensor<f32> loc(#loc)
    %0 = stablehlo.reshape %arg0 : (tensor<32xf32>) -> tensor<1x1x32xf32> loc(#loc6)
    %1 = stablehlo.reshape %0 : (tensor<1x1x32xf32>) -> tensor<32xf32> loc(#loc7)
    %2 = stablehlo.slice %arg1 [0:4, 0:8, 0:2] : (tensor<32x8x2xf32>) -> tensor<4x8x2xf32> loc(#loc8)
    %3 = stablehlo.broadcast_in_dim %arg3, dims = [] : (tensor<i1>) -> tensor<32xi1> loc(#loc9)
    %4 = stablehlo.and %3, %c_8 : tensor<32xi1> loc(#loc10)
    %5 = stablehlo.broadcast_in_dim %arg3, dims = [] : (tensor<i1>) -> tensor<8xi1> loc(#loc11)
    %6 = stablehlo.and %5, %c_7 : tensor<8xi1> loc(#loc12)
    %7 = stablehlo.reshape %arg2 : (tensor<1x4x128xbf16>) -> tensor<4x128xbf16> loc(#loc13)
    %8 = stablehlo.reshape %2 : (tensor<4x8x2xf32>) -> tensor<1x4x8x2xf32> loc(#loc14)
    %9 = stablehlo.floor %cst_5 : tensor<32xf32> loc(#loc15)
    %10 = stablehlo.convert %9 : (tensor<32xf32>) -> tensor<32xi64> loc(#loc16)
    %11 = stablehlo.clamp %c_6, %10, %c_4 : tensor<32xi64> loc(#loc17)
    %12 = stablehlo.reshape %4 : (tensor<32xi1>) -> tensor<1x1x32xi1> loc(#loc18)
    %13 = stablehlo.floor %cst_2 : tensor<8xf32> loc(#loc19)
    %14 = stablehlo.convert %13 : (tensor<8xf32>) -> tensor<8xi64> loc(#loc20)
    %15 = stablehlo.clamp %c_3, %14, %c : tensor<8xi64> loc(#loc21)
    %16 = stablehlo.reshape %6 : (tensor<8xi1>) -> tensor<1x8x1xi1> loc(#loc22)
    %17 = stablehlo.reshape %arg4 : (tensor<32x128xbf16>) -> tensor<1x32x128xbf16> loc(#loc23)
    %18 = stablehlo.reshape %17 : (tensor<1x32x128xbf16>) -> tensor<32x128xbf16> loc(#loc24)
    %19 = stablehlo.transpose %18, dims = [1, 0] {result_layout = dense<[0, 1]> : tensor<2xindex>, xla_shape = "bf16[128,32]{0,1}"} : (tensor<32x128xbf16>) -> tensor<128x32xbf16> loc(#loc25)
    %20 = stablehlo.dot_general %7, %19, contracting_dims = [1] x [0] : (tensor<4x128xbf16>, tensor<128x32xbf16>) -> tensor<4x32xbf16> loc(#loc26)
    %21 = stablehlo.reshape %20 : (tensor<4x32xbf16>) -> tensor<1x4x32xbf16> loc(#loc27)
    %22 = stablehlo.convert %21 : (tensor<1x4x32xbf16>) -> tensor<1x4x32xf32> loc(#loc28)
    %23 = stablehlo.slice %8 [0:1, 0:4, 0:8, 0:1] : (tensor<1x4x8x2xf32>) -> tensor<1x4x8x1xf32> loc(#loc29)
    %24 = stablehlo.reshape %23 : (tensor<1x4x8x1xf32>) -> tensor<1x4x8xf32> loc(#loc30)
    %25 = stablehlo.slice %8 [0:1, 0:4, 0:8, 1:2] : (tensor<1x4x8x2xf32>) -> tensor<1x4x8x1xf32> loc(#loc31)
    %26 = stablehlo.reshape %25 : (tensor<1x4x8x1xf32>) -> tensor<1x4x8xf32> loc(#loc32)
    %27 = stablehlo.not %12 : tensor<1x1x32xi1> loc(#loc33)
    %28 = stablehlo.not %16 : tensor<1x8x1xi1> loc(#loc34)
    %29 = stablehlo.power %22, %cst_1 : tensor<1x4x32xf32> loc(#loc35)
    %30 = stablehlo.reduce(%29 init: %cst_9) applies stablehlo.add across dimensions = [2] : (tensor<1x4x32xf32>, tensor<f32>) -> tensor<1x4xf32> loc(#loc36)
    %31 = stablehlo.multiply %30, %cst_0 : tensor<1x4xf32> loc(#loc37)
    %32 = stablehlo.reshape %31 : (tensor<1x4xf32>) -> tensor<1x4x1xf32> loc(#loc38)
    %33 = stablehlo.add %32, %cst : tensor<1x4x1xf32> loc(#loc39)
    %34 = stablehlo.rsqrt %33 : tensor<1x4x1xf32> loc(#loc40)
    %35 = stablehlo.reshape %34 : (tensor<1x4x1xf32>) -> tensor<1x4xf32> loc(#loc41)
    %36 = stablehlo.broadcast_in_dim %35, dims = [0, 1] : (tensor<1x4xf32>) -> tensor<1x4x32xf32> loc(#loc42)
    %37 = stablehlo.multiply %22, %36 : tensor<1x4x32xf32> loc(#loc43)
    return %0, %1, %arg1, %arg2, %2, %4, %6, %7, %8, %11, %12, %15, %16, %22, %24, %26, %27, %28, %34, %37 : tensor<1x1x32xf32>, tensor<32xf32>, tensor<32x8x2xf32>, tensor<1x4x128xbf16>, tensor<4x8x2xf32>, tensor<32xi1>, tensor<8xi1>, tensor<4x128xbf16>, tensor<1x4x8x2xf32>, tensor<32xi64>, tensor<1x1x32xi1>, tensor<8xi64>, tensor<1x8x1xi1>, tensor<1x4x32xf32>, tensor<1x4x8xf32>, tensor<1x4x8xf32>, tensor<1x1x32xi1>, tensor<1x8x1xi1>, tensor<1x4x1xf32>, tensor<1x4x32xf32> loc(#loc)
  } loc(#loc)
} loc(#loc)
#loc = loc(unknown)
#loc6 = loc("reshape.2")
#loc7 = loc("reshape.4")
#loc8 = loc("slice.9")
#loc9 = loc("broadcast.18")
#loc10 = loc("and.21")
#loc11 = loc("broadcast.29")
#loc12 = loc("and.32")
#loc13 = loc("reshape.33")
#loc14 = loc("reshape.34")
#loc15 = loc("floor.47")
#loc16 = loc("convert.48")
#loc17 = loc("clamp.51")
#loc18 = loc("reshape.52")
#loc19 = loc("floor.65")
#loc20 = loc("convert.66")
#loc21 = loc("clamp.69")
#loc22 = loc("reshape.70")
#loc23 = loc("reshape.72")
#loc24 = loc("reshape.74")
#loc25 = loc("transpose.75")
#loc26 = loc("dot.76")
#loc27 = loc("reshape.77")
#loc28 = loc("convert.78")
#loc29 = loc("slice.79")
#loc30 = loc("reshape.80")
#loc31 = loc("slice.81")
#loc32 = loc("reshape.82")
#loc33 = loc("not.83")
#loc34 = loc("not.84")
#loc35 = loc("power.89")
#loc36 = loc("reduce.96")
#loc37 = loc("multiply.105")
#loc38 = loc("reshape.106")
#loc39 = loc("add.110")
#loc40 = loc("rsqrt.111")
#loc41 = loc("reshape.112")
#loc42 = loc("broadcast.113")
#loc43 = loc("multiply.114")
------------------ END OF MLIR MODULE ------------------
2026-04-27 18:37:08.620 (   5.211s) [        CBBAC740]      module_builder.cc:1220     1| MLIR Module shlo_set_mesh_attr:
#loc1 = loc("p0.1")
#loc2 = loc("p1.5")
#loc3 = loc("p2.7")
#loc4 = loc("p3.14")
#loc5 = loc("p4.71")
module @SyncTensorsGraph.116 attributes {mhlo.cross_program_prefetches = [], mhlo.input_output_alias = [], mhlo.is_dynamic = false, mhlo.use_auto_spmd_partitioning = false} {
  sdy.mesh @mesh = <["x"=1, "y"=1]> loc(#loc)
  func.func @main(%arg0: tensor<32xf32> {ttcore.argument_type = #ttcore.argument_type<parameter>, ttcore.local_shape = #ttcore<local_shape local_shape = tensor<32xf32>>, ttcore.shard_status = #ttcore.shard_status<unsharded>, ttir.name = "kv_norm.weight"} loc("p0.1"), %arg1: tensor<32x8x2xf32> {ttcore.argument_type = #ttcore.argument_type<constant>, ttcore.local_shape = #ttcore<local_shape local_shape = tensor<32x8x2xf32>>, ttcore.shard_status = #ttcore.shard_status<unsharded>, ttir.name = "freqs_cis"} loc("p1.5"), %arg2: tensor<1x4x128xbf16> {ttcore.argument_type = #ttcore.argument_type<input>, ttcore.local_shape = #ttcore<local_shape local_shape = tensor<1x4x128xbf16>>, ttcore.shard_status = #ttcore.shard_status<unsharded>, ttir.name = "args_0"} loc("p2.7"), %arg3: tensor<i1> {ttcore.argument_type = #ttcore.argument_type<input>, ttcore.local_shape = #ttcore<local_shape local_shape = tensor<i1>>, ttcore.shard_status = #ttcore.shard_status<unsharded>} loc("p3.14"), %arg4: tensor<32x128xbf16> {ttcore.argument_type = #ttcore.argument_type<parameter>, ttcore.local_shape = #ttcore<local_shape local_shape = tensor<32x128xbf16>>, ttcore.shard_status = #ttcore.shard_status<unsharded>, ttir.name = "wkv.weight"} loc("p4.71")) -> (tensor<1x1x32xf32> {ttcore.local_shape = #ttcore<local_shape local_shape = tensor<1x1x32xf32>>, ttcore.shard_status = #ttcore.shard_status<presharded>}, tensor<32xf32> {ttcore.local_shape = #ttcore<local_shape local_shape = tensor<32xf32>>, ttcore.shard_status = #ttcore.shard_status<presharded>}, tensor<32x8x2xf32> {ttcore.local_shape = #ttcore<local_shape local_shape = tensor<32x8x2xf32>>, ttcore.shard_status = #ttcore.shard_status<presharded>}, tensor<1x4x128xbf16> {ttcore.local_shape = #ttcore<local_shape local_shape = tensor<1x4x128xbf16>>, ttcore.shard_status = #ttcore.shard_status<presharded>}, tensor<4x8x2xf32> {ttcore.local_shape = #ttcore<local_shape local_shape = tensor<4x8x2xf32>>, ttcore.shard_status = #ttcore.shard_status<presharded>}, tensor<32xi1> {ttcore.local_shape = #ttcore<local_shape local_shape = tensor<32xi1>>, ttcore.shard_status = #ttcore.shard_status<presharded>}, tensor<8xi1> {ttcore.local_shape = #ttcore<local_shape local_shape = tensor<8xi1>>, ttcore.shard_status = #ttcore.shard_status<presharded>}, tensor<4x128xbf16> {ttcore.local_shape = #ttcore<local_shape local_shape = tensor<4x128xbf16>>, ttcore.shard_status = #ttcore.shard_status<presharded>}, tensor<1x4x8x2xf32> {ttcore.local_shape = #ttcore<local_shape local_shape = tensor<1x4x8x2xf32>>, ttcore.shard_status = #ttcore.shard_status<presharded>}, tensor<32xi64> {ttcore.local_shape = #ttcore<local_shape local_shape = tensor<32xi64>>, ttcore.shard_status = #ttcore.shard_status<presharded>}, tensor<1x1x32xi1> {ttcore.local_shape = #ttcore<local_shape local_shape = tensor<1x1x32xi1>>, ttcore.shard_status = #ttcore.shard_status<presharded>}, tensor<8xi64> {ttcore.local_shape = #ttcore<local_shape local_shape = tensor<8xi64>>, ttcore.shard_status = #ttcore.shard_status<presharded>}, tensor<1x8x1xi1> {ttcore.local_shape = #ttcore<local_shape local_shape = tensor<1x8x1xi1>>, ttcore.shard_status = #ttcore.shard_status<presharded>}, tensor<1x4x32xf32> {ttcore.local_shape = #ttcore<local_shape local_shape = tensor<1x4x32xf32>>, ttcore.shard_status = #ttcore.shard_status<presharded>}, tensor<1x4x8xf32> {ttcore.local_shape = #ttcore<local_shape local_shape = tensor<1x4x8xf32>>, ttcore.shard_status = #ttcore.shard_status<presharded>}, tensor<1x4x8xf32> {ttcore.local_shape = #ttcore<local_shape local_shape = tensor<1x4x8xf32>>, ttcore.shard_status = #ttcore.shard_status<presharded>}, tensor<1x1x32xi1> {ttcore.local_shape = #ttcore<local_shape local_shape = tensor<1x1x32xi1>>, ttcore.shard_status = #ttcore.shard_status<presharded>}, tensor<1x8x1xi1> {ttcore.local_shape = #ttcore<local_shape local_shape = tensor<1x8x1xi1>>, ttcore.shard_status = #ttcore.shard_status<presharded>}, tensor<1x4x1xf32> {ttcore.local_shape = #ttcore<local_shape local_shape = tensor<1x4x1xf32>>, ttcore.shard_status = #ttcore.shard_status<presharded>}, tensor<1x4x32xf32> {ttcore.local_shape = #ttcore<local_shape local_shape = tensor<1x4x32xf32>>, ttcore.shard_status = #ttcore.shard_status<presharded>}) {
    %cst = stablehlo.constant dense<9.99999997E-7> : tensor<1x4x1xf32> loc(#loc)
    %cst_0 = stablehlo.constant dense<3.125000e-02> : tensor<1x4xf32> loc(#loc)
    %cst_1 = stablehlo.constant dense<2.000000e+00> : tensor<1x4x32xf32> loc(#loc)
    %c = stablehlo.constant dense<3> : tensor<8xi64> loc(#loc)
    %cst_2 = stablehlo.constant dense<[0.000000e+00, 1.000000e+00, 2.000000e+00, 3.000000e+00, 4.000000e+00, 5.000000e+00, 6.000000e+00, 7.000000e+00]> : tensor<8xf32> loc(#loc)
    %c_3 = stablehlo.constant dense<0> : tensor<8xi64> loc(#loc)
    %c_4 = stablehlo.constant dense<15> : tensor<32xi64> loc(#loc)
    %cst_5 = stablehlo.constant dense<[… > : tensor<32xf32> loc(#loc)
    %c_6 = stablehlo.constant dense<0> : tensor<32xi64> loc(#loc)
    %c_7 = stablehlo.constant dense<[true, true, true, true, false, false, false, false]> : tensor<8xi1> loc(#loc)
    %c_8 = stablehlo.constant dense<[false, false, false, false, false, false, false, false, false, false, false, false, false, false, false, false, true, true, true, true, true, true, true, true, true, true, true, true, true, true, true, true]> : tensor<32xi1> loc(#loc)
    %cst_9 = stablehlo.constant dense<0.000000e+00> : tensor<f32> loc(#loc)
    %0 = stablehlo.reshape %arg0 : (tensor<32xf32>) -> tensor<1x1x32xf32> loc(#loc6)
    %1 = stablehlo.reshape %0 : (tensor<1x1x32xf32>) -> tensor<32xf32> loc(#loc7)
    %2 = stablehlo.slice %arg1 [0:4, 0:8, 0:2] : (tensor<32x8x2xf32>) -> tensor<4x8x2xf32> loc(#loc8)
    %3 = stablehlo.broadcast_in_dim %arg3, dims = [] : (tensor<i1>) -> tensor<32xi1> loc(#loc9)
    %4 = stablehlo.and %3, %c_8 : tensor<32xi1> loc(#loc10)
    %5 = stablehlo.broadcast_in_dim %arg3, dims = [] : (tensor<i1>) -> tensor<8xi1> loc(#loc11)
    %6 = stablehlo.and %5, %c_7 : tensor<8xi1> loc(#loc12)
    %7 = stablehlo.reshape %arg2 : (tensor<1x4x128xbf16>) -> tensor<4x128xbf16> loc(#loc13)
    %8 = stablehlo.reshape %2 : (tensor<4x8x2xf32>) -> tensor<1x4x8x2xf32> loc(#loc14)
    %9 = stablehlo.floor %cst_5 : tensor<32xf32> loc(#loc15)
    %10 = stablehlo.convert %9 : (tensor<32xf32>) -> tensor<32xi64> loc(#loc16)
    %11 = stablehlo.clamp %c_6, %10, %c_4 : tensor<32xi64> loc(#loc17)
    %12 = stablehlo.reshape %4 : (tensor<32xi1>) -> tensor<1x1x32xi1> loc(#loc18)
    %13 = stablehlo.floor %cst_2 : tensor<8xf32> loc(#loc19)
    %14 = stablehlo.convert %13 : (tensor<8xf32>) -> tensor<8xi64> loc(#loc20)
    %15 = stablehlo.clamp %c_3, %14, %c : tensor<8xi64> loc(#loc21)
    %16 = stablehlo.reshape %6 : (tensor<8xi1>) -> tensor<1x8x1xi1> loc(#loc22)
    %17 = stablehlo.reshape %arg4 : (tensor<32x128xbf16>) -> tensor<1x32x128xbf16> loc(#loc23)
    %18 = stablehlo.reshape %17 : (tensor<1x32x128xbf16>) -> tensor<32x128xbf16> loc(#loc24)
    %19 = stablehlo.transpose %18, dims = [1, 0] {result_layout = dense<[0, 1]> : tensor<2xindex>, xla_shape = "bf16[128,32]{0,1}"} : (tensor<32x128xbf16>) -> tensor<128x32xbf16> loc(#loc25)
    %20 = stablehlo.dot_general %7, %19, contracting_dims = [1] x [0] : (tensor<4x128xbf16>, tensor<128x32xbf16>) -> tensor<4x32xbf16> loc(#loc26)
    %21 = stablehlo.reshape %20 : (tensor<4x32xbf16>) -> tensor<1x4x32xbf16> loc(#loc27)
    %22 = stablehlo.convert %21 : (tensor<1x4x32xbf16>) -> tensor<1x4x32xf32> loc(#loc28)
    %23 = stablehlo.slice %8 [0:1, 0:4, 0:8, 0:1] : (tensor<1x4x8x2xf32>) -> tensor<1x4x8x1xf32> loc(#loc29)
    %24 = stablehlo.reshape %23 : (tensor<1x4x8x1xf32>) -> tensor<1x4x8xf32> loc(#loc30)
    %25 = stablehlo.slice %8 [0:1, 0:4, 0:8, 1:2] : (tensor<1x4x8x2xf32>) -> tensor<1x4x8x1xf32> loc(#loc31)
    %26 = stablehlo.reshape %25 : (tensor<1x4x8x1xf32>) -> tensor<1x4x8xf32> loc(#loc32)
    %27 = stablehlo.not %12 : tensor<1x1x32xi1> loc(#loc33)
    %28 = stablehlo.not %16 : tensor<1x8x1xi1> loc(#loc34)
    %29 = stablehlo.power %22, %cst_1 : tensor<1x4x32xf32> loc(#loc35)
    %30 = stablehlo.reduce(%29 init: %cst_9) applies stablehlo.add across dimensions = [2] : (tensor<1x4x32xf32>, tensor<f32>) -> tensor<1x4xf32> loc(#loc36)
    %31 = stablehlo.multiply %30, %cst_0 : tensor<1x4xf32> loc(#loc37)
    %32 = stablehlo.reshape %31 : (tensor<1x4xf32>) -> tensor<1x4x1xf32> loc(#loc38)
    %33 = stablehlo.add %32, %cst : tensor<1x4x1xf32> loc(#loc39)
    %34 = stablehlo.rsqrt %33 : tensor<1x4x1xf32> loc(#loc40)
    %35 = stablehlo.reshape %34 : (tensor<1x4x1xf32>) -> tensor<1x4xf32> loc(#loc41)
    %36 = stablehlo.broadcast_in_dim %35, dims = [0, 1] : (tensor<1x4xf32>) -> tensor<1x4x32xf32> loc(#loc42)
    %37 = stablehlo.multiply %22, %36 : tensor<1x4x32xf32> loc(#loc43)
    return %0, %1, %arg1, %arg2, %2, %4, %6, %7, %8, %11, %12, %15, %16, %22, %24, %26, %27, %28, %34, %37 : tensor<1x1x32xf32>, tensor<32xf32>, tensor<32x8x2xf32>, tensor<1x4x128xbf16>, tensor<4x8x2xf32>, tensor<32xi1>, tensor<8xi1>, tensor<4x128xbf16>, tensor<1x4x8x2xf32>, tensor<32xi64>, tensor<1x1x32xi1>, tensor<8xi64>, tensor<1x8x1xi1>, tensor<1x4x32xf32>, tensor<1x4x8xf32>, tensor<1x4x8xf32>, tensor<1x1x32xi1>, tensor<1x8x1xi1>, tensor<1x4x1xf32>, tensor<1x4x32xf32> loc(#loc)
  } loc(#loc)
} loc(#loc)
#loc = loc(unknown)
#loc6 = loc("reshape.2")
#loc7 = loc("reshape.4")
#loc8 = loc("slice.9")
#loc9 = loc("broadcast.18")
#loc10 = loc("and.21")
#loc11 = loc("broadcast.29")
#loc12 = loc("and.32")
#loc13 = loc("reshape.33")
#loc14 = loc("reshape.34")
#loc15 = loc("floor.47")
#loc16 = loc("convert.48")
#loc17 = loc("clamp.51")
#loc18 = loc("reshape.52")
#loc19 = loc("floor.65")
#loc20 = loc("convert.66")
#loc21 = loc("clamp.69")
#loc22 = loc("reshape.70")
#loc23 = loc("reshape.72")
#loc24 = loc("reshape.74")
#loc25 = loc("transpose.75")
#loc26 = loc("dot.76")
#loc27 = loc("reshape.77")
#loc28 = loc("convert.78")
#loc29 = loc("slice.79")
#loc30 = loc("reshape.80")
#loc31 = loc("slice.81")
#loc32 = loc("reshape.82")
#loc33 = loc("not.83")
#loc34 = loc("not.84")
#loc35 = loc("power.89")
#loc36 = loc("reduce.96")
#loc37 = loc("multiply.105")
#loc38 = loc("reshape.106")
#loc39 = loc("add.110")
#loc40 = loc("rsqrt.111")
#loc41 = loc("reshape.112")
#loc42 = loc("broadcast.113")
#loc43 = loc("multiply.114")
------------------ END OF MLIR MODULE ------------------
2026-04-27 18:37:08.625 (   5.217s) [        CBBAC740]      module_builder.cc:1220     1| MLIR Module shlo_compiler_cleaned:
#loc = loc(unknown)
module @SyncTensorsGraph.116 attributes {mhlo.cross_program_prefetches = [], mhlo.input_output_alias = [], mhlo.is_dynamic = false, mhlo.use_auto_spmd_partitioning = false} {
  func.func @main(%arg0: tensor<32xf32> loc(unknown), %arg1: tensor<32x8x2xf32> loc(unknown), %arg2: tensor<1x4x128xbf16> loc(unknown), %arg3: tensor<i1> loc(unknown), %arg4: tensor<32x128xbf16> loc(unknown)) -> (tensor<1x1x32xf32>, tensor<32xf32>, tensor<32x8x2xf32>, tensor<1x4x128xbf16>, tensor<4x8x2xf32>, tensor<32xi1>, tensor<8xi1>, tensor<4x128xbf16>, tensor<1x4x8x2xf32>, tensor<32xi64>, tensor<1x1x32xi1>, tensor<8xi64>, tensor<1x8x1xi1>, tensor<1x4x32xf32>, tensor<1x4x8xf32>, tensor<1x4x8xf32>, tensor<1x1x32xi1>, tensor<1x8x1xi1>, tensor<1x4x1xf32>, tensor<1x4x32xf32>) {
    %cst = stablehlo.constant dense<9.99999997E-7> : tensor<1x4x1xf32> loc(#loc)
    %cst_0 = stablehlo.constant dense<3.125000e-02> : tensor<1x4xf32> loc(#loc)
    %cst_1 = stablehlo.constant dense<2.000000e+00> : tensor<1x4x32xf32> loc(#loc)
    %c = stablehlo.constant dense<3> : tensor<8xi64> loc(#loc)
    %cst_2 = stablehlo.constant dense<[0.000000e+00, 1.000000e+00, 2.000000e+00, 3.000000e+00, 4.000000e+00, 5.000000e+00, 6.000000e+00, 7.000000e+00]> : tensor<8xf32> loc(#loc)
    %c_3 = stablehlo.constant dense<0> : tensor<8xi64> loc(#loc)
    %c_4 = stablehlo.constant dense<15> : tensor<32xi64> loc(#loc)
    %cst_5 = stablehlo.constant dense<[… > : tensor<32xf32> loc(#loc)
    %c_6 = stablehlo.constant dense<0> : tensor<32xi64> loc(#loc)
    %c_7 = stablehlo.constant dense<[true, true, true, true, false, false, false, false]> : tensor<8xi1> loc(#loc)
    %c_8 = stablehlo.constant dense<[false, false, false, false, false, false, false, false, false, false, false, false, false, false, false, false, true, true, true, true, true, true, true, true, true, true, true, true, true, true, true, true]> : tensor<32xi1> loc(#loc)
    %cst_9 = stablehlo.constant dense<0.000000e+00> : tensor<f32> loc(#loc)
    %0 = stablehlo.reshape %arg0 : (tensor<32xf32>) -> tensor<1x1x32xf32> loc(#loc)
    %1 = stablehlo.reshape %0 : (tensor<1x1x32xf32>) -> tensor<32xf32> loc(#loc)
    %2 = stablehlo.slice %arg1 [0:4, 0:8, 0:2] : (tensor<32x8x2xf32>) -> tensor<4x8x2xf32> loc(#loc)
    %3 = stablehlo.broadcast_in_dim %arg3, dims = [] : (tensor<i1>) -> tensor<32xi1> loc(#loc)
    %4 = stablehlo.and %3, %c_8 : tensor<32xi1> loc(#loc)
    %5 = stablehlo.broadcast_in_dim %arg3, dims = [] : (tensor<i1>) -> tensor<8xi1> loc(#loc)
    %6 = stablehlo.and %5, %c_7 : tensor<8xi1> loc(#loc)
    %7 = stablehlo.reshape %arg2 : (tensor<1x4x128xbf16>) -> tensor<4x128xbf16> loc(#loc)
    %8 = stablehlo.reshape %2 : (tensor<4x8x2xf32>) -> tensor<1x4x8x2xf32> loc(#loc)
    %9 = stablehlo.floor %cst_5 : tensor<32xf32> loc(#loc)
    %10 = stablehlo.convert %9 : (tensor<32xf32>) -> tensor<32xi64> loc(#loc)
    %11 = stablehlo.clamp %c_6, %10, %c_4 : tensor<32xi64> loc(#loc)
    %12 = stablehlo.reshape %4 : (tensor<32xi1>) -> tensor<1x1x32xi1> loc(#loc)
    %13 = stablehlo.floor %cst_2 : tensor<8xf32> loc(#loc)
    %14 = stablehlo.convert %13 : (tensor<8xf32>) -> tensor<8xi64> loc(#loc)
    %15 = stablehlo.clamp %c_3, %14, %c : tensor<8xi64> loc(#loc)
    %16 = stablehlo.reshape %6 : (tensor<8xi1>) -> tensor<1x8x1xi1> loc(#loc)
    %17 = stablehlo.reshape %arg4 : (tensor<32x128xbf16>) -> tensor<1x32x128xbf16> loc(#loc)
    %18 = stablehlo.reshape %17 : (tensor<1x32x128xbf16>) -> tensor<32x128xbf16> loc(#loc)
    %19 = stablehlo.transpose %18, dims = [1, 0] {result_layout = dense<[0, 1]> : tensor<2xindex>, xla_shape = "bf16[128,32]{0,1}"} : (tensor<32x128xbf16>) -> tensor<128x32xbf16> loc(#loc)
    %20 = stablehlo.dot_general %7, %19, contracting_dims = [1] x [0] : (tensor<4x128xbf16>, tensor<128x32xbf16>) -> tensor<4x32xbf16> loc(#loc)
    %21 = stablehlo.reshape %20 : (tensor<4x32xbf16>) -> tensor<1x4x32xbf16> loc(#loc)
    %22 = stablehlo.convert %21 : (tensor<1x4x32xbf16>) -> tensor<1x4x32xf32> loc(#loc)
    %23 = stablehlo.slice %8 [0:1, 0:4, 0:8, 0:1] : (tensor<1x4x8x2xf32>) -> tensor<1x4x8x1xf32> loc(#loc)
    %24 = stablehlo.reshape %23 : (tensor<1x4x8x1xf32>) -> tensor<1x4x8xf32> loc(#loc)
    %25 = stablehlo.slice %8 [0:1, 0:4, 0:8, 1:2] : (tensor<1x4x8x2xf32>) -> tensor<1x4x8x1xf32> loc(#loc)
    %26 = stablehlo.reshape %25 : (tensor<1x4x8x1xf32>) -> tensor<1x4x8xf32> loc(#loc)
    %27 = stablehlo.not %12 : tensor<1x1x32xi1> loc(#loc)
    %28 = stablehlo.not %16 : tensor<1x8x1xi1> loc(#loc)
    %29 = stablehlo.power %22, %cst_1 : tensor<1x4x32xf32> loc(#loc)
    %30 = stablehlo.reduce(%29 init: %cst_9) applies stablehlo.add across dimensions = [2] : (tensor<1x4x32xf32>, tensor<f32>) -> tensor<1x4xf32> loc(#loc)
    %31 = stablehlo.multiply %30, %cst_0 : tensor<1x4xf32> loc(#loc)
    %32 = stablehlo.reshape %31 : (tensor<1x4xf32>) -> tensor<1x4x1xf32> loc(#loc)
    %33 = stablehlo.add %32, %cst : tensor<1x4x1xf32> loc(#loc)
    %34 = stablehlo.rsqrt %33 : tensor<1x4x1xf32> loc(#loc)
    %35 = stablehlo.reshape %34 : (tensor<1x4x1xf32>) -> tensor<1x4xf32> loc(#loc)
    %36 = stablehlo.broadcast_in_dim %35, dims = [0, 1] : (tensor<1x4xf32>) -> tensor<1x4x32xf32> loc(#loc)
    %37 = stablehlo.multiply %22, %36 : tensor<1x4x32xf32> loc(#loc)
    return %0, %1, %arg1, %arg2, %2, %4, %6, %7, %8, %11, %12, %15, %16, %22, %24, %26, %27, %28, %34, %37 : tensor<1x1x32xf32>, tensor<32xf32>, tensor<32x8x2xf32>, tensor<1x4x128xbf16>, tensor<4x8x2xf32>, tensor<32xi1>, tensor<8xi1>, tensor<4x128xbf16>, tensor<1x4x8x2xf32>, tensor<32xi64>, tensor<1x1x32xi1>, tensor<8xi64>, tensor<1x8x1xi1>, tensor<1x4x32xf32>, tensor<1x4x8xf32>, tensor<1x4x8xf32>, tensor<1x1x32xi1>, tensor<1x8x1xi1>, tensor<1x4x1xf32>, tensor<1x4x32xf32> loc(#loc)
  } loc(#loc)
} loc(#loc)
------------------ END OF MLIR MODULE ------------------
2026-04-27 18:37:08.633 (   5.224s) [        CBBAC740]      module_builder.cc:1220     1| MLIR Module ttir:
#loc1 = loc("p0.1")
#loc2 = loc("p1.5")
#loc3 = loc("p2.7")
#loc4 = loc("p3.14")
#loc5 = loc("p4.71")
module @SyncTensorsGraph.116 attributes {mhlo.cross_program_prefetches = [], mhlo.input_output_alias = [], mhlo.is_dynamic = false, mhlo.use_auto_spmd_partitioning = false, ttcore.meshes = #ttcore.meshes<[<"mesh" = 1x1>]>} {
  ttcore.device_module {
    builtin.module @SyncTensorsGraph.116 attributes {mhlo.cross_program_prefetches = [], mhlo.input_output_alias = [], mhlo.is_dynamic = false, mhlo.use_auto_spmd_partitioning = false, ttcore.meshes = #ttcore.meshes<[<"mesh" = 1x1>]>} {
      func.func @main(%arg0: tensor<32xf32> {ttcore.argument_type = #ttcore.argument_type<parameter>, ttcore.local_shape = #ttcore<local_shape local_shape = tensor<32xf32>>, ttcore.shard_status = #ttcore.shard_status<unsharded>, ttir.name = "kv_norm.weight"} loc("p0.1"), %arg1: tensor<32x8x2xf32> {ttcore.argument_type = #ttcore.argument_type<constant>, ttcore.local_shape = #ttcore<local_shape local_shape = tensor<32x8x2xf32>>, ttcore.shard_status = #ttcore.shard_status<unsharded>, ttir.name = "freqs_cis"} loc("p1.5"), %arg2: tensor<1x4x128xbf16> {ttcore.argument_type = #ttcore.argument_type<input>, ttcore.local_shape = #ttcore<local_shape local_shape = tensor<1x4x128xbf16>>, ttcore.shard_status = #ttcore.shard_status<unsharded>, ttir.name = "args_0"} loc("p2.7"), %arg3: tensor<i1> {ttcore.argument_type = #ttcore.argument_type<input>, ttcore.local_shape = #ttcore<local_shape local_shape = tensor<i1>>, ttcore.shard_status = #ttcore.shard_status<unsharded>} loc("p3.14"), %arg4: tensor<32x128xbf16> {ttcore.argument_type = #ttcore.argument_type<parameter>, ttcore.local_shape = #ttcore<local_shape local_shape = tensor<32x128xbf16>>, ttcore.shard_status = #ttcore.shard_status<unsharded>, ttir.name = "wkv.weight"} loc("p4.71")) -> (tensor<1x1x32xf32> {ttcore.local_shape = #ttcore<local_shape local_shape = tensor<1x1x32xf32>>, ttcore.shard_status = #ttcore.shard_status<presharded>}, tensor<32xf32> {ttcore.local_shape = #ttcore<local_shape local_shape = tensor<32xf32>>, ttcore.shard_status = #ttcore.shard_status<presharded>}, tensor<32x8x2xf32> {ttcore.local_shape = #ttcore<local_shape local_shape = tensor<32x8x2xf32>>, ttcore.shard_status = #ttcore.shard_status<presharded>}, tensor<1x4x128xbf16> {ttcore.local_shape = #ttcore<local_shape local_shape = tensor<1x4x128xbf16>>, ttcore.shard_status = #ttcore.shard_status<presharded>}, tensor<4x8x2xf32> {ttcore.local_shape = #ttcore<local_shape local_shape = tensor<4x8x2xf32>>, ttcore.shard_status = #ttcore.shard_status<presharded>}, tensor<32xi1> {ttcore.local_shape = #ttcore<local_shape local_shape = tensor<32xi1>>, ttcore.shard_status = #ttcore.shard_status<presharded>}, tensor<8xi1> {ttcore.local_shape = #ttcore<local_shape local_shape = tensor<8xi1>>, ttcore.shard_status = #ttcore.shard_status<presharded>}, tensor<4x128xbf16> {ttcore.local_shape = #ttcore<local_shape local_shape = tensor<4x128xbf16>>, ttcore.shard_status = #ttcore.shard_status<presharded>}, tensor<1x4x8x2xf32> {ttcore.local_shape = #ttcore<local_shape local_shape = tensor<1x4x8x2xf32>>, ttcore.shard_status = #ttcore.shard_status<presharded>}, tensor<32xi64> {ttcore.local_shape = #ttcore<local_shape local_shape = tensor<32xi64>>, ttcore.shard_status = #ttcore.shard_status<presharded>}, tensor<1x1x32xi1> {ttcore.local_shape = #ttcore<local_shape local_shape = tensor<1x1x32xi1>>, ttcore.shard_status = #ttcore.shard_status<presharded>}, tensor<8xi64> {ttcore.local_shape = #ttcore<local_shape local_shape = tensor<8xi64>>, ttcore.shard_status = #ttcore.shard_status<presharded>}, tensor<1x8x1xi1> {ttcore.local_shape = #ttcore<local_shape local_shape = tensor<1x8x1xi1>>, ttcore.shard_status = #ttcore.shard_status<presharded>}, tensor<1x4x32xf32> {ttcore.local_shape = #ttcore<local_shape local_shape = tensor<1x4x32xf32>>, ttcore.shard_status = #ttcore.shard_status<presharded>}, tensor<1x4x8xf32> {ttcore.local_shape = #ttcore<local_shape local_shape = tensor<1x4x8xf32>>, ttcore.shard_status = #ttcore.shard_status<presharded>}, tensor<1x4x8xf32> {ttcore.local_shape = #ttcore<local_shape local_shape = tensor<1x4x8xf32>>, ttcore.shard_status = #ttcore.shard_status<presharded>}, tensor<1x1x32xi1> {ttcore.local_shape = #ttcore<local_shape local_shape = tensor<1x1x32xi1>>, ttcore.shard_status = #ttcore.shard_status<presharded>}, tensor<1x8x1xi1> {ttcore.local_shape = #ttcore<local_shape local_shape = tensor<1x8x1xi1>>, ttcore.shard_status = #ttcore.shard_status<presharded>}, tensor<1x4x1xf32> {ttcore.local_shape = #ttcore<local_shape local_shape = tensor<1x4x1xf32>>, ttcore.shard_status = #ttcore.shard_status<presharded>}, tensor<1x4x32xf32> {ttcore.local_shape = #ttcore<local_shape local_shape = tensor<1x4x32xf32>>, ttcore.shard_status = #ttcore.shard_status<presharded>}) {
        %0 = "ttir.constant"() <{value = dense<9.99999997E-7> : tensor<1x4x1xf32>}> : () -> tensor<1x4x1xf32> loc(#loc)
        %1 = "ttir.constant"() <{value = dense<3.125000e-02> : tensor<1x4xf32>}> : () -> tensor<1x4xf32> loc(#loc)
        %2 = "ttir.constant"() <{value = dense<2.000000e+00> : tensor<1x4x32xf32>}> : () -> tensor<1x4x32xf32> loc(#loc)
        %3 = "ttir.constant"() <{value = dense<3> : tensor<8xi64>}> : () -> tensor<8xi64> loc(#loc)
        %4 = "ttir.constant"() <{value = dense<[0.000000e+00, 1.000000e+00, 2.000000e+00, 3.000000e+00, 4.000000e+00, 5.000000e+00, 6.000000e+00, 7.000000e+00]> : tensor<8xf32>}> : () -> tensor<8xf32> loc(#loc)
        %5 = "ttir.constant"() <{value = dense<0> : tensor<8xi64>}> : () -> tensor<8xi64> loc(#loc)
        %6 = "ttir.constant"() <{value = dense<15> : tensor<32xi64>}> : () -> tensor<32xi64> loc(#loc)
        %7 = "ttir.constant"() <{value = dense<[… > : tensor<32xf32>}> : () -> tensor<32xf32> loc(#loc)
        %8 = "ttir.constant"() <{value = dense<0> : tensor<32xi64>}> : () -> tensor<32xi64> loc(#loc)
        %9 = "ttir.constant"() <{value = dense<[true, true, true, true, false, false, false, false]> : tensor<8xi1>}> : () -> tensor<8xi1> loc(#loc)
        %10 = "ttir.constant"() <{value = dense<[false, false, false, false, false, false, false, false, false, false, false, false, false, false, false, false, true, true, true, true, true, true, true, true, true, true, true, true, true, true, true, true]> : tensor<32xi1>}> : () -> tensor<32xi1> loc(#loc)
        %11 = "ttir.reshape"(%arg0) <{shape = [1 : i32, 1 : i32, 32 : i32]}> : (tensor<32xf32>) -> tensor<1x1x32xf32> loc(#loc6)
        %12 = "ttir.slice_static"(%arg1) <{begins = [0 : i32, 0 : i32, 0 : i32], ends = [4 : i32, 8 : i32, 2 : i32], step = [1 : i32, 1 : i32, 1 : i32]}> : (tensor<32x8x2xf32>) -> tensor<4x8x2xf32> loc(#loc7)
        %13 = "ttir.reshape"(%arg3) <{shape = [1 : i32]}> : (tensor<i1>) -> tensor<1xi1> loc(#loc8)
        %14 = "ttir.broadcast"(%13) <{broadcast_dimensions = array<i64: 32>}> : (tensor<1xi1>) -> tensor<32xi1> loc(#loc8)
        %15 = "ttir.logical_and"(%14, %10) : (tensor<32xi1>, tensor<32xi1>) -> tensor<32xi1> loc(#loc9)
        %16 = "ttir.broadcast"(%13) <{broadcast_dimensions = array<i64: 8>}> : (tensor<1xi1>) -> tensor<8xi1> loc(#loc10)
        %17 = "ttir.logical_and"(%16, %9) : (tensor<8xi1>, tensor<8xi1>) -> tensor<8xi1> loc(#loc11)
        %18 = "ttir.reshape"(%arg2) <{shape = [4 : i32, 128 : i32]}> : (tensor<1x4x128xbf16>) -> tensor<4x128xbf16> loc(#loc12)
        %19 = "ttir.reshape"(%12) <{shape = [1 : i32, 4 : i32, 8 : i32, 2 : i32]}> : (tensor<4x8x2xf32>) -> tensor<1x4x8x2xf32> loc(#loc13)
        %20 = "ttir.floor"(%7) : (tensor<32xf32>) -> tensor<32xf32> loc(#loc14)
        %21 = "ttir.typecast"(%20) <{conservative_folding = false}> : (tensor<32xf32>) -> tensor<32xi64> loc(#loc15)
        %22 = "ttir.clamp_tensor"(%21, %8, %6) : (tensor<32xi64>, tensor<32xi64>, tensor<32xi64>) -> tensor<32xi64> loc(#loc16)
        %23 = "ttir.reshape"(%15) <{shape = [1 : i32, 1 : i32, 32 : i32]}> : (tensor<32xi1>) -> tensor<1x1x32xi1> loc(#loc17)
        %24 = "ttir.floor"(%4) : (tensor<8xf32>) -> tensor<8xf32> loc(#loc18)
        %25 = "ttir.typecast"(%24) <{conservative_folding = false}> : (tensor<8xf32>) -> tensor<8xi64> loc(#loc19)
        %26 = "ttir.clamp_tensor"(%25, %5, %3) : (tensor<8xi64>, tensor<8xi64>, tensor<8xi64>) -> tensor<8xi64> loc(#loc20)
        %27 = "ttir.reshape"(%17) <{shape = [1 : i32, 8 : i32, 1 : i32]}> : (tensor<8xi1>) -> tensor<1x8x1xi1> loc(#loc21)
        %28 = "ttir.permute"(%arg4) <{permutation = array<i64: 1, 0>}> : (tensor<32x128xbf16>) -> tensor<128x32xbf16> loc(#loc22)
        %29 = "ttir.dot_general"(%18, %28) <{batch_dims_lhs = array<i64>, batch_dims_rhs = array<i64>, contract_dims_lhs = array<i64: 1>, contract_dims_rhs = array<i64: 0>}> : (tensor<4x128xbf16>, tensor<128x32xbf16>) -> tensor<4x32xbf16> loc(#loc23)
        %30 = "ttir.reshape"(%29) <{shape = [1 : i32, 4 : i32, 32 : i32]}> : (tensor<4x32xbf16>) -> tensor<1x4x32xbf16> loc(#loc24)
        %31 = "ttir.typecast"(%30) <{conservative_folding = false}> : (tensor<1x4x32xbf16>) -> tensor<1x4x32xf32> loc(#loc25)
        %32 = "ttir.slice_static"(%19) <{begins = [0 : i32, 0 : i32, 0 : i32, 0 : i32], ends = [1 : i32, 4 : i32, 8 : i32, 1 : i32], step = [1 : i32, 1 : i32, 1 : i32, 1 : i32]}> : (tensor<1x4x8x2xf32>) -> tensor<1x4x8x1xf32> loc(#loc26)
        %33 = "ttir.reshape"(%32) <{shape = [1 : i32, 4 : i32, 8 : i32]}> : (tensor<1x4x8x1xf32>) -> tensor<1x4x8xf32> loc(#loc27)
        %34 = "ttir.slice_static"(%19) <{begins = [0 : i32, 0 : i32, 0 : i32, 1 : i32], ends = [1 : i32, 4 : i32, 8 : i32, 2 : i32], step = [1 : i32, 1 : i32, 1 : i32, 1 : i32]}> : (tensor<1x4x8x2xf32>) -> tensor<1x4x8x1xf32> loc(#loc28)
        %35 = "ttir.reshape"(%34) <{shape = [1 : i32, 4 : i32, 8 : i32]}> : (tensor<1x4x8x1xf32>) -> tensor<1x4x8xf32> loc(#loc29)
        %36 = "ttir.logical_not"(%23) : (tensor<1x1x32xi1>) -> tensor<1x1x32xi1> loc(#loc30)
        %37 = "ttir.logical_not"(%27) : (tensor<1x8x1xi1>) -> tensor<1x8x1xi1> loc(#loc31)
        %38 = "ttir.pow"(%31, %2) : (tensor<1x4x32xf32>, tensor<1x4x32xf32>) -> tensor<1x4x32xf32> loc(#loc32)
        %39 = "ttir.sum"(%38) <{dim_arg = [2 : i32], keep_dim = false}> : (tensor<1x4x32xf32>) -> tensor<1x4xf32> loc(#loc33)
        %40 = "ttir.multiply"(%39, %1) : (tensor<1x4xf32>, tensor<1x4xf32>) -> tensor<1x4xf32> loc(#loc34)
        %41 = "ttir.reshape"(%40) <{shape = [1 : i32, 4 : i32, 1 : i32]}> : (tensor<1x4xf32>) -> tensor<1x4x1xf32> loc(#loc35)
        %42 = "ttir.add"(%41, %0) : (tensor<1x4x1xf32>, tensor<1x4x1xf32>) -> tensor<1x4x1xf32> loc(#loc36)
        %43 = "ttir.rsqrt"(%42) : (tensor<1x4x1xf32>) -> tensor<1x4x1xf32> loc(#loc37)
        %44 = "ttir.reshape"(%43) <{shape = [1 : i32, 4 : i32]}> : (tensor<1x4x1xf32>) -> tensor<1x4xf32> loc(#loc38)
        %45 = "ttir.reshape"(%44) <{shape = [1 : i32, 4 : i32, 1 : i32]}> : (tensor<1x4xf32>) -> tensor<1x4x1xf32> loc(#loc39)
        %46 = "ttir.broadcast"(%45) <{broadcast_dimensions = array<i64: 1, 1, 32>}> : (tensor<1x4x1xf32>) -> tensor<1x4x32xf32> loc(#loc39)
        %47 = "ttir.multiply"(%31, %46) : (tensor<1x4x32xf32>, tensor<1x4x32xf32>) -> tensor<1x4x32xf32> loc(#loc40)
        return %11, %arg0, %arg1, %arg2, %12, %15, %17, %18, %19, %22, %23, %26, %27, %31, %33, %35, %36, %37, %43, %47 : tensor<1x1x32xf32>, tensor<32xf32>, tensor<32x8x2xf32>, tensor<1x4x128xbf16>, tensor<4x8x2xf32>, tensor<32xi1>, tensor<8xi1>, tensor<4x128xbf16>, tensor<1x4x8x2xf32>, tensor<32xi64>, tensor<1x1x32xi1>, tensor<8xi64>, tensor<1x8x1xi1>, tensor<1x4x32xf32>, tensor<1x4x8xf32>, tensor<1x4x8xf32>, tensor<1x1x32xi1>, tensor<1x8x1xi1>, tensor<1x4x1xf32>, tensor<1x4x32xf32> loc(#loc)
      } loc(#loc)
    } loc(#loc)
  } loc(#loc)
} loc(#loc)
#loc = loc(unknown)
#loc6 = loc("reshape.2")
#loc7 = loc("slice.9")
#loc8 = loc("broadcast.18")
#loc9 = loc("and.21")
#loc10 = loc("broadcast.29")
#loc11 = loc("and.32")
#loc12 = loc("reshape.33")
#loc13 = loc("reshape.34")
#loc14 = loc("floor.47")
#loc15 = loc("convert.48")
#loc16 = loc("clamp.51")
#loc17 = loc("reshape.52")
#loc18 = loc("floor.65")
#loc19 = loc("convert.66")
#loc20 = loc("clamp.69")
#loc21 = loc("reshape.70")
#loc22 = loc("transpose.75")
#loc23 = loc("dot.76")
#loc24 = loc("reshape.77")
#loc25 = loc("convert.78")
#loc26 = loc("slice.79")
#loc27 = loc("reshape.80")
#loc28 = loc("slice.81")
#loc29 = loc("reshape.82")
#loc30 = loc("not.83")
#loc31 = loc("not.84")
#loc32 = loc("power.89")
#loc33 = loc("reduce.96")
#loc34 = loc("multiply.105")
#loc35 = loc("reshape.106")
#loc36 = loc("add.110")
#loc37 = loc("rsqrt.111")
#loc38 = loc("reshape.112")
#loc39 = loc("broadcast.113")
#loc40 = loc("multiply.114")
------------------ END OF MLIR MODULE ------------------
2026-04-27 18:37:08.663 (   5.255s) [        CBBAC740]      module_builder.cc:1220     1| MLIR Module ttnn:
#dram = #ttnn.buffer_type<dram>
#loc = loc(unknown)
#loc1 = loc("p0.1")
#loc2 = loc("p1.5")
#loc3 = loc("p2.7")
#loc4 = loc("p3.14")
#loc5 = loc("p4.71")
#system_desc = #ttcore.system_desc<[{role = host, target_triple = "x86_64-pc-linux"}], [{arch = <wormhole_b0>, grid = 8x8, coord_translation_offsets = 18x18, l1_size = 1499136, num_dram_channels = 12, dram_channel_size = 1073741824, noc_l1_address_align_bytes = 16, pcie_address_align_bytes = 32, noc_dram_address_align_bytes = 32, l1_unreserved_base = 103712, erisc_l1_unreserved_base = 98304, dram_unreserved_base = 1920032, dram_unreserved_end = 1073119552, supported_data_types = [<f32>, <f16>, <bf16>, <bfp_f8>, <bfp_bf8>, <bfp_f4>, <bfp_bf4>, <bfp_f2>, <bfp_bf2>, <u32>, <u16>, <u8>, <si32>], supported_tile_sizes = [ 4x16,  16x16,  32x16,  4x32,  16x32,  32x32], dst_physical_size_tiles = 16, num_cbs = 64, num_compute_threads = 1, num_datamovement_threads = 2}], [0], [1 : i32], [ 0x0x0x0]>
#system_memory = #ttnn.buffer_type<system_memory>
#ttnn_layout = #ttnn.ttnn_layout<(d0) -> (0, d0), <1x1>, memref<1x1x!ttcore.tile<32x32, bf16>, #dram>, <interleaved>>
#ttnn_layout1 = #ttnn.ttnn_layout<(d0, d1, d2) -> (d0 * 32 + d1, d2), <1x1>, memref<1x1x!ttcore.tile<32x32, f32>, #dram>, <interleaved>>
#ttnn_layout2 = #ttnn.ttnn_layout<(d0) -> (0, d0), <1x1>, memref<1x1x!ttcore.tile<32x32, si32>, #dram>, <interleaved>>
#ttnn_layout3 = #ttnn.ttnn_layout<(d0) -> (0, d0), <1x1>, memref<1x8xsi32, #system_memory>>
#ttnn_layout4 = #ttnn.ttnn_layout<(d0) -> (0, d0), <1x1>, memref<1x1x!ttcore.tile<32x32, si32>, #system_memory>>
#ttnn_layout5 = #ttnn.ttnn_layout<(d0) -> (0, d0), <1x1>, memref<1x1x!ttcore.tile<32x32, f32>, #dram>, <interleaved>>
#ttnn_layout6 = #ttnn.ttnn_layout<(d0) -> (0, d0), <1x1>, memref<1x1x!ttcore.tile<32x32, f32>, #system_memory>>
#ttnn_layout7 = #ttnn.ttnn_layout<(d0) -> (0, d0), <1x1>, memref<1x32xf32, #system_memory>>
#ttnn_layout8 = #ttnn.ttnn_layout<(d0, d1, d2) -> (d0 + d1, d2), <1x1>, memref<1x32xf32, #system_memory>>
#ttnn_layout9 = #ttnn.ttnn_layout<(d0, d1, d2) -> (d0 * 32 + d1, d2), <1x1>, memref<1x1x!ttcore.tile<32x32, f32>, #system_memory>>
#ttnn_layout10 = #ttnn.ttnn_layout<(d0) -> (0, d0), <1x1>, memref<1x32xsi32, #system_memory>>
#ttnn_layout11 = #ttnn.ttnn_layout<(d0, d1, d2) -> (d0 * 32 + d1, d2), <1x1>, memref<32x1x!ttcore.tile<32x32, f32>, #dram>, <interleaved>>
#ttnn_layout12 = #ttnn.ttnn_layout<(d0, d1, d2) -> (d0 * 32 + d1, d2), <1x1>, memref<4x1x!ttcore.tile<32x32, f32>, #dram>, <interleaved>>
#ttnn_layout13 = #ttnn.ttnn_layout<(d0, d1, d2, d3) -> (d0 * 128 + d1 * 32 + d2, d3), <1x1>, memref<4x1x!ttcore.tile<32x32, f32>, #dram>, <interleaved>>
#ttnn_layout14 = #ttnn.ttnn_layout<(d0, d1, d2) -> (d0 * 32 + d1, d2), <1x1>, memref<32x1x!ttcore.tile<32x32, f32>, #system_memory>>
#ttnn_layout15 = #ttnn.ttnn_layout<(d0, d1, d2) -> (d0 * 8 + d1, d2), <1x1>, memref<256x2xf32, #system_memory>>
#ttnn_layout16 = #ttnn.ttnn_layout<(d0, d1, d2) -> (d0 * 8 + d1, d2), <1x1>, memref<32x2xf32, #system_memory>>
#ttnn_layout17 = #ttnn.ttnn_layout<(d0, d1, d2, d3) -> (d0 * 32 + d1 * 8 + d2, d3), <1x1>, memref<32x2xf32, #system_memory>>
#ttnn_layout18 = #ttnn.ttnn_layout<(d0, d1, d2) -> (d0 * 4 + d1, d2), <1x1>, memref<4x8xf32, #system_memory>>
#ttnn_layout19 = #ttnn.ttnn_layout<(d0, d1, d2) -> (d0 * 32 + d1, d2), <1x1>, memref<4x1x!ttcore.tile<32x32, f32>, #system_memory>>
#ttnn_layout20 = #ttnn.ttnn_layout<(d0, d1, d2, d3) -> (d0 * 128 + d1 * 32 + d2, d3), <1x1>, memref<4x1x!ttcore.tile<32x32, f32>, #system_memory>>
#ttnn_layout21 = #ttnn.ttnn_layout<(d0, d1, d2) -> (d0 * 4 + d1, d2), <1x1>, memref<4x128xbf16, #dram>, <interleaved>>
#ttnn_layout22 = #ttnn.ttnn_layout<() -> (0, 0), <1x1>, memref<1x1xbf16, #dram>, <interleaved>>
#ttnn_layout23 = #ttnn.ttnn_layout<(d0, d1) -> (d0, d1), <1x1>, memref<1x4x!ttcore.tile<32x32, bf16>, #dram>, <interleaved>>
#ttnn_layout24 = #ttnn.ttnn_layout<(d0, d1, d2) -> (d0 * 32 + d1, d2), <1x1>, memref<1x4x!ttcore.tile<32x32, bf16>, #dram>, <interleaved>>
#ttnn_layout25 = #ttnn.ttnn_layout<(d0, d1, d2) -> (d0 * 32 + d1, d2), <1x1>, memref<1x1x!ttcore.tile<32x32, bf16>, #dram>, <interleaved>>
#ttnn_layout26 = #ttnn.ttnn_layout<() -> (0, 0), <1x1>, memref<1x1x!ttcore.tile<32x32, bf16>, #dram>, <interleaved>>
#ttnn_layout27 = #ttnn.ttnn_layout<(d0, d1) -> (d0, d1), <1x1>, memref<1x1x!ttcore.tile<32x32, bf16>, #dram>, <interleaved>>
#ttnn_layout28 = #ttnn.ttnn_layout<(d0, d1) -> (d0, d1), <1x1>, memref<1x1x!ttcore.tile<32x32, f32>, #dram>, <interleaved>>
module @SyncTensorsGraph.116 attributes {mhlo.cross_program_prefetches = [], mhlo.input_output_alias = [], mhlo.is_dynamic = false, mhlo.use_auto_spmd_partitioning = false, ttcore.meshes = #ttcore.meshes<[<"mesh" = 1x1>]>} {
  ttcore.device_module {
    builtin.module @SyncTensorsGraph.116 attributes {mhlo.cross_program_prefetches = [], mhlo.input_output_alias = [], mhlo.is_dynamic = false, mhlo.use_auto_spmd_partitioning = false, ttcore.meshes = #ttcore.meshes<[<"mesh" = 1x1>]>, ttcore.system_desc = #system_desc} {
      ttcore.device @default_device = <workerGrid = #ttcore.grid<8x8, virt_to_physical_map = (d0, d1) -> (0, d0, d1), physical_to_virt_map = (d0, d1, d2) -> (d1, d2)>, l1Map = (d0, d1, d2)[s0] -> (0, d0, d1, d2 + s0), dramMap = (d0, d1, d2)[s0, s1, s2, s3, s4, s5, s6] -> (0, 0, (((d0 * s1) * (s2 * (s3 * s6)) + d1 * (s2 * (s3 * s6)) + d2) floordiv s4) mod 12, ((((d0 * s1) * (s2 * (s3 * s6)) + d1 * (s2 * (s3 * s6)) + d2) floordiv s4) floordiv 12) * s4 + ((d0 * s1) * (s2 * (s3 * s6)) + d1 * (s2 * (s3 * s6)) + d2) mod s4 + s5), meshShape = 1x1, chipIds = [0]> loc(#loc)
      func.func private @main_const_eval_0() -> tensor<32xbf16, #ttnn_layout> attributes {tt.function_type = "const_eval"} {
        %0 = "ttnn.get_device"() <{mesh_offset = #ttnn<mesh_offset 0x0>, mesh_shape = #ttnn<mesh_shape 1x1>}> : () -> !ttnn.device loc(#loc)
        %1 = "ttnn.constant"(%0) <{dtype = #ttcore.supportedDataTypes<bf16>, layout = #ttnn.layout<tile>, memory_config = #ttnn.memory_config<#dram, <interleaved>>, value = dense<[… > : tensor<32xbf16>}> : (!ttnn.device) -> tensor<32xbf16, #ttnn_layout> loc(#loc)
        return %1 : tensor<32xbf16, #ttnn_layout> loc(#loc)
      } loc(#loc)
      func.func private @main_const_eval_1() -> tensor<1x1x1xf32, #ttnn_layout1> attributes {tt.function_type = "const_eval"} {
        %0 = "ttnn.get_device"() <{mesh_offset = #ttnn<mesh_offset 0x0>, mesh_shape = #ttnn<mesh_shape 1x1>}> : () -> !ttnn.device loc(#loc)
        %1 = "ttnn.full"(%0) <{dtype = #ttcore.supportedDataTypes<f32>, fill_value = 9.99999997E-7 : f32, layout = #ttnn.layout<tile>, shape = #ttnn.shape<1x1x1>}> : (!ttnn.device) -> tensor<1x1x1xf32, #ttnn_layout1> loc(#loc)
        return %1 : tensor<1x1x1xf32, #ttnn_layout1> loc(#loc)
      } loc(#loc)
      func.func private @main_const_eval_2() -> tensor<8xsi32, #ttnn_layout2> attributes {tt.function_type = "const_eval"} {
        %0 = "ttnn.get_device"() <{mesh_offset = #ttnn<mesh_offset 0x0>, mesh_shape = #ttnn<mesh_shape 1x1>}> : () -> !ttnn.device loc(#loc)
        %1 = call @cpu_hoisted_const_eval_539b0252() {ttir.cpu_hoist_call} : () -> tensor<8xsi32, #ttnn_layout3> loc(#loc)
        %2 = "ttnn.to_layout"(%1) <{layout = #ttnn.layout<tile>}> : (tensor<8xsi32, #ttnn_layout3>) -> tensor<8xsi32, #ttnn_layout4> loc(#loc)
        "ttnn.deallocate"(%1) <{force = false}> : (tensor<8xsi32, #ttnn_layout3>) -> () loc(#loc)
        %3 = "ttnn.to_device"(%2, %0) <{memory_config = #ttnn.memory_config<#dram, <interleaved>>}> : (tensor<8xsi32, #ttnn_layout4>, !ttnn.device) -> tensor<8xsi32, #ttnn_layout2> loc(#loc)
        "ttnn.deallocate"(%2) <{force = false}> : (tensor<8xsi32, #ttnn_layout4>) -> () loc(#loc)
        return %3 : tensor<8xsi32, #ttnn_layout2> loc(#loc)
      } loc(#loc)
      func.func private @main_const_eval_3(%arg0: tensor<32xf32, #ttnn_layout5> loc(unknown)) -> tensor<1x1x32xf32, #ttnn_layout1> attributes {tt.function_type = "const_eval"} {
        %0 = "ttnn.get_device"() <{mesh_offset = #ttnn<mesh_offset 0x0>, mesh_shape = #ttnn<mesh_shape 1x1>}> : () -> !ttnn.device loc(#loc)
        %1 = "ttnn.from_device"(%arg0) : (tensor<32xf32, #ttnn_layout5>) -> tensor<32xf32, #ttnn_layout6> loc(#loc)
        %2 = "ttnn.to_layout"(%1) <{layout = #ttnn.layout<row_major>}> : (tensor<32xf32, #ttnn_layout6>) -> tensor<32xf32, #ttnn_layout7> loc(#loc)
        "ttnn.deallocate"(%1) <{force = false}> : (tensor<32xf32, #ttnn_layout6>) -> () loc(#loc)
        %3 = call @cpu_hoisted_const_eval_d605c2bf(%2) {ttir.cpu_hoist_call} : (tensor<32xf32, #ttnn_layout7>) -> tensor<1x1x32xf32, #ttnn_layout8> loc(#loc)
        "ttnn.deallocate"(%2) <{force = false}> : (tensor<32xf32, #ttnn_layout7>) -> () loc(#loc)
        %4 = "ttnn.to_layout"(%3) <{layout = #ttnn.layout<tile>}> : (tensor<1x1x32xf32, #ttnn_layout8>) -> tensor<1x1x32xf32, #ttnn_layout9> loc(#loc)
        "ttnn.deallocate"(%3) <{force = false}> : (tensor<1x1x32xf32, #ttnn_layout8>) -> () loc(#loc)
        %5 = "ttnn.to_device"(%4, %0) <{memory_config = #ttnn.memory_config<#dram, <interleaved>>}> : (tensor<1x1x32xf32, #ttnn_layout9>, !ttnn.device) -> tensor<1x1x32xf32, #ttnn_layout1> loc(#loc)
        "ttnn.deallocate"(%4) <{force = false}> : (tensor<1x1x32xf32, #ttnn_layout9>) -> () loc(#loc)
        return %5 : tensor<1x1x32xf32, #ttnn_layout1> loc(#loc)
      } loc(#loc)
      func.func private @main_const_eval_4() -> tensor<32xsi32, #ttnn_layout2> attributes {tt.function_type = "const_eval"} {
        %0 = "ttnn.get_device"() <{mesh_offset = #ttnn<mesh_offset 0x0>, mesh_shape = #ttnn<mesh_shape 1x1>}> : () -> !ttnn.device loc(#loc)
        %1 = call @cpu_hoisted_const_eval_139709bc() {ttir.cpu_hoist_call} : () -> tensor<32xsi32, #ttnn_layout10> loc(#loc)
        %2 = "ttnn.to_layout"(%1) <{layout = #ttnn.layout<tile>}> : (tensor<32xsi32, #ttnn_layout10>) -> tensor<32xsi32, #ttnn_layout4> loc(#loc)
        "ttnn.deallocate"(%1) <{force = false}> : (tensor<32xsi32, #ttnn_layout10>) -> () loc(#loc)
        %3 = "ttnn.to_device"(%2, %0) <{memory_config = #ttnn.memory_config<#dram, <interleaved>>}> : (tensor<32xsi32, #ttnn_layout4>, !ttnn.device) -> tensor<32xsi32, #ttnn_layout2> loc(#loc)
        "ttnn.deallocate"(%2) <{force = false}> : (tensor<32xsi32, #ttnn_layout4>) -> () loc(#loc)
        return %3 : tensor<32xsi32, #ttnn_layout2> loc(#loc)
      } loc(#loc)
      func.func private @main_const_eval_5() -> tensor<8xbf16, #ttnn_layout> attributes {tt.function_type = "const_eval"} {
        %0 = "ttnn.get_device"() <{mesh_offset = #ttnn<mesh_offset 0x0>, mesh_shape = #ttnn<mesh_shape 1x1>}> : () -> !ttnn.device loc(#loc)
        %1 = "ttnn.constant"(%0) <{dtype = #ttcore.supportedDataTypes<bf16>, layout = #ttnn.layout<tile>, memory_config = #ttnn.memory_config<#dram, <interleaved>>, value = dense<[1.000000e+00, 1.000000e+00, 1.000000e+00, 1.000000e+00, 0.000000e+00, 0.000000e+00, 0.000000e+00, 0.000000e+00]> : tensor<8xbf16>}> : (!ttnn.device) -> tensor<8xbf16, #ttnn_layout> loc(#loc)
        return %1 : tensor<8xbf16, #ttnn_layout> loc(#loc)
      } loc(#loc)
      func.func private @main_const_eval_6(%arg0: tensor<32x8x2xf32, #ttnn_layout11> loc(unknown)) -> (tensor<4x8x2xf32, #ttnn_layout12>, tensor<1x4x8x2xf32, #ttnn_layout13>, tensor<1x4x8xf32, #ttnn_layout1>, tensor<1x4x8xf32, #ttnn_layout1>) attributes {tt.function_type = "const_eval"} {
        %0 = "ttnn.get_device"() <{mesh_offset = #ttnn<mesh_offset 0x0>, mesh_shape = #ttnn<mesh_shape 1x1>}> : () -> !ttnn.device loc(#loc)
        %1 = "ttnn.from_device"(%arg0) : (tensor<32x8x2xf32, #ttnn_layout11>) -> tensor<32x8x2xf32, #ttnn_layout14> loc(#loc)
        %2 = "ttnn.to_layout"(%1) <{layout = #ttnn.layout<row_major>}> : (tensor<32x8x2xf32, #ttnn_layout14>) -> tensor<32x8x2xf32, #ttnn_layout15> loc(#loc)
        "ttnn.deallocate"(%1) <{force = false}> : (tensor<32x8x2xf32, #ttnn_layout14>) -> () loc(#loc)
        %3:4 = call @cpu_hoisted_const_eval_354902e9(%2) {ttir.cpu_hoist_call} : (tensor<32x8x2xf32, #ttnn_layout15>) -> (tensor<4x8x2xf32, #ttnn_layout16>, tensor<1x4x8x2xf32, #ttnn_layout17>, tensor<1x4x8xf32, #ttnn_layout18>, tensor<1x4x8xf32, #ttnn_layout18>) loc(#loc)
        "ttnn.deallocate"(%2) <{force = false}> : (tensor<32x8x2xf32, #ttnn_layout15>) -> () loc(#loc)
        %4 = "ttnn.to_layout"(%3#0) <{layout = #ttnn.layout<tile>}> : (tensor<4x8x2xf32, #ttnn_layout16>) -> tensor<4x8x2xf32, #ttnn_layout19> loc(#loc)
        "ttnn.deallocate"(%3#0) <{force = false}> : (tensor<4x8x2xf32, #ttnn_layout16>) -> () loc(#loc)
        %5 = "ttnn.to_device"(%4, %0) <{memory_config = #ttnn.memory_config<#dram, <interleaved>>}> : (tensor<4x8x2xf32, #ttnn_layout19>, !ttnn.device) -> tensor<4x8x2xf32, #ttnn_layout12> loc(#loc)
        "ttnn.deallocate"(%4) <{force = false}> : (tensor<4x8x2xf32, #ttnn_layout19>) -> () loc(#loc)
        %6 = "ttnn.to_layout"(%3#1) <{layout = #ttnn.layout<tile>}> : (tensor<1x4x8x2xf32, #ttnn_layout17>) -> tensor<1x4x8x2xf32, #ttnn_layout20> loc(#loc)
        "ttnn.deallocate"(%3#1) <{force = false}> : (tensor<1x4x8x2xf32, #ttnn_layout17>) -> () loc(#loc)
        %7 = "ttnn.to_device"(%6, %0) <{memory_config = #ttnn.memory_config<#dram, <interleaved>>}> : (tensor<1x4x8x2xf32, #ttnn_layout20>, !ttnn.device) -> tensor<1x4x8x2xf32, #ttnn_layout13> loc(#loc)
        "ttnn.deallocate"(%6) <{force = false}> : (tensor<1x4x8x2xf32, #ttnn_layout20>) -> () loc(#loc)
        %8 = "ttnn.to_layout"(%3#2) <{layout = #ttnn.layout<tile>}> : (tensor<1x4x8xf32, #ttnn_layout18>) -> tensor<1x4x8xf32, #ttnn_layout9> loc(#loc)
        "ttnn.deallocate"(%3#2) <{force = false}> : (tensor<1x4x8xf32, #ttnn_layout18>) -> () loc(#loc)
        %9 = "ttnn.to_device"(%8, %0) <{memory_config = #ttnn.memory_config<#dram, <interleaved>>}> : (tensor<1x4x8xf32, #ttnn_layout9>, !ttnn.device) -> tensor<1x4x8xf32, #ttnn_layout1> loc(#loc)
        "ttnn.deallocate"(%8) <{force = false}> : (tensor<1x4x8xf32, #ttnn_layout9>) -> () loc(#loc)
        %10 = "ttnn.to_layout"(%3#3) <{layout = #ttnn.layout<tile>}> : (tensor<1x4x8xf32, #ttnn_layout18>) -> tensor<1x4x8xf32, #ttnn_layout9> loc(#loc)
        "ttnn.deallocate"(%3#3) <{force = false}> : (tensor<1x4x8xf32, #ttnn_layout18>) -> () loc(#loc)
        %11 = "ttnn.to_device"(%10, %0) <{memory_config = #ttnn.memory_config<#dram, <interleaved>>}> : (tensor<1x4x8xf32, #ttnn_layout9>, !ttnn.device) -> tensor<1x4x8xf32, #ttnn_layout1> loc(#loc)
        "ttnn.deallocate"(%10) <{force = false}> : (tensor<1x4x8xf32, #ttnn_layout9>) -> () loc(#loc)
        return %5, %7, %9, %11 : tensor<4x8x2xf32, #ttnn_layout12>, tensor<1x4x8x2xf32, #ttnn_layout13>, tensor<1x4x8xf32, #ttnn_layout1>, tensor<1x4x8xf32, #ttnn_layout1> loc(#loc)
      } loc(#loc)
      func.func @main(%arg0: tensor<32xf32, #ttnn_layout5> {ttcore.argument_type = #ttcore.argument_type<parameter>, ttcore.local_shape = #ttcore<local_shape local_shape = tensor<32xf32>>, ttcore.shard_status = #ttcore.shard_status<unsharded>, ttir.name = "kv_norm.weight"} loc("p0.1"), %arg1: tensor<32x8x2xf32, #ttnn_layout11> {ttcore.argument_type = #ttcore.argument_type<constant>, ttcore.local_shape = #ttcore<local_shape local_shape = tensor<32x8x2xf32>>, ttcore.shard_status = #ttcore.shard_status<unsharded>, ttir.name = "freqs_cis"} loc("p1.5"), %arg2: tensor<1x4x128xbf16, #ttnn_layout21> {ttcore.argument_type = #ttcore.argument_type<input>, ttcore.local_shape = #ttcore<local_shape local_shape = tensor<1x4x128xbf16>>, ttcore.shard_status = #ttcore.shard_status<unsharded>, ttir.name = "args_0"} loc("p2.7"), %arg3: tensor<bf16, #ttnn_layout22> {ttcore.argument_type = #ttcore.argument_type<input>, ttcore.local_shape = #ttcore<local_shape local_shape = tensor<i1>>, ttcore.shard_status = #ttcore.shard_status<unsharded>} loc("p3.14"), %arg4: tensor<32x128xbf16, #ttnn_layout23> {ttcore.argument_type = #ttcore.argument_type<parameter>, ttcore.local_shape = #ttcore<local_shape local_shape = tensor<32x128xbf16>>, ttcore.shard_status = #ttcore.shard_status<unsharded>, ttir.name = "wkv.weight"} loc("p4.71")) -> (tensor<1x1x32xf32, #ttnn_layout1> {ttcore.local_shape = #ttcore<local_shape local_shape = tensor<1x1x32xf32>>, ttcore.shard_status = #ttcore.shard_status<presharded>}, tensor<32xf32, #ttnn_layout5> {ttcore.local_shape = #ttcore<local_shape local_shape = tensor<32xf32>>, ttcore.shard_status = #ttcore.shard_status<presharded>}, tensor<32x8x2xf32, #ttnn_layout11> {ttcore.local_shape = #ttcore<local_shape local_shape = tensor<32x8x2xf32>>, ttcore.shard_status = #ttcore.shard_status<presharded>}, tensor<1x4x128xbf16, #ttnn_layout24> {ttcore.local_shape = #ttcore<local_shape local_shape = tensor<1x4x128xbf16>>, ttcore.shard_status = #ttcore.shard_status<presharded>}, tensor<4x8x2xf32, #ttnn_layout12> {ttcore.local_shape = #ttcore<local_shape local_shape = tensor<4x8x2xf32>>, ttcore.shard_status = #ttcore.shard_status<presharded>}, tensor<32xbf16, #ttnn_layout> {ttcore.local_shape = #ttcore<local_shape local_shape = tensor<32xi1>>, ttcore.shard_status = #ttcore.shard_status<presharded>}, tensor<8xbf16, #ttnn_layout> {ttcore.local_shape = #ttcore<local_shape local_shape = tensor<8xi1>>, ttcore.shard_status = #ttcore.shard_status<presharded>}, tensor<4x128xbf16, #ttnn_layout23> {ttcore.local_shape = #ttcore<local_shape local_shape = tensor<4x128xbf16>>, ttcore.shard_status = #ttcore.shard_status<presharded>}, tensor<1x4x8x2xf32, #ttnn_layout13> {ttcore.local_shape = #ttcore<local_shape local_shape = tensor<1x4x8x2xf32>>, ttcore.shard_status = #ttcore.shard_status<presharded>}, tensor<32xsi32, #ttnn_layout2> {ttcore.local_shape = #ttcore<local_shape local_shape = tensor<32xi64>>, ttcore.shard_status = #ttcore.shard_status<presharded>}, tensor<1x1x32xbf16, #ttnn_layout25> {ttcore.local_shape = #ttcore<local_shape local_shape = tensor<1x1x32xi1>>, ttcore.shard_status = #ttcore.shard_status<presharded>}, tensor<8xsi32, #ttnn_layout2> {ttcore.local_shape = #ttcore<local_shape local_shape = tensor<8xi64>>, ttcore.shard_status = #ttcore.shard_status<presharded>}, tensor<1x8x1xbf16, #ttnn_layout25> {ttcore.local_shape = #ttcore<local_shape local_shape = tensor<1x8x1xi1>>, ttcore.shard_status = #ttcore.shard_status<presharded>}, tensor<1x4x32xf32, #ttnn_layout1> {ttcore.local_shape = #ttcore<local_shape local_shape = tensor<1x4x32xf32>>, ttcore.shard_status = #ttcore.shard_status<presharded>}, tensor<1x4x8xf32, #ttnn_layout1> {ttcore.local_shape = #ttcore<local_shape local_shape = tensor<1x4x8xf32>>, ttcore.shard_status = #ttcore.shard_status<presharded>}, tensor<1x4x8xf32, #ttnn_layout1> {ttcore.local_shape = #ttcore<local_shape local_shape = tensor<1x4x8xf32>>, ttcore.shard_status = #ttcore.shard_status<presharded>}, tensor<1x1x32xbf16, #ttnn_layout25> {ttcore.local_shape = #ttcore<local_shape local_shape = tensor<1x1x32xi1>>, ttcore.shard_status = #ttcore.shard_status<presharded>}, tensor<1x8x1xbf16, #ttnn_layout25> {ttcore.local_shape = #ttcore<local_shape local_shape = tensor<1x8x1xi1>>, ttcore.shard_status = #ttcore.shard_status<presharded>}, tensor<1x4x1xf32, #ttnn_layout1> {ttcore.local_shape = #ttcore<local_shape local_shape = tensor<1x4x1xf32>>, ttcore.shard_status = #ttcore.shard_status<presharded>}, tensor<1x4x32xf32, #ttnn_layout1> {ttcore.local_shape = #ttcore<local_shape local_shape = tensor<1x4x32xf32>>, ttcore.shard_status = #ttcore.shard_status<presharded>}) attributes {tt.function_type = "forward_device"} {
        %0 = ttcore.load_cached(@main_const_eval_0, []) : () -> tensor<32xbf16, #ttnn_layout> loc(#loc)
        %1 = ttcore.load_cached(@main_const_eval_1, []) : () -> tensor<1x1x1xf32, #ttnn_layout1> loc(#loc)
        %2 = ttcore.load_cached(@main_const_eval_2, []) : () -> tensor<8xsi32, #ttnn_layout2> loc(#loc)
        %3 = ttcore.load_cached(@main_const_eval_3, [%arg0]) : (tensor<32xf32, #ttnn_layout5>) -> tensor<1x1x32xf32, #ttnn_layout1> loc(#loc)
        %4 = ttcore.load_cached(@main_const_eval_4, []) : () -> tensor<32xsi32, #ttnn_layout2> loc(#loc)
        %5 = ttcore.load_cached(@main_const_eval_5, []) : () -> tensor<8xbf16, #ttnn_layout> loc(#loc)
        %6:4 = ttcore.load_cached(@main_const_eval_6, [%arg1]) : (tensor<32x8x2xf32, #ttnn_layout11>) -> (tensor<4x8x2xf32, #ttnn_layout12>, tensor<1x4x8x2xf32, #ttnn_layout13>, tensor<1x4x8xf32, #ttnn_layout1>, tensor<1x4x8xf32, #ttnn_layout1>) loc(#loc)
        %7 = "ttnn.to_layout"(%arg3) <{layout = #ttnn.layout<tile>}> : (tensor<bf16, #ttnn_layout22>) -> tensor<bf16, #ttnn_layout26> loc(#loc6)
        "ttnn.deallocate"(%arg3) <{force = false}> : (tensor<bf16, #ttnn_layout22>) -> () loc(#loc6)
        %8 = "ttnn.reshape"(%7) <{shape = [1 : i32]}> : (tensor<bf16, #ttnn_layout26>) -> tensor<1xbf16, #ttnn_layout> loc(#loc7)
        "ttnn.deallocate"(%7) <{force = false}> : (tensor<bf16, #ttnn_layout26>) -> () loc(#loc7)
        %9 = "ttnn.logical_and"(%8, %0) <{dtype = #ttcore.supportedDataTypes<bf16>}> : (tensor<1xbf16, #ttnn_layout>, tensor<32xbf16, #ttnn_layout>) -> tensor<32xbf16, #ttnn_layout> loc(#loc8)
        "ttnn.deallocate"(%0) <{force = false}> : (tensor<32xbf16, #ttnn_layout>) -> () loc(#loc8)
        %10 = "ttnn.logical_and"(%8, %5) <{dtype = #ttcore.supportedDataTypes<bf16>}> : (tensor<1xbf16, #ttnn_layout>, tensor<8xbf16, #ttnn_layout>) -> tensor<8xbf16, #ttnn_layout> loc(#loc9)
        "ttnn.deallocate"(%8) <{force = false}> : (tensor<1xbf16, #ttnn_layout>) -> () loc(#loc9)
        "ttnn.deallocate"(%5) <{force = false}> : (tensor<8xbf16, #ttnn_layout>) -> () loc(#loc9)
        %11 = "ttnn.to_layout"(%arg2) <{layout = #ttnn.layout<tile>}> : (tensor<1x4x128xbf16, #ttnn_layout21>) -> tensor<1x4x128xbf16, #ttnn_layout24> loc(#loc10)
        "ttnn.deallocate"(%arg2) <{force = false}> : (tensor<1x4x128xbf16, #ttnn_layout21>) -> () loc(#loc10)
        %12 = "ttnn.reshape"(%11) <{shape = [4 : i32, 128 : i32]}> : (tensor<1x4x128xbf16, #ttnn_layout24>) -> tensor<4x128xbf16, #ttnn_layout23> loc(#loc11)
        %13 = "ttnn.reshape"(%9) <{shape = [1 : i32, 1 : i32, 32 : i32]}> : (tensor<32xbf16, #ttnn_layout>) -> tensor<1x1x32xbf16, #ttnn_layout25> loc(#loc12)
        %14 = "ttnn.reshape"(%10) <{shape = [1 : i32, 8 : i32, 1 : i32]}> : (tensor<8xbf16, #ttnn_layout>) -> tensor<1x8x1xbf16, #ttnn_layout25> loc(#loc13)
        %15 = "ttnn.matmul"(%12, %arg4) <{compute_config = #ttnn.device_compute_kernel_config<math_fidelity = hifi4, fp32_dest_acc_en = true>, transpose_a = false, transpose_b = true}> : (tensor<4x128xbf16, #ttnn_layout23>, tensor<32x128xbf16, #ttnn_layout23>) -> tensor<4x32xbf16, #ttnn_layout27> loc(#loc14)
        "ttnn.deallocate"(%arg4) <{force = false}> : (tensor<32x128xbf16, #ttnn_layout23>) -> () loc(#loc14)
        %16 = "ttnn.typecast"(%15) <{dtype = #ttcore.supportedDataTypes<f32>}> : (tensor<4x32xbf16, #ttnn_layout27>) -> tensor<4x32xf32, #ttnn_layout28> loc(#loc15)
        "ttnn.deallocate"(%15) <{force = false}> : (tensor<4x32xbf16, #ttnn_layout27>) -> () loc(#loc15)
        %17 = "ttnn.reshape"(%16) <{shape = [1 : i32, 4 : i32, 32 : i32]}> : (tensor<4x32xf32, #ttnn_layout28>) -> tensor<1x4x32xf32, #ttnn_layout1> loc(#loc15)
        "ttnn.deallocate"(%16) <{force = false}> : (tensor<4x32xf32, #ttnn_layout28>) -> () loc(#loc15)
        %18 = "ttnn.logical_not"(%13) : (tensor<1x1x32xbf16, #ttnn_layout25>) -> tensor<1x1x32xbf16, #ttnn_layout25> loc(#loc16)
        %19 = "ttnn.logical_not"(%14) : (tensor<1x8x1xbf16, #ttnn_layout25>) -> tensor<1x8x1xbf16, #ttnn_layout25> loc(#loc17)
        %20 = "ttnn.pow_scalar"(%17) <{rhs = 2.000000e+00 : f32}> : (tensor<1x4x32xf32, #ttnn_layout1>) -> tensor<1x4x32xf32, #ttnn_layout1> loc(#loc18)
        %21 = "ttnn.mean"(%20) <{compute_config = #ttnn.device_compute_kernel_config<math_fidelity = hifi4, fp32_dest_acc_en = true>, dim_arg = [2 : i32], keep_dim = true}> : (tensor<1x4x32xf32, #ttnn_layout1>) -> tensor<1x4x1xf32, #ttnn_layout1> loc(#loc36)
        "ttnn.deallocate"(%20) <{force = false}> : (tensor<1x4x32xf32, #ttnn_layout1>) -> () loc(#loc36)
        %22 = "ttnn.add"(%21, %1) <{dtype = #ttcore.supportedDataTypes<f32>}> : (tensor<1x4x1xf32, #ttnn_layout1>, tensor<1x1x1xf32, #ttnn_layout1>) -> tensor<1x4x1xf32, #ttnn_layout1> loc(#loc20)
        "ttnn.deallocate"(%21) <{force = false}> : (tensor<1x4x1xf32, #ttnn_layout1>) -> () loc(#loc20)
        "ttnn.deallocate"(%1) <{force = false}> : (tensor<1x1x1xf32, #ttnn_layout1>) -> () loc(#loc20)
        %23 = "ttnn.rsqrt"(%22) : (tensor<1x4x1xf32, #ttnn_layout1>) -> tensor<1x4x1xf32, #ttnn_layout1> loc(#loc21)
        "ttnn.deallocate"(%22) <{force = false}> : (tensor<1x4x1xf32, #ttnn_layout1>) -> () loc(#loc21)
        %24 = "ttnn.multiply"(%17, %23) <{dtype = #ttcore.supportedDataTypes<f32>}> : (tensor<1x4x32xf32, #ttnn_layout1>, tensor<1x4x1xf32, #ttnn_layout1>) -> tensor<1x4x32xf32, #ttnn_layout1> loc(#loc22)
        return %3, %arg0, %arg1, %11, %6#0, %9, %10, %12, %6#1, %4, %13, %2, %14, %17, %6#2, %6#3, %18, %19, %23, %24 : tensor<1x1x32xf32, #ttnn_layout1>, tensor<32xf32, #ttnn_layout5>, tensor<32x8x2xf32, #ttnn_layout11>, tensor<1x4x128xbf16, #ttnn_layout24>, tensor<4x8x2xf32, #ttnn_layout12>, tensor<32xbf16, #ttnn_layout>, tensor<8xbf16, #ttnn_layout>, tensor<4x128xbf16, #ttnn_layout23>, tensor<1x4x8x2xf32, #ttnn_layout13>, tensor<32xsi32, #ttnn_layout2>, tensor<1x1x32xbf16, #ttnn_layout25>, tensor<8xsi32, #ttnn_layout2>, tensor<1x8x1xbf16, #ttnn_layout25>, tensor<1x4x32xf32, #ttnn_layout1>, tensor<1x4x8xf32, #ttnn_layout1>, tensor<1x4x8xf32, #ttnn_layout1>, tensor<1x1x32xbf16, #ttnn_layout25>, tensor<1x8x1xbf16, #ttnn_layout25>, tensor<1x4x1xf32, #ttnn_layout1>, tensor<1x4x32xf32, #ttnn_layout1> loc(#loc)
      } loc(#loc)
      func.func private @cpu_hoisted_const_eval_539b0252() -> tensor<8xsi32, #ttnn_layout3> attributes {func_hash = "539b025232c084ad31ea893389163acfbfc422ff28e87f8e0222637ecfedc505", tt.function_type = "forward_cpu_declaration"} loc(#loc)
      func.func private @cpu_hoisted_const_eval_d605c2bf(tensor<32xf32, #ttnn_layout7>) -> tensor<1x1x32xf32, #ttnn_layout8> attributes {func_hash = "d605c2bfd3a9f8c9d76a0afb92d69490d47ace5cf9fc72169424ab9ed3ba7f52", tt.function_type = "forward_cpu_declaration"} loc(#loc)
      func.func private @cpu_hoisted_const_eval_139709bc() -> tensor<32xsi32, #ttnn_layout10> attributes {func_hash = "139709bc3448433acf78a6458129903463fadb426ba5311cdf6117c04f077374", tt.function_type = "forward_cpu_declaration"} loc(#loc)
      func.func private @cpu_hoisted_const_eval_354902e9(tensor<32x8x2xf32, #ttnn_layout15>) -> (tensor<4x8x2xf32, #ttnn_layout16>, tensor<1x4x8x2xf32, #ttnn_layout17>, tensor<1x4x8xf32, #ttnn_layout18>, tensor<1x4x8xf32, #ttnn_layout18>) attributes {func_hash = "354902e992c61318567e1c776bc7a4587161d596a6d67f68ff73eeda5641f120", tt.function_type = "forward_cpu_declaration"} loc(#loc)
    } loc(#loc)
  } loc(#loc)
  ttcore.cpu_module {
    builtin.module {
      func.func @cpu_hoisted_const_eval_539b0252() -> tensor<8xi32> attributes {arg_ranks = [], func_hash = "539b025232c084ad31ea893389163acfbfc422ff28e87f8e0222637ecfedc505", result_ranks = [1], tt.function_type = "forward_cpu"} {
        %0 = "ttir.constant"() <{value = dense<[0.000000e+00, 1.000000e+00, 2.000000e+00, 3.000000e+00, 4.000000e+00, 5.000000e+00, 6.000000e+00, 7.000000e+00]> : tensor<8xf32>}> : () -> tensor<8xf32> loc(#loc)
        %1 = "ttir.floor"(%0) : (tensor<8xf32>) -> tensor<8xf32> loc(#loc23)
        %2 = "ttir.typecast"(%1) <{conservative_folding = false}> : (tensor<8xf32>) -> tensor<8xi32> loc(#loc24)
        %3 = "ttir.clamp_scalar"(%2) <{max = 3 : i32, min = 0 : i32}> : (tensor<8xi32>) -> tensor<8xi32> loc(#loc25)
        return %3 : tensor<8xi32> loc(#loc)
      } loc(#loc)
      func.func @cpu_hoisted_const_eval_d605c2bf(%arg0: tensor<32xf32> {bufferization.access = "read"} loc(unknown)) -> tensor<1x1x32xf32> attributes {arg_ranks = [1], func_hash = "d605c2bfd3a9f8c9d76a0afb92d69490d47ace5cf9fc72169424ab9ed3ba7f52", result_ranks = [3], tt.function_type = "forward_cpu"} {
        %0 = "ttir.reshape"(%arg0) <{shape = [1 : i32, 1 : i32, 32 : i32]}> : (tensor<32xf32>) -> tensor<1x1x32xf32> loc(#loc26)
        return %0 : tensor<1x1x32xf32> loc(#loc)
      } loc(#loc)
      func.func @cpu_hoisted_const_eval_139709bc() -> tensor<32xi32> attributes {arg_ranks = [], func_hash = "139709bc3448433acf78a6458129903463fadb426ba5311cdf6117c04f077374", result_ranks = [1], tt.function_type = "forward_cpu"} {
        %0 = "ttir.constant"() <{value = dense<[… > : tensor<32xf32>}> : () -> tensor<32xf32> loc(#loc)
        %1 = "ttir.floor"(%0) : (tensor<32xf32>) -> tensor<32xf32> loc(#loc27)
        %2 = "ttir.typecast"(%1) <{conservative_folding = false}> : (tensor<32xf32>) -> tensor<32xi32> loc(#loc28)
        %3 = "ttir.clamp_scalar"(%2) <{max = 15 : i32, min = 0 : i32}> : (tensor<32xi32>) -> tensor<32xi32> loc(#loc29)
        return %3 : tensor<32xi32> loc(#loc)
      } loc(#loc)
      func.func @cpu_hoisted_const_eval_354902e9(%arg0: tensor<32x8x2xf32> {bufferization.access = "read"} loc(unknown)) -> (tensor<4x8x2xf32>, tensor<1x4x8x2xf32>, tensor<1x4x8xf32>, tensor<1x4x8xf32>) attributes {arg_ranks = [3], func_hash = "354902e992c61318567e1c776bc7a4587161d596a6d67f68ff73eeda5641f120", result_ranks = [3, 4, 3, 3], tt.function_type = "forward_cpu"} {
        %0 = "ttir.slice_static"(%arg0) <{begins = [0 : i32, 0 : i32, 0 : i32], ends = [4 : i32, 8 : i32, 2 : i32], step = [1 : i32, 1 : i32, 1 : i32]}> : (tensor<32x8x2xf32>) -> tensor<4x8x2xf32> loc(#loc30)
        %1 = "ttir.reshape"(%0) <{shape = [1 : i32, 4 : i32, 8 : i32, 2 : i32]}> : (tensor<4x8x2xf32>) -> tensor<1x4x8x2xf32> loc(#loc31)
        %2 = "ttir.slice_static"(%1) <{begins = [0 : i32, 0 : i32, 0 : i32, 0 : i32], ends = [1 : i32, 4 : i32, 8 : i32, 1 : i32], step = [1 : i32, 1 : i32, 1 : i32, 1 : i32]}> : (tensor<1x4x8x2xf32>) -> tensor<1x4x8x1xf32> loc(#loc32)
        %3 = "ttir.reshape"(%2) <{shape = [1 : i32, 4 : i32, 8 : i32]}> : (tensor<1x4x8x1xf32>) -> tensor<1x4x8xf32> loc(#loc33)
        %4 = "ttir.slice_static"(%1) <{begins = [0 : i32, 0 : i32, 0 : i32, 1 : i32], ends = [1 : i32, 4 : i32, 8 : i32, 2 : i32], step = [1 : i32, 1 : i32, 1 : i32, 1 : i32]}> : (tensor<1x4x8x2xf32>) -> tensor<1x4x8x1xf32> loc(#loc34)
        %5 = "ttir.reshape"(%4) <{shape = [1 : i32, 4 : i32, 8 : i32]}> : (tensor<1x4x8x1xf32>) -> tensor<1x4x8xf32> loc(#loc35)
        return %0, %1, %3, %5 : tensor<4x8x2xf32>, tensor<1x4x8x2xf32>, tensor<1x4x8xf32>, tensor<1x4x8xf32> loc(#loc)
      } loc(#loc)
    } loc(#loc)
  } loc(#loc)
} loc(#loc)
#loc6 = loc("broadcast.18_in_0_layout")
#loc7 = loc("broadcast.18")
#loc8 = loc("and.21")
#loc9 = loc("and.32")
#loc10 = loc("reshape.33_in_0_layout")
#loc11 = loc("reshape.33")
#loc12 = loc("reshape.52")
#loc13 = loc("reshape.70")
#loc14 = loc("dot.76")
#loc15 = loc("convert.78")
#loc16 = loc("not.83")
#loc17 = loc("not.84")
#loc18 = loc("power.89")
#loc19 = loc("reduce.96")
#loc20 = loc("add.110")
#loc21 = loc("rsqrt.111")
#loc22 = loc("multiply.114")
#loc23 = loc("floor.65")
#loc24 = loc("convert.66")
#loc25 = loc("clamp.69")
#loc26 = loc("reshape.2")
#loc27 = loc("floor.47")
#loc28 = loc("convert.48")
#loc29 = loc("clamp.51")
#loc30 = loc("slice.9")
#loc31 = loc("reshape.34")
#loc32 = loc("slice.79")
#loc33 = loc("reshape.80")
#loc34 = loc("slice.81")
#loc35 = loc("reshape.82")
#loc36 = loc("reduce.96_mean"(#loc19))
------------------ END OF MLIR MODULE ------------------
2026-04-27 18:37:08.713 (   5.304s) [        CBBAC740]      module_builder.cc:1220     1| MLIR Module ttnn_runtime:
#dram = #ttnn.buffer_type<dram>
#loc = loc(unknown)
#loc1 = loc("p0.1")
#loc2 = loc("p1.5")
#loc3 = loc("p2.7")
#loc4 = loc("p3.14")
#loc5 = loc("p4.71")
#loc23 = loc("floor.65")
#loc24 = loc("convert.66")
#loc25 = loc("clamp.69")
#loc27 = loc("floor.47")
#loc28 = loc("convert.48")
#loc29 = loc("clamp.51")
#loc30 = loc("reshape.80")
#loc31 = loc("reshape.82")
#system_desc = #ttcore.system_desc<[{role = host, target_triple = "x86_64-pc-linux"}], [{arch = <wormhole_b0>, grid = 8x8, coord_translation_offsets = 18x18, l1_size = 1499136, num_dram_channels = 12, dram_channel_size = 1073741824, noc_l1_address_align_bytes = 16, pcie_address_align_bytes = 32, noc_dram_address_align_bytes = 32, l1_unreserved_base = 103712, erisc_l1_unreserved_base = 98304, dram_unreserved_base = 1920032, dram_unreserved_end = 1073119552, supported_data_types = [<f32>, <f16>, <bf16>, <bfp_f8>, <bfp_bf8>, <bfp_f4>, <bfp_bf4>, <bfp_f2>, <bfp_bf2>, <u32>, <u16>, <u8>, <si32>], supported_tile_sizes = [ 4x16,  16x16,  32x16,  4x32,  16x32,  32x32], dst_physical_size_tiles = 16, num_cbs = 64, num_compute_threads = 1, num_datamovement_threads = 2}], [0], [1 : i32], [ 0x0x0x0]>
#system_memory = #ttnn.buffer_type<system_memory>
#ttnn_layout = #ttnn.ttnn_layout<(d0) -> (0, d0), <1x1>, memref<1x1x!ttcore.tile<32x32, bf16>, #dram>, <interleaved>>
#ttnn_layout1 = #ttnn.ttnn_layout<(d0, d1, d2) -> (d0 * 32 + d1, d2), <1x1>, memref<1x1x!ttcore.tile<32x32, f32>, #dram>, <interleaved>>
#ttnn_layout2 = #ttnn.ttnn_layout<(d0) -> (0, d0), <1x1>, memref<1x1x!ttcore.tile<32x32, si32>, #dram>, <interleaved>>
#ttnn_layout3 = #ttnn.ttnn_layout<(d0) -> (0, d0), <1x1>, memref<1x8xsi32, #system_memory>>
#ttnn_layout4 = #ttnn.ttnn_layout<(d0) -> (0, d0), <1x1>, memref<1x1x!ttcore.tile<32x32, si32>, #system_memory>>
#ttnn_layout5 = #ttnn.ttnn_layout<(d0) -> (0, d0), <1x1>, memref<1x1x!ttcore.tile<32x32, f32>, #dram>, <interleaved>>
#ttnn_layout6 = #ttnn.ttnn_layout<(d0) -> (0, d0), <1x1>, memref<1x1x!ttcore.tile<32x32, f32>, #system_memory>>
#ttnn_layout7 = #ttnn.ttnn_layout<(d0) -> (0, d0), <1x1>, memref<1x32xf32, #system_memory>>
#ttnn_layout8 = #ttnn.ttnn_layout<(d0, d1, d2) -> (d0 + d1, d2), <1x1>, memref<1x32xf32, #system_memory>>
#ttnn_layout9 = #ttnn.ttnn_layout<(d0, d1, d2) -> (d0 * 32 + d1, d2), <1x1>, memref<1x1x!ttcore.tile<32x32, f32>, #system_memory>>
#ttnn_layout10 = #ttnn.ttnn_layout<(d0) -> (0, d0), <1x1>, memref<1x32xsi32, #system_memory>>
#ttnn_layout11 = #ttnn.ttnn_layout<(d0, d1, d2) -> (d0 * 32 + d1, d2), <1x1>, memref<32x1x!ttcore.tile<32x32, f32>, #dram>, <interleaved>>
#ttnn_layout12 = #ttnn.ttnn_layout<(d0, d1, d2) -> (d0 * 32 + d1, d2), <1x1>, memref<4x1x!ttcore.tile<32x32, f32>, #dram>, <interleaved>>
#ttnn_layout13 = #ttnn.ttnn_layout<(d0, d1, d2, d3) -> (d0 * 128 + d1 * 32 + d2, d3), <1x1>, memref<4x1x!ttcore.tile<32x32, f32>, #dram>, <interleaved>>
#ttnn_layout14 = #ttnn.ttnn_layout<(d0, d1, d2) -> (d0 * 32 + d1, d2), <1x1>, memref<32x1x!ttcore.tile<32x32, f32>, #system_memory>>
#ttnn_layout15 = #ttnn.ttnn_layout<(d0, d1, d2) -> (d0 * 8 + d1, d2), <1x1>, memref<256x2xf32, #system_memory>>
#ttnn_layout16 = #ttnn.ttnn_layout<(d0, d1, d2) -> (d0 * 8 + d1, d2), <1x1>, memref<32x2xf32, #system_memory>>
#ttnn_layout17 = #ttnn.ttnn_layout<(d0, d1, d2, d3) -> (d0 * 32 + d1 * 8 + d2, d3), <1x1>, memref<32x2xf32, #system_memory>>
#ttnn_layout18 = #ttnn.ttnn_layout<(d0, d1, d2) -> (d0 * 4 + d1, d2), <1x1>, memref<4x8xf32, #system_memory>>
#ttnn_layout19 = #ttnn.ttnn_layout<(d0, d1, d2) -> (d0 * 32 + d1, d2), <1x1>, memref<4x1x!ttcore.tile<32x32, f32>, #system_memory>>
#ttnn_layout20 = #ttnn.ttnn_layout<(d0, d1, d2, d3) -> (d0 * 128 + d1 * 32 + d2, d3), <1x1>, memref<4x1x!ttcore.tile<32x32, f32>, #system_memory>>
#ttnn_layout21 = #ttnn.ttnn_layout<(d0, d1, d2) -> (d0 * 4 + d1, d2), <1x1>, memref<4x128xbf16, #dram>, <interleaved>>
#ttnn_layout22 = #ttnn.ttnn_layout<() -> (0, 0), <1x1>, memref<1x1xbf16, #dram>, <interleaved>>
#ttnn_layout23 = #ttnn.ttnn_layout<(d0, d1) -> (d0, d1), <1x1>, memref<1x4x!ttcore.tile<32x32, bf16>, #dram>, <interleaved>>
#ttnn_layout24 = #ttnn.ttnn_layout<(d0, d1, d2) -> (d0 * 32 + d1, d2), <1x1>, memref<1x4x!ttcore.tile<32x32, bf16>, #dram>, <interleaved>>
#ttnn_layout25 = #ttnn.ttnn_layout<(d0, d1, d2) -> (d0 * 32 + d1, d2), <1x1>, memref<1x1x!ttcore.tile<32x32, bf16>, #dram>, <interleaved>>
#ttnn_layout26 = #ttnn.ttnn_layout<() -> (0, 0), <1x1>, memref<1x1x!ttcore.tile<32x32, bf16>, #dram>, <interleaved>>
#ttnn_layout27 = #ttnn.ttnn_layout<(d0, d1) -> (d0, d1), <1x1>, memref<1x1x!ttcore.tile<32x32, bf16>, #dram>, <interleaved>>
#ttnn_layout28 = #ttnn.ttnn_layout<(d0, d1) -> (d0, d1), <1x1>, memref<1x1x!ttcore.tile<32x32, f32>, #dram>, <interleaved>>
module @SyncTensorsGraph.116 attributes {mhlo.cross_program_prefetches = [], mhlo.input_output_alias = [], mhlo.is_dynamic = false, mhlo.use_auto_spmd_partitioning = false, ttcore.meshes = #ttcore.meshes<[<"mesh" = 1x1>]>} {
  ttcore.device_module {
    builtin.module @SyncTensorsGraph.116 attributes {mhlo.cross_program_prefetches = [], mhlo.input_output_alias = [], mhlo.is_dynamic = false, mhlo.use_auto_spmd_partitioning = false, ttcore.meshes = #ttcore.meshes<[<"mesh" = 1x1>]>, ttcore.system_desc = #system_desc} {
      ttcore.device @default_device = <workerGrid = #ttcore.grid<8x8, virt_to_physical_map = (d0, d1) -> (0, d0, d1), physical_to_virt_map = (d0, d1, d2) -> (d1, d2)>, l1Map = (d0, d1, d2)[s0] -> (0, d0, d1, d2 + s0), dramMap = (d0, d1, d2)[s0, s1, s2, s3, s4, s5, s6] -> (0, 0, (((d0 * s1) * (s2 * (s3 * s6)) + d1 * (s2 * (s3 * s6)) + d2) floordiv s4) mod 12, ((((d0 * s1) * (s2 * (s3 * s6)) + d1 * (s2 * (s3 * s6)) + d2) floordiv s4) floordiv 12) * s4 + ((d0 * s1) * (s2 * (s3 * s6)) + d1 * (s2 * (s3 * s6)) + d2) mod s4 + s5), meshShape = 1x1, chipIds = [0]> loc(#loc)
      func.func private @main_const_eval_0() -> tensor<32xbf16, #ttnn_layout> attributes {tt.function_type = "const_eval"} {
        %0 = "ttnn.get_device"() <{mesh_offset = #ttnn<mesh_offset 0x0>, mesh_shape = #ttnn<mesh_shape 1x1>}> : () -> !ttnn.device loc(#loc)
        %1 = "ttnn.constant"(%0) <{dtype = #ttcore.supportedDataTypes<bf16>, layout = #ttnn.layout<tile>, memory_config = #ttnn.memory_config<#dram, <interleaved>>, value = dense<[… > : tensor<32xbf16>}> : (!ttnn.device) -> tensor<32xbf16, #ttnn_layout> loc(#loc)
        return %1 : tensor<32xbf16, #ttnn_layout> loc(#loc)
      } loc(#loc)
      func.func private @main_const_eval_1() -> tensor<1x1x1xf32, #ttnn_layout1> attributes {tt.function_type = "const_eval"} {
        %0 = "ttnn.get_device"() <{mesh_offset = #ttnn<mesh_offset 0x0>, mesh_shape = #ttnn<mesh_shape 1x1>}> : () -> !ttnn.device loc(#loc)
        %1 = "ttnn.full"(%0) <{dtype = #ttcore.supportedDataTypes<f32>, fill_value = 9.99999997E-7 : f32, layout = #ttnn.layout<tile>, shape = #ttnn.shape<1x1x1>}> : (!ttnn.device) -> tensor<1x1x1xf32, #ttnn_layout1> loc(#loc)
        return %1 : tensor<1x1x1xf32, #ttnn_layout1> loc(#loc)
      } loc(#loc)
      func.func private @main_const_eval_2() -> tensor<8xsi32, #ttnn_layout2> attributes {tt.function_type = "const_eval"} {
        %0 = "ttnn.get_device"() <{mesh_offset = #ttnn<mesh_offset 0x0>, mesh_shape = #ttnn<mesh_shape 1x1>}> : () -> !ttnn.device loc(#loc)
        %1 = call @cpu_hoisted_const_eval_539b0252() {ttir.cpu_hoist_call} : () -> tensor<8xsi32, #ttnn_layout3> loc(#loc)
        %2 = "ttnn.to_layout"(%1) <{layout = #ttnn.layout<tile>}> : (tensor<8xsi32, #ttnn_layout3>) -> tensor<8xsi32, #ttnn_layout4> loc(#loc)
        "ttnn.deallocate"(%1) <{force = false}> : (tensor<8xsi32, #ttnn_layout3>) -> () loc(#loc)
        %3 = "ttnn.to_device"(%2, %0) <{memory_config = #ttnn.memory_config<#dram, <interleaved>>}> : (tensor<8xsi32, #ttnn_layout4>, !ttnn.device) -> tensor<8xsi32, #ttnn_layout2> loc(#loc)
        "ttnn.deallocate"(%2) <{force = false}> : (tensor<8xsi32, #ttnn_layout4>) -> () loc(#loc)
        return %3 : tensor<8xsi32, #ttnn_layout2> loc(#loc)
      } loc(#loc)
      func.func private @main_const_eval_3(%arg0: tensor<32xf32, #ttnn_layout5> loc(unknown)) -> tensor<1x1x32xf32, #ttnn_layout1> attributes {tt.function_type = "const_eval"} {
        %0 = "ttnn.get_device"() <{mesh_offset = #ttnn<mesh_offset 0x0>, mesh_shape = #ttnn<mesh_shape 1x1>}> : () -> !ttnn.device loc(#loc)
        %1 = "ttnn.from_device"(%arg0) : (tensor<32xf32, #ttnn_layout5>) -> tensor<32xf32, #ttnn_layout6> loc(#loc)
        %2 = "ttnn.to_layout"(%1) <{layout = #ttnn.layout<row_major>}> : (tensor<32xf32, #ttnn_layout6>) -> tensor<32xf32, #ttnn_layout7> loc(#loc)
        "ttnn.deallocate"(%1) <{force = false}> : (tensor<32xf32, #ttnn_layout6>) -> () loc(#loc)
        %3 = call @cpu_hoisted_const_eval_d605c2bf(%2) {ttir.cpu_hoist_call} : (tensor<32xf32, #ttnn_layout7>) -> tensor<1x1x32xf32, #ttnn_layout8> loc(#loc)
        "ttnn.deallocate"(%2) <{force = false}> : (tensor<32xf32, #ttnn_layout7>) -> () loc(#loc)
        %4 = "ttnn.to_layout"(%3) <{layout = #ttnn.layout<tile>}> : (tensor<1x1x32xf32, #ttnn_layout8>) -> tensor<1x1x32xf32, #ttnn_layout9> loc(#loc)
        "ttnn.deallocate"(%3) <{force = false}> : (tensor<1x1x32xf32, #ttnn_layout8>) -> () loc(#loc)
        %5 = "ttnn.to_device"(%4, %0) <{memory_config = #ttnn.memory_config<#dram, <interleaved>>}> : (tensor<1x1x32xf32, #ttnn_layout9>, !ttnn.device) -> tensor<1x1x32xf32, #ttnn_layout1> loc(#loc)
        "ttnn.deallocate"(%4) <{force = false}> : (tensor<1x1x32xf32, #ttnn_layout9>) -> () loc(#loc)
        return %5 : tensor<1x1x32xf32, #ttnn_layout1> loc(#loc)
      } loc(#loc)
      func.func private @main_const_eval_4() -> tensor<32xsi32, #ttnn_layout2> attributes {tt.function_type = "const_eval"} {
        %0 = "ttnn.get_device"() <{mesh_offset = #ttnn<mesh_offset 0x0>, mesh_shape = #ttnn<mesh_shape 1x1>}> : () -> !ttnn.device loc(#loc)
        %1 = call @cpu_hoisted_const_eval_139709bc() {ttir.cpu_hoist_call} : () -> tensor<32xsi32, #ttnn_layout10> loc(#loc)
        %2 = "ttnn.to_layout"(%1) <{layout = #ttnn.layout<tile>}> : (tensor<32xsi32, #ttnn_layout10>) -> tensor<32xsi32, #ttnn_layout4> loc(#loc)
        "ttnn.deallocate"(%1) <{force = false}> : (tensor<32xsi32, #ttnn_layout10>) -> () loc(#loc)
        %3 = "ttnn.to_device"(%2, %0) <{memory_config = #ttnn.memory_config<#dram, <interleaved>>}> : (tensor<32xsi32, #ttnn_layout4>, !ttnn.device) -> tensor<32xsi32, #ttnn_layout2> loc(#loc)
        "ttnn.deallocate"(%2) <{force = false}> : (tensor<32xsi32, #ttnn_layout4>) -> () loc(#loc)
        return %3 : tensor<32xsi32, #ttnn_layout2> loc(#loc)
      } loc(#loc)
      func.func private @main_const_eval_5() -> tensor<8xbf16, #ttnn_layout> attributes {tt.function_type = "const_eval"} {
        %0 = "ttnn.get_device"() <{mesh_offset = #ttnn<mesh_offset 0x0>, mesh_shape = #ttnn<mesh_shape 1x1>}> : () -> !ttnn.device loc(#loc)
        %1 = "ttnn.constant"(%0) <{dtype = #ttcore.supportedDataTypes<bf16>, layout = #ttnn.layout<tile>, memory_config = #ttnn.memory_config<#dram, <interleaved>>, value = dense<[1.000000e+00, 1.000000e+00, 1.000000e+00, 1.000000e+00, 0.000000e+00, 0.000000e+00, 0.000000e+00, 0.000000e+00]> : tensor<8xbf16>}> : (!ttnn.device) -> tensor<8xbf16, #ttnn_layout> loc(#loc)
        return %1 : tensor<8xbf16, #ttnn_layout> loc(#loc)
      } loc(#loc)
      func.func private @main_const_eval_6(%arg0: tensor<32x8x2xf32, #ttnn_layout11> loc(unknown)) -> (tensor<4x8x2xf32, #ttnn_layout12>, tensor<1x4x8x2xf32, #ttnn_layout13>, tensor<1x4x8xf32, #ttnn_layout1>, tensor<1x4x8xf32, #ttnn_layout1>) attributes {tt.function_type = "const_eval"} {
        %0 = "ttnn.get_device"() <{mesh_offset = #ttnn<mesh_offset 0x0>, mesh_shape = #ttnn<mesh_shape 1x1>}> : () -> !ttnn.device loc(#loc)
        %1 = "ttnn.from_device"(%arg0) : (tensor<32x8x2xf32, #ttnn_layout11>) -> tensor<32x8x2xf32, #ttnn_layout14> loc(#loc)
        %2 = "ttnn.to_layout"(%1) <{layout = #ttnn.layout<row_major>}> : (tensor<32x8x2xf32, #ttnn_layout14>) -> tensor<32x8x2xf32, #ttnn_layout15> loc(#loc)
        "ttnn.deallocate"(%1) <{force = false}> : (tensor<32x8x2xf32, #ttnn_layout14>) -> () loc(#loc)
        %3:4 = call @cpu_hoisted_const_eval_354902e9(%2) {ttir.cpu_hoist_call} : (tensor<32x8x2xf32, #ttnn_layout15>) -> (tensor<4x8x2xf32, #ttnn_layout16>, tensor<1x4x8x2xf32, #ttnn_layout17>, tensor<1x4x8xf32, #ttnn_layout18>, tensor<1x4x8xf32, #ttnn_layout18>) loc(#loc)
        "ttnn.deallocate"(%2) <{force = false}> : (tensor<32x8x2xf32, #ttnn_layout15>) -> () loc(#loc)
        %4 = "ttnn.to_layout"(%3#0) <{layout = #ttnn.layout<tile>}> : (tensor<4x8x2xf32, #ttnn_layout16>) -> tensor<4x8x2xf32, #ttnn_layout19> loc(#loc)
        "ttnn.deallocate"(%3#0) <{force = false}> : (tensor<4x8x2xf32, #ttnn_layout16>) -> () loc(#loc)
        %5 = "ttnn.to_device"(%4, %0) <{memory_config = #ttnn.memory_config<#dram, <interleaved>>}> : (tensor<4x8x2xf32, #ttnn_layout19>, !ttnn.device) -> tensor<4x8x2xf32, #ttnn_layout12> loc(#loc)
        "ttnn.deallocate"(%4) <{force = false}> : (tensor<4x8x2xf32, #ttnn_layout19>) -> () loc(#loc)
        %6 = "ttnn.to_layout"(%3#1) <{layout = #ttnn.layout<tile>}> : (tensor<1x4x8x2xf32, #ttnn_layout17>) -> tensor<1x4x8x2xf32, #ttnn_layout20> loc(#loc)
        "ttnn.deallocate"(%3#1) <{force = false}> : (tensor<1x4x8x2xf32, #ttnn_layout17>) -> () loc(#loc)
        %7 = "ttnn.to_device"(%6, %0) <{memory_config = #ttnn.memory_config<#dram, <interleaved>>}> : (tensor<1x4x8x2xf32, #ttnn_layout20>, !ttnn.device) -> tensor<1x4x8x2xf32, #ttnn_layout13> loc(#loc)
        "ttnn.deallocate"(%6) <{force = false}> : (tensor<1x4x8x2xf32, #ttnn_layout20>) -> () loc(#loc)
        %8 = "ttnn.to_layout"(%3#2) <{layout = #ttnn.layout<tile>}> : (tensor<1x4x8xf32, #ttnn_layout18>) -> tensor<1x4x8xf32, #ttnn_layout9> loc(#loc)
        "ttnn.deallocate"(%3#2) <{force = false}> : (tensor<1x4x8xf32, #ttnn_layout18>) -> () loc(#loc)
        %9 = "ttnn.to_device"(%8, %0) <{memory_config = #ttnn.memory_config<#dram, <interleaved>>}> : (tensor<1x4x8xf32, #ttnn_layout9>, !ttnn.device) -> tensor<1x4x8xf32, #ttnn_layout1> loc(#loc)
        "ttnn.deallocate"(%8) <{force = false}> : (tensor<1x4x8xf32, #ttnn_layout9>) -> () loc(#loc)
        %10 = "ttnn.to_layout"(%3#3) <{layout = #ttnn.layout<tile>}> : (tensor<1x4x8xf32, #ttnn_layout18>) -> tensor<1x4x8xf32, #ttnn_layout9> loc(#loc)
        "ttnn.deallocate"(%3#3) <{force = false}> : (tensor<1x4x8xf32, #ttnn_layout18>) -> () loc(#loc)
        %11 = "ttnn.to_device"(%10, %0) <{memory_config = #ttnn.memory_config<#dram, <interleaved>>}> : (tensor<1x4x8xf32, #ttnn_layout9>, !ttnn.device) -> tensor<1x4x8xf32, #ttnn_layout1> loc(#loc)
        "ttnn.deallocate"(%10) <{force = false}> : (tensor<1x4x8xf32, #ttnn_layout9>) -> () loc(#loc)
        return %5, %7, %9, %11 : tensor<4x8x2xf32, #ttnn_layout12>, tensor<1x4x8x2xf32, #ttnn_layout13>, tensor<1x4x8xf32, #ttnn_layout1>, tensor<1x4x8xf32, #ttnn_layout1> loc(#loc)
      } loc(#loc)
      func.func @main(%arg0: tensor<32xf32, #ttnn_layout5> {ttcore.argument_type = #ttcore.argument_type<parameter>, ttcore.local_shape = #ttcore<local_shape local_shape = tensor<32xf32>>, ttcore.shard_status = #ttcore.shard_status<unsharded>, ttir.name = "kv_norm.weight"} loc("p0.1"), %arg1: tensor<32x8x2xf32, #ttnn_layout11> {ttcore.argument_type = #ttcore.argument_type<constant>, ttcore.local_shape = #ttcore<local_shape local_shape = tensor<32x8x2xf32>>, ttcore.shard_status = #ttcore.shard_status<unsharded>, ttir.name = "freqs_cis"} loc("p1.5"), %arg2: tensor<1x4x128xbf16, #ttnn_layout21> {ttcore.argument_type = #ttcore.argument_type<input>, ttcore.local_shape = #ttcore<local_shape local_shape = tensor<1x4x128xbf16>>, ttcore.shard_status = #ttcore.shard_status<unsharded>, ttir.name = "args_0"} loc("p2.7"), %arg3: tensor<bf16, #ttnn_layout22> {ttcore.argument_type = #ttcore.argument_type<input>, ttcore.local_shape = #ttcore<local_shape local_shape = tensor<i1>>, ttcore.shard_status = #ttcore.shard_status<unsharded>} loc("p3.14"), %arg4: tensor<32x128xbf16, #ttnn_layout23> {ttcore.argument_type = #ttcore.argument_type<parameter>, ttcore.local_shape = #ttcore<local_shape local_shape = tensor<32x128xbf16>>, ttcore.shard_status = #ttcore.shard_status<unsharded>, ttir.name = "wkv.weight"} loc("p4.71")) -> (tensor<1x1x32xf32, #ttnn_layout1> {ttcore.local_shape = #ttcore<local_shape local_shape = tensor<1x1x32xf32>>, ttcore.shard_status = #ttcore.shard_status<presharded>}, tensor<32xf32, #ttnn_layout5> {ttcore.local_shape = #ttcore<local_shape local_shape = tensor<32xf32>>, ttcore.shard_status = #ttcore.shard_status<presharded>}, tensor<32x8x2xf32, #ttnn_layout11> {ttcore.local_shape = #ttcore<local_shape local_shape = tensor<32x8x2xf32>>, ttcore.shard_status = #ttcore.shard_status<presharded>}, tensor<1x4x128xbf16, #ttnn_layout24> {ttcore.local_shape = #ttcore<local_shape local_shape = tensor<1x4x128xbf16>>, ttcore.shard_status = #ttcore.shard_status<presharded>}, tensor<4x8x2xf32, #ttnn_layout12> {ttcore.local_shape = #ttcore<local_shape local_shape = tensor<4x8x2xf32>>, ttcore.shard_status = #ttcore.shard_status<presharded>}, tensor<32xbf16, #ttnn_layout> {ttcore.local_shape = #ttcore<local_shape local_shape = tensor<32xi1>>, ttcore.shard_status = #ttcore.shard_status<presharded>}, tensor<8xbf16, #ttnn_layout> {ttcore.local_shape = #ttcore<local_shape local_shape = tensor<8xi1>>, ttcore.shard_status = #ttcore.shard_status<presharded>}, tensor<4x128xbf16, #ttnn_layout23> {ttcore.local_shape = #ttcore<local_shape local_shape = tensor<4x128xbf16>>, ttcore.shard_status = #ttcore.shard_status<presharded>}, tensor<1x4x8x2xf32, #ttnn_layout13> {ttcore.local_shape = #ttcore<local_shape local_shape = tensor<1x4x8x2xf32>>, ttcore.shard_status = #ttcore.shard_status<presharded>}, tensor<32xsi32, #ttnn_layout2> {ttcore.local_shape = #ttcore<local_shape local_shape = tensor<32xi64>>, ttcore.shard_status = #ttcore.shard_status<presharded>}, tensor<1x1x32xbf16, #ttnn_layout25> {ttcore.local_shape = #ttcore<local_shape local_shape = tensor<1x1x32xi1>>, ttcore.shard_status = #ttcore.shard_status<presharded>}, tensor<8xsi32, #ttnn_layout2> {ttcore.local_shape = #ttcore<local_shape local_shape = tensor<8xi64>>, ttcore.shard_status = #ttcore.shard_status<presharded>}, tensor<1x8x1xbf16, #ttnn_layout25> {ttcore.local_shape = #ttcore<local_shape local_shape = tensor<1x8x1xi1>>, ttcore.shard_status = #ttcore.shard_status<presharded>}, tensor<1x4x32xf32, #ttnn_layout1> {ttcore.local_shape = #ttcore<local_shape local_shape = tensor<1x4x32xf32>>, ttcore.shard_status = #ttcore.shard_status<presharded>}, tensor<1x4x8xf32, #ttnn_layout1> {ttcore.local_shape = #ttcore<local_shape local_shape = tensor<1x4x8xf32>>, ttcore.shard_status = #ttcore.shard_status<presharded>}, tensor<1x4x8xf32, #ttnn_layout1> {ttcore.local_shape = #ttcore<local_shape local_shape = tensor<1x4x8xf32>>, ttcore.shard_status = #ttcore.shard_status<presharded>}, tensor<1x1x32xbf16, #ttnn_layout25> {ttcore.local_shape = #ttcore<local_shape local_shape = tensor<1x1x32xi1>>, ttcore.shard_status = #ttcore.shard_status<presharded>}, tensor<1x8x1xbf16, #ttnn_layout25> {ttcore.local_shape = #ttcore<local_shape local_shape = tensor<1x8x1xi1>>, ttcore.shard_status = #ttcore.shard_status<presharded>}, tensor<1x4x1xf32, #ttnn_layout1> {ttcore.local_shape = #ttcore<local_shape local_shape = tensor<1x4x1xf32>>, ttcore.shard_status = #ttcore.shard_status<presharded>}, tensor<1x4x32xf32, #ttnn_layout1> {ttcore.local_shape = #ttcore<local_shape local_shape = tensor<1x4x32xf32>>, ttcore.shard_status = #ttcore.shard_status<presharded>}) attributes {tt.function_type = "forward_device"} {
        %0 = ttcore.load_cached(@main_const_eval_0, []) : () -> tensor<32xbf16, #ttnn_layout> loc(#loc)
        %1 = ttcore.load_cached(@main_const_eval_1, []) : () -> tensor<1x1x1xf32, #ttnn_layout1> loc(#loc)
        %2 = ttcore.load_cached(@main_const_eval_2, []) : () -> tensor<8xsi32, #ttnn_layout2> loc(#loc)
        %3 = ttcore.load_cached(@main_const_eval_3, [%arg0]) : (tensor<32xf32, #ttnn_layout5>) -> tensor<1x1x32xf32, #ttnn_layout1> loc(#loc)
        %4 = ttcore.load_cached(@main_const_eval_4, []) : () -> tensor<32xsi32, #ttnn_layout2> loc(#loc)
        %5 = ttcore.load_cached(@main_const_eval_5, []) : () -> tensor<8xbf16, #ttnn_layout> loc(#loc)
        %6:4 = ttcore.load_cached(@main_const_eval_6, [%arg1]) : (tensor<32x8x2xf32, #ttnn_layout11>) -> (tensor<4x8x2xf32, #ttnn_layout12>, tensor<1x4x8x2xf32, #ttnn_layout13>, tensor<1x4x8xf32, #ttnn_layout1>, tensor<1x4x8xf32, #ttnn_layout1>) loc(#loc)
        %7 = "ttnn.to_layout"(%arg3) <{layout = #ttnn.layout<tile>}> : (tensor<bf16, #ttnn_layout22>) -> tensor<bf16, #ttnn_layout26> loc(#loc6)
        "ttnn.deallocate"(%arg3) <{force = false}> : (tensor<bf16, #ttnn_layout22>) -> () loc(#loc6)
        %8 = "ttnn.reshape"(%7) <{shape = [1 : i32]}> : (tensor<bf16, #ttnn_layout26>) -> tensor<1xbf16, #ttnn_layout> loc(#loc7)
        "ttnn.deallocate"(%7) <{force = false}> : (tensor<bf16, #ttnn_layout26>) -> () loc(#loc7)
        %9 = "ttnn.logical_and"(%8, %0) <{dtype = #ttcore.supportedDataTypes<bf16>}> : (tensor<1xbf16, #ttnn_layout>, tensor<32xbf16, #ttnn_layout>) -> tensor<32xbf16, #ttnn_layout> loc(#loc8)
        "ttnn.deallocate"(%0) <{force = false}> : (tensor<32xbf16, #ttnn_layout>) -> () loc(#loc8)
        %10 = "ttnn.logical_and"(%8, %5) <{dtype = #ttcore.supportedDataTypes<bf16>}> : (tensor<1xbf16, #ttnn_layout>, tensor<8xbf16, #ttnn_layout>) -> tensor<8xbf16, #ttnn_layout> loc(#loc9)
        "ttnn.deallocate"(%8) <{force = false}> : (tensor<1xbf16, #ttnn_layout>) -> () loc(#loc9)
        "ttnn.deallocate"(%5) <{force = false}> : (tensor<8xbf16, #ttnn_layout>) -> () loc(#loc9)
        %11 = "ttnn.to_layout"(%arg2) <{layout = #ttnn.layout<tile>}> : (tensor<1x4x128xbf16, #ttnn_layout21>) -> tensor<1x4x128xbf16, #ttnn_layout24> loc(#loc10)
        "ttnn.deallocate"(%arg2) <{force = false}> : (tensor<1x4x128xbf16, #ttnn_layout21>) -> () loc(#loc10)
        %12 = "ttnn.reshape"(%11) <{shape = [4 : i32, 128 : i32]}> : (tensor<1x4x128xbf16, #ttnn_layout24>) -> tensor<4x128xbf16, #ttnn_layout23> loc(#loc11)
        %13 = "ttnn.reshape"(%9) <{shape = [1 : i32, 1 : i32, 32 : i32]}> : (tensor<32xbf16, #ttnn_layout>) -> tensor<1x1x32xbf16, #ttnn_layout25> loc(#loc12)
        %14 = "ttnn.reshape"(%10) <{shape = [1 : i32, 8 : i32, 1 : i32]}> : (tensor<8xbf16, #ttnn_layout>) -> tensor<1x8x1xbf16, #ttnn_layout25> loc(#loc13)
        %15 = "ttnn.matmul"(%12, %arg4) <{compute_config = #ttnn.device_compute_kernel_config<math_fidelity = hifi4, fp32_dest_acc_en = true>, transpose_a = false, transpose_b = true}> : (tensor<4x128xbf16, #ttnn_layout23>, tensor<32x128xbf16, #ttnn_layout23>) -> tensor<4x32xbf16, #ttnn_layout27> loc(#loc14)
        "ttnn.deallocate"(%arg4) <{force = false}> : (tensor<32x128xbf16, #ttnn_layout23>) -> () loc(#loc14)
        %16 = "ttnn.typecast"(%15) <{dtype = #ttcore.supportedDataTypes<f32>}> : (tensor<4x32xbf16, #ttnn_layout27>) -> tensor<4x32xf32, #ttnn_layout28> loc(#loc15)
        "ttnn.deallocate"(%15) <{force = false}> : (tensor<4x32xbf16, #ttnn_layout27>) -> () loc(#loc15)
        %17 = "ttnn.reshape"(%16) <{shape = [1 : i32, 4 : i32, 32 : i32]}> : (tensor<4x32xf32, #ttnn_layout28>) -> tensor<1x4x32xf32, #ttnn_layout1> loc(#loc15)
        "ttnn.deallocate"(%16) <{force = false}> : (tensor<4x32xf32, #ttnn_layout28>) -> () loc(#loc15)
        %18 = "ttnn.logical_not"(%13) : (tensor<1x1x32xbf16, #ttnn_layout25>) -> tensor<1x1x32xbf16, #ttnn_layout25> loc(#loc16)
        %19 = "ttnn.logical_not"(%14) : (tensor<1x8x1xbf16, #ttnn_layout25>) -> tensor<1x8x1xbf16, #ttnn_layout25> loc(#loc17)
        %20 = "ttnn.pow_scalar"(%17) <{rhs = 2.000000e+00 : f32}> : (tensor<1x4x32xf32, #ttnn_layout1>) -> tensor<1x4x32xf32, #ttnn_layout1> loc(#loc18)
        %21 = "ttnn.mean"(%20) <{compute_config = #ttnn.device_compute_kernel_config<math_fidelity = hifi4, fp32_dest_acc_en = true>, dim_arg = [2 : i32], keep_dim = true}> : (tensor<1x4x32xf32, #ttnn_layout1>) -> tensor<1x4x1xf32, #ttnn_layout1> loc(#loc34)
        "ttnn.deallocate"(%20) <{force = false}> : (tensor<1x4x32xf32, #ttnn_layout1>) -> () loc(#loc34)
        %22 = "ttnn.add"(%21, %1) <{dtype = #ttcore.supportedDataTypes<f32>}> : (tensor<1x4x1xf32, #ttnn_layout1>, tensor<1x1x1xf32, #ttnn_layout1>) -> tensor<1x4x1xf32, #ttnn_layout1> loc(#loc20)
        "ttnn.deallocate"(%21) <{force = false}> : (tensor<1x4x1xf32, #ttnn_layout1>) -> () loc(#loc20)
        "ttnn.deallocate"(%1) <{force = false}> : (tensor<1x1x1xf32, #ttnn_layout1>) -> () loc(#loc20)
        %23 = "ttnn.rsqrt"(%22) : (tensor<1x4x1xf32, #ttnn_layout1>) -> tensor<1x4x1xf32, #ttnn_layout1> loc(#loc21)
        "ttnn.deallocate"(%22) <{force = false}> : (tensor<1x4x1xf32, #ttnn_layout1>) -> () loc(#loc21)
        %24 = "ttnn.multiply"(%17, %23) <{dtype = #ttcore.supportedDataTypes<f32>}> : (tensor<1x4x32xf32, #ttnn_layout1>, tensor<1x4x1xf32, #ttnn_layout1>) -> tensor<1x4x32xf32, #ttnn_layout1> loc(#loc22)
        return %3, %arg0, %arg1, %11, %6#0, %9, %10, %12, %6#1, %4, %13, %2, %14, %17, %6#2, %6#3, %18, %19, %23, %24 : tensor<1x1x32xf32, #ttnn_layout1>, tensor<32xf32, #ttnn_layout5>, tensor<32x8x2xf32, #ttnn_layout11>, tensor<1x4x128xbf16, #ttnn_layout24>, tensor<4x8x2xf32, #ttnn_layout12>, tensor<32xbf16, #ttnn_layout>, tensor<8xbf16, #ttnn_layout>, tensor<4x128xbf16, #ttnn_layout23>, tensor<1x4x8x2xf32, #ttnn_layout13>, tensor<32xsi32, #ttnn_layout2>, tensor<1x1x32xbf16, #ttnn_layout25>, tensor<8xsi32, #ttnn_layout2>, tensor<1x8x1xbf16, #ttnn_layout25>, tensor<1x4x32xf32, #ttnn_layout1>, tensor<1x4x8xf32, #ttnn_layout1>, tensor<1x4x8xf32, #ttnn_layout1>, tensor<1x1x32xbf16, #ttnn_layout25>, tensor<1x8x1xbf16, #ttnn_layout25>, tensor<1x4x1xf32, #ttnn_layout1>, tensor<1x4x32xf32, #ttnn_layout1> loc(#loc)
      } loc(#loc)
      func.func private @cpu_hoisted_const_eval_539b0252() -> tensor<8xsi32, #ttnn_layout3> attributes {func_hash = "539b025232c084ad31ea893389163acfbfc422ff28e87f8e0222637ecfedc505", tt.function_type = "forward_cpu_declaration"} loc(#loc)
      func.func private @cpu_hoisted_const_eval_d605c2bf(tensor<32xf32, #ttnn_layout7>) -> tensor<1x1x32xf32, #ttnn_layout8> attributes {func_hash = "d605c2bfd3a9f8c9d76a0afb92d69490d47ace5cf9fc72169424ab9ed3ba7f52", tt.function_type = "forward_cpu_declaration"} loc(#loc)
      func.func private @cpu_hoisted_const_eval_139709bc() -> tensor<32xsi32, #ttnn_layout10> attributes {func_hash = "139709bc3448433acf78a6458129903463fadb426ba5311cdf6117c04f077374", tt.function_type = "forward_cpu_declaration"} loc(#loc)
      func.func private @cpu_hoisted_const_eval_354902e9(tensor<32x8x2xf32, #ttnn_layout15>) -> (tensor<4x8x2xf32, #ttnn_layout16>, tensor<1x4x8x2xf32, #ttnn_layout17>, tensor<1x4x8xf32, #ttnn_layout18>, tensor<1x4x8xf32, #ttnn_layout18>) attributes {func_hash = "354902e992c61318567e1c776bc7a4587161d596a6d67f68ff73eeda5641f120", tt.function_type = "forward_cpu_declaration"} loc(#loc)
    } loc(#loc)
  } loc(#loc)
  ttcore.cpu_module {
    builtin.module {
      llvm.func @free(!llvm.ptr) loc(#loc)
      llvm.func @malloc(i64) -> !llvm.ptr loc(#loc)
      llvm.mlir.global private constant @__constant_32xf32(dense<[… > : tensor<32xf32>) {addr_space = 0 : i32, alignment = 64 : i64} : !llvm.array<32 x f32> loc(#loc)
      llvm.mlir.global private constant @__constant_8xf32(dense<[0.000000e+00, 1.000000e+00, 2.000000e+00, 3.000000e+00, 4.000000e+00, 5.000000e+00, 6.000000e+00, 7.000000e+00]> : tensor<8xf32>) {addr_space = 0 : i32, alignment = 64 : i64} : !llvm.array<8 x f32> loc(#loc)
      llvm.func @cpu_hoisted_const_eval_539b0252() -> !llvm.struct<(ptr, ptr, i64, array<1 x i64>, array<1 x i64>)> attributes {arg_ranks = [], func_hash = "539b025232c084ad31ea893389163acfbfc422ff28e87f8e0222637ecfedc505", result_ranks = [1], tt.function_type = "forward_cpu"} {
        %0 = llvm.mlir.zero : !llvm.ptr loc(#loc)
        %1 = llvm.mlir.constant(-2.14748365E+9 : f32) : f32 loc(#loc)
        %2 = llvm.mlir.constant(2.14748365E+9 : f32) : f32 loc(#loc)
        %3 = llvm.mlir.constant(2147483647 : i32) : i32 loc(#loc)
        %4 = llvm.mlir.constant(0 : i32) : i32 loc(#loc)
        %5 = llvm.mlir.constant(3 : i32) : i32 loc(#loc)
        %6 = llvm.mlir.addressof @__constant_8xf32 : !llvm.ptr loc(#loc)
        %7 = llvm.mlir.poison : !llvm.struct<(ptr, ptr, i64, array<1 x i64>, array<1 x i64>)> loc(#loc)
        %8 = llvm.mlir.constant(64 : index) : i64 loc(#loc)
        %9 = llvm.mlir.constant(1 : index) : i64 loc(#loc)
        %10 = llvm.mlir.constant(8 : index) : i64 loc(#loc)
        %11 = llvm.mlir.constant(0 : index) : i64 loc(#loc)
        %12 = llvm.getelementptr %6[0, 0] : (!llvm.ptr) -> !llvm.ptr, !llvm.array<8 x f32> loc(#loc)
        %13 = llvm.getelementptr %0[8] : (!llvm.ptr) -> !llvm.ptr, f32 loc(#loc23)
        %14 = llvm.ptrtoint %13 : !llvm.ptr to i64 loc(#loc23)
        %15 = llvm.add %14, %8 : i64 loc(#loc23)
        %16 = llvm.call @malloc(%15) : (i64) -> !llvm.ptr loc(#loc23)
        %17 = llvm.ptrtoint %16 : !llvm.ptr to i64 loc(#loc23)
        %18 = llvm.sub %8, %9 : i64 loc(#loc23)
        %19 = llvm.add %17, %18 : i64 loc(#loc23)
        %20 = llvm.urem %19, %8 : i64 loc(#loc23)
        %21 = llvm.sub %19, %20 : i64 loc(#loc23)
        %22 = llvm.inttoptr %21 : i64 to !llvm.ptr loc(#loc23)
        llvm.br ^bb1(%11 : i64) loc(#loc23)
      ^bb1(%23: i64 loc("floor.65")):  // 2 preds: ^bb0, ^bb2
        %24 = llvm.icmp "slt" %23, %10 : i64 loc(#loc23)
        llvm.cond_br %24, ^bb2, ^bb3 loc(#loc23)
      ^bb2:  // pred: ^bb1
        %25 = llvm.getelementptr inbounds|nuw %12[%23] : (!llvm.ptr, i64) -> !llvm.ptr, f32 loc(#loc23)
        %26 = llvm.load %25 : !llvm.ptr -> f32 loc(#loc23)
        %27 = llvm.intr.floor(%26) : (f32) -> f32 loc(#loc23)
        %28 = llvm.getelementptr inbounds|nuw %22[%23] : (!llvm.ptr, i64) -> !llvm.ptr, f32 loc(#loc23)
        llvm.store %27, %28 : f32, !llvm.ptr loc(#loc23)
        %29 = llvm.add %23, %9 : i64 loc(#loc23)
        llvm.br ^bb1(%29 : i64) loc(#loc23)
      ^bb3:  // pred: ^bb1
        %30 = llvm.getelementptr %0[8] : (!llvm.ptr) -> !llvm.ptr, i32 loc(#loc24)
        %31 = llvm.ptrtoint %30 : !llvm.ptr to i64 loc(#loc24)
        %32 = llvm.add %31, %8 : i64 loc(#loc24)
        %33 = llvm.call @malloc(%32) : (i64) -> !llvm.ptr loc(#loc24)
        %34 = llvm.ptrtoint %33 : !llvm.ptr to i64 loc(#loc24)
        %35 = llvm.add %34, %18 : i64 loc(#loc24)
        %36 = llvm.urem %35, %8 : i64 loc(#loc24)
        %37 = llvm.sub %35, %36 : i64 loc(#loc24)
        %38 = llvm.inttoptr %37 : i64 to !llvm.ptr loc(#loc24)
        llvm.br ^bb4(%11 : i64) loc(#loc24)
      ^bb4(%39: i64 loc("convert.66")):  // 2 preds: ^bb3, ^bb5
        %40 = llvm.icmp "slt" %39, %10 : i64 loc(#loc24)
        llvm.cond_br %40, ^bb5, ^bb6 loc(#loc24)
      ^bb5:  // pred: ^bb4
        %41 = llvm.getelementptr inbounds|nuw %22[%39] : (!llvm.ptr, i64) -> !llvm.ptr, f32 loc(#loc24)
        %42 = llvm.load %41 : !llvm.ptr -> f32 loc(#loc24)
        %43 = llvm.intr.roundeven(%42) : (f32) -> f32 loc(#loc24)
        %44 = llvm.intr.maximum(%43, %1) : (f32, f32) -> f32 loc(#loc24)
        %45 = llvm.fptosi %44 : f32 to i32 loc(#loc24)
        %46 = llvm.fcmp "uge" %43, %2 : f32 loc(#loc24)
        %47 = llvm.select %46, %3, %45 : i1, i32 loc(#loc24)
        %48 = llvm.getelementptr inbounds|nuw %38[%39] : (!llvm.ptr, i64) -> !llvm.ptr, i32 loc(#loc24)
        llvm.store %47, %48 : i32, !llvm.ptr loc(#loc24)
        %49 = llvm.add %39, %9 : i64 loc(#loc24)
        llvm.br ^bb4(%49 : i64) loc(#loc24)
      ^bb6:  // pred: ^bb4
        %50 = llvm.call @malloc(%32) : (i64) -> !llvm.ptr loc(#loc25)
        %51 = llvm.ptrtoint %50 : !llvm.ptr to i64 loc(#loc25)
        %52 = llvm.add %51, %18 : i64 loc(#loc25)
        %53 = llvm.urem %52, %8 : i64 loc(#loc25)
        %54 = llvm.sub %52, %53 : i64 loc(#loc25)
        %55 = llvm.inttoptr %54 : i64 to !llvm.ptr loc(#loc25)
        %56 = llvm.insertvalue %50, %7[0] : !llvm.struct<(ptr, ptr, i64, array<1 x i64>, array<1 x i64>)>  loc(#loc25)
        %57 = llvm.insertvalue %55, %56[1] : !llvm.struct<(ptr, ptr, i64, array<1 x i64>, array<1 x i64>)>  loc(#loc25)
        %58 = llvm.insertvalue %11, %57[2] : !llvm.struct<(ptr, ptr, i64, array<1 x i64>, array<1 x i64>)>  loc(#loc25)
        %59 = llvm.insertvalue %10, %58[3, 0] : !llvm.struct<(ptr, ptr, i64, array<1 x i64>, array<1 x i64>)>  loc(#loc25)
        %60 = llvm.insertvalue %9, %59[4, 0] : !llvm.struct<(ptr, ptr, i64, array<1 x i64>, array<1 x i64>)>  loc(#loc25)
        llvm.br ^bb7(%11 : i64) loc(#loc25)
      ^bb7(%61: i64 loc("clamp.69")):  // 2 preds: ^bb6, ^bb8
        %62 = llvm.icmp "slt" %61, %10 : i64 loc(#loc25)
        llvm.cond_br %62, ^bb8, ^bb9 loc(#loc25)
      ^bb8:  // pred: ^bb7
        %63 = llvm.getelementptr inbounds|nuw %38[%61] : (!llvm.ptr, i64) -> !llvm.ptr, i32 loc(#loc25)
        %64 = llvm.load %63 : !llvm.ptr -> i32 loc(#loc25)
        %65 = llvm.intr.smax(%64, %4) : (i32, i32) -> i32 loc(#loc25)
        %66 = llvm.intr.smin(%65, %5) : (i32, i32) -> i32 loc(#loc25)
        %67 = llvm.getelementptr inbounds|nuw %55[%61] : (!llvm.ptr, i64) -> !llvm.ptr, i32 loc(#loc25)
        llvm.store %66, %67 : i32, !llvm.ptr loc(#loc25)
        %68 = llvm.add %61, %9 : i64 loc(#loc25)
        llvm.br ^bb7(%68 : i64) loc(#loc25)
      ^bb9:  // pred: ^bb7
        llvm.call @free(%16) : (!llvm.ptr) -> () loc(#loc)
        llvm.call @free(%33) : (!llvm.ptr) -> () loc(#loc)
        llvm.return %60 : !llvm.struct<(ptr, ptr, i64, array<1 x i64>, array<1 x i64>)> loc(#loc)
      } loc(#loc)
      llvm.func @cpu_hoisted_const_eval_d605c2bf(%arg0: !llvm.ptr loc(unknown), %arg1: !llvm.ptr loc(unknown), %arg2: i64 loc(unknown), %arg3: i64 loc(unknown), %arg4: i64 loc(unknown)) -> !llvm.struct<(ptr, ptr, i64, array<3 x i64>, array<3 x i64>)> attributes {arg_ranks = [1], func_hash = "d605c2bfd3a9f8c9d76a0afb92d69490d47ace5cf9fc72169424ab9ed3ba7f52", result_ranks = [3], tt.function_type = "forward_cpu"} {
        %0 = llvm.mlir.poison : !llvm.struct<(ptr, ptr, i64, array<3 x i64>, array<3 x i64>)> loc(#loc)
        %1 = llvm.mlir.zero : !llvm.ptr loc(#loc)
        %2 = llvm.mlir.constant(32 : index) : i64 loc(#loc)
        %3 = llvm.mlir.constant(1 : index) : i64 loc(#loc)
        %4 = llvm.mlir.constant(0 : index) : i64 loc(#loc)
        %5 = llvm.getelementptr %1[32] : (!llvm.ptr) -> !llvm.ptr, f32 loc(#loc26)
        %6 = llvm.ptrtoint %5 : !llvm.ptr to i64 loc(#loc26)
        %7 = llvm.call @malloc(%6) : (i64) -> !llvm.ptr loc(#loc26)
        %8 = llvm.insertvalue %7, %0[0] : !llvm.struct<(ptr, ptr, i64, array<3 x i64>, array<3 x i64>)>  loc(#loc26)
        %9 = llvm.insertvalue %7, %8[1] : !llvm.struct<(ptr, ptr, i64, array<3 x i64>, array<3 x i64>)>  loc(#loc26)
        %10 = llvm.insertvalue %4, %9[2] : !llvm.struct<(ptr, ptr, i64, array<3 x i64>, array<3 x i64>)>  loc(#loc26)
        %11 = llvm.insertvalue %3, %10[3, 0] : !llvm.struct<(ptr, ptr, i64, array<3 x i64>, array<3 x i64>)>  loc(#loc26)
        %12 = llvm.insertvalue %3, %11[3, 1] : !llvm.struct<(ptr, ptr, i64, array<3 x i64>, array<3 x i64>)>  loc(#loc26)
        %13 = llvm.insertvalue %2, %12[3, 2] : !llvm.struct<(ptr, ptr, i64, array<3 x i64>, array<3 x i64>)>  loc(#loc26)
        %14 = llvm.insertvalue %2, %13[4, 0] : !llvm.struct<(ptr, ptr, i64, array<3 x i64>, array<3 x i64>)>  loc(#loc26)
        %15 = llvm.insertvalue %2, %14[4, 1] : !llvm.struct<(ptr, ptr, i64, array<3 x i64>, array<3 x i64>)>  loc(#loc26)
        %16 = llvm.insertvalue %3, %15[4, 2] : !llvm.struct<(ptr, ptr, i64, array<3 x i64>, array<3 x i64>)>  loc(#loc26)
        %17 = llvm.mul %3, %3 : i64 loc(#loc26)
        %18 = llvm.mul %17, %3 : i64 loc(#loc26)
        %19 = llvm.mul %18, %2 : i64 loc(#loc26)
        %20 = llvm.getelementptr %1[1] : (!llvm.ptr) -> !llvm.ptr, f32 loc(#loc26)
        %21 = llvm.ptrtoint %20 : !llvm.ptr to i64 loc(#loc26)
        %22 = llvm.mul %19, %21 : i64 loc(#loc26)
        "llvm.intr.memcpy"(%7, %arg1, %22) <{isVolatile = false}> : (!llvm.ptr, !llvm.ptr, i64) -> () loc(#loc26)
        llvm.return %16 : !llvm.struct<(ptr, ptr, i64, array<3 x i64>, array<3 x i64>)> loc(#loc)
      } loc(#loc)
      llvm.func @cpu_hoisted_const_eval_139709bc() -> !llvm.struct<(ptr, ptr, i64, array<1 x i64>, array<1 x i64>)> attributes {arg_ranks = [], func_hash = "139709bc3448433acf78a6458129903463fadb426ba5311cdf6117c04f077374", result_ranks = [1], tt.function_type = "forward_cpu"} {
        %0 = llvm.mlir.zero : !llvm.ptr loc(#loc)
        %1 = llvm.mlir.constant(-2.14748365E+9 : f32) : f32 loc(#loc)
        %2 = llvm.mlir.constant(2.14748365E+9 : f32) : f32 loc(#loc)
        %3 = llvm.mlir.constant(2147483647 : i32) : i32 loc(#loc)
        %4 = llvm.mlir.constant(0 : i32) : i32 loc(#loc)
        %5 = llvm.mlir.constant(15 : i32) : i32 loc(#loc)
        %6 = llvm.mlir.addressof @__constant_32xf32 : !llvm.ptr loc(#loc)
        %7 = llvm.mlir.poison : !llvm.struct<(ptr, ptr, i64, array<1 x i64>, array<1 x i64>)> loc(#loc)
        %8 = llvm.mlir.constant(64 : index) : i64 loc(#loc)
        %9 = llvm.mlir.constant(1 : index) : i64 loc(#loc)
        %10 = llvm.mlir.constant(32 : index) : i64 loc(#loc)
        %11 = llvm.mlir.constant(0 : index) : i64 loc(#loc)
        %12 = llvm.getelementptr %6[0, 0] : (!llvm.ptr) -> !llvm.ptr, !llvm.array<32 x f32> loc(#loc)
        %13 = llvm.getelementptr %0[32] : (!llvm.ptr) -> !llvm.ptr, f32 loc(#loc27)
        %14 = llvm.ptrtoint %13 : !llvm.ptr to i64 loc(#loc27)
        %15 = llvm.add %14, %8 : i64 loc(#loc27)
        %16 = llvm.call @malloc(%15) : (i64) -> !llvm.ptr loc(#loc27)
        %17 = llvm.ptrtoint %16 : !llvm.ptr to i64 loc(#loc27)
        %18 = llvm.sub %8, %9 : i64 loc(#loc27)
        %19 = llvm.add %17, %18 : i64 loc(#loc27)
        %20 = llvm.urem %19, %8 : i64 loc(#loc27)
        %21 = llvm.sub %19, %20 : i64 loc(#loc27)
        %22 = llvm.inttoptr %21 : i64 to !llvm.ptr loc(#loc27)
        llvm.br ^bb1(%11 : i64) loc(#loc27)
      ^bb1(%23: i64 loc("floor.47")):  // 2 preds: ^bb0, ^bb2
        %24 = llvm.icmp "slt" %23, %10 : i64 loc(#loc27)
        llvm.cond_br %24, ^bb2, ^bb3 loc(#loc27)
      ^bb2:  // pred: ^bb1
        %25 = llvm.getelementptr inbounds|nuw %12[%23] : (!llvm.ptr, i64) -> !llvm.ptr, f32 loc(#loc27)
        %26 = llvm.load %25 : !llvm.ptr -> f32 loc(#loc27)
        %27 = llvm.intr.floor(%26) : (f32) -> f32 loc(#loc27)
        %28 = llvm.getelementptr inbounds|nuw %22[%23] : (!llvm.ptr, i64) -> !llvm.ptr, f32 loc(#loc27)
        llvm.store %27, %28 : f32, !llvm.ptr loc(#loc27)
        %29 = llvm.add %23, %9 : i64 loc(#loc27)
        llvm.br ^bb1(%29 : i64) loc(#loc27)
      ^bb3:  // pred: ^bb1
        %30 = llvm.getelementptr %0[32] : (!llvm.ptr) -> !llvm.ptr, i32 loc(#loc28)
        %31 = llvm.ptrtoint %30 : !llvm.ptr to i64 loc(#loc28)
        %32 = llvm.add %31, %8 : i64 loc(#loc28)
        %33 = llvm.call @malloc(%32) : (i64) -> !llvm.ptr loc(#loc28)
        %34 = llvm.ptrtoint %33 : !llvm.ptr to i64 loc(#loc28)
        %35 = llvm.add %34, %18 : i64 loc(#loc28)
        %36 = llvm.urem %35, %8 : i64 loc(#loc28)
        %37 = llvm.sub %35, %36 : i64 loc(#loc28)
        %38 = llvm.inttoptr %37 : i64 to !llvm.ptr loc(#loc28)
        llvm.br ^bb4(%11 : i64) loc(#loc28)
      ^bb4(%39: i64 loc("convert.48")):  // 2 preds: ^bb3, ^bb5
        %40 = llvm.icmp "slt" %39, %10 : i64 loc(#loc28)
        llvm.cond_br %40, ^bb5, ^bb6 loc(#loc28)
      ^bb5:  // pred: ^bb4
        %41 = llvm.getelementptr inbounds|nuw %22[%39] : (!llvm.ptr, i64) -> !llvm.ptr, f32 loc(#loc28)
        %42 = llvm.load %41 : !llvm.ptr -> f32 loc(#loc28)
        %43 = llvm.intr.roundeven(%42) : (f32) -> f32 loc(#loc28)
        %44 = llvm.intr.maximum(%43, %1) : (f32, f32) -> f32 loc(#loc28)
        %45 = llvm.fptosi %44 : f32 to i32 loc(#loc28)
        %46 = llvm.fcmp "uge" %43, %2 : f32 loc(#loc28)
        %47 = llvm.select %46, %3, %45 : i1, i32 loc(#loc28)
        %48 = llvm.getelementptr inbounds|nuw %38[%39] : (!llvm.ptr, i64) -> !llvm.ptr, i32 loc(#loc28)
        llvm.store %47, %48 : i32, !llvm.ptr loc(#loc28)
        %49 = llvm.add %39, %9 : i64 loc(#loc28)
        llvm.br ^bb4(%49 : i64) loc(#loc28)
      ^bb6:  // pred: ^bb4
        %50 = llvm.call @malloc(%32) : (i64) -> !llvm.ptr loc(#loc29)
        %51 = llvm.ptrtoint %50 : !llvm.ptr to i64 loc(#loc29)
        %52 = llvm.add %51, %18 : i64 loc(#loc29)
        %53 = llvm.urem %52, %8 : i64 loc(#loc29)
        %54 = llvm.sub %52, %53 : i64 loc(#loc29)
        %55 = llvm.inttoptr %54 : i64 to !llvm.ptr loc(#loc29)
        %56 = llvm.insertvalue %50, %7[0] : !llvm.struct<(ptr, ptr, i64, array<1 x i64>, array<1 x i64>)>  loc(#loc29)
        %57 = llvm.insertvalue %55, %56[1] : !llvm.struct<(ptr, ptr, i64, array<1 x i64>, array<1 x i64>)>  loc(#loc29)
        %58 = llvm.insertvalue %11, %57[2] : !llvm.struct<(ptr, ptr, i64, array<1 x i64>, array<1 x i64>)>  loc(#loc29)
        %59 = llvm.insertvalue %10, %58[3, 0] : !llvm.struct<(ptr, ptr, i64, array<1 x i64>, array<1 x i64>)>  loc(#loc29)
        %60 = llvm.insertvalue %9, %59[4, 0] : !llvm.struct<(ptr, ptr, i64, array<1 x i64>, array<1 x i64>)>  loc(#loc29)
        llvm.br ^bb7(%11 : i64) loc(#loc29)
      ^bb7(%61: i64 loc("clamp.51")):  // 2 preds: ^bb6, ^bb8
        %62 = llvm.icmp "slt" %61, %10 : i64 loc(#loc29)
        llvm.cond_br %62, ^bb8, ^bb9 loc(#loc29)
      ^bb8:  // pred: ^bb7
        %63 = llvm.getelementptr inbounds|nuw %38[%61] : (!llvm.ptr, i64) -> !llvm.ptr, i32 loc(#loc29)
        %64 = llvm.load %63 : !llvm.ptr -> i32 loc(#loc29)
        %65 = llvm.intr.smax(%64, %4) : (i32, i32) -> i32 loc(#loc29)
        %66 = llvm.intr.smin(%65, %5) : (i32, i32) -> i32 loc(#loc29)
        %67 = llvm.getelementptr inbounds|nuw %55[%61] : (!llvm.ptr, i64) -> !llvm.ptr, i32 loc(#loc29)
        llvm.store %66, %67 : i32, !llvm.ptr loc(#loc29)
        %68 = llvm.add %61, %9 : i64 loc(#loc29)
        llvm.br ^bb7(%68 : i64) loc(#loc29)
      ^bb9:  // pred: ^bb7
        llvm.call @free(%16) : (!llvm.ptr) -> () loc(#loc)
        llvm.call @free(%33) : (!llvm.ptr) -> () loc(#loc)
        llvm.return %60 : !llvm.struct<(ptr, ptr, i64, array<1 x i64>, array<1 x i64>)> loc(#loc)
      } loc(#loc)
      llvm.func @cpu_hoisted_const_eval_354902e9(%arg0: !llvm.ptr loc(unknown), %arg1: !llvm.ptr loc(unknown), %arg2: i64 loc(unknown), %arg3: i64 loc(unknown), %arg4: i64 loc(unknown), %arg5: i64 loc(unknown), %arg6: i64 loc(unknown), %arg7: i64 loc(unknown), %arg8: i64 loc(unknown)) -> !llvm.struct<(struct<(ptr, ptr, i64, array<3 x i64>, array<3 x i64>)>, struct<(ptr, ptr, i64, array<4 x i64>, array<4 x i64>)>, struct<(ptr, ptr, i64, array<3 x i64>, array<3 x i64>)>, struct<(ptr, ptr, i64, array<3 x i64>, array<3 x i64>)>)> attributes {arg_ranks = [3], func_hash = "354902e992c61318567e1c776bc7a4587161d596a6d67f68ff73eeda5641f120", result_ranks = [3, 4, 3, 3], tt.function_type = "forward_cpu"} {
        %0 = llvm.mlir.poison : !llvm.struct<(ptr, ptr, i64, array<3 x i64>, array<3 x i64>)> loc(#loc)
        %1 = llvm.mlir.poison : !llvm.struct<(ptr, ptr, i64, array<4 x i64>, array<4 x i64>)> loc(#loc)
        %2 = llvm.mlir.zero : !llvm.ptr loc(#loc)
        %3 = llvm.mlir.poison : !llvm.struct<(struct<(ptr, ptr, i64, array<3 x i64>, array<3 x i64>)>, struct<(ptr, ptr, i64, array<4 x i64>, array<4 x i64>)>, struct<(ptr, ptr, i64, array<3 x i64>, array<3 x i64>)>, struct<(ptr, ptr, i64, array<3 x i64>, array<3 x i64>)>)> loc(#loc)
        %4 = llvm.mlir.constant(32 : index) : i64 loc(#loc)
        %5 = llvm.mlir.constant(64 : index) : i64 loc(#loc)
        %6 = llvm.mlir.constant(2 : index) : i64 loc(#loc)
        %7 = llvm.mlir.constant(16 : index) : i64 loc(#loc)
        %8 = llvm.mlir.constant(0 : index) : i64 loc(#loc)
        %9 = llvm.mlir.constant(1 : index) : i64 loc(#loc)
        %10 = llvm.mlir.constant(4 : index) : i64 loc(#loc)
        %11 = llvm.mlir.constant(8 : index) : i64 loc(#loc)
        %12 = llvm.getelementptr %2[32] : (!llvm.ptr) -> !llvm.ptr, f32 loc(#loc30)
        %13 = llvm.ptrtoint %12 : !llvm.ptr to i64 loc(#loc30)
        %14 = llvm.add %13, %5 : i64 loc(#loc30)
…
               [ 0.0000e+00,        -inf,        -inf,        -inf],
               [ 0.0000e+00,        -inf,        -inf,        -inf]]]], shape=Shape([1, 4, 4, 4]), dtype=DataType::FLOAT32, layout=Layout::TILE)
[32m            RuntimeTTNN[0m | [1m[38;5;240m   DEBUG[0m | Executing operation: "ttnn.deallocate"(%111) <{force = false}> : (tensor<1x4x4x4xf32, #ttnn.ttnn_layout<(d0, d1, d2, d3) -> (d0 * 128 + d1 * 32 + d2, d3), <1x1>, memref<4x1x!ttcore.tile<32x32, f32>, #ttnn.buffer_type<dram>>, <interleaved>>>) -> () loc("select.513")
[32m            RuntimeTTNN[0m | [1m[38;5;240m   DEBUG[0m | Executing operation: "ttnn.deallocate"(%12) <{force = false}> : (tensor<1x1x1x1xf32, #ttnn.ttnn_layout<(d0, d1, d2, d3) -> (d0 * 32 + d1 * 32 + d2, d3), <1x1>, memref<1x1x!ttcore.tile<32x32, f32>, #ttnn.buffer_type<dram>>, <interleaved>>>) -> () loc("select.513")
[32m                 Always[0m | [1m[38;5;240m   DEBUG[0m | Tensor is retained thus not deallocating. To deallocate, set retain to false first
[32m            RuntimeTTNN[0m | [1m[38;5;240m   DEBUG[0m | Executing operation: "ttnn.deallocate"(%4#2) <{force = false}> : (tensor<1x4x1x4xf32, #ttnn.ttnn_layout<(d0, d1, d2, d3) -> (d0 * 128 + d1 * 32 + d2, d3), <1x1>, memref<4x1x!ttcore.tile<32x32, f32>, #ttnn.buffer_type<dram>>, <interleaved>>>) -> () loc("select.513")
[32m                 Always[0m | [1m[38;5;240m   DEBUG[0m | Tensor is retained thus not deallocating. To deallocate, set retain to false first
[32m            RuntimeTTNN[0m | [1m[38;5;240m   DEBUG[0m | Executing operation: %113 = "ttnn.max"(%112) <{compute_config = #ttnn.device_compute_kernel_config<math_fidelity = hifi4, fp32_dest_acc_en = true>, dim_arg = [3 : i32], keep_dim = true}> : (tensor<1x4x4x4xf32, #ttnn.ttnn_layout<(d0, d1, d2, d3) -> (d0 * 128 + d1 * 32 + d2, d3), <1x1>, memref<4x1x!ttcore.tile<32x32, f32>, #ttnn.buffer_type<dram>>, <interleaved>>>) -> tensor<1x4x4x1xf32, #ttnn.ttnn_layout<(d0, d1, d2, d3) -> (d0 * 128 + d1 * 32 + d2, d3), <1x1>, memref<4x1x!ttcore.tile<32x32, f32>, #ttnn.buffer_type<dram>>, <interleaved>>> loc("reduce.520")
[32m            RuntimeTTNN[0m | [1m[38;5;240m   DEBUG[0m | Executing operation: %114 = "ttnn.subtract"(%112, %113) <{dtype = #ttcore.supportedDataTypes<f32>}> : (tensor<1x4x4x4xf32, #ttnn.ttnn_layout<(d0, d1, d2, d3) -> (d0 * 128 + d1 * 32 + d2, d3), <1x1>, memref<4x1x!ttcore.tile<32x32, f32>, #ttnn.buffer_type<dram>>, <interleaved>>>, tensor<1x4x4x1xf32, #ttnn.ttnn_layout<(d0, d1, d2, d3) -> (d0 * 128 + d1 * 32 + d2, d3), <1x1>, memref<4x1x!ttcore.tile<32x32, f32>, #ttnn.buffer_type<dram>>, <interleaved>>>) -> tensor<1x4x4x4xf32, #ttnn.ttnn_layout<(d0, d1, d2, d3) -> (d0 * 128 + d1 * 32 + d2, d3), <1x1>, memref<4x1x!ttcore.tile<32x32, f32>, #ttnn.buffer_type<dram>>, <interleaved>>> loc("subtract.538")
[32m            RuntimeTTNN[0m | [1m[38;5;240m   DEBUG[0m | Executing operation: "ttnn.deallocate"(%112) <{force = false}> : (tensor<1x4x4x4xf32, #ttnn.ttnn_layout<(d0, d1, d2, d3) -> (d0 * 128 + d1 * 32 + d2, d3), <1x1>, memref<4x1x!ttcore.tile<32x32, f32>, #ttnn.buffer_type<dram>>, <interleaved>>>) -> () loc("subtract.538")
[32m            RuntimeTTNN[0m | [1m[38;5;240m   DEBUG[0m | Executing operation: %115 = "ttnn.exp"(%114) : (tensor<1x4x4x4xf32, #ttnn.ttnn_layout<(d0, d1, d2, d3) -> (d0 * 128 + d1 * 32 + d2, d3), <1x1>, memref<4x1x!ttcore.tile<32x32, f32>, #ttnn.buffer_type<dram>>, <interleaved>>>) -> tensor<1x4x4x4xf32, #ttnn.ttnn_layout<(d0, d1, d2, d3) -> (d0 * 128 + d1 * 32 + d2, d3), <1x1>, memref<4x1x!ttcore.tile<32x32, f32>, #ttnn.buffer_type<dram>>, <interleaved>>> loc("exponential.539")
[32m            RuntimeTTNN[0m | [1m[38;5;240m   DEBUG[0m | Executing operation: "ttnn.deallocate"(%114) <{force = false}> : (tensor<1x4x4x4xf32, #ttnn.ttnn_layout<(d0, d1, d2, d3) -> (d0 * 128 + d1 * 32 + d2, d3), <1x1>, memref<4x1x!ttcore.tile<32x32, f32>, #ttnn.buffer_type<dram>>, <interleaved>>>) -> () loc("exponential.539")
[32m            RuntimeTTNN[0m | [1m[38;5;240m   DEBUG[0m | Executing operation: %116 = "ttnn.sum"(%115) <{compute_config = #ttnn.device_compute_kernel_config<math_fidelity = hifi4, fp32_dest_acc_en = true>, dim_arg = [3 : i32], keep_dim = true}> : (tensor<1x4x4x4xf32, #ttnn.ttnn_layout<(d0, d1, d2, d3) -> (d0 * 128 + d1 * 32 + d2, d3), <1x1>, memref<4x1x!ttcore.tile<32x32, f32>, #ttnn.buffer_type<dram>>, <interleaved>>>) -> tensor<1x4x4x1xf32, #ttnn.ttnn_layout<(d0, d1, d2, d3) -> (d0 * 128 + d1 * 32 + d2, d3), <1x1>, memref<4x1x!ttcore.tile<32x32, f32>, #ttnn.buffer_type<dram>>, <interleaved>>> loc("reduce.546")
[32m            RuntimeTTNN[0m | [1m[38;5;240m   DEBUG[0m | Executing operation: %117 = "ttnn.subtract"(%13, %113) <{dtype = #ttcore.supportedDataTypes<f32>}> : (tensor<1x1x4x1xf32, #ttnn.ttnn_layout<(d0, d1, d2, d3) -> (d0 * 32 + d1 * 32 + d2, d3), <1x1>, memref<1x1x!ttcore.tile<32x32, f32>, #ttnn.buffer_type<dram>>, <interleaved>>>, tensor<1x4x4x1xf32, #ttnn.ttnn_layout<(d0, d1, d2, d3) -> (d0 * 128 + d1 * 32 + d2, d3), <1x1>, memref<4x1x!ttcore.tile<32x32, f32>, #ttnn.buffer_type<dram>>, <interleaved>>>) -> tensor<1x4x4x1xf32, #ttnn.ttnn_layout<(d0, d1, d2, d3) -> (d0 * 128 + d1 * 32 + d2, d3), <1x1>, memref<4x1x!ttcore.tile<32x32, f32>, #ttnn.buffer_type<dram>>, <interleaved>>> loc("subtract.531")
[32m            RuntimeTTNN[0m | [1m[38;5;240m   DEBUG[0m | Executing operation: "ttnn.deallocate"(%113) <{force = false}> : (tensor<1x4x4x1xf32, #ttnn.ttnn_layout<(d0, d1, d2, d3) -> (d0 * 128 + d1 * 32 + d2, d3), <1x1>, memref<4x1x!ttcore.tile<32x32, f32>, #ttnn.buffer_type<dram>>, <interleaved>>>) -> () loc("subtract.531")
[32m            RuntimeTTNN[0m | [1m[38;5;240m   DEBUG[0m | Executing operation: "ttnn.deallocate"(%13) <{force = false}> : (tensor<1x1x4x1xf32, #ttnn.ttnn_layout<(d0, d1, d2, d3) -> (d0 * 32 + d1 * 32 + d2, d3), <1x1>, memref<1x1x!ttcore.tile<32x32, f32>, #ttnn.buffer_type<dram>>, <interleaved>>>) -> () loc("subtract.531")
[32m                 Always[0m | [1m[38;5;240m   DEBUG[0m | Tensor is retained thus not deallocating. To deallocate, set retain to false first
[32m            RuntimeTTNN[0m | [1m[38;5;240m   DEBUG[0m | Executing operation: %118 = "ttnn.exp"(%117) : (tensor<1x4x4x1xf32, #ttnn.ttnn_layout<(d0, d1, d2, d3) -> (d0 * 128 + d1 * 32 + d2, d3), <1x1>, memref<4x1x!ttcore.tile<32x32, f32>, #ttnn.buffer_type<dram>>, <interleaved>>>) -> tensor<1x4x4x1xf32, #ttnn.ttnn_layout<(d0, d1, d2, d3) -> (d0 * 128 + d1 * 32 + d2, d3), <1x1>, memref<4x1x!ttcore.tile<32x32, f32>, #ttnn.buffer_type<dram>>, <interleaved>>> loc("exponential.532")
[32m            RuntimeTTNN[0m | [1m[38;5;240m   DEBUG[0m | Executing operation: "ttnn.deallocate"(%117) <{force = false}> : (tensor<1x4x4x1xf32, #ttnn.ttnn_layout<(d0, d1, d2, d3) -> (d0 * 128 + d1 * 32 + d2, d3), <1x1>, memref<4x1x!ttcore.tile<32x32, f32>, #ttnn.buffer_type<dram>>, <interleaved>>>) -> () loc("exponential.532")
[32m            RuntimeTTNN[0m | [1m[38;5;240m   DEBUG[0m | Executing operation: %119 = "ttnn.add"(%116, %118) <{dtype = #ttcore.supportedDataTypes<f32>}> : (tensor<1x4x4x1xf32, #ttnn.ttnn_layout<(d0, d1, d2, d3) -> (d0 * 128 + d1 * 32 + d2, d3), <1x1>, memref<4x1x!ttcore.tile<32x32, f32>, #ttnn.buffer_type<dram>>, <interleaved>>>, tensor<1x4x4x1xf32, #ttnn.ttnn_layout<(d0, d1, d2, d3) -> (d0 * 128 + d1 * 32 + d2, d3), <1x1>, memref<4x1x!ttcore.tile<32x32, f32>, #ttnn.buffer_type<dram>>, <interleaved>>>) -> tensor<1x4x4x1xf32, #ttnn.ttnn_layout<(d0, d1, d2, d3) -> (d0 * 128 + d1 * 32 + d2, d3), <1x1>, memref<4x1x!ttcore.tile<32x32, f32>, #ttnn.buffer_type<dram>>, <interleaved>>> loc("add.550")
[32m            RuntimeTTNN[0m | [1m[38;5;240m   DEBUG[0m | Executing operation: "ttnn.deallocate"(%118) <{force = false}> : (tensor<1x4x4x1xf32, #ttnn.ttnn_layout<(d0, d1, d2, d3) -> (d0 * 128 + d1 * 32 + d2, d3), <1x1>, memref<4x1x!ttcore.tile<32x32, f32>, #ttnn.buffer_type<dram>>, <interleaved>>>) -> () loc("add.550")
[32m            RuntimeTTNN[0m | [1m[38;5;240m   DEBUG[0m | Executing operation: "ttnn.deallocate"(%116) <{force = false}> : (tensor<1x4x4x1xf32, #ttnn.ttnn_layout<(d0, d1, d2, d3) -> (d0 * 128 + d1 * 32 + d2, d3), <1x1>, memref<4x1x!ttcore.tile<32x32, f32>, #ttnn.buffer_type<dram>>, <interleaved>>>) -> () loc("add.550")
[32m            RuntimeTTNN[0m | [1m[38;5;240m   DEBUG[0m | Executing operation: %120 = "ttnn.divide"(%115, %119) <{dtype = #ttcore.supportedDataTypes<f32>}> : (tensor<1x4x4x4xf32, #ttnn.ttnn_layout<(d0, d1, d2, d3) -> (d0 * 128 + d1 * 32 + d2, d3), <1x1>, memref<4x1x!ttcore.tile<32x32, f32>, #ttnn.buffer_type<dram>>, <interleaved>>>, tensor<1x4x4x1xf32, #ttnn.ttnn_layout<(d0, d1, d2, d3) -> (d0 * 128 + d1 * 32 + d2, d3), <1x1>, memref<4x1x!ttcore.tile<32x32, f32>, #ttnn.buffer_type<dram>>, <interleaved>>>) -> tensor<1x4x4x4xf32, #ttnn.ttnn_layout<(d0, d1, d2, d3) -> (d0 * 128 + d1 * 32 + d2, d3), <1x1>, memref<4x1x!ttcore.tile<32x32, f32>, #ttnn.buffer_type<dram>>, <interleaved>>> loc("divide.553")
[32m            RuntimeTTNN[0m | [1m[38;5;240m   DEBUG[0m | Executing operation: "ttnn.deallocate"(%119) <{force = false}> : (tensor<1x4x4x1xf32, #ttnn.ttnn_layout<(d0, d1, d2, d3) -> (d0 * 128 + d1 * 32 + d2, d3), <1x1>, memref<4x1x!ttcore.tile<32x32, f32>, #ttnn.buffer_type<dram>>, <interleaved>>>) -> () loc("divide.553")
[32m            RuntimeTTNN[0m | [1m[38;5;240m   DEBUG[0m | Executing operation: "ttnn.deallocate"(%115) <{force = false}> : (tensor<1x4x4x4xf32, #ttnn.ttnn_layout<(d0, d1, d2, d3) -> (d0 * 128 + d1 * 32 + d2, d3), <1x1>, memref<4x1x!ttcore.tile<32x32, f32>, #ttnn.buffer_type<dram>>, <interleaved>>>) -> () loc("divide.553")
[32m            RuntimeTTNN[0m | [1m[38;5;240m   DEBUG[0m | Executing operation: %121 = "ttnn.matmul"(%120, %109) <{compute_config = #ttnn.device_compute_kernel_config<math_fidelity = hifi4, fp32_dest_acc_en = true>, transpose_a = false, transpose_b = false}> : (tensor<1x4x4x4xf32, #ttnn.ttnn_layout<(d0, d1, d2, d3) -> (d0 * 128 + d1 * 32 + d2, d3), <1x1>, memref<4x1x!ttcore.tile<32x32, f32>, #ttnn.buffer_type<dram>>, <interleaved>>>, tensor<1x4x4x32xf32, #ttnn.ttnn_layout<(d0, d1, d2, d3) -> (d0 * 128 + d1 * 32 + d2, d3), <1x1>, memref<4x1x!ttcore.tile<32x32, f32>, #ttnn.buffer_type<dram>>, <interleaved>>>) -> tensor<1x4x4x32xf32, #ttnn.ttnn_layout<(d0, d1, d2, d3) -> (d0 * 128 + d1 * 32 + d2, d3), <1x1>, memref<4x1x!ttcore.tile<32x32, f32>, #ttnn.buffer_type<dram>>, <interleaved>>> loc("dot.554")
[32m            RuntimeTTNN[0m | [1m[38;5;240m   DEBUG[0m | Executing operation: "ttnn.deallocate"(%120) <{force = false}> : (tensor<1x4x4x4xf32, #ttnn.ttnn_layout<(d0, d1, d2, d3) -> (d0 * 128 + d1 * 32 + d2, d3), <1x1>, memref<4x1x!ttcore.tile<32x32, f32>, #ttnn.buffer_type<dram>>, <interleaved>>>) -> () loc("dot.554")
[32m            RuntimeTTNN[0m | [1m[38;5;240m   DEBUG[0m | Executing operation: "ttnn.deallocate"(%109) <{force = false}> : (tensor<1x4x4x32xf32, #ttnn.ttnn_layout<(d0, d1, d2, d3) -> (d0 * 128 + d1 * 32 + d2, d3), <1x1>, memref<4x1x!ttcore.tile<32x32, f32>, #ttnn.buffer_type<dram>>, <interleaved>>>) -> () loc("dot.554")
[32m            RuntimeTTNN[0m | [1m[38;5;240m   DEBUG[0m | Executing operation: %122 = "ttnn.typecast"(%121) <{dtype = #ttcore.supportedDataTypes<bf16>}> : (tensor<1x4x4x32xf32, #ttnn.ttnn_layout<(d0, d1, d2, d3) -> (d0 * 128 + d1 * 32 + d2, d3), <1x1>, memref<4x1x!ttcore.tile<32x32, f32>, #ttnn.buffer_type<dram>>, <interleaved>>>) -> tensor<1x4x4x32xbf16, #ttnn.ttnn_layout<(d0, d1, d2, d3) -> (d0 * 128 + d1 * 32 + d2, d3), <1x1>, memref<4x1x!ttcore.tile<32x32, bf16>, #ttnn.buffer_type<dram>>, <interleaved>>> loc("convert.556")
[32m            RuntimeTTNN[0m | [1m[38;5;240m   DEBUG[0m | Executing operation: "ttnn.deallocate"(%121) <{force = false}> : (tensor<1x4x4x32xf32, #ttnn.ttnn_layout<(d0, d1, d2, d3) -> (d0 * 128 + d1 * 32 + d2, d3), <1x1>, memref<4x1x!ttcore.tile<32x32, f32>, #ttnn.buffer_type<dram>>, <interleaved>>>) -> () loc("convert.556")
[32m            RuntimeTTNN[0m | [1m[38;5;240m   DEBUG[0m | Executing operation: %123 = "ttnn.slice_static"(%122) <{begins = [0 : i32, 0 : i32, 0 : i32, 16 : i32], ends = [1 : i32, 4 : i32, 4 : i32, 32 : i32], step = [1 : i32, 1 : i32, 1 : i32, 1 : i32]}> : (tensor<1x4x4x32xbf16, #ttnn.ttnn_layout<(d0, d1, d2, d3) -> (d0 * 128 + d1 * 32 + d2, d3), <1x1>, memref<4x1x!ttcore.tile<32x32, bf16>, #ttnn.buffer_type<dram>>, <interleaved>>>) -> tensor<1x4x4x16xbf16, #ttnn.ttnn_layout<(d0, d1, d2, d3) -> (d0 * 128 + d1 * 32 + d2, d3), <1x1>, memref<4x1x!ttcore.tile<32x32, bf16>, #ttnn.buffer_type<dram>>, <interleaved>>> loc("slice.592")
[32m            RuntimeTTNN[0m | [1m[38;5;240m   DEBUG[0m | Executing operation: %124 = "ttnn.typecast"(%123) <{dtype = #ttcore.supportedDataTypes<f32>}> : (tensor<1x4x4x16xbf16, #ttnn.ttnn_layout<(d0, d1, d2, d3) -> (d0 * 128 + d1 * 32 + d2, d3), <1x1>, memref<4x1x!ttcore.tile<32x32, bf16>, #ttnn.buffer_type<dram>>, <interleaved>>>) -> tensor<1x4x4x16xf32, #ttnn.ttnn_layout<(d0, d1, d2, d3) -> (d0 * 128 + d1 * 32 + d2, d3), <1x1>, memref<4x1x!ttcore.tile<32x32, f32>, #ttnn.buffer_type<dram>>, <interleaved>>> loc("convert.593")
[32m            RuntimeTTNN[0m | [1m[38;5;240m   DEBUG[0m | Executing operation: "ttnn.deallocate"(%123) <{force = false}> : (tensor<1x4x4x16xbf16, #ttnn.ttnn_layout<(d0, d1, d2, d3) -> (d0 * 128 + d1 * 32 + d2, d3), <1x1>, memref<4x1x!ttcore.tile<32x32, bf16>, #ttnn.buffer_type<dram>>, <interleaved>>>) -> () loc("convert.593")
[32m            RuntimeTTNN[0m | [1m[38;5;240m   DEBUG[0m | Executing operation: %125 = "ttnn.reshape"(%124) <{shape = [1 : i32, 4 : i32, 4 : i32, 8 : i32, 2 : i32]}> : (tensor<1x4x4x16xf32, #ttnn.ttnn_layout<(d0, d1, d2, d3) -> (d0 * 128 + d1 * 32 + d2, d3), <1x1>, memref<4x1x!ttcore.tile<32x32, f32>, #ttnn.buffer_type<dram>>, <interleaved>>>) -> tensor<1x4x4x8x2xf32, #ttnn.ttnn_layout<(d0, d1, d2, d3, d4) -> (d0 * 512 + d1 * 128 + d2 * 32 + d3, d4), <1x1>, memref<16x1x!ttcore.tile<32x32, f32>, #ttnn.buffer_type<dram>>, <interleaved>>> loc("convert.593")
[32m            RuntimeTTNN[0m | [1m[38;5;240m   DEBUG[0m | Executing operation: "ttnn.deallocate"(%124) <{force = false}> : (tensor<1x4x4x16xf32, #ttnn.ttnn_layout<(d0, d1, d2, d3) -> (d0 * 128 + d1 * 32 + d2, d3), <1x1>, memref<4x1x!ttcore.tile<32x32, f32>, #ttnn.buffer_type<dram>>, <interleaved>>>) -> () loc("convert.593")
[32m            RuntimeTTNN[0m | [1m[38;5;240m   DEBUG[0m | Executing operation: %126 = "ttnn.slice_static"(%125) <{begins = [0 : i32, 0 : i32, 0 : i32, 0 : i32, 0 : i32], ends = [1 : i32, 4 : i32, 4 : i32, 8 : i32, 1 : i32], step = [1 : i32, 1 : i32, 1 : i32, 1 : i32, 1 : i32]}> : (tensor<1x4x4x8x2xf32, #ttnn.ttnn_layout<(d0, d1, d2, d3, d4) -> (d0 * 512 + d1 * 128 + d2 * 32 + d3, d4), <1x1>, memref<16x1x!ttcore.tile<32x32, f32>, #ttnn.buffer_type<dram>>, <interleaved>>>) -> tensor<1x4x4x8x1xf32, #ttnn.ttnn_layout<(d0, d1, d2, d3, d4) -> (d0 * 512 + d1 * 128 + d2 * 32 + d3, d4), <1x1>, memref<16x1x!ttcore.tile<32x32, f32>, #ttnn.buffer_type<dram>>, <interleaved>>> loc("slice.603")
[32m            RuntimeTTNN[0m | [1m[38;5;240m   DEBUG[0m | Executing operation: %127 = "ttnn.multiply"(%126, %3#2) <{dtype = #ttcore.supportedDataTypes<f32>}> : (tensor<1x4x4x8x1xf32, #ttnn.ttnn_layout<(d0, d1, d2, d3, d4) -> (d0 * 512 + d1 * 128 + d2 * 32 + d3, d4), <1x1>, memref<16x1x!ttcore.tile<32x32, f32>, #ttnn.buffer_type<dram>>, <interleaved>>>, tensor<1x4x1x8x1xf32, #ttnn.ttnn_layout<(d0, d1, d2, d3, d4) -> (d0 * 128 + d1 * 32 + d2 * 32 + d3, d4), <1x1>, memref<4x1x!ttcore.tile<32x32, f32>, #ttnn.buffer_type<dram>>, <interleaved>>>) -> tensor<1x4x4x8x1xf32, #ttnn.ttnn_layout<(d0, d1, d2, d3, d4) -> (d0 * 512 + d1 * 128 + d2 * 32 + d3, d4), <1x1>, memref<16x1x!ttcore.tile<32x32, f32>, #ttnn.buffer_type<dram>>, <interleaved>>> loc("multiply.618")
[32m            RuntimeTTNN[0m | [1m[38;5;240m   DEBUG[0m | Executing operation: %128 = "ttnn.slice_static"(%125) <{begins = [0 : i32, 0 : i32, 0 : i32, 0 : i32, 1 : i32], ends = [1 : i32, 4 : i32, 4 : i32, 8 : i32, 2 : i32], step = [1 : i32, 1 : i32, 1 : i32, 1 : i32, 1 : i32]}> : (tensor<1x4x4x8x2xf32, #ttnn.ttnn_layout<(d0, d1, d2, d3, d4) -> (d0 * 512 + d1 * 128 + d2 * 32 + d3, d4), <1x1>, memref<16x1x!ttcore.tile<32x32, f32>, #ttnn.buffer_type<dram>>, <interleaved>>>) -> tensor<1x4x4x8x1xf32, #ttnn.ttnn_layout<(d0, d1, d2, d3, d4) -> (d0 * 512 + d1 * 128 + d2 * 32 + d3, d4), <1x1>, memref<16x1x!ttcore.tile<32x32, f32>, #ttnn.buffer_type<dram>>, <interleaved>>> loc("slice.595")
[32m            RuntimeTTNN[0m | [1m[38;5;240m   DEBUG[0m | Executing operation: "ttnn.deallocate"(%125) <{force = false}> : (tensor<1x4x4x8x2xf32, #ttnn.ttnn_layout<(d0, d1, d2, d3, d4) -> (d0 * 512 + d1 * 128 + d2 * 32 + d3, d4), <1x1>, memref<16x1x!ttcore.tile<32x32, f32>, #ttnn.buffer_type<dram>>, <interleaved>>>) -> () loc("slice.595")
[32m            RuntimeTTNN[0m | [1m[38;5;240m   DEBUG[0m | Executing operation: %129 = "ttnn.multiply"(%128, %3#4) <{dtype = #ttcore.supportedDataTypes<f32>}> : (tensor<1x4x4x8x1xf32, #ttnn.ttnn_layout<(d0, d1, d2, d3, d4) -> (d0 * 512 + d1 * 128 + d2 * 32 + d3, d4), <1x1>, memref<16x1x!ttcore.tile<32x32, f32>, #ttnn.buffer_type<dram>>, <interleaved>>>, tensor<1x4x1x8x1xf32, #ttnn.ttnn_layout<(d0, d1, d2, d3, d4) -> (d0 * 128 + d1 * 32 + d2 * 32 + d3, d4), <1x1>, memref<4x1x!ttcore.tile<32x32, f32>, #ttnn.buffer_type<dram>>, <interleaved>>>) -> tensor<1x4x4x8x1xf32, #ttnn.ttnn_layout<(d0, d1, d2, d3, d4) -> (d0 * 512 + d1 * 128 + d2 * 32 + d3, d4), <1x1>, memref<16x1x!ttcore.tile<32x32, f32>, #ttnn.buffer_type<dram>>, <interleaved>>> loc("multiply.615")
[32m            RuntimeTTNN[0m | [1m[38;5;240m   DEBUG[0m | Executing operation: %130 = "ttnn.subtract"(%127, %129) <{dtype = #ttcore.supportedDataTypes<f32>}> : (tensor<1x4x4x8x1xf32, #ttnn.ttnn_layout<(d0, d1, d2, d3, d4) -> (d0 * 512 + d1 * 128 + d2 * 32 + d3, d4), <1x1>, memref<16x1x!ttcore.tile<32x32, f32>, #ttnn.buffer_type<dram>>, <interleaved>>>, tensor<1x4x4x8x1xf32, #ttnn.ttnn_layout<(d0, d1, d2, d3, d4) -> (d0 * 512 + d1 * 128 + d2 * 32 + d3, d4), <1x1>, memref<16x1x!ttcore.tile<32x32, f32>, #ttnn.buffer_type<dram>>, <interleaved>>>) -> tensor<1x4x4x8x1xf32, #ttnn.ttnn_layout<(d0, d1, d2, d3, d4) -> (d0 * 512 + d1 * 128 + d2 * 32 + d3, d4), <1x1>, memref<16x1x!ttcore.tile<32x32, f32>, #ttnn.buffer_type<dram>>, <interleaved>>> loc("subtract.621")
[32m            RuntimeTTNN[0m | [1m[38;5;240m   DEBUG[0m | Executing operation: "ttnn.deallocate"(%129) <{force = false}> : (tensor<1x4x4x8x1xf32, #ttnn.ttnn_layout<(d0, d1, d2, d3, d4) -> (d0 * 512 + d1 * 128 + d2 * 32 + d3, d4), <1x1>, memref<16x1x!ttcore.tile<32x32, f32>, #ttnn.buffer_type<dram>>, <interleaved>>>) -> () loc("subtract.621")
[32m            RuntimeTTNN[0m | [1m[38;5;240m   DEBUG[0m | Executing operation: "ttnn.deallocate"(%127) <{force = false}> : (tensor<1x4x4x8x1xf32, #ttnn.ttnn_layout<(d0, d1, d2, d3, d4) -> (d0 * 512 + d1 * 128 + d2 * 32 + d3, d4), <1x1>, memref<16x1x!ttcore.tile<32x32, f32>, #ttnn.buffer_type<dram>>, <interleaved>>>) -> () loc("subtract.621")
[32m            RuntimeTTNN[0m | [1m[38;5;240m   DEBUG[0m | Executing operation: %131 = "ttnn.multiply"(%126, %3#4) <{dtype = #ttcore.supportedDataTypes<f32>}> : (tensor<1x4x4x8x1xf32, #ttnn.ttnn_layout<(d0, d1, d2, d3, d4) -> (d0 * 512 + d1 * 128 + d2 * 32 + d3, d4), <1x1>, memref<16x1x!ttcore.tile<32x32, f32>, #ttnn.buffer_type<dram>>, <interleaved>>>, tensor<1x4x1x8x1xf32, #ttnn.ttnn_layout<(d0, d1, d2, d3, d4) -> (d0 * 128 + d1 * 32 + d2 * 32 + d3, d4), <1x1>, memref<4x1x!ttcore.tile<32x32, f32>, #ttnn.buffer_type<dram>>, <interleaved>>>) -> tensor<1x4x4x8x1xf32, #ttnn.ttnn_layout<(d0, d1, d2, d3, d4) -> (d0 * 512 + d1 * 128 + d2 * 32 + d3, d4), <1x1>, memref<16x1x!ttcore.tile<32x32, f32>, #ttnn.buffer_type<dram>>, <interleaved>>> loc("multiply.607")
[32m            RuntimeTTNN[0m | [1m[38;5;240m   DEBUG[0m | Executing operation: "ttnn.deallocate"(%126) <{force = false}> : (tensor<1x4x4x8x1xf32, #ttnn.ttnn_layout<(d0, d1, d2, d3, d4) -> (d0 * 512 + d1 * 128 + d2 * 32 + d3, d4), <1x1>, memref<16x1x!ttcore.tile<32x32, f32>, #ttnn.buffer_type<dram>>, <interleaved>>>) -> () loc("multiply.607")
[32m            RuntimeTTNN[0m | [1m[38;5;240m   DEBUG[0m | Executing operation: "ttnn.deallocate"(%3#4) <{force = false}> : (tensor<1x4x1x8x1xf32, #ttnn.ttnn_layout<(d0, d1, d2, d3, d4) -> (d0 * 128 + d1 * 32 + d2 * 32 + d3, d4), <1x1>, memref<4x1x!ttcore.tile<32x32, f32>, #ttnn.buffer_type<dram>>, <interleaved>>>) -> () loc("multiply.607")
[32m                 Always[0m | [1m[38;5;240m   DEBUG[0m | Tensor is retained thus not deallocating. To deallocate, set retain to false first
[32m            RuntimeTTNN[0m | [1m[38;5;240m   DEBUG[0m | Executing operation: %132 = "ttnn.multiply"(%128, %3#2) <{dtype = #ttcore.supportedDataTypes<f32>}> : (tensor<1x4x4x8x1xf32, #ttnn.ttnn_layout<(d0, d1, d2, d3, d4) -> (d0 * 512 + d1 * 128 + d2 * 32 + d3, d4), <1x1>, memref<16x1x!ttcore.tile<32x32, f32>, #ttnn.buffer_type<dram>>, <interleaved>>>, tensor<1x4x1x8x1xf32, #ttnn.ttnn_layout<(d0, d1, d2, d3, d4) -> (d0 * 128 + d1 * 32 + d2 * 32 + d3, d4), <1x1>, memref<4x1x!ttcore.tile<32x32, f32>, #ttnn.buffer_type<dram>>, <interleaved>>>) -> tensor<1x4x4x8x1xf32, #ttnn.ttnn_layout<(d0, d1, d2, d3, d4) -> (d0 * 512 + d1 * 128 + d2 * 32 + d3, d4), <1x1>, memref<16x1x!ttcore.tile<32x32, f32>, #ttnn.buffer_type<dram>>, <interleaved>>> loc("multiply.599")
[32m            RuntimeTTNN[0m | [1m[38;5;240m   DEBUG[0m | Executing operation: "ttnn.deallocate"(%128) <{force = false}> : (tensor<1x4x4x8x1xf32, #ttnn.ttnn_layout<(d0, d1, d2, d3, d4) -> (d0 * 512 + d1 * 128 + d2 * 32 + d3, d4), <1x1>, memref<16x1x!ttcore.tile<32x32, f32>, #ttnn.buffer_type<dram>>, <interleaved>>>) -> () loc("multiply.599")
[32m            RuntimeTTNN[0m | [1m[38;5;240m   DEBUG[0m | Executing operation: "ttnn.deallocate"(%3#2) <{force = false}> : (tensor<1x4x1x8x1xf32, #ttnn.ttnn_layout<(d0, d1, d2, d3, d4) -> (d0 * 128 + d1 * 32 + d2 * 32 + d3, d4), <1x1>, memref<4x1x!ttcore.tile<32x32, f32>, #ttnn.buffer_type<dram>>, <interleaved>>>) -> () loc("multiply.599")
[32m                 Always[0m | [1m[38;5;240m   DEBUG[0m | Tensor is retained thus not deallocating. To deallocate, set retain to false first
[32m            RuntimeTTNN[0m | [1m[38;5;240m   DEBUG[0m | Executing operation: %133 = "ttnn.add"(%131, %132) <{dtype = #ttcore.supportedDataTypes<f32>}> : (tensor<1x4x4x8x1xf32, #ttnn.ttnn_layout<(d0, d1, d2, d3, d4) -> (d0 * 512 + d1 * 128 + d2 * 32 + d3, d4), <1x1>, memref<16x1x!ttcore.tile<32x32, f32>, #ttnn.buffer_type<dram>>, <interleaved>>>, tensor<1x4x4x8x1xf32, #ttnn.ttnn_layout<(d0, d1, d2, d3, d4) -> (d0 * 512 + d1 * 128 + d2 * 32 + d3, d4), <1x1>, memref<16x1x!ttcore.tile<32x32, f32>, #ttnn.buffer_type<dram>>, <interleaved>>>) -> tensor<1x4x4x8x1xf32, #ttnn.ttnn_layout<(d0, d1, d2, d3, d4) -> (d0 * 512 + d1 * 128 + d2 * 32 + d3, d4), <1x1>, memref<16x1x!ttcore.tile<32x32, f32>, #ttnn.buffer_type<dram>>, <interleaved>>> loc("add.610")
[32m            RuntimeTTNN[0m | [1m[38;5;240m   DEBUG[0m | Executing operation: "ttnn.deallocate"(%132) <{force = false}> : (tensor<1x4x4x8x1xf32, #ttnn.ttnn_layout<(d0, d1, d2, d3, d4) -> (d0 * 512 + d1 * 128 + d2 * 32 + d3, d4), <1x1>, memref<16x1x!ttcore.tile<32x32, f32>, #ttnn.buffer_type<dram>>, <interleaved>>>) -> () loc("add.610")
[32m            RuntimeTTNN[0m | [1m[38;5;240m   DEBUG[0m | Executing operation: "ttnn.deallocate"(%131) <{force = false}> : (tensor<1x4x4x8x1xf32, #ttnn.ttnn_layout<(d0, d1, d2, d3, d4) -> (d0 * 512 + d1 * 128 + d2 * 32 + d3, d4), <1x1>, memref<16x1x!ttcore.tile<32x32, f32>, #ttnn.buffer_type<dram>>, <interleaved>>>) -> () loc("add.610")
[32m            RuntimeTTNN[0m | [1m[38;5;240m   DEBUG[0m | Executing operation: %134 = "ttnn.concat"(%130, %133) <{dim = 4 : si32}> : (tensor<1x4x4x8x1xf32, #ttnn.ttnn_layout<(d0, d1, d2, d3, d4) -> (d0 * 512 + d1 * 128 + d2 * 32 + d3, d4), <1x1>, memref<16x1x!ttcore.tile<32x32, f32>, #ttnn.buffer_type<dram>>, <interleaved>>>, tensor<1x4x4x8x1xf32, #ttnn.ttnn_layout<(d0, d1, d2, d3, d4) -> (d0 * 512 + d1 * 128 + d2 * 32 + d3, d4), <1x1>, memref<16x1x!ttcore.tile<32x32, f32>, #ttnn.buffer_type<dram>>, <interleaved>>>) -> tensor<1x4x4x8x2xf32, #ttnn.ttnn_layout<(d0, d1, d2, d3, d4) -> (d0 * 512 + d1 * 128 + d2 * 32 + d3, d4), <1x1>, memref<16x1x!ttcore.tile<32x32, f32>, #ttnn.buffer_type<dram>>, <interleaved>>> loc("concatenate.623")
[32m            RuntimeTTNN[0m | [1m[38;5;240m   DEBUG[0m | Executing operation: "ttnn.deallocate"(%133) <{force = false}> : (tensor<1x4x4x8x1xf32, #ttnn.ttnn_layout<(d0, d1, d2, d3, d4) -> (d0 * 512 + d1 * 128 + d2 * 32 + d3, d4), <1x1>, memref<16x1x!ttcore.tile<32x32, f32>, #ttnn.buffer_type<dram>>, <interleaved>>>) -> () loc("concatenate.623")
[32m            RuntimeTTNN[0m | [1m[38;5;240m   DEBUG[0m | Executing operation: "ttnn.deallocate"(%130) <{force = false}> : (tensor<1x4x4x8x1xf32, #ttnn.ttnn_layout<(d0, d1, d2, d3, d4) -> (d0 * 512 + d1 * 128 + d2 * 32 + d3, d4), <1x1>, memref<16x1x!ttcore.tile<32x32, f32>, #ttnn.buffer_type<dram>>, <interleaved>>>) -> () loc("concatenate.623")
[32m            RuntimeTTNN[0m | [1m[38;5;240m   DEBUG[0m | Executing operation: %135 = "ttnn.typecast"(%134) <{dtype = #ttcore.supportedDataTypes<bf16>}> : (tensor<1x4x4x8x2xf32, #ttnn.ttnn_layout<(d0, d1, d2, d3, d4) -> (d0 * 512 + d1 * 128 + d2 * 32 + d3, d4), <1x1>, memref<16x1x!ttcore.tile<32x32, f32>, #ttnn.buffer_type<dram>>, <interleaved>>>) -> tensor<1x4x4x8x2xbf16, #ttnn.ttnn_layout<(d0, d1, d2, d3, d4) -> (d0 * 512 + d1 * 128 + d2 * 32 + d3, d4), <1x1>, memref<16x1x!ttcore.tile<32x32, bf16>, #ttnn.buffer_type<dram>>, <interleaved>>> loc("convert.625")
[32m            RuntimeTTNN[0m | [1m[38;5;240m   DEBUG[0m | Executing operation: "ttnn.deallocate"(%134) <{force = false}> : (tensor<1x4x4x8x2xf32, #ttnn.ttnn_layout<(d0, d1, d2, d3, d4) -> (d0 * 512 + d1 * 128 + d2 * 32 + d3, d4), <1x1>, memref<16x1x!ttcore.tile<32x32, f32>, #ttnn.buffer_type<dram>>, <interleaved>>>) -> () loc("convert.625")
[32m            RuntimeTTNN[0m | [1m[38;5;240m   DEBUG[0m | Executing operation: %136 = "ttnn.reshape"(%135) <{shape = [1 : i32, 4 : i32, 4 : i32, 16 : i32]}> : (tensor<1x4x4x8x2xbf16, #ttnn.ttnn_layout<(d0, d1, d2, d3, d4) -> (d0 * 512 + d1 * 128 + d2 * 32 + d3, d4), <1x1>, memref<16x1x!ttcore.tile<32x32, bf16>, #ttnn.buffer_type<dram>>, <interleaved>>>) -> tensor<1x4x4x16xbf16, #ttnn.ttnn_layout<(d0, d1, d2, d3) -> (d0 * 128 + d1 * 32 + d2, d3), <1x1>, memref<4x1x!ttcore.tile<32x32, bf16>, #ttnn.buffer_type<dram>>, <interleaved>>> loc("convert.625")
[32m            RuntimeTTNN[0m | [1m[38;5;240m   DEBUG[0m | Executing operation: "ttnn.deallocate"(%135) <{force = false}> : (tensor<1x4x4x8x2xbf16, #ttnn.ttnn_layout<(d0, d1, d2, d3, d4) -> (d0 * 512 + d1 * 128 + d2 * 32 + d3, d4), <1x1>, memref<16x1x!ttcore.tile<32x32, bf16>, #ttnn.buffer_type<dram>>, <interleaved>>>) -> () loc("convert.625")
[32m            RuntimeTTNN[0m | [1m[38;5;240m   DEBUG[0m | Executing operation: %137 = "ttnn.permute"(%136) <{permutation = array<i64: 3, 0, 1, 2>}> : (tensor<1x4x4x16xbf16, #ttnn.ttnn_layout<(d0, d1, d2, d3) -> (d0 * 128 + d1 * 32 + d2, d3), <1x1>, memref<4x1x!ttcore.tile<32x32, bf16>, #ttnn.buffer_type<dram>>, <interleaved>>>) -> tensor<16x1x4x4xbf16, #ttnn.ttnn_layout<(d0, d1, d2, d3) -> (d0 * 32 + d1 * 32 + d2, d3), <1x1>, memref<16x1x!ttcore.tile<32x32, bf16>, #ttnn.buffer_type<dram>>, <interleaved>>> loc("convert.625")
[32m            RuntimeTTNN[0m | [1m[38;5;240m   DEBUG[0m | Executing operation: "ttnn.deallocate"(%136) <{force = false}> : (tensor<1x4x4x16xbf16, #ttnn.ttnn_layout<(d0, d1, d2, d3) -> (d0 * 128 + d1 * 32 + d2, d3), <1x1>, memref<4x1x!ttcore.tile<32x32, bf16>, #ttnn.buffer_type<dram>>, <interleaved>>>) -> () loc("convert.625")
[32m            RuntimeTTNN[0m | [1m[38;5;240m   DEBUG[0m | Executing operation: %138 = "ttnn.reshape"(%137) <{shape = [16 : i32, 16 : i32]}> : (tensor<16x1x4x4xbf16, #ttnn.ttnn_layout<(d0, d1, d2, d3) -> (d0 * 32 + d1 * 32 + d2, d3), <1x1>, memref<16x1x!ttcore.tile<32x32, bf16>, #ttnn.buffer_type<dram>>, <interleaved>>>) -> tensor<16x16xbf16, #ttnn.ttnn_layout<(d0, d1) -> (d0, d1), <1x1>, memref<1x1x!ttcore.tile<32x32, bf16>, #ttnn.buffer_type<dram>>, <interleaved>>> loc("convert.625")
[32m            RuntimeTTNN[0m | [1m[38;5;240m   DEBUG[0m | Executing operation: "ttnn.deallocate"(%137) <{force = false}> : (tensor<16x1x4x4xbf16, #ttnn.ttnn_layout<(d0, d1, d2, d3) -> (d0 * 32 + d1 * 32 + d2, d3), <1x1>, memref<16x1x!ttcore.tile<32x32, bf16>, #ttnn.buffer_type<dram>>, <interleaved>>>) -> () loc("convert.625")
[32m            RuntimeTTNN[0m | [1m[38;5;240m   DEBUG[0m | Executing operation: %139 = "ttnn.to_layout"(%138) <{layout = #ttnn.layout<row_major>}> : (tensor<16x16xbf16, #ttnn.ttnn_layout<(d0, d1) -> (d0, d1), <1x1>, memref<1x1x!ttcore.tile<32x32, bf16>, #ttnn.buffer_type<dram>>, <interleaved>>>) -> tensor<16x16xbf16, #ttnn.ttnn_layout<(d0, d1) -> (d0, d1), <1x1>, memref<16x16xbf16, #ttnn.buffer_type<dram>>, <interleaved>>> loc("gather.628_workaround"("gather.628"))
[32m            RuntimeTTNN[0m | [1m[38;5;240m   DEBUG[0m | Executing operation: "ttnn.deallocate"(%138) <{force = false}> : (tensor<16x16xbf16, #ttnn.ttnn_layout<(d0, d1) -> (d0, d1), <1x1>, memref<1x1x!ttcore.tile<32x32, bf16>, #ttnn.buffer_type<dram>>, <interleaved>>>) -> () loc("gather.628_workaround"("gather.628"))
[32m            RuntimeTTNN[0m | [1m[38;5;240m   DEBUG[0m | Executing operation: %140 = "ttnn.embedding"(%7#0, %139) : (tensor<32x1xui32, #ttnn.ttnn_layout<(d0, d1) -> (d0, d1), <1x1>, memref<32x1xui32, #ttnn.buffer_type<dram>>, <interleaved>>>, tensor<16x16xbf16, #ttnn.ttnn_layout<(d0, d1) -> (d0, d1), <1x1>, memref<16x16xbf16, #ttnn.buffer_type<dram>>, <interleaved>>>) -> tensor<32x1x16xbf16, #ttnn.ttnn_layout<(d0, d1, d2) -> (d0 * 32 + d1, d2), <1x1>, memref<32x1x!ttcore.tile<32x32, bf16>, #ttnn.buffer_type<dram>>, <interleaved>>> loc("gather.628")
[32m            RuntimeTTNN[0m | [1m[38;5;240m   DEBUG[0m | Executing operation: "ttnn.deallocate"(%139) <{force = false}> : (tensor<16x16xbf16, #ttnn.ttnn_layout<(d0, d1) -> (d0, d1), <1x1>, memref<16x16xbf16, #ttnn.buffer_type<dram>>, <interleaved>>>) -> () loc("gather.628")
[32m            RuntimeTTNN[0m | [1m[38;5;240m   DEBUG[0m | Executing operation: "ttnn.deallocate"(%7#0) <{force = false}> : (tensor<32x1xui32, #ttnn.ttnn_layout<(d0, d1) -> (d0, d1), <1x1>, memref<32x1xui32, #ttnn.buffer_type<dram>>, <interleaved>>>) -> () loc("gather.628")
[32m                 Always[0m | [1m[38;5;240m   DEBUG[0m | Tensor is retained thus not deallocating. To deallocate, set retain to false first
[32m            RuntimeTTNN[0m | [1m[38;5;240m   DEBUG[0m | Executing operation: %141 = "ttnn.reshape"(%140) <{shape = [32 : i32, 1 : i32, 4 : i32, 4 : i32]}> : (tensor<32x1x16xbf16, #ttnn.ttnn_layout<(d0, d1, d2) -> (d0 * 32 + d1, d2), <1x1>, memref<32x1x!ttcore.tile<32x32, bf16>, #ttnn.buffer_type<dram>>, <interleaved>>>) -> tensor<32x1x4x4xbf16, #ttnn.ttnn_layout<(d0, d1, d2, d3) -> (d0 * 32 + d1 * 32 + d2, d3), <1x1>, memref<32x1x!ttcore.tile<32x32, bf16>, #ttnn.buffer_type<dram>>, <interleaved>>> loc("gather.628_reshapeOutput"("gather.628"))
[32m            RuntimeTTNN[0m | [1m[38;5;240m   DEBUG[0m | Executing operation: "ttnn.deallocate"(%140) <{force = false}> : (tensor<32x1x16xbf16, #ttnn.ttnn_layout<(d0, d1, d2) -> (d0 * 32 + d1, d2), <1x1>, memref<32x1x!ttcore.tile<32x32, bf16>, #ttnn.buffer_type<dram>>, <interleaved>>>) -> () loc("gather.628_reshapeOutput"("gather.628"))
[32m            RuntimeTTNN[0m | [1m[38;5;240m   DEBUG[0m | Executing operation: %142 = "ttnn.permute"(%141) <{permutation = array<i64: 1, 2, 3, 0>}> : (tensor<32x1x4x4xbf16, #ttnn.ttnn_layout<(d0, d1, d2, d3) -> (d0 * 32 + d1 * 32 + d2, d3), <1x1>, memref<32x1x!ttcore.tile<32x32, bf16>, #ttnn.buffer_type<dram>>, <interleaved>>>) -> tensor<1x4x4x32xbf16, #ttnn.ttnn_layout<(d0, d1, d2, d3) -> (d0 * 128 + d1 * 32 + d2, d3), <1x1>, memref<4x1x!ttcore.tile<32x32, bf16>, #ttnn.buffer_type<dram>>, <interleaved>>> loc("gather.628_permuteOutput"("gather.628"))
[32m            RuntimeTTNN[0m | [1m[38;5;240m   DEBUG[0m | Executing operation: "ttnn.deallocate"(%141) <{force = false}> : (tensor<32x1x4x4xbf16, #ttnn.ttnn_layout<(d0, d1, d2, d3) -> (d0 * 32 + d1 * 32 + d2, d3), <1x1>, memref<32x1x!ttcore.tile<32x32, bf16>, #ttnn.buffer_type<dram>>, <interleaved>>>) -> () loc("gather.628_permuteOutput"("gather.628"))
[32m            RuntimeTTNN[0m | [1m[38;5;240m   DEBUG[0m | Executing operation: %143 = "ttnn.where"(%66, %15, %142) : (tensor<1x1x1x32xbf16, #ttnn.ttnn_layout<(d0, d1, d2, d3) -> (d0 * 32 + d1 * 32 + d2, d3), <1x1>, memref<1x1x!ttcore.tile<32x32, bf16>, #ttnn.buffer_type<dram>>, <interleaved>>>, tensor<1x1x1x1xbf16, #ttnn.ttnn_layout<(d0, d1, d2, d3) -> (d0 * 32 + d1 * 32 + d2, d3), <1x1>, memref<1x1x!ttcore.tile<32x32, bf16>, #ttnn.buffer_type<dram>>, <interleaved>>>, tensor<1x4x4x32xbf16, #ttnn.ttnn_layout<(d0, d1, d2, d3) -> (d0 * 128 + d1 * 32 + d2, d3), <1x1>, memref<4x1x!ttcore.tile<32x32, bf16>, #ttnn.buffer_type<dram>>, <interleaved>>>) -> tensor<1x4x4x32xbf16, #ttnn.ttnn_layout<(d0, d1, d2, d3) -> (d0 * 128 + d1 * 32 + d2, d3), <1x1>, memref<4x1x!ttcore.tile<32x32, bf16>, #ttnn.buffer_type<dram>>, <interleaved>>> loc("select.651")
[32m                 Always[0m | [1m[38;5;69m    INFO[0m | Where op inputs in first/second/third:
=== Tensor IDs and Addresses ===
first:  tensor_id=307 obj_addr=0x7f97201e5f80 buffer_addr=2072032
second: tensor_id=185 obj_addr=0x7f97201d9b60 buffer_addr=2069984
third:  tensor_id=505 obj_addr=0x7f97201e9220 buffer_addr=2080224
first: device_id: 0, MeshCoordinate([0, 0])
ttnn.Tensor([[[[ … shape=Shape([1, 1, 1, 32]), dtype=DataType::BFLOAT16, layout=Layout::TILE)
second: device_id: 0, MeshCoordinate([0, 0])
ttnn.Tensor([[[[ 0.0000]]]], shape=Shape([1, 1, 1, 1]), dtype=DataType::BFLOAT16, layout=Layout::TILE)
third: device_id: 0, MeshCoordinate([0, 0])
ttnn.Tensor([[[[ … shape=Shape([1, 4, 4, 32]), dtype=DataType::BFLOAT16, layout=Layout::TILE)
[32m                 Always[0m | [1m[38;5;69m    INFO[0m | Where op output:
out:    tensor_id=512 obj_addr=0x7f973dff9bc8 buffer_addr=2082272
out: device_id: 0, MeshCoordinate([0, 0])
ttnn.Tensor([[[[ … shape=Shape([1, 4, 4, 32]), dtype=DataType::BFLOAT16, layout=Layout::TILE)
[32m            RuntimeTTNN[0m | [1m[38;5;240m   DEBUG[0m | Executing operation: "ttnn.deallocate"(%142) <{force = false}> : (tensor<1x4x4x32xbf16, #ttnn.ttnn_layout<(d0, d1, d2, d3) -> (d0 * 128 + d1 * 32 + d2, d3), <1x1>, memref<4x1x!ttcore.tile<32x32, bf16>, #ttnn.buffer_type<dram>>, <interleaved>>>) -> () loc("select.651")
[32m            RuntimeTTNN[0m | [1m[38;5;240m   DEBUG[0m | Executing operation: "ttnn.deallocate"(%66) <{force = false}> : (tensor<1x1x1x32xbf16, #ttnn.ttnn_layout<(d0, d1, d2, d3) -> (d0 * 32 + d1 * 32 + d2, d3), <1x1>, memref<1x1x!ttcore.tile<32x32, bf16>, #ttnn.buffer_type<dram>>, <interleaved>>>) -> () loc("select.651")
[32m            RuntimeTTNN[0m | [1m[38;5;240m   DEBUG[0m | Executing operation: "ttnn.deallocate"(%15) <{force = false}> : (tensor<1x1x1x1xbf16, #ttnn.ttnn_layout<(d0, d1, d2, d3) -> (d0 * 32 + d1 * 32 + d2, d3), <1x1>, memref<1x1x!ttcore.tile<32x32, bf16>, #ttnn.buffer_type<dram>>, <interleaved>>>) -> () loc("select.651")
[32m                 Always[0m | [1m[38;5;240m   DEBUG[0m | Tensor is retained thus not deallocating. To deallocate, set retain to false first
[32m            RuntimeTTNN[0m | [1m[38;5;240m   DEBUG[0m | Executing operation: %144 = "ttnn.where"(%65, %143, %122) : (tensor<1x1x1x32xbf16, #ttnn.ttnn_layout<(d0, d1, d2, d3) -> (d0 * 32 + d1 * 32 + d2, d3), <1x1>, memref<1x1x!ttcore.tile<32x32, bf16>, #ttnn.buffer_type<dram>>, <interleaved>>>, tensor<1x4x4x32xbf16, #ttnn.ttnn_layout<(d0, d1, d2, d3) -> (d0 * 128 + d1 * 32 + d2, d3), <1x1>, memref<4x1x!ttcore.tile<32x32, bf16>, #ttnn.buffer_type<dram>>, <interleaved>>>, tensor<1x4x4x32xbf16, #ttnn.ttnn_layout<(d0, d1, d2, d3) -> (d0 * 128 + d1 * 32 + d2, d3), <1x1>, memref<4x1x!ttcore.tile<32x32, bf16>, #ttnn.buffer_type<dram>>, <interleaved>>>) -> tensor<1x4x4x32xbf16, #ttnn.ttnn_layout<(d0, d1, d2, d3) -> (d0 * 128 + d1 * 32 + d2, d3), <1x1>, memref<4x1x!ttcore.tile<32x32, bf16>, #ttnn.buffer_type<dram>>, <interleaved>>> loc("select.656")
[32m                 Always[0m | [1m[38;5;69m    INFO[0m | Where op inputs in first/second/third:
=== Tensor IDs and Addresses ===
first:  tensor_id=306 obj_addr=0x7f97201e2260 buffer_addr=2078176
second: tensor_id=512 obj_addr=0x7f97201e6380 buffer_addr=2082272
third:  tensor_id=451 obj_addr=0x7f972029bda0 buffer_addr=2074464
first: device_id: 0, MeshCoordinate([0, 0])
ttnn.Tensor([[[[ … shape=Shape([1, 1, 1, 32]), dtype=DataType::BFLOAT16, layout=Layout::TILE)
second: device_id: 0, MeshCoordinate([0, 0])
ttnn.Tensor([[[[ … shape=Shape([1, 4, 4, 32]), dtype=DataType::BFLOAT16, layout=Layout::TILE)
third: device_id: 0, MeshCoordinate([0, 0])
ttnn.Tensor([[[[ … shape=Shape([1, 4, 4, 32]), dtype=DataType::BFLOAT16, layout=Layout::TILE)
[32m                 Always[0m | [1m[38;5;69m    INFO[0m | Where op output:
out:    tensor_id=521 obj_addr=0x7f973dff9bc8 buffer_addr=2072032
out: device_id: 0, MeshCoordinate([0, 0])
ttnn.Tensor([[[[ … shape=Shape([1, 4, 4, 32]), dtype=DataType::BFLOAT16, layout=Layout::TILE)
[32m            RuntimeTTNN[0m | [1m[38;5;240m   DEBUG[0m | Executing operation: "ttnn.deallocate"(%143) <{force = false}> : (tensor<1x4x4x32xbf16, #ttnn.ttnn_layout<(d0, d1, d2, d3) -> (d0 * 128 + d1 * 32 + d2, d3), <1x1>, memref<4x1x!ttcore.tile<32x32, bf16>, #ttnn.buffer_type<dram>>, <interleaved>>>) -> () loc("select.656")
[32m            RuntimeTTNN[0m | [1m[38;5;240m   DEBUG[0m | Executing operation: "ttnn.deallocate"(%122) <{force = false}> : (tensor<1x4x4x32xbf16, #ttnn.ttnn_layout<(d0, d1, d2, d3) -> (d0 * 128 + d1 * 32 + d2, d3), <1x1>, memref<4x1x!ttcore.tile<32x32, bf16>, #ttnn.buffer_type<dram>>, <interleaved>>>) -> () loc("select.656")
[32m            RuntimeTTNN[0m | [1m[38;5;240m   DEBUG[0m | Executing operation: "ttnn.deallocate"(%65) <{force = false}> : (tensor<1x1x1x32xbf16, #ttnn.ttnn_layout<(d0, d1, d2, d3) -> (d0 * 32 + d1 * 32 + d2, d3), <1x1>, memref<1x1x!ttcore.tile<32x32, bf16>, #ttnn.buffer_type<dram>>, <interleaved>>>) -> () loc("select.656")
[32m            RuntimeTTNN[0m | [1m[38;5;240m   DEBUG[0m | Executing operation: %145 = "ttnn.reshape"(%144) <{shape = [1 : i32, 4 : i32, 2 : i32, 64 : i32]}> : (tensor<1x4x4x32xbf16, #ttnn.ttnn_layout<(d0, d1, d2, d3) -> (d0 * 128 + d1 * 32 + d2, d3), <1x1>, memref<4x1x!ttcore.tile<32x32, bf16>, #ttnn.buffer_type<dram>>, <interleaved>>>) -> tensor<1x4x2x64xbf16, #ttnn.ttnn_layout<(d0, d1, d2, d3) -> (d0 * 128 + d1 * 32 + d2, d3), <1x1>, memref<4x2x!ttcore.tile<32x32, bf16>, #ttnn.buffer_type<dram>>, <interleaved>>> loc("reshape.657")
[32m            RuntimeTTNN[0m | [1m[38;5;240m   DEBUG[0m | Executing operation: "ttnn.deallocate"(%144) <{force = false}> : (tensor<1x4x4x32xbf16, #ttnn.ttnn_layout<(d0, d1, d2, d3) -> (d0 * 128 + d1 * 32 + d2, d3), <1x1>, memref<4x1x!ttcore.tile<32x32, bf16>, #ttnn.buffer_type<dram>>, <interleaved>>>) -> () loc("reshape.657")
[32m            RuntimeTTNN[0m | [1m[38;5;240m   DEBUG[0m | Executing operation: %146 = "ttnn.permute"(%145) <{permutation = array<i64: 2, 0, 1, 3>}> : (tensor<1x4x2x64xbf16, #ttnn.ttnn_layout<(d0, d1, d2, d3) -> (d0 * 128 + d1 * 32 + d2, d3), <1x1>, memref<4x2x!ttcore.tile<32x32, bf16>, #ttnn.buffer_type<dram>>, <interleaved>>>) -> tensor<2x1x4x64xbf16, #ttnn.ttnn_layout<(d0, d1, d2, d3) -> (d0 * 32 + d1 * 32 + d2, d3), <1x1>, memref<2x2x!ttcore.tile<32x32, bf16>, #ttnn.buffer_type<dram>>, <interleaved>>> loc("dot.658_permuteLhs"("dot.658"))
[32m            RuntimeTTNN[0m | [1m[38;5;240m   DEBUG[0m | Executing operation: "ttnn.deallocate"(%145) <{force = false}> : (tensor<1x4x2x64xbf16, #ttnn.ttnn_layout<(d0, d1, d2, d3) -> (d0 * 128 + d1 * 32 + d2, d3), <1x1>, memref<4x2x!ttcore.tile<32x32, bf16>, #ttnn.buffer_type<dram>>, <interleaved>>>) -> () loc("dot.658_permuteLhs"("dot.658"))
[32m            RuntimeTTNN[0m | [1m[38;5;240m   DEBUG[0m | Executing operation: %147 = "ttnn.reshape"(%146) <{shape = [2 : i32, 4 : i32, 64 : i32]}> : (tensor<2x1x4x64xbf16, #ttnn.ttnn_layout<(d0, d1, d2, d3) -> (d0 * 32 + d1 * 32 + d2, d3), <1x1>, memref<2x2x!ttcore.tile<32x32, bf16>, #ttnn.buffer_type<dram>>, <interleaved>>>) -> tensor<2x4x64xbf16, #ttnn.ttnn_layout<(d0, d1, d2) -> (d0 * 32 + d1, d2), <1x1>, memref<2x2x!ttcore.tile<32x32, bf16>, #ttnn.buffer_type<dram>>, <interleaved>>> loc("dot.658_reshapeLhs"("dot.658"))
[32m            RuntimeTTNN[0m | [1m[38;5;240m   DEBUG[0m | Executing operation: "ttnn.deallocate"(%146) <{force = false}> : (tensor<2x1x4x64xbf16, #ttnn.ttnn_layout<(d0, d1, d2, d3) -> (d0 * 32 + d1 * 32 + d2, d3), <1x1>, memref<2x2x!ttcore.tile<32x32, bf16>, #ttnn.buffer_type<dram>>, <interleaved>>>) -> () loc("dot.658_reshapeLhs"("dot.658"))
[32m            RuntimeTTNN[0m | [1m[38;5;240m   DEBUG[0m | Executing operation: %148 = "ttnn.matmul"(%147, %8) <{compute_config = #ttnn.device_compute_kernel_config<math_fidelity = hifi4, fp32_dest_acc_en = true>, transpose_a = false, transpose_b = true}> : (tensor<2x4x64xbf16, #ttnn.ttnn_layout<(d0, d1, d2) -> (d0 * 32 + d1, d2), <1x1>, memref<2x2x!ttcore.tile<32x32, bf16>, #ttnn.buffer_type<dram>>, <interleaved>>>, tensor<2x32x64xbf16, #ttnn.ttnn_layout<(d0, d1, d2) -> (d0 * 32 + d1, d2), <1x1>, memref<2x2x!ttcore.tile<32x32, bf16>, #ttnn.buffer_type<dram>>, <interleaved>>>) -> tensor<2x4x32xbf16, #ttnn.ttnn_layout<(d0, d1, d2) -> (d0 * 32 + d1, d2), <1x1>, memref<2x1x!ttcore.tile<32x32, bf16>, #ttnn.buffer_type<dram>>, <interleaved>>> loc("dot.658")
[32m            RuntimeTTNN[0m | [1m[38;5;240m   DEBUG[0m | Executing operation: "ttnn.deallocate"(%147) <{force = false}> : (tensor<2x4x64xbf16, #ttnn.ttnn_layout<(d0, d1, d2) -> (d0 * 32 + d1, d2), <1x1>, memref<2x2x!ttcore.tile<32x32, bf16>, #ttnn.buffer_type<dram>>, <interleaved>>>) -> () loc("dot.658")
[32m            RuntimeTTNN[0m | [1m[38;5;240m   DEBUG[0m | Executing operation: "ttnn.deallocate"(%8) <{force = false}> : (tensor<2x32x64xbf16, #ttnn.ttnn_layout<(d0, d1, d2) -> (d0 * 32 + d1, d2), <1x1>, memref<2x2x!ttcore.tile<32x32, bf16>, #ttnn.buffer_type<dram>>, <interleaved>>>) -> () loc("dot.658")
[32m                 Always[0m | [1m[38;5;240m   DEBUG[0m | Tensor is retained thus not deallocating. To deallocate, set retain to false first
[32m            RuntimeTTNN[0m | [1m[38;5;240m   DEBUG[0m | Executing operation: %149 = "ttnn.reshape"(%148) <{shape = [2 : i32, 1 : i32, 4 : i32, 32 : i32]}> : (tensor<2x4x32xbf16, #ttnn.ttnn_layout<(d0, d1, d2) -> (d0 * 32 + d1, d2), <1x1>, memref<2x1x!ttcore.tile<32x32, bf16>, #ttnn.buffer_type<dram>>, <interleaved>>>) -> tensor<2x1x4x32xbf16, #ttnn.ttnn_layout<(d0, d1, d2, d3) -> (d0 * 32 + d1 * 32 + d2, d3), <1x1>, memref<2x1x!ttcore.tile<32x32, bf16>, #ttnn.buffer_type<dram>>, <interleaved>>> loc("dot.658_reshapeOutput"("dot.658"))
[32m            RuntimeTTNN[0m | [1m[38;5;240m   DEBUG[0m | Executing operation: "ttnn.deallocate"(%148) <{force = false}> : (tensor<2x4x32xbf16, #ttnn.ttnn_layout<(d0, d1, d2) -> (d0 * 32 + d1, d2), <1x1>, memref<2x1x!ttcore.tile<32x32, bf16>, #ttnn.buffer_type<dram>>, <interleaved>>>) -> () loc("dot.658_reshapeOutput"("dot.658"))
[32m            RuntimeTTNN[0m | [1m[38;5;240m   DEBUG[0m | Executing operation: %150 = "ttnn.permute"(%149) <{permutation = array<i64: 1, 2, 0, 3>}> : (tensor<2x1x4x32xbf16, #ttnn.ttnn_layout<(d0, d1, d2, d3) -> (d0 * 32 + d1 * 32 + d2, d3), <1x1>, memref<2x1x!ttcore.tile<32x32, bf16>, #ttnn.buffer_type<dram>>, <interleaved>>>) -> tensor<1x4x2x32xbf16, #ttnn.ttnn_layout<(d0, d1, d2, d3) -> (d0 * 128 + d1 * 32 + d2, d3), <1x1>, memref<4x1x!ttcore.tile<32x32, bf16>, #ttnn.buffer_type<dram>>, <interleaved>>> loc("transpose.659")
[32m            RuntimeTTNN[0m | [1m[38;5;240m   DEBUG[0m | Executing operation: "ttnn.deallocate"(%149) <{force = false}> : (tensor<2x1x4x32xbf16, #ttnn.ttnn_layout<(d0, d1, d2, d3) -> (d0 * 32 + d1 * 32 + d2, d3), <1x1>, memref<2x1x!ttcore.tile<32x32, bf16>, #ttnn.buffer_type<dram>>, <interleaved>>>) -> () loc("transpose.659")
[32m            RuntimeTTNN[0m | [1m[38;5;240m   DEBUG[0m | Executing operation: %151 = "ttnn.reshape"(%150) <{shape = [4 : i32, 64 : i32]}> : (tensor<1x4x2x32xbf16, #ttnn.ttnn_layout<(d0, d1, d2, d3) -> (d0 * 128 + d1 * 32 + d2, d3), <1x1>, memref<4x1x!ttcore.tile<32x32, bf16>, #ttnn.buffer_type<dram>>, <interleaved>>>) -> tensor<4x64xbf16, #ttnn.ttnn_layout<(d0, d1) -> (d0, d1), <1x1>, memref<1x2x!ttcore.tile<32x32, bf16>, #ttnn.buffer_type<dram>>, <interleaved>>> loc("reshape.661")
[32m            RuntimeTTNN[0m | [1m[38;5;240m   DEBUG[0m | Executing operation: "ttnn.deallocate"(%150) <{force = false}> : (tensor<1x4x2x32xbf16, #ttnn.ttnn_layout<(d0, d1, d2, d3) -> (d0 * 128 + d1 * 32 + d2, d3), <1x1>, memref<4x1x!ttcore.tile<32x32, bf16>, #ttnn.buffer_type<dram>>, <interleaved>>>) -> () loc("reshape.661")
[32m            RuntimeTTNN[0m | [1m[38;5;240m   DEBUG[0m | Executing operation: %152 = "ttnn.matmul"(%151, %arg6) <{compute_config = #ttnn.device_compute_kernel_config<math_fidelity = hifi4, fp32_dest_acc_en = true>, transpose_a = false, transpose_b = true}> : (tensor<4x64xbf16, #ttnn.ttnn_layout<(d0, d1) -> (d0, d1), <1x1>, memref<1x2x!ttcore.tile<32x32, bf16>, #ttnn.buffer_type<dram>>, <interleaved>>>, tensor<128x64xbf16, #ttnn.ttnn_layout<(d0, d1) -> (d0, d1), <1x1>, memref<4x2x!ttcore.tile<32x32, bf16>, #ttnn.buffer_type<dram>>, <interleaved>>>) -> tensor<4x128xbf16, #ttnn.ttnn_layout<(d0, d1) -> (d0, d1), <1x1>, memref<1x4x!ttcore.tile<32x32, bf16>, #ttnn.buffer_type<dram>>, <interleaved>>> loc("dot.662")
[32m            RuntimeTTNN[0m | [1m[38;5;240m   DEBUG[0m | Executing operation: "ttnn.deallocate"(%151) <{force = false}> : (tensor<4x64xbf16, #ttnn.ttnn_layout<(d0, d1) -> (d0, d1), <1x1>, memref<1x2x!ttcore.tile<32x32, bf16>, #ttnn.buffer_type<dram>>, <interleaved>>>) -> () loc("dot.662")
[32m            RuntimeTTNN[0m | [1m[38;5;240m   DEBUG[0m | Executing operation: "ttnn.deallocate"(%arg6) <{force = false}> : (tensor<128x64xbf16, #ttnn.ttnn_layout<(d0, d1) -> (d0, d1), <1x1>, memref<4x2x!ttcore.tile<32x32, bf16>, #ttnn.buffer_type<dram>>, <interleaved>>>) -> () loc("dot.662")
[32m                 Always[0m | [1m[38;5;240m   DEBUG[0m | Tensor is retained thus not deallocating. To deallocate, set retain to false first
[32m            RuntimeTTNN[0m | [1m[38;5;240m   DEBUG[0m | Executing operation: %153 = "ttnn.reshape"(%152) <{shape = [1 : i32, 4 : i32, 128 : i32]}> : (tensor<4x128xbf16, #ttnn.ttnn_layout<(d0, d1) -> (d0, d1), <1x1>, memref<1x4x!ttcore.tile<32x32, bf16>, #ttnn.buffer_type<dram>>, <interleaved>>>) -> tensor<1x4x128xbf16, #ttnn.ttnn_layout<(d0, d1, d2) -> (d0 * 32 + d1, d2), <1x1>, memref<1x4x!ttcore.tile<32x32, bf16>, #ttnn.buffer_type<dram>>, <interleaved>>> loc("reshape.663")
[32m            RuntimeTTNN[0m | [1m[38;5;240m   DEBUG[0m | Executing operation: "ttnn.deallocate"(%152) <{force = false}> : (tensor<4x128xbf16, #ttnn.ttnn_layout<(d0, d1) -> (d0, d1), <1x1>, memref<1x4x!ttcore.tile<32x32, bf16>, #ttnn.buffer_type<dram>>, <interleaved>>>) -> () loc("reshape.663")
[32m            RuntimeTTNN[0m | [1m[38;5;240m   DEBUG[0m | Finished execution of program: main
x_out shape: torch.Size([1, 4, 128])
x_out literal tensor([[[… device='xla:0',
       dtype=torch.bfloat16)
kv_cache shape: torch.Size([1, 8, 32])
kv_cache literal tensor([[[… device='xla:0', dtype=torch.bfloat16, grad_fn=<CopyBackwards>)
PASSED

=============================== warnings summary ===============================
<frozen importlib._bootstrap>:488
  <frozen importlib._bootstrap>:488: DeprecationWarning: builtin type SwigPyPacked has no __module__ attribute

<frozen importlib._bootstrap>:488
  <frozen importlib._bootstrap>:488: DeprecationWarning: builtin type SwigPyObject has no __module__ attribute

tests/torch/models/deepseek_v4/test_deepseek_v4_single_device.py::test_attention_prefill_tt_only_cache_debug
  /localdev/jameszianxu/clean/tt-xla/venv/lib/python3.12/site-packages/torch/_dynamo/variables/functions.py:1692: UserWarning: Dynamo detected a call to a `functools.lru_cache`-wrapped function. Dynamo ignores the cache wrapper and directly traces the wrapped function. Silent incorrectness is only a *potential* risk, not something we have observed. Enable TORCH_LOGS="+dynamo" for a DEBUG stack trace.
    torch._dynamo.utils.warn_once(msg)

tests/torch/models/deepseek_v4/test_deepseek_v4_single_device.py::test_attention_prefill_tt_only_cache_debug
  /localdev/jameszianxu/clean/tt-xla/tests/conftest.py:524: FutureWarning: `torch.distributed.reduce_op` is deprecated, please use `torch.distributed.ReduceOp` instead
    if isinstance(obj, torch.fx.GraphModule):

tests/torch/models/deepseek_v4/test_deepseek_v4_single_device.py::test_attention_prefill_tt_only_cache_debug
  /localdev/jameszianxu/clean/tt-xla/tests/conftest.py:528: FutureWarning: `torch.distributed.reduce_op` is deprecated, please use `torch.distributed.ReduceOp` instead
    if isinstance(obj, GraphInputMatcher):

-- Docs: https://docs.pytest.org/en/stable/how-to/capture-warnings.html
======================== 1 passed, 5 warnings in 7.91s =========================
sys:1: DeprecationWarning: builtin type swigvarlink has no __module__ attribute
