#dram = #ttnn.buffer_type<dram>
#l1 = #ttnn.buffer_type<l1>
#loc = loc(unknown)
#loc50 = loc("p0.1")
#loc51 = loc("p1.6")
#loc52 = loc("p2.15")
#loc53 = loc("p3.20")
#loc54 = loc("p4.65")
#loc55 = loc("p5.79")
#loc56 = loc("p6.232")
#loc57 = loc("p7.240")
#loc58 = loc("p8.245")
#loc59 = loc("p9.255")
#loc60 = loc("p10.260")
#loc61 = loc("p11.265")
#loc62 = loc("p12.275")
#loc63 = loc("p13.280")
#loc64 = loc("p14.285")
#loc65 = loc("p15.358")
#loc66 = loc("p16.363")
#loc67 = loc("p17.372")
#loc68 = loc("p18.511")
#loc69 = loc("p19.578")
#loc70 = loc("p20.730")
#loc71 = loc("p21.738")
#loc72 = loc("p22.743")
#loc73 = loc("p23.754")
#loc74 = loc("p24.759")
#loc75 = loc("p25.764")
#loc76 = loc("p26.774")
#loc77 = loc("p27.779")
#loc78 = loc("p28.784")
#loc79 = loc("p29.842")
#loc80 = loc("p30.847")
#loc81 = loc("p31.856")
#loc82 = loc("p32.995")
#loc83 = loc("p33.1013")
#loc84 = loc("p34.1018")
#loc85 = loc("p35.1189")
#loc86 = loc("p36.1208")
#loc87 = loc("p37.1212")
#loc88 = loc("p38.1220")
#system_desc = #ttcore.system_desc<[{role = host, target_triple = "x86_64-pc-linux"}], [{arch = <blackhole>, grid = 10x12, coord_translation_offsets = 2x1, l1_size = 1572864, num_dram_channels = 8, dram_channel_size = 4278190080, noc_l1_address_align_bytes = 16, pcie_address_align_bytes = 64, noc_dram_address_align_bytes = 64, l1_unreserved_base = 111104, erisc_l1_unreserved_base = 87872, dram_unreserved_base = 4800064, dram_unreserved_end = 4276245760, supported_data_types = [<f32>, <f16>, <bf16>, <bfp_f8>, <bfp_bf8>, <bfp_f4>, <bfp_bf4>, <bfp_f2>, <bfp_bf2>, <u32>, <u16>, <u8>, <si32>], supported_tile_sizes = [ 4x16,  16x16,  32x16,  4x32,  16x32,  32x32], dst_physical_size_tiles = 16, num_cbs = 64, num_compute_threads = 1, num_datamovement_threads = 2, dram_grid = 1x8, dram_bank_to_logical_worker_noc0 = [(9, 0), (0, 0), (7, 0), (3, 0), (9, 6), (1, 6), (6, 6), (4, 6)], dram_bank_to_logical_worker_noc1 = [(9, 0), (0, 0), (7, 0), (3, 0), (9, 6), (1, 6), (6, 6), (4, 6)]}, {arch = <blackhole>, grid = 10x12, coord_translation_offsets = 2x1, l1_size = 1572864, num_dram_channels = 8, dram_channel_size = 4278190080, noc_l1_address_align_bytes = 16, pcie_address_align_bytes = 64, noc_dram_address_align_bytes = 64, l1_unreserved_base = 111104, erisc_l1_unreserved_base = 87872, dram_unreserved_base = 4800064, dram_unreserved_end = 4276245760, supported_data_types = [<f32>, <f16>, <bf16>, <bfp_f8>, <bfp_bf8>, <bfp_f4>, <bfp_bf4>, <bfp_f2>, <bfp_bf2>, <u32>, <u16>, <u8>, <si32>], supported_tile_sizes = [ 4x16,  16x16,  32x16,  4x32,  16x32,  32x32], dst_physical_size_tiles = 16, num_cbs = 64, num_compute_threads = 1, num_datamovement_threads = 2, dram_grid = 1x8, dram_bank_to_logical_worker_noc0 = [(9, 0), (0, 0), (7, 0), (3, 0), (9, 6), (1, 6), (6, 6), (4, 6)], dram_bank_to_logical_worker_noc1 = [(9, 0), (0, 0), (7, 0), (3, 0), (9, 6), (1, 6), (6, 6), (4, 6)]}, {arch = <blackhole>, grid = 10x12, coord_translation_offsets = 2x1, l1_size = 1572864, num_dram_channels = 8, dram_channel_size = 4278190080, noc_l1_address_align_bytes = 16, pcie_address_align_bytes = 64, noc_dram_address_align_bytes = 64, l1_unreserved_base = 111104, erisc_l1_unreserved_base = 87872, dram_unreserved_base = 4800064, dram_unreserved_end = 4276245760, supported_data_types = [<f32>, <f16>, <bf16>, <bfp_f8>, <bfp_bf8>, <bfp_f4>, <bfp_bf4>, <bfp_f2>, <bfp_bf2>, <u32>, <u16>, <u8>, <si32>], supported_tile_sizes = [ 4x16,  16x16,  32x16,  4x32,  16x32,  32x32], dst_physical_size_tiles = 16, num_cbs = 64, num_compute_threads = 1, num_datamovement_threads = 2, dram_grid = 1x8, dram_bank_to_logical_worker_noc0 = [(9, 0), (0, 0), (7, 0), (3, 0), (9, 7), (1, 7), (6, 7), (4, 7)], dram_bank_to_logical_worker_noc1 = [(9, 0), (0, 0), (7, 0), (3, 0), (9, 7), (1, 7), (6, 7), (4, 7)]}, {arch = <blackhole>, grid = 10x12, coord_translation_offsets = 2x1, l1_size = 1572864, num_dram_channels = 8, dram_channel_size = 4278190080, noc_l1_address_align_bytes = 16, pcie_address_align_bytes = 64, noc_dram_address_align_bytes = 64, l1_unreserved_base = 111104, erisc_l1_unreserved_base = 87872, dram_unreserved_base = 4800064, dram_unreserved_end = 4276273536, supported_data_types = [<f32>, <f16>, <bf16>, <bfp_f8>, <bfp_bf8>, <bfp_f4>, <bfp_bf4>, <bfp_f2>, <bfp_bf2>, <u32>, <u16>, <u8>, <si32>], supported_tile_sizes = [ 4x16,  16x16,  32x16,  4x32,  16x32,  32x32], dst_physical_size_tiles = 16, num_cbs = 64, num_compute_threads = 1, num_datamovement_threads = 2, dram_grid = 1x8, dram_bank_to_logical_worker_noc0 = [(9, 0), (0, 0), (7, 0), (3, 0), (9, 7), (1, 7), (6, 7), (4, 7)], dram_bank_to_logical_worker_noc1 = [(9, 0), (0, 0), (7, 0), (3, 0), (9, 7), (1, 7), (6, 7), (4, 7)]}, {arch = <blackhole>, grid = 10x12, coord_translation_offsets = 2x1, l1_size = 1572864, num_dram_channels = 8, dram_channel_size = 4278190080, noc_l1_address_align_bytes = 16, pcie_address_align_bytes = 64, noc_dram_address_align_bytes = 64, l1_unreserved_base = 111104, erisc_l1_unreserved_base = 87872, dram_unreserved_base = 4800064, dram_unreserved_end = 4276245760, supported_data_types = [<f32>, <f16>, <bf16>, <bfp_f8>, <bfp_bf8>, <bfp_f4>, <bfp_bf4>, <bfp_f2>, <bfp_bf2>, <u32>, <u16>, <u8>, <si32>], supported_tile_sizes = [ 4x16,  16x16,  32x16,  4x32,  16x32,  32x32], dst_physical_size_tiles = 16, num_cbs = 64, num_compute_threads = 1, num_datamovement_threads = 2, dram_grid = 1x8, dram_bank_to_logical_worker_noc0 = [(9, 0), (0, 0), (7, 0), (3, 0), (9, 7), (1, 7), (6, 7), (4, 7)], dram_bank_to_logical_worker_noc1 = [(9, 0), (0, 0), (7, 0), (3, 0), (9, 7), (1, 7), (6, 7), (4, 7)]}, {arch = <blackhole>, grid = 10x12, coord_translation_offsets = 2x1, l1_size = 1572864, num_dram_channels = 8, dram_channel_size = 4278190080, noc_l1_address_align_bytes = 16, pcie_address_align_bytes = 64, noc_dram_address_align_bytes = 64, l1_unreserved_base = 111104, erisc_l1_unreserved_base = 87872, dram_unreserved_base = 4800064, dram_unreserved_end = 4276245760, supported_data_types = [<f32>, <f16>, <bf16>, <bfp_f8>, <bfp_bf8>, <bfp_f4>, <bfp_bf4>, <bfp_f2>, <bfp_bf2>, <u32>, <u16>, <u8>, <si32>], supported_tile_sizes = [ 4x16,  16x16,  32x16,  4x32,  16x32,  32x32], dst_physical_size_tiles = 16, num_cbs = 64, num_compute_threads = 1, num_datamovement_threads = 2, dram_grid = 1x8, dram_bank_to_logical_worker_noc0 = [(9, 0), (0, 0), (7, 0), (3, 0), (9, 7), (1, 7), (6, 7), (4, 7)], dram_bank_to_logical_worker_noc1 = [(9, 0), (0, 0), (7, 0), (3, 0), (9, 7), (1, 7), (6, 7), (4, 7)]}, {arch = <blackhole>, grid = 10x12, coord_translation_offsets = 2x1, l1_size = 1572864, num_dram_channels = 8, dram_channel_size = 4278190080, noc_l1_address_align_bytes = 16, pcie_address_align_bytes = 64, noc_dram_address_align_bytes = 64, l1_unreserved_base = 111104, erisc_l1_unreserved_base = 87872, dram_unreserved_base = 4800064, dram_unreserved_end = 4276245760, supported_data_types = [<f32>, <f16>, <bf16>, <bfp_f8>, <bfp_bf8>, <bfp_f4>, <bfp_bf4>, <bfp_f2>, <bfp_bf2>, <u32>, <u16>, <u8>, <si32>], supported_tile_sizes = [ 4x16,  16x16,  32x16,  4x32,  16x32,  32x32], dst_physical_size_tiles = 16, num_cbs = 64, num_compute_threads = 1, num_datamovement_threads = 2, dram_grid = 1x8, dram_bank_to_logical_worker_noc0 = [(9, 0), (0, 0), (7, 0), (3, 0), (9, 6), (1, 6), (6, 6), (4, 6)], dram_bank_to_logical_worker_noc1 = [(9, 0), (0, 0), (7, 0), (3, 0), (9, 6), (1, 6), (6, 6), (4, 6)]}, {arch = <blackhole>, grid = 10x12, coord_translation_offsets = 2x1, l1_size = 1572864, num_dram_channels = 8, dram_channel_size = 4278190080, noc_l1_address_align_bytes = 16, pcie_address_align_bytes = 64, noc_dram_address_align_bytes = 64, l1_unreserved_base = 111104, erisc_l1_unreserved_base = 87872, dram_unreserved_base = 4800064, dram_unreserved_end = 4276245760, supported_data_types = [<f32>, <f16>, <bf16>, <bfp_f8>, <bfp_bf8>, <bfp_f4>, <bfp_bf4>, <bfp_f2>, <bfp_bf2>, <u32>, <u16>, <u8>, <si32>], supported_tile_sizes = [ 4x16,  16x16,  32x16,  4x32,  16x32,  32x32], dst_physical_size_tiles = 16, num_cbs = 64, num_compute_threads = 1, num_datamovement_threads = 2, dram_grid = 1x8, dram_bank_to_logical_worker_noc0 = [(9, 0), (0, 0), (7, 0), (3, 0), (9, 6), (1, 6), (6, 6), (4, 6)], dram_bank_to_logical_worker_noc1 = [(9, 0), (0, 0), (7, 0), (3, 0), (9, 6), (1, 6), (6, 6), (4, 6)]}, {arch = <blackhole>, grid = 10x12, coord_translation_offsets = 2x1, l1_size = 1572864, num_dram_channels = 8, dram_channel_size = 4278190080, noc_l1_address_align_bytes = 16, pcie_address_align_bytes = 64, noc_dram_address_align_bytes = 64, l1_unreserved_base = 111104, erisc_l1_unreserved_base = 87872, dram_unreserved_base = 4800064, dram_unreserved_end = 4276245760, supported_data_types = [<f32>, <f16>, <bf16>, <bfp_f8>, <bfp_bf8>, <bfp_f4>, <bfp_bf4>, <bfp_f2>, <bfp_bf2>, <u32>, <u16>, <u8>, <si32>], supported_tile_sizes = [ 4x16,  16x16,  32x16,  4x32,  16x32,  32x32], dst_physical_size_tiles = 16, num_cbs = 64, num_compute_threads = 1, num_datamovement_threads = 2, dram_grid = 1x8, dram_bank_to_logical_worker_noc0 = [(9, 0), (0, 0), (7, 0), (3, 0), (9, 7), (1, 7), (6, 7), (4, 7)], dram_bank_to_logical_worker_noc1 = [(9, 0), (0, 0), (7, 0), (3, 0), (9, 7), (1, 7), (6, 7), (4, 7)]}, {arch = <blackhole>, grid = 10x12, coord_translation_offsets = 2x1, l1_size = 1572864, num_dram_channels = 8, dram_channel_size = 4278190080, noc_l1_address_align_bytes = 16, pcie_address_align_bytes = 64, noc_dram_address_align_bytes = 64, l1_unreserved_base = 111104, erisc_l1_unreserved_base = 87872, dram_unreserved_base = 4800064, dram_unreserved_end = 4276245760, supported_data_types = [<f32>, <f16>, <bf16>, <bfp_f8>, <bfp_bf8>, <bfp_f4>, <bfp_bf4>, <bfp_f2>, <bfp_bf2>, <u32>, <u16>, <u8>, <si32>], supported_tile_sizes = [ 4x16,  16x16,  32x16,  4x32,  16x32,  32x32], dst_physical_size_tiles = 16, num_cbs = 64, num_compute_threads = 1, num_datamovement_threads = 2, dram_grid = 1x8, dram_bank_to_logical_worker_noc0 = [(9, 0), (0, 0), (7, 0), (3, 0), (9, 6), (1, 6), (6, 6), (4, 6)], dram_bank_to_logical_worker_noc1 = [(9, 0), (0, 0), (7, 0), (3, 0), (9, 6), (1, 6), (6, 6), (4, 6)]}, {arch = <blackhole>, grid = 10x12, coord_translation_offsets = 2x1, l1_size = 1572864, num_dram_channels = 8, dram_channel_size = 4278190080, noc_l1_address_align_bytes = 16, pcie_address_align_bytes = 64, noc_dram_address_align_bytes = 64, l1_unreserved_base = 111104, erisc_l1_unreserved_base = 87872, dram_unreserved_base = 4800064, dram_unreserved_end = 4276245760, supported_data_types = [<f32>, <f16>, <bf16>, <bfp_f8>, <bfp_bf8>, <bfp_f4>, <bfp_bf4>, <bfp_f2>, <bfp_bf2>, <u32>, <u16>, <u8>, <si32>], supported_tile_sizes = [ 4x16,  16x16,  32x16,  4x32,  16x32,  32x32], dst_physical_size_tiles = 16, num_cbs = 64, num_compute_threads = 1, num_datamovement_threads = 2, dram_grid = 1x8, dram_bank_to_logical_worker_noc0 = [(9, 0), (0, 0), (7, 0), (3, 0), (9, 7), (1, 7), (6, 7), (4, 7)], dram_bank_to_logical_worker_noc1 = [(9, 0), (0, 0), (7, 0), (3, 0), (9, 7), (1, 7), (6, 7), (4, 7)]}, {arch = <blackhole>, grid = 10x12, coord_translation_offsets = 2x1, l1_size = 1572864, num_dram_channels = 8, dram_channel_size = 4278190080, noc_l1_address_align_bytes = 16, pcie_address_align_bytes = 64, noc_dram_address_align_bytes = 64, l1_unreserved_base = 111104, erisc_l1_unreserved_base = 87872, dram_unreserved_base = 4800064, dram_unreserved_end = 4276273536, supported_data_types = [<f32>, <f16>, <bf16>, <bfp_f8>, <bfp_bf8>, <bfp_f4>, <bfp_bf4>, <bfp_f2>, <bfp_bf2>, <u32>, <u16>, <u8>, <si32>], supported_tile_sizes = [ 4x16,  16x16,  32x16,  4x32,  16x32,  32x32], dst_physical_size_tiles = 16, num_cbs = 64, num_compute_threads = 1, num_datamovement_threads = 2, dram_grid = 1x8, dram_bank_to_logical_worker_noc0 = [(9, 0), (0, 0), (7, 0), (3, 0), (9, 7), (1, 7), (6, 7), (4, 7)], dram_bank_to_logical_worker_noc1 = [(9, 0), (0, 0), (7, 0), (3, 0), (9, 7), (1, 7), (6, 7), (4, 7)]}, {arch = <blackhole>, grid = 10x12, coord_translation_offsets = 2x1, l1_size = 1572864, num_dram_channels = 8, dram_channel_size = 4278190080, noc_l1_address_align_bytes = 16, pcie_address_align_bytes = 64, noc_dram_address_align_bytes = 64, l1_unreserved_base = 111104, erisc_l1_unreserved_base = 87872, dram_unreserved_base = 4800064, dram_unreserved_end = 4276245760, supported_data_types = [<f32>, <f16>, <bf16>, <bfp_f8>, <bfp_bf8>, <bfp_f4>, <bfp_bf4>, <bfp_f2>, <bfp_bf2>, <u32>, <u16>, <u8>, <si32>], supported_tile_sizes = [ 4x16,  16x16,  32x16,  4x32,  16x32,  32x32], dst_physical_size_tiles = 16, num_cbs = 64, num_compute_threads = 1, num_datamovement_threads = 2, dram_grid = 1x8, dram_bank_to_logical_worker_noc0 = [(9, 0), (0, 0), (7, 0), (3, 0), (9, 6), (1, 6), (6, 6), (4, 6)], dram_bank_to_logical_worker_noc1 = [(9, 0), (0, 0), (7, 0), (3, 0), (9, 6), (1, 6), (6, 6), (4, 6)]}, {arch = <blackhole>, grid = 10x12, coord_translation_offsets = 2x1, l1_size = 1572864, num_dram_channels = 8, dram_channel_size = 4278190080, noc_l1_address_align_bytes = 16, pcie_address_align_bytes = 64, noc_dram_address_align_bytes = 64, l1_unreserved_base = 111104, erisc_l1_unreserved_base = 87872, dram_unreserved_base = 4800064, dram_unreserved_end = 4276245760, supported_data_types = [<f32>, <f16>, <bf16>, <bfp_f8>, <bfp_bf8>, <bfp_f4>, <bfp_bf4>, <bfp_f2>, <bfp_bf2>, <u32>, <u16>, <u8>, <si32>], supported_tile_sizes = [ 4x16,  16x16,  32x16,  4x32,  16x32,  32x32], dst_physical_size_tiles = 16, num_cbs = 64, num_compute_threads = 1, num_datamovement_threads = 2, dram_grid = 1x8, dram_bank_to_logical_worker_noc0 = [(9, 0), (0, 0), (7, 0), (3, 0), (9, 7), (1, 7), (6, 7), (4, 7)], dram_bank_to_logical_worker_noc1 = [(9, 0), (0, 0), (7, 0), (3, 0), (9, 7), (1, 7), (6, 7), (4, 7)]}, {arch = <blackhole>, grid = 10x12, coord_translation_offsets = 2x1, l1_size = 1572864, num_dram_channels = 8, dram_channel_size = 4278190080, noc_l1_address_align_bytes = 16, pcie_address_align_bytes = 64, noc_dram_address_align_bytes = 64, l1_unreserved_base = 111104, erisc_l1_unreserved_base = 87872, dram_unreserved_base = 4800064, dram_unreserved_end = 4276245760, supported_data_types = [<f32>, <f16>, <bf16>, <bfp_f8>, <bfp_bf8>, <bfp_f4>, <bfp_bf4>, <bfp_f2>, <bfp_bf2>, <u32>, <u16>, <u8>, <si32>], supported_tile_sizes = [ 4x16,  16x16,  32x16,  4x32,  16x32,  32x32], dst_physical_size_tiles = 16, num_cbs = 64, num_compute_threads = 1, num_datamovement_threads = 2, dram_grid = 1x8, dram_bank_to_logical_worker_noc0 = [(9, 0), (0, 0), (7, 0), (3, 0), (9, 6), (1, 6), (6, 6), (4, 6)], dram_bank_to_logical_worker_noc1 = [(9, 0), (0, 0), (7, 0), (3, 0), (9, 6), (1, 6), (6, 6), (4, 6)]}, {arch = <blackhole>, grid = 10x12, coord_translation_offsets = 2x1, l1_size = 1572864, num_dram_channels = 8, dram_channel_size = 4278190080, noc_l1_address_align_bytes = 16, pcie_address_align_bytes = 64, noc_dram_address_align_bytes = 64, l1_unreserved_base = 111104, erisc_l1_unreserved_base = 87872, dram_unreserved_base = 4800064, dram_unreserved_end = 4276245760, supported_data_types = [<f32>, <f16>, <bf16>, <bfp_f8>, <bfp_bf8>, <bfp_f4>, <bfp_bf4>, <bfp_f2>, <bfp_bf2>, <u32>, <u16>, <u8>, <si32>], supported_tile_sizes = [ 4x16,  16x16,  32x16,  4x32,  16x32,  32x32], dst_physical_size_tiles = 16, num_cbs = 64, num_compute_threads = 1, num_datamovement_threads = 2, dram_grid = 1x8, dram_bank_to_logical_worker_noc0 = [(9, 0), (0, 0), (7, 0), (3, 0), (9, 6), (1, 6), (6, 6), (4, 6)], dram_bank_to_logical_worker_noc1 = [(9, 0), (0, 0), (7, 0), (3, 0), (9, 6), (1, 6), (6, 6), (4, 6)]}, {arch = <blackhole>, grid = 10x12, coord_translation_offsets = 2x1, l1_size = 1572864, num_dram_channels = 8, dram_channel_size = 4278190080, noc_l1_address_align_bytes = 16, pcie_address_align_bytes = 64, noc_dram_address_align_bytes = 64, l1_unreserved_base = 111104, erisc_l1_unreserved_base = 87872, dram_unreserved_base = 4800064, dram_unreserved_end = 4276245760, supported_data_types = [<f32>, <f16>, <bf16>, <bfp_f8>, <bfp_bf8>, <bfp_f4>, <bfp_bf4>, <bfp_f2>, <bfp_bf2>, <u32>, <u16>, <u8>, <si32>], supported_tile_sizes = [ 4x16,  16x16,  32x16,  4x32,  16x32,  32x32], dst_physical_size_tiles = 16, num_cbs = 64, num_compute_threads = 1, num_datamovement_threads = 2, dram_grid = 1x8, dram_bank_to_logical_worker_noc0 = [(9, 0), (0, 0), (7, 0), (3, 0), (9, 6), (1, 6), (6, 6), (4, 6)], dram_bank_to_logical_worker_noc1 = [(9, 0), (0, 0), (7, 0), (3, 0), (9, 6), (1, 6), (6, 6), (4, 6)]}, {arch = <blackhole>, grid = 10x12, coord_translation_offsets = 2x1, l1_size = 1572864, num_dram_channels = 8, dram_channel_size = 4278190080, noc_l1_address_align_bytes = 16, pcie_address_align_bytes = 64, noc_dram_address_align_bytes = 64, l1_unreserved_base = 111104, erisc_l1_unreserved_base = 87872, dram_unreserved_base = 4800064, dram_unreserved_end = 4276245760, supported_data_types = [<f32>, <f16>, <bf16>, <bfp_f8>, <bfp_bf8>, <bfp_f4>, <bfp_bf4>, <bfp_f2>, <bfp_bf2>, <u32>, <u16>, <u8>, <si32>], supported_tile_sizes = [ 4x16,  16x16,  32x16,  4x32,  16x32,  32x32], dst_physical_size_tiles = 16, num_cbs = 64, num_compute_threads = 1, num_datamovement_threads = 2, dram_grid = 1x8, dram_bank_to_logical_worker_noc0 = [(9, 0), (0, 0), (7, 0), (3, 0), (9, 6), (1, 6), (6, 6), (4, 6)], dram_bank_to_logical_worker_noc1 = [(9, 0), (0, 0), (7, 0), (3, 0), (9, 6), (1, 6), (6, 6), (4, 6)]}, {arch = <blackhole>, grid = 10x12, coord_translation_offsets = 2x1, l1_size = 1572864, num_dram_channels = 8, dram_channel_size = 4278190080, noc_l1_address_align_bytes = 16, pcie_address_align_bytes = 64, noc_dram_address_align_bytes = 64, l1_unreserved_base = 111104, erisc_l1_unreserved_base = 87872, dram_unreserved_base = 4800064, dram_unreserved_end = 4276245760, supported_data_types = [<f32>, <f16>, <bf16>, <bfp_f8>, <bfp_bf8>, <bfp_f4>, <bfp_bf4>, <bfp_f2>, <bfp_bf2>, <u32>, <u16>, <u8>, <si32>], supported_tile_sizes = [ 4x16,  16x16,  32x16,  4x32,  16x32,  32x32], dst_physical_size_tiles = 16, num_cbs = 64, num_compute_threads = 1, num_datamovement_threads = 2, dram_grid = 1x8, dram_bank_to_logical_worker_noc0 = [(9, 0), (0, 0), (7, 0), (3, 0), (9, 6), (1, 6), (6, 6), (4, 6)], dram_bank_to_logical_worker_noc1 = [(9, 0), (0, 0), (7, 0), (3, 0), (9, 6), (1, 6), (6, 6), (4, 6)]}, {arch = <blackhole>, grid = 10x12, coord_translation_offsets = 2x1, l1_size = 1572864, num_dram_channels = 8, dram_channel_size = 4278190080, noc_l1_address_align_bytes = 16, pcie_address_align_bytes = 64, noc_dram_address_align_bytes = 64, l1_unreserved_base = 111104, erisc_l1_unreserved_base = 87872, dram_unreserved_base = 4800064, dram_unreserved_end = 4276273536, supported_data_types = [<f32>, <f16>, <bf16>, <bfp_f8>, <bfp_bf8>, <bfp_f4>, <bfp_bf4>, <bfp_f2>, <bfp_bf2>, <u32>, <u16>, <u8>, <si32>], supported_tile_sizes = [ 4x16,  16x16,  32x16,  4x32,  16x32,  32x32], dst_physical_size_tiles = 16, num_cbs = 64, num_compute_threads = 1, num_datamovement_threads = 2, dram_grid = 1x8, dram_bank_to_logical_worker_noc0 = [(9, 0), (0, 0), (7, 0), (3, 0), (9, 6), (1, 6), (6, 6), (4, 6)], dram_bank_to_logical_worker_noc1 = [(9, 0), (0, 0), (7, 0), (3, 0), (9, 6), (1, 6), (6, 6), (4, 6)]}, {arch = <blackhole>, grid = 10x12, coord_translation_offsets = 2x1, l1_size = 1572864, num_dram_channels = 8, dram_channel_size = 4278190080, noc_l1_address_align_bytes = 16, pcie_address_align_bytes = 64, noc_dram_address_align_bytes = 64, l1_unreserved_base = 111104, erisc_l1_unreserved_base = 87872, dram_unreserved_base = 4800064, dram_unreserved_end = 4276245760, supported_data_types = [<f32>, <f16>, <bf16>, <bfp_f8>, <bfp_bf8>, <bfp_f4>, <bfp_bf4>, <bfp_f2>, <bfp_bf2>, <u32>, <u16>, <u8>, <si32>], supported_tile_sizes = [ 4x16,  16x16,  32x16,  4x32,  16x32,  32x32], dst_physical_size_tiles = 16, num_cbs = 64, num_compute_threads = 1, num_datamovement_threads = 2, dram_grid = 1x8, dram_bank_to_logical_worker_noc0 = [(9, 0), (0, 0), (7, 0), (3, 0), (9, 7), (1, 7), (6, 7), (4, 7)], dram_bank_to_logical_worker_noc1 = [(9, 0), (0, 0), (7, 0), (3, 0), (9, 7), (1, 7), (6, 7), (4, 7)]}, {arch = <blackhole>, grid = 10x12, coord_translation_offsets = 2x1, l1_size = 1572864, num_dram_channels = 8, dram_channel_size = 4278190080, noc_l1_address_align_bytes = 16, pcie_address_align_bytes = 64, noc_dram_address_align_bytes = 64, l1_unreserved_base = 111104, erisc_l1_unreserved_base = 87872, dram_unreserved_base = 4800064, dram_unreserved_end = 4276245760, supported_data_types = [<f32>, <f16>, <bf16>, <bfp_f8>, <bfp_bf8>, <bfp_f4>, <bfp_bf4>, <bfp_f2>, <bfp_bf2>, <u32>, <u16>, <u8>, <si32>], supported_tile_sizes = [ 4x16,  16x16,  32x16,  4x32,  16x32,  32x32], dst_physical_size_tiles = 16, num_cbs = 64, num_compute_threads = 1, num_datamovement_threads = 2, dram_grid = 1x8, dram_bank_to_logical_worker_noc0 = [(9, 0), (0, 0), (7, 0), (3, 0), (9, 6), (1, 6), (6, 6), (4, 6)], dram_bank_to_logical_worker_noc1 = [(9, 0), (0, 0), (7, 0), (3, 0), (9, 6), (1, 6), (6, 6), (4, 6)]}, {arch = <blackhole>, grid = 10x12, coord_translation_offsets = 2x1, l1_size = 1572864, num_dram_channels = 8, dram_channel_size = 4278190080, noc_l1_address_align_bytes = 16, pcie_address_align_bytes = 64, noc_dram_address_align_bytes = 64, l1_unreserved_base = 111104, erisc_l1_unreserved_base = 87872, dram_unreserved_base = 4800064, dram_unreserved_end = 4276245760, supported_data_types = [<f32>, <f16>, <bf16>, <bfp_f8>, <bfp_bf8>, <bfp_f4>, <bfp_bf4>, <bfp_f2>, <bfp_bf2>, <u32>, <u16>, <u8>, <si32>], supported_tile_sizes = [ 4x16,  16x16,  32x16,  4x32,  16x32,  32x32], dst_physical_size_tiles = 16, num_cbs = 64, num_compute_threads = 1, num_datamovement_threads = 2, dram_grid = 1x8, dram_bank_to_logical_worker_noc0 = [(9, 0), (0, 0), (7, 0), (3, 0), (9, 6), (1, 6), (6, 6), (4, 6)], dram_bank_to_logical_worker_noc1 = [(9, 0), (0, 0), (7, 0), (3, 0), (9, 6), (1, 6), (6, 6), (4, 6)]}, {arch = <blackhole>, grid = 10x12, coord_translation_offsets = 2x1, l1_size = 1572864, num_dram_channels = 8, dram_channel_size = 4278190080, noc_l1_address_align_bytes = 16, pcie_address_align_bytes = 64, noc_dram_address_align_bytes = 64, l1_unreserved_base = 111104, erisc_l1_unreserved_base = 87872, dram_unreserved_base = 4800064, dram_unreserved_end = 4276245760, supported_data_types = [<f32>, <f16>, <bf16>, <bfp_f8>, <bfp_bf8>, <bfp_f4>, <bfp_bf4>, <bfp_f2>, <bfp_bf2>, <u32>, <u16>, <u8>, <si32>], supported_tile_sizes = [ 4x16,  16x16,  32x16,  4x32,  16x32,  32x32], dst_physical_size_tiles = 16, num_cbs = 64, num_compute_threads = 1, num_datamovement_threads = 2, dram_grid = 1x8, dram_bank_to_logical_worker_noc0 = [(9, 0), (0, 0), (7, 0), (3, 0), (9, 6), (1, 6), (6, 6), (4, 6)], dram_bank_to_logical_worker_noc1 = [(9, 0), (0, 0), (7, 0), (3, 0), (9, 6), (1, 6), (6, 6), (4, 6)]}, {arch = <blackhole>, grid = 10x12, coord_translation_offsets = 2x1, l1_size = 1572864, num_dram_channels = 8, dram_channel_size = 4278190080, noc_l1_address_align_bytes = 16, pcie_address_align_bytes = 64, noc_dram_address_align_bytes = 64, l1_unreserved_base = 111104, erisc_l1_unreserved_base = 87872, dram_unreserved_base = 4800064, dram_unreserved_end = 4276245760, supported_data_types = [<f32>, <f16>, <bf16>, <bfp_f8>, <bfp_bf8>, <bfp_f4>, <bfp_bf4>, <bfp_f2>, <bfp_bf2>, <u32>, <u16>, <u8>, <si32>], supported_tile_sizes = [ 4x16,  16x16,  32x16,  4x32,  16x32,  32x32], dst_physical_size_tiles = 16, num_cbs = 64, num_compute_threads = 1, num_datamovement_threads = 2, dram_grid = 1x8, dram_bank_to_logical_worker_noc0 = [(9, 0), (0, 0), (7, 0), (3, 0), (9, 7), (1, 7), (6, 7), (4, 7)], dram_bank_to_logical_worker_noc1 = [(9, 0), (0, 0), (7, 0), (3, 0), (9, 7), (1, 7), (6, 7), (4, 7)]}, {arch = <blackhole>, grid = 10x12, coord_translation_offsets = 2x1, l1_size = 1572864, num_dram_channels = 8, dram_channel_size = 4278190080, noc_l1_address_align_bytes = 16, pcie_address_align_bytes = 64, noc_dram_address_align_bytes = 64, l1_unreserved_base = 111104, erisc_l1_unreserved_base = 87872, dram_unreserved_base = 4800064, dram_unreserved_end = 4276245760, supported_data_types = [<f32>, <f16>, <bf16>, <bfp_f8>, <bfp_bf8>, <bfp_f4>, <bfp_bf4>, <bfp_f2>, <bfp_bf2>, <u32>, <u16>, <u8>, <si32>], supported_tile_sizes = [ 4x16,  16x16,  32x16,  4x32,  16x32,  32x32], dst_physical_size_tiles = 16, num_cbs = 64, num_compute_threads = 1, num_datamovement_threads = 2, dram_grid = 1x8, dram_bank_to_logical_worker_noc0 = [(9, 0), (0, 0), (7, 0), (3, 0), (9, 7), (1, 7), (6, 7), (4, 7)], dram_bank_to_logical_worker_noc1 = [(9, 0), (0, 0), (7, 0), (3, 0), (9, 7), (1, 7), (6, 7), (4, 7)]}, {arch = <blackhole>, grid = 10x12, coord_translation_offsets = 2x1, l1_size = 1572864, num_dram_channels = 8, dram_channel_size = 4278190080, noc_l1_address_align_bytes = 16, pcie_address_align_bytes = 64, noc_dram_address_align_bytes = 64, l1_unreserved_base = 111104, erisc_l1_unreserved_base = 87872, dram_unreserved_base = 4800064, dram_unreserved_end = 4276245760, supported_data_types = [<f32>, <f16>, <bf16>, <bfp_f8>, <bfp_bf8>, <bfp_f4>, <bfp_bf4>, <bfp_f2>, <bfp_bf2>, <u32>, <u16>, <u8>, <si32>], supported_tile_sizes = [ 4x16,  16x16,  32x16,  4x32,  16x32,  32x32], dst_physical_size_tiles = 16, num_cbs = 64, num_compute_threads = 1, num_datamovement_threads = 2, dram_grid = 1x8, dram_bank_to_logical_worker_noc0 = [(9, 0), (0, 0), (7, 0), (3, 0), (9, 7), (1, 7), (6, 7), (4, 7)], dram_bank_to_logical_worker_noc1 = [(9, 0), (0, 0), (7, 0), (3, 0), (9, 7), (1, 7), (6, 7), (4, 7)]}, {arch = <blackhole>, grid = 10x12, coord_translation_offsets = 2x1, l1_size = 1572864, num_dram_channels = 8, dram_channel_size = 4278190080, noc_l1_address_align_bytes = 16, pcie_address_align_bytes = 64, noc_dram_address_align_bytes = 64, l1_unreserved_base = 111104, erisc_l1_unreserved_base = 87872, dram_unreserved_base = 4800064, dram_unreserved_end = 4276273536, supported_data_types = [<f32>, <f16>, <bf16>, <bfp_f8>, <bfp_bf8>, <bfp_f4>, <bfp_bf4>, <bfp_f2>, <bfp_bf2>, <u32>, <u16>, <u8>, <si32>], supported_tile_sizes = [ 4x16,  16x16,  32x16,  4x32,  16x32,  32x32], dst_physical_size_tiles = 16, num_cbs = 64, num_compute_threads = 1, num_datamovement_threads = 2, dram_grid = 1x8, dram_bank_to_logical_worker_noc0 = [(9, 0), (0, 0), (7, 0), (3, 0), (9, 6), (1, 6), (6, 6), (4, 6)], dram_bank_to_logical_worker_noc1 = [(9, 0), (0, 0), (7, 0), (3, 0), (9, 6), (1, 6), (6, 6), (4, 6)]}, {arch = <blackhole>, grid = 10x12, coord_translation_offsets = 2x1, l1_size = 1572864, num_dram_channels = 8, dram_channel_size = 4278190080, noc_l1_address_align_bytes = 16, pcie_address_align_bytes = 64, noc_dram_address_align_bytes = 64, l1_unreserved_base = 111104, erisc_l1_unreserved_base = 87872, dram_unreserved_base = 4800064, dram_unreserved_end = 4276245760, supported_data_types = [<f32>, <f16>, <bf16>, <bfp_f8>, <bfp_bf8>, <bfp_f4>, <bfp_bf4>, <bfp_f2>, <bfp_bf2>, <u32>, <u16>, <u8>, <si32>], supported_tile_sizes = [ 4x16,  16x16,  32x16,  4x32,  16x32,  32x32], dst_physical_size_tiles = 16, num_cbs = 64, num_compute_threads = 1, num_datamovement_threads = 2, dram_grid = 1x8, dram_bank_to_logical_worker_noc0 = [(9, 0), (0, 0), (7, 0), (3, 0), (9, 6), (1, 6), (6, 6), (4, 6)], dram_bank_to_logical_worker_noc1 = [(9, 0), (0, 0), (7, 0), (3, 0), (9, 6), (1, 6), (6, 6), (4, 6)]}, {arch = <blackhole>, grid = 10x12, coord_translation_offsets = 2x1, l1_size = 1572864, num_dram_channels = 8, dram_channel_size = 4278190080, noc_l1_address_align_bytes = 16, pcie_address_align_bytes = 64, noc_dram_address_align_bytes = 64, l1_unreserved_base = 111104, erisc_l1_unreserved_base = 87872, dram_unreserved_base = 4800064, dram_unreserved_end = 4276245760, supported_data_types = [<f32>, <f16>, <bf16>, <bfp_f8>, <bfp_bf8>, <bfp_f4>, <bfp_bf4>, <bfp_f2>, <bfp_bf2>, <u32>, <u16>, <u8>, <si32>], supported_tile_sizes = [ 4x16,  16x16,  32x16,  4x32,  16x32,  32x32], dst_physical_size_tiles = 16, num_cbs = 64, num_compute_threads = 1, num_datamovement_threads = 2, dram_grid = 1x8, dram_bank_to_logical_worker_noc0 = [(9, 0), (0, 0), (7, 0), (3, 0), (9, 6), (1, 6), (6, 6), (4, 6)], dram_bank_to_logical_worker_noc1 = [(9, 0), (0, 0), (7, 0), (3, 0), (9, 6), (1, 6), (6, 6), (4, 6)]}, {arch = <blackhole>, grid = 10x12, coord_translation_offsets = 2x1, l1_size = 1572864, num_dram_channels = 8, dram_channel_size = 4278190080, noc_l1_address_align_bytes = 16, pcie_address_align_bytes = 64, noc_dram_address_align_bytes = 64, l1_unreserved_base = 111104, erisc_l1_unreserved_base = 87872, dram_unreserved_base = 4800064, dram_unreserved_end = 4276245760, supported_data_types = [<f32>, <f16>, <bf16>, <bfp_f8>, <bfp_bf8>, <bfp_f4>, <bfp_bf4>, <bfp_f2>, <bfp_bf2>, <u32>, <u16>, <u8>, <si32>], supported_tile_sizes = [ 4x16,  16x16,  32x16,  4x32,  16x32,  32x32], dst_physical_size_tiles = 16, num_cbs = 64, num_compute_threads = 1, num_datamovement_threads = 2, dram_grid = 1x8, dram_bank_to_logical_worker_noc0 = [(9, 0), (0, 0), (7, 0), (3, 0), (9, 7), (1, 7), (6, 7), (4, 7)], dram_bank_to_logical_worker_noc1 = [(9, 0), (0, 0), (7, 0), (3, 0), (9, 7), (1, 7), (6, 7), (4, 7)]}, {arch = <blackhole>, grid = 10x12, coord_translation_offsets = 2x1, l1_size = 1572864, num_dram_channels = 8, dram_channel_size = 4278190080, noc_l1_address_align_bytes = 16, pcie_address_align_bytes = 64, noc_dram_address_align_bytes = 64, l1_unreserved_base = 111104, erisc_l1_unreserved_base = 87872, dram_unreserved_base = 4800064, dram_unreserved_end = 4276245760, supported_data_types = [<f32>, <f16>, <bf16>, <bfp_f8>, <bfp_bf8>, <bfp_f4>, <bfp_bf4>, <bfp_f2>, <bfp_bf2>, <u32>, <u16>, <u8>, <si32>], supported_tile_sizes = [ 4x16,  16x16,  32x16,  4x32,  16x32,  32x32], dst_physical_size_tiles = 16, num_cbs = 64, num_compute_threads = 1, num_datamovement_threads = 2, dram_grid = 1x8, dram_bank_to_logical_worker_noc0 = [(9, 0), (0, 0), (7, 0), (3, 0), (9, 7), (1, 7), (6, 7), (4, 7)], dram_bank_to_logical_worker_noc1 = [(9, 0), (0, 0), (7, 0), (3, 0), (9, 7), (1, 7), (6, 7), (4, 7)]}, {arch = <blackhole>, grid = 10x12, coord_translation_offsets = 2x1, l1_size = 1572864, num_dram_channels = 8, dram_channel_size = 4278190080, noc_l1_address_align_bytes = 16, pcie_address_align_bytes = 64, noc_dram_address_align_bytes = 64, l1_unreserved_base = 111104, erisc_l1_unreserved_base = 87872, dram_unreserved_base = 4800064, dram_unreserved_end = 4276245760, supported_data_types = [<f32>, <f16>, <bf16>, <bfp_f8>, <bfp_bf8>, <bfp_f4>, <bfp_bf4>, <bfp_f2>, <bfp_bf2>, <u32>, <u16>, <u8>, <si32>], supported_tile_sizes = [ 4x16,  16x16,  32x16,  4x32,  16x32,  32x32], dst_physical_size_tiles = 16, num_cbs = 64, num_compute_threads = 1, num_datamovement_threads = 2, dram_grid = 1x8, dram_bank_to_logical_worker_noc0 = [(9, 0), (0, 0), (7, 0), (3, 0), (9, 7), (1, 7), (6, 7), (4, 7)], dram_bank_to_logical_worker_noc1 = [(9, 0), (0, 0), (7, 0), (3, 0), (9, 7), (1, 7), (6, 7), (4, 7)]}, {arch = <blackhole>, grid = 10x12, coord_translation_offsets = 2x1, l1_size = 1572864, num_dram_channels = 8, dram_channel_size = 4278190080, noc_l1_address_align_bytes = 16, pcie_address_align_bytes = 64, noc_dram_address_align_bytes = 64, l1_unreserved_base = 111104, erisc_l1_unreserved_base = 87872, dram_unreserved_base = 4800064, dram_unreserved_end = 4276245760, supported_data_types = [<f32>, <f16>, <bf16>, <bfp_f8>, <bfp_bf8>, <bfp_f4>, <bfp_bf4>, <bfp_f2>, <bfp_bf2>, <u32>, <u16>, <u8>, <si32>], supported_tile_sizes = [ 4x16,  16x16,  32x16,  4x32,  16x32,  32x32], dst_physical_size_tiles = 16, num_cbs = 64, num_compute_threads = 1, num_datamovement_threads = 2, dram_grid = 1x8, dram_bank_to_logical_worker_noc0 = [(9, 0), (0, 0), (7, 0), (3, 0), (9, 7), (1, 7), (6, 7), (4, 7)], dram_bank_to_logical_worker_noc1 = [(9, 0), (0, 0), (7, 0), (3, 0), (9, 7), (1, 7), (6, 7), (4, 7)]}, {arch = <blackhole>, grid = 10x12, coord_translation_offsets = 2x1, l1_size = 1572864, num_dram_channels = 8, dram_channel_size = 4278190080, noc_l1_address_align_bytes = 16, pcie_address_align_bytes = 64, noc_dram_address_align_bytes = 64, l1_unreserved_base = 111104, erisc_l1_unreserved_base = 87872, dram_unreserved_base = 4800064, dram_unreserved_end = 4276245760, supported_data_types = [<f32>, <f16>, <bf16>, <bfp_f8>, <bfp_bf8>, <bfp_f4>, <bfp_bf4>, <bfp_f2>, <bfp_bf2>, <u32>, <u16>, <u8>, <si32>], supported_tile_sizes = [ 4x16,  16x16,  32x16,  4x32,  16x32,  32x32], dst_physical_size_tiles = 16, num_cbs = 64, num_compute_threads = 1, num_datamovement_threads = 2, dram_grid = 1x8, dram_bank_to_logical_worker_noc0 = [(9, 0), (0, 0), (7, 0), (3, 0), (9, 7), (1, 7), (6, 7), (4, 7)], dram_bank_to_logical_worker_noc1 = [(9, 0), (0, 0), (7, 0), (3, 0), (9, 7), (1, 7), (6, 7), (4, 7)]}, {arch = <blackhole>, grid = 10x12, coord_translation_offsets = 2x1, l1_size = 1572864, num_dram_channels = 8, dram_channel_size = 4278190080, noc_l1_address_align_bytes = 16, pcie_address_align_bytes = 64, noc_dram_address_align_bytes = 64, l1_unreserved_base = 111104, erisc_l1_unreserved_base = 87872, dram_unreserved_base = 4800064, dram_unreserved_end = 4276273536, supported_data_types = [<f32>, <f16>, <bf16>, <bfp_f8>, <bfp_bf8>, <bfp_f4>, <bfp_bf4>, <bfp_f2>, <bfp_bf2>, <u32>, <u16>, <u8>, <si32>], supported_tile_sizes = [ 4x16,  16x16,  32x16,  4x32,  16x32,  32x32], dst_physical_size_tiles = 16, num_cbs = 64, num_compute_threads = 1, num_datamovement_threads = 2, dram_grid = 1x8, dram_bank_to_logical_worker_noc0 = [(9, 0), (0, 0), (7, 0), (3, 0), (9, 7), (1, 7), (6, 7), (4, 7)], dram_bank_to_logical_worker_noc1 = [(9, 0), (0, 0), (7, 0), (3, 0), (9, 7), (1, 7), (6, 7), (4, 7)]}, {arch = <blackhole>, grid = 10x12, coord_translation_offsets = 2x1, l1_size = 1572864, num_dram_channels = 8, dram_channel_size = 4278190080, noc_l1_address_align_bytes = 16, pcie_address_align_bytes = 64, noc_dram_address_align_bytes = 64, l1_unreserved_base = 111104, erisc_l1_unreserved_base = 87872, dram_unreserved_base = 4800064, dram_unreserved_end = 4276245760, supported_data_types = [<f32>, <f16>, <bf16>, <bfp_f8>, <bfp_bf8>, <bfp_f4>, <bfp_bf4>, <bfp_f2>, <bfp_bf2>, <u32>, <u16>, <u8>, <si32>], supported_tile_sizes = [ 4x16,  16x16,  32x16,  4x32,  16x32,  32x32], dst_physical_size_tiles = 16, num_cbs = 64, num_compute_threads = 1, num_datamovement_threads = 2, dram_grid = 1x8, dram_bank_to_logical_worker_noc0 = [(9, 0), (0, 0), (7, 0), (3, 0), (9, 7), (1, 7), (6, 7), (4, 7)], dram_bank_to_logical_worker_noc1 = [(9, 0), (0, 0), (7, 0), (3, 0), (9, 7), (1, 7), (6, 7), (4, 7)]}, {arch = <blackhole>, grid = 10x12, coord_translation_offsets = 2x1, l1_size = 1572864, num_dram_channels = 8, dram_channel_size = 4278190080, noc_l1_address_align_bytes = 16, pcie_address_align_bytes = 64, noc_dram_address_align_bytes = 64, l1_unreserved_base = 111104, erisc_l1_unreserved_base = 87872, dram_unreserved_base = 4800064, dram_unreserved_end = 4276245760, supported_data_types = [<f32>, <f16>, <bf16>, <bfp_f8>, <bfp_bf8>, <bfp_f4>, <bfp_bf4>, <bfp_f2>, <bfp_bf2>, <u32>, <u16>, <u8>, <si32>], supported_tile_sizes = [ 4x16,  16x16,  32x16,  4x32,  16x32,  32x32], dst_physical_size_tiles = 16, num_cbs = 64, num_compute_threads = 1, num_datamovement_threads = 2, dram_grid = 1x8, dram_bank_to_logical_worker_noc0 = [(9, 0), (0, 0), (7, 0), (3, 0), (9, 7), (1, 7), (6, 7), (4, 7)], dram_bank_to_logical_worker_noc1 = [(9, 0), (0, 0), (7, 0), (3, 0), (9, 7), (1, 7), (6, 7), (4, 7)]}, {arch = <blackhole>, grid = 10x12, coord_translation_offsets = 2x1, l1_size = 1572864, num_dram_channels = 8, dram_channel_size = 4278190080, noc_l1_address_align_bytes = 16, pcie_address_align_bytes = 64, noc_dram_address_align_bytes = 64, l1_unreserved_base = 111104, erisc_l1_unreserved_base = 87872, dram_unreserved_base = 4800064, dram_unreserved_end = 4276245760, supported_data_types = [<f32>, <f16>, <bf16>, <bfp_f8>, <bfp_bf8>, <bfp_f4>, <bfp_bf4>, <bfp_f2>, <bfp_bf2>, <u32>, <u16>, <u8>, <si32>], supported_tile_sizes = [ 4x16,  16x16,  32x16,  4x32,  16x32,  32x32], dst_physical_size_tiles = 16, num_cbs = 64, num_compute_threads = 1, num_datamovement_threads = 2, dram_grid = 1x8, dram_bank_to_logical_worker_noc0 = [(9, 0), (0, 0), (7, 0), (3, 0), (9, 6), (1, 6), (6, 6), (4, 6)], dram_bank_to_logical_worker_noc1 = [(9, 0), (0, 0), (7, 0), (3, 0), (9, 6), (1, 6), (6, 6), (4, 6)]}, {arch = <blackhole>, grid = 10x12, coord_translation_offsets = 2x1, l1_size = 1572864, num_dram_channels = 8, dram_channel_size = 4278190080, noc_l1_address_align_bytes = 16, pcie_address_align_bytes = 64, noc_dram_address_align_bytes = 64, l1_unreserved_base = 111104, erisc_l1_unreserved_base = 87872, dram_unreserved_base = 4800064, dram_unreserved_end = 4276245760, supported_data_types = [<f32>, <f16>, <bf16>, <bfp_f8>, <bfp_bf8>, <bfp_f4>, <bfp_bf4>, <bfp_f2>, <bfp_bf2>, <u32>, <u16>, <u8>, <si32>], supported_tile_sizes = [ 4x16,  16x16,  32x16,  4x32,  16x32,  32x32], dst_physical_size_tiles = 16, num_cbs = 64, num_compute_threads = 1, num_datamovement_threads = 2, dram_grid = 1x8, dram_bank_to_logical_worker_noc0 = [(9, 0), (0, 0), (7, 0), (3, 0), (9, 7), (1, 7), (6, 7), (4, 7)], dram_bank_to_logical_worker_noc1 = [(9, 0), (0, 0), (7, 0), (3, 0), (9, 7), (1, 7), (6, 7), (4, 7)]}, {arch = <blackhole>, grid = 10x12, coord_translation_offsets = 2x1, l1_size = 1572864, num_dram_channels = 8, dram_channel_size = 4278190080, noc_l1_address_align_bytes = 16, pcie_address_align_bytes = 64, noc_dram_address_align_bytes = 64, l1_unreserved_base = 111104, erisc_l1_unreserved_base = 87872, dram_unreserved_base = 4800064, dram_unreserved_end = 4276245760, supported_data_types = [<f32>, <f16>, <bf16>, <bfp_f8>, <bfp_bf8>, <bfp_f4>, <bfp_bf4>, <bfp_f2>, <bfp_bf2>, <u32>, <u16>, <u8>, <si32>], supported_tile_sizes = [ 4x16,  16x16,  32x16,  4x32,  16x32,  32x32], dst_physical_size_tiles = 16, num_cbs = 64, num_compute_threads = 1, num_datamovement_threads = 2, dram_grid = 1x8, dram_bank_to_logical_worker_noc0 = [(9, 0), (0, 0), (7, 0), (3, 0), (9, 7), (1, 7), (6, 7), (4, 7)], dram_bank_to_logical_worker_noc1 = [(9, 0), (0, 0), (7, 0), (3, 0), (9, 7), (1, 7), (6, 7), (4, 7)]}, {arch = <blackhole>, grid = 10x12, coord_translation_offsets = 2x1, l1_size = 1572864, num_dram_channels = 8, dram_channel_size = 4278190080, noc_l1_address_align_bytes = 16, pcie_address_align_bytes = 64, noc_dram_address_align_bytes = 64, l1_unreserved_base = 111104, erisc_l1_unreserved_base = 87872, dram_unreserved_base = 4800064, dram_unreserved_end = 4276245760, supported_data_types = [<f32>, <f16>, <bf16>, <bfp_f8>, <bfp_bf8>, <bfp_f4>, <bfp_bf4>, <bfp_f2>, <bfp_bf2>, <u32>, <u16>, <u8>, <si32>], supported_tile_sizes = [ 4x16,  16x16,  32x16,  4x32,  16x32,  32x32], dst_physical_size_tiles = 16, num_cbs = 64, num_compute_threads = 1, num_datamovement_threads = 2, dram_grid = 1x8, dram_bank_to_logical_worker_noc0 = [(9, 0), (0, 0), (7, 0), (3, 0), (9, 6), (1, 6), (6, 6), (4, 6)], dram_bank_to_logical_worker_noc1 = [(9, 0), (0, 0), (7, 0), (3, 0), (9, 6), (1, 6), (6, 6), (4, 6)]}, {arch = <blackhole>, grid = 10x12, coord_translation_offsets = 2x1, l1_size = 1572864, num_dram_channels = 8, dram_channel_size = 4278190080, noc_l1_address_align_bytes = 16, pcie_address_align_bytes = 64, noc_dram_address_align_bytes = 64, l1_unreserved_base = 111104, erisc_l1_unreserved_base = 87872, dram_unreserved_base = 4800064, dram_unreserved_end = 4276245760, supported_data_types = [<f32>, <f16>, <bf16>, <bfp_f8>, <bfp_bf8>, <bfp_f4>, <bfp_bf4>, <bfp_f2>, <bfp_bf2>, <u32>, <u16>, <u8>, <si32>], supported_tile_sizes = [ 4x16,  16x16,  32x16,  4x32,  16x32,  32x32], dst_physical_size_tiles = 16, num_cbs = 64, num_compute_threads = 1, num_datamovement_threads = 2, dram_grid = 1x8, dram_bank_to_logical_worker_noc0 = [(9, 0), (0, 0), (7, 0), (3, 0), (9, 7), (1, 7), (6, 7), (4, 7)], dram_bank_to_logical_worker_noc1 = [(9, 0), (0, 0), (7, 0), (3, 0), (9, 7), (1, 7), (6, 7), (4, 7)]}, {arch = <blackhole>, grid = 10x12, coord_translation_offsets = 2x1, l1_size = 1572864, num_dram_channels = 8, dram_channel_size = 4278190080, noc_l1_address_align_bytes = 16, pcie_address_align_bytes = 64, noc_dram_address_align_bytes = 64, l1_unreserved_base = 111104, erisc_l1_unreserved_base = 87872, dram_unreserved_base = 4800064, dram_unreserved_end = 4276273536, supported_data_types = [<f32>, <f16>, <bf16>, <bfp_f8>, <bfp_bf8>, <bfp_f4>, <bfp_bf4>, <bfp_f2>, <bfp_bf2>, <u32>, <u16>, <u8>, <si32>], supported_tile_sizes = [ 4x16,  16x16,  32x16,  4x32,  16x32,  32x32], dst_physical_size_tiles = 16, num_cbs = 64, num_compute_threads = 1, num_datamovement_threads = 2, dram_grid = 1x8, dram_bank_to_logical_worker_noc0 = [(9, 0), (0, 0), (7, 0), (3, 0), (9, 7), (1, 7), (6, 7), (4, 7)], dram_bank_to_logical_worker_noc1 = [(9, 0), (0, 0), (7, 0), (3, 0), (9, 7), (1, 7), (6, 7), (4, 7)]}, {arch = <blackhole>, grid = 10x12, coord_translation_offsets = 2x1, l1_size = 1572864, num_dram_channels = 8, dram_channel_size = 4278190080, noc_l1_address_align_bytes = 16, pcie_address_align_bytes = 64, noc_dram_address_align_bytes = 64, l1_unreserved_base = 111104, erisc_l1_unreserved_base = 87872, dram_unreserved_base = 4800064, dram_unreserved_end = 4276245760, supported_data_types = [<f32>, <f16>, <bf16>, <bfp_f8>, <bfp_bf8>, <bfp_f4>, <bfp_bf4>, <bfp_f2>, <bfp_bf2>, <u32>, <u16>, <u8>, <si32>], supported_tile_sizes = [ 4x16,  16x16,  32x16,  4x32,  16x32,  32x32], dst_physical_size_tiles = 16, num_cbs = 64, num_compute_threads = 1, num_datamovement_threads = 2, dram_grid = 1x8, dram_bank_to_logical_worker_noc0 = [(9, 0), (0, 0), (7, 0), (3, 0), (9, 7), (1, 7), (6, 7), (4, 7)], dram_bank_to_logical_worker_noc1 = [(9, 0), (0, 0), (7, 0), (3, 0), (9, 7), (1, 7), (6, 7), (4, 7)]}, {arch = <blackhole>, grid = 10x12, coord_translation_offsets = 2x1, l1_size = 1572864, num_dram_channels = 8, dram_channel_size = 4278190080, noc_l1_address_align_bytes = 16, pcie_address_align_bytes = 64, noc_dram_address_align_bytes = 64, l1_unreserved_base = 111104, erisc_l1_unreserved_base = 87872, dram_unreserved_base = 4800064, dram_unreserved_end = 4276245760, supported_data_types = [<f32>, <f16>, <bf16>, <bfp_f8>, <bfp_bf8>, <bfp_f4>, <bfp_bf4>, <bfp_f2>, <bfp_bf2>, <u32>, <u16>, <u8>, <si32>], supported_tile_sizes = [ 4x16,  16x16,  32x16,  4x32,  16x32,  32x32], dst_physical_size_tiles = 16, num_cbs = 64, num_compute_threads = 1, num_datamovement_threads = 2, dram_grid = 1x8, dram_bank_to_logical_worker_noc0 = [(9, 0), (0, 0), (7, 0), (3, 0), (9, 7), (1, 7), (6, 7), (4, 7)], dram_bank_to_logical_worker_noc1 = [(9, 0), (0, 0), (7, 0), (3, 0), (9, 7), (1, 7), (6, 7), (4, 7)]}, {arch = <blackhole>, grid = 10x12, coord_translation_offsets = 2x1, l1_size = 1572864, num_dram_channels = 8, dram_channel_size = 4278190080, noc_l1_address_align_bytes = 16, pcie_address_align_bytes = 64, noc_dram_address_align_bytes = 64, l1_unreserved_base = 111104, erisc_l1_unreserved_base = 87872, dram_unreserved_base = 4800064, dram_unreserved_end = 4276245760, supported_data_types = [<f32>, <f16>, <bf16>, <bfp_f8>, <bfp_bf8>, <bfp_f4>, <bfp_bf4>, <bfp_f2>, <bfp_bf2>, <u32>, <u16>, <u8>, <si32>], supported_tile_sizes = [ 4x16,  16x16,  32x16,  4x32,  16x32,  32x32], dst_physical_size_tiles = 16, num_cbs = 64, num_compute_threads = 1, num_datamovement_threads = 2, dram_grid = 1x8, dram_bank_to_logical_worker_noc0 = [(9, 0), (0, 0), (7, 0), (3, 0), (9, 7), (1, 7), (6, 7), (4, 7)], dram_bank_to_logical_worker_noc1 = [(9, 0), (0, 0), (7, 0), (3, 0), (9, 7), (1, 7), (6, 7), (4, 7)]}, {arch = <blackhole>, grid = 10x12, coord_translation_offsets = 2x1, l1_size = 1572864, num_dram_channels = 8, dram_channel_size = 4278190080, noc_l1_address_align_bytes = 16, pcie_address_align_bytes = 64, noc_dram_address_align_bytes = 64, l1_unreserved_base = 111104, erisc_l1_unreserved_base = 87872, dram_unreserved_base = 4800064, dram_unreserved_end = 4276245760, supported_data_types = [<f32>, <f16>, <bf16>, <bfp_f8>, <bfp_bf8>, <bfp_f4>, <bfp_bf4>, <bfp_f2>, <bfp_bf2>, <u32>, <u16>, <u8>, <si32>], supported_tile_sizes = [ 4x16,  16x16,  32x16,  4x32,  16x32,  32x32], dst_physical_size_tiles = 16, num_cbs = 64, num_compute_threads = 1, num_datamovement_threads = 2, dram_grid = 1x8, dram_bank_to_logical_worker_noc0 = [(9, 0), (0, 0), (7, 0), (3, 0), (9, 7), (1, 7), (6, 7), (4, 7)], dram_bank_to_logical_worker_noc1 = [(9, 0), (0, 0), (7, 0), (3, 0), (9, 7), (1, 7), (6, 7), (4, 7)]}, {arch = <blackhole>, grid = 10x12, coord_translation_offsets = 2x1, l1_size = 1572864, num_dram_channels = 8, dram_channel_size = 4278190080, noc_l1_address_align_bytes = 16, pcie_address_align_bytes = 64, noc_dram_address_align_bytes = 64, l1_unreserved_base = 111104, erisc_l1_unreserved_base = 87872, dram_unreserved_base = 4800064, dram_unreserved_end = 4276245760, supported_data_types = [<f32>, <f16>, <bf16>, <bfp_f8>, <bfp_bf8>, <bfp_f4>, <bfp_bf4>, <bfp_f2>, <bfp_bf2>, <u32>, <u16>, <u8>, <si32>], supported_tile_sizes = [ 4x16,  16x16,  32x16,  4x32,  16x32,  32x32], dst_physical_size_tiles = 16, num_cbs = 64, num_compute_threads = 1, num_datamovement_threads = 2, dram_grid = 1x8, dram_bank_to_logical_worker_noc0 = [(9, 0), (0, 0), (7, 0), (3, 0), (9, 6), (1, 6), (6, 6), (4, 6)], dram_bank_to_logical_worker_noc1 = [(9, 0), (0, 0), (7, 0), (3, 0), (9, 6), (1, 6), (6, 6), (4, 6)]}, {arch = <blackhole>, grid = 10x12, coord_translation_offsets = 2x1, l1_size = 1572864, num_dram_channels = 8, dram_channel_size = 4278190080, noc_l1_address_align_bytes = 16, pcie_address_align_bytes = 64, noc_dram_address_align_bytes = 64, l1_unreserved_base = 111104, erisc_l1_unreserved_base = 87872, dram_unreserved_base = 4800064, dram_unreserved_end = 4276245760, supported_data_types = [<f32>, <f16>, <bf16>, <bfp_f8>, <bfp_bf8>, <bfp_f4>, <bfp_bf4>, <bfp_f2>, <bfp_bf2>, <u32>, <u16>, <u8>, <si32>], supported_tile_sizes = [ 4x16,  16x16,  32x16,  4x32,  16x32,  32x32], dst_physical_size_tiles = 16, num_cbs = 64, num_compute_threads = 1, num_datamovement_threads = 2, dram_grid = 1x8, dram_bank_to_logical_worker_noc0 = [(9, 0), (0, 0), (7, 0), (3, 0), (9, 6), (1, 6), (6, 6), (4, 6)], dram_bank_to_logical_worker_noc1 = [(9, 0), (0, 0), (7, 0), (3, 0), (9, 6), (1, 6), (6, 6), (4, 6)]}, {arch = <blackhole>, grid = 10x12, coord_translation_offsets = 2x1, l1_size = 1572864, num_dram_channels = 8, dram_channel_size = 4278190080, noc_l1_address_align_bytes = 16, pcie_address_align_bytes = 64, noc_dram_address_align_bytes = 64, l1_unreserved_base = 111104, erisc_l1_unreserved_base = 87872, dram_unreserved_base = 4800064, dram_unreserved_end = 4276245760, supported_data_types = [<f32>, <f16>, <bf16>, <bfp_f8>, <bfp_bf8>, <bfp_f4>, <bfp_bf4>, <bfp_f2>, <bfp_bf2>, <u32>, <u16>, <u8>, <si32>], supported_tile_sizes = [ 4x16,  16x16,  32x16,  4x32,  16x32,  32x32], dst_physical_size_tiles = 16, num_cbs = 64, num_compute_threads = 1, num_datamovement_threads = 2, dram_grid = 1x8, dram_bank_to_logical_worker_noc0 = [(9, 0), (0, 0), (7, 0), (3, 0), (9, 7), (1, 7), (6, 7), (4, 7)], dram_bank_to_logical_worker_noc1 = [(9, 0), (0, 0), (7, 0), (3, 0), (9, 7), (1, 7), (6, 7), (4, 7)]}, {arch = <blackhole>, grid = 10x12, coord_translation_offsets = 2x1, l1_size = 1572864, num_dram_channels = 8, dram_channel_size = 4278190080, noc_l1_address_align_bytes = 16, pcie_address_align_bytes = 64, noc_dram_address_align_bytes = 64, l1_unreserved_base = 111104, erisc_l1_unreserved_base = 87872, dram_unreserved_base = 4800064, dram_unreserved_end = 4276273536, supported_data_types = [<f32>, <f16>, <bf16>, <bfp_f8>, <bfp_bf8>, <bfp_f4>, <bfp_bf4>, <bfp_f2>, <bfp_bf2>, <u32>, <u16>, <u8>, <si32>], supported_tile_sizes = [ 4x16,  16x16,  32x16,  4x32,  16x32,  32x32], dst_physical_size_tiles = 16, num_cbs = 64, num_compute_threads = 1, num_datamovement_threads = 2, dram_grid = 1x8, dram_bank_to_logical_worker_noc0 = [(9, 0), (0, 0), (7, 0), (3, 0), (9, 7), (1, 7), (6, 7), (4, 7)], dram_bank_to_logical_worker_noc1 = [(9, 0), (0, 0), (7, 0), (3, 0), (9, 7), (1, 7), (6, 7), (4, 7)]}, {arch = <blackhole>, grid = 10x12, coord_translation_offsets = 2x1, l1_size = 1572864, num_dram_channels = 8, dram_channel_size = 4278190080, noc_l1_address_align_bytes = 16, pcie_address_align_bytes = 64, noc_dram_address_align_bytes = 64, l1_unreserved_base = 111104, erisc_l1_unreserved_base = 87872, dram_unreserved_base = 4800064, dram_unreserved_end = 4276245760, supported_data_types = [<f32>, <f16>, <bf16>, <bfp_f8>, <bfp_bf8>, <bfp_f4>, <bfp_bf4>, <bfp_f2>, <bfp_bf2>, <u32>, <u16>, <u8>, <si32>], supported_tile_sizes = [ 4x16,  16x16,  32x16,  4x32,  16x32,  32x32], dst_physical_size_tiles = 16, num_cbs = 64, num_compute_threads = 1, num_datamovement_threads = 2, dram_grid = 1x8, dram_bank_to_logical_worker_noc0 = [(9, 0), (0, 0), (7, 0), (3, 0), (9, 7), (1, 7), (6, 7), (4, 7)], dram_bank_to_logical_worker_noc1 = [(9, 0), (0, 0), (7, 0), (3, 0), (9, 7), (1, 7), (6, 7), (4, 7)]}, {arch = <blackhole>, grid = 10x12, coord_translation_offsets = 2x1, l1_size = 1572864, num_dram_channels = 8, dram_channel_size = 4278190080, noc_l1_address_align_bytes = 16, pcie_address_align_bytes = 64, noc_dram_address_align_bytes = 64, l1_unreserved_base = 111104, erisc_l1_unreserved_base = 87872, dram_unreserved_base = 4800064, dram_unreserved_end = 4276245760, supported_data_types = [<f32>, <f16>, <bf16>, <bfp_f8>, <bfp_bf8>, <bfp_f4>, <bfp_bf4>, <bfp_f2>, <bfp_bf2>, <u32>, <u16>, <u8>, <si32>], supported_tile_sizes = [ 4x16,  16x16,  32x16,  4x32,  16x32,  32x32], dst_physical_size_tiles = 16, num_cbs = 64, num_compute_threads = 1, num_datamovement_threads = 2, dram_grid = 1x8, dram_bank_to_logical_worker_noc0 = [(9, 0), (0, 0), (7, 0), (3, 0), (9, 6), (1, 6), (6, 6), (4, 6)], dram_bank_to_logical_worker_noc1 = [(9, 0), (0, 0), (7, 0), (3, 0), (9, 6), (1, 6), (6, 6), (4, 6)]}, {arch = <blackhole>, grid = 10x12, coord_translation_offsets = 2x1, l1_size = 1572864, num_dram_channels = 8, dram_channel_size = 4278190080, noc_l1_address_align_bytes = 16, pcie_address_align_bytes = 64, noc_dram_address_align_bytes = 64, l1_unreserved_base = 111104, erisc_l1_unreserved_base = 87872, dram_unreserved_base = 4800064, dram_unreserved_end = 4276245760, supported_data_types = [<f32>, <f16>, <bf16>, <bfp_f8>, <bfp_bf8>, <bfp_f4>, <bfp_bf4>, <bfp_f2>, <bfp_bf2>, <u32>, <u16>, <u8>, <si32>], supported_tile_sizes = [ 4x16,  16x16,  32x16,  4x32,  16x32,  32x32], dst_physical_size_tiles = 16, num_cbs = 64, num_compute_threads = 1, num_datamovement_threads = 2, dram_grid = 1x8, dram_bank_to_logical_worker_noc0 = [(9, 0), (0, 0), (7, 0), (3, 0), (9, 6), (1, 6), (6, 6), (4, 6)], dram_bank_to_logical_worker_noc1 = [(9, 0), (0, 0), (7, 0), (3, 0), (9, 6), (1, 6), (6, 6), (4, 6)]}, {arch = <blackhole>, grid = 10x12, coord_translation_offsets = 2x1, l1_size = 1572864, num_dram_channels = 8, dram_channel_size = 4278190080, noc_l1_address_align_bytes = 16, pcie_address_align_bytes = 64, noc_dram_address_align_bytes = 64, l1_unreserved_base = 111104, erisc_l1_unreserved_base = 87872, dram_unreserved_base = 4800064, dram_unreserved_end = 4276245760, supported_data_types = [<f32>, <f16>, <bf16>, <bfp_f8>, <bfp_bf8>, <bfp_f4>, <bfp_bf4>, <bfp_f2>, <bfp_bf2>, <u32>, <u16>, <u8>, <si32>], supported_tile_sizes = [ 4x16,  16x16,  32x16,  4x32,  16x32,  32x32], dst_physical_size_tiles = 16, num_cbs = 64, num_compute_threads = 1, num_datamovement_threads = 2, dram_grid = 1x8, dram_bank_to_logical_worker_noc0 = [(9, 0), (0, 0), (7, 0), (3, 0), (9, 7), (1, 7), (6, 7), (4, 7)], dram_bank_to_logical_worker_noc1 = [(9, 0), (0, 0), (7, 0), (3, 0), (9, 7), (1, 7), (6, 7), (4, 7)]}, {arch = <blackhole>, grid = 10x12, coord_translation_offsets = 2x1, l1_size = 1572864, num_dram_channels = 8, dram_channel_size = 4278190080, noc_l1_address_align_bytes = 16, pcie_address_align_bytes = 64, noc_dram_address_align_bytes = 64, l1_unreserved_base = 111104, erisc_l1_unreserved_base = 87872, dram_unreserved_base = 4800064, dram_unreserved_end = 4276245760, supported_data_types = [<f32>, <f16>, <bf16>, <bfp_f8>, <bfp_bf8>, <bfp_f4>, <bfp_bf4>, <bfp_f2>, <bfp_bf2>, <u32>, <u16>, <u8>, <si32>], supported_tile_sizes = [ 4x16,  16x16,  32x16,  4x32,  16x32,  32x32], dst_physical_size_tiles = 16, num_cbs = 64, num_compute_threads = 1, num_datamovement_threads = 2, dram_grid = 1x8, dram_bank_to_logical_worker_noc0 = [(9, 0), (0, 0), (7, 0), (3, 0), (9, 7), (1, 7), (6, 7), (4, 7)], dram_bank_to_logical_worker_noc1 = [(9, 0), (0, 0), (7, 0), (3, 0), (9, 7), (1, 7), (6, 7), (4, 7)]}, {arch = <blackhole>, grid = 10x12, coord_translation_offsets = 2x1, l1_size = 1572864, num_dram_channels = 8, dram_channel_size = 4278190080, noc_l1_address_align_bytes = 16, pcie_address_align_bytes = 64, noc_dram_address_align_bytes = 64, l1_unreserved_base = 111104, erisc_l1_unreserved_base = 87872, dram_unreserved_base = 4800064, dram_unreserved_end = 4276245760, supported_data_types = [<f32>, <f16>, <bf16>, <bfp_f8>, <bfp_bf8>, <bfp_f4>, <bfp_bf4>, <bfp_f2>, <bfp_bf2>, <u32>, <u16>, <u8>, <si32>], supported_tile_sizes = [ 4x16,  16x16,  32x16,  4x32,  16x32,  32x32], dst_physical_size_tiles = 16, num_cbs = 64, num_compute_threads = 1, num_datamovement_threads = 2, dram_grid = 1x8, dram_bank_to_logical_worker_noc0 = [(9, 0), (0, 0), (7, 0), (3, 0), (9, 6), (1, 6), (6, 6), (4, 6)], dram_bank_to_logical_worker_noc1 = [(9, 0), (0, 0), (7, 0), (3, 0), (9, 6), (1, 6), (6, 6), (4, 6)]}, {arch = <blackhole>, grid = 10x12, coord_translation_offsets = 2x1, l1_size = 1572864, num_dram_channels = 8, dram_channel_size = 4278190080, noc_l1_address_align_bytes = 16, pcie_address_align_bytes = 64, noc_dram_address_align_bytes = 64, l1_unreserved_base = 111104, erisc_l1_unreserved_base = 87872, dram_unreserved_base = 4800064, dram_unreserved_end = 4276245760, supported_data_types = [<f32>, <f16>, <bf16>, <bfp_f8>, <bfp_bf8>, <bfp_f4>, <bfp_bf4>, <bfp_f2>, <bfp_bf2>, <u32>, <u16>, <u8>, <si32>], supported_tile_sizes = [ 4x16,  16x16,  32x16,  4x32,  16x32,  32x32], dst_physical_size_tiles = 16, num_cbs = 64, num_compute_threads = 1, num_datamovement_threads = 2, dram_grid = 1x8, dram_bank_to_logical_worker_noc0 = [(9, 0), (0, 0), (7, 0), (3, 0), (9, 6), (1, 6), (6, 6), (4, 6)], dram_bank_to_logical_worker_noc1 = [(9, 0), (0, 0), (7, 0), (3, 0), (9, 6), (1, 6), (6, 6), (4, 6)]}, {arch = <blackhole>, grid = 10x12, coord_translation_offsets = 2x1, l1_size = 1572864, num_dram_channels = 8, dram_channel_size = 4278190080, noc_l1_address_align_bytes = 16, pcie_address_align_bytes = 64, noc_dram_address_align_bytes = 64, l1_unreserved_base = 111104, erisc_l1_unreserved_base = 87872, dram_unreserved_base = 4800064, dram_unreserved_end = 4276273536, supported_data_types = [<f32>, <f16>, <bf16>, <bfp_f8>, <bfp_bf8>, <bfp_f4>, <bfp_bf4>, <bfp_f2>, <bfp_bf2>, <u32>, <u16>, <u8>, <si32>], supported_tile_sizes = [ 4x16,  16x16,  32x16,  4x32,  16x32,  32x32], dst_physical_size_tiles = 16, num_cbs = 64, num_compute_threads = 1, num_datamovement_threads = 2, dram_grid = 1x8, dram_bank_to_logical_worker_noc0 = [(9, 0), (0, 0), (7, 0), (3, 0), (9, 6), (1, 6), (6, 6), (4, 6)], dram_bank_to_logical_worker_noc1 = [(9, 0), (0, 0), (7, 0), (3, 0), (9, 6), (1, 6), (6, 6), (4, 6)]}, {arch = <blackhole>, grid = 10x12, coord_translation_offsets = 2x1, l1_size = 1572864, num_dram_channels = 8, dram_channel_size = 4278190080, noc_l1_address_align_bytes = 16, pcie_address_align_bytes = 64, noc_dram_address_align_bytes = 64, l1_unreserved_base = 111104, erisc_l1_unreserved_base = 87872, dram_unreserved_base = 4800064, dram_unreserved_end = 4276245760, supported_data_types = [<f32>, <f16>, <bf16>, <bfp_f8>, <bfp_bf8>, <bfp_f4>, <bfp_bf4>, <bfp_f2>, <bfp_bf2>, <u32>, <u16>, <u8>, <si32>], supported_tile_sizes = [ 4x16,  16x16,  32x16,  4x32,  16x32,  32x32], dst_physical_size_tiles = 16, num_cbs = 64, num_compute_threads = 1, num_datamovement_threads = 2, dram_grid = 1x8, dram_bank_to_logical_worker_noc0 = [(9, 0), (0, 0), (7, 0), (3, 0), (9, 7), (1, 7), (6, 7), (4, 7)], dram_bank_to_logical_worker_noc1 = [(9, 0), (0, 0), (7, 0), (3, 0), (9, 7), (1, 7), (6, 7), (4, 7)]}, {arch = <blackhole>, grid = 10x12, coord_translation_offsets = 2x1, l1_size = 1572864, num_dram_channels = 8, dram_channel_size = 4278190080, noc_l1_address_align_bytes = 16, pcie_address_align_bytes = 64, noc_dram_address_align_bytes = 64, l1_unreserved_base = 111104, erisc_l1_unreserved_base = 87872, dram_unreserved_base = 4800064, dram_unreserved_end = 4276245760, supported_data_types = [<f32>, <f16>, <bf16>, <bfp_f8>, <bfp_bf8>, <bfp_f4>, <bfp_bf4>, <bfp_f2>, <bfp_bf2>, <u32>, <u16>, <u8>, <si32>], supported_tile_sizes = [ 4x16,  16x16,  32x16,  4x32,  16x32,  32x32], dst_physical_size_tiles = 16, num_cbs = 64, num_compute_threads = 1, num_datamovement_threads = 2, dram_grid = 1x8, dram_bank_to_logical_worker_noc0 = [(9, 0), (0, 0), (7, 0), (3, 0), (9, 6), (1, 6), (6, 6), (4, 6)], dram_bank_to_logical_worker_noc1 = [(9, 0), (0, 0), (7, 0), (3, 0), (9, 6), (1, 6), (6, 6), (4, 6)]}, {arch = <blackhole>, grid = 10x12, coord_translation_offsets = 2x1, l1_size = 1572864, num_dram_channels = 8, dram_channel_size = 4278190080, noc_l1_address_align_bytes = 16, pcie_address_align_bytes = 64, noc_dram_address_align_bytes = 64, l1_unreserved_base = 111104, erisc_l1_unreserved_base = 87872, dram_unreserved_base = 4800064, dram_unreserved_end = 4276245760, supported_data_types = [<f32>, <f16>, <bf16>, <bfp_f8>, <bfp_bf8>, <bfp_f4>, <bfp_bf4>, <bfp_f2>, <bfp_bf2>, <u32>, <u16>, <u8>, <si32>], supported_tile_sizes = [ 4x16,  16x16,  32x16,  4x32,  16x32,  32x32], dst_physical_size_tiles = 16, num_cbs = 64, num_compute_threads = 1, num_datamovement_threads = 2, dram_grid = 1x8, dram_bank_to_logical_worker_noc0 = [(9, 0), (0, 0), (7, 0), (3, 0), (9, 6), (1, 6), (6, 6), (4, 6)], dram_bank_to_logical_worker_noc1 = [(9, 0), (0, 0), (7, 0), (3, 0), (9, 6), (1, 6), (6, 6), (4, 6)]}, {arch = <blackhole>, grid = 10x12, coord_translation_offsets = 2x1, l1_size = 1572864, num_dram_channels = 8, dram_channel_size = 4278190080, noc_l1_address_align_bytes = 16, pcie_address_align_bytes = 64, noc_dram_address_align_bytes = 64, l1_unreserved_base = 111104, erisc_l1_unreserved_base = 87872, dram_unreserved_base = 4800064, dram_unreserved_end = 4276245760, supported_data_types = [<f32>, <f16>, <bf16>, <bfp_f8>, <bfp_bf8>, <bfp_f4>, <bfp_bf4>, <bfp_f2>, <bfp_bf2>, <u32>, <u16>, <u8>, <si32>], supported_tile_sizes = [ 4x16,  16x16,  32x16,  4x32,  16x32,  32x32], dst_physical_size_tiles = 16, num_cbs = 64, num_compute_threads = 1, num_datamovement_threads = 2, dram_grid = 1x8, dram_bank_to_logical_worker_noc0 = [(9, 0), (0, 0), (7, 0), (3, 0), (9, 7), (1, 7), (6, 7), (4, 7)], dram_bank_to_logical_worker_noc1 = [(9, 0), (0, 0), (7, 0), (3, 0), (9, 7), (1, 7), (6, 7), (4, 7)]}], [0, 1, 2, 3, 4, 5, 6, 7, 8, 9, 10, 11, 12, 13, 14, 15, 16, 17, 18, 19, 20, 21, 22, 23, 24, 25, 26, 27, 28, 29, 30, 31, 32, 33, 34, 35, 36, 37, 38, 39, 40, 41, 42, 43, 44, 45, 46, 47, 48, 49, 50, 51, 52, 53, 54, 55, 56, 57, 58, 59, 60, 61, 62, 63], [1 : i32, 1 : i32, 1 : i32, 1 : i32, 1 : i32, 1 : i32, 1 : i32, 1 : i32, 1 : i32, 1 : i32, 1 : i32, 1 : i32, 1 : i32, 1 : i32, 1 : i32, 1 : i32, 1 : i32, 1 : i32, 1 : i32, 1 : i32, 1 : i32, 1 : i32, 1 : i32, 1 : i32, 1 : i32, 1 : i32, 1 : i32, 1 : i32, 1 : i32, 1 : i32, 1 : i32, 1 : i32, 1 : i32, 1 : i32, 1 : i32, 1 : i32, 1 : i32, 1 : i32, 1 : i32, 1 : i32, 1 : i32, 1 : i32, 1 : i32, 1 : i32, 1 : i32, 1 : i32, 1 : i32, 1 : i32, 1 : i32, 1 : i32, 1 : i32, 1 : i32, 1 : i32, 1 : i32, 1 : i32, 1 : i32, 1 : i32, 1 : i32, 1 : i32, 1 : i32, 1 : i32, 1 : i32, 1 : i32, 1 : i32], [ 0x0x0x0], [<[0, 0, 0], [8, 0, 0]>, <[0, 1, 0], [8, 1, 0]>, <[0, 2, 0], [24, 2, 0]>, <[0, 3, 0], [24, 3, 0]>, <[0, 4, 0], [1, 2, 0]>, <[0, 5, 0], [1, 3, 0]>, <[0, 6, 0], [4, 0, 0]>, <[0, 7, 0], [4, 1, 0]>, <[1, 0, 0], [9, 0, 0]>, <[1, 1, 0], [9, 1, 0]>, <[1, 4, 0], [2, 2, 0]>, <[1, 5, 0], [2, 3, 0]>, <[1, 6, 0], [5, 0, 0]>, <[1, 7, 0], [5, 1, 0]>, <[2, 0, 0], [26, 0, 0]>, <[2, 1, 0], [26, 1, 0]>, <[2, 4, 0], [3, 2, 0]>, <[2, 5, 0], [3, 3, 0]>, <[2, 6, 0], [6, 0, 0]>, <[2, 7, 0], [6, 1, 0]>, <[2, 8, 0], [10, 8, 0]>, <[2, 9, 0], [10, 9, 0]>, <[3, 4, 0], [27, 4, 0]>, <[3, 5, 0], [27, 5, 0]>, <[3, 6, 0], [7, 0, 0]>, <[3, 7, 0], [7, 1, 0]>, <[3, 8, 0], [11, 8, 0]>, <[3, 9, 0], [11, 9, 0]>, <[4, 2, 0], [28, 2, 0]>, <[4, 3, 0], [28, 3, 0]>, <[4, 4, 0], [5, 2, 0]>, <[4, 5, 0], [5, 3, 0]>, <[4, 6, 0], [12, 6, 0]>, <[4, 7, 0], [12, 7, 0]>, <[5, 4, 0], [6, 2, 0]>, <[5, 5, 0], [6, 3, 0]>, <[5, 6, 0], [13, 6, 0]>, <[5, 7, 0], [13, 7, 0]>, <[6, 4, 0], [7, 2, 0]>, <[6, 5, 0], [7, 3, 0]>, <[6, 6, 0], [14, 6, 0]>, <[6, 7, 0], [14, 7, 0]>, <[6, 8, 0], [30, 8, 0]>, <[6, 9, 0], [30, 9, 0]>, <[7, 4, 0], [31, 4, 0]>, <[7, 5, 0], [31, 5, 0]>, <[7, 6, 0], [15, 6, 0]>, <[7, 7, 0], [15, 7, 0]>, <[7, 8, 0], [31, 8, 0]>, <[7, 9, 0], [31, 9, 0]>, <[8, 2, 0], [16, 2, 0]>, <[8, 3, 0], [16, 3, 0]>, <[8, 4, 0], [9, 2, 0]>, <[8, 5, 0], [9, 3, 0]>, <[8, 6, 0], [12, 0, 0]>, <[8, 7, 0], [12, 1, 0]>, <[9, 4, 0], [10, 2, 0]>, <[9, 5, 0], [10, 3, 0]>, <[9, 6, 0], [13, 0, 0]>, <[9, 7, 0], [13, 1, 0]>, <[10, 0, 0], [18, 0, 0]>, <[10, 1, 0], [18, 1, 0]>, <[10, 4, 0], [11, 2, 0]>, <[10, 5, 0], [11, 3, 0]>, <[10, 6, 0], [14, 0, 0]>, <[10, 7, 0], [14, 1, 0]>, <[11, 4, 0], [19, 4, 0]>, <[11, 5, 0], [19, 5, 0]>, <[11, 6, 0], [15, 0, 0]>, <[11, 7, 0], [15, 1, 0]>, <[12, 2, 0], [20, 2, 0]>, <[12, 3, 0], [20, 3, 0]>, <[12, 4, 0], [13, 2, 0]>, <[12, 5, 0], [13, 3, 0]>, <[13, 4, 0], [14, 2, 0]>, <[13, 5, 0], [14, 3, 0]>, <[14, 4, 0], [15, 2, 0]>, <[14, 5, 0], [15, 3, 0]>, <[14, 8, 0], [22, 8, 0]>, <[14, 9, 0], [22, 9, 0]>, <[15, 4, 0], [23, 4, 0]>, <[15, 5, 0], [23, 5, 0]>, <[15, 8, 0], [23, 8, 0]>, <[15, 9, 0], [23, 9, 0]>, <[16, 0, 0], [24, 0, 0]>, <[16, 1, 0], [24, 1, 0]>, <[16, 4, 0], [17, 2, 0]>, <[16, 5, 0], [17, 3, 0]>, <[16, 6, 0], [20, 0, 0]>, <[16, 7, 0], [20, 1, 0]>, <[17, 0, 0], [25, 0, 0]>, <[17, 1, 0], [25, 1, 0]>, <[17, 4, 0], [18, 2, 0]>, <[17, 5, 0], [18, 3, 0]>, <[17, 6, 0], [21, 0, 0]>, <[17, 7, 0], [21, 1, 0]>, <[18, 4, 0], [19, 2, 0]>, <[18, 5, 0], [19, 3, 0]>, <[18, 6, 0], [22, 0, 0]>, <[18, 7, 0], [22, 1, 0]>, <[18, 8, 0], [26, 8, 0]>, <[18, 9, 0], [26, 9, 0]>, <[19, 6, 0], [23, 0, 0]>, <[19, 7, 0], [23, 1, 0]>, <[19, 8, 0], [27, 8, 0]>, <[19, 9, 0], [27, 9, 0]>, <[20, 4, 0], [21, 2, 0]>, <[20, 5, 0], [21, 3, 0]>, <[20, 6, 0], [28, 6, 0]>, <[20, 7, 0], [28, 7, 0]>, <[21, 4, 0], [22, 2, 0]>, <[21, 5, 0], [22, 3, 0]>, <[21, 6, 0], [29, 6, 0]>, <[21, 7, 0], [29, 7, 0]>, <[22, 4, 0], [23, 2, 0]>, <[22, 5, 0], [23, 3, 0]>, <[22, 6, 0], [30, 6, 0]>, <[22, 7, 0], [30, 7, 0]>, <[23, 6, 0], [31, 6, 0]>, <[23, 7, 0], [31, 7, 0]>, <[24, 4, 0], [25, 2, 0]>, <[24, 5, 0], [25, 3, 0]>, <[24, 6, 0], [28, 0, 0]>, <[24, 7, 0], [28, 1, 0]>, <[25, 4, 0], [26, 2, 0]>, <[25, 5, 0], [26, 3, 0]>, <[25, 6, 0], [29, 0, 0]>, <[25, 7, 0], [29, 1, 0]>, <[26, 4, 0], [27, 2, 0]>, <[26, 5, 0], [27, 3, 0]>, <[26, 6, 0], [30, 0, 0]>, <[26, 7, 0], [30, 1, 0]>, <[27, 6, 0], [31, 0, 0]>, <[27, 7, 0], [31, 1, 0]>, <[28, 4, 0], [29, 2, 0]>, <[28, 5, 0], [29, 3, 0]>, <[29, 4, 0], [30, 2, 0]>, <[29, 5, 0], [30, 3, 0]>, <[30, 4, 0], [31, 2, 0]>, <[30, 5, 0], [31, 3, 0]>]>
#system_memory = #ttnn.buffer_type<system_memory>
#ttnn_layout = #ttnn.ttnn_layout<(d0, d1) -> (d0, d1), <1x1>, memref<5120x224x!ttcore.tile<32x32, bf16>, #dram>, <interleaved>>
#ttnn_layout1 = #ttnn.ttnn_layout<(d0, d1) -> (d0, d1), <1x1>, memref<163840x448xbf16, #dram>, <interleaved>>
#ttnn_layout2 = #ttnn.ttnn_layout<(d0, d1) -> (d0, d1), <1x1>, memref<5120x14x!ttcore.tile<32x32, bf16>, #dram>, <interleaved>>
#ttnn_layout3 = #ttnn.ttnn_layout<(d0, d1) -> (d0, d1), <1x1>, memref<224x256x!ttcore.tile<32x32, bf16>, #dram>, <interleaved>>
#ttnn_layout4 = #ttnn.ttnn_layout<(d0, d1) -> (d0, d1), <1x1>, memref<224x16x!ttcore.tile<32x32, bfp_bf8>, #dram>, <interleaved>>
#ttnn_layout5 = #ttnn.ttnn_layout<(d0, d1) -> (d0, d1), <1x1>, memref<224x16x!ttcore.tile<32x32, bf16>, #dram>, <interleaved>>
#ttnn_layout6 = #ttnn.ttnn_layout<(d0) -> (0, d0), <1x1>, memref<1x224x!ttcore.tile<32x32, bf16>, #dram>, <interleaved>>
#ttnn_layout7 = #ttnn.ttnn_layout<(d0) -> (0, d0), <1x1>, memref<1x14x!ttcore.tile<32x32, bf16>, #dram>, <interleaved>>
#ttnn_layout8 = #ttnn.ttnn_layout<(d0) -> (0, d0), <1x1>, memref<1x12x!ttcore.tile<32x32, bf16>, #dram>, <interleaved>>
#ttnn_layout9 = #ttnn.ttnn_layout<(d0, d1) -> (d0, d1), <1x1>, memref<1x12x!ttcore.tile<32x32, f32>, #dram>, <interleaved>>
#ttnn_layout10 = #ttnn.ttnn_layout<(d0, d1) -> (d0, d1), <1x1>, memref<1x12x!ttcore.tile<32x32, bf16>, #dram>, <interleaved>>
#ttnn_layout11 = #ttnn.ttnn_layout<(d0) -> (0, d0), <1x1>, memref<1x1x!ttcore.tile<32x32, f32>, #dram>, <interleaved>>
#ttnn_layout12 = #ttnn.ttnn_layout<(d0, d1) -> (d0, d1), <1x1>, memref<48x224x!ttcore.tile<32x32, bf16>, #dram>, <interleaved>>
#ttnn_layout13 = #ttnn.ttnn_layout<(d0, d1) -> (d0, d1), <1x1>, memref<48x14x!ttcore.tile<32x32, bfp_bf8>, #dram>, <interleaved>>
#ttnn_layout14 = #ttnn.ttnn_layout<(d0, d1) -> (d0, d1), <1x1>, memref<48x14x!ttcore.tile<32x32, bf16>, #dram>, <interleaved>>
#ttnn_layout15 = #ttnn.ttnn_layout<(d0, d1) -> (d0, d1), <1x1>, memref<1x1x!ttcore.tile<32x32, si32>, #dram>, <interleaved>>
#ttnn_layout16 = #ttnn.ttnn_layout<(d0, d1) -> (d0, d1), <1x1>, memref<384x48x!ttcore.tile<32x32, bf16>, #dram>, <interleaved>>
#ttnn_layout17 = #ttnn.ttnn_layout<(d0, d1) -> (d0, d1), <1x1>, memref<24x48x!ttcore.tile<32x32, bfp_bf8>, #dram>, <interleaved>>
#ttnn_layout18 = #ttnn.ttnn_layout<(d0, d1) -> (d0, d1), <1x1>, memref<24x48x!ttcore.tile<32x32, bf16>, #dram>, <interleaved>>
#ttnn_layout19 = #ttnn.ttnn_layout<(d0) -> (0, d0), <1x1>, memref<1x16xf32, #dram>, <interleaved>>
#ttnn_layout20 = #ttnn.ttnn_layout<(d0, d1) -> (d0, d1), <1x1>, memref<1x1x!ttcore.tile<32x32, f32>, #dram>, <interleaved>>
#ttnn_layout21 = #ttnn.ttnn_layout<(d0, d1) -> (d0, d1), <1x1>, memref<18x224x!ttcore.tile<32x32, bf16>, #dram>, <interleaved>>
#ttnn_layout22 = #ttnn.ttnn_layout<(d0, d1) -> (d0, d1), <1x1>, memref<18x14x!ttcore.tile<32x32, bfp_bf8>, #dram>, <interleaved>>
#ttnn_layout23 = #ttnn.ttnn_layout<(d0, d1) -> (d0, d1), <1x1>, memref<18x14x!ttcore.tile<32x32, bf16>, #dram>, <interleaved>>
#ttnn_layout24 = #ttnn.ttnn_layout<(d0, d1, d2) -> (d0 * 7168 + d1, d2), <1x1>, memref<86016x64x!ttcore.tile<32x32, bf16>, #dram>, <interleaved>>
#ttnn_layout25 = #ttnn.ttnn_layout<(d0, d1, d2, d3) -> (d0 * 43008 + d1 * 7168 + d2, d3), <1x1>, memref<1344x64x!ttcore.tile<32x32, bfp_bf8>, #dram>, <interleaved>>
#ttnn_layout26 = #ttnn.ttnn_layout<(d0, d1, d2) -> (d0 * 7168 + d1, d2), <1x1>, memref<1344x64x!ttcore.tile<32x32, bf16>, #dram>, <interleaved>>
#ttnn_layout27 = #ttnn.ttnn_layout<(d0, d1, d2, d3) -> (d0 * 43008 + d1 * 7168 + d2, d3), <1x1>, memref<1344x64x!ttcore.tile<32x32, bf16>, #dram>, <interleaved>>
#ttnn_layout28 = #ttnn.ttnn_layout<(d0, d1, d2, d3) -> (d0 * 32 + d1 * 32 + d2, d3), <1x1>, memref<1x4x!ttcore.tile<32x32, si32>, #dram>, <interleaved>>
#ttnn_layout29 = #ttnn.ttnn_layout<(d0, d1, d2) -> (d0 * 2048 + d1, d2), <1x1>, memref<24576x224x!ttcore.tile<32x32, bf16>, #dram>, <interleaved>>
#ttnn_layout30 = #ttnn.ttnn_layout<(d0, d1, d2, d3) -> (d0 * 12288 + d1 * 2048 + d2, d3), <1x1>, memref<384x224x!ttcore.tile<32x32, bfp_bf8>, #dram>, <interleaved>>
#ttnn_layout31 = #ttnn.ttnn_layout<(d0, d1, d2) -> (d0 * 2048 + d1, d2), <1x1>, memref<384x224x!ttcore.tile<32x32, bf16>, #dram>, <interleaved>>
#ttnn_layout32 = #ttnn.ttnn_layout<(d0, d1, d2, d3) -> (d0 * 12288 + d1 * 2048 + d2, d3), <1x1>, memref<384x224x!ttcore.tile<32x32, bf16>, #dram>, <interleaved>>
#ttnn_layout33 = #ttnn.ttnn_layout<(d0, d1, d2, d3) -> (d0 * 32 + d1 * 32 + d2, d3), <1x1>, memref<1x1x!ttcore.tile<32x32, bf16>, #dram>, <interleaved>>
#ttnn_layout34 = #ttnn.ttnn_layout<(d0, d1) -> (d0, d1), <1x1>, memref<64x224x!ttcore.tile<32x32, bf16>, #dram>, <interleaved>>
#ttnn_layout35 = #ttnn.ttnn_layout<(d0, d1) -> (d0, d1), <1x1>, memref<64x14x!ttcore.tile<32x32, bfp_bf8>, #dram>, <interleaved>>
#ttnn_layout36 = #ttnn.ttnn_layout<(d0, d1) -> (d0, d1), <1x1>, memref<64x14x!ttcore.tile<32x32, bf16>, #dram>, <interleaved>>
#ttnn_layout37 = #ttnn.ttnn_layout<(d0, d1) -> (d0, d1), <1x1>, memref<1280x14x!ttcore.tile<32x32, bfp_bf8>, #dram>, <interleaved>>
#ttnn_layout38 = #ttnn.ttnn_layout<(d0, d1) -> (d0, d1), <1x1>, memref<1280x14x!ttcore.tile<32x32, bf16>, #dram>, <interleaved>>
#ttnn_layout39 = #ttnn.ttnn_layout<(d0, d1) -> (d0, d1), <1x1>, memref<576x224x!ttcore.tile<32x32, bf16>, #dram>, <interleaved>>
#ttnn_layout40 = #ttnn.ttnn_layout<(d0, d1) -> (d0, d1), <1x1>, memref<144x14x!ttcore.tile<32x32, bfp_bf8>, #dram>, <interleaved>>
#ttnn_layout41 = #ttnn.ttnn_layout<(d0, d1) -> (d0, d1), <1x1>, memref<144x14x!ttcore.tile<32x32, bf16>, #dram>, <interleaved>>
#ttnn_layout42 = #ttnn.ttnn_layout<(d0, d1, d2) -> (d0 * 32 + d1, d2), <1x1>, memref<4x1x!ttcore.tile<32x32, si32>, #dram>, <interleaved>>
#ttnn_layout43 = #ttnn.ttnn_layout<(d0) -> (0, d0), <1x1>, memref<1x1x!ttcore.tile<32x32, si32>, #dram>, <interleaved>>
#ttnn_layout44 = #ttnn.ttnn_layout<(d0, d1) -> (d0, d1), <1x1>, memref<1x1x!ttcore.tile<32x32, bf16>, #dram>, <interleaved>>
#ttnn_layout45 = #ttnn.ttnn_layout<(d0, d1) -> (d0, d1), <1x1>, memref<12x224x!ttcore.tile<32x32, bf16>, #dram>, <interleaved>>
#ttnn_layout46 = #ttnn.ttnn_layout<(d0, d1) -> (d0, d1), <1x1>, memref<12x14x!ttcore.tile<32x32, bfp_bf8>, #dram>, <interleaved>>
#ttnn_layout47 = #ttnn.ttnn_layout<(d0, d1) -> (d0, d1), <1x1>, memref<12x14x!ttcore.tile<32x32, bf16>, #dram>, <interleaved>>
#ttnn_layout48 = #ttnn.ttnn_layout<(d0, d1) -> (d0, d1), <1x1>, memref<12x14x!ttcore.tile<32x32, f32>, #dram>, <interleaved>>
#ttnn_layout49 = #ttnn.ttnn_layout<(d0, d1) -> (d0, d1), <1x1>, memref<512x16x!ttcore.tile<32x32, bf16>, #dram>, <interleaved>>
#ttnn_layout50 = #ttnn.ttnn_layout<(d0, d1) -> (d0, d1), <1x1>, memref<32x16x!ttcore.tile<32x32, bfp_bf8>, #dram>, <interleaved>>
#ttnn_layout51 = #ttnn.ttnn_layout<(d0, d1) -> (d0, d1), <1x1>, memref<32x16x!ttcore.tile<32x32, bf16>, #dram>, <interleaved>>
#ttnn_layout52 = #ttnn.ttnn_layout<(d0, d1, d2) -> (d0 * 32 + d1, d2), <1x1>, memref<4x1x!ttcore.tile<32x32, u32>, #dram>, <interleaved>>
#ttnn_layout53 = #ttnn.ttnn_layout<(d0) -> (0, d0), <1x1>, memref<1x1x!ttcore.tile<32x32, u32>, #dram>, <interleaved>>
#ttnn_layout54 = #ttnn.ttnn_layout<(d0, d1, d2) -> (d0 * 32 + d1, d2), <1x1>, memref<1x1x!ttcore.tile<32x32, f32>, #dram>, <interleaved>>
#ttnn_layout55 = #ttnn.ttnn_layout<(d0, d1, d2) -> (d0 * 32 + d1, d2), <1x1>, memref<4x1x!ttcore.tile<32x32, bf16>, #dram>, <interleaved>>
#ttnn_layout56 = #ttnn.ttnn_layout<(d0, d1) -> (d0, d1), <1x1>, memref<224x576x!ttcore.tile<32x32, bf16>, #dram>, <interleaved>>
#ttnn_layout57 = #ttnn.ttnn_layout<(d0, d1) -> (d0, d1), <1x1>, memref<14x144x!ttcore.tile<32x32, bfp_bf8>, #dram>, <interleaved>>
#ttnn_layout58 = #ttnn.ttnn_layout<(d0, d1) -> (d0, d1), <1x1>, memref<14x144x!ttcore.tile<32x32, bf16>, #dram>, <interleaved>>
#ttnn_layout59 = #ttnn.ttnn_layout<(d0, d1, d2) -> (d0 * 32 + d1, d2), <1x1>, memref<1x12x!ttcore.tile<32x32, si32>, #dram>, <interleaved>>
#ttnn_layout60 = #ttnn.ttnn_layout<(d0, d1, d2, d3) -> (d0 * 384 + d1 * 384 + d2, d3), <1x1>, memref<12x2x!ttcore.tile<32x32, si32>, #dram>, <interleaved>>
#ttnn_layout61 = #ttnn.ttnn_layout<(d0, d1, d2, d3) -> (d0 * 384 + d1 * 384 + d2, d3), <1x1>, memref<384x64xui16, #dram>, <interleaved>>
#ttnn_layout62 = #ttnn.ttnn_layout<(d0, d1, d2, d3) -> (d0 * 384 + d1 * 384 + d2, d3), <1x1>, memref<12x2x!ttcore.tile<32x32, u16>, #dram>, <interleaved>>
#ttnn_layout63 = #ttnn.ttnn_layout<(d0, d1, d2, d3) -> (d0 * 384 + d1 * 384 + d2, d3), <1x1>, memref<12x2x!ttcore.tile<32x32, u16>, #system_memory>>
#ttnn_layout64 = #ttnn.ttnn_layout<(d0, d1, d2, d3) -> (d0 * 384 + d1 * 384 + d2, d3), <1x1>, memref<384x64xui16, #system_memory>>
#ttnn_layout65 = #ttnn.ttnn_layout<(d0, d1) -> (d0, d1), <1x1>, memref<4x2x!ttcore.tile<32x32, bf16>, #dram>, <interleaved>>
#ttnn_layout66 = #ttnn.ttnn_layout<(d0, d1) -> (d0, d1), <1x1>, memref<128x64xbf16, #dram>, <interleaved>>
#ttnn_layout67 = #ttnn.ttnn_layout<(d0, d1) -> (d0, d1), <1x1>, memref<4x1x!ttcore.tile<32x32, f32>, #dram>, <interleaved>>
#ttnn_layout68 = #ttnn.ttnn_layout<(d0, d1) -> (d0, d1), <1x1>, memref<4x2x!ttcore.tile<32x32, f32>, #dram>, <interleaved>>
#ttnn_layout69 = #ttnn.ttnn_layout<(d0, d1) -> (d0, d1), <1x1>, memref<224x64x!ttcore.tile<32x32, bf16>, #dram>, <interleaved>>
#ttnn_layout70 = #ttnn.ttnn_layout<(d0, d1) -> (d0, d1), <1x1>, memref<14x64x!ttcore.tile<32x32, bfp_bf8>, #dram>, <interleaved>>
#ttnn_layout71 = #ttnn.ttnn_layout<(d0, d1) -> (d0, d1), <1x1>, memref<14x64x!ttcore.tile<32x32, bf16>, #dram>, <interleaved>>
#ttnn_layout72 = #ttnn.ttnn_layout<(d0) -> (0, d0), <1x1>, memref<1x1xsi32, #dram>, <interleaved>>
#ttnn_layout73 = #ttnn.ttnn_layout<(d0, d1, d2, d3) -> (d0 * 128 + d1 * 128 + d2, d3), <1x1>, memref<64x16x!ttcore.tile<32x32, bf16>, #dram>, <interleaved>>
#ttnn_layout74 = #ttnn.ttnn_layout<(d0, d1, d2, d3) -> (d0 * 128 + d1 * 128 + d2, d3), <1x1>, memref<64x2x!ttcore.tile<32x32, bf16>, #dram>, <interleaved>>
#ttnn_layout75 = #ttnn.ttnn_layout<(d0) -> (0, d0), <1x1>, memref<1x16x!ttcore.tile<32x32, bf16>, #dram>, <interleaved>>
#ttnn_layout76 = #ttnn.ttnn_layout<(d0) -> (0, d0), <1x1>, memref<1x48x!ttcore.tile<32x32, bf16>, #dram>, <interleaved>>
#ttnn_layout77 = #ttnn.ttnn_layout<(d0, d1, d2) -> (d0 * 32 + d1, d2), <1x1>, memref<16x5120x!ttcore.tile<32x32, f32>, #dram>, <interleaved>>
#ttnn_layout78 = #ttnn.ttnn_layout<(d0, d1, d2, d3) -> (d0 * 128 + d1 * 128 + d2, d3), <1x1>, memref<16x16x!ttcore.tile<32x32, bf16>, #dram>, <interleaved>>
#ttnn_layout79 = #ttnn.ttnn_layout<(d0, d1, d2, d3) -> (d0 * 128 + d1 * 128 + d2, d3), <1x1>, memref<16x2x!ttcore.tile<32x32, bf16>, #dram>, <interleaved>>
#ttnn_layout80 = #ttnn.ttnn_layout<(d0, d1) -> (d0, d1), <1x1>, memref<1x1x!ttcore.tile<32x32, u32>, #dram>, <interleaved>>
#ttnn_layout81 = #ttnn.ttnn_layout<(d0) -> (0, d0), <1x1>, memref<1x4xui32, #dram>, <interleaved>>
#ttnn_layout82 = #ttnn.ttnn_layout<(d0, d1) -> (d0, d1), <1x1>, memref<1x14x!ttcore.tile<32x32, bf16>, #dram>, <interleaved>>
#ttnn_layout83 = #ttnn.ttnn_layout<(d0, d1) -> (d0, d1), <1x1>, memref<1x48x!ttcore.tile<32x32, bf16>, #dram>, <interleaved>>
#ttnn_layout84 = #ttnn.ttnn_layout<(d0, d1, d2, d3) -> (d0 * 32 + d1 * 32 + d2, d3), <1x1>, memref<1x48x!ttcore.tile<32x32, bf16>, #dram>, <interleaved>>
#ttnn_layout85 = #ttnn.ttnn_layout<(d0, d1, d2, d3) -> (d0 * 32 + d1 * 32 + d2, d3), <1x1>, memref<1x3x!ttcore.tile<32x32, bf16>, #dram>, <interleaved>>
#ttnn_layout86 = #ttnn.ttnn_layout<(d0, d1) -> (d0, d1), <1x1>, memref<1x3x!ttcore.tile<32x32, bf16>, #dram>, <interleaved>>
#ttnn_layout87 = #ttnn.ttnn_layout<(d0, d1) -> (d0, d1), <1x1>, memref<1x24x!ttcore.tile<32x32, bf16>, #dram>, <interleaved>>
#ttnn_layout88 = #ttnn.ttnn_layout<(d0, d1, d2, d3) -> (d0 * 128 + d1 * 32 + d2, d3), <1x1>, memref<16x6x!ttcore.tile<32x32, bf16>, #dram>, <interleaved>>
#ttnn_layout89 = #ttnn.ttnn_layout<(d0, d1, d2, d3) -> (d0 * 128 + d1 * 32 + d2, d3), <1x1>, memref<16x4x!ttcore.tile<32x32, bf16>, #dram>, <interleaved>>
#ttnn_layout90 = #ttnn.ttnn_layout<(d0, d1, d2, d3) -> (d0 * 128 + d1 * 32 + d2, d3), <1x1>, memref<16x2x!ttcore.tile<32x32, bf16>, #dram>, <interleaved>>
#ttnn_layout91 = #ttnn.ttnn_layout<(d0, d1, d2, d3, d4) -> (d0 * 128 + d1 * 32 + d2 * 32 + d3, d4), <1x1>, memref<16x1x!ttcore.tile<32x32, bf16>, #dram>, <interleaved>>
#ttnn_layout92 = #ttnn.ttnn_layout<(d0, d1) -> (d0, d1), <1x1>, memref<1x1xui32, #dram>, <interleaved>>
#ttnn_layout93 = #ttnn.ttnn_layout<(d0, d1, d2) -> (d0 * 32 + d1, d2), <1x1>, memref<1x2x!ttcore.tile<32x32, bf16>, #dram>, <interleaved>>
#ttnn_layout94 = #ttnn.ttnn_layout<(d0, d1, d2, d3) -> (d0 * 32 + d1 * 32 + d2, d3), <1x1>, memref<1x2x!ttcore.tile<32x32, bf16>, #dram>, <interleaved>>
#ttnn_layout95 = #ttnn.ttnn_layout<(d0, d1, d2, d3) -> (d0 * 128 + d1 * 32 + d2, d3), <1x1>, memref<16x1x!ttcore.tile<32x32, bf16>, #dram>, <interleaved>>
#ttnn_layout96 = #ttnn.ttnn_layout<(d0, d1) -> (d0, d1), <1x1>, memref<1x18x!ttcore.tile<32x32, bf16>, #dram>, <interleaved>>
#ttnn_layout97 = #ttnn.ttnn_layout<(d0, d1, d2) -> (d0 * 32 + d1, d2), <1x1>, memref<1x18x!ttcore.tile<32x32, bf16>, #dram>, <interleaved>>
#ttnn_layout98 = #ttnn.ttnn_layout<(d0, d1, d2) -> (d0 * 32 + d1, d2), <1x1>, memref<16x18x!ttcore.tile<32x32, bf16>, #dram>, <interleaved>>
#ttnn_layout99 = #ttnn.ttnn_layout<(d0, d1) -> (d0, d1), <1x1>, memref<1x16x!ttcore.tile<32x32, bf16>, #dram>, <interleaved>>
#ttnn_layout100 = #ttnn.ttnn_layout<(d0, d1, d2, d3) -> (d0 * 128 + d1 * 32 + d2, d3), <1x1>, memref<4x16x!ttcore.tile<32x32, bf16>, #dram>, <interleaved>>
#ttnn_layout101 = #ttnn.ttnn_layout<(d0, d1, d2, d3) -> (d0 * 128 + d1 * 32 + d2, d3), <4x1>, memref<1x16x!ttcore.tile<32x32, bf16>, #l1>, <height_sharded>, core_ranges = <[#ttnn.core_range<(0,0), (3,0)>]>>
#ttnn_layout102 = #ttnn.ttnn_layout<(d0) -> (0, d0), <1x1>, memref<1x4xsi32, #dram>, <interleaved>>
#ttnn_layout103 = #ttnn.ttnn_layout<(d0, d1) -> (d0, d1), <1x1>, memref<16x16x!ttcore.tile<32x32, bf16>, #dram>, <interleaved>>
#ttnn_layout104 = #ttnn.ttnn_layout<(d0, d1) -> (d0, d1), <1x1>, memref<16x32x!ttcore.tile<32x32, bf16>, #dram>, <interleaved>>
#ttnn_layout105 = #ttnn.ttnn_layout<(d0, d1, d2, d3) -> (d0 * 4096 + d1 * 32 + d2, d3), <1x1>, memref<512x8x!ttcore.tile<32x32, bf16>, #dram>, <interleaved>>
#ttnn_layout106 = #ttnn.ttnn_layout<(d0, d1, d2, d3) -> (d0 * 512 + d1 * 128 + d2, d3), <1x1>, memref<64x8x!ttcore.tile<32x32, bf16>, #dram>, <interleaved>>
#ttnn_layout107 = #ttnn.ttnn_layout<(d0, d1, d2, d3) -> (d0 * 512 + d1 * 128 + d2, d3), <1x1>, memref<64x4x!ttcore.tile<32x32, bf16>, #dram>, <interleaved>>
#ttnn_layout108 = #ttnn.ttnn_layout<(d0, d1) -> (d0, d1), <1x1>, memref<1x2x!ttcore.tile<32x32, bf16>, #dram>, <interleaved>>
#ttnn_layout109 = #ttnn.ttnn_layout<(d0, d1, d2, d3, d4) -> (d0 * 32 + d1 * 32 + d2 * 32 + d3, d4), <1x1>, memref<4x1x!ttcore.tile<32x32, bf16>, #dram>, <interleaved>>
#ttnn_layout110 = #ttnn.ttnn_layout<(d0, d1, d2, d3) -> (d0 * 32 + d1 * 32 + d2, d3), <1x1>, memref<4x2x!ttcore.tile<32x32, bf16>, #dram>, <interleaved>>
#ttnn_layout111 = #ttnn.ttnn_layout<(d0, d1, d2, d3) -> (d0 * 128 + d1 * 32 + d2, d3), <1x1>, memref<4x2x!ttcore.tile<32x32, bf16>, #dram>, <interleaved>>
#ttnn_layout112 = #ttnn.ttnn_layout<(d0, d1, d2, d3) -> (d0 * 32 + d1 * 32 + d2, d3), <1x1>, memref<4x1x!ttcore.tile<32x32, bf16>, #dram>, <interleaved>>
#ttnn_layout113 = #ttnn.ttnn_layout<(d0, d1, d2, d3) -> (d0 * 128 + d1 * 32 + d2, d3), <4x1>, memref<1x2x!ttcore.tile<32x32, bf16>, #l1>, <height_sharded>, core_ranges = <[#ttnn.core_range<(0,0), (3,0)>]>>
#ttnn_layout114 = #ttnn.ttnn_layout<(d0, d1, d2, d3) -> (d0 * 512 + d1 * 128 + d2, d3), <1x1>, memref<64x2x!ttcore.tile<32x32, bf16>, #dram>, <interleaved>>
#ttnn_layout115 = #ttnn.ttnn_layout<(d0, d1, d2, d3) -> (d0 * 512 + d1 * 128 + d2, d3), <1x1>, memref<64x6x!ttcore.tile<32x32, bf16>, #dram>, <interleaved>>
#ttnn_layout116 = #ttnn.ttnn_layout<(d0, d1, d2, d3) -> (d0 * 32 + d1 * 32 + d2, d3), <1x1>, memref<1x1x!ttcore.tile<32x32, si32>, #dram>, <interleaved>>
#ttnn_layout117 = #ttnn.ttnn_layout<(d0, d1, d2, d3) -> (d0 * 32 + d1 * 32 + d2, d3), <1x1>, memref<1x4x!ttcore.tile<32x32, bf16>, #dram>, <interleaved>>
#ttnn_layout118 = #ttnn.ttnn_layout<(d0, d1, d2, d3) -> (d0 * 128 + d1 * 32 + d2, d3), <1x1>, memref<16x4x!ttcore.tile<32x32, f32>, #dram>, <interleaved>>
#ttnn_layout119 = #ttnn.ttnn_layout<(d0, d1) -> (d0, d1), <1x1>, memref<1x224x!ttcore.tile<32x32, bf16>, #dram>, <interleaved>>
#ttnn_layout120 = #ttnn.ttnn_layout<(d0, d1, d2, d3) -> (d0 * 32 + d1 * 32 + d2, d3), <1x1>, memref<1x224x!ttcore.tile<32x32, bf16>, #dram>, <interleaved>>
#ttnn_layout121 = #ttnn.ttnn_layout<(d0, d1, d2, d3) -> (d0 * 32 + d1 * 32 + d2, d3), <1x1>, memref<1x14x!ttcore.tile<32x32, bf16>, #dram>, <interleaved>>
#ttnn_layout122 = #ttnn.ttnn_layout<(d0, d1) -> (d0, d1), <1x1>, memref<1x144x!ttcore.tile<32x32, bf16>, #dram>, <interleaved>>
#ttnn_layout123 = #ttnn.ttnn_layout<(d0, d1, d2, d3) -> (d0 * 32 + d1 * 32 + d2, d3), <1x1>, memref<1x144x!ttcore.tile<32x32, bf16>, #dram>, <interleaved>>
#ttnn_layout124 = #ttnn.ttnn_layout<(d0, d1, d2, d3) -> (d0 * 32 + d1 * 32 + d2, d3), <1x1>, memref<1x9x!ttcore.tile<32x32, bf16>, #dram>, <interleaved>>
#ttnn_layout125 = #ttnn.ttnn_layout<(d0, d1) -> (d0, d1), <1x1>, memref<1x9x!ttcore.tile<32x32, bf16>, #dram>, <interleaved>>
#ttnn_layout126 = #ttnn.ttnn_layout<(d0, d1, d2) -> (d0 * 32 + d1, d2), <1x1>, memref<4x14x!ttcore.tile<32x32, bf16>, #dram>, <interleaved>>
#ttnn_layout127 = #ttnn.ttnn_layout<(d0, d1) -> (d0, d1), <1x1>, memref<1x14x!ttcore.tile<32x32, f32>, #dram>, <interleaved>>
#ttnn_layout128 = #ttnn.ttnn_layout<(d0, d1, d2) -> (d0 * 32 + d1, d2), <1x1>, memref<1x12x!ttcore.tile<32x32, f32>, #dram>, <interleaved>>
#ttnn_layout129 = #ttnn.ttnn_layout<(d0, d1, d2) -> (d0 * 32 + d1, d2), <1x1>, memref<16x12x!ttcore.tile<32x32, f32>, #dram>, <interleaved>>
#ttnn_layout130 = #ttnn.ttnn_layout<(d0, d1, d2) -> (d0 * 32 + d1, d2), <1x1>, memref<4x12x!ttcore.tile<32x32, f32>, #dram>, <interleaved>>
#ttnn_layout131 = #ttnn.ttnn_layout<(d0, d1, d2) -> (d0 * 32 + d1, d2), <1x1>, memref<4x12x!ttcore.tile<32x32, bf16>, #dram>, <interleaved>>
#ttnn_layout132 = #ttnn.ttnn_layout<(d0, d1, d2) -> (d0 * 32 + d1, d2), <1x1>, memref<4x1x!ttcore.tile<32x32, u16>, #dram>, <interleaved>>
#ttnn_layout133 = #ttnn.ttnn_layout<(d0, d1, d2) -> (d0 * 32 + d1, d2), <1x1>, memref<4x1x!ttcore.tile<32x32, f32>, #dram>, <interleaved>>
#ttnn_layout134 = #ttnn.ttnn_layout<(d0, d1) -> (d0, d1), <1x1>, memref<1x1x!ttcore.tile<32x32, u16>, #dram>, <interleaved>>
#ttnn_layout135 = #ttnn.ttnn_layout<(d0, d1, d2) -> (d0 * 32 + d1, d2), <1x1>, memref<16x1x!ttcore.tile<32x32, si32>, #dram>, <interleaved>>
#ttnn_layout136 = #ttnn.ttnn_layout<(d0) -> (0, d0), <1x1>, memref<1x16xsi32, #dram>, <interleaved>>
#ttnn_layout137 = #ttnn.ttnn_layout<(d0, d1) -> (d0, d1), <1x1>, memref<16x1xf32, #dram>, <interleaved>>
#ttnn_layout138 = #ttnn.ttnn_layout<(d0, d1) -> (d0, d1), <1x1>, memref<4x1xf32, #dram>, <interleaved>>
#ttnn_layout139 = #ttnn.ttnn_layout<(d0, d1) -> (d0, d1), <1x1>, memref<192x1x!ttcore.tile<32x32, f32>, #dram>, <interleaved>>
#ttnn_layout140 = #ttnn.ttnn_layout<(d0) -> (0, d0), <1x1>, memref<1x32xui32, #dram>, <interleaved>>
#ttnn_layout141 = #ttnn.ttnn_layout<(d0, d1) -> (d0, d1), <1x1>, memref<192x1x!ttcore.tile<32x32, bf16>, #dram>, <interleaved>>
#ttnn_layout142 = #ttnn.ttnn_layout<(d0, d1) -> (d0, d1), <1x1>, memref<6144x1xbf16, #dram>, <interleaved>>
#ttnn_layout143 = #ttnn.ttnn_layout<(d0, d1, d2, d3) -> (d0 * 32 + d1 * 32 + d2, d3), <1x1>, memref<1x12x!ttcore.tile<32x32, f32>, #dram>, <interleaved>>
#ttnn_layout144 = #ttnn.ttnn_layout<(d0, d1, d2, d3) -> (d0 * 128 + d1 * 128 + d2, d3), <1x1>, memref<4x12x!ttcore.tile<32x32, f32>, #dram>, <interleaved>>
#ttnn_layout145 = #ttnn.ttnn_layout<(d0, d1, d2) -> (d0 * 32 + d1, d2), <1x1>, memref<16x14x!ttcore.tile<32x32, bf16>, #dram>, <interleaved>>
#ttnn_layout146 = #ttnn.ttnn_layout<(d0, d1, d2) -> (d0 * 32 + d1, d2), <1x1>, memref<32x14x!ttcore.tile<32x32, bf16>, #dram>, <interleaved>>
#ttnn_layout147 = #ttnn.ttnn_layout<(d0, d1, d2, d3) -> (d0 * 32 + d1 * 32 + d2, d3), <1x1>, memref<32x14x!ttcore.tile<32x32, bf16>, #dram>, <interleaved>>
#ttnn_layout148 = #ttnn.ttnn_layout<(d0, d1, d2, d3) -> (d0 * 32 + d1 * 32 + d2, d3), <1x1>, memref<32x1x!ttcore.tile<32x32, si32>, #dram>, <interleaved>>
#ttnn_layout149 = #ttnn.ttnn_layout<(d0, d1, d2, d3) -> (d0 * 32 + d1 * 32 + d2, d3), <1x1>, memref<32x224x!ttcore.tile<32x32, bf16>, #dram>, <interleaved>>
#ttnn_layout150 = #ttnn.ttnn_layout<(d0, d1, d2, d3) -> (d0 + d1 + d2, d3), <1x1>, memref<32x7168xbf16, #dram>, <interleaved>>
#ttnn_layout151 = #ttnn.ttnn_layout<(d0, d1, d2, d3) -> (d0 * 32 + d1 * 32 + d2, d3), <1x1>, memref<32x1x!ttcore.tile<32x32, u16>, #dram>, <interleaved>>
#ttnn_layout152 = #ttnn.ttnn_layout<(d0, d1, d2, d3) -> (d0 * 32 + d1 * 32 + d2, d3), <1x1>, memref<32x1x!ttcore.tile<32x32, u16>, #system_memory>>
#ttnn_layout153 = #ttnn.ttnn_layout<(d0, d1, d2, d3) -> (d0 + d1 + d2, d3), <1x1>, memref<32x8xui16, #system_memory>>
#ttnn_layout154 = #ttnn.ttnn_layout<(d0, d1, d2, d3) -> (d0 + d1 + d2, d3), <1x1>, memref<32x8xui16, #dram>, <interleaved>>
#ttnn_layout155 = #ttnn.ttnn_layout<(d0, d1, d2, d3) -> (d0 * 128 + d1 + d2, d3), <1x1>, memref<128x7168xbf16, #dram>, <interleaved>>
#ttnn_layout156 = #ttnn.ttnn_layout<(d0, d1, d2, d3) -> (d0 * 128 + d1 + d2, d3), <1x1>, memref<128x8xui16, #dram>, <interleaved>>
#ttnn_layout157 = #ttnn.ttnn_layout<(d0, d1, d2, d3) -> (d0 * 4096 + d1 * 32 + d2, d3), <1x1>, memref<128x1x!ttcore.tile<32x32, u16>, #dram>, <interleaved>>
#ttnn_layout158 = #ttnn.ttnn_layout<(d0, d1, d2, d3) -> (d0 * 4096 + d1 * 32 + d2, d3), <1x1>, memref<128x1x!ttcore.tile<32x32, si32>, #dram>, <interleaved>>
#ttnn_layout159 = #ttnn.ttnn_layout<(d0, d1, d2, d3) -> (d0 * 4096 + d1 * 32 + d2, d3), <1x1>, memref<128x224x!ttcore.tile<32x32, bf16>, #dram>, <interleaved>>
#ttnn_layout160 = #ttnn.ttnn_layout<(d0, d1, d2, d3) -> (d0 * 128 + d1 * 128 + d2, d3), <1x1>, memref<4x1x!ttcore.tile<32x32, si32>, #dram>, <interleaved>>
#ttnn_layout161 = #ttnn.ttnn_layout<(d0, d1, d2, d3) -> (d0 * 128 + d1 * 128 + d2, d3), <1x1>, memref<4x12x!ttcore.tile<32x32, bf16>, #dram>, <interleaved>>
#ttnn_layout162 = #ttnn.ttnn_layout<(d0, d1, d2, d3) -> (d0 * 128 + d1 * 128 + d2, d3), <1x1>, memref<128x384xbf16, #dram>, <interleaved>>
#ttnn_layout163 = #ttnn.ttnn_layout<(d0, d1, d2, d3) -> (d0 * 128 + d1 * 128 + d2, d3), <1x1>, memref<4x1x!ttcore.tile<32x32, u16>, #dram>, <interleaved>>
#ttnn_layout164 = #ttnn.ttnn_layout<(d0, d1, d2, d3) -> (d0 * 128 + d1 * 128 + d2, d3), <1x1>, memref<4x1x!ttcore.tile<32x32, u16>, #system_memory>>
#ttnn_layout165 = #ttnn.ttnn_layout<(d0, d1, d2, d3) -> (d0 * 128 + d1 * 128 + d2, d3), <1x1>, memref<128x8xui16, #system_memory>>
#ttnn_layout166 = #ttnn.ttnn_layout<(d0, d1, d2, d3) -> (d0 * 128 + d1 * 128 + d2, d3), <1x1>, memref<128x8xui16, #dram>, <interleaved>>
#ttnn_layout167 = #ttnn.ttnn_layout<(d0, d1, d2, d3) -> (d0 * 128 + d1 * 128 + d2, d3), <1x1>, memref<128x6xbf16, #dram>, <interleaved>>
#ttnn_layout168 = #ttnn.ttnn_layout<(d0, d1, d2, d3) -> (d0 * 4 + d1 * 4 + d2, d3), <1x1>, memref<4x6xui16, #dram>, <interleaved>>
#ttnn_layout169 = #ttnn.ttnn_layout<(d0, d1, d2, d3) -> (d0 * 32 + d1 * 32 + d2, d3), <1x1>, memref<1x1x!ttcore.tile<32x32, u16>, #dram>, <interleaved>>
#ttnn_layout170 = #ttnn.ttnn_layout<(d0, d1, d2, d3) -> (d0 * 32 + d1 * 32 + d2, d3), <1x1>, memref<1x1x!ttcore.tile<32x32, f32>, #dram>, <interleaved>>
#ttnn_layout171 = #ttnn.ttnn_layout<(d0, d1, d2, d3) -> (d0 * 32 + d1 * 32 + d2, d3), <1x1>, memref<4x224x!ttcore.tile<32x32, bf16>, #dram>, <interleaved>>
#ttnn_layout172 = #ttnn.ttnn_layout<(d0, d1, d2, d3) -> (d0 * 32 + d1 * 32 + d2, d3), <1x1>, memref<4x1x!ttcore.tile<32x32, f32>, #dram>, <interleaved>>
#ttnn_layout173 = #ttnn.ttnn_layout<(d0, d1, d2, d3) -> (d0 + d1 + d2, d3), <1x1>, memref<4x6xbf16, #dram>, <interleaved>>
#ttnn_layout174 = #ttnn.ttnn_layout<(d0, d1, d2, d3, d4, d5) -> (d0 * 192 + d1 * 192 + d2 * 192 + d3 * 32 + d4, d5), <1x1>, memref<24x64x!ttcore.tile<32x32, bf16>, #dram>, <interleaved>>
#ttnn_layout175 = #ttnn.ttnn_layout<(d0, d1, d2, d3) -> (d0 * 192 + d1 * 32 + d2, d3), <1x1>, memref<24x64x!ttcore.tile<32x32, bf16>, #dram>, <interleaved>>
#ttnn_layout176 = #ttnn.ttnn_layout<(d0, d1, d2, d3) -> (d0 * 4 + d1 * 4 + d2, d3), <1x1>, memref<4x6xui16, #system_memory>>
#ttnn_layout177 = #ttnn.ttnn_layout<(d0, d1, d2, d3) -> (d0 * 4 + d1 * 4 + d2, d3), <1x1>, memref<4x6xbf16, #system_memory>>
#ttnn_layout178 = #ttnn.ttnn_layout<(d0, d1, d2, d3) -> (d0 * 4 + d1 * 4 + d2, d3), <1x1>, memref<4x6xbf16, #dram>, <interleaved>>
#ttnn_layout179 = #ttnn.ttnn_layout<(d0, d1, d2, d3) -> (d0 * 192 + d1 * 32 + d2, d3), <1x1>, memref<24x224x!ttcore.tile<32x32, bf16>, #dram>, <interleaved>>
#ttnn_layout180 = #ttnn.ttnn_layout<(d0, d1, d2, d3) -> (d0 * 128 + d1 * 32 + d2, d3), <1x1>, memref<24x224x!ttcore.tile<32x32, bf16>, #dram>, <interleaved>>
#ttnn_layout181 = #ttnn.ttnn_layout<(d0, d1, d2, d3) -> (d0 * 128 + d1 * 128 + d2, d3), <1x1>, memref<24x224x!ttcore.tile<32x32, bf16>, #dram>, <interleaved>>
#ttnn_layout182 = #ttnn.ttnn_layout<(d0, d1, d2, d3) -> (d0 * 128 + d1 * 128 + d2, d3), <1x1>, memref<768x7168xbf16, #dram>, <interleaved>>
#ttnn_layout183 = #ttnn.ttnn_layout<(d0, d1, d2, d3) -> (d0 * 32 + d1 * 32 + d2, d3), <1x1>, memref<256x7168xbf16, #dram>, <interleaved>>
#ttnn_layout184 = #ttnn.ttnn_layout<(d0, d1, d2, d3) -> (d0 * 32 + d1 * 32 + d2, d3), <1x1>, memref<8x224x!ttcore.tile<32x32, bf16>, #dram>, <interleaved>>
#ttnn_layout185 = #ttnn.ttnn_layout<(d0, d1, d2, d3) -> (d0 * 32 + d1 * 32 + d2, d3), <1x1>, memref<8x14x!ttcore.tile<32x32, bf16>, #dram>, <interleaved>>
#ttnn_layout186 = #ttnn.ttnn_layout<(d0, d1, d2, d3) -> (d0 * 32 + d1 * 32 + d2, d3), <1x1>, memref<256x448xbf16, #dram>, <interleaved>>
#ttnn_layout187 = #ttnn.ttnn_layout<(d0, d1, d2, d3) -> (d0 * 32 + d1 * 32 + d2, d3), <1x1>, memref<8x14x!ttcore.tile<32x32, f32>, #dram>, <interleaved>>
#ttnn_layout188 = #ttnn.ttnn_layout<(d0, d1, d2) -> (d0 * 32 + d1, d2), <1x1>, memref<32x1x!ttcore.tile<32x32, si32>, #dram>, <interleaved>>
#ttnn_layout189 = #ttnn.ttnn_layout<(d0, d1, d2) -> (d0 * 32 + d1, d2), <1x1>, memref<32x12x!ttcore.tile<32x32, bf16>, #dram>, <interleaved>>
#ttnn_layout190 = #ttnn.ttnn_layout<(d0, d1, d2) -> (d0 * 32 + d1, d2), <1x1>, memref<32x12x!ttcore.tile<32x32, f32>, #dram>, <interleaved>>
#ttnn_layout191 = #ttnn.ttnn_layout<(d0, d1, d2) -> (d0 * 384 + d1, d2), <1x1>, memref<384x1x!ttcore.tile<32x32, f32>, #dram>, <interleaved>>
#ttnn_layout192 = #ttnn.ttnn_layout<(d0, d1, d2) -> (d0 * 32 + d1, d2), <1x1>, memref<32x1x!ttcore.tile<32x32, f32>, #dram>, <interleaved>>
#ttnn_layout193 = #ttnn.ttnn_layout<(d0, d1, d2, d3) -> (d0 * 32 + d1 * 32 + d2, d3), <1x1>, memref<8x1x!ttcore.tile<32x32, f32>, #dram>, <interleaved>>
#ttnn_layout194 = #ttnn.ttnn_layout<(d0, d1, d2) -> (d0 * 32 + d1, d2), <1x1>, memref<1x14x!ttcore.tile<32x32, f32>, #dram>, <interleaved>>
#ttnn_layout195 = #ttnn.ttnn_layout<(d0, d1, d2) -> (d0 * 32 + d1, d2), <1x1>, memref<32x14x!ttcore.tile<32x32, f32>, #dram>, <interleaved>>
#ttnn_layout196 = #ttnn.ttnn_layout<(d0, d1, d2) -> (d0 * 32 + d1, d2), <1x1>, memref<16x14x!ttcore.tile<32x32, f32>, #dram>, <interleaved>>
#ttnn_layout197 = #ttnn.ttnn_layout<(d0, d1, d2, d3) -> (d0 * 128 + d1 * 32 + d2, d3), <1x1>, memref<16x14x!ttcore.tile<32x32, f32>, #dram>, <interleaved>>
#ttnn_layout198 = #ttnn.ttnn_layout<(d0, d1, d2, d3) -> (d0 * 128 + d1 * 32 + d2, d3), <1x1>, memref<4x14x!ttcore.tile<32x32, f32>, #dram>, <interleaved>>
#ttnn_layout199 = #ttnn.ttnn_layout<(d0, d1, d2, d3) -> (d0 * 128 + d1 * 32 + d2, d3), <1x1>, memref<4x14x!ttcore.tile<32x32, bf16>, #dram>, <interleaved>>
#ttnn_layout200 = #ttnn.ttnn_layout<(d0, d1) -> (d0, d1), <1x1>, memref<1x64x!ttcore.tile<32x32, bf16>, #dram>, <interleaved>>
#ttnn_layout201 = #ttnn.ttnn_layout<(d0, d1, d2, d3) -> (d0 * 32 + d1 * 32 + d2, d3), <1x1>, memref<1x64x!ttcore.tile<32x32, bf16>, #dram>, <interleaved>>
#ttnn_layout202 = #ttnn.ttnn_layout<(d0, d1) -> (d0, d1), <1x1>, memref<1x4x!ttcore.tile<32x32, bf16>, #dram>, <interleaved>>
#ttnn_layout203 = #ttnn.ttnn_layout<(d0, d1) -> (d0, d1), <1x1>, memref<1x1280x!ttcore.tile<32x32, bf16>, #dram>, <interleaved>>
#ttnn_layout204 = #ttnn.ttnn_layout<(d0, d1, d2, d3) -> (d0 * 32 + d1 * 32 + d2, d3), <1x1>, memref<1x1280x!ttcore.tile<32x32, bf16>, #dram>, <interleaved>>
#ttnn_layout205 = #ttnn.ttnn_layout<(d0, d1, d2, d3) -> (d0 * 32 + d1 * 32 + d2, d3), <1x1>, memref<1x80x!ttcore.tile<32x32, bf16>, #dram>, <interleaved>>
#ttnn_layout206 = #ttnn.ttnn_layout<(d0, d1) -> (d0, d1), <1x1>, memref<1x80x!ttcore.tile<32x32, bf16>, #dram>, <interleaved>>
#ttnn_layout207 = #ttnn.ttnn_layout<(d0, d1) -> (d0, d1), <1x1>, memref<1x1280x!ttcore.tile<32x32, f32>, #dram>, <interleaved>>
#ttnn_layout208 = #ttnn.ttnn_layout<(d0, d1, d2) -> (d0 * 32 + d1, d2), <1x1>, memref<16x1280x!ttcore.tile<32x32, f32>, #dram>, <interleaved>>
module @SyncTensorsGraph.1295 attributes {mhlo.cross_program_prefetches = [], mhlo.input_output_alias = [], mhlo.is_dynamic = false, mhlo.use_auto_spmd_partitioning = false, ttcore.meshes = #ttcore.meshes<[<"mesh" = 4x16>]>} {
  ttcore.device_module {
    builtin.module @SyncTensorsGraph.1295 attributes {mhlo.cross_program_prefetches = [], mhlo.input_output_alias = [], mhlo.is_dynamic = false, mhlo.use_auto_spmd_partitioning = false, ttcore.meshes = #ttcore.meshes<[<"mesh" = 4x16>]>, ttcore.system_desc = #system_desc} {
      ttcore.device @default_device = <workerGrid = #ttcore.grid<10x12, virt_to_physical_map = (d0, d1) -> (0, d0, d1), physical_to_virt_map = (d0, d1, d2) -> (d1, d2)>, dramGrid = #ttcore.grid<1x8>, l1Map = (d0, d1, d2)[s0] -> (0, d0, d1, d2 + s0), dramMap = (d0, d1, d2)[s0, s1, s2, s3, s4, s5, s6] -> (0, 0, (((d0 * s1) * (s2 * (s3 * s6)) + d1 * (s2 * (s3 * s6)) + d2) floordiv s4) mod 8, ((((d0 * s1) * (s2 * (s3 * s6)) + d1 * (s2 * (s3 * s6)) + d2) floordiv s4) floordiv 8) * s4 + ((d0 * s1) * (s2 * (s3 * s6)) + d1 * (s2 * (s3 * s6)) + d2) mod s4 + s5), meshShape = 4x16, chipIds = [0, 1, 2, 3, 4, 5, 6, 7, 8, 9, 10, 11, 12, 13, 14, 15, 16, 17, 18, 19, 20, 21, 22, 23, 24, 25, 26, 27, 28, 29, 30, 31, 32, 33, 34, 35, 36, 37, 38, 39, 40, 41, 42, 43, 44, 45, 46, 47, 48, 49, 50, 51, 52, 53, 54, 55, 56, 57, 58, 59, 60, 61, 62, 63]> loc(#loc)
      func.func private @main_const_eval_0(%arg0: tensor<163840x7168xbf16, #ttnn_layout> loc(unknown)) -> tensor<163840x448xbf16, #ttnn_layout1> attributes {tt.function_type = "const_eval"} {
        %0 = "ttnn.get_device"() <{mesh_offset = #ttnn<mesh_offset 0x0>, mesh_shape = #ttnn<mesh_shape 4x16>}> : () -> !ttnn.device loc(#loc)
        %1 = "ttnn.mesh_shard"(%arg0, %0) <{shard_dims = array<i64: -1, 1>, shard_direction = #ttcore.shard_direction<full_to_shard>, shard_shape = array<i64: 1, 16>, shard_type = #ttcore.shard_type<identity>}> : (tensor<163840x7168xbf16, #ttnn_layout>, !ttnn.device) -> tensor<163840x448xbf16, #ttnn_layout2> loc(#loc)
        %2 = "ttnn.to_layout"(%1) <{layout = #ttnn.layout<row_major>}> : (tensor<163840x448xbf16, #ttnn_layout2>) -> tensor<163840x448xbf16, #ttnn_layout1> loc(#loc250)
        return %2 : tensor<163840x448xbf16, #ttnn_layout1> loc(#loc)
      } loc(#loc)
      func.func private @main_const_eval_1(%arg0: tensor<7168x8192xbf16, #ttnn_layout3> loc(unknown)) -> tensor<7168x512x!ttcore.tile<32x32, bfp_bf8>, #ttnn_layout4> attributes {tt.function_type = "const_eval"} {
        %0 = "ttnn.get_device"() <{mesh_offset = #ttnn<mesh_offset 0x0>, mesh_shape = #ttnn<mesh_shape 4x16>}> : () -> !ttnn.device loc(#loc)
        %1 = "ttnn.mesh_shard"(%arg0, %0) <{shard_dims = array<i64: -1, 1>, shard_direction = #ttcore.shard_direction<full_to_shard>, shard_shape = array<i64: 1, 16>, shard_type = #ttcore.shard_type<identity>}> : (tensor<7168x8192xbf16, #ttnn_layout3>, !ttnn.device) -> tensor<7168x512xbf16, #ttnn_layout5> loc(#loc)
        %2 = "ttnn.typecast"(%1) <{dtype = #ttcore.supportedDataTypes<bfp_bf8>}> : (tensor<7168x512xbf16, #ttnn_layout5>) -> tensor<7168x512x!ttcore.tile<32x32, bfp_bf8>, #ttnn_layout4> loc(#loc2)
        return %2 : tensor<7168x512x!ttcore.tile<32x32, bfp_bf8>, #ttnn_layout4> loc(#loc)
      } loc(#loc)
      func.func private @main_const_eval_2(%arg0: tensor<7168xbf16, #ttnn_layout6> loc(unknown)) -> tensor<448xbf16, #ttnn_layout7> attributes {tt.function_type = "const_eval"} {
        %0 = "ttnn.get_device"() <{mesh_offset = #ttnn<mesh_offset 0x0>, mesh_shape = #ttnn<mesh_shape 4x16>}> : () -> !ttnn.device loc(#loc)
        %1 = "ttnn.mesh_shard"(%arg0, %0) <{shard_dims = array<i64: -1, 0>, shard_direction = #ttcore.shard_direction<full_to_shard>, shard_shape = array<i64: 16>, shard_type = #ttcore.shard_type<identity>}> : (tensor<7168xbf16, #ttnn_layout6>, !ttnn.device) -> tensor<448xbf16, #ttnn_layout7> loc(#loc)
        return %1 : tensor<448xbf16, #ttnn_layout7> loc(#loc)
      } loc(#loc)
      func.func private @main_const_eval_3(%arg0: tensor<384xbf16, #ttnn_layout8> loc(unknown)) -> tensor<1x384xf32, #ttnn_layout9> attributes {tt.function_type = "const_eval"} {
        %0 = "ttnn.reshape"(%arg0) <{shape = [1 : i32, 384 : i32]}> : (tensor<384xbf16, #ttnn_layout8>) -> tensor<1x384xbf16, #ttnn_layout10> loc(#loc251)
        %1 = "ttnn.typecast"(%0) <{dtype = #ttcore.supportedDataTypes<f32>}> : (tensor<1x384xbf16, #ttnn_layout10>) -> tensor<1x384xf32, #ttnn_layout9> loc(#loc5)
        "ttnn.deallocate"(%0) <{force = false}> : (tensor<1x384xbf16, #ttnn_layout10>) -> () loc(#loc5)
        return %1 : tensor<1x384xf32, #ttnn_layout9> loc(#loc)
      } loc(#loc)
      func.func private @main_const_eval_4() -> tensor<32xf32, #ttnn_layout11> attributes {tt.function_type = "const_eval"} {
        %0 = "ttnn.get_device"() <{mesh_offset = #ttnn<mesh_offset 0x0>, mesh_shape = #ttnn<mesh_shape 4x16>}> : () -> !ttnn.device loc(#loc)
        %1 = "ttnn.constant"(%0) <{dtype = #ttcore.supportedDataTypes<f32>, layout = #ttnn.layout<tile>, memory_config = #ttnn.memory_config<#dram, <interleaved>>, value = dense<[… > : tensor<32xf32>}> : (!ttnn.device) -> tensor<32xf32, #ttnn_layout11> loc(#loc6)
        return %1 : tensor<32xf32, #ttnn_layout11> loc(#loc)
      } loc(#loc)
      func.func private @main_const_eval_5(%arg0: tensor<1536x7168xbf16, #ttnn_layout12> loc(unknown)) -> tensor<1536x448x!ttcore.tile<32x32, bfp_bf8>, #ttnn_layout13> attributes {tt.function_type = "const_eval"} {
        %0 = "ttnn.get_device"() <{mesh_offset = #ttnn<mesh_offset 0x0>, mesh_shape = #ttnn<mesh_shape 4x16>}> : () -> !ttnn.device loc(#loc)
        %1 = "ttnn.mesh_shard"(%arg0, %0) <{shard_dims = array<i64: -1, 1>, shard_direction = #ttcore.shard_direction<full_to_shard>, shard_shape = array<i64: 1, 16>, shard_type = #ttcore.shard_type<identity>}> : (tensor<1536x7168xbf16, #ttnn_layout12>, !ttnn.device) -> tensor<1536x448xbf16, #ttnn_layout14> loc(#loc)
        %2 = "ttnn.typecast"(%1) <{dtype = #ttcore.supportedDataTypes<bfp_bf8>}> : (tensor<1536x448xbf16, #ttnn_layout14>) -> tensor<1536x448x!ttcore.tile<32x32, bfp_bf8>, #ttnn_layout13> loc(#loc7)
        return %2 : tensor<1536x448x!ttcore.tile<32x32, bfp_bf8>, #ttnn_layout13> loc(#loc)
      } loc(#loc)
      func.func private @main_const_eval_6() -> tensor<1x1xsi32, #ttnn_layout15> attributes {tt.function_type = "const_eval"} {
        %0 = "ttnn.get_device"() <{mesh_offset = #ttnn<mesh_offset 0x0>, mesh_shape = #ttnn<mesh_shape 4x16>}> : () -> !ttnn.device loc(#loc)
        %1 = "ttnn.full"(%0) <{dtype = #ttcore.supportedDataTypes<si32>, fill_value = 128 : i32, layout = #ttnn.layout<tile>, shape = #ttnn.shape<1x1>}> : (!ttnn.device) -> tensor<1x1xsi32, #ttnn_layout15> loc(#loc)
        return %1 : tensor<1x1xsi32, #ttnn_layout15> loc(#loc)
      } loc(#loc)
      func.func private @main_const_eval_7(%arg0: tensor<12288x1536xbf16, #ttnn_layout16> loc(unknown)) -> tensor<768x1536x!ttcore.tile<32x32, bfp_bf8>, #ttnn_layout17> attributes {tt.function_type = "const_eval"} {
        %0 = "ttnn.get_device"() <{mesh_offset = #ttnn<mesh_offset 0x0>, mesh_shape = #ttnn<mesh_shape 4x16>}> : () -> !ttnn.device loc(#loc)
        %1 = "ttnn.mesh_shard"(%arg0, %0) <{shard_dims = array<i64: -1, 0>, shard_direction = #ttcore.shard_direction<full_to_shard>, shard_shape = array<i64: 16, 1>, shard_type = #ttcore.shard_type<identity>}> : (tensor<12288x1536xbf16, #ttnn_layout16>, !ttnn.device) -> tensor<768x1536xbf16, #ttnn_layout18> loc(#loc)
        %2 = "ttnn.typecast"(%1) <{dtype = #ttcore.supportedDataTypes<bfp_bf8>}> : (tensor<768x1536xbf16, #ttnn_layout18>) -> tensor<768x1536x!ttcore.tile<32x32, bfp_bf8>, #ttnn_layout17> loc(#loc8)
        return %2 : tensor<768x1536x!ttcore.tile<32x32, bfp_bf8>, #ttnn_layout17> loc(#loc)
      } loc(#loc)
      func.func private @main_const_eval_8() -> tensor<16xf32, #ttnn_layout19> attributes {tt.function_type = "const_eval"} {
        %0 = "ttnn.get_device"() <{mesh_offset = #ttnn<mesh_offset 0x0>, mesh_shape = #ttnn<mesh_shape 4x16>}> : () -> !ttnn.device loc(#loc)
        %1 = "ttnn.full"(%0) <{dtype = #ttcore.supportedDataTypes<f32>, fill_value = 0.000000e+00 : f32, layout = #ttnn.layout<tile>, shape = #ttnn.shape<4x1>}> : (!ttnn.device) -> tensor<4x1xf32, #ttnn_layout20> loc(#loc)
        %2 = "ttnn.all_gather"(%1) <{all_gather_dim = 0 : si32, cluster_axis = 0 : ui32}> : (tensor<4x1xf32, #ttnn_layout20>) -> tensor<16x1xf32, #ttnn_layout20> loc(#loc)
        "ttnn.deallocate"(%1) <{force = false}> : (tensor<4x1xf32, #ttnn_layout20>) -> () loc(#loc)
        %3 = "ttnn.reshape"(%2) <{shape = [16 : i32]}> : (tensor<16x1xf32, #ttnn_layout20>) -> tensor<16xf32, #ttnn_layout11> loc(#loc252)
        "ttnn.deallocate"(%2) <{force = false}> : (tensor<16x1xf32, #ttnn_layout20>) -> () loc(#loc252)
        %4 = "ttnn.to_layout"(%3) <{layout = #ttnn.layout<row_major>}> : (tensor<16xf32, #ttnn_layout11>) -> tensor<16xf32, #ttnn_layout19> loc(#loc253)
        "ttnn.deallocate"(%3) <{force = false}> : (tensor<16xf32, #ttnn_layout11>) -> () loc(#loc253)
        return %4 : tensor<16xf32, #ttnn_layout19> loc(#loc)
      } loc(#loc)
      func.func private @main_const_eval_9(%arg0: tensor<576x7168xbf16, #ttnn_layout21> loc(unknown)) -> tensor<576x448x!ttcore.tile<32x32, bfp_bf8>, #ttnn_layout22> attributes {tt.function_type = "const_eval"} {
        %0 = "ttnn.get_device"() <{mesh_offset = #ttnn<mesh_offset 0x0>, mesh_shape = #ttnn<mesh_shape 4x16>}> : () -> !ttnn.device loc(#loc)
        %1 = "ttnn.mesh_shard"(%arg0, %0) <{shard_dims = array<i64: -1, 1>, shard_direction = #ttcore.shard_direction<full_to_shard>, shard_shape = array<i64: 1, 16>, shard_type = #ttcore.shard_type<identity>}> : (tensor<576x7168xbf16, #ttnn_layout21>, !ttnn.device) -> tensor<576x448xbf16, #ttnn_layout23> loc(#loc)
        %2 = "ttnn.typecast"(%1) <{dtype = #ttcore.supportedDataTypes<bfp_bf8>}> : (tensor<576x448xbf16, #ttnn_layout23>) -> tensor<576x448x!ttcore.tile<32x32, bfp_bf8>, #ttnn_layout22> loc(#loc10)
        return %2 : tensor<576x448x!ttcore.tile<32x32, bfp_bf8>, #ttnn_layout22> loc(#loc)
      } loc(#loc)
      func.func private @main_const_eval_10(%arg0: tensor<7168xbf16, #ttnn_layout6> loc(unknown)) -> tensor<448xbf16, #ttnn_layout7> attributes {tt.function_type = "const_eval"} {
        %0 = "ttnn.get_device"() <{mesh_offset = #ttnn<mesh_offset 0x0>, mesh_shape = #ttnn<mesh_shape 4x16>}> : () -> !ttnn.device loc(#loc)
        %1 = "ttnn.mesh_shard"(%arg0, %0) <{shard_dims = array<i64: -1, 0>, shard_direction = #ttcore.shard_direction<full_to_shard>, shard_shape = array<i64: 16>, shard_type = #ttcore.shard_type<identity>}> : (tensor<7168xbf16, #ttnn_layout6>, !ttnn.device) -> tensor<448xbf16, #ttnn_layout7> loc(#loc)
        return %1 : tensor<448xbf16, #ttnn_layout7> loc(#loc)
      } loc(#loc)
      func.func private @main_const_eval_11() -> tensor<1x1xf32, #ttnn_layout20> attributes {tt.function_type = "const_eval"} {
        %0 = "ttnn.get_device"() <{mesh_offset = #ttnn<mesh_offset 0x0>, mesh_shape = #ttnn<mesh_shape 4x16>}> : () -> !ttnn.device loc(#loc)
        %1 = "ttnn.zeros"(%0) <{dtype = #ttcore.supportedDataTypes<f32>, layout = #ttnn.layout<tile>, memory_config = #ttnn.memory_config<#dram, <interleaved>>, shape = #ttnn.shape<1x1>}> : (!ttnn.device) -> tensor<1x1xf32, #ttnn_layout20> loc(#loc)
        return %1 : tensor<1x1xf32, #ttnn_layout20> loc(#loc)
      } loc(#loc)
      func.func private @main_const_eval_12(%arg0: tensor<384x7168x2048xbf16, #ttnn_layout24> loc(unknown)) -> tensor<1x6x7168x2048x!ttcore.tile<32x32, bfp_bf8>, #ttnn_layout25> attributes {tt.function_type = "const_eval"} {
        %0 = "ttnn.get_device"() <{mesh_offset = #ttnn<mesh_offset 0x0>, mesh_shape = #ttnn<mesh_shape 4x16>}> : () -> !ttnn.device loc(#loc)
        %1 = "ttnn.mesh_shard"(%arg0, %0) <{shard_dims = array<i64: 0, 0>, shard_direction = #ttcore.shard_direction<full_to_shard>, shard_shape = array<i64: 64, 1, 1>, shard_type = #ttcore.shard_type<identity>}> : (tensor<384x7168x2048xbf16, #ttnn_layout24>, !ttnn.device) -> tensor<6x7168x2048xbf16, #ttnn_layout26> loc(#loc)
        %2 = "ttnn.reshape"(%1) <{shape = [1 : i32, 6 : i32, 7168 : i32, 2048 : i32]}> : (tensor<6x7168x2048xbf16, #ttnn_layout26>) -> tensor<1x6x7168x2048xbf16, #ttnn_layout27> loc(#loc11)
        %3 = "ttnn.typecast"(%2) <{dtype = #ttcore.supportedDataTypes<bfp_bf8>}> : (tensor<1x6x7168x2048xbf16, #ttnn_layout27>) -> tensor<1x6x7168x2048x!ttcore.tile<32x32, bfp_bf8>, #ttnn_layout25> loc(#loc12)
        "ttnn.deallocate"(%2) <{force = false}> : (tensor<1x6x7168x2048xbf16, #ttnn_layout27>) -> () loc(#loc12)
        return %3 : tensor<1x6x7168x2048x!ttcore.tile<32x32, bfp_bf8>, #ttnn_layout25> loc(#loc)
      } loc(#loc)
      func.func private @main_const_eval_13() -> tensor<1x1x1x128xsi32, #ttnn_layout28> attributes {tt.function_type = "const_eval"} {
        %0 = "ttnn.get_device"() <{mesh_offset = #ttnn<mesh_offset 0x0>, mesh_shape = #ttnn<mesh_shape 4x16>}> : () -> !ttnn.device loc(#loc)
        %1 = "ttnn.constant"(%0) <{dtype = #ttcore.supportedDataTypes<si32>, layout = #ttnn.layout<tile>, memory_config = #ttnn.memory_config<#dram, <interleaved>>, value = dense<"…"> : tensor<1x1x1x128xsi32>}> : (!ttnn.device) -> tensor<1x1x1x128xsi32, #ttnn_layout28> loc(#loc359)
        return %1 : tensor<1x1x1x128xsi32, #ttnn_layout28> loc(#loc)
      } loc(#loc)
      func.func private @main_const_eval_14(%arg0: tensor<384x7168x2048xbf16, #ttnn_layout24> loc(unknown)) -> tensor<1x6x7168x2048x!ttcore.tile<32x32, bfp_bf8>, #ttnn_layout25> attributes {tt.function_type = "const_eval"} {
        %0 = "ttnn.get_device"() <{mesh_offset = #ttnn<mesh_offset 0x0>, mesh_shape = #ttnn<mesh_shape 4x16>}> : () -> !ttnn.device loc(#loc)
        %1 = "ttnn.mesh_shard"(%arg0, %0) <{shard_dims = array<i64: 0, 0>, shard_direction = #ttcore.shard_direction<full_to_shard>, shard_shape = array<i64: 64, 1, 1>, shard_type = #ttcore.shard_type<identity>}> : (tensor<384x7168x2048xbf16, #ttnn_layout24>, !ttnn.device) -> tensor<6x7168x2048xbf16, #ttnn_layout26> loc(#loc)
        %2 = "ttnn.reshape"(%1) <{shape = [1 : i32, 6 : i32, 7168 : i32, 2048 : i32]}> : (tensor<6x7168x2048xbf16, #ttnn_layout26>) -> tensor<1x6x7168x2048xbf16, #ttnn_layout27> loc(#loc14)
        %3 = "ttnn.typecast"(%2) <{dtype = #ttcore.supportedDataTypes<bfp_bf8>}> : (tensor<1x6x7168x2048xbf16, #ttnn_layout27>) -> tensor<1x6x7168x2048x!ttcore.tile<32x32, bfp_bf8>, #ttnn_layout25> loc(#loc15)
        "ttnn.deallocate"(%2) <{force = false}> : (tensor<1x6x7168x2048xbf16, #ttnn_layout27>) -> () loc(#loc15)
        return %3 : tensor<1x6x7168x2048x!ttcore.tile<32x32, bfp_bf8>, #ttnn_layout25> loc(#loc)
      } loc(#loc)
      func.func private @main_const_eval_15(%arg0: tensor<384x2048x7168xbf16, #ttnn_layout29> loc(unknown)) -> tensor<1x6x2048x7168x!ttcore.tile<32x32, bfp_bf8>, #ttnn_layout30> attributes {tt.function_type = "const_eval"} {
        %0 = "ttnn.get_device"() <{mesh_offset = #ttnn<mesh_offset 0x0>, mesh_shape = #ttnn<mesh_shape 4x16>}> : () -> !ttnn.device loc(#loc)
        %1 = "ttnn.mesh_shard"(%arg0, %0) <{shard_dims = array<i64: 0, 0>, shard_direction = #ttcore.shard_direction<full_to_shard>, shard_shape = array<i64: 64, 1, 1>, shard_type = #ttcore.shard_type<identity>}> : (tensor<384x2048x7168xbf16, #ttnn_layout29>, !ttnn.device) -> tensor<6x2048x7168xbf16, #ttnn_layout31> loc(#loc)
        %2 = "ttnn.reshape"(%1) <{shape = [1 : i32, 6 : i32, 2048 : i32, 7168 : i32]}> : (tensor<6x2048x7168xbf16, #ttnn_layout31>) -> tensor<1x6x2048x7168xbf16, #ttnn_layout32> loc(#loc16)
        %3 = "ttnn.typecast"(%2) <{dtype = #ttcore.supportedDataTypes<bfp_bf8>}> : (tensor<1x6x2048x7168xbf16, #ttnn_layout32>) -> tensor<1x6x2048x7168x!ttcore.tile<32x32, bfp_bf8>, #ttnn_layout30> loc(#loc17)
        "ttnn.deallocate"(%2) <{force = false}> : (tensor<1x6x2048x7168xbf16, #ttnn_layout32>) -> () loc(#loc17)
        return %3 : tensor<1x6x2048x7168x!ttcore.tile<32x32, bfp_bf8>, #ttnn_layout30> loc(#loc)
      } loc(#loc)
      func.func private @main_const_eval_16() -> tensor<1x1x1x1xbf16, #ttnn_layout33> attributes {tt.function_type = "const_eval"} {
        %0 = "ttnn.get_device"() <{mesh_offset = #ttnn<mesh_offset 0x0>, mesh_shape = #ttnn<mesh_shape 4x16>}> : () -> !ttnn.device loc(#loc)
        %1 = "ttnn.full"(%0) <{dtype = #ttcore.supportedDataTypes<bf16>, fill_value = -3.38953139E+38 : f32, layout = #ttnn.layout<tile>, shape = #ttnn.shape<1x1x1x1>}> : (!ttnn.device) -> tensor<1x1x1x1xbf16, #ttnn_layout33> loc(#loc255)
        return %1 : tensor<1x1x1x1xbf16, #ttnn_layout33> loc(#loc)
      } loc(#loc)
      func.func private @main_const_eval_17(%arg0: tensor<2048x7168xbf16, #ttnn_layout34> loc(unknown)) -> tensor<2048x448x!ttcore.tile<32x32, bfp_bf8>, #ttnn_layout35> attributes {tt.function_type = "const_eval"} {
        %0 = "ttnn.get_device"() <{mesh_offset = #ttnn<mesh_offset 0x0>, mesh_shape = #ttnn<mesh_shape 4x16>}> : () -> !ttnn.device loc(#loc)
        %1 = "ttnn.mesh_shard"(%arg0, %0) <{shard_dims = array<i64: -1, 1>, shard_direction = #ttcore.shard_direction<full_to_shard>, shard_shape = array<i64: 1, 16>, shard_type = #ttcore.shard_type<identity>}> : (tensor<2048x7168xbf16, #ttnn_layout34>, !ttnn.device) -> tensor<2048x448xbf16, #ttnn_layout36> loc(#loc)
        %2 = "ttnn.typecast"(%1) <{dtype = #ttcore.supportedDataTypes<bfp_bf8>}> : (tensor<2048x448xbf16, #ttnn_layout36>) -> tensor<2048x448x!ttcore.tile<32x32, bfp_bf8>, #ttnn_layout35> loc(#loc18)
        return %2 : tensor<2048x448x!ttcore.tile<32x32, bfp_bf8>, #ttnn_layout35> loc(#loc)
      } loc(#loc)
      func.func private @main_const_eval_18(%arg0: tensor<2048x7168xbf16, #ttnn_layout34> loc(unknown)) -> tensor<2048x448x!ttcore.tile<32x32, bfp_bf8>, #ttnn_layout35> attributes {tt.function_type = "const_eval"} {
        %0 = "ttnn.get_device"() <{mesh_offset = #ttnn<mesh_offset 0x0>, mesh_shape = #ttnn<mesh_shape 4x16>}> : () -> !ttnn.device loc(#loc)
        %1 = "ttnn.mesh_shard"(%arg0, %0) <{shard_dims = array<i64: -1, 1>, shard_direction = #ttcore.shard_direction<full_to_shard>, shard_shape = array<i64: 1, 16>, shard_type = #ttcore.shard_type<identity>}> : (tensor<2048x7168xbf16, #ttnn_layout34>, !ttnn.device) -> tensor<2048x448xbf16, #ttnn_layout36> loc(#loc)
        %2 = "ttnn.typecast"(%1) <{dtype = #ttcore.supportedDataTypes<bfp_bf8>}> : (tensor<2048x448xbf16, #ttnn_layout36>) -> tensor<2048x448x!ttcore.tile<32x32, bfp_bf8>, #ttnn_layout35> loc(#loc19)
        return %2 : tensor<2048x448x!ttcore.tile<32x32, bfp_bf8>, #ttnn_layout35> loc(#loc)
      } loc(#loc)
      func.func private @main_const_eval_19(%arg0: tensor<576x7168xbf16, #ttnn_layout21> loc(unknown)) -> tensor<576x448x!ttcore.tile<32x32, bfp_bf8>, #ttnn_layout22> attributes {tt.function_type = "const_eval"} {
        %0 = "ttnn.get_device"() <{mesh_offset = #ttnn<mesh_offset 0x0>, mesh_shape = #ttnn<mesh_shape 4x16>}> : () -> !ttnn.device loc(#loc)
        %1 = "ttnn.mesh_shard"(%arg0, %0) <{shard_dims = array<i64: -1, 1>, shard_direction = #ttcore.shard_direction<full_to_shard>, shard_shape = array<i64: 1, 16>, shard_type = #ttcore.shard_type<identity>}> : (tensor<576x7168xbf16, #ttnn_layout21>, !ttnn.device) -> tensor<576x448xbf16, #ttnn_layout23> loc(#loc)
        %2 = "ttnn.typecast"(%1) <{dtype = #ttcore.supportedDataTypes<bfp_bf8>}> : (tensor<576x448xbf16, #ttnn_layout23>) -> tensor<576x448x!ttcore.tile<32x32, bfp_bf8>, #ttnn_layout22> loc(#loc20)
        return %2 : tensor<576x448x!ttcore.tile<32x32, bfp_bf8>, #ttnn_layout22> loc(#loc)
      } loc(#loc)
      func.func private @main_const_eval_20(%arg0: tensor<7168xbf16, #ttnn_layout6> loc(unknown)) -> tensor<448xbf16, #ttnn_layout7> attributes {tt.function_type = "const_eval"} {
        %0 = "ttnn.get_device"() <{mesh_offset = #ttnn<mesh_offset 0x0>, mesh_shape = #ttnn<mesh_shape 4x16>}> : () -> !ttnn.device loc(#loc)
        %1 = "ttnn.mesh_shard"(%arg0, %0) <{shard_dims = array<i64: -1, 0>, shard_direction = #ttcore.shard_direction<full_to_shard>, shard_shape = array<i64: 16>, shard_type = #ttcore.shard_type<identity>}> : (tensor<7168xbf16, #ttnn_layout6>, !ttnn.device) -> tensor<448xbf16, #ttnn_layout7> loc(#loc)
        return %1 : tensor<448xbf16, #ttnn_layout7> loc(#loc)
      } loc(#loc)
      func.func private @main_const_eval_21(%arg0: tensor<163840x7168xbf16, #ttnn_layout> loc(unknown)) -> tensor<40960x448x!ttcore.tile<32x32, bfp_bf8>, #ttnn_layout37> attributes {tt.function_type = "const_eval"} {
        %0 = "ttnn.get_device"() <{mesh_offset = #ttnn<mesh_offset 0x0>, mesh_shape = #ttnn<mesh_shape 4x16>}> : () -> !ttnn.device loc(#loc)
        %1 = "ttnn.mesh_shard"(%arg0, %0) <{shard_dims = array<i64: 0, 1>, shard_direction = #ttcore.shard_direction<full_to_shard>, shard_shape = array<i64: 4, 16>, shard_type = #ttcore.shard_type<identity>}> : (tensor<163840x7168xbf16, #ttnn_layout>, !ttnn.device) -> tensor<40960x448xbf16, #ttnn_layout38> loc(#loc)
        %2 = "ttnn.typecast"(%1) <{dtype = #ttcore.supportedDataTypes<bfp_bf8>}> : (tensor<40960x448xbf16, #ttnn_layout38>) -> tensor<40960x448x!ttcore.tile<32x32, bfp_bf8>, #ttnn_layout37> loc(#loc21)
        return %2 : tensor<40960x448x!ttcore.tile<32x32, bfp_bf8>, #ttnn_layout37> loc(#loc)
      } loc(#loc)
      func.func private @main_const_eval_22() -> tensor<1x1xsi32, #ttnn_layout15> attributes {tt.function_type = "const_eval"} {
        %0 = "ttnn.get_device"() <{mesh_offset = #ttnn<mesh_offset 0x0>, mesh_shape = #ttnn<mesh_shape 4x16>}> : () -> !ttnn.device loc(#loc)
        %1 = "ttnn.full"(%0) <{dtype = #ttcore.supportedDataTypes<si32>, fill_value = 0 : i32, layout = #ttnn.layout<tile>, shape = #ttnn.shape<1x1>}> : (!ttnn.device) -> tensor<1x1xsi32, #ttnn_layout15> loc(#loc)
        return %1 : tensor<1x1xsi32, #ttnn_layout15> loc(#loc)
      } loc(#loc)
      func.func private @main_const_eval_23(%arg0: tensor<18432x7168xbf16, #ttnn_layout39> loc(unknown)) -> tensor<4608x448x!ttcore.tile<32x32, bfp_bf8>, #ttnn_layout40> attributes {tt.function_type = "const_eval"} {
        %0 = "ttnn.get_device"() <{mesh_offset = #ttnn<mesh_offset 0x0>, mesh_shape = #ttnn<mesh_shape 4x16>}> : () -> !ttnn.device loc(#loc)
        %1 = "ttnn.mesh_shard"(%arg0, %0) <{shard_dims = array<i64: 0, 1>, shard_direction = #ttcore.shard_direction<full_to_shard>, shard_shape = array<i64: 4, 16>, shard_type = #ttcore.shard_type<identity>}> : (tensor<18432x7168xbf16, #ttnn_layout39>, !ttnn.device) -> tensor<4608x448xbf16, #ttnn_layout41> loc(#loc)
        %2 = "ttnn.typecast"(%1) <{dtype = #ttcore.supportedDataTypes<bfp_bf8>}> : (tensor<4608x448xbf16, #ttnn_layout41>) -> tensor<4608x448x!ttcore.tile<32x32, bfp_bf8>, #ttnn_layout40> loc(#loc22)
        return %2 : tensor<4608x448x!ttcore.tile<32x32, bfp_bf8>, #ttnn_layout40> loc(#loc)
      } loc(#loc)
      func.func private @main_const_eval_24(%arg0: tensor<7168xbf16, #ttnn_layout6> loc(unknown)) -> tensor<448xbf16, #ttnn_layout7> attributes {tt.function_type = "const_eval"} {
        %0 = "ttnn.get_device"() <{mesh_offset = #ttnn<mesh_offset 0x0>, mesh_shape = #ttnn<mesh_shape 4x16>}> : () -> !ttnn.device loc(#loc)
        %1 = "ttnn.mesh_shard"(%arg0, %0) <{shard_dims = array<i64: -1, 0>, shard_direction = #ttcore.shard_direction<full_to_shard>, shard_shape = array<i64: 16>, shard_type = #ttcore.shard_type<identity>}> : (tensor<7168xbf16, #ttnn_layout6>, !ttnn.device) -> tensor<448xbf16, #ttnn_layout7> loc(#loc)
        return %1 : tensor<448xbf16, #ttnn_layout7> loc(#loc)
      } loc(#loc)
      func.func private @main_const_eval_25() -> tensor<4x1x1xsi32, #ttnn_layout42> attributes {tt.function_type = "const_eval"} {
        %0 = "ttnn.get_device"() <{mesh_offset = #ttnn<mesh_offset 0x0>, mesh_shape = #ttnn<mesh_shape 4x16>}> : () -> !ttnn.device loc(#loc)
        %1 = "ttnn.arange"(%0) <{dtype = #ttcore.supportedDataTypes<si32>, end = 4 : i64, layout = #ttnn.layout<tile>, memory_config = #ttnn.memory_config<#dram, <interleaved>>, start = 0 : i64, step = 1 : i64}> : (!ttnn.device) -> tensor<4xsi32, #ttnn_layout43> loc(#loc23)
        %2 = "ttnn.reshape"(%1) <{shape = [4 : i32, 1 : i32, 1 : i32]}> : (tensor<4xsi32, #ttnn_layout43>) -> tensor<4x1x1xsi32, #ttnn_layout42> loc(#loc23)
        "ttnn.deallocate"(%1) <{force = false}> : (tensor<4xsi32, #ttnn_layout43>) -> () loc(#loc23)
        return %2 : tensor<4x1x1xsi32, #ttnn_layout42> loc(#loc)
      } loc(#loc)
      func.func private @main_const_eval_26() -> tensor<4x1xbf16, #ttnn_layout44> attributes {tt.function_type = "const_eval"} {
        %0 = "ttnn.get_device"() <{mesh_offset = #ttnn<mesh_offset 0x0>, mesh_shape = #ttnn<mesh_shape 4x16>}> : () -> !ttnn.device loc(#loc)
        %1 = "ttnn.full"(%0) <{dtype = #ttcore.supportedDataTypes<bf16>, fill_value = 9.99999974E-6 : f32, layout = #ttnn.layout<tile>, shape = #ttnn.shape<4x1>}> : (!ttnn.device) -> tensor<4x1xbf16, #ttnn_layout44> loc(#loc256)
        return %1 : tensor<4x1xbf16, #ttnn_layout44> loc(#loc)
      } loc(#loc)
      func.func private @main_const_eval_27(%arg0: tensor<384x7168xbf16, #ttnn_layout45> loc(unknown)) -> tensor<384x448x!ttcore.tile<32x32, bfp_bf8>, #ttnn_layout46> attributes {tt.function_type = "const_eval"} {
        %0 = "ttnn.get_device"() <{mesh_offset = #ttnn<mesh_offset 0x0>, mesh_shape = #ttnn<mesh_shape 4x16>}> : () -> !ttnn.device loc(#loc)
        %1 = "ttnn.mesh_shard"(%arg0, %0) <{shard_dims = array<i64: -1, 1>, shard_direction = #ttcore.shard_direction<full_to_shard>, shard_shape = array<i64: 1, 16>, shard_type = #ttcore.shard_type<identity>}> : (tensor<384x7168xbf16, #ttnn_layout45>, !ttnn.device) -> tensor<384x448xbf16, #ttnn_layout47> loc(#loc)
        %2 = "ttnn.typecast"(%1) <{dtype = #ttcore.supportedDataTypes<f32>}> : (tensor<384x448xbf16, #ttnn_layout47>) -> tensor<384x448xf32, #ttnn_layout48> loc(#loc25)
        %3 = "ttnn.typecast"(%2) <{dtype = #ttcore.supportedDataTypes<bfp_bf8>}> : (tensor<384x448xf32, #ttnn_layout48>) -> tensor<384x448x!ttcore.tile<32x32, bfp_bf8>, #ttnn_layout46> loc(#loc26)
        "ttnn.deallocate"(%2) <{force = false}> : (tensor<384x448xf32, #ttnn_layout48>) -> () loc(#loc26)
        return %3 : tensor<384x448x!ttcore.tile<32x32, bfp_bf8>, #ttnn_layout46> loc(#loc)
      } loc(#loc)
      func.func private @main_const_eval_28(%arg0: tensor<1536x7168xbf16, #ttnn_layout12> loc(unknown)) -> tensor<1536x448x!ttcore.tile<32x32, bfp_bf8>, #ttnn_layout13> attributes {tt.function_type = "const_eval"} {
        %0 = "ttnn.get_device"() <{mesh_offset = #ttnn<mesh_offset 0x0>, mesh_shape = #ttnn<mesh_shape 4x16>}> : () -> !ttnn.device loc(#loc)
        %1 = "ttnn.mesh_shard"(%arg0, %0) <{shard_dims = array<i64: -1, 1>, shard_direction = #ttcore.shard_direction<full_to_shard>, shard_shape = array<i64: 1, 16>, shard_type = #ttcore.shard_type<identity>}> : (tensor<1536x7168xbf16, #ttnn_layout12>, !ttnn.device) -> tensor<1536x448xbf16, #ttnn_layout14> loc(#loc)
        %2 = "ttnn.typecast"(%1) <{dtype = #ttcore.supportedDataTypes<bfp_bf8>}> : (tensor<1536x448xbf16, #ttnn_layout14>) -> tensor<1536x448x!ttcore.tile<32x32, bfp_bf8>, #ttnn_layout13> loc(#loc27)
        return %2 : tensor<1536x448x!ttcore.tile<32x32, bfp_bf8>, #ttnn_layout13> loc(#loc)
      } loc(#loc)
      func.func private @main_const_eval_29(%arg0: tensor<16384x512xbf16, #ttnn_layout49> loc(unknown)) -> tensor<1024x512x!ttcore.tile<32x32, bfp_bf8>, #ttnn_layout50> attributes {tt.function_type = "const_eval"} {
        %0 = "ttnn.get_device"() <{mesh_offset = #ttnn<mesh_offset 0x0>, mesh_shape = #ttnn<mesh_shape 4x16>}> : () -> !ttnn.device loc(#loc)
        %1 = "ttnn.mesh_shard"(%arg0, %0) <{shard_dims = array<i64: -1, 0>, shard_direction = #ttcore.shard_direction<full_to_shard>, shard_shape = array<i64: 16, 1>, shard_type = #ttcore.shard_type<identity>}> : (tensor<16384x512xbf16, #ttnn_layout49>, !ttnn.device) -> tensor<1024x512xbf16, #ttnn_layout51> loc(#loc)
        %2 = "ttnn.typecast"(%1) <{dtype = #ttcore.supportedDataTypes<bfp_bf8>}> : (tensor<1024x512xbf16, #ttnn_layout51>) -> tensor<1024x512x!ttcore.tile<32x32, bfp_bf8>, #ttnn_layout50> loc(#loc28)
        return %2 : tensor<1024x512x!ttcore.tile<32x32, bfp_bf8>, #ttnn_layout50> loc(#loc)
      } loc(#loc)
      func.func private @main_const_eval_30() -> tensor<4x8x1xui32, #ttnn_layout52> attributes {tt.function_type = "const_eval"} {
        %0 = "ttnn.get_device"() <{mesh_offset = #ttnn<mesh_offset 0x0>, mesh_shape = #ttnn<mesh_shape 4x16>}> : () -> !ttnn.device loc(#loc)
        %1 = "ttnn.arange"(%0) <{dtype = #ttcore.supportedDataTypes<u32>, end = 4 : i64, layout = #ttnn.layout<tile>, memory_config = #ttnn.memory_config<#dram, <interleaved>>, start = 0 : i64, step = 1 : i64}> : (!ttnn.device) -> tensor<4xui32, #ttnn_layout53> loc(#loc29)
        %2 = "ttnn.reshape"(%1) <{shape = [4 : i32, 1 : i32, 1 : i32]}> : (tensor<4xui32, #ttnn_layout53>) -> tensor<4x1x1xui32, #ttnn_layout52> loc(#loc29)
        "ttnn.deallocate"(%1) <{force = false}> : (tensor<4xui32, #ttnn_layout53>) -> () loc(#loc29)
        %3 = "ttnn.repeat"(%2) <{repeat_dims = #ttnn.shape<1x8x1>}> : (tensor<4x1x1xui32, #ttnn_layout52>) -> tensor<4x8x1xui32, #ttnn_layout52> loc(#loc29)
        "ttnn.deallocate"(%2) <{force = false}> : (tensor<4x1x1xui32, #ttnn_layout52>) -> () loc(#loc29)
        return %3 : tensor<4x8x1xui32, #ttnn_layout52> loc(#loc)
      } loc(#loc)
      func.func private @main_const_eval_31() -> tensor<1x1x1xf32, #ttnn_layout54> attributes {tt.function_type = "const_eval"} {
        %0 = "ttnn.get_device"() <{mesh_offset = #ttnn<mesh_offset 0x0>, mesh_shape = #ttnn<mesh_shape 4x16>}> : () -> !ttnn.device loc(#loc)
        %1 = "ttnn.full"(%0) <{dtype = #ttcore.supportedDataTypes<f32>, fill_value = 2.827000e+00 : f32, layout = #ttnn.layout<tile>, shape = #ttnn.shape<1x1x1>}> : (!ttnn.device) -> tensor<1x1x1xf32, #ttnn_layout54> loc(#loc360)
        return %1 : tensor<1x1x1xf32, #ttnn_layout54> loc(#loc)
      } loc(#loc)
      func.func private @main_const_eval_32() -> tensor<1x1xf32, #ttnn_layout20> attributes {tt.function_type = "const_eval"} {
        %0 = "ttnn.get_device"() <{mesh_offset = #ttnn<mesh_offset 0x0>, mesh_shape = #ttnn<mesh_shape 4x16>}> : () -> !ttnn.device loc(#loc)
        %1 = "ttnn.full"(%0) <{dtype = #ttcore.supportedDataTypes<f32>, fill_value = 9.99999968E-21 : f32, layout = #ttnn.layout<tile>, shape = #ttnn.shape<1x1>}> : (!ttnn.device) -> tensor<1x1xf32, #ttnn_layout20> loc(#loc258)
        return %1 : tensor<1x1xf32, #ttnn_layout20> loc(#loc)
      } loc(#loc)
      func.func private @main_const_eval_33(%arg0: tensor<16384x512xbf16, #ttnn_layout49> loc(unknown)) -> tensor<1024x512x!ttcore.tile<32x32, bfp_bf8>, #ttnn_layout50> attributes {tt.function_type = "const_eval"} {
        %0 = "ttnn.get_device"() <{mesh_offset = #ttnn<mesh_offset 0x0>, mesh_shape = #ttnn<mesh_shape 4x16>}> : () -> !ttnn.device loc(#loc)
        %1 = "ttnn.mesh_shard"(%arg0, %0) <{shard_dims = array<i64: -1, 0>, shard_direction = #ttcore.shard_direction<full_to_shard>, shard_shape = array<i64: 16, 1>, shard_type = #ttcore.shard_type<identity>}> : (tensor<16384x512xbf16, #ttnn_layout49>, !ttnn.device) -> tensor<1024x512xbf16, #ttnn_layout51> loc(#loc)
        %2 = "ttnn.typecast"(%1) <{dtype = #ttcore.supportedDataTypes<bfp_bf8>}> : (tensor<1024x512xbf16, #ttnn_layout51>) -> tensor<1024x512x!ttcore.tile<32x32, bfp_bf8>, #ttnn_layout50> loc(#loc32)
        return %2 : tensor<1024x512x!ttcore.tile<32x32, bfp_bf8>, #ttnn_layout50> loc(#loc)
      } loc(#loc)
      func.func private @main_const_eval_34() -> tensor<4x1x1xbf16, #ttnn_layout55> attributes {tt.function_type = "const_eval"} {
        %0 = "ttnn.get_device"() <{mesh_offset = #ttnn<mesh_offset 0x0>, mesh_shape = #ttnn<mesh_shape 4x16>}> : () -> !ttnn.device loc(#loc)
        %1 = "ttnn.full"(%0) <{dtype = #ttcore.supportedDataTypes<bf16>, fill_value = 9.99999974E-6 : f32, layout = #ttnn.layout<tile>, shape = #ttnn.shape<4x1x1>}> : (!ttnn.device) -> tensor<4x1x1xbf16, #ttnn_layout55> loc(#loc259)
        return %1 : tensor<4x1x1xbf16, #ttnn_layout55> loc(#loc)
      } loc(#loc)
      func.func private @main_const_eval_35(%arg0: tensor<7168x8192xbf16, #ttnn_layout3> loc(unknown)) -> tensor<7168x512x!ttcore.tile<32x32, bfp_bf8>, #ttnn_layout4> attributes {tt.function_type = "const_eval"} {
        %0 = "ttnn.get_device"() <{mesh_offset = #ttnn<mesh_offset 0x0>, mesh_shape = #ttnn<mesh_shape 4x16>}> : () -> !ttnn.device loc(#loc)
        %1 = "ttnn.mesh_shard"(%arg0, %0) <{shard_dims = array<i64: -1, 1>, shard_direction = #ttcore.shard_direction<full_to_shard>, shard_shape = array<i64: 1, 16>, shard_type = #ttcore.shard_type<identity>}> : (tensor<7168x8192xbf16, #ttnn_layout3>, !ttnn.device) -> tensor<7168x512xbf16, #ttnn_layout5> loc(#loc)
        %2 = "ttnn.typecast"(%1) <{dtype = #ttcore.supportedDataTypes<bfp_bf8>}> : (tensor<7168x512xbf16, #ttnn_layout5>) -> tensor<7168x512x!ttcore.tile<32x32, bfp_bf8>, #ttnn_layout4> loc(#loc34)
        return %2 : tensor<7168x512x!ttcore.tile<32x32, bfp_bf8>, #ttnn_layout4> loc(#loc)
      } loc(#loc)
      func.func private @main_const_eval_36(%arg0: tensor<7168xbf16, #ttnn_layout6> loc(unknown)) -> tensor<448xbf16, #ttnn_layout7> attributes {tt.function_type = "const_eval"} {
        %0 = "ttnn.get_device"() <{mesh_offset = #ttnn<mesh_offset 0x0>, mesh_shape = #ttnn<mesh_shape 4x16>}> : () -> !ttnn.device loc(#loc)
        %1 = "ttnn.mesh_shard"(%arg0, %0) <{shard_dims = array<i64: -1, 0>, shard_direction = #ttcore.shard_direction<full_to_shard>, shard_shape = array<i64: 16>, shard_type = #ttcore.shard_type<identity>}> : (tensor<7168xbf16, #ttnn_layout6>, !ttnn.device) -> tensor<448xbf16, #ttnn_layout7> loc(#loc)
        return %1 : tensor<448xbf16, #ttnn_layout7> loc(#loc)
      } loc(#loc)
      func.func private @main_const_eval_37(%arg0: tensor<18432x7168xbf16, #ttnn_layout39> loc(unknown)) -> tensor<4608x448x!ttcore.tile<32x32, bfp_bf8>, #ttnn_layout40> attributes {tt.function_type = "const_eval"} {
        %0 = "ttnn.get_device"() <{mesh_offset = #ttnn<mesh_offset 0x0>, mesh_shape = #ttnn<mesh_shape 4x16>}> : () -> !ttnn.device loc(#loc)
        %1 = "ttnn.mesh_shard"(%arg0, %0) <{shard_dims = array<i64: 0, 1>, shard_direction = #ttcore.shard_direction<full_to_shard>, shard_shape = array<i64: 4, 16>, shard_type = #ttcore.shard_type<identity>}> : (tensor<18432x7168xbf16, #ttnn_layout39>, !ttnn.device) -> tensor<4608x448xbf16, #ttnn_layout41> loc(#loc)
        %2 = "ttnn.typecast"(%1) <{dtype = #ttcore.supportedDataTypes<bfp_bf8>}> : (tensor<4608x448xbf16, #ttnn_layout41>) -> tensor<4608x448x!ttcore.tile<32x32, bfp_bf8>, #ttnn_layout40> loc(#loc35)
        return %2 : tensor<4608x448x!ttcore.tile<32x32, bfp_bf8>, #ttnn_layout40> loc(#loc)
      } loc(#loc)
      func.func private @main_const_eval_38(%arg0: tensor<7168x18432xbf16, #ttnn_layout56> loc(unknown)) -> tensor<448x4608x!ttcore.tile<32x32, bfp_bf8>, #ttnn_layout57> attributes {tt.function_type = "const_eval"} {
        %0 = "ttnn.get_device"() <{mesh_offset = #ttnn<mesh_offset 0x0>, mesh_shape = #ttnn<mesh_shape 4x16>}> : () -> !ttnn.device loc(#loc)
        %1 = "ttnn.mesh_shard"(%arg0, %0) <{shard_dims = array<i64: 1, 0>, shard_direction = #ttcore.shard_direction<full_to_shard>, shard_shape = array<i64: 16, 4>, shard_type = #ttcore.shard_type<identity>}> : (tensor<7168x18432xbf16, #ttnn_layout56>, !ttnn.device) -> tensor<448x4608xbf16, #ttnn_layout58> loc(#loc)
        %2 = "ttnn.typecast"(%1) <{dtype = #ttcore.supportedDataTypes<bfp_bf8>}> : (tensor<448x4608xbf16, #ttnn_layout58>) -> tensor<448x4608x!ttcore.tile<32x32, bfp_bf8>, #ttnn_layout57> loc(#loc36)
        return %2 : tensor<448x4608x!ttcore.tile<32x32, bfp_bf8>, #ttnn_layout57> loc(#loc)
      } loc(#loc)
      func.func private @main_const_eval_39() -> tensor<1x1x384xsi32, #ttnn_layout59> attributes {tt.function_type = "const_eval"} {
        %0 = "ttnn.get_device"() <{mesh_offset = #ttnn<mesh_offset 0x0>, mesh_shape = #ttnn<mesh_shape 4x16>}> : () -> !ttnn.device loc(#loc)
        %1 = "ttnn.constant"(%0) <{dtype = #ttcore.supportedDataTypes<si32>, layout = #ttnn.layout<tile>, memory_config = #ttnn.memory_config<#dram, <interleaved>>, value = dense<"…"> : tensor<1x1x384xsi32>}> : (!ttnn.device) -> tensor<1x1x384xsi32, #ttnn_layout59> loc(#loc37)
        return %1 : tensor<1x1x384xsi32, #ttnn_layout59> loc(#loc)
      } loc(#loc)
      func.func private @main_const_eval_40(%arg0: tensor<1x1x384x64xsi32, #ttnn_layout60> loc(unknown)) -> tensor<1x1x384x64xui16, #ttnn_layout61> attributes {tt.function_type = "const_eval"} {
        %0 = "ttnn.get_device"() <{mesh_offset = #ttnn<mesh_offset 0x0>, mesh_shape = #ttnn<mesh_shape 4x16>}> : () -> !ttnn.device loc(#loc)
        %1 = "ttnn.typecast"(%arg0) <{dtype = #ttcore.supportedDataTypes<u16>}> : (tensor<1x1x384x64xsi32, #ttnn_layout60>) -> tensor<1x1x384x64xui16, #ttnn_layout62> loc(#loc260)
        %2 = "ttnn.from_device"(%1) : (tensor<1x1x384x64xui16, #ttnn_layout62>) -> tensor<1x1x384x64xui16, #ttnn_layout63> loc(#loc260)
        "ttnn.deallocate"(%1) <{force = false}> : (tensor<1x1x384x64xui16, #ttnn_layout62>) -> () loc(#loc260)
        %3 = "ttnn.to_layout"(%2) <{layout = #ttnn.layout<row_major>}> : (tensor<1x1x384x64xui16, #ttnn_layout63>) -> tensor<1x1x384x64xui16, #ttnn_layout64> loc(#loc260)
        "ttnn.deallocate"(%2) <{force = false}> : (tensor<1x1x384x64xui16, #ttnn_layout63>) -> () loc(#loc260)
        %4 = "ttnn.to_device"(%3, %0) <{memory_config = #ttnn.memory_config<#dram, <interleaved>>}> : (tensor<1x1x384x64xui16, #ttnn_layout64>, !ttnn.device) -> tensor<1x1x384x64xui16, #ttnn_layout61> loc(#loc260)
        "ttnn.deallocate"(%3) <{force = false}> : (tensor<1x1x384x64xui16, #ttnn_layout64>) -> () loc(#loc260)
        return %4 : tensor<1x1x384x64xui16, #ttnn_layout61> loc(#loc)
      } loc(#loc)
      func.func private @main_const_eval_41() -> (tensor<128x64xbf16, #ttnn_layout65>, tensor<128x64xbf16, #ttnn_layout66>, tensor<128x64xbf16, #ttnn_layout65>, tensor<128x64xbf16, #ttnn_layout66>) attributes {tt.function_type = "const_eval"} {
        %0 = "ttnn.get_device"() <{mesh_offset = #ttnn<mesh_offset 0x0>, mesh_shape = #ttnn<mesh_shape 4x16>}> : () -> !ttnn.device loc(#loc)
        %1 = "ttnn.constant"(%0) <{dtype = #ttcore.supportedDataTypes<f32>, layout = #ttnn.layout<tile>, memory_config = #ttnn.memory_config<#dram, <interleaved>>, value = dense<"…"> : tensor<128x32xf32>}> : (!ttnn.device) -> tensor<128x32xf32, #ttnn_layout67> loc(#loc39)
        %2 = "ttnn.concat"(%1, %1) <{dim = 1 : si32}> : (tensor<128x32xf32, #ttnn_layout67>, tensor<128x32xf32, #ttnn_layout67>) -> tensor<128x64xf32, #ttnn_layout68> loc(#loc40)
        "ttnn.deallocate"(%1) <{force = false}> : (tensor<128x32xf32, #ttnn_layout67>) -> () loc(#loc40)
        %3 = "ttnn.cos"(%2) : (tensor<128x64xf32, #ttnn_layout68>) -> tensor<128x64xf32, #ttnn_layout68> loc(#loc41)
        %4 = "ttnn.typecast"(%3) <{dtype = #ttcore.supportedDataTypes<bf16>}> : (tensor<128x64xf32, #ttnn_layout68>) -> tensor<128x64xbf16, #ttnn_layout65> loc(#loc42)
        "ttnn.deallocate"(%3) <{force = false}> : (tensor<128x64xf32, #ttnn_layout68>) -> () loc(#loc42)
        %5 = "ttnn.to_layout"(%4) <{layout = #ttnn.layout<row_major>}> : (tensor<128x64xbf16, #ttnn_layout65>) -> tensor<128x64xbf16, #ttnn_layout66> loc(#loc261)
        %6 = "ttnn.sin"(%2) : (tensor<128x64xf32, #ttnn_layout68>) -> tensor<128x64xf32, #ttnn_layout68> loc(#loc44)
        "ttnn.deallocate"(%2) <{force = false}> : (tensor<128x64xf32, #ttnn_layout68>) -> () loc(#loc44)
        %7 = "ttnn.typecast"(%6) <{dtype = #ttcore.supportedDataTypes<bf16>}> : (tensor<128x64xf32, #ttnn_layout68>) -> tensor<128x64xbf16, #ttnn_layout65> loc(#loc45)
        "ttnn.deallocate"(%6) <{force = false}> : (tensor<128x64xf32, #ttnn_layout68>) -> () loc(#loc45)
        %8 = "ttnn.to_layout"(%7) <{layout = #ttnn.layout<row_major>}> : (tensor<128x64xbf16, #ttnn_layout65>) -> tensor<128x64xbf16, #ttnn_layout66> loc(#loc262)
        return %4, %5, %7, %8 : tensor<128x64xbf16, #ttnn_layout65>, tensor<128x64xbf16, #ttnn_layout66>, tensor<128x64xbf16, #ttnn_layout65>, tensor<128x64xbf16, #ttnn_layout66> loc(#loc)
      } loc(#loc)
      func.func private @main_const_eval_42(%arg0: tensor<12288x1536xbf16, #ttnn_layout16> loc(unknown)) -> tensor<768x1536x!ttcore.tile<32x32, bfp_bf8>, #ttnn_layout17> attributes {tt.function_type = "const_eval"} {
        %0 = "ttnn.get_device"() <{mesh_offset = #ttnn<mesh_offset 0x0>, mesh_shape = #ttnn<mesh_shape 4x16>}> : () -> !ttnn.device loc(#loc)
        %1 = "ttnn.mesh_shard"(%arg0, %0) <{shard_dims = array<i64: -1, 0>, shard_direction = #ttcore.shard_direction<full_to_shard>, shard_shape = array<i64: 16, 1>, shard_type = #ttcore.shard_type<identity>}> : (tensor<12288x1536xbf16, #ttnn_layout16>, !ttnn.device) -> tensor<768x1536xbf16, #ttnn_layout18> loc(#loc)
        %2 = "ttnn.typecast"(%1) <{dtype = #ttcore.supportedDataTypes<bfp_bf8>}> : (tensor<768x1536xbf16, #ttnn_layout18>) -> tensor<768x1536x!ttcore.tile<32x32, bfp_bf8>, #ttnn_layout17> loc(#loc47)
        return %2 : tensor<768x1536x!ttcore.tile<32x32, bfp_bf8>, #ttnn_layout17> loc(#loc)
      } loc(#loc)
      func.func private @main_const_eval_43(%arg0: tensor<7168x2048xbf16, #ttnn_layout69> loc(unknown)) -> tensor<448x2048x!ttcore.tile<32x32, bfp_bf8>, #ttnn_layout70> attributes {tt.function_type = "const_eval"} {
        %0 = "ttnn.get_device"() <{mesh_offset = #ttnn<mesh_offset 0x0>, mesh_shape = #ttnn<mesh_shape 4x16>}> : () -> !ttnn.device loc(#loc)
        %1 = "ttnn.mesh_shard"(%arg0, %0) <{shard_dims = array<i64: -1, 0>, shard_direction = #ttcore.shard_direction<full_to_shard>, shard_shape = array<i64: 16, 1>, shard_type = #ttcore.shard_type<identity>}> : (tensor<7168x2048xbf16, #ttnn_layout69>, !ttnn.device) -> tensor<448x2048xbf16, #ttnn_layout71> loc(#loc)
        %2 = "ttnn.typecast"(%1) <{dtype = #ttcore.supportedDataTypes<bfp_bf8>}> : (tensor<448x2048xbf16, #ttnn_layout71>) -> tensor<448x2048x!ttcore.tile<32x32, bfp_bf8>, #ttnn_layout70> loc(#loc263)
        return %2 : tensor<448x2048x!ttcore.tile<32x32, bfp_bf8>, #ttnn_layout70> loc(#loc)
      } loc(#loc)
      func.func private @main_const_eval_44() -> tensor<2x1xf32, #ttnn_layout20> attributes {tt.function_type = "const_eval"} {
        %0 = "ttnn.get_device"() <{mesh_offset = #ttnn<mesh_offset 0x0>, mesh_shape = #ttnn<mesh_shape 4x16>}> : () -> !ttnn.device loc(#loc)
        %1 = "ttnn.constant"(%0) <{dtype = #ttcore.supportedDataTypes<f32>, layout = #ttnn.layout<tile>, memory_config = #ttnn.memory_config<#dram, <interleaved>>, value = dense<[[3.840000e+02], [1.000000e+00]]> : tensor<2x1xf32>}> : (!ttnn.device) -> tensor<2x1xf32, #ttnn_layout20> loc(#loc264)
        return %1 : tensor<2x1xf32, #ttnn_layout20> loc(#loc)
      } loc(#loc)
      func.func private @main_const_eval_45() -> tensor<1x1x1x1xbf16, #ttnn_layout33> attributes {tt.function_type = "const_eval"} {
        %0 = "ttnn.get_device"() <{mesh_offset = #ttnn<mesh_offset 0x0>, mesh_shape = #ttnn<mesh_shape 4x16>}> : () -> !ttnn.device loc(#loc)
        %1 = "ttnn.full"(%0) <{dtype = #ttcore.supportedDataTypes<bf16>, fill_value = 0.14453125 : f32, layout = #ttnn.layout<tile>, shape = #ttnn.shape<1x1x1x1>}> : (!ttnn.device) -> tensor<1x1x1x1xbf16, #ttnn_layout33> loc(#loc)
        return %1 : tensor<1x1x1x1xbf16, #ttnn_layout33> loc(#loc)
      } loc(#loc)
      func.func private @main_const_eval_46() -> tensor<16xf32, #ttnn_layout19> attributes {tt.function_type = "const_eval"} {
        %0 = "ttnn.get_device"() <{mesh_offset = #ttnn<mesh_offset 0x0>, mesh_shape = #ttnn<mesh_shape 4x16>}> : () -> !ttnn.device loc(#loc)
        %1 = "ttnn.full"(%0) <{dtype = #ttcore.supportedDataTypes<f32>, fill_value = 1.000000e+00 : f32, layout = #ttnn.layout<tile>, shape = #ttnn.shape<4x1>}> : (!ttnn.device) -> tensor<4x1xf32, #ttnn_layout20> loc(#loc)
        %2 = "ttnn.all_gather"(%1) <{all_gather_dim = 0 : si32, cluster_axis = 0 : ui32}> : (tensor<4x1xf32, #ttnn_layout20>) -> tensor<16x1xf32, #ttnn_layout20> loc(#loc)
        "ttnn.deallocate"(%1) <{force = false}> : (tensor<4x1xf32, #ttnn_layout20>) -> () loc(#loc)
        %3 = "ttnn.reshape"(%2) <{shape = [16 : i32]}> : (tensor<16x1xf32, #ttnn_layout20>) -> tensor<16xf32, #ttnn_layout11> loc(#loc265)
        "ttnn.deallocate"(%2) <{force = false}> : (tensor<16x1xf32, #ttnn_layout20>) -> () loc(#loc265)
        %4 = "ttnn.to_layout"(%3) <{layout = #ttnn.layout<row_major>}> : (tensor<16xf32, #ttnn_layout11>) -> tensor<16xf32, #ttnn_layout19> loc(#loc253)
        "ttnn.deallocate"(%3) <{force = false}> : (tensor<16xf32, #ttnn_layout11>) -> () loc(#loc253)
        return %4 : tensor<16xf32, #ttnn_layout19> loc(#loc)
      } loc(#loc)
      func.func @main(%arg0: tensor<576x7168xbf16, #ttnn_layout21> {ttcore.argument_type = #ttcore.argument_type<parameter>, ttcore.local_shape = #ttcore<local_shape local_shape = tensor<576x448xbf16>>, ttcore.shard_status = #ttcore.shard_status<presharded>, ttir.name = "model.layers.0.self_attn.kv_a_proj_with_mqa.weight"} loc("p0.1"), %arg1: tensor<7168xbf16, #ttnn_layout6> {ttcore.argument_type = #ttcore.argument_type<parameter>, ttcore.local_shape = #ttcore<local_shape local_shape = tensor<448xbf16>>, ttcore.shard_status = #ttcore.shard_status<presharded>, ttir.name = "model.layers.0.input_layernorm.weight"} loc("p1.6"), %arg2: tensor<16x1xsi32, #ttnn_layout15> {ttcore.argument_type = #ttcore.argument_type<input>, ttcore.local_shape = #ttcore<local_shape local_shape = tensor<4x1xi64>>, ttcore.shard_status = #ttcore.shard_status<presharded>, ttir.name = "args_0"} loc("p2.15"), %arg3: tensor<163840x7168xbf16, #ttnn_layout> {ttcore.argument_type = #ttcore.argument_type<parameter>, ttcore.local_shape = #ttcore<local_shape local_shape = tensor<163840x448xbf16>>, ttcore.shard_status = #ttcore.shard_status<presharded>, ttir.name = "model.embed_tokens.weight"} loc("p3.20"), %arg4: tensor<1xsi32, #ttnn_layout72> {ttcore.argument_type = #ttcore.argument_type<input>, ttcore.local_shape = #ttcore<local_shape local_shape = tensor<1xi64>>, ttcore.shard_status = #ttcore.shard_status<presharded>, ttir.name = "args_1"} loc("p4.65"), %arg5: tensor<16x1x128x512xbf16, #ttnn_layout73> {ttcore.argument_type = #ttcore.argument_type<input>, ttcore.kv_cache, ttcore.local_shape = #ttcore<local_shape local_shape = tensor<4x1x128x512xbf16>>, ttcore.shard_status = #ttcore.shard_status<presharded>, ttir.name = "L__past_key_values___layers_0_compressed_kv"} loc("p5.79"), %arg6: tensor<16x1x128x64xbf16, #ttnn_layout74> {ttcore.argument_type = #ttcore.argument_type<input>, ttcore.kv_cache, ttcore.local_shape = #ttcore<local_shape local_shape = tensor<4x1x128x64xbf16>>, ttcore.shard_status = #ttcore.shard_status<presharded>, ttir.name = "L__past_key_values___layers_0_k_pe"} loc("p6.232"), %arg7: tensor<576x7168xbf16, #ttnn_layout21> {ttcore.argument_type = #ttcore.argument_type<parameter>, ttcore.local_shape = #ttcore<local_shape local_shape = tensor<576x448xbf16>>, ttcore.shard_status = #ttcore.shard_status<presharded>, ttir.name = "model.layers.1.self_attn.kv_a_proj_with_mqa.weight"} loc("p7.240"), %arg8: tensor<7168xbf16, #ttnn_layout6> {ttcore.argument_type = #ttcore.argument_type<parameter>, ttcore.local_shape = #ttcore<local_shape local_shape = tensor<448xbf16>>, ttcore.shard_status = #ttcore.shard_status<presharded>, ttir.name = "model.layers.1.input_layernorm.weight"} loc("p8.245"), %arg9: tensor<7168x18432xbf16, #ttnn_layout56> {ttcore.argument_type = #ttcore.argument_type<parameter>, ttcore.local_shape = #ttcore<local_shape local_shape = tensor<448x4608xbf16>>, ttcore.shard_status = #ttcore.shard_status<presharded>, ttir.name = "model.layers.0.mlp.down_proj.weight"} loc("p9.255"), %arg10: tensor<18432x7168xbf16, #ttnn_layout39> {ttcore.argument_type = #ttcore.argument_type<parameter>, ttcore.local_shape = #ttcore<local_shape local_shape = tensor<4608x448xbf16>>, ttcore.shard_status = #ttcore.shard_status<presharded>, ttir.name = "model.layers.0.mlp.up_proj.weight"} loc("p10.260"), %arg11: tensor<7168xbf16, #ttnn_layout6> {ttcore.argument_type = #ttcore.argument_type<parameter>, ttcore.local_shape = #ttcore<local_shape local_shape = tensor<448xbf16>>, ttcore.shard_status = #ttcore.shard_status<presharded>, ttir.name = "model.layers.0.post_attention_layernorm.weight"} loc("p11.265"), %arg12: tensor<7168x8192xbf16, #ttnn_layout3> {ttcore.argument_type = #ttcore.argument_type<parameter>, ttcore.local_shape = #ttcore<local_shape local_shape = tensor<7168x512xbf16>>, ttcore.shard_status = #ttcore.shard_status<presharded>, ttir.name = "model.layers.0.self_attn.o_proj.weight"} loc("p12.275"), %arg13: tensor<16384x512xbf16, #ttnn_layout49> {ttcore.argument_type = #ttcore.argument_type<parameter>, ttcore.local_shape = #ttcore<local_shape local_shape = tensor<1024x512xbf16>>, ttcore.shard_status = #ttcore.shard_status<presharded>, ttir.name = "model.layers.0.self_attn.kv_b_proj.weight"} loc("p13.280"), %arg14: tensor<512xbf16, #ttnn_layout75> {ttcore.argument_type = #ttcore.argument_type<parameter>, ttcore.local_shape = #ttcore<local_shape local_shape = tensor<512xbf16>>, ttcore.shard_status = #ttcore.shard_status<presharded>, ttir.name = "model.layers.0.self_attn.kv_a_layernorm.weight"} loc("p14.285"), %arg15: tensor<12288x1536xbf16, #ttnn_layout16> {ttcore.argument_type = #ttcore.argument_type<parameter>, ttcore.local_shape = #ttcore<local_shape local_shape = tensor<768x1536xbf16>>, ttcore.shard_status = #ttcore.shard_status<presharded>, ttir.name = "model.layers.0.self_attn.q_b_proj.weight"} loc("p15.358"), %arg16: tensor<1536xbf16, #ttnn_layout76> {ttcore.argument_type = #ttcore.argument_type<parameter>, ttcore.local_shape = #ttcore<local_shape local_shape = tensor<1536xbf16>>, ttcore.shard_status = #ttcore.shard_status<presharded>, ttir.name = "model.layers.0.self_attn.q_a_layernorm.weight"} loc("p16.363"), %arg17: tensor<1536x7168xbf16, #ttnn_layout12> {ttcore.argument_type = #ttcore.argument_type<parameter>, ttcore.local_shape = #ttcore<local_shape local_shape = tensor<1536x448xbf16>>, ttcore.shard_status = #ttcore.shard_status<presharded>, ttir.name = "model.layers.0.self_attn.q_a_proj.weight"} loc("p17.372"), %arg18: tensor<18432x7168xbf16, #ttnn_layout39> {ttcore.argument_type = #ttcore.argument_type<parameter>, ttcore.local_shape = #ttcore<local_shape local_shape = tensor<4608x448xbf16>>, ttcore.shard_status = #ttcore.shard_status<presharded>, ttir.name = "model.layers.0.mlp.gate_proj.weight"} loc("p18.511"), %arg19: tensor<16x1x128x512xbf16, #ttnn_layout73> {ttcore.argument_type = #ttcore.argument_type<input>, ttcore.kv_cache, ttcore.local_shape = #ttcore<local_shape local_shape = tensor<4x1x128x512xbf16>>, ttcore.shard_status = #ttcore.shard_status<presharded>, ttir.name = "L__past_key_values___layers_1_compressed_kv"} loc("p19.578"), %arg20: tensor<16x1x128x64xbf16, #ttnn_layout74> {ttcore.argument_type = #ttcore.argument_type<input>, ttcore.kv_cache, ttcore.local_shape = #ttcore<local_shape local_shape = tensor<4x1x128x64xbf16>>, ttcore.shard_status = #ttcore.shard_status<presharded>, ttir.name = "L__past_key_values___layers_1_k_pe"} loc("p20.730"), %arg21: tensor<163840x7168xbf16, #ttnn_layout> {ttcore.argument_type = #ttcore.argument_type<parameter>, ttcore.local_shape = #ttcore<local_shape local_shape = tensor<40960x448xbf16>>, ttcore.shard_status = #ttcore.shard_status<presharded>, ttir.name = "lm_head.weight"} loc("p21.738"), %arg22: tensor<7168xbf16, #ttnn_layout6> {ttcore.argument_type = #ttcore.argument_type<parameter>, ttcore.local_shape = #ttcore<local_shape local_shape = tensor<448xbf16>>, ttcore.shard_status = #ttcore.shard_status<presharded>, ttir.name = "model.norm.weight"} loc("p22.743"), %arg23: tensor<7168x2048xbf16, #ttnn_layout69> {ttcore.argument_type = #ttcore.argument_type<parameter>, ttcore.local_shape = #ttcore<local_shape local_shape = tensor<448x2048xbf16>>, ttcore.shard_status = #ttcore.shard_status<presharded>, ttir.name = "model.layers.1.mlp.shared_experts.down_proj.weight"} loc("p23.754"), %arg24: tensor<2048x7168xbf16, #ttnn_layout34> {ttcore.argument_type = #ttcore.argument_type<parameter>, ttcore.local_shape = #ttcore<local_shape local_shape = tensor<2048x448xbf16>>, ttcore.shard_status = #ttcore.shard_status<presharded>, ttir.name = "model.layers.1.mlp.shared_experts.up_proj.weight"} loc("p24.759"), %arg25: tensor<7168xbf16, #ttnn_layout6> {ttcore.argument_type = #ttcore.argument_type<parameter>, ttcore.local_shape = #ttcore<local_shape local_shape = tensor<448xbf16>>, ttcore.shard_status = #ttcore.shard_status<presharded>, ttir.name = "model.layers.1.post_attention_layernorm.weight"} loc("p25.764"), %arg26: tensor<7168x8192xbf16, #ttnn_layout3> {ttcore.argument_type = #ttcore.argument_type<parameter>, ttcore.local_shape = #ttcore<local_shape local_shape = tensor<7168x512xbf16>>, ttcore.shard_status = #ttcore.shard_status<presharded>, ttir.name = "model.layers.1.self_attn.o_proj.weight"} loc("p26.774"), %arg27: tensor<16384x512xbf16, #ttnn_layout49> {ttcore.argument_type = #ttcore.argument_type<parameter>, ttcore.local_shape = #ttcore<local_shape local_shape = tensor<1024x512xbf16>>, ttcore.shard_status = #ttcore.shard_status<presharded>, ttir.name = "model.layers.1.self_attn.kv_b_proj.weight"} loc("p27.779"), %arg28: tensor<512xbf16, #ttnn_layout75> {ttcore.argument_type = #ttcore.argument_type<parameter>, ttcore.local_shape = #ttcore<local_shape local_shape = tensor<512xbf16>>, ttcore.shard_status = #ttcore.shard_status<presharded>, ttir.name = "model.layers.1.self_attn.kv_a_layernorm.weight"} loc("p28.784"), %arg29: tensor<12288x1536xbf16, #ttnn_layout16> {ttcore.argument_type = #ttcore.argument_type<parameter>, ttcore.local_shape = #ttcore<local_shape local_shape = tensor<768x1536xbf16>>, ttcore.shard_status = #ttcore.shard_status<presharded>, ttir.name = "model.layers.1.self_attn.q_b_proj.weight"} loc("p29.842"), %arg30: tensor<1536xbf16, #ttnn_layout76> {ttcore.argument_type = #ttcore.argument_type<parameter>, ttcore.local_shape = #ttcore<local_shape local_shape = tensor<1536xbf16>>, ttcore.shard_status = #ttcore.shard_status<presharded>, ttir.name = "model.layers.1.self_attn.q_a_layernorm.weight"} loc("p30.847"), %arg31: tensor<1536x7168xbf16, #ttnn_layout12> {ttcore.argument_type = #ttcore.argument_type<parameter>, ttcore.local_shape = #ttcore<local_shape local_shape = tensor<1536x448xbf16>>, ttcore.shard_status = #ttcore.shard_status<presharded>, ttir.name = "model.layers.1.self_attn.q_a_proj.weight"} loc("p31.856"), %arg32: tensor<2048x7168xbf16, #ttnn_layout34> {ttcore.argument_type = #ttcore.argument_type<parameter>, ttcore.local_shape = #ttcore<local_shape local_shape = tensor<2048x448xbf16>>, ttcore.shard_status = #ttcore.shard_status<presharded>, ttir.name = "model.layers.1.mlp.shared_experts.gate_proj.weight"} loc("p32.995"), %arg33: tensor<384xbf16, #ttnn_layout8> {ttcore.argument_type = #ttcore.argument_type<parameter>, ttcore.local_shape = #ttcore<local_shape local_shape = tensor<384xbf16>>, ttcore.shard_status = #ttcore.shard_status<presharded>, ttir.name = "model.layers.1.mlp.mlp.router.gate.e_score_correction_bias"} loc("p33.1013"), %arg34: tensor<384x7168xbf16, #ttnn_layout45> {ttcore.argument_type = #ttcore.argument_type<parameter>, ttcore.local_shape = #ttcore<local_shape local_shape = tensor<384x448xbf16>>, ttcore.shard_status = #ttcore.shard_status<presharded>, ttir.name = "model.layers.1.mlp.mlp.router.gate.weight"} loc("p34.1018"), %arg35: tensor<1x1x384x64xsi32, #ttnn_layout60> {ttcore.argument_type = #ttcore.argument_type<constant>, ttcore.local_shape = #ttcore<local_shape local_shape = tensor<1x1x384x64xi64>>, ttcore.shard_status = #ttcore.shard_status<presharded>, ttir.name = "model.layers.1.mlp.mlp.expert_mapping"} loc("p35.1189"), %arg36: tensor<384x2048x7168xbf16, #ttnn_layout29> {ttcore.argument_type = #ttcore.argument_type<parameter>, ttcore.local_shape = #ttcore<local_shape local_shape = tensor<6x2048x7168xbf16>>, ttcore.shard_status = #ttcore.shard_status<presharded>, ttir.name = "model.layers.1.mlp.mlp.experts.down_proj"} loc("p36.1208"), %arg37: tensor<384x7168x2048xbf16, #ttnn_layout24> {ttcore.argument_type = #ttcore.argument_type<parameter>, ttcore.local_shape = #ttcore<local_shape local_shape = tensor<6x7168x2048xbf16>>, ttcore.shard_status = #ttcore.shard_status<presharded>, ttir.name = "model.layers.1.mlp.mlp.experts.up_proj"} loc("p37.1212"), %arg38: tensor<384x7168x2048xbf16, #ttnn_layout24> {ttcore.argument_type = #ttcore.argument_type<parameter>, ttcore.local_shape = #ttcore<local_shape local_shape = tensor<6x7168x2048xbf16>>, ttcore.shard_status = #ttcore.shard_status<presharded>, ttir.name = "model.layers.1.mlp.mlp.experts.gate_proj"} loc("p38.1220")) -> (tensor<16x1x128x512xbf16, #ttnn_layout73> {ttcore.local_shape = #ttcore<local_shape local_shape = tensor<4x1x128x512xbf16>>, ttcore.shard_status = #ttcore.shard_status<presharded>}, tensor<16x1x128x64xbf16, #ttnn_layout74> {ttcore.local_shape = #ttcore<local_shape local_shape = tensor<4x1x128x64xbf16>>, ttcore.shard_status = #ttcore.shard_status<presharded>}, tensor<16x1x128x512xbf16, #ttnn_layout73> {ttcore.local_shape = #ttcore<local_shape local_shape = tensor<4x1x128x512xbf16>>, ttcore.shard_status = #ttcore.shard_status<presharded>}, tensor<16x1x128x64xbf16, #ttnn_layout74> {ttcore.local_shape = #ttcore<local_shape local_shape = tensor<4x1x128x64xbf16>>, ttcore.shard_status = #ttcore.shard_status<presharded>}, tensor<32xf32, #ttnn_layout11> {ttcore.local_shape = #ttcore<local_shape local_shape = tensor<32xf64>>, ttcore.shard_status = #ttcore.shard_status<presharded>}, tensor<32xf32, #ttnn_layout11> {ttcore.local_shape = #ttcore<local_shape local_shape = tensor<32xf64>>, ttcore.shard_status = #ttcore.shard_status<presharded>}, tensor<128x64xbf16, #ttnn_layout65> {ttcore.local_shape = #ttc…
        %524 = "ttnn.point_to_point"(%385, %523) <{receiver_coord = array<i64: 3, 11>, sender_coord = array<i64: 0, 11>}> : (tensor<1x4x1x448xf32, #ttnn_layout198>, tensor<1x4x1x448xf32, #ttnn_layout198>) -> tensor<1x4x1x448xf32, #ttnn_layout198> loc(#loc242)
        "ttnn.deallocate"(%523) <{force = false}> : (tensor<1x4x1x448xf32, #ttnn_layout198>) -> () loc(#loc242)
        %525 = "ttnn.point_to_point"(%382, %515) <{receiver_coord = array<i64: 0, 11>, sender_coord = array<i64: 1, 11>}> : (tensor<1x4x1x448xf32, #ttnn_layout198>, tensor<1x4x1x448xf32, #ttnn_layout198>) -> tensor<1x4x1x448xf32, #ttnn_layout198> loc(#loc242)
        "ttnn.deallocate"(%515) <{force = false}> : (tensor<1x4x1x448xf32, #ttnn_layout198>) -> () loc(#loc242)
        %526 = "ttnn.point_to_point"(%384, %525) <{receiver_coord = array<i64: 2, 11>, sender_coord = array<i64: 1, 11>}> : (tensor<1x4x1x448xf32, #ttnn_layout198>, tensor<1x4x1x448xf32, #ttnn_layout198>) -> tensor<1x4x1x448xf32, #ttnn_layout198> loc(#loc242)
        "ttnn.deallocate"(%525) <{force = false}> : (tensor<1x4x1x448xf32, #ttnn_layout198>) -> () loc(#loc242)
        %527 = "ttnn.point_to_point"(%385, %526) <{receiver_coord = array<i64: 3, 11>, sender_coord = array<i64: 1, 11>}> : (tensor<1x4x1x448xf32, #ttnn_layout198>, tensor<1x4x1x448xf32, #ttnn_layout198>) -> tensor<1x4x1x448xf32, #ttnn_layout198> loc(#loc242)
        "ttnn.deallocate"(%526) <{force = false}> : (tensor<1x4x1x448xf32, #ttnn_layout198>) -> () loc(#loc242)
        %528 = "ttnn.point_to_point"(%382, %518) <{receiver_coord = array<i64: 0, 11>, sender_coord = array<i64: 2, 11>}> : (tensor<1x4x1x448xf32, #ttnn_layout198>, tensor<1x4x1x448xf32, #ttnn_layout198>) -> tensor<1x4x1x448xf32, #ttnn_layout198> loc(#loc242)
        "ttnn.deallocate"(%518) <{force = false}> : (tensor<1x4x1x448xf32, #ttnn_layout198>) -> () loc(#loc242)
        %529 = "ttnn.point_to_point"(%383, %528) <{receiver_coord = array<i64: 1, 11>, sender_coord = array<i64: 2, 11>}> : (tensor<1x4x1x448xf32, #ttnn_layout198>, tensor<1x4x1x448xf32, #ttnn_layout198>) -> tensor<1x4x1x448xf32, #ttnn_layout198> loc(#loc242)
        "ttnn.deallocate"(%528) <{force = false}> : (tensor<1x4x1x448xf32, #ttnn_layout198>) -> () loc(#loc242)
        %530 = "ttnn.point_to_point"(%385, %529) <{receiver_coord = array<i64: 3, 11>, sender_coord = array<i64: 2, 11>}> : (tensor<1x4x1x448xf32, #ttnn_layout198>, tensor<1x4x1x448xf32, #ttnn_layout198>) -> tensor<1x4x1x448xf32, #ttnn_layout198> loc(#loc242)
        "ttnn.deallocate"(%529) <{force = false}> : (tensor<1x4x1x448xf32, #ttnn_layout198>) -> () loc(#loc242)
        %531 = "ttnn.point_to_point"(%382, %521) <{receiver_coord = array<i64: 0, 11>, sender_coord = array<i64: 3, 11>}> : (tensor<1x4x1x448xf32, #ttnn_layout198>, tensor<1x4x1x448xf32, #ttnn_layout198>) -> tensor<1x4x1x448xf32, #ttnn_layout198> loc(#loc242)
        "ttnn.deallocate"(%521) <{force = false}> : (tensor<1x4x1x448xf32, #ttnn_layout198>) -> () loc(#loc242)
        %532 = "ttnn.point_to_point"(%383, %531) <{receiver_coord = array<i64: 1, 11>, sender_coord = array<i64: 3, 11>}> : (tensor<1x4x1x448xf32, #ttnn_layout198>, tensor<1x4x1x448xf32, #ttnn_layout198>) -> tensor<1x4x1x448xf32, #ttnn_layout198> loc(#loc242)
        "ttnn.deallocate"(%531) <{force = false}> : (tensor<1x4x1x448xf32, #ttnn_layout198>) -> () loc(#loc242)
        %533 = "ttnn.point_to_point"(%384, %532) <{receiver_coord = array<i64: 2, 11>, sender_coord = array<i64: 3, 11>}> : (tensor<1x4x1x448xf32, #ttnn_layout198>, tensor<1x4x1x448xf32, #ttnn_layout198>) -> tensor<1x4x1x448xf32, #ttnn_layout198> loc(#loc242)
        "ttnn.deallocate"(%532) <{force = false}> : (tensor<1x4x1x448xf32, #ttnn_layout198>) -> () loc(#loc242)
        %534 = "ttnn.point_to_point"(%383, %524) <{receiver_coord = array<i64: 1, 12>, sender_coord = array<i64: 0, 12>}> : (tensor<1x4x1x448xf32, #ttnn_layout198>, tensor<1x4x1x448xf32, #ttnn_layout198>) -> tensor<1x4x1x448xf32, #ttnn_layout198> loc(#loc242)
        "ttnn.deallocate"(%524) <{force = false}> : (tensor<1x4x1x448xf32, #ttnn_layout198>) -> () loc(#loc242)
        %535 = "ttnn.point_to_point"(%384, %534) <{receiver_coord = array<i64: 2, 12>, sender_coord = array<i64: 0, 12>}> : (tensor<1x4x1x448xf32, #ttnn_layout198>, tensor<1x4x1x448xf32, #ttnn_layout198>) -> tensor<1x4x1x448xf32, #ttnn_layout198> loc(#loc242)
        "ttnn.deallocate"(%534) <{force = false}> : (tensor<1x4x1x448xf32, #ttnn_layout198>) -> () loc(#loc242)
        %536 = "ttnn.point_to_point"(%385, %535) <{receiver_coord = array<i64: 3, 12>, sender_coord = array<i64: 0, 12>}> : (tensor<1x4x1x448xf32, #ttnn_layout198>, tensor<1x4x1x448xf32, #ttnn_layout198>) -> tensor<1x4x1x448xf32, #ttnn_layout198> loc(#loc242)
        "ttnn.deallocate"(%535) <{force = false}> : (tensor<1x4x1x448xf32, #ttnn_layout198>) -> () loc(#loc242)
        %537 = "ttnn.point_to_point"(%382, %527) <{receiver_coord = array<i64: 0, 12>, sender_coord = array<i64: 1, 12>}> : (tensor<1x4x1x448xf32, #ttnn_layout198>, tensor<1x4x1x448xf32, #ttnn_layout198>) -> tensor<1x4x1x448xf32, #ttnn_layout198> loc(#loc242)
        "ttnn.deallocate"(%527) <{force = false}> : (tensor<1x4x1x448xf32, #ttnn_layout198>) -> () loc(#loc242)
        %538 = "ttnn.point_to_point"(%384, %537) <{receiver_coord = array<i64: 2, 12>, sender_coord = array<i64: 1, 12>}> : (tensor<1x4x1x448xf32, #ttnn_layout198>, tensor<1x4x1x448xf32, #ttnn_layout198>) -> tensor<1x4x1x448xf32, #ttnn_layout198> loc(#loc242)
        "ttnn.deallocate"(%537) <{force = false}> : (tensor<1x4x1x448xf32, #ttnn_layout198>) -> () loc(#loc242)
        %539 = "ttnn.point_to_point"(%385, %538) <{receiver_coord = array<i64: 3, 12>, sender_coord = array<i64: 1, 12>}> : (tensor<1x4x1x448xf32, #ttnn_layout198>, tensor<1x4x1x448xf32, #ttnn_layout198>) -> tensor<1x4x1x448xf32, #ttnn_layout198> loc(#loc242)
        "ttnn.deallocate"(%538) <{force = false}> : (tensor<1x4x1x448xf32, #ttnn_layout198>) -> () loc(#loc242)
        %540 = "ttnn.point_to_point"(%382, %530) <{receiver_coord = array<i64: 0, 12>, sender_coord = array<i64: 2, 12>}> : (tensor<1x4x1x448xf32, #ttnn_layout198>, tensor<1x4x1x448xf32, #ttnn_layout198>) -> tensor<1x4x1x448xf32, #ttnn_layout198> loc(#loc242)
        "ttnn.deallocate"(%530) <{force = false}> : (tensor<1x4x1x448xf32, #ttnn_layout198>) -> () loc(#loc242)
        %541 = "ttnn.point_to_point"(%383, %540) <{receiver_coord = array<i64: 1, 12>, sender_coord = array<i64: 2, 12>}> : (tensor<1x4x1x448xf32, #ttnn_layout198>, tensor<1x4x1x448xf32, #ttnn_layout198>) -> tensor<1x4x1x448xf32, #ttnn_layout198> loc(#loc242)
        "ttnn.deallocate"(%540) <{force = false}> : (tensor<1x4x1x448xf32, #ttnn_layout198>) -> () loc(#loc242)
        %542 = "ttnn.point_to_point"(%385, %541) <{receiver_coord = array<i64: 3, 12>, sender_coord = array<i64: 2, 12>}> : (tensor<1x4x1x448xf32, #ttnn_layout198>, tensor<1x4x1x448xf32, #ttnn_layout198>) -> tensor<1x4x1x448xf32, #ttnn_layout198> loc(#loc242)
        "ttnn.deallocate"(%541) <{force = false}> : (tensor<1x4x1x448xf32, #ttnn_layout198>) -> () loc(#loc242)
        %543 = "ttnn.point_to_point"(%382, %533) <{receiver_coord = array<i64: 0, 12>, sender_coord = array<i64: 3, 12>}> : (tensor<1x4x1x448xf32, #ttnn_layout198>, tensor<1x4x1x448xf32, #ttnn_layout198>) -> tensor<1x4x1x448xf32, #ttnn_layout198> loc(#loc242)
        "ttnn.deallocate"(%533) <{force = false}> : (tensor<1x4x1x448xf32, #ttnn_layout198>) -> () loc(#loc242)
        %544 = "ttnn.point_to_point"(%383, %543) <{receiver_coord = array<i64: 1, 12>, sender_coord = array<i64: 3, 12>}> : (tensor<1x4x1x448xf32, #ttnn_layout198>, tensor<1x4x1x448xf32, #ttnn_layout198>) -> tensor<1x4x1x448xf32, #ttnn_layout198> loc(#loc242)
        "ttnn.deallocate"(%543) <{force = false}> : (tensor<1x4x1x448xf32, #ttnn_layout198>) -> () loc(#loc242)
        %545 = "ttnn.point_to_point"(%384, %544) <{receiver_coord = array<i64: 2, 12>, sender_coord = array<i64: 3, 12>}> : (tensor<1x4x1x448xf32, #ttnn_layout198>, tensor<1x4x1x448xf32, #ttnn_layout198>) -> tensor<1x4x1x448xf32, #ttnn_layout198> loc(#loc242)
        "ttnn.deallocate"(%544) <{force = false}> : (tensor<1x4x1x448xf32, #ttnn_layout198>) -> () loc(#loc242)
        %546 = "ttnn.point_to_point"(%383, %536) <{receiver_coord = array<i64: 1, 13>, sender_coord = array<i64: 0, 13>}> : (tensor<1x4x1x448xf32, #ttnn_layout198>, tensor<1x4x1x448xf32, #ttnn_layout198>) -> tensor<1x4x1x448xf32, #ttnn_layout198> loc(#loc242)
        "ttnn.deallocate"(%536) <{force = false}> : (tensor<1x4x1x448xf32, #ttnn_layout198>) -> () loc(#loc242)
        %547 = "ttnn.point_to_point"(%384, %546) <{receiver_coord = array<i64: 2, 13>, sender_coord = array<i64: 0, 13>}> : (tensor<1x4x1x448xf32, #ttnn_layout198>, tensor<1x4x1x448xf32, #ttnn_layout198>) -> tensor<1x4x1x448xf32, #ttnn_layout198> loc(#loc242)
        "ttnn.deallocate"(%546) <{force = false}> : (tensor<1x4x1x448xf32, #ttnn_layout198>) -> () loc(#loc242)
        %548 = "ttnn.point_to_point"(%385, %547) <{receiver_coord = array<i64: 3, 13>, sender_coord = array<i64: 0, 13>}> : (tensor<1x4x1x448xf32, #ttnn_layout198>, tensor<1x4x1x448xf32, #ttnn_layout198>) -> tensor<1x4x1x448xf32, #ttnn_layout198> loc(#loc242)
        "ttnn.deallocate"(%547) <{force = false}> : (tensor<1x4x1x448xf32, #ttnn_layout198>) -> () loc(#loc242)
        %549 = "ttnn.point_to_point"(%382, %539) <{receiver_coord = array<i64: 0, 13>, sender_coord = array<i64: 1, 13>}> : (tensor<1x4x1x448xf32, #ttnn_layout198>, tensor<1x4x1x448xf32, #ttnn_layout198>) -> tensor<1x4x1x448xf32, #ttnn_layout198> loc(#loc242)
        "ttnn.deallocate"(%539) <{force = false}> : (tensor<1x4x1x448xf32, #ttnn_layout198>) -> () loc(#loc242)
        %550 = "ttnn.point_to_point"(%384, %549) <{receiver_coord = array<i64: 2, 13>, sender_coord = array<i64: 1, 13>}> : (tensor<1x4x1x448xf32, #ttnn_layout198>, tensor<1x4x1x448xf32, #ttnn_layout198>) -> tensor<1x4x1x448xf32, #ttnn_layout198> loc(#loc242)
        "ttnn.deallocate"(%549) <{force = false}> : (tensor<1x4x1x448xf32, #ttnn_layout198>) -> () loc(#loc242)
        %551 = "ttnn.point_to_point"(%385, %550) <{receiver_coord = array<i64: 3, 13>, sender_coord = array<i64: 1, 13>}> : (tensor<1x4x1x448xf32, #ttnn_layout198>, tensor<1x4x1x448xf32, #ttnn_layout198>) -> tensor<1x4x1x448xf32, #ttnn_layout198> loc(#loc242)
        "ttnn.deallocate"(%550) <{force = false}> : (tensor<1x4x1x448xf32, #ttnn_layout198>) -> () loc(#loc242)
        %552 = "ttnn.point_to_point"(%382, %542) <{receiver_coord = array<i64: 0, 13>, sender_coord = array<i64: 2, 13>}> : (tensor<1x4x1x448xf32, #ttnn_layout198>, tensor<1x4x1x448xf32, #ttnn_layout198>) -> tensor<1x4x1x448xf32, #ttnn_layout198> loc(#loc242)
        "ttnn.deallocate"(%542) <{force = false}> : (tensor<1x4x1x448xf32, #ttnn_layout198>) -> () loc(#loc242)
        %553 = "ttnn.point_to_point"(%383, %552) <{receiver_coord = array<i64: 1, 13>, sender_coord = array<i64: 2, 13>}> : (tensor<1x4x1x448xf32, #ttnn_layout198>, tensor<1x4x1x448xf32, #ttnn_layout198>) -> tensor<1x4x1x448xf32, #ttnn_layout198> loc(#loc242)
        "ttnn.deallocate"(%552) <{force = false}> : (tensor<1x4x1x448xf32, #ttnn_layout198>) -> () loc(#loc242)
        %554 = "ttnn.point_to_point"(%385, %553) <{receiver_coord = array<i64: 3, 13>, sender_coord = array<i64: 2, 13>}> : (tensor<1x4x1x448xf32, #ttnn_layout198>, tensor<1x4x1x448xf32, #ttnn_layout198>) -> tensor<1x4x1x448xf32, #ttnn_layout198> loc(#loc242)
        "ttnn.deallocate"(%553) <{force = false}> : (tensor<1x4x1x448xf32, #ttnn_layout198>) -> () loc(#loc242)
        %555 = "ttnn.point_to_point"(%382, %545) <{receiver_coord = array<i64: 0, 13>, sender_coord = array<i64: 3, 13>}> : (tensor<1x4x1x448xf32, #ttnn_layout198>, tensor<1x4x1x448xf32, #ttnn_layout198>) -> tensor<1x4x1x448xf32, #ttnn_layout198> loc(#loc242)
        "ttnn.deallocate"(%545) <{force = false}> : (tensor<1x4x1x448xf32, #ttnn_layout198>) -> () loc(#loc242)
        %556 = "ttnn.point_to_point"(%383, %555) <{receiver_coord = array<i64: 1, 13>, sender_coord = array<i64: 3, 13>}> : (tensor<1x4x1x448xf32, #ttnn_layout198>, tensor<1x4x1x448xf32, #ttnn_layout198>) -> tensor<1x4x1x448xf32, #ttnn_layout198> loc(#loc242)
        "ttnn.deallocate"(%555) <{force = false}> : (tensor<1x4x1x448xf32, #ttnn_layout198>) -> () loc(#loc242)
        %557 = "ttnn.point_to_point"(%384, %556) <{receiver_coord = array<i64: 2, 13>, sender_coord = array<i64: 3, 13>}> : (tensor<1x4x1x448xf32, #ttnn_layout198>, tensor<1x4x1x448xf32, #ttnn_layout198>) -> tensor<1x4x1x448xf32, #ttnn_layout198> loc(#loc242)
        "ttnn.deallocate"(%556) <{force = false}> : (tensor<1x4x1x448xf32, #ttnn_layout198>) -> () loc(#loc242)
        %558 = "ttnn.point_to_point"(%383, %548) <{receiver_coord = array<i64: 1, 14>, sender_coord = array<i64: 0, 14>}> : (tensor<1x4x1x448xf32, #ttnn_layout198>, tensor<1x4x1x448xf32, #ttnn_layout198>) -> tensor<1x4x1x448xf32, #ttnn_layout198> loc(#loc242)
        "ttnn.deallocate"(%548) <{force = false}> : (tensor<1x4x1x448xf32, #ttnn_layout198>) -> () loc(#loc242)
        %559 = "ttnn.point_to_point"(%384, %558) <{receiver_coord = array<i64: 2, 14>, sender_coord = array<i64: 0, 14>}> : (tensor<1x4x1x448xf32, #ttnn_layout198>, tensor<1x4x1x448xf32, #ttnn_layout198>) -> tensor<1x4x1x448xf32, #ttnn_layout198> loc(#loc242)
        "ttnn.deallocate"(%558) <{force = false}> : (tensor<1x4x1x448xf32, #ttnn_layout198>) -> () loc(#loc242)
        %560 = "ttnn.point_to_point"(%385, %559) <{receiver_coord = array<i64: 3, 14>, sender_coord = array<i64: 0, 14>}> : (tensor<1x4x1x448xf32, #ttnn_layout198>, tensor<1x4x1x448xf32, #ttnn_layout198>) -> tensor<1x4x1x448xf32, #ttnn_layout198> loc(#loc242)
        "ttnn.deallocate"(%559) <{force = false}> : (tensor<1x4x1x448xf32, #ttnn_layout198>) -> () loc(#loc242)
        %561 = "ttnn.point_to_point"(%382, %551) <{receiver_coord = array<i64: 0, 14>, sender_coord = array<i64: 1, 14>}> : (tensor<1x4x1x448xf32, #ttnn_layout198>, tensor<1x4x1x448xf32, #ttnn_layout198>) -> tensor<1x4x1x448xf32, #ttnn_layout198> loc(#loc242)
        "ttnn.deallocate"(%551) <{force = false}> : (tensor<1x4x1x448xf32, #ttnn_layout198>) -> () loc(#loc242)
        %562 = "ttnn.point_to_point"(%384, %561) <{receiver_coord = array<i64: 2, 14>, sender_coord = array<i64: 1, 14>}> : (tensor<1x4x1x448xf32, #ttnn_layout198>, tensor<1x4x1x448xf32, #ttnn_layout198>) -> tensor<1x4x1x448xf32, #ttnn_layout198> loc(#loc242)
        "ttnn.deallocate"(%561) <{force = false}> : (tensor<1x4x1x448xf32, #ttnn_layout198>) -> () loc(#loc242)
        %563 = "ttnn.point_to_point"(%385, %562) <{receiver_coord = array<i64: 3, 14>, sender_coord = array<i64: 1, 14>}> : (tensor<1x4x1x448xf32, #ttnn_layout198>, tensor<1x4x1x448xf32, #ttnn_layout198>) -> tensor<1x4x1x448xf32, #ttnn_layout198> loc(#loc242)
        "ttnn.deallocate"(%562) <{force = false}> : (tensor<1x4x1x448xf32, #ttnn_layout198>) -> () loc(#loc242)
        %564 = "ttnn.point_to_point"(%382, %554) <{receiver_coord = array<i64: 0, 14>, sender_coord = array<i64: 2, 14>}> : (tensor<1x4x1x448xf32, #ttnn_layout198>, tensor<1x4x1x448xf32, #ttnn_layout198>) -> tensor<1x4x1x448xf32, #ttnn_layout198> loc(#loc242)
        "ttnn.deallocate"(%554) <{force = false}> : (tensor<1x4x1x448xf32, #ttnn_layout198>) -> () loc(#loc242)
        %565 = "ttnn.point_to_point"(%383, %564) <{receiver_coord = array<i64: 1, 14>, sender_coord = array<i64: 2, 14>}> : (tensor<1x4x1x448xf32, #ttnn_layout198>, tensor<1x4x1x448xf32, #ttnn_layout198>) -> tensor<1x4x1x448xf32, #ttnn_layout198> loc(#loc242)
        "ttnn.deallocate"(%564) <{force = false}> : (tensor<1x4x1x448xf32, #ttnn_layout198>) -> () loc(#loc242)
        %566 = "ttnn.point_to_point"(%385, %565) <{receiver_coord = array<i64: 3, 14>, sender_coord = array<i64: 2, 14>}> : (tensor<1x4x1x448xf32, #ttnn_layout198>, tensor<1x4x1x448xf32, #ttnn_layout198>) -> tensor<1x4x1x448xf32, #ttnn_layout198> loc(#loc242)
        "ttnn.deallocate"(%565) <{force = false}> : (tensor<1x4x1x448xf32, #ttnn_layout198>) -> () loc(#loc242)
        %567 = "ttnn.point_to_point"(%382, %557) <{receiver_coord = array<i64: 0, 14>, sender_coord = array<i64: 3, 14>}> : (tensor<1x4x1x448xf32, #ttnn_layout198>, tensor<1x4x1x448xf32, #ttnn_layout198>) -> tensor<1x4x1x448xf32, #ttnn_layout198> loc(#loc242)
        "ttnn.deallocate"(%557) <{force = false}> : (tensor<1x4x1x448xf32, #ttnn_layout198>) -> () loc(#loc242)
        %568 = "ttnn.point_to_point"(%383, %567) <{receiver_coord = array<i64: 1, 14>, sender_coord = array<i64: 3, 14>}> : (tensor<1x4x1x448xf32, #ttnn_layout198>, tensor<1x4x1x448xf32, #ttnn_layout198>) -> tensor<1x4x1x448xf32, #ttnn_layout198> loc(#loc242)
        "ttnn.deallocate"(%567) <{force = false}> : (tensor<1x4x1x448xf32, #ttnn_layout198>) -> () loc(#loc242)
        %569 = "ttnn.point_to_point"(%384, %568) <{receiver_coord = array<i64: 2, 14>, sender_coord = array<i64: 3, 14>}> : (tensor<1x4x1x448xf32, #ttnn_layout198>, tensor<1x4x1x448xf32, #ttnn_layout198>) -> tensor<1x4x1x448xf32, #ttnn_layout198> loc(#loc242)
        "ttnn.deallocate"(%568) <{force = false}> : (tensor<1x4x1x448xf32, #ttnn_layout198>) -> () loc(#loc242)
        %570 = "ttnn.point_to_point"(%383, %560) <{receiver_coord = array<i64: 1, 15>, sender_coord = array<i64: 0, 15>}> : (tensor<1x4x1x448xf32, #ttnn_layout198>, tensor<1x4x1x448xf32, #ttnn_layout198>) -> tensor<1x4x1x448xf32, #ttnn_layout198> loc(#loc242)
        "ttnn.deallocate"(%560) <{force = false}> : (tensor<1x4x1x448xf32, #ttnn_layout198>) -> () loc(#loc242)
        %571 = "ttnn.point_to_point"(%384, %570) <{receiver_coord = array<i64: 2, 15>, sender_coord = array<i64: 0, 15>}> : (tensor<1x4x1x448xf32, #ttnn_layout198>, tensor<1x4x1x448xf32, #ttnn_layout198>) -> tensor<1x4x1x448xf32, #ttnn_layout198> loc(#loc242)
        "ttnn.deallocate"(%570) <{force = false}> : (tensor<1x4x1x448xf32, #ttnn_layout198>) -> () loc(#loc242)
        %572 = "ttnn.point_to_point"(%385, %571) <{receiver_coord = array<i64: 3, 15>, sender_coord = array<i64: 0, 15>}> : (tensor<1x4x1x448xf32, #ttnn_layout198>, tensor<1x4x1x448xf32, #ttnn_layout198>) -> tensor<1x4x1x448xf32, #ttnn_layout198> loc(#loc242)
        "ttnn.deallocate"(%571) <{force = false}> : (tensor<1x4x1x448xf32, #ttnn_layout198>) -> () loc(#loc242)
        %573 = "ttnn.point_to_point"(%382, %563) <{receiver_coord = array<i64: 0, 15>, sender_coord = array<i64: 1, 15>}> : (tensor<1x4x1x448xf32, #ttnn_layout198>, tensor<1x4x1x448xf32, #ttnn_layout198>) -> tensor<1x4x1x448xf32, #ttnn_layout198> loc(#loc242)
        "ttnn.deallocate"(%563) <{force = false}> : (tensor<1x4x1x448xf32, #ttnn_layout198>) -> () loc(#loc242)
        %574 = "ttnn.point_to_point"(%384, %573) <{receiver_coord = array<i64: 2, 15>, sender_coord = array<i64: 1, 15>}> : (tensor<1x4x1x448xf32, #ttnn_layout198>, tensor<1x4x1x448xf32, #ttnn_layout198>) -> tensor<1x4x1x448xf32, #ttnn_layout198> loc(#loc242)
        "ttnn.deallocate"(%573) <{force = false}> : (tensor<1x4x1x448xf32, #ttnn_layout198>) -> () loc(#loc242)
        %575 = "ttnn.point_to_point"(%385, %574) <{receiver_coord = array<i64: 3, 15>, sender_coord = array<i64: 1, 15>}> : (tensor<1x4x1x448xf32, #ttnn_layout198>, tensor<1x4x1x448xf32, #ttnn_layout198>) -> tensor<1x4x1x448xf32, #ttnn_layout198> loc(#loc242)
        "ttnn.deallocate"(%574) <{force = false}> : (tensor<1x4x1x448xf32, #ttnn_layout198>) -> () loc(#loc242)
        %576 = "ttnn.point_to_point"(%382, %566) <{receiver_coord = array<i64: 0, 15>, sender_coord = array<i64: 2, 15>}> : (tensor<1x4x1x448xf32, #ttnn_layout198>, tensor<1x4x1x448xf32, #ttnn_layout198>) -> tensor<1x4x1x448xf32, #ttnn_layout198> loc(#loc242)
        "ttnn.deallocate"(%566) <{force = false}> : (tensor<1x4x1x448xf32, #ttnn_layout198>) -> () loc(#loc242)
        %577 = "ttnn.point_to_point"(%383, %576) <{receiver_coord = array<i64: 1, 15>, sender_coord = array<i64: 2, 15>}> : (tensor<1x4x1x448xf32, #ttnn_layout198>, tensor<1x4x1x448xf32, #ttnn_layout198>) -> tensor<1x4x1x448xf32, #ttnn_layout198> loc(#loc242)
        "ttnn.deallocate"(%576) <{force = false}> : (tensor<1x4x1x448xf32, #ttnn_layout198>) -> () loc(#loc242)
        %578 = "ttnn.point_to_point"(%385, %577) <{receiver_coord = array<i64: 3, 15>, sender_coord = array<i64: 2, 15>}> : (tensor<1x4x1x448xf32, #ttnn_layout198>, tensor<1x4x1x448xf32, #ttnn_layout198>) -> tensor<1x4x1x448xf32, #ttnn_layout198> loc(#loc242)
        "ttnn.deallocate"(%577) <{force = false}> : (tensor<1x4x1x448xf32, #ttnn_layout198>) -> () loc(#loc242)
        "ttnn.deallocate"(%385) <{force = false}> : (tensor<1x4x1x448xf32, #ttnn_layout198>) -> () loc(#loc242)
        %579 = "ttnn.point_to_point"(%382, %569) <{receiver_coord = array<i64: 0, 15>, sender_coord = array<i64: 3, 15>}> : (tensor<1x4x1x448xf32, #ttnn_layout198>, tensor<1x4x1x448xf32, #ttnn_layout198>) -> tensor<1x4x1x448xf32, #ttnn_layout198> loc(#loc242)
        "ttnn.deallocate"(%569) <{force = false}> : (tensor<1x4x1x448xf32, #ttnn_layout198>) -> () loc(#loc242)
        "ttnn.deallocate"(%382) <{force = false}> : (tensor<1x4x1x448xf32, #ttnn_layout198>) -> () loc(#loc242)
        %580 = "ttnn.point_to_point"(%383, %579) <{receiver_coord = array<i64: 1, 15>, sender_coord = array<i64: 3, 15>}> : (tensor<1x4x1x448xf32, #ttnn_layout198>, tensor<1x4x1x448xf32, #ttnn_layout198>) -> tensor<1x4x1x448xf32, #ttnn_layout198> loc(#loc242)
        "ttnn.deallocate"(%579) <{force = false}> : (tensor<1x4x1x448xf32, #ttnn_layout198>) -> () loc(#loc242)
        "ttnn.deallocate"(%383) <{force = false}> : (tensor<1x4x1x448xf32, #ttnn_layout198>) -> () loc(#loc242)
        %581 = "ttnn.point_to_point"(%384, %580) <{receiver_coord = array<i64: 2, 15>, sender_coord = array<i64: 3, 15>}> : (tensor<1x4x1x448xf32, #ttnn_layout198>, tensor<1x4x1x448xf32, #ttnn_layout198>) -> tensor<1x4x1x448xf32, #ttnn_layout198> loc(#loc242)
        "ttnn.deallocate"(%580) <{force = false}> : (tensor<1x4x1x448xf32, #ttnn_layout198>) -> () loc(#loc242)
        "ttnn.deallocate"(%384) <{force = false}> : (tensor<1x4x1x448xf32, #ttnn_layout198>) -> () loc(#loc242)
        %582 = "ttnn.concat"(%572, %575, %578, %581) <{dim = 0 : si32}> : (tensor<1x4x1x448xf32, #ttnn_layout198>, tensor<1x4x1x448xf32, #ttnn_layout198>, tensor<1x4x1x448xf32, #ttnn_layout198>, tensor<1x4x1x448xf32, #ttnn_layout198>) -> tensor<4x4x1x448xf32, #ttnn_layout197> loc(#loc242)
        "ttnn.deallocate"(%581) <{force = false}> : (tensor<1x4x1x448xf32, #ttnn_layout198>) -> () loc(#loc242)
        "ttnn.deallocate"(%578) <{force = false}> : (tensor<1x4x1x448xf32, #ttnn_layout198>) -> () loc(#loc242)
        "ttnn.deallocate"(%575) <{force = false}> : (tensor<1x4x1x448xf32, #ttnn_layout198>) -> () loc(#loc242)
        "ttnn.deallocate"(%572) <{force = false}> : (tensor<1x4x1x448xf32, #ttnn_layout198>) -> () loc(#loc242)
        %583 = "ttnn.slice_static"(%582) <{begins = [0 : i32, 0 : i32, 0 : i32, 0 : i32], ends = [1 : i32, 4 : i32, 1 : i32, 448 : i32], step = [1 : i32, 1 : i32, 1 : i32, 1 : i32]}> : (tensor<4x4x1x448xf32, #ttnn_layout197>) -> tensor<1x4x1x448xf32, #ttnn_layout198> loc(#loc242)
        "ttnn.deallocate"(%582) <{force = false}> : (tensor<4x4x1x448xf32, #ttnn_layout197>) -> () loc(#loc242)
        %584 = "ttnn.typecast"(%583) <{dtype = #ttcore.supportedDataTypes<bf16>}> : (tensor<1x4x1x448xf32, #ttnn_layout198>) -> tensor<1x4x1x448xbf16, #ttnn_layout199> loc(#loc243)
        "ttnn.deallocate"(%583) <{force = false}> : (tensor<1x4x1x448xf32, #ttnn_layout198>) -> () loc(#loc243)
        %585 = "ttnn.reshape"(%584) <{shape = [4 : i32, 448 : i32]}> : (tensor<1x4x1x448xbf16, #ttnn_layout199>) -> tensor<4x448xbf16, #ttnn_layout82> loc(#loc243)
        "ttnn.deallocate"(%584) <{force = false}> : (tensor<1x4x1x448xbf16, #ttnn_layout199>) -> () loc(#loc243)
        %586 = "ttnn.matmul"(%255, %18) <{compute_config = #ttnn.device_compute_kernel_config<math_fidelity = hifi4, fp32_dest_acc_en = true>, transpose_a = false, transpose_b = true}> : (tensor<4x448xbf16, #ttnn_layout82>, tensor<2048x448x!ttcore.tile<32x32, bfp_bf8>, #ttnn_layout35>) -> tensor<4x2048xbf16, #ttnn_layout200> loc(#loc19)
        "ttnn.deallocate"(%18) <{force = false}> : (tensor<2048x448x!ttcore.tile<32x32, bfp_bf8>, #ttnn_layout35>) -> () loc(#loc19)
        %587 = "ttnn.reshape"(%586) <{shape = [1 : i32, 1 : i32, 4 : i32, 2048 : i32]}> : (tensor<4x2048xbf16, #ttnn_layout200>) -> tensor<1x1x4x2048xbf16, #ttnn_layout201> loc(#loc374)
        "ttnn.deallocate"(%586) <{force = false}> : (tensor<4x2048xbf16, #ttnn_layout200>) -> () loc(#loc374)
        %588 = "ttnn.reduce_scatter"(%587) <{cluster_axis = 1 : ui32, compute_config = #ttnn.device_compute_kernel_config<math_fidelity = hifi4, math_approx_mode = false, fp32_dest_acc_en = true, packer_l1_acc = false>, reduce_type = #ttcore.reduce_type<sum>, scatter_dim = 3 : si32}> : (tensor<1x1x4x2048xbf16, #ttnn_layout201>) -> tensor<1x1x4x128xbf16, #ttnn_layout117> loc(#loc375)
        "ttnn.deallocate"(%587) <{force = false}> : (tensor<1x1x4x2048xbf16, #ttnn_layout201>) -> () loc(#loc375)
        %589 = "ttnn.reshape"(%588) <{shape = [4 : i32, 128 : i32]}> : (tensor<1x1x4x128xbf16, #ttnn_layout117>) -> tensor<4x128xbf16, #ttnn_layout202> loc(#loc344)
        "ttnn.deallocate"(%588) <{force = false}> : (tensor<1x1x4x128xbf16, #ttnn_layout117>) -> () loc(#loc344)
        %590 = "ttnn.all_gather"(%589) <{all_gather_dim = 1 : si32, cluster_axis = 1 : ui32}> : (tensor<4x128xbf16, #ttnn_layout202>) -> tensor<4x2048xbf16, #ttnn_layout200> loc(#loc345)
        "ttnn.deallocate"(%589) <{force = false}> : (tensor<4x128xbf16, #ttnn_layout202>) -> () loc(#loc345)
        %591 = "ttnn.silu"(%590) : (tensor<4x2048xbf16, #ttnn_layout200>) -> tensor<4x2048xbf16, #ttnn_layout200> loc(#loc244)
        "ttnn.deallocate"(%590) <{force = false}> : (tensor<4x2048xbf16, #ttnn_layout200>) -> () loc(#loc244)
        %592 = "ttnn.matmul"(%255, %17) <{compute_config = #ttnn.device_compute_kernel_config<math_fidelity = hifi4, fp32_dest_acc_en = true>, transpose_a = false, transpose_b = true}> : (tensor<4x448xbf16, #ttnn_layout82>, tensor<2048x448x!ttcore.tile<32x32, bfp_bf8>, #ttnn_layout35>) -> tensor<4x2048xbf16, #ttnn_layout200> loc(#loc18)
        "ttnn.deallocate"(%255) <{force = false}> : (tensor<4x448xbf16, #ttnn_layout82>) -> () loc(#loc18)
        "ttnn.deallocate"(%17) <{force = false}> : (tensor<2048x448x!ttcore.tile<32x32, bfp_bf8>, #ttnn_layout35>) -> () loc(#loc18)
        %593 = "ttnn.reshape"(%592) <{shape = [1 : i32, 1 : i32, 4 : i32, 2048 : i32]}> : (tensor<4x2048xbf16, #ttnn_layout200>) -> tensor<1x1x4x2048xbf16, #ttnn_layout201> loc(#loc376)
        "ttnn.deallocate"(%592) <{force = false}> : (tensor<4x2048xbf16, #ttnn_layout200>) -> () loc(#loc376)
        %594 = "ttnn.reduce_scatter"(%593) <{cluster_axis = 1 : ui32, compute_config = #ttnn.device_compute_kernel_config<math_fidelity = hifi4, math_approx_mode = false, fp32_dest_acc_en = true, packer_l1_acc = false>, reduce_type = #ttcore.reduce_type<sum>, scatter_dim = 3 : si32}> : (tensor<1x1x4x2048xbf16, #ttnn_layout201>) -> tensor<1x1x4x128xbf16, #ttnn_layout117> loc(#loc377)
        "ttnn.deallocate"(%593) <{force = false}> : (tensor<1x1x4x2048xbf16, #ttnn_layout201>) -> () loc(#loc377)
        %595 = "ttnn.reshape"(%594) <{shape = [4 : i32, 128 : i32]}> : (tensor<1x1x4x128xbf16, #ttnn_layout117>) -> tensor<4x128xbf16, #ttnn_layout202> loc(#loc346)
        "ttnn.deallocate"(%594) <{force = false}> : (tensor<1x1x4x128xbf16, #ttnn_layout117>) -> () loc(#loc346)
        %596 = "ttnn.all_gather"(%595) <{all_gather_dim = 1 : si32, cluster_axis = 1 : ui32}> : (tensor<4x128xbf16, #ttnn_layout202>) -> tensor<4x2048xbf16, #ttnn_layout200> loc(#loc347)
        "ttnn.deallocate"(%595) <{force = false}> : (tensor<4x128xbf16, #ttnn_layout202>) -> () loc(#loc347)
        %597 = "ttnn.multiply"(%591, %596) <{dtype = #ttcore.supportedDataTypes<bf16>}> : (tensor<4x2048xbf16, #ttnn_layout200>, tensor<4x2048xbf16, #ttnn_layout200>) -> tensor<4x2048xbf16, #ttnn_layout200> loc(#loc245)
        "ttnn.deallocate"(%596) <{force = false}> : (tensor<4x2048xbf16, #ttnn_layout200>) -> () loc(#loc245)
        "ttnn.deallocate"(%591) <{force = false}> : (tensor<4x2048xbf16, #ttnn_layout200>) -> () loc(#loc245)
        %598 = "ttnn.matmul"(%597, %43) <{compute_config = #ttnn.device_compute_kernel_config<math_fidelity = hifi4, fp32_dest_acc_en = true>, transpose_a = false, transpose_b = true}> : (tensor<4x2048xbf16, #ttnn_layout200>, tensor<448x2048x!ttcore.tile<32x32, bfp_bf8>, #ttnn_layout70>) -> tensor<4x448xbf16, #ttnn_layout82> loc(#loc263)
        "ttnn.deallocate"(%597) <{force = false}> : (tensor<4x2048xbf16, #ttnn_layout200>) -> () loc(#loc263)
        "ttnn.deallocate"(%43) <{force = false}> : (tensor<448x2048x!ttcore.tile<32x32, bfp_bf8>, #ttnn_layout70>) -> () loc(#loc263)
        %599 = "ttnn.add"(%598, %585) <{dtype = #ttcore.supportedDataTypes<bf16>}> : (tensor<4x448xbf16, #ttnn_layout82>, tensor<4x448xbf16, #ttnn_layout82>) -> tensor<4x448xbf16, #ttnn_layout82> loc(#loc348)
        "ttnn.deallocate"(%598) <{force = false}> : (tensor<4x448xbf16, #ttnn_layout82>) -> () loc(#loc348)
        "ttnn.deallocate"(%585) <{force = false}> : (tensor<4x448xbf16, #ttnn_layout82>) -> () loc(#loc348)
        %600 = "ttnn.add"(%245, %599) <{dtype = #ttcore.supportedDataTypes<bf16>}> : (tensor<4x448xbf16, #ttnn_layout82>, tensor<4x448xbf16, #ttnn_layout82>) -> tensor<4x448xbf16, #ttnn_layout82> loc(#loc246)
        "ttnn.deallocate"(%599) <{force = false}> : (tensor<4x448xbf16, #ttnn_layout82>) -> () loc(#loc246)
        "ttnn.deallocate"(%245) <{force = false}> : (tensor<4x448xbf16, #ttnn_layout82>) -> () loc(#loc246)
        %601 = "ttnn.multiply"(%600, %600) <{dtype = #ttcore.supportedDataTypes<bf16>}> : (tensor<4x448xbf16, #ttnn_layout82>, tensor<4x448xbf16, #ttnn_layout82>) -> tensor<4x448xbf16, #ttnn_layout82> loc(#loc349)
        %602 = "ttnn.mean"(%601) <{compute_config = #ttnn.device_compute_kernel_config<math_fidelity = hifi4, fp32_dest_acc_en = true>, dim_arg = [1 : i32], keep_dim = true}> : (tensor<4x448xbf16, #ttnn_layout82>) -> tensor<4x1xbf16, #ttnn_layout44> loc(#loc350)
        "ttnn.deallocate"(%601) <{force = false}> : (tensor<4x448xbf16, #ttnn_layout82>) -> () loc(#loc350)
        %603 = "ttnn.all_gather"(%602) <{all_gather_dim = 1 : si32, cluster_axis = 1 : ui32}> : (tensor<4x1xbf16, #ttnn_layout44>) -> tensor<4x16xbf16, #ttnn_layout44> loc(#loc351)
        "ttnn.deallocate"(%602) <{force = false}> : (tensor<4x1xbf16, #ttnn_layout44>) -> () loc(#loc351)
        %604 = "ttnn.mean"(%603) <{compute_config = #ttnn.device_compute_kernel_config<math_fidelity = hifi4, fp32_dest_acc_en = true>, dim_arg = [1 : i32], keep_dim = true}> : (tensor<4x16xbf16, #ttnn_layout44>) -> tensor<4x1xbf16, #ttnn_layout44> loc(#loc352)
        "ttnn.deallocate"(%603) <{force = false}> : (tensor<4x16xbf16, #ttnn_layout44>) -> () loc(#loc352)
        %605 = "ttnn.add"(%604, %26) <{dtype = #ttcore.supportedDataTypes<bf16>}> : (tensor<4x1xbf16, #ttnn_layout44>, tensor<4x1xbf16, #ttnn_layout44>) -> tensor<4x1xbf16, #ttnn_layout44> loc(#loc353)
        "ttnn.deallocate"(%604) <{force = false}> : (tensor<4x1xbf16, #ttnn_layout44>) -> () loc(#loc353)
        "ttnn.deallocate"(%26) <{force = false}> : (tensor<4x1xbf16, #ttnn_layout44>) -> () loc(#loc353)
        %606 = "ttnn.rsqrt"(%605) : (tensor<4x1xbf16, #ttnn_layout44>) -> tensor<4x1xbf16, #ttnn_layout44> loc(#loc354)
        "ttnn.deallocate"(%605) <{force = false}> : (tensor<4x1xbf16, #ttnn_layout44>) -> () loc(#loc354)
        %607 = "ttnn.multiply"(%600, %606) <{dtype = #ttcore.supportedDataTypes<bf16>}> : (tensor<4x448xbf16, #ttnn_layout82>, tensor<4x1xbf16, #ttnn_layout44>) -> tensor<4x448xbf16, #ttnn_layout82> loc(#loc355)
        "ttnn.deallocate"(%606) <{force = false}> : (tensor<4x1xbf16, #ttnn_layout44>) -> () loc(#loc355)
        "ttnn.deallocate"(%600) <{force = false}> : (tensor<4x448xbf16, #ttnn_layout82>) -> () loc(#loc355)
        %608 = "ttnn.multiply"(%607, %10) <{dtype = #ttcore.supportedDataTypes<bf16>}> : (tensor<4x448xbf16, #ttnn_layout82>, tensor<448xbf16, #ttnn_layout7>) -> tensor<4x448xbf16, #ttnn_layout82> loc(#loc356)
        "ttnn.deallocate"(%607) <{force = false}> : (tensor<4x448xbf16, #ttnn_layout82>) -> () loc(#loc356)
        "ttnn.deallocate"(%10) <{force = false}> : (tensor<448xbf16, #ttnn_layout7>) -> () loc(#loc356)
        %609 = "ttnn.all_gather"(%608) <{all_gather_dim = 0 : si32, cluster_axis = 0 : ui32}> : (tensor<4x448xbf16, #ttnn_layout82>) -> tensor<16x448xbf16, #ttnn_layout82> loc(#loc248)
        "ttnn.deallocate"(%608) <{force = false}> : (tensor<4x448xbf16, #ttnn_layout82>) -> () loc(#loc248)
        %610 = "ttnn.matmul"(%609, %21) <{compute_config = #ttnn.device_compute_kernel_config<math_fidelity = hifi4, fp32_dest_acc_en = true>, transpose_a = false, transpose_b = true}> : (tensor<16x448xbf16, #ttnn_layout82>, tensor<40960x448x!ttcore.tile<32x32, bfp_bf8>, #ttnn_layout37>) -> tensor<16x40960xbf16, #ttnn_layout203> loc(#loc21)
        "ttnn.deallocate"(%609) <{force = false}> : (tensor<16x448xbf16, #ttnn_layout82>) -> () loc(#loc21)
        "ttnn.deallocate"(%21) <{force = false}> : (tensor<40960x448x!ttcore.tile<32x32, bfp_bf8>, #ttnn_layout37>) -> () loc(#loc21)
        %611 = "ttnn.reshape"(%610) <{shape = [1 : i32, 1 : i32, 16 : i32, 40960 : i32]}> : (tensor<16x40960xbf16, #ttnn_layout203>) -> tensor<1x1x16x40960xbf16, #ttnn_layout204> loc(#loc378)
        "ttnn.deallocate"(%610) <{force = false}> : (tensor<16x40960xbf16, #ttnn_layout203>) -> () loc(#loc378)
        %612 = "ttnn.reduce_scatter"(%611) <{cluster_axis = 1 : ui32, compute_config = #ttnn.device_compute_kernel_config<math_fidelity = hifi4, math_approx_mode = false, fp32_dest_acc_en = true, packer_l1_acc = false>, reduce_type = #ttcore.reduce_type<sum>, scatter_dim = 3 : si32}> : (tensor<1x1x16x40960xbf16, #ttnn_layout204>) -> tensor<1x1x16x2560xbf16, #ttnn_layout205> loc(#loc379)
        "ttnn.deallocate"(%611) <{force = false}> : (tensor<1x1x16x40960xbf16, #ttnn_layout204>) -> () loc(#loc379)
        %613 = "ttnn.reshape"(%612) <{shape = [16 : i32, 2560 : i32]}> : (tensor<1x1x16x2560xbf16, #ttnn_layout205>) -> tensor<16x2560xbf16, #ttnn_layout206> loc(#loc357)
        "ttnn.deallocate"(%612) <{force = false}> : (tensor<1x1x16x2560xbf16, #ttnn_layout205>) -> () loc(#loc357)
        %614 = "ttnn.all_gather"(%613) <{all_gather_dim = 1 : si32, cluster_axis = 1 : ui32}> : (tensor<16x2560xbf16, #ttnn_layout206>) -> tensor<16x40960xbf16, #ttnn_layout203> loc(#loc358)
        "ttnn.deallocate"(%613) <{force = false}> : (tensor<16x2560xbf16, #ttnn_layout206>) -> () loc(#loc358)
        %615 = "ttnn.typecast"(%614) <{dtype = #ttcore.supportedDataTypes<f32>}> : (tensor<16x40960xbf16, #ttnn_layout203>) -> tensor<16x40960xf32, #ttnn_layout207> loc(#loc249)
        "ttnn.deallocate"(%614) <{force = false}> : (tensor<16x40960xbf16, #ttnn_layout203>) -> () loc(#loc249)
        %616 = "ttnn.reshape"(%615) <{shape = [16 : i32, 1 : i32, 40960 : i32]}> : (tensor<16x40960xf32, #ttnn_layout207>) -> tensor<16x1x40960xf32, #ttnn_layout208> loc(#loc249)
        "ttnn.deallocate"(%615) <{force = false}> : (tensor<16x40960xf32, #ttnn_layout207>) -> () loc(#loc249)
        %617 = "ttnn.mesh_shard"(%49, %47) <{shard_dims = array<i64: 0, -1>, shard_direction = #ttcore.shard_direction<shard_to_full>, shard_shape = array<i64: 4, 1, 1, 1>, shard_type = #ttcore.shard_type<identity>}> : (tensor<4x1x128x512xbf16, #ttnn_layout78>, !ttnn.device) -> tensor<16x1x128x512xbf16, #ttnn_layout73> loc(#loc)
        %618 = "ttnn.mesh_shard"(%50, %47) <{shard_dims = array<i64: 0, -1>, shard_direction = #ttcore.shard_direction<shard_to_full>, shard_shape = array<i64: 4, 1, 1, 1>, shard_type = #ttcore.shard_type<identity>}> : (tensor<4x1x128x64xbf16, #ttnn_layout79>, !ttnn.device) -> tensor<16x1x128x64xbf16, #ttnn_layout74> loc(#loc)
        %619 = "ttnn.mesh_shard"(%51, %47) <{shard_dims = array<i64: 0, -1>, shard_direction = #ttcore.shard_direction<shard_to_full>, shard_shape = array<i64: 4, 1, 1, 1>, shard_type = #ttcore.shard_type<identity>}> : (tensor<4x1x128x512xbf16, #ttnn_layout78>, !ttnn.device) -> tensor<16x1x128x512xbf16, #ttnn_layout73> loc(#loc)
        %620 = "ttnn.mesh_shard"(%52, %47) <{shard_dims = array<i64: 0, -1>, shard_direction = #ttcore.shard_direction<shard_to_full>, shard_shape = array<i64: 4, 1, 1, 1>, shard_type = #ttcore.shard_type<identity>}> : (tensor<4x1x128x64xbf16, #ttnn_layout79>, !ttnn.device) -> tensor<16x1x128x64xbf16, #ttnn_layout74> loc(#loc)
        %621 = "ttnn.mesh_shard"(%616, %47) <{shard_dims = array<i64: 2, -1>, shard_direction = #ttcore.shard_direction<shard_to_full>, shard_shape = array<i64: 1, 1, 4>, shard_type = #ttcore.shard_type<identity>}> : (tensor<16x1x40960xf32, #ttnn_layout208>, !ttnn.device) -> tensor<16x1x163840xf32, #ttnn_layout77> loc(#loc)
        return %617, %618, %619, %620, %4, %4, %41#0, %41#2, %41#0, %41#2, %621 : tensor<16x1x128x512xbf16, #ttnn_layout73>, tensor<16x1x128x64xbf16, #ttnn_layout74>, tensor<16x1x128x512xbf16, #ttnn_layout73>, tensor<16x1x128x64xbf16, #ttnn_layout74>, tensor<32xf32, #ttnn_layout11>, tensor<32xf32, #ttnn_layout11>, tensor<128x64xbf16, #ttnn_layout65>, tensor<128x64xbf16, #ttnn_layout65>, tensor<128x64xbf16, #ttnn_layout65>, tensor<128x64xbf16, #ttnn_layout65>, tensor<16x1x163840xf32, #ttnn_layout77> loc(#loc)
      } loc(#loc)
    } loc(#loc)
  } loc(#loc)
} loc(#loc)
#loc1 = loc("gather.25")
#loc2 = loc("dot.954")
#loc3 = loc("reshape.1017")
#loc4 = loc("reshape.1014")
#loc5 = loc("convert.1028")
#loc6 = loc("add.167")
#loc7 = loc("dot.862")
#loc8 = loc("dot.414")
#loc9 = loc("scatter.1107")
#loc10 = loc("dot.564")
#loc11 = loc("reshape.1222")
#loc12 = loc("custom-call.1225")
#loc13 = loc("broadcast.349")
#loc14 = loc("reshape.1214")
#loc15 = loc("custom-call.1217")
#loc16 = loc("reshape.1210")
#loc17 = loc("custom-call.1233")
#loc18 = loc("dot.993")
#loc19 = loc("dot.1001")
#loc20 = loc("dot.61")
#loc21 = loc("dot.1291")
#loc22 = loc("dot.517")
#loc23 = loc("iota.1101")
#loc24 = loc("custom-call.59")
#loc25 = loc("convert.1022")
#loc26 = loc("dot.1026")
#loc27 = loc("dot.378")
#loc28 = loc("dot.828")
#loc29 = loc("iota.1150")
#loc30 = loc("dot.1171")
#loc31 = loc("add.1165")
#loc32 = loc("dot.329")
#loc33 = loc("custom-call.991")
#loc34 = loc("dot.470")
#loc35 = loc("dot.509")
#loc36 = loc("dot.525")
#loc37 = loc("broadcast.1139")
#loc38 = loc("custom-call.1196")
#loc39 = loc("multiply.174")
#loc40 = loc("concatenate.177")
#loc41 = loc("cosine.209")
#loc42 = loc("convert.212")
#loc43 = loc("gather.214")
#loc44 = loc("sine.178")
#loc45 = loc("convert.181")
#loc46 = loc("gather.183")
#loc47 = loc("dot.898")
#loc48 = loc("add.1253")
#loc49 = loc("logistic.1027")
#loc89 = loc("convert.24")
#loc90 = loc("custom-call.412")
#loc91 = loc("transpose.417")
#loc92 = loc("slice.435")
#loc93 = loc("slice.418")
#loc94 = loc("reshape.419")
#loc95 = loc("transpose.420")
#loc96 = loc("reshape.421")
#loc97 = loc("reshape.88")
#loc98 = loc("reshape.66")
#loc99 = loc("compare.204")
#loc100 = loc("add.201")
#loc101 = loc("select.205")
#loc102 = loc("broadcast.430")
#loc103 = loc("multiply.431")
#loc104 = loc("slice.423")
#loc105 = loc("negate.424")
#loc106 = loc("slice.422")
#loc107 = loc("concatenate.425")
#loc108 = loc("broadcast.427")
#loc109 = loc("multiply.428")
#loc110 = loc("add.434")
#loc111 = loc("concatenate.436")
#loc112 = loc("slice.63")
#loc113 = loc("scatter.85")
#loc114 = loc("custom-call.327")
#loc115 = loc("reshape.331")
#loc116 = loc("transpose.332")
#loc117 = loc("slice.354")
#loc118 = loc("slice.185")
#loc119 = loc("reshape.188")
#loc120 = loc("transpose.189")
#loc121 = loc("reshape.190")
#loc122 = loc("scatter.238")
#loc123 = loc("multiply.218")
#loc124 = loc("slice.192")
#loc125 = loc("negate.193")
#loc126 = loc("slice.191")
#loc127 = loc("concatenate.194")
#loc128 = loc("multiply.197")
#loc129 = loc("add.221")
#loc130 = loc("broadcast.353")
#loc131 = loc("concatenate.355")
#loc132 = loc("dot.437")
#loc133 = loc("multiply.440")
#loc134 = loc("compare.341")
#loc135 = loc("multiply.344")
#loc136 = loc("add.445")
#loc137 = loc("convert.446")
#loc138 = loc("divide.463")
#loc139 = loc("convert.464")
#loc140 = loc("slice.333")
#loc141 = loc("dot.465")
#loc142 = loc("reshape.469")
#loc143 = loc("add.474")
#loc144 = loc("custom-call.507")
#loc145 = loc("reshape.516")
#loc146 = loc("multiply.521")
#loc147 = loc("multiply.523")
#loc148 = loc("add.529")
#loc149 = loc("custom-call.562")
#loc150 = loc("custom-call.896")
#loc151 = loc("transpose.901")
#loc152 = loc("slice.919")
#loc153 = loc("slice.902")
#loc154 = loc("reshape.903")
#loc155 = loc("transpose.904")
#loc156 = loc("reshape.905")
#loc157 = loc("multiply.915")
#loc158 = loc("slice.907")
#loc159 = loc("negate.908")
#loc160 = loc("slice.906")
#loc161 = loc("concatenate.909")
#loc162 = loc("multiply.912")
#loc163 = loc("add.918")
#loc164 = loc("concatenate.920")
#loc165 = loc("slice.566")
#loc166 = loc("scatter.584")
#loc167 = loc("custom-call.826")
#loc168 = loc("reshape.830")
#loc169 = loc("transpose.831")
#loc170 = loc("slice.838")
#loc171 = loc("slice.683")
#loc172 = loc("reshape.686")
#loc173 = loc("transpose.687")
#loc174 = loc("reshape.688")
#loc175 = loc("scatter.736")
#loc176 = loc("multiply.716")
#loc177 = loc("slice.690")
#loc178 = loc("negate.691")
#loc179 = loc("slice.689")
#loc180 = loc("concatenate.692")
#loc181 = loc("multiply.695")
#loc182 = loc("add.719")
#loc183 = loc("broadcast.837")
#loc184 = loc("concatenate.839")
#loc185 = loc("dot.921")
#loc186 = loc("multiply.924")
#loc187 = loc("add.929")
#loc188 = loc("convert.930")
#loc189 = loc("divide.947")
#loc190 = loc("convert.948")
#loc191 = loc("slice.832")
#loc192 = loc("dot.949")
#loc193 = loc("reshape.953")
#loc194 = loc("add.958")
#loc195 = loc("reshape.1024")
#loc196 = loc("convert.1025")
#loc197 = loc("add.1033")
#loc198 = loc("reshape.1046")
#loc199 = loc("reduce.1074")
#loc200 = loc("reshape.1102")
#loc201 = loc("concatenate.1103")
#loc202 = loc("reshape.1112")
#loc203 = loc("convert.1113")
#loc204 = loc("select.1116")
#loc205 = loc("not.1114")
#loc206 = loc("convert.1149")
#loc207 = loc("concatenate.1152")
#loc208 = loc("gather.1153")
#loc209 = loc("reduce.1161")
#loc210 = loc("divide.1168")
#loc211 = loc("multiply.1170")
#loc212 = loc("broadcast.1141")
#loc213 = loc("compare.1142")
#loc214 = loc("convert.1143")
#loc215 = loc("pad.1174")
#loc216 = loc("concatenate.1202")
#loc217 = loc("pad.1194")
#loc218 = loc("reshape.1195")
#loc219 = loc("convert.1136")
#loc220 = loc("pad.1177")
#loc221 = loc("reshape.1192")
#loc222 = loc("reshape.1199")
#loc223 = loc("custom-call.1205")
#loc224 = loc("reshape.1224")
#loc225 = loc("reshape.1219")
#loc226 = loc("reshape.1232")
#loc227 = loc("multiply.1229")
#loc228 = loc("multiply.1231")
#loc229 = loc("transpose.1234")
#loc230 = loc("reshape.1235")
#loc231 = loc("custom-call.1236")
#loc232 = loc("convert.1237")
#loc233 = loc("broadcast.1181")
#loc234 = loc("compare.1182")
#loc235 = loc("convert.1183")
#loc236 = loc("dot.1184")
#loc237 = loc("transpose.1186")
#loc238 = loc("broadcast.1239")
#loc239 = loc("multiply.1240")
#loc240 = loc("reduce.1247")
#loc241 = loc("reshape.1248")
#loc242 = loc("slice.1249")
#loc243 = loc("convert.1250")
#loc244 = loc("multiply.1005")
#loc245 = loc("multiply.1007")
#loc246 = loc("add.1256")
#loc247 = loc("custom-call.1289")
#loc248 = loc("reshape.1290")
#loc249 = loc("convert.1293")
#loc250 = loc("gather.25_workaround"(#loc1))
#loc251 = loc(fused[#loc3, #loc4])
#loc252 = loc("scatter.1107_input_flatten"(#loc9))
#loc253 = loc("scatter.1107_workaround"(#loc9))
#loc254 = loc("broadcast.349_tm0"(#loc13))
#loc255 = loc("broadcast.349_tm1"(#loc13))
#loc256 = loc("custom-call.59_epsilon"(#loc24))
#loc257 = loc("dot.1171_reshapeLhs"(#loc30))
#loc258 = loc("add.1165_tm0"(#loc31))
#loc259 = loc("custom-call.991_epsilon"(#loc33))
#loc260 = loc("custom-call.1196_workaround"(#loc38))
#loc261 = loc("gather.214_workaround"(#loc43))
#loc262 = loc("gather.183_workaround"(#loc46))
#loc263 = loc("add.1253_decomp_matmul"(#loc48))
#loc264 = loc("logistic.1027_constant"(#loc49))
#loc265 = loc("scatter.1107_update_flatten"(#loc9))
#loc266 = loc("custom-call.59_square"(#loc24))
#loc267 = loc("custom-call.59_local_mean"(#loc24))
#loc268 = loc("custom-call.59_all_gather"(#loc24))
#loc269 = loc("custom-call.59_global_mean"(#loc24))
#loc270 = loc("custom-call.59_add_eps"(#loc24))
#loc271 = loc("custom-call.59_rsqrt"(#loc24))
#loc272 = loc("custom-call.59_normalize"(#loc24))
#loc273 = loc("custom-call.59_weight"(#loc24))
#loc274 = loc("dot.378_reduce_scatter"(#loc27))
#loc275 = loc("dot.378_all_gather"(#loc27))
#loc276 = loc(fused[#loc97, #loc98])
#loc277 = loc("select.205_workaround"(#loc101))
#loc278 = loc("dot.61_reshape"(#loc20))
#loc279 = loc("dot.61_allGather"(#loc20))
#loc280 = loc("scatter.85_workaround"(#loc113))
#loc281 = loc("scatter.238_tm0"(#loc122))
#loc282 = loc("dot.470_reshape_to_4d"(#loc34))
#loc283 = loc("dot.470_reduce_scatter_4d"(#loc34))
#loc284 = loc("custom-call.507_square"(#loc144))
#loc285 = loc("custom-call.507_local_mean"(#loc144))
#loc286 = loc("custom-call.507_all_gather"(#loc144))
#loc287 = loc("custom-call.507_global_mean"(#loc144))
#loc288 = loc("custom-call.507_add_eps"(#loc144))
#loc289 = loc("custom-call.507_rsqrt"(#loc144))
#loc290 = loc("custom-call.507_normalize"(#loc144))
#loc291 = loc("custom-call.507_weight"(#loc144))
#loc292 = loc("dot.517_reduce_scatter"(#loc22))
#loc293 = loc("dot.517_all_gather"(#loc22))
#loc294 = loc("dot.509_reduce_scatter"(#loc35))
#loc295 = loc("dot.509_all_gather"(#loc35))
#loc296 = loc("dot.525_reshape_to_4d"(#loc36))
#loc297 = loc("dot.525_reduce_scatter_4d"(#loc36))
#loc298 = loc("custom-call.562_square"(#loc149))
#loc299 = loc("custom-call.562_local_mean"(#loc149))
#loc300 = loc("custom-call.562_all_gather"(#loc149))
#loc301 = loc("custom-call.562_global_mean"(#loc149))
#loc302 = loc("custom-call.562_add_eps"(#loc149))
#loc303 = loc("custom-call.562_rsqrt"(#loc149))
#loc304 = loc("custom-call.562_normalize"(#loc149))
#loc305 = loc("custom-call.562_weight"(#loc149))
#loc306 = loc("dot.862_reduce_scatter"(#loc7))
#loc307 = loc("dot.862_all_gather"(#loc7))
#loc308 = loc("dot.564_reshape"(#loc10))
#loc309 = loc("dot.564_allGather"(#loc10))
#loc310 = loc("scatter.736_tm0"(#loc175))
#loc311 = loc("dot.954_reshape_to_4d"(#loc2))
#loc312 = loc("dot.954_reduce_scatter_4d"(#loc2))
#loc313 = loc("custom-call.991_square"(#loc33))
#loc314 = loc("custom-call.991_local_mean"(#loc33))
#loc315 = loc("custom-call.991_all_gather"(#loc33))
#loc316 = loc("custom-call.991_global_mean"(#loc33))
#loc317 = loc("custom-call.991_add_eps"(#loc33))
#loc318 = loc("custom-call.991_rsqrt"(#loc33))
#loc319 = loc("custom-call.991_normalize"(#loc33))
#loc320 = loc("custom-call.991_weight"(#loc33))
#loc321 = loc("dot.1026_reshape"(#loc26))
#loc322 = loc("dot.1026_allGather"(#loc26))
#loc323 = loc("scatter.1107_flatten_repeated_indices"(#loc9))
#loc324 = loc("scatter.1107_slice_orig_idx_0"(#loc9))
#loc325 = loc("scatter.1107_slice_orig_idx_1"(#loc9))
#loc326 = loc("scatter.1107_add_dim_1"(#loc9))
#loc327 = loc("scatter.1107_result_reshape"(#loc9))
#loc328 = loc(fused[#loc204, #loc205])
#loc329 = loc("gather.1153_reshapeInput"(#loc208))
#loc330 = loc("logistic.1027_typecast"(#loc49))
#loc331 = loc("gather.1153_workaround"(#loc208))
#loc332 = loc("gather.1153_reshapeOutput"(#loc208))
#loc333 = loc("dot.1171_reshapeOutput"(#loc30))
#loc334 = loc("custom-call.1205_workaround"(#loc223))
#loc335 = loc("custom-call.1225_workaround"(#loc12))
#loc336 = loc("reshape.1232_tm0"(#loc226))
#loc337 = loc("reshape.1232_tm1"(#loc226))
#loc338 = loc("custom-call.1233_workaround"(#loc17))
#loc339 = loc("custom-call.1236_workaround"(#loc231))
#loc340 = loc("custom-call.1236_reduce_scatter"(#loc231))
#loc341 = loc("custom-call.1236_all_gather"(#loc231))
#loc342 = loc("dot.1184_reshapeRhs"(#loc236))
#loc343 = loc("dot.1184_reshapeOutput"(#loc236))
#loc344 = loc("dot.1001_reduce_scatter"(#loc19))
#loc345 = loc("dot.1001_all_gather"(#loc19))
#loc346 = loc("dot.993_reduce_scatter"(#loc18))
#loc347 = loc("dot.993_all_gather"(#loc18))
#loc348 = loc("add.1253_decomp_add"(#loc48))
#loc349 = loc("custom-call.1289_square"(#loc247))
#loc350 = loc("custom-call.1289_local_mean"(#loc247))
#loc351 = loc("custom-call.1289_all_gather"(#loc247))
#loc352 = loc("custom-call.1289_global_mean"(#loc247))
#loc353 = loc("custom-call.1289_add_eps"(#loc247))
#loc354 = loc("custom-call.1289_rsqrt"(#loc247))
#loc355 = loc("custom-call.1289_normalize"(#loc247))
#loc356 = loc("custom-call.1289_weight"(#loc247))
#loc357 = loc("dot.1291_reduce_scatter"(#loc21))
#loc358 = loc("dot.1291_all_gather"(#loc21))
#loc359 = loc("broadcast.349_tm0_tm0"(#loc254))
#loc360 = loc("dot.1171_reshapeLhs_tm1"(#loc257))
#loc361 = loc("dot.378_reduce_scatter_reshape_to_4d"(#loc274))
#loc362 = loc("dot.378_reduce_scatter_reduce_scatter_4d"(#loc274))
#loc363 = loc("scatter.238_tm0_tm0"(#loc281))
#loc364 = loc("broadcast.349_tm0_tm1"(#loc254))
#loc365 = loc("dot.517_reduce_scatter_reshape_to_4d"(#loc292))
#loc366 = loc("dot.517_reduce_scatter_reduce_scatter_4d"(#loc292))
#loc367 = loc("dot.509_reduce_scatter_reshape_to_4d"(#loc294))
#loc368 = loc("dot.509_reduce_scatter_reduce_scatter_4d"(#loc294))
#loc369 = loc("dot.862_reduce_scatter_reshape_to_4d"(#loc306))
#loc370 = loc("dot.862_reduce_scatter_reduce_scatter_4d"(#loc306))
#loc371 = loc("scatter.736_tm0_tm0"(#loc310))
#loc372 = loc("dot.1171_reshapeLhs_tm0"(#loc257))
#loc373 = loc("reshape.1232_tm0_tm0"(#loc336))
#loc374 = loc("dot.1001_reduce_scatter_reshape_to_4d"(#loc344))
#loc375 = loc("dot.1001_reduce_scatter_reduce_scatter_4d"(#loc344))
#loc376 = loc("dot.993_reduce_scatter_reshape_to_4d"(#loc346))
#loc377 = loc("dot.993_reduce_scatter_reduce_scatter_4d"(#loc346))
#loc378 = loc("dot.1291_reduce_scatter_reshape_to_4d"(#loc357))
#loc379 = loc("dot.1291_reduce_scatter_reduce_scatter_4d"(#loc357))
#loc380 = loc("dot.1171_reshapeLhs_tm0_tm0"(#loc372))
