#loc1 = loc("p0.1")
#loc2 = loc("p1.6")
#loc3 = loc("p2.15")
#loc4 = loc("p3.20")
#loc5 = loc("p4.65")
#loc6 = loc("p5.79")
#loc7 = loc("p6.232")
#loc8 = loc("p7.240")
#loc9 = loc("p8.245")
#loc10 = loc("p9.255")
#loc11 = loc("p10.260")
#loc12 = loc("p11.265")
#loc13 = loc("p12.275")
#loc14 = loc("p13.280")
#loc15 = loc("p14.285")
#loc16 = loc("p15.358")
#loc17 = loc("p16.363")
#loc18 = loc("p17.372")
#loc19 = loc("p18.511")
module @SyncTensorsGraph.568 attributes {mhlo.cross_program_prefetches = [], mhlo.input_output_alias = [], mhlo.is_dynamic = false, mhlo.use_auto_spmd_partitioning = false, ttcore.meshes = #ttcore.meshes<[<"mesh" = 4x16>]>} {
  ttcore.device_module {
    builtin.module @SyncTensorsGraph.568 attributes {mhlo.cross_program_prefetches = [], mhlo.input_output_alias = [], mhlo.is_dynamic = false, mhlo.use_auto_spmd_partitioning = false, ttcore.meshes = #ttcore.meshes<[<"mesh" = 4x16>]>} {
      func.func @main(%arg0: tensor<576x7168xbf16> {ttcore.argument_type = #ttcore.argument_type<parameter>, ttcore.local_shape = #ttcore<local_shape local_shape = tensor<576x448xbf16>>, ttcore.shard_status = #ttcore.shard_status<presharded>, ttir.name = "model.layers.0.self_attn.kv_a_proj_with_mqa.weight"} loc("p0.1"), %arg1: tensor<7168xbf16> {ttcore.argument_type = #ttcore.argument_type<parameter>, ttcore.local_shape = #ttcore<local_shape local_shape = tensor<448xbf16>>, ttcore.shard_status = #ttcore.shard_status<presharded>, ttir.name = "model.layers.0.input_layernorm.weight"} loc("p1.6"), %arg2: tensor<16x1xi64> {ttcore.argument_type = #ttcore.argument_type<input>, ttcore.local_shape = #ttcore<local_shape local_shape = tensor<4x1xi64>>, ttcore.shard_status = #ttcore.shard_status<presharded>, ttir.name = "args_0"} loc("p2.15"), %arg3: tensor<163840x7168xbf16> {ttcore.argument_type = #ttcore.argument_type<parameter>, ttcore.local_shape = #ttcore<local_shape local_shape = tensor<163840x448xbf16>>, ttcore.shard_status = #ttcore.shard_status<presharded>, ttir.name = "model.embed_tokens.weight"} loc("p3.20"), %arg4: tensor<1xi64> {ttcore.argument_type = #ttcore.argument_type<input>, ttcore.local_shape = #ttcore<local_shape local_shape = tensor<1xi64>>, ttcore.shard_status = #ttcore.shard_status<presharded>, ttir.name = "args_1"} loc("p4.65"), %arg5: tensor<16x1x128x512xbf16> {ttcore.argument_type = #ttcore.argument_type<input>, ttcore.local_shape = #ttcore<local_shape local_shape = tensor<4x1x128x512xbf16>>, ttcore.shard_status = #ttcore.shard_status<presharded>, ttir.name = "L__past_key_values___layers_0_compressed_kv"} loc("p5.79"), %arg6: tensor<16x1x128x64xbf16> {ttcore.argument_type = #ttcore.argument_type<input>, ttcore.local_shape = #ttcore<local_shape local_shape = tensor<4x1x128x64xbf16>>, ttcore.shard_status = #ttcore.shard_status<presharded>, ttir.name = "L__past_key_values___layers_0_k_pe"} loc("p6.232"), %arg7: tensor<163840x7168xbf16> {ttcore.argument_type = #ttcore.argument_type<parameter>, ttcore.local_shape = #ttcore<local_shape local_shape = tensor<40960x448xbf16>>, ttcore.shard_status = #ttcore.shard_status<presharded>, ttir.name = "lm_head.weight"} loc("p7.240"), %arg8: tensor<7168xbf16> {ttcore.argument_type = #ttcore.argument_type<parameter>, ttcore.local_shape = #ttcore<local_shape local_shape = tensor<448xbf16>>, ttcore.shard_status = #ttcore.shard_status<presharded>, ttir.name = "model.norm.weight"} loc("p8.245"), %arg9: tensor<7168x18432xbf16> {ttcore.argument_type = #ttcore.argument_type<parameter>, ttcore.local_shape = #ttcore<local_shape local_shape = tensor<448x4608xbf16>>, ttcore.shard_status = #ttcore.shard_status<presharded>, ttir.name = "model.layers.0.mlp.down_proj.weight"} loc("p9.255"), %arg10: tensor<18432x7168xbf16> {ttcore.argument_type = #ttcore.argument_type<parameter>, ttcore.local_shape = #ttcore<local_shape local_shape = tensor<4608x448xbf16>>, ttcore.shard_status = #ttcore.shard_status<presharded>, ttir.name = "model.layers.0.mlp.up_proj.weight"} loc("p10.260"), %arg11: tensor<7168xbf16> {ttcore.argument_type = #ttcore.argument_type<parameter>, ttcore.local_shape = #ttcore<local_shape local_shape = tensor<448xbf16>>, ttcore.shard_status = #ttcore.shard_status<presharded>, ttir.name = "model.layers.0.post_attention_layernorm.weight"} loc("p11.265"), %arg12: tensor<7168x8192xbf16> {ttcore.argument_type = #ttcore.argument_type<parameter>, ttcore.local_shape = #ttcore<local_shape local_shape = tensor<7168x512xbf16>>, ttcore.shard_status = #ttcore.shard_status<presharded>, ttir.name = "model.layers.0.self_attn.o_proj.weight"} loc("p12.275"), %arg13: tensor<16384x512xbf16> {ttcore.argument_type = #ttcore.argument_type<parameter>, ttcore.local_shape = #ttcore<local_shape local_shape = tensor<1024x512xbf16>>, ttcore.shard_status = #ttcore.shard_status<presharded>, ttir.name = "model.layers.0.self_attn.kv_b_proj.weight"} loc("p13.280"), %arg14: tensor<512xbf16> {ttcore.argument_type = #ttcore.argument_type<parameter>, ttcore.local_shape = #ttcore<local_shape local_shape = tensor<512xbf16>>, ttcore.shard_status = #ttcore.shard_status<presharded>, ttir.name = "model.layers.0.self_attn.kv_a_layernorm.weight"} loc("p14.285"), %arg15: tensor<12288x1536xbf16> {ttcore.argument_type = #ttcore.argument_type<parameter>, ttcore.local_shape = #ttcore<local_shape local_shape = tensor<768x1536xbf16>>, ttcore.shard_status = #ttcore.shard_status<presharded>, ttir.name = "model.layers.0.self_attn.q_b_proj.weight"} loc("p15.358"), %arg16: tensor<1536xbf16> {ttcore.argument_type = #ttcore.argument_type<parameter>, ttcore.local_shape = #ttcore<local_shape local_shape = tensor<1536xbf16>>, ttcore.shard_status = #ttcore.shard_status<presharded>, ttir.name = "model.layers.0.self_attn.q_a_layernorm.weight"} loc("p16.363"), %arg17: tensor<1536x7168xbf16> {ttcore.argument_type = #ttcore.argument_type<parameter>, ttcore.local_shape = #ttcore<local_shape local_shape = tensor<1536x448xbf16>>, ttcore.shard_status = #ttcore.shard_status<presharded>, ttir.name = "model.layers.0.self_attn.q_a_proj.weight"} loc("p17.372"), %arg18: tensor<18432x7168xbf16> {ttcore.argument_type = #ttcore.argument_type<parameter>, ttcore.local_shape = #ttcore<local_shape local_shape = tensor<4608x448xbf16>>, ttcore.shard_status = #ttcore.shard_status<presharded>, ttir.name = "model.layers.0.mlp.gate_proj.weight"} loc("p18.511")) -> (tensor<16x1x128x512xbf16> {ttcore.local_shape = #ttcore<local_shape local_shape = tensor<4x1x128x512xbf16>>, ttcore.shard_status = #ttcore.shard_status<presharded>}, tensor<16x1x128x64xbf16> {ttcore.local_shape = #ttcore<local_shape local_shape = tensor<4x1x128x64xbf16>>, ttcore.shard_status = #ttcore.shard_status<presharded>}, tensor<32xf64> {ttcore.local_shape = #ttcore<local_shape local_shape = tensor<32xf64>>, ttcore.shard_status = #ttcore.shard_status<presharded>}, tensor<128x64xbf16> {ttcore.local_shape = #ttcore<local_shape local_shape = tensor<128x64xbf16>>, ttcore.shard_status = #ttcore.shard_status<presharded>}, tensor<128x64xbf16> {ttcore.local_shape = #ttcore<local_shape local_shape = tensor<128x64xbf16>>, ttcore.shard_status = #ttcore.shard_status<presharded>}, tensor<16x1x163840xf32> {ttcore.local_shape = #ttcore<local_shape local_shape = tensor<16x1x40960xf32>>, ttcore.shard_status = #ttcore.shard_status<presharded>}) {
        %0 = "ttir.mesh_shard"(%arg0) <{shard_dims = array<i64: -1, 1>, shard_direction = #ttcore.shard_direction<full_to_shard>, shard_shape = array<i64: 1, 16>, shard_type = #ttcore.shard_type<identity>}> : (tensor<576x7168xbf16>) -> tensor<576x448xbf16> loc(#loc)
        %1 = "ttir.mesh_shard"(%arg1) <{shard_dims = array<i64: -1, 0>, shard_direction = #ttcore.shard_direction<full_to_shard>, shard_shape = array<i64: 16>, shard_type = #ttcore.shard_type<identity>}> : (tensor<7168xbf16>) -> tensor<448xbf16> loc(#loc)
        %2 = "ttir.mesh_shard"(%arg2) <{shard_dims = array<i64: 0, -1>, shard_direction = #ttcore.shard_direction<full_to_shard>, shard_shape = array<i64: 4, 1>, shard_type = #ttcore.shard_type<identity>}> : (tensor<16x1xi64>) -> tensor<4x1xi64> loc(#loc)
        %3 = "ttir.mesh_shard"(%arg3) <{shard_dims = array<i64: -1, 1>, shard_direction = #ttcore.shard_direction<full_to_shard>, shard_shape = array<i64: 1, 16>, shard_type = #ttcore.shard_type<identity>}> : (tensor<163840x7168xbf16>) -> tensor<163840x448xbf16> loc(#loc)
        %4 = "ttir.mesh_shard"(%arg4) <{shard_dims = array<i64: -1>, shard_direction = #ttcore.shard_direction<full_to_shard>, shard_shape = array<i64: 1>, shard_type = #ttcore.shard_type<identity>}> : (tensor<1xi64>) -> tensor<1xi64> loc(#loc)
        %5 = "ttir.mesh_shard"(%arg5) <{shard_dims = array<i64: 0, -1>, shard_direction = #ttcore.shard_direction<full_to_shard>, shard_shape = array<i64: 4, 1, 1, 1>, shard_type = #ttcore.shard_type<identity>}> : (tensor<16x1x128x512xbf16>) -> tensor<4x1x128x512xbf16> loc(#loc)
        %6 = "ttir.mesh_shard"(%arg6) <{shard_dims = array<i64: 0, -1>, shard_direction = #ttcore.shard_direction<full_to_shard>, shard_shape = array<i64: 4, 1, 1, 1>, shard_type = #ttcore.shard_type<identity>}> : (tensor<16x1x128x64xbf16>) -> tensor<4x1x128x64xbf16> loc(#loc)
        %7 = "ttir.mesh_shard"(%arg7) <{shard_dims = array<i64: 0, 1>, shard_direction = #ttcore.shard_direction<full_to_shard>, shard_shape = array<i64: 4, 16>, shard_type = #ttcore.shard_type<identity>}> : (tensor<163840x7168xbf16>) -> tensor<40960x448xbf16> loc(#loc)
        %8 = "ttir.mesh_shard"(%arg8) <{shard_dims = array<i64: -1, 0>, shard_direction = #ttcore.shard_direction<full_to_shard>, shard_shape = array<i64: 16>, shard_type = #ttcore.shard_type<identity>}> : (tensor<7168xbf16>) -> tensor<448xbf16> loc(#loc)
        %9 = "ttir.mesh_shard"(%arg9) <{shard_dims = array<i64: 1, 0>, shard_direction = #ttcore.shard_direction<full_to_shard>, shard_shape = array<i64: 16, 4>, shard_type = #ttcore.shard_type<identity>}> : (tensor<7168x18432xbf16>) -> tensor<448x4608xbf16> loc(#loc)
        %10 = "ttir.mesh_shard"(%arg10) <{shard_dims = array<i64: 0, 1>, shard_direction = #ttcore.shard_direction<full_to_shard>, shard_shape = array<i64: 4, 16>, shard_type = #ttcore.shard_type<identity>}> : (tensor<18432x7168xbf16>) -> tensor<4608x448xbf16> loc(#loc)
        %11 = "ttir.mesh_shard"(%arg11) <{shard_dims = array<i64: -1, 0>, shard_direction = #ttcore.shard_direction<full_to_shard>, shard_shape = array<i64: 16>, shard_type = #ttcore.shard_type<identity>}> : (tensor<7168xbf16>) -> tensor<448xbf16> loc(#loc)
        %12 = "ttir.mesh_shard"(%arg12) <{shard_dims = array<i64: -1, 1>, shard_direction = #ttcore.shard_direction<full_to_shard>, shard_shape = array<i64: 1, 16>, shard_type = #ttcore.shard_type<identity>}> : (tensor<7168x8192xbf16>) -> tensor<7168x512xbf16> loc(#loc)
        %13 = "ttir.mesh_shard"(%arg13) <{shard_dims = array<i64: -1, 0>, shard_direction = #ttcore.shard_direction<full_to_shard>, shard_shape = array<i64: 16, 1>, shard_type = #ttcore.shard_type<identity>}> : (tensor<16384x512xbf16>) -> tensor<1024x512xbf16> loc(#loc)
        %14 = "ttir.mesh_shard"(%arg14) <{shard_dims = array<i64: -1>, shard_direction = #ttcore.shard_direction<full_to_shard>, shard_shape = array<i64: 1>, shard_type = #ttcore.shard_type<identity>}> : (tensor<512xbf16>) -> tensor<512xbf16> loc(#loc)
        %15 = "ttir.mesh_shard"(%arg15) <{shard_dims = array<i64: -1, 0>, shard_direction = #ttcore.shard_direction<full_to_shard>, shard_shape = array<i64: 16, 1>, shard_type = #ttcore.shard_type<identity>}> : (tensor<12288x1536xbf16>) -> tensor<768x1536xbf16> loc(#loc)
        %16 = "ttir.mesh_shard"(%arg16) <{shard_dims = array<i64: -1>, shard_direction = #ttcore.shard_direction<full_to_shard>, shard_shape = array<i64: 1>, shard_type = #ttcore.shard_type<identity>}> : (tensor<1536xbf16>) -> tensor<1536xbf16> loc(#loc)
        %17 = "ttir.mesh_shard"(%arg17) <{shard_dims = array<i64: -1, 1>, shard_direction = #ttcore.shard_direction<full_to_shard>, shard_shape = array<i64: 1, 16>, shard_type = #ttcore.shard_type<identity>}> : (tensor<1536x7168xbf16>) -> tensor<1536x448xbf16> loc(#loc)
        %18 = "ttir.mesh_shard"(%arg18) <{shard_dims = array<i64: 0, 1>, shard_direction = #ttcore.shard_direction<full_to_shard>, shard_shape = array<i64: 4, 16>, shard_type = #ttcore.shard_type<identity>}> : (tensor<18432x7168xbf16>) -> tensor<4608x448xbf16> loc(#loc)
        %19 = "ttir.constant"() <{value = dense<0> : tensor<1xi64>}> : () -> tensor<1xi64> loc(#loc)
        %20 = "ttir.constant"() <{value = dense<128> : tensor<1xi64>}> : () -> tensor<1xi64> loc(#loc)
        %21 = "ttir.constant"() <{value = dense<"…"> : tensor<128xf64>}> : () -> tensor<128xf64> loc(#loc)
        %22 = "ttir.constant"() <{value = dense<1.000000e+00> : tensor<f32>}> : () -> tensor<f32> loc(#loc)
        %23 = "ttir.constant"() <{value = dense<5.000000e+04> : tensor<f32>}> : () -> tensor<f32> loc(#loc)
        %24 = "ttir.constant"() <{value = dense<[… > : tensor<32xf32>}> : () -> tensor<32xf32> loc(#loc)
        %25 = "ttir.constant"() <{value = dense<6.400000e+01> : tensor<f32>}> : () -> tensor<f32> loc(#loc)
        %26 = "ttir.constant"() <{value = dense<[… > : tensor<32xf64>}> : () -> tensor<32xf64> loc(#loc)
        %27 = "ttir.constant"() <{value = dense<[… > : tensor<32xf64>}> : () -> tensor<32xf64> loc(#loc)
        %28 = "ttir.constant"() <{value = dense<0> : tensor<1x1xi64>}> : () -> tensor<1x1xi64> loc(#loc)
        %29 = "ttir.constant"() <{value = dense<128> : tensor<1x1xi64>}> : () -> tensor<1x1xi64> loc(#loc)
        %30 = "ttir.constant"() <{value = dense<1.445310e-01> : tensor<bf16>}> : () -> tensor<bf16> loc(#loc)
        %31 = "ttir.constant"() <{value = dense<"…"> : tensor<1x128xi64>}> : () -> tensor<1x128xi64> loc(#loc)
        %32 = "ttir.constant"() <{value = dense<-3.389530e+38> : tensor<bf16>}> : () -> tensor<bf16> loc(#loc)
        %33 = "ttir.reshape"(%32) <{shape = [1 : i32, 1 : i32]}> : (tensor<bf16>) -> tensor<1x1xbf16> loc(#loc)
        %34 = "ttir.broadcast"(%33) <{broadcast_dimensions = array<i64: 1, 128>}> : (tensor<1x1xbf16>) -> tensor<1x128xbf16> loc(#loc)
        %35 = "ttir.reshape"(%30) <{shape = [1 : i32, 1 : i32, 1 : i32, 1 : i32]}> : (tensor<bf16>) -> tensor<1x1x1x1xbf16> loc(#loc)
        %36 = "ttir.broadcast"(%35) <{broadcast_dimensions = array<i64: 4, 4, 1, 128>}> : (tensor<1x1x1x1xbf16>) -> tensor<4x4x1x128xbf16> loc(#loc)
        %37 = "ttir.reshape"(%25) <{shape = [1 : i32]}> : (tensor<f32>) -> tensor<1xf32> loc(#loc)
        %38 = "ttir.broadcast"(%37) <{broadcast_dimensions = array<i64: 32>}> : (tensor<1xf32>) -> tensor<32xf32> loc(#loc)
        %39 = "ttir.reshape"(%23) <{shape = [1 : i32]}> : (tensor<f32>) -> tensor<1xf32> loc(#loc)
        %40 = "ttir.broadcast"(%39) <{broadcast_dimensions = array<i64: 32>}> : (tensor<1xf32>) -> tensor<32xf32> loc(#loc)
        %41 = "ttir.reshape"(%22) <{shape = [1 : i32]}> : (tensor<f32>) -> tensor<1xf32> loc(#loc)
        %42 = "ttir.broadcast"(%41) <{broadcast_dimensions = array<i64: 32>}> : (tensor<1xf32>) -> tensor<32xf32> loc(#loc)
        %43 = "ttir.lt"(%4, %19) : (tensor<1xi64>, tensor<1xi64>) -> tensor<1xi1> loc(#loc20)
        %44 = "ttir.add"(%4, %20) : (tensor<1xi64>, tensor<1xi64>) -> tensor<1xi64> loc(#loc21)
        %45 = "ttir.where"(%43, %44, %4) : (tensor<1xi1>, tensor<1xi64>, tensor<1xi64>) -> tensor<1xi64> loc(#loc22)
        %46 = "ttir.reshape"(%2) <{shape = [4 : i32]}> : (tensor<4x1xi64>) -> tensor<4xi64> loc(#loc167)
        %47 = "ttir.typecast"(%46) <{conservative_folding = false}> : (tensor<4xi64>) -> tensor<4xui32> loc(#loc25)
        %48 = "ttir.permute"(%3) <{permutation = array<i64: 0, 1>}> : (tensor<163840x448xbf16>) -> tensor<163840x448xbf16> loc(#loc168)
        %49 = "ttir.reshape"(%48) <{shape = [163840 : i32, 448 : i32]}> : (tensor<163840x448xbf16>) -> tensor<163840x448xbf16> loc(#loc169)
        %50 = "ttir.reshape"(%47) <{shape = [1 : i32, 4 : i32]}> : (tensor<4xui32>) -> tensor<1x4xui32> loc(#loc170)
        %51 = "ttir.embedding"(%50, %49) : (tensor<1x4xui32>, tensor<163840x448xbf16>) -> tensor<1x4x448xbf16> loc(#loc26)
        %52 = "ttir.reshape"(%51) <{shape = [4 : i32, 448 : i32]}> : (tensor<1x4x448xbf16>) -> tensor<4x448xbf16> loc(#loc171)
        %53 = "ttir.permute"(%52) <{permutation = array<i64: 0, 1>}> : (tensor<4x448xbf16>) -> tensor<4x448xbf16> loc(#loc172)
        %54 = "ttir.reshape"(%53) <{shape = [4 : i32, 1 : i32, 448 : i32]}> : (tensor<4x448xbf16>) -> tensor<4x1x448xbf16> loc(#loc27)
        %55 = "ttir.all_gather"(%54) <{all_gather_dim = 2 : si32, cluster_axis = 1 : ui32}> : (tensor<4x1x448xbf16>) -> tensor<4x1x7168xbf16> loc(#loc27)
        %56 = "ttir.all_gather"(%1) <{all_gather_dim = 0 : si32, cluster_axis = 1 : ui32}> : (tensor<448xbf16>) -> tensor<7168xbf16> loc(#loc28)
        %57 = "ttir.rms_norm"(%55, %56) <{epsilon = 9.99999974E-6 : f32, normalized_shape = array<i64: 7168>, operandSegmentSizes = array<i32: 1, 1, 0>}> : (tensor<4x1x7168xbf16>, tensor<7168xbf16>) -> tensor<4x1x7168xbf16> loc(#loc29)
        %58 = "ttir.reshape"(%57) <{shape = [4 : i32, 1 : i32, 16 : i32, 448 : i32]}> : (tensor<4x1x7168xbf16>) -> tensor<4x1x16x448xbf16> loc(#loc29)
        %59 = "ttir.all_to_all"(%58) <{concat_dim = 2 : si32, replica_groups = dense<[[0, 1, 2, 3, 4, 5, 6, 7, 8, 9, 10, 11, 12, 13, 14, 15], [16, 17, 18, 19, 20, 21, 22, 23, 24, 25, 26, 27, 28, 29, 30, 31], [32, 33, 34, 35, 36, 37, 38, 39, 40, 41, 42, 43, 44, 45, 46, 47], [48, 49, 50, 51, 52, 53, 54, 55, 56, 57, 58, 59, 60, 61, 62, 63]]> : tensor<4x16xi64>, split_count = 16 : si32, split_dim = 2 : si32}> : (tensor<4x1x16x448xbf16>) -> tensor<4x1x16x448xbf16> loc(#loc29)
        %60 = "ttir.slice_static"(%59) <{begins = [0 : i32, 0 : i32, 0 : i32, 0 : i32], ends = [4 : i32, 1 : i32, 1 : i32, 448 : i32], step = [1 : i32, 1 : i32, 1 : i32, 1 : i32]}> : (tensor<4x1x16x448xbf16>) -> tensor<4x1x1x448xbf16> loc(#loc29)
        %61 = "ttir.reshape"(%60) <{shape = [4 : i32, 448 : i32]}> : (tensor<4x1x1x448xbf16>) -> tensor<4x448xbf16> loc(#loc173)
        %62 = "ttir.permute"(%0) <{permutation = array<i64: 1, 0>}> : (tensor<576x448xbf16>) -> tensor<448x576xbf16> loc(#loc31)
        %63 = "ttir.dot_general"(%61, %62) <{batch_dims_lhs = array<i64>, batch_dims_rhs = array<i64>, contract_dims_lhs = array<i64: 1>, contract_dims_rhs = array<i64: 0>}> : (tensor<4x448xbf16>, tensor<448x576xbf16>) -> tensor<4x576xbf16> loc(#loc32)
        %64 = "ttir.all_reduce"(%63) <{cluster_axis = 1 : ui32, reduce_type = #ttcore.reduce_type<sum>}> : (tensor<4x576xbf16>) -> tensor<4x576xbf16> loc(#loc32)
        %65 = "ttir.reshape"(%64) <{shape = [4 : i32, 1 : i32, 576 : i32]}> : (tensor<4x576xbf16>) -> tensor<4x1x576xbf16> loc(#loc33)
        %66 = "ttir.slice_static"(%65) <{begins = [0 : i32, 0 : i32, 0 : i32], ends = [4 : i32, 1 : i32, 512 : i32], step = [1 : i32, 1 : i32, 1 : i32]}> : (tensor<4x1x576xbf16>) -> tensor<4x1x512xbf16> loc(#loc34)
        %67 = "ttir.reshape"(%66) <{shape = [4 : i32, 1 : i32, 1 : i32, 512 : i32]}> : (tensor<4x1x512xbf16>) -> tensor<4x1x1x512xbf16> loc(#loc35)
        %68 = "ttir.permute"(%67) <{permutation = array<i64: 2, 1, 0, 3>}> : (tensor<4x1x1x512xbf16>) -> tensor<1x1x4x512xbf16> loc(#loc36)
        %69 = "ttir.update_cache"(%5, %68, %4) <{batch_offset = 0 : i32}> : (tensor<4x1x128x512xbf16>, tensor<1x1x4x512xbf16>, tensor<1xi64>) -> tensor<4x1x128x512xbf16> loc(#loc36)
        %70 = "ttir.slice_static"(%65) <{begins = [0 : i32, 0 : i32, 512 : i32], ends = [4 : i32, 1 : i32, 576 : i32], step = [1 : i32, 1 : i32, 1 : i32]}> : (tensor<4x1x576xbf16>) -> tensor<4x1x64xbf16> loc(#loc37)
        %71 = "ttir.reshape"(%70) <{shape = [4 : i32, 1 : i32, 1 : i32, 32 : i32, 2 : i32]}> : (tensor<4x1x64xbf16>) -> tensor<4x1x1x32x2xbf16> loc(#loc38)
        %72 = "ttir.permute"(%71) <{permutation = array<i64: 0, 1, 2, 4, 3>}> : (tensor<4x1x1x32x2xbf16>) -> tensor<4x1x1x2x32xbf16> loc(#loc39)
        %73 = "ttir.reshape"(%72) <{shape = [4 : i32, 1 : i32, 1 : i32, 64 : i32]}> : (tensor<4x1x1x2x32xbf16>) -> tensor<4x1x1x64xbf16> loc(#loc40)
        %74 = "ttir.reshape"(%21) <{shape = [128 : i32, 1 : i32]}> : (tensor<128xf64>) -> tensor<128x1xf64> loc(#loc41)
        %75 = "ttir.broadcast"(%74) <{broadcast_dimensions = array<i64: 1, 32>}> : (tensor<128x1xf64>) -> tensor<128x32xf64> loc(#loc41)
        %76 = "ttir.pow"(%40, %24) : (tensor<32xf32>, tensor<32xf32>) -> tensor<32xf32> loc(#loc42)
        %77 = "ttir.multiply"(%76, %38) : (tensor<32xf32>, tensor<32xf32>) -> tensor<32xf32> loc(#loc43)
        %78 = "ttir.div"(%42, %77) : (tensor<32xf32>, tensor<32xf32>) -> tensor<32xf32> loc(#loc44)
        %79 = "ttir.typecast"(%78) <{conservative_folding = false}> : (tensor<32xf32>) -> tensor<32xf64> loc(#loc45)
        %80 = "ttir.multiply"(%79, %27) : (tensor<32xf64>, tensor<32xf64>) -> tensor<32xf64> loc(#loc46)
        %81 = "ttir.div"(%42, %76) : (tensor<32xf32>, tensor<32xf32>) -> tensor<32xf32> loc(#loc47)
        %82 = "ttir.typecast"(%81) <{conservative_folding = false}> : (tensor<32xf32>) -> tensor<32xf64> loc(#loc48)
        %83 = "ttir.multiply"(%82, %26) : (tensor<32xf64>, tensor<32xf64>) -> tensor<32xf64> loc(#loc49)
        %84 = "ttir.add"(%80, %83) : (tensor<32xf64>, tensor<32xf64>) -> tensor<32xf64> loc(#loc50)
        %85 = "ttir.reshape"(%84) <{shape = [1 : i32, 32 : i32]}> : (tensor<32xf64>) -> tensor<1x32xf64> loc(#loc51)
        %86 = "ttir.broadcast"(%85) <{broadcast_dimensions = array<i64: 128, 1>}> : (tensor<1x32xf64>) -> tensor<128x32xf64> loc(#loc51)
        %87 = "ttir.multiply"(%75, %86) : (tensor<128x32xf64>, tensor<128x32xf64>) -> tensor<128x32xf64> loc(#loc52)
        %88 = "ttir.typecast"(%87) <{conservative_folding = false}> : (tensor<128x32xf64>) -> tensor<128x32xf32> loc(#loc53)
        %89 = "ttir.concat"(%88, %88) <{dim = 1 : si32}> : (tensor<128x32xf32>, tensor<128x32xf32>) -> tensor<128x64xf32> loc(#loc54)
        %90 = "ttir.cos"(%89) : (tensor<128x64xf32>) -> tensor<128x64xf32> loc(#loc55)
        %91 = "ttir.typecast"(%90) <{conservative_folding = false}> : (tensor<128x64xf32>) -> tensor<128x64xbf16> loc(#loc56)
        %92 = "ttir.reshape"(%4) <{shape = [1 : i32, 1 : i32]}> : (tensor<1xi64>) -> tensor<1x1xi64> loc(#loc174)
        %93 = "ttir.lt"(%92, %28) : (tensor<1x1xi64>, tensor<1x1xi64>) -> tensor<1x1xi1> loc(#loc59)
        %94 = "ttir.add"(%92, %29) : (tensor<1x1xi64>, tensor<1x1xi64>) -> tensor<1x1xi64> loc(#loc60)
        %95 = "ttir.where"(%93, %94, %92) : (tensor<1x1xi1>, tensor<1x1xi64>, tensor<1x1xi64>) -> tensor<1x1xi64> loc(#loc61)
        %96 = "ttir.reshape"(%95) <{shape = [1 : i32, 1 : i32, 1 : i32]}> : (tensor<1x1xi64>) -> tensor<1x1x1xi64> loc(#loc62)
        %97 = "ttir.permute"(%91) <{permutation = array<i64: 0, 1>}> : (tensor<128x64xbf16>) -> tensor<128x64xbf16> loc(#loc175)
        %98 = "ttir.reshape"(%97) <{shape = [128 : i32, 64 : i32]}> : (tensor<128x64xbf16>) -> tensor<128x64xbf16> loc(#loc176)
        %99 = "ttir.reshape"(%96) <{shape = [1 : i32, 1 : i32]}> : (tensor<1x1x1xi64>) -> tensor<1x1xi64> loc(#loc177)
        %100 = "ttir.embedding"(%99, %98) : (tensor<1x1xi64>, tensor<128x64xbf16>) -> tensor<1x1x64xbf16> loc(#loc63)
        %101 = "ttir.reshape"(%100) <{shape = [1 : i32, 1 : i32, 64 : i32]}> : (tensor<1x1x64xbf16>) -> tensor<1x1x64xbf16> loc(#loc178)
        %102 = "ttir.permute"(%101) <{permutation = array<i64: 0, 1, 2>}> : (tensor<1x1x64xbf16>) -> tensor<1x1x64xbf16> loc(#loc179)
        %103 = "ttir.reshape"(%102) <{shape = [1 : i32, 1 : i32, 1 : i32, 64 : i32]}> : (tensor<1x1x64xbf16>) -> tensor<1x1x1x64xbf16> loc(#loc64)
        %104 = "ttir.broadcast"(%103) <{broadcast_dimensions = array<i64: 4, 1, 1, 1>}> : (tensor<1x1x1x64xbf16>) -> tensor<4x1x1x64xbf16> loc(#loc64)
        %105 = "ttir.multiply"(%73, %104) : (tensor<4x1x1x64xbf16>, tensor<4x1x1x64xbf16>) -> tensor<4x1x1x64xbf16> loc(#loc65)
        %106 = "ttir.slice_static"(%73) <{begins = [0 : i32, 0 : i32, 0 : i32, 32 : i32], ends = [4 : i32, 1 : i32, 1 : i32, 64 : i32], step = [1 : i32, 1 : i32, 1 : i32, 1 : i32]}> : (tensor<4x1x1x64xbf16>) -> tensor<4x1x1x32xbf16> loc(#loc66)
        %107 = "ttir.neg"(%106) : (tensor<4x1x1x32xbf16>) -> tensor<4x1x1x32xbf16> loc(#loc67)
        %108 = "ttir.slice_static"(%73) <{begins = [0 : i32, 0 : i32, 0 : i32, 0 : i32], ends = [4 : i32, 1 : i32, 1 : i32, 32 : i32], step = [1 : i32, 1 : i32, 1 : i32, 1 : i32]}> : (tensor<4x1x1x64xbf16>) -> tensor<4x1x1x32xbf16> loc(#loc68)
        %109 = "ttir.concat"(%107, %108) <{dim = 3 : si32}> : (tensor<4x1x1x32xbf16>, tensor<4x1x1x32xbf16>) -> tensor<4x1x1x64xbf16> loc(#loc69)
        %110 = "ttir.sin"(%89) : (tensor<128x64xf32>) -> tensor<128x64xf32> loc(#loc70)
        %111 = "ttir.typecast"(%110) <{conservative_folding = false}> : (tensor<128x64xf32>) -> tensor<128x64xbf16> loc(#loc71)
        %112 = "ttir.permute"(%111) <{permutation = array<i64: 0, 1>}> : (tensor<128x64xbf16>) -> tensor<128x64xbf16> loc(#loc180)
        %113 = "ttir.reshape"(%112) <{shape = [128 : i32, 64 : i32]}> : (tensor<128x64xbf16>) -> tensor<128x64xbf16> loc(#loc181)
        %114 = "ttir.embedding"(%99, %113) : (tensor<1x1xi64>, tensor<128x64xbf16>) -> tensor<1x1x64xbf16> loc(#loc72)
        %115 = "ttir.reshape"(%114) <{shape = [1 : i32, 1 : i32, 64 : i32]}> : (tensor<1x1x64xbf16>) -> tensor<1x1x64xbf16> loc(#loc182)
        %116 = "ttir.permute"(%115) <{permutation = array<i64: 0, 1, 2>}> : (tensor<1x1x64xbf16>) -> tensor<1x1x64xbf16> loc(#loc183)
        %117 = "ttir.reshape"(%116) <{shape = [1 : i32, 1 : i32, 1 : i32, 64 : i32]}> : (tensor<1x1x64xbf16>) -> tensor<1x1x1x64xbf16> loc(#loc73)
        %118 = "ttir.broadcast"(%117) <{broadcast_dimensions = array<i64: 4, 1, 1, 1>}> : (tensor<1x1x1x64xbf16>) -> tensor<4x1x1x64xbf16> loc(#loc73)
        %119 = "ttir.multiply"(%109, %118) : (tensor<4x1x1x64xbf16>, tensor<4x1x1x64xbf16>) -> tensor<4x1x1x64xbf16> loc(#loc74)
        %120 = "ttir.add"(%105, %119) : (tensor<4x1x1x64xbf16>, tensor<4x1x1x64xbf16>) -> tensor<4x1x1x64xbf16> loc(#loc75)
        %121 = "ttir.permute"(%120) <{permutation = array<i64: 2, 1, 0, 3>}> : (tensor<4x1x1x64xbf16>) -> tensor<1x1x4x64xbf16> loc(#loc76)
        %122 = "ttir.update_cache"(%6, %121, %4) <{batch_offset = 0 : i32}> : (tensor<4x1x128x64xbf16>, tensor<1x1x4x64xbf16>, tensor<1xi64>) -> tensor<4x1x128x64xbf16> loc(#loc76)
        %123 = "ttir.permute"(%17) <{permutation = array<i64: 1, 0>}> : (tensor<1536x448xbf16>) -> tensor<448x1536xbf16> loc(#loc77)
        %124 = "ttir.dot_general"(%61, %123) <{batch_dims_lhs = array<i64>, batch_dims_rhs = array<i64>, contract_dims_lhs = array<i64: 1>, contract_dims_rhs = array<i64: 0>}> : (tensor<4x448xbf16>, tensor<448x1536xbf16>) -> tensor<4x1536xbf16> loc(#loc78)
        %125 = "ttir.all_reduce"(%124) <{cluster_axis = 1 : ui32, reduce_type = #ttcore.reduce_type<sum>}> : (tensor<4x1536xbf16>) -> tensor<4x1536xbf16> loc(#loc78)
        %126 = "ttir.reshape"(%125) <{shape = [4 : i32, 1 : i32, 1536 : i32]}> : (tensor<4x1536xbf16>) -> tensor<4x1x1536xbf16> loc(#loc79)
        %127 = "ttir.rms_norm"(%126, %16) <{epsilon = 9.99999997E-7 : f32, normalized_shape = array<i64: 1536>, operandSegmentSizes = array<i32: 1, 1, 0>}> : (tensor<4x1x1536xbf16>, tensor<1536xbf16>) -> tensor<4x1x1536xbf16> loc(#loc80)
        %128 = "ttir.reshape"(%127) <{shape = [4 : i32, 1536 : i32]}> : (tensor<4x1x1536xbf16>) -> tensor<4x1536xbf16> loc(#loc81)
        %129 = "ttir.permute"(%15) <{permutation = array<i64: 1, 0>}> : (tensor<768x1536xbf16>) -> tensor<1536x768xbf16> loc(#loc82)
        %130 = "ttir.dot_general"(%128, %129) <{batch_dims_lhs = array<i64>, batch_dims_rhs = array<i64>, contract_dims_lhs = array<i64: 1>, contract_dims_rhs = array<i64: 0>}> : (tensor<4x1536xbf16>, tensor<1536x768xbf16>) -> tensor<4x768xbf16> loc(#loc83)
        %131 = "ttir.reshape"(%130) <{shape = [4 : i32, 4 : i32, 1 : i32, 192 : i32]}> : (tensor<4x768xbf16>) -> tensor<4x4x1x192xbf16> loc(#loc84)
        %132 = "ttir.slice_static"(%131) <{begins = [0 : i32, 0 : i32, 0 : i32, 0 : i32], ends = [4 : i32, 4 : i32, 1 : i32, 128 : i32], step = [1 : i32, 1 : i32, 1 : i32, 1 : i32]}> : (tensor<4x4x1x192xbf16>) -> tensor<4x4x1x128xbf16> loc(#loc85)
        %133 = "ttir.slice_static"(%131) <{begins = [0 : i32, 0 : i32, 0 : i32, 128 : i32], ends = [4 : i32, 4 : i32, 1 : i32, 192 : i32], step = [1 : i32, 1 : i32, 1 : i32, 1 : i32]}> : (tensor<4x4x1x192xbf16>) -> tensor<4x4x1x64xbf16> loc(#loc86)
        %134 = "ttir.reshape"(%133) <{shape = [4 : i32, 4 : i32, 1 : i32, 32 : i32, 2 : i32]}> : (tensor<4x4x1x64xbf16>) -> tensor<4x4x1x32x2xbf16> loc(#loc87)
        %135 = "ttir.permute"(%134) <{permutation = array<i64: 0, 1, 2, 4, 3>}> : (tensor<4x4x1x32x2xbf16>) -> tensor<4x4x1x2x32xbf16> loc(#loc88)
        %136 = "ttir.reshape"(%135) <{shape = [4 : i32, 4 : i32, 1 : i32, 64 : i32]}> : (tensor<4x4x1x2x32xbf16>) -> tensor<4x4x1x64xbf16> loc(#loc89)
        %137 = "ttir.reshape"(%102) <{shape = [1 : i32, 64 : i32]}> : (tensor<1x1x64xbf16>) -> tensor<1x64xbf16> loc(#loc90)
        %138 = "ttir.reshape"(%137) <{shape = [1 : i32, 1 : i32, 1 : i32, 64 : i32]}> : (tensor<1x64xbf16>) -> tensor<1x1x1x64xbf16> loc(#loc91)
        %139 = "ttir.broadcast"(%138) <{broadcast_dimensions = array<i64: 4, 4, 1, 1>}> : (tensor<1x1x1x64xbf16>) -> tensor<4x4x1x64xbf16> loc(#loc91)
        %140 = "ttir.multiply"(%136, %139) : (tensor<4x4x1x64xbf16>, tensor<4x4x1x64xbf16>) -> tensor<4x4x1x64xbf16> loc(#loc92)
        %141 = "ttir.slice_static"(%136) <{begins = [0 : i32, 0 : i32, 0 : i32, 32 : i32], ends = [4 : i32, 4 : i32, 1 : i32, 64 : i32], step = [1 : i32, 1 : i32, 1 : i32, 1 : i32]}> : (tensor<4x4x1x64xbf16>) -> tensor<4x4x1x32xbf16> loc(#loc93)
        %142 = "ttir.neg"(%141) : (tensor<4x4x1x32xbf16>) -> tensor<4x4x1x32xbf16> loc(#loc94)
        %143 = "ttir.slice_static"(%136) <{begins = [0 : i32, 0 : i32, 0 : i32, 0 : i32], ends = [4 : i32, 4 : i32, 1 : i32, 32 : i32], step = [1 : i32, 1 : i32, 1 : i32, 1 : i32]}> : (tensor<4x4x1x64xbf16>) -> tensor<4x4x1x32xbf16> loc(#loc95)
        %144 = "ttir.concat"(%142, %143) <{dim = 3 : si32}> : (tensor<4x4x1x32xbf16>, tensor<4x4x1x32xbf16>) -> tensor<4x4x1x64xbf16> loc(#loc96)
        %145 = "ttir.reshape"(%116) <{shape = [1 : i32, 64 : i32]}> : (tensor<1x1x64xbf16>) -> tensor<1x64xbf16> loc(#loc97)
        %146 = "ttir.reshape"(%145) <{shape = [1 : i32, 1 : i32, 1 : i32, 64 : i32]}> : (tensor<1x64xbf16>) -> tensor<1x1x1x64xbf16> loc(#loc98)
        %147 = "ttir.broadcast"(%146) <{broadcast_dimensions = array<i64: 4, 4, 1, 1>}> : (tensor<1x1x1x64xbf16>) -> tensor<4x4x1x64xbf16> loc(#loc98)
        %148 = "ttir.multiply"(%144, %147) : (tensor<4x4x1x64xbf16>, tensor<4x4x1x64xbf16>) -> tensor<4x4x1x64xbf16> loc(#loc99)
        %149 = "ttir.add"(%140, %148) : (tensor<4x4x1x64xbf16>, tensor<4x4x1x64xbf16>) -> tensor<4x4x1x64xbf16> loc(#loc100)
        %150 = "ttir.concat"(%132, %149) <{dim = 3 : si32}> : (tensor<4x4x1x128xbf16>, tensor<4x4x1x64xbf16>) -> tensor<4x4x1x192xbf16> loc(#loc101)
        %151 = "ttir.reshape"(%69) <{shape = [4 : i32, 128 : i32, 512 : i32]}> : (tensor<4x1x128x512xbf16>) -> tensor<4x128x512xbf16> loc(#loc102)
        %152 = "ttir.rms_norm"(%151, %14) <{epsilon = 9.99999997E-7 : f32, normalized_shape = array<i64: 512>, operandSegmentSizes = array<i32: 1, 1, 0>}> : (tensor<4x128x512xbf16>, tensor<512xbf16>) -> tensor<4x128x512xbf16> loc(#loc103)
        %153 = "ttir.reshape"(%152) <{shape = [512 : i32, 512 : i32]}> : (tensor<4x128x512xbf16>) -> tensor<512x512xbf16> loc(#loc104)
        %154 = "ttir.permute"(%13) <{permutation = array<i64: 1, 0>}> : (tensor<1024x512xbf16>) -> tensor<512x1024xbf16> loc(#loc105)
        %155 = "ttir.dot_general"(%153, %154) <{batch_dims_lhs = array<i64>, batch_dims_rhs = array<i64>, contract_dims_lhs = array<i64: 1>, contract_dims_rhs = array<i64: 0>}> : (tensor<512x512xbf16>, tensor<512x1024xbf16>) -> tensor<512x1024xbf16> loc(#loc106)
        %156 = "ttir.reshape"(%155) <{shape = [4 : i32, 128 : i32, 4 : i32, 256 : i32]}> : (tensor<512x1024xbf16>) -> tensor<4x128x4x256xbf16> loc(#loc107)
        %157 = "ttir.permute"(%156) <{permutation = array<i64: 0, 2, 1, 3>}> : (tensor<4x128x4x256xbf16>) -> tensor<4x4x128x256xbf16> loc(#loc108)
        %158 = "ttir.slice_static"(%157) <{begins = [0 : i32, 0 : i32, 0 : i32, 0 : i32], ends = [4 : i32, 4 : i32, 128 : i32, 128 : i32], step = [1 : i32, 1 : i32, 1 : i32, 1 : i32]}> : (tensor<4x4x128x256xbf16>) -> tensor<4x4x128x128xbf16> loc(#loc109)
        %159 = "ttir.reshape"(%122) <{shape = [4 : i32, 128 : i32, 64 : i32]}> : (tensor<4x1x128x64xbf16>) -> tensor<4x128x64xbf16> loc(#loc110)
        %160 = "ttir.reshape"(%159) <{shape = [4 : i32, 1 : i32, 128 : i32, 64 : i32]}> : (tensor<4x128x64xbf16>) -> tensor<4x1x128x64xbf16> loc(#loc111)
        %161 = "ttir.broadcast"(%160) <{broadcast_dimensions = array<i64: 1, 4, 1, 1>}> : (tensor<4x1x128x64xbf16>) -> tensor<4x4x128x64xbf16> loc(#loc111)
        %162 = "ttir.concat"(%158, %161) <{dim = 3 : si32}> : (tensor<4x4x128x128xbf16>, tensor<4x4x128x64xbf16>) -> tensor<4x4x128x192xbf16> loc(#loc112)
        %163 = "ttir.permute"(%162) <{permutation = array<i64: 0, 1, 3, 2>}> : (tensor<4x4x128x192xbf16>) -> tensor<4x4x192x128xbf16> loc(#loc113)
        %164 = "ttir.dot_general"(%150, %163) <{batch_dims_lhs = array<i64: 0, 1>, batch_dims_rhs = array<i64: 0, 1>, contract_dims_lhs = array<i64: 3>, contract_dims_rhs = array<i64: 2>}> : (tensor<4x4x1x192xbf16>, tensor<4x4x192x128xbf16>) -> tensor<4x4x1x128xbf16> loc(#loc114)
        %165 = "ttir.multiply"(%164, %36) : (tensor<4x4x1x128xbf16>, tensor<4x4x1x128xbf16>) -> tensor<4x4x1x128xbf16> loc(#loc115)
        %166 = "ttir.broadcast"(%92) <{broadcast_dimensions = array<i64: 1, 128>}> : (tensor<1x1xi64>) -> tensor<1x128xi64> loc(#loc116)
        %167 = "ttir.gt"(%31, %166) : (tensor<1x128xi64>, tensor<1x128xi64>) -> tensor<1x128xi1> loc(#loc117)
        %168 = "ttir.typecast"(%167) <{conservative_folding = false}> : (tensor<1x128xi1>) -> tensor<1x128xbf16> loc(#loc118)
        %169 = "ttir.multiply"(%168, %34) : (tensor<1x128xbf16>, tensor<1x128xbf16>) -> tensor<1x128xbf16> loc(#loc119)
        %170 = "ttir.reshape"(%169) <{shape = [1 : i32, 1 : i32, 128 : i32]}> : (tensor<1x128xbf16>) -> tensor<1x1x128xbf16> loc(#loc120)
        %171 = "ttir.reshape"(%170) <{shape = [1 : i32, 1 : i32, 1 : i32, 128 : i32]}> : (tensor<1x1x128xbf16>) -> tensor<1x1x1x128xbf16> loc(#loc121)
        %172 = "ttir.broadcast"(%171) <{broadcast_dimensions = array<i64: 4, 1, 1, 1>}> : (tensor<1x1x1x128xbf16>) -> tensor<4x1x1x128xbf16> loc(#loc121)
        %173 = "ttir.reshape"(%172) <{shape = [4 : i32, 1 : i32, 128 : i32]}> : (tensor<4x1x1x128xbf16>) -> tensor<4x1x128xbf16> loc(#loc122)
        %174 = "ttir.reshape"(%173) <{shape = [4 : i32, 1 : i32, 1 : i32, 128 : i32]}> : (tensor<4x1x128xbf16>) -> tensor<4x1x1x128xbf16> loc(#loc123)
        %175 = "ttir.broadcast"(%174) <{broadcast_dimensions = array<i64: 1, 4, 1, 1>}> : (tensor<4x1x1x128xbf16>) -> tensor<4x4x1x128xbf16> loc(#loc123)
        %176 = "ttir.add"(%165, %175) : (tensor<4x4x1x128xbf16>, tensor<4x4x1x128xbf16>) -> tensor<4x4x1x128xbf16> loc(#loc124)
        %177 = "ttir.typecast"(%176) <{conservative_folding = false}> : (tensor<4x4x1x128xbf16>) -> tensor<4x4x1x128xf32> loc(#loc125)
        %178 = "ttir.max"(%177) <{dim_arg = [3 : i32], keep_dim = false}> : (tensor<4x4x1x128xf32>) -> tensor<4x4x1xf32> loc(#loc126)
        %179 = "ttir.reshape"(%178) <{shape = [4 : i32, 4 : i32, 1 : i32, 1 : i32]}> : (tensor<4x4x1xf32>) -> tensor<4x4x1x1xf32> loc(#loc127)
        %180 = "ttir.broadcast"(%179) <{broadcast_dimensions = array<i64: 1, 1, 1, 128>}> : (tensor<4x4x1x1xf32>) -> tensor<4x4x1x128xf32> loc(#loc127)
        %181 = "ttir.subtract"(%177, %180) : (tensor<4x4x1x128xf32>, tensor<4x4x1x128xf32>) -> tensor<4x4x1x128xf32> loc(#loc128)
        %182 = "ttir.exp"(%181) : (tensor<4x4x1x128xf32>) -> tensor<4x4x1x128xf32> loc(#loc129)
        %183 = "ttir.sum"(%182) <{dim_arg = [3 : i32], keep_dim = false}> : (tensor<4x4x1x128xf32>) -> tensor<4x4x1xf32> loc(#loc130)
        %184 = "ttir.reshape"(%183) <{shape = [4 : i32, 4 : i32, 1 : i32, 1 : i32]}> : (tensor<4x4x1xf32>) -> tensor<4x4x1x1xf32> loc(#loc131)
        %185 = "ttir.broadcast"(%184) <{broadcast_dimensions = array<i64: 1, 1, 1, 128>}> : (tensor<4x4x1x1xf32>) -> tensor<4x4x1x128xf32> loc(#loc131)
        %186 = "ttir.div"(%182, %185) : (tensor<4x4x1x128xf32>, tensor<4x4x1x128xf32>) -> tensor<4x4x1x128xf32> loc(#loc132)
        %187 = "ttir.typecast"(%186) <{conservative_folding = false}> : (tensor<4x4x1x128xf32>) -> tensor<4x4x1x128xbf16> loc(#loc133)
        %188 = "ttir.slice_static"(%157) <{begins = [0 : i32, 0 : i32, 0 : i32, 128 : i32], ends = [4 : i32, 4 : i32, 128 : i32, 256 : i32], step = [1 : i32, 1 : i32, 1 : i32, 1 : i32]}> : (tensor<4x4x128x256xbf16>) -> tensor<4x4x128x128xbf16> loc(#loc134)
        %189 = "ttir.dot_general"(%187, %188) <{batch_dims_lhs = array<i64: 0, 1>, batch_dims_rhs = array<i64: 0, 1>, contract_dims_lhs = array<i64: 3>, contract_dims_rhs = array<i64: 2>}> : (tensor<4x4x1x128xbf16>, tensor<4x4x128x128xbf16>) -> tensor<4x4x1x128xbf16> loc(#loc135)
        %190 = "ttir.reshape"(%189) <{shape = [4 : i32, 512 : i32]}> : (tensor<4x4x1x128xbf16>) -> tensor<4x512xbf16> loc(#loc136)
        %191 = "ttir.permute"(%12) <{permutation = array<i64: 1, 0>}> : (tensor<7168x512xbf16>) -> tensor<512x7168xbf16> loc(#loc137)
        %192 = "ttir.dot_general"(%190, %191) <{batch_dims_lhs = array<i64>, batch_dims_rhs = array<i64>, contract_dims_lhs = array<i64: 1>, contract_dims_rhs = array<i64: 0>}> : (tensor<4x512xbf16>, tensor<512x7168xbf16>) -> tensor<4x7168xbf16> loc(#loc138)
        %193 = "ttir.reduce_scatter"(%192) <{cluster_axis = 1 : ui32, reduce_type = #ttcore.reduce_type<sum>, scatter_dim = 1 : si32}> : (tensor<4x7168xbf16>) -> tensor<4x448xbf16> loc(#loc138)
        %194 = "ttir.reshape"(%193) <{shape = [4 : i32, 1 : i32, 448 : i32]}> : (tensor<4x448xbf16>) -> tensor<4x1x448xbf16> loc(#loc139)
        %195 = "ttir.add"(%54, %194) : (tensor<4x1x448xbf16>, tensor<4x1x448xbf16>) -> tensor<4x1x448xbf16> loc(#loc140)
        %196 = "ttir.all_gather"(%195) <{all_gather_dim = 2 : si32, cluster_axis = 1 : ui32}> : (tensor<4x1x448xbf16>) -> tensor<4x1x7168xbf16> loc(#loc140)
        %197 = "ttir.all_gather"(%11) <{all_gather_dim = 0 : si32, cluster_axis = 1 : ui32}> : (tensor<448xbf16>) -> tensor<7168xbf16> loc(#loc141)
        %198 = "ttir.rms_norm"(%196, %197) <{epsilon = 9.99999974E-6 : f32, normalized_shape = array<i64: 7168>, operandSegmentSizes = array<i32: 1, 1, 0>}> : (tensor<4x1x7168xbf16>, tensor<7168xbf16>) -> tensor<4x1x7168xbf16> loc(#loc142)
        %199 = "ttir.reshape"(%198) <{shape = [4 : i32, 1 : i32, 16 : i32, 448 : i32]}> : (tensor<4x1x7168xbf16>) -> tensor<4x1x16x448xbf16> loc(#loc142)
        %200 = "ttir.all_to_all"(%199) <{concat_dim = 2 : si32, replica_groups = dense<[[0, 1, 2, 3, 4, 5, 6, 7, 8, 9, 10, 11, 12, 13, 14, 15], [16, 17, 18, 19, 20, 21, 22, 23, 24, 25, 26, 27, 28, 29, 30, 31], [32, 33, 34, 35, 36, 37, 38, 39, 40, 41, 42, 43, 44, 45, 46, 47], [48, 49, 50, 51, 52, 53, 54, 55, 56, 57, 58, 59, 60, 61, 62, 63]]> : tensor<4x16xi64>, split_count = 16 : si32, split_dim = 2 : si32}> : (tensor<4x1x16x448xbf16>) -> tensor<4x1x16x448xbf16> loc(#loc142)
        %201 = "ttir.slice_static"(%200) <{begins = [0 : i32, 0 : i32, 0 : i32, 0 : i32], ends = [4 : i32, 1 : i32, 1 : i32, 448 : i32], step = [1 : i32, 1 : i32, 1 : i32, 1 : i32]}> : (tensor<4x1x16x448xbf16>) -> tensor<4x1x1x448xbf16> loc(#loc142)
        %202 = "ttir.reshape"(%201) <{shape = [4 : i32, 448 : i32]}> : (tensor<4x1x1x448xbf16>) -> tensor<4x448xbf16> loc(#loc184)
        %203 = "ttir.permute"(%18) <{permutation = array<i64: 1, 0>}> : (tensor<4608x448xbf16>) -> tensor<448x4608xbf16> loc(#loc144)
        %204 = "ttir.all_gather"(%202) <{all_gather_dim = 0 : si32, cluster_axis = 0 : ui32}> : (tensor<4x448xbf16>) -> tensor<16x448xbf16> loc(#loc143)
        %205 = "ttir.dot_general"(%204, %203) <{batch_dims_lhs = array<i64>, batch_dims_rhs = array<i64>, contract_dims_lhs = array<i64: 1>, contract_dims_rhs = array<i64: 0>}> : (tensor<16x448xbf16>, tensor<448x4608xbf16>) -> tensor<16x4608xbf16> loc(#loc145)
        %206 = "ttir.all_reduce"(%205) <{cluster_axis = 1 : ui32, reduce_type = #ttcore.reduce_type<sum>}> : (tensor<16x4608xbf16>) -> tensor<16x4608xbf16> loc(#loc145)
        %207 = "ttir.reshape"(%206) <{shape = [16 : i32, 1 : i32, 4608 : i32]}> : (tensor<16x4608xbf16>) -> tensor<16x1x4608xbf16> loc(#loc146)
        %208 = "ttir.typecast"(%207) <{conservative_folding = false}> : (tensor<16x1x4608xbf16>) -> tensor<16x1x4608xf32> loc(#loc147)
        %209 = "ttir.sigmoid"(%208) : (tensor<16x1x4608xf32>) -> tensor<16x1x4608xf32> loc(#loc148)
        %210 = "ttir.multiply"(%208, %209) : (tensor<16x1x4608xf32>, tensor<16x1x4608xf32>) -> tensor<16x1x4608xf32> loc(#loc149)
        %211 = "ttir.typecast"(%210) <{conservative_folding = false}> : (tensor<16x1x4608xf32>) -> tensor<16x1x4608xbf16> loc(#loc150)
        %212 = "ttir.permute"(%10) <{permutation = array<i64: 1, 0>}> : (tensor<4608x448xbf16>) -> tensor<448x4608xbf16> loc(#loc151)
        %213 = "ttir.dot_general"(%204, %212) <{batch_dims_lhs = array<i64>, batch_dims_rhs = array<i64>, contract_dims_lhs = array<i64: 1>, contract_dims_rhs = array<i64: 0>}> : (tensor<16x448xbf16>, tensor<448x4608xbf16>) -> tensor<16x4608xbf16> loc(#loc152)
        %214 = "ttir.all_reduce"(%213) <{cluster_axis = 1 : ui32, reduce_type = #ttcore.reduce_type<sum>}> : (tensor<16x4608xbf16>) -> tensor<16x4608xbf16> loc(#loc152)
        %215 = "ttir.reshape"(%214) <{shape = [16 : i32, 1 : i32, 4608 : i32]}> : (tensor<16x4608xbf16>) -> tensor<16x1x4608xbf16> loc(#loc153)
        %216 = "ttir.multiply"(%211, %215) : (tensor<16x1x4608xbf16>, tensor<16x1x4608xbf16>) -> tensor<16x1x4608xbf16> loc(#loc154)
        %217 = "ttir.reshape"(%216) <{shape = [16 : i32, 4608 : i32]}> : (tensor<16x1x4608xbf16>) -> tensor<16x4608xbf16> loc(#loc155)
        %218 = "ttir.permute"(%9) <{permutation = array<i64: 1, 0>}> : (tensor<448x4608xbf16>) -> tensor<4608x448xbf16> loc(#loc156)
        %219 = "ttir.dot_general"(%217, %218) <{batch_dims_lhs = array<i64>, batch_dims_rhs = array<i64>, contract_dims_lhs = array<i64: 1>, contract_dims_rhs = array<i64: 0>}> : (tensor<16x4608xbf16>, tensor<4608x448xbf16>) -> tensor<16x448xbf16> loc(#loc157)
        %220 = "ttir.reduce_scatter"(%219) <{cluster_axis = 0 : ui32, reduce_type = #ttcore.reduce_type<sum>, scatter_dim = 0 : si32}> : (tensor<16x448xbf16>) -> tensor<4x448xbf16> loc(#loc157)
        %221 = "ttir.reshape"(%220) <{shape = [4 : i32, 1 : i32, 448 : i32]}> : (tensor<4x448xbf16>) -> tensor<4x1x448xbf16> loc(#loc158)
        %222 = "ttir.add"(%195, %221) : (tensor<4x1x448xbf16>, tensor<4x1x448xbf16>) -> tensor<4x1x448xbf16> loc(#loc159)
        %223 = "ttir.all_gather"(%222) <{all_gather_dim = 2 : si32, cluster_axis = 1 : ui32}> : (tensor<4x1x448xbf16>) -> tensor<4x1x7168xbf16> loc(#loc159)
        %224 = "ttir.all_gather"(%8) <{all_gather_dim = 0 : si32, cluster_axis = 1 : ui32}> : (tensor<448xbf16>) -> tensor<7168xbf16> loc(#loc160)
        %225 = "ttir.rms_norm"(%223, %224) <{epsilon = 9.99999974E-6 : f32, normalized_shape = array<i64: 7168>, operandSegmentSizes = array<i32: 1, 1, 0>}> : (tensor<4x1x7168xbf16>, tensor<7168xbf16>) -> tensor<4x1x7168xbf16> loc(#loc161)
        %226 = "ttir.reshape"(%225) <{shape = [4 : i32, 1 : i32, 16 : i32, 448 : i32]}> : (tensor<4x1x7168xbf16>) -> tensor<4x1x16x448xbf16> loc(#loc161)
        %227 = "ttir.all_to_all"(%226) <{concat_dim = 2 : si32, replica_groups = dense<[[0, 1, 2, 3, 4, 5, 6, 7, 8, 9, 10, 11, 12, 13, 14, 15], [16, 17, 18, 19, 20, 21, 22, 23, 24, 25, 26, 27, 28, 29, 30, 31], [32, 33, 34, 35, 36, 37, 38, 39, 40, 41, 42, 43, 44, 45, 46, 47], [48, 49, 50, 51, 52, 53, 54, 55, 56, 57, 58, 59, 60, 61, 62, 63]]> : tensor<4x16xi64>, split_count = 16 : si32, split_dim = 2 : si32}> : (tensor<4x1x16x448xbf16>) -> tensor<4x1x16x448xbf16> loc(#loc161)
        %228 = "ttir.slice_static"(%227) <{begins = [0 : i32, 0 : i32, 0 : i32, 0 : i32], ends = [4 : i32, 1 : i32, 1 : i32, 448 : i32], step = [1 : i32, 1 : i32, 1 : i32, 1 : i32]}> : (tensor<4x1x16x448xbf16>) -> tensor<4x1x1x448xbf16> loc(#loc161)
        %229 = "ttir.reshape"(%228) <{shape = [4 : i32, 448 : i32]}> : (tensor<4x1x1x448xbf16>) -> tensor<4x448xbf16> loc(#loc185)
        %230 = "ttir.permute"(%7) <{permutation = array<i64: 1, 0>}> : (tensor<40960x448xbf16>) -> tensor<448x40960xbf16> loc(#loc163)
        %231 = "ttir.all_gather"(%229) <{all_gather_dim = 0 : si32, cluster_axis = 0 : ui32}> : (tensor<4x448xbf16>) -> tensor<16x448xbf16> loc(#loc162)
        %232 = "ttir.dot_general"(%231, %230) <{batch_dims_lhs = array<i64>, batch_dims_rhs = array<i64>, contract_dims_lhs = array<i64: 1>, contract_dims_rhs = array<i64: 0>}> : (tensor<16x448xbf16>, tensor<448x40960xbf16>) -> tensor<16x40960xbf16> loc(#loc164)
        %233 = "ttir.all_reduce"(%232) <{cluster_axis = 1 : ui32, reduce_type = #ttcore.reduce_type<sum>}> : (tensor<16x40960xbf16>) -> tensor<16x40960xbf16> loc(#loc164)
        %234 = "ttir.reshape"(%233) <{shape = [16 : i32, 1 : i32, 40960 : i32]}> : (tensor<16x40960xbf16>) -> tensor<16x1x40960xbf16> loc(#loc165)
        %235 = "ttir.typecast"(%234) <{conservative_folding = false}> : (tensor<16x1x40960xbf16>) -> tensor<16x1x40960xf32> loc(#loc166)
        %236 = "ttir.mesh_shard"(%69) <{shard_dims = array<i64: 0, -1>, shard_direction = #ttcore.shard_direction<shard_to_full>, shard_shape = array<i64: 4, 1, 1, 1>, shard_type = #ttcore.shard_type<identity>}> : (tensor<4x1x128x512xbf16>) -> tensor<16x1x128x512xbf16> loc(#loc)
        %237 = "ttir.mesh_shard"(%122) <{shard_dims = array<i64: 0, -1>, shard_direction = #ttcore.shard_direction<shard_to_full>, shard_shape = array<i64: 4, 1, 1, 1>, shard_type = #ttcore.shard_type<identity>}> : (tensor<4x1x128x64xbf16>) -> tensor<16x1x128x64xbf16> loc(#loc)
        %238 = "ttir.mesh_shard"(%84) <{shard_dims = array<i64: -1>, shard_direction = #ttcore.shard_direction<shard_to_full>, shard_shape = array<i64: 1>, shard_type = #ttcore.shard_type<identity>}> : (tensor<32xf64>) -> tensor<32xf64> loc(#loc)
        %239 = "ttir.mesh_shard"(%91) <{shard_dims = array<i64: -1>, shard_direction = #ttcore.shard_direction<shard_to_full>, shard_shape = array<i64: 1>, shard_type = #ttcore.shard_type<identity>}> : (tensor<128x64xbf16>) -> tensor<128x64xbf16> loc(#loc)
        %240 = "ttir.mesh_shard"(%111) <{shard_dims = array<i64: -1>, shard_direction = #ttcore.shard_direction<shard_to_full>, shard_shape = array<i64: 1>, shard_type = #ttcore.shard_type<identity>}> : (tensor<128x64xbf16>) -> tensor<128x64xbf16> loc(#loc)
        %241 = "ttir.mesh_shard"(%235) <{shard_dims = array<i64: 2, -1>, shard_direction = #ttcore.shard_direction<shard_to_full>, shard_shape = array<i64: 1, 1, 4>, shard_type = #ttcore.shard_type<identity>}> : (tensor<16x1x40960xf32>) -> tensor<16x1x163840xf32> loc(#loc)
        return %236, %237, %238, %239, %240, %241 : tensor<16x1x128x512xbf16>, tensor<16x1x128x64xbf16>, tensor<32xf64>, tensor<128x64xbf16>, tensor<128x64xbf16>, tensor<16x1x163840xf32> loc(#loc)
      } loc(#loc)
    } loc(#loc)
  } loc(#loc)
} loc(#loc)
#loc = loc(unknown)
#loc20 = loc("compare.75")
#loc21 = loc("add.72")
#loc22 = loc("select.76")
#loc23 = loc("reshape.19")
#loc24 = loc("reshape.16")
#loc25 = loc("convert.24")
#loc26 = loc("gather.25")
#loc27 = loc("reshape.26")
#loc28 = loc("reshape.9")
#loc29 = loc("custom-call.59")
#loc30 = loc("reshape.60")
#loc31 = loc("transpose.5")
#loc32 = loc("dot.61")
#loc33 = loc("reshape.62")
#loc34 = loc("slice.63")
#loc35 = loc("reshape.64")
#loc36 = loc("scatter.85")
#loc37 = loc("slice.185")
#loc38 = loc("reshape.188")
#loc39 = loc("transpose.189")
#loc40 = loc("reshape.190")
#loc41 = loc("broadcast.173")
#loc42 = loc("power.154")
#loc43 = loc("multiply.156")
#loc44 = loc("divide.159")
#loc45 = loc("convert.162")
#loc46 = loc("multiply.163")
#loc47 = loc("divide.133")
#loc48 = loc("convert.136")
#loc49 = loc("multiply.137")
#loc50 = loc("add.167")
#loc51 = loc("broadcast.171")
#loc52 = loc("multiply.174")
#loc53 = loc("convert.175")
#loc54 = loc("concatenate.177")
#loc55 = loc("cosine.209")
#loc56 = loc("convert.212")
#loc57 = loc("reshape.88")
#loc58 = loc("reshape.66")
#loc59 = loc("compare.204")
#loc60 = loc("add.201")
#loc61 = loc("select.205")
#loc62 = loc("reshape.206")
#loc63 = loc("gather.214")
#loc64 = loc("broadcast.217")
#loc65 = loc("multiply.218")
#loc66 = loc("slice.192")
#loc67 = loc("negate.193")
#loc68 = loc("slice.191")
#loc69 = loc("concatenate.194")
#loc70 = loc("sine.178")
#loc71 = loc("convert.181")
#loc72 = loc("gather.183")
#loc73 = loc("broadcast.196")
#loc74 = loc("multiply.197")
#loc75 = loc("add.221")
#loc76 = loc("scatter.238")
#loc77 = loc("transpose.376")
#loc78 = loc("dot.378")
#loc79 = loc("reshape.379")
#loc80 = loc("custom-call.412")
#loc81 = loc("reshape.413")
#loc82 = loc("transpose.362")
#loc83 = loc("dot.414")
#loc84 = loc("transpose.417")
#loc85 = loc("slice.435")
#loc86 = loc("slice.418")
#loc87 = loc("reshape.419")
#loc88 = loc("transpose.420")
#loc89 = loc("reshape.421")
#loc90 = loc("reshape.429")
#loc91 = loc("broadcast.430")
#loc92 = loc("multiply.431")
#loc93 = loc("slice.423")
#loc94 = loc("negate.424")
#loc95 = loc("slice.422")
#loc96 = loc("concatenate.425")
#loc97 = loc("reshape.426")
#loc98 = loc("broadcast.427")
#loc99 = loc("multiply.428")
#loc100 = loc("add.434")
#loc101 = loc("concatenate.436")
#loc102 = loc("reshape.294")
#loc103 = loc("custom-call.327")
#loc104 = loc("reshape.328")
#loc105 = loc("transpose.284")
#loc106 = loc("dot.329")
#loc107 = loc("reshape.331")
#loc108 = loc("transpose.332")
#loc109 = loc("slice.354")
#loc110 = loc("reshape.352")
#loc111 = loc("broadcast.353")
#loc112 = loc("concatenate.355")
#loc113 = loc("transpose.356")
#loc114 = loc("dot.437")
#loc115 = loc("multiply.440")
#loc116 = loc("broadcast.340")
#loc117 = loc("compare.341")
#loc118 = loc("convert.342")
#loc119 = loc("multiply.344")
#loc120 = loc("reshape.345")
#loc121 = loc("broadcast.349")
#loc122 = loc("reshape.443")
#loc123 = loc("broadcast.444")
#loc124 = loc("add.445")
#loc125 = loc("convert.446")
#loc126 = loc("reduce.452")
#loc127 = loc("broadcast.453")
#loc128 = loc("subtract.454")
#loc129 = loc("exponential.455")
#loc130 = loc("reduce.461")
#loc131 = loc("broadcast.462")
#loc132 = loc("divide.463")
#loc133 = loc("convert.464")
#loc134 = loc("slice.333")
#loc135 = loc("dot.465")
#loc136 = loc("reshape.469")
#loc137 = loc("transpose.279")
#loc138 = loc("dot.470")
#loc139 = loc("reshape.471")
#loc140 = loc("add.474")
#loc141 = loc("reshape.268")
#loc142 = loc("custom-call.507")
#loc143 = loc("reshape.516")
#loc144 = loc("transpose.515")
#loc145 = loc("dot.517")
#loc146 = loc("reshape.518")
#loc147 = loc("convert.519")
#loc148 = loc("logistic.520")
#loc149 = loc("multiply.521")
#loc150 = loc("convert.522")
#loc151 = loc("transpose.264")
#loc152 = loc("dot.509")
#loc153 = loc("reshape.510")
#loc154 = loc("multiply.523")
#loc155 = loc("reshape.524")
#loc156 = loc("transpose.259")
#loc157 = loc("dot.525")
#loc158 = loc("reshape.526")
#loc159 = loc("add.529")
#loc160 = loc("reshape.248")
#loc161 = loc("custom-call.562")
#loc162 = loc("reshape.563")
#loc163 = loc("transpose.244")
#loc164 = loc("dot.564")
#loc165 = loc("reshape.565")
#loc166 = loc("convert.566")
#loc167 = loc(fused[#loc23, #loc24])
#loc168 = loc("gather.25_permuteInput"(#loc26))
#loc169 = loc("gather.25_reshapeInput"(#loc26))
#loc170 = loc("gather.25_reshapeStartIndices"(#loc26))
#loc171 = loc("gather.25_reshapeOutput"(#loc26))
#loc172 = loc("gather.25_permuteOutput"(#loc26))
#loc173 = loc(fused[#loc30, #loc29])
#loc174 = loc(fused[#loc57, #loc58])
#loc175 = loc("gather.214_permuteInput"(#loc63))
#loc176 = loc("gather.214_reshapeInput"(#loc63))
#loc177 = loc("gather.214_reshapeStartIndices"(#loc63))
#loc178 = loc("gather.214_reshapeOutput"(#loc63))
#loc179 = loc("gather.214_permuteOutput"(#loc63))
#loc180 = loc("gather.183_permuteInput"(#loc72))
#loc181 = loc("gather.183_reshapeInput"(#loc72))
#loc182 = loc("gather.183_reshapeOutput"(#loc72))
#loc183 = loc("gather.183_permuteOutput"(#loc72))
#loc184 = loc(fused[#loc143, #loc142])
#loc185 = loc(fused[#loc162, #loc161])
